#dram = #ttnn.buffer_type<dram>
#loc = loc(unknown)
#loc18 = loc("convolution.3029")
#loc19 = loc("convolution.3134")
#loc20 = loc("convolution.1429")
#loc31 = loc("p0.2")
#loc32 = loc("p1.10")
#loc33 = loc("p2.21")
#loc34 = loc("p3.25")
#loc35 = loc("p4.28")
#loc36 = loc("p5.35")
#loc37 = loc("p6.45")
#loc38 = loc("p7.49")
#loc39 = loc("p8.83")
#loc40 = loc("p9.87")
#loc41 = loc("p10.90")
#loc42 = loc("p11.97")
#loc43 = loc("p12.107")
#loc44 = loc("p13.111")
#loc45 = loc("p14.114")
#loc46 = loc("p15.121")
#loc47 = loc("p16.133")
#loc48 = loc("p17.137")
#loc49 = loc("p18.140")
#loc50 = loc("p19.147")
#loc51 = loc("p20.157")
#loc52 = loc("p21.161")
#loc53 = loc("p22.164")
#loc54 = loc("p23.171")
#loc55 = loc("p24.183")
#loc56 = loc("p25.187")
#loc57 = loc("p26.190")
#loc58 = loc("p27.197")
#loc59 = loc("p28.207")
#loc60 = loc("p29.211")
#loc61 = loc("p30.214")
#loc62 = loc("p31.221")
#loc63 = loc("p32.231")
#loc64 = loc("p33.235")
#loc65 = loc("p34.269")
#loc66 = loc("p35.273")
#loc67 = loc("p36.276")
#loc68 = loc("p37.283")
#loc69 = loc("p38.293")
#loc70 = loc("p39.297")
#loc71 = loc("p40.300")
#loc72 = loc("p41.307")
#loc73 = loc("p42.319")
#loc74 = loc("p43.323")
#loc75 = loc("p44.326")
#loc76 = loc("p45.333")
#loc77 = loc("p46.343")
#loc78 = loc("p47.347")
#loc79 = loc("p48.350")
#loc80 = loc("p49.357")
#loc81 = loc("p50.369")
#loc82 = loc("p51.373")
#loc83 = loc("p52.376")
#loc84 = loc("p53.383")
#loc85 = loc("p54.393")
#loc86 = loc("p55.397")
#loc87 = loc("p56.400")
#loc88 = loc("p57.407")
#loc89 = loc("p58.417")
#loc90 = loc("p59.421")
#loc91 = loc("p60.455")
#loc92 = loc("p61.459")
#loc93 = loc("p62.462")
#loc94 = loc("p63.469")
#loc95 = loc("p64.479")
#loc96 = loc("p65.483")
#loc97 = loc("p66.486")
#loc98 = loc("p67.493")
#loc99 = loc("p68.505")
#loc100 = loc("p69.509")
#loc101 = loc("p70.512")
#loc102 = loc("p71.519")
#loc103 = loc("p72.529")
#loc104 = loc("p73.533")
#loc105 = loc("p74.536")
#loc106 = loc("p75.543")
#loc107 = loc("p76.555")
#loc108 = loc("p77.559")
#loc109 = loc("p78.562")
#loc110 = loc("p79.569")
#loc111 = loc("p80.579")
#loc112 = loc("p81.583")
#loc113 = loc("p82.586")
#loc114 = loc("p83.593")
#loc115 = loc("p84.605")
#loc116 = loc("p85.609")
#loc117 = loc("p86.612")
#loc118 = loc("p87.619")
#loc119 = loc("p88.629")
#loc120 = loc("p89.633")
#loc121 = loc("p90.636")
#loc122 = loc("p91.643")
#loc123 = loc("p92.657")
#loc124 = loc("p93.661")
#loc125 = loc("p94.664")
#loc126 = loc("p95.671")
#loc127 = loc("p96.681")
#loc128 = loc("p97.685")
#loc129 = loc("p98.688")
#loc130 = loc("p99.695")
#loc131 = loc("p100.705")
#loc132 = loc("p101.709")
#loc133 = loc("p102.711")
#loc134 = loc("p103.903")
#loc135 = loc("p104.907")
#loc136 = loc("p105.913")
#loc137 = loc("p106.917")
#loc138 = loc("p107.923")
#loc139 = loc("p108.929")
#loc140 = loc("p109.1037")
#loc141 = loc("p110.1041")
#loc142 = loc("p111.1062")
#loc143 = loc("p112.1066")
#loc144 = loc("p113.2653")
#loc145 = loc("p114.2657")
#loc179 = loc("multiply.1011")
#loc183 = loc("add.1077")
#loc484 = loc("compare.263")
#loc485 = loc("transpose.1023")
#loc486 = loc("compare.248")
#loc487 = loc("transpose.1045")
#loc488 = loc("transpose.921")
#loc489 = loc("compare.77")
#loc490 = loc("compare.449")
#loc491 = loc("compare.434")
#loc492 = loc("compare.62")
#system_desc = #ttcore.system_desc<[{role = host, target_triple = "x86_64-pc-linux"}], [{arch = <wormhole_b0>, grid = 8x8, coord_translation_offsets = 18x18, l1_size = 1499136, num_dram_channels = 12, dram_channel_size = 1073741824, noc_l1_address_align_bytes = 16, pcie_address_align_bytes = 32, noc_dram_address_align_bytes = 32, l1_unreserved_base = 103776, erisc_l1_unreserved_base = 98304, dram_unreserved_base = 1920032, dram_unreserved_end = 1073136448, supported_data_types = [<f32>, <f16>, <bf16>, <bfp_f8>, <bfp_bf8>, <bfp_f4>, <bfp_bf4>, <bfp_f2>, <bfp_bf2>, <u32>, <u16>, <u8>, <si32>], supported_tile_sizes = [ 4x16,  16x16,  32x16,  4x32,  16x32,  32x32], dst_physical_size_tiles = 16, num_cbs = 64, num_compute_threads = 1, num_datamovement_threads = 2, dram_grid = 1x12, dram_bank_to_logical_worker_noc0 = [(7, 3), (0, 2), (3, 0), (4, 0), (2, 6), (7, 7), (0, 4), (6, 4), (5, 4), (1, 4), (3, 4), (4, 4)], dram_bank_to_logical_worker_noc1 = [(7, 3), (0, 2), (3, 0), (4, 0), (2, 6), (7, 7), (0, 4), (6, 4), (5, 4), (1, 4), (3, 4), (4, 4)]}, {arch = <wormhole_b0>, grid = 8x8, coord_translation_offsets = 18x18, l1_size = 1499136, num_dram_channels = 12, dram_channel_size = 1073741824, noc_l1_address_align_bytes = 16, pcie_address_align_bytes = 32, noc_dram_address_align_bytes = 32, l1_unreserved_base = 103776, erisc_l1_unreserved_base = 98304, dram_unreserved_base = 1920032, dram_unreserved_end = 1073136448, supported_data_types = [<f32>, <f16>, <bf16>, <bfp_f8>, <bfp_bf8>, <bfp_f4>, <bfp_bf4>, <bfp_f2>, <bfp_bf2>, <u32>, <u16>, <u8>, <si32>], supported_tile_sizes = [ 4x16,  16x16,  32x16,  4x32,  16x32,  32x32], dst_physical_size_tiles = 16, num_cbs = 64, num_compute_threads = 1, num_datamovement_threads = 2, dram_grid = 1x12, dram_bank_to_logical_worker_noc0 = [(7, 0), (0, 0), (2, 0), (3, 0), (0, 4), (7, 4), (1, 4), (5, 4), (4, 4), (6, 7), (2, 4), (3, 4)], dram_bank_to_logical_worker_noc1 = [(7, 0), (0, 0), (2, 0), (3, 0), (0, 4), (7, 4), (1, 4), (5, 4), (4, 4), (6, 7), (2, 4), (3, 4)]}, {arch = <wormhole_b0>, grid = 8x8, coord_translation_offsets = 18x18, l1_size = 1499136, num_dram_channels = 12, dram_channel_size = 1073741824, noc_l1_address_align_bytes = 16, pcie_address_align_bytes = 32, noc_dram_address_align_bytes = 32, l1_unreserved_base = 103776, erisc_l1_unreserved_base = 98304, dram_unreserved_base = 1920032, dram_unreserved_end = 1073136448, supported_data_types = [<f32>, <f16>, <bf16>, <bfp_f8>, <bfp_bf8>, <bfp_f4>, <bfp_bf4>, <bfp_f2>, <bfp_bf2>, <u32>, <u16>, <u8>, <si32>], supported_tile_sizes = [ 4x16,  16x16,  32x16,  4x32,  16x32,  32x32], dst_physical_size_tiles = 16, num_cbs = 64, num_compute_threads = 1, num_datamovement_threads = 2, dram_grid = 1x12, dram_bank_to_logical_worker_noc0 = [(7, 3), (0, 0), (3, 0), (4, 0), (0, 4), (7, 7), (2, 6), (6, 4), (5, 4), (1, 4), (3, 4), (4, 4)], dram_bank_to_logical_worker_noc1 = [(7, 3), (0, 0), (3, 0), (4, 0), (0, 4), (7, 7), (2, 6), (6, 4), (5, 4), (1, 4), (3, 4), (4, 4)]}, {arch = <wormhole_b0>, grid = 8x8, coord_translation_offsets = 18x18, l1_size = 1499136, num_dram_channels = 12, dram_channel_size = 1073741824, noc_l1_address_align_bytes = 16, pcie_address_align_bytes = 32, noc_dram_address_align_bytes = 32, l1_unreserved_base = 103776, erisc_l1_unreserved_base = 98304, dram_unreserved_base = 1920032, dram_unreserved_end = 1073136448, supported_data_types = [<f32>, <f16>, <bf16>, <bfp_f8>, <bfp_bf8>, <bfp_f4>, <bfp_bf4>, <bfp_f2>, <bfp_bf2>, <u32>, <u16>, <u8>, <si32>], supported_tile_sizes = [ 4x16,  16x16,  32x16,  4x32,  16x32,  32x32], dst_physical_size_tiles = 16, num_cbs = 64, num_compute_threads = 1, num_datamovement_threads = 2, dram_grid = 1x12, dram_bank_to_logical_worker_noc0 = [(7, 3), (0, 0), (4, 0), (5, 0), (0, 4), (7, 7), (1, 4), (6, 4), (3, 6), (2, 4), (4, 4), (5, 4)], dram_bank_to_logical_worker_noc1 = [(7, 3), (0, 0), (4, 0), (5, 0), (0, 4), (7, 7), (1, 4), (6, 4), (3, 6), (2, 4), (4, 4), (5, 4)]}, {arch = <wormhole_b0>, grid = 8x8, coord_translation_offsets = 18x18, l1_size = 1499136, num_dram_channels = 12, dram_channel_size = 1073741824, noc_l1_address_align_bytes = 16, pcie_address_align_bytes = 32, noc_dram_address_align_bytes = 32, l1_unreserved_base = 103776, erisc_l1_unreserved_base = 98304, dram_unreserved_base = 1920032, dram_unreserved_end = 1073153760, supported_data_types = [<f32>, <f16>, <bf16>, <bfp_f8>, <bfp_bf8>, <bfp_f4>, <bfp_bf4>, <bfp_f2>, <bfp_bf2>, <u32>, <u16>, <u8>, <si32>], supported_tile_sizes = [ 4x16,  16x16,  32x16,  4x32,  16x32,  32x32], dst_physical_size_tiles = 16, num_cbs = 64, num_compute_threads = 1, num_datamovement_threads = 2, dram_grid = 1x12, dram_bank_to_logical_worker_noc0 = [(7, 3), (0, 0), (4, 0), (5, 0), (0, 4), (3, 7), (1, 4), (7, 4), (6, 4), (2, 4), (4, 4), (5, 4)], dram_bank_to_logical_worker_noc1 = [(7, 3), (0, 0), (4, 0), (5, 0), (0, 4), (3, 7), (1, 4), (7, 4), (6, 4), (2, 4), (4, 4), (5, 4)]}, {arch = <wormhole_b0>, grid = 8x8, coord_translation_offsets = 18x18, l1_size = 1499136, num_dram_channels = 12, dram_channel_size = 1073741824, noc_l1_address_align_bytes = 16, pcie_address_align_bytes = 32, noc_dram_address_align_bytes = 32, l1_unreserved_base = 103776, erisc_l1_unreserved_base = 98304, dram_unreserved_base = 1920032, dram_unreserved_end = 1073153760, supported_data_types = [<f32>, <f16>, <bf16>, <bfp_f8>, <bfp_bf8>, <bfp_f4>, <bfp_bf4>, <bfp_f2>, <bfp_bf2>, <u32>, <u16>, <u8>, <si32>], supported_tile_sizes = [ 4x16,  16x16,  32x16,  4x32,  16x32,  32x32], dst_physical_size_tiles = 16, num_cbs = 64, num_compute_threads = 1, num_datamovement_threads = 2, dram_grid = 1x12, dram_bank_to_logical_worker_noc0 = [(7, 3), (0, 0), (4, 0), (5, 0), (0, 4), (7, 7), (1, 4), (3, 6), (6, 4), (2, 4), (4, 4), (5, 4)], dram_bank_to_logical_worker_noc1 = [(7, 3), (0, 0), (4, 0), (5, 0), (0, 4), (7, 7), (1, 4), (3, 6), (6, 4), (2, 4), (4, 4), (5, 4)]}, {arch = <wormhole_b0>, grid = 8x8, coord_translation_offsets = 18x18, l1_size = 1499136, num_dram_channels = 12, dram_channel_size = 1073741824, noc_l1_address_align_bytes = 16, pcie_address_align_bytes = 32, noc_dram_address_align_bytes = 32, l1_unreserved_base = 103776, erisc_l1_unreserved_base = 98304, dram_unreserved_base = 1920032, dram_unreserved_end = 1073153760, supported_data_types = [<f32>, <f16>, <bf16>, <bfp_f8>, <bfp_bf8>, <bfp_f4>, <bfp_bf4>, <bfp_f2>, <bfp_bf2>, <u32>, <u16>, <u8>, <si32>], supported_tile_sizes = [ 4x16,  16x16,  32x16,  4x32,  16x32,  32x32], dst_physical_size_tiles = 16, num_cbs = 64, num_compute_threads = 1, num_datamovement_threads = 2, dram_grid = 1x12, dram_bank_to_logical_worker_noc0 = [(7, 0), (0, 0), (1, 3), (1, 2), (0, 4), (7, 4), (1, 4), (5, 4), (4, 4), (2, 4), (3, 7), (3, 6)], dram_bank_to_logical_worker_noc1 = [(7, 0), (0, 0), (1, 3), (1, 2), (0, 4), (7, 4), (1, 4), (5, 4), (4, 4), (2, 4), (3, 7), (3, 6)]}, {arch = <wormhole_b0>, grid = 8x8, coord_translation_offsets = 18x18, l1_size = 1499136, num_dram_channels = 12, dram_channel_size = 1073741824, noc_l1_address_align_bytes = 16, pcie_address_align_bytes = 32, noc_dram_address_align_bytes = 32, l1_unreserved_base = 103776, erisc_l1_unreserved_base = 98304, dram_unreserved_base = 1920032, dram_unreserved_end = 1073153760, supported_data_types = [<f32>, <f16>, <bf16>, <bfp_f8>, <bfp_bf8>, <bfp_f4>, <bfp_bf4>, <bfp_f2>, <bfp_bf2>, <u32>, <u16>, <u8>, <si32>], supported_tile_sizes = [ 4x16,  16x16,  32x16,  4x32,  16x32,  32x32], dst_physical_size_tiles = 16, num_cbs = 64, num_compute_threads = 1, num_datamovement_threads = 2, dram_grid = 1x12, dram_bank_to_logical_worker_noc0 = [(7, 3), (0, 0), (4, 0), (1, 2), (0, 4), (7, 7), (1, 4), (6, 4), (5, 4), (2, 4), (4, 4), (3, 6)], dram_bank_to_logical_worker_noc1 = [(7, 3), (0, 0), (4, 0), (1, 2), (0, 4), (7, 7), (1, 4), (6, 4), (5, 4), (2, 4), (4, 4), (3, 6)]}], [0, 1, 2, 3, 4, 5, 6, 7], [1 : i32, 1 : i32, 1 : i32, 1 : i32, 0 : i32, 0 : i32, 0 : i32, 0 : i32], [ 0x0x0x0], [<[0, 6, 0], [3, 6, 0]>, <[0, 7, 0], [3, 7, 0]>, <[0, 9, 0], [4, 1, 0]>, <[0, 14, 0], [1, 14, 0]>, <[0, 15, 0], [1, 15, 0]>, <[1, 0, 0], [2, 0, 0]>, <[1, 1, 0], [2, 1, 0]>, <[1, 9, 0], [6, 1, 0]>, <[2, 9, 0], [7, 1, 0]>, <[2, 14, 0], [3, 14, 0]>, <[2, 15, 0], [3, 15, 0]>, <[3, 9, 0], [5, 1, 0]>, <[4, 6, 0], [6, 6, 0]>, <[5, 6, 0], [7, 6, 0]>]>
#system_memory = #ttnn.buffer_type<system_memory>
#loc635 = loc("transpose.1023_tm0"(#loc485))
#loc650 = loc("transpose.1023_tm0_tm0"(#loc635))
#ttnn_layout = #ttnn.ttnn_layout<(d0) -> (0, d0), <1x1>, memref<1x512xbf16, #system_memory>>
#ttnn_layout1 = #ttnn.ttnn_layout<(d0, d1, d2, d3) -> (d0 + d1 + d2, d3), <1x1>, memref<1x512xbf16, #system_memory>>
#ttnn_layout2 = #ttnn.ttnn_layout<(d0) -> (0, d0), <1x1>, memref<1x512xf32, #system_memory>>
#ttnn_layout3 = #ttnn.ttnn_layout<(d0, d1, d2, d3) -> (d0 + d1 + d2, d3), <1x1>, memref<1x512xf32, #system_memory>>
#ttnn_layout4 = #ttnn.ttnn_layout<(d0, d1, d2, d3) -> (d0 * 1024 + d1 * 32 + d2, d3), <1x1>, memref<32x1x!ttcore.tile<32x32, f32>, #dram>, <interleaved>>
#ttnn_layout5 = #ttnn.ttnn_layout<(d0, d1, d2, d3) -> (d0 * 512 + d1 * 16 + d2, d3), <1x1>, memref<512x1xf32, #system_memory>>
#ttnn_layout6 = #ttnn.ttnn_layout<(d0, d1, d2, d3) -> (d0 * 1024 + d1 * 32 + d2, d3), <1x1>, memref<32x1x!ttcore.tile<32x32, f32>, #system_memory>>
#ttnn_layout7 = #ttnn.ttnn_layout<(d0, d1) -> (d0, d1), <1x1>, memref<12x23x!ttcore.tile<32x32, bf16>, #dram>, <interleaved>>
#ttnn_layout8 = #ttnn.ttnn_layout<(d0, d1) -> (d0, d1), <1x1>, memref<360x720xf32, #system_memory>>
#ttnn_layout9 = #ttnn.ttnn_layout<(d0, d1) -> (d0, d1), <1x1>, memref<360x720xbf16, #system_memory>>
#ttnn_layout10 = #ttnn.ttnn_layout<(d0, d1) -> (d0, d1), <1x1>, memref<12x23x!ttcore.tile<32x32, bf16>, #system_memory>>
#ttnn_layout11 = #ttnn.ttnn_layout<(d0) -> (0, d0), <1x1>, memref<1x256xbf16, #system_memory>>
#ttnn_layout12 = #ttnn.ttnn_layout<(d0) -> (0, d0), <1x1>, memref<1x256xf32, #system_memory>>
#ttnn_layout13 = #ttnn.ttnn_layout<(d0, d1, d2, d3) -> (d0 * 256 + d1 * 8 + d2, d3), <1x1>, memref<256x1xf32, #system_memory>>
#ttnn_layout14 = #ttnn.ttnn_layout<(d0, d1) -> (d0, d1), <1x1>, memref<3x6x!ttcore.tile<32x32, bf16>, #dram>, <interleaved>>
#ttnn_layout15 = #ttnn.ttnn_layout<(d0, d1) -> (d0, d1), <1x1>, memref<90x180xf32, #system_memory>>
#ttnn_layout16 = #ttnn.ttnn_layout<(d0, d1) -> (d0, d1), <1x1>, memref<90x180xbf16, #system_memory>>
#ttnn_layout17 = #ttnn.ttnn_layout<(d0, d1) -> (d0, d1), <1x1>, memref<3x6x!ttcore.tile<32x32, bf16>, #system_memory>>
#ttnn_layout18 = #ttnn.ttnn_layout<(d0, d1) -> (d0, d1), <1x1>, memref<512x512xbf16, #system_memory>>
#ttnn_layout19 = #ttnn.ttnn_layout<(d0, d1) -> (d0, d1), <1x1>, memref<16x48x!ttcore.tile<32x32, bf16>, #dram>, <interleaved>>
#ttnn_layout20 = #ttnn.ttnn_layout<(d0, d1) -> (d0, d1), <1x1>, memref<512x512xf32, #system_memory>>
#ttnn_layout21 = #ttnn.ttnn_layout<(d0, d1) -> (d0, d1), <1x1>, memref<512x1536xf32, #system_memory>>
#ttnn_layout22 = #ttnn.ttnn_layout<(d0, d1) -> (d0, d1), <1x1>, memref<512x1536xbf16, #system_memory>>
#ttnn_layout23 = #ttnn.ttnn_layout<(d0, d1) -> (d0, d1), <1x1>, memref<16x48x!ttcore.tile<32x32, bf16>, #system_memory>>
#ttnn_layout24 = #ttnn.ttnn_layout<(d0) -> (0, d0), <1x1>, memref<1x48x!ttcore.tile<32x32, bf16>, #dram>, <interleaved>>
#ttnn_layout25 = #ttnn.ttnn_layout<(d0) -> (0, d0), <1x1>, memref<1x1536xf32, #system_memory>>
#ttnn_layout26 = #ttnn.ttnn_layout<(d0) -> (0, d0), <1x1>, memref<1x1536xbf16, #system_memory>>
#ttnn_layout27 = #ttnn.ttnn_layout<(d0) -> (0, d0), <1x1>, memref<1x48x!ttcore.tile<32x32, bf16>, #system_memory>>
#ttnn_layout28 = #ttnn.ttnn_layout<(d0, d1, d2, d3) -> (d0 * 32 + d1 * 32 + d2, d3), <1x1>, memref<1x1x!ttcore.tile<32x32, bf16>, #dram>, <interleaved>>
#ttnn_layout29 = #ttnn.ttnn_layout<(d0, d1) -> (d0, d1), <1x1>, memref<10x20x!ttcore.tile<32x32, bf16>, #dram>, <interleaved>>
#ttnn_layout30 = #ttnn.ttnn_layout<(d0, d1) -> (d0, d1), <1x1>, memref<320x640xf32, #system_memory>>
#ttnn_layout31 = #ttnn.ttnn_layout<(d0, d1) -> (d0, d1), <1x1>, memref<320x640xbf16, #system_memory>>
#ttnn_layout32 = #ttnn.ttnn_layout<(d0, d1) -> (d0, d1), <1x1>, memref<10x20x!ttcore.tile<32x32, bf16>, #system_memory>>
#ttnn_layout33 = #ttnn.ttnn_layout<(d0) -> (0, d0), <1x1>, memref<1x128xbf16, #system_memory>>
#ttnn_layout34 = #ttnn.ttnn_layout<(d0, d1, d2, d3) -> (d0 * 32 + d1 * 32 + d2, d3), <1x1>, memref<1x4x!ttcore.tile<32x32, bf16>, #dram>, <interleaved>>
#ttnn_layout35 = #ttnn.ttnn_layout<(d0) -> (0, d0), <1x1>, memref<1x128xbf16, #dram>, <interleaved>>
#ttnn_layout36 = #ttnn.ttnn_layout<(d0) -> (0, d0), <1x1>, memref<1x4x!ttcore.tile<32x32, bf16>, #dram>, <interleaved>>
#ttnn_layout37 = #ttnn.ttnn_layout<(d0, d1, d2, d3) -> (d0 + d1 + d2, d3), <1x1>, memref<1x256xbf16, #system_memory>>
#ttnn_layout38 = #ttnn.ttnn_layout<(d0, d1, d2, d3) -> (d0 + d1 + d2, d3), <1x1>, memref<1x256xf32, #system_memory>>
#ttnn_layout39 = #ttnn.ttnn_layout<(d0, d1) -> (d0, d1), <1x1>, memref<5x10x!ttcore.tile<32x32, bf16>, #dram>, <interleaved>>
#ttnn_layout40 = #ttnn.ttnn_layout<(d0, d1) -> (d0, d1), <1x1>, memref<160x320xf32, #system_memory>>
#ttnn_layout41 = #ttnn.ttnn_layout<(d0, d1) -> (d0, d1), <1x1>, memref<160x320xbf16, #system_memory>>
#ttnn_layout42 = #ttnn.ttnn_layout<(d0, d1) -> (d0, d1), <1x1>, memref<5x10x!ttcore.tile<32x32, bf16>, #system_memory>>
#ttnn_layout43 = #ttnn.ttnn_layout<(d0, d1, d2, d3) -> (d0 + d1 + d2, d3), <1x1>, memref<1x128xbf16, #system_memory>>
#ttnn_layout44 = #ttnn.ttnn_layout<(d0) -> (0, d0), <1x1>, memref<1x128xf32, #system_memory>>
#ttnn_layout45 = #ttnn.ttnn_layout<(d0, d1, d2, d3) -> (d0 + d1 + d2, d3), <1x1>, memref<1x128xf32, #system_memory>>
#ttnn_layout46 = #ttnn.ttnn_layout<(d0, d1, d2, d3) -> (d0 * 32 + d1 * 32 + d2, d3), <1x1>, memref<1x1x!ttcore.tile<32x32, f32>, #dram>, <interleaved>>
#ttnn_layout47 = #ttnn.ttnn_layout<(d0, d1) -> (d0, d1), <1x1>, memref<20x40x!ttcore.tile<32x32, bf16>, #dram>, <interleaved>>
#ttnn_layout48 = #ttnn.ttnn_layout<(d0, d1) -> (d0, d1), <1x1>, memref<640x1280xf32, #system_memory>>
#ttnn_layout49 = #ttnn.ttnn_layout<(d0, d1) -> (d0, d1), <1x1>, memref<640x1280xbf16, #system_memory>>
#ttnn_layout50 = #ttnn.ttnn_layout<(d0, d1) -> (d0, d1), <1x1>, memref<20x40x!ttcore.tile<32x32, bf16>, #system_memory>>
#ttnn_layout51 = #ttnn.ttnn_layout<(d0, d1) -> (d0, d1), <1x1>, memref<6x12x!ttcore.tile<32x32, bf16>, #dram>, <interleaved>>
#ttnn_layout52 = #ttnn.ttnn_layout<(d0, d1) -> (d0, d1), <1x1>, memref<180x360xf32, #system_memory>>
#ttnn_layout53 = #ttnn.ttnn_layout<(d0, d1) -> (d0, d1), <1x1>, memref<180x360xbf16, #system_memory>>
#ttnn_layout54 = #ttnn.ttnn_layout<(d0, d1) -> (d0, d1), <1x1>, memref<6x12x!ttcore.tile<32x32, bf16>, #system_memory>>
#ttnn_layout55 = #ttnn.ttnn_layout<(d0, d1, d2, d3) -> (d0 * 768 + d1 * 3 + d2, d3), <1x1>, memref<98304x3xbf16, #system_memory>>
#ttnn_layout56 = #ttnn.ttnn_layout<(d0, d1, d2, d3) -> (d0 * 768 + d1 * 3 + d2, d3), <1x1>, memref<196608x3xbf16, #system_memory>>
#ttnn_layout57 = #ttnn.ttnn_layout<(d0, d1, d2, d3) -> (d0 * 1536 + d1 * 3 + d2, d3), <1x1>, memref<393216x3xbf16, #system_memory>>
#ttnn_layout58 = #ttnn.ttnn_layout<(d0, d1, d2, d3) -> (d0 * 1536 + d1 * 3 + d2, d3), <1x1>, memref<786432x3xbf16, #system_memory>>
#ttnn_layout59 = #ttnn.ttnn_layout<(d0, d1, d2, d3) -> (d0 * 48 + d1 * 3 + d2, d3), <1x1>, memref<24576x3xbf16, #system_memory>>
#ttnn_layout60 = #ttnn.ttnn_layout<(d0, d1, d2, d3) -> (d0 * 2560 + d1 * 160 + d2, d3), <1x1>, memref<2560x90xbf16, #dram>, <interleaved>>
#ttnn_layout61 = #ttnn.ttnn_layout<(d0) -> (0, d0), <1x1>, memref<1x16x!ttcore.tile<32x32, bf16>, #dram>, <interleaved>>
#ttnn_layout62 = #ttnn.ttnn_layout<(d0, d1) -> (d0, d1), <1x1>, memref<16x16x!ttcore.tile<32x32, bf16>, #dram>, <interleaved>>
#ttnn_layout63 = #ttnn.ttnn_layout<(d0, d1, d2, d3) -> (d0 * 512 + d1 + d2, d3), <1x1>, memref<131072x1xbf16, #system_memory>>
#ttnn_layout64 = #ttnn.ttnn_layout<(d0, d1, d2, d3) -> (d0 * 163840 + d1 * 1280 + d2, d3), <1x1>, memref<5120x23x!ttcore.tile<32x32, bf16>, #dram>, <interleaved>>
#ttnn_layout65 = #ttnn.ttnn_layout<(d0, d1, d2, d3) -> (d0 * 2560 + d1 * 160 + d2, d3), <1x1>, memref<80x3x!ttcore.tile<32x32, bf16>, #dram>, <interleaved>>
#ttnn_layout66 = #ttnn.ttnn_layout<(d0, d1, d2, d3) -> (d0 * 15360 + d1 * 96 + d2, d3), <1x1>, memref<480x1x!ttcore.tile<32x32, bf16>, #dram>, <interleaved>>
#ttnn_layout67 = #ttnn.ttnn_layout<(d0, d1, d2, d3) -> (d0 * 14400 + d1 * 14400 + d2, d3), <1x1>, memref<450x1x!ttcore.tile<32x32, bf16>, #dram>, <interleaved>>
#ttnn_layout68 = #ttnn.ttnn_layout<(d0, d1, d2, d3) -> (d0 * 14400 + d1 * 14400 + d2, d3), <1x1>, memref<14400x16xbf16, #dram>, <interleaved>>
#ttnn_layout69 = #ttnn.ttnn_layout<(d0, d1, d2, d3) -> (d0 * 14400 + d1 * 14400 + d2, d3), <1x1>, memref<450x16x!ttcore.tile<32x32, bf16>, #dram>, <interleaved>>
#ttnn_layout70 = #ttnn.ttnn_layout<(d0, d1, d2, d3) -> (d0 * 14400 + d1 * 14400 + d2, d3), <1x1>, memref<450x16x!ttcore.tile<32x32, f32>, #dram>, <interleaved>>
#ttnn_layout71 = #ttnn.ttnn_layout<(d0, d1, d2, d3) -> (d0 * 15360 + d1 * 96 + d2, d3), <1x1>, memref<480x16x!ttcore.tile<32x32, f32>, #dram>, <interleaved>>
#ttnn_layout72 = #ttnn.ttnn_layout<(d0, d1, d2, d3) -> (d0 * 81920 + d1 * 160 + d2, d3), <1x1>, memref<2560x3x!ttcore.tile<32x32, f32>, #dram>, <interleaved>>
#ttnn_layout73 = #ttnn.ttnn_layout<(d0, d1, d2, d3) -> (d0 * 1024 + d1 * 32 + d2, d3), <1x1>, memref<32x450x!ttcore.tile<32x32, f32>, #dram>, <interleaved>>
#ttnn_layout74 = #ttnn.ttnn_layout<(d0, d1, d2, d3) -> (d0 * 1024 + d1 * 32 + d2, d3), <1x1>, memref<32x450x!ttcore.tile<32x32, bf16>, #dram>, <interleaved>>
#ttnn_layout75 = #ttnn.ttnn_layout<(d0, d1, d2, d3) -> (d0 * 81920 + d1 * 160 + d2, d3), <1x1>, memref<2560x3x!ttcore.tile<32x32, bf16>, #dram>, <interleaved>>
#ttnn_layout76 = #ttnn.ttnn_layout<(d0, d1, d2, d3) -> (d0 * 15360 + d1 * 96 + d2, d3), <1x1>, memref<480x16x!ttcore.tile<32x32, bf16>, #dram>, <interleaved>>
#ttnn_layout77 = #ttnn.ttnn_layout<(d0, d1, d2, d3) -> (d0 * 14400 + d1 * 14400 + d2, d3), <1x1>, memref<14400x512xbf16, #dram>, <interleaved>>
#ttnn_layout78 = #ttnn.ttnn_layout<(d0, d1, d2) -> (d0 * 512 + d1, d2), <1x1>, memref<16x450x!ttcore.tile<32x32, bf16>, #dram>, <interleaved>>
#ttnn_layout79 = #ttnn.ttnn_layout<(d0, d1, d2) -> (d0 * 14400 + d1, d2), <1x1>, memref<450x16x!ttcore.tile<32x32, bf16>, #dram>, <interleaved>>
#ttnn_layout80 = #ttnn.ttnn_layout<(d0, d1) -> (d0, d1), <1x1>, memref<450x16x!ttcore.tile<32x32, bf16>, #dram>, <interleaved>>
#ttnn_layout81 = #ttnn.ttnn_layout<(d0, d1) -> (d0, d1), <1x1>, memref<450x48x!ttcore.tile<32x32, bf16>, #dram>, <interleaved>>
#ttnn_layout82 = #ttnn.ttnn_layout<(d0, d1, d2, d3) -> (d0 * 49152 + d1 * 96 + d2, d3), <1x1>, memref<1536x5x!ttcore.tile<32x32, bf16>, #dram>, <interleaved>>
#ttnn_layout83 = #ttnn.ttnn_layout<(d0, d1) -> (d0, d1), <1x1>, memref<1440x5x!ttcore.tile<32x32, bf16>, #dram>, <interleaved>>
#ttnn_layout84 = #ttnn.ttnn_layout<(d0, d1) -> (d0, d1), <1x1>, memref<1440x10x!ttcore.tile<32x32, bf16>, #dram>, <interleaved>>
#ttnn_layout85 = #ttnn.ttnn_layout<(d0, d1, d2, d3) -> (d0 * 49152 + d1 * 96 + d2, d3), <1x1>, memref<1536x10x!ttcore.tile<32x32, bf16>, #dram>, <interleaved>>
#ttnn_layout86 = #ttnn.ttnn_layout<(d0, d1, d2, d3) -> (d0 * 163840 + d1 * 320 + d2, d3), <1x1>, memref<5120x3x!ttcore.tile<32x32, bf16>, #dram>, <interleaved>>
#ttnn_layout87 = #ttnn.ttnn_layout<(d0, d1) -> (d0, d1), <1x1>, memref<5120x3x!ttcore.tile<32x32, bf16>, #dram>, <interleaved>>
#ttnn_layout88 = #ttnn.ttnn_layout<(d0, d1) -> (d0, d1), <1x1>, memref<5120x6x!ttcore.tile<32x32, bf16>, #dram>, <interleaved>>
#ttnn_layout89 = #ttnn.ttnn_layout<(d0, d1, d2, d3) -> (d0 * 163840 + d1 * 320 + d2, d3), <1x1>, memref<5120x6x!ttcore.tile<32x32, bf16>, #dram>, <interleaved>>
#ttnn_layout90 = #ttnn.ttnn_layout<(d0, d1, d2, d3) -> (d0 * 61440 + d1 * 192 + d2, d3), <1x1>, memref<1920x16x!ttcore.tile<32x32, bf16>, #dram>, <interleaved>>
#ttnn_layout91 = #ttnn.ttnn_layout<(d0, d1, d2, d3) -> (d0 * 57600 + d1 * 57600 + d2, d3), <1x1>, memref<1800x16x!ttcore.tile<32x32, bf16>, #dram>, <interleaved>>
#ttnn_layout92 = #ttnn.ttnn_layout<(d0, d1, d2, d3) -> (d0 * 57600 + d1 * 57600 + d2, d3), <1x1>, memref<57600x512xbf16, #dram>, <interleaved>>
#ttnn_layout93 = #ttnn.ttnn_layout<(d0, d1, d2, d3) -> (d0 * 57600 + d1 * 57600 + d2, d3), <1x1>, memref<1800x16x!ttcore.tile<32x32, f32>, #dram>, <interleaved>>
#ttnn_layout94 = #ttnn.ttnn_layout<(d0, d1, d2, d3) -> (d0 * 61440 + d1 * 192 + d2, d3), <1x1>, memref<1920x16x!ttcore.tile<32x32, f32>, #dram>, <interleaved>>
#ttnn_layout95 = #ttnn.ttnn_layout<(d0, d1, d2, d3) -> (d0 * 163840 + d1 * 320 + d2, d3), <1x1>, memref<5120x6x!ttcore.tile<32x32, f32>, #dram>, <interleaved>>
#ttnn_layout96 = #ttnn.ttnn_layout<(d0, d1, d2, d3) -> (d0 * 1024 + d1 * 32 + d2, d3), <1x1>, memref<32x1800x!ttcore.tile<32x32, f32>, #dram>, <interleaved>>
#ttnn_layout97 = #ttnn.ttnn_layout<(d0, d1, d2, d3) -> (d0 * 1024 + d1 * 32 + d2, d3), <1x1>, memref<32x1800x!ttcore.tile<32x32, bf16>, #dram>, <interleaved>>
#ttnn_layout98 = #ttnn.ttnn_layout<(d0, d1, d2, d3) -> (d0 * 98304 + d1 * 192 + d2, d3), <1x1>, memref<3072x10x!ttcore.tile<32x32, bf16>, #dram>, <interleaved>>
#ttnn_layout99 = #ttnn.ttnn_layout<(d0, d1) -> (d0, d1), <1x1>, memref<2880x10x!ttcore.tile<32x32, bf16>, #dram>, <interleaved>>
#ttnn_layout100 = #ttnn.ttnn_layout<(d0, d1) -> (d0, d1), <1x1>, memref<2880x20x!ttcore.tile<32x32, bf16>, #dram>, <interleaved>>
#ttnn_layout101 = #ttnn.ttnn_layout<(d0, d1, d2, d3) -> (d0 * 98304 + d1 * 192 + d2, d3), <1x1>, memref<3072x20x!ttcore.tile<32x32, bf16>, #dram>, <interleaved>>
#ttnn_layout102 = #ttnn.ttnn_layout<(d0, d1, d2, d3) -> (d0 * 327680 + d1 * 640 + d2, d3), <1x1>, memref<10240x6x!ttcore.tile<32x32, bf16>, #dram>, <interleaved>>
#ttnn_layout103 = #ttnn.ttnn_layout<(d0, d1) -> (d0, d1), <1x1>, memref<10240x6x!ttcore.tile<32x32, bf16>, #dram>, <interleaved>>
#ttnn_layout104 = #ttnn.ttnn_layout<(d0, d1) -> (d0, d1), <1x1>, memref<10240x12x!ttcore.tile<32x32, bf16>, #dram>, <interleaved>>
#ttnn_layout105 = #ttnn.ttnn_layout<(d0, d1, d2, d3) -> (d0 * 327680 + d1 * 640 + d2, d3), <1x1>, memref<10240x12x!ttcore.tile<32x32, bf16>, #dram>, <interleaved>>
#ttnn_layout106 = #ttnn.ttnn_layout<(d0, d1, d2, d3) -> (d0 * 245760 + d1 * 384 + d2, d3), <1x1>, memref<7680x16x!ttcore.tile<32x32, bf16>, #dram>, <interleaved>>
#ttnn_layout107 = #ttnn.ttnn_layout<(d0, d1, d2, d3) -> (d0 * 230400 + d1 * 230400 + d2, d3), <1x1>, memref<7200x16x!ttcore.tile<32x32, bf16>, #dram>, <interleaved>>
#ttnn_layout108 = #ttnn.ttnn_layout<(d0, d1, d2, d3) -> (d0 * 230400 + d1 * 230400 + d2, d3), <1x1>, memref<230400x512xbf16, #dram>, <interleaved>>
#ttnn_layout109 = #ttnn.ttnn_layout<(d0, d1, d2, d3) -> (d0 * 230400 + d1 * 230400 + d2, d3), <1x1>, memref<7200x8x!ttcore.tile<32x32, bf16>, #dram>, <interleaved>>
#ttnn_layout110 = #ttnn.ttnn_layout<(d0, d1, d2, d3) -> (d0 * 230400 + d1 * 230400 + d2, d3), <1x1>, memref<7200x16x!ttcore.tile<32x32, f32>, #dram>, <interleaved>>
#ttnn_layout111 = #ttnn.ttnn_layout<(d0, d1, d2, d3) -> (d0 * 245760 + d1 * 384 + d2, d3), <1x1>, memref<7680x16x!ttcore.tile<32x32, f32>, #dram>, <interleaved>>
#ttnn_layout112 = #ttnn.ttnn_layout<(d0, d1, d2, d3) -> (d0 * 327680 + d1 * 640 + d2, d3), <1x1>, memref<10240x12x!ttcore.tile<32x32, f32>, #dram>, <interleaved>>
#ttnn_layout113 = #ttnn.ttnn_layout<(d0, d1, d2, d3) -> (d0 * 1024 + d1 * 32 + d2, d3), <1x1>, memref<32x7200x!ttcore.tile<32x32, f32>, #dram>, <interleaved>>
#ttnn_layout114 = #ttnn.ttnn_layout<(d0, d1, d2, d3) -> (d0 * 1024 + d1 * 32 + d2, d3), <1x1>, memref<32x7200x!ttcore.tile<32x32, bf16>, #dram>, <interleaved>>
#ttnn_layout115 = #ttnn.ttnn_layout<(d0, d1, d2, d3) -> (d0 * 230400 + d1 * 230400 + d2, d3), <1x1>, memref<7200x8x!ttcore.tile<32x32, f32>, #dram>, <interleaved>>
#ttnn_layout116 = #ttnn.ttnn_layout<(d0, d1, d2, d3) -> (d0 * 245760 + d1 * 384 + d2, d3), <1x1>, memref<7680x8x!ttcore.tile<32x32, f32>, #dram>, <interleaved>>
#ttnn_layout117 = #ttnn.ttnn_layout<(d0, d1, d2, d3) -> (d0 * 163840 + d1 * 640 + d2, d3), <1x1>, memref<5120x12x!ttcore.tile<32x32, f32>, #dram>, <interleaved>>
#ttnn_layout118 = #ttnn.ttnn_layout<(d0, d1, d2, d3) -> (d0 * 163840 + d1 * 640 + d2, d3), <1x1>, memref<5120x12x!ttcore.tile<32x32, bf16>, #dram>, <interleaved>>
#ttnn_layout119 = #ttnn.ttnn_layout<(d0, d1, d2, d3) -> (d0 * 245760 + d1 * 384 + d2, d3), <1x1>, memref<7680x8x!ttcore.tile<32x32, bf16>, #dram>, <interleaved>>
#ttnn_layout120 = #ttnn.ttnn_layout<(d0, d1, d2, d3) -> (d0 * 230400 + d1 * 230400 + d2, d3), <1x1>, memref<230400x256xbf16, #dram>, <interleaved>>
#ttnn_layout121 = #ttnn.ttnn_layout<(d0, d1, d2, d3) -> (d0 * 98304 + d1 * 384 + d2, d3), <1x1>, memref<3072x20x!ttcore.tile<32x32, bf16>, #dram>, <interleaved>>
#ttnn_layout122 = #ttnn.ttnn_layout<(d0, d1) -> (d0, d1), <1x1>, memref<2880x40x!ttcore.tile<32x32, bf16>, #dram>, <interleaved>>
#ttnn_layout123 = #ttnn.ttnn_layout<(d0, d1, d2, d3) -> (d0 * 98304 + d1 * 384 + d2, d3), <1x1>, memref<3072x40x!ttcore.tile<32x32, bf16>, #dram>, <interleaved>>
#ttnn_layout124 = #ttnn.ttnn_layout<(d0, d1, d2, d3) -> (d0 * 327680 + d1 * 1280 + d2, d3), <1x1>, memref<10240x12x!ttcore.tile<32x32, bf16>, #dram>, <interleaved>>
#ttnn_layout125 = #ttnn.ttnn_layout<(d0, d1) -> (d0, d1), <1x1>, memref<10240x23x!ttcore.tile<32x32, bf16>, #dram>, <interleaved>>
#ttnn_layout126 = #ttnn.ttnn_layout<(d0, d1, d2, d3) -> (d0 * 327680 + d1 * 1280 + d2, d3), <1x1>, memref<10240x23x!ttcore.tile<32x32, bf16>, #dram>, <interleaved>>
#ttnn_layout127 = #ttnn.ttnn_layout<(d0, d1, d2, d3) -> (d0 * 942080 + d1 * 736 + d2, d3), <1x1>, memref<29440x8x!ttcore.tile<32x32, bf16>, #dram>, <interleaved>>
#ttnn_layout128 = #ttnn.ttnn_layout<(d0, d1, d2, d3) -> (d0 * 921600 + d1 * 921600 + d2, d3), <1x1>, memref<28800x8x!ttcore.tile<32x32, bf16>, #dram>, <interleaved>>
#ttnn_layout129 = #ttnn.ttnn_layout<(d0, d1, d2, d3) -> (d0 * 921600 + d1 * 921600 + d2, d3), <1x1>, memref<921600x256xbf16, #dram>, <interleaved>>
#ttnn_layout130 = #ttnn.ttnn_layout<(d0, d1, d2, d3) -> (d0 * 921600 + d1 * 921600 + d2, d3), <1x1>, memref<28800x8x!ttcore.tile<32x32, f32>, #dram>, <interleaved>>
#ttnn_layout131 = #ttnn.ttnn_layout<(d0, d1, d2, d3) -> (d0 * 942080 + d1 * 736 + d2, d3), <1x1>, memref<29440x8x!ttcore.tile<32x32, f32>, #dram>, <interleaved>>
#ttnn_layout132 = #ttnn.ttnn_layout<(d0, d1, d2, d3) -> (d0 * 327680 + d1 * 1280 + d2, d3), <1x1>, memref<10240x23x!ttcore.tile<32x32, f32>, #dram>, <interleaved>>
#ttnn_layout133 = #ttnn.ttnn_layout<(d0, d1, d2, d3) -> (d0 * 1024 + d1 * 32 + d2, d3), <1x1>, memref<32x28800x!ttcore.tile<32x32, f32>, #dram>, <interleaved>>
#ttnn_layout134 = #ttnn.ttnn_layout<(d0, d1, d2, d3) -> (d0 * 1024 + d1 * 32 + d2, d3), <1x1>, memref<32x28800x!ttcore.tile<32x32, bf16>, #dram>, <interleaved>>
#ttnn_layout135 = #ttnn.ttnn_layout<(d0, d1, d2, d3) -> (d0 * 921600 + d1 * 921600 + d2, d3), <1x1>, memref<28800x4x!ttcore.tile<32x32, bf16>, #dram>, <interleaved>>
#ttnn_layout136 = #ttnn.ttnn_layout<(d0, d1, d2, d3) -> (d0 * 29491200 + d1 * 32 + d2, d3), <1x1>, memref<921600x1x!ttcore.tile<32x32, bf16>, #dram>, <interleaved>>
#ttnn_layout137 = #ttnn.ttnn_layout<(d0, d1, d2, d3) -> (d0 * 942080 + d1 * 736 + d2, d3), <1x1>, memref<29440x4x!ttcore.tile<32x32, bf16>, #dram>, <interleaved>>
#loc651 = loc("transpose.1023_tm0_tm0_tm1"(#loc650))
#loc652 = loc("transpose.1023_tm0_tm0_tm1_tm0"(#loc651))
module @SyncTensorsGraph.3223 attributes {mhlo.cross_program_prefetches = [], mhlo.input_output_alias = [], mhlo.is_dynamic = false, mhlo.use_auto_spmd_partitioning = false, ttcore.meshes = #ttcore.meshes<[<"mesh" = 1x1>]>} {
  ttcore.device_module {
    builtin.module @SyncTensorsGraph.3223 attributes {mhlo.cross_program_prefetches = [], mhlo.input_output_alias = [], mhlo.is_dynamic = false, mhlo.use_auto_spmd_partitioning = false, ttcore.meshes = #ttcore.meshes<[<"mesh" = 1x1>]>, ttcore.system_desc = #system_desc, ttnn.l1_const_eval_usage = 1024 : ui64} {
      ttcore.device @default_device = <workerGrid = #ttcore.grid<8x8, virt_to_physical_map = (d0, d1) -> (0, d0, d1), physical_to_virt_map = (d0, d1, d2) -> (d1, d2)>, dramGrid = #ttcore.grid<1x12>, l1Map = (d0, d1, d2)[s0] -> (0, d0, d1, d2 + s0), dramMap = (d0, d1, d2)[s0, s1, s2, s3, s4, s5, s6] -> (0, 0, (((d0 * s1) * (s2 * (s3 * s6)) + d1 * (s2 * (s3 * s6)) + d2) floordiv s4) mod 12, ((((d0 * s1) * (s2 * (s3 * s6)) + d1 * (s2 * (s3 * s6)) + d2) floordiv s4) floordiv 12) * s4 + ((d0 * s1) * (s2 * (s3 * s6)) + d1 * (s2 * (s3 * s6)) + d2) mod s4 + s5), meshShape = 1x1, chipIds = [0]> loc(#loc)
      func.func private @main_const_eval_0(%arg0: tensor<512xbf16, #ttnn_layout> loc(unknown)) -> tensor<1x1x1x512xbf16, #ttnn_layout1> attributes {tt.function_type = "const_eval"} {
        %0 = "ttnn.typecast"(%arg0) <{dtype = #ttcore.supportedDataTypes<f32>}> : (tensor<512xbf16, #ttnn_layout>) -> tensor<512xf32, #ttnn_layout2> loc(#loc)
        %1 = call @cpu_hoisted_const_eval_24665087(%0) {ttir.cpu_hoist_call} : (tensor<512xf32, #ttnn_layout2>) -> tensor<1x1x1x512xf32, #ttnn_layout3> loc(#loc)
        "ttnn.deallocate"(%0) <{force = false}> : (tensor<512xf32, #ttnn_layout2>) -> () loc(#loc)
        %2 = "ttnn.typecast"(%1) <{dtype = #ttcore.supportedDataTypes<bf16>}> : (tensor<1x1x1x512xf32, #ttnn_layout3>) -> tensor<1x1x1x512xbf16, #ttnn_layout1> loc(#loc493)
        "ttnn.deallocate"(%1) <{force = false}> : (tensor<1x1x1x512xf32, #ttnn_layout3>) -> () loc(#loc493)
        return %2 : tensor<1x1x1x512xbf16, #ttnn_layout1> loc(#loc)
      } loc(#loc)
      func.func private @main_const_eval_1(%arg0: tensor<512xbf16, #ttnn_layout> loc(unknown)) -> tensor<1x32x16x1xf32, #ttnn_layout4> attributes {tt.function_type = "const_eval"} {
        %0 = "ttnn.get_device"() <{mesh_offset = #ttnn<mesh_offset 0x0>, mesh_shape = #ttnn<mesh_shape 1x1>}> : () -> !ttnn.device loc(#loc)
        %1 = "ttnn.typecast"(%arg0) <{dtype = #ttcore.supportedDataTypes<f32>}> : (tensor<512xbf16, #ttnn_layout>) -> tensor<512xf32, #ttnn_layout2> loc(#loc)
        %2 = call @cpu_hoisted_const_eval_ce3dc089(%1) {ttir.cpu_hoist_call} : (tensor<512xf32, #ttnn_layout2>) -> tensor<1x32x16x1xf32, #ttnn_layout5> loc(#loc)
        "ttnn.deallocate"(%1) <{force = false}> : (tensor<512xf32, #ttnn_layout2>) -> () loc(#loc)
        %3 = "ttnn.to_layout"(%2) <{layout = #ttnn.layout<tile>}> : (tensor<1x32x16x1xf32, #ttnn_layout5>) -> tensor<1x32x16x1xf32, #ttnn_layout6> loc(#loc)
        "ttnn.deallocate"(%2) <{force = false}> : (tensor<1x32x16x1xf32, #ttnn_layout5>) -> () loc(#loc)
        %4 = "ttnn.to_device"(%3, %0) : (tensor<1x32x16x1xf32, #ttnn_layout6>, !ttnn.device) -> tensor<1x32x16x1xf32, #ttnn_layout4> loc(#loc)
        "ttnn.deallocate"(%3) <{force = false}> : (tensor<1x32x16x1xf32, #ttnn_layout6>) -> () loc(#loc)
        return %4 : tensor<1x32x16x1xf32, #ttnn_layout4> loc(#loc)
      } loc(#loc)
      func.func private @main_const_eval_2() -> tensor<360x720xbf16, #ttnn_layout7> attributes {tt.function_type = "const_eval"} {
        %0 = "ttnn.get_device"() <{mesh_offset = #ttnn<mesh_offset 0x0>, mesh_shape = #ttnn<mesh_shape 1x1>}> : () -> !ttnn.device loc(#loc)
        %1 = call @cpu_hoisted_const_eval_4d6151ea() {ttir.cpu_hoist_call} : () -> tensor<360x720xf32, #ttnn_layout8> loc(#loc)
        %2 = "ttnn.typecast"(%1) <{dtype = #ttcore.supportedDataTypes<bf16>}> : (tensor<360x720xf32, #ttnn_layout8>) -> tensor<360x720xbf16, #ttnn_layout9> loc(#loc)
        "ttnn.deallocate"(%1) <{force = false}> : (tensor<360x720xf32, #ttnn_layout8>) -> () loc(#loc)
        %3 = "ttnn.to_layout"(%2) <{layout = #ttnn.layout<tile>}> : (tensor<360x720xbf16, #ttnn_layout9>) -> tensor<360x720xbf16, #ttnn_layout10> loc(#loc)
        "ttnn.deallocate"(%2) <{force = false}> : (tensor<360x720xbf16, #ttnn_layout9>) -> () loc(#loc)
        %4 = "ttnn.to_device"(%3, %0) : (tensor<360x720xbf16, #ttnn_layout10>, !ttnn.device) -> tensor<360x720xbf16, #ttnn_layout7> loc(#loc)
        "ttnn.deallocate"(%3) <{force = false}> : (tensor<360x720xbf16, #ttnn_layout10>) -> () loc(#loc)
        return %4 : tensor<360x720xbf16, #ttnn_layout7> loc(#loc)
      } loc(#loc)
      func.func private @main_const_eval_3(%arg0: tensor<256xbf16, #ttnn_layout11> loc(unknown)) -> tensor<1x32x8x1xf32, #ttnn_layout4> attributes {tt.function_type = "const_eval"} {
        %0 = "ttnn.get_device"() <{mesh_offset = #ttnn<mesh_offset 0x0>, mesh_shape = #ttnn<mesh_shape 1x1>}> : () -> !ttnn.device loc(#loc)
        %1 = "ttnn.typecast"(%arg0) <{dtype = #ttcore.supportedDataTypes<f32>}> : (tensor<256xbf16, #ttnn_layout11>) -> tensor<256xf32, #ttnn_layout12> loc(#loc)
        %2 = call @cpu_hoisted_const_eval_de413a9b(%1) {ttir.cpu_hoist_call} : (tensor<256xf32, #ttnn_layout12>) -> tensor<1x32x8x1xf32, #ttnn_layout13> loc(#loc)
        "ttnn.deallocate"(%1) <{force = false}> : (tensor<256xf32, #ttnn_layout12>) -> () loc(#loc)
        %3 = "ttnn.to_layout"(%2) <{layout = #ttnn.layout<tile>}> : (tensor<1x32x8x1xf32, #ttnn_layout13>) -> tensor<1x32x8x1xf32, #ttnn_layout6> loc(#loc)
        "ttnn.deallocate"(%2) <{force = false}> : (tensor<1x32x8x1xf32, #ttnn_layout13>) -> () loc(#loc)
        %4 = "ttnn.to_device"(%3, %0) : (tensor<1x32x8x1xf32, #ttnn_layout6>, !ttnn.device) -> tensor<1x32x8x1xf32, #ttnn_layout4> loc(#loc)
        "ttnn.deallocate"(%3) <{force = false}> : (tensor<1x32x8x1xf32, #ttnn_layout6>) -> () loc(#loc)
        return %4 : tensor<1x32x8x1xf32, #ttnn_layout4> loc(#loc)
      } loc(#loc)
      func.func private @main_const_eval_4(%arg0: tensor<512xbf16, #ttnn_layout> loc(unknown)) -> tensor<1x1x1x512xbf16, #ttnn_layout1> attributes {tt.function_type = "const_eval"} {
        %0 = "ttnn.typecast"(%arg0) <{dtype = #ttcore.supportedDataTypes<f32>}> : (tensor<512xbf16, #ttnn_layout>) -> tensor<512xf32, #ttnn_layout2> loc(#loc)
        %1 = call @cpu_hoisted_const_eval_24665087(%0) {ttir.cpu_hoist_call} : (tensor<512xf32, #ttnn_layout2>) -> tensor<1x1x1x512xf32, #ttnn_layout3> loc(#loc)
        "ttnn.deallocate"(%0) <{force = false}> : (tensor<512xf32, #ttnn_layout2>) -> () loc(#loc)
        %2 = "ttnn.typecast"(%1) <{dtype = #ttcore.supportedDataTypes<bf16>}> : (tensor<1x1x1x512xf32, #ttnn_layout3>) -> tensor<1x1x1x512xbf16, #ttnn_layout1> loc(#loc494)
        "ttnn.deallocate"(%1) <{force = false}> : (tensor<1x1x1x512xf32, #ttnn_layout3>) -> () loc(#loc494)
        return %2 : tensor<1x1x1x512xbf16, #ttnn_layout1> loc(#loc)
      } loc(#loc)
      func.func private @main_const_eval_5(%arg0: tensor<512xbf16, #ttnn_layout> loc(unknown)) -> tensor<1x32x16x1xf32, #ttnn_layout4> attributes {tt.function_type = "const_eval"} {
        %0 = "ttnn.get_device"() <{mesh_offset = #ttnn<mesh_offset 0x0>, mesh_shape = #ttnn<mesh_shape 1x1>}> : () -> !ttnn.device loc(#loc)
        %1 = "ttnn.typecast"(%arg0) <{dtype = #ttcore.supportedDataTypes<f32>}> : (tensor<512xbf16, #ttnn_layout>) -> tensor<512xf32, #ttnn_layout2> loc(#loc)
        %2 = call @cpu_hoisted_const_eval_ce3dc089(%1) {ttir.cpu_hoist_call} : (tensor<512xf32, #ttnn_layout2>) -> tensor<1x32x16x1xf32, #ttnn_layout5> loc(#loc)
        "ttnn.deallocate"(%1) <{force = false}> : (tensor<512xf32, #ttnn_layout2>) -> () loc(#loc)
        %3 = "ttnn.to_layout"(%2) <{layout = #ttnn.layout<tile>}> : (tensor<1x32x16x1xf32, #ttnn_layout5>) -> tensor<1x32x16x1xf32, #ttnn_layout6> loc(#loc)
        "ttnn.deallocate"(%2) <{force = false}> : (tensor<1x32x16x1xf32, #ttnn_layout5>) -> () loc(#loc)
        %4 = "ttnn.to_device"(%3, %0) : (tensor<1x32x16x1xf32, #ttnn_layout6>, !ttnn.device) -> tensor<1x32x16x1xf32, #ttnn_layout4> loc(#loc)
        "ttnn.deallocate"(%3) <{force = false}> : (tensor<1x32x16x1xf32, #ttnn_layout6>) -> () loc(#loc)
        return %4 : tensor<1x32x16x1xf32, #ttnn_layout4> loc(#loc)
      } loc(#loc)
      func.func private @main_const_eval_6(%arg0: tensor<512xbf16, #ttnn_layout> loc(unknown)) -> tensor<1x32x16x1xf32, #ttnn_layout4> attributes {tt.function_type = "const_eval"} {
        %0 = "ttnn.get_device"() <{mesh_offset = #ttnn<mesh_offset 0x0>, mesh_shape = #ttnn<mesh_shape 1x1>}> : () -> !ttnn.device loc(#loc)
        %1 = "ttnn.typecast"(%arg0) <{dtype = #ttcore.supportedDataTypes<f32>}> : (tensor<512xbf16, #ttnn_layout>) -> tensor<512xf32, #ttnn_layout2> loc(#loc)
        %2 = call @cpu_hoisted_const_eval_ce3dc089(%1) {ttir.cpu_hoist_call} : (tensor<512xf32, #ttnn_layout2>) -> tensor<1x32x16x1xf32, #ttnn_layout5> loc(#loc)
        "ttnn.deallocate"(%1) <{force = false}> : (tensor<512xf32, #ttnn_layout2>) -> () loc(#loc)
        %3 = "ttnn.to_layout"(%2) <{layout = #ttnn.layout<tile>}> : (tensor<1x32x16x1xf32, #ttnn_layout5>) -> tensor<1x32x16x1xf32, #ttnn_layout6> loc(#loc)
        "ttnn.deallocate"(%2) <{force = false}> : (tensor<1x32x16x1xf32, #ttnn_layout5>) -> () loc(#loc)
        %4 = "ttnn.to_device"(%3, %0) : (tensor<1x32x16x1xf32, #ttnn_layout6>, !ttnn.device) -> tensor<1x32x16x1xf32, #ttnn_layout4> loc(#loc)
        "ttnn.deallocate"(%3) <{force = false}> : (tensor<1x32x16x1xf32, #ttnn_layout6>) -> () loc(#loc)
        return %4 : tensor<1x32x16x1xf32, #ttnn_layout4> loc(#loc)
      } loc(#loc)
      func.func private @main_const_eval_7(%arg0: tensor<512xbf16, #ttnn_layout> loc(unknown)) -> tensor<1x32x16x1xf32, #ttnn_layout4> attributes {tt.function_type = "const_eval"} {
        %0 = "ttnn.get_device"() <{mesh_offset = #ttnn<mesh_offset 0x0>, mesh_shape = #ttnn<mesh_shape 1x1>}> : () -> !ttnn.device loc(#loc)
        %1 = "ttnn.typecast"(%arg0) <{dtype = #ttcore.supportedDataTypes<f32>}> : (tensor<512xbf16, #ttnn_layout>) -> tensor<512xf32, #ttnn_layout2> loc(#loc)
        %2 = call @cpu_hoisted_const_eval_ce3dc089(%1) {ttir.cpu_hoist_call} : (tensor<512xf32, #ttnn_layout2>) -> tensor<1x32x16x1xf32, #ttnn_layout5> loc(#loc)
        "ttnn.deallocate"(%1) <{force = false}> : (tensor<512xf32, #ttnn_layout2>) -> () loc(#loc)
        %3 = "ttnn.to_layout"(%2) <{layout = #ttnn.layout<tile>}> : (tensor<1x32x16x1xf32, #ttnn_layout5>) -> tensor<1x32x16x1xf32, #ttnn_layout6> loc(#loc)
        "ttnn.deallocate"(%2) <{force = false}> : (tensor<1x32x16x1xf32, #ttnn_layout5>) -> () loc(#loc)
        %4 = "ttnn.to_device"(%3, %0) : (tensor<1x32x16x1xf32, #ttnn_layout6>, !ttnn.device) -> tensor<1x32x16x1xf32, #ttnn_layout4> loc(#loc)
        "ttnn.deallocate"(%3) <{force = false}> : (tensor<1x32x16x1xf32, #ttnn_layout6>) -> () loc(#loc)
        return %4 : tensor<1x32x16x1xf32, #ttnn_layout4> loc(#loc)
      } loc(#loc)
      func.func private @main_const_eval_8(%arg0: tensor<512xbf16, #ttnn_layout> loc(unknown)) -> tensor<1x1x1x512xbf16, #ttnn_layout1> attributes {tt.function_type = "const_eval"} {
        %0 = "ttnn.typecast"(%arg0) <{dtype = #ttcore.supportedDataTypes<f32>}> : (tensor<512xbf16, #ttnn_layout>) -> tensor<512xf32, #ttnn_layout2> loc(#loc)
        %1 = call @cpu_hoisted_const_eval_24665087(%0) {ttir.cpu_hoist_call} : (tensor<512xf32, #ttnn_layout2>) -> tensor<1x1x1x512xf32, #ttnn_layout3> loc(#loc)
        "ttnn.deallocate"(%0) <{force = false}> : (tensor<512xf32, #ttnn_layout2>) -> () loc(#loc)
        %2 = "ttnn.typecast"(%1) <{dtype = #ttcore.supportedDataTypes<bf16>}> : (tensor<1x1x1x512xf32, #ttnn_layout3>) -> tensor<1x1x1x512xbf16, #ttnn_layout1> loc(#loc495)
        "ttnn.deallocate"(%1) <{force = false}> : (tensor<1x1x1x512xf32, #ttnn_layout3>) -> () loc(#loc495)
        return %2 : tensor<1x1x1x512xbf16, #ttnn_layout1> loc(#loc)
      } loc(#loc)
      func.func private @main_const_eval_9(%arg0: tensor<256xbf16, #ttnn_layout11> loc(unknown)) -> tensor<1x32x8x1xf32, #ttnn_layout4> attributes {tt.function_type = "const_eval"} {
        %0 = "ttnn.get_device"() <{mesh_offset = #ttnn<mesh_offset 0x0>, mesh_shape = #ttnn<mesh_shape 1x1>}> : () -> !ttnn.device loc(#loc)
        %1 = "ttnn.typecast"(%arg0) <{dtype = #ttcore.supportedDataTypes<f32>}> : (tensor<256xbf16, #ttnn_layout11>) -> tensor<256xf32, #ttnn_layout12> loc(#loc)
        %2 = call @cpu_hoisted_const_eval_de413a9b(%1) {ttir.cpu_hoist_call} : (tensor<256xf32, #ttnn_layout12>) -> tensor<1x32x8x1xf32, #ttnn_layout13> loc(#loc)
        "ttnn.deallocate"(%1) <{force = false}> : (tensor<256xf32, #ttnn_layout12>) -> () loc(#loc)
        %3 = "ttnn.to_layout"(%2) <{layout = #ttnn.layout<tile>}> : (tensor<1x32x8x1xf32, #ttnn_layout13>) -> tensor<1x32x8x1xf32, #ttnn_layout6> loc(#loc)
        "ttnn.deallocate"(%2) <{force = false}> : (tensor<1x32x8x1xf32, #ttnn_layout13>) -> () loc(#loc)
        %4 = "ttnn.to_device"(%3, %0) : (tensor<1x32x8x1xf32, #ttnn_layout6>, !ttnn.device) -> tensor<1x32x8x1xf32, #ttnn_layout4> loc(#loc)
        "ttnn.deallocate"(%3) <{force = false}> : (tensor<1x32x8x1xf32, #ttnn_layout6>) -> () loc(#loc)
        return %4 : tensor<1x32x8x1xf32, #ttnn_layout4> loc(#loc)
      } loc(#loc)
      func.func private @main_const_eval_10(%arg0: tensor<512xbf16, #ttnn_layout> loc(unknown)) -> tensor<1x1x1x512xbf16, #ttnn_layout1> attributes {tt.function_type = "const_eval"} {
        %0 = "ttnn.typecast"(%arg0) <{dtype = #ttcore.supportedDataTypes<f32>}> : (tensor<512xbf16, #ttnn_layout>) -> tensor<512xf32, #ttnn_layout2> loc(#loc)
        %1 = call @cpu_hoisted_const_eval_24665087(%0) {ttir.cpu_hoist_call} : (tensor<512xf32, #ttnn_layout2>) -> tensor<1x1x1x512xf32, #ttnn_layout3> loc(#loc)
        "ttnn.deallocate"(%0) <{force = false}> : (tensor<512xf32, #ttnn_layout2>) -> () loc(#loc)
        %2 = "ttnn.typecast"(%1) <{dtype = #ttcore.supportedDataTypes<bf16>}> : (tensor<1x1x1x512xf32, #ttnn_layout3>) -> tensor<1x1x1x512xbf16, #ttnn_layout1> loc(#loc496)
        "ttnn.deallocate"(%1) <{force = false}> : (tensor<1x1x1x512xf32, #ttnn_layout3>) -> () loc(#loc496)
        return %2 : tensor<1x1x1x512xbf16, #ttnn_layout1> loc(#loc)
      } loc(#loc)
      func.func private @main_const_eval_11(%arg0: tensor<512xbf16, #ttnn_layout> loc(unknown)) -> tensor<1x1x1x512xbf16, #ttnn_layout1> attributes {tt.function_type = "const_eval"} {
        %0 = "ttnn.typecast"(%arg0) <{dtype = #ttcore.supportedDataTypes<f32>}> : (tensor<512xbf16, #ttnn_layout>) -> tensor<512xf32, #ttnn_layout2> loc(#loc)
        %1 = call @cpu_hoisted_const_eval_24665087(%0) {ttir.cpu_hoist_call} : (tensor<512xf32, #ttnn_layout2>) -> tensor<1x1x1x512xf32, #ttnn_layout3> loc(#loc)
        "ttnn.deallocate"(%0) <{force = false}> : (tensor<512xf32, #ttnn_layout2>) -> () loc(#loc)
        %2 = "ttnn.typecast"(%1) <{dtype = #ttcore.supportedDataTypes<bf16>}> : (tensor<1x1x1x512xf32, #ttnn_layout3>) -> tensor<1x1x1x512xbf16, #ttnn_layout1> loc(#loc497)
        "ttnn.deallocate"(%1) <{force = false}> : (tensor<1x1x1x512xf32, #ttnn_layout3>) -> () loc(#loc497)
        return %2 : tensor<1x1x1x512xbf16, #ttnn_layout1> loc(#loc)
      } loc(#loc)
      func.func private @main_const_eval_12() -> tensor<90x180xbf16, #ttnn_layout14> attributes {tt.function_type = "const_eval"} {
        %0 = "ttnn.get_device"() <{mesh_offset = #ttnn<mesh_offset 0x0>, mesh_shape = #ttnn<mesh_shape 1x1>}> : () -> !ttnn.device loc(#loc)
        %1 = call @cpu_hoisted_const_eval_dd2e9c9f() {ttir.cpu_hoist_call} : () -> tensor<90x180xf32, #ttnn_layout15> loc(#loc)
        %2 = "ttnn.typecast"(%1) <{dtype = #ttcore.supportedDataTypes<bf16>}> : (tensor<90x180xf32, #ttnn_layout15>) -> tensor<90x180xbf16, #ttnn_layout16> loc(#loc)
        "ttnn.deallocate"(%1) <{force = false}> : (tensor<90x180xf32, #ttnn_layout15>) -> () loc(#loc)
        %3 = "ttnn.to_layout"(%2) <{layout = #ttnn.layout<tile>}> : (tensor<90x180xbf16, #ttnn_layout16>) -> tensor<90x180xbf16, #ttnn_layout17> loc(#loc)
        "ttnn.deallocate"(%2) <{force = false}> : (tensor<90x180xbf16, #ttnn_layout16>) -> () loc(#loc)
        %4 = "ttnn.to_device"(%3, %0) : (tensor<90x180xbf16, #ttnn_layout17>, !ttnn.device) -> tensor<90x180xbf16, #ttnn_layout14> loc(#loc)
        "ttnn.deallocate"(%3) <{force = false}> : (tensor<90x180xbf16, #ttnn_layout17>) -> () loc(#loc)
        return %4 : tensor<90x180xbf16, #ttnn_layout14> loc(#loc)
      } loc(#loc)
      func.func private @main_const_eval_13(%arg0: tensor<512x512xbf16, #ttnn_layout18> loc(unknown), %arg1: tensor<512x512xbf16, #ttnn_layout18> loc(unknown), %arg2: tensor<512x512xbf16, #ttnn_layout18> loc(unknown)) -> tensor<512x1536xbf16, #ttnn_layout19> attributes {tt.function_type = "const_eval"} {
        %0 = "ttnn.get_device"() <{mesh_offset = #ttnn<mesh_offset 0x0>, mesh_shape = #ttnn<mesh_shape 1x1>}> : () -> !ttnn.device loc(#loc)
        %1 = "ttnn.typecast"(%arg1) <{dtype = #ttcore.supportedDataTypes<f32>}> : (tensor<512x512xbf16, #ttnn_layout18>) -> tensor<512x512xf32, #ttnn_layout20> loc(#loc)
        %2 = "ttnn.typecast"(%arg0) <{dtype = #ttcore.supportedDataTypes<f32>}> : (tensor<512x512xbf16, #ttnn_layout18>) -> tensor<512x512xf32, #ttnn_layout20> loc(#loc)
        %3 = "ttnn.typecast"(%arg2) <{dtype = #ttcore.supportedDataTypes<f32>}> : (tensor<512x512xbf16, #ttnn_layout18>) -> tensor<512x512xf32, #ttnn_layout20> loc(#loc)
        %4 = call @cpu_hoisted_const_eval_11ccd806(%1, %2, %3) {ttir.cpu_hoist_call} : (tensor<512x512xf32, #ttnn_layout20>, tensor<512x512xf32, #ttnn_layout20>, tensor<512x512xf32, #ttnn_layout20>) -> tensor<512x1536xf32, #ttnn_layout21> loc(#loc)
        "ttnn.deallocate"(%3) <{force = false}> : (tensor<512x512xf32, #ttnn_layout20>) -> () loc(#loc)
        "ttnn.deallocate"(%2) <{force = false}> : (tensor<512x512xf32, #ttnn_layout20>) -> () loc(#loc)
        "ttnn.deallocate"(%1) <{force = false}> : (tensor<512x512xf32, #ttnn_layout20>) -> () loc(#loc)
        %5 = "ttnn.typecast"(%4) <{dtype = #ttcore.supportedDataTypes<bf16>}> : (tensor<512x1536xf32, #ttnn_layout21>) -> tensor<512x1536xbf16, #ttnn_layout22> loc(#loc)
        "ttnn.deallocate"(%4) <{force = false}> : (tensor<512x1536xf32, #ttnn_layout21>) -> () loc(#loc)
        %6 = "ttnn.to_layout"(%5) <{layout = #ttnn.layout<tile>}> : (tensor<512x1536xbf16, #ttnn_layout22>) -> tensor<512x1536xbf16, #ttnn_layout23> loc(#loc)
        "ttnn.deallocate"(%5) <{force = false}> : (tensor<512x1536xbf16, #ttnn_layout22>) -> () loc(#loc)
        %7 = "ttnn.to_device"(%6, %0) : (tensor<512x1536xbf16, #ttnn_layout23>, !ttnn.device) -> tensor<512x1536xbf16, #ttnn_layout19> loc(#loc)
        "ttnn.deallocate"(%6) <{force = false}> : (tensor<512x1536xbf16, #ttnn_layout23>) -> () loc(#loc)
        return %7 : tensor<512x1536xbf16, #ttnn_layout19> loc(#loc)
      } loc(#loc)
      func.func private @main_const_eval_14(%arg0: tensor<256xbf16, #ttnn_layout11> loc(unknown)) -> tensor<1x32x8x1xf32, #ttnn_layout4> attributes {tt.function_type = "const_eval"} {
        %0 = "ttnn.get_device"() <{mesh_offset = #ttnn<mesh_offset 0x0>, mesh_shape = #ttnn<mesh_shape 1x1>}> : () -> !ttnn.device loc(#loc)
        %1 = "ttnn.typecast"(%arg0) <{dtype = #ttcore.supportedDataTypes<f32>}> : (tensor<256xbf16, #ttnn_layout11>) -> tensor<256xf32, #ttnn_layout12> loc(#loc)
        %2 = call @cpu_hoisted_const_eval_de413a9b(%1) {ttir.cpu_hoist_call} : (tensor<256xf32, #ttnn_layout12>) -> tensor<1x32x8x1xf32, #ttnn_layout13> loc(#loc)
        "ttnn.deallocate"(%1) <{force = false}> : (tensor<256xf32, #ttnn_layout12>) -> () loc(#loc)
        %3 = "ttnn.to_layout"(%2) <{layout = #ttnn.layout<tile>}> : (tensor<1x32x8x1xf32, #ttnn_layout13>) -> tensor<1x32x8x1xf32, #ttnn_layout6> loc(#loc)
        "ttnn.deallocate"(%2) <{force = false}> : (tensor<1x32x8x1xf32, #ttnn_layout13>) -> () loc(#loc)
        %4 = "ttnn.to_device"(%3, %0) : (tensor<1x32x8x1xf32, #ttnn_layout6>, !ttnn.device) -> tensor<1x32x8x1xf32, #ttnn_layout4> loc(#loc)
        "ttnn.deallocate"(%3) <{force = false}> : (tensor<1x32x8x1xf32, #ttnn_layout6>) -> () loc(#loc)
        return %4 : tensor<1x32x8x1xf32, #ttnn_layout4> loc(#loc)
      } loc(#loc)
      func.func private @main_const_eval_15(%arg0: tensor<512xbf16, #ttnn_layout> loc(unknown), %arg1: tensor<512xbf16, #ttnn_layout> loc(unknown), %arg2: tensor<512xbf16, #ttnn_layout> loc(unknown)) -> tensor<1536xbf16, #ttnn_layout24> attributes {tt.function_type = "const_eval"} {
        %0 = "ttnn.get_device"() <{mesh_offset = #ttnn<mesh_offset 0x0>, mesh_shape = #ttnn<mesh_shape 1x1>}> : () -> !ttnn.device loc(#loc)
        %1 = "ttnn.typecast"(%arg2) <{dtype = #ttcore.supportedDataTypes<f32>}> : (tensor<512xbf16, #ttnn_layout>) -> tensor<512xf32, #ttnn_layout2> loc(#loc)
        %2 = "ttnn.typecast"(%arg1) <{dtype = #ttcore.supportedDataTypes<f32>}> : (tensor<512xbf16, #ttnn_layout>) -> tensor<512xf32, #ttnn_layout2> loc(#loc)
        %3 = "ttnn.typecast"(%arg0) <{dtype = #ttcore.supportedDataTypes<f32>}> : (tensor<512xbf16, #ttnn_layout>) -> tensor<512xf32, #ttnn_layout2> loc(#loc)
        %4 = call @cpu_hoisted_const_eval_3b6c0433(%1, %2, %3) {ttir.cpu_hoist_call} : (tensor<512xf32, #ttnn_layout2>, tensor<512xf32, #ttnn_layout2>, tensor<512xf32, #ttnn_layout2>) -> tensor<1536xf32, #ttnn_layout25> loc(#loc)
        "ttnn.deallocate"(%3) <{force = false}> : (tensor<512xf32, #ttnn_layout2>) -> () loc(#loc)
        "ttnn.deallocate"(%2) <{force = false}> : (tensor<512xf32, #ttnn_layout2>) -> () loc(#loc)
        "ttnn.deallocate"(%1) <{force = false}> : (tensor<512xf32, #ttnn_layout2>) -> () loc(#loc)
        %5 = "ttnn.typecast"(%4) <{dtype = #ttcore.supportedDataTypes<bf16>}> : (tensor<1536xf32, #ttnn_layout25>) -> tensor<1536xbf16, #ttnn_layout26> loc(#loc)
        "ttnn.deallocate"(%4) <{force = false}> : (tensor<1536xf32, #ttnn_layout25>) -> () loc(#loc)
        %6 = "ttnn.to_layout"(%5) <{layout = #ttnn.layout<tile>}> : (tensor<1536xbf16, #ttnn_layout26>) -> tensor<1536xbf16, #ttnn_layout27> loc(#loc)
        "ttnn.deallocate"(%5) <{force = false}> : (tensor<1536xbf16, #ttnn_layout26>) -> () loc(#loc)
        %7 = "ttnn.to_device"(%6, %0) : (tensor<1536xbf16, #ttnn_layout27>, !ttnn.device) -> tensor<1536xbf16, #ttnn_layout24> loc(#loc)
        "ttnn.deallocate"(%6) <{force = false}> : (tensor<1536xbf16, #ttnn_layout27>) -> () loc(#loc)
        return %7 : tensor<1536xbf16, #ttnn_layout24> loc(#loc)
      } loc(#loc)
      func.func private @main_const_eval_16(%arg0: tensor<512xbf16, #ttnn_layout> loc(unknown)) -> tensor<1x1x1x512xbf16, #ttnn_layout1> attributes {tt.function_type = "const_eval"} {
        %0 = "ttnn.typecast"(%arg0) <{dtype = #ttcore.supportedDataTypes<f32>}> : (tensor<512xbf16, #ttnn_layout>) -> tensor<512xf32, #ttnn_layout2> loc(#loc)
        %1 = call @cpu_hoisted_const_eval_24665087(%0) {ttir.cpu_hoist_call} : (tensor<512xf32, #ttnn_layout2>) -> tensor<1x1x1x512xf32, #ttnn_layout3> loc(#loc)
        "ttnn.deallocate"(%0) <{force = false}> : (tensor<512xf32, #ttnn_layout2>) -> () loc(#loc)
        %2 = "ttnn.typecast"(%1) <{dtype = #ttcore.supportedDataTypes<bf16>}> : (tensor<1x1x1x512xf32, #ttnn_layout3>) -> tensor<1x1x1x512xbf16, #ttnn_layout1> loc(#loc498)
        "ttnn.deallocate"(%1) <{force = false}> : (tensor<1x1x1x512xf32, #ttnn_layout3>) -> () loc(#loc498)
        return %2 : tensor<1x1x1x512xbf16, #ttnn_layout1> loc(#loc)
      } loc(#loc)
      func.func private @main_const_eval_17(%arg0: tensor<512xbf16, #ttnn_layout> loc(unknown)) -> tensor<1x32x16x1xf32, #ttnn_layout4> attributes {tt.function_type = "const_eval"} {
        %0 = "ttnn.get_device"() <{mesh_offset = #ttnn<mesh_offset 0x0>, mesh_shape = #ttnn<mesh_shape 1x1>}> : () -> !ttnn.device loc(#loc)
        %1 = "ttnn.typecast"(%arg0) <{dtype = #ttcore.supportedDataTypes<f32>}> : (tensor<512xbf16, #ttnn_layout>) -> tensor<512xf32, #ttnn_layout2> loc(#loc)
        %2 = call @cpu_hoisted_const_eval_ce3dc089(%1) {ttir.cpu_hoist_call} : (tensor<512xf32, #ttnn_layout2>) -> tensor<1x32x16x1xf32, #ttnn_layout5> loc(#loc)
        "ttnn.deallocate"(%1) <{force = false}> : (tensor<512xf32, #ttnn_layout2>) -> () loc(#loc)
        %3 = "ttnn.to_layout"(%2) <{layout = #ttnn.layout<tile>}> : (tensor<1x32x16x1xf32, #ttnn_layout5>) -> tensor<1x32x16x1xf32, #ttnn_layout6> loc(#loc)
        "ttnn.deallocate"(%2) <{force = false}> : (tensor<1x32x16x1xf32, #ttnn_layout5>) -> () loc(#loc)
        %4 = "ttnn.to_device"(%3, %0) : (tensor<1x32x16x1xf32, #ttnn_layout6>, !ttnn.device) -> tensor<1x32x16x1xf32, #ttnn_layout4> loc(#loc)
        "ttnn.deallocate"(%3) <{force = false}> : (tensor<1x32x16x1xf32, #ttnn_layout6>) -> () loc(#loc)
        return %4 : tensor<1x32x16x1xf32, #ttnn_layout4> loc(#loc)
      } loc(#loc)
      func.func private @main_const_eval_18() -> tensor<1x1x1x1xbf16, #ttnn_layout28> attributes {tt.function_type = "const_eval"} {
        %0 = "ttnn.get_device"() <{mesh_offset = #ttnn<mesh_offset 0x0>, mesh_shape = #ttnn<mesh_shape 1x1>}> : () -> !ttnn.device loc(#loc7)
        %1 = "ttnn.ones"(%0) <{dtype = #ttcore.supportedDataTypes<bf16>, layout = #ttnn.layout<tile>, shape = #ttnn.shape<1x1x1x1>}> : (!ttnn.device) -> tensor<1x1x1x1xbf16, #ttnn_layout28> loc(#loc)
        return %1 : tensor<1x1x1x1xbf16, #ttnn_layout28> loc(#loc)
      } loc(#loc)
      func.func private @main_const_eval_19() -> tensor<320x640xbf16, #ttnn_layout29> attributes {tt.function_type = "const_eval"} {
        %0 = "ttnn.get_device"() <{mesh_offset = #ttnn<mesh_offset 0x0>, mesh_shape = #ttnn<mesh_shape 1x1>}> : () -> !ttnn.device loc(#loc)
        %1 = call @cpu_hoisted_const_eval_8cbff674() {ttir.cpu_hoist_call} : () -> tensor<320x640xf32, #ttnn_layout30> loc(#loc)
        %2 = "ttnn.typecast"(%1) <{dtype = #ttcore.supportedDataTypes<bf16>}> : (tensor<320x640xf32, #ttnn_layout30>) -> tensor<320x640xbf16, #ttnn_layout31> loc(#loc)
        "ttnn.deallocate"(%1) <{force = false}> : (tensor<320x640xf32, #ttnn_layout30>) -> () loc(#loc)
        %3 = "ttnn.to_layout"(%2) <{layout = #ttnn.layout<tile>}> : (tensor<320x640xbf16, #ttnn_layout31>) -> tensor<320x640xbf16, #ttnn_layout32> loc(#loc)
        "ttnn.deallocate"(%2) <{force = false}> : (tensor<320x640xbf16, #ttnn_layout31>) -> () loc(#loc)
        %4 = "ttnn.to_device"(%3, %0) : (tensor<320x640xbf16, #ttnn_layout32>, !ttnn.device) -> tensor<320x640xbf16, #ttnn_layout29> loc(#loc)
        "ttnn.deallocate"(%3) <{force = false}> : (tensor<320x640xbf16, #ttnn_layout32>) -> () loc(#loc)
        return %4 : tensor<320x640xbf16, #ttnn_layout29> loc(#loc)
      } loc(#loc)
      func.func private @main_const_eval_20(%arg0: tensor<128xbf16, #ttnn_layout33> loc(unknown)) -> tensor<1x1x1x128xbf16, #ttnn_layout34> attributes {tt.function_type = "const_eval"} {
        %0 = "ttnn.get_device"() <{mesh_offset = #ttnn<mesh_offset 0x0>, mesh_shape = #ttnn<mesh_shape 1x1>}> : () -> !ttnn.device loc(#loc)
        %1 = "ttnn.to_device"(%arg0, %0) : (tensor<128xbf16, #ttnn_layout33>, !ttnn.device) -> tensor<128xbf16, #ttnn_layout35> loc(#loc)
        %2 = "ttnn.to_layout"(%1) <{layout = #ttnn.layout<tile>}> : (tensor<128xbf16, #ttnn_layout35>) -> tensor<128xbf16, #ttnn_layout36> loc(#loc)
        "ttnn.deallocate"(%1) <{force = false}> : (tensor<128xbf16, #ttnn_layout35>) -> () loc(#loc)
        %3 = "ttnn.reshape"(%2) <{shape = [1 : i32, 1 : i32, 1 : i32, 128 : i32]}> : (tensor<128xbf16, #ttnn_layout36>) -> tensor<1x1x1x128xbf16, #ttnn_layout34> loc(#loc499)
        "ttnn.deallocate"(%2) <{force = false}> : (tensor<128xbf16, #ttnn_layout36>) -> () loc(#loc499)
        return %3 : tensor<1x1x1x128xbf16, #ttnn_layout34> loc(#loc)
      } loc(#loc)
      func.func private @main_const_eval_21(%arg0: tensor<512xbf16, #ttnn_layout> loc(unknown)) -> tensor<1x1x1x512xbf16, #ttnn_layout1> attributes {tt.function_type = "const_eval"} {
        %0 = "ttnn.typecast"(%arg0) <{dtype = #ttcore.supportedDataTypes<f32>}> : (tensor<512xbf16, #ttnn_layout>) -> tensor<512xf32, #ttnn_layout2> loc(#loc)
        %1 = call @cpu_hoisted_const_eval_24665087(%0) {ttir.cpu_hoist_call} : (tensor<512xf32, #ttnn_layout2>) -> tensor<1x1x1x512xf32, #ttnn_layout3> loc(#loc)
        "ttnn.deallocate"(%0) <{force = false}> : (tensor<512xf32, #ttnn_layout2>) -> () loc(#loc)
        %2 = "ttnn.typecast"(%1) <{dtype = #ttcore.supportedDataTypes<bf16>}> : (tensor<1x1x1x512xf32, #ttnn_layout3>) -> tensor<1x1x1x512xbf16, #ttnn_layout1> loc(#loc500)
        "ttnn.deallocate"(%1) <{force = false}> : (tensor<1x1x1x512xf32, #ttnn_layout3>) -> () loc(#loc500)
        return %2 : tensor<1x1x1x512xbf16, #ttnn_layout1> loc(#loc)
      } loc(#loc)
      func.func private @main_const_eval_22(%arg0: tensor<512xbf16, #ttnn_layout> loc(unknown)) -> tensor<1x32x16x1xf32, #ttnn_layout4> attributes {tt.function_type = "const_eval"} {
        %0 = "ttnn.get_device"() <{mesh_offset = #ttnn<mesh_offset 0x0>, mesh_shape = #ttnn<mesh_shape 1x1>}> : () -> !ttnn.device loc(#loc)
        %1 = "ttnn.typecast"(%arg0) <{dtype = #ttcore.supportedDataTypes<f32>}> : (tensor<512xbf16, #ttnn_layout>) -> tensor<512xf32, #ttnn_layout2> loc(#loc)
        %2 = call @cpu_hoisted_const_eval_ce3dc089(%1) {ttir.cpu_hoist_call} : (tensor<512xf32, #ttnn_layout2>) -> tensor<1x32x16x1xf32, #ttnn_layout5> loc(#loc)
        "ttnn.deallocate"(%1) <{force = false}> : (tensor<512xf32, #ttnn_layout2>) -> () loc(#loc)
        %3 = "ttnn.to_layout"(%2) <{layout = #ttnn.layout<tile>}> : (tensor<1x32x16x1xf32, #ttnn_layout5>) -> tensor<1x32x16x1xf32, #ttnn_layout6> loc(#loc)
        "ttnn.deallocate"(%2) <{force = false}> : (tensor<1x32x16x1xf32, #ttnn_layout5>) -> () loc(#loc)
        %4 = "ttnn.to_device"(%3, %0) : (tensor<1x32x16x1xf32, #ttnn_layout6>, !ttnn.device) -> tensor<1x32x16x1xf32, #ttnn_layout4> loc(#loc)
        "ttnn.deallocate"(%3) <{force = false}> : (tensor<1x32x16x1xf32, #ttnn_layout6>) -> () loc(#loc)
        return %4 : tensor<1x32x16x1xf32, #ttnn_layout4> loc(#loc)
      } loc(#loc)
      func.func private @main_const_eval_23(%arg0: tensor<512xbf16, #ttnn_layout> loc(unknown)) -> tensor<1x1x1x512xbf16, #ttnn_layout1> attributes {tt.function_type = "const_eval"} {
        %0 = "ttnn.typecast"(%arg0) <{dtype = #ttcore.supportedDataTypes<f32>}> : (tensor<512xbf16, #ttnn_layout>) -> tensor<512xf32, #ttnn_layout2> loc(#loc)
        %1 = call @cpu_hoisted_const_eval_24665087(%0) {ttir.cpu_hoist_call} : (tensor<512xf32, #ttnn_layout2>) -> tensor<1x1x1x512xf32, #ttnn_layout3> loc(#loc)
        "ttnn.deallocate"(%0) <{force = false}> : (tensor<512xf32, #ttnn_layout2>) -> () loc(#loc)
        %2 = "ttnn.typecast"(%1) <{dtype = #ttcore.supportedDataTypes<bf16>}> : (tensor<1x1x1x512xf32, #ttnn_layout3>) -> tensor<1x1x1x512xbf16, #ttnn_layout1> loc(#loc501)
        "ttnn.deallocate"(%1) <{force = false}> : (tensor<1x1x1x512xf32, #ttnn_layout3>) -> () loc(#loc501)
        return %2 : tensor<1x1x1x512xbf16, #ttnn_layout1> loc(#loc)
      } loc(#loc)
      func.func private @main_const_eval_24(%arg0: tensor<256xbf16, #ttnn_layout11> loc(unknown)) -> tensor<1x32x8x1xf32, #ttnn_layout4> attributes {tt.function_type = "const_eval"} {
        %0 = "ttnn.get_device"() <{mesh_offset = #ttnn<mesh_offset 0x0>, mesh_shape = #ttnn<mesh_shape 1x1>}> : () -> !ttnn.device loc(#loc)
        %1 = "ttnn.typecast"(%arg0) <{dtype = #ttcore.supportedDataTypes<f32>}> : (tensor<256xbf16, #ttnn_layout11>) -> tensor<256xf32, #ttnn_layout12> loc(#loc)
        %2 = call @cpu_hoisted_const_eval_de413a9b(%1) {ttir.cpu_hoist_call} : (tensor<256xf32, #ttnn_layout12>) -> tensor<1x32x8x1xf32, #ttnn_layout13> loc(#loc)
        "ttnn.deallocate"(%1) <{force = false}> : (tensor<256xf32, #ttnn_layout12>) -> () loc(#loc)
        %3 = "ttnn.to_layout"(%2) <{layout = #ttnn.layout<tile>}> : (tensor<1x32x8x1xf32, #ttnn_layout13>) -> tensor<1x32x8x1xf32, #ttnn_layout6> loc(#loc)
        "ttnn.deallocate"(%2) <{force = false}> : (tensor<1x32x8x1xf32, #ttnn_layout13>) -> () loc(#loc)
        %4 = "ttnn.to_device"(%3, %0) : (tensor<1x32x8x1xf32, #ttnn_layout6>, !ttnn.device) -> tensor<1x32x8x1xf32, #ttnn_layout4> loc(#loc)
        "ttnn.deallocate"(%3) <{force = false}> : (tensor<1x32x8x1xf32, #ttnn_layout6>) -> () loc(#loc)
        return %4 : tensor<1x32x8x1xf32, #ttnn_layout4> loc(#loc)
      } loc(#loc)
      func.func private @main_const_eval_25(%arg0: tensor<256xbf16, #ttnn_layout11> loc(unknown)) -> tensor<1x1x1x256xbf16, #ttnn_layout37> attributes {tt.function_type = "const_eval"} {
        %0 = "ttnn.typecast"(%arg0) <{dtype = #ttcore.supportedDataTypes<f32>}> : (tensor<256xbf16, #ttnn_layout11>) -> tensor<256xf32, #ttnn_layout12> loc(#loc)
        %1 = call @cpu_hoisted_const_eval_8b649ce3(%0) {ttir.cpu_hoist_call} : (tensor<256xf32, #ttnn_layout12>) -> tensor<1x1x1x256xf32, #ttnn_layout38> loc(#loc)
        "ttnn.deallocate"(%0) <{force = false}> : (tensor<256xf32, #ttnn_layout12>) -> () loc(#loc)
        %2 = "ttnn.typecast"(%1) <{dtype = #ttcore.supportedDataTypes<bf16>}> : (tensor<1x1x1x256xf32, #ttnn_layout38>) -> tensor<1x1x1x256xbf16, #ttnn_layout37> loc(#loc502)
        "ttnn.deallocate"(%1) <{force = false}> : (tensor<1x1x1x256xf32, #ttnn_layout38>) -> () loc(#loc502)
        return %2 : tensor<1x1x1x256xbf16, #ttnn_layout37> loc(#loc)
      } loc(#loc)
      func.func private @main_const_eval_26(%arg0: tensor<512xbf16, #ttnn_layout> loc(unknown)) -> tensor<1x32x16x1xf32, #ttnn_layout4> attributes {tt.function_type = "const_eval"} {
        %0 = "ttnn.get_device"() <{mesh_offset = #ttnn<mesh_offset 0x0>, mesh_shape = #ttnn<mesh_shape 1x1>}> : () -> !ttnn.device loc(#loc)
        %1 = "ttnn.typecast"(%arg0) <{dtype = #ttcore.supportedDataTypes<f32>}> : (tensor<512xbf16, #ttnn_layout>) -> tensor<512xf32, #ttnn_layout2> loc(#loc)
        %2 = call @cpu_hoisted_const_eval_ce3dc089(%1) {ttir.cpu_hoist_call} : (tensor<512xf32, #ttnn_layout2>) -> tensor<1x32x16x1xf32, #ttnn_layout5> loc(#loc)
        "ttnn.deallocate"(%1) <{force = false}> : (tensor<512xf32, #ttnn_layout2>) -> () loc(#loc)
        %3 = "ttnn.to_layout"(%2) <{layout = #ttnn.layout<tile>}> : (tensor<1x32x16x1xf32, #ttnn_layout5>) -> tensor<1x32x16x1xf32, #ttnn_layout6> loc(#loc)
        "ttnn.deallocate"(%2) <{force = false}> : (tensor<1x32x16x1xf32, #ttnn_layout5>) -> () loc(#loc)
        %4 = "ttnn.to_device"(%3, %0) : (tensor<1x32x16x1xf32, #ttnn_layout6>, !ttnn.device) -> tensor<1x32x16x1xf32, #ttnn_layout4> loc(#loc)
        "ttnn.deallocate"(%3) <{force = false}> : (tensor<1x32x16x1xf32, #ttnn_layout6>) -> () loc(#loc)
        return %4 : tensor<1x32x16x1xf32, #ttnn_layout4> loc(#loc)
      } loc(#loc)
      func.func private @main_const_eval_27(%arg0: tensor<512xbf16, #ttnn_layout> loc(unknown)) -> tensor<1x32x16x1xf32, #ttnn_layout4> attributes {tt.function_type = "const_eval"} {
        %0 = "ttnn.get_device"() <{mesh_offset = #ttnn<mesh_offset 0x0>, mesh_shape = #ttnn<mesh_shape 1x1>}> : () -> !ttnn.device loc(#loc)
        %1 = "ttnn.typecast"(%arg0) <{dtype = #ttcore.supportedDataTypes<f32>}> : (tensor<512xbf16, #ttnn_layout>) -> tensor<512xf32, #ttnn_layout2> loc(#loc)
        %2 = call @cpu_hoisted_const_eval_ce3dc089(%1) {ttir.cpu_hoist_call} : (tensor<512xf32, #ttnn_layout2>) -> tensor<1x32x16x1xf32, #ttnn_layout5> loc(#loc)
        "ttnn.deallocate"(%1) <{force = false}> : (tensor<512xf32, #ttnn_layout2>) -> () loc(#loc)
        %3 = "ttnn.to_layout"(%2) <{layout = #ttnn.layout<tile>}> : (tensor<1x32x16x1xf32, #ttnn_layout5>) -> tensor<1x32x16x1xf32, #ttnn_layout6> loc(#loc)
        "ttnn.deallocate"(%2) <{force = false}> : (tensor<1x32x16x1xf32, #ttnn_layout5>) -> () loc(#loc)
        %4 = "ttnn.to_device"(%3, %0) : (tensor<1x32x16x1xf32, #ttnn_layout6>, !ttnn.device) -> tensor<1x32x16x1xf32, #ttnn_layout4> loc(#loc)
        "ttnn.deallocate"(%3) <{force = false}> : (tensor<1x32x16x1xf32, #ttnn_layout6>) -> () loc(#loc)
        return %4 : tensor<1x32x16x1xf32, #ttnn_layout4> loc(#loc)
      } loc(#loc)
      func.func private @main_const_eval_28(%arg0: tensor<512xbf16, #ttnn_layout> loc(unknown)) -> tensor<1x1x1x512xbf16, #ttnn_layout1> attributes {tt.function_type = "const_eval"} {
        %0 = "ttnn.typecast"(%arg0) <{dtype = #ttcore.supportedDataTypes<f32>}> : (tensor<512xbf16, #ttnn_layout>) -> tensor<512xf32, #ttnn_layout2> loc(#loc)
        %1 = call @cpu_hoisted_const_eval_24665087(%0) {ttir.cpu_hoist_call} : (tensor<512xf32, #ttnn_layout2>) -> tensor<1x1x1x512xf32, #ttnn_layout3> loc(#loc)
        "ttnn.deallocate"(%0) <{force = false}> : (tensor<512xf32, #ttnn_layout2>) -> () loc(#loc)
        %2 = "ttnn.typecast"(%1) <{dtype = #ttcore.supportedDataTypes<bf16>}> : (tensor<1x1x1x512xf32, #ttnn_layout3>) -> tensor<1x1x1x512xbf16, #ttnn_layout1> loc(#loc503)
        "ttnn.deallocate"(%1) <{force = false}> : (tensor<1x1x1x512xf32, #ttnn_layout3>) -> () loc(#loc503)
        return %2 : tensor<1x1x1x512xbf16, #ttnn_layout1> loc(#loc)
      } loc(#loc)
      func.func private @main_const_eval_29(%arg0: tensor<256xbf16, #ttnn_layout11> loc(unknown)) -> tensor<1x1x1x256xbf16, #ttnn_layout37> attributes {tt.function_type = "const_eval"} {
        %0 = "ttnn.typecast"(%arg0) <{dtype = #ttcore.supportedDataTypes<f32>}> : (tensor<256xbf16, #ttnn_layout11>) -> tensor<256xf32, #ttnn_layout12> loc(#loc)
        %1 = call @cpu_hoisted_const_eval_8b649ce3(%0) {ttir.cpu_hoist_call} : (tensor<256xf32, #ttnn_layout12>) -> tensor<1x1x1x256xf32, #ttnn_layout38> loc(#loc)
        "ttnn.deallocate"(%0) <{force = false}> : (tensor<256xf32, #ttnn_layout12>) -> () loc(#loc)
        %2 = "ttnn.typecast"(%1) <{dtype = #ttcore.supportedDataTypes<bf16>}> : (tensor<1x1x1x256xf32, #ttnn_layout38>) -> tensor<1x1x1x256xbf16, #ttnn_layout37> loc(#loc504)
        "ttnn.deallocate"(%1) <{force = false}> : (tensor<1x1x1x256xf32, #ttnn_layout38>) -> () loc(#loc504)
        return %2 : tensor<1x1x1x256xbf16, #ttnn_layout37> loc(#loc)
      } loc(#loc)
      func.func private @main_const_eval_30(%arg0: tensor<512xbf16, #ttnn_layout> loc(unknown)) -> tensor<1x32x16x1xf32, #ttnn_layout4> attributes {tt.function_type = "const_eval"} {
        %0 = "ttnn.get_device"() <{mesh_offset = #ttnn<mesh_offset 0x0>, mesh_shape = #ttnn<mesh_shape 1x1>}> : () -> !ttnn.device loc(#loc)
        %1 = "ttnn.typecast"(%arg0) <{dtype = #ttcore.supportedDataTypes<f32>}> : (tensor<512xbf16, #ttnn_layout>) -> tensor<512xf32, #ttnn_layout2> loc(#loc)
        %2 = call @cpu_hoisted_const_eval_ce3dc089(%1) {ttir.cpu_hoist_call} : (tensor<512xf32, #ttnn_layout2>) -> tensor<1x32x16x1xf32, #ttnn_layout5> loc(#loc)
        "ttnn.deallocate"(%1) <{force = false}> : (tensor<512xf32, #ttnn_layout2>) -> () loc(#loc)
        %3 = "ttnn.to_layout"(%2) <{layout = #ttnn.layout<tile>}> : (tensor<1x32x16x1xf32, #ttnn_layout5>) -> tensor<1x32x16x1xf32, #ttnn_layout6> loc(#loc)
        "ttnn.deallocate"(%2) <{force = false}> : (tensor<1x32x16x1xf32, #ttnn_layout5>) -> () loc(#loc)
        %4 = "ttnn.to_device"(%3, %0) : (tensor<1x32x16x1xf32, #ttnn_layout6>, !ttnn.device) -> tensor<1x32x16x1xf32, #ttnn_layout4> loc(#loc)
        "ttnn.deallocate"(%3) <{force = false}> : (tensor<1x32x16x1xf32, #ttnn_layout6>) -> () loc(#loc)
        return %4 : tensor<1x32x16x1xf32, #ttnn_layout4> loc(#loc)
      } loc(#loc)
      func.func private @main_const_eval_31(%arg0: tensor<512xbf16, #ttnn_layout> loc(unknown)) -> tensor<1x32x16x1xf32, #ttnn_layout4> attributes {tt.function_type = "const_eval"} {
        %0 = "ttnn.get_device"() <{mesh_offset = #ttnn<mesh_offset 0x0>, mesh_shape = #ttnn<mesh_shape 1x1>}> : () -> !ttnn.device loc(#loc)
        %1 = "ttnn.typecast"(%arg0) <{dtype = #ttcore.supportedDataTypes<f32>}> : (tensor<512xbf16, #ttnn_layout>) -> tensor<512xf32, #ttnn_layout2> loc(#loc)
        %2 = call @cpu_hoisted_const_eval_ea3392f6(%1) {ttir.cpu_hoist_call} : (tensor<512xf32, #ttnn_layout2>) -> tensor<1x32x16x1xf32, #ttnn_layout5> loc(#loc)
        "ttnn.deallocate"(%1) <{force = false}> : (tensor<512xf32, #ttnn_layout2>) -> () loc(#loc)
        %3 = "ttnn.to_layout"(%2) <{layout = #ttnn.layout<tile>}> : (tensor<1x32x16x1xf32, #ttnn_layout5>) -> tensor<1x32x16x1xf32, #ttnn_layout6> loc(#loc)
        "ttnn.deallocate"(%2) <{force = false}> : (tensor<1x32x16x1xf32, #ttnn_layout5>) -> () loc(#loc)
        %4 = "ttnn.to_device"(%3, %0) : (tensor<1x32x16x1xf32, #ttnn_layout6>, !ttnn.device) -> tensor<1x32x16x1xf32, #ttnn_layout4> loc(#loc)
        "ttnn.deallocate"(%3) <{force = false}> : (tensor<1x32x16x1xf32, #ttnn_layout6>) -> () loc(#loc)
        return %4 : tensor<1x32x16x1xf32, #ttnn_layout4> loc(#loc)
      } loc(#loc)
      func.func private @main_const_eval_32(%arg0: tensor<512xbf16, #ttnn_layout> loc(unknown)) -> tensor<1x1x1x512xbf16, #ttnn_layout1> attributes {tt.function_type = "const_eval"} {
        %0 = "ttnn.typecast"(%arg0) <{dtype = #ttcore.supportedDataTypes<f32>}> : (tensor<512xbf16, #ttnn_layout>) -> tensor<512xf32, #ttnn_layout2> loc(#loc)
        %1 = call @cpu_hoisted_const_eval_24665087(%0) {ttir.cpu_hoist_call} : (tensor<512xf32, #ttnn_layout2>) -> tensor<1x1x1x512xf32, #ttnn_layout3> loc(#loc)
        "ttnn.deallocate"(%0) <{force = false}> : (tensor<512xf32, #ttnn_layout2>) -> () loc(#loc)
        %2 = "ttnn.typecast"(%1) <{dtype = #ttcore.supportedDataTypes<bf16>}> : (tensor<1x1x1x512xf32, #ttnn_layout3>) -> tensor<1x1x1x512xbf16, #ttnn_layout1> loc(#loc505)
        "ttnn.deallocate"(%1) <{force = false}> : (tensor<1x1x1x512xf32, #ttnn_layout3>) -> () loc(#loc505)
        return %2 : tensor<1x1x1x512xbf16, #ttnn_layout1> loc(#loc)
      } loc(#loc)
      func.func private @main_const_eval_33(%arg0: tensor<256xbf16, #ttnn_layout11> loc(unknown)) -> tensor<1x32x8x1xf32, #ttnn_layout4> attributes {tt.function_type = "const_eval"} {
        %0 = "ttnn.get_device"() <{mesh_offset = #ttnn<mesh_offset 0x0>, mesh_shape = #ttnn<mesh_shape 1x1>}> : () -> !ttnn.device loc(#loc)
        %1 = "ttnn.typecast"(%arg0) <{dtype = #ttcore.supportedDataTypes<f32>}> : (tensor<256xbf16, #ttnn_layout11>) -> tensor<256xf32, #ttnn_layout12> loc(#loc)
        %2 = call @cpu_hoisted_const_eval_de413a9b(%1) {ttir.cpu_hoist_call} : (tensor<256xf32, #ttnn_layout12>) -> tensor<1x32x8x1xf32, #ttnn_layout13> loc(#loc)
        "ttnn.deallocate"(%1) <{force = false}> : (tensor<256xf32, #ttnn_layout12>) -> () loc(#loc)
        %3 = "ttnn.to_layout"(%2) <{layout = #ttnn.layout<tile>}> : (tensor<1x32x8x1xf32, #ttnn_layout13>) -> tensor<1x32x8x1xf32, #ttnn_layout6> loc(#loc)
        "ttnn.deallocate"(%2) <{force = false}> : (tensor<1x32x8x1xf32, #ttnn_layout13>) -> () loc(#loc)
        %4 = "ttnn.to_device"(%3, %0) : (tensor<1x32x8x1xf32, #ttnn_layout6>, !ttnn.device) -> tensor<1x32x8x1xf32, #ttnn_layout4> loc(#loc)
        "ttnn.deallocate"(%3) <{force = false}> : (tensor<1x32x8x1xf32, #ttnn_layout6>) -> () loc(#loc)
        return %4 : tensor<1x32x8x1xf32, #ttnn_layout4> loc(#loc)
      } loc(#loc)
      func.func private @main_const_eval_34(%arg0: tensor<512xbf16, #ttnn_layout> loc(unknown)) -> tensor<1x32x16x1xf32, #ttnn_layout4> attributes {tt.function_type = "const_eval"} {
        %0 = "ttnn.get_device"() <{mesh_offset = #ttnn<mesh_offset 0x0>, mesh_shape = #ttnn<mesh_shape 1x1>}> : () -> !ttnn.device loc(#loc)
        %1 = "ttnn.typecast"(%arg0) <{dtype = #ttcore.supportedDataTypes<f32>}> : (tensor<512xbf16, #ttnn_layout>) -> tensor<512xf32, #ttnn_layout2> loc(#loc)
        %2 = call @cpu_hoisted_const_eval_ce3dc089(%1) {ttir.cpu_hoist_call} : (tensor<512xf32, #ttnn_layout2>) -> tensor<1x32x16x1xf32, #ttnn_layout5> loc(#loc)
        "ttnn.deallocate"(%1) <{force = false}> : (tensor<512xf32, #ttnn_layout2>) -> () loc(#loc)
        %3 = "ttnn.to_layout"(%2) <{layout = #ttnn.layout<tile>}> : (tensor<1x32x16x1xf32, #ttnn_layout5>) -> tensor<1x32x16x1xf32, #ttnn_layout6> loc(#loc)
        "ttnn.deallocate"(%2) <{force = false}> : (tensor<1x32x16x1xf32, #ttnn_layout5>) -> () loc(#loc)
        %4 = "ttnn.to_device"(%3, %0) : (tensor<1x32x16x1xf32, #ttnn_layout6>, !ttnn.device) -> tensor<1x32x16x1xf32, #ttnn_layout4> loc(#loc)
        "ttnn.deallocate"(%3) <{force = false}> : (tensor<1x32x16x1xf32, #ttnn_layout6>) -> () loc(#loc)
        return %4 : tensor<1x32x16x1xf32, #ttnn_layout4> loc(#loc)
      } loc(#loc)
      func.func private @main_const_eval_35(%arg0: tensor<512xbf16, #ttnn_layout> loc(unknown)) -> tensor<1x32x16x1xf32, #ttnn_layout4> attributes {tt.function_type = "const_eval"} {
        %0 = "ttnn.get_device"() <{mesh_offset = #ttnn<mesh_offset 0x0>, mesh_shape = #ttnn<mesh_shape 1x1>}> : () -> !ttnn.device loc(#loc)
        %1 = "ttnn.typecast"(%arg0) <{dtype = #ttcore.supportedDataTypes<f32>}> : (tensor<512xbf16, #ttnn_layout>) -> tensor<512xf32, #ttnn_layout2> loc(#loc)
        %2 = call @cpu_hoisted_const_eval_ce3dc089(%1) {ttir.cpu_hoist_call} : (tensor<512xf32, #ttnn_layout2>) -> tensor<1x32x16x1xf32, #ttnn_layout5> loc(#loc)
        "ttnn.deallocate"(%1) <{force = false}> : (tensor<512xf32, #ttnn_layout2>) -> () loc(#loc)
        %3 = "ttnn.to_layout"(%2) <{layout = #ttnn.layout<tile>}> : (tensor<1x32x16x1xf32, #ttnn_layout5>) -> tensor<1x32x16x1xf32, #ttnn_layout6> loc(#loc)
        "ttnn.deallocate"(%2) <{force = false}> : (tensor<1x32x16x1xf32, #ttnn_layout5>) -> () loc(#loc)
        %4 = "ttnn.to_device"(%3, %0) : (tensor<1x32x16x1xf32, #ttnn_layout6>, !ttnn.device) -> tensor<1x32x16x1xf32, #ttnn_layout4> loc(#loc)
        "ttnn.deallocate"(%3) <{force = false}> : (tensor<1x32x16x1xf32, #ttnn_layout6>) -> () loc(#loc)
        return %4 : tensor<1x32x16x1xf32, #ttnn_layout4> loc(#loc)
      } loc(#loc)
      func.func private @main_const_eval_36(%arg0: tensor<512xbf16, #ttnn_layout> loc(unknown)) -> tensor<1x1x1x512xbf16, #ttnn_layout1> attributes {tt.function_type = "const_eval"} {
        %0 = "ttnn.typecast"(%arg0) <{dtype = #ttcore.supportedDataTypes<f32>}> : (tensor<512xbf16, #ttnn_layout>) -> tensor<512xf32, #ttnn_layout2> loc(#loc)
        %1 = call @cpu_hoisted_const_eval_24665087(%0) {ttir.cpu_hoist_call} : (tensor<512xf32, #ttnn_layout2>) -> tensor<1x1x1x512xf32, #ttnn_layout3> loc(#loc)
        "ttnn.deallocate"(%0) <{force = false}> : (tensor<512xf32, #ttnn_layout2>) -> () loc(#loc)
        %2 = "ttnn.typecast"(%1) <{dtype = #ttcore.supportedDataTypes<bf16>}> : (tensor<1x1x1x512xf32, #ttnn_layout3>) -> tensor<1x1x1x512xbf16, #ttnn_layout1> loc(#loc506)
        "ttnn.deallocate"(%1) <{force = false}> : (tensor<1x1x1x512xf32, #ttnn_layout3>) -> () loc(#loc506)
        return %2 : tensor<1x1x1x512xbf16, #ttnn_layout1> loc(#loc)
      } loc(#loc)
      func.func private @main_const_eval_37(%arg0: tensor<512xbf16, #ttnn_layout> loc(unknown)) -> tensor<1x32x16x1xf32, #ttnn_layout4> attributes {tt.function_type = "const_eval"} {
        %0 = "ttnn.get_device"() <{mesh_offset = #ttnn<mesh_offset 0x0>, mesh_shape = #ttnn<mesh_shape 1x1>}> : () -> !ttnn.device loc(#loc)
        %1 = "ttnn.typecast"(%arg0) <{dtype = #ttcore.supportedDataTypes<f32>}> : (tensor<512xbf16, #ttnn_layout>) -> tensor<512xf32, #ttnn_layout2> loc(#loc)
        %2 = call @cpu_hoisted_const_eval_ce3dc089(%1) {ttir.cpu_hoist_call} : (tensor<512xf32, #ttnn_layout2>) -> tensor<1x32x16x1xf32, #ttnn_layout5> loc(#loc)
        "ttnn.deallocate"(%1) <{force = false}> : (tensor<512xf32, #ttnn_layout2>) -> () loc(#loc)
        %3 = "ttnn.to_layout"(%2) <{layout = #ttnn.layout<tile>}> : (tensor<1x32x16x1xf32, #ttnn_layout5>) -> tensor<1x32x16x1xf32, #ttnn_layout6> loc(#loc)
        "ttnn.deallocate"(%2) <{force = false}> : (tensor<1x32x16x1xf32, #ttnn_layout5>) -> () loc(#loc)
        %4 = "ttnn.to_device"(%3, %0) : (tensor<1x32x16x1xf32, #ttnn_layout6>, !ttnn.device) -> tensor<1x32x16x1xf32, #ttnn_layout4> loc(#loc)
        "ttnn.deallocate"(%3) <{force = false}> : (tensor<1x32x16x1xf32, #ttnn_layout6>) -> () loc(#loc)
        return %4 : tensor<1x32x16x1xf32, #ttnn_layout4> loc(#loc)
      } loc(#loc)
      func.func private @main_const_eval_38() -> tensor<160x320xbf16, #ttnn_layout39> attributes {tt.function_type = "const_eval"} {
        %0 = "ttnn.get_device"() <{mesh_offset = #ttnn<mesh_offset 0x0>, mesh_shape = #ttnn<mesh_shape 1x1>}> : () -> !ttnn.device loc(#loc)
        %1 = call @cpu_hoisted_const_eval_0df71a7d() {ttir.cpu_hoist_call} : () -> tensor<160x320xf32, #ttnn_layout40> loc(#loc)
        %2 = "ttnn.typecast"(%1) <{dtype = #ttcore.supportedDataTypes<bf16>}> : (tensor<160x320xf32, #ttnn_layout40>) -> tensor<160x320xbf16, #ttnn_layout41> loc(#loc)
        "ttnn.deallocate"(%1) <{force = false}> : (tensor<160x320xf32, #ttnn_layout40>) -> () loc(#loc)
        %3 = "ttnn.to_layout"(%2) <{layout = #ttnn.layout<tile>}> : (tensor<160x320xbf16, #ttnn_layout41>) -> tensor<160x320xbf16, #ttnn_layout42> loc(#loc)
        "ttnn.deallocate"(%2) <{force = false}> : (tensor<160x320xbf16, #ttnn_layout41>) -> () loc(#loc)
        %4 = "ttnn.to_device"(%3, %0) : (tensor<160x320xbf16, #ttnn_layout42>, !ttnn.device) -> tensor<160x320xbf16, #ttnn_layout39> loc(#loc)
        "ttnn.deallocate"(%3) <{force = false}> : (tensor<160x320xbf16, #ttnn_layout42>) -> () loc(#loc)
        return %4 : tensor<160x320xbf16, #ttnn_layout39> loc(#loc)
      } loc(#loc)
      func.func private @main_const_eval_39(%arg0: tensor<512xbf16, #ttnn_layout> loc(unknown)) -> tensor<1x32x16x1xf32, #ttnn_layout4> attributes {tt.function_type = "const_eval"} {
        %0 = "ttnn.get_device"() <{mesh_offset = #ttnn<mesh_offset 0x0>, mesh_shape = #ttnn<mesh_shape 1x1>}> : () -> !ttnn.device loc(#loc)
        %1 = "ttnn.typecast"(%arg0) <{dtype = #ttcore.supportedDataTypes<f32>}> : (tensor<512xbf16, #ttnn_layout>) -> tensor<512xf32, #ttnn_layout2> loc(#loc)
        %2 = call @cpu_hoisted_const_eval_ce3dc089(%1) {ttir.cpu_hoist_call} : (tensor<512xf32, #ttnn_layout2>) -> tensor<1x32x16x1xf32, #ttnn_layout5> loc(#loc)
        "ttnn.deallocate"(%1) <{force = false}> : (tensor<512xf32, #ttnn_layout2>) -> () loc(#loc)
        %3 = "ttnn.to_layout"(%2) <{layout = #ttnn.layout<tile>}> : (tensor<1x32x16x1xf32, #ttnn_layout5>) -> tensor<1x32x16x1xf32, #ttnn_layout6> loc(#loc)
        "ttnn.deallocate"(%2) <{force = false}> : (tensor<1x32x16x1xf32, #ttnn_layout5>) -> () loc(#loc)
        %4 = "ttnn.to_device"(%3, %0) : (tensor<1x32x16x1xf32, #ttnn_layout6>, !ttnn.device) -> tensor<1x32x16x1xf32, #ttnn_layout4> loc(#loc)
        "ttnn.deallocate"(%3) <{force = false}> : (tensor<1x32x16x1xf32, #ttnn_layout6>) -> () loc(#loc)
        return %4 : tensor<1x32x16x1xf32, #ttnn_layout4> loc(#loc)
      } loc(#loc)
      func.func private @main_const_eval_40(%arg0: tensor<256xbf16, #ttnn_layout11> loc(unknown)) -> tensor<1x32x8x1xf32, #ttnn_layout4> attributes {tt.function_type = "const_eval"} {
        %0 = "ttnn.get_device"() <{mesh_offset = #ttnn<mesh_offset 0x0>, mesh_shape = #ttnn<mesh_shape 1x1>}> : () -> !ttnn.device loc(#loc)
        %1 = "ttnn.typecast"(%arg0) <{dtype = #ttcore.supportedDataTypes<f32>}> : (tensor<256xbf16, #ttnn_layout11>) -> tensor<256xf32, #ttnn_layout12> loc(#loc)
        %2 = call @cpu_hoisted_const_eval_de413a9b(%1) {ttir.cpu_hoist_call} : (tensor<256xf32, #ttnn_layout12>) -> tensor<1x32x8x1xf32, #ttnn_layout13> loc(#loc)
        "ttnn.deallocate"(%1) <{force = false}> : (tensor<256xf32, #ttnn_layout12>) -> () loc(#loc)
        %3 = "ttnn.to_layout"(%2) <{layout = #ttnn.layout<tile>}> : (tensor<1x32x8x1xf32, #ttnn_layout13>) -> tensor<1x32x8x1xf32, #ttnn_layout6> loc(#loc)
        "ttnn.deallocate"(%2) <{force = false}> : (tensor<1x32x8x1xf32, #ttnn_layout13>) -> () loc(#loc)
        %4 = "ttnn.to_device"(%3, %0) : (tensor<1x32x8x1xf32, #ttnn_layout6>, !ttnn.device) -> tensor<1x32x8x1xf32, #ttnn_layout4> loc(#loc)
        "ttnn.deallocate"(%3) <{force = false}> : (tensor<1x32x8x1xf32, #ttnn_layout6>) -> () loc(#loc)
        return %4 : tensor<1x32x8x1xf32, #ttnn_layout4> loc(#loc)
      } loc(#loc)
      func.func private @main_const_eval_41(%arg0: tensor<512xbf16, #ttnn_layout> loc(unknown)) -> tensor<1x32x16x1xf32, #ttnn_layout4> attributes {tt.function_type = "const_eval"} {
        %0 = "ttnn.get_device"() <{mesh_offset = #ttnn<mesh_offset 0x0>, mesh_shape = #ttnn<mesh_shape 1x1>}> : () -> !ttnn.device loc(#loc)
        %1 = "ttnn.typecast"(%arg0) <{dtype = #ttcore.supportedDataTypes<f32>}> : (tensor<512xbf16, #ttnn_layout>) -> tensor<512xf32, #ttnn_layout2> loc(#loc)
        %2 = call @cpu_hoisted_const_eval_ea3392f6(%1) {ttir.cpu_hoist_call} : (tensor<512xf32, #ttnn_layout2>) -> tensor<1x32x16x1xf32, #ttnn_layout5> loc(#loc)
        "ttnn.deallocate"(%1) <{force = false}> : (tensor<512xf32, #ttnn_layout2>) -> () loc(#loc)
        %3 = "ttnn.to_layout"(%2) <{layout = #ttnn.layout<tile>}> : (tensor<1x32x16x1xf32, #ttnn_layout5>) -> tensor<1x32x16x1xf32, #ttnn_layout6> loc(#loc)
        "ttnn.deallocate"(%2) <{force = false}> : (tensor<1x32x16x1xf32, #ttnn_layout5>) -> () loc(#loc)
        %4 = "ttnn.to_device"(%3, %0) : (tensor<1x32x16x1xf32, #ttnn_layout6>, !ttnn.device) -> tensor<1x32x16x1xf32, #ttnn_layout4> loc(#loc)
        "ttnn.deallocate"(%3) <{force = false}> : (tensor<1x32x16x1xf32, #ttnn_layout6>) -> () loc(#loc)
        return %4 : tensor<1x32x16x1xf32, #ttnn_layout4> loc(#loc)
      } loc(#loc)
      func.func private @main_const_eval_42(%arg0: tensor<512xbf16, #ttnn_layout> loc(unknown)) -> tensor<1x1x1x512xbf16, #ttnn_layout1> attributes {tt.function_type = "const_eval"} {
        %0 = "ttnn.typecast"(%arg0) <{dtype = #ttcore.supportedDataTypes<f32>}> : (tensor<512xbf16, #ttnn_layout>) -> tensor<512xf32, #ttnn_layout2> loc(#loc)
        %1 = call @cpu_hoisted_const_eval_24665087(%0) {ttir.cpu_hoist_call} : (tensor<512xf32, #ttnn_layout2>) -> tensor<1x1x1x512xf32, #ttnn_layout3> loc(#loc)
        "ttnn.deallocate"(%0) <{force = false}> : (tensor<512xf32, #ttnn_layout2>) -> () loc(#loc)
        %2 = "ttnn.typecast"(%1) <{dtype = #ttcore.supportedDataTypes<bf16>}> : (tensor<1x1x1x512xf32, #ttnn_layout3>) -> tensor<1x1x1x512xbf16, #ttnn_layout1> loc(#loc507)
        "ttnn.deallocate"(%1) <{force = false}> : (tensor<1x1x1x512xf32, #ttnn_layout3>) -> () loc(#loc507)
        return %2 : tensor<1x1x1x512xbf16, #ttnn_layout1> loc(#loc)
      } loc(#loc)
      func.func private @main_const_eval_43(%arg0: tensor<512xbf16, #ttnn_layout> loc(unknown)) -> tensor<1x32x16x1xf32, #ttnn_layout4> attributes {tt.function_type = "const_eval"} {
        %0 = "ttnn.get_device"() <{mesh_offset = #ttnn<mesh_offset 0x0>, mesh_shape = #ttnn<mesh_shape 1x1>}> : () -> !ttnn.device loc(#loc)
        %1 = "ttnn.typecast"(%arg0) <{dtype = #ttcore.supportedDataTypes<f32>}> : (tensor<512xbf16, #ttnn_layout>) -> tensor<512xf32, #ttnn_layout2> loc(#loc)
        %2 = call @cpu_hoisted_const_eval_ce3dc089(%1) {ttir.cpu_hoist_call} : (tensor<512xf32, #ttnn_layout2>) -> tensor<1x32x16x1xf32, #ttnn_layout5> loc(#loc)
        "ttnn.deallocate"(%1) <{force = false}> : (tensor<512xf32, #ttnn_layout2>) -> () loc(#loc)
        %3 = "ttnn.to_layout"(%2) <{layout = #ttnn.layout<tile>}> : (tensor<1x32x16x1xf32, #ttnn_layout5>) -> tensor<1x32x16x1xf32, #ttnn_layout6> loc(#loc)
        "ttnn.deallocate"(%2) <{force = false}> : (tensor<1x32x16x1xf32, #ttnn_layout5>) -> () loc(#loc)
        %4 = "ttnn.to_device"(%3, %0) : (tensor<1x32x16x1xf32, #ttnn_layout6>, !ttnn.device) -> tensor<1x32x16x1xf32, #ttnn_layout4> loc(#loc)
        "ttnn.deallocate"(%3) <{force = false}> : (tensor<1x32x16x1xf32, #ttnn_layout6>) -> () loc(#loc)
        return %4 : tensor<1x32x16x1xf32, #ttnn_layout4> loc(#loc)
      } loc(#loc)
      func.func private @main_const_eval_44(%arg0: tensor<256xbf16, #ttnn_layout11> loc(unknown)) -> tensor<1x1x1x256xbf16, #ttnn_layout37> attributes {tt.function_type = "const_eval"} {
        %0 = "ttnn.typecast"(%arg0) <{dtype = #ttcore.supportedDataTypes<f32>}> : (tensor<256xbf16, #ttnn_layout11>) -> tensor<256xf32, #ttnn_layout12> loc(#loc)
        %1 = call @cpu_hoisted_const_eval_8b649ce3(%0) {ttir.cpu_hoist_call} : (tensor<256xf32, #ttnn_layout12>) -> tensor<1x1x1x256xf32, #ttnn_layout38> loc(#loc)
        "ttnn.deallocate"(%0) <{force = false}> : (tensor<256xf32, #ttnn_layout12>) -> () loc(#loc)
        %2 = "ttnn.typecast"(%1) <{dtype = #ttcore.supportedDataTypes<bf16>}> : (tensor<1x1x1x256xf32, #ttnn_layout38>) -> tensor<1x1x1x256xbf16, #ttnn_layout37> loc(#loc508)
        "ttnn.deallocate"(%1) <{force = false}> : (tensor<1x1x1x256xf32, #ttnn_layout38>) -> () loc(#loc508)
        return %2 : tensor<1x1x1x256xbf16, #ttnn_layout37> loc(#loc)
      } loc(#loc)
      func.func private @main_const_eval_45(%arg0: tensor<256xbf16, #ttnn_layout11> loc(unknown)) -> tensor<1x1x1x256xbf16, #ttnn_layout37> attributes {tt.function_type = "const_eval"} {
        %0 = "ttnn.typecast"(%arg0) <{dtype = #ttcore.supportedDataTypes<f32>}> : (tensor<256xbf16, #ttnn_layout11>) -> tensor<256xf32, #ttnn_layout12> loc(#loc)
        %1 = call @cpu_hoisted_const_eval_8b649ce3(%0) {ttir.cpu_hoist_call} : (tensor<256xf32, #ttnn_layout12>) -> tensor<1x1x1x256xf32, #ttnn_layout38> loc(#loc)
        "ttnn.deallocate"(%0) <{force = false}> : (tensor<256xf32, #ttnn_layout12>) -> () loc(#loc)
        %2 = "ttnn.typecast"(%1) <{dtype = #ttcore.supportedDataTypes<bf16>}> : (tensor<1x1x1x256xf32, #ttnn_layout38>) -> tensor<1x1x1x256xbf16, #ttnn_layout37> loc(#loc509)
        "ttnn.deallocate"(%1) <{force = false}> : (tensor<1x1x1x256xf32, #ttnn_layout38>) -> () loc(#loc509)
        return %2 : tensor<1x1x1x256xbf16, #ttnn_layout37> loc(#loc)
      } loc(#loc)
      func.func private @main_const_eval_46(%arg0: tensor<512xbf16, #ttnn_layout> loc(unknown)) -> tensor<1x32x16x1xf32, #ttnn_layout4> attributes {tt.function_type = "const_eval"} {
        %0 = "ttnn.get_device"() <{mesh_offset = #ttnn<mesh_offset 0x0>, mesh_shape = #ttnn<mesh_shape 1x1>}> : () -> !ttnn.device loc(#loc)
        %1 = "ttnn.typecast"(%arg0) <{dtype = #ttcore.supportedDataTypes<f32>}> : (tensor<512xbf16, #ttnn_layout>) -> tensor<512xf32, #ttnn_layout2> loc(#loc)
        %2 = call @cpu_hoisted_const_eval_ce3dc089(%1) {ttir.cpu_hoist_call} : (tensor<512xf32, #ttnn_layout2>) -> tensor<1x32x16x1xf32, #ttnn_layout5> loc(#loc)
        "ttnn.deallocate"(%1) <{force = false}> : (tensor<512xf32, #ttnn_layout2>) -> () loc(#loc)
        %3 = "ttnn.to_layout"(%2) <{layout = #ttnn.layout<tile>}> : (tensor<1x32x16x1xf32, #ttnn_layout5>) -> tensor<1x32x16x1xf32, #ttnn_layout6> loc(#loc)
        "ttnn.deallocate"(%2) <{force = false}> : (tensor<1x32x16x1xf32, #ttnn_layout5>) -> () loc(#loc)
        %4 = "ttnn.to_device"(%3, %0) : (tensor<1x32x16x1xf32, #ttnn_layout6>, !ttnn.device) -> tensor<1x32x16x1xf32, #ttnn_layout4> loc(#loc)
        "ttnn.deallocate"(%3) <{force = false}> : (tensor<1x32x16x1xf32, #ttnn_layout6>) -> () loc(#loc)
        return %4 : tensor<1x32x16x1xf32, #ttnn_layout4> loc(#loc)
      } loc(#loc)
      func.func private @main_const_eval_47(%arg0: tensor<128xbf16, #ttnn_layout33> loc(unknown)) -> tensor<1x1x1x128xbf16, #ttnn_layout43> attributes {tt.function_type = "const_eval"} {
        %0 = "ttnn.typecast"(%arg0) <{dtype = #ttcore.supportedDataTypes<f32>}> : (tensor<128xbf16, #ttnn_layout33>) -> tensor<128xf32, #ttnn_layout44> loc(#loc)
        %1 = call @cpu_hoisted_const_eval_38a1353c(%0) {ttir.cpu_hoist_call} : (tensor<128xf32, #ttnn_layout44>) -> tensor<1x1x1x128xf32, #ttnn_layout45> loc(#loc)
        "ttnn.deallocate"(%0) <{force = false}> : (tensor<128xf32, #ttnn_layout44>) -> () loc(#loc)
        %2 = "ttnn.typecast"(%1) <{dtype = #ttcore.supportedDataTypes<bf16>}> : (tensor<1x1x1x128xf32, #ttnn_layout45>) -> tensor<1x1x1x128xbf16, #ttnn_layout43> loc(#loc510)
        "ttnn.deallocate"(%1) <{force = false}> : (tensor<1x1x1x128xf32, #ttnn_layout45>) -> () loc(#loc510)
        return %2 : tensor<1x1x1x128xbf16, #ttnn_layout43> loc(#loc)
      } loc(#loc)
      func.func private @main_const_eval_48(%arg0: tensor<512xbf16, #ttnn_layout> loc(unknown)) -> tensor<1x32x16x1xf32, #ttnn_layout4> attributes {tt.function_type = "const_eval"} {
        %0 = "ttnn.get_device"() <{mesh_offset = #ttnn<mesh_offset 0x0>, mesh_shape = #ttnn<mesh_shape 1x1>}> : () -> !ttnn.device loc(#loc)
        %1 = "ttnn.typecast"(%arg0) <{dtype = #ttcore.supportedDataTypes<f32>}> : (tensor<512xbf16, #ttnn_layout>) -> tensor<512xf32, #ttnn_layout2> loc(#loc)
        %2 = call @cpu_hoisted_const_eval_ce3dc089(%1) {ttir.cpu_hoist_call} : (tensor<512xf32, #ttnn_layout2>) -> tensor<1x32x16x1xf32, #ttnn_layout5> loc(#loc)
        "ttnn.deallocate"(%1) <{force = false}> : (tensor<512xf32, #ttnn_layout2>) -> () loc(#loc)
        %3 = "ttnn.to_layout"(%2) <{layout = #ttnn.layout<tile>}> : (tensor<1x32x16x1xf32, #ttnn_layout5>) -> tensor<1x32x16x1xf32, #ttnn_layout6> loc(#loc)
        "ttnn.deallocate"(%2) <{force = false}> : (tensor<1x32x16x1xf32, #ttnn_layout5>) -> () loc(#loc)
        %4 = "ttnn.to_device"(%3, %0) : (tensor<1x32x16x1xf32, #ttnn_layout6>, !ttnn.device) -> tensor<1x32x16x1xf32, #ttnn_layout4> loc(#loc)
        "ttnn.deallocate"(%3) <{force = false}> : (tensor<1x32x16x1xf32, #ttnn_layout6>) -> () loc(#loc)
        return %4 : tensor<1x32x16x1xf32, #ttnn_layout4> loc(#loc)
      } loc(#loc)
      func.func private @main_const_eval_49(%arg0: tensor<512xbf16, #ttnn_layout> loc(unknown)) -> tensor<1x32x16x1xf32, #ttnn_layout4> attributes {tt.function_type = "const_eval"} {
        %0 = "ttnn.get_device"() <{mesh_offset = #ttnn<mesh_offset 0x0>, mesh_shape = #ttnn<mesh_shape 1x1>}> : () -> !ttnn.device loc(#loc)
        %1 = "ttnn.typecast"(%arg0) <{dtype = #ttcore.supportedDataTypes<f32>}> : (tensor<512xbf16, #ttnn_layout>) -> tensor<512xf32, #ttnn_layout2> loc(#loc)
        %2 = call @cpu_hoisted_const_eval_ce3dc089(%1) {ttir.cpu_hoist_call} : (tensor<512xf32, #ttnn_layout2>) -> tensor<1x32x16x1xf32, #ttnn_layout5> loc(#loc)
        "ttnn.deallocate"(%1) <{force = false}> : (tensor<512xf32, #ttnn_layout2>) -> () loc(#loc)
        %3 = "ttnn.to_layout"(%2) <{layout = #ttnn.layout<tile>}> : (tensor<1x32x16x1xf32, #ttnn_layout5>) -> tensor<1x32x16x1xf32, #ttnn_layout6> loc(#loc)
        "ttnn.deallocate"(%2) <{force = false}> : (tensor<1x32x16x1xf32, #ttnn_layout5>) -> () loc(#loc)
        %4 = "ttnn.to_device"(%3, %0) : (tensor<1x32x16x1xf32, #ttnn_layout6>, !ttnn.device) -> tensor<1x32x16x1xf32, #ttnn_layout4> loc(#loc)
        "ttnn.deallocate"(%3) <{force = false}> : (tensor<1x32x16x1xf32, #ttnn_layout6>) -> () loc(#loc)
        return %4 : tensor<1x32x16x1xf32, #ttnn_layout4> loc(#loc)
      } loc(#loc)
      func.func private @main_const_eval_50(%arg0: tensor<256xbf16, #ttnn_layout11> loc(unknown)) -> tensor<1x32x8x1xf32, #ttnn_layout4> attributes {tt.function_type = "const_eval"} {
        %0 = "ttnn.get_device"() <{mesh_offset = #ttnn<mesh_offset 0x0>, mesh_shape = #ttnn<mesh_shape 1x1>}> : () -> !ttnn.device loc(#loc)
        %1 = "ttnn.typecast"(%arg0) <{dtype = #ttcore.supportedDataTypes<f32>}> : (tensor<256xbf16, #ttnn_layout11>) -> tensor<256xf32, #ttnn_layout12> loc(#loc)
        %2 = call @cpu_hoisted_const_eval_de413a9b(%1) {ttir.cpu_hoist_call} : (tensor<256xf32, #ttnn_layout12>) -> tensor<1x32x8x1xf32, #ttnn_layout13> loc(#loc)
        "ttnn.deallocate"(%1) <{force = false}> : (tensor<256xf32, #ttnn_layout12>) -> () loc(#loc)
        %3 = "ttnn.to_layout"(%2) <{layout = #ttnn.layout<tile>}> : (tensor<1x32x8x1xf32, #ttnn_layout13>) -> tensor<1x32x8x1xf32, #ttnn_layout6> loc(#loc)
        "ttnn.deallocate"(%2) <{force = false}> : (tensor<1x32x8x1xf32, #ttnn_layout13>) -> () loc(#loc)
        %4 = "ttnn.to_device"(%3, %0) : (tensor<1x32x8x1xf32, #ttnn_layout6>, !ttnn.device) -> tensor<1x32x8x1xf32, #ttnn_layout4> loc(#loc)
        "ttnn.deallocate"(%3) <{force = false}> : (tensor<1x32x8x1xf32, #ttnn_layout6>) -> () loc(#loc)
        return %4 : tensor<1x32x8x1xf32, #ttnn_layout4> loc(#loc)
      } loc(#loc)
      func.func private @main_const_eval_51(%arg0: tensor<512xbf16, #ttnn_layout> loc(unknown)) -> tensor<1x32x16x1xf32, #ttnn_layout4> attributes {tt.function_type = "const_eval"} {
        %0 = "ttnn.get_device"() <{mesh_offset = #ttnn<mesh_offset 0x0>, mesh_shape = #ttnn<mesh_shape 1x1>}> : () -> !ttnn.device loc(#loc)
        %1 = "ttnn.typecast"(%arg0) <{dtype = #ttcore.supportedDataTypes<f32>}> : (tensor<512xbf16, #ttnn_layout>) -> tensor<512xf32, #ttnn_layout2> loc(#loc)
        %2 = call @cpu_hoisted_const_eval_ce3dc089(%1) {ttir.cpu_hoist_call} : (tensor<512xf32, #ttnn_layout2>) -> tensor<1x32x16x1xf32, #ttnn_layout5> loc(#loc)
        "ttnn.deallocate"(%1) <{force = false}> : (tensor<512xf32, #ttnn_layout2>) -> () loc(#loc)
        %3 = "ttnn.to_layout"(%2) <{layout = #ttnn.layout<tile>}> : (tensor<1x32x16x1xf32, #ttnn_layout5>) -> tensor<1x32x16x1xf32, #ttnn_layout6> loc(#loc)
        "ttnn.deallocate"(%2) <{force = false}> : (tensor<1x32x16x1xf32, #ttnn_layout5>) -> () loc(#loc)
        %4 = "ttnn.to_device"(%3, %0) : (tensor<1x32x16x1xf32, #ttnn_layout6>, !ttnn.device) -> tensor<1x32x16x1xf32, #ttnn_layout4> loc(#loc)
        "ttnn.deallocate"(%3) <{force = false}> : (tensor<1x32x16x1xf32, #ttnn_layout6>) -> () loc(#loc)
        return %4 : tensor<1x32x16x1xf32, #ttnn_layout4> loc(#loc)
      } loc(#loc)
      func.func private @main_const_eval_52(%arg0: tensor<512xbf16, #ttnn_layout> loc(unknown)) -> tensor<1x1x1x512xbf16, #ttnn_layout1> attributes {tt.function_type = "const_eval"} {
        %0 = "ttnn.typecast"(%arg0) <{dtype = #ttcore.supportedDataTypes<f32>}> : (tensor<512xbf16, #ttnn_layout>) -> tensor<512xf32, #ttnn_layout2> loc(#loc)
        %1 = call @cpu_hoisted_const_eval_24665087(%0) {ttir.cpu_hoist_call} : (tensor<512xf32, #ttnn_layout2>) -> tensor<1x1x1x512xf32, #ttnn_layout3> loc(#loc)
        "ttnn.deallocate"(%0) <{force = false}> : (tensor<512xf32, #ttnn_layout2>) -> () loc(#loc)
        %2 = "ttnn.typecast"(%1) <{dtype = #ttcore.supportedDataTypes<bf16>}> : (tensor<1x1x1x512xf32, #ttnn_layout3>) -> tensor<1x1x1x512xbf16, #ttnn_layout1> loc(#loc511)
        "ttnn.deallocate"(%1) <{force = false}> : (tensor<1x1x1x512xf32, #ttnn_layout3>) -> () loc(#loc511)
        return %2 : tensor<1x1x1x512xbf16, #ttnn_layout1> loc(#loc)
      } loc(#loc)
      func.func private @main_const_eval_53(%arg0: tensor<512xbf16, #ttnn_layout> loc(unknown)) -> tensor<1x32x16x1xf32, #ttnn_layout4> attributes {tt.function_type = "const_eval"} {
        %0 = "ttnn.get_device"() <{mesh_offset = #ttnn<mesh_offset 0x0>, mesh_shape = #ttnn<mesh_shape 1x1>}> : () -> !ttnn.device loc(#loc)
        %1 = "ttnn.typecast"(%arg0) <{dtype = #ttcore.supportedDataTypes<f32>}> : (tensor<512xbf16, #ttnn_layout>) -> tensor<512xf32, #ttnn_layout2> loc(#loc)
        %2 = call @cpu_hoisted_const_eval_ce3dc089(%1) {ttir.cpu_hoist_call} : (tensor<512xf32, #ttnn_layout2>) -> tensor<1x32x16x1xf32, #ttnn_layout5> loc(#loc)
        "ttnn.deallocate"(%1) <{force = false}> : (tensor<512xf32, #ttnn_layout2>) -> () loc(#loc)
        %3 = "ttnn.to_layout"(%2) <{layout = #ttnn.layout<tile>}> : (tensor<1x32x16x1xf32, #ttnn_layout5>) -> tensor<1x32x16x1xf32, #ttnn_layout6> loc(#loc)
        "ttnn.deallocate"(%2) <{force = false}> : (tensor<1x32x16x1xf32, #ttnn_layout5>) -> () loc(#loc)
        %4 = "ttnn.to_device"(%3, %0) : (tensor<1x32x16x1xf32, #ttnn_layout6>, !ttnn.device) -> tensor<1x32x16x1xf32, #ttnn_layout4> loc(#loc)
        "ttnn.deallocate"(%3) <{force = false}> : (tensor<1x32x16x1xf32, #ttnn_layout6>) -> () loc(#loc)
        return %4 : tensor<1x32x16x1xf32, #ttnn_layout4> loc(#loc)
      } loc(#loc)
      func.func private @main_const_eval_54(%arg0: tensor<512xbf16, #ttnn_layout> loc(unknown)) -> tensor<1x32x16x1xf32, #ttnn_layout4> attributes {tt.function_type = "const_eval"} {
        %0 = "ttnn.get_device"() <{mesh_offset = #ttnn<mesh_offset 0x0>, mesh_shape = #ttnn<mesh_shape 1x1>}> : () -> !ttnn.device loc(#loc)
        %1 = "ttnn.typecast"(%arg0) <{dtype = #ttcore.supportedDataTypes<f32>}> : (tensor<512xbf16, #ttnn_layout>) -> tensor<512xf32, #ttnn_layout2> loc(#loc)
        %2 = call @cpu_hoisted_const_eval_ce3dc089(%1) {ttir.cpu_hoist_call} : (tensor<512xf32, #ttnn_layout2>) -> tensor<1x32x16x1xf32, #ttnn_layout5> loc(#loc)
        "ttnn.deallocate"(%1) <{force = false}> : (tensor<512xf32, #ttnn_layout2>) -> () loc(#loc)
        %3 = "ttnn.to_layout"(%2) <{layout = #ttnn.layout<tile>}> : (tensor<1x32x16x1xf32, #ttnn_layout5>) -> tensor<1x32x16x1xf32, #ttnn_layout6> loc(#loc)
        "ttnn.deallocate"(%2) <{force = false}> : (tensor<1x32x16x1xf32, #ttnn_layout5>) -> () loc(#loc)
        %4 = "ttnn.to_device"(%3, %0) : (tensor<1x32x16x1xf32, #ttnn_layout6>, !ttnn.device) -> tensor<1x32x16x1xf32, #ttnn_layout4> loc(#loc)
        "ttnn.deallocate"(%3) <{force = false}> : (tensor<1x32x16x1xf32, #ttnn_layout6>) -> () loc(#loc)
        return %4 : tensor<1x32x16x1xf32, #ttnn_layout4> loc(#loc)
      } loc(#loc)
      func.func private @main_const_eval_55(%arg0: tensor<256xbf16, #ttnn_layout11> loc(unknown)) -> tensor<1x1x1x256xbf16, #ttnn_layout37> attributes {tt.function_type = "const_eval"} {
        %0 = "ttnn.typecast"(%arg0) <{dtype = #ttcore.supportedDataTypes<f32>}> : (tensor<256xbf16, #ttnn_layout11>) -> tensor<256xf32, #ttnn_layout12> loc(#loc)
        %1 = call @cpu_hoisted_const_eval_8b649ce3(%0) {ttir.cpu_hoist_call} : (tensor<256xf32, #ttnn_layout12>) -> tensor<1x1x1x256xf32, #ttnn_layout38> loc(#loc)
        "ttnn.deallocate"(%0) <{force = false}> : (tensor<256xf32, #ttnn_layout12>) -> () loc(#loc)
        %2 = "ttnn.typecast"(%1) <{dtype = #ttcore.supportedDataTypes<bf16>}> : (tensor<1x1x1x256xf32, #ttnn_layout38>) -> tensor<1x1x1x256xbf16, #ttnn_layout37> loc(#loc512)
        "ttnn.deallocate"(%1) <{force = false}> : (tensor<1x1x1x256xf32, #ttnn_layout38>) -> () loc(#loc512)
        return %2 : tensor<1x1x1x256xbf16, #ttnn_layout37> loc(#loc)
      } loc(#loc)
      func.func private @main_const_eval_56(%arg0: tensor<512xbf16, #ttnn_layout> loc(unknown)) -> tensor<1x32x16x1xf32, #ttnn_layout4> attributes {tt.function_type = "const_eval"} {
        %0 = "ttnn.get_device"() <{mesh_offset = #ttnn<mesh_offset 0x0>, mesh_shape = #ttnn<mesh_shape 1x1>}> : () -> !ttnn.device loc(#loc)
        %1 = "ttnn.typecast"(%arg0) <{dtype = #ttcore.supportedDataTypes<f32>}> : (tensor<512xbf16, #ttnn_layout>) -> tensor<512xf32, #ttnn_layout2> loc(#loc)
        %2 = call @cpu_hoisted_const_eval_ce3dc089(%1) {ttir.cpu_hoist_call} : (tensor<512xf32, #ttnn_layout2>) -> tensor<1x32x16x1xf32, #ttnn_layout5> loc(#loc)
        "ttnn.deallocate"(%1) <{force = false}> : (tensor<512xf32, #ttnn_layout2>) -> () loc(#loc)
        %3 = "ttnn.to_layout"(%2) <{layout = #ttnn.layout<tile>}> : (tensor<1x32x16x1xf32, #ttnn_layout5>) -> tensor<1x32x16x1xf32, #ttnn_layout6> loc(#loc)
        "ttnn.deallocate"(%2) <{force = false}> : (tensor<1x32x16x1xf32, #ttnn_layout5>) -> () loc(#loc)
        %4 = "ttnn.to_device"(%3, %0) : (tensor<1x32x16x1xf32, #ttnn_layout6>, !ttnn.device) -> tensor<1x32x16x1xf32, #ttnn_layout4> loc(#loc)
        "ttnn.deallocate"(%3) <{force = false}> : (tensor<1x32x16x1xf32, #ttnn_layout6>) -> () loc(#loc)
        return %4 : tensor<1x32x16x1xf32, #ttnn_layout4> loc(#loc)
      } loc(#loc)
      func.func private @main_const_eval_57(%arg0: tensor<256xbf16, #ttnn_layout11> loc(unknown)) -> tensor<1x32x8x1xf32, #ttnn_layout4> attributes {tt.function_type = "const_eval"} {
        %0 = "ttnn.get_device"() <{mesh_offset = #ttnn<mesh_offset 0x0>, mesh_shape = #ttnn<mesh_shape 1x1>}> : () -> !ttnn.device loc(#loc)
        %1 = "ttnn.typecast"(%arg0) <{dtype = #ttcore.supportedDataTypes<f32>}> : (tensor<256xbf16, #ttnn_layout11>) -> tensor<256xf32, #ttnn_layout12> loc(#loc)
        %2 = call @cpu_hoisted_const_eval_de413a9b(%1) {ttir.cpu_hoist_call} : (tensor<256xf32, #ttnn_layout12>) -> tensor<1x32x8x1xf32, #ttnn_layout13> loc(#loc)
        "ttnn.deallocate"(%1) <{force = false}> : (tensor<256xf32, #ttnn_layout12>) -> () loc(#loc)
        %3 = "ttnn.to_layout"(%2) <{layout = #ttnn.layout<tile>}> : (tensor<1x32x8x1xf32, #ttnn_layout13>) -> tensor<1x32x8x1xf32, #ttnn_layout6> loc(#loc)
        "ttnn.deallocate"(%2) <{force = false}> : (tensor<1x32x8x1xf32, #ttnn_layout13>) -> () loc(#loc)
        %4 = "ttnn.to_device"(%3, %0) : (tensor<1x32x8x1xf32, #ttnn_layout6>, !ttnn.device) -> tensor<1x32x8x1xf32, #ttnn_layout4> loc(#loc)
        "ttnn.deallocate"(%3) <{force = false}> : (tensor<1x32x8x1xf32, #ttnn_layout6>) -> () loc(#loc)
        return %4 : tensor<1x32x8x1xf32, #ttnn_layout4> loc(#loc)
      } loc(#loc)
      func.func private @main_const_eval_58(%arg0: tensor<512xbf16, #ttnn_layout> loc(unknown)) -> tensor<1x1x1x512xbf16, #ttnn_layout1> attributes {tt.function_type = "const_eval"} {
        %0 = "ttnn.typecast"(%arg0) <{dtype = #ttcore.supportedDataTypes<f32>}> : (tensor<512xbf16, #ttnn_layout>) -> tensor<512xf32, #ttnn_layout2> loc(#loc)
        %1 = call @cpu_hoisted_const_eval_24665087(%0) {ttir.cpu_hoist_call} : (tensor<512xf32, #ttnn_layout2>) -> tensor<1x1x1x512xf32, #ttnn_layout3> loc(#loc)
        "ttnn.deallocate"(%0) <{force = false}> : (tensor<512xf32, #ttnn_layout2>) -> () loc(#loc)
        %2 = "ttnn.typecast"(%1) <{dtype = #ttcore.supportedDataTypes<bf16>}> : (tensor<1x1x1x512xf32, #ttnn_layout3>) -> tensor<1x1x1x512xbf16, #ttnn_layout1> loc(#loc513)
        "ttnn.deallocate"(%1) <{force = false}> : (tensor<1x1x1x512xf32, #ttnn_layout3>) -> () loc(#loc513)
        return %2 : tensor<1x1x1x512xbf16, #ttnn_layout1> loc(#loc)
      } loc(#loc)
      func.func private @main_const_eval_59(%arg0: tensor<512xbf16, #ttnn_layout> loc(unknown)) -> tensor<1x1x1x512xbf16, #ttnn_layout1> attributes {tt.function_type = "const_eval"} {
        %0 = "ttnn.typecast"(%arg0) <{dtype = #ttcore.supportedDataTypes<f32>}> : (tensor<512xbf16, #ttnn_layout>) -> tensor<512xf32, #ttnn_layout2> loc(#loc)
        %1 = call @cpu_hoisted_const_eval_24665087(%0) {ttir.cpu_hoist_call} : (tensor<512xf32, #ttnn_layout2>) -> tensor<1x1x1x512xf32, #ttnn_layout3> loc(#loc)
        "ttnn.deallocate"(%0) <{force = false}> : (tensor<512xf32, #ttnn_layout2>) -> () loc(#loc)
        %2 = "ttnn.typecast"(%1) <{dtype = #ttcore.supportedDataTypes<bf16>}> : (tensor<1x1x1x512xf32, #ttnn_layout3>) -> tensor<1x1x1x512xbf16, #ttnn_layout1> loc(#loc514)
        "ttnn.deallocate"(%1) <{force = false}> : (tensor<1x1x1x512xf32, #ttnn_layout3>) -> () loc(#loc514)
        return %2 : tensor<1x1x1x512xbf16, #ttnn_layout1> loc(#loc)
      } loc(#loc)
      func.func private @main_const_eval_60(%arg0: tensor<512xbf16, #ttnn_layout> loc(unknown)) -> tensor<1x1x1x512xbf16, #ttnn_layout1> attributes {tt.function_type = "const_eval"} {
        %0 = "ttnn.typecast"(%arg0) <{dtype = #ttcore.supportedDataTypes<f32>}> : (tensor<512xbf16, #ttnn_layout>) -> tensor<512xf32, #ttnn_layout2> loc(#loc)
        %1 = call @cpu_hoisted_const_eval_24665087(%0) {ttir.cpu_hoist_call} : (tensor<512xf32, #ttnn_layout2>) -> tensor<1x1x1x512xf32, #ttnn_layout3> loc(#loc)
        "ttnn.deallocate"(%0) <{force = false}> : (tensor<512xf32, #ttnn_layout2>) -> () loc(#loc)
        %2 = "ttnn.typecast"(%1) <{dtype = #ttcore.supportedDataTypes<bf16>}> : (tensor<1x1x1x512xf32, #ttnn_layout3>) -> tensor<1x1x1x512xbf16, #ttnn_layout1> loc(#loc515)
        "ttnn.deallocate"(%1) <{force = false}> : (tensor<1x1x1x512xf32, #ttnn_layout3>) -> () loc(#loc515)
        return %2 : tensor<1x1x1x512xbf16, #ttnn_layout1> loc(#loc)
      } loc(#loc)
      func.func private @main_const_eval_61(%arg0: tensor<512xbf16, #ttnn_layout> loc(unknown)) -> tensor<1x32x16x1xf32, #ttnn_layout4> attributes {tt.function_type = "const_eval"} {
        %0 = "ttnn.get_device"() <{mesh_offset = #ttnn<mesh_offset 0x0>, mesh_shape = #ttnn<mesh_shape 1x1>}> : () -> !ttnn.device loc(#loc)
        %1 = "ttnn.typecast"(%arg0) <{dtype = #ttcore.supportedDataTypes<f32>}> : (tensor<512xbf16, #ttnn_layout>) -> tensor<512xf32, #ttnn_layout2> loc(#loc)
        %2 = call @cpu_hoisted_const_eval_ce3dc089(%1) {ttir.cpu_hoist_call} : (tensor<512xf32, #ttnn_layout2>) -> tensor<1x32x16x1xf32, #ttnn_layout5> loc(#loc)
        "ttnn.deallocate"(%1) <{force = false}> : (tensor<512xf32, #ttnn_layout2>) -> () loc(#loc)
        %3 = "ttnn.to_layout"(%2) <{layout = #ttnn.layout<tile>}> : (tensor<1x32x16x1xf32, #ttnn_layout5>) -> tensor<1x32x16x1xf32, #ttnn_layout6> loc(#loc)
        "ttnn.deallocate"(%2) <{force = false}> : (tensor<1x32x16x1xf32, #ttnn_layout5>) -> () loc(#loc)
        %4 = "ttnn.to_device"(%3, %0) : (tensor<1x32x16x1xf32, #ttnn_layout6>, !ttnn.device) -> tensor<1x32x16x1xf32, #ttnn_layout4> loc(#loc)
        "ttnn.deallocate"(%3) <{force = false}> : (tensor<1x32x16x1xf32, #ttnn_layout6>) -> () loc(#loc)
        return %4 : tensor<1x32x16x1xf32, #ttnn_layout4> loc(#loc)
      } loc(#loc)
      func.func private @main_const_eval_62(%arg0: tensor<512xbf16, #ttnn_layout> loc(unknown)) -> tensor<1x32x16x1xf32, #ttnn_layout4> attributes {tt.function_type = "const_eval"} {
        %0 = "ttnn.get_device"() <{mesh_offset = #ttnn<mesh_offset 0x0>, mesh_shape = #ttnn<mesh_shape 1x1>}> : () -> !ttnn.device loc(#loc)
        %1 = "ttnn.typecast"(%arg0) <{dtype = #ttcore.supportedDataTypes<f32>}> : (tensor<512xbf16, #ttnn_layout>) -> tensor<512xf32, #ttnn_layout2> loc(#loc)
        %2 = call @cpu_hoisted_const_eval_ce3dc089(%1) {ttir.cpu_hoist_call} : (tensor<512xf32, #ttnn_layout2>) -> tensor<1x32x16x1xf32, #ttnn_layout5> loc(#loc)
        "ttnn.deallocate"(%1) <{force = false}> : (tensor<512xf32, #ttnn_layout2>) -> () loc(#loc)
        %3 = "ttnn.to_layout"(%2) <{layout = #ttnn.layout<tile>}> : (tensor<1x32x16x1xf32, #ttnn_layout5>) -> tensor<1x32x16x1xf32, #ttnn_layout6> loc(#loc)
        "ttnn.deallocate"(%2) <{force = false}> : (tensor<1x32x16x1xf32, #ttnn_layout5>) -> () loc(#loc)
        %4 = "ttnn.to_device"(%3, %0) : (tensor<1x32x16x1xf32, #ttnn_layout6>, !ttnn.device) -> tensor<1x32x16x1xf32, #ttnn_layout4> loc(#loc)
        "ttnn.deallocate"(%3) <{force = false}> : (tensor<1x32x16x1xf32, #ttnn_layout6>) -> () loc(#loc)
        return %4 : tensor<1x32x16x1xf32, #ttnn_layout4> loc(#loc)
      } loc(#loc)
      func.func private @main_const_eval_63(%arg0: tensor<512xbf16, #ttnn_layout> loc(unknown)) -> tensor<1x32x16x1xf32, #ttnn_layout4> attributes {tt.function_type = "const_eval"} {
        %0 = "ttnn.get_device"() <{mesh_offset = #ttnn<mesh_offset 0x0>, mesh_shape = #ttnn<mesh_shape 1x1>}> : () -> !ttnn.device loc(#loc)
        %1 = "ttnn.typecast"(%arg0) <{dtype = #ttcore.supportedDataTypes<f32>}> : (tensor<512xbf16, #ttnn_layout>) -> tensor<512xf32, #ttnn_layout2> loc(#loc)
        %2 = call @cpu_hoisted_const_eval_ce3dc089(%1) {ttir.cpu_hoist_call} : (tensor<512xf32, #ttnn_layout2>) -> tensor<1x32x16x1xf32, #ttnn_layout5> loc(#loc)
        "ttnn.deallocate"(%1) <{force = false}> : (tensor<512xf32, #ttnn_layout2>) -> () loc(#loc)
        %3 = "ttnn.to_layout"(%2) <{layout = #ttnn.layout<tile>}> : (tensor<1x32x16x1xf32, #ttnn_layout5>) -> tensor<1x32x16x1xf32, #ttnn_layout6> loc(#loc)
        "ttnn.deallocate"(%2) <{force = false}> : (tensor<1x32x16x1xf32, #ttnn_layout5>) -> () loc(#loc)
        %4 = "ttnn.to_device"(%3, %0) : (tensor<1x32x16x1xf32, #ttnn_layout6>, !ttnn.device) -> tensor<1x32x16x1xf32, #ttnn_layout4> loc(#loc)
        "ttnn.deallocate"(%3) <{force = false}> : (tensor<1x32x16x1xf32, #ttnn_layout6>) -> () loc(#loc)
        return %4 : tensor<1x32x16x1xf32, #ttnn_layout4> loc(#loc)
      } loc(#loc)
      func.func private @main_const_eval_64(%arg0: tensor<512xbf16, #ttnn_layout> loc(unknown)) -> tensor<1x32x16x1xf32, #ttnn_layout4> attributes {tt.function_type = "const_eval"} {
        %0 = "ttnn.get_device"() <{mesh_offset = #ttnn<mesh_offset 0x0>, mesh_shape = #ttnn<mesh_shape 1x1>}> : () -> !ttnn.device loc(#loc)
        %1 = "ttnn.typecast"(%arg0) <{dtype = #ttcore.supportedDataTypes<f32>}> : (tensor<512xbf16, #ttnn_layout>) -> tensor<512xf32, #ttnn_layout2> loc(#loc)
        %2 = call @cpu_hoisted_const_eval_ce3dc089(%1) {ttir.cpu_hoist_call} : (tensor<512xf32, #ttnn_layout2>) -> tensor<1x32x16x1xf32, #ttnn_layout5> loc(#loc)
        "ttnn.deallocate"(%1) <{force = false}> : (tensor<512xf32, #ttnn_layout2>) -> () loc(#loc)
        %3 = "ttnn.to_layout"(%2) <{layout = #ttnn.layout<tile>}> : (tensor<1x32x16x1xf32, #ttnn_layout5>) -> tensor<1x32x16x1xf32, #ttnn_layout6> loc(#loc)
        "ttnn.deallocate"(%2) <{force = false}> : (tensor<1x32x16x1xf32, #ttnn_layout5>) -> () loc(#loc)
        %4 = "ttnn.to_device"(%3, %0) : (tensor<1x32x16x1xf32, #ttnn_layout6>, !ttnn.device) -> tensor<1x32x16x1xf32, #ttnn_layout4> loc(#loc)
        "ttnn.deallocate"(%3) <{force = false}> : (tensor<1x32x16x1xf32, #ttnn_layout6>) -> () loc(#loc)
        return %4 : tensor<1x32x16x1xf32, #ttnn_layout4> loc(#loc)
      } loc(#loc)
      func.func private @main_const_eval_65(%arg0: tensor<512xbf16, #ttnn_layout> loc(unknown)) -> tensor<1x32x16x1xf32, #ttnn_layout4> attributes {tt.function_type = "const_eval"} {
        %0 = "ttnn.get_device"() <{mesh_offset = #ttnn<mesh_offset 0x0>, mesh_shape = #ttnn<mesh_shape 1x1>}> : () -> !ttnn.device loc(#loc)
        %1 = "ttnn.typecast"(%arg0) <{dtype = #ttcore.supportedDataTypes<f32>}> : (tensor<512xbf16, #ttnn_layout>) -> tensor<512xf32, #ttnn_layout2> loc(#loc)
        %2 = call @cpu_hoisted_const_eval_ce3dc089(%1) {ttir.cpu_hoist_call} : (tensor<512xf32, #ttnn_layout2>) -> tensor<1x32x16x1xf32, #ttnn_layout5> loc(#loc)
        "ttnn.deallocate"(%1) <{force = false}> : (tensor<512xf32, #ttnn_layout2>) -> () loc(#loc)
        %3 = "ttnn.to_layout"(%2) <{layout = #ttnn.layout<tile>}> : (tensor<1x32x16x1xf32, #ttnn_layout5>) -> tensor<1x32x16x1xf32, #ttnn_layout6> loc(#loc)
        "ttnn.deallocate"(%2) <{force = false}> : (tensor<1x32x16x1xf32, #ttnn_layout5>) -> () loc(#loc)
        %4 = "ttnn.to_device"(%3, %0) : (tensor<1x32x16x1xf32, #ttnn_layout6>, !ttnn.device) -> tensor<1x32x16x1xf32, #ttnn_layout4> loc(#loc)
        "ttnn.deallocate"(%3) <{force = false}> : (tensor<1x32x16x1xf32, #ttnn_layout6>) -> () loc(#loc)
        return %4 : tensor<1x32x16x1xf32, #ttnn_layout4> loc(#loc)
      } loc(#loc)
      func.func private @main_const_eval_66() -> tensor<1x1x1x1xf32, #ttnn_layout46> attributes {tt.function_type = "const_eval"} {
        %0 = "ttnn.get_device"() <{mesh_offset = #ttnn<mesh_offset 0x0>, mesh_shape = #ttnn<mesh_shape 1x1>}> : () -> !ttnn.device loc(#loc7)
        %1 = "ttnn.full"(%0) <{dtype = #ttcore.supportedDataTypes<f32>, fill_value = 9.99999997E-7 : f32, layout = #ttnn.layout<tile>, shape = #ttnn.shape<1x1x1x1>}> : (!ttnn.device) -> tensor<1x1x1x1xf32, #ttnn_layout46> loc(#loc)
        return %1 : tensor<1x1x1x1xf32, #ttnn_layout46> loc(#loc)
      } loc(#loc)
      func.func private @main_const_eval_67(%arg0: tensor<512xbf16, #ttnn_layout> loc(unknown)) -> tensor<1x32x16x1xf32, #ttnn_layout4> attributes {tt.function_type = "const_eval"} {
        %0 = "ttnn.get_device"() <{mesh_offset = #ttnn<mesh_offset 0x0>, mesh_shape = #ttnn<mesh_shape 1x1>}> : () -> !ttnn.device loc(#loc)
        %1 = "ttnn.typecast"(%arg0) <{dtype = #ttcore.supportedDataTypes<f32>}> : (tensor<512xbf16, #ttnn_layout>) -> tensor<512xf32, #ttnn_layout2> loc(#loc)
        %2 = call @cpu_hoisted_const_eval_ce3dc089(%1) {ttir.cpu_hoist_call} : (tensor<512xf32, #ttnn_layout2>) -> tensor<1x32x16x1xf32, #ttnn_layout5> loc(#loc)
        "ttnn.deallocate"(%1) <{force = false}> : (tensor<512xf32, #ttnn_layout2>) -> () loc(#loc)
        %3 = "ttnn.to_layout"(%2) <{layout = #ttnn.layout<tile>}> : (tensor<1x32x16x1xf32, #ttnn_layout5>) -> tensor<1x32x16x1xf32, #ttnn_layout6> loc(#loc)
        "ttnn.deallocate"(%2) <{force = false}> : (tensor<1x32x16x1xf32, #ttnn_layout5>) -> () loc(#loc)
        %4 = "ttnn.to_device"(%3, %0) : (tensor<1x32x16x1xf32, #ttnn_layout6>, !ttnn.device) -> tensor<1x32x16x1xf32, #ttnn_layout4> loc(#loc)
        "ttnn.deallocate"(%3) <{force = false}> : (tensor<1x32x16x1xf32, #ttnn_layout6>) -> () loc(#loc)
        return %4 : tensor<1x32x16x1xf32, #ttnn_layout4> loc(#loc)
      } loc(#loc)
      func.func private @main_const_eval_68() -> tensor<640x1280xbf16, #ttnn_layout47> attributes {tt.function_type = "const_eval"} {
        %0 = "ttnn.get_device"() <{mesh_offset = #ttnn<mesh_offset 0x0>, mesh_shape = #ttnn<mesh_shape 1x1>}> : () -> !ttnn.device loc(#loc)
        %1 = call @cpu_hoisted_const_eval_01d4160e() {ttir.cpu_hoist_call} : () -> tensor<640x1280xf32, #ttnn_layout48> loc(#loc)
        %2 = "ttnn.typecast"(%1) <{dtype = #ttcore.supportedDataTypes<bf16>}> : (tensor<640x1280xf32, #ttnn_layout48>) -> tensor<640x1280xbf16, #ttnn_layout49> loc(#loc)
        "ttnn.deallocate"(%1) <{force = false}> : (tensor<640x1280xf32, #ttnn_layout48>) -> () loc(#loc)
        %3 = "ttnn.to_layout"(%2) <{layout = #ttnn.layout<tile>}> : (tensor<640x1280xbf16, #ttnn_layout49>) -> tensor<640x1280xbf16, #ttnn_layout50> loc(#loc)
        "ttnn.deallocate"(%2) <{force = false}> : (tensor<640x1280xbf16, #ttnn_layout49>) -> () loc(#loc)
        %4 = "ttnn.to_device"(%3, %0) : (tensor<640x1280xbf16, #ttnn_layout50>, !ttnn.device) -> tensor<640x1280xbf16, #ttnn_layout47> loc(#loc)
        "ttnn.deallocate"(%3) <{force = false}> : (tensor<640x1280xbf16, #ttnn_layout50>) -> () loc(#loc)
        return %4 : tensor<640x1280xbf16, #ttnn_layout47> loc(#loc)
      } loc(#loc)
      func.func private @main_const_eval_69(%arg0: tensor<512xbf16, #ttnn_layout> loc(unknown)) -> tensor<1x32x16x1xf32, #ttnn_layout4> attributes {tt.function_type = "const_eval"} {
        %0 = "ttnn.get_device"() <{mesh_offset = #ttnn<mesh_offset 0x0>, mesh_shape = #ttnn<mesh_shape 1x1>}> : () -> !ttnn.device loc(#loc)
        %1 = "ttnn.typecast"(%arg0) <{dtype = #ttcore.supportedDataTypes<f32>}> : (tensor<512xbf16, #ttnn_layout>) -> tensor<512xf32, #ttnn_layout2> loc(#loc)
        %2 = call @cpu_hoisted_const_eval_ce3dc089(%1) {ttir.cpu_hoist_call} : (tensor<512xf32, #ttnn_layout2>) -> tensor<1x32x16x1xf32, #ttnn_layout5> loc(#loc)
        "ttnn.deallocate"(%1) <{force = false}> : (tensor<512xf32, #ttnn_layout2>) -> () loc(#loc)
        %3 = "ttnn.to_layout"(%2) <{layout = #ttnn.layout<tile>}> : (tensor<1x32x16x1xf32, #ttnn_layout5>) -> tensor<1x32x16x1xf32, #ttnn_layout6> loc(#loc)
        "ttnn.deallocate"(%2) <{force = false}> : (tensor<1x32x16x1xf32, #ttnn_layout5>) -> () loc(#loc)
        %4 = "ttnn.to_device"(%3, %0) : (tensor<1x32x16x1xf32, #ttnn_layout6>, !ttnn.device) -> tensor<1x32x16x1xf32, #ttnn_layout4> loc(#loc)
        "ttnn.deallocate"(%3) <{force = false}> : (tensor<1x32x16x1xf32, #ttnn_layout6>) -> () loc(#loc)
        return %4 : tensor<1x32x16x1xf32, #ttnn_layout4> loc(#loc)
      } loc(#loc)
      func.func private @main_const_eval_70(%arg0: tensor<512xbf16, #ttnn_layout> loc(unknown)) -> tensor<1x32x16x1xf32, #ttnn_layout4> attributes {tt.function_type = "const_eval"} {
        %0 = "ttnn.get_device"() <{mesh_offset = #ttnn<mesh_offset 0x0>, mesh_shape = #ttnn<mesh_shape 1x1>}> : () -> !ttnn.device loc(#loc)
        %1 = "ttnn.typecast"(%arg0) <{dtype = #ttcore.supportedDataTypes<f32>}> : (tensor<512xbf16, #ttnn_layout>) -> tensor<512xf32, #ttnn_layout2> loc(#loc)
        %2 = call @cpu_hoisted_const_eval_ce3dc089(%1) {ttir.cpu_hoist_call} : (tensor<512xf32, #ttnn_layout2>) -> tensor<1x32x16x1xf32, #ttnn_layout5> loc(#loc)
        "ttnn.deallocate"(%1) <{force = false}> : (tensor<512xf32, #ttnn_layout2>) -> () loc(#loc)
        %3 = "ttnn.to_layout"(%2) <{layout = #ttnn.layout<tile>}> : (tensor<1x32x16x1xf32, #ttnn_layout5>) -> tensor<1x32x16x1xf32, #ttnn_layout6> loc(#loc)
        "ttnn.deallocate"(%2) <{force = false}> : (tensor<1x32x16x1xf32, #ttnn_layout5>) -> () loc(#loc)
        %4 = "ttnn.to_device"(%3, %0) : (tensor<1x32x16x1xf32, #ttnn_layout6>, !ttnn.device) -> tensor<1x32x16x1xf32, #ttnn_layout4> loc(#loc)
        "ttnn.deallocate"(%3) <{force = false}> : (tensor<1x32x16x1xf32, #ttnn_layout6>) -> () loc(#loc)
        return %4 : tensor<1x32x16x1xf32, #ttnn_layout4> loc(#loc)
      } loc(#loc)
      func.func private @main_const_eval_71(%arg0: tensor<512xbf16, #ttnn_layout> loc(unknown)) -> tensor<1x32x16x1xf32, #ttnn_layout4> attributes {tt.function_type = "const_eval"} {
        %0 = "ttnn.get_device"() <{mesh_offset = #ttnn<mesh_offset 0x0>, mesh_shape = #ttnn<mesh_shape 1x1>}> : () -> !ttnn.device loc(#loc)
        %1 = "ttnn.typecast"(%arg0) <{dtype = #ttcore.supportedDataTypes<f32>}> : (tensor<512xbf16, #ttnn_layout>) -> tensor<512xf32, #ttnn_layout2> loc(#loc)
        %2 = call @cpu_hoisted_const_eval_ce3dc089(%1) {ttir.cpu_hoist_call} : (tensor<512xf32, #ttnn_layout2>) -> tensor<1x32x16x1xf32, #ttnn_layout5> loc(#loc)
        "ttnn.deallocate"(%1) <{force = false}> : (tensor<512xf32, #ttnn_layout2>) -> () loc(#loc)
        %3 = "ttnn.to_layout"(%2) <{layout = #ttnn.layout<tile>}> : (tensor<1x32x16x1xf32, #ttnn_layout5>) -> tensor<1x32x16x1xf32, #ttnn_layout6> loc(#loc)
        "ttnn.deallocate"(%2) <{force = false}> : (tensor<1x32x16x1xf32, #ttnn_layout5>) -> () loc(#loc)
        %4 = "ttnn.to_device"(%3, %0) : (tensor<1x32x16x1xf32, #ttnn_layout6>, !ttnn.device) -> tensor<1x32x16x1xf32, #ttnn_layout4> loc(#loc)
        "ttnn.deallocate"(%3) <{force = false}> : (tensor<1x32x16x1xf32, #ttnn_layout6>) -> () loc(#loc)
        return %4 : tensor<1x32x16x1xf32, #ttnn_layout4> loc(#loc)
      } loc(#loc)
      func.func private @main_const_eval_72(%arg0: tensor<256xbf16, #ttnn_layout11> loc(unknown)) -> tensor<1x1x1x256xbf16, #ttnn_layout37> attributes {tt.function_type = "const_eval"} {
        %0 = "ttnn.typecast"(%arg0) <{dtype = #ttcore.supportedDataTypes<f32>}> : (tensor<256xbf16, #ttnn_layout11>) -> tensor<256xf32, #ttnn_layout12> loc(#loc)
        %1 = call @cpu_hoisted_const_eval_8b649ce3(%0) {ttir.cpu_hoist_call} : (tensor<256xf32, #ttnn_layout12>) -> tensor<1x1x1x256xf32, #ttnn_layout38> loc(#loc)
        "ttnn.deallocate"(%0) <{force = false}> : (tensor<256xf32, #ttnn_layout12>) -> () loc(#loc)
        %2 = "ttnn.typecast"(%1) <{dtype = #ttcore.supportedDataTypes<bf16>}> : (tensor<1x1x1x256xf32, #ttnn_layout38>) -> tensor<1x1x1x256xbf16, #ttnn_layout37> loc(#loc516)
        "ttnn.deallocate"(%1) <{force = false}> : (tensor<1x1x1x256xf32, #ttnn_layout38>) -> () loc(#loc516)
        return %2 : tensor<1x1x1x256xbf16, #ttnn_layout37> loc(#loc)
      } loc(#loc)
      func.func private @main_const_eval_73() -> tensor<180x360xbf16, #ttnn_layout51> attributes {tt.function_type = "const_eval"} {
        %0 = "ttnn.get_device"() <{mesh_offset = #ttnn<mesh_offset 0x0>, mesh_shape = #ttnn<mesh_shape 1x1>}> : () -> !ttnn.device loc(#loc)
        %1 = call @cpu_hoisted_const_eval_4c628f88() {ttir.cpu_hoist_call} : () -> tensor<180x360xf32, #ttnn_layout52> loc(#loc)
        %2 = "ttnn.typecast"(%1) <{dtype = #ttcore.supportedDataTypes<bf16>}> : (tensor<180x360xf32, #ttnn_layout52>) -> tensor<180x360xbf16, #ttnn_layout53> loc(#loc)
        "ttnn.deallocate"(%1) <{force = false}> : (tensor<180x360xf32, #ttnn_layout52>) -> () loc(#loc)
        %3 = "ttnn.to_layout"(%2) <{layout = #ttnn.layout<tile>}> : (tensor<180x360xbf16, #ttnn_layout53>) -> tensor<180x360xbf16, #ttnn_layout54> loc(#loc)
        "ttnn.deallocate"(%2) <{force = false}> : (tensor<180x360xbf16, #ttnn_layout53>) -> () loc(#loc)
        %4 = "ttnn.to_device"(%3, %0) : (tensor<180x360xbf16, #ttnn_layout54>, !ttnn.device) -> tensor<180x360xbf16, #ttnn_layout51> loc(#loc)
        "ttnn.deallocate"(%3) <{force = false}> : (tensor<180x360xbf16, #ttnn_layout54>) -> () loc(#loc)
        return %4 : tensor<180x360xbf16, #ttnn_layout51> loc(#loc)
      } loc(#loc)
      func.func private @main_const_eval_74(%arg0: tensor<256xbf16, #ttnn_layout11> loc(unknown)) -> tensor<1x32x8x1xf32, #ttnn_layout4> attributes {tt.function_type = "const_eval"} {
        %0 = "ttnn.get_device"() <{mesh_offset = #ttnn<mesh_offset 0x0>, mesh_shape = #ttnn<mesh_shape 1x1>}> : () -> !ttnn.device loc(#loc)
        %1 = "ttnn.typecast"(%arg0) <{dtype = #ttcore.supportedDataTypes<f32>}> : (tensor<256xbf16, #ttnn_layout11>) -> tensor<256xf32, #ttnn_layout12> loc(#loc)
        %2 = call @cpu_hoisted_const_eval_de413a9b(%1) {ttir.cpu_hoist_call} : (tensor<256xf32, #ttnn_layout12>) -> tensor<1x32x8x1xf32, #ttnn_layout13> loc(#loc)
        "ttnn.deallocate"(%1) <{force = false}> : (tensor<256xf32, #ttnn_layout12>) -> () loc(#loc)
        %3 = "ttnn.to_layout"(%2) <{layout = #ttnn.layout<tile>}> : (tensor<1x32x8x1xf32, #ttnn_layout13>) -> tensor<1x32x8x1xf32, #ttnn_layout6> loc(#loc)
        "ttnn.deallocate"(%2) <{force = false}> : (tensor<1x32x8x1xf32, #ttnn_layout13>) -> () loc(#loc)
        %4 = "ttnn.to_device"(%3, %0) : (tensor<1x32x8x1xf32, #ttnn_layout6>, !ttnn.device) -> tensor<1x32x8x1xf32, #ttnn_layout4> loc(#loc)
        "ttnn.deallocate"(%3) <{force = false}> : (tensor<1x32x8x1xf32, #ttnn_layout6>) -> () loc(#loc)
        return %4 : tensor<1x32x8x1xf32, #ttnn_layout4> loc(#loc)
      } loc(#loc)
      func.func private @main_const_eval_75(%arg0: tensor<256xbf16, #ttnn_layout11> loc(unknown)) -> tensor<1x32x8x1xf32, #ttnn_layout4> attributes {tt.function_type = "const_eval"} {
        %0 = "ttnn.get_device"() <{mesh_offset = #ttnn<mesh_offset 0x0>, mesh_shape = #ttnn<mesh_shape 1x1>}> : () -> !ttnn.device loc(#loc)
        %1 = "ttnn.typecast"(%arg0) <{dtype = #ttcore.supportedDataTypes<f32>}> : (tensor<256xbf16, #ttnn_layout11>) -> tensor<256xf32, #ttnn_layout12> loc(#loc)
        %2 = call @cpu_hoisted_const_eval_de413a9b(%1) {ttir.cpu_hoist_call} : (tensor<256xf32, #ttnn_layout12>) -> tensor<1x32x8x1xf32, #ttnn_layout13> loc(#loc)
        "ttnn.deallocate"(%1) <{force = false}> : (tensor<256xf32, #ttnn_layout12>) -> () loc(#loc)
        %3 = "ttnn.to_layout"(%2) <{layout = #ttnn.layout<tile>}> : (tensor<1x32x8x1xf32, #ttnn_layout13>) -> tensor<1x32x8x1xf32, #ttnn_layout6> loc(#loc)
        "ttnn.deallocate"(%2) <{force = false}> : (tensor<1x32x8x1xf32, #ttnn_layout13>) -> () loc(#loc)
        %4 = "ttnn.to_device"(%3, %0) : (tensor<1x32x8x1xf32, #ttnn_layout6>, !ttnn.device) -> tensor<1x32x8x1xf32, #ttnn_layout4> loc(#loc)
        "ttnn.deallocate"(%3) <{force = false}> : (tensor<1x32x8x1xf32, #ttnn_layout6>) -> () loc(#loc)
        return %4 : tensor<1x32x8x1xf32, #ttnn_layout4> loc(#loc)
      } loc(#loc)
      func.func private @main_const_eval_76(%arg0: tensor<256xbf16, #ttnn_layout11> loc(unknown)) -> tensor<1x32x8x1xf32, #ttnn_layout4> attributes {tt.function_type = "const_eval"} {
        %0 = "ttnn.get_device"() <{mesh_offset = #ttnn<mesh_offset 0x0>, mesh_shape = #ttnn<mesh_shape 1x1>}> : () -> !ttnn.device loc(#loc)
        %1 = "ttnn.typecast"(%arg0) <{dtype = #ttcore.supportedDataTypes<f32>}> : (tensor<256xbf16, #ttnn_layout11>) -> tensor<256xf32, #ttnn_layout12> loc(#loc)
        %2 = call @cpu_hoisted_const_eval_de413a9b(%1) {ttir.cpu_hoist_call} : (tensor<256xf32, #ttnn_layout12>) -> tensor<1x32x8x1xf32, #ttnn_layout13> loc(#loc)
        "ttnn.deallocate"(%1) <{force = false}> : (tensor<256xf32, #ttnn_layout12>) -> () loc(#loc)
        %3 = "ttnn.to_layout"(%2) <{layout = #ttnn.layout<tile>}> : (tensor<1x32x8x1xf32, #ttnn_layout13>) -> tensor<1x32x8x1xf32, #ttnn_layout6> loc(#loc)
        "ttnn.deallocate"(%2) <{force = false}> : (tensor<1x32x8x1xf32, #ttnn_layout13>) -> () loc(#loc)
        %4 = "ttnn.to_device"(%3, %0) : (tensor<1x32x8x1xf32, #ttnn_layout6>, !ttnn.device) -> tensor<1x32x8x1xf32, #ttnn_layout4> loc(#loc)
        "ttnn.deallocate"(%3) <{force = false}> : (tensor<1x32x8x1xf32, #ttnn_layout6>) -> () loc(#loc)
        return %4 : tensor<1x32x8x1xf32, #ttnn_layout4> loc(#loc)
      } loc(#loc)
      func.func private @main_const_eval_77(%arg0: tensor<256xbf16, #ttnn_layout11> loc(unknown)) -> tensor<1x32x8x1xf32, #ttnn_layout4> attributes {tt.function_type = "const_eval"} {
        %0 = "ttnn.get_device"() <{mesh_offset = #ttnn<mesh_offset 0x0>, mesh_shape = #ttnn<mesh_shape 1x1>}> : () -> !ttnn.device loc(#loc)
        %1 = "ttnn.typecast"(%arg0) <{dtype = #ttcore.supportedDataTypes<f32>}> : (tensor<256xbf16, #ttnn_layout11>) -> tensor<256xf32, #ttnn_layout12> loc(#loc)
        %2 = call @cpu_hoisted_const_eval_de413a9b(%1) {ttir.cpu_hoist_call} : (tensor<256xf32, #ttnn_layout12>) -> tensor<1x32x8x1xf32, #ttnn_layout13> loc(#loc)
        "ttnn.deallocate"(%1) <{force = false}> : (tensor<256xf32, #ttnn_layout12>) -> () loc(#loc)
        %3 = "ttnn.to_layout"(%2) <{layout = #ttnn.layout<tile>}> : (tensor<1x32x8x1xf32, #ttnn_layout13>) -> tensor<1x32x8x1xf32, #ttnn_layout6> loc(#loc)
        "ttnn.deallocate"(%2) <{force = false}> : (tensor<1x32x8x1xf32, #ttnn_layout13>) -> () loc(#loc)
        %4 = "ttnn.to_device"(%3, %0) : (tensor<1x32x8x1xf32, #ttnn_layout6>, !ttnn.device) -> tensor<1x32x8x1xf32, #ttnn_layout4> loc(#loc)
        "ttnn.deallocate"(%3) <{force = false}> : (tensor<1x32x8x1xf32, #ttnn_layout6>) -> () loc(#loc)
        return %4 : tensor<1x32x8x1xf32, #ttnn_layout4> loc(#loc)
      } loc(#loc)
      func.func private @main_const_eval_78(%arg0: tensor<512xbf16, #ttnn_layout> loc(unknown)) -> tensor<1x32x16x1xf32, #ttnn_layout4> attributes {tt.function_type = "const_eval"} {
        %0 = "ttnn.get_device"() <{mesh_offset = #ttnn<mesh_offset 0x0>, mesh_shape = #ttnn<mesh_shape 1x1>}> : () -> !ttnn.device loc(#loc)
        %1 = "ttnn.typecast"(%arg0) <{dtype = #ttcore.supportedDataTypes<f32>}> : (tensor<512xbf16, #ttnn_layout>) -> tensor<512xf32, #ttnn_layout2> loc(#loc)
        %2 = call @cpu_hoisted_const_eval_ce3dc089(%1) {ttir.cpu_hoist_call} : (tensor<512xf32, #ttnn_layout2>) -> tensor<1x32x16x1xf32, #ttnn_layout5> loc(#loc)
        "ttnn.deallocate"(%1) <{force = false}> : (tensor<512xf32, #ttnn_layout2>) -> () loc(#loc)
        %3 = "ttnn.to_layout"(%2) <{layout = #ttnn.layout<tile>}> : (tensor<1x32x16x1xf32, #ttnn_layout5>) -> tensor<1x32x16x1xf32, #ttnn_layout6> loc(#loc)
        "ttnn.deallocate"(%2) <{force = false}> : (tensor<1x32x16x1xf32, #ttnn_layout5>) -> () loc(#loc)
        %4 = "ttnn.to_device"(%3, %0) : (tensor<1x32x16x1xf32, #ttnn_layout6>, !ttnn.device) -> tensor<1x32x16x1xf32, #ttnn_layout4> loc(#loc)
        "ttnn.deallocate"(%3) <{force = false}> : (tensor<1x32x16x1xf32, #ttnn_layout6>) -> () loc(#loc)
        return %4 : tensor<1x32x16x1xf32, #ttnn_layout4> loc(#loc)
      } loc(#loc)
      func.func private @main_const_eval_79(%arg0: tensor<512xbf16, #ttnn_layout> loc(unknown)) -> tensor<1x32x16x1xf32, #ttnn_layout4> attributes {tt.function_type = "const_eval"} {
        %0 = "ttnn.get_device"() <{mesh_offset = #ttnn<mesh_offset 0x0>, mesh_shape = #ttnn<mesh_shape 1x1>}> : () -> !ttnn.device loc(#loc)
        %1 = "ttnn.typecast"(%arg0) <{dtype = #ttcore.supportedDataTypes<f32>}> : (tensor<512xbf16, #ttnn_layout>) -> tensor<512xf32, #ttnn_layout2> loc(#loc)
        %2 = call @cpu_hoisted_const_eval_ce3dc089(%1) {ttir.cpu_hoist_call} : (tensor<512xf32, #ttnn_layout2>) -> tensor<1x32x16x1xf32, #ttnn_layout5> loc(#loc)
        "ttnn.deallocate"(%1) <{force = false}> : (tensor<512xf32, #ttnn_layout2>) -> () loc(#loc)
        %3 = "ttnn.to_layout"(%2) <{layout = #ttnn.layout<tile>}> : (tensor<1x32x16x1xf32, #ttnn_layout5>) -> tensor<1x32x16x1xf32, #ttnn_layout6> loc(#loc)
        "ttnn.deallocate"(%2) <{force = false}> : (tensor<1x32x16x1xf32, #ttnn_layout5>) -> () loc(#loc)
        %4 = "ttnn.to_device"(%3, %0) : (tensor<1x32x16x1xf32, #ttnn_layout6>, !ttnn.device) -> tensor<1x32x16x1xf32, #ttnn_layout4> loc(#loc)
        "ttnn.deallocate"(%3) <{force = false}> : (tensor<1x32x16x1xf32, #ttnn_layout6>) -> () loc(#loc)
        return %4 : tensor<1x32x16x1xf32, #ttnn_layout4> loc(#loc)
      } loc(#loc)
      func.func private @main_const_eval_80() -> tensor<1x1x32x1xbf16, #ttnn_layout28> attributes {tt.function_type = "const_eval"} {
        %0 = "ttnn.get_device"() <{mesh_offset = #ttnn<mesh_offset 0x0>, mesh_shape = #ttnn<mesh_shape 1x1>}> : () -> !ttnn.device loc(#loc7)
        %1 = "ttnn.full"(%0) <{dtype = #ttcore.supportedDataTypes<bf16>, fill_value = 9.99999997E-7 : f32, layout = #ttnn.layout<tile>, shape = #ttnn.shape<1x1x32x1>}> : (!ttnn.device) -> tensor<1x1x32x1xbf16, #ttnn_layout28> loc(#loc517)
        return %1 : tensor<1x1x32x1xbf16, #ttnn_layout28> loc(#loc)
      } loc(#loc)
      func.func private @main_const_eval_81(%arg0: tensor<512xbf16, #ttnn_layout> loc(unknown)) -> tensor<1x32x16x1xf32, #ttnn_layout4> attributes {tt.function_type = "const_eval"} {
        %0 = "ttnn.get_device"() <{mesh_offset = #ttnn<mesh_offset 0x0>, mesh_shape = #ttnn<mesh_shape 1x1>}> : () -> !ttnn.device loc(#loc)
        %1 = "ttnn.typecast"(%arg0) <{dtype = #ttcore.supportedDataTypes<f32>}> : (tensor<512xbf16, #ttnn_layout>) -> tensor<512xf32, #ttnn_layout2> loc(#loc)
        %2 = call @cpu_hoisted_const_eval_ce3dc089(%1) {ttir.cpu_hoist_call} : (tensor<512xf32, #ttnn_layout2>) -> tensor<1x32x16x1xf32, #ttnn_layout5> loc(#loc)
        "ttnn.deallocate"(%1) <{force = false}> : (tensor<512xf32, #ttnn_layout2>) -> () loc(#loc)
        %3 = "ttnn.to_layout"(%2) <{layout = #ttnn.layout<tile>}> : (tensor<1x32x16x1xf32, #ttnn_layout5>) -> tensor<1x32x16x1xf32, #ttnn_layout6> loc(#loc)
        "ttnn.deallocate"(%2) <{force = false}> : (tensor<1x32x16x1xf32, #ttnn_layout5>) -> () loc(#loc)
        %4 = "ttnn.to_device"(%3, %0) : (tensor<1x32x16x1xf32, #ttnn_layout6>, !ttnn.device) -> tensor<1x32x16x1xf32, #ttnn_layout4> loc(#loc)
        "ttnn.deallocate"(%3) <{force = false}> : (tensor<1x32x16x1xf32, #ttnn_layout6>) -> () loc(#loc)
        return %4 : tensor<1x32x16x1xf32, #ttnn_layout4> loc(#loc)
      } loc(#loc)
      func.func private @main_const_eval_82(%arg0: tensor<256xbf16, #ttnn_layout11> loc(unknown)) -> tensor<1x1x1x256xbf16, #ttnn_layout37> attributes {tt.function_type = "const_eval"} {
        %0 = "ttnn.typecast"(%arg0) <{dtype = #ttcore.supportedDataTypes<f32>}> : (tensor<256xbf16, #ttnn_layout11>) -> tensor<256xf32, #ttnn_layout12> loc(#loc)
        %1 = call @cpu_hoisted_const_eval_8b649ce3(%0) {ttir.cpu_hoist_call} : (tensor<256xf32, #ttnn_layout12>) -> tensor<1x1x1x256xf32, #ttnn_layout38> loc(#loc)
        "ttnn.deallocate"(%0) <{force = false}> : (tensor<256xf32, #ttnn_layout12>) -> () loc(#loc)
        %2 = "ttnn.typecast"(%1) <{dtype = #ttcore.supportedDataTypes<bf16>}> : (tensor<1x1x1x256xf32, #ttnn_layout38>) -> tensor<1x1x1x256xbf16, #ttnn_layout37> loc(#loc518)
        "ttnn.deallocate"(%1) <{force = false}> : (tensor<1x1x1x256xf32, #ttnn_layout38>) -> () loc(#loc518)
        return %2 : tensor<1x1x1x256xbf16, #ttnn_layout37> loc(#loc)
      } loc(#loc)
      func.func private @main_const_eval_83(%arg0: tensor<128xbf16, #ttnn_layout33> loc(unknown)) -> tensor<1x1x1x128xbf16, #ttnn_layout34> attributes {tt.function_type = "const_eval"} {
        %0 = "ttnn.get_device"() <{mesh_offset = #ttnn<mesh_offset 0x0>, mesh_shape = #ttnn<mesh_shape 1x1>}> : () -> !ttnn.device loc(#loc)
        %1 = "ttnn.to_device"(%arg0, %0) : (tensor<128xbf16, #ttnn_layout33>, !ttnn.device) -> tensor<128xbf16, #ttnn_layout35> loc(#loc)
        %2 = "ttnn.to_layout"(%1) <{layout = #ttnn.layout<tile>}> : (tensor<128xbf16, #ttnn_layout35>) -> tensor<128xbf16, #ttnn_layout36> loc(#loc)
        "ttnn.deallocate"(%1) <{force = false}> : (tensor<128xbf16, #ttnn_layout35>) -> () loc(#loc)
        %3 = "ttnn.reshape"(%2) <{shape = [1 : i32, 1 : i32, 1 : i32, 128 : i32]}> : (tensor<128xbf16, #ttnn_layout36>) -> tensor<1x1x1x128xbf16, #ttnn_layout34> loc(#loc519)
        "ttnn.deallocate"(%2) <{force = false}> : (tensor<128xbf16, #ttnn_layout36>) -> () loc(#loc519)
        return %3 : tensor<1x1x1x128xbf16, #ttnn_layout34> loc(#loc)
      } loc(#loc)
      func.func private @main_const_eval_84(%arg0: tensor<512xbf16, #ttnn_layout> loc(unknown)) -> tensor<1x1x1x512xbf16, #ttnn_layout1> attributes {tt.function_type = "const_eval"} {
        %0 = "ttnn.typecast"(%arg0) <{dtype = #ttcore.supportedDataTypes<f32>}> : (tensor<512xbf16, #ttnn_layout>) -> tensor<512xf32, #ttnn_layout2> loc(#loc)
        %1 = call @cpu_hoisted_const_eval_24665087(%0) {ttir.cpu_hoist_call} : (tensor<512xf32, #ttnn_layout2>) -> tensor<1x1x1x512xf32, #ttnn_layout3> loc(#loc)
        "ttnn.deallocate"(%0) <{force = false}> : (tensor<512xf32, #ttnn_layout2>) -> () loc(#loc)
        %2 = "ttnn.typecast"(%1) <{dtype = #ttcore.supportedDataTypes<bf16>}> : (tensor<1x1x1x512xf32, #ttnn_layout3>) -> tensor<1x1x1x512xbf16, #ttnn_layout1> loc(#loc520)
        "ttnn.deallocate"(%1) <{force = false}> : (tensor<1x1x1x512xf32, #ttnn_layout3>) -> () loc(#loc520)
        return %2 : tensor<1x1x1x512xbf16, #ttnn_layout1> loc(#loc)
      } loc(#loc)
      func.func private @main_const_eval_85(%arg0: tensor<512xbf16, #ttnn_layout> loc(unknown)) -> tensor<1x32x16x1xf32, #ttnn_layout4> attributes {tt.function_type = "const_eval"} {
        %0 = "ttnn.get_device"() <{mesh_offset = #ttnn<mesh_offset 0x0>, mesh_shape = #ttnn<mesh_shape 1x1>}> : () -> !ttnn.device loc(#loc)
        %1 = "ttnn.typecast"(%arg0) <{dtype = #ttcore.supportedDataTypes<f32>}> : (tensor<512xbf16, #ttnn_layout>) -> tensor<512xf32, #ttnn_layout2> loc(#loc)
        %2 = call @cpu_hoisted_const_eval_ce3dc089(%1) {ttir.cpu_hoist_call} : (tensor<512xf32, #ttnn_layout2>) -> tensor<1x32x16x1xf32, #ttnn_layout5> loc(#loc)
        "ttnn.deallocate"(%1) <{force = false}> : (tensor<512xf32, #ttnn_layout2>) -> () loc(#loc)
        %3 = "ttnn.to_layout"(%2) <{layout = #ttnn.layout<tile>}> : (tensor<1x32x16x1xf32, #ttnn_layout5>) -> tensor<1x32x16x1xf32, #ttnn_layout6> loc(#loc)
        "ttnn.deallocate"(%2) <{force = false}> : (tensor<1x32x16x1xf32, #ttnn_layout5>) -> () loc(#loc)
        %4 = "ttnn.to_device"(%3, %0) : (tensor<1x32x16x1xf32, #ttnn_layout6>, !ttnn.device) -> tensor<1x32x16x1xf32, #ttnn_layout4> loc(#loc)
        "ttnn.deallocate"(%3) <{force = false}> : (tensor<1x32x16x1xf32, #ttnn_layout6>) -> () loc(#loc)
        return %4 : tensor<1x32x16x1xf32, #ttnn_layout4> loc(#loc)
      } loc(#loc)
      func.func private @main_const_eval_86(%arg0: tensor<512xbf16, #ttnn_layout> loc(unknown)) -> tensor<1x1x1x512xbf16, #ttnn_layout1> attributes {tt.function_type = "const_eval"} {
        %0 = "ttnn.typecast"(%arg0) <{dtype = #ttcore.supportedDataTypes<f32>}> : (tensor<512xbf16, #ttnn_layout>) -> tensor<512xf32, #ttnn_layout2> loc(#loc)
        %1 = call @cpu_hoisted_const_eval_24665087(%0) {ttir.cpu_hoist_call} : (tensor<512xf32, #ttnn_layout2>) -> tensor<1x1x1x512xf32, #ttnn_layout3> loc(#loc)
        "ttnn.deallocate"(%0) <{force = false}> : (tensor<512xf32, #ttnn_layout2>) -> () loc(#loc)
        %2 = "ttnn.typecast"(%1) <{dtype = #ttcore.supportedDataTypes<bf16>}> : (tensor<1x1x1x512xf32, #ttnn_layout3>) -> tensor<1x1x1x512xbf16, #ttnn_layout1> loc(#loc521)
        "ttnn.deallocate"(%1) <{force = false}> : (tensor<1x1x1x512xf32, #ttnn_layout3>) -> () loc(#loc521)
        return %2 : tensor<1x1x1x512xbf16, #ttnn_layout1> loc(#loc)
      } loc(#loc)
      func.func private @main_const_eval_87(%arg0: tensor<512xbf16, #ttnn_layout> loc(unknown)) -> tensor<1x1x1x512xbf16, #ttnn_layout1> attributes {tt.function_type = "const_eval"} {
        %0 = "ttnn.typecast"(%arg0) <{dtype = #ttcore.supportedDataTypes<f32>}> : (tensor<512xbf16, #ttnn_layout>) -> tensor<512xf32, #ttnn_layout2> loc(#loc)
        %1 = call @cpu_hoisted_const_eval_24665087(%0) {ttir.cpu_hoist_call} : (tensor<512xf32, #ttnn_layout2>) -> tensor<1x1x1x512xf32, #ttnn_layout3> loc(#loc)
        "ttnn.deallocate"(%0) <{force = false}> : (tensor<512xf32, #ttnn_layout2>) -> () loc(#loc)
        %2 = "ttnn.typecast"(%1) <{dtype = #ttcore.supportedDataTypes<bf16>}> : (tensor<1x1x1x512xf32, #ttnn_layout3>) -> tensor<1x1x1x512xbf16, #ttnn_layout1> loc(#loc522)
        "ttnn.deallocate"(%1) <{force = false}> : (tensor<1x1x1x512xf32, #ttnn_layout3>) -> () loc(#loc522)
        return %2 : tensor<1x1x1x512xbf16, #ttnn_layout1> loc(#loc)
      } loc(#loc)
      func.func private @main_const_eval_88(%arg0: tensor<256xbf16, #ttnn_layout11> loc(unknown)) -> tensor<1x1x1x256xbf16, #ttnn_layout37> attributes {tt.function_type = "const_eval"} {
        %0 = "ttnn.typecast"(%arg0) <{dtype = #ttcore.supportedDataTypes<f32>}> : (tensor<256xbf16, #ttnn_layout11>) -> tensor<256xf32, #ttnn_layout12> loc(#loc)
        %1 = call @cpu_hoisted_const_eval_8b649ce3(%0) {ttir.cpu_hoist_call} : (tensor<256xf32, #ttnn_layout12>) -> tensor<1x1x1x256xf32, #ttnn_layout38> loc(#loc)
        "ttnn.deallocate"(%0) <{force = false}> : (tensor<256xf32, #ttnn_layout12>) -> () loc(#loc)
        %2 = "ttnn.typecast"(%1) <{dtype = #ttcore.supportedDataTypes<bf16>}> : (tensor<1x1x1x256xf32, #ttnn_layout38>) -> tensor<1x1x1x256xbf16, #ttnn_layout37> loc(#loc523)
        "ttnn.deallocate"(%1) <{force = false}> : (tensor<1x1x1x256xf32, #ttnn_layout38>) -> () loc(#loc523)
        return %2 : tensor<1x1x1x256xbf16, #ttnn_layout37> loc(#loc)
      } loc(#loc)
      func.func @main(%arg0: tensor<128xbf16, #ttnn_layout33> {ttcore.argument_type = #ttcore.argument_type<parameter>, ttcore.local_shape = #ttcore<local_shape local_shape = tensor<128xbf16>>, ttcore.shard_status = #ttcore.shard_status<unsharded>, ttir.name = "L__self___up3_resnets_0_norm2_bias"} loc("p0.2"), %arg1: tensor<128xbf16, #ttnn_layout33> {ttcore.argument_type = #ttcore.argument_type<parameter>, ttcore.local_shape = #ttcore<local_shape local_shape = tensor<128xbf16>>, ttcore.shard_status = #ttcore.shard_status<unsharded>, ttir.name = "L__self___up3_resnets_0_norm2_weight"} loc("p1.10"), %arg2: tensor<128xbf16, #ttnn_layout33> {ttcore.argument_type = #ttcore.argument_type<parameter>, ttcore.local_shape = #ttcore<local_shape local_shape = tensor<128xbf16>>, ttcore.shard_status = #ttcore.shard_status<unsharded>, ttir.name = "L__self___up3_resnets_0_conv1.bias"} loc("p2.21"), %arg3: tensor<128x256x3x3xbf16, #ttnn_layout55> {ttcore.argument_type = #ttcore.argument_type<parameter>, ttcore.local_shape = #ttcore<local_shape local_shape = tensor<128x256x3x3xbf16>>, ttcore.shard_status = #ttcore.shard_status<unsharded>, ttir.conv2d_weight, ttir.name = "L__self___up3_resnets_0_conv1.weight"} loc("p3.25"), %arg4: tensor<256xbf16, #ttnn_layout11> {ttcore.argument_type = #ttcore.argument_type<parameter>, ttcore.local_shape = #ttcore<local_shape local_shape = tensor<256xbf16>>, ttcore.shard_status = #ttcore.shard_status<unsharded>, ttir.name = "L__self___up3_resnets_0_norm1.bias"} loc("p4.28"), %arg5: tensor<256xbf16, #ttnn_layout11> {ttcore.argument_type = #ttcore.argument_type<parameter>, ttcore.local_shape = #ttcore<local_shape local_shape = tensor<256xbf16>>, ttcore.shard_status = #ttcore.shard_status<unsharded>, ttir.name = "L__self___up3_resnets_0_norm1.weight"} loc("p5.35"), %arg6: tensor<256xbf16, #ttnn_layout11> {ttcore.argument_type = #ttcore.argument_type<parameter>, ttcore.local_shape = #ttcore<local_shape local_shape = tensor<256xbf16>>, ttcore.shard_status = #ttcore.shard_status<unsharded>, ttir.name = "prefix.decoder.up_blocks.2.upsamplers.0.conv.bias"} loc("p6.45"), %arg7: tensor<256x256x3x3xbf16, #ttnn_layout56> {ttcore.argument_type = #ttcore.argument_type<parameter>, ttcore.local_shape = #ttcore<local_shape local_shape = tensor<256x256x3x3xbf16>>, ttcore.shard_status = #ttcore.shard_status<unsharded>, ttir.conv2d_weight, ttir.name = "prefix.decoder.up_blocks.2.upsamplers.0.conv.weight"} loc("p7.49"), %arg8: tensor<256xbf16, #ttnn_layout11> {ttcore.argument_type = #ttcore.argument_type<parameter>, ttcore.local_shape = #ttcore<local_shape local_shape = tensor<256xbf16>>, ttcore.shard_status = #ttcore.shard_status<unsharded>, ttir.name = "prefix.decoder.up_blocks.2.resnets.2.conv2.bias"} loc("p8.83"), %arg9: tensor<256x256x3x3xbf16, #ttnn_layout56> {ttcore.argument_type = #ttcore.argument_type<parameter>, ttcore.local_shape = #ttcore<local_shape local_shape = tensor<256x256x3x3xbf16>>, ttcore.shard_status = #ttcore.shard_status<unsharded>, ttir.conv2d_weight, ttir.name = "prefix.decoder.up_blocks.2.resnets.2.conv2.weight"} loc("p9.87"), %arg10: tensor<256xbf16, #ttnn_layout11> {ttcore.argument_type = #ttcore.argument_type<parameter>, ttcore.local_shape = #ttcore<local_shape local_shape = tensor<256xbf16>>, ttcore.shard_status = #ttcore.shard_status<unsharded>, ttir.name = "prefix.decoder.up_blocks.2.resnets.2.norm2.bias"} loc("p10.90"), %arg11: tensor<256xbf16, #ttnn_layout11> {ttcore.argument_type = #ttcore.argument_type<parameter>, ttcore.local_shape = #ttcore<local_shape local_shape = tensor<256xbf16>>, ttcore.shard_status = #ttcore.shard_status<unsharded>, ttir.name = "prefix.decoder.up_blocks.2.resnets.2.norm2.weight"} loc("p11.97"), %arg12: tensor<256xbf16, #ttnn_layout11> {ttcore.argument_type = #ttcore.argument_type<parameter>, ttcore.local_shape = #ttcore<local_shape local_shape = tensor<256xbf16>>, ttcore.shard_status = #ttcore.shard_status<unsharded>, ttir.name = "prefix.decoder.up_blocks.2.resnets.2.conv1.bias"} loc("p12.107"), %arg13: tensor<256x256x3x3xbf16, #ttnn_layout56> {ttcore.argument_type = #ttcore.argument_type<parameter>, ttcore.local_shape = #ttcore<local_shape local_shape = tensor<256x256x3x3xbf16>>, ttcore.shard_status = #ttcore.shard_status<unsharded>, ttir.conv2d_weight, ttir.name = "prefix.decoder.up_blocks.2.resnets.2.conv1.weight"} loc("p13.111"), %arg14: tensor<256xbf16, #ttnn_layout11> {ttcore.argument_type = #ttcore.argument_type<parameter>, ttcore.local_shape = #ttcore<local_shape local_shape = tensor<256xbf16>>, ttcore.shard_status = #ttcore.shard_status<unsharded>, ttir.name = "prefix.decoder.up_blocks.2.resnets.2.norm1.bias"} loc("p14.114"), %arg15: tensor<256xbf16, #ttnn_layout11> {ttcore.argument_type = #ttcore.argument_type<parameter>, ttcore.local_shape = #ttcore<local_shape local_shape = tensor<256xbf16>>, ttcore.shard_status = #ttcore.shard_status<unsharded>, ttir.name = "prefix.decoder.up_blocks.2.resnets.2.norm1.weight"} loc("p15.121"), %arg16: tensor<256xbf16, #ttnn_layout11> {ttcore.argument_type = #ttcore.argument_type<parameter>, ttcore.local_shape = #ttcore<local_shape local_shape = tensor<256xbf16>>, ttcore.shard_status = #ttcore.shard_status<unsharded>, ttir.name = "prefix.decoder.up_blocks.2.resnets.1.conv2.bias"} loc("p16.133"), %arg17: tensor<256x256x3x3xbf16, #ttnn_layout56> {ttcore.argument_type = #ttcore.argument_type<parameter>, ttcore.local_shape = #ttcore<local_shape local_shape = tensor<256x256x3x3xbf16>>, ttcore.shard_status = #ttcore.shard_status<unsharded>, ttir.conv2d_weight, ttir.name = "prefix.decoder.up_blocks.2.resnets.1.conv2.weight"} loc("p17.137"), %arg18: tensor<256xbf16, #ttnn_layout11> {ttcore.argument_type = #ttcore.argument_type<parameter>, ttcore.local_shape = #ttcore<local_shape local_shape = tensor<256xbf16>>, ttcore.shard_status = #ttcore.shard_status<unsharded>, ttir.name = "prefix.decoder.up_blocks.2.resnets.1.norm2.bias"} loc("p18.140"), %arg19: tensor<256xbf16, #ttnn_layout11> {ttcore.argument_type = #ttcore.argument_type<parameter>, ttcore.local_shape = #ttcore<local_shape local_shape = tensor<256xbf16>>, ttcore.shard_status = #ttcore.shard_status<unsharded>, ttir.name = "prefix.decoder.up_blocks.2.resnets.1.norm2.weight"} loc("p19.147"), %arg20: tensor<256xbf16, #ttnn_layout11> {ttcore.argument_type = #ttcore.argument_type<parameter>, ttcore.local_shape = #ttcore<local_shape local_shape = tensor<256xbf16>>, ttcore.shard_status = #ttcore.shard_status<unsharded>, ttir.name = "prefix.decoder.up_blocks.2.resnets.1.conv1.bias"} loc("p20.157"), %arg21: tensor<256x256x3x3xbf16, #ttnn_layout56> {ttcore.argument_type = #ttcore.argument_type<parameter>, ttcore.local_shape = #ttcore<local_shape local_shape = tensor<256x256x3x3xbf16>>, ttcore.shard_status = #ttcore.shard_status<unsharded>, ttir.conv2d_weight, ttir.name = "prefix.decoder.up_blocks.2.resnets.1.conv1.weight"} loc("p21.161"), %arg22: tensor<256xbf16, #ttnn_layout11> {ttcore.argument_type = #ttcore.argument_type<parameter>, ttcore.local_shape = #ttcore<local_shape local_shape = tensor<256xbf16>>, ttcore.shard_status = #ttcore.shard_status<unsharded>, ttir.name = "prefix.decoder.up_blocks.2.resnets.1.norm1.bias"} loc("p22.164"), %arg23: tensor<256xbf16, #ttnn_layout11> {ttcore.argument_type = #ttcore.argument_type<parameter>, ttcore.local_shape = #ttcore<local_shape local_shape = tensor<256xbf16>>, ttcore.shard_status = #ttcore.shard_status<unsharded>, ttir.name = "prefix.decoder.up_blocks.2.resnets.1.norm1.weight"} loc("p23.171"), %arg24: tensor<256xbf16, #ttnn_layout11> {ttcore.argument_type = #ttcore.argument_type<parameter>, ttcore.local_shape = #ttcore<local_shape local_shape = tensor<256xbf16>>, ttcore.shard_status = #ttcore.shard_status<unsharded>, ttir.name = "prefix.decoder.up_blocks.2.resnets.0.conv2.bias"} loc("p24.183"), %arg25: tensor<256x256x3x3xbf16, #ttnn_layout56> {ttcore.argument_type = #ttcore.argument_type<parameter>, ttcore.local_shape = #ttcore<local_shape local_shape = tensor<256x256x3x3xbf16>>, ttcore.shard_status = #ttcore.shard_status<unsharded>, ttir.conv2d_weight, ttir.name = "prefix.decoder.up_blocks.2.resnets.0.conv2.weight"} loc("p25.187"), %arg26: tensor<256xbf16, #ttnn_layout11> {ttcore.argument_type = #ttcore.argument_type<parameter>, ttcore.local_shape = #ttcore<local_shape local_shape = tensor<256xbf16>>, ttcore.shard_status = #ttcore.shard_status<unsharded>, ttir.name = "prefix.decoder.up_blocks.2.resnets.0.norm2.bias"} loc("p26.190"), %arg27: tensor<256xbf16, #ttnn_layout11> {ttcore.argument_type = #ttcore.argument_type<parameter>, ttcore.local_shape = #ttcore<local_shape local_shape = tensor<256xbf16>>, ttcore.shard_status = #ttcore.shard_status<unsharded>, ttir.name = "prefix.decoder.up_blocks.2.resnets.0.norm2.weight"} loc("p27.197"), %arg28: tensor<256xbf16, #ttnn_layout11> {ttcore.argument_type = #ttcore.argument_type<parameter>, ttcore.local_shape = #ttcore<local_shape local_shape = tensor<256xbf16>>, ttcore.shard_status = #ttcore.shard_status<unsharded>, ttir.name = "prefix.decoder.up_blocks.2.resnets.0.conv1.bias"} loc("p28.207"), %arg29: tensor<256x512x3x3xbf16, #ttnn_layout57> {ttcore.argument_type = #ttcore.argument_type<parameter>, ttcore.local_shape = #ttcore<local_shape local_shape = tensor<256x512x3x3xbf16>>, ttcore.shard_status = #ttcore.shard_status<unsharded>, ttir.conv2d_weight, ttir.name = "prefix.decoder.up_blocks.2.resnets.0.conv1.weight"} loc("p29.211"), %arg30: tensor<512xbf16, #ttnn_layout> {ttcore.argument_type = #ttcore.argument_type<parameter>, ttcore.local_shape = #ttcore<local_shape local_shape = tensor<512xbf16>>, ttcore.shard_status = #ttcore.shard_status<unsharded>, ttir.name = "prefix.decoder.up_blocks.2.resnets.0.norm1.bias"} loc("p30.214"), %arg31: tensor<512xbf16, #ttnn_layout> {ttcore.argument_type = #ttcore.argument_type<parameter>, ttcore.local_shape = #ttcore<local_shape local_shape = tensor<512xbf16>>, ttcore.shard_status = #ttcore.shard_status<unsharded>, ttir.name = "prefix.decoder.up_blocks.2.resnets.0.norm1.weight"} loc("p31.221"), %arg32: tensor<512xbf16, #ttnn_layout> {ttcore.argument_type = #ttcore.argument_type<parameter>, ttcore.local_shape = #ttcore<local_shape local_shape = tensor<512xbf16>>, ttcore.shard_status = #ttcore.shard_status<unsharded>, ttir.name = "prefix.decoder.up_blocks.1.upsamplers.0.conv.bias"} loc("p32.231"), %arg3…
        %23 = llvm.insertvalue %5, %22[0] : !llvm.struct<(ptr, ptr, i64, ptr)>  loc(#loc)
        %24 = llvm.insertvalue %6, %23[1] : !llvm.struct<(ptr, ptr, i64, ptr)>  loc(#loc)
        %25 = llvm.insertvalue %7, %24[2] : !llvm.struct<(ptr, ptr, i64, ptr)>  loc(#loc)
        %26 = llvm.insertvalue %9, %25[3] : !llvm.struct<(ptr, ptr, i64, ptr)>  loc(#loc)
        %27 = llvm.mlir.constant(0 : i64) : i64 loc(#loc)
        %28 = llvm.getelementptr %2[%27] : (!llvm.ptr, i64) -> !llvm.ptr, !llvm.struct<(ptr, ptr, i64, ptr)> loc(#loc)
        llvm.store %26, %28 : !llvm.struct<(ptr, ptr, i64, ptr)>, !llvm.ptr loc(#loc)
        llvm.return %2 : !llvm.ptr loc(#loc)
      } loc(#loc)
      llvm.func @cpu_hoisted_const_eval_11ccd806_helper(%arg0: !llvm.ptr loc(unknown)) -> !llvm.ptr {
        %0 = llvm.mlir.constant(0 : i64) : i64 loc(#loc)
        %1 = llvm.mlir.constant(4 : i64) : i64 loc(#loc)
        %2 = llvm.mul %0, %1 : i64 loc(#loc)
        %3 = llvm.getelementptr inbounds %arg0[%2] : (!llvm.ptr, i64) -> !llvm.ptr, !llvm.ptr loc(#loc)
        %4 = llvm.load %3 : !llvm.ptr -> !llvm.struct<(ptr, ptr, i64, ptr)> loc(#loc)
        %5 = llvm.extractvalue %4[0] : !llvm.struct<(ptr, ptr, i64, ptr)>  loc(#loc)
        %6 = llvm.extractvalue %4[1] : !llvm.struct<(ptr, ptr, i64, ptr)>  loc(#loc)
        %7 = llvm.extractvalue %4[2] : !llvm.struct<(ptr, ptr, i64, ptr)>  loc(#loc)
        %8 = llvm.extractvalue %4[3] : !llvm.struct<(ptr, ptr, i64, ptr)>  loc(#loc)
        %9 = llvm.mlir.constant(0 : i64) : i64 loc(#loc)
        %10 = llvm.getelementptr %8[%9] : (!llvm.ptr, i64) -> !llvm.ptr, !llvm.ptr loc(#loc)
        %11 = llvm.load %10 : !llvm.ptr -> i64 loc(#loc)
        %12 = llvm.mlir.constant(1 : i64) : i64 loc(#loc)
        %13 = llvm.getelementptr %8[%12] : (!llvm.ptr, i64) -> !llvm.ptr, !llvm.ptr loc(#loc)
        %14 = llvm.load %13 : !llvm.ptr -> i64 loc(#loc)
        %15 = llvm.mlir.constant(2 : i64) : i64 loc(#loc)
        %16 = llvm.getelementptr %8[%15] : (!llvm.ptr, i64) -> !llvm.ptr, !llvm.ptr loc(#loc)
        %17 = llvm.load %16 : !llvm.ptr -> i64 loc(#loc)
        %18 = llvm.mlir.constant(3 : i64) : i64 loc(#loc)
        %19 = llvm.getelementptr %8[%18] : (!llvm.ptr, i64) -> !llvm.ptr, !llvm.ptr loc(#loc)
        %20 = llvm.load %19 : !llvm.ptr -> i64 loc(#loc)
        %21 = llvm.mlir.constant(1 : i64) : i64 loc(#loc)
        %22 = llvm.mlir.constant(4 : i64) : i64 loc(#loc)
        %23 = llvm.mul %21, %22 : i64 loc(#loc)
        %24 = llvm.getelementptr inbounds %arg0[%23] : (!llvm.ptr, i64) -> !llvm.ptr, !llvm.ptr loc(#loc)
        %25 = llvm.load %24 : !llvm.ptr -> !llvm.struct<(ptr, ptr, i64, ptr)> loc(#loc)
        %26 = llvm.extractvalue %25[0] : !llvm.struct<(ptr, ptr, i64, ptr)>  loc(#loc)
        %27 = llvm.extractvalue %25[1] : !llvm.struct<(ptr, ptr, i64, ptr)>  loc(#loc)
        %28 = llvm.extractvalue %25[2] : !llvm.struct<(ptr, ptr, i64, ptr)>  loc(#loc)
        %29 = llvm.extractvalue %25[3] : !llvm.struct<(ptr, ptr, i64, ptr)>  loc(#loc)
        %30 = llvm.mlir.constant(0 : i64) : i64 loc(#loc)
        %31 = llvm.getelementptr %29[%30] : (!llvm.ptr, i64) -> !llvm.ptr, !llvm.ptr loc(#loc)
        %32 = llvm.load %31 : !llvm.ptr -> i64 loc(#loc)
        %33 = llvm.mlir.constant(1 : i64) : i64 loc(#loc)
        %34 = llvm.getelementptr %29[%33] : (!llvm.ptr, i64) -> !llvm.ptr, !llvm.ptr loc(#loc)
        %35 = llvm.load %34 : !llvm.ptr -> i64 loc(#loc)
        %36 = llvm.mlir.constant(2 : i64) : i64 loc(#loc)
        %37 = llvm.getelementptr %29[%36] : (!llvm.ptr, i64) -> !llvm.ptr, !llvm.ptr loc(#loc)
        %38 = llvm.load %37 : !llvm.ptr -> i64 loc(#loc)
        %39 = llvm.mlir.constant(3 : i64) : i64 loc(#loc)
        %40 = llvm.getelementptr %29[%39] : (!llvm.ptr, i64) -> !llvm.ptr, !llvm.ptr loc(#loc)
        %41 = llvm.load %40 : !llvm.ptr -> i64 loc(#loc)
        %42 = llvm.mlir.constant(2 : i64) : i64 loc(#loc)
        %43 = llvm.mlir.constant(4 : i64) : i64 loc(#loc)
        %44 = llvm.mul %42, %43 : i64 loc(#loc)
        %45 = llvm.getelementptr inbounds %arg0[%44] : (!llvm.ptr, i64) -> !llvm.ptr, !llvm.ptr loc(#loc)
        %46 = llvm.load %45 : !llvm.ptr -> !llvm.struct<(ptr, ptr, i64, ptr)> loc(#loc)
        %47 = llvm.extractvalue %46[0] : !llvm.struct<(ptr, ptr, i64, ptr)>  loc(#loc)
        %48 = llvm.extractvalue %46[1] : !llvm.struct<(ptr, ptr, i64, ptr)>  loc(#loc)
        %49 = llvm.extractvalue %46[2] : !llvm.struct<(ptr, ptr, i64, ptr)>  loc(#loc)
        %50 = llvm.extractvalue %46[3] : !llvm.struct<(ptr, ptr, i64, ptr)>  loc(#loc)
        %51 = llvm.mlir.constant(0 : i64) : i64 loc(#loc)
        %52 = llvm.getelementptr %50[%51] : (!llvm.ptr, i64) -> !llvm.ptr, !llvm.ptr loc(#loc)
        %53 = llvm.load %52 : !llvm.ptr -> i64 loc(#loc)
        %54 = llvm.mlir.constant(1 : i64) : i64 loc(#loc)
        %55 = llvm.getelementptr %50[%54] : (!llvm.ptr, i64) -> !llvm.ptr, !llvm.ptr loc(#loc)
        %56 = llvm.load %55 : !llvm.ptr -> i64 loc(#loc)
        %57 = llvm.mlir.constant(2 : i64) : i64 loc(#loc)
        %58 = llvm.getelementptr %50[%57] : (!llvm.ptr, i64) -> !llvm.ptr, !llvm.ptr loc(#loc)
        %59 = llvm.load %58 : !llvm.ptr -> i64 loc(#loc)
        %60 = llvm.mlir.constant(3 : i64) : i64 loc(#loc)
        %61 = llvm.getelementptr %50[%60] : (!llvm.ptr, i64) -> !llvm.ptr, !llvm.ptr loc(#loc)
        %62 = llvm.load %61 : !llvm.ptr -> i64 loc(#loc)
        %63 = llvm.call @cpu_hoisted_const_eval_11ccd806(%5, %6, %7, %11, %14, %17, %20, %26, %27, %28, %32, %35, %38, %41, %47, %48, %49, %53, %56, %59, %62) : (!llvm.ptr, !llvm.ptr, i64, i64, i64, i64, i64, !llvm.ptr, !llvm.ptr, i64, i64, i64, i64, i64, !llvm.ptr, !llvm.ptr, i64, i64, i64, i64, i64) -> !llvm.struct<(ptr, ptr, i64, array<2 x i64>, array<2 x i64>)> loc(#loc)
        %64 = llvm.mlir.constant(32 : i64) : i64 loc(#loc)
        %65 = llvm.call @malloc(%64) : (i64) -> !llvm.ptr loc(#loc)
        %66 = llvm.mlir.constant(32 : i64) : i64 loc(#loc)
        %67 = llvm.call @malloc(%66) : (i64) -> !llvm.ptr loc(#loc)
        %68 = llvm.extractvalue %63[0] : !llvm.struct<(ptr, ptr, i64, array<2 x i64>, array<2 x i64>)>  loc(#loc)
        %69 = llvm.extractvalue %63[1] : !llvm.struct<(ptr, ptr, i64, array<2 x i64>, array<2 x i64>)>  loc(#loc)
        %70 = llvm.extractvalue %63[2] : !llvm.struct<(ptr, ptr, i64, array<2 x i64>, array<2 x i64>)>  loc(#loc)
        %71 = llvm.mlir.constant(0 : i64) : i64 loc(#loc)
        %72 = llvm.getelementptr %67[%71] : (!llvm.ptr, i64) -> !llvm.ptr, i8 loc(#loc)
        %73 = llvm.extractvalue %63[3, 0] : !llvm.struct<(ptr, ptr, i64, array<2 x i64>, array<2 x i64>)>  loc(#loc)
        %74 = llvm.mlir.constant(0 : i64) : i64 loc(#loc)
        %75 = llvm.getelementptr %72[%74] : (!llvm.ptr, i64) -> !llvm.ptr, i64 loc(#loc)
        llvm.store %73, %75 : i64, !llvm.ptr loc(#loc)
        %76 = llvm.extractvalue %63[3, 1] : !llvm.struct<(ptr, ptr, i64, array<2 x i64>, array<2 x i64>)>  loc(#loc)
        %77 = llvm.mlir.constant(1 : i64) : i64 loc(#loc)
        %78 = llvm.getelementptr %72[%77] : (!llvm.ptr, i64) -> !llvm.ptr, i64 loc(#loc)
        llvm.store %76, %78 : i64, !llvm.ptr loc(#loc)
        %79 = llvm.extractvalue %63[4, 0] : !llvm.struct<(ptr, ptr, i64, array<2 x i64>, array<2 x i64>)>  loc(#loc)
        %80 = llvm.mlir.constant(2 : i64) : i64 loc(#loc)
        %81 = llvm.getelementptr %72[%80] : (!llvm.ptr, i64) -> !llvm.ptr, i64 loc(#loc)
        llvm.store %79, %81 : i64, !llvm.ptr loc(#loc)
        %82 = llvm.extractvalue %63[4, 1] : !llvm.struct<(ptr, ptr, i64, array<2 x i64>, array<2 x i64>)>  loc(#loc)
        %83 = llvm.mlir.constant(3 : i64) : i64 loc(#loc)
        %84 = llvm.getelementptr %72[%83] : (!llvm.ptr, i64) -> !llvm.ptr, i64 loc(#loc)
        llvm.store %82, %84 : i64, !llvm.ptr loc(#loc)
        %85 = llvm.mlir.undef : !llvm.struct<(ptr, ptr, i64, ptr)> loc(#loc)
        %86 = llvm.insertvalue %68, %85[0] : !llvm.struct<(ptr, ptr, i64, ptr)>  loc(#loc)
        %87 = llvm.insertvalue %69, %86[1] : !llvm.struct<(ptr, ptr, i64, ptr)>  loc(#loc)
        %88 = llvm.insertvalue %70, %87[2] : !llvm.struct<(ptr, ptr, i64, ptr)>  loc(#loc)
        %89 = llvm.insertvalue %72, %88[3] : !llvm.struct<(ptr, ptr, i64, ptr)>  loc(#loc)
        %90 = llvm.mlir.constant(0 : i64) : i64 loc(#loc)
        %91 = llvm.getelementptr %65[%90] : (!llvm.ptr, i64) -> !llvm.ptr, !llvm.struct<(ptr, ptr, i64, ptr)> loc(#loc)
        llvm.store %89, %91 : !llvm.struct<(ptr, ptr, i64, ptr)>, !llvm.ptr loc(#loc)
        llvm.return %65 : !llvm.ptr loc(#loc)
      } loc(#loc)
      llvm.func @cpu_hoisted_const_eval_38a1353c_helper(%arg0: !llvm.ptr loc(unknown)) -> !llvm.ptr {
        %0 = llvm.mlir.constant(0 : i64) : i64 loc(#loc)
        %1 = llvm.mlir.constant(4 : i64) : i64 loc(#loc)
        %2 = llvm.mul %0, %1 : i64 loc(#loc)
        %3 = llvm.getelementptr inbounds %arg0[%2] : (!llvm.ptr, i64) -> !llvm.ptr, !llvm.ptr loc(#loc)
        %4 = llvm.load %3 : !llvm.ptr -> !llvm.struct<(ptr, ptr, i64, ptr)> loc(#loc)
        %5 = llvm.extractvalue %4[0] : !llvm.struct<(ptr, ptr, i64, ptr)>  loc(#loc)
        %6 = llvm.extractvalue %4[1] : !llvm.struct<(ptr, ptr, i64, ptr)>  loc(#loc)
        %7 = llvm.extractvalue %4[2] : !llvm.struct<(ptr, ptr, i64, ptr)>  loc(#loc)
        %8 = llvm.extractvalue %4[3] : !llvm.struct<(ptr, ptr, i64, ptr)>  loc(#loc)
        %9 = llvm.mlir.constant(0 : i64) : i64 loc(#loc)
        %10 = llvm.getelementptr %8[%9] : (!llvm.ptr, i64) -> !llvm.ptr, !llvm.ptr loc(#loc)
        %11 = llvm.load %10 : !llvm.ptr -> i64 loc(#loc)
        %12 = llvm.mlir.constant(1 : i64) : i64 loc(#loc)
        %13 = llvm.getelementptr %8[%12] : (!llvm.ptr, i64) -> !llvm.ptr, !llvm.ptr loc(#loc)
        %14 = llvm.load %13 : !llvm.ptr -> i64 loc(#loc)
        %15 = llvm.call @cpu_hoisted_const_eval_38a1353c(%5, %6, %7, %11, %14) : (!llvm.ptr, !llvm.ptr, i64, i64, i64) -> !llvm.struct<(ptr, ptr, i64, array<4 x i64>, array<4 x i64>)> loc(#loc)
        %16 = llvm.mlir.constant(32 : i64) : i64 loc(#loc)
        %17 = llvm.call @malloc(%16) : (i64) -> !llvm.ptr loc(#loc)
        %18 = llvm.mlir.constant(64 : i64) : i64 loc(#loc)
        %19 = llvm.call @malloc(%18) : (i64) -> !llvm.ptr loc(#loc)
        %20 = llvm.extractvalue %15[0] : !llvm.struct<(ptr, ptr, i64, array<4 x i64>, array<4 x i64>)>  loc(#loc)
        %21 = llvm.extractvalue %15[1] : !llvm.struct<(ptr, ptr, i64, array<4 x i64>, array<4 x i64>)>  loc(#loc)
        %22 = llvm.extractvalue %15[2] : !llvm.struct<(ptr, ptr, i64, array<4 x i64>, array<4 x i64>)>  loc(#loc)
        %23 = llvm.mlir.constant(0 : i64) : i64 loc(#loc)
        %24 = llvm.getelementptr %19[%23] : (!llvm.ptr, i64) -> !llvm.ptr, i8 loc(#loc)
        %25 = llvm.extractvalue %15[3, 0] : !llvm.struct<(ptr, ptr, i64, array<4 x i64>, array<4 x i64>)>  loc(#loc)
        %26 = llvm.mlir.constant(0 : i64) : i64 loc(#loc)
        %27 = llvm.getelementptr %24[%26] : (!llvm.ptr, i64) -> !llvm.ptr, i64 loc(#loc)
        llvm.store %25, %27 : i64, !llvm.ptr loc(#loc)
        %28 = llvm.extractvalue %15[3, 1] : !llvm.struct<(ptr, ptr, i64, array<4 x i64>, array<4 x i64>)>  loc(#loc)
        %29 = llvm.mlir.constant(1 : i64) : i64 loc(#loc)
        %30 = llvm.getelementptr %24[%29] : (!llvm.ptr, i64) -> !llvm.ptr, i64 loc(#loc)
        llvm.store %28, %30 : i64, !llvm.ptr loc(#loc)
        %31 = llvm.extractvalue %15[3, 2] : !llvm.struct<(ptr, ptr, i64, array<4 x i64>, array<4 x i64>)>  loc(#loc)
        %32 = llvm.mlir.constant(2 : i64) : i64 loc(#loc)
        %33 = llvm.getelementptr %24[%32] : (!llvm.ptr, i64) -> !llvm.ptr, i64 loc(#loc)
        llvm.store %31, %33 : i64, !llvm.ptr loc(#loc)
        %34 = llvm.extractvalue %15[3, 3] : !llvm.struct<(ptr, ptr, i64, array<4 x i64>, array<4 x i64>)>  loc(#loc)
        %35 = llvm.mlir.constant(3 : i64) : i64 loc(#loc)
        %36 = llvm.getelementptr %24[%35] : (!llvm.ptr, i64) -> !llvm.ptr, i64 loc(#loc)
        llvm.store %34, %36 : i64, !llvm.ptr loc(#loc)
        %37 = llvm.extractvalue %15[4, 0] : !llvm.struct<(ptr, ptr, i64, array<4 x i64>, array<4 x i64>)>  loc(#loc)
        %38 = llvm.mlir.constant(4 : i64) : i64 loc(#loc)
        %39 = llvm.getelementptr %24[%38] : (!llvm.ptr, i64) -> !llvm.ptr, i64 loc(#loc)
        llvm.store %37, %39 : i64, !llvm.ptr loc(#loc)
        %40 = llvm.extractvalue %15[4, 1] : !llvm.struct<(ptr, ptr, i64, array<4 x i64>, array<4 x i64>)>  loc(#loc)
        %41 = llvm.mlir.constant(5 : i64) : i64 loc(#loc)
        %42 = llvm.getelementptr %24[%41] : (!llvm.ptr, i64) -> !llvm.ptr, i64 loc(#loc)
        llvm.store %40, %42 : i64, !llvm.ptr loc(#loc)
        %43 = llvm.extractvalue %15[4, 2] : !llvm.struct<(ptr, ptr, i64, array<4 x i64>, array<4 x i64>)>  loc(#loc)
        %44 = llvm.mlir.constant(6 : i64) : i64 loc(#loc)
        %45 = llvm.getelementptr %24[%44] : (!llvm.ptr, i64) -> !llvm.ptr, i64 loc(#loc)
        llvm.store %43, %45 : i64, !llvm.ptr loc(#loc)
        %46 = llvm.extractvalue %15[4, 3] : !llvm.struct<(ptr, ptr, i64, array<4 x i64>, array<4 x i64>)>  loc(#loc)
        %47 = llvm.mlir.constant(7 : i64) : i64 loc(#loc)
        %48 = llvm.getelementptr %24[%47] : (!llvm.ptr, i64) -> !llvm.ptr, i64 loc(#loc)
        llvm.store %46, %48 : i64, !llvm.ptr loc(#loc)
        %49 = llvm.mlir.undef : !llvm.struct<(ptr, ptr, i64, ptr)> loc(#loc)
        %50 = llvm.insertvalue %20, %49[0] : !llvm.struct<(ptr, ptr, i64, ptr)>  loc(#loc)
        %51 = llvm.insertvalue %21, %50[1] : !llvm.struct<(ptr, ptr, i64, ptr)>  loc(#loc)
        %52 = llvm.insertvalue %22, %51[2] : !llvm.struct<(ptr, ptr, i64, ptr)>  loc(#loc)
        %53 = llvm.insertvalue %24, %52[3] : !llvm.struct<(ptr, ptr, i64, ptr)>  loc(#loc)
        %54 = llvm.mlir.constant(0 : i64) : i64 loc(#loc)
        %55 = llvm.getelementptr %17[%54] : (!llvm.ptr, i64) -> !llvm.ptr, !llvm.struct<(ptr, ptr, i64, ptr)> loc(#loc)
        llvm.store %53, %55 : !llvm.struct<(ptr, ptr, i64, ptr)>, !llvm.ptr loc(#loc)
        llvm.return %17 : !llvm.ptr loc(#loc)
      } loc(#loc)
      llvm.func @cpu_hoisted_const_eval_01d4160e_helper(%arg0: !llvm.ptr loc(unknown)) -> !llvm.ptr {
        %0 = llvm.call @cpu_hoisted_const_eval_01d4160e() : () -> !llvm.struct<(ptr, ptr, i64, array<2 x i64>, array<2 x i64>)> loc(#loc)
        %1 = llvm.mlir.constant(32 : i64) : i64 loc(#loc)
        %2 = llvm.call @malloc(%1) : (i64) -> !llvm.ptr loc(#loc)
        %3 = llvm.mlir.constant(32 : i64) : i64 loc(#loc)
        %4 = llvm.call @malloc(%3) : (i64) -> !llvm.ptr loc(#loc)
        %5 = llvm.extractvalue %0[0] : !llvm.struct<(ptr, ptr, i64, array<2 x i64>, array<2 x i64>)>  loc(#loc)
        %6 = llvm.extractvalue %0[1] : !llvm.struct<(ptr, ptr, i64, array<2 x i64>, array<2 x i64>)>  loc(#loc)
        %7 = llvm.extractvalue %0[2] : !llvm.struct<(ptr, ptr, i64, array<2 x i64>, array<2 x i64>)>  loc(#loc)
        %8 = llvm.mlir.constant(0 : i64) : i64 loc(#loc)
        %9 = llvm.getelementptr %4[%8] : (!llvm.ptr, i64) -> !llvm.ptr, i8 loc(#loc)
        %10 = llvm.extractvalue %0[3, 0] : !llvm.struct<(ptr, ptr, i64, array<2 x i64>, array<2 x i64>)>  loc(#loc)
        %11 = llvm.mlir.constant(0 : i64) : i64 loc(#loc)
        %12 = llvm.getelementptr %9[%11] : (!llvm.ptr, i64) -> !llvm.ptr, i64 loc(#loc)
        llvm.store %10, %12 : i64, !llvm.ptr loc(#loc)
        %13 = llvm.extractvalue %0[3, 1] : !llvm.struct<(ptr, ptr, i64, array<2 x i64>, array<2 x i64>)>  loc(#loc)
        %14 = llvm.mlir.constant(1 : i64) : i64 loc(#loc)
        %15 = llvm.getelementptr %9[%14] : (!llvm.ptr, i64) -> !llvm.ptr, i64 loc(#loc)
        llvm.store %13, %15 : i64, !llvm.ptr loc(#loc)
        %16 = llvm.extractvalue %0[4, 0] : !llvm.struct<(ptr, ptr, i64, array<2 x i64>, array<2 x i64>)>  loc(#loc)
        %17 = llvm.mlir.constant(2 : i64) : i64 loc(#loc)
        %18 = llvm.getelementptr %9[%17] : (!llvm.ptr, i64) -> !llvm.ptr, i64 loc(#loc)
        llvm.store %16, %18 : i64, !llvm.ptr loc(#loc)
        %19 = llvm.extractvalue %0[4, 1] : !llvm.struct<(ptr, ptr, i64, array<2 x i64>, array<2 x i64>)>  loc(#loc)
        %20 = llvm.mlir.constant(3 : i64) : i64 loc(#loc)
        %21 = llvm.getelementptr %9[%20] : (!llvm.ptr, i64) -> !llvm.ptr, i64 loc(#loc)
        llvm.store %19, %21 : i64, !llvm.ptr loc(#loc)
        %22 = llvm.mlir.undef : !llvm.struct<(ptr, ptr, i64, ptr)> loc(#loc)
        %23 = llvm.insertvalue %5, %22[0] : !llvm.struct<(ptr, ptr, i64, ptr)>  loc(#loc)
        %24 = llvm.insertvalue %6, %23[1] : !llvm.struct<(ptr, ptr, i64, ptr)>  loc(#loc)
        %25 = llvm.insertvalue %7, %24[2] : !llvm.struct<(ptr, ptr, i64, ptr)>  loc(#loc)
        %26 = llvm.insertvalue %9, %25[3] : !llvm.struct<(ptr, ptr, i64, ptr)>  loc(#loc)
        %27 = llvm.mlir.constant(0 : i64) : i64 loc(#loc)
        %28 = llvm.getelementptr %2[%27] : (!llvm.ptr, i64) -> !llvm.ptr, !llvm.struct<(ptr, ptr, i64, ptr)> loc(#loc)
        llvm.store %26, %28 : !llvm.struct<(ptr, ptr, i64, ptr)>, !llvm.ptr loc(#loc)
        llvm.return %2 : !llvm.ptr loc(#loc)
      } loc(#loc)
      llvm.func @cpu_hoisted_const_eval_0df71a7d_helper(%arg0: !llvm.ptr loc(unknown)) -> !llvm.ptr {
        %0 = llvm.call @cpu_hoisted_const_eval_0df71a7d() : () -> !llvm.struct<(ptr, ptr, i64, array<2 x i64>, array<2 x i64>)> loc(#loc)
        %1 = llvm.mlir.constant(32 : i64) : i64 loc(#loc)
        %2 = llvm.call @malloc(%1) : (i64) -> !llvm.ptr loc(#loc)
        %3 = llvm.mlir.constant(32 : i64) : i64 loc(#loc)
        %4 = llvm.call @malloc(%3) : (i64) -> !llvm.ptr loc(#loc)
        %5 = llvm.extractvalue %0[0] : !llvm.struct<(ptr, ptr, i64, array<2 x i64>, array<2 x i64>)>  loc(#loc)
        %6 = llvm.extractvalue %0[1] : !llvm.struct<(ptr, ptr, i64, array<2 x i64>, array<2 x i64>)>  loc(#loc)
        %7 = llvm.extractvalue %0[2] : !llvm.struct<(ptr, ptr, i64, array<2 x i64>, array<2 x i64>)>  loc(#loc)
        %8 = llvm.mlir.constant(0 : i64) : i64 loc(#loc)
        %9 = llvm.getelementptr %4[%8] : (!llvm.ptr, i64) -> !llvm.ptr, i8 loc(#loc)
        %10 = llvm.extractvalue %0[3, 0] : !llvm.struct<(ptr, ptr, i64, array<2 x i64>, array<2 x i64>)>  loc(#loc)
        %11 = llvm.mlir.constant(0 : i64) : i64 loc(#loc)
        %12 = llvm.getelementptr %9[%11] : (!llvm.ptr, i64) -> !llvm.ptr, i64 loc(#loc)
        llvm.store %10, %12 : i64, !llvm.ptr loc(#loc)
        %13 = llvm.extractvalue %0[3, 1] : !llvm.struct<(ptr, ptr, i64, array<2 x i64>, array<2 x i64>)>  loc(#loc)
        %14 = llvm.mlir.constant(1 : i64) : i64 loc(#loc)
        %15 = llvm.getelementptr %9[%14] : (!llvm.ptr, i64) -> !llvm.ptr, i64 loc(#loc)
        llvm.store %13, %15 : i64, !llvm.ptr loc(#loc)
        %16 = llvm.extractvalue %0[4, 0] : !llvm.struct<(ptr, ptr, i64, array<2 x i64>, array<2 x i64>)>  loc(#loc)
        %17 = llvm.mlir.constant(2 : i64) : i64 loc(#loc)
        %18 = llvm.getelementptr %9[%17] : (!llvm.ptr, i64) -> !llvm.ptr, i64 loc(#loc)
        llvm.store %16, %18 : i64, !llvm.ptr loc(#loc)
        %19 = llvm.extractvalue %0[4, 1] : !llvm.struct<(ptr, ptr, i64, array<2 x i64>, array<2 x i64>)>  loc(#loc)
        %20 = llvm.mlir.constant(3 : i64) : i64 loc(#loc)
        %21 = llvm.getelementptr %9[%20] : (!llvm.ptr, i64) -> !llvm.ptr, i64 loc(#loc)
        llvm.store %19, %21 : i64, !llvm.ptr loc(#loc)
        %22 = llvm.mlir.undef : !llvm.struct<(ptr, ptr, i64, ptr)> loc(#loc)
        %23 = llvm.insertvalue %5, %22[0] : !llvm.struct<(ptr, ptr, i64, ptr)>  loc(#loc)
        %24 = llvm.insertvalue %6, %23[1] : !llvm.struct<(ptr, ptr, i64, ptr)>  loc(#loc)
        %25 = llvm.insertvalue %7, %24[2] : !llvm.struct<(ptr, ptr, i64, ptr)>  loc(#loc)
        %26 = llvm.insertvalue %9, %25[3] : !llvm.struct<(ptr, ptr, i64, ptr)>  loc(#loc)
        %27 = llvm.mlir.constant(0 : i64) : i64 loc(#loc)
        %28 = llvm.getelementptr %2[%27] : (!llvm.ptr, i64) -> !llvm.ptr, !llvm.struct<(ptr, ptr, i64, ptr)> loc(#loc)
        llvm.store %26, %28 : !llvm.struct<(ptr, ptr, i64, ptr)>, !llvm.ptr loc(#loc)
        llvm.return %2 : !llvm.ptr loc(#loc)
      } loc(#loc)
      llvm.func @cpu_hoisted_const_eval_3b6c0433_helper(%arg0: !llvm.ptr loc(unknown)) -> !llvm.ptr {
        %0 = llvm.mlir.constant(0 : i64) : i64 loc(#loc)
        %1 = llvm.mlir.constant(4 : i64) : i64 loc(#loc)
        %2 = llvm.mul %0, %1 : i64 loc(#loc)
        %3 = llvm.getelementptr inbounds %arg0[%2] : (!llvm.ptr, i64) -> !llvm.ptr, !llvm.ptr loc(#loc)
        %4 = llvm.load %3 : !llvm.ptr -> !llvm.struct<(ptr, ptr, i64, ptr)> loc(#loc)
        %5 = llvm.extractvalue %4[0] : !llvm.struct<(ptr, ptr, i64, ptr)>  loc(#loc)
        %6 = llvm.extractvalue %4[1] : !llvm.struct<(ptr, ptr, i64, ptr)>  loc(#loc)
        %7 = llvm.extractvalue %4[2] : !llvm.struct<(ptr, ptr, i64, ptr)>  loc(#loc)
        %8 = llvm.extractvalue %4[3] : !llvm.struct<(ptr, ptr, i64, ptr)>  loc(#loc)
        %9 = llvm.mlir.constant(0 : i64) : i64 loc(#loc)
        %10 = llvm.getelementptr %8[%9] : (!llvm.ptr, i64) -> !llvm.ptr, !llvm.ptr loc(#loc)
        %11 = llvm.load %10 : !llvm.ptr -> i64 loc(#loc)
        %12 = llvm.mlir.constant(1 : i64) : i64 loc(#loc)
        %13 = llvm.getelementptr %8[%12] : (!llvm.ptr, i64) -> !llvm.ptr, !llvm.ptr loc(#loc)
        %14 = llvm.load %13 : !llvm.ptr -> i64 loc(#loc)
        %15 = llvm.mlir.constant(1 : i64) : i64 loc(#loc)
        %16 = llvm.mlir.constant(4 : i64) : i64 loc(#loc)
        %17 = llvm.mul %15, %16 : i64 loc(#loc)
        %18 = llvm.getelementptr inbounds %arg0[%17] : (!llvm.ptr, i64) -> !llvm.ptr, !llvm.ptr loc(#loc)
        %19 = llvm.load %18 : !llvm.ptr -> !llvm.struct<(ptr, ptr, i64, ptr)> loc(#loc)
        %20 = llvm.extractvalue %19[0] : !llvm.struct<(ptr, ptr, i64, ptr)>  loc(#loc)
        %21 = llvm.extractvalue %19[1] : !llvm.struct<(ptr, ptr, i64, ptr)>  loc(#loc)
        %22 = llvm.extractvalue %19[2] : !llvm.struct<(ptr, ptr, i64, ptr)>  loc(#loc)
        %23 = llvm.extractvalue %19[3] : !llvm.struct<(ptr, ptr, i64, ptr)>  loc(#loc)
        %24 = llvm.mlir.constant(0 : i64) : i64 loc(#loc)
        %25 = llvm.getelementptr %23[%24] : (!llvm.ptr, i64) -> !llvm.ptr, !llvm.ptr loc(#loc)
        %26 = llvm.load %25 : !llvm.ptr -> i64 loc(#loc)
        %27 = llvm.mlir.constant(1 : i64) : i64 loc(#loc)
        %28 = llvm.getelementptr %23[%27] : (!llvm.ptr, i64) -> !llvm.ptr, !llvm.ptr loc(#loc)
        %29 = llvm.load %28 : !llvm.ptr -> i64 loc(#loc)
        %30 = llvm.mlir.constant(2 : i64) : i64 loc(#loc)
        %31 = llvm.mlir.constant(4 : i64) : i64 loc(#loc)
        %32 = llvm.mul %30, %31 : i64 loc(#loc)
        %33 = llvm.getelementptr inbounds %arg0[%32] : (!llvm.ptr, i64) -> !llvm.ptr, !llvm.ptr loc(#loc)
        %34 = llvm.load %33 : !llvm.ptr -> !llvm.struct<(ptr, ptr, i64, ptr)> loc(#loc)
        %35 = llvm.extractvalue %34[0] : !llvm.struct<(ptr, ptr, i64, ptr)>  loc(#loc)
        %36 = llvm.extractvalue %34[1] : !llvm.struct<(ptr, ptr, i64, ptr)>  loc(#loc)
        %37 = llvm.extractvalue %34[2] : !llvm.struct<(ptr, ptr, i64, ptr)>  loc(#loc)
        %38 = llvm.extractvalue %34[3] : !llvm.struct<(ptr, ptr, i64, ptr)>  loc(#loc)
        %39 = llvm.mlir.constant(0 : i64) : i64 loc(#loc)
        %40 = llvm.getelementptr %38[%39] : (!llvm.ptr, i64) -> !llvm.ptr, !llvm.ptr loc(#loc)
        %41 = llvm.load %40 : !llvm.ptr -> i64 loc(#loc)
        %42 = llvm.mlir.constant(1 : i64) : i64 loc(#loc)
        %43 = llvm.getelementptr %38[%42] : (!llvm.ptr, i64) -> !llvm.ptr, !llvm.ptr loc(#loc)
        %44 = llvm.load %43 : !llvm.ptr -> i64 loc(#loc)
        %45 = llvm.call @cpu_hoisted_const_eval_3b6c0433(%5, %6, %7, %11, %14, %20, %21, %22, %26, %29, %35, %36, %37, %41, %44) : (!llvm.ptr, !llvm.ptr, i64, i64, i64, !llvm.ptr, !llvm.ptr, i64, i64, i64, !llvm.ptr, !llvm.ptr, i64, i64, i64) -> !llvm.struct<(ptr, ptr, i64, array<1 x i64>, array<1 x i64>)> loc(#loc)
        %46 = llvm.mlir.constant(32 : i64) : i64 loc(#loc)
        %47 = llvm.call @malloc(%46) : (i64) -> !llvm.ptr loc(#loc)
        %48 = llvm.mlir.constant(16 : i64) : i64 loc(#loc)
        %49 = llvm.call @malloc(%48) : (i64) -> !llvm.ptr loc(#loc)
        %50 = llvm.extractvalue %45[0] : !llvm.struct<(ptr, ptr, i64, array<1 x i64>, array<1 x i64>)>  loc(#loc)
        %51 = llvm.extractvalue %45[1] : !llvm.struct<(ptr, ptr, i64, array<1 x i64>, array<1 x i64>)>  loc(#loc)
        %52 = llvm.extractvalue %45[2] : !llvm.struct<(ptr, ptr, i64, array<1 x i64>, array<1 x i64>)>  loc(#loc)
        %53 = llvm.mlir.constant(0 : i64) : i64 loc(#loc)
        %54 = llvm.getelementptr %49[%53] : (!llvm.ptr, i64) -> !llvm.ptr, i8 loc(#loc)
        %55 = llvm.extractvalue %45[3, 0] : !llvm.struct<(ptr, ptr, i64, array<1 x i64>, array<1 x i64>)>  loc(#loc)
        %56 = llvm.mlir.constant(0 : i64) : i64 loc(#loc)
        %57 = llvm.getelementptr %54[%56] : (!llvm.ptr, i64) -> !llvm.ptr, i64 loc(#loc)
        llvm.store %55, %57 : i64, !llvm.ptr loc(#loc)
        %58 = llvm.extractvalue %45[4, 0] : !llvm.struct<(ptr, ptr, i64, array<1 x i64>, array<1 x i64>)>  loc(#loc)
        %59 = llvm.mlir.constant(1 : i64) : i64 loc(#loc)
        %60 = llvm.getelementptr %54[%59] : (!llvm.ptr, i64) -> !llvm.ptr, i64 loc(#loc)
        llvm.store %58, %60 : i64, !llvm.ptr loc(#loc)
        %61 = llvm.mlir.undef : !llvm.struct<(ptr, ptr, i64, ptr)> loc(#loc)
        %62 = llvm.insertvalue %50, %61[0] : !llvm.struct<(ptr, ptr, i64, ptr)>  loc(#loc)
        %63 = llvm.insertvalue %51, %62[1] : !llvm.struct<(ptr, ptr, i64, ptr)>  loc(#loc)
        %64 = llvm.insertvalue %52, %63[2] : !llvm.struct<(ptr, ptr, i64, ptr)>  loc(#loc)
        %65 = llvm.insertvalue %54, %64[3] : !llvm.struct<(ptr, ptr, i64, ptr)>  loc(#loc)
        %66 = llvm.mlir.constant(0 : i64) : i64 loc(#loc)
        %67 = llvm.getelementptr %47[%66] : (!llvm.ptr, i64) -> !llvm.ptr, !llvm.struct<(ptr, ptr, i64, ptr)> loc(#loc)
        llvm.store %65, %67 : !llvm.struct<(ptr, ptr, i64, ptr)>, !llvm.ptr loc(#loc)
        llvm.return %47 : !llvm.ptr loc(#loc)
      } loc(#loc)
      llvm.func @cpu_hoisted_const_eval_dd2e9c9f_helper(%arg0: !llvm.ptr loc(unknown)) -> !llvm.ptr {
        %0 = llvm.call @cpu_hoisted_const_eval_dd2e9c9f() : () -> !llvm.struct<(ptr, ptr, i64, array<2 x i64>, array<2 x i64>)> loc(#loc)
        %1 = llvm.mlir.constant(32 : i64) : i64 loc(#loc)
        %2 = llvm.call @malloc(%1) : (i64) -> !llvm.ptr loc(#loc)
        %3 = llvm.mlir.constant(32 : i64) : i64 loc(#loc)
        %4 = llvm.call @malloc(%3) : (i64) -> !llvm.ptr loc(#loc)
        %5 = llvm.extractvalue %0[0] : !llvm.struct<(ptr, ptr, i64, array<2 x i64>, array<2 x i64>)>  loc(#loc)
        %6 = llvm.extractvalue %0[1] : !llvm.struct<(ptr, ptr, i64, array<2 x i64>, array<2 x i64>)>  loc(#loc)
        %7 = llvm.extractvalue %0[2] : !llvm.struct<(ptr, ptr, i64, array<2 x i64>, array<2 x i64>)>  loc(#loc)
        %8 = llvm.mlir.constant(0 : i64) : i64 loc(#loc)
        %9 = llvm.getelementptr %4[%8] : (!llvm.ptr, i64) -> !llvm.ptr, i8 loc(#loc)
        %10 = llvm.extractvalue %0[3, 0] : !llvm.struct<(ptr, ptr, i64, array<2 x i64>, array<2 x i64>)>  loc(#loc)
        %11 = llvm.mlir.constant(0 : i64) : i64 loc(#loc)
        %12 = llvm.getelementptr %9[%11] : (!llvm.ptr, i64) -> !llvm.ptr, i64 loc(#loc)
        llvm.store %10, %12 : i64, !llvm.ptr loc(#loc)
        %13 = llvm.extractvalue %0[3, 1] : !llvm.struct<(ptr, ptr, i64, array<2 x i64>, array<2 x i64>)>  loc(#loc)
        %14 = llvm.mlir.constant(1 : i64) : i64 loc(#loc)
        %15 = llvm.getelementptr %9[%14] : (!llvm.ptr, i64) -> !llvm.ptr, i64 loc(#loc)
        llvm.store %13, %15 : i64, !llvm.ptr loc(#loc)
        %16 = llvm.extractvalue %0[4, 0] : !llvm.struct<(ptr, ptr, i64, array<2 x i64>, array<2 x i64>)>  loc(#loc)
        %17 = llvm.mlir.constant(2 : i64) : i64 loc(#loc)
        %18 = llvm.getelementptr %9[%17] : (!llvm.ptr, i64) -> !llvm.ptr, i64 loc(#loc)
        llvm.store %16, %18 : i64, !llvm.ptr loc(#loc)
        %19 = llvm.extractvalue %0[4, 1] : !llvm.struct<(ptr, ptr, i64, array<2 x i64>, array<2 x i64>)>  loc(#loc)
        %20 = llvm.mlir.constant(3 : i64) : i64 loc(#loc)
        %21 = llvm.getelementptr %9[%20] : (!llvm.ptr, i64) -> !llvm.ptr, i64 loc(#loc)
        llvm.store %19, %21 : i64, !llvm.ptr loc(#loc)
        %22 = llvm.mlir.undef : !llvm.struct<(ptr, ptr, i64, ptr)> loc(#loc)
        %23 = llvm.insertvalue %5, %22[0] : !llvm.struct<(ptr, ptr, i64, ptr)>  loc(#loc)
        %24 = llvm.insertvalue %6, %23[1] : !llvm.struct<(ptr, ptr, i64, ptr)>  loc(#loc)
        %25 = llvm.insertvalue %7, %24[2] : !llvm.struct<(ptr, ptr, i64, ptr)>  loc(#loc)
        %26 = llvm.insertvalue %9, %25[3] : !llvm.struct<(ptr, ptr, i64, ptr)>  loc(#loc)
        %27 = llvm.mlir.constant(0 : i64) : i64 loc(#loc)
        %28 = llvm.getelementptr %2[%27] : (!llvm.ptr, i64) -> !llvm.ptr, !llvm.struct<(ptr, ptr, i64, ptr)> loc(#loc)
        llvm.store %26, %28 : !llvm.struct<(ptr, ptr, i64, ptr)>, !llvm.ptr loc(#loc)
        llvm.return %2 : !llvm.ptr loc(#loc)
      } loc(#loc)
      llvm.func @cpu_hoisted_const_eval_4d6151ea_helper(%arg0: !llvm.ptr loc(unknown)) -> !llvm.ptr {
        %0 = llvm.call @cpu_hoisted_const_eval_4d6151ea() : () -> !llvm.struct<(ptr, ptr, i64, array<2 x i64>, array<2 x i64>)> loc(#loc)
        %1 = llvm.mlir.constant(32 : i64) : i64 loc(#loc)
        %2 = llvm.call @malloc(%1) : (i64) -> !llvm.ptr loc(#loc)
        %3 = llvm.mlir.constant(32 : i64) : i64 loc(#loc)
        %4 = llvm.call @malloc(%3) : (i64) -> !llvm.ptr loc(#loc)
        %5 = llvm.extractvalue %0[0] : !llvm.struct<(ptr, ptr, i64, array<2 x i64>, array<2 x i64>)>  loc(#loc)
        %6 = llvm.extractvalue %0[1] : !llvm.struct<(ptr, ptr, i64, array<2 x i64>, array<2 x i64>)>  loc(#loc)
        %7 = llvm.extractvalue %0[2] : !llvm.struct<(ptr, ptr, i64, array<2 x i64>, array<2 x i64>)>  loc(#loc)
        %8 = llvm.mlir.constant(0 : i64) : i64 loc(#loc)
        %9 = llvm.getelementptr %4[%8] : (!llvm.ptr, i64) -> !llvm.ptr, i8 loc(#loc)
        %10 = llvm.extractvalue %0[3, 0] : !llvm.struct<(ptr, ptr, i64, array<2 x i64>, array<2 x i64>)>  loc(#loc)
        %11 = llvm.mlir.constant(0 : i64) : i64 loc(#loc)
        %12 = llvm.getelementptr %9[%11] : (!llvm.ptr, i64) -> !llvm.ptr, i64 loc(#loc)
        llvm.store %10, %12 : i64, !llvm.ptr loc(#loc)
        %13 = llvm.extractvalue %0[3, 1] : !llvm.struct<(ptr, ptr, i64, array<2 x i64>, array<2 x i64>)>  loc(#loc)
        %14 = llvm.mlir.constant(1 : i64) : i64 loc(#loc)
        %15 = llvm.getelementptr %9[%14] : (!llvm.ptr, i64) -> !llvm.ptr, i64 loc(#loc)
        llvm.store %13, %15 : i64, !llvm.ptr loc(#loc)
        %16 = llvm.extractvalue %0[4, 0] : !llvm.struct<(ptr, ptr, i64, array<2 x i64>, array<2 x i64>)>  loc(#loc)
        %17 = llvm.mlir.constant(2 : i64) : i64 loc(#loc)
        %18 = llvm.getelementptr %9[%17] : (!llvm.ptr, i64) -> !llvm.ptr, i64 loc(#loc)
        llvm.store %16, %18 : i64, !llvm.ptr loc(#loc)
        %19 = llvm.extractvalue %0[4, 1] : !llvm.struct<(ptr, ptr, i64, array<2 x i64>, array<2 x i64>)>  loc(#loc)
        %20 = llvm.mlir.constant(3 : i64) : i64 loc(#loc)
        %21 = llvm.getelementptr %9[%20] : (!llvm.ptr, i64) -> !llvm.ptr, i64 loc(#loc)
        llvm.store %19, %21 : i64, !llvm.ptr loc(#loc)
        %22 = llvm.mlir.undef : !llvm.struct<(ptr, ptr, i64, ptr)> loc(#loc)
        %23 = llvm.insertvalue %5, %22[0] : !llvm.struct<(ptr, ptr, i64, ptr)>  loc(#loc)
        %24 = llvm.insertvalue %6, %23[1] : !llvm.struct<(ptr, ptr, i64, ptr)>  loc(#loc)
        %25 = llvm.insertvalue %7, %24[2] : !llvm.struct<(ptr, ptr, i64, ptr)>  loc(#loc)
        %26 = llvm.insertvalue %9, %25[3] : !llvm.struct<(ptr, ptr, i64, ptr)>  loc(#loc)
        %27 = llvm.mlir.constant(0 : i64) : i64 loc(#loc)
        %28 = llvm.getelementptr %2[%27] : (!llvm.ptr, i64) -> !llvm.ptr, !llvm.struct<(ptr, ptr, i64, ptr)> loc(#loc)
        llvm.store %26, %28 : !llvm.struct<(ptr, ptr, i64, ptr)>, !llvm.ptr loc(#loc)
        llvm.return %2 : !llvm.ptr loc(#loc)
      } loc(#loc)
    } loc(#loc)
  } loc(#loc)
} loc(#loc)
#loc1 = loc("convolution.713")
#loc2 = loc("convolution.1614")
#loc3 = loc("convolution.803")
#loc4 = loc("convolution.2364")
#loc5 = loc("convolution.1904")
#loc6 = loc("convolution.1994")
#loc7 = loc("convolution.713_in_0_layout")
#loc8 = loc("custom-call.3221")
#loc9 = loc("convolution.1244")
#loc10 = loc("convolution.2269")
#loc11 = loc("convolution.3044")
#loc12 = loc("convolution.2454")
#loc13 = loc("convolution.2939")
#loc14 = loc("convolution.1519")
#loc15 = loc("convolution.1889")
#loc16 = loc("convolution.1704")
#loc17 = loc("convolution.2754")
#loc21 = loc("convolution.2559")
#loc22 = loc("convolution.2084")
#loc23 = loc("convolution.1334")
#loc24 = loc("convolution.2179")
#loc25 = loc("convolution.2659")
#loc26 = loc("convolution.2649")
#loc27 = loc("convolution.893")
#loc28 = loc("convolution.2469")
#loc29 = loc("convolution.1799")
#loc30 = loc("convolution.2844")
#loc146 = loc("convert.717")
#loc147 = loc("reduce.764")
#loc148 = loc("subtract.784")
#loc149 = loc("multiply.740")
#loc150 = loc("reduce.747")
#loc151 = loc("add.777")
#loc152 = loc("rsqrt.778")
#loc153 = loc("multiply.787")
#loc154 = loc("multiply.791")
#loc155 = loc("add.797")
#loc156 = loc("multiply.801")
#loc157 = loc("convert.802")
#loc158 = loc("convert.807")
#loc159 = loc("reduce.854")
#loc160 = loc("subtract.874")
#loc161 = loc("multiply.830")
#loc162 = loc("reduce.837")
#loc163 = loc("add.867")
#loc164 = loc("rsqrt.868")
#loc165 = loc("multiply.877")
#loc166 = loc("multiply.881")
#loc167 = loc("add.887")
#loc168 = loc("multiply.891")
#loc169 = loc("convert.892")
#loc170 = loc("add.899")
#loc171 = loc("divide.901")
#loc172 = loc("convert.941")
#loc173 = loc("reduce.988")
#loc174 = loc("subtract.1008")
#loc175 = loc("multiply.964")
#loc176 = loc("reduce.971")
#loc177 = loc("add.1001")
#loc178 = loc("rsqrt.1002")
#loc180 = loc("multiply.1015")
#loc181 = loc("add.1021")
#loc182 = loc("convert.1022")
#loc184 = loc("transpose.1079")
#loc185 = loc("add.1052")
#loc186 = loc("transpose.1054")
#loc187 = loc("add.1030")
#loc188 = loc("transpose.1032")
#loc189 = loc("custom-call.1141")
#loc190 = loc("reshape.1144")
#loc191 = loc("add.1150")
#loc192 = loc("transpose.1151")
#loc193 = loc("reshape.1152")
#loc194 = loc("add.1155")
#loc195 = loc("divide.1157")
#loc196 = loc("convert.1158")
#loc197 = loc("reduce.1205")
#loc198 = loc("subtract.1225")
#loc199 = loc("multiply.1181")
#loc200 = loc("reduce.1188")
#loc201 = loc("add.1218")
#loc202 = loc("rsqrt.1219")
#loc203 = loc("multiply.1228")
#loc204 = loc("multiply.1232")
#loc205 = loc("add.1238")
#loc206 = loc("multiply.1242")
#loc207 = loc("convert.1243")
#loc208 = loc("convert.1248")
#loc209 = loc("reduce.1295")
#loc210 = loc("subtract.1315")
#loc211 = loc("multiply.1271")
#loc212 = loc("reduce.1278")
#loc213 = loc("add.1308")
#loc214 = loc("rsqrt.1309")
#loc215 = loc("multiply.1318")
#loc216 = loc("multiply.1322")
#loc217 = loc("add.1328")
#loc218 = loc("multiply.1332")
#loc219 = loc("convert.1333")
#loc220 = loc("add.1340")
#loc221 = loc("divide.1342")
#loc222 = loc("convert.1343")
#loc223 = loc("reduce.1390")
#loc224 = loc("subtract.1410")
#loc225 = loc("multiply.1366")
#loc226 = loc("reduce.1373")
#loc227 = loc("add.1403")
#loc228 = loc("rsqrt.1404")
#loc229 = loc("multiply.1413")
#loc230 = loc("multiply.1417")
#loc231 = loc("add.1423")
#loc232 = loc("multiply.1427")
#loc233 = loc("convert.1428")
#loc234 = loc("convert.1433")
#loc235 = loc("reduce.1480")
#loc236 = loc("subtract.1500")
#loc237 = loc("multiply.1456")
#loc238 = loc("reduce.1463")
#loc239 = loc("add.1493")
#loc240 = loc("rsqrt.1494")
#loc241 = loc("multiply.1503")
#loc242 = loc("multiply.1507")
#loc243 = loc("add.1513")
#loc244 = loc("multiply.1517")
#loc245 = loc("convert.1518")
#loc246 = loc("add.1525")
#loc247 = loc("divide.1527")
#loc248 = loc("convert.1528")
#loc249 = loc("reduce.1575")
#loc250 = loc("subtract.1595")
#loc251 = loc("multiply.1551")
#loc252 = loc("reduce.1558")
#loc253 = loc("add.1588")
#loc254 = loc("rsqrt.1589")
#loc255 = loc("multiply.1598")
#loc256 = loc("multiply.1602")
#loc257 = loc("add.1608")
#loc258 = loc("multiply.1612")
#loc259 = loc("convert.1613")
#loc260 = loc("convert.1618")
#loc261 = loc("reduce.1665")
#loc262 = loc("subtract.1685")
#loc263 = loc("multiply.1641")
#loc264 = loc("reduce.1648")
#loc265 = loc("add.1678")
#loc266 = loc("rsqrt.1679")
#loc267 = loc("multiply.1688")
#loc268 = loc("multiply.1692")
#loc269 = loc("add.1698")
#loc270 = loc("multiply.1702")
#loc271 = loc("convert.1703")
#loc272 = loc("add.1710")
#loc273 = loc("divide.1712")
#loc274 = loc("convert.1713")
#loc275 = loc("reduce.1760")
#loc276 = loc("subtract.1780")
#loc277 = loc("multiply.1736")
#loc278 = loc("reduce.1743")
#loc279 = loc("add.1773")
#loc280 = loc("rsqrt.1774")
#loc281 = loc("multiply.1783")
#loc282 = loc("multiply.1787")
#loc283 = loc("add.1793")
#loc284 = loc("multiply.1797")
#loc285 = loc("convert.1798")
#loc286 = loc("convert.1803")
#loc287 = loc("reduce.1850")
#loc288 = loc("subtract.1870")
#loc289 = loc("multiply.1826")
#loc290 = loc("reduce.1833")
#loc291 = loc("add.1863")
#loc292 = loc("rsqrt.1864")
#loc293 = loc("multiply.1873")
#loc294 = loc("multiply.1877")
#loc295 = loc("add.1883")
#loc296 = loc("multiply.1887")
#loc297 = loc("convert.1888")
#loc298 = loc("transpose.1898")
#loc299 = loc("add.1895")
#loc300 = loc("divide.1897")
#loc301 = loc("dot.1899")
#loc302 = loc("transpose.1901")
#loc303 = loc("dot.1902")
#loc304 = loc("convert.1908")
#loc305 = loc("reduce.1955")
#loc306 = loc("subtract.1975")
#loc307 = loc("multiply.1931")
#loc308 = loc("reduce.1938")
#loc309 = loc("add.1968")
#loc310 = loc("rsqrt.1969")
#loc311 = loc("multiply.1978")
#loc312 = loc("multiply.1982")
#loc313 = loc("add.1988")
#loc314 = loc("multiply.1992")
#loc315 = loc("convert.1993")
#loc316 = loc("convert.1998")
#loc317 = loc("reduce.2045")
#loc318 = loc("subtract.2065")
#loc319 = loc("multiply.2021")
#loc320 = loc("reduce.2028")
#loc321 = loc("add.2058")
#loc322 = loc("rsqrt.2059")
#loc323 = loc("multiply.2068")
#loc324 = loc("multiply.2072")
#loc325 = loc("add.2078")
#loc326 = loc("multiply.2082")
#loc327 = loc("convert.2083")
#loc328 = loc("add.2090")
#loc329 = loc("divide.2092")
#loc330 = loc("convert.2093")
#loc331 = loc("reduce.2140")
#loc332 = loc("subtract.2160")
#loc333 = loc("multiply.2116")
#loc334 = loc("reduce.2123")
#loc335 = loc("add.2153")
#loc336 = loc("rsqrt.2154")
#loc337 = loc("multiply.2163")
#loc338 = loc("multiply.2167")
#loc339 = loc("add.2173")
#loc340 = loc("multiply.2177")
#loc341 = loc("convert.2178")
#loc342 = loc("convert.2183")
#loc343 = loc("reduce.2230")
#loc344 = loc("subtract.2250")
#loc345 = loc("multiply.2206")
#loc346 = loc("reduce.2213")
#loc347 = loc("add.2243")
#loc348 = loc("rsqrt.2244")
#loc349 = loc("multiply.2253")
#loc350 = loc("multiply.2257")
#loc351 = loc("add.2263")
#loc352 = loc("multiply.2267")
#loc353 = loc("convert.2268")
#loc354 = loc("add.2275")
#loc355 = loc("divide.2277")
#loc356 = loc("convert.2278")
#loc357 = loc("reduce.2325")
#loc358 = loc("subtract.2345")
#loc359 = loc("multiply.2301")
#loc360 = loc("reduce.2308")
#loc361 = loc("add.2338")
#loc362 = loc("rsqrt.2339")
#loc363 = loc("multiply.2348")
#loc364 = loc("multiply.2352")
#loc365 = loc("add.2358")
#loc366 = loc("multiply.2362")
#loc367 = loc("convert.2363")
#loc368 = loc("convert.2368")
#loc369 = loc("reduce.2415")
#loc370 = loc("subtract.2435")
#loc371 = loc("multiply.2391")
#loc372 = loc("reduce.2398")
#loc373 = loc("add.2428")
#loc374 = loc("rsqrt.2429")
#loc375 = loc("multiply.2438")
#loc376 = loc("multiply.2442")
#loc377 = loc("add.2448")
#loc378 = loc("multiply.2452")
#loc379 = loc("convert.2453")
#loc380 = loc("add.2460")
#loc381 = loc("divide.2462")
#loc382 = loc("dot.2464")
#loc383 = loc("transpose.2466")
#loc384 = loc("dot.2467")
#loc385 = loc("convert.2473")
#loc386 = loc("reduce.2520")
#loc387 = loc("subtract.2540")
#loc388 = loc("multiply.2496")
#loc389 = loc("reduce.2503")
#loc390 = loc("add.2533")
#loc391 = loc("rsqrt.2534")
#loc392 = loc("multiply.2543")
#loc393 = loc("multiply.2547")
#loc394 = loc("add.2553")
#loc395 = loc("multiply.2557")
#loc396 = loc("convert.2558")
#loc397 = loc("convert.2563")
#loc398 = loc("reduce.2610")
#loc399 = loc("subtract.2630")
#loc400 = loc("multiply.2586")
#loc401 = loc("reduce.2593")
#loc402 = loc("add.2623")
#loc403 = loc("rsqrt.2624")
#loc404 = loc("multiply.2633")
#loc405 = loc("multiply.2637")
#loc406 = loc("add.2643")
#loc407 = loc("multiply.2647")
#loc408 = loc("convert.2648")
#loc409 = loc("add.2665")
#loc410 = loc("divide.2667")
#loc411 = loc("convert.2668")
#loc412 = loc("reduce.2715")
#loc413 = loc("subtract.2735")
#loc414 = loc("multiply.2691")
#loc415 = loc("reduce.2698")
#loc416 = loc("add.2728")
#loc417 = loc("rsqrt.2729")
#loc418 = loc("multiply.2738")
#loc419 = loc("multiply.2742")
#loc420 = loc("add.2748")
#loc421 = loc("multiply.2752")
#loc422 = loc("convert.2753")
#loc423 = loc("convert.2758")
#loc424 = loc("reduce.2805")
#loc425 = loc("subtract.2825")
#loc426 = loc("multiply.2781")
#loc427 = loc("reduce.2788")
#loc428 = loc("add.2818")
#loc429 = loc("rsqrt.2819")
#loc430 = loc("multiply.2828")
#loc431 = loc("multiply.2832")
#loc432 = loc("add.2838")
#loc433 = loc("multiply.2842")
#loc434 = loc("convert.2843")
#loc435 = loc("add.2850")
#loc436 = loc("divide.2852")
#loc437 = loc("convert.2853")
#loc438 = loc("reduce.2900")
#loc439 = loc("subtract.2920")
#loc440 = loc("multiply.2876")
#loc441 = loc("reduce.2883")
#loc442 = loc("add.2913")
#loc443 = loc("rsqrt.2914")
#loc444 = loc("multiply.2923")
#loc445 = loc("multiply.2927")
#loc446 = loc("add.2933")
#loc447 = loc("multiply.2937")
#loc448 = loc("convert.2938")
#loc449 = loc("convert.2943")
#loc450 = loc("reduce.2990")
#loc451 = loc("subtract.3010")
#loc452 = loc("multiply.2966")
#loc453 = loc("reduce.2973")
#loc454 = loc("add.3003")
#loc455 = loc("rsqrt.3004")
#loc456 = loc("multiply.3013")
#loc457 = loc("multiply.3017")
#loc458 = loc("add.3023")
#loc459 = loc("multiply.3027")
#loc460 = loc("convert.3028")
#loc461 = loc("add.3035")
#loc462 = loc("divide.3037")
#loc463 = loc("dot.3039")
#loc464 = loc("transpose.3041")
#loc465 = loc("dot.3042")
#loc466 = loc("convert.3048")
#loc467 = loc("reduce.3095")
#loc468 = loc("subtract.3115")
#loc469 = loc("multiply.3071")
#loc470 = loc("reduce.3078")
#loc471 = loc("add.3108")
#loc472 = loc("rsqrt.3109")
#loc473 = loc("multiply.3118")
#loc474 = loc("multiply.3122")
#loc475 = loc("add.3128")
#loc476 = loc("multiply.3132")
#loc477 = loc("convert.3133")
#loc478 = loc("transpose.250")
#loc479 = loc("transpose.265")
#loc480 = loc("transpose.64")
#loc481 = loc("transpose.436")
#loc482 = loc("transpose.451")
#loc483 = loc("transpose.79")
#loc493 = loc("convolution.713_bias"(#loc1))
#loc494 = loc("convolution.1614_bias"(#loc2))
#loc495 = loc("convolution.803_bias"(#loc3))
#loc496 = loc("convolution.2364_bias"(#loc4))
#loc497 = loc("convolution.1904_bias"(#loc5))
#loc498 = loc("convolution.1994_bias"(#loc6))
#loc499 = loc("custom-call.3221_bias_reshape"(#loc8))
#loc500 = loc("convolution.1244_bias"(#loc9))
#loc501 = loc("convolution.2269_bias"(#loc10))
#loc502 = loc("convolution.3044_bias"(#loc11))
#loc503 = loc("convolution.2454_bias"(#loc12))
#loc504 = loc("convolution.2939_bias"(#loc13))
#loc505 = loc("convolution.1519_bias"(#loc14))
#loc506 = loc("convolution.1889_bias"(#loc15))
#loc507 = loc("convolution.1704_bias"(#loc16))
#loc508 = loc("convolution.2754_bias"(#loc17))
#loc509 = loc("convolution.3029_bias"(#loc18))
#loc510 = loc("convolution.3134_bias"(#loc19))
#loc511 = loc("convolution.1429_bias"(#loc20))
#loc512 = loc("convolution.2559_bias"(#loc21))
#loc513 = loc("convolution.2084_bias"(#loc22))
#loc514 = loc("convolution.1334_bias"(#loc23))
#loc515 = loc("convolution.2179_bias"(#loc24))
#loc516 = loc("convolution.2659_bias"(#loc25))
#loc517 = loc("custom-call.3221_eps"(#loc8))
#loc518 = loc("convolution.2649_bias"(#loc26))
#loc519 = loc("custom-call.3221_weight_reshape"(#loc8))
#loc520 = loc("convolution.893_bias"(#loc27))
#loc521 = loc("convolution.2469_bias"(#loc28))
#loc522 = loc("convolution.1799_bias"(#loc29))
#loc523 = loc("convolution.2844_bias"(#loc30))
#loc524 = loc("convolution.713_reshape"(#loc1))
#loc525 = loc("convolution.713_workaround"(#loc1))
#loc526 = loc("reduce.764_mean"(#loc147))
#loc527 = loc("reduce.747_mean"(#loc150))
#loc528 = loc("convolution.803_workaround"(#loc3))
#loc529 = loc("reduce.854_mean"(#loc159))
#loc530 = loc("reduce.837_mean"(#loc162))
#loc531 = loc("convolution.893_workaround"(#loc27))
#loc532 = loc("reduce.988_mean"(#loc173))
#loc533 = loc("reduce.971_mean"(#loc176))
#loc534 = loc("reduce.1205_mean"(#loc197))
#loc535 = loc("reduce.1188_mean"(#loc200))
#loc536 = loc("convolution.1244_workaround"(#loc9))
#loc537 = loc("reduce.1295_mean"(#loc209))
#loc538 = loc("reduce.1278_mean"(#loc212))
#loc539 = loc("convolution.1334_workaround"(#loc23))
#loc540 = loc("convolution.1334_reshape"(#loc23))
#loc541 = loc("reduce.1390_mean"(#loc223))
#loc542 = loc("reduce.1373_mean"(#loc226))
#loc543 = loc("convolution.1429_workaround"(#loc20))
#loc544 = loc("reduce.1480_mean"(#loc235))
#loc545 = loc("reduce.1463_mean"(#loc238))
#loc546 = loc("convolution.1519_workaround"(#loc14))
#loc547 = loc("convolution.1519_reshape"(#loc14))
#loc548 = loc("reduce.1575_mean"(#loc249))
#loc549 = loc("reduce.1558_mean"(#loc252))
#loc550 = loc("convolution.1614_workaround"(#loc2))
#loc551 = loc("reduce.1665_mean"(#loc261))
#loc552 = loc("reduce.1648_mean"(#loc264))
#loc553 = loc("convolution.1704_workaround"(#loc16))
#loc554 = loc("convolution.1704_reshape"(#loc16))
#loc555 = loc("reduce.1760_mean"(#loc275))
#loc556 = loc("reduce.1743_mean"(#loc278))
#loc557 = loc("convolution.1799_workaround"(#loc29))
#loc558 = loc("reduce.1850_mean"(#loc287))
#loc559 = loc("reduce.1833_mean"(#loc290))
#loc560 = loc("convolution.1889_workaround"(#loc15))
#loc561 = loc("convolution.1889_reshape"(#loc15))
#loc562 = loc("transpose.1898_tm0"(#loc298))
#loc563 = loc("dot.1899_reshapeOutput"(#loc301))
#loc564 = loc("dot.1902_reshapeLhs"(#loc303))
#loc565 = loc("dot.1902_reshapeOutput"(#loc303))
#loc566 = loc("convolution.1904_reshape"(#loc5))
#loc567 = loc("convolution.1904_workaround"(#loc5))
#loc568 = loc("reduce.1955_mean"(#loc305))
#loc569 = loc("reduce.1938_mean"(#loc308))
#loc570 = loc("convolution.1994_workaround"(#loc6))
#loc571 = loc("reduce.2045_mean"(#loc317))
#loc572 = loc("reduce.2028_mean"(#loc320))
#loc573 = loc("convolution.2084_workaround"(#loc22))
#loc574 = loc("reduce.2140_mean"(#loc331))
#loc575 = loc("reduce.2123_mean"(#loc334))
#loc576 = loc("convolution.2179_workaround"(#loc24))
#loc577 = loc("reduce.2230_mean"(#loc343))
#loc578 = loc("reduce.2213_mean"(#loc346))
#loc579 = loc("convolution.2269_workaround"(#loc10))
#loc580 = loc("reduce.2325_mean"(#loc357))
#loc581 = loc("reduce.2308_mean"(#loc360))
#loc582 = loc("convolution.2364_workaround"(#loc4))
#loc583 = loc("reduce.2415_mean"(#loc369))
#loc584 = loc("reduce.2398_mean"(#loc372))
#loc585 = loc("convolution.2454_workaround"(#loc12))
#loc586 = loc("dot.2464_reshapeOutput"(#loc382))
#loc587 = loc("dot.2467_reshapeLhs"(#loc384))
#loc588 = loc("dot.2467_reshapeOutput"(#loc384))
#loc589 = loc("convolution.2469_reshape"(#loc28))
#loc590 = loc("convolution.2469_workaround"(#loc28))
#loc591 = loc("convolution.2659_workaround"(#loc25))
#loc592 = loc("reduce.2520_mean"(#loc386))
#loc593 = loc("reduce.2503_mean"(#loc389))
#loc594 = loc("convolution.2559_workaround"(#loc21))
#loc595 = loc("reduce.2610_mean"(#loc398))
#loc596 = loc("reduce.2593_mean"(#loc401))
#loc597 = loc("convolution.2649_workaround"(#loc26))
#loc598 = loc("reduce.2715_mean"(#loc412))
#loc599 = loc("reduce.2698_mean"(#loc415))
#loc600 = loc("convolution.2754_workaround"(#loc17))
#loc601 = loc("reduce.2805_mean"(#loc424))
#loc602 = loc("reduce.2788_mean"(#loc427))
#loc603 = loc("convolution.2844_workaround"(#loc30))
#loc604 = loc("reduce.2900_mean"(#loc438))
#loc605 = loc("reduce.2883_mean"(#loc441))
#loc606 = loc("convolution.2939_workaround"(#loc13))
#loc607 = loc("reduce.2990_mean"(#loc450))
#loc608 = loc("reduce.2973_mean"(#loc453))
#loc609 = loc("convolution.3029_workaround"(#loc18))
#loc610 = loc("dot.3039_reshapeOutput"(#loc463))
#loc611 = loc("dot.3042_reshapeLhs"(#loc465))
#loc612 = loc("dot.3042_reshapeOutput"(#loc465))
#loc613 = loc("convolution.3044_reshape"(#loc11))
#loc614 = loc("convolution.3044_workaround"(#loc11))
#loc615 = loc("reduce.3095_mean"(#loc467))
#loc616 = loc("reduce.3078_mean"(#loc470))
#loc617 = loc("convolution.3134_workaround"(#loc19))
#loc618 = loc("custom-call.3221_group_reshape"(#loc8))
#loc619 = loc("custom-call.3221_mean"(#loc8))
#loc620 = loc("custom-call.3221_center"(#loc8))
#loc621 = loc("custom-call.3221_square"(#loc8))
#loc622 = loc("custom-call.3221_variance"(#loc8))
#loc623 = loc("custom-call.3221_add_eps"(#loc8))
#loc624 = loc("custom-call.3221_rsqrt"(#loc8))
#loc625 = loc("custom-call.3221_normalize"(#loc8))
#loc626 = loc("custom-call.3221_unreshape"(#loc8))
#loc627 = loc("custom-call.3221_weight_mul"(#loc8))
#loc628 = loc("custom-call.3221_bias_add"(#loc8))
#loc629 = loc("transpose.250_tm0"(#loc478))
#loc630 = loc("transpose.265_tm0"(#loc479))
#loc631 = loc("transpose.64_tm0"(#loc480))
#loc632 = loc("transpose.436_tm0"(#loc481))
#loc633 = loc("transpose.451_tm0"(#loc482))
#loc634 = loc("transpose.79_tm0"(#loc483))
#loc636 = loc("transpose.1898_tm0_tm0"(#loc562))
#loc637 = loc("transpose.1898_tm0_tm1"(#loc562))
#loc638 = loc("transpose.250_tm0_tm0"(#loc629))
#loc639 = loc("transpose.250_tm0_tm1"(#loc629))
#loc640 = loc("transpose.265_tm0_tm0"(#loc630))
#loc641 = loc("transpose.265_tm0_tm1"(#loc630))
#loc642 = loc("transpose.64_tm0_tm0"(#loc631))
#loc643 = loc("transpose.64_tm0_tm1"(#loc631))
#loc644 = loc("transpose.436_tm0_tm0"(#loc632))
#loc645 = loc("transpose.436_tm0_tm1"(#loc632))
#loc646 = loc("transpose.451_tm0_tm0"(#loc633))
#loc647 = loc("transpose.451_tm0_tm1"(#loc633))
#loc648 = loc("transpose.79_tm0_tm0"(#loc634))
#loc649 = loc("transpose.79_tm0_tm1"(#loc634))
