WARNING:root:Defaulting to PJRT_DEVICE=CPU
Using TT-Metal from the source tree: /localdev/hshah/tt-xla/third_party/tt-mlir/src/tt-mlir/third_party/tt-metal/src/tt-metal
WARNING: TT plugin is setting XLA_STABLEHLO_COMPILE to 1. This is required for TT PJRT plugin to work correctly.
============================= test session starts ==============================
platform linux -- Python 3.11.14, pytest-8.4.2, pluggy-1.6.0 -- /localdev/hshah/tt-xla/venv/bin/python
cachedir: .pytest_cache
rootdir: /localdev/hshah/tt-xla
configfile: pytest.ini
plugins: anyio-4.11.0, jaxtyping-0.3.3, forked-1.6.0, split-0.10.0
collecting ... collected 1 item

tests/torch/single_chip/graphs/test_simple_matmul.py::test_matmul_incorrect_sharding 2025-10-23 04:30:13.548 (   0.000s) [        2146C480]      dylib_platform.cc:47       1| DylibPlatform::SubclassInitialize
2025-10-23 04:30:13.556 (   0.008s) [        2146C480]     client_instance.cc:44       1| ClientInstance::ClientInstance
2025-10-23 04:30:13.556 (   0.008s) [        2146C480]              client.cc:18       1| TTClientInstance::TTClientInstance
2025-10-23 04:30:13.556 (   0.008s) [        2146C480]     client_instance.cc:73       1| ClientInstance::Initialize
2025-10-23 04:30:27.360 (  13.812s) [        2146C480]              stubs.inc:106   WARN| STUB: PJRT_Client_TopologyDescription
2025-10-23 04:30:27.360 (  13.812s) [        2146C480]      error_instance.cc:49       1| ErrorInstance::PJRT_Error_Message
2025-10-23 04:30:27.360 (  13.812s) [        2146C480]      error_instance.cc:58       1| ErrorInstance::PJRT_Error_GetCode
2025-10-23 04:30:27.360 (  13.812s) [        2146C480]      error_instance.cc:43       1| ErrorInstance::PJRT_Error_Destroy
2025-10-23 04:30:27.360 (  13.812s) [        2146C480]     client_instance.cc:510      1| ClientInstance::PJRT_Client_PlatformVersion
2025-10-23 04:30:27.360 (  13.812s) [        2146C480]     client_instance.cc:490      1| ClientInstance::PJRT_Client_PlatformName
2025-10-23 04:30:27.360 (  13.812s) [        2146C480]     client_instance.cc:522      1| ClientInstance::PJRT_Client_Devices
2025-10-23 04:30:27.360 (  13.812s) [        2146C480]     device_instance.cc:44       1| DeviceInstance::PJRT_Device_GetDescription
2025-10-23 04:30:27.360 (  13.812s) [        2146C480]  device_description.cc:63       1| DeviceDescription::PJRT_DeviceDescription_Attributes
2025-10-23 04:30:27.360 (  13.812s) [        2146C480]     device_instance.cc:44       1| DeviceInstance::PJRT_Device_GetDescription
2025-10-23 04:30:27.360 (  13.812s) [        2146C480]  device_description.cc:63       1| DeviceDescription::PJRT_DeviceDescription_Attributes
2025-10-23 04:30:27.360 (  13.812s) [        2146C480]     device_instance.cc:44       1| DeviceInstance::PJRT_Device_GetDescription
2025-10-23 04:30:27.360 (  13.812s) [        2146C480]  device_description.cc:63       1| DeviceDescription::PJRT_DeviceDescription_Attributes
2025-10-23 04:30:27.360 (  13.812s) [        2146C480]     device_instance.cc:44       1| DeviceInstance::PJRT_Device_GetDescription
2025-10-23 04:30:27.360 (  13.812s) [        2146C480]  device_description.cc:63       1| DeviceDescription::PJRT_DeviceDescription_Attributes
2025-10-23 04:30:27.360 (  13.812s) [        2146C480]     device_instance.cc:44       1| DeviceInstance::PJRT_Device_GetDescription
2025-10-23 04:30:27.360 (  13.812s) [        2146C480]  device_description.cc:63       1| DeviceDescription::PJRT_DeviceDescription_Attributes
2025-10-23 04:30:27.360 (  13.812s) [        2146C480]     device_instance.cc:44       1| DeviceInstance::PJRT_Device_GetDescription
2025-10-23 04:30:27.360 (  13.812s) [        2146C480]  device_description.cc:63       1| DeviceDescription::PJRT_DeviceDescription_Attributes
2025-10-23 04:30:27.360 (  13.812s) [        2146C480]     device_instance.cc:44       1| DeviceInstance::PJRT_Device_GetDescription
2025-10-23 04:30:27.360 (  13.812s) [        2146C480]  device_description.cc:63       1| DeviceDescription::PJRT_DeviceDescription_Attributes
2025-10-23 04:30:27.360 (  13.812s) [        2146C480]     device_instance.cc:44       1| DeviceInstance::PJRT_Device_GetDescription
2025-10-23 04:30:27.360 (  13.812s) [        2146C480]  device_description.cc:63       1| DeviceDescription::PJRT_DeviceDescription_Attributes
2025-10-23 04:30:27.360 (  13.812s) [        2146C480]     client_instance.cc:535      1| ClientInstance::PJRT_Client_AddressableDevices
2025-10-23 04:30:27.360 (  13.812s) [        2146C480]     client_instance.cc:585      1| ClientInstance::PJRT_Client_AddressableMemories
2025-10-23 04:30:27.360 (  13.812s) [        2146C480]     device_instance.cc:71       1| DeviceInstance::PJRT_Device_AddressableMemories
2025-10-23 04:30:27.360 (  13.812s) [        2146C480]     device_instance.cc:71       1| DeviceInstance::PJRT_Device_AddressableMemories
2025-10-23 04:30:27.360 (  13.812s) [        2146C480]     device_instance.cc:71       1| DeviceInstance::PJRT_Device_AddressableMemories
2025-10-23 04:30:27.360 (  13.812s) [        2146C480]     device_instance.cc:71       1| DeviceInstance::PJRT_Device_AddressableMemories
2025-10-23 04:30:27.360 (  13.812s) [        2146C480]     device_instance.cc:71       1| DeviceInstance::PJRT_Device_AddressableMemories
2025-10-23 04:30:27.360 (  13.812s) [        2146C480]     device_instance.cc:71       1| DeviceInstance::PJRT_Device_AddressableMemories
2025-10-23 04:30:27.360 (  13.812s) [        2146C480]     device_instance.cc:71       1| DeviceInstance::PJRT_Device_AddressableMemories
2025-10-23 04:30:27.360 (  13.812s) [        2146C480]     device_instance.cc:71       1| DeviceInstance::PJRT_Device_AddressableMemories
2025-10-23 04:30:27.360 (  13.812s) [        2146C480]     memory_instance.cc:124      1| MemoryInstance::PJRT_Memory_AddressableByDevices
2025-10-23 04:30:27.360 (  13.812s) [        2146C480]     memory_instance.cc:124      1| MemoryInstance::PJRT_Memory_AddressableByDevices
2025-10-23 04:30:27.360 (  13.812s) [        2146C480]     memory_instance.cc:124      1| MemoryInstance::PJRT_Memory_AddressableByDevices
2025-10-23 04:30:27.360 (  13.812s) [        2146C480]     memory_instance.cc:124      1| MemoryInstance::PJRT_Memory_AddressableByDevices
2025-10-23 04:30:27.360 (  13.812s) [        2146C480]     memory_instance.cc:124      1| MemoryInstance::PJRT_Memory_AddressableByDevices
2025-10-23 04:30:27.360 (  13.812s) [        2146C480]     memory_instance.cc:124      1| MemoryInstance::PJRT_Memory_AddressableByDevices
2025-10-23 04:30:27.360 (  13.812s) [        2146C480]     memory_instance.cc:124      1| MemoryInstance::PJRT_Memory_AddressableByDevices
2025-10-23 04:30:27.360 (  13.812s) [        2146C480]     memory_instance.cc:124      1| MemoryInstance::PJRT_Memory_AddressableByDevices
2025-10-23 04:30:27.360 (  13.812s) [        2146C480]     memory_instance.cc:124      1| MemoryInstance::PJRT_Memory_AddressableByDevices
2025-10-23 04:30:27.360 (  13.812s) [        2146C480]        api_bindings.cc:76       1| PJRT_Plugin_Attributes
2025-10-23 04:30:27.361059: W torch_xla/csrc/runtime/profiler.cpp:88] Profiler API not found for PJRT plugin
2025-10-23 04:30:27.361 (  13.812s) [        2146C480]  device_description.cc:44       1| DeviceDescription::PJRT_DeviceDescription_Id
2025-10-23 04:30:27.361 (  13.812s) [        2146C480]  device_description.cc:44       1| DeviceDescription::PJRT_DeviceDescription_Id
2025-10-23 04:30:27.361 (  13.812s) [        2146C480]  device_description.cc:44       1| DeviceDescription::PJRT_DeviceDescription_Id
2025-10-23 04:30:27.361 (  13.812s) [        2146C480]  device_description.cc:44       1| DeviceDescription::PJRT_DeviceDescription_Id
2025-10-23 04:30:27.361 (  13.812s) [        2146C480]  device_description.cc:44       1| DeviceDescription::PJRT_DeviceDescription_Id
2025-10-23 04:30:27.361 (  13.812s) [        2146C480]  device_description.cc:44       1| DeviceDescription::PJRT_DeviceDescription_Id
2025-10-23 04:30:27.361 (  13.812s) [        2146C480]  device_description.cc:44       1| DeviceDescription::PJRT_DeviceDescription_Id
2025-10-23 04:30:27.361 (  13.812s) [        2146C480]  device_description.cc:44       1| DeviceDescription::PJRT_DeviceDescription_Id
2025-10-23 04:30:27.361 (  13.812s) [        2146C480]  device_description.cc:44       1| DeviceDescription::PJRT_DeviceDescription_Id
2025-10-23 04:30:27.361 (  13.812s) [        2146C480]  device_description.cc:44       1| DeviceDescription::PJRT_DeviceDescription_Id
2025-10-23 04:30:27.361 (  13.812s) [        2146C480]  device_description.cc:44       1| DeviceDescription::PJRT_DeviceDescription_Id
2025-10-23 04:30:27.361 (  13.812s) [        2146C480]  device_description.cc:44       1| DeviceDescription::PJRT_DeviceDescription_Id
2025-10-23 04:30:27.361 (  13.812s) [        2146C480]  device_description.cc:44       1| DeviceDescription::PJRT_DeviceDescription_Id
2025-10-23 04:30:27.361 (  13.812s) [        2146C480]  device_description.cc:44       1| DeviceDescription::PJRT_DeviceDescription_Id
2025-10-23 04:30:27.361 (  13.812s) [        2146C480]  device_description.cc:44       1| DeviceDescription::PJRT_DeviceDescription_Id
2025-10-23 04:30:27.361 (  13.812s) [        2146C480]  device_description.cc:44       1| DeviceDescription::PJRT_DeviceDescription_Id
2025-10-23 04:30:27.361 (  13.812s) [        2146C480]  device_description.cc:44       1| DeviceDescription::PJRT_DeviceDescription_Id
2025-10-23 04:30:27.361 (  13.812s) [        2146C480]  device_description.cc:44       1| DeviceDescription::PJRT_DeviceDescription_Id
2025-10-23 04:30:27.361 (  13.812s) [        2146C480]  device_description.cc:44       1| DeviceDescription::PJRT_DeviceDescription_Id
2025-10-23 04:30:27.361 (  13.812s) [        2146C480]  device_description.cc:44       1| DeviceDescription::PJRT_DeviceDescription_Id
2025-10-23 04:30:27.361 (  13.812s) [        2146C480]  device_description.cc:44       1| DeviceDescription::PJRT_DeviceDescription_Id
2025-10-23 04:30:27.361 (  13.812s) [        2146C480]  device_description.cc:44       1| DeviceDescription::PJRT_DeviceDescription_Id
2025-10-23 04:30:27.361 (  13.812s) [        2146C480]  device_description.cc:44       1| DeviceDescription::PJRT_DeviceDescription_Id
2025-10-23 04:30:27.361 (  13.812s) [        2146C480]  device_description.cc:44       1| DeviceDescription::PJRT_DeviceDescription_Id
2025-10-23 04:30:27.361 (  13.812s) [        2146C480]  device_description.cc:44       1| DeviceDescription::PJRT_DeviceDescription_Id
2025-10-23 04:30:27.361 (  13.812s) [        2146C480]  device_description.cc:44       1| DeviceDescription::PJRT_DeviceDescription_Id
2025-10-23 04:30:27.361 (  13.812s) [        2146C480]  device_description.cc:44       1| DeviceDescription::PJRT_DeviceDescription_Id
2025-10-23 04:30:27.361 (  13.812s) [        2146C480]  device_description.cc:44       1| DeviceDescription::PJRT_DeviceDescription_Id
2025-10-23 04:30:27.361 (  13.812s) [        2146C480]  device_description.cc:44       1| DeviceDescription::PJRT_DeviceDescription_Id
2025-10-23 04:30:27.361 (  13.812s) [        2146C480]  device_description.cc:44       1| DeviceDescription::PJRT_DeviceDescription_Id
2025-10-23 04:30:27.361 (  13.812s) [        2146C480]  device_description.cc:44       1| DeviceDescription::PJRT_DeviceDescription_Id
2025-10-23 04:30:27.361 (  13.812s) [        2146C480]  device_description.cc:44       1| DeviceDescription::PJRT_DeviceDescription_Id
2025-10-23 04:30:27.361 (  13.812s) [        2146C480]  device_description.cc:44       1| DeviceDescription::PJRT_DeviceDescription_Id
2025-10-23 04:30:27.361 (  13.813s) [        2146C480]  device_description.cc:44       1| DeviceDescription::PJRT_DeviceDescription_Id
2025-10-23 04:30:27.361 (  13.813s) [        2146C480]  device_description.cc:44       1| DeviceDescription::PJRT_DeviceDescription_Id
2025-10-23 04:30:27.361 (  13.813s) [        2146C480]  device_description.cc:44       1| DeviceDescription::PJRT_DeviceDescription_Id
2025-10-23 04:30:27.361 (  13.813s) [        2146C480]  device_description.cc:44       1| DeviceDescription::PJRT_DeviceDescription_Id
2025-10-23 04:30:27.361 (  13.813s) [        2146C480]  device_description.cc:44       1| DeviceDescription::PJRT_DeviceDescription_Id
2025-10-23 04:30:27.361 (  13.813s) [        2146C480]  device_description.cc:44       1| DeviceDescription::PJRT_DeviceDescription_Id
2025-10-23 04:30:27.361 (  13.813s) [        2146C480]  device_description.cc:44       1| DeviceDescription::PJRT_DeviceDescription_Id
2025-10-23 04:30:27.361 (  13.813s) [        2146C480]  device_description.cc:44       1| DeviceDescription::PJRT_DeviceDescription_Id
2025-10-23 04:30:27.361 (  13.813s) [        2146C480]  device_description.cc:44       1| DeviceDescription::PJRT_DeviceDescription_Id
2025-10-23 04:30:27.361 (  13.813s) [        2146C480]  device_description.cc:44       1| DeviceDescription::PJRT_DeviceDescription_Id
2025-10-23 04:30:27.361 (  13.813s) [        2146C480]  device_description.cc:44       1| DeviceDescription::PJRT_DeviceDescription_Id
2025-10-23 04:30:27.361 (  13.813s) [        2146C480]  device_description.cc:44       1| DeviceDescription::PJRT_DeviceDescription_Id
2025-10-23 04:30:27.361 (  13.813s) [        2146C480]  device_description.cc:44       1| DeviceDescription::PJRT_DeviceDescription_Id
2025-10-23 04:30:27.361 (  13.813s) [        2146C480]  device_description.cc:44       1| DeviceDescription::PJRT_DeviceDescription_Id
2025-10-23 04:30:27.361 (  13.813s) [        2146C480]  device_description.cc:44       1| DeviceDescription::PJRT_DeviceDescription_Id
2025-10-23 04:30:27.361 (  13.813s) [        2146C480]  device_description.cc:44       1| DeviceDescription::PJRT_DeviceDescription_Id
2025-10-23 04:30:27.361 (  13.813s) [        2146C480]  device_description.cc:44       1| DeviceDescription::PJRT_DeviceDescription_Id
2025-10-23 04:30:27.361 (  13.813s) [        2146C480]  device_description.cc:44       1| DeviceDescription::PJRT_DeviceDescription_Id
2025-10-23 04:30:27.361 (  13.813s) [        2146C480]  device_description.cc:44       1| DeviceDescription::PJRT_DeviceDescription_Id
2025-10-23 04:30:27.361 (  13.813s) [        2146C480]  device_description.cc:44       1| DeviceDescription::PJRT_DeviceDescription_Id
2025-10-23 04:30:27.361 (  13.813s) [        2146C480]  device_description.cc:44       1| DeviceDescription::PJRT_DeviceDescription_Id
2025-10-23 04:30:27.361 (  13.813s) [        2146C480]  device_description.cc:44       1| DeviceDescription::PJRT_DeviceDescription_Id
2025-10-23 04:30:27.361 (  13.813s) [        2146C480]  device_description.cc:44       1| DeviceDescription::PJRT_DeviceDescription_Id
2025-10-23 04:30:27.361 (  13.813s) [        2146C480]  device_description.cc:44       1| DeviceDescription::PJRT_DeviceDescription_Id
2025-10-23 04:30:27.361 (  13.813s) [        2146C480]  device_description.cc:44       1| DeviceDescription::PJRT_DeviceDescription_Id
2025-10-23 04:30:27.361 (  13.813s) [        2146C480]  device_description.cc:44       1| DeviceDescription::PJRT_DeviceDescription_Id
2025-10-23 04:30:27.361 (  13.813s) [        2146C480]  device_description.cc:44       1| DeviceDescription::PJRT_DeviceDescription_Id
2025-10-23 04:30:27.361 (  13.813s) [        2146C480]  device_description.cc:99       1| DeviceDescription::PJRT_DeviceDescription_ToString
2025-10-23 04:30:27.361 (  13.813s) [        2146C480]  device_description.cc:99       1| DeviceDescription::PJRT_DeviceDescription_ToString
2025-10-23 04:30:27.361 (  13.813s) [        2146C480]  device_description.cc:99       1| DeviceDescription::PJRT_DeviceDescription_ToString
2025-10-23 04:30:27.361 (  13.813s) [        2146C480]  device_description.cc:99       1| DeviceDescription::PJRT_DeviceDescription_ToString
2025-10-23 04:30:27.361 (  13.813s) [        2146C480]  device_description.cc:99       1| DeviceDescription::PJRT_DeviceDescription_ToString
2025-10-23 04:30:27.361 (  13.813s) [        2146C480]  device_description.cc:99       1| DeviceDescription::PJRT_DeviceDescription_ToString
2025-10-23 04:30:27.361 (  13.813s) [        2146C480]  device_description.cc:99       1| DeviceDescription::PJRT_DeviceDescription_ToString
2025-10-23 04:30:27.361 (  13.813s) [        2146C480]  device_description.cc:99       1| DeviceDescription::PJRT_DeviceDescription_ToString
2025-10-23 04:30:27.361 (  13.813s) [        2146C480]  device_description.cc:44       1| DeviceDescription::PJRT_DeviceDescription_Id
2025-10-23 04:30:27.361 (  13.813s) [        2146C480]  device_description.cc:44       1| DeviceDescription::PJRT_DeviceDescription_Id
2025-10-23 04:30:27.361 (  13.813s) [        2146C480]  device_description.cc:44       1| DeviceDescription::PJRT_DeviceDescription_Id
2025-10-23 04:30:27.361 (  13.813s) [        2146C480]  device_description.cc:44       1| DeviceDescription::PJRT_DeviceDescription_Id
2025-10-23 04:30:27.361 (  13.813s) [        2146C480]  device_description.cc:44       1| DeviceDescription::PJRT_DeviceDescription_Id
2025-10-23 04:30:27.361 (  13.813s) [        2146C480]  device_description.cc:44       1| DeviceDescription::PJRT_DeviceDescription_Id
2025-10-23 04:30:27.361 (  13.813s) [        2146C480]  device_description.cc:44       1| DeviceDescription::PJRT_DeviceDescription_Id
2025-10-23 04:30:27.361 (  13.813s) [        2146C480]  device_description.cc:44       1| DeviceDescription::PJRT_DeviceDescription_Id
2025-10-23 04:30:27.361 (  13.813s) [        2146C480]  device_description.cc:44       1| DeviceDescription::PJRT_DeviceDescription_Id
2025-10-23 04:30:27.361 (  13.813s) [        2146C480]  device_description.cc:44       1| DeviceDescription::PJRT_DeviceDescription_Id
2025-10-23 04:30:27.361 (  13.813s) [        2146C480]  device_description.cc:44       1| DeviceDescription::PJRT_DeviceDescription_Id
2025-10-23 04:30:27.361 (  13.813s) [        2146C480]  device_description.cc:44       1| DeviceDescription::PJRT_DeviceDescription_Id
2025-10-23 04:30:27.361 (  13.813s) [        2146C480]  device_description.cc:44       1| DeviceDescription::PJRT_DeviceDescription_Id
2025-10-23 04:30:27.361 (  13.813s) [        2146C480]  device_description.cc:44       1| DeviceDescription::PJRT_DeviceDescription_Id
2025-10-23 04:30:27.361 (  13.813s) [        2146C480]  device_description.cc:44       1| DeviceDescription::PJRT_DeviceDescription_Id
2025-10-23 04:30:27.361 (  13.813s) [        2146C480]  device_description.cc:44       1| DeviceDescription::PJRT_DeviceDescription_Id
2025-10-23 04:30:27.648 (  14.100s) [        2146C480]  device_description.cc:44       1| DeviceDescription::PJRT_DeviceDescription_Id
2025-10-23 04:30:27.648 (  14.100s) [        2146C480]  device_description.cc:44       1| DeviceDescription::PJRT_DeviceDescription_Id
2025-10-23 04:30:27.648 (  14.100s) [        2146C480]  device_description.cc:44       1| DeviceDescription::PJRT_DeviceDescription_Id
2025-10-23 04:30:27.648 (  14.100s) [        2146C480]  device_description.cc:44       1| DeviceDescription::PJRT_DeviceDescription_Id
2025-10-23 04:30:27.648 (  14.100s) [        2146C480]  device_description.cc:44       1| DeviceDescription::PJRT_DeviceDescription_Id
2025-10-23 04:30:27.648 (  14.100s) [        2146C480]  device_description.cc:44       1| DeviceDescription::PJRT_DeviceDescription_Id
2025-10-23 04:30:27.648 (  14.100s) [        2146C480]  device_description.cc:44       1| DeviceDescription::PJRT_DeviceDescription_Id
2025-10-23 04:30:27.648 (  14.100s) [        2146C480]  device_description.cc:44       1| DeviceDescription::PJRT_DeviceDescription_Id
2025-10-23 04:30:27.659 (  14.111s) [        2146C480]  device_description.cc:44       1| DeviceDescription::PJRT_DeviceDescription_Id
2025-10-23 04:30:27.659 (  14.111s) [        2146C480]  device_description.cc:44       1| DeviceDescription::PJRT_DeviceDescription_Id
2025-10-23 04:30:27.659 (  14.111s) [        2146C480]  device_description.cc:44       1| DeviceDescription::PJRT_DeviceDescription_Id
2025-10-23 04:30:27.659 (  14.111s) [        2146C480]  device_description.cc:44       1| DeviceDescription::PJRT_DeviceDescription_Id
2025-10-23 04:30:27.659 (  14.111s) [        2146C480]  device_description.cc:44       1| DeviceDescription::PJRT_DeviceDescription_Id
2025-10-23 04:30:27.659 (  14.111s) [        2146C480]  device_description.cc:44       1| DeviceDescription::PJRT_DeviceDescription_Id
2025-10-23 04:30:27.659 (  14.111s) [        2146C480]  device_description.cc:44       1| DeviceDescription::PJRT_DeviceDescription_Id
2025-10-23 04:30:27.659 (  14.111s) [        2146C480]  device_description.cc:44       1| DeviceDescription::PJRT_DeviceDescription_Id
2025-10-23 04:30:27.661 (  14.113s) [        2146C480]     device_instance.cc:82       1| DeviceInstance::PJRT_Device_DefaultMemory
2025-10-23 04:30:27.661 (  14.113s) [        2146C480]     client_instance.cc:641      1| ClientInstance::PJRT_Client_BufferFromHostBuffer
2025-10-23 04:30:27.661 (  14.113s) [        2146C480]     memory_instance.cc:57       1| MemoryInstance::getDevice
2025-10-23 04:30:27.662 (  14.114s) [        2146C480]      event_instance.cc:222      1| EventInstance::PJRT_Event_OnReady
2025-10-23 04:30:27.662 (  14.114s) [        2146C480]      event_instance.cc:171      1| EventInstance::PJRT_Event_Destroy
2025-10-23 04:30:27.662 (  14.114s) [        2146C480]     device_instance.cc:82       1| DeviceInstance::PJRT_Device_DefaultMemory
2025-10-23 04:30:27.662 (  14.114s) [        2146C480]     client_instance.cc:641      1| ClientInstance::PJRT_Client_BufferFromHostBuffer
2025-10-23 04:30:27.662 (  14.114s) [        2146C480]     memory_instance.cc:57       1| MemoryInstance::getDevice
2025-10-23 04:30:27.662 (  14.114s) [        2146C480]      event_instance.cc:222      1| EventInstance::PJRT_Event_OnReady
2025-10-23 04:30:27.662 (  14.114s) [        2146C480]      event_instance.cc:171      1| EventInstance::PJRT_Event_Destroy
2025-10-23 04:30:27.662 (  14.114s) [        2146C480]     device_instance.cc:82       1| DeviceInstance::PJRT_Device_DefaultMemory
2025-10-23 04:30:27.662 (  14.114s) [        2146C480]     client_instance.cc:641      1| ClientInstance::PJRT_Client_BufferFromHostBuffer
2025-10-23 04:30:27.662 (  14.114s) [        2146C480]     memory_instance.cc:57       1| MemoryInstance::getDevice
2025-10-23 04:30:27.662 (  14.114s) [        2146C480]      event_instance.cc:222      1| EventInstance::PJRT_Event_OnReady
2025-10-23 04:30:27.662 (  14.114s) [        2146C480]      event_instance.cc:171      1| EventInstance::PJRT_Event_Destroy
2025-10-23 04:30:27.662 (  14.114s) [        2146C480]     device_instance.cc:82       1| DeviceInstance::PJRT_Device_DefaultMemory
2025-10-23 04:30:27.662 (  14.114s) [        2146C480]     client_instance.cc:641      1| ClientInstance::PJRT_Client_BufferFromHostBuffer
2025-10-23 04:30:27.662 (  14.114s) [        2146C480]     memory_instance.cc:57       1| MemoryInstance::getDevice
2025-10-23 04:30:27.662 (  14.114s) [        2146C480]      event_instance.cc:222      1| EventInstance::PJRT_Event_OnReady
2025-10-23 04:30:27.662 (  14.114s) [        2146C480]      event_instance.cc:171      1| EventInstance::PJRT_Event_Destroy
2025-10-23 04:30:27.662 (  14.114s) [        2146C480]     device_instance.cc:82       1| DeviceInstance::PJRT_Device_DefaultMemory
2025-10-23 04:30:27.662 (  14.114s) [        2146C480]     client_instance.cc:641      1| ClientInstance::PJRT_Client_BufferFromHostBuffer
2025-10-23 04:30:27.662 (  14.114s) [        2146C480]     memory_instance.cc:57       1| MemoryInstance::getDevice
2025-10-23 04:30:27.662 (  14.114s) [        2146C480]      event_instance.cc:222      1| EventInstance::PJRT_Event_OnReady
2025-10-23 04:30:27.662 (  14.114s) [        2146C480]      event_instance.cc:171      1| EventInstance::PJRT_Event_Destroy
2025-10-23 04:30:27.662 (  14.114s) [        2146C480]     device_instance.cc:82       1| DeviceInstance::PJRT_Device_DefaultMemory
2025-10-23 04:30:27.662 (  14.114s) [        2146C480]     client_instance.cc:641      1| ClientInstance::PJRT_Client_BufferFromHostBuffer
2025-10-23 04:30:27.662 (  14.114s) [        2146C480]     memory_instance.cc:57       1| MemoryInstance::getDevice
2025-10-23 04:30:27.662 (  14.114s) [        2146C480]      event_instance.cc:222      1| EventInstance::PJRT_Event_OnReady
2025-10-23 04:30:27.662 (  14.114s) [        2146C480]      event_instance.cc:171      1| EventInstance::PJRT_Event_Destroy
2025-10-23 04:30:27.662 (  14.114s) [        2146C480]     device_instance.cc:82       1| DeviceInstance::PJRT_Device_DefaultMemory
2025-10-23 04:30:27.662 (  14.114s) [        2146C480]     client_instance.cc:641      1| ClientInstance::PJRT_Client_BufferFromHostBuffer
2025-10-23 04:30:27.662 (  14.114s) [        2146C480]     memory_instance.cc:57       1| MemoryInstance::getDevice
2025-10-23 04:30:27.662 (  14.114s) [        2146C480]      event_instance.cc:222      1| EventInstance::PJRT_Event_OnReady
2025-10-23 04:30:27.662 (  14.114s) [        2146C480]      event_instance.cc:171      1| EventInstance::PJRT_Event_Destroy
2025-10-23 04:30:27.662 (  14.114s) [        2146C480]     device_instance.cc:82       1| DeviceInstance::PJRT_Device_DefaultMemory
2025-10-23 04:30:27.662 (  14.114s) [        2146C480]     client_instance.cc:641      1| ClientInstance::PJRT_Client_BufferFromHostBuffer
2025-10-23 04:30:27.662 (  14.114s) [        2146C480]     memory_instance.cc:57       1| MemoryInstance::getDevice
2025-10-23 04:30:27.662 (  14.114s) [        2146C480]      event_instance.cc:222      1| EventInstance::PJRT_Event_OnReady
2025-10-23 04:30:27.662 (  14.114s) [        2146C480]      event_instance.cc:171      1| EventInstance::PJRT_Event_Destroy
2025-10-23 04:30:27.663 (  14.115s) [        2146C480]  device_description.cc:44       1| DeviceDescription::PJRT_DeviceDescription_Id
2025-10-23 04:30:27.663 (  14.115s) [        2146C480]  device_description.cc:44       1| DeviceDescription::PJRT_DeviceDescription_Id
2025-10-23 04:30:27.663 (  14.115s) [        2146C480]  device_description.cc:44       1| DeviceDescription::PJRT_DeviceDescription_Id
2025-10-23 04:30:27.663 (  14.115s) [        2146C480]  device_description.cc:44       1| DeviceDescription::PJRT_DeviceDescription_Id
2025-10-23 04:30:27.663 (  14.115s) [        2146C480]  device_description.cc:44       1| DeviceDescription::PJRT_DeviceDescription_Id
2025-10-23 04:30:27.663 (  14.115s) [        2146C480]  device_description.cc:44       1| DeviceDescription::PJRT_DeviceDescription_Id
2025-10-23 04:30:27.663 (  14.115s) [        2146C480]  device_description.cc:44       1| DeviceDescription::PJRT_DeviceDescription_Id
2025-10-23 04:30:27.663 (  14.115s) [        2146C480]  device_description.cc:44       1| DeviceDescription::PJRT_DeviceDescription_Id
2025-10-23 04:30:27.663 (  14.115s) [        2146C480]     device_instance.cc:82       1| DeviceInstance::PJRT_Device_DefaultMemory
2025-10-23 04:30:27.663 (  14.115s) [        2146C480]     client_instance.cc:641      1| ClientInstance::PJRT_Client_BufferFromHostBuffer
2025-10-23 04:30:27.663 (  14.115s) [        2146C480]     memory_instance.cc:57       1| MemoryInstance::getDevice
2025-10-23 04:30:27.663 (  14.115s) [        2146C480]      event_instance.cc:222      1| EventInstance::PJRT_Event_OnReady
2025-10-23 04:30:27.663 (  14.115s) [        2146C480]      event_instance.cc:171      1| EventInstance::PJRT_Event_Destroy
2025-10-23 04:30:27.663 (  14.115s) [        2146C480]     device_instance.cc:82       1| DeviceInstance::PJRT_Device_DefaultMemory
2025-10-23 04:30:27.663 (  14.115s) [        2146C480]     client_instance.cc:641      1| ClientInstance::PJRT_Client_BufferFromHostBuffer
2025-10-23 04:30:27.663 (  14.115s) [        2146C480]     memory_instance.cc:57       1| MemoryInstance::getDevice
2025-10-23 04:30:27.663 (  14.115s) [        2146C480]      event_instance.cc:222      1| EventInstance::PJRT_Event_OnReady
2025-10-23 04:30:27.663 (  14.115s) [        2146C480]      event_instance.cc:171      1| EventInstance::PJRT_Event_Destroy
2025-10-23 04:30:27.663 (  14.115s) [        2146C480]     device_instance.cc:82       1| DeviceInstance::PJRT_Device_DefaultMemory
2025-10-23 04:30:27.663 (  14.115s) [        2146C480]     client_instance.cc:641      1| ClientInstance::PJRT_Client_BufferFromHostBuffer
2025-10-23 04:30:27.663 (  14.115s) [        2146C480]     memory_instance.cc:57       1| MemoryInstance::getDevice
2025-10-23 04:30:27.663 (  14.115s) [        2146C480]      event_instance.cc:222      1| EventInstance::PJRT_Event_OnReady
2025-10-23 04:30:27.663 (  14.115s) [        2146C480]      event_instance.cc:171      1| EventInstance::PJRT_Event_Destroy
2025-10-23 04:30:27.663 (  14.115s) [        2146C480]     device_instance.cc:82       1| DeviceInstance::PJRT_Device_DefaultMemory
2025-10-23 04:30:27.663 (  14.115s) [        2146C480]     client_instance.cc:641      1| ClientInstance::PJRT_Client_BufferFromHostBuffer
2025-10-23 04:30:27.663 (  14.115s) [        2146C480]     memory_instance.cc:57       1| MemoryInstance::getDevice
2025-10-23 04:30:27.663 (  14.115s) [        2146C480]      event_instance.cc:222      1| EventInstance::PJRT_Event_OnReady
2025-10-23 04:30:27.663 (  14.115s) [        2146C480]      event_instance.cc:171      1| EventInstance::PJRT_Event_Destroy
2025-10-23 04:30:27.663 (  14.115s) [        2146C480]     device_instance.cc:82       1| DeviceInstance::PJRT_Device_DefaultMemory
2025-10-23 04:30:27.663 (  14.115s) [        2146C480]     client_instance.cc:641      1| ClientInstance::PJRT_Client_BufferFromHostBuffer
2025-10-23 04:30:27.663 (  14.115s) [        2146C480]     memory_instance.cc:57       1| MemoryInstance::getDevice
2025-10-23 04:30:27.663 (  14.115s) [        2146C480]      event_instance.cc:222      1| EventInstance::PJRT_Event_OnReady
2025-10-23 04:30:27.663 (  14.115s) [        2146C480]      event_instance.cc:171      1| EventInstance::PJRT_Event_Destroy
2025-10-23 04:30:27.663 (  14.115s) [        2146C480]     device_instance.cc:82       1| DeviceInstance::PJRT_Device_DefaultMemory
2025-10-23 04:30:27.663 (  14.115s) [        2146C480]     client_instance.cc:641      1| ClientInstance::PJRT_Client_BufferFromHostBuffer
2025-10-23 04:30:27.663 (  14.115s) [        2146C480]     memory_instance.cc:57       1| MemoryInstance::getDevice
2025-10-23 04:30:27.663 (  14.115s) [        2146C480]      event_instance.cc:222      1| EventInstance::PJRT_Event_OnReady
2025-10-23 04:30:27.663 (  14.115s) [        2146C480]      event_instance.cc:171      1| EventInstance::PJRT_Event_Destroy
2025-10-23 04:30:27.663 (  14.115s) [        2146C480]     device_instance.cc:82       1| DeviceInstance::PJRT_Device_DefaultMemory
2025-10-23 04:30:27.663 (  14.115s) [        2146C480]     client_instance.cc:641      1| ClientInstance::PJRT_Client_BufferFromHostBuffer
2025-10-23 04:30:27.663 (  14.115s) [        2146C480]     memory_instance.cc:57       1| MemoryInstance::getDevice
2025-10-23 04:30:27.663 (  14.115s) [        2146C480]      event_instance.cc:222      1| EventInstance::PJRT_Event_OnReady
2025-10-23 04:30:27.663 (  14.115s) [        2146C480]      event_instance.cc:171      1| EventInstance::PJRT_Event_Destroy
2025-10-23 04:30:27.663 (  14.115s) [        2146C480]     device_instance.cc:82       1| DeviceInstance::PJRT_Device_DefaultMemory
2025-10-23 04:30:27.663 (  14.115s) [        2146C480]     client_instance.cc:641      1| ClientInstance::PJRT_Client_BufferFromHostBuffer
2025-10-23 04:30:27.663 (  14.115s) [        2146C480]     memory_instance.cc:57       1| MemoryInstance::getDevice
2025-10-23 04:30:27.663 (  14.115s) [        2146C480]      event_instance.cc:222      1| EventInstance::PJRT_Event_OnReady
2025-10-23 04:30:27.663 (  14.115s) [        2146C480]      event_instance.cc:171      1| EventInstance::PJRT_Event_Destroy
2025-10-23 04:30:27.664 (  14.116s) [        2146C480]  device_description.cc:44       1| DeviceDescription::PJRT_DeviceDescription_Id
2025-10-23 04:30:27.664 (  14.116s) [        2146C480]  device_description.cc:44       1| DeviceDescription::PJRT_DeviceDescription_Id
2025-10-23 04:30:27.664 (  14.116s) [        2146C480]  device_description.cc:44       1| DeviceDescription::PJRT_DeviceDescription_Id
2025-10-23 04:30:27.664 (  14.116s) [        2146C480]  device_description.cc:44       1| DeviceDescription::PJRT_DeviceDescription_Id
2025-10-23 04:30:27.664 (  14.116s) [        2146C480]  device_description.cc:44       1| DeviceDescription::PJRT_DeviceDescription_Id
2025-10-23 04:30:27.664 (  14.116s) [        2146C480]  device_description.cc:44       1| DeviceDescription::PJRT_DeviceDescription_Id
2025-10-23 04:30:27.664 (  14.116s) [        2146C480]  device_description.cc:44       1| DeviceDescription::PJRT_DeviceDescription_Id
2025-10-23 04:30:27.664 (  14.116s) [        2146C480]  device_description.cc:44       1| DeviceDescription::PJRT_DeviceDescription_Id
2025-10-23 04:30:27.665 (  14.117s) [        2146C480]     device_instance.cc:82       1| DeviceInstance::PJRT_Device_DefaultMemory
2025-10-23 04:30:27.665 (  14.117s) [        2146C480]     client_instance.cc:641      1| ClientInstance::PJRT_Client_BufferFromHostBuffer
2025-10-23 04:30:27.665 (  14.117s) [        2146C480]     memory_instance.cc:57       1| MemoryInstance::getDevice
2025-10-23 04:30:27.665 (  14.117s) [        2146C480]      event_instance.cc:222      1| EventInstance::PJRT_Event_OnReady
2025-10-23 04:30:27.665 (  14.117s) [        2146C480]      event_instance.cc:171      1| EventInstance::PJRT_Event_Destroy
2025-10-23 04:30:27.665 (  14.117s) [        2146C480]     device_instance.cc:82       1| DeviceInstance::PJRT_Device_DefaultMemory
2025-10-23 04:30:27.665 (  14.117s) [        2146C480]     client_instance.cc:641      1| ClientInstance::PJRT_Client_BufferFromHostBuffer
2025-10-23 04:30:27.665 (  14.117s) [        2146C480]     memory_instance.cc:57       1| MemoryInstance::getDevice
2025-10-23 04:30:27.665 (  14.117s) [        2146C480]      event_instance.cc:222      1| EventInstance::PJRT_Event_OnReady
2025-10-23 04:30:27.665 (  14.117s) [        2146C480]      event_instance.cc:171      1| EventInstance::PJRT_Event_Destroy
2025-10-23 04:30:27.665 (  14.117s) [        2146C480]     device_instance.cc:82       1| DeviceInstance::PJRT_Device_DefaultMemory
2025-10-23 04:30:27.665 (  14.117s) [        2146C480]     client_instance.cc:641      1| ClientInstance::PJRT_Client_BufferFromHostBuffer
2025-10-23 04:30:27.665 (  14.117s) [        2146C480]     memory_instance.cc:57       1| MemoryInstance::getDevice
2025-10-23 04:30:27.665 (  14.117s) [        2146C480]      event_instance.cc:222      1| EventInstance::PJRT_Event_OnReady
2025-10-23 04:30:27.665 (  14.117s) [        2146C480]      event_instance.cc:171      1| EventInstance::PJRT_Event_Destroy
2025-10-23 04:30:27.665 (  14.117s) [        2146C480]     device_instance.cc:82       1| DeviceInstance::PJRT_Device_DefaultMemory
2025-10-23 04:30:27.665 (  14.117s) [        2146C480]     client_instance.cc:641      1| ClientInstance::PJRT_Client_BufferFromHostBuffer
2025-10-23 04:30:27.665 (  14.117s) [        2146C480]     memory_instance.cc:57       1| MemoryInstance::getDevice
2025-10-23 04:30:27.665 (  14.117s) [        2146C480]      event_instance.cc:222      1| EventInstance::PJRT_Event_OnReady
2025-10-23 04:30:27.665 (  14.117s) [        2146C480]      event_instance.cc:171      1| EventInstance::PJRT_Event_Destroy
2025-10-23 04:30:27.665 (  14.117s) [        2146C480]     device_instance.cc:82       1| DeviceInstance::PJRT_Device_DefaultMemory
2025-10-23 04:30:27.665 (  14.117s) [        2146C480]     client_instance.cc:641      1| ClientInstance::PJRT_Client_BufferFromHostBuffer
2025-10-23 04:30:27.665 (  14.117s) [        2146C480]     memory_instance.cc:57       1| MemoryInstance::getDevice
2025-10-23 04:30:27.665 (  14.117s) [        2146C480]      event_instance.cc:222      1| EventInstance::PJRT_Event_OnReady
2025-10-23 04:30:27.665 (  14.117s) [        2146C480]      event_instance.cc:171      1| EventInstance::PJRT_Event_Destroy
2025-10-23 04:30:27.665 (  14.117s) [        2146C480]     device_instance.cc:82       1| DeviceInstance::PJRT_Device_DefaultMemory
2025-10-23 04:30:27.665 (  14.117s) [        2146C480]     client_instance.cc:641      1| ClientInstance::PJRT_Client_BufferFromHostBuffer
2025-10-23 04:30:27.665 (  14.117s) [        2146C480]     memory_instance.cc:57       1| MemoryInstance::getDevice
2025-10-23 04:30:27.665 (  14.117s) [        2146C480]      event_instance.cc:222      1| EventInstance::PJRT_Event_OnReady
2025-10-23 04:30:27.665 (  14.117s) [        2146C480]      event_instance.cc:171      1| EventInstance::PJRT_Event_Destroy
2025-10-23 04:30:27.665 (  14.117s) [        2146C480]     device_instance.cc:82       1| DeviceInstance::PJRT_Device_DefaultMemory
2025-10-23 04:30:27.665 (  14.117s) [        2146C480]     client_instance.cc:641      1| ClientInstance::PJRT_Client_BufferFromHostBuffer
2025-10-23 04:30:27.665 (  14.117s) [        2146C480]     memory_instance.cc:57       1| MemoryInstance::getDevice
2025-10-23 04:30:27.665 (  14.117s) [        2146C480]      event_instance.cc:222      1| EventInstance::PJRT_Event_OnReady
2025-10-23 04:30:27.665 (  14.117s) [        2146C480]      event_instance.cc:171      1| EventInstance::PJRT_Event_Destroy
2025-10-23 04:30:27.665 (  14.117s) [        2146C480]     device_instance.cc:82       1| DeviceInstance::PJRT_Device_DefaultMemory
2025-10-23 04:30:27.665 (  14.117s) [        2146C480]     client_instance.cc:641      1| ClientInstance::PJRT_Client_BufferFromHostBuffer
2025-10-23 04:30:27.665 (  14.117s) [        2146C480]     memory_instance.cc:57       1| MemoryInstance::getDevice
2025-10-23 04:30:27.665 (  14.117s) [        2146C480]      event_instance.cc:222      1| EventInstance::PJRT_Event_OnReady
2025-10-23 04:30:27.665 (  14.117s) [        2146C480]      event_instance.cc:171      1| EventInstance::PJRT_Event_Destroy
2025-10-23 04:30:27.666 (  14.118s) [        2146C480]  device_description.cc:44       1| DeviceDescription::PJRT_DeviceDescription_Id
2025-10-23 04:30:27.666 (  14.118s) [        2146C480]  device_description.cc:44       1| DeviceDescription::PJRT_DeviceDescription_Id
2025-10-23 04:30:27.666 (  14.118s) [        2146C480]  device_description.cc:44       1| DeviceDescription::PJRT_DeviceDescription_Id
2025-10-23 04:30:27.666 (  14.118s) [        2146C480]  device_description.cc:44       1| DeviceDescription::PJRT_DeviceDescription_Id
2025-10-23 04:30:27.666 (  14.118s) [        2146C480]  device_description.cc:44       1| DeviceDescription::PJRT_DeviceDescription_Id
2025-10-23 04:30:27.666 (  14.118s) [        2146C480]  device_description.cc:44       1| DeviceDescription::PJRT_DeviceDescription_Id
2025-10-23 04:30:27.666 (  14.118s) [        2146C480]  device_description.cc:44       1| DeviceDescription::PJRT_DeviceDescription_Id
2025-10-23 04:30:27.666 (  14.118s) [        2146C480]  device_description.cc:44       1| DeviceDescription::PJRT_DeviceDescription_Id
2025-10-23 04:30:27.670 (  14.122s) [        2146C480]     device_instance.cc:82       1| DeviceInstance::PJRT_Device_DefaultMemory
2025-10-23 04:30:27.670 (  14.122s) [        2146C480]     client_instance.cc:641      1| ClientInstance::PJRT_Client_BufferFromHostBuffer
2025-10-23 04:30:27.670 (  14.122s) [        2146C480]     memory_instance.cc:57       1| MemoryInstance::getDevice
2025-10-23 04:30:27.670 (  14.122s) [        2146C480]      event_instance.cc:222      1| EventInstance::PJRT_Event_OnReady
2025-10-23 04:30:27.670 (  14.122s) [        2146C480]      event_instance.cc:171      1| EventInstance::PJRT_Event_Destroy
2025-10-23 04:30:27.670 (  14.122s) [        2146C480]     device_instance.cc:82       1| DeviceInstance::PJRT_Device_DefaultMemory
2025-10-23 04:30:27.670 (  14.122s) [        2146C480]     client_instance.cc:641      1| ClientInstance::PJRT_Client_BufferFromHostBuffer
2025-10-23 04:30:27.670 (  14.122s) [        2146C480]     memory_instance.cc:57       1| MemoryInstance::getDevice
2025-10-23 04:30:27.670 (  14.122s) [        2146C480]      event_instance.cc:222      1| EventInstance::PJRT_Event_OnReady
2025-10-23 04:30:27.670 (  14.122s) [        2146C480]      event_instance.cc:171      1| EventInstance::PJRT_Event_Destroy
2025-10-23 04:30:27.670 (  14.122s) [        2146C480]     device_instance.cc:82       1| DeviceInstance::PJRT_Device_DefaultMemory
2025-10-23 04:30:27.670 (  14.122s) [        2146C480]     client_instance.cc:641      1| ClientInstance::PJRT_Client_BufferFromHostBuffer
2025-10-23 04:30:27.670 (  14.122s) [        2146C480]     memory_instance.cc:57       1| MemoryInstance::getDevice
2025-10-23 04:30:27.670 (  14.122s) [        2146C480]      event_instance.cc:222      1| EventInstance::PJRT_Event_OnReady
2025-10-23 04:30:27.670 (  14.122s) [        2146C480]      event_instance.cc:171      1| EventInstance::PJRT_Event_Destroy
2025-10-23 04:30:27.670 (  14.122s) [        2146C480]     device_instance.cc:82       1| DeviceInstance::PJRT_Device_DefaultMemory
2025-10-23 04:30:27.670 (  14.122s) [        2146C480]     client_instance.cc:641      1| ClientInstance::PJRT_Client_BufferFromHostBuffer
2025-10-23 04:30:27.670 (  14.122s) [        2146C480]     memory_instance.cc:57       1| MemoryInstance::getDevice
2025-10-23 04:30:27.670 (  14.122s) [        2146C480]      event_instance.cc:222      1| EventInstance::PJRT_Event_OnReady
2025-10-23 04:30:27.670 (  14.122s) [        2146C480]      event_instance.cc:171      1| EventInstance::PJRT_Event_Destroy
2025-10-23 04:30:27.670 (  14.122s) [        2146C480]     device_instance.cc:82       1| DeviceInstance::PJRT_Device_DefaultMemory
2025-10-23 04:30:27.670 (  14.122s) [        2146C480]     client_instance.cc:641      1| ClientInstance::PJRT_Client_BufferFromHostBuffer
2025-10-23 04:30:27.670 (  14.122s) [        2146C480]     memory_instance.cc:57       1| MemoryInstance::getDevice
2025-10-23 04:30:27.670 (  14.122s) [        2146C480]      event_instance.cc:222      1| EventInstance::PJRT_Event_OnReady
2025-10-23 04:30:27.670 (  14.122s) [        2146C480]      event_instance.cc:171      1| EventInstance::PJRT_Event_Destroy
2025-10-23 04:30:27.671 (  14.122s) [        2146C480]     device_instance.cc:82       1| DeviceInstance::PJRT_Device_DefaultMemory
2025-10-23 04:30:27.671 (  14.122s) [        2146C480]     client_instance.cc:641      1| ClientInstance::PJRT_Client_BufferFromHostBuffer
2025-10-23 04:30:27.671 (  14.122s) [        2146C480]     memory_instance.cc:57       1| MemoryInstance::getDevice
2025-10-23 04:30:27.671 (  14.122s) [        2146C480]      event_instance.cc:222      1| EventInstance::PJRT_Event_OnReady
2025-10-23 04:30:27.671 (  14.122s) [        2146C480]      event_instance.cc:171      1| EventInstance::PJRT_Event_Destroy
2025-10-23 04:30:27.671 (  14.122s) [        2146C480]     device_instance.cc:82       1| DeviceInstance::PJRT_Device_DefaultMemory
2025-10-23 04:30:27.671 (  14.122s) [        2146C480]     client_instance.cc:641      1| ClientInstance::PJRT_Client_BufferFromHostBuffer
2025-10-23 04:30:27.671 (  14.122s) [        2146C480]     memory_instance.cc:57       1| MemoryInstance::getDevice
2025-10-23 04:30:27.671 (  14.122s) [        2146C480]      event_instance.cc:222      1| EventInstance::PJRT_Event_OnReady
2025-10-23 04:30:27.671 (  14.122s) [        2146C480]      event_instance.cc:171      1| EventInstance::PJRT_Event_Destroy
2025-10-23 04:30:27.671 (  14.122s) [        2146C480]     device_instance.cc:82       1| DeviceInstance::PJRT_Device_DefaultMemory
2025-10-23 04:30:27.671 (  14.123s) [        2146C480]     client_instance.cc:641      1| ClientInstance::PJRT_Client_BufferFromHostBuffer
2025-10-23 04:30:27.671 (  14.123s) [        2146C480]     memory_instance.cc:57       1| MemoryInstance::getDevice
2025-10-23 04:30:27.671 (  14.123s) [        2146C480]      event_instance.cc:222      1| EventInstance::PJRT_Event_OnReady
2025-10-23 04:30:27.671 (  14.123s) [        2146C480]      event_instance.cc:171      1| EventInstance::PJRT_Event_Destroy
2025-10-23 04:30:27.671 (  14.123s) [        2146C480]  device_description.cc:44       1| DeviceDescription::PJRT_DeviceDescription_Id
2025-10-23 04:30:27.671 (  14.123s) [        2146C480]  device_description.cc:44       1| DeviceDescription::PJRT_DeviceDescription_Id
2025-10-23 04:30:27.671 (  14.123s) [        2146C480]  device_description.cc:44       1| DeviceDescription::PJRT_DeviceDescription_Id
2025-10-23 04:30:27.671 (  14.123s) [        2146C480]  device_description.cc:44       1| DeviceDescription::PJRT_DeviceDescription_Id
2025-10-23 04:30:27.671 (  14.123s) [        2146C480]  device_description.cc:44       1| DeviceDescription::PJRT_DeviceDescription_Id
2025-10-23 04:30:27.671 (  14.123s) [        2146C480]  device_description.cc:44       1| DeviceDescription::PJRT_DeviceDescription_Id
2025-10-23 04:30:27.671 (  14.123s) [        2146C480]  device_description.cc:44       1| DeviceDescription::PJRT_DeviceDescription_Id
2025-10-23 04:30:27.671 (  14.123s) [        2146C480]  device_description.cc:44       1| DeviceDescription::PJRT_DeviceDescription_Id
2025-10-23 04:30:27.671 (  14.123s) [        2146C480]     device_instance.cc:82       1| DeviceInstance::PJRT_Device_DefaultMemory
2025-10-23 04:30:27.671 (  14.123s) [        2146C480]     client_instance.cc:641      1| ClientInstance::PJRT_Client_BufferFromHostBuffer
2025-10-23 04:30:27.671 (  14.123s) [        2146C480]     memory_instance.cc:57       1| MemoryInstance::getDevice
2025-10-23 04:30:27.672 (  14.123s) [        2146C480]      event_instance.cc:222      1| EventInstance::PJRT_Event_OnReady
2025-10-23 04:30:27.672 (  14.123s) [        2146C480]      event_instance.cc:171      1| EventInstance::PJRT_Event_Destroy
2025-10-23 04:30:27.672 (  14.123s) [        2146C480]     device_instance.cc:82       1| DeviceInstance::PJRT_Device_DefaultMemory
2025-10-23 04:30:27.672 (  14.123s) [        2146C480]     client_instance.cc:641      1| ClientInstance::PJRT_Client_BufferFromHostBuffer
2025-10-23 04:30:27.672 (  14.123s) [        2146C480]     memory_instance.cc:57       1| MemoryInstance::getDevice
2025-10-23 04:30:27.672 (  14.123s) [        2146C480]      event_instance.cc:222      1| EventInstance::PJRT_Event_OnReady
2025-10-23 04:30:27.672 (  14.123s) [        2146C480]      event_instance.cc:171      1| EventInstance::PJRT_Event_Destroy
2025-10-23 04:30:27.672 (  14.123s) [        2146C480]     device_instance.cc:82       1| DeviceInstance::PJRT_Device_DefaultMemory
2025-10-23 04:30:27.672 (  14.123s) [        2146C480]     client_instance.cc:641      1| ClientInstance::PJRT_Client_BufferFromHostBuffer
2025-10-23 04:30:27.672 (  14.123s) [        2146C480]     memory_instance.cc:57       1| MemoryInstance::getDevice
2025-10-23 04:30:27.672 (  14.124s) [        2146C480]      event_instance.cc:222      1| EventInstance::PJRT_Event_OnReady
2025-10-23 04:30:27.672 (  14.124s) [        2146C480]      event_instance.cc:171      1| EventInstance::PJRT_Event_Destroy
2025-10-23 04:30:27.672 (  14.124s) [        2146C480]     device_instance.cc:82       1| DeviceInstance::PJRT_Device_DefaultMemory
2025-10-23 04:30:27.672 (  14.124s) [        2146C480]     client_instance.cc:641      1| ClientInstance::PJRT_Client_BufferFromHostBuffer
2025-10-23 04:30:27.672 (  14.124s) [        2146C480]     memory_instance.cc:57       1| MemoryInstance::getDevice
2025-10-23 04:30:27.672 (  14.124s) [        2146C480]      event_instance.cc:222      1| EventInstance::PJRT_Event_OnReady
2025-10-23 04:30:27.672 (  14.124s) [        2146C480]      event_instance.cc:171      1| EventInstance::PJRT_Event_Destroy
2025-10-23 04:30:27.672 (  14.124s) [        2146C480]     device_instance.cc:82       1| DeviceInstance::PJRT_Device_DefaultMemory
2025-10-23 04:30:27.672 (  14.124s) [        2146C480]     client_instance.cc:641      1| ClientInstance::PJRT_Client_BufferFromHostBuffer
2025-10-23 04:30:27.672 (  14.124s) [        2146C480]     memory_instance.cc:57       1| MemoryInstance::getDevice
2025-10-23 04:30:27.672 (  14.124s) [        2146C480]      event_instance.cc:222      1| EventInstance::PJRT_Event_OnReady
2025-10-23 04:30:27.672 (  14.124s) [        2146C480]      event_instance.cc:171      1| EventInstance::PJRT_Event_Destroy
2025-10-23 04:30:27.672 (  14.124s) [        2146C480]     device_instance.cc:82       1| DeviceInstance::PJRT_Device_DefaultMemory
2025-10-23 04:30:27.672 (  14.124s) [        2146C480]     client_instance.cc:641      1| ClientInstance::PJRT_Client_BufferFromHostBuffer
2025-10-23 04:30:27.672 (  14.124s) [        2146C480]     memory_instance.cc:57       1| MemoryInstance::getDevice
2025-10-23 04:30:27.672 (  14.124s) [        2146C480]      event_instance.cc:222      1| EventInstance::PJRT_Event_OnReady
2025-10-23 04:30:27.672 (  14.124s) [        2146C480]      event_instance.cc:171      1| EventInstance::PJRT_Event_Destroy
2025-10-23 04:30:27.672 (  14.124s) [        2146C480]     device_instance.cc:82       1| DeviceInstance::PJRT_Device_DefaultMemory
2025-10-23 04:30:27.672 (  14.124s) [        2146C480]     client_instance.cc:641      1| ClientInstance::PJRT_Client_BufferFromHostBuffer
2025-10-23 04:30:27.672 (  14.124s) [        2146C480]     memory_instance.cc:57       1| MemoryInstance::getDevice
2025-10-23 04:30:27.672 (  14.124s) [        2146C480]      event_instance.cc:222      1| EventInstance::PJRT_Event_OnReady
2025-10-23 04:30:27.672 (  14.124s) [        2146C480]      event_instance.cc:171      1| EventInstance::PJRT_Event_Destroy
2025-10-23 04:30:27.672 (  14.124s) [        2146C480]     device_instance.cc:82       1| DeviceInstance::PJRT_Device_DefaultMemory
2025-10-23 04:30:27.672 (  14.124s) [        2146C480]     client_instance.cc:641      1| ClientInstance::PJRT_Client_BufferFromHostBuffer
2025-10-23 04:30:27.672 (  14.124s) [        2146C480]     memory_instance.cc:57       1| MemoryInstance::getDevice
2025-10-23 04:30:27.672 (  14.124s) [        2146C480]      event_instance.cc:222      1| EventInstance::PJRT_Event_OnReady
2025-10-23 04:30:27.672 (  14.124s) [        2146C480]      event_instance.cc:171      1| EventInstance::PJRT_Event_Destroy
2025-10-23 04:30:27.673 (  14.124s) [        2146C480]     buffer_instance.cc:483      1| BufferInstance::PJRT_Buffer_IsDeleted
2025-10-23 04:30:27.673 (  14.124s) [        2146C480]     buffer_instance.cc:483      1| BufferInstance::PJRT_Buffer_IsDeleted
2025-10-23 04:30:27.673 (  14.124s) [        2146C480]     buffer_instance.cc:483      1| BufferInstance::PJRT_Buffer_IsDeleted
2025-10-23 04:30:27.673 (  14.124s) [        2146C480]     buffer_instance.cc:483      1| BufferInstance::PJRT_Buffer_IsDeleted
2025-10-23 04:30:27.673 (  14.124s) [        2146C480]     buffer_instance.cc:483      1| BufferInstance::PJRT_Buffer_IsDeleted
2025-10-23 04:30:27.673 (  14.124s) [        2146C480]     buffer_instance.cc:483      1| BufferInstance::PJRT_Buffer_IsDeleted
2025-10-23 04:30:27.673 (  14.124s) [        2146C480]     buffer_instance.cc:483      1| BufferInstance::PJRT_Buffer_IsDeleted
2025-10-23 04:30:27.673 (  14.124s) [        2146C480]     buffer_instance.cc:483      1| BufferInstance::PJRT_Buffer_IsDeleted
2025-10-23 04:30:27.673 (  14.124s) [        2146C480]     buffer_instance.cc:483      1| BufferInstance::PJRT_Buffer_IsDeleted
2025-10-23 04:30:27.673 (  14.124s) [        2146C480]     buffer_instance.cc:483      1| BufferInstance::PJRT_Buffer_IsDeleted
2025-10-23 04:30:27.673 (  14.124s) [        2146C480]     buffer_instance.cc:483      1| BufferInstance::PJRT_Buffer_IsDeleted
2025-10-23 04:30:27.673 (  14.124s) [        2146C480]     buffer_instance.cc:483      1| BufferInstance::PJRT_Buffer_IsDeleted
2025-10-23 04:30:27.673 (  14.124s) [        2146C480]     buffer_instance.cc:483      1| BufferInstance::PJRT_Buffer_IsDeleted
2025-10-23 04:30:27.673 (  14.125s) [        2146C480]     buffer_instance.cc:483      1| BufferInstance::PJRT_Buffer_IsDeleted
2025-10-23 04:30:27.673 (  14.125s) [        2146C480]     buffer_instance.cc:483      1| BufferInstance::PJRT_Buffer_IsDeleted
2025-10-23 04:30:27.673 (  14.125s) [        2146C480]     buffer_instance.cc:483      1| BufferInstance::PJRT_Buffer_IsDeleted
2025-10-23 04:30:27.673 (  14.125s) [        2146C480]     buffer_instance.cc:483      1| BufferInstance::PJRT_Buffer_IsDeleted
2025-10-23 04:30:27.673 (  14.125s) [        2146C480]     buffer_instance.cc:483      1| BufferInstance::PJRT_Buffer_IsDeleted
2025-10-23 04:30:27.673 (  14.125s) [        2146C480]     buffer_instance.cc:483      1| BufferInstance::PJRT_Buffer_IsDeleted
2025-10-23 04:30:27.673 (  14.125s) [        2146C480]     buffer_instance.cc:483      1| BufferInstance::PJRT_Buffer_IsDeleted
2025-10-23 04:30:27.673 (  14.125s) [        2146C480]     buffer_instance.cc:483      1| BufferInstance::PJRT_Buffer_IsDeleted
2025-10-23 04:30:27.673 (  14.125s) [        2146C480]     buffer_instance.cc:483      1| BufferInstance::PJRT_Buffer_IsDeleted
2025-10-23 04:30:27.673 (  14.125s) [        2146C480]     buffer_instance.cc:483      1| BufferInstance::PJRT_Buffer_IsDeleted
2025-10-23 04:30:27.673 (  14.125s) [        2146C480]     buffer_instance.cc:483      1| BufferInstance::PJRT_Buffer_IsDeleted
2025-10-23 04:30:27.673 (  14.125s) [        2146C480]     buffer_instance.cc:483      1| BufferInstance::PJRT_Buffer_IsDeleted
2025-10-23 04:30:27.673 (  14.125s) [        2146C480]     buffer_instance.cc:483      1| BufferInstance::PJRT_Buffer_IsDeleted
2025-10-23 04:30:27.673 (  14.125s) [        2146C480]     buffer_instance.cc:483      1| BufferInstance::PJRT_Buffer_IsDeleted
2025-10-23 04:30:27.673 (  14.125s) [        2146C480]     buffer_instance.cc:483      1| BufferInstance::PJRT_Buffer_IsDeleted
2025-10-23 04:30:27.673 (  14.125s) [        2146C480]     buffer_instance.cc:483      1| BufferInstance::PJRT_Buffer_IsDeleted
2025-10-23 04:30:27.673 (  14.125s) [        2146C480]     buffer_instance.cc:483      1| BufferInstance::PJRT_Buffer_IsDeleted
2025-10-23 04:30:27.673 (  14.125s) [        2146C480]     buffer_instance.cc:483      1| BufferInstance::PJRT_Buffer_IsDeleted
2025-10-23 04:30:27.673 (  14.125s) [        2146C480]     buffer_instance.cc:483      1| BufferInstance::PJRT_Buffer_IsDeleted
2025-10-23 04:30:27.673 (  14.125s) [        2146C480]     buffer_instance.cc:483      1| BufferInstance::PJRT_Buffer_IsDeleted
2025-10-23 04:30:27.673 (  14.125s) [        2146C480]     buffer_instance.cc:483      1| BufferInstance::PJRT_Buffer_IsDeleted
2025-10-23 04:30:27.673 (  14.125s) [        2146C480]     buffer_instance.cc:483      1| BufferInstance::PJRT_Buffer_IsDeleted
2025-10-23 04:30:27.673 (  14.125s) [        2146C480]     buffer_instance.cc:483      1| BufferInstance::PJRT_Buffer_IsDeleted
2025-10-23 04:30:27.673 (  14.125s) [        2146C480]     buffer_instance.cc:483      1| BufferInstance::PJRT_Buffer_IsDeleted
2025-10-23 04:30:27.673 (  14.125s) [        2146C480]     buffer_instance.cc:483      1| BufferInstance::PJRT_Buffer_IsDeleted
2025-10-23 04:30:27.673 (  14.125s) [        2146C480]     buffer_instance.cc:483      1| BufferInstance::PJRT_Buffer_IsDeleted
2025-10-23 04:30:27.673 (  14.125s) [        2146C480]     buffer_instance.cc:483      1| BufferInstance::PJRT_Buffer_IsDeleted
2025-10-23 04:30:27.673 (  14.125s) [        2146C480]     buffer_instance.cc:483      1| BufferInstance::PJRT_Buffer_IsDeleted
2025-10-23 04:30:27.673 (  14.125s) [        2146C480]     buffer_instance.cc:483      1| BufferInstance::PJRT_Buffer_IsDeleted
2025-10-23 04:30:27.673 (  14.125s) [        2146C480]     buffer_instance.cc:483      1| BufferInstance::PJRT_Buffer_IsDeleted
2025-10-23 04:30:27.673 (  14.125s) [        2146C480]     buffer_instance.cc:483      1| BufferInstance::PJRT_Buffer_IsDeleted
2025-10-23 04:30:27.673 (  14.125s) [        2146C480]     buffer_instance.cc:483      1| BufferInstance::PJRT_Buffer_IsDeleted
2025-10-23 04:30:27.673 (  14.125s) [        2146C480]     buffer_instance.cc:483      1| BufferInstance::PJRT_Buffer_IsDeleted
2025-10-23 04:30:27.673 (  14.125s) [        2146C480]     buffer_instance.cc:483      1| BufferInstance::PJRT_Buffer_IsDeleted
2025-10-23 04:30:27.673 (  14.125s) [        2146C480]     buffer_instance.cc:483      1| BufferInstance::PJRT_Buffer_IsDeleted
2025-10-23 04:30:27.673 (  14.125s) [        2146C480]     buffer_instance.cc:483      1| BufferInstance::PJRT_Buffer_IsDeleted
2025-10-23 04:30:27.673 (  14.125s) [        2146C480]     buffer_instance.cc:483      1| BufferInstance::PJRT_Buffer_IsDeleted
2025-10-23 04:30:27.680 (  14.131s) [        2146C480]     client_instance.cc:598      1| ClientInstance::PJRT_Client_Compile
2025-10-23 04:30:27.680 (  14.132s) [        2146C480]      module_builder.cc:221      1| ModuleBuilder::buildModule
2025-10-23 04:30:27.681 (  14.133s) [        2146C480]      module_builder.cc:963      1| MLIR Module vhlo:
#loc1 = loc("p0.1")
#loc2 = loc("p1.2")
#loc3 = loc("p2.4")
#loc4 = loc("p3.5")
#loc5 = loc("p4.7")
module @SyncTensorsGraph.27 attributes {mhlo.cross_program_prefetches = [], mhlo.frontend_attributes = {xla.sdy.meshes = "{mesh = #sdy.mesh<[\22_axis_0\22=8]>}"}, mhlo.input_output_alias = [], mhlo.is_dynamic = false, mhlo.use_auto_spmd_partitioning = false} {
  vhlo.func_v1 @main(%arg0: !vhlo.tensor_v1<2048x!vhlo.bf16_v1> loc("p0.1"), %arg1: !vhlo.tensor_v1<2048x2048x!vhlo.bf16_v1> loc("p1.2"), %arg2: !vhlo.tensor_v1<2048x!vhlo.bf16_v1> loc("p2.4"), %arg3: !vhlo.tensor_v1<2048x2048x!vhlo.bf16_v1> loc("p3.5"), %arg4: !vhlo.tensor_v1<2048x2048x!vhlo.bf16_v1> loc("p4.7")) -> (!vhlo.tensor_v1<2048x2048x!vhlo.bf16_v1>) {
    %0 = "vhlo.constant_v1"() <{value = #vhlo.tensor_v1<dense<0.000000e+00> : tensor<bf16>>}> : () -> !vhlo.tensor_v1<!vhlo.bf16_v1> loc(#loc)
    %1 = "vhlo.broadcast_in_dim_v1"(%0) <{broadcast_dimensions = #vhlo.tensor_v1<dense<> : tensor<0xi64>>}> : (!vhlo.tensor_v1<!vhlo.bf16_v1>) -> !vhlo.tensor_v1<2048x2048x!vhlo.bf16_v1> loc(#loc)
    %2 = "vhlo.transpose_v1"(%arg3) <{permutation = #vhlo.tensor_v1<dense<[1, 0]> : tensor<2xi64>>}> {result_layout = #vhlo.tensor_v1<dense<[0, 1]> : tensor<2xindex>>, xla_shape = #vhlo.string_v1<"bf16[2048,2048]{0,1}">} : (!vhlo.tensor_v1<2048x2048x!vhlo.bf16_v1>) -> !vhlo.tensor_v1<2048x2048x!vhlo.bf16_v1> loc(#loc6)
    %3 = "vhlo.dot_general_v2"(%arg4, %2) <{accumulation_type = #vhlo.type_v1<!vhlo.none_v1>, allow_imprecise_accumulation = #vhlo.type_v1<!vhlo.none_v1>, lhs_batching_dimensions = #vhlo.tensor_v1<dense<> : tensor<0xi64>>, lhs_component_count = #vhlo.type_v1<!vhlo.none_v1>, lhs_contracting_dimensions = #vhlo.tensor_v1<dense<1> : tensor<1xi64>>, lhs_precision_type = #vhlo.type_v1<!vhlo.none_v1>, num_primitive_operations = #vhlo.type_v1<!vhlo.none_v1>, precision_config = #vhlo.array_v1<[#vhlo<precision_v1 DEFAULT>, #vhlo<precision_v1 DEFAULT>]>, rhs_batching_dimensions = #vhlo.tensor_v1<dense<> : tensor<0xi64>>, rhs_component_count = #vhlo.type_v1<!vhlo.none_v1>, rhs_contracting_dimensions = #vhlo.tensor_v1<dense<0> : tensor<1xi64>>, rhs_precision_type = #vhlo.type_v1<!vhlo.none_v1>}> : (!vhlo.tensor_v1<2048x2048x!vhlo.bf16_v1>, !vhlo.tensor_v1<2048x2048x!vhlo.bf16_v1>) -> !vhlo.tensor_v1<2048x2048x!vhlo.bf16_v1> loc(#loc7)
    %4 = "vhlo.broadcast_in_dim_v1"(%arg2) <{broadcast_dimensions = #vhlo.tensor_v1<dense<1> : tensor<1xi64>>}> : (!vhlo.tensor_v1<2048x!vhlo.bf16_v1>) -> !vhlo.tensor_v1<2048x2048x!vhlo.bf16_v1> loc(#loc8)
    %5 = "vhlo.add_v1"(%3, %4) : (!vhlo.tensor_v1<2048x2048x!vhlo.bf16_v1>, !vhlo.tensor_v1<2048x2048x!vhlo.bf16_v1>) -> !vhlo.tensor_v1<2048x2048x!vhlo.bf16_v1> loc(#loc9)
    %6 = "vhlo.maximum_v1"(%5, %1) : (!vhlo.tensor_v1<2048x2048x!vhlo.bf16_v1>, !vhlo.tensor_v1<2048x2048x!vhlo.bf16_v1>) -> !vhlo.tensor_v1<2048x2048x!vhlo.bf16_v1> loc(#loc10)
    %7 = "vhlo.transpose_v1"(%arg1) <{permutation = #vhlo.tensor_v1<dense<[1, 0]> : tensor<2xi64>>}> {result_layout = #vhlo.tensor_v1<dense<[0, 1]> : tensor<2xindex>>, xla_shape = #vhlo.string_v1<"bf16[2048,2048]{0,1}">} : (!vhlo.tensor_v1<2048x2048x!vhlo.bf16_v1>) -> !vhlo.tensor_v1<2048x2048x!vhlo.bf16_v1> loc(#loc11)
    %8 = "vhlo.dot_general_v2"(%6, %7) <{accumulation_type = #vhlo.type_v1<!vhlo.none_v1>, allow_imprecise_accumulation = #vhlo.type_v1<!vhlo.none_v1>, lhs_batching_dimensions = #vhlo.tensor_v1<dense<> : tensor<0xi64>>, lhs_component_count = #vhlo.type_v1<!vhlo.none_v1>, lhs_contracting_dimensions = #vhlo.tensor_v1<dense<1> : tensor<1xi64>>, lhs_precision_type = #vhlo.type_v1<!vhlo.none_v1>, num_primitive_operations = #vhlo.type_v1<!vhlo.none_v1>, precision_config = #vhlo.array_v1<[#vhlo<precision_v1 DEFAULT>, #vhlo<precision_v1 DEFAULT>]>, rhs_batching_dimensions = #vhlo.tensor_v1<dense<> : tensor<0xi64>>, rhs_component_count = #vhlo.type_v1<!vhlo.none_v1>, rhs_contracting_dimensions = #vhlo.tensor_v1<dense<0> : tensor<1xi64>>, rhs_precision_type = #vhlo.type_v1<!vhlo.none_v1>}> : (!vhlo.tensor_v1<2048x2048x!vhlo.bf16_v1>, !vhlo.tensor_v1<2048x2048x!vhlo.bf16_v1>) -> !vhlo.tensor_v1<2048x2048x!vhlo.bf16_v1> loc(#loc12)
    %9 = "vhlo.broadcast_in_dim_v1"(%arg0) <{broadcast_dimensions = #vhlo.tensor_v1<dense<1> : tensor<1xi64>>}> : (!vhlo.tensor_v1<2048x!vhlo.bf16_v1>) -> !vhlo.tensor_v1<2048x2048x!vhlo.bf16_v1> loc(#loc13)
    %10 = "vhlo.add_v1"(%8, %9) : (!vhlo.tensor_v1<2048x2048x!vhlo.bf16_v1>, !vhlo.tensor_v1<2048x2048x!vhlo.bf16_v1>) -> !vhlo.tensor_v1<2048x2048x!vhlo.bf16_v1> loc(#loc14)
    %11 = "vhlo.maximum_v1"(%10, %1) : (!vhlo.tensor_v1<2048x2048x!vhlo.bf16_v1>, !vhlo.tensor_v1<2048x2048x!vhlo.bf16_v1>) -> !vhlo.tensor_v1<2048x2048x!vhlo.bf16_v1> loc(#loc15)
    "vhlo.return_v1"(%11) : (!vhlo.tensor_v1<2048x2048x!vhlo.bf16_v1>) -> () loc(#loc)
  } {arg_attrs = #vhlo.array_v1<[#vhlo.dict_v1<{#vhlo.string_v1<"mhlo.frontend_attributes"> = #vhlo.dict_v1<{#vhlo.string_v1<"xla.sdy.sharding"> = #vhlo.string_v1<"#sdy.sharding<@mesh, [{}]>">}>, #vhlo.string_v1<"mhlo.sharding"> = #vhlo.string_v1<"{replicated}">}>, #vhlo.dict_v1<{#vhlo.string_v1<"mhlo.frontend_attributes"> = #vhlo.dict_v1<{#vhlo.string_v1<"xla.sdy.sharding"> = #vhlo.string_v1<"#sdy.sharding<@mesh, [{}, {\22_axis_0\22}]>">}>, #vhlo.string_v1<"mhlo.sharding"> = #vhlo.string_v1<"{devices=[1,8]<=[8]}">}>, #vhlo.dict_v1<{#vhlo.string_v1<"mhlo.frontend_attributes"> = #vhlo.dict_v1<{#vhlo.string_v1<"xla.sdy.sharding"> = #vhlo.string_v1<"#sdy.sharding<@mesh, [{\22_axis_0\22}]>">}>, #vhlo.string_v1<"mhlo.sharding"> = #vhlo.string_v1<"{devices=[8]<=[8]}">}>, #vhlo.dict_v1<{#vhlo.string_v1<"mhlo.frontend_attributes"> = #vhlo.dict_v1<{#vhlo.string_v1<"xla.sdy.sharding"> = #vhlo.string_v1<"#sdy.sharding<@mesh, [{\22_axis_0\22}, {}]>">}>, #vhlo.string_v1<"mhlo.sharding"> = #vhlo.string_v1<"{devices=[8,1]<=[8]}">}>, #vhlo.dict_v1<{#vhlo.string_v1<"mhlo.frontend_attributes"> = #vhlo.dict_v1<{#vhlo.string_v1<"xla.sdy.sharding"> = #vhlo.string_v1<"#sdy.sharding<@mesh, [{}, {}]>">}>, #vhlo.string_v1<"mhlo.sharding"> = #vhlo.string_v1<"{replicated}">}>]>, res_attrs = #vhlo.array_v1<[]>, sym_visibility = #vhlo.string_v1<"">} loc(#loc)
} loc(#loc)
#loc = loc(unknown)
#loc6 = loc("transpose.6")
#loc7 = loc("dot.8")
#loc8 = loc("broadcast.12")
#loc9 = loc("add.13")
#loc10 = loc("maximum.16")
#loc11 = loc("transpose.3")
#loc12 = loc("dot.17")
#loc13 = loc("broadcast.21")
#loc14 = loc("add.22")
#loc15 = loc("maximum.25")
------------------ END OF MLIR MODULE ------------------
// -----// IR Dump Before VhloToVersionPass (vhlo-to-version) ('builtin.module' operation: @SyncTensorsGraph.27) //----- //
module @SyncTensorsGraph.27 attributes {mhlo.cross_program_prefetches = [], mhlo.frontend_attributes = {xla.sdy.meshes = "{mesh = #sdy.mesh<[\22_axis_0\22=8]>}"}, mhlo.input_output_alias = [], mhlo.is_dynamic = false, mhlo.use_auto_spmd_partitioning = false} {
  vhlo.func_v1 @main(%arg0: !vhlo.tensor_v1<2048x!vhlo.bf16_v1>, %arg1: !vhlo.tensor_v1<2048x2048x!vhlo.bf16_v1>, %arg2: !vhlo.tensor_v1<2048x!vhlo.bf16_v1>, %arg3: !vhlo.tensor_v1<2048x2048x!vhlo.bf16_v1>, %arg4: !vhlo.tensor_v1<2048x2048x!vhlo.bf16_v1>) -> (!vhlo.tensor_v1<2048x2048x!vhlo.bf16_v1>) {
    %0 = "vhlo.constant_v1"() <{value = #vhlo.tensor_v1<dense<0.000000e+00> : tensor<bf16>>}> : () -> !vhlo.tensor_v1<!vhlo.bf16_v1>
    %1 = "vhlo.broadcast_in_dim_v1"(%0) <{broadcast_dimensions = #vhlo.tensor_v1<dense<> : tensor<0xi64>>}> : (!vhlo.tensor_v1<!vhlo.bf16_v1>) -> !vhlo.tensor_v1<2048x2048x!vhlo.bf16_v1>
    %2 = "vhlo.transpose_v1"(%arg3) <{permutation = #vhlo.tensor_v1<dense<[1, 0]> : tensor<2xi64>>}> {result_layout = #vhlo.tensor_v1<dense<[0, 1]> : tensor<2xindex>>, xla_shape = #vhlo.string_v1<"bf16[2048,2048]{0,1}">} : (!vhlo.tensor_v1<2048x2048x!vhlo.bf16_v1>) -> !vhlo.tensor_v1<2048x2048x!vhlo.bf16_v1>
    %3 = "vhlo.dot_general_v2"(%arg4, %2) <{accumulation_type = #vhlo.type_v1<!vhlo.none_v1>, allow_imprecise_accumulation = #vhlo.type_v1<!vhlo.none_v1>, lhs_batching_dimensions = #vhlo.tensor_v1<dense<> : tensor<0xi64>>, lhs_component_count = #vhlo.type_v1<!vhlo.none_v1>, lhs_contracting_dimensions = #vhlo.tensor_v1<dense<1> : tensor<1xi64>>, lhs_precision_type = #vhlo.type_v1<!vhlo.none_v1>, num_primitive_operations = #vhlo.type_v1<!vhlo.none_v1>, precision_config = #vhlo.array_v1<[#vhlo<precision_v1 DEFAULT>, #vhlo<precision_v1 DEFAULT>]>, rhs_batching_dimensions = #vhlo.tensor_v1<dense<> : tensor<0xi64>>, rhs_component_count = #vhlo.type_v1<!vhlo.none_v1>, rhs_contracting_dimensions = #vhlo.tensor_v1<dense<0> : tensor<1xi64>>, rhs_precision_type = #vhlo.type_v1<!vhlo.none_v1>}> : (!vhlo.tensor_v1<2048x2048x!vhlo.bf16_v1>, !vhlo.tensor_v1<2048x2048x!vhlo.bf16_v1>) -> !vhlo.tensor_v1<2048x2048x!vhlo.bf16_v1>
    %4 = "vhlo.broadcast_in_dim_v1"(%arg2) <{broadcast_dimensions = #vhlo.tensor_v1<dense<1> : tensor<1xi64>>}> : (!vhlo.tensor_v1<2048x!vhlo.bf16_v1>) -> !vhlo.tensor_v1<2048x2048x!vhlo.bf16_v1>
    %5 = "vhlo.add_v1"(%3, %4) : (!vhlo.tensor_v1<2048x2048x!vhlo.bf16_v1>, !vhlo.tensor_v1<2048x2048x!vhlo.bf16_v1>) -> !vhlo.tensor_v1<2048x2048x!vhlo.bf16_v1>
    %6 = "vhlo.maximum_v1"(%5, %1) : (!vhlo.tensor_v1<2048x2048x!vhlo.bf16_v1>, !vhlo.tensor_v1<2048x2048x!vhlo.bf16_v1>) -> !vhlo.tensor_v1<2048x2048x!vhlo.bf16_v1>
    %7 = "vhlo.transpose_v1"(%arg1) <{permutation = #vhlo.tensor_v1<dense<[1, 0]> : tensor<2xi64>>}> {result_layout = #vhlo.tensor_v1<dense<[0, 1]> : tensor<2xindex>>, xla_shape = #vhlo.string_v1<"bf16[2048,2048]{0,1}">} : (!vhlo.tensor_v1<2048x2048x!vhlo.bf16_v1>) -> !vhlo.tensor_v1<2048x2048x!vhlo.bf16_v1>
    %8 = "vhlo.dot_general_v2"(%6, %7) <{accumulation_type = #vhlo.type_v1<!vhlo.none_v1>, allow_imprecise_accumulation = #vhlo.type_v1<!vhlo.none_v1>, lhs_batching_dimensions = #vhlo.tensor_v1<dense<> : tensor<0xi64>>, lhs_component_count = #vhlo.type_v1<!vhlo.none_v1>, lhs_contracting_dimensions = #vhlo.tensor_v1<dense<1> : tensor<1xi64>>, lhs_precision_type = #vhlo.type_v1<!vhlo.none_v1>, num_primitive_operations = #vhlo.type_v1<!vhlo.none_v1>, precision_config = #vhlo.array_v1<[#vhlo<precision_v1 DEFAULT>, #vhlo<precision_v1 DEFAULT>]>, rhs_batching_dimensions = #vhlo.tensor_v1<dense<> : tensor<0xi64>>, rhs_component_count = #vhlo.type_v1<!vhlo.none_v1>, rhs_contracting_dimensions = #vhlo.tensor_v1<dense<0> : tensor<1xi64>>, rhs_precision_type = #vhlo.type_v1<!vhlo.none_v1>}> : (!vhlo.tensor_v1<2048x2048x!vhlo.bf16_v1>, !vhlo.tensor_v1<2048x2048x!vhlo.bf16_v1>) -> !vhlo.tensor_v1<2048x2048x!vhlo.bf16_v1>
    %9 = "vhlo.broadcast_in_dim_v1"(%arg0) <{broadcast_dimensions = #vhlo.tensor_v1<dense<1> : tensor<1xi64>>}> : (!vhlo.tensor_v1<2048x!vhlo.bf16_v1>) -> !vhlo.tensor_v1<2048x2048x!vhlo.bf16_v1>
    %10 = "vhlo.add_v1"(%8, %9) : (!vhlo.tensor_v1<2048x2048x!vhlo.bf16_v1>, !vhlo.tensor_v1<2048x2048x!vhlo.bf16_v1>) -> !vhlo.tensor_v1<2048x2048x!vhlo.bf16_v1>
    %11 = "vhlo.maximum_v1"(%10, %1) : (!vhlo.tensor_v1<2048x2048x!vhlo.bf16_v1>, !vhlo.tensor_v1<2048x2048x!vhlo.bf16_v1>) -> !vhlo.tensor_v1<2048x2048x!vhlo.bf16_v1>
    "vhlo.return_v1"(%11) : (!vhlo.tensor_v1<2048x2048x!vhlo.bf16_v1>) -> ()
  } {arg_attrs = #vhlo.array_v1<[#vhlo.dict_v1<{#vhlo.string_v1<"mhlo.frontend_attributes"> = #vhlo.dict_v1<{#vhlo.string_v1<"xla.sdy.sharding"> = #vhlo.string_v1<"#sdy.sharding<@mesh, [{}]>">}>, #vhlo.string_v1<"mhlo.sharding"> = #vhlo.string_v1<"{replicated}">}>, #vhlo.dict_v1<{#vhlo.string_v1<"mhlo.frontend_attributes"> = #vhlo.dict_v1<{#vhlo.string_v1<"xla.sdy.sharding"> = #vhlo.string_v1<"#sdy.sharding<@mesh, [{}, {\22_axis_0\22}]>">}>, #vhlo.string_v1<"mhlo.sharding"> = #vhlo.string_v1<"{devices=[1,8]<=[8]}">}>, #vhlo.dict_v1<{#vhlo.string_v1<"mhlo.frontend_attributes"> = #vhlo.dict_v1<{#vhlo.string_v1<"xla.sdy.sharding"> = #vhlo.string_v1<"#sdy.sharding<@mesh, [{\22_axis_0\22}]>">}>, #vhlo.string_v1<"mhlo.sharding"> = #vhlo.string_v1<"{devices=[8]<=[8]}">}>, #vhlo.dict_v1<{#vhlo.string_v1<"mhlo.frontend_attributes"> = #vhlo.dict_v1<{#vhlo.string_v1<"xla.sdy.sharding"> = #vhlo.string_v1<"#sdy.sharding<@mesh, [{\22_axis_0\22}, {}]>">}>, #vhlo.string_v1<"mhlo.sharding"> = #vhlo.string_v1<"{devices=[8,1]<=[8]}">}>, #vhlo.dict_v1<{#vhlo.string_v1<"mhlo.frontend_attributes"> = #vhlo.dict_v1<{#vhlo.string_v1<"xla.sdy.sharding"> = #vhlo.string_v1<"#sdy.sharding<@mesh, [{}, {}]>">}>, #vhlo.string_v1<"mhlo.sharding"> = #vhlo.string_v1<"{replicated}">}>]>, res_attrs = #vhlo.array_v1<[]>, sym_visibility = #vhlo.string_v1<"">}
}


// -----// IR Dump Before VhloLegalizeToStablehloPass (vhlo-legalize-to-stablehlo) ('builtin.module' operation: @SyncTensorsGraph.27) //----- //
module @SyncTensorsGraph.27 attributes {mhlo.cross_program_prefetches = [], mhlo.frontend_attributes = {xla.sdy.meshes = "{mesh = #sdy.mesh<[\22_axis_0\22=8]>}"}, mhlo.input_output_alias = [], mhlo.is_dynamic = false, mhlo.use_auto_spmd_partitioning = false} {
  vhlo.func_v1 @main(%arg0: !vhlo.tensor_v1<2048x!vhlo.bf16_v1>, %arg1: !vhlo.tensor_v1<2048x2048x!vhlo.bf16_v1>, %arg2: !vhlo.tensor_v1<2048x!vhlo.bf16_v1>, %arg3: !vhlo.tensor_v1<2048x2048x!vhlo.bf16_v1>, %arg4: !vhlo.tensor_v1<2048x2048x!vhlo.bf16_v1>) -> (!vhlo.tensor_v1<2048x2048x!vhlo.bf16_v1>) {
    %0 = "vhlo.constant_v1"() <{value = #vhlo.tensor_v1<dense<0.000000e+00> : tensor<bf16>>}> : () -> !vhlo.tensor_v1<!vhlo.bf16_v1>
    %1 = "vhlo.broadcast_in_dim_v1"(%0) <{broadcast_dimensions = #vhlo.tensor_v1<dense<> : tensor<0xi64>>}> : (!vhlo.tensor_v1<!vhlo.bf16_v1>) -> !vhlo.tensor_v1<2048x2048x!vhlo.bf16_v1>
    %2 = "vhlo.transpose_v1"(%arg3) <{permutation = #vhlo.tensor_v1<dense<[1, 0]> : tensor<2xi64>>}> {result_layout = #vhlo.tensor_v1<dense<[0, 1]> : tensor<2xindex>>, xla_shape = #vhlo.string_v1<"bf16[2048,2048]{0,1}">} : (!vhlo.tensor_v1<2048x2048x!vhlo.bf16_v1>) -> !vhlo.tensor_v1<2048x2048x!vhlo.bf16_v1>
    %3 = "vhlo.dot_general_v2"(%arg4, %2) <{accumulation_type = #vhlo.type_v1<!vhlo.none_v1>, allow_imprecise_accumulation = #vhlo.type_v1<!vhlo.none_v1>, lhs_batching_dimensions = #vhlo.tensor_v1<dense<> : tensor<0xi64>>, lhs_component_count = #vhlo.type_v1<!vhlo.none_v1>, lhs_contracting_dimensions = #vhlo.tensor_v1<dense<1> : tensor<1xi64>>, lhs_precision_type = #vhlo.type_v1<!vhlo.none_v1>, num_primitive_operations = #vhlo.type_v1<!vhlo.none_v1>, precision_config = #vhlo.array_v1<[#vhlo<precision_v1 DEFAULT>, #vhlo<precision_v1 DEFAULT>]>, rhs_batching_dimensions = #vhlo.tensor_v1<dense<> : tensor<0xi64>>, rhs_component_count = #vhlo.type_v1<!vhlo.none_v1>, rhs_contracting_dimensions = #vhlo.tensor_v1<dense<0> : tensor<1xi64>>, rhs_precision_type = #vhlo.type_v1<!vhlo.none_v1>}> : (!vhlo.tensor_v1<2048x2048x!vhlo.bf16_v1>, !vhlo.tensor_v1<2048x2048x!vhlo.bf16_v1>) -> !vhlo.tensor_v1<2048x2048x!vhlo.bf16_v1>
    %4 = "vhlo.broadcast_in_dim_v1"(%arg2) <{broadcast_dimensions = #vhlo.tensor_v1<dense<1> : tensor<1xi64>>}> : (!vhlo.tensor_v1<2048x!vhlo.bf16_v1>) -> !vhlo.tensor_v1<2048x2048x!vhlo.bf16_v1>
    %5 = "vhlo.add_v1"(%3, %4) : (!vhlo.tensor_v1<2048x2048x!vhlo.bf16_v1>, !vhlo.tensor_v1<2048x2048x!vhlo.bf16_v1>) -> !vhlo.tensor_v1<2048x2048x!vhlo.bf16_v1>
    %6 = "vhlo.maximum_v1"(%5, %1) : (!vhlo.tensor_v1<2048x2048x!vhlo.bf16_v1>, !vhlo.tensor_v1<2048x2048x!vhlo.bf16_v1>) -> !vhlo.tensor_v1<2048x2048x!vhlo.bf16_v1>
    %7 = "vhlo.transpose_v1"(%arg1) <{permutation = #vhlo.tensor_v1<dense<[1, 0]> : tensor<2xi64>>}> {result_layout = #vhlo.tensor_v1<dense<[0, 1]> : tensor<2xindex>>, xla_shape = #vhlo.string_v1<"bf16[2048,2048]{0,1}">} : (!vhlo.tensor_v1<2048x2048x!vhlo.bf16_v1>) -> !vhlo.tensor_v1<2048x2048x!vhlo.bf16_v1>
    %8 = "vhlo.dot_general_v2"(%6, %7) <{accumulation_type = #vhlo.type_v1<!vhlo.none_v1>, allow_imprecise_accumulation = #vhlo.type_v1<!vhlo.none_v1>, lhs_batching_dimensions = #vhlo.tensor_v1<dense<> : tensor<0xi64>>, lhs_component_count = #vhlo.type_v1<!vhlo.none_v1>, lhs_contracting_dimensions = #vhlo.tensor_v1<dense<1> : tensor<1xi64>>, lhs_precision_type = #vhlo.type_v1<!vhlo.none_v1>, num_primitive_operations = #vhlo.type_v1<!vhlo.none_v1>, precision_config = #vhlo.array_v1<[#vhlo<precision_v1 DEFAULT>, #vhlo<precision_v1 DEFAULT>]>, rhs_batching_dimensions = #vhlo.tensor_v1<dense<> : tensor<0xi64>>, rhs_component_count = #vhlo.type_v1<!vhlo.none_v1>, rhs_contracting_dimensions = #vhlo.tensor_v1<dense<0> : tensor<1xi64>>, rhs_precision_type = #vhlo.type_v1<!vhlo.none_v1>}> : (!vhlo.tensor_v1<2048x2048x!vhlo.bf16_v1>, !vhlo.tensor_v1<2048x2048x!vhlo.bf16_v1>) -> !vhlo.tensor_v1<2048x2048x!vhlo.bf16_v1>
    %9 = "vhlo.broadcast_in_dim_v1"(%arg0) <{broadcast_dimensions = #vhlo.tensor_v1<dense<1> : tensor<1xi64>>}> : (!vhlo.tensor_v1<2048x!vhlo.bf16_v1>) -> !vhlo.tensor_v1<2048x2048x!vhlo.bf16_v1>
    %10 = "vhlo.add_v1"(%8, %9) : (!vhlo.tensor_v1<2048x2048x!vhlo.bf16_v1>, !vhlo.tensor_v1<2048x2048x!vhlo.bf16_v1>) -> !vhlo.tensor_v1<2048x2048x!vhlo.bf16_v1>
    %11 = "vhlo.maximum_v1"(%10, %1) : (!vhlo.tensor_v1<2048x2048x!vhlo.bf16_v1>, !vhlo.tensor_v1<2048x2048x!vhlo.bf16_v1>) -> !vhlo.tensor_v1<2048x2048x!vhlo.bf16_v1>
    "vhlo.return_v1"(%11) : (!vhlo.tensor_v1<2048x2048x!vhlo.bf16_v1>) -> ()
  } {arg_attrs = #vhlo.array_v1<[#vhlo.dict_v1<{#vhlo.string_v1<"mhlo.frontend_attributes"> = #vhlo.dict_v1<{#vhlo.string_v1<"xla.sdy.sharding"> = #vhlo.string_v1<"#sdy.sharding<@mesh, [{}]>">}>, #vhlo.string_v1<"mhlo.sharding"> = #vhlo.string_v1<"{replicated}">}>, #vhlo.dict_v1<{#vhlo.string_v1<"mhlo.frontend_attributes"> = #vhlo.dict_v1<{#vhlo.string_v1<"xla.sdy.sharding"> = #vhlo.string_v1<"#sdy.sharding<@mesh, [{}, {\22_axis_0\22}]>">}>, #vhlo.string_v1<"mhlo.sharding"> = #vhlo.string_v1<"{devices=[1,8]<=[8]}">}>, #vhlo.dict_v1<{#vhlo.string_v1<"mhlo.frontend_attributes"> = #vhlo.dict_v1<{#vhlo.string_v1<"xla.sdy.sharding"> = #vhlo.string_v1<"#sdy.sharding<@mesh, [{\22_axis_0\22}]>">}>, #vhlo.string_v1<"mhlo.sharding"> = #vhlo.string_v1<"{devices=[8]<=[8]}">}>, #vhlo.dict_v1<{#vhlo.string_v1<"mhlo.frontend_attributes"> = #vhlo.dict_v1<{#vhlo.string_v1<"xla.sdy.sharding"> = #vhlo.string_v1<"#sdy.sharding<@mesh, [{\22_axis_0\22}, {}]>">}>, #vhlo.string_v1<"mhlo.sharding"> = #vhlo.string_v1<"{devices=[8,1]<=[8]}">}>, #vhlo.dict_v1<{#vhlo.string_v1<"mhlo.frontend_attributes"> = #vhlo.dict_v1<{#vhlo.string_v1<"xla.sdy.sharding"> = #vhlo.string_v1<"#sdy.sharding<@mesh, [{}, {}]>">}>, #vhlo.string_v1<"mhlo.sharding"> = #vhlo.string_v1<"{replicated}">}>]>, res_attrs = #vhlo.array_v1<[]>, sym_visibility = #vhlo.string_v1<"">}
}


// -----// IR Dump After VhloLegalizeToStablehloPass (vhlo-legalize-to-stablehlo) ('builtin.module' operation: @SyncTensorsGraph.27) //----- //
module @SyncTensorsGraph.27 attributes {mhlo.cross_program_prefetches = [], mhlo.frontend_attributes = {xla.sdy.meshes = "{mesh = #sdy.mesh<[\22_axis_0\22=8]>}"}, mhlo.input_output_alias = [], mhlo.is_dynamic = false, mhlo.use_auto_spmd_partitioning = false} {
  func.func @main(%arg0: tensor<2048xbf16> {mhlo.frontend_attributes = {xla.sdy.sharding = "#sdy.sharding<@mesh, [{}]>"}, mhlo.sharding = "{replicated}"}, %arg1: tensor<2048x2048xbf16> {mhlo.frontend_attributes = {xla.sdy.sharding = "#sdy.sharding<@mesh, [{}, {\22_axis_0\22}]>"}, mhlo.sharding = "{devices=[1,8]<=[8]}"}, %arg2: tensor<2048xbf16> {mhlo.frontend_attributes = {xla.sdy.sharding = "#sdy.sharding<@mesh, [{\22_axis_0\22}]>"}, mhlo.sharding = "{devices=[8]<=[8]}"}, %arg3: tensor<2048x2048xbf16> {mhlo.frontend_attributes = {xla.sdy.sharding = "#sdy.sharding<@mesh, [{\22_axis_0\22}, {}]>"}, mhlo.sharding = "{devices=[8,1]<=[8]}"}, %arg4: tensor<2048x2048xbf16> {mhlo.frontend_attributes = {xla.sdy.sharding = "#sdy.sharding<@mesh, [{}, {}]>"}, mhlo.sharding = "{replicated}"}) -> tensor<2048x2048xbf16> {
    %cst = stablehlo.constant dense<0.000000e+00> : tensor<bf16>
    %0 = stablehlo.broadcast_in_dim %cst, dims = [] : (tensor<bf16>) -> tensor<2048x2048xbf16>
    %1 = stablehlo.transpose %arg3, dims = [1, 0] {result_layout = dense<[0, 1]> : tensor<2xindex>, xla_shape = "bf16[2048,2048]{0,1}"} : (tensor<2048x2048xbf16>) -> tensor<2048x2048xbf16>
    %2 = stablehlo.dot_general %arg4, %1, contracting_dims = [1] x [0] : (tensor<2048x2048xbf16>, tensor<2048x2048xbf16>) -> tensor<2048x2048xbf16>
    %3 = stablehlo.broadcast_in_dim %arg2, dims = [1] : (tensor<2048xbf16>) -> tensor<2048x2048xbf16>
    %4 = stablehlo.add %2, %3 : tensor<2048x2048xbf16>
    %5 = stablehlo.maximum %4, %0 : tensor<2048x2048xbf16>
    %6 = stablehlo.transpose %arg1, dims = [1, 0] {result_layout = dense<[0, 1]> : tensor<2xindex>, xla_shape = "bf16[2048,2048]{0,1}"} : (tensor<2048x2048xbf16>) -> tensor<2048x2048xbf16>
    %7 = stablehlo.dot_general %5, %6, contracting_dims = [1] x [0] : (tensor<2048x2048xbf16>, tensor<2048x2048xbf16>) -> tensor<2048x2048xbf16>
    %8 = stablehlo.broadcast_in_dim %arg0, dims = [1] : (tensor<2048xbf16>) -> tensor<2048x2048xbf16>
    %9 = stablehlo.add %7, %8 : tensor<2048x2048xbf16>
    %10 = stablehlo.maximum %9, %0 : tensor<2048x2048xbf16>
    return %10 : tensor<2048x2048xbf16>
  }
}


2025-10-23 04:30:27.687 (  14.139s) [        2146C480]      module_builder.cc:963      1| MLIR Module shlo:
#loc1 = loc("p0.1")
#loc2 = loc("p1.2")
#loc3 = loc("p2.4")
#loc4 = loc("p3.5")
#loc5 = loc("p4.7")
module @SyncTensorsGraph.27 attributes {mhlo.cross_program_prefetches = [], mhlo.frontend_attributes = {xla.sdy.meshes = "{mesh = #sdy.mesh<[\22_axis_0\22=8]>}"}, mhlo.input_output_alias = [], mhlo.is_dynamic = false, mhlo.use_auto_spmd_partitioning = false} {
  func.func @main(%arg0: tensor<2048xbf16> {mhlo.frontend_attributes = {xla.sdy.sharding = "#sdy.sharding<@mesh, [{}]>"}, mhlo.sharding = "{replicated}"} loc("p0.1"), %arg1: tensor<2048x2048xbf16> {mhlo.frontend_attributes = {xla.sdy.sharding = "#sdy.sharding<@mesh, [{}, {\22_axis_0\22}]>"}, mhlo.sharding = "{devices=[1,8]<=[8]}"} loc("p1.2"), %arg2: tensor<2048xbf16> {mhlo.frontend_attributes = {xla.sdy.sharding = "#sdy.sharding<@mesh, [{\22_axis_0\22}]>"}, mhlo.sharding = "{devices=[8]<=[8]}"} loc("p2.4"), %arg3: tensor<2048x2048xbf16> {mhlo.frontend_attributes = {xla.sdy.sharding = "#sdy.sharding<@mesh, [{\22_axis_0\22}, {}]>"}, mhlo.sharding = "{devices=[8,1]<=[8]}"} loc("p3.5"), %arg4: tensor<2048x2048xbf16> {mhlo.frontend_attributes = {xla.sdy.sharding = "#sdy.sharding<@mesh, [{}, {}]>"}, mhlo.sharding = "{replicated}"} loc("p4.7")) -> tensor<2048x2048xbf16> {
    %cst = stablehlo.constant dense<0.000000e+00> : tensor<bf16> loc(#loc)
    %0 = stablehlo.broadcast_in_dim %cst, dims = [] : (tensor<bf16>) -> tensor<2048x2048xbf16> loc(#loc)
    %1 = stablehlo.transpose %arg3, dims = [1, 0] {result_layout = dense<[0, 1]> : tensor<2xindex>, xla_shape = "bf16[2048,2048]{0,1}"} : (tensor<2048x2048xbf16>) -> tensor<2048x2048xbf16> loc(#loc6)
    %2 = stablehlo.dot_general %arg4, %1, contracting_dims = [1] x [0] : (tensor<2048x2048xbf16>, tensor<2048x2048xbf16>) -> tensor<2048x2048xbf16> loc(#loc7)
    %3 = stablehlo.broadcast_in_dim %arg2, dims = [1] : (tensor<2048xbf16>) -> tensor<2048x2048xbf16> loc(#loc8)
    %4 = stablehlo.add %2, %3 : tensor<2048x2048xbf16> loc(#loc9)
    %5 = stablehlo.maximum %4, %0 : tensor<2048x2048xbf16> loc(#loc10)
    %6 = stablehlo.transpose %arg1, dims = [1, 0] {result_layout = dense<[0, 1]> : tensor<2xindex>, xla_shape = "bf16[2048,2048]{0,1}"} : (tensor<2048x2048xbf16>) -> tensor<2048x2048xbf16> loc(#loc11)
    %7 = stablehlo.dot_general %5, %6, contracting_dims = [1] x [0] : (tensor<2048x2048xbf16>, tensor<2048x2048xbf16>) -> tensor<2048x2048xbf16> loc(#loc12)
    %8 = stablehlo.broadcast_in_dim %arg0, dims = [1] : (tensor<2048xbf16>) -> tensor<2048x2048xbf16> loc(#loc13)
    %9 = stablehlo.add %7, %8 : tensor<2048x2048xbf16> loc(#loc14)
    %10 = stablehlo.maximum %9, %0 : tensor<2048x2048xbf16> loc(#loc15)
    return %10 : tensor<2048x2048xbf16> loc(#loc)
  } loc(#loc)
} loc(#loc)
#loc = loc(unknown)
#loc6 = loc("transpose.6")
#loc7 = loc("dot.8")
#loc8 = loc("broadcast.12")
#loc9 = loc("add.13")
#loc10 = loc("maximum.16")
#loc11 = loc("transpose.3")
#loc12 = loc("dot.17")
#loc13 = loc("broadcast.21")
#loc14 = loc("add.22")
#loc15 = loc("maximum.25")
------------------ END OF MLIR MODULE ------------------
2025-10-23 04:30:27.689 (  14.141s) [        2146C480]      module_builder.cc:963      1| MLIR Module shlo_frontend:
#loc1 = loc("p0.1")
#loc2 = loc("p1.2")
#loc3 = loc("p2.4")
#loc4 = loc("p3.5")
#loc5 = loc("p4.7")
module @SyncTensorsGraph.27 attributes {mhlo.cross_program_prefetches = [], mhlo.frontend_attributes = {xla.sdy.meshes = "{mesh = #sdy.mesh<[\22_axis_0\22=8]>}"}, mhlo.input_output_alias = [], mhlo.is_dynamic = false, mhlo.use_auto_spmd_partitioning = false} {
  func.func @main(%arg0: tensor<2048xbf16> {mhlo.frontend_attributes = {xla.sdy.sharding = "#sdy.sharding<@mesh, [{}]>"}, mhlo.sharding = "{replicated}", ttcore.argument_type = #ttcore.argument_type<input>} loc("p0.1"), %arg1: tensor<2048x2048xbf16> {mhlo.frontend_attributes = {xla.sdy.sharding = "#sdy.sharding<@mesh, [{}, {\22_axis_0\22}]>"}, mhlo.sharding = "{devices=[1,8]<=[8]}", ttcore.argument_type = #ttcore.argument_type<input>} loc("p1.2"), %arg2: tensor<2048xbf16> {mhlo.frontend_attributes = {xla.sdy.sharding = "#sdy.sharding<@mesh, [{\22_axis_0\22}]>"}, mhlo.sharding = "{devices=[8]<=[8]}", ttcore.argument_type = #ttcore.argument_type<input>} loc("p2.4"), %arg3: tensor<2048x2048xbf16> {mhlo.frontend_attributes = {xla.sdy.sharding = "#sdy.sharding<@mesh, [{\22_axis_0\22}, {}]>"}, mhlo.sharding = "{devices=[8,1]<=[8]}", ttcore.argument_type = #ttcore.argument_type<input>} loc("p3.5"), %arg4: tensor<2048x2048xbf16> {mhlo.frontend_attributes = {xla.sdy.sharding = "#sdy.sharding<@mesh, [{}, {}]>"}, mhlo.sharding = "{replicated}", ttcore.argument_type = #ttcore.argument_type<input>} loc("p4.7")) -> tensor<2048x2048xbf16> {
    %cst = stablehlo.constant dense<0.000000e+00> : tensor<bf16> loc(#loc)
    %0 = stablehlo.broadcast_in_dim %cst, dims = [] : (tensor<bf16>) -> tensor<2048x2048xbf16> loc(#loc)
    %1 = stablehlo.transpose %arg3, dims = [1, 0] {result_layout = dense<[0, 1]> : tensor<2xindex>, xla_shape = "bf16[2048,2048]{0,1}"} : (tensor<2048x2048xbf16>) -> tensor<2048x2048xbf16> loc(#loc6)
    %2 = stablehlo.dot_general %arg4, %1, contracting_dims = [1] x [0] : (tensor<2048x2048xbf16>, tensor<2048x2048xbf16>) -> tensor<2048x2048xbf16> loc(#loc7)
    %3 = stablehlo.broadcast_in_dim %arg2, dims = [1] : (tensor<2048xbf16>) -> tensor<2048x2048xbf16> loc(#loc8)
    %4 = stablehlo.add %2, %3 : tensor<2048x2048xbf16> loc(#loc9)
    %5 = stablehlo.maximum %4, %0 : tensor<2048x2048xbf16> loc(#loc10)
    %6 = stablehlo.transpose %arg1, dims = [1, 0] {result_layout = dense<[0, 1]> : tensor<2xindex>, xla_shape = "bf16[2048,2048]{0,1}"} : (tensor<2048x2048xbf16>) -> tensor<2048x2048xbf16> loc(#loc11)
    %7 = stablehlo.dot_general %5, %6, contracting_dims = [1] x [0] : (tensor<2048x2048xbf16>, tensor<2048x2048xbf16>) -> tensor<2048x2048xbf16> loc(#loc12)
    %8 = stablehlo.broadcast_in_dim %arg0, dims = [1] : (tensor<2048xbf16>) -> tensor<2048x2048xbf16> loc(#loc13)
    %9 = stablehlo.add %7, %8 : tensor<2048x2048xbf16> loc(#loc14)
    %10 = stablehlo.maximum %9, %0 : tensor<2048x2048xbf16> loc(#loc15)
    return %10 : tensor<2048x2048xbf16> loc(#loc)
  } loc(#loc)
} loc(#loc)
#loc = loc(unknown)
#loc6 = loc("transpose.6")
#loc7 = loc("dot.8")
#loc8 = loc("broadcast.12")
#loc9 = loc("add.13")
#loc10 = loc("maximum.16")
#loc11 = loc("transpose.3")
#loc12 = loc("dot.17")
#loc13 = loc("broadcast.21")
#loc14 = loc("add.22")
#loc15 = loc("maximum.25")
------------------ END OF MLIR MODULE ------------------
// -----// IR Dump Before Inliner (inline) ('builtin.module' operation: @SyncTensorsGraph.27) //----- //
module @SyncTensorsGraph.27 attributes {mhlo.cross_program_prefetches = [], mhlo.frontend_attributes = {xla.sdy.meshes = "{mesh = #sdy.mesh<[\22_axis_0\22=8]>}"}, mhlo.input_output_alias = [], mhlo.is_dynamic = false, mhlo.use_auto_spmd_partitioning = false} {
  func.func @main(%arg0: tensor<2048xbf16> {mhlo.frontend_attributes = {xla.sdy.sharding = "#sdy.sharding<@mesh, [{}]>"}, mhlo.sharding = "{replicated}", ttcore.argument_type = #ttcore.argument_type<input>}, %arg1: tensor<2048x2048xbf16> {mhlo.frontend_attributes = {xla.sdy.sharding = "#sdy.sharding<@mesh, [{}, {\22_axis_0\22}]>"}, mhlo.sharding = "{devices=[1,8]<=[8]}", ttcore.argument_type = #ttcore.argument_type<input>}, %arg2: tensor<2048xbf16> {mhlo.frontend_attributes = {xla.sdy.sharding = "#sdy.sharding<@mesh, [{\22_axis_0\22}]>"}, mhlo.sharding = "{devices=[8]<=[8]}", ttcore.argument_type = #ttcore.argument_type<input>}, %arg3: tensor<2048x2048xbf16> {mhlo.frontend_attributes = {xla.sdy.sharding = "#sdy.sharding<@mesh, [{\22_axis_0\22}, {}]>"}, mhlo.sharding = "{devices=[8,1]<=[8]}", ttcore.argument_type = #ttcore.argument_type<input>}, %arg4: tensor<2048x2048xbf16> {mhlo.frontend_attributes = {xla.sdy.sharding = "#sdy.sharding<@mesh, [{}, {}]>"}, mhlo.sharding = "{replicated}", ttcore.argument_type = #ttcore.argument_type<input>}) -> tensor<2048x2048xbf16> {
    %cst = stablehlo.constant dense<0.000000e+00> : tensor<bf16>
    %0 = stablehlo.broadcast_in_dim %cst, dims = [] : (tensor<bf16>) -> tensor<2048x2048xbf16>
    %1 = stablehlo.transpose %arg3, dims = [1, 0] {result_layout = dense<[0, 1]> : tensor<2xindex>, xla_shape = "bf16[2048,2048]{0,1}"} : (tensor<2048x2048xbf16>) -> tensor<2048x2048xbf16>
    %2 = stablehlo.dot_general %arg4, %1, contracting_dims = [1] x [0] : (tensor<2048x2048xbf16>, tensor<2048x2048xbf16>) -> tensor<2048x2048xbf16>
    %3 = stablehlo.broadcast_in_dim %arg2, dims = [1] : (tensor<2048xbf16>) -> tensor<2048x2048xbf16>
    %4 = stablehlo.add %2, %3 : tensor<2048x2048xbf16>
    %5 = stablehlo.maximum %4, %0 : tensor<2048x2048xbf16>
    %6 = stablehlo.transpose %arg1, dims = [1, 0] {result_layout = dense<[0, 1]> : tensor<2xindex>, xla_shape = "bf16[2048,2048]{0,1}"} : (tensor<2048x2048xbf16>) -> tensor<2048x2048xbf16>
    %7 = stablehlo.dot_general %5, %6, contracting_dims = [1] x [0] : (tensor<2048x2048xbf16>, tensor<2048x2048xbf16>) -> tensor<2048x2048xbf16>
    %8 = stablehlo.broadcast_in_dim %arg0, dims = [1] : (tensor<2048xbf16>) -> tensor<2048x2048xbf16>
    %9 = stablehlo.add %7, %8 : tensor<2048x2048xbf16>
    %10 = stablehlo.maximum %9, %0 : tensor<2048x2048xbf16>
    return %10 : tensor<2048x2048xbf16>
  }
}


// -----// IR Dump Before Canonicalizer (canonicalize) ('func.func' operation: @main) //----- //
module @SyncTensorsGraph.27 attributes {mhlo.cross_program_prefetches = [], mhlo.frontend_attributes = {xla.sdy.meshes = "{mesh = #sdy.mesh<[\22_axis_0\22=8]>}"}, mhlo.input_output_alias = [], mhlo.is_dynamic = false, mhlo.use_auto_spmd_partitioning = false} {
  func.func @main(%arg0: tensor<2048xbf16> {mhlo.frontend_attributes = {xla.sdy.sharding = "#sdy.sharding<@mesh, [{}]>"}, mhlo.sharding = "{replicated}", ttcore.argument_type = #ttcore.argument_type<input>}, %arg1: tensor<2048x2048xbf16> {mhlo.frontend_attributes = {xla.sdy.sharding = "#sdy.sharding<@mesh, [{}, {\22_axis_0\22}]>"}, mhlo.sharding = "{devices=[1,8]<=[8]}", ttcore.argument_type = #ttcore.argument_type<input>}, %arg2: tensor<2048xbf16> {mhlo.frontend_attributes = {xla.sdy.sharding = "#sdy.sharding<@mesh, [{\22_axis_0\22}]>"}, mhlo.sharding = "{devices=[8]<=[8]}", ttcore.argument_type = #ttcore.argument_type<input>}, %arg3: tensor<2048x2048xbf16> {mhlo.frontend_attributes = {xla.sdy.sharding = "#sdy.sharding<@mesh, [{\22_axis_0\22}, {}]>"}, mhlo.sharding = "{devices=[8,1]<=[8]}", ttcore.argument_type = #ttcore.argument_type<input>}, %arg4: tensor<2048x2048xbf16> {mhlo.frontend_attributes = {xla.sdy.sharding = "#sdy.sharding<@mesh, [{}, {}]>"}, mhlo.sharding = "{replicated}", ttcore.argument_type = #ttcore.argument_type<input>}) -> tensor<2048x2048xbf16> {
    %cst = stablehlo.constant dense<0.000000e+00> : tensor<bf16>
    %0 = stablehlo.broadcast_in_dim %cst, dims = [] : (tensor<bf16>) -> tensor<2048x2048xbf16>
    %1 = stablehlo.transpose %arg3, dims = [1, 0] {result_layout = dense<[0, 1]> : tensor<2xindex>, xla_shape = "bf16[2048,2048]{0,1}"} : (tensor<2048x2048xbf16>) -> tensor<2048x2048xbf16>
    %2 = stablehlo.dot_general %arg4, %1, contracting_dims = [1] x [0] : (tensor<2048x2048xbf16>, tensor<2048x2048xbf16>) -> tensor<2048x2048xbf16>
    %3 = stablehlo.broadcast_in_dim %arg2, dims = [1] : (tensor<2048xbf16>) -> tensor<2048x2048xbf16>
    %4 = stablehlo.add %2, %3 : tensor<2048x2048xbf16>
    %5 = stablehlo.maximum %4, %0 : tensor<2048x2048xbf16>
    %6 = stablehlo.transpose %arg1, dims = [1, 0] {result_layout = dense<[0, 1]> : tensor<2xindex>, xla_shape = "bf16[2048,2048]{0,1}"} : (tensor<2048x2048xbf16>) -> tensor<2048x2048xbf16>
    %7 = stablehlo.dot_general %5, %6, contracting_dims = [1] x [0] : (tensor<2048x2048xbf16>, tensor<2048x2048xbf16>) -> tensor<2048x2048xbf16>
    %8 = stablehlo.broadcast_in_dim %arg0, dims = [1] : (tensor<2048xbf16>) -> tensor<2048x2048xbf16>
    %9 = stablehlo.add %7, %8 : tensor<2048x2048xbf16>
    %10 = stablehlo.maximum %9, %0 : tensor<2048x2048xbf16>
    return %10 : tensor<2048x2048xbf16>
  }
}


// -----// IR Dump Before TTPopulateArgumentTypes (tt-populate-argument-types) ('builtin.module' operation: @SyncTensorsGraph.27) //----- //
module @SyncTensorsGraph.27 attributes {mhlo.cross_program_prefetches = [], mhlo.frontend_attributes = {xla.sdy.meshes = "{mesh = #sdy.mesh<[\22_axis_0\22=8]>}"}, mhlo.input_output_alias = [], mhlo.is_dynamic = false, mhlo.use_auto_spmd_partitioning = false} {
  func.func @main(%arg0: tensor<2048xbf16> {mhlo.frontend_attributes = {xla.sdy.sharding = "#sdy.sharding<@mesh, [{}]>"}, mhlo.sharding = "{replicated}", ttcore.argument_type = #ttcore.argument_type<input>}, %arg1: tensor<2048x2048xbf16> {mhlo.frontend_attributes = {xla.sdy.sharding = "#sdy.sharding<@mesh, [{}, {\22_axis_0\22}]>"}, mhlo.sharding = "{devices=[1,8]<=[8]}", ttcore.argument_type = #ttcore.argument_type<input>}, %arg2: tensor<2048xbf16> {mhlo.frontend_attributes = {xla.sdy.sharding = "#sdy.sharding<@mesh, [{\22_axis_0\22}]>"}, mhlo.sharding = "{devices=[8]<=[8]}", ttcore.argument_type = #ttcore.argument_type<input>}, %arg3: tensor<2048x2048xbf16> {mhlo.frontend_attributes = {xla.sdy.sharding = "#sdy.sharding<@mesh, [{\22_axis_0\22}, {}]>"}, mhlo.sharding = "{devices=[8,1]<=[8]}", ttcore.argument_type = #ttcore.argument_type<input>}, %arg4: tensor<2048x2048xbf16> {mhlo.frontend_attributes = {xla.sdy.sharding = "#sdy.sharding<@mesh, [{}, {}]>"}, mhlo.sharding = "{replicated}", ttcore.argument_type = #ttcore.argument_type<input>}) -> tensor<2048x2048xbf16> {
    %cst = stablehlo.constant dense<0.000000e+00> : tensor<bf16>
    %0 = stablehlo.broadcast_in_dim %cst, dims = [] : (tensor<bf16>) -> tensor<2048x2048xbf16>
    %1 = stablehlo.transpose %arg3, dims = [1, 0] {result_layout = dense<[0, 1]> : tensor<2xindex>, xla_shape = "bf16[2048,2048]{0,1}"} : (tensor<2048x2048xbf16>) -> tensor<2048x2048xbf16>
    %2 = stablehlo.dot_general %arg4, %1, contracting_dims = [1] x [0] : (tensor<2048x2048xbf16>, tensor<2048x2048xbf16>) -> tensor<2048x2048xbf16>
    %3 = stablehlo.broadcast_in_dim %arg2, dims = [1] : (tensor<2048xbf16>) -> tensor<2048x2048xbf16>
    %4 = stablehlo.add %2, %3 : tensor<2048x2048xbf16>
    %5 = stablehlo.maximum %4, %0 : tensor<2048x2048xbf16>
    %6 = stablehlo.transpose %arg1, dims = [1, 0] {result_layout = dense<[0, 1]> : tensor<2xindex>, xla_shape = "bf16[2048,2048]{0,1}"} : (tensor<2048x2048xbf16>) -> tensor<2048x2048xbf16>
    %7 = stablehlo.dot_general %5, %6, contracting_dims = [1] x [0] : (tensor<2048x2048xbf16>, tensor<2048x2048xbf16>) -> tensor<2048x2048xbf16>
    %8 = stablehlo.broadcast_in_dim %arg0, dims = [1] : (tensor<2048xbf16>) -> tensor<2048x2048xbf16>
    %9 = stablehlo.add %7, %8 : tensor<2048x2048xbf16>
    %10 = stablehlo.maximum %9, %0 : tensor<2048x2048xbf16>
    return %10 : tensor<2048x2048xbf16>
  }
}


// -----// IR Dump Before ApplyArgumentShardStatusPass (apply-argument-shard-status) ('builtin.module' operation: @SyncTensorsGraph.27) //----- //
module @SyncTensorsGraph.27 attributes {mhlo.cross_program_prefetches = [], mhlo.frontend_attributes = {xla.sdy.meshes = "{mesh = #sdy.mesh<[\22_axis_0\22=8]>}"}, mhlo.input_output_alias = [], mhlo.is_dynamic = false, mhlo.use_auto_spmd_partitioning = false} {
  func.func @main(%arg0: tensor<2048xbf16> {mhlo.frontend_attributes = {xla.sdy.sharding = "#sdy.sharding<@mesh, [{}]>"}, mhlo.sharding = "{replicated}", ttcore.argument_type = #ttcore.argument_type<input>}, %arg1: tensor<2048x2048xbf16> {mhlo.frontend_attributes = {xla.sdy.sharding = "#sdy.sharding<@mesh, [{}, {\22_axis_0\22}]>"}, mhlo.sharding = "{devices=[1,8]<=[8]}", ttcore.argument_type = #ttcore.argument_type<input>}, %arg2: tensor<2048xbf16> {mhlo.frontend_attributes = {xla.sdy.sharding = "#sdy.sharding<@mesh, [{\22_axis_0\22}]>"}, mhlo.sharding = "{devices=[8]<=[8]}", ttcore.argument_type = #ttcore.argument_type<input>}, %arg3: tensor<2048x2048xbf16> {mhlo.frontend_attributes = {xla.sdy.sharding = "#sdy.sharding<@mesh, [{\22_axis_0\22}, {}]>"}, mhlo.sharding = "{devices=[8,1]<=[8]}", ttcore.argument_type = #ttcore.argument_type<input>}, %arg4: tensor<2048x2048xbf16> {mhlo.frontend_attributes = {xla.sdy.sharding = "#sdy.sharding<@mesh, [{}, {}]>"}, mhlo.sharding = "{replicated}", ttcore.argument_type = #ttcore.argument_type<input>}) -> tensor<2048x2048xbf16> {
    %cst = stablehlo.constant dense<0.000000e+00> : tensor<bf16>
    %0 = stablehlo.broadcast_in_dim %cst, dims = [] : (tensor<bf16>) -> tensor<2048x2048xbf16>
    %1 = stablehlo.transpose %arg3, dims = [1, 0] {result_layout = dense<[0, 1]> : tensor<2xindex>, xla_shape = "bf16[2048,2048]{0,1}"} : (tensor<2048x2048xbf16>) -> tensor<2048x2048xbf16>
    %2 = stablehlo.dot_general %arg4, %1, contracting_dims = [1] x [0] : (tensor<2048x2048xbf16>, tensor<2048x2048xbf16>) -> tensor<2048x2048xbf16>
    %3 = stablehlo.broadcast_in_dim %arg2, dims = [1] : (tensor<2048xbf16>) -> tensor<2048x2048xbf16>
    %4 = stablehlo.add %2, %3 : tensor<2048x2048xbf16>
    %5 = stablehlo.maximum %4, %0 : tensor<2048x2048xbf16>
    %6 = stablehlo.transpose %arg1, dims = [1, 0] {result_layout = dense<[0, 1]> : tensor<2xindex>, xla_shape = "bf16[2048,2048]{0,1}"} : (tensor<2048x2048xbf16>) -> tensor<2048x2048xbf16>
    %7 = stablehlo.dot_general %5, %6, contracting_dims = [1] x [0] : (tensor<2048x2048xbf16>, tensor<2048x2048xbf16>) -> tensor<2048x2048xbf16>
    %8 = stablehlo.broadcast_in_dim %arg0, dims = [1] : (tensor<2048xbf16>) -> tensor<2048x2048xbf16>
    %9 = stablehlo.add %7, %8 : tensor<2048x2048xbf16>
    %10 = stablehlo.maximum %9, %0 : tensor<2048x2048xbf16>
    return %10 : tensor<2048x2048xbf16>
  }
}


// -----// IR Dump After ApplyArgumentShardStatusPass (apply-argument-shard-status) ('builtin.module' operation: @SyncTensorsGraph.27) //----- //
module @SyncTensorsGraph.27 attributes {mhlo.cross_program_prefetches = [], mhlo.frontend_attributes = {xla.sdy.meshes = "{mesh = #sdy.mesh<[\22_axis_0\22=8]>}"}, mhlo.input_output_alias = [], mhlo.is_dynamic = false, mhlo.use_auto_spmd_partitioning = false} {
  func.func @main(%arg0: tensor<2048xbf16> {mhlo.frontend_attributes = {xla.sdy.sharding = "#sdy.sharding<@mesh, [{}]>"}, mhlo.sharding = "{replicated}", ttcore.argument_type = #ttcore.argument_type<input>, ttcore.shard_status = #ttcore.shard_status<presharded>}, %arg1: tensor<2048x2048xbf16> {mhlo.frontend_attributes = {xla.sdy.sharding = "#sdy.sharding<@mesh, [{}, {\22_axis_0\22}]>"}, mhlo.sharding = "{devices=[1,8]<=[8]}", ttcore.argument_type = #ttcore.argument_type<input>, ttcore.shard_status = #ttcore.shard_status<presharded>}, %arg2: tensor<2048xbf16> {mhlo.frontend_attributes = {xla.sdy.sharding = "#sdy.sharding<@mesh, [{\22_axis_0\22}]>"}, mhlo.sharding = "{devices=[8]<=[8]}", ttcore.argument_type = #ttcore.argument_type<input>, ttcore.shard_status = #ttcore.shard_status<presharded>}, %arg3: tensor<2048x2048xbf16> {mhlo.frontend_attributes = {xla.sdy.sharding = "#sdy.sharding<@mesh, [{\22_axis_0\22}, {}]>"}, mhlo.sharding = "{devices=[8,1]<=[8]}", ttcore.argument_type = #ttcore.argument_type<input>, ttcore.shard_status = #ttcore.shard_status<presharded>}, %arg4: tensor<2048x2048xbf16> {mhlo.frontend_attributes = {xla.sdy.sharding = "#sdy.sharding<@mesh, [{}, {}]>"}, mhlo.sharding = "{replicated}", ttcore.argument_type = #ttcore.argument_type<input>, ttcore.shard_status = #ttcore.shard_status<presharded>}) -> (tensor<2048x2048xbf16> {ttcore.shard_status = #ttcore.shard_status<unsharded>}) {
    %cst = stablehlo.constant dense<0.000000e+00> : tensor<bf16>
    %0 = stablehlo.broadcast_in_dim %cst, dims = [] : (tensor<bf16>) -> tensor<2048x2048xbf16>
    %1 = stablehlo.transpose %arg3, dims = [1, 0] {result_layout = dense<[0, 1]> : tensor<2xindex>, xla_shape = "bf16[2048,2048]{0,1}"} : (tensor<2048x2048xbf16>) -> tensor<2048x2048xbf16>
    %2 = stablehlo.dot_general %arg4, %1, contracting_dims = [1] x [0] : (tensor<2048x2048xbf16>, tensor<2048x2048xbf16>) -> tensor<2048x2048xbf16>
    %3 = stablehlo.broadcast_in_dim %arg2, dims = [1] : (tensor<2048xbf16>) -> tensor<2048x2048xbf16>
    %4 = stablehlo.add %2, %3 : tensor<2048x2048xbf16>
    %5 = stablehlo.maximum %4, %0 : tensor<2048x2048xbf16>
    %6 = stablehlo.transpose %arg1, dims = [1, 0] {result_layout = dense<[0, 1]> : tensor<2xindex>, xla_shape = "bf16[2048,2048]{0,1}"} : (tensor<2048x2048xbf16>) -> tensor<2048x2048xbf16>
    %7 = stablehlo.dot_general %5, %6, contracting_dims = [1] x [0] : (tensor<2048x2048xbf16>, tensor<2048x2048xbf16>) -> tensor<2048x2048xbf16>
    %8 = stablehlo.broadcast_in_dim %arg0, dims = [1] : (tensor<2048xbf16>) -> tensor<2048x2048xbf16>
    %9 = stablehlo.add %7, %8 : tensor<2048x2048xbf16>
    %10 = stablehlo.maximum %9, %0 : tensor<2048x2048xbf16>
    return %10 : tensor<2048x2048xbf16>
  }
}


// -----// IR Dump Before ConvertXlaSdyToSdyPass (convert-xla-sdy-to-sdy) ('builtin.module' operation: @SyncTensorsGraph.27) //----- //
module @SyncTensorsGraph.27 attributes {mhlo.cross_program_prefetches = [], mhlo.frontend_attributes = {xla.sdy.meshes = "{mesh = #sdy.mesh<[\22_axis_0\22=8]>}"}, mhlo.input_output_alias = [], mhlo.is_dynamic = false, mhlo.use_auto_spmd_partitioning = false} {
  func.func @main(%arg0: tensor<2048xbf16> {mhlo.frontend_attributes = {xla.sdy.sharding = "#sdy.sharding<@mesh, [{}]>"}, mhlo.sharding = "{replicated}", ttcore.argument_type = #ttcore.argument_type<input>, ttcore.shard_status = #ttcore.shard_status<presharded>}, %arg1: tensor<2048x2048xbf16> {mhlo.frontend_attributes = {xla.sdy.sharding = "#sdy.sharding<@mesh, [{}, {\22_axis_0\22}]>"}, mhlo.sharding = "{devices=[1,8]<=[8]}", ttcore.argument_type = #ttcore.argument_type<input>, ttcore.shard_status = #ttcore.shard_status<presharded>}, %arg2: tensor<2048xbf16> {mhlo.frontend_attributes = {xla.sdy.sharding = "#sdy.sharding<@mesh, [{\22_axis_0\22}]>"}, mhlo.sharding = "{devices=[8]<=[8]}", ttcore.argument_type = #ttcore.argument_type<input>, ttcore.shard_status = #ttcore.shard_status<presharded>}, %arg3: tensor<2048x2048xbf16> {mhlo.frontend_attributes = {xla.sdy.sharding = "#sdy.sharding<@mesh, [{\22_axis_0\22}, {}]>"}, mhlo.sharding = "{devices=[8,1]<=[8]}", ttcore.argument_type = #ttcore.argument_type<input>, ttcore.shard_status = #ttcore.shard_status<presharded>}, %arg4: tensor<2048x2048xbf16> {mhlo.frontend_attributes = {xla.sdy.sharding = "#sdy.sharding<@mesh, [{}, {}]>"}, mhlo.sharding = "{replicated}", ttcore.argument_type = #ttcore.argument_type<input>, ttcore.shard_status = #ttcore.shard_status<presharded>}) -> (tensor<2048x2048xbf16> {ttcore.shard_status = #ttcore.shard_status<unsharded>}) {
    %cst = stablehlo.constant dense<0.000000e+00> : tensor<bf16>
    %0 = stablehlo.broadcast_in_dim %cst, dims = [] : (tensor<bf16>) -> tensor<2048x2048xbf16>
    %1 = stablehlo.transpose %arg3, dims = [1, 0] {result_layout = dense<[0, 1]> : tensor<2xindex>, xla_shape = "bf16[2048,2048]{0,1}"} : (tensor<2048x2048xbf16>) -> tensor<2048x2048xbf16>
    %2 = stablehlo.dot_general %arg4, %1, contracting_dims = [1] x [0] : (tensor<2048x2048xbf16>, tensor<2048x2048xbf16>) -> tensor<2048x2048xbf16>
    %3 = stablehlo.broadcast_in_dim %arg2, dims = [1] : (tensor<2048xbf16>) -> tensor<2048x2048xbf16>
    %4 = stablehlo.add %2, %3 : tensor<2048x2048xbf16>
    %5 = stablehlo.maximum %4, %0 : tensor<2048x2048xbf16>
    %6 = stablehlo.transpose %arg1, dims = [1, 0] {result_layout = dense<[0, 1]> : tensor<2xindex>, xla_shape = "bf16[2048,2048]{0,1}"} : (tensor<2048x2048xbf16>) -> tensor<2048x2048xbf16>
    %7 = stablehlo.dot_general %5, %6, contracting_dims = [1] x [0] : (tensor<2048x2048xbf16>, tensor<2048x2048xbf16>) -> tensor<2048x2048xbf16>
    %8 = stablehlo.broadcast_in_dim %arg0, dims = [1] : (tensor<2048xbf16>) -> tensor<2048x2048xbf16>
    %9 = stablehlo.add %7, %8 : tensor<2048x2048xbf16>
    %10 = stablehlo.maximum %9, %0 : tensor<2048x2048xbf16>
    return %10 : tensor<2048x2048xbf16>
  }
}


// -----// IR Dump After ConvertXlaSdyToSdyPass (convert-xla-sdy-to-sdy) ('builtin.module' operation: @SyncTensorsGraph.27) //----- //
module @SyncTensorsGraph.27 attributes {mhlo.cross_program_prefetches = [], mhlo.input_output_alias = [], mhlo.is_dynamic = false, mhlo.use_auto_spmd_partitioning = false} {
  sdy.mesh @mesh = <["_axis_0_updated"=1, "_axis_0"=8]>
  func.func @main(%arg0: tensor<2048xbf16> {sdy.sharding = #sdy.sharding<@mesh, [{}]>, ttcore.argument_type = #ttcore.argument_type<input>, ttcore.shard_status = #ttcore.shard_status<presharded>}, %arg1: tensor<2048x2048xbf16> {sdy.sharding = #sdy.sharding<@mesh, [{}, {"_axis_0"}]>, ttcore.argument_type = #ttcore.argument_type<input>, ttcore.shard_status = #ttcore.shard_status<presharded>}, %arg2: tensor<2048xbf16> {sdy.sharding = #sdy.sharding<@mesh, [{"_axis_0"}]>, ttcore.argument_type = #ttcore.argument_type<input>, ttcore.shard_status = #ttcore.shard_status<presharded>}, %arg3: tensor<2048x2048xbf16> {sdy.sharding = #sdy.sharding<@mesh, [{"_axis_0"}, {}]>, ttcore.argument_type = #ttcore.argument_type<input>, ttcore.shard_status = #ttcore.shard_status<presharded>}, %arg4: tensor<2048x2048xbf16> {sdy.sharding = #sdy.sharding<@mesh, [{}, {}]>, ttcore.argument_type = #ttcore.argument_type<input>, ttcore.shard_status = #ttcore.shard_status<presharded>}) -> (tensor<2048x2048xbf16> {ttcore.shard_status = #ttcore.shard_status<unsharded>}) {
    %cst = stablehlo.constant dense<0.000000e+00> : tensor<bf16>
    %0 = stablehlo.broadcast_in_dim %cst, dims = [] : (tensor<bf16>) -> tensor<2048x2048xbf16>
    %1 = stablehlo.transpose %arg3, dims = [1, 0] {result_layout = dense<[0, 1]> : tensor<2xindex>, xla_shape = "bf16[2048,2048]{0,1}"} : (tensor<2048x2048xbf16>) -> tensor<2048x2048xbf16>
    %2 = stablehlo.dot_general %arg4, %1, contracting_dims = [1] x [0] : (tensor<2048x2048xbf16>, tensor<2048x2048xbf16>) -> tensor<2048x2048xbf16>
    %3 = stablehlo.broadcast_in_dim %arg2, dims = [1] : (tensor<2048xbf16>) -> tensor<2048x2048xbf16>
    %4 = stablehlo.add %2, %3 : tensor<2048x2048xbf16>
    %5 = stablehlo.maximum %4, %0 : tensor<2048x2048xbf16>
    %6 = stablehlo.transpose %arg1, dims = [1, 0] {result_layout = dense<[0, 1]> : tensor<2xindex>, xla_shape = "bf16[2048,2048]{0,1}"} : (tensor<2048x2048xbf16>) -> tensor<2048x2048xbf16>
    %7 = stablehlo.dot_general %5, %6, contracting_dims = [1] x [0] : (tensor<2048x2048xbf16>, tensor<2048x2048xbf16>) -> tensor<2048x2048xbf16>
    %8 = stablehlo.broadcast_in_dim %arg0, dims = [1] : (tensor<2048xbf16>) -> tensor<2048x2048xbf16>
    %9 = stablehlo.add %7, %8 : tensor<2048x2048xbf16>
    %10 = stablehlo.maximum %9, %0 : tensor<2048x2048xbf16>
    return %10 : tensor<2048x2048xbf16>
  }
}


// -----// IR Dump Before AnalyzeMeshPass (analyze-mesh) ('builtin.module' operation: @SyncTensorsGraph.27) //----- //
module @SyncTensorsGraph.27 attributes {mhlo.cross_program_prefetches = [], mhlo.input_output_alias = [], mhlo.is_dynamic = false, mhlo.use_auto_spmd_partitioning = false} {
  sdy.mesh @mesh = <["_axis_0_updated"=1, "_axis_0"=8]>
  func.func @main(%arg0: tensor<2048xbf16> {sdy.sharding = #sdy.sharding<@mesh, [{}]>, ttcore.argument_type = #ttcore.argument_type<input>, ttcore.shard_status = #ttcore.shard_status<presharded>}, %arg1: tensor<2048x2048xbf16> {sdy.sharding = #sdy.sharding<@mesh, [{}, {"_axis_0"}]>, ttcore.argument_type = #ttcore.argument_type<input>, ttcore.shard_status = #ttcore.shard_status<presharded>}, %arg2: tensor<2048xbf16> {sdy.sharding = #sdy.sharding<@mesh, [{"_axis_0"}]>, ttcore.argument_type = #ttcore.argument_type<input>, ttcore.shard_status = #ttcore.shard_status<presharded>}, %arg3: tensor<2048x2048xbf16> {sdy.sharding = #sdy.sharding<@mesh, [{"_axis_0"}, {}]>, ttcore.argument_type = #ttcore.argument_type<input>, ttcore.shard_status = #ttcore.shard_status<presharded>}, %arg4: tensor<2048x2048xbf16> {sdy.sharding = #sdy.sharding<@mesh, [{}, {}]>, ttcore.argument_type = #ttcore.argument_type<input>, ttcore.shard_status = #ttcore.shard_status<presharded>}) -> (tensor<2048x2048xbf16> {ttcore.shard_status = #ttcore.shard_status<unsharded>}) {
    %cst = stablehlo.constant dense<0.000000e+00> : tensor<bf16>
    %0 = stablehlo.broadcast_in_dim %cst, dims = [] : (tensor<bf16>) -> tensor<2048x2048xbf16>
    %1 = stablehlo.transpose %arg3, dims = [1, 0] {result_layout = dense<[0, 1]> : tensor<2xindex>, xla_shape = "bf16[2048,2048]{0,1}"} : (tensor<2048x2048xbf16>) -> tensor<2048x2048xbf16>
    %2 = stablehlo.dot_general %arg4, %1, contracting_dims = [1] x [0] : (tensor<2048x2048xbf16>, tensor<2048x2048xbf16>) -> tensor<2048x2048xbf16>
    %3 = stablehlo.broadcast_in_dim %arg2, dims = [1] : (tensor<2048xbf16>) -> tensor<2048x2048xbf16>
    %4 = stablehlo.add %2, %3 : tensor<2048x2048xbf16>
    %5 = stablehlo.maximum %4, %0 : tensor<2048x2048xbf16>
    %6 = stablehlo.transpose %arg1, dims = [1, 0] {result_layout = dense<[0, 1]> : tensor<2xindex>, xla_shape = "bf16[2048,2048]{0,1}"} : (tensor<2048x2048xbf16>) -> tensor<2048x2048xbf16>
    %7 = stablehlo.dot_general %5, %6, contracting_dims = [1] x [0] : (tensor<2048x2048xbf16>, tensor<2048x2048xbf16>) -> tensor<2048x2048xbf16>
    %8 = stablehlo.broadcast_in_dim %arg0, dims = [1] : (tensor<2048xbf16>) -> tensor<2048x2048xbf16>
    %9 = stablehlo.add %7, %8 : tensor<2048x2048xbf16>
    %10 = stablehlo.maximum %9, %0 : tensor<2048x2048xbf16>
    return %10 : tensor<2048x2048xbf16>
  }
}


// -----// IR Dump Before ApplyShardingConstraintsPass (sdy-apply-sharding-constraints) ('func.func' operation: @main) //----- //
module @SyncTensorsGraph.27 attributes {mhlo.cross_program_prefetches = [], mhlo.input_output_alias = [], mhlo.is_dynamic = false, mhlo.use_auto_spmd_partitioning = false} {
  sdy.mesh @mesh = <["_axis_0_updated"=1, "_axis_0"=8]>
  func.func @main(%arg0: tensor<2048xbf16> {sdy.sharding = #sdy.sharding<@mesh, [{}]>, ttcore.argument_type = #ttcore.argument_type<input>, ttcore.shard_status = #ttcore.shard_status<presharded>}, %arg1: tensor<2048x2048xbf16> {sdy.sharding = #sdy.sharding<@mesh, [{}, {"_axis_0"}]>, ttcore.argument_type = #ttcore.argument_type<input>, ttcore.shard_status = #ttcore.shard_status<presharded>}, %arg2: tensor<2048xbf16> {sdy.sharding = #sdy.sharding<@mesh, [{"_axis_0"}]>, ttcore.argument_type = #ttcore.argument_type<input>, ttcore.shard_status = #ttcore.shard_status<presharded>}, %arg3: tensor<2048x2048xbf16> {sdy.sharding = #sdy.sharding<@mesh, [{"_axis_0"}, {}]>, ttcore.argument_type = #ttcore.argument_type<input>, ttcore.shard_status = #ttcore.shard_status<presharded>}, %arg4: tensor<2048x2048xbf16> {sdy.sharding = #sdy.sharding<@mesh, [{}, {}]>, ttcore.argument_type = #ttcore.argument_type<input>, ttcore.shard_status = #ttcore.shard_status<presharded>}) -> (tensor<2048x2048xbf16> {ttcore.shard_status = #ttcore.shard_status<unsharded>}) {
    %cst = stablehlo.constant dense<0.000000e+00> : tensor<bf16>
    %0 = stablehlo.broadcast_in_dim %cst, dims = [] : (tensor<bf16>) -> tensor<2048x2048xbf16>
    %1 = stablehlo.transpose %arg3, dims = [1, 0] {result_layout = dense<[0, 1]> : tensor<2xindex>, xla_shape = "bf16[2048,2048]{0,1}"} : (tensor<2048x2048xbf16>) -> tensor<2048x2048xbf16>
    %2 = stablehlo.dot_general %arg4, %1, contracting_dims = [1] x [0] : (tensor<2048x2048xbf16>, tensor<2048x2048xbf16>) -> tensor<2048x2048xbf16>
    %3 = stablehlo.broadcast_in_dim %arg2, dims = [1] : (tensor<2048xbf16>) -> tensor<2048x2048xbf16>
    %4 = stablehlo.add %2, %3 : tensor<2048x2048xbf16>
    %5 = stablehlo.maximum %4, %0 : tensor<2048x2048xbf16>
    %6 = stablehlo.transpose %arg1, dims = [1, 0] {result_layout = dense<[0, 1]> : tensor<2xindex>, xla_shape = "bf16[2048,2048]{0,1}"} : (tensor<2048x2048xbf16>) -> tensor<2048x2048xbf16>
    %7 = stablehlo.dot_general %5, %6, contracting_dims = [1] x [0] : (tensor<2048x2048xbf16>, tensor<2048x2048xbf16>) -> tensor<2048x2048xbf16>
    %8 = stablehlo.broadcast_in_dim %arg0, dims = [1] : (tensor<2048xbf16>) -> tensor<2048x2048xbf16>
    %9 = stablehlo.add %7, %8 : tensor<2048x2048xbf16>
    %10 = stablehlo.maximum %9, %0 : tensor<2048x2048xbf16>
    return %10 : tensor<2048x2048xbf16>
  }
}


// -----// IR Dump Before AggressivePropagationPass (sdy-aggressive-propagate) ('builtin.module' operation: @SyncTensorsGraph.27) //----- //
module @SyncTensorsGraph.27 attributes {mhlo.cross_program_prefetches = [], mhlo.input_output_alias = [], mhlo.is_dynamic = false, mhlo.use_auto_spmd_partitioning = false} {
  sdy.mesh @mesh = <["_axis_0_updated"=1, "_axis_0"=8]>
  func.func @main(%arg0: tensor<2048xbf16> {sdy.sharding = #sdy.sharding<@mesh, [{}]>, ttcore.argument_type = #ttcore.argument_type<input>, ttcore.shard_status = #ttcore.shard_status<presharded>}, %arg1: tensor<2048x2048xbf16> {sdy.sharding = #sdy.sharding<@mesh, [{}, {"_axis_0"}]>, ttcore.argument_type = #ttcore.argument_type<input>, ttcore.shard_status = #ttcore.shard_status<presharded>}, %arg2: tensor<2048xbf16> {sdy.sharding = #sdy.sharding<@mesh, [{"_axis_0"}]>, ttcore.argument_type = #ttcore.argument_type<input>, ttcore.shard_status = #ttcore.shard_status<presharded>}, %arg3: tensor<2048x2048xbf16> {sdy.sharding = #sdy.sharding<@mesh, [{"_axis_0"}, {}]>, ttcore.argument_type = #ttcore.argument_type<input>, ttcore.shard_status = #ttcore.shard_status<presharded>}, %arg4: tensor<2048x2048xbf16> {sdy.sharding = #sdy.sharding<@mesh, [{}, {}]>, ttcore.argument_type = #ttcore.argument_type<input>, ttcore.shard_status = #ttcore.shard_status<presharded>}) -> (tensor<2048x2048xbf16> {ttcore.shard_status = #ttcore.shard_status<unsharded>}) {
    %cst = stablehlo.constant dense<0.000000e+00> : tensor<bf16>
    %0 = stablehlo.broadcast_in_dim %cst, dims = [] : (tensor<bf16>) -> tensor<2048x2048xbf16>
    %1 = stablehlo.transpose %arg3, dims = [1, 0] {result_layout = dense<[0, 1]> : tensor<2xindex>, xla_shape = "bf16[2048,2048]{0,1}"} : (tensor<2048x2048xbf16>) -> tensor<2048x2048xbf16>
    %2 = stablehlo.dot_general %arg4, %1, contracting_dims = [1] x [0] : (tensor<2048x2048xbf16>, tensor<2048x2048xbf16>) -> tensor<2048x2048xbf16>
    %3 = stablehlo.broadcast_in_dim %arg2, dims = [1] : (tensor<2048xbf16>) -> tensor<2048x2048xbf16>
    %4 = stablehlo.add %2, %3 : tensor<2048x2048xbf16>
    %5 = stablehlo.maximum %4, %0 : tensor<2048x2048xbf16>
    %6 = stablehlo.transpose %arg1, dims = [1, 0] {result_layout = dense<[0, 1]> : tensor<2xindex>, xla_shape = "bf16[2048,2048]{0,1}"} : (tensor<2048x2048xbf16>) -> tensor<2048x2048xbf16>
    %7 = stablehlo.dot_general %5, %6, contracting_dims = [1] x [0] : (tensor<2048x2048xbf16>, tensor<2048x2048xbf16>) -> tensor<2048x2048xbf16>
    %8 = stablehlo.broadcast_in_dim %arg0, dims = [1] : (tensor<2048xbf16>) -> tensor<2048x2048xbf16>
    %9 = stablehlo.add %7, %8 : tensor<2048x2048xbf16>
    %10 = stablehlo.maximum %9, %0 : tensor<2048x2048xbf16>
    return %10 : tensor<2048x2048xbf16>
  }
}


// -----// IR Dump After AggressivePropagationPass (sdy-aggressive-propagate) ('builtin.module' operation: @SyncTensorsGraph.27) //----- //
module @SyncTensorsGraph.27 attributes {mhlo.cross_program_prefetches = [], mhlo.input_output_alias = [], mhlo.is_dynamic = false, mhlo.use_auto_spmd_partitioning = false} {
  sdy.mesh @mesh = <["_axis_0_updated"=1, "_axis_0"=8]>
  func.func @main(%arg0: tensor<2048xbf16> {sdy.sharding = #sdy.sharding<@mesh, [{}]>, ttcore.argument_type = #ttcore.argument_type<input>, ttcore.shard_status = #ttcore.shard_status<presharded>}, %arg1: tensor<2048x2048xbf16> {sdy.sharding = #sdy.sharding<@mesh, [{}, {"_axis_0"}]>, ttcore.argument_type = #ttcore.argument_type<input>, ttcore.shard_status = #ttcore.shard_status<presharded>}, %arg2: tensor<2048xbf16> {sdy.sharding = #sdy.sharding<@mesh, [{"_axis_0"}]>, ttcore.argument_type = #ttcore.argument_type<input>, ttcore.shard_status = #ttcore.shard_status<presharded>}, %arg3: tensor<2048x2048xbf16> {sdy.sharding = #sdy.sharding<@mesh, [{"_axis_0"}, {}]>, ttcore.argument_type = #ttcore.argument_type<input>, ttcore.shard_status = #ttcore.shard_status<presharded>}, %arg4: tensor<2048x2048xbf16> {sdy.sharding = #sdy.sharding<@mesh, [{}, {}]>, ttcore.argument_type = #ttcore.argument_type<input>, ttcore.shard_status = #ttcore.shard_status<presharded>}) -> (tensor<2048x2048xbf16> {sdy.sharding = #sdy.sharding<@mesh, [{?}, {"_axis_0", ?}]>, ttcore.shard_status = #ttcore.shard_status<unsharded>}) {
    %cst = stablehlo.constant dense<0.000000e+00> : tensor<bf16>
    %0 = stablehlo.broadcast_in_dim %cst, dims = [] {sdy.sharding = #sdy.sharding_per_value<[<@mesh, [{?}, {"_axis_0", ?}]>]>} : (tensor<bf16>) -> tensor<2048x2048xbf16>
    %1 = stablehlo.transpose %arg3, dims = [1, 0] {result_layout = dense<[0, 1]> : tensor<2xindex>, sdy.sharding = #sdy.sharding_per_value<[<@mesh, [{?}, {"_axis_0", ?}]>]>, xla_shape = "bf16[2048,2048]{0,1}"} : (tensor<2048x2048xbf16>) -> tensor<2048x2048xbf16>
    %2 = stablehlo.dot_general %arg4, %1, contracting_dims = [1] x [0] {sdy.sharding = #sdy.sharding_per_value<[<@mesh, [{?}, {"_axis_0", ?}]>]>} : (tensor<2048x2048xbf16>, tensor<2048x2048xbf16>) -> tensor<2048x2048xbf16>
    %3 = stablehlo.broadcast_in_dim %arg2, dims = [1] {sdy.sharding = #sdy.sharding_per_value<[<@mesh, [{?}, {"_axis_0", ?}]>]>} : (tensor<2048xbf16>) -> tensor<2048x2048xbf16>
    %4 = stablehlo.add %2, %3 {sdy.sharding = #sdy.sharding_per_value<[<@mesh, [{?}, {"_axis_0", ?}]>]>} : tensor<2048x2048xbf16>
    %5 = stablehlo.maximum %4, %0 {sdy.sharding = #sdy.sharding_per_value<[<@mesh, [{?}, {"_axis_0", ?}]>]>} : tensor<2048x2048xbf16>
    %6 = stablehlo.transpose %arg1, dims = [1, 0] {result_layout = dense<[0, 1]> : tensor<2xindex>, sdy.sharding = #sdy.sharding_per_value<[<@mesh, [{"_axis_0", ?}, {?}]>]>, xla_shape = "bf16[2048,2048]{0,1}"} : (tensor<2048x2048xbf16>) -> tensor<2048x2048xbf16>
    %7 = stablehlo.dot_general %5, %6, contracting_dims = [1] x [0] {sdy.sharding = #sdy.sharding_per_value<[<@mesh, [{?}, {"_axis_0", ?}]>]>} : (tensor<2048x2048xbf16>, tensor<2048x2048xbf16>) -> tensor<2048x2048xbf16>
    %8 = stablehlo.broadcast_in_dim %arg0, dims = [1] {sdy.sharding = #sdy.sharding_per_value<[<@mesh, [{?}, {"_axis_0", ?}]>]>} : (tensor<2048xbf16>) -> tensor<2048x2048xbf16>
    %9 = stablehlo.add %7, %8 {sdy.sharding = #sdy.sharding_per_value<[<@mesh, [{?}, {"_axis_0", ?}]>]>} : tensor<2048x2048xbf16>
    %10 = stablehlo.maximum %9, %0 {sdy.sharding = #sdy.sharding_per_value<[<@mesh, [{?}, {"_axis_0", ?}]>]>} : tensor<2048x2048xbf16>
    return %10 : tensor<2048x2048xbf16>
  }
}


// -----// IR Dump Before ShardingConstraintToReshardPass (sdy-sharding-constraint-to-reshard) ('func.func' operation: @main) //----- //
module @SyncTensorsGraph.27 attributes {mhlo.cross_program_prefetches = [], mhlo.input_output_alias = [], mhlo.is_dynamic = false, mhlo.use_auto_spmd_partitioning = false} {
  sdy.mesh @mesh = <["_axis_0_updated"=1, "_axis_0"=8]>
  func.func @main(%arg0: tensor<2048xbf16> {sdy.sharding = #sdy.sharding<@mesh, [{}]>, ttcore.argument_type = #ttcore.argument_type<input>, ttcore.shard_status = #ttcore.shard_status<presharded>}, %arg1: tensor<2048x2048xbf16> {sdy.sharding = #sdy.sharding<@mesh, [{}, {"_axis_0"}]>, ttcore.argument_type = #ttcore.argument_type<input>, ttcore.shard_status = #ttcore.shard_status<presharded>}, %arg2: tensor<2048xbf16> {sdy.sharding = #sdy.sharding<@mesh, [{"_axis_0"}]>, ttcore.argument_type = #ttcore.argument_type<input>, ttcore.shard_status = #ttcore.shard_status<presharded>}, %arg3: tensor<2048x2048xbf16> {sdy.sharding = #sdy.sharding<@mesh, [{"_axis_0"}, {}]>, ttcore.argument_type = #ttcore.argument_type<input>, ttcore.shard_status = #ttcore.shard_status<presharded>}, %arg4: tensor<2048x2048xbf16> {sdy.sharding = #sdy.sharding<@mesh, [{}, {}]>, ttcore.argument_type = #ttcore.argument_type<input>, ttcore.shard_status = #ttcore.shard_status<presharded>}) -> (tensor<2048x2048xbf16> {sdy.sharding = #sdy.sharding<@mesh, [{?}, {"_axis_0", ?}]>, ttcore.shard_status = #ttcore.shard_status<unsharded>}) {
    %cst = stablehlo.constant dense<0.000000e+00> : tensor<bf16>
    %0 = stablehlo.broadcast_in_dim %cst, dims = [] {sdy.sharding = #sdy.sharding_per_value<[<@mesh, [{?}, {"_axis_0", ?}]>]>} : (tensor<bf16>) -> tensor<2048x2048xbf16>
    %1 = stablehlo.transpose %arg3, dims = [1, 0] {result_layout = dense<[0, 1]> : tensor<2xindex>, sdy.sharding = #sdy.sharding_per_value<[<@mesh, [{?}, {"_axis_0", ?}]>]>, xla_shape = "bf16[2048,2048]{0,1}"} : (tensor<2048x2048xbf16>) -> tensor<2048x2048xbf16>
    %2 = stablehlo.dot_general %arg4, %1, contracting_dims = [1] x [0] {sdy.sharding = #sdy.sharding_per_value<[<@mesh, [{?}, {"_axis_0", ?}]>]>} : (tensor<2048x2048xbf16>, tensor<2048x2048xbf16>) -> tensor<2048x2048xbf16>
    %3 = stablehlo.broadcast_in_dim %arg2, dims = [1] {sdy.sharding = #sdy.sharding_per_value<[<@mesh, [{?}, {"_axis_0", ?}]>]>} : (tensor<2048xbf16>) -> tensor<2048x2048xbf16>
    %4 = stablehlo.add %2, %3 {sdy.sharding = #sdy.sharding_per_value<[<@mesh, [{?}, {"_axis_0", ?}]>]>} : tensor<2048x2048xbf16>
    %5 = stablehlo.maximum %4, %0 {sdy.sharding = #sdy.sharding_per_value<[<@mesh, [{?}, {"_axis_0", ?}]>]>} : tensor<2048x2048xbf16>
    %6 = stablehlo.transpose %arg1, dims = [1, 0] {result_layout = dense<[0, 1]> : tensor<2xindex>, sdy.sharding = #sdy.sharding_per_value<[<@mesh, [{"_axis_0", ?}, {?}]>]>, xla_shape = "bf16[2048,2048]{0,1}"} : (tensor<2048x2048xbf16>) -> tensor<2048x2048xbf16>
    %7 = stablehlo.dot_general %5, %6, contracting_dims = [1] x [0] {sdy.sharding = #sdy.sharding_per_value<[<@mesh, [{?}, {"_axis_0", ?}]>]>} : (tensor<2048x2048xbf16>, tensor<2048x2048xbf16>) -> tensor<2048x2048xbf16>
    %8 = stablehlo.broadcast_in_dim %arg0, dims = [1] {sdy.sharding = #sdy.sharding_per_value<[<@mesh, [{?}, {"_axis_0", ?}]>]>} : (tensor<2048xbf16>) -> tensor<2048x2048xbf16>
    %9 = stablehlo.add %7, %8 {sdy.sharding = #sdy.sharding_per_value<[<@mesh, [{?}, {"_axis_0", ?}]>]>} : tensor<2048x2048xbf16>
    %10 = stablehlo.maximum %9, %0 {sdy.sharding = #sdy.sharding_per_value<[<@mesh, [{?}, {"_axis_0", ?}]>]>} : tensor<2048x2048xbf16>
    return %10 : tensor<2048x2048xbf16>
  }
}


// -----// IR Dump Before InsertExplicitReshardsPass (sdy-insert-explicit-reshards) ('func.func' operation: @main) //----- //
module @SyncTensorsGraph.27 attributes {mhlo.cross_program_prefetches = [], mhlo.input_output_alias = [], mhlo.is_dynamic = false, mhlo.use_auto_spmd_partitioning = false} {
  sdy.mesh @mesh = <["_axis_0_updated"=1, "_axis_0"=8]>
  func.func @main(%arg0: tensor<2048xbf16> {sdy.sharding = #sdy.sharding<@mesh, [{}]>, ttcore.argument_type = #ttcore.argument_type<input>, ttcore.shard_status = #ttcore.shard_status<presharded>}, %arg1: tensor<2048x2048xbf16> {sdy.sharding = #sdy.sharding<@mesh, [{}, {"_axis_0"}]>, ttcore.argument_type = #ttcore.argument_type<input>, ttcore.shard_status = #ttcore.shard_status<presharded>}, %arg2: tensor<2048xbf16> {sdy.sharding = #sdy.sharding<@mesh, [{"_axis_0"}]>, ttcore.argument_type = #ttcore.argument_type<input>, ttcore.shard_status = #ttcore.shard_status<presharded>}, %arg3: tensor<2048x2048xbf16> {sdy.sharding = #sdy.sharding<@mesh, [{"_axis_0"}, {}]>, ttcore.argument_type = #ttcore.argument_type<input>, ttcore.shard_status = #ttcore.shard_status<presharded>}, %arg4: tensor<2048x2048xbf16> {sdy.sharding = #sdy.sharding<@mesh, [{}, {}]>, ttcore.argument_type = #ttcore.argument_type<input>, ttcore.shard_status = #ttcore.shard_status<presharded>}) -> (tensor<2048x2048xbf16> {sdy.sharding = #sdy.sharding<@mesh, [{?}, {"_axis_0", ?}]>, ttcore.shard_status = #ttcore.shard_status<unsharded>}) {
    %cst = stablehlo.constant dense<0.000000e+00> : tensor<bf16>
    %0 = stablehlo.broadcast_in_dim %cst, dims = [] {sdy.sharding = #sdy.sharding_per_value<[<@mesh, [{?}, {"_axis_0", ?}]>]>} : (tensor<bf16>) -> tensor<2048x2048xbf16>
    %1 = stablehlo.transpose %arg3, dims = [1, 0] {result_layout = dense<[0, 1]> : tensor<2xindex>, sdy.sharding = #sdy.sharding_per_value<[<@mesh, [{?}, {"_axis_0", ?}]>]>, xla_shape = "bf16[2048,2048]{0,1}"} : (tensor<2048x2048xbf16>) -> tensor<2048x2048xbf16>
    %2 = stablehlo.dot_general %arg4, %1, contracting_dims = [1] x [0] {sdy.sharding = #sdy.sharding_per_value<[<@mesh, [{?}, {"_axis_0", ?}]>]>} : (tensor<2048x2048xbf16>, tensor<2048x2048xbf16>) -> tensor<2048x2048xbf16>
    %3 = stablehlo.broadcast_in_dim %arg2, dims = [1] {sdy.sharding = #sdy.sharding_per_value<[<@mesh, [{?}, {"_axis_0", ?}]>]>} : (tensor<2048xbf16>) -> tensor<2048x2048xbf16>
    %4 = stablehlo.add %2, %3 {sdy.sharding = #sdy.sharding_per_value<[<@mesh, [{?}, {"_axis_0", ?}]>]>} : tensor<2048x2048xbf16>
    %5 = stablehlo.maximum %4, %0 {sdy.sharding = #sdy.sharding_per_value<[<@mesh, [{?}, {"_axis_0", ?}]>]>} : tensor<2048x2048xbf16>
    %6 = stablehlo.transpose %arg1, dims = [1, 0] {result_layout = dense<[0, 1]> : tensor<2xindex>, sdy.sharding = #sdy.sharding_per_value<[<@mesh, [{"_axis_0", ?}, {?}]>]>, xla_shape = "bf16[2048,2048]{0,1}"} : (tensor<2048x2048xbf16>) -> tensor<2048x2048xbf16>
    %7 = stablehlo.dot_general %5, %6, contracting_dims = [1] x [0] {sdy.sharding = #sdy.sharding_per_value<[<@mesh, [{?}, {"_axis_0", ?}]>]>} : (tensor<2048x2048xbf16>, tensor<2048x2048xbf16>) -> tensor<2048x2048xbf16>
    %8 = stablehlo.broadcast_in_dim %arg0, dims = [1] {sdy.sharding = #sdy.sharding_per_value<[<@mesh, [{?}, {"_axis_0", ?}]>]>} : (tensor<2048xbf16>) -> tensor<2048x2048xbf16>
    %9 = stablehlo.add %7, %8 {sdy.sharding = #sdy.sharding_per_value<[<@mesh, [{?}, {"_axis_0", ?}]>]>} : tensor<2048x2048xbf16>
    %10 = stablehlo.maximum %9, %0 {sdy.sharding = #sdy.sharding_per_value<[<@mesh, [{?}, {"_axis_0", ?}]>]>} : tensor<2048x2048xbf16>
    return %10 : tensor<2048x2048xbf16>
  }
}


// -----// IR Dump After InsertExplicitReshardsPass (sdy-insert-explicit-reshards) ('func.func' operation: @main) //----- //
module @SyncTensorsGraph.27 attributes {mhlo.cross_program_prefetches = [], mhlo.input_output_alias = [], mhlo.is_dynamic = false, mhlo.use_auto_spmd_partitioning = false} {
  sdy.mesh @mesh = <["_axis_0_updated"=1, "_axis_0"=8]>
  func.func @main(%arg0: tensor<2048xbf16> {sdy.sharding = #sdy.sharding<@mesh, [{}]>, ttcore.argument_type = #ttcore.argument_type<input>, ttcore.shard_status = #ttcore.shard_status<presharded>}, %arg1: tensor<2048x2048xbf16> {sdy.sharding = #sdy.sharding<@mesh, [{}, {"_axis_0"}]>, ttcore.argument_type = #ttcore.argument_type<input>, ttcore.shard_status = #ttcore.shard_status<presharded>}, %arg2: tensor<2048xbf16> {sdy.sharding = #sdy.sharding<@mesh, [{"_axis_0"}]>, ttcore.argument_type = #ttcore.argument_type<input>, ttcore.shard_status = #ttcore.shard_status<presharded>}, %arg3: tensor<2048x2048xbf16> {sdy.sharding = #sdy.sharding<@mesh, [{"_axis_0"}, {}]>, ttcore.argument_type = #ttcore.argument_type<input>, ttcore.shard_status = #ttcore.shard_status<presharded>}, %arg4: tensor<2048x2048xbf16> {sdy.sharding = #sdy.sharding<@mesh, [{}, {}]>, ttcore.argument_type = #ttcore.argument_type<input>, ttcore.shard_status = #ttcore.shard_status<presharded>}) -> (tensor<2048x2048xbf16> {sdy.sharding = #sdy.sharding<@mesh, [{?}, {"_axis_0", ?}]>, ttcore.shard_status = #ttcore.shard_status<unsharded>}) {
    %cst = stablehlo.constant dense<0.000000e+00> : tensor<bf16>
    %0 = stablehlo.broadcast_in_dim %cst, dims = [] {sdy.sharding = #sdy.sharding_per_value<[<@mesh, [{?}, {"_axis_0", ?}]>]>} : (tensor<bf16>) -> tensor<2048x2048xbf16>
    %1 = stablehlo.transpose %arg3, dims = [1, 0] {result_layout = dense<[0, 1]> : tensor<2xindex>, sdy.sharding = #sdy.sharding_per_value<[<@mesh, [{?}, {"_axis_0", ?}]>]>, xla_shape = "bf16[2048,2048]{0,1}"} : (tensor<2048x2048xbf16>) -> tensor<2048x2048xbf16>
    %2 = stablehlo.dot_general %arg4, %1, contracting_dims = [1] x [0] {sdy.sharding = #sdy.sharding_per_value<[<@mesh, [{?}, {"_axis_0", ?}]>]>} : (tensor<2048x2048xbf16>, tensor<2048x2048xbf16>) -> tensor<2048x2048xbf16>
    %3 = stablehlo.broadcast_in_dim %arg2, dims = [1] {sdy.sharding = #sdy.sharding_per_value<[<@mesh, [{?}, {"_axis_0", ?}]>]>} : (tensor<2048xbf16>) -> tensor<2048x2048xbf16>
    %4 = stablehlo.add %2, %3 {sdy.sharding = #sdy.sharding_per_value<[<@mesh, [{?}, {"_axis_0", ?}]>]>} : tensor<2048x2048xbf16>
    %5 = stablehlo.maximum %4, %0 {sdy.sharding = #sdy.sharding_per_value<[<@mesh, [{?}, {"_axis_0", ?}]>]>} : tensor<2048x2048xbf16>
    %6 = stablehlo.transpose %arg1, dims = [1, 0] {result_layout = dense<[0, 1]> : tensor<2xindex>, sdy.sharding = #sdy.sharding_per_value<[<@mesh, [{"_axis_0", ?}, {?}]>]>, xla_shape = "bf16[2048,2048]{0,1}"} : (tensor<2048x2048xbf16>) -> tensor<2048x2048xbf16>
    %7 = stablehlo.dot_general %5, %6, contracting_dims = [1] x [0] {sdy.sharding = #sdy.sharding_per_value<[<@mesh, [{?}, {?}]>]>} : (tensor<2048x2048xbf16>, tensor<2048x2048xbf16>) -> tensor<2048x2048xbf16>
    %8 = sdy.all_reduce {"_axis_0"} %7 out_sharding=<@mesh, [{?}, {?}]> : tensor<2048x2048xbf16>
    %9 = sdy.reshard %8 <@mesh, [{?}, {"_axis_0", ?}]> : tensor<2048x2048xbf16>
    %10 = sdy.reshard %arg0 <@mesh, [{"_axis_0"}]> : tensor<2048xbf16>
    %11 = stablehlo.broadcast_in_dim %10, dims = [1] {sdy.sharding = #sdy.sharding_per_value<[<@mesh, [{?}, {"_axis_0", ?}]>]>} : (tensor<2048xbf16>) -> tensor<2048x2048xbf16>
    %12 = stablehlo.add %9, %11 {sdy.sharding = #sdy.sharding_per_value<[<@mesh, [{?}, {"_axis_0", ?}]>]>} : tensor<2048x2048xbf16>
    %13 = stablehlo.maximum %12, %0 {sdy.sharding = #sdy.sharding_per_value<[<@mesh, [{?}, {"_axis_0", ?}]>]>} : tensor<2048x2048xbf16>
    return %13 : tensor<2048x2048xbf16>
  }
}


// -----// IR Dump Before WrapUnderManualComputationPass (wrap-under-manual-computation) ('builtin.module' operation: @SyncTensorsGraph.27) //----- //
module @SyncTensorsGraph.27 attributes {mhlo.cross_program_prefetches = [], mhlo.input_output_alias = [], mhlo.is_dynamic = false, mhlo.use_auto_spmd_partitioning = false} {
  sdy.mesh @mesh = <["_axis_0_updated"=1, "_axis_0"=8]>
  func.func @main(%arg0: tensor<2048xbf16> {sdy.sharding = #sdy.sharding<@mesh, [{}]>, ttcore.argument_type = #ttcore.argument_type<input>, ttcore.shard_status = #ttcore.shard_status<presharded>}, %arg1: tensor<2048x2048xbf16> {sdy.sharding = #sdy.sharding<@mesh, [{}, {"_axis_0"}]>, ttcore.argument_type = #ttcore.argument_type<input>, ttcore.shard_status = #ttcore.shard_status<presharded>}, %arg2: tensor<2048xbf16> {sdy.sharding = #sdy.sharding<@mesh, [{"_axis_0"}]>, ttcore.argument_type = #ttcore.argument_type<input>, ttcore.shard_status = #ttcore.shard_status<presharded>}, %arg3: tensor<2048x2048xbf16> {sdy.sharding = #sdy.sharding<@mesh, [{"_axis_0"}, {}]>, ttcore.argument_type = #ttcore.argument_type<input>, ttcore.shard_status = #ttcore.shard_status<presharded>}, %arg4: tensor<2048x2048xbf16> {sdy.sharding = #sdy.sharding<@mesh, [{}, {}]>, ttcore.argument_type = #ttcore.argument_type<input>, ttcore.shard_status = #ttcore.shard_status<presharded>}) -> (tensor<2048x2048xbf16> {sdy.sharding = #sdy.sharding<@mesh, [{?}, {"_axis_0", ?}]>, ttcore.shard_status = #ttcore.shard_status<unsharded>}) {
    %cst = stablehlo.constant dense<0.000000e+00> : tensor<bf16>
    %0 = stablehlo.broadcast_in_dim %cst, dims = [] {sdy.sharding = #sdy.sharding_per_value<[<@mesh, [{?}, {"_axis_0", ?}]>]>} : (tensor<bf16>) -> tensor<2048x2048xbf16>
    %1 = stablehlo.transpose %arg3, dims = [1, 0] {result_layout = dense<[0, 1]> : tensor<2xindex>, sdy.sharding = #sdy.sharding_per_value<[<@mesh, [{?}, {"_axis_0", ?}]>]>, xla_shape = "bf16[2048,2048]{0,1}"} : (tensor<2048x2048xbf16>) -> tensor<2048x2048xbf16>
    %2 = stablehlo.dot_general %arg4, %1, contracting_dims = [1] x [0] {sdy.sharding = #sdy.sharding_per_value<[<@mesh, [{?}, {"_axis_0", ?}]>]>} : (tensor<2048x2048xbf16>, tensor<2048x2048xbf16>) -> tensor<2048x2048xbf16>
    %3 = stablehlo.broadcast_in_dim %arg2, dims = [1] {sdy.sharding = #sdy.sharding_per_value<[<@mesh, [{?}, {"_axis_0", ?}]>]>} : (tensor<2048xbf16>) -> tensor<2048x2048xbf16>
    %4 = stablehlo.add %2, %3 {sdy.sharding = #sdy.sharding_per_value<[<@mesh, [{?}, {"_axis_0", ?}]>]>} : tensor<2048x2048xbf16>
    %5 = stablehlo.maximum %4, %0 {sdy.sharding = #sdy.sharding_per_value<[<@mesh, [{?}, {"_axis_0", ?}]>]>} : tensor<2048x2048xbf16>
    %6 = stablehlo.transpose %arg1, dims = [1, 0] {result_layout = dense<[0, 1]> : tensor<2xindex>, sdy.sharding = #sdy.sharding_per_value<[<@mesh, [{"_axis_0", ?}, {?}]>]>, xla_shape = "bf16[2048,2048]{0,1}"} : (tensor<2048x2048xbf16>) -> tensor<2048x2048xbf16>
    %7 = stablehlo.dot_general %5, %6, contracting_dims = [1] x [0] {sdy.sharding = #sdy.sharding_per_value<[<@mesh, [{?}, {?}]>]>} : (tensor<2048x2048xbf16>, tensor<2048x2048xbf16>) -> tensor<2048x2048xbf16>
    %8 = sdy.all_reduce {"_axis_0"} %7 out_sharding=<@mesh, [{?}, {?}]> : tensor<2048x2048xbf16>
    %9 = sdy.reshard %8 <@mesh, [{?}, {"_axis_0", ?}]> : tensor<2048x2048xbf16>
    %10 = sdy.reshard %arg0 <@mesh, [{"_axis_0"}]> : tensor<2048xbf16>
    %11 = stablehlo.broadcast_in_dim %10, dims = [1] {sdy.sharding = #sdy.sharding_per_value<[<@mesh, [{?}, {"_axis_0", ?}]>]>} : (tensor<2048xbf16>) -> tensor<2048x2048xbf16>
    %12 = stablehlo.add %9, %11 {sdy.sharding = #sdy.sharding_per_value<[<@mesh, [{?}, {"_axis_0", ?}]>]>} : tensor<2048x2048xbf16>
    %13 = stablehlo.maximum %12, %0 {sdy.sharding = #sdy.sharding_per_value<[<@mesh, [{?}, {"_axis_0", ?}]>]>} : tensor<2048x2048xbf16>
    return %13 : tensor<2048x2048xbf16>
  }
}


// -----// IR Dump After WrapUnderManualComputationPass (wrap-under-manual-computation) ('builtin.module' operation: @SyncTensorsGraph.27) //----- //
module @SyncTensorsGraph.27 attributes {mhlo.cross_program_prefetches = [], mhlo.input_output_alias = [], mhlo.is_dynamic = false, mhlo.use_auto_spmd_partitioning = false} {
  sdy.mesh @mesh = <["_axis_0_updated"=1, "_axis_0"=8]>
  func.func @main(%arg0: tensor<2048xbf16> {sdy.sharding = #sdy.sharding<@mesh, [{}]>, ttcore.argument_type = #ttcore.argument_type<input>, ttcore.shard_status = #ttcore.shard_status<presharded>}, %arg1: tensor<2048x2048xbf16> {sdy.sharding = #sdy.sharding<@mesh, [{}, {"_axis_0"}]>, ttcore.argument_type = #ttcore.argument_type<input>, ttcore.shard_status = #ttcore.shard_status<presharded>}, %arg2: tensor<2048xbf16> {sdy.sharding = #sdy.sharding<@mesh, [{"_axis_0"}]>, ttcore.argument_type = #ttcore.argument_type<input>, ttcore.shard_status = #ttcore.shard_status<presharded>}, %arg3: tensor<2048x2048xbf16> {sdy.sharding = #sdy.sharding<@mesh, [{"_axis_0"}, {}]>, ttcore.argument_type = #ttcore.argument_type<input>, ttcore.shard_status = #ttcore.shard_status<presharded>}, %arg4: tensor<2048x2048xbf16> {sdy.sharding = #sdy.sharding<@mesh, [{}, {}]>, ttcore.argument_type = #ttcore.argument_type<input>, ttcore.shard_status = #ttcore.shard_status<presharded>}) -> (tensor<2048x2048xbf16> {sdy.sharding = #sdy.sharding<@mesh, [{?}, {"_axis_0", ?}]>, ttcore.shard_status = #ttcore.shard_status<unsharded>}) {
    %0 = sdy.manual_computation(%arg0, %arg1, %arg2, %arg3, %arg4) in_shardings=[<@mesh, [{}]>, <@mesh, [{}, {"_axis_0"}]>, <@mesh, [{"_axis_0"}]>, <@mesh, [{"_axis_0"}, {}]>, <@mesh, [{}, {}]>] out_shardings=[<@mesh, [{?}, {"_axis_0", ?}]>] manual_axes={} (%arg5: tensor<2048xbf16>, %arg6: tensor<2048x2048xbf16>, %arg7: tensor<2048xbf16>, %arg8: tensor<2048x2048xbf16>, %arg9: tensor<2048x2048xbf16>) {
      %cst = stablehlo.constant dense<0.000000e+00> : tensor<bf16>
      %1 = stablehlo.broadcast_in_dim %cst, dims = [] {sdy.sharding = #sdy.sharding_per_value<[<@mesh, [{?}, {"_axis_0", ?}]>]>} : (tensor<bf16>) -> tensor<2048x2048xbf16>
      %2 = stablehlo.transpose %arg8, dims = [1, 0] {result_layout = dense<[0, 1]> : tensor<2xindex>, sdy.sharding = #sdy.sharding_per_value<[<@mesh, [{?}, {"_axis_0", ?}]>]>, xla_shape = "bf16[2048,2048]{0,1}"} : (tensor<2048x2048xbf16>) -> tensor<2048x2048xbf16>
      %3 = stablehlo.dot_general %arg9, %2, contracting_dims = [1] x [0] {sdy.sharding = #sdy.sharding_per_value<[<@mesh, [{?}, {"_axis_0", ?}]>]>} : (tensor<2048x2048xbf16>, tensor<2048x2048xbf16>) -> tensor<2048x2048xbf16>
      %4 = stablehlo.broadcast_in_dim %arg7, dims = [1] {sdy.sharding = #sdy.sharding_per_value<[<@mesh, [{?}, {"_axis_0", ?}]>]>} : (tensor<2048xbf16>) -> tensor<2048x2048xbf16>
      %5 = stablehlo.add %3, %4 {sdy.sharding = #sdy.sharding_per_value<[<@mesh, [{?}, {"_axis_0", ?}]>]>} : tensor<2048x2048xbf16>
      %6 = stablehlo.maximum %5, %1 {sdy.sharding = #sdy.sharding_per_value<[<@mesh, [{?}, {"_axis_0", ?}]>]>} : tensor<2048x2048xbf16>
      %7 = stablehlo.transpose %arg6, dims = [1, 0] {result_layout = dense<[0, 1]> : tensor<2xindex>, sdy.sharding = #sdy.sharding_per_value<[<@mesh, [{"_axis_0", ?}, {?}]>]>, xla_shape = "bf16[2048,2048]{0,1}"} : (tensor<2048x2048xbf16>) -> tensor<2048x2048xbf16>
      %8 = stablehlo.dot_general %6, %7, contracting_dims = [1] x [0] {sdy.sharding = #sdy.sharding_per_value<[<@mesh, [{?}, {?}]>]>} : (tensor<2048x2048xbf16>, tensor<2048x2048xbf16>) -> tensor<2048x2048xbf16>
      %9 = sdy.all_reduce {"_axis_0"} %8 out_sharding=<@mesh, [{?}, {?}]> : tensor<2048x2048xbf16>
      %10 = sdy.reshard %9 <@mesh, [{?}, {"_axis_0", ?}]> : tensor<2048x2048xbf16>
      %11 = sdy.reshard %arg5 <@mesh, [{"_axis_0"}]> : tensor<2048xbf16>
      %12 = stablehlo.broadcast_in_dim %11, dims = [1] {sdy.sharding = #sdy.sharding_per_value<[<@mesh, [{?}, {"_axis_0", ?}]>]>} : (tensor<2048xbf16>) -> tensor<2048x2048xbf16>
      %13 = stablehlo.add %10, %12 {sdy.sharding = #sdy.sharding_per_value<[<@mesh, [{?}, {"_axis_0", ?}]>]>} : tensor<2048x2048xbf16>
      %14 = stablehlo.maximum %13, %1 {sdy.sharding = #sdy.sharding_per_value<[<@mesh, [{?}, {"_axis_0", ?}]>]>} : tensor<2048x2048xbf16>
      sdy.return %14 : tensor<2048x2048xbf16>
    } : (tensor<2048xbf16>, tensor<2048x2048xbf16>, tensor<2048xbf16>, tensor<2048x2048xbf16>, tensor<2048x2048xbf16>) -> tensor<2048x2048xbf16>
    return %0 : tensor<2048x2048xbf16>
  }
}


// -----// IR Dump Before ReshardToCollectivesPass (sdy-reshard-to-collectives) ('func.func' operation: @main) //----- //
module @SyncTensorsGraph.27 attributes {mhlo.cross_program_prefetches = [], mhlo.input_output_alias = [], mhlo.is_dynamic = false, mhlo.use_auto_spmd_partitioning = false} {
  sdy.mesh @mesh = <["_axis_0_updated"=1, "_axis_0"=8]>
  func.func @main(%arg0: tensor<2048xbf16> {sdy.sharding = #sdy.sharding<@mesh, [{}]>, ttcore.argument_type = #ttcore.argument_type<input>, ttcore.shard_status = #ttcore.shard_status<presharded>}, %arg1: tensor<2048x2048xbf16> {sdy.sharding = #sdy.sharding<@mesh, [{}, {"_axis_0"}]>, ttcore.argument_type = #ttcore.argument_type<input>, ttcore.shard_status = #ttcore.shard_status<presharded>}, %arg2: tensor<2048xbf16> {sdy.sharding = #sdy.sharding<@mesh, [{"_axis_0"}]>, ttcore.argument_type = #ttcore.argument_type<input>, ttcore.shard_status = #ttcore.shard_status<presharded>}, %arg3: tensor<2048x2048xbf16> {sdy.sharding = #sdy.sharding<@mesh, [{"_axis_0"}, {}]>, ttcore.argument_type = #ttcore.argument_type<input>, ttcore.shard_status = #ttcore.shard_status<presharded>}, %arg4: tensor<2048x2048xbf16> {sdy.sharding = #sdy.sharding<@mesh, [{}, {}]>, ttcore.argument_type = #ttcore.argument_type<input>, ttcore.shard_status = #ttcore.shard_status<presharded>}) -> (tensor<2048x2048xbf16> {sdy.sharding = #sdy.sharding<@mesh, [{?}, {"_axis_0", ?}]>, ttcore.shard_status = #ttcore.shard_status<unsharded>}) {
    %0 = sdy.manual_computation(%arg0, %arg1, %arg2, %arg3, %arg4) in_shardings=[<@mesh, [{}]>, <@mesh, [{}, {"_axis_0"}]>, <@mesh, [{"_axis_0"}]>, <@mesh, [{"_axis_0"}, {}]>, <@mesh, [{}, {}]>] out_shardings=[<@mesh, [{?}, {"_axis_0", ?}]>] manual_axes={} (%arg5: tensor<2048xbf16>, %arg6: tensor<2048x2048xbf16>, %arg7: tensor<2048xbf16>, %arg8: tensor<2048x2048xbf16>, %arg9: tensor<2048x2048xbf16>) {
      %cst = stablehlo.constant dense<0.000000e+00> : tensor<bf16>
      %1 = stablehlo.broadcast_in_dim %cst, dims = [] {sdy.sharding = #sdy.sharding_per_value<[<@mesh, [{?}, {"_axis_0", ?}]>]>} : (tensor<bf16>) -> tensor<2048x2048xbf16>
      %2 = stablehlo.transpose %arg8, dims = [1, 0] {result_layout = dense<[0, 1]> : tensor<2xindex>, sdy.sharding = #sdy.sharding_per_value<[<@mesh, [{?}, {"_axis_0", ?}]>]>, xla_shape = "bf16[2048,2048]{0,1}"} : (tensor<2048x2048xbf16>) -> tensor<2048x2048xbf16>
      %3 = stablehlo.dot_general %arg9, %2, contracting_dims = [1] x [0] {sdy.sharding = #sdy.sharding_per_value<[<@mesh, [{?}, {"_axis_0", ?}]>]>} : (tensor<2048x2048xbf16>, tensor<2048x2048xbf16>) -> tensor<2048x2048xbf16>
      %4 = stablehlo.broadcast_in_dim %arg7, dims = [1] {sdy.sharding = #sdy.sharding_per_value<[<@mesh, [{?}, {"_axis_0", ?}]>]>} : (tensor<2048xbf16>) -> tensor<2048x2048xbf16>
      %5 = stablehlo.add %3, %4 {sdy.sharding = #sdy.sharding_per_value<[<@mesh, [{?}, {"_axis_0", ?}]>]>} : tensor<2048x2048xbf16>
      %6 = stablehlo.maximum %5, %1 {sdy.sharding = #sdy.sharding_per_value<[<@mesh, [{?}, {"_axis_0", ?}]>]>} : tensor<2048x2048xbf16>
      %7 = stablehlo.transpose %arg6, dims = [1, 0] {result_layout = dense<[0, 1]> : tensor<2xindex>, sdy.sharding = #sdy.sharding_per_value<[<@mesh, [{"_axis_0", ?}, {?}]>]>, xla_shape = "bf16[2048,2048]{0,1}"} : (tensor<2048x2048xbf16>) -> tensor<2048x2048xbf16>
      %8 = stablehlo.dot_general %6, %7, contracting_dims = [1] x [0] {sdy.sharding = #sdy.sharding_per_value<[<@mesh, [{?}, {?}]>]>} : (tensor<2048x2048xbf16>, tensor<2048x2048xbf16>) -> tensor<2048x2048xbf16>
      %9 = sdy.all_reduce {"_axis_0"} %8 out_sharding=<@mesh, [{?}, {?}]> : tensor<2048x2048xbf16>
      %10 = sdy.reshard %9 <@mesh, [{?}, {"_axis_0", ?}]> : tensor<2048x2048xbf16>
      %11 = sdy.reshard %arg5 <@mesh, [{"_axis_0"}]> : tensor<2048xbf16>
      %12 = stablehlo.broadcast_in_dim %11, dims = [1] {sdy.sharding = #sdy.sharding_per_value<[<@mesh, [{?}, {"_axis_0", ?}]>]>} : (tensor<2048xbf16>) -> tensor<2048x2048xbf16>
      %13 = stablehlo.add %10, %12 {sdy.sharding = #sdy.sharding_per_value<[<@mesh, [{?}, {"_axis_0", ?}]>]>} : tensor<2048x2048xbf16>
      %14 = stablehlo.maximum %13, %1 {sdy.sharding = #sdy.sharding_per_value<[<@mesh, [{?}, {"_axis_0", ?}]>]>} : tensor<2048x2048xbf16>
      sdy.return %14 : tensor<2048x2048xbf16>
    } : (tensor<2048xbf16>, tensor<2048x2048xbf16>, tensor<2048xbf16>, tensor<2048x2048xbf16>, tensor<2048x2048xbf16>) -> tensor<2048x2048xbf16>
    return %0 : tensor<2048x2048xbf16>
  }
}


// -----// IR Dump After ReshardToCollectivesPass (sdy-reshard-to-collectives) ('func.func' operation: @main) //----- //
module @SyncTensorsGraph.27 attributes {mhlo.cross_program_prefetches = [], mhlo.input_output_alias = [], mhlo.is_dynamic = false, mhlo.use_auto_spmd_partitioning = false} {
  sdy.mesh @mesh = <["_axis_0_updated"=1, "_axis_0"=8]>
  func.func @main(%arg0: tensor<2048xbf16> {sdy.sharding = #sdy.sharding<@mesh, [{}]>, ttcore.argument_type = #ttcore.argument_type<input>, ttcore.shard_status = #ttcore.shard_status<presharded>}, %arg1: tensor<2048x2048xbf16> {sdy.sharding = #sdy.sharding<@mesh, [{}, {"_axis_0"}]>, ttcore.argument_type = #ttcore.argument_type<input>, ttcore.shard_status = #ttcore.shard_status<presharded>}, %arg2: tensor<2048xbf16> {sdy.sharding = #sdy.sharding<@mesh, [{"_axis_0"}]>, ttcore.argument_type = #ttcore.argument_type<input>, ttcore.shard_status = #ttcore.shard_status<presharded>}, %arg3: tensor<2048x2048xbf16> {sdy.sharding = #sdy.sharding<@mesh, [{"_axis_0"}, {}]>, ttcore.argument_type = #ttcore.argument_type<input>, ttcore.shard_status = #ttcore.shard_status<presharded>}, %arg4: tensor<2048x2048xbf16> {sdy.sharding = #sdy.sharding<@mesh, [{}, {}]>, ttcore.argument_type = #ttcore.argument_type<input>, ttcore.shard_status = #ttcore.shard_status<presharded>}) -> (tensor<2048x2048xbf16> {sdy.sharding = #sdy.sharding<@mesh, [{?}, {"_axis_0", ?}]>, ttcore.shard_status = #ttcore.shard_status<unsharded>}) {
    %0 = sdy.manual_computation(%arg0, %arg1, %arg2, %arg3, %arg4) in_shardings=[<@mesh, [{}]>, <@mesh, [{}, {"_axis_0"}]>, <@mesh, [{"_axis_0"}]>, <@mesh, [{"_axis_0"}, {}]>, <@mesh, [{}, {}]>] out_shardings=[<@mesh, [{?}, {"_axis_0", ?}]>] manual_axes={} (%arg5: tensor<2048xbf16>, %arg6: tensor<2048x2048xbf16>, %arg7: tensor<2048xbf16>, %arg8: tensor<2048x2048xbf16>, %arg9: tensor<2048x2048xbf16>) {
      %cst = stablehlo.constant dense<0.000000e+00> : tensor<bf16>
      %1 = stablehlo.broadcast_in_dim %cst, dims = [] {sdy.sharding = #sdy.sharding_per_value<[<@mesh, [{?}, {"_axis_0", ?}]>]>} : (tensor<bf16>) -> tensor<2048x2048xbf16>
      %2 = stablehlo.transpose %arg8, dims = [1, 0] {result_layout = dense<[0, 1]> : tensor<2xindex>, sdy.sharding = #sdy.sharding_per_value<[<@mesh, [{?}, {"_axis_0", ?}]>]>, xla_shape = "bf16[2048,2048]{0,1}"} : (tensor<2048x2048xbf16>) -> tensor<2048x2048xbf16>
      %3 = stablehlo.dot_general %arg9, %2, contracting_dims = [1] x [0] {sdy.sharding = #sdy.sharding_per_value<[<@mesh, [{?}, {"_axis_0", ?}]>]>} : (tensor<2048x2048xbf16>, tensor<2048x2048xbf16>) -> tensor<2048x2048xbf16>
      %4 = stablehlo.broadcast_in_dim %arg7, dims = [1] {sdy.sharding = #sdy.sharding_per_value<[<@mesh, [{?}, {"_axis_0", ?}]>]>} : (tensor<2048xbf16>) -> tensor<2048x2048xbf16>
      %5 = stablehlo.add %3, %4 {sdy.sharding = #sdy.sharding_per_value<[<@mesh, [{?}, {"_axis_0", ?}]>]>} : tensor<2048x2048xbf16>
      %6 = stablehlo.maximum %5, %1 {sdy.sharding = #sdy.sharding_per_value<[<@mesh, [{?}, {"_axis_0", ?}]>]>} : tensor<2048x2048xbf16>
      %7 = stablehlo.transpose %arg6, dims = [1, 0] {result_layout = dense<[0, 1]> : tensor<2xindex>, sdy.sharding = #sdy.sharding_per_value<[<@mesh, [{"_axis_0", ?}, {?}]>]>, xla_shape = "bf16[2048,2048]{0,1}"} : (tensor<2048x2048xbf16>) -> tensor<2048x2048xbf16>
      %8 = stablehlo.dot_general %6, %7, contracting_dims = [1] x [0] {sdy.sharding = #sdy.sharding_per_value<[<@mesh, [{?}, {?}]>]>} : (tensor<2048x2048xbf16>, tensor<2048x2048xbf16>) -> tensor<2048x2048xbf16>
      %9 = sdy.all_reduce {"_axis_0"} %8 out_sharding=<@mesh, [{?}, {?}]> : tensor<2048x2048xbf16>
      %10 = sdy.all_slice [{}, {"_axis_0"}] %9 out_sharding=<@mesh, [{}, {"_axis_0"}]> : tensor<2048x2048xbf16>
      %11 = sdy.all_slice [{"_axis_0"}] %arg5 out_sharding=<@mesh, [{"_axis_0"}]> : tensor<2048xbf16>
      %12 = stablehlo.broadcast_in_dim %11, dims = [1] {sdy.sharding = #sdy.sharding_per_value<[<@mesh, [{?}, {"_axis_0", ?}]>]>} : (tensor<2048xbf16>) -> tensor<2048x2048xbf16>
      %13 = stablehlo.add %10, %12 {sdy.sharding = #sdy.sharding_per_value<[<@mesh, [{?}, {"_axis_0", ?}]>]>} : tensor<2048x2048xbf16>
      %14 = stablehlo.maximum %13, %1 {sdy.sharding = #sdy.sharding_per_value<[<@mesh, [{?}, {"_axis_0", ?}]>]>} : tensor<2048x2048xbf16>
      sdy.return %14 : tensor<2048x2048xbf16>
    } : (tensor<2048xbf16>, tensor<2048x2048xbf16>, tensor<2048xbf16>, tensor<2048x2048xbf16>, tensor<2048x2048xbf16>) -> tensor<2048x2048xbf16>
    return %0 : tensor<2048x2048xbf16>
  }
}


// -----// IR Dump Before UpdateGlobalToLocalShapesPass (update-global-to-local-shapes) ('builtin.module' operation: @SyncTensorsGraph.27) //----- //
module @SyncTensorsGraph.27 attributes {mhlo.cross_program_prefetches = [], mhlo.input_output_alias = [], mhlo.is_dynamic = false, mhlo.use_auto_spmd_partitioning = false} {
  sdy.mesh @mesh = <["_axis_0_updated"=1, "_axis_0"=8]>
  func.func @main(%arg0: tensor<2048xbf16> {sdy.sharding = #sdy.sharding<@mesh, [{}]>, ttcore.argument_type = #ttcore.argument_type<input>, ttcore.shard_status = #ttcore.shard_status<presharded>}, %arg1: tensor<2048x2048xbf16> {sdy.sharding = #sdy.sharding<@mesh, [{}, {"_axis_0"}]>, ttcore.argument_type = #ttcore.argument_type<input>, ttcore.shard_status = #ttcore.shard_status<presharded>}, %arg2: tensor<2048xbf16> {sdy.sharding = #sdy.sharding<@mesh, [{"_axis_0"}]>, ttcore.argument_type = #ttcore.argument_type<input>, ttcore.shard_status = #ttcore.shard_status<presharded>}, %arg3: tensor<2048x2048xbf16> {sdy.sharding = #sdy.sharding<@mesh, [{"_axis_0"}, {}]>, ttcore.argument_type = #ttcore.argument_type<input>, ttcore.shard_status = #ttcore.shard_status<presharded>}, %arg4: tensor<2048x2048xbf16> {sdy.sharding = #sdy.sharding<@mesh, [{}, {}]>, ttcore.argument_type = #ttcore.argument_type<input>, ttcore.shard_status = #ttcore.shard_status<presharded>}) -> (tensor<2048x2048xbf16> {sdy.sharding = #sdy.sharding<@mesh, [{?}, {"_axis_0", ?}]>, ttcore.shard_status = #ttcore.shard_status<unsharded>}) {
    %0 = sdy.manual_computation(%arg0, %arg1, %arg2, %arg3, %arg4) in_shardings=[<@mesh, [{}]>, <@mesh, [{}, {"_axis_0"}]>, <@mesh, [{"_axis_0"}]>, <@mesh, [{"_axis_0"}, {}]>, <@mesh, [{}, {}]>] out_shardings=[<@mesh, [{?}, {"_axis_0", ?}]>] manual_axes={} (%arg5: tensor<2048xbf16>, %arg6: tensor<2048x2048xbf16>, %arg7: tensor<2048xbf16>, %arg8: tensor<2048x2048xbf16>, %arg9: tensor<2048x2048xbf16>) {
      %cst = stablehlo.constant dense<0.000000e+00> : tensor<bf16>
      %1 = stablehlo.broadcast_in_dim %cst, dims = [] {sdy.sharding = #sdy.sharding_per_value<[<@mesh, [{?}, {"_axis_0", ?}]>]>} : (tensor<bf16>) -> tensor<2048x2048xbf16>
      %2 = stablehlo.transpose %arg8, dims = [1, 0] {result_layout = dense<[0, 1]> : tensor<2xindex>, sdy.sharding = #sdy.sharding_per_value<[<@mesh, [{?}, {"_axis_0", ?}]>]>, xla_shape = "bf16[2048,2048]{0,1}"} : (tensor<2048x2048xbf16>) -> tensor<2048x2048xbf16>
      %3 = stablehlo.dot_general %arg9, %2, contracting_dims = [1] x [0] {sdy.sharding = #sdy.sharding_per_value<[<@mesh, [{?}, {"_axis_0", ?}]>]>} : (tensor<2048x2048xbf16>, tensor<2048x2048xbf16>) -> tensor<2048x2048xbf16>
      %4 = stablehlo.broadcast_in_dim %arg7, dims = [1] {sdy.sharding = #sdy.sharding_per_value<[<@mesh, [{?}, {"_axis_0", ?}]>]>} : (tensor<2048xbf16>) -> tensor<2048x2048xbf16>
      %5 = stablehlo.add %3, %4 {sdy.sharding = #sdy.sharding_per_value<[<@mesh, [{?}, {"_axis_0", ?}]>]>} : tensor<2048x2048xbf16>
      %6 = stablehlo.maximum %5, %1 {sdy.sharding = #sdy.sharding_per_value<[<@mesh, [{?}, {"_axis_0", ?}]>]>} : tensor<2048x2048xbf16>
      %7 = stablehlo.transpose %arg6, dims = [1, 0] {result_layout = dense<[0, 1]> : tensor<2xindex>, sdy.sharding = #sdy.sharding_per_value<[<@mesh, [{"_axis_0", ?}, {?}]>]>, xla_shape = "bf16[2048,2048]{0,1}"} : (tensor<2048x2048xbf16>) -> tensor<2048x2048xbf16>
      %8 = stablehlo.dot_general %6, %7, contracting_dims = [1] x [0] {sdy.sharding = #sdy.sharding_per_value<[<@mesh, [{?}, {?}]>]>} : (tensor<2048x2048xbf16>, tensor<2048x2048xbf16>) -> tensor<2048x2048xbf16>
      %9 = sdy.all_reduce {"_axis_0"} %8 out_sharding=<@mesh, [{?}, {?}]> : tensor<2048x2048xbf16>
      %10 = sdy.all_slice [{}, {"_axis_0"}] %9 out_sharding=<@mesh, [{}, {"_axis_0"}]> : tensor<2048x2048xbf16>
      %11 = sdy.all_slice [{"_axis_0"}] %arg5 out_sharding=<@mesh, [{"_axis_0"}]> : tensor<2048xbf16>
      %12 = stablehlo.broadcast_in_dim %11, dims = [1] {sdy.sharding = #sdy.sharding_per_value<[<@mesh, [{?}, {"_axis_0", ?}]>]>} : (tensor<2048xbf16>) -> tensor<2048x2048xbf16>
      %13 = stablehlo.add %10, %12 {sdy.sharding = #sdy.sharding_per_value<[<@mesh, [{?}, {"_axis_0", ?}]>]>} : tensor<2048x2048xbf16>
      %14 = stablehlo.maximum %13, %1 {sdy.sharding = #sdy.sharding_per_value<[<@mesh, [{?}, {"_axis_0", ?}]>]>} : tensor<2048x2048xbf16>
      sdy.return %14 : tensor<2048x2048xbf16>
    } : (tensor<2048xbf16>, tensor<2048x2048xbf16>, tensor<2048xbf16>, tensor<2048x2048xbf16>, tensor<2048x2048xbf16>) -> tensor<2048x2048xbf16>
    return %0 : tensor<2048x2048xbf16>
  }
}


// -----// IR Dump After UpdateGlobalToLocalShapesPass (update-global-to-local-shapes) ('builtin.module' operation: @SyncTensorsGraph.27) //----- //
module @SyncTensorsGraph.27 attributes {mhlo.cross_program_prefetches = [], mhlo.input_output_alias = [], mhlo.is_dynamic = false, mhlo.use_auto_spmd_partitioning = false} {
  sdy.mesh @mesh = <["_axis_0_updated"=1, "_axis_0"=8]>
…
        %104 = "ttnn.point_to_point"(%96, %103) <{receive_coord = array<i64: 0, 6>, send_coord = array<i64: 0, 0>}> : (tensor<1x256xbf16, #ttnn_layout8>, tensor<1x256xbf16, #ttnn_layout8>) -> tensor<1x256xbf16, #ttnn_layout8> loc(#loc1)
        "ttnn.deallocate"(%103) <{force = false}> : (tensor<1x256xbf16, #ttnn_layout8>) -> () loc(#loc1)
        %105 = "ttnn.point_to_point"(%97, %104) <{receive_coord = array<i64: 0, 7>, send_coord = array<i64: 0, 0>}> : (tensor<1x256xbf16, #ttnn_layout8>, tensor<1x256xbf16, #ttnn_layout8>) -> tensor<1x256xbf16, #ttnn_layout8> loc(#loc1)
        "ttnn.deallocate"(%104) <{force = false}> : (tensor<1x256xbf16, #ttnn_layout8>) -> () loc(#loc1)
        %106 = "ttnn.point_to_point"(%90) <{receive_coord = array<i64: 0, 0>, send_coord = array<i64: 0, 1>}> : (tensor<1x256xbf16, #ttnn_layout8>) -> tensor<1x256xbf16, #ttnn_layout8> loc(#loc1)
        %107 = "ttnn.point_to_point"(%91, %106) <{receive_coord = array<i64: 0, 1>, send_coord = array<i64: 0, 1>}> : (tensor<1x256xbf16, #ttnn_layout8>, tensor<1x256xbf16, #ttnn_layout8>) -> tensor<1x256xbf16, #ttnn_layout8> loc(#loc1)
        "ttnn.deallocate"(%106) <{force = false}> : (tensor<1x256xbf16, #ttnn_layout8>) -> () loc(#loc1)
        %108 = "ttnn.point_to_point"(%92, %107) <{receive_coord = array<i64: 0, 2>, send_coord = array<i64: 0, 1>}> : (tensor<1x256xbf16, #ttnn_layout8>, tensor<1x256xbf16, #ttnn_layout8>) -> tensor<1x256xbf16, #ttnn_layout8> loc(#loc1)
        "ttnn.deallocate"(%107) <{force = false}> : (tensor<1x256xbf16, #ttnn_layout8>) -> () loc(#loc1)
        %109 = "ttnn.point_to_point"(%93, %108) <{receive_coord = array<i64: 0, 3>, send_coord = array<i64: 0, 1>}> : (tensor<1x256xbf16, #ttnn_layout8>, tensor<1x256xbf16, #ttnn_layout8>) -> tensor<1x256xbf16, #ttnn_layout8> loc(#loc1)
        "ttnn.deallocate"(%108) <{force = false}> : (tensor<1x256xbf16, #ttnn_layout8>) -> () loc(#loc1)
        %110 = "ttnn.point_to_point"(%94, %109) <{receive_coord = array<i64: 0, 4>, send_coord = array<i64: 0, 1>}> : (tensor<1x256xbf16, #ttnn_layout8>, tensor<1x256xbf16, #ttnn_layout8>) -> tensor<1x256xbf16, #ttnn_layout8> loc(#loc1)
        "ttnn.deallocate"(%109) <{force = false}> : (tensor<1x256xbf16, #ttnn_layout8>) -> () loc(#loc1)
        %111 = "ttnn.point_to_point"(%95, %110) <{receive_coord = array<i64: 0, 5>, send_coord = array<i64: 0, 1>}> : (tensor<1x256xbf16, #ttnn_layout8>, tensor<1x256xbf16, #ttnn_layout8>) -> tensor<1x256xbf16, #ttnn_layout8> loc(#loc1)
        "ttnn.deallocate"(%110) <{force = false}> : (tensor<1x256xbf16, #ttnn_layout8>) -> () loc(#loc1)
        %112 = "ttnn.point_to_point"(%96, %111) <{receive_coord = array<i64: 0, 6>, send_coord = array<i64: 0, 1>}> : (tensor<1x256xbf16, #ttnn_layout8>, tensor<1x256xbf16, #ttnn_layout8>) -> tensor<1x256xbf16, #ttnn_layout8> loc(#loc1)
        "ttnn.deallocate"(%111) <{force = false}> : (tensor<1x256xbf16, #ttnn_layout8>) -> () loc(#loc1)
        %113 = "ttnn.point_to_point"(%97, %112) <{receive_coord = array<i64: 0, 7>, send_coord = array<i64: 0, 1>}> : (tensor<1x256xbf16, #ttnn_layout8>, tensor<1x256xbf16, #ttnn_layout8>) -> tensor<1x256xbf16, #ttnn_layout8> loc(#loc1)
        "ttnn.deallocate"(%112) <{force = false}> : (tensor<1x256xbf16, #ttnn_layout8>) -> () loc(#loc1)
        %114 = "ttnn.point_to_point"(%90) <{receive_coord = array<i64: 0, 0>, send_coord = array<i64: 0, 2>}> : (tensor<1x256xbf16, #ttnn_layout8>) -> tensor<1x256xbf16, #ttnn_layout8> loc(#loc1)
        %115 = "ttnn.point_to_point"(%91, %114) <{receive_coord = array<i64: 0, 1>, send_coord = array<i64: 0, 2>}> : (tensor<1x256xbf16, #ttnn_layout8>, tensor<1x256xbf16, #ttnn_layout8>) -> tensor<1x256xbf16, #ttnn_layout8> loc(#loc1)
        "ttnn.deallocate"(%114) <{force = false}> : (tensor<1x256xbf16, #ttnn_layout8>) -> () loc(#loc1)
        %116 = "ttnn.point_to_point"(%92, %115) <{receive_coord = array<i64: 0, 2>, send_coord = array<i64: 0, 2>}> : (tensor<1x256xbf16, #ttnn_layout8>, tensor<1x256xbf16, #ttnn_layout8>) -> tensor<1x256xbf16, #ttnn_layout8> loc(#loc1)
        "ttnn.deallocate"(%115) <{force = false}> : (tensor<1x256xbf16, #ttnn_layout8>) -> () loc(#loc1)
        %117 = "ttnn.point_to_point"(%93, %116) <{receive_coord = array<i64: 0, 3>, send_coord = array<i64: 0, 2>}> : (tensor<1x256xbf16, #ttnn_layout8>, tensor<1x256xbf16, #ttnn_layout8>) -> tensor<1x256xbf16, #ttnn_layout8> loc(#loc1)
        "ttnn.deallocate"(%116) <{force = false}> : (tensor<1x256xbf16, #ttnn_layout8>) -> () loc(#loc1)
        %118 = "ttnn.point_to_point"(%94, %117) <{receive_coord = array<i64: 0, 4>, send_coord = array<i64: 0, 2>}> : (tensor<1x256xbf16, #ttnn_layout8>, tensor<1x256xbf16, #ttnn_layout8>) -> tensor<1x256xbf16, #ttnn_layout8> loc(#loc1)
        "ttnn.deallocate"(%117) <{force = false}> : (tensor<1x256xbf16, #ttnn_layout8>) -> () loc(#loc1)
        %119 = "ttnn.point_to_point"(%95, %118) <{receive_coord = array<i64: 0, 5>, send_coord = array<i64: 0, 2>}> : (tensor<1x256xbf16, #ttnn_layout8>, tensor<1x256xbf16, #ttnn_layout8>) -> tensor<1x256xbf16, #ttnn_layout8> loc(#loc1)
        "ttnn.deallocate"(%118) <{force = false}> : (tensor<1x256xbf16, #ttnn_layout8>) -> () loc(#loc1)
        %120 = "ttnn.point_to_point"(%96, %119) <{receive_coord = array<i64: 0, 6>, send_coord = array<i64: 0, 2>}> : (tensor<1x256xbf16, #ttnn_layout8>, tensor<1x256xbf16, #ttnn_layout8>) -> tensor<1x256xbf16, #ttnn_layout8> loc(#loc1)
        "ttnn.deallocate"(%119) <{force = false}> : (tensor<1x256xbf16, #ttnn_layout8>) -> () loc(#loc1)
        %121 = "ttnn.point_to_point"(%97, %120) <{receive_coord = array<i64: 0, 7>, send_coord = array<i64: 0, 2>}> : (tensor<1x256xbf16, #ttnn_layout8>, tensor<1x256xbf16, #ttnn_layout8>) -> tensor<1x256xbf16, #ttnn_layout8> loc(#loc1)
        "ttnn.deallocate"(%120) <{force = false}> : (tensor<1x256xbf16, #ttnn_layout8>) -> () loc(#loc1)
        %122 = "ttnn.point_to_point"(%90) <{receive_coord = array<i64: 0, 0>, send_coord = array<i64: 0, 3>}> : (tensor<1x256xbf16, #ttnn_layout8>) -> tensor<1x256xbf16, #ttnn_layout8> loc(#loc1)
        %123 = "ttnn.point_to_point"(%91, %122) <{receive_coord = array<i64: 0, 1>, send_coord = array<i64: 0, 3>}> : (tensor<1x256xbf16, #ttnn_layout8>, tensor<1x256xbf16, #ttnn_layout8>) -> tensor<1x256xbf16, #ttnn_layout8> loc(#loc1)
        "ttnn.deallocate"(%122) <{force = false}> : (tensor<1x256xbf16, #ttnn_layout8>) -> () loc(#loc1)
        %124 = "ttnn.point_to_point"(%92, %123) <{receive_coord = array<i64: 0, 2>, send_coord = array<i64: 0, 3>}> : (tensor<1x256xbf16, #ttnn_layout8>, tensor<1x256xbf16, #ttnn_layout8>) -> tensor<1x256xbf16, #ttnn_layout8> loc(#loc1)
        "ttnn.deallocate"(%123) <{force = false}> : (tensor<1x256xbf16, #ttnn_layout8>) -> () loc(#loc1)
        %125 = "ttnn.point_to_point"(%93, %124) <{receive_coord = array<i64: 0, 3>, send_coord = array<i64: 0, 3>}> : (tensor<1x256xbf16, #ttnn_layout8>, tensor<1x256xbf16, #ttnn_layout8>) -> tensor<1x256xbf16, #ttnn_layout8> loc(#loc1)
        "ttnn.deallocate"(%124) <{force = false}> : (tensor<1x256xbf16, #ttnn_layout8>) -> () loc(#loc1)
        %126 = "ttnn.point_to_point"(%94, %125) <{receive_coord = array<i64: 0, 4>, send_coord = array<i64: 0, 3>}> : (tensor<1x256xbf16, #ttnn_layout8>, tensor<1x256xbf16, #ttnn_layout8>) -> tensor<1x256xbf16, #ttnn_layout8> loc(#loc1)
        "ttnn.deallocate"(%125) <{force = false}> : (tensor<1x256xbf16, #ttnn_layout8>) -> () loc(#loc1)
        %127 = "ttnn.point_to_point"(%95, %126) <{receive_coord = array<i64: 0, 5>, send_coord = array<i64: 0, 3>}> : (tensor<1x256xbf16, #ttnn_layout8>, tensor<1x256xbf16, #ttnn_layout8>) -> tensor<1x256xbf16, #ttnn_layout8> loc(#loc1)
        "ttnn.deallocate"(%126) <{force = false}> : (tensor<1x256xbf16, #ttnn_layout8>) -> () loc(#loc1)
        %128 = "ttnn.point_to_point"(%96, %127) <{receive_coord = array<i64: 0, 6>, send_coord = array<i64: 0, 3>}> : (tensor<1x256xbf16, #ttnn_layout8>, tensor<1x256xbf16, #ttnn_layout8>) -> tensor<1x256xbf16, #ttnn_layout8> loc(#loc1)
        "ttnn.deallocate"(%127) <{force = false}> : (tensor<1x256xbf16, #ttnn_layout8>) -> () loc(#loc1)
        %129 = "ttnn.point_to_point"(%97, %128) <{receive_coord = array<i64: 0, 7>, send_coord = array<i64: 0, 3>}> : (tensor<1x256xbf16, #ttnn_layout8>, tensor<1x256xbf16, #ttnn_layout8>) -> tensor<1x256xbf16, #ttnn_layout8> loc(#loc1)
        "ttnn.deallocate"(%128) <{force = false}> : (tensor<1x256xbf16, #ttnn_layout8>) -> () loc(#loc1)
        %130 = "ttnn.point_to_point"(%90) <{receive_coord = array<i64: 0, 0>, send_coord = array<i64: 0, 4>}> : (tensor<1x256xbf16, #ttnn_layout8>) -> tensor<1x256xbf16, #ttnn_layout8> loc(#loc1)
        %131 = "ttnn.point_to_point"(%91, %130) <{receive_coord = array<i64: 0, 1>, send_coord = array<i64: 0, 4>}> : (tensor<1x256xbf16, #ttnn_layout8>, tensor<1x256xbf16, #ttnn_layout8>) -> tensor<1x256xbf16, #ttnn_layout8> loc(#loc1)
        "ttnn.deallocate"(%130) <{force = false}> : (tensor<1x256xbf16, #ttnn_layout8>) -> () loc(#loc1)
        %132 = "ttnn.point_to_point"(%92, %131) <{receive_coord = array<i64: 0, 2>, send_coord = array<i64: 0, 4>}> : (tensor<1x256xbf16, #ttnn_layout8>, tensor<1x256xbf16, #ttnn_layout8>) -> tensor<1x256xbf16, #ttnn_layout8> loc(#loc1)
        "ttnn.deallocate"(%131) <{force = false}> : (tensor<1x256xbf16, #ttnn_layout8>) -> () loc(#loc1)
        %133 = "ttnn.point_to_point"(%93, %132) <{receive_coord = array<i64: 0, 3>, send_coord = array<i64: 0, 4>}> : (tensor<1x256xbf16, #ttnn_layout8>, tensor<1x256xbf16, #ttnn_layout8>) -> tensor<1x256xbf16, #ttnn_layout8> loc(#loc1)
        "ttnn.deallocate"(%132) <{force = false}> : (tensor<1x256xbf16, #ttnn_layout8>) -> () loc(#loc1)
        %134 = "ttnn.point_to_point"(%94, %133) <{receive_coord = array<i64: 0, 4>, send_coord = array<i64: 0, 4>}> : (tensor<1x256xbf16, #ttnn_layout8>, tensor<1x256xbf16, #ttnn_layout8>) -> tensor<1x256xbf16, #ttnn_layout8> loc(#loc1)
        "ttnn.deallocate"(%133) <{force = false}> : (tensor<1x256xbf16, #ttnn_layout8>) -> () loc(#loc1)
        %135 = "ttnn.point_to_point"(%95, %134) <{receive_coord = array<i64: 0, 5>, send_coord = array<i64: 0, 4>}> : (tensor<1x256xbf16, #ttnn_layout8>, tensor<1x256xbf16, #ttnn_layout8>) -> tensor<1x256xbf16, #ttnn_layout8> loc(#loc1)
        "ttnn.deallocate"(%134) <{force = false}> : (tensor<1x256xbf16, #ttnn_layout8>) -> () loc(#loc1)
        %136 = "ttnn.point_to_point"(%96, %135) <{receive_coord = array<i64: 0, 6>, send_coord = array<i64: 0, 4>}> : (tensor<1x256xbf16, #ttnn_layout8>, tensor<1x256xbf16, #ttnn_layout8>) -> tensor<1x256xbf16, #ttnn_layout8> loc(#loc1)
        "ttnn.deallocate"(%135) <{force = false}> : (tensor<1x256xbf16, #ttnn_layout8>) -> () loc(#loc1)
        %137 = "ttnn.point_to_point"(%97, %136) <{receive_coord = array<i64: 0, 7>, send_coord = array<i64: 0, 4>}> : (tensor<1x256xbf16, #ttnn_layout8>, tensor<1x256xbf16, #ttnn_layout8>) -> tensor<1x256xbf16, #ttnn_layout8> loc(#loc1)
        "ttnn.deallocate"(%136) <{force = false}> : (tensor<1x256xbf16, #ttnn_layout8>) -> () loc(#loc1)
        %138 = "ttnn.point_to_point"(%90) <{receive_coord = array<i64: 0, 0>, send_coord = array<i64: 0, 5>}> : (tensor<1x256xbf16, #ttnn_layout8>) -> tensor<1x256xbf16, #ttnn_layout8> loc(#loc1)
        %139 = "ttnn.point_to_point"(%91, %138) <{receive_coord = array<i64: 0, 1>, send_coord = array<i64: 0, 5>}> : (tensor<1x256xbf16, #ttnn_layout8>, tensor<1x256xbf16, #ttnn_layout8>) -> tensor<1x256xbf16, #ttnn_layout8> loc(#loc1)
        "ttnn.deallocate"(%138) <{force = false}> : (tensor<1x256xbf16, #ttnn_layout8>) -> () loc(#loc1)
        %140 = "ttnn.point_to_point"(%92, %139) <{receive_coord = array<i64: 0, 2>, send_coord = array<i64: 0, 5>}> : (tensor<1x256xbf16, #ttnn_layout8>, tensor<1x256xbf16, #ttnn_layout8>) -> tensor<1x256xbf16, #ttnn_layout8> loc(#loc1)
        "ttnn.deallocate"(%139) <{force = false}> : (tensor<1x256xbf16, #ttnn_layout8>) -> () loc(#loc1)
        %141 = "ttnn.point_to_point"(%93, %140) <{receive_coord = array<i64: 0, 3>, send_coord = array<i64: 0, 5>}> : (tensor<1x256xbf16, #ttnn_layout8>, tensor<1x256xbf16, #ttnn_layout8>) -> tensor<1x256xbf16, #ttnn_layout8> loc(#loc1)
        "ttnn.deallocate"(%140) <{force = false}> : (tensor<1x256xbf16, #ttnn_layout8>) -> () loc(#loc1)
        %142 = "ttnn.point_to_point"(%94, %141) <{receive_coord = array<i64: 0, 4>, send_coord = array<i64: 0, 5>}> : (tensor<1x256xbf16, #ttnn_layout8>, tensor<1x256xbf16, #ttnn_layout8>) -> tensor<1x256xbf16, #ttnn_layout8> loc(#loc1)
        "ttnn.deallocate"(%141) <{force = false}> : (tensor<1x256xbf16, #ttnn_layout8>) -> () loc(#loc1)
        %143 = "ttnn.point_to_point"(%95, %142) <{receive_coord = array<i64: 0, 5>, send_coord = array<i64: 0, 5>}> : (tensor<1x256xbf16, #ttnn_layout8>, tensor<1x256xbf16, #ttnn_layout8>) -> tensor<1x256xbf16, #ttnn_layout8> loc(#loc1)
        "ttnn.deallocate"(%142) <{force = false}> : (tensor<1x256xbf16, #ttnn_layout8>) -> () loc(#loc1)
        %144 = "ttnn.point_to_point"(%96, %143) <{receive_coord = array<i64: 0, 6>, send_coord = array<i64: 0, 5>}> : (tensor<1x256xbf16, #ttnn_layout8>, tensor<1x256xbf16, #ttnn_layout8>) -> tensor<1x256xbf16, #ttnn_layout8> loc(#loc1)
        "ttnn.deallocate"(%143) <{force = false}> : (tensor<1x256xbf16, #ttnn_layout8>) -> () loc(#loc1)
        %145 = "ttnn.point_to_point"(%97, %144) <{receive_coord = array<i64: 0, 7>, send_coord = array<i64: 0, 5>}> : (tensor<1x256xbf16, #ttnn_layout8>, tensor<1x256xbf16, #ttnn_layout8>) -> tensor<1x256xbf16, #ttnn_layout8> loc(#loc1)
        "ttnn.deallocate"(%144) <{force = false}> : (tensor<1x256xbf16, #ttnn_layout8>) -> () loc(#loc1)
        %146 = "ttnn.point_to_point"(%90) <{receive_coord = array<i64: 0, 0>, send_coord = array<i64: 0, 6>}> : (tensor<1x256xbf16, #ttnn_layout8>) -> tensor<1x256xbf16, #ttnn_layout8> loc(#loc1)
        %147 = "ttnn.point_to_point"(%91, %146) <{receive_coord = array<i64: 0, 1>, send_coord = array<i64: 0, 6>}> : (tensor<1x256xbf16, #ttnn_layout8>, tensor<1x256xbf16, #ttnn_layout8>) -> tensor<1x256xbf16, #ttnn_layout8> loc(#loc1)
        "ttnn.deallocate"(%146) <{force = false}> : (tensor<1x256xbf16, #ttnn_layout8>) -> () loc(#loc1)
        %148 = "ttnn.point_to_point"(%92, %147) <{receive_coord = array<i64: 0, 2>, send_coord = array<i64: 0, 6>}> : (tensor<1x256xbf16, #ttnn_layout8>, tensor<1x256xbf16, #ttnn_layout8>) -> tensor<1x256xbf16, #ttnn_layout8> loc(#loc1)
        "ttnn.deallocate"(%147) <{force = false}> : (tensor<1x256xbf16, #ttnn_layout8>) -> () loc(#loc1)
        %149 = "ttnn.point_to_point"(%93, %148) <{receive_coord = array<i64: 0, 3>, send_coord = array<i64: 0, 6>}> : (tensor<1x256xbf16, #ttnn_layout8>, tensor<1x256xbf16, #ttnn_layout8>) -> tensor<1x256xbf16, #ttnn_layout8> loc(#loc1)
        "ttnn.deallocate"(%148) <{force = false}> : (tensor<1x256xbf16, #ttnn_layout8>) -> () loc(#loc1)
        %150 = "ttnn.point_to_point"(%94, %149) <{receive_coord = array<i64: 0, 4>, send_coord = array<i64: 0, 6>}> : (tensor<1x256xbf16, #ttnn_layout8>, tensor<1x256xbf16, #ttnn_layout8>) -> tensor<1x256xbf16, #ttnn_layout8> loc(#loc1)
        "ttnn.deallocate"(%149) <{force = false}> : (tensor<1x256xbf16, #ttnn_layout8>) -> () loc(#loc1)
        %151 = "ttnn.point_to_point"(%95, %150) <{receive_coord = array<i64: 0, 5>, send_coord = array<i64: 0, 6>}> : (tensor<1x256xbf16, #ttnn_layout8>, tensor<1x256xbf16, #ttnn_layout8>) -> tensor<1x256xbf16, #ttnn_layout8> loc(#loc1)
        "ttnn.deallocate"(%150) <{force = false}> : (tensor<1x256xbf16, #ttnn_layout8>) -> () loc(#loc1)
        %152 = "ttnn.point_to_point"(%96, %151) <{receive_coord = array<i64: 0, 6>, send_coord = array<i64: 0, 6>}> : (tensor<1x256xbf16, #ttnn_layout8>, tensor<1x256xbf16, #ttnn_layout8>) -> tensor<1x256xbf16, #ttnn_layout8> loc(#loc1)
        "ttnn.deallocate"(%151) <{force = false}> : (tensor<1x256xbf16, #ttnn_layout8>) -> () loc(#loc1)
        %153 = "ttnn.point_to_point"(%97, %152) <{receive_coord = array<i64: 0, 7>, send_coord = array<i64: 0, 6>}> : (tensor<1x256xbf16, #ttnn_layout8>, tensor<1x256xbf16, #ttnn_layout8>) -> tensor<1x256xbf16, #ttnn_layout8> loc(#loc1)
        "ttnn.deallocate"(%152) <{force = false}> : (tensor<1x256xbf16, #ttnn_layout8>) -> () loc(#loc1)
        %154 = "ttnn.point_to_point"(%90) <{receive_coord = array<i64: 0, 0>, send_coord = array<i64: 0, 7>}> : (tensor<1x256xbf16, #ttnn_layout8>) -> tensor<1x256xbf16, #ttnn_layout8> loc(#loc1)
        "ttnn.deallocate"(%90) <{force = false}> : (tensor<1x256xbf16, #ttnn_layout8>) -> () loc(#loc1)
        %155 = "ttnn.point_to_point"(%91, %154) <{receive_coord = array<i64: 0, 1>, send_coord = array<i64: 0, 7>}> : (tensor<1x256xbf16, #ttnn_layout8>, tensor<1x256xbf16, #ttnn_layout8>) -> tensor<1x256xbf16, #ttnn_layout8> loc(#loc1)
        "ttnn.deallocate"(%154) <{force = false}> : (tensor<1x256xbf16, #ttnn_layout8>) -> () loc(#loc1)
        "ttnn.deallocate"(%91) <{force = false}> : (tensor<1x256xbf16, #ttnn_layout8>) -> () loc(#loc1)
        %156 = "ttnn.point_to_point"(%92, %155) <{receive_coord = array<i64: 0, 2>, send_coord = array<i64: 0, 7>}> : (tensor<1x256xbf16, #ttnn_layout8>, tensor<1x256xbf16, #ttnn_layout8>) -> tensor<1x256xbf16, #ttnn_layout8> loc(#loc1)
        "ttnn.deallocate"(%155) <{force = false}> : (tensor<1x256xbf16, #ttnn_layout8>) -> () loc(#loc1)
        "ttnn.deallocate"(%92) <{force = false}> : (tensor<1x256xbf16, #ttnn_layout8>) -> () loc(#loc1)
        %157 = "ttnn.point_to_point"(%93, %156) <{receive_coord = array<i64: 0, 3>, send_coord = array<i64: 0, 7>}> : (tensor<1x256xbf16, #ttnn_layout8>, tensor<1x256xbf16, #ttnn_layout8>) -> tensor<1x256xbf16, #ttnn_layout8> loc(#loc1)
        "ttnn.deallocate"(%156) <{force = false}> : (tensor<1x256xbf16, #ttnn_layout8>) -> () loc(#loc1)
        "ttnn.deallocate"(%93) <{force = false}> : (tensor<1x256xbf16, #ttnn_layout8>) -> () loc(#loc1)
        %158 = "ttnn.point_to_point"(%94, %157) <{receive_coord = array<i64: 0, 4>, send_coord = array<i64: 0, 7>}> : (tensor<1x256xbf16, #ttnn_layout8>, tensor<1x256xbf16, #ttnn_layout8>) -> tensor<1x256xbf16, #ttnn_layout8> loc(#loc1)
        "ttnn.deallocate"(%157) <{force = false}> : (tensor<1x256xbf16, #ttnn_layout8>) -> () loc(#loc1)
        "ttnn.deallocate"(%94) <{force = false}> : (tensor<1x256xbf16, #ttnn_layout8>) -> () loc(#loc1)
        %159 = "ttnn.point_to_point"(%95, %158) <{receive_coord = array<i64: 0, 5>, send_coord = array<i64: 0, 7>}> : (tensor<1x256xbf16, #ttnn_layout8>, tensor<1x256xbf16, #ttnn_layout8>) -> tensor<1x256xbf16, #ttnn_layout8> loc(#loc1)
        "ttnn.deallocate"(%158) <{force = false}> : (tensor<1x256xbf16, #ttnn_layout8>) -> () loc(#loc1)
        "ttnn.deallocate"(%95) <{force = false}> : (tensor<1x256xbf16, #ttnn_layout8>) -> () loc(#loc1)
        %160 = "ttnn.point_to_point"(%96, %159) <{receive_coord = array<i64: 0, 6>, send_coord = array<i64: 0, 7>}> : (tensor<1x256xbf16, #ttnn_layout8>, tensor<1x256xbf16, #ttnn_layout8>) -> tensor<1x256xbf16, #ttnn_layout8> loc(#loc1)
        "ttnn.deallocate"(%159) <{force = false}> : (tensor<1x256xbf16, #ttnn_layout8>) -> () loc(#loc1)
        "ttnn.deallocate"(%96) <{force = false}> : (tensor<1x256xbf16, #ttnn_layout8>) -> () loc(#loc1)
        %161 = "ttnn.point_to_point"(%97, %160) <{receive_coord = array<i64: 0, 7>, send_coord = array<i64: 0, 7>}> : (tensor<1x256xbf16, #ttnn_layout8>, tensor<1x256xbf16, #ttnn_layout8>) -> tensor<1x256xbf16, #ttnn_layout8> loc(#loc1)
        "ttnn.deallocate"(%160) <{force = false}> : (tensor<1x256xbf16, #ttnn_layout8>) -> () loc(#loc1)
        "ttnn.deallocate"(%97) <{force = false}> : (tensor<1x256xbf16, #ttnn_layout8>) -> () loc(#loc1)
        %162 = "ttnn.concat"(%105, %113, %121, %129, %137, %145, %153, %161) <{dim = 0 : si32}> : (tensor<1x256xbf16, #ttnn_layout8>, tensor<1x256xbf16, #ttnn_layout8>, tensor<1x256xbf16, #ttnn_layout8>, tensor<1x256xbf16, #ttnn_layout8>, tensor<1x256xbf16, #ttnn_layout8>, tensor<1x256xbf16, #ttnn_layout8>, tensor<1x256xbf16, #ttnn_layout8>, tensor<1x256xbf16, #ttnn_layout8>) -> tensor<8x256xbf16, #ttnn_layout8> loc(#loc1)
        "ttnn.deallocate"(%161) <{force = false}> : (tensor<1x256xbf16, #ttnn_layout8>) -> () loc(#loc1)
        "ttnn.deallocate"(%153) <{force = false}> : (tensor<1x256xbf16, #ttnn_layout8>) -> () loc(#loc1)
        "ttnn.deallocate"(%145) <{force = false}> : (tensor<1x256xbf16, #ttnn_layout8>) -> () loc(#loc1)
        "ttnn.deallocate"(%137) <{force = false}> : (tensor<1x256xbf16, #ttnn_layout8>) -> () loc(#loc1)
        "ttnn.deallocate"(%129) <{force = false}> : (tensor<1x256xbf16, #ttnn_layout8>) -> () loc(#loc1)
        "ttnn.deallocate"(%121) <{force = false}> : (tensor<1x256xbf16, #ttnn_layout8>) -> () loc(#loc1)
        "ttnn.deallocate"(%113) <{force = false}> : (tensor<1x256xbf16, #ttnn_layout8>) -> () loc(#loc1)
        "ttnn.deallocate"(%105) <{force = false}> : (tensor<1x256xbf16, #ttnn_layout8>) -> () loc(#loc1)
        %163 = "ttnn.slice_static"(%162) <{begins = [0 : i32, 0 : i32], ends = [1 : i32, 256 : i32], step = [1 : i32, 1 : i32]}> : (tensor<8x256xbf16, #ttnn_layout8>) -> tensor<1x256xbf16, #ttnn_layout8> loc(#loc1)
        "ttnn.deallocate"(%162) <{force = false}> : (tensor<8x256xbf16, #ttnn_layout8>) -> () loc(#loc1)
        %164 = "ttnn.add"(%88, %163) <{dtype = #ttcore.supportedDataTypes<bf16>}> : (tensor<2048x256xbf16, #ttnn_layout5>, tensor<1x256xbf16, #ttnn_layout8>) -> tensor<2048x256xbf16, #ttnn_layout5> loc(#loc10)
        "ttnn.deallocate"(%163) <{force = false}> : (tensor<1x256xbf16, #ttnn_layout8>) -> () loc(#loc10)
        "ttnn.deallocate"(%88) <{force = false}> : (tensor<2048x256xbf16, #ttnn_layout5>) -> () loc(#loc10)
        %165 = "ttnn.maximum"(%164, %0) : (tensor<2048x256xbf16, #ttnn_layout5>, tensor<1x1xbf16, #ttnn_layout>) -> tensor<2048x256xbf16, #ttnn_layout5> loc(#loc11)
        "ttnn.deallocate"(%164) <{force = false}> : (tensor<2048x256xbf16, #ttnn_layout5>) -> () loc(#loc11)
        "ttnn.deallocate"(%0) <{force = false}> : (tensor<1x1xbf16, #ttnn_layout>) -> () loc(#loc11)
        %166 = "ttnn.to_layout"(%165) <{layout = #ttnn.layout<row_major>}> : (tensor<2048x256xbf16, #ttnn_layout5>) -> tensor<2048x256xbf16, #ttnn_layout12> loc(#loc)
        "ttnn.deallocate"(%165) <{force = false}> : (tensor<2048x256xbf16, #ttnn_layout5>) -> () loc(#loc)
        %167 = "ttnn.from_device"(%166) : (tensor<2048x256xbf16, #ttnn_layout12>) -> tensor<2048x256xbf16, #ttnn_layout13> loc(#loc)
        "ttnn.deallocate"(%166) <{force = false}> : (tensor<2048x256xbf16, #ttnn_layout12>) -> () loc(#loc)
        %168 = "ttnn.mesh_shard"(%167, %1) <{shard_dims = array<i64: -1, 1>, shard_direction = #ttcore.shard_direction<shard_to_full>, shard_shape = array<i64: 1, 8>, shard_type = #ttcore.shard_type<devices>}> : (tensor<2048x256xbf16, #ttnn_layout13>, !ttnn.device) -> tensor<2048x2048xbf16, #ttnn_layout4> loc(#loc)
        "ttnn.deallocate"(%167) <{force = false}> : (tensor<2048x256xbf16, #ttnn_layout13>) -> () loc(#loc)
        return %168 : tensor<2048x2048xbf16, #ttnn_layout4> loc(#loc)
      } loc(#loc)
    } loc(#loc)
  } loc(#loc)
} loc(#loc)
#loc = loc(unknown)
#loc6 = loc("broadcast.12")
#loc7 = loc("add.13")
#loc8 = loc("maximum.16")
#loc9 = loc("dot.17")
#loc10 = loc("add.22")
#loc11 = loc("maximum.25")
#loc12 = loc("dot.17_reduceScatter"(#loc9))
#loc13 = loc("dot.17_all_gather_4d"(#loc9))
#loc14 = loc("dot.17_reduceScatter_reshape_to_4d"(#loc12))
#loc15 = loc("dot.17_reduceScatter_reduce_scatter_4d"(#loc12))
------------------ END OF MLIR MODULE ------------------
2025-10-23 04:30:27.969 (  14.421s) [        2146C480]loaded_executable_insta:69       1| LoadedExecutableInstance::PJRT_LoadedExecutable_GetExecutable
2025-10-23 04:30:27.969 (  14.421s) [        2146C480]loaded_executable_insta:88       1| LoadedExecutableInstance::PJRT_LoadedExecutable_AddressableDevices
2025-10-23 04:30:27.969 (  14.421s) [        2146C480]              stubs.inc:70    WARN| STUB: PJRT_Executable_GetCompiledMemoryStats
2025-10-23 04:30:27.969 (  14.421s) [        2146C480]      error_instance.cc:49       1| ErrorInstance::PJRT_Error_Message
2025-10-23 04:30:27.969 (  14.421s) [        2146C480]      error_instance.cc:58       1| ErrorInstance::PJRT_Error_GetCode
2025-10-23 04:30:27.969 (  14.421s) [        2146C480]      error_instance.cc:43       1| ErrorInstance::PJRT_Error_Destroy
2025-10-23 04:30:27.969 (  14.421s) [        2146C480] executable_instance.cc:107      1| ExecutableInstance::PJRT_Executable_OptimizedProgram
2025-10-23 04:30:27.969 (  14.421s) [        2146C480] executable_instance.cc:107      1| ExecutableInstance::PJRT_Executable_OptimizedProgram
2025-10-23 04:30:27.973 (  14.425s) [        2146C480] executable_instance.cc:107      1| ExecutableInstance::PJRT_Executable_OptimizedProgram
2025-10-23 04:30:27.973 (  14.425s) [        2146C480] executable_instance.cc:107      1| ExecutableInstance::PJRT_Executable_OptimizedProgram
2025-10-23 04:30:27.977 (  14.429s) [        B6FFD640]  device_description.cc:44       1| DeviceDescription::PJRT_DeviceDescription_Id
2025-10-23 04:30:27.978 (  14.429s) [        B6FFD640]  device_description.cc:44       1| DeviceDescription::PJRT_DeviceDescription_Id
2025-10-23 04:30:27.978 (  14.429s) [        B6FFD640]  device_description.cc:44       1| DeviceDescription::PJRT_DeviceDescription_Id
2025-10-23 04:30:27.978 (  14.429s) [        B6FFD640]  device_description.cc:44       1| DeviceDescription::PJRT_DeviceDescription_Id
2025-10-23 04:30:27.978 (  14.429s) [        B6FFD640]  device_description.cc:44       1| DeviceDescription::PJRT_DeviceDescription_Id
2025-10-23 04:30:27.978 (  14.429s) [        B6FFD640]  device_description.cc:44       1| DeviceDescription::PJRT_DeviceDescription_Id
2025-10-23 04:30:27.978 (  14.429s) [        B6FFD640]  device_description.cc:44       1| DeviceDescription::PJRT_DeviceDescription_Id
2025-10-23 04:30:27.978 (  14.429s) [        B6FFD640]  device_description.cc:44       1| DeviceDescription::PJRT_DeviceDescription_Id
2025-10-23 04:30:27.978 (  14.429s) [        B6FFD640]     buffer_instance.cc:535      1| BufferInstance::PJRT_Buffer_Device
2025-10-23 04:30:27.978 (  14.429s) [        B6FFD640]     device_instance.cc:53       1| DeviceInstance::PJRT_Device_IsAddressable
2025-10-23 04:30:27.978 (  14.429s) [        B6FFD640]     buffer_instance.cc:535      1| BufferInstance::PJRT_Buffer_Device
2025-10-23 04:30:27.978 (  14.429s) [        B6FFD640]     device_instance.cc:53       1| DeviceInstance::PJRT_Device_IsAddressable
2025-10-23 04:30:27.978 (  14.429s) [        B6FFD640]     buffer_instance.cc:535      1| BufferInstance::PJRT_Buffer_Device
2025-10-23 04:30:27.978 (  14.429s) [        B6FFD640]     device_instance.cc:53       1| DeviceInstance::PJRT_Device_IsAddressable
2025-10-23 04:30:27.978 (  14.429s) [        B6FFD640]     buffer_instance.cc:535      1| BufferInstance::PJRT_Buffer_Device
2025-10-23 04:30:27.978 (  14.429s) [        B6FFD640]     device_instance.cc:53       1| DeviceInstance::PJRT_Device_IsAddressable
2025-10-23 04:30:27.978 (  14.429s) [        B6FFD640]     buffer_instance.cc:535      1| BufferInstance::PJRT_Buffer_Device
2025-10-23 04:30:27.978 (  14.429s) [        B6FFD640]     device_instance.cc:53       1| DeviceInstance::PJRT_Device_IsAddressable
2025-10-23 04:30:27.978 (  14.429s) [        B6FFD640]     buffer_instance.cc:535      1| BufferInstance::PJRT_Buffer_Device
2025-10-23 04:30:27.978 (  14.429s) [        B6FFD640]     device_instance.cc:53       1| DeviceInstance::PJRT_Device_IsAddressable
2025-10-23 04:30:27.978 (  14.429s) [        B6FFD640]     buffer_instance.cc:535      1| BufferInstance::PJRT_Buffer_Device
2025-10-23 04:30:27.978 (  14.429s) [        B6FFD640]     device_instance.cc:53       1| DeviceInstance::PJRT_Device_IsAddressable
2025-10-23 04:30:27.978 (  14.429s) [        B6FFD640]     buffer_instance.cc:535      1| BufferInstance::PJRT_Buffer_Device
2025-10-23 04:30:27.978 (  14.429s) [        B6FFD640]     device_instance.cc:53       1| DeviceInstance::PJRT_Device_IsAddressable
2025-10-23 04:30:27.978 (  14.429s) [        B6FFD640]     buffer_instance.cc:535      1| BufferInstance::PJRT_Buffer_Device
2025-10-23 04:30:27.978 (  14.429s) [        B6FFD640]     device_instance.cc:53       1| DeviceInstance::PJRT_Device_IsAddressable
2025-10-23 04:30:27.978 (  14.429s) [        B6FFD640]     buffer_instance.cc:535      1| BufferInstance::PJRT_Buffer_Device
2025-10-23 04:30:27.978 (  14.429s) [        B6FFD640]     device_instance.cc:53       1| DeviceInstance::PJRT_Device_IsAddressable
2025-10-23 04:30:27.978 (  14.429s) [        B6FFD640]     buffer_instance.cc:535      1| BufferInstance::PJRT_Buffer_Device
2025-10-23 04:30:27.978 (  14.429s) [        B6FFD640]     device_instance.cc:53       1| DeviceInstance::PJRT_Device_IsAddressable
2025-10-23 04:30:27.978 (  14.429s) [        B6FFD640]     buffer_instance.cc:535      1| BufferInstance::PJRT_Buffer_Device
2025-10-23 04:30:27.978 (  14.429s) [        B6FFD640]     device_instance.cc:53       1| DeviceInstance::PJRT_Device_IsAddressable
2025-10-23 04:30:27.978 (  14.429s) [        B6FFD640]     buffer_instance.cc:535      1| BufferInstance::PJRT_Buffer_Device
2025-10-23 04:30:27.978 (  14.429s) [        B6FFD640]     device_instance.cc:53       1| DeviceInstance::PJRT_Device_IsAddressable
2025-10-23 04:30:27.978 (  14.429s) [        B6FFD640]     buffer_instance.cc:535      1| BufferInstance::PJRT_Buffer_Device
2025-10-23 04:30:27.978 (  14.429s) [        B6FFD640]     device_instance.cc:53       1| DeviceInstance::PJRT_Device_IsAddressable
2025-10-23 04:30:27.978 (  14.429s) [        B6FFD640]     buffer_instance.cc:535      1| BufferInstance::PJRT_Buffer_Device
2025-10-23 04:30:27.978 (  14.429s) [        B6FFD640]     device_instance.cc:53       1| DeviceInstance::PJRT_Device_IsAddressable
2025-10-23 04:30:27.978 (  14.429s) [        B6FFD640]     buffer_instance.cc:535      1| BufferInstance::PJRT_Buffer_Device
2025-10-23 04:30:27.978 (  14.430s) [        B6FFD640]     device_instance.cc:53       1| DeviceInstance::PJRT_Device_IsAddressable
2025-10-23 04:30:27.978 (  14.430s) [        B6FFD640]     buffer_instance.cc:535      1| BufferInstance::PJRT_Buffer_Device
2025-10-23 04:30:27.978 (  14.430s) [        B6FFD640]     device_instance.cc:53       1| DeviceInstance::PJRT_Device_IsAddressable
2025-10-23 04:30:27.978 (  14.430s) [        B6FFD640]     buffer_instance.cc:535      1| BufferInstance::PJRT_Buffer_Device
2025-10-23 04:30:27.978 (  14.430s) [        B6FFD640]     device_instance.cc:53       1| DeviceInstance::PJRT_Device_IsAddressable
2025-10-23 04:30:27.978 (  14.430s) [        B6FFD640]     buffer_instance.cc:535      1| BufferInstance::PJRT_Buffer_Device
2025-10-23 04:30:27.978 (  14.430s) [        B6FFD640]     device_instance.cc:53       1| DeviceInstance::PJRT_Device_IsAddressable
2025-10-23 04:30:27.978 (  14.430s) [        B6FFD640]     buffer_instance.cc:535      1| BufferInstance::PJRT_Buffer_Device
2025-10-23 04:30:27.978 (  14.430s) [        B6FFD640]     device_instance.cc:53       1| DeviceInstance::PJRT_Device_IsAddressable
2025-10-23 04:30:27.978 (  14.430s) [        B6FFD640]     buffer_instance.cc:535      1| BufferInstance::PJRT_Buffer_Device
2025-10-23 04:30:27.978 (  14.430s) [        B6FFD640]     device_instance.cc:53       1| DeviceInstance::PJRT_Device_IsAddressable
2025-10-23 04:30:27.978 (  14.430s) [        B6FFD640]     buffer_instance.cc:535      1| BufferInstance::PJRT_Buffer_Device
2025-10-23 04:30:27.978 (  14.430s) [        B6FFD640]     device_instance.cc:53       1| DeviceInstance::PJRT_Device_IsAddressable
2025-10-23 04:30:27.978 (  14.430s) [        B6FFD640]     buffer_instance.cc:535      1| BufferInstance::PJRT_Buffer_Device
2025-10-23 04:30:27.978 (  14.430s) [        B6FFD640]     device_instance.cc:53       1| DeviceInstance::PJRT_Device_IsAddressable
2025-10-23 04:30:27.978 (  14.430s) [        B6FFD640]     buffer_instance.cc:535      1| BufferInstance::PJRT_Buffer_Device
2025-10-23 04:30:27.978 (  14.430s) [        B6FFD640]     device_instance.cc:53       1| DeviceInstance::PJRT_Device_IsAddressable
2025-10-23 04:30:27.978 (  14.430s) [        B6FFD640]     buffer_instance.cc:535      1| BufferInstance::PJRT_Buffer_Device
2025-10-23 04:30:27.978 (  14.430s) [        B6FFD640]     device_instance.cc:53       1| DeviceInstance::PJRT_Device_IsAddressable
2025-10-23 04:30:27.978 (  14.430s) [        B6FFD640]     buffer_instance.cc:535      1| BufferInstance::PJRT_Buffer_Device
2025-10-23 04:30:27.978 (  14.430s) [        B6FFD640]     device_instance.cc:53       1| DeviceInstance::PJRT_Device_IsAddressable
2025-10-23 04:30:27.978 (  14.430s) [        B6FFD640]     buffer_instance.cc:535      1| BufferInstance::PJRT_Buffer_Device
2025-10-23 04:30:27.978 (  14.430s) [        B6FFD640]     device_instance.cc:53       1| DeviceInstance::PJRT_Device_IsAddressable
2025-10-23 04:30:27.978 (  14.430s) [        B6FFD640]     buffer_instance.cc:535      1| BufferInstance::PJRT_Buffer_Device
2025-10-23 04:30:27.978 (  14.430s) [        B6FFD640]     device_instance.cc:53       1| DeviceInstance::PJRT_Device_IsAddressable
2025-10-23 04:30:27.978 (  14.430s) [        B6FFD640]     buffer_instance.cc:535      1| BufferInstance::PJRT_Buffer_Device
2025-10-23 04:30:27.978 (  14.430s) [        B6FFD640]     device_instance.cc:53       1| DeviceInstance::PJRT_Device_IsAddressable
2025-10-23 04:30:27.978 (  14.430s) [        B6FFD640]     buffer_instance.cc:535      1| BufferInstance::PJRT_Buffer_Device
2025-10-23 04:30:27.978 (  14.430s) [        B6FFD640]     device_instance.cc:53       1| DeviceInstance::PJRT_Device_IsAddressable
2025-10-23 04:30:27.978 (  14.430s) [        B6FFD640]     buffer_instance.cc:535      1| BufferInstance::PJRT_Buffer_Device
2025-10-23 04:30:27.978 (  14.430s) [        B6FFD640]     device_instance.cc:53       1| DeviceInstance::PJRT_Device_IsAddressable
2025-10-23 04:30:27.978 (  14.430s) [        B6FFD640]     buffer_instance.cc:535      1| BufferInstance::PJRT_Buffer_Device
2025-10-23 04:30:27.978 (  14.430s) [        B6FFD640]     device_instance.cc:53       1| DeviceInstance::PJRT_Device_IsAddressable
2025-10-23 04:30:27.978 (  14.430s) [        B6FFD640]     buffer_instance.cc:535      1| BufferInstance::PJRT_Buffer_Device
2025-10-23 04:30:27.978 (  14.430s) [        B6FFD640]     device_instance.cc:53       1| DeviceInstance::PJRT_Device_IsAddressable
2025-10-23 04:30:27.978 (  14.430s) [        B6FFD640]     buffer_instance.cc:535      1| BufferInstance::PJRT_Buffer_Device
2025-10-23 04:30:27.978 (  14.430s) [        B6FFD640]     device_instance.cc:53       1| DeviceInstance::PJRT_Device_IsAddressable
2025-10-23 04:30:27.978 (  14.430s) [        B6FFD640]     buffer_instance.cc:535      1| BufferInstance::PJRT_Buffer_Device
2025-10-23 04:30:27.978 (  14.430s) [        B6FFD640]     device_instance.cc:53       1| DeviceInstance::PJRT_Device_IsAddressable
2025-10-23 04:30:27.978 (  14.430s) [        B6FFD640]     buffer_instance.cc:535      1| BufferInstance::PJRT_Buffer_Device
2025-10-23 04:30:27.978 (  14.430s) [        B6FFD640]     device_instance.cc:53       1| DeviceInstance::PJRT_Device_IsAddressable
2025-10-23 04:30:27.978 (  14.430s) [        B6FFD640]     buffer_instance.cc:535      1| BufferInstance::PJRT_Buffer_Device
2025-10-23 04:30:27.978 (  14.430s) [        B6FFD640]     device_instance.cc:53       1| DeviceInstance::PJRT_Device_IsAddressable
2025-10-23 04:30:27.978 (  14.430s) [        B6FFD640]     buffer_instance.cc:535      1| BufferInstance::PJRT_Buffer_Device
2025-10-23 04:30:27.978 (  14.430s) [        B6FFD640]     device_instance.cc:53       1| DeviceInstance::PJRT_Device_IsAddressable
2025-10-23 04:30:27.978 (  14.430s) [        B6FFD640]     buffer_instance.cc:535      1| BufferInstance::PJRT_Buffer_Device
2025-10-23 04:30:27.978 (  14.430s) [        B6FFD640]     device_instance.cc:53       1| DeviceInstance::PJRT_Device_IsAddressable
2025-10-23 04:30:27.978 (  14.430s) [        B6FFD640]     buffer_instance.cc:535      1| BufferInstance::PJRT_Buffer_Device
2025-10-23 04:30:27.978 (  14.430s) [        B6FFD640]     device_instance.cc:53       1| DeviceInstance::PJRT_Device_IsAddressable
2025-10-23 04:30:27.978 (  14.430s) [        B6FFD640] executable_instance.cc:139      1| ExecutableInstance::PJRT_Executable_NumOutputs
2025-10-23 04:30:27.978 (  14.430s) [        B6FFD640]loaded_executable_insta:125      1| LoadedExecutableInstance::PJRT_LoadedExecutable_Execute
2025-10-23 04:30:27.978 (  14.430s) [        B6FFD640]flatbuffer_loaded_execu:412      1| FlatbufferLoadedExecutableInstance::Execute
2025-10-23 04:30:27.978 (  14.430s) [        B6FFD640]     client_instance.cc:373      1| ClientInstance::getOrCreateMeshDevice - reusing already opened mesh device [1, 8]
2025-10-23 04:30:58.787 (  45.239s) [        B6FFD640]      event_instance.cc:222      1| EventInstance::PJRT_Event_OnReady
2025-10-23 04:30:58.787 (  45.239s) [        B6FFD640]      event_instance.cc:171      1| EventInstance::PJRT_Event_Destroy
2025-10-23 04:30:58.787 (  45.239s) [        B6FFD640]      event_instance.cc:222      1| EventInstance::PJRT_Event_OnReady
2025-10-23 04:30:58.787 (  45.239s) [        B6FFD640]      event_instance.cc:171      1| EventInstance::PJRT_Event_Destroy
2025-10-23 04:30:58.787 (  45.239s) [        B6FFD640]      event_instance.cc:222      1| EventInstance::PJRT_Event_OnReady
2025-10-23 04:30:58.787 (  45.239s) [        B6FFD640]      event_instance.cc:171      1| EventInstance::PJRT_Event_Destroy
2025-10-23 04:30:58.787 (  45.239s) [        B6FFD640]      event_instance.cc:222      1| EventInstance::PJRT_Event_OnReady
2025-10-23 04:30:58.787 (  45.239s) [        B6FFD640]      event_instance.cc:171      1| EventInstance::PJRT_Event_Destroy
2025-10-23 04:30:58.787 (  45.239s) [        B6FFD640]      event_instance.cc:222      1| EventInstance::PJRT_Event_OnReady
2025-10-23 04:30:58.787 (  45.239s) [        B6FFD640]      event_instance.cc:171      1| EventInstance::PJRT_Event_Destroy
2025-10-23 04:30:58.787 (  45.239s) [        B6FFD640]      event_instance.cc:222      1| EventInstance::PJRT_Event_OnReady
2025-10-23 04:30:58.787 (  45.239s) [        B6FFD640]      event_instance.cc:171      1| EventInstance::PJRT_Event_Destroy
2025-10-23 04:30:58.787 (  45.239s) [        B6FFD640]      event_instance.cc:222      1| EventInstance::PJRT_Event_OnReady
2025-10-23 04:30:58.787 (  45.239s) [        B6FFD640]      event_instance.cc:171      1| EventInstance::PJRT_Event_Destroy
2025-10-23 04:30:58.787 (  45.239s) [        B6FFD640]      event_instance.cc:222      1| EventInstance::PJRT_Event_OnReady
2025-10-23 04:30:58.787 (  45.239s) [        B6FFD640]      event_instance.cc:171      1| EventInstance::PJRT_Event_Destroy
2025-10-23 04:30:58.787 (  45.239s) [        B6FFD640]     buffer_instance.cc:417      1| BufferInstance::PJRT_Buffer_Dimensions
2025-10-23 04:30:58.787 (  45.239s) [        B6FFD640]     buffer_instance.cc:440      1| BufferInstance::PJRT_Buffer_DynamicDimensionIndices
2025-10-23 04:30:58.787 (  45.239s) [        B6FFD640]     buffer_instance.cc:417      1| BufferInstance::PJRT_Buffer_Dimensions
2025-10-23 04:30:58.787 (  45.239s) [        B6FFD640]     buffer_instance.cc:409      1| BufferInstance::PJRT_Buffer_ElementType
2025-10-23 04:30:58.787 (  45.239s) [        B6FFD640]     buffer_instance.cc:417      1| BufferInstance::PJRT_Buffer_Dimensions
2025-10-23 04:30:58.787 (  45.239s) [        B6FFD640]     buffer_instance.cc:440      1| BufferInstance::PJRT_Buffer_DynamicDimensionIndices
2025-10-23 04:30:58.787 (  45.239s) [        B6FFD640]     buffer_instance.cc:417      1| BufferInstance::PJRT_Buffer_Dimensions
2025-10-23 04:30:58.787 (  45.239s) [        B6FFD640]     buffer_instance.cc:409      1| BufferInstance::PJRT_Buffer_ElementType
2025-10-23 04:30:58.787 (  45.239s) [        B6FFD640]     buffer_instance.cc:417      1| BufferInstance::PJRT_Buffer_Dimensions
2025-10-23 04:30:58.787 (  45.239s) [        B6FFD640]     buffer_instance.cc:440      1| BufferInstance::PJRT_Buffer_DynamicDimensionIndices
2025-10-23 04:30:58.787 (  45.239s) [        B6FFD640]     buffer_instance.cc:417      1| BufferInstance::PJRT_Buffer_Dimensions
2025-10-23 04:30:58.787 (  45.239s) [        B6FFD640]     buffer_instance.cc:409      1| BufferInstance::PJRT_Buffer_ElementType
2025-10-23 04:30:58.787 (  45.239s) [        B6FFD640]     buffer_instance.cc:417      1| BufferInstance::PJRT_Buffer_Dimensions
2025-10-23 04:30:58.787 (  45.239s) [        B6FFD640]     buffer_instance.cc:440      1| BufferInstance::PJRT_Buffer_DynamicDimensionIndices
2025-10-23 04:30:58.787 (  45.239s) [        B6FFD640]     buffer_instance.cc:417      1| BufferInstance::PJRT_Buffer_Dimensions
2025-10-23 04:30:58.787 (  45.239s) [        B6FFD640]     buffer_instance.cc:409      1| BufferInstance::PJRT_Buffer_ElementType
2025-10-23 04:30:58.787 (  45.239s) [        B6FFD640]     buffer_instance.cc:417      1| BufferInstance::PJRT_Buffer_Dimensions
2025-10-23 04:30:58.787 (  45.239s) [        B6FFD640]     buffer_instance.cc:440      1| BufferInstance::PJRT_Buffer_DynamicDimensionIndices
2025-10-23 04:30:58.787 (  45.239s) [        B6FFD640]     buffer_instance.cc:417      1| BufferInstance::PJRT_Buffer_Dimensions
2025-10-23 04:30:58.787 (  45.239s) [        B6FFD640]     buffer_instance.cc:409      1| BufferInstance::PJRT_Buffer_ElementType
2025-10-23 04:30:58.787 (  45.239s) [        B6FFD640]     buffer_instance.cc:417      1| BufferInstance::PJRT_Buffer_Dimensions
2025-10-23 04:30:58.787 (  45.239s) [        B6FFD640]     buffer_instance.cc:440      1| BufferInstance::PJRT_Buffer_DynamicDimensionIndices
2025-10-23 04:30:58.787 (  45.239s) [        B6FFD640]     buffer_instance.cc:417      1| BufferInstance::PJRT_Buffer_Dimensions
2025-10-23 04:30:58.787 (  45.239s) [        B6FFD640]     buffer_instance.cc:409      1| BufferInstance::PJRT_Buffer_ElementType
2025-10-23 04:30:58.787 (  45.239s) [        B6FFD640]     buffer_instance.cc:417      1| BufferInstance::PJRT_Buffer_Dimensions
2025-10-23 04:30:58.787 (  45.239s) [        B6FFD640]     buffer_instance.cc:440      1| BufferInstance::PJRT_Buffer_DynamicDimensionIndices
2025-10-23 04:30:58.787 (  45.239s) [        B6FFD640]     buffer_instance.cc:417      1| BufferInstance::PJRT_Buffer_Dimensions
2025-10-23 04:30:58.787 (  45.239s) [        B6FFD640]     buffer_instance.cc:409      1| BufferInstance::PJRT_Buffer_ElementType
2025-10-23 04:30:58.787 (  45.239s) [        B6FFD640]     buffer_instance.cc:417      1| BufferInstance::PJRT_Buffer_Dimensions
2025-10-23 04:30:58.787 (  45.239s) [        B6FFD640]     buffer_instance.cc:440      1| BufferInstance::PJRT_Buffer_DynamicDimensionIndices
2025-10-23 04:30:58.787 (  45.239s) [        B6FFD640]     buffer_instance.cc:417      1| BufferInstance::PJRT_Buffer_Dimensions
2025-10-23 04:30:58.787 (  45.239s) [        B6FFD640]     buffer_instance.cc:409      1| BufferInstance::PJRT_Buffer_ElementType
2025-10-23 04:30:58.787 (  45.239s) [        2146C480]     buffer_instance.cc:401      1| BufferInstance::PJRT_Buffer_Destroy
2025-10-23 04:30:58.788 (  45.239s) [        2146C480]     buffer_instance.cc:401      1| BufferInstance::PJRT_Buffer_Destroy
2025-10-23 04:30:58.788 (  45.239s) [        2146C480]     buffer_instance.cc:401      1| BufferInstance::PJRT_Buffer_Destroy
2025-10-23 04:30:58.788 (  45.239s) [        2146C480]     buffer_instance.cc:401      1| BufferInstance::PJRT_Buffer_Destroy
2025-10-23 04:30:58.788 (  45.239s) [        2146C480]     buffer_instance.cc:401      1| BufferInstance::PJRT_Buffer_Destroy
2025-10-23 04:30:58.788 (  45.240s) [        2146C480]     buffer_instance.cc:401      1| BufferInstance::PJRT_Buffer_Destroy
2025-10-23 04:30:58.788 (  45.240s) [        2146C480]     buffer_instance.cc:401      1| BufferInstance::PJRT_Buffer_Destroy
2025-10-23 04:30:58.788 (  45.240s) [        2146C480]     buffer_instance.cc:401      1| BufferInstance::PJRT_Buffer_Destroy
2025-10-23 04:30:58.788 (  45.240s) [        2146C480]     buffer_instance.cc:428      1| BufferInstance::PJRT_Buffer_UnpaddedDimensions
2025-10-23 04:30:58.788 (  45.240s) [        2146C480]     buffer_instance.cc:409      1| BufferInstance::PJRT_Buffer_ElementType
2025-10-23 04:30:58.788 (  45.240s) [        2146C480]     buffer_instance.cc:417      1| BufferInstance::PJRT_Buffer_Dimensions
2025-10-23 04:30:58.788 (  45.240s) [        2146C480]     buffer_instance.cc:450      1| BufferInstance::PJRT_Buffer_ToHostBuffer
2025-10-23 04:30:58.788 (  45.240s) [        2146C480]      event_instance.cc:222      1| EventInstance::PJRT_Event_OnReady
2025-10-23 04:30:58.789 (  45.241s) [        F67FC640]      event_instance.cc:171      1| EventInstance::PJRT_Event_Destroy
2025-10-23 04:30:58.819 (  45.271s) [        2146C480]     buffer_instance.cc:401      1| BufferInstance::PJRT_Buffer_Destroy
2025-10-23 04:30:58.819 (  45.271s) [        2146C480]     buffer_instance.cc:401      1| BufferInstance::PJRT_Buffer_Destroy
2025-10-23 04:30:58.819 (  45.271s) [        2146C480]     buffer_instance.cc:401      1| BufferInstance::PJRT_Buffer_Destroy
2025-10-23 04:30:58.819 (  45.271s) [        2146C480]     buffer_instance.cc:401      1| BufferInstance::PJRT_Buffer_Destroy
2025-10-23 04:30:58.819 (  45.271s) [        2146C480]     buffer_instance.cc:401      1| BufferInstance::PJRT_Buffer_Destroy
2025-10-23 04:30:58.819 (  45.271s) [        2146C480]     buffer_instance.cc:401      1| BufferInstance::PJRT_Buffer_Destroy
2025-10-23 04:30:58.819 (  45.271s) [        2146C480]     buffer_instance.cc:401      1| BufferInstance::PJRT_Buffer_Destroy
2025-10-23 04:30:58.819 (  45.271s) [        2146C480]     buffer_instance.cc:401      1| BufferInstance::PJRT_Buffer_Destroy
2025-10-23 04:30:58.820 (  45.272s) [        2146C480]     buffer_instance.cc:401      1| BufferInstance::PJRT_Buffer_Destroy
2025-10-23 04:30:58.820 (  45.272s) [        2146C480]     buffer_instance.cc:401      1| BufferInstance::PJRT_Buffer_Destroy
2025-10-23 04:30:58.820 (  45.272s) [        2146C480]     buffer_instance.cc:401      1| BufferInstance::PJRT_Buffer_Destroy
2025-10-23 04:30:58.821 (  45.272s) [        2146C480]     buffer_instance.cc:401      1| BufferInstance::PJRT_Buffer_Destroy
2025-10-23 04:30:58.821 (  45.272s) [        2146C480]     buffer_instance.cc:401      1| BufferInstance::PJRT_Buffer_Destroy
2025-10-23 04:30:58.821 (  45.272s) [        2146C480]     buffer_instance.cc:401      1| BufferInstance::PJRT_Buffer_Destroy
2025-10-23 04:30:58.821 (  45.272s) [        2146C480]     buffer_instance.cc:401      1| BufferInstance::PJRT_Buffer_Destroy
2025-10-23 04:30:58.821 (  45.273s) [        2146C480]     buffer_instance.cc:401      1| BufferInstance::PJRT_Buffer_Destroy
2025-10-23 04:30:58.821 (  45.273s) [        2146C480]     buffer_instance.cc:401      1| BufferInstance::PJRT_Buffer_Destroy
2025-10-23 04:30:58.821 (  45.273s) [        2146C480]     buffer_instance.cc:401      1| BufferInstance::PJRT_Buffer_Destroy
2025-10-23 04:30:58.821 (  45.273s) [        2146C480]     buffer_instance.cc:401      1| BufferInstance::PJRT_Buffer_Destroy
2025-10-23 04:30:58.821 (  45.273s) [        2146C480]     buffer_instance.cc:401      1| BufferInstance::PJRT_Buffer_Destroy
2025-10-23 04:30:58.821 (  45.273s) [        2146C480]     buffer_instance.cc:401      1| BufferInstance::PJRT_Buffer_Destroy
2025-10-23 04:30:58.821 (  45.273s) [        2146C480]     buffer_instance.cc:401      1| BufferInstance::PJRT_Buffer_Destroy
2025-10-23 04:30:58.821 (  45.273s) [        2146C480]     buffer_instance.cc:401      1| BufferInstance::PJRT_Buffer_Destroy
2025-10-23 04:30:58.821 (  45.273s) [        2146C480]     buffer_instance.cc:401      1| BufferInstance::PJRT_Buffer_Destroy
2025-10-23 04:30:58.821 (  45.273s) [        2146C480]     buffer_instance.cc:401      1| BufferInstance::PJRT_Buffer_Destroy
2025-10-23 04:30:58.821 (  45.273s) [        2146C480]     buffer_instance.cc:401      1| BufferInstance::PJRT_Buffer_Destroy
2025-10-23 04:30:58.821 (  45.273s) [        2146C480]     buffer_instance.cc:401      1| BufferInstance::PJRT_Buffer_Destroy
2025-10-23 04:30:58.821 (  45.273s) [        2146C480]     buffer_instance.cc:401      1| BufferInstance::PJRT_Buffer_Destroy
2025-10-23 04:30:58.821 (  45.273s) [        2146C480]     buffer_instance.cc:401      1| BufferInstance::PJRT_Buffer_Destroy
2025-10-23 04:30:58.821 (  45.273s) [        2146C480]     buffer_instance.cc:401      1| BufferInstance::PJRT_Buffer_Destroy
2025-10-23 04:30:58.821 (  45.273s) [        2146C480]     buffer_instance.cc:401      1| BufferInstance::PJRT_Buffer_Destroy
2025-10-23 04:30:58.822 (  45.273s) [        2146C480]     buffer_instance.cc:401      1| BufferInstance::PJRT_Buffer_Destroy
2025-10-23 04:30:58.822 (  45.273s) [        2146C480]     buffer_instance.cc:401      1| BufferInstance::PJRT_Buffer_Destroy
2025-10-23 04:30:58.822 (  45.274s) [        2146C480]     buffer_instance.cc:401      1| BufferInstance::PJRT_Buffer_Destroy
2025-10-23 04:30:58.822 (  45.274s) [        2146C480]     buffer_instance.cc:401      1| BufferInstance::PJRT_Buffer_Destroy
2025-10-23 04:30:58.822 (  45.274s) [        2146C480]     buffer_instance.cc:401      1| BufferInstance::PJRT_Buffer_Destroy
2025-10-23 04:30:58.822 (  45.274s) [        2146C480]     buffer_instance.cc:401      1| BufferInstance::PJRT_Buffer_Destroy
2025-10-23 04:30:58.822 (  45.274s) [        2146C480]     buffer_instance.cc:401      1| BufferInstance::PJRT_Buffer_Destroy
2025-10-23 04:30:58.822 (  45.274s) [        2146C480]     buffer_instance.cc:401      1| BufferInstance::PJRT_Buffer_Destroy
2025-10-23 04:30:58.822 (  45.274s) [        2146C480]     buffer_instance.cc:401      1| BufferInstance::PJRT_Buffer_Destroy
PASSED

============================== 1 passed in 45.55s ==============================
