WARNING:root:Defaulting to PJRT_DEVICE=CPU
Using TT-Metal from the source tree: /root/tt-xla/third_party/tt-mlir/src/tt-mlir/third_party/tt-metal/src/tt-metal
WARNING: TT plugin is setting XLA_STABLEHLO_COMPILE to 1. This is required for TT PJRT plugin to work correctly.
============================= test session starts ==============================
platform linux -- Python 3.11.13, pytest-8.4.2, pluggy-1.6.0 -- /root/tt-xla/venv/bin/python
cachedir: .pytest_cache
rootdir: /root/tt-xla
configfile: pytest.ini
plugins: jaxtyping-0.3.3, anyio-4.11.0, split-0.10.0, forked-1.6.0
collecting ... Workaround to exclude model: suryaocr from discovery. Issue #1166
Cannot import path: /root/tt-xla/third_party/tt_forge_models/bevformer/pytorch/loader.py: No module named 'detectron2'
Cannot import path: /root/tt-xla/third_party/tt_forge_models/centernet/pytorch/loader.py: libGL.so.1: cannot open shared object file: No such file or directory
Cannot import path: /root/tt-xla/third_party/tt_forge_models/rcnn/pytorch/loader.py: libGL.so.1: cannot open shared object file: No such file or directory
Cannot import path: /root/tt-xla/third_party/tt_forge_models/ssr/pytorch/loader.py: libGL.so.1: cannot open shared object file: No such file or directory
Cannot import path: /root/tt-xla/third_party/tt_forge_models/vadv2/pytorch/loader.py: libGL.so.1: cannot open shared object file: No such file or directory
Cannot import path: /root/tt-xla/third_party/tt_forge_models/yolov10/pytorch/loader.py: libGL.so.1: cannot open shared object file: No such file or directory
Cannot import path: /root/tt-xla/third_party/tt_forge_models/yolov11/pytorch/loader.py: libGL.so.1: cannot open shared object file: No such file or directory
Cannot import path: /root/tt-xla/third_party/tt_forge_models/yolov4/pytorch/loader.py: libGL.so.1: cannot open shared object file: No such file or directory
Cannot import path: /root/tt-xla/third_party/tt_forge_models/yolov5/pytorch/loader.py: libGL.so.1: cannot open shared object file: No such file or directory
Cannot import path: /root/tt-xla/third_party/tt_forge_models/yolov6/pytorch/loader.py: libGL.so.1: cannot open shared object file: No such file or directory
Cannot import path: /root/tt-xla/third_party/tt_forge_models/yolov8/pytorch/loader.py: libGL.so.1: cannot open shared object file: No such file or directory
Cannot import path: /root/tt-xla/third_party/tt_forge_models/yolov9/pytorch/loader.py: libGL.so.1: cannot open shared object file: No such file or directory
Cannot import path: /root/tt-xla/third_party/tt_forge_models/yoloworld/pytorch/loader.py: libGL.so.1: cannot open shared object file: No such file or directory
collected 1 item

tests/runner/test_models.py::test_all_models[llama/causal_lm/pytorch-llama_3_1_70b-tensor_parallel-full-inference] Fetching 30 files:   0%|          | 0/30 [00:00<?, ?it/s]Fetching 30 files:   3%|▎         | 1/30 [02:02<59:01, 122.11s/it]Fetching 30 files: 100%|██████████| 30/30 [02:02<00:00,  4.07s/it]
Loading checkpoint shards:   0%|          | 0/30 [00:00<?, ?it/s]Loading checkpoint shards: 100%|██████████| 30/30 [00:00<00:00, 3109.73it/s]
Some weights of the model checkpoint at meta-llama/Meta-Llama-3.1-70B were not used when initializing LlamaForCausalLM: ['model.layers.1.input_layernorm.weight', 'model.layers.1.mlp.down_proj.weight', 'model.layers.1.mlp.gate_proj.weight', 'model.layers.1.mlp.up_proj.weight', 'model.layers.1.post_attention_layernorm.weight', 'model.layers.1.self_attn.k_proj.weight', 'model.layers.1.self_attn.o_proj.weight', 'model.layers.1.self_attn.q_proj.weight', 'model.layers.1.self_attn.v_proj.weight', 'model.layers.10.input_layernorm.weight', 'model.layers.10.mlp.down_proj.weight', 'model.layers.10.mlp.gate_proj.weight', 'model.layers.10.mlp.up_proj.weight', 'model.layers.10.post_attention_layernorm.weight', 'model.layers.10.self_attn.k_proj.weight', 'model.layers.10.self_attn.o_proj.weight', 'model.layers.10.self_attn.q_proj.weight', 'model.layers.10.self_attn.v_proj.weight', 'model.layers.11.input_layernorm.weight', 'model.layers.11.mlp.down_proj.weight', 'model.layers.11.mlp.gate_proj.weight', 'model.layers.11.mlp.up_proj.weight', 'model.layers.11.post_attention_layernorm.weight', 'model.layers.11.self_attn.k_proj.weight', 'model.layers.11.self_attn.o_proj.weight', 'model.layers.11.self_attn.q_proj.weight', 'model.layers.11.self_attn.v_proj.weight', 'model.layers.12.input_layernorm.weight', 'model.layers.12.mlp.down_proj.weight', 'model.layers.12.mlp.gate_proj.weight', 'model.layers.12.mlp.up_proj.weight', 'model.layers.12.post_attention_layernorm.weight', 'model.layers.12.self_attn.k_proj.weight', 'model.layers.12.self_attn.o_proj.weight', 'model.layers.12.self_attn.q_proj.weight', 'model.layers.12.self_attn.v_proj.weight', 'model.layers.13.input_layernorm.weight', 'model.layers.13.mlp.down_proj.weight', 'model.layers.13.mlp.gate_proj.weight', 'model.layers.13.mlp.up_proj.weight', 'model.layers.13.post_attention_layernorm.weight', 'model.layers.13.self_attn.k_proj.weight', 'model.layers.13.self_attn.o_proj.weight', 'model.layers.13.self_attn.q_proj.weight', 'model.layers.13.self_attn.v_proj.weight', 'model.layers.14.input_layernorm.weight', 'model.layers.14.mlp.down_proj.weight', 'model.layers.14.mlp.gate_proj.weight', 'model.layers.14.mlp.up_proj.weight', 'model.layers.14.post_attention_layernorm.weight', 'model.layers.14.self_attn.k_proj.weight', 'model.layers.14.self_attn.o_proj.weight', 'model.layers.14.self_attn.q_proj.weight', 'model.layers.14.self_attn.v_proj.weight', 'model.layers.15.input_layernorm.weight', 'model.layers.15.mlp.down_proj.weight', 'model.layers.15.mlp.gate_proj.weight', 'model.layers.15.mlp.up_proj.weight', 'model.layers.15.post_attention_layernorm.weight', 'model.layers.15.self_attn.k_proj.weight', 'model.layers.15.self_attn.o_proj.weight', 'model.layers.15.self_attn.q_proj.weight', 'model.layers.15.self_attn.v_proj.weight', 'model.layers.16.input_layernorm.weight', 'model.layers.16.mlp.down_proj.weight', 'model.layers.16.mlp.gate_proj.weight', 'model.layers.16.mlp.up_proj.weight', 'model.layers.16.post_attention_layernorm.weight', 'model.layers.16.self_attn.k_proj.weight', 'model.layers.16.self_attn.o_proj.weight', 'model.layers.16.self_attn.q_proj.weight', 'model.layers.16.self_attn.v_proj.weight', 'model.layers.17.input_layernorm.weight', 'model.layers.17.mlp.down_proj.weight', 'model.layers.17.mlp.gate_proj.weight', 'model.layers.17.mlp.up_proj.weight', 'model.layers.17.post_attention_layernorm.weight', 'model.layers.17.self_attn.k_proj.weight', 'model.layers.17.self_attn.o_proj.weight', 'model.layers.17.self_attn.q_proj.weight', 'model.layers.17.self_attn.v_proj.weight', 'model.layers.18.input_layernorm.weight', 'model.layers.18.mlp.down_proj.weight', 'model.layers.18.mlp.gate_proj.weight', 'model.layers.18.mlp.up_proj.weight', 'model.layers.18.post_attention_layernorm.weight', 'model.layers.18.self_attn.k_proj.weight', 'model.layers.18.self_attn.o_proj.weight', 'model.layers.18.self_attn.q_proj.weight', 'model.layers.18.self_attn.v_proj.weight', 'model.layers.19.input_layernorm.weight', 'model.layers.19.mlp.down_proj.weight', 'model.layers.19.mlp.gate_proj.weight', 'model.layers.19.mlp.up_proj.weight', 'model.layers.19.post_attention_layernorm.weight', 'model.layers.19.self_attn.k_proj.weight', 'model.layers.19.self_attn.o_proj.weight', 'model.layers.19.self_attn.q_proj.weight', 'model.layers.19.self_attn.v_proj.weight', 'model.layers.2.input_layernorm.weight', 'model.layers.2.mlp.down_proj.weight', 'model.layers.2.mlp.gate_proj.weight', 'model.layers.2.mlp.up_proj.weight', 'model.layers.2.post_attention_layernorm.weight', 'model.layers.2.self_attn.k_proj.weight', 'model.layers.2.self_attn.o_proj.weight', 'model.layers.2.self_attn.q_proj.weight', 'model.layers.2.self_attn.v_proj.weight', 'model.layers.20.input_layernorm.weight', 'model.layers.20.mlp.down_proj.weight', 'model.layers.20.mlp.gate_proj.weight', 'model.layers.20.mlp.up_proj.weight', 'model.layers.20.post_attention_layernorm.weight', 'model.layers.20.self_attn.k_proj.weight', 'model.layers.20.self_attn.o_proj.weight', 'model.layers.20.self_attn.q_proj.weight', 'model.layers.20.self_attn.v_proj.weight', 'model.layers.21.input_layernorm.weight', 'model.layers.21.mlp.down_proj.weight', 'model.layers.21.mlp.gate_proj.weight', 'model.layers.21.mlp.up_proj.weight', 'model.layers.21.post_attention_layernorm.weight', 'model.layers.21.self_attn.k_proj.weight', 'model.layers.21.self_attn.o_proj.weight', 'model.layers.21.self_attn.q_proj.weight', 'model.layers.21.self_attn.v_proj.weight', 'model.layers.22.input_layernorm.weight', 'model.layers.22.mlp.down_proj.weight', 'model.layers.22.mlp.gate_proj.weight', 'model.layers.22.mlp.up_proj.weight', 'model.layers.22.post_attention_layernorm.weight', 'model.layers.22.self_attn.k_proj.weight', 'model.layers.22.self_attn.o_proj.weight', 'model.layers.22.self_attn.q_proj.weight', 'model.layers.22.self_attn.v_proj.weight', 'model.layers.23.input_layernorm.weight', 'model.layers.23.mlp.down_proj.weight', 'model.layers.23.mlp.gate_proj.weight', 'model.layers.23.mlp.up_proj.weight', 'model.layers.23.post_attention_layernorm.weight', 'model.layers.23.self_attn.k_proj.weight', 'model.layers.23.self_attn.o_proj.weight', 'model.layers.23.self_attn.q_proj.weight', 'model.layers.23.self_attn.v_proj.weight', 'model.layers.24.input_layernorm.weight', 'model.layers.24.mlp.down_proj.weight', 'model.layers.24.mlp.gate_proj.weight', 'model.layers.24.mlp.up_proj.weight', 'model.layers.24.post_attention_layernorm.weight', 'model.layers.24.self_attn.k_proj.weight', 'model.layers.24.self_attn.o_proj.weight', 'model.layers.24.self_attn.q_proj.weight', 'model.layers.24.self_attn.v_proj.weight', 'model.layers.25.input_layernorm.weight', 'model.layers.25.mlp.down_proj.weight', 'model.layers.25.mlp.gate_proj.weight', 'model.layers.25.mlp.up_proj.weight', 'model.layers.25.post_attention_layernorm.weight', 'model.layers.25.self_attn.k_proj.weight', 'model.layers.25.self_attn.o_proj.weight', 'model.layers.25.self_attn.q_proj.weight', 'model.layers.25.self_attn.v_proj.weight', 'model.layers.26.input_layernorm.weight', 'model.layers.26.mlp.down_proj.weight', 'model.layers.26.mlp.gate_proj.weight', 'model.layers.26.mlp.up_proj.weight', 'model.layers.26.post_attention_layernorm.weight', 'model.layers.26.self_attn.k_proj.weight', 'model.layers.26.self_attn.o_proj.weight', 'model.layers.26.self_attn.q_proj.weight', 'model.layers.26.self_attn.v_proj.weight', 'model.layers.27.input_layernorm.weight', 'model.layers.27.mlp.down_proj.weight', 'model.layers.27.mlp.gate_proj.weight', 'model.layers.27.mlp.up_proj.weight', 'model.layers.27.post_attention_layernorm.weight', 'model.layers.27.self_attn.k_proj.weight', 'model.layers.27.self_attn.o_proj.weight', 'model.layers.27.self_attn.q_proj.weight', 'model.layers.27.self_attn.v_proj.weight', 'model.layers.28.input_layernorm.weight', 'model.layers.28.mlp.down_proj.weight', 'model.layers.28.mlp.gate_proj.weight', 'model.layers.28.mlp.up_proj.weight', 'model.layers.28.post_attention_layernorm.weight', 'model.layers.28.self_attn.k_proj.weight', 'model.layers.28.self_attn.o_proj.weight', 'model.layers.28.self_attn.q_proj.weight', 'model.layers.28.self_attn.v_proj.weight', 'model.layers.29.input_layernorm.weight', 'model.layers.29.mlp.down_proj.weight', 'model.layers.29.mlp.gate_proj.weight', 'model.layers.29.mlp.up_proj.weight', 'model.layers.29.post_attention_layernorm.weight', 'model.layers.29.self_attn.k_proj.weight', 'model.layers.29.self_attn.o_proj.weight', 'model.layers.29.self_attn.q_proj.weight', 'model.layers.29.self_attn.v_proj.weight', 'model.layers.3.input_layernorm.weight', 'model.layers.3.mlp.down_proj.weight', 'model.layers.3.mlp.gate_proj.weight', 'model.layers.3.mlp.up_proj.weight', 'model.layers.3.post_attention_layernorm.weight', 'model.layers.3.self_attn.k_proj.weight', 'model.layers.3.self_attn.o_proj.weight', 'model.layers.3.self_attn.q_proj.weight', 'model.layers.3.self_attn.v_proj.weight', 'model.layers.30.input_layernorm.weight', 'model.layers.30.mlp.down_proj.weight', 'model.layers.30.mlp.gate_proj.weight', 'model.layers.30.mlp.up_proj.weight', 'model.layers.30.post_attention_layernorm.weight', 'model.layers.30.self_attn.k_proj.weight', 'model.layers.30.self_attn.o_proj.weight', 'model.layers.30.self_attn.q_proj.weight', 'model.layers.30.self_attn.v_proj.weight', 'model.layers.31.input_layernorm.weight', 'model.layers.31.mlp.down_proj.weight', 'model.layers.31.mlp.gate_proj.weight', 'model.layers.31.mlp.up_proj.weight', 'model.layers.31.post_attention_layernorm.weight', 'model.layers.31.self_attn.k_proj.weight', 'model.layers.31.self_attn.o_proj.weight', 'model.layers.31.self_attn.q_proj.weight', 'model.layers.31.self_attn.v_proj.weight', 'model.layers.32.input_layernorm.weight', 'model.layers.32.mlp.down_proj.weight', 'model.layers.32.mlp.gate_proj.weight', 'model.layers.32.mlp.up_proj.weight', 'model.layers.32.post_attention_layernorm.weight', 'model.layers.32.self_attn.k_proj.weight', 'model.layers.32.self_attn.o_proj.weight', 'model.layers.32.self_attn.q_proj.weight', 'model.layers.32.self_attn.v_proj.weight', 'model.layers.33.input_layernorm.weight', 'model.layers.33.mlp.down_proj.weight', 'model.layers.33.mlp.gate_proj.weight', 'model.layers.33.mlp.up_proj.weight', 'model.layers.33.post_attention_layernorm.weight', 'model.layers.33.self_attn.k_proj.weight', 'model.layers.33.self_attn.o_proj.weight', 'model.layers.33.self_attn.q_proj.weight', 'model.layers.33.self_attn.v_proj.weight', 'model.layers.34.input_layernorm.weight', 'model.layers.34.mlp.down_proj.weight', 'model.layers.34.mlp.gate_proj.weight', 'model.layers.34.mlp.up_proj.weight', 'model.layers.34.post_attention_layernorm.weight', 'model.layers.34.self_attn.k_proj.weight', 'model.layers.34.self_attn.o_proj.weight', 'model.layers.34.self_attn.q_proj.weight', 'model.layers.34.self_attn.v_proj.weight', 'model.layers.35.input_layernorm.weight', 'model.layers.35.mlp.down_proj.weight', 'model.layers.35.mlp.gate_proj.weight', 'model.layers.35.mlp.up_proj.weight', 'model.layers.35.post_attention_layernorm.weight', 'model.layers.35.self_attn.k_proj.weight', 'model.layers.35.self_attn.o_proj.weight', 'model.layers.35.self_attn.q_proj.weight', 'model.layers.35.self_attn.v_proj.weight', 'model.layers.36.input_layernorm.weight', 'model.layers.36.mlp.down_proj.weight', 'model.layers.36.mlp.gate_proj.weight', 'model.layers.36.mlp.up_proj.weight', 'model.layers.36.post_attention_layernorm.weight', 'model.layers.36.self_attn.k_proj.weight', 'model.layers.36.self_attn.o_proj.weight', 'model.layers.36.self_attn.q_proj.weight', 'model.layers.36.self_attn.v_proj.weight', 'model.layers.37.input_layernorm.weight', 'model.layers.37.mlp.down_proj.weight', 'model.layers.37.mlp.gate_proj.weight', 'model.layers.37.mlp.up_proj.weight', 'model.layers.37.post_attention_layernorm.weight', 'model.layers.37.self_attn.k_proj.weight', 'model.layers.37.self_attn.o_proj.weight', 'model.layers.37.self_attn.q_proj.weight', 'model.layers.37.self_attn.v_proj.weight', 'model.layers.38.input_layernorm.weight', 'model.layers.38.mlp.down_proj.weight', 'model.layers.38.mlp.gate_proj.weight', 'model.layers.38.mlp.up_proj.weight', 'model.layers.38.post_attention_layernorm.weight', 'model.layers.38.self_attn.k_proj.weight', 'model.layers.38.self_attn.o_proj.weight', 'model.layers.38.self_attn.q_proj.weight', 'model.layers.38.self_attn.v_proj.weight', 'model.layers.39.input_layernorm.weight', 'model.layers.39.mlp.down_proj.weight', 'model.layers.39.mlp.gate_proj.weight', 'model.layers.39.mlp.up_proj.weight', 'model.layers.39.post_attention_layernorm.weight', 'model.layers.39.self_attn.k_proj.weight', 'model.layers.39.self_attn.o_proj.weight', 'model.layers.39.self_attn.q_proj.weight', 'model.layers.39.self_attn.v_proj.weight', 'model.layers.4.input_layernorm.weight', 'model.layers.4.mlp.down_proj.weight', 'model.layers.4.mlp.gate_proj.weight', 'model.layers.4.mlp.up_proj.weight', 'model.layers.4.post_attention_layernorm.weight', 'model.layers.4.self_attn.k_proj.weight', 'model.layers.4.self_attn.o_proj.weight', 'model.layers.4.self_attn.q_proj.weight', 'model.layers.4.self_attn.v_proj.weight', 'model.layers.40.input_layernorm.weight', 'model.layers.40.mlp.down_proj.weight', 'model.layers.40.mlp.gate_proj.weight', 'model.layers.40.mlp.up_proj.weight', 'model.layers.40.post_attention_layernorm.weight', 'model.layers.40.self_attn.k_proj.weight', 'model.layers.40.self_attn.o_proj.weight', 'model.layers.40.self_attn.q_proj.weight', 'model.layers.40.self_attn.v_proj.weight', 'model.layers.41.input_layernorm.weight', 'model.layers.41.mlp.down_proj.weight', 'model.layers.41.mlp.gate_proj.weight', 'model.layers.41.mlp.up_proj.weight', 'model.layers.41.post_attention_layernorm.weight', 'model.layers.41.self_attn.k_proj.weight', 'model.layers.41.self_attn.o_proj.weight', 'model.layers.41.self_attn.q_proj.weight', 'model.layers.41.self_attn.v_proj.weight', 'model.layers.42.input_layernorm.weight', 'model.layers.42.mlp.down_proj.weight', 'model.layers.42.mlp.gate_proj.weight', 'model.layers.42.mlp.up_proj.weight', 'model.layers.42.post_attention_layernorm.weight', 'model.layers.42.self_attn.k_proj.weight', 'model.layers.42.self_attn.o_proj.weight', 'model.layers.42.self_attn.q_proj.weight', 'model.layers.42.self_attn.v_proj.weight', 'model.layers.43.input_layernorm.weight', 'model.layers.43.mlp.down_proj.weight', 'model.layers.43.mlp.gate_proj.weight', 'model.layers.43.mlp.up_proj.weight', 'model.layers.43.post_attention_layernorm.weight', 'model.layers.43.self_attn.k_proj.weight', 'model.layers.43.self_attn.o_proj.weight', 'model.layers.43.self_attn.q_proj.weight', 'model.layers.43.self_attn.v_proj.weight', 'model.layers.44.input_layernorm.weight', 'model.layers.44.mlp.down_proj.weight', 'model.layers.44.mlp.gate_proj.weight', 'model.layers.44.mlp.up_proj.weight', 'model.layers.44.post_attention_layernorm.weight', 'model.layers.44.self_attn.k_proj.weight', 'model.layers.44.self_attn.o_proj.weight', 'model.layers.44.self_attn.q_proj.weight', 'model.layers.44.self_attn.v_proj.weight', 'model.layers.45.input_layernorm.weight', 'model.layers.45.mlp.down_proj.weight', 'model.layers.45.mlp.gate_proj.weight', 'model.layers.45.mlp.up_proj.weight', 'model.layers.45.post_attention_layernorm.weight', 'model.layers.45.self_attn.k_proj.weight', 'model.layers.45.self_attn.o_proj.weight', 'model.layers.45.self_attn.q_proj.weight', 'model.layers.45.self_attn.v_proj.weight', 'model.layers.46.input_layernorm.weight', 'model.layers.46.mlp.down_proj.weight', 'model.layers.46.mlp.gate_proj.weight', 'model.layers.46.mlp.up_proj.weight', 'model.layers.46.post_attention_layernorm.weight', 'model.layers.46.self_attn.k_proj.weight', 'model.layers.46.self_attn.o_proj.weight', 'model.layers.46.self_attn.q_proj.weight', 'model.layers.46.self_attn.v_proj.weight', 'model.layers.47.input_layernorm.weight', 'model.layers.47.mlp.down_proj.weight', 'model.layers.47.mlp.gate_proj.weight', 'model.layers.47.mlp.up_proj.weight', 'model.layers.47.post_attention_layernorm.weight', 'model.layers.47.self_attn.k_proj.weight', 'model.layers.47.self_attn.o_proj.weight', 'model.layers.47.self_attn.q_proj.weight', 'model.layers.47.self_attn.v_proj.weight', 'model.layers.48.input_layernorm.weight', 'model.layers.48.mlp.down_proj.weight', 'model.layers.48.mlp.gate_proj.weight', 'model.layers.48.mlp.up_proj.weight', 'model.layers.48.post_attention_layernorm.weight', 'model.layers.48.self_attn.k_proj.weight', 'model.layers.48.self_attn.o_proj.weight', 'model.layers.48.self_attn.q_proj.weight', 'model.layers.48.self_attn.v_proj.weight', 'model.layers.49.input_layernorm.weight', 'model.layers.49.mlp.down_proj.weight', 'model.layers.49.mlp.gate_proj.weight', 'model.layers.49.mlp.up_proj.weight', 'model.layers.49.post_attention_layernorm.weight', 'model.layers.49.self_attn.k_proj.weight', 'model.layers.49.self_attn.o_proj.weight', 'model.layers.49.self_attn.q_proj.weight', 'model.layers.49.self_attn.v_proj.weight', 'model.layers.5.input_layernorm.weight', 'model.layers.5.mlp.down_proj.weight', 'model.layers.5.mlp.gate_proj.weight', 'model.layers.5.mlp.up_proj.weight', 'model.layers.5.post_attention_layernorm.weight', 'model.layers.5.self_attn.k_proj.weight', 'model.layers.5.self_attn.o_proj.weight', 'model.layers.5.self_attn.q_proj.weight', 'model.layers.5.self_attn.v_proj.weight', 'model.layers.50.input_layernorm.weight', 'model.layers.50.mlp.down_proj.weight', 'model.layers.50.mlp.gate_proj.weight', 'model.layers.50.mlp.up_proj.weight', 'model.layers.50.post_attention_layernorm.weight', 'model.layers.50.self_attn.k_proj.weight', 'model.layers.50.self_attn.o_proj.weight', 'model.layers.50.self_attn.q_proj.weight', 'model.layers.50.self_attn.v_proj.weight', 'model.layers.51.input_layernorm.weight', 'model.layers.51.mlp.down_proj.weight', 'model.layers.51.mlp.gate_proj.weight', 'model.layers.51.mlp.up_proj.weight', 'model.layers.51.post_attention_layernorm.weight', 'model.layers.51.self_attn.k_proj.weight', 'model.layers.51.self_attn.o_proj.weight', 'model.layers.51.self_attn.q_proj.weight', 'model.layers.51.self_attn.v_proj.weight', 'model.layers.52.input_layernorm.weight', 'model.layers.52.mlp.down_proj.weight', 'model.layers.52.mlp.gate_proj.weight', 'model.layers.52.mlp.up_proj.weight', 'model.layers.52.post_attention_layernorm.weight', 'model.layers.52.self_attn.k_proj.weight', 'model.layers.52.self_attn.o_proj.weight', 'model.layers.52.self_attn.q_proj.weight', 'model.layers.52.self_attn.v_proj.weight', 'model.layers.53.input_layernorm.weight', 'model.layers.53.mlp.down_proj.weight', 'model.layers.53.mlp.gate_proj.weight', 'model.layers.53.mlp.up_proj.weight', 'model.layers.53.post_attention_layernorm.weight', 'model.layers.53.self_attn.k_proj.weight', 'model.layers.53.self_attn.o_proj.weight', 'model.layers.53.self_attn.q_proj.weight', 'model.layers.53.self_attn.v_proj.weight', 'model.layers.54.input_layernorm.weight', 'model.layers.54.mlp.down_proj.weight', 'model.layers.54.mlp.gate_proj.weight', 'model.layers.54.mlp.up_proj.weight', 'model.layers.54.post_attention_layernorm.weight', 'model.layers.54.self_attn.k_proj.weight', 'model.layers.54.self_attn.o_proj.weight', 'model.layers.54.self_attn.q_proj.weight', 'model.layers.54.self_attn.v_proj.weight', 'model.layers.55.input_layernorm.weight', 'model.layers.55.mlp.down_proj.weight', 'model.layers.55.mlp.gate_proj.weight', 'model.layers.55.mlp.up_proj.weight', 'model.layers.55.post_attention_layernorm.weight', 'model.layers.55.self_attn.k_proj.weight', 'model.layers.55.self_attn.o_proj.weight', 'model.layers.55.self_attn.q_proj.weight', 'model.layers.55.self_attn.v_proj.weight', 'model.layers.56.input_layernorm.weight', 'model.layers.56.mlp.down_proj.weight', 'model.layers.56.mlp.gate_proj.weight', 'model.layers.56.mlp.up_proj.weight', 'model.layers.56.post_attention_layernorm.weight', 'model.layers.56.self_attn.k_proj.weight', 'model.layers.56.self_attn.o_proj.weight', 'model.layers.56.self_attn.q_proj.weight', 'model.layers.56.self_attn.v_proj.weight', 'model.layers.57.input_layernorm.weight', 'model.layers.57.mlp.down_proj.weight', 'model.layers.57.mlp.gate_proj.weight', 'model.layers.57.mlp.up_proj.weight', 'model.layers.57.post_attention_layernorm.weight', 'model.layers.57.self_attn.k_proj.weight', 'model.layers.57.self_attn.o_proj.weight', 'model.layers.57.self_attn.q_proj.weight', 'model.layers.57.self_attn.v_proj.weight', 'model.layers.58.input_layernorm.weight', 'model.layers.58.mlp.down_proj.weight', 'model.layers.58.mlp.gate_proj.weight', 'model.layers.58.mlp.up_proj.weight', 'model.layers.58.post_attention_layernorm.weight', 'model.layers.58.self_attn.k_proj.weight', 'model.layers.58.self_attn.o_proj.weight', 'model.layers.58.self_attn.q_proj.weight', 'model.layers.58.self_attn.v_proj.weight', 'model.layers.59.input_layernorm.weight', 'model.layers.59.mlp.down_proj.weight', 'model.layers.59.mlp.gate_proj.weight', 'model.layers.59.mlp.up_proj.weight', 'model.layers.59.post_attention_layernorm.weight', 'model.layers.59.self_attn.k_proj.weight', 'model.layers.59.self_attn.o_proj.weight', 'model.layers.59.self_attn.q_proj.weight', 'model.layers.59.self_attn.v_proj.weight', 'model.layers.6.input_layernorm.weight', 'model.layers.6.mlp.down_proj.weight', 'model.layers.6.mlp.gate_proj.weight', 'model.layers.6.mlp.up_proj.weight', 'model.layers.6.post_attention_layernorm.weight', 'model.layers.6.self_attn.k_proj.weight', 'model.layers.6.self_attn.o_proj.weight', 'model.layers.6.self_attn.q_proj.weight', 'model.layers.6.self_attn.v_proj.weight', 'model.layers.60.input_layernorm.weight', 'model.layers.60.mlp.down_proj.weight', 'model.layers.60.mlp.gate_proj.weight', 'model.layers.60.mlp.up_proj.weight', 'model.layers.60.post_attention_layernorm.weight', 'model.layers.60.self_attn.k_proj.weight', 'model.layers.60.self_attn.o_proj.weight', 'model.layers.60.self_attn.q_proj.weight', 'model.layers.60.self_attn.v_proj.weight', 'model.layers.61.input_layernorm.weight', 'model.layers.61.mlp.down_proj.weight', 'model.layers.61.mlp.gate_proj.weight', 'model.layers.61.mlp.up_proj.weight', 'model.layers.61.post_attention_layernorm.weight', 'model.layers.61.self_attn.k_proj.weight', 'model.layers.61.self_attn.o_proj.weight', 'model.layers.61.self_attn.q_proj.weight', 'model.layers.61.self_attn.v_proj.weight', 'model.layers.62.input_layernorm.weight', 'model.layers.62.mlp.down_proj.weight', 'model.layers.62.mlp.gate_proj.weight', 'model.layers.62.mlp.up_proj.weight', 'model.layers.62.post_attention_layernorm.weight', 'model.layers.62.self_attn.k_proj.weight', 'model.layers.62.self_attn.o_proj.weight', 'model.layers.62.self_attn.q_proj.weight', 'model.layers.62.self_attn.v_proj.weight', 'model.layers.63.input_layernorm.weight', 'model.layers.63.mlp.down_proj.weight', 'model.layers.63.mlp.gate_proj.weight', 'model.layers.63.mlp.up_proj.weight', 'model.layers.63.post_attention_layernorm.weight', 'model.layers.63.self_attn.k_proj.weight', 'model.layers.63.self_attn.o_proj.weight', 'model.layers.63.self_attn.q_proj.weight', 'model.layers.63.self_attn.v_proj.weight', 'model.layers.64.input_layernorm.weight', 'model.layers.64.mlp.down_proj.weight', 'model.layers.64.mlp.gate_proj.weight', 'model.layers.64.mlp.up_proj.weight', 'model.layers.64.post_attention_layernorm.weight', 'model.layers.64.self_attn.k_proj.weight', 'model.layers.64.self_attn.o_proj.weight', 'model.layers.64.self_attn.q_proj.weight', 'model.layers.64.self_attn.v_proj.weight', 'model.layers.65.input_layernorm.weight', 'model.layers.65.mlp.down_proj.weight', 'model.layers.65.mlp.gate_proj.weight', 'model.layers.65.mlp.up_proj.weight', 'model.layers.65.post_attention_layernorm.weight', 'model.layers.65.self_attn.k_proj.weight', 'model.layers.65.self_attn.o_proj.weight', 'model.layers.65.self_attn.q_proj.weight', 'model.layers.65.self_attn.v_proj.weight', 'model.layers.66.input_layernorm.weight', 'model.layers.66.mlp.down_proj.weight', 'model.layers.66.mlp.gate_proj.weight', 'model.layers.66.mlp.up_proj.weight', 'model.layers.66.post_attention_layernorm.weight', 'model.layers.66.self_attn.k_proj.weight', 'model.layers.66.self_attn.o_proj.weight', 'model.layers.66.self_attn.q_proj.weight', 'model.layers.66.self_attn.v_proj.weight', 'model.layers.67.input_layernorm.weight', 'model.layers.67.mlp.down_proj.weight', 'model.layers.67.mlp.gate_proj.weight', 'model.layers.67.mlp.up_proj.weight', 'model.layers.67.post_attention_layernorm.weight', 'model.layers.67.self_attn.k_proj.weight', 'model.layers.67.self_attn.o_proj.weight', 'model.layers.67.self_attn.q_proj.weight', 'model.layers.67.self_attn.v_proj.weight', 'model.layers.68.input_layernorm.weight', 'model.layers.68.mlp.down_proj.weight', 'model.layers.68.mlp.gate_proj.weight', 'model.layers.68.mlp.up_proj.weight', 'model.layers.68.post_attention_layernorm.weight', 'model.layers.68.self_attn.k_proj.weight', 'model.layers.68.self_attn.o_proj.weight', 'model.layers.68.self_attn.q_proj.weight', 'model.layers.68.self_attn.v_proj.weight', 'model.layers.69.input_layernorm.weight', 'model.layers.69.mlp.down_proj.weight', 'model.layers.69.mlp.gate_proj.weight', 'model.layers.69.mlp.up_proj.weight', 'model.layers.69.post_attention_layernorm.weight', 'model.layers.69.self_attn.k_proj.weight', 'model.layers.69.self_attn.o_proj.weight', 'model.layers.69.self_attn.q_proj.weight', 'model.layers.69.self_attn.v_proj.weight', 'model.layers.7.input_layernorm.weight', 'model.layers.7.mlp.down_proj.weight', 'model.layers.7.mlp.gate_proj.weight', 'model.layers.7.mlp.up_proj.weight', 'model.layers.7.post_attention_layernorm.weight', 'model.layers.7.self_attn.k_proj.weight', 'model.layers.7.self_attn.o_proj.weight', 'model.layers.7.self_attn.q_proj.weight', 'model.layers.7.self_attn.v_proj.weight', 'model.layers.70.input_layernorm.weight', 'model.layers.70.mlp.down_proj.weight', 'model.layers.70.mlp.gate_proj.weight', 'model.layers.70.mlp.up_proj.weight', 'model.layers.70.post_attention_layernorm.weight', 'model.layers.70.self_attn.k_proj.weight', 'model.layers.70.self_attn.o_proj.weight', 'model.layers.70.self_attn.q_proj.weight', 'model.layers.70.self_attn.v_proj.weight', 'model.layers.71.input_layernorm.weight', 'model.layers.71.mlp.down_proj.weight', 'model.layers.71.mlp.gate_proj.weight', 'model.layers.71.mlp.up_proj.weight', 'model.layers.71.post_attention_layernorm.weight', 'model.layers.71.self_attn.k_proj.weight', 'model.layers.71.self_attn.o_proj.weight', 'model.layers.71.self_attn.q_proj.weight', 'model.layers.71.self_attn.v_proj.weight', 'model.layers.72.input_layernorm.weight', 'model.layers.72.mlp.down_proj.weight', 'model.layers.72.mlp.gate_proj.weight', 'model.layers.72.mlp.up_proj.weight', 'model.layers.72.post_attention_layernorm.weight', 'model.layers.72.self_attn.k_proj.weight', 'model.layers.72.self_attn.o_proj.weight', 'model.layers.72.self_attn.q_proj.weight', 'model.layers.72.self_attn.v_proj.weight', 'model.layers.73.input_layernorm.weight', 'model.layers.73.mlp.down_proj.weight', 'model.layers.73.mlp.gate_proj.weight', 'model.layers.73.mlp.up_proj.weight', 'model.layers.73.post_attention_layernorm.weight', 'model.layers.73.self_attn.k_proj.weight', 'model.layers.73.self_attn.o_proj.weight', 'model.layers.73.self_attn.q_proj.weight', 'model.layers.73.self_attn.v_proj.weight', 'model.layers.74.input_layernorm.weight', 'model.layers.74.mlp.down_proj.weight', 'model.layers.74.mlp.gate_proj.weight', 'model.layers.74.mlp.up_proj.weight', 'model.layers.74.post_attention_layernorm.weight', 'model.layers.74.self_attn.k_proj.weight', 'model.layers.74.self_attn.o_proj.weight', 'model.layers.74.self_attn.q_proj.weight', 'model.layers.74.self_attn.v_proj.weight', 'model.layers.75.input_layernorm.weight', 'model.layers.75.mlp.down_proj.weight', 'model.layers.75.mlp.gate_proj.weight', 'model.layers.75.mlp.up_proj.weight', 'model.layers.75.post_attention_layernorm.weight', 'model.layers.75.self_attn.k_proj.weight', 'model.layers.75.self_attn.o_proj.weight', 'model.layers.75.self_attn.q_proj.weight', 'model.layers.75.self_attn.v_proj.weight', 'model.layers.76.input_layernorm.weight', 'model.layers.76.mlp.down_proj.weight', 'model.layers.76.mlp.gate_proj.weight', 'model.layers.76.mlp.up_proj.weight', 'model.layers.76.post_attention_layernorm.weight', 'model.layers.76.self_attn.k_proj.weight', 'model.layers.76.self_attn.o_proj.weight', 'model.layers.76.self_attn.q_proj.weight', 'model.layers.76.self_attn.v_proj.weight', 'model.layers.77.input_layernorm.weight', 'model.layers.77.mlp.down_proj.weight', 'model.layers.77.mlp.gate_proj.weight', 'model.layers.77.mlp.up_proj.weight', 'model.layers.77.post_attention_layernorm.weight', 'model.layers.77.self_attn.k_proj.weight', 'model.layers.77.self_attn.o_proj.weight', 'model.layers.77.self_attn.q_proj.weight', 'model.layers.77.self_attn.v_proj.weight', 'model.layers.78.input_layernorm.weight', 'model.layers.78.mlp.down_proj.weight', 'model.layers.78.mlp.gate_proj.weight', 'model.layers.78.mlp.up_proj.weight', 'model.layers.78.post_attention_layernorm.weight', 'model.layers.78.self_attn.k_proj.weight', 'model.layers.78.self_attn.o_proj.weight', 'model.layers.78.self_attn.q_proj.weight', 'model.layers.78.self_attn.v_proj.weight', 'model.layers.79.input_layernorm.weight', 'model.layers.79.mlp.down_proj.weight', 'model.layers.79.mlp.gate_proj.weight', 'model.layers.79.mlp.up_proj.weight', 'model.layers.79.post_attention_layernorm.weight', 'model.layers.79.self_attn.k_proj.weight', 'model.layers.79.self_attn.o_proj.weight', 'model.layers.79.self_attn.q_proj.weight', 'model.layers.79.self_attn.v_proj.weight', 'model.layers.8.input_layernorm.weight', 'model.layers.8.mlp.down_proj.weight', 'model.layers.8.mlp.gate_proj.weight', 'model.layers.8.mlp.up_proj.weight', 'model.layers.8.post_attention_layernorm.weight', 'model.layers.8.self_attn.k_proj.weight', 'model.layers.8.self_attn.o_proj.weight', 'model.layers.8.self_attn.q_proj.weight', 'model.layers.8.self_attn.v_proj.weight', 'model.layers.9.input_layernorm.weight', 'model.layers.9.mlp.down_proj.weight', 'model.layers.9.mlp.gate_proj.weight', 'model.layers.9.mlp.up_proj.weight', 'model.layers.9.post_attention_layernorm.weight', 'model.layers.9.self_attn.k_proj.weight', 'model.layers.9.self_attn.o_proj.weight', 'model.layers.9.self_attn.q_proj.weight', 'model.layers.9.self_attn.v_proj.weight']
- This IS expected if you are initializing LlamaForCausalLM from the checkpoint of a model trained on another task or with another architecture (e.g. initializing a BertForSequenceClassification model from a BertForPreTraining model).
- This IS NOT expected if you are initializing LlamaForCausalLM from the checkpoint of a model that you expect to be exactly identical (initializing a BertForSequenceClassification model from a BertForSequenceClassification model).
2025-10-27 21:33:55.151 (   0.000s) [        9C771B80]   plugin_attributes.cc:58       1| PluginAttributes::PJRT_Plugin_Initialize
2025-10-27 21:33:55.151 (   0.000s) [        9C771B80]     client_instance.cc:481      1| ClientInstance::PJRT_Client_Create
2025-10-27 21:33:55.158 (   0.006s) [        9C771B80]     client_instance.cc:44       1| ClientInstance::ClientInstance
2025-10-27 21:33:55.158 (   0.006s) [        9C771B80]     client_instance.cc:73       1| ClientInstance::Initialize
2025-10-27 21:34:13.442 (  18.291s) [        9C771B80]              stubs.inc:103   WARN| STUB: PJRT_Client_TopologyDescription
2025-10-27 21:34:13.442 (  18.291s) [        9C771B80]      error_instance.cc:52       1| ErrorInstance::PJRT_Error_Message
2025-10-27 21:34:13.442 (  18.291s) [        9C771B80]      error_instance.cc:61       1| ErrorInstance::PJRT_Error_GetCode
2025-10-27 21:34:13.442 (  18.291s) [        9C771B80]      error_instance.cc:46       1| ErrorInstance::PJRT_Error_Destroy
2025-10-27 21:34:13.442 (  18.291s) [        9C771B80]     client_instance.cc:529      1| ClientInstance::PJRT_Client_PlatformVersion
2025-10-27 21:34:13.442 (  18.291s) [        9C771B80]     client_instance.cc:510      1| ClientInstance::PJRT_Client_PlatformName
2025-10-27 21:34:13.442 (  18.291s) [        9C771B80]     client_instance.cc:540      1| ClientInstance::PJRT_Client_Devices
2025-10-27 21:34:13.442 (  18.291s) [        9C771B80]     device_instance.cc:44       1| DeviceInstance::PJRT_Device_GetDescription
2025-10-27 21:34:13.442 (  18.291s) [        9C771B80]  device_description.cc:63       1| DeviceDescription::PJRT_DeviceDescription_Attributes
2025-10-27 21:34:13.442 (  18.291s) [        9C771B80]     device_instance.cc:44       1| DeviceInstance::PJRT_Device_GetDescription
2025-10-27 21:34:13.442 (  18.291s) [        9C771B80]  device_description.cc:63       1| DeviceDescription::PJRT_DeviceDescription_Attributes
2025-10-27 21:34:13.442 (  18.291s) [        9C771B80]     device_instance.cc:44       1| DeviceInstance::PJRT_Device_GetDescription
2025-10-27 21:34:13.442 (  18.291s) [        9C771B80]  device_description.cc:63       1| DeviceDescription::PJRT_DeviceDescription_Attributes
2025-10-27 21:34:13.442 (  18.291s) [        9C771B80]     device_instance.cc:44       1| DeviceInstance::PJRT_Device_GetDescription
2025-10-27 21:34:13.442 (  18.291s) [        9C771B80]  device_description.cc:63       1| DeviceDescription::PJRT_DeviceDescription_Attributes
2025-10-27 21:34:13.442 (  18.291s) [        9C771B80]     device_instance.cc:44       1| DeviceInstance::PJRT_Device_GetDescription
2025-10-27 21:34:13.442 (  18.291s) [        9C771B80]  device_description.cc:63       1| DeviceDescription::PJRT_DeviceDescription_Attributes
2025-10-27 21:34:13.442 (  18.291s) [        9C771B80]     device_instance.cc:44       1| DeviceInstance::PJRT_Device_GetDescription
2025-10-27 21:34:13.442 (  18.291s) [        9C771B80]  device_description.cc:63       1| DeviceDescription::PJRT_DeviceDescription_Attributes
2025-10-27 21:34:13.442 (  18.291s) [        9C771B80]     device_instance.cc:44       1| DeviceInstance::PJRT_Device_GetDescription
2025-10-27 21:34:13.442 (  18.291s) [        9C771B80]  device_description.cc:63       1| DeviceDescription::PJRT_DeviceDescription_Attributes
2025-10-27 21:34:13.442 (  18.291s) [        9C771B80]     device_instance.cc:44       1| DeviceInstance::PJRT_Device_GetDescription
2025-10-27 21:34:13.442 (  18.291s) [        9C771B80]  device_description.cc:63       1| DeviceDescription::PJRT_DeviceDescription_Attributes
2025-10-27 21:34:13.442 (  18.291s) [        9C771B80]     device_instance.cc:44       1| DeviceInstance::PJRT_Device_GetDescription
2025-10-27 21:34:13.442 (  18.291s) [        9C771B80]  device_description.cc:63       1| DeviceDescription::PJRT_DeviceDescription_Attributes
2025-10-27 21:34:13.442 (  18.291s) [        9C771B80]     device_instance.cc:44       1| DeviceInstance::PJRT_Device_GetDescription
2025-10-27 21:34:13.442 (  18.291s) [        9C771B80]  device_description.cc:63       1| DeviceDescription::PJRT_DeviceDescription_Attributes
2025-10-27 21:34:13.442 (  18.291s) [        9C771B80]     device_instance.cc:44       1| DeviceInstance::PJRT_Device_GetDescription
2025-10-27 21:34:13.442 (  18.291s) [        9C771B80]  device_description.cc:63       1| DeviceDescription::PJRT_DeviceDescription_Attributes
2025-10-27 21:34:13.442 (  18.291s) [        9C771B80]     device_instance.cc:44       1| DeviceInstance::PJRT_Device_GetDescription
2025-10-27 21:34:13.442 (  18.291s) [        9C771B80]  device_description.cc:63       1| DeviceDescription::PJRT_DeviceDescription_Attributes
2025-10-27 21:34:13.442 (  18.291s) [        9C771B80]     device_instance.cc:44       1| DeviceInstance::PJRT_Device_GetDescription
2025-10-27 21:34:13.442 (  18.291s) [        9C771B80]  device_description.cc:63       1| DeviceDescription::PJRT_DeviceDescription_Attributes
2025-10-27 21:34:13.442 (  18.291s) [        9C771B80]     device_instance.cc:44       1| DeviceInstance::PJRT_Device_GetDescription
2025-10-27 21:34:13.442 (  18.291s) [        9C771B80]  device_description.cc:63       1| DeviceDescription::PJRT_DeviceDescription_Attributes
2025-10-27 21:34:13.442 (  18.291s) [        9C771B80]     device_instance.cc:44       1| DeviceInstance::PJRT_Device_GetDescription
2025-10-27 21:34:13.442 (  18.291s) [        9C771B80]  device_description.cc:63       1| DeviceDescription::PJRT_DeviceDescription_Attributes
2025-10-27 21:34:13.442 (  18.291s) [        9C771B80]     device_instance.cc:44       1| DeviceInstance::PJRT_Device_GetDescription
2025-10-27 21:34:13.442 (  18.291s) [        9C771B80]  device_description.cc:63       1| DeviceDescription::PJRT_DeviceDescription_Attributes
2025-10-27 21:34:13.442 (  18.291s) [        9C771B80]     device_instance.cc:44       1| DeviceInstance::PJRT_Device_GetDescription
2025-10-27 21:34:13.442 (  18.291s) [        9C771B80]  device_description.cc:63       1| DeviceDescription::PJRT_DeviceDescription_Attributes
2025-10-27 21:34:13.442 (  18.291s) [        9C771B80]     device_instance.cc:44       1| DeviceInstance::PJRT_Device_GetDescription
2025-10-27 21:34:13.442 (  18.291s) [        9C771B80]  device_description.cc:63       1| DeviceDescription::PJRT_DeviceDescription_Attributes
2025-10-27 21:34:13.442 (  18.291s) [        9C771B80]     device_instance.cc:44       1| DeviceInstance::PJRT_Device_GetDescription
2025-10-27 21:34:13.442 (  18.291s) [        9C771B80]  device_description.cc:63       1| DeviceDescription::PJRT_DeviceDescription_Attributes
2025-10-27 21:34:13.442 (  18.291s) [        9C771B80]     device_instance.cc:44       1| DeviceInstance::PJRT_Device_GetDescription
2025-10-27 21:34:13.442 (  18.291s) [        9C771B80]  device_description.cc:63       1| DeviceDescription::PJRT_DeviceDescription_Attributes
2025-10-27 21:34:13.442 (  18.291s) [        9C771B80]     device_instance.cc:44       1| DeviceInstance::PJRT_Device_GetDescription
2025-10-27 21:34:13.442 (  18.291s) [        9C771B80]  device_description.cc:63       1| DeviceDescription::PJRT_DeviceDescription_Attributes
2025-10-27 21:34:13.442 (  18.291s) [        9C771B80]     device_instance.cc:44       1| DeviceInstance::PJRT_Device_GetDescription
2025-10-27 21:34:13.442 (  18.291s) [        9C771B80]  device_description.cc:63       1| DeviceDescription::PJRT_DeviceDescription_Attributes
2025-10-27 21:34:13.442 (  18.291s) [        9C771B80]     device_instance.cc:44       1| DeviceInstance::PJRT_Device_GetDescription
2025-10-27 21:34:13.442 (  18.291s) [        9C771B80]  device_description.cc:63       1| DeviceDescription::PJRT_DeviceDescription_Attributes
2025-10-27 21:34:13.442 (  18.291s) [        9C771B80]     device_instance.cc:44       1| DeviceInstance::PJRT_Device_GetDescription
2025-10-27 21:34:13.442 (  18.291s) [        9C771B80]  device_description.cc:63       1| DeviceDescription::PJRT_DeviceDescription_Attributes
2025-10-27 21:34:13.442 (  18.291s) [        9C771B80]     device_instance.cc:44       1| DeviceInstance::PJRT_Device_GetDescription
2025-10-27 21:34:13.442 (  18.291s) [        9C771B80]  device_description.cc:63       1| DeviceDescription::PJRT_DeviceDescription_Attributes
2025-10-27 21:34:13.442 (  18.291s) [        9C771B80]     device_instance.cc:44       1| DeviceInstance::PJRT_Device_GetDescription
2025-10-27 21:34:13.442 (  18.291s) [        9C771B80]  device_description.cc:63       1| DeviceDescription::PJRT_DeviceDescription_Attributes
2025-10-27 21:34:13.442 (  18.291s) [        9C771B80]     device_instance.cc:44       1| DeviceInstance::PJRT_Device_GetDescription
2025-10-27 21:34:13.442 (  18.291s) [        9C771B80]  device_description.cc:63       1| DeviceDescription::PJRT_DeviceDescription_Attributes
2025-10-27 21:34:13.442 (  18.291s) [        9C771B80]     device_instance.cc:44       1| DeviceInstance::PJRT_Device_GetDescription
2025-10-27 21:34:13.442 (  18.291s) [        9C771B80]  device_description.cc:63       1| DeviceDescription::PJRT_DeviceDescription_Attributes
2025-10-27 21:34:13.442 (  18.291s) [        9C771B80]     device_instance.cc:44       1| DeviceInstance::PJRT_Device_GetDescription
2025-10-27 21:34:13.442 (  18.291s) [        9C771B80]  device_description.cc:63       1| DeviceDescription::PJRT_DeviceDescription_Attributes
2025-10-27 21:34:13.442 (  18.291s) [        9C771B80]     device_instance.cc:44       1| DeviceInstance::PJRT_Device_GetDescription
2025-10-27 21:34:13.442 (  18.291s) [        9C771B80]  device_description.cc:63       1| DeviceDescription::PJRT_DeviceDescription_Attributes
2025-10-27 21:34:13.442 (  18.291s) [        9C771B80]     device_instance.cc:44       1| DeviceInstance::PJRT_Device_GetDescription
2025-10-27 21:34:13.442 (  18.291s) [        9C771B80]  device_description.cc:63       1| DeviceDescription::PJRT_DeviceDescription_Attributes
2025-10-27 21:34:13.442 (  18.291s) [        9C771B80]     device_instance.cc:44       1| DeviceInstance::PJRT_Device_GetDescription
2025-10-27 21:34:13.442 (  18.291s) [        9C771B80]  device_description.cc:63       1| DeviceDescription::PJRT_DeviceDescription_Attributes
2025-10-27 21:34:13.442 (  18.291s) [        9C771B80]     client_instance.cc:553      1| ClientInstance::PJRT_Client_AddressableDevices
2025-10-27 21:34:13.442 (  18.291s) [        9C771B80]     client_instance.cc:603      1| ClientInstance::PJRT_Client_AddressableMemories
2025-10-27 21:34:13.442 (  18.291s) [        9C771B80]     device_instance.cc:71       1| DeviceInstance::PJRT_Device_AddressableMemories
2025-10-27 21:34:13.442 (  18.291s) [        9C771B80]     device_instance.cc:71       1| DeviceInstance::PJRT_Device_AddressableMemories
2025-10-27 21:34:13.442 (  18.291s) [        9C771B80]     device_instance.cc:71       1| DeviceInstance::PJRT_Device_AddressableMemories
2025-10-27 21:34:13.442 (  18.291s) [        9C771B80]     device_instance.cc:71       1| DeviceInstance::PJRT_Device_AddressableMemories
2025-10-27 21:34:13.442 (  18.291s) [        9C771B80]     device_instance.cc:71       1| DeviceInstance::PJRT_Device_AddressableMemories
2025-10-27 21:34:13.442 (  18.291s) [        9C771B80]     device_instance.cc:71       1| DeviceInstance::PJRT_Device_AddressableMemories
2025-10-27 21:34:13.442 (  18.291s) [        9C771B80]     device_instance.cc:71       1| DeviceInstance::PJRT_Device_AddressableMemories
2025-10-27 21:34:13.442 (  18.291s) [        9C771B80]     device_instance.cc:71       1| DeviceInstance::PJRT_Device_AddressableMemories
2025-10-27 21:34:13.442 (  18.291s) [        9C771B80]     device_instance.cc:71       1| DeviceInstance::PJRT_Device_AddressableMemories
2025-10-27 21:34:13.442 (  18.291s) [        9C771B80]     device_instance.cc:71       1| DeviceInstance::PJRT_Device_AddressableMemories
2025-10-27 21:34:13.442 (  18.291s) [        9C771B80]     device_instance.cc:71       1| DeviceInstance::PJRT_Device_AddressableMemories
2025-10-27 21:34:13.442 (  18.291s) [        9C771B80]     device_instance.cc:71       1| DeviceInstance::PJRT_Device_AddressableMemories
2025-10-27 21:34:13.442 (  18.291s) [        9C771B80]     device_instance.cc:71       1| DeviceInstance::PJRT_Device_AddressableMemories
2025-10-27 21:34:13.442 (  18.291s) [        9C771B80]     device_instance.cc:71       1| DeviceInstance::PJRT_Device_AddressableMemories
2025-10-27 21:34:13.442 (  18.291s) [        9C771B80]     device_instance.cc:71       1| DeviceInstance::PJRT_Device_AddressableMemories
2025-10-27 21:34:13.442 (  18.291s) [        9C771B80]     device_instance.cc:71       1| DeviceInstance::PJRT_Device_AddressableMemories
2025-10-27 21:34:13.442 (  18.291s) [        9C771B80]     device_instance.cc:71       1| DeviceInstance::PJRT_Device_AddressableMemories
2025-10-27 21:34:13.442 (  18.291s) [        9C771B80]     device_instance.cc:71       1| DeviceInstance::PJRT_Device_AddressableMemories
2025-10-27 21:34:13.442 (  18.291s) [        9C771B80]     device_instance.cc:71       1| DeviceInstance::PJRT_Device_AddressableMemories
2025-10-27 21:34:13.442 (  18.291s) [        9C771B80]     device_instance.cc:71       1| DeviceInstance::PJRT_Device_AddressableMemories
2025-10-27 21:34:13.442 (  18.291s) [        9C771B80]     device_instance.cc:71       1| DeviceInstance::PJRT_Device_AddressableMemories
2025-10-27 21:34:13.442 (  18.291s) [        9C771B80]     device_instance.cc:71       1| DeviceInstance::PJRT_Device_AddressableMemories
2025-10-27 21:34:13.442 (  18.291s) [        9C771B80]     device_instance.cc:71       1| DeviceInstance::PJRT_Device_AddressableMemories
2025-10-27 21:34:13.442 (  18.291s) [        9C771B80]     device_instance.cc:71       1| DeviceInstance::PJRT_Device_AddressableMemories
2025-10-27 21:34:13.442 (  18.291s) [        9C771B80]     device_instance.cc:71       1| DeviceInstance::PJRT_Device_AddressableMemories
2025-10-27 21:34:13.442 (  18.291s) [        9C771B80]     device_instance.cc:71       1| DeviceInstance::PJRT_Device_AddressableMemories
2025-10-27 21:34:13.442 (  18.291s) [        9C771B80]     device_instance.cc:71       1| DeviceInstance::PJRT_Device_AddressableMemories
2025-10-27 21:34:13.442 (  18.291s) [        9C771B80]     device_instance.cc:71       1| DeviceInstance::PJRT_Device_AddressableMemories
2025-10-27 21:34:13.442 (  18.291s) [        9C771B80]     device_instance.cc:71       1| DeviceInstance::PJRT_Device_AddressableMemories
2025-10-27 21:34:13.442 (  18.291s) [        9C771B80]     device_instance.cc:71       1| DeviceInstance::PJRT_Device_AddressableMemories
2025-10-27 21:34:13.442 (  18.291s) [        9C771B80]     device_instance.cc:71       1| DeviceInstance::PJRT_Device_AddressableMemories
2025-10-27 21:34:13.443 (  18.291s) [        9C771B80]     device_instance.cc:71       1| DeviceInstance::PJRT_Device_AddressableMemories
2025-10-27 21:34:13.443 (  18.291s) [        9C771B80]     memory_instance.cc:124      1| MemoryInstance::PJRT_Memory_AddressableByDevices
2025-10-27 21:34:13.443 (  18.291s) [        9C771B80]     memory_instance.cc:124      1| MemoryInstance::PJRT_Memory_AddressableByDevices
2025-10-27 21:34:13.443 (  18.291s) [        9C771B80]     memory_instance.cc:124      1| MemoryInstance::PJRT_Memory_AddressableByDevices
2025-10-27 21:34:13.443 (  18.291s) [        9C771B80]     memory_instance.cc:124      1| MemoryInstance::PJRT_Memory_AddressableByDevices
2025-10-27 21:34:13.443 (  18.291s) [        9C771B80]     memory_instance.cc:124      1| MemoryInstance::PJRT_Memory_AddressableByDevices
2025-10-27 21:34:13.443 (  18.291s) [        9C771B80]     memory_instance.cc:124      1| MemoryInstance::PJRT_Memory_AddressableByDevices
2025-10-27 21:34:13.443 (  18.291s) [        9C771B80]     memory_instance.cc:124      1| MemoryInstance::PJRT_Memory_AddressableByDevices
2025-10-27 21:34:13.443 (  18.291s) [        9C771B80]     memory_instance.cc:124      1| MemoryInstance::PJRT_Memory_AddressableByDevices
2025-10-27 21:34:13.443 (  18.291s) [        9C771B80]     memory_instance.cc:124      1| MemoryInstance::PJRT_Memory_AddressableByDevices
2025-10-27 21:34:13.443 (  18.291s) [        9C771B80]     memory_instance.cc:124      1| MemoryInstance::PJRT_Memory_AddressableByDevices
2025-10-27 21:34:13.443 (  18.291s) [        9C771B80]     memory_instance.cc:124      1| MemoryInstance::PJRT_Memory_AddressableByDevices
2025-10-27 21:34:13.443 (  18.291s) [        9C771B80]     memory_instance.cc:124      1| MemoryInstance::PJRT_Memory_AddressableByDevices
2025-10-27 21:34:13.443 (  18.291s) [        9C771B80]     memory_instance.cc:124      1| MemoryInstance::PJRT_Memory_AddressableByDevices
2025-10-27 21:34:13.443 (  18.291s) [        9C771B80]     memory_instance.cc:124      1| MemoryInstance::PJRT_Memory_AddressableByDevices
2025-10-27 21:34:13.443 (  18.291s) [        9C771B80]     memory_instance.cc:124      1| MemoryInstance::PJRT_Memory_AddressableByDevices
2025-10-27 21:34:13.443 (  18.291s) [        9C771B80]     memory_instance.cc:124      1| MemoryInstance::PJRT_Memory_AddressableByDevices
2025-10-27 21:34:13.443 (  18.291s) [        9C771B80]     memory_instance.cc:124      1| MemoryInstance::PJRT_Memory_AddressableByDevices
2025-10-27 21:34:13.443 (  18.291s) [        9C771B80]     memory_instance.cc:124      1| MemoryInstance::PJRT_Memory_AddressableByDevices
2025-10-27 21:34:13.443 (  18.291s) [        9C771B80]     memory_instance.cc:124      1| MemoryInstance::PJRT_Memory_AddressableByDevices
2025-10-27 21:34:13.443 (  18.291s) [        9C771B80]     memory_instance.cc:124      1| MemoryInstance::PJRT_Memory_AddressableByDevices
2025-10-27 21:34:13.443 (  18.291s) [        9C771B80]     memory_instance.cc:124      1| MemoryInstance::PJRT_Memory_AddressableByDevices
2025-10-27 21:34:13.443 (  18.291s) [        9C771B80]     memory_instance.cc:124      1| MemoryInstance::PJRT_Memory_AddressableByDevices
2025-10-27 21:34:13.443 (  18.291s) [        9C771B80]     memory_instance.cc:124      1| MemoryInstance::PJRT_Memory_AddressableByDevices
2025-10-27 21:34:13.443 (  18.291s) [        9C771B80]     memory_instance.cc:124      1| MemoryInstance::PJRT_Memory_AddressableByDevices
2025-10-27 21:34:13.443 (  18.291s) [        9C771B80]     memory_instance.cc:124      1| MemoryInstance::PJRT_Memory_AddressableByDevices
2025-10-27 21:34:13.443 (  18.291s) [        9C771B80]     memory_instance.cc:124      1| MemoryInstance::PJRT_Memory_AddressableByDevices
2025-10-27 21:34:13.443 (  18.291s) [        9C771B80]     memory_instance.cc:124      1| MemoryInstance::PJRT_Memory_AddressableByDevices
2025-10-27 21:34:13.443 (  18.291s) [        9C771B80]     memory_instance.cc:124      1| MemoryInstance::PJRT_Memory_AddressableByDevices
2025-10-27 21:34:13.443 (  18.291s) [        9C771B80]     memory_instance.cc:124      1| MemoryInstance::PJRT_Memory_AddressableByDevices
2025-10-27 21:34:13.443 (  18.291s) [        9C771B80]     memory_instance.cc:124      1| MemoryInstance::PJRT_Memory_AddressableByDevices
2025-10-27 21:34:13.443 (  18.291s) [        9C771B80]     memory_instance.cc:124      1| MemoryInstance::PJRT_Memory_AddressableByDevices
2025-10-27 21:34:13.443 (  18.291s) [        9C771B80]     memory_instance.cc:124      1| MemoryInstance::PJRT_Memory_AddressableByDevices
2025-10-27 21:34:13.443 (  18.291s) [        9C771B80]     memory_instance.cc:124      1| MemoryInstance::PJRT_Memory_AddressableByDevices
2025-10-27 21:34:13.443 (  18.291s) [        9C771B80]   plugin_attributes.cc:64       1| PluginAttributes::PJRT_Plugin_Attributes
2025-10-27 21:34:13.443171: W torch_xla/csrc/runtime/profiler.cpp:88] Profiler API not found for PJRT plugin
2025-10-27 21:34:13.443 (  18.291s) [        9C771B80]  device_description.cc:44       1| DeviceDescription::PJRT_DeviceDescription_Id
2025-10-27 21:34:13.443 (  18.291s) [        9C771B80]  device_description.cc:44       1| DeviceDescription::PJRT_DeviceDescription_Id
2025-10-27 21:34:13.443 (  18.291s) [        9C771B80]  device_description.cc:44       1| DeviceDescription::PJRT_DeviceDescription_Id
2025-10-27 21:34:13.443 (  18.291s) [        9C771B80]  device_description.cc:44       1| DeviceDescription::PJRT_DeviceDescription_Id
2025-10-27 21:34:13.443 (  18.291s) [        9C771B80]  device_description.cc:44       1| DeviceDescription::PJRT_DeviceDescription_Id
2025-10-27 21:34:13.443 (  18.291s) [        9C771B80]  device_description.cc:44       1| DeviceDescription::PJRT_DeviceDescription_Id
2025-10-27 21:34:13.443 (  18.291s) [        9C771B80]  device_description.cc:44       1| DeviceDescription::PJRT_DeviceDescription_Id
2025-10-27 21:34:13.443 (  18.291s) [        9C771B80]  device_description.cc:44       1| DeviceDescription::PJRT_DeviceDescription_Id
2025-10-27 21:34:13.443 (  18.291s) [        9C771B80]  device_description.cc:44       1| DeviceDescription::PJRT_DeviceDescription_Id
2025-10-27 21:34:13.443 (  18.291s) [        9C771B80]  device_description.cc:44       1| DeviceDescription::PJRT_DeviceDescription_Id
2025-10-27 21:34:13.443 (  18.291s) [        9C771B80]  device_description.cc:44       1| DeviceDescription::PJRT_DeviceDescription_Id
2025-10-27 21:34:13.443 (  18.291s) [        9C771B80]  device_description.cc:44       1| DeviceDescription::PJRT_DeviceDescription_Id
2025-10-27 21:34:13.443 (  18.291s) [        9C771B80]  device_description.cc:44       1| DeviceDescription::PJRT_DeviceDescription_Id
2025-10-27 21:34:13.443 (  18.291s) [        9C771B80]  device_description.cc:44       1| DeviceDescription::PJRT_DeviceDescription_Id
2025-10-27 21:34:13.443 (  18.291s) [        9C771B80]  device_description.cc:44       1| DeviceDescription::PJRT_DeviceDescription_Id
2025-10-27 21:34:13.443 (  18.291s) [        9C771B80]  device_description.cc:44       1| DeviceDescription::PJRT_DeviceDescription_Id
2025-10-27 21:34:13.443 (  18.291s) [        9C771B80]  device_description.cc:44       1| DeviceDescription::PJRT_DeviceDescription_Id
2025-10-27 21:34:13.443 (  18.291s) [        9C771B80]  device_description.cc:44       1| DeviceDescription::PJRT_DeviceDescription_Id
2025-10-27 21:34:13.443 (  18.291s) [        9C771B80]  device_description.cc:44       1| DeviceDescription::PJRT_DeviceDescription_Id
2025-10-27 21:34:13.443 (  18.291s) [        9C771B80]  device_description.cc:44       1| DeviceDescription::PJRT_DeviceDescription_Id
2025-10-27 21:34:13.443 (  18.291s) [        9C771B80]  device_description.cc:44       1| DeviceDescription::PJRT_DeviceDescription_Id
2025-10-27 21:34:13.443 (  18.291s) [        9C771B80]  device_description.cc:44       1| DeviceDescription::PJRT_DeviceDescription_Id
2025-10-27 21:34:13.443 (  18.291s) [        9C771B80]  device_description.cc:44       1| DeviceDescription::PJRT_DeviceDescription_Id
2025-10-27 21:34:13.443 (  18.291s) [        9C771B80]  device_description.cc:44       1| DeviceDescription::PJRT_DeviceDescription_Id
2025-10-27 21:34:13.443 (  18.291s) [        9C771B80]  device_description.cc:44       1| DeviceDescription::PJRT_DeviceDescription_Id
2025-10-27 21:34:13.443 (  18.291s) [        9C771B80]  device_description.cc:44       1| DeviceDescription::PJRT_DeviceDescription_Id
2025-10-27 21:34:13.443 (  18.291s) [        9C771B80]  device_description.cc:44       1| DeviceDescription::PJRT_DeviceDescription_Id
2025-10-27 21:34:13.443 (  18.291s) [        9C771B80]  device_description.cc:44       1| DeviceDescription::PJRT_DeviceDescription_Id
2025-10-27 21:34:13.443 (  18.291s) [        9C771B80]  device_description.cc:44       1| DeviceDescription::PJRT_DeviceDescription_Id
2025-10-27 21:34:13.443 (  18.291s) [        9C771B80]  device_description.cc:44       1| DeviceDescription::PJRT_DeviceDescription_Id
2025-10-27 21:34:13.443 (  18.291s) [        9C771B80]  device_description.cc:44       1| DeviceDescription::PJRT_DeviceDescription_Id
2025-10-27 21:34:13.443 (  18.291s) [        9C771B80]  device_description.cc:44       1| DeviceDescription::PJRT_DeviceDescription_Id
2025-10-27 21:34:13.443 (  18.291s) [        9C771B80]  device_description.cc:44       1| DeviceDescription::PJRT_DeviceDescription_Id
2025-10-27 21:34:13.443 (  18.291s) [        9C771B80]  device_description.cc:44       1| DeviceDescription::PJRT_DeviceDescription_Id
2025-10-27 21:34:13.443 (  18.291s) [        9C771B80]  device_description.cc:44       1| DeviceDescription::PJRT_DeviceDescription_Id
2025-10-27 21:34:13.443 (  18.291s) [        9C771B80]  device_description.cc:44       1| DeviceDescription::PJRT_DeviceDescription_Id
2025-10-27 21:34:13.443 (  18.291s) [        9C771B80]  device_description.cc:44       1| DeviceDescription::PJRT_DeviceDescription_Id
2025-10-27 21:34:13.443 (  18.291s) [        9C771B80]  device_description.cc:44       1| DeviceDescription::PJRT_DeviceDescription_Id
2025-10-27 21:34:13.443 (  18.291s) [        9C771B80]  device_description.cc:44       1| DeviceDescription::PJRT_DeviceDescription_Id
2025-10-27 21:34:13.443 (  18.291s) [        9C771B80]  device_description.cc:44       1| DeviceDescription::PJRT_DeviceDescription_Id
2025-10-27 21:34:13.443 (  18.291s) [        9C771B80]  device_description.cc:44       1| DeviceDescription::PJRT_DeviceDescription_Id
2025-10-27 21:34:13.443 (  18.291s) [        9C771B80]  device_description.cc:44       1| DeviceDescription::PJRT_DeviceDescription_Id
2025-10-27 21:34:13.443 (  18.291s) [        9C771B80]  device_description.cc:44       1| DeviceDescription::PJRT_DeviceDescription_Id
2025-10-27 21:34:13.443 (  18.291s) [        9C771B80]  device_description.cc:44       1| DeviceDescription::PJRT_DeviceDescription_Id
2025-10-27 21:34:13.443 (  18.291s) [        9C771B80]  device_description.cc:44       1| DeviceDescription::PJRT_DeviceDescription_Id
2025-10-27 21:34:13.443 (  18.291s) [        9C771B80]  device_description.cc:44       1| DeviceDescription::PJRT_DeviceDescription_Id
2025-10-27 21:34:13.443 (  18.291s) [        9C771B80]  device_description.cc:44       1| DeviceDescription::PJRT_DeviceDescription_Id
2025-10-27 21:34:13.443 (  18.291s) [        9C771B80]  device_description.cc:44       1| DeviceDescription::PJRT_DeviceDescription_Id
2025-10-27 21:34:13.443 (  18.291s) [        9C771B80]  device_description.cc:44       1| DeviceDescription::PJRT_DeviceDescription_Id
2025-10-27 21:34:13.443 (  18.291s) [        9C771B80]  device_description.cc:44       1| DeviceDescription::PJRT_DeviceDescription_Id
2025-10-27 21:34:13.443 (  18.291s) [        9C771B80]  device_description.cc:44       1| DeviceDescription::PJRT_DeviceDescription_Id
2025-10-27 21:34:13.443 (  18.291s) [        9C771B80]  device_description.cc:44       1| DeviceDescription::PJRT_DeviceDescription_Id
2025-10-27 21:34:13.443 (  18.291s) [        9C771B80]  device_description.cc:44       1| DeviceDescription::PJRT_DeviceDescription_Id
2025-10-27 21:34:13.443 (  18.291s) [        9C771B80]  device_description.cc:44       1| DeviceDescription::PJRT_DeviceDescription_Id
2025-10-27 21:34:13.443 (  18.291s) [        9C771B80]  device_description.cc:44       1| DeviceDescription::PJRT_DeviceDescription_Id
2025-10-27 21:34:13.443 (  18.291s) [        9C771B80]  device_description.cc:44       1| DeviceDescription::PJRT_DeviceDescription_Id
2025-10-27 21:34:13.443 (  18.291s) [        9C771B80]  device_description.cc:44       1| DeviceDescription::PJRT_DeviceDescription_Id
2025-10-27 21:34:13.443 (  18.291s) [        9C771B80]  device_description.cc:44       1| DeviceDescription::PJRT_DeviceDescription_Id
2025-10-27 21:34:13.443 (  18.291s) [        9C771B80]  device_description.cc:44       1| DeviceDescription::PJRT_DeviceDescription_Id
2025-10-27 21:34:13.443 (  18.291s) [        9C771B80]  device_description.cc:44       1| DeviceDescription::PJRT_DeviceDescription_Id
2025-10-27 21:34:13.443 (  18.291s) [        9C771B80]  device_description.cc:44       1| DeviceDescription::PJRT_DeviceDescription_Id
2025-10-27 21:34:13.443 (  18.291s) [        9C771B80]  device_description.cc:44       1| DeviceDescription::PJRT_DeviceDescription_Id
2025-10-27 21:34:13.443 (  18.291s) [        9C771B80]  device_description.cc:44       1| DeviceDescription::PJRT_DeviceDescription_Id
2025-10-27 21:34:13.443 (  18.291s) [        9C771B80]  device_description.cc:44       1| DeviceDescription::PJRT_DeviceDescription_Id
2025-10-27 21:34:13.443 (  18.291s) [        9C771B80]  device_description.cc:44       1| DeviceDescription::PJRT_DeviceDescription_Id
2025-10-27 21:34:13.443 (  18.291s) [        9C771B80]  device_description.cc:44       1| DeviceDescription::PJRT_DeviceDescription_Id
2025-10-27 21:34:13.443 (  18.291s) [        9C771B80]  device_description.cc:44       1| DeviceDescription::PJRT_DeviceDescription_Id
2025-10-27 21:34:13.443 (  18.291s) [        9C771B80]  device_description.cc:44       1| DeviceDescription::PJRT_DeviceDescription_Id
2025-10-27 21:34:13.443 (  18.291s) [        9C771B80]  device_description.cc:44       1| DeviceDescription::PJRT_DeviceDescription_Id
2025-10-27 21:34:13.443 (  18.291s) [        9C771B80]  device_description.cc:44       1| DeviceDescription::PJRT_DeviceDescription_Id
2025-10-27 21:34:13.443 (  18.291s) [        9C771B80]  device_description.cc:44       1| DeviceDescription::PJRT_DeviceDescription_Id
2025-10-27 21:34:13.443 (  18.291s) [        9C771B80]  device_description.cc:44       1| DeviceDescription::PJRT_DeviceDescription_Id
2025-10-27 21:34:13.443 (  18.291s) [        9C771B80]  device_description.cc:44       1| DeviceDescription::PJRT_DeviceDescription_Id
2025-10-27 21:34:13.443 (  18.291s) [        9C771B80]  device_description.cc:44       1| DeviceDescription::PJRT_DeviceDescription_Id
2025-10-27 21:34:13.443 (  18.291s) [        9C771B80]  device_description.cc:44       1| DeviceDescription::PJRT_DeviceDescription_Id
2025-10-27 21:34:13.443 (  18.291s) [        9C771B80]  device_description.cc:44       1| DeviceDescription::PJRT_DeviceDescription_Id
2025-10-27 21:34:13.443 (  18.291s) [        9C771B80]  device_description.cc:44       1| DeviceDescription::PJRT_DeviceDescription_Id
2025-10-27 21:34:13.443 (  18.291s) [        9C771B80]  device_description.cc:44       1| DeviceDescription::PJRT_DeviceDescription_Id
2025-10-27 21:34:13.443 (  18.291s) [        9C771B80]  device_description.cc:44       1| DeviceDescription::PJRT_DeviceDescription_Id
2025-10-27 21:34:13.443 (  18.291s) [        9C771B80]  device_description.cc:44       1| DeviceDescription::PJRT_DeviceDescription_Id
2025-10-27 21:34:13.443 (  18.291s) [        9C771B80]  device_description.cc:44       1| DeviceDescription::PJRT_DeviceDescription_Id
2025-10-27 21:34:13.443 (  18.291s) [        9C771B80]  device_description.cc:44       1| DeviceDescription::PJRT_DeviceDescription_Id
2025-10-27 21:34:13.443 (  18.291s) [        9C771B80]  device_description.cc:44       1| DeviceDescription::PJRT_DeviceDescription_Id
2025-10-27 21:34:13.443 (  18.291s) [        9C771B80]  device_description.cc:44       1| DeviceDescription::PJRT_DeviceDescription_Id
2025-10-27 21:34:13.443 (  18.291s) [        9C771B80]  device_description.cc:44       1| DeviceDescription::PJRT_DeviceDescription_Id
2025-10-27 21:34:13.443 (  18.291s) [        9C771B80]  device_description.cc:44       1| DeviceDescription::PJRT_DeviceDescription_Id
2025-10-27 21:34:13.443 (  18.291s) [        9C771B80]  device_description.cc:44       1| DeviceDescription::PJRT_DeviceDescription_Id
2025-10-27 21:34:13.443 (  18.291s) [        9C771B80]  device_description.cc:44       1| DeviceDescription::PJRT_DeviceDescription_Id
2025-10-27 21:34:13.443 (  18.291s) [        9C771B80]  device_description.cc:44       1| DeviceDescription::PJRT_DeviceDescription_Id
2025-10-27 21:34:13.443 (  18.291s) [        9C771B80]  device_description.cc:44       1| DeviceDescription::PJRT_DeviceDescription_Id
2025-10-27 21:34:13.443 (  18.291s) [        9C771B80]  device_description.cc:44       1| DeviceDescription::PJRT_DeviceDescription_Id
2025-10-27 21:34:13.443 (  18.291s) [        9C771B80]  device_description.cc:44       1| DeviceDescription::PJRT_DeviceDescription_Id
2025-10-27 21:34:13.443 (  18.291s) [        9C771B80]  device_description.cc:44       1| DeviceDescription::PJRT_DeviceDescription_Id
2025-10-27 21:34:13.443 (  18.291s) [        9C771B80]  device_description.cc:44       1| DeviceDescription::PJRT_DeviceDescription_Id
2025-10-27 21:34:13.443 (  18.291s) [        9C771B80]  device_description.cc:44       1| DeviceDescription::PJRT_DeviceDescription_Id
2025-10-27 21:34:13.443 (  18.291s) [        9C771B80]  device_description.cc:44       1| DeviceDescription::PJRT_DeviceDescription_Id
2025-10-27 21:34:13.443 (  18.291s) [        9C771B80]  device_description.cc:44       1| DeviceDescription::PJRT_DeviceDescription_Id
2025-10-27 21:34:13.443 (  18.291s) [        9C771B80]  device_description.cc:44       1| DeviceDescription::PJRT_DeviceDescription_Id
2025-10-27 21:34:13.443 (  18.291s) [        9C771B80]  device_description.cc:44       1| DeviceDescription::PJRT_DeviceDescription_Id
2025-10-27 21:34:13.443 (  18.291s) [        9C771B80]  device_description.cc:44       1| DeviceDescription::PJRT_DeviceDescription_Id
2025-10-27 21:34:13.443 (  18.291s) [        9C771B80]  device_description.cc:44       1| DeviceDescription::PJRT_DeviceDescription_Id
2025-10-27 21:34:13.443 (  18.291s) [        9C771B80]  device_description.cc:44       1| DeviceDescription::PJRT_DeviceDescription_Id
2025-10-27 21:34:13.443 (  18.291s) [        9C771B80]  device_description.cc:44       1| DeviceDescription::PJRT_DeviceDescription_Id
2025-10-27 21:34:13.443 (  18.291s) [        9C771B80]  device_description.cc:44       1| DeviceDescription::PJRT_DeviceDescription_Id
2025-10-27 21:34:13.443 (  18.291s) [        9C771B80]  device_description.cc:44       1| DeviceDescription::PJRT_DeviceDescription_Id
2025-10-27 21:34:13.443 (  18.291s) [        9C771B80]  device_description.cc:44       1| DeviceDescription::PJRT_DeviceDescription_Id
2025-10-27 21:34:13.443 (  18.291s) [        9C771B80]  device_description.cc:44       1| DeviceDescription::PJRT_DeviceDescription_Id
2025-10-27 21:34:13.443 (  18.291s) [        9C771B80]  device_description.cc:44       1| DeviceDescription::PJRT_DeviceDescription_Id
2025-10-27 21:34:13.443 (  18.291s) [        9C771B80]  device_description.cc:44       1| DeviceDescription::PJRT_DeviceDescription_Id
2025-10-27 21:34:13.443 (  18.291s) [        9C771B80]  device_description.cc:44       1| DeviceDescription::PJRT_DeviceDescription_Id
2025-10-27 21:34:13.443 (  18.291s) [        9C771B80]  device_description.cc:44       1| DeviceDescription::PJRT_DeviceDescription_Id
2025-10-27 21:34:13.443 (  18.291s) [        9C771B80]  device_description.cc:44       1| DeviceDescription::PJRT_DeviceDescription_Id
2025-10-27 21:34:13.443 (  18.291s) [        9C771B80]  device_description.cc:44       1| DeviceDescription::PJRT_DeviceDescription_Id
2025-10-27 21:34:13.443 (  18.291s) [        9C771B80]  device_description.cc:44       1| DeviceDescription::PJRT_DeviceDescription_Id
2025-10-27 21:34:13.443 (  18.291s) [        9C771B80]  device_description.cc:44       1| DeviceDescription::PJRT_DeviceDescription_Id
2025-10-27 21:34:13.443 (  18.291s) [        9C771B80]  device_description.cc:44       1| DeviceDescription::PJRT_DeviceDescription_Id
2025-10-27 21:34:13.443 (  18.291s) [        9C771B80]  device_description.cc:44       1| DeviceDescription::PJRT_DeviceDescription_Id
2025-10-27 21:34:13.443 (  18.291s) [        9C771B80]  device_description.cc:44       1| DeviceDescription::PJRT_DeviceDescription_Id
2025-10-27 21:34:13.443 (  18.291s) [        9C771B80]  device_description.cc:44       1| DeviceDescription::PJRT_DeviceDescription_Id
2025-10-27 21:34:13.443 (  18.291s) [        9C771B80]  device_description.cc:44       1| DeviceDescription::PJRT_DeviceDescription_Id
2025-10-27 21:34:13.443 (  18.291s) [        9C771B80]  device_description.cc:44       1| DeviceDescription::PJRT_DeviceDescription_Id
2025-10-27 21:34:13.443 (  18.291s) [        9C771B80]  device_description.cc:44       1| DeviceDescription::PJRT_DeviceDescription_Id
2025-10-27 21:34:13.443 (  18.291s) [        9C771B80]  device_description.cc:44       1| DeviceDescription::PJRT_DeviceDescription_Id
2025-10-27 21:34:13.443 (  18.291s) [        9C771B80]  device_description.cc:44       1| DeviceDescription::PJRT_DeviceDescription_Id
2025-10-27 21:34:13.443 (  18.291s) [        9C771B80]  device_description.cc:44       1| DeviceDescription::PJRT_DeviceDescription_Id
2025-10-27 21:34:13.443 (  18.291s) [        9C771B80]  device_description.cc:44       1| DeviceDescription::PJRT_DeviceDescription_Id
2025-10-27 21:34:13.443 (  18.291s) [        9C771B80]  device_description.cc:44       1| DeviceDescription::PJRT_DeviceDescription_Id
2025-10-27 21:34:13.443 (  18.291s) [        9C771B80]  device_description.cc:44       1| DeviceDescription::PJRT_DeviceDescription_Id
2025-10-27 21:34:13.443 (  18.291s) [        9C771B80]  device_description.cc:44       1| DeviceDescription::PJRT_DeviceDescription_Id
2025-10-27 21:34:13.443 (  18.291s) [        9C771B80]  device_description.cc:44       1| DeviceDescription::PJRT_DeviceDescription_Id
2025-10-27 21:34:13.443 (  18.291s) [        9C771B80]  device_description.cc:44       1| DeviceDescription::PJRT_DeviceDescription_Id
2025-10-27 21:34:13.443 (  18.291s) [        9C771B80]  device_description.cc:44       1| DeviceDescription::PJRT_DeviceDescription_Id
2025-10-27 21:34:13.443 (  18.291s) [        9C771B80]  device_description.cc:44       1| DeviceDescription::PJRT_DeviceDescription_Id
2025-10-27 21:34:13.443 (  18.291s) [        9C771B80]  device_description.cc:44       1| DeviceDescription::PJRT_DeviceDescription_Id
2025-10-27 21:34:13.443 (  18.291s) [        9C771B80]  device_description.cc:44       1| DeviceDescription::PJRT_DeviceDescription_Id
2025-10-27 21:34:13.443 (  18.291s) [        9C771B80]  device_description.cc:44       1| DeviceDescription::PJRT_DeviceDescription_Id
2025-10-27 21:34:13.443 (  18.291s) [        9C771B80]  device_description.cc:44       1| DeviceDescription::PJRT_DeviceDescription_Id
2025-10-27 21:34:13.443 (  18.291s) [        9C771B80]  device_description.cc:44       1| DeviceDescription::PJRT_DeviceDescription_Id
2025-10-27 21:34:13.443 (  18.291s) [        9C771B80]  device_description.cc:44       1| DeviceDescription::PJRT_DeviceDescription_Id
2025-10-27 21:34:13.443 (  18.291s) [        9C771B80]  device_description.cc:44       1| DeviceDescription::PJRT_DeviceDescription_Id
2025-10-27 21:34:13.443 (  18.291s) [        9C771B80]  device_description.cc:44       1| DeviceDescription::PJRT_DeviceDescription_Id
2025-10-27 21:34:13.443 (  18.291s) [        9C771B80]  device_description.cc:44       1| DeviceDescription::PJRT_DeviceDescription_Id
2025-10-27 21:34:13.443 (  18.291s) [        9C771B80]  device_description.cc:44       1| DeviceDescription::PJRT_DeviceDescription_Id
2025-10-27 21:34:13.443 (  18.291s) [        9C771B80]  device_description.cc:44       1| DeviceDescription::PJRT_DeviceDescription_Id
2025-10-27 21:34:13.443 (  18.291s) [        9C771B80]  device_description.cc:44       1| DeviceDescription::PJRT_DeviceDescription_Id
2025-10-27 21:34:13.443 (  18.291s) [        9C771B80]  device_description.cc:44       1| DeviceDescription::PJRT_DeviceDescription_Id
2025-10-27 21:34:13.443 (  18.291s) [        9C771B80]  device_description.cc:44       1| DeviceDescription::PJRT_DeviceDescription_Id
2025-10-27 21:34:13.443 (  18.291s) [        9C771B80]  device_description.cc:44       1| DeviceDescription::PJRT_DeviceDescription_Id
2025-10-27 21:34:13.443 (  18.291s) [        9C771B80]  device_description.cc:44       1| DeviceDescription::PJRT_DeviceDescription_Id
2025-10-27 21:34:13.443 (  18.291s) [        9C771B80]  device_description.cc:44       1| DeviceDescription::PJRT_DeviceDescription_Id
2025-10-27 21:34:13.443 (  18.291s) [        9C771B80]  device_description.cc:44       1| DeviceDescription::PJRT_DeviceDescription_Id
2025-10-27 21:34:13.443 (  18.291s) [        9C771B80]  device_description.cc:44       1| DeviceDescription::PJRT_DeviceDescription_Id
2025-10-27 21:34:13.443 (  18.291s) [        9C771B80]  device_description.cc:44       1| DeviceDescription::PJRT_DeviceDescription_Id
2025-10-27 21:34:13.443 (  18.291s) [        9C771B80]  device_description.cc:44       1| DeviceDescription::PJRT_DeviceDescription_Id
2025-10-27 21:34:13.443 (  18.291s) [        9C771B80]  device_description.cc:44       1| DeviceDescription::PJRT_DeviceDescription_Id
2025-10-27 21:34:13.443 (  18.291s) [        9C771B80]  device_description.cc:44       1| DeviceDescription::PJRT_DeviceDescription_Id
2025-10-27 21:34:13.443 (  18.291s) [        9C771B80]  device_description.cc:44       1| DeviceDescription::PJRT_DeviceDescription_Id
2025-10-27 21:34:13.443 (  18.291s) [        9C771B80]  device_description.cc:44       1| DeviceDescription::PJRT_DeviceDescription_Id
2025-10-27 21:34:13.443 (  18.291s) [        9C771B80]  device_description.cc:44       1| DeviceDescription::PJRT_DeviceDescription_Id
2025-10-27 21:34:13.443 (  18.291s) [        9C771B80]  device_description.cc:44       1| DeviceDescription::PJRT_DeviceDescription_Id
2025-10-27 21:34:13.443 (  18.291s) [        9C771B80]  device_description.cc:44       1| DeviceDescription::PJRT_DeviceDescription_Id
2025-10-27 21:34:13.443 (  18.291s) [        9C771B80]  device_description.cc:44       1| DeviceDescription::PJRT_DeviceDescription_Id
2025-10-27 21:34:13.443 (  18.291s) [        9C771B80]  device_description.cc:44       1| DeviceDescription::PJRT_DeviceDescription_Id
2025-10-27 21:34:13.443 (  18.291s) [        9C771B80]  device_description.cc:44       1| DeviceDescription::PJRT_DeviceDescription_Id
2025-10-27 21:34:13.443 (  18.291s) [        9C771B80]  device_description.cc:44       1| DeviceDescription::PJRT_DeviceDescription_Id
2025-10-27 21:34:13.443 (  18.291s) [        9C771B80]  device_description.cc:44       1| DeviceDescription::PJRT_DeviceDescription_Id
2025-10-27 21:34:13.443 (  18.291s) [        9C771B80]  device_description.cc:44       1| DeviceDescription::PJRT_DeviceDescription_Id
2025-10-27 21:34:13.443 (  18.291s) [        9C771B80]  device_description.cc:44       1| DeviceDescription::PJRT_DeviceDescription_Id
2025-10-27 21:34:13.443 (  18.291s) [        9C771B80]  device_description.cc:44       1| DeviceDescription::PJRT_DeviceDescription_Id
2025-10-27 21:34:13.443 (  18.291s) [        9C771B80]  device_description.cc:44       1| DeviceDescription::PJRT_DeviceDescription_Id
2025-10-27 21:34:13.443 (  18.291s) [        9C771B80]  device_description.cc:44       1| DeviceDescription::PJRT_DeviceDescription_Id
2025-10-27 21:34:13.443 (  18.291s) [        9C771B80]  device_description.cc:44       1| DeviceDescription::PJRT_DeviceDescription_Id
2025-10-27 21:34:13.443 (  18.291s) [        9C771B80]  device_description.cc:44       1| DeviceDescription::PJRT_DeviceDescription_Id
2025-10-27 21:34:13.443 (  18.291s) [        9C771B80]  device_description.cc:44       1| DeviceDescription::PJRT_DeviceDescription_Id
2025-10-27 21:34:13.443 (  18.291s) [        9C771B80]  device_description.cc:44       1| DeviceDescription::PJRT_DeviceDescription_Id
2025-10-27 21:34:13.443 (  18.291s) [        9C771B80]  device_description.cc:44       1| DeviceDescription::PJRT_DeviceDescription_Id
2025-10-27 21:34:13.443 (  18.291s) [        9C771B80]  device_description.cc:44       1| DeviceDescription::PJRT_DeviceDescription_Id
2025-10-27 21:34:13.443 (  18.291s) [        9C771B80]  device_description.cc:44       1| DeviceDescription::PJRT_DeviceDescription_Id
2025-10-27 21:34:13.443 (  18.291s) [        9C771B80]  device_description.cc:44       1| DeviceDescription::PJRT_DeviceDescription_Id
2025-10-27 21:34:13.443 (  18.291s) [        9C771B80]  device_description.cc:44       1| DeviceDescription::PJRT_DeviceDescription_Id
2025-10-27 21:34:13.443 (  18.291s) [        9C771B80]  device_description.cc:44       1| DeviceDescription::PJRT_DeviceDescription_Id
2025-10-27 21:34:13.443 (  18.292s) [        9C771B80]  device_description.cc:44       1| DeviceDescription::PJRT_DeviceDescription_Id
2025-10-27 21:34:13.443 (  18.292s) [        9C771B80]  device_description.cc:44       1| DeviceDescription::PJRT_DeviceDescription_Id
2025-10-27 21:34:13.443 (  18.292s) [        9C771B80]  device_description.cc:44       1| DeviceDescription::PJRT_DeviceDescription_Id
2025-10-27 21:34:13.443 (  18.292s) [        9C771B80]  device_description.cc:44       1| DeviceDescription::PJRT_DeviceDescription_Id
2025-10-27 21:34:13.443 (  18.292s) [        9C771B80]  device_description.cc:44       1| DeviceDescription::PJRT_DeviceDescription_Id
2025-10-27 21:34:13.443 (  18.292s) [        9C771B80]  device_description.cc:44       1| DeviceDescription::PJRT_DeviceDescription_Id
2025-10-27 21:34:13.443 (  18.292s) [        9C771B80]  device_description.cc:44       1| DeviceDescription::PJRT_DeviceDescription_Id
2025-10-27 21:34:13.443 (  18.292s) [        9C771B80]  device_description.cc:44       1| DeviceDescription::PJRT_DeviceDescription_Id
2025-10-27 21:34:13.443 (  18.292s) [        9C771B80]  device_description.cc:44       1| DeviceDescription::PJRT_DeviceDescription_Id
2025-10-27 21:34:13.443 (  18.292s) [        9C771B80]  device_description.cc:44       1| DeviceDescription::PJRT_DeviceDescription_Id
2025-10-27 21:34:13.443 (  18.292s) [        9C771B80]  device_description.cc:44       1| DeviceDescription::PJRT_DeviceDescription_Id
2025-10-27 21:34:13.443 (  18.292s) [        9C771B80]  device_description.cc:44       1| DeviceDescription::PJRT_DeviceDescription_Id
2025-10-27 21:34:13.443 (  18.292s) [        9C771B80]  device_description.cc:44       1| DeviceDescription::PJRT_DeviceDescription_Id
2025-10-27 21:34:13.443 (  18.292s) [        9C771B80]  device_description.cc:44       1| DeviceDescription::PJRT_DeviceDescription_Id
2025-10-27 21:34:13.443 (  18.292s) [        9C771B80]  device_description.cc:44       1| DeviceDescription::PJRT_DeviceDescription_Id
2025-10-27 21:34:13.443 (  18.292s) [        9C771B80]  device_description.cc:44       1| DeviceDescription::PJRT_DeviceDescription_Id
2025-10-27 21:34:13.443 (  18.292s) [        9C771B80]  device_description.cc:44       1| DeviceDescription::PJRT_DeviceDescription_Id
2025-10-27 21:34:13.443 (  18.292s) [        9C771B80]  device_description.cc:44       1| DeviceDescription::PJRT_DeviceDescription_Id
2025-10-27 21:34:13.443 (  18.292s) [        9C771B80]  device_description.cc:44       1| DeviceDescription::PJRT_DeviceDescription_Id
2025-10-27 21:34:13.443 (  18.292s) [        9C771B80]  device_description.cc:44       1| DeviceDescription::PJRT_DeviceDescription_Id
2025-10-27 21:34:13.443 (  18.292s) [        9C771B80]  device_description.cc:44       1| DeviceDescription::PJRT_DeviceDescription_Id
2025-10-27 21:34:13.443 (  18.292s) [        9C771B80]  device_description.cc:44       1| DeviceDescription::PJRT_DeviceDescription_Id
2025-10-27 21:34:13.443 (  18.292s) [        9C771B80]  device_description.cc:44       1| DeviceDescription::PJRT_DeviceDescription_Id
2025-10-27 21:34:13.443 (  18.292s) [        9C771B80]  device_description.cc:44       1| DeviceDescription::PJRT_DeviceDescription_Id
2025-10-27 21:34:13.443 (  18.292s) [        9C771B80]  device_description.cc:44       1| DeviceDescription::PJRT_DeviceDescription_Id
2025-10-27 21:34:13.443 (  18.292s) [        9C771B80]  device_description.cc:44       1| DeviceDescription::PJRT_DeviceDescription_Id
2025-10-27 21:34:13.443 (  18.292s) [        9C771B80]  device_description.cc:44       1| DeviceDescription::PJRT_DeviceDescription_Id
2025-10-27 21:34:13.443 (  18.292s) [        9C771B80]  device_description.cc:44       1| DeviceDescription::PJRT_DeviceDescription_Id
2025-10-27 21:34:13.443 (  18.292s) [        9C771B80]  device_description.cc:44       1| DeviceDescription::PJRT_DeviceDescription_Id
2025-10-27 21:34:13.443 (  18.292s) [        9C771B80]  device_description.cc:44       1| DeviceDescription::PJRT_DeviceDescription_Id
2025-10-27 21:34:13.443 (  18.292s) [        9C771B80]  device_description.cc:44       1| DeviceDescription::PJRT_DeviceDescription_Id
2025-10-27 21:34:13.443 (  18.292s) [        9C771B80]  device_description.cc:44       1| DeviceDescription::PJRT_DeviceDescription_Id
2025-10-27 21:34:13.443 (  18.292s) [        9C771B80]  device_description.cc:44       1| DeviceDescription::PJRT_DeviceDescription_Id
2025-10-27 21:34:13.443 (  18.292s) [        9C771B80]  device_description.cc:44       1| DeviceDescription::PJRT_DeviceDescription_Id
2025-10-27 21:34:13.443 (  18.292s) [        9C771B80]  device_description.cc:44       1| DeviceDescription::PJRT_DeviceDescription_Id
2025-10-27 21:34:13.443 (  18.292s) [        9C771B80]  device_description.cc:44       1| DeviceDescription::PJRT_DeviceDescription_Id
2025-10-27 21:34:13.443 (  18.292s) [        9C771B80]  device_description.cc:44       1| DeviceDescription::PJRT_DeviceDescription_Id
2025-10-27 21:34:13.443 (  18.292s) [        9C771B80]  device_description.cc:44       1| DeviceDescription::PJRT_DeviceDescription_Id
2025-10-27 21:34:13.443 (  18.292s) [        9C771B80]  device_description.cc:44       1| DeviceDescription::PJRT_DeviceDescription_Id
2025-10-27 21:34:13.443 (  18.292s) [        9C771B80]  device_description.cc:44       1| DeviceDescription::PJRT_DeviceDescription_Id
2025-10-27 21:34:13.443 (  18.292s) [        9C771B80]  device_description.cc:44       1| DeviceDescription::PJRT_DeviceDescription_Id
2025-10-27 21:34:13.443 (  18.292s) [        9C771B80]  device_description.cc:44       1| DeviceDescription::PJRT_DeviceDescription_Id
2025-10-27 21:34:13.443 (  18.292s) [        9C771B80]  device_description.cc:44       1| DeviceDescription::PJRT_DeviceDescription_Id
2025-10-27 21:34:13.443 (  18.292s) [        9C771B80]  device_description.cc:44       1| DeviceDescription::PJRT_DeviceDescription_Id
2025-10-27 21:34:13.443 (  18.292s) [        9C771B80]  device_description.cc:44       1| DeviceDescription::PJRT_DeviceDescription_Id
2025-10-27 21:34:13.443 (  18.292s) [        9C771B80]  device_description.cc:44       1| DeviceDescription::PJRT_DeviceDescription_Id
2025-10-27 21:34:13.443 (  18.292s) [        9C771B80]  device_description.cc:44       1| DeviceDescription::PJRT_DeviceDescription_Id
2025-10-27 21:34:13.443 (  18.292s) [        9C771B80]  device_description.cc:44       1| DeviceDescription::PJRT_DeviceDescription_Id
2025-10-27 21:34:13.443 (  18.292s) [        9C771B80]  device_description.cc:44       1| DeviceDescription::PJRT_DeviceDescription_Id
2025-10-27 21:34:13.443 (  18.292s) [        9C771B80]  device_description.cc:44       1| DeviceDescription::PJRT_DeviceDescription_Id
2025-10-27 21:34:13.443 (  18.292s) [        9C771B80]  device_description.cc:44       1| DeviceDescription::PJRT_DeviceDescription_Id
2025-10-27 21:34:13.443 (  18.292s) [        9C771B80]  device_description.cc:44       1| DeviceDescription::PJRT_DeviceDescription_Id
2025-10-27 21:34:13.443 (  18.292s) [        9C771B80]  device_description.cc:44       1| DeviceDescription::PJRT_DeviceDescription_Id
2025-10-27 21:34:13.443 (  18.292s) [        9C771B80]  device_description.cc:44       1| DeviceDescription::PJRT_DeviceDescription_Id
2025-10-27 21:34:13.443 (  18.292s) [        9C771B80]  device_description.cc:44       1| DeviceDescription::PJRT_DeviceDescription_Id
2025-10-27 21:34:13.443 (  18.292s) [        9C771B80]  device_description.cc:44       1| DeviceDescription::PJRT_DeviceDescription_Id
2025-10-27 21:34:13.443 (  18.292s) [        9C771B80]  device_description.cc:44       1| DeviceDescription::PJRT_DeviceDescription_Id
2025-10-27 21:34:13.443 (  18.292s) [        9C771B80]  device_description.cc:44       1| DeviceDescription::PJRT_DeviceDescription_Id
2025-10-27 21:34:13.443 (  18.292s) [        9C771B80]  device_description.cc:44       1| DeviceDescription::PJRT_DeviceDescription_Id
2025-10-27 21:34:13.443 (  18.292s) [        9C771B80]  device_description.cc:44       1| DeviceDescription::PJRT_DeviceDescription_Id
2025-10-27 21:34:13.443 (  18.292s) [        9C771B80]  device_description.cc:44       1| DeviceDescription::PJRT_DeviceDescription_Id
2025-10-27 21:34:13.443 (  18.292s) [        9C771B80]  device_description.cc:44       1| DeviceDescription::PJRT_DeviceDescription_Id
2025-10-27 21:34:13.443 (  18.292s) [        9C771B80]  device_description.cc:44       1| DeviceDescription::PJRT_DeviceDescription_Id
2025-10-27 21:34:13.443 (  18.292s) [        9C771B80]  device_description.cc:44       1| DeviceDescription::PJRT_DeviceDescription_Id
2025-10-27 21:34:13.443 (  18.292s) [        9C771B80]  device_description.cc:44       1| DeviceDescription::PJRT_DeviceDescription_Id
2025-10-27 21:34:13.443 (  18.292s) [        9C771B80]  device_description.cc:44       1| DeviceDescription::PJRT_DeviceDescription_Id
2025-10-27 21:34:13.443 (  18.292s) [        9C771B80]  device_description.cc:44       1| DeviceDescription::PJRT_DeviceDescription_Id
2025-10-27 21:34:13.443 (  18.292s) [        9C771B80]  device_description.cc:44       1| DeviceDescription::PJRT_DeviceDescription_Id
2025-10-27 21:34:13.443 (  18.292s) [        9C771B80]  device_description.cc:44       1| DeviceDescription::PJRT_DeviceDescription_Id
2025-10-27 21:34:13.443 (  18.292s) [        9C771B80]  device_description.cc:44       1| DeviceDescription::PJRT_DeviceDescription_Id
2025-10-27 21:34:13.443 (  18.292s) [        9C771B80]  device_description.cc:44       1| DeviceDescription::PJRT_DeviceDescription_Id
2025-10-27 21:34:13.443 (  18.292s) [        9C771B80]  device_description.cc:44       1| DeviceDescription::PJRT_DeviceDescription_Id
2025-10-27 21:34:13.443 (  18.292s) [        9C771B80]  device_description.cc:44       1| DeviceDescription::PJRT_DeviceDescription_Id
2025-10-27 21:34:13.443 (  18.292s) [        9C771B80]  device_description.cc:44       1| DeviceDescription::PJRT_DeviceDescription_Id
2025-10-27 21:34:13.443 (  18.292s) [        9C771B80]  device_description.cc:44       1| DeviceDescription::PJRT_DeviceDescription_Id
2025-10-27 21:34:13.443 (  18.292s) [        9C771B80]  device_description.cc:44       1| DeviceDescription::PJRT_DeviceDescription_Id
2025-10-27 21:34:13.443 (  18.292s) [        9C771B80]  device_description.cc:44       1| DeviceDescription::PJRT_DeviceDescription_Id
2025-10-27 21:34:13.443 (  18.292s) [        9C771B80]  device_description.cc:44       1| DeviceDescription::PJRT_DeviceDescription_Id
2025-10-27 21:34:13.443 (  18.292s) [        9C771B80]  device_description.cc:44       1| DeviceDescription::PJRT_DeviceDescription_Id
2025-10-27 21:34:13.443 (  18.292s) [        9C771B80]  device_description.cc:44       1| DeviceDescription::PJRT_DeviceDescription_Id
2025-10-27 21:34:13.443 (  18.292s) [        9C771B80]  device_description.cc:44       1| DeviceDescription::PJRT_DeviceDescription_Id
2025-10-27 21:34:13.443 (  18.292s) [        9C771B80]  device_description.cc:44       1| DeviceDescription::PJRT_DeviceDescription_Id
2025-10-27 21:34:13.443 (  18.292s) [        9C771B80]  device_description.cc:44       1| DeviceDescription::PJRT_DeviceDescription_Id
2025-10-27 21:34:13.443 (  18.292s) [        9C771B80]  device_description.cc:44       1| DeviceDescription::PJRT_DeviceDescription_Id
2025-10-27 21:34:13.443 (  18.292s) [        9C771B80]  device_description.cc:44       1| DeviceDescription::PJRT_DeviceDescription_Id
2025-10-27 21:34:13.443 (  18.292s) [        9C771B80]  device_description.cc:44       1| DeviceDescription::PJRT_DeviceDescription_Id
2025-10-27 21:34:13.443 (  18.292s) [        9C771B80]  device_description.cc:44       1| DeviceDescription::PJRT_DeviceDescription_Id
2025-10-27 21:34:13.443 (  18.292s) [        9C771B80]  device_description.cc:44       1| DeviceDescription::PJRT_DeviceDescription_Id
2025-10-27 21:34:13.443 (  18.292s) [        9C771B80]  device_description.cc:44       1| DeviceDescription::PJRT_DeviceDescription_Id
2025-10-27 21:34:13.443 (  18.292s) [        9C771B80]  device_description.cc:44       1| DeviceDescription::PJRT_DeviceDescription_Id
2025-10-27 21:34:13.443 (  18.292s) [        9C771B80]  device_description.cc:44       1| DeviceDescription::PJRT_DeviceDescription_Id
2025-10-27 21:34:13.443 (  18.292s) [        9C771B80]  device_description.cc:44       1| DeviceDescription::PJRT_DeviceDescription_Id
2025-10-27 21:34:13.443 (  18.292s) [        9C771B80]  device_description.cc:44       1| DeviceDescription::PJRT_DeviceDescription_Id
2025-10-27 21:34:13.443 (  18.292s) [        9C771B80]  device_description.cc:44       1| DeviceDescription::PJRT_DeviceDescription_Id
2025-10-27 21:34:13.443 (  18.292s) [        9C771B80]  device_description.cc:44       1| DeviceDescription::PJRT_DeviceDescription_Id
2025-10-27 21:34:13.443 (  18.292s) [        9C771B80]  device_description.cc:44       1| DeviceDescription::PJRT_DeviceDescription_Id
2025-10-27 21:34:13.443 (  18.292s) [        9C771B80]  device_description.cc:44       1| DeviceDescription::PJRT_DeviceDescription_Id
2025-10-27 21:34:13.443 (  18.292s) [        9C771B80]  device_description.cc:44       1| DeviceDescription::PJRT_DeviceDescription_Id
2025-10-27 21:34:13.443 (  18.292s) [        9C771B80]  device_description.cc:44       1| DeviceDescription::PJRT_DeviceDescription_Id
2025-10-27 21:34:13.443 (  18.292s) [        9C771B80]  device_description.cc:44       1| DeviceDescription::PJRT_DeviceDescription_Id
2025-10-27 21:34:13.443 (  18.292s) [        9C771B80]  device_description.cc:44       1| DeviceDescription::PJRT_DeviceDescription_Id
2025-10-27 21:34:13.443 (  18.292s) [        9C771B80]  device_description.cc:44       1| DeviceDescription::PJRT_DeviceDescription_Id
2025-10-27 21:34:13.443 (  18.292s) [        9C771B80]  device_description.cc:44       1| DeviceDescription::PJRT_DeviceDescription_Id
2025-10-27 21:34:13.443 (  18.292s) [        9C771B80]  device_description.cc:44       1| DeviceDescription::PJRT_DeviceDescription_Id
2025-10-27 21:34:13.443 (  18.292s) [        9C771B80]  device_description.cc:44       1| DeviceDescription::PJRT_DeviceDescription_Id
2025-10-27 21:34:13.443 (  18.292s) [        9C771B80]  device_description.cc:44       1| DeviceDescription::PJRT_DeviceDescription_Id
2025-10-27 21:34:13.443 (  18.292s) [        9C771B80]  device_description.cc:44       1| DeviceDescription::PJRT_DeviceDescription_Id
2025-10-27 21:34:13.443 (  18.292s) [        9C771B80]  device_description.cc:44       1| DeviceDescription::PJRT_DeviceDescription_Id
2025-10-27 21:34:13.443 (  18.292s) [        9C771B80]  device_description.cc:44       1| DeviceDescription::PJRT_DeviceDescription_Id
2025-10-27 21:34:13.443 (  18.292s) [        9C771B80]  device_description.cc:44       1| DeviceDescription::PJRT_DeviceDescription_Id
2025-10-27 21:34:13.443 (  18.292s) [        9C771B80]  device_description.cc:44       1| DeviceDescription::PJRT_DeviceDescription_Id
2025-10-27 21:34:13.443 (  18.292s) [        9C771B80]  device_description.cc:44       1| DeviceDescription::PJRT_DeviceDescription_Id
2025-10-27 21:34:13.443 (  18.292s) [        9C771B80]  device_description.cc:44       1| DeviceDescription::PJRT_DeviceDescription_Id
2025-10-27 21:34:13.443 (  18.292s) [        9C771B80]  device_description.cc:44       1| DeviceDescription::PJRT_DeviceDescription_Id
2025-10-27 21:34:13.443 (  18.292s) [        9C771B80]  device_description.cc:44       1| DeviceDescription::PJRT_DeviceDescription_Id
2025-10-27 21:34:13.443 (  18.292s) [        9C771B80]  device_description.cc:44       1| DeviceDescription::PJRT_DeviceDescription_Id
2025-10-27 21:34:13.443 (  18.292s) [        9C771B80]  device_description.cc:44       1| DeviceDescription::PJRT_DeviceDescription_Id
2025-10-27 21:34:13.443 (  18.292s) [        9C771B80]  device_description.cc:44       1| DeviceDescription::PJRT_DeviceDescription_Id
2025-10-27 21:34:13.443 (  18.292s) [        9C771B80]  device_description.cc:44       1| DeviceDescription::PJRT_DeviceDescription_Id
2025-10-27 21:34:13.443 (  18.292s) [        9C771B80]  device_description.cc:44       1| DeviceDescription::PJRT_DeviceDescription_Id
2025-10-27 21:34:13.443 (  18.292s) [        9C771B80]  device_description.cc:44       1| DeviceDescription::PJRT_DeviceDescription_Id
2025-10-27 21:34:13.443 (  18.292s) [        9C771B80]  device_description.cc:44       1| DeviceDescription::PJRT_DeviceDescription_Id
2025-10-27 21:34:13.443 (  18.292s) [        9C771B80]  device_description.cc:44       1| DeviceDescription::PJRT_DeviceDescription_Id
2025-10-27 21:34:13.443 (  18.292s) [        9C771B80]  device_description.cc:44       1| DeviceDescription::PJRT_DeviceDescription_Id
2025-10-27 21:34:13.443 (  18.292s) [        9C771B80]  device_description.cc:44       1| DeviceDescription::PJRT_DeviceDescription_Id
2025-10-27 21:34:13.443 (  18.292s) [        9C771B80]  device_description.cc:44       1| DeviceDescription::PJRT_DeviceDescription_Id
2025-10-27 21:34:13.443 (  18.292s) [        9C771B80]  device_description.cc:44       1| DeviceDescription::PJRT_DeviceDescription_Id
2025-10-27 21:34:13.443 (  18.292s) [        9C771B80]  device_description.cc:44       1| DeviceDescription::PJRT_DeviceDescription_Id
2025-10-27 21:34:13.443 (  18.292s) [        9C771B80]  device_description.cc:44       1| DeviceDescription::PJRT_DeviceDescription_Id
2025-10-27 21:34:13.443 (  18.292s) [        9C771B80]  device_description.cc:44       1| DeviceDescription::PJRT_DeviceDescription_Id
2025-10-27 21:34:13.443 (  18.292s) [        9C771B80]  device_description.cc:44       1| DeviceDescription::PJRT_DeviceDescription_Id
2025-10-27 21:34:13.443 (  18.292s) [        9C771B80]  device_description.cc:44       1| DeviceDescription::PJRT_DeviceDescription_Id
2025-10-27 21:34:13.443 (  18.292s) [        9C771B80]  device_description.cc:44       1| DeviceDescription::PJRT_DeviceDescription_Id
2025-10-27 21:34:13.443 (  18.292s) [        9C771B80]  device_description.cc:44       1| DeviceDescription::PJRT_DeviceDescription_Id
2025-10-27 21:34:13.443 (  18.292s) [        9C771B80]  device_description.cc:44       1| DeviceDescription::PJRT_DeviceDescription_Id
2025-10-27 21:34:13.443 (  18.292s) [        9C771B80]  device_description.cc:44       1| DeviceDescription::PJRT_DeviceDescription_Id
2025-10-27 21:34:13.443 (  18.292s) [        9C771B80]  device_description.cc:44       1| DeviceDescription::PJRT_DeviceDescription_Id
2025-10-27 21:34:13.443 (  18.292s) [        9C771B80]  device_description.cc:44       1| DeviceDescription::PJRT_DeviceDescription_Id
2025-10-27 21:34:13.443 (  18.292s) [        9C771B80]  device_description.cc:44       1| DeviceDescription::PJRT_DeviceDescription_Id
2025-10-27 21:34:13.443 (  18.292s) [        9C771B80]  device_description.cc:44       1| DeviceDescription::PJRT_DeviceDescription_Id
2025-10-27 21:34:13.443 (  18.292s) [        9C771B80]  device_description.cc:44       1| DeviceDescription::PJRT_DeviceDescription_Id
2025-10-27 21:34:13.443 (  18.292s) [        9C771B80]  device_description.cc:44       1| DeviceDescription::PJRT_DeviceDescription_Id
2025-10-27 21:34:13.443 (  18.292s) [        9C771B80]  device_description.cc:44       1| DeviceDescription::PJRT_DeviceDescription_Id
2025-10-27 21:34:13.443 (  18.292s) [        9C771B80]  device_description.cc:44       1| DeviceDescription::PJRT_DeviceDescription_Id
2025-10-27 21:34:13.443 (  18.292s) [        9C771B80]  device_description.cc:44       1| DeviceDescription::PJRT_DeviceDescription_Id
2025-10-27 21:34:13.443 (  18.292s) [        9C771B80]  device_description.cc:44       1| DeviceDescription::PJRT_DeviceDescription_Id
2025-10-27 21:34:13.443 (  18.292s) [        9C771B80]  device_description.cc:44       1| DeviceDescription::PJRT_DeviceDescription_Id
2025-10-27 21:34:13.443 (  18.292s) [        9C771B80]  device_description.cc:44       1| DeviceDescription::PJRT_DeviceDescription_Id
2025-10-27 21:34:13.443 (  18.292s) [        9C771B80]  device_description.cc:44       1| DeviceDescription::PJRT_DeviceDescription_Id
2025-10-27 21:34:13.443 (  18.292s) [        9C771B80]  device_description.cc:44       1| DeviceDescription::PJRT_DeviceDescription_Id
2025-10-27 21:34:13.443 (  18.292s) [        9C771B80]  device_description.cc:44       1| DeviceDescription::PJRT_DeviceDescription_Id
2025-10-27 21:34:13.443 (  18.292s) [        9C771B80]  device_description.cc:44       1| DeviceDescription::PJRT_DeviceDescription_Id
2025-10-27 21:34:13.443 (  18.292s) [        9C771B80]  device_description.cc:44       1| DeviceDescription::PJRT_DeviceDescription_Id
2025-10-27 21:34:13.443 (  18.292s) [        9C771B80]  device_description.cc:44       1| DeviceDescription::PJRT_DeviceDescription_Id
2025-10-27 21:34:13.443 (  18.292s) [        9C771B80]  device_description.cc:44       1| DeviceDescription::PJRT_DeviceDescription_Id
2025-10-27 21:34:13.443 (  18.292s) [        9C771B80]  device_description.cc:44       1| DeviceDescription::PJRT_DeviceDescription_Id
2025-10-27 21:34:13.443 (  18.292s) [        9C771B80]  device_description.cc:44       1| DeviceDescription::PJRT_DeviceDescription_Id
2025-10-27 21:34:13.443 (  18.292s) [        9C771B80]  device_description.cc:44       1| DeviceDescription::PJRT_DeviceDescription_Id
2025-10-27 21:34:13.443 (  18.292s) [        9C771B80]  device_description.cc:44       1| DeviceDescription::PJRT_DeviceDescription_Id
2025-10-27 21:34:13.443 (  18.292s) [        9C771B80]  device_description.cc:44       1| DeviceDescription::PJRT_DeviceDescription_Id
2025-10-27 21:34:13.443 (  18.292s) [        9C771B80]  device_description.cc:44       1| DeviceDescription::PJRT_DeviceDescription_Id
2025-10-27 21:34:13.443 (  18.292s) [        9C771B80]  device_description.cc:44       1| DeviceDescription::PJRT_DeviceDescription_Id
2025-10-27 21:34:13.443 (  18.292s) [        9C771B80]  device_description.cc:44       1| DeviceDescription::PJRT_DeviceDescription_Id
2025-10-27 21:34:13.443 (  18.292s) [        9C771B80]  device_description.cc:44       1| DeviceDescription::PJRT_DeviceDescription_Id
2025-10-27 21:34:13.443 (  18.292s) [        9C771B80]  device_description.cc:44       1| DeviceDescription::PJRT_DeviceDescription_Id
2025-10-27 21:34:13.443 (  18.292s) [        9C771B80]  device_description.cc:44       1| DeviceDescription::PJRT_DeviceDescription_Id
2025-10-27 21:34:13.443 (  18.292s) [        9C771B80]  device_description.cc:44       1| DeviceDescription::PJRT_DeviceDescription_Id
2025-10-27 21:34:13.443 (  18.292s) [        9C771B80]  device_description.cc:44       1| DeviceDescription::PJRT_DeviceDescription_Id
2025-10-27 21:34:13.443 (  18.292s) [        9C771B80]  device_description.cc:44       1| DeviceDescription::PJRT_DeviceDescription_Id
2025-10-27 21:34:13.443 (  18.292s) [        9C771B80]  device_description.cc:44       1| DeviceDescription::PJRT_DeviceDescription_Id
2025-10-27 21:34:13.443 (  18.292s) [        9C771B80]  device_description.cc:44       1| DeviceDescription::PJRT_DeviceDescription_Id
2025-10-27 21:34:13.443 (  18.292s) [        9C771B80]  device_description.cc:44       1| DeviceDescription::PJRT_DeviceDescription_Id
2025-10-27 21:34:13.443 (  18.292s) [        9C771B80]  device_description.cc:44       1| DeviceDescription::PJRT_DeviceDescription_Id
2025-10-27 21:34:13.443 (  18.292s) [        9C771B80]  device_description.cc:44       1| DeviceDescription::PJRT_DeviceDescription_Id
2025-10-27 21:34:13.443 (  18.292s) [        9C771B80]  device_description.cc:44       1| DeviceDescription::PJRT_DeviceDescription_Id
2025-10-27 21:34:13.444 (  18.292s) [        9C771B80]  device_description.cc:44       1| DeviceDescription::PJRT_DeviceDescription_Id
2025-10-27 21:34:13.444 (  18.292s) [        9C771B80]  device_description.cc:44       1| DeviceDescription::PJRT_DeviceDescription_Id
2025-10-27 21:34:13.444 (  18.292s) [        9C771B80]  device_description.cc:44       1| DeviceDescription::PJRT_DeviceDescription_Id
2025-10-27 21:34:13.444 (  18.292s) [        9C771B80]  device_description.cc:44       1| DeviceDescription::PJRT_DeviceDescription_Id
2025-10-27 21:34:13.444 (  18.292s) [        9C771B80]  device_description.cc:44       1| DeviceDescription::PJRT_DeviceDescription_Id
2025-10-27 21:34:13.444 (  18.292s) [        9C771B80]  device_description.cc:44       1| DeviceDescription::PJRT_DeviceDescription_Id
2025-10-27 21:34:13.444 (  18.292s) [        9C771B80]  device_description.cc:44       1| DeviceDescription::PJRT_DeviceDescription_Id
2025-10-27 21:34:13.444 (  18.292s) [        9C771B80]  device_description.cc:44       1| DeviceDescription::PJRT_DeviceDescription_Id
2025-10-27 21:34:13.444 (  18.292s) [        9C771B80]  device_description.cc:44       1| DeviceDescription::PJRT_DeviceDescription_Id
2025-10-27 21:34:13.444 (  18.292s) [        9C771B80]  device_description.cc:44       1| DeviceDescription::PJRT_DeviceDescription_Id
2025-10-27 21:34:13.444 (  18.292s) [        9C771B80]  device_description.cc:44       1| DeviceDescription::PJRT_DeviceDescription_Id
2025-10-27 21:34:13.444 (  18.292s) [        9C771B80]  device_description.cc:44       1| DeviceDescription::PJRT_DeviceDescription_Id
2025-10-27 21:34:13.444 (  18.292s) [        9C771B80]  device_description.cc:44       1| DeviceDescription::PJRT_DeviceDescription_Id
2025-10-27 21:34:13.444 (  18.292s) [        9C771B80]  device_description.cc:44       1| DeviceDescription::PJRT_DeviceDescription_Id
2025-10-27 21:34:13.444 (  18.292s) [        9C771B80]  device_description.cc:44       1| DeviceDescription::PJRT_DeviceDescription_Id
2025-10-27 21:34:13.444 (  18.292s) [        9C771B80]  device_description.cc:44       1| DeviceDescription::PJRT_DeviceDescription_Id
2025-10-27 21:34:13.444 (  18.292s) [        9C771B80]  device_description.cc:44       1| DeviceDescription::PJRT_DeviceDescription_Id
2025-10-27 21:34:13.444 (  18.292s) [        9C771B80]  device_description.cc:44       1| DeviceDescription::PJRT_DeviceDescription_Id
2025-10-27 21:34:13.444 (  18.292s) [        9C771B80]  device_description.cc:44       1| DeviceDescription::PJRT_DeviceDescription_Id
2025-10-27 21:34:13.444 (  18.292s) [        9C771B80]  device_description.cc:44       1| DeviceDescription::PJRT_DeviceDescription_Id
2025-10-27 21:34:13.444 (  18.292s) [        9C771B80]  device_description.cc:44       1| DeviceDescription::PJRT_DeviceDescription_Id
2025-10-27 21:34:13.444 (  18.292s) [        9C771B80]  device_description.cc:44       1| DeviceDescription::PJRT_DeviceDescription_Id
2025-10-27 21:34:13.444 (  18.292s) [        9C771B80]  device_description.cc:44       1| DeviceDescription::PJRT_DeviceDescription_Id
2025-10-27 21:34:13.444 (  18.292s) [        9C771B80]  device_description.cc:44       1| DeviceDescription::PJRT_DeviceDescription_Id
2025-10-27 21:34:13.444 (  18.292s) [        9C771B80]  device_description.cc:44       1| DeviceDescription::PJRT_DeviceDescription_Id
2025-10-27 21:34:13.444 (  18.292s) [        9C771B80]  device_description.cc:44       1| DeviceDescription::PJRT_DeviceDescription_Id
2025-10-27 21:34:13.444 (  18.292s) [        9C771B80]  device_description.cc:44       1| DeviceDescription::PJRT_DeviceDescription_Id
2025-10-27 21:34:13.444 (  18.292s) [        9C771B80]  device_description.cc:44       1| DeviceDescription::PJRT_DeviceDescription_Id
2025-10-27 21:34:13.444 (  18.292s) [        9C771B80]  device_description.cc:44       1| DeviceDescription::PJRT_DeviceDescription_Id
2025-10-27 21:34:13.444 (  18.292s) [        9C771B80]  device_description.cc:44       1| DeviceDescription::PJRT_DeviceDescription_Id
2025-10-27 21:34:13.444 (  18.292s) [        9C771B80]  device_description.cc:44       1| DeviceDescription::PJRT_DeviceDescription_Id
2025-10-27 21:34:13.444 (  18.292s) [        9C771B80]  device_description.cc:44       1| DeviceDescription::PJRT_DeviceDescription_Id
2025-10-27 21:34:13.444 (  18.292s) [        9C771B80]  device_description.cc:99       1| DeviceDescription::PJRT_DeviceDescription_ToString
2025-10-27 21:34:13.444 (  18.292s) [        9C771B80]  device_description.cc:99       1| DeviceDescription::PJRT_DeviceDescription_ToString
2025-10-27 21:34:13.444 (  18.292s) [        9C771B80]  device_description.cc:99       1| DeviceDescription::PJRT_DeviceDescription_ToString
2025-10-27 21:34:13.444 (  18.292s) [        9C771B80]  device_description.cc:99       1| DeviceDescription::PJRT_DeviceDescription_ToString
2025-10-27 21:34:13.444 (  18.292s) [        9C771B80]  device_description.cc:99       1| DeviceDescription::PJRT_DeviceDescription_ToString
2025-10-27 21:34:13.444 (  18.292s) [        9C771B80]  device_description.cc:99       1| DeviceDescription::PJRT_DeviceDescription_ToString
2025-10-27 21:34:13.444 (  18.292s) [        9C771B80]  device_description.cc:99       1| DeviceDescription::PJRT_DeviceDescription_ToString
2025-10-27 21:34:13.444 (  18.292s) [        9C771B80]  device_description.cc:99       1| DeviceDescription::PJRT_DeviceDescription_ToString
2025-10-27 21:34:13.444 (  18.292s) [        9C771B80]  device_description.cc:99       1| DeviceDescription::PJRT_DeviceDescription_ToString
2025-10-27 21:34:13.444 (  18.292s) [        9C771B80]  device_description.cc:99       1| DeviceDescription::PJRT_DeviceDescription_ToString
2025-10-27 21:34:13.444 (  18.292s) [        9C771B80]  device_description.cc:99       1| DeviceDescription::PJRT_DeviceDescription_ToString
2025-10-27 21:34:13.444 (  18.292s) [        9C771B80]  device_description.cc:99       1| DeviceDescription::PJRT_DeviceDescription_ToString
2025-10-27 21:34:13.444 (  18.292s) [        9C771B80]  device_description.cc:99       1| DeviceDescription::PJRT_DeviceDescription_ToString
2025-10-27 21:34:13.444 (  18.292s) [        9C771B80]  device_description.cc:99       1| DeviceDescription::PJRT_DeviceDescription_ToString
2025-10-27 21:34:13.444 (  18.292s) [        9C771B80]  device_description.cc:99       1| DeviceDescription::PJRT_DeviceDescription_ToString
2025-10-27 21:34:13.444 (  18.292s) [        9C771B80]  device_description.cc:99       1| DeviceDescription::PJRT_DeviceDescription_ToString
2025-10-27 21:34:13.444 (  18.292s) [        9C771B80]  device_description.cc:99       1| DeviceDescription::PJRT_DeviceDescription_ToString
2025-10-27 21:34:13.444 (  18.292s) [        9C771B80]  device_description.cc:99       1| DeviceDescription::PJRT_DeviceDescription_ToString
2025-10-27 21:34:13.444 (  18.292s) [        9C771B80]  device_description.cc:99       1| DeviceDescription::PJRT_DeviceDescription_ToString
2025-10-27 21:34:13.444 (  18.292s) [        9C771B80]  device_description.cc:99       1| DeviceDescription::PJRT_DeviceDescription_ToString
2025-10-27 21:34:13.444 (  18.292s) [        9C771B80]  device_description.cc:99       1| DeviceDescription::PJRT_DeviceDescription_ToString
2025-10-27 21:34:13.444 (  18.292s) [        9C771B80]  device_description.cc:99       1| DeviceDescription::PJRT_DeviceDescription_ToString
2025-10-27 21:34:13.444 (  18.292s) [        9C771B80]  device_description.cc:99       1| DeviceDescription::PJRT_DeviceDescription_ToString
2025-10-27 21:34:13.444 (  18.292s) [        9C771B80]  device_description.cc:99       1| DeviceDescription::PJRT_DeviceDescription_ToString
2025-10-27 21:34:13.444 (  18.292s) [        9C771B80]  device_description.cc:99       1| DeviceDescription::PJRT_DeviceDescription_ToString
2025-10-27 21:34:13.444 (  18.292s) [        9C771B80]  device_description.cc:99       1| DeviceDescription::PJRT_DeviceDescription_ToString
2025-10-27 21:34:13.444 (  18.292s) [        9C771B80]  device_description.cc:99       1| DeviceDescription::PJRT_DeviceDescription_ToString
2025-10-27 21:34:13.444 (  18.292s) [        9C771B80]  device_description.cc:99       1| DeviceDescription::PJRT_DeviceDescription_ToString
2025-10-27 21:34:13.444 (  18.292s) [        9C771B80]  device_description.cc:99       1| DeviceDescription::PJRT_DeviceDescription_ToString
2025-10-27 21:34:13.444 (  18.292s) [        9C771B80]  device_description.cc:99       1| DeviceDescription::PJRT_DeviceDescription_ToString
2025-10-27 21:34:13.444 (  18.292s) [        9C771B80]  device_description.cc:99       1| DeviceDescription::PJRT_DeviceDescription_ToString
2025-10-27 21:34:13.444 (  18.292s) [        9C771B80]  device_description.cc:99       1| DeviceDescription::PJRT_DeviceDescription_ToString
2025-10-27 21:34:13.444 (  18.292s) [        9C771B80]  device_description.cc:44       1| DeviceDescription::PJRT_DeviceDescription_Id
2025-10-27 21:34:13.444 (  18.292s) [        9C771B80]  device_description.cc:44       1| DeviceDescription::PJRT_DeviceDescription_Id
2025-10-27 21:34:13.444 (  18.292s) [        9C771B80]  device_description.cc:44       1| DeviceDescription::PJRT_DeviceDescription_Id
2025-10-27 21:34:13.444 (  18.292s) [        9C771B80]  device_description.cc:44       1| DeviceDescription::PJRT_DeviceDescription_Id
2025-10-27 21:34:13.444 (  18.292s) [        9C771B80]  device_description.cc:44       1| DeviceDescription::PJRT_DeviceDescription_Id
2025-10-27 21:34:13.444 (  18.292s) [        9C771B80]  device_description.cc:44       1| DeviceDescription::PJRT_DeviceDescription_Id
2025-10-27 21:34:13.444 (  18.292s) [        9C771B80]  device_description.cc:44       1| DeviceDescription::PJRT_DeviceDescription_Id
2025-10-27 21:34:13.444 (  18.292s) [        9C771B80]  device_description.cc:44       1| DeviceDescription::PJRT_DeviceDescription_Id
2025-10-27 21:34:13.444 (  18.292s) [        9C771B80]  device_description.cc:44       1| DeviceDescription::PJRT_DeviceDescription_Id
2025-10-27 21:34:13.444 (  18.292s) [        9C771B80]  device_description.cc:44       1| DeviceDescription::PJRT_DeviceDescription_Id
2025-10-27 21:34:13.444 (  18.292s) [        9C771B80]  device_description.cc:44       1| DeviceDescription::PJRT_DeviceDescription_Id
2025-10-27 21:34:13.444 (  18.292s) [        9C771B80]  device_description.cc:44       1| DeviceDescription::PJRT_DeviceDescription_Id
2025-10-27 21:34:13.444 (  18.292s) [        9C771B80]  device_description.cc:44       1| DeviceDescription::PJRT_DeviceDescription_Id
2025-10-27 21:34:13.444 (  18.292s) [        9C771B80]  device_description.cc:44       1| DeviceDescription::PJRT_DeviceDescription_Id
2025-10-27 21:34:13.444 (  18.292s) [        9C771B80]  device_description.cc:44       1| DeviceDescription::PJRT_DeviceDescription_Id
2025-10-27 21:34:13.444 (  18.292s) [        9C771B80]  device_description.cc:44       1| DeviceDescription::PJRT_DeviceDescription_Id
2025-10-27 21:34:13.444 (  18.292s) [        9C771B80]  device_description.cc:44       1| DeviceDescription::PJRT_DeviceDescription_Id
2025-10-27 21:34:13.444 (  18.292s) [        9C771B80]  device_description.cc:44       1| DeviceDescription::PJRT_DeviceDescription_Id
2025-10-27 21:34:13.444 (  18.292s) [        9C771B80]  device_description.cc:44       1| DeviceDescription::PJRT_DeviceDescription_Id
2025-10-27 21:34:13.444 (  18.292s) [        9C771B80]  device_description.cc:44       1| DeviceDescription::PJRT_DeviceDescription_Id
2025-10-27 21:34:13.444 (  18.292s) [        9C771B80]  device_description.cc:44       1| DeviceDescription::PJRT_DeviceDescription_Id
2025-10-27 21:34:13.444 (  18.292s) [        9C771B80]  device_description.cc:44       1| DeviceDescription::PJRT_DeviceDescription_Id
2025-10-27 21:34:13.444 (  18.292s) [        9C771B80]  device_description.cc:44       1| DeviceDescription::PJRT_DeviceDescription_Id
2025-10-27 21:34:13.444 (  18.292s) [        9C771B80]  device_description.cc:44       1| DeviceDescription::PJRT_DeviceDescription_Id
2025-10-27 21:34:13.444 (  18.292s) [        9C771B80]  device_description.cc:44       1| DeviceDescription::PJRT_DeviceDescription_Id
2025-10-27 21:34:13.444 (  18.292s) [        9C771B80]  device_description.cc:44       1| DeviceDescription::PJRT_DeviceDescription_Id
2025-10-27 21:34:13.444 (  18.292s) [        9C771B80]  device_description.cc:44       1| DeviceDescription::PJRT_DeviceDescription_Id
2025-10-27 21:34:13.444 (  18.292s) [        9C771B80]  device_description.cc:44       1| DeviceDescription::PJRT_DeviceDescription_Id
2025-10-27 21:34:13.444 (  18.292s) [        9C771B80]  device_description.cc:44       1| DeviceDescription::PJRT_DeviceDescription_Id
2025-10-27 21:34:13.444 (  18.292s) [        9C771B80]  device_description.cc:44       1| DeviceDescription::PJRT_DeviceDescription_Id
2025-10-27 21:34:13.444 (  18.292s) [        9C771B80]  device_description.cc:44       1| DeviceDescription::PJRT_DeviceDescription_Id
2025-10-27 21:34:13.444 (  18.292s) [        9C771B80]  device_description.cc:44       1| DeviceDescription::PJRT_DeviceDescription_Id
2025-10-27 21:34:13.444 (  18.292s) [        9C771B80]  device_description.cc:44       1| DeviceDescription::PJRT_DeviceDescription_Id
2025-10-27 21:34:13.444 (  18.292s) [        9C771B80]  device_description.cc:44       1| DeviceDescription::PJRT_DeviceDescription_Id
2025-10-27 21:34:13.444 (  18.292s) [        9C771B80]  device_description.cc:44       1| DeviceDescription::PJRT_DeviceDescription_Id
2025-10-27 21:34:13.444 (  18.292s) [        9C771B80]  device_description.cc:44       1| DeviceDescription::PJRT_DeviceDescription_Id
2025-10-27 21:34:13.444 (  18.292s) [        9C771B80]  device_description.cc:44       1| DeviceDescription::PJRT_DeviceDescription_Id
2025-10-27 21:34:13.444 (  18.292s) [        9C771B80]  device_description.cc:44       1| DeviceDescription::PJRT_DeviceDescription_Id
2025-10-27 21:34:13.444 (  18.292s) [        9C771B80]  device_description.cc:44       1| DeviceDescription::PJRT_DeviceDescription_Id
2025-10-27 21:34:13.444 (  18.292s) [        9C771B80]  device_description.cc:44       1| DeviceDescription::PJRT_DeviceDescription_Id
2025-10-27 21:34:13.444 (  18.292s) [        9C771B80]  device_description.cc:44       1| DeviceDescription::PJRT_DeviceDescription_Id
2025-10-27 21:34:13.444 (  18.292s) [        9C771B80]  device_description.cc:44       1| DeviceDescription::PJRT_DeviceDescription_Id
2025-10-27 21:34:13.444 (  18.292s) [        9C771B80]  device_description.cc:44       1| DeviceDescription::PJRT_DeviceDescription_Id
2025-10-27 21:34:13.444 (  18.292s) [        9C771B80]  device_description.cc:44       1| DeviceDescription::PJRT_DeviceDescription_Id
2025-10-27 21:34:13.444 (  18.292s) [        9C771B80]  device_description.cc:44       1| DeviceDescription::PJRT_DeviceDescription_Id
2025-10-27 21:34:13.444 (  18.292s) [        9C771B80]  device_description.cc:44       1| DeviceDescription::PJRT_DeviceDescription_Id
2025-10-27 21:34:13.444 (  18.292s) [        9C771B80]  device_description.cc:44       1| DeviceDescription::PJRT_DeviceDescription_Id
2025-10-27 21:34:13.444 (  18.292s) [        9C771B80]  device_description.cc:44       1| DeviceDescription::PJRT_DeviceDescription_Id
2025-10-27 21:34:13.444 (  18.292s) [        9C771B80]  device_description.cc:44       1| DeviceDescription::PJRT_DeviceDescription_Id
2025-10-27 21:34:13.444 (  18.292s) [        9C771B80]  device_description.cc:44       1| DeviceDescription::PJRT_DeviceDescription_Id
2025-10-27 21:34:13.444 (  18.292s) [        9C771B80]  device_description.cc:44       1| DeviceDescription::PJRT_DeviceDescription_Id
2025-10-27 21:34:13.444 (  18.292s) [        9C771B80]  device_description.cc:44       1| DeviceDescription::PJRT_DeviceDescription_Id
2025-10-27 21:34:13.444 (  18.292s) [        9C771B80]  device_description.cc:44       1| DeviceDescription::PJRT_DeviceDescription_Id
2025-10-27 21:34:13.444 (  18.292s) [        9C771B80]  device_description.cc:44       1| DeviceDescription::PJRT_DeviceDescription_Id
2025-10-27 21:34:13.444 (  18.292s) [        9C771B80]  device_description.cc:44       1| DeviceDescription::PJRT_DeviceDescription_Id
2025-10-27 21:34:13.444 (  18.292s) [        9C771B80]  device_description.cc:44       1| DeviceDescription::PJRT_DeviceDescription_Id
2025-10-27 21:34:13.444 (  18.292s) [        9C771B80]  device_description.cc:44       1| DeviceDescription::PJRT_DeviceDescription_Id
2025-10-27 21:34:13.444 (  18.292s) [        9C771B80]  device_description.cc:44       1| DeviceDescription::PJRT_DeviceDescription_Id
2025-10-27 21:34:13.444 (  18.292s) [        9C771B80]  device_description.cc:44       1| DeviceDescription::PJRT_DeviceDescription_Id
2025-10-27 21:34:13.444 (  18.292s) [        9C771B80]  device_description.cc:44       1| DeviceDescription::PJRT_DeviceDescription_Id
2025-10-27 21:34:13.444 (  18.292s) [        9C771B80]  device_description.cc:44       1| DeviceDescription::PJRT_DeviceDescription_Id
2025-10-27 21:34:13.444 (  18.292s) [        9C771B80]  device_description.cc:44       1| DeviceDescription::PJRT_DeviceDescription_Id
2025-10-27 21:34:13.444 (  18.292s) [        9C771B80]  device_description.cc:44       1| DeviceDescription::PJRT_DeviceDescription_Id
2025-10-27 21:34:13.444 (  18.292s) [        9C771B80]  device_description.cc:44       1| DeviceDescription::PJRT_DeviceDescription_Id
2025-10-27 21:34:15.224 (  20.073s) [        9C771B80]  device_description.cc:44       1| DeviceDescription::PJRT_DeviceDescription_Id
2025-10-27 21:34:15.224 (  20.073s) [        9C771B80]  device_description.cc:44       1| DeviceDescription::PJRT_DeviceDescription_Id
2025-10-27 21:34:15.224 (  20.073s) [        9C771B80]  device_description.cc:44       1| DeviceDescription::PJRT_DeviceDescription_Id
2025-10-27 21:34:15.224 (  20.073s) [        9C771B80]  device_description.cc:44       1| DeviceDescription::PJRT_DeviceDescription_Id
2025-10-27 21:34:15.224 (  20.073s) [        9C771B80]  device_description.cc:44       1| DeviceDescription::PJRT_DeviceDescription_Id
2025-10-27 21:34:15.224 (  20.073s) [        9C771B80]  device_description.cc:44       1| DeviceDescription::PJRT_DeviceDescription_Id
2025-10-27 21:34:15.224 (  20.073s) [        9C771B80]  device_description.cc:44       1| DeviceDescription::PJRT_DeviceDescription_Id
2025-10-27 21:34:15.224 (  20.073s) [        9C771B80]  device_description.cc:44       1| DeviceDescription::PJRT_DeviceDescription_Id
2025-10-27 21:34:15.224 (  20.073s) [        9C771B80]  device_description.cc:44       1| DeviceDescription::PJRT_DeviceDescription_Id
2025-10-27 21:34:15.224 (  20.073s) [        9C771B80]  device_description.cc:44       1| DeviceDescription::PJRT_DeviceDescription_Id
2025-10-27 21:34:15.224 (  20.073s) [        9C771B80]  device_description.cc:44       1| DeviceDescription::PJRT_DeviceDescription_Id
2025-10-27 21:34:15.224 (  20.073s) [        9C771B80]  device_description.cc:44       1| DeviceDescription::PJRT_DeviceDescription_Id
2025-10-27 21:34:15.224 (  20.073s) [        9C771B80]  device_description.cc:44       1| DeviceDescription::PJRT_DeviceDescription_Id
2025-10-27 21:34:15.224 (  20.073s) [        9C771B80]  device_description.cc:44       1| DeviceDescription::PJRT_DeviceDescription_Id
2025-10-27 21:34:15.224 (  20.073s) [        9C771B80]  device_description.cc:44       1| DeviceDescription::PJRT_DeviceDescription_Id
2025-10-27 21:34:15.224 (  20.073s) [        9C771B80]  device_description.cc:44       1| DeviceDescription::PJRT_DeviceDescription_Id
2025-10-27 21:34:15.224 (  20.073s) [        9C771B80]  device_description.cc:44       1| DeviceDescription::PJRT_DeviceDescription_Id
2025-10-27 21:34:15.224 (  20.073s) [        9C771B80]  device_description.cc:44       1| DeviceDescription::PJRT_DeviceDescription_Id
2025-10-27 21:34:15.224 (  20.073s) [        9C771B80]  device_description.cc:44       1| DeviceDescription::PJRT_DeviceDescription_Id
2025-10-27 21:34:15.224 (  20.073s) [        9C771B80]  device_description.cc:44       1| DeviceDescription::PJRT_DeviceDescription_Id
2025-10-27 21:34:15.224 (  20.073s) [        9C771B80]  device_description.cc:44       1| DeviceDescription::PJRT_DeviceDescription_Id
2025-10-27 21:34:15.224 (  20.073s) [        9C771B80]  device_description.cc:44       1| DeviceDescription::PJRT_DeviceDescription_Id
2025-10-27 21:34:15.224 (  20.073s) [        9C771B80]  device_description.cc:44       1| DeviceDescription::PJRT_DeviceDescription_Id
2025-10-27 21:34:15.224 (  20.073s) [        9C771B80]  device_description.cc:44       1| DeviceDescription::PJRT_DeviceDescription_Id
2025-10-27 21:34:15.224 (  20.073s) [        9C771B80]  device_description.cc:44       1| DeviceDescription::PJRT_DeviceDescription_Id
2025-10-27 21:34:15.224 (  20.073s) [        9C771B80]  device_description.cc:44       1| DeviceDescription::PJRT_DeviceDescription_Id
2025-10-27 21:34:15.224 (  20.073s) [        9C771B80]  device_description.cc:44       1| DeviceDescription::PJRT_DeviceDescription_Id
2025-10-27 21:34:15.224 (  20.073s) [        9C771B80]  device_description.cc:44       1| DeviceDescription::PJRT_DeviceDescription_Id
2025-10-27 21:34:15.224 (  20.073s) [        9C771B80]  device_description.cc:44       1| DeviceDescription::PJRT_DeviceDescription_Id
2025-10-27 21:34:15.224 (  20.073s) [        9C771B80]  device_description.cc:44       1| DeviceDescription::PJRT_DeviceDescription_Id
2025-10-27 21:34:15.224 (  20.073s) [        9C771B80]  device_description.cc:44       1| DeviceDescription::PJRT_DeviceDescription_Id
2025-10-27 21:34:15.224 (  20.073s) [        9C771B80]  device_description.cc:44       1| DeviceDescription::PJRT_DeviceDescription_Id
2025-10-27 21:34:15.498 (  20.346s) [        9C771B80]  device_description.cc:44       1| DeviceDescription::PJRT_DeviceDescription_Id
2025-10-27 21:34:15.498 (  20.346s) [        9C771B80]  device_description.cc:44       1| DeviceDescription::PJRT_DeviceDescription_Id
2025-10-27 21:34:15.498 (  20.346s) [        9C771B80]  device_description.cc:44       1| DeviceDescription::PJRT_DeviceDescription_Id
2025-10-27 21:34:15.498 (  20.346s) [        9C771B80]  device_description.cc:44       1| DeviceDescription::PJRT_DeviceDescription_Id
2025-10-27 21:34:15.498 (  20.346s) [        9C771B80]  device_description.cc:44       1| DeviceDescription::PJRT_DeviceDescription_Id
2025-10-27 21:34:15.498 (  20.346s) [        9C771B80]  device_description.cc:44       1| DeviceDescription::PJRT_DeviceDescription_Id
2025-10-27 21:34:15.498 (  20.346s) [        9C771B80]  device_description.cc:44       1| DeviceDescription::PJRT_DeviceDescription_Id
2025-10-27 21:34:15.498 (  20.346s) [        9C771B80]  device_description.cc:44       1| DeviceDescription::PJRT_DeviceDescription_Id
2025-10-27 21:34:15.498 (  20.346s) [        9C771B80]  device_description.cc:44       1| DeviceDescription::PJRT_DeviceDescription_Id
2025-10-27 21:34:15.498 (  20.346s) [        9C771B80]  device_description.cc:44       1| DeviceDescription::PJRT_DeviceDescription_Id
2025-10-27 21:34:15.498 (  20.346s) [        9C771B80]  device_description.cc:44       1| DeviceDescription::PJRT_DeviceDescription_Id
2025-10-27 21:34:15.498 (  20.346s) [        9C771B80]  device_description.cc:44       1| DeviceDescription::PJRT_DeviceDescription_Id
2025-10-27 21:34:15.498 (  20.346s) [        9C771B80]  device_description.cc:44       1| DeviceDescription::PJRT_DeviceDescription_Id
2025-10-27 21:34:15.498 (  20.346s) [        9C771B80]  device_description.cc:44       1| DeviceDescription::PJRT_DeviceDescription_Id
2025-10-27 21:34:15.498 (  20.346s) [        9C771B80]  device_description.cc:44       1| DeviceDescription::PJRT_DeviceDescription_Id
2025-10-27 21:34:15.498 (  20.346s) [        9C771B80]  device_description.cc:44       1| DeviceDescription::PJRT_DeviceDescription_Id
2025-10-27 21:34:15.498 (  20.346s) [        9C771B80]  device_description.cc:44       1| DeviceDescription::PJRT_DeviceDescription_Id
2025-10-27 21:34:15.498 (  20.346s) [        9C771B80]  device_description.cc:44       1| DeviceDescription::PJRT_DeviceDescription_Id
2025-10-27 21:34:15.498 (  20.346s) [        9C771B80]  device_description.cc:44       1| DeviceDescription::PJRT_DeviceDescription_Id
2025-10-27 21:34:15.498 (  20.346s) [        9C771B80]  device_description.cc:44       1| DeviceDescription::PJRT_DeviceDescription_Id
2025-10-27 21:34:15.498 (  20.346s) [        9C771B80]  device_description.cc:44       1| DeviceDescription::PJRT_DeviceDescription_Id
2025-10-27 21:34:15.498 (  20.346s) [        9C771B80]  device_description.cc:44       1| DeviceDescription::PJRT_DeviceDescription_Id
2025-10-27 21:34:15.498 (  20.346s) [        9C771B80]  device_description.cc:44       1| DeviceDescription::PJRT_DeviceDescription_Id
2025-10-27 21:34:15.498 (  20.346s) [        9C771B80]  device_description.cc:44       1| DeviceDescription::PJRT_DeviceDescription_Id
2025-10-27 21:34:15.498 (  20.346s) [        9C771B80]  device_description.cc:44       1| DeviceDescription::PJRT_DeviceDescription_Id
2025-10-27 21:34:15.498 (  20.346s) [        9C771B80]  device_description.cc:44       1| DeviceDescription::PJRT_DeviceDescription_Id
2025-10-27 21:34:15.498 (  20.346s) [        9C771B80]  device_description.cc:44       1| DeviceDescription::PJRT_DeviceDescription_Id
2025-10-27 21:34:15.498 (  20.346s) [        9C771B80]  device_description.cc:44       1| DeviceDescription::PJRT_DeviceDescription_Id
2025-10-27 21:34:15.498 (  20.346s) [        9C771B80]  device_description.cc:44       1| DeviceDescription::PJRT_DeviceDescription_Id
2025-10-27 21:34:15.498 (  20.346s) [        9C771B80]  device_description.cc:44       1| DeviceDescription::PJRT_DeviceDescription_Id
2025-10-27 21:34:15.498 (  20.346s) [        9C771B80]  device_description.cc:44       1| DeviceDescription::PJRT_DeviceDescription_Id
2025-10-27 21:34:15.498 (  20.346s) [        9C771B80]  device_description.cc:44       1| DeviceDescription::PJRT_DeviceDescription_Id
2025-10-27 21:34:15.498 (  20.346s) [        9C771B80]     device_instance.cc:82       1| DeviceInstance::PJRT_Device_DefaultMemory
2025-10-27 21:34:15.498 (  20.346s) [        9C771B80]     client_instance.cc:659      1| ClientInstance::PJRT_Client_BufferFromHostBuffer
2025-10-27 21:34:15.498 (  20.347s) [        9C771B80]     memory_instance.cc:57       1| MemoryInstance::getDevice
[32m                 Always[0m | [1m[38;5;208m WARNING[0m | User provided a tensor of data type: Int64 which is not supported by runtime/ttnn. Casting to: Int32, this may impact throughput and the integrity of the data.
2025-10-27 21:34:15.499 (  20.347s) [        9C771B80]      event_instance.cc:223      1| EventInstance::PJRT_Event_OnReady
2025-10-27 21:34:15.499 (  20.347s) [        9C771B80]      event_instance.cc:172      1| EventInstance::PJRT_Event_Destroy
2025-10-27 21:34:15.499 (  20.347s) [        9C771B80]     device_instance.cc:82       1| DeviceInstance::PJRT_Device_DefaultMemory
2025-10-27 21:34:15.499 (  20.347s) [        9C771B80]     client_instance.cc:659      1| ClientInstance::PJRT_Client_BufferFromHostBuffer
2025-10-27 21:34:15.499 (  20.347s) [        9C771B80]     memory_instance.cc:57       1| MemoryInstance::getDevice
[32m                 Always[0m | [1m[38;5;208m WARNING[0m | User provided a tensor of data type: Int64 which is not supported by runtime/ttnn. Casting to: Int32, this may impact throughput and the integrity of the data.
2025-10-27 21:34:15.499 (  20.347s) [        9C771B80]      event_instance.cc:223      1| EventInstance::PJRT_Event_OnReady
2025-10-27 21:34:15.499 (  20.347s) [        9C771B80]      event_instance.cc:172      1| EventInstance::PJRT_Event_Destroy
2025-10-27 21:34:15.499 (  20.347s) [        9C771B80]     device_instance.cc:82       1| DeviceInstance::PJRT_Device_DefaultMemory
2025-10-27 21:34:15.499 (  20.347s) [        9C771B80]     client_instance.cc:659      1| ClientInstance::PJRT_Client_BufferFromHostBuffer
2025-10-27 21:34:15.499 (  20.347s) [        9C771B80]     memory_instance.cc:57       1| MemoryInstance::getDevice
[32m                 Always[0m | [1m[38;5;208m WARNING[0m | User provided a tensor of data type: Int64 which is not supported by runtime/ttnn. Casting to: Int32, this may impact throughput and the integrity of the data.
2025-10-27 21:34:15.499 (  20.347s) [        9C771B80]      event_instance.cc:223      1| EventInstance::PJRT_Event_OnReady
2025-10-27 21:34:15.499 (  20.347s) [        9C771B80]      event_instance.cc:172      1| EventInstance::PJRT_Event_Destroy
2025-10-27 21:34:15.499 (  20.347s) [        9C771B80]     device_instance.cc:82       1| DeviceInstance::PJRT_Device_DefaultMemory
2025-10-27 21:34:15.499 (  20.347s) [        9C771B80]     client_instance.cc:659      1| ClientInstance::PJRT_Client_BufferFromHostBuffer
2025-10-27 21:34:15.499 (  20.347s) [        9C771B80]     memory_instance.cc:57       1| MemoryInstance::getDevice
[32m                 Always[0m | [1m[38;5;208m WARNING[0m | User provided a tensor of data type: Int64 which is not supported by runtime/ttnn. Casting to: Int32, this may impact throughput and the integrity of the data.
2025-10-27 21:34:15.499 (  20.347s) [        9C771B80]      event_instance.cc:223      1| EventInstance::PJRT_Event_OnReady
2025-10-27 21:34:15.499 (  20.347s) [        9C771B80]      event_instance.cc:172      1| EventInstance::PJRT_Event_Destroy
2025-10-27 21:34:15.499 (  20.347s) [        9C771B80]     device_instance.cc:82       1| DeviceInstance::PJRT_Device_DefaultMemory
2025-10-27 21:34:15.499 (  20.347s) [        9C771B80]     client_instance.cc:659      1| ClientInstance::PJRT_Client_BufferFromHostBuffer
2025-10-27 21:34:15.499 (  20.347s) [        9C771B80]     memory_instance.cc:57       1| MemoryInstance::getDevice
[32m                 Always[0m | [1m[38;5;208m WARNING[0m | User provided a tensor of data type: Int64 which is not supported by runtime/ttnn. Casting to: Int32, this may impact throughput and the integrity of the data.
2025-10-27 21:34:15.499 (  20.347s) [        9C771B80]      event_instance.cc:223      1| EventInstance::PJRT_Event_OnReady
2025-10-27 21:34:15.499 (  20.347s) [        9C771B80]      event_instance.cc:172      1| EventInstance::PJRT_Event_Destroy
2025-10-27 21:34:15.499 (  20.347s) [        9C771B80]     device_instance.cc:82       1| DeviceInstance::PJRT_Device_DefaultMemory
2025-10-27 21:34:15.499 (  20.347s) [        9C771B80]     client_instance.cc:659      1| ClientInstance::PJRT_Client_BufferFromHostBuffer
2025-10-27 21:34:15.499 (  20.347s) [        9C771B80]     memory_instance.cc:57       1| MemoryInstance::getDevice
[32m                 Always[0m | [1m[38;5;208m WARNING[0m | User provided a tensor of data type: Int64 which is not supported by runtime/ttnn. Casting to: Int32, this may impact throughput and the integrity of the data.
2025-10-27 21:34:15.499 (  20.348s) [        9C771B80]      event_instance.cc:223      1| EventInstance::PJRT_Event_OnReady
2025-10-27 21:34:15.499 (  20.348s) [        9C771B80]      event_instance.cc:172      1| EventInstance::PJRT_Event_Destroy
2025-10-27 21:34:15.499 (  20.348s) [        9C771B80]     device_instance.cc:82       1| DeviceInstance::PJRT_Device_DefaultMemory
2025-10-27 21:34:15.499 (  20.348s) [        9C771B80]     client_instance.cc:659      1| ClientInstance::PJRT_Client_BufferFromHostBuffer
2025-10-27 21:34:15.499 (  20.348s) [        9C771B80]     memory_instance.cc:57       1| MemoryInstance::getDevice
[32m                 Always[0m | [1m[38;5;208m WARNING[0m | User provided a tensor of data type: Int64 which is not supported by runtime/ttnn. Casting to: Int32, this may impact throughput and the integrity of the data.
2025-10-27 21:34:15.499 (  20.348s) [        9C771B80]      event_instance.cc:223      1| EventInstance::PJRT_Event_OnReady
2025-10-27 21:34:15.499 (  20.348s) [        9C771B80]      event_instance.cc:172      1| EventInstance::PJRT_Event_Destroy
2025-10-27 21:34:15.499 (  20.348s) [        9C771B80]     device_instance.cc:82       1| DeviceInstance::PJRT_Device_DefaultMemory
2025-10-27 21:34:15.499 (  20.348s) [        9C771B80]     client_instance.cc:659      1| ClientInstance::PJRT_Client_BufferFromHostBuffer
2025-10-27 21:34:15.499 (  20.348s) [        9C771B80]     memory_instance.cc:57       1| MemoryInstance::getDevice
[32m                 Always[0m | [1m[38;5;208m WARNING[0m | User provided a tensor of data type: Int64 which is not supported by runtime/ttnn. Casting to: Int32, this may impact throughput and the integrity of the data.
2025-10-27 21:34:15.499 (  20.348s) [        9C771B80]      event_instance.cc:223      1| EventInstance::PJRT_Event_OnReady
2025-10-27 21:34:15.499 (  20.348s) [        9C771B80]      event_instance.cc:172      1| EventInstance::PJRT_Event_Destroy
2025-10-27 21:34:15.499 (  20.348s) [        9C771B80]     device_instance.cc:82       1| DeviceInstance::PJRT_Device_DefaultMemory
2025-10-27 21:34:15.499 (  20.348s) [        9C771B80]     client_instance.cc:659      1| ClientInstance::PJRT_Client_BufferFromHostBuffer
2025-10-27 21:34:15.499 (  20.348s) [        9C771B80]     memory_instance.cc:57       1| MemoryInstance::getDevice
[32m                 Always[0m | [1m[38;5;208m WARNING[0m | User provided a tensor of data type: Int64 which is not supported by runtime/ttnn. Casting to: Int32, this may impact throughput and the integrity of the data.
2025-10-27 21:34:15.499 (  20.348s) [        9C771B80]      event_instance.cc:223      1| EventInstance::PJRT_Event_OnReady
2025-10-27 21:34:15.499 (  20.348s) [        9C771B80]      event_instance.cc:172      1| EventInstance::PJRT_Event_Destroy
2025-10-27 21:34:15.499 (  20.348s) [        9C771B80]     device_instance.cc:82       1| DeviceInstance::PJRT_Device_DefaultMemory
2025-10-27 21:34:15.499 (  20.348s) [        9C771B80]     client_instance.cc:659      1| ClientInstance::PJRT_Client_BufferFromHostBuffer
2025-10-27 21:34:15.499 (  20.348s) [        9C771B80]     memory_instance.cc:57       1| MemoryInstance::getDevice
[32m                 Always[0m | [1m[38;5;208m WARNING[0m | User provided a tensor of data type: Int64 which is not supported by runtime/ttnn. Casting to: Int32, this may impact throughput and the integrity of the data.
2025-10-27 21:34:15.499 (  20.348s) [        9C771B80]      event_instance.cc:223      1| EventInstance::PJRT_Event_OnReady
2025-10-27 21:34:15.499 (  20.348s) [        9C771B80]      event_instance.cc:172      1| EventInstance::PJRT_Event_Destroy
2025-10-27 21:34:15.499 (  20.348s) [        9C771B80]     device_instance.cc:82       1| DeviceInstance::PJRT_Device_DefaultMemory
2025-10-27 21:34:15.499 (  20.348s) [        9C771B80]     client_instance.cc:659      1| ClientInstance::PJRT_Client_BufferFromHostBuffer
2025-10-27 21:34:15.499 (  20.348s) [        9C771B80]     memory_instance.cc:57       1| MemoryInstance::getDevice
[32m                 Always[0m | [1m[38;5;208m WARNING[0m | User provided a tensor of data type: Int64 which is not supported by runtime/ttnn. Casting to: Int32, this may impact throughput and the integrity of the data.
2025-10-27 21:34:15.499 (  20.348s) [        9C771B80]      event_instance.cc:223      1| EventInstance::PJRT_Event_OnReady
2025-10-27 21:34:15.499 (  20.348s) [        9C771B80]      event_instance.cc:172      1| EventInstance::PJRT_Event_Destroy
2025-10-27 21:34:15.499 (  20.348s) [        9C771B80]     device_instance.cc:82       1| DeviceInstance::PJRT_Device_DefaultMemory
2025-10-27 21:34:15.499 (  20.348s) [        9C771B80]     client_instance.cc:659      1| ClientInstance::PJRT_Client_BufferFromHostBuffer
2025-10-27 21:34:15.499 (  20.348s) [        9C771B80]     memory_instance.cc:57       1| MemoryInstance::getDevice
[32m                 Always[0m | [1m[38;5;208m WARNING[0m | User provided a tensor of data type: Int64 which is not supported by runtime/ttnn. Casting to: Int32, this may impact throughput and the integrity of the data.
2025-10-27 21:34:15.500 (  20.348s) [        9C771B80]      event_instance.cc:223      1| EventInstance::PJRT_Event_OnReady
2025-10-27 21:34:15.500 (  20.348s) [        9C771B80]      event_instance.cc:172      1| EventInstance::PJRT_Event_Destroy
2025-10-27 21:34:15.500 (  20.348s) [        9C771B80]     device_instance.cc:82       1| DeviceInstance::PJRT_Device_DefaultMemory
2025-10-27 21:34:15.500 (  20.348s) [        9C771B80]     client_instance.cc:659      1| ClientInstance::PJRT_Client_BufferFromHostBuffer
2025-10-27 21:34:15.500 (  20.348s) [        9C771B80]     memory_instance.cc:57       1| MemoryInstance::getDevice
[32m                 Always[0m | [1m[38;5;208m WARNING[0m | User provided a tensor of data type: Int64 which is not supported by runtime/ttnn. Casting to: Int32, this may impact throughput and the integrity of the data.
2025-10-27 21:34:15.500 (  20.348s) [        9C771B80]      event_instance.cc:223      1| EventInstance::PJRT_Event_OnReady
2025-10-27 21:34:15.500 (  20.348s) [        9C771B80]      event_instance.cc:172      1| EventInstance::PJRT_Event_Destroy
2025-10-27 21:34:15.500 (  20.348s) [        9C771B80]     device_instance.cc:82       1| DeviceInstance::PJRT_Device_DefaultMemory
2025-10-27 21:34:15.500 (  20.348s) [        9C771B80]     client_instance.cc:659      1| ClientInstance::PJRT_Client_BufferFromHostBuffer
2025-10-27 21:34:15.500 (  20.348s) [        9C771B80]     memory_instance.cc:57       1| MemoryInstance::getDevice
[32m                 Always[0m | [1m[38;5;208m WARNING[0m | User provided a tensor of data type: Int64 which is not supported by runtime/ttnn. Casting to: Int32, this may impact throughput and the integrity of the data.
2025-10-27 21:34:15.500 (  20.348s) [        9C771B80]      event_instance.cc:223      1| EventInstance::PJRT_Event_OnReady
2025-10-27 21:34:15.500 (  20.348s) [        9C771B80]      event_instance.cc:172      1| EventInstance::PJRT_Event_Destroy
2025-10-27 21:34:15.500 (  20.348s) [        9C771B80]     device_instance.cc:82       1| DeviceInstance::PJRT_Device_DefaultMemory
2025-10-27 21:34:15.500 (  20.348s) [        9C771B80]     client_instance.cc:659      1| ClientInstance::PJRT_Client_BufferFromHostBuffer
2025-10-27 21:34:15.500 (  20.348s) [        9C771B80]     memory_instance.cc:57       1| MemoryInstance::getDevice
[32m                 Always[0m | [1m[38;5;208m WARNING[0m | User provided a tensor of data type: Int64 which is not supported by runtime/ttnn. Casting to: Int32, this may impact throughput and the integrity of the data.
2025-10-27 21:34:15.500 (  20.348s) [        9C771B80]      event_instance.cc:223      1| EventInstance::PJRT_Event_OnReady
2025-10-27 21:34:15.500 (  20.348s) [        9C771B80]      event_instance.cc:172      1| EventInstance::PJRT_Event_Destroy
2025-10-27 21:34:15.500 (  20.348s) [        9C771B80]     device_instance.cc:82       1| DeviceInstance::PJRT_Device_DefaultMemory
2025-10-27 21:34:15.500 (  20.348s) [        9C771B80]     client_instance.cc:659      1| ClientInstance::PJRT_Client_BufferFromHostBuffer
2025-10-27 21:34:15.500 (  20.348s) [        9C771B80]     memory_instance.cc:57       1| MemoryInstance::getDevice
[32m                 Always[0m | [1m[38;5;208m WARNING[0m | User provided a tensor of data type: Int64 which is not supported by runtime/ttnn. Casting to: Int32, this may impact throughput and the integrity of the data.
2025-10-27 21:34:15.500 (  20.348s) [        9C771B80]      event_instance.cc:223      1| EventInstance::PJRT_Event_OnReady
2025-10-27 21:34:15.500 (  20.348s) [        9C771B80]      event_instance.cc:172      1| EventInstance::PJRT_Event_Destroy
2025-10-27 21:34:15.500 (  20.348s) [        9C771B80]     device_instance.cc:82       1| DeviceInstance::PJRT_Device_DefaultMemory
2025-10-27 21:34:15.500 (  20.348s) [        9C771B80]     client_instance.cc:659      1| ClientInstance::PJRT_Client_BufferFromHostBuffer
2025-10-27 21:34:15.500 (  20.348s) [        9C771B80]     memory_instance.cc:57       1| MemoryInstance::getDevice
[32m                 Always[0m | [1m[38;5;208m WARNING[0m | User provided a tensor of data type: Int64 which is not supported by runtime/ttnn. Casting to: Int32, this may impact throughput and the integrity of the data.
2025-10-27 21:34:15.500 (  20.348s) [        9C771B80]      event_instance.cc:223      1| EventInstance::PJRT_Event_OnReady
2025-10-27 21:34:15.500 (  20.348s) [        9C771B80]      event_instance.cc:172      1| EventInstance::PJRT_Event_Destroy
2025-10-27 21:34:15.500 (  20.348s) [        9C771B80]     device_instance.cc:82       1| DeviceInstance::PJRT_Device_DefaultMemory
2025-10-27 21:34:15.500 (  20.348s) [        9C771B80]     client_instance.cc:659      1| ClientInstance::PJRT_Client_BufferFromHostBuffer
2025-10-27 21:34:15.500 (  20.348s) [        9C771B80]     memory_instance.cc:57       1| MemoryInstance::getDevice
[32m                 Always[0m | [1m[38;5;208m WARNING[0m | User provided a tensor of data type: Int64 which is not supported by runtime/ttnn. Casting to: Int32, this may impact throughput and the integrity of the data.
2025-10-27 21:34:15.500 (  20.348s) [        9C771B80]      event_instance.cc:223      1| EventInstance::PJRT_Event_OnReady
2025-10-27 21:34:15.500 (  20.348s) [        9C771B80]      event_instance.cc:172      1| EventInstance::PJRT_Event_Destroy
2025-10-27 21:34:15.500 (  20.348s) [        9C771B80]     device_instance.cc:82       1| DeviceInstance::PJRT_Device_DefaultMemory
2025-10-27 21:34:15.500 (  20.348s) [        9C771B80]     client_instance.cc:659      1| ClientInstance::PJRT_Client_BufferFromHostBuffer
2025-10-27 21:34:15.500 (  20.348s) [        9C771B80]     memory_instance.cc:57       1| MemoryInstance::getDevice
[32m                 Always[0m | [1m[38;5;208m WARNING[0m | User provided a tensor of data type: Int64 which is not supported by runtime/ttnn. Casting to: Int32, this may impact throughput and the integrity of the data.
2025-10-27 21:34:15.500 (  20.348s) [        9C771B80]      event_instance.cc:223      1| EventInstance::PJRT_Event_OnReady
2025-10-27 21:34:15.500 (  20.348s) [        9C771B80]      event_instance.cc:172      1| EventInstance::PJRT_Event_Destroy
2025-10-27 21:34:15.500 (  20.348s) [        9C771B80]     device_instance.cc:82       1| DeviceInstance::PJRT_Device_DefaultMemory
2025-10-27 21:34:15.500 (  20.348s) [        9C771B80]     client_instance.cc:659      1| ClientInstance::PJRT_Client_BufferFromHostBuffer
2025-10-27 21:34:15.500 (  20.348s) [        9C771B80]     memory_instance.cc:57       1| MemoryInstance::getDevice
[32m                 Always[0m | [1m[38;5;208m WARNING[0m | User provided a tensor of data type: Int64 which is not supported by runtime/ttnn. Casting to: Int32, this may impact throughput and the integrity of the data.
2025-10-27 21:34:15.500 (  20.348s) [        9C771B80]      event_instance.cc:223      1| EventInstance::PJRT_Event_OnReady
2025-10-27 21:34:15.500 (  20.348s) [        9C771B80]      event_instance.cc:172      1| EventInstance::PJRT_Event_Destroy
2025-10-27 21:34:15.500 (  20.348s) [        9C771B80]     device_instance.cc:82       1| DeviceInstance::PJRT_Device_DefaultMemory
2025-10-27 21:34:15.500 (  20.348s) [        9C771B80]     client_instance.cc:659      1| ClientInstance::PJRT_Client_BufferFromHostBuffer
2025-10-27 21:34:15.500 (  20.348s) [        9C771B80]     memory_instance.cc:57       1| MemoryInstance::getDevice
[32m                 Always[0m | [1m[38;5;208m WARNING[0m | User provided a tensor of data type: Int64 which is not supported by runtime/ttnn. Casting to: Int32, this may impact throughput and the integrity of the data.
2025-10-27 21:34:15.500 (  20.348s) [        9C771B80]      event_instance.cc:223      1| EventInstance::PJRT_Event_OnReady
2025-10-27 21:34:15.500 (  20.348s) [        9C771B80]      event_instance.cc:172      1| EventInstance::PJRT_Event_Destroy
2025-10-27 21:34:15.500 (  20.349s) [        9C771B80]     device_instance.cc:82       1| DeviceInstance::PJRT_Device_DefaultMemory
2025-10-27 21:34:15.500 (  20.349s) [        9C771B80]     client_instance.cc:659      1| ClientInstance::PJRT_Client_BufferFromHostBuffer
2025-10-27 21:34:15.500 (  20.349s) [        9C771B80]     memory_instance.cc:57       1| MemoryInstance::getDevice
[32m                 Always[0m | [1m[38;5;208m WARNING[0m | User provided a tensor of data type: Int64 which is not supported by runtime/ttnn. Casting to: Int32, this may impact throughput and the integrity of the data.
2025-10-27 21:34:15.500 (  20.349s) [        9C771B80]      event_instance.cc:223      1| EventInstance::PJRT_Event_OnReady
2025-10-27 21:34:15.500 (  20.349s) [        9C771B80]      event_instance.cc:172      1| EventInstance::PJRT_Event_Destroy
2025-10-27 21:34:15.500 (  20.349s) [        9C771B80]     device_instance.cc:82       1| DeviceInstance::PJRT_Device_DefaultMemory
2025-10-27 21:34:15.500 (  20.349s) [        9C771B80]     client_instance.cc:659      1| ClientInstance::PJRT_Client_BufferFromHostBuffer
2025-10-27 21:34:15.500 (  20.349s) [        9C771B80]     memory_instance.cc:57       1| MemoryInstance::getDevice
[32m                 Always[0m | [1m[38;5;208m WARNING[0m | User provided a tensor of data type: Int64 which is not supported by runtime/ttnn. Casting to: Int32, this may impact throughput and the integrity of the data.
2025-10-27 21:34:15.500 (  20.349s) [        9C771B80]      event_instance.cc:223      1| EventInstance::PJRT_Event_OnReady
2025-10-27 21:34:15.500 (  20.349s) [        9C771B80]      event_instance.cc:172      1| EventInstance::PJRT_Event_Destroy
2025-10-27 21:34:15.500 (  20.349s) [        9C771B80]     device_instance.cc:82       1| DeviceInstance::PJRT_Device_DefaultMemory
2025-10-27 21:34:15.500 (  20.349s) [        9C771B80]     client_instance.cc:659      1| ClientInstance::PJRT_Client_BufferFromHostBuffer
2025-10-27 21:34:15.500 (  20.349s) [        9C771B80]     memory_instance.cc:57       1| MemoryInstance::getDevice
[32m                 Always[0m | [1m[38;5;208m WARNING[0m | User provided a tensor of data type: Int64 which is not supported by runtime/ttnn. Casting to: Int32, this may impact throughput and the integrity of the data.
2025-10-27 21:34:15.500 (  20.349s) [        9C771B80]      event_instance.cc:223      1| EventInstance::PJRT_Event_OnReady
2025-10-27 21:34:15.500 (  20.349s) [        9C771B80]      event_instance.cc:172      1| EventInstance::PJRT_Event_Destroy
2025-10-27 21:34:15.500 (  20.349s) [        9C771B80]     device_instance.cc:82       1| DeviceInstance::PJRT_Device_DefaultMemory
2025-10-27 21:34:15.500 (  20.349s) [        9C771B80]     client_instance.cc:659      1| ClientInstance::PJRT_Client_BufferFromHostBuffer
2025-10-27 21:34:15.500 (  20.349s) [        9C771B80]     memory_instance.cc:57       1| MemoryInstance::getDevice
[32m                 Always[0m | [1m[38;5;208m WARNING[0m | User provided a tensor of data type: Int64 which is not supported by runtime/ttnn. Casting to: Int32, this may impact throughput and the integrity of the data.
2025-10-27 21:34:15.500 (  20.349s) [        9C771B80]      event_instance.cc:223      1| EventInstance::PJRT_Event_OnReady
2025-10-27 21:34:15.500 (  20.349s) [        9C771B80]      event_instance.cc:172      1| EventInstance::PJRT_Event_Destroy
2025-10-27 21:34:15.500 (  20.349s) [        9C771B80]     device_instance.cc:82       1| DeviceInstance::PJRT_Device_DefaultMemory
2025-10-27 21:34:15.500 (  20.349s) [        9C771B80]     client_instance.cc:659      1| ClientInstance::PJRT_Client_BufferFromHostBuffer
2025-10-27 21:34:15.500 (  20.349s) [        9C771B80]     memory_instance.cc:57       1| MemoryInstance::getDevice
[32m                 Always[0m | [1m[38;5;208m WARNING[0m | User provided a tensor of data type: Int64 which is not supported by runtime/ttnn. Casting to: Int32, this may impact throughput and the integrity of the data.
…
2025-10-27 21:34:34.388 (  39.237s) [        9C771B80]     buffer_instance.cc:402      1| BufferInstance::PJRT_Buffer_Destroy
2025-10-27 21:34:34.388 (  39.237s) [        9C771B80]     buffer_instance.cc:402      1| BufferInstance::PJRT_Buffer_Destroy
2025-10-27 21:34:34.388 (  39.237s) [        9C771B80]     buffer_instance.cc:402      1| BufferInstance::PJRT_Buffer_Destroy
2025-10-27 21:34:34.388 (  39.237s) [        9C771B80]     buffer_instance.cc:402      1| BufferInstance::PJRT_Buffer_Destroy
2025-10-27 21:34:34.389 (  39.237s) [        9C771B80]     buffer_instance.cc:402      1| BufferInstance::PJRT_Buffer_Destroy
2025-10-27 21:34:34.389 (  39.237s) [        9C771B80]     buffer_instance.cc:402      1| BufferInstance::PJRT_Buffer_Destroy
2025-10-27 21:34:34.389 (  39.237s) [        9C771B80]     buffer_instance.cc:402      1| BufferInstance::PJRT_Buffer_Destroy
2025-10-27 21:34:34.389 (  39.237s) [        9C771B80]     buffer_instance.cc:402      1| BufferInstance::PJRT_Buffer_Destroy
2025-10-27 21:34:34.389 (  39.237s) [        9C771B80]     buffer_instance.cc:402      1| BufferInstance::PJRT_Buffer_Destroy
2025-10-27 21:34:34.389 (  39.237s) [        9C771B80]     buffer_instance.cc:402      1| BufferInstance::PJRT_Buffer_Destroy
2025-10-27 21:34:34.389 (  39.238s) [        9C771B80]     buffer_instance.cc:402      1| BufferInstance::PJRT_Buffer_Destroy
2025-10-27 21:34:34.389 (  39.238s) [        9C771B80]     buffer_instance.cc:402      1| BufferInstance::PJRT_Buffer_Destroy
2025-10-27 21:34:34.389 (  39.238s) [        9C771B80]     buffer_instance.cc:402      1| BufferInstance::PJRT_Buffer_Destroy
2025-10-27 21:34:34.389 (  39.238s) [        9C771B80]     buffer_instance.cc:402      1| BufferInstance::PJRT_Buffer_Destroy
2025-10-27 21:34:34.389 (  39.238s) [        9C771B80]     buffer_instance.cc:402      1| BufferInstance::PJRT_Buffer_Destroy
2025-10-27 21:34:34.390 (  39.238s) [        9C771B80]     buffer_instance.cc:402      1| BufferInstance::PJRT_Buffer_Destroy
2025-10-27 21:34:34.390 (  39.238s) [        9C771B80]     buffer_instance.cc:402      1| BufferInstance::PJRT_Buffer_Destroy
2025-10-27 21:34:34.390 (  39.238s) [        9C771B80]     buffer_instance.cc:402      1| BufferInstance::PJRT_Buffer_Destroy
2025-10-27 21:34:34.390 (  39.238s) [        9C771B80]     buffer_instance.cc:402      1| BufferInstance::PJRT_Buffer_Destroy
2025-10-27 21:34:34.390 (  39.238s) [        9C771B80]     buffer_instance.cc:402      1| BufferInstance::PJRT_Buffer_Destroy
2025-10-27 21:34:34.390 (  39.238s) [        9C771B80]     buffer_instance.cc:402      1| BufferInstance::PJRT_Buffer_Destroy
2025-10-27 21:34:34.390 (  39.238s) [        9C771B80]     buffer_instance.cc:402      1| BufferInstance::PJRT_Buffer_Destroy
2025-10-27 21:34:34.390 (  39.239s) [        9C771B80]     buffer_instance.cc:402      1| BufferInstance::PJRT_Buffer_Destroy
2025-10-27 21:34:34.390 (  39.239s) [        9C771B80]     buffer_instance.cc:402      1| BufferInstance::PJRT_Buffer_Destroy
2025-10-27 21:34:34.390 (  39.239s) [        9C771B80]     buffer_instance.cc:402      1| BufferInstance::PJRT_Buffer_Destroy
2025-10-27 21:34:34.390 (  39.239s) [        9C771B80]     buffer_instance.cc:402      1| BufferInstance::PJRT_Buffer_Destroy
2025-10-27 21:34:34.390 (  39.239s) [        9C771B80]     buffer_instance.cc:402      1| BufferInstance::PJRT_Buffer_Destroy
2025-10-27 21:34:34.390 (  39.239s) [        9C771B80]     buffer_instance.cc:402      1| BufferInstance::PJRT_Buffer_Destroy
2025-10-27 21:34:34.391 (  39.239s) [        9C771B80]     buffer_instance.cc:402      1| BufferInstance::PJRT_Buffer_Destroy
2025-10-27 21:34:34.391 (  39.239s) [        9C771B80]     buffer_instance.cc:402      1| BufferInstance::PJRT_Buffer_Destroy
2025-10-27 21:34:34.391 (  39.239s) [        9C771B80]     buffer_instance.cc:402      1| BufferInstance::PJRT_Buffer_Destroy
2025-10-27 21:34:34.391 (  39.239s) [        9C771B80]     buffer_instance.cc:402      1| BufferInstance::PJRT_Buffer_Destroy
2025-10-27 21:34:34.391 (  39.239s) [        9C771B80]     buffer_instance.cc:402      1| BufferInstance::PJRT_Buffer_Destroy
2025-10-27 21:34:34.391 (  39.239s) [        9C771B80]     buffer_instance.cc:402      1| BufferInstance::PJRT_Buffer_Destroy
2025-10-27 21:34:34.391 (  39.239s) [        9C771B80]     buffer_instance.cc:402      1| BufferInstance::PJRT_Buffer_Destroy
2025-10-27 21:34:34.391 (  39.239s) [        9C771B80]     buffer_instance.cc:402      1| BufferInstance::PJRT_Buffer_Destroy
2025-10-27 21:34:34.391 (  39.239s) [        9C771B80]     buffer_instance.cc:402      1| BufferInstance::PJRT_Buffer_Destroy
2025-10-27 21:34:34.391 (  39.240s) [        9C771B80]     buffer_instance.cc:402      1| BufferInstance::PJRT_Buffer_Destroy
2025-10-27 21:34:34.391 (  39.240s) [        9C771B80]     buffer_instance.cc:402      1| BufferInstance::PJRT_Buffer_Destroy
2025-10-27 21:34:34.391 (  39.240s) [        9C771B80]     buffer_instance.cc:402      1| BufferInstance::PJRT_Buffer_Destroy
2025-10-27 21:34:34.391 (  39.240s) [        9C771B80]     buffer_instance.cc:402      1| BufferInstance::PJRT_Buffer_Destroy
2025-10-27 21:34:34.391 (  39.240s) [        9C771B80]     buffer_instance.cc:402      1| BufferInstance::PJRT_Buffer_Destroy
2025-10-27 21:34:34.391 (  39.240s) [        9C771B80]     buffer_instance.cc:402      1| BufferInstance::PJRT_Buffer_Destroy
2025-10-27 21:34:34.392 (  39.240s) [        9C771B80]     buffer_instance.cc:402      1| BufferInstance::PJRT_Buffer_Destroy
2025-10-27 21:34:34.392 (  39.240s) [        9C771B80]     buffer_instance.cc:402      1| BufferInstance::PJRT_Buffer_Destroy
2025-10-27 21:34:34.392 (  39.240s) [        9C771B80]     buffer_instance.cc:402      1| BufferInstance::PJRT_Buffer_Destroy
2025-10-27 21:34:34.392 (  39.240s) [        9C771B80]     buffer_instance.cc:402      1| BufferInstance::PJRT_Buffer_Destroy
2025-10-27 21:34:34.392 (  39.240s) [        9C771B80]     buffer_instance.cc:402      1| BufferInstance::PJRT_Buffer_Destroy
2025-10-27 21:34:34.392 (  39.240s) [        9C771B80]     buffer_instance.cc:402      1| BufferInstance::PJRT_Buffer_Destroy
2025-10-27 21:34:34.392 (  39.240s) [        9C771B80]     buffer_instance.cc:402      1| BufferInstance::PJRT_Buffer_Destroy
2025-10-27 21:34:34.392 (  39.240s) [        9C771B80]     buffer_instance.cc:402      1| BufferInstance::PJRT_Buffer_Destroy
2025-10-27 21:34:34.392 (  39.240s) [        9C771B80]     buffer_instance.cc:402      1| BufferInstance::PJRT_Buffer_Destroy
2025-10-27 21:34:34.392 (  39.240s) [        9C771B80]     buffer_instance.cc:402      1| BufferInstance::PJRT_Buffer_Destroy
2025-10-27 21:34:34.392 (  39.241s) [        9C771B80]     buffer_instance.cc:402      1| BufferInstance::PJRT_Buffer_Destroy
2025-10-27 21:34:34.392 (  39.241s) [        9C771B80]     buffer_instance.cc:402      1| BufferInstance::PJRT_Buffer_Destroy
2025-10-27 21:34:34.392 (  39.241s) [        9C771B80]     buffer_instance.cc:402      1| BufferInstance::PJRT_Buffer_Destroy
2025-10-27 21:34:34.392 (  39.241s) [        9C771B80]     buffer_instance.cc:402      1| BufferInstance::PJRT_Buffer_Destroy
2025-10-27 21:34:34.392 (  39.241s) [        9C771B80]     buffer_instance.cc:402      1| BufferInstance::PJRT_Buffer_Destroy
2025-10-27 21:34:34.393 (  39.241s) [        9C771B80]     buffer_instance.cc:402      1| BufferInstance::PJRT_Buffer_Destroy
2025-10-27 21:34:34.393 (  39.241s) [        9C771B80]     buffer_instance.cc:402      1| BufferInstance::PJRT_Buffer_Destroy
2025-10-27 21:34:34.393 (  39.241s) [        9C771B80]     buffer_instance.cc:402      1| BufferInstance::PJRT_Buffer_Destroy
2025-10-27 21:34:34.393 (  39.241s) [        9C771B80]     buffer_instance.cc:402      1| BufferInstance::PJRT_Buffer_Destroy
2025-10-27 21:34:34.393 (  39.241s) [        9C771B80]     buffer_instance.cc:402      1| BufferInstance::PJRT_Buffer_Destroy
2025-10-27 21:34:34.393 (  39.241s) [        9C771B80]     buffer_instance.cc:402      1| BufferInstance::PJRT_Buffer_Destroy
2025-10-27 21:34:34.393 (  39.241s) [        9C771B80]     buffer_instance.cc:402      1| BufferInstance::PJRT_Buffer_Destroy
2025-10-27 21:34:34.393 (  39.241s) [        9C771B80]     buffer_instance.cc:402      1| BufferInstance::PJRT_Buffer_Destroy
2025-10-27 21:34:34.393 (  39.241s) [        9C771B80]     buffer_instance.cc:402      1| BufferInstance::PJRT_Buffer_Destroy
2025-10-27 21:34:34.393 (  39.241s) [        9C771B80]     buffer_instance.cc:402      1| BufferInstance::PJRT_Buffer_Destroy
2025-10-27 21:34:34.393 (  39.242s) [        9C771B80]     buffer_instance.cc:402      1| BufferInstance::PJRT_Buffer_Destroy
2025-10-27 21:34:34.393 (  39.242s) [        9C771B80]     buffer_instance.cc:402      1| BufferInstance::PJRT_Buffer_Destroy
2025-10-27 21:34:34.393 (  39.242s) [        9C771B80]     buffer_instance.cc:402      1| BufferInstance::PJRT_Buffer_Destroy
2025-10-27 21:34:34.393 (  39.242s) [        9C771B80]     buffer_instance.cc:402      1| BufferInstance::PJRT_Buffer_Destroy
2025-10-27 21:34:34.393 (  39.242s) [        9C771B80]     buffer_instance.cc:402      1| BufferInstance::PJRT_Buffer_Destroy
2025-10-27 21:34:34.393 (  39.242s) [        9C771B80]     buffer_instance.cc:402      1| BufferInstance::PJRT_Buffer_Destroy
2025-10-27 21:34:34.394 (  39.242s) [        9C771B80]     buffer_instance.cc:402      1| BufferInstance::PJRT_Buffer_Destroy
2025-10-27 21:34:34.394 (  39.242s) [        9C771B80]     buffer_instance.cc:402      1| BufferInstance::PJRT_Buffer_Destroy
2025-10-27 21:34:34.394 (  39.242s) [        9C771B80]     buffer_instance.cc:402      1| BufferInstance::PJRT_Buffer_Destroy
2025-10-27 21:34:34.394 (  39.242s) [        9C771B80]     buffer_instance.cc:402      1| BufferInstance::PJRT_Buffer_Destroy
2025-10-27 21:34:34.394 (  39.242s) [        9C771B80]     buffer_instance.cc:402      1| BufferInstance::PJRT_Buffer_Destroy
2025-10-27 21:34:34.394 (  39.242s) [        9C771B80]     buffer_instance.cc:402      1| BufferInstance::PJRT_Buffer_Destroy
2025-10-27 21:34:34.394 (  39.242s) [        9C771B80]     buffer_instance.cc:402      1| BufferInstance::PJRT_Buffer_Destroy
2025-10-27 21:34:34.394 (  39.242s) [        9C771B80]     buffer_instance.cc:402      1| BufferInstance::PJRT_Buffer_Destroy
2025-10-27 21:34:34.394 (  39.242s) [        9C771B80]     buffer_instance.cc:402      1| BufferInstance::PJRT_Buffer_Destroy
2025-10-27 21:34:34.394 (  39.243s) [        9C771B80]     buffer_instance.cc:402      1| BufferInstance::PJRT_Buffer_Destroy
2025-10-27 21:34:34.394 (  39.243s) [        9C771B80]     buffer_instance.cc:402      1| BufferInstance::PJRT_Buffer_Destroy
2025-10-27 21:34:34.394 (  39.243s) [        9C771B80]     buffer_instance.cc:402      1| BufferInstance::PJRT_Buffer_Destroy
2025-10-27 21:34:34.394 (  39.243s) [        9C771B80]     buffer_instance.cc:402      1| BufferInstance::PJRT_Buffer_Destroy
2025-10-27 21:34:34.394 (  39.243s) [        9C771B80]     buffer_instance.cc:402      1| BufferInstance::PJRT_Buffer_Destroy
2025-10-27 21:34:34.394 (  39.243s) [        9C771B80]     buffer_instance.cc:402      1| BufferInstance::PJRT_Buffer_Destroy
2025-10-27 21:34:34.394 (  39.243s) [        9C771B80]     buffer_instance.cc:402      1| BufferInstance::PJRT_Buffer_Destroy
2025-10-27 21:34:34.394 (  39.243s) [        9C771B80]     buffer_instance.cc:402      1| BufferInstance::PJRT_Buffer_Destroy
2025-10-27 21:34:34.395 (  39.243s) [        9C771B80]     buffer_instance.cc:402      1| BufferInstance::PJRT_Buffer_Destroy
2025-10-27 21:34:34.395 (  39.243s) [        9C771B80]     buffer_instance.cc:402      1| BufferInstance::PJRT_Buffer_Destroy
2025-10-27 21:34:34.395 (  39.243s) [        9C771B80]     buffer_instance.cc:402      1| BufferInstance::PJRT_Buffer_Destroy
2025-10-27 21:34:34.395 (  39.243s) [        9C771B80]     buffer_instance.cc:402      1| BufferInstance::PJRT_Buffer_Destroy
2025-10-27 21:34:34.395 (  39.243s) [        9C771B80]     buffer_instance.cc:402      1| BufferInstance::PJRT_Buffer_Destroy
2025-10-27 21:34:34.395 (  39.243s) [        9C771B80]     buffer_instance.cc:402      1| BufferInstance::PJRT_Buffer_Destroy
2025-10-27 21:34:34.395 (  39.243s) [        9C771B80]     buffer_instance.cc:402      1| BufferInstance::PJRT_Buffer_Destroy
2025-10-27 21:34:34.395 (  39.243s) [        9C771B80]     buffer_instance.cc:402      1| BufferInstance::PJRT_Buffer_Destroy
2025-10-27 21:34:34.395 (  39.243s) [        9C771B80]     buffer_instance.cc:402      1| BufferInstance::PJRT_Buffer_Destroy
2025-10-27 21:34:34.395 (  39.243s) [        9C771B80]     buffer_instance.cc:402      1| BufferInstance::PJRT_Buffer_Destroy
2025-10-27 21:34:34.395 (  39.244s) [        9C771B80]     buffer_instance.cc:402      1| BufferInstance::PJRT_Buffer_Destroy
2025-10-27 21:34:34.395 (  39.244s) [        9C771B80]     buffer_instance.cc:402      1| BufferInstance::PJRT_Buffer_Destroy
2025-10-27 21:34:34.395 (  39.244s) [        9C771B80]     buffer_instance.cc:402      1| BufferInstance::PJRT_Buffer_Destroy
2025-10-27 21:34:34.395 (  39.244s) [        9C771B80]     buffer_instance.cc:402      1| BufferInstance::PJRT_Buffer_Destroy
2025-10-27 21:34:34.395 (  39.244s) [        9C771B80]     buffer_instance.cc:402      1| BufferInstance::PJRT_Buffer_Destroy
2025-10-27 21:34:34.395 (  39.244s) [        9C771B80]     buffer_instance.cc:402      1| BufferInstance::PJRT_Buffer_Destroy
2025-10-27 21:34:34.395 (  39.244s) [        9C771B80]     buffer_instance.cc:402      1| BufferInstance::PJRT_Buffer_Destroy
2025-10-27 21:34:34.395 (  39.244s) [        9C771B80]     buffer_instance.cc:402      1| BufferInstance::PJRT_Buffer_Destroy
2025-10-27 21:34:34.396 (  39.244s) [        9C771B80]     buffer_instance.cc:402      1| BufferInstance::PJRT_Buffer_Destroy
2025-10-27 21:34:34.466 (  39.314s) [        9C771B80]     buffer_instance.cc:402      1| BufferInstance::PJRT_Buffer_Destroy
2025-10-27 21:34:34.544 (  39.392s) [        9C771B80]     buffer_instance.cc:402      1| BufferInstance::PJRT_Buffer_Destroy
2025-10-27 21:34:34.616 (  39.464s) [        9C771B80]     buffer_instance.cc:402      1| BufferInstance::PJRT_Buffer_Destroy
2025-10-27 21:34:34.685 (  39.533s) [        9C771B80]     buffer_instance.cc:402      1| BufferInstance::PJRT_Buffer_Destroy
2025-10-27 21:34:34.753 (  39.602s) [        9C771B80]     buffer_instance.cc:402      1| BufferInstance::PJRT_Buffer_Destroy
2025-10-27 21:34:34.826 (  39.675s) [        9C771B80]     buffer_instance.cc:402      1| BufferInstance::PJRT_Buffer_Destroy
2025-10-27 21:34:34.906 (  39.755s) [        9C771B80]     buffer_instance.cc:402      1| BufferInstance::PJRT_Buffer_Destroy
2025-10-27 21:34:34.976 (  39.825s) [        9C771B80]     buffer_instance.cc:402      1| BufferInstance::PJRT_Buffer_Destroy
2025-10-27 21:34:35.039 (  39.888s) [        9C771B80]     buffer_instance.cc:402      1| BufferInstance::PJRT_Buffer_Destroy
2025-10-27 21:34:35.110 (  39.958s) [        9C771B80]     buffer_instance.cc:402      1| BufferInstance::PJRT_Buffer_Destroy
2025-10-27 21:34:35.186 (  40.034s) [        9C771B80]     buffer_instance.cc:402      1| BufferInstance::PJRT_Buffer_Destroy
2025-10-27 21:34:35.255 (  40.103s) [        9C771B80]     buffer_instance.cc:402      1| BufferInstance::PJRT_Buffer_Destroy
2025-10-27 21:34:35.322 (  40.171s) [        9C771B80]     buffer_instance.cc:402      1| BufferInstance::PJRT_Buffer_Destroy
2025-10-27 21:34:35.393 (  40.241s) [        9C771B80]     buffer_instance.cc:402      1| BufferInstance::PJRT_Buffer_Destroy
2025-10-27 21:34:35.465 (  40.313s) [        9C771B80]     buffer_instance.cc:402      1| BufferInstance::PJRT_Buffer_Destroy
2025-10-27 21:34:35.536 (  40.385s) [        9C771B80]     buffer_instance.cc:402      1| BufferInstance::PJRT_Buffer_Destroy
2025-10-27 21:34:35.605 (  40.454s) [        9C771B80]     buffer_instance.cc:402      1| BufferInstance::PJRT_Buffer_Destroy
2025-10-27 21:34:35.677 (  40.525s) [        9C771B80]     buffer_instance.cc:402      1| BufferInstance::PJRT_Buffer_Destroy
2025-10-27 21:34:35.748 (  40.597s) [        9C771B80]     buffer_instance.cc:402      1| BufferInstance::PJRT_Buffer_Destroy
2025-10-27 21:34:35.817 (  40.665s) [        9C771B80]     buffer_instance.cc:402      1| BufferInstance::PJRT_Buffer_Destroy
2025-10-27 21:34:35.880 (  40.728s) [        9C771B80]     buffer_instance.cc:402      1| BufferInstance::PJRT_Buffer_Destroy
2025-10-27 21:34:35.950 (  40.798s) [        9C771B80]     buffer_instance.cc:402      1| BufferInstance::PJRT_Buffer_Destroy
2025-10-27 21:34:36.020 (  40.868s) [        9C771B80]     buffer_instance.cc:402      1| BufferInstance::PJRT_Buffer_Destroy
2025-10-27 21:34:36.090 (  40.939s) [        9C771B80]     buffer_instance.cc:402      1| BufferInstance::PJRT_Buffer_Destroy
2025-10-27 21:34:36.159 (  41.008s) [        9C771B80]     buffer_instance.cc:402      1| BufferInstance::PJRT_Buffer_Destroy
2025-10-27 21:34:36.230 (  41.079s) [        9C771B80]     buffer_instance.cc:402      1| BufferInstance::PJRT_Buffer_Destroy
2025-10-27 21:34:36.301 (  41.150s) [        9C771B80]     buffer_instance.cc:402      1| BufferInstance::PJRT_Buffer_Destroy
2025-10-27 21:34:36.370 (  41.219s) [        9C771B80]     buffer_instance.cc:402      1| BufferInstance::PJRT_Buffer_Destroy
2025-10-27 21:34:36.448 (  41.296s) [        9C771B80]     buffer_instance.cc:402      1| BufferInstance::PJRT_Buffer_Destroy
2025-10-27 21:34:36.517 (  41.365s) [        9C771B80]     buffer_instance.cc:402      1| BufferInstance::PJRT_Buffer_Destroy
2025-10-27 21:34:36.589 (  41.437s) [        9C771B80]     buffer_instance.cc:402      1| BufferInstance::PJRT_Buffer_Destroy
2025-10-27 21:34:36.657 (  41.506s) [        9C771B80]     buffer_instance.cc:402      1| BufferInstance::PJRT_Buffer_Destroy
2025-10-27 21:34:36.658 (  41.506s) [        9C771B80]     buffer_instance.cc:402      1| BufferInstance::PJRT_Buffer_Destroy
2025-10-27 21:34:36.658 (  41.506s) [        9C771B80]     buffer_instance.cc:402      1| BufferInstance::PJRT_Buffer_Destroy
2025-10-27 21:34:36.658 (  41.507s) [        9C771B80]     buffer_instance.cc:402      1| BufferInstance::PJRT_Buffer_Destroy
2025-10-27 21:34:36.658 (  41.507s) [        9C771B80]     buffer_instance.cc:402      1| BufferInstance::PJRT_Buffer_Destroy
2025-10-27 21:34:36.658 (  41.507s) [        9C771B80]     buffer_instance.cc:402      1| BufferInstance::PJRT_Buffer_Destroy
2025-10-27 21:34:36.659 (  41.507s) [        9C771B80]     buffer_instance.cc:402      1| BufferInstance::PJRT_Buffer_Destroy
2025-10-27 21:34:36.659 (  41.507s) [        9C771B80]     buffer_instance.cc:402      1| BufferInstance::PJRT_Buffer_Destroy
2025-10-27 21:34:36.659 (  41.507s) [        9C771B80]     buffer_instance.cc:402      1| BufferInstance::PJRT_Buffer_Destroy
2025-10-27 21:34:36.659 (  41.507s) [        9C771B80]     buffer_instance.cc:402      1| BufferInstance::PJRT_Buffer_Destroy
2025-10-27 21:34:36.659 (  41.508s) [        9C771B80]     buffer_instance.cc:402      1| BufferInstance::PJRT_Buffer_Destroy
2025-10-27 21:34:36.659 (  41.508s) [        9C771B80]     buffer_instance.cc:402      1| BufferInstance::PJRT_Buffer_Destroy
2025-10-27 21:34:36.659 (  41.508s) [        9C771B80]     buffer_instance.cc:402      1| BufferInstance::PJRT_Buffer_Destroy
2025-10-27 21:34:36.660 (  41.508s) [        9C771B80]     buffer_instance.cc:402      1| BufferInstance::PJRT_Buffer_Destroy
2025-10-27 21:34:36.660 (  41.508s) [        9C771B80]     buffer_instance.cc:402      1| BufferInstance::PJRT_Buffer_Destroy
2025-10-27 21:34:36.660 (  41.508s) [        9C771B80]     buffer_instance.cc:402      1| BufferInstance::PJRT_Buffer_Destroy
2025-10-27 21:34:36.660 (  41.508s) [        9C771B80]     buffer_instance.cc:402      1| BufferInstance::PJRT_Buffer_Destroy
2025-10-27 21:34:36.660 (  41.508s) [        9C771B80]     buffer_instance.cc:402      1| BufferInstance::PJRT_Buffer_Destroy
2025-10-27 21:34:36.660 (  41.508s) [        9C771B80]     buffer_instance.cc:402      1| BufferInstance::PJRT_Buffer_Destroy
2025-10-27 21:34:36.660 (  41.509s) [        9C771B80]     buffer_instance.cc:402      1| BufferInstance::PJRT_Buffer_Destroy
2025-10-27 21:34:36.660 (  41.509s) [        9C771B80]     buffer_instance.cc:402      1| BufferInstance::PJRT_Buffer_Destroy
2025-10-27 21:34:36.660 (  41.509s) [        9C771B80]     buffer_instance.cc:402      1| BufferInstance::PJRT_Buffer_Destroy
2025-10-27 21:34:36.661 (  41.509s) [        9C771B80]     buffer_instance.cc:402      1| BufferInstance::PJRT_Buffer_Destroy
2025-10-27 21:34:36.661 (  41.509s) [        9C771B80]     buffer_instance.cc:402      1| BufferInstance::PJRT_Buffer_Destroy
2025-10-27 21:34:36.661 (  41.509s) [        9C771B80]     buffer_instance.cc:402      1| BufferInstance::PJRT_Buffer_Destroy
2025-10-27 21:34:36.661 (  41.509s) [        9C771B80]     buffer_instance.cc:402      1| BufferInstance::PJRT_Buffer_Destroy
2025-10-27 21:34:36.661 (  41.509s) [        9C771B80]     buffer_instance.cc:402      1| BufferInstance::PJRT_Buffer_Destroy
2025-10-27 21:34:36.661 (  41.509s) [        9C771B80]     buffer_instance.cc:402      1| BufferInstance::PJRT_Buffer_Destroy
2025-10-27 21:34:36.661 (  41.509s) [        9C771B80]     buffer_instance.cc:402      1| BufferInstance::PJRT_Buffer_Destroy
2025-10-27 21:34:36.661 (  41.510s) [        9C771B80]     buffer_instance.cc:402      1| BufferInstance::PJRT_Buffer_Destroy
2025-10-27 21:34:36.661 (  41.510s) [        9C771B80]     buffer_instance.cc:402      1| BufferInstance::PJRT_Buffer_Destroy
2025-10-27 21:34:36.661 (  41.510s) [        9C771B80]     buffer_instance.cc:402      1| BufferInstance::PJRT_Buffer_Destroy
2025-10-27 21:34:36.661 (  41.510s) [        9C771B80]     buffer_instance.cc:402      1| BufferInstance::PJRT_Buffer_Destroy
2025-10-27 21:34:36.661 (  41.510s) [        9C771B80]     buffer_instance.cc:402      1| BufferInstance::PJRT_Buffer_Destroy
2025-10-27 21:34:36.662 (  41.510s) [        9C771B80]     buffer_instance.cc:402      1| BufferInstance::PJRT_Buffer_Destroy
2025-10-27 21:34:36.662 (  41.510s) [        9C771B80]     buffer_instance.cc:402      1| BufferInstance::PJRT_Buffer_Destroy
2025-10-27 21:34:36.662 (  41.510s) [        9C771B80]     buffer_instance.cc:402      1| BufferInstance::PJRT_Buffer_Destroy
2025-10-27 21:34:36.662 (  41.510s) [        9C771B80]     buffer_instance.cc:402      1| BufferInstance::PJRT_Buffer_Destroy
2025-10-27 21:34:36.662 (  41.510s) [        9C771B80]     buffer_instance.cc:402      1| BufferInstance::PJRT_Buffer_Destroy
2025-10-27 21:34:36.662 (  41.510s) [        9C771B80]     buffer_instance.cc:402      1| BufferInstance::PJRT_Buffer_Destroy
2025-10-27 21:34:36.662 (  41.510s) [        9C771B80]     buffer_instance.cc:402      1| BufferInstance::PJRT_Buffer_Destroy
2025-10-27 21:34:36.662 (  41.510s) [        9C771B80]     buffer_instance.cc:402      1| BufferInstance::PJRT_Buffer_Destroy
2025-10-27 21:34:36.662 (  41.510s) [        9C771B80]     buffer_instance.cc:402      1| BufferInstance::PJRT_Buffer_Destroy
2025-10-27 21:34:36.662 (  41.510s) [        9C771B80]     buffer_instance.cc:402      1| BufferInstance::PJRT_Buffer_Destroy
2025-10-27 21:34:36.662 (  41.511s) [        9C771B80]     buffer_instance.cc:402      1| BufferInstance::PJRT_Buffer_Destroy
2025-10-27 21:34:36.662 (  41.511s) [        9C771B80]     buffer_instance.cc:402      1| BufferInstance::PJRT_Buffer_Destroy
2025-10-27 21:34:36.662 (  41.511s) [        9C771B80]     buffer_instance.cc:402      1| BufferInstance::PJRT_Buffer_Destroy
2025-10-27 21:34:36.662 (  41.511s) [        9C771B80]     buffer_instance.cc:402      1| BufferInstance::PJRT_Buffer_Destroy
2025-10-27 21:34:36.662 (  41.511s) [        9C771B80]     buffer_instance.cc:402      1| BufferInstance::PJRT_Buffer_Destroy
2025-10-27 21:34:36.662 (  41.511s) [        9C771B80]     buffer_instance.cc:402      1| BufferInstance::PJRT_Buffer_Destroy
2025-10-27 21:34:36.662 (  41.511s) [        9C771B80]     buffer_instance.cc:402      1| BufferInstance::PJRT_Buffer_Destroy
2025-10-27 21:34:36.662 (  41.511s) [        9C771B80]     buffer_instance.cc:402      1| BufferInstance::PJRT_Buffer_Destroy
2025-10-27 21:34:36.663 (  41.511s) [        9C771B80]     buffer_instance.cc:402      1| BufferInstance::PJRT_Buffer_Destroy
2025-10-27 21:34:36.663 (  41.511s) [        9C771B80]     buffer_instance.cc:402      1| BufferInstance::PJRT_Buffer_Destroy
2025-10-27 21:34:36.663 (  41.511s) [        9C771B80]     buffer_instance.cc:402      1| BufferInstance::PJRT_Buffer_Destroy
2025-10-27 21:34:36.663 (  41.511s) [        9C771B80]     buffer_instance.cc:402      1| BufferInstance::PJRT_Buffer_Destroy
2025-10-27 21:34:36.663 (  41.511s) [        9C771B80]     buffer_instance.cc:402      1| BufferInstance::PJRT_Buffer_Destroy
2025-10-27 21:34:36.663 (  41.511s) [        9C771B80]     buffer_instance.cc:402      1| BufferInstance::PJRT_Buffer_Destroy
2025-10-27 21:34:36.663 (  41.511s) [        9C771B80]     buffer_instance.cc:402      1| BufferInstance::PJRT_Buffer_Destroy
2025-10-27 21:34:36.663 (  41.511s) [        9C771B80]     buffer_instance.cc:402      1| BufferInstance::PJRT_Buffer_Destroy
2025-10-27 21:34:36.663 (  41.511s) [        9C771B80]     buffer_instance.cc:402      1| BufferInstance::PJRT_Buffer_Destroy
2025-10-27 21:34:36.663 (  41.512s) [        9C771B80]     buffer_instance.cc:402      1| BufferInstance::PJRT_Buffer_Destroy
2025-10-27 21:34:36.663 (  41.512s) [        9C771B80]     buffer_instance.cc:402      1| BufferInstance::PJRT_Buffer_Destroy
2025-10-27 21:34:36.663 (  41.512s) [        9C771B80]     buffer_instance.cc:402      1| BufferInstance::PJRT_Buffer_Destroy
2025-10-27 21:34:36.663 (  41.512s) [        9C771B80]     buffer_instance.cc:402      1| BufferInstance::PJRT_Buffer_Destroy
2025-10-27 21:34:36.663 (  41.512s) [        9C771B80]     buffer_instance.cc:402      1| BufferInstance::PJRT_Buffer_Destroy
2025-10-27 21:34:36.663 (  41.512s) [        9C771B80]     buffer_instance.cc:402      1| BufferInstance::PJRT_Buffer_Destroy
2025-10-27 21:34:36.664 (  41.512s) [        9C771B80]     buffer_instance.cc:402      1| BufferInstance::PJRT_Buffer_Destroy
2025-10-27 21:34:36.664 (  41.512s) [        9C771B80]     buffer_instance.cc:402      1| BufferInstance::PJRT_Buffer_Destroy
2025-10-27 21:34:36.664 (  41.512s) [        9C771B80]     buffer_instance.cc:402      1| BufferInstance::PJRT_Buffer_Destroy
2025-10-27 21:34:36.664 (  41.512s) [        9C771B80]     buffer_instance.cc:402      1| BufferInstance::PJRT_Buffer_Destroy
2025-10-27 21:34:36.664 (  41.512s) [        9C771B80]     buffer_instance.cc:402      1| BufferInstance::PJRT_Buffer_Destroy
2025-10-27 21:34:36.664 (  41.512s) [        9C771B80]     buffer_instance.cc:402      1| BufferInstance::PJRT_Buffer_Destroy
2025-10-27 21:34:36.664 (  41.512s) [        9C771B80]     buffer_instance.cc:402      1| BufferInstance::PJRT_Buffer_Destroy
2025-10-27 21:34:36.664 (  41.513s) [        9C771B80]     buffer_instance.cc:402      1| BufferInstance::PJRT_Buffer_Destroy
2025-10-27 21:34:36.664 (  41.513s) [        9C771B80]     buffer_instance.cc:402      1| BufferInstance::PJRT_Buffer_Destroy
2025-10-27 21:34:36.664 (  41.513s) [        9C771B80]     buffer_instance.cc:402      1| BufferInstance::PJRT_Buffer_Destroy
2025-10-27 21:34:36.664 (  41.513s) [        9C771B80]     buffer_instance.cc:402      1| BufferInstance::PJRT_Buffer_Destroy
2025-10-27 21:34:36.665 (  41.513s) [        9C771B80]     buffer_instance.cc:402      1| BufferInstance::PJRT_Buffer_Destroy
2025-10-27 21:34:36.665 (  41.513s) [        9C771B80]     buffer_instance.cc:402      1| BufferInstance::PJRT_Buffer_Destroy
2025-10-27 21:34:36.665 (  41.513s) [        9C771B80]     buffer_instance.cc:402      1| BufferInstance::PJRT_Buffer_Destroy
2025-10-27 21:34:36.665 (  41.513s) [        9C771B80]     buffer_instance.cc:402      1| BufferInstance::PJRT_Buffer_Destroy
2025-10-27 21:34:36.665 (  41.513s) [        9C771B80]     buffer_instance.cc:402      1| BufferInstance::PJRT_Buffer_Destroy
2025-10-27 21:34:36.665 (  41.513s) [        9C771B80]     buffer_instance.cc:402      1| BufferInstance::PJRT_Buffer_Destroy
2025-10-27 21:34:36.665 (  41.513s) [        9C771B80]     buffer_instance.cc:402      1| BufferInstance::PJRT_Buffer_Destroy
2025-10-27 21:34:36.665 (  41.514s) [        9C771B80]     buffer_instance.cc:402      1| BufferInstance::PJRT_Buffer_Destroy
2025-10-27 21:34:36.665 (  41.514s) [        9C771B80]     buffer_instance.cc:402      1| BufferInstance::PJRT_Buffer_Destroy
2025-10-27 21:34:36.665 (  41.514s) [        9C771B80]     buffer_instance.cc:402      1| BufferInstance::PJRT_Buffer_Destroy
2025-10-27 21:34:36.665 (  41.514s) [        9C771B80]     buffer_instance.cc:402      1| BufferInstance::PJRT_Buffer_Destroy
2025-10-27 21:34:36.665 (  41.514s) [        9C771B80]     buffer_instance.cc:402      1| BufferInstance::PJRT_Buffer_Destroy
2025-10-27 21:34:36.666 (  41.514s) [        9C771B80]     buffer_instance.cc:402      1| BufferInstance::PJRT_Buffer_Destroy
2025-10-27 21:34:36.666 (  41.514s) [        9C771B80]     buffer_instance.cc:402      1| BufferInstance::PJRT_Buffer_Destroy
2025-10-27 21:34:36.666 (  41.514s) [        9C771B80]     buffer_instance.cc:402      1| BufferInstance::PJRT_Buffer_Destroy
2025-10-27 21:34:36.666 (  41.514s) [        9C771B80]     buffer_instance.cc:402      1| BufferInstance::PJRT_Buffer_Destroy
2025-10-27 21:34:36.666 (  41.514s) [        9C771B80]     buffer_instance.cc:402      1| BufferInstance::PJRT_Buffer_Destroy
2025-10-27 21:34:36.666 (  41.514s) [        9C771B80]     buffer_instance.cc:402      1| BufferInstance::PJRT_Buffer_Destroy
2025-10-27 21:34:36.666 (  41.515s) [        9C771B80]     buffer_instance.cc:402      1| BufferInstance::PJRT_Buffer_Destroy
2025-10-27 21:34:36.666 (  41.515s) [        9C771B80]     buffer_instance.cc:402      1| BufferInstance::PJRT_Buffer_Destroy
2025-10-27 21:34:36.666 (  41.515s) [        9C771B80]     buffer_instance.cc:402      1| BufferInstance::PJRT_Buffer_Destroy
2025-10-27 21:34:36.666 (  41.515s) [        9C771B80]     buffer_instance.cc:402      1| BufferInstance::PJRT_Buffer_Destroy
2025-10-27 21:34:36.667 (  41.515s) [        9C771B80]     buffer_instance.cc:402      1| BufferInstance::PJRT_Buffer_Destroy
2025-10-27 21:34:36.667 (  41.515s) [        9C771B80]     buffer_instance.cc:402      1| BufferInstance::PJRT_Buffer_Destroy
2025-10-27 21:34:36.667 (  41.515s) [        9C771B80]     buffer_instance.cc:402      1| BufferInstance::PJRT_Buffer_Destroy
2025-10-27 21:34:36.667 (  41.515s) [        9C771B80]     buffer_instance.cc:402      1| BufferInstance::PJRT_Buffer_Destroy
2025-10-27 21:34:36.667 (  41.515s) [        9C771B80]     buffer_instance.cc:402      1| BufferInstance::PJRT_Buffer_Destroy
2025-10-27 21:34:36.667 (  41.515s) [        9C771B80]     buffer_instance.cc:402      1| BufferInstance::PJRT_Buffer_Destroy
2025-10-27 21:34:36.667 (  41.515s) [        9C771B80]     buffer_instance.cc:402      1| BufferInstance::PJRT_Buffer_Destroy
2025-10-27 21:34:36.667 (  41.516s) [        9C771B80]     buffer_instance.cc:402      1| BufferInstance::PJRT_Buffer_Destroy
2025-10-27 21:34:36.667 (  41.516s) [        9C771B80]     buffer_instance.cc:402      1| BufferInstance::PJRT_Buffer_Destroy
2025-10-27 21:34:36.667 (  41.516s) [        9C771B80]     buffer_instance.cc:402      1| BufferInstance::PJRT_Buffer_Destroy
2025-10-27 21:34:36.667 (  41.516s) [        9C771B80]     buffer_instance.cc:402      1| BufferInstance::PJRT_Buffer_Destroy
2025-10-27 21:34:36.668 (  41.516s) [        9C771B80]     buffer_instance.cc:402      1| BufferInstance::PJRT_Buffer_Destroy
2025-10-27 21:34:36.668 (  41.516s) [        9C771B80]     buffer_instance.cc:402      1| BufferInstance::PJRT_Buffer_Destroy
2025-10-27 21:34:36.668 (  41.516s) [        9C771B80]     buffer_instance.cc:402      1| BufferInstance::PJRT_Buffer_Destroy
2025-10-27 21:34:36.668 (  41.516s) [        9C771B80]     buffer_instance.cc:402      1| BufferInstance::PJRT_Buffer_Destroy
2025-10-27 21:34:36.668 (  41.516s) [        9C771B80]     buffer_instance.cc:402      1| BufferInstance::PJRT_Buffer_Destroy
2025-10-27 21:34:36.668 (  41.516s) [        9C771B80]     buffer_instance.cc:402      1| BufferInstance::PJRT_Buffer_Destroy
2025-10-27 21:34:36.668 (  41.516s) [        9C771B80]     buffer_instance.cc:402      1| BufferInstance::PJRT_Buffer_Destroy
2025-10-27 21:34:36.668 (  41.516s) [        9C771B80]     buffer_instance.cc:402      1| BufferInstance::PJRT_Buffer_Destroy
2025-10-27 21:34:36.668 (  41.517s) [        9C771B80]     buffer_instance.cc:402      1| BufferInstance::PJRT_Buffer_Destroy
2025-10-27 21:34:36.668 (  41.517s) [        9C771B80]     buffer_instance.cc:402      1| BufferInstance::PJRT_Buffer_Destroy
2025-10-27 21:34:36.668 (  41.517s) [        9C771B80]     buffer_instance.cc:402      1| BufferInstance::PJRT_Buffer_Destroy
2025-10-27 21:34:36.668 (  41.517s) [        9C771B80]     buffer_instance.cc:402      1| BufferInstance::PJRT_Buffer_Destroy
2025-10-27 21:34:36.668 (  41.517s) [        9C771B80]     buffer_instance.cc:402      1| BufferInstance::PJRT_Buffer_Destroy
2025-10-27 21:34:36.669 (  41.517s) [        9C771B80]     buffer_instance.cc:402      1| BufferInstance::PJRT_Buffer_Destroy
2025-10-27 21:34:36.669 (  41.517s) [        9C771B80]     buffer_instance.cc:402      1| BufferInstance::PJRT_Buffer_Destroy
2025-10-27 21:34:36.669 (  41.517s) [        9C771B80]     buffer_instance.cc:402      1| BufferInstance::PJRT_Buffer_Destroy
2025-10-27 21:34:36.669 (  41.517s) [        9C771B80]     buffer_instance.cc:402      1| BufferInstance::PJRT_Buffer_Destroy
2025-10-27 21:34:36.669 (  41.517s) [        9C771B80]     buffer_instance.cc:402      1| BufferInstance::PJRT_Buffer_Destroy
2025-10-27 21:34:36.669 (  41.517s) [        9C771B80]     buffer_instance.cc:402      1| BufferInstance::PJRT_Buffer_Destroy
2025-10-27 21:34:36.669 (  41.517s) [        9C771B80]     buffer_instance.cc:402      1| BufferInstance::PJRT_Buffer_Destroy
2025-10-27 21:34:36.669 (  41.518s) [        9C771B80]     buffer_instance.cc:402      1| BufferInstance::PJRT_Buffer_Destroy
2025-10-27 21:34:36.669 (  41.518s) [        9C771B80]     buffer_instance.cc:402      1| BufferInstance::PJRT_Buffer_Destroy
2025-10-27 21:34:36.670 (  41.518s) [        9C771B80]     buffer_instance.cc:402      1| BufferInstance::PJRT_Buffer_Destroy
2025-10-27 21:34:36.670 (  41.518s) [        9C771B80]     buffer_instance.cc:402      1| BufferInstance::PJRT_Buffer_Destroy
2025-10-27 21:34:36.670 (  41.518s) [        9C771B80]     buffer_instance.cc:402      1| BufferInstance::PJRT_Buffer_Destroy
2025-10-27 21:34:36.670 (  41.518s) [        9C771B80]     buffer_instance.cc:402      1| BufferInstance::PJRT_Buffer_Destroy
2025-10-27 21:34:36.670 (  41.518s) [        9C771B80]     buffer_instance.cc:402      1| BufferInstance::PJRT_Buffer_Destroy
2025-10-27 21:34:36.670 (  41.518s) [        9C771B80]     buffer_instance.cc:402      1| BufferInstance::PJRT_Buffer_Destroy
2025-10-27 21:34:36.670 (  41.518s) [        9C771B80]     buffer_instance.cc:402      1| BufferInstance::PJRT_Buffer_Destroy
2025-10-27 21:34:36.670 (  41.519s) [        9C771B80]     buffer_instance.cc:402      1| BufferInstance::PJRT_Buffer_Destroy
2025-10-27 21:34:36.670 (  41.519s) [        9C771B80]     buffer_instance.cc:402      1| BufferInstance::PJRT_Buffer_Destroy
2025-10-27 21:34:36.670 (  41.519s) [        9C771B80]     buffer_instance.cc:402      1| BufferInstance::PJRT_Buffer_Destroy
2025-10-27 21:34:36.670 (  41.519s) [        9C771B80]     buffer_instance.cc:402      1| BufferInstance::PJRT_Buffer_Destroy
2025-10-27 21:34:36.671 (  41.519s) [        9C771B80]     buffer_instance.cc:402      1| BufferInstance::PJRT_Buffer_Destroy
2025-10-27 21:34:36.671 (  41.519s) [        9C771B80]     buffer_instance.cc:402      1| BufferInstance::PJRT_Buffer_Destroy
2025-10-27 21:34:36.671 (  41.519s) [        9C771B80]     buffer_instance.cc:402      1| BufferInstance::PJRT_Buffer_Destroy
2025-10-27 21:34:36.671 (  41.519s) [        9C771B80]     buffer_instance.cc:402      1| BufferInstance::PJRT_Buffer_Destroy
2025-10-27 21:34:36.671 (  41.519s) [        9C771B80]     buffer_instance.cc:402      1| BufferInstance::PJRT_Buffer_Destroy
2025-10-27 21:34:36.671 (  41.519s) [        9C771B80]     buffer_instance.cc:402      1| BufferInstance::PJRT_Buffer_Destroy
2025-10-27 21:34:36.671 (  41.519s) [        9C771B80]     buffer_instance.cc:402      1| BufferInstance::PJRT_Buffer_Destroy
2025-10-27 21:34:36.671 (  41.519s) [        9C771B80]     buffer_instance.cc:402      1| BufferInstance::PJRT_Buffer_Destroy
2025-10-27 21:34:36.671 (  41.520s) [        9C771B80]     buffer_instance.cc:402      1| BufferInstance::PJRT_Buffer_Destroy
2025-10-27 21:34:36.671 (  41.520s) [        9C771B80]     buffer_instance.cc:402      1| BufferInstance::PJRT_Buffer_Destroy
2025-10-27 21:34:36.671 (  41.520s) [        9C771B80]     buffer_instance.cc:402      1| BufferInstance::PJRT_Buffer_Destroy
2025-10-27 21:34:36.671 (  41.520s) [        9C771B80]     buffer_instance.cc:402      1| BufferInstance::PJRT_Buffer_Destroy
2025-10-27 21:34:36.672 (  41.520s) [        9C771B80]     buffer_instance.cc:402      1| BufferInstance::PJRT_Buffer_Destroy
2025-10-27 21:34:36.672 (  41.520s) [        9C771B80]     buffer_instance.cc:402      1| BufferInstance::PJRT_Buffer_Destroy
2025-10-27 21:34:36.672 (  41.520s) [        9C771B80]     buffer_instance.cc:402      1| BufferInstance::PJRT_Buffer_Destroy
2025-10-27 21:34:36.672 (  41.520s) [        9C771B80]     buffer_instance.cc:402      1| BufferInstance::PJRT_Buffer_Destroy
2025-10-27 21:34:36.672 (  41.520s) [        9C771B80]     buffer_instance.cc:402      1| BufferInstance::PJRT_Buffer_Destroy
2025-10-27 21:34:36.672 (  41.520s) [        9C771B80]     buffer_instance.cc:402      1| BufferInstance::PJRT_Buffer_Destroy
2025-10-27 21:34:36.672 (  41.520s) [        9C771B80]     buffer_instance.cc:402      1| BufferInstance::PJRT_Buffer_Destroy
2025-10-27 21:34:36.672 (  41.521s) [        9C771B80]     buffer_instance.cc:402      1| BufferInstance::PJRT_Buffer_Destroy
2025-10-27 21:34:36.672 (  41.521s) [        9C771B80]     buffer_instance.cc:402      1| BufferInstance::PJRT_Buffer_Destroy
2025-10-27 21:34:36.672 (  41.521s) [        9C771B80]     buffer_instance.cc:402      1| BufferInstance::PJRT_Buffer_Destroy
2025-10-27 21:34:36.672 (  41.521s) [        9C771B80]     buffer_instance.cc:402      1| BufferInstance::PJRT_Buffer_Destroy
2025-10-27 21:34:36.672 (  41.521s) [        9C771B80]     buffer_instance.cc:402      1| BufferInstance::PJRT_Buffer_Destroy
2025-10-27 21:34:36.673 (  41.521s) [        9C771B80]     buffer_instance.cc:402      1| BufferInstance::PJRT_Buffer_Destroy
2025-10-27 21:34:36.673 (  41.521s) [        9C771B80]     buffer_instance.cc:402      1| BufferInstance::PJRT_Buffer_Destroy
2025-10-27 21:34:36.673 (  41.521s) [        9C771B80]     buffer_instance.cc:402      1| BufferInstance::PJRT_Buffer_Destroy
2025-10-27 21:34:36.673 (  41.521s) [        9C771B80]     buffer_instance.cc:402      1| BufferInstance::PJRT_Buffer_Destroy
2025-10-27 21:34:36.673 (  41.521s) [        9C771B80]     buffer_instance.cc:402      1| BufferInstance::PJRT_Buffer_Destroy
2025-10-27 21:34:36.673 (  41.521s) [        9C771B80]     buffer_instance.cc:402      1| BufferInstance::PJRT_Buffer_Destroy
2025-10-27 21:34:36.673 (  41.522s) [        9C771B80]     buffer_instance.cc:402      1| BufferInstance::PJRT_Buffer_Destroy
2025-10-27 21:34:36.673 (  41.522s) [        9C771B80]     buffer_instance.cc:402      1| BufferInstance::PJRT_Buffer_Destroy
2025-10-27 21:34:36.673 (  41.522s) [        9C771B80]     buffer_instance.cc:402      1| BufferInstance::PJRT_Buffer_Destroy
2025-10-27 21:34:36.673 (  41.522s) [        9C771B80]     buffer_instance.cc:402      1| BufferInstance::PJRT_Buffer_Destroy
2025-10-27 21:34:36.674 (  41.522s) [        9C771B80]     buffer_instance.cc:402      1| BufferInstance::PJRT_Buffer_Destroy
2025-10-27 21:34:36.674 (  41.522s) [        9C771B80]     buffer_instance.cc:402      1| BufferInstance::PJRT_Buffer_Destroy
2025-10-27 21:34:36.674 (  41.522s) [        9C771B80]     buffer_instance.cc:402      1| BufferInstance::PJRT_Buffer_Destroy
2025-10-27 21:34:36.674 (  41.522s) [        9C771B80]     buffer_instance.cc:402      1| BufferInstance::PJRT_Buffer_Destroy
2025-10-27 21:34:36.674 (  41.522s) [        9C771B80]     buffer_instance.cc:402      1| BufferInstance::PJRT_Buffer_Destroy
2025-10-27 21:34:36.674 (  41.522s) [        9C771B80]     buffer_instance.cc:402      1| BufferInstance::PJRT_Buffer_Destroy
2025-10-27 21:34:36.674 (  41.523s) [        9C771B80]     buffer_instance.cc:402      1| BufferInstance::PJRT_Buffer_Destroy
2025-10-27 21:34:36.674 (  41.523s) [        9C771B80]     buffer_instance.cc:402      1| BufferInstance::PJRT_Buffer_Destroy
2025-10-27 21:34:36.674 (  41.523s) [        9C771B80]     buffer_instance.cc:402      1| BufferInstance::PJRT_Buffer_Destroy
2025-10-27 21:34:36.674 (  41.523s) [        9C771B80]     buffer_instance.cc:402      1| BufferInstance::PJRT_Buffer_Destroy
2025-10-27 21:34:36.674 (  41.523s) [        9C771B80]     buffer_instance.cc:402      1| BufferInstance::PJRT_Buffer_Destroy
2025-10-27 21:34:36.675 (  41.523s) [        9C771B80]     buffer_instance.cc:402      1| BufferInstance::PJRT_Buffer_Destroy
2025-10-27 21:34:36.675 (  41.523s) [        9C771B80]     buffer_instance.cc:402      1| BufferInstance::PJRT_Buffer_Destroy
2025-10-27 21:34:36.675 (  41.523s) [        9C771B80]     buffer_instance.cc:402      1| BufferInstance::PJRT_Buffer_Destroy
2025-10-27 21:34:36.675 (  41.523s) [        9C771B80]     buffer_instance.cc:402      1| BufferInstance::PJRT_Buffer_Destroy
2025-10-27 21:34:36.675 (  41.523s) [        9C771B80]     buffer_instance.cc:402      1| BufferInstance::PJRT_Buffer_Destroy
2025-10-27 21:34:36.675 (  41.523s) [        9C771B80]     buffer_instance.cc:402      1| BufferInstance::PJRT_Buffer_Destroy
2025-10-27 21:34:36.675 (  41.524s) [        9C771B80]     buffer_instance.cc:402      1| BufferInstance::PJRT_Buffer_Destroy
2025-10-27 21:34:36.675 (  41.524s) [        9C771B80]     buffer_instance.cc:402      1| BufferInstance::PJRT_Buffer_Destroy
2025-10-27 21:34:36.675 (  41.524s) [        9C771B80]     buffer_instance.cc:402      1| BufferInstance::PJRT_Buffer_Destroy
2025-10-27 21:34:36.675 (  41.524s) [        9C771B80]     buffer_instance.cc:402      1| BufferInstance::PJRT_Buffer_Destroy
2025-10-27 21:34:36.676 (  41.524s) [        9C771B80]     buffer_instance.cc:402      1| BufferInstance::PJRT_Buffer_Destroy
2025-10-27 21:34:36.676 (  41.524s) [        9C771B80]     buffer_instance.cc:402      1| BufferInstance::PJRT_Buffer_Destroy
2025-10-27 21:34:36.676 (  41.524s) [        9C771B80]     buffer_instance.cc:402      1| BufferInstance::PJRT_Buffer_Destroy
2025-10-27 21:34:36.676 (  41.524s) [        9C771B80]     buffer_instance.cc:402      1| BufferInstance::PJRT_Buffer_Destroy
2025-10-27 21:34:36.676 (  41.524s) [        9C771B80]     buffer_instance.cc:402      1| BufferInstance::PJRT_Buffer_Destroy
2025-10-27 21:34:36.676 (  41.524s) [        9C771B80]     buffer_instance.cc:402      1| BufferInstance::PJRT_Buffer_Destroy
2025-10-27 21:34:36.676 (  41.524s) [        9C771B80]     buffer_instance.cc:402      1| BufferInstance::PJRT_Buffer_Destroy
2025-10-27 21:34:36.676 (  41.524s) [        9C771B80]     buffer_instance.cc:402      1| BufferInstance::PJRT_Buffer_Destroy
2025-10-27 21:34:36.676 (  41.525s) [        9C771B80]     buffer_instance.cc:402      1| BufferInstance::PJRT_Buffer_Destroy
2025-10-27 21:34:36.676 (  41.525s) [        9C771B80]     buffer_instance.cc:402      1| BufferInstance::PJRT_Buffer_Destroy
2025-10-27 21:34:36.676 (  41.525s) [        9C771B80]     buffer_instance.cc:402      1| BufferInstance::PJRT_Buffer_Destroy
2025-10-27 21:34:36.676 (  41.525s) [        9C771B80]     buffer_instance.cc:402      1| BufferInstance::PJRT_Buffer_Destroy
2025-10-27 21:34:36.676 (  41.525s) [        9C771B80]     buffer_instance.cc:402      1| BufferInstance::PJRT_Buffer_Destroy
2025-10-27 21:34:36.676 (  41.525s) [        9C771B80]     buffer_instance.cc:402      1| BufferInstance::PJRT_Buffer_Destroy
2025-10-27 21:34:36.677 (  41.525s) [        9C771B80]     buffer_instance.cc:402      1| BufferInstance::PJRT_Buffer_Destroy
2025-10-27 21:34:36.677 (  41.525s) [        9C771B80]     buffer_instance.cc:402      1| BufferInstance::PJRT_Buffer_Destroy
2025-10-27 21:34:36.677 (  41.525s) [        9C771B80]     buffer_instance.cc:402      1| BufferInstance::PJRT_Buffer_Destroy
2025-10-27 21:34:36.677 (  41.525s) [        9C771B80]     buffer_instance.cc:402      1| BufferInstance::PJRT_Buffer_Destroy
2025-10-27 21:34:36.677 (  41.525s) [        9C771B80]     buffer_instance.cc:402      1| BufferInstance::PJRT_Buffer_Destroy
2025-10-27 21:34:36.677 (  41.525s) [        9C771B80]     buffer_instance.cc:402      1| BufferInstance::PJRT_Buffer_Destroy
2025-10-27 21:34:36.677 (  41.525s) [        9C771B80]     buffer_instance.cc:402      1| BufferInstance::PJRT_Buffer_Destroy
2025-10-27 21:34:36.677 (  41.526s) [        9C771B80]     buffer_instance.cc:402      1| BufferInstance::PJRT_Buffer_Destroy
2025-10-27 21:34:36.677 (  41.526s) [        9C771B80]     buffer_instance.cc:402      1| BufferInstance::PJRT_Buffer_Destroy
2025-10-27 21:34:36.677 (  41.526s) [        9C771B80]     buffer_instance.cc:402      1| BufferInstance::PJRT_Buffer_Destroy
2025-10-27 21:34:36.677 (  41.526s) [        9C771B80]     buffer_instance.cc:402      1| BufferInstance::PJRT_Buffer_Destroy
2025-10-27 21:34:36.711 (  41.560s) [        9C771B80]     buffer_instance.cc:402      1| BufferInstance::PJRT_Buffer_Destroy
2025-10-27 21:34:36.716 (  41.565s) [        9C771B80]     buffer_instance.cc:402      1| BufferInstance::PJRT_Buffer_Destroy
2025-10-27 21:34:36.722 (  41.570s) [        9C771B80]     buffer_instance.cc:402      1| BufferInstance::PJRT_Buffer_Destroy
2025-10-27 21:34:36.727 (  41.575s) [        9C771B80]     buffer_instance.cc:402      1| BufferInstance::PJRT_Buffer_Destroy
2025-10-27 21:34:36.732 (  41.580s) [        9C771B80]     buffer_instance.cc:402      1| BufferInstance::PJRT_Buffer_Destroy
2025-10-27 21:34:36.737 (  41.585s) [        9C771B80]     buffer_instance.cc:402      1| BufferInstance::PJRT_Buffer_Destroy
2025-10-27 21:34:36.742 (  41.590s) [        9C771B80]     buffer_instance.cc:402      1| BufferInstance::PJRT_Buffer_Destroy
2025-10-27 21:34:36.746 (  41.594s) [        9C771B80]     buffer_instance.cc:402      1| BufferInstance::PJRT_Buffer_Destroy
2025-10-27 21:34:36.751 (  41.599s) [        9C771B80]     buffer_instance.cc:402      1| BufferInstance::PJRT_Buffer_Destroy
2025-10-27 21:34:36.756 (  41.604s) [        9C771B80]     buffer_instance.cc:402      1| BufferInstance::PJRT_Buffer_Destroy
2025-10-27 21:34:36.761 (  41.609s) [        9C771B80]     buffer_instance.cc:402      1| BufferInstance::PJRT_Buffer_Destroy
2025-10-27 21:34:36.766 (  41.614s) [        9C771B80]     buffer_instance.cc:402      1| BufferInstance::PJRT_Buffer_Destroy
2025-10-27 21:34:36.771 (  41.620s) [        9C771B80]     buffer_instance.cc:402      1| BufferInstance::PJRT_Buffer_Destroy
2025-10-27 21:34:36.777 (  41.625s) [        9C771B80]     buffer_instance.cc:402      1| BufferInstance::PJRT_Buffer_Destroy
2025-10-27 21:34:36.782 (  41.630s) [        9C771B80]     buffer_instance.cc:402      1| BufferInstance::PJRT_Buffer_Destroy
2025-10-27 21:34:36.787 (  41.636s) [        9C771B80]     buffer_instance.cc:402      1| BufferInstance::PJRT_Buffer_Destroy
2025-10-27 21:34:36.792 (  41.640s) [        9C771B80]     buffer_instance.cc:402      1| BufferInstance::PJRT_Buffer_Destroy
2025-10-27 21:34:36.798 (  41.646s) [        9C771B80]     buffer_instance.cc:402      1| BufferInstance::PJRT_Buffer_Destroy
2025-10-27 21:34:36.803 (  41.651s) [        9C771B80]     buffer_instance.cc:402      1| BufferInstance::PJRT_Buffer_Destroy
2025-10-27 21:34:36.808 (  41.656s) [        9C771B80]     buffer_instance.cc:402      1| BufferInstance::PJRT_Buffer_Destroy
2025-10-27 21:34:36.813 (  41.661s) [        9C771B80]     buffer_instance.cc:402      1| BufferInstance::PJRT_Buffer_Destroy
2025-10-27 21:34:36.818 (  41.667s) [        9C771B80]     buffer_instance.cc:402      1| BufferInstance::PJRT_Buffer_Destroy
2025-10-27 21:34:36.823 (  41.672s) [        9C771B80]     buffer_instance.cc:402      1| BufferInstance::PJRT_Buffer_Destroy
2025-10-27 21:34:36.828 (  41.676s) [        9C771B80]     buffer_instance.cc:402      1| BufferInstance::PJRT_Buffer_Destroy
2025-10-27 21:34:36.831 (  41.680s) [        9C771B80]     buffer_instance.cc:402      1| BufferInstance::PJRT_Buffer_Destroy
2025-10-27 21:34:36.836 (  41.685s) [        9C771B80]     buffer_instance.cc:402      1| BufferInstance::PJRT_Buffer_Destroy
2025-10-27 21:34:36.839 (  41.688s) [        9C771B80]     buffer_instance.cc:402      1| BufferInstance::PJRT_Buffer_Destroy
2025-10-27 21:34:36.843 (  41.691s) [        9C771B80]     buffer_instance.cc:402      1| BufferInstance::PJRT_Buffer_Destroy
2025-10-27 21:34:36.849 (  41.697s) [        9C771B80]     buffer_instance.cc:402      1| BufferInstance::PJRT_Buffer_Destroy
2025-10-27 21:34:36.855 (  41.703s) [        9C771B80]     buffer_instance.cc:402      1| BufferInstance::PJRT_Buffer_Destroy
2025-10-27 21:34:36.859 (  41.708s) [        9C771B80]     buffer_instance.cc:402      1| BufferInstance::PJRT_Buffer_Destroy
2025-10-27 21:34:36.864 (  41.713s) [        9C771B80]     buffer_instance.cc:402      1| BufferInstance::PJRT_Buffer_Destroy
