WARNING:root:Defaulting to PJRT_DEVICE=CPU
Using TT-Metal from the source tree: /localdev/hshah/tt-xla/third_party/tt-mlir/src/tt-mlir/third_party/tt-metal/src/tt-metal
WARNING: TT plugin is setting XLA_STABLEHLO_COMPILE to 1. This is required for TT PJRT plugin to work correctly.
============================= test session starts ==============================
platform linux -- Python 3.11.14, pytest-8.4.2, pluggy-1.6.0 -- /localdev/hshah/tt-xla/venv/bin/python
cachedir: .pytest_cache
rootdir: /localdev/hshah/tt-xla
configfile: pytest.ini
plugins: anyio-4.11.0, jaxtyping-0.3.3, forked-1.6.0, split-0.10.0
collecting ... Workaround to exclude model: suryaocr from discovery. Issue #1166
collected 1 item

tests/runner/test_models.py::test_all_models[opt/sequence_classification/pytorch-facebook/opt-125m-data_parallel-full-inference] Some weights of OPTForSequenceClassification were not initialized from the model checkpoint at facebook/opt-125m and are newly initialized: ['score.weight']
You should probably TRAIN this model on a down-stream task to be able to use it for predictions and inference.
2025-10-28 19:04:40.376 (   0.000s) [        2AFB8480]   plugin_attributes.cc:58       1| PluginAttributes::PJRT_Plugin_Initialize
2025-10-28 19:04:40.376 (   0.000s) [        2AFB8480]     client_instance.cc:481      1| ClientInstance::PJRT_Client_Create
2025-10-28 19:04:40.384 (   0.008s) [        2AFB8480]     client_instance.cc:44       1| ClientInstance::ClientInstance
2025-10-28 19:04:40.384 (   0.008s) [        2AFB8480]     client_instance.cc:73       1| ClientInstance::Initialize
2025-10-28 19:04:53.191 (  12.815s) [        2AFB8480]              stubs.inc:103   WARN| STUB: PJRT_Client_TopologyDescription
2025-10-28 19:04:53.191 (  12.815s) [        2AFB8480]      error_instance.cc:52       1| ErrorInstance::PJRT_Error_Message
2025-10-28 19:04:53.191 (  12.815s) [        2AFB8480]      error_instance.cc:61       1| ErrorInstance::PJRT_Error_GetCode
2025-10-28 19:04:53.191 (  12.815s) [        2AFB8480]      error_instance.cc:46       1| ErrorInstance::PJRT_Error_Destroy
2025-10-28 19:04:53.191 (  12.815s) [        2AFB8480]     client_instance.cc:529      1| ClientInstance::PJRT_Client_PlatformVersion
2025-10-28 19:04:53.191 (  12.815s) [        2AFB8480]     client_instance.cc:510      1| ClientInstance::PJRT_Client_PlatformName
2025-10-28 19:04:53.191 (  12.815s) [        2AFB8480]     client_instance.cc:540      1| ClientInstance::PJRT_Client_Devices
2025-10-28 19:04:53.191 (  12.815s) [        2AFB8480]     device_instance.cc:44       1| DeviceInstance::PJRT_Device_GetDescription
2025-10-28 19:04:53.191 (  12.815s) [        2AFB8480]  device_description.cc:63       1| DeviceDescription::PJRT_DeviceDescription_Attributes
2025-10-28 19:04:53.191 (  12.815s) [        2AFB8480]     device_instance.cc:44       1| DeviceInstance::PJRT_Device_GetDescription
2025-10-28 19:04:53.191 (  12.815s) [        2AFB8480]  device_description.cc:63       1| DeviceDescription::PJRT_DeviceDescription_Attributes
2025-10-28 19:04:53.191 (  12.815s) [        2AFB8480]     device_instance.cc:44       1| DeviceInstance::PJRT_Device_GetDescription
2025-10-28 19:04:53.191 (  12.815s) [        2AFB8480]  device_description.cc:63       1| DeviceDescription::PJRT_DeviceDescription_Attributes
2025-10-28 19:04:53.191 (  12.815s) [        2AFB8480]     device_instance.cc:44       1| DeviceInstance::PJRT_Device_GetDescription
2025-10-28 19:04:53.191 (  12.815s) [        2AFB8480]  device_description.cc:63       1| DeviceDescription::PJRT_DeviceDescription_Attributes
2025-10-28 19:04:53.191 (  12.815s) [        2AFB8480]     device_instance.cc:44       1| DeviceInstance::PJRT_Device_GetDescription
2025-10-28 19:04:53.191 (  12.815s) [        2AFB8480]  device_description.cc:63       1| DeviceDescription::PJRT_DeviceDescription_Attributes
2025-10-28 19:04:53.191 (  12.815s) [        2AFB8480]     device_instance.cc:44       1| DeviceInstance::PJRT_Device_GetDescription
2025-10-28 19:04:53.191 (  12.815s) [        2AFB8480]  device_description.cc:63       1| DeviceDescription::PJRT_DeviceDescription_Attributes
2025-10-28 19:04:53.191 (  12.815s) [        2AFB8480]     device_instance.cc:44       1| DeviceInstance::PJRT_Device_GetDescription
2025-10-28 19:04:53.191 (  12.815s) [        2AFB8480]  device_description.cc:63       1| DeviceDescription::PJRT_DeviceDescription_Attributes
2025-10-28 19:04:53.191 (  12.815s) [        2AFB8480]     device_instance.cc:44       1| DeviceInstance::PJRT_Device_GetDescription
2025-10-28 19:04:53.191 (  12.815s) [        2AFB8480]  device_description.cc:63       1| DeviceDescription::PJRT_DeviceDescription_Attributes
2025-10-28 19:04:53.191 (  12.815s) [        2AFB8480]     client_instance.cc:553      1| ClientInstance::PJRT_Client_AddressableDevices
2025-10-28 19:04:53.191 (  12.815s) [        2AFB8480]     client_instance.cc:603      1| ClientInstance::PJRT_Client_AddressableMemories
2025-10-28 19:04:53.191 (  12.815s) [        2AFB8480]     device_instance.cc:71       1| DeviceInstance::PJRT_Device_AddressableMemories
2025-10-28 19:04:53.191 (  12.815s) [        2AFB8480]     device_instance.cc:71       1| DeviceInstance::PJRT_Device_AddressableMemories
2025-10-28 19:04:53.191 (  12.815s) [        2AFB8480]     device_instance.cc:71       1| DeviceInstance::PJRT_Device_AddressableMemories
2025-10-28 19:04:53.191 (  12.815s) [        2AFB8480]     device_instance.cc:71       1| DeviceInstance::PJRT_Device_AddressableMemories
2025-10-28 19:04:53.191 (  12.815s) [        2AFB8480]     device_instance.cc:71       1| DeviceInstance::PJRT_Device_AddressableMemories
2025-10-28 19:04:53.191 (  12.815s) [        2AFB8480]     device_instance.cc:71       1| DeviceInstance::PJRT_Device_AddressableMemories
2025-10-28 19:04:53.191 (  12.815s) [        2AFB8480]     device_instance.cc:71       1| DeviceInstance::PJRT_Device_AddressableMemories
2025-10-28 19:04:53.191 (  12.815s) [        2AFB8480]     device_instance.cc:71       1| DeviceInstance::PJRT_Device_AddressableMemories
2025-10-28 19:04:53.191 (  12.815s) [        2AFB8480]     memory_instance.cc:124      1| MemoryInstance::PJRT_Memory_AddressableByDevices
2025-10-28 19:04:53.191 (  12.815s) [        2AFB8480]     memory_instance.cc:124      1| MemoryInstance::PJRT_Memory_AddressableByDevices
2025-10-28 19:04:53.191 (  12.815s) [        2AFB8480]     memory_instance.cc:124      1| MemoryInstance::PJRT_Memory_AddressableByDevices
2025-10-28 19:04:53.191 (  12.815s) [        2AFB8480]     memory_instance.cc:124      1| MemoryInstance::PJRT_Memory_AddressableByDevices
2025-10-28 19:04:53.191 (  12.815s) [        2AFB8480]     memory_instance.cc:124      1| MemoryInstance::PJRT_Memory_AddressableByDevices
2025-10-28 19:04:53.191 (  12.815s) [        2AFB8480]     memory_instance.cc:124      1| MemoryInstance::PJRT_Memory_AddressableByDevices
2025-10-28 19:04:53.191 (  12.815s) [        2AFB8480]     memory_instance.cc:124      1| MemoryInstance::PJRT_Memory_AddressableByDevices
2025-10-28 19:04:53.191 (  12.815s) [        2AFB8480]     memory_instance.cc:124      1| MemoryInstance::PJRT_Memory_AddressableByDevices
2025-10-28 19:04:53.191 (  12.815s) [        2AFB8480]     memory_instance.cc:124      1| MemoryInstance::PJRT_Memory_AddressableByDevices
2025-10-28 19:04:53.191 (  12.815s) [        2AFB8480]   plugin_attributes.cc:64       1| PluginAttributes::PJRT_Plugin_Attributes
2025-10-28 19:04:53.191 (  12.815s) [        2AFB8480]  device_description.cc:44       1| DeviceDescription::PJRT_DeviceDescription_Id
2025-10-28 19:04:53.191 (  12.815s) [        2AFB8480]  device_description.cc:44       1| DeviceDescription::PJRT_DeviceDescription_Id
2025-10-28 19:04:53.191 (  12.815s) [        2AFB8480]  device_description.cc:44       1| DeviceDescription::PJRT_DeviceDescription_Id
2025-10-28 19:04:53.191 (  12.815s) [        2AFB8480]  device_description.cc:44       1| DeviceDescription::PJRT_DeviceDescription_Id
2025-10-28 19:04:53.191 (  12.815s) [        2AFB8480]  device_description.cc:44       1| DeviceDescription::PJRT_DeviceDescription_Id
2025-10-28 19:04:53.191 (  12.815s) [        2AFB8480]  device_description.cc:44       1| DeviceDescription::PJRT_DeviceDescription_Id
2025-10-28 19:04:53.191 (  12.815s) [        2AFB8480]  device_description.cc:44       1| DeviceDescription::PJRT_DeviceDescription_Id
2025-10-28 19:04:53.191 (  12.815s) [        2AFB8480]  device_description.cc:44       1| DeviceDescription::PJRT_DeviceDescription_Id
2025-10-28 19:04:53.191 (  12.815s) [        2AFB8480]  device_description.cc:44       1| DeviceDescription::PJRT_DeviceDescription_Id
2025-10-28 19:04:53.191 (  12.815s) [        2AFB8480]  device_description.cc:44       1| DeviceDescription::PJRT_DeviceDescription_Id
2025-10-28 19:04:53.191 (  12.815s) [        2AFB8480]  device_description.cc:44       1| DeviceDescription::PJRT_DeviceDescription_Id
2025-10-28 19:04:53.191 (  12.815s) [        2AFB8480]  device_description.cc:44       1| DeviceDescription::PJRT_DeviceDescription_Id
2025-10-28 19:04:53.191 (  12.815s) [        2AFB8480]  device_description.cc:44       1| DeviceDescription::PJRT_DeviceDescription_Id
2025-10-28 19:04:53.191 (  12.815s) [        2AFB8480]  device_description.cc:44       1| DeviceDescription::PJRT_DeviceDescription_Id
2025-10-28 19:04:53.191 (  12.815s) [        2AFB8480]  device_description.cc:44       1| DeviceDescription::PJRT_DeviceDescription_Id
2025-10-28 19:04:53.191 (  12.815s) [        2AFB8480]  device_description.cc:44       1| DeviceDescription::PJRT_DeviceDescription_Id
2025-10-28 19:04:53.191 (  12.815s) [        2AFB8480]  device_description.cc:44       1| DeviceDescription::PJRT_DeviceDescription_Id
2025-10-28 19:04:53.191 (  12.815s) [        2AFB8480]  device_description.cc:44       1| DeviceDescription::PJRT_DeviceDescription_Id
2025-10-28 19:04:53.191 (  12.815s) [        2AFB8480]  device_description.cc:44       1| DeviceDescription::PJRT_DeviceDescription_Id
2025-10-28 19:04:53.191 (  12.815s) [        2AFB8480]  device_description.cc:44       1| DeviceDescription::PJRT_DeviceDescription_Id
2025-10-28 19:04:53.191 (  12.815s) [        2AFB8480]  device_description.cc:44       1| DeviceDescription::PJRT_DeviceDescription_Id
2025-10-28 19:04:53.191 (  12.815s) [        2AFB8480]  device_description.cc:44       1| DeviceDescription::PJRT_DeviceDescription_Id
2025-10-28 19:04:53.191 (  12.815s) [        2AFB8480]  device_description.cc:44       1| DeviceDescription::PJRT_DeviceDescription_Id
2025-10-28 19:04:53.191 (  12.815s) [        2AFB8480]  device_description.cc:44       1| DeviceDescription::PJRT_DeviceDescription_Id
2025-10-28 19:04:53.191 (  12.815s) [        2AFB8480]  device_description.cc:44       1| DeviceDescription::PJRT_DeviceDescription_Id
2025-10-28 19:04:53.191 (  12.815s) [        2AFB8480]  device_description.cc:44       1| DeviceDescription::PJRT_DeviceDescription_Id
2025-10-28 19:04:53.191 (  12.815s) [        2AFB8480]  device_description.cc:44       1| DeviceDescription::PJRT_DeviceDescription_Id
2025-10-28 19:04:53.191 (  12.815s) [        2AFB8480]  device_description.cc:44       1| DeviceDescription::PJRT_DeviceDescription_Id
2025-10-28 19:04:53.191 (  12.815s) [        2AFB8480]  device_description.cc:44       1| DeviceDescription::PJRT_DeviceDescription_Id
2025-10-28 19:04:53.191 (  12.815s) [        2AFB8480]  device_description.cc:44       1| DeviceDescription::PJRT_DeviceDescription_Id
2025-10-28 19:04:53.191 (  12.815s) [        2AFB8480]  device_description.cc:44       1| DeviceDescription::PJRT_DeviceDescription_Id
2025-10-28 19:04:53.191 (  12.815s) [        2AFB8480]  device_description.cc:44       1| DeviceDescription::PJRT_DeviceDescription_Id
2025-10-28 19:04:53.191 (  12.815s) [        2AFB8480]  device_description.cc:44       1| DeviceDescription::PJRT_DeviceDescription_Id
2025-10-28 19:04:53.191 (  12.815s) [        2AFB8480]  device_description.cc:44       1| DeviceDescription::PJRT_DeviceDescription_Id
2025-10-28 19:04:53.191 (  12.815s) [        2AFB8480]  device_description.cc:44       1| DeviceDescription::PJRT_DeviceDescription_Id
2025-10-28 19:04:53.191 (  12.815s) [        2AFB8480]  device_description.cc:44       1| DeviceDescription::PJRT_DeviceDescription_Id
2025-10-28 19:04:53.191 (  12.815s) [        2AFB8480]  device_description.cc:44       1| DeviceDescription::PJRT_DeviceDescription_Id
2025-10-28 19:04:53.191 (  12.815s) [        2AFB8480]  device_description.cc:44       1| DeviceDescription::PJRT_DeviceDescription_Id
2025-10-28 19:04:53.191 (  12.815s) [        2AFB8480]  device_description.cc:44       1| DeviceDescription::PJRT_DeviceDescription_Id
2025-10-28 19:04:53.191 (  12.815s) [        2AFB8480]  device_description.cc:44       1| DeviceDescription::PJRT_DeviceDescription_Id
2025-10-28 19:04:53.191 (  12.815s) [        2AFB8480]  device_description.cc:44       1| DeviceDescription::PJRT_DeviceDescription_Id
2025-10-28 19:04:53.191 (  12.815s) [        2AFB8480]  device_description.cc:44       1| DeviceDescription::PJRT_DeviceDescription_Id
2025-10-28 19:04:53.191 (  12.815s) [        2AFB8480]  device_description.cc:44       1| DeviceDescription::PJRT_DeviceDescription_Id
2025-10-28 19:04:53.191 (  12.815s) [        2AFB8480]  device_description.cc:44       1| DeviceDescription::PJRT_DeviceDescription_Id
2025-10-28 19:04:53.191 (  12.815s) [        2AFB8480]  device_description.cc:44       1| DeviceDescription::PJRT_DeviceDescription_Id
2025-10-28 19:04:53.191 (  12.815s) [        2AFB8480]  device_description.cc:44       1| DeviceDescription::PJRT_DeviceDescription_Id
2025-10-28 19:04:53.191 (  12.815s) [        2AFB8480]  device_description.cc:44       1| DeviceDescription::PJRT_DeviceDescription_Id
2025-10-28 19:04:53.191 (  12.815s) [        2AFB8480]  device_description.cc:44       1| DeviceDescription::PJRT_DeviceDescription_Id
2025-10-28 19:04:53.191 (  12.815s) [        2AFB8480]  device_description.cc:44       1| DeviceDescription::PJRT_DeviceDescription_Id
2025-10-28 19:04:53.191 (  12.815s) [        2AFB8480]  device_description.cc:44       1| DeviceDescription::PJRT_DeviceDescription_Id
2025-10-28 19:04:53.191 (  12.815s) [        2AFB8480]  device_description.cc:44       1| DeviceDescription::PJRT_DeviceDescription_Id
2025-10-28 19:04:53.191 (  12.815s) [        2AFB8480]  device_description.cc:44       1| DeviceDescription::PJRT_DeviceDescription_Id
2025-10-28 19:04:53.191 (  12.815s) [        2AFB8480]  device_description.cc:44       1| DeviceDescription::PJRT_DeviceDescription_Id
2025-10-28 19:04:53.191 (  12.815s) [        2AFB8480]  device_description.cc:44       1| DeviceDescription::PJRT_DeviceDescription_Id
2025-10-28 19:04:53.191 (  12.815s) [        2AFB8480]  device_description.cc:44       1| DeviceDescription::PJRT_DeviceDescription_Id
2025-10-28 19:04:53.191 (  12.815s) [        2AFB8480]  device_description.cc:44       1| DeviceDescription::PJRT_DeviceDescription_Id
2025-10-28 19:04:53.191 (  12.815s) [        2AFB8480]  device_description.cc:44       1| DeviceDescription::PJRT_DeviceDescription_Id
2025-10-28 19:04:53.191 (  12.815s) [        2AFB8480]  device_description.cc:44       1| DeviceDescription::PJRT_DeviceDescription_Id
2025-10-28 19:04:53.191 (  12.815s) [        2AFB8480]  device_description.cc:44       1| DeviceDescription::PJRT_DeviceDescription_Id
2025-10-28 19:04:53.191 (  12.815s) [        2AFB8480]  device_description.cc:44       1| DeviceDescription::PJRT_DeviceDescription_Id
2025-10-28 19:04:53.191 (  12.815s) [        2AFB8480]  device_description.cc:99       1| DeviceDescription::PJRT_DeviceDescription_ToString
2025-10-28 19:04:53.191 (  12.815s) [        2AFB8480]  device_description.cc:99       1| DeviceDescription::PJRT_DeviceDescription_ToString
2025-10-28 19:04:53.191 (  12.815s) [        2AFB8480]  device_description.cc:99       1| DeviceDescription::PJRT_DeviceDescription_ToString
2025-10-28 19:04:53.191 (  12.815s) [        2AFB8480]  device_description.cc:99       1| DeviceDescription::PJRT_DeviceDescription_ToString
2025-10-28 19:04:53.191 (  12.815s) [        2AFB8480]  device_description.cc:99       1| DeviceDescription::PJRT_DeviceDescription_ToString
2025-10-28 19:04:53.191 (  12.815s) [        2AFB8480]  device_description.cc:99       1| DeviceDescription::PJRT_DeviceDescription_ToString
2025-10-28 19:04:53.191 (  12.815s) [        2AFB8480]  device_description.cc:99       1| DeviceDescription::PJRT_DeviceDescription_ToString
2025-10-28 19:04:53.191 (  12.815s) [        2AFB8480]  device_description.cc:99       1| DeviceDescription::PJRT_DeviceDescription_ToString
2025-10-28 19:04:53.191 (  12.815s) [        2AFB8480]  device_description.cc:44       1| DeviceDescription::PJRT_DeviceDescription_Id
2025-10-28 19:04:53.191 (  12.815s) [        2AFB8480]  device_description.cc:44       1| DeviceDescription::PJRT_DeviceDescription_Id
2025-10-28 19:04:53.191 (  12.815s) [        2AFB8480]  device_description.cc:44       1| DeviceDescription::PJRT_DeviceDescription_Id
2025-10-28 19:04:53.191 (  12.815s) [        2AFB8480]  device_description.cc:44       1| DeviceDescription::PJRT_DeviceDescription_Id
2025-10-28 19:04:53.191 (  12.815s) [        2AFB8480]  device_description.cc:44       1| DeviceDescription::PJRT_DeviceDescription_Id
2025-10-28 19:04:53.191 (  12.815s) [        2AFB8480]  device_description.cc:44       1| DeviceDescription::PJRT_DeviceDescription_Id
2025-10-28 19:04:53.191 (  12.815s) [        2AFB8480]  device_description.cc:44       1| DeviceDescription::PJRT_DeviceDescription_Id
2025-10-28 19:04:53.191 (  12.815s) [        2AFB8480]  device_description.cc:44       1| DeviceDescription::PJRT_DeviceDescription_Id
2025-10-28 19:04:53.191 (  12.815s) [        2AFB8480]  device_description.cc:44       1| DeviceDescription::PJRT_DeviceDescription_Id
2025-10-28 19:04:53.191 (  12.815s) [        2AFB8480]  device_description.cc:44       1| DeviceDescription::PJRT_DeviceDescription_Id
2025-10-28 19:04:53.191 (  12.815s) [        2AFB8480]  device_description.cc:44       1| DeviceDescription::PJRT_DeviceDescription_Id
2025-10-28 19:04:53.191 (  12.815s) [        2AFB8480]  device_description.cc:44       1| DeviceDescription::PJRT_DeviceDescription_Id
2025-10-28 19:04:53.191 (  12.815s) [        2AFB8480]  device_description.cc:44       1| DeviceDescription::PJRT_DeviceDescription_Id
2025-10-28 19:04:53.191 (  12.815s) [        2AFB8480]  device_description.cc:44       1| DeviceDescription::PJRT_DeviceDescription_Id
2025-10-28 19:04:53.191 (  12.815s) [        2AFB8480]  device_description.cc:44       1| DeviceDescription::PJRT_DeviceDescription_Id
2025-10-28 19:04:53.191 (  12.815s) [        2AFB8480]  device_description.cc:44       1| DeviceDescription::PJRT_DeviceDescription_Id
2025-10-28 19:04:56.734 (  16.358s) [        2AFB8480]  device_description.cc:44       1| DeviceDescription::PJRT_DeviceDescription_Id
2025-10-28 19:04:56.734 (  16.358s) [        2AFB8480]  device_description.cc:44       1| DeviceDescription::PJRT_DeviceDescription_Id
2025-10-28 19:04:56.734 (  16.358s) [        2AFB8480]  device_description.cc:44       1| DeviceDescription::PJRT_DeviceDescription_Id
2025-10-28 19:04:56.734 (  16.358s) [        2AFB8480]  device_description.cc:44       1| DeviceDescription::PJRT_DeviceDescription_Id
2025-10-28 19:04:56.734 (  16.358s) [        2AFB8480]  device_description.cc:44       1| DeviceDescription::PJRT_DeviceDescription_Id
2025-10-28 19:04:56.734 (  16.358s) [        2AFB8480]  device_description.cc:44       1| DeviceDescription::PJRT_DeviceDescription_Id
2025-10-28 19:04:56.734 (  16.358s) [        2AFB8480]  device_description.cc:44       1| DeviceDescription::PJRT_DeviceDescription_Id
2025-10-28 19:04:56.734 (  16.358s) [        2AFB8480]  device_description.cc:44       1| DeviceDescription::PJRT_DeviceDescription_Id
2025-10-28 19:04:56.750 (  16.374s) [        2AFB8480]  device_description.cc:44       1| DeviceDescription::PJRT_DeviceDescription_Id
2025-10-28 19:04:56.750 (  16.374s) [        2AFB8480]  device_description.cc:44       1| DeviceDescription::PJRT_DeviceDescription_Id
2025-10-28 19:04:56.750 (  16.374s) [        2AFB8480]  device_description.cc:44       1| DeviceDescription::PJRT_DeviceDescription_Id
2025-10-28 19:04:56.750 (  16.374s) [        2AFB8480]  device_description.cc:44       1| DeviceDescription::PJRT_DeviceDescription_Id
2025-10-28 19:04:56.750 (  16.374s) [        2AFB8480]  device_description.cc:44       1| DeviceDescription::PJRT_DeviceDescription_Id
2025-10-28 19:04:56.750 (  16.374s) [        2AFB8480]  device_description.cc:44       1| DeviceDescription::PJRT_DeviceDescription_Id
2025-10-28 19:04:56.750 (  16.374s) [        2AFB8480]  device_description.cc:44       1| DeviceDescription::PJRT_DeviceDescription_Id
2025-10-28 19:04:56.750 (  16.374s) [        2AFB8480]  device_description.cc:44       1| DeviceDescription::PJRT_DeviceDescription_Id
2025-10-28 19:04:56.751 (  16.375s) [        2AFB8480]     device_instance.cc:82       1| DeviceInstance::PJRT_Device_DefaultMemory
2025-10-28 19:04:56.751 (  16.375s) [        2AFB8480]     client_instance.cc:659      1| ClientInstance::PJRT_Client_BufferFromHostBuffer
2025-10-28 19:04:56.751 (  16.375s) [        2AFB8480]     memory_instance.cc:57       1| MemoryInstance::getDevice
[32m                 Always[0m | [1m[38;5;208m WARNING[0m | User provided a tensor of data type: Int64 which is not supported by runtime/ttnn. Casting to: Int32, this may impact throughput and the integrity of the data.
2025-10-28 19:04:56.751 (  16.375s) [        2AFB8480]      event_instance.cc:223      1| EventInstance::PJRT_Event_OnReady
2025-10-28 19:04:56.751 (  16.375s) [        2AFB8480]      event_instance.cc:172      1| EventInstance::PJRT_Event_Destroy
2025-10-28 19:04:56.751 (  16.375s) [        2AFB8480]     device_instance.cc:82       1| DeviceInstance::PJRT_Device_DefaultMemory
2025-10-28 19:04:56.751 (  16.375s) [        2AFB8480]     client_instance.cc:659      1| ClientInstance::PJRT_Client_BufferFromHostBuffer
2025-10-28 19:04:56.751 (  16.375s) [        2AFB8480]     memory_instance.cc:57       1| MemoryInstance::getDevice
[32m                 Always[0m | [1m[38;5;208m WARNING[0m | User provided a tensor of data type: Int64 which is not supported by runtime/ttnn. Casting to: Int32, this may impact throughput and the integrity of the data.
2025-10-28 19:04:56.751 (  16.375s) [        2AFB8480]      event_instance.cc:223      1| EventInstance::PJRT_Event_OnReady
2025-10-28 19:04:56.751 (  16.375s) [        2AFB8480]      event_instance.cc:172      1| EventInstance::PJRT_Event_Destroy
2025-10-28 19:04:56.751 (  16.375s) [        2AFB8480]     device_instance.cc:82       1| DeviceInstance::PJRT_Device_DefaultMemory
2025-10-28 19:04:56.751 (  16.375s) [        2AFB8480]     client_instance.cc:659      1| ClientInstance::PJRT_Client_BufferFromHostBuffer
2025-10-28 19:04:56.751 (  16.375s) [        2AFB8480]     memory_instance.cc:57       1| MemoryInstance::getDevice
[32m                 Always[0m | [1m[38;5;208m WARNING[0m | User provided a tensor of data type: Int64 which is not supported by runtime/ttnn. Casting to: Int32, this may impact throughput and the integrity of the data.
2025-10-28 19:04:56.751 (  16.375s) [        2AFB8480]      event_instance.cc:223      1| EventInstance::PJRT_Event_OnReady
2025-10-28 19:04:56.751 (  16.375s) [        2AFB8480]      event_instance.cc:172      1| EventInstance::PJRT_Event_Destroy
2025-10-28 19:04:56.751 (  16.375s) [        2AFB8480]     device_instance.cc:82       1| DeviceInstance::PJRT_Device_DefaultMemory
2025-10-28 19:04:56.751 (  16.375s) [        2AFB8480]     client_instance.cc:659      1| ClientInstance::PJRT_Client_BufferFromHostBuffer
2025-10-28 19:04:56.751 (  16.375s) [        2AFB8480]     memory_instance.cc:57       1| MemoryInstance::getDevice
[32m                 Always[0m | [1m[38;5;208m WARNING[0m | User provided a tensor of data type: Int64 which is not supported by runtime/ttnn. Casting to: Int32, this may impact throughput and the integrity of the data.
2025-10-28 19:04:56.751 (  16.376s) [        2AFB8480]      event_instance.cc:223      1| EventInstance::PJRT_Event_OnReady
2025-10-28 19:04:56.751 (  16.376s) [        2AFB8480]      event_instance.cc:172      1| EventInstance::PJRT_Event_Destroy
2025-10-28 19:04:56.752 (  16.376s) [        2AFB8480]     device_instance.cc:82       1| DeviceInstance::PJRT_Device_DefaultMemory
2025-10-28 19:04:56.752 (  16.376s) [        2AFB8480]     client_instance.cc:659      1| ClientInstance::PJRT_Client_BufferFromHostBuffer
2025-10-28 19:04:56.752 (  16.376s) [        2AFB8480]     memory_instance.cc:57       1| MemoryInstance::getDevice
[32m                 Always[0m | [1m[38;5;208m WARNING[0m | User provided a tensor of data type: Int64 which is not supported by runtime/ttnn. Casting to: Int32, this may impact throughput and the integrity of the data.
2025-10-28 19:04:56.752 (  16.376s) [        2AFB8480]      event_instance.cc:223      1| EventInstance::PJRT_Event_OnReady
2025-10-28 19:04:56.752 (  16.376s) [        2AFB8480]      event_instance.cc:172      1| EventInstance::PJRT_Event_Destroy
2025-10-28 19:04:56.752 (  16.376s) [        2AFB8480]     device_instance.cc:82       1| DeviceInstance::PJRT_Device_DefaultMemory
2025-10-28 19:04:56.752 (  16.376s) [        2AFB8480]     client_instance.cc:659      1| ClientInstance::PJRT_Client_BufferFromHostBuffer
2025-10-28 19:04:56.752 (  16.376s) [        2AFB8480]     memory_instance.cc:57       1| MemoryInstance::getDevice
[32m                 Always[0m | [1m[38;5;208m WARNING[0m | User provided a tensor of data type: Int64 which is not supported by runtime/ttnn. Casting to: Int32, this may impact throughput and the integrity of the data.
2025-10-28 19:04:56.752 (  16.376s) [        2AFB8480]      event_instance.cc:223      1| EventInstance::PJRT_Event_OnReady
2025-10-28 19:04:56.752 (  16.376s) [        2AFB8480]      event_instance.cc:172      1| EventInstance::PJRT_Event_Destroy
2025-10-28 19:04:56.752 (  16.376s) [        2AFB8480]     device_instance.cc:82       1| DeviceInstance::PJRT_Device_DefaultMemory
2025-10-28 19:04:56.752 (  16.376s) [        2AFB8480]     client_instance.cc:659      1| ClientInstance::PJRT_Client_BufferFromHostBuffer
2025-10-28 19:04:56.752 (  16.376s) [        2AFB8480]     memory_instance.cc:57       1| MemoryInstance::getDevice
[32m                 Always[0m | [1m[38;5;208m WARNING[0m | User provided a tensor of data type: Int64 which is not supported by runtime/ttnn. Casting to: Int32, this may impact throughput and the integrity of the data.
2025-10-28 19:04:56.752 (  16.376s) [        2AFB8480]      event_instance.cc:223      1| EventInstance::PJRT_Event_OnReady
2025-10-28 19:04:56.752 (  16.376s) [        2AFB8480]      event_instance.cc:172      1| EventInstance::PJRT_Event_Destroy
2025-10-28 19:04:56.752 (  16.376s) [        2AFB8480]     device_instance.cc:82       1| DeviceInstance::PJRT_Device_DefaultMemory
2025-10-28 19:04:56.752 (  16.376s) [        2AFB8480]     client_instance.cc:659      1| ClientInstance::PJRT_Client_BufferFromHostBuffer
2025-10-28 19:04:56.752 (  16.376s) [        2AFB8480]     memory_instance.cc:57       1| MemoryInstance::getDevice
[32m                 Always[0m | [1m[38;5;208m WARNING[0m | User provided a tensor of data type: Int64 which is not supported by runtime/ttnn. Casting to: Int32, this may impact throughput and the integrity of the data.
2025-10-28 19:04:56.752 (  16.376s) [        2AFB8480]      event_instance.cc:223      1| EventInstance::PJRT_Event_OnReady
2025-10-28 19:04:56.752 (  16.376s) [        2AFB8480]      event_instance.cc:172      1| EventInstance::PJRT_Event_Destroy
2025-10-28 19:04:56.752 (  16.376s) [        2AFB8480]  device_description.cc:44       1| DeviceDescription::PJRT_DeviceDescription_Id
2025-10-28 19:04:56.752 (  16.376s) [        2AFB8480]  device_description.cc:44       1| DeviceDescription::PJRT_DeviceDescription_Id
2025-10-28 19:04:56.752 (  16.376s) [        2AFB8480]  device_description.cc:44       1| DeviceDescription::PJRT_DeviceDescription_Id
2025-10-28 19:04:56.752 (  16.376s) [        2AFB8480]  device_description.cc:44       1| DeviceDescription::PJRT_DeviceDescription_Id
2025-10-28 19:04:56.752 (  16.376s) [        2AFB8480]  device_description.cc:44       1| DeviceDescription::PJRT_DeviceDescription_Id
2025-10-28 19:04:56.752 (  16.376s) [        2AFB8480]  device_description.cc:44       1| DeviceDescription::PJRT_DeviceDescription_Id
2025-10-28 19:04:56.752 (  16.376s) [        2AFB8480]  device_description.cc:44       1| DeviceDescription::PJRT_DeviceDescription_Id
2025-10-28 19:04:56.752 (  16.376s) [        2AFB8480]  device_description.cc:44       1| DeviceDescription::PJRT_DeviceDescription_Id
2025-10-28 19:04:56.752 (  16.376s) [        2AFB8480]     device_instance.cc:82       1| DeviceInstance::PJRT_Device_DefaultMemory
2025-10-28 19:04:56.752 (  16.376s) [        2AFB8480]     client_instance.cc:659      1| ClientInstance::PJRT_Client_BufferFromHostBuffer
2025-10-28 19:04:56.752 (  16.376s) [        2AFB8480]     memory_instance.cc:57       1| MemoryInstance::getDevice
[32m                 Always[0m | [1m[38;5;208m WARNING[0m | User provided a tensor of data type: Int64 which is not supported by runtime/ttnn. Casting to: Int32, this may impact throughput and the integrity of the data.
2025-10-28 19:04:56.752 (  16.376s) [        2AFB8480]      event_instance.cc:223      1| EventInstance::PJRT_Event_OnReady
2025-10-28 19:04:56.752 (  16.376s) [        2AFB8480]      event_instance.cc:172      1| EventInstance::PJRT_Event_Destroy
2025-10-28 19:04:56.752 (  16.376s) [        2AFB8480]     device_instance.cc:82       1| DeviceInstance::PJRT_Device_DefaultMemory
2025-10-28 19:04:56.752 (  16.376s) [        2AFB8480]     client_instance.cc:659      1| ClientInstance::PJRT_Client_BufferFromHostBuffer
2025-10-28 19:04:56.752 (  16.376s) [        2AFB8480]     memory_instance.cc:57       1| MemoryInstance::getDevice
[32m                 Always[0m | [1m[38;5;208m WARNING[0m | User provided a tensor of data type: Int64 which is not supported by runtime/ttnn. Casting to: Int32, this may impact throughput and the integrity of the data.
2025-10-28 19:04:56.752 (  16.377s) [        2AFB8480]      event_instance.cc:223      1| EventInstance::PJRT_Event_OnReady
2025-10-28 19:04:56.752 (  16.377s) [        2AFB8480]      event_instance.cc:172      1| EventInstance::PJRT_Event_Destroy
2025-10-28 19:04:56.752 (  16.377s) [        2AFB8480]     device_instance.cc:82       1| DeviceInstance::PJRT_Device_DefaultMemory
2025-10-28 19:04:56.752 (  16.377s) [        2AFB8480]     client_instance.cc:659      1| ClientInstance::PJRT_Client_BufferFromHostBuffer
2025-10-28 19:04:56.752 (  16.377s) [        2AFB8480]     memory_instance.cc:57       1| MemoryInstance::getDevice
[32m                 Always[0m | [1m[38;5;208m WARNING[0m | User provided a tensor of data type: Int64 which is not supported by runtime/ttnn. Casting to: Int32, this may impact throughput and the integrity of the data.
2025-10-28 19:04:56.753 (  16.377s) [        2AFB8480]      event_instance.cc:223      1| EventInstance::PJRT_Event_OnReady
2025-10-28 19:04:56.753 (  16.377s) [        2AFB8480]      event_instance.cc:172      1| EventInstance::PJRT_Event_Destroy
2025-10-28 19:04:56.753 (  16.377s) [        2AFB8480]     device_instance.cc:82       1| DeviceInstance::PJRT_Device_DefaultMemory
2025-10-28 19:04:56.753 (  16.377s) [        2AFB8480]     client_instance.cc:659      1| ClientInstance::PJRT_Client_BufferFromHostBuffer
2025-10-28 19:04:56.753 (  16.377s) [        2AFB8480]     memory_instance.cc:57       1| MemoryInstance::getDevice
[32m                 Always[0m | [1m[38;5;208m WARNING[0m | User provided a tensor of data type: Int64 which is not supported by runtime/ttnn. Casting to: Int32, this may impact throughput and the integrity of the data.
2025-10-28 19:04:56.753 (  16.377s) [        2AFB8480]      event_instance.cc:223      1| EventInstance::PJRT_Event_OnReady
2025-10-28 19:04:56.753 (  16.377s) [        2AFB8480]      event_instance.cc:172      1| EventInstance::PJRT_Event_Destroy
2025-10-28 19:04:56.753 (  16.377s) [        2AFB8480]     device_instance.cc:82       1| DeviceInstance::PJRT_Device_DefaultMemory
2025-10-28 19:04:56.753 (  16.377s) [        2AFB8480]     client_instance.cc:659      1| ClientInstance::PJRT_Client_BufferFromHostBuffer
2025-10-28 19:04:56.753 (  16.377s) [        2AFB8480]     memory_instance.cc:57       1| MemoryInstance::getDevice
[32m                 Always[0m | [1m[38;5;208m WARNING[0m | User provided a tensor of data type: Int64 which is not supported by runtime/ttnn. Casting to: Int32, this may impact throughput and the integrity of the data.
2025-10-28 19:04:56.753 (  16.377s) [        2AFB8480]      event_instance.cc:223      1| EventInstance::PJRT_Event_OnReady
2025-10-28 19:04:56.753 (  16.377s) [        2AFB8480]      event_instance.cc:172      1| EventInstance::PJRT_Event_Destroy
2025-10-28 19:04:56.753 (  16.377s) [        2AFB8480]     device_instance.cc:82       1| DeviceInstance::PJRT_Device_DefaultMemory
2025-10-28 19:04:56.753 (  16.377s) [        2AFB8480]     client_instance.cc:659      1| ClientInstance::PJRT_Client_BufferFromHostBuffer
2025-10-28 19:04:56.753 (  16.377s) [        2AFB8480]     memory_instance.cc:57       1| MemoryInstance::getDevice
[32m                 Always[0m | [1m[38;5;208m WARNING[0m | User provided a tensor of data type: Int64 which is not supported by runtime/ttnn. Casting to: Int32, this may impact throughput and the integrity of the data.
2025-10-28 19:04:56.753 (  16.377s) [        2AFB8480]      event_instance.cc:223      1| EventInstance::PJRT_Event_OnReady
2025-10-28 19:04:56.753 (  16.377s) [        2AFB8480]      event_instance.cc:172      1| EventInstance::PJRT_Event_Destroy
2025-10-28 19:04:56.753 (  16.377s) [        2AFB8480]     device_instance.cc:82       1| DeviceInstance::PJRT_Device_DefaultMemory
2025-10-28 19:04:56.753 (  16.377s) [        2AFB8480]     client_instance.cc:659      1| ClientInstance::PJRT_Client_BufferFromHostBuffer
2025-10-28 19:04:56.753 (  16.377s) [        2AFB8480]     memory_instance.cc:57       1| MemoryInstance::getDevice
[32m                 Always[0m | [1m[38;5;208m WARNING[0m | User provided a tensor of data type: Int64 which is not supported by runtime/ttnn. Casting to: Int32, this may impact throughput and the integrity of the data.
2025-10-28 19:04:56.753 (  16.377s) [        2AFB8480]      event_instance.cc:223      1| EventInstance::PJRT_Event_OnReady
2025-10-28 19:04:56.753 (  16.377s) [        2AFB8480]      event_instance.cc:172      1| EventInstance::PJRT_Event_Destroy
2025-10-28 19:04:56.753 (  16.377s) [        2AFB8480]     device_instance.cc:82       1| DeviceInstance::PJRT_Device_DefaultMemory
2025-10-28 19:04:56.753 (  16.377s) [        2AFB8480]     client_instance.cc:659      1| ClientInstance::PJRT_Client_BufferFromHostBuffer
2025-10-28 19:04:56.753 (  16.377s) [        2AFB8480]     memory_instance.cc:57       1| MemoryInstance::getDevice
[32m                 Always[0m | [1m[38;5;208m WARNING[0m | User provided a tensor of data type: Int64 which is not supported by runtime/ttnn. Casting to: Int32, this may impact throughput and the integrity of the data.
2025-10-28 19:04:56.753 (  16.377s) [        2AFB8480]      event_instance.cc:223      1| EventInstance::PJRT_Event_OnReady
2025-10-28 19:04:56.753 (  16.377s) [        2AFB8480]      event_instance.cc:172      1| EventInstance::PJRT_Event_Destroy
2025-10-28 19:04:57.649 (  17.273s) [        2AFB8480]  device_description.cc:44       1| DeviceDescription::PJRT_DeviceDescription_Id
2025-10-28 19:04:57.649 (  17.273s) [        2AFB8480]  device_description.cc:44       1| DeviceDescription::PJRT_DeviceDescription_Id
2025-10-28 19:04:57.649 (  17.273s) [        2AFB8480]  device_description.cc:44       1| DeviceDescription::PJRT_DeviceDescription_Id
2025-10-28 19:04:57.649 (  17.273s) [        2AFB8480]  device_description.cc:44       1| DeviceDescription::PJRT_DeviceDescription_Id
2025-10-28 19:04:57.649 (  17.273s) [        2AFB8480]  device_description.cc:44       1| DeviceDescription::PJRT_DeviceDescription_Id
2025-10-28 19:04:57.649 (  17.273s) [        2AFB8480]  device_description.cc:44       1| DeviceDescription::PJRT_DeviceDescription_Id
2025-10-28 19:04:57.649 (  17.273s) [        2AFB8480]  device_description.cc:44       1| DeviceDescription::PJRT_DeviceDescription_Id
2025-10-28 19:04:57.649 (  17.273s) [        2AFB8480]  device_description.cc:44       1| DeviceDescription::PJRT_DeviceDescription_Id
2025-10-28 19:04:57.651 (  17.275s) [        2AFB8480]     device_instance.cc:82       1| DeviceInstance::PJRT_Device_DefaultMemory
2025-10-28 19:04:57.651 (  17.275s) [        2AFB8480]     client_instance.cc:659      1| ClientInstance::PJRT_Client_BufferFromHostBuffer
2025-10-28 19:04:57.651 (  17.275s) [        2AFB8480]     memory_instance.cc:57       1| MemoryInstance::getDevice
2025-10-28 19:04:57.652 (  17.276s) [        2AFB8480]      event_instance.cc:223      1| EventInstance::PJRT_Event_OnReady
2025-10-28 19:04:57.652 (  17.276s) [        2AFB8480]      event_instance.cc:172      1| EventInstance::PJRT_Event_Destroy
2025-10-28 19:04:57.652 (  17.276s) [        2AFB8480]     device_instance.cc:82       1| DeviceInstance::PJRT_Device_DefaultMemory
2025-10-28 19:04:57.652 (  17.276s) [        2AFB8480]     client_instance.cc:659      1| ClientInstance::PJRT_Client_BufferFromHostBuffer
2025-10-28 19:04:57.652 (  17.276s) [        2AFB8480]     memory_instance.cc:57       1| MemoryInstance::getDevice
2025-10-28 19:04:57.652 (  17.276s) [        2AFB8480]      event_instance.cc:223      1| EventInstance::PJRT_Event_OnReady
2025-10-28 19:04:57.652 (  17.276s) [        2AFB8480]      event_instance.cc:172      1| EventInstance::PJRT_Event_Destroy
2025-10-28 19:04:57.652 (  17.276s) [        2AFB8480]     device_instance.cc:82       1| DeviceInstance::PJRT_Device_DefaultMemory
2025-10-28 19:04:57.652 (  17.276s) [        2AFB8480]     client_instance.cc:659      1| ClientInstance::PJRT_Client_BufferFromHostBuffer
2025-10-28 19:04:57.652 (  17.276s) [        2AFB8480]     memory_instance.cc:57       1| MemoryInstance::getDevice
2025-10-28 19:04:57.652 (  17.276s) [        2AFB8480]      event_instance.cc:223      1| EventInstance::PJRT_Event_OnReady
2025-10-28 19:04:57.652 (  17.276s) [        2AFB8480]      event_instance.cc:172      1| EventInstance::PJRT_Event_Destroy
2025-10-28 19:04:57.652 (  17.276s) [        2AFB8480]     device_instance.cc:82       1| DeviceInstance::PJRT_Device_DefaultMemory
2025-10-28 19:04:57.652 (  17.276s) [        2AFB8480]     client_instance.cc:659      1| ClientInstance::PJRT_Client_BufferFromHostBuffer
2025-10-28 19:04:57.652 (  17.276s) [        2AFB8480]     memory_instance.cc:57       1| MemoryInstance::getDevice
2025-10-28 19:04:57.652 (  17.276s) [        2AFB8480]      event_instance.cc:223      1| EventInstance::PJRT_Event_OnReady
2025-10-28 19:04:57.652 (  17.276s) [        2AFB8480]      event_instance.cc:172      1| EventInstance::PJRT_Event_Destroy
2025-10-28 19:04:57.652 (  17.276s) [        2AFB8480]     device_instance.cc:82       1| DeviceInstance::PJRT_Device_DefaultMemory
2025-10-28 19:04:57.652 (  17.276s) [        2AFB8480]     client_instance.cc:659      1| ClientInstance::PJRT_Client_BufferFromHostBuffer
2025-10-28 19:04:57.652 (  17.276s) [        2AFB8480]     memory_instance.cc:57       1| MemoryInstance::getDevice
2025-10-28 19:04:57.652 (  17.276s) [        2AFB8480]      event_instance.cc:223      1| EventInstance::PJRT_Event_OnReady
2025-10-28 19:04:57.652 (  17.276s) [        2AFB8480]      event_instance.cc:172      1| EventInstance::PJRT_Event_Destroy
2025-10-28 19:04:57.652 (  17.276s) [        2AFB8480]     device_instance.cc:82       1| DeviceInstance::PJRT_Device_DefaultMemory
2025-10-28 19:04:57.652 (  17.276s) [        2AFB8480]     client_instance.cc:659      1| ClientInstance::PJRT_Client_BufferFromHostBuffer
2025-10-28 19:04:57.652 (  17.276s) [        2AFB8480]     memory_instance.cc:57       1| MemoryInstance::getDevice
2025-10-28 19:04:57.652 (  17.276s) [        2AFB8480]      event_instance.cc:223      1| EventInstance::PJRT_Event_OnReady
2025-10-28 19:04:57.652 (  17.276s) [        2AFB8480]      event_instance.cc:172      1| EventInstance::PJRT_Event_Destroy
2025-10-28 19:04:57.652 (  17.276s) [        2AFB8480]     device_instance.cc:82       1| DeviceInstance::PJRT_Device_DefaultMemory
2025-10-28 19:04:57.652 (  17.276s) [        2AFB8480]     client_instance.cc:659      1| ClientInstance::PJRT_Client_BufferFromHostBuffer
2025-10-28 19:04:57.652 (  17.276s) [        2AFB8480]     memory_instance.cc:57       1| MemoryInstance::getDevice
2025-10-28 19:04:57.652 (  17.276s) [        2AFB8480]      event_instance.cc:223      1| EventInstance::PJRT_Event_OnReady
2025-10-28 19:04:57.652 (  17.276s) [        2AFB8480]      event_instance.cc:172      1| EventInstance::PJRT_Event_Destroy
2025-10-28 19:04:57.652 (  17.276s) [        2AFB8480]     device_instance.cc:82       1| DeviceInstance::PJRT_Device_DefaultMemory
2025-10-28 19:04:57.652 (  17.276s) [        2AFB8480]     client_instance.cc:659      1| ClientInstance::PJRT_Client_BufferFromHostBuffer
2025-10-28 19:04:57.652 (  17.276s) [        2AFB8480]     memory_instance.cc:57       1| MemoryInstance::getDevice
2025-10-28 19:04:57.652 (  17.276s) [        2AFB8480]      event_instance.cc:223      1| EventInstance::PJRT_Event_OnReady
2025-10-28 19:04:57.652 (  17.276s) [        2AFB8480]      event_instance.cc:172      1| EventInstance::PJRT_Event_Destroy
2025-10-28 19:04:57.652 (  17.276s) [        2AFB8480]  device_description.cc:44       1| DeviceDescription::PJRT_DeviceDescription_Id
2025-10-28 19:04:57.652 (  17.277s) [        2AFB8480]  device_description.cc:44       1| DeviceDescription::PJRT_DeviceDescription_Id
2025-10-28 19:04:57.652 (  17.277s) [        2AFB8480]  device_description.cc:44       1| DeviceDescription::PJRT_DeviceDescription_Id
2025-10-28 19:04:57.652 (  17.277s) [        2AFB8480]  device_description.cc:44       1| DeviceDescription::PJRT_DeviceDescription_Id
2025-10-28 19:04:57.652 (  17.277s) [        2AFB8480]  device_description.cc:44       1| DeviceDescription::PJRT_DeviceDescription_Id
2025-10-28 19:04:57.652 (  17.277s) [        2AFB8480]  device_description.cc:44       1| DeviceDescription::PJRT_DeviceDescription_Id
2025-10-28 19:04:57.652 (  17.277s) [        2AFB8480]  device_description.cc:44       1| DeviceDescription::PJRT_DeviceDescription_Id
2025-10-28 19:04:57.652 (  17.277s) [        2AFB8480]  device_description.cc:44       1| DeviceDescription::PJRT_DeviceDescription_Id
2025-10-28 19:04:57.686 (  17.310s) [        2AFB8480]     device_instance.cc:82       1| DeviceInstance::PJRT_Device_DefaultMemory
2025-10-28 19:04:57.686 (  17.310s) [        2AFB8480]     client_instance.cc:659      1| ClientInstance::PJRT_Client_BufferFromHostBuffer
2025-10-28 19:04:57.686 (  17.310s) [        2AFB8480]     memory_instance.cc:57       1| MemoryInstance::getDevice
2025-10-28 19:04:57.686 (  17.311s) [        2AFB8480]      event_instance.cc:223      1| EventInstance::PJRT_Event_OnReady
2025-10-28 19:04:57.687 (  17.311s) [        2AFB8480]      event_instance.cc:172      1| EventInstance::PJRT_Event_Destroy
2025-10-28 19:04:57.687 (  17.311s) [        2AFB8480]     device_instance.cc:82       1| DeviceInstance::PJRT_Device_DefaultMemory
2025-10-28 19:04:57.687 (  17.311s) [        2AFB8480]     client_instance.cc:659      1| ClientInstance::PJRT_Client_BufferFromHostBuffer
2025-10-28 19:04:57.687 (  17.311s) [        2AFB8480]     memory_instance.cc:57       1| MemoryInstance::getDevice
2025-10-28 19:04:57.687 (  17.311s) [        2AFB8480]      event_instance.cc:223      1| EventInstance::PJRT_Event_OnReady
2025-10-28 19:04:57.687 (  17.311s) [        2AFB8480]      event_instance.cc:172      1| EventInstance::PJRT_Event_Destroy
2025-10-28 19:04:57.687 (  17.311s) [        2AFB8480]     device_instance.cc:82       1| DeviceInstance::PJRT_Device_DefaultMemory
2025-10-28 19:04:57.687 (  17.311s) [        2AFB8480]     client_instance.cc:659      1| ClientInstance::PJRT_Client_BufferFromHostBuffer
2025-10-28 19:04:57.687 (  17.311s) [        2AFB8480]     memory_instance.cc:57       1| MemoryInstance::getDevice
2025-10-28 19:04:57.687 (  17.311s) [        2AFB8480]      event_instance.cc:223      1| EventInstance::PJRT_Event_OnReady
2025-10-28 19:04:57.687 (  17.311s) [        2AFB8480]      event_instance.cc:172      1| EventInstance::PJRT_Event_Destroy
2025-10-28 19:04:57.687 (  17.311s) [        2AFB8480]     device_instance.cc:82       1| DeviceInstance::PJRT_Device_DefaultMemory
2025-10-28 19:04:57.687 (  17.311s) [        2AFB8480]     client_instance.cc:659      1| ClientInstance::PJRT_Client_BufferFromHostBuffer
2025-10-28 19:04:57.687 (  17.311s) [        2AFB8480]     memory_instance.cc:57       1| MemoryInstance::getDevice
2025-10-28 19:04:57.687 (  17.311s) [        2AFB8480]      event_instance.cc:223      1| EventInstance::PJRT_Event_OnReady
2025-10-28 19:04:57.687 (  17.311s) [        2AFB8480]      event_instance.cc:172      1| EventInstance::PJRT_Event_Destroy
2025-10-28 19:04:57.687 (  17.311s) [        2AFB8480]     device_instance.cc:82       1| DeviceInstance::PJRT_Device_DefaultMemory
2025-10-28 19:04:57.687 (  17.311s) [        2AFB8480]     client_instance.cc:659      1| ClientInstance::PJRT_Client_BufferFromHostBuffer
2025-10-28 19:04:57.687 (  17.311s) [        2AFB8480]     memory_instance.cc:57       1| MemoryInstance::getDevice
2025-10-28 19:04:57.687 (  17.311s) [        2AFB8480]      event_instance.cc:223      1| EventInstance::PJRT_Event_OnReady
2025-10-28 19:04:57.687 (  17.311s) [        2AFB8480]      event_instance.cc:172      1| EventInstance::PJRT_Event_Destroy
2025-10-28 19:04:57.687 (  17.311s) [        2AFB8480]     device_instance.cc:82       1| DeviceInstance::PJRT_Device_DefaultMemory
2025-10-28 19:04:57.687 (  17.311s) [        2AFB8480]     client_instance.cc:659      1| ClientInstance::PJRT_Client_BufferFromHostBuffer
2025-10-28 19:04:57.687 (  17.311s) [        2AFB8480]     memory_instance.cc:57       1| MemoryInstance::getDevice
2025-10-28 19:04:57.687 (  17.311s) [        2AFB8480]      event_instance.cc:223      1| EventInstance::PJRT_Event_OnReady
2025-10-28 19:04:57.687 (  17.311s) [        2AFB8480]      event_instance.cc:172      1| EventInstance::PJRT_Event_Destroy
2025-10-28 19:04:57.687 (  17.311s) [        2AFB8480]     device_instance.cc:82       1| DeviceInstance::PJRT_Device_DefaultMemory
2025-10-28 19:04:57.687 (  17.311s) [        2AFB8480]     client_instance.cc:659      1| ClientInstance::PJRT_Client_BufferFromHostBuffer
2025-10-28 19:04:57.687 (  17.311s) [        2AFB8480]     memory_instance.cc:57       1| MemoryInstance::getDevice
2025-10-28 19:04:57.687 (  17.311s) [        2AFB8480]      event_instance.cc:223      1| EventInstance::PJRT_Event_OnReady
2025-10-28 19:04:57.687 (  17.311s) [        2AFB8480]      event_instance.cc:172      1| EventInstance::PJRT_Event_Destroy
2025-10-28 19:04:57.687 (  17.311s) [        2AFB8480]     device_instance.cc:82       1| DeviceInstance::PJRT_Device_DefaultMemory
2025-10-28 19:04:57.687 (  17.311s) [        2AFB8480]     client_instance.cc:659      1| ClientInstance::PJRT_Client_BufferFromHostBuffer
2025-10-28 19:04:57.687 (  17.311s) [        2AFB8480]     memory_instance.cc:57       1| MemoryInstance::getDevice
2025-10-28 19:04:57.687 (  17.311s) [        2AFB8480]      event_instance.cc:223      1| EventInstance::PJRT_Event_OnReady
2025-10-28 19:04:57.687 (  17.311s) [        2AFB8480]      event_instance.cc:172      1| EventInstance::PJRT_Event_Destroy
2025-10-28 19:04:57.693 (  17.317s) [        2AFB8480]  device_description.cc:44       1| DeviceDescription::PJRT_DeviceDescription_Id
2025-10-28 19:04:57.693 (  17.317s) [        2AFB8480]  device_description.cc:44       1| DeviceDescription::PJRT_DeviceDescription_Id
2025-10-28 19:04:57.693 (  17.317s) [        2AFB8480]  device_description.cc:44       1| DeviceDescription::PJRT_DeviceDescription_Id
2025-10-28 19:04:57.693 (  17.317s) [        2AFB8480]  device_description.cc:44       1| DeviceDescription::PJRT_DeviceDescription_Id
2025-10-28 19:04:57.693 (  17.317s) [        2AFB8480]  device_description.cc:44       1| DeviceDescription::PJRT_DeviceDescription_Id
2025-10-28 19:04:57.693 (  17.317s) [        2AFB8480]  device_description.cc:44       1| DeviceDescription::PJRT_DeviceDescription_Id
2025-10-28 19:04:57.693 (  17.317s) [        2AFB8480]  device_description.cc:44       1| DeviceDescription::PJRT_DeviceDescription_Id
2025-10-28 19:04:57.693 (  17.317s) [        2AFB8480]  device_description.cc:44       1| DeviceDescription::PJRT_DeviceDescription_Id
2025-10-28 19:04:57.693 (  17.317s) [        2AFB8480]     device_instance.cc:82       1| DeviceInstance::PJRT_Device_DefaultMemory
2025-10-28 19:04:57.693 (  17.317s) [        2AFB8480]     client_instance.cc:659      1| ClientInstance::PJRT_Client_BufferFromHostBuffer
2025-10-28 19:04:57.693 (  17.317s) [        2AFB8480]     memory_instance.cc:57       1| MemoryInstance::getDevice
2025-10-28 19:04:57.693 (  17.317s) [        2AFB8480]      event_instance.cc:223      1| EventInstance::PJRT_Event_OnReady
2025-10-28 19:04:57.693 (  17.317s) [        2AFB8480]      event_instance.cc:172      1| EventInstance::PJRT_Event_Destroy
2025-10-28 19:04:57.693 (  17.317s) [        2AFB8480]     device_instance.cc:82       1| DeviceInstance::PJRT_Device_DefaultMemory
2025-10-28 19:04:57.693 (  17.317s) [        2AFB8480]     client_instance.cc:659      1| ClientInstance::PJRT_Client_BufferFromHostBuffer
2025-10-28 19:04:57.693 (  17.317s) [        2AFB8480]     memory_instance.cc:57       1| MemoryInstance::getDevice
2025-10-28 19:04:57.693 (  17.318s) [        2AFB8480]      event_instance.cc:223      1| EventInstance::PJRT_Event_OnReady
2025-10-28 19:04:57.693 (  17.318s) [        2AFB8480]      event_instance.cc:172      1| EventInstance::PJRT_Event_Destroy
2025-10-28 19:04:57.693 (  17.318s) [        2AFB8480]     device_instance.cc:82       1| DeviceInstance::PJRT_Device_DefaultMemory
2025-10-28 19:04:57.693 (  17.318s) [        2AFB8480]     client_instance.cc:659      1| ClientInstance::PJRT_Client_BufferFromHostBuffer
2025-10-28 19:04:57.694 (  17.318s) [        2AFB8480]     memory_instance.cc:57       1| MemoryInstance::getDevice
2025-10-28 19:04:57.694 (  17.318s) [        2AFB8480]      event_instance.cc:223      1| EventInstance::PJRT_Event_OnReady
2025-10-28 19:04:57.694 (  17.318s) [        2AFB8480]      event_instance.cc:172      1| EventInstance::PJRT_Event_Destroy
2025-10-28 19:04:57.694 (  17.318s) [        2AFB8480]     device_instance.cc:82       1| DeviceInstance::PJRT_Device_DefaultMemory
2025-10-28 19:04:57.694 (  17.318s) [        2AFB8480]     client_instance.cc:659      1| ClientInstance::PJRT_Client_BufferFromHostBuffer
2025-10-28 19:04:57.694 (  17.318s) [        2AFB8480]     memory_instance.cc:57       1| MemoryInstance::getDevice
2025-10-28 19:04:57.694 (  17.318s) [        2AFB8480]      event_instance.cc:223      1| EventInstance::PJRT_Event_OnReady
2025-10-28 19:04:57.694 (  17.318s) [        2AFB8480]      event_instance.cc:172      1| EventInstance::PJRT_Event_Destroy
2025-10-28 19:04:57.694 (  17.318s) [        2AFB8480]     device_instance.cc:82       1| DeviceInstance::PJRT_Device_DefaultMemory
2025-10-28 19:04:57.694 (  17.318s) [        2AFB8480]     client_instance.cc:659      1| ClientInstance::PJRT_Client_BufferFromHostBuffer
2025-10-28 19:04:57.694 (  17.318s) [        2AFB8480]     memory_instance.cc:57       1| MemoryInstance::getDevice
2025-10-28 19:04:57.694 (  17.318s) [        2AFB8480]      event_instance.cc:223      1| EventInstance::PJRT_Event_OnReady
2025-10-28 19:04:57.694 (  17.318s) [        2AFB8480]      event_instance.cc:172      1| EventInstance::PJRT_Event_Destroy
2025-10-28 19:04:57.694 (  17.318s) [        2AFB8480]     device_instance.cc:82       1| DeviceInstance::PJRT_Device_DefaultMemory
2025-10-28 19:04:57.694 (  17.318s) [        2AFB8480]     client_instance.cc:659      1| ClientInstance::PJRT_Client_BufferFromHostBuffer
2025-10-28 19:04:57.694 (  17.318s) [        2AFB8480]     memory_instance.cc:57       1| MemoryInstance::getDevice
2025-10-28 19:04:57.694 (  17.318s) [        2AFB8480]      event_instance.cc:223      1| EventInstance::PJRT_Event_OnReady
2025-10-28 19:04:57.694 (  17.318s) [        2AFB8480]      event_instance.cc:172      1| EventInstance::PJRT_Event_Destroy
2025-10-28 19:04:57.694 (  17.318s) [        2AFB8480]     device_instance.cc:82       1| DeviceInstance::PJRT_Device_DefaultMemory
2025-10-28 19:04:57.694 (  17.318s) [        2AFB8480]     client_instance.cc:659      1| ClientInstance::PJRT_Client_BufferFromHostBuffer
2025-10-28 19:04:57.694 (  17.318s) [        2AFB8480]     memory_instance.cc:57       1| MemoryInstance::getDevice
2025-10-28 19:04:57.694 (  17.318s) [        2AFB8480]      event_instance.cc:223      1| EventInstance::PJRT_Event_OnReady
2025-10-28 19:04:57.694 (  17.318s) [        2AFB8480]      event_instance.cc:172      1| EventInstance::PJRT_Event_Destroy
2025-10-28 19:04:57.694 (  17.318s) [        2AFB8480]     device_instance.cc:82       1| DeviceInstance::PJRT_Device_DefaultMemory
2025-10-28 19:04:57.694 (  17.318s) [        2AFB8480]     client_instance.cc:659      1| ClientInstance::PJRT_Client_BufferFromHostBuffer
2025-10-28 19:04:57.694 (  17.318s) [        2AFB8480]     memory_instance.cc:57       1| MemoryInstance::getDevice
2025-10-28 19:04:57.694 (  17.318s) [        2AFB8480]      event_instance.cc:223      1| EventInstance::PJRT_Event_OnReady
2025-10-28 19:04:57.694 (  17.318s) [        2AFB8480]      event_instance.cc:172      1| EventInstance::PJRT_Event_Destroy
2025-10-28 19:04:57.694 (  17.318s) [        2AFB8480]  device_description.cc:44       1| DeviceDescription::PJRT_DeviceDescription_Id
2025-10-28 19:04:57.694 (  17.318s) [        2AFB8480]  device_description.cc:44       1| DeviceDescription::PJRT_DeviceDescription_Id
2025-10-28 19:04:57.694 (  17.318s) [        2AFB8480]  device_description.cc:44       1| DeviceDescription::PJRT_DeviceDescription_Id
2025-10-28 19:04:57.694 (  17.318s) [        2AFB8480]  device_description.cc:44       1| DeviceDescription::PJRT_DeviceDescription_Id
2025-10-28 19:04:57.694 (  17.318s) [        2AFB8480]  device_description.cc:44       1| DeviceDescription::PJRT_DeviceDescription_Id
2025-10-28 19:04:57.694 (  17.318s) [        2AFB8480]  device_description.cc:44       1| DeviceDescription::PJRT_DeviceDescription_Id
2025-10-28 19:04:57.694 (  17.318s) [        2AFB8480]  device_description.cc:44       1| DeviceDescription::PJRT_DeviceDescription_Id
2025-10-28 19:04:57.694 (  17.318s) [        2AFB8480]  device_description.cc:44       1| DeviceDescription::PJRT_DeviceDescription_Id
2025-10-28 19:04:57.694 (  17.318s) [        2AFB8480]     device_instance.cc:82       1| DeviceInstance::PJRT_Device_DefaultMemory
2025-10-28 19:04:57.694 (  17.318s) [        2AFB8480]     client_instance.cc:659      1| ClientInstance::PJRT_Client_BufferFromHostBuffer
2025-10-28 19:04:57.694 (  17.318s) [        2AFB8480]     memory_instance.cc:57       1| MemoryInstance::getDevice
2025-10-28 19:04:57.694 (  17.318s) [        2AFB8480]      event_instance.cc:223      1| EventInstance::PJRT_Event_OnReady
2025-10-28 19:04:57.694 (  17.318s) [        2AFB8480]      event_instance.cc:172      1| EventInstance::PJRT_Event_Destroy
2025-10-28 19:04:57.694 (  17.318s) [        2AFB8480]     device_instance.cc:82       1| DeviceInstance::PJRT_Device_DefaultMemory
2025-10-28 19:04:57.694 (  17.318s) [        2AFB8480]     client_instance.cc:659      1| ClientInstance::PJRT_Client_BufferFromHostBuffer
2025-10-28 19:04:57.694 (  17.318s) [        2AFB8480]     memory_instance.cc:57       1| MemoryInstance::getDevice
2025-10-28 19:04:57.694 (  17.318s) [        2AFB8480]      event_instance.cc:223      1| EventInstance::PJRT_Event_OnReady
2025-10-28 19:04:57.694 (  17.318s) [        2AFB8480]      event_instance.cc:172      1| EventInstance::PJRT_Event_Destroy
2025-10-28 19:04:57.694 (  17.318s) [        2AFB8480]     device_instance.cc:82       1| DeviceInstance::PJRT_Device_DefaultMemory
2025-10-28 19:04:57.694 (  17.318s) [        2AFB8480]     client_instance.cc:659      1| ClientInstance::PJRT_Client_BufferFromHostBuffer
2025-10-28 19:04:57.694 (  17.318s) [        2AFB8480]     memory_instance.cc:57       1| MemoryInstance::getDevice
2025-10-28 19:04:57.694 (  17.318s) [        2AFB8480]      event_instance.cc:223      1| EventInstance::PJRT_Event_OnReady
2025-10-28 19:04:57.694 (  17.319s) [        2AFB8480]      event_instance.cc:172      1| EventInstance::PJRT_Event_Destroy
2025-10-28 19:04:57.694 (  17.319s) [        2AFB8480]     device_instance.cc:82       1| DeviceInstance::PJRT_Device_DefaultMemory
2025-10-28 19:04:57.694 (  17.319s) [        2AFB8480]     client_instance.cc:659      1| ClientInstance::PJRT_Client_BufferFromHostBuffer
2025-10-28 19:04:57.694 (  17.319s) [        2AFB8480]     memory_instance.cc:57       1| MemoryInstance::getDevice
2025-10-28 19:04:57.695 (  17.319s) [        2AFB8480]      event_instance.cc:223      1| EventInstance::PJRT_Event_OnReady
2025-10-28 19:04:57.695 (  17.319s) [        2AFB8480]      event_instance.cc:172      1| EventInstance::PJRT_Event_Destroy
2025-10-28 19:04:57.695 (  17.319s) [        2AFB8480]     device_instance.cc:82       1| DeviceInstance::PJRT_Device_DefaultMemory
2025-10-28 19:04:57.695 (  17.319s) [        2AFB8480]     client_instance.cc:659      1| ClientInstance::PJRT_Client_BufferFromHostBuffer
2025-10-28 19:04:57.695 (  17.319s) [        2AFB8480]     memory_instance.cc:57       1| MemoryInstance::getDevice
2025-10-28 19:04:57.695 (  17.319s) [        2AFB8480]      event_instance.cc:223      1| EventInstance::PJRT_Event_OnReady
2025-10-28 19:04:57.695 (  17.319s) [        2AFB8480]      event_instance.cc:172      1| EventInstance::PJRT_Event_Destroy
2025-10-28 19:04:57.695 (  17.319s) [        2AFB8480]     device_instance.cc:82       1| DeviceInstance::PJRT_Device_DefaultMemory
2025-10-28 19:04:57.695 (  17.319s) [        2AFB8480]     client_instance.cc:659      1| ClientInstance::PJRT_Client_BufferFromHostBuffer
2025-10-28 19:04:57.695 (  17.319s) [        2AFB8480]     memory_instance.cc:57       1| MemoryInstance::getDevice
2025-10-28 19:04:57.695 (  17.319s) [        2AFB8480]      event_instance.cc:223      1| EventInstance::PJRT_Event_OnReady
2025-10-28 19:04:57.695 (  17.319s) [        2AFB8480]      event_instance.cc:172      1| EventInstance::PJRT_Event_Destroy
2025-10-28 19:04:57.695 (  17.319s) [        2AFB8480]     device_instance.cc:82       1| DeviceInstance::PJRT_Device_DefaultMemory
2025-10-28 19:04:57.695 (  17.319s) [        2AFB8480]     client_instance.cc:659      1| ClientInstance::PJRT_Client_BufferFromHostBuffer
2025-10-28 19:04:57.695 (  17.319s) [        2AFB8480]     memory_instance.cc:57       1| MemoryInstance::getDevice
2025-10-28 19:04:57.695 (  17.319s) [        2AFB8480]      event_instance.cc:223      1| EventInstance::PJRT_Event_OnReady
2025-10-28 19:04:57.695 (  17.319s) [        2AFB8480]      event_instance.cc:172      1| EventInstance::PJRT_Event_Destroy
2025-10-28 19:04:57.695 (  17.319s) [        2AFB8480]     device_instance.cc:82       1| DeviceInstance::PJRT_Device_DefaultMemory
2025-10-28 19:04:57.695 (  17.319s) [        2AFB8480]     client_instance.cc:659      1| ClientInstance::PJRT_Client_BufferFromHostBuffer
2025-10-28 19:04:57.695 (  17.319s) [        2AFB8480]     memory_instance.cc:57       1| MemoryInstance::getDevice
2025-10-28 19:04:57.695 (  17.319s) [        2AFB8480]      event_instance.cc:223      1| EventInstance::PJRT_Event_OnReady
2025-10-28 19:04:57.695 (  17.319s) [        2AFB8480]      event_instance.cc:172      1| EventInstance::PJRT_Event_Destroy
2025-10-28 19:04:57.695 (  17.319s) [        2AFB8480]  device_description.cc:44       1| DeviceDescription::PJRT_DeviceDescription_Id
2025-10-28 19:04:57.695 (  17.319s) [        2AFB8480]  device_description.cc:44       1| DeviceDescription::PJRT_DeviceDescription_Id
2025-10-28 19:04:57.695 (  17.319s) [        2AFB8480]  device_description.cc:44       1| DeviceDescription::PJRT_DeviceDescription_Id
2025-10-28 19:04:57.695 (  17.319s) [        2AFB8480]  device_description.cc:44       1| DeviceDescription::PJRT_DeviceDescription_Id
2025-10-28 19:04:57.695 (  17.319s) [        2AFB8480]  device_description.cc:44       1| DeviceDescription::PJRT_DeviceDescription_Id
2025-10-28 19:04:57.695 (  17.319s) [        2AFB8480]  device_description.cc:44       1| DeviceDescription::PJRT_DeviceDescription_Id
2025-10-28 19:04:57.695 (  17.319s) [        2AFB8480]  device_description.cc:44       1| DeviceDescription::PJRT_DeviceDescription_Id
2025-10-28 19:04:57.695 (  17.319s) [        2AFB8480]  device_description.cc:44       1| DeviceDescription::PJRT_DeviceDescription_Id
2025-10-28 19:04:57.697 (  17.321s) [        2AFB8480]     device_instance.cc:82       1| DeviceInstance::PJRT_Device_DefaultMemory
2025-10-28 19:04:57.697 (  17.321s) [        2AFB8480]     client_instance.cc:659      1| ClientInstance::PJRT_Client_BufferFromHostBuffer
2025-10-28 19:04:57.697 (  17.321s) [        2AFB8480]     memory_instance.cc:57       1| MemoryInstance::getDevice
2025-10-28 19:04:57.697 (  17.321s) [        2AFB8480]      event_instance.cc:223      1| EventInstance::PJRT_Event_OnReady
2025-10-28 19:04:57.697 (  17.321s) [        2AFB8480]      event_instance.cc:172      1| EventInstance::PJRT_Event_Destroy
2025-10-28 19:04:57.697 (  17.321s) [        2AFB8480]     device_instance.cc:82       1| DeviceInstance::PJRT_Device_DefaultMemory
2025-10-28 19:04:57.697 (  17.321s) [        2AFB8480]     client_instance.cc:659      1| ClientInstance::PJRT_Client_BufferFromHostBuffer
2025-10-28 19:04:57.697 (  17.321s) [        2AFB8480]     memory_instance.cc:57       1| MemoryInstance::getDevice
2025-10-28 19:04:57.697 (  17.321s) [        2AFB8480]      event_instance.cc:223      1| EventInstance::PJRT_Event_OnReady
2025-10-28 19:04:57.697 (  17.321s) [        2AFB8480]      event_instance.cc:172      1| EventInstance::PJRT_Event_Destroy
2025-10-28 19:04:57.697 (  17.321s) [        2AFB8480]     device_instance.cc:82       1| DeviceInstance::PJRT_Device_DefaultMemory
2025-10-28 19:04:57.697 (  17.321s) [        2AFB8480]     client_instance.cc:659      1| ClientInstance::PJRT_Client_BufferFromHostBuffer
2025-10-28 19:04:57.697 (  17.321s) [        2AFB8480]     memory_instance.cc:57       1| MemoryInstance::getDevice
2025-10-28 19:04:57.697 (  17.321s) [        2AFB8480]      event_instance.cc:223      1| EventInstance::PJRT_Event_OnReady
2025-10-28 19:04:57.697 (  17.321s) [        2AFB8480]      event_instance.cc:172      1| EventInstance::PJRT_Event_Destroy
2025-10-28 19:04:57.697 (  17.321s) [        2AFB8480]     device_instance.cc:82       1| DeviceInstance::PJRT_Device_DefaultMemory
2025-10-28 19:04:57.697 (  17.321s) [        2AFB8480]     client_instance.cc:659      1| ClientInstance::PJRT_Client_BufferFromHostBuffer
2025-10-28 19:04:57.697 (  17.321s) [        2AFB8480]     memory_instance.cc:57       1| MemoryInstance::getDevice
2025-10-28 19:04:57.697 (  17.321s) [        2AFB8480]      event_instance.cc:223      1| EventInstance::PJRT_Event_OnReady
2025-10-28 19:04:57.697 (  17.321s) [        2AFB8480]      event_instance.cc:172      1| EventInstance::PJRT_Event_Destroy
2025-10-28 19:04:57.697 (  17.321s) [        2AFB8480]     device_instance.cc:82       1| DeviceInstance::PJRT_Device_DefaultMemory
2025-10-28 19:04:57.697 (  17.321s) [        2AFB8480]     client_instance.cc:659      1| ClientInstance::PJRT_Client_BufferFromHostBuffer
2025-10-28 19:04:57.697 (  17.321s) [        2AFB8480]     memory_instance.cc:57       1| MemoryInstance::getDevice
2025-10-28 19:04:57.697 (  17.321s) [        2AFB8480]      event_instance.cc:223      1| EventInstance::PJRT_Event_OnReady
2025-10-28 19:04:57.697 (  17.321s) [        2AFB8480]      event_instance.cc:172      1| EventInstance::PJRT_Event_Destroy
2025-10-28 19:04:57.697 (  17.321s) [        2AFB8480]     device_instance.cc:82       1| DeviceInstance::PJRT_Device_DefaultMemory
2025-10-28 19:04:57.697 (  17.321s) [        2AFB8480]     client_instance.cc:659      1| ClientInstance::PJRT_Client_BufferFromHostBuffer
2025-10-28 19:04:57.697 (  17.321s) [        2AFB8480]     memory_instance.cc:57       1| MemoryInstance::getDevice
2025-10-28 19:04:57.697 (  17.321s) [        2AFB8480]      event_instance.cc:223      1| EventInstance::PJRT_Event_OnReady
2025-10-28 19:04:57.697 (  17.321s) [        2AFB8480]      event_instance.cc:172      1| EventInstance::PJRT_Event_Destroy
2025-10-28 19:04:57.697 (  17.321s) [        2AFB8480]     device_instance.cc:82       1| DeviceInstance::PJRT_Device_DefaultMemory
2025-10-28 19:04:57.697 (  17.321s) [        2AFB8480]     client_instance.cc:659      1| ClientInstance::PJRT_Client_BufferFromHostBuffer
2025-10-28 19:04:57.697 (  17.321s) [        2AFB8480]     memory_instance.cc:57       1| MemoryInstance::getDevice
2025-10-28 19:04:57.697 (  17.321s) [        2AFB8480]      event_instance.cc:223      1| EventInstance::PJRT_Event_OnReady
2025-10-28 19:04:57.697 (  17.321s) [        2AFB8480]      event_instance.cc:172      1| EventInstance::PJRT_Event_Destroy
2025-10-28 19:04:57.697 (  17.321s) [        2AFB8480]     device_instance.cc:82       1| DeviceInstance::PJRT_Device_DefaultMemory
2025-10-28 19:04:57.697 (  17.321s) [        2AFB8480]     client_instance.cc:659      1| ClientInstance::PJRT_Client_BufferFromHostBuffer
2025-10-28 19:04:57.697 (  17.321s) [        2AFB8480]     memory_instance.cc:57       1| MemoryInstance::getDevice
2025-10-28 19:04:57.697 (  17.321s) [        2AFB8480]      event_instance.cc:223      1| EventInstance::PJRT_Event_OnReady
2025-10-28 19:04:57.697 (  17.321s) [        2AFB8480]      event_instance.cc:172      1| EventInstance::PJRT_Event_Destroy
2025-10-28 19:04:57.698 (  17.322s) [        2AFB8480]  device_description.cc:44       1| DeviceDescription::PJRT_DeviceDescription_Id
2025-10-28 19:04:57.698 (  17.322s) [        2AFB8480]  device_description.cc:44       1| DeviceDescription::PJRT_DeviceDescription_Id
2025-10-28 19:04:57.698 (  17.322s) [        2AFB8480]  device_description.cc:44       1| DeviceDescription::PJRT_DeviceDescription_Id
2025-10-28 19:04:57.698 (  17.322s) [        2AFB8480]  device_description.cc:44       1| DeviceDescription::PJRT_DeviceDescription_Id
2025-10-28 19:04:57.698 (  17.322s) [        2AFB8480]  device_description.cc:44       1| DeviceDescription::PJRT_DeviceDescription_Id
2025-10-28 19:04:57.698 (  17.322s) [        2AFB8480]  device_description.cc:44       1| DeviceDescription::PJRT_DeviceDescription_Id
2025-10-28 19:04:57.698 (  17.322s) [        2AFB8480]  device_description.cc:44       1| DeviceDescription::PJRT_DeviceDescription_Id
2025-10-28 19:04:57.698 (  17.322s) [        2AFB8480]  device_description.cc:44       1| DeviceDescription::PJRT_DeviceDescription_Id
2025-10-28 19:04:57.698 (  17.322s) [        2AFB8480]     device_instance.cc:82       1| DeviceInstance::PJRT_Device_DefaultMemory
2025-10-28 19:04:57.698 (  17.322s) [        2AFB8480]     client_instance.cc:659      1| ClientInstance::PJRT_Client_BufferFromHostBuffer
2025-10-28 19:04:57.698 (  17.322s) [        2AFB8480]     memory_instance.cc:57       1| MemoryInstance::getDevice
2025-10-28 19:04:57.698 (  17.322s) [        2AFB8480]      event_instance.cc:223      1| EventInstance::PJRT_Event_OnReady
2025-10-28 19:04:57.698 (  17.322s) [        2AFB8480]      event_instance.cc:172      1| EventInstance::PJRT_Event_Destroy
2025-10-28 19:04:57.698 (  17.322s) [        2AFB8480]     device_instance.cc:82       1| DeviceInstance::PJRT_Device_DefaultMemory
2025-10-28 19:04:57.698 (  17.322s) [        2AFB8480]     client_instance.cc:659      1| ClientInstance::PJRT_Client_BufferFromHostBuffer
2025-10-28 19:04:57.698 (  17.322s) [        2AFB8480]     memory_instance.cc:57       1| MemoryInstance::getDevice
2025-10-28 19:04:57.698 (  17.322s) [        2AFB8480]      event_instance.cc:223      1| EventInstance::PJRT_Event_OnReady
2025-10-28 19:04:57.698 (  17.322s) [        2AFB8480]      event_instance.cc:172      1| EventInstance::PJRT_Event_Destroy
2025-10-28 19:04:57.698 (  17.322s) [        2AFB8480]     device_instance.cc:82       1| DeviceInstance::PJRT_Device_DefaultMemory
2025-10-28 19:04:57.698 (  17.322s) [        2AFB8480]     client_instance.cc:659      1| ClientInstance::PJRT_Client_BufferFromHostBuffer
2025-10-28 19:04:57.698 (  17.322s) [        2AFB8480]     memory_instance.cc:57       1| MemoryInstance::getDevice
2025-10-28 19:04:57.698 (  17.322s) [        2AFB8480]      event_instance.cc:223      1| EventInstance::PJRT_Event_OnReady
2025-10-28 19:04:57.698 (  17.322s) [        2AFB8480]      event_instance.cc:172      1| EventInstance::PJRT_Event_Destroy
2025-10-28 19:04:57.698 (  17.322s) [        2AFB8480]     device_instance.cc:82       1| DeviceInstance::PJRT_Device_DefaultMemory
2025-10-28 19:04:57.698 (  17.322s) [        2AFB8480]     client_instance.cc:659      1| ClientInstance::PJRT_Client_BufferFromHostBuffer
2025-10-28 19:04:57.698 (  17.322s) [        2AFB8480]     memory_instance.cc:57       1| MemoryInstance::getDevice
2025-10-28 19:04:57.698 (  17.322s) [        2AFB8480]      event_instance.cc:223      1| EventInstance::PJRT_Event_OnReady
2025-10-28 19:04:57.698 (  17.322s) [        2AFB8480]      event_instance.cc:172      1| EventInstance::PJRT_Event_Destroy
2025-10-28 19:04:57.698 (  17.322s) [        2AFB8480]     device_instance.cc:82       1| DeviceInstance::PJRT_Device_DefaultMemory
2025-10-28 19:04:57.698 (  17.322s) [        2AFB8480]     client_instance.cc:659      1| ClientInstance::PJRT_Client_BufferFromHostBuffer
2025-10-28 19:04:57.698 (  17.322s) [        2AFB8480]     memory_instance.cc:57       1| MemoryInstance::getDevice
2025-10-28 19:04:57.698 (  17.322s) [        2AFB8480]      event_instance.cc:223      1| EventInstance::PJRT_Event_OnReady
2025-10-28 19:04:57.698 (  17.322s) [        2AFB8480]      event_instance.cc:172      1| EventInstance::PJRT_Event_Destroy
2025-10-28 19:04:57.698 (  17.322s) [        2AFB8480]     device_instance.cc:82       1| DeviceInstance::PJRT_Device_DefaultMemory
2025-10-28 19:04:57.698 (  17.322s) [        2AFB8480]     client_instance.cc:659      1| ClientInstance::PJRT_Client_BufferFromHostBuffer
2025-10-28 19:04:57.698 (  17.322s) [        2AFB8480]     memory_instance.cc:57       1| MemoryInstance::getDevice
2025-10-28 19:04:57.698 (  17.322s) [        2AFB8480]      event_instance.cc:223      1| EventInstance::PJRT_Event_OnReady
2025-10-28 19:04:57.698 (  17.322s) [        2AFB8480]      event_instance.cc:172      1| EventInstance::PJRT_Event_Destroy
2025-10-28 19:04:57.698 (  17.322s) [        2AFB8480]     device_instance.cc:82       1| DeviceInstance::PJRT_Device_DefaultMemory
2025-10-28 19:04:57.698 (  17.322s) [        2AFB8480]     client_instance.cc:659      1| ClientInstance::PJRT_Client_BufferFromHostBuffer
2025-10-28 19:04:57.698 (  17.322s) [        2AFB8480]     memory_instance.cc:57       1| MemoryInstance::getDevice
2025-10-28 19:04:57.698 (  17.322s) [        2AFB8480]      event_instance.cc:223      1| EventInstance::PJRT_Event_OnReady
2025-10-28 19:04:57.698 (  17.322s) [        2AFB8480]      event_instance.cc:172      1| EventInstance::PJRT_Event_Destroy
2025-10-28 19:04:57.698 (  17.322s) [        2AFB8480]     device_instance.cc:82       1| DeviceInstance::PJRT_Device_DefaultMemory
2025-10-28 19:04:57.698 (  17.322s) [        2AFB8480]     client_instance.cc:659      1| ClientInstance::PJRT_Client_BufferFromHostBuffer
2025-10-28 19:04:57.698 (  17.322s) [        2AFB8480]     memory_instance.cc:57       1| MemoryInstance::getDevice
2025-10-28 19:04:57.698 (  17.322s) [        2AFB8480]      event_instance.cc:223      1| EventInstance::PJRT_Event_OnReady
2025-10-28 19:04:57.698 (  17.322s) [        2AFB8480]      event_instance.cc:172      1| EventInstance::PJRT_Event_Destroy
2025-10-28 19:04:57.698 (  17.322s) [        2AFB8480]  device_description.cc:44       1| DeviceDescription::PJRT_DeviceDescription_Id
2025-10-28 19:04:57.698 (  17.322s) [        2AFB8480]  device_description.cc:44       1| DeviceDescription::PJRT_DeviceDescription_Id
2025-10-28 19:04:57.698 (  17.322s) [        2AFB8480]  device_description.cc:44       1| DeviceDescription::PJRT_DeviceDescription_Id
2025-10-28 19:04:57.698 (  17.322s) [        2AFB8480]  device_description.cc:44       1| DeviceDescription::PJRT_DeviceDescription_Id
2025-10-28 19:04:57.698 (  17.322s) [        2AFB8480]  device_description.cc:44       1| DeviceDescription::PJRT_DeviceDescription_Id
2025-10-28 19:04:57.698 (  17.322s) [        2AFB8480]  device_description.cc:44       1| DeviceDescription::PJRT_DeviceDescription_Id
2025-10-28 19:04:57.698 (  17.322s) [        2AFB8480]  device_description.cc:44       1| DeviceDescription::PJRT_DeviceDescription_Id
2025-10-28 19:04:57.698 (  17.322s) [        2AFB8480]  device_description.cc:44       1| DeviceDescription::PJRT_DeviceDescription_Id
2025-10-28 19:04:57.699 (  17.324s) [        2AFB8480]     device_instance.cc:82       1| DeviceInstance::PJRT_Device_DefaultMemory
2025-10-28 19:04:57.700 (  17.324s) [        2AFB8480]     client_instance.cc:659      1| ClientInstance::PJRT_Client_BufferFromHostBuffer
2025-10-28 19:04:57.700 (  17.324s) [        2AFB8480]     memory_instance.cc:57       1| MemoryInstance::getDevice
2025-10-28 19:04:57.700 (  17.324s) [        2AFB8480]      event_instance.cc:223      1| EventInstance::PJRT_Event_OnReady
2025-10-28 19:04:57.700 (  17.324s) [        2AFB8480]      event_instance.cc:172      1| EventInstance::PJRT_Event_Destroy
2025-10-28 19:04:57.700 (  17.324s) [        2AFB8480]     device_instance.cc:82       1| DeviceInstance::PJRT_Device_DefaultMemory
2025-10-28 19:04:57.700 (  17.324s) [        2AFB8480]     client_instance.cc:659      1| ClientInstance::PJRT_Client_BufferFromHostBuffer
2025-10-28 19:04:57.700 (  17.324s) [        2AFB8480]     memory_instance.cc:57       1| MemoryInstance::getDevice
2025-10-28 19:04:57.700 (  17.324s) [        2AFB8480]      event_instance.cc:223      1| EventInstance::PJRT_Event_OnReady
2025-10-28 19:04:57.700 (  17.324s) [        2AFB8480]      event_instance.cc:172      1| EventInstance::PJRT_Event_Destroy
2025-10-28 19:04:57.700 (  17.324s) [        2AFB8480]     device_instance.cc:82       1| DeviceInstance::PJRT_Device_DefaultMemory
2025-10-28 19:04:57.700 (  17.324s) [        2AFB8480]     client_instance.cc:659      1| ClientInstance::PJRT_Client_BufferFromHostBuffer
2025-10-28 19:04:57.700 (  17.324s) [        2AFB8480]     memory_instance.cc:57       1| MemoryInstance::getDevice
2025-10-28 19:04:57.700 (  17.324s) [        2AFB8480]      event_instance.cc:223      1| EventInstance::PJRT_Event_OnReady
2025-10-28 19:04:57.700 (  17.324s) [        2AFB8480]      event_instance.cc:172      1| EventInstance::PJRT_Event_Destroy
2025-10-28 19:04:57.700 (  17.324s) [        2AFB8480]     device_instance.cc:82       1| DeviceInstance::PJRT_Device_DefaultMemory
2025-10-28 19:04:57.700 (  17.324s) [        2AFB8480]     client_instance.cc:659      1| ClientInstance::PJRT_Client_BufferFromHostBuffer
2025-10-28 19:04:57.700 (  17.324s) [        2AFB8480]     memory_instance.cc:57       1| MemoryInstance::getDevice
2025-10-28 19:04:57.700 (  17.324s) [        2AFB8480]      event_instance.cc:223      1| EventInstance::PJRT_Event_OnReady
2025-10-28 19:04:57.700 (  17.324s) [        2AFB8480]      event_instance.cc:172      1| EventInstance::PJRT_Event_Destroy
2025-10-28 19:04:57.700 (  17.324s) [        2AFB8480]     device_instance.cc:82       1| DeviceInstance::PJRT_Device_DefaultMemory
2025-10-28 19:04:57.700 (  17.324s) [        2AFB8480]     client_instance.cc:659      1| ClientInstance::PJRT_Client_BufferFromHostBuffer
2025-10-28 19:04:57.700 (  17.324s) [        2AFB8480]     memory_instance.cc:57       1| MemoryInstance::getDevice
2025-10-28 19:04:57.700 (  17.324s) [        2AFB8480]      event_instance.cc:223      1| EventInstance::PJRT_Event_OnReady
2025-10-28 19:04:57.700 (  17.324s) [        2AFB8480]      event_instance.cc:172      1| EventInstance::PJRT_Event_Destroy
2025-10-28 19:04:57.700 (  17.324s) [        2AFB8480]     device_instance.cc:82       1| DeviceInstance::PJRT_Device_DefaultMemory
2025-10-28 19:04:57.700 (  17.324s) [        2AFB8480]     client_instance.cc:659      1| ClientInstance::PJRT_Client_BufferFromHostBuffer
2025-10-28 19:04:57.700 (  17.324s) [        2AFB8480]     memory_instance.cc:57       1| MemoryInstance::getDevice
2025-10-28 19:04:57.700 (  17.324s) [        2AFB8480]      event_instance.cc:223      1| EventInstance::PJRT_Event_OnReady
2025-10-28 19:04:57.700 (  17.324s) [        2AFB8480]      event_instance.cc:172      1| EventInstance::PJRT_Event_Destroy
2025-10-28 19:04:57.700 (  17.324s) [        2AFB8480]     device_instance.cc:82       1| DeviceInstance::PJRT_Device_DefaultMemory
2025-10-28 19:04:57.700 (  17.324s) [        2AFB8480]     client_instance.cc:659      1| ClientInstance::PJRT_Client_BufferFromHostBuffer
2025-10-28 19:04:57.700 (  17.324s) [        2AFB8480]     memory_instance.cc:57       1| MemoryInstance::getDevice
2025-10-28 19:04:57.700 (  17.324s) [        2AFB8480]      event_instance.cc:223      1| EventInstance::PJRT_Event_OnReady
2025-10-28 19:04:57.700 (  17.324s) [        2AFB8480]      event_instance.cc:172      1| EventInstance::PJRT_Event_Destroy
2025-10-28 19:04:57.700 (  17.324s) [        2AFB8480]     device_instance.cc:82       1| DeviceInstance::PJRT_Device_DefaultMemory
2025-10-28 19:04:57.700 (  17.324s) [        2AFB8480]     client_instance.cc:659      1| ClientInstance::PJRT_Client_BufferFromHostBuffer
2025-10-28 19:04:57.700 (  17.324s) [        2AFB8480]     memory_instance.cc:57       1| MemoryInstance::getDevice
2025-10-28 19:04:57.700 (  17.324s) [        2AFB8480]      event_instance.cc:223      1| EventInstance::PJRT_Event_OnReady
2025-10-28 19:04:57.700 (  17.324s) [        2AFB8480]      event_instance.cc:172      1| EventInstance::PJRT_Event_Destroy
2025-10-28 19:04:57.700 (  17.324s) [        2AFB8480]  device_description.cc:44       1| DeviceDescription::PJRT_DeviceDescription_Id
2025-10-28 19:04:57.700 (  17.324s) [        2AFB8480]  device_description.cc:44       1| DeviceDescription::PJRT_DeviceDescription_Id
2025-10-28 19:04:57.700 (  17.324s) [        2AFB8480]  device_description.cc:44       1| DeviceDescription::PJRT_DeviceDescription_Id
2025-10-28 19:04:57.700 (  17.324s) [        2AFB8480]  device_description.cc:44       1| DeviceDescription::PJRT_DeviceDescription_Id
2025-10-28 19:04:57.700 (  17.324s) [        2AFB8480]  device_description.cc:44       1| DeviceDescription::PJRT_DeviceDescription_Id
2025-10-28 19:04:57.700 (  17.324s) [        2AFB8480]  device_description.cc:44       1| DeviceDescription::PJRT_DeviceDescription_Id
2025-10-28 19:04:57.700 (  17.324s) [        2AFB8480]  device_description.cc:44       1| DeviceDescription::PJRT_DeviceDescription_Id
2025-10-28 19:04:57.700 (  17.324s) [        2AFB8480]  device_description.cc:44       1| DeviceDescription::PJRT_DeviceDescription_Id
2025-10-28 19:04:57.700 (  17.324s) [        2AFB8480]     device_instance.cc:82       1| DeviceInstance::PJRT_Device_DefaultMemory
2025-10-28 19:04:57.700 (  17.324s) [        2AFB8480]     client_instance.cc:659      1| ClientInstance::PJRT_Client_BufferFromHostBuffer
2025-10-28 19:04:57.700 (  17.324s) [        2AFB8480]     memory_instance.cc:57       1| MemoryInstance::getDevice
2025-10-28 19:04:57.700 (  17.324s) [        2AFB8480]      event_instance.cc:223      1| EventInstance::PJRT_Event_OnReady
2025-10-28 19:04:57.700 (  17.324s) [        2AFB8480]      event_instance.cc:172      1| EventInstance::PJRT_Event_Destroy
2025-10-28 19:04:57.700 (  17.324s) [        2AFB8480]     device_instance.cc:82       1| DeviceInstance::PJRT_Device_DefaultMemory
2025-10-28 19:04:57.700 (  17.324s) [        2AFB8480]     client_instance.cc:659      1| ClientInstance::PJRT_Client_BufferFromHostBuffer
2025-10-28 19:04:57.700 (  17.324s) [        2AFB8480]     memory_instance.cc:57       1| MemoryInstance::getDevice
2025-10-28 19:04:57.700 (  17.325s) [        2AFB8480]      event_instance.cc:223      1| EventInstance::PJRT_Event_OnReady
2025-10-28 19:04:57.700 (  17.325s) [        2AFB8480]      event_instance.cc:172      1| EventInstance::PJRT_Event_Destroy
2025-10-28 19:04:57.700 (  17.325s) [        2AFB8480]     device_instance.cc:82       1| DeviceInstance::PJRT_Device_DefaultMemory
2025-10-28 19:04:57.700 (  17.325s) [        2AFB8480]     client_instance.cc:659      1| ClientInstance::PJRT_Client_BufferFromHostBuffer
2025-10-28 19:04:57.700 (  17.325s) [        2AFB8480]     memory_instance.cc:57       1| MemoryInstance::getDevice
2025-10-28 19:04:57.701 (  17.325s) [        2AFB8480]      event_instance.cc:223      1| EventInstance::PJRT_Event_OnReady
2025-10-28 19:04:57.701 (  17.325s) [        2AFB8480]      event_instance.cc:172      1| EventInstance::PJRT_Event_Destroy
2025-10-28 19:04:57.701 (  17.325s) [        2AFB8480]     device_instance.cc:82       1| DeviceInstance::PJRT_Device_DefaultMemory
2025-10-28 19:04:57.701 (  17.325s) [        2AFB8480]     client_instance.cc:659      1| ClientInstance::PJRT_Client_BufferFromHostBuffer
2025-10-28 19:04:57.701 (  17.325s) [        2AFB8480]     memory_instance.cc:57       1| MemoryInstance::getDevice
2025-10-28 19:04:57.701 (  17.325s) [        2AFB8480]      event_instance.cc:223      1| EventInstance::PJRT_Event_OnReady
2025-10-28 19:04:57.701 (  17.325s) [        2AFB8480]      event_instance.cc:172      1| EventInstance::PJRT_Event_Destroy
2025-10-28 19:04:57.701 (  17.325s) [        2AFB8480]     device_instance.cc:82       1| DeviceInstance::PJRT_Device_DefaultMemory
2025-10-28 19:04:57.701 (  17.325s) [        2AFB8480]     client_instance.cc:659      1| ClientInstance::PJRT_Client_BufferFromHostBuffer
2025-10-28 19:04:57.701 (  17.325s) [        2AFB8480]     memory_instance.cc:57       1| MemoryInstance::getDevice
2025-10-28 19:04:57.701 (  17.325s) [        2AFB8480]      event_instance.cc:223      1| EventInstance::PJRT_Event_OnReady
2025-10-28 19:04:57.701 (  17.325s) [        2AFB8480]      event_instance.cc:172      1| EventInstance::PJRT_Event_Destroy
2025-10-28 19:04:57.701 (  17.325s) [        2AFB8480]     device_instance.cc:82       1| DeviceInstance::PJRT_Device_DefaultMemory
2025-10-28 19:04:57.701 (  17.325s) [        2AFB8480]     client_instance.cc:659      1| ClientInstance::PJRT_Client_BufferFromHostBuffer
2025-10-28 19:04:57.701 (  17.325s) [        2AFB8480]     memory_instance.cc:57       1| MemoryInstance::getDevice
2025-10-28 19:04:57.701 (  17.325s) [        2AFB8480]      event_instance.cc:223      1| EventInstance::PJRT_Event_OnReady
2025-10-28 19:04:57.701 (  17.325s) [        2AFB8480]      event_instance.cc:172      1| EventInstance::PJRT_Event_Destroy
2025-10-28 19:04:57.701 (  17.325s) [        2AFB8480]     device_instance.cc:82       1| DeviceInstance::PJRT_Device_DefaultMemory
2025-10-28 19:04:57.701 (  17.325s) [        2AFB8480]     client_instance.cc:659      1| ClientInstance::PJRT_Client_BufferFromHostBuffer
2025-10-28 19:04:57.701 (  17.325s) [        2AFB8480]     memory_instance.cc:57       1| MemoryInstance::getDevice
2025-10-28 19:04:57.701 (  17.325s) [        2AFB8480]      event_instance.cc:223      1| EventInstance::PJRT_Event_OnReady
2025-10-28 19:04:57.701 (  17.325s) [        2AFB8480]      event_instance.cc:172      1| EventInstance::PJRT_Event_Destroy
2025-10-28 19:04:57.701 (  17.325s) [        2AFB8480]     device_instance.cc:82       1| DeviceInstance::PJRT_Device_DefaultMemory
2025-10-28 19:04:57.701 (  17.325s) [        2AFB8480]     client_instance.cc:659      1| ClientInstance::PJRT_Client_BufferFromHostBuffer
2025-10-28 19:04:57.701 (  17.325s) [        2AFB8480]     memory_instance.cc:57       1| MemoryInstance::getDevice
2025-10-28 19:04:57.701 (  17.325s) [        2AFB8480]      event_instance.cc:223      1| EventInstance::PJRT_Event_OnReady
2025-10-28 19:04:57.701 (  17.325s) [        2AFB8480]      event_instance.cc:172      1| EventInstance::PJRT_Event_Destroy
2025-10-28 19:04:57.701 (  17.325s) [        2AFB8480]  device_description.cc:44       1| DeviceDescription::PJRT_DeviceDescription_Id
2025-10-28 19:04:57.701 (  17.325s) [        2AFB8480]  device_description.cc:44       1| DeviceDescription::PJRT_DeviceDescription_Id
2025-10-28 19:04:57.701 (  17.325s) [        2AFB8480]  device_description.cc:44       1| DeviceDescription::PJRT_DeviceDescription_Id
2025-10-28 19:04:57.701 (  17.325s) [        2AFB8480]  device_description.cc:44       1| DeviceDescription::PJRT_DeviceDescription_Id
2025-10-28 19:04:57.701 (  17.325s) [        2AFB8480]  device_description.cc:44       1| DeviceDescription::PJRT_DeviceDescription_Id
2025-10-28 19:04:57.701 (  17.325s) [        2AFB8480]  device_description.cc:44       1| DeviceDescription::PJRT_DeviceDescription_Id
2025-10-28 19:04:57.701 (  17.325s) [        2AFB8480]  device_description.cc:44       1| DeviceDescription::PJRT_DeviceDescription_Id
2025-10-28 19:04:57.701 (  17.325s) [        2AFB8480]  device_description.cc:44       1| DeviceDescription::PJRT_DeviceDescription_Id
2025-10-28 19:04:57.702 (  17.326s) [        2AFB8480]     device_instance.cc:82       1| DeviceInstance::PJRT_Device_DefaultMemory
2025-10-28 19:04:57.702 (  17.326s) [        2AFB8480]     client_instance.cc:659      1| ClientInstance::PJRT_Client_BufferFromHostBuffer
2025-10-28 19:04:57.702 (  17.326s) [        2AFB8480]     memory_instance.cc:57       1| MemoryInstance::getDevice
2025-10-28 19:04:57.702 (  17.326s) [        2AFB8480]      event_instance.cc:223      1| EventInstance::PJRT_Event_OnReady
2025-10-28 19:04:57.702 (  17.326s) [        2AFB8480]      event_instance.cc:172      1| EventInstance::PJRT_Event_Destroy
2025-10-28 19:04:57.702 (  17.326s) [        2AFB8480]     device_instance.cc:82       1| DeviceInstance::PJRT_Device_DefaultMemory
2025-10-28 19:04:57.702 (  17.326s) [        2AFB8480]     client_instance.cc:659      1| ClientInstance::PJRT_Client_BufferFromHostBuffer
2025-10-28 19:04:57.702 (  17.326s) [        2AFB8480]     memory_instance.cc:57       1| MemoryInstance::getDevice
2025-10-28 19:04:57.702 (  17.326s) [        2AFB8480]      event_instance.cc:223      1| EventInstance::PJRT_Event_OnReady
2025-10-28 19:04:57.702 (  17.326s) [        2AFB8480]      event_instance.cc:172      1| EventInstance::PJRT_Event_Destroy
2025-10-28 19:04:57.702 (  17.326s) [        2AFB8480]     device_instance.cc:82       1| DeviceInstance::PJRT_Device_DefaultMemory
2025-10-28 19:04:57.702 (  17.326s) [        2AFB8480]     client_instance.cc:659      1| ClientInstance::PJRT_Client_BufferFromHostBuffer
2025-10-28 19:04:57.702 (  17.326s) [        2AFB8480]     memory_instance.cc:57       1| MemoryInstance::getDevice
2025-10-28 19:04:57.702 (  17.326s) [        2AFB8480]      event_instance.cc:223      1| EventInstance::PJRT_Event_OnReady
2025-10-28 19:04:57.702 (  17.326s) [        2AFB8480]      event_instance.cc:172      1| EventInstance::PJRT_Event_Destroy
2025-10-28 19:04:57.702 (  17.326s) [        2AFB8480]     device_instance.cc:82       1| DeviceInstance::PJRT_Device_DefaultMemory
2025-10-28 19:04:57.702 (  17.326s) [        2AFB8480]     client_instance.cc:659      1| ClientInstance::PJRT_Client_BufferFromHostBuffer
2025-10-28 19:04:57.702 (  17.326s) [        2AFB8480]     memory_instance.cc:57       1| MemoryInstance::getDevice
2025-10-28 19:04:57.702 (  17.326s) [        2AFB8480]      event_instance.cc:223      1| EventInstance::PJRT_Event_OnReady
2025-10-28 19:04:57.702 (  17.326s) [        2AFB8480]      event_instance.cc:172      1| EventInstance::PJRT_Event_Destroy
2025-10-28 19:04:57.702 (  17.326s) [        2AFB8480]     device_instance.cc:82       1| DeviceInstance::PJRT_Device_DefaultMemory
2025-10-28 19:04:57.702 (  17.326s) [        2AFB8480]     client_instance.cc:659      1| ClientInstance::PJRT_Client_BufferFromHostBuffer
2025-10-28 19:04:57.702 (  17.326s) [        2AFB8480]     memory_instance.cc:57       1| MemoryInstance::getDevice
2025-10-28 19:04:57.702 (  17.327s) [        2AFB8480]      event_instance.cc:223      1| EventInstance::PJRT_Event_OnReady
2025-10-28 19:04:57.702 (  17.327s) [        2AFB8480]      event_instance.cc:172      1| EventInstance::PJRT_Event_Destroy
2025-10-28 19:04:57.702 (  17.327s) [        2AFB8480]     device_instance.cc:82       1| DeviceInstance::PJRT_Device_DefaultMemory
2025-10-28 19:04:57.702 (  17.327s) [        2AFB8480]     client_instance.cc:659      1| ClientInstance::PJRT_Client_BufferFromHostBuffer
2025-10-28 19:04:57.702 (  17.327s) [        2AFB8480]     memory_instance.cc:57       1| MemoryInstance::getDevice
2025-10-28 19:04:57.703 (  17.327s) [        2AFB8480]      event_instance.cc:223      1| EventInstance::PJRT_Event_OnReady
2025-10-28 19:04:57.703 (  17.327s) [        2AFB8480]      event_instance.cc:172      1| EventInstance::PJRT_Event_Destroy
2025-10-28 19:04:57.703 (  17.327s) [        2AFB8480]     device_instance.cc:82       1| DeviceInstance::PJRT_Device_DefaultMemory
2025-10-28 19:04:57.703 (  17.327s) [        2AFB8480]     client_instance.cc:659      1| ClientInstance::PJRT_Client_BufferFromHostBuffer
2025-10-28 19:04:57.703 (  17.327s) [        2AFB8480]     memory_instance.cc:57       1| MemoryInstance::getDevice
2025-10-28 19:04:57.703 (  17.327s) [        2AFB8480]      event_instance.cc:223      1| EventInstance::PJRT_Event_OnReady
2025-10-28 19:04:57.703 (  17.327s) [        2AFB8480]      event_instance.cc:172      1| EventInstance::PJRT_Event_Destroy
2025-10-28 19:04:57.703 (  17.327s) [        2AFB8480]     device_instance.cc:82       1| DeviceInstance::PJRT_Device_DefaultMemory
2025-10-28 19:04:57.703 (  17.327s) [        2AFB8480]     client_instance.cc:659      1| ClientInstance::PJRT_Client_BufferFromHostBuffer
2025-10-28 19:04:57.703 (  17.327s) [        2AFB8480]     memory_instance.cc:57       1| MemoryInstance::getDevice
2025-10-28 19:04:57.703 (  17.327s) [        2AFB8480]      event_instance.cc:223      1| EventInstance::PJRT_Event_OnReady
2025-10-28 19:04:57.703 (  17.327s) [        2AFB8480]      event_instance.cc:172      1| EventInstance::PJRT_Event_Destroy
2025-10-28 19:04:57.703 (  17.327s) [        2AFB8480]  device_description.cc:44       1| DeviceDescription::PJRT_DeviceDescription_Id
2025-10-28 19:04:57.703 (  17.327s) [        2AFB8480]  device_description.cc:44       1| DeviceDescription::PJRT_DeviceDescription_Id
2025-10-28 19:04:57.703 (  17.327s) [        2AFB8480]  device_description.cc:44       1| DeviceDescription::PJRT_DeviceDescription_Id
2025-10-28 19:04:57.703 (  17.327s) [        2AFB8480]  device_description.cc:44       1| DeviceDescription::PJRT_DeviceDescription_Id
2025-10-28 19:04:57.703 (  17.327s) [        2AFB8480]  device_description.cc:44       1| DeviceDescription::PJRT_DeviceDescription_Id
2025-10-28 19:04:57.703 (  17.327s) [        2AFB8480]  device_description.cc:44       1| DeviceDescription::PJRT_DeviceDescription_Id
2025-10-28 19:04:57.703 (  17.327s) [        2AFB8480]  device_description.cc:44       1| DeviceDescription::PJRT_DeviceDescription_Id
2025-10-28 19:04:57.703 (  17.327s) [        2AFB8480]  device_description.cc:44       1| DeviceDescription::PJRT_DeviceDescription_Id
2025-10-28 19:04:57.703 (  17.327s) [        2AFB8480]     device_instance.cc:82       1| DeviceInstance::PJRT_Device_DefaultMemory
2025-10-28 19:04:57.703 (  17.327s) [        2AFB8480]     client_instance.cc:659      1| ClientInstance::PJRT_Client_BufferFromHostBuffer
2025-10-28 19:04:57.703 (  17.327s) [        2AFB8480]     memory_instance.cc:57       1| MemoryInstance::getDevice
2025-10-28 19:04:57.703 (  17.327s) [        2AFB8480]      event_instance.cc:223      1| EventInstance::PJRT_Event_OnReady
2025-10-28 19:04:57.703 (  17.327s) [        2AFB8480]      event_instance.cc:172      1| EventInstance::PJRT_Event_Destroy
2025-10-28 19:04:57.703 (  17.327s) [        2AFB8480]     device_instance.cc:82       1| DeviceInstance::PJRT_Device_DefaultMemory
2025-10-28 19:04:57.703 (  17.327s) [        2AFB8480]     client_instance.cc:659      1| ClientInstance::PJRT_Client_BufferFromHostBuffer
2025-10-28 19:04:57.703 (  17.327s) [        2AFB8480]     memory_instance.cc:57       1| MemoryInstance::getDevice
2025-10-28 19:04:57.703 (  17.327s) [        2AFB8480]      event_instance.cc:223      1| EventInstance::PJRT_Event_OnReady
2025-10-28 19:04:57.703 (  17.327s) [        2AFB8480]      event_instance.cc:172      1| EventInstance::PJRT_Event_Destroy
2025-10-28 19:04:57.703 (  17.327s) [        2AFB8480]     device_instance.cc:82       1| DeviceInstance::PJRT_Device_DefaultMemory
2025-10-28 19:04:57.703 (  17.327s) [        2AFB8480]     client_instance.cc:659      1| ClientInstance::PJRT_Client_BufferFromHostBuffer
2025-10-28 19:04:57.703 (  17.327s) [        2AFB8480]     memory_instance.cc:57       1| MemoryInstance::getDevice
2025-10-28 19:04:57.703 (  17.327s) [        2AFB8480]      event_instance.cc:223      1| EventInstance::PJRT_Event_OnReady
2025-10-28 19:04:57.703 (  17.327s) [        2AFB8480]      event_instance.cc:172      1| EventInstance::PJRT_Event_Destroy
2025-10-28 19:04:57.703 (  17.327s) [        2AFB8480]     device_instance.cc:82       1| DeviceInstance::PJRT_Device_DefaultMemory
2025-10-28 19:04:57.703 (  17.327s) [        2AFB8480]     client_instance.cc:659      1| ClientInstance::PJRT_Client_BufferFromHostBuffer
2025-10-28 19:04:57.703 (  17.327s) [        2AFB8480]     memory_instance.cc:57       1| MemoryInstance::getDevice
2025-10-28 19:04:57.703 (  17.327s) [        2AFB8480]      event_instance.cc:223      1| EventInstance::PJRT_Event_OnReady
2025-10-28 19:04:57.703 (  17.327s) [        2AFB8480]      event_instance.cc:172      1| EventInstance::PJRT_Event_Destroy
2025-10-28 19:04:57.703 (  17.327s) [        2AFB8480]     device_instance.cc:82       1| DeviceInstance::PJRT_Device_DefaultMemory
2025-10-28 19:04:57.703 (  17.327s) [        2AFB8480]     client_instance.cc:659      1| ClientInstance::PJRT_Client_BufferFromHostBuffer
2025-10-28 19:04:57.703 (  17.327s) [        2AFB8480]     memory_instance.cc:57       1| MemoryInstance::getDevice
2025-10-28 19:04:57.703 (  17.327s) [        2AFB8480]      event_instance.cc:223      1| EventInstance::PJRT_Event_OnReady
2025-10-28 19:04:57.703 (  17.327s) [        2AFB8480]      event_instance.cc:172      1| EventInstance::PJRT_Event_Destroy
2025-10-28 19:04:57.703 (  17.327s) [        2AFB8480]     device_instance.cc:82       1| DeviceInstance::PJRT_Device_DefaultMemory
2025-10-28 19:04:57.703 (  17.327s) [        2AFB8480]     client_instance.cc:659      1| ClientInstance::PJRT_Client_BufferFromHostBuffer
2025-10-28 19:04:57.703 (  17.327s) [        2AFB8480]     memory_instance.cc:57       1| MemoryInstance::getDevice
2025-10-28 19:04:57.703 (  17.327s) [        2AFB8480]      event_instance.cc:223      1| EventInstance::PJRT_Event_OnReady
2025-10-28 19:04:57.703 (  17.327s) [        2AFB8480]      event_instance.cc:172      1| EventInstance::PJRT_Event_Destroy
2025-10-28 19:04:57.703 (  17.327s) [        2AFB8480]     device_instance.cc:82       1| DeviceInstance::PJRT_Device_DefaultMemory
2025-10-28 19:04:57.703 (  17.327s) [        2AFB8480]     client_instance.cc:659      1| ClientInstance::PJRT_Client_BufferFromHostBuffer
2025-10-28 19:04:57.703 (  17.327s) [        2AFB8480]     memory_instance.cc:57       1| MemoryInstance::getDevice
2025-10-28 19:04:57.703 (  17.327s) [        2AFB8480]      event_instance.cc:223      1| EventInstance::PJRT_Event_OnReady
2025-10-28 19:04:57.703 (  17.327s) [        2AFB8480]      event_instance.cc:172      1| EventInstance::PJRT_Event_Destroy
2025-10-28 19:04:57.703 (  17.327s) [        2AFB8480]     device_instance.cc:82       1| DeviceInstance::PJRT_Device_DefaultMemory
2025-10-28 19:04:57.703 (  17.327s) [        2AFB8480]     client_instance.cc:659      1| ClientInstance::PJRT_Client_BufferFromHostBuffer
2025-10-28 19:04:57.703 (  17.327s) [        2AFB8480]     memory_instance.cc:57       1| MemoryInstance::getDevice
2025-10-28 19:04:57.703 (  17.327s) [        2AFB8480]      event_instance.cc:223      1| EventInstance::PJRT_Event_OnReady
2025-10-28 19:04:57.703 (  17.327s) [        2AFB8480]      event_instance.cc:172      1| EventInstance::PJRT_Event_Destroy
2025-10-28 19:04:57.704 (  17.328s) [        2AFB8480]  device_description.cc:44       1| DeviceDescription::PJRT_DeviceDescription_Id
2025-10-28 19:04:57.704 (  17.328s) [        2AFB8480]  device_description.cc:44       1| DeviceDescription::PJRT_DeviceDescription_Id
2025-10-28 19:04:57.704 (  17.328s) [        2AFB8480]  device_description.cc:44       1| DeviceDescription::PJRT_DeviceDescription_Id
2025-10-28 19:04:57.704 (  17.328s) [        2AFB8480]  device_description.cc:44       1| DeviceDescription::PJRT_DeviceDescription_Id
2025-10-28 19:04:57.704 (  17.328s) [        2AFB8480]  device_description.cc:44       1| DeviceDescription::PJRT_DeviceDescription_Id
2025-10-28 19:04:57.704 (  17.328s) [        2AFB8480]  device_description.cc:44       1| DeviceDescription::PJRT_DeviceDescription_Id
2025-10-28 19:04:57.704 (  17.328s) [        2AFB8480]  device_description.cc:44       1| DeviceDescription::PJRT_DeviceDescription_Id
2025-10-28 19:04:57.704 (  17.328s) [        2AFB8480]  device_description.cc:44       1| DeviceDescription::PJRT_DeviceDescription_Id
2025-10-28 19:04:57.705 (  17.329s) [        2AFB8480]     device_instance.cc:82       1| DeviceInstance::PJRT_Device_DefaultMemory
2025-10-28 19:04:57.705 (  17.329s) [        2AFB8480]     client_instance.cc:659      1| ClientInstance::PJRT_Client_BufferFromHostBuffer
2025-10-28 19:04:57.705 (  17.329s) [        2AFB8480]     memory_instance.cc:57       1| MemoryInstance::getDevice
2025-10-28 19:04:57.705 (  17.329s) [        2AFB8480]      event_instance.cc:223      1| EventInstance::PJRT_Event_OnReady
2025-10-28 19:04:57.705 (  17.329s) [        2AFB8480]      event_instance.cc:172      1| EventInstance::PJRT_Event_Destroy
2025-10-28 19:04:57.705 (  17.329s) [        2AFB8480]     device_instance.cc:82       1| DeviceInstance::PJRT_Device_DefaultMemory
2025-10-28 19:04:57.705 (  17.329s) [        2AFB8480]     client_instance.cc:659      1| ClientInstance::PJRT_Client_BufferFromHostBuffer
2025-10-28 19:04:57.705 (  17.329s) [        2AFB8480]     memory_instance.cc:57       1| MemoryInstance::getDevice
2025-10-28 19:04:57.705 (  17.329s) [        2AFB8480]      event_instance.cc:223      1| EventInstance::PJRT_Event_OnReady
2025-10-28 19:04:57.705 (  17.329s) [        2AFB8480]      event_instance.cc:172      1| EventInstance::PJRT_Event_Destroy
2025-10-28 19:04:57.705 (  17.329s) [        2AFB8480]     device_instance.cc:82       1| DeviceInstance::PJRT_Device_DefaultMemory
2025-10-28 19:04:57.705 (  17.329s) [        2AFB8480]     client_instance.cc:659      1| ClientInstance::PJRT_Client_BufferFromHostBuffer
2025-10-28 19:04:57.705 (  17.329s) [        2AFB8480]     memory_instance.cc:57       1| MemoryInstance::getDevice
2025-10-28 19:04:57.705 (  17.329s) [        2AFB8480]      event_instance.cc:223      1| EventInstance::PJRT_Event_OnReady
2025-10-28 19:04:57.705 (  17.329s) [        2AFB8480]      event_instance.cc:172      1| EventInstance::PJRT_Event_Destroy
2025-10-28 19:04:57.705 (  17.329s) [        2AFB8480]     device_instance.cc:82       1| DeviceInstance::PJRT_Device_DefaultMemory
2025-10-28 19:04:57.705 (  17.329s) [        2AFB8480]     client_instance.cc:659      1| ClientInstance::PJRT_Client_BufferFromHostBuffer
2025-10-28 19:04:57.705 (  17.329s) [        2AFB8480]     memory_instance.cc:57       1| MemoryInstance::getDevice
2025-10-28 19:04:57.705 (  17.329s) [        2AFB8480]      event_instance.cc:223      1| EventInstance::PJRT_Event_OnReady
2025-10-28 19:04:57.705 (  17.329s) [        2AFB8480]      event_instance.cc:172      1| EventInstance::PJRT_Event_Destroy
2025-10-28 19:04:57.705 (  17.329s) [        2AFB8480]     device_instance.cc:82       1| DeviceInstance::PJRT_Device_DefaultMemory
2025-10-28 19:04:57.705 (  17.329s) [        2AFB8480]     client_instance.cc:659      1| ClientInstance::PJRT_Client_BufferFromHostBuffer
2025-10-28 19:04:57.705 (  17.329s) [        2AFB8480]     memory_instance.cc:57       1| MemoryInstance::getDevice
2025-10-28 19:04:57.705 (  17.329s) [        2AFB8480]      event_instance.cc:223      1| EventInstance::PJRT_Event_OnReady
2025-10-28 19:04:57.705 (  17.329s) [        2AFB8480]      event_instance.cc:172      1| EventInstance::PJRT_Event_Destroy
2025-10-28 19:04:57.705 (  17.329s) [        2AFB8480]     device_instance.cc:82       1| DeviceInstance::PJRT_Device_DefaultMemory
2025-10-28 19:04:57.705 (  17.329s) [        2AFB8480]     client_instance.cc:659      1| ClientInstance::PJRT_Client_BufferFromHostBuffer
2025-10-28 19:04:57.705 (  17.329s) [        2AFB8480]     memory_instance.cc:57       1| MemoryInstance::getDevice
2025-10-28 19:04:57.705 (  17.329s) [        2AFB8480]      event_instance.cc:223      1| EventInstance::PJRT_Event_OnReady
2025-10-28 19:04:57.705 (  17.329s) [        2AFB8480]      event_instance.cc:172      1| EventInstance::PJRT_Event_Destroy
2025-10-28 19:04:57.705 (  17.329s) [        2AFB8480]     device_instance.cc:82       1| DeviceInstance::PJRT_Device_DefaultMemory
2025-10-28 19:04:57.705 (  17.329s) [        2AFB8480]     client_instance.cc:659      1| ClientInstance::PJRT_Client_BufferFromHostBuffer
2025-10-28 19:04:57.705 (  17.329s) [        2AFB8480]     memory_instance.cc:57       1| MemoryInstance::getDevice
2025-10-28 19:04:57.705 (  17.329s) [        2AFB8480]      event_instance.cc:223      1| EventInstance::PJRT_Event_OnReady
2025-10-28 19:04:57.705 (  17.329s) [        2AFB8480]      event_instance.cc:172      1| EventInstance::PJRT_Event_Destroy
2025-10-28 19:04:57.705 (  17.329s) [        2AFB8480]     device_instance.cc:82       1| DeviceInstance::PJRT_Device_DefaultMemory
2025-10-28 19:04:57.705 (  17.329s) [        2AFB8480]     client_instance.cc:659      1| ClientInstance::PJRT_Client_BufferFromHostBuffer
2025-10-28 19:04:57.705 (  17.329s) [        2AFB8480]     memory_instance.cc:57       1| MemoryInstance::getDevice
2025-10-28 19:04:57.705 (  17.329s) [        2AFB8480]      event_instance.cc:223      1| EventInstance::PJRT_Event_OnReady
2025-10-28 19:04:57.705 (  17.329s) [        2AFB8480]      event_instance.cc:172      1| EventInstance::PJRT_Event_Destroy
2025-10-28 19:04:57.705 (  17.330s) [        2AFB8480]  device_description.cc:44       1| DeviceDescription::PJRT_DeviceDescription_Id
2025-10-28 19:04:57.705 (  17.330s) [        2AFB8480]  device_description.cc:44       1| DeviceDescription::PJRT_DeviceDescription_Id
2025-10-28 19:04:57.706 (  17.330s) [        2AFB8480]  device_description.cc:44       1| DeviceDescription::PJRT_DeviceDescription_Id
2025-10-28 19:04:57.706 (  17.330s) [        2AFB8480]  device_description.cc:44       1| DeviceDescription::PJRT_DeviceDescription_Id
2025-10-28 19:04:57.706 (  17.330s) [        2AFB8480]  device_description.cc:44       1| DeviceDescription::PJRT_DeviceDescription_Id
2025-10-28 19:04:57.706 (  17.330s) [        2AFB8480]  device_description.cc:44       1| DeviceDescription::PJRT_DeviceDescription_Id
2025-10-28 19:04:57.706 (  17.330s) [        2AFB8480]  device_description.cc:44       1| DeviceDescription::PJRT_DeviceDescription_Id
2025-10-28 19:04:57.706 (  17.330s) [        2AFB8480]  device_description.cc:44       1| DeviceDescription::PJRT_DeviceDescription_Id
2025-10-28 19:04:57.706 (  17.330s) [        2AFB8480]     device_instance.cc:82       1| DeviceInstance::PJRT_Device_DefaultMemory
2025-10-28 19:04:57.706 (  17.330s) [        2AFB8480]     client_instance.cc:659      1| ClientInstance::PJRT_Client_BufferFromHostBuffer
2025-10-28 19:04:57.706 (  17.330s) [        2AFB8480]     memory_instance.cc:57       1| MemoryInstance::getDevice
2025-10-28 19:04:57.706 (  17.330s) [        2AFB8480]      event_instance.cc:223      1| EventInstance::PJRT_Event_OnReady
2025-10-28 19:04:57.706 (  17.330s) [        2AFB8480]      event_instance.cc:172      1| EventInstance::PJRT_Event_Destroy
2025-10-28 19:04:57.706 (  17.330s) [        2AFB8480]     device_instance.cc:82       1| DeviceInstance::PJRT_Device_DefaultMemory
2025-10-28 19:04:57.706 (  17.330s) [        2AFB8480]     client_instance.cc:659      1| ClientInstance::PJRT_Client_BufferFromHostBuffer
2025-10-28 19:04:57.706 (  17.330s) [        2AFB8480]     memory_instance.cc:57       1| MemoryInstance::getDevice
2025-10-28 19:04:57.706 (  17.330s) [        2AFB8480]      event_instance.cc:223      1| EventInstance::PJRT_Event_OnReady
2025-10-28 19:04:57.706 (  17.330s) [        2AFB8480]      event_instance.cc:172      1| EventInstance::PJRT_Event_Destroy
2025-10-28 19:04:57.706 (  17.330s) [        2AFB8480]     device_instance.cc:82       1| DeviceInstance::PJRT_Device_DefaultMemory
2025-10-28 19:04:57.706 (  17.330s) [        2AFB8480]     client_instance.cc:659      1| ClientInstance::PJRT_Client_BufferFromHostBuffer
2025-10-28 19:04:57.706 (  17.330s) [        2AFB8480]     memory_instance.cc:57       1| MemoryInstance::getDevice
2025-10-28 19:04:57.706 (  17.330s) [        2AFB8480]      event_instance.cc:223      1| EventInstance::PJRT_Event_OnReady
2025-10-28 19:04:57.706 (  17.330s) [        2AFB8480]      event_instance.cc:172      1| EventInstance::PJRT_Event_Destroy
2025-10-28 19:04:57.706 (  17.330s) [        2AFB8480]     device_instance.cc:82       1| DeviceInstance::PJRT_Device_DefaultMemory
2025-10-28 19:04:57.706 (  17.330s) [        2AFB8480]     client_instance.cc:659      1| ClientInstance::PJRT_Client_BufferFromHostBuffer
2025-10-28 19:04:57.706 (  17.330s) [        2AFB8480]     memory_instance.cc:57       1| MemoryInstance::getDevice
2025-10-28 19:04:57.706 (  17.330s) [        2AFB8480]      event_instance.cc:223      1| EventInstance::PJRT_Event_OnReady
2025-10-28 19:04:57.706 (  17.330s) [        2AFB8480]      event_instance.cc:172      1| EventInstance::PJRT_Event_Destroy
2025-10-28 19:04:57.706 (  17.330s) [        2AFB8480]     device_instance.cc:82       1| DeviceInstance::PJRT_Device_DefaultMemory
2025-10-28 19:04:57.706 (  17.330s) [        2AFB8480]     client_instance.cc:659      1| ClientInstance::PJRT_Client_BufferFromHostBuffer
2025-10-28 19:04:57.706 (  17.330s) [        2AFB8480]     memory_instance.cc:57       1| MemoryInstance::getDevice
2025-10-28 19:04:57.706 (  17.330s) [        2AFB8480]      event_instance.cc:223      1| EventInstance::PJRT_Event_OnReady
2025-10-28 19:04:57.706 (  17.330s) [        2AFB8480]      event_instance.cc:172      1| EventInstance::PJRT_Event_Destroy
2025-10-28 19:04:57.706 (  17.330s) [        2AFB8480]     device_instance.cc:82       1| DeviceInstance::PJRT_Device_DefaultMemory
2025-10-28 19:04:57.706 (  17.330s) [        2AFB8480]     client_instance.cc:659      1| ClientInstance::PJRT_Client_BufferFromHostBuffer
2025-10-28 19:04:57.706 (  17.330s) [        2AFB8480]     memory_instance.cc:57       1| MemoryInstance::getDevice
2025-10-28 19:04:57.706 (  17.330s) [        2AFB8480]      event_instance.cc:223      1| EventInstance::PJRT_Event_OnReady
2025-10-28 19:04:57.706 (  17.330s) [        2AFB8480]      event_instance.cc:172      1| EventInstance::PJRT_Event_Destroy
2025-10-28 19:04:57.706 (  17.330s) [        2AFB8480]     device_instance.cc:82       1| DeviceInstance::PJRT_Device_DefaultMemory
2025-10-28 19:04:57.706 (  17.330s) [        2AFB8480]     client_instance.cc:659      1| ClientInstance::PJRT_Client_BufferFromHostBuffer
2025-10-28 19:04:57.706 (  17.330s) [        2AFB8480]     memory_instance.cc:57       1| MemoryInstance::getDevice
2025-10-28 19:04:57.706 (  17.330s) [        2AFB8480]      event_instance.cc:223      1| EventInstance::PJRT_Event_OnReady
2025-10-28 19:04:57.706 (  17.330s) [        2AFB8480]      event_instance.cc:172      1| EventInstance::PJRT_Event_Destroy
2025-10-28 19:04:57.706 (  17.330s) [        2AFB8480]     device_instance.cc:82       1| DeviceInstance::PJRT_Device_DefaultMemory
2025-10-28 19:04:57.706 (  17.330s) [        2AFB8480]     client_instance.cc:659      1| ClientInstance::PJRT_Client_BufferFromHostBuffer
2025-10-28 19:04:57.706 (  17.330s) [        2AFB8480]     memory_instance.cc:57       1| MemoryInstance::getDevice
2025-10-28 19:04:57.706 (  17.330s) [        2AFB8480]      event_instance.cc:223      1| EventInstance::PJRT_Event_OnReady
2025-10-28 19:04:57.706 (  17.330s) [        2AFB8480]      event_instance.cc:172      1| EventInstance::PJRT_Event_Destroy
2025-10-28 19:04:57.706 (  17.330s) [        2AFB8480]  device_description.cc:44       1| DeviceDescription::PJRT_DeviceDescription_Id
2025-10-28 19:04:57.706 (  17.330s) [        2AFB8480]  device_description.cc:44       1| DeviceDescription::PJRT_DeviceDescription_Id
2025-10-28 19:04:57.706 (  17.330s) [        2AFB8480]  device_description.cc:44       1| DeviceDescription::PJRT_DeviceDescription_Id
2025-10-28 19:04:57.706 (  17.330s) [        2AFB8480]  device_description.cc:44       1| DeviceDescription::PJRT_DeviceDescription_Id
2025-10-28 19:04:57.706 (  17.330s) [        2AFB8480]  device_description.cc:44       1| DeviceDescription::PJRT_DeviceDescription_Id
2025-10-28 19:04:57.706 (  17.330s) [        2AFB8480]  device_description.cc:44       1| DeviceDescription::PJRT_DeviceDescription_Id
2025-10-28 19:04:57.706 (  17.330s) [        2AFB8480]  device_description.cc:44       1| DeviceDescription::PJRT_DeviceDescription_Id
2025-10-28 19:04:57.706 (  17.330s) [        2AFB8480]  device_description.cc:44       1| DeviceDescription::PJRT_DeviceDescription_Id
2025-10-28 19:04:57.706 (  17.330s) [        2AFB8480]     device_instance.cc:82       1| DeviceInstance::PJRT_Device_DefaultMemory
2025-10-28 19:04:57.706 (  17.330s) [        2AFB8480]     client_instance.cc:659      1| ClientInstance::PJRT_Client_BufferFromHostBuffer
2025-10-28 19:04:57.706 (  17.330s) [        2AFB8480]     memory_instance.cc:57       1| MemoryInstance::getDevice
2025-10-28 19:04:57.706 (  17.330s) [        2AFB8480]      event_instance.cc:223      1| EventInstance::PJRT_Event_OnReady
2025-10-28 19:04:57.706 (  17.330s) [        2AFB8480]      event_instance.cc:172      1| EventInstance::PJRT_Event_Destroy
2025-10-28 19:04:57.706 (  17.330s) [        2AFB8480]     device_instance.cc:82       1| DeviceInstance::PJRT_Device_DefaultMemory
2025-10-28 19:04:57.706 (  17.330s) [        2AFB8480]     client_instance.cc:659      1| ClientInstance::PJRT_Client_BufferFromHostBuffer
2025-10-28 19:04:57.706 (  17.330s) [        2AFB8480]     memory_instance.cc:57       1| MemoryInstance::getDevice
2025-10-28 19:04:57.706 (  17.330s) [        2AFB8480]      event_instance.cc:223      1| EventInstance::PJRT_Event_OnReady
2025-10-28 19:04:57.706 (  17.330s) [        2AFB8480]      event_instance.cc:172      1| EventInstance::PJRT_Event_Destroy
2025-10-28 19:04:57.706 (  17.330s) [        2AFB8480]     device_instance.cc:82       1| DeviceInstance::PJRT_Device_DefaultMemory
2025-10-28 19:04:57.706 (  17.330s) [        2AFB8480]     client_instance.cc:659      1| ClientInstance::PJRT_Client_BufferFromHostBuffer
2025-10-28 19:04:57.706 (  17.330s) [        2AFB8480]     memory_instance.cc:57       1| MemoryInstance::getDevice
2025-10-28 19:04:57.706 (  17.330s) [        2AFB8480]      event_instance.cc:223      1| EventInstance::PJRT_Event_OnReady
2025-10-28 19:04:57.706 (  17.330s) [        2AFB8480]      event_instance.cc:172      1| EventInstance::PJRT_Event_Destroy
2025-10-28 19:04:57.706 (  17.330s) [        2AFB8480]     device_instance.cc:82       1| DeviceInstance::PJRT_Device_DefaultMemory
2025-10-28 19:04:57.706 (  17.331s) [        2AFB8480]     client_instance.cc:659      1| ClientInstance::PJRT_Client_BufferFromHostBuffer
2025-10-28 19:04:57.706 (  17.331s) [        2AFB8480]     memory_instance.cc:57       1| MemoryInstance::getDevice
2025-10-28 19:04:57.706 (  17.331s) [        2AFB8480]      event_instance.cc:223      1| EventInstance::PJRT_Event_OnReady
2025-10-28 19:04:57.707 (  17.331s) [        2AFB8480]      event_instance.cc:172      1| EventInstance::PJRT_Event_Destroy
2025-10-28 19:04:57.707 (  17.331s) [        2AFB8480]     device_instance.cc:82       1| DeviceInstance::PJRT_Device_DefaultMemory
2025-10-28 19:04:57.707 (  17.331s) [        2AFB8480]     client_instance.cc:659      1| ClientInstance::PJRT_Client_BufferFromHostBuffer
2025-10-28 19:04:57.707 (  17.331s) [        2AFB8480]     memory_instance.cc:57       1| MemoryInstance::getDevice
2025-10-28 19:04:57.707 (  17.331s) [        2AFB8480]      event_instance.cc:223      1| EventInstance::PJRT_Event_OnReady
2025-10-28 19:04:57.707 (  17.331s) [        2AFB8480]      event_instance.cc:172      1| EventInstance::PJRT_Event_Destroy
2025-10-28 19:04:57.707 (  17.331s) [        2AFB8480]     device_instance.cc:82       1| DeviceInstance::PJRT_Device_DefaultMemory
2025-10-28 19:04:57.707 (  17.331s) [        2AFB8480]     client_instance.cc:659      1| ClientInstance::PJRT_Client_BufferFromHostBuffer
2025-10-28 19:04:57.707 (  17.331s) [        2AFB8480]     memory_instance.cc:57       1| MemoryInstance::getDevice
2025-10-28 19:04:57.707 (  17.331s) [        2AFB8480]      event_instance.cc:223      1| EventInstance::PJRT_Event_OnReady
2025-10-28 19:04:57.707 (  17.331s) [        2AFB8480]      event_instance.cc:172      1| EventInstance::PJRT_Event_Destroy
2025-10-28 19:04:57.707 (  17.331s) [        2AFB8480]     device_instance.cc:82       1| DeviceInstance::PJRT_Device_DefaultMemory
2025-10-28 19:04:57.707 (  17.331s) [        2AFB8480]     client_instance.cc:659      1| ClientInstance::PJRT_Client_BufferFromHostBuffer
2025-10-28 19:04:57.707 (  17.331s) [        2AFB8480]     memory_instance.cc:57       1| MemoryInstance::getDevice
2025-10-28 19:04:57.707 (  17.331s) [        2AFB8480]      event_instance.cc:223      1| EventInstance::PJRT_Event_OnReady
2025-10-28 19:04:57.707 (  17.331s) [        2AFB8480]      event_instance.cc:172      1| EventInstance::PJRT_Event_Destroy
2025-10-28 19:04:57.707 (  17.331s) [        2AFB8480]     device_instance.cc:82       1| DeviceInstance::PJRT_Device_DefaultMemory
2025-10-28 19:04:57.707 (  17.331s) [        2AFB8480]     client_instance.cc:659      1| ClientInstance::PJRT_Client_BufferFromHostBuffer
2025-10-28 19:04:57.707 (  17.331s) [        2AFB8480]     memory_instance.cc:57       1| MemoryInstance::getDevice
2025-10-28 19:04:57.707 (  17.331s) [        2AFB8480]      event_instance.cc:223      1| EventInstance::PJRT_Event_OnReady
2025-10-28 19:04:57.707 (  17.331s) [        2AFB8480]      event_instance.cc:172      1| EventInstance::PJRT_Event_Destroy
2025-10-28 19:04:57.707 (  17.331s) [        2AFB8480]  device_description.cc:44       1| DeviceDescription::PJRT_DeviceDescription_Id
2025-10-28 19:04:57.707 (  17.331s) [        2AFB8480]  device_description.cc:44       1| DeviceDescription::PJRT_DeviceDescription_Id
2025-10-28 19:04:57.707 (  17.331s) [        2AFB8480]  device_description.cc:44       1| DeviceDescription::PJRT_DeviceDescription_Id
2025-10-28 19:04:57.707 (  17.331s) [        2AFB8480]  device_description.cc:44       1| DeviceDescription::PJRT_DeviceDescription_Id
2025-10-28 19:04:57.707 (  17.331s) [        2AFB8480]  device_description.cc:44       1| DeviceDescription::PJRT_DeviceDescription_Id
2025-10-28 19:04:57.707 (  17.331s) [        2AFB8480]  device_description.cc:44       1| DeviceDescription::PJRT_DeviceDescription_Id
2025-10-28 19:04:57.707 (  17.331s) [        2AFB8480]  device_description.cc:44       1| DeviceDescription::PJRT_DeviceDescription_Id
2025-10-28 19:04:57.707 (  17.331s) [        2AFB8480]  device_description.cc:44       1| DeviceDescription::PJRT_DeviceDescription_Id
2025-10-28 19:04:57.707 (  17.331s) [        2AFB8480]     device_instance.cc:82       1| DeviceInstance::PJRT_Device_DefaultMemory
2025-10-28 19:04:57.707 (  17.331s) [        2AFB8480]     client_instance.cc:659      1| ClientInstance::PJRT_Client_BufferFromHostBuffer
2025-10-28 19:04:57.707 (  17.331s) [        2AFB8480]     memory_instance.cc:57       1| MemoryInstance::getDevice
2025-10-28 19:04:57.707 (  17.331s) [        2AFB8480]      event_instance.cc:223      1| EventInstance::PJRT_Event_OnReady
2025-10-28 19:04:57.707 (  17.331s) [        2AFB8480]      event_instance.cc:172      1| EventInstance::PJRT_Event_Destroy
2025-10-28 19:04:57.707 (  17.331s) [        2AFB8480]     device_instance.cc:82       1| DeviceInstance::PJRT_Device_DefaultMemory
2025-10-28 19:04:57.707 (  17.331s) [        2AFB8480]     client_instance.cc:659      1| ClientInstance::PJRT_Client_BufferFromHostBuffer
2025-10-28 19:04:57.707 (  17.331s) [        2AFB8480]     memory_instance.cc:57       1| MemoryInstance::getDevice
2025-10-28 19:04:57.707 (  17.331s) [        2AFB8480]      event_instance.cc:223      1| EventInstance::PJRT_Event_OnReady
2025-10-28 19:04:57.707 (  17.331s) [        2AFB8480]      event_instance.cc:172      1| EventInstance::PJRT_Event_Destroy
2025-10-28 19:04:57.707 (  17.331s) [        2AFB8480]     device_instance.cc:82       1| DeviceInstance::PJRT_Device_DefaultMemory
2025-10-28 19:04:57.707 (  17.331s) [        2AFB8480]     client_instance.cc:659      1| ClientInstance::PJRT_Client_BufferFromHostBuffer
2025-10-28 19:04:57.707 (  17.331s) [        2AFB8480]     memory_instance.cc:57       1| MemoryInstance::getDevice
2025-10-28 19:04:57.707 (  17.331s) [        2AFB8480]      event_instance.cc:223      1| EventInstance::PJRT_Event_OnReady
2025-10-28 19:04:57.707 (  17.331s) [        2AFB8480]      event_instance.cc:172      1| EventInstance::PJRT_Event_Destroy
2025-10-28 19:04:57.707 (  17.331s) [        2AFB8480]     device_instance.cc:82       1| DeviceInstance::PJRT_Device_DefaultMemory
2025-10-28 19:04:57.707 (  17.331s) [        2AFB8480]     client_instance.cc:659      1| ClientInstance::PJRT_Client_BufferFromHostBuffer
2025-10-28 19:04:57.707 (  17.331s) [        2AFB8480]     memory_instance.cc:57       1| MemoryInstance::getDevice
2025-10-28 19:04:57.707 (  17.331s) [        2AFB8480]      event_instance.cc:223      1| EventInstance::PJRT_Event_OnReady
2025-10-28 19:04:57.707 (  17.331s) [        2AFB8480]      event_instance.cc:172      1| EventInstance::PJRT_Event_Destroy
2025-10-28 19:04:57.707 (  17.331s) [        2AFB8480]     device_instance.cc:82       1| DeviceInstance::PJRT_Device_DefaultMemory
2025-10-28 19:04:57.707 (  17.331s) [        2AFB8480]     client_instance.cc:659      1| ClientInstance::PJRT_Client_BufferFromHostBuffer
2025-10-28 19:04:57.707 (  17.331s) [        2AFB8480]     memory_instance.cc:57       1| MemoryInstance::getDevice
2025-10-28 19:04:57.707 (  17.331s) [        2AFB8480]      event_instance.cc:223      1| EventInstance::PJRT_Event_OnReady
2025-10-28 19:04:57.707 (  17.331s) [        2AFB8480]      event_instance.cc:172      1| EventInstance::PJRT_Event_Destroy
2025-10-28 19:04:57.707 (  17.331s) [        2AFB8480]     device_instance.cc:82       1| DeviceInstance::PJRT_Device_DefaultMemory
2025-10-28 19:04:57.707 (  17.331s) [        2AFB8480]     client_instance.cc:659      1| ClientInstance::PJRT_Client_BufferFromHostBuffer
2025-10-28 19:04:57.707 (  17.331s) [        2AFB8480]     memory_instance.cc:57       1| MemoryInstance::getDevice
2025-10-28 19:04:57.707 (  17.331s) [        2AFB8480]      event_instance.cc:223      1| EventInstance::PJRT_Event_OnReady
2025-10-28 19:04:57.707 (  17.331s) [        2AFB8480]      event_instance.cc:172      1| EventInstance::PJRT_Event_Destroy
2025-10-28 19:04:57.707 (  17.331s) [        2AFB8480]     device_instance.cc:82       1| DeviceInstance::PJRT_Device_DefaultMemory
2025-10-28 19:04:57.707 (  17.331s) [        2AFB8480]     client_instance.cc:659      1| ClientInstance::PJRT_Client_BufferFromHostBuffer
2025-10-28 19:04:57.707 (  17.331s) [        2AFB8480]     memory_instance.cc:57       1| MemoryInstance::getDevice
2025-10-28 19:04:57.707 (  17.331s) [        2AFB8480]      event_instance.cc:223      1| EventInstance::PJRT_Event_OnReady
2025-10-28 19:04:57.707 (  17.331s) [        2AFB8480]      event_instance.cc:172      1| EventInstance::PJRT_Event_Destroy
2025-10-28 19:04:57.707 (  17.331s) [        2AFB8480]     device_instance.cc:82       1| DeviceInstance::PJRT_Device_DefaultMemory
2025-10-28 19:04:57.707 (  17.331s) [        2AFB8480]     client_instance.cc:659      1| ClientInstance::PJRT_Client_BufferFromHostBuffer
2025-10-28 19:04:57.707 (  17.331s) [        2AFB8480]     memory_instance.cc:57       1| MemoryInstance::getDevice
2025-10-28 19:04:57.707 (  17.331s) [        2AFB8480]      event_instance.cc:223      1| EventInstance::PJRT_Event_OnReady
2025-10-28 19:04:57.707 (  17.331s) [        2AFB8480]      event_instance.cc:172      1| EventInstance::PJRT_Event_Destroy
2025-10-28 19:04:57.708 (  17.332s) [        2AFB8480]  device_description.cc:44       1| DeviceDescription::PJRT_DeviceDescription_Id
2025-10-28 19:04:57.708 (  17.332s) [        2AFB8480]  device_description.cc:44       1| DeviceDescription::PJRT_DeviceDescription_Id
2025-10-28 19:04:57.708 (  17.332s) [        2AFB8480]  device_description.cc:44       1| DeviceDescription::PJRT_DeviceDescription_Id
2025-10-28 19:04:57.708 (  17.332s) [        2AFB8480]  device_description.cc:44       1| DeviceDescription::PJRT_DeviceDescription_Id
2025-10-28 19:04:57.708 (  17.332s) [        2AFB8480]  device_description.cc:44       1| DeviceDescription::PJRT_DeviceDescription_Id
2025-10-28 19:04:57.708 (  17.332s) [        2AFB8480]  device_description.cc:44       1| DeviceDescription::PJRT_DeviceDescription_Id
2025-10-28 19:04:57.708 (  17.332s) [        2AFB8480]  device_description.cc:44       1| DeviceDescription::PJRT_DeviceDescription_Id
2025-10-28 19:04:57.708 (  17.332s) [        2AFB8480]  device_description.cc:44       1| DeviceDescription::PJRT_DeviceDescription_Id
2025-10-28 19:04:57.710 (  17.334s) [        2AFB8480]     device_instance.cc:82       1| DeviceInstance::PJRT_Device_DefaultMemory
2025-10-28 19:04:57.710 (  17.334s) [        2AFB8480]     client_instance.cc:659      1| ClientInstance::PJRT_Client_BufferFromHostBuffer
2025-10-28 19:04:57.710 (  17.334s) [        2AFB8480]     memory_instance.cc:57       1| MemoryInstance::getDevice
2025-10-28 19:04:57.710 (  17.334s) [        2AFB8480]      event_instance.cc:223      1| EventInstance::PJRT_Event_OnReady
2025-10-28 19:04:57.710 (  17.334s) [        2AFB8480]      event_instance.cc:172      1| EventInstance::PJRT_Event_Destroy
2025-10-28 19:04:57.710 (  17.334s) [        2AFB8480]     device_instance.cc:82       1| DeviceInstance::PJRT_Device_DefaultMemory
2025-10-28 19:04:57.710 (  17.334s) [        2AFB8480]     client_instance.cc:659      1| ClientInstance::PJRT_Client_BufferFromHostBuffer
2025-10-28 19:04:57.710 (  17.334s) [        2AFB8480]     memory_instance.cc:57       1| MemoryInstance::getDevice
2025-10-28 19:04:57.710 (  17.334s) [        2AFB8480]      event_instance.cc:223      1| EventInstance::PJRT_Event_OnReady
2025-10-28 19:04:57.710 (  17.334s) [        2AFB8480]      event_instance.cc:172      1| EventInstance::PJRT_Event_Destroy
2025-10-28 19:04:57.710 (  17.334s) [        2AFB8480]     device_instance.cc:82       1| DeviceInstance::PJRT_Device_DefaultMemory
2025-10-28 19:04:57.710 (  17.334s) [        2AFB8480]     client_instance.cc:659      1| ClientInstance::PJRT_Client_BufferFromHostBuffer
2025-10-28 19:04:57.710 (  17.334s) [        2AFB8480]     memory_instance.cc:57       1| MemoryInstance::getDevice
2025-10-28 19:04:57.710 (  17.334s) [        2AFB8480]      event_instance.cc:223      1| EventInstance::PJRT_Event_OnReady
2025-10-28 19:04:57.710 (  17.334s) [        2AFB8480]      event_instance.cc:172      1| EventInstance::PJRT_Event_Destroy
2025-10-28 19:04:57.710 (  17.334s) [        2AFB8480]     device_instance.cc:82       1| DeviceInstance::PJRT_Device_DefaultMemory
2025-10-28 19:04:57.710 (  17.334s) [        2AFB8480]     client_instance.cc:659      1| ClientInstance::PJRT_Client_BufferFromHostBuffer
2025-10-28 19:04:57.710 (  17.334s) [        2AFB8480]     memory_instance.cc:57       1| MemoryInstance::getDevice
2025-10-28 19:04:57.710 (  17.334s) [        2AFB8480]      event_instance.cc:223      1| EventInstance::PJRT_Event_OnReady
2025-10-28 19:04:57.710 (  17.334s) [        2AFB8480]      event_instance.cc:172      1| EventInstance::PJRT_Event_Destroy
2025-10-28 19:04:57.710 (  17.334s) [        2AFB8480]     device_instance.cc:82       1| DeviceInstance::PJRT_Device_DefaultMemory
2025-10-28 19:04:57.710 (  17.334s) [        2AFB8480]     client_instance.cc:659      1| ClientInstance::PJRT_Client_BufferFromHostBuffer
2025-10-28 19:04:57.710 (  17.334s) [        2AFB8480]     memory_instance.cc:57       1| MemoryInstance::getDevice
2025-10-28 19:04:57.710 (  17.335s) [        2AFB8480]      event_instance.cc:223      1| EventInstance::PJRT_Event_OnReady
2025-10-28 19:04:57.710 (  17.335s) [        2AFB8480]      event_instance.cc:172      1| EventInstance::PJRT_Event_Destroy
2025-10-28 19:04:57.710 (  17.335s) [        2AFB8480]     device_instance.cc:82       1| DeviceInstance::PJRT_Device_DefaultMemory
2025-10-28 19:04:57.711 (  17.335s) [        2AFB8480]     client_instance.cc:659      1| ClientInstance::PJRT_Client_BufferFromHostBuffer
2025-10-28 19:04:57.711 (  17.335s) [        2AFB8480]     memory_instance.cc:57       1| MemoryInstance::getDevice
2025-10-28 19:04:57.711 (  17.335s) [        2AFB8480]      event_instance.cc:223      1| EventInstance::PJRT_Event_OnReady
2025-10-28 19:04:57.711 (  17.335s) [        2AFB8480]      event_instance.cc:172      1| EventInstance::PJRT_Event_Destroy
2025-10-28 19:04:57.711 (  17.335s) [        2AFB8480]     device_instance.cc:82       1| DeviceInstance::PJRT_Device_DefaultMemory
2025-10-28 19:04:57.711 (  17.335s) [        2AFB8480]     client_instance.cc:659      1| ClientInstance::PJRT_Client_BufferFromHostBuffer
2025-10-28 19:04:57.711 (  17.335s) [        2AFB8480]     memory_instance.cc:57       1| MemoryInstance::getDevice
2025-10-28 19:04:57.711 (  17.335s) [        2AFB8480]      event_instance.cc:223      1| EventInstance::PJRT_Event_OnReady
2025-10-28 19:04:57.711 (  17.335s) [        2AFB8480]      event_instance.cc:172      1| EventInstance::PJRT_Event_Destroy
2025-10-28 19:04:57.711 (  17.335s) [        2AFB8480]     device_instance.cc:82       1| DeviceInstance::PJRT_Device_DefaultMemory
2025-10-28 19:04:57.711 (  17.335s) [        2AFB8480]     client_instance.cc:659      1| ClientInstance::PJRT_Client_BufferFromHostBuffer
2025-10-28 19:04:57.711 (  17.335s) [        2AFB8480]     memory_instance.cc:57       1| MemoryInstance::getDevice
2025-10-28 19:04:57.711 (  17.335s) [        2AFB8480]      event_instance.cc:223      1| EventInstance::PJRT_Event_OnReady
2025-10-28 19:04:57.711 (  17.335s) [        2AFB8480]      event_instance.cc:172      1| EventInstance::PJRT_Event_Destroy
2025-10-28 19:04:57.711 (  17.335s) [        2AFB8480]  device_description.cc:44       1| DeviceDescription::PJRT_DeviceDescription_Id
2025-10-28 19:04:57.711 (  17.335s) [        2AFB8480]  device_description.cc:44       1| DeviceDescription::PJRT_DeviceDescription_Id
2025-10-28 19:04:57.711 (  17.335s) [        2AFB8480]  device_description.cc:44       1| DeviceDescription::PJRT_DeviceDescription_Id
2025-10-28 19:04:57.711 (  17.335s) [        2AFB8480]  device_description.cc:44       1| DeviceDescription::PJRT_DeviceDescription_Id
2025-10-28 19:04:57.711 (  17.335s) [        2AFB8480]  device_description.cc:44       1| DeviceDescription::PJRT_DeviceDescription_Id
2025-10-28 19:04:57.711 (  17.335s) [        2AFB8480]  device_description.cc:44       1| DeviceDescription::PJRT_DeviceDescription_Id
2025-10-28 19:04:57.711 (  17.335s) [        2AFB8480]  device_description.cc:44       1| DeviceDescription::PJRT_DeviceDescription_Id
2025-10-28 19:04:57.711 (  17.335s) [        2AFB8480]  device_description.cc:44       1| DeviceDescription::PJRT_DeviceDescription_Id
2025-10-28 19:04:57.711 (  17.335s) [        2AFB8480]     device_instance.cc:82       1| DeviceInstance::PJRT_Device_DefaultMemory
2025-10-28 19:04:57.711 (  17.335s) [        2AFB8480]     client_instance.cc:659      1| ClientInstance::PJRT_Client_BufferFromHostBuffer
2025-10-28 19:04:57.711 (  17.335s) [        2AFB8480]     memory_instance.cc:57       1| MemoryInstance::getDevice
2025-10-28 19:04:57.711 (  17.335s) [        2AFB8480]      event_instance.cc:223      1| EventInstance::PJRT_Event_OnReady
2025-10-28 19:04:57.711 (  17.335s) [        2AFB8480]      event_instance.cc:172      1| EventInstance::PJRT_Event_Destroy
2025-10-28 19:04:57.711 (  17.335s) [        2AFB8480]     device_instance.cc:82       1| DeviceInstance::PJRT_Device_DefaultMemory
2025-10-28 19:04:57.711 (  17.335s) [        2AFB8480]     client_instance.cc:659      1| ClientInstance::PJRT_Client_BufferFromHostBuffer
2025-10-28 19:04:57.711 (  17.335s) [        2AFB8480]     memory_instance.cc:57       1| MemoryInstance::getDevice
2025-10-28 19:04:57.711 (  17.335s) [        2AFB8480]      event_instance.cc:223      1| EventInstance::PJRT_Event_OnReady
2025-10-28 19:04:57.711 (  17.335s) [        2AFB8480]      event_instance.cc:172      1| EventInstance::PJRT_Event_Destroy
2025-10-28 19:04:57.711 (  17.335s) [        2AFB8480]     device_instance.cc:82       1| DeviceInstance::PJRT_Device_DefaultMemory
2025-10-28 19:04:57.711 (  17.335s) [        2AFB8480]     client_instance.cc:659      1| ClientInstance::PJRT_Client_BufferFromHostBuffer
2025-10-28 19:04:57.711 (  17.335s) [        2AFB8480]     memory_instance.cc:57       1| MemoryInstance::getDevice
2025-10-28 19:04:57.711 (  17.335s) [        2AFB8480]      event_instance.cc:223      1| EventInstance::PJRT_Event_OnReady
2025-10-28 19:04:57.711 (  17.335s) [        2AFB8480]      event_instance.cc:172      1| EventInstance::PJRT_Event_Destroy
2025-10-28 19:04:57.711 (  17.335s) [        2AFB8480]     device_instance.cc:82       1| DeviceInstance::PJRT_Device_DefaultMemory
2025-10-28 19:04:57.711 (  17.335s) [        2AFB8480]     client_instance.cc:659      1| ClientInstance::PJRT_Client_BufferFromHostBuffer
2025-10-28 19:04:57.711 (  17.335s) [        2AFB8480]     memory_instance.cc:57       1| MemoryInstance::getDevice
2025-10-28 19:04:57.711 (  17.335s) [        2AFB8480]      event_instance.cc:223      1| EventInstance::PJRT_Event_OnReady
2025-10-28 19:04:57.711 (  17.335s) [        2AFB8480]      event_instance.cc:172      1| EventInstance::PJRT_Event_Destroy
2025-10-28 19:04:57.711 (  17.335s) [        2AFB8480]     device_instance.cc:82       1| DeviceInstance::PJRT_Device_DefaultMemory
2025-10-28 19:04:57.711 (  17.335s) [        2AFB8480]     client_instance.cc:659      1| ClientInstance::PJRT_Client_BufferFromHostBuffer
2025-10-28 19:04:57.711 (  17.335s) [        2AFB8480]     memory_instance.cc:57       1| MemoryInstance::getDevice
2025-10-28 19:04:57.711 (  17.335s) [        2AFB8480]      event_instance.cc:223      1| EventInstance::PJRT_Event_OnReady
2025-10-28 19:04:57.711 (  17.335s) [        2AFB8480]      event_instance.cc:172      1| EventInstance::PJRT_Event_Destroy
2025-10-28 19:04:57.711 (  17.335s) [        2AFB8480]     device_instance.cc:82       1| DeviceInstance::PJRT_Device_DefaultMemory
2025-10-28 19:04:57.711 (  17.335s) [        2AFB8480]     client_instance.cc:659      1| ClientInstance::PJRT_Client_BufferFromHostBuffer
2025-10-28 19:04:57.711 (  17.335s) [        2AFB8480]     memory_instance.cc:57       1| MemoryInstance::getDevice
2025-10-28 19:04:57.711 (  17.336s) [        2AFB8480]      event_instance.cc:223      1| EventInstance::PJRT_Event_OnReady
2025-10-28 19:04:57.711 (  17.336s) [        2AFB8480]      event_instance.cc:172      1| EventInstance::PJRT_Event_Destroy
2025-10-28 19:04:57.711 (  17.336s) [        2AFB8480]     device_instance.cc:82       1| DeviceInstance::PJRT_Device_DefaultMemory
2025-10-28 19:04:57.711 (  17.336s) [        2AFB8480]     client_instance.cc:659      1| ClientInstance::PJRT_Client_BufferFromHostBuffer
2025-10-28 19:04:57.711 (  17.336s) [        2AFB8480]     memory_instance.cc:57       1| MemoryInstance::getDevice
2025-10-28 19:04:57.712 (  17.336s) [        2AFB8480]      event_instance.cc:223      1| EventInstance::PJRT_Event_OnReady
2025-10-28 19:04:57.712 (  17.336s) [        2AFB8480]      event_instance.cc:172      1| EventInstance::PJRT_Event_Destroy
2025-10-28 19:04:57.712 (  17.336s) [        2AFB8480]     device_instance.cc:82       1| DeviceInstance::PJRT_Device_DefaultMemory
2025-10-28 19:04:57.712 (  17.336s) [        2AFB8480]     client_instance.cc:659      1| ClientInstance::PJRT_Client_BufferFromHostBuffer
2025-10-28 19:04:57.712 (  17.336s) [        2AFB8480]     memory_instance.cc:57       1| MemoryInstance::getDevice
2025-10-28 19:04:57.712 (  17.336s) [        2AFB8480]      event_instance.cc:223      1| EventInstance::PJRT_Event_OnReady
2025-10-28 19:04:57.712 (  17.336s) [        2AFB8480]      event_instance.cc:172      1| EventInstance::PJRT_Event_Destroy
2025-10-28 19:04:57.712 (  17.336s) [        2AFB8480]  device_description.cc:44       1| DeviceDescription::PJRT_DeviceDescription_Id
2025-10-28 19:04:57.712 (  17.336s) [        2AFB8480]  device_description.cc:44       1| DeviceDescription::PJRT_DeviceDescription_Id
2025-10-28 19:04:57.712 (  17.336s) [        2AFB8480]  device_description.cc:44       1| DeviceDescription::PJRT_DeviceDescription_Id
2025-10-28 19:04:57.712 (  17.336s) [        2AFB8480]  device_description.cc:44       1| DeviceDescription::PJRT_DeviceDescription_Id
2025-10-28 19:04:57.712 (  17.336s) [        2AFB8480]  device_description.cc:44       1| DeviceDescription::PJRT_DeviceDescription_Id
2025-10-28 19:04:57.712 (  17.336s) [        2AFB8480]  device_description.cc:44       1| DeviceDescription::PJRT_DeviceDescription_Id
2025-10-28 19:04:57.712 (  17.336s) [        2AFB8480]  device_description.cc:44       1| DeviceDescription::PJRT_DeviceDescription_Id
2025-10-28 19:04:57.712 (  17.336s) [        2AFB8480]  device_description.cc:44       1| DeviceDescription::PJRT_DeviceDescription_Id
2025-10-28 19:04:57.715 (  17.339s) [        2AFB8480]     device_instance.cc:82       1| DeviceInstance::PJRT_Device_DefaultMemory
2025-10-28 19:04:57.715 (  17.339s) [        2AFB8480]     client_instance.cc:659      1| ClientInstance::PJRT_Client_BufferFromHostBuffer
2025-10-28 19:04:57.715 (  17.339s) [        2AFB8480]     memory_instance.cc:57       1| MemoryInstance::getDevice
2025-10-28 19:04:57.715 (  17.339s) [        2AFB8480]      event_instance.cc:223      1| EventInstance::PJRT_Event_OnReady
2025-10-28 19:04:57.715 (  17.339s) [        2AFB8480]      event_instance.cc:172      1| EventInstance::PJRT_Event_Destroy
2025-10-28 19:04:57.715 (  17.339s) [        2AFB8480]     device_instance.cc:82       1| DeviceInstance::PJRT_Device_DefaultMemory
2025-10-28 19:04:57.715 (  17.339s) [        2AFB8480]     client_instance.cc:659      1| ClientInstance::PJRT_Client_BufferFromHostBuffer
2025-10-28 19:04:57.715 (  17.339s) [        2AFB8480]     memory_instance.cc:57       1| MemoryInstance::getDevice
2025-10-28 19:04:57.715 (  17.339s) [        2AFB8480]      event_instance.cc:223      1| EventInstance::PJRT_Event_OnReady
2025-10-28 19:04:57.715 (  17.339s) [        2AFB8480]      event_instance.cc:172      1| EventInstance::PJRT_Event_Destroy
2025-10-28 19:04:57.715 (  17.339s) [        2AFB8480]     device_instance.cc:82       1| DeviceInstance::PJRT_Device_DefaultMemory
2025-10-28 19:04:57.715 (  17.339s) [        2AFB8480]     client_instance.cc:659      1| ClientInstance::PJRT_Client_BufferFromHostBuffer
2025-10-28 19:04:57.715 (  17.339s) [        2AFB8480]     memory_instance.cc:57       1| MemoryInstance::getDevice
2025-10-28 19:04:57.715 (  17.339s) [        2AFB8480]      event_instance.cc:223      1| EventInstance::PJRT_Event_OnReady
2025-10-28 19:04:57.715 (  17.339s) [        2AFB8480]      event_instance.cc:172      1| EventInstance::PJRT_Event_Destroy
2025-10-28 19:04:57.715 (  17.339s) [        2AFB8480]     device_instance.cc:82       1| DeviceInstance::PJRT_Device_DefaultMemory
2025-10-28 19:04:57.715 (  17.339s) [        2AFB8480]     client_instance.cc:659      1| ClientInstance::PJRT_Client_BufferFromHostBuffer
2025-10-28 19:04:57.715 (  17.339s) [        2AFB8480]     memory_instance.cc:57       1| MemoryInstance::getDevice
2025-10-28 19:04:57.715 (  17.339s) [        2AFB8480]      event_instance.cc:223      1| EventInstance::PJRT_Event_OnReady
2025-10-28 19:04:57.715 (  17.339s) [        2AFB8480]      event_instance.cc:172      1| EventInstance::PJRT_Event_Destroy
2025-10-28 19:04:57.715 (  17.339s) [        2AFB8480]     device_instance.cc:82       1| DeviceInstance::PJRT_Device_DefaultMemory
2025-10-28 19:04:57.715 (  17.339s) [        2AFB8480]     client_instance.cc:659      1| ClientInstance::PJRT_Client_BufferFromHostBuffer
2025-10-28 19:04:57.715 (  17.339s) [        2AFB8480]     memory_instance.cc:57       1| MemoryInstance::getDevice
2025-10-28 19:04:57.715 (  17.339s) [        2AFB8480]      event_instance.cc:223      1| EventInstance::PJRT_Event_OnReady
2025-10-28 19:04:57.715 (  17.339s) [        2AFB8480]      event_instance.cc:172      1| EventInstance::PJRT_Event_Destroy
2025-10-28 19:04:57.715 (  17.339s) [        2AFB8480]     device_instance.cc:82       1| DeviceInstance::PJRT_Device_DefaultMemory
2025-10-28 19:04:57.715 (  17.339s) [        2AFB8480]     client_instance.cc:659      1| ClientInstance::PJRT_Client_BufferFromHostBuffer
2025-10-28 19:04:57.715 (  17.339s) [        2AFB8480]     memory_instance.cc:57       1| MemoryInstance::getDevice
2025-10-28 19:04:57.715 (  17.339s) [        2AFB8480]      event_instance.cc:223      1| EventInstance::PJRT_Event_OnReady
2025-10-28 19:04:57.715 (  17.339s) [        2AFB8480]      event_instance.cc:172      1| EventInstance::PJRT_Event_Destroy
2025-10-28 19:04:57.715 (  17.339s) [        2AFB8480]     device_instance.cc:82       1| DeviceInstance::PJRT_Device_DefaultMemory
2025-10-28 19:04:57.715 (  17.339s) [        2AFB8480]     client_instance.cc:659      1| ClientInstance::PJRT_Client_BufferFromHostBuffer
2025-10-28 19:04:57.715 (  17.339s) [        2AFB8480]     memory_instance.cc:57       1| MemoryInstance::getDevice
2025-10-28 19:04:57.715 (  17.339s) [        2AFB8480]      event_instance.cc:223      1| EventInstance::PJRT_Event_OnReady
2025-10-28 19:04:57.715 (  17.339s) [        2AFB8480]      event_instance.cc:172      1| EventInstance::PJRT_Event_Destroy
2025-10-28 19:04:57.715 (  17.339s) [        2AFB8480]     device_instance.cc:82       1| DeviceInstance::PJRT_Device_DefaultMemory
2025-10-28 19:04:57.715 (  17.339s) [        2AFB8480]     client_instance.cc:659      1| ClientInstance::PJRT_Client_BufferFromHostBuffer
2025-10-28 19:04:57.715 (  17.339s) [        2AFB8480]     memory_instance.cc:57       1| MemoryInstance::getDevice
2025-10-28 19:04:57.715 (  17.339s) [        2AFB8480]      event_instance.cc:223      1| EventInstance::PJRT_Event_OnReady
2025-10-28 19:04:57.715 (  17.339s) [        2AFB8480]      event_instance.cc:172      1| EventInstance::PJRT_Event_Destroy
2025-10-28 19:04:57.716 (  17.340s) [        2AFB8480]  device_description.cc:44       1| DeviceDescription::PJRT_DeviceDescription_Id
2025-10-28 19:04:57.716 (  17.340s) [        2AFB8480]  device_description.cc:44       1| DeviceDescription::PJRT_DeviceDescription_Id
2025-10-28 19:04:57.716 (  17.340s) [        2AFB8480]  device_description.cc:44       1| DeviceDescription::PJRT_DeviceDescription_Id
2025-10-28 19:04:57.716 (  17.340s) [        2AFB8480]  device_description.cc:44       1| DeviceDescription::PJRT_DeviceDescription_Id
2025-10-28 19:04:57.716 (  17.340s) [        2AFB8480]  device_description.cc:44       1| DeviceDescription::PJRT_DeviceDescription_Id
2025-10-28 19:04:57.716 (  17.340s) [        2AFB8480]  device_description.cc:44       1| DeviceDescription::PJRT_DeviceDescription_Id
2025-10-28 19:04:57.716 (  17.340s) [        2AFB8480]  device_description.cc:44       1| DeviceDescription::PJRT_DeviceDescription_Id
2025-10-28 19:04:57.716 (  17.340s) [        2AFB8480]  device_description.cc:44       1| DeviceDescription::PJRT_DeviceDescription_Id
2025-10-28 19:04:57.716 (  17.340s) [        2AFB8480]     device_instance.cc:82       1| DeviceInstance::PJRT_Device_DefaultMemory
2025-10-28 19:04:57.716 (  17.340s) [        2AFB8480]     client_instance.cc:659      1| ClientInstance::PJRT_Client_BufferFromHostBuffer
2025-10-28 19:04:57.716 (  17.340s) [        2AFB8480]     memory_instance.cc:57       1| MemoryInstance::getDevice
2025-10-28 19:04:57.716 (  17.340s) [        2AFB8480]      event_instance.cc:223      1| EventInstance::PJRT_Event_OnReady
2025-10-28 19:04:57.716 (  17.340s) [        2AFB8480]      event_instance.cc:172      1| EventInstance::PJRT_Event_Destroy
2025-10-28 19:04:57.716 (  17.340s) [        2AFB8480]     device_instance.cc:82       1| DeviceInstance::PJRT_Device_DefaultMemory
2025-10-28 19:04:57.716 (  17.340s) [        2AFB8480]     client_instance.cc:659      1| ClientInstance::PJRT_Client_BufferFromHostBuffer
2025-10-28 19:04:57.716 (  17.340s) [        2AFB8480]     memory_instance.cc:57       1| MemoryInstance::getDevice
2025-10-28 19:04:57.716 (  17.340s) [        2AFB8480]      event_instance.cc:223      1| EventInstance::PJRT_Event_OnReady
2025-10-28 19:04:57.716 (  17.340s) [        2AFB8480]      event_instance.cc:172      1| EventInstance::PJRT_Event_Destroy
2025-10-28 19:04:57.716 (  17.340s) [        2AFB8480]     device_instance.cc:82       1| DeviceInstance::PJRT_Device_DefaultMemory
2025-10-28 19:04:57.716 (  17.340s) [        2AFB8480]     client_instance.cc:659      1| ClientInstance::PJRT_Client_BufferFromHostBuffer
2025-10-28 19:04:57.716 (  17.340s) [        2AFB8480]     memory_instance.cc:57       1| MemoryInstance::getDevice
2025-10-28 19:04:57.716 (  17.340s) [        2AFB8480]      event_instance.cc:223      1| EventInstance::PJRT_Event_OnReady
2025-10-28 19:04:57.716 (  17.340s) [        2AFB8480]      event_instance.cc:172      1| EventInstance::PJRT_Event_Destroy
2025-10-28 19:04:57.716 (  17.340s) [        2AFB8480]     device_instance.cc:82       1| DeviceInstance::PJRT_Device_DefaultMemory
2025-10-28 19:04:57.716 (  17.340s) [        2AFB8480]     client_instance.cc:659      1| ClientInstance::PJRT_Client_BufferFromHostBuffer
2025-10-28 19:04:57.716 (  17.340s) [        2AFB8480]     memory_instance.cc:57       1| MemoryInstance::getDevice
2025-10-28 19:04:57.716 (  17.340s) [        2AFB8480]      event_instance.cc:223      1| EventInstance::PJRT_Event_OnReady
2025-10-28 19:04:57.716 (  17.340s) [        2AFB8480]      event_instance.cc:172      1| EventInstance::PJRT_Event_Destroy
2025-10-28 19:04:57.716 (  17.340s) [        2AFB8480]     device_instance.cc:82       1| DeviceInstance::PJRT_Device_DefaultMemory
2025-10-28 19:04:57.716 (  17.340s) [        2AFB8480]     client_instance.cc:659      1| ClientInstance::PJRT_Client_BufferFromHostBuffer
2025-10-28 19:04:57.716 (  17.340s) [        2AFB8480]     memory_instance.cc:57       1| MemoryInstance::getDevice
2025-10-28 19:04:57.716 (  17.340s) [        2AFB8480]      event_instance.cc:223      1| EventInstance::PJRT_Event_OnReady
2025-10-28 19:04:57.716 (  17.340s) [        2AFB8480]      event_instance.cc:172      1| EventInstance::PJRT_Event_Destroy
2025-10-28 19:04:57.716 (  17.340s) [        2AFB8480]     device_instance.cc:82       1| DeviceInstance::PJRT_Device_DefaultMemory
2025-10-28 19:04:57.716 (  17.340s) [        2AFB8480]     client_instance.cc:659      1| ClientInstance::PJRT_Client_BufferFromHostBuffer
2025-10-28 19:04:57.716 (  17.340s) [        2AFB8480]     memory_instance.cc:57       1| MemoryInstance::getDevice
2025-10-28 19:04:57.716 (  17.340s) [        2AFB8480]      event_instance.cc:223      1| EventInstance::PJRT_Event_OnReady
2025-10-28 19:04:57.716 (  17.340s) [        2AFB8480]      event_instance.cc:172      1| EventInstance::PJRT_Event_Destroy
2025-10-28 19:04:57.716 (  17.340s) [        2AFB8480]     device_instance.cc:82       1| DeviceInstance::PJRT_Device_DefaultMemory
2025-10-28 19:04:57.716 (  17.340s) [        2AFB8480]     client_instance.cc:659      1| ClientInstance::PJRT_Client_BufferFromHostBuffer
2025-10-28 19:04:57.716 (  17.340s) [        2AFB8480]     memory_instance.cc:57       1| MemoryInstance::getDevice
2025-10-28 19:04:57.716 (  17.340s) [        2AFB8480]      event_instance.cc:223      1| EventInstance::PJRT_Event_OnReady
2025-10-28 19:04:57.716 (  17.340s) [        2AFB8480]      event_instance.cc:172      1| EventInstance::PJRT_Event_Destroy
2025-10-28 19:04:57.716 (  17.340s) [        2AFB8480]     device_instance.cc:82       1| DeviceInstance::PJRT_Device_DefaultMemory
2025-10-28 19:04:57.716 (  17.340s) [        2AFB8480]     client_instance.cc:659      1| ClientInstance::PJRT_Client_BufferFromHostBuffer
2025-10-28 19:04:57.716 (  17.340s) [        2AFB8480]     memory_instance.cc:57       1| MemoryInstance::getDevice
2025-10-28 19:04:57.716 (  17.340s) [        2AFB8480]      event_instance.cc:223      1| EventInstance::PJRT_Event_OnReady
2025-10-28 19:04:57.716 (  17.340s) [        2AFB8480]      event_instance.cc:172      1| EventInstance::PJRT_Event_Destroy
2025-10-28 19:04:57.717 (  17.341s) [        2AFB8480]  device_description.cc:44       1| DeviceDescription::PJRT_DeviceDescription_Id
2025-10-28 19:04:57.717 (  17.341s) [        2AFB8480]  device_description.cc:44       1| DeviceDescription::PJRT_DeviceDescription_Id
2025-10-28 19:04:57.717 (  17.341s) [        2AFB8480]  device_description.cc:44       1| DeviceDescription::PJRT_DeviceDescription_Id
2025-10-28 19:04:57.717 (  17.341s) [        2AFB8480]  device_description.cc:44       1| DeviceDescription::PJRT_DeviceDescription_Id
2025-10-28 19:04:57.717 (  17.341s) [        2AFB8480]  device_description.cc:44       1| DeviceDescription::PJRT_DeviceDescription_Id
2025-10-28 19:04:57.717 (  17.341s) [        2AFB8480]  device_description.cc:44       1| DeviceDescription::PJRT_DeviceDescription_Id
2025-10-28 19:04:57.717 (  17.341s) [        2AFB8480]  device_description.cc:44       1| DeviceDescription::PJRT_DeviceDescription_Id
2025-10-28 19:04:57.717 (  17.341s) [        2AFB8480]  device_description.cc:44       1| DeviceDescription::PJRT_DeviceDescription_Id
2025-10-28 19:04:57.717 (  17.341s) [        2AFB8480]     device_instance.cc:82       1| DeviceInstance::PJRT_Device_DefaultMemory
2025-10-28 19:04:57.717 (  17.341s) [        2AFB8480]     client_instance.cc:659      1| ClientInstance::PJRT_Client_BufferFromHostBuffer
2025-10-28 19:04:57.717 (  17.341s) [        2AFB8480]     memory_instance.cc:57       1| MemoryInstance::getDevice
2025-10-28 19:04:57.717 (  17.341s) [        2AFB8480]      event_instance.cc:223      1| EventInstance::PJRT_Event_OnReady
2025-10-28 19:04:57.717 (  17.341s) [        2AFB8480]      event_instance.cc:172      1| EventInstance::PJRT_Event_Destroy
2025-10-28 19:04:57.717 (  17.341s) [        2AFB8480]     device_instance.cc:82       1| DeviceInstance::PJRT_Device_DefaultMemory
2025-10-28 19:04:57.717 (  17.341s) [        2AFB8480]     client_instance.cc:659      1| ClientInstance::PJRT_Client_BufferFromHostBuffer
2025-10-28 19:04:57.717 (  17.341s) [        2AFB8480]     memory_instance.cc:57       1| MemoryInstance::getDevice
2025-10-28 19:04:57.717 (  17.341s) [        2AFB8480]      event_instance.cc:223      1| EventInstance::PJRT_Event_OnReady
2025-10-28 19:04:57.717 (  17.341s) [        2AFB8480]      event_instance.cc:172      1| EventInstance::PJRT_Event_Destroy
2025-10-28 19:04:57.717 (  17.341s) [        2AFB8480]     device_instance.cc:82       1| DeviceInstance::PJRT_Device_DefaultMemory
2025-10-28 19:04:57.717 (  17.341s) [        2AFB8480]     client_instance.cc:659      1| ClientInstance::PJRT_Client_BufferFromHostBuffer
2025-10-28 19:04:57.717 (  17.341s) [        2AFB8480]     memory_instance.cc:57       1| MemoryInstance::getDevice
2025-10-28 19:04:57.717 (  17.341s) [        2AFB8480]      event_instance.cc:223      1| EventInstance::PJRT_Event_OnReady
2025-10-28 19:04:57.717 (  17.341s) [        2AFB8480]      event_instance.cc:172      1| EventInstance::PJRT_Event_Destroy
2025-10-28 19:04:57.717 (  17.341s) [        2AFB8480]     device_instance.cc:82       1| DeviceInstance::PJRT_Device_DefaultMemory
2025-10-28 19:04:57.717 (  17.341s) [        2AFB8480]     client_instance.cc:659      1| ClientInstance::PJRT_Client_BufferFromHostBuffer
…
esharded>}) {
    %0 = stablehlo.custom_call @xla.sdy.FuncResultSharding(%arg0) {has_side_effect = true, mhlo.frontend_attributes = {xla.sdy.sharding = "#sdy.sharding_per_value<[<@mesh, [{}, {}]>]>"}} : (tensor<8x32xi64>) -> tensor<8x32xi64>
    return %0 : tensor<8x32xi64>
  }
}


// -----// IR Dump Before AnalyzeMeshPass (analyze-mesh) ('builtin.module' operation: @ReplicateShardedData.6) //----- //
module @ReplicateShardedData.6 attributes {mhlo.cross_program_prefetches = [], mhlo.input_output_alias = [], mhlo.is_dynamic = false, mhlo.use_auto_spmd_partitioning = false} {
  sdy.mesh @mesh = <["_axis_0_updated"=1, "_axis_0"=8]>
  func.func @main(%arg0: tensor<8x32xi64> {sdy.sharding = #sdy.sharding<@mesh, [{"_axis_0"}, {}]>, ttcore.argument_type = #ttcore.argument_type<input>, ttcore.shard_status = #ttcore.shard_status<presharded>}) -> (tensor<8x32xi64> {mhlo.sharding = "{replicated}", ttcore.shard_status = #ttcore.shard_status<presharded>}) {
    %0 = stablehlo.custom_call @xla.sdy.FuncResultSharding(%arg0) {has_side_effect = true, mhlo.frontend_attributes = {xla.sdy.sharding = "#sdy.sharding_per_value<[<@mesh, [{}, {}]>]>"}} : (tensor<8x32xi64>) -> tensor<8x32xi64>
    return %0 : tensor<8x32xi64>
  }
}


// -----// IR Dump Before ApplyShardingConstraintsPass (sdy-apply-sharding-constraints) ('func.func' operation: @main) //----- //
module @ReplicateShardedData.6 attributes {mhlo.cross_program_prefetches = [], mhlo.input_output_alias = [], mhlo.is_dynamic = false, mhlo.use_auto_spmd_partitioning = false} {
  sdy.mesh @mesh = <["_axis_0_updated"=1, "_axis_0"=8]>
  func.func @main(%arg0: tensor<8x32xi64> {sdy.sharding = #sdy.sharding<@mesh, [{"_axis_0"}, {}]>, ttcore.argument_type = #ttcore.argument_type<input>, ttcore.shard_status = #ttcore.shard_status<presharded>}) -> (tensor<8x32xi64> {mhlo.sharding = "{replicated}", ttcore.shard_status = #ttcore.shard_status<presharded>}) {
    %0 = stablehlo.custom_call @xla.sdy.FuncResultSharding(%arg0) {has_side_effect = true, mhlo.frontend_attributes = {xla.sdy.sharding = "#sdy.sharding_per_value<[<@mesh, [{}, {}]>]>"}} : (tensor<8x32xi64>) -> tensor<8x32xi64>
    return %0 : tensor<8x32xi64>
  }
}


// -----// IR Dump Before AggressivePropagationPass (sdy-aggressive-propagate) ('builtin.module' operation: @ReplicateShardedData.6) //----- //
module @ReplicateShardedData.6 attributes {mhlo.cross_program_prefetches = [], mhlo.input_output_alias = [], mhlo.is_dynamic = false, mhlo.use_auto_spmd_partitioning = false} {
  sdy.mesh @mesh = <["_axis_0_updated"=1, "_axis_0"=8]>
  func.func @main(%arg0: tensor<8x32xi64> {sdy.sharding = #sdy.sharding<@mesh, [{"_axis_0"}, {}]>, ttcore.argument_type = #ttcore.argument_type<input>, ttcore.shard_status = #ttcore.shard_status<presharded>}) -> (tensor<8x32xi64> {mhlo.sharding = "{replicated}", ttcore.shard_status = #ttcore.shard_status<presharded>}) {
    %0 = stablehlo.custom_call @xla.sdy.FuncResultSharding(%arg0) {has_side_effect = true, mhlo.frontend_attributes = {xla.sdy.sharding = "#sdy.sharding_per_value<[<@mesh, [{}, {}]>]>"}} : (tensor<8x32xi64>) -> tensor<8x32xi64>
    return %0 : tensor<8x32xi64>
  }
}


// -----// IR Dump Before ShardingConstraintToReshardPass (sdy-sharding-constraint-to-reshard) ('func.func' operation: @main) //----- //
module @ReplicateShardedData.6 attributes {mhlo.cross_program_prefetches = [], mhlo.input_output_alias = [], mhlo.is_dynamic = false, mhlo.use_auto_spmd_partitioning = false} {
  sdy.mesh @mesh = <["_axis_0_updated"=1, "_axis_0"=8]>
  func.func @main(%arg0: tensor<8x32xi64> {sdy.sharding = #sdy.sharding<@mesh, [{"_axis_0"}, {}]>, ttcore.argument_type = #ttcore.argument_type<input>, ttcore.shard_status = #ttcore.shard_status<presharded>}) -> (tensor<8x32xi64> {mhlo.sharding = "{replicated}", ttcore.shard_status = #ttcore.shard_status<presharded>}) {
    %0 = stablehlo.custom_call @xla.sdy.FuncResultSharding(%arg0) {has_side_effect = true, mhlo.frontend_attributes = {xla.sdy.sharding = "#sdy.sharding_per_value<[<@mesh, [{}, {}]>]>"}} : (tensor<8x32xi64>) -> tensor<8x32xi64>
    return %0 : tensor<8x32xi64>
  }
}


// -----// IR Dump Before InsertExplicitReshardsPass (insert-explicit-reshards) ('builtin.module' operation: @ReplicateShardedData.6) //----- //
module @ReplicateShardedData.6 attributes {mhlo.cross_program_prefetches = [], mhlo.input_output_alias = [], mhlo.is_dynamic = false, mhlo.use_auto_spmd_partitioning = false} {
  sdy.mesh @mesh = <["_axis_0_updated"=1, "_axis_0"=8]>
  func.func @main(%arg0: tensor<8x32xi64> {sdy.sharding = #sdy.sharding<@mesh, [{"_axis_0"}, {}]>, ttcore.argument_type = #ttcore.argument_type<input>, ttcore.shard_status = #ttcore.shard_status<presharded>}) -> (tensor<8x32xi64> {mhlo.sharding = "{replicated}", ttcore.shard_status = #ttcore.shard_status<presharded>}) {
    %0 = stablehlo.custom_call @xla.sdy.FuncResultSharding(%arg0) {has_side_effect = true, mhlo.frontend_attributes = {xla.sdy.sharding = "#sdy.sharding_per_value<[<@mesh, [{}, {}]>]>"}} : (tensor<8x32xi64>) -> tensor<8x32xi64>
    return %0 : tensor<8x32xi64>
  }
}


// -----// IR Dump Before WrapUnderManualComputationPass (wrap-under-manual-computation) ('builtin.module' operation: @ReplicateShardedData.6) //----- //
module @ReplicateShardedData.6 attributes {mhlo.cross_program_prefetches = [], mhlo.input_output_alias = [], mhlo.is_dynamic = false, mhlo.use_auto_spmd_partitioning = false} {
  sdy.mesh @mesh = <["_axis_0_updated"=1, "_axis_0"=8]>
  func.func @main(%arg0: tensor<8x32xi64> {sdy.sharding = #sdy.sharding<@mesh, [{"_axis_0"}, {}]>, ttcore.argument_type = #ttcore.argument_type<input>, ttcore.shard_status = #ttcore.shard_status<presharded>}) -> (tensor<8x32xi64> {mhlo.sharding = "{replicated}", ttcore.shard_status = #ttcore.shard_status<presharded>}) {
    %0 = stablehlo.custom_call @xla.sdy.FuncResultSharding(%arg0) {has_side_effect = true, mhlo.frontend_attributes = {xla.sdy.sharding = "#sdy.sharding_per_value<[<@mesh, [{}, {}]>]>"}} : (tensor<8x32xi64>) -> tensor<8x32xi64>
    return %0 : tensor<8x32xi64>
  }
}


// -----// IR Dump Before ReshardToCollectivesPass (sdy-reshard-to-collectives) ('func.func' operation: @main) //----- //
module @ReplicateShardedData.6 attributes {mhlo.cross_program_prefetches = [], mhlo.input_output_alias = [], mhlo.is_dynamic = false, mhlo.use_auto_spmd_partitioning = false} {
  sdy.mesh @mesh = <["_axis_0_updated"=1, "_axis_0"=8]>
  func.func @main(%arg0: tensor<8x32xi64> {sdy.sharding = #sdy.sharding<@mesh, [{"_axis_0"}, {}]>, ttcore.argument_type = #ttcore.argument_type<input>, ttcore.shard_status = #ttcore.shard_status<presharded>}) -> (tensor<8x32xi64> {mhlo.sharding = "{replicated}", ttcore.shard_status = #ttcore.shard_status<presharded>}) {
    %0 = stablehlo.custom_call @xla.sdy.FuncResultSharding(%arg0) {has_side_effect = true, mhlo.frontend_attributes = {xla.sdy.sharding = "#sdy.sharding_per_value<[<@mesh, [{}, {}]>]>"}} : (tensor<8x32xi64>) -> tensor<8x32xi64>
    return %0 : tensor<8x32xi64>
  }
}


// -----// IR Dump Before UpdateGlobalToLocalShapesPass (update-global-to-local-shapes) ('builtin.module' operation: @ReplicateShardedData.6) //----- //
module @ReplicateShardedData.6 attributes {mhlo.cross_program_prefetches = [], mhlo.input_output_alias = [], mhlo.is_dynamic = false, mhlo.use_auto_spmd_partitioning = false} {
  sdy.mesh @mesh = <["_axis_0_updated"=1, "_axis_0"=8]>
  func.func @main(%arg0: tensor<8x32xi64> {sdy.sharding = #sdy.sharding<@mesh, [{"_axis_0"}, {}]>, ttcore.argument_type = #ttcore.argument_type<input>, ttcore.shard_status = #ttcore.shard_status<presharded>}) -> (tensor<8x32xi64> {mhlo.sharding = "{replicated}", ttcore.shard_status = #ttcore.shard_status<presharded>}) {
    %0 = stablehlo.custom_call @xla.sdy.FuncResultSharding(%arg0) {has_side_effect = true, mhlo.frontend_attributes = {xla.sdy.sharding = "#sdy.sharding_per_value<[<@mesh, [{}, {}]>]>"}} : (tensor<8x32xi64>) -> tensor<8x32xi64>
    return %0 : tensor<8x32xi64>
  }
}


// -----// IR Dump Before CloseShardingsPass (sdy-close-shardings) ('builtin.module' operation: @ReplicateShardedData.6) //----- //
module @ReplicateShardedData.6 attributes {mhlo.cross_program_prefetches = [], mhlo.input_output_alias = [], mhlo.is_dynamic = false, mhlo.use_auto_spmd_partitioning = false} {
  sdy.mesh @mesh = <["_axis_0_updated"=1, "_axis_0"=8]>
  func.func @main(%arg0: tensor<8x32xi64> {sdy.sharding = #sdy.sharding<@mesh, [{"_axis_0"}, {}]>, ttcore.argument_type = #ttcore.argument_type<input>, ttcore.shard_status = #ttcore.shard_status<presharded>}) -> (tensor<8x32xi64> {mhlo.sharding = "{replicated}", ttcore.shard_status = #ttcore.shard_status<presharded>}) {
    %0 = stablehlo.custom_call @xla.sdy.FuncResultSharding(%arg0) {has_side_effect = true, mhlo.frontend_attributes = {xla.sdy.sharding = "#sdy.sharding_per_value<[<@mesh, [{}, {}]>]>"}} : (tensor<8x32xi64>) -> tensor<8x32xi64>
    return %0 : tensor<8x32xi64>
  }
}


// -----// IR Dump Before Canonicalizer (canonicalize) ('builtin.module' operation: @ReplicateShardedData.6) //----- //
module @ReplicateShardedData.6 attributes {mhlo.cross_program_prefetches = [], mhlo.input_output_alias = [], mhlo.is_dynamic = false, mhlo.use_auto_spmd_partitioning = false} {
  sdy.mesh @mesh = <["_axis_0_updated"=1, "_axis_0"=8]>
  func.func @main(%arg0: tensor<8x32xi64> {sdy.sharding = #sdy.sharding<@mesh, [{"_axis_0"}, {}]>, ttcore.argument_type = #ttcore.argument_type<input>, ttcore.shard_status = #ttcore.shard_status<presharded>}) -> (tensor<8x32xi64> {mhlo.sharding = "{replicated}", ttcore.shard_status = #ttcore.shard_status<presharded>}) {
    %0 = stablehlo.custom_call @xla.sdy.FuncResultSharding(%arg0) {has_side_effect = true, mhlo.frontend_attributes = {xla.sdy.sharding = "#sdy.sharding_per_value<[<@mesh, [{}, {}]>]>"}} : (tensor<8x32xi64>) -> tensor<8x32xi64>
    return %0 : tensor<8x32xi64>
  }
}


2025-10-28 19:04:58.086 (  17.710s) [        2AFB8480]      module_builder.cc:963      1| MLIR Module shlo_compiler:
#loc1 = loc("p0.1")
module @ReplicateShardedData.6 attributes {mhlo.cross_program_prefetches = [], mhlo.input_output_alias = [], mhlo.is_dynamic = false, mhlo.use_auto_spmd_partitioning = false} {
  sdy.mesh @mesh = <["_axis_0_updated"=1, "_axis_0"=8]> loc(#loc)
  func.func @main(%arg0: tensor<8x32xi64> {sdy.sharding = #sdy.sharding<@mesh, [{"_axis_0"}, {}]>, ttcore.argument_type = #ttcore.argument_type<input>, ttcore.shard_status = #ttcore.shard_status<presharded>} loc("p0.1")) -> (tensor<8x32xi64> {mhlo.sharding = "{replicated}", ttcore.shard_status = #ttcore.shard_status<presharded>}) {
    %0 = stablehlo.custom_call @xla.sdy.FuncResultSharding(%arg0) {has_side_effect = true, mhlo.frontend_attributes = {xla.sdy.sharding = "#sdy.sharding_per_value<[<@mesh, [{}, {}]>]>"}} : (tensor<8x32xi64>) -> tensor<8x32xi64> loc(#loc1)
    return %0 : tensor<8x32xi64> loc(#loc)
  } loc(#loc)
} loc(#loc)
#loc = loc(unknown)
------------------ END OF MLIR MODULE ------------------
// -----// IR Dump Before ConvertArithToStableHLO (convert-arith-to-stablehlo) ('builtin.module' operation: @ReplicateShardedData.6) //----- //
module @ReplicateShardedData.6 attributes {mhlo.cross_program_prefetches = [], mhlo.input_output_alias = [], mhlo.is_dynamic = false, mhlo.use_auto_spmd_partitioning = false} {
  sdy.mesh @mesh = <["_axis_0_updated"=1, "_axis_0"=8]>
  func.func @main(%arg0: tensor<8x32xi64> {sdy.sharding = #sdy.sharding<@mesh, [{"_axis_0"}, {}]>, ttcore.argument_type = #ttcore.argument_type<input>, ttcore.shard_status = #ttcore.shard_status<presharded>}) -> (tensor<8x32xi64> {mhlo.sharding = "{replicated}", ttcore.shard_status = #ttcore.shard_status<presharded>}) {
    %0 = stablehlo.custom_call @xla.sdy.FuncResultSharding(%arg0) {has_side_effect = true, mhlo.frontend_attributes = {xla.sdy.sharding = "#sdy.sharding_per_value<[<@mesh, [{}, {}]>]>"}} : (tensor<8x32xi64>) -> tensor<8x32xi64>
    return %0 : tensor<8x32xi64>
  }
}


// -----// IR Dump Before LegalizeStableHLOCompositeToTTIR (legalize-stablehlo-composite-to-ttir) ('builtin.module' operation: @ReplicateShardedData.6) //----- //
module @ReplicateShardedData.6 attributes {mhlo.cross_program_prefetches = [], mhlo.input_output_alias = [], mhlo.is_dynamic = false, mhlo.use_auto_spmd_partitioning = false} {
  sdy.mesh @mesh = <["_axis_0_updated"=1, "_axis_0"=8]>
  func.func @main(%arg0: tensor<8x32xi64> {sdy.sharding = #sdy.sharding<@mesh, [{"_axis_0"}, {}]>, ttcore.argument_type = #ttcore.argument_type<input>, ttcore.shard_status = #ttcore.shard_status<presharded>}) -> (tensor<8x32xi64> {mhlo.sharding = "{replicated}", ttcore.shard_status = #ttcore.shard_status<presharded>}) {
    %0 = stablehlo.custom_call @xla.sdy.FuncResultSharding(%arg0) {has_side_effect = true, mhlo.frontend_attributes = {xla.sdy.sharding = "#sdy.sharding_per_value<[<@mesh, [{}, {}]>]>"}} : (tensor<8x32xi64>) -> tensor<8x32xi64>
    return %0 : tensor<8x32xi64>
  }
}


// -----// IR Dump Before StablehloLegalizeCompositeToCallPass (stablehlo-legalize-composite-to-call) ('func.func' operation: @main) //----- //
module @ReplicateShardedData.6 attributes {mhlo.cross_program_prefetches = [], mhlo.input_output_alias = [], mhlo.is_dynamic = false, mhlo.use_auto_spmd_partitioning = false} {
  sdy.mesh @mesh = <["_axis_0_updated"=1, "_axis_0"=8]>
  func.func @main(%arg0: tensor<8x32xi64> {sdy.sharding = #sdy.sharding<@mesh, [{"_axis_0"}, {}]>, ttcore.argument_type = #ttcore.argument_type<input>, ttcore.shard_status = #ttcore.shard_status<presharded>}) -> (tensor<8x32xi64> {mhlo.sharding = "{replicated}", ttcore.shard_status = #ttcore.shard_status<presharded>}) {
    %0 = stablehlo.custom_call @xla.sdy.FuncResultSharding(%arg0) {has_side_effect = true, mhlo.frontend_attributes = {xla.sdy.sharding = "#sdy.sharding_per_value<[<@mesh, [{}, {}]>]>"}} : (tensor<8x32xi64>) -> tensor<8x32xi64>
    return %0 : tensor<8x32xi64>
  }
}


// -----// IR Dump Before Inliner (inline) ('builtin.module' operation: @ReplicateShardedData.6) //----- //
module @ReplicateShardedData.6 attributes {mhlo.cross_program_prefetches = [], mhlo.input_output_alias = [], mhlo.is_dynamic = false, mhlo.use_auto_spmd_partitioning = false} {
  sdy.mesh @mesh = <["_axis_0_updated"=1, "_axis_0"=8]>
  func.func @main(%arg0: tensor<8x32xi64> {sdy.sharding = #sdy.sharding<@mesh, [{"_axis_0"}, {}]>, ttcore.argument_type = #ttcore.argument_type<input>, ttcore.shard_status = #ttcore.shard_status<presharded>}) -> (tensor<8x32xi64> {mhlo.sharding = "{replicated}", ttcore.shard_status = #ttcore.shard_status<presharded>}) {
    %0 = stablehlo.custom_call @xla.sdy.FuncResultSharding(%arg0) {has_side_effect = true, mhlo.frontend_attributes = {xla.sdy.sharding = "#sdy.sharding_per_value<[<@mesh, [{}, {}]>]>"}} : (tensor<8x32xi64>) -> tensor<8x32xi64>
    return %0 : tensor<8x32xi64>
  }
}


// -----// IR Dump Before Canonicalizer (canonicalize) ('func.func' operation: @main) //----- //
module @ReplicateShardedData.6 attributes {mhlo.cross_program_prefetches = [], mhlo.input_output_alias = [], mhlo.is_dynamic = false, mhlo.use_auto_spmd_partitioning = false} {
  sdy.mesh @mesh = <["_axis_0_updated"=1, "_axis_0"=8]>
  func.func @main(%arg0: tensor<8x32xi64> {sdy.sharding = #sdy.sharding<@mesh, [{"_axis_0"}, {}]>, ttcore.argument_type = #ttcore.argument_type<input>, ttcore.shard_status = #ttcore.shard_status<presharded>}) -> (tensor<8x32xi64> {mhlo.sharding = "{replicated}", ttcore.shard_status = #ttcore.shard_status<presharded>}) {
    %0 = stablehlo.custom_call @xla.sdy.FuncResultSharding(%arg0) {has_side_effect = true, mhlo.frontend_attributes = {xla.sdy.sharding = "#sdy.sharding_per_value<[<@mesh, [{}, {}]>]>"}} : (tensor<8x32xi64>) -> tensor<8x32xi64>
    return %0 : tensor<8x32xi64>
  }
}


// -----// IR Dump Before ConvertStableHLOToTTIR (convert-stablehlo-to-ttir) ('builtin.module' operation: @ReplicateShardedData.6) //----- //
module @ReplicateShardedData.6 attributes {mhlo.cross_program_prefetches = [], mhlo.input_output_alias = [], mhlo.is_dynamic = false, mhlo.use_auto_spmd_partitioning = false} {
  sdy.mesh @mesh = <["_axis_0_updated"=1, "_axis_0"=8]>
  func.func @main(%arg0: tensor<8x32xi64> {sdy.sharding = #sdy.sharding<@mesh, [{"_axis_0"}, {}]>, ttcore.argument_type = #ttcore.argument_type<input>, ttcore.shard_status = #ttcore.shard_status<presharded>}) -> (tensor<8x32xi64> {mhlo.sharding = "{replicated}", ttcore.shard_status = #ttcore.shard_status<presharded>}) {
    %0 = stablehlo.custom_call @xla.sdy.FuncResultSharding(%arg0) {has_side_effect = true, mhlo.frontend_attributes = {xla.sdy.sharding = "#sdy.sharding_per_value<[<@mesh, [{}, {}]>]>"}} : (tensor<8x32xi64>) -> tensor<8x32xi64>
    return %0 : tensor<8x32xi64>
  }
}


error: 'func.func' op arg 0 - unknown mesh: @mesh
// -----// IR Dump After ConvertStableHLOToTTIR Failed (convert-stablehlo-to-ttir) ('builtin.module' operation: @ReplicateShardedData.6) //----- //
"builtin.module"() <{sym_name = "ReplicateShardedData.6"}> ({
  "func.func"() <{arg_attrs = [{sdy.sharding = #sdy.sharding<@mesh, [{"_axis_0"}, {}]>, ttcore.argument_type = #ttcore.argument_type<input>, ttcore.shard_status = #ttcore.shard_status<presharded>}], function_type = (tensor<8x32xi64>) -> tensor<8x32xi64>, res_attrs = [{mhlo.sharding = "{replicated}", ttcore.shard_status = #ttcore.shard_status<presharded>}], sym_name = "main"}> ({
  ^bb0(%arg0: tensor<8x32xi64>):
    %0 = "stablehlo.custom_call"(%arg0) <{call_target_name = "xla.sdy.FuncResultSharding", has_side_effect = true}> {mhlo.frontend_attributes = {xla.sdy.sharding = "#sdy.sharding_per_value<[<@mesh, [{}, {}]>]>"}} : (tensor<8x32xi64>) -> tensor<8x32xi64>
    "func.return"(%0) : (tensor<8x32xi64>) -> ()
  }) : () -> ()
}) {mhlo.cross_program_prefetches = [], mhlo.input_output_alias = [], mhlo.is_dynamic = false, mhlo.use_auto_spmd_partitioning = false, ttcore.meshes = #ttcore.meshes<[<"mesh" = 1x8>]>} : () -> ()


2025-10-28 19:04:58.089 (  17.713s) [        2AFB8480]      module_builder.cc:712    ERR| Failed to convert from SHLO to TTIR module
2025-10-28 19:04:58.089 (  17.713s) [        2AFB8480]      error_instance.cc:52       1| ErrorInstance::PJRT_Error_Message
2025-10-28 19:04:58.089 (  17.713s) [        2AFB8480]      error_instance.cc:61       1| ErrorInstance::PJRT_Error_GetCode
2025-10-28 19:04:58.089 (  17.713s) [        2AFB8480]      error_instance.cc:46       1| ErrorInstance::PJRT_Error_Destroy
Running tests/runner/test_models.py::test_all_models[opt/sequence_classification/pytorch-facebook/opt-125m-data_parallel-full-inference] - pytorch_opt_facebook/opt-125m_nlp_text_cls_huggingface
Created device mesh: (1, 8) with 8 devices.
FAILED

=================================== FAILURES ===================================
_ test_all_models[opt/sequence_classification/pytorch-facebook/opt-125m-data_parallel-full-inference] _

test_entry = ModelTestEntry(path='/localdev/hshah/tt-xla/third_party/tt_forge_models/opt/sequence_classification/pytorch/loader.py'...iant.OPT_125M: 'facebook/opt-125m'>, <class 'tt-forge-models.opt.sequence_classification.pytorch.loader.ModelLoader'>))
run_mode = <RunMode.INFERENCE: 'inference'>, op_by_op = None
parallelism = <Parallelism.DATA_PARALLEL: 'data_parallel'>
record_property = <function record_property.<locals>.append_property at 0x7faabee04540>
test_metadata = <tests.runner.test_utils.ModelTestConfig object at 0x7faabfb29b10>
request = <FixtureRequest for <Function test_all_models[opt/sequence_classification/pytorch-facebook/opt-125m-data_parallel-full-inference]>>
capteesys = <_pytest.capture.CaptureFixture object at 0x7faabedf6410>

    @pytest.mark.model_test
    @pytest.mark.no_auto_properties
    @pytest.mark.parametrize(
        "run_mode",
        [
            pytest.param(RunMode.INFERENCE, id="inference", marks=pytest.mark.inference),
            pytest.param(RunMode.TRAINING, id="training", marks=pytest.mark.training),
        ],
    )
    @pytest.mark.parametrize(
        "op_by_op",
        [None],
        ids=["full"],  # When op-by-op flow is required/supported, add here.
    )
    @pytest.mark.parametrize(
        "parallelism",
        [
            pytest.param(
                Parallelism.SINGLE_DEVICE,
                id="single_device",
                marks=pytest.mark.single_device,
            ),
            pytest.param(
                Parallelism.DATA_PARALLEL,
                id="data_parallel",
                marks=pytest.mark.data_parallel,
            ),
            pytest.param(
                Parallelism.TENSOR_PARALLEL,
                id="tensor_parallel",
                marks=pytest.mark.tensor_parallel,
            ),
        ],
    )
    @pytest.mark.parametrize(
        "test_entry",
        test_entries,
        ids=create_test_id_generator(MODELS_ROOT),
    )
    def test_all_models(
        test_entry,
        run_mode,
        op_by_op,
        parallelism,
        record_property,
        test_metadata,
        request,
        capteesys,
    ):
    
        loader_path = test_entry.path
        variant, ModelLoader = test_entry.variant_info
    
        # Ensure per-model requirements are installed, and roll back after the test
        with RequirementsManager.for_loader(loader_path):
    
            # Get the model loader and model info from desired model, variant.
            loader = ModelLoader(variant=variant)
            model_info = ModelLoader.get_model_info(variant=variant)
            print(f"Running {request.node.nodeid} - {model_info.name}", flush=True)
    
            succeeded = False
            comparison_result = None
            tester = None
    
            try:
                # Only run the actual model test if not marked for skip. The record properties
                # function in finally block will always be called and handles the pytest.skip.
                if test_metadata.status != ModelTestStatus.NOT_SUPPORTED_SKIP:
                    tester = DynamicTorchModelTester(
                        run_mode,
                        loader=loader,
                        comparison_config=test_metadata.to_comparison_config(),
                        parallelism=parallelism,
                    )
    
>                   comparison_result = tester.test()
                                        ^^^^^^^^^^^^^

tests/runner/test_models.py:106: 
_ _ _ _ _ _ _ _ _ _ _ _ _ _ _ _ _ _ _ _ _ _ _ _ _ _ _ _ _ _ _ _ _ _ _ _ _ _ _ _ 
tests/infra/testers/single_chip/model/model_tester.py:145: in test
    return self._test_inference()
           ^^^^^^^^^^^^^^^^^^^^^^
tests/infra/testers/single_chip/model/model_tester.py:158: in _test_inference
    tt_res = self._run_on_tt_device(self._workload)
             ^^^^^^^^^^^^^^^^^^^^^^^^^^^^^^^^^^^^^^
tests/infra/testers/single_chip/model/model_tester.py:168: in _run_on_tt_device
    return self._device_runner.run_on_tt_device(compiled_workload)
           ^^^^^^^^^^^^^^^^^^^^^^^^^^^^^^^^^^^^^^^^^^^^^^^^^^^^^^^
tests/infra/runners/device_runner.py:30: in run_on_tt_device
    return self.run_on_device(workload, DeviceType.TT, device_num)
           ^^^^^^^^^^^^^^^^^^^^^^^^^^^^^^^^^^^^^^^^^^^^^^^^^^^^^^^
tests/infra/runners/device_runner.py:40: in run_on_device
    return self._run_on_device(device_workload, device)
           ^^^^^^^^^^^^^^^^^^^^^^^^^^^^^^^^^^^^^^^^^^^^
tests/infra/runners/torch_device_runner.py:79: in _run_on_device
    return workload.execute()
           ^^^^^^^^^^^^^^^^^^
tests/infra/workloads/workload.py:68: in execute
    return self.model(*self.args, **self.kwargs)
           ^^^^^^^^^^^^^^^^^^^^^^^^^^^^^^^^^^^^^
/usr/local/lib/python3.11/dist-packages/torch/nn/modules/module.py:1749: in _wrapped_call_impl
    return self._compiled_call_impl(*args, **kwargs)  # type: ignore[misc]
           ^^^^^^^^^^^^^^^^^^^^^^^^^^^^^^^^^^^^^^^^^
/usr/local/lib/python3.11/dist-packages/torch/_dynamo/eval_frame.py:655: in _fn
    return fn(*args, **kwargs)
           ^^^^^^^^^^^^^^^^^^^
/usr/local/lib/python3.11/dist-packages/torch/nn/modules/module.py:1762: in _call_impl
    return forward_call(*args, **kwargs)
           ^^^^^^^^^^^^^^^^^^^^^^^^^^^^^
/usr/local/lib/python3.11/dist-packages/transformers/models/opt/modeling_opt.py:947: in forward
    @auto_docstring
/usr/local/lib/python3.11/dist-packages/torch/_dynamo/eval_frame.py:838: in _fn
    return fn(*args, **kwargs)
           ^^^^^^^^^^^^^^^^^^^
_ _ _ _ _ _ _ _ _ _ _ _ _ _ _ _ _ _ _ _ _ _ _ _ _ _ _ _ _ _ _ _ _ _ _ _ _ _ _ _ 

self = <tt_torch.backend.backend.XLAExecutor object at 0x7faabe442910>
args = (<[RuntimeError('Error code: 13') raised in repr()] Tensor object at 0x7faa7c1f1070>, <[RuntimeError('Error code: 13') raised in repr()] Tensor object at 0x7faa7c1f1130>)
output = (<[RuntimeError('Check failed: data()->tensor_data: ') raised in repr()] Tensor object at 0x7faa6c703ef0>,)
gm_has_functional_output_kind = True
el = OutputSpec(kind=<OutputKind.USER_OUTPUT: 1>, arg=TensorArgument(name='index'), target=None)

    def __call__(self, *args):
    
        if self.inject_metadata:
            # MetadataDispatchMode intercepts tensor operations via TorchDispatchMode and
            # attaches FX metadata (module hierarchy, file, line) to XLA tensors.
            with MetadataDispatchMode(self.node_info):
                output = self.module(*args)
        else:
            output = self.module(*args)
    
        gm_has_functional_output_kind: bool = True
    
        for el in self.signature.output_specs:
            if el.kind is not OutputKind.USER_OUTPUT:
                gm_has_functional_output_kind = False
                break
    
        if gm_has_functional_output_kind:
            # This tells torch-xla to cut the graph at only what is required to
            # compute all tensors in the `output` list.
>           torch_xla._XLAC._xla_sync_multi(list(output), self.devices, wait=False)
E           ValueError: Error code: 13

python_package/tt_torch/backend/backend.py:117: ValueError
=============================== warnings summary ===============================
<frozen importlib._bootstrap>:241
  <frozen importlib._bootstrap>:241: DeprecationWarning: builtin type SwigPyPacked has no __module__ attribute

<frozen importlib._bootstrap>:241
  <frozen importlib._bootstrap>:241: DeprecationWarning: builtin type SwigPyObject has no __module__ attribute

-- Docs: https://docs.pytest.org/en/stable/how-to/capture-warnings.html
=========================== short test summary info ============================
FAILED tests/runner/test_models.py::test_all_models[opt/sequence_classification/pytorch-facebook/opt-125m-data_parallel-full-inference] - ValueError: Error code: 13
======================== 1 failed, 2 warnings in 21.30s ========================
sys:1: DeprecationWarning: builtin type swigvarlink has no __module__ attribute
2025-10-28 19:05:02.041 (  21.665s) [        2AFB8480]     buffer_instance.cc:402      1| BufferInstance::PJRT_Buffer_Destroy
2025-10-28 19:05:02.041 (  21.665s) [        2AFB8480]     buffer_instance.cc:402      1| BufferInstance::PJRT_Buffer_Destroy
2025-10-28 19:05:02.041 (  21.665s) [        2AFB8480]     buffer_instance.cc:402      1| BufferInstance::PJRT_Buffer_Destroy
2025-10-28 19:05:02.041 (  21.665s) [        2AFB8480]     buffer_instance.cc:402      1| BufferInstance::PJRT_Buffer_Destroy
2025-10-28 19:05:02.041 (  21.665s) [        2AFB8480]     buffer_instance.cc:402      1| BufferInstance::PJRT_Buffer_Destroy
2025-10-28 19:05:02.041 (  21.665s) [        2AFB8480]     buffer_instance.cc:402      1| BufferInstance::PJRT_Buffer_Destroy
2025-10-28 19:05:02.041 (  21.665s) [        2AFB8480]     buffer_instance.cc:402      1| BufferInstance::PJRT_Buffer_Destroy
2025-10-28 19:05:02.041 (  21.665s) [        2AFB8480]     buffer_instance.cc:402      1| BufferInstance::PJRT_Buffer_Destroy
2025-10-28 19:05:02.041 (  21.665s) [        2AFB8480]     buffer_instance.cc:402      1| BufferInstance::PJRT_Buffer_Destroy
2025-10-28 19:05:02.041 (  21.665s) [        2AFB8480]     buffer_instance.cc:402      1| BufferInstance::PJRT_Buffer_Destroy
2025-10-28 19:05:02.041 (  21.665s) [        2AFB8480]     buffer_instance.cc:402      1| BufferInstance::PJRT_Buffer_Destroy
2025-10-28 19:05:02.041 (  21.665s) [        2AFB8480]     buffer_instance.cc:402      1| BufferInstance::PJRT_Buffer_Destroy
2025-10-28 19:05:02.041 (  21.665s) [        2AFB8480]     buffer_instance.cc:402      1| BufferInstance::PJRT_Buffer_Destroy
2025-10-28 19:05:02.041 (  21.665s) [        2AFB8480]     buffer_instance.cc:402      1| BufferInstance::PJRT_Buffer_Destroy
2025-10-28 19:05:02.041 (  21.665s) [        2AFB8480]     buffer_instance.cc:402      1| BufferInstance::PJRT_Buffer_Destroy
2025-10-28 19:05:02.041 (  21.665s) [        2AFB8480]     buffer_instance.cc:402      1| BufferInstance::PJRT_Buffer_Destroy
2025-10-28 19:05:02.898 (  22.522s) [        2AFB8480]     buffer_instance.cc:402      1| BufferInstance::PJRT_Buffer_Destroy
2025-10-28 19:05:02.898 (  22.522s) [        2AFB8480]     buffer_instance.cc:402      1| BufferInstance::PJRT_Buffer_Destroy
2025-10-28 19:05:02.898 (  22.522s) [        2AFB8480]     buffer_instance.cc:402      1| BufferInstance::PJRT_Buffer_Destroy
2025-10-28 19:05:02.898 (  22.522s) [        2AFB8480]     buffer_instance.cc:402      1| BufferInstance::PJRT_Buffer_Destroy
2025-10-28 19:05:02.898 (  22.522s) [        2AFB8480]     buffer_instance.cc:402      1| BufferInstance::PJRT_Buffer_Destroy
2025-10-28 19:05:02.898 (  22.522s) [        2AFB8480]     buffer_instance.cc:402      1| BufferInstance::PJRT_Buffer_Destroy
2025-10-28 19:05:02.898 (  22.522s) [        2AFB8480]     buffer_instance.cc:402      1| BufferInstance::PJRT_Buffer_Destroy
2025-10-28 19:05:02.898 (  22.522s) [        2AFB8480]     buffer_instance.cc:402      1| BufferInstance::PJRT_Buffer_Destroy
2025-10-28 19:05:02.899 (  22.523s) [        2AFB8480]     buffer_instance.cc:402      1| BufferInstance::PJRT_Buffer_Destroy
2025-10-28 19:05:02.905 (  22.529s) [        2AFB8480]     buffer_instance.cc:402      1| BufferInstance::PJRT_Buffer_Destroy
2025-10-28 19:05:02.910 (  22.534s) [        2AFB8480]     buffer_instance.cc:402      1| BufferInstance::PJRT_Buffer_Destroy
2025-10-28 19:05:02.915 (  22.539s) [        2AFB8480]     buffer_instance.cc:402      1| BufferInstance::PJRT_Buffer_Destroy
2025-10-28 19:05:02.919 (  22.543s) [        2AFB8480]     buffer_instance.cc:402      1| BufferInstance::PJRT_Buffer_Destroy
2025-10-28 19:05:02.923 (  22.547s) [        2AFB8480]     buffer_instance.cc:402      1| BufferInstance::PJRT_Buffer_Destroy
2025-10-28 19:05:02.928 (  22.552s) [        2AFB8480]     buffer_instance.cc:402      1| BufferInstance::PJRT_Buffer_Destroy
2025-10-28 19:05:02.933 (  22.557s) [        2AFB8480]     buffer_instance.cc:402      1| BufferInstance::PJRT_Buffer_Destroy
2025-10-28 19:05:02.937 (  22.561s) [        2AFB8480]     buffer_instance.cc:402      1| BufferInstance::PJRT_Buffer_Destroy
2025-10-28 19:05:02.937 (  22.561s) [        2AFB8480]     buffer_instance.cc:402      1| BufferInstance::PJRT_Buffer_Destroy
2025-10-28 19:05:02.937 (  22.561s) [        2AFB8480]     buffer_instance.cc:402      1| BufferInstance::PJRT_Buffer_Destroy
2025-10-28 19:05:02.937 (  22.561s) [        2AFB8480]     buffer_instance.cc:402      1| BufferInstance::PJRT_Buffer_Destroy
2025-10-28 19:05:02.937 (  22.561s) [        2AFB8480]     buffer_instance.cc:402      1| BufferInstance::PJRT_Buffer_Destroy
2025-10-28 19:05:02.937 (  22.561s) [        2AFB8480]     buffer_instance.cc:402      1| BufferInstance::PJRT_Buffer_Destroy
2025-10-28 19:05:02.937 (  22.561s) [        2AFB8480]     buffer_instance.cc:402      1| BufferInstance::PJRT_Buffer_Destroy
2025-10-28 19:05:02.937 (  22.561s) [        2AFB8480]     buffer_instance.cc:402      1| BufferInstance::PJRT_Buffer_Destroy
2025-10-28 19:05:02.937 (  22.561s) [        2AFB8480]     buffer_instance.cc:402      1| BufferInstance::PJRT_Buffer_Destroy
2025-10-28 19:05:02.937 (  22.561s) [        2AFB8480]     buffer_instance.cc:402      1| BufferInstance::PJRT_Buffer_Destroy
2025-10-28 19:05:02.937 (  22.561s) [        2AFB8480]     buffer_instance.cc:402      1| BufferInstance::PJRT_Buffer_Destroy
2025-10-28 19:05:02.937 (  22.561s) [        2AFB8480]     buffer_instance.cc:402      1| BufferInstance::PJRT_Buffer_Destroy
2025-10-28 19:05:02.937 (  22.561s) [        2AFB8480]     buffer_instance.cc:402      1| BufferInstance::PJRT_Buffer_Destroy
2025-10-28 19:05:02.937 (  22.561s) [        2AFB8480]     buffer_instance.cc:402      1| BufferInstance::PJRT_Buffer_Destroy
2025-10-28 19:05:02.937 (  22.561s) [        2AFB8480]     buffer_instance.cc:402      1| BufferInstance::PJRT_Buffer_Destroy
2025-10-28 19:05:02.937 (  22.561s) [        2AFB8480]     buffer_instance.cc:402      1| BufferInstance::PJRT_Buffer_Destroy
2025-10-28 19:05:02.937 (  22.561s) [        2AFB8480]     buffer_instance.cc:402      1| BufferInstance::PJRT_Buffer_Destroy
2025-10-28 19:05:02.937 (  22.561s) [        2AFB8480]     buffer_instance.cc:402      1| BufferInstance::PJRT_Buffer_Destroy
2025-10-28 19:05:02.937 (  22.561s) [        2AFB8480]     buffer_instance.cc:402      1| BufferInstance::PJRT_Buffer_Destroy
2025-10-28 19:05:02.937 (  22.561s) [        2AFB8480]     buffer_instance.cc:402      1| BufferInstance::PJRT_Buffer_Destroy
2025-10-28 19:05:02.937 (  22.561s) [        2AFB8480]     buffer_instance.cc:402      1| BufferInstance::PJRT_Buffer_Destroy
2025-10-28 19:05:02.937 (  22.562s) [        2AFB8480]     buffer_instance.cc:402      1| BufferInstance::PJRT_Buffer_Destroy
2025-10-28 19:05:02.938 (  22.562s) [        2AFB8480]     buffer_instance.cc:402      1| BufferInstance::PJRT_Buffer_Destroy
2025-10-28 19:05:02.938 (  22.562s) [        2AFB8480]     buffer_instance.cc:402      1| BufferInstance::PJRT_Buffer_Destroy
2025-10-28 19:05:02.938 (  22.562s) [        2AFB8480]     buffer_instance.cc:402      1| BufferInstance::PJRT_Buffer_Destroy
2025-10-28 19:05:02.938 (  22.562s) [        2AFB8480]     buffer_instance.cc:402      1| BufferInstance::PJRT_Buffer_Destroy
2025-10-28 19:05:02.938 (  22.562s) [        2AFB8480]     buffer_instance.cc:402      1| BufferInstance::PJRT_Buffer_Destroy
2025-10-28 19:05:02.938 (  22.562s) [        2AFB8480]     buffer_instance.cc:402      1| BufferInstance::PJRT_Buffer_Destroy
2025-10-28 19:05:02.938 (  22.562s) [        2AFB8480]     buffer_instance.cc:402      1| BufferInstance::PJRT_Buffer_Destroy
2025-10-28 19:05:02.938 (  22.562s) [        2AFB8480]     buffer_instance.cc:402      1| BufferInstance::PJRT_Buffer_Destroy
2025-10-28 19:05:02.938 (  22.562s) [        2AFB8480]     buffer_instance.cc:402      1| BufferInstance::PJRT_Buffer_Destroy
2025-10-28 19:05:02.938 (  22.562s) [        2AFB8480]     buffer_instance.cc:402      1| BufferInstance::PJRT_Buffer_Destroy
2025-10-28 19:05:02.938 (  22.562s) [        2AFB8480]     buffer_instance.cc:402      1| BufferInstance::PJRT_Buffer_Destroy
2025-10-28 19:05:02.938 (  22.562s) [        2AFB8480]     buffer_instance.cc:402      1| BufferInstance::PJRT_Buffer_Destroy
2025-10-28 19:05:02.938 (  22.562s) [        2AFB8480]     buffer_instance.cc:402      1| BufferInstance::PJRT_Buffer_Destroy
2025-10-28 19:05:02.938 (  22.562s) [        2AFB8480]     buffer_instance.cc:402      1| BufferInstance::PJRT_Buffer_Destroy
2025-10-28 19:05:02.938 (  22.562s) [        2AFB8480]     buffer_instance.cc:402      1| BufferInstance::PJRT_Buffer_Destroy
2025-10-28 19:05:02.938 (  22.562s) [        2AFB8480]     buffer_instance.cc:402      1| BufferInstance::PJRT_Buffer_Destroy
2025-10-28 19:05:02.938 (  22.562s) [        2AFB8480]     buffer_instance.cc:402      1| BufferInstance::PJRT_Buffer_Destroy
2025-10-28 19:05:02.938 (  22.562s) [        2AFB8480]     buffer_instance.cc:402      1| BufferInstance::PJRT_Buffer_Destroy
2025-10-28 19:05:02.938 (  22.562s) [        2AFB8480]     buffer_instance.cc:402      1| BufferInstance::PJRT_Buffer_Destroy
2025-10-28 19:05:02.938 (  22.562s) [        2AFB8480]     buffer_instance.cc:402      1| BufferInstance::PJRT_Buffer_Destroy
2025-10-28 19:05:02.938 (  22.562s) [        2AFB8480]     buffer_instance.cc:402      1| BufferInstance::PJRT_Buffer_Destroy
2025-10-28 19:05:02.938 (  22.563s) [        2AFB8480]     buffer_instance.cc:402      1| BufferInstance::PJRT_Buffer_Destroy
2025-10-28 19:05:02.939 (  22.563s) [        2AFB8480]     buffer_instance.cc:402      1| BufferInstance::PJRT_Buffer_Destroy
2025-10-28 19:05:02.939 (  22.563s) [        2AFB8480]     buffer_instance.cc:402      1| BufferInstance::PJRT_Buffer_Destroy
2025-10-28 19:05:02.939 (  22.563s) [        2AFB8480]     buffer_instance.cc:402      1| BufferInstance::PJRT_Buffer_Destroy
2025-10-28 19:05:02.939 (  22.563s) [        2AFB8480]     buffer_instance.cc:402      1| BufferInstance::PJRT_Buffer_Destroy
2025-10-28 19:05:02.939 (  22.563s) [        2AFB8480]     buffer_instance.cc:402      1| BufferInstance::PJRT_Buffer_Destroy
2025-10-28 19:05:02.939 (  22.563s) [        2AFB8480]     buffer_instance.cc:402      1| BufferInstance::PJRT_Buffer_Destroy
2025-10-28 19:05:02.939 (  22.563s) [        2AFB8480]     buffer_instance.cc:402      1| BufferInstance::PJRT_Buffer_Destroy
2025-10-28 19:05:02.939 (  22.563s) [        2AFB8480]     buffer_instance.cc:402      1| BufferInstance::PJRT_Buffer_Destroy
2025-10-28 19:05:02.939 (  22.563s) [        2AFB8480]     buffer_instance.cc:402      1| BufferInstance::PJRT_Buffer_Destroy
2025-10-28 19:05:02.939 (  22.563s) [        2AFB8480]     buffer_instance.cc:402      1| BufferInstance::PJRT_Buffer_Destroy
2025-10-28 19:05:02.939 (  22.563s) [        2AFB8480]     buffer_instance.cc:402      1| BufferInstance::PJRT_Buffer_Destroy
2025-10-28 19:05:02.939 (  22.563s) [        2AFB8480]     buffer_instance.cc:402      1| BufferInstance::PJRT_Buffer_Destroy
2025-10-28 19:05:02.939 (  22.563s) [        2AFB8480]     buffer_instance.cc:402      1| BufferInstance::PJRT_Buffer_Destroy
2025-10-28 19:05:02.939 (  22.563s) [        2AFB8480]     buffer_instance.cc:402      1| BufferInstance::PJRT_Buffer_Destroy
2025-10-28 19:05:02.939 (  22.563s) [        2AFB8480]     buffer_instance.cc:402      1| BufferInstance::PJRT_Buffer_Destroy
2025-10-28 19:05:02.939 (  22.563s) [        2AFB8480]     buffer_instance.cc:402      1| BufferInstance::PJRT_Buffer_Destroy
2025-10-28 19:05:02.939 (  22.563s) [        2AFB8480]     buffer_instance.cc:402      1| BufferInstance::PJRT_Buffer_Destroy
2025-10-28 19:05:02.939 (  22.563s) [        2AFB8480]     buffer_instance.cc:402      1| BufferInstance::PJRT_Buffer_Destroy
2025-10-28 19:05:02.939 (  22.563s) [        2AFB8480]     buffer_instance.cc:402      1| BufferInstance::PJRT_Buffer_Destroy
2025-10-28 19:05:02.939 (  22.563s) [        2AFB8480]     buffer_instance.cc:402      1| BufferInstance::PJRT_Buffer_Destroy
2025-10-28 19:05:02.939 (  22.563s) [        2AFB8480]     buffer_instance.cc:402      1| BufferInstance::PJRT_Buffer_Destroy
2025-10-28 19:05:02.939 (  22.564s) [        2AFB8480]     buffer_instance.cc:402      1| BufferInstance::PJRT_Buffer_Destroy
2025-10-28 19:05:02.940 (  22.564s) [        2AFB8480]     buffer_instance.cc:402      1| BufferInstance::PJRT_Buffer_Destroy
2025-10-28 19:05:02.940 (  22.564s) [        2AFB8480]     buffer_instance.cc:402      1| BufferInstance::PJRT_Buffer_Destroy
2025-10-28 19:05:02.940 (  22.564s) [        2AFB8480]     buffer_instance.cc:402      1| BufferInstance::PJRT_Buffer_Destroy
2025-10-28 19:05:02.940 (  22.564s) [        2AFB8480]     buffer_instance.cc:402      1| BufferInstance::PJRT_Buffer_Destroy
2025-10-28 19:05:02.940 (  22.564s) [        2AFB8480]     buffer_instance.cc:402      1| BufferInstance::PJRT_Buffer_Destroy
2025-10-28 19:05:02.940 (  22.564s) [        2AFB8480]     buffer_instance.cc:402      1| BufferInstance::PJRT_Buffer_Destroy
2025-10-28 19:05:02.940 (  22.564s) [        2AFB8480]     buffer_instance.cc:402      1| BufferInstance::PJRT_Buffer_Destroy
2025-10-28 19:05:02.940 (  22.564s) [        2AFB8480]     buffer_instance.cc:402      1| BufferInstance::PJRT_Buffer_Destroy
2025-10-28 19:05:02.940 (  22.564s) [        2AFB8480]     buffer_instance.cc:402      1| BufferInstance::PJRT_Buffer_Destroy
2025-10-28 19:05:02.940 (  22.564s) [        2AFB8480]     buffer_instance.cc:402      1| BufferInstance::PJRT_Buffer_Destroy
2025-10-28 19:05:02.940 (  22.564s) [        2AFB8480]     buffer_instance.cc:402      1| BufferInstance::PJRT_Buffer_Destroy
2025-10-28 19:05:02.940 (  22.564s) [        2AFB8480]     buffer_instance.cc:402      1| BufferInstance::PJRT_Buffer_Destroy
2025-10-28 19:05:02.940 (  22.564s) [        2AFB8480]     buffer_instance.cc:402      1| BufferInstance::PJRT_Buffer_Destroy
2025-10-28 19:05:02.940 (  22.564s) [        2AFB8480]     buffer_instance.cc:402      1| BufferInstance::PJRT_Buffer_Destroy
2025-10-28 19:05:02.940 (  22.564s) [        2AFB8480]     buffer_instance.cc:402      1| BufferInstance::PJRT_Buffer_Destroy
2025-10-28 19:05:02.940 (  22.564s) [        2AFB8480]     buffer_instance.cc:402      1| BufferInstance::PJRT_Buffer_Destroy
2025-10-28 19:05:02.940 (  22.564s) [        2AFB8480]     buffer_instance.cc:402      1| BufferInstance::PJRT_Buffer_Destroy
2025-10-28 19:05:02.940 (  22.564s) [        2AFB8480]     buffer_instance.cc:402      1| BufferInstance::PJRT_Buffer_Destroy
2025-10-28 19:05:02.940 (  22.564s) [        2AFB8480]     buffer_instance.cc:402      1| BufferInstance::PJRT_Buffer_Destroy
2025-10-28 19:05:02.940 (  22.564s) [        2AFB8480]     buffer_instance.cc:402      1| BufferInstance::PJRT_Buffer_Destroy
2025-10-28 19:05:02.940 (  22.564s) [        2AFB8480]     buffer_instance.cc:402      1| BufferInstance::PJRT_Buffer_Destroy
2025-10-28 19:05:02.940 (  22.565s) [        2AFB8480]     buffer_instance.cc:402      1| BufferInstance::PJRT_Buffer_Destroy
2025-10-28 19:05:02.940 (  22.565s) [        2AFB8480]     buffer_instance.cc:402      1| BufferInstance::PJRT_Buffer_Destroy
2025-10-28 19:05:02.941 (  22.565s) [        2AFB8480]     buffer_instance.cc:402      1| BufferInstance::PJRT_Buffer_Destroy
2025-10-28 19:05:02.941 (  22.565s) [        2AFB8480]     buffer_instance.cc:402      1| BufferInstance::PJRT_Buffer_Destroy
2025-10-28 19:05:02.941 (  22.565s) [        2AFB8480]     buffer_instance.cc:402      1| BufferInstance::PJRT_Buffer_Destroy
2025-10-28 19:05:02.941 (  22.565s) [        2AFB8480]     buffer_instance.cc:402      1| BufferInstance::PJRT_Buffer_Destroy
2025-10-28 19:05:02.941 (  22.565s) [        2AFB8480]     buffer_instance.cc:402      1| BufferInstance::PJRT_Buffer_Destroy
2025-10-28 19:05:02.941 (  22.565s) [        2AFB8480]     buffer_instance.cc:402      1| BufferInstance::PJRT_Buffer_Destroy
2025-10-28 19:05:02.941 (  22.565s) [        2AFB8480]     buffer_instance.cc:402      1| BufferInstance::PJRT_Buffer_Destroy
2025-10-28 19:05:02.941 (  22.565s) [        2AFB8480]     buffer_instance.cc:402      1| BufferInstance::PJRT_Buffer_Destroy
2025-10-28 19:05:02.941 (  22.565s) [        2AFB8480]     buffer_instance.cc:402      1| BufferInstance::PJRT_Buffer_Destroy
2025-10-28 19:05:02.941 (  22.565s) [        2AFB8480]     buffer_instance.cc:402      1| BufferInstance::PJRT_Buffer_Destroy
2025-10-28 19:05:02.941 (  22.565s) [        2AFB8480]     buffer_instance.cc:402      1| BufferInstance::PJRT_Buffer_Destroy
2025-10-28 19:05:02.941 (  22.565s) [        2AFB8480]     buffer_instance.cc:402      1| BufferInstance::PJRT_Buffer_Destroy
2025-10-28 19:05:02.941 (  22.565s) [        2AFB8480]     buffer_instance.cc:402      1| BufferInstance::PJRT_Buffer_Destroy
2025-10-28 19:05:02.941 (  22.565s) [        2AFB8480]     buffer_instance.cc:402      1| BufferInstance::PJRT_Buffer_Destroy
2025-10-28 19:05:02.941 (  22.565s) [        2AFB8480]     buffer_instance.cc:402      1| BufferInstance::PJRT_Buffer_Destroy
2025-10-28 19:05:02.941 (  22.565s) [        2AFB8480]     buffer_instance.cc:402      1| BufferInstance::PJRT_Buffer_Destroy
2025-10-28 19:05:02.941 (  22.565s) [        2AFB8480]     buffer_instance.cc:402      1| BufferInstance::PJRT_Buffer_Destroy
2025-10-28 19:05:02.941 (  22.565s) [        2AFB8480]     buffer_instance.cc:402      1| BufferInstance::PJRT_Buffer_Destroy
2025-10-28 19:05:02.941 (  22.566s) [        2AFB8480]     buffer_instance.cc:402      1| BufferInstance::PJRT_Buffer_Destroy
2025-10-28 19:05:02.942 (  22.566s) [        2AFB8480]     buffer_instance.cc:402      1| BufferInstance::PJRT_Buffer_Destroy
2025-10-28 19:05:02.942 (  22.566s) [        2AFB8480]     buffer_instance.cc:402      1| BufferInstance::PJRT_Buffer_Destroy
2025-10-28 19:05:02.942 (  22.566s) [        2AFB8480]     buffer_instance.cc:402      1| BufferInstance::PJRT_Buffer_Destroy
2025-10-28 19:05:02.942 (  22.566s) [        2AFB8480]     buffer_instance.cc:402      1| BufferInstance::PJRT_Buffer_Destroy
2025-10-28 19:05:02.942 (  22.566s) [        2AFB8480]     buffer_instance.cc:402      1| BufferInstance::PJRT_Buffer_Destroy
2025-10-28 19:05:02.942 (  22.566s) [        2AFB8480]     buffer_instance.cc:402      1| BufferInstance::PJRT_Buffer_Destroy
2025-10-28 19:05:02.942 (  22.566s) [        2AFB8480]     buffer_instance.cc:402      1| BufferInstance::PJRT_Buffer_Destroy
2025-10-28 19:05:02.942 (  22.566s) [        2AFB8480]     buffer_instance.cc:402      1| BufferInstance::PJRT_Buffer_Destroy
2025-10-28 19:05:02.942 (  22.566s) [        2AFB8480]     buffer_instance.cc:402      1| BufferInstance::PJRT_Buffer_Destroy
2025-10-28 19:05:02.942 (  22.566s) [        2AFB8480]     buffer_instance.cc:402      1| BufferInstance::PJRT_Buffer_Destroy
2025-10-28 19:05:02.942 (  22.566s) [        2AFB8480]     buffer_instance.cc:402      1| BufferInstance::PJRT_Buffer_Destroy
2025-10-28 19:05:02.942 (  22.566s) [        2AFB8480]     buffer_instance.cc:402      1| BufferInstance::PJRT_Buffer_Destroy
2025-10-28 19:05:02.942 (  22.566s) [        2AFB8480]     buffer_instance.cc:402      1| BufferInstance::PJRT_Buffer_Destroy
2025-10-28 19:05:02.942 (  22.566s) [        2AFB8480]     buffer_instance.cc:402      1| BufferInstance::PJRT_Buffer_Destroy
2025-10-28 19:05:02.942 (  22.566s) [        2AFB8480]     buffer_instance.cc:402      1| BufferInstance::PJRT_Buffer_Destroy
2025-10-28 19:05:02.942 (  22.566s) [        2AFB8480]     buffer_instance.cc:402      1| BufferInstance::PJRT_Buffer_Destroy
2025-10-28 19:05:02.942 (  22.566s) [        2AFB8480]     buffer_instance.cc:402      1| BufferInstance::PJRT_Buffer_Destroy
2025-10-28 19:05:02.942 (  22.566s) [        2AFB8480]     buffer_instance.cc:402      1| BufferInstance::PJRT_Buffer_Destroy
2025-10-28 19:05:02.942 (  22.566s) [        2AFB8480]     buffer_instance.cc:402      1| BufferInstance::PJRT_Buffer_Destroy
2025-10-28 19:05:02.942 (  22.566s) [        2AFB8480]     buffer_instance.cc:402      1| BufferInstance::PJRT_Buffer_Destroy
2025-10-28 19:05:02.942 (  22.567s) [        2AFB8480]     buffer_instance.cc:402      1| BufferInstance::PJRT_Buffer_Destroy
2025-10-28 19:05:02.943 (  22.567s) [        2AFB8480]     buffer_instance.cc:402      1| BufferInstance::PJRT_Buffer_Destroy
2025-10-28 19:05:02.943 (  22.567s) [        2AFB8480]     buffer_instance.cc:402      1| BufferInstance::PJRT_Buffer_Destroy
2025-10-28 19:05:02.943 (  22.567s) [        2AFB8480]     buffer_instance.cc:402      1| BufferInstance::PJRT_Buffer_Destroy
2025-10-28 19:05:02.943 (  22.567s) [        2AFB8480]     buffer_instance.cc:402      1| BufferInstance::PJRT_Buffer_Destroy
2025-10-28 19:05:02.943 (  22.567s) [        2AFB8480]     buffer_instance.cc:402      1| BufferInstance::PJRT_Buffer_Destroy
2025-10-28 19:05:02.943 (  22.567s) [        2AFB8480]     buffer_instance.cc:402      1| BufferInstance::PJRT_Buffer_Destroy
2025-10-28 19:05:02.943 (  22.567s) [        2AFB8480]     buffer_instance.cc:402      1| BufferInstance::PJRT_Buffer_Destroy
2025-10-28 19:05:02.943 (  22.567s) [        2AFB8480]     buffer_instance.cc:402      1| BufferInstance::PJRT_Buffer_Destroy
2025-10-28 19:05:02.943 (  22.567s) [        2AFB8480]     buffer_instance.cc:402      1| BufferInstance::PJRT_Buffer_Destroy
2025-10-28 19:05:02.943 (  22.567s) [        2AFB8480]     buffer_instance.cc:402      1| BufferInstance::PJRT_Buffer_Destroy
2025-10-28 19:05:02.948 (  22.572s) [        2AFB8480]     buffer_instance.cc:402      1| BufferInstance::PJRT_Buffer_Destroy
2025-10-28 19:05:02.948 (  22.572s) [        2AFB8480]     buffer_instance.cc:402      1| BufferInstance::PJRT_Buffer_Destroy
2025-10-28 19:05:02.948 (  22.572s) [        2AFB8480]     buffer_instance.cc:402      1| BufferInstance::PJRT_Buffer_Destroy
2025-10-28 19:05:02.948 (  22.572s) [        2AFB8480]     buffer_instance.cc:402      1| BufferInstance::PJRT_Buffer_Destroy
2025-10-28 19:05:02.948 (  22.572s) [        2AFB8480]     buffer_instance.cc:402      1| BufferInstance::PJRT_Buffer_Destroy
2025-10-28 19:05:02.948 (  22.572s) [        2AFB8480]     buffer_instance.cc:402      1| BufferInstance::PJRT_Buffer_Destroy
2025-10-28 19:05:02.948 (  22.572s) [        2AFB8480]     buffer_instance.cc:402      1| BufferInstance::PJRT_Buffer_Destroy
2025-10-28 19:05:02.948 (  22.572s) [        2AFB8480]     buffer_instance.cc:402      1| BufferInstance::PJRT_Buffer_Destroy
2025-10-28 19:05:02.948 (  22.572s) [        2AFB8480]     buffer_instance.cc:402      1| BufferInstance::PJRT_Buffer_Destroy
2025-10-28 19:05:02.948 (  22.572s) [        2AFB8480]     buffer_instance.cc:402      1| BufferInstance::PJRT_Buffer_Destroy
2025-10-28 19:05:02.948 (  22.572s) [        2AFB8480]     buffer_instance.cc:402      1| BufferInstance::PJRT_Buffer_Destroy
2025-10-28 19:05:02.948 (  22.572s) [        2AFB8480]     buffer_instance.cc:402      1| BufferInstance::PJRT_Buffer_Destroy
2025-10-28 19:05:02.948 (  22.573s) [        2AFB8480]     buffer_instance.cc:402      1| BufferInstance::PJRT_Buffer_Destroy
