2026-04-06 14:39:21.636 (  16.270s) [        49D9B140]      module_builder.cc:1220     1| MLIR Module ttnn:
#dram = #ttnn.buffer_type<dram>
#loc = loc(unknown)
#loc23 = loc("p0.4")
#loc24 = loc("p1.12")
#loc25 = loc("p2.18")
#loc26 = loc("p3.29")
#loc27 = loc("p4.33")
#loc28 = loc("p5.39")
#loc29 = loc("p6.43")
#loc30 = loc("p7.48")
#loc31 = loc("p8.57")
#loc32 = loc("p9.107")
#loc33 = loc("p10.116")
#loc34 = loc("p11.120")
#loc35 = loc("p12.124")
#loc36 = loc("p13.128")
#loc37 = loc("p14.146")
#loc38 = loc("p15.175")
#loc39 = loc("p16.179")
#loc40 = loc("p17.404")
#loc41 = loc("p18.414")
#loc42 = loc("p19.427")
#loc43 = loc("p20.434")
#loc44 = loc("p21.440")
#system_desc = #ttcore.system_desc<[{role = host, target_triple = "x86_64-pc-linux"}], [{arch = <blackhole>, grid = 10x12, coord_translation_offsets = 2x1, l1_size = 1572864, num_dram_channels = 8, dram_channel_size = 4278190080, noc_l1_address_align_bytes = 16, pcie_address_align_bytes = 64, noc_dram_address_align_bytes = 64, l1_unreserved_base = 111104, erisc_l1_unreserved_base = 87872, dram_unreserved_base = 4800064, dram_unreserved_end = 4276273536, supported_data_types = [<f32>, <f16>, <bf16>, <bfp_f8>, <bfp_bf8>, <bfp_f4>, <bfp_bf4>, <bfp_f2>, <bfp_bf2>, <u32>, <u16>, <u8>, <si32>], supported_tile_sizes = [ 4x16,  16x16,  32x16,  4x32,  16x32,  32x32], dst_physical_size_tiles = 16, num_cbs = 64, num_compute_threads = 1, num_datamovement_threads = 2}, {arch = <blackhole>, grid = 10x12, coord_translation_offsets = 2x1, l1_size = 1572864, num_dram_channels = 8, dram_channel_size = 4278190080, noc_l1_address_align_bytes = 16, pcie_address_align_bytes = 64, noc_dram_address_align_bytes = 64, l1_unreserved_base = 111104, erisc_l1_unreserved_base = 87872, dram_unreserved_base = 4800064, dram_unreserved_end = 4276273536, supported_data_types = [<f32>, <f16>, <bf16>, <bfp_f8>, <bfp_bf8>, <bfp_f4>, <bfp_bf4>, <bfp_f2>, <bfp_bf2>, <u32>, <u16>, <u8>, <si32>], supported_tile_sizes = [ 4x16,  16x16,  32x16,  4x32,  16x32,  32x32], dst_physical_size_tiles = 16, num_cbs = 64, num_compute_threads = 1, num_datamovement_threads = 2}, {arch = <blackhole>, grid = 10x12, coord_translation_offsets = 2x1, l1_size = 1572864, num_dram_channels = 8, dram_channel_size = 4278190080, noc_l1_address_align_bytes = 16, pcie_address_align_bytes = 64, noc_dram_address_align_bytes = 64, l1_unreserved_base = 111104, erisc_l1_unreserved_base = 87872, dram_unreserved_base = 4800064, dram_unreserved_end = 4276273536, supported_data_types = [<f32>, <f16>, <bf16>, <bfp_f8>, <bfp_bf8>, <bfp_f4>, <bfp_bf4>, <bfp_f2>, <bfp_bf2>, <u32>, <u16>, <u8>, <si32>], supported_tile_sizes = [ 4x16,  16x16,  32x16,  4x32,  16x32,  32x32], dst_physical_size_tiles = 16, num_cbs = 64, num_compute_threads = 1, num_datamovement_threads = 2}, {arch = <blackhole>, grid = 10x12, coord_translation_offsets = 2x1, l1_size = 1572864, num_dram_channels = 8, dram_channel_size = 4278190080, noc_l1_address_align_bytes = 16, pcie_address_align_bytes = 64, noc_dram_address_align_bytes = 64, l1_unreserved_base = 111104, erisc_l1_unreserved_base = 87872, dram_unreserved_base = 4800064, dram_unreserved_end = 4276273536, supported_data_types = [<f32>, <f16>, <bf16>, <bfp_f8>, <bfp_bf8>, <bfp_f4>, <bfp_bf4>, <bfp_f2>, <bfp_bf2>, <u32>, <u16>, <u8>, <si32>], supported_tile_sizes = [ 4x16,  16x16,  32x16,  4x32,  16x32,  32x32], dst_physical_size_tiles = 16, num_cbs = 64, num_compute_threads = 1, num_datamovement_threads = 2}, {arch = <blackhole>, grid = 10x12, coord_translation_offsets = 2x1, l1_size = 1572864, num_dram_channels = 8, dram_channel_size = 4278190080, noc_l1_address_align_bytes = 16, pcie_address_align_bytes = 64, noc_dram_address_align_bytes = 64, l1_unreserved_base = 111104, erisc_l1_unreserved_base = 87872, dram_unreserved_base = 4800064, dram_unreserved_end = 4276273536, supported_data_types = [<f32>, <f16>, <bf16>, <bfp_f8>, <bfp_bf8>, <bfp_f4>, <bfp_bf4>, <bfp_f2>, <bfp_bf2>, <u32>, <u16>, <u8>, <si32>], supported_tile_sizes = [ 4x16,  16x16,  32x16,  4x32,  16x32,  32x32], dst_physical_size_tiles = 16, num_cbs = 64, num_compute_threads = 1, num_datamovement_threads = 2}, {arch = <blackhole>, grid = 10x12, coord_translation_offsets = 2x1, l1_size = 1572864, num_dram_channels = 8, dram_channel_size = 4278190080, noc_l1_address_align_bytes = 16, pcie_address_align_bytes = 64, noc_dram_address_align_bytes = 64, l1_unreserved_base = 111104, erisc_l1_unreserved_base = 87872, dram_unreserved_base = 4800064, dram_unreserved_end = 4276273536, supported_data_types = [<f32>, <f16>, <bf16>, <bfp_f8>, <bfp_bf8>, <bfp_f4>, <bfp_bf4>, <bfp_f2>, <bfp_bf2>, <u32>, <u16>, <u8>, <si32>], supported_tile_sizes = [ 4x16,  16x16,  32x16,  4x32,  16x32,  32x32], dst_physical_size_tiles = 16, num_cbs = 64, num_compute_threads = 1, num_datamovement_threads = 2}, {arch = <blackhole>, grid = 10x12, coord_translation_offsets = 2x1, l1_size = 1572864, num_dram_channels = 8, dram_channel_size = 4278190080, noc_l1_address_align_bytes = 16, pcie_address_align_bytes = 64, noc_dram_address_align_bytes = 64, l1_unreserved_base = 111104, erisc_l1_unreserved_base = 87872, dram_unreserved_base = 4800064, dram_unreserved_end = 4276273536, supported_data_types = [<f32>, <f16>, <bf16>, <bfp_f8>, <bfp_bf8>, <bfp_f4>, <bfp_bf4>, <bfp_f2>, <bfp_bf2>, <u32>, <u16>, <u8>, <si32>], supported_tile_sizes = [ 4x16,  16x16,  32x16,  4x32,  16x32,  32x32], dst_physical_size_tiles = 16, num_cbs = 64, num_compute_threads = 1, num_datamovement_threads = 2}, {arch = <blackhole>, grid = 10x12, coord_translation_offsets = 2x1, l1_size = 1572864, num_dram_channels = 8, dram_channel_size = 4278190080, noc_l1_address_align_bytes = 16, pcie_address_align_bytes = 64, noc_dram_address_align_bytes = 64, l1_unreserved_base = 111104, erisc_l1_unreserved_base = 87872, dram_unreserved_base = 4800064, dram_unreserved_end = 4276273536, supported_data_types = [<f32>, <f16>, <bf16>, <bfp_f8>, <bfp_bf8>, <bfp_f4>, <bfp_bf4>, <bfp_f2>, <bfp_bf2>, <u32>, <u16>, <u8>, <si32>], supported_tile_sizes = [ 4x16,  16x16,  32x16,  4x32,  16x32,  32x32], dst_physical_size_tiles = 16, num_cbs = 64, num_compute_threads = 1, num_datamovement_threads = 2}, {arch = <blackhole>, grid = 10x12, coord_translation_offsets = 2x1, l1_size = 1572864, num_dram_channels = 8, dram_channel_size = 4278190080, noc_l1_address_align_bytes = 16, pcie_address_align_bytes = 64, noc_dram_address_align_bytes = 64, l1_unreserved_base = 111104, erisc_l1_unreserved_base = 87872, dram_unreserved_base = 4800064, dram_unreserved_end = 4276273536, supported_data_types = [<f32>, <f16>, <bf16>, <bfp_f8>, <bfp_bf8>, <bfp_f4>, <bfp_bf4>, <bfp_f2>, <bfp_bf2>, <u32>, <u16>, <u8>, <si32>], supported_tile_sizes = [ 4x16,  16x16,  32x16,  4x32,  16x32,  32x32], dst_physical_size_tiles = 16, num_cbs = 64, num_compute_threads = 1, num_datamovement_threads = 2}, {arch = <blackhole>, grid = 10x12, coord_translation_offsets = 2x1, l1_size = 1572864, num_dram_channels = 8, dram_channel_size = 4278190080, noc_l1_address_align_bytes = 16, pcie_address_align_bytes = 64, noc_dram_address_align_bytes = 64, l1_unreserved_base = 111104, erisc_l1_unreserved_base = 87872, dram_unreserved_base = 4800064, dram_unreserved_end = 4276273536, supported_data_types = [<f32>, <f16>, <bf16>, <bfp_f8>, <bfp_bf8>, <bfp_f4>, <bfp_bf4>, <bfp_f2>, <bfp_bf2>, <u32>, <u16>, <u8>, <si32>], supported_tile_sizes = [ 4x16,  16x16,  32x16,  4x32,  16x32,  32x32], dst_physical_size_tiles = 16, num_cbs = 64, num_compute_threads = 1, num_datamovement_threads = 2}, {arch = <blackhole>, grid = 10x12, coord_translation_offsets = 2x1, l1_size = 1572864, num_dram_channels = 8, dram_channel_size = 4278190080, noc_l1_address_align_bytes = 16, pcie_address_align_bytes = 64, noc_dram_address_align_bytes = 64, l1_unreserved_base = 111104, erisc_l1_unreserved_base = 87872, dram_unreserved_base = 4800064, dram_unreserved_end = 4276273536, supported_data_types = [<f32>, <f16>, <bf16>, <bfp_f8>, <bfp_bf8>, <bfp_f4>, <bfp_bf4>, <bfp_f2>, <bfp_bf2>, <u32>, <u16>, <u8>, <si32>], supported_tile_sizes = [ 4x16,  16x16,  32x16,  4x32,  16x32,  32x32], dst_physical_size_tiles = 16, num_cbs = 64, num_compute_threads = 1, num_datamovement_threads = 2}, {arch = <blackhole>, grid = 10x12, coord_translation_offsets = 2x1, l1_size = 1572864, num_dram_channels = 8, dram_channel_size = 4278190080, noc_l1_address_align_bytes = 16, pcie_address_align_bytes = 64, noc_dram_address_align_bytes = 64, l1_unreserved_base = 111104, erisc_l1_unreserved_base = 87872, dram_unreserved_base = 4800064, dram_unreserved_end = 4276273536, supported_data_types = [<f32>, <f16>, <bf16>, <bfp_f8>, <bfp_bf8>, <bfp_f4>, <bfp_bf4>, <bfp_f2>, <bfp_bf2>, <u32>, <u16>, <u8>, <si32>], supported_tile_sizes = [ 4x16,  16x16,  32x16,  4x32,  16x32,  32x32], dst_physical_size_tiles = 16, num_cbs = 64, num_compute_threads = 1, num_datamovement_threads = 2}, {arch = <blackhole>, grid = 10x12, coord_translation_offsets = 2x1, l1_size = 1572864, num_dram_channels = 8, dram_channel_size = 4278190080, noc_l1_address_align_bytes = 16, pcie_address_align_bytes = 64, noc_dram_address_align_bytes = 64, l1_unreserved_base = 111104, erisc_l1_unreserved_base = 87872, dram_unreserved_base = 4800064, dram_unreserved_end = 4276273536, supported_data_types = [<f32>, <f16>, <bf16>, <bfp_f8>, <bfp_bf8>, <bfp_f4>, <bfp_bf4>, <bfp_f2>, <bfp_bf2>, <u32>, <u16>, <u8>, <si32>], supported_tile_sizes = [ 4x16,  16x16,  32x16,  4x32,  16x32,  32x32], dst_physical_size_tiles = 16, num_cbs = 64, num_compute_threads = 1, num_datamovement_threads = 2}, {arch = <blackhole>, grid = 10x12, coord_translation_offsets = 2x1, l1_size = 1572864, num_dram_channels = 8, dram_channel_size = 4278190080, noc_l1_address_align_bytes = 16, pcie_address_align_bytes = 64, noc_dram_address_align_bytes = 64, l1_unreserved_base = 111104, erisc_l1_unreserved_base = 87872, dram_unreserved_base = 4800064, dram_unreserved_end = 4276273536, supported_data_types = [<f32>, <f16>, <bf16>, <bfp_f8>, <bfp_bf8>, <bfp_f4>, <bfp_bf4>, <bfp_f2>, <bfp_bf2>, <u32>, <u16>, <u8>, <si32>], supported_tile_sizes = [ 4x16,  16x16,  32x16,  4x32,  16x32,  32x32], dst_physical_size_tiles = 16, num_cbs = 64, num_compute_threads = 1, num_datamovement_threads = 2}, {arch = <blackhole>, grid = 10x12, coord_translation_offsets = 2x1, l1_size = 1572864, num_dram_channels = 8, dram_channel_size = 4278190080, noc_l1_address_align_bytes = 16, pcie_address_align_bytes = 64, noc_dram_address_align_bytes = 64, l1_unreserved_base = 111104, erisc_l1_unreserved_base = 87872, dram_unreserved_base = 4800064, dram_unreserved_end = 4276273536, supported_data_types = [<f32>, <f16>, <bf16>, <bfp_f8>, <bfp_bf8>, <bfp_f4>, <bfp_bf4>, <bfp_f2>, <bfp_bf2>, <u32>, <u16>, <u8>, <si32>], supported_tile_sizes = [ 4x16,  16x16,  32x16,  4x32,  16x32,  32x32], dst_physical_size_tiles = 16, num_cbs = 64, num_compute_threads = 1, num_datamovement_threads = 2}, {arch = <blackhole>, grid = 10x12, coord_translation_offsets = 2x1, l1_size = 1572864, num_dram_channels = 8, dram_channel_size = 4278190080, noc_l1_address_align_bytes = 16, pcie_address_align_bytes = 64, noc_dram_address_align_bytes = 64, l1_unreserved_base = 111104, erisc_l1_unreserved_base = 87872, dram_unreserved_base = 4800064, dram_unreserved_end = 4276273536, supported_data_types = [<f32>, <f16>, <bf16>, <bfp_f8>, <bfp_bf8>, <bfp_f4>, <bfp_bf4>, <bfp_f2>, <bfp_bf2>, <u32>, <u16>, <u8>, <si32>], supported_tile_sizes = [ 4x16,  16x16,  32x16,  4x32,  16x32,  32x32], dst_physical_size_tiles = 16, num_cbs = 64, num_compute_threads = 1, num_datamovement_threads = 2}, {arch = <blackhole>, grid = 10x12, coord_translation_offsets = 2x1, l1_size = 1572864, num_dram_channels = 8, dram_channel_size = 4278190080, noc_l1_address_align_bytes = 16, pcie_address_align_bytes = 64, noc_dram_address_align_bytes = 64, l1_unreserved_base = 111104, erisc_l1_unreserved_base = 87872, dram_unreserved_base = 4800064, dram_unreserved_end = 4276273536, supported_data_types = [<f32>, <f16>, <bf16>, <bfp_f8>, <bfp_bf8>, <bfp_f4>, <bfp_bf4>, <bfp_f2>, <bfp_bf2>, <u32>, <u16>, <u8>, <si32>], supported_tile_sizes = [ 4x16,  16x16,  32x16,  4x32,  16x32,  32x32], dst_physical_size_tiles = 16, num_cbs = 64, num_compute_threads = 1, num_datamovement_threads = 2}, {arch = <blackhole>, grid = 10x12, coord_translation_offsets = 2x1, l1_size = 1572864, num_dram_channels = 8, dram_channel_size = 4278190080, noc_l1_address_align_bytes = 16, pcie_address_align_bytes = 64, noc_dram_address_align_bytes = 64, l1_unreserved_base = 111104, erisc_l1_unreserved_base = 87872, dram_unreserved_base = 4800064, dram_unreserved_end = 4276273536, supported_data_types = [<f32>, <f16>, <bf16>, <bfp_f8>, <bfp_bf8>, <bfp_f4>, <bfp_bf4>, <bfp_f2>, <bfp_bf2>, <u32>, <u16>, <u8>, <si32>], supported_tile_sizes = [ 4x16,  16x16,  32x16,  4x32,  16x32,  32x32], dst_physical_size_tiles = 16, num_cbs = 64, num_compute_threads = 1, num_datamovement_threads = 2}, {arch = <blackhole>, grid = 10x12, coord_translation_offsets = 2x1, l1_size = 1572864, num_dram_channels = 8, dram_channel_size = 4278190080, noc_l1_address_align_bytes = 16, pcie_address_align_bytes = 64, noc_dram_address_align_bytes = 64, l1_unreserved_base = 111104, erisc_l1_unreserved_base = 87872, dram_unreserved_base = 4800064, dram_unreserved_end = 4276273536, supported_data_types = [<f32>, <f16>, <bf16>, <bfp_f8>, <bfp_bf8>, <bfp_f4>, <bfp_bf4>, <bfp_f2>, <bfp_bf2>, <u32>, <u16>, <u8>, <si32>], supported_tile_sizes = [ 4x16,  16x16,  32x16,  4x32,  16x32,  32x32], dst_physical_size_tiles = 16, num_cbs = 64, num_compute_threads = 1, num_datamovement_threads = 2}, {arch = <blackhole>, grid = 10x12, coord_translation_offsets = 2x1, l1_size = 1572864, num_dram_channels = 8, dram_channel_size = 4278190080, noc_l1_address_align_bytes = 16, pcie_address_align_bytes = 64, noc_dram_address_align_bytes = 64, l1_unreserved_base = 111104, erisc_l1_unreserved_base = 87872, dram_unreserved_base = 4800064, dram_unreserved_end = 4276273536, supported_data_types = [<f32>, <f16>, <bf16>, <bfp_f8>, <bfp_bf8>, <bfp_f4>, <bfp_bf4>, <bfp_f2>, <bfp_bf2>, <u32>, <u16>, <u8>, <si32>], supported_tile_sizes = [ 4x16,  16x16,  32x16,  4x32,  16x32,  32x32], dst_physical_size_tiles = 16, num_cbs = 64, num_compute_threads = 1, num_datamovement_threads = 2}, {arch = <blackhole>, grid = 10x12, coord_translation_offsets = 2x1, l1_size = 1572864, num_dram_channels = 8, dram_channel_size = 4278190080, noc_l1_address_align_bytes = 16, pcie_address_align_bytes = 64, noc_dram_address_align_bytes = 64, l1_unreserved_base = 111104, erisc_l1_unreserved_base = 87872, dram_unreserved_base = 4800064, dram_unreserved_end = 4276273536, supported_data_types = [<f32>, <f16>, <bf16>, <bfp_f8>, <bfp_bf8>, <bfp_f4>, <bfp_bf4>, <bfp_f2>, <bfp_bf2>, <u32>, <u16>, <u8>, <si32>], supported_tile_sizes = [ 4x16,  16x16,  32x16,  4x32,  16x32,  32x32], dst_physical_size_tiles = 16, num_cbs = 64, num_compute_threads = 1, num_datamovement_threads = 2}, {arch = <blackhole>, grid = 10x12, coord_translation_offsets = 2x1, l1_size = 1572864, num_dram_channels = 8, dram_channel_size = 4278190080, noc_l1_address_align_bytes = 16, pcie_address_align_bytes = 64, noc_dram_address_align_bytes = 64, l1_unreserved_base = 111104, erisc_l1_unreserved_base = 87872, dram_unreserved_base = 4800064, dram_unreserved_end = 4276273536, supported_data_types = [<f32>, <f16>, <bf16>, <bfp_f8>, <bfp_bf8>, <bfp_f4>, <bfp_bf4>, <bfp_f2>, <bfp_bf2>, <u32>, <u16>, <u8>, <si32>], supported_tile_sizes = [ 4x16,  16x16,  32x16,  4x32,  16x32,  32x32], dst_physical_size_tiles = 16, num_cbs = 64, num_compute_threads = 1, num_datamovement_threads = 2}, {arch = <blackhole>, grid = 10x12, coord_translation_offsets = 2x1, l1_size = 1572864, num_dram_channels = 8, dram_channel_size = 4278190080, noc_l1_address_align_bytes = 16, pcie_address_align_bytes = 64, noc_dram_address_align_bytes = 64, l1_unreserved_base = 111104, erisc_l1_unreserved_base = 87872, dram_unreserved_base = 4800064, dram_unreserved_end = 4276273536, supported_data_types = [<f32>, <f16>, <bf16>, <bfp_f8>, <bfp_bf8>, <bfp_f4>, <bfp_bf4>, <bfp_f2>, <bfp_bf2>, <u32>, <u16>, <u8>, <si32>], supported_tile_sizes = [ 4x16,  16x16,  32x16,  4x32,  16x32,  32x32], dst_physical_size_tiles = 16, num_cbs = 64, num_compute_threads = 1, num_datamovement_threads = 2}, {arch = <blackhole>, grid = 10x12, coord_translation_offsets = 2x1, l1_size = 1572864, num_dram_channels = 8, dram_channel_size = 4278190080, noc_l1_address_align_bytes = 16, pcie_address_align_bytes = 64, noc_dram_address_align_bytes = 64, l1_unreserved_base = 111104, erisc_l1_unreserved_base = 87872, dram_unreserved_base = 4800064, dram_unreserved_end = 4276273536, supported_data_types = [<f32>, <f16>, <bf16>, <bfp_f8>, <bfp_bf8>, <bfp_f4>, <bfp_bf4>, <bfp_f2>, <bfp_bf2>, <u32>, <u16>, <u8>, <si32>], supported_tile_sizes = [ 4x16,  16x16,  32x16,  4x32,  16x32,  32x32], dst_physical_size_tiles = 16, num_cbs = 64, num_compute_threads = 1, num_datamovement_threads = 2}, {arch = <blackhole>, grid = 10x12, coord_translation_offsets = 2x1, l1_size = 1572864, num_dram_channels = 8, dram_channel_size = 4278190080, noc_l1_address_align_bytes = 16, pcie_address_align_bytes = 64, noc_dram_address_align_bytes = 64, l1_unreserved_base = 111104, erisc_l1_unreserved_base = 87872, dram_unreserved_base = 4800064, dram_unreserved_end = 4276273536, supported_data_types = [<f32>, <f16>, <bf16>, <bfp_f8>, <bfp_bf8>, <bfp_f4>, <bfp_bf4>, <bfp_f2>, <bfp_bf2>, <u32>, <u16>, <u8>, <si32>], supported_tile_sizes = [ 4x16,  16x16,  32x16,  4x32,  16x32,  32x32], dst_physical_size_tiles = 16, num_cbs = 64, num_compute_threads = 1, num_datamovement_threads = 2}, {arch = <blackhole>, grid = 10x12, coord_translation_offsets = 2x1, l1_size = 1572864, num_dram_channels = 8, dram_channel_size = 4278190080, noc_l1_address_align_bytes = 16, pcie_address_align_bytes = 64, noc_dram_address_align_bytes = 64, l1_unreserved_base = 111104, erisc_l1_unreserved_base = 87872, dram_unreserved_base = 4800064, dram_unreserved_end = 4276273536, supported_data_types = [<f32>, <f16>, <bf16>, <bfp_f8>, <bfp_bf8>, <bfp_f4>, <bfp_bf4>, <bfp_f2>, <bfp_bf2>, <u32>, <u16>, <u8>, <si32>], supported_tile_sizes = [ 4x16,  16x16,  32x16,  4x32,  16x32,  32x32], dst_physical_size_tiles = 16, num_cbs = 64, num_compute_threads = 1, num_datamovement_threads = 2}, {arch = <blackhole>, grid = 10x12, coord_translation_offsets = 2x1, l1_size = 1572864, num_dram_channels = 8, dram_channel_size = 4278190080, noc_l1_address_align_bytes = 16, pcie_address_align_bytes = 64, noc_dram_address_align_bytes = 64, l1_unreserved_base = 111104, erisc_l1_unreserved_base = 87872, dram_unreserved_base = 4800064, dram_unreserved_end = 4276273536, supported_data_types = [<f32>, <f16>, <bf16>, <bfp_f8>, <bfp_bf8>, <bfp_f4>, <bfp_bf4>, <bfp_f2>, <bfp_bf2>, <u32>, <u16>, <u8>, <si32>], supported_tile_sizes = [ 4x16,  16x16,  32x16,  4x32,  16x32,  32x32], dst_physical_size_tiles = 16, num_cbs = 64, num_compute_threads = 1, num_datamovement_threads = 2}, {arch = <blackhole>, grid = 10x12, coord_translation_offsets = 2x1, l1_size = 1572864, num_dram_channels = 8, dram_channel_size = 4278190080, noc_l1_address_align_bytes = 16, pcie_address_align_bytes = 64, noc_dram_address_align_bytes = 64, l1_unreserved_base = 111104, erisc_l1_unreserved_base = 87872, dram_unreserved_base = 4800064, dram_unreserved_end = 4276273536, supported_data_types = [<f32>, <f16>, <bf16>, <bfp_f8>, <bfp_bf8>, <bfp_f4>, <bfp_bf4>, <bfp_f2>, <bfp_bf2>, <u32>, <u16>, <u8>, <si32>], supported_tile_sizes = [ 4x16,  16x16,  32x16,  4x32,  16x32,  32x32], dst_physical_size_tiles = 16, num_cbs = 64, num_compute_threads = 1, num_datamovement_threads = 2}, {arch = <blackhole>, grid = 10x12, coord_translation_offsets = 2x1, l1_size = 1572864, num_dram_channels = 8, dram_channel_size = 4278190080, noc_l1_address_align_bytes = 16, pcie_address_align_bytes = 64, noc_dram_address_align_bytes = 64, l1_unreserved_base = 111104, erisc_l1_unreserved_base = 87872, dram_unreserved_base = 4800064, dram_unreserved_end = 4276273536, supported_data_types = [<f32>, <f16>, <bf16>, <bfp_f8>, <bfp_bf8>, <bfp_f4>, <bfp_bf4>, <bfp_f2>, <bfp_bf2>, <u32>, <u16>, <u8>, <si32>], supported_tile_sizes = [ 4x16,  16x16,  32x16,  4x32,  16x32,  32x32], dst_physical_size_tiles = 16, num_cbs = 64, num_compute_threads = 1, num_datamovement_threads = 2}, {arch = <blackhole>, grid = 10x12, coord_translation_offsets = 2x1, l1_size = 1572864, num_dram_channels = 8, dram_channel_size = 4278190080, noc_l1_address_align_bytes = 16, pcie_address_align_bytes = 64, noc_dram_address_align_bytes = 64, l1_unreserved_base = 111104, erisc_l1_unreserved_base = 87872, dram_unreserved_base = 4800064, dram_unreserved_end = 4276273536, supported_data_types = [<f32>, <f16>, <bf16>, <bfp_f8>, <bfp_bf8>, <bfp_f4>, <bfp_bf4>, <bfp_f2>, <bfp_bf2>, <u32>, <u16>, <u8>, <si32>], supported_tile_sizes = [ 4x16,  16x16,  32x16,  4x32,  16x32,  32x32], dst_physical_size_tiles = 16, num_cbs = 64, num_compute_threads = 1, num_datamovement_threads = 2}, {arch = <blackhole>, grid = 10x12, coord_translation_offsets = 2x1, l1_size = 1572864, num_dram_channels = 8, dram_channel_size = 4278190080, noc_l1_address_align_bytes = 16, pcie_address_align_bytes = 64, noc_dram_address_align_bytes = 64, l1_unreserved_base = 111104, erisc_l1_unreserved_base = 87872, dram_unreserved_base = 4800064, dram_unreserved_end = 4276273536, supported_data_types = [<f32>, <f16>, <bf16>, <bfp_f8>, <bfp_bf8>, <bfp_f4>, <bfp_bf4>, <bfp_f2>, <bfp_bf2>, <u32>, <u16>, <u8>, <si32>], supported_tile_sizes = [ 4x16,  16x16,  32x16,  4x32,  16x32,  32x32], dst_physical_size_tiles = 16, num_cbs = 64, num_compute_threads = 1, num_datamovement_threads = 2}, {arch = <blackhole>, grid = 10x12, coord_translation_offsets = 2x1, l1_size = 1572864, num_dram_channels = 8, dram_channel_size = 4278190080, noc_l1_address_align_bytes = 16, pcie_address_align_bytes = 64, noc_dram_address_align_bytes = 64, l1_unreserved_base = 111104, erisc_l1_unreserved_base = 87872, dram_unreserved_base = 4800064, dram_unreserved_end = 4276273536, supported_data_types = [<f32>, <f16>, <bf16>, <bfp_f8>, <bfp_bf8>, <bfp_f4>, <bfp_bf4>, <bfp_f2>, <bfp_bf2>, <u32>, <u16>, <u8>, <si32>], supported_tile_sizes = [ 4x16,  16x16,  32x16,  4x32,  16x32,  32x32], dst_physical_size_tiles = 16, num_cbs = 64, num_compute_threads = 1, num_datamovement_threads = 2}], [0, 1, 2, 3, 4, 5, 6, 7, 8, 9, 10, 11, 12, 13, 14, 15, 16, 17, 18, 19, 20, 21, 22, 23, 24, 25, 26, 27, 28, 29, 30, 31], [1 : i32, 1 : i32, 1 : i32, 1 : i32, 1 : i32, 1 : i32, 1 : i32, 1 : i32, 1 : i32, 1 : i32, 1 : i32, 1 : i32, 1 : i32, 1 : i32, 1 : i32, 1 : i32, 1 : i32, 1 : i32, 1 : i32, 1 : i32, 1 : i32, 1 : i32, 1 : i32, 1 : i32, 1 : i32, 1 : i32, 1 : i32, 1 : i32, 1 : i32, 1 : i32, 1 : i32, 1 : i32], [ 0x0x0x0], [<[0, 0, 0], [24, 0, 0]>, <[0, 1, 0], [24, 1, 0]>, <[0, 2, 0], [8, 2, 0]>, <[0, 3, 0], [8, 3, 0]>, <[0, 4, 0], [1, 2, 0]>, <[0, 5, 0], [1, 3, 0]>, <[0, 6, 0], [4, 0, 0]>, <[0, 7, 0], [4, 1, 0]>, <[1, 0, 0], [25, 0, 0]>, <[1, 1, 0], [25, 1, 0]>, <[1, 4, 0], [2, 2, 0]>, <[1, 5, 0], [2, 3, 0]>, <[1, 6, 0], [5, 0, 0]>, <[1, 7, 0], [5, 1, 0]>, <[2, 0, 0], [26, 0, 0]>, <[2, 1, 0], [26, 1, 0]>, <[2, 4, 0], [3, 2, 0]>, <[2, 5, 0], [3, 3, 0]>, <[2, 6, 0], [6, 0, 0]>, <[2, 7, 0], [6, 1, 0]>, <[3, 0, 0], [27, 0, 0]>, <[3, 1, 0], [27, 1, 0]>, <[3, 4, 0], [11, 4, 0]>, <[3, 5, 0], [11, 5, 0]>, <[3, 6, 0], [7, 0, 0]>, <[3, 7, 0], [7, 1, 0]>, <[4, 2, 0], [12, 2, 0]>, <[4, 3, 0], [12, 3, 0]>, <[4, 4, 0], [5, 2, 0]>, <[4, 5, 0], [5, 3, 0]>, <[4, 6, 0], [28, 6, 0]>, <[4, 7, 0], [28, 7, 0]>, <[5, 4, 0], [6, 2, 0]>, <[5, 5, 0], [6, 3, 0]>, <[5, 6, 0], [29, 6, 0]>, <[5, 7, 0], [29, 7, 0]>, <[6, 4, 0], [7, 2, 0]>, <[6, 5, 0], [7, 3, 0]>, <[6, 6, 0], [30, 6, 0]>, <[6, 7, 0], [30, 7, 0]>, <[7, 4, 0], [15, 4, 0]>, <[7, 5, 0], [15, 5, 0]>, <[7, 6, 0], [31, 6, 0]>, <[7, 7, 0], [31, 7, 0]>, <[8, 0, 0], [16, 0, 0]>, <[8, 1, 0], [16, 1, 0]>, <[8, 4, 0], [9, 2, 0]>, <[8, 5, 0], [9, 3, 0]>, <[8, 6, 0], [12, 0, 0]>, <[8, 7, 0], [12, 1, 0]>, <[9, 0, 0], [17, 0, 0]>, <[9, 1, 0], [17, 1, 0]>, <[9, 4, 0], [10, 2, 0]>, <[9, 5, 0], [10, 3, 0]>, <[9, 6, 0], [13, 0, 0]>, <[9, 7, 0], [13, 1, 0]>, <[10, 0, 0], [18, 0, 0]>, <[10, 1, 0], [18, 1, 0]>, <[10, 4, 0], [11, 2, 0]>, <[10, 5, 0], [11, 3, 0]>, <[10, 6, 0], [14, 0, 0]>, <[10, 7, 0], [14, 1, 0]>, <[11, 0, 0], [19, 0, 0]>, <[11, 1, 0], [19, 1, 0]>, <[11, 6, 0], [15, 0, 0]>, <[11, 7, 0], [15, 1, 0]>, <[12, 4, 0], [13, 2, 0]>, <[12, 5, 0], [13, 3, 0]>, <[12, 6, 0], [20, 6, 0]>, <[12, 7, 0], [20, 7, 0]>, <[13, 4, 0], [14, 2, 0]>, <[13, 5, 0], [14, 3, 0]>, <[13, 6, 0], [21, 6, 0]>, <[13, 7, 0], [21, 7, 0]>, <[14, 4, 0], [15, 2, 0]>, <[14, 5, 0], [15, 3, 0]>, <[14, 6, 0], [22, 6, 0]>, <[14, 7, 0], [22, 7, 0]>, <[15, 6, 0], [23, 6, 0]>, <[15, 7, 0], [23, 7, 0]>, <[16, 2, 0], [24, 2, 0]>, <[16, 3, 0], [24, 3, 0]>, <[16, 4, 0], [17, 2, 0]>, <[16, 5, 0], [17, 3, 0]>, <[16, 6, 0], [20, 0, 0]>, <[16, 7, 0], [20, 1, 0]>, <[17, 4, 0], [18, 2, 0]>, <[17, 5, 0], [18, 3, 0]>, <[17, 6, 0], [21, 0, 0]>, <[17, 7, 0], [21, 1, 0]>, <[18, 4, 0], [19, 2, 0]>, <[18, 5, 0], [19, 3, 0]>, <[18, 6, 0], [22, 0, 0]>, <[18, 7, 0], [22, 1, 0]>, <[19, 4, 0], [27, 4, 0]>, <[19, 5, 0], [27, 5, 0]>, <[19, 6, 0], [23, 0, 0]>, <[19, 7, 0], [23, 1, 0]>, <[20, 2, 0], [28, 2, 0]>, <[20, 3, 0], [28, 3, 0]>, <[20, 4, 0], [21, 2, 0]>, <[20, 5, 0], [21, 3, 0]>, <[21, 4, 0], [22, 2, 0]>, <[21, 5, 0], [22, 3, 0]>, <[22, 4, 0], [23, 2, 0]>, <[22, 5, 0], [23, 3, 0]>, <[23, 4, 0], [31, 4, 0]>, <[23, 5, 0], [31, 5, 0]>, <[24, 4, 0], [25, 2, 0]>, <[24, 5, 0], [25, 3, 0]>, <[24, 6, 0], [28, 0, 0]>, <[24, 7, 0], [28, 1, 0]>, <[25, 4, 0], [26, 2, 0]>, <[25, 5, 0], [26, 3, 0]>, <[25, 6, 0], [29, 0, 0]>, <[25, 7, 0], [29, 1, 0]>, <[26, 4, 0], [27, 2, 0]>, <[26, 5, 0], [27, 3, 0]>, <[26, 6, 0], [30, 0, 0]>, <[26, 7, 0], [30, 1, 0]>, <[27, 6, 0], [31, 0, 0]>, <[27, 7, 0], [31, 1, 0]>, <[28, 4, 0], [29, 2, 0]>, <[28, 5, 0], [29, 3, 0]>, <[29, 4, 0], [30, 2, 0]>, <[29, 5, 0], [30, 3, 0]>, <[30, 4, 0], [31, 2, 0]>, <[30, 5, 0], [31, 3, 0]>]>
#system_memory = #ttnn.buffer_type<system_memory>
#ttnn_layout = #ttnn.ttnn_layout<(d0, d1) -> (d0, d1), <1x1>, memref<1x1x!ttcore.tile<32x32, f32>, #dram>, <interleaved>>
#ttnn_layout1 = #ttnn.ttnn_layout<(d0, d1, d2) -> (d0 * 32 + d1, d2), <1x1>, memref<1x1x!ttcore.tile<32x32, f32>, #dram>, <interleaved>>
#ttnn_layout2 = #ttnn.ttnn_layout<() -> (0, 0), <1x1>, memref<1x1x!ttcore.tile<32x32, f32>, #dram>, <interleaved>>
#ttnn_layout3 = #ttnn.ttnn_layout<(d0, d1, d2, d3) -> (d0 * 32 + d1 * 32 + d2, d3), <1x1>, memref<1x1x!ttcore.tile<32x32, bf16>, #dram>, <interleaved>>
#ttnn_layout4 = #ttnn.ttnn_layout<() -> (0, 0), <1x1>, memref<1x1x!ttcore.tile<32x32, bf16>, #dram>, <interleaved>>
#ttnn_layout5 = #ttnn.ttnn_layout<(d0) -> (0, d0), <1x1>, memref<1x2880xbf16, #system_memory>>
#ttnn_layout6 = #ttnn.ttnn_layout<(d0, d1) -> (d0, d1), <1x1>, memref<1x90x!ttcore.tile<32x32, f32>, #dram>, <interleaved>>
#ttnn_layout7 = #ttnn.ttnn_layout<(d0) -> (0, d0), <1x1>, memref<1x2880xbf16, #dram>, <interleaved>>
#ttnn_layout8 = #ttnn.ttnn_layout<(d0) -> (0, d0), <1x1>, memref<1x90x!ttcore.tile<32x32, bf16>, #dram>, <interleaved>>
#ttnn_layout9 = #ttnn.ttnn_layout<(d0) -> (0, d0), <1x1>, memref<1x23x!ttcore.tile<32x32, bf16>, #dram>, <interleaved>>
#ttnn_layout10 = #ttnn.ttnn_layout<(d0) -> (0, d0), <1x1>, memref<1x23x!ttcore.tile<32x32, f32>, #dram>, <interleaved>>
#ttnn_layout11 = #ttnn.ttnn_layout<(d0, d1) -> (d0, d1), <1x1>, memref<1x23x!ttcore.tile<32x32, f32>, #dram>, <interleaved>>
#ttnn_layout12 = #ttnn.ttnn_layout<(d0, d1, d2, d3) -> (d0 * 128 + d1 * 128 + d2, d3), <1x1>, memref<128x32xsi32, #system_memory>>
#ttnn_layout13 = #ttnn.ttnn_layout<(d0, d1, d2, d3) -> (d0 * 128 + d1 * 128 + d2, d3), <1x1>, memref<128x32xui16, #dram>, <interleaved>>
#ttnn_layout14 = #ttnn.ttnn_layout<(d0, d1, d2, d3) -> (d0 * 128 + d1 * 128 + d2, d3), <1x1>, memref<128x32xui16, #system_memory>>
#ttnn_layout15 = #ttnn.ttnn_layout<(d0) -> (0, d0), <1x1>, memref<1x512xbf16, #system_memory>>
#ttnn_layout16 = #ttnn.ttnn_layout<(d0, d1) -> (d0, d1), <1x1>, memref<1x2x!ttcore.tile<32x32, bf16>, #dram>, <interleaved>>
#ttnn_layout17 = #ttnn.ttnn_layout<(d0) -> (0, d0), <1x1>, memref<1x512xbf16, #dram>, <interleaved>>
#ttnn_layout18 = #ttnn.ttnn_layout<(d0) -> (0, d0), <1x1>, memref<1x16x!ttcore.tile<32x32, bf16>, #dram>, <interleaved>>
#ttnn_layout19 = #ttnn.ttnn_layout<(d0) -> (0, d0), <1x1>, memref<1x2x!ttcore.tile<32x32, bf16>, #dram>, <interleaved>>
#ttnn_layout20 = #ttnn.ttnn_layout<(d0) -> (0, d0), <1x1>, memref<1x4096xbf16, #system_memory>>
#ttnn_layout21 = #ttnn.ttnn_layout<(d0, d1) -> (d0, d1), <1x1>, memref<1x16x!ttcore.tile<32x32, bf16>, #dram>, <interleaved>>
#ttnn_layout22 = #ttnn.ttnn_layout<(d0) -> (0, d0), <1x1>, memref<1x4096xbf16, #dram>, <interleaved>>
#ttnn_layout23 = #ttnn.ttnn_layout<(d0) -> (0, d0), <1x1>, memref<1x128x!ttcore.tile<32x32, bf16>, #dram>, <interleaved>>
#ttnn_layout24 = #ttnn.ttnn_layout<(d0, d1) -> (d0, d1), <1x1>, memref<128x5760xbf16, #system_memory>>
#ttnn_layout25 = #ttnn.ttnn_layout<(d0, d1, d2, d3) -> (d0 * 128 + d1 * 32 + d2, d3), <1x1>, memref<4x180x!ttcore.tile<32x32, bf16>, #dram>, <interleaved>>
#ttnn_layout26 = #ttnn.ttnn_layout<(d0, d1) -> (d0, d1), <1x1>, memref<128x5760xbf16, #dram>, <interleaved>>
#ttnn_layout27 = #ttnn.ttnn_layout<(d0, d1) -> (d0, d1), <1x1>, memref<4x180x!ttcore.tile<32x32, bf16>, #dram>, <interleaved>>
#ttnn_layout28 = #ttnn.ttnn_layout<(d0, d1) -> (d0, d1), <1x1>, memref<1x180x!ttcore.tile<32x32, bf16>, #dram>, <interleaved>>
#ttnn_layout29 = #ttnn.ttnn_layout<(d0, d1) -> (d0, d1), <1x1>, memref<2880x4096xbf16, #system_memory>>
#ttnn_layout30 = #ttnn.ttnn_layout<(d0, d1) -> (d0, d1), <1x1>, memref<23x16x!ttcore.tile<32x32, bf16>, #dram>, <interleaved>>
#ttnn_layout31 = #ttnn.ttnn_layout<(d0, d1) -> (d0, d1), <1x1>, memref<2880x4096xbf16, #dram>, <interleaved>>
#ttnn_layout32 = #ttnn.ttnn_layout<(d0, d1) -> (d0, d1), <1x1>, memref<90x128x!ttcore.tile<32x32, bf16>, #dram>, <interleaved>>
#ttnn_layout33 = #ttnn.ttnn_layout<(d0, d1) -> (d0, d1), <1x1>, memref<1x90x!ttcore.tile<32x32, bf16>, #dram>, <interleaved>>
#ttnn_layout34 = #ttnn.ttnn_layout<(d0, d1) -> (d0, d1), <1x1>, memref<1x23x!ttcore.tile<32x32, bf16>, #dram>, <interleaved>>
#ttnn_layout35 = #ttnn.ttnn_layout<(d0) -> (0, d0), <1x1>, memref<1x64xbf16, #system_memory>>
#ttnn_layout36 = #ttnn.ttnn_layout<(d0, d1, d2, d3) -> (d0 * 256 + d1 * 32 + d2, d3), <1x1>, memref<64x1x!ttcore.tile<32x32, bf16>, #dram>, <interleaved>>
#ttnn_layout37 = #ttnn.ttnn_layout<(d0) -> (0, d0), <1x1>, memref<1x64xbf16, #dram>, <interleaved>>
#ttnn_layout38 = #ttnn.ttnn_layout<(d0) -> (0, d0), <1x1>, memref<1x8xbf16, #dram>, <interleaved>>
#ttnn_layout39 = #ttnn.ttnn_layout<(d0) -> (0, d0), <1x1>, memref<1x1x!ttcore.tile<32x32, bf16>, #dram>, <interleaved>>
#ttnn_layout40 = #ttnn.ttnn_layout<(d0, d1, d2, d3) -> (d0 * 256 + d1 * 32 + d2, d3), <1x1>, memref<8x1x!ttcore.tile<32x32, bf16>, #dram>, <interleaved>>
#ttnn_layout41 = #ttnn.ttnn_layout<(d0, d1) -> (d0, d1), <1x1>, memref<1x1x!ttcore.tile<32x32, bf16>, #dram>, <interleaved>>
#ttnn_layout42 = #ttnn.ttnn_layout<(d0, d1) -> (d0, d1), <1x1>, memref<1x4x!ttcore.tile<32x32, bf16>, #dram>, <interleaved>>
#ttnn_layout43 = #ttnn.ttnn_layout<(d0, d1) -> (d0, d1), <1x1>, memref<512x2880xbf16, #system_memory>>
#ttnn_layout44 = #ttnn.ttnn_layout<(d0, d1) -> (d0, d1), <1x1>, memref<2x23x!ttcore.tile<32x32, bf16>, #dram>, <interleaved>>
#ttnn_layout45 = #ttnn.ttnn_layout<(d0, d1) -> (d0, d1), <1x1>, memref<512x2880xbf16, #dram>, <interleaved>>
#ttnn_layout46 = #ttnn.ttnn_layout<(d0, d1) -> (d0, d1), <1x1>, memref<16x90x!ttcore.tile<32x32, bf16>, #dram>, <interleaved>>
#ttnn_layout47 = #ttnn.ttnn_layout<(d0) -> (0, d0), <1x1>, memref<1x128xbf16, #system_memory>>
#ttnn_layout48 = #ttnn.ttnn_layout<(d0, d1) -> (d0, d1), <1x1>, memref<1x4x!ttcore.tile<32x32, f32>, #dram>, <interleaved>>
#ttnn_layout49 = #ttnn.ttnn_layout<(d0) -> (0, d0), <1x1>, memref<1x128xbf16, #dram>, <interleaved>>
#ttnn_layout50 = #ttnn.ttnn_layout<(d0) -> (0, d0), <1x1>, memref<1x4x!ttcore.tile<32x32, bf16>, #dram>, <interleaved>>
#ttnn_layout51 = #ttnn.ttnn_layout<(d0, d1) -> (d0, d1), <1x1>, memref<128x2880xbf16, #system_memory>>
#ttnn_layout52 = #ttnn.ttnn_layout<(d0, d1, d2, d3) -> (d0 * 128 + d1 * 32 + d2, d3), <1x1>, memref<4x90x!ttcore.tile<32x32, bf16>, #dram>, <interleaved>>
#ttnn_layout53 = #ttnn.ttnn_layout<(d0, d1) -> (d0, d1), <1x1>, memref<128x2880xbf16, #dram>, <interleaved>>
#ttnn_layout54 = #ttnn.ttnn_layout<(d0, d1) -> (d0, d1), <1x1>, memref<4x90x!ttcore.tile<32x32, bf16>, #dram>, <interleaved>>
#ttnn_layout55 = #ttnn.ttnn_layout<(d0, d1, d2) -> (d0 * 32 + d1, d2), <1x1>, memref<1x4x!ttcore.tile<32x32, si32>, #dram>, <interleaved>>
#ttnn_layout56 = #ttnn.ttnn_layout<(d0) -> (0, d0), <1x1>, memref<1x4x!ttcore.tile<32x32, si32>, #dram>, <interleaved>>
#ttnn_layout57 = #ttnn.ttnn_layout<(d0, d1) -> (d0, d1), <1x1>, memref<4096x2880xbf16, #system_memory>>
#ttnn_layout58 = #ttnn.ttnn_layout<(d0, d1) -> (d0, d1), <1x1>, memref<16x23x!ttcore.tile<32x32, bf16>, #dram>, <interleaved>>
#ttnn_layout59 = #ttnn.ttnn_layout<(d0, d1) -> (d0, d1), <1x1>, memref<4096x2880xbf16, #dram>, <interleaved>>
#ttnn_layout60 = #ttnn.ttnn_layout<(d0, d1) -> (d0, d1), <1x1>, memref<128x90x!ttcore.tile<32x32, bf16>, #dram>, <interleaved>>
#ttnn_layout61 = #ttnn.ttnn_layout<(d0, d1, d2) -> (d0 * 2880 + d1, d2), <1x1>, memref<368640x2880xbf16, #system_memory>>
#ttnn_layout62 = #ttnn.ttnn_layout<(d0, d1, d2, d3) -> (d0 * 11520 + d1 * 2880 + d2, d3), <1x1>, memref<360x90x!ttcore.tile<32x32, bf16>, #dram>, <interleaved>>
#ttnn_layout63 = #ttnn.ttnn_layout<(d0, d1, d2) -> (d0 * 2880 + d1, d2), <1x1>, memref<368640x2880xbf16, #dram>, <interleaved>>
#ttnn_layout64 = #ttnn.ttnn_layout<(d0, d1, d2) -> (d0 * 2880 + d1, d2), <1x1>, memref<11520x90x!ttcore.tile<32x32, bf16>, #dram>, <interleaved>>
#ttnn_layout65 = #ttnn.ttnn_layout<(d0, d1, d2) -> (d0 * 2880 + d1, d2), <1x1>, memref<360x90x!ttcore.tile<32x32, bf16>, #dram>, <interleaved>>
#ttnn_layout66 = #ttnn.ttnn_layout<(d0, d1, d2) -> (d0 * 32 + d1, d2), <1x1>, memref<1x90x!ttcore.tile<32x32, f32>, #dram>, <interleaved>>
#ttnn_layout67 = #ttnn.ttnn_layout<(d0, d1) -> (d0, d1), <1x1>, memref<23x4x!ttcore.tile<32x32, f32>, #dram>, <interleaved>>
#ttnn_layout68 = #ttnn.ttnn_layout<(d0, d1) -> (d0, d1), <1x1>, memref<4x23x!ttcore.tile<32x32, bf16>, #dram>, <interleaved>>
#ttnn_layout69 = #ttnn.ttnn_layout<(d0, d1) -> (d0, d1), <1x1>, memref<23x4x!ttcore.tile<32x32, bf16>, #dram>, <interleaved>>
#ttnn_layout70 = #ttnn.ttnn_layout<(d0, d1, d2) -> (d0 * 32 + d1, d2), <1x1>, memref<8x1x!ttcore.tile<32x32, si32>, #dram>, <interleaved>>
#ttnn_layout71 = #ttnn.ttnn_layout<(d0) -> (0, d0), <1x1>, memref<1x1x!ttcore.tile<32x32, si32>, #dram>, <interleaved>>
#ttnn_layout72 = #ttnn.ttnn_layout<(d0, d1) -> (d0, d1), <1x1>, memref<1x1x!ttcore.tile<32x32, si32>, #dram>, <interleaved>>
#ttnn_layout73 = #ttnn.ttnn_layout<(d0, d1, d2) -> (d0 * 2880 + d1, d2), <1x1>, memref<368640x5760xbf16, #system_memory>>
#ttnn_layout74 = #ttnn.ttnn_layout<(d0, d1, d2, d3) -> (d0 * 11520 + d1 * 2880 + d2, d3), <1x1>, memref<360x180x!ttcore.tile<32x32, bf16>, #dram>, <interleaved>>
#ttnn_layout75 = #ttnn.ttnn_layout<(d0, d1, d2) -> (d0 * 2880 + d1, d2), <1x1>, memref<368640x5760xbf16, #dram>, <interleaved>>
#ttnn_layout76 = #ttnn.ttnn_layout<(d0, d1, d2) -> (d0 * 2880 + d1, d2), <1x1>, memref<11520x180x!ttcore.tile<32x32, bf16>, #dram>, <interleaved>>
#ttnn_layout77 = #ttnn.ttnn_layout<(d0, d1, d2) -> (d0 * 2880 + d1, d2), <1x1>, memref<360x180x!ttcore.tile<32x32, bf16>, #dram>, <interleaved>>
#ttnn_layout78 = #ttnn.ttnn_layout<(d0, d1, d2) -> (d0 * 32 + d1, d2), <1x1>, memref<32x90x!ttcore.tile<32x32, bf16>, #dram>, <interleaved>>
#ttnn_layout79 = #ttnn.ttnn_layout<(d0, d1, d2, d3) -> (d0 * 32 + d1 * 32 + d2, d3), <1x1>, memref<32x1x!ttcore.tile<32x32, bf16>, #dram>, <interleaved>>
#ttnn_layout80 = #ttnn.ttnn_layout<(d0, d1, d2) -> (d0 * 32 + d1, d2), <1x1>, memref<32x1x!ttcore.tile<32x32, bf16>, #dram>, <interleaved>>
#ttnn_layout81 = #ttnn.ttnn_layout<(d0, d1, d2) -> (d0 * 32 + d1, d2), <1x1>, memref<8x90x!ttcore.tile<32x32, bf16>, #dram>, <interleaved>>
#ttnn_layout82 = #ttnn.ttnn_layout<(d0, d1, d2, d3) -> (d0 * 32 + d1 * 32 + d2, d3), <1x1>, memref<8x1x!ttcore.tile<32x32, bf16>, #dram>, <interleaved>>
#ttnn_layout83 = #ttnn.ttnn_layout<(d0, d1, d2) -> (d0 * 32 + d1, d2), <1x1>, memref<8x1x!ttcore.tile<32x32, bf16>, #dram>, <interleaved>>
#ttnn_layout84 = #ttnn.ttnn_layout<(d0, d1, d2) -> (d0 * 32 + d1, d2), <1x1>, memref<8x90x!ttcore.tile<32x32, f32>, #dram>, <interleaved>>
#ttnn_layout85 = #ttnn.ttnn_layout<(d0, d1, d2, d3) -> (d0 * 32 + d1 * 32 + d2, d3), <1x1>, memref<1x16x!ttcore.tile<32x32, bf16>, #dram>, <interleaved>>
#ttnn_layout86 = #ttnn.ttnn_layout<(d0, d1, d2, d3) -> (d0 * 256 + d1 * 32 + d2, d3), <1x1>, memref<64x2x!ttcore.tile<32x32, bf16>, #dram>, <interleaved>>
#ttnn_layout87 = #ttnn.ttnn_layout<(d0, d1, d2, d3) -> (d0 * 32 + d1 * 32 + d2, d3), <1x1>, memref<1x2x!ttcore.tile<32x32, bf16>, #dram>, <interleaved>>
#ttnn_layout88 = #ttnn.ttnn_layout<(d0, d1, d2, d3) -> (d0 * 32 + d1 * 32 + d2, d3), <1x1>, memref<8x2x!ttcore.tile<32x32, bf16>, #dram>, <interleaved>>
#ttnn_layout89 = #ttnn.ttnn_layout<(d0, d1, d2, d3) -> (d0 * 64 + d1 * 64 + d2, d3), <1x1>, memref<16x1x!ttcore.tile<32x32, bf16>, #dram>, <interleaved>>
#ttnn_layout90 = #ttnn.ttnn_layout<(d0, d1, d2, d3) -> (d0 * 512 + d1 * 64 + d2, d3), <1x1>, memref<128x1x!ttcore.tile<32x32, bf16>, #dram>, <interleaved>>
#ttnn_layout91 = #ttnn.ttnn_layout<(d0, d1, d2) -> (d0 * 32 + d1, d2), <1x1>, memref<1x23x!ttcore.tile<32x32, bf16>, #dram>, <interleaved>>
#ttnn_layout92 = #ttnn.ttnn_layout<(d0, d1, d2) -> (d0 * 32 + d1, d2), <1x1>, memref<8x23x!ttcore.tile<32x32, bf16>, #dram>, <interleaved>>
#ttnn_layout93 = #ttnn.ttnn_layout<(d0, d1, d2) -> (d0 * 32 + d1, d2), <1x1>, memref<8x1x!ttcore.tile<32x32, f32>, #dram>, <interleaved>>
#ttnn_layout94 = #ttnn.ttnn_layout<(d0, d1, d2, d3) -> (d0 * 32 + d1 * 32 + d2, d3), <1x1>, memref<1x4x!ttcore.tile<32x32, f32>, #dram>, <interleaved>>
#ttnn_layout95 = #ttnn.ttnn_layout<(d0, d1) -> (d0, d1), <1x1>, memref<1x4x!ttcore.tile<32x32, u16>, #dram>, <interleaved>>
#ttnn_layout96 = #ttnn.ttnn_layout<(d0, d1) -> (d0, d1), <1x1>, memref<1x4x!ttcore.tile<32x32, si32>, #dram>, <interleaved>>
#ttnn_layout97 = #ttnn.ttnn_layout<(d0, d1, d2) -> (d0 * 32 + d1, d2), <1x1>, memref<32x1x!ttcore.tile<32x32, si32>, #dram>, <interleaved>>
#ttnn_layout98 = #ttnn.ttnn_layout<(d0, d1) -> (d0, d1), <1x1>, memref<4x1x!ttcore.tile<32x32, si32>, #dram>, <interleaved>>
#ttnn_layout99 = #ttnn.ttnn_layout<(d0) -> (0, d0), <1x1>, memref<1x128xsi32, #dram>, <interleaved>>
#ttnn_layout100 = #ttnn.ttnn_layout<(d0, d1) -> (d0, d1), <1x1>, memref<32x128xbf16, #dram>, <interleaved>>
#ttnn_layout101 = #ttnn.ttnn_layout<(d0, d1) -> (d0, d1), <1x1>, memref<8x128xbf16, #dram>, <interleaved>>
#ttnn_layout102 = #ttnn.ttnn_layout<(d0, d1, d2) -> (d0 * 32 + d1, d2), <1x1>, memref<1x4x!ttcore.tile<32x32, bf16>, #dram>, <interleaved>>
#ttnn_layout103 = #ttnn.ttnn_layout<(d0, d1, d2) -> (d0 * 128 + d1, d2), <1x1>, memref<4x4x!ttcore.tile<32x32, bf16>, #dram>, <interleaved>>
#ttnn_layout104 = #ttnn.ttnn_layout<(d0, d1, d2, d3) -> (d0 * 128 + d1 * 128 + d2, d3), <1x1>, memref<4x4x!ttcore.tile<32x32, bf16>, #dram>, <interleaved>>
#ttnn_layout105 = #ttnn.ttnn_layout<(d0, d1, d2, d3) -> (d0 * 32 + d1 * 32 + d2, d3), <1x1>, memref<8x90x!ttcore.tile<32x32, bf16>, #dram>, <interleaved>>
#ttnn_layout106 = #ttnn.ttnn_layout<(d0, d1, d2, d3) -> (d0 * 32 + d1 * 32 + d2, d3), <1x1>, memref<8x1x!ttcore.tile<32x32, si32>, #dram>, <interleaved>>
#ttnn_layout107 = #ttnn.ttnn_layout<(d0, d1, d2, d3) -> (d0 * 32 + d1 * 32 + d2, d3), <1x1>, memref<32x90x!ttcore.tile<32x32, bf16>, #dram>, <interleaved>>
#ttnn_layout108 = #ttnn.ttnn_layout<(d0, d1, d2, d3) -> (d0 * 32 + d1 * 32 + d2, d3), <1x1>, memref<32x1x!ttcore.tile<32x32, si32>, #dram>, <interleaved>>
#ttnn_layout109 = #ttnn.ttnn_layout<(d0, d1, d2, d3) -> (d0 + d1 + d2, d3), <1x1>, memref<32x2880xbf16, #dram>, <interleaved>>
#ttnn_layout110 = #ttnn.ttnn_layout<(d0, d1, d2, d3) -> (d0 * 32 + d1 * 32 + d2, d3), <1x1>, memref<32x1x!ttcore.tile<32x32, u16>, #dram>, <interleaved>>
#ttnn_layout111 = #ttnn.ttnn_layout<(d0, d1, d2, d3) -> (d0 * 32 + d1 * 32 + d2, d3), <1x1>, memref<32x1x!ttcore.tile<32x32, u16>, #system_memory>>
#ttnn_layout112 = #ttnn.ttnn_layout<(d0, d1, d2, d3) -> (d0 + d1 + d2, d3), <1x1>, memref<32x4xui16, #system_memory>>
#ttnn_layout113 = #ttnn.ttnn_layout<(d0, d1, d2, d3) -> (d0 + d1 + d2, d3), <1x1>, memref<32x4xui16, #dram>, <interleaved>>
#ttnn_layout114 = #ttnn.ttnn_layout<(d0, d1, d2, d3) -> (d0 * 128 + d1 + d2, d3), <1x1>, memref<128x2880xbf16, #dram>, <interleaved>>
#ttnn_layout115 = #ttnn.ttnn_layout<(d0, d1, d2, d3) -> (d0 * 128 + d1 + d2, d3), <1x1>, memref<128x4xui16, #dram>, <interleaved>>
#ttnn_layout116 = #ttnn.ttnn_layout<(d0, d1, d2, d3) -> (d0 * 4096 + d1 * 32 + d2, d3), <1x1>, memref<128x1x!ttcore.tile<32x32, u16>, #dram>, <interleaved>>
#ttnn_layout117 = #ttnn.ttnn_layout<(d0, d1, d2, d3) -> (d0 * 4096 + d1 * 32 + d2, d3), <1x1>, memref<128x1x!ttcore.tile<32x32, si32>, #dram>, <interleaved>>
#ttnn_layout118 = #ttnn.ttnn_layout<(d0, d1, d2, d3) -> (d0 * 4096 + d1 * 32 + d2, d3), <1x1>, memref<128x90x!ttcore.tile<32x32, bf16>, #dram>, <interleaved>>
#ttnn_layout119 = #ttnn.ttnn_layout<(d0, d1, d2, d3) -> (d0 * 128 + d1 * 128 + d2, d3), <1x1>, memref<4x1x!ttcore.tile<32x32, si32>, #dram>, <interleaved>>
#ttnn_layout120 = #ttnn.ttnn_layout<(d0, d1, d2, d3) -> (d0 * 128 + d1 * 128 + d2, d3), <1x1>, memref<128x128xbf16, #dram>, <interleaved>>
#ttnn_layout121 = #ttnn.ttnn_layout<(d0, d1, d2, d3) -> (d0 * 128 + d1 * 128 + d2, d3), <1x1>, memref<4x1x!ttcore.tile<32x32, u16>, #dram>, <interleaved>>
#ttnn_layout122 = #ttnn.ttnn_layout<(d0, d1, d2, d3) -> (d0 * 128 + d1 * 128 + d2, d3), <1x1>, memref<4x1x!ttcore.tile<32x32, u16>, #system_memory>>
#ttnn_layout123 = #ttnn.ttnn_layout<(d0, d1, d2, d3) -> (d0 * 128 + d1 * 128 + d2, d3), <1x1>, memref<128x4xui16, #system_memory>>
#ttnn_layout124 = #ttnn.ttnn_layout<(d0, d1, d2, d3) -> (d0 * 128 + d1 * 128 + d2, d3), <1x1>, memref<128x4xui16, #dram>, <interleaved>>
#ttnn_layout125 = #ttnn.ttnn_layout<(d0, d1, d2, d3) -> (d0 * 128 + d1 * 128 + d2, d3), <1x1>, memref<128x4xbf16, #dram>, <interleaved>>
#ttnn_layout126 = #ttnn.ttnn_layout<(d0, d1, d2, d3) -> (d0 * 4 + d1 * 4 + d2, d3), <1x1>, memref<4x4xui16, #dram>, <interleaved>>
#ttnn_layout127 = #ttnn.ttnn_layout<(d0, d1, d2, d3) -> (d0 * 32 + d1 * 32 + d2, d3), <1x1>, memref<1x1x!ttcore.tile<32x32, u16>, #dram>, <interleaved>>
#ttnn_layout128 = #ttnn.ttnn_layout<(d0, d1, d2, d3) -> (d0 * 32 + d1 * 32 + d2, d3), <1x1>, memref<4x90x!ttcore.tile<32x32, bf16>, #dram>, <interleaved>>
#ttnn_layout129 = #ttnn.ttnn_layout<(d0, d1, d2, d3) -> (d0 * 32 + d1 * 32 + d2, d3), <1x1>, memref<4x1x!ttcore.tile<32x32, bf16>, #dram>, <interleaved>>
#ttnn_layout130 = #ttnn.ttnn_layout<(d0, d1, d2, d3) -> (d0 + d1 + d2, d3), <1x1>, memref<4x4xbf16, #dram>, <interleaved>>
#ttnn_layout131 = #ttnn.ttnn_layout<(d0, d1, d2, d3, d4, d5) -> (d0 * 128 + d1 * 128 + d2 * 128 + d3 * 32 + d4, d5), <1x1>, memref<16x180x!ttcore.tile<32x32, bf16>, #dram>, <interleaved>>
#ttnn_layout132 = #ttnn.ttnn_layout<(d0, d1, d2, d3) -> (d0 * 128 + d1 * 32 + d2, d3), <1x1>, memref<16x180x!ttcore.tile<32x32, bf16>, #dram>, <interleaved>>
#ttnn_layout133 = #ttnn.ttnn_layout<(d0, d1, d2, d3) -> (d0 * 128 + d1 * 32 + d2, d3), <1x1>, memref<16x90x!ttcore.tile<32x32, bf16>, #dram>, <interleaved>>
#ttnn_layout134 = #ttnn.ttnn_layout<(d0, d1, d2, d3) -> (d0 * 4 + d1 * 4 + d2, d3), <1x1>, memref<4x4xui16, #system_memory>>
#ttnn_layout135 = #ttnn.ttnn_layout<(d0, d1, d2, d3) -> (d0 * 4 + d1 * 4 + d2, d3), <1x1>, memref<4x4xbf16, #system_memory>>
#ttnn_layout136 = #ttnn.ttnn_layout<(d0, d1, d2, d3) -> (d0 * 4 + d1 * 4 + d2, d3), <1x1>, memref<4x4xbf16, #dram>, <interleaved>>
#ttnn_layout137 = #ttnn.ttnn_layout<(d0, d1, d2, d3) -> (d0 * 128 + d1 * 128 + d2, d3), <1x1>, memref<16x90x!ttcore.tile<32x32, bf16>, #dram>, <interleaved>>
#ttnn_layout138 = #ttnn.ttnn_layout<(d0, d1, d2, d3) -> (d0 * 128 + d1 * 128 + d2, d3), <1x1>, memref<512x2880xbf16, #dram>, <interleaved>>
#ttnn_layout139 = #ttnn.ttnn_layout<(d0, d1, d2, d3) -> (d0 * 32 + d1 * 32 + d2, d3), <1x1>, memref<128x2880xbf16, #dram>, <interleaved>>
#ttnn_layout140 = #ttnn.ttnn_layout<(d0, d1, d2, d3, d4) -> (d0 * 128 + d1 * 32 + d2 * 32 + d3, d4), <1x1>, memref<4x90x!ttcore.tile<32x32, bf16>, #dram>, <interleaved>>
#ttnn_layout141 = #ttnn.ttnn_layout<(d0, d1, d2, d3, d4) -> (d0 * 128 + d1 * 32 + d2 * 32 + d3, d4), <1x1>, memref<32x90x!ttcore.tile<32x32, bf16>, #dram>, <interleaved>>
#ttnn_layout142 = #ttnn.ttnn_layout<(d0, d1, d2, d3) -> (d0 * 8 + d1 * 8 + d2, d3), <1x1>, memref<32x2880xbf16, #dram>, <interleaved>>
#ttnn_layout143 = #ttnn.ttnn_layout<(d0, d1, d2) -> (d0 * 32 + d1, d2), <1x1>, memref<8x4x!ttcore.tile<32x32, bf16>, #dram>, <interleaved>>
#ttnn_layout144 = #ttnn.ttnn_layout<(d0, d1, d2) -> (d0 * 128 + d1, d2), <1x1>, memref<32x1x!ttcore.tile<32x32, bf16>, #dram>, <interleaved>>
#ttnn_layout145 = #ttnn.ttnn_layout<(d0, d1, d2) -> (d0 * 32 + d1, d2), <1x1>, memref<1x90x!ttcore.tile<32x32, bf16>, #dram>, <interleaved>>
module @SyncTensorsGraph.497 attributes {mhlo.cross_program_prefetches = [], mhlo.input_output_alias = [], mhlo.is_dynamic = false, mhlo.use_auto_spmd_partitioning = false, ttcore.meshes = #ttcore.meshes<[<"mesh" = 4x8>]>} {
  ttcore.device_module {
    builtin.module @SyncTensorsGraph.497 attributes {mhlo.cross_program_prefetches = [], mhlo.input_output_alias = [], mhlo.is_dynamic = false, mhlo.use_auto_spmd_partitioning = false, ttcore.meshes = #ttcore.meshes<[<"mesh" = 4x8>]>, ttcore.system_desc = #system_desc} {
      ttcore.device @default_device = <workerGrid = #ttcore.grid<10x12, (d0, d1) -> (0, d0, d1)>, l1Map = (d0, d1, d2)[s0] -> (0, d0, d1, d2 + s0), dramMap = (d0, d1, d2)[s0, s1, s2, s3, s4, s5, s6] -> (0, 0, (((d0 * s1) * (s2 * (s3 * s6)) + d1 * (s2 * (s3 * s6)) + d2) floordiv s4) mod 8, ((((d0 * s1) * (s2 * (s3 * s6)) + d1 * (s2 * (s3 * s6)) + d2) floordiv s4) floordiv 8) * s4 + ((d0 * s1) * (s2 * (s3 * s6)) + d1 * (s2 * (s3 * s6)) + d2) mod s4 + s5), meshShape = 4x8, chipIds = [0, 1, 2, 3, 4, 5, 6, 7, 8, 9, 10, 11, 12, 13, 14, 15, 16, 17, 18, 19, 20, 21, 22, 23, 24, 25, 26, 27, 28, 29, 30, 31], meshTopology = [ring, ring]> loc(#loc)
      func.func private @main_const_eval_0() -> (tensor<1x1xf32, #ttnn_layout>, tensor<1x1x1xf32, #ttnn_layout1>) attributes {tt.function_type = "const_eval"} {
        %0 = "ttnn.get_device"() <{mesh_offset = #ttnn<mesh_offset 0x0>, mesh_shape = #ttnn<mesh_shape 4x8>}> : () -> !ttnn.device loc(#loc)
        %1 = "ttnn.full"(%0) <{dtype = #ttcore.supportedDataTypes<f32>, fill_value = 3.47222231E-4 : f32, layout = #ttnn.layout<tile>, shape = #ttnn.shape<>}> : (!ttnn.device) -> tensor<f32, #ttnn_layout2> loc(#loc)
        %2 = "ttnn.reshape"(%1) <{shape = [1 : i32, 1 : i32]}> : (tensor<f32, #ttnn_layout2>) -> tensor<1x1xf32, #ttnn_layout> loc(#loc)
        %3 = "ttnn.reshape"(%1) <{shape = [1 : i32, 1 : i32, 1 : i32]}> : (tensor<f32, #ttnn_layout2>) -> tensor<1x1x1xf32, #ttnn_layout1> loc(#loc140)
        "ttnn.deallocate"(%1) <{force = false}> : (tensor<f32, #ttnn_layout2>) -> () loc(#loc140)
        return %2, %3 : tensor<1x1xf32, #ttnn_layout>, tensor<1x1x1xf32, #ttnn_layout1> loc(#loc)
      } loc(#loc)
      func.func private @main_const_eval_1() -> tensor<1x1x1x1xbf16, #ttnn_layout3> attributes {tt.function_type = "const_eval"} {
        %0 = "ttnn.get_device"() <{mesh_offset = #ttnn<mesh_offset 0x0>, mesh_shape = #ttnn<mesh_shape 4x8>}> : () -> !ttnn.device loc(#loc)
        %1 = "ttnn.full"(%0) <{dtype = #ttcore.supportedDataTypes<bf16>, fill_value = 1.703125 : f32, layout = #ttnn.layout<tile>, shape = #ttnn.shape<>}> : (!ttnn.device) -> tensor<bf16, #ttnn_layout4> loc(#loc)
        %2 = "ttnn.reshape"(%1) <{shape = [1 : i32, 1 : i32, 1 : i32, 1 : i32]}> : (tensor<bf16, #ttnn_layout4>) -> tensor<1x1x1x1xbf16, #ttnn_layout3> loc(#loc192)
        "ttnn.deallocate"(%1) <{force = false}> : (tensor<bf16, #ttnn_layout4>) -> () loc(#loc192)
        return %2 : tensor<1x1x1x1xbf16, #ttnn_layout3> loc(#loc)
      } loc(#loc)
      func.func private @main_const_eval_2(%arg0: tensor<2880xbf16, #ttnn_layout5> loc(unknown)) -> tensor<1x2880xf32, #ttnn_layout6> attributes {tt.function_type = "const_eval"} {
        %0 = "ttnn.get_device"() <{mesh_offset = #ttnn<mesh_offset 0x0>, mesh_shape = #ttnn<mesh_shape 4x8>}> : () -> !ttnn.device loc(#loc)
        %1 = "ttnn.to_device"(%arg0, %0) <{memory_config = #ttnn.memory_config<#dram, <interleaved>>}> : (tensor<2880xbf16, #ttnn_layout5>, !ttnn.device) -> tensor<2880xbf16, #ttnn_layout7> loc(#loc)
        %2 = "ttnn.to_layout"(%1) <{layout = #ttnn.layout<tile>}> : (tensor<2880xbf16, #ttnn_layout7>) -> tensor<2880xbf16, #ttnn_layout8> loc(#loc)
        "ttnn.deallocate"(%1) <{force = false}> : (tensor<2880xbf16, #ttnn_layout7>) -> () loc(#loc)
        %3 = "ttnn.mesh_shard"(%2, %0) <{shard_dims = array<i64: 0, -1>, shard_direction = #ttcore.shard_direction<full_to_shard>, shard_shape = array<i64: 4>, shard_type = #ttcore.shard_type<identity>}> : (tensor<2880xbf16, #ttnn_layout8>, !ttnn.device) -> tensor<720xbf16, #ttnn_layout9> loc(#loc)
        %4 = "ttnn.typecast"(%3) <{dtype = #ttcore.supportedDataTypes<f32>}> : (tensor<720xbf16, #ttnn_layout9>) -> tensor<720xf32, #ttnn_layout10> loc(#loc3)
        "ttnn.deallocate"(%2) <{force = false}> : (tensor<2880xbf16, #ttnn_layout8>) -> () loc(#loc3)
        %5 = "ttnn.reshape"(%4) <{shape = [1 : i32, 720 : i32]}> : (tensor<720xf32, #ttnn_layout10>) -> tensor<1x720xf32, #ttnn_layout11> loc(#loc142)
        "ttnn.deallocate"(%4) <{force = false}> : (tensor<720xf32, #ttnn_layout10>) -> () loc(#loc142)
        %6 = "ttnn.all_gather"(%5) <{all_gather_dim = 1 : si32, cluster_axis = 0 : ui32, topology = #ttcore.topology<ring>}> : (tensor<1x720xf32, #ttnn_layout11>) -> tensor<1x2880xf32, #ttnn_layout6> loc(#loc143)
        "ttnn.deallocate"(%5) <{force = false}> : (tensor<1x720xf32, #ttnn_layout11>) -> () loc(#loc143)
        return %6 : tensor<1x2880xf32, #ttnn_layout6> loc(#loc)
      } loc(#loc)
      func.func private @main_const_eval_3(%arg0: tensor<1x1x128x32xsi32, #ttnn_layout12> loc(unknown)) -> tensor<1x1x128x32xui16, #ttnn_layout13> attributes {tt.function_type = "const_eval"} {
        %0 = "ttnn.get_device"() <{mesh_offset = #ttnn<mesh_offset 0x0>, mesh_shape = #ttnn<mesh_shape 4x8>}> : () -> !ttnn.device loc(#loc144)
        %1 = "ttnn.typecast"(%arg0) <{dtype = #ttcore.supportedDataTypes<u16>}> : (tensor<1x1x128x32xsi32, #ttnn_layout12>) -> tensor<1x1x128x32xui16, #ttnn_layout14> loc(#loc144)
        %2 = "ttnn.to_device"(%1, %0) <{memory_config = #ttnn.memory_config<#dram, <interleaved>>}> : (tensor<1x1x128x32xui16, #ttnn_layout14>, !ttnn.device) -> tensor<1x1x128x32xui16, #ttnn_layout13> loc(#loc144)
        "ttnn.deallocate"(%1) <{force = false}> : (tensor<1x1x128x32xui16, #ttnn_layout14>) -> () loc(#loc144)
        return %2 : tensor<1x1x128x32xui16, #ttnn_layout13> loc(#loc)
      } loc(#loc)
      func.func private @main_const_eval_4(%arg0: tensor<512xbf16, #ttnn_layout15> loc(unknown)) -> tensor<1x64xbf16, #ttnn_layout16> attributes {tt.function_type = "const_eval"} {
        %0 = "ttnn.get_device"() <{mesh_offset = #ttnn<mesh_offset 0x0>, mesh_shape = #ttnn<mesh_shape 4x8>}> : () -> !ttnn.device loc(#loc)
        %1 = "ttnn.to_device"(%arg0, %0) <{memory_config = #ttnn.memory_config<#dram, <interleaved>>}> : (tensor<512xbf16, #ttnn_layout15>, !ttnn.device) -> tensor<512xbf16, #ttnn_layout17> loc(#loc)
        %2 = "ttnn.to_layout"(%1) <{layout = #ttnn.layout<tile>}> : (tensor<512xbf16, #ttnn_layout17>) -> tensor<512xbf16, #ttnn_layout18> loc(#loc)
        "ttnn.deallocate"(%1) <{force = false}> : (tensor<512xbf16, #ttnn_layout17>) -> () loc(#loc)
        %3 = "ttnn.mesh_shard"(%2, %0) <{shard_dims = array<i64: -1, 0>, shard_direction = #ttcore.shard_direction<full_to_shard>, shard_shape = array<i64: 8>, shard_type = #ttcore.shard_type<identity>}> : (tensor<512xbf16, #ttnn_layout18>, !ttnn.device) -> tensor<64xbf16, #ttnn_layout19> loc(#loc)
        %4 = "ttnn.reshape"(%3) <{shape = [1 : i32, 64 : i32]}> : (tensor<64xbf16, #ttnn_layout19>) -> tensor<1x64xbf16, #ttnn_layout16> loc(#loc145)
        "ttnn.deallocate"(%2) <{force = false}> : (tensor<512xbf16, #ttnn_layout18>) -> () loc(#loc145)
        return %4 : tensor<1x64xbf16, #ttnn_layout16> loc(#loc)
      } loc(#loc)
      func.func private @main_const_eval_5(%arg0: tensor<4096xbf16, #ttnn_layout20> loc(unknown)) -> tensor<1x512xbf16, #ttnn_layout21> attributes {tt.function_type = "const_eval"} {
        %0 = "ttnn.get_device"() <{mesh_offset = #ttnn<mesh_offset 0x0>, mesh_shape = #ttnn<mesh_shape 4x8>}> : () -> !ttnn.device loc(#loc)
        %1 = "ttnn.to_device"(%arg0, %0) <{memory_config = #ttnn.memory_config<#dram, <interleaved>>}> : (tensor<4096xbf16, #ttnn_layout20>, !ttnn.device) -> tensor<4096xbf16, #ttnn_layout22> loc(#loc)
        %2 = "ttnn.to_layout"(%1) <{layout = #ttnn.layout<tile>}> : (tensor<4096xbf16, #ttnn_layout22>) -> tensor<4096xbf16, #ttnn_layout23> loc(#loc)
        "ttnn.deallocate"(%1) <{force = false}> : (tensor<4096xbf16, #ttnn_layout22>) -> () loc(#loc)
        %3 = "ttnn.mesh_shard"(%2, %0) <{shard_dims = array<i64: -1, 0>, shard_direction = #ttcore.shard_direction<full_to_shard>, shard_shape = array<i64: 8>, shard_type = #ttcore.shard_type<identity>}> : (tensor<4096xbf16, #ttnn_layout23>, !ttnn.device) -> tensor<512xbf16, #ttnn_layout18> loc(#loc)
        %4 = "ttnn.reshape"(%3) <{shape = [1 : i32, 512 : i32]}> : (tensor<512xbf16, #ttnn_layout18>) -> tensor<1x512xbf16, #ttnn_layout21> loc(#loc146)
        "ttnn.deallocate"(%2) <{force = false}> : (tensor<4096xbf16, #ttnn_layout23>) -> () loc(#loc146)
        return %4 : tensor<1x512xbf16, #ttnn_layout21> loc(#loc)
      } loc(#loc)
      func.func private @main_const_eval_6(%arg0: tensor<128x5760xbf16, #ttnn_layout24> loc(unknown)) -> tensor<1x4x1x5760xbf16, #ttnn_layout25> attributes {tt.function_type = "const_eval"} {
        %0 = "ttnn.get_device"() <{mesh_offset = #ttnn<mesh_offset 0x0>, mesh_shape = #ttnn<mesh_shape 4x8>}> : () -> !ttnn.device loc(#loc)
        %1 = "ttnn.to_device"(%arg0, %0) <{memory_config = #ttnn.memory_config<#dram, <interleaved>>}> : (tensor<128x5760xbf16, #ttnn_layout24>, !ttnn.device) -> tensor<128x5760xbf16, #ttnn_layout26> loc(#loc)
        %2 = "ttnn.to_layout"(%1) <{layout = #ttnn.layout<tile>}> : (tensor<128x5760xbf16, #ttnn_layout26>) -> tensor<128x5760xbf16, #ttnn_layout27> loc(#loc)
        "ttnn.deallocate"(%1) <{force = false}> : (tensor<128x5760xbf16, #ttnn_layout26>) -> () loc(#loc)
        %3 = "ttnn.mesh_shard"(%2, %0) <{shard_dims = array<i64: 0, 0>, shard_direction = #ttcore.shard_direction<full_to_shard>, shard_shape = array<i64: 32, 1>, shard_type = #ttcore.shard_type<identity>}> : (tensor<128x5760xbf16, #ttnn_layout27>, !ttnn.device) -> tensor<4x5760xbf16, #ttnn_layout28> loc(#loc)
        %4 = "ttnn.reshape"(%3) <{shape = [1 : i32, 4 : i32, 1 : i32, 5760 : i32]}> : (tensor<4x5760xbf16, #ttnn_layout28>) -> tensor<1x4x1x5760xbf16, #ttnn_layout25> loc(#loc193)
        "ttnn.deallocate"(%2) <{force = false}> : (tensor<128x5760xbf16, #ttnn_layout27>) -> () loc(#loc193)
        return %4 : tensor<1x4x1x5760xbf16, #ttnn_layout25> loc(#loc)
      } loc(#loc)
      func.func private @main_const_eval_7(%arg0: tensor<2880x4096xbf16, #ttnn_layout29> loc(unknown)) -> tensor<720x512xbf16, #ttnn_layout30> attributes {tt.function_type = "const_eval"} {
        %0 = "ttnn.get_device"() <{mesh_offset = #ttnn<mesh_offset 0x0>, mesh_shape = #ttnn<mesh_shape 4x8>}> : () -> !ttnn.device loc(#loc)
        %1 = "ttnn.to_device"(%arg0, %0) <{memory_config = #ttnn.memory_config<#dram, <interleaved>>}> : (tensor<2880x4096xbf16, #ttnn_layout29>, !ttnn.device) -> tensor<2880x4096xbf16, #ttnn_layout31> loc(#loc)
        %2 = "ttnn.to_layout"(%1) <{layout = #ttnn.layout<tile>}> : (tensor<2880x4096xbf16, #ttnn_layout31>) -> tensor<2880x4096xbf16, #ttnn_layout32> loc(#loc)
        "ttnn.deallocate"(%1) <{force = false}> : (tensor<2880x4096xbf16, #ttnn_layout31>) -> () loc(#loc)
        %3 = "ttnn.mesh_shard"(%2, %0) <{shard_dims = array<i64: 0, 1>, shard_direction = #ttcore.shard_direction<full_to_shard>, shard_shape = array<i64: 4, 8>, shard_type = #ttcore.shard_type<identity>}> : (tensor<2880x4096xbf16, #ttnn_layout32>, !ttnn.device) -> tensor<720x512xbf16, #ttnn_layout30> loc(#loc)
        return %3 : tensor<720x512xbf16, #ttnn_layout30> loc(#loc)
      } loc(#loc)
      func.func private @main_const_eval_8(%arg0: tensor<2880xbf16, #ttnn_layout5> loc(unknown)) -> tensor<1x2880xbf16, #ttnn_layout33> attributes {tt.function_type = "const_eval"} {
        %0 = "ttnn.get_device"() <{mesh_offset = #ttnn<mesh_offset 0x0>, mesh_shape = #ttnn<mesh_shape 4x8>}> : () -> !ttnn.device loc(#loc)
        %1 = "ttnn.to_device"(%arg0, %0) <{memory_config = #ttnn.memory_config<#dram, <interleaved>>}> : (tensor<2880xbf16, #ttnn_layout5>, !ttnn.device) -> tensor<2880xbf16, #ttnn_layout7> loc(#loc)
        %2 = "ttnn.to_layout"(%1) <{layout = #ttnn.layout<tile>}> : (tensor<2880xbf16, #ttnn_layout7>) -> tensor<2880xbf16, #ttnn_layout8> loc(#loc)
        "ttnn.deallocate"(%1) <{force = false}> : (tensor<2880xbf16, #ttnn_layout7>) -> () loc(#loc)
        %3 = "ttnn.mesh_shard"(%2, %0) <{shard_dims = array<i64: 0, -1>, shard_direction = #ttcore.shard_direction<full_to_shard>, shard_shape = array<i64: 4>, shard_type = #ttcore.shard_type<identity>}> : (tensor<2880xbf16, #ttnn_layout8>, !ttnn.device) -> tensor<720xbf16, #ttnn_layout9> loc(#loc)
        %4 = "ttnn.reshape"(%3) <{shape = [1 : i32, 720 : i32]}> : (tensor<720xbf16, #ttnn_layout9>) -> tensor<1x720xbf16, #ttnn_layout34> loc(#loc148)
        "ttnn.deallocate"(%2) <{force = false}> : (tensor<2880xbf16, #ttnn_layout8>) -> () loc(#loc148)
        %5 = "ttnn.all_gather"(%4) <{all_gather_dim = 1 : si32, cluster_axis = 0 : ui32, topology = #ttcore.topology<ring>}> : (tensor<1x720xbf16, #ttnn_layout34>) -> tensor<1x2880xbf16, #ttnn_layout33> loc(#loc149)
        "ttnn.deallocate"(%4) <{force = false}> : (tensor<1x720xbf16, #ttnn_layout34>) -> () loc(#loc149)
        return %5 : tensor<1x2880xbf16, #ttnn_layout33> loc(#loc)
      } loc(#loc)
      func.func private @main_const_eval_9(%arg0: tensor<64xbf16, #ttnn_layout35> loc(unknown)) -> tensor<8x8x1x1xbf16, #ttnn_layout36> attributes {tt.function_type = "const_eval"} {
        %0 = "ttnn.get_device"() <{mesh_offset = #ttnn<mesh_offset 0x0>, mesh_shape = #ttnn<mesh_shape 4x8>}> : () -> !ttnn.device loc(#loc)
        %1 = "ttnn.to_device"(%arg0, %0) <{memory_config = #ttnn.memory_config<#dram, <interleaved>>}> : (tensor<64xbf16, #ttnn_layout35>, !ttnn.device) -> tensor<64xbf16, #ttnn_layout37> loc(#loc)
        %2 = "ttnn.mesh_partition"(%1) <{cluster_axis = 1 : ui32, dim = 0 : si32}> : (tensor<64xbf16, #ttnn_layout37>) -> tensor<8xbf16, #ttnn_layout38> loc(#loc)
        "ttnn.deallocate"(%1) <{force = false}> : (tensor<64xbf16, #ttnn_layout37>) -> () loc(#loc)
        %3 = "ttnn.to_layout"(%2) <{layout = #ttnn.layout<tile>}> : (tensor<8xbf16, #ttnn_layout38>) -> tensor<8xbf16, #ttnn_layout39> loc(#loc)
        "ttnn.deallocate"(%2) <{force = false}> : (tensor<8xbf16, #ttnn_layout38>) -> () loc(#loc)
        %4 = "ttnn.reshape"(%3) <{shape = [1 : i32, 8 : i32, 1 : i32, 1 : i32]}> : (tensor<8xbf16, #ttnn_layout39>) -> tensor<1x8x1x1xbf16, #ttnn_layout40> loc(#loc8)
        "ttnn.deallocate"(%3) <{force = false}> : (tensor<8xbf16, #ttnn_layout39>) -> () loc(#loc8)
        %5 = "ttnn.repeat"(%4) <{repeat_dims = #ttnn.shape<8x1x1x1>}> : (tensor<1x8x1x1xbf16, #ttnn_layout40>) -> tensor<8x8x1x1xbf16, #ttnn_layout36> loc(#loc8)
        "ttnn.deallocate"(%4) <{force = false}> : (tensor<1x8x1x1xbf16, #ttnn_layout40>) -> () loc(#loc8)
        return %5 : tensor<8x8x1x1xbf16, #ttnn_layout36> loc(#loc)
      } loc(#loc)
      func.func private @main_const_eval_10() -> tensor<4096xbf16, #ttnn_layout22> attributes {tt.function_type = "const_eval"} {
        %0 = "ttnn.get_device"() <{mesh_offset = #ttnn<mesh_offset 0x0>, mesh_shape = #ttnn<mesh_shape 4x8>}> : () -> !ttnn.device loc(#loc)
        %1 = "ttnn.full"(%0) <{dtype = #ttcore.supportedDataTypes<bf16>, fill_value = 0.000000e+00 : f32, layout = #ttnn.layout<tile>, shape = #ttnn.shape<>}> : (!ttnn.device) -> tensor<bf16, #ttnn_layout4> loc(#loc)
        %2 = "ttnn.reshape"(%1) <{shape = [1 : i32, 1 : i32]}> : (tensor<bf16, #ttnn_layout4>) -> tensor<1x1xbf16, #ttnn_layout41> loc(#loc)
        "ttnn.deallocate"(%1) <{force = false}> : (tensor<bf16, #ttnn_layout4>) -> () loc(#loc)
        %3 = "ttnn.repeat"(%2) <{repeat_dims = #ttnn.shape<8x128>}> : (tensor<1x1xbf16, #ttnn_layout41>) -> tensor<8x128xbf16, #ttnn_layout42> loc(#loc)
        "ttnn.deallocate"(%2) <{force = false}> : (tensor<1x1xbf16, #ttnn_layout41>) -> () loc(#loc)
        %4 = "ttnn.all_gather"(%3) <{all_gather_dim = 0 : si32, cluster_axis = 0 : ui32, topology = #ttcore.topology<ring>}> : (tensor<8x128xbf16, #ttnn_layout42>) -> tensor<32x128xbf16, #ttnn_layout42> loc(#loc)
        "ttnn.deallocate"(%3) <{force = false}> : (tensor<8x128xbf16, #ttnn_layout42>) -> () loc(#loc)
        %5 = "ttnn.reshape"(%4) <{shape = [4096 : i32]}> : (tensor<32x128xbf16, #ttnn_layout42>) -> tensor<4096xbf16, #ttnn_layout23> loc(#loc150)
        "ttnn.deallocate"(%4) <{force = false}> : (tensor<32x128xbf16, #ttnn_layout42>) -> () loc(#loc150)
        %6 = "ttnn.to_layout"(%5) <{layout = #ttnn.layout<row_major>}> : (tensor<4096xbf16, #ttnn_layout23>) -> tensor<4096xbf16, #ttnn_layout22> loc(#loc151)
        "ttnn.deallocate"(%5) <{force = false}> : (tensor<4096xbf16, #ttnn_layout23>) -> () loc(#loc151)
        return %6 : tensor<4096xbf16, #ttnn_layout22> loc(#loc)
      } loc(#loc)
      func.func private @main_const_eval_11(%arg0: tensor<512x2880xbf16, #ttnn_layout43> loc(unknown)) -> tensor<64x720xbf16, #ttnn_layout44> attributes {tt.function_type = "const_eval"} {
        %0 = "ttnn.get_device"() <{mesh_offset = #ttnn<mesh_offset 0x0>, mesh_shape = #ttnn<mesh_shape 4x8>}> : () -> !ttnn.device loc(#loc)
        %1 = "ttnn.to_device"(%arg0, %0) <{memory_config = #ttnn.memory_config<#dram, <interleaved>>}> : (tensor<512x2880xbf16, #ttnn_layout43>, !ttnn.device) -> tensor<512x2880xbf16, #ttnn_layout45> loc(#loc)
        %2 = "ttnn.to_layout"(%1) <{layout = #ttnn.layout<tile>}> : (tensor<512x2880xbf16, #ttnn_layout45>) -> tensor<512x2880xbf16, #ttnn_layout46> loc(#loc)
        "ttnn.deallocate"(%1) <{force = false}> : (tensor<512x2880xbf16, #ttnn_layout45>) -> () loc(#loc)
        %3 = "ttnn.mesh_shard"(%2, %0) <{shard_dims = array<i64: 1, 0>, shard_direction = #ttcore.shard_direction<full_to_shard>, shard_shape = array<i64: 8, 4>, shard_type = #ttcore.shard_type<identity>}> : (tensor<512x2880xbf16, #ttnn_layout46>, !ttnn.device) -> tensor<64x720xbf16, #ttnn_layout44> loc(#loc)
        return %3 : tensor<64x720xbf16, #ttnn_layout44> loc(#loc)
      } loc(#loc)
      func.func private @main_const_eval_12(%arg0: tensor<128xbf16, #ttnn_layout47> loc(unknown)) -> tensor<1x128xf32, #ttnn_layout48> attributes {tt.function_type = "const_eval"} {
        %0 = "ttnn.get_device"() <{mesh_offset = #ttnn<mesh_offset 0x0>, mesh_shape = #ttnn<mesh_shape 4x8>}> : () -> !ttnn.device loc(#loc)
        %1 = "ttnn.to_device"(%arg0, %0) <{memory_config = #ttnn.memory_config<#dram, <interleaved>>}> : (tensor<128xbf16, #ttnn_layout47>, !ttnn.device) -> tensor<128xbf16, #ttnn_layout49> loc(#loc)
        %2 = "ttnn.to_layout"(%1) <{layout = #ttnn.layout<tile>}> : (tensor<128xbf16, #ttnn_layout49>) -> tensor<128xbf16, #ttnn_layout50> loc(#loc)
        "ttnn.deallocate"(%1) <{force = false}> : (tensor<128xbf16, #ttnn_layout49>) -> () loc(#loc)
        %3 = "ttnn.reshape"(%2) <{shape = [1 : i32, 128 : i32]}> : (tensor<128xbf16, #ttnn_layout50>) -> tensor<1x128xbf16, #ttnn_layout42> loc(#loc152)
        "ttnn.deallocate"(%2) <{force = false}> : (tensor<128xbf16, #ttnn_layout50>) -> () loc(#loc152)
        %4 = "ttnn.typecast"(%3) <{dtype = #ttcore.supportedDataTypes<f32>}> : (tensor<1x128xbf16, #ttnn_layout42>) -> tensor<1x128xf32, #ttnn_layout48> loc(#loc11)
        "ttnn.deallocate"(%3) <{force = false}> : (tensor<1x128xbf16, #ttnn_layout42>) -> () loc(#loc11)
        return %4 : tensor<1x128xf32, #ttnn_layout48> loc(#loc)
      } loc(#loc)
      func.func private @main_const_eval_13(%arg0: tensor<128x2880xbf16, #ttnn_layout51> loc(unknown)) -> tensor<1x4x1x2880xbf16, #ttnn_layout52> attributes {tt.function_type = "const_eval"} {
        %0 = "ttnn.get_device"() <{mesh_offset = #ttnn<mesh_offset 0x0>, mesh_shape = #ttnn<mesh_shape 4x8>}> : () -> !ttnn.device loc(#loc)
        %1 = "ttnn.to_device"(%arg0, %0) <{memory_config = #ttnn.memory_config<#dram, <interleaved>>}> : (tensor<128x2880xbf16, #ttnn_layout51>, !ttnn.device) -> tensor<128x2880xbf16, #ttnn_layout53> loc(#loc)
        %2 = "ttnn.to_layout"(%1) <{layout = #ttnn.layout<tile>}> : (tensor<128x2880xbf16, #ttnn_layout53>) -> tensor<128x2880xbf16, #ttnn_layout54> loc(#loc)
        "ttnn.deallocate"(%1) <{force = false}> : (tensor<128x2880xbf16, #ttnn_layout53>) -> () loc(#loc)
        %3 = "ttnn.mesh_shard"(%2, %0) <{shard_dims = array<i64: 0, 0>, shard_direction = #ttcore.shard_direction<full_to_shard>, shard_shape = array<i64: 32, 1>, shard_type = #ttcore.shard_type<identity>}> : (tensor<128x2880xbf16, #ttnn_layout54>, !ttnn.device) -> tensor<4x2880xbf16, #ttnn_layout33> loc(#loc)
        %4 = "ttnn.reshape"(%3) <{shape = [1 : i32, 4 : i32, 1 : i32, 2880 : i32]}> : (tensor<4x2880xbf16, #ttnn_layout33>) -> tensor<1x4x1x2880xbf16, #ttnn_layout52> loc(#loc12)
        "ttnn.deallocate"(%2) <{force = false}> : (tensor<128x2880xbf16, #ttnn_layout54>) -> () loc(#loc12)
        return %4 : tensor<1x4x1x2880xbf16, #ttnn_layout52> loc(#loc)
      } loc(#loc)
      func.func private @main_const_eval_14() -> (tensor<1x1x1xf32, #ttnn_layout1>, tensor<1x1xf32, #ttnn_layout>) attributes {tt.function_type = "const_eval"} {
        %0 = "ttnn.get_device"() <{mesh_offset = #ttnn<mesh_offset 0x0>, mesh_shape = #ttnn<mesh_shape 4x8>}> : () -> !ttnn.device loc(#loc)
        %1 = "ttnn.full"(%0) <{dtype = #ttcore.supportedDataTypes<f32>, fill_value = 9.99999974E-6 : f32, layout = #ttnn.layout<tile>, shape = #ttnn.shape<>}> : (!ttnn.device) -> tensor<f32, #ttnn_layout2> loc(#loc)
        %2 = "ttnn.reshape"(%1) <{shape = [1 : i32, 1 : i32, 1 : i32]}> : (tensor<f32, #ttnn_layout2>) -> tensor<1x1x1xf32, #ttnn_layout1> loc(#loc)
        %3 = "ttnn.reshape"(%1) <{shape = [1 : i32, 1 : i32]}> : (tensor<f32, #ttnn_layout2>) -> tensor<1x1xf32, #ttnn_layout> loc(#loc196)
        "ttnn.deallocate"(%1) <{force = false}> : (tensor<f32, #ttnn_layout2>) -> () loc(#loc196)
        return %2, %3 : tensor<1x1x1xf32, #ttnn_layout1>, tensor<1x1xf32, #ttnn_layout> loc(#loc)
      } loc(#loc)
      func.func private @main_const_eval_15() -> tensor<1x1x128xsi32, #ttnn_layout55> attributes {tt.function_type = "const_eval"} {
        %0 = "ttnn.get_device"() <{mesh_offset = #ttnn<mesh_offset 0x0>, mesh_shape = #ttnn<mesh_shape 4x8>}> : () -> !ttnn.device loc(#loc)
        %1 = "ttnn.constant"(%0) <{dtype = #ttcore.supportedDataTypes<si32>, layout = #ttnn.layout<tile>, memory_config = #ttnn.memory_config<#dram, <interleaved>>, value = dense<"…"> : tensor<128xsi32>}> : (!ttnn.device) -> tensor<128xsi32, #ttnn_layout56> loc(#loc)
        %2 = "ttnn.reshape"(%1) <{shape = [1 : i32, 1 : i32, 128 : i32]}> : (tensor<128xsi32, #ttnn_layout56>) -> tensor<1x1x128xsi32, #ttnn_layout55> loc(#loc14)
        "ttnn.deallocate"(%1) <{force = false}> : (tensor<128xsi32, #ttnn_layout56>) -> () loc(#loc14)
        return %2 : tensor<1x1x128xsi32, #ttnn_layout55> loc(#loc)
      } loc(#loc)
      func.func private @main_const_eval_16(%arg0: tensor<4096x2880xbf16, #ttnn_layout57> loc(unknown)) -> tensor<512x720xbf16, #ttnn_layout58> attributes {tt.function_type = "const_eval"} {
        %0 = "ttnn.get_device"() <{mesh_offset = #ttnn<mesh_offset 0x0>, mesh_shape = #ttnn<mesh_shape 4x8>}> : () -> !ttnn.device loc(#loc)
        %1 = "ttnn.to_device"(%arg0, %0) <{memory_config = #ttnn.memory_config<#dram, <interleaved>>}> : (tensor<4096x2880xbf16, #ttnn_layout57>, !ttnn.device) -> tensor<4096x2880xbf16, #ttnn_layout59> loc(#loc)
        %2 = "ttnn.to_layout"(%1) <{layout = #ttnn.layout<tile>}> : (tensor<4096x2880xbf16, #ttnn_layout59>) -> tensor<4096x2880xbf16, #ttnn_layout60> loc(#loc)
        "ttnn.deallocate"(%1) <{force = false}> : (tensor<4096x2880xbf16, #ttnn_layout59>) -> () loc(#loc)
        %3 = "ttnn.mesh_shard"(%2, %0) <{shard_dims = array<i64: 1, 0>, shard_direction = #ttcore.shard_direction<full_to_shard>, shard_shape = array<i64: 8, 4>, shard_type = #ttcore.shard_type<identity>}> : (tensor<4096x2880xbf16, #ttnn_layout60>, !ttnn.device) -> tensor<512x720xbf16, #ttnn_layout58> loc(#loc)
        return %3 : tensor<512x720xbf16, #ttnn_layout58> loc(#loc)
      } loc(#loc)
      func.func private @main_const_eval_17() -> tensor<1x1x1x1xbf16, #ttnn_layout3> attributes {tt.function_type = "const_eval"} {
        %0 = "ttnn.get_device"() <{mesh_offset = #ttnn<mesh_offset 0x0>, mesh_shape = #ttnn<mesh_shape 4x8>}> : () -> !ttnn.device loc(#loc)
        %1 = "ttnn.full"(%0) <{dtype = #ttcore.supportedDataTypes<bf16>, fill_value = 1.000000e+00 : f32, layout = #ttnn.layout<tile>, shape = #ttnn.shape<>}> : (!ttnn.device) -> tensor<bf16, #ttnn_layout4> loc(#loc)
        %2 = "ttnn.reshape"(%1) <{shape = [1 : i32, 1 : i32, 1 : i32, 1 : i32]}> : (tensor<bf16, #ttnn_layout4>) -> tensor<1x1x1x1xbf16, #ttnn_layout3> loc(#loc187)
        "ttnn.deallocate"(%1) <{force = false}> : (tensor<bf16, #ttnn_layout4>) -> () loc(#loc187)
        return %2 : tensor<1x1x1x1xbf16, #ttnn_layout3> loc(#loc)
      } loc(#loc)
      func.func private @main_const_eval_18(%arg0: tensor<512x2880xbf16, #ttnn_layout43> loc(unknown)) -> tensor<64x720xbf16, #ttnn_layout44> attributes {tt.function_type = "const_eval"} {
        %0 = "ttnn.get_device"() <{mesh_offset = #ttnn<mesh_offset 0x0>, mesh_shape = #ttnn<mesh_shape 4x8>}> : () -> !ttnn.device loc(#loc)
        %1 = "ttnn.to_device"(%arg0, %0) <{memory_config = #ttnn.memory_config<#dram, <interleaved>>}> : (tensor<512x2880xbf16, #ttnn_layout43>, !ttnn.device) -> tensor<512x2880xbf16, #ttnn_layout45> loc(#loc)
        %2 = "ttnn.to_layout"(%1) <{layout = #ttnn.layout<tile>}> : (tensor<512x2880xbf16, #ttnn_layout45>) -> tensor<512x2880xbf16, #ttnn_layout46> loc(#loc)
        "ttnn.deallocate"(%1) <{force = false}> : (tensor<512x2880xbf16, #ttnn_layout45>) -> () loc(#loc)
        %3 = "ttnn.mesh_shard"(%2, %0) <{shard_dims = array<i64: 1, 0>, shard_direction = #ttcore.shard_direction<full_to_shard>, shard_shape = array<i64: 8, 4>, shard_type = #ttcore.shard_type<identity>}> : (tensor<512x2880xbf16, #ttnn_layout46>, !ttnn.device) -> tensor<64x720xbf16, #ttnn_layout44> loc(#loc)
        return %3 : tensor<64x720xbf16, #ttnn_layout44> loc(#loc)
      } loc(#loc)
      func.func private @main_const_eval_19(%arg0: tensor<128x2880x2880xbf16, #ttnn_layout61> loc(unknown)) -> tensor<1x4x2880x2880xbf16, #ttnn_layout62> attributes {tt.function_type = "const_eval"} {
        %0 = "ttnn.get_device"() <{mesh_offset = #ttnn<mesh_offset 0x0>, mesh_shape = #ttnn<mesh_shape 4x8>}> : () -> !ttnn.device loc(#loc)
        %1 = "ttnn.to_device"(%arg0, %0) <{memory_config = #ttnn.memory_config<#dram, <interleaved>>}> : (tensor<128x2880x2880xbf16, #ttnn_layout61>, !ttnn.device) -> tensor<128x2880x2880xbf16, #ttnn_layout63> loc(#loc)
        %2 = "ttnn.to_layout"(%1) <{layout = #ttnn.layout<tile>}> : (tensor<128x2880x2880xbf16, #ttnn_layout63>) -> tensor<128x2880x2880xbf16, #ttnn_layout64> loc(#loc)
        "ttnn.deallocate"(%1) <{force = false}> : (tensor<128x2880x2880xbf16, #ttnn_layout63>) -> () loc(#loc)
        %3 = "ttnn.mesh_shard"(%2, %0) <{shard_dims = array<i64: 0, 0>, shard_direction = #ttcore.shard_direction<full_to_shard>, shard_shape = array<i64: 32, 1, 1>, shard_type = #ttcore.shard_type<identity>}> : (tensor<128x2880x2880xbf16, #ttnn_layout64>, !ttnn.device) -> tensor<4x2880x2880xbf16, #ttnn_layout65> loc(#loc)
        %4 = "ttnn.reshape"(%3) <{shape = [1 : i32, 4 : i32, 2880 : i32, 2880 : i32]}> : (tensor<4x2880x2880xbf16, #ttnn_layout65>) -> tensor<1x4x2880x2880xbf16, #ttnn_layout62> loc(#loc15)
        "ttnn.deallocate"(%2) <{force = false}> : (tensor<128x2880x2880xbf16, #ttnn_layout64>) -> () loc(#loc15)
        return %4 : tensor<1x4x2880x2880xbf16, #ttnn_layout62> loc(#loc)
      } loc(#loc)
      func.func private @main_const_eval_20(%arg0: tensor<2880xbf16, #ttnn_layout5> loc(unknown)) -> tensor<1x1x2880xf32, #ttnn_layout66> attributes {tt.function_type = "const_eval"} {
        %0 = "ttnn.get_device"() <{mesh_offset = #ttnn<mesh_offset 0x0>, mesh_shape = #ttnn<mesh_shape 4x8>}> : () -> !ttnn.device loc(#loc)
        %1 = "ttnn.to_device"(%arg0, %0) <{memory_config = #ttnn.memory_config<#dram, <interleaved>>}> : (tensor<2880xbf16, #ttnn_layout5>, !ttnn.device) -> tensor<2880xbf16, #ttnn_layout7> loc(#loc)
        %2 = "ttnn.to_layout"(%1) <{layout = #ttnn.layout<tile>}> : (tensor<2880xbf16, #ttnn_layout7>) -> tensor<2880xbf16, #ttnn_layout8> loc(#loc)
        "ttnn.deallocate"(%1) <{force = false}> : (tensor<2880xbf16, #ttnn_layout7>) -> () loc(#loc)
        %3 = "ttnn.mesh_shard"(%2, %0) <{shard_dims = array<i64: 0, -1>, shard_direction = #ttcore.shard_direction<full_to_shard>, shard_shape = array<i64: 4>, shard_type = #ttcore.shard_type<identity>}> : (tensor<2880xbf16, #ttnn_layout8>, !ttnn.device) -> tensor<720xbf16, #ttnn_layout9> loc(#loc)
        %4 = "ttnn.typecast"(%3) <{dtype = #ttcore.supportedDataTypes<f32>}> : (tensor<720xbf16, #ttnn_layout9>) -> tensor<720xf32, #ttnn_layout10> loc(#loc16)
        "ttnn.deallocate"(%2) <{force = false}> : (tensor<2880xbf16, #ttnn_layout8>) -> () loc(#loc16)
        %5 = "ttnn.reshape"(%4) <{shape = [1 : i32, 720 : i32]}> : (tensor<720xf32, #ttnn_layout10>) -> tensor<1x720xf32, #ttnn_layout11> loc(#loc154)
        "ttnn.deallocate"(%4) <{force = false}> : (tensor<720xf32, #ttnn_layout10>) -> () loc(#loc154)
        %6 = "ttnn.all_gather"(%5) <{all_gather_dim = 1 : si32, cluster_axis = 0 : ui32, topology = #ttcore.topology<ring>}> : (tensor<1x720xf32, #ttnn_layout11>) -> tensor<1x2880xf32, #ttnn_layout6> loc(#loc155)
        "ttnn.deallocate"(%5) <{force = false}> : (tensor<1x720xf32, #ttnn_layout11>) -> () loc(#loc155)
        %7 = "ttnn.reshape"(%6) <{shape = [1 : i32, 1 : i32, 2880 : i32]}> : (tensor<1x2880xf32, #ttnn_layout6>) -> tensor<1x1x2880xf32, #ttnn_layout66> loc(#loc17)
        "ttnn.deallocate"(%6) <{force = false}> : (tensor<1x2880xf32, #ttnn_layout6>) -> () loc(#loc17)
        return %7 : tensor<1x1x2880xf32, #ttnn_layout66> loc(#loc)
      } loc(#loc)
      func.func private @main_const_eval_21(%arg0: tensor<128x2880xbf16, #ttnn_layout51> loc(unknown)) -> tensor<720x128xf32, #ttnn_layout67> attributes {tt.function_type = "const_eval"} {
        %0 = "ttnn.get_device"() <{mesh_offset = #ttnn<mesh_offset 0x0>, mesh_shape = #ttnn<mesh_shape 4x8>}> : () -> !ttnn.device loc(#loc)
        %1 = "ttnn.to_device"(%arg0, %0) <{memory_config = #ttnn.memory_config<#dram, <interleaved>>}> : (tensor<128x2880xbf16, #ttnn_layout51>, !ttnn.device) -> tensor<128x2880xbf16, #ttnn_layout53> loc(#loc)
        %2 = "ttnn.to_layout"(%1) <{layout = #ttnn.layout<tile>}> : (tensor<128x2880xbf16, #ttnn_layout53>) -> tensor<128x2880xbf16, #ttnn_layout54> loc(#loc)
        "ttnn.deallocate"(%1) <{force = false}> : (tensor<128x2880xbf16, #ttnn_layout53>) -> () loc(#loc)
        %3 = "ttnn.mesh_shard"(%2, %0) <{shard_dims = array<i64: 1, -1>, shard_direction = #ttcore.shard_direction<full_to_shard>, shard_shape = array<i64: 1, 4>, shard_type = #ttcore.shard_type<identity>}> : (tensor<128x2880xbf16, #ttnn_layout54>, !ttnn.device) -> tensor<128x720xbf16, #ttnn_layout68> loc(#loc)
        %4 = "ttnn.permute"(%3) <{permutation = array<i64: 1, 0>}> : (tensor<128x720xbf16, #ttnn_layout68>) -> tensor<720x128xbf16, #ttnn_layout69> loc(#loc18)
        "ttnn.deallocate"(%2) <{force = false}> : (tensor<128x2880xbf16, #ttnn_layout54>) -> () loc(#loc18)
        %5 = "ttnn.typecast"(%4) <{dtype = #ttcore.supportedDataTypes<f32>}> : (tensor<720x128xbf16, #ttnn_layout69>) -> tensor<720x128xf32, #ttnn_layout67> loc(#loc19)
        "ttnn.deallocate"(%4) <{force = false}> : (tensor<720x128xbf16, #ttnn_layout69>) -> () loc(#loc19)
        return %5 : tensor<720x128xf32, #ttnn_layout67> loc(#loc)
      } loc(#loc)
      func.func private @main_const_eval_22() -> tensor<8x4x1xsi32, #ttnn_layout70> attributes {tt.function_type = "const_eval"} {
        %0 = "ttnn.get_device"() <{mesh_offset = #ttnn<mesh_offset 0x0>, mesh_shape = #ttnn<mesh_shape 4x8>}> : () -> !ttnn.device loc(#loc)
        %1 = "ttnn.arange"(%0) <{dtype = #ttcore.supportedDataTypes<si32>, end = 8 : i64, layout = #ttnn.layout<tile>, memory_config = #ttnn.memory_config<#dram, <interleaved>>, start = 0 : i64, step = 1 : i64}> : (!ttnn.device) -> tensor<8xsi32, #ttnn_layout71> loc(#loc20)
        %2 = "ttnn.reshape"(%1) <{shape = [8 : i32, 1 : i32, 1 : i32]}> : (tensor<8xsi32, #ttnn_layout71>) -> tensor<8x1x1xsi32, #ttnn_layout70> loc(#loc20)
        "ttnn.deallocate"(%1) <{force = false}> : (tensor<8xsi32, #ttnn_layout71>) -> () loc(#loc20)
        %3 = "ttnn.repeat"(%2) <{repeat_dims = #ttnn.shape<1x4x1>}> : (tensor<8x1x1xsi32, #ttnn_layout70>) -> tensor<8x4x1xsi32, #ttnn_layout70> loc(#loc20)
        "ttnn.deallocate"(%2) <{force = false}> : (tensor<8x1x1xsi32, #ttnn_layout70>) -> () loc(#loc20)
        return %3 : tensor<8x4x1xsi32, #ttnn_layout70> loc(#loc)
      } loc(#loc)
      func.func private @main_const_eval_23() -> tensor<1x1xsi32, #ttnn_layout72> attributes {tt.function_type = "const_eval"} {
        %0 = "ttnn.get_device"() <{mesh_offset = #ttnn<mesh_offset 0x0>, mesh_shape = #ttnn<mesh_shape 4x8>}> : () -> !ttnn.device loc(#loc)
        %1 = "ttnn.full"(%0) <{dtype = #ttcore.supportedDataTypes<si32>, fill_value = 128 : i32, layout = #ttnn.layout<tile>, shape = #ttnn.shape<1x1>}> : (!ttnn.device) -> tensor<1x1xsi32, #ttnn_layout72> loc(#loc156)
        return %1 : tensor<1x1xsi32, #ttnn_layout72> loc(#loc)
      } loc(#loc)
      func.func private @main_const_eval_24() -> tensor<1x1x1x1xbf16, #ttnn_layout3> attributes {tt.function_type = "const_eval"} {
        %0 = "ttnn.get_device"() <{mesh_offset = #ttnn<mesh_offset 0x0>, mesh_shape = #ttnn<mesh_shape 4x8>}> : () -> !ttnn.device loc(#loc)
        %1 = "ttnn.full"(%0) <{dtype = #ttcore.supportedDataTypes<bf16>, fill_value = 1.250000e-01 : f32, layout = #ttnn.layout<tile>, shape = #ttnn.shape<>}> : (!ttnn.device) -> tensor<bf16, #ttnn_layout4> loc(#loc)
        %2 = "ttnn.reshape"(%1) <{shape = [1 : i32, 1 : i32, 1 : i32, 1 : i32]}> : (tensor<bf16, #ttnn_layout4>) -> tensor<1x1x1x1xbf16, #ttnn_layout3> loc(#loc)
        "ttnn.deallocate"(%1) <{force = false}> : (tensor<bf16, #ttnn_layout4>) -> () loc(#loc)
        return %2 : tensor<1x1x1x1xbf16, #ttnn_layout3> loc(#loc)
      } loc(#loc)
      func.func private @main_const_eval_25(%arg0: tensor<128x2880x5760xbf16, #ttnn_layout73> loc(unknown)) -> tensor<1x4x2880x5760xbf16, #ttnn_layout74> attributes {tt.function_type = "const_eval"} {
        %0 = "ttnn.get_device"() <{mesh_offset = #ttnn<mesh_offset 0x0>, mesh_shape = #ttnn<mesh_shape 4x8>}> : () -> !ttnn.device loc(#loc)
        %1 = "ttnn.to_device"(%arg0, %0) <{memory_config = #ttnn.memory_config<#dram, <interleaved>>}> : (tensor<128x2880x5760xbf16, #ttnn_layout73>, !ttnn.device) -> tensor<128x2880x5760xbf16, #ttnn_layout75> loc(#loc)
        %2 = "ttnn.to_layout"(%1) <{layout = #ttnn.layout<tile>}> : (tensor<128x2880x5760xbf16, #ttnn_layout75>) -> tensor<128x2880x5760xbf16, #ttnn_layout76> loc(#loc)
        "ttnn.deallocate"(%1) <{force = false}> : (tensor<128x2880x5760xbf16, #ttnn_layout75>) -> () loc(#loc)
        %3 = "ttnn.mesh_shard"(%2, %0) <{shard_dims = array<i64: 0, 0>, shard_direction = #ttcore.shard_direction<full_to_shard>, shard_shape = array<i64: 32, 1, 1>, shard_type = #ttcore.shard_type<identity>}> : (tensor<128x2880x5760xbf16, #ttnn_layout76>, !ttnn.device) -> tensor<4x2880x5760xbf16, #ttnn_layout77> loc(#loc)
        %4 = "ttnn.reshape"(%3) <{shape = [1 : i32, 4 : i32, 2880 : i32, 5760 : i32]}> : (tensor<4x2880x5760xbf16, #ttnn_layout77>) -> tensor<1x4x2880x5760xbf16, #ttnn_layout74> loc(#loc21)
        "ttnn.deallocate"(%2) <{force = false}> : (tensor<128x2880x5760xbf16, #ttnn_layout76>) -> () loc(#loc21)
        return %4 : tensor<1x4x2880x5760xbf16, #ttnn_layout74> loc(#loc)
      } loc(#loc)
      func.func private @main_const_eval_26(%arg0: tensor<512xbf16, #ttnn_layout15> loc(unknown)) -> tensor<1x64xbf16, #ttnn_layout16> attributes {tt.function_type = "const_eval"} {
        %0 = "ttnn.get_device"() <{mesh_offset = #ttnn<mesh_offset 0x0>, mesh_shape = #ttnn<mesh_shape 4x8>}> : () -> !ttnn.device loc(#loc)
        %1 = "ttnn.to_device"(%arg0, %0) <{memory_config = #ttnn.memory_config<#dram, <interleaved>>}> : (tensor<512xbf16, #ttnn_layout15>, !ttnn.device) -> tensor<512xbf16, #ttnn_layout17> loc(#loc)
        %2 = "ttnn.to_layout"(%1) <{layout = #ttnn.layout<tile>}> : (tensor<512xbf16, #ttnn_layout17>) -> tensor<512xbf16, #ttnn_layout18> loc(#loc)
        "ttnn.deallocate"(%1) <{force = false}> : (tensor<512xbf16, #ttnn_layout17>) -> () loc(#loc)
        %3 = "ttnn.mesh_shard"(%2, %0) <{shard_dims = array<i64: -1, 0>, shard_direction = #ttcore.shard_direction<full_to_shard>, shard_shape = array<i64: 8>, shard_type = #ttcore.shard_type<identity>}> : (tensor<512xbf16, #ttnn_layout18>, !ttnn.device) -> tensor<64xbf16, #ttnn_layout19> loc(#loc)
        %4 = "ttnn.reshape"(%3) <{shape = [1 : i32, 64 : i32]}> : (tensor<64xbf16, #ttnn_layout19>) -> tensor<1x64xbf16, #ttnn_layout16> loc(#loc157)
        "ttnn.deallocate"(%2) <{force = false}> : (tensor<512xbf16, #ttnn_layout18>) -> () loc(#loc157)
        return %4 : tensor<1x64xbf16, #ttnn_layout16> loc(#loc)
      } loc(#loc)
      func.func @main(%arg0: tensor<128xbf16, #ttnn_layout47> {ttcore.argument_type = #ttcore.argument_type<parameter>, ttcore.local_shape = #ttcore<local_shape local_shape = tensor<128xbf16>>, ttcore.shard_status = #ttcore.shard_status<presharded>, ttir.name = "mlp.router.bias"} loc("p0.4"), %arg1: tensor<128x2880xbf16, #ttnn_layout51> {ttcore.argument_type = #ttcore.argument_type<parameter>, ttcore.local_shape = #ttcore<local_shape local_shape = tensor<128x720xbf16>>, ttcore.shard_status = #ttcore.shard_status<presharded>, ttir.name = "mlp.router.weight"} loc("p1.12"), %arg2: tensor<2880xbf16, #ttnn_layout5> {ttcore.argument_type = #ttcore.argument_type<parameter>, ttcore.local_shape = #ttcore<local_shape local_shape = tensor<720xbf16>>, ttcore.shard_status = #ttcore.shard_status<presharded>, ttir.name = "post_attention_layernorm.weight"} loc("p2.18"), %arg3: tensor<2880xbf16, #ttnn_layout5> {ttcore.argument_type = #ttcore.argument_type<parameter>, ttcore.local_shape = #ttcore<local_shape local_shape = tensor<720xbf16>>, ttcore.shard_status = #ttcore.shard_status<presharded>, ttir.name = "self_attn.o_proj.bias"} loc("p3.29"), %arg4: tensor<2880x4096xbf16, #ttnn_layout29> {ttcore.argument_type = #ttcore.argument_type<parameter>, ttcore.local_shape = #ttcore<local_shape local_shape = tensor<720x512xbf16>>, ttcore.shard_status = #ttcore.shard_status<presharded>, ttir.name = "self_attn.o_proj.weight"} loc("p4.33"), %arg5: tensor<512xbf16, #ttnn_layout15> {ttcore.argument_type = #ttcore.argument_type<parameter>, ttcore.local_shape = #ttcore<local_shape local_shape = tensor<64xbf16>>, ttcore.shard_status = #ttcore.shard_status<presharded>, ttir.name = "self_attn.v_proj.bias"} loc("p5.39"), %arg6: tensor<512x2880xbf16, #ttnn_layout43> {ttcore.argument_type = #ttcore.argument_type<parameter>, ttcore.local_shape = #ttcore<local_shape local_shape = tensor<64x720xbf16>>, ttcore.shard_status = #ttcore.shard_status<presharded>, ttir.name = "self_attn.v_proj.weight"} loc("p6.43"), %arg7: tensor<2880xbf16, #ttnn_layout5> {ttcore.argument_type = #ttcore.argument_type<parameter>, ttcore.local_shape = #ttcore<local_shape local_shape = tensor<720xbf16>>, ttcore.shard_status = #ttcore.shard_status<presharded>, ttir.name = "input_layernorm.weight"} loc("p7.48"), %arg8: tensor<32x1x2880xbf16, #ttnn_layout78> {ttcore.argument_type = #ttcore.argument_type<input>, ttcore.local_shape = #ttcore<local_shape local_shape = tensor<8x1x2880xbf16>>, ttcore.shard_status = #ttcore.shard_status<presharded>, ttir.name = "args_0"} loc("p8.57"), %arg9: tensor<64xbf16, #ttnn_layout35> {ttcore.argument_type = #ttcore.argument_type<parameter>, ttcore.local_shape = #ttcore<local_shape local_shape = tensor<64xbf16>>, ttcore.shard_status = #ttcore.shard_status<presharded>, ttir.name = "self_attn.sinks"} loc("p9.107"), %arg10: tensor<32x1x1x1xbf16, #ttnn_layout79> {ttcore.argument_type = #ttcore.argument_type<input>, ttcore.local_shape = #ttcore<local_shape local_shape = tensor<8x1x1x1xbf16>>, ttcore.shard_status = #ttcore.shard_status<presharded>, ttir.name = "args_3"} loc("p10.116"), %arg11: tensor<32x1x32xbf16, #ttnn_layout80> {ttcore.argument_type = #ttcore.argument_type<input>, ttcore.local_shape = #ttcore<local_shape local_shape = tensor<8x1x32xbf16>>, ttcore.shard_status = #ttcore.shard_status<presharded>, ttir.name = "args_2"} loc("p11.120"), %arg12: tensor<512xbf16, #ttnn_layout15> {ttcore.argument_type = #ttcore.argument_type<parameter>, ttcore.local_shape = #ttcore<local_shape local_shape = tensor<64xbf16>>, ttcore.shard_status = #ttcore.shard_status<presharded>, ttir.name = "self_attn.k_proj.bias"} loc("p12.124"), %arg13: tensor<512x2880xbf16, #ttnn_layout43> {ttcore.argument_type = #ttcore.argument_type<parameter>, ttcore.local_shape = #ttcore<local_shape local_shape = tensor<64x720xbf16>>, ttcore.shard_status = #ttcore.shard_status<presharded>, ttir.name = "self_attn.k_proj.weight"} loc("p13.128"), %arg14: tensor<32x1x32xbf16, #ttnn_layout80> {ttcore.argument_type = #ttcore.argument_type<input>, ttcore.local_shape = #ttcore<local_shape local_shape = tensor<8x1x32xbf16>>, ttcore.shard_status = #ttcore.shard_status<presharded>, ttir.name = "args_1"} loc("p14.146"), %arg15: tensor<4096xbf16, #ttnn_layout20> {ttcore.argument_type = #ttcore.argument_type<parameter>, ttcore.local_shape = #ttcore<local_shape local_shape = tensor<512xbf16>>, ttcore.shard_status = #ttcore.shard_status<presharded>, ttir.name = "self_attn.q_proj.bias"} loc("p15.175"), %arg16: tensor<4096x2880xbf16, #ttnn_layout57> {ttcore.argument_type = #ttcore.argument_type<parameter>, ttcore.local_shape = #ttcore<local_shape local_shape = tensor<512x720xbf16>>, ttcore.shard_status = #ttcore.shard_status<presharded>, ttir.name = "self_attn.q_proj.weight"} loc("p16.179"), %arg17: tensor<1x1x128x32xsi32, #ttnn_layout12> {ttcore.argument_type = #ttcore.argument_type<constant>, ttcore.local_shape = #ttcore<local_shape local_shape = tensor<1x1x128x32xi64>>, ttcore.shard_status = #ttcore.shard_status<presharded>, ttir.name = "mlp.expert_mapping"} loc("p17.404"), %arg18: tensor<128x2880xbf16, #ttnn_layout51> {ttcore.argument_type = #ttcore.argument_type<parameter>, ttcore.local_shape = #ttcore<local_shape local_shape = tensor<4x2880xbf16>>, ttcore.shard_status = #ttcore.shard_status<presharded>, ttir.name = "mlp.experts._experts.down_proj_bias"} loc("p18.414"), %arg19: tensor<128x2880x2880xbf16, #ttnn_layout61> {ttcore.argument_type = #ttcore.argument_type<parameter>, ttcore.local_shape = #ttcore<local_shape local_shape = tensor<4x2880x2880xbf16>>, ttcore.shard_status = #ttcore.shard_status<presharded>, ttir.name = "mlp.experts._experts.down_proj"} loc("p19.427"), %arg20: tensor<128x5760xbf16, #ttnn_layout24> {ttcore.argument_type = #ttcore.argument_type<parameter>, ttcore.local_shape = #ttcore<local_shape local_shape = tensor<4x5760xbf16>>, ttcore.shard_status = #ttcore.shard_status<presharded>, ttir.name = "mlp.experts._experts.gate_up_proj_bias"} loc("p20.434"), %arg21: tensor<128x2880x5760xbf16, #ttnn_layout73> {ttcore.argument_type = #ttcore.argument_type<parameter>, ttcore.local_shape = #ttcore<local_shape local_shape = tensor<4x2880x5760xbf16>>, ttcore.shard_status = #ttcore.shard_status<presharded>, ttir.name = "mlp.experts._experts.gate_up_proj"} loc("p21.440")) -> (tensor<32x1x2880xbf16, #ttnn_layout78> {ttcore.local_shape = #ttcore<local_shape local_shape = tensor<8x1x2880xbf16>>, ttcore.shard_status = #ttcore.shard_status<presharded>}) attributes {tt.function_type = "forward_device"} {
        %0:2 = ttcore.load_cached(@main_const_eval_0, []) : () -> (tensor<1x1xf32, #ttnn_layout>, tensor<1x1x1xf32, #ttnn_layout1>) loc(#loc)
        %1 = ttcore.load_cached(@main_const_eval_1, []) : () -> tensor<1x1x1x1xbf16, #ttnn_layout3> loc(#loc)
        %2 = ttcore.load_cached(@main_const_eval_2, [%arg7]) : (tensor<2880xbf16, #ttnn_layout5>) -> tensor<1x2880xf32, #ttnn_layout6> loc(#loc)
        "ttnn.deallocate"(%arg7) <{force = false}> : (tensor<2880xbf16, #ttnn_layout5>) -> () loc(#loc)
        %3 = ttcore.load_cached(@main_const_eval_3, [%arg17]) : (tensor<1x1x128x32xsi32, #ttnn_layout12>) -> tensor<1x1x128x32xui16, #ttnn_layout13> loc(#loc)
        "ttnn.deallocate"(%arg17) <{force = false}> : (tensor<1x1x128x32xsi32, #ttnn_layout12>) -> () loc(#loc)
        %4 = ttcore.load_cached(@main_const_eval_4, [%arg12]) : (tensor<512xbf16, #ttnn_layout15>) -> tensor<1x64xbf16, #ttnn_layout16> loc(#loc)
        "ttnn.deallocate"(%arg12) <{force = false}> : (tensor<512xbf16, #ttnn_layout15>) -> () loc(#loc)
        %5 = ttcore.load_cached(@main_const_eval_5, [%arg15]) : (tensor<4096xbf16, #ttnn_layout20>) -> tensor<1x512xbf16, #ttnn_layout21> loc(#loc)
        "ttnn.deallocate"(%arg15) <{force = false}> : (tensor<4096xbf16, #ttnn_layout20>) -> () loc(#loc)
        %6 = ttcore.load_cached(@main_const_eval_6, [%arg20]) : (tensor<128x5760xbf16, #ttnn_layout24>) -> tensor<1x4x1x5760xbf16, #ttnn_layout25> loc(#loc)
        "ttnn.deallocate"(%arg20) <{force = false}> : (tensor<128x5760xbf16, #ttnn_layout24>) -> () loc(#loc)
        %7 = ttcore.load_cached(@main_const_eval_7, [%arg4]) : (tensor<2880x4096xbf16, #ttnn_layout29>) -> tensor<720x512xbf16, #ttnn_layout30> loc(#loc)
        "ttnn.deallocate"(%arg4) <{force = false}> : (tensor<2880x4096xbf16, #ttnn_layout29>) -> () loc(#loc)
        %8 = ttcore.load_cached(@main_const_eval_8, [%arg3]) : (tensor<2880xbf16, #ttnn_layout5>) -> tensor<1x2880xbf16, #ttnn_layout33> loc(#loc)
        "ttnn.deallocate"(%arg3) <{force = false}> : (tensor<2880xbf16, #ttnn_layout5>) -> () loc(#loc)
        %9 = ttcore.load_cached(@main_const_eval_9, [%arg9]) : (tensor<64xbf16, #ttnn_layout35>) -> tensor<8x8x1x1xbf16, #ttnn_layout36> loc(#loc)
        "ttnn.deallocate"(%arg9) <{force = false}> : (tensor<64xbf16, #ttnn_layout35>) -> () loc(#loc)
        %10 = ttcore.load_cached(@main_const_eval_10, []) : () -> tensor<4096xbf16, #ttnn_layout22> loc(#loc)
        %11 = ttcore.load_cached(@main_const_eval_11, [%arg13]) : (tensor<512x2880xbf16, #ttnn_layout43>) -> tensor<64x720xbf16, #ttnn_layout44> loc(#loc)
        "ttnn.deallocate"(%arg13) <{force = false}> : (tensor<512x2880xbf16, #ttnn_layout43>) -> () loc(#loc)
        %12 = ttcore.load_cached(@main_const_eval_12, [%arg0]) : (tensor<128xbf16, #ttnn_layout47>) -> tensor<1x128xf32, #ttnn_layout48> loc(#loc)
        "ttnn.deallocate"(%arg0) <{force = false}> : (tensor<128xbf16, #ttnn_layout47>) -> () loc(#loc)
        %13 = ttcore.load_cached(@main_const_eval_13, [%arg18]) : (tensor<128x2880xbf16, #ttnn_layout51>) -> tensor<1x4x1x2880xbf16, #ttnn_layout52> loc(#loc)
        "ttnn.deallocate"(%arg18) <{force = false}> : (tensor<128x2880xbf16, #ttnn_layout51>) -> () loc(#loc)
        %14:2 = ttcore.load_cached(@main_const_eval_14, []) : () -> (tensor<1x1x1xf32, #ttnn_layout1>, tensor<1x1xf32, #ttnn_layout>) loc(#loc)
        %15 = ttcore.load_cached(@main_const_eval_15, []) : () -> tensor<1x1x128xsi32, #ttnn_layout55> loc(#loc)
        %16 = ttcore.load_cached(@main_const_eval_16, [%arg16]) : (tensor<4096x2880xbf16, #ttnn_layout57>) -> tensor<512x720xbf16, #ttnn_layout58> loc(#loc)
        "ttnn.deallocate"(%arg16) <{force = false}> : (tensor<4096x2880xbf16, #ttnn_layout57>) -> () loc(#loc)
        %17 = ttcore.load_cached(@main_const_eval_17, []) : () -> tensor<1x1x1x1xbf16, #ttnn_layout3> loc(#loc)
        %18 = ttcore.load_cached(@main_const_eval_18, [%arg6]) : (tensor<512x2880xbf16, #ttnn_layout43>) -> tensor<64x720xbf16, #ttnn_layout44> loc(#loc)
        "ttnn.deallocate"(%arg6) <{force = false}> : (tensor<512x2880xbf16, #ttnn_layout43>) -> () loc(#loc)
        %19 = ttcore.load_cached(@main_const_eval_19, [%arg19]) : (tensor<128x2880x2880xbf16, #ttnn_layout61>) -> tensor<1x4x2880x2880xbf16, #ttnn_layout62> loc(#loc)
        "ttnn.deallocate"(%arg19) <{force = false}> : (tensor<128x2880x2880xbf16, #ttnn_layout61>) -> () loc(#loc)
        %20 = ttcore.load_cached(@main_const_eval_20, [%arg2]) : (tensor<2880xbf16, #ttnn_layout5>) -> tensor<1x1x2880xf32, #ttnn_layout66> loc(#loc)
        "ttnn.deallocate"(%arg2) <{force = false}> : (tensor<2880xbf16, #ttnn_layout5>) -> () loc(#loc)
        %21 = ttcore.load_cached(@main_const_eval_21, [%arg1]) : (tensor<128x2880xbf16, #ttnn_layout51>) -> tensor<720x128xf32, #ttnn_layout67> loc(#loc)
        "ttnn.deallocate"(%arg1) <{force = false}> : (tensor<128x2880xbf16, #ttnn_layout51>) -> () loc(#loc)
        %22 = ttcore.load_cached(@main_const_eval_22, []) : () -> tensor<8x4x1xsi32, #ttnn_layout70> loc(#loc)
        %23 = ttcore.load_cached(@main_const_eval_23, []) : () -> tensor<1x1xsi32, #ttnn_layout72> loc(#loc)
        %24 = ttcore.load_cached(@main_const_eval_24, []) : () -> tensor<1x1x1x1xbf16, #ttnn_layout3> loc(#loc)
        %25 = ttcore.load_cached(@main_const_eval_25, [%arg21]) : (tensor<128x2880x5760xbf16, #ttnn_layout73>) -> tensor<1x4x2880x5760xbf16, #ttnn_layout74> loc(#loc)
        "ttnn.deallocate"(%arg21) <{force = false}> : (tensor<128x2880x5760xbf16, #ttnn_layout73>) -> () loc(#loc)
        %26 = ttcore.load_cached(@main_const_eval_26, [%arg5]) : (tensor<512xbf16, #ttnn_layout15>) -> tensor<1x64xbf16, #ttnn_layout16> loc(#loc)
        "ttnn.deallocate"(%arg5) <{force = false}> : (tensor<512xbf16, #ttnn_layout15>) -> () loc(#loc)
        %27 = "ttnn.get_device"() <{mesh_offset = #ttnn<mesh_offset 0x0>, mesh_shape = #ttnn<mesh_shape 4x8>}> : () -> !ttnn.device loc(#loc)
        %28 = "ttnn.mesh_shard"(%arg8, %27) <{shard_dims = array<i64: 0, -1>, shard_direction = #ttcore.shard_direction<full_to_shard>, shard_shape = array<i64: 4, 1, 1>, shard_type = #ttcore.shard_type<identity>}> : (tensor<32x1x2880xbf16, #ttnn_layout78>, !ttnn.device) -> tensor<8x1x2880xbf16, #ttnn_layout81> loc(#loc)
        %29 = "ttnn.mesh_shard"(%arg10, %27) <{shard_dims = array<i64: 0, -1>, shard_direction = #ttcore.shard_direction<full_to_shard>, shard_shape = array<i64: 4, 1, 1, 1>, shard_type = #ttcore.shard_type<identity>}> : (tensor<32x1x1x1xbf16, #ttnn_layout79>, !ttnn.device) -> tensor<8x1x1x1xbf16, #ttnn_layout82> loc(#loc)
        %30 = "ttnn.mesh_shard"(%arg11, %27) <{shard_dims = array<i64: 0, -1>, shard_direction = #ttcore.shard_direction<full_to_shard>, shard_shape = array<i64: 4, 1, 1>, shard_type = #ttcore.shard_type<identity>}> : (tensor<32x1x32xbf16, #ttnn_layout80>, !ttnn.device) -> tensor<8x1x32xbf16, #ttnn_layout83> loc(#loc)
        %31 = "ttnn.mesh_shard"(%arg14, %27) <{shard_dims = array<i64: 0, -1>, shard_direction = #ttcore.shard_direction<full_to_shard>, shard_shape = array<i64: 4, 1, 1>, shard_type = #ttcore.shard_type<identity>}> : (tensor<32x1x32xbf16, #ttnn_layout80>, !ttnn.device) -> tensor<8x1x32xbf16, #ttnn_layout83> loc(#loc)
        %32 = "ttnn.typecast"(%28) <{dtype = #ttcore.supportedDataTypes<f32>}> : (tensor<8x1x2880xbf16, #ttnn_layout81>) -> tensor<8x1x2880xf32, #ttnn_layout84> loc(#loc45)
        %33 = "ttnn.pow_scalar"(%32) <{rhs = 2.000000e+00 : f32}> : (tensor<8x1x2880xf32, #ttnn_layout84>) -> tensor<8x1x2880xf32, #ttnn_layout84> loc(#loc46)
        %34 = "ttnn.sum"(%33) <{compute_config = #ttnn.device_compute_kernel_config<math_fidelity = hifi4, fp32_dest_acc_en = true>, dim_arg = [2 : i32], keep_dim = false}> : (tensor<8x1x2880xf32, #ttnn_layout84>) -> tensor<8x1xf32, #ttnn_layout> loc(#loc47)
        "ttnn.deallocate"(%33) <{force = false}> : (tensor<8x1x2880xf32, #ttnn_layout84>) -> () loc(#loc47)
        %35 = "ttnn.multiply"(%34, %0#0) <{dtype = #ttcore.supportedDataTypes<f32>}> : (tensor<8x1xf32, #ttnn_layout>, tensor<1x1xf32, #ttnn_layout>) -> tensor<8x1xf32, #ttnn_layout> loc(#loc48)
        "ttnn.deallocate"(%34) <{force = false}> : (tensor<8x1xf32, #ttnn_layout>) -> () loc(#loc48)
        "ttnn.deallocate"(%0#0) <{force = false}> : (tensor<1x1xf32, #ttnn_layout>) -> () loc(#loc48)
        %36 = "ttnn.add"(%35, %14#1) <{dtype = #ttcore.supportedDataTypes<f32>}> : (tensor<8x1xf32, #ttnn_layout>, tensor<1x1xf32, #ttnn_layout>) -> tensor<8x1xf32, #ttnn_layout> loc(#loc49)
        "ttnn.deallocate"(%35) <{force = false}> : (tensor<8x1xf32, #ttnn_layout>) -> () loc(#loc49)
        "ttnn.deallocate"(%14#1) <{force = false}> : (tensor<1x1xf32, #ttnn_layout>) -> () loc(#loc49)
        %37 = "ttnn.rsqrt"(%36) : (tensor<8x1xf32, #ttnn_layout>) -> tensor<8x1xf32, #ttnn_layout> loc(#loc50)
        "ttnn.deallocate"(%36) <{force = false}> : (tensor<8x1xf32, #ttnn_layout>) -> () loc(#loc50)
        %38 = "ttnn.reshape"(%32) <{shape = [8 : i32, 2880 : i32]}> : (tensor<8x1x2880xf32, #ttnn_layout84>) -> tensor<8x2880xf32, #ttnn_layout6> loc(#loc191)
        "ttnn.deallocate"(%32) <{force = false}> : (tensor<8x1x2880xf32, #ttnn_layout84>) -> () loc(#loc191)
        %39 = "ttnn.multiply"(%38, %37) <{dtype = #ttcore.supportedDataTypes<f32>}> : (tensor<8x2880xf32, #ttnn_layout6>, tensor<8x1xf32, #ttnn_layout>) -> tensor<8x2880xf32, #ttnn_layout6> loc(#loc51)
        "ttnn.deallocate"(%38) <{force = false}> : (tensor<8x2880xf32, #ttnn_layout6>) -> () loc(#loc51)
        "ttnn.deallocate"(%37) <{force = false}> : (tensor<8x1xf32, #ttnn_layout>) -> () loc(#loc51)
        %40 = "ttnn.multiply"(%39, %2) <{dtype = #ttcore.supportedDataTypes<f32>}> : (tensor<8x2880xf32, #ttnn_layout6>, tensor<1x2880xf32, #ttnn_layout6>) -> tensor<8x2880xf32, #ttnn_layout6> loc(#loc52)
        "ttnn.deallocate"(%39) <{force = false}> : (tensor<8x2880xf32, #ttnn_layout6>) -> () loc(#loc52)
        "ttnn.deallocate"(%2) <{force = false}> : (tensor<1x2880xf32, #ttnn_layout6>) -> () loc(#loc52)
        %41 = "ttnn.typecast"(%40) <{dtype = #ttcore.supportedDataTypes<bf16>}> : (tensor<8x2880xf32, #ttnn_layout6>) -> tensor<8x2880xbf16, #ttnn_layout33> loc(#loc53)
        "ttnn.deallocate"(%40) <{force = false}> : (tensor<8x2880xf32, #ttnn_layout6>) -> () loc(#loc53)
        %42 = "ttnn.slice_static"(%41) <{begins = [0 : i32, 0 : i32], ends = [8 : i32, 720 : i32], step = [1 : i32, 1 : i32]}> : (tensor<8x2880xbf16, #ttnn_layout33>) -> tensor<8x720xbf16, #ttnn_layout34> loc(#loc13)
        %43 = "ttnn.slice_static"(%41) <{begins = [0 : i32, 720 : i32], ends = [8 : i32, 1440 : i32], step = [1 : i32, 1 : i32]}> : (tensor<8x2880xbf16, #ttnn_layout33>) -> tensor<8x720xbf16, #ttnn_layout34> loc(#loc13)
        %44 = "ttnn.slice_static"(%41) <{begins = [0 : i32, 1440 : i32], ends = [8 : i32, 2160 : i32], step = [1 : i32, 1 : i32]}> : (tensor<8x2880xbf16, #ttnn_layout33>) -> tensor<8x720xbf16, #ttnn_layout34> loc(#loc13)
        %45 = "ttnn.slice_static"(%41) <{begins = [0 : i32, 2160 : i32], ends = [8 : i32, 2880 : i32], step = [1 : i32, 1 : i32]}> : (tensor<8x2880xbf16, #ttnn_layout33>) -> tensor<8x720xbf16, #ttnn_layout34> loc(#loc13)
        "ttnn.deallocate"(%41) <{force = false}> : (tensor<8x2880xbf16, #ttnn_layout33>) -> () loc(#loc13)
        %46 = "ttnn.assign"(%42) <{dtype = #ttcore.supportedDataTypes<bf16>, memory_config = #ttnn.memory_config<#dram, <interleaved>>}> : (tensor<8x720xbf16, #ttnn_layout34>) -> tensor<8x720xbf16, #ttnn_layout34> loc(#loc13)
        %47 = "ttnn.assign"(%43) <{dtype = #ttcore.supportedDataTypes<bf16>, memory_config = #ttnn.memory_config<#dram, <interleaved>>}> : (tensor<8x720xbf16, #ttnn_layout34>) -> tensor<8x720xbf16, #ttnn_layout34> loc(#loc13)
        %48 = "ttnn.assign"(%44) <{dtype = #ttcore.supportedDataTypes<bf16>, memory_config = #ttnn.memory_config<#dram, <interleaved>>}> : (tensor<8x720xbf16, #ttnn_layout34>) -> tensor<8x720xbf16, #ttnn_layout34> loc(#loc13)
        %49 = "ttnn.assign"(%45) <{dtype = #ttcore.supportedDataTypes<bf16>, memory_config = #ttnn.memory_config<#dram, <interleaved>>}> : (tensor<8x720xbf16, #ttnn_layout34>) -> tensor<8x720xbf16, #ttnn_layout34> loc(#loc13)
        %50 = "ttnn.point_to_point"(%43, %46) <{receiver_coord = array<i64: 1, 0>, sender_coord = array<i64: 0, 0>}> : (tensor<8x720xbf16, #ttnn_layout34>, tensor<8x720xbf16, #ttnn_layout34>) -> tensor<8x720xbf16, #ttnn_layout34> loc(#loc13)
        "ttnn.deallocate"(%46) <{force = false}> : (tensor<8x720xbf16, #ttnn_layout34>) -> () loc(#loc13)
        %51 = "ttnn.point_to_point"(%44, %50) <{receiver_coord = array<i64: 2, 0>, sender_coord = array<i64: 0, 0>}> : (tensor<8x720xbf16, #ttnn_layout34>, tensor<8x720xbf16, #ttnn_layout34>) -> tensor<8x720xbf16, #ttnn_layout34> loc(#loc13)
        "ttnn.deallocate"(%50) <{force = false}> : (tensor<8x720xbf16, #ttnn_layout34>) -> () loc(#loc13)
        %52 = "ttnn.point_to_point"(%45, %51) <{receiver_coord = array<i64: 3, 0>, sender_coord = array<i64: 0, 0>}> : (tensor<8x720xbf16, #ttnn_layout34>, tensor<8x720xbf16, #ttnn_layout34>) -> tensor<8x720xbf16, #ttnn_layout34> loc(#loc13)
        "ttnn.deallocate"(%51) <{force = false}> : (tensor<8x720xbf16, #ttnn_layout34>) -> () loc(#loc13)
        %53 = "ttnn.point_to_point"(%42, %47) <{receiver_coord = array<i64: 0, 0>, sender_coord = array<i64: 1, 0>}> : (tensor<8x720xbf16, #ttnn_layout34>, tensor<8x720xbf16, #ttnn_layout34>) -> tensor<8x720xbf16, #ttnn_layout34> loc(#loc13)
        "ttnn.deallocate"(%47) <{force = false}> : (tensor<8x720xbf16, #ttnn_layout34>) -> () loc(#loc13)
        %54 = "ttnn.point_to_point"(%44, %53) <{receiver_coord = array<i64: 2, 0>, sender_coord = array<i64: 1, 0>}> : (tensor<8x720xbf16, #ttnn_layout34>, tensor<8x720xbf16, #ttnn_layout34>) -> tensor<8x720xbf16, #ttnn_layout34> loc(#loc13)
        "ttnn.deallocate"(%53) <{force = false}> : (tensor<8x720xbf16, #ttnn_layout34>) -> () loc(#loc13)
        %55 = "ttnn.point_to_point"(%45, %54) <{receiver_coord = array<i64: 3, 0>, sender_coord = array<i64: 1, 0>}> : (tensor<8x720xbf16, #ttnn_layout34>, tensor<8x720xbf16, #ttnn_layout34>) -> tensor<8x720xbf16, #ttnn_layout34> loc(#loc13)
        "ttnn.deallocate"(%54) <{force = false}> : (tensor<8x720xbf16, #ttnn_layout34>) -> () loc(#loc13)
        %56 = "ttnn.point_to_point"(%42, %48) <{receiver_coord = array<i64: 0, 0>, sender_coord = array<i64: 2, 0>}> : (tensor<8x720xbf16, #ttnn_layout34>, tensor<8x720xbf16, #ttnn_layout34>) -> tensor<8x720xbf16, #ttnn_layout34> loc(#loc13)
        "ttnn.deallocate"(%48) <{force = false}> : (tensor<8x720xbf16, #ttnn_layout34>) -> () loc(#loc13)
        %57 = "ttnn.point_to_point"(%43, %56) <{receiver_coord = array<i64: 1, 0>, sender_coord = array<i64: 2, 0>}> : (tensor<8x720xbf16, #ttnn_layout34>, tensor<8x720xbf16, #ttnn_layout34>) -> tensor<8x720xbf16, #ttnn_layout34> loc(#loc13)
        "ttnn.deallocate"(%56) <{force = false}> : (tensor<8x720xbf16, #ttnn_layout34>) -> () loc(#loc13)
        %58 = "ttnn.point_to_point"(%45, %57) <{receiver_coord = array<i64: 3, 0>, sender_coord = array<i64: 2, 0>}> : (tensor<8x720xbf16, #ttnn_layout34>, tensor<8x720xbf16, #ttnn_layout34>) -> tensor<8x720xbf16, #ttnn_layout34> loc(#loc13)
        "ttnn.deallocate"(%57) <{force = false}> : (tensor<8x720xbf16, #ttnn_layout34>) -> () loc(#loc13)
        %59 = "ttnn.point_to_point"(%42, %49) <{receiver_coord = array<i64: 0, 0>, sender_coord = array<i64: 3, 0>}> : (tensor<8x720xbf16, #ttnn_layout34>, tensor<8x720xbf16, #ttnn_layout34>) -> tensor<8x720xbf16, #ttnn_layout34> loc(#loc13)
        "ttnn.deallocate"(%49) <{force = false}> : (tensor<8x720xbf16, #ttnn_layout34>) -> () loc(#loc13)
        %60 = "ttnn.point_to_point"(%43, %59) <{receiver_coord = array<i64: 1, 0>, sender_coord = array<i64: 3, 0>}> : (tensor<8x720xbf16, #ttnn_layout34>, tensor<8x720xbf16, #ttnn_layout34>) -> tensor<8x720xbf16, #ttnn_layout34> loc(#loc13)
        "ttnn.deallocate"(%59) <{force = false}> : (tensor<8x720xbf16, #ttnn_layout34>) -> () loc(#loc13)
        %61 = "ttnn.point_to_point"(%44, %60) <{receiver_coord = array<i64: 2, 0>, sender_coord = array<i64: 3, 0>}> : (tensor<8x720xbf16, #ttnn_layout34>, tensor<8x720xbf16, #ttnn_layout34>) -> tensor<8x720xbf16, #ttnn_layout34> loc(#loc13)
        "ttnn.deallocate"(%60) <{force = false}> : (tensor<8x720xbf16, #ttnn_layout34>) -> () loc(#loc13)
        %62 = "ttnn.point_to_point"(%43, %52) <{receiver_coord = array<i64: 1, 1>, sender_coord = array<i64: 0, 1>}> : (tensor<8x720xbf16, #ttnn_layout34>, tensor<8x720xbf16, #ttnn_layout34>) -> tensor<8x720xbf16, #ttnn_layout34> loc(#loc13)
        "ttnn.deallocate"(%52) <{force = false}> : (tensor<8x720xbf16, #ttnn_layout34>) -> () loc(#loc13)
        %63 = "ttnn.point_to_point"(%44, %62) <{receiver_coord = array<i64: 2, 1>, sender_coord = array<i64: 0, 1>}> : (tensor<8x720xbf16, #ttnn_layout34>, tensor<8x720xbf16, #ttnn_layout34>) -> tensor<8x720xbf16, #ttnn_layout34> loc(#loc13)
        "ttnn.deallocate"(%62) <{force = false}> : (tensor<8x720xbf16, #ttnn_layout34>) -> () loc(#loc13)
        %64 = "ttnn.point_to_point"(%45, %63) <{receiver_coord = array<i64: 3, 1>, sender_coord = array<i64: 0, 1>}> : (tensor<8x720xbf16, #ttnn_layout34>, tensor<8x720xbf16, #ttnn_layout34>) -> tensor<8x720xbf16, #ttnn_layout34> loc(#loc13)
        "ttnn.deallocate"(%63) <{force = false}> : (tensor<8x720xbf16, #ttnn_layout34>) -> () loc(#loc13)
        %65 = "ttnn.point_to_point"(%42, %55) <{receiver_coord = array<i64: 0, 1>, sender_coord = array<i64: 1, 1>}> : (tensor<8x720xbf16, #ttnn_layout34>, tensor<8x720xbf16, #ttnn_layout34>) -> tensor<8x720xbf16, #ttnn_layout34> loc(#loc13)
        "ttnn.deallocate"(%55) <{force = false}> : (tensor<8x720xbf16, #ttnn_layout34>) -> () loc(#loc13)
        %66 = "ttnn.point_to_point"(%44, %65) <{receiver_coord = array<i64: 2, 1>, sender_coord = array<i64: 1, 1>}> : (tensor<8x720xbf16, #ttnn_layout34>, tensor<8x720xbf16, #ttnn_layout34>) -> tensor<8x720xbf16, #ttnn_layout34> loc(#loc13)
        "ttnn.deallocate"(%65) <{force = false}> : (tensor<8x720xbf16, #ttnn_layout34>) -> () loc(#loc13)
        %67 = "ttnn.point_to_point"(%45, %66) <{receiver_coord = array<i64: 3, 1>, sender_coord = array<i64: 1, 1>}> : (tensor<8x720xbf16, #ttnn_layout34>, tensor<8x720xbf16, #ttnn_layout34>) -> tensor<8x720xbf16, #ttnn_layout34> loc(#loc13)
        "ttnn.deallocate"(%66) <{force = false}> : (tensor<8x720xbf16, #ttnn_layout34>) -> () loc(#loc13)
        %68 = "ttnn.point_to_point"(%42, %58) <{receiver_coord = array<i64: 0, 1>, sender_coord = array<i64: 2, 1>}> : (tensor<8x720xbf16, #ttnn_layout34>, tensor<8x720xbf16, #ttnn_layout34>) -> tensor<8x720xbf16, #ttnn_layout34> loc(#loc13)
        "ttnn.deallocate"(%58) <{force = false}> : (tensor<8x720xbf16, #ttnn_layout34>) -> () loc(#loc13)
        %69 = "ttnn.point_to_point"(%43, %68) <{receiver_coord = array<i64: 1, 1>, sender_coord = array<i64: 2, 1>}> : (tensor<8x720xbf16, #ttnn_layout34>, tensor<8x720xbf16, #ttnn_layout34>) -> tensor<8x720xbf16, #ttnn_layout34> loc(#loc13)
        "ttnn.deallocate"(%68) <{force = false}> : (tensor<8x720xbf16, #ttnn_layout34>) -> () loc(#loc13)
        %70 = "ttnn.point_to_point"(%45, %69) <{receiver_coord = array<i64: 3, 1>, sender_coord = array<i64: 2, 1>}> : (tensor<8x720xbf16, #ttnn_layout34>, tensor<8x720xbf16, #ttnn_layout34>) -> tensor<8x720xbf16, #ttnn_layout34> loc(#loc13)
        "ttnn.deallocate"(%69) <{force = false}> : (tensor<8x720xbf16, #ttnn_layout34>) -> () loc(#loc13)
        %71 = "ttnn.point_to_point"(%42, %61) <{receiver_coord = array<i64: 0, 1>, sender_coord = array<i64: 3, 1>}> : (tensor<8x720xbf16, #ttnn_layout34>, tensor<8x720xbf16, #ttnn_layout34>) -> tensor<8x720xbf16, #ttnn_layout34> loc(#loc13)
        "ttnn.deallocate"(%61) <{force = false}> : (tensor<8x720xbf16, #ttnn_layout34>) -> () loc(#loc13)
        %72 = "ttnn.point_to_point"(%43, %71) <{receiver_coord = array<i64: 1, 1>, sender_coord = array<i64: 3, 1>}> : (tensor<8x720xbf16, #ttnn_layout34>, tensor<8x720xbf16, #ttnn_layout34>) -> tensor<8x720xbf16, #ttnn_layout34> loc(#loc13)
        "ttnn.deallocate"(%71) <{force = false}> : (tensor<8x720xbf16, #ttnn_layout34>) -> () loc(#loc13)
        %73 = "ttnn.point_to_point"(%44, %72) <{receiver_coord = array<i64: 2, 1>, sender_coord = array<i64: 3, 1>}> : (tensor<8x720xbf16, #ttnn_layout34>, tensor<8x720xbf16, #ttnn_layout34>) -> tensor<8x720xbf16, #ttnn_layout34> loc(#loc13)
        "ttnn.deallocate"(%72) <{force = false}> : (tensor<8x720xbf16, #ttnn_layout34>) -> () loc(#loc13)
        %74 = "ttnn.point_to_point"(%43, %64) <{receiver_coord = array<i64: 1, 2>, sender_coord = array<i64: 0, 2>}> : (tensor<8x720xbf16, #ttnn_layout34>, tensor<8x720xbf16, #ttnn_layout34>) -> tensor<8x720xbf16, #ttnn_layout34> loc(#loc13)
        "ttnn.deallocate"(%64) <{force = false}> : (tensor<8x720xbf16, #ttnn_layout34>) -> () loc(#loc13)
        %75 = "ttnn.point_to_point"(%44, %74) <{receiver_coord = array<i64: 2, 2>, sender_coord = array<i64: 0, 2>}> : (tensor<8x720xbf16, #ttnn_layout34>, tensor<8x720xbf16, #ttnn_layout34>) -> tensor<8x720xbf16, #ttnn_layout34> loc(#loc13)
        "ttnn.deallocate"(%74) <{force = false}> : (tensor<8x720xbf16, #ttnn_layout34>) -> () loc(#loc13)
        %76 = "ttnn.point_to_point"(%45, %75) <{receiver_coord = array<i64: 3, 2>, sender_coord = array<i64: 0, 2>}> : (tensor<8x720xbf16, #ttnn_layout34>, tensor<8x720xbf16, #ttnn_layout34>) -> tensor<8x720xbf16, #ttnn_layout34> loc(#loc13)
        "ttnn.deallocate"(%75) <{force = false}> : (tensor<8x720xbf16, #ttnn_layout34>) -> () loc(#loc13)
        %77 = "ttnn.point_to_point"(%42, %67) <{receiver_coord = array<i64: 0, 2>, sender_coord = array<i64: 1, 2>}> : (tensor<8x720xbf16, #ttnn_layout34>, tensor<8x720xbf16, #ttnn_layout34>) -> tensor<8x720xbf16, #ttnn_layout34> loc(#loc13)
        "ttnn.deallocate"(%67) <{force = false}> : (tensor<8x720xbf16, #ttnn_layout34>) -> () loc(#loc13)
        %78 = "ttnn.point_to_point"(%44, %77) <{receiver_coord = array<i64: 2, 2>, sender_coord = array<i64: 1, 2>}> : (tensor<8x720xbf16, #ttnn_layout34>, tensor<8x720xbf16, #ttnn_layout34>) -> tensor<8x720xbf16, #ttnn_layout34> loc(#loc13)
        "ttnn.deallocate"(%77) <{force = false}> : (tensor<8x720xbf16, #ttnn_layout34>) -> () loc(#loc13)
        %79 = "ttnn.point_to_point"(%45, %78) <{receiver_coord = array<i64: 3, 2>, sender_coord = array<i64: 1, 2>}> : (tensor<8x720xbf16, #ttnn_layout34>, tensor<8x720xbf16, #ttnn_layout34>) -> tensor<8x720xbf16, #ttnn_layout34> loc(#loc13)
        "ttnn.deallocate"(%78) <{force = false}> : (tensor<8x720xbf16, #ttnn_layout34>) -> () loc(#loc13)
        %80 = "ttnn.point_to_point"(%42, %70) <{receiver_coord = array<i64: 0, 2>, sender_coord = array<i64: 2, 2>}> : (tensor<8x720xbf16, #ttnn_layout34>, tensor<8x720xbf16, #ttnn_layout34>) -> tensor<8x720xbf16, #ttnn_layout34> loc(#loc13)
        "ttnn.deallocate"(%70) <{force = false}> : (tensor<8x720xbf16, #ttnn_layout34>) -> () loc(#loc13)
        %81 = "ttnn.point_to_point"(%43, %80) <{receiver_coord = array<i64: 1, 2>, sender_coord = array<i64: 2, 2>}> : (tensor<8x720xbf16, #ttnn_layout34>, tensor<8x720xbf16, #ttnn_layout34>) -> tensor<8x720xbf16, #ttnn_layout34> loc(#loc13)
        "ttnn.deallocate"(%80) <{force = false}> : (tensor<8x720xbf16, #ttnn_layout34>) -> () loc(#loc13)
        %82 = "ttnn.point_to_point"(%45, %81) <{receiver_coord = array<i64: 3, 2>, sender_coord = array<i64: 2, 2>}> : (tensor<8x720xbf16, #ttnn_layout34>, tensor<8x720xbf16, #ttnn_layout34>) -> tensor<8x720xbf16, #ttnn_layout34> loc(#loc13)
        "ttnn.deallocate"(%81) <{force = false}> : (tensor<8x720xbf16, #ttnn_layout34>) -> () loc(#loc13)
        %83 = "ttnn.point_to_point"(%42, %73) <{receiver_coord = array<i64: 0, 2>, sender_coord = array<i64: 3, 2>}> : (tensor<8x720xbf16, #ttnn_layout34>, tensor<8x720xbf16, #ttnn_layout34>) -> tensor<8x720xbf16, #ttnn_layout34> loc(#loc13)
        "ttnn.deallocate"(%73) <{force = false}> : (tensor<8x720xbf16, #ttnn_layout34>) -> () loc(#loc13)
        %84 = "ttnn.point_to_point"(%43, %83) <{receiver_coord = array<i64: 1, 2>, sender_coord = array<i64: 3, 2>}> : (tensor<8x720xbf16, #ttnn_layout34>, tensor<8x720xbf16, #ttnn_layout34>) -> tensor<8x720xbf16, #ttnn_layout34> loc(#loc13)
        "ttnn.deallocate"(%83) <{force = false}> : (tensor<8x720xbf16, #ttnn_layout34>) -> () loc(#loc13)
        %85 = "ttnn.point_to_point"(%44, %84) <{receiver_coord = array<i64: 2, 2>, sender_coord = array<i64: 3, 2>}> : (tensor<8x720xbf16, #ttnn_layout34>, tensor<8x720xbf16, #ttnn_layout34>) -> tensor<8x720xbf16, #ttnn_layout34> loc(#loc13)
        "ttnn.deallocate"(%84) <{force = false}> : (tensor<8x720xbf16, #ttnn_layout34>) -> () loc(#loc13)
        %86 = "ttnn.point_to_point"(%43, %76) <{receiver_coord = array<i64: 1, 3>, sender_coord = array<i64: 0, 3>}> : (tensor<8x720xbf16, #ttnn_layout34>, tensor<8x720xbf16, #ttnn_layout34>) -> tensor<8x720xbf16, #ttnn_layout34> loc(#loc13)
        "ttnn.deallocate"(%76) <{force = false}> : (tensor<8x720xbf16, #ttnn_layout34>) -> () loc(#loc13)
        %87 = "ttnn.point_to_point"(%44, %86) <{receiver_coord = array<i64: 2, 3>, sender_coord = array<i64: 0, 3>}> : (tensor<8x720xbf16, #ttnn_layout34>, tensor<8x720xbf16, #ttnn_layout34>) -> tensor<8x720xbf16, #ttnn_layout34> loc(#loc13)
        "ttnn.deallocate"(%86) <{force = false}> : (tensor<8x720xbf16, #ttnn_layout34>) -> () loc(#loc13)
        %88 = "ttnn.point_to_point"(%45, %87) <{receiver_coord = array<i64: 3, 3>, sender_coord = array<i64: 0, 3>}> : (tensor<8x720xbf16, #ttnn_layout34>, tensor<8x720xbf16, #ttnn_layout34>) -> tensor<8x720xbf16, #ttnn_layout34> loc(#loc13)
        "ttnn.deallocate"(%87) <{force = false}> : (tensor<8x720xbf16, #ttnn_layout34>) -> () loc(#loc13)
        %89 = "ttnn.point_to_point"(%42, %79) <{receiver_coord = array<i64: 0, 3>, sender_coord = array<i64: 1, 3>}> : (tensor<8x720xbf16, #ttnn_layout34>, tensor<8x720xbf16, #ttnn_layout34>) -> tensor<8x720xbf16, #ttnn_layout34> loc(#loc13)
        "ttnn.deallocate"(%79) <{force = false}> : (tensor<8x720xbf16, #ttnn_layout34>) -> () loc(#loc13)
        %90 = "ttnn.point_to_point"(%44, %89) <{receiver_coord = array<i64: 2, 3>, sender_coord = array<i64: 1, 3>}> : (tensor<8x720xbf16, #ttnn_layout34>, tensor<8x720xbf16, #ttnn_layout34>) -> tensor<8x720xbf16, #ttnn_layout34> loc(#loc13)
        "ttnn.deallocate"(%89) <{force = false}> : (tensor<8x720xbf16, #ttnn_layout34>) -> () loc(#loc13)
        %91 = "ttnn.point_to_point"(%45, %90) <{receiver_coord = array<i64: 3, 3>, sender_coord = array<i64: 1, 3>}> : (tensor<8x720xbf16, #ttnn_layout34>, tensor<8x720xbf16, #ttnn_layout34>) -> tensor<8x720xbf16, #ttnn_layout34> loc(#loc13)
        "ttnn.deallocate"(%90) <{force = false}> : (tensor<8x720xbf16, #ttnn_layout34>) -> () loc(#loc13)
        %92 = "ttnn.point_to_point"(%42, %82) <{receiver_coord = array<i64: 0, 3>, sender_coord = array<i64: 2, 3>}> : (tensor<8x720xbf16, #ttnn_layout34>, tensor<8x720xbf16, #ttnn_layout34>) -> tensor<8x720xbf16, #ttnn_layout34> loc(#loc13)
        "ttnn.deallocate"(%82) <{force = false}> : (tensor<8x720xbf16, #ttnn_layout34>) -> () loc(#loc13)
        %93 = "ttnn.point_to_point"(%43, %92) <{receiver_coord = array<i64: 1, 3>, sender_coord = array<i64: 2, 3>}> : (tensor<8x720xbf16, #ttnn_layout34>, tensor<8x720xbf16, #ttnn_layout34>) -> tensor<8x720xbf16, #ttnn_layout34> loc(#loc13)
        "ttnn.deallocate"(%92) <{force = false}> : (tensor<8x720xbf16, #ttnn_layout34>) -> () loc(#loc13)
        %94 = "ttnn.point_to_point"(%45, %93) <{receiver_coord = array<i64: 3, 3>, sender_coord = array<i64: 2, 3>}> : (tensor<8x720xbf16, #ttnn_layout34>, tensor<8x720xbf16, #ttnn_layout34>) -> tensor<8x720xbf16, #ttnn_layout34> loc(#loc13)
        "ttnn.deallocate"(%93) <{force = false}> : (tensor<8x720xbf16, #ttnn_layout34>) -> () loc(#loc13)
        %95 = "ttnn.point_to_point"(%42, %85) <{receiver_coord = array<i64: 0, 3>, sender_coord = array<i64: 3, 3>}> : (tensor<8x720xbf16, #ttnn_layout34>, tensor<8x720xbf16, #ttnn_layout34>) -> tensor<8x720xbf16, #ttnn_layout34> loc(#loc13)
        "ttnn.deallocate"(%85) <{force = false}> : (tensor<8x720xbf16, #ttnn_layout34>) -> () loc(#loc13)
        %96 = "ttnn.point_to_point"(%43, %95) <{receiver_coord = array<i64: 1, 3>, sender_coord = array<i64: 3, 3>}> : (tensor<8x720xbf16, #ttnn_layout34>, tensor<8x720xbf16, #ttnn_layout34>) -> tensor<8x720xbf16, #ttnn_layout34> loc(#loc13)
        "ttnn.deallocate"(%95) <{force = false}> : (tensor<8x720xbf16, #ttnn_layout34>) -> () loc(#loc13)
        %97 = "ttnn.point_to_point"(%44, %96) <{receiver_coord = array<i64: 2, 3>, sender_coord = array<i64: 3, 3>}> : (tensor<8x720xbf16, #ttnn_layout34>, tensor<8x720xbf16, #ttnn_layout34>) -> tensor<8x720xbf16, #ttnn_layout34> loc(#loc13)
        "ttnn.deallocate"(%96) <{force = false}> : (tensor<8x720xbf16, #ttnn_layout34>) -> () loc(#loc13)
        %98 = "ttnn.point_to_point"(%43, %88) <{receiver_coord = array<i64: 1, 4>, sender_coord = array<i64: 0, 4>}> : (tensor<8x720xbf16, #ttnn_layout34>, tensor<8x720xbf16, #ttnn_layout34>) -> tensor<8x720xbf16, #ttnn_layout34> loc(#loc13)
        "ttnn.deallocate"(%88) <{force = false}> : (tensor<8x720xbf16, #ttnn_layout34>) -> () loc(#loc13)
        %99 = "ttnn.point_to_point"(%44, %98) <{receiver_coord = array<i64: 2, 4>, sender_coord = array<i64: 0, 4>}> : (tensor<8x720xbf16, #ttnn_layout34>, tensor<8x720xbf16, #ttnn_layout34>) -> tensor<8x720xbf16, #ttnn_layout34> loc(#loc13)
        "ttnn.deallocate"(%98) <{force = false}> : (tensor<8x720xbf16, #ttnn_layout34>) -> () loc(#loc13)
        %100 = "ttnn.point_to_point"(%45, %99) <{receiver_coord = array<i64: 3, 4>, sender_coord = array<i64: 0, 4>}> : (tensor<8x720xbf16, #ttnn_layout34>, tensor<8x720xbf16, #ttnn_layout34>) -> tensor<8x720xbf16, #ttnn_layout34> loc(#loc13)
        "ttnn.deallocate"(%99) <{force = false}> : (tensor<8x720xbf16, #ttnn_layout34>) -> () loc(#loc13)
        %101 = "ttnn.point_to_point"(%42, %91) <{receiver_coord = array<i64: 0, 4>, sender_coord = array<i64: 1, 4>}> : (tensor<8x720xbf16, #ttnn_layout34>, tensor<8x720xbf16, #ttnn_layout34>) -> tensor<8x720xbf16, #ttnn_layout34> loc(#loc13)
        "ttnn.deallocate"(%91) <{force = false}> : (tensor<8x720xbf16, #ttnn_layout34>) -> () loc(#loc13)
        %102 = "ttnn.point_to_point"(%44, %101) <{receiver_coord = array<i64: 2, 4>, sender_coord = array<i64: 1, 4>}> : (tensor<8x720xbf16, #ttnn_layout34>, tensor<8x720xbf16, #ttnn_layout34>) -> tensor<8x720xbf16, #ttnn_layout34> loc(#loc13)
        "ttnn.deallocate"(%101) <{force = false}> : (tensor<8x720xbf16, #ttnn_layout34>) -> () loc(#loc13)
        %103 = "ttnn.point_to_point"(%45, %102) <{receiver_coord = array<i64: 3, 4>, sender_coord = array<i64: 1, 4>}> : (tensor<8x720xbf16, #ttnn_layout34>, tensor<8x720xbf16, #ttnn_layout34>) -> tensor<8x720xbf16, #ttnn_layout34> loc(#loc13)
        "ttnn.deallocate"(%102) <{force = false}> : (tensor<8x720xbf16, #ttnn_layout34>) -> () loc(#loc13)
        %104 = "ttnn.point_to_point"(%42, %94) <{receiver_coord = array<i64: 0, 4>, sender_coord = array<i64: 2, 4>}> : (tensor<8x720xbf16, #ttnn_layout34>, tensor<8x720xbf16, #ttnn_layout34>) -> tensor<8x720xbf16, #ttnn_layout34> loc(#loc13)
        "ttnn.deallocate"(%94) <{force = false}> : (tensor<8x720xbf16, #ttnn_layout34>) -> () loc(#loc13)
        %105 = "ttnn.point_to_point"(%43, %104) <{receiver_coord = array<i64: 1, 4>, sender_coord = array<i64: 2, 4>}> : (tensor<8x720xbf16, #ttnn_layout34>, tensor<8x720xbf16, #ttnn_layout34>) -> tensor<8x720xbf16, #ttnn_layout34> loc(#loc13)
        "ttnn.deallocate"(%104) <{force = false}> : (tensor<8x720xbf16, #ttnn_layout34>) -> () loc(#loc13)
        %106 = "ttnn.point_to_point"(%45, %105) <{receiver_coord = array<i64: 3, 4>, sender_coord = array<i64: 2, 4>}> : (tensor<8x720xbf16, #ttnn_layout34>, tensor<8x720xbf16, #ttnn_layout34>) -> tensor<8x720xbf16, #ttnn_layout34> loc(#loc13)
        "ttnn.deallocate"(%105) <{force = false}> : (tensor<8x720xbf16, #ttnn_layout34>) -> () loc(#loc13)
        %107 = "ttnn.point_to_point"(%42, %97) <{receiver_coord = array<i64: 0, 4>, sender_coord = array<i64: 3, 4>}> : (tensor<8x720xbf16, #ttnn_layout34>, tensor<8x720xbf16, #ttnn_layout34>) -> tensor<8x720xbf16, #ttnn_layout34> loc(#loc13)
        "ttnn.deallocate"(%97) <{force = false}> : (tensor<8x720xbf16, #ttnn_layout34>) -> () loc(#loc13)
        %108 = "ttnn.point_to_point"(%43, %107) <{receiver_coord = array<i64: 1, 4>, sender_coord = array<i64: 3, 4>}> : (tensor<8x720xbf16, #ttnn_layout34>, tensor<8x720xbf16, #ttnn_layout34>) -> tensor<8x720xbf16, #ttnn_layout34> loc(#loc13)
        "ttnn.deallocate"(%107) <{force = false}> : (tensor<8x720xbf16, #ttnn_layout34>) -> () loc(#loc13)
        %109 = "ttnn.point_to_point"(%44, %108) <{receiver_coord = array<i64: 2, 4>, sender_coord = array<i64: 3, 4>}> : (tensor<8x720xbf16, #ttnn_layout34>, tensor<8x720xbf16, #ttnn_layout34>) -> tensor<8x720xbf16, #ttnn_layout34> loc(#loc13)
        "ttnn.deallocate"(%108) <{force = false}> : (tensor<8x720xbf16, #ttnn_layout34>) -> () loc(#loc13)
        %110 = "ttnn.point_to_point"(%43, %100) <{receiver_coord = array<i64: 1, 5>, sender_coord = array<i64: 0, 5>}> : (tensor<8x720xbf16, #ttnn_layout34>, tensor<8x720xbf16, #ttnn_layout34>) -> tensor<8x720xbf16, #ttnn_layout34> loc(#loc13)
        "ttnn.deallocate"(%100) <{force = false}> : (tensor<8x720xbf16, #ttnn_layout34>) -> () loc(#loc13)
        %111 = "ttnn.point_to_point"(%44, %110) <{receiver_coord = array<i64: 2, 5>, sender_coord = array<i64: 0, 5>}> : (tensor<8x720xbf16, #ttnn_layout34>, tensor<8x720xbf16, #ttnn_layout34>) -> tensor<8x720xbf16, #ttnn_layout34> loc(#loc13)
        "ttnn.deallocate"(%110) <{force = false}> : (tensor<8x720xbf16, #ttnn_layout34>) -> () loc(#loc13)
        %112 = "ttnn.point_to_point"(%45, %111) <{receiver_coord = array<i64: 3, 5>, sender_coord = array<i64: 0, 5>}> : (tensor<8x720xbf16, #ttnn_layout34>, tensor<8x720xbf16, #ttnn_layout34>) -> tensor<8x720xbf16, #ttnn_layout34> loc(#loc13)
        "ttnn.deallocate"(%111) <{force = false}> : (tensor<8x720xbf16, #ttnn_layout34>) -> () loc(#loc13)
        %113 = "ttnn.point_to_point"(%42, %103) <{receiver_coord = array<i64: 0, 5>, sender_coord = array<i64: 1, 5>}> : (tensor<8x720xbf16, #ttnn_layout34>, tensor<8x720xbf16, #ttnn_layout34>) -> tensor<8x720xbf16, #ttnn_layout34> loc(#loc13)
        "ttnn.deallocate"(%103) <{force = false}> : (tensor<8x720xbf16, #ttnn_layout34>) -> () loc(#loc13)
        %114 = "ttnn.point_to_point"(%44, %113) <{receiver_coord = array<i64: 2, 5>, sender_coord = array<i64: 1, 5>}> : (tensor<8x720xbf16, #ttnn_layout34>, tensor<8x720xbf16, #ttnn_layout34>) -> tensor<8x720xbf16, #ttnn_layout34> loc(#loc13)
        "ttnn.deallocate"(%113) <{force = false}> : (tensor<8x720xbf16, #ttnn_layout34>) -> () loc(#loc13)
        %115 = "ttnn.point_to_point"(%45, %114) <{receiver_coord = array<i64: 3, 5>, sender_coord = array<i64: 1, 5>}> : (tensor<8x720xbf16, #ttnn_layout34>, tensor<8x720xbf16, #ttnn_layout34>) -> tensor<8x720xbf16, #ttnn_layout34> loc(#loc13)
        "ttnn.deallocate"(%114) <{force = false}> : (tensor<8x720xbf16, #ttnn_layout34>) -> () loc(#loc13)
        %116 = "ttnn.point_to_point"(%42, %106) <{receiver_coord = array<i64: 0, 5>, sender_coord = array<i64: 2, 5>}> : (tensor<8x720xbf16, #ttnn_layout34>, tensor<8x720xbf16, #ttnn_layout34>) -> tensor<8x720xbf16, #ttnn_layout34> loc(#loc13)
        "ttnn.deallocate"(%106) <{force = false}> : (tensor<8x720xbf16, #ttnn_layout34>) -> () loc(#loc13)
        %117 = "ttnn.point_to_point"(%43, %116) <{receiver_coord = array<i64: 1, 5>, sender_coord = array<i64: 2, 5>}> : (tensor<8x720xbf16, #ttnn_layout34>, tensor<8x720xbf16, #ttnn_layout34>) -> tensor<8x720xbf16, #ttnn_layout34> loc(#loc13)
        "ttnn.deallocate"(%116) <{force = false}> : (tensor<8x720xbf16, #ttnn_layout34>) -> () loc(#loc13)
        %118 = "ttnn.point_to_point"(%45, %117) <{receiver_coord = array<i64: 3, 5>, sender_coord = array<i64: 2, 5>}> : (tensor<8x720xbf16, #ttnn_layout34>, tensor<8x720xbf16, #ttnn_layout34>) -> tensor<8x720xbf16, #ttnn_layout34> loc(#loc13)
        "ttnn.deallocate"(%117) <{force = false}> : (tensor<8x720xbf16, #ttnn_layout34>) -> () loc(#loc13)
        %119 = "ttnn.point_to_point"(%42, %109) <{receiver_coord = array<i64: 0, 5>, sender_coord = array<i64: 3, 5>}> : (tensor<8x720xbf16, #ttnn_layout34>, tensor<8x720xbf16, #ttnn_layout34>) -> tensor<8x720xbf16, #ttnn_layout34> loc(#loc13)
        "ttnn.deallocate"(%109) <{force = false}> : (tensor<8x720xbf16, #ttnn_layout34>) -> () loc(#loc13)
        %120 = "ttnn.point_to_point"(%43, %119) <{receiver_coord = array<i64: 1, 5>, sender_coord = array<i64: 3, 5>}> : (tensor<8x720xbf16, #ttnn_layout34>, tensor<8x720xbf16, #ttnn_layout34>) -> tensor<8x720xbf16, #ttnn_layout34> loc(#loc13)
        "ttnn.deallocate"(%119) <{force = false}> : (tensor<8x720xbf16, #ttnn_layout34>) -> () loc(#loc13)
        %121 = "ttnn.point_to_point"(%44, %120) <{receiver_coord = array<i64: 2, 5>, sender_coord = array<i64: 3, 5>}> : (tensor<8x720xbf16, #ttnn_layout34>, tensor<8x720xbf16, #ttnn_layout34>) -> tensor<8x720xbf16, #ttnn_layout34> loc(#loc13)
        "ttnn.deallocate"(%120) <{force = false}> : (tensor<8x720xbf16, #ttnn_layout34>) -> () loc(#loc13)
        %122 = "ttnn.point_to_point"(%43, %112) <{receiver_coord = array<i64: 1, 6>, sender_coord = array<i64: 0, 6>}> : (tensor<8x720xbf16, #ttnn_layout34>, tensor<8x720xbf16, #ttnn_layout34>) -> tensor<8x720xbf16, #ttnn_layout34> loc(#loc13)
        "ttnn.deallocate"(%112) <{force = false}> : (tensor<8x720xbf16, #ttnn_layout34>) -> () loc(#loc13)
        %123 = "ttnn.point_to_point"(%44, %122) <{receiver_coord = array<i64: 2, 6>, sender_coord = array<i64: 0, 6>}> : (tensor<8x720xbf16, #ttnn_layout34>, tensor<8x720xbf16, #ttnn_layout34>) -> tensor<8x720xbf16, #ttnn_layout34> loc(#loc13)
        "ttnn.deallocate"(%122) <{force = false}> : (tensor<8x720xbf16, #ttnn_layout34>) -> () loc(#loc13)
        %124 = "ttnn.point_to_point"(%45, %123) <{receiver_coord = array<i64: 3, 6>, sender_coord = array<i64: 0, 6>}> : (tensor<8x720xbf16, #ttnn_layout34>, tensor<8x720xbf16, #ttnn_layout34>) -> tensor<8x720xbf16, #ttnn_layout34> loc(#loc13)
        "ttnn.deallocate"(%123) <{force = false}> : (tensor<8x720xbf16, #ttnn_layout34>) -> () loc(#loc13)
        %125 = "ttnn.point_to_point"(%42, %115) <{receiver_coord = array<i64: 0, 6>, sender_coord = array<i64: 1, 6>}> : (tensor<8x720xbf16, #ttnn_layout34>, tensor<8x720xbf16, #ttnn_layout34>) -> tensor<8x720xbf16, #ttnn_layout34> loc(#loc13)
        "ttnn.deallocate"(%115) <{force = false}> : (tensor<8x720xbf16, #ttnn_layout34>) -> () loc(#loc13)
        %126 = "ttnn.point_to_point"(%44, %125) <{receiver_coord = array<i64: 2, 6>, sender_coord = array<i64: 1, 6>}> : (tensor<8x720xbf16, #ttnn_layout34>, tensor<8x720xbf16, #ttnn_layout34>) -> tensor<8x720xbf16, #ttnn_layout34> loc(#loc13)
        "ttnn.deallocate"(%125) <{force = false}> : (tensor<8x720xbf16, #ttnn_layout34>) -> () loc(#loc13)
        %127 = "ttnn.point_to_point"(%45, %126) <{receiver_coord = array<i64: 3, 6>, sender_coord = array<i64: 1, 6>}> : (tensor<8x720xbf16, #ttnn_layout34>, tensor<8x720xbf16, #ttnn_layout34>) -> tensor<8x720xbf16, #ttnn_layout34> loc(#loc13)
        "ttnn.deallocate"(%126) <{force = false}> : (tensor<8x720xbf16, #ttnn_layout34>) -> () loc(#loc13)
        %128 = "ttnn.point_to_point"(%42, %118) <{receiver_coord = array<i64: 0, 6>, sender_coord = array<i64: 2, 6>}> : (tensor<8x720xbf16, #ttnn_layout34>, tensor<8x720xbf16, #ttnn_layout34>) -> tensor<8x720xbf16, #ttnn_layout34> loc(#loc13)
        "ttnn.deallocate"(%118) <{force = false}> : (tensor<8x720xbf16, #ttnn_layout34>) -> () loc(#loc13)
        %129 = "ttnn.point_to_point"(%43, %128) <{receiver_coord = array<i64: 1, 6>, sender_coord = array<i64: 2, 6>}> : (tensor<8x720xbf16, #ttnn_layout34>, tensor<8x720xbf16, #ttnn_layout34>) -> tensor<8x720xbf16, #ttnn_layout34> loc(#loc13)
        "ttnn.deallocate"(%128) <{force = false}> : (tensor<8x720xbf16, #ttnn_layout34>) -> () loc(#loc13)
        %130 = "ttnn.point_to_point"(%45, %129) <{receiver_coord = array<i64: 3, 6>, sender_coord = array<i64: 2, 6>}> : (tensor<8x720xbf16, #ttnn_layout34>, tensor<8x720xbf16, #ttnn_layout34>) -> tensor<8x720xbf16, #ttnn_layout34> loc(#loc13)
        "ttnn.deallocate"(%129) <{force = false}> : (tensor<8x720xbf16, #ttnn_layout34>) -> () loc(#loc13)
        %131 = "ttnn.point_to_point"(%42, %121) <{receiver_coord = array<i64: 0, 6>, sender_coord = array<i64: 3, 6>}> : (tensor<8x720xbf16, #ttnn_layout34>, tensor<8x720xbf16, #ttnn_layout34>) -> tensor<8x720xbf16, #ttnn_layout34> loc(#loc13)
        "ttnn.deallocate"(%121) <{force = false}> : (tensor<8x720xbf16, #ttnn_layout34>) -> () loc(#loc13)
        %132 = "ttnn.point_to_point"(%43, %131) <{receiver_coord = array<i64: 1, 6>, sender_coord = array<i64: 3, 6>}> : (tensor<8x720xbf16, #ttnn_layout34>, tensor<8x720xbf16, #ttnn_layout34>) -> tensor<8x720xbf16, #ttnn_layout34> loc(#loc13)
        "ttnn.deallocate"(%131) <{force = false}> : (tensor<8x720xbf16, #ttnn_layout34>) -> () loc(#loc13)
        %133 = "ttnn.point_to_point"(%44, %132) <{receiver_coord = array<i64: 2, 6>, sender_coord = array<i64: 3, 6>}> : (tensor<8x720xbf16, #ttnn_layout34>, tensor<8x720xbf16, #ttnn_layout34>) -> tensor<8x720xbf16, #ttnn_layout34> loc(#loc13)
        "ttnn.deallocate"(%132) <{force = false}> : (tensor<8x720xbf16, #ttnn_layout34>) -> () loc(#loc13)
        %134 = "ttnn.point_to_point"(%43, %124) <{receiver_coord = array<i64: 1, 7>, sender_coord = array<i64: 0, 7>}> : (tensor<8x720xbf16, #ttnn_layout34>, tensor<8x720xbf16, #ttnn_layout34>) -> tensor<8x720xbf16, #ttnn_layout34> loc(#loc13)
        "ttnn.deallocate"(%124) <{force = false}> : (tensor<8x720xbf16, #ttnn_layout34>) -> () loc(#loc13)
        %135 = "ttnn.point_to_point"(%44, %134) <{receiver_coord = array<i64: 2, 7>, sender_coord = array<i64: 0, 7>}> : (tensor<8x720xbf16, #ttnn_layout34>, tensor<8x720xbf16, #ttnn_layout34>) -> tensor<8x720xbf16, #ttnn_layout34> loc(#loc13)
        "ttnn.deallocate"(%134) <{force = false}> : (tensor<8x720xbf16, #ttnn_layout34>) -> () loc(#loc13)
        %136 = "ttnn.point_to_point"(%45, %135) <{receiver_coord = array<i64: 3, 7>, sender_coord = array<i64: 0, 7>}> : (tensor<8x720xbf16, #ttnn_layout34>, tensor<8x720xbf16, #ttnn_layout34>) -> tensor<8x720xbf16, #ttnn_layout34> loc(#loc13)
        "ttnn.deallocate"(%135) <{force = false}> : (tensor<8x720xbf16, #ttnn_layout34>) -> () loc(#loc13)
        %137 = "ttnn.point_to_point"(%42, %127) <{receiver_coord = array<i64: 0, 7>, sender_coord = array<i64: 1, 7>}> : (tensor<8x720xbf16, #ttnn_layout34>, tensor<8x720xbf16, #ttnn_layout34>) -> tensor<8x720xbf16, #ttnn_layout34> loc(#loc13)
        "ttnn.deallocate"(%127) <{force = false}> : (tensor<8x720xbf16, #ttnn_layout34>) -> () loc(#loc13)
        %138 = "ttnn.point_to_point"(%44, %137) <{receiver_coord = array<i64: 2, 7>, sender_coord = array<i64: 1, 7>}> : (tensor<8x720xbf16, #ttnn_layout34>, tensor<8x720xbf16, #ttnn_layout34>) -> tensor<8x720xbf16, #ttnn_layout34> loc(#loc13)
        "ttnn.deallocate"(%137) <{force = false}> : (tensor<8x720xbf16, #ttnn_layout34>) -> () loc(#loc13)
        %139 = "ttnn.point_to_point"(%45, %138) <{receiver_coord = array<i64: 3, 7>, sender_coord = array<i64: 1, 7>}> : (tensor<8x720xbf16, #ttnn_layout34>, tensor<8x720xbf16, #ttnn_layout34>) -> tensor<8x720xbf16, #ttnn_layout34> loc(#loc13)
        "ttnn.deallocate"(%138) <{force = false}> : (tensor<8x720xbf16, #ttnn_layout34>) -> () loc(#loc13)
        %140 = "ttnn.point_to_point"(%42, %130) <{receiver_coord = array<i64: 0, 7>, sender_coord = array<i64: 2, 7>}> : (tensor<8x720xbf16, #ttnn_layout34>, tensor<8x720xbf16, #ttnn_layout34>) -> tensor<8x720xbf16, #ttnn_layout34> loc(#loc13)
        "ttnn.deallocate"(%130) <{force = false}> : (tensor<8x720xbf16, #ttnn_layout34>) -> () loc(#loc13)
        %141 = "ttnn.point_to_point"(%43, %140) <{receiver_coord = array<i64: 1, 7>, sender_coord = array<i64: 2, 7>}> : (tensor<8x720xbf16, #ttnn_layout34>, tensor<8x720xbf16, #ttnn_layout34>) -> tensor<8x720xbf16, #ttnn_layout34> loc(#loc13)
        "ttnn.deallocate"(%140) <{force = false}> : (tensor<8x720xbf16, #ttnn_layout34>) -> () loc(#loc13)
        %142 = "ttnn.point_to_point"(%45, %141) <{receiver_coord = array<i64: 3, 7>, sender_coord = array<i64: 2, 7>}> : (tensor<8x720xbf16, #ttnn_layout34>, tensor<8x720xbf16, #ttnn_layout34>) -> tensor<8x720xbf16, #ttnn_layout34> loc(#loc13)
        "ttnn.deallocate"(%141) <{force = false}> : (tensor<8x720xbf16, #ttnn_layout34>) -> () loc(#loc13)
        "ttnn.deallocate"(%45) <{force = false}> : (tensor<8x720xbf16, #ttnn_layout34>) -> () loc(#loc13)
        %143 = "ttnn.point_to_point"(%42, %133) <{receiver_coord = array<i64: 0, 7>, sender_coord = array<i64: 3, 7>}> : (tensor<8x720xbf16, #ttnn_layout34>, tensor<8x720xbf16, #ttnn_layout34>) -> tensor<8x720xbf16, #ttnn_layout34> loc(#loc13)
        "ttnn.deallocate"(%133) <{force = false}> : (tensor<8x720xbf16, #ttnn_layout34>) -> () loc(#loc13)
        "ttnn.deallocate"(%42) <{force = false}> : (tensor<8x720xbf16, #ttnn_layout34>) -> () loc(#loc13)
        %144 = "ttnn.point_to_point"(%43, %143) <{receiver_coord = array<i64: 1, 7>, sender_coord = array<i64: 3, 7>}> : (tensor<8x720xbf16, #ttnn_layout34>, tensor<8x720xbf16, #ttnn_layout34>) -> tensor<8x720xbf16, #ttnn_layout34> loc(#loc13)
        "ttnn.deallocate"(%143) <{force = false}> : (tensor<8x720xbf16, #ttnn_layout34>) -> () loc(#loc13)
        "ttnn.deallocate"(%43) <{force = false}> : (tensor<8x720xbf16, #ttnn_layout34>) -> () loc(#loc13)
        %145 = "ttnn.point_to_point"(%44, %144) <{receiver_coord = array<i64: 2, 7>, sender_coord = array<i64: 3, 7>}> : (tensor<8x720xbf16, #ttnn_layout34>, tensor<8x720xbf16, #ttnn_layout34>) -> tensor<8x720xbf16, #ttnn_layout34> loc(#loc13)
        "ttnn.deallocate"(%144) <{force = false}> : (tensor<8x720xbf16, #ttnn_layout34>) -> () loc(#loc13)
        "ttnn.deallocate"(%44) <{force = false}> : (tensor<8x720xbf16, #ttnn_layout34>) -> () loc(#loc13)
        %146 = "ttnn.concat"(%136, %139, %142, %145) <{dim = 0 : si32}> : (tensor<8x720xbf16, #ttnn_layout34>, tensor<8x720xbf16, #ttnn_layout34>, tensor<8x720xbf16, #ttnn_layout34>, tensor<8x720xbf16, #ttnn_layout34>) -> tensor<32x720xbf16, #ttnn_layout34> loc(#loc13)
        "ttnn.deallocate"(%145) <{force = false}> : (tensor<8x720xbf16, #ttnn_layout34>) -> () loc(#loc13)
        "ttnn.deallocate"(%142) <{force = false}> : (tensor<8x720xbf16, #ttnn_layout34>) -> () loc(#loc13)
        "ttnn.deallocate"(%139) <{force = false}> : (tensor<8x720xbf16, #ttnn_layout34>) -> () loc(#loc13)
        "ttnn.deallocate"(%136) <{force = false}> : (tensor<8x720xbf16, #ttnn_layout34>) -> () loc(#loc13)
        %147 = "ttnn.matmul"(%146, %16) <{compute_config = #ttnn.device_compute_kernel_config<math_fidelity = hifi4, fp32_dest_acc_en = true>, transpose_a = false, transpose_b = true}> : (tensor<32x720xbf16, #ttnn_layout34>, tensor<512x720xbf16, #ttnn_layout58>) -> tensor<32x512xbf16, #ttnn_layout21> loc(#loc54)
        "ttnn.deallocate"(%16) <{force = false}> : (tensor<512x720xbf16, #ttnn_layout58>) -> () loc(#loc54)
        %148 = "ttnn.reshape"(%147) <{shape = [1 : i32, 1 : i32, 32 : i32, 512 : i32]}> : (tensor<32x512xbf16, #ttnn_layout21>) -> tensor<1x1x32x512xbf16, #ttnn_layout85> loc(#loc158)
        "ttnn.deallocate"(%147) <{force = false}> : (tensor<32x512xbf16, #ttnn_layout21>) -> () loc(#loc158)
        %149 = "ttnn.reduce_scatter"(%148) <{cluster_axis = 0 : ui32, compute_config = #ttnn.device_compute_kernel_config<math_fidelity = hifi4, math_approx_mode = false, fp32_dest_acc_en = true, packer_l1_acc = false>, reduce_type = #ttcore.reduce_type<sum>, scatter_dim = 2 : si32, topology = #ttcore.topology<ring>}> : (tensor<1x1x32x512xbf16, #ttnn_layout85>) -> tensor<1x1x8x512xbf16, #ttnn_layout85> loc(#loc159)
        "ttnn.deallocate"(%148) <{force = false}> : (tensor<1x1x32x512xbf16, #ttnn_layout85>) -> () loc(#loc159)
        %150 = "ttnn.reshape"(%149) <{shape = [8 : i32, 512 : i32]}> : (tensor<1x1x8x512xbf16, #ttnn_layout85>) -> tensor<8x512xbf16, #ttnn_layout21> loc(#loc54)
        "ttnn.deallocate"(%149) <{force = false}> : (tensor<1x1x8x512xbf16, #ttnn_layout85>) -> () loc(#loc54)
        %151 = "ttnn.add"(%150, %5) <{dtype = #ttcore.supportedDataTypes<bf16>}> : (tensor<8x512xbf16, #ttnn_layout21>, tensor<1x512xbf16, #ttnn_layout21>) -> tensor<8x512xbf16, #ttnn_layout21> loc(#loc6)
        "ttnn.deallocate"(%150) <{force = false}> : (tensor<8x512xbf16, #ttnn_layout21>) -> () loc(#loc6)
        "ttnn.deallocate"(%5) <{force = false}> : (tensor<1x512xbf16, #ttnn_layout21>) -> () loc(#loc6)
        %152 = "ttnn.reshape"(%151) <{shape = [8 : i32, 8 : i32, 1 : i32, 64 : i32]}> : (tensor<8x512xbf16, #ttnn_layout21>) -> tensor<8x8x1x64xbf16, #ttnn_layout86> loc(#loc6)
        "ttnn.deallocate"(%151) <{force = false}> : (tensor<8x512xbf16, #ttnn_layout21>) -> () loc(#loc6)
        %153 = "ttnn.slice_static"(%152) <{begins = [0 : i32, 0 : i32, 0 : i32, 0 : i32], ends = [8 : i32, 8 : i32, 1 : i32, 32 : i32], step = [1 : i32, 1 : i32, 1 : i32, 1 : i32]}> : (tensor<8x8x1x64xbf16, #ttnn_layout86>) -> tensor<8x8x1x32xbf16, #ttnn_layout36> loc(#loc55)
        %154 = "ttnn.reshape"(%31) <{shape = [8 : i32, 1 : i32, 1 : i32, 32 : i32]}> : (tensor<8x1x32xbf16, #ttnn_layout83>) -> tensor<8x1x1x32xbf16, #ttnn_layout82> loc(#loc56)
        "ttnn.deallocate"(%arg14) <{force = false}> : (tensor<32x1x32xbf16, #ttnn_layout80>) -> () loc(#loc56)
        %155 = "ttnn.multiply"(%153, %154) <{dtype = #ttcore.supportedDataTypes<bf16>}> : (tensor<8x8x1x32xbf16, #ttnn_layout36>, tensor<8x1x1x32xbf16, #ttnn_layout82>) -> tensor<8x8x1x32xbf16, #ttnn_layout36> loc(#loc57)
        %156 = "ttnn.slice_static"(%152) <{begins = [0 : i32, 0 : i32, 0 : i32, 32 : i32], ends = [8 : i32, 8 : i32, 1 : i32, 64 : i32], step = [1 : i32, 1 : i32, 1 : i32, 1 : i32]}> : (tensor<8x8x1x64xbf16, #ttnn_layout86>) -> tensor<8x8x1x32xbf16, #ttnn_layout36> loc(#loc58)
        "ttnn.deallocate"(%152) <{force = false}> : (tensor<8x8x1x64xbf16, #ttnn_layout86>) -> () loc(#loc58)
        %157 = "ttnn.reshape"(%30) <{shape = [8 : i32, 1 : i32, 1 : i32, 32 : i32]}> : (tensor<8x1x32xbf16, #ttnn_layout83>) -> tensor<8x1x1x32xbf16, #ttnn_layout82> loc(#loc59)
        "ttnn.deallocate"(%arg11) <{force = false}> : (tensor<32x1x32xbf16, #ttnn_layout80>) -> () loc(#loc59)
        %158 = "ttnn.multiply"(%156, %157) <{dtype = #ttcore.supportedDataTypes<bf16>}> : (tensor<8x8x1x32xbf16, #ttnn_layout36>, tensor<8x1x1x32xbf16, #ttnn_layout82>) -> tensor<8x8x1x32xbf16, #ttnn_layout36> loc(#loc60)
        %159 = "ttnn.subtract"(%155, %158) <{dtype = #ttcore.supportedDataTypes<bf16>}> : (tensor<8x8x1x32xbf16, #ttnn_layout36>, tensor<8x8x1x32xbf16, #ttnn_layout36>) -> tensor<8x8x1x32xbf16, #ttnn_layout36> loc(#loc61)
        "ttnn.deallocate"(%158) <{force = false}> : (tensor<8x8x1x32xbf16, #ttnn_layout36>) -> () loc(#loc61)
        "ttnn.deallocate"(%155) <{force = false}> : (tensor<8x8x1x32xbf16, #ttnn_layout36>) -> () loc(#loc61)
        %160 = "ttnn.multiply"(%156, %154) <{dtype = #ttcore.supportedDataTypes<bf16>}> : (tensor<8x8x1x32xbf16, #ttnn_layout36>, tensor<8x1x1x32xbf16, #ttnn_layout82>) -> tensor<8x8x1x32xbf16, #ttnn_layout36> loc(#loc62)
        "ttnn.deallocate"(%156) <{force = false}> : (tensor<8x8x1x32xbf16, #ttnn_layout36>) -> () loc(#loc62)
        %161 = "ttnn.multiply"(%153, %157) <{dtype = #ttcore.supportedDataTypes<bf16>}> : (tensor<8x8x1x32xbf16, #ttnn_layout36>, tensor<8x1x1x32xbf16, #ttnn_layout82>) -> tensor<8x8x1x32xbf16, #ttnn_layout36> loc(#loc63)
        "ttnn.deallocate"(%153) <{force = false}> : (tensor<8x8x1x32xbf16, #ttnn_layout36>) -> () loc(#loc63)
        %162 = "ttnn.add"(%160, %161) <{dtype = #ttcore.supportedDataTypes<bf16>}> : (tensor<8x8x1x32xbf16, #ttnn_layout36>, tensor<8x8x1x32xbf16, #ttnn_layout36>) -> tensor<8x8x1x32xbf16, #ttnn_layout36> loc(#loc64)
        "ttnn.deallocate"(%161) <{force = false}> : (tensor<8x8x1x32xbf16, #ttnn_layout36>) -> () loc(#loc64)
        "ttnn.deallocate"(%160) <{force = false}> : (tensor<8x8x1x32xbf16, #ttnn_layout36>) -> () loc(#loc64)
        %163 = "ttnn.concat"(%159, %162) <{dim = 3 : si32}> : (tensor<8x8x1x32xbf16, #ttnn_layout36>, tensor<8x8x1x32xbf16, #ttnn_layout36>) -> tensor<8x8x1x64xbf16, #ttnn_layout86> loc(#loc65)
        "ttnn.deallocate"(%162) <{force = false}> : (tensor<8x8x1x32xbf16, #ttnn_layout36>) -> () loc(#loc65)
        "ttnn.deallocate"(%159) <{force = false}> : (tensor<8x8x1x32xbf16, #ttnn_layout36>) -> () loc(#loc65)
        %164 = "ttnn.matmul"(%146, %11) <{compute_config = #ttnn.device_compute_kernel_config<math_fidelity = hifi4, fp32_dest_acc_en = true>, transpose_a = false, transpose_b = true}> : (tensor<32x720xbf16, #ttnn_layout34>, tensor<64x720xbf16, #ttnn_layout44>) -> tensor<32x64xbf16, #ttnn_layout16> loc(#loc66)
        "ttnn.deallocate"(%11) <{force = false}> : (tensor<64x720xbf16, #ttnn_layout44>) -> () loc(#loc66)
        %165 = "ttnn.reshape"(%164) <{shape = [1 : i32, 1 : i32, 32 : i32, 64 : i32]}> : (tensor<32x64xbf16, #ttnn_layout16>) -> tensor<1x1x32x64xbf16, #ttnn_layout87> loc(#loc160)
        "ttnn.deallocate"(%164) <{force = false}> : (tensor<32x64xbf16, #ttnn_layout16>) -> () loc(#loc160)
        %166 = "ttnn.reduce_scatter"(%165) <{cluster_axis = 0 : ui32, compute_config = #ttnn.device_compute_kernel_config<math_fidelity = hifi4, math_approx_mode = false, fp32_dest_acc_en = true, packer_l1_acc = false>, reduce_type = #ttcore.reduce_type<sum>, scatter_dim = 2 : si32, topology = #ttcore.topology<ring>}> : (tensor<1x1x32x64xbf16, #ttnn_layout87>) -> tensor<1x1x8x64xbf16, #ttnn_layout87> loc(#loc161)
        "ttnn.deallocate"(%165) <{force = false}> : (tensor<1x1x32x64xbf16, #ttnn_layout87>) -> () loc(#loc161)
        %167 = "ttnn.reshape"(%166) <{shape = [8 : i32, 64 : i32]}> : (tensor<1x1x8x64xbf16, #ttnn_layout87>) -> tensor<8x64xbf16, #ttnn_layout16> loc(#loc66)
        "ttnn.deallocate"(%166) <{force = false}> : (tensor<1x1x8x64xbf16, #ttnn_layout87>) -> () loc(#loc66)
        %168 = "ttnn.add"(%167, %4) <{dtype = #ttcore.supportedDataTypes<bf16>}> : (tensor<8x64xbf16, #ttnn_layout16>, tensor<1x64xbf16, #ttnn_layout16>) -> tensor<8x64xbf16, #ttnn_layout16> loc(#loc5)
        "ttnn.deallocate"(%167) <{force = false}> : (tensor<8x64xbf16, #ttnn_layout16>) -> () loc(#loc5)
        "ttnn.deallocate"(%4) <{force = false}> : (tensor<1x64xbf16, #ttnn_layout16>) -> () loc(#loc5)
        %169 = "ttnn.reshape"(%168) <{shape = [8 : i32, 1 : i32, 1 : i32, 64 : i32]}> : (tensor<8x64xbf16, #ttnn_layout16>) -> tensor<8x1x1x64xbf16, #ttnn_layout88> loc(#loc5)
        "ttnn.deallocate"(%168) <{force = false}> : (tensor<8x64xbf16, #ttnn_layout16>) -> () loc(#loc5)
        %170 = "ttnn.slice_static"(%169) <{begins = [0 : i32, 0 : i32, 0 : i32, 0 : i32], ends = [8 : i32, 1 : i32, 1 : i32, 32 : i32], step = [1 : i32, 1 : i32, 1 : i32, 1 : i32]}> : (tensor<8x1x1x64xbf16, #ttnn_layout88>) -> tensor<8x1x1x32xbf16, #ttnn_layout82> loc(#loc67)
        %171 = "ttnn.multiply"(%170, %154) <{dtype = #ttcore.supportedDataTypes<bf16>}> : (tensor<8x1x1x32xbf16, #ttnn_layout82>, tensor<8x1x1x32xbf16, #ttnn_layout82>) -> tensor<8x1x1x32xbf16, #ttnn_layout82> loc(#loc68)
        %172 = "ttnn.slice_static"(%169) <{begins = [0 : i32, 0 : i32, 0 : i32, 32 : i32], ends = [8 : i32, 1 : i32, 1 : i32, 64 : i32], step = [1 : i32, 1 : i32, 1 : i32, 1 : i32]}> : (tensor<8x1x1x64xbf16, #ttnn_layout88>) -> tensor<8x1x1x32xbf16, #ttnn_layout82> loc(#loc69)
        "ttnn.deallocate"(%169) <{force = false}> : (tensor<8x1x1x64xbf16, #ttnn_layout88>) -> () loc(#loc69)
        %173 = "ttnn.multiply"(%172, %157) <{dtype = #ttcore.supportedDataTypes<bf16>}> : (tensor<8x1x1x32xbf16, #ttnn_layout82>, tensor<8x1x1x32xbf16, #ttnn_layout82>) -> tensor<8x1x1x32xbf16, #ttnn_layout82> loc(#loc70)
        %174 = "ttnn.subtract"(%171, %173) <{dtype = #ttcore.supportedDataTypes<bf16>}> : (tensor<8x1x1x32xbf16, #ttnn_layout82>, tensor<8x1x1x32xbf16, #ttnn_layout82>) -> tensor<8x1x1x32xbf16, #ttnn_layout82> loc(#loc71)
        "ttnn.deallocate"(%173) <{force = false}> : (tensor<8x1x1x32xbf16, #ttnn_layout82>) -> () loc(#loc71)
        "ttnn.deallocate"(%171) <{force = false}> : (tensor<8x1x1x32xbf16, #ttnn_layout82>) -> () loc(#loc71)
        %175 = "ttnn.reshape"(%174) <{shape = [8 : i32, 1 : i32, 32 : i32, 1 : i32]}> : (tensor<8x1x1x32xbf16, #ttnn_layout82>) -> tensor<8x1x32x1xbf16, #ttnn_layout82> loc(#loc71)
        "ttnn.deallocate"(%174) <{force = false}> : (tensor<8x1x1x32xbf16, #ttnn_layout82>) -> () loc(#loc71)
        %176 = "ttnn.multiply"(%172, %154) <{dtype = #ttcore.supportedDataTypes<bf16>}> : (tensor<8x1x1x32xbf16, #ttnn_layout82>, tensor<8x1x1x32xbf16, #ttnn_layout82>) -> tensor<8x1x1x32xbf16, #ttnn_layout82> loc(#loc72)
        "ttnn.deallocate"(%172) <{force = false}> : (tensor<8x1x1x32xbf16, #ttnn_layout82>) -> () loc(#loc72)
        "ttnn.deallocate"(%154) <{force = false}> : (tensor<8x1x1x32xbf16, #ttnn_layout82>) -> () loc(#loc72)
        %177 = "ttnn.multiply"(%170, %157) <{dtype = #ttcore.supportedDataTypes<bf16>}> : (tensor<8x1x1x32xbf16, #ttnn_layout82>, tensor<8x1x1x32xbf16, #ttnn_layout82>) -> tensor<8x1x1x32xbf16, #ttnn_layout82> loc(#loc73)
        "ttnn.deallocate"(%170) <{force = false}> : (tensor<8x1x1x32xbf16, #ttnn_layout82>) -> () loc(#loc73)
        "ttnn.deallocate"(%157) <{force = false}> : (tensor<8x1x1x32xbf16, #ttnn_layout82>) -> () loc(#loc73)
        %178 = "ttnn.add"(%176, %177) <{dtype = #ttcore.supportedDataTypes<bf16>}> : (tensor<8x1x1x32xbf16, #ttnn_layout82>, tensor<8x1x1x32xbf16, #ttnn_layout82>) -> tensor<8x1x1x32xbf16, #ttnn_layout82> loc(#loc74)
        "ttnn.deallocate"(%177) <{force = false}> : (tensor<8x1x1x32xbf16, #ttnn_layout82>) -> () loc(#loc74)
        "ttnn.deallocate"(%176) <{force = false}> : (tensor<8x1x1x32xbf16, #ttnn_layout82>) -> () loc(#loc74)
        %179 = "ttnn.reshape"(%178) <{shape = [8 : i32, 1 : i32, 32 : i32, 1 : i32]}> : (tensor<8x1x1x32xbf16, #ttnn_layout82>) -> tensor<8x1x32x1xbf16, #ttnn_layout82> loc(#loc74)
        "ttnn.deallocate"(%178) <{force = false}> : (tensor<8x1x1x32xbf16, #ttnn_layout82>) -> () loc(#loc74)
        %180 = "ttnn.concat"(%175, %179) <{dim = 2 : si32}> : (tensor<8x1x32x1xbf16, #ttnn_layout82>, tensor<8x1x32x1xbf16, #ttnn_layout82>) -> tensor<8x1x64x1xbf16, #ttnn_layout89> loc(#loc75)
        "ttnn.deallocate"(%179) <{force = false}> : (tensor<8x1x32x1xbf16, #ttnn_layout82>) -> () loc(#loc75)
        "ttnn.deallocate"(%175) <{force = false}> : (tensor<8x1x32x1xbf16, #ttnn_layout82>) -> () loc(#loc75)
        %181 = "ttnn.repeat"(%180) <{repeat_dims = #ttnn.shape<1x8x1x1>}> : (tensor<8x1x64x1xbf16, #ttnn_layout89>) -> tensor<8x8x64x1xbf16, #ttnn_layout90> loc(#loc76)
        "ttnn.deallocate"(%180) <{force = false}> : (tensor<8x1x64x1xbf16, #ttnn_layout89>) -> () loc(#loc76)
        %182 = "ttnn.matmul"(%163, %181) <{compute_config = #ttnn.device_compute_kernel_config<math_fidelity = hifi4, fp32_dest_acc_en = true>, transpose_a = false, transpose_b = false}> : (tensor<8x8x1x64xbf16, #ttnn_layout86>, tensor<8x8x64x1xbf16, #ttnn_layout90>) -> tensor<8x8x1x1xbf16, #ttnn_layout36> loc(#loc77)
        "ttnn.deallocate"(%181) <{force = false}> : (tensor<8x8x64x1xbf16, #ttnn_layout90>) -> () loc(#loc77)
        "ttnn.deallocate"(%163) <{force = false}> : (tensor<8x8x1x64xbf16, #ttnn_layout86>) -> () loc(#loc77)
        %183 = "ttnn.multiply"(%182, %24) <{dtype = #ttcore.supportedDataTypes<bf16>}> : (tensor<8x8x1x1xbf16, #ttnn_layout36>, tensor<1x1x1x1xbf16, #ttnn_layout3>) -> tensor<8x8x1x1xbf16, #ttnn_layout36> loc(#loc78)
        "ttnn.deallocate"(%182) <{force = false}> : (tensor<8x8x1x1xbf16, #ttnn_layout36>) -> () loc(#loc78)
        "ttnn.deallocate"(%24) <{force = false}> : (tensor<1x1x1x1xbf16, #ttnn_layout3>) -> () loc(#loc78)
        %184 = "ttnn.add"(%183, %29) <{dtype = #ttcore.supportedDataTypes<bf16>}> : (tensor<8x8x1x1xbf16, #ttnn_layout36>, tensor<8x1x1x1xbf16, #ttnn_layout82>) -> tensor<8x8x1x1xbf16, #ttnn_layout36> loc(#loc79)
        "ttnn.deallocate"(%183) <{force = false}> : (tensor<8x8x1x1xbf16, #ttnn_layout36>) -> () loc(#loc79)
        "ttnn.deallocate"(%arg10) <{force = false}> : (tensor<32x1x1x1xbf16, #ttnn_layout79>) -> () loc(#loc79)
        %185 = "ttnn.concat"(%184, %9) <{dim = 3 : si32}> : (tensor<8x8x1x1xbf16, #ttnn_layout36>, tensor<8x8x1x1xbf16, #ttnn_layout36>) -> tensor<8x8x1x2xbf16, #ttnn_layout36> loc(#loc80)
        "ttnn.deallocate"(%184) <{force = false}> : (tensor<8x8x1x1xbf16, #ttnn_layout36>) -> () loc(#loc80)
…
        %400 = "ttnn.point_to_point"(%323, %399) <{receiver_coord = array<i64: 2, 5>, sender_coord = array<i64: 3, 5>}> : (tensor<8x720xf32, #ttnn_layout11>, tensor<8x720xf32, #ttnn_layout11>) -> tensor<8x720xf32, #ttnn_layout11> loc(#loc99)
        "ttnn.deallocate"(%399) <{force = false}> : (tensor<8x720xf32, #ttnn_layout11>) -> () loc(#loc99)
        %401 = "ttnn.point_to_point"(%322, %391) <{receiver_coord = array<i64: 1, 6>, sender_coord = array<i64: 0, 6>}> : (tensor<8x720xf32, #ttnn_layout11>, tensor<8x720xf32, #ttnn_layout11>) -> tensor<8x720xf32, #ttnn_layout11> loc(#loc99)
        "ttnn.deallocate"(%391) <{force = false}> : (tensor<8x720xf32, #ttnn_layout11>) -> () loc(#loc99)
        %402 = "ttnn.point_to_point"(%323, %401) <{receiver_coord = array<i64: 2, 6>, sender_coord = array<i64: 0, 6>}> : (tensor<8x720xf32, #ttnn_layout11>, tensor<8x720xf32, #ttnn_layout11>) -> tensor<8x720xf32, #ttnn_layout11> loc(#loc99)
        "ttnn.deallocate"(%401) <{force = false}> : (tensor<8x720xf32, #ttnn_layout11>) -> () loc(#loc99)
        %403 = "ttnn.point_to_point"(%324, %402) <{receiver_coord = array<i64: 3, 6>, sender_coord = array<i64: 0, 6>}> : (tensor<8x720xf32, #ttnn_layout11>, tensor<8x720xf32, #ttnn_layout11>) -> tensor<8x720xf32, #ttnn_layout11> loc(#loc99)
        "ttnn.deallocate"(%402) <{force = false}> : (tensor<8x720xf32, #ttnn_layout11>) -> () loc(#loc99)
        %404 = "ttnn.point_to_point"(%321, %394) <{receiver_coord = array<i64: 0, 6>, sender_coord = array<i64: 1, 6>}> : (tensor<8x720xf32, #ttnn_layout11>, tensor<8x720xf32, #ttnn_layout11>) -> tensor<8x720xf32, #ttnn_layout11> loc(#loc99)
        "ttnn.deallocate"(%394) <{force = false}> : (tensor<8x720xf32, #ttnn_layout11>) -> () loc(#loc99)
        %405 = "ttnn.point_to_point"(%323, %404) <{receiver_coord = array<i64: 2, 6>, sender_coord = array<i64: 1, 6>}> : (tensor<8x720xf32, #ttnn_layout11>, tensor<8x720xf32, #ttnn_layout11>) -> tensor<8x720xf32, #ttnn_layout11> loc(#loc99)
        "ttnn.deallocate"(%404) <{force = false}> : (tensor<8x720xf32, #ttnn_layout11>) -> () loc(#loc99)
        %406 = "ttnn.point_to_point"(%324, %405) <{receiver_coord = array<i64: 3, 6>, sender_coord = array<i64: 1, 6>}> : (tensor<8x720xf32, #ttnn_layout11>, tensor<8x720xf32, #ttnn_layout11>) -> tensor<8x720xf32, #ttnn_layout11> loc(#loc99)
        "ttnn.deallocate"(%405) <{force = false}> : (tensor<8x720xf32, #ttnn_layout11>) -> () loc(#loc99)
        %407 = "ttnn.point_to_point"(%321, %397) <{receiver_coord = array<i64: 0, 6>, sender_coord = array<i64: 2, 6>}> : (tensor<8x720xf32, #ttnn_layout11>, tensor<8x720xf32, #ttnn_layout11>) -> tensor<8x720xf32, #ttnn_layout11> loc(#loc99)
        "ttnn.deallocate"(%397) <{force = false}> : (tensor<8x720xf32, #ttnn_layout11>) -> () loc(#loc99)
        %408 = "ttnn.point_to_point"(%322, %407) <{receiver_coord = array<i64: 1, 6>, sender_coord = array<i64: 2, 6>}> : (tensor<8x720xf32, #ttnn_layout11>, tensor<8x720xf32, #ttnn_layout11>) -> tensor<8x720xf32, #ttnn_layout11> loc(#loc99)
        "ttnn.deallocate"(%407) <{force = false}> : (tensor<8x720xf32, #ttnn_layout11>) -> () loc(#loc99)
        %409 = "ttnn.point_to_point"(%324, %408) <{receiver_coord = array<i64: 3, 6>, sender_coord = array<i64: 2, 6>}> : (tensor<8x720xf32, #ttnn_layout11>, tensor<8x720xf32, #ttnn_layout11>) -> tensor<8x720xf32, #ttnn_layout11> loc(#loc99)
        "ttnn.deallocate"(%408) <{force = false}> : (tensor<8x720xf32, #ttnn_layout11>) -> () loc(#loc99)
        %410 = "ttnn.point_to_point"(%321, %400) <{receiver_coord = array<i64: 0, 6>, sender_coord = array<i64: 3, 6>}> : (tensor<8x720xf32, #ttnn_layout11>, tensor<8x720xf32, #ttnn_layout11>) -> tensor<8x720xf32, #ttnn_layout11> loc(#loc99)
        "ttnn.deallocate"(%400) <{force = false}> : (tensor<8x720xf32, #ttnn_layout11>) -> () loc(#loc99)
        %411 = "ttnn.point_to_point"(%322, %410) <{receiver_coord = array<i64: 1, 6>, sender_coord = array<i64: 3, 6>}> : (tensor<8x720xf32, #ttnn_layout11>, tensor<8x720xf32, #ttnn_layout11>) -> tensor<8x720xf32, #ttnn_layout11> loc(#loc99)
        "ttnn.deallocate"(%410) <{force = false}> : (tensor<8x720xf32, #ttnn_layout11>) -> () loc(#loc99)
        %412 = "ttnn.point_to_point"(%323, %411) <{receiver_coord = array<i64: 2, 6>, sender_coord = array<i64: 3, 6>}> : (tensor<8x720xf32, #ttnn_layout11>, tensor<8x720xf32, #ttnn_layout11>) -> tensor<8x720xf32, #ttnn_layout11> loc(#loc99)
        "ttnn.deallocate"(%411) <{force = false}> : (tensor<8x720xf32, #ttnn_layout11>) -> () loc(#loc99)
        %413 = "ttnn.point_to_point"(%322, %403) <{receiver_coord = array<i64: 1, 7>, sender_coord = array<i64: 0, 7>}> : (tensor<8x720xf32, #ttnn_layout11>, tensor<8x720xf32, #ttnn_layout11>) -> tensor<8x720xf32, #ttnn_layout11> loc(#loc99)
        "ttnn.deallocate"(%403) <{force = false}> : (tensor<8x720xf32, #ttnn_layout11>) -> () loc(#loc99)
        %414 = "ttnn.point_to_point"(%323, %413) <{receiver_coord = array<i64: 2, 7>, sender_coord = array<i64: 0, 7>}> : (tensor<8x720xf32, #ttnn_layout11>, tensor<8x720xf32, #ttnn_layout11>) -> tensor<8x720xf32, #ttnn_layout11> loc(#loc99)
        "ttnn.deallocate"(%413) <{force = false}> : (tensor<8x720xf32, #ttnn_layout11>) -> () loc(#loc99)
        %415 = "ttnn.point_to_point"(%324, %414) <{receiver_coord = array<i64: 3, 7>, sender_coord = array<i64: 0, 7>}> : (tensor<8x720xf32, #ttnn_layout11>, tensor<8x720xf32, #ttnn_layout11>) -> tensor<8x720xf32, #ttnn_layout11> loc(#loc99)
        "ttnn.deallocate"(%414) <{force = false}> : (tensor<8x720xf32, #ttnn_layout11>) -> () loc(#loc99)
        %416 = "ttnn.point_to_point"(%321, %406) <{receiver_coord = array<i64: 0, 7>, sender_coord = array<i64: 1, 7>}> : (tensor<8x720xf32, #ttnn_layout11>, tensor<8x720xf32, #ttnn_layout11>) -> tensor<8x720xf32, #ttnn_layout11> loc(#loc99)
        "ttnn.deallocate"(%406) <{force = false}> : (tensor<8x720xf32, #ttnn_layout11>) -> () loc(#loc99)
        %417 = "ttnn.point_to_point"(%323, %416) <{receiver_coord = array<i64: 2, 7>, sender_coord = array<i64: 1, 7>}> : (tensor<8x720xf32, #ttnn_layout11>, tensor<8x720xf32, #ttnn_layout11>) -> tensor<8x720xf32, #ttnn_layout11> loc(#loc99)
        "ttnn.deallocate"(%416) <{force = false}> : (tensor<8x720xf32, #ttnn_layout11>) -> () loc(#loc99)
        %418 = "ttnn.point_to_point"(%324, %417) <{receiver_coord = array<i64: 3, 7>, sender_coord = array<i64: 1, 7>}> : (tensor<8x720xf32, #ttnn_layout11>, tensor<8x720xf32, #ttnn_layout11>) -> tensor<8x720xf32, #ttnn_layout11> loc(#loc99)
        "ttnn.deallocate"(%417) <{force = false}> : (tensor<8x720xf32, #ttnn_layout11>) -> () loc(#loc99)
        %419 = "ttnn.point_to_point"(%321, %409) <{receiver_coord = array<i64: 0, 7>, sender_coord = array<i64: 2, 7>}> : (tensor<8x720xf32, #ttnn_layout11>, tensor<8x720xf32, #ttnn_layout11>) -> tensor<8x720xf32, #ttnn_layout11> loc(#loc99)
        "ttnn.deallocate"(%409) <{force = false}> : (tensor<8x720xf32, #ttnn_layout11>) -> () loc(#loc99)
        %420 = "ttnn.point_to_point"(%322, %419) <{receiver_coord = array<i64: 1, 7>, sender_coord = array<i64: 2, 7>}> : (tensor<8x720xf32, #ttnn_layout11>, tensor<8x720xf32, #ttnn_layout11>) -> tensor<8x720xf32, #ttnn_layout11> loc(#loc99)
        "ttnn.deallocate"(%419) <{force = false}> : (tensor<8x720xf32, #ttnn_layout11>) -> () loc(#loc99)
        %421 = "ttnn.point_to_point"(%324, %420) <{receiver_coord = array<i64: 3, 7>, sender_coord = array<i64: 2, 7>}> : (tensor<8x720xf32, #ttnn_layout11>, tensor<8x720xf32, #ttnn_layout11>) -> tensor<8x720xf32, #ttnn_layout11> loc(#loc99)
        "ttnn.deallocate"(%420) <{force = false}> : (tensor<8x720xf32, #ttnn_layout11>) -> () loc(#loc99)
        "ttnn.deallocate"(%324) <{force = false}> : (tensor<8x720xf32, #ttnn_layout11>) -> () loc(#loc99)
        %422 = "ttnn.point_to_point"(%321, %412) <{receiver_coord = array<i64: 0, 7>, sender_coord = array<i64: 3, 7>}> : (tensor<8x720xf32, #ttnn_layout11>, tensor<8x720xf32, #ttnn_layout11>) -> tensor<8x720xf32, #ttnn_layout11> loc(#loc99)
        "ttnn.deallocate"(%412) <{force = false}> : (tensor<8x720xf32, #ttnn_layout11>) -> () loc(#loc99)
        "ttnn.deallocate"(%321) <{force = false}> : (tensor<8x720xf32, #ttnn_layout11>) -> () loc(#loc99)
        %423 = "ttnn.point_to_point"(%322, %422) <{receiver_coord = array<i64: 1, 7>, sender_coord = array<i64: 3, 7>}> : (tensor<8x720xf32, #ttnn_layout11>, tensor<8x720xf32, #ttnn_layout11>) -> tensor<8x720xf32, #ttnn_layout11> loc(#loc99)
        "ttnn.deallocate"(%422) <{force = false}> : (tensor<8x720xf32, #ttnn_layout11>) -> () loc(#loc99)
        "ttnn.deallocate"(%322) <{force = false}> : (tensor<8x720xf32, #ttnn_layout11>) -> () loc(#loc99)
        %424 = "ttnn.point_to_point"(%323, %423) <{receiver_coord = array<i64: 2, 7>, sender_coord = array<i64: 3, 7>}> : (tensor<8x720xf32, #ttnn_layout11>, tensor<8x720xf32, #ttnn_layout11>) -> tensor<8x720xf32, #ttnn_layout11> loc(#loc99)
        "ttnn.deallocate"(%423) <{force = false}> : (tensor<8x720xf32, #ttnn_layout11>) -> () loc(#loc99)
        "ttnn.deallocate"(%323) <{force = false}> : (tensor<8x720xf32, #ttnn_layout11>) -> () loc(#loc99)
        %425 = "ttnn.concat"(%415, %418, %421, %424) <{dim = 0 : si32}> : (tensor<8x720xf32, #ttnn_layout11>, tensor<8x720xf32, #ttnn_layout11>, tensor<8x720xf32, #ttnn_layout11>, tensor<8x720xf32, #ttnn_layout11>) -> tensor<32x720xf32, #ttnn_layout11> loc(#loc99)
        "ttnn.deallocate"(%424) <{force = false}> : (tensor<8x720xf32, #ttnn_layout11>) -> () loc(#loc99)
        "ttnn.deallocate"(%421) <{force = false}> : (tensor<8x720xf32, #ttnn_layout11>) -> () loc(#loc99)
        "ttnn.deallocate"(%418) <{force = false}> : (tensor<8x720xf32, #ttnn_layout11>) -> () loc(#loc99)
        "ttnn.deallocate"(%415) <{force = false}> : (tensor<8x720xf32, #ttnn_layout11>) -> () loc(#loc99)
        %426 = "ttnn.matmul"(%425, %21) <{compute_config = #ttnn.device_compute_kernel_config<math_fidelity = hifi4, fp32_dest_acc_en = true>, transpose_a = false, transpose_b = false}> : (tensor<32x720xf32, #ttnn_layout11>, tensor<720x128xf32, #ttnn_layout67>) -> tensor<32x128xf32, #ttnn_layout48> loc(#loc100)
        "ttnn.deallocate"(%425) <{force = false}> : (tensor<32x720xf32, #ttnn_layout11>) -> () loc(#loc100)
        "ttnn.deallocate"(%21) <{force = false}> : (tensor<720x128xf32, #ttnn_layout67>) -> () loc(#loc100)
        %427 = "ttnn.reshape"(%426) <{shape = [1 : i32, 1 : i32, 32 : i32, 128 : i32]}> : (tensor<32x128xf32, #ttnn_layout48>) -> tensor<1x1x32x128xf32, #ttnn_layout94> loc(#loc166)
        "ttnn.deallocate"(%426) <{force = false}> : (tensor<32x128xf32, #ttnn_layout48>) -> () loc(#loc166)
        %428 = "ttnn.reduce_scatter"(%427) <{cluster_axis = 0 : ui32, compute_config = #ttnn.device_compute_kernel_config<math_fidelity = hifi4, math_approx_mode = false, fp32_dest_acc_en = true, packer_l1_acc = false>, reduce_type = #ttcore.reduce_type<sum>, scatter_dim = 2 : si32, topology = #ttcore.topology<ring>}> : (tensor<1x1x32x128xf32, #ttnn_layout94>) -> tensor<1x1x8x128xf32, #ttnn_layout94> loc(#loc167)
        "ttnn.deallocate"(%427) <{force = false}> : (tensor<1x1x32x128xf32, #ttnn_layout94>) -> () loc(#loc167)
        %429 = "ttnn.reshape"(%428) <{shape = [8 : i32, 128 : i32]}> : (tensor<1x1x8x128xf32, #ttnn_layout94>) -> tensor<8x128xf32, #ttnn_layout48> loc(#loc100)
        "ttnn.deallocate"(%428) <{force = false}> : (tensor<1x1x8x128xf32, #ttnn_layout94>) -> () loc(#loc100)
        %430 = "ttnn.add"(%429, %12) <{dtype = #ttcore.supportedDataTypes<f32>}> : (tensor<8x128xf32, #ttnn_layout48>, tensor<1x128xf32, #ttnn_layout48>) -> tensor<8x128xf32, #ttnn_layout48> loc(#loc101)
        "ttnn.deallocate"(%429) <{force = false}> : (tensor<8x128xf32, #ttnn_layout48>) -> () loc(#loc101)
        "ttnn.deallocate"(%12) <{force = false}> : (tensor<1x128xf32, #ttnn_layout48>) -> () loc(#loc101)
        %431 = "ttnn.typecast"(%430) <{dtype = #ttcore.supportedDataTypes<bf16>}> : (tensor<8x128xf32, #ttnn_layout48>) -> tensor<8x128xbf16, #ttnn_layout42> loc(#loc102)
        "ttnn.deallocate"(%430) <{force = false}> : (tensor<8x128xf32, #ttnn_layout48>) -> () loc(#loc102)
        %values, %indices = "ttnn.sort"(%431) <{descending = true, dim = 1 : si8, stable = false}> : (tensor<8x128xbf16, #ttnn_layout42>) -> (tensor<8x128xbf16, #ttnn_layout42>, tensor<8x128xui16, #ttnn_layout95>) loc(#loc103)
        "ttnn.deallocate"(%431) <{force = false}> : (tensor<8x128xbf16, #ttnn_layout42>) -> () loc(#loc103)
        %432 = "ttnn.typecast"(%indices) <{dtype = #ttcore.supportedDataTypes<si32>}> : (tensor<8x128xui16, #ttnn_layout95>) -> tensor<8x128xsi32, #ttnn_layout96> loc(#loc168)
        "ttnn.deallocate"(%indices) <{force = false}> : (tensor<8x128xui16, #ttnn_layout95>) -> () loc(#loc168)
        %433 = "ttnn.slice_static"(%432) <{begins = [0 : i32, 0 : i32], ends = [8 : i32, 4 : i32], step = [1 : i32, 1 : i32]}> : (tensor<8x128xsi32, #ttnn_layout96>) -> tensor<8x4xsi32, #ttnn_layout72> loc(#loc104)
        "ttnn.deallocate"(%432) <{force = false}> : (tensor<8x128xsi32, #ttnn_layout96>) -> () loc(#loc104)
        %434 = "ttnn.reshape"(%433) <{shape = [8 : i32, 4 : i32, 1 : i32]}> : (tensor<8x4xsi32, #ttnn_layout72>) -> tensor<8x4x1xsi32, #ttnn_layout70> loc(#loc105)
        %435 = "ttnn.concat"(%22, %434) <{dim = 2 : si32}> : (tensor<8x4x1xsi32, #ttnn_layout70>, tensor<8x4x1xsi32, #ttnn_layout70>) -> tensor<8x4x2xsi32, #ttnn_layout70> loc(#loc106)
        "ttnn.deallocate"(%22) <{force = false}> : (tensor<8x4x1xsi32, #ttnn_layout70>) -> () loc(#loc106)
        %436 = "ttnn.slice_static"(%values) <{begins = [0 : i32, 0 : i32], ends = [8 : i32, 4 : i32], step = [1 : i32, 1 : i32]}> : (tensor<8x128xbf16, #ttnn_layout42>) -> tensor<8x4xbf16, #ttnn_layout41> loc(#loc107)
        "ttnn.deallocate"(%values) <{force = false}> : (tensor<8x128xbf16, #ttnn_layout42>) -> () loc(#loc107)
        %437 = "ttnn.softmax"(%436) <{compute_config = #ttnn.device_compute_kernel_config<math_fidelity = hifi4, fp32_dest_acc_en = true>, dimension = 1 : si32, numericStable = true}> : (tensor<8x4xbf16, #ttnn_layout41>) -> tensor<8x4xbf16, #ttnn_layout41> loc(#loc108)
        "ttnn.deallocate"(%436) <{force = false}> : (tensor<8x4xbf16, #ttnn_layout41>) -> () loc(#loc108)
        %438 = "ttnn.all_gather"(%435) <{all_gather_dim = 0 : si32, cluster_axis = 0 : ui32, topology = #ttcore.topology<ring>}> : (tensor<8x4x2xsi32, #ttnn_layout70>) -> tensor<32x4x2xsi32, #ttnn_layout97> loc(#loc106)
        "ttnn.deallocate"(%435) <{force = false}> : (tensor<8x4x2xsi32, #ttnn_layout70>) -> () loc(#loc106)
        %439 = "ttnn.all_gather"(%437) <{all_gather_dim = 0 : si32, cluster_axis = 0 : ui32, topology = #ttcore.topology<ring>}> : (tensor<8x4xbf16, #ttnn_layout41>) -> tensor<32x4xbf16, #ttnn_layout41> loc(#loc108)
        "ttnn.deallocate"(%437) <{force = false}> : (tensor<8x4xbf16, #ttnn_layout41>) -> () loc(#loc108)
        %440 = "ttnn.reshape"(%438) <{shape = [128 : i32, 2 : i32]}> : (tensor<32x4x2xsi32, #ttnn_layout97>) -> tensor<128x2xsi32, #ttnn_layout98> loc(#loc169)
        "ttnn.deallocate"(%438) <{force = false}> : (tensor<32x4x2xsi32, #ttnn_layout97>) -> () loc(#loc169)
        %441 = "ttnn.slice_static"(%440) <{begins = [0 : i32, 0 : i32], ends = [128 : i32, 1 : i32], step = [1 : i32, 1 : i32]}> : (tensor<128x2xsi32, #ttnn_layout98>) -> tensor<128x1xsi32, #ttnn_layout98> loc(#loc170)
        %442 = "ttnn.slice_static"(%440) <{begins = [0 : i32, 1 : i32], ends = [128 : i32, 2 : i32], step = [1 : i32, 1 : i32]}> : (tensor<128x2xsi32, #ttnn_layout98>) -> tensor<128x1xsi32, #ttnn_layout98> loc(#loc171)
        "ttnn.deallocate"(%440) <{force = false}> : (tensor<128x2xsi32, #ttnn_layout98>) -> () loc(#loc171)
        %443 = "ttnn.multiply"(%441, %23) <{dtype = #ttcore.supportedDataTypes<si32>}> : (tensor<128x1xsi32, #ttnn_layout98>, tensor<1x1xsi32, #ttnn_layout72>) -> tensor<128x1xsi32, #ttnn_layout98> loc(#loc172)
        "ttnn.deallocate"(%441) <{force = false}> : (tensor<128x1xsi32, #ttnn_layout98>) -> () loc(#loc172)
        "ttnn.deallocate"(%23) <{force = false}> : (tensor<1x1xsi32, #ttnn_layout72>) -> () loc(#loc172)
        %444 = "ttnn.add"(%443, %442) <{dtype = #ttcore.supportedDataTypes<si32>}> : (tensor<128x1xsi32, #ttnn_layout98>, tensor<128x1xsi32, #ttnn_layout98>) -> tensor<128x1xsi32, #ttnn_layout98> loc(#loc173)
        "ttnn.deallocate"(%443) <{force = false}> : (tensor<128x1xsi32, #ttnn_layout98>) -> () loc(#loc173)
        "ttnn.deallocate"(%442) <{force = false}> : (tensor<128x1xsi32, #ttnn_layout98>) -> () loc(#loc173)
        %445 = "ttnn.reshape"(%444) <{shape = [128 : i32]}> : (tensor<128x1xsi32, #ttnn_layout98>) -> tensor<128xsi32, #ttnn_layout56> loc(#loc173)
        "ttnn.deallocate"(%444) <{force = false}> : (tensor<128x1xsi32, #ttnn_layout98>) -> () loc(#loc173)
        %446 = "ttnn.reshape"(%439) <{shape = [128 : i32]}> : (tensor<32x4xbf16, #ttnn_layout41>) -> tensor<128xbf16, #ttnn_layout50> loc(#loc174)
        "ttnn.deallocate"(%439) <{force = false}> : (tensor<32x4xbf16, #ttnn_layout41>) -> () loc(#loc174)
        %447 = "ttnn.to_layout"(%445) <{layout = #ttnn.layout<row_major>}> : (tensor<128xsi32, #ttnn_layout56>) -> tensor<128xsi32, #ttnn_layout99> loc(#loc151)
        "ttnn.deallocate"(%445) <{force = false}> : (tensor<128xsi32, #ttnn_layout56>) -> () loc(#loc151)
        %448 = "ttnn.to_layout"(%446) <{layout = #ttnn.layout<row_major>}> : (tensor<128xbf16, #ttnn_layout50>) -> tensor<128xbf16, #ttnn_layout49> loc(#loc151)
        "ttnn.deallocate"(%446) <{force = false}> : (tensor<128xbf16, #ttnn_layout50>) -> () loc(#loc151)
        %449 = "ttnn.scatter"(%10, %447, %448) <{dim = 0 : i32, scatter_reduce_type = #ttcore.reduce_type<invalid>}> : (tensor<4096xbf16, #ttnn_layout22>, tensor<128xsi32, #ttnn_layout99>, tensor<128xbf16, #ttnn_layout49>) -> tensor<4096xbf16, #ttnn_layout22> loc(#loc9)
        "ttnn.deallocate"(%448) <{force = false}> : (tensor<128xbf16, #ttnn_layout49>) -> () loc(#loc9)
        "ttnn.deallocate"(%447) <{force = false}> : (tensor<128xsi32, #ttnn_layout99>) -> () loc(#loc9)
        "ttnn.deallocate"(%10) <{force = false}> : (tensor<4096xbf16, #ttnn_layout22>) -> () loc(#loc9)
        %450 = "ttnn.to_layout"(%449) <{layout = #ttnn.layout<tile>}> : (tensor<4096xbf16, #ttnn_layout22>) -> tensor<4096xbf16, #ttnn_layout23> loc(#loc151)
        "ttnn.deallocate"(%449) <{force = false}> : (tensor<4096xbf16, #ttnn_layout22>) -> () loc(#loc151)
        %451 = "ttnn.reshape"(%450) <{shape = [32 : i32, 128 : i32]}> : (tensor<4096xbf16, #ttnn_layout23>) -> tensor<32x128xbf16, #ttnn_layout42> loc(#loc175)
        "ttnn.deallocate"(%450) <{force = false}> : (tensor<4096xbf16, #ttnn_layout23>) -> () loc(#loc175)
        %452 = "ttnn.to_layout"(%451) <{layout = #ttnn.layout<row_major>}> : (tensor<32x128xbf16, #ttnn_layout42>) -> tensor<32x128xbf16, #ttnn_layout100> loc(#loc)
        "ttnn.deallocate"(%451) <{force = false}> : (tensor<32x128xbf16, #ttnn_layout42>) -> () loc(#loc)
        %453 = "ttnn.mesh_partition"(%452) <{cluster_axis = 0 : ui32, dim = 0 : si32}> : (tensor<32x128xbf16, #ttnn_layout100>) -> tensor<8x128xbf16, #ttnn_layout101> loc(#loc)
        "ttnn.deallocate"(%452) <{force = false}> : (tensor<32x128xbf16, #ttnn_layout100>) -> () loc(#loc)
        %454 = "ttnn.to_layout"(%453) <{layout = #ttnn.layout<tile>}> : (tensor<8x128xbf16, #ttnn_layout101>) -> tensor<8x128xbf16, #ttnn_layout42> loc(#loc)
        "ttnn.deallocate"(%453) <{force = false}> : (tensor<8x128xbf16, #ttnn_layout101>) -> () loc(#loc)
        %455 = "ttnn.reshape"(%454) <{shape = [1 : i32, 8 : i32, 128 : i32]}> : (tensor<8x128xbf16, #ttnn_layout42>) -> tensor<1x8x128xbf16, #ttnn_layout102> loc(#loc109)
        %456 = "ttnn.concat"(%455, %455, %455, %455) <{dim = 1 : si32}> : (tensor<1x8x128xbf16, #ttnn_layout102>, tensor<1x8x128xbf16, #ttnn_layout102>, tensor<1x8x128xbf16, #ttnn_layout102>, tensor<1x8x128xbf16, #ttnn_layout102>) -> tensor<1x32x128xbf16, #ttnn_layout102> loc(#loc110)
        "ttnn.deallocate"(%455) <{force = false}> : (tensor<1x8x128xbf16, #ttnn_layout102>) -> () loc(#loc110)
        %457 = "ttnn.all_gather"(%456) <{all_gather_dim = 1 : si32, cluster_axis = 0 : ui32, topology = #ttcore.topology<ring>}> : (tensor<1x32x128xbf16, #ttnn_layout102>) -> tensor<1x128x128xbf16, #ttnn_layout103> loc(#loc110)
        "ttnn.deallocate"(%456) <{force = false}> : (tensor<1x32x128xbf16, #ttnn_layout102>) -> () loc(#loc110)
        %458 = "ttnn.reshape"(%457) <{shape = [1 : i32, 1 : i32, 128 : i32, 128 : i32]}> : (tensor<1x128x128xbf16, #ttnn_layout103>) -> tensor<1x1x128x128xbf16, #ttnn_layout104> loc(#loc111)
        "ttnn.deallocate"(%457) <{force = false}> : (tensor<1x128x128xbf16, #ttnn_layout103>) -> () loc(#loc111)
        %459 = "ttnn.reshape"(%318) <{shape = [8 : i32, 1 : i32, 1 : i32, 2880 : i32]}> : (tensor<8x1x2880xbf16, #ttnn_layout81>) -> tensor<8x1x1x2880xbf16, #ttnn_layout105> loc(#loc112)
        "ttnn.deallocate"(%318) <{force = false}> : (tensor<8x1x2880xbf16, #ttnn_layout81>) -> () loc(#loc112)
        %460 = "ttnn.reshape"(%433) <{shape = [8 : i32, 1 : i32, 1 : i32, 4 : i32]}> : (tensor<8x4xsi32, #ttnn_layout72>) -> tensor<8x1x1x4xsi32, #ttnn_layout106> loc(#loc113)
        "ttnn.deallocate"(%433) <{force = false}> : (tensor<8x4xsi32, #ttnn_layout72>) -> () loc(#loc113)
        %461 = "ttnn.all_gather"(%459) <{all_gather_dim = 0 : si32, cluster_axis = 0 : ui32, topology = #ttcore.topology<ring>}> : (tensor<8x1x1x2880xbf16, #ttnn_layout105>) -> tensor<32x1x1x2880xbf16, #ttnn_layout107> loc(#loc112)
        "ttnn.deallocate"(%459) <{force = false}> : (tensor<8x1x1x2880xbf16, #ttnn_layout105>) -> () loc(#loc112)
        %462 = "ttnn.all_gather"(%460) <{all_gather_dim = 0 : si32, cluster_axis = 0 : ui32, topology = #ttcore.topology<ring>}> : (tensor<8x1x1x4xsi32, #ttnn_layout106>) -> tensor<32x1x1x4xsi32, #ttnn_layout108> loc(#loc113)
        "ttnn.deallocate"(%460) <{force = false}> : (tensor<8x1x1x4xsi32, #ttnn_layout106>) -> () loc(#loc113)
        %463 = "ttnn.to_layout"(%461) <{layout = #ttnn.layout<row_major>}> : (tensor<32x1x1x2880xbf16, #ttnn_layout107>) -> tensor<32x1x1x2880xbf16, #ttnn_layout109> loc(#loc144)
        "ttnn.deallocate"(%461) <{force = false}> : (tensor<32x1x1x2880xbf16, #ttnn_layout107>) -> () loc(#loc144)
        %464 = "ttnn.typecast"(%462) <{dtype = #ttcore.supportedDataTypes<u16>}> : (tensor<32x1x1x4xsi32, #ttnn_layout108>) -> tensor<32x1x1x4xui16, #ttnn_layout110> loc(#loc144)
        "ttnn.deallocate"(%462) <{force = false}> : (tensor<32x1x1x4xsi32, #ttnn_layout108>) -> () loc(#loc144)
        %465 = "ttnn.from_device"(%464) : (tensor<32x1x1x4xui16, #ttnn_layout110>) -> tensor<32x1x1x4xui16, #ttnn_layout111> loc(#loc144)
        "ttnn.deallocate"(%464) <{force = false}> : (tensor<32x1x1x4xui16, #ttnn_layout110>) -> () loc(#loc144)
        %466 = "ttnn.to_layout"(%465) <{layout = #ttnn.layout<row_major>}> : (tensor<32x1x1x4xui16, #ttnn_layout111>) -> tensor<32x1x1x4xui16, #ttnn_layout112> loc(#loc144)
        "ttnn.deallocate"(%465) <{force = false}> : (tensor<32x1x1x4xui16, #ttnn_layout111>) -> () loc(#loc144)
        %467 = "ttnn.to_device"(%466, %27) <{memory_config = #ttnn.memory_config<#dram, <interleaved>>}> : (tensor<32x1x1x4xui16, #ttnn_layout112>, !ttnn.device) -> tensor<32x1x1x4xui16, #ttnn_layout113> loc(#loc144)
        "ttnn.deallocate"(%466) <{force = false}> : (tensor<32x1x1x4xui16, #ttnn_layout112>) -> () loc(#loc144)
        %dispatched, %metadata = "ttnn.all_to_all_dispatch"(%463, %467, %3) <{cluster_axis = 0 : i64, num_devices = 4 : i64}> : (tensor<32x1x1x2880xbf16, #ttnn_layout109>, tensor<32x1x1x4xui16, #ttnn_layout113>, tensor<1x1x128x32xui16, #ttnn_layout13>) -> (tensor<1x128x1x2880xbf16, #ttnn_layout114>, tensor<1x128x1x4xui16, #ttnn_layout115>) loc(#loc4)
        "ttnn.deallocate"(%467) <{force = false}> : (tensor<32x1x1x4xui16, #ttnn_layout113>) -> () loc(#loc4)
        "ttnn.deallocate"(%463) <{force = false}> : (tensor<32x1x1x2880xbf16, #ttnn_layout109>) -> () loc(#loc4)
        %468 = "ttnn.to_layout"(%metadata) <{layout = #ttnn.layout<tile>}> : (tensor<1x128x1x4xui16, #ttnn_layout115>) -> tensor<1x128x1x4xui16, #ttnn_layout116> loc(#loc144)
        "ttnn.deallocate"(%metadata) <{force = false}> : (tensor<1x128x1x4xui16, #ttnn_layout115>) -> () loc(#loc144)
        %469 = "ttnn.typecast"(%468) <{dtype = #ttcore.supportedDataTypes<si32>}> : (tensor<1x128x1x4xui16, #ttnn_layout116>) -> tensor<1x128x1x4xsi32, #ttnn_layout117> loc(#loc144)
        "ttnn.deallocate"(%468) <{force = false}> : (tensor<1x128x1x4xui16, #ttnn_layout116>) -> () loc(#loc144)
        %470 = "ttnn.to_layout"(%dispatched) <{layout = #ttnn.layout<tile>}> : (tensor<1x128x1x2880xbf16, #ttnn_layout114>) -> tensor<1x128x1x2880xbf16, #ttnn_layout118> loc(#loc144)
        "ttnn.deallocate"(%dispatched) <{force = false}> : (tensor<1x128x1x2880xbf16, #ttnn_layout114>) -> () loc(#loc144)
        %471 = "ttnn.reshape"(%469) <{shape = [1 : i32, 1 : i32, 128 : i32, 4 : i32]}> : (tensor<1x128x1x4xsi32, #ttnn_layout117>) -> tensor<1x1x128x4xsi32, #ttnn_layout119> loc(#loc114)
        "ttnn.deallocate"(%469) <{force = false}> : (tensor<1x128x1x4xsi32, #ttnn_layout117>) -> () loc(#loc114)
        %472 = "ttnn.to_layout"(%458) <{layout = #ttnn.layout<row_major>}> : (tensor<1x1x128x128xbf16, #ttnn_layout104>) -> tensor<1x1x128x128xbf16, #ttnn_layout120> loc(#loc176)
        "ttnn.deallocate"(%458) <{force = false}> : (tensor<1x1x128x128xbf16, #ttnn_layout104>) -> () loc(#loc176)
        %473 = "ttnn.typecast"(%471) <{dtype = #ttcore.supportedDataTypes<u16>}> : (tensor<1x1x128x4xsi32, #ttnn_layout119>) -> tensor<1x1x128x4xui16, #ttnn_layout121> loc(#loc176)
        "ttnn.deallocate"(%471) <{force = false}> : (tensor<1x1x128x4xsi32, #ttnn_layout119>) -> () loc(#loc176)
        %474 = "ttnn.from_device"(%473) : (tensor<1x1x128x4xui16, #ttnn_layout121>) -> tensor<1x1x128x4xui16, #ttnn_layout122> loc(#loc176)
        "ttnn.deallocate"(%473) <{force = false}> : (tensor<1x1x128x4xui16, #ttnn_layout121>) -> () loc(#loc176)
        %475 = "ttnn.to_layout"(%474) <{layout = #ttnn.layout<row_major>}> : (tensor<1x1x128x4xui16, #ttnn_layout122>) -> tensor<1x1x128x4xui16, #ttnn_layout123> loc(#loc176)
        "ttnn.deallocate"(%474) <{force = false}> : (tensor<1x1x128x4xui16, #ttnn_layout122>) -> () loc(#loc176)
        %476 = "ttnn.to_device"(%475, %27) <{memory_config = #ttnn.memory_config<#dram, <interleaved>>}> : (tensor<1x1x128x4xui16, #ttnn_layout123>, !ttnn.device) -> tensor<1x1x128x4xui16, #ttnn_layout124> loc(#loc176)
        "ttnn.deallocate"(%475) <{force = false}> : (tensor<1x1x128x4xui16, #ttnn_layout123>) -> () loc(#loc176)
        %mapping, %reduced = "ttnn.moe_expert_token_remap"(%472, %3, %476) <{reduction_size = 32 : i64}> : (tensor<1x1x128x128xbf16, #ttnn_layout120>, tensor<1x1x128x32xui16, #ttnn_layout13>, tensor<1x1x128x4xui16, #ttnn_layout124>) -> (tensor<1x1x128x4xbf16, #ttnn_layout125>, tensor<1x1x4x4xui16, #ttnn_layout126>) loc(#loc115)
        "ttnn.deallocate"(%mapping) <{force = false}> : (tensor<1x1x128x4xbf16, #ttnn_layout125>) -> () loc(#loc115)
        "ttnn.deallocate"(%472) <{force = false}> : (tensor<1x1x128x128xbf16, #ttnn_layout120>) -> () loc(#loc115)
        %477 = "ttnn.to_layout"(%reduced) <{layout = #ttnn.layout<tile>}> : (tensor<1x1x4x4xui16, #ttnn_layout126>) -> tensor<1x1x4x4xui16, #ttnn_layout127> loc(#loc176)
        %478 = "ttnn.typecast"(%477) <{dtype = #ttcore.supportedDataTypes<bf16>}> : (tensor<1x1x4x4xui16, #ttnn_layout127>) -> tensor<1x1x4x4xbf16, #ttnn_layout3> loc(#loc176)
        "ttnn.deallocate"(%477) <{force = false}> : (tensor<1x1x4x4xui16, #ttnn_layout127>) -> () loc(#loc176)
        %479 = "ttnn.reshape"(%470) <{shape = [4 : i32, 1 : i32, 32 : i32, 2880 : i32]}> : (tensor<1x128x1x2880xbf16, #ttnn_layout118>) -> tensor<4x1x32x2880xbf16, #ttnn_layout128> loc(#loc116)
        "ttnn.deallocate"(%470) <{force = false}> : (tensor<1x128x1x2880xbf16, #ttnn_layout118>) -> () loc(#loc116)
        %480 = "ttnn.reshape"(%478) <{shape = [4 : i32, 1 : i32, 1 : i32, 4 : i32]}> : (tensor<1x1x4x4xbf16, #ttnn_layout3>) -> tensor<4x1x1x4xbf16, #ttnn_layout129> loc(#loc117)
        "ttnn.deallocate"(%478) <{force = false}> : (tensor<1x1x4x4xbf16, #ttnn_layout3>) -> () loc(#loc117)
        %481 = "ttnn.to_layout"(%480) <{layout = #ttnn.layout<row_major>}> : (tensor<4x1x1x4xbf16, #ttnn_layout129>) -> tensor<4x1x1x4xbf16, #ttnn_layout130> loc(#loc177)
        "ttnn.deallocate"(%480) <{force = false}> : (tensor<4x1x1x4xbf16, #ttnn_layout129>) -> () loc(#loc177)
        %482 = "ttnn.sparse_matmul"(%479, %25, %481) <{is_input_a_sparse = false, is_input_b_sparse = true, nnz = 0 : i64, program_config = #ttnn.matmul_multi_core_reuse_multi_cast_1d_program_config<compute_with_storage_grid_size = #ttnn.core_coord<12, 10>, in0_block_w = 1, out_subblock_h = 1, out_subblock_w = 1, out_block_h = 1, out_block_w = 1, per_core_m = 1, per_core_n = 15, fuse_batch = false, mcast_in0 = true, gather_in0 = false, hop_cores = #ttnn.core_range_set<>, num_global_cb_receivers = 0, untilize_out = false>}> : (tensor<4x1x32x2880xbf16, #ttnn_layout128>, tensor<1x4x2880x5760xbf16, #ttnn_layout74>, tensor<4x1x1x4xbf16, #ttnn_layout130>) -> tensor<4x1x1x4x32x5760xbf16, #ttnn_layout131> loc(#loc118)
        "ttnn.deallocate"(%481) <{force = false}> : (tensor<4x1x1x4xbf16, #ttnn_layout130>) -> () loc(#loc118)
        "ttnn.deallocate"(%479) <{force = false}> : (tensor<4x1x32x2880xbf16, #ttnn_layout128>) -> () loc(#loc118)
        "ttnn.deallocate"(%25) <{force = false}> : (tensor<1x4x2880x5760xbf16, #ttnn_layout74>) -> () loc(#loc118)
        %483 = "ttnn.reshape"(%482) <{shape = [4 : i32, 4 : i32, 32 : i32, 5760 : i32]}> : (tensor<4x1x1x4x32x5760xbf16, #ttnn_layout131>) -> tensor<4x4x32x5760xbf16, #ttnn_layout132> loc(#loc195)
        "ttnn.deallocate"(%482) <{force = false}> : (tensor<4x1x1x4x32x5760xbf16, #ttnn_layout131>) -> () loc(#loc195)
        %484 = "ttnn.add"(%483, %6) <{dtype = #ttcore.supportedDataTypes<bf16>}> : (tensor<4x4x32x5760xbf16, #ttnn_layout132>, tensor<1x4x1x5760xbf16, #ttnn_layout25>) -> tensor<4x4x32x5760xbf16, #ttnn_layout132> loc(#loc119)
        "ttnn.deallocate"(%483) <{force = false}> : (tensor<4x4x32x5760xbf16, #ttnn_layout132>) -> () loc(#loc119)
        "ttnn.deallocate"(%6) <{force = false}> : (tensor<1x4x1x5760xbf16, #ttnn_layout25>) -> () loc(#loc119)
        %485 = "ttnn.slice_static"(%484) <{begins = [0 : i32, 0 : i32, 0 : i32, 1 : i32], ends = [4 : i32, 4 : i32, 32 : i32, 5760 : i32], step = [1 : i32, 1 : i32, 1 : i32, 2 : i32]}> : (tensor<4x4x32x5760xbf16, #ttnn_layout132>) -> tensor<4x4x32x2880xbf16, #ttnn_layout133> loc(#loc120)
        %486 = "ttnn.clamp_scalar"(%485) <{max = 7.000000e+00 : f32, min = -7.000000e+00 : f32}> : (tensor<4x4x32x2880xbf16, #ttnn_layout133>) -> tensor<4x4x32x2880xbf16, #ttnn_layout133> loc(#loc121)
        "ttnn.deallocate"(%485) <{force = false}> : (tensor<4x4x32x2880xbf16, #ttnn_layout133>) -> () loc(#loc121)
        %487 = "ttnn.add"(%486, %17) <{dtype = #ttcore.supportedDataTypes<bf16>}> : (tensor<4x4x32x2880xbf16, #ttnn_layout133>, tensor<1x1x1x1xbf16, #ttnn_layout3>) -> tensor<4x4x32x2880xbf16, #ttnn_layout133> loc(#loc122)
        "ttnn.deallocate"(%486) <{force = false}> : (tensor<4x4x32x2880xbf16, #ttnn_layout133>) -> () loc(#loc122)
        "ttnn.deallocate"(%17) <{force = false}> : (tensor<1x1x1x1xbf16, #ttnn_layout3>) -> () loc(#loc122)
        %488 = "ttnn.slice_static"(%484) <{begins = [0 : i32, 0 : i32, 0 : i32, 0 : i32], ends = [4 : i32, 4 : i32, 32 : i32, 5760 : i32], step = [1 : i32, 1 : i32, 1 : i32, 2 : i32]}> : (tensor<4x4x32x5760xbf16, #ttnn_layout132>) -> tensor<4x4x32x2880xbf16, #ttnn_layout133> loc(#loc123)
        "ttnn.deallocate"(%484) <{force = false}> : (tensor<4x4x32x5760xbf16, #ttnn_layout132>) -> () loc(#loc123)
        %489 = "ttnn.clamp_scalar"(%488) <{max = 7.000000e+00 : f32, min = 0xFF800000 : f32}> : (tensor<4x4x32x2880xbf16, #ttnn_layout133>) -> tensor<4x4x32x2880xbf16, #ttnn_layout133> loc(#loc124)
        "ttnn.deallocate"(%488) <{force = false}> : (tensor<4x4x32x2880xbf16, #ttnn_layout133>) -> () loc(#loc124)
        %490 = "ttnn.multiply"(%489, %1) <{dtype = #ttcore.supportedDataTypes<bf16>}> : (tensor<4x4x32x2880xbf16, #ttnn_layout133>, tensor<1x1x1x1xbf16, #ttnn_layout3>) -> tensor<4x4x32x2880xbf16, #ttnn_layout133> loc(#loc125)
        "ttnn.deallocate"(%1) <{force = false}> : (tensor<1x1x1x1xbf16, #ttnn_layout3>) -> () loc(#loc125)
        %491 = "ttnn.sigmoid"(%490) : (tensor<4x4x32x2880xbf16, #ttnn_layout133>) -> tensor<4x4x32x2880xbf16, #ttnn_layout133> loc(#loc126)
        "ttnn.deallocate"(%490) <{force = false}> : (tensor<4x4x32x2880xbf16, #ttnn_layout133>) -> () loc(#loc126)
        %492 = "ttnn.multiply"(%489, %491) <{dtype = #ttcore.supportedDataTypes<bf16>}> : (tensor<4x4x32x2880xbf16, #ttnn_layout133>, tensor<4x4x32x2880xbf16, #ttnn_layout133>) -> tensor<4x4x32x2880xbf16, #ttnn_layout133> loc(#loc127)
        "ttnn.deallocate"(%491) <{force = false}> : (tensor<4x4x32x2880xbf16, #ttnn_layout133>) -> () loc(#loc127)
        "ttnn.deallocate"(%489) <{force = false}> : (tensor<4x4x32x2880xbf16, #ttnn_layout133>) -> () loc(#loc127)
        %493 = "ttnn.multiply"(%487, %492) <{dtype = #ttcore.supportedDataTypes<bf16>}> : (tensor<4x4x32x2880xbf16, #ttnn_layout133>, tensor<4x4x32x2880xbf16, #ttnn_layout133>) -> tensor<4x4x32x2880xbf16, #ttnn_layout133> loc(#loc128)
        "ttnn.deallocate"(%492) <{force = false}> : (tensor<4x4x32x2880xbf16, #ttnn_layout133>) -> () loc(#loc128)
        "ttnn.deallocate"(%487) <{force = false}> : (tensor<4x4x32x2880xbf16, #ttnn_layout133>) -> () loc(#loc128)
        %494 = "ttnn.from_device"(%reduced) : (tensor<1x1x4x4xui16, #ttnn_layout126>) -> tensor<1x1x4x4xui16, #ttnn_layout134> loc(#loc178)
        "ttnn.deallocate"(%reduced) <{force = false}> : (tensor<1x1x4x4xui16, #ttnn_layout126>) -> () loc(#loc178)
        %495 = "ttnn.typecast"(%494) <{dtype = #ttcore.supportedDataTypes<bf16>}> : (tensor<1x1x4x4xui16, #ttnn_layout134>) -> tensor<1x1x4x4xbf16, #ttnn_layout135> loc(#loc178)
        "ttnn.deallocate"(%494) <{force = false}> : (tensor<1x1x4x4xui16, #ttnn_layout134>) -> () loc(#loc178)
        %496 = "ttnn.to_device"(%495, %27) <{memory_config = #ttnn.memory_config<#dram, <interleaved>>}> : (tensor<1x1x4x4xbf16, #ttnn_layout135>, !ttnn.device) -> tensor<1x1x4x4xbf16, #ttnn_layout136> loc(#loc178)
        "ttnn.deallocate"(%495) <{force = false}> : (tensor<1x1x4x4xbf16, #ttnn_layout135>) -> () loc(#loc178)
        %497 = "ttnn.sparse_matmul"(%493, %19, %496) <{is_input_a_sparse = true, is_input_b_sparse = false, nnz = 0 : i64, program_config = #ttnn.matmul_multi_core_reuse_multi_cast_1d_program_config<compute_with_storage_grid_size = #ttnn.core_coord<12, 10>, in0_block_w = 1, out_subblock_h = 1, out_subblock_w = 1, out_block_h = 1, out_block_w = 1, per_core_m = 1, per_core_n = 8, fuse_batch = false, mcast_in0 = true, gather_in0 = false, hop_cores = #ttnn.core_range_set<>, num_global_cb_receivers = 0, untilize_out = false>}> : (tensor<4x4x32x2880xbf16, #ttnn_layout133>, tensor<1x4x2880x2880xbf16, #ttnn_layout62>, tensor<1x1x4x4xbf16, #ttnn_layout136>) -> tensor<4x4x32x2880xbf16, #ttnn_layout133> loc(#loc129)
        "ttnn.deallocate"(%496) <{force = false}> : (tensor<1x1x4x4xbf16, #ttnn_layout136>) -> () loc(#loc129)
        "ttnn.deallocate"(%493) <{force = false}> : (tensor<4x4x32x2880xbf16, #ttnn_layout133>) -> () loc(#loc129)
        "ttnn.deallocate"(%19) <{force = false}> : (tensor<1x4x2880x2880xbf16, #ttnn_layout62>) -> () loc(#loc129)
        %498 = "ttnn.add"(%497, %13) <{dtype = #ttcore.supportedDataTypes<bf16>}> : (tensor<4x4x32x2880xbf16, #ttnn_layout133>, tensor<1x4x1x2880xbf16, #ttnn_layout52>) -> tensor<4x4x32x2880xbf16, #ttnn_layout133> loc(#loc130)
        "ttnn.deallocate"(%497) <{force = false}> : (tensor<4x4x32x2880xbf16, #ttnn_layout133>) -> () loc(#loc130)
        "ttnn.deallocate"(%13) <{force = false}> : (tensor<1x4x1x2880xbf16, #ttnn_layout52>) -> () loc(#loc130)
        %499 = "ttnn.permute"(%498) <{permutation = array<i64: 1, 0, 2, 3>}> : (tensor<4x4x32x2880xbf16, #ttnn_layout133>) -> tensor<4x4x32x2880xbf16, #ttnn_layout133> loc(#loc130)
        "ttnn.deallocate"(%498) <{force = false}> : (tensor<4x4x32x2880xbf16, #ttnn_layout133>) -> () loc(#loc130)
        %500 = "ttnn.reshape"(%499) <{shape = [4 : i32, 1 : i32, 128 : i32, 2880 : i32]}> : (tensor<4x4x32x2880xbf16, #ttnn_layout133>) -> tensor<4x1x128x2880xbf16, #ttnn_layout137> loc(#loc130)
        "ttnn.deallocate"(%499) <{force = false}> : (tensor<4x4x32x2880xbf16, #ttnn_layout133>) -> () loc(#loc130)
        %501 = "ttnn.to_layout"(%500) <{layout = #ttnn.layout<row_major>}> : (tensor<4x1x128x2880xbf16, #ttnn_layout137>) -> tensor<4x1x128x2880xbf16, #ttnn_layout138> loc(#loc179)
        "ttnn.deallocate"(%500) <{force = false}> : (tensor<4x1x128x2880xbf16, #ttnn_layout137>) -> () loc(#loc179)
        %502 = "ttnn.all_to_all_combine"(%501, %476, %3) <{cluster_axis = 0 : i64, num_devices = 4 : i64, num_experts_per_tok = 4 : i64, output_shard_dim = 2 : i64}> : (tensor<4x1x128x2880xbf16, #ttnn_layout138>, tensor<1x1x128x4xui16, #ttnn_layout124>, tensor<1x1x128x32xui16, #ttnn_layout13>) -> tensor<4x1x32x2880xbf16, #ttnn_layout139> loc(#loc131)
        "ttnn.deallocate"(%501) <{force = false}> : (tensor<4x1x128x2880xbf16, #ttnn_layout138>) -> () loc(#loc131)
        "ttnn.deallocate"(%476) <{force = false}> : (tensor<1x1x128x4xui16, #ttnn_layout124>) -> () loc(#loc131)
        "ttnn.deallocate"(%3) <{force = false}> : (tensor<1x1x128x32xui16, #ttnn_layout13>) -> () loc(#loc131)
        %503 = "ttnn.to_layout"(%502) <{layout = #ttnn.layout<tile>}> : (tensor<4x1x32x2880xbf16, #ttnn_layout139>) -> tensor<4x1x32x2880xbf16, #ttnn_layout128> loc(#loc179)
        "ttnn.deallocate"(%502) <{force = false}> : (tensor<4x1x32x2880xbf16, #ttnn_layout139>) -> () loc(#loc179)
        %504 = "ttnn.reshape"(%503) <{shape = [1 : i32, 4 : i32, 1 : i32, 32 : i32, 2880 : i32]}> : (tensor<4x1x32x2880xbf16, #ttnn_layout128>) -> tensor<1x4x1x32x2880xbf16, #ttnn_layout140> loc(#loc180)
        "ttnn.deallocate"(%503) <{force = false}> : (tensor<4x1x32x2880xbf16, #ttnn_layout128>) -> () loc(#loc180)
        %505 = "ttnn.all_gather"(%504) <{all_gather_dim = 0 : si32, cluster_axis = 1 : ui32, topology = #ttcore.topology<ring>}> : (tensor<1x4x1x32x2880xbf16, #ttnn_layout140>) -> tensor<8x4x1x32x2880xbf16, #ttnn_layout141> loc(#loc181)
        "ttnn.deallocate"(%504) <{force = false}> : (tensor<1x4x1x32x2880xbf16, #ttnn_layout140>) -> () loc(#loc181)
        %506 = "ttnn.sum"(%505) <{compute_config = #ttnn.device_compute_kernel_config<math_fidelity = hifi4, fp32_dest_acc_en = true>, dim_arg = [0 : i32], keep_dim = false}> : (tensor<8x4x1x32x2880xbf16, #ttnn_layout141>) -> tensor<4x1x32x2880xbf16, #ttnn_layout128> loc(#loc131)
        "ttnn.deallocate"(%505) <{force = false}> : (tensor<8x4x1x32x2880xbf16, #ttnn_layout141>) -> () loc(#loc131)
        %507 = "ttnn.to_layout"(%506) <{layout = #ttnn.layout<row_major>}> : (tensor<4x1x32x2880xbf16, #ttnn_layout128>) -> tensor<4x1x32x2880xbf16, #ttnn_layout139> loc(#loc)
        "ttnn.deallocate"(%506) <{force = false}> : (tensor<4x1x32x2880xbf16, #ttnn_layout128>) -> () loc(#loc)
        %508 = "ttnn.mesh_partition"(%507) <{cluster_axis = 0 : ui32, dim = 2 : si32}> : (tensor<4x1x32x2880xbf16, #ttnn_layout139>) -> tensor<4x1x8x2880xbf16, #ttnn_layout142> loc(#loc)
        "ttnn.deallocate"(%507) <{force = false}> : (tensor<4x1x32x2880xbf16, #ttnn_layout139>) -> () loc(#loc)
        %509 = "ttnn.to_layout"(%508) <{layout = #ttnn.layout<tile>}> : (tensor<4x1x8x2880xbf16, #ttnn_layout142>) -> tensor<4x1x8x2880xbf16, #ttnn_layout128> loc(#loc)
        "ttnn.deallocate"(%508) <{force = false}> : (tensor<4x1x8x2880xbf16, #ttnn_layout142>) -> () loc(#loc)
        %510 = "ttnn.eq"(%434, %15) <{dtype = #ttcore.supportedDataTypes<bf16>}> : (tensor<8x4x1xsi32, #ttnn_layout70>, tensor<1x1x128xsi32, #ttnn_layout55>) -> tensor<8x4x128xbf16, #ttnn_layout143> loc(#loc132)
        "ttnn.deallocate"(%434) <{force = false}> : (tensor<8x4x1xsi32, #ttnn_layout70>) -> () loc(#loc132)
        "ttnn.deallocate"(%15) <{force = false}> : (tensor<1x1x128xsi32, #ttnn_layout55>) -> () loc(#loc132)
        %511 = "ttnn.reshape"(%454) <{shape = [8 : i32, 128 : i32, 1 : i32]}> : (tensor<8x128xbf16, #ttnn_layout42>) -> tensor<8x128x1xbf16, #ttnn_layout144> loc(#loc182)
        "ttnn.deallocate"(%454) <{force = false}> : (tensor<8x128xbf16, #ttnn_layout42>) -> () loc(#loc182)
        %512 = "ttnn.matmul"(%510, %511) <{compute_config = #ttnn.device_compute_kernel_config<math_fidelity = hifi4, fp32_dest_acc_en = true>, transpose_a = false, transpose_b = false}> : (tensor<8x4x128xbf16, #ttnn_layout143>, tensor<8x128x1xbf16, #ttnn_layout144>) -> tensor<8x4x1xbf16, #ttnn_layout83> loc(#loc133)
        "ttnn.deallocate"(%511) <{force = false}> : (tensor<8x128x1xbf16, #ttnn_layout144>) -> () loc(#loc133)
        "ttnn.deallocate"(%510) <{force = false}> : (tensor<8x4x128xbf16, #ttnn_layout143>) -> () loc(#loc133)
        %513 = "ttnn.reshape"(%512) <{shape = [8 : i32, 4 : i32]}> : (tensor<8x4x1xbf16, #ttnn_layout83>) -> tensor<8x4xbf16, #ttnn_layout41> loc(#loc183)
        "ttnn.deallocate"(%512) <{force = false}> : (tensor<8x4x1xbf16, #ttnn_layout83>) -> () loc(#loc183)
        %514 = "ttnn.permute"(%513) <{permutation = array<i64: 1, 0>}> : (tensor<8x4xbf16, #ttnn_layout41>) -> tensor<4x8xbf16, #ttnn_layout41> loc(#loc134)
        "ttnn.deallocate"(%513) <{force = false}> : (tensor<8x4xbf16, #ttnn_layout41>) -> () loc(#loc134)
        %515 = "ttnn.reshape"(%514) <{shape = [4 : i32, 1 : i32, 8 : i32, 1 : i32]}> : (tensor<4x8xbf16, #ttnn_layout41>) -> tensor<4x1x8x1xbf16, #ttnn_layout129> loc(#loc135)
        "ttnn.deallocate"(%514) <{force = false}> : (tensor<4x8xbf16, #ttnn_layout41>) -> () loc(#loc135)
        %516 = "ttnn.multiply"(%509, %515) <{dtype = #ttcore.supportedDataTypes<bf16>}> : (tensor<4x1x8x2880xbf16, #ttnn_layout128>, tensor<4x1x8x1xbf16, #ttnn_layout129>) -> tensor<4x1x8x2880xbf16, #ttnn_layout128> loc(#loc136)
        "ttnn.deallocate"(%515) <{force = false}> : (tensor<4x1x8x1xbf16, #ttnn_layout129>) -> () loc(#loc136)
        "ttnn.deallocate"(%509) <{force = false}> : (tensor<4x1x8x2880xbf16, #ttnn_layout128>) -> () loc(#loc136)
        %517 = "ttnn.sum"(%516) <{compute_config = #ttnn.device_compute_kernel_config<math_fidelity = hifi4, fp32_dest_acc_en = true>, dim_arg = [0 : i32], keep_dim = false}> : (tensor<4x1x8x2880xbf16, #ttnn_layout128>) -> tensor<1x8x2880xbf16, #ttnn_layout145> loc(#loc137)
        "ttnn.deallocate"(%516) <{force = false}> : (tensor<4x1x8x2880xbf16, #ttnn_layout128>) -> () loc(#loc137)
        %518 = "ttnn.reshape"(%517) <{shape = [8 : i32, 1 : i32, 2880 : i32]}> : (tensor<1x8x2880xbf16, #ttnn_layout145>) -> tensor<8x1x2880xbf16, #ttnn_layout81> loc(#loc138)
        "ttnn.deallocate"(%517) <{force = false}> : (tensor<1x8x2880xbf16, #ttnn_layout145>) -> () loc(#loc138)
        %519 = "ttnn.add"(%309, %518) <{dtype = #ttcore.supportedDataTypes<bf16>}> : (tensor<8x1x2880xbf16, #ttnn_layout81>, tensor<8x1x2880xbf16, #ttnn_layout81>) -> tensor<8x1x2880xbf16, #ttnn_layout81> loc(#loc139)
        "ttnn.deallocate"(%518) <{force = false}> : (tensor<8x1x2880xbf16, #ttnn_layout81>) -> () loc(#loc139)
        "ttnn.deallocate"(%309) <{force = false}> : (tensor<8x1x2880xbf16, #ttnn_layout81>) -> () loc(#loc139)
        %520 = "ttnn.mesh_shard"(%519, %27) <{shard_dims = array<i64: 0, -1>, shard_direction = #ttcore.shard_direction<shard_to_full>, shard_shape = array<i64: 4, 1, 1>, shard_type = #ttcore.shard_type<identity>}> : (tensor<8x1x2880xbf16, #ttnn_layout81>, !ttnn.device) -> tensor<32x1x2880xbf16, #ttnn_layout78> loc(#loc)
        return %520 : tensor<32x1x2880xbf16, #ttnn_layout78> loc(#loc)
      } loc(#loc)
    } loc(#loc)
  } loc(#loc)
} loc(#loc)
#loc1 = loc("reshape.321")
#loc2 = loc("reshape.472")
#loc3 = loc("convert.53")
#loc4 = loc("custom-call.409")
#loc5 = loc("add.139")
#loc6 = loc("add.190")
#loc7 = loc("reshape.32")
#loc8 = loc("broadcast.114")
#loc9 = loc("scatter.391")
#loc10 = loc("broadcast.341")
#loc11 = loc("convert.8")
#loc12 = loc("broadcast.477")
#loc13 = loc("reshape.184")
#loc14 = loc("broadcast.394")
#loc15 = loc("reshape.429")
#loc16 = loc("convert.23")
#loc17 = loc("broadcast.330")
#loc18 = loc("transpose.16")
#loc19 = loc("convert.17")
#loc20 = loc("iota.385")
#loc21 = loc("reshape.442")
#loc22 = loc("add.98")
#loc45 = loc("convert.60")
#loc46 = loc("power.62")
#loc47 = loc("reduce.69")
#loc48 = loc("multiply.78")
#loc49 = loc("add.83")
#loc50 = loc("rsqrt.84")
#loc51 = loc("multiply.87")
#loc52 = loc("multiply.89")
#loc53 = loc("convert.90")
#loc54 = loc("dot.185")
#loc55 = loc("slice.193")
#loc56 = loc("broadcast.209")
#loc57 = loc("multiply.210")
#loc58 = loc("slice.197")
#loc59 = loc("broadcast.206")
#loc60 = loc("multiply.207")
#loc61 = loc("subtract.213")
#loc62 = loc("multiply.200")
#loc63 = loc("multiply.196")
#loc64 = loc("add.203")
#loc65 = loc("concatenate.214")
#loc66 = loc("dot.134")
#loc67 = loc("slice.142")
#loc68 = loc("multiply.162")
#loc69 = loc("slice.149")
#loc70 = loc("multiply.159")
#loc71 = loc("subtract.165")
#loc72 = loc("multiply.152")
#loc73 = loc("multiply.145")
#loc74 = loc("add.155")
#loc75 = loc("concatenate.166")
#loc76 = loc("broadcast.170")
#loc77 = loc("dot.215")
#loc78 = loc("multiply.218")
#loc79 = loc("add.223")
#loc80 = loc("concatenate.224")
#loc81 = loc("divide.285")
#loc82 = loc("slice.286")
#loc83 = loc("dot.93")
#loc84 = loc("broadcast.104")
#loc85 = loc("dot.287")
#loc86 = loc("reshape.291")
#loc87 = loc("dot.292")
#loc88 = loc("add.297")
#loc89 = loc("add.300")
#loc90 = loc("convert.302")
#loc91 = loc("power.304")
#loc92 = loc("reduce.311")
#loc93 = loc("multiply.320")
#loc94 = loc("add.325")
#loc95 = loc("rsqrt.326")
#loc96 = loc("multiply.329")
#loc97 = loc("multiply.331")
#loc98 = loc("convert.332")
#loc99 = loc("convert.335")
#loc100 = loc("dot.336")
#loc101 = loc("add.342")
#loc102 = loc("convert.343")
#loc103 = loc("sort.357")
#loc104 = loc("slice.361")
#loc105 = loc("reshape.386")
#loc106 = loc("concatenate.387")
#loc107 = loc("slice.359")
#loc108 = loc("divide.379")
#loc109 = loc("reshape.419")
#loc110 = loc("concatenate.421")
#loc111 = loc("reshape.423")
#loc112 = loc("reshape.408")
#loc113 = loc("reshape.407")
#loc114 = loc("reshape.412")
#loc115 = loc("custom-call.424")
#loc116 = loc("reshape.444")
#loc117 = loc("reshape.439")
#loc118 = loc("custom-call.445")
#loc119 = loc("add.451")
#loc120 = loc("slice.464")
#loc121 = loc("clamp.467")
#loc122 = loc("add.470")
#loc123 = loc("slice.452")
#loc124 = loc("clamp.455")
#loc125 = loc("multiply.457")
#loc126 = loc("logistic.458")
#loc127 = loc("multiply.459")
#loc128 = loc("multiply.471")
#loc129 = loc("custom-call.473")
#loc130 = loc("add.478")
#loc131 = loc("custom-call.481")
#loc132 = loc("compare.397")
#loc133 = loc("dot.399")
#loc134 = loc("transpose.401")
#loc135 = loc("broadcast.483")
#loc136 = loc("multiply.484")
#loc137 = loc("reduce.491")
#loc138 = loc("reshape.492")
#loc139 = loc("add.495")
#loc140 = loc("reshape.321_tm1"(#loc1))
#loc141 = loc("reshape.472_tm1"(#loc2))
#loc142 = loc("convert.53_reshape_to_2d"(#loc3))
#loc143 = loc("convert.53_all_gather_2d"(#loc3))
#loc144 = loc("custom-call.409_workaround"(#loc4))
#loc145 = loc("add.139_tm0"(#loc5))
#loc146 = loc("add.190_tm0"(#loc6))
#loc147 = loc("reshape.472_tm0"(#loc2))
#loc148 = loc("reshape.32_reshape_to_2d"(#loc7))
#loc149 = loc("reshape.32_all_gather_2d"(#loc7))
#loc150 = loc("scatter.391_input_flatten"(#loc9))
#loc151 = loc("scatter.391_workaround"(#loc9))
#loc152 = loc("broadcast.341_tm0"(#loc10))
#loc153 = loc("reshape.184_tm0"(#loc13))
#loc154 = loc("convert.23_reshape_to_2d"(#loc16))
#loc155 = loc("convert.23_all_gather_2d"(#loc16))
#loc156 = loc("scatter.391_stride_0"(#loc9))
#loc157 = loc("add.98_tm0"(#loc22))
#loc158 = loc("dot.185_reshape_to_4d"(#loc54))
#loc159 = loc("dot.185_reduce_scatter_4d"(#loc54))
#loc160 = loc("dot.134_reshape_to_4d"(#loc66))
#loc161 = loc("dot.134_reduce_scatter_4d"(#loc66))
#loc162 = loc("dot.93_reshape_to_4d"(#loc83))
#loc163 = loc("dot.93_reduce_scatter_4d"(#loc83))
#loc164 = loc("dot.292_reshape"(#loc87))
#loc165 = loc("dot.292_allGather"(#loc87))
#loc166 = loc("dot.336_reshape_to_4d"(#loc100))
#loc167 = loc("dot.336_reduce_scatter_4d"(#loc100))
#loc168 = loc("sort.357_workaround"(#loc103))
#loc169 = loc("scatter.391_flatten_repeated_indices"(#loc9))
#loc170 = loc("scatter.391_slice_orig_idx_0"(#loc9))
#loc171 = loc("scatter.391_slice_orig_idx_1"(#loc9))
#loc172 = loc("scatter.391_dim_0_stride_mul"(#loc9))
#loc173 = loc("scatter.391_add_dim_1"(#loc9))
#loc174 = loc("scatter.391_update_flatten"(#loc9))
#loc175 = loc("scatter.391_result_reshape"(#loc9))
#loc176 = loc("custom-call.424_workaround"(#loc115))
#loc177 = loc("custom-call.445_workaround"(#loc118))
#loc178 = loc("custom-call.473_workaround"(#loc129))
#loc179 = loc("custom-call.481_workaround"(#loc131))
#loc180 = loc("custom-call.481_reshape"(#loc131))
#loc181 = loc("custom-call.481_allGather"(#loc131))
#loc182 = loc("dot.399_reshapeRhs"(#loc133))
#loc183 = loc("dot.399_reshapeOutput"(#loc133))
#loc184 = loc("reshape.472_tm1_tm1"(#loc141))
#loc185 = loc("reshape.472_tm0_tm0"(#loc147))
#loc186 = loc("reshape.184_tm0_tm0"(#loc153))
#loc187 = loc("reshape.472_tm0_tm1"(#loc147))
#loc188 = loc("reshape.472_tm1_tm1_tm0"(#loc184))
#loc189 = loc("reshape.472_tm0_tm0_tm0"(#loc185))
#loc190 = loc("reshape.184_tm0_tm0_tm1"(#loc186))
#loc191 = loc("reshape.184_tm0_tm0_tm0"(#loc186))
#loc192 = loc("reshape.472_tm1_tm1_tm0_tm1"(#loc188))
#loc193 = loc("reshape.472_tm0_tm0_tm0_tm1"(#loc189))
#loc194 = loc("reshape.184_tm0_tm0_tm1_tm0"(#loc190))
#loc195 = loc("reshape.472_tm0_tm0_tm0_tm0"(#loc189))
#loc196 = loc("reshape.184_tm0_tm0_tm1_tm0_tm1"(#loc194))
------------------ END OF MLIR MODULE ------------------
