#loc1 = loc("p0.3")
#loc2 = loc("p1.11")
#loc3 = loc("p2.28")
#loc4 = loc("p3.32")
#loc5 = loc("p4.37")
#loc6 = loc("p5.46")
#loc7 = loc("p6.51")
#loc8 = loc("p7.138")
#loc9 = loc("p8.147")
#loc10 = loc("p9.151")
#loc11 = loc("p10.175")
#loc12 = loc("p11.186")
#loc13 = loc("p12.190")
#loc14 = loc("p13.195")
#loc15 = loc("p14.207")
#loc16 = loc("p15.215")
#loc17 = loc("p16.224")
#loc18 = loc("p17.235")
#loc19 = loc("p18.239")
#loc20 = loc("p19.250")
#loc21 = loc("p20.265")
#loc22 = loc("p21.296")
#loc23 = loc("p22.319")
#loc24 = loc("p23.323")
#loc25 = loc("p24.550")
#loc26 = loc("p25.555")
#loc27 = loc("p26.562")
#loc28 = loc("p27.567")
#loc29 = loc("p28.695")
#loc30 = loc("p29.704")
#loc31 = loc("p30.708")
#loc32 = loc("p31.732")
#loc33 = loc("p32.743")
#loc34 = loc("p33.747")
#loc35 = loc("p34.752")
#loc36 = loc("p35.764")
#loc37 = loc("p36.772")
#loc38 = loc("p37.781")
#loc39 = loc("p38.792")
#loc40 = loc("p39.796")
#loc41 = loc("p40.807")
#loc42 = loc("p41.822")
#loc43 = loc("p42.859")
#loc44 = loc("p43.863")
#loc45 = loc("p44.1090")
#loc46 = loc("p45.1095")
#loc47 = loc("p46.1102")
#loc48 = loc("p47.1107")
#loc49 = loc("p48.1235")
#loc50 = loc("p49.1244")
#loc51 = loc("p50.1248")
#loc52 = loc("p51.1272")
#loc53 = loc("p52.1283")
#loc54 = loc("p53.1287")
#loc55 = loc("p54.1292")
#loc56 = loc("p55.1304")
#loc57 = loc("p56.1312")
#loc58 = loc("p57.1321")
#loc59 = loc("p58.1332")
#loc60 = loc("p59.1336")
#loc61 = loc("p60.1347")
#loc62 = loc("p61.1365")
#loc63 = loc("p62.1369")
#loc64 = loc("p63.1596")
#loc65 = loc("p64.1601")
#loc66 = loc("p65.1608")
#loc67 = loc("p66.1613")
#loc68 = loc("p67.1741")
#loc69 = loc("p68.1750")
#loc70 = loc("p69.1754")
#loc71 = loc("p70.1778")
#loc72 = loc("p71.1789")
#loc73 = loc("p72.1793")
#loc74 = loc("p73.1798")
#loc75 = loc("p74.1810")
#loc76 = loc("p75.1818")
#loc77 = loc("p76.1827")
#loc78 = loc("p77.1838")
#loc79 = loc("p78.1842")
#loc80 = loc("p79.1853")
#loc81 = loc("p80.1871")
#loc82 = loc("p81.1875")
#loc83 = loc("p82.2102")
#loc84 = loc("p83.2107")
#loc85 = loc("p84.2114")
#loc86 = loc("p85.2119")
#loc87 = loc("p86.2247")
#loc88 = loc("p87.2256")
#loc89 = loc("p88.2260")
#loc90 = loc("p89.2284")
#loc91 = loc("p90.2295")
#loc92 = loc("p91.2299")
#loc93 = loc("p92.2304")
#loc94 = loc("p93.2316")
#loc95 = loc("p94.2324")
#loc96 = loc("p95.2333")
#loc97 = loc("p96.2344")
#loc98 = loc("p97.2348")
#loc99 = loc("p98.2359")
#loc100 = loc("p99.2377")
#loc101 = loc("p100.2381")
#loc102 = loc("p101.2608")
#loc103 = loc("p102.2613")
#loc104 = loc("p103.2620")
#loc105 = loc("p104.2625")
#loc106 = loc("p105.2753")
#loc107 = loc("p106.2762")
#loc108 = loc("p107.2766")
#loc109 = loc("p108.2790")
#loc110 = loc("p109.2801")
#loc111 = loc("p110.2805")
#loc112 = loc("p111.2810")
#loc113 = loc("p112.2822")
#loc114 = loc("p113.2830")
#loc115 = loc("p114.2839")
#loc116 = loc("p115.2850")
#loc117 = loc("p116.2854")
#loc118 = loc("p117.2865")
#loc119 = loc("p118.2883")
#loc120 = loc("p119.2887")
#loc121 = loc("p120.3114")
#loc122 = loc("p121.3119")
#loc123 = loc("p122.3126")
#loc124 = loc("p123.3131")
#loc125 = loc("p124.3259")
#loc126 = loc("p125.3268")
#loc127 = loc("p126.3272")
#loc128 = loc("p127.3296")
#loc129 = loc("p128.3307")
#loc130 = loc("p129.3311")
#loc131 = loc("p130.3316")
#loc132 = loc("p131.3328")
#loc133 = loc("p132.3336")
#loc134 = loc("p133.3345")
#loc135 = loc("p134.3356")
#loc136 = loc("p135.3360")
#loc137 = loc("p136.3371")
#loc138 = loc("p137.3389")
#loc139 = loc("p138.3393")
#loc140 = loc("p139.3620")
#loc141 = loc("p140.3625")
#loc142 = loc("p141.3632")
#loc143 = loc("p142.3637")
#loc144 = loc("p143.3765")
#loc145 = loc("p144.3774")
#loc146 = loc("p145.3778")
#loc147 = loc("p146.3802")
#loc148 = loc("p147.3813")
#loc149 = loc("p148.3817")
#loc150 = loc("p149.3822")
#loc151 = loc("p150.3834")
#loc152 = loc("p151.3842")
#loc153 = loc("p152.3851")
#loc154 = loc("p153.3862")
#loc155 = loc("p154.3866")
#loc156 = loc("p155.3877")
#loc157 = loc("p156.3895")
#loc158 = loc("p157.3899")
#loc159 = loc("p158.4126")
#loc160 = loc("p159.4131")
#loc161 = loc("p160.4138")
#loc162 = loc("p161.4143")
#loc163 = loc("p162.4271")
#loc164 = loc("p163.4280")
#loc165 = loc("p164.4284")
#loc166 = loc("p165.4308")
#loc167 = loc("p166.4319")
#loc168 = loc("p167.4323")
#loc169 = loc("p168.4328")
#loc170 = loc("p169.4340")
#loc171 = loc("p170.4348")
#loc172 = loc("p171.4357")
#loc173 = loc("p172.4368")
#loc174 = loc("p173.4372")
#loc175 = loc("p174.4383")
#loc176 = loc("p175.4401")
#loc177 = loc("p176.4405")
#loc178 = loc("p177.4632")
#loc179 = loc("p178.4637")
#loc180 = loc("p179.4644")
#loc181 = loc("p180.4649")
#loc182 = loc("p181.4777")
#loc183 = loc("p182.4786")
#loc184 = loc("p183.4790")
#loc185 = loc("p184.4814")
#loc186 = loc("p185.4825")
#loc187 = loc("p186.4829")
#loc188 = loc("p187.4834")
#loc189 = loc("p188.4846")
#loc190 = loc("p189.4854")
#loc191 = loc("p190.4863")
#loc192 = loc("p191.4874")
#loc193 = loc("p192.4878")
#loc194 = loc("p193.4889")
#loc195 = loc("p194.4907")
#loc196 = loc("p195.4911")
#loc197 = loc("p196.5138")
#loc198 = loc("p197.5143")
#loc199 = loc("p198.5150")
#loc200 = loc("p199.5155")
#loc201 = loc("p200.5283")
#loc202 = loc("p201.5292")
#loc203 = loc("p202.5296")
#loc204 = loc("p203.5320")
#loc205 = loc("p204.5331")
#loc206 = loc("p205.5335")
#loc207 = loc("p206.5340")
#loc208 = loc("p207.5352")
#loc209 = loc("p208.5360")
#loc210 = loc("p209.5369")
#loc211 = loc("p210.5380")
#loc212 = loc("p211.5384")
#loc213 = loc("p212.5395")
#loc214 = loc("p213.5413")
#loc215 = loc("p214.5417")
#loc216 = loc("p215.5644")
#loc217 = loc("p216.5649")
#loc218 = loc("p217.5656")
#loc219 = loc("p218.5661")
#loc220 = loc("p219.5789")
#loc221 = loc("p220.5798")
#loc222 = loc("p221.5802")
#loc223 = loc("p222.5826")
#loc224 = loc("p223.5837")
#loc225 = loc("p224.5841")
#loc226 = loc("p225.5846")
#loc227 = loc("p226.5858")
#loc228 = loc("p227.5866")
#loc229 = loc("p228.5875")
#loc230 = loc("p229.5886")
#loc231 = loc("p230.5890")
#loc232 = loc("p231.5901")
#loc233 = loc("p232.5919")
#loc234 = loc("p233.5923")
#loc235 = loc("p234.6150")
#loc236 = loc("p235.6155")
#loc237 = loc("p236.6162")
#loc238 = loc("p237.6167")
#loc239 = loc("p238.6295")
#loc240 = loc("p239.6304")
#loc241 = loc("p240.6308")
#loc242 = loc("p241.6332")
#loc243 = loc("p242.6343")
#loc244 = loc("p243.6347")
#loc245 = loc("p244.6352")
#loc246 = loc("p245.6364")
#loc247 = loc("p246.6372")
#loc248 = loc("p247.6381")
#loc249 = loc("p248.6392")
#loc250 = loc("p249.6396")
#loc251 = loc("p250.6407")
#loc252 = loc("p251.6425")
#loc253 = loc("p252.6429")
#loc254 = loc("p253.6656")
#loc255 = loc("p254.6661")
#loc256 = loc("p255.6668")
#loc257 = loc("p256.6673")
#loc258 = loc("p257.6801")
#loc259 = loc("p258.6810")
#loc260 = loc("p259.6814")
#loc261 = loc("p260.6838")
#loc262 = loc("p261.6849")
#loc263 = loc("p262.6853")
#loc264 = loc("p263.6858")
#loc265 = loc("p264.6870")
#loc266 = loc("p265.6878")
#loc267 = loc("p266.6887")
#loc268 = loc("p267.6898")
#loc269 = loc("p268.6902")
#loc270 = loc("p269.6913")
#loc271 = loc("p270.6931")
#loc272 = loc("p271.6935")
#loc273 = loc("p272.7162")
#loc274 = loc("p273.7167")
#loc275 = loc("p274.7174")
#loc276 = loc("p275.7179")
#loc277 = loc("p276.7307")
#loc278 = loc("p277.7316")
#loc279 = loc("p278.7320")
#loc280 = loc("p279.7344")
#loc281 = loc("p280.7355")
#loc282 = loc("p281.7359")
#loc283 = loc("p282.7364")
#loc284 = loc("p283.7376")
#loc285 = loc("p284.7384")
#loc286 = loc("p285.7393")
#loc287 = loc("p286.7404")
#loc288 = loc("p287.7408")
#loc289 = loc("p288.7419")
#loc290 = loc("p289.7437")
#loc291 = loc("p290.7441")
#loc292 = loc("p291.7668")
#loc293 = loc("p292.7673")
#loc294 = loc("p293.7680")
#loc295 = loc("p294.7685")
#loc296 = loc("p295.7813")
#loc297 = loc("p296.7822")
#loc298 = loc("p297.7826")
#loc299 = loc("p298.7850")
#loc300 = loc("p299.7861")
#loc301 = loc("p300.7865")
#loc302 = loc("p301.7870")
#loc303 = loc("p302.7882")
#loc304 = loc("p303.7890")
#loc305 = loc("p304.7899")
#loc306 = loc("p305.7910")
#loc307 = loc("p306.7914")
#loc308 = loc("p307.7925")
#loc309 = loc("p308.7943")
#loc310 = loc("p309.7947")
#loc311 = loc("p310.8174")
#loc312 = loc("p311.8179")
#loc313 = loc("p312.8186")
#loc314 = loc("p313.8191")
#loc315 = loc("p314.8319")
#loc316 = loc("p315.8328")
#loc317 = loc("p316.8332")
#loc318 = loc("p317.8356")
#loc319 = loc("p318.8367")
#loc320 = loc("p319.8371")
#loc321 = loc("p320.8376")
#loc322 = loc("p321.8388")
#loc323 = loc("p322.8396")
#loc324 = loc("p323.8405")
#loc325 = loc("p324.8416")
#loc326 = loc("p325.8420")
#loc327 = loc("p326.8431")
#loc328 = loc("p327.8449")
#loc329 = loc("p328.8453")
#loc330 = loc("p329.8680")
#loc331 = loc("p330.8685")
#loc332 = loc("p331.8692")
#loc333 = loc("p332.8697")
#loc334 = loc("p333.8825")
#loc335 = loc("p334.8834")
#loc336 = loc("p335.8838")
#loc337 = loc("p336.8862")
#loc338 = loc("p337.8873")
#loc339 = loc("p338.8877")
#loc340 = loc("p339.8882")
#loc341 = loc("p340.8894")
#loc342 = loc("p341.8902")
#loc343 = loc("p342.8911")
#loc344 = loc("p343.8922")
#loc345 = loc("p344.8926")
#loc346 = loc("p345.8937")
#loc347 = loc("p346.8955")
#loc348 = loc("p347.8959")
#loc349 = loc("p348.9186")
#loc350 = loc("p349.9191")
#loc351 = loc("p350.9198")
#loc352 = loc("p351.9203")
#loc353 = loc("p352.9331")
#loc354 = loc("p353.9340")
#loc355 = loc("p354.9344")
#loc356 = loc("p355.9368")
#loc357 = loc("p356.9379")
#loc358 = loc("p357.9383")
#loc359 = loc("p358.9388")
#loc360 = loc("p359.9400")
#loc361 = loc("p360.9408")
#loc362 = loc("p361.9417")
#loc363 = loc("p362.9428")
#loc364 = loc("p363.9432")
#loc365 = loc("p364.9443")
#loc366 = loc("p365.9461")
#loc367 = loc("p366.9465")
#loc368 = loc("p367.9692")
#loc369 = loc("p368.9697")
#loc370 = loc("p369.9704")
#loc371 = loc("p370.9709")
#loc372 = loc("p371.9837")
#loc373 = loc("p372.9846")
#loc374 = loc("p373.9850")
#loc375 = loc("p374.9874")
#loc376 = loc("p375.9885")
#loc377 = loc("p376.9889")
#loc378 = loc("p377.9894")
#loc379 = loc("p378.9906")
#loc380 = loc("p379.9914")
#loc381 = loc("p380.9923")
#loc382 = loc("p381.9934")
#loc383 = loc("p382.9938")
#loc384 = loc("p383.9949")
#loc385 = loc("p384.9967")
#loc386 = loc("p385.9971")
#loc387 = loc("p386.10198")
#loc388 = loc("p387.10203")
#loc389 = loc("p388.10210")
#loc390 = loc("p389.10215")
#loc391 = loc("p390.10343")
#loc392 = loc("p391.10352")
#loc393 = loc("p392.10356")
#loc394 = loc("p393.10380")
#loc395 = loc("p394.10391")
#loc396 = loc("p395.10395")
#loc397 = loc("p396.10400")
#loc398 = loc("p397.10412")
#loc399 = loc("p398.10420")
#loc400 = loc("p399.10429")
#loc401 = loc("p400.10440")
#loc402 = loc("p401.10444")
#loc403 = loc("p402.10455")
#loc404 = loc("p403.10473")
#loc405 = loc("p404.10477")
#loc406 = loc("p405.10704")
#loc407 = loc("p406.10709")
#loc408 = loc("p407.10716")
#loc409 = loc("p408.10721")
#loc410 = loc("p409.10849")
#loc411 = loc("p410.10858")
#loc412 = loc("p411.10862")
#loc413 = loc("p412.10886")
#loc414 = loc("p413.10897")
#loc415 = loc("p414.10901")
#loc416 = loc("p415.10906")
#loc417 = loc("p416.10918")
#loc418 = loc("p417.10926")
#loc419 = loc("p418.10935")
#loc420 = loc("p419.10946")
#loc421 = loc("p420.10950")
#loc422 = loc("p421.10961")
#loc423 = loc("p422.10979")
#loc424 = loc("p423.10983")
#loc425 = loc("p424.11210")
#loc426 = loc("p425.11215")
#loc427 = loc("p426.11222")
#loc428 = loc("p427.11227")
#loc429 = loc("p428.11355")
#loc430 = loc("p429.11364")
#loc431 = loc("p430.11368")
#loc432 = loc("p431.11392")
#loc433 = loc("p432.11403")
#loc434 = loc("p433.11407")
#loc435 = loc("p434.11412")
#loc436 = loc("p435.11424")
#loc437 = loc("p436.11432")
#loc438 = loc("p437.11441")
#loc439 = loc("p438.11452")
#loc440 = loc("p439.11456")
#loc441 = loc("p440.11467")
#loc442 = loc("p441.11485")
#loc443 = loc("p442.11489")
#loc444 = loc("p443.11716")
#loc445 = loc("p444.11721")
#loc446 = loc("p445.11728")
#loc447 = loc("p446.11733")
#loc448 = loc("p447.11861")
#loc449 = loc("p448.11870")
#loc450 = loc("p449.11874")
#loc451 = loc("p450.11898")
#loc452 = loc("p451.11909")
#loc453 = loc("p452.11913")
#loc454 = loc("p453.11918")
#loc455 = loc("p454.11930")
#loc456 = loc("p455.11938")
#loc457 = loc("p456.11947")
#loc458 = loc("p457.11958")
#loc459 = loc("p458.11962")
#loc460 = loc("p459.11973")
#loc461 = loc("p460.11991")
#loc462 = loc("p461.11995")
#loc463 = loc("p462.12222")
#loc464 = loc("p463.12227")
#loc465 = loc("p464.12234")
#loc466 = loc("p465.12239")
#loc467 = loc("p466.12367")
#loc468 = loc("p467.12376")
#loc469 = loc("p468.12380")
#loc470 = loc("p469.12404")
#loc471 = loc("p470.12415")
#loc472 = loc("p471.12419")
#loc473 = loc("p472.12424")
#loc474 = loc("p473.12436")
#loc475 = loc("p474.12444")
#loc476 = loc("p475.12453")
#loc477 = loc("p476.12464")
#loc478 = loc("p477.12468")
#loc479 = loc("p478.12479")
#loc480 = loc("p479.12497")
#loc481 = loc("p480.12501")
#loc482 = loc("p481.12728")
#loc483 = loc("p482.12733")
#loc484 = loc("p483.12740")
#loc485 = loc("p484.12745")
#loc486 = loc("p485.12873")
#loc487 = loc("p486.12882")
#loc488 = loc("p487.12886")
#loc489 = loc("p488.12910")
#loc490 = loc("p489.12921")
#loc491 = loc("p490.12925")
#loc492 = loc("p491.12930")
#loc493 = loc("p492.12942")
#loc494 = loc("p493.12950")
#loc495 = loc("p494.12959")
#loc496 = loc("p495.12970")
#loc497 = loc("p496.12974")
#loc498 = loc("p497.12985")
#loc499 = loc("p498.13003")
#loc500 = loc("p499.13007")
#loc501 = loc("p500.13234")
#loc502 = loc("p501.13239")
#loc503 = loc("p502.13246")
#loc504 = loc("p503.13251")
#loc505 = loc("p504.13379")
#loc506 = loc("p505.13388")
#loc507 = loc("p506.13392")
#loc508 = loc("p507.13416")
#loc509 = loc("p508.13427")
#loc510 = loc("p509.13431")
#loc511 = loc("p510.13436")
#loc512 = loc("p511.13448")
#loc513 = loc("p512.13456")
#loc514 = loc("p513.13465")
#loc515 = loc("p514.13476")
#loc516 = loc("p515.13480")
#loc517 = loc("p516.13491")
#loc518 = loc("p517.13509")
#loc519 = loc("p518.13513")
#loc520 = loc("p519.13740")
#loc521 = loc("p520.13745")
#loc522 = loc("p521.13752")
#loc523 = loc("p522.13757")
#loc524 = loc("p523.13885")
#loc525 = loc("p524.13894")
#loc526 = loc("p525.13898")
#loc527 = loc("p526.13922")
#loc528 = loc("p527.13933")
#loc529 = loc("p528.13937")
#loc530 = loc("p529.13942")
#loc531 = loc("p530.13954")
#loc532 = loc("p531.13962")
#loc533 = loc("p532.13971")
#loc534 = loc("p533.13982")
#loc535 = loc("p534.13986")
#loc536 = loc("p535.13997")
#loc537 = loc("p536.14015")
#loc538 = loc("p537.14019")
#loc539 = loc("p538.14246")
#loc540 = loc("p539.14251")
#loc541 = loc("p540.14258")
#loc542 = loc("p541.14263")
#loc543 = loc("p542.14391")
#loc544 = loc("p543.14400")
#loc545 = loc("p544.14404")
#loc546 = loc("p545.14428")
#loc547 = loc("p546.14439")
#loc548 = loc("p547.14443")
#loc549 = loc("p548.14448")
#loc550 = loc("p549.14460")
#loc551 = loc("p550.14468")
#loc552 = loc("p551.14477")
#loc553 = loc("p552.14488")
#loc554 = loc("p553.14492")
#loc555 = loc("p554.14503")
#loc556 = loc("p555.14521")
#loc557 = loc("p556.14525")
#loc558 = loc("p557.14752")
#loc559 = loc("p558.14757")
#loc560 = loc("p559.14764")
#loc561 = loc("p560.14769")
#loc562 = loc("p561.14897")
#loc563 = loc("p562.14906")
#loc564 = loc("p563.14910")
#loc565 = loc("p564.14934")
#loc566 = loc("p565.14945")
#loc567 = loc("p566.14949")
#loc568 = loc("p567.14954")
#loc569 = loc("p568.14966")
#loc570 = loc("p569.14974")
#loc571 = loc("p570.14983")
#loc572 = loc("p571.14994")
#loc573 = loc("p572.14998")
#loc574 = loc("p573.15009")
#loc575 = loc("p574.15027")
#loc576 = loc("p575.15031")
#loc577 = loc("p576.15258")
#loc578 = loc("p577.15263")
#loc579 = loc("p578.15270")
#loc580 = loc("p579.15275")
#loc581 = loc("p580.15403")
#loc582 = loc("p581.15412")
#loc583 = loc("p582.15416")
#loc584 = loc("p583.15440")
#loc585 = loc("p584.15451")
#loc586 = loc("p585.15455")
#loc587 = loc("p586.15460")
#loc588 = loc("p587.15472")
#loc589 = loc("p588.15480")
#loc590 = loc("p589.15489")
#loc591 = loc("p590.15500")
#loc592 = loc("p591.15504")
#loc593 = loc("p592.15515")
#loc594 = loc("p593.15533")
#loc595 = loc("p594.15537")
#loc596 = loc("p595.15764")
#loc597 = loc("p596.15769")
#loc598 = loc("p597.15776")
#loc599 = loc("p598.15781")
#loc600 = loc("p599.15909")
#loc601 = loc("p600.15918")
#loc602 = loc("p601.15922")
#loc603 = loc("p602.15946")
#loc604 = loc("p603.15957")
#loc605 = loc("p604.15961")
#loc606 = loc("p605.15966")
#loc607 = loc("p606.15978")
#loc608 = loc("p607.15986")
#loc609 = loc("p608.15995")
#loc610 = loc("p609.16006")
#loc611 = loc("p610.16010")
#loc612 = loc("p611.16021")
#loc613 = loc("p612.16039")
#loc614 = loc("p613.16043")
#loc615 = loc("p614.16270")
#loc616 = loc("p615.16275")
#loc617 = loc("p616.16282")
#loc618 = loc("p617.16287")
#loc619 = loc("p618.16415")
#loc620 = loc("p619.16424")
#loc621 = loc("p620.16428")
#loc622 = loc("p621.16452")
#loc623 = loc("p622.16463")
#loc624 = loc("p623.16467")
#loc625 = loc("p624.16472")
#loc626 = loc("p625.16484")
#loc627 = loc("p626.16492")
#loc628 = loc("p627.16501")
#loc629 = loc("p628.16512")
#loc630 = loc("p629.16516")
#loc631 = loc("p630.16527")
#loc632 = loc("p631.16545")
#loc633 = loc("p632.16549")
#loc634 = loc("p633.16776")
#loc635 = loc("p634.16781")
#loc636 = loc("p635.16788")
#loc637 = loc("p636.16793")
#loc638 = loc("p637.16921")
#loc639 = loc("p638.16930")
#loc640 = loc("p639.16934")
#loc641 = loc("p640.16958")
#loc642 = loc("p641.16969")
#loc643 = loc("p642.16973")
#loc644 = loc("p643.16978")
#loc645 = loc("p644.16990")
#loc646 = loc("p645.16998")
#loc647 = loc("p646.17007")
#loc648 = loc("p647.17018")
#loc649 = loc("p648.17022")
#loc650 = loc("p649.17033")
#loc651 = loc("p650.17051")
#loc652 = loc("p651.17055")
#loc653 = loc("p652.17282")
#loc654 = loc("p653.17287")
#loc655 = loc("p654.17294")
#loc656 = loc("p655.17299")
#loc657 = loc("p656.17427")
#loc658 = loc("p657.17436")
#loc659 = loc("p658.17440")
#loc660 = loc("p659.17464")
#loc661 = loc("p660.17475")
#loc662 = loc("p661.17479")
#loc663 = loc("p662.17484")
#loc664 = loc("p663.17496")
#loc665 = loc("p664.17504")
#loc666 = loc("p665.17513")
#loc667 = loc("p666.17524")
#loc668 = loc("p667.17528")
#loc669 = loc("p668.17539")
#loc670 = loc("p669.17557")
#loc671 = loc("p670.17561")
#loc672 = loc("p671.17788")
#loc673 = loc("p672.17793")
#loc674 = loc("p673.17800")
#loc675 = loc("p674.17805")
#loc676 = loc("p675.17933")
#loc677 = loc("p676.17942")
#loc678 = loc("p677.17946")
#loc679 = loc("p678.17970")
#loc680 = loc("p679.17984")
#loc681 = loc("p680.17989")
#loc682 = loc("p681.18001")
#loc683 = loc("p682.18009")
#loc684 = loc("p683.18018")
#loc685 = loc("p684.18029")
#loc686 = loc("p685.18033")
#loc687 = loc("p686.18044")
#loc688 = loc("p687.18062")
#loc689 = loc("p688.18066")
#loc690 = loc("p689.18293")
#loc691 = loc("p690.18298")
#loc692 = loc("p691.18305")
#loc693 = loc("p692.18310")
#loc767 = loc("scatter.144")
#loc817 = loc("scatter.181")
#loc934 = loc("scatter.701")
#loc974 = loc("scatter.738")
#loc1090 = loc("scatter.1241")
#loc1122 = loc("scatter.1278")
#loc1238 = loc("scatter.1747")
#loc1270 = loc("scatter.1784")
#loc1386 = loc("scatter.2253")
#loc1418 = loc("scatter.2290")
#loc1534 = loc("scatter.2759")
#loc1566 = loc("scatter.2796")
#loc1682 = loc("scatter.3265")
#loc1714 = loc("scatter.3302")
#loc1830 = loc("scatter.3771")
#loc1862 = loc("scatter.3808")
#loc1978 = loc("scatter.4277")
#loc2010 = loc("scatter.4314")
#loc2126 = loc("scatter.4783")
#loc2158 = loc("scatter.4820")
#loc2274 = loc("scatter.5289")
#loc2306 = loc("scatter.5326")
#loc2422 = loc("scatter.5795")
#loc2454 = loc("scatter.5832")
#loc2570 = loc("scatter.6301")
#loc2602 = loc("scatter.6338")
#loc2718 = loc("scatter.6807")
#loc2750 = loc("scatter.6844")
#loc2866 = loc("scatter.7313")
#loc2898 = loc("scatter.7350")
#loc3014 = loc("scatter.7819")
#loc3046 = loc("scatter.7856")
#loc3162 = loc("scatter.8325")
#loc3194 = loc("scatter.8362")
#loc3310 = loc("scatter.8831")
#loc3342 = loc("scatter.8868")
#loc3458 = loc("scatter.9337")
#loc3490 = loc("scatter.9374")
#loc3606 = loc("scatter.9843")
#loc3638 = loc("scatter.9880")
#loc3754 = loc("scatter.10349")
#loc3786 = loc("scatter.10386")
#loc3902 = loc("scatter.10855")
#loc3934 = loc("scatter.10892")
#loc4050 = loc("scatter.11361")
#loc4082 = loc("scatter.11398")
#loc4198 = loc("scatter.11867")
#loc4230 = loc("scatter.11904")
#loc4346 = loc("scatter.12373")
#loc4378 = loc("scatter.12410")
#loc4494 = loc("scatter.12879")
#loc4526 = loc("scatter.12916")
#loc4642 = loc("scatter.13385")
#loc4674 = loc("scatter.13422")
#loc4790 = loc("scatter.13891")
#loc4822 = loc("scatter.13928")
#loc4938 = loc("scatter.14397")
#loc4970 = loc("scatter.14434")
#loc5086 = loc("scatter.14903")
#loc5118 = loc("scatter.14940")
#loc5234 = loc("scatter.15409")
#loc5266 = loc("scatter.15446")
#loc5382 = loc("scatter.15915")
#loc5414 = loc("scatter.15952")
#loc5530 = loc("scatter.16421")
#loc5562 = loc("scatter.16458")
#loc5678 = loc("scatter.16927")
#loc5710 = loc("scatter.16964")
#loc5826 = loc("scatter.17433")
#loc5858 = loc("scatter.17470")
#loc5974 = loc("scatter.17939")
#loc5995 = loc("scatter.17976")
#loc6093 = loc("reduce.18429")
#loc6102 = loc("custom-call.18231")
#loc6104 = loc("sort.18245")
#loc6109 = loc("custom-call.17726")
#loc6111 = loc("sort.17740")
#loc6116 = loc("custom-call.16846")
#loc6117 = loc("custom-call.16476")
#loc6132 = loc("custom-call.16714")
#loc6134 = loc("sort.16728")
#loc6139 = loc("custom-call.17352")
#loc6140 = loc("custom-call.16982")
#loc6155 = loc("custom-call.15702")
#loc6157 = loc("sort.15716")
#loc6162 = loc("custom-call.15196")
#loc6164 = loc("sort.15210")
#loc6169 = loc("custom-call.14647")
#loc6170 = loc("custom-call.14481")
#loc6185 = loc("custom-call.14316")
#loc6186 = loc("custom-call.13946")
#loc6201 = loc("custom-call.14141")
#loc6202 = loc("custom-call.13975")
#loc6217 = loc("custom-call.13810")
#loc6218 = loc("custom-call.13440")
#loc6233 = loc("custom-call.13635")
#loc6234 = loc("custom-call.13469")
#loc6249 = loc("custom-call.12798")
#loc6250 = loc("custom-call.12428")
#loc6265 = loc("custom-call.12666")
#loc6267 = loc("sort.12680")
#loc6272 = loc("custom-call.12623")
#loc6273 = loc("custom-call.12457")
#loc6288 = loc("custom-call.15328")
#loc6289 = loc("custom-call.14958")
#loc6304 = loc("custom-call.12292")
#loc6305 = loc("custom-call.11922")
#loc6320 = loc("custom-call.14690")
#loc6322 = loc("sort.14704")
#loc6327 = loc("custom-call.12160")
#loc6329 = loc("sort.12174")
#loc6334 = loc("custom-call.12117")
#loc6335 = loc("custom-call.11951")
#loc6350 = loc("custom-call.11280")
#loc6351 = loc("custom-call.10910")
#loc6366 = loc("custom-call.11148")
#loc6368 = loc("sort.11162")
#loc6373 = loc("custom-call.10774")
#loc6374 = loc("custom-call.10404")
#loc6389 = loc("custom-call.10642")
#loc6391 = loc("sort.10656")
#loc6396 = loc("custom-call.11611")
#loc6397 = loc("custom-call.11445")
#loc6412 = loc("custom-call.10268")
#loc6413 = loc("custom-call.9898")
#loc6428 = loc("custom-call.17683")
#loc6429 = loc("custom-call.17517")
#loc6444 = loc("custom-call.4570")
#loc6446 = loc("sort.4584")
#loc6451 = loc("custom-call.9630")
#loc6453 = loc("sort.9644")
#loc6458 = loc("custom-call.13129")
#loc6459 = loc("custom-call.12963")
#loc6474 = loc("custom-call.3052")
#loc6476 = loc("sort.3066")
#loc6481 = loc("custom-call.10136")
#loc6483 = loc("sort.10150")
#loc6488 = loc("custom-call.5033")
#loc6489 = loc("custom-call.4867")
#loc6504 = loc("custom-call.16671")
#loc6505 = loc("custom-call.16505")
#loc6520 = loc("custom-call.3009")
#loc6521 = loc("custom-call.2843")
#loc6536 = loc("custom-call.3690")
#loc6537 = loc("custom-call.3320")
#loc6552 = loc("custom-call.3515")
#loc6553 = loc("custom-call.3349")
#loc6568 = loc("custom-call.4527")
#loc6569 = loc("custom-call.4361")
#loc6584 = loc("custom-call.15834")
#loc6585 = loc("custom-call.15464")
#loc6600 = loc("custom-call.2678")
#loc6601 = loc("custom-call.2308")
#loc6616 = loc("custom-call.1160")
#loc6617 = loc("custom-call.756")
#loc6632 = loc("custom-call.17858")
#loc6633 = loc("custom-call.17488")
#loc6648 = loc("custom-call.15659")
#loc6649 = loc("custom-call.15493")
#loc6664 = loc("custom-call.4196")
#loc6665 = loc("custom-call.3826")
#loc6680 = loc("custom-call.14184")
#loc6682 = loc("sort.14198")
#loc6687 = loc("custom-call.445")
#loc6688 = loc("custom-call.228")
#loc6703 = loc("custom-call.5582")
#loc6705 = loc("sort.5596")
#loc6710 = loc("custom-call.5714")
#loc6711 = loc("custom-call.5344")
#loc6726 = loc("custom-call.9762")
#loc6727 = loc("custom-call.9392")
#loc6742 = loc("custom-call.488")
#loc6744 = loc("sort.502")
#loc6749 = loc("custom-call.18188")
#loc6750 = loc("custom-call.18022")
#loc6765 = loc("custom-call.620")
#loc6766 = loc("custom-call.199")
#loc6781 = loc("custom-call.17177")
#loc6782 = loc("custom-call.17011")
#loc6797 = loc("custom-call.1028")
#loc6799 = loc("sort.1042")
#loc6804 = loc("custom-call.18363")
#loc6805 = loc("custom-call.17993")
#loc6820 = loc("custom-call.985")
#loc6821 = loc("custom-call.785")
#loc6836 = loc("custom-call.16208")
#loc6838 = loc("sort.16222")
#loc6843 = loc("custom-call.13678")
#loc6845 = loc("sort.13692")
#loc6850 = loc("custom-call.3184")
#loc6851 = loc("custom-call.2814")
#loc6866 = loc("custom-call.9256")
#loc6867 = loc("custom-call.8886")
#loc6882 = loc("custom-call.14822")
#loc6883 = loc("custom-call.14452")
#loc6898 = loc("custom-call.9081")
#loc6899 = loc("custom-call.8915")
#loc6914 = loc("custom-call.10093")
#loc6915 = loc("custom-call.9927")
#loc6930 = loc("custom-call.2040")
#loc6932 = loc("sort.2054")
#loc6937 = loc("custom-call.16340")
#loc6938 = loc("custom-call.15970")
#loc6953 = loc("custom-call.4702")
#loc6954 = loc("custom-call.4332")
#loc6969 = loc("custom-call.4021")
#loc6970 = loc("custom-call.3855")
#loc6985 = loc("custom-call.1534")
#loc6987 = loc("sort.1548")
#loc6992 = loc("custom-call.2172")
#loc6993 = loc("custom-call.1802")
#loc7008 = loc("custom-call.9124")
#loc7010 = loc("sort.9138")
#loc7015 = loc("custom-call.1997")
#loc7016 = loc("custom-call.1831")
#loc7031 = loc("custom-call.2546")
#loc7033 = loc("sort.2560")
#loc7038 = loc("custom-call.8618")
#loc7040 = loc("sort.8632")
#loc7045 = loc("custom-call.6088")
#loc7047 = loc("sort.6102")
#loc7052 = loc("custom-call.1491")
#loc7053 = loc("custom-call.1325")
#loc7068 = loc("custom-call.11786")
#loc7069 = loc("custom-call.11416")
#loc7084 = loc("custom-call.4064")
#loc7086 = loc("sort.4078")
#loc7091 = loc("custom-call.8069")
#loc7092 = loc("custom-call.7903")
#loc7107 = loc("custom-call.16165")
#loc7108 = loc("custom-call.15999")
#loc7123 = loc("custom-call.15153")
#loc7124 = loc("custom-call.14987")
#loc7139 = loc("custom-call.9587")
#loc7140 = loc("custom-call.9421")
#loc7155 = loc("custom-call.11105")
#loc7156 = loc("custom-call.10939")
#loc7171 = loc("custom-call.5539")
#loc7172 = loc("custom-call.5373")
#loc7187 = loc("custom-call.5076")
#loc7189 = loc("sort.5090")
#loc7194 = loc("custom-call.6045")
#loc7195 = loc("custom-call.5879")
#loc7210 = loc("custom-call.7232")
#loc7211 = loc("custom-call.6862")
#loc7226 = loc("custom-call.6220")
#loc7227 = loc("custom-call.5850")
#loc7242 = loc("custom-call.58")
#loc7243 = loc("custom-call.41")
#loc7258 = loc("custom-call.1666")
#loc7259 = loc("custom-call.1296")
#loc7274 = loc("custom-call.8112")
#loc7276 = loc("sort.8126")
#loc7281 = loc("custom-call.13304")
#loc7282 = loc("custom-call.12934")
#loc7297 = loc("custom-call.6726")
#loc7298 = loc("custom-call.6356")
#loc7313 = loc("custom-call.6551")
#loc7314 = loc("custom-call.6385")
#loc7329 = loc("custom-call.6594")
#loc7331 = loc("sort.6608")
#loc7336 = loc("custom-call.11654")
#loc7338 = loc("sort.11668")
#loc7343 = loc("custom-call.7057")
#loc7344 = loc("custom-call.6891")
#loc7359 = loc("custom-call.13172")
#loc7361 = loc("sort.13186")
#loc7366 = loc("custom-call.7738")
#loc7367 = loc("custom-call.7368")
#loc7382 = loc("custom-call.8750")
#loc7383 = loc("custom-call.8380")
#loc7398 = loc("custom-call.10599")
#loc7399 = loc("custom-call.10433")
#loc7414 = loc("custom-call.7100")
#loc7416 = loc("sort.7114")
#loc7421 = loc("custom-call.3558")
#loc7423 = loc("sort.3572")
#loc7428 = loc("custom-call.5208")
#loc7429 = loc("custom-call.4838")
#loc7444 = loc("custom-call.7563")
#loc7445 = loc("custom-call.7397")
#loc7460 = loc("custom-call.17220")
#loc7462 = loc("sort.17234")
#loc7467 = loc("custom-call.7606")
#loc7469 = loc("sort.7620")
#loc7474 = loc("custom-call.8575")
#loc7475 = loc("custom-call.8409")
#loc7490 = loc("custom-call.2503")
#loc7491 = loc("custom-call.2337")
#loc7506 = loc("custom-call.8244")
#loc7507 = loc("custom-call.7874")
module @SyncTensorsGraph.18434 attributes {mhlo.cross_program_prefetches = [], mhlo.input_output_alias = [], mhlo.is_dynamic = false, mhlo.use_auto_spmd_partitioning = false} {
  sdy.mesh @mesh = <["_axis_0"=4, "_axis_1"=8]> loc(#loc)
  func.func @main(%arg0: tensor<1xi64> {sdy.sharding = #sdy.sharding<@mesh, [{}]>, ttcore.argument_type = #ttcore.argument_type<input>, ttir.name = "args_1"} loc("p0.3"), %arg1: tensor<32xbf16> {sdy.sharding = #sdy.sharding<@mesh, [{}]>, ttcore.argument_type = #ttcore.argument_type<constant>, ttir.name = "model.model.rotary_emb.inv_freq"} loc("p1.11"), %arg2: tensor<512xbf16> {sdy.sharding = #sdy.sharding<@mesh, [{"_axis_1"}]>, ttcore.argument_type = #ttcore.argument_type<parameter>, ttir.name = "self___model_model_layers_0_self_attn_k_proj__parameters__bias"} loc("p2.28"), %arg3: tensor<512x2880xbf16> {sdy.sharding = #sdy.sharding<@mesh, [{"_axis_1"}, {"_axis_0"}]>, ttcore.argument_type = #ttcore.argument_type<parameter>, ttir.name = "self___model_model_layers_0_self_attn_k_proj__parameters__weight"} loc("p3.32"), %arg4: tensor<2880xbf16> {sdy.sharding = #sdy.sharding<@mesh, [{"_axis_0"}]>, ttcore.argument_type = #ttcore.argument_type<parameter>, ttir.name = "model.model.layers.0.input_layernorm.weight"} loc("p4.37"), %arg5: tensor<64x1xi64> {sdy.sharding = #sdy.sharding<@mesh, [{}, {}]>, ttcore.argument_type = #ttcore.argument_type<input>, ttir.name = "args_0"} loc("p5.46"), %arg6: tensor<201088x2880xbf16> {sdy.sharding = #sdy.sharding<@mesh, [{}, {"_axis_0"}]>, ttcore.argument_type = #ttcore.argument_type<parameter>, ttir.name = "model.model.embed_tokens.weight"} loc("p6.51"), %arg7: tensor<64x8x128x64xbf16> {sdy.sharding = #sdy.sharding<@mesh, [{}, {"_axis_1"}, {}, {}]>, ttcore.argument_type = #ttcore.argument_type<input>, ttir.name = "args_2"} loc("p7.138"), %arg8: tensor<512xbf16> {sdy.sharding = #sdy.sharding<@mesh, [{"_axis_1"}]>, ttcore.argument_type = #ttcore.argument_type<parameter>, ttir.name = "self___model_model_layers_0_self_attn_v_proj__parameters__bias"} loc("p8.147"), %arg9: tensor<512x2880xbf16> {sdy.sharding = #sdy.sharding<@mesh, [{"_axis_1"}, {"_axis_0"}]>, ttcore.argument_type = #ttcore.argument_type<parameter>, ttir.name = "self___model_model_layers_0_self_attn_v_proj__parameters__weight"} loc("p9.151"), %arg10: tensor<64x8x128x64xbf16> {sdy.sharding = #sdy.sharding<@mesh, [{}, {"_axis_1"}, {}, {}]>, ttcore.argument_type = #ttcore.argument_type<input>, ttir.name = "args_3"} loc("p10.175"), %arg11: tensor<512xbf16> {sdy.sharding = #sdy.sharding<@mesh, [{"_axis_1"}]>, ttcore.argument_type = #ttcore.argument_type<parameter>, ttir.name = "self___model_model_layers_1_self_attn_k_proj__parameters__bias"} loc("p11.186"), %arg12: tensor<512x2880xbf16> {sdy.sharding = #sdy.sharding<@mesh, [{"_axis_1"}, {"_axis_0"}]>, ttcore.argument_type = #ttcore.argument_type<parameter>, ttir.name = "self___model_model_layers_1_self_attn_k_proj__parameters__weight"} loc("p12.190"), %arg13: tensor<2880xbf16> {sdy.sharding = #sdy.sharding<@mesh, [{"_axis_0"}]>, ttcore.argument_type = #ttcore.argument_type<parameter>, ttir.name = "model.model.layers.1.input_layernorm.weight"} loc("p13.195"), %arg14: tensor<128xbf16> {sdy.sharding = #sdy.sharding<@mesh, [{}]>, ttcore.argument_type = #ttcore.argument_type<parameter>, ttir.name = "model.model.layers.0.mlp.router.bias"} loc("p14.207"), %arg15: tensor<128x2880xbf16> {sdy.sharding = #sdy.sharding<@mesh, [{}, {"_axis_0"}]>, ttcore.argument_type = #ttcore.argument_type<parameter>, ttcore.weight_dtype = "bfp_bf4", ttir.name = "model.model.layers.0.mlp.router.parametrizations.weight.original"} loc("p15.215"), %arg16: tensor<2880xbf16> {sdy.sharding = #sdy.sharding<@mesh, [{"_axis_0"}]>, ttcore.argument_type = #ttcore.argument_type<parameter>, ttir.name = "model.model.layers.0.post_attention_layernorm.weight"} loc("p16.224"), %arg17: tensor<2880xbf16> {sdy.sharding = #sdy.sharding<@mesh, [{"_axis_0"}]>, ttcore.argument_type = #ttcore.argument_type<parameter>, ttir.name = "self___model_model_layers_0_self_attn_o_proj__parameters__bias"} loc("p17.235"), %arg18: tensor<2880x4096xbf16> {sdy.sharding = #sdy.sharding<@mesh, [{"_axis_0"}, {"_axis_1"}]>, ttcore.argument_type = #ttcore.argument_type<parameter>, ttir.name = "self___model_model_layers_0_self_attn_o_proj__parameters__weight"} loc("p18.239"), %arg19: tensor<64xbf16> {sdy.sharding = #sdy.sharding<@mesh, [{}]>, ttcore.argument_type = #ttcore.argument_type<parameter>, ttir.name = "model.model.layers.0.self_attn.sinks"} loc("p19.250"), %arg20: tensor<bf16> {sdy.sharding = #sdy.sharding<@mesh, []>, ttcore.argument_type = #ttcore.argument_type<constant>, ttir.name = "L['self'].model.model.lifted_tensor_1"} loc("p20.265"), %arg21: tensor<i1> {sdy.sharding = #sdy.sharding<@mesh, []>, ttcore.argument_type = #ttcore.argument_type<input>} loc("p21.296"), %arg22: tensor<4096xbf16> {sdy.sharding = #sdy.sharding<@mesh, [{"_axis_1"}]>, ttcore.argument_type = #ttcore.argument_type<parameter>, ttir.name = "self___model_model_layers_0_self_attn_q_proj__parameters__bias"} loc("p22.319"), %arg23: tensor<4096x2880xbf16> {sdy.sharding = #sdy.sharding<@mesh, [{"_axis_1"}, {"_axis_0"}]>, ttcore.argument_type = #ttcore.argument_type<parameter>, ttir.name = "self___model_model_layers_0_self_attn_q_proj__parameters__weight"} loc("p23.323"), %arg24: tensor<128x2880xbf16> {sdy.sharding = #sdy.sharding<@mesh, [{"_axis_1"}, {"_axis_0"}]>, ttcore.argument_type = #ttcore.argument_type<parameter>, ttir.name = "model.model.layers.0.mlp.experts.down_proj_bias"} loc("p24.550"), %arg25: tensor<128x2880x2880xbf16> {sdy.sharding = #sdy.sharding<@mesh, [{"_axis_1"}, {}, {"_axis_0"}]>, ttcore.argument_type = #ttcore.argument_type<parameter>, ttcore.weight_dtype = "bfp_bf4", ttir.name = "model.model.layers.0.mlp.experts.parametrizations.down_proj.original"} loc("p25.555"), %arg26: tensor<128x5760xbf16> {sdy.sharding = #sdy.sharding<@mesh, [{"_axis_1"}, {}]>, ttcore.argument_type = #ttcore.argument_type<parameter>, ttir.name = "model.model.layers.0.mlp.experts.gate_up_proj_bias"} loc("p26.562"), %arg27: tensor<128x2880x5760xbf16> {sdy.sharding = #sdy.sharding<@mesh, [{"_axis_1"}, {"_axis_0"}, {}]>, ttcore.argument_type = #ttcore.argument_type<parameter>, ttcore.weight_dtype = "bfp_bf4", ttir.name = "model.model.layers.0.mlp.experts.parametrizations.gate_up_proj.original"} loc("p27.567"), %arg28: tensor<64x8x128x64xbf16> {sdy.sharding = #sdy.sharding<@mesh, [{}, {"_axis_1"}, {}, {}]>, ttcore.argument_type = #ttcore.argument_type<input>, ttir.name = "args_4"} loc("p28.695"), %arg29: tensor<512xbf16> {sdy.sharding = #sdy.sharding<@mesh, [{"_axis_1"}]>, ttcore.argument_type = #ttcore.argument_type<parameter>, ttir.name = "self___model_model_layers_1_self_attn_v_proj__parameters__bias"} loc("p29.704"), %arg30: tensor<512x2880xbf16> {sdy.sharding = #sdy.sharding<@mesh, [{"_axis_1"}, {"_axis_0"}]>, ttcore.argument_type = #ttcore.argument_type<parameter>, ttir.name = "self___model_model_layers_1_self_attn_v_proj__parameters__weight"} loc("p30.708"), %arg31: tensor<64x8x128x64xbf16> {sdy.sharding = #sdy.sharding<@mesh, [{}, {"_axis_1"}, {}, {}]>, ttcore.argument_type = #ttcore.argument_type<input>, ttir.name = "args_5"} loc("p31.732"), %arg32: tensor<512xbf16> {sdy.sharding = #sdy.sharding<@mesh, [{"_axis_1"}]>, ttcore.argument_type = #ttcore.argument_type<parameter>, ttir.name = "self___model_model_layers_2_self_attn_k_proj__parameters__bias"} loc("p32.743"), %arg33: tensor<512x2880xbf16> {sdy.sharding = #sdy.sharding<@mesh, [{"_axis_1"}, {"_axis_0"}]>, ttcore.argument_type = #ttcore.argument_type<parameter>, ttir.name = "self___model_model_layers_2_self_attn_k_proj__parameters__weight"} loc("p33.747"), %arg34: tensor<2880xbf16> {sdy.sharding = #sdy.sharding<@mesh, [{"_axis_0"}]>, ttcore.argument_type = #ttcore.argument_type<parameter>, ttir.name = "model.model.layers.2.input_layernorm.weight"} loc("p34.752"), %arg35: tensor<128xbf16> {sdy.sharding = #sdy.sharding<@mesh, [{}]>, ttcore.argument_type = #ttcore.argument_type<parameter>, ttir.name = "model.model.layers.1.mlp.router.bias"} loc("p35.764"), %arg36: tensor<128x2880xbf16> {sdy.sharding = #sdy.sharding<@mesh, [{}, {"_axis_0"}]>, ttcore.argument_type = #ttcore.argument_type<parameter>, ttcore.weight_dtype = "bfp_bf4", ttir.name = "model.model.layers.1.mlp.router.parametrizations.weight.original"} loc("p36.772"), %arg37: tensor<2880xbf16> {sdy.sharding = #sdy.sharding<@mesh, [{"_axis_0"}]>, ttcore.argument_type = #ttcore.argument_type<parameter>, ttir.name = "model.model.layers.1.post_attention_layernorm.weight"} loc("p37.781"), %arg38: tensor<2880xbf16> {sdy.sharding = #sdy.sharding<@mesh, [{"_axis_0"}]>, ttcore.argument_type = #ttcore.argument_type<parameter>, ttir.name = "self___model_model_layers_1_self_attn_o_proj__parameters__bias"} loc("p38.792"), %arg39: tensor<2880x4096xbf16> {sdy.sharding = #sdy.sharding<@mesh, [{"_axis_0"}, {"_axis_1"}]>, ttcore.argument_type = #ttcore.argument_type<parameter>, ttir.name = "self___model_model_layers_1_self_attn_o_proj__parameters__weight"} loc("p39.796"), %arg40: tensor<64xbf16> {sdy.sharding = #sdy.sharding<@mesh, [{}]>, ttcore.argument_type = #ttcore.argument_type<parameter>, ttir.name = "model.model.layers.1.self_attn.sinks"} loc("p40.807"), %arg41: tensor<bf16> {sdy.sharding = #sdy.sharding<@mesh, []>, ttcore.argument_type = #ttcore.argument_type<constant>, ttir.name = "L['self'].model.model.lifted_tensor_0"} loc("p41.822"), %arg42: tensor<4096xbf16> {sdy.sharding = #sdy.sharding<@mesh, [{"_axis_1"}]>, ttcore.argument_type = #ttcore.argument_type<parameter>, ttir.name = "self___model_model_layers_1_self_attn_q_proj__parameters__bias"} loc("p42.859"), %arg43: tensor<4096x2880xbf16> {sdy.sharding = #sdy.sharding<@mesh, [{"_axis_1"}, {"_axis_0"}]>, ttcore.argument_type = #ttcore.argument_type<parameter>, ttir.name = "self___model_model_layers_1_self_attn_q_proj__parameters__weight"} loc("p43.863"), %arg44: tensor<128x2880xbf16> {sdy.sharding = #sdy.sharding<@mesh, [{"_axis_1"}, {"_axis_0"}]>, ttcore.argument_type = #ttcore.argument_type<parameter>, ttir.name = "model.model.layers.1.mlp.experts.down_proj_bias"} loc("p44.1090"), %arg45: tensor<128x2880x2880xbf16> {sdy.sharding = #sdy.sharding<@mesh, [{"_axis_1"}, {}, {"_axis_0"}]>, ttcore.argument_type = #ttcore.argument_type<parameter>, ttcore.weight_dtype = "bfp_bf4", ttir.name = "model.model.layers.1.mlp.experts.parametrizations.down_proj.original"} loc("p45.1095"), %arg46: tensor<128x5760xbf16> {sdy.sharding = #sdy.sharding<@mesh, [{"_axis_1"}, {}]>, ttcore.argument_type = #ttcore.argument_type<parameter>, ttir.name = "model.model.layers.1.mlp.experts.gate_up_proj_bias"} loc("p46.1102"), %arg47: tensor<128x2880x5760xbf16> {sdy.sharding = #sdy.sharding<@mesh, [{"_axis_1"}, {"_axis_0"}, {}]>, ttcore.argument_type = #ttcore.argument_type<parameter>, ttcore.weight_dtype = "bfp_bf4", ttir.name = "model.model.layers.1.mlp.experts.parametrizations.gate_up_proj.original"} loc("p47.1107"), %arg48: tensor<64x8x128x64xbf16> {sdy.sharding = #sdy.sharding<@mesh, [{}, {"_axis_1"}, {}, {}]>, ttcore.argument_type = #ttcore.argument_type<input>, ttir.name = "args_6"} loc("p48.1235"), %arg49: tensor<512xbf16> {sdy.sharding = #sdy.sharding<@mesh, [{"_axis_1"}]>, ttcore.argument_type = #ttcore.argument_type<parameter>, ttir.name = "self___model_model_layers_2_self_attn_v_proj__parameters__bias"} loc("p49.1244"), %arg50: tensor<512x2880xbf16> {sdy.sharding = #sdy.sharding<@mesh, [{"_axis_1"}, {"_axis_0"}]>, ttcore.argument_type = #ttcore.argument_type<parameter>, ttir.name = "self___model_model_layers_2_self_attn_v_proj__parameters__weight"} loc("p50.1248"), %arg51: tensor<64x8x128x64xbf16> {sdy.sharding = #sdy.sharding<@mesh, [{}, {"_axis_1"}, {}, {}]>, ttcore.argument_type = #ttcore.argument_type<input>, ttir.name = "args_7"} loc("p51.1272"), %arg52: tensor<512xbf16> {sdy.sharding = #sdy.sharding<@mesh, [{"_axis_1"}]>, ttcore.argument_type = #ttcore.argument_type<parameter>, ttir.name = "self___model_model_layers_3_self_attn_k_proj__parameters__bias"} loc("p52.1283"), %arg53: tensor<512x2880xbf16> {sdy.sharding = #sdy.sharding<@mesh, [{"_axis_1"}, {"_axis_0"}]>, ttcore.argument_type = #ttcore.argument_type<parameter>, ttir.name = "self___model_model_layers_3_self_attn_k_proj__parameters__weight"} loc("p53.1287"), %arg54: tensor<2880xbf16> {sdy.sharding = #sdy.sharding<@mesh, [{"_axis_0"}]>, ttcore.argument_type = #ttcore.argument_type<parameter>, ttir.name = "model.model.layers.3.input_layernorm.weight"} loc("p54.1292"), %arg55: tensor<128xbf16> {sdy.sharding = #sdy.sharding<@mesh, [{}]>, ttcore.argument_type = #ttcore.argument_type<parameter>, ttir.name = "model.model.layers.2.mlp.router.bias"} loc("p55.1304"), %arg56: tensor<128x2880xbf16> {sdy.sharding = #sdy.sharding<@mesh, [{}, {"_axis_0"}]>, ttcore.argument_type = #ttcore.argument_type<parameter>, ttcore.weight_dtype = "bfp_bf4", ttir.name = "model.model.layers.2.mlp.router.parametrizations.weight.original"} loc("p56.1312"), %arg57: tensor<2880xbf16> {sdy.sharding = #sdy.sharding<@mesh, [{"_axis_0"}]>, ttcore.argument_type = #ttcore.argument_type<parameter>, ttir.name = "model.model.layers.2.post_attention_layernorm.weight"} loc("p57.1321"), %arg58: tensor<2880xbf16> {sdy.sharding = #sdy.sharding<@mesh, [{"_axis_0"}]>, ttcore.argument_type = #ttcore.argument_type<parameter>, ttir.name = "self___model_model_layers_2_self_attn_o_proj__parameters__bias"} loc("p58.1332"), %arg59: tensor<2880x4096xbf16> {sdy.sharding = #sdy.sharding<@mesh, [{"_axis_0"}, {"_axis_1"}]>, ttcore.argument_type = #ttcore.argument_type<parameter>, ttir.name = "self___model_model_layers_2_self_attn_o_proj__parameters__weight"} loc("p59.1336"), %arg60: tensor<64xbf16> {sdy.sharding = #sdy.sharding<@mesh, [{}]>, ttcore.argument_type = #ttcore.argument_type<parameter>, ttir.name = "model.model.layers.2.self_attn.sinks"} loc("p60.1347"), %arg61: tensor<4096xbf16> {sdy.sharding = #sdy.sharding<@mesh, [{"_axis_1"}]>, ttcore.argument_type = #ttcore.argument_type<parameter>, ttir.name = "self___model_model_layers_2_self_attn_q_proj__parameters__bias"} loc("p61.1365"), %arg62: tensor<4096x2880xbf16> {sdy.sharding = #sdy.sharding<@mesh, [{"_axis_1"}, {"_axis_0"}]>, ttcore.argument_type = #ttcore.argument_type<parameter>, ttir.name = "self___model_model_layers_2_self_attn_q_proj__parameters__weight"} loc("p62.1369"), %arg63: tensor<128x2880xbf16> {sdy.sharding = #sdy.sharding<@mesh, [{"_axis_1"}, {"_axis_0"}]>, ttcore.argument_type = #ttcore.argument_type<parameter>, ttir.name = "model.model.layers.2.mlp.experts.down_proj_bias"} loc("p63.1596"), %arg64: tensor<128x2880x2880xbf16> {sdy.sharding = #sdy.sharding<@mesh, [{"_axis_1"}, {}, {"_axis_0"}]>, ttcore.argument_type = #ttcore.argument_type<parameter>, ttcore.weight_dtype = "bfp_bf4", ttir.name = "model.model.layers.2.mlp.experts.parametrizations.down_proj.original"} loc("p64.1601"), %arg65: tensor<128x5760xbf16> {sdy.sharding = #sdy.sharding<@mesh, [{"_axis_1"}, {}]>, ttcore.argument_type = #ttcore.argument_type<parameter>, ttir.name = "model.model.layers.2.mlp.experts.gate_up_proj_bias"} loc("p65.1608"), %arg66: tensor<128x2880x5760xbf16> {sdy.sharding = #sdy.sharding<@mesh, [{"_axis_1"}, {"_axis_0"}, {}]>, ttcore.argument_type = #ttcore.argument_type<parameter>, ttcore.weight_dtype = "bfp_bf4", ttir.name = "model.model.layers.2.mlp.experts.parametrizations.gate_up_proj.original"} loc("p66.1613"), %arg67: tensor<64x8x128x64xbf16> {sdy.sharding = #sdy.sharding<@mesh, [{}, {"_axis_1"}, {}, {}]>, ttcore.argument_type = #ttcore.argument_type<input>, ttir.name = "args_8"} loc("p67.1741"), %arg68: tensor<512xbf16> {sdy.sharding = #sdy.sharding<@mesh, [{"_axis_1"}]>, ttcore.argument_type = #ttcore.argument_type<parameter>, ttir.name = "self___model_model_layers_3_self_attn_v_proj__parameters__bias"} loc("p68.1750"), %arg69: tensor<512x2880xbf16> {sdy.sharding = #sdy.sharding<@mesh, [{"_axis_1"}, {"_axis_0"}]>, ttcore.argument_type = #ttcore.argument_type<parameter>, ttir.name = "self___model_model_layers_3_self_attn_v_proj__parameters__weight"} loc("p69.1754"), %arg70: tensor<64x8x128x64xbf16> {sdy.sharding = #sdy.sharding<@mesh, [{}, {"_axis_1"}, {}, {}]>, ttcore.argument_type = #ttcore.argument_type<input>, ttir.name = "args_9"} loc("p70.1778"), %arg71: tensor<512xbf16> {sdy.sharding = #sdy.sharding<@mesh, [{"_axis_1"}]>, ttcore.argument_type = #ttcore.argument_type<parameter>, ttir.name = "self___model_model_layers_4_self_attn_k_proj__parameters__bias"} loc("p71.1789"), %arg72: tensor<512x2880xbf16> {sdy.sharding = #sdy.sharding<@mesh, [{"_axis_1"}, {"_axis_0"}]>, ttcore.argument_type = #ttcore.argument_type<parameter>, ttir.name = "self___model_model_layers_4_self_attn_k_proj__parameters__weight"} loc("p72.1793"), %arg73: tensor<2880xbf16> {sdy.sharding = #sdy.sharding<@mesh, [{"_axis_0"}]>, ttcore.argument_type = #ttcore.argument_type<parameter>, ttir.name = "model.model.layers.4.input_layernorm.weight"} loc("p73.1798"), %arg74: tensor<128xbf16> {sdy.sharding = #sdy.sharding<@mesh, [{}]>, ttcore.argument_type = #ttcore.argument_type<parameter>, ttir.name = "model.model.layers.3.mlp.router.bias"} loc("p74.1810"), %arg75: tensor<128x2880xbf16> {sdy.sharding = #sdy.sharding<@mesh, [{}, {"_axis_0"}]>, ttcore.argument_type = #ttcore.argument_type<parameter>, ttcore.weight_dtype = "bfp_bf4", ttir.name = "model.model.layers.3.mlp.router.parametrizations.weight.original"} loc("p75.1818"), %arg76: tensor<2880xbf16> {sdy.sharding = #sdy.sharding<@mesh, [{"_axis_0"}]>, ttcore.argument_type = #ttcore.argument_type<parameter>, ttir.name = "model.model.layers.3.post_attention_layernorm.weight"} loc("p76.1827"), %arg77: tensor<2880xbf16> {sdy.sharding = #sdy.sharding<@mesh, [{"_axis_0"}]>, ttcore.argument_type = #ttcore.argument_type<parameter>, ttir.name = "self___model_model_layers_3_self_attn_o_proj__parameters__bias"} loc("p77.1838"), %arg78: tensor<2880x4096xbf16> {sdy.sharding = #sdy.sharding<@mesh, [{"_axis_0"}, {"_axis_1"}]>, ttcore.argument_type = #ttcore.argument_type<parameter>, ttir.name = "self___model_model_layers_3_self_attn_o_proj__parameters__weight"} loc("p78.1842"), %arg79: tensor<64xbf16> {sdy.sharding = #sdy.sharding<@mesh, [{}]>, ttcore.argument_type = #ttcore.argument_type<parameter>, ttir.name = "model.model.layers.3.self_attn.sinks"} loc("p79.1853"), %arg80: tensor<4096xbf16> {sdy.sharding = #sdy.sharding<@mesh, [{"_axis_1"}]>, ttcore.argument_type = #ttcore.argument_type<parameter>, ttir.name = "self___model_model_layers_3_self_attn_q_proj__parameters__bias"} loc("p80.1871"), %arg81: tensor<4096x2880xbf16> {sdy.sharding = #sdy.sharding<@mesh, [{"_axis_1"}, {"_axis_0"}]>, ttcore.argument_type = #ttcore.argument_type<parameter>, ttir.name = "self___model_model_layers_3_self_attn_q_proj__parameters__weight"} loc("p81.1875"), %arg82: tensor<128x2880xbf16> {sdy.sharding = #sdy.sharding<@mesh, [{"_axis_1"}, {"_axis_0"}]>, ttcore.argument_type = #ttcore.argument_type<parameter>, ttir.name = "model.model.layers.3.mlp.experts.down_proj_bias"} loc("p82.2102"), %arg83: tensor<128x2880x2880xbf16> {sdy.sharding = #sdy.sharding<@mesh, [{"_axis_1"}, {}, {"_axis_0"}]>, ttcore.argument_type = #ttcore.argument_type<parameter>, ttcore.weight_dtype = "bfp_bf4", ttir.name = "model.model.layers.3.mlp.experts.parametrizations.down_proj.original"} loc("p83.2107"), %arg84: tensor<128x5760xbf16> {sdy.sharding = #sdy.sharding<@mesh, [{"_axis_1"}, {}]>, ttcore.argument_type = #ttcore.argument_type<parameter>, ttir.name = "model.model.layers.3.mlp.experts.gate_up_proj_bias"} loc("p84.2114"), %arg85: tensor<128x2880x5760xbf16> {sdy.sharding = #sdy.sharding<@mesh, [{"_axis_1"}, {"_axis_0"}, {}]>, ttcore.argument_type = #ttcore.argument_type<parameter>, ttcore.weight_dtype = "bfp_bf4", ttir.name = "model.model.layers.3.mlp.experts.parametrizations.gate_up_proj.original"} loc("p85.2119"), %arg86: tensor<64x8x128x64xbf16> {sdy.sharding = #sdy.sharding<@mesh, [{}, {"_axis_1"}, {}, {}]>, ttcore.argument_type = #ttcore.argument_type<input>, ttir.name = "args_10"} loc("p86.2247"), %arg87: tensor<512xbf16> {sdy.sharding = #sdy.sharding<@mesh, [{"_axis_1"}]>, ttcore.argument_type = #ttcore.argument_type<parameter>, ttir.name = "self___model_model_layers_4_self_attn_v_proj__parameters__bias"} loc("p87.2256"), %arg88: tensor<512x2880xbf16> {sdy.sharding = #sdy.sharding<@mesh, [{"_axis_1"}, {"_axis_0"}]>, ttcore.argument_type = #ttcore.argument_type<parameter>, ttir.name = "self___model_model_layers_4_self_attn_v_proj__parameters__weight"} loc("p88.2260"), %arg89: tensor<64x8x128x64xbf16> {sdy.sharding = #sdy.sharding<@mesh, [{}, {"_axis_1"}, {}, {}]>, ttcore.argument_type = #ttcore.argument_type<input>, ttir.name = "args_11"} loc("p89.2284"), %arg90: tensor<512xbf16> {sdy.sharding = #sdy.sharding<@mesh, [{"_axis_1"}]>, ttcore.argument_type = #ttcore.argument_type<parameter>, ttir.name = "self___model_model_layers_5_self_attn_k_proj__parameters__bias"} loc("p90.2295"), %arg91: tensor<512x2880xbf16> {sdy.sharding = #sdy.sharding<@mesh, [{"_axis_1"}, {"_axis_0"}]>, ttcore.argument_type = #ttcore.argument_type<parameter>, ttir.name = "self___model_model_layers_5_self_attn_k_proj__parameters__weight"} loc("p91.2299"), %arg92: tensor<2880xbf16> {sdy.sharding = #sdy.sharding<@mesh, [{"_axis_0"}]>, ttcore.argument_type = #ttcore.argument_type<parameter>, ttir.name = "model.model.layers.5.input_layernorm.weight"} loc("p92.2304"), %arg93: tensor<128xbf16> {sdy.sharding = #sdy.sharding<@mesh, [{}]>, ttcore.argument_type = #ttcore.argument_type<parameter>, ttir.name = "model.model.layers.4.mlp.router.bias"} loc("p93.2316"), %arg94: tensor<128x2880xbf16> {sdy.sharding = #sdy.sharding<@mesh, [{}, {"_axis_0"}]>, ttcore.argument_type = #ttcore.argument_type<parameter>, ttcore.weight_dtype = "bfp_bf4", ttir.name = "model.model.layers.4.mlp.router.parametrizations.weight.original"} loc("p94.2324"), %arg95: tensor<2880xbf16> {sdy.sharding = #sdy.sharding<@mesh, [{"_axis_0"}]>, ttcore.argument_type = #ttcore.argument_type<parameter>, ttir.name = "model.model.layers.4.post_attention_layernorm.weight"} loc("p95.2333"), %arg96: tensor<2880xbf16> {sdy.sharding = #sdy.sharding<@mesh, [{"_axis_0"}]>, ttcore.argument_type = #ttcore.argument_type<parameter>, ttir.name = "self___model_model_layers_4_self_attn_o_proj__parameters__bias"} loc("p96.2344"), %arg97: tensor<2880x4096xbf16> {sdy.sharding = #sdy.sharding<@mesh, [{"_axis_0"}, {"_axis_1"}]>, ttcore.argument_type = #ttcore.argument_type<parameter>, ttir.name = "self___model_model_layers_4_self_attn_o_proj__parameters__weight"} loc("p97.2348"), %arg98: tensor<64xbf16> {sdy.sharding = #sdy.sharding<@mesh, [{}]>, ttcore.argument_type = #ttcore.argument_type<parameter>, ttir.name = "model.model.layers.4.self_attn.sinks"} loc("p98.2359"), %arg99: tensor<4096xbf16> {sdy.sharding = #sdy.sharding<@mesh, [{"_axis_1"}]>, ttcore.argument_type = #ttcore.argument_type<parameter>, ttir.name = "self___model_model_layers_4_self_attn_q_proj__parameters__bias"} loc("p99.2377"), %arg100: tensor<4096x2880xbf16> {sdy.sharding = #sdy.sharding<@mesh, [{"_axis_1"}, {"_axis_0"}]>, ttcore.argument_type = #ttcore.argument_type<parameter>, ttir.name = "self___model_model_layers_4_self_attn_q_proj__parameters__weight"} loc("p100.2381"), %arg101: tensor<128x2880xbf16> {sdy.sharding = #sdy.sharding<@mesh, [{"_axis_1"}, {"_axis_0"}]>, ttcore.argument_type = #ttcore.argument_type<parameter>, ttir.name = "model.model.layers.4.mlp.experts.down_proj_bias"} loc("p101.2608"), %arg102: tensor<128x2880x2880xbf16> {sdy.sharding = #sdy.sharding<@mesh, [{"_axis_1"}, {}, {"_axis_0"}]>, ttcore.argument_type = #ttcore.argument_type<parameter>, ttcore.weight_dtype = "bfp_bf4", ttir.name = "model.model.layers.4.mlp.experts.parametrizations.down_proj.original"} loc("p102.2613"), %arg103: tensor<128x5760xbf16> {sdy.sharding = #sdy.sharding<@mesh, [{"_axis_1"}, {}]>, ttcore.argument_type = #ttcore.argument_type<parameter>, ttir.name = "model.model.layers.4.mlp.experts.gate_up_proj_bias"} loc("p103.2620"), %arg104: tensor<128x2880x5760xbf16> {sdy.sharding = #sdy.sharding<@mesh, [{"_axis_1"}, {"_axis_0"}, {}]>, ttcore.argument_type = #ttcore.argument_type<parameter>, ttcore.weight_dtype = "bfp_bf4", ttir.name = "model.model.layers.4.mlp.experts.parametrizations.gate_up_proj.original"} loc("p104.2625"), %arg105: tensor<64x8x128x64xbf16> {sdy.sharding = #sdy.sharding<@mesh, [{}, {"_axis_1"}, {}, {}]>, ttcore.argument_type = #ttcore.argument_type<input>, ttir.name = "args_12"} loc("p105.2753"), %arg106: tensor<512xbf16> {sdy.sharding = #sdy.sharding<@mesh, [{"_axis_1"}]>, ttcore.argument_type = #ttcore.argument_type<parameter>, ttir.name = "self___model_model_layers_5_self_attn_v_proj__parameters__bias"} loc("p106.2762"), %arg107: tensor<512x2880xbf16> {sdy.sharding = #sdy.sharding<@mesh, [{"_axis_1"}, {"_axis_0"}]>, ttcore.argument_type = #ttcore.argument_type<parameter>, ttir.name = "self___model_model_layers_5_self_attn_v_proj__parameters__weight"} loc("p107.2766"), %arg108: tensor<64x8x128x64xbf16> {sdy.sharding = #sdy.sharding<@mesh, [{}, {"_axis_1"}, {}, {}]>, ttcore.argument_type = #ttcore.argument_type<input>, ttir.name = "args_13"} loc("p108.2790"), %arg109: tensor<512xbf16> {sdy.sharding = #sdy.sharding<@mesh, [{"_axis_1"}]>, ttcore.argument_type = #ttcore.argument_type<parameter>, ttir.name = "self___model_model_layers_6_self_attn_k_proj__parameters__bias"} loc("p109.2801"), %arg110: tensor<512x2880xbf16> {sdy.sharding = #sdy.sharding<@mesh, [{"_axis_1"}, {"_axis_0"}]>, ttcore.argument_type = #ttcore.argument_type<parameter>, ttir.name = "self___model_model_layers_6_self_attn_k_proj__parameters__weight"} loc("p110.2805"), %arg111: tensor<2880xbf16> {sdy.sharding = #sdy.sharding<@mesh, [{"_axis_0"}]>, ttcore.argument_type = #ttcore.argument_type<parameter>, ttir.name = "model.model.layers.6.input_layernorm.weight"} loc("p111.2810"), %arg112: tensor<128xbf16> {sdy.sharding = #sdy.sharding<@mesh, [{}]>, ttcore.argument_type = #ttcore.argument_type<parameter>, ttir.name = "model.model.layers.5.mlp.router.bias"} loc("p112.2822"), %arg113: tensor<128x2880xbf16> {sdy.sharding = #sdy.sharding<@mesh, [{}, {"_axis_0"}]>, ttcore.argument_type = #ttcore.argument_type<parameter>, ttcore.weight_dtype = "bfp_bf4", ttir.name = "model.model.layers.5.mlp.router.parametrizations.weight.original"} loc("p113.2830"), %arg114: tensor<2880xbf16> {sdy.sharding = #sdy.sharding<@mesh, [{"_axis_0"}]>, ttcore.argument_type = #ttcore.argument_type<parameter>, ttir.name = "model.model.layers.5.post_attention_layernorm.weight"} loc("p114.2839"), %arg115: tensor<2880xbf16> {sdy.sharding = #sdy.sharding<@mesh, [{"_axis_0"}]>, ttcore.argument_type = #ttcore.argument_type<parameter>, ttir.name = "self___model_model_layers_5_self_attn_o_proj__parameters__bias"} loc("p115.2850"), %arg116: tensor<2880x4096xbf16> {sdy.sharding = #sdy.sharding<@mesh, [{"_axis_0"}, {"_axis_1"}]>, ttcore.argument_type = #ttcore.argument_type<parameter>, ttir.name = "self___model_model_layers_5_self_attn_o_proj__parameters__weight"} loc("p116.2854"), %arg117: tensor<64xbf16> {sdy.sharding = #sdy.sharding<@mesh, [{}]>, ttcore.argument_type = #ttcore.argument_type<parameter>, ttir.name = "model.model.layers.5.self_attn.sinks"} loc("p117.2865"), %arg118: tensor<4096xbf16> {sdy.sharding = #sdy.sharding<@mesh, [{"_axis_1"}]>, ttcore.argument_type = #ttcore.argument_type<parameter>, ttir.name = "self___model_model_layers_5_self_attn_q_proj__parameters__bias"} loc("p118.2883"), %arg119: tensor<4096x2880xbf16> {sdy.sharding = #sdy.sharding<@mesh, [{"_axis_1"}, {"_axis_0"}]>, ttcore.argument_type = #ttcore.argument_type<parameter>, ttir.name = "self___model_model_layers_5_self_attn_q_proj__parameters__weight"} loc("p119.2887"), %arg120: tensor<128x2880xbf16> {sdy.sharding = #sdy.sharding<@mesh, [{"_axis_1"}, {"_axis_0"}]>, ttcore.argument_type = #ttcore.argument_type<parameter>, ttir.name = "model.model.layers.5.mlp.experts.down_proj_bias"} loc("p120.3114"), %arg121: tensor<128x2880x2880xbf16> {sdy.sharding = #sdy.sharding<@mesh, [{"_axis_1"}, {}, {"_axis_0"}]>, ttcore.argument_type = #ttcore.argument_type<parameter>, ttcore.weight_dtype = "bfp_bf4", ttir.name = "model.model.layers.5.mlp.experts.parametrizations.down_proj.original"} loc("p121.3119"), %arg122: tensor<128x5760xbf16> {sdy.sharding = #sdy.sharding<@mesh, [{"_axis_1"}, {}]>, ttcore.argument_type = #ttcore.argument_type<parameter>, ttir.name = "model.model.layers.5.mlp.experts.gate_up_proj_bias"} loc("p122.3126"), %arg123: tensor<128x2880x5760xbf16> {sdy.sharding = #sdy.sharding<@mesh, [{"_axis_1"}, {"_axis_0"}, {}]>, ttcore.argument_type = #ttcore.argument_type<parameter>, ttcore.weight_dtype = "bfp_bf4", ttir.name = "model.model.layers.5.mlp.experts.parametrizations.gate_up_proj.original"} loc("p123.3131"), %arg124: tensor<64x8x128x64xbf16> {sdy.sharding = #sdy.sharding<@mesh, [{}, {"_axis_1"}, {}, {}]>, ttcore.argument_type = #ttcore.argument_type<input>, ttir.name = "args_14"} loc("p124.3259"), %arg125: tensor<512xbf16> {sdy.sharding = #sdy.sharding<@mesh, [{"_axis_1"}]>, ttcore.argument_type = #ttcore.argument_type<parameter>, ttir.name = "self___model_model_layers_6_self_attn_v_proj__parameters__bias"} loc("p125.3268"), %arg126: tensor<512x2880xbf16> {sdy.sharding = #sdy.sharding<@mesh, [{"_axis_1"}, {"_axis_0"}]>, ttcore.argument_type = #ttcore.argument_type<parameter>, ttir.name = "self___model_model_layers_6_self_attn_v_proj__parameters__weight"} loc("p126.3272"), %arg127: tensor<64x8x128x64xbf16> {sdy.sharding = #sdy.sharding<@mesh, [{}, {"_axis_1"}, {}, {}]>, ttcore.argument_type = #ttcore.argument_type<input>, ttir.name = "args_15"} loc("p127.3296"), %arg128: tensor<512xbf16> {sdy.sharding = #sdy.sharding<@mesh, [{"_axis_1"}]>, ttcore.argument_type = #ttcore.argument_type<parameter>, ttir.name = "self___model_model_layers_7_self_attn_k_proj__parameters__bias"} loc("p128.3307"), %arg129: tensor<512x2880xbf16> {sdy.sharding = #sdy.sharding<@mesh, [{"_axis_1"}, {"_axis_0"}]>, ttcore.argument_type = #ttcore.argument_type<parameter>, ttir.name = "self___model_model_layers_7_self_attn_k_proj__parameters__weight"} loc("p129.3311"), %arg130: tensor<2880xbf16> {sdy.sharding = #sdy.sharding<@mesh, [{"_axis_0"}]>, ttcore.argument_type = #ttcore.argument_type<parameter>, ttir.name = "model.model.layers.7.input_layernorm.weight"} loc("p130.3316"), %arg131: tensor<128xbf16> {sdy.sharding = #sdy.sharding<@mesh, [{}]>, ttcore.argument_type = #ttcore.argument_type<parameter>, ttir.name = "model.model.layers.6.mlp.router.bias"} loc("p131.3328"), %arg132: tensor<128x2880xbf16> {sdy.sharding = #sdy.sharding<@mesh, [{}, {"_axis_0"}]>, ttcore.argument_type = #ttcore.argument_type<parameter>, ttcore.weight_dtype = "bfp_bf4", ttir.name = "model.model.layers.6.mlp.router.parametrizations.weight.original"} loc("p132.3336"), %arg133: tensor<2880xbf16> {sdy.sharding = #sdy.sharding<@mesh, [{"_axis_0"}]>, ttcore.argument_type = #ttcore.argument_type<parameter>, ttir.name = "model.model.layers.6.post_attention_layernorm.weight"} loc("p133.3345"), %arg134: tensor<2880xbf16> {sdy.sharding = #sdy.sharding<@mesh, [{"_axis_0"}]>, ttcore.argument_type = #ttcore.argument_type<parameter>, ttir.name = "self___model_model_layers_6_self_attn_o_proj__parameters__bias"} loc("p134.3356"), %arg135: tensor<2880x4096xbf16> {sdy.sharding = #sdy.sharding<@mesh, [{"_axis_0"}, {"_axis_1"}]>, ttcore.argument_type = #ttcore.argument_type<parameter>, ttir.name = "self___model_model_layers_6_self_attn_o_proj__parameters__weight"} loc("p135.3360"), %arg136: tensor<64xbf16> {sdy.sharding = #sdy.sharding<@mesh, [{}]>, ttcore.argument_type = #ttcore.argument_type<parameter>, ttir.name = "model.model.layers.6.self_attn.sinks"} loc("p136.3371"), %arg137: tensor<4096xbf16> {sdy.sharding = #sdy.sharding<@mesh, [{"_axis_1"}]>, ttcore.argument_type = #ttcore.argument_type<parameter>, ttir.name = "self___model_model_layers_6_self_attn_q_proj__parameters__bias"} loc("p137.3389"), %arg138: tensor<4096x2880xbf16> {sdy.sharding = #sdy.sharding<@mesh, [{"_axis_1"}, {"_axis_0"}]>, ttcore.argument_type = #ttcore.argument_type<parameter>, ttir.name = "self___model_model_layers_6_self_attn_q_proj__parameters__weight"} loc("p138.3393"), %arg139: tensor<128x2880xbf16> {sdy.sharding = #sdy.sharding<@mesh, [{"_axis_1"}, {"_axis_0"}]>, ttcore.argument_type = #ttcore.argument_type<parameter>, ttir.name = "model.model.layers.6.mlp.experts.down_proj_bias"} loc("p139.3620"), %arg140: tensor<128x2880x2880xbf16> {sdy.sharding = #sdy.sharding<@mesh, [{"_axis_1"}, {}, {"_axis_0"}]>, ttcore.argument_type = #ttcore.argument_type<parameter>, ttcore.weight_dtype = "bfp_bf4", ttir.name = "model.model.layers.6.mlp.experts.parametrizations.down_proj.original"} loc("p140.3625"), %arg141: tensor<128x5760xbf16> {sdy.sharding = #sdy.sharding<@mesh, [{"_axis_1"}, {}]>, ttcore.argument_type = #ttcore.argument_type<parameter>, ttir.name = "model.model.layers.6.mlp.experts.gate_up_proj_bias"} loc("p141.3632"), %arg142: tensor<128x2880x5760xbf16> {sdy.sharding = #sdy.sharding<@mesh, [{"_axis_1"}, {"_axis_0"}, {}]>, ttcore.argument_type = #ttcore.argument_type<parameter>, ttcore.weight_dtype = "bfp_bf4", ttir.name = "model.model.layers.6.mlp.experts.parametrizations.gate_up_proj.original"} loc("p142.3637"), %arg143: tensor<64x8x128x64xbf16> {sdy.sharding = #sdy.sharding<@mesh, [{}, {"_axis_1"}, {}, {}]>, ttcore.argument_type = #ttcore.argument_type<input>, ttir.name = "args_16"} loc("p143.3765"), %arg144: tensor<512xbf16> {sdy.sharding = #sdy.sharding<@mesh, [{"_axis_1"}]>, ttcore.argument_type = #ttcore.argument_type<parameter>, ttir.name = "self___model_model_layers_7_self_attn_v_proj__parameters__bias"} loc("p144.3774"), %arg145: tensor<512x2880xbf16> {sdy.sharding = #sdy.sharding<@mesh, [{"_axis_1"}, {"_axis_0"}]>, ttcore.argument_type = #ttcore.argument_type<parameter>, ttir.name = "self___model_model_layers_7_self_attn_v_proj__parameters__weight"} loc("p145.3778"), %arg146: tensor<64x8x128x64xbf16> {sdy.sharding = #sdy.sharding<@mesh, [{}, {"_axis_1"}, {}, {}]>, ttcore.argument_type = #ttcore.argument_type<input>, ttir.name = "args_17"} loc("p146.3802"), %arg147: tensor<512xbf16> {sdy.sharding = #sdy.sharding<@mesh, [{"_axis_1"}]>, ttcore.argument_type = #ttcore.argument_type<parameter>, ttir.name = "self___model_model_layers_8_self_attn_k_proj__parameters__bias"} loc("p147.3813"), %arg148: tensor<512x2880xbf16> {sdy.sharding = #sdy.sharding<@mesh, [{"_axis_1"}, {"_axis_0"}]>, ttcore.argument_type = #ttcore.argument_type<parameter>, ttir.name = "self___model_model_layers_8_self_attn_k_proj__parameters__weight"} loc("p148.3817"), %arg149: tensor<2880xbf16> {sdy.sharding = #sdy.sharding<@mesh, [{"_axis_0"}]>, ttcore.argument_type = #ttcore.argument_type<parameter>, ttir.name = "model.model.layers.8.input_layernorm.weight"} loc("p149.3822"), %arg150: tensor<128xbf16> {sdy.sharding = #sdy.sharding<@mesh, [{}]>, ttcore.argument_type = #ttcore.argument_type<parameter>, ttir.name = "model.model.layers.7.mlp.router.bias"} loc("p150.3834"), %arg151: tensor<128x2880xbf16> {sdy.sharding = #sdy.sharding<@mesh, [{}, {"_axis_0"}]>, ttcore.argument_type = #ttcore.argument_type<parameter>, ttcore.weight_dtype = "bfp_bf4", ttir.name = "model.model.layers.7.mlp.router.parametrizations.weight.original"} loc("p151.3842"), %arg152: tensor<2880xbf16> {sdy.sharding = #sdy.sharding<@mesh, [{"_axis_0"}]>, ttcore.argument_type = #ttcore.argument_type<parameter>, ttir.name = "model.model.layers.7.post_attention_layernorm.weight"} loc("p152.3851"), %arg153: tensor<2880xbf16> {sdy.sharding = #sdy.sharding<@mesh, [{"_axis_0"}]>, ttcore.argument_type = #ttcore.argument_type<parameter>, ttir.name = "self___model_model_layers_7_self_attn_o_proj__parameters__bias"} loc("p153.3862"), %arg154: tensor<2880x4096xbf16> {sdy.sharding = #sdy.sharding<@mesh, [{"_axis_0"}, {"_axis_1"}]>, ttcore.argument_type = #ttcore.argument_type<parameter>, ttir.name = "self___model_model_layers_7_self_attn_o_proj__parameters__weight"} loc("p154.3866"), %arg155: tensor<64xbf16> {sdy.sharding = #sdy.sharding<@mesh, [{}]>, ttcore.argument_type = #ttcore.argument_type<parameter>, ttir.name = "model.model.layers.7.self_attn.sinks"} loc("p155.3877"), %arg156: tensor<4096xbf16> {sdy.sharding = #sdy.sharding<@mesh, [{"_axis_1"}]>, ttcore.argument_type = #ttcore.argument_type<parameter>, ttir.name = "self___model_model_layers_7_self_attn_q_proj__parameters__bias"} loc("p156.3895"), %arg157: tensor<4096x2880xbf16> {sdy.sharding = #sdy.sharding<@mesh, [{"_axis_1"}, {"_axis_0"}]>, ttcore.argument_type = #ttcore.argument_type<parameter>, ttir.name = "self___model_model_layers_7_self_attn_q_proj__parameters__weight"} loc("p157.3899"), %arg158: tensor<128x2880xbf16> {sdy.sharding = #sdy.sharding<@mesh, [{"_axis_1"}, {"_axis_0"}]>, ttcore.argument_type = #ttcore.argument_type<parameter>, ttir.name = "model.model.layers.7.mlp.experts.down_proj_bias"} loc("p158.4126"), %arg159: tensor<128x2880x2880xbf16> {sdy.sharding = #sdy.sharding<@mesh, [{"_axis_1"}, {}, {"_axis_0"}]>, ttcore.argument_type = #ttcore.argument_type<parameter>, ttcore.weight_dtype = "bfp_bf4", ttir.name = "model.model.layers.7.mlp.experts.parametrizations.down_proj.original"} loc("p159.4131"), %arg160: tensor<128x5760xbf16> {sdy.sharding = #sdy.sharding<@mesh, [{"_axis_1"}, {}]>, ttcore.argument_type = #ttcore.argument_type<parameter>, ttir.name = "model.model.layers.7.mlp.experts.gate_up_proj_bias"} loc("p160.4138"), %arg161: tensor<128x2880x5760xbf16> {sdy.sharding = #sdy.sharding<@mesh, [{"_axis_1"}, {"_axis_0"}, {}]>, ttcore.argument_type = #ttcore.argument_type<parameter>, ttcore.weight_dtype = "bfp_bf4", ttir.name = "model.model.layers.7.mlp.experts.parametrizations.gate_up_proj.original"} loc("p161.4143"), %arg162: tensor<64x8x128x64xbf16> {sdy.sharding = #sdy.sharding<@mesh, [{}, {"_axis_1"}, {}, {}]>, ttcore.argument_type = #ttcore.argument_type<input>, ttir.name = "args_18"} loc("p162.4271"), %arg163: tensor<512xbf16> {sdy.sharding = #sdy.sharding<@mesh, [{"_axis_1"}]>, ttcore.argument_type = #ttcore.argument_type<parameter>, ttir.name = "self___model_model_layers_8_self_attn_v_proj__parameters__bias"} loc("p163.4280"), %arg164: tensor<512x2880xbf16> {sdy.sharding = #sdy.sharding<@mesh, [{"_axis_1"}, {"_axis_0"}]>, ttcore.argument_type = #ttcore.argument_type<parameter>, ttir.name = "self___model_model_layers_8_self_attn_v_proj__parameters__weight"} loc("p164.4284"), %arg165: tensor<64x8x128x64xbf16> {sdy.sharding = #sdy.sharding<@mesh, [{}, {"_axis_1"}, {}, {}]>, ttcore.argument_type = #ttcore.argument_type<input>, ttir.name = "args_19"} loc("p165.4308"), %arg166: tensor<512xbf16> {sdy.sharding = #sdy.sharding<@mesh, [{"_axis_1"}]>, ttcore.argument_type = #ttcore.argument_type<parameter>, ttir.name = "self___model_model_layers_9_self_attn_k_proj__parameters__bias"} loc("p166.4319"), %arg167: tensor<512x2880xbf16> {sdy.sharding = #sdy.sharding<@mesh, [{"_axis_1"}, {"_axis_0"}]>, ttcore.argument_type = #ttcore.argument_type<parameter>, ttir.name = "self___model_model_layers_9_self_attn_k_proj__parameters__weight"} loc("p167.4323"), %arg168: tensor<2880xbf16> {sdy.sharding = #sdy.sharding<@mesh, [{"_axis_0"}]>, ttcore.argument_type = #ttcore.argument_type<parameter>, ttir.name = "model.model.layers.9.input_layernorm.weight"} loc("p168.4328"), %arg169: tensor<128xbf16> {sdy.sharding = #sdy.sharding<@mesh, [{}]>, ttcore.argument_type = #ttcore.argument_type<parameter>, ttir.name = "model.model.layers.8.mlp.router.bias"} loc("p169.4340"), %arg170: tensor<128x2880xbf16> {sdy.sharding = #sdy.sharding<@mesh, [{}, {"_axis_0"}]>, ttcore.argument_type = #ttcore.argument_type<parameter>, ttcore.weight_dtype = "bfp_bf4", ttir.name = "model.model.layers.8.mlp.router.parametrizations.weight.original"} loc("p170.4348"), %arg171: tensor<2880xbf16> {sdy.sharding = #sdy.sharding<@mesh, [{"_axis_0"}]>, ttcore.argument_type = #ttcore.argument_type<parameter>, ttir.name = "model.model.layers.8.post_attention_layernorm.weight"} loc("p171.4357"), %arg172: tensor<2880xbf16> {sdy.sharding = #sdy.sharding<@mesh, [{"_axis_0"}]>, ttcore.argument_type = #ttcore.argument_type<parameter>, ttir.name = "self___model_model_layers_8_self_attn_o_proj__parameters__bias"} loc("p172.4368"), %arg173: tensor<2880x4096xbf16> {sdy.sharding = #sdy.sharding<@mesh, [{"_axis_0"}, {"_axis_1"}]>, ttcore.argument_type = #ttcore.argument_type<parameter>, ttir.name = "self___model_model_layers_8_self_attn_o_proj__parameters__weight"} loc("p173.4372"), %arg174: tensor<64xbf16> {sdy.sharding = #sdy.sharding<@mesh, [{}]>, ttcore.argument_type = #ttcore.argument_type<parameter>, ttir.name = "model.model.layers.8.self_attn.sinks"} loc("p174.4383"), %arg175: tensor<4096xbf16> {sdy.sharding = #sdy.sharding<@mesh, [{"_axis_1"}]>, ttcore.argument_type = #ttcore.argument_type<parameter>, ttir.name = "self___model_model_layers_8_self_attn_q_proj__parameters__bias"} loc("p175.4401"), %arg176: tensor<4096x2880xbf16> {sdy.sharding = #sdy.sharding<@mesh, [{"_axis_1"}, {"_axis_0"}]>, ttcore.argument_type = #ttcore.argument_type<parameter>, ttir.name = "self___model_model_layers_8_self_attn_q_proj__parameters__weight"} loc("p176.4405"), %arg177: tensor<128x2880xbf16> {sdy.sharding = #sdy.sharding<@mesh, [{"_axis_1"}, {"_axis_0"}]>, ttcore.argument_type = #ttcore.argument_type<parameter>, ttir.name = "model.model.layers.8.mlp.experts.down_proj_bias"} loc("p177.4632"), %arg178: tensor<128x2880x2880xbf16> {sdy.sharding = #sdy.sharding<@mesh, [{"_axis_1"}, {}, {"_axis_0"}]>, ttcore.argument_type = #ttcore.argument_type<parameter>, ttcore.weight_dtype = "bfp_bf4", ttir.name = "model.model.layers.8.mlp.experts.parametrizations.down_proj.original"} loc("p178.4637"), %arg179: tensor<128x5760xbf16> {sdy.sharding = #sdy.sharding<@mesh, [{"_axis_1"}, {}]>, ttcore.argument_type = #ttcore.argument_type<parameter>, ttir.name = "model.model.layers.8.mlp.experts.gate_up_proj_bias"} loc("p179.4644"), %arg180: tensor<128x2880x5760xbf16> {sdy.sharding = #sdy.sharding<@mesh, [{"_axis_1"}, {"_axis_0"}, {}]>, ttcore.argument_type = #ttcore.argument_type<parameter>, ttcore.weight_dtype = "bfp_bf4", ttir.name = "model.model.layers.8.mlp.experts.parametrizations.gate_up_proj.original"} loc("p180.4649"), %arg181: tensor<64x8x128x64xbf16> {sdy.sharding = #sdy.sharding<@mesh, [{}, {"_axis_1"}, {}, {}]>, ttcore.argument_type = #ttcore.argument_type<input>, ttir.name = "args_20"} loc("p181.4777"), %arg182: tensor<512xbf16> {sdy.sharding = #sdy.sharding<@mesh, [{"_axis_1"}]>, ttcore.argument_type = #ttcore.argument_type<parameter>, ttir.name = "self___model_model_layers_9_self_attn_v_proj__parameters__bias"} loc("p182.4786"), %arg183: tensor<512x2880xbf16> {sdy.sharding = #sdy.sharding<@mesh, [{"_axis_1"}, {"_axis_0"}]>, ttcore.argument_type = #ttcore.argument_type<parameter>, ttir.name = "self___model_model_layers_9_self_attn_v_proj__parameters__weight"} loc("p183.4790"), %arg184: tensor<64x8x128x64xbf16> {sdy.sharding = #sdy.sharding<@mesh, [{}, {"_axis_1"}, {}, {}]>, ttcore.argument_type = #ttcore.argument_type<input>, ttir.name = "args_21"} loc("p184.4814"), %arg185: tensor<512xbf16> {sdy.sharding = #sdy.sharding<@mesh, [{"_axis_1"}]>, ttcore.argument_type = #ttcore.argument_type<parameter>, ttir.name = "self___model_model_layers_10_self_attn_k_proj__parameters__bias"} loc("p185.4825"), %arg186: tensor<512x2880xbf16> {sdy.sharding = #sdy.sharding<@mesh, [{"_axis_1"}, {"_axis_0"}]>, ttcore.argument_type = #ttcore.argument_type<parameter>, ttir.name = "self___model_model_layers_10_self_attn_k_proj__parameters__weight"} loc("p186.4829"), %arg187: tensor<2880xbf16> {sdy.sharding = #sdy.sharding<@mesh, [{"_axis_0"}]>, ttcore.argument_type = #ttcore.argument_type<parameter>, ttir.name = "model.model.layers.10.input_layernorm.weight"} loc("p187.4834"), %arg188: tensor<128xbf16> {sdy.sharding = #sdy.sharding<@mesh, [{}]>, ttcore.argument_type = #ttcore.argument_type<parameter>, ttir.name = "model.model.layers.9.mlp.router.bias"} loc("p188.4846"), %arg189: tensor<128x2880xbf16> {sdy.sharding = #sdy.sharding<@mesh, [{}, {"_axis_0"}]>, ttcore.argument_type = #ttcore.argument_type<parameter>, ttcore.weight_dtype = "bfp_bf4", ttir.name = "model.model.layers.9.mlp.router.parametrizations.weight.original"} loc("p189.4854"), %arg190: tensor<2880xbf16> {sdy.sharding = #sdy.sharding<@mesh, [{"_axis_0"}]>, ttcore.argument_type = #ttcore.argument_type<parameter>, ttir.name = "model.model.layers.9.post_attention_layernorm.weight"} loc("p190.4863"), %arg191: tensor<2880xbf16> {sdy.sharding = #sdy.sharding<@mesh, [{"_axis_0"}]>, ttcore.argument_type = #ttcore.argument_type<parameter>, ttir.name = "self___model_model_layers_9_self_attn_o_proj__parameters__bias"} loc("p191.4874"), %arg192: tensor<2880x4096xbf16> {sdy.sharding = #sdy.sharding<@mesh, [{"_axis_0"}, {"_axis_1"}]>, ttcore.argument_type = #ttcore.argument_type<parameter>, ttir.name = "self___model_model_layers_9_self_attn_o_proj__parameters__weight"} loc("p192.4878"), %arg193: tensor<64xbf16> {sdy.sharding = #sdy.sharding<@mesh, [{}]>, ttcore.argument_type = #ttcore.argument_type<parameter>, ttir.name = "model.model.layers.9.self_attn.sinks"} loc("p193.4889"), %arg194: tensor<4096xbf16> {sdy.sharding = #sdy.sharding<@mesh, [{"_axis_1"}]>, ttcore.argument_type = #ttcore.argument_type<parameter>, ttir.name = "self___model_model_layers_9_self_attn_q_proj__parameters__bias"} loc("p194.4907"), %arg195: tensor<4096x2880xbf16> {sdy.sharding = #sdy.sharding<@mesh, [{"_axis_1"}, {"_axis_0"}]>, ttcore.argument_type = #ttcore.argument_type<parameter>, ttir.name = "self___model_model_layers_9_self_attn_q_proj__parameters__weight"} loc("p195.4911"), %arg196: tensor<128x2880xbf16> {sdy.sharding = #sdy.sharding<@mesh, [{"_axis_1"}, {"_axis_0"}]>, ttcore.argument_type = #ttcore.argument_type<parameter>, ttir.name = "model.model.layers.9.mlp.experts.down_proj_bias"} loc("p196.5138"), %arg197: tensor<128x2880x2880xbf16> {sdy.sharding = #sdy.sharding<@mesh, [{"_axis_1"}, {}, {"_axis_0"}]>, ttcore.argument_type = #ttcore.argument_type<parameter>, ttcore.weight_dtype = "bfp_bf4", ttir.name = "model.model.layers.9.mlp.experts.parametrizations.down_proj.original"} loc("p197.5143"), %arg198: tensor<128x5760xbf16> {sdy.sharding = #sdy.sharding<@mesh, [{"_axis_1"}, {}]>, ttcore.argument_type = #ttcore.argument_type<parameter>, ttir.name = "model.model.layers.9.mlp.experts.gate_up_proj_bias"} loc("p198.5150"), %arg199: tensor<128x2880x5760xbf16> {sdy.sharding = #sdy.sharding<@mesh, [{"_axis_1"}, {"_axis_0"}, {}]>, ttcore.argument_type = #ttcore.argument_type<parameter>, ttcore.weight_dtype = "bfp_bf4", ttir.name = "model.model.layers.9.mlp.experts.parametrizations.gate_up_proj.original"} loc("p199.5155"), %arg200: tensor<64x8x128x64xbf16> {sdy.sharding = #sdy.sharding<@mesh, [{}, {"_axis_1"}, {}, {}]>, ttcore.argument_type = #ttcore.argument_type<input>, ttir.name = "args_22"} loc("p200.5283"), %arg201: tensor<512xbf16> {sdy.sharding = #sdy.sharding<@mesh, [{"_axis_1"}]>, ttcore.argument_type = #ttcore.argument_type<parameter>, ttir.name = "self___model_model_layers_10_self_attn_v_proj__parameters__bias"} loc("p201.5292"), %arg202: tensor<512x2880xbf16> {sdy.sharding = #sdy.sharding<@mesh, [{"_axis_1"}, {"_axis_0"}]>, ttcore.argument_type = #ttcore.argument_type<parameter>, ttir.name = "self___model_model_layers_10_self_attn_v_proj__parameters__weight"} loc("p202.5296"), %arg203: tensor<64x8x128x64xbf16> {sdy.sharding = #sdy.sharding<@mesh, [{}, {"_axis_1"}, {}, {}]>, ttcore.argument_type = #ttcore.argument_type<input>, ttir.name = "args_23"} loc("p203.5320"), %arg204: tensor<512xbf16> {sdy.sharding = #sdy.sharding<@mesh, [{"_axis_1"}]>, ttcore.argument_type = #ttcore.argument_type<parameter>, ttir.name = "self___model_model_layers_11_self_attn_k_proj__parameters__bias"} loc("p204.5331"), %arg205: tensor<512x2880xbf16> {sdy.sharding = #sdy.sharding<@mesh, [{"_axis_1"}, {"_axis_0"}]>, ttcore.argument_type = #ttcore.argument_type<parameter>, ttir.name = "self___model_model_layers_11_self_attn_k_proj__parameters__weight"} loc("p205.5335"), %arg206: tensor<2880xbf16> {sdy.sharding = #sdy.sharding<@mesh, [{"_axis_0"}]>, ttcore.argument_type = #ttcore.argument_type<parameter>, ttir.name = "model.model.layers.11.input_layernorm.weight"} loc("p206.5340"), %arg207: tensor<128xbf16> {sdy.sharding = #sdy.sharding<@mesh, [{}]>, ttcore.argument_type = #ttcore.argument_type<parameter>, ttir.name = "model.model.layers.10.mlp.router.bias"} loc("p207.5352"), %arg208: tensor<128x2880xbf16> {sdy.sharding = #sdy.sharding<@mesh, [{}, {"_axis_0"}]>, ttcore.argument_type = #ttcore.argument_type<parameter>, ttcore.weight_dtype = "bfp_bf4", ttir.name = "model.model.layers.10.mlp.router.parametrizations.weight.original"} loc("p208.5360"), %arg209: tensor<2880xbf16> {sdy.sharding = #sdy.sharding<@mesh, [{"_axis_0"}]>, ttcore.argument_type = #ttcore.argument_type<parameter>, ttir.name = "model.model.layers.10.post_attention_layernorm.weight"} loc("p209.5369"), %arg210: tensor<2880xbf16> {sdy.sharding = #sdy.sharding<@mesh, [{"_axis_0"}]>, ttcore.argument_type = #ttcore.argument_type<parameter>, ttir.name = "self___model_model_layers_10_self_attn_o_proj__parameters__bias"} loc("p210.5380"), %arg211: tensor<2880x4096xbf16> {sdy.sharding = #sdy.sharding<@mesh, [{"_axis_0"}, {"_axis_1"}]>, ttcore.argument_type = #ttcore.argument_type<parameter>, ttir.name = "self___model_model_layers_10_self_attn_o_proj__parameters__weight"} loc("p211.5384"), %arg212: tensor<64xbf16> {sdy.sharding = #sdy.sharding<@mesh, [{}]>, ttcore.argument_type = #ttcore.argument_type<parameter>, ttir.name = "model.model.layers.10.self_attn.sinks"} loc("p212.5395"), %arg213: tensor<4096xbf16> {sdy.sharding = #sdy.sharding<@mesh, [{"_axis_1"}]>, ttcore.argument_type = #ttcore.argument_type<parameter>, ttir.name = "self___model_model_layers_10_self_attn_q_proj__parameters__bias"} loc("p213.5413"), %arg214: tensor<4096x2880xbf16> {sdy.sharding = #sdy.sharding<@mesh, [{"_axis_1"}, {"_axis_0"}]>, ttcore.argument_type = #ttcore.argument_type<parameter>, ttir.name = "self___model_model_layers_10_self_attn_q_proj__parameters__weight"} loc("p214.5417"), %arg215: tensor<128x2880xbf16> {sdy.sharding = #sdy.sharding<@mesh, [{"_axis_1"}, {"_axis_0"}]>, ttcore.argument_type = #ttcore.argument_type<parameter>, ttir.name = "model.model.layers.10.mlp.experts.down_proj_bias"} loc("p215.5644"), %arg216: tensor<128x2880x2880xbf16> {sdy.sharding = #sdy.sharding<@mesh, [{"_axis_1"}, {}, {"_axis_0"}]>, ttcore.argument_type = #ttcore.argument_type<parameter>, ttcore.weight_dtype = "bfp_bf4", ttir.name = "model.model.layers.10.mlp.experts.parametrizations.down_proj.original"} loc("p216.5649"), %arg217: tensor<128x5760xbf16> {sdy.sharding = #sdy.sharding<@mesh, [{"_axis_1"}, {}]>, ttcore.argument_type = #ttcore.argument_type<parameter>, ttir.name = "model.model.layers.10.mlp.experts.gate_up_proj_bias"} loc("p217.5656"), %arg218: tensor<128x2880x5760xbf16> {sdy.sharding = #sdy.sharding<@mesh, [{"_axis_1"}, {"_axis_0"}, {}]>, ttcore.argument_type = #ttcore.argument_type<parameter>, ttcore.weight_dtype = "bfp_bf4", ttir.name = "model.model.layers.10.mlp.experts.parametrizations.gate_up_proj.original"} loc("p218.5661"), %arg219: tensor<64x8x128x64xbf16> {sdy.sharding = #sdy.sharding<@mesh, [{}, {"_axis_1"}, {}, {}]>, ttcore.argument_type = #ttcore.argument_type<input>, ttir.name = "args_24"} loc("p219.5789"), %arg220: tensor<512xbf16> {sdy.sharding = #sdy.sharding<@mesh, [{"_axis_1"}]>, ttcore.argument_type = #ttcore.argument_type<parameter>, ttir.name = "self___model_model_layers_11_self_attn_v_proj__parameters__bias"} loc("p220.5798"), %arg221: tensor<512x2880xbf16> {sdy.sharding = #sdy.sharding<@mesh, [{"_axis_1"}, {"_axis_0"}]>, ttcore.argument_type = #ttcore.argument_type<parameter>, ttir.name = "self___model_model_layers_11_self_attn_v_proj__parameters__weight"} loc("p221.5802"), %arg222: tensor<64x8x128x64xbf16> {sdy.sharding = #sdy.sharding<@mesh, [{}, {"_axis_1"}, {}, {}]>, ttcore.argument_type = #ttcore.argument_type<input>, ttir.name = "args_25"} loc("p222.5826"), %arg223: tensor<512xbf16> {sdy.sharding = #sdy.sharding<@mesh, [{"_axis_1"}]>, ttcore.argument_type = #ttcore.argument_type<parameter>, ttir.name = "self___model_model_layers_12_self_attn_k_proj__parameters__bias"} loc("p223.5837"), %arg224: tensor<512x2880xbf16> {sdy.sharding = #sdy.sharding<@mesh, [{"_axis_1"}, {"_axis_0"}]>, ttcore.argument_type = #ttcore.argument_type<parameter>, ttir.name = "self___model_model_layers_12_self_attn_k_proj__parameters__weight"} loc("p224.5841"), %arg225: tensor<2880xbf16> {sdy.sharding = #sdy.sharding<@mesh, [{"_axis_0"}]>, ttcore.argument_type = #ttcore.argument_type<parameter>, ttir.name = "model.model.layers.12.input_layernorm.weight"} loc("p225.5846"), %arg226: tensor<128xbf16> {sdy.sharding = #sdy.sharding<@mesh, [{}]>, ttcore.argument_type = #ttcore.argument_type<parameter>, ttir.name = "model.model.layers.11.mlp.router.bias"} loc("p226.5858"), %arg227: tensor<128x2880xbf16> {sdy.sharding = #sdy.sharding<@mesh, [{}, {"_axis_0"}]>, ttcore.argument_type = #ttcore.argument_type<parameter>, ttcore.weight_dtype = "bfp_bf4", ttir.name = "model.model.layers.11.mlp.router.parametrizations.weight.original"} loc("p227.5866"), %arg228: tensor<2880xbf16> {sdy.sharding = #sdy.sharding<@mesh, [{"_axis_0"}]>, ttcore.argument_type = #ttcore.argument_type<parameter>, ttir.name = "model.model.layers.11.post_attention_layernorm.weight"} loc("p228.5875"), %arg229: tensor<2880xbf16> {sdy.sharding = #sdy.sharding<@mesh, [{"_axis_0"}]>, ttcore.argument_type = #ttcore.argument_type<parameter>, ttir.name = "self___model_model_layers_11_self_attn_o_proj__parameters__bias"} loc("p229.5886"), %arg230: tensor<2880x4096xbf16> {sdy.sharding = #sdy.sharding<@mesh, [{"_axis_0"}, {"_axis_1"}]>, ttcore.argument_type = #ttcore.argument_type<parameter>, ttir.name = "self___model_model_layers_11_self_attn_o_proj__parameters__weight"} loc("p230.5890"), %arg231: tensor<64xbf16> {sdy.sharding = #sdy.sharding<@mesh, [{}]>, ttcore.argument_type = #ttcore.argument_type<parameter>, ttir.name = "model.model.layers.11.self_attn.sinks"} loc("p231.5901"), %arg232: tensor<4096xbf16> {sdy.sharding = #sdy.sharding<@mesh, [{"_axis_1"}]>, ttcore.argument_type = #ttcore.argument_type<parameter>, ttir.name = "self___model_model_layers_11_self_attn_q_proj__parameters__bias"} loc("p232.5919"), %arg233: tensor<4096x2880xbf16> {sdy.sharding = #sdy.sharding<@mesh, [{"_axis_1"}, {"_axis_0"}]>, ttcore.argument_type = #ttcore.argument_type<parameter>, ttir.name = "self___model_model_layers_11_self_attn_q_proj__parameters__weight"} loc("p233.5923"), %arg234: tensor<128x2880xbf16> {sdy.sharding = #sdy.sharding<@mesh, [{"_axis_1"}, {"_axis_0"}]>, ttcore.argument_type = #ttcore.argument_type<parameter>, ttir.name = "model.model.layers.11.mlp.experts.down_proj_bias"} loc("p234.6150"), %arg235: tensor<128x2880x2880xbf16> {sdy.sharding = #sdy.sharding<@mesh, [{"_axis_1"}, {}, {"_axis_0"}]>, ttcore.argument_type = #ttcore.argument_type<parameter>, ttcore.weight_dtype = "bfp_bf4", ttir.name = "model.model.layers.11.mlp.experts.parametrizations.down_proj.original"} loc("p235.6155"), %arg236: tensor<128x5760xbf16> {sdy.sharding = #sdy.sharding<@mesh, [{"_axis_1"}, {}]>, ttcore.argument_type = #ttcore.argument_type<parameter>, ttir.name = "model.model.layers.11.mlp.experts.gate_up_proj_bias"} loc("p236.6162"), %arg237: tensor<128x2880x5760xbf16> {sdy.sharding = #sdy.sharding<@mesh, [{"_axis_1"}, {"_axis_0"}, {}]>, ttcore.argument_type = #ttcore.argument_type<parameter>, ttcore.weight_dtype = "bfp_bf4", ttir.name = "model.model.layers.11.mlp.experts.parametrizations.gate_up_proj.original"} loc("p237.6167"), %arg238: tensor<64x8x128x64xbf16> {sdy.sharding = #sdy.sharding<@mesh, [{}, {"_axis_1"}, {}, {}]>, ttcore.argument_type = #ttcore.argument_type<input>, ttir.name = "args_26"} loc("p238.6295"), %arg239: tensor<512xbf16> {sdy.sharding = #sdy.sharding<@mesh, [{"_axis_1"}]>, ttcore.argument_type = #ttcore.argument_type<parameter>, ttir.name = "self___model_model_layers_12_self_attn_v_proj__parameters__bias"} loc("p239.6304"), %arg240: tensor<512x2880xbf16> {sdy.sharding = #sdy.sharding<@mesh, [{"_axis_1"}, {"_axis_0"}]>, ttcore.argument_type = #ttcore.argument_type<parameter>, ttir.name = "self___model_model_layers_12_self_attn_v_proj__parameters__weight"} loc("p240.6308"), %arg241: tensor<64x8x128x64xbf16> {sdy.sharding = #sdy.sharding<@mesh, [{}, {"_axis_1"}, {}, {}]>, ttcore.argument_type = #ttcore.argument_type<input>, ttir.name = "args_27"} loc("p241.6332"), %arg242: tensor<512xbf16> {sdy.sharding = #sdy.sharding<@mesh, [{"_axis_1"}]>, ttcore.argument_type = #ttcore.argument_type<parameter>, ttir.name = "self___model_model_layers_13_self_attn_k_proj__parameters__bias"} loc("p242.6343"), %arg243: tensor<512x2880xbf16> {sdy.sharding = #sdy.sharding<@mesh, [{"_axis_1"}, {"_axis_0"}]>, ttcore.argument_type = #ttcore.argument_type<parameter>, ttir.name = "self___model_model_layers_13_self_attn_k_proj__parameters__weight"} loc("p243.6347"), %arg244: tensor<2880xbf16> {sdy.sharding = #sdy.sharding<@mesh, [{"_axis_0"}]>, ttcore.argument_type = #ttcore.argument_type<parameter>, ttir.name = "model.model.layers.13.input_layernorm.weight"} loc("p244.6352"), %arg245: tensor<128xbf16> {sdy.sharding = #sdy.sharding<@mesh, [{}]>, ttcore.argument_type = #ttcore.argument_type<parameter>, ttir.name = "model.model.layers.12.mlp.router.bias"} loc("p245.6364"), %arg246: tensor<128x2880xbf16> {sdy.sharding = #sdy.sharding<@mesh, [{}, {"_axis_0"}]>, ttcore.argument_type = #ttcore.argument_type<parameter>, ttcore.weight_dtype = "bfp_bf4", ttir.name = "model.model.layers.12.mlp.router.parametrizations.weight.original"} loc("p246.6372"), %arg247: tensor<2880xbf16> {sdy.sharding = #sdy.sharding<@mesh, [{"_axis_0"}]>, ttcore.argument_type = #ttcore.argument_type<parameter>, ttir.name = "model.model.layers.12.post_attention_layernorm.weight"} loc("p247.6381"), %arg248: tensor<2880xbf16> {sdy.sharding = #sdy.sharding<@mesh, [{"_axis_0"}]>, ttcore.argument_type = #ttcore.argument_type<parameter>, ttir.name = "self___model_model_layers_12_self_attn_o_proj__parameters__bias"} loc("p248.6392"), %arg249: tensor<2880x4096xbf16> {sdy.sharding = #sdy.sharding<@mesh, [{"_axis_0"}, {"_axis_1"}]>, ttcore.argument_type = #ttcore.argument_type<parameter>, ttir.name = "self___model_model_layers_12_self_attn_o_proj__parameters__weight"} loc("p249.6396"), %arg250: tensor<64xbf16> {sdy.sharding = #sdy.sharding<@mesh, [{}]>, ttcore.argument_type = #ttcore.argument_type<parameter>, ttir.name = "model.model.layers.12.self_attn.sinks"} loc("p250.6407"), %arg251: tensor<4096xbf16> {sdy.sharding = #sdy.sharding<@mesh, [{"_axis_1"}]>, ttcore.argument_type = #ttcore.argument_type<parameter>, ttir.name = "self___model_model_layers_12_self_attn_q_proj__parameters__bias"} loc("p251.6425"), %arg252: tensor<4096x2880xbf16> {sdy.sharding = #sdy.sharding<@mesh, [{"_axis_1"}, {"_axis_0"}]>, ttcore.argument_type = #ttcore.argument_type<parameter>, ttir.name = "self___model_model_layers_12_self_attn_q_proj__parameters__weight"} loc("p252.6429"), %arg253: tensor<128x2880xbf16> {sdy.sharding = #sdy.sharding<@mesh, [{"_axis_1"}, {"_axis_0"}]>, ttcore.argument_type = #ttcore.argument_type<parameter>, ttir.name = "model.model.layers.12.mlp.experts.down_proj_bias"} loc("p253.6656"), %arg254: tensor<128x2880x2880xbf16> {sdy.sharding = #sdy.sharding<@mesh, [{"_axis_1"}, {}, {"_axis_0"}]>, ttcore.argument_type = #ttcore.argument_type<parameter>, ttcore.weight_dtype = "bfp_bf4", ttir.name = "model.model.layers.12.mlp.experts.parametrizations.down_proj.original"} loc("p254.6661"), %arg255: tensor<128x5760xbf16> {sdy.sharding = #sdy.sharding<@mesh, [{"_axis_1"}, {}]>, ttcore.argument_type = #ttcore.argument_type<parameter>, ttir.name = "model.model.layers.12.mlp.experts.gate_up_proj_bias"} loc("p255.6668"), %arg256: tensor<128x2880x5760xbf16> {sdy.sharding = #sdy.sharding<@mesh, [{"_axis_1"}, {"_axis_0"}, {}]>, ttcore.argument_type = #ttcore.argument_type<parameter>, ttcore.weight_dtype = "bfp_bf4", ttir.name = "model.model.layers.12.mlp.experts.parametrizations.gate_up_proj.original"} loc("p256.6673"), %arg257: tensor<64x8x128x64xbf16> {sdy.sharding = #sdy.sharding<@mesh, [{}, {"_axis_1"}, {}, {}]>, ttcore.argument_type = #ttcore.argument_type<input>, ttir.name = "args_28"} loc("p257.6801"), %arg258: tensor<512xbf16> {sdy.sharding = #sdy.sharding<@mesh, [{"_axis_1"}]>, ttcore.argument_type = #ttcore.argument_type<parameter>, ttir.name = "self___model_model_layers_13_self_attn_v_proj__parameters__bias"} loc("p258.6810"), %arg259: tensor<512x2880xbf16> {sdy.sharding = #sdy.sharding<@mesh, [{"_axis_1"}, {"_axis_0"}]>, ttcore.argument_type = #ttcore.argument_type<parameter>, ttir.name = "self___model_model_layers_13_self_attn_v_proj__parameters__weight"} loc("p259.6814"), %arg260: tensor<64x8x128x64xbf16> {sdy.sharding = #sdy.sharding<@mesh, [{}, {"_axis_1"}, {}, {}]>, ttcore.argument_type = #ttcore.argument_type<input>, ttir.name = "args_29"} loc("p260.6838"), %arg261: tensor<512xbf16> {sdy.sharding = #sdy.sharding<@mesh, [{"_axis_1"}]>, ttcore.argument_type = #ttcore.argument_type<parameter>, ttir.name = "self___model_model_layers_14_self_attn_k_proj__parameters__bias"} loc("p261.6849"), %arg262: tensor<512x2880xbf16> {sdy.sharding = #sdy.sharding<@mesh, [{"_axis_1"}, {"_axis_0"}]>, ttcore.argument_type = #ttcore.argument_type<parameter>, ttir.name = "self___model_model_layers_14_self_attn_k_proj__parameters__weight"} loc("p262.6853"), %arg263: tensor<2880xbf16> {sdy.sharding = #sdy.sharding<@mesh, [{"_axis_0"}]>, ttcore.argument_type = #ttcore.argument_type<parameter>, ttir.name = "model.model.layers.14.input_layernorm.weight"} loc("p263.6858"), %arg264: tensor<128xbf16> {sdy.sharding = #sdy.sharding<@mesh, [{}]>, ttcore.argument_type = #ttcore.argument_type<parameter>, ttir.name = "model.model.layers.13.mlp.router.bias"} loc("p264.6870"), %arg265: tensor<128x2880xbf16> {sdy.sharding = #sdy.sharding<@mesh, [{}, {"_axis_0"}]>, ttcore.argument_type = #ttcore.argument_type<parameter>, ttcore.weight_dtype = "bfp_bf4", ttir.name = "model.model.layers.13.mlp.router.parametrizations.weight.original"} loc("p265.6878"), %arg266: tensor<2880xbf16> {sdy.sharding = #sdy.sharding<@mesh, [{"_axis_0"}]>, ttcore.argument_type = #ttcore.argument_type<parameter>, ttir.name = "model.model.layers.13.post_attention_layernorm.weight"} loc("p266.6887"), %arg267: tensor<2880xbf16> {sdy.sharding = #sdy.sharding<@mesh, [{"_axis_0"}]>, ttcore.argument_type = #ttcore.argument_type<parameter>, ttir.name = "self___model_model_layers_13_self_attn_o_proj__parameters__bias"} loc("p267.6898"), %arg268: tensor<2880x4096xbf16> {sdy.sharding = #sdy.sharding<@mesh, [{"_axis_0"}, {"_axis_1"}]>, ttcore.argument_type = #ttcore.argument_type<parameter>, ttir.name = "self___model_model_layers_13_self_attn_o_proj__parameters__weight"} loc("p268.6902"), %arg269: tensor<64xbf16> {sdy.sharding = #sdy.sharding<@mesh, [{}]>, ttcore.argument_type = #ttcore.argument_type<parameter>, ttir.name = "model.model.layers.13.self_attn.sinks"} loc("p269.6913"), %arg270: tensor<4096xbf16> {sdy.sharding = #sdy.sharding<@mesh, [{"_axis_1"}]>, ttcore.argument_type = #ttcore.argument_type<parameter>, ttir.name = "self___model_model_layers_13_self_attn_q_proj__parameters__bias"} loc("p270.6931"), %arg271: tensor<4096x2880xbf16> {sdy.sharding = #sdy.sharding<@mesh, [{"_axis_1"}, {"_axis_0"}]>, ttcore.argument_type = #ttcore.argument_type<parameter>, ttir.name = "self___model_model_layers_13_self_attn_q_proj__parameters__weight"} loc("p271.6935"), %arg272: tensor<128x2880xbf16> {sdy.sharding = #sdy.sharding<@mesh, [{"_axis_1"}, {"_axis_0"}]>, ttcore.argument_type = #ttcore.argument_type<parameter>, ttir.name = "model.model.layers.13.mlp.experts.down_proj_bias"} loc("p272.7162"), %arg273: tensor<128x2880x2880xbf16> {sdy.sharding = #sdy.sharding<@mesh, [{"_axis_1"}, {}, {"_axis_0"}]>, ttcore.argument_type = #ttcore.argument_type<parameter>, ttcore.weight_dtype = "bfp_bf4", ttir.name = "model.model.layers.13.mlp.experts.parametrizations.down_proj.original"} loc("p273.7167"), %arg274: tensor<128x5760xbf16> {sdy.sharding = #sdy.sharding<@mesh, [{"_axis_1"}, {}]>, ttcore.argument_type = #ttcore.argument_type<parameter>, ttir.name = "model.model.layers.13.mlp.experts.gate_up_proj_bias"} loc("p274.7174"), %arg275: tensor<128x2880x5760xbf16> {sdy.sharding = #sdy.sharding<@mesh, [{"_axis_1"}, {"_axis_0"}, {}]>, ttcore.argument_type = #ttcore.argument_type<parameter>, ttcore.weight_dtype = "bfp_bf4", ttir.name = "model.model.layers.13.mlp.experts.parametrizations.gate_up_proj.original"} loc("p275.7179"), %arg276: tensor<64x8x128x64xbf16> {sdy.sharding = #sdy.sharding<@mesh, [{}, {"_axis_1"}, {}, {}]>, ttcore.argument_type = #ttcore.argument_type<input>, ttir.name = "args_30"} loc("p276.7307"), %arg277: tensor<512xbf16> {sdy.sharding = #sdy.sharding<@mesh, [{"_axis_1"}]>, ttcore.argument_type = #ttcore.argument_type<parameter>, ttir.name = "self___model_model_layers_14_self_attn_v_proj__parameters__bias"} loc("p277.7316"), %arg278: tensor<512x2880xbf16> {sdy.sharding = #sdy.sharding<@mesh, [{"_axis_1"}, {"_axis_0"}]>, ttcore.argument_type = #ttcore.argument_type<parameter>, ttir.name = "self___model_model_layers_14_self_attn_v_proj__parameters__weight"} loc("p278.7320"), %arg279: tensor<64x8x128x64xbf16> {sdy.sharding = #sdy.sharding<@mesh, [{}, {"_axis_1"}, {}, {}]>, ttcore.argument_type = #ttcore.argument_type<input>, ttir.name = "args_31"} loc("p279.7344"), %arg280: tensor<512xbf16> {sdy.sharding = #sdy.sharding<@mesh, [{"_axis_1"}]>, ttcore.argument_type = #ttcore.argument_type<parameter>, ttir.name = "self___model_model_layers_15_self_attn_k_proj__parameters__bias"} loc("p280.7355"), %arg281: tensor<512x2880xbf16> {sdy.sharding = #sdy.sharding<@mesh, [{"_axis_1"}, {"_axis_0"}]>, ttcore.argument_type = #ttcore.argument_type<parameter>, ttir.name = "self___model_model_layers_15_self_attn_k_proj__parameters__weight"} loc("p281.7359"), %arg282: tensor<2880xbf16> {sdy.sharding = #sdy.sharding<@mesh, [{"_axis_0"}]>, ttcore.argument_type = #ttcore.argument_type<parameter>, ttir.name = "model.model.layers.15.input_layernorm.weight"} loc("p282.7364"), %arg283: tensor<128xbf16> {sdy.sharding = #sdy.sharding<@mesh, [{}]>, ttcore.argument_type = #ttcore.argument_type<parameter>, ttir.name = "model.model.layers.14.mlp.router.bias"} loc("p283.7376"), %arg284: tensor<128x2880xbf16> {sdy.sharding = #sdy.sharding<@mesh, [{}, {"_axis_0"}]>, ttcore.argument_type = #ttcore.argument_type<parameter>, ttcore.weight_dtype = "bfp_bf4", ttir.name = "model.model.layers.14.mlp.router.parametrizations.weight.original"} loc("p284.7384"), %arg285: tensor<2880xbf16> {sdy.sharding = #sdy.sharding<@mesh, [{"_axis_0"}]>, ttcore.argument_type = #ttcore.argument_type<parameter>, ttir.name = "model.model.layers.14.post_attention_layernorm.weight"} loc("p285.7393"), %arg286: tensor<2880xbf16> {sdy.sharding = #sdy.sharding<@mesh, [{"_axis_0"}]>, ttcore.argument_type = #ttcore.argument_type<parameter>, ttir.name = "self___model_model_layers_14_self_attn_o_proj__parameters__bias"} loc("p286.7404"), %arg287: tensor<2880x4096xbf16> {sdy.sharding = #sdy.sharding<@mesh, [{"_axis_0"}, {"_axis_1"}]>, ttcore.argument_type = #ttcore.argument_type<parameter>, ttir.name = "self___model_model_layers_14_self_attn_o_proj__parameters__weight"} loc("p287.7408"), %arg288: tensor<64xbf16> {sdy.sharding = #sdy.sharding<@mesh, [{}]>, ttcore.argument_type = #ttcore.argument_type<parameter>, ttir.name = "model.model.layers.14.self_attn.sinks"} loc("p288.7419"), %arg289: tensor<4096xbf16> {sdy.sharding = #sdy.sharding<@mesh, [{"_axis_1"}]>, ttcore.argument_type = #ttcore.argument_type<parameter>, ttir.name = "self___model_model_layers_14_self_attn_q_proj__parameters__bias"} loc("p289.7437"), %arg290: tensor<4096x2880xbf16> {sdy.sharding = #sdy.sharding<@mesh, [{"_axis_1"}, {"_axis_0"}]>, ttcore.argument_type = #ttcore.argument_type<parameter>, ttir.name = "self___model_model_layers_14_self_attn_q_proj__parameters__weight"} loc("p290.7441"), %arg291: tensor<128x2880xbf16> {sdy.sharding = #sdy.sharding<@mesh, [{"_axis_1"}, {"_axis_0"}]>, ttcore.argument_type = #ttcore.argument_type<parameter>, ttir.name = "model.model.layers.14.mlp.experts.down_proj_bias"} loc("p291.7668"), %arg292: tensor<128x2880x2880xbf16> {sdy.sharding = #sdy.sharding<@mesh, [{"_axis_1"}, {}, {"_axis_0"}]>, ttcore.argument_type = #ttcore.argument_type<parameter>, ttcore.weight_dtype = "bfp_bf4", ttir.name = "model.model.layers.14.mlp.experts.parametrizations.down_proj.original"} loc("p292.7673"), %arg293: tensor<128x5760xbf16> {sdy.sharding = #sdy.sharding<@mesh, [{"_axis_1"}, {}]>, ttcore.argument_type = #ttcore.argument_type<parameter>, ttir.name = "model.model.layers.14.mlp.experts.gate_up_proj_bias"} loc("p293.7680"), %arg294: tensor<128x2880x5760xbf16> {sdy.sharding = #sdy.sharding<@mesh, [{"_axis_1"}, {"_axis_0"}, {}]>, ttcore.argument_type = #ttcore.argument_type<parameter>, ttcore.weight_dtype = "bfp_bf4", ttir.name = "model.model.layers.14.mlp.experts.parametrizations.gate_up_proj.original"} loc("p294.7685"), %arg295: tensor<64x8x128x64xbf16> {sdy.sharding = #sdy.sharding<@mesh, [{}, {"_axis_1"}, {}, {}]>, ttcore.argument_type = #ttcore.argument_type<input>, ttir.name = "args_32"} loc("p295.7813"), %arg296: tensor<512xbf16> {sdy.sharding = #sdy.sharding<@mesh, [{"_axis_1"}]>, ttcore.argument_type = #ttcore.argument_type<parameter>, ttir.name = "self___model_model_layers_15_self_attn_v_proj__parameters__bias"} loc("p296.7822"), %arg297: tensor<512x2880xbf16> {sdy.sharding = #sdy.sharding<@mesh, [{"_axis_1"}, {"_axis_0"}]>, ttcore.argument_type = #ttcore.argument_type<parameter>, ttir.name = "self___model_model_layers_15_self_attn_v_proj__parameters__weight"} loc("p297.7826"), %arg298: tensor<64x8x128x64xbf16> {sdy.sharding = #sdy.sharding<@mesh, [{}, {"_axis_1"}, {}, {}]>, ttcore.argument_type = #ttcore.argument_type<input>, ttir.name = "args_33"} loc("p298.7850"), %arg299: tensor<512xbf16> {sdy.sharding = #sdy.sharding<@mesh, [{"_axis_1"}]>, ttcore.argument_type = #ttcore.argument_type<parameter>, ttir.name = "self___model_model_layers_16_self_attn_k_proj__parameters__bias"} loc("p299.7861"), %arg300: tensor<512x2880xbf16> {sdy.sharding = #sdy.sharding<@mesh, [{"_axis_1"}, {"_axis_0"}]>, ttcore.argument_type = #ttcore.argument_type<parameter>, ttir.name = "self___model_model_layers_16_self_attn_k_proj__parameters__weight"} loc("p300.7865"), %arg301: tensor<2880xbf16> {sdy.sharding = #sdy.sharding<@mesh, [{"_axis_0"}]>, ttcore.argument_type = #ttcore.argument_type<parameter>, ttir.name = "model.model.layers.16.input_layernorm.weight"} loc("p301.7870"), %arg302: tensor<128xbf16> {sdy.sharding = #sdy.sharding<@mesh, [{}]>, ttcore.argument_type = #ttcore.argument_type<parameter>, ttir.name = "model.model.layers.15.mlp.router.bias"} loc("p302.7882"), %arg303: tensor<128x2880xbf16> {sdy.sharding = #sdy.sharding<@mesh, [{}, {"_axis_0"}]>, ttcore.argument_type = #ttcore.argument_type<parameter>, ttcore.weight_dtype = "bfp_bf4", ttir.name = "model.model.layers.15.mlp.router.parametrizations.weight.original"} loc("p303.7890"), %arg304: tensor<2880xbf16> {sdy.sharding = #sdy.sharding<@mesh, [{"_axis_0"}]>, ttcore.argument_type = #ttcore.argument_type<parameter>, ttir.name = "model.model.layers.15.post_attention_layernorm.weight"} loc("p304.7899"), %arg305: tensor<2880xbf16> {sdy.sharding = #sdy.sharding<@mesh, [{"_axis_0"}]>, ttcore.argument_type = #ttcore.argument_type<parameter>, ttir.name = "self___model_model_layers_15_self_attn_o_proj__parameters__bias"} loc("p305.7910"), %arg306: tensor<2880x4096xbf16> {sdy.sharding = #sdy.sharding<@mesh, [{"_axis_0"}, {"_axis_1"}]>, ttcore.argument_type = #ttcore.argument_type<parameter>, ttir.name = "self___model_model_layers_15_self_attn_o_proj__parameters__weight"} loc("p306.7914"), %arg307: tensor<64xbf16> {sdy.sharding = #sdy.sharding<@mesh, [{}]>, ttcore.argument_type = #ttcore.argument_type<parameter>, ttir.name = "model.model.layers.15.self_attn.sinks"} loc("p307.7925"), %arg308: tensor<4096xbf16> {sdy.sharding = #sdy.sharding<@mesh, [{"_axis_1"}]>, ttcore.argument_type = #ttcore.argument_type<parameter>, ttir.name = "self___model_model_layers_15_self_attn_q_proj__parameters__bias"} loc("p308.7943"), %arg309: tensor<4096x2880xbf16> {sdy.sharding = #sdy.sharding<@mesh, [{"_axis_1"}, {"_axis_0"}]>, ttcore.argument_type = #ttcore.argument_type<parameter>, ttir.name = "self___model_model_layers_15_self_attn_q_proj__parameters__weight"} loc("p309.7947"), %arg310: tensor<128x2880xbf16> {sdy.sharding = #sdy.sharding<@mesh, [{"_axis_1"}, {"_axis_0"}]>, ttcore.argument_type = #ttcore.argument_type<parameter>, ttir.name = "model.model.layers.15.mlp.experts.down_proj_bias"} loc("p310.8174"), %arg311: tensor<128x2880x2880xbf16> {sdy.sharding = #sdy.sharding<@mesh, [{"_axis_1"}, {}, {"_axis_0"}]>, ttcore.argument_type = #ttcore.argument_type<parameter>, ttcore.weight_dtype = "bfp_bf4", ttir.name = "model.model.layers.15.mlp.experts.parametrizations.down_proj.original"} loc("p311.8179"), %arg312: tensor<128x5760xbf16> {sdy.sharding = #sdy.sharding<@mesh, [{"_axis_1"}, {}]>, ttcore.argument_type = #ttcore.argument_type<parameter>, ttir.name = "model.model.layers.15.mlp.experts.gate_up_proj_bias"} loc("p312.8186"), %arg313: tensor<128x2880x5760xbf16> {sdy.sharding = #sdy.sharding<@mesh, [{"_axis_1"}, {"_axis_0"}, {}]>, ttcore.argument_type = #ttcore.argument_type<parameter>, ttcore.weight_dtype = "bfp_bf4", ttir.name = "model.model.layers.15.mlp.experts.parametrizations.gate_up_proj.original"} loc("p313.8191"), %arg314: tensor<64x8x128x64xbf16> {sdy.sharding = #sdy.sharding<@mesh, [{}, {"_axis_1"}, {}, {}]>, ttcore.argument_type = #ttcore.argument_type<input>, ttir.name = "args_34"} loc("p314.8319"), %arg315: tensor<512xbf16> {sdy.sharding = #sdy.sharding<@mesh, [{"_axis_1"}]>, ttcore.argument_type = #ttcore.argument_type<parameter>, ttir.name = "self___model_model_layers_16_self_attn_v_proj__parameters__bias"} loc("p315.8328"), %arg316: tensor<512x2880xbf16> {sdy.sharding = #sdy.sharding<@mesh, [{"_axis_1"}, {"_axis_0"}]>, ttcore.argument_type = #ttcore.argument_type<parameter>, ttir.name = "self___model_model_layers_16_self_attn_v_proj__parameters__weight"} loc("p316.8332"), %arg317: tensor<64x8x128x64xbf16> {sdy.sharding = #sdy.sharding<@mesh, [{}, {"_axis_1"}, {}, {}]>, ttcore.argument_type = #ttcore.argument_type<input>, ttir.name = "args_35"} loc("p317.8356"), %arg318: tensor<512xbf16> {sdy.sharding = #sdy.sharding<@mesh, [{"_axis_1"}]>, ttcore.argument_type = #ttcore.argument_type<parameter>, ttir.name = "self___model_model_layers_17_self_attn_k_proj__parameters__bias"} loc("p318.8367"), %arg319: tensor<512x2880xbf16> {sdy.sharding = #sdy.sharding<@mesh, [{"_axis_1"}, {"_axis_0"}]>, ttcore.argument_type = #ttcore.argument_type<parameter>, ttir.name = "self___model_model_layers_17_self_attn_k_proj__parameters__weight"} loc("p319.8371"), %arg320: tensor<2880xbf16> {sdy.sharding = #sdy.sharding<@mesh, [{"_axis_0"}]>, ttcore.argument_type = #ttcore.argument_type<parameter>, ttir.name = "model.model.layers.17.input_layernorm.weight"} loc("p320.8376"), %arg321: tensor<128xbf16> {sdy.sharding = #sdy.sharding<@mesh, [{}]>, ttcore.argument_type = #ttcore.argument_type<parameter>, ttir.name = "model.model.layers.16.mlp.router.bias"} loc("p321.8388"), %arg322: tensor<128x2880xbf16> {sdy.sharding = #sdy.sharding<@mesh, [{}, {"_axis_0"}]>, ttcore.argument_type = #ttcore.argument_type<parameter>, ttcore.weight_dtype = "bfp_bf4", ttir.name = "model.model.layers.16.mlp.router.parametrizations.weight.original"} loc("p322.8396"), %arg323: tensor<2880xbf16> {sdy.sharding = #sdy.sharding<@mesh, [{"_axis_0"}]>, ttcore.argument_type = #ttcore.argument_type<parameter>, ttir.name = "model.model.layers.16.post_attention_layernorm.weight"} loc("p323.8405"), %arg324: tensor<2880xbf16> {sdy.sharding = #sdy.sharding<@mesh, [{"_axis_0"}]>, ttcore.argument_type = #ttcore.argument_type<parameter>, ttir.name = "self___model_model_layers_16_self_attn_o_proj__parameters__bias"} loc("p324.8416"), %arg325: tensor<2880x4096xbf16> {sdy.sharding = #sdy.sharding<@mesh, [{"_axis_0"}, {"_axis_1"}]>, ttcore.argument_type = #ttcore.argument_type<parameter>, ttir.name = "self___model_model_layers_16_self_attn_o_proj__parameters__weight"} loc("p325.8420"), %arg326: tensor<64xbf16> {sdy.sharding = #sdy.sharding<@mesh, [{}]>, ttcore.argument_type = #ttcore.argument_type<parameter>, ttir.name = "model.model.layers.16.self_attn.sinks"} loc("p326.8431"), %arg327: tensor<4096xbf16> {sdy.sharding = #sdy.sharding<@mesh, [{"_axis_1"}]>, ttcore.argument_type = #ttcore.argument_type<parameter>, ttir.name = "self___model_model_layers_16_self_attn_q_proj__parameters__bias"} loc("p327.8449"), %arg328: tensor<4096x2880xbf16> {sdy.sharding = #sdy.sharding<@mesh, [{"_axis_1"}, {"_axis_0"}]>, ttcore.argument_type = #ttcore.argument_type<parameter>, ttir.name = "self___model_model_layers_16_self_attn_q_proj__parameters__weight"} loc("p328.8453"), %arg329: tensor<128x2880xbf16> {sdy.sharding = #sdy.sharding<@mesh, [{"_axis_1"}, {"_axis_0"}]>, ttcore.argument_type = #ttcore.argument_type<parameter>, ttir.name = "model.model.layers.16.mlp.experts.down_proj_bias"} loc("p329.8680"), %arg330: tensor<128x2880x2880xbf16> {sdy.sharding = #sdy.sharding<@mesh, [{"_axis_1"}, {}, {"_axis_0"}]>, ttcore.argument_type = #ttcore.argument_type<parameter>, ttcore.weight_dtype = "bfp_bf4", ttir.name = "model.model.layers.16.mlp.experts.parametrizations.down_proj.original"} loc("p330.8685"), %arg331: tensor<128x5760xbf16> {sdy.sharding = #sdy.sharding<@mesh, [{"_axis_1"}, {}]>, ttcore.argument_type = #ttcore.argument_type<parameter>, ttir.name = "model.model.layers.16.mlp.experts.gate_up_proj_bias"} loc("p331.8692"), %arg332: tensor<128x2880x5760xbf16> {sdy.sharding = #sdy.sharding<@mesh, [{"_axis_1"}, {"_axis_0"}, {}]>, ttcore.argument_type = #ttcore.argument_type<parameter>, ttcore.weight_dtype = "bfp_bf4", ttir.name = "model.model.layers.16.mlp.experts.parametrizations.gate_up_proj.original"} loc("p332.8697"), %arg333: tensor<64x8x128x64xbf16> {sdy.sharding = #sdy.sharding<@mesh, [{}, {"_axis_1"}, {}, {}]>, ttcore.argument_type = #ttcore.argument_type<input>, ttir.name = "args_36"} loc("p333.8825"), %arg334: tensor<512xbf16> {sdy.sharding = #sdy.sharding<@mesh, [{"_axis_1"}]>, ttcore.argument_type = #ttcore.argument_type<parameter>, ttir.name = "self___model_model_layers_17_self_attn_v_proj__parameters__bias"} loc("p334.8834"), %arg335: tensor<512x2880xbf16> {sdy.sharding = #sdy.sharding<@mesh, [{"_axis_1"}, {"_axis_0"}]>, ttcore.argument_type = #ttcore.argument_type<parameter>, ttir.name = "self___model_model_layers_17_self_attn_v_proj__parameters__weight"} loc("p335.8838"), %arg336: tensor<64x8x128x64xbf16> {sdy.sharding = #sdy.sharding<@mesh, [{}, {"_axis_1"}, {}, {}]>, ttcore.argument_type = #ttcore.argument_type<input>, ttir.name = "args_37"} loc("p336.8862"), %arg337: tensor<512xbf16> {sdy.sharding = #sdy.sharding<@mesh, [{"_axis_1"}]>, ttcore.argument_type = #ttcore.argument_type<parameter>, ttir.name = "self___model_model_layers_18_self_attn_k_proj__parameters__bias"} loc("p337.8873"), %arg338: tensor<512x2880xbf16> {sdy.sharding = #sdy.sharding<@mesh, [{"_axis_1"}, {"_axis_0"}]>, ttcore.argument_type = #ttcore.argument_type<parameter>, ttir.name = "self___model_model_layers_18_self_attn_k_proj__parameters__weight"} loc("p338.8877"), %arg339: tensor<2880xbf16> {sdy.sharding = #sdy.sharding<@mesh, [{"_axis_0"}]>, ttcore.argument_type = #ttcore.argument_type<parameter>, ttir.name = "model.model.layers.18.input_layernorm.weight"} loc("p339.8882"), %arg340: tensor<128xbf16> {sdy.sharding = #sdy.sharding<@mesh, [{}]>, ttcore.argument_type = #ttcore.argument_type<parameter>, ttir.name = "model.model.layers.17.mlp.router.bias"} loc("p340.8894"), %arg341: tensor<128x2880xbf16> {sdy.sharding = #sdy.sharding<@mesh, [{}, {"_axis_0"}]>, ttcore.argument_type = #ttcore.argument_type<parameter>, ttcore.weight_dtype = "bfp_bf4", ttir.name = "model.model.layers.17.mlp.router.parametrizations.weight.original"} loc("p341.8902"), %arg342: tensor<2880xbf16> {sdy.sharding = #sdy.sharding<@mesh, [{"_axis_0"}]>, ttcore.argument_type = #ttcore.argument_type<parameter>, ttir.name = "model.model.layers.17.post_attention_layernorm.weight"} loc("p342.8911"), %arg343: tensor<2880xbf16> {sdy.sharding = #sdy.sharding<@mesh, [{"_axis_0"}]>, ttcore.argument_type = #ttcore.argument_type<parameter>, ttir.name = "self___model_model_layers_17_self_attn_o_proj__parameters__bias"} loc("p343.8922"), %arg344: tensor<2880x4096xbf16> {sdy.sharding = #sdy.sharding<@mesh, [{"_axis_0"}, {"_axis_1"}]>, ttcore.argument_type = #ttcore.argument_type<parameter>, ttir.name = "self___model_model_layers_17_self_attn_o_proj__parameters__weight"} loc("p344.8926"), %arg345: tensor<64xbf16> {sdy.sharding = #sdy.sharding<@mesh, [{}]>, ttcore.argument_type = #ttcore.argument_type<parameter>, ttir.name = "model.model.layers.17.self_attn.sinks"} loc("p345.8937"), %arg346: tensor<4096xbf16> {sdy.sharding = #sdy.sharding<@mesh, [{"_axis_1"}]>, ttcore.argument_type = #ttcore.argument_type<parameter>, ttir.name = "self___model_model_layers_17_self_attn_q_proj__parameters__bias"} loc("p346.8955"), %arg347: tensor<4096x2880xbf16> {sdy.sharding = #sdy.sharding<@mesh, [{"_axis_1"}, {"_axis_0"}]>, ttcore.argument_type = #ttcore.argument_type<parameter>, ttir.name = "self___model_model_layers_17_self_attn_q_proj__parameters__weight"} loc("p347.8959"), %arg348: tensor<128x2880xbf16> {sdy.sharding = #sdy.sharding<@mesh, [{"_axis_1"}, {"_axis_0"}]>, ttcore.argument_type = #ttcore.argument_type<parameter>, ttir.name = "model.model.layers.17.mlp.experts.down_proj_bias"} loc("p348.9186"), %arg349: tensor<128x2880x2880xbf16> {sdy.sharding = #sdy.sharding<@mesh, [{"_axis_1"}, {}, {"_axis_0"}]>, ttcore.argument_type = #ttcore.argument_type<parameter>, ttcore.weight_dtype = "bfp_bf4", ttir.name = "model.model.layers.17.mlp.experts.parametrizations.down_proj.original"} loc("p349.9191"), %arg350: tensor<128x5760xbf16> {sdy.sharding = #sdy.sharding<@mesh, [{"_axis_1"}, {}]>, ttcore.argument_type = #ttcore.argument_type<parameter>, ttir.name = "model.model.layers.17.mlp.experts.gate_up_proj_bias"} loc("p350.9198"), %arg351: tensor<128x2880x5760xbf16> {sdy.sharding = #sdy.sharding<@mesh, [{"_axis_1"}, {"_axis_0"}, {}]>, ttcore.argument_type = #ttcore.argument_type<parameter>, ttcore.weight_dtype = "bfp_bf4", ttir.name = "model.model.layers.17.mlp.experts.parametrizations.gate_up_proj.original"} loc("p351.9203"), %arg352: tensor<64x8x128x64xbf16> {sdy.sharding = #sdy.sharding<@mesh, [{}, {"_axis_1"}, {}, {}]>, ttcore.argument_type = #ttcore.argument_type<input>, ttir.name = "args_38"} loc("p352.9331"), %arg353: tensor<512xbf16> {sdy.sharding = #sdy.sharding<@mesh, [{"_axis_1"}]>, ttcore.argument_type = #ttcore.argument_type<parameter>, ttir.name = "self___model_model_layers_18_self_attn_v_proj__parameters__bias"} loc("p353.9340"), %arg354: tensor<512x2880xbf16> {sdy.sharding = #sdy.sharding<@mesh, [{"_axis_1"}, {"_axis_0"}]>, ttcore.argument_type = #ttcore.argument_type<parameter>, ttir.name = "self___model_model_layers_18_self_attn_v_proj__parameters__weight"} loc("p354.9344"), %arg355: tensor<64x8x128x64xbf16> {sdy.sharding = #sdy.sharding<@mesh, [{}, {"_axis_1"}, {}, {}]>, ttcore.argument_type = #ttcore.argument_type<input>, ttir.name = "args_39"} loc("p355.9368"), %arg356: tensor<512xbf16> {sdy.sharding = #sdy.sharding<@mesh, [{"_axis_1"}]>, ttcore.argument_type = #ttcore.argument_type<parameter>, ttir.name = "self___model_model_layers_19_self_attn_k_proj__parameters__bias"} loc("p356.9379"), %arg357: tensor<512x2880xbf16> {sdy.sharding = #sdy.sharding<@mesh, [{"_axis_1"}, {"_axis_0"}]>, ttcore.argument_type = #ttcore.argument_type<parameter>, ttir.name = "self___model_model_layers_19_self_attn_k_proj__parameters__weight"} loc("p357.9383"), %arg358: tensor<2880xbf16> {sdy.sharding = #sdy.sharding<@mesh, [{"_axis_0"}]>, ttcore.argument_type = #ttcore.argument_type<parameter>, ttir.name = "model.model.layers.19.input_layernorm.weight"} loc("p358.9388"), %arg359: tensor<128xbf16> {sdy.sharding = #sdy.sharding<@mesh, [{}]>, ttcore.argument_type = #ttcore.argument_type<parameter>, ttir.name = "model.model.layers.18.mlp.router.bias"} loc("p359.9400"), %arg360: tensor<128x2880xbf16> {sdy.sharding = #sdy.sharding<@mesh, [{}, {"_axis_0"}]>, ttcore.argument_type = #ttcore.argument_type<parameter>, ttcore.weight_dtype = "bfp_bf4", ttir.name = "model.model.layers.18.mlp.router.parametrizations.weight.original"} loc("p360.9408"), %arg361: tensor<2880xbf16> {sdy.sharding = #sdy.sharding<@mesh, [{"_axis_0"}]>, ttcore.argument_type = #ttcore.argument_type<parameter>, ttir.name = "model.model.layers.18.post_attention_layernorm.weight"} loc("p361.9417"), %arg362: tensor<2880xbf16> {sdy.sharding = #sdy.sharding<@mesh, [{"_axis_0"}]>, ttcore.argument_type = #ttcore.argument_type<parameter>, ttir.name = "self___model_model_layers_18_self_attn_o_proj__parameters__bias"} loc("p362.9428"), %arg363: tensor<2880x4096xbf16> {sdy.sharding = #sdy.sharding<@mesh, [{"_axis_0"}, {"_axis_1"}]>, ttcore.argument_type = #ttcore.argument_type<parameter>, ttir.name = "self___model_model_layers_18_self_attn_o_proj__parameters__weight"} loc("p363.9432"), %arg364: tensor<64xbf16> {sdy.sharding = #sdy.sharding<@mesh, [{}]>, ttcore.argument_type = #ttcore.argument_type<parameter>, ttir.name = "model.model.layers.18.self_attn.sinks"} loc("p364.9443"), %arg365: tensor<4096xbf16> {sdy.sharding = #sdy.sharding<@mesh, [{"_axis_1"}]>, ttcore.argument_type = #ttcore.argument_type<parameter>, ttir.name = "self___model_model_layers_18_self_attn_q_proj__parameters__bias"} loc("p365.9461"), %arg366: tensor<4096x2880xbf16> {sdy.sharding = #sdy.sharding<@mesh, [{"_axis_1"}, {"_axis_0"}]>, ttcore.argument_type = #ttcore.argument_type<parameter>, ttir.name = "self___model_model_layers_18_self_attn_q_proj__parameters__weight"} loc("p366.9465"), %arg367: tensor<128x2880xbf16> {sdy.sharding = #sdy.sharding<@mesh, [{"_axis_1"}, {"_axis_0"}]>, ttcore.argument_type = #ttcore.argument_type<parameter>, ttir.name = "model.model.layers.18.mlp.experts.down_proj_bias"} loc("p367.9692"), %arg368: tensor<128x2880x2880xbf16> {sdy.sharding = #sdy.sharding<@mesh, [{"_axis_1"}, {}, {"_axis_0"}]>, ttcore.argument_type = #ttcore.argument_type<parameter>, ttcore.weight_dtype = "bfp_bf4", ttir.name = "model.model.layers.18.mlp.experts.parametrizations.down_proj.original"} loc("p368.9697"), %arg369: tensor<128x5760xbf16> {sdy.sharding = #sdy.sharding<@mesh, [{"_axis_1"}, {}]>, ttcore.argument_type = #ttcore.argument_type<parameter>, ttir.name = "model.model.layers.18.mlp.experts.gate_up_proj_bias"} loc("p369.9704"), %arg370: tensor<128x2880x5760xbf16> {sdy.sharding = #sdy.sharding<@mesh, [{"_axis_1"}, {"_axis_0"}, {}]>, ttcore.argument_type = #ttcore.argument_type<parameter>, ttcore.weight_dtype = "bfp_bf4", ttir.name = "model.model.layers.18.mlp.experts.parametrizations.gate_up_proj.original"} loc("p370.9709"), %arg371: tensor<64x8x128x64xbf16> {sdy.sharding = #sdy.sharding<@mesh, [{}, {"_axis_1"}, {}, {}]>, ttcore.argument_type = #ttcore.argument_type<input>, ttir.name = "args_40"} loc("p371.9837"), %arg372: tensor<512xbf16> {sdy.sharding = #sdy.sharding<@mesh, [{"_axis_1"}]>, ttcore.argument_type = #ttcore.argument_type<parameter>, ttir.name = "self___model_model_layers_19_self_attn_v_proj__parameters__bias"} loc("p372.9846"), %arg373: tensor<512x2880xbf16> {sdy.sharding = #sdy.sharding<@mesh, [{"_axis_1"}, {"_axis_0"}]>, ttcore.argument_type = #ttcore.argument_type<parameter>, ttir.name = "self___model_model_layers_19_self_attn_v_proj__parameters__weight"} loc("p373.9850"), %arg374: tensor<64x8x128x64xbf16> {sdy.sharding = #sdy.sharding<@mesh, [{}, {"_axis_1"}, {}, {}]>, ttcore.argument_type = #ttcore.argument_type<input>, ttir.name = "args_41"} loc("p374.9874"), %arg375: tensor<512xbf16> {sdy.sharding = #sdy.sharding<@mesh, [{"_axis_1"}]>, ttcore.argument_type = #ttcore.argument_type<parameter>, ttir.name = "self___model_model_layers_20_self_attn_k_proj__parameters__bias"} loc("p375.9885"), %arg376: tensor<512x2880xbf16> {sdy.sharding = #sdy.sharding<@mesh, [{"_axis_1"}, {"_axis_0"}]>, ttcore.argument_type = #ttcore.argument_type<parameter>, ttir.name = "self___model_model_layers_20_self_attn_k_proj__parameters__weight"} loc("p376.9889"), %arg377: tensor<2880xbf16> {sdy.sharding = #sdy.sharding<@mesh, [{"_axis_0"}]>, ttcore.argument_type = #ttcore.argument_type<parameter>, ttir.name = "model.model.layers.20.input_layernorm.weight"} loc("p377.9894"), %arg378: tensor<128xbf16> {sdy.sharding = #sdy.sharding<@mesh, [{}]>, ttcore.argument_type = #ttcore.argument_type<parameter>, ttir.name = "model.model.layers.19.mlp.router.bias"} loc("p378.9906"), %arg379: tensor<128x2880xbf16> {sdy.sharding = #sdy.sharding<@mesh, [{}, {"_axis_0"}]>, ttcore.argument_type = #ttcore.argument_type<parameter>, ttcore.weight_dtype = "bfp_bf4", ttir.name = "model.model.layers.19.mlp.router.parametrizations.weight.original"} loc("p379.9914"), %arg380: tensor<2880xbf16> {sdy.sharding = #sdy.sharding<@mesh, [{"_axis_0"}]>, ttcore.argument_type = #ttcore.argument_type<parameter>, ttir.name = "model.model.layers.19.post_attention_layernorm.weight"} loc("p380.9923"), %arg381: tensor<2880xbf16> {sdy.sharding = #sdy.sharding<@mesh, [{"_axis_0"}]>, ttcore.argument_type = #ttcore.argument_type<parameter>, ttir.name = "self___model_model_layers_19_self_attn_o_proj__parameters__bias"} loc("p381.9934"), %arg382: tensor<2880x4096xbf16> {sdy.sharding = #sdy.sharding<@mesh, [{"_axis_0"}, {"_axis_1"}]>, ttcore.argument_type = #ttcore.argument_type<parameter>, ttir.name = "self___model_model_layers_19_self_attn_o_proj__parameters__weight"} loc("p382.9938"), %arg383: tensor<64xbf16> {sdy.sharding = #sdy.sharding<@mesh, [{}]>, ttcore.argument_type = #ttcore.argument_type<parameter>, ttir.name = "model.model.layers.19.self_attn.sinks"} loc("p383.9949"), %arg384: tensor<4096xbf16> {sdy.sharding = #sdy.sharding<@mesh, [{"_axis_1"}]>, ttcore.argument_type = #ttcore.argument_type<parameter>, ttir.name = "self___model_model_layers_19_self_attn_q_proj__parameters__bias"} loc("p384.9967"), %arg385: tensor<4096x2880xbf16> {sdy.sharding = #sdy.sharding<@mesh, [{"_axis_1"}, {"_axis_0"}]>, ttcore.argument_type = #ttcore.argument_type<parameter>, ttir.name = "self___model_model_layers_19_self_attn_q_proj__parameters__weight"} loc("p385.9971"), %arg386: tensor<128x2880xbf16> {sdy.sharding = #sdy.sharding<@mesh, [{"_axis_1"}, {"_axis_0"}]>, ttcore.argument_type = #ttcore.argument_type<parameter>, ttir.name = "model.model.layers.19.mlp.experts.down_proj_bias"} loc("p386.10198"), %arg387: tensor<128x2880x2880xbf16> {sdy.sharding = #sdy.sharding<@mesh, [{"_axis_1"}, {}, {"_axis_0"}]>, ttcore.argument_type = #ttcore.argument_type<parameter>, ttcore.weight_dtype = "bfp_bf4", ttir.name = "model.model.layers.19.mlp.experts.parametrizations.down_proj.original"} loc("p387.10203"), %arg388: tensor<128x5760xbf16> {sdy.sharding = #sdy.sharding<@mesh, [{"_axis_1"}, {}]>, ttcore.argument_type = #ttcore.argument_type<parameter>, ttir.name = "model.model.layers.19.mlp.experts.gate_up_proj_bias"} loc("p388.10210"), %arg389: tensor<128x2880x5760xbf16> {sdy.sharding = #sdy.sharding<@mesh, [{"_axis_1"}, {"_axis_0"}, {}]>, ttcore.argument_type = #ttcore.argument_type<parameter>, ttcore.weight_dtype = "bfp_bf4", ttir.name = "model.model.layers.19.mlp.experts.parametrizations.gate_up_proj.original"} loc("p389.10215"), %arg390: tensor<64x8x128x64xbf16> {sdy.sharding = #sdy.sharding<@mesh, [{}, {"_axis_1"}, {}, {}]>, ttcore.argument_type = #ttcore.argument_type<input>, ttir.name = "args_42"} loc("p390.10343"), %arg391: tensor<512xbf16> {sdy.sharding = #sdy.sharding<@mesh, [{"_axis_1"}]>, ttcore.argument_type = #ttcore.argument_type<parameter>, ttir.name = "self___model_model_layers_20_self_attn_v_proj__parameters__bias"} loc("p391.10352"), %arg392: tensor<512x2880xbf16> {sdy.sharding = #sdy.sharding<@mesh, [{"_axis_1"}, {"_axis_0"}]>, ttcore.argument_type = #ttcore.argument_type<parameter>, ttir.name = "self___model_model_layers_20_self_attn_v_proj__parameters__weight"} loc("p392.10356"), %arg393: tensor<64x8x128x64xbf16> {sdy.sharding = #sdy.sharding<@mesh, [{}, {"_axis_1"}, {}, {}]>, ttcore.argument_type = #ttcore.argument_type<input>, ttir.name = "args_43"} loc("p393.10380"), %arg394: tensor<512xbf16> {sdy.sharding = #sdy.sharding<@mesh, [{"_axis_1"}]>, ttcore.argument_type = #ttcore.argument_type<parameter>, ttir.name = "self___model_model_layers_21_self_attn_k_proj__parameters__bias"} loc("p394.10391"), %arg395: tensor<512x2880xbf16> {sdy.sharding = #sdy.sharding<@mesh, [{"_axis_1"}, {"_axis_0"}]>, ttcore.argument_type = #ttcore.argument_type<parameter>, ttir.name = "self___model_model_layers_21_self_attn_k_proj__parameters__weight"} loc("p395.10395"), %arg396: tensor<2880xbf16> {sdy.sharding = #sdy.sharding<@mesh, [{"_axis_0"}]>, ttcore.argument_type = #ttcore.argument_type<parameter>, ttir.name = "model.model.layers.21.input_layernorm.weight"} loc("p396.10400"), %arg397: tensor<128xbf16> {sdy.sharding = #sdy.sharding<@mesh, [{}]>, ttcore.argument_type = #ttcore.argument_type<parameter>, ttir.name = "model.model.layers.20.mlp.router.bias"} loc("p397.10412"), %arg398: tensor<128x2880xbf16> {sdy.sharding = #sdy.sharding<@mesh, [{}, {"_axis_0"}]>, ttcore.argument_type = #ttcore.argument_type<parameter>, ttcore.weight_dtype = "bfp_bf4", ttir.name = "model.model.layers.20.mlp.router.parametrizations.weight.original"} loc("p398.10420"), %arg399: tensor<2880xbf16> {sdy.sharding = #sdy.sharding<@mesh, [{"_axis_0"}]>, ttcore.argument_type = #ttcore.argument_type<parameter>, ttir.name = "model.model.layers.20.post_attention_layernorm.weight"} loc("p399.10429"), %arg400: tensor<2880xbf16> {sdy.sharding = #sdy.sharding<@mesh, [{"_axis_0"}]>, ttcore.argument_type = #ttcore.argument_type<parameter>, ttir.name = "self___model_model_layers_20_self_attn_o_proj__parameters__bias"} loc("p400.10440"), %arg401: tensor<2880x4096xbf16> {sdy.sharding = #sdy.sharding<@mesh, [{"_axis_0"}, {"_axis_1"}]>, ttcore.argument_type = #ttcore.argument_type<parameter>, ttir.name = "self___model_model_layers_20_self_attn_o_proj__parameters__weight"} loc("p401.10444"), %arg402: tensor<64xbf16> {sdy.sharding = #sdy.sharding<@mesh, [{}]>, ttcore.argument_type = #ttcore.argument_type<parameter>, ttir.name = "model.model.layers.20.self_attn.sinks"} loc("p402.10455"), %arg403: tensor<4096xbf16> {sdy.sharding = #sdy.sharding<@mesh, [{"_axis_1"}]>, ttcore.argument_type = #ttcore.argument_type<parameter>, ttir.name = "self___model_model_layers_20_self_attn_q_proj__parameters__bias"} loc("p403.10473"), %arg404: tensor<4096x2880xbf16> {sdy.sharding = #sdy.sharding<@mesh, [{"_axis_1"}, {"_axis_0"}]>, ttcore.argument_type = #ttcore.argument_type<parameter>, ttir.name = "self___model_model_layers_20_self_attn_q_proj__parameters__weight"} loc("p404.10477"), %arg405: tensor<128x2880xbf16> {sdy.sharding = #sdy.sharding<@mesh, [{"_axis_1"}, {"_axis_0"}]>, ttcore.argument_type = #ttcore.argument_type<parameter>, ttir.name = "model.model.layers.20.mlp.experts.down_proj_bias"} loc("p405.10704"), %arg406: tensor<128x2880x2880xbf16> {sdy.sharding = #sdy.sharding<@mesh, [{"_axis_1"}, {}, {"_axis_0"}]>, ttcore.argument_type = #ttcore.argument_type<parameter>, ttcore.weight_dtype = "bfp_bf4", ttir.name = "model.model.layers.20.mlp.experts.parametrizations.down_proj.original"} loc("p406.10709"), %arg407: tensor<128x5760xbf16> {sdy.sharding = #sdy.sharding<@mesh, [{"_axis_1"}, {}]>, ttcore.argument_type = #ttcore.argument_type<parameter>, ttir.name = "model.model.layers.20.mlp.experts.gate_up_proj_bias"} loc("p407.10716"), %arg408: tensor<128x2880x5760xbf16> {sdy.sharding = #sdy.sharding<@mesh, [{"_axis_1"}, {"_axis_0"}, {}]>, ttcore.argument_type = #ttcore.argument_type<parameter>, ttcore.weight_dtype = "bfp_bf4", ttir.name = "model.model.layers.20.mlp.experts.parametrizations.gate_up_proj.original"} loc("p408.10721"), %arg409: tensor<64x8x128x64xbf16> {sdy.sharding = #sdy.sharding<@mesh, [{}, {"_axis_1"}, {}, {}]>, ttcore.argument_type = #ttcore.argument_type<input>, ttir.name = "args_44"} loc("p409.10849"), %arg410: tensor<512xbf16> {sdy.sharding = #sdy.sharding<@mesh, [{"_axis_1"}]>, ttcore.argument_type = #ttcore.argument_type<parameter>, ttir.name = "self___model_model_layers_21_self_attn_v_proj__parameters__bias"} loc("p410.10858"), %arg411: tensor<512x2880xbf16> {sdy.sharding = #sdy.sharding<@mesh, [{"_axis_1"}, {"_axis_0"}]>, ttcore.argument_type = #ttcore.argument_type<parameter>, ttir.name = "self___model_model_layers_21_self_attn_v_proj__parameters__weight"} loc("p411.10862"), %arg412: tensor<64x8x128x64xbf16> {sdy.sharding = #sdy.sharding<@mesh, [{}, {"_axis_1"}, {}, {}]>, ttcore.argument_type = #ttcore.argument_type<input>, ttir.name = "args_45"} loc("p412.10886"), %arg413: tensor<512xbf16> {sdy.sharding = #sdy.sharding<@mesh, [{"_axis_1"}]>, ttcore.argument_type = #ttcore.argument_type<parameter>, ttir.name = "self___model_model_layers_22_self_attn_k_proj__parameters__bias"} loc("p413.10897"), %arg414: tensor<512x2880xbf16> {sdy.sharding = #sdy.sharding<@mesh, [{"_axis_1"}, {"_axis_0"}]>, ttcore.argument_type = #ttcore.argument_type<parameter>, ttir.name = "self___model_model_layers_22_self_attn_k_proj__parameters__weight"} loc("p414.10901"), %arg415: tensor<2880xbf16> {sdy.sharding = #sdy.sharding<@mesh, [{"_axis_0"}]>, ttcore.argument_type = #ttcore.argument_type<parameter>, ttir.name = "model.model.layers.22.input_layernorm.weight"} loc("p415.10906"), %arg416: tensor<128xbf16> {sdy.sharding = #sdy.sharding<@mesh, [{}]>, ttcore.argument_type = #ttcore.argument_type<parameter>, ttir.name = "model.model.layers.21.mlp.router.bias"} loc("p416.10918"), %arg417: tensor<128x2880xbf16> {sdy.sharding = #sdy.sharding<@mesh, [{}, {"_axis_0"}]>, ttcore.argument_type = #ttcore.argument_type<parameter>, ttcore.weight_dtype = "bfp_bf4", ttir.name = "model.model.layers.21.mlp.router.parametrizations.weight.original"} loc("p417.10926"), %arg418: tensor<2880xbf16> {sdy.sharding = #sdy.sharding<@mesh, [{"_axis_0"}]>, ttcore.argument_type = #ttcore.argument_type<parameter>, ttir.name = "model.model.layers.21.post_attention_layernorm.weight"} loc("p418.10935"), %arg419: tensor<2880xbf16> {sdy.sharding = #sdy.sharding<@mesh, [{"_axis_0"}]>, ttcore.argument_type = #ttcore.argument_type<parameter>, ttir.name = "self___model_model_layers_21_self_attn_o_proj__parameters__bias"} loc("p419.10946"), %arg420: tensor<2880x4096xbf16> {sdy.sharding = #sdy.sharding<@mesh, [{"_axis_0"}, {"_axis_1"}]>, ttcore.argument_type = #ttcore.argument_type<parameter>, ttir.name = "self___model_model_layers_21_self_attn_o_proj__parameters__weight"} loc("p420.10950"), %arg421: tensor<64xbf16> {sdy.sharding = #sdy.sharding<@mesh, [{}]>, ttcore.argument_type = #ttcore.argument_type<parameter>, ttir.name = "model.model.layers.21.self_attn.sinks"} loc("p421.10961"), %arg422: tensor<4096xbf16> {sdy.sharding = #sdy.sharding<@mesh, [{"_axis_1"}]>, ttcore.argument_type = #ttcore.argument_type<parameter>, ttir.name = "self___model_model_layers_21_self_attn_q_proj__parameters__bias"} loc("p422.10979"), %arg423: tensor<4096x2880xbf16> {sdy.sharding = #sdy.sharding<@mesh, [{"_axis_1"}, {"_axis_0"}]>, ttcore.argument_type = #ttcore.argument_type<parameter>, ttir.name = "self___model_model_layers_21_self_attn_q_proj__parameters__weight"} loc("p423.10983"), %arg424: tensor<128x2880xbf16> {sdy.sharding = #sdy.sharding<@mesh, [{"_axis_1"}, {"_axis_0"}]>, ttcore.argument_type = #ttcore.argument_type<parameter>, ttir.name = "model.model.layers.21.mlp.experts.down_proj_bias"} loc("p424.11210"), %arg425: tensor<128x2880x2880xbf16> {sdy.sharding = #sdy.sharding<@mesh, [{"_axis_1"}, {}, {"_axis_0"}]>, ttcore.argument_type = #ttcore.argument_type<parameter>, ttcore.weight_dtype = "bfp_bf4", ttir.name = "model.model.layers.21.mlp.experts.parametrizations.down_proj.original"} loc("p425.11215"), %arg426: tensor<128x5760xbf16> {sdy.sharding = #sdy.sharding<@mesh, [{"_axis_1"}, {}]>, ttcore.argument_type = #ttcore.argument_type<parameter>, ttir.name = "model.model.layers.21.mlp.experts.gate_up_proj_bias"} loc("p426.11222"), %arg427: tensor<128x2880x5760xbf16> {sdy.sharding = #sdy.sharding<@mesh, [{"_axis_1"}, {"_axis_0"}, {}]>, ttcore.argument_type = #ttcore.argument_type<parameter>, ttcore.weight_dtype = "bfp_bf4", ttir.name = "model.model.layers.21.mlp.experts.parametrizations.gate_up_proj.original"} loc("p427.11227"), %arg428: tensor<64x8x128x64xbf16> {sdy.sharding = #sdy.sharding<@mesh, [{}, {"_axis_1"}, {}, {}]>, ttcore.argument_type = #ttcore.argument_type<input>, ttir.name = "args_46"} loc("p428.11355"), %arg429: tensor<512xbf16> {sdy.sharding = #sdy.sharding<@mesh, [{"_axis_1"}]>, ttcore.argument_type = #ttcore.argument_type<parameter>, ttir.name = "self___model_model_layers_22_self_attn_v_proj__parameters__bias"} loc("p429.11364"), %arg430: tensor<512x2880xbf16> {sdy.sharding = #sdy.sharding<@mesh, [{"_axis_1"}, {"_axis_0"}]>, ttcore.argument_type = #ttcore.argument_type<parameter>, ttir.name = "self___model_model_layers_22_self_attn_v_proj__parameters__weight"} loc("p430.11368"), %arg431: tensor<64x8x128x64xbf16> {sdy.sharding = #sdy.sharding<@mesh, [{}, {"_axis_1"}, {}, {}]>, ttcore.argument_type = #ttcore.argument_type<input>, ttir.name = "args_47"} loc("p431.11392"), %arg432: tensor<512xbf16> {sdy.sharding = #sdy.sharding<@mesh, [{"_axis_1"}]>, ttcore.argument_type = #ttcore.argument_type<parameter>, ttir.name = "self___model_model_layers_23_self_attn_k_proj__parameters__bias"} loc("p432.11403"), %arg433: tensor<512x2880xbf16> {sdy.sharding = #sdy.sharding<@mesh, [{"_axis_1"}, {"_axis_0"}]>, ttcore.argument_type = #ttcore.argument_type<parameter>, ttir.name = "self___model_model_layers_23_self_attn_k_proj__parameters__weight"} loc("p433.11407"), %arg434: tensor<2880xbf16> {sdy.sharding = #sdy.sharding<@mesh, [{"_axis_0"}]>, ttcore.argument_type = #ttcore.argument_type<parameter>, ttir.name = "model.model.layers.23.input_layernorm.weight"} loc("p434.11412"), %arg435: tensor<128xbf16> {sdy.sharding = #sdy.sharding<@mesh, [{}]>, ttcore.argument_type = #ttcore.argument_type<parameter>, ttir.name = "model.model.layers.22.mlp.router.bias"} loc("p435.11424"), %arg436: tensor<128x2880xbf16> {sdy.sharding = #sdy.sharding<@mesh, [{}, {"_axis_0"}]>, ttcore.argument_type = #ttcore.argument_type<parameter>, ttcore.weight_dtype = "bfp_bf4", ttir.name = "model.model.layers.22.mlp.router.parametrizations.weight.original"} loc("p436.11432"), %arg437: tensor<2880xbf16> {sdy.sharding = #sdy.sharding<@mesh, [{"_axis_0"}]>, ttcore.argument_type = #ttcore.argument_type<parameter>, ttir.name = "model.model.layers.22.post_attention_layernorm.weight"} loc("p437.11441"), %arg438: tensor<2880xbf16> {sdy.sharding = #sdy.sharding<@mesh, [{"_axis_0"}]>, ttcore.argument_type = #ttcore.argument_type<parameter>, ttir.name = "self___model_model_layers_22_self_attn_o_proj__parameters__bias"} loc("p438.11452"), %arg439: tensor<2880x4096xbf16> {sdy.sharding = #sdy.sharding<@mesh, [{"_axis_0"}, {"_axis_1"}]>, ttcore.argument_type = #ttcore.argument_type<parameter>, ttir.name = "self___model_model_layers_22_self_attn_o_proj__parameters__weight"} loc("p439.11456"), %arg440: tensor<64xbf16> {sdy.sharding = #sdy.sharding<@mesh, [{}]>, ttcore.argument_type = #ttcore.argument_type<parameter>, ttir.name = "model.model.layers.22.self_attn.sinks"} loc("p440.11467"), %arg441: tensor<4096xbf16> {sdy.sharding = #sdy.sharding<@mesh, [{"_axis_1"}]>, ttcore.argument_type = #ttcore.argument_type<parameter>, ttir.name = "self___model_model_layers_22_self_attn_q_proj__parameters__bias"} loc("p441.11485"), %arg442: tensor<4096x2880xbf16> {sdy.sharding = #sdy.sharding<@mesh, [{"_axis_1"}, {"_axis_0"}]>, ttcore.argument_type = #ttcore.argument_type<parameter>, ttir.name = "self___model_model_layers_22_self_attn_q_proj__parameters__weight"} loc("p442.11489"), %arg443: tensor<128x2880xbf16> {sdy.sharding = #sdy.sharding<@mesh, [{"_axis_1"}, {"_axis_0"}]>, ttcore.argument_type = #ttcore.argument_type<parameter>, ttir.name = "model.model.layers.22.mlp.experts.down_proj_bias"} loc("p443.11716"), %arg444: tensor<128x2880x2880xbf16> {sdy.sharding = #sdy.sharding<@mesh, [{"_axis_1"}, {}, {"_axis_0"}]>, ttcore.argument_type = #ttcore.argument_type<parameter>, ttcore.weight_dtype = "bfp_bf4", ttir.name = "model.model.layers.22.mlp.experts.parametrizations.down_proj.original"} loc("p444.11721"), %arg445: tensor<128x5760xbf16> {sdy.sharding = #sdy.sharding<@mesh, [{"_axis_1"}, {}]>, ttcore.argument_type = #ttcore.argument_type<parameter>, ttir.name = "model.model.layers.22.mlp.experts.gate_up_proj_bias"} loc("p445.11728"), %arg446: tensor<128x2880x5760xbf16> {sdy.sharding = #sdy.sharding<@mesh, [{"_axis_1"}, {"_axis_0"}, {}]>, ttcore.argument_type = #ttcore.argument_type<parameter>, ttcore.weight_dtype = "bfp_bf4", ttir.name = "model.model.layers.22.mlp.experts.parametrizations.gate_up_proj.original"} loc("p446.11733"), %arg447: tensor<64x8x128x64xbf16> {sdy.sharding = #sdy.sharding<@mesh, [{}, {"_axis_1"}, {}, {}]>, ttcore.argument_type = #ttcore.argument_type<input>, ttir.name = "args_48"} loc("p447.11861"), %arg448: tensor<512xbf16> {sdy.sharding = #sdy.sharding<@mesh, [{"_axis_1"}]>, ttcore.argument_type = #ttcore.argument_type<parameter>, ttir.name = "self___model_model_layers_23_self_attn_v_proj__parameters__bias"} loc("p448.11870"), %arg449: tensor<512x2880xbf16> {sdy.sharding = #sdy.sharding<@mesh, [{"_axis_1"}, {"_axis_0"}]>, ttcore.argument_type = #ttcore.argument_type<parameter>, ttir.name = "self___model_model_layers_23_self_attn_v_proj__parameters__weight"} loc("p449.11874"), %arg450: tensor<64x8x128x64xbf16> {sdy.sharding = #sdy.sharding<@mesh, [{}, {"_axis_1"}, {}, {}]>, ttcore.argument_type = #ttcore.argument_type<input>, ttir.name = "args_49"} loc("p450.11898"), %arg451: tensor<512xbf16> {sdy.sharding = #sdy.sharding<@mesh, [{"_axis_1"}]>, ttcore.argument_type = #ttcore.argument_type<parameter>, ttir.name = "self___model_model_layers_24_self_attn_k_proj__parameters__bias"} loc("p451.11909"), %arg452: tensor<512x2880xbf16> {sdy.sharding = #sdy.sharding<@mesh, [{"_axis_1"}, {"_axis_0"}]>, ttcore.argument_type = #ttcore.argument_type<parameter>, ttir.name = "self___model_model_layers_24_self_attn_k_proj__parameters__weight"} loc("p452.11913"), %arg453: tensor<2880xbf16> {sdy.sharding = #sdy.sharding<@mesh, [{"_axis_0"}]>, ttcore.argument_type = #ttcore.argument_type<parameter>, ttir.name = "model.model.layers.24.input_layernorm.weight"} loc("p453.11918"), %arg454: tensor<128xbf16> {sdy.sharding = #sdy.sharding<@mesh, [{}]>, ttcore.argument_type = #ttcore.argument_type<parameter>, ttir.name = "model.model.layers.23.mlp.router.bias"} loc("p454.11930"), %arg455: tensor<128x2880xbf16> {sdy.sharding = #sdy.sharding<@mesh, [{}, {"_axis_0"}]>, ttcore.argument_type = #ttcore.argument_type<parameter>, ttcore.weight_dtype = "bfp_bf4", ttir.name = "model.model.layers.23.mlp.router.parametrizations.weight.original"} loc("p455.11938"), %arg456: tensor<2880xbf16> {sdy.sharding = #sdy.sharding<@mesh, [{"_axis_0"}]>, ttcore.argument_type = #ttcore.argument_type<parameter>, ttir.name = "model.model.layers.23.post_attention_layernorm.weight"} loc("p456.11947"), %arg457: tensor<2880xbf16> {sdy.sharding = #sdy.sharding<@mesh, [{"_axis_0"}]>, ttcore.argument_type = #ttcore.argument_type<parameter>, ttir.name = "self___model_model_layers_23_self_attn_o_proj__parameters__bias"} loc("p457.11958"), %arg458: tensor<2880x4096xbf16> {sdy.sharding = #sdy.sharding<@mesh, [{"_axis_0"}, {"_axis_1"}]>, ttcore.argument_type = #ttcore.argument_type<parameter>, ttir.name = "self___model_model_layers_23_self_attn_o_proj__parameters__weight"} loc("p458.11962"), %arg459: tensor<64xbf16> {sdy.sharding = #sdy.sharding<@mesh, [{}]>, ttcore.argument_type = #ttcore.argument_type<parameter>, ttir.name = "model.model.layers.23.self_attn.sinks"} loc("p459.11973"), %arg460: tensor<4096xbf16> {sdy.sharding = #sdy.sharding<@mesh, [{"_axis_1"}]>, ttcore.argument_type = #ttcore.argument_type<parameter>, ttir.name = "self___model_model_layers_23_self_attn_q_proj__parameters__bias"} loc("p460.11991"), %arg461: tensor<4096x2880xbf16> {sdy.sharding = #sdy.sharding<@mesh, [{"_axis_1"}, {"_axis_0"}]>, ttcore.argument_type = #ttcore.argument_type<parameter>, ttir.name = "self___model_model_layers_23_self_attn_q_proj__parameters__weight"} loc("p461.11995"), %arg462: tensor<128x2880xbf16> {sdy.sharding = #sdy.sharding<@mesh, [{"_axis_1"}, {"_axis_0"}]>, ttcore.argument_type = #ttcore.argument_type<parameter>, ttir.name = "model.model.layers.23.mlp.experts.down_proj_bias"} loc("p462.12222"), %arg463: tensor<128x2880x2880xbf16> {sdy.sharding = #sdy.sharding<@mesh, [{"_axis_1"}, {}, {"_axis_0"}]>, ttcore.argument_type = #ttcore.argument_type<parameter>, ttcore.weight_dtype = "bfp_bf4", ttir.name = "model.model.layers.23.mlp.experts.parametrizations.down_proj.original"} loc("p463.12227"), %arg464: tensor<128x5760xbf16> {sdy.sharding = #sdy.sharding<@mesh, [{"_axis_1"}, {}]>, ttcore.argument_type = #ttcore.argument_type<parameter>, ttir.name = "model.model.layers.23.mlp.experts.gate_up_proj_bias"} loc("p464.12234"), %arg465: tensor<128x2880x5760xbf16> {sdy.sharding = #sdy.sharding<@mesh, [{"_axis_1"}, {"_axis_0"}, {}]>, ttcore.argument_type = #ttcore.argument_type<parameter>, ttcore.weight_dtype = "bfp_bf4", ttir.name = "model.model.layers.23.mlp.experts.parametrizations.gate_up_proj.original"} loc("p465.12239"), %arg466: tensor<64x8x128x64xbf16> {sdy.sharding = #sdy.sharding<@mesh, [{}, {"_axis_1"}, {}, {}]>, ttcore.argument_type = #ttcore.argument_type<input>, ttir.name = "args_50"} loc("p466.12367"), %arg467: tensor<512xbf16> {sdy.sharding = #sdy.sharding<@mesh, [{"_axis_1"}]>, ttcore.argument_type = #ttcore.argument_type<parameter>, ttir.name = "self___model_model_layers_24_self_attn_v_proj__parameters__bias"} loc("p467.12376"), %arg468: tensor<512x2880xbf16> {sdy.sharding = #sdy.sharding<@mesh, [{"_axis_1"}, {"_axis_0"}]>, ttcore.argument_type = #ttcore.argument_type<parameter>, ttir.name = "self___model_model_layers_24_self_attn_v_proj__parameters__weight"} loc("p468.12380"), %arg469: tensor<64x8x128x64xbf16> {sdy.sharding = #sdy.sharding<@mesh, [{}, {"_axis_1"}, {}, {}]>, ttcore.argument_type = #ttcore.argument_type<input>, ttir.name = "args_51"} loc("p469.12404"), %arg470: tensor<512xbf16> {sdy.sharding = #sdy.sharding<@mesh, [{"_axis_1"}]>, ttcore.argument_type = #ttcore.argument_type<parameter>, ttir.name = "self___model_model_layers_25_self_attn_k_proj__parameters__bias"} loc("p470.12415"), %arg471: tensor<512x2880xbf16> {sdy.sharding = #sdy.sharding<@mesh, [{"_axis_1"}, {"_axis_0"}]>, ttcore.argument_type = #ttcore.argument_type<parameter>, ttir.name = "self___model_model_layers_25_self_attn_k_proj__parameters__weight"} loc("p471.12419"), %arg472: tensor<2880xbf16> {sdy.sharding = #sdy.sharding<@mesh, [{"_axis_0"}]>, ttcore.argument_type = #ttcore.argument_type<parameter>, ttir.name = "model.model.layers.25.input_layernorm.weight"} loc("p472.12424"), %arg473: tensor<128xbf16> {sdy.sharding = #sdy.sharding<@mesh, [{}]>, ttcore.argument_type = #ttcore.argument_type<parameter>, ttir.name = "model.model.layers.24.mlp.router.bias"} loc("p473.12436"), %arg474: tensor<128x2880xbf16> {sdy.sharding = #sdy.sharding<@mesh, [{}, {"_axis_0"}]>, ttcore.argument_type = #ttcore.argument_type<parameter>, ttcore.weight_dtype = "bfp_bf4", ttir.name = "model.model.layers.24.mlp.router.parametrizations.weight.original"} loc("p474.12444"), %arg475: tensor<2880xbf16> {sdy.sharding = #sdy.sharding<@mesh, [{"_axis_0"}]>, ttcore.argument_type = #ttcore.argument_type<parameter>, ttir.name = "model.model.layers.24.post_attention_layernorm.weight"} loc("p475.12453"), %arg476: tensor<2880xbf16> {sdy.sharding = #sdy.sharding<@mesh, [{"_axis_0"}]>, ttcore.argument_type = #ttcore.argument_type<parameter>, ttir.name = "self___model_model_layers_24_self_attn_o_proj__parameters__bias"} loc("p476.12464"), %arg477: tensor<2880x4096xbf16> {sdy.sharding = #sdy.sharding<@mesh, [{"_axis_0"}, {"_axis_1"}]>, ttcore.argument_type = #ttcore.argument_type<parameter>, ttir.name = "self___model_model_layers_24_self_attn_o_proj__parameters__weight"} loc("p477.12468"), %arg478: tensor<64xbf16> {sdy.sharding = #sdy.sharding<@mesh, [{}]>, ttcore.argument_type = #ttcore.argument_type<parameter>, ttir.name = "model.model.layers.24.self_attn.sinks"} loc("p478.12479"), %arg479: tensor<4096xbf16> {sdy.sharding = #sdy.sharding<@mesh, [{"_axis_1"}]>, ttcore.argument_type = #ttcore.argument_type<parameter>, ttir.name = "self___model_model_layers_24_self_attn_q_proj__parameters__bias"} loc("p479.12497"), %arg480: tensor<4096x2880xbf16> {sdy.sharding = #sdy.sharding<@mesh, [{"_axis_1"}, {"_axis_0"}]>, ttcore.argument_type = #ttcore.argument_type<parameter>, ttir.name = "self___model_model_layers_24_self_attn_q_proj__parameters__weight"} loc("p480.12501"), %arg481: tensor<128x2880xbf16> {sdy.sharding = #sdy.sharding<@mesh, [{"_axis_1"}, {"_axis_0"}]>, ttcore.argument_type = #ttcore.argument_type<parameter>, ttir.name = "model.model.layers.24.mlp.experts.down_proj_bias"} loc("p481.12728"), %arg482: tensor<128x2880x2880xbf16> {sdy.sharding = #sdy.sharding<@mesh, [{"_axis_1"}, {}, {"_axis_0"}]>, ttcore.argument_type = #ttcore.argument_type<parameter>, ttcore.weight_dtype = "bfp_bf4", ttir.name = "model.model.layers.24.mlp.experts.parametrizations.down_proj.original"} loc("p482.12733"), %arg483: tensor<128x5760xbf16> {sdy.sharding = #sdy.sharding<@mesh, [{"_axis_1"}, {}]>, ttcore.argument_type = #ttcore.argument_type<parameter>, ttir.name = "model.model.layers.24.mlp.experts.gate_up_proj_bias"} loc("p483.12740"), %arg484: tensor<128x2880x5760xbf16> {sdy.sharding = #sdy.sharding<@mesh, [{"_axis_1"}, {"_axis_0"}, {}]>, ttcore.argument_type = #ttcore.argument_type<parameter>, ttcore.weight_dtype = "bfp_bf4", ttir.name = "model.model.layers.24.mlp.experts.parametrizations.gate_up_proj.original"} loc("p484.12745"), %arg485: tensor<64x8x128x64xbf16> {sdy.sharding = #sdy.sharding<@mesh, [{}, {"_axis_1"}, {}, {}]>, ttcore.argument_type = #ttcore.argument_type<input>, ttir.name = "args_52"} loc("p485.12873"), %arg486: tensor<512xbf16> {sdy.sharding = #sdy.sharding<@mesh, [{"_axis_1"}]>, ttcore.argument_type = #ttcore.argument_type<parameter>, ttir.name = "self___model_model_layers_25_self_attn_v_proj__parameters__bias"} loc("p486.12882"), %arg487: tensor<512x2880xbf16> {sdy.sharding = #sdy.sharding<@mesh, [{"_axis_1"}, {"_axis_0"}]>, ttcore.argument_type = #ttcore.argument_type<parameter>, ttir.name = "self___model_model_layers_25_self_attn_v_proj__parameters__weight"} loc("p487.12886"), %arg488: tensor<64x8x128x64xbf16> {sdy.sharding = #sdy.sharding<@mesh, [{}, {"_axis_1"}, {}, {}]>, ttcore.argument_type = #ttcore.argument_type<input>, ttir.name = "args_53"} loc("p488.12910"), %arg489: tensor<512xbf16> {sdy.sharding = #sdy.sharding<@mesh, [{"_axis_1"}]>, ttcore.argument_type = #ttcore.argument_type<parameter>, ttir.name = "self___model_model_layers_26_self_attn_k_proj__parameters__bias"} loc("p489.12921"), %arg490: tensor<512x2880xbf16> {sdy.sharding = #sdy.sharding<@mesh, [{"_axis_1"}, {"_axis_0"}]>, ttcore.argument_type = #ttcore.argument_type<parameter>, ttir.name = "self___model_model_layers_26_self_attn_k_proj__parameters__weight"} loc("p490.12925"), %arg491: tensor<2880xbf16> {sdy.sharding = #sdy.sharding<@mesh, [{"_axis_0"}]>, ttcore.argument_type = #ttcore.argument_type<parameter>, ttir.name = "model.model.layers.26.input_layernorm.weight"} loc("p491.12930"), %arg492: tensor<128xbf16> {sdy.sharding = #sdy.sharding<@mesh, [{}]>, ttcore.argument_type = #ttcore.argument_type<parameter>, ttir.name = "model.model.layers.25.mlp.router.bias"} loc("p492.12942"), %arg493: tensor<128x2880xbf16> {sdy.sharding = #sdy.sharding<@mesh, [{}, {"_axis_0"}]>, ttcore.argument_type = #ttcore.argument_type<parameter>, ttcore.weight_dtype = "bfp_bf4", ttir.name = "model.model.layers.25.mlp.router.parametrizations.weight.original"} loc("p493.12950"), %arg494: tensor<2880xbf16> {sdy.sharding = #sdy.sharding<@mesh, [{"_axis_0"}]>, ttcore.argument_type = #ttcore.argument_type<parameter>, ttir.name = "model.model.layers.25.post_attention_layernorm.weight"} loc("p494.12959"), %arg495: tensor<2880xbf16> {sdy.sharding = #sdy.sharding<@mesh, [{"_axis_0"}]>, ttcore.argument_type = #ttcore.argument_type<parameter>, ttir.name = "self___model_model_layers_25_self_attn_o_proj__parameters__bias"} loc("p495.12970"), %arg496: tensor<2880x4096xbf16> {sdy.sharding = #sdy.sharding<@mesh, [{"_axis_0"}, {"_axis_1"}]>, ttcore.argument_type = #ttcore.argument_type<parameter>, ttir.name = "self___model_model_layers_25_self_attn_o_proj__parameters__weight"} loc("p496.12974"), %arg497: tensor<64xbf16> {sdy.sharding = #sdy.sharding<@mesh, [{}]>, ttcore.argument_type = #ttcore.argument_type<parameter>, ttir.name = "model.model.layers.25.self_attn.sinks"} loc("p497.12985"), %arg498: tensor<4096xbf16> {sdy.sharding = #sdy.sharding<@mesh, [{"_axis_1"}]>, ttcore.argument_type = #ttcore.argument_type<parameter>, ttir.name = "self___model_model_layers_25_self_attn_q_proj__parameters__bias"} loc("p498.13003"), %arg499: tensor<4096x2880xbf16> {sdy.sharding = #sdy.sharding<@mesh, [{"_axis_1"}, {"_axis_0"}]>, ttcore.argument_type = #ttcore.argument_type<parameter>, ttir.name = "self___model_model_layers_25_self_attn_q_proj__parameters__weight"} loc("p499.13007"), %arg500: tensor<128x2880xbf16> {sdy.sharding = #sdy.sharding<@mesh, [{"_axis_1"}, {"_axis_0"}]>, ttcore.argument_type = #ttcore.argument_type<parameter>, ttir.name = "model.model.layers.25.mlp.experts.down_proj_bias"} loc("p500.13234"), %arg501: tensor<128x2880x2880xbf16> {sdy.sharding = #sdy.sharding<@mesh, [{"_axis_1"}, {}, {"_axis_0"}]>, ttcore.argument_type = #ttcore.argument_type<parameter>, ttcore.weight_dtype = "bfp_bf4", ttir.name = "model.model.layers.25.mlp.experts.parametrizations.down_proj.original"} loc("p501.13239"), %arg502: tensor<128x5760xbf16> {sdy.sharding = #sdy.sharding<@mesh, [{"_axis_1"}, {}]>, ttcore.argument_type = #ttcore.argument_type<parameter>, ttir.name = "model.model.layers.25.mlp.experts.gate_up_proj_bias"} loc("p502.13246"), %arg503: tensor<128x2880x5760xbf16> {sdy.sharding = #sdy.sharding<@mesh, [{"_axis_1"}, {"_axis_0"}, {}]>, ttcore.argument_type = #ttcore.argument_type<parameter>, ttcore.weight_dtype = "bfp_bf4", ttir.name = "model.model.layers.25.mlp.experts.parametrizations.gate_up_proj.original"} loc("p503.13251"), %arg504: tensor<64x8x128x64xbf16> {sdy.sharding = #sdy.sharding<@mesh, [{}, {"_axis_1"}, {}, {}]>, ttcore.argument_type = #ttcore.argument_type<input>, ttir.name = "args_54"} loc("p504.13379"), %arg505: tensor<512xbf16> {sdy.sharding = #sdy.sharding<@mesh, [{"_axis_1"}]>, ttcore.argument_type = #ttcore.argument_type<parameter>, ttir.name = "self___model_model_layers_26_self_attn_v_proj__parameters__bias"} loc("p505.13388"), %arg506: tensor<512x2880xbf16> {sdy.sharding = #sdy.sharding<@mesh, [{"_axis_1"}, {"_axis_0"}]>, ttcore.argument_type = #ttcore.argument_type<parameter>, ttir.name = "self___model_model_layers_26_self_attn_v_proj__parameters__weight"} loc("p506.13392"), %arg507: tensor<64x8x128x64xbf16> {sdy.sharding = #sdy.sharding<@mesh, [{}, {"_axis_1"}, {}, {}]>, ttcore.argument_type = #ttcore.argument_type<input>, ttir.name = "args_55"} loc("p507.13416"), %arg508: tensor<512xbf16> {sdy.sharding = #sdy.sharding<@mesh, [{"_axis_1"}]>, ttcore.argument_type = #ttcore.argument_type<parameter>, ttir.name = "self___model_model_layers_27_self_attn_k_proj__parameters__bias"} loc("p508.13427"), %arg509: tensor<512x2880xbf16> {sdy.sharding = #sdy.sharding<@mesh, [{"_axis_1"}, {"_axis_0"}]>, ttcore.argument_type = #ttcore.argument_type<parameter>, ttir.name = "self___model_model_layers_27_self_attn_k_proj__parameters__weight"} loc("p509.13431"), %arg510: tensor<2880xbf16> {sdy.sharding = #sdy.sharding<@mesh, [{"_axis_0"}]>, ttcore.argument_type = #ttcore.argument_type<parameter>, ttir.name = "model.model.layers.27.input_layernorm.weight"} loc("p510.13436"), %arg511: tensor<128xbf16> {sdy.sharding = #sdy.sharding<@mesh, [{}]>, ttcore.argument_type = #ttcore.argument_type<parameter>, ttir.name = "model.model.layers.26.mlp.router.bias"} loc("p511.13448"), %arg512: tensor<128x2880xbf16> {sdy.sharding = #sdy.sharding<@mesh, [{}, {"_axis_0"}]>, ttcore.argument_type = #ttcore.argument_type<parameter>, ttcore.weight_dtype = "bfp_bf4", ttir.name = "model.model.layers.26.mlp.router.parametrizations.weight.original"} loc("p512.13456"), %arg513: tensor<2880xbf16> {sdy.sharding = #sdy.sharding<@mesh, [{"_axis_0"}]>, ttcore.argument_type = #ttcore.argument_type<parameter>, ttir.name = "model.model.layers.26.post_attention_layernorm.weight"} loc("p513.13465"), %arg514: tensor<2880xbf16> {sdy.shardin…
#loc5700 = loc("reshape.16935")
#loc5701 = loc("reshape.16937")
#loc5702 = loc("transpose.16938")
#loc5703 = loc("dot.16940")
#loc5704 = loc("reshape.16941")
#loc5705 = loc("reshape.16931")
#loc5706 = loc("reshape.16933")
#loc5707 = loc("broadcast.16944")
#loc5708 = loc("add.16945")
#loc5709 = loc("transpose.16947")
#loc5711 = loc("broadcast.17030")
#loc5712 = loc("reshape.17031")
#loc5713 = loc("dot.17163")
#loc5714 = loc("reshape.17167")
#loc5715 = loc("reshape.17023")
#loc5716 = loc("reshape.17025")
#loc5717 = loc("transpose.17026")
#loc5718 = loc("dot.17168")
#loc5719 = loc("reshape.17169")
#loc5720 = loc("reshape.17019")
#loc5721 = loc("reshape.17021")
#loc5722 = loc("broadcast.17172")
#loc5723 = loc("add.17173")
#loc5724 = loc("add.17176")
#loc5725 = loc("reshape.17008")
#loc5726 = loc("reshape.17010")
#loc5727 = loc("custom-call.17209")
#loc5728 = loc("reshape.17302")
#loc5729 = loc("concatenate.17303")
#loc5730 = loc("reshape.17305")
#loc5731 = loc("dot.17306")
#loc5732 = loc("reshape.17295")
#loc5733 = loc("reshape.17297")
#loc5734 = loc("broadcast.17310")
#loc5735 = loc("add.17311")
#loc5736 = loc("slice.17324")
#loc5737 = loc("clamp.17327")
#loc5738 = loc("add.17330")
#loc5739 = loc("slice.17312")
#loc5740 = loc("clamp.17315")
#loc5741 = loc("multiply.17317")
#loc5742 = loc("logistic.17318")
#loc5743 = loc("multiply.17319")
#loc5744 = loc("multiply.17331")
#loc5745 = loc("dot.17332")
#loc5746 = loc("reshape.17283")
#loc5747 = loc("reshape.17285")
#loc5748 = loc("broadcast.17336")
#loc5749 = loc("add.17337")
#loc5750 = loc("reshape.17338")
#loc5751 = loc("convert.17211")
#loc5752 = loc("reshape.16999")
#loc5753 = loc("reshape.17004")
#loc5754 = loc("transpose.17005")
#loc5755 = loc("convert.17006")
#loc5756 = loc("dot.17212")
#loc5757 = loc("reshape.16991")
#loc5758 = loc("reshape.16993")
#loc5759 = loc("convert.16994")
#loc5760 = loc("broadcast.17217")
#loc5761 = loc("add.17218")
#loc5762 = loc("convert.17219")
#loc5763 = loc("custom-call.17260")
#loc5764 = loc("broadcast.17264")
#loc5765 = loc("compare.17265")
#loc5766 = loc("convert.17266")
#loc5767 = loc("convert.17267")
#loc5768 = loc("reduce.17246")
#loc5769 = loc("broadcast.17247")
#loc5770 = loc("subtract.17248")
#loc5771 = loc("exponential.17249")
#loc5772 = loc("reduce.17255")
#loc5773 = loc("broadcast.17256")
#loc5774 = loc("divide.17257")
#loc5775 = loc("broadcast.17269")
#loc5776 = loc("multiply.17270")
#loc5777 = loc("reduce.17277")
#loc5778 = loc("transpose.17278")
#loc5779 = loc("reshape.17279")
#loc5780 = loc("broadcast.17340")
#loc5781 = loc("multiply.17341")
#loc5782 = loc("reduce.17348")
#loc5783 = loc("add.17351")
#loc5784 = loc("reshape.16979")
#loc5785 = loc("reshape.16981")
#loc5786 = loc("custom-call.17384")
#loc5787 = loc("reshape.17566")
#loc5788 = loc("reshape.17562")
#loc5789 = loc("reshape.17564")
#loc5790 = loc("transpose.17565")
#loc5791 = loc("dot.17567")
#loc5792 = loc("reshape.17568")
#loc5793 = loc("reshape.17558")
#loc5794 = loc("reshape.17560")
#loc5795 = loc("broadcast.17571")
#loc5796 = loc("add.17572")
#loc5797 = loc("transpose.17574")
#loc5798 = loc("slice.17575")
#loc5799 = loc("multiply.17592")
#loc5800 = loc("slice.17579")
#loc5801 = loc("multiply.17589")
#loc5802 = loc("subtract.17595")
#loc5803 = loc("multiply.17582")
#loc5804 = loc("multiply.17578")
#loc5805 = loc("add.17585")
#loc5806 = loc("concatenate.17596")
#loc5807 = loc("reshape.16974")
#loc5808 = loc("reshape.16976")
#loc5809 = loc("transpose.16977")
#loc5810 = loc("dot.17386")
#loc5811 = loc("reshape.17387")
#loc5812 = loc("reshape.16970")
#loc5813 = loc("reshape.16972")
#loc5814 = loc("broadcast.17390")
#loc5815 = loc("add.17391")
#loc5816 = loc("transpose.17393")
#loc5817 = loc("slice.17394")
#loc5818 = loc("multiply.17412")
#loc5819 = loc("slice.17399")
#loc5820 = loc("multiply.17409")
#loc5821 = loc("subtract.17415")
#loc5822 = loc("multiply.17402")
#loc5823 = loc("multiply.17397")
#loc5824 = loc("add.17405")
#loc5825 = loc("concatenate.17416")
#loc5827 = loc("broadcast.17552")
#loc5828 = loc("reshape.17553")
#loc5829 = loc("transpose.17554")
#loc5830 = loc("dot.17597")
#loc5831 = loc("multiply.17600")
#loc5832 = loc("add.17605")
#loc5833 = loc("reshape.17540")
#loc5834 = loc("reshape.17545")
#loc5835 = loc("broadcast.17546")
#loc5836 = loc("concatenate.17606")
#loc5837 = loc("reduce.17613")
#loc5838 = loc("broadcast.17649")
#loc5839 = loc("subtract.17650")
#loc5840 = loc("reduce.17656")
#loc5841 = loc("broadcast.17657")
#loc5842 = loc("subtract.17658")
#loc5843 = loc("exponential.17659")
#loc5844 = loc("reduce.17665")
#loc5845 = loc("broadcast.17666")
#loc5846 = loc("divide.17667")
#loc5847 = loc("slice.17668")
#loc5848 = loc("reshape.17441")
#loc5849 = loc("reshape.17443")
#loc5850 = loc("transpose.17444")
#loc5851 = loc("dot.17446")
#loc5852 = loc("reshape.17447")
#loc5853 = loc("reshape.17437")
#loc5854 = loc("reshape.17439")
#loc5855 = loc("broadcast.17450")
#loc5856 = loc("add.17451")
#loc5857 = loc("transpose.17453")
#loc5859 = loc("broadcast.17536")
#loc5860 = loc("reshape.17537")
#loc5861 = loc("dot.17669")
#loc5862 = loc("reshape.17673")
#loc5863 = loc("reshape.17529")
#loc5864 = loc("reshape.17531")
#loc5865 = loc("transpose.17532")
#loc5866 = loc("dot.17674")
#loc5867 = loc("reshape.17675")
#loc5868 = loc("reshape.17525")
#loc5869 = loc("reshape.17527")
#loc5870 = loc("broadcast.17678")
#loc5871 = loc("add.17679")
#loc5872 = loc("add.17682")
#loc5873 = loc("reshape.17514")
#loc5874 = loc("reshape.17516")
#loc5875 = loc("custom-call.17715")
#loc5876 = loc("reshape.17808")
#loc5877 = loc("concatenate.17809")
#loc5878 = loc("reshape.17811")
#loc5879 = loc("dot.17812")
#loc5880 = loc("reshape.17801")
#loc5881 = loc("reshape.17803")
#loc5882 = loc("broadcast.17816")
#loc5883 = loc("add.17817")
#loc5884 = loc("slice.17830")
#loc5885 = loc("clamp.17833")
#loc5886 = loc("add.17836")
#loc5887 = loc("slice.17818")
#loc5888 = loc("clamp.17821")
#loc5889 = loc("multiply.17823")
#loc5890 = loc("logistic.17824")
#loc5891 = loc("multiply.17825")
#loc5892 = loc("multiply.17837")
#loc5893 = loc("dot.17838")
#loc5894 = loc("reshape.17789")
#loc5895 = loc("reshape.17791")
#loc5896 = loc("broadcast.17842")
#loc5897 = loc("add.17843")
#loc5898 = loc("reshape.17844")
#loc5899 = loc("convert.17717")
#loc5900 = loc("reshape.17505")
#loc5901 = loc("reshape.17510")
#loc5902 = loc("transpose.17511")
#loc5903 = loc("convert.17512")
#loc5904 = loc("dot.17718")
#loc5905 = loc("reshape.17497")
#loc5906 = loc("reshape.17499")
#loc5907 = loc("convert.17500")
#loc5908 = loc("broadcast.17723")
#loc5909 = loc("add.17724")
#loc5910 = loc("convert.17725")
#loc5911 = loc("custom-call.17766")
#loc5912 = loc("broadcast.17770")
#loc5913 = loc("compare.17771")
#loc5914 = loc("convert.17772")
#loc5915 = loc("convert.17773")
#loc5916 = loc("reduce.17752")
#loc5917 = loc("broadcast.17753")
#loc5918 = loc("subtract.17754")
#loc5919 = loc("exponential.17755")
#loc5920 = loc("reduce.17761")
#loc5921 = loc("broadcast.17762")
#loc5922 = loc("divide.17763")
#loc5923 = loc("broadcast.17775")
#loc5924 = loc("multiply.17776")
#loc5925 = loc("reduce.17783")
#loc5926 = loc("transpose.17784")
#loc5927 = loc("reshape.17785")
#loc5928 = loc("broadcast.17846")
#loc5929 = loc("multiply.17847")
#loc5930 = loc("reduce.17854")
#loc5931 = loc("add.17857")
#loc5932 = loc("reshape.17485")
#loc5933 = loc("reshape.17487")
#loc5934 = loc("custom-call.17890")
#loc5935 = loc("reshape.18071")
#loc5936 = loc("reshape.18067")
#loc5937 = loc("reshape.18069")
#loc5938 = loc("transpose.18070")
#loc5939 = loc("dot.18072")
#loc5940 = loc("reshape.18073")
#loc5941 = loc("reshape.18063")
#loc5942 = loc("reshape.18065")
#loc5943 = loc("broadcast.18076")
#loc5944 = loc("add.18077")
#loc5945 = loc("transpose.18079")
#loc5946 = loc("slice.18080")
#loc5947 = loc("multiply.18097")
#loc5948 = loc("slice.18084")
#loc5949 = loc("multiply.18094")
#loc5950 = loc("subtract.18100")
#loc5951 = loc("multiply.18087")
#loc5952 = loc("multiply.18083")
#loc5953 = loc("add.18090")
#loc5954 = loc("concatenate.18101")
#loc5955 = loc("reshape.17480")
#loc5956 = loc("reshape.17482")
#loc5957 = loc("transpose.17483")
#loc5958 = loc("dot.17892")
#loc5959 = loc("reshape.17893")
#loc5960 = loc("reshape.17476")
#loc5961 = loc("reshape.17478")
#loc5962 = loc("broadcast.17896")
#loc5963 = loc("add.17897")
#loc5964 = loc("transpose.17899")
#loc5965 = loc("slice.17900")
#loc5966 = loc("multiply.17918")
#loc5967 = loc("slice.17905")
#loc5968 = loc("multiply.17915")
#loc5969 = loc("subtract.17921")
#loc5970 = loc("multiply.17908")
#loc5971 = loc("multiply.17903")
#loc5972 = loc("add.17911")
#loc5973 = loc("concatenate.17922")
#loc5975 = loc("broadcast.18057")
#loc5976 = loc("reshape.18058")
#loc5977 = loc("transpose.18059")
#loc5978 = loc("dot.18102")
#loc5979 = loc("multiply.18105")
#loc5980 = loc("add.18110")
#loc5981 = loc("reshape.18045")
#loc5982 = loc("reshape.18050")
#loc5983 = loc("broadcast.18051")
#loc5984 = loc("concatenate.18111")
#loc5985 = loc("reshape.17947")
#loc5986 = loc("reshape.17949")
#loc5987 = loc("transpose.17950")
#loc5988 = loc("dot.17952")
#loc5989 = loc("reshape.17953")
#loc5990 = loc("reshape.17943")
#loc5991 = loc("reshape.17945")
#loc5992 = loc("broadcast.17956")
#loc5993 = loc("add.17957")
#loc5994 = loc("transpose.17959")
#loc5996 = loc("add.17983")
#loc5997 = loc("reduce.18118")
#loc5998 = loc("broadcast.18154")
#loc5999 = loc("subtract.18155")
#loc6000 = loc("reduce.18161")
#loc6001 = loc("broadcast.18162")
#loc6002 = loc("subtract.18163")
#loc6003 = loc("exponential.18164")
#loc6004 = loc("reduce.18170")
#loc6005 = loc("broadcast.18171")
#loc6006 = loc("divide.18172")
#loc6007 = loc("slice.18173")
#loc6008 = loc("broadcast.18041")
#loc6009 = loc("reshape.18042")
#loc6010 = loc("dot.18174")
#loc6011 = loc("reshape.18178")
#loc6012 = loc("reshape.18034")
#loc6013 = loc("reshape.18036")
#loc6014 = loc("transpose.18037")
#loc6015 = loc("dot.18179")
#loc6016 = loc("reshape.18180")
#loc6017 = loc("reshape.18030")
#loc6018 = loc("reshape.18032")
#loc6019 = loc("broadcast.18183")
#loc6020 = loc("add.18184")
#loc6021 = loc("add.18187")
#loc6022 = loc("reshape.18019")
#loc6023 = loc("reshape.18021")
#loc6024 = loc("custom-call.18220")
#loc6025 = loc("reshape.18313")
#loc6026 = loc("concatenate.18314")
#loc6027 = loc("reshape.18316")
#loc6028 = loc("dot.18317")
#loc6029 = loc("reshape.18306")
#loc6030 = loc("reshape.18308")
#loc6031 = loc("broadcast.18321")
#loc6032 = loc("add.18322")
#loc6033 = loc("slice.18335")
#loc6034 = loc("clamp.18338")
#loc6035 = loc("add.18341")
#loc6036 = loc("slice.18323")
#loc6037 = loc("clamp.18326")
#loc6038 = loc("multiply.18328")
#loc6039 = loc("logistic.18329")
#loc6040 = loc("multiply.18330")
#loc6041 = loc("multiply.18342")
#loc6042 = loc("dot.18343")
#loc6043 = loc("reshape.18294")
#loc6044 = loc("reshape.18296")
#loc6045 = loc("broadcast.18347")
#loc6046 = loc("add.18348")
#loc6047 = loc("reshape.18349")
#loc6048 = loc("convert.18222")
#loc6049 = loc("reshape.18010")
#loc6050 = loc("reshape.18015")
#loc6051 = loc("transpose.18016")
#loc6052 = loc("convert.18017")
#loc6053 = loc("dot.18223")
#loc6054 = loc("reshape.18002")
#loc6055 = loc("reshape.18004")
#loc6056 = loc("convert.18005")
#loc6057 = loc("broadcast.18228")
#loc6058 = loc("add.18229")
#loc6059 = loc("convert.18230")
#loc6060 = loc("custom-call.18271")
#loc6061 = loc("broadcast.18275")
#loc6062 = loc("compare.18276")
#loc6063 = loc("convert.18277")
#loc6064 = loc("convert.18278")
#loc6065 = loc("reduce.18257")
#loc6066 = loc("broadcast.18258")
#loc6067 = loc("subtract.18259")
#loc6068 = loc("exponential.18260")
#loc6069 = loc("reduce.18266")
#loc6070 = loc("broadcast.18267")
#loc6071 = loc("divide.18268")
#loc6072 = loc("broadcast.18280")
#loc6073 = loc("multiply.18281")
#loc6074 = loc("reduce.18288")
#loc6075 = loc("transpose.18289")
#loc6076 = loc("reshape.18290")
#loc6077 = loc("broadcast.18351")
#loc6078 = loc("multiply.18352")
#loc6079 = loc("reduce.18359")
#loc6080 = loc("add.18362")
#loc6081 = loc("reshape.17990")
#loc6082 = loc("reshape.17992")
#loc6083 = loc("custom-call.18395")
#loc6084 = loc("reshape.18396")
#loc6085 = loc("reshape.17985")
#loc6086 = loc("reshape.17987")
#loc6087 = loc("transpose.17988")
#loc6088 = loc("dot.18397")
#loc6089 = loc("reshape.18398")
#loc6090 = loc("custom-call.18399")
#loc6091 = loc("reshape.18401")
#loc6092 = loc("iota.18404")
#loc6094 = loc("compare.18422")
#loc6095 = loc("select.18423")
#loc6096 = loc("compare.18425")
#loc6097 = loc("minimum.18426")
#loc6098 = loc("select.18424")
#loc6099 = loc("select.18427")
#loc6100 = loc("convert.18431")
#loc6101 = loc("reshape.18432")
#loc6103 = loc("iota.18232")
#loc6105 = loc("compare.18244")
#loc6106 = loc("slice.18249")
#loc6107 = loc("convert.18250")
#loc6108 = loc("slice.18247")
#loc6110 = loc("iota.17727")
#loc6112 = loc("compare.17739")
#loc6113 = loc("slice.17744")
#loc6114 = loc("convert.17745")
#loc6115 = loc("slice.17742")
#loc6118 = loc("convert.16847")
#loc6119 = loc("power.16849")
#loc6120 = loc("reduce.16856")
#loc6121 = loc("multiply.16865")
#loc6122 = loc("reshape.16866")
#loc6123 = loc("add.16870")
#loc6124 = loc("rsqrt.16871")
#loc6125 = loc("reshape.16872")
#loc6126 = loc("broadcast.16873")
#loc6127 = loc("multiply.16874")
#loc6128 = loc("convert.16477")
#loc6129 = loc("broadcast.16875")
#loc6130 = loc("multiply.16876")
#loc6131 = loc("convert.16877")
#loc6133 = loc("iota.16715")
#loc6135 = loc("compare.16727")
#loc6136 = loc("slice.16732")
#loc6137 = loc("convert.16733")
#loc6138 = loc("slice.16730")
#loc6141 = loc("convert.17353")
#loc6142 = loc("power.17355")
#loc6143 = loc("reduce.17362")
#loc6144 = loc("multiply.17371")
#loc6145 = loc("reshape.17372")
#loc6146 = loc("add.17376")
#loc6147 = loc("rsqrt.17377")
#loc6148 = loc("reshape.17378")
#loc6149 = loc("broadcast.17379")
#loc6150 = loc("multiply.17380")
#loc6151 = loc("convert.16983")
#loc6152 = loc("broadcast.17381")
#loc6153 = loc("multiply.17382")
#loc6154 = loc("convert.17383")
#loc6156 = loc("iota.15703")
#loc6158 = loc("compare.15715")
#loc6159 = loc("slice.15720")
#loc6160 = loc("convert.15721")
#loc6161 = loc("slice.15718")
#loc6163 = loc("iota.15197")
#loc6165 = loc("compare.15209")
#loc6166 = loc("slice.15214")
#loc6167 = loc("convert.15215")
#loc6168 = loc("slice.15212")
#loc6171 = loc("convert.14648")
#loc6172 = loc("power.14650")
#loc6173 = loc("reduce.14657")
#loc6174 = loc("multiply.14666")
#loc6175 = loc("reshape.14667")
#loc6176 = loc("add.14671")
#loc6177 = loc("rsqrt.14672")
#loc6178 = loc("reshape.14673")
#loc6179 = loc("broadcast.14674")
#loc6180 = loc("multiply.14675")
#loc6181 = loc("convert.14482")
#loc6182 = loc("broadcast.14676")
#loc6183 = loc("multiply.14677")
#loc6184 = loc("convert.14678")
#loc6187 = loc("convert.14317")
#loc6188 = loc("power.14319")
#loc6189 = loc("reduce.14326")
#loc6190 = loc("multiply.14335")
#loc6191 = loc("reshape.14336")
#loc6192 = loc("add.14340")
#loc6193 = loc("rsqrt.14341")
#loc6194 = loc("reshape.14342")
#loc6195 = loc("broadcast.14343")
#loc6196 = loc("multiply.14344")
#loc6197 = loc("convert.13947")
#loc6198 = loc("broadcast.14345")
#loc6199 = loc("multiply.14346")
#loc6200 = loc("convert.14347")
#loc6203 = loc("convert.14142")
#loc6204 = loc("power.14144")
#loc6205 = loc("reduce.14151")
#loc6206 = loc("multiply.14160")
#loc6207 = loc("reshape.14161")
#loc6208 = loc("add.14165")
#loc6209 = loc("rsqrt.14166")
#loc6210 = loc("reshape.14167")
#loc6211 = loc("broadcast.14168")
#loc6212 = loc("multiply.14169")
#loc6213 = loc("convert.13976")
#loc6214 = loc("broadcast.14170")
#loc6215 = loc("multiply.14171")
#loc6216 = loc("convert.14172")
#loc6219 = loc("convert.13811")
#loc6220 = loc("power.13813")
#loc6221 = loc("reduce.13820")
#loc6222 = loc("multiply.13829")
#loc6223 = loc("reshape.13830")
#loc6224 = loc("add.13834")
#loc6225 = loc("rsqrt.13835")
#loc6226 = loc("reshape.13836")
#loc6227 = loc("broadcast.13837")
#loc6228 = loc("multiply.13838")
#loc6229 = loc("convert.13441")
#loc6230 = loc("broadcast.13839")
#loc6231 = loc("multiply.13840")
#loc6232 = loc("convert.13841")
#loc6235 = loc("convert.13636")
#loc6236 = loc("power.13638")
#loc6237 = loc("reduce.13645")
#loc6238 = loc("multiply.13654")
#loc6239 = loc("reshape.13655")
#loc6240 = loc("add.13659")
#loc6241 = loc("rsqrt.13660")
#loc6242 = loc("reshape.13661")
#loc6243 = loc("broadcast.13662")
#loc6244 = loc("multiply.13663")
#loc6245 = loc("convert.13470")
#loc6246 = loc("broadcast.13664")
#loc6247 = loc("multiply.13665")
#loc6248 = loc("convert.13666")
#loc6251 = loc("convert.12799")
#loc6252 = loc("power.12801")
#loc6253 = loc("reduce.12808")
#loc6254 = loc("multiply.12817")
#loc6255 = loc("reshape.12818")
#loc6256 = loc("add.12822")
#loc6257 = loc("rsqrt.12823")
#loc6258 = loc("reshape.12824")
#loc6259 = loc("broadcast.12825")
#loc6260 = loc("multiply.12826")
#loc6261 = loc("convert.12429")
#loc6262 = loc("broadcast.12827")
#loc6263 = loc("multiply.12828")
#loc6264 = loc("convert.12829")
#loc6266 = loc("iota.12667")
#loc6268 = loc("compare.12679")
#loc6269 = loc("slice.12684")
#loc6270 = loc("convert.12685")
#loc6271 = loc("slice.12682")
#loc6274 = loc("convert.12624")
#loc6275 = loc("power.12626")
#loc6276 = loc("reduce.12633")
#loc6277 = loc("multiply.12642")
#loc6278 = loc("reshape.12643")
#loc6279 = loc("add.12647")
#loc6280 = loc("rsqrt.12648")
#loc6281 = loc("reshape.12649")
#loc6282 = loc("broadcast.12650")
#loc6283 = loc("multiply.12651")
#loc6284 = loc("convert.12458")
#loc6285 = loc("broadcast.12652")
#loc6286 = loc("multiply.12653")
#loc6287 = loc("convert.12654")
#loc6290 = loc("convert.15329")
#loc6291 = loc("power.15331")
#loc6292 = loc("reduce.15338")
#loc6293 = loc("multiply.15347")
#loc6294 = loc("reshape.15348")
#loc6295 = loc("add.15352")
#loc6296 = loc("rsqrt.15353")
#loc6297 = loc("reshape.15354")
#loc6298 = loc("broadcast.15355")
#loc6299 = loc("multiply.15356")
#loc6300 = loc("convert.14959")
#loc6301 = loc("broadcast.15357")
#loc6302 = loc("multiply.15358")
#loc6303 = loc("convert.15359")
#loc6306 = loc("convert.12293")
#loc6307 = loc("power.12295")
#loc6308 = loc("reduce.12302")
#loc6309 = loc("multiply.12311")
#loc6310 = loc("reshape.12312")
#loc6311 = loc("add.12316")
#loc6312 = loc("rsqrt.12317")
#loc6313 = loc("reshape.12318")
#loc6314 = loc("broadcast.12319")
#loc6315 = loc("multiply.12320")
#loc6316 = loc("convert.11923")
#loc6317 = loc("broadcast.12321")
#loc6318 = loc("multiply.12322")
#loc6319 = loc("convert.12323")
#loc6321 = loc("iota.14691")
#loc6323 = loc("compare.14703")
#loc6324 = loc("slice.14708")
#loc6325 = loc("convert.14709")
#loc6326 = loc("slice.14706")
#loc6328 = loc("iota.12161")
#loc6330 = loc("compare.12173")
#loc6331 = loc("slice.12178")
#loc6332 = loc("convert.12179")
#loc6333 = loc("slice.12176")
#loc6336 = loc("convert.12118")
#loc6337 = loc("power.12120")
#loc6338 = loc("reduce.12127")
#loc6339 = loc("multiply.12136")
#loc6340 = loc("reshape.12137")
#loc6341 = loc("add.12141")
#loc6342 = loc("rsqrt.12142")
#loc6343 = loc("reshape.12143")
#loc6344 = loc("broadcast.12144")
#loc6345 = loc("multiply.12145")
#loc6346 = loc("convert.11952")
#loc6347 = loc("broadcast.12146")
#loc6348 = loc("multiply.12147")
#loc6349 = loc("convert.12148")
#loc6352 = loc("convert.11281")
#loc6353 = loc("power.11283")
#loc6354 = loc("reduce.11290")
#loc6355 = loc("multiply.11299")
#loc6356 = loc("reshape.11300")
#loc6357 = loc("add.11304")
#loc6358 = loc("rsqrt.11305")
#loc6359 = loc("reshape.11306")
#loc6360 = loc("broadcast.11307")
#loc6361 = loc("multiply.11308")
#loc6362 = loc("convert.10911")
#loc6363 = loc("broadcast.11309")
#loc6364 = loc("multiply.11310")
#loc6365 = loc("convert.11311")
#loc6367 = loc("iota.11149")
#loc6369 = loc("compare.11161")
#loc6370 = loc("slice.11166")
#loc6371 = loc("convert.11167")
#loc6372 = loc("slice.11164")
#loc6375 = loc("convert.10775")
#loc6376 = loc("power.10777")
#loc6377 = loc("reduce.10784")
#loc6378 = loc("multiply.10793")
#loc6379 = loc("reshape.10794")
#loc6380 = loc("add.10798")
#loc6381 = loc("rsqrt.10799")
#loc6382 = loc("reshape.10800")
#loc6383 = loc("broadcast.10801")
#loc6384 = loc("multiply.10802")
#loc6385 = loc("convert.10405")
#loc6386 = loc("broadcast.10803")
#loc6387 = loc("multiply.10804")
#loc6388 = loc("convert.10805")
#loc6390 = loc("iota.10643")
#loc6392 = loc("compare.10655")
#loc6393 = loc("slice.10660")
#loc6394 = loc("convert.10661")
#loc6395 = loc("slice.10658")
#loc6398 = loc("convert.11612")
#loc6399 = loc("power.11614")
#loc6400 = loc("reduce.11621")
#loc6401 = loc("multiply.11630")
#loc6402 = loc("reshape.11631")
#loc6403 = loc("add.11635")
#loc6404 = loc("rsqrt.11636")
#loc6405 = loc("reshape.11637")
#loc6406 = loc("broadcast.11638")
#loc6407 = loc("multiply.11639")
#loc6408 = loc("convert.11446")
#loc6409 = loc("broadcast.11640")
#loc6410 = loc("multiply.11641")
#loc6411 = loc("convert.11642")
#loc6414 = loc("convert.10269")
#loc6415 = loc("power.10271")
#loc6416 = loc("reduce.10278")
#loc6417 = loc("multiply.10287")
#loc6418 = loc("reshape.10288")
#loc6419 = loc("add.10292")
#loc6420 = loc("rsqrt.10293")
#loc6421 = loc("reshape.10294")
#loc6422 = loc("broadcast.10295")
#loc6423 = loc("multiply.10296")
#loc6424 = loc("convert.9899")
#loc6425 = loc("broadcast.10297")
#loc6426 = loc("multiply.10298")
#loc6427 = loc("convert.10299")
#loc6430 = loc("convert.17684")
#loc6431 = loc("power.17686")
#loc6432 = loc("reduce.17693")
#loc6433 = loc("multiply.17702")
#loc6434 = loc("reshape.17703")
#loc6435 = loc("add.17707")
#loc6436 = loc("rsqrt.17708")
#loc6437 = loc("reshape.17709")
#loc6438 = loc("broadcast.17710")
#loc6439 = loc("multiply.17711")
#loc6440 = loc("convert.17518")
#loc6441 = loc("broadcast.17712")
#loc6442 = loc("multiply.17713")
#loc6443 = loc("convert.17714")
#loc6445 = loc("iota.4571")
#loc6447 = loc("compare.4583")
#loc6448 = loc("slice.4588")
#loc6449 = loc("convert.4589")
#loc6450 = loc("slice.4586")
#loc6452 = loc("iota.9631")
#loc6454 = loc("compare.9643")
#loc6455 = loc("slice.9648")
#loc6456 = loc("convert.9649")
#loc6457 = loc("slice.9646")
#loc6460 = loc("convert.13130")
#loc6461 = loc("power.13132")
#loc6462 = loc("reduce.13139")
#loc6463 = loc("multiply.13148")
#loc6464 = loc("reshape.13149")
#loc6465 = loc("add.13153")
#loc6466 = loc("rsqrt.13154")
#loc6467 = loc("reshape.13155")
#loc6468 = loc("broadcast.13156")
#loc6469 = loc("multiply.13157")
#loc6470 = loc("convert.12964")
#loc6471 = loc("broadcast.13158")
#loc6472 = loc("multiply.13159")
#loc6473 = loc("convert.13160")
#loc6475 = loc("iota.3053")
#loc6477 = loc("compare.3065")
#loc6478 = loc("slice.3070")
#loc6479 = loc("convert.3071")
#loc6480 = loc("slice.3068")
#loc6482 = loc("iota.10137")
#loc6484 = loc("compare.10149")
#loc6485 = loc("slice.10154")
#loc6486 = loc("convert.10155")
#loc6487 = loc("slice.10152")
#loc6490 = loc("convert.5034")
#loc6491 = loc("power.5036")
#loc6492 = loc("reduce.5043")
#loc6493 = loc("multiply.5052")
#loc6494 = loc("reshape.5053")
#loc6495 = loc("add.5057")
#loc6496 = loc("rsqrt.5058")
#loc6497 = loc("reshape.5059")
#loc6498 = loc("broadcast.5060")
#loc6499 = loc("multiply.5061")
#loc6500 = loc("convert.4868")
#loc6501 = loc("broadcast.5062")
#loc6502 = loc("multiply.5063")
#loc6503 = loc("convert.5064")
#loc6506 = loc("convert.16672")
#loc6507 = loc("power.16674")
#loc6508 = loc("reduce.16681")
#loc6509 = loc("multiply.16690")
#loc6510 = loc("reshape.16691")
#loc6511 = loc("add.16695")
#loc6512 = loc("rsqrt.16696")
#loc6513 = loc("reshape.16697")
#loc6514 = loc("broadcast.16698")
#loc6515 = loc("multiply.16699")
#loc6516 = loc("convert.16506")
#loc6517 = loc("broadcast.16700")
#loc6518 = loc("multiply.16701")
#loc6519 = loc("convert.16702")
#loc6522 = loc("convert.3010")
#loc6523 = loc("power.3012")
#loc6524 = loc("reduce.3019")
#loc6525 = loc("multiply.3028")
#loc6526 = loc("reshape.3029")
#loc6527 = loc("add.3033")
#loc6528 = loc("rsqrt.3034")
#loc6529 = loc("reshape.3035")
#loc6530 = loc("broadcast.3036")
#loc6531 = loc("multiply.3037")
#loc6532 = loc("convert.2844")
#loc6533 = loc("broadcast.3038")
#loc6534 = loc("multiply.3039")
#loc6535 = loc("convert.3040")
#loc6538 = loc("convert.3691")
#loc6539 = loc("power.3693")
#loc6540 = loc("reduce.3700")
#loc6541 = loc("multiply.3709")
#loc6542 = loc("reshape.3710")
#loc6543 = loc("add.3714")
#loc6544 = loc("rsqrt.3715")
#loc6545 = loc("reshape.3716")
#loc6546 = loc("broadcast.3717")
#loc6547 = loc("multiply.3718")
#loc6548 = loc("convert.3321")
#loc6549 = loc("broadcast.3719")
#loc6550 = loc("multiply.3720")
#loc6551 = loc("convert.3721")
#loc6554 = loc("convert.3516")
#loc6555 = loc("power.3518")
#loc6556 = loc("reduce.3525")
#loc6557 = loc("multiply.3534")
#loc6558 = loc("reshape.3535")
#loc6559 = loc("add.3539")
#loc6560 = loc("rsqrt.3540")
#loc6561 = loc("reshape.3541")
#loc6562 = loc("broadcast.3542")
#loc6563 = loc("multiply.3543")
#loc6564 = loc("convert.3350")
#loc6565 = loc("broadcast.3544")
#loc6566 = loc("multiply.3545")
#loc6567 = loc("convert.3546")
#loc6570 = loc("convert.4528")
#loc6571 = loc("power.4530")
#loc6572 = loc("reduce.4537")
#loc6573 = loc("multiply.4546")
#loc6574 = loc("reshape.4547")
#loc6575 = loc("add.4551")
#loc6576 = loc("rsqrt.4552")
#loc6577 = loc("reshape.4553")
#loc6578 = loc("broadcast.4554")
#loc6579 = loc("multiply.4555")
#loc6580 = loc("convert.4362")
#loc6581 = loc("broadcast.4556")
#loc6582 = loc("multiply.4557")
#loc6583 = loc("convert.4558")
#loc6586 = loc("convert.15835")
#loc6587 = loc("power.15837")
#loc6588 = loc("reduce.15844")
#loc6589 = loc("multiply.15853")
#loc6590 = loc("reshape.15854")
#loc6591 = loc("add.15858")
#loc6592 = loc("rsqrt.15859")
#loc6593 = loc("reshape.15860")
#loc6594 = loc("broadcast.15861")
#loc6595 = loc("multiply.15862")
#loc6596 = loc("convert.15465")
#loc6597 = loc("broadcast.15863")
#loc6598 = loc("multiply.15864")
#loc6599 = loc("convert.15865")
#loc6602 = loc("convert.2679")
#loc6603 = loc("power.2681")
#loc6604 = loc("reduce.2688")
#loc6605 = loc("multiply.2697")
#loc6606 = loc("reshape.2698")
#loc6607 = loc("add.2702")
#loc6608 = loc("rsqrt.2703")
#loc6609 = loc("reshape.2704")
#loc6610 = loc("broadcast.2705")
#loc6611 = loc("multiply.2706")
#loc6612 = loc("convert.2309")
#loc6613 = loc("broadcast.2707")
#loc6614 = loc("multiply.2708")
#loc6615 = loc("convert.2709")
#loc6618 = loc("convert.1161")
#loc6619 = loc("power.1163")
#loc6620 = loc("reduce.1170")
#loc6621 = loc("multiply.1179")
#loc6622 = loc("reshape.1180")
#loc6623 = loc("add.1184")
#loc6624 = loc("rsqrt.1185")
#loc6625 = loc("reshape.1186")
#loc6626 = loc("broadcast.1187")
#loc6627 = loc("multiply.1188")
#loc6628 = loc("convert.757")
#loc6629 = loc("broadcast.1189")
#loc6630 = loc("multiply.1190")
#loc6631 = loc("convert.1191")
#loc6634 = loc("convert.17859")
#loc6635 = loc("power.17861")
#loc6636 = loc("reduce.17868")
#loc6637 = loc("multiply.17877")
#loc6638 = loc("reshape.17878")
#loc6639 = loc("add.17882")
#loc6640 = loc("rsqrt.17883")
#loc6641 = loc("reshape.17884")
#loc6642 = loc("broadcast.17885")
#loc6643 = loc("multiply.17886")
#loc6644 = loc("convert.17489")
#loc6645 = loc("broadcast.17887")
#loc6646 = loc("multiply.17888")
#loc6647 = loc("convert.17889")
#loc6650 = loc("convert.15660")
#loc6651 = loc("power.15662")
#loc6652 = loc("reduce.15669")
#loc6653 = loc("multiply.15678")
#loc6654 = loc("reshape.15679")
#loc6655 = loc("add.15683")
#loc6656 = loc("rsqrt.15684")
#loc6657 = loc("reshape.15685")
#loc6658 = loc("broadcast.15686")
#loc6659 = loc("multiply.15687")
#loc6660 = loc("convert.15494")
#loc6661 = loc("broadcast.15688")
#loc6662 = loc("multiply.15689")
#loc6663 = loc("convert.15690")
#loc6666 = loc("convert.4197")
#loc6667 = loc("power.4199")
#loc6668 = loc("reduce.4206")
#loc6669 = loc("multiply.4215")
#loc6670 = loc("reshape.4216")
#loc6671 = loc("add.4220")
#loc6672 = loc("rsqrt.4221")
#loc6673 = loc("reshape.4222")
#loc6674 = loc("broadcast.4223")
#loc6675 = loc("multiply.4224")
#loc6676 = loc("convert.3827")
#loc6677 = loc("broadcast.4225")
#loc6678 = loc("multiply.4226")
#loc6679 = loc("convert.4227")
#loc6681 = loc("iota.14185")
#loc6683 = loc("compare.14197")
#loc6684 = loc("slice.14202")
#loc6685 = loc("convert.14203")
#loc6686 = loc("slice.14200")
#loc6689 = loc("convert.446")
#loc6690 = loc("power.448")
#loc6691 = loc("reduce.455")
#loc6692 = loc("multiply.464")
#loc6693 = loc("reshape.465")
#loc6694 = loc("add.469")
#loc6695 = loc("rsqrt.470")
#loc6696 = loc("reshape.471")
#loc6697 = loc("broadcast.472")
#loc6698 = loc("multiply.473")
#loc6699 = loc("convert.229")
#loc6700 = loc("broadcast.474")
#loc6701 = loc("multiply.475")
#loc6702 = loc("convert.476")
#loc6704 = loc("iota.5583")
#loc6706 = loc("compare.5595")
#loc6707 = loc("slice.5600")
#loc6708 = loc("convert.5601")
#loc6709 = loc("slice.5598")
#loc6712 = loc("convert.5715")
#loc6713 = loc("power.5717")
#loc6714 = loc("reduce.5724")
#loc6715 = loc("multiply.5733")
#loc6716 = loc("reshape.5734")
#loc6717 = loc("add.5738")
#loc6718 = loc("rsqrt.5739")
#loc6719 = loc("reshape.5740")
#loc6720 = loc("broadcast.5741")
#loc6721 = loc("multiply.5742")
#loc6722 = loc("convert.5345")
#loc6723 = loc("broadcast.5743")
#loc6724 = loc("multiply.5744")
#loc6725 = loc("convert.5745")
#loc6728 = loc("convert.9763")
#loc6729 = loc("power.9765")
#loc6730 = loc("reduce.9772")
#loc6731 = loc("multiply.9781")
#loc6732 = loc("reshape.9782")
#loc6733 = loc("add.9786")
#loc6734 = loc("rsqrt.9787")
#loc6735 = loc("reshape.9788")
#loc6736 = loc("broadcast.9789")
#loc6737 = loc("multiply.9790")
#loc6738 = loc("convert.9393")
#loc6739 = loc("broadcast.9791")
#loc6740 = loc("multiply.9792")
#loc6741 = loc("convert.9793")
#loc6743 = loc("iota.489")
#loc6745 = loc("compare.501")
#loc6746 = loc("slice.506")
#loc6747 = loc("convert.507")
#loc6748 = loc("slice.504")
#loc6751 = loc("convert.18189")
#loc6752 = loc("power.18191")
#loc6753 = loc("reduce.18198")
#loc6754 = loc("multiply.18207")
#loc6755 = loc("reshape.18208")
#loc6756 = loc("add.18212")
#loc6757 = loc("rsqrt.18213")
#loc6758 = loc("reshape.18214")
#loc6759 = loc("broadcast.18215")
#loc6760 = loc("multiply.18216")
#loc6761 = loc("convert.18023")
#loc6762 = loc("broadcast.18217")
#loc6763 = loc("multiply.18218")
#loc6764 = loc("convert.18219")
#loc6767 = loc("convert.621")
#loc6768 = loc("power.623")
#loc6769 = loc("reduce.630")
#loc6770 = loc("multiply.639")
#loc6771 = loc("reshape.640")
#loc6772 = loc("add.644")
#loc6773 = loc("rsqrt.645")
#loc6774 = loc("reshape.646")
#loc6775 = loc("broadcast.647")
#loc6776 = loc("multiply.648")
#loc6777 = loc("convert.200")
#loc6778 = loc("broadcast.649")
#loc6779 = loc("multiply.650")
#loc6780 = loc("convert.651")
#loc6783 = loc("convert.17178")
#loc6784 = loc("power.17180")
#loc6785 = loc("reduce.17187")
#loc6786 = loc("multiply.17196")
#loc6787 = loc("reshape.17197")
#loc6788 = loc("add.17201")
#loc6789 = loc("rsqrt.17202")
#loc6790 = loc("reshape.17203")
#loc6791 = loc("broadcast.17204")
#loc6792 = loc("multiply.17205")
#loc6793 = loc("convert.17012")
#loc6794 = loc("broadcast.17206")
#loc6795 = loc("multiply.17207")
#loc6796 = loc("convert.17208")
#loc6798 = loc("iota.1029")
#loc6800 = loc("compare.1041")
#loc6801 = loc("slice.1046")
#loc6802 = loc("convert.1047")
#loc6803 = loc("slice.1044")
#loc6806 = loc("convert.18364")
#loc6807 = loc("power.18366")
#loc6808 = loc("reduce.18373")
#loc6809 = loc("multiply.18382")
#loc6810 = loc("reshape.18383")
#loc6811 = loc("add.18387")
#loc6812 = loc("rsqrt.18388")
#loc6813 = loc("reshape.18389")
#loc6814 = loc("broadcast.18390")
#loc6815 = loc("multiply.18391")
#loc6816 = loc("convert.17994")
#loc6817 = loc("broadcast.18392")
#loc6818 = loc("multiply.18393")
#loc6819 = loc("convert.18394")
#loc6822 = loc("convert.986")
#loc6823 = loc("power.988")
#loc6824 = loc("reduce.995")
#loc6825 = loc("multiply.1004")
#loc6826 = loc("reshape.1005")
#loc6827 = loc("add.1009")
#loc6828 = loc("rsqrt.1010")
#loc6829 = loc("reshape.1011")
#loc6830 = loc("broadcast.1012")
#loc6831 = loc("multiply.1013")
#loc6832 = loc("convert.786")
#loc6833 = loc("broadcast.1014")
#loc6834 = loc("multiply.1015")
#loc6835 = loc("convert.1016")
#loc6837 = loc("iota.16209")
#loc6839 = loc("compare.16221")
#loc6840 = loc("slice.16226")
#loc6841 = loc("convert.16227")
#loc6842 = loc("slice.16224")
#loc6844 = loc("iota.13679")
#loc6846 = loc("compare.13691")
#loc6847 = loc("slice.13696")
#loc6848 = loc("convert.13697")
#loc6849 = loc("slice.13694")
#loc6852 = loc("convert.3185")
#loc6853 = loc("power.3187")
#loc6854 = loc("reduce.3194")
#loc6855 = loc("multiply.3203")
#loc6856 = loc("reshape.3204")
#loc6857 = loc("add.3208")
#loc6858 = loc("rsqrt.3209")
#loc6859 = loc("reshape.3210")
#loc6860 = loc("broadcast.3211")
#loc6861 = loc("multiply.3212")
#loc6862 = loc("convert.2815")
#loc6863 = loc("broadcast.3213")
#loc6864 = loc("multiply.3214")
#loc6865 = loc("convert.3215")
#loc6868 = loc("convert.9257")
#loc6869 = loc("power.9259")
#loc6870 = loc("reduce.9266")
#loc6871 = loc("multiply.9275")
#loc6872 = loc("reshape.9276")
#loc6873 = loc("add.9280")
#loc6874 = loc("rsqrt.9281")
#loc6875 = loc("reshape.9282")
#loc6876 = loc("broadcast.9283")
#loc6877 = loc("multiply.9284")
#loc6878 = loc("convert.8887")
#loc6879 = loc("broadcast.9285")
#loc6880 = loc("multiply.9286")
#loc6881 = loc("convert.9287")
#loc6884 = loc("convert.14823")
#loc6885 = loc("power.14825")
#loc6886 = loc("reduce.14832")
#loc6887 = loc("multiply.14841")
#loc6888 = loc("reshape.14842")
#loc6889 = loc("add.14846")
#loc6890 = loc("rsqrt.14847")
#loc6891 = loc("reshape.14848")
#loc6892 = loc("broadcast.14849")
#loc6893 = loc("multiply.14850")
#loc6894 = loc("convert.14453")
#loc6895 = loc("broadcast.14851")
#loc6896 = loc("multiply.14852")
#loc6897 = loc("convert.14853")
#loc6900 = loc("convert.9082")
#loc6901 = loc("power.9084")
#loc6902 = loc("reduce.9091")
#loc6903 = loc("multiply.9100")
#loc6904 = loc("reshape.9101")
#loc6905 = loc("add.9105")
#loc6906 = loc("rsqrt.9106")
#loc6907 = loc("reshape.9107")
#loc6908 = loc("broadcast.9108")
#loc6909 = loc("multiply.9109")
#loc6910 = loc("convert.8916")
#loc6911 = loc("broadcast.9110")
#loc6912 = loc("multiply.9111")
#loc6913 = loc("convert.9112")
#loc6916 = loc("convert.10094")
#loc6917 = loc("power.10096")
#loc6918 = loc("reduce.10103")
#loc6919 = loc("multiply.10112")
#loc6920 = loc("reshape.10113")
#loc6921 = loc("add.10117")
#loc6922 = loc("rsqrt.10118")
#loc6923 = loc("reshape.10119")
#loc6924 = loc("broadcast.10120")
#loc6925 = loc("multiply.10121")
#loc6926 = loc("convert.9928")
#loc6927 = loc("broadcast.10122")
#loc6928 = loc("multiply.10123")
#loc6929 = loc("convert.10124")
#loc6931 = loc("iota.2041")
#loc6933 = loc("compare.2053")
#loc6934 = loc("slice.2058")
#loc6935 = loc("convert.2059")
#loc6936 = loc("slice.2056")
#loc6939 = loc("convert.16341")
#loc6940 = loc("power.16343")
#loc6941 = loc("reduce.16350")
#loc6942 = loc("multiply.16359")
#loc6943 = loc("reshape.16360")
#loc6944 = loc("add.16364")
#loc6945 = loc("rsqrt.16365")
#loc6946 = loc("reshape.16366")
#loc6947 = loc("broadcast.16367")
#loc6948 = loc("multiply.16368")
#loc6949 = loc("convert.15971")
#loc6950 = loc("broadcast.16369")
#loc6951 = loc("multiply.16370")
#loc6952 = loc("convert.16371")
#loc6955 = loc("convert.4703")
#loc6956 = loc("power.4705")
#loc6957 = loc("reduce.4712")
#loc6958 = loc("multiply.4721")
#loc6959 = loc("reshape.4722")
#loc6960 = loc("add.4726")
#loc6961 = loc("rsqrt.4727")
#loc6962 = loc("reshape.4728")
#loc6963 = loc("broadcast.4729")
#loc6964 = loc("multiply.4730")
#loc6965 = loc("convert.4333")
#loc6966 = loc("broadcast.4731")
#loc6967 = loc("multiply.4732")
#loc6968 = loc("convert.4733")
#loc6971 = loc("convert.4022")
#loc6972 = loc("power.4024")
#loc6973 = loc("reduce.4031")
#loc6974 = loc("multiply.4040")
#loc6975 = loc("reshape.4041")
#loc6976 = loc("add.4045")
#loc6977 = loc("rsqrt.4046")
#loc6978 = loc("reshape.4047")
#loc6979 = loc("broadcast.4048")
#loc6980 = loc("multiply.4049")
#loc6981 = loc("convert.3856")
#loc6982 = loc("broadcast.4050")
#loc6983 = loc("multiply.4051")
#loc6984 = loc("convert.4052")
#loc6986 = loc("iota.1535")
#loc6988 = loc("compare.1547")
#loc6989 = loc("slice.1552")
#loc6990 = loc("convert.1553")
#loc6991 = loc("slice.1550")
#loc6994 = loc("convert.2173")
#loc6995 = loc("power.2175")
#loc6996 = loc("reduce.2182")
#loc6997 = loc("multiply.2191")
#loc6998 = loc("reshape.2192")
#loc6999 = loc("add.2196")
#loc7000 = loc("rsqrt.2197")
#loc7001 = loc("reshape.2198")
#loc7002 = loc("broadcast.2199")
#loc7003 = loc("multiply.2200")
#loc7004 = loc("convert.1803")
#loc7005 = loc("broadcast.2201")
#loc7006 = loc("multiply.2202")
#loc7007 = loc("convert.2203")
#loc7009 = loc("iota.9125")
#loc7011 = loc("compare.9137")
#loc7012 = loc("slice.9142")
#loc7013 = loc("convert.9143")
#loc7014 = loc("slice.9140")
#loc7017 = loc("convert.1998")
#loc7018 = loc("power.2000")
#loc7019 = loc("reduce.2007")
#loc7020 = loc("multiply.2016")
#loc7021 = loc("reshape.2017")
#loc7022 = loc("add.2021")
#loc7023 = loc("rsqrt.2022")
#loc7024 = loc("reshape.2023")
#loc7025 = loc("broadcast.2024")
#loc7026 = loc("multiply.2025")
#loc7027 = loc("convert.1832")
#loc7028 = loc("broadcast.2026")
#loc7029 = loc("multiply.2027")
#loc7030 = loc("convert.2028")
#loc7032 = loc("iota.2547")
#loc7034 = loc("compare.2559")
#loc7035 = loc("slice.2564")
#loc7036 = loc("convert.2565")
#loc7037 = loc("slice.2562")
#loc7039 = loc("iota.8619")
#loc7041 = loc("compare.8631")
#loc7042 = loc("slice.8636")
#loc7043 = loc("convert.8637")
#loc7044 = loc("slice.8634")
#loc7046 = loc("iota.6089")
#loc7048 = loc("compare.6101")
#loc7049 = loc("slice.6106")
#loc7050 = loc("convert.6107")
#loc7051 = loc("slice.6104")
#loc7054 = loc("convert.1492")
#loc7055 = loc("power.1494")
#loc7056 = loc("reduce.1501")
#loc7057 = loc("multiply.1510")
#loc7058 = loc("reshape.1511")
#loc7059 = loc("add.1515")
#loc7060 = loc("rsqrt.1516")
#loc7061 = loc("reshape.1517")
#loc7062 = loc("broadcast.1518")
#loc7063 = loc("multiply.1519")
#loc7064 = loc("convert.1326")
#loc7065 = loc("broadcast.1520")
#loc7066 = loc("multiply.1521")
#loc7067 = loc("convert.1522")
#loc7070 = loc("convert.11787")
#loc7071 = loc("power.11789")
#loc7072 = loc("reduce.11796")
#loc7073 = loc("multiply.11805")
#loc7074 = loc("reshape.11806")
#loc7075 = loc("add.11810")
#loc7076 = loc("rsqrt.11811")
#loc7077 = loc("reshape.11812")
#loc7078 = loc("broadcast.11813")
#loc7079 = loc("multiply.11814")
#loc7080 = loc("convert.11417")
#loc7081 = loc("broadcast.11815")
#loc7082 = loc("multiply.11816")
#loc7083 = loc("convert.11817")
#loc7085 = loc("iota.4065")
#loc7087 = loc("compare.4077")
#loc7088 = loc("slice.4082")
#loc7089 = loc("convert.4083")
#loc7090 = loc("slice.4080")
#loc7093 = loc("convert.8070")
#loc7094 = loc("power.8072")
#loc7095 = loc("reduce.8079")
#loc7096 = loc("multiply.8088")
#loc7097 = loc("reshape.8089")
#loc7098 = loc("add.8093")
#loc7099 = loc("rsqrt.8094")
#loc7100 = loc("reshape.8095")
#loc7101 = loc("broadcast.8096")
#loc7102 = loc("multiply.8097")
#loc7103 = loc("convert.7904")
#loc7104 = loc("broadcast.8098")
#loc7105 = loc("multiply.8099")
#loc7106 = loc("convert.8100")
#loc7109 = loc("convert.16166")
#loc7110 = loc("power.16168")
#loc7111 = loc("reduce.16175")
#loc7112 = loc("multiply.16184")
#loc7113 = loc("reshape.16185")
#loc7114 = loc("add.16189")
#loc7115 = loc("rsqrt.16190")
#loc7116 = loc("reshape.16191")
#loc7117 = loc("broadcast.16192")
#loc7118 = loc("multiply.16193")
#loc7119 = loc("convert.16000")
#loc7120 = loc("broadcast.16194")
#loc7121 = loc("multiply.16195")
#loc7122 = loc("convert.16196")
#loc7125 = loc("convert.15154")
#loc7126 = loc("power.15156")
#loc7127 = loc("reduce.15163")
#loc7128 = loc("multiply.15172")
#loc7129 = loc("reshape.15173")
#loc7130 = loc("add.15177")
#loc7131 = loc("rsqrt.15178")
#loc7132 = loc("reshape.15179")
#loc7133 = loc("broadcast.15180")
#loc7134 = loc("multiply.15181")
#loc7135 = loc("convert.14988")
#loc7136 = loc("broadcast.15182")
#loc7137 = loc("multiply.15183")
#loc7138 = loc("convert.15184")
#loc7141 = loc("convert.9588")
#loc7142 = loc("power.9590")
#loc7143 = loc("reduce.9597")
#loc7144 = loc("multiply.9606")
#loc7145 = loc("reshape.9607")
#loc7146 = loc("add.9611")
#loc7147 = loc("rsqrt.9612")
#loc7148 = loc("reshape.9613")
#loc7149 = loc("broadcast.9614")
#loc7150 = loc("multiply.9615")
#loc7151 = loc("convert.9422")
#loc7152 = loc("broadcast.9616")
#loc7153 = loc("multiply.9617")
#loc7154 = loc("convert.9618")
#loc7157 = loc("convert.11106")
#loc7158 = loc("power.11108")
#loc7159 = loc("reduce.11115")
#loc7160 = loc("multiply.11124")
#loc7161 = loc("reshape.11125")
#loc7162 = loc("add.11129")
#loc7163 = loc("rsqrt.11130")
#loc7164 = loc("reshape.11131")
#loc7165 = loc("broadcast.11132")
#loc7166 = loc("multiply.11133")
#loc7167 = loc("convert.10940")
#loc7168 = loc("broadcast.11134")
#loc7169 = loc("multiply.11135")
#loc7170 = loc("convert.11136")
#loc7173 = loc("convert.5540")
#loc7174 = loc("power.5542")
#loc7175 = loc("reduce.5549")
#loc7176 = loc("multiply.5558")
#loc7177 = loc("reshape.5559")
#loc7178 = loc("add.5563")
#loc7179 = loc("rsqrt.5564")
#loc7180 = loc("reshape.5565")
#loc7181 = loc("broadcast.5566")
#loc7182 = loc("multiply.5567")
#loc7183 = loc("convert.5374")
#loc7184 = loc("broadcast.5568")
#loc7185 = loc("multiply.5569")
#loc7186 = loc("convert.5570")
#loc7188 = loc("iota.5077")
#loc7190 = loc("compare.5089")
#loc7191 = loc("slice.5094")
#loc7192 = loc("convert.5095")
#loc7193 = loc("slice.5092")
#loc7196 = loc("convert.6046")
#loc7197 = loc("power.6048")
#loc7198 = loc("reduce.6055")
#loc7199 = loc("multiply.6064")
#loc7200 = loc("reshape.6065")
#loc7201 = loc("add.6069")
#loc7202 = loc("rsqrt.6070")
#loc7203 = loc("reshape.6071")
#loc7204 = loc("broadcast.6072")
#loc7205 = loc("multiply.6073")
#loc7206 = loc("convert.5880")
#loc7207 = loc("broadcast.6074")
#loc7208 = loc("multiply.6075")
#loc7209 = loc("convert.6076")
#loc7212 = loc("convert.7233")
#loc7213 = loc("power.7235")
#loc7214 = loc("reduce.7242")
#loc7215 = loc("multiply.7251")
#loc7216 = loc("reshape.7252")
#loc7217 = loc("add.7256")
#loc7218 = loc("rsqrt.7257")
#loc7219 = loc("reshape.7258")
#loc7220 = loc("broadcast.7259")
#loc7221 = loc("multiply.7260")
#loc7222 = loc("convert.6863")
#loc7223 = loc("broadcast.7261")
#loc7224 = loc("multiply.7262")
#loc7225 = loc("convert.7263")
#loc7228 = loc("convert.6221")
#loc7229 = loc("power.6223")
#loc7230 = loc("reduce.6230")
#loc7231 = loc("multiply.6239")
#loc7232 = loc("reshape.6240")
#loc7233 = loc("add.6244")
#loc7234 = loc("rsqrt.6245")
#loc7235 = loc("reshape.6246")
#loc7236 = loc("broadcast.6247")
#loc7237 = loc("multiply.6248")
#loc7238 = loc("convert.5851")
#loc7239 = loc("broadcast.6249")
#loc7240 = loc("multiply.6250")
#loc7241 = loc("convert.6251")
#loc7244 = loc("convert.59")
#loc7245 = loc("power.61")
#loc7246 = loc("reduce.68")
#loc7247 = loc("multiply.77")
#loc7248 = loc("reshape.78")
#loc7249 = loc("add.82")
#loc7250 = loc("rsqrt.83")
#loc7251 = loc("reshape.84")
#loc7252 = loc("broadcast.85")
#loc7253 = loc("multiply.86")
#loc7254 = loc("convert.42")
#loc7255 = loc("broadcast.87")
#loc7256 = loc("multiply.88")
#loc7257 = loc("convert.89")
#loc7260 = loc("convert.1667")
#loc7261 = loc("power.1669")
#loc7262 = loc("reduce.1676")
#loc7263 = loc("multiply.1685")
#loc7264 = loc("reshape.1686")
#loc7265 = loc("add.1690")
#loc7266 = loc("rsqrt.1691")
#loc7267 = loc("reshape.1692")
#loc7268 = loc("broadcast.1693")
#loc7269 = loc("multiply.1694")
#loc7270 = loc("convert.1297")
#loc7271 = loc("broadcast.1695")
#loc7272 = loc("multiply.1696")
#loc7273 = loc("convert.1697")
#loc7275 = loc("iota.8113")
#loc7277 = loc("compare.8125")
#loc7278 = loc("slice.8130")
#loc7279 = loc("convert.8131")
#loc7280 = loc("slice.8128")
#loc7283 = loc("convert.13305")
#loc7284 = loc("power.13307")
#loc7285 = loc("reduce.13314")
#loc7286 = loc("multiply.13323")
#loc7287 = loc("reshape.13324")
#loc7288 = loc("add.13328")
#loc7289 = loc("rsqrt.13329")
#loc7290 = loc("reshape.13330")
#loc7291 = loc("broadcast.13331")
#loc7292 = loc("multiply.13332")
#loc7293 = loc("convert.12935")
#loc7294 = loc("broadcast.13333")
#loc7295 = loc("multiply.13334")
#loc7296 = loc("convert.13335")
#loc7299 = loc("convert.6727")
#loc7300 = loc("power.6729")
#loc7301 = loc("reduce.6736")
#loc7302 = loc("multiply.6745")
#loc7303 = loc("reshape.6746")
#loc7304 = loc("add.6750")
#loc7305 = loc("rsqrt.6751")
#loc7306 = loc("reshape.6752")
#loc7307 = loc("broadcast.6753")
#loc7308 = loc("multiply.6754")
#loc7309 = loc("convert.6357")
#loc7310 = loc("broadcast.6755")
#loc7311 = loc("multiply.6756")
#loc7312 = loc("convert.6757")
#loc7315 = loc("convert.6552")
#loc7316 = loc("power.6554")
#loc7317 = loc("reduce.6561")
#loc7318 = loc("multiply.6570")
#loc7319 = loc("reshape.6571")
#loc7320 = loc("add.6575")
#loc7321 = loc("rsqrt.6576")
#loc7322 = loc("reshape.6577")
#loc7323 = loc("broadcast.6578")
#loc7324 = loc("multiply.6579")
#loc7325 = loc("convert.6386")
#loc7326 = loc("broadcast.6580")
#loc7327 = loc("multiply.6581")
#loc7328 = loc("convert.6582")
#loc7330 = loc("iota.6595")
#loc7332 = loc("compare.6607")
#loc7333 = loc("slice.6612")
#loc7334 = loc("convert.6613")
#loc7335 = loc("slice.6610")
#loc7337 = loc("iota.11655")
#loc7339 = loc("compare.11667")
#loc7340 = loc("slice.11672")
#loc7341 = loc("convert.11673")
#loc7342 = loc("slice.11670")
#loc7345 = loc("convert.7058")
#loc7346 = loc("power.7060")
#loc7347 = loc("reduce.7067")
#loc7348 = loc("multiply.7076")
#loc7349 = loc("reshape.7077")
#loc7350 = loc("add.7081")
#loc7351 = loc("rsqrt.7082")
#loc7352 = loc("reshape.7083")
#loc7353 = loc("broadcast.7084")
#loc7354 = loc("multiply.7085")
#loc7355 = loc("convert.6892")
#loc7356 = loc("broadcast.7086")
#loc7357 = loc("multiply.7087")
#loc7358 = loc("convert.7088")
#loc7360 = loc("iota.13173")
#loc7362 = loc("compare.13185")
#loc7363 = loc("slice.13190")
#loc7364 = loc("convert.13191")
#loc7365 = loc("slice.13188")
#loc7368 = loc("convert.7739")
#loc7369 = loc("power.7741")
#loc7370 = loc("reduce.7748")
#loc7371 = loc("multiply.7757")
#loc7372 = loc("reshape.7758")
#loc7373 = loc("add.7762")
#loc7374 = loc("rsqrt.7763")
#loc7375 = loc("reshape.7764")
#loc7376 = loc("broadcast.7765")
#loc7377 = loc("multiply.7766")
#loc7378 = loc("convert.7369")
#loc7379 = loc("broadcast.7767")
#loc7380 = loc("multiply.7768")
#loc7381 = loc("convert.7769")
#loc7384 = loc("convert.8751")
#loc7385 = loc("power.8753")
#loc7386 = loc("reduce.8760")
#loc7387 = loc("multiply.8769")
#loc7388 = loc("reshape.8770")
#loc7389 = loc("add.8774")
#loc7390 = loc("rsqrt.8775")
#loc7391 = loc("reshape.8776")
#loc7392 = loc("broadcast.8777")
#loc7393 = loc("multiply.8778")
#loc7394 = loc("convert.8381")
#loc7395 = loc("broadcast.8779")
#loc7396 = loc("multiply.8780")
#loc7397 = loc("convert.8781")
#loc7400 = loc("convert.10600")
#loc7401 = loc("power.10602")
#loc7402 = loc("reduce.10609")
#loc7403 = loc("multiply.10618")
#loc7404 = loc("reshape.10619")
#loc7405 = loc("add.10623")
#loc7406 = loc("rsqrt.10624")
#loc7407 = loc("reshape.10625")
#loc7408 = loc("broadcast.10626")
#loc7409 = loc("multiply.10627")
#loc7410 = loc("convert.10434")
#loc7411 = loc("broadcast.10628")
#loc7412 = loc("multiply.10629")
#loc7413 = loc("convert.10630")
#loc7415 = loc("iota.7101")
#loc7417 = loc("compare.7113")
#loc7418 = loc("slice.7118")
#loc7419 = loc("convert.7119")
#loc7420 = loc("slice.7116")
#loc7422 = loc("iota.3559")
#loc7424 = loc("compare.3571")
#loc7425 = loc("slice.3576")
#loc7426 = loc("convert.3577")
#loc7427 = loc("slice.3574")
#loc7430 = loc("convert.5209")
#loc7431 = loc("power.5211")
#loc7432 = loc("reduce.5218")
#loc7433 = loc("multiply.5227")
#loc7434 = loc("reshape.5228")
#loc7435 = loc("add.5232")
#loc7436 = loc("rsqrt.5233")
#loc7437 = loc("reshape.5234")
#loc7438 = loc("broadcast.5235")
#loc7439 = loc("multiply.5236")
#loc7440 = loc("convert.4839")
#loc7441 = loc("broadcast.5237")
#loc7442 = loc("multiply.5238")
#loc7443 = loc("convert.5239")
#loc7446 = loc("convert.7564")
#loc7447 = loc("power.7566")
#loc7448 = loc("reduce.7573")
#loc7449 = loc("multiply.7582")
#loc7450 = loc("reshape.7583")
#loc7451 = loc("add.7587")
#loc7452 = loc("rsqrt.7588")
#loc7453 = loc("reshape.7589")
#loc7454 = loc("broadcast.7590")
#loc7455 = loc("multiply.7591")
#loc7456 = loc("convert.7398")
#loc7457 = loc("broadcast.7592")
#loc7458 = loc("multiply.7593")
#loc7459 = loc("convert.7594")
#loc7461 = loc("iota.17221")
#loc7463 = loc("compare.17233")
#loc7464 = loc("slice.17238")
#loc7465 = loc("convert.17239")
#loc7466 = loc("slice.17236")
#loc7468 = loc("iota.7607")
#loc7470 = loc("compare.7619")
#loc7471 = loc("slice.7624")
#loc7472 = loc("convert.7625")
#loc7473 = loc("slice.7622")
#loc7476 = loc("convert.8576")
#loc7477 = loc("power.8578")
#loc7478 = loc("reduce.8585")
#loc7479 = loc("multiply.8594")
#loc7480 = loc("reshape.8595")
#loc7481 = loc("add.8599")
#loc7482 = loc("rsqrt.8600")
#loc7483 = loc("reshape.8601")
#loc7484 = loc("broadcast.8602")
#loc7485 = loc("multiply.8603")
#loc7486 = loc("convert.8410")
#loc7487 = loc("broadcast.8604")
#loc7488 = loc("multiply.8605")
#loc7489 = loc("convert.8606")
#loc7492 = loc("convert.2504")
#loc7493 = loc("power.2506")
#loc7494 = loc("reduce.2513")
#loc7495 = loc("multiply.2522")
#loc7496 = loc("reshape.2523")
#loc7497 = loc("add.2527")
#loc7498 = loc("rsqrt.2528")
#loc7499 = loc("reshape.2529")
#loc7500 = loc("broadcast.2530")
#loc7501 = loc("multiply.2531")
#loc7502 = loc("convert.2338")
#loc7503 = loc("broadcast.2532")
#loc7504 = loc("multiply.2533")
#loc7505 = loc("convert.2534")
#loc7508 = loc("convert.8245")
#loc7509 = loc("power.8247")
#loc7510 = loc("reduce.8254")
#loc7511 = loc("multiply.8263")
#loc7512 = loc("reshape.8264")
#loc7513 = loc("add.8268")
#loc7514 = loc("rsqrt.8269")
#loc7515 = loc("reshape.8270")
#loc7516 = loc("broadcast.8271")
#loc7517 = loc("multiply.8272")
#loc7518 = loc("convert.7875")
#loc7519 = loc("broadcast.8273")
#loc7520 = loc("multiply.8274")
#loc7521 = loc("convert.8275")
