#loc1 = loc("p0.3")
#loc2 = loc("p1.11")
#loc3 = loc("p2.28")
#loc4 = loc("p3.32")
#loc5 = loc("p4.37")
#loc6 = loc("p5.46")
#loc7 = loc("p6.51")
#loc8 = loc("p7.138")
#loc9 = loc("p8.147")
#loc10 = loc("p9.151")
#loc11 = loc("p10.175")
#loc12 = loc("p11.186")
#loc13 = loc("p12.190")
#loc14 = loc("p13.195")
#loc15 = loc("p14.207")
#loc16 = loc("p15.215")
#loc17 = loc("p16.224")
#loc18 = loc("p17.235")
#loc19 = loc("p18.239")
#loc20 = loc("p19.250")
#loc21 = loc("p20.265")
#loc22 = loc("p21.296")
#loc23 = loc("p22.319")
#loc24 = loc("p23.323")
#loc25 = loc("p24.550")
#loc26 = loc("p25.555")
#loc27 = loc("p26.562")
#loc28 = loc("p27.567")
#loc29 = loc("p28.695")
#loc30 = loc("p29.704")
#loc31 = loc("p30.708")
#loc32 = loc("p31.732")
#loc33 = loc("p32.743")
#loc34 = loc("p33.747")
#loc35 = loc("p34.752")
#loc36 = loc("p35.764")
#loc37 = loc("p36.772")
#loc38 = loc("p37.781")
#loc39 = loc("p38.792")
#loc40 = loc("p39.796")
#loc41 = loc("p40.807")
#loc42 = loc("p41.822")
#loc43 = loc("p42.859")
#loc44 = loc("p43.863")
#loc45 = loc("p44.1090")
#loc46 = loc("p45.1095")
#loc47 = loc("p46.1102")
#loc48 = loc("p47.1107")
#loc49 = loc("p48.1235")
#loc50 = loc("p49.1244")
#loc51 = loc("p50.1248")
#loc52 = loc("p51.1272")
#loc53 = loc("p52.1283")
#loc54 = loc("p53.1287")
#loc55 = loc("p54.1292")
#loc56 = loc("p55.1304")
#loc57 = loc("p56.1312")
#loc58 = loc("p57.1321")
#loc59 = loc("p58.1332")
#loc60 = loc("p59.1336")
#loc61 = loc("p60.1347")
#loc62 = loc("p61.1365")
#loc63 = loc("p62.1369")
#loc64 = loc("p63.1596")
#loc65 = loc("p64.1601")
#loc66 = loc("p65.1608")
#loc67 = loc("p66.1613")
#loc68 = loc("p67.1741")
#loc69 = loc("p68.1750")
#loc70 = loc("p69.1754")
#loc71 = loc("p70.1778")
#loc72 = loc("p71.1789")
#loc73 = loc("p72.1793")
#loc74 = loc("p73.1798")
#loc75 = loc("p74.1810")
#loc76 = loc("p75.1818")
#loc77 = loc("p76.1827")
#loc78 = loc("p77.1838")
#loc79 = loc("p78.1842")
#loc80 = loc("p79.1853")
#loc81 = loc("p80.1871")
#loc82 = loc("p81.1875")
#loc83 = loc("p82.2102")
#loc84 = loc("p83.2107")
#loc85 = loc("p84.2114")
#loc86 = loc("p85.2119")
#loc87 = loc("p86.2247")
#loc88 = loc("p87.2256")
#loc89 = loc("p88.2260")
#loc90 = loc("p89.2284")
#loc91 = loc("p90.2295")
#loc92 = loc("p91.2299")
#loc93 = loc("p92.2304")
#loc94 = loc("p93.2316")
#loc95 = loc("p94.2324")
#loc96 = loc("p95.2333")
#loc97 = loc("p96.2344")
#loc98 = loc("p97.2348")
#loc99 = loc("p98.2359")
#loc100 = loc("p99.2377")
#loc101 = loc("p100.2381")
#loc102 = loc("p101.2608")
#loc103 = loc("p102.2613")
#loc104 = loc("p103.2620")
#loc105 = loc("p104.2625")
#loc106 = loc("p105.2753")
#loc107 = loc("p106.2762")
#loc108 = loc("p107.2766")
#loc109 = loc("p108.2790")
#loc110 = loc("p109.2801")
#loc111 = loc("p110.2805")
#loc112 = loc("p111.2810")
#loc113 = loc("p112.2822")
#loc114 = loc("p113.2830")
#loc115 = loc("p114.2839")
#loc116 = loc("p115.2850")
#loc117 = loc("p116.2854")
#loc118 = loc("p117.2865")
#loc119 = loc("p118.2883")
#loc120 = loc("p119.2887")
#loc121 = loc("p120.3114")
#loc122 = loc("p121.3119")
#loc123 = loc("p122.3126")
#loc124 = loc("p123.3131")
#loc125 = loc("p124.3259")
#loc126 = loc("p125.3268")
#loc127 = loc("p126.3272")
#loc128 = loc("p127.3296")
#loc129 = loc("p128.3307")
#loc130 = loc("p129.3311")
#loc131 = loc("p130.3316")
#loc132 = loc("p131.3328")
#loc133 = loc("p132.3336")
#loc134 = loc("p133.3345")
#loc135 = loc("p134.3356")
#loc136 = loc("p135.3360")
#loc137 = loc("p136.3371")
#loc138 = loc("p137.3389")
#loc139 = loc("p138.3393")
#loc140 = loc("p139.3620")
#loc141 = loc("p140.3625")
#loc142 = loc("p141.3632")
#loc143 = loc("p142.3637")
#loc144 = loc("p143.3765")
#loc145 = loc("p144.3774")
#loc146 = loc("p145.3778")
#loc147 = loc("p146.3802")
#loc148 = loc("p147.3813")
#loc149 = loc("p148.3817")
#loc150 = loc("p149.3822")
#loc151 = loc("p150.3834")
#loc152 = loc("p151.3842")
#loc153 = loc("p152.3851")
#loc154 = loc("p153.3862")
#loc155 = loc("p154.3866")
#loc156 = loc("p155.3877")
#loc157 = loc("p156.3895")
#loc158 = loc("p157.3899")
#loc159 = loc("p158.4126")
#loc160 = loc("p159.4131")
#loc161 = loc("p160.4138")
#loc162 = loc("p161.4143")
#loc163 = loc("p162.4271")
#loc164 = loc("p163.4280")
#loc165 = loc("p164.4284")
#loc166 = loc("p165.4308")
#loc167 = loc("p166.4319")
#loc168 = loc("p167.4323")
#loc169 = loc("p168.4328")
#loc170 = loc("p169.4340")
#loc171 = loc("p170.4348")
#loc172 = loc("p171.4357")
#loc173 = loc("p172.4368")
#loc174 = loc("p173.4372")
#loc175 = loc("p174.4383")
#loc176 = loc("p175.4401")
#loc177 = loc("p176.4405")
#loc178 = loc("p177.4632")
#loc179 = loc("p178.4637")
#loc180 = loc("p179.4644")
#loc181 = loc("p180.4649")
#loc182 = loc("p181.4777")
#loc183 = loc("p182.4786")
#loc184 = loc("p183.4790")
#loc185 = loc("p184.4814")
#loc186 = loc("p185.4825")
#loc187 = loc("p186.4829")
#loc188 = loc("p187.4834")
#loc189 = loc("p188.4846")
#loc190 = loc("p189.4854")
#loc191 = loc("p190.4863")
#loc192 = loc("p191.4874")
#loc193 = loc("p192.4878")
#loc194 = loc("p193.4889")
#loc195 = loc("p194.4907")
#loc196 = loc("p195.4911")
#loc197 = loc("p196.5138")
#loc198 = loc("p197.5143")
#loc199 = loc("p198.5150")
#loc200 = loc("p199.5155")
#loc201 = loc("p200.5283")
#loc202 = loc("p201.5292")
#loc203 = loc("p202.5296")
#loc204 = loc("p203.5320")
#loc205 = loc("p204.5331")
#loc206 = loc("p205.5335")
#loc207 = loc("p206.5340")
#loc208 = loc("p207.5352")
#loc209 = loc("p208.5360")
#loc210 = loc("p209.5369")
#loc211 = loc("p210.5380")
#loc212 = loc("p211.5384")
#loc213 = loc("p212.5395")
#loc214 = loc("p213.5413")
#loc215 = loc("p214.5417")
#loc216 = loc("p215.5644")
#loc217 = loc("p216.5649")
#loc218 = loc("p217.5656")
#loc219 = loc("p218.5661")
#loc220 = loc("p219.5789")
#loc221 = loc("p220.5798")
#loc222 = loc("p221.5802")
#loc223 = loc("p222.5826")
#loc224 = loc("p223.5837")
#loc225 = loc("p224.5841")
#loc226 = loc("p225.5846")
#loc227 = loc("p226.5858")
#loc228 = loc("p227.5866")
#loc229 = loc("p228.5875")
#loc230 = loc("p229.5886")
#loc231 = loc("p230.5890")
#loc232 = loc("p231.5901")
#loc233 = loc("p232.5919")
#loc234 = loc("p233.5923")
#loc235 = loc("p234.6150")
#loc236 = loc("p235.6155")
#loc237 = loc("p236.6162")
#loc238 = loc("p237.6167")
#loc239 = loc("p238.6295")
#loc240 = loc("p239.6304")
#loc241 = loc("p240.6308")
#loc242 = loc("p241.6332")
#loc243 = loc("p242.6343")
#loc244 = loc("p243.6347")
#loc245 = loc("p244.6352")
#loc246 = loc("p245.6364")
#loc247 = loc("p246.6372")
#loc248 = loc("p247.6381")
#loc249 = loc("p248.6392")
#loc250 = loc("p249.6396")
#loc251 = loc("p250.6407")
#loc252 = loc("p251.6425")
#loc253 = loc("p252.6429")
#loc254 = loc("p253.6656")
#loc255 = loc("p254.6661")
#loc256 = loc("p255.6668")
#loc257 = loc("p256.6673")
#loc258 = loc("p257.6801")
#loc259 = loc("p258.6810")
#loc260 = loc("p259.6814")
#loc261 = loc("p260.6838")
#loc262 = loc("p261.6849")
#loc263 = loc("p262.6853")
#loc264 = loc("p263.6858")
#loc265 = loc("p264.6870")
#loc266 = loc("p265.6878")
#loc267 = loc("p266.6887")
#loc268 = loc("p267.6898")
#loc269 = loc("p268.6902")
#loc270 = loc("p269.6913")
#loc271 = loc("p270.6931")
#loc272 = loc("p271.6935")
#loc273 = loc("p272.7162")
#loc274 = loc("p273.7167")
#loc275 = loc("p274.7174")
#loc276 = loc("p275.7179")
#loc277 = loc("p276.7307")
#loc278 = loc("p277.7316")
#loc279 = loc("p278.7320")
#loc280 = loc("p279.7344")
#loc281 = loc("p280.7355")
#loc282 = loc("p281.7359")
#loc283 = loc("p282.7364")
#loc284 = loc("p283.7376")
#loc285 = loc("p284.7384")
#loc286 = loc("p285.7393")
#loc287 = loc("p286.7404")
#loc288 = loc("p287.7408")
#loc289 = loc("p288.7419")
#loc290 = loc("p289.7437")
#loc291 = loc("p290.7441")
#loc292 = loc("p291.7668")
#loc293 = loc("p292.7673")
#loc294 = loc("p293.7680")
#loc295 = loc("p294.7685")
#loc296 = loc("p295.7813")
#loc297 = loc("p296.7822")
#loc298 = loc("p297.7826")
#loc299 = loc("p298.7850")
#loc300 = loc("p299.7861")
#loc301 = loc("p300.7865")
#loc302 = loc("p301.7870")
#loc303 = loc("p302.7882")
#loc304 = loc("p303.7890")
#loc305 = loc("p304.7899")
#loc306 = loc("p305.7910")
#loc307 = loc("p306.7914")
#loc308 = loc("p307.7925")
#loc309 = loc("p308.7943")
#loc310 = loc("p309.7947")
#loc311 = loc("p310.8174")
#loc312 = loc("p311.8179")
#loc313 = loc("p312.8186")
#loc314 = loc("p313.8191")
#loc315 = loc("p314.8319")
#loc316 = loc("p315.8328")
#loc317 = loc("p316.8332")
#loc318 = loc("p317.8356")
#loc319 = loc("p318.8367")
#loc320 = loc("p319.8371")
#loc321 = loc("p320.8376")
#loc322 = loc("p321.8388")
#loc323 = loc("p322.8396")
#loc324 = loc("p323.8405")
#loc325 = loc("p324.8416")
#loc326 = loc("p325.8420")
#loc327 = loc("p326.8431")
#loc328 = loc("p327.8449")
#loc329 = loc("p328.8453")
#loc330 = loc("p329.8680")
#loc331 = loc("p330.8685")
#loc332 = loc("p331.8692")
#loc333 = loc("p332.8697")
#loc334 = loc("p333.8825")
#loc335 = loc("p334.8834")
#loc336 = loc("p335.8838")
#loc337 = loc("p336.8862")
#loc338 = loc("p337.8873")
#loc339 = loc("p338.8877")
#loc340 = loc("p339.8882")
#loc341 = loc("p340.8894")
#loc342 = loc("p341.8902")
#loc343 = loc("p342.8911")
#loc344 = loc("p343.8922")
#loc345 = loc("p344.8926")
#loc346 = loc("p345.8937")
#loc347 = loc("p346.8955")
#loc348 = loc("p347.8959")
#loc349 = loc("p348.9186")
#loc350 = loc("p349.9191")
#loc351 = loc("p350.9198")
#loc352 = loc("p351.9203")
#loc353 = loc("p352.9331")
#loc354 = loc("p353.9340")
#loc355 = loc("p354.9344")
#loc356 = loc("p355.9368")
#loc357 = loc("p356.9379")
#loc358 = loc("p357.9383")
#loc359 = loc("p358.9388")
#loc360 = loc("p359.9400")
#loc361 = loc("p360.9408")
#loc362 = loc("p361.9417")
#loc363 = loc("p362.9428")
#loc364 = loc("p363.9432")
#loc365 = loc("p364.9443")
#loc366 = loc("p365.9461")
#loc367 = loc("p366.9465")
#loc368 = loc("p367.9692")
#loc369 = loc("p368.9697")
#loc370 = loc("p369.9704")
#loc371 = loc("p370.9709")
#loc372 = loc("p371.9837")
#loc373 = loc("p372.9846")
#loc374 = loc("p373.9850")
#loc375 = loc("p374.9874")
#loc376 = loc("p375.9885")
#loc377 = loc("p376.9889")
#loc378 = loc("p377.9894")
#loc379 = loc("p378.9906")
#loc380 = loc("p379.9914")
#loc381 = loc("p380.9923")
#loc382 = loc("p381.9934")
#loc383 = loc("p382.9938")
#loc384 = loc("p383.9949")
#loc385 = loc("p384.9967")
#loc386 = loc("p385.9971")
#loc387 = loc("p386.10198")
#loc388 = loc("p387.10203")
#loc389 = loc("p388.10210")
#loc390 = loc("p389.10215")
#loc391 = loc("p390.10343")
#loc392 = loc("p391.10352")
#loc393 = loc("p392.10356")
#loc394 = loc("p393.10380")
#loc395 = loc("p394.10391")
#loc396 = loc("p395.10395")
#loc397 = loc("p396.10400")
#loc398 = loc("p397.10412")
#loc399 = loc("p398.10420")
#loc400 = loc("p399.10429")
#loc401 = loc("p400.10440")
#loc402 = loc("p401.10444")
#loc403 = loc("p402.10455")
#loc404 = loc("p403.10473")
#loc405 = loc("p404.10477")
#loc406 = loc("p405.10704")
#loc407 = loc("p406.10709")
#loc408 = loc("p407.10716")
#loc409 = loc("p408.10721")
#loc410 = loc("p409.10849")
#loc411 = loc("p410.10858")
#loc412 = loc("p411.10862")
#loc413 = loc("p412.10886")
#loc414 = loc("p413.10897")
#loc415 = loc("p414.10901")
#loc416 = loc("p415.10906")
#loc417 = loc("p416.10918")
#loc418 = loc("p417.10926")
#loc419 = loc("p418.10935")
#loc420 = loc("p419.10946")
#loc421 = loc("p420.10950")
#loc422 = loc("p421.10961")
#loc423 = loc("p422.10979")
#loc424 = loc("p423.10983")
#loc425 = loc("p424.11210")
#loc426 = loc("p425.11215")
#loc427 = loc("p426.11222")
#loc428 = loc("p427.11227")
#loc429 = loc("p428.11355")
#loc430 = loc("p429.11364")
#loc431 = loc("p430.11368")
#loc432 = loc("p431.11392")
#loc433 = loc("p432.11403")
#loc434 = loc("p433.11407")
#loc435 = loc("p434.11412")
#loc436 = loc("p435.11424")
#loc437 = loc("p436.11432")
#loc438 = loc("p437.11441")
#loc439 = loc("p438.11452")
#loc440 = loc("p439.11456")
#loc441 = loc("p440.11467")
#loc442 = loc("p441.11485")
#loc443 = loc("p442.11489")
#loc444 = loc("p443.11716")
#loc445 = loc("p444.11721")
#loc446 = loc("p445.11728")
#loc447 = loc("p446.11733")
#loc448 = loc("p447.11861")
#loc449 = loc("p448.11870")
#loc450 = loc("p449.11874")
#loc451 = loc("p450.11898")
#loc452 = loc("p451.11909")
#loc453 = loc("p452.11913")
#loc454 = loc("p453.11918")
#loc455 = loc("p454.11930")
#loc456 = loc("p455.11938")
#loc457 = loc("p456.11947")
#loc458 = loc("p457.11958")
#loc459 = loc("p458.11962")
#loc460 = loc("p459.11973")
#loc461 = loc("p460.11991")
#loc462 = loc("p461.11995")
#loc463 = loc("p462.12222")
#loc464 = loc("p463.12227")
#loc465 = loc("p464.12234")
#loc466 = loc("p465.12239")
#loc467 = loc("p466.12367")
#loc468 = loc("p467.12376")
#loc469 = loc("p468.12380")
#loc470 = loc("p469.12404")
#loc471 = loc("p470.12415")
#loc472 = loc("p471.12419")
#loc473 = loc("p472.12424")
#loc474 = loc("p473.12436")
#loc475 = loc("p474.12444")
#loc476 = loc("p475.12453")
#loc477 = loc("p476.12464")
#loc478 = loc("p477.12468")
#loc479 = loc("p478.12479")
#loc480 = loc("p479.12497")
#loc481 = loc("p480.12501")
#loc482 = loc("p481.12728")
#loc483 = loc("p482.12733")
#loc484 = loc("p483.12740")
#loc485 = loc("p484.12745")
#loc486 = loc("p485.12873")
#loc487 = loc("p486.12882")
#loc488 = loc("p487.12886")
#loc489 = loc("p488.12910")
#loc490 = loc("p489.12921")
#loc491 = loc("p490.12925")
#loc492 = loc("p491.12930")
#loc493 = loc("p492.12942")
#loc494 = loc("p493.12950")
#loc495 = loc("p494.12959")
#loc496 = loc("p495.12970")
#loc497 = loc("p496.12974")
#loc498 = loc("p497.12985")
#loc499 = loc("p498.13003")
#loc500 = loc("p499.13007")
#loc501 = loc("p500.13234")
#loc502 = loc("p501.13239")
#loc503 = loc("p502.13246")
#loc504 = loc("p503.13251")
#loc505 = loc("p504.13379")
#loc506 = loc("p505.13388")
#loc507 = loc("p506.13392")
#loc508 = loc("p507.13416")
#loc509 = loc("p508.13427")
#loc510 = loc("p509.13431")
#loc511 = loc("p510.13436")
#loc512 = loc("p511.13448")
#loc513 = loc("p512.13456")
#loc514 = loc("p513.13465")
#loc515 = loc("p514.13476")
#loc516 = loc("p515.13480")
#loc517 = loc("p516.13491")
#loc518 = loc("p517.13509")
#loc519 = loc("p518.13513")
#loc520 = loc("p519.13740")
#loc521 = loc("p520.13745")
#loc522 = loc("p521.13752")
#loc523 = loc("p522.13757")
#loc524 = loc("p523.13885")
#loc525 = loc("p524.13894")
#loc526 = loc("p525.13898")
#loc527 = loc("p526.13922")
#loc528 = loc("p527.13933")
#loc529 = loc("p528.13937")
#loc530 = loc("p529.13942")
#loc531 = loc("p530.13954")
#loc532 = loc("p531.13962")
#loc533 = loc("p532.13971")
#loc534 = loc("p533.13982")
#loc535 = loc("p534.13986")
#loc536 = loc("p535.13997")
#loc537 = loc("p536.14015")
#loc538 = loc("p537.14019")
#loc539 = loc("p538.14246")
#loc540 = loc("p539.14251")
#loc541 = loc("p540.14258")
#loc542 = loc("p541.14263")
#loc543 = loc("p542.14391")
#loc544 = loc("p543.14400")
#loc545 = loc("p544.14404")
#loc546 = loc("p545.14428")
#loc547 = loc("p546.14439")
#loc548 = loc("p547.14443")
#loc549 = loc("p548.14448")
#loc550 = loc("p549.14460")
#loc551 = loc("p550.14468")
#loc552 = loc("p551.14477")
#loc553 = loc("p552.14488")
#loc554 = loc("p553.14492")
#loc555 = loc("p554.14503")
#loc556 = loc("p555.14521")
#loc557 = loc("p556.14525")
#loc558 = loc("p557.14752")
#loc559 = loc("p558.14757")
#loc560 = loc("p559.14764")
#loc561 = loc("p560.14769")
#loc562 = loc("p561.14897")
#loc563 = loc("p562.14906")
#loc564 = loc("p563.14910")
#loc565 = loc("p564.14934")
#loc566 = loc("p565.14945")
#loc567 = loc("p566.14949")
#loc568 = loc("p567.14954")
#loc569 = loc("p568.14966")
#loc570 = loc("p569.14974")
#loc571 = loc("p570.14983")
#loc572 = loc("p571.14994")
#loc573 = loc("p572.14998")
#loc574 = loc("p573.15009")
#loc575 = loc("p574.15027")
#loc576 = loc("p575.15031")
#loc577 = loc("p576.15258")
#loc578 = loc("p577.15263")
#loc579 = loc("p578.15270")
#loc580 = loc("p579.15275")
#loc581 = loc("p580.15403")
#loc582 = loc("p581.15412")
#loc583 = loc("p582.15416")
#loc584 = loc("p583.15440")
#loc585 = loc("p584.15451")
#loc586 = loc("p585.15455")
#loc587 = loc("p586.15460")
#loc588 = loc("p587.15472")
#loc589 = loc("p588.15480")
#loc590 = loc("p589.15489")
#loc591 = loc("p590.15500")
#loc592 = loc("p591.15504")
#loc593 = loc("p592.15515")
#loc594 = loc("p593.15533")
#loc595 = loc("p594.15537")
#loc596 = loc("p595.15764")
#loc597 = loc("p596.15769")
#loc598 = loc("p597.15776")
#loc599 = loc("p598.15781")
#loc600 = loc("p599.15909")
#loc601 = loc("p600.15918")
#loc602 = loc("p601.15922")
#loc603 = loc("p602.15946")
#loc604 = loc("p603.15957")
#loc605 = loc("p604.15961")
#loc606 = loc("p605.15966")
#loc607 = loc("p606.15978")
#loc608 = loc("p607.15986")
#loc609 = loc("p608.15995")
#loc610 = loc("p609.16006")
#loc611 = loc("p610.16010")
#loc612 = loc("p611.16021")
#loc613 = loc("p612.16039")
#loc614 = loc("p613.16043")
#loc615 = loc("p614.16270")
#loc616 = loc("p615.16275")
#loc617 = loc("p616.16282")
#loc618 = loc("p617.16287")
#loc619 = loc("p618.16415")
#loc620 = loc("p619.16424")
#loc621 = loc("p620.16428")
#loc622 = loc("p621.16452")
#loc623 = loc("p622.16463")
#loc624 = loc("p623.16467")
#loc625 = loc("p624.16472")
#loc626 = loc("p625.16484")
#loc627 = loc("p626.16492")
#loc628 = loc("p627.16501")
#loc629 = loc("p628.16512")
#loc630 = loc("p629.16516")
#loc631 = loc("p630.16527")
#loc632 = loc("p631.16545")
#loc633 = loc("p632.16549")
#loc634 = loc("p633.16776")
#loc635 = loc("p634.16781")
#loc636 = loc("p635.16788")
#loc637 = loc("p636.16793")
#loc638 = loc("p637.16921")
#loc639 = loc("p638.16930")
#loc640 = loc("p639.16934")
#loc641 = loc("p640.16958")
#loc642 = loc("p641.16969")
#loc643 = loc("p642.16973")
#loc644 = loc("p643.16978")
#loc645 = loc("p644.16990")
#loc646 = loc("p645.16998")
#loc647 = loc("p646.17007")
#loc648 = loc("p647.17018")
#loc649 = loc("p648.17022")
#loc650 = loc("p649.17033")
#loc651 = loc("p650.17051")
#loc652 = loc("p651.17055")
#loc653 = loc("p652.17282")
#loc654 = loc("p653.17287")
#loc655 = loc("p654.17294")
#loc656 = loc("p655.17299")
#loc657 = loc("p656.17427")
#loc658 = loc("p657.17436")
#loc659 = loc("p658.17440")
#loc660 = loc("p659.17464")
#loc661 = loc("p660.17475")
#loc662 = loc("p661.17479")
#loc663 = loc("p662.17484")
#loc664 = loc("p663.17496")
#loc665 = loc("p664.17504")
#loc666 = loc("p665.17513")
#loc667 = loc("p666.17524")
#loc668 = loc("p667.17528")
#loc669 = loc("p668.17539")
#loc670 = loc("p669.17557")
#loc671 = loc("p670.17561")
#loc672 = loc("p671.17788")
#loc673 = loc("p672.17793")
#loc674 = loc("p673.17800")
#loc675 = loc("p674.17805")
#loc676 = loc("p675.17933")
#loc677 = loc("p676.17942")
#loc678 = loc("p677.17946")
#loc679 = loc("p678.17970")
#loc680 = loc("p679.17984")
#loc681 = loc("p680.17989")
#loc682 = loc("p681.18001")
#loc683 = loc("p682.18009")
#loc684 = loc("p683.18018")
#loc685 = loc("p684.18029")
#loc686 = loc("p685.18033")
#loc687 = loc("p686.18044")
#loc688 = loc("p687.18062")
#loc689 = loc("p688.18066")
#loc690 = loc("p689.18293")
#loc691 = loc("p690.18298")
#loc692 = loc("p691.18305")
#loc693 = loc("p692.18310")
#loc777 = loc("scatter.144")
#loc832 = loc("scatter.181")
#loc967 = loc("scatter.701")
#loc1012 = loc("scatter.738")
#loc1146 = loc("scatter.1241")
#loc1182 = loc("scatter.1278")
#loc1316 = loc("scatter.1747")
#loc1352 = loc("scatter.1784")
#loc1486 = loc("scatter.2253")
#loc1522 = loc("scatter.2290")
#loc1656 = loc("scatter.2759")
#loc1692 = loc("scatter.2796")
#loc1826 = loc("scatter.3265")
#loc1862 = loc("scatter.3302")
#loc1996 = loc("scatter.3771")
#loc2032 = loc("scatter.3808")
#loc2166 = loc("scatter.4277")
#loc2202 = loc("scatter.4314")
#loc2336 = loc("scatter.4783")
#loc2372 = loc("scatter.4820")
#loc2506 = loc("scatter.5289")
#loc2542 = loc("scatter.5326")
#loc2676 = loc("scatter.5795")
#loc2712 = loc("scatter.5832")
#loc2846 = loc("scatter.6301")
#loc2882 = loc("scatter.6338")
#loc3016 = loc("scatter.6807")
#loc3052 = loc("scatter.6844")
#loc3186 = loc("scatter.7313")
#loc3222 = loc("scatter.7350")
#loc3356 = loc("scatter.7819")
#loc3392 = loc("scatter.7856")
#loc3526 = loc("scatter.8325")
#loc3562 = loc("scatter.8362")
#loc3696 = loc("scatter.8831")
#loc3732 = loc("scatter.8868")
#loc3866 = loc("scatter.9337")
#loc3902 = loc("scatter.9374")
#loc4036 = loc("scatter.9843")
#loc4072 = loc("scatter.9880")
#loc4206 = loc("scatter.10349")
#loc4242 = loc("scatter.10386")
#loc4376 = loc("scatter.10855")
#loc4412 = loc("scatter.10892")
#loc4546 = loc("scatter.11361")
#loc4582 = loc("scatter.11398")
#loc4716 = loc("scatter.11867")
#loc4752 = loc("scatter.11904")
#loc4886 = loc("scatter.12373")
#loc4922 = loc("scatter.12410")
#loc5056 = loc("scatter.12879")
#loc5092 = loc("scatter.12916")
#loc5226 = loc("scatter.13385")
#loc5262 = loc("scatter.13422")
#loc5396 = loc("scatter.13891")
#loc5432 = loc("scatter.13928")
#loc5566 = loc("scatter.14397")
#loc5602 = loc("scatter.14434")
#loc5736 = loc("scatter.14903")
#loc5772 = loc("scatter.14940")
#loc5906 = loc("scatter.15409")
#loc5942 = loc("scatter.15446")
#loc6076 = loc("scatter.15915")
#loc6112 = loc("scatter.15952")
#loc6246 = loc("scatter.16421")
#loc6282 = loc("scatter.16458")
#loc6416 = loc("scatter.16927")
#loc6452 = loc("scatter.16964")
#loc6586 = loc("scatter.17433")
#loc6622 = loc("scatter.17470")
#loc6756 = loc("scatter.17939")
#loc6781 = loc("scatter.17976")
#loc6893 = loc("reduce.18429")
#loc6902 = loc("custom-call.18231")
#loc6904 = loc("sort.18245")
#loc6909 = loc("custom-call.17726")
#loc6911 = loc("sort.17740")
#loc6916 = loc("custom-call.16846")
#loc6917 = loc("custom-call.16476")
#loc6932 = loc("custom-call.16714")
#loc6934 = loc("sort.16728")
#loc6939 = loc("custom-call.17352")
#loc6940 = loc("custom-call.16982")
#loc6955 = loc("custom-call.15702")
#loc6957 = loc("sort.15716")
#loc6962 = loc("custom-call.15196")
#loc6964 = loc("sort.15210")
#loc6969 = loc("custom-call.14647")
#loc6970 = loc("custom-call.14481")
#loc6985 = loc("custom-call.14316")
#loc6986 = loc("custom-call.13946")
#loc7001 = loc("custom-call.14141")
#loc7002 = loc("custom-call.13975")
#loc7017 = loc("custom-call.13810")
#loc7018 = loc("custom-call.13440")
#loc7033 = loc("custom-call.13635")
#loc7034 = loc("custom-call.13469")
#loc7049 = loc("custom-call.12798")
#loc7050 = loc("custom-call.12428")
#loc7065 = loc("custom-call.12666")
#loc7067 = loc("sort.12680")
#loc7072 = loc("custom-call.12623")
#loc7073 = loc("custom-call.12457")
#loc7088 = loc("custom-call.15328")
#loc7089 = loc("custom-call.14958")
#loc7104 = loc("custom-call.12292")
#loc7105 = loc("custom-call.11922")
#loc7120 = loc("custom-call.14690")
#loc7122 = loc("sort.14704")
#loc7127 = loc("custom-call.12160")
#loc7129 = loc("sort.12174")
#loc7134 = loc("custom-call.12117")
#loc7135 = loc("custom-call.11951")
#loc7150 = loc("custom-call.11280")
#loc7151 = loc("custom-call.10910")
#loc7166 = loc("custom-call.11148")
#loc7168 = loc("sort.11162")
#loc7173 = loc("custom-call.10774")
#loc7174 = loc("custom-call.10404")
#loc7189 = loc("custom-call.10642")
#loc7191 = loc("sort.10656")
#loc7196 = loc("custom-call.11611")
#loc7197 = loc("custom-call.11445")
#loc7212 = loc("custom-call.10268")
#loc7213 = loc("custom-call.9898")
#loc7228 = loc("custom-call.17683")
#loc7229 = loc("custom-call.17517")
#loc7244 = loc("custom-call.4570")
#loc7246 = loc("sort.4584")
#loc7251 = loc("custom-call.9630")
#loc7253 = loc("sort.9644")
#loc7258 = loc("custom-call.13129")
#loc7259 = loc("custom-call.12963")
#loc7274 = loc("custom-call.3052")
#loc7276 = loc("sort.3066")
#loc7281 = loc("custom-call.10136")
#loc7283 = loc("sort.10150")
#loc7288 = loc("custom-call.5033")
#loc7289 = loc("custom-call.4867")
#loc7304 = loc("custom-call.16671")
#loc7305 = loc("custom-call.16505")
#loc7320 = loc("custom-call.3009")
#loc7321 = loc("custom-call.2843")
#loc7336 = loc("custom-call.3690")
#loc7337 = loc("custom-call.3320")
#loc7352 = loc("custom-call.3515")
#loc7353 = loc("custom-call.3349")
#loc7368 = loc("custom-call.4527")
#loc7369 = loc("custom-call.4361")
#loc7384 = loc("custom-call.15834")
#loc7385 = loc("custom-call.15464")
#loc7400 = loc("custom-call.2678")
#loc7401 = loc("custom-call.2308")
#loc7416 = loc("custom-call.1160")
#loc7417 = loc("custom-call.756")
#loc7432 = loc("custom-call.17858")
#loc7433 = loc("custom-call.17488")
#loc7448 = loc("custom-call.15659")
#loc7449 = loc("custom-call.15493")
#loc7464 = loc("custom-call.4196")
#loc7465 = loc("custom-call.3826")
#loc7480 = loc("custom-call.14184")
#loc7482 = loc("sort.14198")
#loc7487 = loc("custom-call.445")
#loc7488 = loc("custom-call.228")
#loc7503 = loc("custom-call.5582")
#loc7505 = loc("sort.5596")
#loc7510 = loc("custom-call.5714")
#loc7511 = loc("custom-call.5344")
#loc7526 = loc("custom-call.9762")
#loc7527 = loc("custom-call.9392")
#loc7542 = loc("custom-call.488")
#loc7544 = loc("sort.502")
#loc7549 = loc("custom-call.18188")
#loc7550 = loc("custom-call.18022")
#loc7565 = loc("custom-call.620")
#loc7566 = loc("custom-call.199")
#loc7581 = loc("custom-call.17177")
#loc7582 = loc("custom-call.17011")
#loc7597 = loc("custom-call.1028")
#loc7599 = loc("sort.1042")
#loc7604 = loc("custom-call.18363")
#loc7605 = loc("custom-call.17993")
#loc7620 = loc("custom-call.985")
#loc7621 = loc("custom-call.785")
#loc7636 = loc("custom-call.16208")
#loc7638 = loc("sort.16222")
#loc7643 = loc("custom-call.13678")
#loc7645 = loc("sort.13692")
#loc7650 = loc("custom-call.3184")
#loc7651 = loc("custom-call.2814")
#loc7666 = loc("custom-call.9256")
#loc7667 = loc("custom-call.8886")
#loc7682 = loc("custom-call.14822")
#loc7683 = loc("custom-call.14452")
#loc7698 = loc("custom-call.9081")
#loc7699 = loc("custom-call.8915")
#loc7714 = loc("custom-call.10093")
#loc7715 = loc("custom-call.9927")
#loc7730 = loc("custom-call.2040")
#loc7732 = loc("sort.2054")
#loc7737 = loc("custom-call.16340")
#loc7738 = loc("custom-call.15970")
#loc7753 = loc("custom-call.4702")
#loc7754 = loc("custom-call.4332")
#loc7769 = loc("custom-call.4021")
#loc7770 = loc("custom-call.3855")
#loc7785 = loc("custom-call.1534")
#loc7787 = loc("sort.1548")
#loc7792 = loc("custom-call.2172")
#loc7793 = loc("custom-call.1802")
#loc7808 = loc("custom-call.9124")
#loc7810 = loc("sort.9138")
#loc7815 = loc("custom-call.1997")
#loc7816 = loc("custom-call.1831")
#loc7831 = loc("custom-call.2546")
#loc7833 = loc("sort.2560")
#loc7838 = loc("custom-call.8618")
#loc7840 = loc("sort.8632")
#loc7845 = loc("custom-call.6088")
#loc7847 = loc("sort.6102")
#loc7852 = loc("custom-call.1491")
#loc7853 = loc("custom-call.1325")
#loc7868 = loc("custom-call.11786")
#loc7869 = loc("custom-call.11416")
#loc7884 = loc("custom-call.4064")
#loc7886 = loc("sort.4078")
#loc7891 = loc("custom-call.8069")
#loc7892 = loc("custom-call.7903")
#loc7907 = loc("custom-call.16165")
#loc7908 = loc("custom-call.15999")
#loc7923 = loc("custom-call.15153")
#loc7924 = loc("custom-call.14987")
#loc7939 = loc("custom-call.9587")
#loc7940 = loc("custom-call.9421")
#loc7955 = loc("custom-call.11105")
#loc7956 = loc("custom-call.10939")
#loc7971 = loc("custom-call.5539")
#loc7972 = loc("custom-call.5373")
#loc7987 = loc("custom-call.5076")
#loc7989 = loc("sort.5090")
#loc7994 = loc("custom-call.6045")
#loc7995 = loc("custom-call.5879")
#loc8010 = loc("custom-call.7232")
#loc8011 = loc("custom-call.6862")
#loc8026 = loc("custom-call.6220")
#loc8027 = loc("custom-call.5850")
#loc8042 = loc("custom-call.58")
#loc8043 = loc("custom-call.41")
#loc8058 = loc("custom-call.1666")
#loc8059 = loc("custom-call.1296")
#loc8074 = loc("custom-call.8112")
#loc8076 = loc("sort.8126")
#loc8081 = loc("custom-call.13304")
#loc8082 = loc("custom-call.12934")
#loc8097 = loc("custom-call.6726")
#loc8098 = loc("custom-call.6356")
#loc8113 = loc("custom-call.6551")
#loc8114 = loc("custom-call.6385")
#loc8129 = loc("custom-call.6594")
#loc8131 = loc("sort.6608")
#loc8136 = loc("custom-call.11654")
#loc8138 = loc("sort.11668")
#loc8143 = loc("custom-call.7057")
#loc8144 = loc("custom-call.6891")
#loc8159 = loc("custom-call.13172")
#loc8161 = loc("sort.13186")
#loc8166 = loc("custom-call.7738")
#loc8167 = loc("custom-call.7368")
#loc8182 = loc("custom-call.8750")
#loc8183 = loc("custom-call.8380")
#loc8198 = loc("custom-call.10599")
#loc8199 = loc("custom-call.10433")
#loc8214 = loc("custom-call.7100")
#loc8216 = loc("sort.7114")
#loc8221 = loc("custom-call.3558")
#loc8223 = loc("sort.3572")
#loc8228 = loc("custom-call.5208")
#loc8229 = loc("custom-call.4838")
#loc8244 = loc("custom-call.7563")
#loc8245 = loc("custom-call.7397")
#loc8260 = loc("custom-call.17220")
#loc8262 = loc("sort.17234")
#loc8267 = loc("custom-call.7606")
#loc8269 = loc("sort.7620")
#loc8274 = loc("custom-call.8575")
#loc8275 = loc("custom-call.8409")
#loc8290 = loc("custom-call.2503")
#loc8291 = loc("custom-call.2337")
#loc8306 = loc("custom-call.8244")
#loc8307 = loc("custom-call.7874")
module @SyncTensorsGraph.18434 attributes {mhlo.cross_program_prefetches = [], mhlo.input_output_alias = [], mhlo.is_dynamic = false, mhlo.use_auto_spmd_partitioning = false} {
  sdy.mesh @mesh = <["_axis_0"=4, "_axis_1"=8]> loc(#loc)
  func.func @main(%arg0: tensor<1xi64> {sdy.sharding = #sdy.sharding<@mesh, [{}]>} loc("p0.3"), %arg1: tensor<32xbf16> {sdy.sharding = #sdy.sharding<@mesh, [{}]>} loc("p1.11"), %arg2: tensor<512xbf16> {sdy.sharding = #sdy.sharding<@mesh, [{"_axis_1"}]>} loc("p2.28"), %arg3: tensor<512x2880xbf16> {sdy.sharding = #sdy.sharding<@mesh, [{"_axis_1"}, {"_axis_0"}]>} loc("p3.32"), %arg4: tensor<2880xbf16> {sdy.sharding = #sdy.sharding<@mesh, [{"_axis_0"}]>} loc("p4.37"), %arg5: tensor<64x1xi64> {sdy.sharding = #sdy.sharding<@mesh, [{}, {}]>} loc("p5.46"), %arg6: tensor<201088x2880xbf16> {sdy.sharding = #sdy.sharding<@mesh, [{}, {"_axis_0"}]>} loc("p6.51"), %arg7: tensor<64x8x128x64xbf16> {sdy.sharding = #sdy.sharding<@mesh, [{}, {"_axis_1"}, {}, {}]>} loc("p7.138"), %arg8: tensor<512xbf16> {sdy.sharding = #sdy.sharding<@mesh, [{"_axis_1"}]>} loc("p8.147"), %arg9: tensor<512x2880xbf16> {sdy.sharding = #sdy.sharding<@mesh, [{"_axis_1"}, {"_axis_0"}]>} loc("p9.151"), %arg10: tensor<64x8x128x64xbf16> {sdy.sharding = #sdy.sharding<@mesh, [{}, {"_axis_1"}, {}, {}]>} loc("p10.175"), %arg11: tensor<512xbf16> {sdy.sharding = #sdy.sharding<@mesh, [{"_axis_1"}]>} loc("p11.186"), %arg12: tensor<512x2880xbf16> {sdy.sharding = #sdy.sharding<@mesh, [{"_axis_1"}, {"_axis_0"}]>} loc("p12.190"), %arg13: tensor<2880xbf16> {sdy.sharding = #sdy.sharding<@mesh, [{"_axis_0"}]>} loc("p13.195"), %arg14: tensor<128xbf16> {sdy.sharding = #sdy.sharding<@mesh, [{}]>} loc("p14.207"), %arg15: tensor<128x2880xbf16> {sdy.sharding = #sdy.sharding<@mesh, [{}, {"_axis_0"}]>} loc("p15.215"), %arg16: tensor<2880xbf16> {sdy.sharding = #sdy.sharding<@mesh, [{"_axis_0"}]>} loc("p16.224"), %arg17: tensor<2880xbf16> {sdy.sharding = #sdy.sharding<@mesh, [{"_axis_0"}]>} loc("p17.235"), %arg18: tensor<2880x4096xbf16> {sdy.sharding = #sdy.sharding<@mesh, [{"_axis_0"}, {"_axis_1"}]>} loc("p18.239"), %arg19: tensor<64xbf16> {sdy.sharding = #sdy.sharding<@mesh, [{}]>} loc("p19.250"), %arg20: tensor<bf16> {sdy.sharding = #sdy.sharding<@mesh, []>} loc("p20.265"), %arg21: tensor<i1> {sdy.sharding = #sdy.sharding<@mesh, []>} loc("p21.296"), %arg22: tensor<4096xbf16> {sdy.sharding = #sdy.sharding<@mesh, [{"_axis_1"}]>} loc("p22.319"), %arg23: tensor<4096x2880xbf16> {sdy.sharding = #sdy.sharding<@mesh, [{"_axis_1"}, {"_axis_0"}]>} loc("p23.323"), %arg24: tensor<128x2880xbf16> {sdy.sharding = #sdy.sharding<@mesh, [{"_axis_1"}, {"_axis_0"}]>} loc("p24.550"), %arg25: tensor<128x2880x2880xbf16> {sdy.sharding = #sdy.sharding<@mesh, [{"_axis_1"}, {}, {"_axis_0"}]>} loc("p25.555"), %arg26: tensor<128x5760xbf16> {sdy.sharding = #sdy.sharding<@mesh, [{"_axis_1"}, {}]>} loc("p26.562"), %arg27: tensor<128x2880x5760xbf16> {sdy.sharding = #sdy.sharding<@mesh, [{"_axis_1"}, {"_axis_0"}, {}]>} loc("p27.567"), %arg28: tensor<64x8x128x64xbf16> {sdy.sharding = #sdy.sharding<@mesh, [{}, {"_axis_1"}, {}, {}]>} loc("p28.695"), %arg29: tensor<512xbf16> {sdy.sharding = #sdy.sharding<@mesh, [{"_axis_1"}]>} loc("p29.704"), %arg30: tensor<512x2880xbf16> {sdy.sharding = #sdy.sharding<@mesh, [{"_axis_1"}, {"_axis_0"}]>} loc("p30.708"), %arg31: tensor<64x8x128x64xbf16> {sdy.sharding = #sdy.sharding<@mesh, [{}, {"_axis_1"}, {}, {}]>} loc("p31.732"), %arg32: tensor<512xbf16> {sdy.sharding = #sdy.sharding<@mesh, [{"_axis_1"}]>} loc("p32.743"), %arg33: tensor<512x2880xbf16> {sdy.sharding = #sdy.sharding<@mesh, [{"_axis_1"}, {"_axis_0"}]>} loc("p33.747"), %arg34: tensor<2880xbf16> {sdy.sharding = #sdy.sharding<@mesh, [{"_axis_0"}]>} loc("p34.752"), %arg35: tensor<128xbf16> {sdy.sharding = #sdy.sharding<@mesh, [{}]>} loc("p35.764"), %arg36: tensor<128x2880xbf16> {sdy.sharding = #sdy.sharding<@mesh, [{}, {"_axis_0"}]>} loc("p36.772"), %arg37: tensor<2880xbf16> {sdy.sharding = #sdy.sharding<@mesh, [{"_axis_0"}]>} loc("p37.781"), %arg38: tensor<2880xbf16> {sdy.sharding = #sdy.sharding<@mesh, [{"_axis_0"}]>} loc("p38.792"), %arg39: tensor<2880x4096xbf16> {sdy.sharding = #sdy.sharding<@mesh, [{"_axis_0"}, {"_axis_1"}]>} loc("p39.796"), %arg40: tensor<64xbf16> {sdy.sharding = #sdy.sharding<@mesh, [{}]>} loc("p40.807"), %arg41: tensor<bf16> {sdy.sharding = #sdy.sharding<@mesh, []>} loc("p41.822"), %arg42: tensor<4096xbf16> {sdy.sharding = #sdy.sharding<@mesh, [{"_axis_1"}]>} loc("p42.859"), %arg43: tensor<4096x2880xbf16> {sdy.sharding = #sdy.sharding<@mesh, [{"_axis_1"}, {"_axis_0"}]>} loc("p43.863"), %arg44: tensor<128x2880xbf16> {sdy.sharding = #sdy.sharding<@mesh, [{"_axis_1"}, {"_axis_0"}]>} loc("p44.1090"), %arg45: tensor<128x2880x2880xbf16> {sdy.sharding = #sdy.sharding<@mesh, [{"_axis_1"}, {}, {"_axis_0"}]>} loc("p45.1095"), %arg46: tensor<128x5760xbf16> {sdy.sharding = #sdy.sharding<@mesh, [{"_axis_1"}, {}]>} loc("p46.1102"), %arg47: tensor<128x2880x5760xbf16> {sdy.sharding = #sdy.sharding<@mesh, [{"_axis_1"}, {"_axis_0"}, {}]>} loc("p47.1107"), %arg48: tensor<64x8x128x64xbf16> {sdy.sharding = #sdy.sharding<@mesh, [{}, {"_axis_1"}, {}, {}]>} loc("p48.1235"), %arg49: tensor<512xbf16> {sdy.sharding = #sdy.sharding<@mesh, [{"_axis_1"}]>} loc("p49.1244"), %arg50: tensor<512x2880xbf16> {sdy.sharding = #sdy.sharding<@mesh, [{"_axis_1"}, {"_axis_0"}]>} loc("p50.1248"), %arg51: tensor<64x8x128x64xbf16> {sdy.sharding = #sdy.sharding<@mesh, [{}, {"_axis_1"}, {}, {}]>} loc("p51.1272"), %arg52: tensor<512xbf16> {sdy.sharding = #sdy.sharding<@mesh, [{"_axis_1"}]>} loc("p52.1283"), %arg53: tensor<512x2880xbf16> {sdy.sharding = #sdy.sharding<@mesh, [{"_axis_1"}, {"_axis_0"}]>} loc("p53.1287"), %arg54: tensor<2880xbf16> {sdy.sharding = #sdy.sharding<@mesh, [{"_axis_0"}]>} loc("p54.1292"), %arg55: tensor<128xbf16> {sdy.sharding = #sdy.sharding<@mesh, [{}]>} loc("p55.1304"), %arg56: tensor<128x2880xbf16> {sdy.sharding = #sdy.sharding<@mesh, [{}, {"_axis_0"}]>} loc("p56.1312"), %arg57: tensor<2880xbf16> {sdy.sharding = #sdy.sharding<@mesh, [{"_axis_0"}]>} loc("p57.1321"), %arg58: tensor<2880xbf16> {sdy.sharding = #sdy.sharding<@mesh, [{"_axis_0"}]>} loc("p58.1332"), %arg59: tensor<2880x4096xbf16> {sdy.sharding = #sdy.sharding<@mesh, [{"_axis_0"}, {"_axis_1"}]>} loc("p59.1336"), %arg60: tensor<64xbf16> {sdy.sharding = #sdy.sharding<@mesh, [{}]>} loc("p60.1347"), %arg61: tensor<4096xbf16> {sdy.sharding = #sdy.sharding<@mesh, [{"_axis_1"}]>} loc("p61.1365"), %arg62: tensor<4096x2880xbf16> {sdy.sharding = #sdy.sharding<@mesh, [{"_axis_1"}, {"_axis_0"}]>} loc("p62.1369"), %arg63: tensor<128x2880xbf16> {sdy.sharding = #sdy.sharding<@mesh, [{"_axis_1"}, {"_axis_0"}]>} loc("p63.1596"), %arg64: tensor<128x2880x2880xbf16> {sdy.sharding = #sdy.sharding<@mesh, [{"_axis_1"}, {}, {"_axis_0"}]>} loc("p64.1601"), %arg65: tensor<128x5760xbf16> {sdy.sharding = #sdy.sharding<@mesh, [{"_axis_1"}, {}]>} loc("p65.1608"), %arg66: tensor<128x2880x5760xbf16> {sdy.sharding = #sdy.sharding<@mesh, [{"_axis_1"}, {"_axis_0"}, {}]>} loc("p66.1613"), %arg67: tensor<64x8x128x64xbf16> {sdy.sharding = #sdy.sharding<@mesh, [{}, {"_axis_1"}, {}, {}]>} loc("p67.1741"), %arg68: tensor<512xbf16> {sdy.sharding = #sdy.sharding<@mesh, [{"_axis_1"}]>} loc("p68.1750"), %arg69: tensor<512x2880xbf16> {sdy.sharding = #sdy.sharding<@mesh, [{"_axis_1"}, {"_axis_0"}]>} loc("p69.1754"), %arg70: tensor<64x8x128x64xbf16> {sdy.sharding = #sdy.sharding<@mesh, [{}, {"_axis_1"}, {}, {}]>} loc("p70.1778"), %arg71: tensor<512xbf16> {sdy.sharding = #sdy.sharding<@mesh, [{"_axis_1"}]>} loc("p71.1789"), %arg72: tensor<512x2880xbf16> {sdy.sharding = #sdy.sharding<@mesh, [{"_axis_1"}, {"_axis_0"}]>} loc("p72.1793"), %arg73: tensor<2880xbf16> {sdy.sharding = #sdy.sharding<@mesh, [{"_axis_0"}]>} loc("p73.1798"), %arg74: tensor<128xbf16> {sdy.sharding = #sdy.sharding<@mesh, [{}]>} loc("p74.1810"), %arg75: tensor<128x2880xbf16> {sdy.sharding = #sdy.sharding<@mesh, [{}, {"_axis_0"}]>} loc("p75.1818"), %arg76: tensor<2880xbf16> {sdy.sharding = #sdy.sharding<@mesh, [{"_axis_0"}]>} loc("p76.1827"), %arg77: tensor<2880xbf16> {sdy.sharding = #sdy.sharding<@mesh, [{"_axis_0"}]>} loc("p77.1838"), %arg78: tensor<2880x4096xbf16> {sdy.sharding = #sdy.sharding<@mesh, [{"_axis_0"}, {"_axis_1"}]>} loc("p78.1842"), %arg79: tensor<64xbf16> {sdy.sharding = #sdy.sharding<@mesh, [{}]>} loc("p79.1853"), %arg80: tensor<4096xbf16> {sdy.sharding = #sdy.sharding<@mesh, [{"_axis_1"}]>} loc("p80.1871"), %arg81: tensor<4096x2880xbf16> {sdy.sharding = #sdy.sharding<@mesh, [{"_axis_1"}, {"_axis_0"}]>} loc("p81.1875"), %arg82: tensor<128x2880xbf16> {sdy.sharding = #sdy.sharding<@mesh, [{"_axis_1"}, {"_axis_0"}]>} loc("p82.2102"), %arg83: tensor<128x2880x2880xbf16> {sdy.sharding = #sdy.sharding<@mesh, [{"_axis_1"}, {}, {"_axis_0"}]>} loc("p83.2107"), %arg84: tensor<128x5760xbf16> {sdy.sharding = #sdy.sharding<@mesh, [{"_axis_1"}, {}]>} loc("p84.2114"), %arg85: tensor<128x2880x5760xbf16> {sdy.sharding = #sdy.sharding<@mesh, [{"_axis_1"}, {"_axis_0"}, {}]>} loc("p85.2119"), %arg86: tensor<64x8x128x64xbf16> {sdy.sharding = #sdy.sharding<@mesh, [{}, {"_axis_1"}, {}, {}]>} loc("p86.2247"), %arg87: tensor<512xbf16> {sdy.sharding = #sdy.sharding<@mesh, [{"_axis_1"}]>} loc("p87.2256"), %arg88: tensor<512x2880xbf16> {sdy.sharding = #sdy.sharding<@mesh, [{"_axis_1"}, {"_axis_0"}]>} loc("p88.2260"), %arg89: tensor<64x8x128x64xbf16> {sdy.sharding = #sdy.sharding<@mesh, [{}, {"_axis_1"}, {}, {}]>} loc("p89.2284"), %arg90: tensor<512xbf16> {sdy.sharding = #sdy.sharding<@mesh, [{"_axis_1"}]>} loc("p90.2295"), %arg91: tensor<512x2880xbf16> {sdy.sharding = #sdy.sharding<@mesh, [{"_axis_1"}, {"_axis_0"}]>} loc("p91.2299"), %arg92: tensor<2880xbf16> {sdy.sharding = #sdy.sharding<@mesh, [{"_axis_0"}]>} loc("p92.2304"), %arg93: tensor<128xbf16> {sdy.sharding = #sdy.sharding<@mesh, [{}]>} loc("p93.2316"), %arg94: tensor<128x2880xbf16> {sdy.sharding = #sdy.sharding<@mesh, [{}, {"_axis_0"}]>} loc("p94.2324"), %arg95: tensor<2880xbf16> {sdy.sharding = #sdy.sharding<@mesh, [{"_axis_0"}]>} loc("p95.2333"), %arg96: tensor<2880xbf16> {sdy.sharding = #sdy.sharding<@mesh, [{"_axis_0"}]>} loc("p96.2344"), %arg97: tensor<2880x4096xbf16> {sdy.sharding = #sdy.sharding<@mesh, [{"_axis_0"}, {"_axis_1"}]>} loc("p97.2348"), %arg98: tensor<64xbf16> {sdy.sharding = #sdy.sharding<@mesh, [{}]>} loc("p98.2359"), %arg99: tensor<4096xbf16> {sdy.sharding = #sdy.sharding<@mesh, [{"_axis_1"}]>} loc("p99.2377"), %arg100: tensor<4096x2880xbf16> {sdy.sharding = #sdy.sharding<@mesh, [{"_axis_1"}, {"_axis_0"}]>} loc("p100.2381"), %arg101: tensor<128x2880xbf16> {sdy.sharding = #sdy.sharding<@mesh, [{"_axis_1"}, {"_axis_0"}]>} loc("p101.2608"), %arg102: tensor<128x2880x2880xbf16> {sdy.sharding = #sdy.sharding<@mesh, [{"_axis_1"}, {}, {"_axis_0"}]>} loc("p102.2613"), %arg103: tensor<128x5760xbf16> {sdy.sharding = #sdy.sharding<@mesh, [{"_axis_1"}, {}]>} loc("p103.2620"), %arg104: tensor<128x2880x5760xbf16> {sdy.sharding = #sdy.sharding<@mesh, [{"_axis_1"}, {"_axis_0"}, {}]>} loc("p104.2625"), %arg105: tensor<64x8x128x64xbf16> {sdy.sharding = #sdy.sharding<@mesh, [{}, {"_axis_1"}, {}, {}]>} loc("p105.2753"), %arg106: tensor<512xbf16> {sdy.sharding = #sdy.sharding<@mesh, [{"_axis_1"}]>} loc("p106.2762"), %arg107: tensor<512x2880xbf16> {sdy.sharding = #sdy.sharding<@mesh, [{"_axis_1"}, {"_axis_0"}]>} loc("p107.2766"), %arg108: tensor<64x8x128x64xbf16> {sdy.sharding = #sdy.sharding<@mesh, [{}, {"_axis_1"}, {}, {}]>} loc("p108.2790"), %arg109: tensor<512xbf16> {sdy.sharding = #sdy.sharding<@mesh, [{"_axis_1"}]>} loc("p109.2801"), %arg110: tensor<512x2880xbf16> {sdy.sharding = #sdy.sharding<@mesh, [{"_axis_1"}, {"_axis_0"}]>} loc("p110.2805"), %arg111: tensor<2880xbf16> {sdy.sharding = #sdy.sharding<@mesh, [{"_axis_0"}]>} loc("p111.2810"), %arg112: tensor<128xbf16> {sdy.sharding = #sdy.sharding<@mesh, [{}]>} loc("p112.2822"), %arg113: tensor<128x2880xbf16> {sdy.sharding = #sdy.sharding<@mesh, [{}, {"_axis_0"}]>} loc("p113.2830"), %arg114: tensor<2880xbf16> {sdy.sharding = #sdy.sharding<@mesh, [{"_axis_0"}]>} loc("p114.2839"), %arg115: tensor<2880xbf16> {sdy.sharding = #sdy.sharding<@mesh, [{"_axis_0"}]>} loc("p115.2850"), %arg116: tensor<2880x4096xbf16> {sdy.sharding = #sdy.sharding<@mesh, [{"_axis_0"}, {"_axis_1"}]>} loc("p116.2854"), %arg117: tensor<64xbf16> {sdy.sharding = #sdy.sharding<@mesh, [{}]>} loc("p117.2865"), %arg118: tensor<4096xbf16> {sdy.sharding = #sdy.sharding<@mesh, [{"_axis_1"}]>} loc("p118.2883"), %arg119: tensor<4096x2880xbf16> {sdy.sharding = #sdy.sharding<@mesh, [{"_axis_1"}, {"_axis_0"}]>} loc("p119.2887"), %arg120: tensor<128x2880xbf16> {sdy.sharding = #sdy.sharding<@mesh, [{"_axis_1"}, {"_axis_0"}]>} loc("p120.3114"), %arg121: tensor<128x2880x2880xbf16> {sdy.sharding = #sdy.sharding<@mesh, [{"_axis_1"}, {}, {"_axis_0"}]>} loc("p121.3119"), %arg122: tensor<128x5760xbf16> {sdy.sharding = #sdy.sharding<@mesh, [{"_axis_1"}, {}]>} loc("p122.3126"), %arg123: tensor<128x2880x5760xbf16> {sdy.sharding = #sdy.sharding<@mesh, [{"_axis_1"}, {"_axis_0"}, {}]>} loc("p123.3131"), %arg124: tensor<64x8x128x64xbf16> {sdy.sharding = #sdy.sharding<@mesh, [{}, {"_axis_1"}, {}, {}]>} loc("p124.3259"), %arg125: tensor<512xbf16> {sdy.sharding = #sdy.sharding<@mesh, [{"_axis_1"}]>} loc("p125.3268"), %arg126: tensor<512x2880xbf16> {sdy.sharding = #sdy.sharding<@mesh, [{"_axis_1"}, {"_axis_0"}]>} loc("p126.3272"), %arg127: tensor<64x8x128x64xbf16> {sdy.sharding = #sdy.sharding<@mesh, [{}, {"_axis_1"}, {}, {}]>} loc("p127.3296"), %arg128: tensor<512xbf16> {sdy.sharding = #sdy.sharding<@mesh, [{"_axis_1"}]>} loc("p128.3307"), %arg129: tensor<512x2880xbf16> {sdy.sharding = #sdy.sharding<@mesh, [{"_axis_1"}, {"_axis_0"}]>} loc("p129.3311"), %arg130: tensor<2880xbf16> {sdy.sharding = #sdy.sharding<@mesh, [{"_axis_0"}]>} loc("p130.3316"), %arg131: tensor<128xbf16> {sdy.sharding = #sdy.sharding<@mesh, [{}]>} loc("p131.3328"), %arg132: tensor<128x2880xbf16> {sdy.sharding = #sdy.sharding<@mesh, [{}, {"_axis_0"}]>} loc("p132.3336"), %arg133: tensor<2880xbf16> {sdy.sharding = #sdy.sharding<@mesh, [{"_axis_0"}]>} loc("p133.3345"), %arg134: tensor<2880xbf16> {sdy.sharding = #sdy.sharding<@mesh, [{"_axis_0"}]>} loc("p134.3356"), %arg135: tensor<2880x4096xbf16> {sdy.sharding = #sdy.sharding<@mesh, [{"_axis_0"}, {"_axis_1"}]>} loc("p135.3360"), %arg136: tensor<64xbf16> {sdy.sharding = #sdy.sharding<@mesh, [{}]>} loc("p136.3371"), %arg137: tensor<4096xbf16> {sdy.sharding = #sdy.sharding<@mesh, [{"_axis_1"}]>} loc("p137.3389"), %arg138: tensor<4096x2880xbf16> {sdy.sharding = #sdy.sharding<@mesh, [{"_axis_1"}, {"_axis_0"}]>} loc("p138.3393"), %arg139: tensor<128x2880xbf16> {sdy.sharding = #sdy.sharding<@mesh, [{"_axis_1"}, {"_axis_0"}]>} loc("p139.3620"), %arg140: tensor<128x2880x2880xbf16> {sdy.sharding = #sdy.sharding<@mesh, [{"_axis_1"}, {}, {"_axis_0"}]>} loc("p140.3625"), %arg141: tensor<128x5760xbf16> {sdy.sharding = #sdy.sharding<@mesh, [{"_axis_1"}, {}]>} loc("p141.3632"), %arg142: tensor<128x2880x5760xbf16> {sdy.sharding = #sdy.sharding<@mesh, [{"_axis_1"}, {"_axis_0"}, {}]>} loc("p142.3637"), %arg143: tensor<64x8x128x64xbf16> {sdy.sharding = #sdy.sharding<@mesh, [{}, {"_axis_1"}, {}, {}]>} loc("p143.3765"), %arg144: tensor<512xbf16> {sdy.sharding = #sdy.sharding<@mesh, [{"_axis_1"}]>} loc("p144.3774"), %arg145: tensor<512x2880xbf16> {sdy.sharding = #sdy.sharding<@mesh, [{"_axis_1"}, {"_axis_0"}]>} loc("p145.3778"), %arg146: tensor<64x8x128x64xbf16> {sdy.sharding = #sdy.sharding<@mesh, [{}, {"_axis_1"}, {}, {}]>} loc("p146.3802"), %arg147: tensor<512xbf16> {sdy.sharding = #sdy.sharding<@mesh, [{"_axis_1"}]>} loc("p147.3813"), %arg148: tensor<512x2880xbf16> {sdy.sharding = #sdy.sharding<@mesh, [{"_axis_1"}, {"_axis_0"}]>} loc("p148.3817"), %arg149: tensor<2880xbf16> {sdy.sharding = #sdy.sharding<@mesh, [{"_axis_0"}]>} loc("p149.3822"), %arg150: tensor<128xbf16> {sdy.sharding = #sdy.sharding<@mesh, [{}]>} loc("p150.3834"), %arg151: tensor<128x2880xbf16> {sdy.sharding = #sdy.sharding<@mesh, [{}, {"_axis_0"}]>} loc("p151.3842"), %arg152: tensor<2880xbf16> {sdy.sharding = #sdy.sharding<@mesh, [{"_axis_0"}]>} loc("p152.3851"), %arg153: tensor<2880xbf16> {sdy.sharding = #sdy.sharding<@mesh, [{"_axis_0"}]>} loc("p153.3862"), %arg154: tensor<2880x4096xbf16> {sdy.sharding = #sdy.sharding<@mesh, [{"_axis_0"}, {"_axis_1"}]>} loc("p154.3866"), %arg155: tensor<64xbf16> {sdy.sharding = #sdy.sharding<@mesh, [{}]>} loc("p155.3877"), %arg156: tensor<4096xbf16> {sdy.sharding = #sdy.sharding<@mesh, [{"_axis_1"}]>} loc("p156.3895"), %arg157: tensor<4096x2880xbf16> {sdy.sharding = #sdy.sharding<@mesh, [{"_axis_1"}, {"_axis_0"}]>} loc("p157.3899"), %arg158: tensor<128x2880xbf16> {sdy.sharding = #sdy.sharding<@mesh, [{"_axis_1"}, {"_axis_0"}]>} loc("p158.4126"), %arg159: tensor<128x2880x2880xbf16> {sdy.sharding = #sdy.sharding<@mesh, [{"_axis_1"}, {}, {"_axis_0"}]>} loc("p159.4131"), %arg160: tensor<128x5760xbf16> {sdy.sharding = #sdy.sharding<@mesh, [{"_axis_1"}, {}]>} loc("p160.4138"), %arg161: tensor<128x2880x5760xbf16> {sdy.sharding = #sdy.sharding<@mesh, [{"_axis_1"}, {"_axis_0"}, {}]>} loc("p161.4143"), %arg162: tensor<64x8x128x64xbf16> {sdy.sharding = #sdy.sharding<@mesh, [{}, {"_axis_1"}, {}, {}]>} loc("p162.4271"), %arg163: tensor<512xbf16> {sdy.sharding = #sdy.sharding<@mesh, [{"_axis_1"}]>} loc("p163.4280"), %arg164: tensor<512x2880xbf16> {sdy.sharding = #sdy.sharding<@mesh, [{"_axis_1"}, {"_axis_0"}]>} loc("p164.4284"), %arg165: tensor<64x8x128x64xbf16> {sdy.sharding = #sdy.sharding<@mesh, [{}, {"_axis_1"}, {}, {}]>} loc("p165.4308"), %arg166: tensor<512xbf16> {sdy.sharding = #sdy.sharding<@mesh, [{"_axis_1"}]>} loc("p166.4319"), %arg167: tensor<512x2880xbf16> {sdy.sharding = #sdy.sharding<@mesh, [{"_axis_1"}, {"_axis_0"}]>} loc("p167.4323"), %arg168: tensor<2880xbf16> {sdy.sharding = #sdy.sharding<@mesh, [{"_axis_0"}]>} loc("p168.4328"), %arg169: tensor<128xbf16> {sdy.sharding = #sdy.sharding<@mesh, [{}]>} loc("p169.4340"), %arg170: tensor<128x2880xbf16> {sdy.sharding = #sdy.sharding<@mesh, [{}, {"_axis_0"}]>} loc("p170.4348"), %arg171: tensor<2880xbf16> {sdy.sharding = #sdy.sharding<@mesh, [{"_axis_0"}]>} loc("p171.4357"), %arg172: tensor<2880xbf16> {sdy.sharding = #sdy.sharding<@mesh, [{"_axis_0"}]>} loc("p172.4368"), %arg173: tensor<2880x4096xbf16> {sdy.sharding = #sdy.sharding<@mesh, [{"_axis_0"}, {"_axis_1"}]>} loc("p173.4372"), %arg174: tensor<64xbf16> {sdy.sharding = #sdy.sharding<@mesh, [{}]>} loc("p174.4383"), %arg175: tensor<4096xbf16> {sdy.sharding = #sdy.sharding<@mesh, [{"_axis_1"}]>} loc("p175.4401"), %arg176: tensor<4096x2880xbf16> {sdy.sharding = #sdy.sharding<@mesh, [{"_axis_1"}, {"_axis_0"}]>} loc("p176.4405"), %arg177: tensor<128x2880xbf16> {sdy.sharding = #sdy.sharding<@mesh, [{"_axis_1"}, {"_axis_0"}]>} loc("p177.4632"), %arg178: tensor<128x2880x2880xbf16> {sdy.sharding = #sdy.sharding<@mesh, [{"_axis_1"}, {}, {"_axis_0"}]>} loc("p178.4637"), %arg179: tensor<128x5760xbf16> {sdy.sharding = #sdy.sharding<@mesh, [{"_axis_1"}, {}]>} loc("p179.4644"), %arg180: tensor<128x2880x5760xbf16> {sdy.sharding = #sdy.sharding<@mesh, [{"_axis_1"}, {"_axis_0"}, {}]>} loc("p180.4649"), %arg181: tensor<64x8x128x64xbf16> {sdy.sharding = #sdy.sharding<@mesh, [{}, {"_axis_1"}, {}, {}]>} loc("p181.4777"), %arg182: tensor<512xbf16> {sdy.sharding = #sdy.sharding<@mesh, [{"_axis_1"}]>} loc("p182.4786"), %arg183: tensor<512x2880xbf16> {sdy.sharding = #sdy.sharding<@mesh, [{"_axis_1"}, {"_axis_0"}]>} loc("p183.4790"), %arg184: tensor<64x8x128x64xbf16> {sdy.sharding = #sdy.sharding<@mesh, [{}, {"_axis_1"}, {}, {}]>} loc("p184.4814"), %arg185: tensor<512xbf16> {sdy.sharding = #sdy.sharding<@mesh, [{"_axis_1"}]>} loc("p185.4825"), %arg186: tensor<512x2880xbf16> {sdy.sharding = #sdy.sharding<@mesh, [{"_axis_1"}, {"_axis_0"}]>} loc("p186.4829"), %arg187: tensor<2880xbf16> {sdy.sharding = #sdy.sharding<@mesh, [{"_axis_0"}]>} loc("p187.4834"), %arg188: tensor<128xbf16> {sdy.sharding = #sdy.sharding<@mesh, [{}]>} loc("p188.4846"), %arg189: tensor<128x2880xbf16> {sdy.sharding = #sdy.sharding<@mesh, [{}, {"_axis_0"}]>} loc("p189.4854"), %arg190: tensor<2880xbf16> {sdy.sharding = #sdy.sharding<@mesh, [{"_axis_0"}]>} loc("p190.4863"), %arg191: tensor<2880xbf16> {sdy.sharding = #sdy.sharding<@mesh, [{"_axis_0"}]>} loc("p191.4874"), %arg192: tensor<2880x4096xbf16> {sdy.sharding = #sdy.sharding<@mesh, [{"_axis_0"}, {"_axis_1"}]>} loc("p192.4878"), %arg193: tensor<64xbf16> {sdy.sharding = #sdy.sharding<@mesh, [{}]>} loc("p193.4889"), %arg194: tensor<4096xbf16> {sdy.sharding = #sdy.sharding<@mesh, [{"_axis_1"}]>} loc("p194.4907"), %arg195: tensor<4096x2880xbf16> {sdy.sharding = #sdy.sharding<@mesh, [{"_axis_1"}, {"_axis_0"}]>} loc("p195.4911"), %arg196: tensor<128x2880xbf16> {sdy.sharding = #sdy.sharding<@mesh, [{"_axis_1"}, {"_axis_0"}]>} loc("p196.5138"), %arg197: tensor<128x2880x2880xbf16> {sdy.sharding = #sdy.sharding<@mesh, [{"_axis_1"}, {}, {"_axis_0"}]>} loc("p197.5143"), %arg198: tensor<128x5760xbf16> {sdy.sharding = #sdy.sharding<@mesh, [{"_axis_1"}, {}]>} loc("p198.5150"), %arg199: tensor<128x2880x5760xbf16> {sdy.sharding = #sdy.sharding<@mesh, [{"_axis_1"}, {"_axis_0"}, {}]>} loc("p199.5155"), %arg200: tensor<64x8x128x64xbf16> {sdy.sharding = #sdy.sharding<@mesh, [{}, {"_axis_1"}, {}, {}]>} loc("p200.5283"), %arg201: tensor<512xbf16> {sdy.sharding = #sdy.sharding<@mesh, [{"_axis_1"}]>} loc("p201.5292"), %arg202: tensor<512x2880xbf16> {sdy.sharding = #sdy.sharding<@mesh, [{"_axis_1"}, {"_axis_0"}]>} loc("p202.5296"), %arg203: tensor<64x8x128x64xbf16> {sdy.sharding = #sdy.sharding<@mesh, [{}, {"_axis_1"}, {}, {}]>} loc("p203.5320"), %arg204: tensor<512xbf16> {sdy.sharding = #sdy.sharding<@mesh, [{"_axis_1"}]>} loc("p204.5331"), %arg205: tensor<512x2880xbf16> {sdy.sharding = #sdy.sharding<@mesh, [{"_axis_1"}, {"_axis_0"}]>} loc("p205.5335"), %arg206: tensor<2880xbf16> {sdy.sharding = #sdy.sharding<@mesh, [{"_axis_0"}]>} loc("p206.5340"), %arg207: tensor<128xbf16> {sdy.sharding = #sdy.sharding<@mesh, [{}]>} loc("p207.5352"), %arg208: tensor<128x2880xbf16> {sdy.sharding = #sdy.sharding<@mesh, [{}, {"_axis_0"}]>} loc("p208.5360"), %arg209: tensor<2880xbf16> {sdy.sharding = #sdy.sharding<@mesh, [{"_axis_0"}]>} loc("p209.5369"), %arg210: tensor<2880xbf16> {sdy.sharding = #sdy.sharding<@mesh, [{"_axis_0"}]>} loc("p210.5380"), %arg211: tensor<2880x4096xbf16> {sdy.sharding = #sdy.sharding<@mesh, [{"_axis_0"}, {"_axis_1"}]>} loc("p211.5384"), %arg212: tensor<64xbf16> {sdy.sharding = #sdy.sharding<@mesh, [{}]>} loc("p212.5395"), %arg213: tensor<4096xbf16> {sdy.sharding = #sdy.sharding<@mesh, [{"_axis_1"}]>} loc("p213.5413"), %arg214: tensor<4096x2880xbf16> {sdy.sharding = #sdy.sharding<@mesh, [{"_axis_1"}, {"_axis_0"}]>} loc("p214.5417"), %arg215: tensor<128x2880xbf16> {sdy.sharding = #sdy.sharding<@mesh, [{"_axis_1"}, {"_axis_0"}]>} loc("p215.5644"), %arg216: tensor<128x2880x2880xbf16> {sdy.sharding = #sdy.sharding<@mesh, [{"_axis_1"}, {}, {"_axis_0"}]>} loc("p216.5649"), %arg217: tensor<128x5760xbf16> {sdy.sharding = #sdy.sharding<@mesh, [{"_axis_1"}, {}]>} loc("p217.5656"), %arg218: tensor<128x2880x5760xbf16> {sdy.sharding = #sdy.sharding<@mesh, [{"_axis_1"}, {"_axis_0"}, {}]>} loc("p218.5661"), %arg219: tensor<64x8x128x64xbf16> {sdy.sharding = #sdy.sharding<@mesh, [{}, {"_axis_1"}, {}, {}]>} loc("p219.5789"), %arg220: tensor<512xbf16> {sdy.sharding = #sdy.sharding<@mesh, [{"_axis_1"}]>} loc("p220.5798"), %arg221: tensor<512x2880xbf16> {sdy.sharding = #sdy.sharding<@mesh, [{"_axis_1"}, {"_axis_0"}]>} loc("p221.5802"), %arg222: tensor<64x8x128x64xbf16> {sdy.sharding = #sdy.sharding<@mesh, [{}, {"_axis_1"}, {}, {}]>} loc("p222.5826"), %arg223: tensor<512xbf16> {sdy.sharding = #sdy.sharding<@mesh, [{"_axis_1"}]>} loc("p223.5837"), %arg224: tensor<512x2880xbf16> {sdy.sharding = #sdy.sharding<@mesh, [{"_axis_1"}, {"_axis_0"}]>} loc("p224.5841"), %arg225: tensor<2880xbf16> {sdy.sharding = #sdy.sharding<@mesh, [{"_axis_0"}]>} loc("p225.5846"), %arg226: tensor<128xbf16> {sdy.sharding = #sdy.sharding<@mesh, [{}]>} loc("p226.5858"), %arg227: tensor<128x2880xbf16> {sdy.sharding = #sdy.sharding<@mesh, [{}, {"_axis_0"}]>} loc("p227.5866"), %arg228: tensor<2880xbf16> {sdy.sharding = #sdy.sharding<@mesh, [{"_axis_0"}]>} loc("p228.5875"), %arg229: tensor<2880xbf16> {sdy.sharding = #sdy.sharding<@mesh, [{"_axis_0"}]>} loc("p229.5886"), %arg230: tensor<2880x4096xbf16> {sdy.sharding = #sdy.sharding<@mesh, [{"_axis_0"}, {"_axis_1"}]>} loc("p230.5890"), %arg231: tensor<64xbf16> {sdy.sharding = #sdy.sharding<@mesh, [{}]>} loc("p231.5901"), %arg232: tensor<4096xbf16> {sdy.sharding = #sdy.sharding<@mesh, [{"_axis_1"}]>} loc("p232.5919"), %arg233: tensor<4096x2880xbf16> {sdy.sharding = #sdy.sharding<@mesh, [{"_axis_1"}, {"_axis_0"}]>} loc("p233.5923"), %arg234: tensor<128x2880xbf16> {sdy.sharding = #sdy.sharding<@mesh, [{"_axis_1"}, {"_axis_0"}]>} loc("p234.6150"), %arg235: tensor<128x2880x2880xbf16> {sdy.sharding = #sdy.sharding<@mesh, [{"_axis_1"}, {}, {"_axis_0"}]>} loc("p235.6155"), %arg236: tensor<128x5760xbf16> {sdy.sharding = #sdy.sharding<@mesh, [{"_axis_1"}, {}]>} loc("p236.6162"), %arg237: tensor<128x2880x5760xbf16> {sdy.sharding = #sdy.sharding<@mesh, [{"_axis_1"}, {"_axis_0"}, {}]>} loc("p237.6167"), %arg238: tensor<64x8x128x64xbf16> {sdy.sharding = #sdy.sharding<@mesh, [{}, {"_axis_1"}, {}, {}]>} loc("p238.6295"), %arg239: tensor<512xbf16> {sdy.sharding = #sdy.sharding<@mesh, [{"_axis_1"}]>} loc("p239.6304"), %arg240: tensor<512x2880xbf16> {sdy.sharding = #sdy.sharding<@mesh, [{"_axis_1"}, {"_axis_0"}]>} loc("p240.6308"), %arg241: tensor<64x8x128x64xbf16> {sdy.sharding = #sdy.sharding<@mesh, [{}, {"_axis_1"}, {}, {}]>} loc("p241.6332"), %arg242: tensor<512xbf16> {sdy.sharding = #sdy.sharding<@mesh, [{"_axis_1"}]>} loc("p242.6343"), %arg243: tensor<512x2880xbf16> {sdy.sharding = #sdy.sharding<@mesh, [{"_axis_1"}, {"_axis_0"}]>} loc("p243.6347"), %arg244: tensor<2880xbf16> {sdy.sharding = #sdy.sharding<@mesh, [{"_axis_0"}]>} loc("p244.6352"), %arg245: tensor<128xbf16> {sdy.sharding = #sdy.sharding<@mesh, [{}]>} loc("p245.6364"), %arg246: tensor<128x2880xbf16> {sdy.sharding = #sdy.sharding<@mesh, [{}, {"_axis_0"}]>} loc("p246.6372"), %arg247: tensor<2880xbf16> {sdy.sharding = #sdy.sharding<@mesh, [{"_axis_0"}]>} loc("p247.6381"), %arg248: tensor<2880xbf16> {sdy.sharding = #sdy.sharding<@mesh, [{"_axis_0"}]>} loc("p248.6392"), %arg249: tensor<2880x4096xbf16> {sdy.sharding = #sdy.sharding<@mesh, [{"_axis_0"}, {"_axis_1"}]>} loc("p249.6396"), %arg250: tensor<64xbf16> {sdy.sharding = #sdy.sharding<@mesh, [{}]>} loc("p250.6407"), %arg251: tensor<4096xbf16> {sdy.sharding = #sdy.sharding<@mesh, [{"_axis_1"}]>} loc("p251.6425"), %arg252: tensor<4096x2880xbf16> {sdy.sharding = #sdy.sharding<@mesh, [{"_axis_1"}, {"_axis_0"}]>} loc("p252.6429"), %arg253: tensor<128x2880xbf16> {sdy.sharding = #sdy.sharding<@mesh, [{"_axis_1"}, {"_axis_0"}]>} loc("p253.6656"), %arg254: tensor<128x2880x2880xbf16> {sdy.sharding = #sdy.sharding<@mesh, [{"_axis_1"}, {}, {"_axis_0"}]>} loc("p254.6661"), %arg255: tensor<128x5760xbf16> {sdy.sharding = #sdy.sharding<@mesh, [{"_axis_1"}, {}]>} loc("p255.6668"), %arg256: tensor<128x2880x5760xbf16> {sdy.sharding = #sdy.sharding<@mesh, [{"_axis_1"}, {"_axis_0"}, {}]>} loc("p256.6673"), %arg257: tensor<64x8x128x64xbf16> {sdy.sharding = #sdy.sharding<@mesh, [{}, {"_axis_1"}, {}, {}]>} loc("p257.6801"), %arg258: tensor<512xbf16> {sdy.sharding = #sdy.sharding<@mesh, [{"_axis_1"}]>} loc("p258.6810"), %arg259: tensor<512x2880xbf16> {sdy.sharding = #sdy.sharding<@mesh, [{"_axis_1"}, {"_axis_0"}]>} loc("p259.6814"), %arg260: tensor<64x8x128x64xbf16> {sdy.sharding = #sdy.sharding<@mesh, [{}, {"_axis_1"}, {}, {}]>} loc("p260.6838"), %arg261: tensor<512xbf16> {sdy.sharding = #sdy.sharding<@mesh, [{"_axis_1"}]>} loc("p261.6849"), %arg262: tensor<512x2880xbf16> {sdy.sharding = #sdy.sharding<@mesh, [{"_axis_1"}, {"_axis_0"}]>} loc("p262.6853"), %arg263: tensor<2880xbf16> {sdy.sharding = #sdy.sharding<@mesh, [{"_axis_0"}]>} loc("p263.6858"), %arg264: tensor<128xbf16> {sdy.sharding = #sdy.sharding<@mesh, [{}]>} loc("p264.6870"), %arg265: tensor<128x2880xbf16> {sdy.sharding = #sdy.sharding<@mesh, [{}, {"_axis_0"}]>} loc("p265.6878"), %arg266: tensor<2880xbf16> {sdy.sharding = #sdy.sharding<@mesh, [{"_axis_0"}]>} loc("p266.6887"), %arg267: tensor<2880xbf16> {sdy.sharding = #sdy.sharding<@mesh, [{"_axis_0"}]>} loc("p267.6898"), %arg268: tensor<2880x4096xbf16> {sdy.sharding = #sdy.sharding<@mesh, [{"_axis_0"}, {"_axis_1"}]>} loc("p268.6902"), %arg269: tensor<64xbf16> {sdy.sharding = #sdy.sharding<@mesh, [{}]>} loc("p269.6913"), %arg270: tensor<4096xbf16> {sdy.sharding = #sdy.sharding<@mesh, [{"_axis_1"}]>} loc("p270.6931"), %arg271: tensor<4096x2880xbf16> {sdy.sharding = #sdy.sharding<@mesh, [{"_axis_1"}, {"_axis_0"}]>} loc("p271.6935"), %arg272: tensor<128x2880xbf16> {sdy.sharding = #sdy.sharding<@mesh, [{"_axis_1"}, {"_axis_0"}]>} loc("p272.7162"), %arg273: tensor<128x2880x2880xbf16> {sdy.sharding = #sdy.sharding<@mesh, [{"_axis_1"}, {}, {"_axis_0"}]>} loc("p273.7167"), %arg274: tensor<128x5760xbf16> {sdy.sharding = #sdy.sharding<@mesh, [{"_axis_1"}, {}]>} loc("p274.7174"), %arg275: tensor<128x2880x5760xbf16> {sdy.sharding = #sdy.sharding<@mesh, [{"_axis_1"}, {"_axis_0"}, {}]>} loc("p275.7179"), %arg276: tensor<64x8x128x64xbf16> {sdy.sharding = #sdy.sharding<@mesh, [{}, {"_axis_1"}, {}, {}]>} loc("p276.7307"), %arg277: tensor<512xbf16> {sdy.sharding = #sdy.sharding<@mesh, [{"_axis_1"}]>} loc("p277.7316"), %arg278: tensor<512x2880xbf16> {sdy.sharding = #sdy.sharding<@mesh, [{"_axis_1"}, {"_axis_0"}]>} loc("p278.7320"), %arg279: tensor<64x8x128x64xbf16> {sdy.sharding = #sdy.sharding<@mesh, [{}, {"_axis_1"}, {}, {}]>} loc("p279.7344"), %arg280: tensor<512xbf16> {sdy.sharding = #sdy.sharding<@mesh, [{"_axis_1"}]>} loc("p280.7355"), %arg281: tensor<512x2880xbf16> {sdy.sharding = #sdy.sharding<@mesh, [{"_axis_1"}, {"_axis_0"}]>} loc("p281.7359"), %arg282: tensor<2880xbf16> {sdy.sharding = #sdy.sharding<@mesh, [{"_axis_0"}]>} loc("p282.7364"), %arg283: tensor<128xbf16> {sdy.sharding = #sdy.sharding<@mesh, [{}]>} loc("p283.7376"), %arg284: tensor<128x2880xbf16> {sdy.sharding = #sdy.sharding<@mesh, [{}, {"_axis_0"}]>} loc("p284.7384"), %arg285: tensor<2880xbf16> {sdy.sharding = #sdy.sharding<@mesh, [{"_axis_0"}]>} loc("p285.7393"), %arg286: tensor<2880xbf16> {sdy.sharding = #sdy.sharding<@mesh, [{"_axis_0"}]>} loc("p286.7404"), %arg287: tensor<2880x4096xbf16> {sdy.sharding = #sdy.sharding<@mesh, [{"_axis_0"}, {"_axis_1"}]>} loc("p287.7408"), %arg288: tensor<64xbf16> {sdy.sharding = #sdy.sharding<@mesh, [{}]>} loc("p288.7419"), %arg289: tensor<4096xbf16> {sdy.sharding = #sdy.sharding<@mesh, [{"_axis_1"}]>} loc("p289.7437"), %arg290: tensor<4096x2880xbf16> {sdy.sharding = #sdy.sharding<@mesh, [{"_axis_1"}, {"_axis_0"}]>} loc("p290.7441"), %arg291: tensor<128x2880xbf16> {sdy.sharding = #sdy.sharding<@mesh, [{"_axis_1"}, {"_axis_0"}]>} loc("p291.7668"), %arg292: tensor<128x2880x2880xbf16> {sdy.sharding = #sdy.sharding<@mesh, [{"_axis_1"}, {}, {"_axis_0"}]>} loc("p292.7673"), %arg293: tensor<128x5760xbf16> {sdy.sharding = #sdy.sharding<@mesh, [{"_axis_1"}, {}]>} loc("p293.7680"), %arg294: tensor<128x2880x5760xbf16> {sdy.sharding = #sdy.sharding<@mesh, [{"_axis_1"}, {"_axis_0"}, {}]>} loc("p294.7685"), %arg295: tensor<64x8x128x64xbf16> {sdy.sharding = #sdy.sharding<@mesh, [{}, {"_axis_1"}, {}, {}]>} loc("p295.7813"), %arg296: tensor<512xbf16> {sdy.sharding = #sdy.sharding<@mesh, [{"_axis_1"}]>} loc("p296.7822"), %arg297: tensor<512x2880xbf16> {sdy.sharding = #sdy.sharding<@mesh, [{"_axis_1"}, {"_axis_0"}]>} loc("p297.7826"), %arg298: tensor<64x8x128x64xbf16> {sdy.sharding = #sdy.sharding<@mesh, [{}, {"_axis_1"}, {}, {}]>} loc("p298.7850"), %arg299: tensor<512xbf16> {sdy.sharding = #sdy.sharding<@mesh, [{"_axis_1"}]>} loc("p299.7861"), %arg300: tensor<512x2880xbf16> {sdy.sharding = #sdy.sharding<@mesh, [{"_axis_1"}, {"_axis_0"}]>} loc("p300.7865"), %arg301: tensor<2880xbf16> {sdy.sharding = #sdy.sharding<@mesh, [{"_axis_0"}]>} loc("p301.7870"), %arg302: tensor<128xbf16> {sdy.sharding = #sdy.sharding<@mesh, [{}]>} loc("p302.7882"), %arg303: tensor<128x2880xbf16> {sdy.sharding = #sdy.sharding<@mesh, [{}, {"_axis_0"}]>} loc("p303.7890"), %arg304: tensor<2880xbf16> {sdy.sharding = #sdy.sharding<@mesh, [{"_axis_0"}]>} loc("p304.7899"), %arg305: tensor<2880xbf16> {sdy.sharding = #sdy.sharding<@mesh, [{"_axis_0"}]>} loc("p305.7910"), %arg306: tensor<2880x4096xbf16> {sdy.sharding = #sdy.sharding<@mesh, [{"_axis_0"}, {"_axis_1"}]>} loc("p306.7914"), %arg307: tensor<64xbf16> {sdy.sharding = #sdy.sharding<@mesh, [{}]>} loc("p307.7925"), %arg308: tensor<4096xbf16> {sdy.sharding = #sdy.sharding<@mesh, [{"_axis_1"}]>} loc("p308.7943"), %arg309: tensor<4096x2880xbf16> {sdy.sharding = #sdy.sharding<@mesh, [{"_axis_1"}, {"_axis_0"}]>} loc("p309.7947"), %arg310: tensor<128x2880xbf16> {sdy.sharding = #sdy.sharding<@mesh, [{"_axis_1"}, {"_axis_0"}]>} loc("p310.8174"), %arg311: tensor<128x2880x2880xbf16> {sdy.sharding = #sdy.sharding<@mesh, [{"_axis_1"}, {}, {"_axis_0"}]>} loc("p311.8179"), %arg312: tensor<128x5760xbf16> {sdy.sharding = #sdy.sharding<@mesh, [{"_axis_1"}, {}]>} loc("p312.8186"), %arg313: tensor<128x2880x5760xbf16> {sdy.sharding = #sdy.sharding<@mesh, [{"_axis_1"}, {"_axis_0"}, {}]>} loc("p313.8191"), %arg314: tensor<64x8x128x64xbf16> {sdy.sharding = #sdy.sharding<@mesh, [{}, {"_axis_1"}, {}, {}]>} loc("p314.8319"), %arg315: tensor<512xbf16> {sdy.sharding = #sdy.sharding<@mesh, [{"_axis_1"}]>} loc("p315.8328"), %arg316: tensor<512x2880xbf16> {sdy.sharding = #sdy.sharding<@mesh, [{"_axis_1"}, {"_axis_0"}]>} loc("p316.8332"), %arg317: tensor<64x8x128x64xbf16> {sdy.sharding = #sdy.sharding<@mesh, [{}, {"_axis_1"}, {}, {}]>} loc("p317.8356"), %arg318: tensor<512xbf16> {sdy.sharding = #sdy.sharding<@mesh, [{"_axis_1"}]>} loc("p318.8367"), %arg319: tensor<512x2880xbf16> {sdy.sharding = #sdy.sharding<@mesh, [{"_axis_1"}, {"_axis_0"}]>} loc("p319.8371"), %arg320: tensor<2880xbf16> {sdy.sharding = #sdy.sharding<@mesh, [{"_axis_0"}]>} loc("p320.8376"), %arg321: tensor<128xbf16> {sdy.sharding = #sdy.sharding<@mesh, [{}]>} loc("p321.8388"), %arg322: tensor<128x2880xbf16> {sdy.sharding = #sdy.sharding<@mesh, [{}, {"_axis_0"}]>} loc("p322.8396"), %arg323: tensor<2880xbf16> {sdy.sharding = #sdy.sharding<@mesh, [{"_axis_0"}]>} loc("p323.8405"), %arg324: tensor<2880xbf16> {sdy.sharding = #sdy.sharding<@mesh, [{"_axis_0"}]>} loc("p324.8416"), %arg325: tensor<2880x4096xbf16> {sdy.sharding = #sdy.sharding<@mesh, [{"_axis_0"}, {"_axis_1"}]>} loc("p325.8420"), %arg326: tensor<64xbf16> {sdy.sharding = #sdy.sharding<@mesh, [{}]>} loc("p326.8431"), %arg327: tensor<4096xbf16> {sdy.sharding = #sdy.sharding<@mesh, [{"_axis_1"}]>} loc("p327.8449"), %arg328: tensor<4096x2880xbf16> {sdy.sharding = #sdy.sharding<@mesh, [{"_axis_1"}, {"_axis_0"}]>} loc("p328.8453"), %arg329: tensor<128x2880xbf16> {sdy.sharding = #sdy.sharding<@mesh, [{"_axis_1"}, {"_axis_0"}]>} loc("p329.8680"), %arg330: tensor<128x2880x2880xbf16> {sdy.sharding = #sdy.sharding<@mesh, [{"_axis_1"}, {}, {"_axis_0"}]>} loc("p330.8685"), %arg331: tensor<128x5760xbf16> {sdy.sharding = #sdy.sharding<@mesh, [{"_axis_1"}, {}]>} loc("p331.8692"), %arg332: tensor<128x2880x5760xbf16> {sdy.sharding = #sdy.sharding<@mesh, [{"_axis_1"}, {"_axis_0"}, {}]>} loc("p332.8697"), %arg333: tensor<64x8x128x64xbf16> {sdy.sharding = #sdy.sharding<@mesh, [{}, {"_axis_1"}, {}, {}]>} loc("p333.8825"), %arg334: tensor<512xbf16> {sdy.sharding = #sdy.sharding<@mesh, [{"_axis_1"}]>} loc("p334.8834"), %arg335: tensor<512x2880xbf16> {sdy.sharding = #sdy.sharding<@mesh, [{"_axis_1"}, {"_axis_0"}]>} loc("p335.8838"), %arg336: tensor<64x8x128x64xbf16> {sdy.sharding = #sdy.sharding<@mesh, [{}, {"_axis_1"}, {}, {}]>} loc("p336.8862"), %arg337: tensor<512xbf16> {sdy.sharding = #sdy.sharding<@mesh, [{"_axis_1"}]>} loc("p337.8873"), %arg338: tensor<512x2880xbf16> {sdy.sharding = #sdy.sharding<@mesh, [{"_axis_1"}, {"_axis_0"}]>} loc("p338.8877"), %arg339: tensor<2880xbf16> {sdy.sharding = #sdy.sharding<@mesh, [{"_axis_0"}]>} loc("p339.8882"), %arg340: tensor<128xbf16> {sdy.sharding = #sdy.sharding<@mesh, [{}]>} loc("p340.8894"), %arg341: tensor<128x2880xbf16> {sdy.sharding = #sdy.sharding<@mesh, [{}, {"_axis_0"}]>} loc("p341.8902"), %arg342: tensor<2880xbf16> {sdy.sharding = #sdy.sharding<@mesh, [{"_axis_0"}]>} loc("p342.8911"), %arg343: tensor<2880xbf16> {sdy.sharding = #sdy.sharding<@mesh, [{"_axis_0"}]>} loc("p343.8922"), %arg344: tensor<2880x4096xbf16> {sdy.sharding = #sdy.sharding<@mesh, [{"_axis_0"}, {"_axis_1"}]>} loc("p344.8926"), %arg345: tensor<64xbf16> {sdy.sharding = #sdy.sharding<@mesh, [{}]>} loc("p345.8937"), %arg346: tensor<4096xbf16> {sdy.sharding = #sdy.sharding<@mesh, [{"_axis_1"}]>} loc("p346.8955"), %arg347: tensor<4096x2880xbf16> {sdy.sharding = #sdy.sharding<@mesh, [{"_axis_1"}, {"_axis_0"}]>} loc("p347.8959"), %arg348: tensor<128x2880xbf16> {sdy.sharding = #sdy.sharding<@mesh, [{"_axis_1"}, {"_axis_0"}]>} loc("p348.9186"), %arg349: tensor<128x2880x2880xbf16> {sdy.sharding = #sdy.sharding<@mesh, [{"_axis_1"}, {}, {"_axis_0"}]>} loc("p349.9191"), %arg350: tensor<128x5760xbf16> {sdy.sharding = #sdy.sharding<@mesh, [{"_axis_1"}, {}]>} loc("p350.9198"), %arg351: tensor<128x2880x5760xbf16> {sdy.sharding = #sdy.sharding<@mesh, [{"_axis_1"}, {"_axis_0"}, {}]>} loc("p351.9203"), %arg352: tensor<64x8x128x64xbf16> {sdy.sharding = #sdy.sharding<@mesh, [{}, {"_axis_1"}, {}, {}]>} loc("p352.9331"), %arg353: tensor<512xbf16> {sdy.sharding = #sdy.sharding<@mesh, [{"_axis_1"}]>} loc("p353.9340"), %arg354: tensor<512x2880xbf16> {sdy.sharding = #sdy.sharding<@mesh, [{"_axis_1"}, {"_axis_0"}]>} loc("p354.9344"), %arg355: tensor<64x8x128x64xbf16> {sdy.sharding = #sdy.sharding<@mesh, [{}, {"_axis_1"}, {}, {}]>} loc("p355.9368"), %arg356: tensor<512xbf16> {sdy.sharding = #sdy.sharding<@mesh, [{"_axis_1"}]>} loc("p356.9379"), %arg357: tensor<512x2880xbf16> {sdy.sharding = #sdy.sharding<@mesh, [{"_axis_1"}, {"_axis_0"}]>} loc("p357.9383"), %arg358: tensor<2880xbf16> {sdy.sharding = #sdy.sharding<@mesh, [{"_axis_0"}]>} loc("p358.9388"), %arg359: tensor<128xbf16> {sdy.sharding = #sdy.sharding<@mesh, [{}]>} loc("p359.9400"), %arg360: tensor<128x2880xbf16> {sdy.sharding = #sdy.sharding<@mesh, [{}, {"_axis_0"}]>} loc("p360.9408"), %arg361: tensor<2880xbf16> {sdy.sharding = #sdy.sharding<@mesh, [{"_axis_0"}]>} loc("p361.9417"), %arg362: tensor<2880xbf16> {sdy.sharding = #sdy.sharding<@mesh, [{"_axis_0"}]>} loc("p362.9428"), %arg363: tensor<2880x4096xbf16> {sdy.sharding = #sdy.sharding<@mesh, [{"_axis_0"}, {"_axis_1"}]>} loc("p363.9432"), %arg364: tensor<64xbf16> {sdy.sharding = #sdy.sharding<@mesh, [{}]>} loc("p364.9443"), %arg365: tensor<4096xbf16> {sdy.sharding = #sdy.sharding<@mesh, [{"_axis_1"}]>} loc("p365.9461"), %arg366: tensor<4096x2880xbf16> {sdy.sharding = #sdy.sharding<@mesh, [{"_axis_1"}, {"_axis_0"}]>} loc("p366.9465"), %arg367: tensor<128x2880xbf16> {sdy.sharding = #sdy.sharding<@mesh, [{"_axis_1"}, {"_axis_0"}]>} loc("p367.9692"), %arg368: tensor<128x2880x2880xbf16> {sdy.sharding = #sdy.sharding<@mesh, [{"_axis_1"}, {}, {"_axis_0"}]>} loc("p368.9697"), %arg369: tensor<128x5760xbf16> {sdy.sharding = #sdy.sharding<@mesh, [{"_axis_1"}, {}]>} loc("p369.9704"), %arg370: tensor<128x2880x5760xbf16> {sdy.sharding = #sdy.sharding<@mesh, [{"_axis_1"}, {"_axis_0"}, {}]>} loc("p370.9709"), %arg371: tensor<64x8x128x64xbf16> {sdy.sharding = #sdy.sharding<@mesh, [{}, {"_axis_1"}, {}, {}]>} loc("p371.9837"), %arg372: tensor<512xbf16> {sdy.sharding = #sdy.sharding<@mesh, [{"_axis_1"}]>} loc("p372.9846"), %arg373: tensor<512x2880xbf16> {sdy.sharding = #sdy.sharding<@mesh, [{"_axis_1"}, {"_axis_0"}]>} loc("p373.9850"), %arg374: tensor<64x8x128x64xbf16> {sdy.sharding = #sdy.sharding<@mesh, [{}, {"_axis_1"}, {}, {}]>} loc("p374.9874"), %arg375: tensor<512xbf16> {sdy.sharding = #sdy.sharding<@mesh, [{"_axis_1"}]>} loc("p375.9885"), %arg376: tensor<512x2880xbf16> {sdy.sharding = #sdy.sharding<@mesh, [{"_axis_1"}, {"_axis_0"}]>} loc("p376.9889"), %arg377: tensor<2880xbf16> {sdy.sharding = #sdy.sharding<@mesh, [{"_axis_0"}]>} loc("p377.9894"), %arg378: tensor<128xbf16> {sdy.sharding = #sdy.sharding<@mesh, [{}]>} loc("p378.9906"), %arg379: tensor<128x2880xbf16> {sdy.sharding = #sdy.sharding<@mesh, [{}, {"_axis_0"}]>} loc("p379.9914"), %arg380: tensor<2880xbf16> {sdy.sharding = #sdy.sharding<@mesh, [{"_axis_0"}]>} loc("p380.9923"), %arg381: tensor<2880xbf16> {sdy.sharding = #sdy.sharding<@mesh, [{"_axis_0"}]>} loc("p381.9934"), %arg382: tensor<2880x4096xbf16> {sdy.sharding = #sdy.sharding<@mesh, [{"_axis_0"}, {"_axis_1"}]>} loc("p382.9938"), %arg383: tensor<64xbf16> {sdy.sharding = #sdy.sharding<@mesh, [{}]>} loc("p383.9949"), %arg384: tensor<4096xbf16> {sdy.sharding = #sdy.sharding<@mesh, [{"_axis_1"}]>} loc("p384.9967"), %arg385: tensor<4096x2880xbf16> {sdy.sharding = #sdy.sharding<@mesh, [{"_axis_1"}, {"_axis_0"}]>} loc("p385.9971"), %arg386: tensor<128x2880xbf16> {sdy.sharding = #sdy.sharding<@mesh, [{"_axis_1"}, {"_axis_0"}]>} loc("p386.10198"), %arg387: tensor<128x2880x2880xbf16> {sdy.sharding = #sdy.sharding<@mesh, [{"_axis_1"}, {}, {"_axis_0"}]>} loc("p387.10203"), %arg388: tensor<128x5760xbf16> {sdy.sharding = #sdy.sharding<@mesh, [{"_axis_1"}, {}]>} loc("p388.10210"), %arg389: tensor<128x2880x5760xbf16> {sdy.sharding = #sdy.sharding<@mesh, [{"_axis_1"}, {"_axis_0"}, {}]>} loc("p389.10215"), %arg390: tensor<64x8x128x64xbf16> {sdy.sharding = #sdy.sharding<@mesh, [{}, {"_axis_1"}, {}, {}]>} loc("p390.10343"), %arg391: tensor<512xbf16> {sdy.sharding = #sdy.sharding<@mesh, [{"_axis_1"}]>} loc("p391.10352"), %arg392: tensor<512x2880xbf16> {sdy.sharding = #sdy.sharding<@mesh, [{"_axis_1"}, {"_axis_0"}]>} loc("p392.10356"), %arg393: tensor<64x8x128x64xbf16> {sdy.sharding = #sdy.sharding<@mesh, [{}, {"_axis_1"}, {}, {}]>} loc("p393.10380"), %arg394: tensor<512xbf16> {sdy.sharding = #sdy.sharding<@mesh, [{"_axis_1"}]>} loc("p394.10391"), %arg395: tensor<512x2880xbf16> {sdy.sharding = #sdy.sharding<@mesh, [{"_axis_1"}, {"_axis_0"}]>} loc("p395.10395"), %arg396: tensor<2880xbf16> {sdy.sharding = #sdy.sharding<@mesh, [{"_axis_0"}]>} loc("p396.10400"), %arg397: tensor<128xbf16> {sdy.sharding = #sdy.sharding<@mesh, [{}]>} loc("p397.10412"), %arg398: tensor<128x2880xbf16> {sdy.sharding = #sdy.sharding<@mesh, [{}, {"_axis_0"}]>} loc("p398.10420"), %arg399: tensor<2880xbf16> {sdy.sharding = #sdy.sharding<@mesh, [{"_axis_0"}]>} loc("p399.10429"), %arg400: tensor<2880xbf16> {sdy.sharding = #sdy.sharding<@mesh, [{"_axis_0"}]>} loc("p400.10440"), %arg401: tensor<2880x4096xbf16> {sdy.sharding = #sdy.sharding<@mesh, [{"_axis_0"}, {"_axis_1"}]>} loc("p401.10444"), %arg402: tensor<64xbf16> {sdy.sharding = #sdy.sharding<@mesh, [{}]>} loc("p402.10455"), %arg403: tensor<4096xbf16> {sdy.sharding = #sdy.sharding<@mesh, [{"_axis_1"}]>} loc("p403.10473"), %arg404: tensor<4096x2880xbf16> {sdy.sharding = #sdy.sharding<@mesh, [{"_axis_1"}, {"_axis_0"}]>} loc("p404.10477"), %arg405: tensor<128x2880xbf16> {sdy.sharding = #sdy.sharding<@mesh, [{"_axis_1"}, {"_axis_0"}]>} loc("p405.10704"), %arg406: tensor<128x2880x2880xbf16> {sdy.sharding = #sdy.sharding<@mesh, [{"_axis_1"}, {}, {"_axis_0"}]>} loc("p406.10709"), %arg407: tensor<128x5760xbf16> {sdy.sharding = #sdy.sharding<@mesh, [{"_axis_1"}, {}]>} loc("p407.10716"), %arg408: tensor<128x2880x5760xbf16> {sdy.sharding = #sdy.sharding<@mesh, [{"_axis_1"}, {"_axis_0"}, {}]>} loc("p408.10721"), %arg409: tensor<64x8x128x64xbf16> {sdy.sharding = #sdy.sharding<@mesh, [{}, {"_axis_1"}, {}, {}]>} loc("p409.10849"), %arg410: tensor<512xbf16> {sdy.sharding = #sdy.sharding<@mesh, [{"_axis_1"}]>} loc("p410.10858"), %arg411: tensor<512x2880xbf16> {sdy.sharding = #sdy.sharding<@mesh, [{"_axis_1"}, {"_axis_0"}]>} loc("p411.10862"), %arg412: tensor<64x8x128x64xbf16> {sdy.sharding = #sdy.sharding<@mesh, [{}, {"_axis_1"}, {}, {}]>} loc("p412.10886"), %arg413: tensor<512xbf16> {sdy.sharding = #sdy.sharding<@mesh, [{"_axis_1"}]>} loc("p413.10897"), %arg414: tensor<512x2880xbf16> {sdy.sharding = #sdy.sharding<@mesh, [{"_axis_1"}, {"_axis_0"}]>} loc("p414.10901"), %arg415: tensor<2880xbf16> {sdy.sharding = #sdy.sharding<@mesh, [{"_axis_0"}]>} loc("p415.10906"), %arg416: tensor<128xbf16> {sdy.sharding = #sdy.sharding<@mesh, [{}]>} loc("p416.10918"), %arg417: tensor<128x2880xbf16> {sdy.sharding = #sdy.sharding<@mesh, [{}, {"_axis_0"}]>} loc("p417.10926"), %arg418: tensor<2880xbf16> {sdy.sharding = #sdy.sharding<@mesh, [{"_axis_0"}]>} loc("p418.10935"), %arg419: tensor<2880xbf16> {sdy.sharding = #sdy.sharding<@mesh, [{"_axis_0"}]>} loc("p419.10946"), %arg420: tensor<2880x4096xbf16> {sdy.sharding = #sdy.sharding<@mesh, [{"_axis_0"}, {"_axis_1"}]>} loc("p420.10950"), %arg421: tensor<64xbf16> {sdy.sharding = #sdy.sharding<@mesh, [{}]>} loc("p421.10961"), %arg422: tensor<4096xbf16> {sdy.sharding = #sdy.sharding<@mesh, [{"_axis_1"}]>} loc("p422.10979"), %arg423: tensor<4096x2880xbf16> {sdy.sharding = #sdy.sharding<@mesh, [{"_axis_1"}, {"_axis_0"}]>} loc("p423.10983"), %arg424: tensor<128x2880xbf16> {sdy.sharding = #sdy.sharding<@mesh, [{"_axis_1"}, {"_axis_0"}]>} loc("p424.11210"), %arg425: tensor<128x2880x2880xbf16> {sdy.sharding = #sdy.sharding<@mesh, [{"_axis_1"}, {}, {"_axis_0"}]>} loc("p425.11215"), %arg426: tensor<128x5760xbf16> {sdy.sharding = #sdy.sharding<@mesh, [{"_axis_1"}, {}]>} loc("p426.11222"), %arg427: tensor<128x2880x5760xbf16> {sdy.sharding = #sdy.sharding<@mesh, [{"_axis_1"}, {"_axis_0"}, {}]>} loc("p427.11227"), %arg428: tensor<64x8x128x64xbf16> {sdy.sharding = #sdy.sharding<@mesh, [{}, {"_axis_1"}, {}, {}]>} loc("p428.11355"), %arg429: tensor<512xbf16> {sdy.sharding = #sdy.sharding<@mesh, [{"_axis_1"}]>} loc("p429.11364"), %arg430: tensor<512x2880xbf16> {sdy.sharding = #sdy.sharding<@mesh, [{"_axis_1"}, {"_axis_0"}]>} loc("p430.11368"), %arg431: tensor<64x8x128x64xbf16> {sdy.sharding = #sdy.sharding<@mesh, [{}, {"_axis_1"}, {}, {}]>} loc("p431.11392"), %arg432: tensor<512xbf16> {sdy.sharding = #sdy.sharding<@mesh, [{"_axis_1"}]>} loc("p432.11403"), %arg433: tensor<512x2880xbf16> {sdy.sharding = #sdy.sharding<@mesh, [{"_axis_1"}, {"_axis_0"}]>} loc("p433.11407"), %arg434: tensor<2880xbf16> {sdy.sharding = #sdy.sharding<@mesh, [{"_axis_0"}]>} loc("p434.11412"), %arg435: tensor<128xbf16> {sdy.sharding = #sdy.sharding<@mesh, [{}]>} loc("p435.11424"), %arg436: tensor<128x2880xbf16> {sdy.sharding = #sdy.sharding<@mesh, [{}, {"_axis_0"}]>} loc("p436.11432"), %arg437: tensor<2880xbf16> {sdy.sharding = #sdy.sharding<@mesh, [{"_axis_0"}]>} loc("p437.11441"), %arg438: tensor<2880xbf16> {sdy.sharding = #sdy.sharding<@mesh, [{"_axis_0"}]>} loc("p438.11452"), %arg439: tensor<2880x4096xbf16> {sdy.sharding = #sdy.sharding<@mesh, [{"_axis_0"}, {"_axis_1"}]>} loc("p439.11456"), %arg440: tensor<64xbf16> {sdy.sharding = #sdy.sharding<@mesh, [{}]>} loc("p440.11467"), %arg441: tensor<4096xbf16> {sdy.sharding = #sdy.sharding<@mesh, [{"_axis_1"}]>} loc("p441.11485"), %arg442: tensor<4096x2880xbf16> {sdy.sharding = #sdy.sharding<@mesh, [{"_axis_1"}, {"_axis_0"}]>} loc("p442.11489"), %arg443: tensor<128x2880xbf16> {sdy.sharding = #sdy.sharding<@mesh, [{"_axis_1"}, {"_axis_0"}]>} loc("p443.11716"), %arg444: tensor<128x2880x2880xbf16> {sdy.sharding = #sdy.sharding<@mesh, [{"_axis_1"}, {}, {"_axis_0"}]>} loc("p444.11721"), %arg445: tensor<128x5760xbf16> {sdy.sharding = #sdy.sharding<@mesh, [{"_axis_1"}, {}]>} loc("p445.11728"), %arg446: tensor<128x2880x5760xbf16> {sdy.sharding = #sdy.sharding<@mesh, [{"_axis_1"}, {"_axis_0"}, {}]>} loc("p446.11733"), %arg447: tensor<64x8x128x64xbf16> {sdy.sharding = #sdy.sharding<@mesh, [{}, {"_axis_1"}, {}, {}]>} loc("p447.11861"), %arg448: tensor<512xbf16> {sdy.sharding = #sdy.sharding<@mesh, [{"_axis_1"}]>} loc("p448.11870"), %arg449: tensor<512x2880xbf16> {sdy.sharding = #sdy.sharding<@mesh, [{"_axis_1"}, {"_axis_0"}]>} loc("p449.11874"), %arg450: tensor<64x8x128x64xbf16> {sdy.sharding = #sdy.sharding<@mesh, [{}, {"_axis_1"}, {}, {}]>} loc("p450.11898"), %arg451: tensor<512xbf16> {sdy.sharding = #sdy.sharding<@mesh, [{"_axis_1"}]>} loc("p451.11909"), %arg452: tensor<512x2880xbf16> {sdy.sharding = #sdy.sharding<@mesh, [{"_axis_1"}, {"_axis_0"}]>} loc("p452.11913"), %arg453: tensor<2880xbf16> {sdy.sharding = #sdy.sharding<@mesh, [{"_axis_0"}]>} loc("p453.11918"), %arg454: tensor<128xbf16> {sdy.sharding = #sdy.sharding<@mesh, [{}]>} loc("p454.11930"), %arg455: tensor<128x2880xbf16> {sdy.sharding = #sdy.sharding<@mesh, [{}, {"_axis_0"}]>} loc("p455.11938"), %arg456: tensor<2880xbf16> {sdy.sharding = #sdy.sharding<@mesh, [{"_axis_0"}]>} loc("p456.11947"), %arg457: tensor<2880xbf16> {sdy.sharding = #sdy.sharding<@mesh, [{"_axis_0"}]>} loc("p457.11958"), %arg458: tensor<2880x4096xbf16> {sdy.sharding = #sdy.sharding<@mesh, [{"_axis_0"}, {"_axis_1"}]>} loc("p458.11962"), %arg459: tensor<64xbf16> {sdy.sharding = #sdy.sharding<@mesh, [{}]>} loc("p459.11973"), %arg460: tensor<4096xbf16> {sdy.sharding = #sdy.sharding<@mesh, [{"_axis_1"}]>} loc("p460.11991"), %arg461: tensor<4096x2880xbf16> {sdy.sharding = #sdy.sharding<@mesh, [{"_axis_1"}, {"_axis_0"}]>} loc("p461.11995"), %arg462: tensor<128x2880xbf16> {sdy.sharding = #sdy.sharding<@mesh, [{"_axis_1"}, {"_axis_0"}]>} loc("p462.12222"), %arg463: tensor<128x2880x2880xbf16> {sdy.sharding = #sdy.sharding<@mesh, [{"_axis_1"}, {}, {"_axis_0"}]>} loc("p463.12227"), %arg464: tensor<128x5760xbf16> {sdy.sharding = #sdy.sharding<@mesh, [{"_axis_1"}, {}]>} loc("p464.12234"), %arg465: tensor<128x2880x5760xbf16> {sdy.sharding = #sdy.sharding<@mesh, [{"_axis_1"}, {"_axis_0"}, {}]>} loc("p465.12239"), %arg466: tensor<64x8x128x64xbf16> {sdy.sharding = #sdy.sharding<@mesh, [{}, {"_axis_1"}, {}, {}]>} loc("p466.12367"), %arg467: tensor<512xbf16> {sdy.sharding = #sdy.sharding<@mesh, [{"_axis_1"}]>} loc("p467.12376"), %arg468: tensor<512x2880xbf16> {sdy.sharding = #sdy.sharding<@mesh, [{"_axis_1"}, {"_axis_0"}]>} loc("p468.12380"), %arg469: tensor<64x8x128x64xbf16> {sdy.sharding = #sdy.sharding<@mesh, [{}, {"_axis_1"}, {}, {}]>} loc("p469.12404"), %arg470: tensor<512xbf16> {sdy.sharding = #sdy.sharding<@mesh, [{"_axis_1"}]>} loc("p470.12415"), %arg471: tensor<512x2880xbf16> {sdy.sharding = #sdy.sharding<@mesh, [{"_axis_1"}, {"_axis_0"}]>} loc("p471.12419"), %arg472: tensor<2880xbf16> {sdy.sharding = #sdy.sharding<@mesh, [{"_axis_0"}]>} loc("p472.12424"), %arg473: tensor<128xbf16> {sdy.sharding = #sdy.sharding<@mesh, [{}]>} loc("p473.12436"), %arg474: tensor<128x2880xbf16> {sdy.sharding = #sdy.sharding<@mesh, [{}, {"_axis_0"}]>} loc("p474.12444"), %arg475: tensor<2880xbf16> {sdy.sharding = #sdy.sharding<@mesh, [{"_axis_0"}]>} loc("p475.12453"), %arg476: tensor<2880xbf16> {sdy.sharding = #sdy.sharding<@mesh, [{"_axis_0"}]>} loc("p476.12464"), %arg477: tensor<2880x4096xbf16> {sdy.sharding = #sdy.sharding<@mesh, [{"_axis_0"}, {"_axis_1"}]>} loc("p477.12468"), %arg478: tensor<64xbf16> {sdy.sharding = #sdy.sharding<@mesh, [{}]>} loc("p478.12479"), %arg479: tensor<4096xbf16> {sdy.sharding = #sdy.sharding<@mesh, [{"_axis_1"}]>} loc("p479.12497"), %arg480: tensor<4096x2880xbf16> {sdy.sharding = #sdy.sharding<@mesh, [{"_axis_1"}, {"_axis_0"}]>} loc("p480.12501"), %arg481: tensor<128x2880xbf16> {sdy.sharding = #sdy.sharding<@mesh, [{"_axis_1"}, {"_axis_0"}]>} loc("p481.12728"), %arg482: tensor<128x2880x2880xbf16> {sdy.sharding = #sdy.sharding<@mesh, [{"_axis_1"}, {}, {"_axis_0"}]>} loc("p482.12733"), %arg483: tensor<128x5760xbf16> {sdy.sharding = #sdy.sharding<@mesh, [{"_axis_1"}, {}]>} loc("p483.12740"), %arg484: tensor<128x2880x5760xbf16> {sdy.sharding = #sdy.sharding<@mesh, [{"_axis_1"}, {"_axis_0"}, {}]>} loc("p484.12745"), %arg485: tensor<64x8x128x64xbf16> {sdy.sharding = #sdy.sharding<@mesh, [{}, {"_axis_1"}, {}, {}]>} loc("p485.12873"), %arg486: tensor<512xbf16> {sdy.sharding = #sdy.sharding<@mesh, [{"_axis_1"}]>} loc("p486.12882"), %arg487: tensor<512x2880xbf16> {sdy.sharding = #sdy.sharding<@mesh, [{"_axis_1"}, {"_axis_0"}]>} loc("p487.12886"), %arg488: tensor<64x8x128x64xbf16> {sdy.sharding = #sdy.sharding<@mesh, [{}, {"_axis_1"}, {}, {}]>} loc("p488.12910"), %arg489: tensor<512xbf16> {sdy.sharding = #sdy.sharding<@mesh, [{"_axis_1"}]>} loc("p489.12921"), %arg490: tensor<512x2880xbf16> {sdy.sharding = #sdy.sharding<@mesh, [{"_axis_1"}, {"_axis_0"}]>} loc("p490.12925"), %arg491: tensor<2880xbf16> {sdy.sharding = #sdy.sharding<@mesh, [{"_axis_0"}]>} loc("p491.12930"), %arg492: tensor<128xbf16> {sdy.sharding = #sdy.sharding<@mesh, [{}]>} loc("p492.12942"), %arg493: tensor<128x2880xbf16> {sdy.sharding = #sdy.sharding<@mesh, [{}, {"_axis_0"}]>} loc("p493.12950"), %arg494: tensor<2880xbf16> {sdy.sharding = #sdy.sharding<@mesh, [{"_axis_0"}]>} loc("p494.12959"), %arg495: tensor<2880xbf16> {sdy.sharding = #sdy.sharding<@mesh, [{"_axis_0"}]>} loc("p495.12970"), %arg496: tensor<2880x4096xbf16> {sdy.sharding = #sdy.sharding<@mesh, [{"_axis_0"}, {"_axis_1"}]>} loc("p496.12974"), %arg497: tensor<64xbf16> {sdy.sharding = #sdy.sharding<@mesh, [{}]>} loc("p497.12985"), %arg498: tensor<4096xbf16> {sdy.sharding = #sdy.sharding<@mesh, [{"_axis_1"}]>} loc("p498.13003"), %arg499: tensor<4096x2880xbf16> {sdy.sharding = #sdy.sharding<@mesh, [{"_axis_1"}, {"_axis_0"}]>} loc("p499.13007"), %arg500: tensor<128x2880xbf16> {sdy.sharding = #sdy.sharding<@mesh, [{"_axis_1"}, {"_axis_0"}]>} loc("p500.13234"), %arg501: tensor<128x2880x2880xbf16> {sdy.sharding = #sdy.sharding<@mesh, [{"_axis_1"}, {}, {"_axis_0"}]>} loc("p501.13239"), %arg502: tensor<128x5760xbf16> {sdy.sharding = #sdy.sharding<@mesh, [{"_axis_1"}, {}]>} loc("p502.13246"), %arg503: tensor<128x2880x5760xbf16> {sdy.sharding = #sdy.sharding<@mesh, [{"_axis_1"}, {"_axis_0"}, {}]>} loc("p503.13251"), %arg504: tensor<64x8x128x64xbf16> {sdy.sharding = #sdy.sharding<@mesh, [{}, {"_axis_1"}, {}, {}]>} loc("p504.13379"), %arg505: tensor<512xbf16> {sdy.sharding = #sdy.sharding<@mesh, [{"_axis_1"}]>} loc("p505.13388"), %arg506: tensor<512x2880xbf16> {sdy.sharding = #sdy.sharding<@mesh, [{"_axis_1"}, {"_axis_0"}]>} loc("p506.13392"), %arg507: tensor<64x8x128x64xbf16> {sdy.sharding = #sdy.sharding<@mesh, [{}, {"_axis_1"}, {}, {}]>} loc("p507.13416"), %arg508: tensor<512xbf16> {sdy.sharding = #sdy.sharding<@mesh, [{"_axis_1"}]>} loc("p508.13427"), %arg509: tensor<512x2880xbf16> {sdy.sharding = #sdy.sharding<@mesh, [{"_axis_1"}, {"_axis_0"}]>} loc("p509.13431"), %arg510: tensor<2880xbf16> {sdy.sharding = #sdy.sharding<@mesh, [{"_axis_0"}]>} loc("p510.13436"), %arg511: tensor<128xbf16> {sdy.sharding = #sdy.sharding<@mesh, [{}]>} loc("p511.13448"), %arg512: tensor<128x2880xbf16> {sdy.sharding = #sdy.sharding<@mesh, [{}, {"_axis_0"}]>} loc("p512.13456"), %arg513: tensor<2880xbf16> {sdy.sharding = #sdy.sharding<@mesh, [{"_axis_0"}]>} loc("p513.13465"), %arg514: tensor<2880xbf16> {sdy.sharding = #sdy.sharding<@mesh, [{"_axis_0"}]>} loc("p514.13476"), %arg515: tensor<2880x4096xbf16> {sdy.sharding = #sdy.sharding<@mesh, [{"_axis_0"}, {"_axis_1"}]>} loc("p515.13480"), %arg516: tensor<64xbf16> {sdy.sharding = #sdy.sharding<@mesh, [{}]>} loc("p516.13491"), %arg517: tensor<4096xbf16> {sdy.sharding = #sdy.sharding<@mesh, [{"_axis_1"}]>} loc("p517.13509"), %arg518: tensor<4096x2880xbf16> {sdy.sharding = #sdy.sharding<@mesh, [{"_axis_1"}, {"_axis_0"}]>} loc("p518.13513"), %arg519: tensor<128x2880xbf16> {sdy.sharding = #sdy.sharding<@mesh, [{"_axis_1"}, {"_axis_0"}]>} loc("p519.13740"), %arg520: tensor<128x2880x2880xbf16> {sdy.sharding = #sdy.sharding<@mesh, [{"_axis_1"}, {}, {"_axis_0"}]>} loc("p520.13745"), %arg521: tensor<128x5760xbf16> {sdy.sharding = #sdy.sharding<@mesh, [{"_axis_1"}, {}]>} loc("p521.13752"), %arg522: tensor<128x2880x5760xbf16> {sdy.sharding = #sdy.sharding<@mesh, [{"_axis_1"}, {"_axis_0"}, {}]>} loc("p522.13757"), %arg523: tensor<64x8x128x64xbf16> {sdy.sharding = #sdy.sharding<@mesh, [{}, {"_axis_1"}, {}, {}]>} loc("p523.13885"), %arg524: tensor<512xbf16> {sdy.sharding = #sdy.sharding<@mesh, [{"_axis_1"}]>} loc("p524.13894"), %arg525: tensor<512x2880xbf16> {sdy.sharding = #sdy.sharding<@mesh, [{"_axis_1"}, {"_axis_0"}]>} loc("p525.13898"), %arg526: tensor<64x8x128x64xbf16> {sdy.sharding = #sdy.sharding<@mesh, [{}, {"_axis_1"}, {}, {}]>} loc("p526.13922"), %arg527: tensor<512xbf16> {sdy.sharding = #sdy.sharding<@mesh, [{"_axis_1"}]>} loc("p527.13933"), %arg528: tensor<512x2880xbf16> {sdy.sharding = #sdy.sharding<@mesh, [{"_axis_1"}, {"_axis_0"}]>} loc("p528.13937"), %arg529: tensor<2880xbf16> {sdy.sharding = #sdy.sharding<@mesh, [{"_axis_0"}]>} loc("p529.13942"), %arg530: tensor<128xbf16> {sdy.sharding = #sdy.sharding<@mesh, [{}]>} loc("p530.13954"), %arg531: tensor<128x2880xbf16> {sdy.sharding = #sdy.sharding<@mesh, [{}, {"_axis_0"}]>} loc("p531.13962"), %arg532: tensor<2880xbf16> {sdy.sharding = #sdy.sharding<@mesh, [{"_axis_0"}]>} loc("p532.13971"), %arg533: tensor<2880xbf16> {sdy.sharding = #sdy.sharding<@mesh, [{"_axis_0"}]>} loc("p533.13982"), %arg534: tensor<2880x4096xbf16> {sdy.sharding = #sdy.sharding<@mesh, [{"_axis_0"}, {"_axis_1"}]>} loc("p534.13986"), %arg535: tensor<64xbf16> {sdy.sharding = #sdy.sharding<@mesh, [{}]>} loc("p535.13997"), %arg536: tensor<4096xbf16> {sdy.sharding = #sdy.sharding<@mesh, [{"_axis_1"}]>} loc("p536.14015"), %arg537: tensor<4096x2880xbf16> {sdy.sharding = #sdy.sharding<@mesh, [{"_axis_1"}, {"_axis_0"}]>} loc("p537.14019"), %arg538: tensor<128x2880xbf16> {sdy.sharding = #sdy.sharding<@mesh, [{"_axis_1"}, {"_axis_0"}]>} loc("p538.14246"), %arg539: tensor<128x2880x2880xbf16> {sdy.sharding = #sdy.sharding<@mesh, [{"_axis_1"}, {}, {"_axis_0"}]>} loc("p539.14251"), %arg540: tensor<128x5760xbf16> {sdy.sharding = #sdy.sharding<@mesh, [{"_axis_1"}, {}]>} loc("p540.14258"), %arg541: tensor<128x2880x5760xbf16> {sdy.sharding = #sdy.sharding<@mesh, [{"_axis_1"}, {"_axis_0"}, {}]>} loc("p541.14263"), %arg542: tensor<64x8x128x64xbf16> {sdy.sharding = #sdy.sharding<@mesh, [{}, {"_axis_1"}, {}, {}]>} loc("p542.14391"), %arg543: tensor<512xbf16> {sdy.sharding = #sdy.sharding<@mesh, [{"_axis_1"}]>} loc("p543.14400"), %arg544: tensor<512x2880xbf16> {sdy.sharding = #sdy.sharding<@mesh, [{"_axis_1"}, {"_axis_0"}]>} loc("p544.14404"), %arg545: tensor<64x8x128x64xbf16> {sdy.sharding = #sdy.sharding<@mesh, [{}, {"_axis_1"}, {}, {}]>} loc("p545.14428"), %arg546: tensor<512xbf16> {sdy.sharding = #sdy.sharding<@mesh, [{"_axis_1"}]>} loc("p546.14439"), %arg547: tensor<512x2880xbf16> {sdy.sharding = #sdy.sharding<@mesh, [{"_axis_1"}, {"_axis_0"}]>} loc("p547.14443"), %arg548: tensor<2880xbf16> {sdy.sharding = #sdy.sharding<@mesh, [{"_axis_0"}]>} loc("p548.14448"), %arg549: tensor<128xbf16> {sdy.sharding = #sdy.sharding<@mesh, [{}]>} loc("p549.14460"), %arg550: tensor<128x2880xbf16> {sdy.sharding = #sdy.sharding<@mesh, [{}, {"_axis_0"}]>} loc("p550.14468"), %arg551: tensor<2880xbf16> {sdy.sharding = #sdy.sharding<@mesh, [{"_axis_0"}]>} loc("p551.14477"), %arg552: tensor<2880xbf16> {sdy.sharding = #sdy.sharding<@mesh, [{"_axis_0"}]>} loc("p552.14488"), %arg553: tensor<2880x4096xbf16> {sdy.sharding = #sdy.sharding<@mesh, [{"_axis_0"}, {"_axis_1"}]>} loc("p553.14492"), %arg554: tensor<64xbf16> {sdy.sharding = #sdy.sharding<@mesh, [{}]>} loc("p554.14503"), %arg555: tensor<4096xbf16> {sdy.sharding = #sdy.sharding<@mesh, [{"_axis_1"}]>} loc("p555.14521"), %arg556: tensor<4096x2880xbf16> {sdy.sharding = #sdy.sharding<@mesh, [{"_axis_1"}, {"_axis_0"}]>} loc("p556.14525"), %arg557: tensor<128x2880xbf16> {sdy.sharding = #sdy.sharding<@mesh, [{"_axis_1"}, {"_axis_0"}]>} loc("p557.14752"), %arg558: tensor<128x2880x2880xbf16> {sdy.sharding = #sdy.sharding<@mesh, [{"_axis_1"}, {}, {"_axis_0"}]>} loc("p558.14757"), %arg559: tensor<128x5760xbf16> {sdy.sharding = #sdy.sharding<@mesh, [{"_axis_1"}, {}]>} loc("p559.14764"), %arg560: tensor<128x2880x5760xbf16> {sdy.sharding = #sdy.sharding<@mesh, [{"_axis_1"}, {"_axis_0"}, {}]>} loc("p560.14769"), %arg561: tensor<64x8x128x64xbf16> {sdy.sharding = #sdy.sharding<@mesh, [{}, {"_axis_1"}, {}, {}]>} loc("p561.14897"), %arg562: tensor<512xbf16> {sdy.sharding = #sdy.sharding<@mesh, [{"_axis_1"}]>} loc("p562.14906"), %arg563: tensor<512x2880xbf16> {sdy.sharding = #sdy.sharding<@mesh, [{"_axis_1"}, {"_axis_0"}]>} loc("p563.14910"), %arg564: tensor<64x8x128x64xbf16> {sdy.sharding = #sdy.sharding<@mesh, [{}, {"_axis_1"}, {}, {}]>} loc("p564.14934"), %arg565: tensor<512xbf16> {sdy.sharding = #sdy.sharding<@mesh, [{"_axis_1"}]>} loc("p565.14945"), %arg566: tensor<512x2880xbf16> {sdy.sharding = #sdy.sharding<@mesh, [{"_axis_1"}, {"_axis_0"}]>} loc("p566.14949"), %arg567: tensor<2880xbf16> {sdy.sharding = #sdy.sharding<@mesh, [{"_axis_0"}]>} loc("p567.14954"), %arg568: tensor<128xbf16> {sdy.sharding = #sdy.sharding<@mesh, [{}]>} loc("p568.14966"), %arg569: tensor<128x2880xbf16> {sdy.sharding = #sdy.sharding<@mesh, [{}, {"_axis_0"}]>} loc("p569.14974"), %arg570: tensor<2880xbf16> {sdy.sharding = #sdy.sharding<@mesh, [{"_axis_0"}]>} loc("p570.14983"), %arg571: tensor<2880xbf16> {sdy.sharding = #sdy.sharding<@mesh, [{"_axis_0"}]>} loc("p571.14994"), %arg572: tensor<2880x4096xbf16> {sdy.sharding = #sdy.sharding<@mesh, [{"_axis_0"}, {"_axis_1"}]>} loc("p572.14998"), %arg573: tensor<64xbf16> {sdy.sharding = #sdy.sharding<@mesh, [{}]>} loc("p573.15009"), %arg574: tensor<4096xbf16> {sdy.sharding = #sdy.sharding<@mesh, [{"_axis_1"}]>} loc("p574.15027"), %arg575: tensor<4096x2880xbf16> {sdy.sharding = #sdy.sharding<@mesh, [{"_axis_1"}, {"_axis_0"}]>} loc("p575.15031"), %arg576: tensor<128x2880xbf16> {sdy.sharding = #sdy.sharding<@mesh, [{"_axis_1"}, {"_axis_0"}]>} loc("p576.15258"), %arg577: tensor<128x2880x2880xbf16> {sdy.sharding = #sdy.sharding<@mesh, [{"_axis_1"}, {}, {"_axis_0"}]>} loc("p577.15263"), %arg578: tensor<128x5760xbf16> {sdy.sharding = #sdy.sharding<@mesh, [{"_axis_1"}, {}]>} loc("p578.15270"), %arg579: tensor<128x2880x5760xbf16> {sdy.sharding = #sdy.sharding<@mesh, [{"_axis_1"}, {"_axis_0"}, {}]>} loc("p579.15275"), %arg580: tensor<64x8x128x64xbf16> {sdy.sharding = #sdy.sharding<@mesh, [{}, {"_axis_1"}, {}, {}]>} loc("p580.15403"), %arg581: tensor<512xbf16> {sdy.sharding = #sdy.sharding<@mesh, [{"_axis_1"}]>} loc("p581.15412"), %arg582: tensor<512x2880xbf16> {sdy.sharding = #sdy.sharding<@mesh, [{"_axis_1"}, {"_axis_0"}]>} loc("p582.15416"), %arg583: tensor<64x8x128x64xbf16> {sdy.sharding = #sdy.sharding<@mesh, [{}, {"_axis_1"}, {}, {}]>} loc("p583.15440"), %arg584: tensor<512xbf16> {sdy.sharding = #sdy.sharding<@mesh, [{"_axis_1"}]>} loc("p584.15451"), %arg585: tensor<512x2880xbf16> {sdy.sharding = #sdy.sharding<@mesh, [{"_axis_1"}, {"_axis_0"}]>} loc("p585.15455"), %arg586: tensor<2880xbf16> {sdy.sharding = #sdy.sharding<@mesh, [{"_axis_0"}]>} loc("p586.15460"), %arg587: tensor<128xbf16> {sdy.sharding = #sdy.sharding<@mesh, [{}]>} loc("p587.15472"), %arg588: tensor<128x2880xbf16> {sdy.sharding = #sdy.sharding<@mesh, [{}, {"_axis_0"}]>} loc("p588.15480"), %arg589: tensor<2880xbf16> {sdy.sharding = #sdy.sharding<@mesh, [{"_axis_0"}]>} loc("p589.15489"), %arg590: tensor<2880xbf16> {sdy.sharding = #sdy.sharding<@mesh, [{"_axis_0"}]>} loc("p590.15500"), %arg591: tensor<2880x4096xbf16> {sdy.sharding = #sdy.sharding<@mesh, [{"_axis_0"}, {"_axis_1"}]>} loc("p591.15504"), %arg592: tensor<64xbf16> {sdy.sharding = #sdy.sharding<@mesh, [{}]>} loc("p592.15515"), %arg593: tensor<4096xbf16> {sdy.sharding = #sdy.sharding<@mesh, [{"_axis_1"}]>} loc("p593.15533"), %arg594: tensor<4096x2880xbf16> {sdy.sharding = #sdy.sharding<@mesh, [{"_axis_1"}, {"_axis_0"}]>} loc("p594.15537"), %arg595: tensor<128x2880xbf16> {sdy.sharding = #sdy.sharding<@mesh, [{"_axis_1"}, {"_axis_0"}]>} loc("p595.15764"), %arg596: tensor<128x2880x2880xbf16> {sdy.sharding = #sdy.sharding<@mesh, [{"_axis_1"}, {}, {"_axis_0"}]>} loc("p596.15769"), %arg597: tensor<128x5760xbf16> {sdy.sharding = #sdy.sharding<@mesh, [{"_axis_1"}, {}]>} loc("p597.15776"), %arg598: tensor<128x2880x5760xbf16> {sdy.sharding = #sdy.sharding<@mesh, [{"_axis_1"}, {"_axis_0"}, {}]>} loc("p598.15781"), %arg599: tensor<64x8x128x64xbf16> {sdy.sharding = #sdy.sharding<@mesh, [{}, {"_axis_1"}, {}, {}]>} loc("p599.15909"), %arg600: tensor<512xbf16> {sdy.sharding = #sdy.sharding<@mesh, [{"_axis_1"}]>} loc("p600.15918"), %arg601: tensor<512x2880xbf16> {sdy.sharding = #sdy.sharding<@mesh, [{"_axis_1"}, {"_axis_0"}]>} loc("p601.15922"), %arg602: tensor<64x8x128x64xbf16> {sdy.sharding = #sdy.sharding<@mesh, [{}, {"_axis_1"}, {}, {}]>} loc("p602.15946"), %arg603: tensor<512xbf16> {sdy.sharding = #sdy.sharding<@mesh, [{"_axis_1"}]>} loc("p603.15957"), %arg604: tensor<512x2880xbf16> {sdy.sharding = #sdy.sharding<@mesh, [{"_axis_1"}, {"_axis_0"}]>} loc("p604.15961"), %arg605: tensor<2880xbf16> {sdy.sharding = #sdy.sharding<@mesh, [{"_axis_0"}]>} loc("p605.15966"), %arg606: tensor<128xbf16> {sdy.sharding = #sdy.sharding<@mesh, [{}]>} loc("p606.15978"), %arg607: tensor<128x2880xbf16> {sdy.sharding = #sdy.sharding<@mesh, [{}, {"_axis_0"}]>} loc("p607.15986"), %arg608: tensor<2880xbf16> {sdy.sharding = #sdy.sharding<@mesh, [{"_axis_0"}]>} loc("p608.15995"), %arg609: tensor<2880xbf16> {sdy.sharding = #sdy.sharding<@mesh, [{"_axis_0"}]>} loc("p609.16006"), %arg610: tensor<2880x4096xbf16> {sdy.sharding = #sdy.sharding<@mesh, [{"_axis_0"}, {"_axis_1"}]>} loc("p610.16010"), %arg611: tensor<64xbf16> {sdy.sharding = #sdy.sharding<@mesh, [{}]>} loc("p611.16021"), %arg612: tensor<4096xbf16> {sdy.sharding = #sdy.sharding<@mesh, [{"_axis_1"}]>} loc("p612.16039"), %arg613: tensor<4096x2880xbf16> {sdy.sharding = #sdy.sharding<@mesh, [{"_axis_1"}, {"_axis_0"}]>} loc("p613.16043"), %arg614: tensor<128x2880xbf16> {sdy.sharding = #sdy.sharding<@mesh, [{"_axis_1"}, {"_axis_0"}]>} loc("p614.16270"), %arg615: tensor<128x2880x2880xbf16> {sdy.sharding = #sdy.sharding<@mesh, [{"_axis_1"}, {}, {"_axis_0"}]>} loc("p615.16275"), %arg616: tensor<128x5760xbf16> {sdy.sharding = #sdy.sharding<@mesh, [{"_axis_1"}, {}]>} loc("p616.16282"), %arg617: tensor<128x2880x5760xbf16> {sdy.sharding = #sdy.sharding<@mesh, [{"_axis_1"}, {"_axis_0"}, {}]>} loc("p617.16287"), %arg618: tensor<64x8x128x64xbf16> {sdy.sharding = #sdy.sharding<@mesh, [{}, {"_axis_1"}, {}, {}]>} loc("p618.16415"), %arg619: tensor<512xbf16> {sdy.sharding = #sdy.sharding<@mesh, [{"_axis_1"}]>} loc("p619.16424"), %arg620: tensor<512x2880xbf16> {sdy.sharding = #sdy.sharding<@mesh, [{"_axis_1"}, {"_axis_0"}]>} loc("p620.16428"), %arg621: tensor<64x8x128x64xbf16> {sdy.sharding = #sdy.sharding<@mesh, [{}, {"_axis_1"}, {}, {}]>} loc("p621.16452"), %arg622: tensor<512xbf16> {sdy.sharding = #sdy.sharding<@mesh, [{"_axis_1"}]>} loc("p622.16463"), %arg623: tensor<512x2880xbf16> {sdy.sharding = #sdy.sharding<@mesh, [{"_axis_1"}, {"_axis_0"}]>} loc("p623.16467"), %arg624: tensor<2880xbf16> {sdy.sharding = #sdy.sharding<@mesh, [{"_axis_0"}]>} loc("p624.16472"), %arg625: tensor<128xbf16> {sdy.sharding = #sdy.sharding<@mesh, [{}]>} loc("p625.16484"), %arg626: tensor<128x2880xbf16> {sdy.sharding = #sdy.sharding<@mesh, [{}, {"_axis_0"}]>} loc("p626.16492"), %arg627: tensor<2880xbf16> {sdy.sharding = #sdy.sharding<@mesh, [{"_axis_0"}]>} loc("p627.16501"), %arg628: tensor<2880xbf16> {sdy.sharding = #sdy.sharding<@mesh, [{"_axis_0"}]>} loc("p628.16512"), %arg629: tensor<2880x4096xbf16> {sdy.sharding = #sdy.sharding<@mesh, [{"_axis_0"}, {"_axis_1"}]>} loc("p629.16516"), %arg630: tensor<64xbf16> {sdy.sharding = #sdy.sharding<@mesh, [{}]>} loc("p630.16527"), %arg631: tensor<4096xbf16> {sdy.sharding = #sdy.sharding<@mesh, [{"_axis_1"}]>} loc("p631.16545"), %arg632: tensor<4096x2880xbf16> {sdy.sharding = #sdy.sharding<@mesh, [{"_axis_1"}, {"_axis_0"}]>} loc("p632.16549"), %arg633: tensor<128x2880xbf16> {sdy.sharding = #sdy.sharding<@mesh, [{"_axis_1"}, {"_axis_0"}]>} loc("p633.16776"), %arg634: tensor<128x2880x2880xbf16> {sdy.sharding = #sdy.sharding<@mesh, [{"_axis_1"}, {}, {"_axis_0"}]>} loc("p634.16781"), %arg635: tensor<128x5760xbf16> {sdy.sharding = #sdy.sharding<@mesh, [{"_axis_1"}, {}]>} loc("p635.16788"), %arg636: tensor<128x2880x5760xbf16> {sdy.sharding = #sdy.sharding<@mesh, [{"_axis_1"}, {"_axis_0"}, {}]>} loc("p636.16793"), %arg637: tensor<64x8x128x64xbf16> {sdy.sharding = #sdy.sharding<@mesh, [{}, {"_axis_1"}, {}, {}]>} loc("p637.16921"), %arg638: tensor<512xbf16> {sdy.sharding = #sdy.sharding<@mesh, [{"_axis_1"}]>} loc("p638.16930"), %arg639: tensor<512x2880xbf16> {sdy.sharding = #sdy.sharding<@mesh, [{"_axis_1"}, {"_axis_0"}]>} loc("p639.16934"), %arg640: tensor<64x8x128x64xbf16> {sdy.sharding = #sdy.sharding<@mesh, [{}, {"_axis_1"}, {}, {}]>} loc("p640.16958"), %arg641: tensor<512xbf16> {sdy.sharding = #sdy.sharding<@mesh, [{"_axis_1"}]>} loc("p641.16969"), %arg642: tensor<512x2880xbf16> {sdy.sharding = #sdy.sharding<@mesh, [{"_axis_1"}, {"_axis_0"}]>} loc("p642.16973"), %arg643: tensor<2880xbf16> {sdy.sharding = #sdy.sharding<@mesh, [{"_axis_0"}]>} loc("p643.16978"), %arg644: tensor<128xbf16> {sdy.sharding = #sdy.sharding<@mesh, [{}]>} loc("p644.16990"), %arg645: tensor<128x2880xbf16> {sdy.sharding = #sdy.sharding<@mesh, [{}, {"_axis_0"}]>} loc("p645.16998"), %arg646: tensor<2880xbf16> {sdy.sharding = #sdy.sharding<@mesh, [{"_axis_0"}]>} loc("p646.17007"), %arg647: tensor<2880xbf16> {sdy.sharding = #sdy.sharding<@mesh, [{"_axis_0"}]>} loc("p647.17018"), %arg648: tensor<2880x4096xbf16> {sdy.sharding = #sdy.sharding<@mesh, [{"_axis_0"}, {"_axis_1"}]>} loc("p648.17022"), %arg649: tensor<64xbf16> {sdy.sharding = #sdy.sharding<@mesh, [{}]>} loc("p649.17033"), %arg650: tensor<4096xbf16> {sdy.sharding = #sdy.sharding<@mesh, [{"_axis_1"}]>} loc("p650.17051"), %arg651: tensor<4096x2880xbf16> {sdy.sharding = #sdy.sharding<@mesh, [{"_axis_1"}, {"_axis_0"}]>} loc("p651.17055"), %arg652: tensor<128x2880xbf16> {sdy.sharding = #sdy.sharding<@mesh, [{"_axis_1"}, {"_axis_0"}]>} loc("p652.17282"), %arg653: tensor<128x2880x2880xbf16> {sdy.sharding = #sdy.sharding<@mesh, [{"_axis_1"}, {}, {"_axis_0"}]>} loc("p653.17287"), %arg654: tensor<128x5760xbf16> {sdy.sharding = #sdy.sharding<@mesh, [{"_axis_1"}, {}]>} loc("p654.17294"), %arg655: tensor<128x2880x5760xbf16> {sdy.sharding = #sdy.sharding<@mesh, [{"_axis_1"}, {"_axis_0"}, {}]>} loc("p655.17299"), %arg656: tensor<64x8x128x64xbf16> {sdy.sharding = #sdy.sharding<@mesh, [{}, {"_axis_1"}, {}, {}]>} loc("p656.17427"), %arg657: tensor<512xbf16> {sdy.sharding = #sdy.sharding<@mesh, [{"_axis_1"}]>} loc("p657.17436"), %arg658: tensor<512x2880xbf16> {sdy.sharding = #sdy.sharding<@mesh, [{"_axis_1"}, {"_axis_0"}]>} loc("p658.17440"), %arg659: tensor<64x8x128x64xbf16> {sdy.sharding = #sdy.sharding<@mesh, [{}, {"_axis_1"}, {}, {}]>} loc("p659.17464"), %arg660: tensor<512xbf16> {sdy.sharding = #sdy.sharding<@mesh, [{"_axis_1"}]>} loc("p660.17475"), %arg661: tensor<512x2880xbf16> {sdy.sharding = #sdy.sharding<@mesh, [{"_axis_1"}, {"_axis_0"}]>} loc("p661.17479"), %arg662: tensor<2880xbf16> {sdy.sharding = #sdy.sharding<@mesh, [{"_axis_0"}]>} loc("p662.17484"), %arg663: tensor<128xbf16> {sdy.sharding = #sdy.sharding<@mesh, [{}]>} loc("p663.17496"), %arg664: tensor<128x2880xbf16> {sdy.sharding = #sdy.sharding<@mesh, [{}, {"_axis_0"}]>} loc("p664.17504"), %arg665: tensor<2880xbf16> {sdy.sharding = #sdy.sharding<@mesh, [{"_axis_0"}]>} loc("p665.17513"), %arg666: tensor<2880xbf16> {sdy.sharding = #sdy.sharding<@mesh, [{"_axis_0"}]>} loc("p666.17524"), %arg667: tensor<2880x4096xbf16> {sdy.sharding = #sdy.sharding<@mesh, [{"_axis_0"}, {"_axis_1"}]>} loc("p667.17528"), %arg668: tensor<64xbf16> {sdy.sharding = #sdy.sharding<@mesh, [{}]>} loc("p668.17539"), %arg669: tensor<4096xbf16> {sdy.sharding = #sdy.sharding<@mesh, [{"_axis_1"}]>} loc("p669.17557"), %arg670: tensor<4096x2880xbf16> {sdy.sharding = #sdy.sharding<@mesh, [{"_axis_1"}, {"_axis_0"}]>} loc("p670.17561"), %arg671: tensor<128x2880xbf16> {sdy.sharding = #sdy.sharding<@mesh, [{"_axis_1"}, {"_axis_0"}]>} loc("p671.17788"), %arg672: tensor<128x2880x2880xbf16> {sdy.sharding = #sdy.sharding<@mesh, [{"_axis_1"}, {}, {"_axis_0"}]>} loc("p672.17793"), %arg673: tensor<128x5760xbf16> {sdy.sharding = #sdy.sharding<@mesh, [{"_axis_1"}, {}]>} loc("p673.17800"), %arg674: tensor<128x2880x5760xbf16> {sdy.sharding = #sdy.sharding<@mesh, [{"_axis_1"}, {"_axis_0"}, {}]>} loc("p674.17805"), %arg675: tensor<64x8x128x64xbf16> {sdy.sharding = #sdy.sharding<@mesh, [{}, {"_axis_1"}, {}, {}]>} loc("p675.17933"), %arg676: tensor<512xbf16> {sdy.sharding = #sdy.sharding<@mesh, [{"_axis_1"}]>} loc("p676.17942"), %arg677: tensor<512x2880xbf16> {sdy.sharding = #sdy.sharding<@mesh, [{"_axis_1"}, {"_axis_0"}]>} loc("p677.17946"), %arg678: tensor<64x8x128x64xbf16> {sdy.sharding = #sdy.sharding<@mesh, [{}, {"_axis_1"}, {}, {}]>} loc("p678.17970"), %arg679: tensor<201088x2880xbf16> {sdy.sharding = #sdy.sharding<@mesh, [{"_axis_1"}, {"_axis_0"}]>} loc("p679.17984"), %arg680: tensor<2880xbf16> {sdy.sharding = #sdy.sharding<@mesh, [{"_axis_0"}]>} loc("p680.17989"), %arg681: tensor<128xbf16> {sdy.sharding = #sdy.sharding<@mesh, [{}]>} loc("p681.18001"), %arg682: tensor<128x2880xbf16> {sdy.sharding = #sdy.sharding<@mesh, [{}, {"_axis_0"}]>} loc("p682.18009"), %arg683: tensor<2880xbf16> {sdy.sharding = #sdy.sharding<@mesh, [{"_axis_0"}]>} loc("p683.18018"), %arg684: tensor<2880xbf16> {sdy.sharding = #sdy.sharding<@mesh, [{"_axis_0"}]>} loc("p684.18029"), %arg685: tensor<2880x4096xbf16> {sdy.sharding = #sdy.sharding<@mesh, [{"_axis_0"}, {"_axis_1"}]>} loc("p685.18033"), %arg686: tensor<64xbf16> {sdy.sharding = #sdy.sharding<@mesh, [{}]>} loc("p686.18044"), %arg687: tensor<4096xbf16> {sdy.sharding = #sdy.sharding<@mesh, [{"_axis_1"}]>} loc("p687.18062"), %arg688: tensor<4096x2880xbf16> {sdy.sharding = #sdy.sharding<@mesh, [{"_axis_1"}, {"_axis_0"}]>} loc("p688.18066"), %arg689: tensor<128x2880xbf16> {sdy.sharding = #sdy.sharding<@mesh, [{"_axis_1"}, {"_axis_0"}]>} loc("p689.18293"), %arg690: tensor<128x2880x2880xbf16> {sdy.sharding = #sdy.sharding<@mesh, [{"_axis_1"}, {}, {"_axis_0"}]>} loc("p690.18298"), %arg691: tensor<128x5760xbf16> {sdy.sharding = #sdy.sharding<@mesh, [{"_axis_1"}, {}]>} loc("p691.18305"), %arg692: tensor<128x2880x5760xbf16> {sdy.sharding = #sdy.sharding<@mesh, [{"_axis_1"}, {"_axis_0"}, {}]>} loc("p692.18310")) -> (tensor<64x8x128x64xbf16>, tensor<64x8x128x64xbf16>, tensor<64x8x128x64xbf16>, tensor<64x8x128x64xbf16>, tensor<64x8x128x64xbf16>, tensor<64x8x128x64xbf16>, tensor<64x8x128x64xbf16>, tensor<64x8x128x64xbf16>, tensor<64x8x128x64xbf16>, tensor<64x8x128x64xbf16>, tensor<64x8x128x64xbf16>, tensor<64x8x128x64xbf16>, tensor<64x8x128x64xbf16>, tensor<64x8x128x64xbf16>, tensor<64x8x128x64xbf16>, tensor<64x8x128x64xbf16>, tensor<64x8x128x64xbf16>, tensor<64x8x128x64xbf16>, tensor<64x8x128x64xbf16>, tensor<64x8x128x64xbf16>, tensor<64x8x128x64xbf16>, tensor<64x8x128x64xbf16>, tensor<64x8x128x64xbf16>, tensor<64x8x128x64xbf16>, tensor<64x8x128x64xbf16>, tensor<64x8x128x64xbf16>, tensor<64x8x128x64xbf16>, tensor<64x8x128x64xbf16>, tensor<64x8x128x64xbf16>, tensor<64x8x128x64xbf16>, tensor<64x8x128x64xbf16>, tensor<64x8x128x64xbf16>, tensor<64x8x128x64xbf16>, tensor<64x8x128x64xbf16>, tensor<64x8x128x64xbf16>, tensor<64x8x128x64xbf16>, tensor<64x8x128x64xbf16>, tensor<64x8x128x64xbf16>, tensor<64x8x128x64xbf16>, tensor<64x8x128x64xbf16>, tensor<64x8x128x64xbf16>, tensor<64x8x128x64xbf16>, tensor<64x8x128x64xbf16>, tensor<64x8x128x64xbf16>, tensor<64x8x128x64xbf16>, tensor<64x8x128x64xbf16>, tensor<64x8x128x64xbf16>, tensor<64x8x128x64xbf16>, tensor<64x8x128x64xbf16>, tensor<64x8x128x64xbf16>, tensor<64x8x128x64xbf16>, tensor<64x8x128x64xbf16>, tensor<64x8x128x64xbf16>, tensor<64x8x128x64xbf16>, tensor<64x8x128x64xbf16>, tensor<64x8x128x64xbf16>, tensor<64x8x128x64xbf16>, tensor<64x8x128x64xbf16>, tensor<64x8x128x64xbf16>, tensor<64x8x128x64xbf16>, tensor<64x8x128x64xbf16>, tensor<64x8x128x64xbf16>, tensor<64x8x128x64xbf16>, tensor<64x8x128x64xbf16>, tensor<64x8x128x64xbf16>, tensor<64x8x128x64xbf16>, tensor<64x8x128x64xbf16>, tensor<64x8x128x64xbf16>, tensor<64x8x128x64xbf16>, tensor<64x8x128x64xbf16>, tensor<64x8x128x64xbf16>, tensor<64x8x128x64xbf16>, tensor<1xi64>, tensor<64x1x201088xbf16>, tensor<64x1xi64>) {
    %0 = sdy.constant dense<1> : tensor<1xi64> loc(#loc)
    %1 = sdy.constant dense<1.703130e+00> : tensor<bf16> loc(#loc)
    %2 = stablehlo.broadcast_in_dim %1, dims = [] : (tensor<bf16>) -> tensor<128x64x2880xbf16> loc(#loc)
    %3 = sdy.constant dense<0xFF80> : tensor<bf16> loc(#loc)
    %4 = stablehlo.broadcast_in_dim %3, dims = [] : (tensor<bf16>) -> tensor<128x64x2880xbf16> loc(#loc)
    %5 = sdy.constant dense<1.000000e+00> : tensor<bf16> loc(#loc)
    %6 = stablehlo.broadcast_in_dim %5, dims = [] : (tensor<bf16>) -> tensor<128x64x2880xbf16> loc(#loc)
    %7 = sdy.constant dense<7.000000e+00> : tensor<bf16> loc(#loc)
    %8 = stablehlo.broadcast_in_dim %7, dims = [] : (tensor<bf16>) -> tensor<128x64x2880xbf16> loc(#loc)
    %9 = sdy.constant dense<-7.000000e+00> : tensor<bf16> loc(#loc)
    %10 = stablehlo.broadcast_in_dim %9, dims = [] : (tensor<bf16>) -> tensor<128x64x2880xbf16> loc(#loc)
    %11 = sdy.constant dense<-3.389530e+38> : tensor<bf16> loc(#loc)
    %12 = stablehlo.broadcast_in_dim %11, dims = [] : (tensor<bf16>) -> tensor<64x1x1x128xbf16> loc(#loc)
    %13 = sdy.constant dense<128> : tensor<1x1x1x1xi64> loc(#loc)
    %14 = sdy.constant dense<"…"> : tensor<1x1x1x128xi64> loc(#loc)
    %15 = sdy.constant dense<1.250000e-01> : tensor<bf16> loc(#loc)
    %16 = stablehlo.broadcast_in_dim %15, dims = [] : (tensor<bf16>) -> tensor<64x64x1x128xbf16> loc(#loc)
    %17 = sdy.constant dense<128> : tensor<1xi64> loc(#loc)
    %18 = sdy.constant dense<0> : tensor<1xi64> loc(#loc)
    %19 = sdy.constant dense<1.34657359> : tensor<f32> loc(#loc)
    %20 = stablehlo.broadcast_in_dim %19, dims = [] : (tensor<f32>) -> tensor<1x1x32xf32> loc(#loc)
    %21 = sdy.constant dense<0.000000e+00> : tensor<bf16> loc(#loc)
    %22 = sdy.constant dense<0xFF80> : tensor<bf16> loc(#loc)
    %23 = sdy.constant dense<"…"> : tensor<128xi64> loc(#loc)
    %24 = sdy.constant dense<0> : tensor<i32> loc(#loc)
    %25 = stablehlo.reshape %arg6 : (tensor<201088x2880xbf16>) -> tensor<1x201088x2880xbf16> loc(#loc694)
    %26 = stablehlo.custom_call @tt.mark_argument(%25) {api_version = 0 : i32, mhlo.frontend_attributes = {ttcore.argument_type = "parameter", ttir.name = "model.model.embed_tokens.weight"}} : (tensor<1x201088x2880xbf16>) -> tensor<1x201088x2880xbf16> loc(#loc695)
    %27 = stablehlo.reshape %26 : (tensor<1x201088x2880xbf16>) -> tensor<201088x2880xbf16> loc(#loc696)
    %28 = stablehlo.reshape %arg5 : (tensor<64x1xi64>) -> tensor<1x64x1xi64> loc(#loc697)
    %29 = stablehlo.custom_call @tt.mark_argument(%28) {api_version = 0 : i32, mhlo.frontend_attributes = {ttcore.argument_type = "input", ttir.name = "args_0"}} : (tensor<1x64x1xi64>) -> tensor<1x64x1xi64> loc(#loc698)
    %30 = stablehlo.reshape %29 : (tensor<1x64x1xi64>) -> tensor<64xi64> loc(#loc699)
    %31 = stablehlo.convert %30 : (tensor<64xi64>) -> tensor<64xui32> loc(#loc700)
    %32 = "stablehlo.gather"(%27, %31) <{dimension_numbers = #stablehlo.gather<offset_dims = [1], collapsed_slice_dims = [0], start_index_map = [0], index_vector_dim = 1>, slice_sizes = array<i64: 1, 2880>}> : (tensor<201088x2880xbf16>, tensor<64xui32>) -> tensor<64x2880xbf16> loc(#loc701)
    %33 = stablehlo.reshape %32 : (tensor<64x2880xbf16>) -> tensor<64x1x2880xbf16> loc(#loc702)
    %34 = stablehlo.reshape %arg4 : (tensor<2880xbf16>) -> tensor<1x1x2880xbf16> loc(#loc703)
    %35 = stablehlo.custom_call @tt.mark_argument(%34) {api_version = 0 : i32, mhlo.frontend_attributes = {ttcore.argument_type = "parameter", ttir.name = "model.model.layers.0.input_layernorm.weight"}} : (tensor<1x1x2880xbf16>) -> tensor<1x1x2880xbf16> loc(#loc704)
    %36 = stablehlo.reshape %35 : (tensor<1x1x2880xbf16>) -> tensor<2880xbf16> loc(#loc705)
    %37 = stablehlo.composite "tenstorrent.rms_norm" %33, %36 {composite_attributes = {epsilon = 9.99999974E-6 : f32, normalized_shape = dense<2880> : tensor<1xi64>}, decomposition = @tenstorrent.rms_norm.impl_58} : (tensor<64x1x2880xbf16>, tensor<2880xbf16>) -> tensor<64x1x2880xbf16> loc(#loc706)
    %38 = stablehlo.reshape %37 : (tensor<64x1x2880xbf16>) -> tensor<64x2880xbf16> loc(#loc707)
    %39 = stablehlo.reshape %arg23 : (tensor<4096x2880xbf16>) -> tensor<1x4096x2880xbf16> loc(#loc708)
    %40 = stablehlo.custom_call @tt.mark_argument(%39) {api_version = 0 : i32, mhlo.frontend_attributes = {ttcore.argument_type = "parameter", ttir.name = "self___model_model_layers_0_self_attn_q_proj__parameters__weight"}} : (tensor<1x4096x2880xbf16>) -> tensor<1x4096x2880xbf16> loc(#loc709)
    %41 = stablehlo.reshape %40 : (tensor<1x4096x2880xbf16>) -> tensor<4096x2880xbf16> loc(#loc710)
    %42 = stablehlo.transpose %41, dims = [1, 0] {result_layout = dense<[0, 1]> : tensor<2xindex>, xla_shape = "bf16[2880,4096]{0,1}"} : (tensor<4096x2880xbf16>) -> tensor<2880x4096xbf16> loc(#loc711)
    %43 = stablehlo.dot_general %38, %42, contracting_dims = [1] x [0] : (tensor<64x2880xbf16>, tensor<2880x4096xbf16>) -> tensor<64x4096xbf16> loc(#loc712)
    %44 = stablehlo.reshape %43 : (tensor<64x4096xbf16>) -> tensor<64x1x4096xbf16> loc(#loc713)
    %45 = stablehlo.reshape %arg22 : (tensor<4096xbf16>) -> tensor<1x1x4096xbf16> loc(#loc714)
    %46 = stablehlo.custom_call @tt.mark_argument(%45) {api_version = 0 : i32, mhlo.frontend_attributes = {ttcore.argument_type = "parameter", ttir.name = "self___model_model_layers_0_self_attn_q_proj__parameters__bias"}} : (tensor<1x1x4096xbf16>) -> tensor<1x1x4096xbf16> loc(#loc715)
    %47 = stablehlo.reshape %46 : (tensor<1x1x4096xbf16>) -> tensor<4096xbf16> loc(#loc716)
    %48 = stablehlo.broadcast_in_dim %47, dims = [2] : (tensor<4096xbf16>) -> tensor<64x1x4096xbf16> loc(#loc717)
    %49 = stablehlo.add %44, %48 : tensor<64x1x4096xbf16> loc(#loc718)
    %50 = stablehlo.reshape %49 : (tensor<64x1x4096xbf16>) -> tensor<64x64x1x64xbf16> loc(#loc719)
    %51 = stablehlo.slice %50 [0:64, 0:64, 0:1, 0:32] : (tensor<64x64x1x64xbf16>) -> tensor<64x64x1x32xbf16> loc(#loc720)
    %52 = stablehlo.reshape %arg1 : (tensor<32xbf16>) -> tensor<1x1x32xbf16> loc(#loc721)
    %53 = stablehlo.custom_call @tt.mark_argument(%52) {api_version = 0 : i32, mhlo.frontend_attributes = {ttcore.argument_type = "constant", ttir.name = "model.model.rotary_emb.inv_freq"}} : (tensor<1x1x32xbf16>) -> tensor<1x1x32xbf16> loc(#loc722)
    %54 = stablehlo.reshape %53 : (tensor<1x1x32xbf16>) -> tensor<1x32x1xbf16> loc(#loc723)
    %55 = stablehlo.convert %54 : (tensor<1x32x1xbf16>) -> tensor<1x32x1xf32> loc(#loc724)
    %56 = stablehlo.reshape %arg0 : (tensor<1xi64>) -> tensor<1x1x1xi64> loc(#loc725)
    %57 = stablehlo.custom_call @tt.mark_argument(%56) {api_version = 0 : i32, mhlo.frontend_attributes = {ttcore.argument_type = "input", ttir.name = "args_1"}} : (tensor<1x1x1xi64>) -> tensor<1x1x1xi64> loc(#loc726)
    %58 = stablehlo.reshape %57 : (tensor<1x1x1xi64>) -> tensor<1xi64> loc(#loc727)
    %59 = stablehlo.convert %57 : (tensor<1x1x1xi64>) -> tensor<1x1x1xf32> loc(#loc728)
    %60 = stablehlo.dot_general %55, %59, batching_dims = [0] x [0], contracting_dims = [2] x [1] : (tensor<1x32x1xf32>, tensor<1x1x1xf32>) -> tensor<1x32x1xf32> loc(#loc729)
    %61 = stablehlo.reshape %60 : (tensor<1x32x1xf32>) -> tensor<1x1x32xf32> loc(#loc730)
    %62 = stablehlo.cosine %61 {result_layout = dense<[1, 2, 0]> : tensor<3xindex>, xla_shape = "f32[1,1,32]{1,2,0}"} : tensor<1x1x32xf32> loc(#loc731)
    %63 = stablehlo.multiply %62, %20 : tensor<1x1x32xf32> loc(#loc732)
    %64 = stablehlo.convert %63 : (tensor<1x1x32xf32>) -> tensor<1x1x32xbf16> loc(#loc733)
    %65 = stablehlo.reshape %64 : (tensor<1x1x32xbf16>) -> tensor<1x32xbf16> loc(#loc734)
    %66 = stablehlo.broadcast_in_dim %65, dims = [2, 3] : (tensor<1x32xbf16>) -> tensor<64x64x1x32xbf16> loc(#loc735)
    %67 = stablehlo.multiply %51, %66 : tensor<64x64x1x32xbf16> loc(#loc736)
    %68 = stablehlo.slice %50 [0:64, 0:64, 0:1, 32:64] : (tensor<64x64x1x64xbf16>) -> tensor<64x64x1x32xbf16> loc(#loc737)
    %69 = stablehlo.sine %61 {result_layout = dense<[1, 2, 0]> : tensor<3xindex>, xla_shape = "f32[1,1,32]{1,2,0}"} : tensor<1x1x32xf32> loc(#loc738)
    %70 = stablehlo.multiply %69, %20 : tensor<1x1x32xf32> loc(#loc739)
    %71 = stablehlo.convert %70 : (tensor<1x1x32xf32>) -> tensor<1x1x32xbf16> loc(#loc740)
    %72 = stablehlo.reshape %71 : (tensor<1x1x32xbf16>) -> tensor<1x32xbf16> loc(#loc741)
    %73 = stablehlo.broadcast_in_dim %72, dims = [2, 3] : (tensor<1x32xbf16>) -> tensor<64x64x1x32xbf16> loc(#loc742)
    %74 = stablehlo.multiply %68, %73 : tensor<64x64x1x32xbf16> loc(#loc743)
    %75 = stablehlo.subtract %67, %74 : tensor<64x64x1x32xbf16> loc(#loc744)
    %76 = stablehlo.multiply %68, %66 : tensor<64x64x1x32xbf16> loc(#loc745)
    %77 = stablehlo.multiply %51, %73 : tensor<64x64x1x32xbf16> loc(#loc746)
    %78 = stablehlo.add %76, %77 : tensor<64x64x1x32xbf16> loc(#loc747)
    %79 = stablehlo.concatenate %75, %78, dim = 3 : (tensor<64x64x1x32xbf16>, tensor<64x64x1x32xbf16>) -> tensor<64x64x1x64xbf16> loc(#loc748)
    %80 = stablehlo.custom_call @tt.mark_argument(%arg7) {api_version = 0 : i32, mhlo.frontend_attributes = {ttcore.argument_type = "input", ttir.name = "args_2"}} : (tensor<64x8x128x64xbf16>) -> tensor<64x8x128x64xbf16> loc(#loc749)
    %81 = stablehlo.compare  LT, %58, %18 : (tensor<1xi64>, tensor<1xi64>) -> tensor<1xi1> loc(#loc750)
    %82 = stablehlo.add %58, %17 : tensor<1xi64> loc(#loc751)
    %83 = stablehlo.select %81, %82, %58 : tensor<1xi1>, tensor<1xi64> loc(#loc752)
    %84 = stablehlo.reshape %83 : (tensor<1xi64>) -> tensor<1x1xi64> loc(#loc753)
    %85 = stablehlo.reshape %arg3 : (tensor<512x2880xbf16>) -> tensor<1x512x2880xbf16> loc(#loc754)
    %86 = stablehlo.custom_call @tt.mark_argument(%85) {api_version = 0 : i32, mhlo.frontend_attributes = {ttcore.argument_type = "parameter", ttir.name = "self___model_model_layers_0_self_attn_k_proj__parameters__weight"}} : (tensor<1x512x2880xbf16>) -> tensor<1x512x2880xbf16> loc(#loc755)
    %87 = stablehlo.reshape %86 : (tensor<1x512x2880xbf16>) -> tensor<512x2880xbf16> loc(#loc756)
    %88 = stablehlo.transpose %87, dims = [1, 0] {result_layout = dense<[0, 1]> : tensor<2xindex>, xla_shape = "bf16[2880,512]{0,1}"} : (tensor<512x2880xbf16>) -> tensor<2880x512xbf16> loc(#loc757)
    %89 = stablehlo.dot_general %38, %88, contracting_dims = [1] x [0] : (tensor<64x2880xbf16>, tensor<2880x512xbf16>) -> tensor<64x512xbf16> loc(#loc758)
    %90 = stablehlo.reshape %89 : (tensor<64x512xbf16>) -> tensor<64x1x512xbf16> loc(#loc759)
    %91 = stablehlo.reshape %arg2 : (tensor<512xbf16>) -> tensor<1x1x512xbf16> loc(#loc760)
    %92 = stablehlo.custom_call @tt.mark_argument(%91) {api_version = 0 : i32, mhlo.frontend_attributes = {ttcore.argument_type = "parameter", ttir.name = "self___model_model_layers_0_self_attn_k_proj__parameters__bias"}} : (tensor<1x1x512xbf16>) -> tensor<1x1x512xbf16> loc(#loc761)
    %93 = stablehlo.reshape %92 : (tensor<1x1x512xbf16>) -> tensor<512xbf16> loc(#loc762)
    %94 = stablehlo.broadcast_in_dim %93, dims = [2] : (tensor<512xbf16>) -> tensor<64x1x512xbf16> loc(#loc763)
    %95 = stablehlo.add %90, %94 : tensor<64x1x512xbf16> loc(#loc764)
    %96 = stablehlo.reshape %95 : (tensor<64x1x512xbf16>) -> tensor<64x8x1x64xbf16> loc(#loc765)
    %97 = stablehlo.slice %96 [0:64, 0:8, 0:1, 0:32] : (tensor<64x8x1x64xbf16>) -> tensor<64x8x1x32xbf16> loc(#loc766)
    %98 = stablehlo.broadcast_in_dim %65, dims = [2, 3] : (tensor<1x32xbf16>) -> tensor<64x8x1x32xbf16> loc(#loc767)
    %99 = stablehlo.multiply %97, %98 : tensor<64x8x1x32xbf16> loc(#loc768)
    %100 = stablehlo.slice %96 [0:64, 0:8, 0:1, 32:64] : (tensor<64x8x1x64xbf16>) -> tensor<64x8x1x32xbf16> loc(#loc769)
    %101 = stablehlo.broadcast_in_dim %72, dims = [2, 3] : (tensor<1x32xbf16>) -> tensor<64x8x1x32xbf16> loc(#loc770)
    %102 = stablehlo.multiply %100, %101 : tensor<64x8x1x32xbf16> loc(#loc771)
    %103 = stablehlo.subtract %99, %102 : tensor<64x8x1x32xbf16> loc(#loc772)
    %104 = stablehlo.multiply %100, %98 : tensor<64x8x1x32xbf16> loc(#loc773)
    %105 = stablehlo.multiply %97, %101 : tensor<64x8x1x32xbf16> loc(#loc774)
    %106 = stablehlo.add %104, %105 : tensor<64x8x1x32xbf16> loc(#loc775)
    %107 = stablehlo.concatenate %103, %106, dim = 3 : (tensor<64x8x1x32xbf16>, tensor<64x8x1x32xbf16>) -> tensor<64x8x1x64xbf16> loc(#loc776)
    %108 = "stablehlo.scatter"(%80, %84, %107) <{scatter_dimension_numbers = #stablehlo.scatter<update_window_dims = [0, 1, 3], inserted_window_dims = [2], scatter_dims_to_operand_dims = [2], index_vector_dim = 1>}> ({
    ^bb0(%arg693: tensor<bf16> loc("scatter.144"), %arg694: tensor<bf16> loc("scatter.144")):
      stablehlo.return %arg694 : tensor<bf16> loc(#loc)
    }) : (tensor<64x8x128x64xbf16>, tensor<1x1xi64>, tensor<64x8x1x64xbf16>) -> tensor<64x8x128x64xbf16> loc(#loc777)
    %109 = stablehlo.broadcast_in_dim %108, dims = [0, 1, 3, 4] : (tensor<64x8x128x64xbf16>) -> tensor<64x8x8x128x64xbf16> loc(#loc778)
    %110 = stablehlo.reshape %109 : (tensor<64x8x8x128x64xbf16>) -> tensor<64x64x128x64xbf16> loc(#loc779)
    %111 = stablehlo.transpose %110, dims = [0, 1, 3, 2] {result_layout = dense<[2, 3, 1, 0]> : tensor<4xindex>, xla_shape = "bf16[64,64,64,128]{2,3,1,0}"} : (tensor<64x64x128x64xbf16>) -> tensor<64x64x64x128xbf16> loc(#loc780)
    %112 = stablehlo.dot_general %79, %111, batching_dims = [0, 1] x [0, 1], contracting_dims = [3] x [2] {mhlo.frontend_attributes = {grad_x = "false", grad_y = "false"}} : (tensor<64x64x1x64xbf16>, tensor<64x64x64x128xbf16>) -> tensor<64x64x1x128xbf16> loc(#loc781)
    %113 = stablehlo.multiply %112, %16 : tensor<64x64x1x128xbf16> loc(#loc782)
    %114 = stablehlo.broadcast_in_dim %arg21, dims = [] : (tensor<i1>) -> tensor<1x1x1x128xi1> loc(#loc783)
    %115 = stablehlo.reshape %57 : (tensor<1x1x1xi64>) -> tensor<1x1x1x1xi64> loc(#loc784)
    %116 = stablehlo.subtract %115, %13 : tensor<1x1x1x1xi64> loc(#loc785)
    %117 = stablehlo.reshape %116 : (tensor<1x1x1x1xi64>) -> tensor<1x1x1xi64> loc(#loc786)
    %118 = stablehlo.broadcast_in_dim %117, dims = [0, 1, 2] : (tensor<1x1x1xi64>) -> tensor<1x1x1x128xi64> loc(#loc787)
    %119 = stablehlo.compare  GT, %14, %118 : (tensor<1x1x1x128xi64>, tensor<1x1x1x128xi64>) -> tensor<1x1x1x128xi1> loc(#loc788)
    %120 = stablehlo.and %114, %119 : tensor<1x1x1x128xi1> loc(#loc789)
    %121 = stablehlo.broadcast_in_dim %57, dims = [0, 1, 2] : (tensor<1x1x1xi64>) -> tensor<1x1x1x128xi64> loc(#loc790)
    %122 = stablehlo.compare  LE, %14, %121 : (tensor<1x1x1x128xi64>, tensor<1x1x1x128xi64>) -> tensor<1x1x1x128xi1> loc(#loc791)
    %123 = stablehlo.and %120, %122 : tensor<1x1x1x128xi1> loc(#loc792)
    %124 = stablehlo.reshape %123 : (tensor<1x1x1x128xi1>) -> tensor<1x1x128xi1> loc(#loc793)
    %125 = stablehlo.broadcast_in_dim %124, dims = [1, 2, 3] : (tensor<1x1x128xi1>) -> tensor<64x1x1x128xi1> loc(#loc794)
    %126 = stablehlo.reshape %arg20 : (tensor<bf16>) -> tensor<1x1x1xbf16> loc(#loc795)
    %127 = stablehlo.custom_call @tt.mark_argument(%126) {api_version = 0 : i32, mhlo.frontend_attributes = {ttcore.argument_type = "constant", ttir.name = "L['self'].model.model.lifted_tensor_1"}} : (tensor<1x1x1xbf16>) -> tensor<1x1x1xbf16> loc(#loc796)
    %128 = stablehlo.reshape %127 : (tensor<1x1x1xbf16>) -> tensor<1x1xbf16> loc(#loc797)
    %129 = stablehlo.broadcast_in_dim %128, dims = [1, 2] : (tensor<1x1xbf16>) -> tensor<64x1x1x128xbf16> loc(#loc798)
    %130 = stablehlo.select %125, %129, %12 : tensor<64x1x1x128xi1>, tensor<64x1x1x128xbf16> loc(#loc799)
    %131 = stablehlo.reshape %130 : (tensor<64x1x1x128xbf16>) -> tensor<64x1x128xbf16> loc(#loc800)
    %132 = stablehlo.broadcast_in_dim %131, dims = [0, 2, 3] : (tensor<64x1x128xbf16>) -> tensor<64x64x1x128xbf16> loc(#loc801)
    %133 = stablehlo.add %113, %132 : tensor<64x64x1x128xbf16> loc(#loc802)
    %134 = stablehlo.reshape %arg19 : (tensor<64xbf16>) -> tensor<1x1x64xbf16> loc(#loc803)
    %135 = stablehlo.custom_call @tt.mark_argument(%134) {api_version = 0 : i32, mhlo.frontend_attributes = {ttcore.argument_type = "parameter", ttir.name = "model.model.layers.0.self_attn.sinks"}} : (tensor<1x1x64xbf16>) -> tensor<1x1x64xbf16> loc(#loc804)
    %136 = stablehlo.reshape %135 : (tensor<1x1x64xbf16>) -> tensor<64x1x1xbf16> loc(#loc805)
    %137 = stablehlo.broadcast_in_dim %136, dims = [1, 2, 3] : (tensor<64x1x1xbf16>) -> tensor<64x64x1x1xbf16> loc(#loc806)
    %138 = stablehlo.concatenate %133, %137, dim = 3 : (tensor<64x64x1x128xbf16>, tensor<64x64x1x1xbf16>) -> tensor<64x64x1x129xbf16> loc(#loc807)
    %139 = stablehlo.reduce(%138 init: %22) applies stablehlo.maximum across dimensions = [3] : (tensor<64x64x1x129xbf16>, tensor<bf16>) -> tensor<64x64x1xbf16> loc(#loc808)
    %140 = stablehlo.broadcast_in_dim %139, dims = [0, 1, 2] : (tensor<64x64x1xbf16>) -> tensor<64x64x1x129xbf16> loc(#loc809)
    %141 = stablehlo.subtract %138, %140 : tensor<64x64x1x129xbf16> loc(#loc810)
    %142 = stablehlo.reduce(%141 init: %22) applies stablehlo.maximum across dimensions = [3] : (tensor<64x64x1x129xbf16>, tensor<bf16>) -> tensor<64x64x1xbf16> loc(#loc811)
    %143 = stablehlo.broadcast_in_dim %142, dims = [0, 1, 2] : (tensor<64x64x1xbf16>) -> tensor<64x64x1x129xbf16> loc(#loc812)
    %144 = stablehlo.subtract %141, %143 : tensor<64x64x1x129xbf16> loc(#loc813)
    %145 = stablehlo.exponential %144 : tensor<64x64x1x129xbf16> loc(#loc814)
    %146 = stablehlo.reduce(%145 init: %21) applies stablehlo.add across dimensions = [3] : (tensor<64x64x1x129xbf16>, tensor<bf16>) -> tensor<64x64x1xbf16> loc(#loc815)
    %147 = stablehlo.broadcast_in_dim %146, dims = [0, 1, 2] : (tensor<64x64x1xbf16>) -> tensor<64x64x1x129xbf16> loc(#loc816)
    %148 = stablehlo.divide %145, %147 : tensor<64x64x1x129xbf16> loc(#loc817)
    %149 = stablehlo.slice %148 [0:64, 0:64, 0:1, 0:128] : (tensor<64x64x1x129xbf16>) -> tensor<64x64x1x128xbf16> loc(#loc818)
    %150 = stablehlo.custom_call @tt.mark_argument(%arg10) {api_version = 0 : i32, mhlo.frontend_attributes = {ttcore.argument_type = "input", ttir.name = "args_3"}} : (tensor<64x8x128x64xbf16>) -> tensor<64x8x128x64xbf16> loc(#loc819)
    %151 = stablehlo.reshape %arg9 : (tensor<512x2880xbf16>) -> tensor<1x512x2880xbf16> loc(#loc820)
    %152 = stablehlo.custom_call @tt.mark_argument(%151) {api_version = 0 : i32, mhlo.frontend_attributes = {ttcore.argument_type = "parameter", ttir.name = "self___model_model_layers_0_self_attn_v_proj__parameters__weight"}} : (tensor<1x512x2880xbf16>) -> tensor<1x512x2880xbf16> loc(#loc821)
    %153 = stablehlo.reshape %152 : (tensor<1x512x2880xbf16>) -> tensor<512x2880xbf16> loc(#loc822)
    %154 = stablehlo.transpose %153, dims = [1, 0] {result_layout = dense<[0, 1]> : tensor<2xindex>, xla_shape = "bf16[2880,512]{0,1}"} : (tensor<512x2880xbf16>) -> tensor<2880x512xbf16> loc(#loc823)
    %155 = stablehlo.dot_general %38, %154, contracting_dims = [1] x [0] : (tensor<64x2880xbf16>, tensor<2880x512xbf16>) -> tensor<64x512xbf16> loc(#loc824)
    %156 = stablehlo.reshape %155 : (tensor<64x512xbf16>) -> tensor<64x1x512xbf16> loc(#loc825)
    %157 = stablehlo.reshape %arg8 : (tensor<512xbf16>) -> tensor<1x1x512xbf16> loc(#loc826)
    %158 = stablehlo.custom_call @tt.mark_argument(%157) {api_version = 0 : i32, mhlo.frontend_attributes = {ttcore.argument_type = "parameter", ttir.name = "self___model_model_layers_0_self_attn_v_proj__parameters__bias"}} : (tensor<1x1x512xbf16>) -> tensor<1x1x512xbf16> loc(#loc827)
    %159 = stablehlo.reshape %158 : (tensor<1x1x512xbf16>) -> tensor<512xbf16> loc(#loc828)
    %160 = stablehlo.broadcast_in_dim %159, dims = [2] : (tensor<512xbf16>) -> tensor<64x1x512xbf16> loc(#loc829)
    %161 = stablehlo.add %156, %160 : tensor<64x1x512xbf16> loc(#loc830)
    %162 = stablehlo.reshape %161 : (tensor<64x1x512xbf16>) -> tensor<64x8x1x64xbf16> loc(#loc831)
    %163 = "stablehlo.scatter"(%150, %84, %162) <{scatter_dimension_numbers = #stablehlo.scatter<update_window_dims = [0, 1, 3], inserted_window_dims = [2], scatter_dims_to_operand_dims = [2], index_vector_dim = 1>}> ({
    ^bb0(%arg693: tensor<bf16> loc("scatter.181"), %arg694: tensor<bf16> loc("scatter.181")):
      stablehlo.return %arg694 : tensor<bf16> loc(#loc)
    }) : (tensor<64x8x128x64xbf16>, tensor<1x1xi64>, tensor<64x8x1x64xbf16>) -> tensor<64x8x128x64xbf16> loc(#loc832)
    %164 = stablehlo.broadcast_in_dim %163, dims = [0, 1, 3, 4] : (tensor<64x8x128x64xbf16>) -> tensor<64x8x8x128x64xbf16> loc(#loc833)
    %165 = stablehlo.reshape %164 : (tensor<64x8x8x128x64xbf16>) -> tensor<64x64x128x64xbf16> loc(#loc834)
    %166 = stablehlo.dot_general %149, %165, batching_dims = [0, 1] x [0, 1], contracting_dims = [3] x [2] {mhlo.frontend_attributes = {grad_x = "false", grad_y = "false"}} : (tensor<64x64x1x128xbf16>, tensor<64x64x128x64xbf16>) -> tensor<64x64x1x64xbf16> loc(#loc835)
    %167 = stablehlo.reshape %166 : (tensor<64x64x1x64xbf16>) -> tensor<64x4096xbf16> loc(#loc836)
    %168 = stablehlo.reshape %arg18 : (tensor<2880x4096xbf16>) -> tensor<1x2880x4096xbf16> loc(#loc837)
    %169 = stablehlo.custom_call @tt.mark_argument(%168) {api_version = 0 : i32, mhlo.frontend_attributes = {ttcore.argument_type = "parameter", ttir.name = "self___model_model_layers_0_self_attn_o_proj__parameters__weight"}} : (tensor<1x2880x4096xbf16>) -> tensor<1x2880x4096xbf16> loc(#loc838)
    %170 = stablehlo.reshape %169 : (tensor<1x2880x4096xbf16>) -> tensor<2880x4096xbf16> loc(#loc839)
    %171 = stablehlo.transpose %170, dims = [1, 0] {result_layout = dense<[0, 1]> : tensor<2xindex>, xla_shape = "bf16[4096,2880]{0,1}"} : (tensor<2880x4096xbf16>) -> tensor<4096x2880xbf16> loc(#loc840)
    %172 = stablehlo.dot_general %167, %171, contracting_dims = [1] x [0] : (tensor<64x4096xbf16>, tensor<4096x2880xbf16>) -> tensor<64x2880xbf16> loc(#loc841)
    %173 = stablehlo.reshape %172 : (tensor<64x2880xbf16>) -> tensor<64x1x2880xbf16> loc(#loc842)
    %174 = stablehlo.reshape %arg17 : (tensor<2880xbf16>) -> tensor<1x1x2880xbf16> loc(#loc843)
    %175 = stablehlo.custom_call @tt.mark_argument(%174) {api_version = 0 : i32, mhlo.frontend_attributes = {ttcore.argument_type = "parameter", ttir.name = "self___model_model_layers_0_self_attn_o_proj__parameters__bias"}} : (tensor<1x1x2880xbf16>) -> tensor<1x1x2880xbf16> loc(#loc844)
    %176 = stablehlo.reshape %175 : (tensor<1x1x2880xbf16>) -> tensor<2880xbf16> loc(#loc845)
    %177 = stablehlo.broadcast_in_dim %176, dims = [2] : (tensor<2880xbf16>) -> tensor<64x1x2880xbf16> loc(#loc846)
    %178 = stablehlo.add %173, %177 : tensor<64x1x2880xbf16> loc(#loc847)
    %179 = stablehlo.add %33, %178 : tensor<64x1x2880xbf16> loc(#loc848)
    %180 = stablehlo.reshape %arg16 : (tensor<2880xbf16>) -> tensor<1x1x2880xbf16> loc(#loc849)
    %181 = stablehlo.custom_call @tt.mark_argument(%180) {api_version = 0 : i32, mhlo.frontend_attributes = {ttcore.argument_type = "parameter", ttir.name = "model.model.layers.0.post_attention_layernorm.weight"}} : (tensor<1x1x2880xbf16>) -> tensor<1x1x2880xbf16> loc(#loc850)
    %182 = stablehlo.reshape %181 : (tensor<1x1x2880xbf16>) -> tensor<2880xbf16> loc(#loc851)
    %183 = stablehlo.composite "tenstorrent.rms_norm" %179, %182 {composite_attributes = {epsilon = 9.99999974E-6 : f32, normalized_shape = dense<2880> : tensor<1xi64>}, decomposition = @tenstorrent.rms_norm.impl_29} : (tensor<64x1x2880xbf16>, tensor<2880xbf16>) -> tensor<64x1x2880xbf16> loc(#loc852)
    %184 = stablehlo.reshape %183 : (tensor<64x1x2880xbf16>) -> tensor<64x2880xbf16> loc(#loc853)
    %185 = stablehlo.concatenate %184, %184, %184, %184, %184, %184, %184, %184, %184, %184, %184, %184, %184, %184, %184, %184, %184, %184, %184, %184, %184, %184, %184, %184, %184, %184, %184, %184, %184, %184, %184, %184, %184, %184, %184, %184, %184, %184, %184, %184, %184, %184, %184, %184, %184, %184, %184, %184, %184, %184, %184, %184, %184, %184, %184, %184, %184, %184, %184, %184, %184, %184, %184, %184, %184, %184, %184, %184, %184, %184, %184, %184, %184, %184, %184, %184, %184, %184, %184, %184, %184, %184, %184, %184, %184, %184, %184, %184, %184, %184, %184, %184, %184, %184, %184, %184, %184, %184, %184, %184, %184, %184, %184, %184, %184, %184, %184, %184, %184, %184, %184, %184, %184, %184, %184, %184, %184, %184, %184, %184, %184, %184, %184, %184, %184, %184, %184, %184, dim = 0 : (tensor<64x2880xbf16>, tensor<64x2880xbf16>, tensor<64x2880xbf16>, tensor<64x2880xbf16>, tensor<64x2880xbf16>, tensor<64x2880xbf16>, tensor<64x2880xbf16>, tensor<64x2880xbf16>, tensor<64x2880xbf16>, tensor<64x2880xbf16>, tensor<64x2880xbf16>, tensor<64x2880xbf16>, tensor<64x2880xbf16>, tensor<64x2880xbf16>, tensor<64x2880xbf16>, tensor<64x2880xbf16>, tensor<64x2880xbf16>, tensor<64x2880xbf16>, tensor<64x2880xbf16>, tensor<64x2880xbf16>, tensor<64x2880xbf16>, tensor<64x2880xbf16>, tensor<64x2880xbf16>, tensor<64x2880xbf16>, tensor<64x2880xbf16>, tensor<64x2880xbf16>, tensor<64x2880xbf16>, tensor<64x2880xbf16>, tensor<64x2880xbf16>, tensor<64x2880xbf16>, tensor<64x2880xbf16>, tensor<64x2880xbf16>, tensor<64x2880xbf16>, tensor<64x2880xbf16>, tensor<64x2880xbf16>, tensor<64x2880xbf16>, tensor<64x2880xbf16>, tensor<64x2880xbf16>, tensor<64x2880xbf16>, tensor<64x2880xbf16>, tensor<64x2880xbf16>, tensor<64x2880xbf16>, tensor<64x2880xbf16>, tensor<64x2880xbf16>, tensor<64x2880xbf16>, tensor<64x2880xbf16>, tensor<64x2880xbf16>, tensor<64x2880xbf16>, tensor<64x2880xbf16>, tensor<64x2880xbf16>, tensor<64x2880xbf16>, tensor<64x2880xbf16>, tensor<64x2880xbf16>, tensor<64x2880xbf16>, tensor<64x2880xbf16>, tensor<64x2880xbf16>, tensor<64x2880xbf16>, tensor<64x2880xbf16>, tensor<64x2880xbf16>, tensor<64x2880xbf16>, tensor<64x2880xbf16>, tensor<64x2880xbf16>, tensor<64x2880xbf16>, tensor<64x2880xbf16>, tensor<64x2880xbf16>, tensor<64x2880xbf16>, tensor<64x2880xbf16>, tensor<64x2880xbf16>, tensor<64x2880xbf16>, tensor<64x2880xbf16>, tensor<64x2880xbf16>, tensor<64x2880xbf16>, tensor<64x2880xbf16>, tensor<64x2880xbf16>, tensor<64x2880xbf16>, tensor<64x2880xbf16>, tensor<64x2880xbf16>, tensor<64x2880xbf16>, tensor<64x2880xbf16>, tensor<64x2880xbf16>, tensor<64x2880xbf16>, tensor<64x2880xbf16>, tensor<64x2880xbf16>, tensor<64x2880xbf16>, tensor<64x2880xbf16>, tensor<64x2880xbf16>, tensor<64x2880xbf16>, tensor<64x2880xbf16>, tensor<64x2880xbf16>, tensor<64x2880xbf16>, tensor<64x2880xbf16>, tensor<64x2880xbf16>, tensor<64x2880xbf16>, tensor<64x2880xbf16>, tensor<64x2880xbf16>, tensor<64x2880xbf16>, tensor<64x2880xbf16>, tensor<64x2880xbf16>, tensor<64x2880xbf16>, tensor<64x2880xbf16>, tensor<64x2880xbf16>, tensor<64x2880xbf16>, tensor<64x2880xbf16>, tensor<64x2880xbf16>, tensor<64x2880xbf16>, tensor<64x2880xbf16>, tensor<64x2880xbf16>, tensor<64x2880xbf16>, tensor<64x2880xbf16>, tensor<64x2880xbf16>, tensor<64x2880xbf16>, tensor<64x2880xbf16>, tensor<64x2880xbf16>, tensor<64x2880xbf16>, tensor<64x2880xbf16>, tensor<64x2880xbf16>, tensor<64x2880xbf16>, tensor<64x2880xbf16>, tensor<64x2880xbf16>, tensor<64x2880xbf16>, tensor<64x2880xbf16>, tensor<64x2880xbf16>, tensor<64x2880xbf16>, tensor<64x2880xbf16>, tensor<64x2880xbf16>, tensor<64x2880xbf16>, tensor<64x2880xbf16>, tensor<64x2880xbf16>) -> tensor<8192x2880xbf16> loc(#loc854)
    %186 = stablehlo.reshape %185 : (tensor<8192x2880xbf16>) -> tensor<128x64x2880xbf16> loc(#loc855)
    %187 = stablehlo.custom_call @tt.mark_argument(%arg27) {api_version = 0 : i32, mhlo.frontend_attributes = {ttcore.argument_type = "parameter", ttir.name = "model.model.layers.0.mlp.experts.parametrizations.gate_up_proj.original"}} : (tensor<128x2880x5760xbf16>) -> tensor<128x2880x5760xbf16> loc(#loc856)
    %188 = stablehlo.custom_call @tt.weight_dtype_override(%187) {api_version = 0 : i32, mhlo.frontend_attributes = {ttcore.weight_dtype = "bfp_bf4"}} : (tensor<128x2880x5760xbf16>) -> tensor<128x2880x5760xbf16> loc(#loc857)
    %189 = stablehlo.dot_general %186, %188, batching_dims = [0] x [0], contracting_dims = [2] x [1] : (tensor<128x64x2880xbf16>, tensor<128x2880x5760xbf16>) -> tensor<128x64x5760xbf16> loc(#loc858)
    %190 = stablehlo.reshape %arg26 : (tensor<128x5760xbf16>) -> tensor<1x128x5760xbf16> loc(#loc859)
    %191 = stablehlo.custom_call @tt.mark_argument(%190) {api_version = 0 : i32, mhlo.frontend_attributes = {ttcore.argument_type = "parameter", ttir.name = "model.model.layers.0.mlp.experts.gate_up_proj_bias"}} : (tensor<1x128x5760xbf16>) -> tensor<1x128x5760xbf16> loc(#loc860)
    %192 = stablehlo.reshape %191 : (tensor<1x128x5760xbf16>) -> tensor<128x5760xbf16> loc(#loc861)
    %193 = stablehlo.broadcast_in_dim %192, dims = [0, 2] : (tensor<128x5760xbf16>) -> tensor<128x64x5760xbf16> loc(#loc862)
    %194 = stablehlo.add %189, %193 : tensor<128x64x5760xbf16> loc(#loc863)
    %195 = stablehlo.slice %194 [0:128, 0:64, 1:5760:2] : (tensor<128x64x5760xbf16>) -> tensor<128x64x2880xbf16> loc(#loc864)
    %196 = stablehlo.clamp %10, %195, %8 : tensor<128x64x2880xbf16> loc(#loc865)
    %197 = stablehlo.add %196, %6 : tensor<128x64x2880xbf16> loc(#loc866)
    %198 = stablehlo.slice %194 [0:128, 0:64, 0:5760:2] : (tensor<128x64x5760xbf16>) -> tensor<128x64x2880xbf16> loc(#loc867)
    %199 = stablehlo.clamp %4, %198, %8 : tensor<128x64x2880xbf16> loc(#loc868)
    %200 = stablehlo.multiply %199, %2 : tensor<128x64x2880xbf16> loc(#loc869)
    %201 = stablehlo.logistic %200 : tensor<128x64x2880xbf16> loc(#loc870)
    %202 = stablehlo.multiply %199, %201 : tensor<128x64x2880xbf16> loc(#loc871)
    %203 = stablehlo.multiply %197, %202 : tensor<128x64x2880xbf16> loc(#loc872)
    %204 = stablehlo.custom_call @tt.mark_argument(%arg25) {api_version = 0 : i32, mhlo.frontend_attributes = {ttcore.argument_type = "parameter", ttir.name = "model.model.layers.0.mlp.experts.parametrizations.down_proj.original"}} : (tensor<128x2880x2880xbf16>) -> tensor<128x2880x2880xbf16> loc(#loc873)
    %205 = stablehlo.custom_call @tt.weight_dtype_override(%204) {api_version = 0 : i32, mhlo.frontend_attributes = {ttcore.weight_dtype = "bfp_bf4"}} : (tensor<128x2880x2880xbf16>) -> tensor<128x2880x2880xbf16> loc(#loc874)
    %206 = stablehlo.dot_general %203, %205, batching_dims = [0] x [0], contracting_dims = [2] x [1] : (tensor<128x64x2880xbf16>, tensor<128x2880x2880xbf16>) -> tensor<128x64x2880xbf16> loc(#loc875)
    %207 = stablehlo.reshape %arg24 : (tensor<128x2880xbf16>) -> tensor<1x128x2880xbf16> loc(#loc876)
    %208 = stablehlo.custom_call @tt.mark_argument(%207) {api_version = 0 : i32, mhlo.frontend_attributes = {ttcore.argument_type = "parameter", ttir.name = "model.model.layers.0.mlp.experts.down_proj_bias"}} : (tensor<1x128x2880xbf16>) -> tensor<1x128x2880xbf16> loc(#loc877)
    %209 = stablehlo.reshape %208 : (tensor<1x128x2880xbf16>) -> tensor<128x2880xbf16> loc(#loc878)
    %210 = stablehlo.broadcast_in_dim %209, dims = [0, 2] : (tensor<128x2880xbf16>) -> tensor<128x64x2880xbf16> loc(#loc879)
    %211 = stablehlo.add %206, %210 : tensor<128x64x2880xbf16> loc(#loc880)
    %212 = stablehlo.reshape %211 : (tensor<128x64x2880xbf16>) -> tensor<128x64x1x2880xbf16> loc(#loc881)
    %213 = stablehlo.convert %184 : (tensor<64x2880xbf16>) -> tensor<64x2880xf32> loc(#loc882)
    %214 = stablehlo.reshape %arg15 : (tensor<128x2880xbf16>) -> tensor<1x128x2880xbf16> loc(#loc883)
    %215 = stablehlo.custom_call @tt.mark_argument(%214) {api_version = 0 : i32, mhlo.frontend_attributes = {ttcore.argument_type = "parameter", ttir.name = "model.model.layers.0.mlp.router.parametrizations.weight.original"}} : (tensor<1x128x2880xbf16>) -> tensor<1x128x2880xbf16> loc(#loc884)
    %216 = stablehlo.custom_call @tt.weight_dtype_override(%215) {api_version = 0 : i32, mhlo.frontend_attributes = {ttcore.weight_dtype = "bfp_bf4"}} : (tensor<1x128x2880xbf16>) -> tensor<1x128x2880xbf16> loc(#loc885)
    %217 = stablehlo.reshape %216 : (tensor<1x128x2880xbf16>) -> tensor<128x2880xbf16> loc(#loc886)
    %218 = stablehlo.transpose %217, dims = [1, 0] {result_layout = dense<[0, 1]> : tensor<2xindex>, xla_shape = "bf16[2880,128]{0,1}"} : (tensor<128x2880xbf16>) -> tensor<2880x128xbf16> loc(#loc887)
    %219 = stablehlo.convert %218 {result_layout = dense<[0, 1]> : tensor<2xindex>, xla_shape = "f32[2880,128]{0,1}"} : (tensor<2880x128xbf16>) -> tensor<2880x128xf32> loc(#loc888)
    %220 = stablehlo.dot_general %213, %219, contracting_dims = [1] x [0] : (tensor<64x2880xf32>, tensor<2880x128xf32>) -> tensor<64x128xf32> loc(#loc889)
    %221 = stablehlo.reshape %arg14 : (tensor<128xbf16>) -> tensor<1x1x128xbf16> loc(#loc890)
    %222 = stablehlo.custom_call @tt.mark_argument(%221) {api_version = 0 : i32, mhlo.frontend_attributes = {ttcore.argument_type = "parameter", ttir.name = "model.model.layers.0.mlp.router.bias"}} : (tensor<1x1x128xbf16>) -> tensor<1x1x128xbf16> loc(#loc891)
    %223 = stablehlo.reshape %222 : (tensor<1x1x128xbf16>) -> tensor<128xbf16> loc(#loc892)
    %224 = stablehlo.convert %223 : (tensor<128xbf16>) -> tensor<128xf32> loc(#loc893)
    %225 = stablehlo.broadcast_in_dim %224, dims = [1] : (tensor<128xf32>) -> tensor<64x128xf32> loc(#loc894)
    %226 = stablehlo.add %220, %225 : tensor<64x128xf32> loc(#loc895)
    %227 = stablehlo.convert %226 : (tensor<64x128xf32>) -> tensor<64x128xbf16> loc(#loc896)
    %228:2 = stablehlo.composite "tenstorrent.topk" %227 {composite_attributes = {dim = -1 : i64, k = 4 : i64, largest = true, sorted = true}, decomposition = @tenstorrent.topk.impl_15} : (tensor<64x128xbf16>) -> (tensor<64x4xbf16>, tensor<64x4xi64>) loc(#loc897)
    %229 = stablehlo.broadcast_in_dim %228#1, dims = [0, 1] : (tensor<64x4xi64>) -> tensor<64x4x128xi64> loc(#loc898)
    %230 = stablehlo.broadcast_in_dim %23, dims = [2] : (tensor<128xi64>) -> tensor<64x4x128xi64> loc(#loc899)
    %231 = stablehlo.compare  EQ, %229, %230 : (tensor<64x4x128xi64>, tensor<64x4x128xi64>) -> tensor<64x4x128xi1> loc(#loc900)
    %232 = stablehlo.convert %231 : (tensor<64x4x128xi1>) -> tensor<64x4x128xi64> loc(#loc901)
    %233 = stablehlo.convert %232 : (tensor<64x4x128xi64>) -> tensor<64x4x128xbf16> loc(#loc902)
    %234 = stablehlo.reduce(%228#0 init: %22) applies stablehlo.maximum across dimensions = [1] : (tensor<64x4xbf16>, tensor<bf16>) -> tensor<64xbf16> loc(#loc903)
    %235 = stablehlo.broadcast_in_dim %234, dims = [0] : (tensor<64xbf16>) -> tensor<64x4xbf16> loc(#loc904)
    %236 = stablehlo.subtract %228#0, %235 : tensor<64x4xbf16> loc(#loc905)
    %237 = stablehlo.exponential %236 : tensor<64x4xbf16> loc(#loc906)
    %238 = stablehlo.reduce(%237 init: %21) applies stablehlo.add across dimensions = [1] : (tensor<64x4xbf16>, tensor<bf16>) -> tensor<64xbf16> loc(#loc907)
    %239 = stablehlo.broadcast_in_dim %238, dims = [0] : (tensor<64xbf16>) -> tensor<64x4xbf16> loc(#loc908)
    %240 = stablehlo.divide %237, %239 : tensor<64x4xbf16> loc(#loc909)
    %241 = stablehlo.broadcast_in_dim %240, dims = [0, 1] : (tensor<64x4xbf16>) -> tensor<64x4x128xbf16> loc(#loc910)
    %242 = stablehlo.multiply %233, %241 : tensor<64x4x128xbf16> loc(#loc911)
    %243 = stablehlo.reduce(%242 init: %21) applies stablehlo.add across dimensions = [1] : (tensor<64x4x128xbf16>, tensor<bf16>) -> tensor<64x128xbf16> loc(#loc912)
    %244 = stablehlo.transpose %243, dims = [1, 0] {result_layout = dense<[0, 1]> : tensor<2xindex>, xla_shape = "bf16[128,64]{0,1}"} : (tensor<64x128xbf16>) -> tensor<128x64xbf16> loc(#loc913)
    %245 = stablehlo.reshape %244 : (tensor<128x64xbf16>) -> tensor<128x64x1xbf16> loc(#loc914)
    %246 = stablehlo.broadcast_in_dim %245, dims = [0, 1, 2] : (tensor<128x64x1xbf16>) -> tensor<128x64x1x2880xbf16> loc(#loc915)
    %247 = stablehlo.multiply %212, %246 : tensor<128x64x1x2880xbf16> loc(#loc916)
    %248 = stablehlo.reduce(%247 init: %21) applies stablehlo.add across dimensions = [0] : (tensor<128x64x1x2880xbf16>, tensor<bf16>) -> tensor<64x1x2880xbf16> loc(#loc917)
    %249 = stablehlo.add %179, %248 : tensor<64x1x2880xbf16> loc(#loc918)
    %250 = stablehlo.reshape %arg13 : (tensor<2880xbf16>) -> tensor<1x1x2880xbf16> loc(#loc919)
    %251 = stablehlo.custom_call @tt.mark_argument(%250) {api_version = 0 : i32, mhlo.frontend_attributes = {ttcore.argument_type = "parameter", ttir.name = "model.model.layers.1.input_layernorm.weight"}} : (tensor<1x1x2880xbf16>) -> tensor<1x1x2880xbf16> loc(#loc920)
    %252 = stablehlo.reshape %251 : (tensor<1x1x2880xbf16>) -> tensor<2880xbf16> loc(#loc921)
    %253 = stablehlo.composite "tenstorrent.rms_norm" %249, %252 {composite_attributes = {epsilon = 9.99999974E-6 : f32, normalized_shape = dense<2880> : tensor<1xi64>}, decomposition = @tenstorrent.rms_norm.impl_33} : (tensor<64x1x2880xbf16>, tensor<2880xbf16>) -> tensor<64x1x2880xbf16> loc(#loc922)
    %254 = stablehlo.reshape %253 : (tensor<64x1x2880xbf16>) -> tensor<64x2880xbf16> loc(#loc923)
    %255 = stablehlo.reshape %arg43 : (tensor<4096x2880xbf16>) -> tensor<1x4096x2880xbf16> loc(#loc924)
    %256 = stablehlo.custom_call @tt.mark_argument(%255) {api_version = 0 : i32, mhlo.frontend_attributes = {ttcore.argument_type = "parameter", ttir.name = "self___model_model_layers_1_self_attn_q_proj__parameters__weight"}} : (tensor<1x4096x2880xbf16>) -> tensor<1x4096x2880xbf16> loc(#loc925)
    %257 = stablehlo.reshape %256 : (tensor<1x4096x2880xbf16>) -> tensor<4096x2880xbf16> loc(#loc926)
    %258 = stablehlo.transpose %257, dims = [1, 0] {result_layout = dense<[0, 1]> : tensor<2xindex>, xla_shape = "bf16[2880,4096]{0,1}"} : (tensor<4096x2880xbf16>) -> tensor<2880x4096xbf16> loc(#loc927)
    %259 = stablehlo.dot_general %254, %258, contracting_dims = [1] x [0] : (tensor<64x2880xbf16>, tensor<2880x4096xbf16>) -> tensor<64x4096xbf16> loc(#loc928)
    %260 = stablehlo.reshape %259 : (tensor<64x4096xbf16>) -> tensor<64x1x4096xbf16> loc(#loc929)
    %261 = stablehlo.reshape %arg42 : (tensor<4096xbf16>) -> tensor<1x1x4096xbf16> loc(#loc930)
    %262 = stablehlo.custom_call @tt.mark_argument(%261) {api_version = 0 : i32, mhlo.frontend_attributes = {ttcore.argument_type = "parameter", ttir.name = "self___model_model_layers_1_self_attn_q_proj__parameters__bias"}} : (tensor<1x1x4096xbf16>) -> tensor<1x1x4096xbf16> loc(#loc931)
    %263 = stablehlo.reshape %262 : (tensor<1x1x4096xbf16>) -> tensor<4096xbf16> loc(#loc932)
    %264 = stablehlo.broadcast_in_dim %263, dims = [2] : (tensor<4096xbf16>) -> tensor<64x1x4096xbf16> loc(#loc933)
    %265 = stablehlo.add %260, %264 : tensor<64x1x4096xbf16> loc(#loc934)
    %266 = stablehlo.reshape %265 : (tensor<64x1x4096xbf16>) -> tensor<64x64x1x64xbf16> loc(#loc935)
    %267 = stablehlo.slice %266 [0:64, 0:64, 0:1, 0:32] : (tensor<64x64x1x64xbf16>) -> tensor<64x64x1x32xbf16> loc(#loc936)
    %268 = stablehlo.multiply %267, %66 : tensor<64x64x1x32xbf16> loc(#loc937)
    %269 = stablehlo.slice %266 [0:64, 0:64, 0:1, 32:64] : (tensor<64x64x1x64xbf16>) -> tensor<64x64x1x32xbf16> loc(#loc938)
    %270 = stablehlo.multiply %269, %73 : tensor<64x64x1x32xbf16> loc(#loc939)
    %271 = stablehlo.subtract %268, %270 : tensor<64x64x1x32xbf16> loc(#loc940)
    %272 = stablehlo.multiply %269, %66 : tensor<64x64x1x32xbf16> loc(#loc941)
    %273 = stablehlo.multiply %267, %73 : tensor<64x64x1x32xbf16> loc(#loc942)
    %274 = stablehlo.add %272, %273 : tensor<64x64x1x32xbf16> loc(#loc943)
    %275 = stablehlo.concatenate %271, %274, dim = 3 : (tensor<64x64x1x32xbf16>, tensor<64x64x1x32xbf16>) -> tensor<64x64x1x64xbf16> loc(#loc944)
    %276 = stablehlo.custom_call @tt.mark_argument(%arg28) {api_version = 0 : i32, mhlo.frontend_attributes = {ttcore.argument_type = "input", ttir.name = "args_4"}} : (tensor<64x8x128x64xbf16>) -> tensor<64x8x128x64xbf16> loc(#loc945)
    %277 = stablehlo.reshape %arg12 : (tensor<512x2880xbf16>) -> tensor<1x512x2880xbf16> loc(#loc946)
    %278 = stablehlo.custom_call @tt.mark_argument(%277) {api_version = 0 : i32, mhlo.frontend_attributes = {ttcore.argument_type = "parameter", ttir.name = "self___model_model_layers_1_self_attn_k_proj__parameters__weight"}} : (tensor<1x512x2880xbf16>) -> tensor<1x512x2880xbf16> loc(#loc947)
    %279 = stablehlo.reshape %278 : (tensor<1x512x2880xbf16>) -> tensor<512x2880xbf16> loc(#loc948)
    %280 = stablehlo.transpose %279, dims = [1, 0] {result_layout = dense<[0, 1]> : tensor<2xindex>, xla_shape = "bf16[2880,512]{0,1}"} : (tensor<512x2880xbf16>) -> tensor<2880x512xbf16> loc(#loc949)
    %281 = stablehlo.dot_general %254, %280, contracting_dims = [1] x [0] : (tensor<64x2880xbf16>, tensor<2880x512xbf16>) -> tensor<64x512xbf16> loc(#loc950)
    %282 = stablehlo.reshape %281 : (tensor<64x512xbf16>) -> tensor<64x1x512xbf16> loc(#loc951)
    %283 = stablehlo.reshape %arg11 : (tensor<512xbf16>) -> tensor<1x1x512xbf16> loc(#loc952)
    %284 = stablehlo.custom_call @tt.mark_argument(%283) {api_version = 0 : i32, mhlo.frontend_attributes = {ttcore.argument_type = "parameter", ttir.name = "self___model_model_layers_1_self_attn_k_proj__parameters__bias"}} : (tensor<1x1x512xbf16>) -> tensor<1x1x512xbf16> loc(#loc953)
    %285 = stablehlo.reshape %284 : (tensor<1x1x512xbf16>) -> tensor<512xbf16> loc(#loc954)
    %286 = stablehlo.broadcast_in_dim %285, dims = [2] : (tensor<512xbf16>) -> tensor<64x1x512xbf16> loc(#loc955)
    %287 = stablehlo.add %282, %286 : tensor<64x1x512xbf16> loc(#loc956)
    %288 = stablehlo.reshape %287 : (tensor<64x1x512xbf16>) -> tensor<64x8x1x64xbf16> loc(#loc957)
    %289 = stablehlo.slice %288 [0:64, 0:8, 0:1, 0:32] : (tensor<64x8x1x64xbf16>) -> tensor<64x8x1x32xbf16> loc(#loc958)
    %290 = stablehlo.multiply %289, %98 : tensor<64x8x1x32xbf16> loc(#loc959)
    %291 = stablehlo.slice %288 [0:64, 0:8, 0:1, 32:64] : (tensor<64x8x1x64xbf16>) -> tensor<64x8x1x32xbf16> loc(#loc960)
    %292 = stablehlo.multiply %291, %101 : tensor<64x8x1x32xbf16> loc(#loc961)
    %293 = stablehlo.subtract %290, %292 : tensor<64x8x1x32xbf16> loc(#loc962)
    %294 = stablehlo.multiply %291, %98 : tensor<64x8x1x32xbf16> loc(#loc963)
    %295 = stablehlo.multiply %289, %101 : tensor<64x8x1x32xbf16> loc(#loc964)
    %296 = stablehlo.add %294, %295 : tensor<64x8x1x32xbf16> loc(#loc965)
    %297 = stablehlo.concatenate %293, %296, dim = 3 : (tensor<64x8x1x32xbf16>, tensor<64x8x1x32xbf16>) -> tensor<64x8x1x64xbf16> loc(#loc966)
    %298 = "stablehlo.scatter"(%276, %84, %297) <{scatter_dimension_numbers = #stablehlo.scatter<update_window_dims = [0, 1, 3], inserted_window_dims = [2], scatter_dims_to_operand_dims = [2], index_vector_dim = 1>}> ({
    ^bb0(%arg693: tensor<bf16> loc("scatter.701"), %arg694: tensor<bf16> loc("scatter.701")):
      stablehlo.return %arg694 : tensor<bf16> loc(#loc)
    }) : (tensor<64x8x128x64xbf16>, tensor<1x1xi64>, tensor<64x8x1x64xbf16>) -> tensor<64x8x128x64xbf16> loc(#loc967)
    %299 = stablehlo.broadcast_in_dim %298, dims = [0, 1, 3, 4] : (tensor<64x8x128x64xbf16>) -> tensor<64x8x8x128x64xbf16> loc(#loc968)
    %300 = stablehlo.reshape %299 : (tensor<64x8x8x128x64xbf16>) -> tensor<64x64x128x64xbf16> loc(#loc969)
    %301 = stablehlo.transpose %300, dims = [0, 1, 3, 2] {result_layout = dense<[2, 3, 1, 0]> : tensor<4xindex>, xla_shape = "bf16[64,64,64,128]{2,3,1,0}"} : (tensor<64x64x128x64xbf16>) -> tensor<64x64x64x128xbf16> loc(#loc970)
    %302 = stablehlo.dot_general %275, %301, batching_dims = [0, 1] x [0, 1], contracting_dims = [3] x [2] {mhlo.frontend_attributes = {grad_x = "false", grad_y = "false"}} : (tensor<64x64x1x64xbf16>, tensor<64x64x64x128xbf16>) -> tensor<64x64x1x128xbf16> loc(#loc971)
    %303 = stablehlo.multiply %302, %16 : tensor<64x64x1x128xbf16> loc(#loc972)
    %304 = stablehlo.reshape %122 : (tensor<1x1x1x128xi1>) -> tensor<1x1x128xi1> loc(#loc973)
    %305 = stablehlo.broadcast_in_dim %304, dims = [1, 2, 3] : (tensor<1x1x128xi1>) -> tensor<64x1x1x128xi1> loc(#loc974)
    %306 = stablehlo.reshape %arg41 : (tensor<bf16>) -> tensor<1x1x1xbf16> loc(#loc975)
    %307 = stablehlo.custom_call @tt.mark_argument(%306) {api_version = 0 : i32, mhlo.frontend_attributes = {ttcore.argument_type = "constant", ttir.name = "L['self'].model.model.lifted_tensor_0"}} : (tensor<1x1x1xbf16>) -> tensor<1x1x1xbf16> loc(#loc976)
    %308 = stablehlo.reshape %307 : (tensor<1x1x1xbf16>) -> tensor<1x1xbf16> loc(#loc977)
    %309 = stablehlo.broadcast_in_dim %308, dims = [1, 2] : (tensor<1x1xbf16>) -> tensor<64x1x1x128xbf16> loc(#loc978)
    %310 = stablehlo.select %305, %309, %12 : tensor<64x1x1x128xi1>, tensor<64x1x1x128xbf16> loc(#loc979)
    %311 = stablehlo.reshape %310 : (tensor<64x1x1x128xbf16>) -> tensor<64x1x128xbf16> loc(#loc980)
    %312 = stablehlo.broadcast_in_dim %311, dims = [0, 2, 3] : (tensor<64x1x128xbf16>) -> tensor<64x64x1x128xbf16> loc(#loc981)
    %313 = stablehlo.add %303, %312 : tensor<64x64x1x128xbf16> loc(#loc982)
    %314 = stablehlo.reshape %arg40 : (tensor<64xbf16>) -> tensor<1x1x64xbf16> loc(#loc983)
    %315 = stablehlo.custom_call @tt.mark_argument(%314) {api_version = 0 : i32, mhlo.frontend_attributes = {ttcore.argument_type = "parameter", ttir.name = "model.model.layers.1.self_attn.sinks"}} : (tensor<1x1x64xbf16>) -> tensor<1x1x64xbf16> loc(#loc984)
    %316 = stablehlo.reshape %315 : (tensor<1x1x64xbf16>) -> tensor<64x1x1xbf16> loc(#loc985)
    %317 = stablehlo.broadcast_in_dim %316, dims = [1, 2, 3] : (tensor<64x1x1xbf16>) -> tensor<64x64x1x1xbf16> loc(#loc986)
    %318 = stablehlo.concatenate %313, %317, dim = 3 : (tensor<64x64x1x128xbf16>, tensor<64x64x1x1xbf16>) -> tensor<64x64x1x129xbf16> loc(#loc987)
…
#loc6507 = loc("transpose.17005")
#loc6508 = loc("convert.17006")
#loc6509 = loc("dot.17212")
#loc6510 = loc("reshape.16991")
#loc6511 = loc("custom-call.16992")
#loc6512 = loc("reshape.16993")
#loc6513 = loc("convert.16994")
#loc6514 = loc("broadcast.17217")
#loc6515 = loc("add.17218")
#loc6516 = loc("convert.17219")
#loc6517 = loc("custom-call.17260")
#loc6518 = loc("broadcast.17264")
#loc6519 = loc("compare.17265")
#loc6520 = loc("convert.17266")
#loc6521 = loc("convert.17267")
#loc6522 = loc("reduce.17246")
#loc6523 = loc("broadcast.17247")
#loc6524 = loc("subtract.17248")
#loc6525 = loc("exponential.17249")
#loc6526 = loc("reduce.17255")
#loc6527 = loc("broadcast.17256")
#loc6528 = loc("divide.17257")
#loc6529 = loc("broadcast.17269")
#loc6530 = loc("multiply.17270")
#loc6531 = loc("reduce.17277")
#loc6532 = loc("transpose.17278")
#loc6533 = loc("reshape.17279")
#loc6534 = loc("broadcast.17340")
#loc6535 = loc("multiply.17341")
#loc6536 = loc("reduce.17348")
#loc6537 = loc("add.17351")
#loc6538 = loc("reshape.16979")
#loc6539 = loc("custom-call.16980")
#loc6540 = loc("reshape.16981")
#loc6541 = loc("custom-call.17384")
#loc6542 = loc("reshape.17566")
#loc6543 = loc("reshape.17562")
#loc6544 = loc("custom-call.17563")
#loc6545 = loc("reshape.17564")
#loc6546 = loc("transpose.17565")
#loc6547 = loc("dot.17567")
#loc6548 = loc("reshape.17568")
#loc6549 = loc("reshape.17558")
#loc6550 = loc("custom-call.17559")
#loc6551 = loc("reshape.17560")
#loc6552 = loc("broadcast.17571")
#loc6553 = loc("add.17572")
#loc6554 = loc("transpose.17574")
#loc6555 = loc("slice.17575")
#loc6556 = loc("multiply.17592")
#loc6557 = loc("slice.17579")
#loc6558 = loc("multiply.17589")
#loc6559 = loc("subtract.17595")
#loc6560 = loc("multiply.17582")
#loc6561 = loc("multiply.17578")
#loc6562 = loc("add.17585")
#loc6563 = loc("concatenate.17596")
#loc6564 = loc("custom-call.17428")
#loc6565 = loc("reshape.16974")
#loc6566 = loc("custom-call.16975")
#loc6567 = loc("reshape.16976")
#loc6568 = loc("transpose.16977")
#loc6569 = loc("dot.17386")
#loc6570 = loc("reshape.17387")
#loc6571 = loc("reshape.16970")
#loc6572 = loc("custom-call.16971")
#loc6573 = loc("reshape.16972")
#loc6574 = loc("broadcast.17390")
#loc6575 = loc("add.17391")
#loc6576 = loc("transpose.17393")
#loc6577 = loc("slice.17394")
#loc6578 = loc("multiply.17412")
#loc6579 = loc("slice.17399")
#loc6580 = loc("multiply.17409")
#loc6581 = loc("subtract.17415")
#loc6582 = loc("multiply.17402")
#loc6583 = loc("multiply.17397")
#loc6584 = loc("add.17405")
#loc6585 = loc("concatenate.17416")
#loc6587 = loc("broadcast.17552")
#loc6588 = loc("reshape.17553")
#loc6589 = loc("transpose.17554")
#loc6590 = loc("dot.17597")
#loc6591 = loc("multiply.17600")
#loc6592 = loc("add.17605")
#loc6593 = loc("reshape.17540")
#loc6594 = loc("custom-call.17541")
#loc6595 = loc("reshape.17545")
#loc6596 = loc("broadcast.17546")
#loc6597 = loc("concatenate.17606")
#loc6598 = loc("reduce.17613")
#loc6599 = loc("broadcast.17649")
#loc6600 = loc("subtract.17650")
#loc6601 = loc("reduce.17656")
#loc6602 = loc("broadcast.17657")
#loc6603 = loc("subtract.17658")
#loc6604 = loc("exponential.17659")
#loc6605 = loc("reduce.17665")
#loc6606 = loc("broadcast.17666")
#loc6607 = loc("divide.17667")
#loc6608 = loc("slice.17668")
#loc6609 = loc("custom-call.17465")
#loc6610 = loc("reshape.17441")
#loc6611 = loc("custom-call.17442")
#loc6612 = loc("reshape.17443")
#loc6613 = loc("transpose.17444")
#loc6614 = loc("dot.17446")
#loc6615 = loc("reshape.17447")
#loc6616 = loc("reshape.17437")
#loc6617 = loc("custom-call.17438")
#loc6618 = loc("reshape.17439")
#loc6619 = loc("broadcast.17450")
#loc6620 = loc("add.17451")
#loc6621 = loc("transpose.17453")
#loc6623 = loc("broadcast.17536")
#loc6624 = loc("reshape.17537")
#loc6625 = loc("dot.17669")
#loc6626 = loc("reshape.17673")
#loc6627 = loc("reshape.17529")
#loc6628 = loc("custom-call.17530")
#loc6629 = loc("reshape.17531")
#loc6630 = loc("transpose.17532")
#loc6631 = loc("dot.17674")
#loc6632 = loc("reshape.17675")
#loc6633 = loc("reshape.17525")
#loc6634 = loc("custom-call.17526")
#loc6635 = loc("reshape.17527")
#loc6636 = loc("broadcast.17678")
#loc6637 = loc("add.17679")
#loc6638 = loc("add.17682")
#loc6639 = loc("reshape.17514")
#loc6640 = loc("custom-call.17515")
#loc6641 = loc("reshape.17516")
#loc6642 = loc("custom-call.17715")
#loc6643 = loc("reshape.17808")
#loc6644 = loc("concatenate.17809")
#loc6645 = loc("reshape.17811")
#loc6646 = loc("custom-call.17806")
#loc6647 = loc("custom-call.17807")
#loc6648 = loc("dot.17812")
#loc6649 = loc("reshape.17801")
#loc6650 = loc("custom-call.17802")
#loc6651 = loc("reshape.17803")
#loc6652 = loc("broadcast.17816")
#loc6653 = loc("add.17817")
#loc6654 = loc("slice.17830")
#loc6655 = loc("clamp.17833")
#loc6656 = loc("add.17836")
#loc6657 = loc("slice.17818")
#loc6658 = loc("clamp.17821")
#loc6659 = loc("multiply.17823")
#loc6660 = loc("logistic.17824")
#loc6661 = loc("multiply.17825")
#loc6662 = loc("multiply.17837")
#loc6663 = loc("custom-call.17794")
#loc6664 = loc("custom-call.17795")
#loc6665 = loc("dot.17838")
#loc6666 = loc("reshape.17789")
#loc6667 = loc("custom-call.17790")
#loc6668 = loc("reshape.17791")
#loc6669 = loc("broadcast.17842")
#loc6670 = loc("add.17843")
#loc6671 = loc("reshape.17844")
#loc6672 = loc("convert.17717")
#loc6673 = loc("reshape.17505")
#loc6674 = loc("custom-call.17506")
#loc6675 = loc("custom-call.17509")
#loc6676 = loc("reshape.17510")
#loc6677 = loc("transpose.17511")
#loc6678 = loc("convert.17512")
#loc6679 = loc("dot.17718")
#loc6680 = loc("reshape.17497")
#loc6681 = loc("custom-call.17498")
#loc6682 = loc("reshape.17499")
#loc6683 = loc("convert.17500")
#loc6684 = loc("broadcast.17723")
#loc6685 = loc("add.17724")
#loc6686 = loc("convert.17725")
#loc6687 = loc("custom-call.17766")
#loc6688 = loc("broadcast.17770")
#loc6689 = loc("compare.17771")
#loc6690 = loc("convert.17772")
#loc6691 = loc("convert.17773")
#loc6692 = loc("reduce.17752")
#loc6693 = loc("broadcast.17753")
#loc6694 = loc("subtract.17754")
#loc6695 = loc("exponential.17755")
#loc6696 = loc("reduce.17761")
#loc6697 = loc("broadcast.17762")
#loc6698 = loc("divide.17763")
#loc6699 = loc("broadcast.17775")
#loc6700 = loc("multiply.17776")
#loc6701 = loc("reduce.17783")
#loc6702 = loc("transpose.17784")
#loc6703 = loc("reshape.17785")
#loc6704 = loc("broadcast.17846")
#loc6705 = loc("multiply.17847")
#loc6706 = loc("reduce.17854")
#loc6707 = loc("add.17857")
#loc6708 = loc("reshape.17485")
#loc6709 = loc("custom-call.17486")
#loc6710 = loc("reshape.17487")
#loc6711 = loc("custom-call.17890")
#loc6712 = loc("reshape.18071")
#loc6713 = loc("reshape.18067")
#loc6714 = loc("custom-call.18068")
#loc6715 = loc("reshape.18069")
#loc6716 = loc("transpose.18070")
#loc6717 = loc("dot.18072")
#loc6718 = loc("reshape.18073")
#loc6719 = loc("reshape.18063")
#loc6720 = loc("custom-call.18064")
#loc6721 = loc("reshape.18065")
#loc6722 = loc("broadcast.18076")
#loc6723 = loc("add.18077")
#loc6724 = loc("transpose.18079")
#loc6725 = loc("slice.18080")
#loc6726 = loc("multiply.18097")
#loc6727 = loc("slice.18084")
#loc6728 = loc("multiply.18094")
#loc6729 = loc("subtract.18100")
#loc6730 = loc("multiply.18087")
#loc6731 = loc("multiply.18083")
#loc6732 = loc("add.18090")
#loc6733 = loc("concatenate.18101")
#loc6734 = loc("custom-call.17934")
#loc6735 = loc("reshape.17480")
#loc6736 = loc("custom-call.17481")
#loc6737 = loc("reshape.17482")
#loc6738 = loc("transpose.17483")
#loc6739 = loc("dot.17892")
#loc6740 = loc("reshape.17893")
#loc6741 = loc("reshape.17476")
#loc6742 = loc("custom-call.17477")
#loc6743 = loc("reshape.17478")
#loc6744 = loc("broadcast.17896")
#loc6745 = loc("add.17897")
#loc6746 = loc("transpose.17899")
#loc6747 = loc("slice.17900")
#loc6748 = loc("multiply.17918")
#loc6749 = loc("slice.17905")
#loc6750 = loc("multiply.17915")
#loc6751 = loc("subtract.17921")
#loc6752 = loc("multiply.17908")
#loc6753 = loc("multiply.17903")
#loc6754 = loc("add.17911")
#loc6755 = loc("concatenate.17922")
#loc6757 = loc("broadcast.18057")
#loc6758 = loc("reshape.18058")
#loc6759 = loc("transpose.18059")
#loc6760 = loc("dot.18102")
#loc6761 = loc("multiply.18105")
#loc6762 = loc("add.18110")
#loc6763 = loc("reshape.18045")
#loc6764 = loc("custom-call.18046")
#loc6765 = loc("reshape.18050")
#loc6766 = loc("broadcast.18051")
#loc6767 = loc("concatenate.18111")
#loc6768 = loc("custom-call.17971")
#loc6769 = loc("reshape.17947")
#loc6770 = loc("custom-call.17948")
#loc6771 = loc("reshape.17949")
#loc6772 = loc("transpose.17950")
#loc6773 = loc("dot.17952")
#loc6774 = loc("reshape.17953")
#loc6775 = loc("reshape.17943")
#loc6776 = loc("custom-call.17944")
#loc6777 = loc("reshape.17945")
#loc6778 = loc("broadcast.17956")
#loc6779 = loc("add.17957")
#loc6780 = loc("transpose.17959")
#loc6782 = loc("add.17983")
#loc6783 = loc("reduce.18118")
#loc6784 = loc("broadcast.18154")
#loc6785 = loc("subtract.18155")
#loc6786 = loc("reduce.18161")
#loc6787 = loc("broadcast.18162")
#loc6788 = loc("subtract.18163")
#loc6789 = loc("exponential.18164")
#loc6790 = loc("reduce.18170")
#loc6791 = loc("broadcast.18171")
#loc6792 = loc("divide.18172")
#loc6793 = loc("slice.18173")
#loc6794 = loc("broadcast.18041")
#loc6795 = loc("reshape.18042")
#loc6796 = loc("dot.18174")
#loc6797 = loc("reshape.18178")
#loc6798 = loc("reshape.18034")
#loc6799 = loc("custom-call.18035")
#loc6800 = loc("reshape.18036")
#loc6801 = loc("transpose.18037")
#loc6802 = loc("dot.18179")
#loc6803 = loc("reshape.18180")
#loc6804 = loc("reshape.18030")
#loc6805 = loc("custom-call.18031")
#loc6806 = loc("reshape.18032")
#loc6807 = loc("broadcast.18183")
#loc6808 = loc("add.18184")
#loc6809 = loc("add.18187")
#loc6810 = loc("reshape.18019")
#loc6811 = loc("custom-call.18020")
#loc6812 = loc("reshape.18021")
#loc6813 = loc("custom-call.18220")
#loc6814 = loc("reshape.18313")
#loc6815 = loc("concatenate.18314")
#loc6816 = loc("reshape.18316")
#loc6817 = loc("custom-call.18311")
#loc6818 = loc("custom-call.18312")
#loc6819 = loc("dot.18317")
#loc6820 = loc("reshape.18306")
#loc6821 = loc("custom-call.18307")
#loc6822 = loc("reshape.18308")
#loc6823 = loc("broadcast.18321")
#loc6824 = loc("add.18322")
#loc6825 = loc("slice.18335")
#loc6826 = loc("clamp.18338")
#loc6827 = loc("add.18341")
#loc6828 = loc("slice.18323")
#loc6829 = loc("clamp.18326")
#loc6830 = loc("multiply.18328")
#loc6831 = loc("logistic.18329")
#loc6832 = loc("multiply.18330")
#loc6833 = loc("multiply.18342")
#loc6834 = loc("custom-call.18299")
#loc6835 = loc("custom-call.18300")
#loc6836 = loc("dot.18343")
#loc6837 = loc("reshape.18294")
#loc6838 = loc("custom-call.18295")
#loc6839 = loc("reshape.18296")
#loc6840 = loc("broadcast.18347")
#loc6841 = loc("add.18348")
#loc6842 = loc("reshape.18349")
#loc6843 = loc("convert.18222")
#loc6844 = loc("reshape.18010")
#loc6845 = loc("custom-call.18011")
#loc6846 = loc("custom-call.18014")
#loc6847 = loc("reshape.18015")
#loc6848 = loc("transpose.18016")
#loc6849 = loc("convert.18017")
#loc6850 = loc("dot.18223")
#loc6851 = loc("reshape.18002")
#loc6852 = loc("custom-call.18003")
#loc6853 = loc("reshape.18004")
#loc6854 = loc("convert.18005")
#loc6855 = loc("broadcast.18228")
#loc6856 = loc("add.18229")
#loc6857 = loc("convert.18230")
#loc6858 = loc("custom-call.18271")
#loc6859 = loc("broadcast.18275")
#loc6860 = loc("compare.18276")
#loc6861 = loc("convert.18277")
#loc6862 = loc("convert.18278")
#loc6863 = loc("reduce.18257")
#loc6864 = loc("broadcast.18258")
#loc6865 = loc("subtract.18259")
#loc6866 = loc("exponential.18260")
#loc6867 = loc("reduce.18266")
#loc6868 = loc("broadcast.18267")
#loc6869 = loc("divide.18268")
#loc6870 = loc("broadcast.18280")
#loc6871 = loc("multiply.18281")
#loc6872 = loc("reduce.18288")
#loc6873 = loc("transpose.18289")
#loc6874 = loc("reshape.18290")
#loc6875 = loc("broadcast.18351")
#loc6876 = loc("multiply.18352")
#loc6877 = loc("reduce.18359")
#loc6878 = loc("add.18362")
#loc6879 = loc("reshape.17990")
#loc6880 = loc("custom-call.17991")
#loc6881 = loc("reshape.17992")
#loc6882 = loc("custom-call.18395")
#loc6883 = loc("reshape.18396")
#loc6884 = loc("reshape.17985")
#loc6885 = loc("custom-call.17986")
#loc6886 = loc("reshape.17987")
#loc6887 = loc("transpose.17988")
#loc6888 = loc("dot.18397")
#loc6889 = loc("reshape.18398")
#loc6890 = loc("custom-call.18399")
#loc6891 = loc("reshape.18401")
#loc6892 = loc("iota.18404")
#loc6894 = loc("compare.18422")
#loc6895 = loc("select.18423")
#loc6896 = loc("compare.18425")
#loc6897 = loc("minimum.18426")
#loc6898 = loc("select.18424")
#loc6899 = loc("select.18427")
#loc6900 = loc("convert.18431")
#loc6901 = loc("reshape.18432")
#loc6903 = loc("iota.18232")
#loc6905 = loc("compare.18244")
#loc6906 = loc("slice.18249")
#loc6907 = loc("convert.18250")
#loc6908 = loc("slice.18247")
#loc6910 = loc("iota.17727")
#loc6912 = loc("compare.17739")
#loc6913 = loc("slice.17744")
#loc6914 = loc("convert.17745")
#loc6915 = loc("slice.17742")
#loc6918 = loc("convert.16847")
#loc6919 = loc("power.16849")
#loc6920 = loc("reduce.16856")
#loc6921 = loc("multiply.16865")
#loc6922 = loc("reshape.16866")
#loc6923 = loc("add.16870")
#loc6924 = loc("rsqrt.16871")
#loc6925 = loc("reshape.16872")
#loc6926 = loc("broadcast.16873")
#loc6927 = loc("multiply.16874")
#loc6928 = loc("convert.16477")
#loc6929 = loc("broadcast.16875")
#loc6930 = loc("multiply.16876")
#loc6931 = loc("convert.16877")
#loc6933 = loc("iota.16715")
#loc6935 = loc("compare.16727")
#loc6936 = loc("slice.16732")
#loc6937 = loc("convert.16733")
#loc6938 = loc("slice.16730")
#loc6941 = loc("convert.17353")
#loc6942 = loc("power.17355")
#loc6943 = loc("reduce.17362")
#loc6944 = loc("multiply.17371")
#loc6945 = loc("reshape.17372")
#loc6946 = loc("add.17376")
#loc6947 = loc("rsqrt.17377")
#loc6948 = loc("reshape.17378")
#loc6949 = loc("broadcast.17379")
#loc6950 = loc("multiply.17380")
#loc6951 = loc("convert.16983")
#loc6952 = loc("broadcast.17381")
#loc6953 = loc("multiply.17382")
#loc6954 = loc("convert.17383")
#loc6956 = loc("iota.15703")
#loc6958 = loc("compare.15715")
#loc6959 = loc("slice.15720")
#loc6960 = loc("convert.15721")
#loc6961 = loc("slice.15718")
#loc6963 = loc("iota.15197")
#loc6965 = loc("compare.15209")
#loc6966 = loc("slice.15214")
#loc6967 = loc("convert.15215")
#loc6968 = loc("slice.15212")
#loc6971 = loc("convert.14648")
#loc6972 = loc("power.14650")
#loc6973 = loc("reduce.14657")
#loc6974 = loc("multiply.14666")
#loc6975 = loc("reshape.14667")
#loc6976 = loc("add.14671")
#loc6977 = loc("rsqrt.14672")
#loc6978 = loc("reshape.14673")
#loc6979 = loc("broadcast.14674")
#loc6980 = loc("multiply.14675")
#loc6981 = loc("convert.14482")
#loc6982 = loc("broadcast.14676")
#loc6983 = loc("multiply.14677")
#loc6984 = loc("convert.14678")
#loc6987 = loc("convert.14317")
#loc6988 = loc("power.14319")
#loc6989 = loc("reduce.14326")
#loc6990 = loc("multiply.14335")
#loc6991 = loc("reshape.14336")
#loc6992 = loc("add.14340")
#loc6993 = loc("rsqrt.14341")
#loc6994 = loc("reshape.14342")
#loc6995 = loc("broadcast.14343")
#loc6996 = loc("multiply.14344")
#loc6997 = loc("convert.13947")
#loc6998 = loc("broadcast.14345")
#loc6999 = loc("multiply.14346")
#loc7000 = loc("convert.14347")
#loc7003 = loc("convert.14142")
#loc7004 = loc("power.14144")
#loc7005 = loc("reduce.14151")
#loc7006 = loc("multiply.14160")
#loc7007 = loc("reshape.14161")
#loc7008 = loc("add.14165")
#loc7009 = loc("rsqrt.14166")
#loc7010 = loc("reshape.14167")
#loc7011 = loc("broadcast.14168")
#loc7012 = loc("multiply.14169")
#loc7013 = loc("convert.13976")
#loc7014 = loc("broadcast.14170")
#loc7015 = loc("multiply.14171")
#loc7016 = loc("convert.14172")
#loc7019 = loc("convert.13811")
#loc7020 = loc("power.13813")
#loc7021 = loc("reduce.13820")
#loc7022 = loc("multiply.13829")
#loc7023 = loc("reshape.13830")
#loc7024 = loc("add.13834")
#loc7025 = loc("rsqrt.13835")
#loc7026 = loc("reshape.13836")
#loc7027 = loc("broadcast.13837")
#loc7028 = loc("multiply.13838")
#loc7029 = loc("convert.13441")
#loc7030 = loc("broadcast.13839")
#loc7031 = loc("multiply.13840")
#loc7032 = loc("convert.13841")
#loc7035 = loc("convert.13636")
#loc7036 = loc("power.13638")
#loc7037 = loc("reduce.13645")
#loc7038 = loc("multiply.13654")
#loc7039 = loc("reshape.13655")
#loc7040 = loc("add.13659")
#loc7041 = loc("rsqrt.13660")
#loc7042 = loc("reshape.13661")
#loc7043 = loc("broadcast.13662")
#loc7044 = loc("multiply.13663")
#loc7045 = loc("convert.13470")
#loc7046 = loc("broadcast.13664")
#loc7047 = loc("multiply.13665")
#loc7048 = loc("convert.13666")
#loc7051 = loc("convert.12799")
#loc7052 = loc("power.12801")
#loc7053 = loc("reduce.12808")
#loc7054 = loc("multiply.12817")
#loc7055 = loc("reshape.12818")
#loc7056 = loc("add.12822")
#loc7057 = loc("rsqrt.12823")
#loc7058 = loc("reshape.12824")
#loc7059 = loc("broadcast.12825")
#loc7060 = loc("multiply.12826")
#loc7061 = loc("convert.12429")
#loc7062 = loc("broadcast.12827")
#loc7063 = loc("multiply.12828")
#loc7064 = loc("convert.12829")
#loc7066 = loc("iota.12667")
#loc7068 = loc("compare.12679")
#loc7069 = loc("slice.12684")
#loc7070 = loc("convert.12685")
#loc7071 = loc("slice.12682")
#loc7074 = loc("convert.12624")
#loc7075 = loc("power.12626")
#loc7076 = loc("reduce.12633")
#loc7077 = loc("multiply.12642")
#loc7078 = loc("reshape.12643")
#loc7079 = loc("add.12647")
#loc7080 = loc("rsqrt.12648")
#loc7081 = loc("reshape.12649")
#loc7082 = loc("broadcast.12650")
#loc7083 = loc("multiply.12651")
#loc7084 = loc("convert.12458")
#loc7085 = loc("broadcast.12652")
#loc7086 = loc("multiply.12653")
#loc7087 = loc("convert.12654")
#loc7090 = loc("convert.15329")
#loc7091 = loc("power.15331")
#loc7092 = loc("reduce.15338")
#loc7093 = loc("multiply.15347")
#loc7094 = loc("reshape.15348")
#loc7095 = loc("add.15352")
#loc7096 = loc("rsqrt.15353")
#loc7097 = loc("reshape.15354")
#loc7098 = loc("broadcast.15355")
#loc7099 = loc("multiply.15356")
#loc7100 = loc("convert.14959")
#loc7101 = loc("broadcast.15357")
#loc7102 = loc("multiply.15358")
#loc7103 = loc("convert.15359")
#loc7106 = loc("convert.12293")
#loc7107 = loc("power.12295")
#loc7108 = loc("reduce.12302")
#loc7109 = loc("multiply.12311")
#loc7110 = loc("reshape.12312")
#loc7111 = loc("add.12316")
#loc7112 = loc("rsqrt.12317")
#loc7113 = loc("reshape.12318")
#loc7114 = loc("broadcast.12319")
#loc7115 = loc("multiply.12320")
#loc7116 = loc("convert.11923")
#loc7117 = loc("broadcast.12321")
#loc7118 = loc("multiply.12322")
#loc7119 = loc("convert.12323")
#loc7121 = loc("iota.14691")
#loc7123 = loc("compare.14703")
#loc7124 = loc("slice.14708")
#loc7125 = loc("convert.14709")
#loc7126 = loc("slice.14706")
#loc7128 = loc("iota.12161")
#loc7130 = loc("compare.12173")
#loc7131 = loc("slice.12178")
#loc7132 = loc("convert.12179")
#loc7133 = loc("slice.12176")
#loc7136 = loc("convert.12118")
#loc7137 = loc("power.12120")
#loc7138 = loc("reduce.12127")
#loc7139 = loc("multiply.12136")
#loc7140 = loc("reshape.12137")
#loc7141 = loc("add.12141")
#loc7142 = loc("rsqrt.12142")
#loc7143 = loc("reshape.12143")
#loc7144 = loc("broadcast.12144")
#loc7145 = loc("multiply.12145")
#loc7146 = loc("convert.11952")
#loc7147 = loc("broadcast.12146")
#loc7148 = loc("multiply.12147")
#loc7149 = loc("convert.12148")
#loc7152 = loc("convert.11281")
#loc7153 = loc("power.11283")
#loc7154 = loc("reduce.11290")
#loc7155 = loc("multiply.11299")
#loc7156 = loc("reshape.11300")
#loc7157 = loc("add.11304")
#loc7158 = loc("rsqrt.11305")
#loc7159 = loc("reshape.11306")
#loc7160 = loc("broadcast.11307")
#loc7161 = loc("multiply.11308")
#loc7162 = loc("convert.10911")
#loc7163 = loc("broadcast.11309")
#loc7164 = loc("multiply.11310")
#loc7165 = loc("convert.11311")
#loc7167 = loc("iota.11149")
#loc7169 = loc("compare.11161")
#loc7170 = loc("slice.11166")
#loc7171 = loc("convert.11167")
#loc7172 = loc("slice.11164")
#loc7175 = loc("convert.10775")
#loc7176 = loc("power.10777")
#loc7177 = loc("reduce.10784")
#loc7178 = loc("multiply.10793")
#loc7179 = loc("reshape.10794")
#loc7180 = loc("add.10798")
#loc7181 = loc("rsqrt.10799")
#loc7182 = loc("reshape.10800")
#loc7183 = loc("broadcast.10801")
#loc7184 = loc("multiply.10802")
#loc7185 = loc("convert.10405")
#loc7186 = loc("broadcast.10803")
#loc7187 = loc("multiply.10804")
#loc7188 = loc("convert.10805")
#loc7190 = loc("iota.10643")
#loc7192 = loc("compare.10655")
#loc7193 = loc("slice.10660")
#loc7194 = loc("convert.10661")
#loc7195 = loc("slice.10658")
#loc7198 = loc("convert.11612")
#loc7199 = loc("power.11614")
#loc7200 = loc("reduce.11621")
#loc7201 = loc("multiply.11630")
#loc7202 = loc("reshape.11631")
#loc7203 = loc("add.11635")
#loc7204 = loc("rsqrt.11636")
#loc7205 = loc("reshape.11637")
#loc7206 = loc("broadcast.11638")
#loc7207 = loc("multiply.11639")
#loc7208 = loc("convert.11446")
#loc7209 = loc("broadcast.11640")
#loc7210 = loc("multiply.11641")
#loc7211 = loc("convert.11642")
#loc7214 = loc("convert.10269")
#loc7215 = loc("power.10271")
#loc7216 = loc("reduce.10278")
#loc7217 = loc("multiply.10287")
#loc7218 = loc("reshape.10288")
#loc7219 = loc("add.10292")
#loc7220 = loc("rsqrt.10293")
#loc7221 = loc("reshape.10294")
#loc7222 = loc("broadcast.10295")
#loc7223 = loc("multiply.10296")
#loc7224 = loc("convert.9899")
#loc7225 = loc("broadcast.10297")
#loc7226 = loc("multiply.10298")
#loc7227 = loc("convert.10299")
#loc7230 = loc("convert.17684")
#loc7231 = loc("power.17686")
#loc7232 = loc("reduce.17693")
#loc7233 = loc("multiply.17702")
#loc7234 = loc("reshape.17703")
#loc7235 = loc("add.17707")
#loc7236 = loc("rsqrt.17708")
#loc7237 = loc("reshape.17709")
#loc7238 = loc("broadcast.17710")
#loc7239 = loc("multiply.17711")
#loc7240 = loc("convert.17518")
#loc7241 = loc("broadcast.17712")
#loc7242 = loc("multiply.17713")
#loc7243 = loc("convert.17714")
#loc7245 = loc("iota.4571")
#loc7247 = loc("compare.4583")
#loc7248 = loc("slice.4588")
#loc7249 = loc("convert.4589")
#loc7250 = loc("slice.4586")
#loc7252 = loc("iota.9631")
#loc7254 = loc("compare.9643")
#loc7255 = loc("slice.9648")
#loc7256 = loc("convert.9649")
#loc7257 = loc("slice.9646")
#loc7260 = loc("convert.13130")
#loc7261 = loc("power.13132")
#loc7262 = loc("reduce.13139")
#loc7263 = loc("multiply.13148")
#loc7264 = loc("reshape.13149")
#loc7265 = loc("add.13153")
#loc7266 = loc("rsqrt.13154")
#loc7267 = loc("reshape.13155")
#loc7268 = loc("broadcast.13156")
#loc7269 = loc("multiply.13157")
#loc7270 = loc("convert.12964")
#loc7271 = loc("broadcast.13158")
#loc7272 = loc("multiply.13159")
#loc7273 = loc("convert.13160")
#loc7275 = loc("iota.3053")
#loc7277 = loc("compare.3065")
#loc7278 = loc("slice.3070")
#loc7279 = loc("convert.3071")
#loc7280 = loc("slice.3068")
#loc7282 = loc("iota.10137")
#loc7284 = loc("compare.10149")
#loc7285 = loc("slice.10154")
#loc7286 = loc("convert.10155")
#loc7287 = loc("slice.10152")
#loc7290 = loc("convert.5034")
#loc7291 = loc("power.5036")
#loc7292 = loc("reduce.5043")
#loc7293 = loc("multiply.5052")
#loc7294 = loc("reshape.5053")
#loc7295 = loc("add.5057")
#loc7296 = loc("rsqrt.5058")
#loc7297 = loc("reshape.5059")
#loc7298 = loc("broadcast.5060")
#loc7299 = loc("multiply.5061")
#loc7300 = loc("convert.4868")
#loc7301 = loc("broadcast.5062")
#loc7302 = loc("multiply.5063")
#loc7303 = loc("convert.5064")
#loc7306 = loc("convert.16672")
#loc7307 = loc("power.16674")
#loc7308 = loc("reduce.16681")
#loc7309 = loc("multiply.16690")
#loc7310 = loc("reshape.16691")
#loc7311 = loc("add.16695")
#loc7312 = loc("rsqrt.16696")
#loc7313 = loc("reshape.16697")
#loc7314 = loc("broadcast.16698")
#loc7315 = loc("multiply.16699")
#loc7316 = loc("convert.16506")
#loc7317 = loc("broadcast.16700")
#loc7318 = loc("multiply.16701")
#loc7319 = loc("convert.16702")
#loc7322 = loc("convert.3010")
#loc7323 = loc("power.3012")
#loc7324 = loc("reduce.3019")
#loc7325 = loc("multiply.3028")
#loc7326 = loc("reshape.3029")
#loc7327 = loc("add.3033")
#loc7328 = loc("rsqrt.3034")
#loc7329 = loc("reshape.3035")
#loc7330 = loc("broadcast.3036")
#loc7331 = loc("multiply.3037")
#loc7332 = loc("convert.2844")
#loc7333 = loc("broadcast.3038")
#loc7334 = loc("multiply.3039")
#loc7335 = loc("convert.3040")
#loc7338 = loc("convert.3691")
#loc7339 = loc("power.3693")
#loc7340 = loc("reduce.3700")
#loc7341 = loc("multiply.3709")
#loc7342 = loc("reshape.3710")
#loc7343 = loc("add.3714")
#loc7344 = loc("rsqrt.3715")
#loc7345 = loc("reshape.3716")
#loc7346 = loc("broadcast.3717")
#loc7347 = loc("multiply.3718")
#loc7348 = loc("convert.3321")
#loc7349 = loc("broadcast.3719")
#loc7350 = loc("multiply.3720")
#loc7351 = loc("convert.3721")
#loc7354 = loc("convert.3516")
#loc7355 = loc("power.3518")
#loc7356 = loc("reduce.3525")
#loc7357 = loc("multiply.3534")
#loc7358 = loc("reshape.3535")
#loc7359 = loc("add.3539")
#loc7360 = loc("rsqrt.3540")
#loc7361 = loc("reshape.3541")
#loc7362 = loc("broadcast.3542")
#loc7363 = loc("multiply.3543")
#loc7364 = loc("convert.3350")
#loc7365 = loc("broadcast.3544")
#loc7366 = loc("multiply.3545")
#loc7367 = loc("convert.3546")
#loc7370 = loc("convert.4528")
#loc7371 = loc("power.4530")
#loc7372 = loc("reduce.4537")
#loc7373 = loc("multiply.4546")
#loc7374 = loc("reshape.4547")
#loc7375 = loc("add.4551")
#loc7376 = loc("rsqrt.4552")
#loc7377 = loc("reshape.4553")
#loc7378 = loc("broadcast.4554")
#loc7379 = loc("multiply.4555")
#loc7380 = loc("convert.4362")
#loc7381 = loc("broadcast.4556")
#loc7382 = loc("multiply.4557")
#loc7383 = loc("convert.4558")
#loc7386 = loc("convert.15835")
#loc7387 = loc("power.15837")
#loc7388 = loc("reduce.15844")
#loc7389 = loc("multiply.15853")
#loc7390 = loc("reshape.15854")
#loc7391 = loc("add.15858")
#loc7392 = loc("rsqrt.15859")
#loc7393 = loc("reshape.15860")
#loc7394 = loc("broadcast.15861")
#loc7395 = loc("multiply.15862")
#loc7396 = loc("convert.15465")
#loc7397 = loc("broadcast.15863")
#loc7398 = loc("multiply.15864")
#loc7399 = loc("convert.15865")
#loc7402 = loc("convert.2679")
#loc7403 = loc("power.2681")
#loc7404 = loc("reduce.2688")
#loc7405 = loc("multiply.2697")
#loc7406 = loc("reshape.2698")
#loc7407 = loc("add.2702")
#loc7408 = loc("rsqrt.2703")
#loc7409 = loc("reshape.2704")
#loc7410 = loc("broadcast.2705")
#loc7411 = loc("multiply.2706")
#loc7412 = loc("convert.2309")
#loc7413 = loc("broadcast.2707")
#loc7414 = loc("multiply.2708")
#loc7415 = loc("convert.2709")
#loc7418 = loc("convert.1161")
#loc7419 = loc("power.1163")
#loc7420 = loc("reduce.1170")
#loc7421 = loc("multiply.1179")
#loc7422 = loc("reshape.1180")
#loc7423 = loc("add.1184")
#loc7424 = loc("rsqrt.1185")
#loc7425 = loc("reshape.1186")
#loc7426 = loc("broadcast.1187")
#loc7427 = loc("multiply.1188")
#loc7428 = loc("convert.757")
#loc7429 = loc("broadcast.1189")
#loc7430 = loc("multiply.1190")
#loc7431 = loc("convert.1191")
#loc7434 = loc("convert.17859")
#loc7435 = loc("power.17861")
#loc7436 = loc("reduce.17868")
#loc7437 = loc("multiply.17877")
#loc7438 = loc("reshape.17878")
#loc7439 = loc("add.17882")
#loc7440 = loc("rsqrt.17883")
#loc7441 = loc("reshape.17884")
#loc7442 = loc("broadcast.17885")
#loc7443 = loc("multiply.17886")
#loc7444 = loc("convert.17489")
#loc7445 = loc("broadcast.17887")
#loc7446 = loc("multiply.17888")
#loc7447 = loc("convert.17889")
#loc7450 = loc("convert.15660")
#loc7451 = loc("power.15662")
#loc7452 = loc("reduce.15669")
#loc7453 = loc("multiply.15678")
#loc7454 = loc("reshape.15679")
#loc7455 = loc("add.15683")
#loc7456 = loc("rsqrt.15684")
#loc7457 = loc("reshape.15685")
#loc7458 = loc("broadcast.15686")
#loc7459 = loc("multiply.15687")
#loc7460 = loc("convert.15494")
#loc7461 = loc("broadcast.15688")
#loc7462 = loc("multiply.15689")
#loc7463 = loc("convert.15690")
#loc7466 = loc("convert.4197")
#loc7467 = loc("power.4199")
#loc7468 = loc("reduce.4206")
#loc7469 = loc("multiply.4215")
#loc7470 = loc("reshape.4216")
#loc7471 = loc("add.4220")
#loc7472 = loc("rsqrt.4221")
#loc7473 = loc("reshape.4222")
#loc7474 = loc("broadcast.4223")
#loc7475 = loc("multiply.4224")
#loc7476 = loc("convert.3827")
#loc7477 = loc("broadcast.4225")
#loc7478 = loc("multiply.4226")
#loc7479 = loc("convert.4227")
#loc7481 = loc("iota.14185")
#loc7483 = loc("compare.14197")
#loc7484 = loc("slice.14202")
#loc7485 = loc("convert.14203")
#loc7486 = loc("slice.14200")
#loc7489 = loc("convert.446")
#loc7490 = loc("power.448")
#loc7491 = loc("reduce.455")
#loc7492 = loc("multiply.464")
#loc7493 = loc("reshape.465")
#loc7494 = loc("add.469")
#loc7495 = loc("rsqrt.470")
#loc7496 = loc("reshape.471")
#loc7497 = loc("broadcast.472")
#loc7498 = loc("multiply.473")
#loc7499 = loc("convert.229")
#loc7500 = loc("broadcast.474")
#loc7501 = loc("multiply.475")
#loc7502 = loc("convert.476")
#loc7504 = loc("iota.5583")
#loc7506 = loc("compare.5595")
#loc7507 = loc("slice.5600")
#loc7508 = loc("convert.5601")
#loc7509 = loc("slice.5598")
#loc7512 = loc("convert.5715")
#loc7513 = loc("power.5717")
#loc7514 = loc("reduce.5724")
#loc7515 = loc("multiply.5733")
#loc7516 = loc("reshape.5734")
#loc7517 = loc("add.5738")
#loc7518 = loc("rsqrt.5739")
#loc7519 = loc("reshape.5740")
#loc7520 = loc("broadcast.5741")
#loc7521 = loc("multiply.5742")
#loc7522 = loc("convert.5345")
#loc7523 = loc("broadcast.5743")
#loc7524 = loc("multiply.5744")
#loc7525 = loc("convert.5745")
#loc7528 = loc("convert.9763")
#loc7529 = loc("power.9765")
#loc7530 = loc("reduce.9772")
#loc7531 = loc("multiply.9781")
#loc7532 = loc("reshape.9782")
#loc7533 = loc("add.9786")
#loc7534 = loc("rsqrt.9787")
#loc7535 = loc("reshape.9788")
#loc7536 = loc("broadcast.9789")
#loc7537 = loc("multiply.9790")
#loc7538 = loc("convert.9393")
#loc7539 = loc("broadcast.9791")
#loc7540 = loc("multiply.9792")
#loc7541 = loc("convert.9793")
#loc7543 = loc("iota.489")
#loc7545 = loc("compare.501")
#loc7546 = loc("slice.506")
#loc7547 = loc("convert.507")
#loc7548 = loc("slice.504")
#loc7551 = loc("convert.18189")
#loc7552 = loc("power.18191")
#loc7553 = loc("reduce.18198")
#loc7554 = loc("multiply.18207")
#loc7555 = loc("reshape.18208")
#loc7556 = loc("add.18212")
#loc7557 = loc("rsqrt.18213")
#loc7558 = loc("reshape.18214")
#loc7559 = loc("broadcast.18215")
#loc7560 = loc("multiply.18216")
#loc7561 = loc("convert.18023")
#loc7562 = loc("broadcast.18217")
#loc7563 = loc("multiply.18218")
#loc7564 = loc("convert.18219")
#loc7567 = loc("convert.621")
#loc7568 = loc("power.623")
#loc7569 = loc("reduce.630")
#loc7570 = loc("multiply.639")
#loc7571 = loc("reshape.640")
#loc7572 = loc("add.644")
#loc7573 = loc("rsqrt.645")
#loc7574 = loc("reshape.646")
#loc7575 = loc("broadcast.647")
#loc7576 = loc("multiply.648")
#loc7577 = loc("convert.200")
#loc7578 = loc("broadcast.649")
#loc7579 = loc("multiply.650")
#loc7580 = loc("convert.651")
#loc7583 = loc("convert.17178")
#loc7584 = loc("power.17180")
#loc7585 = loc("reduce.17187")
#loc7586 = loc("multiply.17196")
#loc7587 = loc("reshape.17197")
#loc7588 = loc("add.17201")
#loc7589 = loc("rsqrt.17202")
#loc7590 = loc("reshape.17203")
#loc7591 = loc("broadcast.17204")
#loc7592 = loc("multiply.17205")
#loc7593 = loc("convert.17012")
#loc7594 = loc("broadcast.17206")
#loc7595 = loc("multiply.17207")
#loc7596 = loc("convert.17208")
#loc7598 = loc("iota.1029")
#loc7600 = loc("compare.1041")
#loc7601 = loc("slice.1046")
#loc7602 = loc("convert.1047")
#loc7603 = loc("slice.1044")
#loc7606 = loc("convert.18364")
#loc7607 = loc("power.18366")
#loc7608 = loc("reduce.18373")
#loc7609 = loc("multiply.18382")
#loc7610 = loc("reshape.18383")
#loc7611 = loc("add.18387")
#loc7612 = loc("rsqrt.18388")
#loc7613 = loc("reshape.18389")
#loc7614 = loc("broadcast.18390")
#loc7615 = loc("multiply.18391")
#loc7616 = loc("convert.17994")
#loc7617 = loc("broadcast.18392")
#loc7618 = loc("multiply.18393")
#loc7619 = loc("convert.18394")
#loc7622 = loc("convert.986")
#loc7623 = loc("power.988")
#loc7624 = loc("reduce.995")
#loc7625 = loc("multiply.1004")
#loc7626 = loc("reshape.1005")
#loc7627 = loc("add.1009")
#loc7628 = loc("rsqrt.1010")
#loc7629 = loc("reshape.1011")
#loc7630 = loc("broadcast.1012")
#loc7631 = loc("multiply.1013")
#loc7632 = loc("convert.786")
#loc7633 = loc("broadcast.1014")
#loc7634 = loc("multiply.1015")
#loc7635 = loc("convert.1016")
#loc7637 = loc("iota.16209")
#loc7639 = loc("compare.16221")
#loc7640 = loc("slice.16226")
#loc7641 = loc("convert.16227")
#loc7642 = loc("slice.16224")
#loc7644 = loc("iota.13679")
#loc7646 = loc("compare.13691")
#loc7647 = loc("slice.13696")
#loc7648 = loc("convert.13697")
#loc7649 = loc("slice.13694")
#loc7652 = loc("convert.3185")
#loc7653 = loc("power.3187")
#loc7654 = loc("reduce.3194")
#loc7655 = loc("multiply.3203")
#loc7656 = loc("reshape.3204")
#loc7657 = loc("add.3208")
#loc7658 = loc("rsqrt.3209")
#loc7659 = loc("reshape.3210")
#loc7660 = loc("broadcast.3211")
#loc7661 = loc("multiply.3212")
#loc7662 = loc("convert.2815")
#loc7663 = loc("broadcast.3213")
#loc7664 = loc("multiply.3214")
#loc7665 = loc("convert.3215")
#loc7668 = loc("convert.9257")
#loc7669 = loc("power.9259")
#loc7670 = loc("reduce.9266")
#loc7671 = loc("multiply.9275")
#loc7672 = loc("reshape.9276")
#loc7673 = loc("add.9280")
#loc7674 = loc("rsqrt.9281")
#loc7675 = loc("reshape.9282")
#loc7676 = loc("broadcast.9283")
#loc7677 = loc("multiply.9284")
#loc7678 = loc("convert.8887")
#loc7679 = loc("broadcast.9285")
#loc7680 = loc("multiply.9286")
#loc7681 = loc("convert.9287")
#loc7684 = loc("convert.14823")
#loc7685 = loc("power.14825")
#loc7686 = loc("reduce.14832")
#loc7687 = loc("multiply.14841")
#loc7688 = loc("reshape.14842")
#loc7689 = loc("add.14846")
#loc7690 = loc("rsqrt.14847")
#loc7691 = loc("reshape.14848")
#loc7692 = loc("broadcast.14849")
#loc7693 = loc("multiply.14850")
#loc7694 = loc("convert.14453")
#loc7695 = loc("broadcast.14851")
#loc7696 = loc("multiply.14852")
#loc7697 = loc("convert.14853")
#loc7700 = loc("convert.9082")
#loc7701 = loc("power.9084")
#loc7702 = loc("reduce.9091")
#loc7703 = loc("multiply.9100")
#loc7704 = loc("reshape.9101")
#loc7705 = loc("add.9105")
#loc7706 = loc("rsqrt.9106")
#loc7707 = loc("reshape.9107")
#loc7708 = loc("broadcast.9108")
#loc7709 = loc("multiply.9109")
#loc7710 = loc("convert.8916")
#loc7711 = loc("broadcast.9110")
#loc7712 = loc("multiply.9111")
#loc7713 = loc("convert.9112")
#loc7716 = loc("convert.10094")
#loc7717 = loc("power.10096")
#loc7718 = loc("reduce.10103")
#loc7719 = loc("multiply.10112")
#loc7720 = loc("reshape.10113")
#loc7721 = loc("add.10117")
#loc7722 = loc("rsqrt.10118")
#loc7723 = loc("reshape.10119")
#loc7724 = loc("broadcast.10120")
#loc7725 = loc("multiply.10121")
#loc7726 = loc("convert.9928")
#loc7727 = loc("broadcast.10122")
#loc7728 = loc("multiply.10123")
#loc7729 = loc("convert.10124")
#loc7731 = loc("iota.2041")
#loc7733 = loc("compare.2053")
#loc7734 = loc("slice.2058")
#loc7735 = loc("convert.2059")
#loc7736 = loc("slice.2056")
#loc7739 = loc("convert.16341")
#loc7740 = loc("power.16343")
#loc7741 = loc("reduce.16350")
#loc7742 = loc("multiply.16359")
#loc7743 = loc("reshape.16360")
#loc7744 = loc("add.16364")
#loc7745 = loc("rsqrt.16365")
#loc7746 = loc("reshape.16366")
#loc7747 = loc("broadcast.16367")
#loc7748 = loc("multiply.16368")
#loc7749 = loc("convert.15971")
#loc7750 = loc("broadcast.16369")
#loc7751 = loc("multiply.16370")
#loc7752 = loc("convert.16371")
#loc7755 = loc("convert.4703")
#loc7756 = loc("power.4705")
#loc7757 = loc("reduce.4712")
#loc7758 = loc("multiply.4721")
#loc7759 = loc("reshape.4722")
#loc7760 = loc("add.4726")
#loc7761 = loc("rsqrt.4727")
#loc7762 = loc("reshape.4728")
#loc7763 = loc("broadcast.4729")
#loc7764 = loc("multiply.4730")
#loc7765 = loc("convert.4333")
#loc7766 = loc("broadcast.4731")
#loc7767 = loc("multiply.4732")
#loc7768 = loc("convert.4733")
#loc7771 = loc("convert.4022")
#loc7772 = loc("power.4024")
#loc7773 = loc("reduce.4031")
#loc7774 = loc("multiply.4040")
#loc7775 = loc("reshape.4041")
#loc7776 = loc("add.4045")
#loc7777 = loc("rsqrt.4046")
#loc7778 = loc("reshape.4047")
#loc7779 = loc("broadcast.4048")
#loc7780 = loc("multiply.4049")
#loc7781 = loc("convert.3856")
#loc7782 = loc("broadcast.4050")
#loc7783 = loc("multiply.4051")
#loc7784 = loc("convert.4052")
#loc7786 = loc("iota.1535")
#loc7788 = loc("compare.1547")
#loc7789 = loc("slice.1552")
#loc7790 = loc("convert.1553")
#loc7791 = loc("slice.1550")
#loc7794 = loc("convert.2173")
#loc7795 = loc("power.2175")
#loc7796 = loc("reduce.2182")
#loc7797 = loc("multiply.2191")
#loc7798 = loc("reshape.2192")
#loc7799 = loc("add.2196")
#loc7800 = loc("rsqrt.2197")
#loc7801 = loc("reshape.2198")
#loc7802 = loc("broadcast.2199")
#loc7803 = loc("multiply.2200")
#loc7804 = loc("convert.1803")
#loc7805 = loc("broadcast.2201")
#loc7806 = loc("multiply.2202")
#loc7807 = loc("convert.2203")
#loc7809 = loc("iota.9125")
#loc7811 = loc("compare.9137")
#loc7812 = loc("slice.9142")
#loc7813 = loc("convert.9143")
#loc7814 = loc("slice.9140")
#loc7817 = loc("convert.1998")
#loc7818 = loc("power.2000")
#loc7819 = loc("reduce.2007")
#loc7820 = loc("multiply.2016")
#loc7821 = loc("reshape.2017")
#loc7822 = loc("add.2021")
#loc7823 = loc("rsqrt.2022")
#loc7824 = loc("reshape.2023")
#loc7825 = loc("broadcast.2024")
#loc7826 = loc("multiply.2025")
#loc7827 = loc("convert.1832")
#loc7828 = loc("broadcast.2026")
#loc7829 = loc("multiply.2027")
#loc7830 = loc("convert.2028")
#loc7832 = loc("iota.2547")
#loc7834 = loc("compare.2559")
#loc7835 = loc("slice.2564")
#loc7836 = loc("convert.2565")
#loc7837 = loc("slice.2562")
#loc7839 = loc("iota.8619")
#loc7841 = loc("compare.8631")
#loc7842 = loc("slice.8636")
#loc7843 = loc("convert.8637")
#loc7844 = loc("slice.8634")
#loc7846 = loc("iota.6089")
#loc7848 = loc("compare.6101")
#loc7849 = loc("slice.6106")
#loc7850 = loc("convert.6107")
#loc7851 = loc("slice.6104")
#loc7854 = loc("convert.1492")
#loc7855 = loc("power.1494")
#loc7856 = loc("reduce.1501")
#loc7857 = loc("multiply.1510")
#loc7858 = loc("reshape.1511")
#loc7859 = loc("add.1515")
#loc7860 = loc("rsqrt.1516")
#loc7861 = loc("reshape.1517")
#loc7862 = loc("broadcast.1518")
#loc7863 = loc("multiply.1519")
#loc7864 = loc("convert.1326")
#loc7865 = loc("broadcast.1520")
#loc7866 = loc("multiply.1521")
#loc7867 = loc("convert.1522")
#loc7870 = loc("convert.11787")
#loc7871 = loc("power.11789")
#loc7872 = loc("reduce.11796")
#loc7873 = loc("multiply.11805")
#loc7874 = loc("reshape.11806")
#loc7875 = loc("add.11810")
#loc7876 = loc("rsqrt.11811")
#loc7877 = loc("reshape.11812")
#loc7878 = loc("broadcast.11813")
#loc7879 = loc("multiply.11814")
#loc7880 = loc("convert.11417")
#loc7881 = loc("broadcast.11815")
#loc7882 = loc("multiply.11816")
#loc7883 = loc("convert.11817")
#loc7885 = loc("iota.4065")
#loc7887 = loc("compare.4077")
#loc7888 = loc("slice.4082")
#loc7889 = loc("convert.4083")
#loc7890 = loc("slice.4080")
#loc7893 = loc("convert.8070")
#loc7894 = loc("power.8072")
#loc7895 = loc("reduce.8079")
#loc7896 = loc("multiply.8088")
#loc7897 = loc("reshape.8089")
#loc7898 = loc("add.8093")
#loc7899 = loc("rsqrt.8094")
#loc7900 = loc("reshape.8095")
#loc7901 = loc("broadcast.8096")
#loc7902 = loc("multiply.8097")
#loc7903 = loc("convert.7904")
#loc7904 = loc("broadcast.8098")
#loc7905 = loc("multiply.8099")
#loc7906 = loc("convert.8100")
#loc7909 = loc("convert.16166")
#loc7910 = loc("power.16168")
#loc7911 = loc("reduce.16175")
#loc7912 = loc("multiply.16184")
#loc7913 = loc("reshape.16185")
#loc7914 = loc("add.16189")
#loc7915 = loc("rsqrt.16190")
#loc7916 = loc("reshape.16191")
#loc7917 = loc("broadcast.16192")
#loc7918 = loc("multiply.16193")
#loc7919 = loc("convert.16000")
#loc7920 = loc("broadcast.16194")
#loc7921 = loc("multiply.16195")
#loc7922 = loc("convert.16196")
#loc7925 = loc("convert.15154")
#loc7926 = loc("power.15156")
#loc7927 = loc("reduce.15163")
#loc7928 = loc("multiply.15172")
#loc7929 = loc("reshape.15173")
#loc7930 = loc("add.15177")
#loc7931 = loc("rsqrt.15178")
#loc7932 = loc("reshape.15179")
#loc7933 = loc("broadcast.15180")
#loc7934 = loc("multiply.15181")
#loc7935 = loc("convert.14988")
#loc7936 = loc("broadcast.15182")
#loc7937 = loc("multiply.15183")
#loc7938 = loc("convert.15184")
#loc7941 = loc("convert.9588")
#loc7942 = loc("power.9590")
#loc7943 = loc("reduce.9597")
#loc7944 = loc("multiply.9606")
#loc7945 = loc("reshape.9607")
#loc7946 = loc("add.9611")
#loc7947 = loc("rsqrt.9612")
#loc7948 = loc("reshape.9613")
#loc7949 = loc("broadcast.9614")
#loc7950 = loc("multiply.9615")
#loc7951 = loc("convert.9422")
#loc7952 = loc("broadcast.9616")
#loc7953 = loc("multiply.9617")
#loc7954 = loc("convert.9618")
#loc7957 = loc("convert.11106")
#loc7958 = loc("power.11108")
#loc7959 = loc("reduce.11115")
#loc7960 = loc("multiply.11124")
#loc7961 = loc("reshape.11125")
#loc7962 = loc("add.11129")
#loc7963 = loc("rsqrt.11130")
#loc7964 = loc("reshape.11131")
#loc7965 = loc("broadcast.11132")
#loc7966 = loc("multiply.11133")
#loc7967 = loc("convert.10940")
#loc7968 = loc("broadcast.11134")
#loc7969 = loc("multiply.11135")
#loc7970 = loc("convert.11136")
#loc7973 = loc("convert.5540")
#loc7974 = loc("power.5542")
#loc7975 = loc("reduce.5549")
#loc7976 = loc("multiply.5558")
#loc7977 = loc("reshape.5559")
#loc7978 = loc("add.5563")
#loc7979 = loc("rsqrt.5564")
#loc7980 = loc("reshape.5565")
#loc7981 = loc("broadcast.5566")
#loc7982 = loc("multiply.5567")
#loc7983 = loc("convert.5374")
#loc7984 = loc("broadcast.5568")
#loc7985 = loc("multiply.5569")
#loc7986 = loc("convert.5570")
#loc7988 = loc("iota.5077")
#loc7990 = loc("compare.5089")
#loc7991 = loc("slice.5094")
#loc7992 = loc("convert.5095")
#loc7993 = loc("slice.5092")
#loc7996 = loc("convert.6046")
#loc7997 = loc("power.6048")
#loc7998 = loc("reduce.6055")
#loc7999 = loc("multiply.6064")
#loc8000 = loc("reshape.6065")
#loc8001 = loc("add.6069")
#loc8002 = loc("rsqrt.6070")
#loc8003 = loc("reshape.6071")
#loc8004 = loc("broadcast.6072")
#loc8005 = loc("multiply.6073")
#loc8006 = loc("convert.5880")
#loc8007 = loc("broadcast.6074")
#loc8008 = loc("multiply.6075")
#loc8009 = loc("convert.6076")
#loc8012 = loc("convert.7233")
#loc8013 = loc("power.7235")
#loc8014 = loc("reduce.7242")
#loc8015 = loc("multiply.7251")
#loc8016 = loc("reshape.7252")
#loc8017 = loc("add.7256")
#loc8018 = loc("rsqrt.7257")
#loc8019 = loc("reshape.7258")
#loc8020 = loc("broadcast.7259")
#loc8021 = loc("multiply.7260")
#loc8022 = loc("convert.6863")
#loc8023 = loc("broadcast.7261")
#loc8024 = loc("multiply.7262")
#loc8025 = loc("convert.7263")
#loc8028 = loc("convert.6221")
#loc8029 = loc("power.6223")
#loc8030 = loc("reduce.6230")
#loc8031 = loc("multiply.6239")
#loc8032 = loc("reshape.6240")
#loc8033 = loc("add.6244")
#loc8034 = loc("rsqrt.6245")
#loc8035 = loc("reshape.6246")
#loc8036 = loc("broadcast.6247")
#loc8037 = loc("multiply.6248")
#loc8038 = loc("convert.5851")
#loc8039 = loc("broadcast.6249")
#loc8040 = loc("multiply.6250")
#loc8041 = loc("convert.6251")
#loc8044 = loc("convert.59")
#loc8045 = loc("power.61")
#loc8046 = loc("reduce.68")
#loc8047 = loc("multiply.77")
#loc8048 = loc("reshape.78")
#loc8049 = loc("add.82")
#loc8050 = loc("rsqrt.83")
#loc8051 = loc("reshape.84")
#loc8052 = loc("broadcast.85")
#loc8053 = loc("multiply.86")
#loc8054 = loc("convert.42")
#loc8055 = loc("broadcast.87")
#loc8056 = loc("multiply.88")
#loc8057 = loc("convert.89")
#loc8060 = loc("convert.1667")
#loc8061 = loc("power.1669")
#loc8062 = loc("reduce.1676")
#loc8063 = loc("multiply.1685")
#loc8064 = loc("reshape.1686")
#loc8065 = loc("add.1690")
#loc8066 = loc("rsqrt.1691")
#loc8067 = loc("reshape.1692")
#loc8068 = loc("broadcast.1693")
#loc8069 = loc("multiply.1694")
#loc8070 = loc("convert.1297")
#loc8071 = loc("broadcast.1695")
#loc8072 = loc("multiply.1696")
#loc8073 = loc("convert.1697")
#loc8075 = loc("iota.8113")
#loc8077 = loc("compare.8125")
#loc8078 = loc("slice.8130")
#loc8079 = loc("convert.8131")
#loc8080 = loc("slice.8128")
#loc8083 = loc("convert.13305")
#loc8084 = loc("power.13307")
#loc8085 = loc("reduce.13314")
#loc8086 = loc("multiply.13323")
#loc8087 = loc("reshape.13324")
#loc8088 = loc("add.13328")
#loc8089 = loc("rsqrt.13329")
#loc8090 = loc("reshape.13330")
#loc8091 = loc("broadcast.13331")
#loc8092 = loc("multiply.13332")
#loc8093 = loc("convert.12935")
#loc8094 = loc("broadcast.13333")
#loc8095 = loc("multiply.13334")
#loc8096 = loc("convert.13335")
#loc8099 = loc("convert.6727")
#loc8100 = loc("power.6729")
#loc8101 = loc("reduce.6736")
#loc8102 = loc("multiply.6745")
#loc8103 = loc("reshape.6746")
#loc8104 = loc("add.6750")
#loc8105 = loc("rsqrt.6751")
#loc8106 = loc("reshape.6752")
#loc8107 = loc("broadcast.6753")
#loc8108 = loc("multiply.6754")
#loc8109 = loc("convert.6357")
#loc8110 = loc("broadcast.6755")
#loc8111 = loc("multiply.6756")
#loc8112 = loc("convert.6757")
#loc8115 = loc("convert.6552")
#loc8116 = loc("power.6554")
#loc8117 = loc("reduce.6561")
#loc8118 = loc("multiply.6570")
#loc8119 = loc("reshape.6571")
#loc8120 = loc("add.6575")
#loc8121 = loc("rsqrt.6576")
#loc8122 = loc("reshape.6577")
#loc8123 = loc("broadcast.6578")
#loc8124 = loc("multiply.6579")
#loc8125 = loc("convert.6386")
#loc8126 = loc("broadcast.6580")
#loc8127 = loc("multiply.6581")
#loc8128 = loc("convert.6582")
#loc8130 = loc("iota.6595")
#loc8132 = loc("compare.6607")
#loc8133 = loc("slice.6612")
#loc8134 = loc("convert.6613")
#loc8135 = loc("slice.6610")
#loc8137 = loc("iota.11655")
#loc8139 = loc("compare.11667")
#loc8140 = loc("slice.11672")
#loc8141 = loc("convert.11673")
#loc8142 = loc("slice.11670")
#loc8145 = loc("convert.7058")
#loc8146 = loc("power.7060")
#loc8147 = loc("reduce.7067")
#loc8148 = loc("multiply.7076")
#loc8149 = loc("reshape.7077")
#loc8150 = loc("add.7081")
#loc8151 = loc("rsqrt.7082")
#loc8152 = loc("reshape.7083")
#loc8153 = loc("broadcast.7084")
#loc8154 = loc("multiply.7085")
#loc8155 = loc("convert.6892")
#loc8156 = loc("broadcast.7086")
#loc8157 = loc("multiply.7087")
#loc8158 = loc("convert.7088")
#loc8160 = loc("iota.13173")
#loc8162 = loc("compare.13185")
#loc8163 = loc("slice.13190")
#loc8164 = loc("convert.13191")
#loc8165 = loc("slice.13188")
#loc8168 = loc("convert.7739")
#loc8169 = loc("power.7741")
#loc8170 = loc("reduce.7748")
#loc8171 = loc("multiply.7757")
#loc8172 = loc("reshape.7758")
#loc8173 = loc("add.7762")
#loc8174 = loc("rsqrt.7763")
#loc8175 = loc("reshape.7764")
#loc8176 = loc("broadcast.7765")
#loc8177 = loc("multiply.7766")
#loc8178 = loc("convert.7369")
#loc8179 = loc("broadcast.7767")
#loc8180 = loc("multiply.7768")
#loc8181 = loc("convert.7769")
#loc8184 = loc("convert.8751")
#loc8185 = loc("power.8753")
#loc8186 = loc("reduce.8760")
#loc8187 = loc("multiply.8769")
#loc8188 = loc("reshape.8770")
#loc8189 = loc("add.8774")
#loc8190 = loc("rsqrt.8775")
#loc8191 = loc("reshape.8776")
#loc8192 = loc("broadcast.8777")
#loc8193 = loc("multiply.8778")
#loc8194 = loc("convert.8381")
#loc8195 = loc("broadcast.8779")
#loc8196 = loc("multiply.8780")
#loc8197 = loc("convert.8781")
#loc8200 = loc("convert.10600")
#loc8201 = loc("power.10602")
#loc8202 = loc("reduce.10609")
#loc8203 = loc("multiply.10618")
#loc8204 = loc("reshape.10619")
#loc8205 = loc("add.10623")
#loc8206 = loc("rsqrt.10624")
#loc8207 = loc("reshape.10625")
#loc8208 = loc("broadcast.10626")
#loc8209 = loc("multiply.10627")
#loc8210 = loc("convert.10434")
#loc8211 = loc("broadcast.10628")
#loc8212 = loc("multiply.10629")
#loc8213 = loc("convert.10630")
#loc8215 = loc("iota.7101")
#loc8217 = loc("compare.7113")
#loc8218 = loc("slice.7118")
#loc8219 = loc("convert.7119")
#loc8220 = loc("slice.7116")
#loc8222 = loc("iota.3559")
#loc8224 = loc("compare.3571")
#loc8225 = loc("slice.3576")
#loc8226 = loc("convert.3577")
#loc8227 = loc("slice.3574")
#loc8230 = loc("convert.5209")
#loc8231 = loc("power.5211")
#loc8232 = loc("reduce.5218")
#loc8233 = loc("multiply.5227")
#loc8234 = loc("reshape.5228")
#loc8235 = loc("add.5232")
#loc8236 = loc("rsqrt.5233")
#loc8237 = loc("reshape.5234")
#loc8238 = loc("broadcast.5235")
#loc8239 = loc("multiply.5236")
#loc8240 = loc("convert.4839")
#loc8241 = loc("broadcast.5237")
#loc8242 = loc("multiply.5238")
#loc8243 = loc("convert.5239")
#loc8246 = loc("convert.7564")
#loc8247 = loc("power.7566")
#loc8248 = loc("reduce.7573")
#loc8249 = loc("multiply.7582")
#loc8250 = loc("reshape.7583")
#loc8251 = loc("add.7587")
#loc8252 = loc("rsqrt.7588")
#loc8253 = loc("reshape.7589")
#loc8254 = loc("broadcast.7590")
#loc8255 = loc("multiply.7591")
#loc8256 = loc("convert.7398")
#loc8257 = loc("broadcast.7592")
#loc8258 = loc("multiply.7593")
#loc8259 = loc("convert.7594")
#loc8261 = loc("iota.17221")
#loc8263 = loc("compare.17233")
#loc8264 = loc("slice.17238")
#loc8265 = loc("convert.17239")
#loc8266 = loc("slice.17236")
#loc8268 = loc("iota.7607")
#loc8270 = loc("compare.7619")
#loc8271 = loc("slice.7624")
#loc8272 = loc("convert.7625")
#loc8273 = loc("slice.7622")
#loc8276 = loc("convert.8576")
#loc8277 = loc("power.8578")
#loc8278 = loc("reduce.8585")
#loc8279 = loc("multiply.8594")
#loc8280 = loc("reshape.8595")
#loc8281 = loc("add.8599")
#loc8282 = loc("rsqrt.8600")
#loc8283 = loc("reshape.8601")
#loc8284 = loc("broadcast.8602")
#loc8285 = loc("multiply.8603")
#loc8286 = loc("convert.8410")
#loc8287 = loc("broadcast.8604")
#loc8288 = loc("multiply.8605")
#loc8289 = loc("convert.8606")
#loc8292 = loc("convert.2504")
#loc8293 = loc("power.2506")
#loc8294 = loc("reduce.2513")
#loc8295 = loc("multiply.2522")
#loc8296 = loc("reshape.2523")
#loc8297 = loc("add.2527")
#loc8298 = loc("rsqrt.2528")
#loc8299 = loc("reshape.2529")
#loc8300 = loc("broadcast.2530")
#loc8301 = loc("multiply.2531")
#loc8302 = loc("convert.2338")
#loc8303 = loc("broadcast.2532")
#loc8304 = loc("multiply.2533")
#loc8305 = loc("convert.2534")
#loc8308 = loc("convert.8245")
#loc8309 = loc("power.8247")
#loc8310 = loc("reduce.8254")
#loc8311 = loc("multiply.8263")
#loc8312 = loc("reshape.8264")
#loc8313 = loc("add.8268")
#loc8314 = loc("rsqrt.8269")
#loc8315 = loc("reshape.8270")
#loc8316 = loc("broadcast.8271")
#loc8317 = loc("multiply.8272")
#loc8318 = loc("convert.7875")
#loc8319 = loc("broadcast.8273")
#loc8320 = loc("multiply.8274")
#loc8321 = loc("convert.8275")
