#loc1 = loc("p0.3")
#loc2 = loc("p1.11")
#loc3 = loc("p2.28")
#loc4 = loc("p3.32")
#loc5 = loc("p4.37")
#loc6 = loc("p5.46")
#loc7 = loc("p6.51")
#loc8 = loc("p7.138")
#loc9 = loc("p8.147")
#loc10 = loc("p9.151")
#loc11 = loc("p10.175")
#loc12 = loc("p11.186")
#loc13 = loc("p12.190")
#loc14 = loc("p13.195")
#loc15 = loc("p14.207")
#loc16 = loc("p15.215")
#loc17 = loc("p16.224")
#loc18 = loc("p17.235")
#loc19 = loc("p18.239")
#loc20 = loc("p19.250")
#loc21 = loc("p20.265")
#loc22 = loc("p21.296")
#loc23 = loc("p22.319")
#loc24 = loc("p23.323")
#loc25 = loc("p24.550")
#loc26 = loc("p25.555")
#loc27 = loc("p26.562")
#loc28 = loc("p27.567")
#loc29 = loc("p28.695")
#loc30 = loc("p29.704")
#loc31 = loc("p30.708")
#loc32 = loc("p31.732")
#loc33 = loc("p32.743")
#loc34 = loc("p33.747")
#loc35 = loc("p34.752")
#loc36 = loc("p35.764")
#loc37 = loc("p36.772")
#loc38 = loc("p37.781")
#loc39 = loc("p38.792")
#loc40 = loc("p39.796")
#loc41 = loc("p40.807")
#loc42 = loc("p41.822")
#loc43 = loc("p42.859")
#loc44 = loc("p43.863")
#loc45 = loc("p44.1090")
#loc46 = loc("p45.1095")
#loc47 = loc("p46.1102")
#loc48 = loc("p47.1107")
#loc49 = loc("p48.1235")
#loc50 = loc("p49.1244")
#loc51 = loc("p50.1248")
#loc52 = loc("p51.1272")
#loc53 = loc("p52.1283")
#loc54 = loc("p53.1287")
#loc55 = loc("p54.1292")
#loc56 = loc("p55.1304")
#loc57 = loc("p56.1312")
#loc58 = loc("p57.1321")
#loc59 = loc("p58.1332")
#loc60 = loc("p59.1336")
#loc61 = loc("p60.1347")
#loc62 = loc("p61.1365")
#loc63 = loc("p62.1369")
#loc64 = loc("p63.1596")
#loc65 = loc("p64.1601")
#loc66 = loc("p65.1608")
#loc67 = loc("p66.1613")
#loc68 = loc("p67.1741")
#loc69 = loc("p68.1750")
#loc70 = loc("p69.1754")
#loc71 = loc("p70.1778")
#loc72 = loc("p71.1789")
#loc73 = loc("p72.1793")
#loc74 = loc("p73.1798")
#loc75 = loc("p74.1810")
#loc76 = loc("p75.1818")
#loc77 = loc("p76.1827")
#loc78 = loc("p77.1838")
#loc79 = loc("p78.1842")
#loc80 = loc("p79.1853")
#loc81 = loc("p80.1871")
#loc82 = loc("p81.1875")
#loc83 = loc("p82.2102")
#loc84 = loc("p83.2107")
#loc85 = loc("p84.2114")
#loc86 = loc("p85.2119")
#loc87 = loc("p86.2247")
#loc88 = loc("p87.2256")
#loc89 = loc("p88.2260")
#loc90 = loc("p89.2284")
#loc91 = loc("p90.2295")
#loc92 = loc("p91.2299")
#loc93 = loc("p92.2304")
#loc94 = loc("p93.2316")
#loc95 = loc("p94.2324")
#loc96 = loc("p95.2333")
#loc97 = loc("p96.2344")
#loc98 = loc("p97.2348")
#loc99 = loc("p98.2359")
#loc100 = loc("p99.2377")
#loc101 = loc("p100.2381")
#loc102 = loc("p101.2608")
#loc103 = loc("p102.2613")
#loc104 = loc("p103.2620")
#loc105 = loc("p104.2625")
#loc106 = loc("p105.2753")
#loc107 = loc("p106.2762")
#loc108 = loc("p107.2766")
#loc109 = loc("p108.2790")
#loc110 = loc("p109.2801")
#loc111 = loc("p110.2805")
#loc112 = loc("p111.2810")
#loc113 = loc("p112.2822")
#loc114 = loc("p113.2830")
#loc115 = loc("p114.2839")
#loc116 = loc("p115.2850")
#loc117 = loc("p116.2854")
#loc118 = loc("p117.2865")
#loc119 = loc("p118.2883")
#loc120 = loc("p119.2887")
#loc121 = loc("p120.3114")
#loc122 = loc("p121.3119")
#loc123 = loc("p122.3126")
#loc124 = loc("p123.3131")
#loc125 = loc("p124.3259")
#loc126 = loc("p125.3268")
#loc127 = loc("p126.3272")
#loc128 = loc("p127.3296")
#loc129 = loc("p128.3307")
#loc130 = loc("p129.3311")
#loc131 = loc("p130.3316")
#loc132 = loc("p131.3328")
#loc133 = loc("p132.3336")
#loc134 = loc("p133.3345")
#loc135 = loc("p134.3356")
#loc136 = loc("p135.3360")
#loc137 = loc("p136.3371")
#loc138 = loc("p137.3389")
#loc139 = loc("p138.3393")
#loc140 = loc("p139.3620")
#loc141 = loc("p140.3625")
#loc142 = loc("p141.3632")
#loc143 = loc("p142.3637")
#loc144 = loc("p143.3765")
#loc145 = loc("p144.3774")
#loc146 = loc("p145.3778")
#loc147 = loc("p146.3802")
#loc148 = loc("p147.3813")
#loc149 = loc("p148.3817")
#loc150 = loc("p149.3822")
#loc151 = loc("p150.3834")
#loc152 = loc("p151.3842")
#loc153 = loc("p152.3851")
#loc154 = loc("p153.3862")
#loc155 = loc("p154.3866")
#loc156 = loc("p155.3877")
#loc157 = loc("p156.3895")
#loc158 = loc("p157.3899")
#loc159 = loc("p158.4126")
#loc160 = loc("p159.4131")
#loc161 = loc("p160.4138")
#loc162 = loc("p161.4143")
#loc163 = loc("p162.4271")
#loc164 = loc("p163.4280")
#loc165 = loc("p164.4284")
#loc166 = loc("p165.4308")
#loc167 = loc("p166.4319")
#loc168 = loc("p167.4323")
#loc169 = loc("p168.4328")
#loc170 = loc("p169.4340")
#loc171 = loc("p170.4348")
#loc172 = loc("p171.4357")
#loc173 = loc("p172.4368")
#loc174 = loc("p173.4372")
#loc175 = loc("p174.4383")
#loc176 = loc("p175.4401")
#loc177 = loc("p176.4405")
#loc178 = loc("p177.4632")
#loc179 = loc("p178.4637")
#loc180 = loc("p179.4644")
#loc181 = loc("p180.4649")
#loc182 = loc("p181.4777")
#loc183 = loc("p182.4786")
#loc184 = loc("p183.4790")
#loc185 = loc("p184.4814")
#loc186 = loc("p185.4825")
#loc187 = loc("p186.4829")
#loc188 = loc("p187.4834")
#loc189 = loc("p188.4846")
#loc190 = loc("p189.4854")
#loc191 = loc("p190.4863")
#loc192 = loc("p191.4874")
#loc193 = loc("p192.4878")
#loc194 = loc("p193.4889")
#loc195 = loc("p194.4907")
#loc196 = loc("p195.4911")
#loc197 = loc("p196.5138")
#loc198 = loc("p197.5143")
#loc199 = loc("p198.5150")
#loc200 = loc("p199.5155")
#loc201 = loc("p200.5283")
#loc202 = loc("p201.5292")
#loc203 = loc("p202.5296")
#loc204 = loc("p203.5320")
#loc205 = loc("p204.5331")
#loc206 = loc("p205.5335")
#loc207 = loc("p206.5340")
#loc208 = loc("p207.5352")
#loc209 = loc("p208.5360")
#loc210 = loc("p209.5369")
#loc211 = loc("p210.5380")
#loc212 = loc("p211.5384")
#loc213 = loc("p212.5395")
#loc214 = loc("p213.5413")
#loc215 = loc("p214.5417")
#loc216 = loc("p215.5644")
#loc217 = loc("p216.5649")
#loc218 = loc("p217.5656")
#loc219 = loc("p218.5661")
#loc220 = loc("p219.5789")
#loc221 = loc("p220.5798")
#loc222 = loc("p221.5802")
#loc223 = loc("p222.5826")
#loc224 = loc("p223.5837")
#loc225 = loc("p224.5841")
#loc226 = loc("p225.5846")
#loc227 = loc("p226.5858")
#loc228 = loc("p227.5866")
#loc229 = loc("p228.5875")
#loc230 = loc("p229.5886")
#loc231 = loc("p230.5890")
#loc232 = loc("p231.5901")
#loc233 = loc("p232.5919")
#loc234 = loc("p233.5923")
#loc235 = loc("p234.6150")
#loc236 = loc("p235.6155")
#loc237 = loc("p236.6162")
#loc238 = loc("p237.6167")
#loc239 = loc("p238.6295")
#loc240 = loc("p239.6304")
#loc241 = loc("p240.6308")
#loc242 = loc("p241.6332")
#loc243 = loc("p242.6343")
#loc244 = loc("p243.6347")
#loc245 = loc("p244.6352")
#loc246 = loc("p245.6364")
#loc247 = loc("p246.6372")
#loc248 = loc("p247.6381")
#loc249 = loc("p248.6392")
#loc250 = loc("p249.6396")
#loc251 = loc("p250.6407")
#loc252 = loc("p251.6425")
#loc253 = loc("p252.6429")
#loc254 = loc("p253.6656")
#loc255 = loc("p254.6661")
#loc256 = loc("p255.6668")
#loc257 = loc("p256.6673")
#loc258 = loc("p257.6801")
#loc259 = loc("p258.6810")
#loc260 = loc("p259.6814")
#loc261 = loc("p260.6838")
#loc262 = loc("p261.6849")
#loc263 = loc("p262.6853")
#loc264 = loc("p263.6858")
#loc265 = loc("p264.6870")
#loc266 = loc("p265.6878")
#loc267 = loc("p266.6887")
#loc268 = loc("p267.6898")
#loc269 = loc("p268.6902")
#loc270 = loc("p269.6913")
#loc271 = loc("p270.6931")
#loc272 = loc("p271.6935")
#loc273 = loc("p272.7162")
#loc274 = loc("p273.7167")
#loc275 = loc("p274.7174")
#loc276 = loc("p275.7179")
#loc277 = loc("p276.7307")
#loc278 = loc("p277.7316")
#loc279 = loc("p278.7320")
#loc280 = loc("p279.7344")
#loc281 = loc("p280.7355")
#loc282 = loc("p281.7359")
#loc283 = loc("p282.7364")
#loc284 = loc("p283.7376")
#loc285 = loc("p284.7384")
#loc286 = loc("p285.7393")
#loc287 = loc("p286.7404")
#loc288 = loc("p287.7408")
#loc289 = loc("p288.7419")
#loc290 = loc("p289.7437")
#loc291 = loc("p290.7441")
#loc292 = loc("p291.7668")
#loc293 = loc("p292.7673")
#loc294 = loc("p293.7680")
#loc295 = loc("p294.7685")
#loc296 = loc("p295.7813")
#loc297 = loc("p296.7822")
#loc298 = loc("p297.7826")
#loc299 = loc("p298.7850")
#loc300 = loc("p299.7861")
#loc301 = loc("p300.7865")
#loc302 = loc("p301.7870")
#loc303 = loc("p302.7882")
#loc304 = loc("p303.7890")
#loc305 = loc("p304.7899")
#loc306 = loc("p305.7910")
#loc307 = loc("p306.7914")
#loc308 = loc("p307.7925")
#loc309 = loc("p308.7943")
#loc310 = loc("p309.7947")
#loc311 = loc("p310.8174")
#loc312 = loc("p311.8179")
#loc313 = loc("p312.8186")
#loc314 = loc("p313.8191")
#loc315 = loc("p314.8319")
#loc316 = loc("p315.8328")
#loc317 = loc("p316.8332")
#loc318 = loc("p317.8356")
#loc319 = loc("p318.8367")
#loc320 = loc("p319.8371")
#loc321 = loc("p320.8376")
#loc322 = loc("p321.8388")
#loc323 = loc("p322.8396")
#loc324 = loc("p323.8405")
#loc325 = loc("p324.8416")
#loc326 = loc("p325.8420")
#loc327 = loc("p326.8431")
#loc328 = loc("p327.8449")
#loc329 = loc("p328.8453")
#loc330 = loc("p329.8680")
#loc331 = loc("p330.8685")
#loc332 = loc("p331.8692")
#loc333 = loc("p332.8697")
#loc334 = loc("p333.8825")
#loc335 = loc("p334.8834")
#loc336 = loc("p335.8838")
#loc337 = loc("p336.8862")
#loc338 = loc("p337.8873")
#loc339 = loc("p338.8877")
#loc340 = loc("p339.8882")
#loc341 = loc("p340.8894")
#loc342 = loc("p341.8902")
#loc343 = loc("p342.8911")
#loc344 = loc("p343.8922")
#loc345 = loc("p344.8926")
#loc346 = loc("p345.8937")
#loc347 = loc("p346.8955")
#loc348 = loc("p347.8959")
#loc349 = loc("p348.9186")
#loc350 = loc("p349.9191")
#loc351 = loc("p350.9198")
#loc352 = loc("p351.9203")
#loc353 = loc("p352.9331")
#loc354 = loc("p353.9340")
#loc355 = loc("p354.9344")
#loc356 = loc("p355.9368")
#loc357 = loc("p356.9379")
#loc358 = loc("p357.9383")
#loc359 = loc("p358.9388")
#loc360 = loc("p359.9400")
#loc361 = loc("p360.9408")
#loc362 = loc("p361.9417")
#loc363 = loc("p362.9428")
#loc364 = loc("p363.9432")
#loc365 = loc("p364.9443")
#loc366 = loc("p365.9461")
#loc367 = loc("p366.9465")
#loc368 = loc("p367.9692")
#loc369 = loc("p368.9697")
#loc370 = loc("p369.9704")
#loc371 = loc("p370.9709")
#loc372 = loc("p371.9837")
#loc373 = loc("p372.9846")
#loc374 = loc("p373.9850")
#loc375 = loc("p374.9874")
#loc376 = loc("p375.9885")
#loc377 = loc("p376.9889")
#loc378 = loc("p377.9894")
#loc379 = loc("p378.9906")
#loc380 = loc("p379.9914")
#loc381 = loc("p380.9923")
#loc382 = loc("p381.9934")
#loc383 = loc("p382.9938")
#loc384 = loc("p383.9949")
#loc385 = loc("p384.9967")
#loc386 = loc("p385.9971")
#loc387 = loc("p386.10198")
#loc388 = loc("p387.10203")
#loc389 = loc("p388.10210")
#loc390 = loc("p389.10215")
#loc391 = loc("p390.10343")
#loc392 = loc("p391.10352")
#loc393 = loc("p392.10356")
#loc394 = loc("p393.10380")
#loc395 = loc("p394.10391")
#loc396 = loc("p395.10395")
#loc397 = loc("p396.10400")
#loc398 = loc("p397.10412")
#loc399 = loc("p398.10420")
#loc400 = loc("p399.10429")
#loc401 = loc("p400.10440")
#loc402 = loc("p401.10444")
#loc403 = loc("p402.10455")
#loc404 = loc("p403.10473")
#loc405 = loc("p404.10477")
#loc406 = loc("p405.10704")
#loc407 = loc("p406.10709")
#loc408 = loc("p407.10716")
#loc409 = loc("p408.10721")
#loc410 = loc("p409.10849")
#loc411 = loc("p410.10858")
#loc412 = loc("p411.10862")
#loc413 = loc("p412.10886")
#loc414 = loc("p413.10897")
#loc415 = loc("p414.10901")
#loc416 = loc("p415.10906")
#loc417 = loc("p416.10918")
#loc418 = loc("p417.10926")
#loc419 = loc("p418.10935")
#loc420 = loc("p419.10946")
#loc421 = loc("p420.10950")
#loc422 = loc("p421.10961")
#loc423 = loc("p422.10979")
#loc424 = loc("p423.10983")
#loc425 = loc("p424.11210")
#loc426 = loc("p425.11215")
#loc427 = loc("p426.11222")
#loc428 = loc("p427.11227")
#loc429 = loc("p428.11355")
#loc430 = loc("p429.11364")
#loc431 = loc("p430.11368")
#loc432 = loc("p431.11392")
#loc433 = loc("p432.11403")
#loc434 = loc("p433.11407")
#loc435 = loc("p434.11412")
#loc436 = loc("p435.11424")
#loc437 = loc("p436.11432")
#loc438 = loc("p437.11441")
#loc439 = loc("p438.11452")
#loc440 = loc("p439.11456")
#loc441 = loc("p440.11467")
#loc442 = loc("p441.11485")
#loc443 = loc("p442.11489")
#loc444 = loc("p443.11716")
#loc445 = loc("p444.11721")
#loc446 = loc("p445.11728")
#loc447 = loc("p446.11733")
#loc448 = loc("p447.11861")
#loc449 = loc("p448.11870")
#loc450 = loc("p449.11874")
#loc451 = loc("p450.11898")
#loc452 = loc("p451.11909")
#loc453 = loc("p452.11913")
#loc454 = loc("p453.11918")
#loc455 = loc("p454.11930")
#loc456 = loc("p455.11938")
#loc457 = loc("p456.11947")
#loc458 = loc("p457.11958")
#loc459 = loc("p458.11962")
#loc460 = loc("p459.11973")
#loc461 = loc("p460.11991")
#loc462 = loc("p461.11995")
#loc463 = loc("p462.12222")
#loc464 = loc("p463.12227")
#loc465 = loc("p464.12234")
#loc466 = loc("p465.12239")
#loc467 = loc("p466.12367")
#loc468 = loc("p467.12376")
#loc469 = loc("p468.12380")
#loc470 = loc("p469.12404")
#loc471 = loc("p470.12415")
#loc472 = loc("p471.12419")
#loc473 = loc("p472.12424")
#loc474 = loc("p473.12436")
#loc475 = loc("p474.12444")
#loc476 = loc("p475.12453")
#loc477 = loc("p476.12464")
#loc478 = loc("p477.12468")
#loc479 = loc("p478.12479")
#loc480 = loc("p479.12497")
#loc481 = loc("p480.12501")
#loc482 = loc("p481.12728")
#loc483 = loc("p482.12733")
#loc484 = loc("p483.12740")
#loc485 = loc("p484.12745")
#loc486 = loc("p485.12873")
#loc487 = loc("p486.12882")
#loc488 = loc("p487.12886")
#loc489 = loc("p488.12910")
#loc490 = loc("p489.12921")
#loc491 = loc("p490.12925")
#loc492 = loc("p491.12930")
#loc493 = loc("p492.12942")
#loc494 = loc("p493.12950")
#loc495 = loc("p494.12959")
#loc496 = loc("p495.12970")
#loc497 = loc("p496.12974")
#loc498 = loc("p497.12985")
#loc499 = loc("p498.13003")
#loc500 = loc("p499.13007")
#loc501 = loc("p500.13234")
#loc502 = loc("p501.13239")
#loc503 = loc("p502.13246")
#loc504 = loc("p503.13251")
#loc505 = loc("p504.13379")
#loc506 = loc("p505.13388")
#loc507 = loc("p506.13392")
#loc508 = loc("p507.13416")
#loc509 = loc("p508.13427")
#loc510 = loc("p509.13431")
#loc511 = loc("p510.13436")
#loc512 = loc("p511.13448")
#loc513 = loc("p512.13456")
#loc514 = loc("p513.13465")
#loc515 = loc("p514.13476")
#loc516 = loc("p515.13480")
#loc517 = loc("p516.13491")
#loc518 = loc("p517.13509")
#loc519 = loc("p518.13513")
#loc520 = loc("p519.13740")
#loc521 = loc("p520.13745")
#loc522 = loc("p521.13752")
#loc523 = loc("p522.13757")
#loc524 = loc("p523.13885")
#loc525 = loc("p524.13894")
#loc526 = loc("p525.13898")
#loc527 = loc("p526.13922")
#loc528 = loc("p527.13933")
#loc529 = loc("p528.13937")
#loc530 = loc("p529.13942")
#loc531 = loc("p530.13954")
#loc532 = loc("p531.13962")
#loc533 = loc("p532.13971")
#loc534 = loc("p533.13982")
#loc535 = loc("p534.13986")
#loc536 = loc("p535.13997")
#loc537 = loc("p536.14015")
#loc538 = loc("p537.14019")
#loc539 = loc("p538.14246")
#loc540 = loc("p539.14251")
#loc541 = loc("p540.14258")
#loc542 = loc("p541.14263")
#loc543 = loc("p542.14391")
#loc544 = loc("p543.14400")
#loc545 = loc("p544.14404")
#loc546 = loc("p545.14428")
#loc547 = loc("p546.14439")
#loc548 = loc("p547.14443")
#loc549 = loc("p548.14448")
#loc550 = loc("p549.14460")
#loc551 = loc("p550.14468")
#loc552 = loc("p551.14477")
#loc553 = loc("p552.14488")
#loc554 = loc("p553.14492")
#loc555 = loc("p554.14503")
#loc556 = loc("p555.14521")
#loc557 = loc("p556.14525")
#loc558 = loc("p557.14752")
#loc559 = loc("p558.14757")
#loc560 = loc("p559.14764")
#loc561 = loc("p560.14769")
#loc562 = loc("p561.14897")
#loc563 = loc("p562.14906")
#loc564 = loc("p563.14910")
#loc565 = loc("p564.14934")
#loc566 = loc("p565.14945")
#loc567 = loc("p566.14949")
#loc568 = loc("p567.14954")
#loc569 = loc("p568.14966")
#loc570 = loc("p569.14974")
#loc571 = loc("p570.14983")
#loc572 = loc("p571.14994")
#loc573 = loc("p572.14998")
#loc574 = loc("p573.15009")
#loc575 = loc("p574.15027")
#loc576 = loc("p575.15031")
#loc577 = loc("p576.15258")
#loc578 = loc("p577.15263")
#loc579 = loc("p578.15270")
#loc580 = loc("p579.15275")
#loc581 = loc("p580.15403")
#loc582 = loc("p581.15412")
#loc583 = loc("p582.15416")
#loc584 = loc("p583.15440")
#loc585 = loc("p584.15451")
#loc586 = loc("p585.15455")
#loc587 = loc("p586.15460")
#loc588 = loc("p587.15472")
#loc589 = loc("p588.15480")
#loc590 = loc("p589.15489")
#loc591 = loc("p590.15500")
#loc592 = loc("p591.15504")
#loc593 = loc("p592.15515")
#loc594 = loc("p593.15533")
#loc595 = loc("p594.15537")
#loc596 = loc("p595.15764")
#loc597 = loc("p596.15769")
#loc598 = loc("p597.15776")
#loc599 = loc("p598.15781")
#loc600 = loc("p599.15909")
#loc601 = loc("p600.15918")
#loc602 = loc("p601.15922")
#loc603 = loc("p602.15946")
#loc604 = loc("p603.15957")
#loc605 = loc("p604.15961")
#loc606 = loc("p605.15966")
#loc607 = loc("p606.15978")
#loc608 = loc("p607.15986")
#loc609 = loc("p608.15995")
#loc610 = loc("p609.16006")
#loc611 = loc("p610.16010")
#loc612 = loc("p611.16021")
#loc613 = loc("p612.16039")
#loc614 = loc("p613.16043")
#loc615 = loc("p614.16270")
#loc616 = loc("p615.16275")
#loc617 = loc("p616.16282")
#loc618 = loc("p617.16287")
#loc619 = loc("p618.16415")
#loc620 = loc("p619.16424")
#loc621 = loc("p620.16428")
#loc622 = loc("p621.16452")
#loc623 = loc("p622.16463")
#loc624 = loc("p623.16467")
#loc625 = loc("p624.16472")
#loc626 = loc("p625.16484")
#loc627 = loc("p626.16492")
#loc628 = loc("p627.16501")
#loc629 = loc("p628.16512")
#loc630 = loc("p629.16516")
#loc631 = loc("p630.16527")
#loc632 = loc("p631.16545")
#loc633 = loc("p632.16549")
#loc634 = loc("p633.16776")
#loc635 = loc("p634.16781")
#loc636 = loc("p635.16788")
#loc637 = loc("p636.16793")
#loc638 = loc("p637.16921")
#loc639 = loc("p638.16930")
#loc640 = loc("p639.16934")
#loc641 = loc("p640.16958")
#loc642 = loc("p641.16969")
#loc643 = loc("p642.16973")
#loc644 = loc("p643.16978")
#loc645 = loc("p644.16990")
#loc646 = loc("p645.16998")
#loc647 = loc("p646.17007")
#loc648 = loc("p647.17018")
#loc649 = loc("p648.17022")
#loc650 = loc("p649.17033")
#loc651 = loc("p650.17051")
#loc652 = loc("p651.17055")
#loc653 = loc("p652.17282")
#loc654 = loc("p653.17287")
#loc655 = loc("p654.17294")
#loc656 = loc("p655.17299")
#loc657 = loc("p656.17427")
#loc658 = loc("p657.17436")
#loc659 = loc("p658.17440")
#loc660 = loc("p659.17464")
#loc661 = loc("p660.17475")
#loc662 = loc("p661.17479")
#loc663 = loc("p662.17484")
#loc664 = loc("p663.17496")
#loc665 = loc("p664.17504")
#loc666 = loc("p665.17513")
#loc667 = loc("p666.17524")
#loc668 = loc("p667.17528")
#loc669 = loc("p668.17539")
#loc670 = loc("p669.17557")
#loc671 = loc("p670.17561")
#loc672 = loc("p671.17788")
#loc673 = loc("p672.17793")
#loc674 = loc("p673.17800")
#loc675 = loc("p674.17805")
#loc676 = loc("p675.17933")
#loc677 = loc("p676.17942")
#loc678 = loc("p677.17946")
#loc679 = loc("p678.17970")
#loc680 = loc("p679.17984")
#loc681 = loc("p680.17989")
#loc682 = loc("p681.18001")
#loc683 = loc("p682.18009")
#loc684 = loc("p683.18018")
#loc685 = loc("p684.18029")
#loc686 = loc("p685.18033")
#loc687 = loc("p686.18044")
#loc688 = loc("p687.18062")
#loc689 = loc("p688.18066")
#loc690 = loc("p689.18293")
#loc691 = loc("p690.18298")
#loc692 = loc("p691.18305")
#loc693 = loc("p692.18310")
module @SyncTensorsGraph.18434 attributes {mhlo.cross_program_prefetches = [], mhlo.input_output_alias = [], mhlo.is_dynamic = false, mhlo.use_auto_spmd_partitioning = false, ttcore.meshes = #ttcore.meshes<[<"mesh" = 4x8>]>} {
  ttcore.device_module {
    builtin.module @SyncTensorsGraph.18434 attributes {mhlo.cross_program_prefetches = [], mhlo.input_output_alias = [], mhlo.is_dynamic = false, mhlo.use_auto_spmd_partitioning = false, ttcore.meshes = #ttcore.meshes<[<"mesh" = 4x8>]>} {
      func.func @main(%arg0: tensor<1xi64> {ttcore.argument_type = #ttcore.argument_type<input>, ttcore.local_shape = #ttcore<local_shape local_shape = tensor<1xi64>>, ttcore.shard_status = #ttcore.shard_status<presharded>, ttir.name = "args_1"} loc("p0.3"), %arg1: tensor<32xbf16> {ttcore.argument_type = #ttcore.argument_type<constant>, ttcore.local_shape = #ttcore<local_shape local_shape = tensor<32xbf16>>, ttcore.shard_status = #ttcore.shard_status<presharded>, ttir.name = "model.model.rotary_emb.inv_freq"} loc("p1.11"), %arg2: tensor<512xbf16> {ttcore.argument_type = #ttcore.argument_type<parameter>, ttcore.local_shape = #ttcore<local_shape local_shape = tensor<64xbf16>>, ttcore.shard_status = #ttcore.shard_status<presharded>, ttir.name = "self___model_model_layers_0_self_attn_k_proj__parameters__bias"} loc("p2.28"), %arg3: tensor<512x2880xbf16> {ttcore.argument_type = #ttcore.argument_type<parameter>, ttcore.local_shape = #ttcore<local_shape local_shape = tensor<64x720xbf16>>, ttcore.shard_status = #ttcore.shard_status<presharded>, ttir.name = "self___model_model_layers_0_self_attn_k_proj__parameters__weight"} loc("p3.32"), %arg4: tensor<2880xbf16> {ttcore.argument_type = #ttcore.argument_type<parameter>, ttcore.local_shape = #ttcore<local_shape local_shape = tensor<720xbf16>>, ttcore.shard_status = #ttcore.shard_status<presharded>, ttir.name = "model.model.layers.0.input_layernorm.weight"} loc("p4.37"), %arg5: tensor<64x1xi64> {ttcore.argument_type = #ttcore.argument_type<input>, ttcore.local_shape = #ttcore<local_shape local_shape = tensor<64x1xi64>>, ttcore.shard_status = #ttcore.shard_status<presharded>, ttir.name = "args_0"} loc("p5.46"), %arg6: tensor<201088x2880xbf16> {ttcore.argument_type = #ttcore.argument_type<parameter>, ttcore.local_shape = #ttcore<local_shape local_shape = tensor<201088x720xbf16>>, ttcore.shard_status = #ttcore.shard_status<presharded>, ttir.name = "model.model.embed_tokens.weight"} loc("p6.51"), %arg7: tensor<64x8x128x64xbf16> {ttcore.argument_type = #ttcore.argument_type<input>, ttcore.local_shape = #ttcore<local_shape local_shape = tensor<64x1x128x64xbf16>>, ttcore.shard_status = #ttcore.shard_status<presharded>, ttir.name = "args_2"} loc("p7.138"), %arg8: tensor<512xbf16> {ttcore.argument_type = #ttcore.argument_type<parameter>, ttcore.local_shape = #ttcore<local_shape local_shape = tensor<64xbf16>>, ttcore.shard_status = #ttcore.shard_status<presharded>, ttir.name = "self___model_model_layers_0_self_attn_v_proj__parameters__bias"} loc("p8.147"), %arg9: tensor<512x2880xbf16> {ttcore.argument_type = #ttcore.argument_type<parameter>, ttcore.local_shape = #ttcore<local_shape local_shape = tensor<64x720xbf16>>, ttcore.shard_status = #ttcore.shard_status<presharded>, ttir.name = "self___model_model_layers_0_self_attn_v_proj__parameters__weight"} loc("p9.151"), %arg10: tensor<64x8x128x64xbf16> {ttcore.argument_type = #ttcore.argument_type<input>, ttcore.local_shape = #ttcore<local_shape local_shape = tensor<64x1x128x64xbf16>>, ttcore.shard_status = #ttcore.shard_status<presharded>, ttir.name = "args_3"} loc("p10.175"), %arg11: tensor<512xbf16> {ttcore.argument_type = #ttcore.argument_type<parameter>, ttcore.local_shape = #ttcore<local_shape local_shape = tensor<64xbf16>>, ttcore.shard_status = #ttcore.shard_status<presharded>, ttir.name = "self___model_model_layers_1_self_attn_k_proj__parameters__bias"} loc("p11.186"), %arg12: tensor<512x2880xbf16> {ttcore.argument_type = #ttcore.argument_type<parameter>, ttcore.local_shape = #ttcore<local_shape local_shape = tensor<64x720xbf16>>, ttcore.shard_status = #ttcore.shard_status<presharded>, ttir.name = "self___model_model_layers_1_self_attn_k_proj__parameters__weight"} loc("p12.190"), %arg13: tensor<2880xbf16> {ttcore.argument_type = #ttcore.argument_type<parameter>, ttcore.local_shape = #ttcore<local_shape local_shape = tensor<720xbf16>>, ttcore.shard_status = #ttcore.shard_status<presharded>, ttir.name = "model.model.layers.1.input_layernorm.weight"} loc("p13.195"), %arg14: tensor<128xbf16> {ttcore.argument_type = #ttcore.argument_type<parameter>, ttcore.local_shape = #ttcore<local_shape local_shape = tensor<128xbf16>>, ttcore.shard_status = #ttcore.shard_status<presharded>, ttir.name = "model.model.layers.0.mlp.router.bias"} loc("p14.207"), %arg15: tensor<128x2880xbf16> {ttcore.argument_type = #ttcore.argument_type<parameter>, ttcore.local_shape = #ttcore<local_shape local_shape = tensor<128x720xbf16>>, ttcore.shard_status = #ttcore.shard_status<presharded>, ttcore.weight_dtype = "bfp_bf4", ttir.name = "model.model.layers.0.mlp.router.parametrizations.weight.original"} loc("p15.215"), %arg16: tensor<2880xbf16> {ttcore.argument_type = #ttcore.argument_type<parameter>, ttcore.local_shape = #ttcore<local_shape local_shape = tensor<720xbf16>>, ttcore.shard_status = #ttcore.shard_status<presharded>, ttir.name = "model.model.layers.0.post_attention_layernorm.weight"} loc("p16.224"), %arg17: tensor<2880xbf16> {ttcore.argument_type = #ttcore.argument_type<parameter>, ttcore.local_shape = #ttcore<local_shape local_shape = tensor<720xbf16>>, ttcore.shard_status = #ttcore.shard_status<presharded>, ttir.name = "self___model_model_layers_0_self_attn_o_proj__parameters__bias"} loc("p17.235"), %arg18: tensor<2880x4096xbf16> {ttcore.argument_type = #ttcore.argument_type<parameter>, ttcore.local_shape = #ttcore<local_shape local_shape = tensor<720x512xbf16>>, ttcore.shard_status = #ttcore.shard_status<presharded>, ttir.name = "self___model_model_layers_0_self_attn_o_proj__parameters__weight"} loc("p18.239"), %arg19: tensor<64xbf16> {ttcore.argument_type = #ttcore.argument_type<parameter>, ttcore.local_shape = #ttcore<local_shape local_shape = tensor<64xbf16>>, ttcore.shard_status = #ttcore.shard_status<presharded>, ttir.name = "model.model.layers.0.self_attn.sinks"} loc("p19.250"), %arg20: tensor<bf16> {ttcore.argument_type = #ttcore.argument_type<constant>, ttcore.local_shape = #ttcore<local_shape local_shape = tensor<bf16>>, ttcore.shard_status = #ttcore.shard_status<presharded>, ttir.name = "L['self'].model.model.lifted_tensor_1"} loc("p20.265"), %arg21: tensor<i1> {ttcore.argument_type = #ttcore.argument_type<input>, ttcore.local_shape = #ttcore<local_shape local_shape = tensor<i1>>, ttcore.shard_status = #ttcore.shard_status<presharded>} loc("p21.296"), %arg22: tensor<4096xbf16> {ttcore.argument_type = #ttcore.argument_type<parameter>, ttcore.local_shape = #ttcore<local_shape local_shape = tensor<512xbf16>>, ttcore.shard_status = #ttcore.shard_status<presharded>, ttir.name = "self___model_model_layers_0_self_attn_q_proj__parameters__bias"} loc("p22.319"), %arg23: tensor<4096x2880xbf16> {ttcore.argument_type = #ttcore.argument_type<parameter>, ttcore.local_shape = #ttcore<local_shape local_shape = tensor<512x720xbf16>>, ttcore.shard_status = #ttcore.shard_status<presharded>, ttir.name = "self___model_model_layers_0_self_attn_q_proj__parameters__weight"} loc("p23.323"), %arg24: tensor<128x2880xbf16> {ttcore.argument_type = #ttcore.argument_type<parameter>, ttcore.local_shape = #ttcore<local_shape local_shape = tensor<16x720xbf16>>, ttcore.shard_status = #ttcore.shard_status<presharded>, ttir.name = "model.model.layers.0.mlp.experts.down_proj_bias"} loc("p24.550"), %arg25: tensor<128x2880x2880xbf16> {ttcore.argument_type = #ttcore.argument_type<parameter>, ttcore.local_shape = #ttcore<local_shape local_shape = tensor<16x2880x720xbf16>>, ttcore.shard_status = #ttcore.shard_status<presharded>, ttcore.weight_dtype = "bfp_bf4", ttir.name = "model.model.layers.0.mlp.experts.parametrizations.down_proj.original"} loc("p25.555"), %arg26: tensor<128x5760xbf16> {ttcore.argument_type = #ttcore.argument_type<parameter>, ttcore.local_shape = #ttcore<local_shape local_shape = tensor<16x5760xbf16>>, ttcore.shard_status = #ttcore.shard_status<presharded>, ttir.name = "model.model.layers.0.mlp.experts.gate_up_proj_bias"} loc("p26.562"), %arg27: tensor<128x2880x5760xbf16> {ttcore.argument_type = #ttcore.argument_type<parameter>, ttcore.local_shape = #ttcore<local_shape local_shape = tensor<16x720x5760xbf16>>, ttcore.shard_status = #ttcore.shard_status<presharded>, ttcore.weight_dtype = "bfp_bf4", ttir.name = "model.model.layers.0.mlp.experts.parametrizations.gate_up_proj.original"} loc("p27.567"), %arg28: tensor<64x8x128x64xbf16> {ttcore.argument_type = #ttcore.argument_type<input>, ttcore.local_shape = #ttcore<local_shape local_shape = tensor<64x1x128x64xbf16>>, ttcore.shard_status = #ttcore.shard_status<presharded>, ttir.name = "args_4"} loc("p28.695"), %arg29: tensor<512xbf16> {ttcore.argument_type = #ttcore.argument_type<parameter>, ttcore.local_shape = #ttcore<local_shape local_shape = tensor<64xbf16>>, ttcore.shard_status = #ttcore.shard_status<presharded>, ttir.name = "self___model_model_layers_1_self_attn_v_proj__parameters__bias"} loc("p29.704"), %arg30: tensor<512x2880xbf16> {ttcore.argument_type = #ttcore.argument_type<parameter>, ttcore.local_shape = #ttcore<local_shape local_shape = tensor<64x720xbf16>>, ttcore.shard_status = #ttcore.shard_status<presharded>, ttir.name = "self___model_model_layers_1_self_attn_v_proj__parameters__weight"} loc("p30.708"), %arg31: tensor<64x8x128x64xbf16> {ttcore.argument_type = #ttcore.argument_type<input>, ttcore.local_shape = #ttcore<local_shape local_shape = tensor<64x1x128x64xbf16>>, ttcore.shard_status = #ttcore.shard_status<presharded>, ttir.name = "args_5"} loc("p31.732"), %arg32: tensor<512xbf16> {ttcore.argument_type = #ttcore.argument_type<parameter>, ttcore.local_shape = #ttcore<local_shape local_shape = tensor<64xbf16>>, ttcore.shard_status = #ttcore.shard_status<presharded>, ttir.name = "self___model_model_layers_2_self_attn_k_proj__parameters__bias"} loc("p32.743"), %arg33: tensor<512x2880xbf16> {ttcore.argument_type = #ttcore.argument_type<parameter>, ttcore.local_shape = #ttcore<local_shape local_shape = tensor<64x720xbf16>>, ttcore.shard_status = #ttcore.shard_status<presharded>, ttir.name = "self___model_model_layers_2_self_attn_k_proj__parameters__weight"} loc("p33.747"), %arg34: tensor<2880xbf16> {ttcore.argument_type = #ttcore.argument_type<parameter>, ttcore.local_shape = #ttcore<local_shape local_shape = tensor<720xbf16>>, ttcore.shard_status = #ttcore.shard_status<presharded>, ttir.name = "model.model.layers.2.input_layernorm.weight"} loc("p34.752"), %arg35: tensor<128xbf16> {ttcore.argument_type = #ttcore.argument_type<parameter>, ttcore.local_shape = #ttcore<local_shape local_shape = tensor<128xbf16>>, ttcore.shard_status = #ttcore.shard_status<presharded>, ttir.name = "model.model.layers.1.mlp.router.bias"} loc("p35.764"), %arg36: tensor<128x2880xbf16> {ttcore.argument_type = #ttcore.argument_type<parameter>, ttcore.local_shape = #ttcore<local_shape local_shape = tensor<128x720xbf16>>, ttcore.shard_status = #ttcore.shard_status<presharded>, ttcore.weight_dtype = "bfp_bf4", ttir.name = "model.model.layers.1.mlp.router.parametrizations.weight.original"} loc("p36.772"), %arg37: tensor<2880xbf16> {ttcore.argument_type = #ttcore.argument_type<parameter>, ttcore.local_shape = #ttcore<local_shape local_shape = tensor<720xbf16>>, ttcore.shard_status = #ttcore.shard_status<presharded>, ttir.name = "model.model.layers.1.post_attention_layernorm.weight"} loc("p37.781"), %arg38: tensor<2880xbf16> {ttcore.argument_type = #ttcore.argument_type<parameter>, ttcore.local_shape = #ttcore<local_shape local_shape = tensor<720xbf16>>, ttcore.shard_status = #ttcore.shard_status<presharded>, ttir.name = "self___model_model_layers_1_self_attn_o_proj__parameters__bias"} loc("p38.792"), %arg39: tensor<2880x4096xbf16> {ttcore.argument_type = #ttcore.argument_type<parameter>, ttcore.local_shape = #ttcore<local_shape local_shape = tensor<720x512xbf16>>, ttcore.shard_status = #ttcore.shard_status<presharded>, ttir.name = "self___model_model_layers_1_self_attn_o_proj__parameters__weight"} loc("p39.796"), %arg40: tensor<64xbf16> {ttcore.argument_type = #ttcore.argument_type<parameter>, ttcore.local_shape = #ttcore<local_shape local_shape = tensor<64xbf16>>, ttcore.shard_status = #ttcore.shard_status<presharded>, ttir.name = "model.model.layers.1.self_attn.sinks"} loc("p40.807"), %arg41: tensor<bf16> {ttcore.argument_type = #ttcore.argument_type<constant>, ttcore.local_shape = #ttcore<local_shape local_shape = tensor<bf16>>, ttcore.shard_status = #ttcore.shard_status<presharded>, ttir.name = "L['self'].model.model.lifted_tensor_0"} loc("p41.822"), %arg42: tensor<4096xbf16> {ttcore.argument_type = #ttcore.argument_type<parameter>, ttcore.local_shape = #ttcore<local_shape local_shape = tensor<512xbf16>>, ttcore.shard_status = #ttcore.shard_status<presharded>, ttir.name = "self___model_model_layers_1_self_attn_q_proj__parameters__bias"} loc("p42.859"), %arg43: tensor<4096x2880xbf16> {ttcore.argument_type = #ttcore.argument_type<parameter>, ttcore.local_shape = #ttcore<local_shape local_shape = tensor<512x720xbf16>>, ttcore.shard_status = #ttcore.shard_status<presharded>, ttir.name = "self___model_model_layers_1_self_attn_q_proj__parameters__weight"} loc("p43.863"), %arg44: tensor<128x2880xbf16> {ttcore.argument_type = #ttcore.argument_type<parameter>, ttcore.local_shape = #ttcore<local_shape local_shape = tensor<16x720xbf16>>, ttcore.shard_status = #ttcore.shard_status<presharded>, ttir.name = "model.model.layers.1.mlp.experts.down_proj_bias"} loc("p44.1090"), %arg45: tensor<128x2880x2880xbf16> {ttcore.argument_type = #ttcore.argument_type<parameter>, ttcore.local_shape = #ttcore<local_shape local_shape = tensor<16x2880x720xbf16>>, ttcore.shard_status = #ttcore.shard_status<presharded>, ttcore.weight_dtype = "bfp_bf4", ttir.name = "model.model.layers.1.mlp.experts.parametrizations.down_proj.original"} loc("p45.1095"), %arg46: tensor<128x5760xbf16> {ttcore.argument_type = #ttcore.argument_type<parameter>, ttcore.local_shape = #ttcore<local_shape local_shape = tensor<16x5760xbf16>>, ttcore.shard_status = #ttcore.shard_status<presharded>, ttir.name = "model.model.layers.1.mlp.experts.gate_up_proj_bias"} loc("p46.1102"), %arg47: tensor<128x2880x5760xbf16> {ttcore.argument_type = #ttcore.argument_type<parameter>, ttcore.local_shape = #ttcore<local_shape local_shape = tensor<16x720x5760xbf16>>, ttcore.shard_status = #ttcore.shard_status<presharded>, ttcore.weight_dtype = "bfp_bf4", ttir.name = "model.model.layers.1.mlp.experts.parametrizations.gate_up_proj.original"} loc("p47.1107"), %arg48: tensor<64x8x128x64xbf16> {ttcore.argument_type = #ttcore.argument_type<input>, ttcore.local_shape = #ttcore<local_shape local_shape = tensor<64x1x128x64xbf16>>, ttcore.shard_status = #ttcore.shard_status<presharded>, ttir.name = "args_6"} loc("p48.1235"), %arg49: tensor<512xbf16> {ttcore.argument_type = #ttcore.argument_type<parameter>, ttcore.local_shape = #ttcore<local_shape local_shape = tensor<64xbf16>>, ttcore.shard_status = #ttcore.shard_status<presharded>, ttir.name = "self___model_model_layers_2_self_attn_v_proj__parameters__bias"} loc("p49.1244"), %arg50: tensor<512x2880xbf16> {ttcore.argument_type = #ttcore.argument_type<parameter>, ttcore.local_shape = #ttcore<local_shape local_shape = tensor<64x720xbf16>>, ttcore.shard_status = #ttcore.shard_status<presharded>, ttir.name = "self___model_model_layers_2_self_attn_v_proj__parameters__weight"} loc("p50.1248"), %arg51: tensor<64x8x128x64xbf16> {ttcore.argument_type = #ttcore.argument_type<input>, ttcore.local_shape = #ttcore<local_shape local_shape = tensor<64x1x128x64xbf16>>, ttcore.shard_status = #ttcore.shard_status<presharded>, ttir.name = "args_7"} loc("p51.1272"), %arg52: tensor<512xbf16> {ttcore.argument_type = #ttcore.argument_type<parameter>, ttcore.local_shape = #ttcore<local_shape local_shape = tensor<64xbf16>>, ttcore.shard_status = #ttcore.shard_status<presharded>, ttir.name = "self___model_model_layers_3_self_attn_k_proj__parameters__bias"} loc("p52.1283"), %arg53: tensor<512x2880xbf16> {ttcore.argument_type = #ttcore.argument_type<parameter>, ttcore.local_shape = #ttcore<local_shape local_shape = tensor<64x720xbf16>>, ttcore.shard_status = #ttcore.shard_status<presharded>, ttir.name = "self___model_model_layers_3_self_attn_k_proj__parameters__weight"} loc("p53.1287"), %arg54: tensor<2880xbf16> {ttcore.argument_type = #ttcore.argument_type<parameter>, ttcore.local_shape = #ttcore<local_shape local_shape = tensor<720xbf16>>, ttcore.shard_status = #ttcore.shard_status<presharded>, ttir.name = "model.model.layers.3.input_layernorm.weight"} loc("p54.1292"), %arg55: tensor<128xbf16> {ttcore.argument_type = #ttcore.argument_type<parameter>, ttcore.local_shape = #ttcore<local_shape local_shape = tensor<128xbf16>>, ttcore.shard_status = #ttcore.shard_status<presharded>, ttir.name = "model.model.layers.2.mlp.router.bias"} loc("p55.1304"), %arg56: tensor<128x2880xbf16> {ttcore.argument_type = #ttcore.argument_type<parameter>, ttcore.local_shape = #ttcore<local_shape local_shape = tensor<128x720xbf16>>, ttcore.shard_status = #ttcore.shard_status<presharded>, ttcore.weight_dtype = "bfp_bf4", ttir.name = "model.model.layers.2.mlp.router.parametrizations.weight.original"} loc("p56.1312"), %arg57: tensor<2880xbf16> {ttcore.argument_type = #ttcore.argument_type<parameter>, ttcore.local_shape = #ttcore<local_shape local_shape = tensor<720xbf16>>, ttcore.shard_status = #ttcore.shard_status<presharded>, ttir.name = "model.model.layers.2.post_attention_layernorm.weight"} loc("p57.1321"), %arg58: tensor<2880xbf16> {ttcore.argument_type = #ttcore.argument_type<parameter>, ttcore.local_shape = #ttcore<local_shape local_shape = tensor<720xbf16>>, ttcore.shard_status = #ttcore.shard_status<presharded>, ttir.name = "self___model_model_layers_2_self_attn_o_proj__parameters__bias"} loc("p58.1332"), %arg59: tensor<2880x4096xbf16> {ttcore.argument_type = #ttcore.argument_type<parameter>, ttcore.local_shape = #ttcore<local_shape local_shape = tensor<720x512xbf16>>, ttcore.shard_status = #ttcore.shard_status<presharded>, ttir.name = "self___model_model_layers_2_self_attn_o_proj__parameters__weight"} loc("p59.1336"), %arg60: tensor<64xbf16> {ttcore.argument_type = #ttcore.argument_type<parameter>, ttcore.local_shape = #ttcore<local_shape local_shape = tensor<64xbf16>>, ttcore.shard_status = #ttcore.shard_status<presharded>, ttir.name = "model.model.layers.2.self_attn.sinks"} loc("p60.1347"), %arg61: tensor<4096xbf16> {ttcore.argument_type = #ttcore.argument_type<parameter>, ttcore.local_shape = #ttcore<local_shape local_shape = tensor<512xbf16>>, ttcore.shard_status = #ttcore.shard_status<presharded>, ttir.name = "self___model_model_layers_2_self_attn_q_proj__parameters__bias"} loc("p61.1365"), %arg62: tensor<4096x2880xbf16> {ttcore.argument_type = #ttcore.argument_type<parameter>, ttcore.local_shape = #ttcore<local_shape local_shape = tensor<512x720xbf16>>, ttcore.shard_status = #ttcore.shard_status<presharded>, ttir.name = "self___model_model_layers_2_self_attn_q_proj__parameters__weight"} loc("p62.1369"), %arg63: tensor<128x2880xbf16> {ttcore.argument_type = #ttcore.argument_type<parameter>, ttcore.local_shape = #ttcore<local_shape local_shape = tensor<16x720xbf16>>, ttcore.shard_status = #ttcore.shard_status<presharded>, ttir.name = "model.model.layers.2.mlp.experts.down_proj_bias"} loc("p63.1596"), %arg64: tensor<128x2880x2880xbf16> {ttcore.argument_type = #ttcore.argument_type<parameter>, ttcore.local_shape = #ttcore<local_shape local_shape = tensor<16x2880x720xbf16>>, ttcore.shard_status = #ttcore.shard_status<presharded>, ttcore.weight_dtype = "bfp_bf4", ttir.name = "model.model.layers.2.mlp.experts.parametrizations.down_proj.original"} loc("p64.1601"), %arg65: tensor<128x5760xbf16> {ttcore.argument_type = #ttcore.argument_type<parameter>, ttcore.local_shape = #ttcore<local_shape local_shape = tensor<16x5760xbf16>>, ttcore.shard_status = #ttcore.shard_status<presharded>, ttir.name = "model.model.layers.2.mlp.experts.gate_up_proj_bias"} loc("p65.1608"), %arg66: tensor<128x2880x5760xbf16> {ttcore.argument_type = #ttcore.argument_type<parameter>, ttcore.local_shape = #ttcore<local_shape local_shape = tensor<16x720x5760xbf16>>, ttcore.shard_status = #ttcore.shard_status<presharded>, ttcore.weight_dtype = "bfp_bf4", ttir.name = "model.model.layers.2.mlp.experts.parametrizations.gate_up_proj.original"} loc("p66.1613"), %arg67: tensor<64x8x128x64xbf16> {ttcore.argument_type = #ttcore.argument_type<input>, ttcore.local_shape = #ttcore<local_shape local_shape = tensor<64x1x128x64xbf16>>, ttcore.shard_status = #ttcore.shard_status<presharded>, ttir.name = "args_8"} loc("p67.1741"), %arg68: tensor<512xbf16> {ttcore.argument_type = #ttcore.argument_type<parameter>, ttcore.local_shape = #ttcore<local_shape local_shape = tensor<64xbf16>>, ttcore.shard_status = #ttcore.shard_status<presharded>, ttir.name = "self___model_model_layers_3_self_attn_v_proj__parameters__bias"} loc("p68.1750"), %arg69: tensor<512x2880xbf16> {ttcore.argument_type = #ttcore.argument_type<parameter>, ttcore.local_shape = #ttcore<local_shape local_shape = tensor<64x720xbf16>>, ttcore.shard_status = #ttcore.shard_status<presharded>, ttir.name = "self___model_model_layers_3_self_attn_v_proj__parameters__weight"} loc("p69.1754"), %arg70: tensor<64x8x128x64xbf16> {ttcore.argument_type = #ttcore.argument_type<input>, ttcore.local_shape = #ttcore<local_shape local_shape = tensor<64x1x128x64xbf16>>, ttcore.shard_status = #ttcore.shard_status<presharded>, ttir.name = "args_9"} loc("p70.1778"), %arg71: tensor<512xbf16> {ttcore.argument_type = #ttcore.argument_type<parameter>, ttcore.local_shape = #ttcore<local_shape local_shape = tensor<64xbf16>>, ttcore.shard_status = #ttcore.shard_status<presharded>, ttir.name = "self___model_model_layers_4_self_attn_k_proj__parameters__bias"} loc("p71.1789"), %arg72: tensor<512x2880xbf16> {ttcore.argument_type = #ttcore.argument_type<parameter>, ttcore.local_shape = #ttcore<local_shape local_shape = tensor<64x720xbf16>>, ttcore.shard_status = #ttcore.shard_status<presharded>, ttir.name = "self___model_model_layers_4_self_attn_k_proj__parameters__weight"} loc("p72.1793"), %arg73: tensor<2880xbf16> {ttcore.argument_type = #ttcore.argument_type<parameter>, ttcore.local_shape = #ttcore<local_shape local_shape = tensor<720xbf16>>, ttcore.shard_status = #ttcore.shard_status<presharded>, ttir.name = "model.model.layers.4.input_layernorm.weight"} loc("p73.1798"), %arg74: tensor<128xbf16> {ttcore.argument_type = #ttcore.argument_type<parameter>, ttcore.local_shape = #ttcore<local_shape local_shape = tensor<128xbf16>>, ttcore.shard_status = #ttcore.shard_status<presharded>, ttir.name = "model.model.layers.3.mlp.router.bias"} loc("p74.1810"), %arg75: tensor<128x2880xbf16> {ttcore.argument_type = #ttcore.argument_type<parameter>, ttcore.local_shape = #ttcore<local_shape local_shape = tensor<128x720xbf16>>, ttcore.shard_status = #ttcore.shard_status<presharded>, ttcore.weight_dtype = "bfp_bf4", ttir.name = "model.model.layers.3.mlp.router.parametrizations.weight.original"} loc("p75.1818"), %arg76: tensor<2880xbf16> {ttcore.argument_type = #ttcore.argument_type<parameter>, ttcore.local_shape = #ttcore<local_shape local_shape = tensor<720xbf16>>, ttcore.shard_status = #ttcore.shard_status<presharded>, ttir.name = "model.model.layers.3.post_attention_layernorm.weight"} loc("p76.1827"), %arg77: tensor<2880xbf16> {ttcore.argument_type = #ttcore.argument_type<parameter>, ttcore.local_shape = #ttcore<local_shape local_shape = tensor<720xbf16>>, ttcore.shard_status = #ttcore.shard_status<presharded>, ttir.name = "self___model_model_layers_3_self_attn_o_proj__parameters__bias"} loc("p77.1838"), %arg78: tensor<2880x4096xbf16> {ttcore.argument_type = #ttcore.argument_type<parameter>, ttcore.local_shape = #ttcore<local_shape local_shape = tensor<720x512xbf16>>, ttcore.shard_status = #ttcore.shard_status<presharded>, ttir.name = "self___model_model_layers_3_self_attn_o_proj__parameters__weight"} loc("p78.1842"), %arg79: tensor<64xbf16> {ttcore.argument_type = #ttcore.argument_type<parameter>, ttcore.local_shape = #ttcore<local_shape local_shape = tensor<64xbf16>>, ttcore.shard_status = #ttcore.shard_status<presharded>, ttir.name = "model.model.layers.3.self_attn.sinks"} loc("p79.1853"), %arg80: tensor<4096xbf16> {ttcore.argument_type = #ttcore.argument_type<parameter>, ttcore.local_shape = #ttcore<local_shape local_shape = tensor<512xbf16>>, ttcore.shard_status = #ttcore.shard_status<presharded>, ttir.name = "self___model_model_layers_3_self_attn_q_proj__parameters__bias"} loc("p80.1871"), %arg81: tensor<4096x2880xbf16> {ttcore.argument_type = #ttcore.argument_type<parameter>, ttcore.local_shape = #ttcore<local_shape local_shape = tensor<512x720xbf16>>, ttcore.shard_status = #ttcore.shard_status<presharded>, ttir.name = "self___model_model_layers_3_self_attn_q_proj__parameters__weight"} loc("p81.1875"), %arg82: tensor<128x2880xbf16> {ttcore.argument_type = #ttcore.argument_type<parameter>, ttcore.local_shape = #ttcore<local_shape local_shape = tensor<16x720xbf16>>, ttcore.shard_status = #ttcore.shard_status<presharded>, ttir.name = "model.model.layers.3.mlp.experts.down_proj_bias"} loc("p82.2102"), %arg83: tensor<128x2880x2880xbf16> {ttcore.argument_type = #ttcore.argument_type<parameter>, ttcore.local_shape = #ttcore<local_shape local_shape = tensor<16x2880x720xbf16>>, ttcore.shard_status = #ttcore.shard_status<presharded>, ttcore.weight_dtype = "bfp_bf4", ttir.name = "model.model.layers.3.mlp.experts.parametrizations.down_proj.original"} loc("p83.2107"), %arg84: tensor<128x5760xbf16> {ttcore.argument_type = #ttcore.argument_type<parameter>, ttcore.local_shape = #ttcore<local_shape local_shape = tensor<16x5760xbf16>>, ttcore.shard_status = #ttcore.shard_status<presharded>, ttir.name = "model.model.layers.3.mlp.experts.gate_up_proj_bias"} loc("p84.2114"), %arg85: tensor<128x2880x5760xbf16> {ttcore.argument_type = #ttcore.argument_type<parameter>, ttcore.local_shape = #ttcore<local_shape local_shape = tensor<16x720x5760xbf16>>, ttcore.shard_status = #ttcore.shard_status<presharded>, ttcore.weight_dtype = "bfp_bf4", ttir.name = "model.model.layers.3.mlp.experts.parametrizations.gate_up_proj.original"} loc("p85.2119"), %arg86: tensor<64x8x128x64xbf16> {ttcore.argument_type = #ttcore.argument_type<input>, ttcore.local_shape = #ttcore<local_shape local_shape = tensor<64x1x128x64xbf16>>, ttcore.shard_status = #ttcore.shard_status<presharded>, ttir.name = "args_10"} loc("p86.2247"), %arg87: tensor<512xbf16> {ttcore.argument_type = #ttcore.argument_type<parameter>, ttcore.local_shape = #ttcore<local_shape local_shape = tensor<64xbf16>>, ttcore.shard_status = #ttcore.shard_status<presharded>, ttir.name = "self___model_model_layers_4_self_attn_v_proj__parameters__bias"} loc("p87.2256"), %arg88: tensor<512x2880xbf16> {ttcore.argument_type = #ttcore.argument_type<parameter>, ttcore.local_shape = #ttcore<local_shape local_shape = tensor<64x720xbf16>>, ttcore.shard_status = #ttcore.shard_status<presharded>, ttir.name = "self___model_model_layers_4_self_attn_v_proj__parameters__weight"} loc("p88.2260"), %arg89: tensor<64x8x128x64xbf16> {ttcore.argument_type = #ttcore.argument_type<input>, ttcore.local_shape = #ttcore<local_shape local_shape = tensor<64x1x128x64xbf16>>, ttcore.shard_status = #ttcore.shard_status<presharded>, ttir.name = "args_11"} loc("p89.2284"), %arg90: tensor<512xbf16> {ttcore.argument_type = #ttcore.argument_type<parameter>, ttcore.local_shape = #ttcore<local_shape local_shape = tensor<64xbf16>>, ttcore.shard_status = #ttcore.shard_status<presharded>, ttir.name = "self___model_model_layers_5_self_attn_k_proj__parameters__bias"} loc("p90.2295"), %arg91: tensor<512x2880xbf16> {ttcore.argument_type = #ttcore.argument_type<parameter>, ttcore.local_shape = #ttcore<local_shape local_shape = tensor<64x720xbf16>>, ttcore.shard_status = #ttcore.shard_status<presharded>, ttir.name = "self___model_model_layers_5_self_attn_k_proj__parameters__weight"} loc("p91.2299"), %arg92: tensor<2880xbf16> {ttcore.argument_type = #ttcore.argument_type<parameter>, ttcore.local_shape = #ttcore<local_shape local_shape = tensor<720xbf16>>, ttcore.shard_status = #ttcore.shard_status<presharded>, ttir.name = "model.model.layers.5.input_layernorm.weight"} loc("p92.2304"), %arg93: tensor<128xbf16> {ttcore.argument_type = #ttcore.argument_type<parameter>, ttcore.local_shape = #ttcore<local_shape local_shape = tensor<128xbf16>>, ttcore.shard_status = #ttcore.shard_status<presharded>, ttir.name = "model.model.layers.4.mlp.router.bias"} loc("p93.2316"), %arg94: tensor<128x2880xbf16> {ttcore.argument_type = #ttcore.argument_type<parameter>, ttcore.local_shape = #ttcore<local_shape local_shape = tensor<128x720xbf16>>, ttcore.shard_status = #ttcore.shard_status<presharded>, ttcore.weight_dtype = "bfp_bf4", ttir.name = "model.model.layers.4.mlp.router.parametrizations.weight.original"} loc("p94.2324"), %arg95: tensor<2880xbf16> {ttcore.argument_type = #ttcore.argument_type<parameter>, ttcore.local_shape = #ttcore<local_shape local_shape = tensor<720xbf16>>, ttcore.shard_status = #ttcore.shard_status<presharded>, ttir.name = "model.model.layers.4.post_attention_layernorm.weight"} loc("p95.2333"), %arg96: tensor<2880xbf16> {ttcore.argument_type = #ttcore.argument_type<parameter>, ttcore.local_shape = #ttcore<local_shape local_shape = tensor<720xbf16>>, ttcore.shard_status = #ttcore.shard_status<presharded>, ttir.name = "self___model_model_layers_4_self_attn_o_proj__parameters__bias"} loc("p96.2344"), %arg97: tensor<2880x4096xbf16> {ttcore.argument_type = #ttcore.argument_type<parameter>, ttcore.local_shape = #ttcore<local_shape local_shape = tensor<720x512xbf16>>, ttcore.shard_status = #ttcore.shard_status<presharded>, ttir.name = "self___model_model_layers_4_self_attn_o_proj__parameters__weight"} loc("p97.2348"), %arg98: tensor<64xbf16> {ttcore.argument_type = #ttcore.argument_type<parameter>, ttcore.local_shape = #ttcore<local_shape local_shape = tensor<64xbf16>>, ttcore.shard_status = #ttcore.shard_status<presharded>, ttir.name = "model.model.layers.4.self_attn.sinks"} loc("p98.2359"), %arg99: tensor<4096xbf16> {ttcore.argument_type = #ttcore.argument_type<parameter>, ttcore.local_shape = #ttcore<local_shape local_shape = tensor<512xbf16>>, ttcore.shard_status = #ttcore.shard_status<presharded>, ttir.name = "self___model_model_layers_4_self_attn_q_proj__parameters__bias"} loc("p99.2377"), %arg100: tensor<4096x2880xbf16> {ttcore.argument_type = #ttcore.argument_type<parameter>, ttcore.local_shape = #ttcore<local_shape local_shape = tensor<512x720xbf16>>, ttcore.shard_status = #ttcore.shard_status<presharded>, ttir.name = "self___model_model_layers_4_self_attn_q_proj__parameters__weight"} loc("p100.2381"), %arg101: tensor<128x2880xbf16> {ttcore.argument_type = #ttcore.argument_type<parameter>, ttcore.local_shape = #ttcore<local_shape local_shape = tensor<16x720xbf16>>, ttcore.shard_status = #ttcore.shard_status<presharded>, ttir.name = "model.model.layers.4.mlp.experts.down_proj_bias"} loc("p101.2608"), %arg102: tensor<128x2880x2880xbf16> {ttcore.argument_type = #ttcore.argument_type<parameter>, ttcore.local_shape = #ttcore<local_shape local_shape = tensor<16x2880x720xbf16>>, ttcore.shard_status = #ttcore.shard_status<presharded>, ttcore.weight_dtype = "bfp_bf4", ttir.name = "model.model.layers.4.mlp.experts.parametrizations.down_proj.original"} loc("p102.2613"), %arg103: tensor<128x5760xbf16> {ttcore.argument_type = #ttcore.argument_type<parameter>, ttcore.local_shape = #ttcore<local_shape local_shape = tensor<16x5760xbf16>>, ttcore.shard_status = #ttcore.shard_status<presharded>, ttir.name = "model.model.layers.4.mlp.experts.gate_up_proj_bias"} loc("p103.2620"), %arg104: tensor<128x2880x5760xbf16> {ttcore.argument_type = #ttcore.argument_type<parameter>, ttcore.local_shape = #ttcore<local_shape local_shape = tensor<16x720x5760xbf16>>, ttcore.shard_status = #ttcore.shard_status<presharded>, ttcore.weight_dtype = "bfp_bf4", ttir.name = "model.model.layers.4.mlp.experts.parametrizations.gate_up_proj.original"} loc("p104.2625"), %arg105: tensor<64x8x128x64xbf16> {ttcore.argument_type = #ttcore.argument_type<input>, ttcore.local_shape = #ttcore<local_shape local_shape = tensor<64x1x128x64xbf16>>, ttcore.shard_status = #ttcore.shard_status<presharded>, ttir.name = "args_12"} loc("p105.2753"), %arg106: tensor<512xbf16> {ttcore.argument_type = #ttcore.argument_type<parameter>, ttcore.local_shape = #ttcore<local_shape local_shape = tensor<64xbf16>>, ttcore.shard_status = #ttcore.shard_status<presharded>, ttir.name = "self___model_model_layers_5_self_attn_v_proj__parameters__bias"} loc("p106.2762"), %arg107: tensor<512x2880xbf16> {ttcore.argument_type = #ttcore.argument_type<parameter>, ttcore.local_shape = #ttcore<local_shape local_shape = tensor<64x720xbf16>>, ttcore.shard_status = #ttcore.shard_status<presharded>, ttir.name = "self___model_model_layers_5_self_attn_v_proj__parameters__weight"} loc("p107.2766"), %arg108: tensor<64x8x128x64xbf16> {ttcore.argument_type = #ttcore.argument_type<input>, ttcore.local_shape = #ttcore<local_shape local_shape = tensor<64x1x128x64xbf16>>, ttcore.shard_status = #ttcore.shard_status<presharded>, ttir.name = "args_13"} loc("p108.2790"), %arg109: tensor<512xbf16> {ttcore.argument_type = #ttcore.argument_type<parameter>, ttcore.local_shape = #ttcore<local_shape local_shape = tensor<64xbf16>>, ttcore.shard_status = #ttcore.shard_status<presharded>, ttir.name = "self___model_model_layers_6_self_attn_k_proj__parameters__bias"} loc("p109.2801"), %arg110: tensor<512x2880xbf16> {ttcore.argument_type = #ttcore.argument_type<parameter>, ttcore.local_shape = #ttcore<local_shape local_shape = tensor<64x720xbf16>>, ttcore.shard_status = #ttcore.shard_status<presharded>, ttir.name = "self___model_model_layers_6_self_attn_k_proj__parameters__weight"} loc("p110.2805"), %arg111: tensor<2880xbf16> {ttcore.argument_type = #ttcore.argument_type<parameter>, ttcore.local_shape = #ttcore<local_shape local_shape = tensor<720xbf16>>, ttcore.shard_status = #ttcore.shard_status<presharded>, ttir.name = "model.model.layers.6.input_layernorm.weight"} loc("p111.2810"), %arg112: tensor<128xbf16> {ttcore.argument_type = #ttcore.argument_type<parameter>, ttcore.local_shape = #ttcore<local_shape local_shape = tensor<128xbf16>>, ttcore.shard_status = #ttcore.shard_status<presharded>, ttir.name = "model.model.layers.5.mlp.router.bias"} loc("p112.2822"), %arg113: tensor<128x2880xbf16> {ttcore.argument_type = #ttcore.argument_type<parameter>, ttcore.local_shape = #ttcore<local_shape local_shape = tensor<128x720xbf16>>, ttcore.shard_status = #ttcore.shard_status<presharded>, ttcore.weight_dtype = "bfp_bf4", ttir.name = "model.model.layers.5.mlp.router.parametrizations.weight.original"} loc("p113.2830"), %arg114: tensor<2880xbf16> {ttcore.argument_type = #ttcore.argument_type<parameter>, ttcore.local_shape = #ttcore<local_shape local_shape = tensor<720xbf16>>, ttcore.shard_status = #ttcore.shard_status<presharded>, ttir.name = "model.model.layers.5.post_attention_layernorm.weight"} loc("p114.2839"), %arg115: tensor<2880xbf16> {ttcore.argument_type = #ttcore.argument_type<parameter>, ttcore.local_shape = #ttcore<local_shape local_shape = tensor<720xbf16>>, ttcore.shard_status = #ttcore.shard_status<presharded>, ttir.name = "self___model_model_layers_5_self_attn_o_proj__parameters__bias"} loc("p115.2850"), %arg116: tensor<2880x4096xbf16> {ttcore.argument_type = #ttcore.argument_type<parameter>, ttcore.local_shape = #ttcore<local_shape local_shape = tensor<720x512xbf16>>, ttcore.shard_status = #ttcore.shard_status<presharded>, ttir.name = "self___model_model_layers_5_self_attn_o_proj__parameters__weight"} loc("p116.2854"), %arg117: tensor<64xbf16> {ttcore.argument_type = #ttcore.argument_type<parameter>, ttcore.local_shape = #ttcore<local_shape local_shape = tensor<64xbf16>>, ttcore.shard_status = #ttcore.shard_status<presharded>, ttir.name = "model.model.layers.5.self_attn.sinks"} loc("p117.2865"), %arg118: tensor<4096xbf16> {ttcore.argument_type = #ttcore.argument_type<parameter>, ttcore.local_shape = #ttcore<local_shape local_shape = tensor<512xbf16>>, ttcore.shard_status = #ttcore.shard_status<presharded>, ttir.name = "self___model_model_layers_5_self_attn_q_proj__parameters__bias"} loc("p118.2883"), %arg119: tensor<4096x2880xbf16> {ttcore.argument_type = #ttcore.argument_type<parameter>, ttcore.local_shape = #ttcore<local_shape local_shape = tensor<512x720xbf16>>, ttcore.shard_status = #ttcore.shard_status<presharded>, ttir.name = "self___model_model_layers_5_self_attn_q_proj__parameters__weight"} loc("p119.2887"), %arg120: tensor<128x2880xbf16> {ttcore.argument_type = #ttcore.argument_type<parameter>, ttcore.local_shape = #ttcore<local_shape local_shape = tensor<16x720xbf16>>, ttcore.shard_status = #ttcore.shard_status<presharded>, ttir.name = "model.model.layers.5.mlp.experts.down_proj_bias"} loc("p120.3114"), %arg121: tensor<128x2880x2880xbf16> {ttcore.argument_type = #ttcore.argument_type<parameter>, ttcore.local_shape = #ttcore<local_shape local_shape = tensor<16x2880x720xbf16>>, ttcore.shard_status = #ttcore.shard_status<presharded>, ttcore.weight_dtype = "bfp_bf4", ttir.name = "model.model.layers.5.mlp.experts.parametrizations.down_proj.original"} loc("p121.3119"), %arg122: tensor<128x5760xbf16> {ttcore.argument_type = #ttcore.argument_type<parameter>, ttcore.local_shape = #ttcore<local_shape local_shape = tensor<16x5760xbf16>>, ttcore.shard_status = #ttcore.shard_status<presharded>, ttir.name = "model.model.layers.5.mlp.experts.gate_up_proj_bias"} loc("p122.3126"), %arg123: tensor<128x2880x5760xbf16> {ttcore.argument_type = #ttcore.argument_type<parameter>, ttcore.local_shape = #ttcore<local_shape local_shape = tensor<16x720x5760xbf16>>, ttcore.shard_status = #ttcore.shard_status<presharded>, ttcore.weight_dtype = "bfp_bf4", ttir.name = "model.model.layers.5.mlp.experts.parametrizations.gate_up_proj.original"} loc("p123.3131"), %arg124: tensor<64x8x128x64xbf16> {ttcore.argument_type = #ttcore.argument_type<input>, ttcore.local_shape = #ttcore<local_shape local_shape = tensor<64x1x128x64xbf16>>, ttcore.shard_status = #ttcore.shard_status<presharded>, ttir.name = "args_14"} loc("p124.3259"), %arg125: tensor<512xbf16> {ttcore.argument_type = #ttcore.argument_type<parameter>, ttcore.local_shape = #ttcore<local_shape local_shape = tensor<64xbf16>>, ttcore.shard_status = #ttcore.shard_status<presharded>, ttir.name = "self___model_model_layers_6_self_attn_v_proj__parameters__bias"} loc("p125.3268"), %arg126: tensor<512x2880xbf16> {ttcore.argument_type = #ttcore.argument_type<parameter>, ttcore.local_shape = #ttcore<local_shape local_shape = tensor<64x720xbf16>>, ttcore.shard_status = #ttcore.shard_status<presharded>, ttir.name = "self___model_model_layers_6_self_attn_v_proj__parameters__weight"} loc("p126.3272"), %arg127: tensor<64x8x128x64xbf16> {ttcore.argument_type = #ttcore.argument_type<input>, ttcore.local_shape = #ttcore<local_shape local_shape = tensor<64x1x128x64xbf16>>, ttcore.shard_status = #ttcore.shard_status<presharded>, ttir.name = "args_15"} loc("p127.3296"), %arg128: tensor<512xbf16> {ttcore.argument_type = #ttcore.argument_type<parameter>, ttcore.local_shape = #ttcore<local_shape local_shape = tensor<64xbf16>>, ttcore.shard_status = #ttcore.shard_status<presharded>, ttir.name = "self___model_model_layers_7_self_attn_k_proj__parameters__bias"} loc("p128.3307"), %arg129: tensor<512x2880xbf16> {ttcore.argument_type = #ttcore.argument_type<parameter>, ttcore.local_shape = #ttcore<local_shape local_shape = tensor<64x720xbf16>>, ttcore.shard_status = #ttcore.shard_status<presharded>, ttir.name = "self___model_model_layers_7_self_attn_k_proj__parameters__weight"} loc("p129.3311"), %arg130: tensor<2880xbf16> {ttcore.argument_type = #ttcore.argument_type<parameter>, ttcore.local_shape = #ttcore<local_shape local_shape = tensor<720xbf16>>, ttcore.shard_status = #ttcore.shard_status<presharded>, ttir.name = "model.model.layers.7.input_layernorm.weight"} loc("p130.3316"), %arg131: tensor<128xbf16> {ttcore.argument_type = #ttcore.argument_type<parameter>, ttcore.local_shape = #ttcore<local_shape local_shape = tensor<128xbf16>>, ttcore.shard_status = #ttcore.shard_status<presharded>, ttir.name = "model.model.layers.6.mlp.router.bias"} loc("p131.3328"), %arg132: tensor<128x2880xbf16> {ttcore.argument_type = #ttcore.argument_type<parameter>, ttcore.local_shape = #ttcore<local_shape local_shape = tensor<128x720xbf16>>, ttcore.shard_status = #ttcore.shard_status<presharded>, ttcore.weight_dtype = "bfp_bf4", ttir.name = "model.model.layers.6.mlp.router.parametrizations.weight.original"} loc("p132.3336"), %arg133: tensor<2880xbf16> {ttcore.argument_type = #ttcore.argument_type<parameter>, ttcore.local_shape = #ttcore<local_shape local_shape = tensor<720xbf16>>, ttcore.shard_status = #ttcore.shard_status<presharded>, ttir.name = "model.model.layers.6.post_attention_layernorm.weight"} loc("p133.3345"), %arg134: tensor<2880xbf16> {ttcore.argument_type = #ttcore.argument_type<parameter>, ttcore.local_shape = #ttcore<local_shape local_shape = tensor<720xbf16>>, ttcore.shard_status = #ttcore.shard_status<presharded>, ttir.name = "self___model_model_layers_6_self_attn_o_proj__parameters__bias"} loc("p134.3356"), %arg135: tensor<2880x4096xbf16> {ttcore.argument_type = #ttcore.argument_type<parameter>, ttcore.local_shape = #ttcore<local_shape local_shape = tensor<720x512xbf16>>, ttcore.shard_status = #ttcore.shard_status<presharded>, ttir.name = "self___model_model_layers_6_self_attn_o_proj__parameters__weight"} loc("p135.3360"), %arg136: tensor<64xbf16> {ttcore.argument_type = #ttcore.argument_type<parameter>, ttcore.local_shape = #ttcore<local_shape local_shape = tensor<64xbf16>>, ttcore.shard_status = #ttcore.shard_status<presharded>, ttir.name = "model.model.layers.6.self_attn.sinks"} loc("p136.3371"), %arg137: tensor<4096xbf16> {ttcore.argument_type = #ttcore.argument_type<parameter>, ttcore.local_shape = #ttcore<local_shape local_shape = tensor<512xbf16>>, ttcore.shard_status = #ttcore.shard_status<presharded>, ttir.name = "self___model_model_layers_6_self_attn_q_proj__parameters__bias"} loc("p137.3389"), %arg138: tensor<4096x2880xbf16> {ttcore.argument_type = #ttcore.argument_type<parameter>, ttcore.local_shape = #ttcore<local_shape local_shape = tensor<512x720xbf16>>, ttcore.shard_status = #ttcore.shard_status<presharded>, ttir.name = "self___model_model_layers_6_self_attn_q_proj__parameters__weight"} loc("p138.3393"), %arg139: tensor<128x2880xbf16> {ttcore.argument_type = #ttcore.argument_type<parameter>, ttcore.local_shape = #ttcore<local_shape local_shape = tensor<16x720xbf16>>, ttcore.shard_status = #ttcore.shard_status<presharded>, ttir.name = "model.model.layers.6.mlp.experts.down_proj_bias"} loc("p139.3620"), %arg140: tensor<128x2880x2880xbf16> {ttcore.argument_type = #ttcore.argument_type<parameter>, ttcore.local_shape = #ttcore<local_shape local_shape = tensor<16x2880x720xbf16>>, ttcore.shard_status = #ttcore.shard_status<presharded>, ttcore.weight_dtype = "bfp_bf4", ttir.name = "model.model.layers.6.mlp.experts.parametrizations.down_proj.original"} loc("p140.3625"), %arg141: tensor<128x5760xbf16> {ttcore.argument_type = #ttcore.argument_type<parameter>, ttcore.local_shape = #ttcore<local_shape local_shape = tensor<16x5760xbf16>>, ttcore.shard_status = #ttcore.shard_status<presharded>, ttir.name = "model.model.layers.6.mlp.experts.gate_up_proj_bias"} loc("p141.3632"), %arg142: tensor<128x2880x5760xbf16> {ttcore.argument_type = #ttcore.argument_type<parameter>, ttcore.local_shape = #ttcore<local_shape local_shape = tensor<16x720x5760xbf16>>, ttcore.shard_status = #ttcore.shard_status<presharded>, ttcore.weight_dtype = "bfp_bf4", ttir.name = "model.model.layers.6.mlp.experts.parametrizations.gate_up_proj.original"} loc("p142.3637"), %arg143: tensor<64x8x128x64xbf16> {ttcore.argument_type = #ttcore.argument_type<input>, ttcore.local_shape = #ttcore<local_shape local_shape = tensor<64x1x128x64xbf16>>, ttcore.shard_status = #ttcore.shard_status<presharded>, ttir.name = "args_16"} loc("p143.3765"), %arg144: tensor<512xbf16> {ttcore.argument_type = #ttcore.argument_type<parameter>, ttcore.local_shape = #ttcore<local_shape local_shape = tensor<64xbf16>>, ttcore.shard_status = #ttcore.shard_status<presharded>, ttir.name = "self___model_model_layers_7_self_attn_v_proj__parameters__bias"} loc("p144.3774"), %arg145: tensor<512x2880xbf16> {ttcore.argument_type = #ttcore.argument_type<parameter>, ttcore.local_shape = #ttcore<local_shape local_shape = tensor<64x720xbf16>>, ttcore.shard_status = #ttcore.shard_status<presharded>, ttir.name = "self___model_model_layers_7_self_attn_v_proj__parameters__weight"} loc("p145.3778"), %arg146: tensor<64x8x128x64xbf16> {ttcore.argument_type = #ttcore.argument_type<input>, ttcore.local_shape = #ttcore<local_shape local_shape = tensor<64x1x128x64xbf16>>, ttcore.shard_status = #ttcore.shard_status<presharded>, ttir.name = "args_17"} loc("p146.3802"), %arg147: tensor<512xbf16> {ttcore.argument_type = #ttcore.argument_type<parameter>, ttcore.local_shape = #ttcore<local_shape local_shape = tensor<64xbf16>>, ttcore.shard_status = #ttcore.shard_status<presharded>, ttir.name = "self___model_model_layers_8_self_attn_k_proj__parameters__bias"} loc("p147.3813"), %arg148: tensor<512x2880xbf16> {ttcore.argument_type = #ttcore.argument_type<parameter>, ttcore.local_shape = #ttcore<local_shape local_shape = tensor<64x720xbf16>>, ttcore.shard_status = #ttcore.shard_status<presharded>, ttir.name = "self___model_model_layers_8_self_attn_k_proj__parameters__weight"} loc("p148.3817"), %arg149: tensor<2880xbf16> {ttcore.argument_type = #ttcore.argument_type<parameter>, ttcore.local_shape = #ttcore<local_shape local_shape = tensor<720xbf16>>, ttcore.shard_status = #ttcore.shard_status<presharded>, ttir.name = "model.model.layers.8.input_layernorm.weight"} loc("p149.3822"), %arg150: tensor<128xbf16> {ttcore.argument_type = #ttcore.argument_type<parameter>, ttcore.local_shape = #ttcore<local_shape local_shape = tensor<128xbf16>>, ttcore.shard_status = #ttcore.shard_status<presharded>, ttir.name = "model.model.layers.7.mlp.router.bias"} loc("p150.3834"), %arg151: tensor<128x2880xbf16> {ttcore.argument_type = #ttcore.argument_type<parameter>, ttcore.local_shape = #ttcore<local_shape local_shape = tensor<128x720xbf16>>, ttcore.shard_status = #ttcore.shard_status<presharded>, ttcore.weight_dtype = "bfp_bf4", ttir.name = "model.model.layers.7.mlp.router.parametrizations.weight.original"} loc("p151.3842"), %arg152: tensor<2880xbf16> {ttcore.argument_type = #ttcore.argument_type<parameter>, ttcore.local_shape = #ttcore<local_shape local_shape = tensor<720xbf16>>, ttcore.shard_status = #ttcore.shard_status<presharded>, ttir.name = "model.model.layers.7.post_attention_layernorm.weight"} loc("p152.3851"), %arg153: tensor<2880xbf16> {ttcore.argument_type = #ttcore.argument_type<parameter>, ttcore.local_shape = #ttcore<local_shape local_shape = tensor<720xbf16>>, ttcore.shard_status = #ttcore.shard_status<presharded>, ttir.name = "self___model_model_layers_7_self_attn_o_proj__parameters__bias"} loc("p153.3862"), %arg154: tensor<2880x4096xbf16> {ttcore.argument_type = #ttcore.argument_type<parameter>, ttcore.local_shape = #ttcore<local_shape local_shape = tensor<720x512xbf16>>, ttcore.shard_status = #ttcore.shard_status<presharded>, ttir.name = "self___model_model_layers_7_self_attn_o_proj__parameters__weight"} loc("p154.3866"), %arg155: tensor<64xbf16> {ttcore.argument_type = #ttcore.argument_type<parameter>, ttcore.local_shape = #ttcore<local_shape local_shape = tensor<64xbf16>>, ttcore.shard_status = #ttcore.shard_status<presharded>, ttir.name = "model.model.layers.7.self_attn.sinks"} loc("p155.3877"), %arg156: tensor<4096xbf16> {ttcore.argument_type = #ttcore.argument_type<parameter>, ttcore.local_shape = #ttcore<local_shape local_shape = tensor<512xbf16>>, ttcore.shard_status = #ttcore.shard_status<presharded>, ttir.name = "self___model_model_layers_7_self_attn_q_proj__parameters__bias"} loc("p156.3895"), %arg157: tensor<4096x2880xbf16> {ttcore.argument_type = #ttcore.argument_type<parameter>, ttcore.local_shape = #ttcore<local_shape local_shape = tensor<512x720xbf16>>, ttcore.shard_status = #ttcore.shard_status<presharded>, ttir.name = "self___model_model_layers_7_self_attn_q_proj__parameters__weight"} loc("p157.3899"), %arg158: tensor<128x2880xbf16> {ttcore.argument_type = #ttcore.argument_type<parameter>, ttcore.local_shape = #ttcore<local_shape local_shape = tensor<16x720xbf16>>, ttcore.shard_status = #ttcore.shard_status<presharded>, ttir.name = "model.model.layers.7.mlp.experts.down_proj_bias"} loc("p158.4126"), %arg159: tensor<128x2880x2880xbf16> {ttcore.argument_type = #ttcore.argument_type<parameter>, ttcore.local_shape = #ttcore<local_shape local_shape = tensor<16x2880x720xbf16>>, ttcore.shard_status = #ttcore.shard_status<presharded>, ttcore.weight_dtype = "bfp_bf4", ttir.name = "model.model.layers.7.mlp.experts.parametrizations.down_proj.original"} loc("p159.4131"), %arg160: tensor<128x5760xbf16> {ttcore.argument_type = #ttcore.argument_type<parameter>, ttcore.local_shape = #ttcore<local_shape local_shape = tensor<16x5760xbf16>>, ttcore.shard_status = #ttcore.shard_status<presharded>, ttir.name = "model.model.layers.7.mlp.experts.gate_up_proj_bias"} loc("p160.4138"), %arg161: tensor<128x2880x5760xbf16> {ttcore.argument_type = #ttcore.argument_type<parameter>, ttcore.local_shape = #ttcore<local_shape local_shape = tensor<16x720x5760xbf16>>, ttcore.shard_status = #ttcore.shard_status<presharded>, ttcore.weight_dtype = "bfp_bf4", ttir.name = "model.model.layers.7.mlp.experts.parametrizations.gate_up_proj.original"} loc("p161.4143"), %arg162: tensor<64x8x128x64xbf16> {ttcore.argument_type = #ttcore.argument_type<input>, ttcore.local_shape = #ttcore<local_shape local_shape = tensor<64x1x128x64xbf16>>, ttcore.shard_status = #ttcore.shard_status<presharded>, ttir.name = "args_18"} loc("p162.4271"), %arg163: tensor<512xbf16> {ttcore.argument_type = #ttcore.argument_type<parameter>, ttcore.local_shape = #ttcore<local_shape local_shape = tensor<64xbf16>>, ttcore.shard_status = #ttcore.shard_status<presharded>, ttir.name = "self___model_model_layers_8_self_attn_v_proj__parameters__bias"} loc("p163.4280"), %arg164: tensor<512x2880xbf16> {ttcore.argument_type = #ttcore.argument_type<parameter>, ttcore.local_shape = #ttcore<local_shape local_shape = tensor<64x720xbf16>>, ttcore.shard_status = #ttcore.shard_status<presharded>, ttir.name = "self___model_model_layers_8_self_attn_v_proj__parameters__weight"} loc("p164.4284"), %arg165: tensor<64x8x128x64xbf16> {ttcore.argument_type = #ttcore.argument_type<input>, ttcore.local_shape = #ttcore<local_shape local_shape = tensor<64x1x128x64xbf16>>, ttcore.shard_status = #ttcore.shard_status<presharded>, ttir.name = "args_19"} loc("p165.4308"), %arg166: tensor<512xbf16> {ttcore.argument_type = #ttcore.argument_type<parameter>, ttcore.local_shape = #ttcore<local_shape local_shape = tensor<64xbf16>>, ttcore.shard_status = #ttcore.shard_status<presharded>, ttir.name = "self___model_model_layers_9_self_attn_k_proj__parameters__bias"} loc("p166.4319"), %arg167: tensor<512x2880xbf16> {ttcore.argument_type = #ttcore.argument_type<parameter>, ttcore.local_shape = #ttcore<local_shape local_shape = tensor<64x720xbf16>>, ttcore.shard_status = #ttcore.shard_status<presharded>, ttir.name = "self___model_model_layers_9_self_attn_k_proj__parameters__weight"} loc("p167.4323"), %arg168: tensor<2880xbf16> {ttcore.argument_type = #ttcore.argument_type<parameter>, ttcore.local_shape = #ttcore<local_shape local_shape = tensor<720xbf16>>, ttcore.shard_status = #ttcore.shard_status<presharded>, ttir.name = "model.model.layers.9.input_layernorm.weight"} loc("p168.4328"), %arg169: tensor<128xbf16> {ttcore.argument_type = #ttcore.argument_type<parameter>, ttcore.local_shape = #ttcore<local_shape local_shape = tensor<128xbf16>>, ttcore.shard_status = #ttcore.shard_status<presharded>, ttir.name = "model.model.layers.8.mlp.router.bias"} loc("p169.4340"), %arg170: tensor<128x2880xbf16> {ttcore.argument_type = #ttcore.argument_type<parameter>, ttcore.local_shape = #ttcore<local_shape local_shape = tensor<128x720xbf16>>, ttcore.shard_status = #ttcore.shard_status<presharded>, ttcore.weight_dtype = "bfp_bf4", ttir.name = "model.model.layers.8.mlp.router.parametrizations.weight.original"} loc("p170.4348"), %arg171: tensor<2880xbf16> {ttcore.argument_type = #ttcore.argument_type<parameter>, ttcore.local_shape = #ttcore<local_shape local_shape = tensor<720xbf16>>, ttcore.shard_status = #ttcore.shard_status<presharded>, ttir.name = "model.model.layers.8.post_attention_layernorm.weight"} loc("p171.4357"), %arg172: tensor<2880xbf16> {ttcore.argument_type = #ttcore.argument_type<parameter>, ttcore.local_shape = #ttcore<local_shape local_shape = tensor<720xbf16>>, ttcore.shard_status = #ttcore.shard_status<presharded>, ttir.name = "self___model_model_layers_8_self_attn_o_proj__parameters__bias"} loc("p172.4368"), %arg173: tensor<2880x4096xbf16> {ttcore.argument_type = #ttcore.argument_type<parameter>, ttcore.local_shape = #ttcore<local_shape local_shape = tensor<720x512xbf16>>, ttcore.shard_status = #ttcore.shard_status<presharded>, ttir.name = "self___model_model_layers_8_self_attn_o_proj__parameters__weight"} loc("p173.4372"), %arg174: tensor<64xbf16> {ttcore.argument_type = #ttcore.argument_type<parameter>, ttcore.local_shape = #ttcore<local_shape local_shape = tensor<64xbf16>>, ttcore.shard_status = #ttcore.shard_status<presharded>, ttir.name = "model.model.layers.8.self_attn.sinks"} loc("p174.4383"), %arg175: tensor<4096xbf16> {ttcore.argument_type = #ttcore.argument_type<parameter>, ttcore.local_shape = #ttcore<local_shape local_shape = tensor<512xbf16>>, ttcore.shard_status = #ttcore.shard_status<presharded>, ttir.name = "self___model_model_layers_8_self_attn_q_proj__parameters__bias"} loc("p175.4401"), %arg176: tensor<4096x2880xbf16> {ttcore.argument_type = #ttcore.argument_type<parameter>, ttcore.local_shape = #ttcore<local_shape local_shape = tensor<512x720xbf16>>, ttcore.shard_status = #ttcore.shard_status<presharded>, ttir.name = "self___model_model_layers_8_self_attn_q_proj__parameters__weight"} loc("p176.4405"), %arg177: tensor<128x2880xbf16> {ttcore.argument_type = #ttcore.argument_type<parameter>, ttcore.local_shape = #ttcore<local_shape local_shape = tensor<16x720xbf16>>, ttcore.shard_status = #ttcore.shard_status<presharded>, ttir.name = "model.model.layers.8.mlp.experts.down_proj_bias"} loc("p177.4632"), %arg178: tensor<128x2880x2880xbf16> {ttcore.argument_type = #ttcore.argument_type<parameter>, ttcore.local_shape = #ttcore<local_shape local_shape = tensor<16x2880x720xbf16>>, ttcore.shard_status = #ttcore.shard_status<presharded>, ttcore.weight_dtype = "bfp_bf4", ttir.name = "model.model.layers.8.mlp.experts.parametrizations.down_proj.original"} loc("p178.4637"), %arg179: tensor<128x5760xbf16> {ttcore.argument_type = #ttcore.argument_type<parameter>, ttcore.local_shape = #ttcore<local_shape local_shape = tensor<16x5760xbf16>>, ttcore.shard_status = #ttcore.shard_status<presharded>, ttir.name = "model.model.layers.8.mlp.experts.gate_up_proj_bias"} loc("p179.4644"), %arg180: tensor<128x2880x5760xbf16> {ttcore.argument_type = #ttcore.argument_type<parameter>, ttcore.local_shape = #ttcore<local_shape local_shape = tensor<16x720x5760xbf16>>, ttcore.shard_status = #ttcore.shard_status<presharded>, ttcore.weight_dtype = "bfp_bf4", ttir.name = "model.model.layers.8.mlp.experts.parametrizations.gate_up_proj.original"} loc("p180.4649"), %arg181: tensor<64x8x128x64xbf16> {ttcore.argument_type = #ttcore.argument_type<input>, ttcore.local_shape = #ttcore<local_shape local_shape = tensor<64x1x128x64xbf16>>, ttcore.shard_status = #ttcore.shard_status<presharded>, ttir.name = "args_20"} loc("p181.4777"), %arg182: tensor<512xbf16> {ttcore.argument_type = #ttcore.argument_type<parameter>, ttcore.local_shape = #ttcore<local_shape local_shape = tensor<64xbf16>>, ttcore.shard_status = #ttcore.shard_status<presharded>, ttir.name = "self___model_model_layers_9_self_attn_v_proj__parameters__bias"} loc("p182.4786"), %arg183: tensor<512x2880xbf16> {ttcore.argument_type = #ttcore.argument_type<parameter>, ttcore.local_shape = #ttcore<local_shape local_shape = tensor<64x720xbf16>>, ttcore.shard_status = #ttcore.shard_status<presharded>, ttir.name = "self___model_model_layers_9_self_attn_v_proj__parameters__weight"} loc("p183.4790"), %arg184: tensor<64x8x128x64xbf16> {ttcore.argument_type = #ttcore.argument_type<input>, ttcore.local_shape = #ttcore<local_shape local_shape = tensor<64x1x128x64xbf16>>, ttcore.shard_status = #ttcore.shard_status<presharded>, ttir.name = "args_21"} loc("p184.4814"), %arg185: tensor<512xbf16> {ttcore.argument_type = #ttcore.argument_type<parameter>, ttcore.local_shape = #ttcore<local_shape local_shape = tensor<64xbf16>>, ttcore.shard_status = #ttcore.shard_status<presharded>, ttir.name = "self___model_model_layers_10_self_attn_k_proj__parameters__bias"} loc("p185.4825"), %arg186: tensor<512x2880xbf16> {ttcore.argument_type = #ttcore.argument_type<parameter>, ttcore.local_shape = #ttcore<local_shape local_shape = tensor<64x720xbf16>>, ttcore.shard_status = #ttcore.shard_status<presharded>, ttir.name = "self___model_model_layers_10_self_attn_k_proj__parameters__weight"} loc("p186.4829"), %arg187: tensor<2880xbf16> {ttcore.argument_type = #ttcore.argument_type<parameter>, ttcore.local_shape = #ttcore<local_shape local_shape = tensor<720xbf16>>, ttcore.shard_status = #ttcore.shard_status<presharded>, ttir.name = "model.model.layers.10.input_layernorm.weight"} loc("p187.4834"), %arg188: tensor<128xbf16> {ttcore.argument_type = #ttcore.argument_type<parameter>, ttcore.local_shape = #ttcore<local_shape local_shape = tensor<128xbf16>>, ttcore.shard_status = #ttcore.shard_status<presharded>, ttir.name = "model.model.layers.9.mlp.router.bias"} loc("p188.4846"), %arg189: tensor<128x2880xbf16> {ttcore.argument_type = #ttcore.argument_type<parameter>, ttcore.local_shape = #ttcore<local_shape local_shape = tensor<128x720xbf16>>, ttcore.shard_status = #ttcore.shard_status<presharded>, ttcore.weight_dtype = "bfp_bf4", ttir.name = "model.model.layers.9.mlp.router.parametrizations.weight.original"} loc("p189.4854"), %arg190: tensor<2880xbf16> {ttcore.argument_type = #ttcore.argument_type<parameter>, ttcore.local_shape = #ttcore<local_shape local_shape = tensor<720xbf16>>, ttcore.shard_status = #ttcore.shard_status<presharded>, ttir.name = "model.model.layers.9.post_attention_layernorm.weight"} loc("p190.4863"), %arg191: tensor<2880xbf16> {ttcore.argument_type = #ttcore.argument_type<parameter>, ttcore.local_shape = #ttcore<local_shape local_shape = tensor<720xbf16>>, ttcore.shard_status = #ttcore.shard_status<presharded>, ttir.name = "self___model_model_layers_9_self_attn_o_proj__parameters__bias"} loc("p191.4874"), %arg192: tensor<2880x4096xbf16> {ttcore.argument_type = #ttcore.argument_type<parameter>, ttcore.local_shape = #ttcore<local_shape local_shape = tensor<720x512xbf16>>, ttcore.shard_status = #ttcore.shard_status<presharded>, ttir.name = "self___model_model_layers_9_self_attn_o_proj__parameters__weight"} loc("p192.4878"), %arg193: tensor<64xbf16> {ttcore.argument_type = #ttcore.argument_type<parameter>, ttcore.local_shape = #ttcore<local_shape local_shape = tensor<64xbf16>>, ttcore.shard_status = #ttcore.shard_status<presharded>, ttir.name = "model.model.layers.9.self_attn.sinks"} loc("p193.4889"), %arg194: tensor<4096xbf16> {ttcore.argument_type = #ttcore.argument_type<parameter>, ttcore.local_shape = #ttcore<local_shape local_shape = tensor<512xbf16>>, ttcore.shard_status = #ttcore.shard_status<presharded>, ttir.name = "self___model_model_layers_9_self_attn_q_proj__parameters__bias"} loc("p194.4907"), %arg195: tensor<4096x2880xbf16> {ttcore.argument_type = #ttcore.argument_type<parameter>, ttcore.local_shape = #ttcore<local_shape local_shape = tensor<512x720xbf16>>, ttcore.shard_status = #ttcore.shard_status<presharded>, ttir.name = "self___model_model_layers_9_self_attn_q_proj__parameters__weight"} loc("p195.4911"), %arg196: tensor<128x2880xbf16> {ttcore.argument_type = #ttcore.argument_type<parameter>, ttcore.local_shape = #ttcore<local_shape local_shape = tensor<16x720xbf16>>, ttcore.shard_status = #ttcore.shard_status<presharded>, ttir.name = "model.model.layers.9.mlp.experts.down_proj_bias"} loc("p196.5138"), %arg197: tensor<128x2880x2880xbf16> {ttcore.argument_type = #ttcore.argument_type<parameter>, ttcore.local_shape = #ttcore<local_shape local_shape = tensor<16x2880x720xbf16>>, ttcore.shard_status = #ttcore.shard_status<presharded>, ttcore.weight_dtype = "bfp_bf4", ttir.name = "model.model.layers.9.mlp.experts.parametrizations.down_proj.original"} loc("p197.5143"), %arg198: tensor<128x5760xbf16> {ttcore.argument_type = #ttcore.argument_type<parameter>, ttcore.local_shape = #ttcore<local_shape local_shape = tensor<16x5760xbf16>>, ttcore.shard_status = #ttcore.shard_status<presharded>, ttir.name = "model.model.layers.9.mlp.experts.gate_up_proj_bias"} loc("p198.5150"), %arg199: tensor<128x2880x5760xbf16> {ttcore.argument_type = #ttcore.argument_type<parameter>, ttcore.local_shape = #ttcore<local_shape local_shape = tensor<16x720x5760xbf16>>, ttcore.shard_status = #ttcore.shard_status<presharded>, ttcore.weight_dtype = "bfp_bf4", ttir.name = "model.model.layers.9.mlp.experts.parametrizations.gate_up_proj.original"} loc("p199.5155"), %arg200: tensor<64x8x128x64xbf16> {ttcore.argument_type = #ttcore.argument_type<input>, ttcore.local_shape = #ttcore<local_shape local_shape = tensor<64x1x128x64xbf16>>, ttcore.shard_status = #ttcore.shard_status<presharded>, ttir.name = "args_22"} loc("p200.5283"), %arg201: tensor<512xbf16> {ttcore.argument_type = #ttcore.argument_type<parameter>, ttcore.local_shape = #ttcore<local_shape local_shape = tensor<64xbf16>>, ttcore.shard_status = #ttcore.shard_status<presharded>, ttir.name = "self___model_model_layers_10_self_attn_v_proj__parameters__bias"} loc("p201.5292"), %arg202: tensor<512x2880xbf16> {ttcore.argument_type = #ttcore.argument_type<parameter>, ttcore.local_shape = #ttcore<local_shape local_shape = tensor<64x720xbf16>>, ttcore.shard_status = #ttcore.shard_status<presharded>, ttir.name = "self___model_model_layers_10_self_attn_v_proj__parameters__weight"} loc("p202.5296"), %arg203: tensor<64x8x128x64xbf16> {ttcore.argument_type = #ttcore.argument_type<input>, ttcore.local_shape = #ttcore<local_shape local_shape = tensor<64x1x128x64xbf16>>, ttcore.shard_status = #ttcore.shard_status<presharded>, ttir.name = "args_23"} loc("p203.5320"), %arg204: tensor<512xbf16> {ttcore.argument_type = #ttcore.argument_type<parameter>, ttcore.local_shape = #ttcore<local_shape local_shape = tensor<64xbf16>>, ttcore.shard_status = #ttcore.shard_status<presharded>, ttir.name = "self___model_model_layers_11_self_attn_k_proj__parameters__bias"} loc("p204.5331"), %arg205: tensor<512x2880xbf16> {ttcore.argument_type = #ttcore.argument_type<parameter>, ttcore.local_shape = #ttcore<local_shape local_shape = tensor<64x720xbf16>>, ttcore.shard_status = #ttcore.shard_status<presharded>, ttir.name = "self___model_model_layers_11_self_attn_k_proj__parameters__weight"} loc("p205.5335"), %arg206: tensor<2880xbf16> {ttcore.argument_type = #ttcore.argument_type<parameter>, ttcore.local_shape = #ttcore<local_shape local_shape = tensor<720xbf16>>, ttcore.shard_status = #ttcore.shard_status<presharded>, ttir.name = "model.model.layers.11.input_layernorm.weight"} loc("p206.5340"), %arg207: tensor<128xbf16> {ttcore.argument_type = #ttcore.argument_type<parameter>, ttcore.local_shape = #ttcore<local_shape local_shape = tensor<128xbf16>>, ttcore.shard_status = #ttcore.shard_status<presharded>, ttir.name = "model.model.layers.10.mlp.router.bias"} loc("p207.5352"), %arg208: tensor<128x2880xbf16> {ttcore.argument_type = #ttcore.argument_type<parameter>, ttcore.local_shape = #ttcore<local_shape local_shape = tensor<128x720xbf16>>, ttcore.shard_status = #ttcore.shard_status<presharded>, ttcore.weight_dtype = "bfp_bf4", ttir.name = "model.model.layers.10.mlp.router.parametrizations.weight.original"} loc("p208.5360"), %arg209: tensor<2880xbf16> {ttcore.argument_type = #ttcore.argument_type<parameter>, ttcore.local_shape = #ttcore<local_shape local_shape = tensor<720xbf16>>, ttcore.shard_status = #ttcore.shard_status<presharded>, ttir.name = "model.model.layers.10.post_attention_layernorm.weight"} loc("p209.5369"), %arg210: tensor<2880xbf16> {ttcore.argument_type = #ttcore.argument_type<parameter>, ttcore.local_shape = #ttcore<local_shape local_shape = tensor<720xbf16>>, ttcore.shard_status = #ttcore.shard_status<presharded>, ttir.name = "self___model_model_layers_10_self_attn_o_proj__parameters__bias"} loc("p210.5380"), %arg211: tensor<2880x4096xbf16> {ttcore.argument_type = #ttcore.argument_type<parameter>, ttcore.local_shape = #ttcore<local_shape local_shape = tensor<720x512xbf16>>, ttcore.shard_status = #ttcore.shard_status<presharded>, ttir.name = "self___model_model_layers_10_self_attn_o_proj__parameters__weight"} loc("p211.5384"), %arg212: tensor<64xbf16> {ttcore.argument_type = #ttcore.argument_type<parameter>, ttcore.local_shape = #ttcore<local_shape local_shape = tensor<64xbf16>>, ttcore.shard_status = #ttcore.shard_status<presharded>, ttir.name = "model.model.layers.10.self_attn.sinks"} loc("p212.5395"), %arg213: tensor<4096xbf16> {ttcore.argument_type = #ttcore.argument_type<parameter>, ttcore.local_shape = #ttcore<local_shape local_shape = tensor<512xbf16>>, ttcore.shard_status = #ttcore.shard_status<presharded>, ttir.name = "self___model_model_layers_10_self_attn_q_proj__parameters__bias"} loc("p213.5413"), %arg214: tensor<4096x2880xbf16> {ttcore.argument_type = #ttcore.argument_type<parameter>, ttcore.local_shape = #ttcore<local_shape local_shape = tensor<512x720xbf16>>, ttcore.shard_status = #ttcore.shard_status<presharded>, ttir.name = "self___model_model_layers_10_self_attn_q_proj__parameters__weight"} loc("p214.5417"), %arg215: tensor<128x2880xbf16> {ttcore.argument_type = #ttcore.argument_type<parameter>, ttcore.local_shape = #ttcore<local_shape local_shape = tensor<16x720xbf16>>, ttcore.shard_status = #ttcore.shard_status<presharded>, ttir.name = "model.model.layers.10.mlp.experts.down_proj_bias"} loc("p215.5644"), %arg216: tensor<128x2880x2880xbf16> {ttcore.argument_type = #ttcore.argument_type<parameter>, ttcore.local_shape = #ttcore<local_shape local_shape = tensor<16x2880x720xbf16>>, ttcore.shard_status = #ttcore.shard_status<presharded>, ttcore.weight_dtype = "bfp_bf4", ttir.name = "model.model.layers.10.mlp.experts.parametrizations.down_proj.original"} loc("p216.5649"), %arg217: tensor<128x5760xbf16> {ttcore.argument_type = #ttcore.argument_type<parameter>, ttcore.local_shape = #ttcore<local_shape local_shape = tensor<16x5760xbf16>>, ttcore.shard_status = #ttcore.shard_status<presharded>, ttir.name = "model.model.layers.10.mlp.experts.gate_up_proj_bias"} loc("p217.5656"), %arg218: tensor<128x2880x5760xbf16> {ttcore.argument_type = #ttcore.argument_type<parameter>, ttcore.local_shape = #ttcore<local_shape local_shape = tensor<16x720x5760xbf16>>, ttcore.shard_status = #ttcore.shard_status<presharded>, ttcore.weight_dtype = "bfp_bf4", ttir.name = "model.model.layers.10.mlp.experts.parametrizations.gate_up_proj.original"} loc("p218.5661"), %arg219: tensor<64x8x128x64xbf16> {ttcore.argument_type = #ttcore.argument_type<input>, ttcore.local_shape = #ttcore<local_shape local_shape = tensor<64x1x128x64xbf16>>, ttcore.shard_status = #ttcore.shard_status<presharded>, ttir.name = "args_24"} loc("p219.5789"), %arg220: tensor<512xbf16> {ttcore.argument_type = #ttcore.argument_type<parameter>, ttcore.local_shape = #ttcore<local_shape local_shape = tensor<64xbf16>>, ttcore.shard_status = #ttcore.shard_status<presharded>, ttir.name = "self___model_model_layers_11_self_attn_v_proj__parameters__bias"} loc("p220.5798"), %arg221: tensor<512x2880xbf16> {ttcore.argument_type = #ttcore.argument_type<parameter>, ttcore.local_shape = #ttcore<local_shape local_shape = tensor<64x720xbf16>>, ttcore.shard_status = #ttcore.shard_status<presharded>, ttir.name = "self___model_model_layers_11_self_attn_v_proj__parameters__weight"} loc("p221.5802"), %arg222: tensor<64x8x128x64xbf16> {ttcore.argument_type = #ttcore.argument_type<input>, ttcore.local_shape = #ttcore<local_shape local_shape = tensor<64x1x128x64xbf16>>, ttcore.shard_status = #ttcore.shard_status<presharded>, ttir.name = "args_25"} loc("p222.5826"), %arg223: tensor<512xbf16> {ttcore.argument_type = #ttcore.argument_type<parameter>, ttcore.local_shape = #ttcore<local_shape local_shape = tensor<64xbf16>>, ttcore.shard_status = #ttcore.shard_status<presharded>, ttir.name = "self___model_model_layers_12_self_attn_k_proj__parameters__bias"} loc("p223.5837"), %arg224: tensor<512x2880xbf16> {ttcore.argument_type = #ttcore.argument_type<parameter>, ttcore.local_shape = #ttcore<local_shape local_shape = tensor<64x720xbf16>>, ttcore.shard_status = #ttcore.shard_status<presharded>, ttir.name = "self___model_model_layers_12_self_attn_k_proj__parameters__weight"} loc("p224.5841"), %arg225: tensor<2880xbf16> {ttcore.argument_type = #ttcore.argument_type<parameter>, ttcore.local_shape = #ttcore<local_shape local_shape = tensor<720xbf16>>, ttcore.shard_status = #ttcore.shard_status<presharded>, ttir.name = "model.model.layers.12.input_layernorm.weight"} loc("p225.5846"), %arg226: tensor<128xbf16> {ttcore.argument_type = #ttcore.argument_type<parameter>, ttcore.local_shape = #ttcore<local_shape local_shape = tensor<128xbf16>>, ttcore.shard_status = #ttcore.shard_status<presharded>, ttir.name = "model.model.layers.11.mlp.router.bias"} loc("p226.5858"), %arg227: tensor<128x2880xbf16> {ttcore.argument_type = #ttcore.argument_type<parameter>, ttcore.local_shape = #ttcore<local_shape local_shape = tensor<128x720xbf16>>, ttcore.shard_status = #ttcore.shard_status<presharded>, ttcore.weight_dtype = "bfp_bf4", ttir.name = "model.model.layers.11.mlp.router.parametrizations.weight.original"} loc("p227.5866"), %arg228: tensor<2880xbf16> {ttcore.argument_type = #ttcore.argument_type<parameter>, ttcore.local_shape = #ttcore<local_shape local_shape = tensor<720xbf16>>, ttcore.shard_status = #ttcore.shard_status<presharded>, ttir.name = "model.model.layers.11.post_attention_layernorm.weight"} loc("p228.5875"), %arg229: tensor<2880xbf16> {ttcore.argument_type = #ttcore.argument_type<parameter>, ttcore.local_shape = #ttcore<local_shape local_shape = tensor<720xbf16>>, ttcore.shard_status = #ttcore.shard_status<presharded>, ttir.name = "self___model_model_layers_11_self_attn_o_proj__parameters__bias"} loc("p229.5886"), %arg230: tensor<2880x4096xbf16> {ttcore.argument_type = #ttcore.argument_type<parameter>, ttcore.local_shape = #ttcore<local_shape local_shape = tensor<720x512xbf16>>, ttcore.shard_status = #ttcore.shard_status<presharded>, ttir.name = "self___model_model_layers_11_self_attn_o_proj__parameters__weight"} loc("p230.5890"), %arg231: tensor<64xbf16> {ttcore.argument_type = #ttcore.argument_type<parameter>, ttcore.local_shape = #ttcore<local_shape local_shape = tensor<64xbf16>>, ttcore.shard_status = #ttcore.shard_status<presharded>, ttir.name = "model.model.layers.11.self_attn.sinks"} loc("p231.5901"), %arg232: tensor<4096xbf16> {ttcore.argument_type = #ttcore.argument_type<parameter>, ttcore.local_shape = #ttcore<local_shape local_shape = tensor<512xbf16>>, ttcore.shard_status = #ttcore.shard_status<presharded>, ttir.name = "self___model_model_layers_11_self_attn_q_proj__parameters__bias"} loc("p232.5919"), %arg233: tensor<4096x2880xbf16> {ttcore.argument_type = #ttcore.argument_type<parameter>, ttcore.local_shape = #ttcore<local_shape local_shape = tensor<512x720xbf16>>, ttcore.shard_status = #ttcore.shard_status<presharded>, ttir.name = "self___model_model_layers_11_self_attn_q_proj__parameters__weight"} loc("p233.5923"), %arg234: tensor<128x2880xbf16> {ttcore.argument_type = #ttcore.argument_type<parameter>, ttcore.local_shape = #ttcore<local_shape local_shape = tensor<16x720xbf16>>, ttcore.shard_status = #ttcore.shard_status<presharded>, ttir.name = "model.model.layers.11.mlp.experts.down_proj_bias"} loc("p234.6150"), %arg235: tensor<128x2880x2880xbf16> {ttcore.argument_type = #ttcore.argument_type<parameter>, ttcore.local_shape = #ttcore<local_shape local_shape = tensor<16x2880x720xbf16>>, ttcore.shard_status = #ttcore.shard_status<presharded>, ttcore.weight_dtype = "bfp_bf4", ttir.name = "model.model.layers.11.mlp.experts.parametrizations.down_proj.original"} loc("p235.6155"), %arg236: tensor<128x5760xbf16> {ttcore.argument_type = #ttcore.argument_type<parameter>, ttcore.local_shape = #ttcore<local_shape local_shape = tensor<16x5760xbf16>>, ttcore.shard_status = #ttcore.shard_status<presharded>, ttir.name = "model.model.layers.11.mlp.experts.gate_up_proj_bias"} loc("p236.6162"), %arg237: tensor<128x2880x5760xbf16> {ttcore.argument_type = #ttcore.argument_type<parameter>, ttcore.local_shape = #ttcore<local_shape local_shape = tensor<16x720x5760xbf16>>, ttcore.shard_status = #ttcore.shard_status<presharded>, ttcore.weight_dtype = "bfp_bf4", ttir.name = "model.model.layers.11.mlp.experts.parametrizations.gate_up_proj.original"} loc("p237.6167"), %arg238: tensor<64x8x128x64xbf16> {ttcore.argument_type = #ttcore.argument_type<input>, ttcore.local_shape = #ttcore<local_shape local_shape = tensor<64x1x128x64xbf16>>, ttcore.shard_status = #ttcore.shard_status<presharded>, ttir.name = "args_26"} loc("p238.6295"), %arg239: tensor<512xbf16> {ttcore.argument_type = #ttcore.argument_type<parameter>, ttcore.local_shape = #ttcore<local_shape local_shape = tensor<64xbf16>>, ttcore.shard_status = #ttcore.shard_status<presharded>, ttir.name = "self___model_model_layers_12_self_attn_v_proj__parameters__bias"} loc("p239.6304"), %arg240: tensor<512x2880xbf16> {ttcore.argument_type = #ttcore.argument_type<parameter>, ttcore.local_shape = #ttcore<local_shape local_shape = tensor<64x720xbf16>>, ttcore.shard_status = #ttcore.shard_status<presharded>, ttir.name = "self___model_model_layers_12_self_attn_v_proj__parameters__weight"} loc("p240.6308"), %arg241: tensor<64x8x128x64xbf16> {ttcore.argument_type = #ttcore.argument_type<input>, ttcore.local_shape = #ttcore<local_shape local_shape = tensor<64x1x128x64xbf16>>, ttcore.shard_status = #ttcore.shard_status<presharded>, ttir.name = "args_27"} loc("p241.6332"), %arg242: tensor<512xbf16> {ttcore.argument_type = #ttcore.argument_type<parameter>, ttcore.local_shape = #ttcore<local_shape local_shape = tensor<64xbf16>>, ttcore.shard_status = #ttcore.shard_status<presharded>, ttir.name = "self___model_model_layers_13_self_attn_k_proj__parameters__bias"} loc("p242.6343"), %arg243: tensor<512x2880xbf16> {ttcore.argument_type = #ttcore.argument_type<parameter>, ttcore.local_shape = #ttcore<local_shape local_shape = tensor<64x720xbf16>>, ttcore.shard_status = #ttcore.shard_status<presharded>, ttir.name = "self___model_model_layers_13_self_attn_k_proj__parameters__weight"} loc("p243.6347"), %arg244: tensor<2880xbf16> {ttcore.argument_type = #ttcore.argument_type<parameter>, ttcore.local_shape = #ttcore<local_shape local_shape = tensor<720xbf16>>, ttcore.shard_status = #ttcore.shard_status<presharded>, ttir.name = "model.model.layers.13.input_layernorm.weight"} loc("p244.6352"), %arg245: tensor<128xbf16> {ttcore.argument_type = #ttcore.argument_type<parameter>, ttcore.local_shape = #ttcore<local_shape local_shape = tensor<128xbf16>>, ttcore.shard_status = #ttcore.shard_status<presharded>, ttir.name = "model.model.layers.12.mlp.router.bias"} loc("p245.6364"), %arg246: tensor<128x2880xbf16> {ttcore.argument_type = #ttcore.argument_type<parameter>, ttcore.local_shape = #ttcore<local_shape local_shape = tensor<128x720xbf16>>, ttcore.shard_status = #ttcore.shard_status<presharded>, ttcore.weight_dtype = "bfp_bf4", ttir.name = "model.model.layers.12.mlp.router.parametrizations.weight.original"} loc("p246.6372"), %arg247: tensor<2880xbf16> {ttcore.argument_type = #ttcore.argument_type<parameter>, ttcore.local_shape = #ttcore<local_shape local_shape = tensor<720xbf16>>, ttcore.shard_status = #ttcore.shard_status<presharded>, ttir.name = "model.model.layers.12.post_attention_layernorm.weight"} loc("p247.6381"), %arg248: tensor<2880xbf16> {ttcore.argument_type = #ttcore.argument_type<parameter>, ttcore.local_shape = #ttcore<local_shape local_shape = tensor<720xbf16>>, ttcore.shard_status = #ttcore.shard_status<presharded>, ttir.name = "self___model_model_layers_12_self_attn_o_proj__parameters__bias"} loc("p248.6392"), %arg249: tensor<2880x4096xbf16> {ttcore.argument_type = #ttcore.argument_type<parameter>, ttcore.local_shape = #ttcore<local_shape local_shape = tensor<720x512xbf16>>, ttcore.shard_status = #ttcore.shard_status<presharded>, ttir.name = "self___model_model_layers_12_self_attn_o_proj__parameters__weight"} loc("p249.6396"), %arg250: tensor<64xbf16> {ttcore.argument_type = #ttcore.argument_type<parameter>, ttcore.local_shape = #ttcore<local_shape local_shape = tensor<64xbf16>>, ttcore.shard_status = #ttcore.shard_status<presharded>, ttir.name = "model.model.layers.12.self_attn.sinks"} loc("p250.6407"), %arg251: tensor<4096xbf16> {ttcore.argument_type = #ttcore.argument_type<parameter>, ttcore.local_shape = #ttcore<local_shape local_shape = tensor<512xbf16>>, ttcore.shard_status = #ttcore.shard_status<presharded>, ttir.name = "self___model_model_layers_12_self_attn_q_proj__parameters__bias"} loc("p251.6425"), %arg252: tensor<4096x2880xbf16> {ttcore.argument_type = #ttcore.argument_type<parameter>, ttcore.local_shape = #ttcore<local_shape local_shape = tensor<512x720xbf16>>, ttcore.shard_status = #ttcore.shard_status<presharded>, ttir.name = "self___model_model_layers_12_self_attn_q_proj__parameters__weight"} loc("p252.6429"), %arg253: tensor<128x2880xbf16> {ttcore.argument_type = #ttcore.argument_type<parameter>, ttcore.local_shape = #ttcore<local_shape local_shape = tensor<16x720xbf16>>, ttcore.shard_status = #ttcore.shard_status<presharded>, ttir.name = "model.model.layers.12.mlp.experts.down_proj_bias"} loc("p253.6656"), %arg254: tensor<128x2880x2880xbf16> {ttcore.argument_type = #ttcore.argument_type<parameter>, ttcore.local_shape = #ttcore<local_shape local_shape = tensor<16x2880x720xbf16>>, ttcore.shard_status = #ttcore.shard_status<presharded>, ttcore.weight_dtype = "bfp_bf4", ttir.name = "model.model.layers.12.mlp.experts.parametrizations.down_proj.original"} loc("p254.6661"), %arg255: tensor<128x5760xbf16> {ttcore.argument_type = #ttcore.argument_type<parameter>, ttcore.local_shape = #ttcore<local_shape local_shape = tensor<16x5760xbf16>>, ttcore.shard_status = #ttcore.shard_status<presharded>, ttir.name = "model.model.layers.12.mlp.experts.gate_up_proj_bias"} loc("p255.6668"), %arg256: tensor<128x2880x5760xbf16> {ttcore.argument_type = #ttcore.argument_type<parameter>, ttcore.local_shape = #ttcore<local_shape local_shape = tensor<16x720x5760xbf16>>, ttcore.shard_status = #ttcore.shard_status<presharded>, ttcore.weight_dtype = "bfp_bf4", ttir.name = "model.model.layers.12.mlp.experts.parametrizations.gate_up_proj.original"} loc("p256.6673"), %arg257: tensor<64x8x128x64xbf16> {ttcore.argument_type = #ttcore.argument_type<input>, ttcore.local_shape = #ttcore<local_shape local_shape = tensor<64x1x128x64xbf16>>, ttcore.shard_status = #ttcore.shard_status<presharded>, ttir.name = "args_28"} loc("p257.6801"), %arg258: tensor<512xbf16> {ttcore.argument_type = #ttcore.argument_type<parameter>, ttcore.local_shape = #ttcore<local_shape local_shape = tensor<64xbf16>>, ttcore.shard_status = #ttcore.shard_status<presharded>, ttir.name = "self___model_model_layers_13_self_attn_v_proj__parameters__bias"} loc("p258.6810"), %arg259: tensor<512x2880xbf16> {ttcore.argument_type = #ttcore.argument_type<parameter>, ttcore.local_shape = #ttcore<local_shape local_shape = tensor<64x720xbf16>>, ttcore.shard_status = #ttcore.shard_status<presharded>, ttir.name = "self___model_model_layers_13_self_attn_v_proj__parameters__weight"} loc("p259.6814"), %arg260: tensor<64x8x128x64xbf16> {ttcore.argument_type = #ttcore.argument_type<input>, ttcore.local_shape = #ttcore<local_shape local_shape = tensor<64x1x128x64xbf16>>, ttcore.shard_status = #ttcore.shard_status<presharded>, ttir.name = "args_29"} loc("p260.6838"), %arg261: tensor<512xbf16> {ttcore.argument_type = #ttcore.argument_type<parameter>, ttcore.local_shape = #ttcore<local_shape local_shape = tensor<64xbf16>>, ttcore.shard_status = #ttcore.shard_status<presharded>, ttir.name = "self___model_model_layers_14_self_attn_k_proj__parameters__bias"} loc("p261.6849"), %arg262: tensor<512x2880xbf16> {ttcore.argument_type = #ttcore.argument_type<parameter>, ttcore.local_shape = #ttcore<local_shape local_shape = tensor<64x720xbf16>>, ttcore.shard_status = #ttcore.shard_status<presharded>, ttir.name = "self___model_model_layers_14_self_attn_k_proj__parameters__weight"} loc("p262.6853"), %arg263: tensor<2880xbf16> {ttcore.argument_type = #ttcore.argument_type<parameter>, ttcore.local_shape = #ttcore<local_shape local_shape = tensor<720xbf16>>, ttcore.shard_status = #ttcore.shard_status<presharded>, ttir.name = "model.model.layers.14.input_layernorm.weight"} loc("p263.6858"), %arg264: tensor<128xbf16> {ttcore.argument_type = #ttcore.argument_type<parameter>, ttcore.local_shape = #ttcore<local_shape local_shape = tensor<128xbf16>>, ttcore.shard_status = #ttcore.shard_status<presharded>, ttir.name = "model.model.layers.13.mlp.router.bias"} loc("p264.6870"), %arg265: tensor<128x2880xbf16> {ttcore.argument_type = #ttcore.argument_type<parameter>, ttcore.local_shape = #ttcore<local_shape local_shape = tensor<128x720xbf16>>, ttcore.shard_status = #ttcore.shard_status<presharded>, ttcore.weight_dtype = "bfp_bf4", ttir.name = "model.model.layers.13.mlp.router.parametrizations.weight.original"} loc("p265.6878"), %arg266: tensor<2880xbf16> {ttcore.argument_type = #ttcore.argument_type<parameter>, ttcore.local_shape = #ttcore<local_shape local_shape = tensor<720xbf16>>, ttcore.shard_status = #ttcore.shard_status<presharded>, ttir.name = "model.model.layers.13.post_attention_layernorm.weight"} loc("p266.6887"), %arg267: tensor<2880xbf16> {ttcore.argument_type = #ttcore.argument_type<parameter>, ttcore.local_shape = #ttcore<local_shape local_shape = tensor<720xbf16>>, ttcore.shard_status = #ttcore.shard_status<presharded>, ttir.name = "self___model_model_layers_13_self_attn_o_proj__parameters__bias"} loc("p267.6898"), %arg268: tensor<2880x4096xbf16> {ttcore.argument_type = #ttcore.argument_type<parameter>, ttcore.local_shape = #ttcore<local_shape local_shape = tensor<720x512xbf16>>, ttcore.shard_status = #ttcore.shard_status<presharded>, ttir.name = "self___model_model_layers_13_self_attn_o_proj__parameters__weight"} loc("p268.6902"), %arg269: tensor<64xbf16> {ttcore.argument_type = #ttcore.argument_type<parameter>, ttcore.local_shape = #ttcore<local_shape local_shape = tensor<64xbf16>>, ttcore.shard_status = #ttcore.shard_status<presharded>, ttir.name = "model.model.layers.13.self_attn.sinks"} loc("p269.6913"), %arg270: tensor<4096xbf16> {ttcore.argument_type = #ttcore.argument_type<parameter>, ttcore.local_shape = #ttcore<local_shape local_shape = tensor<512xbf16>>, ttcore.shard_status = #ttcore.shard_status<presharded>, ttir.name = "self___model_model_layers_13_self_attn_q_proj__parameters__bias"} loc("p270.6931"), %arg271: tensor<4096x2880xbf16> {ttcore.argument_type = #ttcore.argument_type<parameter>, ttcore.local_shape = #ttcore<local_shape local_shape = tensor<512x720xbf16>>, ttcore.shard_status = #ttcore.shard_status<presharded>, ttir.name = "self___model_model_layers_13_self_attn_q_proj__parameters__weight"} loc("p271.6935"), %arg272: tensor<128x2880xbf16> {ttcore.argument_type = #ttcore.argument_type<parameter>, ttcore.local_shape = #ttcore<local_shape local_shape = tensor<16x720xbf16>>, ttcore.shard_status = #ttcore.shard_status<presharded>, ttir.name = "model.model.layers.13.mlp.experts.down_proj_bias"} loc("p272.7162"), %arg273: tensor<128x2880x2880xbf16> {ttcore.argument_type = #ttcore.argument_type<parameter>, ttcore.local_shape = #ttcore<local_shape local_shape = tensor<16x2880x720xbf16>>, ttcore.shard_status = #ttcore.shard_status<presharded>, ttcore.weight_dtype = "bfp_bf4", ttir.name = "model.model.layers.13.mlp.experts.parametrizations.down_proj.original"} loc("p273.7167"), %arg274: tensor<128x5760xbf16> {ttcore.argument_type = #ttcore.argument_type<parameter>, ttcore.local_shape = #ttcore<local_shape local_shape = tensor<16x5760xbf16>>, ttcore.shard_status = #ttcore.shard_status<presharded>, ttir.name = "model.model.layers.13.mlp.experts.gate_up_proj_bias"} loc("p274.7174"), %arg275: tensor<128x2880x5760xbf16> {ttcore.argument_type = #ttcore.argument_type<parameter>, ttcore.local_shape = #ttcore<local_shape local_shape = tensor<16x720x5760xbf16>>, ttcore.shard_status = #ttcore.shard_status<presharded>, ttcore.weight_dtype = "bfp_bf4", ttir.name = "model.model.layers.13.mlp.experts.parametrizations.gate_up_proj.original"} loc("p275.7179"), %arg276: tensor<64x8x128x64xbf16> {ttcore.argument_type = #ttcore.argument_type<input>, ttcore.local_shape = #ttcore<local_shape local_shape = tensor<64x1x128x64xbf16>>, ttcore.shard_status = #ttcore.shard_status<presharded>, ttir.name = "args_30"} loc("p276.7307"), %arg277: tensor<512xbf16> {ttcore.argument_type = #ttcore.argument_type<parameter>, ttcore.local_shape = #ttcore<local_shape local_shape = tensor<64xbf16>>, ttcore.shard_status = #ttcore.shard_status<presharded>, ttir.name = "self___model_model_layers_14_self_attn_v_proj__parameters__bias"} loc("p277.7316"), %arg278: tensor<512x2880xbf16> {ttcore.argument_type = #ttcore.argument_type<parameter>, ttcore.local_shape = #ttcore<local_shape local_shape = tensor<64x720xbf16>>, ttcore.shard_status = #ttcore.shard_status<presharded>, ttir.name = "self___model_model_layers_14_self_attn_v_proj__parameters__weight"} loc("p278.7320"), %arg279: tensor<64x8x128x64xbf16> {ttcore.argument_type = #ttcore.argument_type<input>, ttcore.local_shape = #ttcore<local_shape local_shape = tensor<64x1x128x64xbf16>>, ttcore.shard_status = #ttcore.shard_status<presharded>, ttir.name = "args_31"} loc("p279.7344"), %arg280: tensor<512xbf16> {ttcore.argument_type = #ttcore.argument_type<parameter>, ttcore.local_shape = #ttcore<local_shape local_shape = tensor<64xbf16>>, ttcore.shard_status = #ttcore.shard_status<presharded>, ttir.name = "self___model_model_layers_15_self_attn_k_proj__parameters__bias"} loc("p280.7355"), %arg281: tensor<512x2880xbf16> {ttcore.argument_type = #ttcore.argument_type<parameter>, ttcore.local_shape = #ttcore<local_shape local_shape = tensor<64x720xbf16>>, ttcore.shard_status = #ttcore.shard_status<presharded>, ttir.name = "self___model_model_layers_15_self_attn_k_proj__parameters__weight"} loc("p281.7359"), %arg282: tensor<2880xbf16> {ttcore.argument_type = #ttcore.argument_type<parameter>, ttcore.local_shape = #ttcore<local_shape local_shape = tensor<720xbf16>>, ttcore.shard_status = #ttcore.shard_status<presharded>, ttir.name = "model.model.layers.15.input_layernorm.weight"} loc("p282.7364"), %arg283: tensor<128xbf16> {ttcore.argument_type = #ttcore.argument_type<parameter>, ttcore.local_shape = #ttcore<local_shape local_shape = tensor<128xbf16>>, ttcore.shard_status = #ttcore.shard_status<presharded>, ttir.name = "model.model.layers.14.mlp.router.bias"} loc("p283.7376"), %arg284: tensor<128x2880xbf16> {ttcore.argument_type = #ttcore.argument_type<parameter>, ttcore.local_shape = #ttcore<local_shape local_shape = tensor<128x720xbf16>>, ttcore.shard_status = #ttcore.shard_status<presharded>, ttcore.weight_dtype = "bfp_bf4", ttir.name = "model.model.layers.14.mlp.router.parametrizations.weight.original"} loc("p284.7384"), %arg285: tensor<2880xbf16> {ttcore.argument_type = #ttcore.argument_type<parameter>, ttcore.local_shape = #ttcore<local_shape local_shape = tensor<720xbf16>>, ttcore.shard_status = #ttcore.shard_status<presharded>, ttir.name = "model.model.layers.14.post_attention_layernorm.weight"} loc("p285.7393"), %arg286: tensor<2880xbf16> {ttcore.argument_type = #ttcore.argument_type<parameter>, ttcore.local_shape = #ttcore<local_shape local_shape = tensor<720xbf16>>, ttcore.shard_status = #ttcore.shard_status<presharded>, ttir.name = "self___model_model_layers_14_self_attn_o_proj__parameters__bias"} loc("p286.7404"), %arg287: tensor<2880x4096xbf16> {ttcore.argument_type = #ttcore.argument_type<parameter>, ttcore.local_shape = #ttcore<local_shape local_shape = tensor<720x512xbf16>>, ttcore.shard_status = #ttcore.shard_status<presharded>, ttir.name = "self___model_model_layers_14_self_attn_o_proj__parameters__weight"} loc("p287.7408"), %arg288: tensor<64xbf16> {ttcore.argument_type = #ttcore.argument_type<parameter>, ttcore.local_shape = #ttcore<local_shape local_shape = tensor<64xbf16>>, ttcore.shard_status = #ttcore.shard_status<presharded>, ttir.name = "model.model.layers.14.self_attn.sinks"} loc("p288.7419"), %arg289: tensor<4096xbf16> {ttcore.argument_type = #ttcore.argument_type<parameter>, ttcore.local_shape = #ttcore<local_shape local_shape = tensor<512xbf16>>, ttcore.shard_status = #ttcore.shard_status<presharded>, ttir.name = "self___model_model_layers_14_self_attn_q_proj__parameters__bias"} loc("p289.7437"), %arg290: tensor<4096x2880xbf16> {ttcore.argument_type = #ttcore.argument_type<parameter>, ttcore.local_shape = #ttcore<local_shape local_shape = tensor<512x720xbf16>>, ttcore.shard_status = #ttcore.shard_status<presharded>, ttir.name = "self___model_model_layers_14_self_attn_q_proj__parameters__weight"} loc("p290.7441"), %arg291: tensor<128x2880xbf16> {ttcore.argument_type = #ttcore.argument_type<parameter>, ttcore.local_shape = #ttcore<local_shape local_shape = tensor<16x720xbf16>>, ttcore.shard_status = #ttcore.shard_status<presharded>, ttir.name = "model.model.layers.14.mlp.experts.down_proj_bias"} loc("p291.7668"), %arg292: tensor<128x2880x2880xbf16> {ttcore.argument_type = #ttcore.argument_type<parameter>, ttcore.local_shape = #ttcore<local_shape local_shape = tensor<16x2880x720xbf16>>, ttcore.shard_status = #ttcore.shard_status<presharded>, ttcore.weight_dtype = "bfp_bf4", ttir.name = "model.model.layers.14.mlp.experts.parametrizations.down_proj.original"} loc("p292.7673"), %arg293: tensor<128x5760xbf16> {ttcore.argument_type = #ttcore.argument_type<parameter>, ttcore.local_shape = #ttcore<local_shape local_shape = tensor<16x5760xbf16>>, ttcore.shard_status = #ttcore.shard_status<presharded>, ttir.name = "model.model.layers.14.mlp.experts.gate_up_proj_bias"} loc("p293.7680"), %arg294: tensor<128x2880x5760xbf16> {ttcore.argument_type = #ttcore.argument_type<parameter>, ttcore.local_shape = #ttcore<local_shape local_shape = tensor<16x720x5760xbf16>>, ttcore.shard_status = #ttcore.shard_status<presharded>, ttcore.weight_dtype = "bfp_bf4", ttir.name = "model.model.layers.14.mlp.experts.parametrizations.gate_up_proj.original"} loc("p294.7685"), %arg295: tensor<64x8x128x64xbf16> {ttcore.argument_type = #ttcore.argument_type<input>, ttcore.local_shape = #ttcore<local_shape local_shape = tensor<64x1x128x64xbf16>>, ttcore.shard_status = #ttcore.shard_status<presharded>, ttir.name = "args_32"} loc("p295.7813"), %arg296: tensor<512xbf16> {ttcore.argument_type = #ttcore.argument_type<parameter>, ttcore.local_shape = #ttcore<local_shape local_shape = tensor<64xbf16>>, ttcore.shard_status = #ttcore.shard_status<presharded>, ttir.name = "self___model_model_layers_15_self_attn_v_proj__parameters__bias"} loc("p296.7822"), %arg297: tensor<512x2880xbf16> {ttcore.argument_type = #ttcore.argument_type<parameter>, ttcore.local_shape = #ttcore<local_shape local_shape = tensor<64x720xbf16>>, ttcore.shard_status = #ttcore.shard_status<presharded>, ttir.name = "self___model_model_layers_15_self_attn_v_proj__parameters__weight"} loc("p297.7826"), %arg298: tensor<64x8x128x64xbf16> {ttcore.argument_type = #ttcore.argument_type<input>, ttcore.local_shape = #ttcore<local_shape local_shape = tensor<64x1x128x64xbf16>>, ttcore.shard_status = #ttcore.shard_status<presharded>, ttir.name = "args_33"} loc("p298.7850"), %arg299: tensor<512xbf16> {ttcore.argument_type = #ttcore.argument_type<parameter>, ttcore.local_shape = #ttcore<local_shape local_shape = tensor<64xbf16>>, ttcore.shard_status = #ttcore.shard_status<presharded>, ttir.name = "self___model_model_layers_16_self_attn_k_proj__parameters__bias"} loc("p299.7861"), %arg300: tensor<512x2880xbf16> {ttcore.argument_type = #ttcore.argument_type<parameter>, ttcore.local_shape = #ttcore<local_shape local_shape = tensor<64x720xbf16>>, ttcore.shard_status = #ttcore.shard_status<presharded>, ttir.name = "self___model_model_layers_16_self_attn_k_proj__parameters__weight"} loc("p300.7865"), %arg301: tensor<2880xbf16> {ttcore.argument_type = #ttcore.argument_type<parameter>, ttcore.local_shape = #ttcore<local_shape local_shape = tensor<720xbf16>>, ttcore.shard_status = #ttcore.shard_status<presharded>, ttir.name = "model.model.layers.16.input_layernorm.weight"} loc("p301.7870"), %arg302: tensor<128xbf16> {ttcore.argument_type = #ttcore.argument_type<parameter>, ttcore.local_shape = #ttcore<local_shape local_shape = tensor<128xbf16>>, ttcore.shard_status = #ttcore.shard_status<presharded>, ttir.name = "model.model.layers.15.mlp.router.bias"} loc("p302.7882"), %arg303: tensor<128x2880xbf16> {ttcore.argument_type = #ttcore.argument_type<parameter>, ttcore.local_shape = #ttcore<local_shape local_shape = tensor<128x720xbf16>>, ttcore.shard_status = #ttcore.shard_status<presharded>, ttcore.weight_dtype = "bfp_bf4", ttir.name = "model.model.layers.15.mlp.router.parametrizations.weight.original"} loc("p303.7890"), %arg304: tensor<2880xbf16> {ttcore.argument_type = #ttcore.argument_type<parameter>, ttcore.local_shape = #ttcore<local_shape local_shape = tensor<720xbf16>>, ttcore.shard_status = #ttcore.shard_status<presharded>, ttir.name = "model.model.layers.15.post_attention_layernorm.weight"} loc("p304.7899"), %arg305: tensor<2880xbf16> {ttcore.argument_type = #ttcore.argument_type<parameter>, ttcore.local_shape = #ttcore<local_shape local_shape = tensor<720xbf16>>, ttcore.shard_status = #ttcore.shard_status<presharded>, ttir.name = "self___model_model_layers_15_self_attn_o_proj__parameters__bias"} loc("p305.7910"), %arg306: tensor<2880x4096xbf16> {ttcore.argument_type = #ttcore.argument_type<parameter>, ttcore.local_shape = #ttcore<local_shape local_shape = tensor<720x512xbf16>>, ttcore.shard_status = #ttcore.shard_status<presharded>, ttir.name = "self___model_model_layers_15_self_attn_o_proj__parameters__weight"} loc("p306.7914"), %arg307: tensor<64xbf16> {ttcore.argument_type = #ttcore.argument_type<parameter>, ttcore.local_shape = #ttcore<local_shape local_shape = tensor<64xbf16>>, ttcore.shard_status = #ttcore.shard_status<presharded>, ttir.name = "model.model.layers.15.self_attn.sinks"} loc("p307.7925"), %arg308: tensor<4096xbf16> {ttcore.argument_type = #ttcore.argument_type<parameter>, ttcore.local_shape = #ttcore<local_shape local_shape = tensor<512xbf16>>, ttcore.shard_status = #ttcore.shard_status<presharded>, ttir.name = "self___model_model_layers_15_self_attn_q_proj__parameters__bias"} loc("p308.7943"), %arg309: tensor<4096x2880xbf16> {ttcore.argument_type = #ttcore.argument_type<parameter>, ttcore.local_shape = #ttcore<local_shape local_shape = tensor<512x720xbf16>>, ttcore.shard_status = #ttcore.shard_status<presharded>, ttir.name = "self___model_model_layers_15_self_attn_q_proj__parameters__weight"} loc("p309.7947"), %arg310: tensor<128x2880xbf16> {ttcore.argument_type = #ttcore.argument_type<parameter>, ttcore.local_shape = #ttcore<local_shape local_shape = tensor<16x720xbf16>>, ttcore.shard_status = #ttcore.shard_status<presharded>, ttir.name = "model.model.layers.15.mlp.experts.down_proj_bias"} loc("p310.8174"), %arg311: tensor<128x2880x2880xbf16> {ttcore.argument_type = #ttcore.argument_type<parameter>, ttcore.local_shape = #ttcore<local_shape local_shape = tensor<16x2880x720xbf16>>, ttcore.shard_status = #ttcore.shard_status<presharded>, ttcore.weight_dtype = "bfp_bf4", ttir.name = "model.model.layers.15.mlp.experts.parametrizations.down_proj.original"} loc("p311.8179"), %arg312: tensor<128x5760xbf16> {ttcore.argument_type = #ttcore.argument_type<parameter>, ttcore.local_shape = #ttcore<local_shape local_shape = tensor<16x5760xbf16>>, ttcore.shard_status = #ttcore.shard_status<presharded>, ttir.name = "model.model.layers.15.mlp.experts.gate_up_proj_bias"} loc("p312.8186"), %arg313: tensor<128x2880x5760xbf16> {ttcore.argument_type = #ttcore.argument_type<parameter>, ttcore.local_shape = #ttcore<local_shape local_shape = tensor<16x720x5760xbf16>>, ttcore.shard_status = #ttcore.shard_status<presharded>, ttcore.weight_dtype = "bfp_bf4", ttir.name = "model.model.layers.15.mlp.experts.parametrizations.gate_up_proj.original"} loc("p313.8191"), %arg314: tensor<64x8x128x64xbf16> {ttcore.argument_type = #ttcore.argument_type<input>, ttcore.local_shape = #ttcore<local_shape local_shape = tensor<64x1x128x64xbf16>>, ttcore.shard_status = #ttcore.shard_status<presharded>, ttir.name = "args_34"} loc("p314.8319"), %arg315: tensor<512xbf16> {ttcore.argument_type = #ttcore.argument_type<parameter>, ttcore.local_shape = #ttcore<local_shape local_shape = tensor<64xbf16>>, ttcore.shard_status = #ttcore.shard_status<presharded>, ttir.name = "self___model_model_layers_16_self_attn_v_proj__parameters__bias"} loc("p315.8328"), %arg316: tensor<512x2880xbf16> {ttcore.argument_type = #ttcore.argument_type<parameter>, ttcore.local_shape = #ttcore<local_shape local_shape = tensor<64x720xbf16>>, ttcore.shard_status = #ttcore.shard_status<presharded>, ttir.name = "self___model_model_layers_16_self_attn_v_proj__parameters__weight"} loc("p316.8332"), %arg317: tensor<64x8x128x64xbf16> {ttcore.argument_type = #ttcore.argument_type<input>, ttcore.local_shape = #ttcore<local_shape local_shape = tensor<64x1x128x64xbf16>>, ttcore.shard_status = #ttcore.shard_status<presharded>, ttir.name = "args_35"} loc("p317.8356"), %arg318: tensor<512xbf16> {ttcore.argument_type = #ttcore.argument_type<parameter>, ttcore.local_shape = #ttcore<local_shape local_shape = tensor<64xbf16>>, ttcore.shard_status = #ttcore.shard_status<presharded>, ttir.name = "self___model_model_layers_17_self_attn_k_proj__parameters__bias"} loc("p318.8367"), %arg319: tensor<512x2880xbf16> {ttcore.argument_type = #ttcore.argument_type<parameter>, ttcore.local_shape = #ttcore<local_shape local_shape = tensor<64x720xbf16>>, ttcore.shard_status = #ttcore.shard_status<presharded>, ttir.name = "self___model_model_layers_17_self_attn_k_proj__parameters__weight"} loc("p319.8371"), %arg320: tensor<2880xbf16> {ttcore.argument_type = #ttcore.argument_type<parameter>, ttcore.local_shape = #ttcore<local_shape local_shape = tensor<720xbf16>>, ttcore.shard_status = #ttcore.shard_status<presharded>, ttir.name = "model.model.layers.17.input_layernorm.weight"} loc("p320.8376"), %arg321: tensor<128xbf16> {ttcore.argument_type = #ttcore.argument_type<parameter>, ttcore.local_shape = #ttcore<local_shape local_shape = tensor<128xbf16>>, ttcore.shard_status = #ttcore.shard_status<presharded>, ttir.name = "model.model.layers.16.mlp.router.bias"} loc("p321.8388"), %arg322: tensor<128x2880xbf16> {ttcore.argument_type = #ttcore.argument_type<parameter>, ttcore.local_shape = #ttcore<local_shape local_shape = tensor<128x720xbf16>>, ttcore.shard_status = #ttcore.shard_status<presharded>, ttcore.weight_dtype = "bfp_bf4", ttir.name = "model.model.layers.16.mlp.router.parametrizations.weight.original"} loc("p322.8396"), %arg323: tensor<2880xbf16> {ttcore.argument_type = #ttcore.argument_type<parameter>, ttcore.local_shape = #ttcore<local_shape local_shape = tensor<720xbf16>>, ttcore.shard_status = #ttcore.shard_status<presharded>, ttir.name = "model.model.layers.16.post_attention_layernorm.weight"} loc("p323.8405"), %arg324: tensor<2880xbf16> {ttcore.argument_type = #ttcore.argument_type<parameter>, ttcore.local_shape = #ttcore<local_shape local_shape = tensor<720xbf16>>, ttcore.shard_status = #ttcore.shard_status<presharded>, ttir.name = "self___model_model_layers_16_self_attn_o_proj__parameters__bias"} loc("p324.8416"), %arg325: tensor<2880x4096xbf16> {ttcore.argument_type = #ttcore.argument_type<parameter>, ttcore.local_shape = #ttcore<local_shape local_shape = tensor<720x512xbf16>>, ttcore.shard_status = #ttcore.shard_status<presharded>, ttir.name = "self___model_model_layers_16_self_attn_o_proj__parameters__weight"} loc("p325.8420"), %arg326: tensor<64xbf16> {ttcore.argument_type = #ttcore.argument_type<parameter>, ttcore.local_shape = #ttcore<local_shape local_shape = tensor<64xbf16>>, ttcore.shard_status = #ttcore.shard_status<presharded>, ttir.name = "model.model.layers.16.self_attn.sinks"} loc("p326.8431"), %arg327: tensor<4096xbf16> {ttcore.argument_type = #ttcore.argument_type<parameter>, ttcore.local_shape = #ttcore<local_shape local_shape = tensor<512xbf16>>, ttcore.shard_status = #ttcore.shard_status<presharded>, ttir.name = "self___model_model_layers_16_self_attn_q_proj__parameters__bias"} loc("p327.8449"), %arg328: tensor<4096x2880xbf16> {ttcore.argument_type = #ttcore.argument_type<parameter>, ttcore.local_shape = #ttcore<local_shape local_shape = tensor<512x720xbf16>>, ttcore.shard_status = #ttcore.shard_status<presharded>, ttir.name = "self___model_model_layers_16_self_attn_q_proj__parameters__weight"} loc("p328.8453"), %arg329: tensor<128x2880xbf16> {ttcore.argument_type = #ttcore.argument_type<parameter>, ttcore.local_shape = #ttcore<local_shape local_shape = tensor<16x720xbf16>>, ttcore.shard_status = #ttcore.shard_status<presharded>, ttir.name = "model.model.layers.16.mlp.experts.down_proj_bias"} loc("p329.8680"), %arg330: tensor<128x2880x2880xbf16> {ttcore.argument_type = #ttcore.argument_type<parameter>, ttcore.local_shape = #ttcore<local_shape local_shape = tensor<16x2880x720xbf16>>, ttcore.shard_status = #ttcore.shard_status<presharded>, ttcore.weight_dtype = "bfp_bf4", ttir.name = "model.model.layers.16.mlp.experts.parametrizations.down_proj.original"} loc("p330.8685"), %arg331: tensor<128x5760xbf16> {ttcore.argument_type = #ttcore.argument_type<parameter>, ttcore.local_shape = #ttcore<local_shape local_shape = tensor<16x5760xbf16>>, ttcore.shard_status = #ttcore.shard_status<presharded>, ttir.name = "model.model.layers.16.mlp.experts.gate_up_proj_bias"} loc("p331.8692"), %arg332: tensor<128x2880x5760xbf16> {ttcore.argument_type = #ttcore.argument_type<parameter>, ttcore.local_shape = #ttcore<local_shape local_shape = tensor<16x720x5760xbf16>>, ttcore.shard_status = #ttcore.shard_status<presharded>, ttcore.weight_dtype = "bfp_bf4", ttir.name = "model.model.layers.16.mlp.experts.parametrizations.gate_up_proj.original"} loc("p332.8697"), %arg333: tensor<64x8x128x64xbf16> {ttcore.argument_type = #ttcore.argument_type<input>, ttcore.local_shape = #ttcore<local_shape local_shape = tensor<64x1x128x64xbf16>>, ttcore.shard_status = #ttcore.shard_status<presharded>, ttir.name = "args_36"} loc("p333.8825"), %arg334: tensor<512xbf16> {ttcore.argument_type = #ttcore.argument_type<parameter>, ttcore.local_shape = #ttcore<local_shape local_shape = tensor<64xbf16>>, ttcore.shard_status = #ttcore.shard_status<presharded>, ttir.name = "self___model_model_layers_17_self_attn_v_proj__parameters__bias"} loc("p334.8834"), %arg335: tensor<512x2880xbf16> {ttcore.argument_type = #ttcore.argument_type<parameter>, ttcore.local_shape = #ttcore<local_shape local_shape = tensor<64x720xbf16>>, ttcore.shard_status = #ttcore.shard_status<presharded>, ttir.name = "self___model_model_layers_17_self_attn_v_proj__parameters__weight"} loc("p335.8838"), %arg336: tensor<64x8x128x64xbf16> {ttcore.argument_type = #ttcore.argument_type<input>, ttcore.local_shape = #ttcore<local_shape local_shape = tensor<64x1x128x64xbf16>>, ttcore.shard_status = #ttcore.shard_status<presharded>, ttir.name = "args_37"} loc("p336.8862"), %arg337: tensor<512xbf16> {ttcore.argument_type = #ttcore.argument_type<parameter>, ttcore.local_shape = #ttcore<local_shape local_shape = tensor<64xbf16>>, ttcore.shard_status = #ttcore.shard_status<presharded>, ttir.name = "self___model_model_layers_18_self_attn_k_proj__parameters__bias"} loc("p337.8873"), %arg338: tensor<512x2880xbf16> {ttcore.argument_type = #ttcore.argument_type<parameter>, ttcore.local_shape = #ttcore<local_shape local_shape = tensor<64x720xbf16>>, ttcore.shard_status = #ttcore.shard_status<presharded>, ttir.name = "self___model_model_layers_18_self_attn_k_proj__parameters__weight"} loc("p338.8877"), %arg339: tensor<2880xbf16> {ttcore.argument_type = #ttcore.argument_type<parameter>, ttcore.local_shape = #ttcore<local_shape local_shape = tensor<720xbf16>>, ttcore.shard_status = #ttcore.shard_status<presharded>, ttir.name = "model.model.layers.18.input_layernorm.weight"} loc("p339.8882"), %arg340: tensor<128xbf16> {ttcore.argument_type = #ttcore.argument_type<parameter>, ttcore.local_shape = #ttcore<local_shape local_shape = tensor<128xbf16>>, ttcore.shard_status = #ttcore.shard_status<presharded>, ttir.name = "model.model.layers.17.mlp.router.bias"} loc("p340.8894"), %arg341: tensor<128x2880xbf16> {ttcore.argument_type = #ttcore.argument_type<parameter>, ttcore.local_shape = #ttcore<local_shape local_shape = tensor<128x720xbf16>>, ttcore.shard_status = #ttcore.shard_status<presharded>, ttcore.weight_dtype = "bfp_bf4", ttir.name = "model.model.layers.17.mlp.router.parametrizations.weight.original"} loc("p341.8902"), %arg342: tensor<2880xbf16> {ttcore.argument_type = #ttcore.argument_type<parameter>, ttcore.local_shape = #ttcore<local_shape local_shape = tensor<720xbf16>>, ttcore.shard_status = #ttcore.shard_status<presharded>, ttir.name = "model.model.layers.17.post_attention_layernorm.weight"} loc("p342.8911"), %arg343: tensor<2880xbf16> {ttcore.argument_type = #ttcore.argument_type<parameter>, ttcore.local_shape = #ttcore<local_shape local_shape = tensor<720xbf16>>, ttcore.shard_status = #ttcore.shard_status<presharded>, ttir.name = "self___model_model_layers_17_self_attn_o_proj__parameters__bias"} loc("p343.8922"), %arg344: tensor<2880x4096xbf16> {ttcore.argument_type = #ttcore.argument_type<parameter>, ttcore.local_shape = #ttcore<local_shape local_shape = tensor<720x512xbf16>>, ttcore.shard_status = #ttcore.shard_status<presharded>, ttir.name = "self___model_model_layers_17_self_attn_o_proj__parameters__weight"} loc("p344.8926"), %arg345: tensor<64xbf16> {ttcore.argument_type = #ttcore.argument_type<parameter>, ttcore.local_shape = #ttcore<local_shape local_shape = tensor<64xbf16>>, ttcore.shard_status = #ttcore.shard_status<presharded>, ttir.name = "model.model.layers.17.self_attn.sinks"} loc("p345.8937"), %arg346: tensor<4096xbf16> {ttcore.argument_type = #ttcore.argument_type<parameter>, ttcore.local_shape = #ttcore<local_shape local_shape = tensor<512xbf16>>, ttcore.shard_status = #ttcore.shard_status<presharded>, ttir.name = "self___model_model_layers_17_self_attn_q_proj__parameters__bias"} loc("p346.8955"), %arg347: tensor<4096x2880xbf16> {ttcore.argument_type = #ttcore.argument_type<parameter>, ttcore.local_shape = #ttcore<local_shape local_shape = tensor<512x720xbf16>>, ttcore.shard_status = #ttcore.shard_status<presharded>, ttir.name = "self___model_model_layers_17_self_attn_q_proj__parameters__weight"} loc("p347.8959"), %arg348: tensor<128x2880xbf16> {ttcore.argument_type = #ttcore.argument_type<parameter>, ttcore.local_shape = #ttcore<local_shape local_shape = tensor<16x720xbf16>>, ttcore.shard_status = #ttcore.shard_status<presharded>, ttir.name = "model.model.layers.17.mlp.experts.down_proj_bias"} loc("p348.9186"), %arg349: tensor<128x2880x2880xbf16> {ttcore.argument_type = #ttcore.argument_type<parameter>, ttcore.local_shape = #ttcore<local_shape local_shape = tensor<16x2880x720xbf16>>, ttcore.shard_status = #ttcore.shard_status<presharded>, ttcore.weight_dtype = "bfp_bf4", ttir.name = "model.model.layers.17.mlp.experts.parametrizations.down_proj.original"} loc("p349.9191"), %arg350: tensor<128x5760xbf16> {ttcore.argument_type = #ttcore.argument_type<parameter>, ttcore.local_shape = #ttcore<local_shape local_shape = tensor<16x5760xbf16>>, ttcore.shard_status = #ttcore.shard_status<presharded>, ttir.name = "model.model.layers.17.mlp.experts.gate_up_proj_bias"} loc("p350.9198"), %arg351: tensor<128x2880x5760xbf16> {ttcore.argument_type = #ttcore.argument_type<parameter>, ttcore.local_shape = #ttcore<local_shape local_shape = tensor<16x720x5760xbf16>>, ttcore.shard_status = #ttcore.shard_status<presharded>, ttcore.weight_dtype = "bfp_bf4", ttir.name = "model.model.layers.17.mlp.experts.parametrizations.gate_up_proj.original"} loc("p351.9203"), %arg352: tensor<64x8x128x64xbf16> {ttcore.argument_type = #ttcore.argument_type<input>, ttcore.local_shape = #ttcore<local_shape local_shape = tensor<64x1x128x64xbf16>>, ttcore.shard_status = #ttcore.shard_status<presharded>, ttir.name = "args_38"} loc("p352.9331"), %arg353: tensor<512xbf16> {ttcore.argument_type = #ttcore.argument_type<parameter>, ttcore.local_shape = #ttcore<local_shape local_shape = tensor<64xbf16>>, ttcore.shard_status = #ttcore.shard_status<presharded>, ttir.name = "self___model_model_layers_18_self_attn_v_proj__parameters__bias"} loc("p353.9340"), %arg354: tensor<512x2880xbf16> {ttcore.argument_type = #ttcore.argument_type<parameter>, ttcore.local_shape = #ttcore<local_shape local_shape = tensor<64x720xbf16>>, ttcore.shard_status = #ttcore.shard_status<presharded>, ttir.name = "self___model_model_layers_18_self_attn_v_proj__parameters__weight"} loc("p354.9344"), %arg355: tensor<64x8x128x64xbf16> {ttcore.argument_type = #ttcore.argument_type<input>, ttcore.local_shape = #ttcore<local_shape local_shape = tensor<64x1x128x64xbf16>>, ttcore.shard_status = #ttcore.shard_status<presharded>, ttir.name = "args_39"} loc("p355.9368"), %arg356: tensor<512xbf16> {ttcore.argument_type = #ttcore.argument_type<parameter>, ttcore.local_shape = #ttcore<local_shape local_shape = tensor<64xbf16>>, ttcore.shard_status = #ttcore.shard_status<presharded>, ttir.name = "self___model_model_layers_19_self_attn_k_proj__parameters__bias"} loc("p356.9379"), %arg357: tensor<512x2880xbf16> {ttcore.argument_type = #ttcore.argument_type<parameter>, ttcore.local_shape = #ttcore<local_shape local_shape = tensor<64x720xbf16>>, ttcore.shard_status = #ttcore.shard_status<presharded>, ttir.name = "self___model_model_layers_19_self_attn_k_proj__parameters__weight"} loc("p357.9383"), %arg358: tensor<2880xbf16> {ttcore.argument_type = #ttcore.argument_type<parameter>, ttcore.local_shape = #ttcore<local_shape local_shape = tensor<720xbf16>>, ttcore.shard_status = #ttcore.shard_status<presharded>, ttir.name = "model.model.layers.19.input_layernorm.weight"} loc("p358.9388"), %arg359: tensor<128xbf16> {ttcore.argument_type = #ttcore.argument_type<parameter>, ttcore.local_shape = #ttcore<local_shape local_shape = tensor<128xbf16>>, ttcore.shard_status = #ttcore.shard_status<presharded>, ttir.name = "model.model.layers.18.mlp.router.bias"} loc("p359.9400"), %arg360: tensor<128x2880xbf16> {ttcore.argument_type = #ttcore.argument_type<parameter>, ttcore.local_shape = #ttcore<local_shape local_shape = tensor<128x720xbf16>>, ttcore.shard_status = #ttcore.shard_status<presharded>, ttcore.weight_dtype = "bfp_bf4", ttir.name = "model.model.layers.18.mlp.router.parametrizations.weight.original"} loc("p360.9408"), %arg361: tensor<2880xbf16> {ttcore.argument_type = #ttcore.argument_type<parameter>, ttcore.local_shape = #ttcore<local_shape local_shape = tensor<720xbf16>>, ttcore.shard_status = #ttcore.shard_status<presharded>, ttir.name = "model.model.layers.18.post_attention_layernorm.weight"} loc("p361.9417"), %arg362: tensor<2880xbf16> {ttcore.argument_type = #ttcore.argument_type<parameter>, ttcore.local_shape = #ttcore<local_shape local_shape = tensor<720xbf16>>, ttcore.shard_status = #ttcore.shard_status<presharded>, ttir.name = "self___model_model_layers_18_self_attn_o_proj__parameters__bias"} loc("p362.9428"), %arg363: tensor<2880x4096xbf16> {ttcore.argument_type = #ttcore.argument_type<parameter>, ttcore.local_shape = #ttcore<local_shape local_shape = tensor<720x512xbf16>>, ttcore.shard_status = #ttcore.shard_status<presharded>, ttir.name = "self___model_model_layers_18_self_attn_o_proj__parameters__weight"} loc("p363.9432"), %arg364: tensor<64xbf16> {ttcore.argument_type = #ttcore.argument_type<parameter>, ttcore.local_shape = #ttcore<local_shape local_shape = tensor<64xbf16>>, ttcore.shard_status = #ttcore.shard_status<presharded>, ttir.name = "model.model.layers.18.self_attn.sinks"} loc("p364.9443"), %arg365: tensor<4096xbf16> {ttcore.argument_type = #ttcore.argument_type<parameter>, ttcore.local_shape = #ttcore<local_shape local_shape = tensor<512xbf16>>, ttcore.shard_status = #ttcore.shard_status<presharded>, ttir.name = "self___model_model_layers_18_self_attn_q_proj__parameters__bias"} loc("p365.9461"), %arg366: tensor<4096x2880xbf16> {ttcore.argument_type = #ttcore.argument_type<parameter>, ttcore.local_shape = #ttcore<local_shape local_shape = tensor<512x720xbf16>>, ttcore.shard_status = #ttcore.shard_status<presharded>, ttir.name = "self___model_model_layers_18_self_attn_q_proj__parameters__weight"} loc("p366.9465"), %arg367: tensor<128x2880xbf16> {ttcore.argument_type = #ttcore.argument_type<parameter>, ttcore.local_shape = #ttcore<local_shape local_shape = tensor<16x720xbf16>>, ttcore.shard_status = #ttcore.shard_status<presharded>, ttir.name = "model.model.layers.18.mlp.experts.down_proj_bias"} loc("p367.9692"), %arg368: tensor<128x2880x2880xbf16> {ttcore.argument_type = #ttcore.argument_type<parameter>, ttcore.local_shape = #ttcore<local_shape local_shape = tensor<16x2880x720xbf16>>, ttcore.shard_status = #ttcore.shard_status<presharded>, ttcore.weight_dtype = "bfp_bf4", ttir.name = "model.model.layers.18.mlp.experts.parametrizations.down_proj.original"} loc("p368.9697"), %arg369: tensor<128x5760xbf16> {ttcore.argument_type = #ttcore.argument_type<parameter>, ttcore.local_shape = #ttcore<local_shape local_shape = tensor<16x5760xbf16>>, ttcore.shard_status = #ttcore.shard_status<presharded>, ttir.name = "model.model.layers.18.mlp.experts.gate_up_proj_bias"} loc("p369.9704"), %arg370: tensor<128x2880x5760xbf16> {ttcore.argument_type = #ttcore.argument_type<parameter>, ttcore.local_shape = #ttcore<local_shape local_shape = tensor<16x720x5760xbf16>>, ttcore.shard_status = #ttcore.shard_status<presharded>, ttcore.weight_dtype = "bfp_bf4", ttir.name = "model.model.layers.18.mlp.experts.parametrizations.gate_up_proj.original"} loc("p370.9709"), %arg371: tensor<64x8x128x64xbf16> {ttcore.argument_type = #ttcore.argument_type<input>, ttcore.local_shape = #ttcore<local_shape local_shape = tensor<64x1x128x64xbf16>>, ttcore.shard_status = #ttcore.shard_status<presharded>, ttir.name = "args_40"} loc("p371.9837"), %arg372: tensor<512xbf16> {ttcore.argument_type = #ttcore.argument_type<parameter>, ttcore.local_shape = #ttcore<local_shape local_shape = tensor<64xbf16>>, ttcore.shard_status = #ttcore.shard_status<presharded>, ttir.name = "self___model_model_layers_19_self_attn_v_proj__parameters__bias"} loc("p372.9846"), %arg373: tensor<512x2880xbf16> {ttcore.argument_type = #ttcore.argument_type<parameter>, ttcore.local_shape = #ttcore<local_shape local_shape = tensor<64x720xbf16>>, ttcore.shard_status = #ttcore.shard_status<presharded>, ttir.name = "self___model_model_layers_19_self_attn_v_proj__parameters__weight"} loc("p373.9850"), %arg374: tensor<64x8x128x64xbf16> {ttcore.argument_type = #ttcore.argument_type<input>, ttcore.local_shape = #ttcore<local_shape local_shape = tensor<64x1x128x64xbf16>>, ttcore.shard_status = #ttcore.shard_status<presharded>, ttir.name = "args_41"} loc("p374.9874"), %arg375: tensor<512xbf16> {ttcore.argument_type = #ttcore.argument_type<parameter>, ttcore.local_shape = #ttcore<local_shape local_shape = tensor<64xbf16>>, ttcore.shard_status = #ttcore.shard_status<presharded>, ttir.name = "self___model_model_layers_20_self_attn_k_proj__parameters__bias"} loc("p375.9885"), %arg376: tensor<512x2880xbf16> {ttcore.argument_type = #ttcore.argument_type<parameter>, ttcore.local_shape = #ttcore<local_shape local_shape = tensor<64x720xbf16>>, ttcore.shard_status = #ttcore.shard_status<presharded>, ttir.name = "self___model_model_layers_20_self_attn_k_proj__parameters__weight"} loc("p376.9889"), %arg377: tensor<2880xbf16> {ttcore.argument_type = #ttcore.argument_type<parameter>, ttcore.local_shape = #ttcore<local_shape local_shape = tensor<720xbf16>>, ttcore.shard_status = #ttcore.shard_status<presharded>, ttir.name = "model.model.layers.20.input_layernorm.weight"} loc("p377.9894"), %arg378: tensor<128xbf16> {ttcore.argument_type = #ttcore.argument_type<parameter>, ttcore.local_shape = #ttcore<local_shape local_shape = tensor<128xbf16>>, ttcore.shard_status = #ttcore.shard_status<presharded>, ttir.name = "model.model.layers.19.mlp.router.bias"} loc("p378.9906"), %arg379: tensor<128x2880xbf16> {ttcore.argument_type = #ttcore.argument_type<parameter>, ttcore.local_shape = #ttcore<local_shape local_shape = tensor<128x720xbf16>>, ttcore.shard_status = #ttcore.shard_status<presharded>, ttcore.weight_dtype = "bfp_bf4", ttir.name = "model.model.layers.19.mlp.router.parametrizations.weight.original"} loc("p379.9914"), %arg380: tensor<2880xbf16> {ttcore.argument_type = #ttcore.argument_type<parameter>, ttcore.local_shape = #ttcore<local_shape local_shape = tensor<720xbf16>>, ttcore.shard_status = #ttcore.shard_status<presharded>, ttir.name = "model.model.layers.19.post_attention_layernorm.weight"} loc("p380.9923"), %arg381: tensor<2880xbf16> {ttcore.argument_type = #ttcore.argument_type<parameter>, ttcore.local_shape = #ttcore<local_shape local_shape = tensor<720xbf16>>, ttcore.shard_status = #ttcore.shard_status<presharded>, ttir.name = "self___model_model_layers_19_self_attn_o_proj__parameters__bias"} loc("p381.9934"), %arg382: tensor<2880x4096xbf16> {ttcore.argument_type = #ttcore.argument_type<parameter>, ttcore.local_shape = #ttcore<local_shape local_shape = tensor<720x512xbf16>>, ttcore.shard_status = #ttcore.shard_status<presharded>, ttir.name = "self___model_model_layers_19_self_attn_o_proj__parameters__weight"} loc("p382.9938"), %arg383: tensor<64xbf16> {ttcore.argument_type = #ttcore.argument_type<parameter>, ttcore.local_shape = #ttcore<local_shape local_shape = tensor<64xbf16>>, ttcore.shard_status = #ttcore.shard_status<presharded>, ttir.name = "model.model.layers.19.self_attn.sinks"} loc("p383.9949"), %arg384: tensor<4096xbf16> {ttcore.argument_type = #ttcore.argument_type<parameter>, ttcore.local_shape = #ttcore<local_shape local_shape = tensor<512xbf16>>, ttcore.shard_status = #ttcore.shard_status<presharded>, ttir.name = "self___model_model_layers_19_self_attn_q_proj__parameters__bias"} loc("p384.9967"), %arg385: tensor<4096x2880xbf16> {ttcore.argument_type = #ttcore.argument_type<parameter>, ttcore.local_shape = #ttcore<local_shape local_shape = tensor<512x720xbf16>>, ttcore.shard_status = #ttcore.shard_status<presharded>, ttir.name = "self___model_model_layers_19_self_attn_q_proj__parameters__weight"} loc("p385.9971"), %arg386: tensor<128x2880xbf16> {ttcore.argument_type = #ttcore.argument_type<parameter>, ttcore.local_shape = #ttcore<local_shape local_shape = tensor<16x720xbf16>>, ttcore.shard_status = #ttcore.shard_status<presharded>, ttir.name = "model.model.layers.19.mlp.experts.down_proj_bias"} loc("p386.10198"), %arg387: tensor<128x2880x2880xbf16> {ttcore.argument_type = #ttcore.argument_type<parameter>, ttcore.local_shape = #ttcore<local_shape local_shape = tensor<16x2880x720xbf16>>, ttcore.shard_status = #ttcore.shard_status<presharded>, ttcore.weight_dtype = "bfp_bf4", ttir.name = "model.model.layers.19.mlp.experts.parametrizations.down_proj.original"} loc("p387.10203"), %arg388: tensor<128x5760xbf16> {ttcore.argument_type = #ttcore.argument_type<parameter>, ttcore.local_shape = #ttcore<local_shape local_shape = tensor<16x5760xbf16>>, ttcore.shard_status = #ttcore.shard_status<presharded>, ttir.name = "model.model.layers.19.mlp.experts.gate_up_proj_bias"} loc("p388.10210"), %arg389: tensor<128x2880x5760xbf16> {ttcore.argument_type = #ttcore.argument_type<parameter>, ttcore.local_shape = #ttcore<local_shape local_shape = tensor<16x720x5760xbf16>>, ttcore.shard_status = #ttcore.shard_status<presharded>, ttcore.weight_dtype = "bfp_bf4", ttir.name = "model.model.layers.19.mlp.experts.parametrizations.gate_up_proj.original"} loc("p389.10215"), %arg390: tensor<64x8x128x64xbf16> {ttcore.argument_type = #ttcore.argument_type<input>, ttcore.local_shape = #ttcore<local_shape local_shape = tensor<64x1x128x64xbf16>>, ttcore.shard_status = #ttcore.shard_status<presharded>, ttir.name = "args_42"} loc("p390.10343"), %arg391: tensor<512xbf16> {ttcore.argument_type = #ttcore.argument_type<parameter>, ttcore.local_shape = #ttcore<local_shape local_shape = tensor<64xbf16>>, ttcore.shard_status = #ttcore.shard_status<presharded>, ttir.name = "self___model_model_layers_20_self_attn_v_proj__parameters__bias"} loc("p391.10352"), %arg392: tensor<512x2880xbf16> {ttcore.argument_type = #ttcore.argument_type<parameter>, ttcore.local_shape = #ttcore<local_shape local_shape = tensor<64x720xbf16>>, ttcore.shard_status = #ttcore.shard_status<presharded>, ttir.name = "self___model_model_layers_20_self_attn_v_proj__parameters__weight"} loc("p392.10356"), %arg393: tensor<64x8x128x64xbf16> {ttcore.argument_type = #ttcore.argument_type<input>, ttcore.local_shape = #ttcore<local_shape local_shape = tensor<64x1x128x64xbf16>>, ttcore.shard_status = #ttcore.shard_status<presharded>, ttir.name = "args_43"} loc("p393.10380"), %arg394: tensor<512xbf16> {ttcore.argument_type = #ttcore.argument_type<parameter>, ttcore.local_shape = #ttcore<local_shape local_shape = tensor<64xbf16>>, ttcore.shard_status = #ttcore.shard_status<presharded>, ttir.name = "self___model_model_layers_21_self_attn_k_proj__parameters__bias"} loc("p394.10391"), %arg395: tensor<512x2880xbf16> {ttcore.argument_type = #ttcore.argument_type<parameter>, ttcore.local_shape = #ttcore<local_shape local_shape = tensor<64x720xbf16>>, ttcore.shard_status = #ttcore.shard_status<presharded>, ttir.name = "self___model_model_layers_21_self_attn_k_proj__parameters__weight"} loc("p395.10395"), %arg396: tensor<2880xbf16> {ttcore.argument_type = #ttcore.argument_type<parameter>, ttcore.local_shape = #ttcore<local_shape local_shape = tensor<720xbf16>>, ttcore.shard_status = #ttcore.shard_status<presharded>, ttir.name = "model.model.layers.21.input_layernorm.weight"} loc("p396.10400"), %arg397: tensor<128xbf16> {ttcore.argument_type = #ttcore.argument_type<parameter>, ttcore.local_shape = #ttcore<local_shape local_shape = tensor<128xbf16>>, ttcore.shard_status = #ttcore.shard_status<presharded>, ttir.name = "model.model.layers.20.mlp.router.bias"} loc("p397.10412"), %arg398: tensor<128x2880xbf16> {ttcore.argument_type = #ttcore.argument_type<parameter>, ttcore.local_shape = #ttcore<local_shape local_shape = tensor<128x720xbf16>>, ttcore.shard_status = #ttcore.shard_status<presharded>, ttcore.weight_dtype = "bfp_bf4", ttir.name = "model.model.layers.20.mlp.router.parametrizations.weight.original"} loc("p398.10420"), %arg399: tensor<2880xbf16> {ttcore.argument_type = #ttcore.argument_type<parameter>, ttcore.local_shape = #ttcore<local_shape local_shape = tensor<720xbf16>>, ttcore.shard_status = #ttcore.shard_status<presharded>, ttir.name = "model.model.layers.20.post_attention_layernorm.weight"} loc("p399.10429"), %arg400: tensor<2880xbf16> {ttcore.argument_type = #ttcore.argument_type<parameter>, ttcore.local_shape = #ttcore<local_shape local_shape = tensor<720xbf16>>, ttcore.shard_status = #ttcore.shard_status<presharded>, ttir.name = "self___model_model_layers_20_self_attn_o_proj__parameters__bias"} loc("p400.10440"), %arg401: tensor<2880x4096xbf16> {ttcore.argument_type = #ttcore.argument_type<parameter>, ttcore.local_shape = #ttcore<local_shape local_shape = tensor<720x512xbf16>>, ttcore.shard_status = #ttcore.shard_status<presharded>, ttir.name = "self___model_model_layers_20_self_attn_o_proj__parameters__weight"} loc("p401.10444"), %arg402: tensor<64xbf16> {ttcore.argument_type = #ttcore.argument_type<parameter>, ttcore.local_shape = #ttcore<local_shape local_shape = tensor<64xbf16>>, ttcore.shard_status = #ttcore.shard_status<presharded>, ttir.name = "model.model.layers.20.self_attn.sinks"} loc("p402.10455"), %arg403: tensor<4096xbf16> {ttcore.argument_type = #ttcore.argument_type<parameter>, ttcore.local_shape = #ttcore<local_shape local_shape = tensor<512xbf16>>, ttcore.shard_status = #ttcore.shard_status<presharded>, ttir.name = "self___model_model_layers_20_self_attn_q_proj__parameters__bias"} loc("p403.10473"), %arg404: tensor<4096x2880xbf16> {ttcore.argument_type = #ttcore.argument_type<parameter>, ttcore.local_shape = #ttcore<local_shape local_shape = tensor<512x720xbf16>>, ttcore.shard_status = #ttcore.shard_status<presharded>, ttir.name = "self___model_model_layers_20_self_attn_q_proj__parameters__weight"} loc("p404.10477"), %arg405: tensor<128x2880xbf16> {ttcore.argument_type = #ttcore.argument_type<parameter>, ttcore.local_shape = #ttcore<local_shape local_shape = tensor<16x720xbf16>>, ttcore.shard_status = #ttcore.shard_status<presharded>, ttir.name = "model.model.layers.20.mlp.experts.down_proj_bias"} loc("p405.10704"), %arg406: tensor<128x2880x2880xbf16> {ttcore.argument_type = #ttcore.argument_type<parameter>, ttcore.local_shape = #ttcore<local_shape local_shape = tensor<16x2880x720xbf16>>, ttcore.shard_status = #ttcore.shard_status<presharded>, ttcore.weight_dtype = "bfp_bf4", ttir.name = "model.model.layers.20.mlp.experts.parametrizations.down_proj.original"} loc("p406.10709"), %arg407: tensor<128x5760xbf16> {ttcore.argument_type = #ttcore.argument_type<parameter>, ttcore.local_shape = #ttcore<local_shape local_shape = tensor<16x5760xbf16>>, ttcore.shard_status = #ttcore.shard_status<presharded>, ttir.name = "model.model.layers.20.mlp.experts.gate_up_proj_bias"} loc("p407.10716"), %arg408: tensor<128x2880x5760xbf16> {ttcore.argument_type = #ttcore.argument_type<parameter>, ttcore.local_shape = #ttcore<local_shape local_shape = tensor<16x720x5760xbf16>>, ttcore.shard_status = #ttcore.shard_status<presharded>, ttcore.weight_dtype = "bfp_bf4", ttir.name = "model.model.layers.20.mlp.experts.parametrizations.gate_up_proj.original"} loc("p408.10721"), %arg409: tensor<64x8x128x64xbf16> {ttcore.argument_type = #ttcore.argument_type<input>, ttcore.local_shape = #ttcore<local_shape local_shape = tensor<64x1x128x64xbf16>>, ttcore.shard_status = #ttcore.shard_status<presharded>, ttir.name = "args_44"} loc("p409.10849"), %arg410: tensor<512xbf16> {ttcore.argument_type = #ttcore.argument_type<parameter>, ttcore.local_shape = #ttcore<local_shape local_shape = tensor<64xbf16>>, ttcore.shard_status = #ttcore.shard_status<presharded>, ttir.name = "self___model_model_layers_21_self_attn_v_proj__parameters__bias"} loc("p410.10858"), %arg411: tensor<512x2880xbf16> {ttcore.argument_type = #ttcore.argument_type<parameter>, ttcore.local_shape = #ttcore<local_shape local_shape = tensor<64x720xbf16>>, ttcore.shard_status = #ttcore.shard_status<presharded>, ttir.name = "self___model_model_layers_21_self_attn_v_proj__parameters__weight"} loc("p411.10862"), %arg412: tensor<64x8x128x64xbf16> {ttcore.argument_type = #ttcore.argument_type<input>, ttcore.local_shape = #ttcore<local_shape local_shape = tensor<64x1x128x64xbf16>>, ttcore.shard_status = #ttcore.shard_status<presharded>, ttir.name = "args_45"} loc("p412.10886"), %arg413: tensor<512xbf16> {ttcore.argument_type = #ttcore.argument_type<parameter>, ttcore.local_shape = #ttcore<local_shape local_shape = tensor<64xbf16>>, ttcore.shard_status = #ttcore.shard_status<presharded>, ttir.name = "self___model_model_layers_22_self_attn_k_proj__parameters__bias"} loc("p413.10897"), %arg414: tensor<512x2880xbf16> {ttcore.argument_type = #ttcore.argument_type<parameter>, ttcore.local_shape = #ttcore<local_shape local_shape = tensor<64x720xbf16>>, ttcore.shard_status = #ttcore.shard_status<presharded>, ttir.name = "self___model_model_layers_22_self_attn_k_proj__parameters__weight"} loc("p414.10901"), %arg415: tensor<2880xbf16> {ttcore.argument_type = #ttcore.argument_type<parameter>, ttcore.local_shape = #ttcore<local_shape local_shape = tensor<720xbf16>>, ttcore.shard_status = #ttcore.shard_status<presharded>, ttir.name = "model.model.layers.22.input_layernorm.weight"} loc("p415.10906"), %arg416: tensor<128xbf16> {ttcore.argument_type = #ttcore.argument_type<parameter>, ttcore.local_shape = #ttcore<local_shape local_shape = tensor<128xbf16>>, ttcore.shard_status = #ttcore.shard_status<presharded>, ttir.name = "model.model.layers.21.mlp.router.bias"} loc("p416.10918"), %arg417: tensor<128x2880xbf16> {ttcore.argument_type = #ttcore.argument_type<parameter>, ttcore.local_shape = #ttcore<local_shape local_shape = tensor<128x720xbf16>>, ttcore.shard_status = #ttcore.shard_status<presharded>, ttcore.weight_dtype = "bfp_bf4", ttir.name = "model.model.layers.21.mlp.router.parametrizations.weight.original"} loc("p417.10926"), %arg418: tensor<2880xbf16> {ttcore.argument_type = #ttcore.argument_type<parameter>, ttcore.local_shape = #ttcore<local_shape local_shape = tensor<720xbf16>>, ttcore.shard_status = #ttcore.shard_status<presharded>, ttir.name = "model.model.layers.21.post_attention_layernorm.weight"} loc("p418.10935"), %arg419: tensor<2880xbf16> {ttcore.argument_type = #ttcore.argument_type<parameter>, ttcore.local_shape = #ttcore<local_shape local_shape = tensor<720xbf16>>, ttcore.shard_status = #ttcore.shard_status<presharded>, ttir.name = "self___model_model_layers_21_self_attn_o_proj__parameters__bias"} loc("p419.10946"), %arg420: tensor<2880x4096xbf16> {ttcore.argument_type = #ttcore.argument_type<parameter>, ttcore.local_shape = #ttcore<local_shape local_shape = tensor<720x512xbf16>>, ttcore.shard_status = #ttcore.shard_status<presharded>, ttir.name = "self___model_model_layers_21_self_attn_o_proj__parameters__weight"} loc("p420.10950"), %arg421: tensor<64xbf16> {ttcore.argument_type = #ttcore.argument_type<parameter>, ttcore.local_s…
#loc3502 = loc("reshape.11974")
#loc3503 = loc("broadcast.11980")
#loc3504 = loc("concatenate.12040")
#loc3505 = loc("reduce.12047")
#loc3506 = loc("broadcast.12083")
#loc3507 = loc("subtract.12084")
#loc3508 = loc("reduce.12090")
#loc3509 = loc("broadcast.12091")
#loc3510 = loc("subtract.12092")
#loc3511 = loc("exponential.12093")
#loc3512 = loc("reduce.12099")
#loc3513 = loc("broadcast.12100")
#loc3514 = loc("divide.12101")
#loc3515 = loc("slice.12102")
#loc3516 = loc("transpose.11878")
#loc3517 = loc("dot.11880")
#loc3518 = loc("reshape.11881")
#loc3519 = loc("broadcast.11884")
#loc3520 = loc("add.11885")
#loc3521 = loc("transpose.11887")
#loc3522 = loc("scatter.11904")
#loc3523 = loc("broadcast.11970")
#loc3524 = loc("reshape.11971")
#loc3525 = loc("dot.12103")
#loc3526 = loc("reshape.12107")
#loc3527 = loc("transpose.11966")
#loc3528 = loc("dot.12108")
#loc3529 = loc("reshape.12109")
#loc3530 = loc("broadcast.12112")
#loc3531 = loc("add.12113")
#loc3532 = loc("add.12116")
#loc3533 = loc("custom-call.12149")
#loc3534 = loc("reshape.12242")
#loc3535 = loc("concatenate.12243")
#loc3536 = loc("dot.12246")
#loc3537 = loc("broadcast.12250")
#loc3538 = loc("add.12251")
#loc3539 = loc("slice.12264")
#loc3540 = loc("clamp.12267")
#loc3541 = loc("add.12270")
#loc3542 = loc("slice.12252")
#loc3543 = loc("clamp.12255")
#loc3544 = loc("multiply.12257")
#loc3545 = loc("logistic.12258")
#loc3546 = loc("multiply.12259")
#loc3547 = loc("multiply.12271")
#loc3548 = loc("dot.12272")
#loc3549 = loc("broadcast.12276")
#loc3550 = loc("add.12277")
#loc3551 = loc("reshape.12278")
#loc3552 = loc("convert.12151")
#loc3553 = loc("transpose.11945")
#loc3554 = loc("convert.11946")
#loc3555 = loc("dot.12152")
#loc3556 = loc("convert.11934")
#loc3557 = loc("broadcast.12157")
#loc3558 = loc("add.12158")
#loc3559 = loc("convert.12159")
#loc3560 = loc("broadcast.12204")
#loc3561 = loc("compare.12205")
#loc3562 = loc("convert.12206")
#loc3563 = loc("convert.12207")
#loc3564 = loc("reduce.12186")
#loc3565 = loc("broadcast.12187")
#loc3566 = loc("subtract.12188")
#loc3567 = loc("exponential.12189")
#loc3568 = loc("reduce.12195")
#loc3569 = loc("broadcast.12196")
#loc3570 = loc("divide.12197")
#loc3571 = loc("broadcast.12209")
#loc3572 = loc("multiply.12210")
#loc3573 = loc("reduce.12217")
#loc3574 = loc("transpose.12218")
#loc3575 = loc("reshape.12219")
#loc3576 = loc("broadcast.12280")
#loc3577 = loc("multiply.12281")
#loc3578 = loc("reduce.12288")
#loc3579 = loc("add.12291")
#loc3580 = loc("custom-call.12324")
#loc3581 = loc("reshape.12506")
#loc3582 = loc("transpose.12505")
#loc3583 = loc("dot.12507")
#loc3584 = loc("reshape.12508")
#loc3585 = loc("broadcast.12511")
#loc3586 = loc("add.12512")
#loc3587 = loc("transpose.12514")
#loc3588 = loc("slice.12515")
#loc3589 = loc("multiply.12532")
#loc3590 = loc("slice.12519")
#loc3591 = loc("multiply.12529")
#loc3592 = loc("subtract.12535")
#loc3593 = loc("multiply.12522")
#loc3594 = loc("multiply.12518")
#loc3595 = loc("add.12525")
#loc3596 = loc("concatenate.12536")
#loc3597 = loc("transpose.11917")
#loc3598 = loc("dot.12326")
#loc3599 = loc("reshape.12327")
#loc3600 = loc("broadcast.12330")
#loc3601 = loc("add.12331")
#loc3602 = loc("transpose.12333")
#loc3603 = loc("slice.12334")
#loc3604 = loc("multiply.12352")
#loc3605 = loc("slice.12339")
#loc3606 = loc("multiply.12349")
#loc3607 = loc("subtract.12355")
#loc3608 = loc("multiply.12342")
#loc3609 = loc("multiply.12337")
#loc3610 = loc("add.12345")
#loc3611 = loc("concatenate.12356")
#loc3612 = loc("scatter.12373")
#loc3613 = loc("broadcast.12492")
#loc3614 = loc("reshape.12493")
#loc3615 = loc("transpose.12494")
#loc3616 = loc("dot.12537")
#loc3617 = loc("multiply.12540")
#loc3618 = loc("add.12545")
#loc3619 = loc("reshape.12485")
#loc3620 = loc("reshape.12480")
#loc3621 = loc("broadcast.12486")
#loc3622 = loc("concatenate.12546")
#loc3623 = loc("reduce.12553")
#loc3624 = loc("broadcast.12589")
#loc3625 = loc("subtract.12590")
#loc3626 = loc("reduce.12596")
#loc3627 = loc("broadcast.12597")
#loc3628 = loc("subtract.12598")
#loc3629 = loc("exponential.12599")
#loc3630 = loc("reduce.12605")
#loc3631 = loc("broadcast.12606")
#loc3632 = loc("divide.12607")
#loc3633 = loc("slice.12608")
#loc3634 = loc("transpose.12384")
#loc3635 = loc("dot.12386")
#loc3636 = loc("reshape.12387")
#loc3637 = loc("broadcast.12390")
#loc3638 = loc("add.12391")
#loc3639 = loc("transpose.12393")
#loc3640 = loc("scatter.12410")
#loc3641 = loc("broadcast.12476")
#loc3642 = loc("reshape.12477")
#loc3643 = loc("dot.12609")
#loc3644 = loc("reshape.12613")
#loc3645 = loc("transpose.12472")
#loc3646 = loc("dot.12614")
#loc3647 = loc("reshape.12615")
#loc3648 = loc("broadcast.12618")
#loc3649 = loc("add.12619")
#loc3650 = loc("add.12622")
#loc3651 = loc("custom-call.12655")
#loc3652 = loc("reshape.12748")
#loc3653 = loc("concatenate.12749")
#loc3654 = loc("dot.12752")
#loc3655 = loc("broadcast.12756")
#loc3656 = loc("add.12757")
#loc3657 = loc("slice.12770")
#loc3658 = loc("clamp.12773")
#loc3659 = loc("add.12776")
#loc3660 = loc("slice.12758")
#loc3661 = loc("clamp.12761")
#loc3662 = loc("multiply.12763")
#loc3663 = loc("logistic.12764")
#loc3664 = loc("multiply.12765")
#loc3665 = loc("multiply.12777")
#loc3666 = loc("dot.12778")
#loc3667 = loc("broadcast.12782")
#loc3668 = loc("add.12783")
#loc3669 = loc("reshape.12784")
#loc3670 = loc("convert.12657")
#loc3671 = loc("transpose.12451")
#loc3672 = loc("convert.12452")
#loc3673 = loc("dot.12658")
#loc3674 = loc("convert.12440")
#loc3675 = loc("broadcast.12663")
#loc3676 = loc("add.12664")
#loc3677 = loc("convert.12665")
#loc3678 = loc("broadcast.12710")
#loc3679 = loc("compare.12711")
#loc3680 = loc("convert.12712")
#loc3681 = loc("convert.12713")
#loc3682 = loc("reduce.12692")
#loc3683 = loc("broadcast.12693")
#loc3684 = loc("subtract.12694")
#loc3685 = loc("exponential.12695")
#loc3686 = loc("reduce.12701")
#loc3687 = loc("broadcast.12702")
#loc3688 = loc("divide.12703")
#loc3689 = loc("broadcast.12715")
#loc3690 = loc("multiply.12716")
#loc3691 = loc("reduce.12723")
#loc3692 = loc("transpose.12724")
#loc3693 = loc("reshape.12725")
#loc3694 = loc("broadcast.12786")
#loc3695 = loc("multiply.12787")
#loc3696 = loc("reduce.12794")
#loc3697 = loc("add.12797")
#loc3698 = loc("custom-call.12830")
#loc3699 = loc("reshape.13012")
#loc3700 = loc("transpose.13011")
#loc3701 = loc("dot.13013")
#loc3702 = loc("reshape.13014")
#loc3703 = loc("broadcast.13017")
#loc3704 = loc("add.13018")
#loc3705 = loc("transpose.13020")
#loc3706 = loc("slice.13021")
#loc3707 = loc("multiply.13038")
#loc3708 = loc("slice.13025")
#loc3709 = loc("multiply.13035")
#loc3710 = loc("subtract.13041")
#loc3711 = loc("multiply.13028")
#loc3712 = loc("multiply.13024")
#loc3713 = loc("add.13031")
#loc3714 = loc("concatenate.13042")
#loc3715 = loc("transpose.12423")
#loc3716 = loc("dot.12832")
#loc3717 = loc("reshape.12833")
#loc3718 = loc("broadcast.12836")
#loc3719 = loc("add.12837")
#loc3720 = loc("transpose.12839")
#loc3721 = loc("slice.12840")
#loc3722 = loc("multiply.12858")
#loc3723 = loc("slice.12845")
#loc3724 = loc("multiply.12855")
#loc3725 = loc("subtract.12861")
#loc3726 = loc("multiply.12848")
#loc3727 = loc("multiply.12843")
#loc3728 = loc("add.12851")
#loc3729 = loc("concatenate.12862")
#loc3730 = loc("scatter.12879")
#loc3731 = loc("broadcast.12998")
#loc3732 = loc("reshape.12999")
#loc3733 = loc("transpose.13000")
#loc3734 = loc("dot.13043")
#loc3735 = loc("multiply.13046")
#loc3736 = loc("add.13051")
#loc3737 = loc("reshape.12991")
#loc3738 = loc("reshape.12986")
#loc3739 = loc("broadcast.12992")
#loc3740 = loc("concatenate.13052")
#loc3741 = loc("reduce.13059")
#loc3742 = loc("broadcast.13095")
#loc3743 = loc("subtract.13096")
#loc3744 = loc("reduce.13102")
#loc3745 = loc("broadcast.13103")
#loc3746 = loc("subtract.13104")
#loc3747 = loc("exponential.13105")
#loc3748 = loc("reduce.13111")
#loc3749 = loc("broadcast.13112")
#loc3750 = loc("divide.13113")
#loc3751 = loc("slice.13114")
#loc3752 = loc("transpose.12890")
#loc3753 = loc("dot.12892")
#loc3754 = loc("reshape.12893")
#loc3755 = loc("broadcast.12896")
#loc3756 = loc("add.12897")
#loc3757 = loc("transpose.12899")
#loc3758 = loc("scatter.12916")
#loc3759 = loc("broadcast.12982")
#loc3760 = loc("reshape.12983")
#loc3761 = loc("dot.13115")
#loc3762 = loc("reshape.13119")
#loc3763 = loc("transpose.12978")
#loc3764 = loc("dot.13120")
#loc3765 = loc("reshape.13121")
#loc3766 = loc("broadcast.13124")
#loc3767 = loc("add.13125")
#loc3768 = loc("add.13128")
#loc3769 = loc("custom-call.13161")
#loc3770 = loc("reshape.13254")
#loc3771 = loc("concatenate.13255")
#loc3772 = loc("dot.13258")
#loc3773 = loc("broadcast.13262")
#loc3774 = loc("add.13263")
#loc3775 = loc("slice.13276")
#loc3776 = loc("clamp.13279")
#loc3777 = loc("add.13282")
#loc3778 = loc("slice.13264")
#loc3779 = loc("clamp.13267")
#loc3780 = loc("multiply.13269")
#loc3781 = loc("logistic.13270")
#loc3782 = loc("multiply.13271")
#loc3783 = loc("multiply.13283")
#loc3784 = loc("dot.13284")
#loc3785 = loc("broadcast.13288")
#loc3786 = loc("add.13289")
#loc3787 = loc("reshape.13290")
#loc3788 = loc("convert.13163")
#loc3789 = loc("transpose.12957")
#loc3790 = loc("convert.12958")
#loc3791 = loc("dot.13164")
#loc3792 = loc("convert.12946")
#loc3793 = loc("broadcast.13169")
#loc3794 = loc("add.13170")
#loc3795 = loc("convert.13171")
#loc3796 = loc("broadcast.13216")
#loc3797 = loc("compare.13217")
#loc3798 = loc("convert.13218")
#loc3799 = loc("convert.13219")
#loc3800 = loc("reduce.13198")
#loc3801 = loc("broadcast.13199")
#loc3802 = loc("subtract.13200")
#loc3803 = loc("exponential.13201")
#loc3804 = loc("reduce.13207")
#loc3805 = loc("broadcast.13208")
#loc3806 = loc("divide.13209")
#loc3807 = loc("broadcast.13221")
#loc3808 = loc("multiply.13222")
#loc3809 = loc("reduce.13229")
#loc3810 = loc("transpose.13230")
#loc3811 = loc("reshape.13231")
#loc3812 = loc("broadcast.13292")
#loc3813 = loc("multiply.13293")
#loc3814 = loc("reduce.13300")
#loc3815 = loc("add.13303")
#loc3816 = loc("custom-call.13336")
#loc3817 = loc("reshape.13518")
#loc3818 = loc("transpose.13517")
#loc3819 = loc("dot.13519")
#loc3820 = loc("reshape.13520")
#loc3821 = loc("broadcast.13523")
#loc3822 = loc("add.13524")
#loc3823 = loc("transpose.13526")
#loc3824 = loc("slice.13527")
#loc3825 = loc("multiply.13544")
#loc3826 = loc("slice.13531")
#loc3827 = loc("multiply.13541")
#loc3828 = loc("subtract.13547")
#loc3829 = loc("multiply.13534")
#loc3830 = loc("multiply.13530")
#loc3831 = loc("add.13537")
#loc3832 = loc("concatenate.13548")
#loc3833 = loc("transpose.12929")
#loc3834 = loc("dot.13338")
#loc3835 = loc("reshape.13339")
#loc3836 = loc("broadcast.13342")
#loc3837 = loc("add.13343")
#loc3838 = loc("transpose.13345")
#loc3839 = loc("slice.13346")
#loc3840 = loc("multiply.13364")
#loc3841 = loc("slice.13351")
#loc3842 = loc("multiply.13361")
#loc3843 = loc("subtract.13367")
#loc3844 = loc("multiply.13354")
#loc3845 = loc("multiply.13349")
#loc3846 = loc("add.13357")
#loc3847 = loc("concatenate.13368")
#loc3848 = loc("scatter.13385")
#loc3849 = loc("broadcast.13504")
#loc3850 = loc("reshape.13505")
#loc3851 = loc("transpose.13506")
#loc3852 = loc("dot.13549")
#loc3853 = loc("multiply.13552")
#loc3854 = loc("add.13557")
#loc3855 = loc("reshape.13497")
#loc3856 = loc("reshape.13492")
#loc3857 = loc("broadcast.13498")
#loc3858 = loc("concatenate.13558")
#loc3859 = loc("reduce.13565")
#loc3860 = loc("broadcast.13601")
#loc3861 = loc("subtract.13602")
#loc3862 = loc("reduce.13608")
#loc3863 = loc("broadcast.13609")
#loc3864 = loc("subtract.13610")
#loc3865 = loc("exponential.13611")
#loc3866 = loc("reduce.13617")
#loc3867 = loc("broadcast.13618")
#loc3868 = loc("divide.13619")
#loc3869 = loc("slice.13620")
#loc3870 = loc("transpose.13396")
#loc3871 = loc("dot.13398")
#loc3872 = loc("reshape.13399")
#loc3873 = loc("broadcast.13402")
#loc3874 = loc("add.13403")
#loc3875 = loc("transpose.13405")
#loc3876 = loc("scatter.13422")
#loc3877 = loc("broadcast.13488")
#loc3878 = loc("reshape.13489")
#loc3879 = loc("dot.13621")
#loc3880 = loc("reshape.13625")
#loc3881 = loc("transpose.13484")
#loc3882 = loc("dot.13626")
#loc3883 = loc("reshape.13627")
#loc3884 = loc("broadcast.13630")
#loc3885 = loc("add.13631")
#loc3886 = loc("add.13634")
#loc3887 = loc("custom-call.13667")
#loc3888 = loc("reshape.13760")
#loc3889 = loc("concatenate.13761")
#loc3890 = loc("dot.13764")
#loc3891 = loc("broadcast.13768")
#loc3892 = loc("add.13769")
#loc3893 = loc("slice.13782")
#loc3894 = loc("clamp.13785")
#loc3895 = loc("add.13788")
#loc3896 = loc("slice.13770")
#loc3897 = loc("clamp.13773")
#loc3898 = loc("multiply.13775")
#loc3899 = loc("logistic.13776")
#loc3900 = loc("multiply.13777")
#loc3901 = loc("multiply.13789")
#loc3902 = loc("dot.13790")
#loc3903 = loc("broadcast.13794")
#loc3904 = loc("add.13795")
#loc3905 = loc("reshape.13796")
#loc3906 = loc("convert.13669")
#loc3907 = loc("transpose.13463")
#loc3908 = loc("convert.13464")
#loc3909 = loc("dot.13670")
#loc3910 = loc("convert.13452")
#loc3911 = loc("broadcast.13675")
#loc3912 = loc("add.13676")
#loc3913 = loc("convert.13677")
#loc3914 = loc("broadcast.13722")
#loc3915 = loc("compare.13723")
#loc3916 = loc("convert.13724")
#loc3917 = loc("convert.13725")
#loc3918 = loc("reduce.13704")
#loc3919 = loc("broadcast.13705")
#loc3920 = loc("subtract.13706")
#loc3921 = loc("exponential.13707")
#loc3922 = loc("reduce.13713")
#loc3923 = loc("broadcast.13714")
#loc3924 = loc("divide.13715")
#loc3925 = loc("broadcast.13727")
#loc3926 = loc("multiply.13728")
#loc3927 = loc("reduce.13735")
#loc3928 = loc("transpose.13736")
#loc3929 = loc("reshape.13737")
#loc3930 = loc("broadcast.13798")
#loc3931 = loc("multiply.13799")
#loc3932 = loc("reduce.13806")
#loc3933 = loc("add.13809")
#loc3934 = loc("custom-call.13842")
#loc3935 = loc("reshape.14024")
#loc3936 = loc("transpose.14023")
#loc3937 = loc("dot.14025")
#loc3938 = loc("reshape.14026")
#loc3939 = loc("broadcast.14029")
#loc3940 = loc("add.14030")
#loc3941 = loc("transpose.14032")
#loc3942 = loc("slice.14033")
#loc3943 = loc("multiply.14050")
#loc3944 = loc("slice.14037")
#loc3945 = loc("multiply.14047")
#loc3946 = loc("subtract.14053")
#loc3947 = loc("multiply.14040")
#loc3948 = loc("multiply.14036")
#loc3949 = loc("add.14043")
#loc3950 = loc("concatenate.14054")
#loc3951 = loc("transpose.13435")
#loc3952 = loc("dot.13844")
#loc3953 = loc("reshape.13845")
#loc3954 = loc("broadcast.13848")
#loc3955 = loc("add.13849")
#loc3956 = loc("transpose.13851")
#loc3957 = loc("slice.13852")
#loc3958 = loc("multiply.13870")
#loc3959 = loc("slice.13857")
#loc3960 = loc("multiply.13867")
#loc3961 = loc("subtract.13873")
#loc3962 = loc("multiply.13860")
#loc3963 = loc("multiply.13855")
#loc3964 = loc("add.13863")
#loc3965 = loc("concatenate.13874")
#loc3966 = loc("scatter.13891")
#loc3967 = loc("broadcast.14010")
#loc3968 = loc("reshape.14011")
#loc3969 = loc("transpose.14012")
#loc3970 = loc("dot.14055")
#loc3971 = loc("multiply.14058")
#loc3972 = loc("add.14063")
#loc3973 = loc("reshape.14003")
#loc3974 = loc("reshape.13998")
#loc3975 = loc("broadcast.14004")
#loc3976 = loc("concatenate.14064")
#loc3977 = loc("reduce.14071")
#loc3978 = loc("broadcast.14107")
#loc3979 = loc("subtract.14108")
#loc3980 = loc("reduce.14114")
#loc3981 = loc("broadcast.14115")
#loc3982 = loc("subtract.14116")
#loc3983 = loc("exponential.14117")
#loc3984 = loc("reduce.14123")
#loc3985 = loc("broadcast.14124")
#loc3986 = loc("divide.14125")
#loc3987 = loc("slice.14126")
#loc3988 = loc("transpose.13902")
#loc3989 = loc("dot.13904")
#loc3990 = loc("reshape.13905")
#loc3991 = loc("broadcast.13908")
#loc3992 = loc("add.13909")
#loc3993 = loc("transpose.13911")
#loc3994 = loc("scatter.13928")
#loc3995 = loc("broadcast.13994")
#loc3996 = loc("reshape.13995")
#loc3997 = loc("dot.14127")
#loc3998 = loc("reshape.14131")
#loc3999 = loc("transpose.13990")
#loc4000 = loc("dot.14132")
#loc4001 = loc("reshape.14133")
#loc4002 = loc("broadcast.14136")
#loc4003 = loc("add.14137")
#loc4004 = loc("add.14140")
#loc4005 = loc("custom-call.14173")
#loc4006 = loc("reshape.14266")
#loc4007 = loc("concatenate.14267")
#loc4008 = loc("dot.14270")
#loc4009 = loc("broadcast.14274")
#loc4010 = loc("add.14275")
#loc4011 = loc("slice.14288")
#loc4012 = loc("clamp.14291")
#loc4013 = loc("add.14294")
#loc4014 = loc("slice.14276")
#loc4015 = loc("clamp.14279")
#loc4016 = loc("multiply.14281")
#loc4017 = loc("logistic.14282")
#loc4018 = loc("multiply.14283")
#loc4019 = loc("multiply.14295")
#loc4020 = loc("dot.14296")
#loc4021 = loc("broadcast.14300")
#loc4022 = loc("add.14301")
#loc4023 = loc("reshape.14302")
#loc4024 = loc("convert.14175")
#loc4025 = loc("transpose.13969")
#loc4026 = loc("convert.13970")
#loc4027 = loc("dot.14176")
#loc4028 = loc("convert.13958")
#loc4029 = loc("broadcast.14181")
#loc4030 = loc("add.14182")
#loc4031 = loc("convert.14183")
#loc4032 = loc("broadcast.14228")
#loc4033 = loc("compare.14229")
#loc4034 = loc("convert.14230")
#loc4035 = loc("convert.14231")
#loc4036 = loc("reduce.14210")
#loc4037 = loc("broadcast.14211")
#loc4038 = loc("subtract.14212")
#loc4039 = loc("exponential.14213")
#loc4040 = loc("reduce.14219")
#loc4041 = loc("broadcast.14220")
#loc4042 = loc("divide.14221")
#loc4043 = loc("broadcast.14233")
#loc4044 = loc("multiply.14234")
#loc4045 = loc("reduce.14241")
#loc4046 = loc("transpose.14242")
#loc4047 = loc("reshape.14243")
#loc4048 = loc("broadcast.14304")
#loc4049 = loc("multiply.14305")
#loc4050 = loc("reduce.14312")
#loc4051 = loc("add.14315")
#loc4052 = loc("custom-call.14348")
#loc4053 = loc("reshape.14530")
#loc4054 = loc("transpose.14529")
#loc4055 = loc("dot.14531")
#loc4056 = loc("reshape.14532")
#loc4057 = loc("broadcast.14535")
#loc4058 = loc("add.14536")
#loc4059 = loc("transpose.14538")
#loc4060 = loc("slice.14539")
#loc4061 = loc("multiply.14556")
#loc4062 = loc("slice.14543")
#loc4063 = loc("multiply.14553")
#loc4064 = loc("subtract.14559")
#loc4065 = loc("multiply.14546")
#loc4066 = loc("multiply.14542")
#loc4067 = loc("add.14549")
#loc4068 = loc("concatenate.14560")
#loc4069 = loc("transpose.13941")
#loc4070 = loc("dot.14350")
#loc4071 = loc("reshape.14351")
#loc4072 = loc("broadcast.14354")
#loc4073 = loc("add.14355")
#loc4074 = loc("transpose.14357")
#loc4075 = loc("slice.14358")
#loc4076 = loc("multiply.14376")
#loc4077 = loc("slice.14363")
#loc4078 = loc("multiply.14373")
#loc4079 = loc("subtract.14379")
#loc4080 = loc("multiply.14366")
#loc4081 = loc("multiply.14361")
#loc4082 = loc("add.14369")
#loc4083 = loc("concatenate.14380")
#loc4084 = loc("scatter.14397")
#loc4085 = loc("broadcast.14516")
#loc4086 = loc("reshape.14517")
#loc4087 = loc("transpose.14518")
#loc4088 = loc("dot.14561")
#loc4089 = loc("multiply.14564")
#loc4090 = loc("add.14569")
#loc4091 = loc("reshape.14509")
#loc4092 = loc("reshape.14504")
#loc4093 = loc("broadcast.14510")
#loc4094 = loc("concatenate.14570")
#loc4095 = loc("reduce.14577")
#loc4096 = loc("broadcast.14613")
#loc4097 = loc("subtract.14614")
#loc4098 = loc("reduce.14620")
#loc4099 = loc("broadcast.14621")
#loc4100 = loc("subtract.14622")
#loc4101 = loc("exponential.14623")
#loc4102 = loc("reduce.14629")
#loc4103 = loc("broadcast.14630")
#loc4104 = loc("divide.14631")
#loc4105 = loc("slice.14632")
#loc4106 = loc("transpose.14408")
#loc4107 = loc("dot.14410")
#loc4108 = loc("reshape.14411")
#loc4109 = loc("broadcast.14414")
#loc4110 = loc("add.14415")
#loc4111 = loc("transpose.14417")
#loc4112 = loc("scatter.14434")
#loc4113 = loc("broadcast.14500")
#loc4114 = loc("reshape.14501")
#loc4115 = loc("dot.14633")
#loc4116 = loc("reshape.14637")
#loc4117 = loc("transpose.14496")
#loc4118 = loc("dot.14638")
#loc4119 = loc("reshape.14639")
#loc4120 = loc("broadcast.14642")
#loc4121 = loc("add.14643")
#loc4122 = loc("add.14646")
#loc4123 = loc("custom-call.14679")
#loc4124 = loc("reshape.14772")
#loc4125 = loc("concatenate.14773")
#loc4126 = loc("dot.14776")
#loc4127 = loc("broadcast.14780")
#loc4128 = loc("add.14781")
#loc4129 = loc("slice.14794")
#loc4130 = loc("clamp.14797")
#loc4131 = loc("add.14800")
#loc4132 = loc("slice.14782")
#loc4133 = loc("clamp.14785")
#loc4134 = loc("multiply.14787")
#loc4135 = loc("logistic.14788")
#loc4136 = loc("multiply.14789")
#loc4137 = loc("multiply.14801")
#loc4138 = loc("dot.14802")
#loc4139 = loc("broadcast.14806")
#loc4140 = loc("add.14807")
#loc4141 = loc("reshape.14808")
#loc4142 = loc("convert.14681")
#loc4143 = loc("transpose.14475")
#loc4144 = loc("convert.14476")
#loc4145 = loc("dot.14682")
#loc4146 = loc("convert.14464")
#loc4147 = loc("broadcast.14687")
#loc4148 = loc("add.14688")
#loc4149 = loc("convert.14689")
#loc4150 = loc("broadcast.14734")
#loc4151 = loc("compare.14735")
#loc4152 = loc("convert.14736")
#loc4153 = loc("convert.14737")
#loc4154 = loc("reduce.14716")
#loc4155 = loc("broadcast.14717")
#loc4156 = loc("subtract.14718")
#loc4157 = loc("exponential.14719")
#loc4158 = loc("reduce.14725")
#loc4159 = loc("broadcast.14726")
#loc4160 = loc("divide.14727")
#loc4161 = loc("broadcast.14739")
#loc4162 = loc("multiply.14740")
#loc4163 = loc("reduce.14747")
#loc4164 = loc("transpose.14748")
#loc4165 = loc("reshape.14749")
#loc4166 = loc("broadcast.14810")
#loc4167 = loc("multiply.14811")
#loc4168 = loc("reduce.14818")
#loc4169 = loc("add.14821")
#loc4170 = loc("custom-call.14854")
#loc4171 = loc("reshape.15036")
#loc4172 = loc("transpose.15035")
#loc4173 = loc("dot.15037")
#loc4174 = loc("reshape.15038")
#loc4175 = loc("broadcast.15041")
#loc4176 = loc("add.15042")
#loc4177 = loc("transpose.15044")
#loc4178 = loc("slice.15045")
#loc4179 = loc("multiply.15062")
#loc4180 = loc("slice.15049")
#loc4181 = loc("multiply.15059")
#loc4182 = loc("subtract.15065")
#loc4183 = loc("multiply.15052")
#loc4184 = loc("multiply.15048")
#loc4185 = loc("add.15055")
#loc4186 = loc("concatenate.15066")
#loc4187 = loc("transpose.14447")
#loc4188 = loc("dot.14856")
#loc4189 = loc("reshape.14857")
#loc4190 = loc("broadcast.14860")
#loc4191 = loc("add.14861")
#loc4192 = loc("transpose.14863")
#loc4193 = loc("slice.14864")
#loc4194 = loc("multiply.14882")
#loc4195 = loc("slice.14869")
#loc4196 = loc("multiply.14879")
#loc4197 = loc("subtract.14885")
#loc4198 = loc("multiply.14872")
#loc4199 = loc("multiply.14867")
#loc4200 = loc("add.14875")
#loc4201 = loc("concatenate.14886")
#loc4202 = loc("scatter.14903")
#loc4203 = loc("broadcast.15022")
#loc4204 = loc("reshape.15023")
#loc4205 = loc("transpose.15024")
#loc4206 = loc("dot.15067")
#loc4207 = loc("multiply.15070")
#loc4208 = loc("add.15075")
#loc4209 = loc("reshape.15015")
#loc4210 = loc("reshape.15010")
#loc4211 = loc("broadcast.15016")
#loc4212 = loc("concatenate.15076")
#loc4213 = loc("reduce.15083")
#loc4214 = loc("broadcast.15119")
#loc4215 = loc("subtract.15120")
#loc4216 = loc("reduce.15126")
#loc4217 = loc("broadcast.15127")
#loc4218 = loc("subtract.15128")
#loc4219 = loc("exponential.15129")
#loc4220 = loc("reduce.15135")
#loc4221 = loc("broadcast.15136")
#loc4222 = loc("divide.15137")
#loc4223 = loc("slice.15138")
#loc4224 = loc("transpose.14914")
#loc4225 = loc("dot.14916")
#loc4226 = loc("reshape.14917")
#loc4227 = loc("broadcast.14920")
#loc4228 = loc("add.14921")
#loc4229 = loc("transpose.14923")
#loc4230 = loc("scatter.14940")
#loc4231 = loc("broadcast.15006")
#loc4232 = loc("reshape.15007")
#loc4233 = loc("dot.15139")
#loc4234 = loc("reshape.15143")
#loc4235 = loc("transpose.15002")
#loc4236 = loc("dot.15144")
#loc4237 = loc("reshape.15145")
#loc4238 = loc("broadcast.15148")
#loc4239 = loc("add.15149")
#loc4240 = loc("add.15152")
#loc4241 = loc("custom-call.15185")
#loc4242 = loc("reshape.15278")
#loc4243 = loc("concatenate.15279")
#loc4244 = loc("dot.15282")
#loc4245 = loc("broadcast.15286")
#loc4246 = loc("add.15287")
#loc4247 = loc("slice.15300")
#loc4248 = loc("clamp.15303")
#loc4249 = loc("add.15306")
#loc4250 = loc("slice.15288")
#loc4251 = loc("clamp.15291")
#loc4252 = loc("multiply.15293")
#loc4253 = loc("logistic.15294")
#loc4254 = loc("multiply.15295")
#loc4255 = loc("multiply.15307")
#loc4256 = loc("dot.15308")
#loc4257 = loc("broadcast.15312")
#loc4258 = loc("add.15313")
#loc4259 = loc("reshape.15314")
#loc4260 = loc("convert.15187")
#loc4261 = loc("transpose.14981")
#loc4262 = loc("convert.14982")
#loc4263 = loc("dot.15188")
#loc4264 = loc("convert.14970")
#loc4265 = loc("broadcast.15193")
#loc4266 = loc("add.15194")
#loc4267 = loc("convert.15195")
#loc4268 = loc("broadcast.15240")
#loc4269 = loc("compare.15241")
#loc4270 = loc("convert.15242")
#loc4271 = loc("convert.15243")
#loc4272 = loc("reduce.15222")
#loc4273 = loc("broadcast.15223")
#loc4274 = loc("subtract.15224")
#loc4275 = loc("exponential.15225")
#loc4276 = loc("reduce.15231")
#loc4277 = loc("broadcast.15232")
#loc4278 = loc("divide.15233")
#loc4279 = loc("broadcast.15245")
#loc4280 = loc("multiply.15246")
#loc4281 = loc("reduce.15253")
#loc4282 = loc("transpose.15254")
#loc4283 = loc("reshape.15255")
#loc4284 = loc("broadcast.15316")
#loc4285 = loc("multiply.15317")
#loc4286 = loc("reduce.15324")
#loc4287 = loc("add.15327")
#loc4288 = loc("custom-call.15360")
#loc4289 = loc("reshape.15542")
#loc4290 = loc("transpose.15541")
#loc4291 = loc("dot.15543")
#loc4292 = loc("reshape.15544")
#loc4293 = loc("broadcast.15547")
#loc4294 = loc("add.15548")
#loc4295 = loc("transpose.15550")
#loc4296 = loc("slice.15551")
#loc4297 = loc("multiply.15568")
#loc4298 = loc("slice.15555")
#loc4299 = loc("multiply.15565")
#loc4300 = loc("subtract.15571")
#loc4301 = loc("multiply.15558")
#loc4302 = loc("multiply.15554")
#loc4303 = loc("add.15561")
#loc4304 = loc("concatenate.15572")
#loc4305 = loc("transpose.14953")
#loc4306 = loc("dot.15362")
#loc4307 = loc("reshape.15363")
#loc4308 = loc("broadcast.15366")
#loc4309 = loc("add.15367")
#loc4310 = loc("transpose.15369")
#loc4311 = loc("slice.15370")
#loc4312 = loc("multiply.15388")
#loc4313 = loc("slice.15375")
#loc4314 = loc("multiply.15385")
#loc4315 = loc("subtract.15391")
#loc4316 = loc("multiply.15378")
#loc4317 = loc("multiply.15373")
#loc4318 = loc("add.15381")
#loc4319 = loc("concatenate.15392")
#loc4320 = loc("scatter.15409")
#loc4321 = loc("broadcast.15528")
#loc4322 = loc("reshape.15529")
#loc4323 = loc("transpose.15530")
#loc4324 = loc("dot.15573")
#loc4325 = loc("multiply.15576")
#loc4326 = loc("add.15581")
#loc4327 = loc("reshape.15521")
#loc4328 = loc("reshape.15516")
#loc4329 = loc("broadcast.15522")
#loc4330 = loc("concatenate.15582")
#loc4331 = loc("reduce.15589")
#loc4332 = loc("broadcast.15625")
#loc4333 = loc("subtract.15626")
#loc4334 = loc("reduce.15632")
#loc4335 = loc("broadcast.15633")
#loc4336 = loc("subtract.15634")
#loc4337 = loc("exponential.15635")
#loc4338 = loc("reduce.15641")
#loc4339 = loc("broadcast.15642")
#loc4340 = loc("divide.15643")
#loc4341 = loc("slice.15644")
#loc4342 = loc("transpose.15420")
#loc4343 = loc("dot.15422")
#loc4344 = loc("reshape.15423")
#loc4345 = loc("broadcast.15426")
#loc4346 = loc("add.15427")
#loc4347 = loc("transpose.15429")
#loc4348 = loc("scatter.15446")
#loc4349 = loc("broadcast.15512")
#loc4350 = loc("reshape.15513")
#loc4351 = loc("dot.15645")
#loc4352 = loc("reshape.15649")
#loc4353 = loc("transpose.15508")
#loc4354 = loc("dot.15650")
#loc4355 = loc("reshape.15651")
#loc4356 = loc("broadcast.15654")
#loc4357 = loc("add.15655")
#loc4358 = loc("add.15658")
#loc4359 = loc("custom-call.15691")
#loc4360 = loc("reshape.15784")
#loc4361 = loc("concatenate.15785")
#loc4362 = loc("dot.15788")
#loc4363 = loc("broadcast.15792")
#loc4364 = loc("add.15793")
#loc4365 = loc("slice.15806")
#loc4366 = loc("clamp.15809")
#loc4367 = loc("add.15812")
#loc4368 = loc("slice.15794")
#loc4369 = loc("clamp.15797")
#loc4370 = loc("multiply.15799")
#loc4371 = loc("logistic.15800")
#loc4372 = loc("multiply.15801")
#loc4373 = loc("multiply.15813")
#loc4374 = loc("dot.15814")
#loc4375 = loc("broadcast.15818")
#loc4376 = loc("add.15819")
#loc4377 = loc("reshape.15820")
#loc4378 = loc("convert.15693")
#loc4379 = loc("transpose.15487")
#loc4380 = loc("convert.15488")
#loc4381 = loc("dot.15694")
#loc4382 = loc("convert.15476")
#loc4383 = loc("broadcast.15699")
#loc4384 = loc("add.15700")
#loc4385 = loc("convert.15701")
#loc4386 = loc("broadcast.15746")
#loc4387 = loc("compare.15747")
#loc4388 = loc("convert.15748")
#loc4389 = loc("convert.15749")
#loc4390 = loc("reduce.15728")
#loc4391 = loc("broadcast.15729")
#loc4392 = loc("subtract.15730")
#loc4393 = loc("exponential.15731")
#loc4394 = loc("reduce.15737")
#loc4395 = loc("broadcast.15738")
#loc4396 = loc("divide.15739")
#loc4397 = loc("broadcast.15751")
#loc4398 = loc("multiply.15752")
#loc4399 = loc("reduce.15759")
#loc4400 = loc("transpose.15760")
#loc4401 = loc("reshape.15761")
#loc4402 = loc("broadcast.15822")
#loc4403 = loc("multiply.15823")
#loc4404 = loc("reduce.15830")
#loc4405 = loc("add.15833")
#loc4406 = loc("custom-call.15866")
#loc4407 = loc("reshape.16048")
#loc4408 = loc("transpose.16047")
#loc4409 = loc("dot.16049")
#loc4410 = loc("reshape.16050")
#loc4411 = loc("broadcast.16053")
#loc4412 = loc("add.16054")
#loc4413 = loc("transpose.16056")
#loc4414 = loc("slice.16057")
#loc4415 = loc("multiply.16074")
#loc4416 = loc("slice.16061")
#loc4417 = loc("multiply.16071")
#loc4418 = loc("subtract.16077")
#loc4419 = loc("multiply.16064")
#loc4420 = loc("multiply.16060")
#loc4421 = loc("add.16067")
#loc4422 = loc("concatenate.16078")
#loc4423 = loc("transpose.15459")
#loc4424 = loc("dot.15868")
#loc4425 = loc("reshape.15869")
#loc4426 = loc("broadcast.15872")
#loc4427 = loc("add.15873")
#loc4428 = loc("transpose.15875")
#loc4429 = loc("slice.15876")
#loc4430 = loc("multiply.15894")
#loc4431 = loc("slice.15881")
#loc4432 = loc("multiply.15891")
#loc4433 = loc("subtract.15897")
#loc4434 = loc("multiply.15884")
#loc4435 = loc("multiply.15879")
#loc4436 = loc("add.15887")
#loc4437 = loc("concatenate.15898")
#loc4438 = loc("scatter.15915")
#loc4439 = loc("broadcast.16034")
#loc4440 = loc("reshape.16035")
#loc4441 = loc("transpose.16036")
#loc4442 = loc("dot.16079")
#loc4443 = loc("multiply.16082")
#loc4444 = loc("add.16087")
#loc4445 = loc("reshape.16027")
#loc4446 = loc("reshape.16022")
#loc4447 = loc("broadcast.16028")
#loc4448 = loc("concatenate.16088")
#loc4449 = loc("reduce.16095")
#loc4450 = loc("broadcast.16131")
#loc4451 = loc("subtract.16132")
#loc4452 = loc("reduce.16138")
#loc4453 = loc("broadcast.16139")
#loc4454 = loc("subtract.16140")
#loc4455 = loc("exponential.16141")
#loc4456 = loc("reduce.16147")
#loc4457 = loc("broadcast.16148")
#loc4458 = loc("divide.16149")
#loc4459 = loc("slice.16150")
#loc4460 = loc("transpose.15926")
#loc4461 = loc("dot.15928")
#loc4462 = loc("reshape.15929")
#loc4463 = loc("broadcast.15932")
#loc4464 = loc("add.15933")
#loc4465 = loc("transpose.15935")
#loc4466 = loc("scatter.15952")
#loc4467 = loc("broadcast.16018")
#loc4468 = loc("reshape.16019")
#loc4469 = loc("dot.16151")
#loc4470 = loc("reshape.16155")
#loc4471 = loc("transpose.16014")
#loc4472 = loc("dot.16156")
#loc4473 = loc("reshape.16157")
#loc4474 = loc("broadcast.16160")
#loc4475 = loc("add.16161")
#loc4476 = loc("add.16164")
#loc4477 = loc("custom-call.16197")
#loc4478 = loc("reshape.16290")
#loc4479 = loc("concatenate.16291")
#loc4480 = loc("dot.16294")
#loc4481 = loc("broadcast.16298")
#loc4482 = loc("add.16299")
#loc4483 = loc("slice.16312")
#loc4484 = loc("clamp.16315")
#loc4485 = loc("add.16318")
#loc4486 = loc("slice.16300")
#loc4487 = loc("clamp.16303")
#loc4488 = loc("multiply.16305")
#loc4489 = loc("logistic.16306")
#loc4490 = loc("multiply.16307")
#loc4491 = loc("multiply.16319")
#loc4492 = loc("dot.16320")
#loc4493 = loc("broadcast.16324")
#loc4494 = loc("add.16325")
#loc4495 = loc("reshape.16326")
#loc4496 = loc("convert.16199")
#loc4497 = loc("transpose.15993")
#loc4498 = loc("convert.15994")
#loc4499 = loc("dot.16200")
#loc4500 = loc("convert.15982")
#loc4501 = loc("broadcast.16205")
#loc4502 = loc("add.16206")
#loc4503 = loc("convert.16207")
#loc4504 = loc("broadcast.16252")
#loc4505 = loc("compare.16253")
#loc4506 = loc("convert.16254")
#loc4507 = loc("convert.16255")
#loc4508 = loc("reduce.16234")
#loc4509 = loc("broadcast.16235")
#loc4510 = loc("subtract.16236")
#loc4511 = loc("exponential.16237")
#loc4512 = loc("reduce.16243")
#loc4513 = loc("broadcast.16244")
#loc4514 = loc("divide.16245")
#loc4515 = loc("broadcast.16257")
#loc4516 = loc("multiply.16258")
#loc4517 = loc("reduce.16265")
#loc4518 = loc("transpose.16266")
#loc4519 = loc("reshape.16267")
#loc4520 = loc("broadcast.16328")
#loc4521 = loc("multiply.16329")
#loc4522 = loc("reduce.16336")
#loc4523 = loc("add.16339")
#loc4524 = loc("custom-call.16372")
#loc4525 = loc("reshape.16554")
#loc4526 = loc("transpose.16553")
#loc4527 = loc("dot.16555")
#loc4528 = loc("reshape.16556")
#loc4529 = loc("broadcast.16559")
#loc4530 = loc("add.16560")
#loc4531 = loc("transpose.16562")
#loc4532 = loc("slice.16563")
#loc4533 = loc("multiply.16580")
#loc4534 = loc("slice.16567")
#loc4535 = loc("multiply.16577")
#loc4536 = loc("subtract.16583")
#loc4537 = loc("multiply.16570")
#loc4538 = loc("multiply.16566")
#loc4539 = loc("add.16573")
#loc4540 = loc("concatenate.16584")
#loc4541 = loc("transpose.15965")
#loc4542 = loc("dot.16374")
#loc4543 = loc("reshape.16375")
#loc4544 = loc("broadcast.16378")
#loc4545 = loc("add.16379")
#loc4546 = loc("transpose.16381")
#loc4547 = loc("slice.16382")
#loc4548 = loc("multiply.16400")
#loc4549 = loc("slice.16387")
#loc4550 = loc("multiply.16397")
#loc4551 = loc("subtract.16403")
#loc4552 = loc("multiply.16390")
#loc4553 = loc("multiply.16385")
#loc4554 = loc("add.16393")
#loc4555 = loc("concatenate.16404")
#loc4556 = loc("scatter.16421")
#loc4557 = loc("broadcast.16540")
#loc4558 = loc("reshape.16541")
#loc4559 = loc("transpose.16542")
#loc4560 = loc("dot.16585")
#loc4561 = loc("multiply.16588")
#loc4562 = loc("add.16593")
#loc4563 = loc("reshape.16533")
#loc4564 = loc("reshape.16528")
#loc4565 = loc("broadcast.16534")
#loc4566 = loc("concatenate.16594")
#loc4567 = loc("reduce.16601")
#loc4568 = loc("broadcast.16637")
#loc4569 = loc("subtract.16638")
#loc4570 = loc("reduce.16644")
#loc4571 = loc("broadcast.16645")
#loc4572 = loc("subtract.16646")
#loc4573 = loc("exponential.16647")
#loc4574 = loc("reduce.16653")
#loc4575 = loc("broadcast.16654")
#loc4576 = loc("divide.16655")
#loc4577 = loc("slice.16656")
#loc4578 = loc("transpose.16432")
#loc4579 = loc("dot.16434")
#loc4580 = loc("reshape.16435")
#loc4581 = loc("broadcast.16438")
#loc4582 = loc("add.16439")
#loc4583 = loc("transpose.16441")
#loc4584 = loc("scatter.16458")
#loc4585 = loc("broadcast.16524")
#loc4586 = loc("reshape.16525")
#loc4587 = loc("dot.16657")
#loc4588 = loc("reshape.16661")
#loc4589 = loc("transpose.16520")
#loc4590 = loc("dot.16662")
#loc4591 = loc("reshape.16663")
#loc4592 = loc("broadcast.16666")
#loc4593 = loc("add.16667")
#loc4594 = loc("add.16670")
#loc4595 = loc("custom-call.16703")
#loc4596 = loc("reshape.16796")
#loc4597 = loc("concatenate.16797")
#loc4598 = loc("dot.16800")
#loc4599 = loc("broadcast.16804")
#loc4600 = loc("add.16805")
#loc4601 = loc("slice.16818")
#loc4602 = loc("clamp.16821")
#loc4603 = loc("add.16824")
#loc4604 = loc("slice.16806")
#loc4605 = loc("clamp.16809")
#loc4606 = loc("multiply.16811")
#loc4607 = loc("logistic.16812")
#loc4608 = loc("multiply.16813")
#loc4609 = loc("multiply.16825")
#loc4610 = loc("dot.16826")
#loc4611 = loc("broadcast.16830")
#loc4612 = loc("add.16831")
#loc4613 = loc("reshape.16832")
#loc4614 = loc("convert.16705")
#loc4615 = loc("transpose.16499")
#loc4616 = loc("convert.16500")
#loc4617 = loc("dot.16706")
#loc4618 = loc("convert.16488")
#loc4619 = loc("broadcast.16711")
#loc4620 = loc("add.16712")
#loc4621 = loc("convert.16713")
#loc4622 = loc("broadcast.16758")
#loc4623 = loc("compare.16759")
#loc4624 = loc("convert.16760")
#loc4625 = loc("convert.16761")
#loc4626 = loc("reduce.16740")
#loc4627 = loc("broadcast.16741")
#loc4628 = loc("subtract.16742")
#loc4629 = loc("exponential.16743")
#loc4630 = loc("reduce.16749")
#loc4631 = loc("broadcast.16750")
#loc4632 = loc("divide.16751")
#loc4633 = loc("broadcast.16763")
#loc4634 = loc("multiply.16764")
#loc4635 = loc("reduce.16771")
#loc4636 = loc("transpose.16772")
#loc4637 = loc("reshape.16773")
#loc4638 = loc("broadcast.16834")
#loc4639 = loc("multiply.16835")
#loc4640 = loc("reduce.16842")
#loc4641 = loc("add.16845")
#loc4642 = loc("custom-call.16878")
#loc4643 = loc("reshape.17060")
#loc4644 = loc("transpose.17059")
#loc4645 = loc("dot.17061")
#loc4646 = loc("reshape.17062")
#loc4647 = loc("broadcast.17065")
#loc4648 = loc("add.17066")
#loc4649 = loc("transpose.17068")
#loc4650 = loc("slice.17069")
#loc4651 = loc("multiply.17086")
#loc4652 = loc("slice.17073")
#loc4653 = loc("multiply.17083")
#loc4654 = loc("subtract.17089")
#loc4655 = loc("multiply.17076")
#loc4656 = loc("multiply.17072")
#loc4657 = loc("add.17079")
#loc4658 = loc("concatenate.17090")
#loc4659 = loc("transpose.16471")
#loc4660 = loc("dot.16880")
#loc4661 = loc("reshape.16881")
#loc4662 = loc("broadcast.16884")
#loc4663 = loc("add.16885")
#loc4664 = loc("transpose.16887")
#loc4665 = loc("slice.16888")
#loc4666 = loc("multiply.16906")
#loc4667 = loc("slice.16893")
#loc4668 = loc("multiply.16903")
#loc4669 = loc("subtract.16909")
#loc4670 = loc("multiply.16896")
#loc4671 = loc("multiply.16891")
#loc4672 = loc("add.16899")
#loc4673 = loc("concatenate.16910")
#loc4674 = loc("scatter.16927")
#loc4675 = loc("broadcast.17046")
#loc4676 = loc("reshape.17047")
#loc4677 = loc("transpose.17048")
#loc4678 = loc("dot.17091")
#loc4679 = loc("multiply.17094")
#loc4680 = loc("add.17099")
#loc4681 = loc("reshape.17039")
#loc4682 = loc("reshape.17034")
#loc4683 = loc("broadcast.17040")
#loc4684 = loc("concatenate.17100")
#loc4685 = loc("reduce.17107")
#loc4686 = loc("broadcast.17143")
#loc4687 = loc("subtract.17144")
#loc4688 = loc("reduce.17150")
#loc4689 = loc("broadcast.17151")
#loc4690 = loc("subtract.17152")
#loc4691 = loc("exponential.17153")
#loc4692 = loc("reduce.17159")
#loc4693 = loc("broadcast.17160")
#loc4694 = loc("divide.17161")
#loc4695 = loc("slice.17162")
#loc4696 = loc("transpose.16938")
#loc4697 = loc("dot.16940")
#loc4698 = loc("reshape.16941")
#loc4699 = loc("broadcast.16944")
#loc4700 = loc("add.16945")
#loc4701 = loc("transpose.16947")
#loc4702 = loc("scatter.16964")
#loc4703 = loc("broadcast.17030")
#loc4704 = loc("reshape.17031")
#loc4705 = loc("dot.17163")
#loc4706 = loc("reshape.17167")
#loc4707 = loc("transpose.17026")
#loc4708 = loc("dot.17168")
#loc4709 = loc("reshape.17169")
#loc4710 = loc("broadcast.17172")
#loc4711 = loc("add.17173")
#loc4712 = loc("add.17176")
#loc4713 = loc("custom-call.17209")
#loc4714 = loc("reshape.17302")
#loc4715 = loc("concatenate.17303")
#loc4716 = loc("dot.17306")
#loc4717 = loc("broadcast.17310")
#loc4718 = loc("add.17311")
#loc4719 = loc("slice.17324")
#loc4720 = loc("clamp.17327")
#loc4721 = loc("add.17330")
#loc4722 = loc("slice.17312")
#loc4723 = loc("clamp.17315")
#loc4724 = loc("multiply.17317")
#loc4725 = loc("logistic.17318")
#loc4726 = loc("multiply.17319")
#loc4727 = loc("multiply.17331")
#loc4728 = loc("dot.17332")
#loc4729 = loc("broadcast.17336")
#loc4730 = loc("add.17337")
#loc4731 = loc("reshape.17338")
#loc4732 = loc("convert.17211")
#loc4733 = loc("transpose.17005")
#loc4734 = loc("convert.17006")
#loc4735 = loc("dot.17212")
#loc4736 = loc("convert.16994")
#loc4737 = loc("broadcast.17217")
#loc4738 = loc("add.17218")
#loc4739 = loc("convert.17219")
#loc4740 = loc("broadcast.17264")
#loc4741 = loc("compare.17265")
#loc4742 = loc("convert.17266")
#loc4743 = loc("convert.17267")
#loc4744 = loc("reduce.17246")
#loc4745 = loc("broadcast.17247")
#loc4746 = loc("subtract.17248")
#loc4747 = loc("exponential.17249")
#loc4748 = loc("reduce.17255")
#loc4749 = loc("broadcast.17256")
#loc4750 = loc("divide.17257")
#loc4751 = loc("broadcast.17269")
#loc4752 = loc("multiply.17270")
#loc4753 = loc("reduce.17277")
#loc4754 = loc("transpose.17278")
#loc4755 = loc("reshape.17279")
#loc4756 = loc("broadcast.17340")
#loc4757 = loc("multiply.17341")
#loc4758 = loc("reduce.17348")
#loc4759 = loc("add.17351")
#loc4760 = loc("custom-call.17384")
#loc4761 = loc("reshape.17566")
#loc4762 = loc("transpose.17565")
#loc4763 = loc("dot.17567")
#loc4764 = loc("reshape.17568")
#loc4765 = loc("broadcast.17571")
#loc4766 = loc("add.17572")
#loc4767 = loc("transpose.17574")
#loc4768 = loc("slice.17575")
#loc4769 = loc("multiply.17592")
#loc4770 = loc("slice.17579")
#loc4771 = loc("multiply.17589")
#loc4772 = loc("subtract.17595")
#loc4773 = loc("multiply.17582")
#loc4774 = loc("multiply.17578")
#loc4775 = loc("add.17585")
#loc4776 = loc("concatenate.17596")
#loc4777 = loc("transpose.16977")
#loc4778 = loc("dot.17386")
#loc4779 = loc("reshape.17387")
#loc4780 = loc("broadcast.17390")
#loc4781 = loc("add.17391")
#loc4782 = loc("transpose.17393")
#loc4783 = loc("slice.17394")
#loc4784 = loc("multiply.17412")
#loc4785 = loc("slice.17399")
#loc4786 = loc("multiply.17409")
#loc4787 = loc("subtract.17415")
#loc4788 = loc("multiply.17402")
#loc4789 = loc("multiply.17397")
#loc4790 = loc("add.17405")
#loc4791 = loc("concatenate.17416")
#loc4792 = loc("scatter.17433")
#loc4793 = loc("broadcast.17552")
#loc4794 = loc("reshape.17553")
#loc4795 = loc("transpose.17554")
#loc4796 = loc("dot.17597")
#loc4797 = loc("multiply.17600")
#loc4798 = loc("add.17605")
#loc4799 = loc("reshape.17545")
#loc4800 = loc("reshape.17540")
#loc4801 = loc("broadcast.17546")
#loc4802 = loc("concatenate.17606")
#loc4803 = loc("reduce.17613")
#loc4804 = loc("broadcast.17649")
#loc4805 = loc("subtract.17650")
#loc4806 = loc("reduce.17656")
#loc4807 = loc("broadcast.17657")
#loc4808 = loc("subtract.17658")
#loc4809 = loc("exponential.17659")
#loc4810 = loc("reduce.17665")
#loc4811 = loc("broadcast.17666")
#loc4812 = loc("divide.17667")
#loc4813 = loc("slice.17668")
#loc4814 = loc("transpose.17444")
#loc4815 = loc("dot.17446")
#loc4816 = loc("reshape.17447")
#loc4817 = loc("broadcast.17450")
#loc4818 = loc("add.17451")
#loc4819 = loc("transpose.17453")
#loc4820 = loc("scatter.17470")
#loc4821 = loc("broadcast.17536")
#loc4822 = loc("reshape.17537")
#loc4823 = loc("dot.17669")
#loc4824 = loc("reshape.17673")
#loc4825 = loc("transpose.17532")
#loc4826 = loc("dot.17674")
#loc4827 = loc("reshape.17675")
#loc4828 = loc("broadcast.17678")
#loc4829 = loc("add.17679")
#loc4830 = loc("add.17682")
#loc4831 = loc("custom-call.17715")
#loc4832 = loc("reshape.17808")
#loc4833 = loc("concatenate.17809")
#loc4834 = loc("dot.17812")
#loc4835 = loc("broadcast.17816")
#loc4836 = loc("add.17817")
#loc4837 = loc("slice.17830")
#loc4838 = loc("clamp.17833")
#loc4839 = loc("add.17836")
#loc4840 = loc("slice.17818")
#loc4841 = loc("clamp.17821")
#loc4842 = loc("multiply.17823")
#loc4843 = loc("logistic.17824")
#loc4844 = loc("multiply.17825")
#loc4845 = loc("multiply.17837")
#loc4846 = loc("dot.17838")
#loc4847 = loc("broadcast.17842")
#loc4848 = loc("add.17843")
#loc4849 = loc("reshape.17844")
#loc4850 = loc("convert.17717")
#loc4851 = loc("transpose.17511")
#loc4852 = loc("convert.17512")
#loc4853 = loc("dot.17718")
#loc4854 = loc("convert.17500")
#loc4855 = loc("broadcast.17723")
#loc4856 = loc("add.17724")
#loc4857 = loc("convert.17725")
#loc4858 = loc("broadcast.17770")
#loc4859 = loc("compare.17771")
#loc4860 = loc("convert.17772")
#loc4861 = loc("convert.17773")
#loc4862 = loc("reduce.17752")
#loc4863 = loc("broadcast.17753")
#loc4864 = loc("subtract.17754")
#loc4865 = loc("exponential.17755")
#loc4866 = loc("reduce.17761")
#loc4867 = loc("broadcast.17762")
#loc4868 = loc("divide.17763")
#loc4869 = loc("broadcast.17775")
#loc4870 = loc("multiply.17776")
#loc4871 = loc("reduce.17783")
#loc4872 = loc("transpose.17784")
#loc4873 = loc("reshape.17785")
#loc4874 = loc("broadcast.17846")
#loc4875 = loc("multiply.17847")
#loc4876 = loc("reduce.17854")
#loc4877 = loc("add.17857")
#loc4878 = loc("custom-call.17890")
#loc4879 = loc("reshape.18071")
#loc4880 = loc("transpose.18070")
#loc4881 = loc("dot.18072")
#loc4882 = loc("reshape.18073")
#loc4883 = loc("broadcast.18076")
#loc4884 = loc("add.18077")
#loc4885 = loc("transpose.18079")
#loc4886 = loc("slice.18080")
#loc4887 = loc("multiply.18097")
#loc4888 = loc("slice.18084")
#loc4889 = loc("multiply.18094")
#loc4890 = loc("subtract.18100")
#loc4891 = loc("multiply.18087")
#loc4892 = loc("multiply.18083")
#loc4893 = loc("add.18090")
#loc4894 = loc("concatenate.18101")
#loc4895 = loc("transpose.17483")
#loc4896 = loc("dot.17892")
#loc4897 = loc("reshape.17893")
#loc4898 = loc("broadcast.17896")
#loc4899 = loc("add.17897")
#loc4900 = loc("transpose.17899")
#loc4901 = loc("slice.17900")
#loc4902 = loc("multiply.17918")
#loc4903 = loc("slice.17905")
#loc4904 = loc("multiply.17915")
#loc4905 = loc("subtract.17921")
#loc4906 = loc("multiply.17908")
#loc4907 = loc("multiply.17903")
#loc4908 = loc("add.17911")
#loc4909 = loc("concatenate.17922")
#loc4910 = loc("scatter.17939")
#loc4911 = loc("broadcast.18057")
#loc4912 = loc("reshape.18058")
#loc4913 = loc("transpose.18059")
#loc4914 = loc("dot.18102")
#loc4915 = loc("multiply.18105")
#loc4916 = loc("add.18110")
#loc4917 = loc("reshape.18050")
#loc4918 = loc("reshape.18045")
#loc4919 = loc("broadcast.18051")
#loc4920 = loc("concatenate.18111")
#loc4921 = loc("transpose.17950")
#loc4922 = loc("dot.17952")
#loc4923 = loc("reshape.17953")
#loc4924 = loc("broadcast.17956")
#loc4925 = loc("add.17957")
#loc4926 = loc("transpose.17959")
#loc4927 = loc("scatter.17976")
#loc4928 = loc("add.17983")
#loc4929 = loc("reduce.18118")
#loc4930 = loc("broadcast.18154")
#loc4931 = loc("subtract.18155")
#loc4932 = loc("reduce.18161")
#loc4933 = loc("broadcast.18162")
#loc4934 = loc("subtract.18163")
#loc4935 = loc("exponential.18164")
#loc4936 = loc("reduce.18170")
#loc4937 = loc("broadcast.18171")
#loc4938 = loc("divide.18172")
#loc4939 = loc("slice.18173")
#loc4940 = loc("broadcast.18041")
#loc4941 = loc("reshape.18042")
#loc4942 = loc("dot.18174")
#loc4943 = loc("reshape.18178")
#loc4944 = loc("transpose.18037")
#loc4945 = loc("dot.18179")
#loc4946 = loc("reshape.18180")
#loc4947 = loc("broadcast.18183")
#loc4948 = loc("add.18184")
#loc4949 = loc("add.18187")
#loc4950 = loc("custom-call.18220")
#loc4951 = loc("reshape.18313")
#loc4952 = loc("concatenate.18314")
#loc4953 = loc("dot.18317")
#loc4954 = loc("broadcast.18321")
#loc4955 = loc("add.18322")
#loc4956 = loc("slice.18335")
#loc4957 = loc("clamp.18338")
#loc4958 = loc("add.18341")
#loc4959 = loc("slice.18323")
#loc4960 = loc("clamp.18326")
#loc4961 = loc("multiply.18328")
#loc4962 = loc("logistic.18329")
#loc4963 = loc("multiply.18330")
#loc4964 = loc("multiply.18342")
#loc4965 = loc("dot.18343")
#loc4966 = loc("broadcast.18347")
#loc4967 = loc("add.18348")
#loc4968 = loc("reshape.18349")
#loc4969 = loc("convert.18222")
#loc4970 = loc("transpose.18016")
#loc4971 = loc("convert.18017")
#loc4972 = loc("dot.18223")
#loc4973 = loc("convert.18005")
#loc4974 = loc("broadcast.18228")
#loc4975 = loc("add.18229")
#loc4976 = loc("convert.18230")
#loc4977 = loc("broadcast.18275")
#loc4978 = loc("compare.18276")
#loc4979 = loc("convert.18277")
#loc4980 = loc("convert.18278")
#loc4981 = loc("reduce.18257")
#loc4982 = loc("broadcast.18258")
#loc4983 = loc("subtract.18259")
#loc4984 = loc("exponential.18260")
#loc4985 = loc("reduce.18266")
#loc4986 = loc("broadcast.18267")
#loc4987 = loc("divide.18268")
#loc4988 = loc("broadcast.18280")
#loc4989 = loc("multiply.18281")
#loc4990 = loc("reduce.18288")
#loc4991 = loc("transpose.18289")
#loc4992 = loc("reshape.18290")
#loc4993 = loc("broadcast.18351")
#loc4994 = loc("multiply.18352")
#loc4995 = loc("reduce.18359")
#loc4996 = loc("add.18362")
#loc4997 = loc("custom-call.18395")
#loc4998 = loc("reshape.18396")
#loc4999 = loc("transpose.17988")
#loc5000 = loc("dot.18397")
#loc5001 = loc("reshape.18398")
#loc5002 = loc("reshape.18401")
#loc5003 = loc("iota.18404")
#loc5004 = loc("reduce.18429")
#loc5005 = loc("convert.18431")
#loc5006 = loc("reshape.18432")
#loc5007 = loc(fused[#loc694, #loc695])
#loc5008 = loc("gather.56_permuteInput"(#loc697))
#loc5009 = loc("gather.56_reshapeInput"(#loc697))
#loc5010 = loc("gather.56_reshapeStartIndices"(#loc697))
#loc5011 = loc("gather.56_reshapeOutput"(#loc697))
#loc5012 = loc("gather.56_permuteOutput"(#loc697))
#loc5013 = loc(fused[#loc708, #loc709])
#loc5014 = loc(fused[#loc760, #loc711])
#loc5015 = loc(fused[#loc771, #loc772])
#loc5016 = loc(fused[#loc778, #loc779])
#loc5017 = loc(fused[#loc898, #loc899])
#loc5018 = loc(fused[#loc905, #loc906])
#loc5019 = loc(fused[#loc1023, #loc1024])
#loc5020 = loc(fused[#loc1141, #loc1142])
#loc5021 = loc(fused[#loc1259, #loc1260])
#loc5022 = loc(fused[#loc1377, #loc1378])
#loc5023 = loc(fused[#loc1495, #loc1496])
#loc5024 = loc(fused[#loc1613, #loc1614])
#loc5025 = loc(fused[#loc1731, #loc1732])
#loc5026 = loc(fused[#loc1849, #loc1850])
#loc5027 = loc(fused[#loc1967, #loc1968])
#loc5028 = loc(fused[#loc2085, #loc2086])
#loc5029 = loc(fused[#loc2203, #loc2204])
#loc5030 = loc(fused[#loc2321, #loc2322])
#loc5031 = loc(fused[#loc2439, #loc2440])
#loc5032 = loc(fused[#loc2557, #loc2558])
#loc5033 = loc(fused[#loc2675, #loc2676])
#loc5034 = loc(fused[#loc2793, #loc2794])
#loc5035 = loc(fused[#loc2911, #loc2912])
#loc5036 = loc(fused[#loc3029, #loc3030])
#loc5037 = loc(fused[#loc3147, #loc3148])
#loc5038 = loc(fused[#loc3265, #loc3266])
#loc5039 = loc(fused[#loc3383, #loc3384])
#loc5040 = loc(fused[#loc3501, #loc3502])
#loc5041 = loc(fused[#loc3619, #loc3620])
#loc5042 = loc(fused[#loc3737, #loc3738])
#loc5043 = loc(fused[#loc3855, #loc3856])
#loc5044 = loc(fused[#loc3973, #loc3974])
#loc5045 = loc(fused[#loc4091, #loc4092])
#loc5046 = loc(fused[#loc4209, #loc4210])
#loc5047 = loc(fused[#loc4327, #loc4328])
#loc5048 = loc(fused[#loc4445, #loc4446])
#loc5049 = loc(fused[#loc4563, #loc4564])
#loc5050 = loc(fused[#loc4681, #loc4682])
#loc5051 = loc(fused[#loc4799, #loc4800])
#loc5052 = loc(fused[#loc4917, #loc4918])
