#loc1 = loc("p0.2")
#loc2 = loc("p1.7")
#loc3 = loc("p2.15")
#loc4 = loc("p3.19")
#loc5 = loc("p4.32")
#loc6 = loc("p5.38")
#loc7 = loc("p6.43")
#loc8 = loc("p7.49")
#loc9 = loc("p8.54")
#loc10 = loc("p9.139")
#loc11 = loc("p10.144")
#loc12 = loc("p11.152")
#loc13 = loc("p12.156")
#loc14 = loc("p13.163")
#loc15 = loc("p14.167")
#loc16 = loc("p15.173")
#loc17 = loc("p16.177")
#loc18 = loc("p17.183")
#loc19 = loc("p18.188")
#loc20 = loc("p19.197")
#loc21 = loc("p20.201")
#loc22 = loc("p21.207")
#loc23 = loc("p22.211")
#loc24 = loc("p23.217")
#loc25 = loc("p24.222")
#loc26 = loc("p25.231")
#loc27 = loc("p26.235")
#loc28 = loc("p27.241")
#loc29 = loc("p28.245")
#loc30 = loc("p29.251")
#loc31 = loc("p30.256")
#loc32 = loc("p31.265")
#loc33 = loc("p32.269")
#loc34 = loc("p33.275")
#loc35 = loc("p34.279")
#loc36 = loc("p35.285")
#loc37 = loc("p36.290")
#loc38 = loc("p37.299")
#loc39 = loc("p38.303")
#loc40 = loc("p39.309")
#loc41 = loc("p40.313")
#loc42 = loc("p41.319")
#loc43 = loc("p42.324")
#loc44 = loc("p43.333")
#loc45 = loc("p44.337")
#loc46 = loc("p45.343")
#loc47 = loc("p46.347")
#loc48 = loc("p47.353")
#loc49 = loc("p48.358")
#loc50 = loc("p49.367")
#loc51 = loc("p50.371")
#loc52 = loc("p51.377")
#loc53 = loc("p52.381")
#loc54 = loc("p53.387")
#loc55 = loc("p54.392")
#loc56 = loc("p55.401")
#loc57 = loc("p56.405")
#loc58 = loc("p57.411")
#loc59 = loc("p58.415")
#loc60 = loc("p59.421")
#loc61 = loc("p60.426")
#loc62 = loc("p61.435")
#loc63 = loc("p62.439")
#loc64 = loc("p63.445")
#loc65 = loc("p64.449")
#loc66 = loc("p65.455")
#loc67 = loc("p66.460")
#loc68 = loc("p67.469")
#loc69 = loc("p68.473")
#loc70 = loc("p69.479")
#loc71 = loc("p70.483")
#loc72 = loc("p71.489")
#loc73 = loc("p72.494")
#loc74 = loc("p73.503")
#loc75 = loc("p74.507")
#loc76 = loc("p75.513")
#loc77 = loc("p76.517")
#loc78 = loc("p77.523")
#loc79 = loc("p78.528")
#loc80 = loc("p79.537")
#loc81 = loc("p80.541")
#loc82 = loc("p81.547")
#loc83 = loc("p82.551")
#loc84 = loc("p83.557")
#loc85 = loc("p84.562")
#loc86 = loc("p85.571")
#loc87 = loc("p86.575")
#loc88 = loc("p87.581")
#loc89 = loc("p88.585")
#loc90 = loc("p89.591")
#loc91 = loc("p90.596")
#loc92 = loc("p91.605")
#loc93 = loc("p92.609")
#loc94 = loc("p93.615")
#loc95 = loc("p94.619")
#loc96 = loc("p95.625")
#loc97 = loc("p96.630")
#loc98 = loc("p97.639")
#loc99 = loc("p98.643")
#loc100 = loc("p99.649")
#loc101 = loc("p100.653")
#loc102 = loc("p101.659")
#loc103 = loc("p102.664")
#loc104 = loc("p103.673")
#loc105 = loc("p104.677")
#loc106 = loc("p105.683")
#loc107 = loc("p106.687")
#loc108 = loc("p107.693")
#loc109 = loc("p108.698")
#loc110 = loc("p109.707")
#loc111 = loc("p110.711")
#loc112 = loc("p111.717")
#loc113 = loc("p112.721")
#loc114 = loc("p113.727")
#loc115 = loc("p114.732")
#loc116 = loc("p115.741")
#loc117 = loc("p116.745")
#loc118 = loc("p117.751")
#loc119 = loc("p118.755")
#loc120 = loc("p119.761")
#loc121 = loc("p120.766")
#loc122 = loc("p121.775")
#loc123 = loc("p122.779")
#loc124 = loc("p123.785")
#loc125 = loc("p124.789")
#loc126 = loc("p125.795")
#loc127 = loc("p126.800")
#loc128 = loc("p127.809")
#loc129 = loc("p128.813")
#loc130 = loc("p129.819")
#loc131 = loc("p130.823")
#loc132 = loc("p131.829")
#loc133 = loc("p132.834")
#loc134 = loc("p133.843")
#loc135 = loc("p134.847")
#loc136 = loc("p135.853")
#loc137 = loc("p136.857")
#loc138 = loc("p137.863")
#loc139 = loc("p138.868")
#loc140 = loc("p139.877")
#loc141 = loc("p140.881")
#loc142 = loc("p141.887")
#loc143 = loc("p142.891")
#loc144 = loc("p143.897")
#loc145 = loc("p144.902")
#loc146 = loc("p145.911")
#loc147 = loc("p146.915")
#loc148 = loc("p147.921")
#loc149 = loc("p148.925")
#loc150 = loc("p149.931")
#loc151 = loc("p150.936")
#loc152 = loc("p151.945")
#loc153 = loc("p152.949")
#loc154 = loc("p153.955")
#loc155 = loc("p154.959")
#loc156 = loc("p155.965")
#loc157 = loc("p156.970")
#loc158 = loc("p157.979")
#loc159 = loc("p158.983")
#loc160 = loc("p159.989")
#loc161 = loc("p160.993")
#loc162 = loc("p161.999")
#loc163 = loc("p162.1004")
#loc164 = loc("p163.1013")
#loc165 = loc("p164.1017")
#loc166 = loc("p165.1023")
#loc167 = loc("p166.1027")
#loc168 = loc("p167.1033")
#loc169 = loc("p168.1038")
#loc170 = loc("p169.1047")
#loc171 = loc("p170.1051")
#loc172 = loc("p171.1057")
#loc173 = loc("p172.1061")
#loc174 = loc("p173.1067")
#loc175 = loc("p174.1072")
#loc176 = loc("p175.1081")
#loc177 = loc("p176.1085")
#loc178 = loc("p177.1091")
#loc179 = loc("p178.1095")
#loc180 = loc("p179.1101")
#loc181 = loc("p180.1106")
#loc182 = loc("p181.1115")
#loc183 = loc("p182.1119")
#loc184 = loc("p183.1125")
#loc185 = loc("p184.1129")
#loc186 = loc("p185.1135")
#loc187 = loc("p186.1140")
#loc188 = loc("p187.1149")
#loc189 = loc("p188.1153")
#loc190 = loc("p189.1159")
#loc191 = loc("p190.1163")
#loc192 = loc("p191.1169")
#loc193 = loc("p192.1174")
#loc194 = loc("p193.1183")
#loc195 = loc("p194.1187")
#loc196 = loc("p195.1193")
#loc197 = loc("p196.1197")
#loc198 = loc("p197.1203")
#loc199 = loc("p198.1208")
#loc200 = loc("p199.1217")
#loc201 = loc("p200.1221")
#loc202 = loc("p201.1227")
#loc203 = loc("p202.1231")
#loc204 = loc("p203.1237")
#loc205 = loc("p204.1242")
#loc206 = loc("p205.1251")
#loc207 = loc("p206.1255")
#loc208 = loc("p207.1261")
#loc209 = loc("p208.1265")
#loc210 = loc("p209.1271")
#loc211 = loc("p210.1276")
#loc212 = loc("p211.1285")
#loc213 = loc("p212.1289")
#loc214 = loc("p213.1295")
#loc215 = loc("p214.1299")
#loc216 = loc("p215.1305")
#loc217 = loc("p216.1310")
#loc218 = loc("p217.1319")
#loc219 = loc("p218.1323")
#loc220 = loc("p219.1329")
#loc221 = loc("p220.1333")
#loc222 = loc("p221.1339")
#loc223 = loc("p222.1344")
#loc224 = loc("p223.1353")
#loc225 = loc("p224.1357")
#loc226 = loc("p225.1363")
#loc227 = loc("p226.1367")
#loc228 = loc("p227.1373")
#loc229 = loc("p228.1378")
#loc230 = loc("p229.1387")
#loc231 = loc("p230.1391")
#loc232 = loc("p231.1397")
#loc233 = loc("p232.1401")
#loc234 = loc("p233.1407")
#loc235 = loc("p234.1412")
#loc236 = loc("p235.1421")
#loc237 = loc("p236.1425")
#loc238 = loc("p237.1431")
#loc239 = loc("p238.1435")
#loc240 = loc("p239.1441")
#loc241 = loc("p240.1446")
#loc242 = loc("p241.1455")
#loc243 = loc("p242.1459")
#loc244 = loc("p243.1465")
#loc245 = loc("p244.1469")
#loc246 = loc("p245.1475")
#loc247 = loc("p246.1480")
#loc248 = loc("p247.1489")
#loc249 = loc("p248.1493")
#loc250 = loc("p249.1499")
#loc251 = loc("p250.1503")
#loc252 = loc("p251.1509")
#loc253 = loc("p252.1514")
#loc254 = loc("p253.1523")
#loc255 = loc("p254.1527")
#loc256 = loc("p255.1533")
#loc257 = loc("p256.1537")
#loc258 = loc("p257.1543")
#loc259 = loc("p258.1548")
#loc260 = loc("p259.1557")
#loc261 = loc("p260.1561")
#loc262 = loc("p261.1567")
#loc263 = loc("p262.1571")
#loc264 = loc("p263.1577")
#loc265 = loc("p264.1582")
#loc266 = loc("p265.1591")
#loc267 = loc("p266.1595")
#loc268 = loc("p267.1601")
#loc269 = loc("p268.1605")
#loc270 = loc("p269.1611")
#loc271 = loc("p270.1616")
#loc272 = loc("p271.1625")
#loc273 = loc("p272.1629")
#loc274 = loc("p273.1635")
#loc275 = loc("p274.1639")
#loc276 = loc("p275.1645")
#loc277 = loc("p276.1650")
#loc278 = loc("p277.1659")
#loc279 = loc("p278.1663")
#loc280 = loc("p279.1669")
#loc281 = loc("p280.1673")
#loc282 = loc("p281.1679")
#loc283 = loc("p282.1684")
#loc284 = loc("p283.1693")
#loc285 = loc("p284.1697")
#loc286 = loc("p285.1703")
#loc287 = loc("p286.1707")
#loc288 = loc("p287.1713")
#loc289 = loc("p288.1718")
#loc290 = loc("p289.1727")
#loc291 = loc("p290.1731")
#loc292 = loc("p291.1737")
#loc293 = loc("p292.1741")
#loc294 = loc("p293.1747")
#loc295 = loc("p294.1752")
#loc296 = loc("p295.1761")
#loc297 = loc("p296.1765")
#loc298 = loc("p297.1771")
#loc299 = loc("p298.1775")
#loc300 = loc("p299.1781")
#loc301 = loc("p300.1786")
#loc302 = loc("p301.1795")
#loc303 = loc("p302.1799")
#loc304 = loc("p303.1805")
#loc305 = loc("p304.1809")
#loc306 = loc("p305.1815")
#loc307 = loc("p306.1820")
#loc308 = loc("p307.1829")
#loc309 = loc("p308.1833")
#loc310 = loc("p309.1839")
#loc311 = loc("p310.1843")
#loc312 = loc("p311.1849")
#loc313 = loc("p312.1854")
#loc314 = loc("p313.1863")
#loc315 = loc("p314.1867")
#loc316 = loc("p315.1873")
#loc317 = loc("p316.1877")
#loc318 = loc("p317.1883")
#loc319 = loc("p318.1888")
#loc320 = loc("p319.1897")
#loc321 = loc("p320.1901")
#loc322 = loc("p321.1907")
#loc323 = loc("p322.1911")
#loc324 = loc("p323.1917")
#loc325 = loc("p324.1922")
#loc326 = loc("p325.1931")
#loc327 = loc("p326.1935")
#loc328 = loc("p327.1941")
#loc329 = loc("p328.1945")
#loc330 = loc("p329.1951")
#loc331 = loc("p330.1956")
#loc332 = loc("p331.1965")
#loc333 = loc("p332.1969")
#loc334 = loc("p333.1975")
#loc335 = loc("p334.1979")
#loc336 = loc("p335.1985")
#loc337 = loc("p336.1990")
#loc338 = loc("p337.1999")
#loc339 = loc("p338.2003")
#loc340 = loc("p339.2009")
#loc341 = loc("p340.2013")
#loc342 = loc("p341.2019")
#loc343 = loc("p342.2024")
#loc344 = loc("p343.2033")
#loc345 = loc("p344.2037")
#loc346 = loc("p345.2043")
#loc347 = loc("p346.2047")
#loc348 = loc("p347.2053")
#loc349 = loc("p348.2058")
#loc350 = loc("p349.2067")
#loc351 = loc("p350.2071")
#loc352 = loc("p351.2077")
#loc353 = loc("p352.2081")
#loc354 = loc("p353.2087")
#loc355 = loc("p354.2092")
#loc356 = loc("p355.2101")
#loc357 = loc("p356.2105")
#loc358 = loc("p357.2111")
#loc359 = loc("p358.2115")
#loc360 = loc("p359.2121")
#loc361 = loc("p360.2126")
#loc362 = loc("p361.2135")
#loc363 = loc("p362.2139")
#loc364 = loc("p363.2145")
#loc365 = loc("p364.2149")
#loc366 = loc("p365.2155")
#loc367 = loc("p366.2160")
#loc368 = loc("p367.2169")
#loc369 = loc("p368.2173")
#loc370 = loc("p369.2179")
#loc371 = loc("p370.2183")
#loc372 = loc("p371.2189")
#loc373 = loc("p372.2194")
#loc374 = loc("p373.2203")
#loc375 = loc("p374.2207")
#loc376 = loc("p375.2213")
#loc377 = loc("p376.2217")
#loc378 = loc("p377.2223")
#loc379 = loc("p378.2228")
#loc380 = loc("p379.2237")
#loc381 = loc("p380.2241")
#loc382 = loc("p381.2247")
#loc383 = loc("p382.2251")
#loc384 = loc("p383.2257")
#loc385 = loc("p384.2262")
#loc386 = loc("p385.2270")
#loc387 = loc("p386.2275")
#loc388 = loc("p387.2283")
#loc389 = loc("p388.2288")
#loc390 = loc("p389.2295")
#loc391 = loc("p390.2297")
#loc392 = loc("p391.2302")
#loc393 = loc("p392.2478")
#loc394 = loc("p393.2482")
#loc395 = loc("p394.2502")
#loc396 = loc("p395.2506")
#loc397 = loc("p396.2788")
#loc398 = loc("p397.2792")
#loc399 = loc("p398.2812")
#loc400 = loc("p399.2816")
#loc401 = loc("p400.3098")
#loc402 = loc("p401.3102")
#loc403 = loc("p402.3122")
#loc404 = loc("p403.3126")
#loc405 = loc("p404.3408")
#loc406 = loc("p405.3412")
#loc407 = loc("p406.3432")
#loc408 = loc("p407.3436")
#loc409 = loc("p408.3718")
#loc410 = loc("p409.3722")
#loc411 = loc("p410.3742")
#loc412 = loc("p411.3746")
#loc413 = loc("p412.4028")
#loc414 = loc("p413.4032")
#loc415 = loc("p414.4052")
#loc416 = loc("p415.4056")
#loc417 = loc("p416.4338")
#loc418 = loc("p417.4342")
#loc419 = loc("p418.4362")
#loc420 = loc("p419.4366")
#loc421 = loc("p420.4648")
#loc422 = loc("p421.4652")
#loc423 = loc("p422.4672")
#loc424 = loc("p423.4676")
#loc425 = loc("p424.4958")
#loc426 = loc("p425.4962")
#loc427 = loc("p426.4982")
#loc428 = loc("p427.4986")
#loc429 = loc("p428.5268")
#loc430 = loc("p429.5272")
#loc431 = loc("p430.5292")
#loc432 = loc("p431.5296")
#loc433 = loc("p432.5578")
#loc434 = loc("p433.5582")
#loc435 = loc("p434.5602")
#loc436 = loc("p435.5606")
#loc437 = loc("p436.5888")
#loc438 = loc("p437.5892")
#loc439 = loc("p438.5912")
#loc440 = loc("p439.5916")
#loc441 = loc("p440.6198")
#loc442 = loc("p441.6202")
#loc443 = loc("p442.6222")
#loc444 = loc("p443.6226")
#loc445 = loc("p444.6508")
#loc446 = loc("p445.6512")
#loc447 = loc("p446.6532")
#loc448 = loc("p447.6536")
#loc449 = loc("p448.6818")
#loc450 = loc("p449.6822")
#loc451 = loc("p450.6842")
#loc452 = loc("p451.6846")
#loc453 = loc("p452.7128")
#loc454 = loc("p453.7132")
#loc455 = loc("p454.7152")
#loc456 = loc("p455.7156")
#loc457 = loc("p456.7438")
#loc458 = loc("p457.7442")
#loc459 = loc("p458.7462")
#loc460 = loc("p459.7466")
#loc461 = loc("p460.7748")
#loc462 = loc("p461.7752")
#loc463 = loc("p462.7772")
#loc464 = loc("p463.7776")
#loc465 = loc("p464.8058")
#loc466 = loc("p465.8062")
#loc467 = loc("p466.8082")
#loc468 = loc("p467.8086")
#loc469 = loc("p468.8368")
#loc470 = loc("p469.8372")
#loc471 = loc("p470.8392")
#loc472 = loc("p471.8396")
#loc473 = loc("p472.8678")
#loc474 = loc("p473.8682")
#loc475 = loc("p474.8702")
#loc476 = loc("p475.8706")
#loc477 = loc("p476.8988")
#loc478 = loc("p477.8992")
#loc479 = loc("p478.9012")
#loc480 = loc("p479.9016")
#loc481 = loc("p480.9298")
#loc482 = loc("p481.9302")
#loc483 = loc("p482.9322")
#loc484 = loc("p483.9326")
#loc485 = loc("p484.9608")
#loc486 = loc("p485.9612")
#loc487 = loc("p486.9632")
#loc488 = loc("p487.9636")
#loc489 = loc("p488.9918")
#loc490 = loc("p489.9922")
#loc491 = loc("p490.9942")
#loc492 = loc("p491.9946")
#loc493 = loc("p492.10228")
#loc494 = loc("p493.10232")
#loc495 = loc("p494.10252")
#loc496 = loc("p495.10256")
#loc497 = loc("p496.10538")
#loc498 = loc("p497.10542")
#loc499 = loc("p498.10562")
#loc500 = loc("p499.10566")
#loc501 = loc("p500.10848")
#loc502 = loc("p501.10852")
#loc503 = loc("p502.10872")
#loc504 = loc("p503.10876")
#loc505 = loc("p504.11158")
#loc506 = loc("p505.11162")
#loc507 = loc("p506.11182")
#loc508 = loc("p507.11186")
#loc509 = loc("p508.11468")
#loc510 = loc("p509.11472")
#loc511 = loc("p510.11492")
#loc512 = loc("p511.11496")
#loc513 = loc("p512.11778")
#loc514 = loc("p513.11782")
#loc515 = loc("p514.11802")
#loc516 = loc("p515.11806")
#loc517 = loc("p516.12091")
#loc518 = loc("p517.12106")
#loc519 = loc("p518.12186")
#loc520 = loc("p519.12191")
#loc521 = loc("p520.12197")
#loc522 = loc("p521.12202")
#loc523 = loc("p522.12309")
#loc524 = loc("p523.12314")
#loc525 = loc("p524.12320")
#loc526 = loc("p525.12325")
#loc527 = loc("p526.12410")
#loc528 = loc("p527.12415")
#loc529 = loc("p528.12507")
#loc530 = loc("p529.12522")
#loc531 = loc("p530.12602")
#loc532 = loc("p531.12607")
#loc533 = loc("p532.12613")
#loc534 = loc("p533.12618")
#loc535 = loc("p534.12725")
#loc536 = loc("p535.12730")
#loc537 = loc("p536.12736")
#loc538 = loc("p537.12741")
#loc539 = loc("p538.12826")
#loc540 = loc("p539.12831")
#loc541 = loc("p540.12923")
#loc542 = loc("p541.12938")
#loc543 = loc("p542.13018")
#loc544 = loc("p543.13023")
#loc545 = loc("p544.13029")
#loc546 = loc("p545.13034")
#loc547 = loc("p546.13141")
#loc548 = loc("p547.13146")
#loc549 = loc("p548.13152")
#loc550 = loc("p549.13157")
#loc551 = loc("p550.13242")
#loc552 = loc("p551.13247")
#loc553 = loc("p552.13339")
#loc554 = loc("p553.13354")
#loc555 = loc("p554.13434")
#loc556 = loc("p555.13439")
#loc557 = loc("p556.13445")
#loc558 = loc("p557.13450")
#loc645 = loc("reduce.2566")
#loc766 = loc("reduce.2876")
#loc887 = loc("reduce.3186")
#loc1008 = loc("reduce.3496")
#loc1129 = loc("reduce.3806")
#loc1250 = loc("reduce.4116")
#loc1371 = loc("reduce.4426")
#loc1492 = loc("reduce.4736")
#loc1613 = loc("reduce.5046")
#loc1734 = loc("reduce.5356")
#loc1855 = loc("reduce.5666")
#loc1976 = loc("reduce.5976")
#loc2097 = loc("reduce.6286")
#loc2218 = loc("reduce.6596")
#loc2339 = loc("reduce.6906")
#loc2460 = loc("reduce.7216")
#loc2581 = loc("reduce.7526")
#loc2702 = loc("reduce.7836")
#loc2823 = loc("reduce.8146")
#loc2944 = loc("reduce.8456")
#loc3065 = loc("reduce.8766")
#loc3186 = loc("reduce.9076")
#loc3307 = loc("reduce.9386")
#loc3428 = loc("reduce.9696")
#loc3549 = loc("reduce.10006")
#loc3670 = loc("reduce.10316")
#loc3791 = loc("reduce.10626")
#loc3912 = loc("reduce.10936")
#loc4033 = loc("reduce.11246")
#loc4154 = loc("reduce.11556")
#loc4275 = loc("reduce.11866")
#loc4388 = loc("reduce.12162")
#loc4486 = loc("reduce.12578")
#loc4584 = loc("reduce.12994")
#loc4682 = loc("reduce.13410")
#loc4759 = loc("custom-call.13457")
#loc4760 = loc("custom-call.13454")
#loc4761 = loc("custom-call.13449")
#loc4779 = loc("custom-call.13164")
#loc4780 = loc("custom-call.13161")
#loc4781 = loc("custom-call.13156")
#loc4799 = loc("custom-call.12748")
#loc4800 = loc("custom-call.12745")
#loc4801 = loc("custom-call.12740")
#loc4819 = loc("custom-call.12625")
#loc4820 = loc("custom-call.12622")
#loc4821 = loc("custom-call.12617")
#loc4839 = loc("custom-call.12422")
#loc4840 = loc("custom-call.12419")
#loc4841 = loc("custom-call.12414")
#loc4859 = loc("custom-call.13254")
#loc4860 = loc("custom-call.13251")
#loc4861 = loc("custom-call.13246")
#loc4879 = loc("custom-call.12332")
#loc4880 = loc("custom-call.12329")
#loc4881 = loc("custom-call.12324")
#loc4899 = loc("custom-call.12289")
#loc4905 = loc("custom-call.12006")
#loc4906 = loc("custom-call.148")
#loc4907 = loc("custom-call.143")
#loc4925 = loc("custom-call.11976")
#loc4931 = loc("custom-call.11666")
#loc4937 = loc("custom-call.11582")
#loc4938 = loc("custom-call.260")
#loc4939 = loc("custom-call.255")
#loc4957 = loc("custom-call.11379")
#loc4958 = loc("custom-call.294")
#loc4959 = loc("custom-call.289")
#loc4977 = loc("custom-call.11356")
#loc4983 = loc("custom-call.11046")
#loc4989 = loc("custom-call.10962")
#loc4990 = loc("custom-call.396")
#loc4991 = loc("custom-call.391")
#loc5009 = loc("custom-call.10736")
#loc5015 = loc("custom-call.10652")
#loc5016 = loc("custom-call.464")
#loc5017 = loc("custom-call.459")
#loc5035 = loc("custom-call.13041")
#loc5036 = loc("custom-call.13038")
#loc5037 = loc("custom-call.13033")
#loc5055 = loc("custom-call.10449")
#loc5056 = loc("custom-call.498")
#loc5057 = loc("custom-call.493")
#loc5075 = loc("custom-call.10426")
#loc5081 = loc("custom-call.10342")
#loc5082 = loc("custom-call.532")
#loc5083 = loc("custom-call.527")
#loc5101 = loc("custom-call.12838")
#loc5102 = loc("custom-call.12835")
#loc5103 = loc("custom-call.12830")
#loc5121 = loc("custom-call.10139")
#loc5122 = loc("custom-call.566")
#loc5123 = loc("custom-call.561")
#loc5141 = loc("custom-call.10032")
#loc5142 = loc("custom-call.600")
#loc5143 = loc("custom-call.595")
#loc5161 = loc("custom-call.9722")
#loc5162 = loc("custom-call.668")
#loc5163 = loc("custom-call.663")
#loc5181 = loc("custom-call.9496")
#loc5187 = loc("custom-call.8899")
#loc5188 = loc("custom-call.838")
#loc5189 = loc("custom-call.833")
#loc5207 = loc("custom-call.8876")
#loc5213 = loc("custom-call.13563")
#loc5214 = loc("custom-call.11")
#loc5215 = loc("custom-call.6")
#loc5233 = loc("custom-call.8589")
#loc5234 = loc("custom-call.906")
#loc5235 = loc("custom-call.901")
#loc5253 = loc("custom-call.8482")
#loc5254 = loc("custom-call.940")
#loc5255 = loc("custom-call.935")
#loc5273 = loc("custom-call.4762")
#loc5274 = loc("custom-call.1756")
#loc5275 = loc("custom-call.1751")
#loc5293 = loc("custom-call.2312")
#loc5294 = loc("custom-call.2279")
#loc5295 = loc("custom-call.2274")
#loc5313 = loc("custom-call.4536")
#loc5319 = loc("custom-call.3522")
#loc5320 = loc("custom-call.2028")
#loc5321 = loc("custom-call.2023")
#loc5339 = loc("custom-call.2592")
#loc5340 = loc("custom-call.2232")
#loc5341 = loc("custom-call.2227")
#loc5359 = loc("custom-call.10759")
#loc5360 = loc("custom-call.430")
#loc5361 = loc("custom-call.425")
#loc5379 = loc("custom-call.61")
#loc5380 = loc("custom-call.58")
#loc5381 = loc("custom-call.53")
#loc5399 = loc("custom-call.9209")
#loc5400 = loc("custom-call.770")
#loc5401 = loc("custom-call.765")
#loc5419 = loc("custom-call.4249")
#loc5420 = loc("custom-call.1858")
#loc5421 = loc("custom-call.1853")
#loc5439 = loc("custom-call.12705")
#loc5445 = loc("custom-call.6419")
#loc5446 = loc("custom-call.1382")
#loc5447 = loc("custom-call.1377")
#loc5465 = loc("custom-call.3939")
#loc5466 = loc("custom-call.1926")
#loc5467 = loc("custom-call.1921")
#loc5485 = loc("custom-call.9102")
#loc5486 = loc("custom-call.804")
#loc5487 = loc("custom-call.799")
#loc5505 = loc("custom-call.3916")
#loc5511 = loc("custom-call.5489")
#loc5512 = loc("custom-call.1586")
#loc5513 = loc("custom-call.1581")
#loc5531 = loc("custom-call.13121")
#loc5537 = loc("custom-call.6002")
#loc5538 = loc("custom-call.1484")
#loc5539 = loc("custom-call.1479")
#loc5557 = loc("custom-call.6312")
#loc5558 = loc("custom-call.1416")
#loc5559 = loc("custom-call.1411")
#loc5577 = loc("custom-call.4452")
#loc5578 = loc("custom-call.1824")
#loc5579 = loc("custom-call.1819")
#loc5597 = loc("custom-call.3629")
#loc5598 = loc("custom-call.1994")
#loc5599 = loc("custom-call.1989")
#loc5617 = loc("custom-call.7326")
#loc5623 = loc("custom-call.2389")
#loc5624 = loc("custom-call.2266")
#loc5625 = loc("custom-call.2261")
#loc5643 = loc("custom-call.5156")
#loc5649 = loc("custom-call.11272")
#loc5650 = loc("custom-call.328")
#loc5651 = loc("custom-call.323")
#loc5669 = loc("custom-call.4869")
#loc5670 = loc("custom-call.1722")
#loc5671 = loc("custom-call.1717")
#loc5689 = loc("custom-call.5799")
#loc5690 = loc("custom-call.1518")
#loc5691 = loc("custom-call.1513")
#loc5709 = loc("custom-call.4142")
#loc5710 = loc("custom-call.1892")
#loc5711 = loc("custom-call.1887")
#loc5729 = loc("custom-call.3319")
#loc5730 = loc("custom-call.2062")
#loc5731 = loc("custom-call.2057")
#loc5749 = loc("custom-call.13537")
#loc5755 = loc("custom-call.9829")
#loc5756 = loc("custom-call.634")
#loc5757 = loc("custom-call.629")
#loc5775 = loc("custom-call.8566")
#loc5781 = loc("custom-call.2902")
#loc5782 = loc("custom-call.2164")
#loc5783 = loc("custom-call.2159")
#loc5801 = loc("custom-call.2986")
#loc5807 = loc("custom-call.2676")
#loc5813 = loc("custom-call.6729")
#loc5814 = loc("custom-call.1314")
#loc5815 = loc("custom-call.1309")
#loc5833 = loc("custom-call.11069")
#loc5834 = loc("custom-call.362")
#loc5835 = loc("custom-call.357")
#loc5853 = loc("custom-call.4846")
#loc5859 = loc("custom-call.12209")
#loc5860 = loc("custom-call.12206")
#loc5861 = loc("custom-call.12201")
#loc5879 = loc("custom-call.9806")
#loc5885 = loc("custom-call.3832")
#loc5886 = loc("custom-call.1960")
#loc5887 = loc("custom-call.1955")
#loc5905 = loc("custom-call.3296")
#loc5911 = loc("custom-call.7016")
#loc5917 = loc("custom-call.7862")
#loc5918 = loc("custom-call.1076")
#loc5919 = loc("custom-call.1071")
#loc5937 = loc("custom-call.5179")
#loc5938 = loc("custom-call.1654")
#loc5939 = loc("custom-call.1649")
#loc5957 = loc("custom-call.5382")
#loc5958 = loc("custom-call.1620")
#loc5959 = loc("custom-call.1615")
#loc5977 = loc("custom-call.5466")
#loc5983 = loc("custom-call.5072")
#loc5984 = loc("custom-call.1688")
#loc5985 = loc("custom-call.1683")
#loc6003 = loc("custom-call.3212")
#loc6004 = loc("custom-call.2096")
#loc6005 = loc("custom-call.2091")
#loc6023 = loc("custom-call.5692")
#loc6024 = loc("custom-call.1552")
#loc6025 = loc("custom-call.1547")
#loc6043 = loc("custom-call.11892")
#loc6044 = loc("custom-call.192")
#loc6045 = loc("custom-call.187")
#loc6063 = loc("custom-call.9519")
#loc6064 = loc("custom-call.702")
#loc6065 = loc("custom-call.697")
#loc6083 = loc("custom-call.4226")
#loc6089 = loc("custom-call.5776")
#loc6095 = loc("custom-call.3009")
#loc6096 = loc("custom-call.2130")
#loc6097 = loc("custom-call.2125")
#loc6115 = loc("custom-call.6086")
#loc6121 = loc("custom-call.6396")
#loc6127 = loc("custom-call.8279")
#loc6128 = loc("custom-call.974")
#loc6129 = loc("custom-call.969")
#loc6147 = loc("custom-call.7039")
#loc6148 = loc("custom-call.1246")
#loc6149 = loc("custom-call.1241")
#loc6167 = loc("custom-call.3606")
#loc6173 = loc("custom-call.6622")
#loc6174 = loc("custom-call.1348")
#loc6175 = loc("custom-call.1343")
#loc6193 = loc("custom-call.9412")
#loc6194 = loc("custom-call.736")
#loc6195 = loc("custom-call.731")
#loc6213 = loc("custom-call.8792")
#loc6214 = loc("custom-call.872")
#loc6215 = loc("custom-call.867")
#loc6233 = loc("custom-call.6706")
#loc6239 = loc("custom-call.6109")
#loc6240 = loc("custom-call.1450")
#loc6241 = loc("custom-call.1445")
#loc6259 = loc("custom-call.6932")
#loc6260 = loc("custom-call.1280")
#loc6261 = loc("custom-call.1275")
#loc6279 = loc("custom-call.7242")
#loc6280 = loc("custom-call.1212")
#loc6281 = loc("custom-call.1207")
#loc6299 = loc("custom-call.7969")
#loc6300 = loc("custom-call.1042")
#loc6301 = loc("custom-call.1037")
#loc6319 = loc("custom-call.7349")
#loc6320 = loc("custom-call.1178")
#loc6321 = loc("custom-call.1173")
#loc6339 = loc("custom-call.10116")
#loc6345 = loc("custom-call.9186")
#loc6351 = loc("custom-call.7552")
#loc6352 = loc("custom-call.1144")
#loc6353 = loc("custom-call.1139")
#loc6371 = loc("custom-call.2699")
#loc6372 = loc("custom-call.2198")
#loc6373 = loc("custom-call.2193")
#loc6391 = loc("custom-call.7636")
#loc6397 = loc("custom-call.7659")
#loc6398 = loc("custom-call.1110")
#loc6399 = loc("custom-call.1105")
#loc6417 = loc("custom-call.4559")
#loc6418 = loc("custom-call.1790")
#loc6419 = loc("custom-call.1785")
#loc6437 = loc("custom-call.7946")
#loc6443 = loc("custom-call.11689")
#loc6444 = loc("custom-call.226")
#loc6445 = loc("custom-call.221")
#loc6463 = loc("custom-call.8172")
#loc6464 = loc("custom-call.1008")
#loc6465 = loc("custom-call.1003")
#loc6483 = loc("custom-call.8256")
module @SyncTensorsGraph.13641 attributes {mhlo.cross_program_prefetches = [], mhlo.input_output_alias = [], mhlo.is_dynamic = false, mhlo.use_auto_spmd_partitioning = false} {
  func.func @main(%arg0: tensor<2048xbf16> loc("p0.2"), %arg1: tensor<2048xbf16> loc("p1.7"), %arg2: tensor<2048xbf16> loc("p2.15"), %arg3: tensor<2048x1280xbf16> loc("p3.19"), %arg4: tensor<1x16x1280xbf16> loc("p4.32"), %arg5: tensor<1280x1280xbf16> loc("p5.38"), %arg6: tensor<1280x1280xbf16> loc("p6.43"), %arg7: tensor<1280xbf16> loc("p7.49"), %arg8: tensor<1280xbf16> loc("p8.54"), %arg9: tensor<1280xbf16> loc("p9.139"), %arg10: tensor<1280xbf16> loc("p10.144"), %arg11: tensor<1280xbf16> loc("p11.152"), %arg12: tensor<1280x1280xbf16> loc("p12.156"), %arg13: tensor<1280xbf16> loc("p13.163"), %arg14: tensor<1280x5120xbf16> loc("p14.167"), %arg15: tensor<5120xbf16> loc("p15.173"), %arg16: tensor<5120x1280xbf16> loc("p16.177"), %arg17: tensor<1280xbf16> loc("p17.183"), %arg18: tensor<1280xbf16> loc("p18.188"), %arg19: tensor<1280xbf16> loc("p19.197"), %arg20: tensor<1280x1280xbf16> loc("p20.201"), %arg21: tensor<1280xbf16> loc("p21.207"), %arg22: tensor<1280x1280xbf16> loc("p22.211"), %arg23: tensor<1280xbf16> loc("p23.217"), %arg24: tensor<1280xbf16> loc("p24.222"), %arg25: tensor<1280xbf16> loc("p25.231"), %arg26: tensor<1280x5120xbf16> loc("p26.235"), %arg27: tensor<5120xbf16> loc("p27.241"), %arg28: tensor<5120x1280xbf16> loc("p28.245"), %arg29: tensor<1280xbf16> loc("p29.251"), %arg30: tensor<1280xbf16> loc("p30.256"), %arg31: tensor<1280xbf16> loc("p31.265"), %arg32: tensor<1280x1280xbf16> loc("p32.269"), %arg33: tensor<1280xbf16> loc("p33.275"), %arg34: tensor<1280x1280xbf16> loc("p34.279"), %arg35: tensor<1280xbf16> loc("p35.285"), %arg36: tensor<1280xbf16> loc("p36.290"), %arg37: tensor<1280xbf16> loc("p37.299"), %arg38: tensor<1280x5120xbf16> loc("p38.303"), %arg39: tensor<5120xbf16> loc("p39.309"), %arg40: tensor<5120x1280xbf16> loc("p40.313"), %arg41: tensor<1280xbf16> loc("p41.319"), %arg42: tensor<1280xbf16> loc("p42.324"), %arg43: tensor<1280xbf16> loc("p43.333"), %arg44: tensor<1280x1280xbf16> loc("p44.337"), %arg45: tensor<1280xbf16> loc("p45.343"), %arg46: tensor<1280x1280xbf16> loc("p46.347"), %arg47: tensor<1280xbf16> loc("p47.353"), %arg48: tensor<1280xbf16> loc("p48.358"), %arg49: tensor<1280xbf16> loc("p49.367"), %arg50: tensor<1280x5120xbf16> loc("p50.371"), %arg51: tensor<5120xbf16> loc("p51.377"), %arg52: tensor<5120x1280xbf16> loc("p52.381"), %arg53: tensor<1280xbf16> loc("p53.387"), %arg54: tensor<1280xbf16> loc("p54.392"), %arg55: tensor<1280xbf16> loc("p55.401"), %arg56: tensor<1280x1280xbf16> loc("p56.405"), %arg57: tensor<1280xbf16> loc("p57.411"), %arg58: tensor<1280x1280xbf16> loc("p58.415"), %arg59: tensor<1280xbf16> loc("p59.421"), %arg60: tensor<1280xbf16> loc("p60.426"), %arg61: tensor<1280xbf16> loc("p61.435"), %arg62: tensor<1280x5120xbf16> loc("p62.439"), %arg63: tensor<5120xbf16> loc("p63.445"), %arg64: tensor<5120x1280xbf16> loc("p64.449"), %arg65: tensor<1280xbf16> loc("p65.455"), %arg66: tensor<1280xbf16> loc("p66.460"), %arg67: tensor<1280xbf16> loc("p67.469"), %arg68: tensor<1280x1280xbf16> loc("p68.473"), %arg69: tensor<1280xbf16> loc("p69.479"), %arg70: tensor<1280x1280xbf16> loc("p70.483"), %arg71: tensor<1280xbf16> loc("p71.489"), %arg72: tensor<1280xbf16> loc("p72.494"), %arg73: tensor<1280xbf16> loc("p73.503"), %arg74: tensor<1280x5120xbf16> loc("p74.507"), %arg75: tensor<5120xbf16> loc("p75.513"), %arg76: tensor<5120x1280xbf16> loc("p76.517"), %arg77: tensor<1280xbf16> loc("p77.523"), %arg78: tensor<1280xbf16> loc("p78.528"), %arg79: tensor<1280xbf16> loc("p79.537"), %arg80: tensor<1280x1280xbf16> loc("p80.541"), %arg81: tensor<1280xbf16> loc("p81.547"), %arg82: tensor<1280x1280xbf16> loc("p82.551"), %arg83: tensor<1280xbf16> loc("p83.557"), %arg84: tensor<1280xbf16> loc("p84.562"), %arg85: tensor<1280xbf16> loc("p85.571"), %arg86: tensor<1280x5120xbf16> loc("p86.575"), %arg87: tensor<5120xbf16> loc("p87.581"), %arg88: tensor<5120x1280xbf16> loc("p88.585"), %arg89: tensor<1280xbf16> loc("p89.591"), %arg90: tensor<1280xbf16> loc("p90.596"), %arg91: tensor<1280xbf16> loc("p91.605"), %arg92: tensor<1280x1280xbf16> loc("p92.609"), %arg93: tensor<1280xbf16> loc("p93.615"), %arg94: tensor<1280x1280xbf16> loc("p94.619"), %arg95: tensor<1280xbf16> loc("p95.625"), %arg96: tensor<1280xbf16> loc("p96.630"), %arg97: tensor<1280xbf16> loc("p97.639"), %arg98: tensor<1280x5120xbf16> loc("p98.643"), %arg99: tensor<5120xbf16> loc("p99.649"), %arg100: tensor<5120x1280xbf16> loc("p100.653"), %arg101: tensor<1280xbf16> loc("p101.659"), %arg102: tensor<1280xbf16> loc("p102.664"), %arg103: tensor<1280xbf16> loc("p103.673"), %arg104: tensor<1280x1280xbf16> loc("p104.677"), %arg105: tensor<1280xbf16> loc("p105.683"), %arg106: tensor<1280x1280xbf16> loc("p106.687"), %arg107: tensor<1280xbf16> loc("p107.693"), %arg108: tensor<1280xbf16> loc("p108.698"), %arg109: tensor<1280xbf16> loc("p109.707"), %arg110: tensor<1280x5120xbf16> loc("p110.711"), %arg111: tensor<5120xbf16> loc("p111.717"), %arg112: tensor<5120x1280xbf16> loc("p112.721"), %arg113: tensor<1280xbf16> loc("p113.727"), %arg114: tensor<1280xbf16> loc("p114.732"), %arg115: tensor<1280xbf16> loc("p115.741"), %arg116: tensor<1280x1280xbf16> loc("p116.745"), %arg117: tensor<1280xbf16> loc("p117.751"), %arg118: tensor<1280x1280xbf16> loc("p118.755"), %arg119: tensor<1280xbf16> loc("p119.761"), %arg120: tensor<1280xbf16> loc("p120.766"), %arg121: tensor<1280xbf16> loc("p121.775"), %arg122: tensor<1280x5120xbf16> loc("p122.779"), %arg123: tensor<5120xbf16> loc("p123.785"), %arg124: tensor<5120x1280xbf16> loc("p124.789"), %arg125: tensor<1280xbf16> loc("p125.795"), %arg126: tensor<1280xbf16> loc("p126.800"), %arg127: tensor<1280xbf16> loc("p127.809"), %arg128: tensor<1280x1280xbf16> loc("p128.813"), %arg129: tensor<1280xbf16> loc("p129.819"), %arg130: tensor<1280x1280xbf16> loc("p130.823"), %arg131: tensor<1280xbf16> loc("p131.829"), %arg132: tensor<1280xbf16> loc("p132.834"), %arg133: tensor<1280xbf16> loc("p133.843"), %arg134: tensor<1280x5120xbf16> loc("p134.847"), %arg135: tensor<5120xbf16> loc("p135.853"), %arg136: tensor<5120x1280xbf16> loc("p136.857"), %arg137: tensor<1280xbf16> loc("p137.863"), %arg138: tensor<1280xbf16> loc("p138.868"), %arg139: tensor<1280xbf16> loc("p139.877"), %arg140: tensor<1280x1280xbf16> loc("p140.881"), %arg141: tensor<1280xbf16> loc("p141.887"), %arg142: tensor<1280x1280xbf16> loc("p142.891"), %arg143: tensor<1280xbf16> loc("p143.897"), %arg144: tensor<1280xbf16> loc("p144.902"), %arg145: tensor<1280xbf16> loc("p145.911"), %arg146: tensor<1280x5120xbf16> loc("p146.915"), %arg147: tensor<5120xbf16> loc("p147.921"), %arg148: tensor<5120x1280xbf16> loc("p148.925"), %arg149: tensor<1280xbf16> loc("p149.931"), %arg150: tensor<1280xbf16> loc("p150.936"), %arg151: tensor<1280xbf16> loc("p151.945"), %arg152: tensor<1280x1280xbf16> loc("p152.949"), %arg153: tensor<1280xbf16> loc("p153.955"), %arg154: tensor<1280x1280xbf16> loc("p154.959"), %arg155: tensor<1280xbf16> loc("p155.965"), %arg156: tensor<1280xbf16> loc("p156.970"), %arg157: tensor<1280xbf16> loc("p157.979"), %arg158: tensor<1280x5120xbf16> loc("p158.983"), %arg159: tensor<5120xbf16> loc("p159.989"), %arg160: tensor<5120x1280xbf16> loc("p160.993"), %arg161: tensor<1280xbf16> loc("p161.999"), %arg162: tensor<1280xbf16> loc("p162.1004"), %arg163: tensor<1280xbf16> loc("p163.1013"), %arg164: tensor<1280x1280xbf16> loc("p164.1017"), %arg165: tensor<1280xbf16> loc("p165.1023"), %arg166: tensor<1280x1280xbf16> loc("p166.1027"), %arg167: tensor<1280xbf16> loc("p167.1033"), %arg168: tensor<1280xbf16> loc("p168.1038"), %arg169: tensor<1280xbf16> loc("p169.1047"), %arg170: tensor<1280x5120xbf16> loc("p170.1051"), %arg171: tensor<5120xbf16> loc("p171.1057"), %arg172: tensor<5120x1280xbf16> loc("p172.1061"), %arg173: tensor<1280xbf16> loc("p173.1067"), %arg174: tensor<1280xbf16> loc("p174.1072"), %arg175: tensor<1280xbf16> loc("p175.1081"), %arg176: tensor<1280x1280xbf16> loc("p176.1085"), %arg177: tensor<1280xbf16> loc("p177.1091"), %arg178: tensor<1280x1280xbf16> loc("p178.1095"), %arg179: tensor<1280xbf16> loc("p179.1101"), %arg180: tensor<1280xbf16> loc("p180.1106"), %arg181: tensor<1280xbf16> loc("p181.1115"), %arg182: tensor<1280x5120xbf16> loc("p182.1119"), %arg183: tensor<5120xbf16> loc("p183.1125"), %arg184: tensor<5120x1280xbf16> loc("p184.1129"), %arg185: tensor<1280xbf16> loc("p185.1135"), %arg186: tensor<1280xbf16> loc("p186.1140"), %arg187: tensor<1280xbf16> loc("p187.1149"), %arg188: tensor<1280x1280xbf16> loc("p188.1153"), %arg189: tensor<1280xbf16> loc("p189.1159"), %arg190: tensor<1280x1280xbf16> loc("p190.1163"), %arg191: tensor<1280xbf16> loc("p191.1169"), %arg192: tensor<1280xbf16> loc("p192.1174"), %arg193: tensor<1280xbf16> loc("p193.1183"), %arg194: tensor<1280x5120xbf16> loc("p194.1187"), %arg195: tensor<5120xbf16> loc("p195.1193"), %arg196: tensor<5120x1280xbf16> loc("p196.1197"), %arg197: tensor<1280xbf16> loc("p197.1203"), %arg198: tensor<1280xbf16> loc("p198.1208"), %arg199: tensor<1280xbf16> loc("p199.1217"), %arg200: tensor<1280x1280xbf16> loc("p200.1221"), %arg201: tensor<1280xbf16> loc("p201.1227"), %arg202: tensor<1280x1280xbf16> loc("p202.1231"), %arg203: tensor<1280xbf16> loc("p203.1237"), %arg204: tensor<1280xbf16> loc("p204.1242"), %arg205: tensor<1280xbf16> loc("p205.1251"), %arg206: tensor<1280x5120xbf16> loc("p206.1255"), %arg207: tensor<5120xbf16> loc("p207.1261"), %arg208: tensor<5120x1280xbf16> loc("p208.1265"), %arg209: tensor<1280xbf16> loc("p209.1271"), %arg210: tensor<1280xbf16> loc("p210.1276"), %arg211: tensor<1280xbf16> loc("p211.1285"), %arg212: tensor<1280x1280xbf16> loc("p212.1289"), %arg213: tensor<1280xbf16> loc("p213.1295"), %arg214: tensor<1280x1280xbf16> loc("p214.1299"), %arg215: tensor<1280xbf16> loc("p215.1305"), %arg216: tensor<1280xbf16> loc("p216.1310"), %arg217: tensor<1280xbf16> loc("p217.1319"), %arg218: tensor<1280x5120xbf16> loc("p218.1323"), %arg219: tensor<5120xbf16> loc("p219.1329"), %arg220: tensor<5120x1280xbf16> loc("p220.1333"), %arg221: tensor<1280xbf16> loc("p221.1339"), %arg222: tensor<1280xbf16> loc("p222.1344"), %arg223: tensor<1280xbf16> loc("p223.1353"), %arg224: tensor<1280x1280xbf16> loc("p224.1357"), %arg225: tensor<1280xbf16> loc("p225.1363"), %arg226: tensor<1280x1280xbf16> loc("p226.1367"), %arg227: tensor<1280xbf16> loc("p227.1373"), %arg228: tensor<1280xbf16> loc("p228.1378"), %arg229: tensor<1280xbf16> loc("p229.1387"), %arg230: tensor<1280x5120xbf16> loc("p230.1391"), %arg231: tensor<5120xbf16> loc("p231.1397"), %arg232: tensor<5120x1280xbf16> loc("p232.1401"), %arg233: tensor<1280xbf16> loc("p233.1407"), %arg234: tensor<1280xbf16> loc("p234.1412"), %arg235: tensor<1280xbf16> loc("p235.1421"), %arg236: tensor<1280x1280xbf16> loc("p236.1425"), %arg237: tensor<1280xbf16> loc("p237.1431"), %arg238: tensor<1280x1280xbf16> loc("p238.1435"), %arg239: tensor<1280xbf16> loc("p239.1441"), %arg240: tensor<1280xbf16> loc("p240.1446"), %arg241: tensor<1280xbf16> loc("p241.1455"), %arg242: tensor<1280x5120xbf16> loc("p242.1459"), %arg243: tensor<5120xbf16> loc("p243.1465"), %arg244: tensor<5120x1280xbf16> loc("p244.1469"), %arg245: tensor<1280xbf16> loc("p245.1475"), %arg246: tensor<1280xbf16> loc("p246.1480"), %arg247: tensor<1280xbf16> loc("p247.1489"), %arg248: tensor<1280x1280xbf16> loc("p248.1493"), %arg249: tensor<1280xbf16> loc("p249.1499"), %arg250: tensor<1280x1280xbf16> loc("p250.1503"), %arg251: tensor<1280xbf16> loc("p251.1509"), %arg252: tensor<1280xbf16> loc("p252.1514"), %arg253: tensor<1280xbf16> loc("p253.1523"), %arg254: tensor<1280x5120xbf16> loc("p254.1527"), %arg255: tensor<5120xbf16> loc("p255.1533"), %arg256: tensor<5120x1280xbf16> loc("p256.1537"), %arg257: tensor<1280xbf16> loc("p257.1543"), %arg258: tensor<1280xbf16> loc("p258.1548"), %arg259: tensor<1280xbf16> loc("p259.1557"), %arg260: tensor<1280x1280xbf16> loc("p260.1561"), %arg261: tensor<1280xbf16> loc("p261.1567"), %arg262: tensor<1280x1280xbf16> loc("p262.1571"), %arg263: tensor<1280xbf16> loc("p263.1577"), %arg264: tensor<1280xbf16> loc("p264.1582"), %arg265: tensor<1280xbf16> loc("p265.1591"), %arg266: tensor<1280x5120xbf16> loc("p266.1595"), %arg267: tensor<5120xbf16> loc("p267.1601"), %arg268: tensor<5120x1280xbf16> loc("p268.1605"), %arg269: tensor<1280xbf16> loc("p269.1611"), %arg270: tensor<1280xbf16> loc("p270.1616"), %arg271: tensor<1280xbf16> loc("p271.1625"), %arg272: tensor<1280x1280xbf16> loc("p272.1629"), %arg273: tensor<1280xbf16> loc("p273.1635"), %arg274: tensor<1280x1280xbf16> loc("p274.1639"), %arg275: tensor<1280xbf16> loc("p275.1645"), %arg276: tensor<1280xbf16> loc("p276.1650"), %arg277: tensor<1280xbf16> loc("p277.1659"), %arg278: tensor<1280x5120xbf16> loc("p278.1663"), %arg279: tensor<5120xbf16> loc("p279.1669"), %arg280: tensor<5120x1280xbf16> loc("p280.1673"), %arg281: tensor<1280xbf16> loc("p281.1679"), %arg282: tensor<1280xbf16> loc("p282.1684"), %arg283: tensor<1280xbf16> loc("p283.1693"), %arg284: tensor<1280x1280xbf16> loc("p284.1697"), %arg285: tensor<1280xbf16> loc("p285.1703"), %arg286: tensor<1280x1280xbf16> loc("p286.1707"), %arg287: tensor<1280xbf16> loc("p287.1713"), %arg288: tensor<1280xbf16> loc("p288.1718"), %arg289: tensor<1280xbf16> loc("p289.1727"), %arg290: tensor<1280x5120xbf16> loc("p290.1731"), %arg291: tensor<5120xbf16> loc("p291.1737"), %arg292: tensor<5120x1280xbf16> loc("p292.1741"), %arg293: tensor<1280xbf16> loc("p293.1747"), %arg294: tensor<1280xbf16> loc("p294.1752"), %arg295: tensor<1280xbf16> loc("p295.1761"), %arg296: tensor<1280x1280xbf16> loc("p296.1765"), %arg297: tensor<1280xbf16> loc("p297.1771"), %arg298: tensor<1280x1280xbf16> loc("p298.1775"), %arg299: tensor<1280xbf16> loc("p299.1781"), %arg300: tensor<1280xbf16> loc("p300.1786"), %arg301: tensor<1280xbf16> loc("p301.1795"), %arg302: tensor<1280x5120xbf16> loc("p302.1799"), %arg303: tensor<5120xbf16> loc("p303.1805"), %arg304: tensor<5120x1280xbf16> loc("p304.1809"), %arg305: tensor<1280xbf16> loc("p305.1815"), %arg306: tensor<1280xbf16> loc("p306.1820"), %arg307: tensor<1280xbf16> loc("p307.1829"), %arg308: tensor<1280x1280xbf16> loc("p308.1833"), %arg309: tensor<1280xbf16> loc("p309.1839"), %arg310: tensor<1280x1280xbf16> loc("p310.1843"), %arg311: tensor<1280xbf16> loc("p311.1849"), %arg312: tensor<1280xbf16> loc("p312.1854"), %arg313: tensor<1280xbf16> loc("p313.1863"), %arg314: tensor<1280x5120xbf16> loc("p314.1867"), %arg315: tensor<5120xbf16> loc("p315.1873"), %arg316: tensor<5120x1280xbf16> loc("p316.1877"), %arg317: tensor<1280xbf16> loc("p317.1883"), %arg318: tensor<1280xbf16> loc("p318.1888"), %arg319: tensor<1280xbf16> loc("p319.1897"), %arg320: tensor<1280x1280xbf16> loc("p320.1901"), %arg321: tensor<1280xbf16> loc("p321.1907"), %arg322: tensor<1280x1280xbf16> loc("p322.1911"), %arg323: tensor<1280xbf16> loc("p323.1917"), %arg324: tensor<1280xbf16> loc("p324.1922"), %arg325: tensor<1280xbf16> loc("p325.1931"), %arg326: tensor<1280x5120xbf16> loc("p326.1935"), %arg327: tensor<5120xbf16> loc("p327.1941"), %arg328: tensor<5120x1280xbf16> loc("p328.1945"), %arg329: tensor<1280xbf16> loc("p329.1951"), %arg330: tensor<1280xbf16> loc("p330.1956"), %arg331: tensor<1280xbf16> loc("p331.1965"), %arg332: tensor<1280x1280xbf16> loc("p332.1969"), %arg333: tensor<1280xbf16> loc("p333.1975"), %arg334: tensor<1280x1280xbf16> loc("p334.1979"), %arg335: tensor<1280xbf16> loc("p335.1985"), %arg336: tensor<1280xbf16> loc("p336.1990"), %arg337: tensor<1280xbf16> loc("p337.1999"), %arg338: tensor<1280x5120xbf16> loc("p338.2003"), %arg339: tensor<5120xbf16> loc("p339.2009"), %arg340: tensor<5120x1280xbf16> loc("p340.2013"), %arg341: tensor<1280xbf16> loc("p341.2019"), %arg342: tensor<1280xbf16> loc("p342.2024"), %arg343: tensor<1280xbf16> loc("p343.2033"), %arg344: tensor<1280x1280xbf16> loc("p344.2037"), %arg345: tensor<1280xbf16> loc("p345.2043"), %arg346: tensor<1280x1280xbf16> loc("p346.2047"), %arg347: tensor<1280xbf16> loc("p347.2053"), %arg348: tensor<1280xbf16> loc("p348.2058"), %arg349: tensor<1280xbf16> loc("p349.2067"), %arg350: tensor<1280x5120xbf16> loc("p350.2071"), %arg351: tensor<5120xbf16> loc("p351.2077"), %arg352: tensor<5120x1280xbf16> loc("p352.2081"), %arg353: tensor<1280xbf16> loc("p353.2087"), %arg354: tensor<1280xbf16> loc("p354.2092"), %arg355: tensor<1280xbf16> loc("p355.2101"), %arg356: tensor<1280x1280xbf16> loc("p356.2105"), %arg357: tensor<1280xbf16> loc("p357.2111"), %arg358: tensor<1280x1280xbf16> loc("p358.2115"), %arg359: tensor<1280xbf16> loc("p359.2121"), %arg360: tensor<1280xbf16> loc("p360.2126"), %arg361: tensor<1280xbf16> loc("p361.2135"), %arg362: tensor<1280x5120xbf16> loc("p362.2139"), %arg363: tensor<5120xbf16> loc("p363.2145"), %arg364: tensor<5120x1280xbf16> loc("p364.2149"), %arg365: tensor<1280xbf16> loc("p365.2155"), %arg366: tensor<1280xbf16> loc("p366.2160"), %arg367: tensor<1280xbf16> loc("p367.2169"), %arg368: tensor<1280x1280xbf16> loc("p368.2173"), %arg369: tensor<1280xbf16> loc("p369.2179"), %arg370: tensor<1280x1280xbf16> loc("p370.2183"), %arg371: tensor<1280xbf16> loc("p371.2189"), %arg372: tensor<1280xbf16> loc("p372.2194"), %arg373: tensor<1280xbf16> loc("p373.2203"), %arg374: tensor<1280x5120xbf16> loc("p374.2207"), %arg375: tensor<5120xbf16> loc("p375.2213"), %arg376: tensor<5120x1280xbf16> loc("p376.2217"), %arg377: tensor<1280xbf16> loc("p377.2223"), %arg378: tensor<1280xbf16> loc("p378.2228"), %arg379: tensor<1280xbf16> loc("p379.2237"), %arg380: tensor<1280x1280xbf16> loc("p380.2241"), %arg381: tensor<1280xbf16> loc("p381.2247"), %arg382: tensor<1280x1280xbf16> loc("p382.2251"), %arg383: tensor<1280xbf16> loc("p383.2257"), %arg384: tensor<1280xbf16> loc("p384.2262"), %arg385: tensor<1280xbf16> loc("p385.2270"), %arg386: tensor<1280xbf16> loc("p386.2275"), %arg387: tensor<1x257xi64> loc("p387.2283"), %arg388: tensor<257x1280xbf16> loc("p388.2288"), %arg389: tensor<1280x3x14x14xbf16> loc("p389.2295"), %arg390: tensor<1x3x224x224xbf16> loc("p390.2297"), %arg391: tensor<1280xbf16> loc("p391.2302"), %arg392: tensor<1280xbf16> loc("p392.2478"), %arg393: tensor<1280x1280xbf16> loc("p393.2482"), %arg394: tensor<1280xbf16> loc("p394.2502"), %arg395: tensor<1280x1280xbf16> loc("p395.2506"), %arg396: tensor<1280xbf16> loc("p396.2788"), %arg397: tensor<1280x1280xbf16> loc("p397.2792"), %arg398: tensor<1280xbf16> loc("p398.2812"), %arg399: tensor<1280x1280xbf16> loc("p399.2816"), %arg400: tensor<1280xbf16> loc("p400.3098"), %arg401: tensor<1280x1280xbf16> loc("p401.3102"), %arg402: tensor<1280xbf16> loc("p402.3122"), %arg403: tensor<1280x1280xbf16> loc("p403.3126"), %arg404: tensor<1280xbf16> loc("p404.3408"), %arg405: tensor<1280x1280xbf16> loc("p405.3412"), %arg406: tensor<1280xbf16> loc("p406.3432"), %arg407: tensor<1280x1280xbf16> loc("p407.3436"), %arg408: tensor<1280xbf16> loc("p408.3718"), %arg409: tensor<1280x1280xbf16> loc("p409.3722"), %arg410: tensor<1280xbf16> loc("p410.3742"), %arg411: tensor<1280x1280xbf16> loc("p411.3746"), %arg412: tensor<1280xbf16> loc("p412.4028"), %arg413: tensor<1280x1280xbf16> loc("p413.4032"), %arg414: tensor<1280xbf16> loc("p414.4052"), %arg415: tensor<1280x1280xbf16> loc("p415.4056"), %arg416: tensor<1280xbf16> loc("p416.4338"), %arg417: tensor<1280x1280xbf16> loc("p417.4342"), %arg418: tensor<1280xbf16> loc("p418.4362"), %arg419: tensor<1280x1280xbf16> loc("p419.4366"), %arg420: tensor<1280xbf16> loc("p420.4648"), %arg421: tensor<1280x1280xbf16> loc("p421.4652"), %arg422: tensor<1280xbf16> loc("p422.4672"), %arg423: tensor<1280x1280xbf16> loc("p423.4676"), %arg424: tensor<1280xbf16> loc("p424.4958"), %arg425: tensor<1280x1280xbf16> loc("p425.4962"), %arg426: tensor<1280xbf16> loc("p426.4982"), %arg427: tensor<1280x1280xbf16> loc("p427.4986"), %arg428: tensor<1280xbf16> loc("p428.5268"), %arg429: tensor<1280x1280xbf16> loc("p429.5272"), %arg430: tensor<1280xbf16> loc("p430.5292"), %arg431: tensor<1280x1280xbf16> loc("p431.5296"), %arg432: tensor<1280xbf16> loc("p432.5578"), %arg433: tensor<1280x1280xbf16> loc("p433.5582"), %arg434: tensor<1280xbf16> loc("p434.5602"), %arg435: tensor<1280x1280xbf16> loc("p435.5606"), %arg436: tensor<1280xbf16> loc("p436.5888"), %arg437: tensor<1280x1280xbf16> loc("p437.5892"), %arg438: tensor<1280xbf16> loc("p438.5912"), %arg439: tensor<1280x1280xbf16> loc("p439.5916"), %arg440: tensor<1280xbf16> loc("p440.6198"), %arg441: tensor<1280x1280xbf16> loc("p441.6202"), %arg442: tensor<1280xbf16> loc("p442.6222"), %arg443: tensor<1280x1280xbf16> loc("p443.6226"), %arg444: tensor<1280xbf16> loc("p444.6508"), %arg445: tensor<1280x1280xbf16> loc("p445.6512"), %arg446: tensor<1280xbf16> loc("p446.6532"), %arg447: tensor<1280x1280xbf16> loc("p447.6536"), %arg448: tensor<1280xbf16> loc("p448.6818"), %arg449: tensor<1280x1280xbf16> loc("p449.6822"), %arg450: tensor<1280xbf16> loc("p450.6842"), %arg451: tensor<1280x1280xbf16> loc("p451.6846"), %arg452: tensor<1280xbf16> loc("p452.7128"), %arg453: tensor<1280x1280xbf16> loc("p453.7132"), %arg454: tensor<1280xbf16> loc("p454.7152"), %arg455: tensor<1280x1280xbf16> loc("p455.7156"), %arg456: tensor<1280xbf16> loc("p456.7438"), %arg457: tensor<1280x1280xbf16> loc("p457.7442"), %arg458: tensor<1280xbf16> loc("p458.7462"), %arg459: tensor<1280x1280xbf16> loc("p459.7466"), %arg460: tensor<1280xbf16> loc("p460.7748"), %arg461: tensor<1280x1280xbf16> loc("p461.7752"), %arg462: tensor<1280xbf16> loc("p462.7772"), %arg463: tensor<1280x1280xbf16> loc("p463.7776"), %arg464: tensor<1280xbf16> loc("p464.8058"), %arg465: tensor<1280x1280xbf16> loc("p465.8062"), %arg466: tensor<1280xbf16> loc("p466.8082"), %arg467: tensor<1280x1280xbf16> loc("p467.8086"), %arg468: tensor<1280xbf16> loc("p468.8368"), %arg469: tensor<1280x1280xbf16> loc("p469.8372"), %arg470: tensor<1280xbf16> loc("p470.8392"), %arg471: tensor<1280x1280xbf16> loc("p471.8396"), %arg472: tensor<1280xbf16> loc("p472.8678"), %arg473: tensor<1280x1280xbf16> loc("p473.8682"), %arg474: tensor<1280xbf16> loc("p474.8702"), %arg475: tensor<1280x1280xbf16> loc("p475.8706"), %arg476: tensor<1280xbf16> loc("p476.8988"), %arg477: tensor<1280x1280xbf16> loc("p477.8992"), %arg478: tensor<1280xbf16> loc("p478.9012"), %arg479: tensor<1280x1280xbf16> loc("p479.9016"), %arg480: tensor<1280xbf16> loc("p480.9298"), %arg481: tensor<1280x1280xbf16> loc("p481.9302"), %arg482: tensor<1280xbf16> loc("p482.9322"), %arg483: tensor<1280x1280xbf16> loc("p483.9326"), %arg484: tensor<1280xbf16> loc("p484.9608"), %arg485: tensor<1280x1280xbf16> loc("p485.9612"), %arg486: tensor<1280xbf16> loc("p486.9632"), %arg487: tensor<1280x1280xbf16> loc("p487.9636"), %arg488: tensor<1280xbf16> loc("p488.9918"), %arg489: tensor<1280x1280xbf16> loc("p489.9922"), %arg490: tensor<1280xbf16> loc("p490.9942"), %arg491: tensor<1280x1280xbf16> loc("p491.9946"), %arg492: tensor<1280xbf16> loc("p492.10228"), %arg493: tensor<1280x1280xbf16> loc("p493.10232"), %arg494: tensor<1280xbf16> loc("p494.10252"), %arg495: tensor<1280x1280xbf16> loc("p495.10256"), %arg496: tensor<1280xbf16> loc("p496.10538"), %arg497: tensor<1280x1280xbf16> loc("p497.10542"), %arg498: tensor<1280xbf16> loc("p498.10562"), %arg499: tensor<1280x1280xbf16> loc("p499.10566"), %arg500: tensor<1280xbf16> loc("p500.10848"), %arg501: tensor<1280x1280xbf16> loc("p501.10852"), %arg502: tensor<1280xbf16> loc("p502.10872"), %arg503: tensor<1280x1280xbf16> loc("p503.10876"), %arg504: tensor<1280xbf16> loc("p504.11158"), %arg505: tensor<1280x1280xbf16> loc("p505.11162"), %arg506: tensor<1280xbf16> loc("p506.11182"), %arg507: tensor<1280x1280xbf16> loc("p507.11186"), %arg508: tensor<1280xbf16> loc("p508.11468"), %arg509: tensor<1280x1280xbf16> loc("p509.11472"), %arg510: tensor<1280xbf16> loc("p510.11492"), %arg511: tensor<1280x1280xbf16> loc("p511.11496"), %arg512: tensor<1280xbf16> loc("p512.11778"), %arg513: tensor<1280x1280xbf16> loc("p513.11782"), %arg514: tensor<1280xbf16> loc("p514.11802"), %arg515: tensor<1280x1280xbf16> loc("p515.11806"), %arg516: tensor<1280x1280xbf16> loc("p516.12091"), %arg517: tensor<1280x1280xbf16> loc("p517.12106"), %arg518: tensor<1280x5120xbf16> loc("p518.12186"), %arg519: tensor<5120x1280xbf16> loc("p519.12191"), %arg520: tensor<1280xbf16> loc("p520.12197"), %arg521: tensor<1280xbf16> loc("p521.12202"), %arg522: tensor<1280x1280xbf16> loc("p522.12309"), %arg523: tensor<1280x1280xbf16> loc("p523.12314"), %arg524: tensor<1280xbf16> loc("p524.12320"), %arg525: tensor<1280xbf16> loc("p525.12325"), %arg526: tensor<1280xbf16> loc("p526.12410"), %arg527: tensor<1280xbf16> loc("p527.12415"), %arg528: tensor<1280x1280xbf16> loc("p528.12507"), %arg529: tensor<1280x1280xbf16> loc("p529.12522"), %arg530: tensor<1280x5120xbf16> loc("p530.12602"), %arg531: tensor<5120x1280xbf16> loc("p531.12607"), %arg532: tensor<1280xbf16> loc("p532.12613"), %arg533: tensor<1280xbf16> loc("p533.12618"), %arg534: tensor<1280x1280xbf16> loc("p534.12725"), %arg535: tensor<1280x1280xbf16> loc("p535.12730"), %arg536: tensor<1280xbf16> loc("p536.12736"), %arg537: tensor<1280xbf16> loc("p537.12741"), %arg538: tensor<1280xbf16> loc("p538.12826"), %arg539: tensor<1280xbf16> loc("p539.12831"), %arg540: tensor<1280x1280xbf16> loc("p540.12923"), %arg541: tensor<1280x1280xbf16> loc("p541.12938"), %arg542: tensor<1280x5120xbf16> loc("p542.13018"), %arg543: tensor<5120x1280xbf16> loc("p543.13023"), %arg544: tensor<1280xbf16> loc("p544.13029"), %arg545: tensor<1280xbf16> loc("p545.13034"), %arg546: tensor<1280x1280xbf16> loc("p546.13141"), %arg547: tensor<1280x1280xbf16> loc("p547.13146"), %arg548: tensor<1280xbf16> loc("p548.13152"), %arg549: tensor<1280xbf16> loc("p549.13157"), %arg550: tensor<1280xbf16> loc("p550.13242"), %arg551: tensor<1280xbf16> loc("p551.13247"), %arg552: tensor<1280x1280xbf16> loc("p552.13339"), %arg553: tensor<1280x1280xbf16> loc("p553.13354"), %arg554: tensor<1280x5120xbf16> loc("p554.13434"), %arg555: tensor<5120x1280xbf16> loc("p555.13439"), %arg556: tensor<1280xbf16> loc("p556.13445"), %arg557: tensor<1280xbf16> loc("p557.13450")) -> tensor<1x16x2048xbf16> {
    %cst = stablehlo.constant dense<1.000000e+00> : tensor<1x16x1280xbf16> loc(#loc)
    %cst_0 = stablehlo.constant dense<0.000000e+00> : tensor<1x20x16x273xf32> loc(#loc)
    %cst_1 = stablehlo.constant dense<0xFFF0000000000000> : tensor<1x20x16x273xf64> loc(#loc)
    %cst_2 = stablehlo.constant dense<0.353553385> : tensor<1x20x64x273xf32> loc(#loc)
    %cst_3 = stablehlo.constant dense<0.000000e+00> : tensor<1x16x257x257xf32> loc(#loc)
    %cst_4 = stablehlo.constant dense<0xFFF0000000000000> : tensor<1x16x257x257xf64> loc(#loc)
    %cst_5 = stablehlo.constant dense<0.334370166> : tensor<1x16x80x257xf32> loc(#loc)
    %cst_6 = stablehlo.constant dense<0.334370166> : tensor<1x16x257x80xf32> loc(#loc)
    %cst_7 = stablehlo.constant dense<0.353553385> : tensor<1x20x16x64xf32> loc(#loc)
    %cst_8 = stablehlo.constant dense<0xFF800000> : tensor<f32> loc(#loc)
    %cst_9 = stablehlo.constant dense<0.000000e+00> : tensor<f32> loc(#loc)
    %c = stablehlo.constant dense<true> : tensor<i1> loc(#loc)
    %c_10 = stablehlo.constant dense<false> : tensor<i1> loc(#loc)
    %0 = stablehlo.custom_call @tt.mark_argument(%arg4) {api_version = 0 : i32, mhlo.frontend_attributes = {ttcore.argument_type = "parameter", ttir.name = "l__self___resampler_latents"}} : (tensor<1x16x1280xbf16>) -> tensor<1x16x1280xbf16> loc(#loc559)
    %1 = stablehlo.reshape %arg8 : (tensor<1280xbf16>) -> tensor<1x1x1280xbf16> loc(#loc560)
    %2 = stablehlo.custom_call @tt.mark_argument(%1) {api_version = 0 : i32, mhlo.frontend_attributes = {ttcore.argument_type = "parameter", ttir.name = "l__self___resampler_layers_0_ln1_weight"}} : (tensor<1x1x1280xbf16>) -> tensor<1x1x1280xbf16> loc(#loc561)
    %3 = stablehlo.reshape %2 : (tensor<1x1x1280xbf16>) -> tensor<1280xbf16> loc(#loc562)
    %4 = stablehlo.reshape %arg7 : (tensor<1280xbf16>) -> tensor<1x1x1280xbf16> loc(#loc563)
    %5 = stablehlo.custom_call @tt.mark_argument(%4) {api_version = 0 : i32, mhlo.frontend_attributes = {ttcore.argument_type = "parameter", ttir.name = "l__self___resampler_layers_0_ln1_bias"}} : (tensor<1x1x1280xbf16>) -> tensor<1x1x1280xbf16> loc(#loc564)
    %6 = stablehlo.reshape %5 : (tensor<1x1x1280xbf16>) -> tensor<1280xbf16> loc(#loc565)
    %7 = stablehlo.composite "tenstorrent.layer_norm" %0, %3, %6 {composite_attributes = {epsilon = 9.99999974E-6 : f32, normalized_shape = dense<1280> : tensor<1xi64>}, decomposition = @tenstorrent.layer_norm.impl_27} : (tensor<1x16x1280xbf16>, tensor<1280xbf16>, tensor<1280xbf16>) -> tensor<1x16x1280xbf16> loc(#loc566)
    %8 = stablehlo.reshape %7 : (tensor<1x16x1280xbf16>) -> tensor<16x1280xbf16> loc(#loc567)
    %9 = stablehlo.reshape %arg517 : (tensor<1280x1280xbf16>) -> tensor<1x1280x1280xbf16> loc(#loc568)
    %10 = stablehlo.custom_call @tt.mark_argument(%9) {api_version = 0 : i32, mhlo.frontend_attributes = {ttcore.argument_type = "parameter", ttir.name = "l__self___resampler_layers_0_attn_to_q_weight"}} : (tensor<1x1280x1280xbf16>) -> tensor<1x1280x1280xbf16> loc(#loc569)
    %11 = stablehlo.reshape %10 : (tensor<1x1280x1280xbf16>) -> tensor<1280x1280xbf16> loc(#loc570)
    %12 = stablehlo.transpose %11, dims = [1, 0] {result_layout = dense<[0, 1]> : tensor<2xindex>, xla_shape = "bf16[1280,1280]{0,1}"} : (tensor<1280x1280xbf16>) -> tensor<1280x1280xbf16> loc(#loc571)
    %13 = stablehlo.dot_general %8, %12, contracting_dims = [1] x [0] : (tensor<16x1280xbf16>, tensor<1280x1280xbf16>) -> tensor<16x1280xbf16> loc(#loc572)
    %14 = stablehlo.reshape %13 : (tensor<16x1280xbf16>) -> tensor<1x16x20x64xbf16> loc(#loc573)
    %15 = stablehlo.transpose %14, dims = [0, 2, 1, 3] {result_layout = dense<[3, 1, 2, 0]> : tensor<4xindex>, xla_shape = "bf16[1,20,16,64]{3,1,2,0}"} : (tensor<1x16x20x64xbf16>) -> tensor<1x20x16x64xbf16> loc(#loc574)
    %16 = stablehlo.convert %15 {result_layout = dense<[3, 1, 2, 0]> : tensor<4xindex>, xla_shape = "f32[1,20,16,64]{3,1,2,0}"} : (tensor<1x20x16x64xbf16>) -> tensor<1x20x16x64xf32> loc(#loc575)
    %17 = stablehlo.multiply %16, %cst_7 : tensor<1x20x16x64xf32> loc(#loc576)
    %18 = stablehlo.reshape %arg391 : (tensor<1280xbf16>) -> tensor<1x1x1280xbf16> loc(#loc577)
    %19 = stablehlo.custom_call @tt.mark_argument(%18) {api_version = 0 : i32, mhlo.frontend_attributes = {ttcore.argument_type = "parameter", ttir.name = "l__self___image_encoder_vision_model_embeddings_class_embedding"}} : (tensor<1x1x1280xbf16>) -> tensor<1x1x1280xbf16> loc(#loc578)
    %20 = stablehlo.custom_call @tt.mark_argument(%arg390) {api_version = 0 : i32, mhlo.frontend_attributes = {ttcore.argument_type = "input", ttir.name = "args_0"}} : (tensor<1x3x224x224xbf16>) -> tensor<1x3x224x224xbf16> loc(#loc579)
    %21 = stablehlo.custom_call @tt.mark_argument(%arg389) {api_version = 0 : i32, mhlo.frontend_attributes = {ttcore.argument_type = "parameter", ttir.name = "l__self___image_encoder_vision_model_embeddings_patch_embedding_weight"}} : (tensor<1280x3x14x14xbf16>) -> tensor<1280x3x14x14xbf16> loc(#loc580)
    %22 = stablehlo.convolution(%20, %21) dim_numbers = [b, f, 0, 1]x[o, i, 0, 1]->[b, f, 0, 1], window = {stride = [14, 14]} {batch_group_count = 1 : i64, feature_group_count = 1 : i64} : (tensor<1x3x224x224xbf16>, tensor<1280x3x14x14xbf16>) -> tensor<1x1280x16x16xbf16> loc(#loc581)
    %23 = stablehlo.reshape %22 : (tensor<1x1280x16x16xbf16>) -> tensor<1x1280x256xbf16> loc(#loc582)
    %24 = stablehlo.transpose %23, dims = [0, 2, 1] {result_layout = dense<[1, 2, 0]> : tensor<3xindex>, xla_shape = "bf16[1,256,1280]{1,2,0}"} : (tensor<1x1280x256xbf16>) -> tensor<1x256x1280xbf16> loc(#loc583)
    %25 = stablehlo.concatenate %19, %24, dim = 1 : (tensor<1x1x1280xbf16>, tensor<1x256x1280xbf16>) -> tensor<1x257x1280xbf16> loc(#loc584)
    %26 = stablehlo.reshape %arg388 : (tensor<257x1280xbf16>) -> tensor<1x257x1280xbf16> loc(#loc585)
    %27 = stablehlo.custom_call @tt.mark_argument(%26) {api_version = 0 : i32, mhlo.frontend_attributes = {ttcore.argument_type = "parameter", ttir.name = "l__self___image_encoder_vision_model_embeddings_position_embedding_weight"}} : (tensor<1x257x1280xbf16>) -> tensor<1x257x1280xbf16> loc(#loc586)
    %28 = stablehlo.reshape %27 : (tensor<1x257x1280xbf16>) -> tensor<257x1280xbf16> loc(#loc587)
    %29 = stablehlo.reshape %arg387 : (tensor<1x257xi64>) -> tensor<1x1x257xi64> loc(#loc588)
    %30 = stablehlo.custom_call @tt.mark_argument(%29) {api_version = 0 : i32, mhlo.frontend_attributes = {ttcore.argument_type = "constant", ttir.name = "l__self___image_encoder_vision_model_embeddings_position_ids"}} : (tensor<1x1x257xi64>) -> tensor<1x1x257xi64> loc(#loc589)
    %31 = stablehlo.reshape %30 : (tensor<1x1x257xi64>) -> tensor<257xi64> loc(#loc590)
    %32 = stablehlo.convert %31 : (tensor<257xi64>) -> tensor<257xui32> loc(#loc591)
    %33 = "stablehlo.gather"(%28, %32) <{dimension_numbers = #stablehlo.gather<offset_dims = [1], collapsed_slice_dims = [0], start_index_map = [0], index_vector_dim = 1>, slice_sizes = array<i64: 1, 1280>}> : (tensor<257x1280xbf16>, tensor<257xui32>) -> tensor<257x1280xbf16> loc(#loc592)
    %34 = stablehlo.reshape %33 : (tensor<257x1280xbf16>) -> tensor<1x257x1280xbf16> loc(#loc593)
    %35 = stablehlo.add %25, %34 : tensor<1x257x1280xbf16> loc(#loc594)
    %36 = stablehlo.reshape %arg386 : (tensor<1280xbf16>) -> tensor<1x1x1280xbf16> loc(#loc595)
    %37 = stablehlo.custom_call @tt.mark_argument(%36) {api_version = 0 : i32, mhlo.frontend_attributes = {ttcore.argument_type = "parameter", ttir.name = "l__self___image_encoder_vision_model_pre_layrnorm_weight"}} : (tensor<1x1x1280xbf16>) -> tensor<1x1x1280xbf16> loc(#loc596)
    %38 = stablehlo.reshape %37 : (tensor<1x1x1280xbf16>) -> tensor<1280xbf16> loc(#loc597)
    %39 = stablehlo.reshape %arg385 : (tensor<1280xbf16>) -> tensor<1x1x1280xbf16> loc(#loc598)
    %40 = stablehlo.custom_call @tt.mark_argument(%39) {api_version = 0 : i32, mhlo.frontend_attributes = {ttcore.argument_type = "parameter", ttir.name = "l__self___image_encoder_vision_model_pre_layrnorm_bias"}} : (tensor<1x1x1280xbf16>) -> tensor<1x1x1280xbf16> loc(#loc599)
    %41 = stablehlo.reshape %40 : (tensor<1x1x1280xbf16>) -> tensor<1280xbf16> loc(#loc600)
    %42 = stablehlo.composite "tenstorrent.layer_norm" %35, %38, %41 {composite_attributes = {epsilon = 9.99999974E-6 : f32, normalized_shape = dense<1280> : tensor<1xi64>}, decomposition = @tenstorrent.layer_norm.impl_23} : (tensor<1x257x1280xbf16>, tensor<1280xbf16>, tensor<1280xbf16>) -> tensor<1x257x1280xbf16> loc(#loc601)
    %43 = stablehlo.reshape %arg384 : (tensor<1280xbf16>) -> tensor<1x1x1280xbf16> loc(#loc602)
    %44 = stablehlo.custom_call @tt.mark_argument(%43) {api_version = 0 : i32, mhlo.frontend_attributes = {ttcore.argument_type = "parameter", ttir.name = "l__self___image_encoder_vision_model_encoder_layers_0_layer_norm1_weight"}} : (tensor<1x1x1280xbf16>) -> tensor<1x1x1280xbf16> loc(#loc603)
    %45 = stablehlo.reshape %44 : (tensor<1x1x1280xbf16>) -> tensor<1280xbf16> loc(#loc604)
    %46 = stablehlo.reshape %arg383 : (tensor<1280xbf16>) -> tensor<1x1x1280xbf16> loc(#loc605)
    %47 = stablehlo.custom_call @tt.mark_argument(%46) {api_version = 0 : i32, mhlo.frontend_attributes = {ttcore.argument_type = "parameter", ttir.name = "l__self___image_encoder_vision_model_encoder_layers_0_layer_norm1_bias"}} : (tensor<1x1x1280xbf16>) -> tensor<1x1x1280xbf16> loc(#loc606)
    %48 = stablehlo.reshape %47 : (tensor<1x1x1280xbf16>) -> tensor<1280xbf16> loc(#loc607)
    %49 = stablehlo.composite "tenstorrent.layer_norm" %42, %45, %48 {composite_attributes = {epsilon = 9.99999974E-6 : f32, normalized_shape = dense<1280> : tensor<1xi64>}, decomposition = @tenstorrent.layer_norm.impl_38} : (tensor<1x257x1280xbf16>, tensor<1280xbf16>, tensor<1280xbf16>) -> tensor<1x257x1280xbf16> loc(#loc608)
    %50 = stablehlo.reshape %49 : (tensor<1x257x1280xbf16>) -> tensor<257x1280xbf16> loc(#loc609)
    %51 = stablehlo.reshape %arg395 : (tensor<1280x1280xbf16>) -> tensor<1x1280x1280xbf16> loc(#loc610)
    %52 = stablehlo.custom_call @tt.mark_argument(%51) {api_version = 0 : i32, mhlo.frontend_attributes = {ttcore.argument_type = "parameter", ttir.name = "l__self___image_encoder_vision_model_encoder_layers_0_self_attn_q_proj_weight"}} : (tensor<1x1280x1280xbf16>) -> tensor<1x1280x1280xbf16> loc(#loc611)
    %53 = stablehlo.reshape %52 : (tensor<1x1280x1280xbf16>) -> tensor<1280x1280xbf16> loc(#loc612)
    %54 = stablehlo.transpose %53, dims = [1, 0] {result_layout = dense<[0, 1]> : tensor<2xindex>, xla_shape = "bf16[1280,1280]{0,1}"} : (tensor<1280x1280xbf16>) -> tensor<1280x1280xbf16> loc(#loc613)
    %55 = stablehlo.dot_general %50, %54, contracting_dims = [1] x [0] : (tensor<257x1280xbf16>, tensor<1280x1280xbf16>) -> tensor<257x1280xbf16> loc(#loc614)
    %56 = stablehlo.reshape %55 : (tensor<257x1280xbf16>) -> tensor<1x257x1280xbf16> loc(#loc615)
    %57 = stablehlo.reshape %arg394 : (tensor<1280xbf16>) -> tensor<1x1x1280xbf16> loc(#loc616)
    %58 = stablehlo.custom_call @tt.mark_argument(%57) {api_version = 0 : i32, mhlo.frontend_attributes = {ttcore.argument_type = "parameter", ttir.name = "l__self___image_encoder_vision_model_encoder_layers_0_self_attn_q_proj_bias"}} : (tensor<1x1x1280xbf16>) -> tensor<1x1x1280xbf16> loc(#loc617)
    %59 = stablehlo.reshape %58 : (tensor<1x1x1280xbf16>) -> tensor<1280xbf16> loc(#loc618)
    %60 = stablehlo.broadcast_in_dim %59, dims = [2] : (tensor<1280xbf16>) -> tensor<1x257x1280xbf16> loc(#loc619)
    %61 = stablehlo.add %56, %60 : tensor<1x257x1280xbf16> loc(#loc620)
    %62 = stablehlo.reshape %61 : (tensor<1x257x1280xbf16>) -> tensor<1x257x16x80xbf16> loc(#loc621)
    %63 = stablehlo.transpose %62, dims = [0, 2, 1, 3] {result_layout = dense<[3, 1, 2, 0]> : tensor<4xindex>, xla_shape = "bf16[1,16,257,80]{3,1,2,0}"} : (tensor<1x257x16x80xbf16>) -> tensor<1x16x257x80xbf16> loc(#loc622)
    %64 = stablehlo.convert %63 {result_layout = dense<[3, 1, 2, 0]> : tensor<4xindex>, xla_shape = "f32[1,16,257,80]{3,1,2,0}"} : (tensor<1x16x257x80xbf16>) -> tensor<1x16x257x80xf32> loc(#loc623)
    %65 = stablehlo.multiply %64, %cst_6 : tensor<1x16x257x80xf32> loc(#loc624)
    %66 = stablehlo.reshape %arg393 : (tensor<1280x1280xbf16>) -> tensor<1x1280x1280xbf16> loc(#loc625)
    %67 = stablehlo.custom_call @tt.mark_argument(%66) {api_version = 0 : i32, mhlo.frontend_attributes = {ttcore.argument_type = "parameter", ttir.name = "l__self___image_encoder_vision_model_encoder_layers_0_self_attn_k_proj_weight"}} : (tensor<1x1280x1280xbf16>) -> tensor<1x1280x1280xbf16> loc(#loc626)
    %68 = stablehlo.reshape %67 : (tensor<1x1280x1280xbf16>) -> tensor<1280x1280xbf16> loc(#loc627)
    %69 = stablehlo.transpose %68, dims = [1, 0] {result_layout = dense<[0, 1]> : tensor<2xindex>, xla_shape = "bf16[1280,1280]{0,1}"} : (tensor<1280x1280xbf16>) -> tensor<1280x1280xbf16> loc(#loc628)
    %70 = stablehlo.dot_general %50, %69, contracting_dims = [1] x [0] : (tensor<257x1280xbf16>, tensor<1280x1280xbf16>) -> tensor<257x1280xbf16> loc(#loc629)
    %71 = stablehlo.reshape %70 : (tensor<257x1280xbf16>) -> tensor<1x257x1280xbf16> loc(#loc630)
    %72 = stablehlo.reshape %arg392 : (tensor<1280xbf16>) -> tensor<1x1x1280xbf16> loc(#loc631)
    %73 = stablehlo.custom_call @tt.mark_argument(%72) {api_version = 0 : i32, mhlo.frontend_attributes = {ttcore.argument_type = "parameter", ttir.name = "l__self___image_encoder_vision_model_encoder_layers_0_self_attn_k_proj_bias"}} : (tensor<1x1x1280xbf16>) -> tensor<1x1x1280xbf16> loc(#loc632)
    %74 = stablehlo.reshape %73 : (tensor<1x1x1280xbf16>) -> tensor<1280xbf16> loc(#loc633)
    %75 = stablehlo.broadcast_in_dim %74, dims = [2] : (tensor<1280xbf16>) -> tensor<1x257x1280xbf16> loc(#loc634)
    %76 = stablehlo.add %71, %75 : tensor<1x257x1280xbf16> loc(#loc635)
    %77 = stablehlo.reshape %76 : (tensor<1x257x1280xbf16>) -> tensor<1x257x16x80xbf16> loc(#loc636)
    %78 = stablehlo.transpose %77, dims = [0, 2, 1, 3] {result_layout = dense<[3, 1, 2, 0]> : tensor<4xindex>, xla_shape = "bf16[1,16,257,80]{3,1,2,0}"} : (tensor<1x257x16x80xbf16>) -> tensor<1x16x257x80xbf16> loc(#loc637)
    %79 = stablehlo.convert %78 {result_layout = dense<[3, 1, 2, 0]> : tensor<4xindex>, xla_shape = "f32[1,16,257,80]{3,1,2,0}"} : (tensor<1x16x257x80xbf16>) -> tensor<1x16x257x80xf32> loc(#loc638)
    %80 = stablehlo.transpose %79, dims = [0, 1, 3, 2] {result_layout = dense<[2, 1, 3, 0]> : tensor<4xindex>, xla_shape = "f32[1,16,80,257]{2,1,3,0}"} : (tensor<1x16x257x80xf32>) -> tensor<1x16x80x257xf32> loc(#loc639)
    %81 = stablehlo.multiply %80, %cst_5 : tensor<1x16x80x257xf32> loc(#loc640)
    %82 = stablehlo.dot_general %65, %81, batching_dims = [0, 1] x [0, 1], contracting_dims = [3] x [2] {mhlo.frontend_attributes = {grad_x = "false", grad_y = "false"}} : (tensor<1x16x257x80xf32>, tensor<1x16x80x257xf32>) -> tensor<1x16x257x257xf32> loc(#loc641)
    %83 = stablehlo.convert %82 : (tensor<1x16x257x257xf32>) -> tensor<1x16x257x257xf64> loc(#loc642)
    %84 = stablehlo.compare  EQ, %83, %cst_4 : (tensor<1x16x257x257xf64>, tensor<1x16x257x257xf64>) -> tensor<1x16x257x257xi1> loc(#loc643)
    %85 = stablehlo.not %84 : tensor<1x16x257x257xi1> loc(#loc644)
    %86 = stablehlo.reduce(%85 init: %c_10) across dimensions = [3] : (tensor<1x16x257x257xi1>, tensor<i1>) -> tensor<1x16x257xi1>
     reducer(%arg558: tensor<i1> loc("reduce.2566"), %arg559: tensor<i1> loc("reduce.2566"))  {
      %4130 = stablehlo.or %arg558, %arg559 : tensor<i1> loc(#loc646)
      %4131 = stablehlo.select %4130, %c, %c_10 : tensor<i1>, tensor<i1> loc(#loc647)
      stablehlo.return %4131 : tensor<i1> loc(#loc)
    } loc(#loc645)
    %87 = stablehlo.reshape %86 : (tensor<1x16x257xi1>) -> tensor<1x16x257x1xi1> loc(#loc648)
    %88 = stablehlo.not %87 : tensor<1x16x257x1xi1> loc(#loc649)
    %89 = stablehlo.reshape %88 : (tensor<1x16x257x1xi1>) -> tensor<1x16x257xi1> loc(#loc650)
    %90 = stablehlo.broadcast_in_dim %89, dims = [0, 1, 2] : (tensor<1x16x257xi1>) -> tensor<1x16x257x257xi1> loc(#loc651)
    %91 = stablehlo.reduce(%82 init: %cst_8) applies stablehlo.maximum across dimensions = [3] : (tensor<1x16x257x257xf32>, tensor<f32>) -> tensor<1x16x257xf32> loc(#loc652)
    %92 = stablehlo.broadcast_in_dim %91, dims = [0, 1, 2] : (tensor<1x16x257xf32>) -> tensor<1x16x257x257xf32> loc(#loc653)
    %93 = stablehlo.subtract %82, %92 : tensor<1x16x257x257xf32> loc(#loc654)
    %94 = stablehlo.exponential %93 : tensor<1x16x257x257xf32> loc(#loc655)
    %95 = stablehlo.reduce(%94 init: %cst_9) applies stablehlo.add across dimensions = [3] : (tensor<1x16x257x257xf32>, tensor<f32>) -> tensor<1x16x257xf32> loc(#loc656)
    %96 = stablehlo.broadcast_in_dim %95, dims = [0, 1, 2] : (tensor<1x16x257xf32>) -> tensor<1x16x257x257xf32> loc(#loc657)
    %97 = stablehlo.divide %94, %96 : tensor<1x16x257x257xf32> loc(#loc658)
    %98 = stablehlo.select %90, %cst_3, %97 : tensor<1x16x257x257xi1>, tensor<1x16x257x257xf32> loc(#loc659)
    %99 = stablehlo.reshape %arg382 : (tensor<1280x1280xbf16>) -> tensor<1x1280x1280xbf16> loc(#loc660)
    %100 = stablehlo.custom_call @tt.mark_argument(%99) {api_version = 0 : i32, mhlo.frontend_attributes = {ttcore.argument_type = "parameter", ttir.name = "l__self___image_encoder_vision_model_encoder_layers_0_self_attn_v_proj_weight"}} : (tensor<1x1280x1280xbf16>) -> tensor<1x1280x1280xbf16> loc(#loc661)
    %101 = stablehlo.reshape %100 : (tensor<1x1280x1280xbf16>) -> tensor<1280x1280xbf16> loc(#loc662)
    %102 = stablehlo.transpose %101, dims = [1, 0] {result_layout = dense<[0, 1]> : tensor<2xindex>, xla_shape = "bf16[1280,1280]{0,1}"} : (tensor<1280x1280xbf16>) -> tensor<1280x1280xbf16> loc(#loc663)
    %103 = stablehlo.dot_general %50, %102, contracting_dims = [1] x [0] : (tensor<257x1280xbf16>, tensor<1280x1280xbf16>) -> tensor<257x1280xbf16> loc(#loc664)
    %104 = stablehlo.reshape %103 : (tensor<257x1280xbf16>) -> tensor<1x257x1280xbf16> loc(#loc665)
    %105 = stablehlo.reshape %arg381 : (tensor<1280xbf16>) -> tensor<1x1x1280xbf16> loc(#loc666)
    %106 = stablehlo.custom_call @tt.mark_argument(%105) {api_version = 0 : i32, mhlo.frontend_attributes = {ttcore.argument_type = "parameter", ttir.name = "l__self___image_encoder_vision_model_encoder_layers_0_self_attn_v_proj_bias"}} : (tensor<1x1x1280xbf16>) -> tensor<1x1x1280xbf16> loc(#loc667)
    %107 = stablehlo.reshape %106 : (tensor<1x1x1280xbf16>) -> tensor<1280xbf16> loc(#loc668)
    %108 = stablehlo.broadcast_in_dim %107, dims = [2] : (tensor<1280xbf16>) -> tensor<1x257x1280xbf16> loc(#loc669)
    %109 = stablehlo.add %104, %108 : tensor<1x257x1280xbf16> loc(#loc670)
    %110 = stablehlo.reshape %109 : (tensor<1x257x1280xbf16>) -> tensor<1x257x16x80xbf16> loc(#loc671)
    %111 = stablehlo.transpose %110, dims = [0, 2, 1, 3] {result_layout = dense<[3, 1, 2, 0]> : tensor<4xindex>, xla_shape = "bf16[1,16,257,80]{3,1,2,0}"} : (tensor<1x257x16x80xbf16>) -> tensor<1x16x257x80xbf16> loc(#loc672)
    %112 = stablehlo.convert %111 {result_layout = dense<[3, 1, 2, 0]> : tensor<4xindex>, xla_shape = "f32[1,16,257,80]{3,1,2,0}"} : (tensor<1x16x257x80xbf16>) -> tensor<1x16x257x80xf32> loc(#loc673)
    %113 = stablehlo.dot_general %98, %112, batching_dims = [0, 1] x [0, 1], contracting_dims = [3] x [2] {mhlo.frontend_attributes = {grad_x = "false", grad_y = "false"}} : (tensor<1x16x257x257xf32>, tensor<1x16x257x80xf32>) -> tensor<1x16x257x80xf32> loc(#loc674)
    %114 = stablehlo.convert %113 : (tensor<1x16x257x80xf32>) -> tensor<1x16x257x80xbf16> loc(#loc675)
    %115 = stablehlo.transpose %114, dims = [0, 2, 1, 3] {result_layout = dense<[3, 1, 2, 0]> : tensor<4xindex>, xla_shape = "bf16[1,257,16,80]{3,1,2,0}"} : (tensor<1x16x257x80xbf16>) -> tensor<1x257x16x80xbf16> loc(#loc676)
    %116 = stablehlo.reshape %115 : (tensor<1x257x16x80xbf16>) -> tensor<257x1280xbf16> loc(#loc677)
    %117 = stablehlo.reshape %arg380 : (tensor<1280x1280xbf16>) -> tensor<1x1280x1280xbf16> loc(#loc678)
    %118 = stablehlo.custom_call @tt.mark_argument(%117) {api_version = 0 : i32, mhlo.frontend_attributes = {ttcore.argument_type = "parameter", ttir.name = "l__self___image_encoder_vision_model_encoder_layers_0_self_attn_out_proj_weight"}} : (tensor<1x1280x1280xbf16>) -> tensor<1x1280x1280xbf16> loc(#loc679)
    %119 = stablehlo.reshape %118 : (tensor<1x1280x1280xbf16>) -> tensor<1280x1280xbf16> loc(#loc680)
    %120 = stablehlo.transpose %119, dims = [1, 0] {result_layout = dense<[0, 1]> : tensor<2xindex>, xla_shape = "bf16[1280,1280]{0,1}"} : (tensor<1280x1280xbf16>) -> tensor<1280x1280xbf16> loc(#loc681)
    %121 = stablehlo.dot_general %116, %120, contracting_dims = [1] x [0] : (tensor<257x1280xbf16>, tensor<1280x1280xbf16>) -> tensor<257x1280xbf16> loc(#loc682)
    %122 = stablehlo.reshape %121 : (tensor<257x1280xbf16>) -> tensor<1x257x1280xbf16> loc(#loc683)
    %123 = stablehlo.reshape %arg379 : (tensor<1280xbf16>) -> tensor<1x1x1280xbf16> loc(#loc684)
    %124 = stablehlo.custom_call @tt.mark_argument(%123) {api_version = 0 : i32, mhlo.frontend_attributes = {ttcore.argument_type = "parameter", ttir.name = "l__self___image_encoder_vision_model_encoder_layers_0_self_attn_out_proj_bias"}} : (tensor<1x1x1280xbf16>) -> tensor<1x1x1280xbf16> loc(#loc685)
    %125 = stablehlo.reshape %124 : (tensor<1x1x1280xbf16>) -> tensor<1280xbf16> loc(#loc686)
    %126 = stablehlo.broadcast_in_dim %125, dims = [2] : (tensor<1280xbf16>) -> tensor<1x257x1280xbf16> loc(#loc687)
    %127 = stablehlo.add %122, %126 : tensor<1x257x1280xbf16> loc(#loc688)
    %128 = stablehlo.add %42, %127 : tensor<1x257x1280xbf16> loc(#loc689)
    %129 = stablehlo.reshape %arg378 : (tensor<1280xbf16>) -> tensor<1x1x1280xbf16> loc(#loc690)
    %130 = stablehlo.custom_call @tt.mark_argument(%129) {api_version = 0 : i32, mhlo.frontend_attributes = {ttcore.argument_type = "parameter", ttir.name = "l__self___image_encoder_vision_model_encoder_layers_0_layer_norm2_weight"}} : (tensor<1x1x1280xbf16>) -> tensor<1x1x1280xbf16> loc(#loc691)
    %131 = stablehlo.reshape %130 : (tensor<1x1x1280xbf16>) -> tensor<1280xbf16> loc(#loc692)
    %132 = stablehlo.reshape %arg377 : (tensor<1280xbf16>) -> tensor<1x1x1280xbf16> loc(#loc693)
    %133 = stablehlo.custom_call @tt.mark_argument(%132) {api_version = 0 : i32, mhlo.frontend_attributes = {ttcore.argument_type = "parameter", ttir.name = "l__self___image_encoder_vision_model_encoder_layers_0_layer_norm2_bias"}} : (tensor<1x1x1280xbf16>) -> tensor<1x1x1280xbf16> loc(#loc694)
    %134 = stablehlo.reshape %133 : (tensor<1x1x1280xbf16>) -> tensor<1280xbf16> loc(#loc695)
    %135 = stablehlo.composite "tenstorrent.layer_norm" %128, %131, %134 {composite_attributes = {epsilon = 9.99999974E-6 : f32, normalized_shape = dense<1280> : tensor<1xi64>}, decomposition = @tenstorrent.layer_norm.impl_25} : (tensor<1x257x1280xbf16>, tensor<1280xbf16>, tensor<1280xbf16>) -> tensor<1x257x1280xbf16> loc(#loc696)
    %136 = stablehlo.reshape %135 : (tensor<1x257x1280xbf16>) -> tensor<257x1280xbf16> loc(#loc697)
    %137 = stablehlo.reshape %arg376 : (tensor<5120x1280xbf16>) -> tensor<1x5120x1280xbf16> loc(#loc698)
    %138 = stablehlo.custom_call @tt.mark_argument(%137) {api_version = 0 : i32, mhlo.frontend_attributes = {ttcore.argument_type = "parameter", ttir.name = "l__self___image_encoder_vision_model_encoder_layers_0_mlp_fc1_weight"}} : (tensor<1x5120x1280xbf16>) -> tensor<1x5120x1280xbf16> loc(#loc699)
    %139 = stablehlo.reshape %138 : (tensor<1x5120x1280xbf16>) -> tensor<5120x1280xbf16> loc(#loc700)
    %140 = stablehlo.transpose %139, dims = [1, 0] {result_layout = dense<[0, 1]> : tensor<2xindex>, xla_shape = "bf16[1280,5120]{0,1}"} : (tensor<5120x1280xbf16>) -> tensor<1280x5120xbf16> loc(#loc701)
    %141 = stablehlo.dot_general %136, %140, contracting_dims = [1] x [0] : (tensor<257x1280xbf16>, tensor<1280x5120xbf16>) -> tensor<257x5120xbf16> loc(#loc702)
    %142 = stablehlo.reshape %141 : (tensor<257x5120xbf16>) -> tensor<1x257x5120xbf16> loc(#loc703)
    %143 = stablehlo.reshape %arg375 : (tensor<5120xbf16>) -> tensor<1x1x5120xbf16> loc(#loc704)
    %144 = stablehlo.custom_call @tt.mark_argument(%143) {api_version = 0 : i32, mhlo.frontend_attributes = {ttcore.argument_type = "parameter", ttir.name = "l__self___image_encoder_vision_model_encoder_layers_0_mlp_fc1_bias"}} : (tensor<1x1x5120xbf16>) -> tensor<1x1x5120xbf16> loc(#loc705)
    %145 = stablehlo.reshape %144 : (tensor<1x1x5120xbf16>) -> tensor<5120xbf16> loc(#loc706)
    %146 = stablehlo.broadcast_in_dim %145, dims = [2] : (tensor<5120xbf16>) -> tensor<1x257x5120xbf16> loc(#loc707)
    %147 = stablehlo.add %142, %146 : tensor<1x257x5120xbf16> loc(#loc708)
    %148 = stablehlo.composite "tenstorrent.gelu" %147 {decomposition = @tenstorrent.gelu.impl_17} : (tensor<1x257x5120xbf16>) -> tensor<1x257x5120xbf16> loc(#loc709)
    %149 = stablehlo.reshape %148 : (tensor<1x257x5120xbf16>) -> tensor<257x5120xbf16> loc(#loc710)
    %150 = stablehlo.reshape %arg374 : (tensor<1280x5120xbf16>) -> tensor<1x1280x5120xbf16> loc(#loc711)
    %151 = stablehlo.custom_call @tt.mark_argument(%150) {api_version = 0 : i32, mhlo.frontend_attributes = {ttcore.argument_type = "parameter", ttir.name = "l__self___image_encoder_vision_model_encoder_layers_0_mlp_fc2_weight"}} : (tensor<1x1280x5120xbf16>) -> tensor<1x1280x5120xbf16> loc(#loc712)
    %152 = stablehlo.reshape %151 : (tensor<1x1280x5120xbf16>) -> tensor<1280x5120xbf16> loc(#loc713)
    %153 = stablehlo.transpose %152, dims = [1, 0] {result_layout = dense<[0, 1]> : tensor<2xindex>, xla_shape = "bf16[5120,1280]{0,1}"} : (tensor<1280x5120xbf16>) -> tensor<5120x1280xbf16> loc(#loc714)
    %154 = stablehlo.dot_general %149, %153, contracting_dims = [1] x [0] : (tensor<257x5120xbf16>, tensor<5120x1280xbf16>) -> tensor<257x1280xbf16> loc(#loc715)
    %155 = stablehlo.reshape %154 : (tensor<257x1280xbf16>) -> tensor<1x257x1280xbf16> loc(#loc716)
    %156 = stablehlo.reshape %arg373 : (tensor<1280xbf16>) -> tensor<1x1x1280xbf16> loc(#loc717)
    %157 = stablehlo.custom_call @tt.mark_argument(%156) {api_version = 0 : i32, mhlo.frontend_attributes = {ttcore.argument_type = "parameter", ttir.name = "l__self___image_encoder_vision_model_encoder_layers_0_mlp_fc2_bias"}} : (tensor<1x1x1280xbf16>) -> tensor<1x1x1280xbf16> loc(#loc718)
    %158 = stablehlo.reshape %157 : (tensor<1x1x1280xbf16>) -> tensor<1280xbf16> loc(#loc719)
    %159 = stablehlo.broadcast_in_dim %158, dims = [2] : (tensor<1280xbf16>) -> tensor<1x257x1280xbf16> loc(#loc720)
    %160 = stablehlo.add %155, %159 : tensor<1x257x1280xbf16> loc(#loc721)
    %161 = stablehlo.add %128, %160 : tensor<1x257x1280xbf16> loc(#loc722)
    %162 = stablehlo.reshape %arg372 : (tensor<1280xbf16>) -> tensor<1x1x1280xbf16> loc(#loc723)
    %163 = stablehlo.custom_call @tt.mark_argument(%162) {api_version = 0 : i32, mhlo.frontend_attributes = {ttcore.argument_type = "parameter", ttir.name = "l__self___image_encoder_vision_model_encoder_layers_1_layer_norm1_weight"}} : (tensor<1x1x1280xbf16>) -> tensor<1x1x1280xbf16> loc(#loc724)
    %164 = stablehlo.reshape %163 : (tensor<1x1x1280xbf16>) -> tensor<1280xbf16> loc(#loc725)
    %165 = stablehlo.reshape %arg371 : (tensor<1280xbf16>) -> tensor<1x1x1280xbf16> loc(#loc726)
    %166 = stablehlo.custom_call @tt.mark_argument(%165) {api_version = 0 : i32, mhlo.frontend_attributes = {ttcore.argument_type = "parameter", ttir.name = "l__self___image_encoder_vision_model_encoder_layers_1_layer_norm1_bias"}} : (tensor<1x1x1280xbf16>) -> tensor<1x1x1280xbf16> loc(#loc727)
    %167 = stablehlo.reshape %166 : (tensor<1x1x1280xbf16>) -> tensor<1280xbf16> loc(#loc728)
    %168 = stablehlo.composite "tenstorrent.layer_norm" %161, %164, %167 {composite_attributes = {epsilon = 9.99999974E-6 : f32, normalized_shape = dense<1280> : tensor<1xi64>}, decomposition = @tenstorrent.layer_norm.impl_70} : (tensor<1x257x1280xbf16>, tensor<1280xbf16>, tensor<1280xbf16>) -> tensor<1x257x1280xbf16> loc(#loc729)
    %169 = stablehlo.reshape %168 : (tensor<1x257x1280xbf16>) -> tensor<257x1280xbf16> loc(#loc730)
    %170 = stablehlo.reshape %arg399 : (tensor<1280x1280xbf16>) -> tensor<1x1280x1280xbf16> loc(#loc731)
    %171 = stablehlo.custom_call @tt.mark_argument(%170) {api_version = 0 : i32, mhlo.frontend_attributes = {ttcore.argument_type = "parameter", ttir.name = "l__self___image_encoder_vision_model_encoder_layers_1_self_attn_q_proj_weight"}} : (tensor<1x1280x1280xbf16>) -> tensor<1x1280x1280xbf16> loc(#loc732)
    %172 = stablehlo.reshape %171 : (tensor<1x1280x1280xbf16>) -> tensor<1280x1280xbf16> loc(#loc733)
    %173 = stablehlo.transpose %172, dims = [1, 0] {result_layout = dense<[0, 1]> : tensor<2xindex>, xla_shape = "bf16[1280,1280]{0,1}"} : (tensor<1280x1280xbf16>) -> tensor<1280x1280xbf16> loc(#loc734)
    %174 = stablehlo.dot_general %169, %173, contracting_dims = [1] x [0] : (tensor<257x1280xbf16>, tensor<1280x1280xbf16>) -> tensor<257x1280xbf16> loc(#loc735)
    %175 = stablehlo.reshape %174 : (tensor<257x1280xbf16>) -> tensor<1x257x1280xbf16> loc(#loc736)
    %176 = stablehlo.reshape %arg398 : (tensor<1280xbf16>) -> tensor<1x1x1280xbf16> loc(#loc737)
    %177 = stablehlo.custom_call @tt.mark_argument(%176) {api_version = 0 : i32, mhlo.frontend_attributes = {ttcore.argument_type = "parameter", ttir.name = "l__self___image_encoder_vision_model_encoder_layers_1_self_attn_q_proj_bias"}} : (tensor<1x1x1280xbf16>) -> tensor<1x1x1280xbf16> loc(#loc738)
    %178 = stablehlo.reshape %177 : (tensor<1x1x1280xbf16>) -> tensor<1280xbf16> loc(#loc739)
    %179 = stablehlo.broadcast_in_dim %178, dims = [2] : (tensor<1280xbf16>) -> tensor<1x257x1280xbf16> loc(#loc740)
    %180 = stablehlo.add %175, %179 : tensor<1x257x1280xbf16> loc(#loc741)
    %181 = stablehlo.reshape %180 : (tensor<1x257x1280xbf16>) -> tensor<1x257x16x80xbf16> loc(#loc742)
    %182 = stablehlo.transpose %181, dims = [0, 2, 1, 3] {result_layout = dense<[3, 1, 2, 0]> : tensor<4xindex>, xla_shape = "bf16[1,16,257,80]{3,1,2,0}"} : (tensor<1x257x16x80xbf16>) -> tensor<1x16x257x80xbf16> loc(#loc743)
    %183 = stablehlo.convert %182 {result_layout = dense<[3, 1, 2, 0]> : tensor<4xindex>, xla_shape = "f32[1,16,257,80]{3,1,2,0}"} : (tensor<1x16x257x80xbf16>) -> tensor<1x16x257x80xf32> loc(#loc744)
    %184 = stablehlo.multiply %183, %cst_6 : tensor<1x16x257x80xf32> loc(#loc745)
    %185 = stablehlo.reshape %arg397 : (tensor<1280x1280xbf16>) -> tensor<1x1280x1280xbf16> loc(#loc746)
    %186 = stablehlo.custom_call @tt.mark_argument(%185) {api_version = 0 : i32, mhlo.frontend_attributes = {ttcore.argument_type = "parameter", ttir.name = "l__self___image_encoder_vision_model_encoder_layers_1_self_attn_k_proj_weight"}} : (tensor<1x1280x1280xbf16>) -> tensor<1x1280x1280xbf16> loc(#loc747)
    %187 = stablehlo.reshape %186 : (tensor<1x1280x1280xbf16>) -> tensor<1280x1280xbf16> loc(#loc748)
    %188 = stablehlo.transpose %187, dims = [1, 0] {result_layout = dense<[0, 1]> : tensor<2xindex>, xla_shape = "bf16[1280,1280]{0,1}"} : (tensor<1280x1280xbf16>) -> tensor<1280x1280xbf16> loc(#loc749)
    %189 = stablehlo.dot_general %169, %188, contracting_dims = [1] x [0] : (tensor<257x1280xbf16>, tensor<1280x1280xbf16>) -> tensor<257x1280xbf16> loc(#loc750)
    %190 = stablehlo.reshape %189 : (tensor<257x1280xbf16>) -> tensor<1x257x1280xbf16> loc(#loc751)
    %191 = stablehlo.reshape %arg396 : (tensor<1280xbf16>) -> tensor<1x1x1280xbf16> loc(#loc752)
    %192 = stablehlo.custom_call @tt.mark_argument(%191) {api_version = 0 : i32, mhlo.frontend_attributes = {ttcore.argument_type = "parameter", ttir.name = "l__self___image_encoder_vision_model_encoder_layers_1_self_attn_k_proj_bias"}} : (tensor<1x1x1280xbf16>) -> tensor<1x1x1280xbf16> loc(#loc753)
    %193 = stablehlo.reshape %192 : (tensor<1x1x1280xbf16>) -> tensor<1280xbf16> loc(#loc754)
    %194 = stablehlo.broadcast_in_dim %193, dims = [2] : (tensor<1280xbf16>) -> tensor<1x257x1280xbf16> loc(#loc755)
    %195 = stablehlo.add %190, %194 : tensor<1x257x1280xbf16> loc(#loc756)
    %196 = stablehlo.reshape %195 : (tensor<1x257x1280xbf16>) -> tensor<1x257x16x80xbf16> loc(#loc757)
    %197 = stablehlo.transpose %196, dims = [0, 2, 1, 3] {result_layout = dense<[3, 1, 2, 0]> : tensor<4xindex>, xla_shape = "bf16[1,16,257,80]{3,1,2,0}"} : (tensor<1x257x16x80xbf16>) -> tensor<1x16x257x80xbf16> loc(#loc758)
    %198 = stablehlo.convert %197 {result_layout = dense<[3, 1, 2, 0]> : tensor<4xindex>, xla_shape = "f32[1,16,257,80]{3,1,2,0}"} : (tensor<1x16x257x80xbf16>) -> tensor<1x16x257x80xf32> loc(#loc759)
    %199 = stablehlo.transpose %198, dims = [0, 1, 3, 2] {result_layout = dense<[2, 1, 3, 0]> : tensor<4xindex>, xla_shape = "f32[1,16,80,257]{2,1,3,0}"} : (tensor<1x16x257x80xf32>) -> tensor<1x16x80x257xf32> loc(#loc760)
    %200 = stablehlo.multiply %199, %cst_5 : tensor<1x16x80x257xf32> loc(#loc761)
    %201 = stablehlo.dot_general %184, %200, batching_dims = [0, 1] x [0, 1], contracting_dims = [3] x [2] {mhlo.frontend_attributes = {grad_x = "false", grad_y = "false"}} : (tensor<1x16x257x80xf32>, tensor<1x16x80x257xf32>) -> tensor<1x16x257x257xf32> loc(#loc762)
    %202 = stablehlo.convert %201 : (tensor<1x16x257x257xf32>) -> tensor<1x16x257x257xf64> loc(#loc763)
    %203 = stablehlo.compare  EQ, %202, %cst_4 : (tensor<1x16x257x257xf64>, tensor<1x16x257x257xf64>) -> tensor<1x16x257x257xi1> loc(#loc764)
    %204 = stablehlo.not %203 : tensor<1x16x257x257xi1> loc(#loc765)
    %205 = stablehlo.reduce(%204 init: %c_10) across dimensions = [3] : (tensor<1x16x257x257xi1>, tensor<i1>) -> tensor<1x16x257xi1>
     reducer(%arg558: tensor<i1> loc("reduce.2876"), %arg559: tensor<i1> loc("reduce.2876"))  {
      %4130 = stablehlo.or %arg558, %arg559 : tensor<i1> loc(#loc767)
      %4131 = stablehlo.select %4130, %c, %c_10 : tensor<i1>, tensor<i1> loc(#loc768)
      stablehlo.return %4131 : tensor<i1> loc(#loc)
    } loc(#loc766)
    %206 = stablehlo.reshape %205 : (tensor<1x16x257xi1>) -> tensor<1x16x257x1xi1> loc(#loc769)
    %207 = stablehlo.not %206 : tensor<1x16x257x1xi1> loc(#loc770)
    %208 = stablehlo.reshape %207 : (tensor<1x16x257x1xi1>) -> tensor<1x16x257xi1> loc(#loc771)
    %209 = stablehlo.broadcast_in_dim %208, dims = [0, 1, 2] : (tensor<1x16x257xi1>) -> tensor<1x16x257x257xi1> loc(#loc772)
    %210 = stablehlo.reduce(%201 init: %cst_8) applies stablehlo.maximum across dimensions = [3] : (tensor<1x16x257x257xf32>, tensor<f32>) -> tensor<1x16x257xf32> loc(#loc773)
    %211 = stablehlo.broadcast_in_dim %210, dims = [0, 1, 2] : (tensor<1x16x257xf32>) -> tensor<1x16x257x257xf32> loc(#loc774)
    %212 = stablehlo.subtract %201, %211 : tensor<1x16x257x257xf32> loc(#loc775)
    %213 = stablehlo.exponential %212 : tensor<1x16x257x257xf32> loc(#loc776)
    %214 = stablehlo.reduce(%213 init: %cst_9) applies stablehlo.add across dimensions = [3] : (tensor<1x16x257x257xf32>, tensor<f32>) -> tensor<1x16x257xf32> loc(#loc777)
    %215 = stablehlo.broadcast_in_dim %214, dims = [0, 1, 2] : (tensor<1x16x257xf32>) -> tensor<1x16x257x257xf32> loc(#loc778)
    %216 = stablehlo.divide %213, %215 : tensor<1x16x257x257xf32> loc(#loc779)
    %217 = stablehlo.select %209, %cst_3, %216 : tensor<1x16x257x257xi1>, tensor<1x16x257x257xf32> loc(#loc780)
    %218 = stablehlo.reshape %arg370 : (tensor<1280x1280xbf16>) -> tensor<1x1280x1280xbf16> loc(#loc781)
    %219 = stablehlo.custom_call @tt.mark_argument(%218) {api_version = 0 : i32, mhlo.frontend_attributes = {ttcore.argument_type = "parameter", ttir.name = "l__self___image_encoder_vision_model_encoder_layers_1_self_attn_v_proj_weight"}} : (tensor<1x1280x1280xbf16>) -> tensor<1x1280x1280xbf16> loc(#loc782)
    %220 = stablehlo.reshape %219 : (tensor<1x1280x1280xbf16>) -> tensor<1280x1280xbf16> loc(#loc783)
    %221 = stablehlo.transpose %220, dims = [1, 0] {result_layout = dense<[0, 1]> : tensor<2xindex>, xla_shape = "bf16[1280,1280]{0,1}"} : (tensor<1280x1280xbf16>) -> tensor<1280x1280xbf16> loc(#loc784)
    %222 = stablehlo.dot_general %169, %221, contracting_dims = [1] x [0] : (tensor<257x1280xbf16>, tensor<1280x1280xbf16>) -> tensor<257x1280xbf16> loc(#loc785)
    %223 = stablehlo.reshape %222 : (tensor<257x1280xbf16>) -> tensor<1x257x1280xbf16> loc(#loc786)
    %224 = stablehlo.reshape %arg369 : (tensor<1280xbf16>) -> tensor<1x1x1280xbf16> loc(#loc787)
    %225 = stablehlo.custom_call @tt.mark_argument(%224) {api_version = 0 : i32, mhlo.frontend_attributes = {ttcore.argument_type = "parameter", ttir.name = "l__self___image_encoder_vision_model_encoder_layers_1_self_attn_v_proj_bias"}} : (tensor<1x1x1280xbf16>) -> tensor<1x1x1280xbf16> loc(#loc788)
    %226 = stablehlo.reshape %225 : (tensor<1x1x1280xbf16>) -> tensor<1280xbf16> loc(#loc789)
    %227 = stablehlo.broadcast_in_dim %226, dims = [2] : (tensor<1280xbf16>) -> tensor<1x257x1280xbf16> loc(#loc790)
    %228 = stablehlo.add %223, %227 : tensor<1x257x1280xbf16> loc(#loc791)
    %229 = stablehlo.reshape %228 : (tensor<1x257x1280xbf16>) -> tensor<1x257x16x80xbf16> loc(#loc792)
    %230 = stablehlo.transpose %229, dims = [0, 2, 1, 3] {result_layout = dense<[3, 1, 2, 0]> : tensor<4xindex>, xla_shape = "bf16[1,16,257,80]{3,1,2,0}"} : (tensor<1x257x16x80xbf16>) -> tensor<1x16x257x80xbf16> loc(#loc793)
    %231 = stablehlo.convert %230 {result_layout = dense<[3, 1, 2, 0]> : tensor<4xindex>, xla_shape = "f32[1,16,257,80]{3,1,2,0}"} : (tensor<1x16x257x80xbf16>) -> tensor<1x16x257x80xf32> loc(#loc794)
    %232 = stablehlo.dot_general %217, %231, batching_dims = [0, 1] x [0, 1], contracting_dims = [3] x [2] {mhlo.frontend_attributes = {grad_x = "false", grad_y = "false"}} : (tensor<1x16x257x257xf32>, tensor<1x16x257x80xf32>) -> tensor<1x16x257x80xf32> loc(#loc795)
    %233 = stablehlo.convert %232 : (tensor<1x16x257x80xf32>) -> tensor<1x16x257x80xbf16> loc(#loc796)
    %234 = stablehlo.transpose %233, dims = [0, 2, 1, 3] {result_layout = dense<[3, 1, 2, 0]> : tensor<4xindex>, xla_shape = "bf16[1,257,16,80]{3,1,2,0}"} : (tensor<1x16x257x80xbf16>) -> tensor<1x257x16x80xbf16> loc(#loc797)
    %235 = stablehlo.reshape %234 : (tensor<1x257x16x80xbf16>) -> tensor<257x1280xbf16> loc(#loc798)
    %236 = stablehlo.reshape %arg368 : (tensor<1280x1280xbf16>) -> tensor<1x1280x1280xbf16> loc(#loc799)
    %237 = stablehlo.custom_call @tt.mark_argument(%236) {api_version = 0 : i32, mhlo.frontend_attributes = {ttcore.argument_type = "parameter", ttir.name = "l__self___image_encoder_vision_model_encoder_layers_1_self_attn_out_proj_weight"}} : (tensor<1x1280x1280xbf16>) -> tensor<1x1280x1280xbf16> loc(#loc800)
    %238 = stablehlo.reshape %237 : (tensor<1x1280x1280xbf16>) -> tensor<1280x1280xbf16> loc(#loc801)
    %239 = stablehlo.transpose %238, dims = [1, 0] {result_layout = dense<[0, 1]> : tensor<2xindex>, xla_shape = "bf16[1280,1280]{0,1}"} : (tensor<1280x1280xbf16>) -> tensor<1280x1280xbf16> loc(#loc802)
    %240 = stablehlo.dot_general %235, %239, contracting_dims = [1] x [0] : (tensor<257x1280xbf16>, tensor<1280x1280xbf16>) -> tensor<257x1280xbf16> loc(#loc803)
    %241 = stablehlo.reshape %240 : (tensor<257x1280xbf16>) -> tensor<1x257x1280xbf16> loc(#loc804)
    %242 = stablehlo.reshape %arg367 : (tensor<1280xbf16>) -> tensor<1x1x1280xbf16> loc(#loc805)
    %243 = stablehlo.custom_call @tt.mark_argument(%242) {api_version = 0 : i32, mhlo.frontend_attributes = {ttcore.argument_type = "parameter", ttir.name = "l__self___image_encoder_vision_model_encoder_layers_1_self_attn_out_proj_bias"}} : (tensor<1x1x1280xbf16>) -> tensor<1x1x1280xbf16> loc(#loc806)
    %244 = stablehlo.reshape %243 : (tensor<1x1x1280xbf16>) -> tensor<1280xbf16> loc(#loc807)
    %245 = stablehlo.broadcast_in_dim %244, dims = [2] : (tensor<1280xbf16>) -> tensor<1x257x1280xbf16> loc(#loc808)
    %246 = stablehlo.add %241, %245 : tensor<1x257x1280xbf16> loc(#loc809)
    %247 = stablehlo.add %161, %246 : tensor<1x257x1280xbf16> loc(#loc810)
    %248 = stablehlo.reshape %arg366 : (tensor<1280xbf16>) -> tensor<1x1x1280xbf16> loc(#loc811)
    %249 = stablehlo.custom_call @tt.mark_argument(%248) {api_version = 0 : i32, mhlo.frontend_attributes = {ttcore.argument_type = "parameter", ttir.name = "l__self___image_encoder_vision_model_encoder_layers_1_layer_norm2_weight"}} : (tensor<1x1x1280xbf16>) -> tensor<1x1x1280xbf16> loc(#loc812)
    %250 = stablehlo.reshape %249 : (tensor<1x1x1280xbf16>) -> tensor<1280xbf16> loc(#loc813)
    %251 = stablehlo.reshape %arg365 : (tensor<1280xbf16>) -> tensor<1x1x1280xbf16> loc(#loc814)
    %252 = stablehlo.custom_call @tt.mark_argument(%251) {api_version = 0 : i32, mhlo.frontend_attributes = {ttcore.argument_type = "parameter", ttir.name = "l__self___image_encoder_vision_model_encoder_layers_1_layer_norm2_bias"}} : (tensor<1x1x1280xbf16>) -> tensor<1x1x1280xbf16> loc(#loc815)
    %253 = stablehlo.reshape %252 : (tensor<1x1x1280xbf16>) -> tensor<1280xbf16> loc(#loc816)
    %254 = stablehlo.composite "tenstorrent.layer_norm" %247, %250, %253 {composite_attributes = {epsilon = 9.99999974E-6 : f32, normalized_shape = dense<1280> : tensor<1xi64>}, decomposition = @tenstorrent.layer_norm.impl_45} : (tensor<1x257x1280xbf16>, tensor<1280xbf16>, tensor<1280xbf16>) -> tensor<1x257x1280xbf16> loc(#loc817)
    %255 = stablehlo.reshape %254 : (tensor<1x257x1280xbf16>) -> tensor<257x1280xbf16> loc(#loc818)
    %256 = stablehlo.reshape %arg364 : (tensor<5120x1280xbf16>) -> tensor<1x5120x1280xbf16> loc(#loc819)
    %257 = stablehlo.custom_call @tt.mark_argument(%256) {api_version = 0 : i32, mhlo.frontend_attributes = {ttcore.argument_type = "parameter", ttir.name = "l__self___image_encoder_vision_model_encoder_layers_1_mlp_fc1_weight"}} : (tensor<1x5120x1280xbf16>) -> tensor<1x5120x1280xbf16> loc(#loc820)
    %258 = stablehlo.reshape %257 : (tensor<1x5120x1280xbf16>) -> tensor<5120x1280xbf16> loc(#loc821)
    %259 = stablehlo.transpose %258, dims = [1, 0] {result_layout = dense<[0, 1]> : tensor<2xindex>, xla_shape = "bf16[1280,5120]{0,1}"} : (tensor<5120x1280xbf16>) -> tensor<1280x5120xbf16> loc(#loc822)
    %260 = stablehlo.dot_general %255, %259, contracting_dims = [1] x [0] : (tensor<257x1280xbf16>, tensor<1280x5120xbf16>) -> tensor<257x5120xbf16> loc(#loc823)
    %261 = stablehlo.reshape %260 : (tensor<257x5120xbf16>) -> tensor<1x257x5120xbf16> loc(#loc824)
    %262 = stablehlo.reshape %arg363 : (tensor<5120xbf16>) -> tensor<1x1x5120xbf16> loc(#loc825)
    %263 = stablehlo.custom_call @tt.mark_argument(%262) {api_version = 0 : i32, mhlo.frontend_attributes = {ttcore.argument_type = "parameter", ttir.name = "l__self___image_encoder_vision_model_encoder_layers_1_mlp_fc1_bias"}} : (tensor<1x1x5120xbf16>) -> tensor<1x1x5120xbf16> loc(#loc826)
    %264 = stablehlo.reshape %263 : (tensor<1x1x5120xbf16>) -> tensor<5120xbf16> loc(#loc827)
    %265 = stablehlo.broadcast_in_dim %264, dims = [2] : (tensor<5120xbf16>) -> tensor<1x257x5120xbf16> loc(#loc828)
    %266 = stablehlo.add %261, %265 : tensor<1x257x5120xbf16> loc(#loc829)
    %267 = stablehlo.composite "tenstorrent.gelu" %266 {decomposition = @tenstorrent.gelu.impl_16} : (tensor<1x257x5120xbf16>) -> tensor<1x257x5120xbf16> loc(#loc830)
    %268 = stablehlo.reshape %267 : (tensor<1x257x5120xbf16>) -> tensor<257x5120xbf16> loc(#loc831)
    %269 = stablehlo.reshape %arg362 : (tensor<1280x5120xbf16>) -> tensor<1x1280x5120xbf16> loc(#loc832)
    %270 = stablehlo.custom_call @tt.mark_argument(%269) {api_version = 0 : i32, mhlo.frontend_attributes = {ttcore.argument_type = "parameter", ttir.name = "l__self___image_encoder_vision_model_encoder_layers_1_mlp_fc2_weight"}} : (tensor<1x1280x5120xbf16>) -> tensor<1x1280x5120xbf16> loc(#loc833)
    %271 = stablehlo.reshape %270 : (tensor<1x1280x5120xbf16>) -> tensor<1280x5120xbf16> loc(#loc834)
    %272 = stablehlo.transpose %271, dims = [1, 0] {result_layout = dense<[0, 1]> : tensor<2xindex>, xla_shape = "bf16[5120,1280]{0,1}"} : (tensor<1280x5120xbf16>) -> tensor<5120x1280xbf16> loc(#loc835)
    %273 = stablehlo.dot_general %268, %272, contracting_dims = [1] x [0] : (tensor<257x5120xbf16>, tensor<5120x1280xbf16>) -> tensor<257x1280xbf16> loc(#loc836)
    %274 = stablehlo.reshape %273 : (tensor<257x1280xbf16>) -> tensor<1x257x1280xbf16> loc(#loc837)
    %275 = stablehlo.reshape %arg361 : (tensor<1280xbf16>) -> tensor<1x1x1280xbf16> loc(#loc838)
    %276 = stablehlo.custom_call @tt.mark_argument(%275) {api_version = 0 : i32, mhlo.frontend_attributes = {ttcore.argument_type = "parameter", ttir.name = "l__self___image_encoder_vision_model_encoder_layers_1_mlp_fc2_bias"}} : (tensor<1x1x1280xbf16>) -> tensor<1x1x1280xbf16> loc(#loc839)
    %277 = stablehlo.reshape %276 : (tensor<1x1x1280xbf16>) -> tensor<1280xbf16> loc(#loc840)
    %278 = stablehlo.broadcast_in_dim %277, dims = [2] : (tensor<1280xbf16>) -> tensor<1x257x1280xbf16> loc(#loc841)
    %279 = stablehlo.add %274, %278 : tensor<1x257x1280xbf16> loc(#loc842)
    %280 = stablehlo.add %247, %279 : tensor<1x257x1280xbf16> loc(#loc843)
    %281 = stablehlo.reshape %arg360 : (tensor<1280xbf16>) -> tensor<1x1x1280xbf16> loc(#loc844)
    %282 = stablehlo.custom_call @tt.mark_argument(%281) {api_version = 0 : i32, mhlo.frontend_attributes = {ttcore.argument_type = "parameter", ttir.name = "l__self___image_encoder_vision_model_encoder_layers_2_layer_norm1_weight"}} : (tensor<1x1x1280xbf16>) -> tensor<1x1x1280xbf16> loc(#loc845)
    %283 = stablehlo.reshape %282 : (tensor<1x1x1280xbf16>) -> tensor<1280xbf16> loc(#loc846)
    %284 = stablehlo.reshape %arg359 : (tensor<1280xbf16>) -> tensor<1x1x1280xbf16> loc(#loc847)
    %285 = stablehlo.custom_call @tt.mark_argument(%284) {api_version = 0 : i32, mhlo.frontend_attributes = {ttcore.argument_type = "parameter", ttir.name = "l__self___image_encoder_vision_model_encoder_layers_2_layer_norm1_bias"}} : (tensor<1x1x1280xbf16>) -> tensor<1x1x1280xbf16> loc(#loc848)
    %286 = stablehlo.reshape %285 : (tensor<1x1x1280xbf16>) -> tensor<1280xbf16> loc(#loc849)
    %287 = stablehlo.composite "tenstorrent.layer_norm" %280, %283, %286 {composite_attributes = {epsilon = 9.99999974E-6 : f32, normalized_shape = dense<1280> : tensor<1xi64>}, decomposition = @tenstorrent.layer_norm.impl_58} : (tensor<1x257x1280xbf16>, tensor<1280xbf16>, tensor<1280xbf16>) -> tensor<1x257x1280xbf16> loc(#loc850)
    %288 = stablehlo.reshape %287 : (tensor<1x257x1280xbf16>) -> tensor<257x1280xbf16> loc(#loc851)
    %289 = stablehlo.reshape %arg403 : (tensor<1280x1280xbf16>) -> tensor<1x1280x1280xbf16> loc(#loc852)
    %290 = stablehlo.custom_call @tt.mark_argument(%289) {api_version = 0 : i32, mhlo.frontend_attributes = {ttcore.argument_type = "parameter", ttir.name = "l__self___image_encoder_vision_model_encoder_layers_2_self_attn_q_proj_weight"}} : (tensor<1x1280x1280xbf16>) -> tensor<1x1280x1280xbf16> loc(#loc853)
    %291 = stablehlo.reshape %290 : (tensor<1x1280x1280xbf16>) -> tensor<1280x1280xbf16> loc(#loc854)
    %292 = stablehlo.transpose %291, dims = [1, 0] {result_layout = dense<[0, 1]> : tensor<2xindex>, xla_shape = "bf16[1280,1280]{0,1}"} : (tensor<1280x1280xbf16>) -> tensor<1280x1280xbf16> loc(#loc855)
    %293 = stablehlo.dot_general %288, %292, contracting_dims = [1] x [0] : (tensor<257x1280xbf16>, tensor<1280x1280xbf16>) -> tensor<257x1280xbf16> loc(#loc856)
    %294 = stablehlo.reshape %293 : (tensor<257x1280xbf16>) -> tensor<1x257x1280xbf16> loc(#loc857)
    %295 = stablehlo.reshape %arg402 : (tensor<1280xbf16>) -> tensor<1x1x1280xbf16> loc(#loc858)
    %296 = stablehlo.custom_call @tt.mark_argument(%295) {api_version = 0 : i32, mhlo.frontend_attributes = {ttcore.argument_type = "parameter", ttir.name = "l__self___image_encoder_vision_model_encoder_layers_2_self_attn_q_proj_bias"}} : (tensor<1x1x1280xbf16>) -> tensor<1x1x1280xbf16> loc(#loc859)
    %297 = stablehlo.reshape %296 : (tensor<1x1x1280xbf16>) -> tensor<1280xbf16> loc(#loc860)
    %298 = stablehlo.broadcast_in_dim %297, dims = [2] : (tensor<1280xbf16>) -> tensor<1x257x1280xbf16> loc(#loc861)
    %299 = stablehlo.add %294, %298 : tensor<1x257x1280xbf16> loc(#loc862)
    %300 = stablehlo.reshape %299 : (tensor<1x257x1280xbf16>) -> tensor<1x257x16x80xbf16> loc(#loc863)
    %301 = stablehlo.transpose %300, dims = [0, 2, 1, 3] {result_layout = dense<[3, 1, 2, 0]> : tensor<4xindex>, xla_shape = "bf16[1,16,257,80]{3,1,2,0}"} : (tensor<1x257x16x80xbf16>) -> tensor<1x16x257x80xbf16> loc(#loc864)
    %302 = stablehlo.convert %301 {result_layout = dense<[3, 1, 2, 0]> : tensor<4xindex>, xla_shape = "f32[1,16,257,80]{3,1,2,0}"} : (tensor<1x16x257x80xbf16>) -> tensor<1x16x257x80xf32> loc(#loc865)
    %303 = stablehlo.multiply %302, %cst_6 : tensor<1x16x257x80xf32> loc(#loc866)
    %304 = stablehlo.reshape %arg401 : (tensor<1280x1280xbf16>) -> tensor<1x1280x1280xbf16> loc(#loc867)
    %305 = stablehlo.custom_call @tt.mark_argument(%304) {api_version = 0 : i32, mhlo.frontend_attributes = {ttcore.argument_type = "parameter", ttir.name = "l__self___image_encoder_vision_model_encoder_layers_2_self_attn_k_proj_weight"}} : (tensor<1x1280x1280xbf16>) -> tensor<1x1280x1280xbf16> loc(#loc868)
    %306 = stablehlo.reshape %305 : (tensor<1x1280x1280xbf16>) -> tensor<1280x1280xbf16> loc(#loc869)
    %307 = stablehlo.transpose %306, dims = [1, 0] {result_layout = dense<[0, 1]> : tensor<2xindex>, xla_shape = "bf16[1280,1280]{0,1}"} : (tensor<1280x1280xbf16>) -> tensor<1280x1280xbf16> loc(#loc870)
    %308 = stablehlo.dot_general %288, %307, contracting_dims = [1] x [0] : (tensor<257x1280xbf16>, tensor<1280x1280xbf16>) -> tensor<257x1280xbf16> loc(#loc871)
    %309 = stablehlo.reshape %308 : (tensor<257x1280xbf16>) -> tensor<1x257x1280xbf16> loc(#loc872)
    %310 = stablehlo.reshape %arg400 : (tensor<1280xbf16>) -> tensor<1x1x1280xbf16> loc(#loc873)
    %311 = stablehlo.custom_call @tt.mark_argument(%310) {api_version = 0 : i32, mhlo.frontend_attributes = {ttcore.argument_type = "parameter", ttir.name = "l__self___image_encoder_vision_model_encoder_layers_2_self_attn_k_proj_bias"}} : (tensor<1x1x1280xbf16>) -> tensor<1x1x1280xbf16> loc(#loc874)
    %312 = stablehlo.reshape %311 : (tensor<1x1x1280xbf16>) -> tensor<1280xbf16> loc(#loc875)
    %313 = stablehlo.broadcast_in_dim %312, dims = [2] : (tensor<1280xbf16>) -> tensor<1x257x1280xbf16> loc(#loc876)
    %314 = stablehlo.add %309, %313 : tensor<1x257x1280xbf16> loc(#loc877)
    %315 = stablehlo.reshape %314 : (tensor<1x257x1280xbf16>) -> tensor<1x257x16x80xbf16> loc(#loc878)
    %316 = stablehlo.transpose %315, dims = [0, 2, 1, 3] {result_layout = dense<[3, 1, 2, 0]> : tensor<4xindex>, xla_shape = "bf16[1,16,257,80]{3,1,2,0}"} : (tensor<1x257x16x80xbf16>) -> tensor<1x16x257x80xbf16> loc(#loc879)
    %317 = stablehlo.convert %316 {result_layout = dense<[3, 1, 2, 0]> : tensor<4xindex>, xla_shape = "f32[1,16,257,80]{3,1,2,0}"} : (tensor<1x16x257x80xbf16>) -> tensor<1x16x257x80xf32> loc(#loc880)
    %318 = stablehlo.transpose %317, dims = [0, 1, 3, 2] {result_layout = dense<[2, 1, 3, 0]> : tensor<4xindex>, xla_shape = "f32[1,16,80,257]{2,1,3,0}"} : (tensor<1x16x257x80xf32>) -> tensor<1x16x80x257xf32> loc(#loc881)
    %319 = stablehlo.multiply %318, %cst_5 : tensor<1x16x80x257xf32> loc(#loc882)
    %320 = stablehlo.dot_general %303, %319, batching_dims = [0, 1] x [0, 1], contracting_dims = [3] x [2] {mhlo.frontend_attributes = {grad_x = "false", grad_y = "false"}} : (tensor<1x16x257x80xf32>, tensor<1x16x80x257xf32>) -> tensor<1x16x257x257xf32> loc(#loc883)
    %321 = stablehlo.convert %320 : (tensor<1x16x257x257xf32>) -> tensor<1x16x257x257xf64> loc(#loc884)
    %322 = stablehlo.compare  EQ, %321, %cst_4 : (tensor<1x16x257x257xf64>, tensor<1x16x257x257xf64>) -> tensor<1x16x257x257xi1> loc(#loc885)
    %323 = stablehlo.not %322 : tensor<1x16x257x257xi1> loc(#loc886)
    %324 = stablehlo.reduce(%323 init: %c_10) across dimensions = [3] : (tensor<1x16x257x257xi1>, tensor<i1>) -> tensor<1x16x257xi1>
     reducer(%arg558: tensor<i1> loc("reduce.3186"), %arg559: tensor<i1> loc("reduce.3186"))  {
      %4130 = stablehlo.or %arg558, %arg559 : tensor<i1> loc(#loc888)
      %4131 = stablehlo.select %4130, %c, %c_10 : tensor<i1>, tensor<i1> loc(#loc889)
      stablehlo.return %4131 : tensor<i1> loc(#loc)
    } loc(#loc887)
    %325 = stablehlo.reshape %324 : (tensor<1x16x257xi1>) -> tensor<1x16x257x1xi1> loc(#loc890)
    %326 = stablehlo.not %325 : tensor<1x16x257x1xi1> loc(#loc891)
    %327 = stablehlo.reshape %326 : (tensor<1x16x257x1xi1>) -> tensor<1x16x257xi1> loc(#loc892)
    %328 = stablehlo.broadcast_in_dim %327, dims = [0, 1, 2] : (tensor<1x16x257xi1>) -> tensor<1x16x257x257xi1> loc(#loc893)
    %329 = stablehlo.reduce(%320 init: %cst_8) applies stablehlo.maximum across dimensions = [3] : (tensor<1x16x257x257xf32>, tensor<f32>) -> tensor<1x16x257xf32> loc(#loc894)
    %330 = stablehlo.broadcast_in_dim %329, dims = [0, 1, 2] : (tensor<1x16x257xf32>) -> tensor<1x16x257x257xf32> loc(#loc895)
    %331 = stablehlo.subtract %320, %330 : tensor<1x16x257x257xf32> loc(#loc896)
    %332 = stablehlo.exponential %331 : tensor<1x16x257x257xf32> loc(#loc897)
    %333 = stablehlo.reduce(%332 init: %cst_9) applies stablehlo.add across dimensions = [3] : (tensor<1x16x257x257xf32>, tensor<f32>) -> tensor<1x16x257xf32> loc(#loc898)
    %334 = stablehlo.broadcast_in_dim %333, dims = [0, 1, 2] : (tensor<1x16x257xf32>) -> tensor<1x16x257x257xf32> loc(#loc899)
    %335 = stablehlo.divide %332, %334 : tensor<1x16x257x257xf32> loc(#loc900)
    %336 = stablehlo.select %328, %cst_3, %335 : tensor<1x16x257x257xi1>, tensor<1x16x257x257xf32> loc(#loc901)
    %337 = stablehlo.reshape %arg358 : (tensor<1280x1280xbf16>) -> tensor<1x1280x1280xbf16> loc(#loc902)
    %338 = stablehlo.custom_call @tt.mark_argument(%337) {api_version = 0 : i32, mhlo.frontend_attributes = {ttcore.argument_type = "parameter", ttir.name = "l__self___image_encoder_vision_model_encoder_layers_2_self_attn_v_proj_weight"}} : (tensor<1x1280x1280xbf16>) -> tensor<1x1280x1280xbf16> loc(#loc903)
    %339 = stablehlo.reshape %338 : (tensor<1x1280x1280xbf16>) -> tensor<1280x1280xbf16> loc(#loc904)
    %340 = stablehlo.transpose %339, dims = [1, 0] {result_layout = dense<[0, 1]> : tensor<2xindex>, xla_shape = "bf16[1280,1280]{0,1}"} : (tensor<1280x1280xbf16>) -> tensor<1280x1280xbf16> loc(#loc905)
    %341 = stablehlo.dot_general %288, %340, contracting_dims = [1] x [0] : (tensor<257x1280xbf16>, tensor<1280x1280xbf16>) -> tensor<257x1280xbf16> loc(#loc906)
    %342 = stablehlo.reshape %341 : (tensor<257x1280xbf16>) -> tensor<1x257x1280xbf16> loc(#loc907)
    %343 = stablehlo.reshape %arg357 : (tensor<1280xbf16>) -> tensor<1x1x1280xbf16> loc(#loc908)
    %344 = stablehlo.custom_call @tt.mark_argument(%343) {api_version = 0 : i32, mhlo.frontend_attributes = {ttcore.argument_type = "parameter", ttir.name = "l__self___image_encoder_vision_model_encoder_layers_2_self_attn_v_proj_bias"}} : (tensor<1x1x1280xbf16>) -> tensor<1x1x1280xbf16> loc(#loc909)
    %345 = stablehlo.reshape %344 : (tensor<1x1x1280xbf16>) -> tensor<1280xbf16> loc(#loc910)
    %346 = stablehlo.broadcast_in_dim %345, dims = [2] : (tensor<1280xbf16>) -> tensor<1x257x1280xbf16> loc(#loc911)
    %347 = stablehlo.add %342, %346 : tensor<1x257x1280xbf16> loc(#loc912)
    %348 = stablehlo.reshape %347 : (tensor<1x257x1280xbf16>) -> tensor<1x257x16x80xbf16> loc(#loc913)
    %349 = stablehlo.transpose %348, dims = [0, 2, 1, 3] {result_layout = dense<[3, 1, 2, 0]> : tensor<4xindex>, xla_shape = "bf16[1,16,257,80]{3,1,2,0}"} : (tensor<1x257x16x80xbf16>) -> tensor<1x16x257x80xbf16> loc(#loc914)
    %350 = stablehlo.convert %349 {result_layout = dense<[3, 1, 2, 0]> : tensor<4xindex>, xla_shape = "f32[1,16,257,80]{3,1,2,0}"} : (tensor<1x16x257x80xbf16>) -> tensor<1x16x257x80xf32> loc(#loc915)
    %351 = stablehlo.dot_general %336, %350, batching_dims = [0, 1] x [0, 1], contracting_dims = [3] x [2] {mhlo.frontend_attributes = {grad_x = "false", grad_y = "false"}} : (tensor<1x16x257x257xf32>, tensor<1x16x257x80xf32>) -> tensor<1x16x257x80xf32> loc(#loc916)
    %352 = stablehlo.convert %351 : (tensor<1x16x257x80xf32>) -> tensor<1x16x257x80xbf16> loc(#loc917)
    %353 = stablehlo.transpose %352, dims = [0, 2, 1, 3] {result_layout = dense<[3, 1, 2, 0]> : tensor<4xindex>, xla_shape = "bf16[1,257,16,80]{3,1,2,0}"} : (tensor<1x16x257x80xbf16>) -> tensor<1x257x16x80xbf16> loc(#loc918)
    %354 = stablehlo.reshape %353 : (tensor<1x257x16x80xbf16>) -> tensor<257x1280xbf16> loc(#loc919)
    %355 = stablehlo.reshape %arg356 : (tensor<1280x1280xbf16>) -> tensor<1x1280x1280xbf16> loc(#loc920)
    %356 = stablehlo.custom_call @tt.mark_argument(%355) {api_version = 0 : i32, mhlo.frontend_attributes = {ttcore.argument_type = "parameter", ttir.name = "l__self___image_encoder_vision_model_encoder_layers_2_self_attn_out_proj_weight"}} : (tensor<1x1280x1280xbf16>) -> tensor<1x1280x1280xbf16> loc(#loc921)
    %357 = stablehlo.reshape %356 : (tensor<1x1280x1280xbf16>) -> tensor<1280x1280xbf16> loc(#loc922)
    %358 = stablehlo.transpose %357, dims = [1, 0] {result_layout = dense<[0, 1]> : tensor<2xindex>, xla_shape = "bf16[1280,1280]{0,1}"} : (tensor<1280x1280xbf16>) -> tensor<1280x1280xbf16> loc(#loc923)
    %359 = stablehlo.dot_general %354, %358, contracting_dims = [1] x [0] : (tensor<257x1280xbf16>, tensor<1280x1280xbf16>) -> tensor<257x1280xbf16> loc(#loc924)
    %360 = stablehlo.reshape %359 : (tensor<257x1280xbf16>) -> tensor<1x257x1280xbf16> loc(#loc925)
    %361 = stablehlo.reshape %arg355 : (tensor<1280xbf16>) -> tensor<1x1x1280xbf16> loc(#loc926)
    %362 = stablehlo.custom_call @tt.mark_argument(%361) {api_version = 0 : i32, mhlo.frontend_attributes = {ttcore.argument_type = "parameter", ttir.name = "l__self___image_encoder_vision_model_encoder_layers_2_self_attn_out_proj_bias"}} : (tensor<1x1x1280xbf16>) -> tensor<1x1x1280xbf16> loc(#loc927)
    %363 = stablehlo.reshape %362 : (tensor<1x1x1280xbf16>) -> tensor<1280xbf16> loc(#loc928)
    %364 = stablehlo.broadcast_in_dim %363, dims = [2] : (tensor<1280xbf16>) -> tensor<1x257x1280xbf16> loc(#loc929)
    %365 = stablehlo.add %360, %364 : tensor<1x257x1280xbf16> loc(#loc930)
    %366 = stablehlo.add %280, %365 : tensor<1x257x1280xbf16> loc(#loc931)
    %367 = stablehlo.reshape %arg354 : (tensor<1280xbf16>) -> tensor<1x1x1280xbf16> loc(#loc932)
    %368 = stablehlo.custom_call @tt.mark_argument(%367) {api_version = 0 : i32, mhlo.frontend_attributes = {ttcore.argument_type = "parameter", ttir.name = "l__self___image_encoder_vision_model_encoder_layers_2_layer_norm2_weight"}} : (tensor<1x1x1280xbf16>) -> tensor<1x1x1280xbf16> loc(#loc933)
    %369 = stablehlo.reshape %368 : (tensor<1x1x1280xbf16>) -> tensor<1280xbf16> loc(#loc934)
    %370 = stablehlo.reshape %arg353 : (tensor<1280xbf16>) -> tensor<1x1x1280xbf16> loc(#loc935)
    %371 = stablehlo.custom_call @tt.mark_argument(%370) {api_version = 0 : i32, mhlo.frontend_attributes = {ttcore.argument_type = "parameter", ttir.name = "l__self___image_encoder_vision_model_encoder_layers_2_layer_norm2_bias"}} : (tensor<1x1x1280xbf16>) -> tensor<1x1x1280xbf16> loc(#loc936)
    %372 = stablehlo.reshape %371 : (tensor<1x1x1280xbf16>) -> tensor<1280xbf16> loc(#loc937)
    %373 = stablehlo.composite "tenstorrent.layer_norm" %366, %369, %372 {composite_attributes = {epsilon = 9.99999974E-6 : f32, normalized_shape = dense<1280> : tensor<1xi64>}, decomposition = @tenstorrent.layer_norm.impl_54} : (tensor<1x257x1280xbf16>, tensor<1280xbf16>, tensor<1280xbf16>) -> tensor<1x257x1280xbf16> loc(#loc938)
    %374 = stablehlo.reshape %373 : (tensor<1x257x1280xbf16>) -> tensor<257x1280xbf16> loc(#loc939)
    %375 = stablehlo.reshape %arg352 : (tensor<5120x1280xbf16>) -> tensor<1x5120x1280xbf16> loc(#loc940)
    %376 = stablehlo.custom_call @tt.mark_argument(%375) {api_version = 0 : i32, mhlo.frontend_attributes = {ttcore.argument_type = "parameter", ttir.name = "l__self___image_encoder_vision_model_encoder_layers_2_mlp_fc1_weight"}} : (tensor<1x5120x1280xbf16>) -> tensor<1x5120x1280xbf16> loc(#loc941)
    %377 = stablehlo.reshape %376 : (tensor<1x5120x1280xbf16>) -> tensor<5120x1280xbf16> loc(#loc942)
    %378 = stablehlo.transpose %377, dims = [1, 0] {result_layout = dense<[0, 1]> : tensor<2xindex>, xla_shape = "bf16[1280,5120]{0,1}"} : (tensor<5120x1280xbf16>) -> tensor<1280x5120xbf16> loc(#loc943)
    %379 = stablehlo.dot_general %374, %378, contracting_dims = [1] x [0] : (tensor<257x1280xbf16>, tensor<1280x5120xbf16>) -> tensor<257x5120xbf16> loc(#loc944)
    %380 = stablehlo.reshape %379 : (tensor<257x5120xbf16>) -> tensor<1x257x5120xbf16> loc(#loc945)
    %381 = stablehlo.reshape %arg351 : (tensor<5120xbf16>) -> tensor<1x1x5120xbf16> loc(#loc946)
    %382 = stablehlo.custom_call @tt.mark_argument(%381) {api_version = 0 : i32, mhlo.frontend_attributes = {ttcore.argument_type = "parameter", ttir.name = "l__self___image_encoder_vision_model_encoder_layers_2_mlp_fc1_bias"}} : (tensor<1x1x5120xbf16>) -> tensor<1x1x5120xbf16> loc(#loc947)
    %383 = stablehlo.reshape %382 : (tensor<1x1x5120xbf16>) -> tensor<5120xbf16> loc(#loc948)
    %384 = stablehlo.broadcast_in_dim %383, dims = [2] : (tensor<5120xbf16>) -> tensor<1x257x5120xbf16> loc(#loc949)
    %385 = stablehlo.add %380, %384 : tensor<1x257x5120xbf16> loc(#loc950)
    %386 = stablehlo.composite "tenstorrent.gelu" %385 {decomposition = @tenstorrent.gelu.impl_20} : (tensor<1x257x5120xbf16>) -> tensor<1x257x5120xbf16> loc(#loc951)
    %387 = stablehlo.reshape %386 : (tensor<1x257x5120xbf16>) -> tensor<257x5120xbf16> loc(#loc952)
    %388 = stablehlo.reshape %arg350 : (tensor<1280x5120xbf16>) -> tensor<1x1280x5120xbf16> loc(#loc953)
    %389 = stablehlo.custom_call @tt.mark_argument(%388) {api_version = 0 : i32, mhlo.frontend_attributes = {ttcore.argument_type = "parameter", ttir.name = "l__self___image_encoder_vision_model_encoder_layers_2_mlp_fc2_weight"}} : (tensor<1x1280x5120xbf16>) -> tensor<1x1280x5120xbf16> loc(#loc954)
    %390 = stablehlo.reshape %389 : (tensor<1x1280x5120xbf16>) -> tensor<1280x5120xbf16> loc(#loc955)
    %391 = stablehlo.transpose %390, dims = [1, 0] {result_layout = dense<[0, 1]> : tensor<2xindex>, xla_shape = "bf16[5120,1280]{0,1}"} : (tensor<1280x5120xbf16>) -> tensor<5120x1280xbf16> loc(#loc956)
    %392 = stablehlo.dot_general %387, %391, contracting_dims = [1] x [0] : (tensor<257x5120xbf16>, tensor<5120x1280xbf16>) -> tensor<257x1280xbf16> loc(#loc957)
    %393 = stablehlo.reshape %392 : (tensor<257x1280xbf16>) -> tensor<1x257x1280xbf16> loc(#loc958)
    %394 = stablehlo.reshape %arg349 : (tensor<1280xbf16>) -> tensor<1x1x1280xbf16> loc(#loc959)
    %395 = stablehlo.custom_call @tt.mark_argument(%394) {api_version = 0 : i32, mhlo.frontend_attributes = {ttcore.argument_type = "parameter", ttir.name = "l__self___image_encoder_vision_model_encoder_layers_2_mlp_fc2_bias"}} : (tensor<1x1x1280xbf16>) -> tensor<1x1x1280xbf16> loc(#loc960)
    %396 = stablehlo.reshape %395 : (tensor<1x1x1280xbf16>) -> tensor<1280xbf16> loc(#loc961)
    %397 = stablehlo.broadcast_in_dim %396, dims = [2] : (tensor<1280xbf16>) -> tensor<1x257x1280xbf16> loc(#loc962)
    %398 = stablehlo.add %393, %397 : tensor<1x257x1280xbf16> loc(#loc963)
    %399 = stablehlo.add %366, %398 : tensor<1x257x1280xbf16> loc(#loc964)
    %400 = stablehlo.reshape %arg348 : (tensor<1280xbf16>) -> tensor<1x1x1280xbf16> loc(#loc965)
    %401 = stablehlo.custom_call @tt.mark_argument(%400) {api_version = 0 : i32, mhlo.frontend_attributes = {ttcore.argument_type = "parameter", ttir.name = "l__self___image_encoder_vision_model_encoder_layers_3_layer_norm1_weight"}} : (tensor<1x1x1280xbf16>) -> tensor<1x1x1280xbf16> loc(#loc966)
    %402 = stablehlo.reshape %401 : (tensor<1x1x1280xbf16>) -> tensor<1280xbf16> loc(#loc967)
    %403 = stablehlo.reshape %arg347 : (tensor<1280xbf16>) -> tensor<1x1x1280xbf16> loc(#loc968)
    %404 = stablehlo.custom_call @tt.mark_argument(%403) {api_version = 0 : i32, mhlo.frontend_attributes = {ttcore.argument_type = "parameter", ttir.name = "l__self___image_encoder_vision_model_encoder_layers_3_layer_norm1_bias"}} : (tensor<1x1x1280xbf16>) -> tensor<1x1x1280xbf16> loc(#loc969)
    %405 = stablehlo.reshape %404 : (tensor<1x1x1280xbf16>) -> tensor<1280xbf16> loc(#loc970)
    %406 = stablehlo.composite "tenstorrent.layer_norm" %399, %402, %405 {composite_attributes = {epsilon = 9.99999974E-6 : f32, normalized_shape = dense<1280> : tensor<1xi64>}, decomposition = @tenstorrent.layer_norm.impl_43} : (tensor<1x257x1280xbf16>, tensor<1280xbf16>, tensor<1280xbf16>) -> tensor<1x257x1280xbf16> loc(#loc971)
    %407 = stablehlo.reshape %406 : (tensor<1x257x1280xbf16>) -> tensor<257x1280xbf16> loc(#loc972)
    %408 = stablehlo.reshape %arg407 : (tensor<1280x1280xbf16>) -> tensor<1x1280x1280xbf16> loc(#loc973)
    %409 = stablehlo.custom_call @tt.mark_argument(%408) {api_version = 0 : i32, mhlo.frontend_attributes = {ttcore.argument_type = "parameter", ttir.name = "l__self___image_encoder_vision_model_encoder_layers_3_self_attn_q_proj_weight"}} : (tensor<1x1280x1280xbf16>) -> tensor<1x1280x1280xbf16> loc(#loc974)
    %410 = stablehlo.reshape %409 : (tensor<1x1280x1280xbf16>) -> tensor<1280x1280xbf16> loc(#loc975)
    %411 = stablehlo.transpose %410, dims = [1, 0] {result_layout = dense<[0, 1]> : tensor<2xindex>, xla_shape = "bf16[1280,1280]{0,1}"} : (tensor<1280x1280xbf16>) -> tensor<1280x1280xbf16> loc(#loc976)
    %412 = stablehlo.dot_general %407, %411, contracting_dims = [1] x [0] : (tensor<257x1280xbf16>, tensor<1280x1280xbf16>) -> tensor<257x1280xbf16> loc(#loc977)
    %413 = stablehlo.reshape %412 : (tensor<257x1280xbf16>) -> tensor<1x257x1280xbf16> loc(#loc978)
    %414 = stablehlo.reshape %arg406 : (tensor<1280xbf16>) -> tensor<1x1x1280xbf16> loc(#loc979)
    %415 = stablehlo.custom_call @tt.mark_argument(%414) {api_version = 0 : i32, mhlo.frontend_attributes = {ttcore.argument_type = "parameter", ttir.name = "l__self___image_encoder_vision_model_encoder_layers_3_self_attn_q_proj_bias"}} : (tensor<1x1x1280xbf16>) -> tensor<1x1x1280xbf16> loc(#loc980)
    %416 = stablehlo.reshape %415 : (tensor<1x1x1280xbf16>) -> tensor<1280xbf16> loc(#loc981)
    %417 = stablehlo.broadcast_in_dim %416, dims = [2] : (tensor<1280xbf16>) -> tensor<1x257x1280xbf16> loc(#loc982)
    %418 = stablehlo.add %413, %417 : tensor<1x257x1280xbf16> loc(#loc983)
    %419 = stablehlo.reshape %418 : (tensor<1x257x1280xbf16>) -> tensor<1x257x16x80xbf16> loc(#loc984)
    %420 = stablehlo.transpose %419, dims = [0, 2, 1, 3] {result_layout = dense<[3, 1, 2, 0]> : tensor<4xindex>, xla_shape = "bf16[1,16,257,80]{3,1,2,0}"} : (tensor<1x257x16x80xbf16>) -> tensor<1x16x257x80xbf16> loc(#loc985)
    %421 = stablehlo.convert %420 {result_layout = dense<[3, 1, 2, 0]> : tensor<4xindex>, xla_shape = "f32[1,16,257,80]{3,1,2,0}"} : (tensor<1x16x257x80xbf16>) -> tensor<1x16x257x80xf32> loc(#loc986)
    %422 = stablehlo.multiply %421, %cst_6 : tensor<1x16x257x80xf32> loc(#loc987)
    %423 = stablehlo.reshape %arg405 : (tensor<1280x1280xbf16>) -> tensor<1x1280x1280xbf16> loc(#loc988)
    %424 = stablehlo.custom_call @tt.mark_argument(%423) {api_version = 0 : i32, mhlo.frontend_attributes = {ttcore.argument_type = "parameter", ttir.name = "l__self___image_encoder_vision_model_encoder_layers_3_self_attn_k_proj_weight"}} : (tensor<1x1280x1280xbf16>) -> tensor<1x1280x1280xbf16> loc(#loc989)
    %425 = stablehlo.reshape %424 : (tensor<1x1280x1280xbf16>) -> tensor<1280x1280xbf16> loc(#loc990)
    %426 = stablehlo.transpose %425, dims = [1, 0] {result_layout = dense<[0, 1]> : tensor<2xindex>, xla_shape = "bf16[1280,1280]{0,1}"} : (tensor<1280x1280xbf16>) -> tensor<1280x1280xbf16> loc(#loc991)
    %427 = stablehlo.dot_general %407, %426, contracting_dims = [1] x [0] : (tensor<257x1280xbf16>, tensor<1280x1280xbf16>) -> tensor<257x1280xbf16> loc(#loc992)
    %428 = stablehlo.reshape %427 : (tensor<257x1280xbf16>) -> tensor<1x257x1280xbf16> loc(#loc993)
    %429 = stablehlo.reshape %arg404 : (tensor<1280xbf16>) -> tensor<1x1x1280xbf16> loc(#loc994)
    %430 = stablehlo.custom_call @tt.mark_argument(%429) {api_version = 0 : i32, mhlo.frontend_attributes = {ttcore.argument_type = "parameter", ttir.name = "l__self___image_encoder_vision_model_encoder_layers_3_self_attn_k_proj_bias"}} : (tensor<1x1x1280xbf16>) -> tensor<1x1x1280xbf16> loc(#loc995)
    %431 = stablehlo.reshape %430 : (tensor<1x1x1280xbf16>) -> tensor<1280xbf16> loc(#loc996)
    %432 = stablehlo.broadcast_in_dim %431, dims = [2] : (tensor<1280xbf16>) -> tensor<1x257x1280xbf16> loc(#loc997)
    %433 = stablehlo.add %428, %432 : tensor<1x257x1280xbf16> loc(#loc998)
    %434 = stablehlo.reshape %433 : (tensor<1x257x1280xbf16>) -> tensor<1x257x16x80xbf16> loc(#loc999)
    %435 = stablehlo.transpose %434, dims = [0, 2, 1, 3] {result_layout = dense<[3, 1, 2, 0]> : tensor<4xindex>, xla_shape = "bf16[1,16,257,80]{3,1,2,0}"} : (tensor<1x257x16x80xbf16>) -> tensor<1x16x257x80xbf16> loc(#loc1000)
    %436 = stablehlo.convert %435 {result_layout = dense<[3, 1, 2, 0]> : tensor<4xindex>, xla_shape = "f32[1,16,257,80]{3,1,2,0}"} : (tensor<1x16x257x80xbf16>) -> tensor<1x16x257x80xf32> loc(#loc1001)
    %437 = stablehlo.transpose %436, dims = [0, 1, 3, 2] {result_layout = dense<[2, 1, 3, 0]> : tensor<4xindex>, xla_shape = "f32[1,16,80,257]{2,1,3,0}"} : (tensor<1x16x257x80xf32>) -> tensor<1x16x80x257xf32> loc(#loc1002)
    %438 = stablehlo.multiply %437, %cst_5 : tensor<1x16x80x257xf32> loc(#loc1003)
    %439 = stablehlo.dot_general %422, %438, batching_dims = [0, 1] x [0, 1], contracting_dims = [3] x [2] {mhlo.frontend_attributes = {grad_x = "false", grad_y = "false"}} : (tensor<1x16x257x80xf32>, tensor<1x16x80x257xf32>) -> tensor<1x16x257x257xf32> loc(#loc1004)
    %440 = stablehlo.convert %439 : (tensor<1x16x257x257xf32>) -> tensor<1x16x257x257xf64> loc(#loc1005)
    %441 = stablehlo.compare  EQ, %440, %cst_4 : (tensor<1x16x257x257xf64>, tensor<1x16x257x257xf64>) -> tensor<1x16x257x257xi1> loc(#loc1006)
    %442 = stablehlo.not %441 : tensor<1x16x257x257xi1> loc(#loc1007)
    %443 = stablehlo.reduce(%442 init: %c_10) across dimensions = [3] : (tensor<1x16x257x257xi1>, tensor<i1>) -> tensor<1x16x257xi1>
     reducer(%arg558: tensor<i1> loc("reduce.3496"), %arg559: tensor<i1> loc("reduce.3496"))  {
      %4130 = stablehlo.or %arg558, %arg559 : tensor<i1> loc(#loc1009)
      %4131 = stablehlo.select %4130, %c, %c_10 : tensor<i1>, tensor<i1> loc(#loc1010)
      stablehlo.return %4131 : tensor<i1> loc(#loc)
    } loc(#loc1008)
    %444 = stablehlo.reshape %443 : (tensor<1x16x257xi1>) -> tensor<1x16x257x1xi1> loc(#loc1011)
    %445 = stablehlo.not %444 : tensor<1x16x257x1xi1> loc(#loc1012)
    %446 = stablehlo.reshape %445 : (tensor<1x16x257x1xi1>) -> tensor<1x16x257xi1> loc(#loc1013)
    %447 = stablehlo.broadcast_in_dim %446, dims = [0, 1, 2] : (tensor<1x16x257xi1>) -> tensor<1x16x257x257xi1> loc(#loc1014)
    %448 = stablehlo.reduce(%439 init: %cst_8) applies stablehlo.maximum across dimensions = [3] : (tensor<1x16x257x257xf32>, tensor<f32>) -> tensor<1x16x257xf32> loc(#loc1015)
    %449 = stablehlo.broadcast_in_dim %448, dims = [0, 1, 2] : (tensor<1x16x257xf32>) -> tensor<1x16x257x257xf32> loc(#loc1016)
    %450 = stablehlo.subtract %439, %449 : tensor<1x16x257x257xf32> loc(#loc1017)
    %451 = stablehlo.exponential %450 : tensor<1x16x257x257xf32> loc(#loc1018)
    %452 = stablehlo.reduce(%451 init: %cst_9) applies stablehlo.add across dimensions = [3] : (tensor<1x16x257x257xf32>, tensor<f32>) -> tensor<1x16x257xf32> loc(#loc1019)
    %453 = stablehlo.broadcast_in_dim %452, dims = [0, 1, 2] : (tensor<1x16x257xf32>) -> tensor<1x16x257x257xf32> loc(#loc1020)
    %454 = stablehlo.divide %451, %453 : tensor<1x16x257x257xf32> loc(#loc1021)
    %455 = stablehlo.select %447, %cst_3, %454 : tensor<1x16x257x257xi1>, tensor<1x16x257x257xf32> loc(#loc1022)
    %456 = stablehlo.reshape %arg346 : (tensor<1280x1280xbf16>) -> tensor<1x1280x1280xbf16> loc(#loc1023)
    %457 = stablehlo.custom_call @tt.mark_argument(%456) {api_version = 0 : i32, mhlo.frontend_attributes = {ttcore.argument_type = "parameter", ttir.name = "l__self___image_encoder_vision_model_encoder_layers_3_self_attn_v_proj_weight"}} : (tensor<1x1280x1280xbf16>) -> tensor<1x1280x1280xbf16> loc(#loc1024)
    %458 = stablehlo.reshape %457 : (tensor<1x1280x1280xbf16>) -> tensor<1280x1280xbf16> loc(#loc1025)
    %459 = stablehlo.transpose %458, dims = [1, 0] {result_layout = dense<[0, 1]> : tensor<2xindex>, xla_shape = "bf16[1280,1280]{0,1}"} : (tensor<1280x1280xbf16>) -> tensor<1280x1280xbf16> loc(#loc1026)
    %460 = stablehlo.dot_general %407, %459, contracting_dims = [1] x [0] : (tensor<257x1280xbf16>, tensor<1280x1280xbf16>) -> tensor<257x1280xbf16> loc(#loc1027)
    %461 = stablehlo.reshape %460 : (tensor<257x1280xbf16>) -> tensor<1x257x1280xbf16> loc(#loc1028)
    %462 = stablehlo.reshape %arg345 : (tensor<1280xbf16>) -> tensor<1x1x1280xbf16> loc(#loc1029)
    %463 = stablehlo.custom_call @tt.mark_argument(%462) {api_version = 0 : i32, mhlo.frontend_attributes = {ttcore.argument_type = "parameter", ttir.name = "l__self___image_encoder_vision_model_encoder_layers_3_self_attn_v_proj_bias"}} : (tensor<1x1x1280xbf16>) -> tensor<1x1x1280xbf16> loc(#loc1030)
    %464 = stablehlo.reshape %463 : (tensor<1x1x1280xbf16>) -> tensor<1280xbf16> loc(#loc1031)
    %465 = stablehlo.broadcast_in_dim %464, dims = [2] : (tensor<1280xbf16>) -> tensor<1x257x1280xbf16> loc(#loc1032)
    %466 = stablehlo.add %461, %465 : tensor<1x257x1280xbf16> loc(#loc1033)
    %467 = stablehlo.reshape %466 : (tensor<1x257x1280xbf16>) -> tensor<1x257x16x80xbf16> loc(#loc1034)
    %468 = stablehlo.transpose %467, dims = [0, 2, 1, 3] {result_layout = dense<[3, 1, 2, 0]> : tensor<4xindex>, xla_shape = "bf16[1,16,257,80]{3,1,2,0}"} : (tensor<1x257x16x80xbf16>) -> tensor<1x16x257x80xbf16> loc(#loc1035)
    %469 = stablehlo.convert %468 {result_layout = dense<[3, 1, 2, 0]> : tensor<4xindex>, xla_shape = "f32[1,16,257,80]{3,1,2,0}"} : (tensor<1x16x257x80xbf16>) -> tensor<1x16x257x80xf32> loc(#loc1036)
    %470 = stablehlo.dot_general %455, %469, batching_dims = [0, 1] x [0, 1], contracting_dims = [3] x [2] {mhlo.frontend_attributes = {grad_x = "false", grad_y = "false"}} : (tensor<1x16x257x257xf32>, tensor<1x16x257x80xf32>) -> tensor<1x16x257x80xf32> loc(#loc1037)
    %471 = stablehlo.convert %470 : (tensor<1x16x257x80xf32>) -> tensor<1x16x257x80xbf16> loc(#loc1038)
    %472 = stablehlo.transpose %471, dims = [0, 2, 1, 3] {result_layout = dense<[3, 1, 2, 0]> : tensor<4xindex>, xla_shape = "bf16[1,257,16,80]{3,1,2,0}"} : (tensor<1x16x257x80xbf16>) -> tensor<1x257x16x80xbf16> loc(#loc1039)
    %473 = stablehlo.reshape %472 : (tensor<1x257x16x80xbf16>) -> tensor<257x1280xbf16> loc(#loc1040)
    %474 = stablehlo.reshape %arg344 : (tensor<1280x1280xbf16>) -> tensor<1x1280x1280xbf16> loc(#loc1041)
    %475 = stablehlo.custom_call @tt.mark_argument(%474) {api_version = 0 : i32, mhlo.frontend_attributes = {ttcore.argument_type = "parameter", ttir.name = "l__self___image_encoder_vision_model_encoder_layers_3_self_attn_out_proj_weight"}} : (tensor<1x1280x1280xbf16>) -> tensor<1x1280x1280xbf16> loc(#loc1042)
    %476 = stablehlo.reshape %475 : (tensor<1x1280x1280xbf16>) -> tensor<1280x1280xbf16> loc(#loc1043)
    %477 = stablehlo.transpose %476, dims = [1, 0] {result_layout = dense<[0, 1]> : tensor<2xindex>, xla_shape = "bf16[1280,1280]{0,1}"} : (tensor<1280x1280xbf16>) -> tensor<1280x1280xbf16> loc(#loc1044)
    %478 = stablehlo.dot_general %473, %477, contracting_dims = [1] x [0] : (tensor<257x1280xbf16>, tensor<1280x1280xbf16>) -> tensor<257x1280xbf16> loc(#loc1045)
    %479 = stablehlo.reshape %478 : (tensor<257x1280xbf16>) -> tensor<1x257x1280xbf16> loc(#loc1046)
    %480 = stablehlo.reshape %arg343 : (tensor<1280xbf16>) -> tensor<1x1x1280xbf16> loc(#loc1047)
    %481 = stablehlo.custom_call @tt.mark_argument(%480) {api_version = 0 : i32, mhlo.frontend_attributes = {ttcore.argument_type = "parameter", ttir.name = "l__self___image_encoder_vision_model_encoder_layers_3_self_attn_out_proj_bias"}} : (tensor<1x1x1280xbf16>) -> tensor<1x1x1280xbf16> loc(#loc1048)
    %482 = stablehlo.reshape %481 : (tensor<1x1x1280xbf16>) -> tensor<1280xbf16> loc(#loc1049)
    %483 = stablehlo.broadcast_in_dim %482, dims = [2] : (tensor<1280xbf16>) -> tensor<1x257x1280xbf16> loc(#loc1050)
    %484 = stablehlo.add %479, %483 : tensor<1x257x1280xbf16> loc(#loc1051)
    %485 = stablehlo.add %399, %484 : tensor<1x257x1280xbf16> loc(#loc1052)
    %486 = stablehlo.reshape %arg342 : (tensor<1280xbf16>) -> tensor<1x1x1280xbf16> loc(#loc1053)
    %487 = stablehlo.custom_call @tt.mark_argument(%486) {api_version = 0 : i32, mhlo.frontend_attributes = {ttcore.argument_type = "parameter", ttir.name = "l__self___image_encoder_vision_model_encoder_layers_3_layer_norm2_weight"}} : (tensor<1x1x1280xbf16>) -> tensor<1x1x1280xbf16> loc(#loc1054)
    %488 = stablehlo.reshape %487 : (tensor<1x1x1280xbf16>) -> tensor<1280xbf16> loc(#loc1055)
    %489 = stablehlo.reshape %arg341 : (tensor<1280xbf16>) -> tensor<1x1x1280xbf16> loc(#loc1056)
    %490 = stablehlo.custom_call @tt.mark_argument(%489) {api_version = 0 : i32, mhlo.frontend_attributes = {ttcore.argument_type = "parameter", ttir.name = "l__self___image_encoder_vision_model_encoder_layers_3_layer_norm2_bias"}} : (tensor<1x1x1280xbf16>) -> tensor<1x1x1280xbf16> loc(#loc1057)
    %491 = stablehlo.reshape %490 : (tensor<1x1x1280xbf16>) -> tensor<1280xbf16> loc(#loc1058)
    %492 = stablehlo.composite "tenstorrent.layer_norm" %485, %488, %491 {composite_attributes = {epsilon = 9.99999974E-6 : f32, normalized_shape = dense<1280> : tensor<1xi64>}, decomposition = @tenstorrent.layer_norm.impl_24} : (tensor<1x257x1280xbf16>, tensor<1280xbf16>, tensor<1280xbf16>) -> tensor<1x257x1280xbf16> loc(#loc1059)
    %493 = stablehlo.reshape %492 : (tensor<1x257x1280xbf16>) -> tensor<257x1280xbf16> loc(#loc1060)
    %494 = stablehlo.reshape %arg340 : (tensor<5120x1280xbf16>) -> tensor<1x5120x1280xbf16> loc(#loc1061)
    %495 = stablehlo.custom_call @tt.mark_argument(%494) {api_version = 0 : i32, mhlo.frontend_attributes = {ttcore.argument_type = "parameter", ttir.name = "l__self___image_encoder_vision_model_encoder_layers_3_mlp_fc1_weight"}} : (tensor<1x5120x1280xbf16>) -> tensor<1x5120x1280xbf16> loc(#loc1062)
    %496 = stablehlo.reshape %495 : (tensor<1x5120x1280xbf16>) -> tensor<5120x1280xbf16> loc(#loc1063)
    %497 = stablehlo.transpose %496, dims = [1, 0] {result_layout = dense<[0, 1]> : tensor<2xindex>, xla_shape = "bf16[1280,5120]{0,1}"} : (tensor<5120x1280xbf16>) -> tensor<1280x5120xbf16> loc(#loc1064)
    %498 = stablehlo.dot_general %493, %497, contracting_dims = [1] x [0] : (tensor<257x1280xbf16>, tensor<1280x5120xbf16>) -> tensor<257x5120xbf16> loc(#loc1065)
    %499 = stablehlo.reshape %498 : (tensor<257x5120xbf16>) -> tensor<1x257x5120xbf16> loc(#loc1066)
    %500 = stablehlo.reshape %arg339 : (tensor<5120xbf16>) -> tensor<1x1x5120xbf16> loc(#loc1067)
    %501 = stablehlo.custom_call @tt.mark_argument(%500) {api_version = 0 : i32, mhlo.frontend_attributes = {ttcore.argument_type = "parameter", ttir.name = "l__self___image_encoder_vision_model_encoder_layers_3_mlp_fc1_bias"}} : (tensor<1x1x5120xbf16>) -> tensor<1x1x5120xbf16> loc(#loc1068)
    %502 = stablehlo.reshape %501 : (tensor<1x1x5120xbf16>) -> tensor<5120xbf16> loc(#loc1069)
    %503 = stablehlo.broadcast_in_dim %502, dims = [2] : (tensor<5120xbf16>) -> tensor<1x257x5120xbf16> loc(#loc1070)
    %504 = stablehlo.add %499, %503 : tensor<1x257x5120xbf16> loc(#loc1071)
    %505 = stablehlo.composite "tenstorrent.gelu" %504 {decomposition = @tenstorrent.gelu.impl_27} : (tensor<1x257x5120xbf16>) -> tensor<1x257x5120xbf16> loc(#loc1072)
    %506 = stablehlo.reshape %505 : (tensor<1x257x5120xbf16>) -> tensor<257x5120xbf16> loc(#loc1073)
    %507 = stablehlo.reshape %arg338 : (tensor<1280x5120xbf16>) -> tensor<1x1280x5120xbf16> loc(#loc1074)
    %508 = stablehlo.custom_call @tt.mark_argument(%507) {api_version = 0 : i32, mhlo.frontend_attributes = {ttcore.argument_type = "parameter", ttir.name = "l__self___image_encoder_vision_model_encoder_layers_3_mlp_fc2_weight"}} : (tensor<1x1280x5120xbf16>) -> tensor<1x1280x5120xbf16> loc(#loc1075)
    %509 = stablehlo.reshape %508 : (tensor<1x1280x5120xbf16>) -> tensor<1280x5120xbf16> loc(#loc1076)
    %510 = stablehlo.transpose %509, dims = [1, 0] {result_layout = dense<[0, 1]> : tensor<2xindex>, xla_shape = "bf16[5120,1280]{0,1}"} : (tensor<1280x5120xbf16>) -> tensor<5120x1280xbf16> loc(#loc1077)
    %511 = stablehlo.dot_general %506, %510, contracting_dims = [1] x [0] : (tensor<257x5120xbf16>, tensor<5120x1280xbf16>) -> tensor<257x1280xbf16> loc(#loc1078)
    %512 = stablehlo.reshape %511 : (tensor<257x1280xbf16>) -> tensor<1x257x1280xbf16> loc(#loc1079)
    %513 = stablehlo.reshape %arg337 : (tensor<1280xbf16>) -> tensor<1x1x1280xbf16> loc(#loc1080)
    %514 = stablehlo.custom_call @tt.mark_argument(%513) {api_version = 0 : i32, mhlo.frontend_attributes = {ttcore.argument_type = "parameter", ttir.name = "l__self___image_encoder_vision_model_encoder_layers_3_mlp_fc2_bias"}} : (tensor<1x1x1280xbf16>) -> tensor<1x1x1280xbf16> loc(#loc1081)
    %515 = stablehlo.reshape %514 : (tensor<1x1x1280xbf16>) -> tensor<1280xbf16> loc(#loc1082)
    %516 = stablehlo.broadcast_in_dim %515, dims = [2] : (tensor<1280xbf16>) -> tensor<1x257x1280xbf16> loc(#loc1083)
    %517 = stablehlo.add %512, %516 : tensor<1x257x1280xbf16> loc(#loc1084)
    %518 = stablehlo.add %485, %517 : tensor<1x257x1280xbf16> loc(#loc1085)
    %519 = stablehlo.reshape %arg336 : (tensor<1280xbf16>) -> tensor<1x1x1280xbf16> loc(#loc1086)
    %520 = stablehlo.custom_call @tt.mark_argument(%519) {api_version = 0 : i32, mhlo.frontend_attributes = {ttcore.argument_type = "parameter", ttir.name = "l__self___image_encoder_vision_model_encoder_layers_4_layer_norm1_weight"}} : (tensor<1x1x1280xbf16>) -> tensor<1x1x1280xbf16> loc(#loc1087)
    %521 = stablehlo.reshape %520 : (tensor<1x1x1280xbf16>) -> tensor<1280xbf16> loc(#loc1088)
    %522 = stablehlo.reshape %arg335 : (tensor<1280xbf16>) -> tensor<1x1x1280xbf16> loc(#loc1089)
    %523 = stablehlo.custom_call @tt.mark_argument(%522) {api_version = 0 : i32, mhlo.frontend_attributes = {ttcore.argument_type = "parameter", ttir.name = "l__self___image_encoder_vision_model_encoder_layers_4_layer_norm1_bias"}} : (tensor<1x1x1280xbf16>) -> tensor<1x1x1280xbf16> loc(#loc1090)
    %524 = stablehlo.reshape %523 : (tensor<1x1x1280xbf16>) -> tensor<1280xbf16> loc(#loc1091)
    %525 = stablehlo.composite "tenstorrent.layer_norm" %518, %521, %524 {composite_attributes = {epsilon = 9.99999974E-6 : f32, normalized_shape = dense<1280> : tensor<1xi64>}, decomposition = @tenstorrent.layer_norm.impl_37} : (tensor<1x257x1280xbf16>, tensor<1280xbf16>, tensor<1280xbf16>) -> tensor<1x257x1280xbf16> loc(#loc1092)
    %526 = stablehlo.reshape %525 : (tensor<1x257x1280xbf16>) -> tensor<257x1280xbf16> loc(#loc1093)
    %527 = stablehlo.reshape %arg411 : (tensor<1280x1280xbf16>) -> tensor<1x1280x1280xbf16> loc(#loc1094)
    %528 = stablehlo.custom_call @tt.mark_argument(%527) {api_version = 0 : i32, mhlo.frontend_attributes = {ttcore.argument_type = "parameter", ttir.name = "l__self___image_encoder_vision_model_encoder_layers_4_self_attn_q_proj_weight"}} : (tensor<1x1280x1280xbf16>) -> tensor<1x1280x1280xbf16> loc(#loc1095)
    %529 = stablehlo.reshape %528 : (tensor<1x1280x1280xbf16>) -> tensor<1280x1280xbf16> loc(#loc1096)
    %530 = stablehlo.transpose %529, dims = [1, 0] {result_layout = dense<[0, 1]> : tensor<2xindex>, xla_shape = "bf16[1280,1280]{0,1}"} : (tensor<1280x1280xbf16>) -> tensor<1280x1280xbf16> loc(#loc1097)
    %531 = stablehlo.dot_general %526, %530, contracting_dims = [1] x [0] : (tensor<257x1280xbf16>, tensor<1280x1280xbf16>) -> tensor<257x1280xbf16> loc(#loc1098)
    %532 = stablehlo.reshape %531 : (tensor<257x1280xbf16>) -> tensor<1x257x1280xbf16> loc(#loc1099)
    %533 = stablehlo.reshape %arg410 : (tensor<1280xbf16>) -> tensor<1x1x1280xbf16> loc(#loc1100)
    %534 = stablehlo.custom_call @tt.mark_argument(%533) {api_version = 0 : i32, mhlo.frontend_attributes = {ttcore.argument_type = "parameter", ttir.name = "l__self___image_encoder_vision_model_encoder_layers_4_self_attn_q_proj_bias"}} : (tensor<1x1x1280xbf16>) -> tensor<1x1x1280xbf16> loc(#loc1101)
    %535 = stablehlo.reshape %534 : (tensor<1x1x1280xbf16>) -> tensor<1280xbf16> loc(#loc1102)
    %536 = stablehlo.broadcast_in_dim %535, dims = [2] : (tensor<1280xbf16>) -> tensor<1x257x1280xbf16> loc(#loc1103)
    %537 = stablehlo.add %532, %536 : tensor<1x257x1280xbf16> loc(#loc1104)
    %538 = stablehlo.reshape %537 : (tensor<1x257x1280xbf16>) -> tensor<1x257x16x80xbf16> loc(#loc1105)
    %539 = stablehlo.transpose %538, dims = [0, 2, 1, 3] {result_layout = dense<[3, 1, 2, 0]> : tensor<4xindex>, xla_shape = "bf16[1,16,257,80]{3,1,2,0}"} : (tensor<1x257x16x80xbf16>) -> tensor<1x16x257x80xbf16> loc(#loc1106)
    %540 = stablehlo.convert %539 {result_layout = dense<[3, 1, 2, 0]> : tensor<4xindex>, xla_shape = "f32[1,16,257,80]{3,1,2,0}"} : (tensor<1x16x257x80xbf16>) -> tensor<1x16x257x80xf32> loc(#loc1107)
    %541 = stablehlo.multiply %540, %cst_6 : tensor<1x16x257x80xf32> loc(#loc1108)
    %542 = stablehlo.reshape %arg409 : (tensor<1280x1280xbf16>) -> tensor<1x1280x1280xbf16> loc(#loc1109)
    %543 = stablehlo.custom_call @tt.mark_argument(%542) {api_version = 0 : i32, mhlo.frontend_attributes = {ttcore.argument_type = "parameter", ttir.name = "l__self___image_encoder_vision_model_encoder_layers_4_self_attn_k_proj_weight"}} : (tensor<1x1280x1280xbf16>) -> tensor<1x1280x1280xbf16> loc(#loc1110)
    %544 = stablehlo.reshape %543 : (tensor<1x1280x1280xbf16>) -> tensor<1280x1280xbf16> loc(#loc1111)
    %545 = stablehlo.transpose %544, dims = [1, 0] {result_layout = dense<[0, 1]> : tensor<2xindex>, xla_shape = "bf16[1280,1280]{0,1}"} : (tensor<1280x1280xbf16>) -> tensor<1280x1280xbf16> loc(#loc1112)
    %546 = stablehlo.dot_general %526, %545, contracting_dims = [1] x [0] : (tensor<257x1280xbf16>, tensor<1280x1280xbf16>) -> tensor<257x1280xbf16> loc(#loc1113)
    %547 = stablehlo.reshape %546 : (tensor<257x1280xbf16>) -> tensor<1x257x1280xbf16> loc(#loc1114)
    %548 = stablehlo.reshape %arg408 : (tensor<1280xbf16>) -> tensor<1x1x1280xbf16> loc(#loc1115)
    %549 = stablehlo.custom_call @tt.mark_argument(%548) {api_version = 0 : i32, mhlo.frontend_attributes = {ttcore.argument_type = "parameter", ttir.name = "l__self___image_encoder_vision_model_encoder_layers_4_self_attn_k_proj_bias"}} : (tensor<1x1x1280xbf16>) -> tensor<1x1x1280xbf16> loc(#loc1116)
    %550 = stablehlo.reshape %549 : (tensor<1x1x1280xbf16>) -> tensor<1280xbf16> loc(#loc1117)
    %551 = stablehlo.broadcast_in_dim %550, dims = [2] : (tensor<1280xbf16>) -> tensor<1x257x1280xbf16> loc(#loc1118)
    %552 = stablehlo.add %547, %551 : tensor<1x257x1280xbf16> loc(#loc1119)
    %553 = stablehlo.reshape %552 : (tensor<1x257x1280xbf16>) -> tensor<1x257x16x80xbf16> loc(#loc1120)
    %554 = stablehlo.transpose %553, dims = [0, 2, 1, 3] {result_layout = dense<[3, 1, 2, 0]> : tensor<4xindex>, xla_shape = "bf16[1,16,257,80]{3,1,2,0}"} : (tensor<1x257x16x80xbf16>) -> tensor<1x16x257x80xbf16> loc(#loc1121)
    %555 = stablehlo.convert %554 {result_layout = dense<[3, 1, 2, 0]> : tensor<4xindex>, xla_shape = "f32[1,16,257,80]{3,1,2,0}"} : (tensor<1x16x257x80xbf16>) -> tensor<1x16x257x80xf32> loc(#loc1122)
    %556 = stablehlo.transpose %555, dims = [0, 1, 3, 2] {result_layout = dense<[2, 1, 3, 0]> : tensor<4xindex>, xla_shape = "f32[1,16,80,257]{2,1,3,0}"} : (tensor<1x16x257x80xf32>) -> tensor<1x16x80x257xf32> loc(#loc1123)
    %557 = stablehlo.multiply %556, %cst_5 : tensor<1x16x80x257xf32> loc(#loc1124)
    %558 = stablehlo.dot_general %541, %557, batching_dims = [0, 1] x [0, 1], contracting_dims = [3] x [2] {mhlo.frontend_attributes = {grad_x = "false", grad_y = "false"}} : (tensor<1x16x257x80xf32>, tensor<1x16x80x257xf32>) -> tensor<1x16x257x257xf32> loc(#loc1125)
    %559 = stablehlo.convert %558 : (tensor<1x16x257x257xf32>) -> tensor<1x16x257x257xf64> loc(#loc1126)
    %560 = stablehlo.compare  EQ, %559, %cst_4 : (tensor<1x16x257x257xf64>, tensor<1x16x257x257xf64>) -> tensor<1x16x257x257xi1> loc(#loc1127)
    %561 = stablehlo.not %560 : tensor<1x16x257x257xi1> loc(#loc1128)
    %562 = stablehlo.reduce(%561 init: %c_10) across dimensions = [3] : (tensor<1x16x257x257xi1>, tensor<i1>) -> tensor<1x16x257xi1>
     reducer(%arg558: tensor<i1> loc("reduce.3806"), %arg559: tensor<i1> loc("reduce.3806"))  {
      %4130 = stablehlo.or %arg558, %arg559 : tensor<i1> loc(#loc1130)
      %4131 = stablehlo.select %4130, %c, %c_10 : tensor<i1>, tensor<i1> loc(#loc1131)
      stablehlo.return %4131 : tensor<i1> loc(#loc)
    } loc(#loc1129)
    %563 = stablehlo.reshape %562 : (tensor<1x16x257xi1>) -> tensor<1x16x257x1xi1> loc(#loc1132)
    %564 = stablehlo.not %563 : tensor<1x16x257x1xi1> loc(#loc1133)
    %565 = stablehlo.reshape %564 : (tensor<1x16x257x1xi1>) -> tensor<1x16x257xi1> loc(#loc1134)
    %566 = stablehlo.broadcast_in_dim %565, dims = [0, 1, 2] : (tensor<1x16x257xi1>) -> tensor<1x16x257x257xi1> loc(#loc1135)
    %567 = stablehlo.reduce(%558 init: %cst_8) applies stablehlo.maximum across dimensions = [3] : (tensor<1x16x257x257xf32>, tensor<f32>) -> tensor<1x16x257xf32> loc(#loc1136)
    %568 = stablehlo.broadcast_in_dim %567, dims = [0, 1, 2] : (tensor<1x16x257xf32>) -> tensor<1x16x257x257xf32> loc(#loc1137)
    %569 = stablehlo.subtract %558, %568 : tensor<1x16x257x257xf32> loc(#loc1138)
    %570 = stablehlo.exponential %569 : tensor<1x16x257x257xf32> loc(#loc1139)
    %571 = stablehlo.reduce(%570 init: %cst_9) applies stablehlo.add across dimensions = [3] : (tensor<1x16x257x257xf32>, tensor<f32>) -> tensor<1x16x257xf32> loc(#loc1140)
    %572 = stablehlo.broadcast_in_dim %571, dims = [0, 1, 2] : (tensor<1x16x257xf32>) -> tensor<1x16x257x257xf32> loc(#loc1141)
    %573 = stablehlo.divide %570, %572 : tensor<1x16x257x257xf32> loc(#loc1142)
    %574 = stablehlo.select %566, %cst_3, %573 : tensor<1x16x257x257xi1>, tensor<1x16x257x257xf32> loc(#loc1143)
    %575 = stablehlo.reshape %arg334 : (tensor<1280x1280xbf16>) -> tensor<1x1280x1280xbf16> loc(#loc1144)
    %576 = stablehlo.custom_call @tt.mark_argument(%575) {api_version = 0 : i32, mhlo.frontend_attributes = {ttcore.argument_type = "parameter", ttir.name = "l__self___image_encoder_vision_model_encoder_layers_4_self_attn_v_proj_weight"}} : (tensor<1x1280x1280xbf16>) -> tensor<1x1280x1280xbf16> loc(#loc1145)
    %577 = stablehlo.reshape %576 : (tensor<1x1280x1280xbf16>) -> tensor<1280x1280xbf16> loc(#loc1146)
    %578 = stablehlo.transpose %577, dims = [1, 0] {result_layout = dense<[0, 1]> : tensor<2xindex>, xla_shape = "bf16[1280,1280]{0,1}"} : (tensor<1280x1280xbf16>) -> tensor<1280x1280xbf16> loc(#loc1147)
    %579 = stablehlo.dot_general %526, %578, contracting_dims = [1] x [0] : (tensor<257x1280xbf16>, tensor<1280x1280xbf16>) -> tensor<257x1280xbf16> loc(#loc1148)
    %580 = stablehlo.reshape %579 : (tensor<257x1280xbf16>) -> tensor<1x257x1280xbf16> loc(#loc1149)
    %581 = stablehlo.reshape %arg333 : (tensor<1280xbf16>) -> tensor<1x1x1280xbf16> loc(#loc1150)
    %582 = stablehlo.custom_call @tt.mark_argument(%581) {api_version = 0 : i32, mhlo.frontend_attributes = {ttcore.argument_type = "parameter", ttir.name = "l__self___image_encoder_vision_model_encoder_layers_4_self_attn_v_proj_bias"}} : (tensor<1x1x1280xbf16>) -> tensor<1x1x1280xbf16> loc(#loc1151)
    %583 = stablehlo.reshape %582 : (tensor<1x1x1280xbf16>) -> tensor<1280xbf16> loc(#loc1152)
    %584 = stablehlo.broadcast_in_dim %583, dims = [2] : (tensor<1280xbf16>) -> tensor<1x257x1280xbf16> loc(#loc1153)
    %585 = stablehlo.add %580, %584 : tensor<1x257x1280xbf16> loc(#loc1154)
    %586 = stablehlo.reshape %585 : (tensor<1x257x1280xbf16>) -> tensor<1x257x16x80xbf16> loc(#loc1155)
    %587 = stablehlo.transpose %586, dims = [0, 2, 1, 3] {result_layout = dense<[3, 1, 2, 0]> : tensor<4xindex>, xla_shape = "bf16[1,16,257,80]{3,1,2,0}"} : (tensor<1x257x16x80xbf16>) -> tensor<1x16x257x80xbf16> loc(#loc1156)
    %588 = stablehlo.convert %587 {result_layout = dense<[3, 1, 2, 0]> : tensor<4xindex>, xla_shape = "f32[1,16,257,80]{3,1,2,0}"} : (tensor<1x16x257x80xbf16>) -> tensor<1x16x257x80xf32> loc(#loc1157)
    %589 = stablehlo.dot_general %574, %588, batching_dims = [0, 1] x [0, 1], contracting_dims = [3] x [2] {mhlo.frontend_attributes = {grad_x = "false", grad_y = "false"}} : (tensor<1x16x257x257xf32>, tensor<1x16x257x80xf32>) -> tensor<1x16x257x80xf32> loc(#loc1158)
    %590 = stablehlo.convert %589 : (tensor<1x16x257x80xf32>) -> tensor<1x16x257x80xbf16> loc(#loc1159)
    %591 = stablehlo.transpose %590, dims = [0, 2, 1, 3] {result_layout = dense<[3, 1, 2, 0]> : tensor<4xindex>, xla_shape = "bf16[1,257,16,80]{3,1,2,0}"} : (tensor<1x16x257x80xbf16>) -> tensor<1x257x16x80xbf16> loc(#loc1160)
    %592 = stablehlo.reshape %591 : (tensor<1x257x16x80xbf16>) -> tensor<257x1280xbf16> loc(#loc1161)
    %593 = stablehlo.reshape %arg332 : (tensor<1280x1280xbf16>) -> tensor<1x1280x1280xbf16> loc(#loc1162)
    %594 = stablehlo.custom_call @tt.mark_argument(%593) {api_version = 0 : i32, mhlo.frontend_attributes = {ttcore.argument_type = "parameter", ttir.name = "l__self___image_encoder_vision_model_encoder_layers_4_self_attn_out_proj_weight"}} : (tensor<1x1280x1280xbf16>) -> tensor<1x1280x1280xbf16> loc(#loc1163)
    %595 = stablehlo.reshape %594 : (tensor<1x1280x1280xbf16>) -> tensor<1280x1280xbf16> loc(#loc1164)
    %596 = stablehlo.transpose %595, dims = [1, 0] {result_layout = dense<[0, 1]> : tensor<2xindex>, xla_shape = "bf16[1280,1280]{0,1}"} : (tensor<1280x1280xbf16>) -> tensor<1280x1280xbf16> loc(#loc1165)
    %597 = stablehlo.dot_general %592, %596, contracting_dims = [1] x [0] : (tensor<257x1280xbf16>, tensor<1280x1280xbf16>) -> tensor<257x1280xbf16> loc(#loc1166)
    %598 = stablehlo.reshape %597 : (tensor<257x1280xbf16>) -> tensor<1x257x1280xbf16> loc(#loc1167)
    %599 = stablehlo.reshape %arg331 : (tensor<1280xbf16>) -> tensor<1x1x1280xbf16> loc(#loc1168)
    %600 = stablehlo.custom_call @tt.mark_argument(%599) {api_version = 0 : i32, mhlo.frontend_attributes = {ttcore.argument_type = "parameter", ttir.name = "l__self___image_encoder_vision_model_encoder_layers_4_self_attn_out_proj_bias"}} : (tensor<1x1x1280xbf16>) -> tensor<1x1x1280xbf16> loc(#loc1169)
    %601 = stablehlo.reshape %600 : (tensor<1x1x1280xbf16>) -> tensor<1280xbf16> loc(#loc1170)
    %602 = stablehlo.broadcast_in_dim %601, dims = [2] : (tensor<1280xbf16>) -> tensor<1x257x1280xbf16> loc(#loc1171)
    %603 = stablehlo.add %598, %602 : tensor<1x257x1280xbf16> loc(#loc1172)
    %604 = stablehlo.add %518, %603 : tensor<1x257x1280xbf16> loc(#loc1173)
    %605 = stablehlo.reshape %arg330 : (tensor<1280xbf16>) -> tensor<1x1x1280xbf16> loc(#loc1174)
    %606 = stablehlo.custom_call @tt.mark_argument(%605) {api_version = 0 : i32, mhlo.frontend_attributes = {ttcore.argument_type = "parameter", ttir.name = "l__self___image_encoder_vision_model_encoder_layers_4_layer_norm2_weight"}} : (tensor<1x1x1280xbf16>) -> tensor<1x1x1280xbf16> loc(#loc1175)
    %607 = stablehlo.reshape %606 : (tensor<1x1x1280xbf16>) -> tensor<1280xbf16> loc(#loc1176)
    %608 = stablehlo.reshape %arg329 : (tensor<1280xbf16>) -> tensor<1x1x1280xbf16> loc(#loc1177)
    %609 = stablehlo.custom_call @tt.mark_argument(%608) {api_version = 0 : i32, mhlo.frontend_attributes = {ttcore.argument_type = "parameter", ttir.name = "l__self___image_encoder_vision_model_encoder_layers_4_layer_norm2_bias"}} : (tensor<1x1x1280xbf16>) -> tensor<1x1x1280xbf16> loc(#loc1178)
    %610 = stablehlo.reshape %609 : (tensor<1x1x1280xbf16>) -> tensor<1280xbf16> loc(#loc1179)
    %611 = stablehlo.composite "tenstorrent.layer_norm" %604, %607, %610 {composite_attributes = {epsilon = 9.99999974E-6 : f32, normalized_shape = dense<1280> : tensor<1xi64>}, decomposition = @tenstorrent.layer_norm.impl_49} : (tensor<1x257x1280xbf16>, tensor<1280xbf16>, tensor<1280xbf16>) -> tensor<1x257x1280xbf16> loc(#loc1180)
    %612 = stablehlo.reshape %611 : (tensor<1x257x1280xbf16>) -> tensor<257x1280xbf16> loc(#loc1181)
    %613 = stablehlo.reshape %arg328 : (tensor<5120x1280xbf16>) -> tensor<1x5120x1280xbf16> loc(#loc1182)
    %614 = stablehlo.custom_call @tt.mark_argument(%613) {api_version = 0 : i32, mhlo.frontend_attributes = {ttcore.argument_type = "parameter", ttir.name = "l__self___image_encoder_vision_model_encoder_layers_4_mlp_fc1_weight"}} : (tensor<1x5120x1280xbf16>) -> tensor<1x5120x1280xbf16> loc(#loc1183)
    %615 = stablehlo.reshape %614 : (tensor<1x5120x1280xbf16>) -> tensor<5120x1280xbf16> loc(#loc1184)
    %616 = stablehlo.transpose %615, dims = [1, 0] {result_layout = dense<[0, 1]> : tensor<2xindex>, xla_shape = "bf16[1280,5120]{0,1}"} : (tensor<5120x1280xbf16>) -> tensor<1280x5120xbf16> loc(#loc1185)
    %617 = stablehlo.dot_general %612, %616, contracting_dims = [1] x [0] : (tensor<257x1280xbf16>, tensor<1280x5120xbf16>) -> tensor<257x5120xbf16> loc(#loc1186)
    %618 = stablehlo.reshape %617 : (tensor<257x5120xbf16>) -> tensor<1x257x5120xbf16> loc(#loc1187)
    %619 = stablehlo.reshape %arg327 : (tensor<5120xbf16>) -> tensor<1x1x5120xbf16> loc(#loc1188)
    %620 = stablehlo.custom_call @tt.mark_argument(%619) {api_version = 0 : i32, mhlo.frontend_attributes = {ttcore.argument_type = "parameter", ttir.name = "l__self___image_encoder_vision_model_encoder_layers_4_mlp_fc1_bias"}} : (tensor<1x1x5120xbf16>) -> tensor<1x1x5120xbf16> loc(#loc1189)
    %621 = stablehlo.reshape %620 : (tensor<1x1x5120xbf16>) -> tensor<5120xbf16> loc(#loc1190)
    %622 = stablehlo.broadcast_in_dim %621, dims = [2] : (tensor<5120xbf16>) -> tensor<1x257x5120xbf16> loc(#loc1191)
    %623 = stablehlo.add %618, %622 : tensor<1x257x5120xbf16> loc(#loc1192)
    %624 = stablehlo.composite "tenstorrent.gelu" %623 {decomposition = @tenstorrent.gelu.impl_10} : (tensor<1x257x5120xbf16>) -> tensor<1x257x5120xbf16> loc(#loc1193)
    %625 = stablehlo.reshape %624 : (tensor<1x257x5120xbf16>) -> tensor<257x5120xbf16> loc(#loc1194)
    %626 = stablehlo.reshape %arg326 : (tensor<1280x5120xbf16>) -> tensor<1x1280x5120xbf16> loc(#loc1195)
    %627 = stablehlo.custom_call @tt.mark_argument(%626) {api_version = 0 : i32, mhlo.frontend_attributes = {ttcore.argument_type = "parameter", ttir.name = "l__self___image_encoder_vision_model_encoder_layers_4_mlp_fc2_weight"}} : (tensor<1x1280x5120xbf16>) -> tensor<1x1280x5120xbf16> loc(#loc1196)
    %628 = stablehlo.reshape %627 : (tensor<1x1280x5120xbf16>) -> tensor<1280x5120xbf16> loc(#loc1197)
    %629 = stablehlo.transpose %628, dims = [1, 0] {result_layout = dense<[0, 1]> : tensor<2xindex>, xla_shape = "bf16[5120,1280]{0,1}"} : (tensor<1280x5120xbf16>) -> tensor<5120x1280xbf16> loc(#loc1198)
    %630 = stablehlo.dot_general %625, %629, contracting_dims = [1] x [0] : (tensor<257x5120xbf16>, tensor<5120x1280xbf16>) -> tensor<257x1280xbf16> loc(#loc1199)
…
#loc4630 = loc("transpose.13027")
#loc4631 = loc("dot.13119")
#loc4632 = loc("reshape.13120")
#loc4633 = loc("custom-call.13133")
#loc4634 = loc("reshape.13134")
#loc4635 = loc("reshape.13019")
#loc4636 = loc("custom-call.13020")
#loc4637 = loc("reshape.13021")
#loc4638 = loc("transpose.13022")
#loc4639 = loc("dot.13135")
#loc4640 = loc("reshape.13136")
#loc4641 = loc("add.13139")
#loc4642 = loc("reshape.13158")
#loc4643 = loc("custom-call.13159")
#loc4644 = loc("reshape.13160")
#loc4645 = loc("reshape.13153")
#loc4646 = loc("custom-call.13154")
#loc4647 = loc("reshape.13155")
#loc4648 = loc("custom-call.13240")
#loc4649 = loc("reshape.13359")
#loc4650 = loc("reshape.13355")
#loc4651 = loc("custom-call.13356")
#loc4652 = loc("reshape.13357")
#loc4653 = loc("transpose.13358")
#loc4654 = loc("dot.13360")
#loc4655 = loc("reshape.13362")
#loc4656 = loc("transpose.13363")
#loc4657 = loc("convert.13364")
#loc4658 = loc("multiply.13366")
#loc4659 = loc("reshape.13248")
#loc4660 = loc("custom-call.13249")
#loc4661 = loc("reshape.13250")
#loc4662 = loc("reshape.13243")
#loc4663 = loc("custom-call.13244")
#loc4664 = loc("reshape.13245")
#loc4665 = loc("custom-call.13330")
#loc4666 = loc("concatenate.13331")
#loc4667 = loc("reshape.13344")
#loc4668 = loc("reshape.13340")
#loc4669 = loc("custom-call.13341")
#loc4670 = loc("reshape.13342")
#loc4671 = loc("transpose.13343")
#loc4672 = loc("dot.13345")
#loc4673 = loc("reshape.13347")
#loc4674 = loc("transpose.13348")
#loc4675 = loc("convert.13349")
#loc4676 = loc("transpose.13350")
#loc4677 = loc("multiply.13352")
#loc4678 = loc("dot.13367")
#loc4679 = loc("convert.13394")
#loc4680 = loc("compare.13396")
#loc4681 = loc("not.13398")
#loc4683 = loc("or.13408")
#loc4684 = loc("select.13409")
#loc4685 = loc("reshape.13414")
#loc4686 = loc("not.13416")
#loc4687 = loc("reshape.13418")
#loc4688 = loc("broadcast.13419")
#loc4689 = loc("reduce.13374")
#loc4690 = loc("broadcast.13375")
#loc4691 = loc("subtract.13376")
#loc4692 = loc("exponential.13377")
#loc4693 = loc("reduce.13383")
#loc4694 = loc("broadcast.13384")
#loc4695 = loc("divide.13385")
#loc4696 = loc("select.13420")
#loc4697 = loc("reshape.13147")
#loc4698 = loc("custom-call.13148")
#loc4699 = loc("reshape.13149")
#loc4700 = loc("transpose.13150")
#loc4701 = loc("dot.13333")
#loc4702 = loc("reshape.13335")
#loc4703 = loc("transpose.13336")
#loc4704 = loc("convert.13337")
#loc4705 = loc("dot.13421")
#loc4706 = loc("convert.13423")
#loc4707 = loc("transpose.13424")
#loc4708 = loc("reshape.13426")
#loc4709 = loc("reshape.13142")
#loc4710 = loc("custom-call.13143")
#loc4711 = loc("reshape.13144")
#loc4712 = loc("transpose.13145")
#loc4713 = loc("dot.13427")
#loc4714 = loc("reshape.13428")
#loc4715 = loc("divide.13430")
#loc4716 = loc("add.13433")
#loc4717 = loc("reshape.13451")
#loc4718 = loc("custom-call.13452")
#loc4719 = loc("reshape.13453")
#loc4720 = loc("reshape.13446")
#loc4721 = loc("custom-call.13447")
#loc4722 = loc("reshape.13448")
#loc4723 = loc("custom-call.13533")
#loc4724 = loc("reshape.13534")
#loc4725 = loc("reshape.13440")
#loc4726 = loc("custom-call.13441")
#loc4727 = loc("reshape.13442")
#loc4728 = loc("transpose.13443")
#loc4729 = loc("dot.13535")
#loc4730 = loc("reshape.13536")
#loc4731 = loc("custom-call.13549")
#loc4732 = loc("reshape.13550")
#loc4733 = loc("reshape.13435")
#loc4734 = loc("custom-call.13436")
#loc4735 = loc("reshape.13437")
#loc4736 = loc("transpose.13438")
#loc4737 = loc("dot.13551")
#loc4738 = loc("reshape.13552")
#loc4739 = loc("add.13555")
#loc4740 = loc("reshape.13556")
#loc4741 = loc("reshape.20")
#loc4742 = loc("custom-call.21")
#loc4743 = loc("reshape.22")
#loc4744 = loc("transpose.23")
#loc4745 = loc("dot.13557")
#loc4746 = loc("reshape.13558")
#loc4747 = loc("reshape.16")
#loc4748 = loc("custom-call.17")
#loc4749 = loc("reshape.18")
#loc4750 = loc("broadcast.13561")
#loc4751 = loc("add.13562")
#loc4752 = loc("reshape.8")
#loc4753 = loc("custom-call.9")
#loc4754 = loc("reshape.10")
#loc4755 = loc("reshape.3")
#loc4756 = loc("custom-call.4")
#loc4757 = loc("reshape.5")
#loc4758 = loc("custom-call.13639")
#loc4762 = loc("reduce.13503")
#loc4763 = loc("multiply.13512")
#loc4764 = loc("broadcast.13522")
#loc4765 = loc("subtract.13523")
#loc4766 = loc("multiply.13479")
#loc4767 = loc("reduce.13486")
#loc4768 = loc("multiply.13495")
#loc4769 = loc("reshape.13496")
#loc4770 = loc("add.13516")
#loc4771 = loc("rsqrt.13517")
#loc4772 = loc("reshape.13524")
#loc4773 = loc("broadcast.13525")
#loc4774 = loc("multiply.13526")
#loc4775 = loc("broadcast.13527")
#loc4776 = loc("multiply.13528")
#loc4777 = loc("broadcast.13531")
#loc4778 = loc("add.13532")
#loc4782 = loc("reduce.13210")
#loc4783 = loc("multiply.13219")
#loc4784 = loc("broadcast.13229")
#loc4785 = loc("subtract.13230")
#loc4786 = loc("multiply.13186")
#loc4787 = loc("reduce.13193")
#loc4788 = loc("multiply.13202")
#loc4789 = loc("reshape.13203")
#loc4790 = loc("add.13223")
#loc4791 = loc("rsqrt.13224")
#loc4792 = loc("reshape.13231")
#loc4793 = loc("broadcast.13232")
#loc4794 = loc("multiply.13233")
#loc4795 = loc("broadcast.13234")
#loc4796 = loc("multiply.13235")
#loc4797 = loc("broadcast.13238")
#loc4798 = loc("add.13239")
#loc4802 = loc("reduce.12794")
#loc4803 = loc("multiply.12803")
#loc4804 = loc("broadcast.12813")
#loc4805 = loc("subtract.12814")
#loc4806 = loc("multiply.12770")
#loc4807 = loc("reduce.12777")
#loc4808 = loc("multiply.12786")
#loc4809 = loc("reshape.12787")
#loc4810 = loc("add.12807")
#loc4811 = loc("rsqrt.12808")
#loc4812 = loc("reshape.12815")
#loc4813 = loc("broadcast.12816")
#loc4814 = loc("multiply.12817")
#loc4815 = loc("broadcast.12818")
#loc4816 = loc("multiply.12819")
#loc4817 = loc("broadcast.12822")
#loc4818 = loc("add.12823")
#loc4822 = loc("reduce.12671")
#loc4823 = loc("multiply.12680")
#loc4824 = loc("broadcast.12690")
#loc4825 = loc("subtract.12691")
#loc4826 = loc("multiply.12647")
#loc4827 = loc("reduce.12654")
#loc4828 = loc("multiply.12663")
#loc4829 = loc("reshape.12664")
#loc4830 = loc("add.12684")
#loc4831 = loc("rsqrt.12685")
#loc4832 = loc("reshape.12692")
#loc4833 = loc("broadcast.12693")
#loc4834 = loc("multiply.12694")
#loc4835 = loc("broadcast.12695")
#loc4836 = loc("multiply.12696")
#loc4837 = loc("broadcast.12699")
#loc4838 = loc("add.12700")
#loc4842 = loc("reduce.12468")
#loc4843 = loc("multiply.12477")
#loc4844 = loc("broadcast.12487")
#loc4845 = loc("subtract.12488")
#loc4846 = loc("multiply.12444")
#loc4847 = loc("reduce.12451")
#loc4848 = loc("multiply.12460")
#loc4849 = loc("reshape.12461")
#loc4850 = loc("add.12481")
#loc4851 = loc("rsqrt.12482")
#loc4852 = loc("reshape.12489")
#loc4853 = loc("broadcast.12490")
#loc4854 = loc("multiply.12491")
#loc4855 = loc("broadcast.12492")
#loc4856 = loc("multiply.12493")
#loc4857 = loc("broadcast.12496")
#loc4858 = loc("add.12497")
#loc4862 = loc("reduce.13300")
#loc4863 = loc("multiply.13309")
#loc4864 = loc("broadcast.13319")
#loc4865 = loc("subtract.13320")
#loc4866 = loc("multiply.13276")
#loc4867 = loc("reduce.13283")
#loc4868 = loc("multiply.13292")
#loc4869 = loc("reshape.13293")
#loc4870 = loc("add.13313")
#loc4871 = loc("rsqrt.13314")
#loc4872 = loc("reshape.13321")
#loc4873 = loc("broadcast.13322")
#loc4874 = loc("multiply.13323")
#loc4875 = loc("broadcast.13324")
#loc4876 = loc("multiply.13325")
#loc4877 = loc("broadcast.13328")
#loc4878 = loc("add.13329")
#loc4882 = loc("reduce.12378")
#loc4883 = loc("multiply.12387")
#loc4884 = loc("broadcast.12397")
#loc4885 = loc("subtract.12398")
#loc4886 = loc("multiply.12354")
#loc4887 = loc("reduce.12361")
#loc4888 = loc("multiply.12370")
#loc4889 = loc("reshape.12371")
#loc4890 = loc("add.12391")
#loc4891 = loc("rsqrt.12392")
#loc4892 = loc("reshape.12399")
#loc4893 = loc("broadcast.12400")
#loc4894 = loc("multiply.12401")
#loc4895 = loc("broadcast.12402")
#loc4896 = loc("multiply.12403")
#loc4897 = loc("broadcast.12406")
#loc4898 = loc("add.12407")
#loc4900 = loc("multiply.12299")
#loc4901 = loc("multiply.12294")
#loc4902 = loc("erf.12295")
#loc4903 = loc("add.12297")
#loc4904 = loc("multiply.12300")
#loc4908 = loc("reduce.12052")
#loc4909 = loc("multiply.12061")
#loc4910 = loc("broadcast.12071")
#loc4911 = loc("subtract.12072")
#loc4912 = loc("multiply.12028")
#loc4913 = loc("reduce.12035")
#loc4914 = loc("multiply.12044")
#loc4915 = loc("reshape.12045")
#loc4916 = loc("add.12065")
#loc4917 = loc("rsqrt.12066")
#loc4918 = loc("reshape.12073")
#loc4919 = loc("broadcast.12074")
#loc4920 = loc("multiply.12075")
#loc4921 = loc("broadcast.12076")
#loc4922 = loc("multiply.12077")
#loc4923 = loc("broadcast.12080")
#loc4924 = loc("add.12081")
#loc4926 = loc("multiply.11986")
#loc4927 = loc("multiply.11981")
#loc4928 = loc("erf.11982")
#loc4929 = loc("add.11984")
#loc4930 = loc("multiply.11987")
#loc4932 = loc("multiply.11676")
#loc4933 = loc("multiply.11671")
#loc4934 = loc("erf.11672")
#loc4935 = loc("add.11674")
#loc4936 = loc("multiply.11677")
#loc4940 = loc("reduce.11628")
#loc4941 = loc("multiply.11637")
#loc4942 = loc("broadcast.11647")
#loc4943 = loc("subtract.11648")
#loc4944 = loc("multiply.11604")
#loc4945 = loc("reduce.11611")
#loc4946 = loc("multiply.11620")
#loc4947 = loc("reshape.11621")
#loc4948 = loc("add.11641")
#loc4949 = loc("rsqrt.11642")
#loc4950 = loc("reshape.11649")
#loc4951 = loc("broadcast.11650")
#loc4952 = loc("multiply.11651")
#loc4953 = loc("broadcast.11652")
#loc4954 = loc("multiply.11653")
#loc4955 = loc("broadcast.11656")
#loc4956 = loc("add.11657")
#loc4960 = loc("reduce.11425")
#loc4961 = loc("multiply.11434")
#loc4962 = loc("broadcast.11444")
#loc4963 = loc("subtract.11445")
#loc4964 = loc("multiply.11401")
#loc4965 = loc("reduce.11408")
#loc4966 = loc("multiply.11417")
#loc4967 = loc("reshape.11418")
#loc4968 = loc("add.11438")
#loc4969 = loc("rsqrt.11439")
#loc4970 = loc("reshape.11446")
#loc4971 = loc("broadcast.11447")
#loc4972 = loc("multiply.11448")
#loc4973 = loc("broadcast.11449")
#loc4974 = loc("multiply.11450")
#loc4975 = loc("broadcast.11453")
#loc4976 = loc("add.11454")
#loc4978 = loc("multiply.11366")
#loc4979 = loc("multiply.11361")
#loc4980 = loc("erf.11362")
#loc4981 = loc("add.11364")
#loc4982 = loc("multiply.11367")
#loc4984 = loc("multiply.11056")
#loc4985 = loc("multiply.11051")
#loc4986 = loc("erf.11052")
#loc4987 = loc("add.11054")
#loc4988 = loc("multiply.11057")
#loc4992 = loc("reduce.11008")
#loc4993 = loc("multiply.11017")
#loc4994 = loc("broadcast.11027")
#loc4995 = loc("subtract.11028")
#loc4996 = loc("multiply.10984")
#loc4997 = loc("reduce.10991")
#loc4998 = loc("multiply.11000")
#loc4999 = loc("reshape.11001")
#loc5000 = loc("add.11021")
#loc5001 = loc("rsqrt.11022")
#loc5002 = loc("reshape.11029")
#loc5003 = loc("broadcast.11030")
#loc5004 = loc("multiply.11031")
#loc5005 = loc("broadcast.11032")
#loc5006 = loc("multiply.11033")
#loc5007 = loc("broadcast.11036")
#loc5008 = loc("add.11037")
#loc5010 = loc("multiply.10746")
#loc5011 = loc("multiply.10741")
#loc5012 = loc("erf.10742")
#loc5013 = loc("add.10744")
#loc5014 = loc("multiply.10747")
#loc5018 = loc("reduce.10698")
#loc5019 = loc("multiply.10707")
#loc5020 = loc("broadcast.10717")
#loc5021 = loc("subtract.10718")
#loc5022 = loc("multiply.10674")
#loc5023 = loc("reduce.10681")
#loc5024 = loc("multiply.10690")
#loc5025 = loc("reshape.10691")
#loc5026 = loc("add.10711")
#loc5027 = loc("rsqrt.10712")
#loc5028 = loc("reshape.10719")
#loc5029 = loc("broadcast.10720")
#loc5030 = loc("multiply.10721")
#loc5031 = loc("broadcast.10722")
#loc5032 = loc("multiply.10723")
#loc5033 = loc("broadcast.10726")
#loc5034 = loc("add.10727")
#loc5038 = loc("reduce.13087")
#loc5039 = loc("multiply.13096")
#loc5040 = loc("broadcast.13106")
#loc5041 = loc("subtract.13107")
#loc5042 = loc("multiply.13063")
#loc5043 = loc("reduce.13070")
#loc5044 = loc("multiply.13079")
#loc5045 = loc("reshape.13080")
#loc5046 = loc("add.13100")
#loc5047 = loc("rsqrt.13101")
#loc5048 = loc("reshape.13108")
#loc5049 = loc("broadcast.13109")
#loc5050 = loc("multiply.13110")
#loc5051 = loc("broadcast.13111")
#loc5052 = loc("multiply.13112")
#loc5053 = loc("broadcast.13115")
#loc5054 = loc("add.13116")
#loc5058 = loc("reduce.10495")
#loc5059 = loc("multiply.10504")
#loc5060 = loc("broadcast.10514")
#loc5061 = loc("subtract.10515")
#loc5062 = loc("multiply.10471")
#loc5063 = loc("reduce.10478")
#loc5064 = loc("multiply.10487")
#loc5065 = loc("reshape.10488")
#loc5066 = loc("add.10508")
#loc5067 = loc("rsqrt.10509")
#loc5068 = loc("reshape.10516")
#loc5069 = loc("broadcast.10517")
#loc5070 = loc("multiply.10518")
#loc5071 = loc("broadcast.10519")
#loc5072 = loc("multiply.10520")
#loc5073 = loc("broadcast.10523")
#loc5074 = loc("add.10524")
#loc5076 = loc("multiply.10436")
#loc5077 = loc("multiply.10431")
#loc5078 = loc("erf.10432")
#loc5079 = loc("add.10434")
#loc5080 = loc("multiply.10437")
#loc5084 = loc("reduce.10388")
#loc5085 = loc("multiply.10397")
#loc5086 = loc("broadcast.10407")
#loc5087 = loc("subtract.10408")
#loc5088 = loc("multiply.10364")
#loc5089 = loc("reduce.10371")
#loc5090 = loc("multiply.10380")
#loc5091 = loc("reshape.10381")
#loc5092 = loc("add.10401")
#loc5093 = loc("rsqrt.10402")
#loc5094 = loc("reshape.10409")
#loc5095 = loc("broadcast.10410")
#loc5096 = loc("multiply.10411")
#loc5097 = loc("broadcast.10412")
#loc5098 = loc("multiply.10413")
#loc5099 = loc("broadcast.10416")
#loc5100 = loc("add.10417")
#loc5104 = loc("reduce.12884")
#loc5105 = loc("multiply.12893")
#loc5106 = loc("broadcast.12903")
#loc5107 = loc("subtract.12904")
#loc5108 = loc("multiply.12860")
#loc5109 = loc("reduce.12867")
#loc5110 = loc("multiply.12876")
#loc5111 = loc("reshape.12877")
#loc5112 = loc("add.12897")
#loc5113 = loc("rsqrt.12898")
#loc5114 = loc("reshape.12905")
#loc5115 = loc("broadcast.12906")
#loc5116 = loc("multiply.12907")
#loc5117 = loc("broadcast.12908")
#loc5118 = loc("multiply.12909")
#loc5119 = loc("broadcast.12912")
#loc5120 = loc("add.12913")
#loc5124 = loc("reduce.10185")
#loc5125 = loc("multiply.10194")
#loc5126 = loc("broadcast.10204")
#loc5127 = loc("subtract.10205")
#loc5128 = loc("multiply.10161")
#loc5129 = loc("reduce.10168")
#loc5130 = loc("multiply.10177")
#loc5131 = loc("reshape.10178")
#loc5132 = loc("add.10198")
#loc5133 = loc("rsqrt.10199")
#loc5134 = loc("reshape.10206")
#loc5135 = loc("broadcast.10207")
#loc5136 = loc("multiply.10208")
#loc5137 = loc("broadcast.10209")
#loc5138 = loc("multiply.10210")
#loc5139 = loc("broadcast.10213")
#loc5140 = loc("add.10214")
#loc5144 = loc("reduce.10078")
#loc5145 = loc("multiply.10087")
#loc5146 = loc("broadcast.10097")
#loc5147 = loc("subtract.10098")
#loc5148 = loc("multiply.10054")
#loc5149 = loc("reduce.10061")
#loc5150 = loc("multiply.10070")
#loc5151 = loc("reshape.10071")
#loc5152 = loc("add.10091")
#loc5153 = loc("rsqrt.10092")
#loc5154 = loc("reshape.10099")
#loc5155 = loc("broadcast.10100")
#loc5156 = loc("multiply.10101")
#loc5157 = loc("broadcast.10102")
#loc5158 = loc("multiply.10103")
#loc5159 = loc("broadcast.10106")
#loc5160 = loc("add.10107")
#loc5164 = loc("reduce.9768")
#loc5165 = loc("multiply.9777")
#loc5166 = loc("broadcast.9787")
#loc5167 = loc("subtract.9788")
#loc5168 = loc("multiply.9744")
#loc5169 = loc("reduce.9751")
#loc5170 = loc("multiply.9760")
#loc5171 = loc("reshape.9761")
#loc5172 = loc("add.9781")
#loc5173 = loc("rsqrt.9782")
#loc5174 = loc("reshape.9789")
#loc5175 = loc("broadcast.9790")
#loc5176 = loc("multiply.9791")
#loc5177 = loc("broadcast.9792")
#loc5178 = loc("multiply.9793")
#loc5179 = loc("broadcast.9796")
#loc5180 = loc("add.9797")
#loc5182 = loc("multiply.9506")
#loc5183 = loc("multiply.9501")
#loc5184 = loc("erf.9502")
#loc5185 = loc("add.9504")
#loc5186 = loc("multiply.9507")
#loc5190 = loc("reduce.8945")
#loc5191 = loc("multiply.8954")
#loc5192 = loc("broadcast.8964")
#loc5193 = loc("subtract.8965")
#loc5194 = loc("multiply.8921")
#loc5195 = loc("reduce.8928")
#loc5196 = loc("multiply.8937")
#loc5197 = loc("reshape.8938")
#loc5198 = loc("add.8958")
#loc5199 = loc("rsqrt.8959")
#loc5200 = loc("reshape.8966")
#loc5201 = loc("broadcast.8967")
#loc5202 = loc("multiply.8968")
#loc5203 = loc("broadcast.8969")
#loc5204 = loc("multiply.8970")
#loc5205 = loc("broadcast.8973")
#loc5206 = loc("add.8974")
#loc5208 = loc("multiply.8886")
#loc5209 = loc("multiply.8881")
#loc5210 = loc("erf.8882")
#loc5211 = loc("add.8884")
#loc5212 = loc("multiply.8887")
#loc5216 = loc("reduce.13609")
#loc5217 = loc("multiply.13618")
#loc5218 = loc("broadcast.13628")
#loc5219 = loc("subtract.13629")
#loc5220 = loc("multiply.13585")
#loc5221 = loc("reduce.13592")
#loc5222 = loc("multiply.13601")
#loc5223 = loc("reshape.13602")
#loc5224 = loc("add.13622")
#loc5225 = loc("rsqrt.13623")
#loc5226 = loc("reshape.13630")
#loc5227 = loc("broadcast.13631")
#loc5228 = loc("multiply.13632")
#loc5229 = loc("broadcast.13633")
#loc5230 = loc("multiply.13634")
#loc5231 = loc("broadcast.13637")
#loc5232 = loc("add.13638")
#loc5236 = loc("reduce.8635")
#loc5237 = loc("multiply.8644")
#loc5238 = loc("broadcast.8654")
#loc5239 = loc("subtract.8655")
#loc5240 = loc("multiply.8611")
#loc5241 = loc("reduce.8618")
#loc5242 = loc("multiply.8627")
#loc5243 = loc("reshape.8628")
#loc5244 = loc("add.8648")
#loc5245 = loc("rsqrt.8649")
#loc5246 = loc("reshape.8656")
#loc5247 = loc("broadcast.8657")
#loc5248 = loc("multiply.8658")
#loc5249 = loc("broadcast.8659")
#loc5250 = loc("multiply.8660")
#loc5251 = loc("broadcast.8663")
#loc5252 = loc("add.8664")
#loc5256 = loc("reduce.8528")
#loc5257 = loc("multiply.8537")
#loc5258 = loc("broadcast.8547")
#loc5259 = loc("subtract.8548")
#loc5260 = loc("multiply.8504")
#loc5261 = loc("reduce.8511")
#loc5262 = loc("multiply.8520")
#loc5263 = loc("reshape.8521")
#loc5264 = loc("add.8541")
#loc5265 = loc("rsqrt.8542")
#loc5266 = loc("reshape.8549")
#loc5267 = loc("broadcast.8550")
#loc5268 = loc("multiply.8551")
#loc5269 = loc("broadcast.8552")
#loc5270 = loc("multiply.8553")
#loc5271 = loc("broadcast.8556")
#loc5272 = loc("add.8557")
#loc5276 = loc("reduce.4808")
#loc5277 = loc("multiply.4817")
#loc5278 = loc("broadcast.4827")
#loc5279 = loc("subtract.4828")
#loc5280 = loc("multiply.4784")
#loc5281 = loc("reduce.4791")
#loc5282 = loc("multiply.4800")
#loc5283 = loc("reshape.4801")
#loc5284 = loc("add.4821")
#loc5285 = loc("rsqrt.4822")
#loc5286 = loc("reshape.4829")
#loc5287 = loc("broadcast.4830")
#loc5288 = loc("multiply.4831")
#loc5289 = loc("broadcast.4832")
#loc5290 = loc("multiply.4833")
#loc5291 = loc("broadcast.4836")
#loc5292 = loc("add.4837")
#loc5296 = loc("reduce.2358")
#loc5297 = loc("multiply.2367")
#loc5298 = loc("broadcast.2377")
#loc5299 = loc("subtract.2378")
#loc5300 = loc("multiply.2334")
#loc5301 = loc("reduce.2341")
#loc5302 = loc("multiply.2350")
#loc5303 = loc("reshape.2351")
#loc5304 = loc("add.2371")
#loc5305 = loc("rsqrt.2372")
#loc5306 = loc("reshape.2379")
#loc5307 = loc("broadcast.2380")
#loc5308 = loc("multiply.2381")
#loc5309 = loc("broadcast.2382")
#loc5310 = loc("multiply.2383")
#loc5311 = loc("broadcast.2386")
#loc5312 = loc("add.2387")
#loc5314 = loc("multiply.4546")
#loc5315 = loc("multiply.4541")
#loc5316 = loc("erf.4542")
#loc5317 = loc("add.4544")
#loc5318 = loc("multiply.4547")
#loc5322 = loc("reduce.3568")
#loc5323 = loc("multiply.3577")
#loc5324 = loc("broadcast.3587")
#loc5325 = loc("subtract.3588")
#loc5326 = loc("multiply.3544")
#loc5327 = loc("reduce.3551")
#loc5328 = loc("multiply.3560")
#loc5329 = loc("reshape.3561")
#loc5330 = loc("add.3581")
#loc5331 = loc("rsqrt.3582")
#loc5332 = loc("reshape.3589")
#loc5333 = loc("broadcast.3590")
#loc5334 = loc("multiply.3591")
#loc5335 = loc("broadcast.3592")
#loc5336 = loc("multiply.3593")
#loc5337 = loc("broadcast.3596")
#loc5338 = loc("add.3597")
#loc5342 = loc("reduce.2638")
#loc5343 = loc("multiply.2647")
#loc5344 = loc("broadcast.2657")
#loc5345 = loc("subtract.2658")
#loc5346 = loc("multiply.2614")
#loc5347 = loc("reduce.2621")
#loc5348 = loc("multiply.2630")
#loc5349 = loc("reshape.2631")
#loc5350 = loc("add.2651")
#loc5351 = loc("rsqrt.2652")
#loc5352 = loc("reshape.2659")
#loc5353 = loc("broadcast.2660")
#loc5354 = loc("multiply.2661")
#loc5355 = loc("broadcast.2662")
#loc5356 = loc("multiply.2663")
#loc5357 = loc("broadcast.2666")
#loc5358 = loc("add.2667")
#loc5362 = loc("reduce.10805")
#loc5363 = loc("multiply.10814")
#loc5364 = loc("broadcast.10824")
#loc5365 = loc("subtract.10825")
#loc5366 = loc("multiply.10781")
#loc5367 = loc("reduce.10788")
#loc5368 = loc("multiply.10797")
#loc5369 = loc("reshape.10798")
#loc5370 = loc("add.10818")
#loc5371 = loc("rsqrt.10819")
#loc5372 = loc("reshape.10826")
#loc5373 = loc("broadcast.10827")
#loc5374 = loc("multiply.10828")
#loc5375 = loc("broadcast.10829")
#loc5376 = loc("multiply.10830")
#loc5377 = loc("broadcast.10833")
#loc5378 = loc("add.10834")
#loc5382 = loc("reduce.107")
#loc5383 = loc("multiply.116")
#loc5384 = loc("broadcast.126")
#loc5385 = loc("subtract.127")
#loc5386 = loc("multiply.83")
#loc5387 = loc("reduce.90")
#loc5388 = loc("multiply.99")
#loc5389 = loc("reshape.100")
#loc5390 = loc("add.120")
#loc5391 = loc("rsqrt.121")
#loc5392 = loc("reshape.128")
#loc5393 = loc("broadcast.129")
#loc5394 = loc("multiply.130")
#loc5395 = loc("broadcast.131")
#loc5396 = loc("multiply.132")
#loc5397 = loc("broadcast.135")
#loc5398 = loc("add.136")
#loc5402 = loc("reduce.9255")
#loc5403 = loc("multiply.9264")
#loc5404 = loc("broadcast.9274")
#loc5405 = loc("subtract.9275")
#loc5406 = loc("multiply.9231")
#loc5407 = loc("reduce.9238")
#loc5408 = loc("multiply.9247")
#loc5409 = loc("reshape.9248")
#loc5410 = loc("add.9268")
#loc5411 = loc("rsqrt.9269")
#loc5412 = loc("reshape.9276")
#loc5413 = loc("broadcast.9277")
#loc5414 = loc("multiply.9278")
#loc5415 = loc("broadcast.9279")
#loc5416 = loc("multiply.9280")
#loc5417 = loc("broadcast.9283")
#loc5418 = loc("add.9284")
#loc5422 = loc("reduce.4295")
#loc5423 = loc("multiply.4304")
#loc5424 = loc("broadcast.4314")
#loc5425 = loc("subtract.4315")
#loc5426 = loc("multiply.4271")
#loc5427 = loc("reduce.4278")
#loc5428 = loc("multiply.4287")
#loc5429 = loc("reshape.4288")
#loc5430 = loc("add.4308")
#loc5431 = loc("rsqrt.4309")
#loc5432 = loc("reshape.4316")
#loc5433 = loc("broadcast.4317")
#loc5434 = loc("multiply.4318")
#loc5435 = loc("broadcast.4319")
#loc5436 = loc("multiply.4320")
#loc5437 = loc("broadcast.4323")
#loc5438 = loc("add.4324")
#loc5440 = loc("multiply.12715")
#loc5441 = loc("multiply.12710")
#loc5442 = loc("erf.12711")
#loc5443 = loc("add.12713")
#loc5444 = loc("multiply.12716")
#loc5448 = loc("reduce.6465")
#loc5449 = loc("multiply.6474")
#loc5450 = loc("broadcast.6484")
#loc5451 = loc("subtract.6485")
#loc5452 = loc("multiply.6441")
#loc5453 = loc("reduce.6448")
#loc5454 = loc("multiply.6457")
#loc5455 = loc("reshape.6458")
#loc5456 = loc("add.6478")
#loc5457 = loc("rsqrt.6479")
#loc5458 = loc("reshape.6486")
#loc5459 = loc("broadcast.6487")
#loc5460 = loc("multiply.6488")
#loc5461 = loc("broadcast.6489")
#loc5462 = loc("multiply.6490")
#loc5463 = loc("broadcast.6493")
#loc5464 = loc("add.6494")
#loc5468 = loc("reduce.3985")
#loc5469 = loc("multiply.3994")
#loc5470 = loc("broadcast.4004")
#loc5471 = loc("subtract.4005")
#loc5472 = loc("multiply.3961")
#loc5473 = loc("reduce.3968")
#loc5474 = loc("multiply.3977")
#loc5475 = loc("reshape.3978")
#loc5476 = loc("add.3998")
#loc5477 = loc("rsqrt.3999")
#loc5478 = loc("reshape.4006")
#loc5479 = loc("broadcast.4007")
#loc5480 = loc("multiply.4008")
#loc5481 = loc("broadcast.4009")
#loc5482 = loc("multiply.4010")
#loc5483 = loc("broadcast.4013")
#loc5484 = loc("add.4014")
#loc5488 = loc("reduce.9148")
#loc5489 = loc("multiply.9157")
#loc5490 = loc("broadcast.9167")
#loc5491 = loc("subtract.9168")
#loc5492 = loc("multiply.9124")
#loc5493 = loc("reduce.9131")
#loc5494 = loc("multiply.9140")
#loc5495 = loc("reshape.9141")
#loc5496 = loc("add.9161")
#loc5497 = loc("rsqrt.9162")
#loc5498 = loc("reshape.9169")
#loc5499 = loc("broadcast.9170")
#loc5500 = loc("multiply.9171")
#loc5501 = loc("broadcast.9172")
#loc5502 = loc("multiply.9173")
#loc5503 = loc("broadcast.9176")
#loc5504 = loc("add.9177")
#loc5506 = loc("multiply.3926")
#loc5507 = loc("multiply.3921")
#loc5508 = loc("erf.3922")
#loc5509 = loc("add.3924")
#loc5510 = loc("multiply.3927")
#loc5514 = loc("reduce.5535")
#loc5515 = loc("multiply.5544")
#loc5516 = loc("broadcast.5554")
#loc5517 = loc("subtract.5555")
#loc5518 = loc("multiply.5511")
#loc5519 = loc("reduce.5518")
#loc5520 = loc("multiply.5527")
#loc5521 = loc("reshape.5528")
#loc5522 = loc("add.5548")
#loc5523 = loc("rsqrt.5549")
#loc5524 = loc("reshape.5556")
#loc5525 = loc("broadcast.5557")
#loc5526 = loc("multiply.5558")
#loc5527 = loc("broadcast.5559")
#loc5528 = loc("multiply.5560")
#loc5529 = loc("broadcast.5563")
#loc5530 = loc("add.5564")
#loc5532 = loc("multiply.13131")
#loc5533 = loc("multiply.13126")
#loc5534 = loc("erf.13127")
#loc5535 = loc("add.13129")
#loc5536 = loc("multiply.13132")
#loc5540 = loc("reduce.6048")
#loc5541 = loc("multiply.6057")
#loc5542 = loc("broadcast.6067")
#loc5543 = loc("subtract.6068")
#loc5544 = loc("multiply.6024")
#loc5545 = loc("reduce.6031")
#loc5546 = loc("multiply.6040")
#loc5547 = loc("reshape.6041")
#loc5548 = loc("add.6061")
#loc5549 = loc("rsqrt.6062")
#loc5550 = loc("reshape.6069")
#loc5551 = loc("broadcast.6070")
#loc5552 = loc("multiply.6071")
#loc5553 = loc("broadcast.6072")
#loc5554 = loc("multiply.6073")
#loc5555 = loc("broadcast.6076")
#loc5556 = loc("add.6077")
#loc5560 = loc("reduce.6358")
#loc5561 = loc("multiply.6367")
#loc5562 = loc("broadcast.6377")
#loc5563 = loc("subtract.6378")
#loc5564 = loc("multiply.6334")
#loc5565 = loc("reduce.6341")
#loc5566 = loc("multiply.6350")
#loc5567 = loc("reshape.6351")
#loc5568 = loc("add.6371")
#loc5569 = loc("rsqrt.6372")
#loc5570 = loc("reshape.6379")
#loc5571 = loc("broadcast.6380")
#loc5572 = loc("multiply.6381")
#loc5573 = loc("broadcast.6382")
#loc5574 = loc("multiply.6383")
#loc5575 = loc("broadcast.6386")
#loc5576 = loc("add.6387")
#loc5580 = loc("reduce.4498")
#loc5581 = loc("multiply.4507")
#loc5582 = loc("broadcast.4517")
#loc5583 = loc("subtract.4518")
#loc5584 = loc("multiply.4474")
#loc5585 = loc("reduce.4481")
#loc5586 = loc("multiply.4490")
#loc5587 = loc("reshape.4491")
#loc5588 = loc("add.4511")
#loc5589 = loc("rsqrt.4512")
#loc5590 = loc("reshape.4519")
#loc5591 = loc("broadcast.4520")
#loc5592 = loc("multiply.4521")
#loc5593 = loc("broadcast.4522")
#loc5594 = loc("multiply.4523")
#loc5595 = loc("broadcast.4526")
#loc5596 = loc("add.4527")
#loc5600 = loc("reduce.3675")
#loc5601 = loc("multiply.3684")
#loc5602 = loc("broadcast.3694")
#loc5603 = loc("subtract.3695")
#loc5604 = loc("multiply.3651")
#loc5605 = loc("reduce.3658")
#loc5606 = loc("multiply.3667")
#loc5607 = loc("reshape.3668")
#loc5608 = loc("add.3688")
#loc5609 = loc("rsqrt.3689")
#loc5610 = loc("reshape.3696")
#loc5611 = loc("broadcast.3697")
#loc5612 = loc("multiply.3698")
#loc5613 = loc("broadcast.3699")
#loc5614 = loc("multiply.3700")
#loc5615 = loc("broadcast.3703")
#loc5616 = loc("add.3704")
#loc5618 = loc("multiply.7336")
#loc5619 = loc("multiply.7331")
#loc5620 = loc("erf.7332")
#loc5621 = loc("add.7334")
#loc5622 = loc("multiply.7337")
#loc5626 = loc("reduce.2435")
#loc5627 = loc("multiply.2444")
#loc5628 = loc("broadcast.2454")
#loc5629 = loc("subtract.2455")
#loc5630 = loc("multiply.2411")
#loc5631 = loc("reduce.2418")
#loc5632 = loc("multiply.2427")
#loc5633 = loc("reshape.2428")
#loc5634 = loc("add.2448")
#loc5635 = loc("rsqrt.2449")
#loc5636 = loc("reshape.2456")
#loc5637 = loc("broadcast.2457")
#loc5638 = loc("multiply.2458")
#loc5639 = loc("broadcast.2459")
#loc5640 = loc("multiply.2460")
#loc5641 = loc("broadcast.2463")
#loc5642 = loc("add.2464")
#loc5644 = loc("multiply.5166")
#loc5645 = loc("multiply.5161")
#loc5646 = loc("erf.5162")
#loc5647 = loc("add.5164")
#loc5648 = loc("multiply.5167")
#loc5652 = loc("reduce.11318")
#loc5653 = loc("multiply.11327")
#loc5654 = loc("broadcast.11337")
#loc5655 = loc("subtract.11338")
#loc5656 = loc("multiply.11294")
#loc5657 = loc("reduce.11301")
#loc5658 = loc("multiply.11310")
#loc5659 = loc("reshape.11311")
#loc5660 = loc("add.11331")
#loc5661 = loc("rsqrt.11332")
#loc5662 = loc("reshape.11339")
#loc5663 = loc("broadcast.11340")
#loc5664 = loc("multiply.11341")
#loc5665 = loc("broadcast.11342")
#loc5666 = loc("multiply.11343")
#loc5667 = loc("broadcast.11346")
#loc5668 = loc("add.11347")
#loc5672 = loc("reduce.4915")
#loc5673 = loc("multiply.4924")
#loc5674 = loc("broadcast.4934")
#loc5675 = loc("subtract.4935")
#loc5676 = loc("multiply.4891")
#loc5677 = loc("reduce.4898")
#loc5678 = loc("multiply.4907")
#loc5679 = loc("reshape.4908")
#loc5680 = loc("add.4928")
#loc5681 = loc("rsqrt.4929")
#loc5682 = loc("reshape.4936")
#loc5683 = loc("broadcast.4937")
#loc5684 = loc("multiply.4938")
#loc5685 = loc("broadcast.4939")
#loc5686 = loc("multiply.4940")
#loc5687 = loc("broadcast.4943")
#loc5688 = loc("add.4944")
#loc5692 = loc("reduce.5845")
#loc5693 = loc("multiply.5854")
#loc5694 = loc("broadcast.5864")
#loc5695 = loc("subtract.5865")
#loc5696 = loc("multiply.5821")
#loc5697 = loc("reduce.5828")
#loc5698 = loc("multiply.5837")
#loc5699 = loc("reshape.5838")
#loc5700 = loc("add.5858")
#loc5701 = loc("rsqrt.5859")
#loc5702 = loc("reshape.5866")
#loc5703 = loc("broadcast.5867")
#loc5704 = loc("multiply.5868")
#loc5705 = loc("broadcast.5869")
#loc5706 = loc("multiply.5870")
#loc5707 = loc("broadcast.5873")
#loc5708 = loc("add.5874")
#loc5712 = loc("reduce.4188")
#loc5713 = loc("multiply.4197")
#loc5714 = loc("broadcast.4207")
#loc5715 = loc("subtract.4208")
#loc5716 = loc("multiply.4164")
#loc5717 = loc("reduce.4171")
#loc5718 = loc("multiply.4180")
#loc5719 = loc("reshape.4181")
#loc5720 = loc("add.4201")
#loc5721 = loc("rsqrt.4202")
#loc5722 = loc("reshape.4209")
#loc5723 = loc("broadcast.4210")
#loc5724 = loc("multiply.4211")
#loc5725 = loc("broadcast.4212")
#loc5726 = loc("multiply.4213")
#loc5727 = loc("broadcast.4216")
#loc5728 = loc("add.4217")
#loc5732 = loc("reduce.3365")
#loc5733 = loc("multiply.3374")
#loc5734 = loc("broadcast.3384")
#loc5735 = loc("subtract.3385")
#loc5736 = loc("multiply.3341")
#loc5737 = loc("reduce.3348")
#loc5738 = loc("multiply.3357")
#loc5739 = loc("reshape.3358")
#loc5740 = loc("add.3378")
#loc5741 = loc("rsqrt.3379")
#loc5742 = loc("reshape.3386")
#loc5743 = loc("broadcast.3387")
#loc5744 = loc("multiply.3388")
#loc5745 = loc("broadcast.3389")
#loc5746 = loc("multiply.3390")
#loc5747 = loc("broadcast.3393")
#loc5748 = loc("add.3394")
#loc5750 = loc("multiply.13547")
#loc5751 = loc("multiply.13542")
#loc5752 = loc("erf.13543")
#loc5753 = loc("add.13545")
#loc5754 = loc("multiply.13548")
#loc5758 = loc("reduce.9875")
#loc5759 = loc("multiply.9884")
#loc5760 = loc("broadcast.9894")
#loc5761 = loc("subtract.9895")
#loc5762 = loc("multiply.9851")
#loc5763 = loc("reduce.9858")
#loc5764 = loc("multiply.9867")
#loc5765 = loc("reshape.9868")
#loc5766 = loc("add.9888")
#loc5767 = loc("rsqrt.9889")
#loc5768 = loc("reshape.9896")
#loc5769 = loc("broadcast.9897")
#loc5770 = loc("multiply.9898")
#loc5771 = loc("broadcast.9899")
#loc5772 = loc("multiply.9900")
#loc5773 = loc("broadcast.9903")
#loc5774 = loc("add.9904")
#loc5776 = loc("multiply.8576")
#loc5777 = loc("multiply.8571")
#loc5778 = loc("erf.8572")
#loc5779 = loc("add.8574")
#loc5780 = loc("multiply.8577")
#loc5784 = loc("reduce.2948")
#loc5785 = loc("multiply.2957")
#loc5786 = loc("broadcast.2967")
#loc5787 = loc("subtract.2968")
#loc5788 = loc("multiply.2924")
#loc5789 = loc("reduce.2931")
#loc5790 = loc("multiply.2940")
#loc5791 = loc("reshape.2941")
#loc5792 = loc("add.2961")
#loc5793 = loc("rsqrt.2962")
#loc5794 = loc("reshape.2969")
#loc5795 = loc("broadcast.2970")
#loc5796 = loc("multiply.2971")
#loc5797 = loc("broadcast.2972")
#loc5798 = loc("multiply.2973")
#loc5799 = loc("broadcast.2976")
#loc5800 = loc("add.2977")
#loc5802 = loc("multiply.2996")
#loc5803 = loc("multiply.2991")
#loc5804 = loc("erf.2992")
#loc5805 = loc("add.2994")
#loc5806 = loc("multiply.2997")
#loc5808 = loc("multiply.2686")
#loc5809 = loc("multiply.2681")
#loc5810 = loc("erf.2682")
#loc5811 = loc("add.2684")
#loc5812 = loc("multiply.2687")
#loc5816 = loc("reduce.6775")
#loc5817 = loc("multiply.6784")
#loc5818 = loc("broadcast.6794")
#loc5819 = loc("subtract.6795")
#loc5820 = loc("multiply.6751")
#loc5821 = loc("reduce.6758")
#loc5822 = loc("multiply.6767")
#loc5823 = loc("reshape.6768")
#loc5824 = loc("add.6788")
#loc5825 = loc("rsqrt.6789")
#loc5826 = loc("reshape.6796")
#loc5827 = loc("broadcast.6797")
#loc5828 = loc("multiply.6798")
#loc5829 = loc("broadcast.6799")
#loc5830 = loc("multiply.6800")
#loc5831 = loc("broadcast.6803")
#loc5832 = loc("add.6804")
#loc5836 = loc("reduce.11115")
#loc5837 = loc("multiply.11124")
#loc5838 = loc("broadcast.11134")
#loc5839 = loc("subtract.11135")
#loc5840 = loc("multiply.11091")
#loc5841 = loc("reduce.11098")
#loc5842 = loc("multiply.11107")
#loc5843 = loc("reshape.11108")
#loc5844 = loc("add.11128")
#loc5845 = loc("rsqrt.11129")
#loc5846 = loc("reshape.11136")
#loc5847 = loc("broadcast.11137")
#loc5848 = loc("multiply.11138")
#loc5849 = loc("broadcast.11139")
#loc5850 = loc("multiply.11140")
#loc5851 = loc("broadcast.11143")
#loc5852 = loc("add.11144")
#loc5854 = loc("multiply.4856")
#loc5855 = loc("multiply.4851")
#loc5856 = loc("erf.4852")
#loc5857 = loc("add.4854")
#loc5858 = loc("multiply.4857")
#loc5862 = loc("reduce.12255")
#loc5863 = loc("multiply.12264")
#loc5864 = loc("broadcast.12274")
#loc5865 = loc("subtract.12275")
#loc5866 = loc("multiply.12231")
#loc5867 = loc("reduce.12238")
#loc5868 = loc("multiply.12247")
#loc5869 = loc("reshape.12248")
#loc5870 = loc("add.12268")
#loc5871 = loc("rsqrt.12269")
#loc5872 = loc("reshape.12276")
#loc5873 = loc("broadcast.12277")
#loc5874 = loc("multiply.12278")
#loc5875 = loc("broadcast.12279")
#loc5876 = loc("multiply.12280")
#loc5877 = loc("broadcast.12283")
#loc5878 = loc("add.12284")
#loc5880 = loc("multiply.9816")
#loc5881 = loc("multiply.9811")
#loc5882 = loc("erf.9812")
#loc5883 = loc("add.9814")
#loc5884 = loc("multiply.9817")
#loc5888 = loc("reduce.3878")
#loc5889 = loc("multiply.3887")
#loc5890 = loc("broadcast.3897")
#loc5891 = loc("subtract.3898")
#loc5892 = loc("multiply.3854")
#loc5893 = loc("reduce.3861")
#loc5894 = loc("multiply.3870")
#loc5895 = loc("reshape.3871")
#loc5896 = loc("add.3891")
#loc5897 = loc("rsqrt.3892")
#loc5898 = loc("reshape.3899")
#loc5899 = loc("broadcast.3900")
#loc5900 = loc("multiply.3901")
#loc5901 = loc("broadcast.3902")
#loc5902 = loc("multiply.3903")
#loc5903 = loc("broadcast.3906")
#loc5904 = loc("add.3907")
#loc5906 = loc("multiply.3306")
#loc5907 = loc("multiply.3301")
#loc5908 = loc("erf.3302")
#loc5909 = loc("add.3304")
#loc5910 = loc("multiply.3307")
#loc5912 = loc("multiply.7026")
#loc5913 = loc("multiply.7021")
#loc5914 = loc("erf.7022")
#loc5915 = loc("add.7024")
#loc5916 = loc("multiply.7027")
#loc5920 = loc("reduce.7908")
#loc5921 = loc("multiply.7917")
#loc5922 = loc("broadcast.7927")
#loc5923 = loc("subtract.7928")
#loc5924 = loc("multiply.7884")
#loc5925 = loc("reduce.7891")
#loc5926 = loc("multiply.7900")
#loc5927 = loc("reshape.7901")
#loc5928 = loc("add.7921")
#loc5929 = loc("rsqrt.7922")
#loc5930 = loc("reshape.7929")
#loc5931 = loc("broadcast.7930")
#loc5932 = loc("multiply.7931")
#loc5933 = loc("broadcast.7932")
#loc5934 = loc("multiply.7933")
#loc5935 = loc("broadcast.7936")
#loc5936 = loc("add.7937")
#loc5940 = loc("reduce.5225")
#loc5941 = loc("multiply.5234")
#loc5942 = loc("broadcast.5244")
#loc5943 = loc("subtract.5245")
#loc5944 = loc("multiply.5201")
#loc5945 = loc("reduce.5208")
#loc5946 = loc("multiply.5217")
#loc5947 = loc("reshape.5218")
#loc5948 = loc("add.5238")
#loc5949 = loc("rsqrt.5239")
#loc5950 = loc("reshape.5246")
#loc5951 = loc("broadcast.5247")
#loc5952 = loc("multiply.5248")
#loc5953 = loc("broadcast.5249")
#loc5954 = loc("multiply.5250")
#loc5955 = loc("broadcast.5253")
#loc5956 = loc("add.5254")
#loc5960 = loc("reduce.5428")
#loc5961 = loc("multiply.5437")
#loc5962 = loc("broadcast.5447")
#loc5963 = loc("subtract.5448")
#loc5964 = loc("multiply.5404")
#loc5965 = loc("reduce.5411")
#loc5966 = loc("multiply.5420")
#loc5967 = loc("reshape.5421")
#loc5968 = loc("add.5441")
#loc5969 = loc("rsqrt.5442")
#loc5970 = loc("reshape.5449")
#loc5971 = loc("broadcast.5450")
#loc5972 = loc("multiply.5451")
#loc5973 = loc("broadcast.5452")
#loc5974 = loc("multiply.5453")
#loc5975 = loc("broadcast.5456")
#loc5976 = loc("add.5457")
#loc5978 = loc("multiply.5476")
#loc5979 = loc("multiply.5471")
#loc5980 = loc("erf.5472")
#loc5981 = loc("add.5474")
#loc5982 = loc("multiply.5477")
#loc5986 = loc("reduce.5118")
#loc5987 = loc("multiply.5127")
#loc5988 = loc("broadcast.5137")
#loc5989 = loc("subtract.5138")
#loc5990 = loc("multiply.5094")
#loc5991 = loc("reduce.5101")
#loc5992 = loc("multiply.5110")
#loc5993 = loc("reshape.5111")
#loc5994 = loc("add.5131")
#loc5995 = loc("rsqrt.5132")
#loc5996 = loc("reshape.5139")
#loc5997 = loc("broadcast.5140")
#loc5998 = loc("multiply.5141")
#loc5999 = loc("broadcast.5142")
#loc6000 = loc("multiply.5143")
#loc6001 = loc("broadcast.5146")
#loc6002 = loc("add.5147")
#loc6006 = loc("reduce.3258")
#loc6007 = loc("multiply.3267")
#loc6008 = loc("broadcast.3277")
#loc6009 = loc("subtract.3278")
#loc6010 = loc("multiply.3234")
#loc6011 = loc("reduce.3241")
#loc6012 = loc("multiply.3250")
#loc6013 = loc("reshape.3251")
#loc6014 = loc("add.3271")
#loc6015 = loc("rsqrt.3272")
#loc6016 = loc("reshape.3279")
#loc6017 = loc("broadcast.3280")
#loc6018 = loc("multiply.3281")
#loc6019 = loc("broadcast.3282")
#loc6020 = loc("multiply.3283")
#loc6021 = loc("broadcast.3286")
#loc6022 = loc("add.3287")
#loc6026 = loc("reduce.5738")
#loc6027 = loc("multiply.5747")
#loc6028 = loc("broadcast.5757")
#loc6029 = loc("subtract.5758")
#loc6030 = loc("multiply.5714")
#loc6031 = loc("reduce.5721")
#loc6032 = loc("multiply.5730")
#loc6033 = loc("reshape.5731")
#loc6034 = loc("add.5751")
#loc6035 = loc("rsqrt.5752")
#loc6036 = loc("reshape.5759")
#loc6037 = loc("broadcast.5760")
#loc6038 = loc("multiply.5761")
#loc6039 = loc("broadcast.5762")
#loc6040 = loc("multiply.5763")
#loc6041 = loc("broadcast.5766")
#loc6042 = loc("add.5767")
#loc6046 = loc("reduce.11938")
#loc6047 = loc("multiply.11947")
#loc6048 = loc("broadcast.11957")
#loc6049 = loc("subtract.11958")
#loc6050 = loc("multiply.11914")
#loc6051 = loc("reduce.11921")
#loc6052 = loc("multiply.11930")
#loc6053 = loc("reshape.11931")
#loc6054 = loc("add.11951")
#loc6055 = loc("rsqrt.11952")
#loc6056 = loc("reshape.11959")
#loc6057 = loc("broadcast.11960")
#loc6058 = loc("multiply.11961")
#loc6059 = loc("broadcast.11962")
#loc6060 = loc("multiply.11963")
#loc6061 = loc("broadcast.11966")
#loc6062 = loc("add.11967")
#loc6066 = loc("reduce.9565")
#loc6067 = loc("multiply.9574")
#loc6068 = loc("broadcast.9584")
#loc6069 = loc("subtract.9585")
#loc6070 = loc("multiply.9541")
#loc6071 = loc("reduce.9548")
#loc6072 = loc("multiply.9557")
#loc6073 = loc("reshape.9558")
#loc6074 = loc("add.9578")
#loc6075 = loc("rsqrt.9579")
#loc6076 = loc("reshape.9586")
#loc6077 = loc("broadcast.9587")
#loc6078 = loc("multiply.9588")
#loc6079 = loc("broadcast.9589")
#loc6080 = loc("multiply.9590")
#loc6081 = loc("broadcast.9593")
#loc6082 = loc("add.9594")
#loc6084 = loc("multiply.4236")
#loc6085 = loc("multiply.4231")
#loc6086 = loc("erf.4232")
#loc6087 = loc("add.4234")
#loc6088 = loc("multiply.4237")
#loc6090 = loc("multiply.5786")
#loc6091 = loc("multiply.5781")
#loc6092 = loc("erf.5782")
#loc6093 = loc("add.5784")
#loc6094 = loc("multiply.5787")
#loc6098 = loc("reduce.3055")
#loc6099 = loc("multiply.3064")
#loc6100 = loc("broadcast.3074")
#loc6101 = loc("subtract.3075")
#loc6102 = loc("multiply.3031")
#loc6103 = loc("reduce.3038")
#loc6104 = loc("multiply.3047")
#loc6105 = loc("reshape.3048")
#loc6106 = loc("add.3068")
#loc6107 = loc("rsqrt.3069")
#loc6108 = loc("reshape.3076")
#loc6109 = loc("broadcast.3077")
#loc6110 = loc("multiply.3078")
#loc6111 = loc("broadcast.3079")
#loc6112 = loc("multiply.3080")
#loc6113 = loc("broadcast.3083")
#loc6114 = loc("add.3084")
#loc6116 = loc("multiply.6096")
#loc6117 = loc("multiply.6091")
#loc6118 = loc("erf.6092")
#loc6119 = loc("add.6094")
#loc6120 = loc("multiply.6097")
#loc6122 = loc("multiply.6406")
#loc6123 = loc("multiply.6401")
#loc6124 = loc("erf.6402")
#loc6125 = loc("add.6404")
#loc6126 = loc("multiply.6407")
#loc6130 = loc("reduce.8325")
#loc6131 = loc("multiply.8334")
#loc6132 = loc("broadcast.8344")
#loc6133 = loc("subtract.8345")
#loc6134 = loc("multiply.8301")
#loc6135 = loc("reduce.8308")
#loc6136 = loc("multiply.8317")
#loc6137 = loc("reshape.8318")
#loc6138 = loc("add.8338")
#loc6139 = loc("rsqrt.8339")
#loc6140 = loc("reshape.8346")
#loc6141 = loc("broadcast.8347")
#loc6142 = loc("multiply.8348")
#loc6143 = loc("broadcast.8349")
#loc6144 = loc("multiply.8350")
#loc6145 = loc("broadcast.8353")
#loc6146 = loc("add.8354")
#loc6150 = loc("reduce.7085")
#loc6151 = loc("multiply.7094")
#loc6152 = loc("broadcast.7104")
#loc6153 = loc("subtract.7105")
#loc6154 = loc("multiply.7061")
#loc6155 = loc("reduce.7068")
#loc6156 = loc("multiply.7077")
#loc6157 = loc("reshape.7078")
#loc6158 = loc("add.7098")
#loc6159 = loc("rsqrt.7099")
#loc6160 = loc("reshape.7106")
#loc6161 = loc("broadcast.7107")
#loc6162 = loc("multiply.7108")
#loc6163 = loc("broadcast.7109")
#loc6164 = loc("multiply.7110")
#loc6165 = loc("broadcast.7113")
#loc6166 = loc("add.7114")
#loc6168 = loc("multiply.3616")
#loc6169 = loc("multiply.3611")
#loc6170 = loc("erf.3612")
#loc6171 = loc("add.3614")
#loc6172 = loc("multiply.3617")
#loc6176 = loc("reduce.6668")
#loc6177 = loc("multiply.6677")
#loc6178 = loc("broadcast.6687")
#loc6179 = loc("subtract.6688")
#loc6180 = loc("multiply.6644")
#loc6181 = loc("reduce.6651")
#loc6182 = loc("multiply.6660")
#loc6183 = loc("reshape.6661")
#loc6184 = loc("add.6681")
#loc6185 = loc("rsqrt.6682")
#loc6186 = loc("reshape.6689")
#loc6187 = loc("broadcast.6690")
#loc6188 = loc("multiply.6691")
#loc6189 = loc("broadcast.6692")
#loc6190 = loc("multiply.6693")
#loc6191 = loc("broadcast.6696")
#loc6192 = loc("add.6697")
#loc6196 = loc("reduce.9458")
#loc6197 = loc("multiply.9467")
#loc6198 = loc("broadcast.9477")
#loc6199 = loc("subtract.9478")
#loc6200 = loc("multiply.9434")
#loc6201 = loc("reduce.9441")
#loc6202 = loc("multiply.9450")
#loc6203 = loc("reshape.9451")
#loc6204 = loc("add.9471")
#loc6205 = loc("rsqrt.9472")
#loc6206 = loc("reshape.9479")
#loc6207 = loc("broadcast.9480")
#loc6208 = loc("multiply.9481")
#loc6209 = loc("broadcast.9482")
#loc6210 = loc("multiply.9483")
#loc6211 = loc("broadcast.9486")
#loc6212 = loc("add.9487")
#loc6216 = loc("reduce.8838")
#loc6217 = loc("multiply.8847")
#loc6218 = loc("broadcast.8857")
#loc6219 = loc("subtract.8858")
#loc6220 = loc("multiply.8814")
#loc6221 = loc("reduce.8821")
#loc6222 = loc("multiply.8830")
#loc6223 = loc("reshape.8831")
#loc6224 = loc("add.8851")
#loc6225 = loc("rsqrt.8852")
#loc6226 = loc("reshape.8859")
#loc6227 = loc("broadcast.8860")
#loc6228 = loc("multiply.8861")
#loc6229 = loc("broadcast.8862")
#loc6230 = loc("multiply.8863")
#loc6231 = loc("broadcast.8866")
#loc6232 = loc("add.8867")
#loc6234 = loc("multiply.6716")
#loc6235 = loc("multiply.6711")
#loc6236 = loc("erf.6712")
#loc6237 = loc("add.6714")
#loc6238 = loc("multiply.6717")
#loc6242 = loc("reduce.6155")
#loc6243 = loc("multiply.6164")
#loc6244 = loc("broadcast.6174")
#loc6245 = loc("subtract.6175")
#loc6246 = loc("multiply.6131")
#loc6247 = loc("reduce.6138")
#loc6248 = loc("multiply.6147")
#loc6249 = loc("reshape.6148")
#loc6250 = loc("add.6168")
#loc6251 = loc("rsqrt.6169")
#loc6252 = loc("reshape.6176")
#loc6253 = loc("broadcast.6177")
#loc6254 = loc("multiply.6178")
#loc6255 = loc("broadcast.6179")
#loc6256 = loc("multiply.6180")
#loc6257 = loc("broadcast.6183")
#loc6258 = loc("add.6184")
#loc6262 = loc("reduce.6978")
#loc6263 = loc("multiply.6987")
#loc6264 = loc("broadcast.6997")
#loc6265 = loc("subtract.6998")
#loc6266 = loc("multiply.6954")
#loc6267 = loc("reduce.6961")
#loc6268 = loc("multiply.6970")
#loc6269 = loc("reshape.6971")
#loc6270 = loc("add.6991")
#loc6271 = loc("rsqrt.6992")
#loc6272 = loc("reshape.6999")
#loc6273 = loc("broadcast.7000")
#loc6274 = loc("multiply.7001")
#loc6275 = loc("broadcast.7002")
#loc6276 = loc("multiply.7003")
#loc6277 = loc("broadcast.7006")
#loc6278 = loc("add.7007")
#loc6282 = loc("reduce.7288")
#loc6283 = loc("multiply.7297")
#loc6284 = loc("broadcast.7307")
#loc6285 = loc("subtract.7308")
#loc6286 = loc("multiply.7264")
#loc6287 = loc("reduce.7271")
#loc6288 = loc("multiply.7280")
#loc6289 = loc("reshape.7281")
#loc6290 = loc("add.7301")
#loc6291 = loc("rsqrt.7302")
#loc6292 = loc("reshape.7309")
#loc6293 = loc("broadcast.7310")
#loc6294 = loc("multiply.7311")
#loc6295 = loc("broadcast.7312")
#loc6296 = loc("multiply.7313")
#loc6297 = loc("broadcast.7316")
#loc6298 = loc("add.7317")
#loc6302 = loc("reduce.8015")
#loc6303 = loc("multiply.8024")
#loc6304 = loc("broadcast.8034")
#loc6305 = loc("subtract.8035")
#loc6306 = loc("multiply.7991")
#loc6307 = loc("reduce.7998")
#loc6308 = loc("multiply.8007")
#loc6309 = loc("reshape.8008")
#loc6310 = loc("add.8028")
#loc6311 = loc("rsqrt.8029")
#loc6312 = loc("reshape.8036")
#loc6313 = loc("broadcast.8037")
#loc6314 = loc("multiply.8038")
#loc6315 = loc("broadcast.8039")
#loc6316 = loc("multiply.8040")
#loc6317 = loc("broadcast.8043")
#loc6318 = loc("add.8044")
#loc6322 = loc("reduce.7395")
#loc6323 = loc("multiply.7404")
#loc6324 = loc("broadcast.7414")
#loc6325 = loc("subtract.7415")
#loc6326 = loc("multiply.7371")
#loc6327 = loc("reduce.7378")
#loc6328 = loc("multiply.7387")
#loc6329 = loc("reshape.7388")
#loc6330 = loc("add.7408")
#loc6331 = loc("rsqrt.7409")
#loc6332 = loc("reshape.7416")
#loc6333 = loc("broadcast.7417")
#loc6334 = loc("multiply.7418")
#loc6335 = loc("broadcast.7419")
#loc6336 = loc("multiply.7420")
#loc6337 = loc("broadcast.7423")
#loc6338 = loc("add.7424")
#loc6340 = loc("multiply.10126")
#loc6341 = loc("multiply.10121")
#loc6342 = loc("erf.10122")
#loc6343 = loc("add.10124")
#loc6344 = loc("multiply.10127")
#loc6346 = loc("multiply.9196")
#loc6347 = loc("multiply.9191")
#loc6348 = loc("erf.9192")
#loc6349 = loc("add.9194")
#loc6350 = loc("multiply.9197")
#loc6354 = loc("reduce.7598")
#loc6355 = loc("multiply.7607")
#loc6356 = loc("broadcast.7617")
#loc6357 = loc("subtract.7618")
#loc6358 = loc("multiply.7574")
#loc6359 = loc("reduce.7581")
#loc6360 = loc("multiply.7590")
#loc6361 = loc("reshape.7591")
#loc6362 = loc("add.7611")
#loc6363 = loc("rsqrt.7612")
#loc6364 = loc("reshape.7619")
#loc6365 = loc("broadcast.7620")
#loc6366 = loc("multiply.7621")
#loc6367 = loc("broadcast.7622")
#loc6368 = loc("multiply.7623")
#loc6369 = loc("broadcast.7626")
#loc6370 = loc("add.7627")
#loc6374 = loc("reduce.2745")
#loc6375 = loc("multiply.2754")
#loc6376 = loc("broadcast.2764")
#loc6377 = loc("subtract.2765")
#loc6378 = loc("multiply.2721")
#loc6379 = loc("reduce.2728")
#loc6380 = loc("multiply.2737")
#loc6381 = loc("reshape.2738")
#loc6382 = loc("add.2758")
#loc6383 = loc("rsqrt.2759")
#loc6384 = loc("reshape.2766")
#loc6385 = loc("broadcast.2767")
#loc6386 = loc("multiply.2768")
#loc6387 = loc("broadcast.2769")
#loc6388 = loc("multiply.2770")
#loc6389 = loc("broadcast.2773")
#loc6390 = loc("add.2774")
#loc6392 = loc("multiply.7646")
#loc6393 = loc("multiply.7641")
#loc6394 = loc("erf.7642")
#loc6395 = loc("add.7644")
#loc6396 = loc("multiply.7647")
#loc6400 = loc("reduce.7705")
#loc6401 = loc("multiply.7714")
#loc6402 = loc("broadcast.7724")
#loc6403 = loc("subtract.7725")
#loc6404 = loc("multiply.7681")
#loc6405 = loc("reduce.7688")
#loc6406 = loc("multiply.7697")
#loc6407 = loc("reshape.7698")
#loc6408 = loc("add.7718")
#loc6409 = loc("rsqrt.7719")
#loc6410 = loc("reshape.7726")
#loc6411 = loc("broadcast.7727")
#loc6412 = loc("multiply.7728")
#loc6413 = loc("broadcast.7729")
#loc6414 = loc("multiply.7730")
#loc6415 = loc("broadcast.7733")
#loc6416 = loc("add.7734")
#loc6420 = loc("reduce.4605")
#loc6421 = loc("multiply.4614")
#loc6422 = loc("broadcast.4624")
#loc6423 = loc("subtract.4625")
#loc6424 = loc("multiply.4581")
#loc6425 = loc("reduce.4588")
#loc6426 = loc("multiply.4597")
#loc6427 = loc("reshape.4598")
#loc6428 = loc("add.4618")
#loc6429 = loc("rsqrt.4619")
#loc6430 = loc("reshape.4626")
#loc6431 = loc("broadcast.4627")
#loc6432 = loc("multiply.4628")
#loc6433 = loc("broadcast.4629")
#loc6434 = loc("multiply.4630")
#loc6435 = loc("broadcast.4633")
#loc6436 = loc("add.4634")
#loc6438 = loc("multiply.7956")
#loc6439 = loc("multiply.7951")
#loc6440 = loc("erf.7952")
#loc6441 = loc("add.7954")
#loc6442 = loc("multiply.7957")
#loc6446 = loc("reduce.11735")
#loc6447 = loc("multiply.11744")
#loc6448 = loc("broadcast.11754")
#loc6449 = loc("subtract.11755")
#loc6450 = loc("multiply.11711")
#loc6451 = loc("reduce.11718")
#loc6452 = loc("multiply.11727")
#loc6453 = loc("reshape.11728")
#loc6454 = loc("add.11748")
#loc6455 = loc("rsqrt.11749")
#loc6456 = loc("reshape.11756")
#loc6457 = loc("broadcast.11757")
#loc6458 = loc("multiply.11758")
#loc6459 = loc("broadcast.11759")
#loc6460 = loc("multiply.11760")
#loc6461 = loc("broadcast.11763")
#loc6462 = loc("add.11764")
#loc6466 = loc("reduce.8218")
#loc6467 = loc("multiply.8227")
#loc6468 = loc("broadcast.8237")
#loc6469 = loc("subtract.8238")
#loc6470 = loc("multiply.8194")
#loc6471 = loc("reduce.8201")
#loc6472 = loc("multiply.8210")
#loc6473 = loc("reshape.8211")
#loc6474 = loc("add.8231")
#loc6475 = loc("rsqrt.8232")
#loc6476 = loc("reshape.8239")
#loc6477 = loc("broadcast.8240")
#loc6478 = loc("multiply.8241")
#loc6479 = loc("broadcast.8242")
#loc6480 = loc("multiply.8243")
#loc6481 = loc("broadcast.8246")
#loc6482 = loc("add.8247")
#loc6484 = loc("multiply.8266")
#loc6485 = loc("multiply.8261")
#loc6486 = loc("erf.8262")
#loc6487 = loc("add.8264")
#loc6488 = loc("multiply.8267")
