#loc1 = loc("p0.2")
#loc2 = loc("p1.7")
#loc3 = loc("p2.15")
#loc4 = loc("p3.19")
#loc5 = loc("p4.32")
#loc6 = loc("p5.38")
#loc7 = loc("p6.43")
#loc8 = loc("p7.49")
#loc9 = loc("p8.54")
#loc10 = loc("p9.139")
#loc11 = loc("p10.144")
#loc12 = loc("p11.152")
#loc13 = loc("p12.156")
#loc14 = loc("p13.163")
#loc15 = loc("p14.167")
#loc16 = loc("p15.173")
#loc17 = loc("p16.177")
#loc18 = loc("p17.183")
#loc19 = loc("p18.188")
#loc20 = loc("p19.197")
#loc21 = loc("p20.201")
#loc22 = loc("p21.207")
#loc23 = loc("p22.211")
#loc24 = loc("p23.217")
#loc25 = loc("p24.222")
#loc26 = loc("p25.231")
#loc27 = loc("p26.235")
#loc28 = loc("p27.241")
#loc29 = loc("p28.245")
#loc30 = loc("p29.251")
#loc31 = loc("p30.256")
#loc32 = loc("p31.265")
#loc33 = loc("p32.269")
#loc34 = loc("p33.275")
#loc35 = loc("p34.279")
#loc36 = loc("p35.285")
#loc37 = loc("p36.290")
#loc38 = loc("p37.299")
#loc39 = loc("p38.303")
#loc40 = loc("p39.309")
#loc41 = loc("p40.313")
#loc42 = loc("p41.319")
#loc43 = loc("p42.324")
#loc44 = loc("p43.333")
#loc45 = loc("p44.337")
#loc46 = loc("p45.343")
#loc47 = loc("p46.347")
#loc48 = loc("p47.353")
#loc49 = loc("p48.358")
#loc50 = loc("p49.367")
#loc51 = loc("p50.371")
#loc52 = loc("p51.377")
#loc53 = loc("p52.381")
#loc54 = loc("p53.387")
#loc55 = loc("p54.392")
#loc56 = loc("p55.401")
#loc57 = loc("p56.405")
#loc58 = loc("p57.411")
#loc59 = loc("p58.415")
#loc60 = loc("p59.421")
#loc61 = loc("p60.426")
#loc62 = loc("p61.435")
#loc63 = loc("p62.439")
#loc64 = loc("p63.445")
#loc65 = loc("p64.449")
#loc66 = loc("p65.455")
#loc67 = loc("p66.460")
#loc68 = loc("p67.469")
#loc69 = loc("p68.473")
#loc70 = loc("p69.479")
#loc71 = loc("p70.483")
#loc72 = loc("p71.489")
#loc73 = loc("p72.494")
#loc74 = loc("p73.503")
#loc75 = loc("p74.507")
#loc76 = loc("p75.513")
#loc77 = loc("p76.517")
#loc78 = loc("p77.523")
#loc79 = loc("p78.528")
#loc80 = loc("p79.537")
#loc81 = loc("p80.541")
#loc82 = loc("p81.547")
#loc83 = loc("p82.551")
#loc84 = loc("p83.557")
#loc85 = loc("p84.562")
#loc86 = loc("p85.571")
#loc87 = loc("p86.575")
#loc88 = loc("p87.581")
#loc89 = loc("p88.585")
#loc90 = loc("p89.591")
#loc91 = loc("p90.596")
#loc92 = loc("p91.605")
#loc93 = loc("p92.609")
#loc94 = loc("p93.615")
#loc95 = loc("p94.619")
#loc96 = loc("p95.625")
#loc97 = loc("p96.630")
#loc98 = loc("p97.639")
#loc99 = loc("p98.643")
#loc100 = loc("p99.649")
#loc101 = loc("p100.653")
#loc102 = loc("p101.659")
#loc103 = loc("p102.664")
#loc104 = loc("p103.673")
#loc105 = loc("p104.677")
#loc106 = loc("p105.683")
#loc107 = loc("p106.687")
#loc108 = loc("p107.693")
#loc109 = loc("p108.698")
#loc110 = loc("p109.707")
#loc111 = loc("p110.711")
#loc112 = loc("p111.717")
#loc113 = loc("p112.721")
#loc114 = loc("p113.727")
#loc115 = loc("p114.732")
#loc116 = loc("p115.741")
#loc117 = loc("p116.745")
#loc118 = loc("p117.751")
#loc119 = loc("p118.755")
#loc120 = loc("p119.761")
#loc121 = loc("p120.766")
#loc122 = loc("p121.775")
#loc123 = loc("p122.779")
#loc124 = loc("p123.785")
#loc125 = loc("p124.789")
#loc126 = loc("p125.795")
#loc127 = loc("p126.800")
#loc128 = loc("p127.809")
#loc129 = loc("p128.813")
#loc130 = loc("p129.819")
#loc131 = loc("p130.823")
#loc132 = loc("p131.829")
#loc133 = loc("p132.834")
#loc134 = loc("p133.843")
#loc135 = loc("p134.847")
#loc136 = loc("p135.853")
#loc137 = loc("p136.857")
#loc138 = loc("p137.863")
#loc139 = loc("p138.868")
#loc140 = loc("p139.877")
#loc141 = loc("p140.881")
#loc142 = loc("p141.887")
#loc143 = loc("p142.891")
#loc144 = loc("p143.897")
#loc145 = loc("p144.902")
#loc146 = loc("p145.911")
#loc147 = loc("p146.915")
#loc148 = loc("p147.921")
#loc149 = loc("p148.925")
#loc150 = loc("p149.931")
#loc151 = loc("p150.936")
#loc152 = loc("p151.945")
#loc153 = loc("p152.949")
#loc154 = loc("p153.955")
#loc155 = loc("p154.959")
#loc156 = loc("p155.965")
#loc157 = loc("p156.970")
#loc158 = loc("p157.979")
#loc159 = loc("p158.983")
#loc160 = loc("p159.989")
#loc161 = loc("p160.993")
#loc162 = loc("p161.999")
#loc163 = loc("p162.1004")
#loc164 = loc("p163.1013")
#loc165 = loc("p164.1017")
#loc166 = loc("p165.1023")
#loc167 = loc("p166.1027")
#loc168 = loc("p167.1033")
#loc169 = loc("p168.1038")
#loc170 = loc("p169.1047")
#loc171 = loc("p170.1051")
#loc172 = loc("p171.1057")
#loc173 = loc("p172.1061")
#loc174 = loc("p173.1067")
#loc175 = loc("p174.1072")
#loc176 = loc("p175.1081")
#loc177 = loc("p176.1085")
#loc178 = loc("p177.1091")
#loc179 = loc("p178.1095")
#loc180 = loc("p179.1101")
#loc181 = loc("p180.1106")
#loc182 = loc("p181.1115")
#loc183 = loc("p182.1119")
#loc184 = loc("p183.1125")
#loc185 = loc("p184.1129")
#loc186 = loc("p185.1135")
#loc187 = loc("p186.1140")
#loc188 = loc("p187.1149")
#loc189 = loc("p188.1153")
#loc190 = loc("p189.1159")
#loc191 = loc("p190.1163")
#loc192 = loc("p191.1169")
#loc193 = loc("p192.1174")
#loc194 = loc("p193.1183")
#loc195 = loc("p194.1187")
#loc196 = loc("p195.1193")
#loc197 = loc("p196.1197")
#loc198 = loc("p197.1203")
#loc199 = loc("p198.1208")
#loc200 = loc("p199.1217")
#loc201 = loc("p200.1221")
#loc202 = loc("p201.1227")
#loc203 = loc("p202.1231")
#loc204 = loc("p203.1237")
#loc205 = loc("p204.1242")
#loc206 = loc("p205.1251")
#loc207 = loc("p206.1255")
#loc208 = loc("p207.1261")
#loc209 = loc("p208.1265")
#loc210 = loc("p209.1271")
#loc211 = loc("p210.1276")
#loc212 = loc("p211.1285")
#loc213 = loc("p212.1289")
#loc214 = loc("p213.1295")
#loc215 = loc("p214.1299")
#loc216 = loc("p215.1305")
#loc217 = loc("p216.1310")
#loc218 = loc("p217.1319")
#loc219 = loc("p218.1323")
#loc220 = loc("p219.1329")
#loc221 = loc("p220.1333")
#loc222 = loc("p221.1339")
#loc223 = loc("p222.1344")
#loc224 = loc("p223.1353")
#loc225 = loc("p224.1357")
#loc226 = loc("p225.1363")
#loc227 = loc("p226.1367")
#loc228 = loc("p227.1373")
#loc229 = loc("p228.1378")
#loc230 = loc("p229.1387")
#loc231 = loc("p230.1391")
#loc232 = loc("p231.1397")
#loc233 = loc("p232.1401")
#loc234 = loc("p233.1407")
#loc235 = loc("p234.1412")
#loc236 = loc("p235.1421")
#loc237 = loc("p236.1425")
#loc238 = loc("p237.1431")
#loc239 = loc("p238.1435")
#loc240 = loc("p239.1441")
#loc241 = loc("p240.1446")
#loc242 = loc("p241.1455")
#loc243 = loc("p242.1459")
#loc244 = loc("p243.1465")
#loc245 = loc("p244.1469")
#loc246 = loc("p245.1475")
#loc247 = loc("p246.1480")
#loc248 = loc("p247.1489")
#loc249 = loc("p248.1493")
#loc250 = loc("p249.1499")
#loc251 = loc("p250.1503")
#loc252 = loc("p251.1509")
#loc253 = loc("p252.1514")
#loc254 = loc("p253.1523")
#loc255 = loc("p254.1527")
#loc256 = loc("p255.1533")
#loc257 = loc("p256.1537")
#loc258 = loc("p257.1543")
#loc259 = loc("p258.1548")
#loc260 = loc("p259.1557")
#loc261 = loc("p260.1561")
#loc262 = loc("p261.1567")
#loc263 = loc("p262.1571")
#loc264 = loc("p263.1577")
#loc265 = loc("p264.1582")
#loc266 = loc("p265.1591")
#loc267 = loc("p266.1595")
#loc268 = loc("p267.1601")
#loc269 = loc("p268.1605")
#loc270 = loc("p269.1611")
#loc271 = loc("p270.1616")
#loc272 = loc("p271.1625")
#loc273 = loc("p272.1629")
#loc274 = loc("p273.1635")
#loc275 = loc("p274.1639")
#loc276 = loc("p275.1645")
#loc277 = loc("p276.1650")
#loc278 = loc("p277.1659")
#loc279 = loc("p278.1663")
#loc280 = loc("p279.1669")
#loc281 = loc("p280.1673")
#loc282 = loc("p281.1679")
#loc283 = loc("p282.1684")
#loc284 = loc("p283.1693")
#loc285 = loc("p284.1697")
#loc286 = loc("p285.1703")
#loc287 = loc("p286.1707")
#loc288 = loc("p287.1713")
#loc289 = loc("p288.1718")
#loc290 = loc("p289.1727")
#loc291 = loc("p290.1731")
#loc292 = loc("p291.1737")
#loc293 = loc("p292.1741")
#loc294 = loc("p293.1747")
#loc295 = loc("p294.1752")
#loc296 = loc("p295.1761")
#loc297 = loc("p296.1765")
#loc298 = loc("p297.1771")
#loc299 = loc("p298.1775")
#loc300 = loc("p299.1781")
#loc301 = loc("p300.1786")
#loc302 = loc("p301.1795")
#loc303 = loc("p302.1799")
#loc304 = loc("p303.1805")
#loc305 = loc("p304.1809")
#loc306 = loc("p305.1815")
#loc307 = loc("p306.1820")
#loc308 = loc("p307.1829")
#loc309 = loc("p308.1833")
#loc310 = loc("p309.1839")
#loc311 = loc("p310.1843")
#loc312 = loc("p311.1849")
#loc313 = loc("p312.1854")
#loc314 = loc("p313.1863")
#loc315 = loc("p314.1867")
#loc316 = loc("p315.1873")
#loc317 = loc("p316.1877")
#loc318 = loc("p317.1883")
#loc319 = loc("p318.1888")
#loc320 = loc("p319.1897")
#loc321 = loc("p320.1901")
#loc322 = loc("p321.1907")
#loc323 = loc("p322.1911")
#loc324 = loc("p323.1917")
#loc325 = loc("p324.1922")
#loc326 = loc("p325.1931")
#loc327 = loc("p326.1935")
#loc328 = loc("p327.1941")
#loc329 = loc("p328.1945")
#loc330 = loc("p329.1951")
#loc331 = loc("p330.1956")
#loc332 = loc("p331.1965")
#loc333 = loc("p332.1969")
#loc334 = loc("p333.1975")
#loc335 = loc("p334.1979")
#loc336 = loc("p335.1985")
#loc337 = loc("p336.1990")
#loc338 = loc("p337.1999")
#loc339 = loc("p338.2003")
#loc340 = loc("p339.2009")
#loc341 = loc("p340.2013")
#loc342 = loc("p341.2019")
#loc343 = loc("p342.2024")
#loc344 = loc("p343.2033")
#loc345 = loc("p344.2037")
#loc346 = loc("p345.2043")
#loc347 = loc("p346.2047")
#loc348 = loc("p347.2053")
#loc349 = loc("p348.2058")
#loc350 = loc("p349.2067")
#loc351 = loc("p350.2071")
#loc352 = loc("p351.2077")
#loc353 = loc("p352.2081")
#loc354 = loc("p353.2087")
#loc355 = loc("p354.2092")
#loc356 = loc("p355.2101")
#loc357 = loc("p356.2105")
#loc358 = loc("p357.2111")
#loc359 = loc("p358.2115")
#loc360 = loc("p359.2121")
#loc361 = loc("p360.2126")
#loc362 = loc("p361.2135")
#loc363 = loc("p362.2139")
#loc364 = loc("p363.2145")
#loc365 = loc("p364.2149")
#loc366 = loc("p365.2155")
#loc367 = loc("p366.2160")
#loc368 = loc("p367.2169")
#loc369 = loc("p368.2173")
#loc370 = loc("p369.2179")
#loc371 = loc("p370.2183")
#loc372 = loc("p371.2189")
#loc373 = loc("p372.2194")
#loc374 = loc("p373.2203")
#loc375 = loc("p374.2207")
#loc376 = loc("p375.2213")
#loc377 = loc("p376.2217")
#loc378 = loc("p377.2223")
#loc379 = loc("p378.2228")
#loc380 = loc("p379.2237")
#loc381 = loc("p380.2241")
#loc382 = loc("p381.2247")
#loc383 = loc("p382.2251")
#loc384 = loc("p383.2257")
#loc385 = loc("p384.2262")
#loc386 = loc("p385.2270")
#loc387 = loc("p386.2275")
#loc388 = loc("p387.2283")
#loc389 = loc("p388.2288")
#loc390 = loc("p389.2295")
#loc391 = loc("p390.2297")
#loc392 = loc("p391.2302")
#loc393 = loc("p392.2478")
#loc394 = loc("p393.2482")
#loc395 = loc("p394.2502")
#loc396 = loc("p395.2506")
#loc397 = loc("p396.2788")
#loc398 = loc("p397.2792")
#loc399 = loc("p398.2812")
#loc400 = loc("p399.2816")
#loc401 = loc("p400.3098")
#loc402 = loc("p401.3102")
#loc403 = loc("p402.3122")
#loc404 = loc("p403.3126")
#loc405 = loc("p404.3408")
#loc406 = loc("p405.3412")
#loc407 = loc("p406.3432")
#loc408 = loc("p407.3436")
#loc409 = loc("p408.3718")
#loc410 = loc("p409.3722")
#loc411 = loc("p410.3742")
#loc412 = loc("p411.3746")
#loc413 = loc("p412.4028")
#loc414 = loc("p413.4032")
#loc415 = loc("p414.4052")
#loc416 = loc("p415.4056")
#loc417 = loc("p416.4338")
#loc418 = loc("p417.4342")
#loc419 = loc("p418.4362")
#loc420 = loc("p419.4366")
#loc421 = loc("p420.4648")
#loc422 = loc("p421.4652")
#loc423 = loc("p422.4672")
#loc424 = loc("p423.4676")
#loc425 = loc("p424.4958")
#loc426 = loc("p425.4962")
#loc427 = loc("p426.4982")
#loc428 = loc("p427.4986")
#loc429 = loc("p428.5268")
#loc430 = loc("p429.5272")
#loc431 = loc("p430.5292")
#loc432 = loc("p431.5296")
#loc433 = loc("p432.5578")
#loc434 = loc("p433.5582")
#loc435 = loc("p434.5602")
#loc436 = loc("p435.5606")
#loc437 = loc("p436.5888")
#loc438 = loc("p437.5892")
#loc439 = loc("p438.5912")
#loc440 = loc("p439.5916")
#loc441 = loc("p440.6198")
#loc442 = loc("p441.6202")
#loc443 = loc("p442.6222")
#loc444 = loc("p443.6226")
#loc445 = loc("p444.6508")
#loc446 = loc("p445.6512")
#loc447 = loc("p446.6532")
#loc448 = loc("p447.6536")
#loc449 = loc("p448.6818")
#loc450 = loc("p449.6822")
#loc451 = loc("p450.6842")
#loc452 = loc("p451.6846")
#loc453 = loc("p452.7128")
#loc454 = loc("p453.7132")
#loc455 = loc("p454.7152")
#loc456 = loc("p455.7156")
#loc457 = loc("p456.7438")
#loc458 = loc("p457.7442")
#loc459 = loc("p458.7462")
#loc460 = loc("p459.7466")
#loc461 = loc("p460.7748")
#loc462 = loc("p461.7752")
#loc463 = loc("p462.7772")
#loc464 = loc("p463.7776")
#loc465 = loc("p464.8058")
#loc466 = loc("p465.8062")
#loc467 = loc("p466.8082")
#loc468 = loc("p467.8086")
#loc469 = loc("p468.8368")
#loc470 = loc("p469.8372")
#loc471 = loc("p470.8392")
#loc472 = loc("p471.8396")
#loc473 = loc("p472.8678")
#loc474 = loc("p473.8682")
#loc475 = loc("p474.8702")
#loc476 = loc("p475.8706")
#loc477 = loc("p476.8988")
#loc478 = loc("p477.8992")
#loc479 = loc("p478.9012")
#loc480 = loc("p479.9016")
#loc481 = loc("p480.9298")
#loc482 = loc("p481.9302")
#loc483 = loc("p482.9322")
#loc484 = loc("p483.9326")
#loc485 = loc("p484.9608")
#loc486 = loc("p485.9612")
#loc487 = loc("p486.9632")
#loc488 = loc("p487.9636")
#loc489 = loc("p488.9918")
#loc490 = loc("p489.9922")
#loc491 = loc("p490.9942")
#loc492 = loc("p491.9946")
#loc493 = loc("p492.10228")
#loc494 = loc("p493.10232")
#loc495 = loc("p494.10252")
#loc496 = loc("p495.10256")
#loc497 = loc("p496.10538")
#loc498 = loc("p497.10542")
#loc499 = loc("p498.10562")
#loc500 = loc("p499.10566")
#loc501 = loc("p500.10848")
#loc502 = loc("p501.10852")
#loc503 = loc("p502.10872")
#loc504 = loc("p503.10876")
#loc505 = loc("p504.11158")
#loc506 = loc("p505.11162")
#loc507 = loc("p506.11182")
#loc508 = loc("p507.11186")
#loc509 = loc("p508.11468")
#loc510 = loc("p509.11472")
#loc511 = loc("p510.11492")
#loc512 = loc("p511.11496")
#loc513 = loc("p512.11778")
#loc514 = loc("p513.11782")
#loc515 = loc("p514.11802")
#loc516 = loc("p515.11806")
#loc517 = loc("p516.12091")
#loc518 = loc("p517.12106")
#loc519 = loc("p518.12186")
#loc520 = loc("p519.12191")
#loc521 = loc("p520.12197")
#loc522 = loc("p521.12202")
#loc523 = loc("p522.12309")
#loc524 = loc("p523.12314")
#loc525 = loc("p524.12320")
#loc526 = loc("p525.12325")
#loc527 = loc("p526.12410")
#loc528 = loc("p527.12415")
#loc529 = loc("p528.12507")
#loc530 = loc("p529.12522")
#loc531 = loc("p530.12602")
#loc532 = loc("p531.12607")
#loc533 = loc("p532.12613")
#loc534 = loc("p533.12618")
#loc535 = loc("p534.12725")
#loc536 = loc("p535.12730")
#loc537 = loc("p536.12736")
#loc538 = loc("p537.12741")
#loc539 = loc("p538.12826")
#loc540 = loc("p539.12831")
#loc541 = loc("p540.12923")
#loc542 = loc("p541.12938")
#loc543 = loc("p542.13018")
#loc544 = loc("p543.13023")
#loc545 = loc("p544.13029")
#loc546 = loc("p545.13034")
#loc547 = loc("p546.13141")
#loc548 = loc("p547.13146")
#loc549 = loc("p548.13152")
#loc550 = loc("p549.13157")
#loc551 = loc("p550.13242")
#loc552 = loc("p551.13247")
#loc553 = loc("p552.13339")
#loc554 = loc("p553.13354")
#loc555 = loc("p554.13434")
#loc556 = loc("p555.13439")
#loc557 = loc("p556.13445")
#loc558 = loc("p557.13450")
#loc628 = loc("reduce.2566")
#loc733 = loc("reduce.2876")
#loc838 = loc("reduce.3186")
#loc943 = loc("reduce.3496")
#loc1048 = loc("reduce.3806")
#loc1153 = loc("reduce.4116")
#loc1258 = loc("reduce.4426")
#loc1363 = loc("reduce.4736")
#loc1468 = loc("reduce.5046")
#loc1573 = loc("reduce.5356")
#loc1678 = loc("reduce.5666")
#loc1783 = loc("reduce.5976")
#loc1888 = loc("reduce.6286")
#loc1993 = loc("reduce.6596")
#loc2098 = loc("reduce.6906")
#loc2203 = loc("reduce.7216")
#loc2308 = loc("reduce.7526")
#loc2413 = loc("reduce.7836")
#loc2518 = loc("reduce.8146")
#loc2623 = loc("reduce.8456")
#loc2728 = loc("reduce.8766")
#loc2833 = loc("reduce.9076")
#loc2938 = loc("reduce.9386")
#loc3043 = loc("reduce.9696")
#loc3148 = loc("reduce.10006")
#loc3253 = loc("reduce.10316")
#loc3358 = loc("reduce.10626")
#loc3463 = loc("reduce.10936")
#loc3568 = loc("reduce.11246")
#loc3673 = loc("reduce.11556")
#loc3778 = loc("reduce.11866")
#loc3876 = loc("reduce.12162")
#loc3962 = loc("reduce.12578")
#loc4048 = loc("reduce.12994")
#loc4134 = loc("reduce.13410")
#loc4201 = loc("custom-call.13457")
#loc4202 = loc("custom-call.13454")
#loc4203 = loc("custom-call.13449")
#loc4221 = loc("custom-call.13164")
#loc4222 = loc("custom-call.13161")
#loc4223 = loc("custom-call.13156")
#loc4241 = loc("custom-call.12748")
#loc4242 = loc("custom-call.12745")
#loc4243 = loc("custom-call.12740")
#loc4261 = loc("custom-call.12625")
#loc4262 = loc("custom-call.12622")
#loc4263 = loc("custom-call.12617")
#loc4281 = loc("custom-call.12422")
#loc4282 = loc("custom-call.12419")
#loc4283 = loc("custom-call.12414")
#loc4301 = loc("custom-call.13254")
#loc4302 = loc("custom-call.13251")
#loc4303 = loc("custom-call.13246")
#loc4321 = loc("custom-call.12332")
#loc4322 = loc("custom-call.12329")
#loc4323 = loc("custom-call.12324")
#loc4341 = loc("custom-call.12289")
#loc4347 = loc("custom-call.12006")
#loc4348 = loc("custom-call.148")
#loc4349 = loc("custom-call.143")
#loc4367 = loc("custom-call.11976")
#loc4373 = loc("custom-call.11666")
#loc4379 = loc("custom-call.11582")
#loc4380 = loc("custom-call.260")
#loc4381 = loc("custom-call.255")
#loc4399 = loc("custom-call.11379")
#loc4400 = loc("custom-call.294")
#loc4401 = loc("custom-call.289")
#loc4419 = loc("custom-call.11356")
#loc4425 = loc("custom-call.11046")
#loc4431 = loc("custom-call.10962")
#loc4432 = loc("custom-call.396")
#loc4433 = loc("custom-call.391")
#loc4451 = loc("custom-call.10736")
#loc4457 = loc("custom-call.10652")
#loc4458 = loc("custom-call.464")
#loc4459 = loc("custom-call.459")
#loc4477 = loc("custom-call.13041")
#loc4478 = loc("custom-call.13038")
#loc4479 = loc("custom-call.13033")
#loc4497 = loc("custom-call.10449")
#loc4498 = loc("custom-call.498")
#loc4499 = loc("custom-call.493")
#loc4517 = loc("custom-call.10426")
#loc4523 = loc("custom-call.10342")
#loc4524 = loc("custom-call.532")
#loc4525 = loc("custom-call.527")
#loc4543 = loc("custom-call.12838")
#loc4544 = loc("custom-call.12835")
#loc4545 = loc("custom-call.12830")
#loc4563 = loc("custom-call.10139")
#loc4564 = loc("custom-call.566")
#loc4565 = loc("custom-call.561")
#loc4583 = loc("custom-call.10032")
#loc4584 = loc("custom-call.600")
#loc4585 = loc("custom-call.595")
#loc4603 = loc("custom-call.9722")
#loc4604 = loc("custom-call.668")
#loc4605 = loc("custom-call.663")
#loc4623 = loc("custom-call.9496")
#loc4629 = loc("custom-call.8899")
#loc4630 = loc("custom-call.838")
#loc4631 = loc("custom-call.833")
#loc4649 = loc("custom-call.8876")
#loc4655 = loc("custom-call.13563")
#loc4656 = loc("custom-call.11")
#loc4657 = loc("custom-call.6")
#loc4675 = loc("custom-call.8589")
#loc4676 = loc("custom-call.906")
#loc4677 = loc("custom-call.901")
#loc4695 = loc("custom-call.8482")
#loc4696 = loc("custom-call.940")
#loc4697 = loc("custom-call.935")
#loc4715 = loc("custom-call.4762")
#loc4716 = loc("custom-call.1756")
#loc4717 = loc("custom-call.1751")
#loc4735 = loc("custom-call.2312")
#loc4736 = loc("custom-call.2279")
#loc4737 = loc("custom-call.2274")
#loc4755 = loc("custom-call.4536")
#loc4761 = loc("custom-call.3522")
#loc4762 = loc("custom-call.2028")
#loc4763 = loc("custom-call.2023")
#loc4781 = loc("custom-call.2592")
#loc4782 = loc("custom-call.2232")
#loc4783 = loc("custom-call.2227")
#loc4801 = loc("custom-call.10759")
#loc4802 = loc("custom-call.430")
#loc4803 = loc("custom-call.425")
#loc4821 = loc("custom-call.61")
#loc4822 = loc("custom-call.58")
#loc4823 = loc("custom-call.53")
#loc4841 = loc("custom-call.9209")
#loc4842 = loc("custom-call.770")
#loc4843 = loc("custom-call.765")
#loc4861 = loc("custom-call.4249")
#loc4862 = loc("custom-call.1858")
#loc4863 = loc("custom-call.1853")
#loc4881 = loc("custom-call.12705")
#loc4887 = loc("custom-call.6419")
#loc4888 = loc("custom-call.1382")
#loc4889 = loc("custom-call.1377")
#loc4907 = loc("custom-call.3939")
#loc4908 = loc("custom-call.1926")
#loc4909 = loc("custom-call.1921")
#loc4927 = loc("custom-call.9102")
#loc4928 = loc("custom-call.804")
#loc4929 = loc("custom-call.799")
#loc4947 = loc("custom-call.3916")
#loc4953 = loc("custom-call.5489")
#loc4954 = loc("custom-call.1586")
#loc4955 = loc("custom-call.1581")
#loc4973 = loc("custom-call.13121")
#loc4979 = loc("custom-call.6002")
#loc4980 = loc("custom-call.1484")
#loc4981 = loc("custom-call.1479")
#loc4999 = loc("custom-call.6312")
#loc5000 = loc("custom-call.1416")
#loc5001 = loc("custom-call.1411")
#loc5019 = loc("custom-call.4452")
#loc5020 = loc("custom-call.1824")
#loc5021 = loc("custom-call.1819")
#loc5039 = loc("custom-call.3629")
#loc5040 = loc("custom-call.1994")
#loc5041 = loc("custom-call.1989")
#loc5059 = loc("custom-call.7326")
#loc5065 = loc("custom-call.2389")
#loc5066 = loc("custom-call.2266")
#loc5067 = loc("custom-call.2261")
#loc5085 = loc("custom-call.5156")
#loc5091 = loc("custom-call.11272")
#loc5092 = loc("custom-call.328")
#loc5093 = loc("custom-call.323")
#loc5111 = loc("custom-call.4869")
#loc5112 = loc("custom-call.1722")
#loc5113 = loc("custom-call.1717")
#loc5131 = loc("custom-call.5799")
#loc5132 = loc("custom-call.1518")
#loc5133 = loc("custom-call.1513")
#loc5151 = loc("custom-call.4142")
#loc5152 = loc("custom-call.1892")
#loc5153 = loc("custom-call.1887")
#loc5171 = loc("custom-call.3319")
#loc5172 = loc("custom-call.2062")
#loc5173 = loc("custom-call.2057")
#loc5191 = loc("custom-call.13537")
#loc5197 = loc("custom-call.9829")
#loc5198 = loc("custom-call.634")
#loc5199 = loc("custom-call.629")
#loc5217 = loc("custom-call.8566")
#loc5223 = loc("custom-call.2902")
#loc5224 = loc("custom-call.2164")
#loc5225 = loc("custom-call.2159")
#loc5243 = loc("custom-call.2986")
#loc5249 = loc("custom-call.2676")
#loc5255 = loc("custom-call.6729")
#loc5256 = loc("custom-call.1314")
#loc5257 = loc("custom-call.1309")
#loc5275 = loc("custom-call.11069")
#loc5276 = loc("custom-call.362")
#loc5277 = loc("custom-call.357")
#loc5295 = loc("custom-call.4846")
#loc5301 = loc("custom-call.12209")
#loc5302 = loc("custom-call.12206")
#loc5303 = loc("custom-call.12201")
#loc5321 = loc("custom-call.9806")
#loc5327 = loc("custom-call.3832")
#loc5328 = loc("custom-call.1960")
#loc5329 = loc("custom-call.1955")
#loc5347 = loc("custom-call.3296")
#loc5353 = loc("custom-call.7016")
#loc5359 = loc("custom-call.7862")
#loc5360 = loc("custom-call.1076")
#loc5361 = loc("custom-call.1071")
#loc5379 = loc("custom-call.5179")
#loc5380 = loc("custom-call.1654")
#loc5381 = loc("custom-call.1649")
#loc5399 = loc("custom-call.5382")
#loc5400 = loc("custom-call.1620")
#loc5401 = loc("custom-call.1615")
#loc5419 = loc("custom-call.5466")
#loc5425 = loc("custom-call.5072")
#loc5426 = loc("custom-call.1688")
#loc5427 = loc("custom-call.1683")
#loc5445 = loc("custom-call.3212")
#loc5446 = loc("custom-call.2096")
#loc5447 = loc("custom-call.2091")
#loc5465 = loc("custom-call.5692")
#loc5466 = loc("custom-call.1552")
#loc5467 = loc("custom-call.1547")
#loc5485 = loc("custom-call.11892")
#loc5486 = loc("custom-call.192")
#loc5487 = loc("custom-call.187")
#loc5505 = loc("custom-call.9519")
#loc5506 = loc("custom-call.702")
#loc5507 = loc("custom-call.697")
#loc5525 = loc("custom-call.4226")
#loc5531 = loc("custom-call.5776")
#loc5537 = loc("custom-call.3009")
#loc5538 = loc("custom-call.2130")
#loc5539 = loc("custom-call.2125")
#loc5557 = loc("custom-call.6086")
#loc5563 = loc("custom-call.6396")
#loc5569 = loc("custom-call.8279")
#loc5570 = loc("custom-call.974")
#loc5571 = loc("custom-call.969")
#loc5589 = loc("custom-call.7039")
#loc5590 = loc("custom-call.1246")
#loc5591 = loc("custom-call.1241")
#loc5609 = loc("custom-call.3606")
#loc5615 = loc("custom-call.6622")
#loc5616 = loc("custom-call.1348")
#loc5617 = loc("custom-call.1343")
#loc5635 = loc("custom-call.9412")
#loc5636 = loc("custom-call.736")
#loc5637 = loc("custom-call.731")
#loc5655 = loc("custom-call.8792")
#loc5656 = loc("custom-call.872")
#loc5657 = loc("custom-call.867")
#loc5675 = loc("custom-call.6706")
#loc5681 = loc("custom-call.6109")
#loc5682 = loc("custom-call.1450")
#loc5683 = loc("custom-call.1445")
#loc5701 = loc("custom-call.6932")
#loc5702 = loc("custom-call.1280")
#loc5703 = loc("custom-call.1275")
#loc5721 = loc("custom-call.7242")
#loc5722 = loc("custom-call.1212")
#loc5723 = loc("custom-call.1207")
#loc5741 = loc("custom-call.7969")
#loc5742 = loc("custom-call.1042")
#loc5743 = loc("custom-call.1037")
#loc5761 = loc("custom-call.7349")
#loc5762 = loc("custom-call.1178")
#loc5763 = loc("custom-call.1173")
#loc5781 = loc("custom-call.10116")
#loc5787 = loc("custom-call.9186")
#loc5793 = loc("custom-call.7552")
#loc5794 = loc("custom-call.1144")
#loc5795 = loc("custom-call.1139")
#loc5813 = loc("custom-call.2699")
#loc5814 = loc("custom-call.2198")
#loc5815 = loc("custom-call.2193")
#loc5833 = loc("custom-call.7636")
#loc5839 = loc("custom-call.7659")
#loc5840 = loc("custom-call.1110")
#loc5841 = loc("custom-call.1105")
#loc5859 = loc("custom-call.4559")
#loc5860 = loc("custom-call.1790")
#loc5861 = loc("custom-call.1785")
#loc5879 = loc("custom-call.7946")
#loc5885 = loc("custom-call.11689")
#loc5886 = loc("custom-call.226")
#loc5887 = loc("custom-call.221")
#loc5905 = loc("custom-call.8172")
#loc5906 = loc("custom-call.1008")
#loc5907 = loc("custom-call.1003")
#loc5925 = loc("custom-call.8256")
module @SyncTensorsGraph.13641 attributes {mhlo.cross_program_prefetches = [], mhlo.input_output_alias = [], mhlo.is_dynamic = false, mhlo.use_auto_spmd_partitioning = false} {
  sdy.mesh @mesh = <["x"=1, "y"=1]> loc(#loc)
  func.func @main(%arg0: tensor<2048xbf16> {ttcore.argument_type = #ttcore.argument_type<parameter>, ttcore.shard_status = #ttcore.shard_status<unsharded>, ttir.name = "l__self___resampler_norm_out_bias"} loc("p0.2"), %arg1: tensor<2048xbf16> {ttcore.argument_type = #ttcore.argument_type<parameter>, ttcore.shard_status = #ttcore.shard_status<unsharded>, ttir.name = "l__self___resampler_norm_out_weight"} loc("p1.7"), %arg2: tensor<2048xbf16> {ttcore.argument_type = #ttcore.argument_type<parameter>, ttcore.shard_status = #ttcore.shard_status<unsharded>, ttir.name = "l__self___resampler_proj_out_bias"} loc("p2.15"), %arg3: tensor<2048x1280xbf16> {ttcore.argument_type = #ttcore.argument_type<parameter>, ttcore.shard_status = #ttcore.shard_status<unsharded>, ttir.name = "l__self___resampler_proj_out_weight"} loc("p3.19"), %arg4: tensor<1x16x1280xbf16> {ttcore.argument_type = #ttcore.argument_type<parameter>, ttcore.shard_status = #ttcore.shard_status<unsharded>, ttir.name = "l__self___resampler_latents"} loc("p4.32"), %arg5: tensor<1280x1280xbf16> {ttcore.argument_type = #ttcore.argument_type<parameter>, ttcore.shard_status = #ttcore.shard_status<unsharded>, ttir.name = "l__self___resampler_layers_0_attn_to_out_0_weight"} loc("p5.38"), %arg6: tensor<1280x1280xbf16> {ttcore.argument_type = #ttcore.argument_type<parameter>, ttcore.shard_status = #ttcore.shard_status<unsharded>, ttir.name = "l__self___resampler_layers_0_attn_to_v_weight"} loc("p6.43"), %arg7: tensor<1280xbf16> {ttcore.argument_type = #ttcore.argument_type<parameter>, ttcore.shard_status = #ttcore.shard_status<unsharded>, ttir.name = "l__self___resampler_layers_0_ln1_bias"} loc("p7.49"), %arg8: tensor<1280xbf16> {ttcore.argument_type = #ttcore.argument_type<parameter>, ttcore.shard_status = #ttcore.shard_status<unsharded>, ttir.name = "l__self___resampler_layers_0_ln1_weight"} loc("p8.54"), %arg9: tensor<1280xbf16> {ttcore.argument_type = #ttcore.argument_type<parameter>, ttcore.shard_status = #ttcore.shard_status<unsharded>, ttir.name = "l__self___resampler_layers_0_ln0_bias"} loc("p9.139"), %arg10: tensor<1280xbf16> {ttcore.argument_type = #ttcore.argument_type<parameter>, ttcore.shard_status = #ttcore.shard_status<unsharded>, ttir.name = "l__self___resampler_layers_0_ln0_weight"} loc("p10.144"), %arg11: tensor<1280xbf16> {ttcore.argument_type = #ttcore.argument_type<parameter>, ttcore.shard_status = #ttcore.shard_status<unsharded>, ttir.name = "l__self___resampler_proj_in_bias"} loc("p11.152"), %arg12: tensor<1280x1280xbf16> {ttcore.argument_type = #ttcore.argument_type<parameter>, ttcore.shard_status = #ttcore.shard_status<unsharded>, ttir.name = "l__self___resampler_proj_in_weight"} loc("p12.156"), %arg13: tensor<1280xbf16> {ttcore.argument_type = #ttcore.argument_type<parameter>, ttcore.shard_status = #ttcore.shard_status<unsharded>, ttir.name = "l__self___image_encoder_vision_model_encoder_layers_30_mlp_fc2_bias"} loc("p13.163"), %arg14: tensor<1280x5120xbf16> {ttcore.argument_type = #ttcore.argument_type<parameter>, ttcore.shard_status = #ttcore.shard_status<unsharded>, ttir.name = "l__self___image_encoder_vision_model_encoder_layers_30_mlp_fc2_weight"} loc("p14.167"), %arg15: tensor<5120xbf16> {ttcore.argument_type = #ttcore.argument_type<parameter>, ttcore.shard_status = #ttcore.shard_status<unsharded>, ttir.name = "l__self___image_encoder_vision_model_encoder_layers_30_mlp_fc1_bias"} loc("p15.173"), %arg16: tensor<5120x1280xbf16> {ttcore.argument_type = #ttcore.argument_type<parameter>, ttcore.shard_status = #ttcore.shard_status<unsharded>, ttir.name = "l__self___image_encoder_vision_model_encoder_layers_30_mlp_fc1_weight"} loc("p16.177"), %arg17: tensor<1280xbf16> {ttcore.argument_type = #ttcore.argument_type<parameter>, ttcore.shard_status = #ttcore.shard_status<unsharded>, ttir.name = "l__self___image_encoder_vision_model_encoder_layers_30_layer_norm2_bias"} loc("p17.183"), %arg18: tensor<1280xbf16> {ttcore.argument_type = #ttcore.argument_type<parameter>, ttcore.shard_status = #ttcore.shard_status<unsharded>, ttir.name = "l__self___image_encoder_vision_model_encoder_layers_30_layer_norm2_weight"} loc("p18.188"), %arg19: tensor<1280xbf16> {ttcore.argument_type = #ttcore.argument_type<parameter>, ttcore.shard_status = #ttcore.shard_status<unsharded>, ttir.name = "l__self___image_encoder_vision_model_encoder_layers_30_self_attn_out_proj_bias"} loc("p19.197"), %arg20: tensor<1280x1280xbf16> {ttcore.argument_type = #ttcore.argument_type<parameter>, ttcore.shard_status = #ttcore.shard_status<unsharded>, ttir.name = "l__self___image_encoder_vision_model_encoder_layers_30_self_attn_out_proj_weight"} loc("p20.201"), %arg21: tensor<1280xbf16> {ttcore.argument_type = #ttcore.argument_type<parameter>, ttcore.shard_status = #ttcore.shard_status<unsharded>, ttir.name = "l__self___image_encoder_vision_model_encoder_layers_30_self_attn_v_proj_bias"} loc("p21.207"), %arg22: tensor<1280x1280xbf16> {ttcore.argument_type = #ttcore.argument_type<parameter>, ttcore.shard_status = #ttcore.shard_status<unsharded>, ttir.name = "l__self___image_encoder_vision_model_encoder_layers_30_self_attn_v_proj_weight"} loc("p22.211"), %arg23: tensor<1280xbf16> {ttcore.argument_type = #ttcore.argument_type<parameter>, ttcore.shard_status = #ttcore.shard_status<unsharded>, ttir.name = "l__self___image_encoder_vision_model_encoder_layers_30_layer_norm1_bias"} loc("p23.217"), %arg24: tensor<1280xbf16> {ttcore.argument_type = #ttcore.argument_type<parameter>, ttcore.shard_status = #ttcore.shard_status<unsharded>, ttir.name = "l__self___image_encoder_vision_model_encoder_layers_30_layer_norm1_weight"} loc("p24.222"), %arg25: tensor<1280xbf16> {ttcore.argument_type = #ttcore.argument_type<parameter>, ttcore.shard_status = #ttcore.shard_status<unsharded>, ttir.name = "l__self___image_encoder_vision_model_encoder_layers_29_mlp_fc2_bias"} loc("p25.231"), %arg26: tensor<1280x5120xbf16> {ttcore.argument_type = #ttcore.argument_type<parameter>, ttcore.shard_status = #ttcore.shard_status<unsharded>, ttir.name = "l__self___image_encoder_vision_model_encoder_layers_29_mlp_fc2_weight"} loc("p26.235"), %arg27: tensor<5120xbf16> {ttcore.argument_type = #ttcore.argument_type<parameter>, ttcore.shard_status = #ttcore.shard_status<unsharded>, ttir.name = "l__self___image_encoder_vision_model_encoder_layers_29_mlp_fc1_bias"} loc("p27.241"), %arg28: tensor<5120x1280xbf16> {ttcore.argument_type = #ttcore.argument_type<parameter>, ttcore.shard_status = #ttcore.shard_status<unsharded>, ttir.name = "l__self___image_encoder_vision_model_encoder_layers_29_mlp_fc1_weight"} loc("p28.245"), %arg29: tensor<1280xbf16> {ttcore.argument_type = #ttcore.argument_type<parameter>, ttcore.shard_status = #ttcore.shard_status<unsharded>, ttir.name = "l__self___image_encoder_vision_model_encoder_layers_29_layer_norm2_bias"} loc("p29.251"), %arg30: tensor<1280xbf16> {ttcore.argument_type = #ttcore.argument_type<parameter>, ttcore.shard_status = #ttcore.shard_status<unsharded>, ttir.name = "l__self___image_encoder_vision_model_encoder_layers_29_layer_norm2_weight"} loc("p30.256"), %arg31: tensor<1280xbf16> {ttcore.argument_type = #ttcore.argument_type<parameter>, ttcore.shard_status = #ttcore.shard_status<unsharded>, ttir.name = "l__self___image_encoder_vision_model_encoder_layers_29_self_attn_out_proj_bias"} loc("p31.265"), %arg32: tensor<1280x1280xbf16> {ttcore.argument_type = #ttcore.argument_type<parameter>, ttcore.shard_status = #ttcore.shard_status<unsharded>, ttir.name = "l__self___image_encoder_vision_model_encoder_layers_29_self_attn_out_proj_weight"} loc("p32.269"), %arg33: tensor<1280xbf16> {ttcore.argument_type = #ttcore.argument_type<parameter>, ttcore.shard_status = #ttcore.shard_status<unsharded>, ttir.name = "l__self___image_encoder_vision_model_encoder_layers_29_self_attn_v_proj_bias"} loc("p33.275"), %arg34: tensor<1280x1280xbf16> {ttcore.argument_type = #ttcore.argument_type<parameter>, ttcore.shard_status = #ttcore.shard_status<unsharded>, ttir.name = "l__self___image_encoder_vision_model_encoder_layers_29_self_attn_v_proj_weight"} loc("p34.279"), %arg35: tensor<1280xbf16> {ttcore.argument_type = #ttcore.argument_type<parameter>, ttcore.shard_status = #ttcore.shard_status<unsharded>, ttir.name = "l__self___image_encoder_vision_model_encoder_layers_29_layer_norm1_bias"} loc("p35.285"), %arg36: tensor<1280xbf16> {ttcore.argument_type = #ttcore.argument_type<parameter>, ttcore.shard_status = #ttcore.shard_status<unsharded>, ttir.name = "l__self___image_encoder_vision_model_encoder_layers_29_layer_norm1_weight"} loc("p36.290"), %arg37: tensor<1280xbf16> {ttcore.argument_type = #ttcore.argument_type<parameter>, ttcore.shard_status = #ttcore.shard_status<unsharded>, ttir.name = "l__self___image_encoder_vision_model_encoder_layers_28_mlp_fc2_bias"} loc("p37.299"), %arg38: tensor<1280x5120xbf16> {ttcore.argument_type = #ttcore.argument_type<parameter>, ttcore.shard_status = #ttcore.shard_status<unsharded>, ttir.name = "l__self___image_encoder_vision_model_encoder_layers_28_mlp_fc2_weight"} loc("p38.303"), %arg39: tensor<5120xbf16> {ttcore.argument_type = #ttcore.argument_type<parameter>, ttcore.shard_status = #ttcore.shard_status<unsharded>, ttir.name = "l__self___image_encoder_vision_model_encoder_layers_28_mlp_fc1_bias"} loc("p39.309"), %arg40: tensor<5120x1280xbf16> {ttcore.argument_type = #ttcore.argument_type<parameter>, ttcore.shard_status = #ttcore.shard_status<unsharded>, ttir.name = "l__self___image_encoder_vision_model_encoder_layers_28_mlp_fc1_weight"} loc("p40.313"), %arg41: tensor<1280xbf16> {ttcore.argument_type = #ttcore.argument_type<parameter>, ttcore.shard_status = #ttcore.shard_status<unsharded>, ttir.name = "l__self___image_encoder_vision_model_encoder_layers_28_layer_norm2_bias"} loc("p41.319"), %arg42: tensor<1280xbf16> {ttcore.argument_type = #ttcore.argument_type<parameter>, ttcore.shard_status = #ttcore.shard_status<unsharded>, ttir.name = "l__self___image_encoder_vision_model_encoder_layers_28_layer_norm2_weight"} loc("p42.324"), %arg43: tensor<1280xbf16> {ttcore.argument_type = #ttcore.argument_type<parameter>, ttcore.shard_status = #ttcore.shard_status<unsharded>, ttir.name = "l__self___image_encoder_vision_model_encoder_layers_28_self_attn_out_proj_bias"} loc("p43.333"), %arg44: tensor<1280x1280xbf16> {ttcore.argument_type = #ttcore.argument_type<parameter>, ttcore.shard_status = #ttcore.shard_status<unsharded>, ttir.name = "l__self___image_encoder_vision_model_encoder_layers_28_self_attn_out_proj_weight"} loc("p44.337"), %arg45: tensor<1280xbf16> {ttcore.argument_type = #ttcore.argument_type<parameter>, ttcore.shard_status = #ttcore.shard_status<unsharded>, ttir.name = "l__self___image_encoder_vision_model_encoder_layers_28_self_attn_v_proj_bias"} loc("p45.343"), %arg46: tensor<1280x1280xbf16> {ttcore.argument_type = #ttcore.argument_type<parameter>, ttcore.shard_status = #ttcore.shard_status<unsharded>, ttir.name = "l__self___image_encoder_vision_model_encoder_layers_28_self_attn_v_proj_weight"} loc("p46.347"), %arg47: tensor<1280xbf16> {ttcore.argument_type = #ttcore.argument_type<parameter>, ttcore.shard_status = #ttcore.shard_status<unsharded>, ttir.name = "l__self___image_encoder_vision_model_encoder_layers_28_layer_norm1_bias"} loc("p47.353"), %arg48: tensor<1280xbf16> {ttcore.argument_type = #ttcore.argument_type<parameter>, ttcore.shard_status = #ttcore.shard_status<unsharded>, ttir.name = "l__self___image_encoder_vision_model_encoder_layers_28_layer_norm1_weight"} loc("p48.358"), %arg49: tensor<1280xbf16> {ttcore.argument_type = #ttcore.argument_type<parameter>, ttcore.shard_status = #ttcore.shard_status<unsharded>, ttir.name = "l__self___image_encoder_vision_model_encoder_layers_27_mlp_fc2_bias"} loc("p49.367"), %arg50: tensor<1280x5120xbf16> {ttcore.argument_type = #ttcore.argument_type<parameter>, ttcore.shard_status = #ttcore.shard_status<unsharded>, ttir.name = "l__self___image_encoder_vision_model_encoder_layers_27_mlp_fc2_weight"} loc("p50.371"), %arg51: tensor<5120xbf16> {ttcore.argument_type = #ttcore.argument_type<parameter>, ttcore.shard_status = #ttcore.shard_status<unsharded>, ttir.name = "l__self___image_encoder_vision_model_encoder_layers_27_mlp_fc1_bias"} loc("p51.377"), %arg52: tensor<5120x1280xbf16> {ttcore.argument_type = #ttcore.argument_type<parameter>, ttcore.shard_status = #ttcore.shard_status<unsharded>, ttir.name = "l__self___image_encoder_vision_model_encoder_layers_27_mlp_fc1_weight"} loc("p52.381"), %arg53: tensor<1280xbf16> {ttcore.argument_type = #ttcore.argument_type<parameter>, ttcore.shard_status = #ttcore.shard_status<unsharded>, ttir.name = "l__self___image_encoder_vision_model_encoder_layers_27_layer_norm2_bias"} loc("p53.387"), %arg54: tensor<1280xbf16> {ttcore.argument_type = #ttcore.argument_type<parameter>, ttcore.shard_status = #ttcore.shard_status<unsharded>, ttir.name = "l__self___image_encoder_vision_model_encoder_layers_27_layer_norm2_weight"} loc("p54.392"), %arg55: tensor<1280xbf16> {ttcore.argument_type = #ttcore.argument_type<parameter>, ttcore.shard_status = #ttcore.shard_status<unsharded>, ttir.name = "l__self___image_encoder_vision_model_encoder_layers_27_self_attn_out_proj_bias"} loc("p55.401"), %arg56: tensor<1280x1280xbf16> {ttcore.argument_type = #ttcore.argument_type<parameter>, ttcore.shard_status = #ttcore.shard_status<unsharded>, ttir.name = "l__self___image_encoder_vision_model_encoder_layers_27_self_attn_out_proj_weight"} loc("p56.405"), %arg57: tensor<1280xbf16> {ttcore.argument_type = #ttcore.argument_type<parameter>, ttcore.shard_status = #ttcore.shard_status<unsharded>, ttir.name = "l__self___image_encoder_vision_model_encoder_layers_27_self_attn_v_proj_bias"} loc("p57.411"), %arg58: tensor<1280x1280xbf16> {ttcore.argument_type = #ttcore.argument_type<parameter>, ttcore.shard_status = #ttcore.shard_status<unsharded>, ttir.name = "l__self___image_encoder_vision_model_encoder_layers_27_self_attn_v_proj_weight"} loc("p58.415"), %arg59: tensor<1280xbf16> {ttcore.argument_type = #ttcore.argument_type<parameter>, ttcore.shard_status = #ttcore.shard_status<unsharded>, ttir.name = "l__self___image_encoder_vision_model_encoder_layers_27_layer_norm1_bias"} loc("p59.421"), %arg60: tensor<1280xbf16> {ttcore.argument_type = #ttcore.argument_type<parameter>, ttcore.shard_status = #ttcore.shard_status<unsharded>, ttir.name = "l__self___image_encoder_vision_model_encoder_layers_27_layer_norm1_weight"} loc("p60.426"), %arg61: tensor<1280xbf16> {ttcore.argument_type = #ttcore.argument_type<parameter>, ttcore.shard_status = #ttcore.shard_status<unsharded>, ttir.name = "l__self___image_encoder_vision_model_encoder_layers_26_mlp_fc2_bias"} loc("p61.435"), %arg62: tensor<1280x5120xbf16> {ttcore.argument_type = #ttcore.argument_type<parameter>, ttcore.shard_status = #ttcore.shard_status<unsharded>, ttir.name = "l__self___image_encoder_vision_model_encoder_layers_26_mlp_fc2_weight"} loc("p62.439"), %arg63: tensor<5120xbf16> {ttcore.argument_type = #ttcore.argument_type<parameter>, ttcore.shard_status = #ttcore.shard_status<unsharded>, ttir.name = "l__self___image_encoder_vision_model_encoder_layers_26_mlp_fc1_bias"} loc("p63.445"), %arg64: tensor<5120x1280xbf16> {ttcore.argument_type = #ttcore.argument_type<parameter>, ttcore.shard_status = #ttcore.shard_status<unsharded>, ttir.name = "l__self___image_encoder_vision_model_encoder_layers_26_mlp_fc1_weight"} loc("p64.449"), %arg65: tensor<1280xbf16> {ttcore.argument_type = #ttcore.argument_type<parameter>, ttcore.shard_status = #ttcore.shard_status<unsharded>, ttir.name = "l__self___image_encoder_vision_model_encoder_layers_26_layer_norm2_bias"} loc("p65.455"), %arg66: tensor<1280xbf16> {ttcore.argument_type = #ttcore.argument_type<parameter>, ttcore.shard_status = #ttcore.shard_status<unsharded>, ttir.name = "l__self___image_encoder_vision_model_encoder_layers_26_layer_norm2_weight"} loc("p66.460"), %arg67: tensor<1280xbf16> {ttcore.argument_type = #ttcore.argument_type<parameter>, ttcore.shard_status = #ttcore.shard_status<unsharded>, ttir.name = "l__self___image_encoder_vision_model_encoder_layers_26_self_attn_out_proj_bias"} loc("p67.469"), %arg68: tensor<1280x1280xbf16> {ttcore.argument_type = #ttcore.argument_type<parameter>, ttcore.shard_status = #ttcore.shard_status<unsharded>, ttir.name = "l__self___image_encoder_vision_model_encoder_layers_26_self_attn_out_proj_weight"} loc("p68.473"), %arg69: tensor<1280xbf16> {ttcore.argument_type = #ttcore.argument_type<parameter>, ttcore.shard_status = #ttcore.shard_status<unsharded>, ttir.name = "l__self___image_encoder_vision_model_encoder_layers_26_self_attn_v_proj_bias"} loc("p69.479"), %arg70: tensor<1280x1280xbf16> {ttcore.argument_type = #ttcore.argument_type<parameter>, ttcore.shard_status = #ttcore.shard_status<unsharded>, ttir.name = "l__self___image_encoder_vision_model_encoder_layers_26_self_attn_v_proj_weight"} loc("p70.483"), %arg71: tensor<1280xbf16> {ttcore.argument_type = #ttcore.argument_type<parameter>, ttcore.shard_status = #ttcore.shard_status<unsharded>, ttir.name = "l__self___image_encoder_vision_model_encoder_layers_26_layer_norm1_bias"} loc("p71.489"), %arg72: tensor<1280xbf16> {ttcore.argument_type = #ttcore.argument_type<parameter>, ttcore.shard_status = #ttcore.shard_status<unsharded>, ttir.name = "l__self___image_encoder_vision_model_encoder_layers_26_layer_norm1_weight"} loc("p72.494"), %arg73: tensor<1280xbf16> {ttcore.argument_type = #ttcore.argument_type<parameter>, ttcore.shard_status = #ttcore.shard_status<unsharded>, ttir.name = "l__self___image_encoder_vision_model_encoder_layers_25_mlp_fc2_bias"} loc("p73.503"), %arg74: tensor<1280x5120xbf16> {ttcore.argument_type = #ttcore.argument_type<parameter>, ttcore.shard_status = #ttcore.shard_status<unsharded>, ttir.name = "l__self___image_encoder_vision_model_encoder_layers_25_mlp_fc2_weight"} loc("p74.507"), %arg75: tensor<5120xbf16> {ttcore.argument_type = #ttcore.argument_type<parameter>, ttcore.shard_status = #ttcore.shard_status<unsharded>, ttir.name = "l__self___image_encoder_vision_model_encoder_layers_25_mlp_fc1_bias"} loc("p75.513"), %arg76: tensor<5120x1280xbf16> {ttcore.argument_type = #ttcore.argument_type<parameter>, ttcore.shard_status = #ttcore.shard_status<unsharded>, ttir.name = "l__self___image_encoder_vision_model_encoder_layers_25_mlp_fc1_weight"} loc("p76.517"), %arg77: tensor<1280xbf16> {ttcore.argument_type = #ttcore.argument_type<parameter>, ttcore.shard_status = #ttcore.shard_status<unsharded>, ttir.name = "l__self___image_encoder_vision_model_encoder_layers_25_layer_norm2_bias"} loc("p77.523"), %arg78: tensor<1280xbf16> {ttcore.argument_type = #ttcore.argument_type<parameter>, ttcore.shard_status = #ttcore.shard_status<unsharded>, ttir.name = "l__self___image_encoder_vision_model_encoder_layers_25_layer_norm2_weight"} loc("p78.528"), %arg79: tensor<1280xbf16> {ttcore.argument_type = #ttcore.argument_type<parameter>, ttcore.shard_status = #ttcore.shard_status<unsharded>, ttir.name = "l__self___image_encoder_vision_model_encoder_layers_25_self_attn_out_proj_bias"} loc("p79.537"), %arg80: tensor<1280x1280xbf16> {ttcore.argument_type = #ttcore.argument_type<parameter>, ttcore.shard_status = #ttcore.shard_status<unsharded>, ttir.name = "l__self___image_encoder_vision_model_encoder_layers_25_self_attn_out_proj_weight"} loc("p80.541"), %arg81: tensor<1280xbf16> {ttcore.argument_type = #ttcore.argument_type<parameter>, ttcore.shard_status = #ttcore.shard_status<unsharded>, ttir.name = "l__self___image_encoder_vision_model_encoder_layers_25_self_attn_v_proj_bias"} loc("p81.547"), %arg82: tensor<1280x1280xbf16> {ttcore.argument_type = #ttcore.argument_type<parameter>, ttcore.shard_status = #ttcore.shard_status<unsharded>, ttir.name = "l__self___image_encoder_vision_model_encoder_layers_25_self_attn_v_proj_weight"} loc("p82.551"), %arg83: tensor<1280xbf16> {ttcore.argument_type = #ttcore.argument_type<parameter>, ttcore.shard_status = #ttcore.shard_status<unsharded>, ttir.name = "l__self___image_encoder_vision_model_encoder_layers_25_layer_norm1_bias"} loc("p83.557"), %arg84: tensor<1280xbf16> {ttcore.argument_type = #ttcore.argument_type<parameter>, ttcore.shard_status = #ttcore.shard_status<unsharded>, ttir.name = "l__self___image_encoder_vision_model_encoder_layers_25_layer_norm1_weight"} loc("p84.562"), %arg85: tensor<1280xbf16> {ttcore.argument_type = #ttcore.argument_type<parameter>, ttcore.shard_status = #ttcore.shard_status<unsharded>, ttir.name = "l__self___image_encoder_vision_model_encoder_layers_24_mlp_fc2_bias"} loc("p85.571"), %arg86: tensor<1280x5120xbf16> {ttcore.argument_type = #ttcore.argument_type<parameter>, ttcore.shard_status = #ttcore.shard_status<unsharded>, ttir.name = "l__self___image_encoder_vision_model_encoder_layers_24_mlp_fc2_weight"} loc("p86.575"), %arg87: tensor<5120xbf16> {ttcore.argument_type = #ttcore.argument_type<parameter>, ttcore.shard_status = #ttcore.shard_status<unsharded>, ttir.name = "l__self___image_encoder_vision_model_encoder_layers_24_mlp_fc1_bias"} loc("p87.581"), %arg88: tensor<5120x1280xbf16> {ttcore.argument_type = #ttcore.argument_type<parameter>, ttcore.shard_status = #ttcore.shard_status<unsharded>, ttir.name = "l__self___image_encoder_vision_model_encoder_layers_24_mlp_fc1_weight"} loc("p88.585"), %arg89: tensor<1280xbf16> {ttcore.argument_type = #ttcore.argument_type<parameter>, ttcore.shard_status = #ttcore.shard_status<unsharded>, ttir.name = "l__self___image_encoder_vision_model_encoder_layers_24_layer_norm2_bias"} loc("p89.591"), %arg90: tensor<1280xbf16> {ttcore.argument_type = #ttcore.argument_type<parameter>, ttcore.shard_status = #ttcore.shard_status<unsharded>, ttir.name = "l__self___image_encoder_vision_model_encoder_layers_24_layer_norm2_weight"} loc("p90.596"), %arg91: tensor<1280xbf16> {ttcore.argument_type = #ttcore.argument_type<parameter>, ttcore.shard_status = #ttcore.shard_status<unsharded>, ttir.name = "l__self___image_encoder_vision_model_encoder_layers_24_self_attn_out_proj_bias"} loc("p91.605"), %arg92: tensor<1280x1280xbf16> {ttcore.argument_type = #ttcore.argument_type<parameter>, ttcore.shard_status = #ttcore.shard_status<unsharded>, ttir.name = "l__self___image_encoder_vision_model_encoder_layers_24_self_attn_out_proj_weight"} loc("p92.609"), %arg93: tensor<1280xbf16> {ttcore.argument_type = #ttcore.argument_type<parameter>, ttcore.shard_status = #ttcore.shard_status<unsharded>, ttir.name = "l__self___image_encoder_vision_model_encoder_layers_24_self_attn_v_proj_bias"} loc("p93.615"), %arg94: tensor<1280x1280xbf16> {ttcore.argument_type = #ttcore.argument_type<parameter>, ttcore.shard_status = #ttcore.shard_status<unsharded>, ttir.name = "l__self___image_encoder_vision_model_encoder_layers_24_self_attn_v_proj_weight"} loc("p94.619"), %arg95: tensor<1280xbf16> {ttcore.argument_type = #ttcore.argument_type<parameter>, ttcore.shard_status = #ttcore.shard_status<unsharded>, ttir.name = "l__self___image_encoder_vision_model_encoder_layers_24_layer_norm1_bias"} loc("p95.625"), %arg96: tensor<1280xbf16> {ttcore.argument_type = #ttcore.argument_type<parameter>, ttcore.shard_status = #ttcore.shard_status<unsharded>, ttir.name = "l__self___image_encoder_vision_model_encoder_layers_24_layer_norm1_weight"} loc("p96.630"), %arg97: tensor<1280xbf16> {ttcore.argument_type = #ttcore.argument_type<parameter>, ttcore.shard_status = #ttcore.shard_status<unsharded>, ttir.name = "l__self___image_encoder_vision_model_encoder_layers_23_mlp_fc2_bias"} loc("p97.639"), %arg98: tensor<1280x5120xbf16> {ttcore.argument_type = #ttcore.argument_type<parameter>, ttcore.shard_status = #ttcore.shard_status<unsharded>, ttir.name = "l__self___image_encoder_vision_model_encoder_layers_23_mlp_fc2_weight"} loc("p98.643"), %arg99: tensor<5120xbf16> {ttcore.argument_type = #ttcore.argument_type<parameter>, ttcore.shard_status = #ttcore.shard_status<unsharded>, ttir.name = "l__self___image_encoder_vision_model_encoder_layers_23_mlp_fc1_bias"} loc("p99.649"), %arg100: tensor<5120x1280xbf16> {ttcore.argument_type = #ttcore.argument_type<parameter>, ttcore.shard_status = #ttcore.shard_status<unsharded>, ttir.name = "l__self___image_encoder_vision_model_encoder_layers_23_mlp_fc1_weight"} loc("p100.653"), %arg101: tensor<1280xbf16> {ttcore.argument_type = #ttcore.argument_type<parameter>, ttcore.shard_status = #ttcore.shard_status<unsharded>, ttir.name = "l__self___image_encoder_vision_model_encoder_layers_23_layer_norm2_bias"} loc("p101.659"), %arg102: tensor<1280xbf16> {ttcore.argument_type = #ttcore.argument_type<parameter>, ttcore.shard_status = #ttcore.shard_status<unsharded>, ttir.name = "l__self___image_encoder_vision_model_encoder_layers_23_layer_norm2_weight"} loc("p102.664"), %arg103: tensor<1280xbf16> {ttcore.argument_type = #ttcore.argument_type<parameter>, ttcore.shard_status = #ttcore.shard_status<unsharded>, ttir.name = "l__self___image_encoder_vision_model_encoder_layers_23_self_attn_out_proj_bias"} loc("p103.673"), %arg104: tensor<1280x1280xbf16> {ttcore.argument_type = #ttcore.argument_type<parameter>, ttcore.shard_status = #ttcore.shard_status<unsharded>, ttir.name = "l__self___image_encoder_vision_model_encoder_layers_23_self_attn_out_proj_weight"} loc("p104.677"), %arg105: tensor<1280xbf16> {ttcore.argument_type = #ttcore.argument_type<parameter>, ttcore.shard_status = #ttcore.shard_status<unsharded>, ttir.name = "l__self___image_encoder_vision_model_encoder_layers_23_self_attn_v_proj_bias"} loc("p105.683"), %arg106: tensor<1280x1280xbf16> {ttcore.argument_type = #ttcore.argument_type<parameter>, ttcore.shard_status = #ttcore.shard_status<unsharded>, ttir.name = "l__self___image_encoder_vision_model_encoder_layers_23_self_attn_v_proj_weight"} loc("p106.687"), %arg107: tensor<1280xbf16> {ttcore.argument_type = #ttcore.argument_type<parameter>, ttcore.shard_status = #ttcore.shard_status<unsharded>, ttir.name = "l__self___image_encoder_vision_model_encoder_layers_23_layer_norm1_bias"} loc("p107.693"), %arg108: tensor<1280xbf16> {ttcore.argument_type = #ttcore.argument_type<parameter>, ttcore.shard_status = #ttcore.shard_status<unsharded>, ttir.name = "l__self___image_encoder_vision_model_encoder_layers_23_layer_norm1_weight"} loc("p108.698"), %arg109: tensor<1280xbf16> {ttcore.argument_type = #ttcore.argument_type<parameter>, ttcore.shard_status = #ttcore.shard_status<unsharded>, ttir.name = "l__self___image_encoder_vision_model_encoder_layers_22_mlp_fc2_bias"} loc("p109.707"), %arg110: tensor<1280x5120xbf16> {ttcore.argument_type = #ttcore.argument_type<parameter>, ttcore.shard_status = #ttcore.shard_status<unsharded>, ttir.name = "l__self___image_encoder_vision_model_encoder_layers_22_mlp_fc2_weight"} loc("p110.711"), %arg111: tensor<5120xbf16> {ttcore.argument_type = #ttcore.argument_type<parameter>, ttcore.shard_status = #ttcore.shard_status<unsharded>, ttir.name = "l__self___image_encoder_vision_model_encoder_layers_22_mlp_fc1_bias"} loc("p111.717"), %arg112: tensor<5120x1280xbf16> {ttcore.argument_type = #ttcore.argument_type<parameter>, ttcore.shard_status = #ttcore.shard_status<unsharded>, ttir.name = "l__self___image_encoder_vision_model_encoder_layers_22_mlp_fc1_weight"} loc("p112.721"), %arg113: tensor<1280xbf16> {ttcore.argument_type = #ttcore.argument_type<parameter>, ttcore.shard_status = #ttcore.shard_status<unsharded>, ttir.name = "l__self___image_encoder_vision_model_encoder_layers_22_layer_norm2_bias"} loc("p113.727"), %arg114: tensor<1280xbf16> {ttcore.argument_type = #ttcore.argument_type<parameter>, ttcore.shard_status = #ttcore.shard_status<unsharded>, ttir.name = "l__self___image_encoder_vision_model_encoder_layers_22_layer_norm2_weight"} loc("p114.732"), %arg115: tensor<1280xbf16> {ttcore.argument_type = #ttcore.argument_type<parameter>, ttcore.shard_status = #ttcore.shard_status<unsharded>, ttir.name = "l__self___image_encoder_vision_model_encoder_layers_22_self_attn_out_proj_bias"} loc("p115.741"), %arg116: tensor<1280x1280xbf16> {ttcore.argument_type = #ttcore.argument_type<parameter>, ttcore.shard_status = #ttcore.shard_status<unsharded>, ttir.name = "l__self___image_encoder_vision_model_encoder_layers_22_self_attn_out_proj_weight"} loc("p116.745"), %arg117: tensor<1280xbf16> {ttcore.argument_type = #ttcore.argument_type<parameter>, ttcore.shard_status = #ttcore.shard_status<unsharded>, ttir.name = "l__self___image_encoder_vision_model_encoder_layers_22_self_attn_v_proj_bias"} loc("p117.751"), %arg118: tensor<1280x1280xbf16> {ttcore.argument_type = #ttcore.argument_type<parameter>, ttcore.shard_status = #ttcore.shard_status<unsharded>, ttir.name = "l__self___image_encoder_vision_model_encoder_layers_22_self_attn_v_proj_weight"} loc("p118.755"), %arg119: tensor<1280xbf16> {ttcore.argument_type = #ttcore.argument_type<parameter>, ttcore.shard_status = #ttcore.shard_status<unsharded>, ttir.name = "l__self___image_encoder_vision_model_encoder_layers_22_layer_norm1_bias"} loc("p119.761"), %arg120: tensor<1280xbf16> {ttcore.argument_type = #ttcore.argument_type<parameter>, ttcore.shard_status = #ttcore.shard_status<unsharded>, ttir.name = "l__self___image_encoder_vision_model_encoder_layers_22_layer_norm1_weight"} loc("p120.766"), %arg121: tensor<1280xbf16> {ttcore.argument_type = #ttcore.argument_type<parameter>, ttcore.shard_status = #ttcore.shard_status<unsharded>, ttir.name = "l__self___image_encoder_vision_model_encoder_layers_21_mlp_fc2_bias"} loc("p121.775"), %arg122: tensor<1280x5120xbf16> {ttcore.argument_type = #ttcore.argument_type<parameter>, ttcore.shard_status = #ttcore.shard_status<unsharded>, ttir.name = "l__self___image_encoder_vision_model_encoder_layers_21_mlp_fc2_weight"} loc("p122.779"), %arg123: tensor<5120xbf16> {ttcore.argument_type = #ttcore.argument_type<parameter>, ttcore.shard_status = #ttcore.shard_status<unsharded>, ttir.name = "l__self___image_encoder_vision_model_encoder_layers_21_mlp_fc1_bias"} loc("p123.785"), %arg124: tensor<5120x1280xbf16> {ttcore.argument_type = #ttcore.argument_type<parameter>, ttcore.shard_status = #ttcore.shard_status<unsharded>, ttir.name = "l__self___image_encoder_vision_model_encoder_layers_21_mlp_fc1_weight"} loc("p124.789"), %arg125: tensor<1280xbf16> {ttcore.argument_type = #ttcore.argument_type<parameter>, ttcore.shard_status = #ttcore.shard_status<unsharded>, ttir.name = "l__self___image_encoder_vision_model_encoder_layers_21_layer_norm2_bias"} loc("p125.795"), %arg126: tensor<1280xbf16> {ttcore.argument_type = #ttcore.argument_type<parameter>, ttcore.shard_status = #ttcore.shard_status<unsharded>, ttir.name = "l__self___image_encoder_vision_model_encoder_layers_21_layer_norm2_weight"} loc("p126.800"), %arg127: tensor<1280xbf16> {ttcore.argument_type = #ttcore.argument_type<parameter>, ttcore.shard_status = #ttcore.shard_status<unsharded>, ttir.name = "l__self___image_encoder_vision_model_encoder_layers_21_self_attn_out_proj_bias"} loc("p127.809"), %arg128: tensor<1280x1280xbf16> {ttcore.argument_type = #ttcore.argument_type<parameter>, ttcore.shard_status = #ttcore.shard_status<unsharded>, ttir.name = "l__self___image_encoder_vision_model_encoder_layers_21_self_attn_out_proj_weight"} loc("p128.813"), %arg129: tensor<1280xbf16> {ttcore.argument_type = #ttcore.argument_type<parameter>, ttcore.shard_status = #ttcore.shard_status<unsharded>, ttir.name = "l__self___image_encoder_vision_model_encoder_layers_21_self_attn_v_proj_bias"} loc("p129.819"), %arg130: tensor<1280x1280xbf16> {ttcore.argument_type = #ttcore.argument_type<parameter>, ttcore.shard_status = #ttcore.shard_status<unsharded>, ttir.name = "l__self___image_encoder_vision_model_encoder_layers_21_self_attn_v_proj_weight"} loc("p130.823"), %arg131: tensor<1280xbf16> {ttcore.argument_type = #ttcore.argument_type<parameter>, ttcore.shard_status = #ttcore.shard_status<unsharded>, ttir.name = "l__self___image_encoder_vision_model_encoder_layers_21_layer_norm1_bias"} loc("p131.829"), %arg132: tensor<1280xbf16> {ttcore.argument_type = #ttcore.argument_type<parameter>, ttcore.shard_status = #ttcore.shard_status<unsharded>, ttir.name = "l__self___image_encoder_vision_model_encoder_layers_21_layer_norm1_weight"} loc("p132.834"), %arg133: tensor<1280xbf16> {ttcore.argument_type = #ttcore.argument_type<parameter>, ttcore.shard_status = #ttcore.shard_status<unsharded>, ttir.name = "l__self___image_encoder_vision_model_encoder_layers_20_mlp_fc2_bias"} loc("p133.843"), %arg134: tensor<1280x5120xbf16> {ttcore.argument_type = #ttcore.argument_type<parameter>, ttcore.shard_status = #ttcore.shard_status<unsharded>, ttir.name = "l__self___image_encoder_vision_model_encoder_layers_20_mlp_fc2_weight"} loc("p134.847"), %arg135: tensor<5120xbf16> {ttcore.argument_type = #ttcore.argument_type<parameter>, ttcore.shard_status = #ttcore.shard_status<unsharded>, ttir.name = "l__self___image_encoder_vision_model_encoder_layers_20_mlp_fc1_bias"} loc("p135.853"), %arg136: tensor<5120x1280xbf16> {ttcore.argument_type = #ttcore.argument_type<parameter>, ttcore.shard_status = #ttcore.shard_status<unsharded>, ttir.name = "l__self___image_encoder_vision_model_encoder_layers_20_mlp_fc1_weight"} loc("p136.857"), %arg137: tensor<1280xbf16> {ttcore.argument_type = #ttcore.argument_type<parameter>, ttcore.shard_status = #ttcore.shard_status<unsharded>, ttir.name = "l__self___image_encoder_vision_model_encoder_layers_20_layer_norm2_bias"} loc("p137.863"), %arg138: tensor<1280xbf16> {ttcore.argument_type = #ttcore.argument_type<parameter>, ttcore.shard_status = #ttcore.shard_status<unsharded>, ttir.name = "l__self___image_encoder_vision_model_encoder_layers_20_layer_norm2_weight"} loc("p138.868"), %arg139: tensor<1280xbf16> {ttcore.argument_type = #ttcore.argument_type<parameter>, ttcore.shard_status = #ttcore.shard_status<unsharded>, ttir.name = "l__self___image_encoder_vision_model_encoder_layers_20_self_attn_out_proj_bias"} loc("p139.877"), %arg140: tensor<1280x1280xbf16> {ttcore.argument_type = #ttcore.argument_type<parameter>, ttcore.shard_status = #ttcore.shard_status<unsharded>, ttir.name = "l__self___image_encoder_vision_model_encoder_layers_20_self_attn_out_proj_weight"} loc("p140.881"), %arg141: tensor<1280xbf16> {ttcore.argument_type = #ttcore.argument_type<parameter>, ttcore.shard_status = #ttcore.shard_status<unsharded>, ttir.name = "l__self___image_encoder_vision_model_encoder_layers_20_self_attn_v_proj_bias"} loc("p141.887"), %arg142: tensor<1280x1280xbf16> {ttcore.argument_type = #ttcore.argument_type<parameter>, ttcore.shard_status = #ttcore.shard_status<unsharded>, ttir.name = "l__self___image_encoder_vision_model_encoder_layers_20_self_attn_v_proj_weight"} loc("p142.891"), %arg143: tensor<1280xbf16> {ttcore.argument_type = #ttcore.argument_type<parameter>, ttcore.shard_status = #ttcore.shard_status<unsharded>, ttir.name = "l__self___image_encoder_vision_model_encoder_layers_20_layer_norm1_bias"} loc("p143.897"), %arg144: tensor<1280xbf16> {ttcore.argument_type = #ttcore.argument_type<parameter>, ttcore.shard_status = #ttcore.shard_status<unsharded>, ttir.name = "l__self___image_encoder_vision_model_encoder_layers_20_layer_norm1_weight"} loc("p144.902"), %arg145: tensor<1280xbf16> {ttcore.argument_type = #ttcore.argument_type<parameter>, ttcore.shard_status = #ttcore.shard_status<unsharded>, ttir.name = "l__self___image_encoder_vision_model_encoder_layers_19_mlp_fc2_bias"} loc("p145.911"), %arg146: tensor<1280x5120xbf16> {ttcore.argument_type = #ttcore.argument_type<parameter>, ttcore.shard_status = #ttcore.shard_status<unsharded>, ttir.name = "l__self___image_encoder_vision_model_encoder_layers_19_mlp_fc2_weight"} loc("p146.915"), %arg147: tensor<5120xbf16> {ttcore.argument_type = #ttcore.argument_type<parameter>, ttcore.shard_status = #ttcore.shard_status<unsharded>, ttir.name = "l__self___image_encoder_vision_model_encoder_layers_19_mlp_fc1_bias"} loc("p147.921"), %arg148: tensor<5120x1280xbf16> {ttcore.argument_type = #ttcore.argument_type<parameter>, ttcore.shard_status = #ttcore.shard_status<unsharded>, ttir.name = "l__self___image_encoder_vision_model_encoder_layers_19_mlp_fc1_weight"} loc("p148.925"), %arg149: tensor<1280xbf16> {ttcore.argument_type = #ttcore.argument_type<parameter>, ttcore.shard_status = #ttcore.shard_status<unsharded>, ttir.name = "l__self___image_encoder_vision_model_encoder_layers_19_layer_norm2_bias"} loc("p149.931"), %arg150: tensor<1280xbf16> {ttcore.argument_type = #ttcore.argument_type<parameter>, ttcore.shard_status = #ttcore.shard_status<unsharded>, ttir.name = "l__self___image_encoder_vision_model_encoder_layers_19_layer_norm2_weight"} loc("p150.936"), %arg151: tensor<1280xbf16> {ttcore.argument_type = #ttcore.argument_type<parameter>, ttcore.shard_status = #ttcore.shard_status<unsharded>, ttir.name = "l__self___image_encoder_vision_model_encoder_layers_19_self_attn_out_proj_bias"} loc("p151.945"), %arg152: tensor<1280x1280xbf16> {ttcore.argument_type = #ttcore.argument_type<parameter>, ttcore.shard_status = #ttcore.shard_status<unsharded>, ttir.name = "l__self___image_encoder_vision_model_encoder_layers_19_self_attn_out_proj_weight"} loc("p152.949"), %arg153: tensor<1280xbf16> {ttcore.argument_type = #ttcore.argument_type<parameter>, ttcore.shard_status = #ttcore.shard_status<unsharded>, ttir.name = "l__self___image_encoder_vision_model_encoder_layers_19_self_attn_v_proj_bias"} loc("p153.955"), %arg154: tensor<1280x1280xbf16> {ttcore.argument_type = #ttcore.argument_type<parameter>, ttcore.shard_status = #ttcore.shard_status<unsharded>, ttir.name = "l__self___image_encoder_vision_model_encoder_layers_19_self_attn_v_proj_weight"} loc("p154.959"), %arg155: tensor<1280xbf16> {ttcore.argument_type = #ttcore.argument_type<parameter>, ttcore.shard_status = #ttcore.shard_status<unsharded>, ttir.name = "l__self___image_encoder_vision_model_encoder_layers_19_layer_norm1_bias"} loc("p155.965"), %arg156: tensor<1280xbf16> {ttcore.argument_type = #ttcore.argument_type<parameter>, ttcore.shard_status = #ttcore.shard_status<unsharded>, ttir.name = "l__self___image_encoder_vision_model_encoder_layers_19_layer_norm1_weight"} loc("p156.970"), %arg157: tensor<1280xbf16> {ttcore.argument_type = #ttcore.argument_type<parameter>, ttcore.shard_status = #ttcore.shard_status<unsharded>, ttir.name = "l__self___image_encoder_vision_model_encoder_layers_18_mlp_fc2_bias"} loc("p157.979"), %arg158: tensor<1280x5120xbf16> {ttcore.argument_type = #ttcore.argument_type<parameter>, ttcore.shard_status = #ttcore.shard_status<unsharded>, ttir.name = "l__self___image_encoder_vision_model_encoder_layers_18_mlp_fc2_weight"} loc("p158.983"), %arg159: tensor<5120xbf16> {ttcore.argument_type = #ttcore.argument_type<parameter>, ttcore.shard_status = #ttcore.shard_status<unsharded>, ttir.name = "l__self___image_encoder_vision_model_encoder_layers_18_mlp_fc1_bias"} loc("p159.989"), %arg160: tensor<5120x1280xbf16> {ttcore.argument_type = #ttcore.argument_type<parameter>, ttcore.shard_status = #ttcore.shard_status<unsharded>, ttir.name = "l__self___image_encoder_vision_model_encoder_layers_18_mlp_fc1_weight"} loc("p160.993"), %arg161: tensor<1280xbf16> {ttcore.argument_type = #ttcore.argument_type<parameter>, ttcore.shard_status = #ttcore.shard_status<unsharded>, ttir.name = "l__self___image_encoder_vision_model_encoder_layers_18_layer_norm2_bias"} loc("p161.999"), %arg162: tensor<1280xbf16> {ttcore.argument_type = #ttcore.argument_type<parameter>, ttcore.shard_status = #ttcore.shard_status<unsharded>, ttir.name = "l__self___image_encoder_vision_model_encoder_layers_18_layer_norm2_weight"} loc("p162.1004"), %arg163: tensor<1280xbf16> {ttcore.argument_type = #ttcore.argument_type<parameter>, ttcore.shard_status = #ttcore.shard_status<unsharded>, ttir.name = "l__self___image_encoder_vision_model_encoder_layers_18_self_attn_out_proj_bias"} loc("p163.1013"), %arg164: tensor<1280x1280xbf16> {ttcore.argument_type = #ttcore.argument_type<parameter>, ttcore.shard_status = #ttcore.shard_status<unsharded>, ttir.name = "l__self___image_encoder_vision_model_encoder_layers_18_self_attn_out_proj_weight"} loc("p164.1017"), %arg165: tensor<1280xbf16> {ttcore.argument_type = #ttcore.argument_type<parameter>, ttcore.shard_status = #ttcore.shard_status<unsharded>, ttir.name = "l__self___image_encoder_vision_model_encoder_layers_18_self_attn_v_proj_bias"} loc("p165.1023"), %arg166: tensor<1280x1280xbf16> {ttcore.argument_type = #ttcore.argument_type<parameter>, ttcore.shard_status = #ttcore.shard_status<unsharded>, ttir.name = "l__self___image_encoder_vision_model_encoder_layers_18_self_attn_v_proj_weight"} loc("p166.1027"), %arg167: tensor<1280xbf16> {ttcore.argument_type = #ttcore.argument_type<parameter>, ttcore.shard_status = #ttcore.shard_status<unsharded>, ttir.name = "l__self___image_encoder_vision_model_encoder_layers_18_layer_norm1_bias"} loc("p167.1033"), %arg168: tensor<1280xbf16> {ttcore.argument_type = #ttcore.argument_type<parameter>, ttcore.shard_status = #ttcore.shard_status<unsharded>, ttir.name = "l__self___image_encoder_vision_model_encoder_layers_18_layer_norm1_weight"} loc("p168.1038"), %arg169: tensor<1280xbf16> {ttcore.argument_type = #ttcore.argument_type<parameter>, ttcore.shard_status = #ttcore.shard_status<unsharded>, ttir.name = "l__self___image_encoder_vision_model_encoder_layers_17_mlp_fc2_bias"} loc("p169.1047"), %arg170: tensor<1280x5120xbf16> {ttcore.argument_type = #ttcore.argument_type<parameter>, ttcore.shard_status = #ttcore.shard_status<unsharded>, ttir.name = "l__self___image_encoder_vision_model_encoder_layers_17_mlp_fc2_weight"} loc("p170.1051"), %arg171: tensor<5120xbf16> {ttcore.argument_type = #ttcore.argument_type<parameter>, ttcore.shard_status = #ttcore.shard_status<unsharded>, ttir.name = "l__self___image_encoder_vision_model_encoder_layers_17_mlp_fc1_bias"} loc("p171.1057"), %arg172: tensor<5120x1280xbf16> {ttcore.argument_type = #ttcore.argument_type<parameter>, ttcore.shard_status = #ttcore.shard_status<unsharded>, ttir.name = "l__self___image_encoder_vision_model_encoder_layers_17_mlp_fc1_weight"} loc("p172.1061"), %arg173: tensor<1280xbf16> {ttcore.argument_type = #ttcore.argument_type<parameter>, ttcore.shard_status = #ttcore.shard_status<unsharded>, ttir.name = "l__self___image_encoder_vision_model_encoder_layers_17_layer_norm2_bias"} loc("p173.1067"), %arg174: tensor<1280xbf16> {ttcore.argument_type = #ttcore.argument_type<parameter>, ttcore.shard_status = #ttcore.shard_status<unsharded>, ttir.name = "l__self___image_encoder_vision_model_encoder_layers_17_layer_norm2_weight"} loc("p174.1072"), %arg175: tensor<1280xbf16> {ttcore.argument_type = #ttcore.argument_type<parameter>, ttcore.shard_status = #ttcore.shard_status<unsharded>, ttir.name = "l__self___image_encoder_vision_model_encoder_layers_17_self_attn_out_proj_bias"} loc("p175.1081"), %arg176: tensor<1280x1280xbf16> {ttcore.argument_type = #ttcore.argument_type<parameter>, ttcore.shard_status = #ttcore.shard_status<unsharded>, ttir.name = "l__self___image_encoder_vision_model_encoder_layers_17_self_attn_out_proj_weight"} loc("p176.1085"), %arg177: tensor<1280xbf16> {ttcore.argument_type = #ttcore.argument_type<parameter>, ttcore.shard_status = #ttcore.shard_status<unsharded>, ttir.name = "l__self___image_encoder_vision_model_encoder_layers_17_self_attn_v_proj_bias"} loc("p177.1091"), %arg178: tensor<1280x1280xbf16> {ttcore.argument_type = #ttcore.argument_type<parameter>, ttcore.shard_status = #ttcore.shard_status<unsharded>, ttir.name = "l__self___image_encoder_vision_model_encoder_layers_17_self_attn_v_proj_weight"} loc("p178.1095"), %arg179: tensor<1280xbf16> {ttcore.argument_type = #ttcore.argument_type<parameter>, ttcore.shard_status = #ttcore.shard_status<unsharded>, ttir.name = "l__self___image_encoder_vision_model_encoder_layers_17_layer_norm1_bias"} loc("p179.1101"), %arg180: tensor<1280xbf16> {ttcore.argument_type = #ttcore.argument_type<parameter>, ttcore.shard_status = #ttcore.shard_status<unsharded>, ttir.name = "l__self___image_encoder_vision_model_encoder_layers_17_layer_norm1_weight"} loc("p180.1106"), %arg181: tensor<1280xbf16> {ttcore.argument_type = #ttcore.argument_type<parameter>, ttcore.shard_status = #ttcore.shard_status<unsharded>, ttir.name = "l__self___image_encoder_vision_model_encoder_layers_16_mlp_fc2_bias"} loc("p181.1115"), %arg182: tensor<1280x5120xbf16> {ttcore.argument_type = #ttcore.argument_type<parameter>, ttcore.shard_status = #ttcore.shard_status<unsharded>, ttir.name = "l__self___image_encoder_vision_model_encoder_layers_16_mlp_fc2_weight"} loc("p182.1119"), %arg183: tensor<5120xbf16> {ttcore.argument_type = #ttcore.argument_type<parameter>, ttcore.shard_status = #ttcore.shard_status<unsharded>, ttir.name = "l__self___image_encoder_vision_model_encoder_layers_16_mlp_fc1_bias"} loc("p183.1125"), %arg184: tensor<5120x1280xbf16> {ttcore.argument_type = #ttcore.argument_type<parameter>, ttcore.shard_status = #ttcore.shard_status<unsharded>, ttir.name = "l__self___image_encoder_vision_model_encoder_layers_16_mlp_fc1_weight"} loc("p184.1129"), %arg185: tensor<1280xbf16> {ttcore.argument_type = #ttcore.argument_type<parameter>, ttcore.shard_status = #ttcore.shard_status<unsharded>, ttir.name = "l__self___image_encoder_vision_model_encoder_layers_16_layer_norm2_bias"} loc("p185.1135"), %arg186: tensor<1280xbf16> {ttcore.argument_type = #ttcore.argument_type<parameter>, ttcore.shard_status = #ttcore.shard_status<unsharded>, ttir.name = "l__self___image_encoder_vision_model_encoder_layers_16_layer_norm2_weight"} loc("p186.1140"), %arg187: tensor<1280xbf16> {ttcore.argument_type = #ttcore.argument_type<parameter>, ttcore.shard_status = #ttcore.shard_status<unsharded>, ttir.name = "l__self___image_encoder_vision_model_encoder_layers_16_self_attn_out_proj_bias"} loc("p187.1149"), %arg188: tensor<1280x1280xbf16> {ttcore.argument_type = #ttcore.argument_type<parameter>, ttcore.shard_status = #ttcore.shard_status<unsharded>, ttir.name = "l__self___image_encoder_vision_model_encoder_layers_16_self_attn_out_proj_weight"} loc("p188.1153"), %arg189: tensor<1280xbf16> {ttcore.argument_type = #ttcore.argument_type<parameter>, ttcore.shard_status = #ttcore.shard_status<unsharded>, ttir.name = "l__self___image_encoder_vision_model_encoder_layers_16_self_attn_v_proj_bias"} loc("p189.1159"), %arg190: tensor<1280x1280xbf16> {ttcore.argument_type = #ttcore.argument_type<parameter>, ttcore.shard_status = #ttcore.shard_status<unsharded>, ttir.name = "l__self___image_encoder_vision_model_encoder_layers_16_self_attn_v_proj_weight"} loc("p190.1163"), %arg191: tensor<1280xbf16> {ttcore.argument_type = #ttcore.argument_type<parameter>, ttcore.shard_status = #ttcore.shard_status<unsharded>, ttir.name = "l__self___image_encoder_vision_model_encoder_layers_16_layer_norm1_bias"} loc("p191.1169"), %arg192: tensor<1280xbf16> {ttcore.argument_type = #ttcore.argument_type<parameter>, ttcore.shard_status = #ttcore.shard_status<unsharded>, ttir.name = "l__self___image_encoder_vision_model_encoder_layers_16_layer_norm1_weight"} loc("p192.1174"), %arg193: tensor<1280xbf16> {ttcore.argument_type = #ttcore.argument_type<parameter>, ttcore.shard_status = #ttcore.shard_status<unsharded>, ttir.name = "l__self___image_encoder_vision_model_encoder_layers_15_mlp_fc2_bias"} loc("p193.1183"), %arg194: tensor<1280x5120xbf16> {ttcore.argument_type = #ttcore.argument_type<parameter>, ttcore.shard_status = #ttcore.shard_status<unsharded>, ttir.name = "l__self___image_encoder_vision_model_encoder_layers_15_mlp_fc2_weight"} loc("p194.1187"), %arg195: tensor<5120xbf16> {ttcore.argument_type = #ttcore.argument_type<parameter>, ttcore.shard_status = #ttcore.shard_status<unsharded>, ttir.name = "l__self___image_encoder_vision_model_encoder_layers_15_mlp_fc1_bias"} loc("p195.1193"), %arg196: tensor<5120x1280xbf16> {ttcore.argument_type = #ttcore.argument_type<parameter>, ttcore.shard_status = #ttcore.shard_status<unsharded>, ttir.name = "l__self___image_encoder_vision_model_encoder_layers_15_mlp_fc1_weight"} loc("p196.1197"), %arg197: tensor<1280xbf16> {ttcore.argument_type = #ttcore.argument_type<parameter>, ttcore.shard_status = #ttcore.shard_status<unsharded>, ttir.name = "l__self___image_encoder_vision_model_encoder_layers_15_layer_norm2_bias"} loc("p197.1203"), %arg198: tensor<1280xbf16> {ttcore.argument_type = #ttcore.argument_type<parameter>, ttcore.shard_status = #ttcore.shard_status<unsharded>, ttir.name = "l__self___image_encoder_vision_model_encoder_layers_15_layer_norm2_weight"} loc("p198.1208"), %arg199: tensor<1280xbf16> {ttcore.argument_type = #ttcore.argument_type<parameter>, ttcore.shard_status = #ttcore.shard_status<unsharded>, ttir.name = "l__self___image_encoder_vision_model_encoder_layers_15_self_attn_out_proj_bias"} loc("p199.1217"), %arg200: tensor<1280x1280xbf16> {ttcore.argument_type = #ttcore.argument_type<parameter>, ttcore.shard_status = #ttcore.shard_status<unsharded>, ttir.name = "l__self___image_encoder_vision_model_encoder_layers_15_self_attn_out_proj_weight"} loc("p200.1221"), %arg201: tensor<1280xbf16> {ttcore.argument_type = #ttcore.argument_type<parameter>, ttcore.shard_status = #ttcore.shard_status<unsharded>, ttir.name = "l__self___image_encoder_vision_model_encoder_layers_15_self_attn_v_proj_bias"} loc("p201.1227"), %arg202: tensor<1280x1280xbf16> {ttcore.argument_type = #ttcore.argument_type<parameter>, ttcore.shard_status = #ttcore.shard_status<unsharded>, ttir.name = "l__self___image_encoder_vision_model_encoder_layers_15_self_attn_v_proj_weight"} loc("p202.1231"), %arg203: tensor<1280xbf16> {ttcore.argument_type = #ttcore.argument_type<parameter>, ttcore.shard_status = #ttcore.shard_status<unsharded>, ttir.name = "l__self___image_encoder_vision_model_encoder_layers_15_layer_norm1_bias"} loc("p203.1237"), %arg204: tensor<1280xbf16> {ttcore.argument_type = #ttcore.argument_type<parameter>, ttcore.shard_status = #ttcore.shard_status<unsharded>, ttir.name = "l__self___image_encoder_vision_model_encoder_layers_15_layer_norm1_weight"} loc("p204.1242"), %arg205: tensor<1280xbf16> {ttcore.argument_type = #ttcore.argument_type<parameter>, ttcore.shard_status = #ttcore.shard_status<unsharded>, ttir.name = "l__self___image_encoder_vision_model_encoder_layers_14_mlp_fc2_bias"} loc("p205.1251"), %arg206: tensor<1280x5120xbf16> {ttcore.argument_type = #ttcore.argument_type<parameter>, ttcore.shard_status = #ttcore.shard_status<unsharded>, ttir.name = "l__self___image_encoder_vision_model_encoder_layers_14_mlp_fc2_weight"} loc("p206.1255"), %arg207: tensor<5120xbf16> {ttcore.argument_type = #ttcore.argument_type<parameter>, ttcore.shard_status = #ttcore.shard_status<unsharded>, ttir.name = "l__self___image_encoder_vision_model_encoder_layers_14_mlp_fc1_bias"} loc("p207.1261"), %arg208: tensor<5120x1280xbf16> {ttcore.argument_type = #ttcore.argument_type<parameter>, ttcore.shard_status = #ttcore.shard_status<unsharded>, ttir.name = "l__self___image_encoder_vision_model_encoder_layers_14_mlp_fc1_weight"} loc("p208.1265"), %arg209: tensor<1280xbf16> {ttcore.argument_type = #ttcore.argument_type<parameter>, ttcore.shard_status = #ttcore.shard_status<unsharded>, ttir.name = "l__self___image_encoder_vision_model_encoder_layers_14_layer_norm2_bias"} loc("p209.1271"), %arg210: tensor<1280xbf16> {ttcore.argument_type = #ttcore.argument_type<parameter>, ttcore.shard_status = #ttcore.shard_status<unsharded>, ttir.name = "l__self___image_encoder_vision_model_encoder_layers_14_layer_norm2_weight"} loc("p210.1276"), %arg211: tensor<1280xbf16> {ttcore.argument_type = #ttcore.argument_type<parameter>, ttcore.shard_status = #ttcore.shard_status<unsharded>, ttir.name = "l__self___image_encoder_vision_model_encoder_layers_14_self_attn_out_proj_bias"} loc("p211.1285"), %arg212: tensor<1280x1280xbf16> {ttcore.argument_type = #ttcore.argument_type<parameter>, ttcore.shard_status = #ttcore.shard_status<unsharded>, ttir.name = "l__self___image_encoder_vision_model_encoder_layers_14_self_attn_out_proj_weight"} loc("p212.1289"), %arg213: tensor<1280xbf16> {ttcore.argument_type = #ttcore.argument_type<parameter>, ttcore.shard_status = #ttcore.shard_status<unsharded>, ttir.name = "l__self___image_encoder_vision_model_encoder_layers_14_self_attn_v_proj_bias"} loc("p213.1295"), %arg214: tensor<1280x1280xbf16> {ttcore.argument_type = #ttcore.argument_type<parameter>, ttcore.shard_status = #ttcore.shard_status<unsharded>, ttir.name = "l__self___image_encoder_vision_model_encoder_layers_14_self_attn_v_proj_weight"} loc("p214.1299"), %arg215: tensor<1280xbf16> {ttcore.argument_type = #ttcore.argument_type<parameter>, ttcore.shard_status = #ttcore.shard_status<unsharded>, ttir.name = "l__self___image_encoder_vision_model_encoder_layers_14_layer_norm1_bias"} loc("p215.1305"), %arg216: tensor<1280xbf16> {ttcore.argument_type = #ttcore.argument_type<parameter>, ttcore.shard_status = #ttcore.shard_status<unsharded>, ttir.name = "l__self___image_encoder_vision_model_encoder_layers_14_layer_norm1_weight"} loc("p216.1310"), %arg217: tensor<1280xbf16> {ttcore.argument_type = #ttcore.argument_type<parameter>, ttcore.shard_status = #ttcore.shard_status<unsharded>, ttir.name = "l__self___image_encoder_vision_model_encoder_layers_13_mlp_fc2_bias"} loc("p217.1319"), %arg218: tensor<1280x5120xbf16> {ttcore.argument_type = #ttcore.argument_type<parameter>, ttcore.shard_status = #ttcore.shard_status<unsharded>, ttir.name = "l__self___image_encoder_vision_model_encoder_layers_13_mlp_fc2_weight"} loc("p218.1323"), %arg219: tensor<5120xbf16> {ttcore.argument_type = #ttcore.argument_type<parameter>, ttcore.shard_status = #ttcore.shard_status<unsharded>, ttir.name = "l__self___image_encoder_vision_model_encoder_layers_13_mlp_fc1_bias"} loc("p219.1329"), %arg220: tensor<5120x1280xbf16> {ttcore.argument_type = #ttcore.argument_type<parameter>, ttcore.shard_status = #ttcore.shard_status<unsharded>, ttir.name = "l__self___image_encoder_vision_model_encoder_layers_13_mlp_fc1_weight"} loc("p220.1333"), %arg221: tensor<1280xbf16> {ttcore.argument_type = #ttcore.argument_type<parameter>, ttcore.shard_status = #ttcore.shard_status<unsharded>, ttir.name = "l__self___image_encoder_vision_model_encoder_layers_13_layer_norm2_bias"} loc("p221.1339"), %arg222: tensor<1280xbf16> {ttcore.argument_type = #ttcore.argument_type<parameter>, ttcore.shard_status = #ttcore.shard_status<unsharded>, ttir.name = "l__self___image_encoder_vision_model_encoder_layers_13_layer_norm2_weight"} loc("p222.1344"), %arg223: tensor<1280xbf16> {ttcore.argument_type = #ttcore.argument_type<parameter>, ttcore.shard_status = #ttcore.shard_status<unsharded>, ttir.name = "l__self___image_encoder_vision_model_encoder_layers_13_self_attn_out_proj_bias"} loc("p223.1353"), %arg224: tensor<1280x1280xbf16> {ttcore.argument_type = #ttcore.argument_type<parameter>, ttcore.shard_status = #ttcore.shard_status<unsharded>, ttir.name = "l__self___image_encoder_vision_model_encoder_layers_13_self_attn_out_proj_weight"} loc("p224.1357"), %arg225: tensor<1280xbf16> {ttcore.argument_type = #ttcore.argument_type<parameter>, ttcore.shard_status = #ttcore.shard_status<unsharded>, ttir.name = "l__self___image_encoder_vision_model_encoder_layers_13_self_attn_v_proj_bias"} loc("p225.1363"), %arg226: tensor<1280x1280xbf16> {ttcore.argument_type = #ttcore.argument_type<parameter>, ttcore.shard_status = #ttcore.shard_status<unsharded>, ttir.name = "l__self___image_encoder_vision_model_encoder_layers_13_self_attn_v_proj_weight"} loc("p226.1367"), %arg227: tensor<1280xbf16> {ttcore.argument_type = #ttcore.argument_type<parameter>, ttcore.shard_status = #ttcore.shard_status<unsharded>, ttir.name = "l__self___image_encoder_vision_model_encoder_layers_13_layer_norm1_bias"} loc("p227.1373"), %arg228: tensor<1280xbf16> {ttcore.argument_type = #ttcore.argument_type<parameter>, ttcore.shard_status = #ttcore.shard_status<unsharded>, ttir.name = "l__self___image_encoder_vision_model_encoder_layers_13_layer_norm1_weight"} loc("p228.1378"), %arg229: tensor<1280xbf16> {ttcore.argument_type = #ttcore.argument_type<parameter>, ttcore.shard_status = #ttcore.shard_status<unsharded>, ttir.name = "l__self___image_encoder_vision_model_encoder_layers_12_mlp_fc2_bias"} loc("p229.1387"), %arg230: tensor<1280x5120xbf16> {ttcore.argument_type = #ttcore.argument_type<parameter>, ttcore.shard_status = #ttcore.shard_status<unsharded>, ttir.name = "l__self___image_encoder_vision_model_encoder_layers_12_mlp_fc2_weight"} loc("p230.1391"), %arg231: tensor<5120xbf16> {ttcore.argument_type = #ttcore.argument_type<parameter>, ttcore.shard_status = #ttcore.shard_status<unsharded>, ttir.name = "l__self___image_encoder_vision_model_encoder_layers_12_mlp_fc1_bias"} loc("p231.1397"), %arg232: tensor<5120x1280xbf16> {ttcore.argument_type = #ttcore.argument_type<parameter>, ttcore.shard_status = #ttcore.shard_status<unsharded>, ttir.name = "l__self___image_encoder_vision_model_encoder_layers_12_mlp_fc1_weight"} loc("p232.1401"), %arg233: tensor<1280xbf16> {ttcore.argument_type = #ttcore.argument_type<parameter>, ttcore.shard_status = #ttcore.shard_status<unsharded>, ttir.name = "l__self___image_encoder_vision_model_encoder_layers_12_layer_norm2_bias"} loc("p233.1407"), %arg234: tensor<1280xbf16> {ttcore.argument_type = #ttcore.argument_type<parameter>, ttcore.shard_status = #ttcore.shard_status<unsharded>, ttir.name = "l__self___image_encoder_vision_model_encoder_layers_12_layer_norm2_weight"} loc("p234.1412"), %arg235: tensor<1280xbf16> {ttcore.argument_type = #ttcore.argument_type<parameter>, ttcore.shard_status = #ttcore.shard_status<unsharded>, ttir.name = "l__self___image_encoder_vision_model_encoder_layers_12_self_attn_out_proj_bias"} loc("p235.1421"), %arg236: tensor<1280x1280xbf16> {ttcore.argument_type = #ttcore.argument_type<parameter>, ttcore.shard_status = #ttcore.shard_status<unsharded>, ttir.name = "l__self___image_encoder_vision_model_encoder_layers_12_self_attn_out_proj_weight"} loc("p236.1425"), %arg237: tensor<1280xbf16> {ttcore.argument_type = #ttcore.argument_type<parameter>, ttcore.shard_status = #ttcore.shard_status<unsharded>, ttir.name = "l__self___image_encoder_vision_model_encoder_layers_12_self_attn_v_proj_bias"} loc("p237.1431"), %arg238: tensor<1280x1280xbf16> {ttcore.argument_type = #ttcore.argument_type<parameter>, ttcore.shard_status = #ttcore.shard_status<unsharded>, ttir.name = "l__self___image_encoder_vision_model_encoder_layers_12_self_attn_v_proj_weight"} loc("p238.1435"), %arg239: tensor<1280xbf16> {ttcore.argument_type = #ttcore.argument_type<parameter>, ttcore.shard_status = #ttcore.shard_status<unsharded>, ttir.name = "l__self___image_encoder_vision_model_encoder_layers_12_layer_norm1_bias"} loc("p239.1441"), %arg240: tensor<1280xbf16> {ttcore.argument_type = #ttcore.argument_type<parameter>, ttcore.shard_status = #ttcore.shard_status<unsharded>, ttir.name = "l__self___image_encoder_vision_model_encoder_layers_12_layer_norm1_weight"} loc("p240.1446"), %arg241: tensor<1280xbf16> {ttcore.argument_type = #ttcore.argument_type<parameter>, ttcore.shard_status = #ttcore.shard_status<unsharded>, ttir.name = "l__self___image_encoder_vision_model_encoder_layers_11_mlp_fc2_bias"} loc("p241.1455"), %arg242: tensor<1280x5120xbf16> {ttcore.argument_type = #ttcore.argument_type<parameter>, ttcore.shard_status = #ttcore.shard_status<unsharded>, ttir.name = "l__self___image_encoder_vision_model_encoder_layers_11_mlp_fc2_weight"} loc("p242.1459"), %arg243: tensor<5120xbf16> {ttcore.argument_type = #ttcore.argument_type<parameter>, ttcore.shard_status = #ttcore.shard_status<unsharded>, ttir.name = "l__self___image_encoder_vision_model_encoder_layers_11_mlp_fc1_bias"} loc("p243.1465"), %arg244: tensor<5120x1280xbf16> {ttcore.argument_type = #ttcore.argument_type<parameter>, ttcore.shard_status = #ttcore.shard_status<unsharded>, ttir.name = "l__self___image_encoder_vision_model_encoder_layers_11_mlp_fc1_weight"} loc("p244.1469"), %arg245: tensor<1280xbf16> {ttcore.argument_type = #ttcore.argument_type<parameter>, ttcore.shard_status = #ttcore.shard_status<unsharded>, ttir.name = "l__self___image_encoder_vision_model_encoder_layers_11_layer_norm2_bias"} loc("p245.1475"), %arg246: tensor<1280xbf16> {ttcore.argument_type = #ttcore.argument_type<parameter>, ttcore.shard_status = #ttcore.shard_status<unsharded>, ttir.name = "l__self___image_encoder_vision_model_encoder_layers_11_layer_norm2_weight"} loc("p246.1480"), %arg247: tensor<1280xbf16> {ttcore.argument_type = #ttcore.argument_type<parameter>, ttcore.shard_status = #ttcore.shard_status<unsharded>, ttir.name = "l__self___image_encoder_vision_model_encoder_layers_11_self_attn_out_proj_bias"} loc("p247.1489"), %arg248: tensor<1280x1280xbf16> {ttcore.argument_type = #ttcore.argument_type<parameter>, ttcore.shard_status = #ttcore.shard_status<unsharded>, ttir.name = "l__self___image_encoder_vision_model_encoder_layers_11_self_attn_out_proj_weight"} loc("p248.1493"), %arg249: tensor<1280xbf16> {ttcore.argument_type = #ttcore.argument_type<parameter>, ttcore.shard_status = #ttcore.shard_status<unsharded>, ttir.name = "l__self___image_encoder_vision_model_encoder_layers_11_self_attn_v_proj_bias"} loc("p249.1499"), %arg250: tensor<1280x1280xbf16> {ttcore.argument_type = #ttcore.argument_type<parameter>, ttcore.shard_status = #ttcore.shard_status<unsharded>, ttir.name = "l__self___image_encoder_vision_model_encoder_layers_11_self_attn_v_proj_weight"} loc("p250.1503"), %arg251: tensor<1280xbf16> {ttcore.argument_type = #ttcore.argument_type<parameter>, ttcore.shard_status = #ttcore.shard_status<unsharded>, ttir.name = "l__self___image_encoder_vision_model_encoder_layers_11_layer_norm1_bias"} loc("p251.1509"), %arg252: tensor<1280xbf16> {ttcore.argument_type = #ttcore.argument_type<parameter>, ttcore.shard_status = #ttcore.shard_status<unsharded>, ttir.name = "l__self___image_encoder_vision_model_encoder_layers_11_layer_norm1_weight"} loc("p252.1514"), %arg253: tensor<1280xbf16> {ttcore.argument_type = #ttcore.argument_type<parameter>, ttcore.shard_status = #ttcore.shard_status<unsharded>, ttir.name = "l__self___image_encoder_vision_model_encoder_layers_10_mlp_fc2_bias"} loc("p253.1523"), %arg254: tensor<1280x5120xbf16> {ttcore.argument_type = #ttcore.argument_type<parameter>, ttcore.shard_status = #ttcore.shard_status<unsharded>, ttir.name = "l__self___image_encoder_vision_model_encoder_layers_10_mlp_fc2_weight"} loc("p254.1527"), %arg255: tensor<5120xbf16> {ttcore.argument_type = #ttcore.argument_type<parameter>, ttcore.shard_status = #ttcore.shard_status<unsharded>, ttir.name = "l__self___image_encoder_vision_model_encoder_layers_10_mlp_fc1_bias"} loc("p255.1533"), %arg256: tensor<5120x1280xbf16> {ttcore.argument_type = #ttcore.argument_type<parameter>, ttcore.shard_status = #ttcore.shard_status<unsharded>, ttir.name = "l__self___image_encoder_vision_model_encoder_layers_10_mlp_fc1_weight"} loc("p256.1537"), %arg257: tensor<1280xbf16> {ttcore.argument_type = #ttcore.argument_type<parameter>, ttcore.shard_status = #ttcore.shard_status<unsharded>, ttir.name = "l__self___image_encoder_vision_model_encoder_layers_10_layer_norm2_bias"} loc("p257.1543"), %arg258: tensor<1280xbf16> {ttcore.argument_type = #ttcore.argument_type<parameter>, ttcore.shard_status = #ttcore.shard_status<unsharded>, ttir.name = "l__self___image_encoder_vision_model_encoder_layers_10_layer_norm2_weight"} loc("p258.1548"), %arg259: tensor<1280xbf16> {ttcore.argument_type = #ttcore.argument_type<parameter>, ttcore.shard_status = #ttcore.shard_status<unsharded>, ttir.name = "l__self___image_encoder_vision_model_encoder_layers_10_self_attn_out_proj_bias"} loc("p259.1557"), %arg260: tensor<1280x1280xbf16> {ttcore.argument_type = #ttcore.argument_type<parameter>, ttcore.shard_status = #ttcore.shard_status<unsharded>, ttir.name = "l__self___image_encoder_vision_model_encoder_layers_10_self_attn_out_proj_weight"} loc("p260.1561"), %arg261: tensor<1280xbf16> {ttcore.argument_type = #ttcore.argument_type<parameter>, ttcore.shard_status = #ttcore.shard_status<unsharded>, ttir.name = "l__self___image_encoder_vision_model_encoder_layers_10_self_attn_v_proj_bias"} loc("p261.1567"), %arg262: tensor<1280x1280xbf16> {ttcore.argument_type = #ttcore.argument_type<parameter>, ttcore.shard_status = #ttcore.shard_status<unsharded>, ttir.name = "l__self___image_encoder_vision_model_encoder_layers_10_self_attn_v_proj_weight"} loc("p262.1571"), %arg263: tensor<1280xbf16> {ttcore.argument_type = #ttcore.argument_type<parameter>, ttcore.shard_status = #ttcore.shard_status<unsharded>, ttir.name = "l__self___image_encoder_vision_model_encoder_layers_10_layer_norm1_bias"} loc("p263.1577"), %arg264: tensor<1280xbf16> {ttcore.argument_type = #ttcore.argument_type<parameter>, ttcore.shard_status = #ttcore.shard_status<unsharded>, ttir.name = "l__self___image_encoder_vision_model_encoder_layers_10_layer_norm1_weight"} loc("p264.1582"), %arg265: tensor<1280xbf16> {ttcore.argument_type = #ttcore.argument_type<parameter>, ttcore.shard_status = #ttcore.shard_status<unsharded>, ttir.name = "l__self___image_encoder_vision_model_encoder_layers_9_mlp_fc2_bias"} loc("p265.1591"), %arg266: tensor<1280x5120xbf16> {ttcore.argument_type = #ttcore.argument_type<parameter>, ttcore.shard_status = #ttcore.shard_status<unsharded>, ttir.name = "l__self___image_encoder_vision_model_encoder_layers_9_mlp_fc2_weight"} loc("p266.1595"), %arg267: tensor<5120xbf16> {ttcore.argument_type = #ttcore.argument_type<parameter>, ttcore.shard_status = #ttcore.shard_status<unsharded>, ttir.name = "l__self___image_encoder_vision_model_encoder_layers_9_mlp_fc1_bias"} loc("p267.1601"), %arg268: tensor<5120x1280xbf16> {ttcore.argument_type = #ttcore.argument_type<parameter>, ttcore.shard_status = #ttcore.shard_status<unsharded>, ttir.name = "l__self___image_encoder_vision_model_encoder_layers_9_mlp_fc1_weight"} loc("p268.1605"), %arg269: tensor<1280xbf16> {ttcore.argument_type = #ttcore.argument_type<parameter>, ttcore.shard_status = #ttcore.shard_status<unsharded>, ttir.name = "l__self___image_encoder_vision_model_encoder_layers_9_layer_norm2_bias"} loc("p269.1611"), %arg270: tensor<1280xbf16> {ttcore.argument_type = #ttcore.argument_type<parameter>, ttcore.shard_status = #ttcore.shard_status<unsharded>, ttir.name = "l__self___image_encoder_vision_model_encoder_layers_9_layer_norm2_weight"} loc("p270.1616"), %arg271: tensor<1280xbf16> {ttcore.argument_type = #ttcore.argument_type<parameter>, ttcore.shard_status = #ttcore.shard_status<unsharded>, ttir.name = "l__self___image_encoder_vision_model_encoder_layers_9_self_attn_out_proj_bias"} loc("p271.1625"), %arg272: tensor<1280x1280xbf16> {ttcore.argument_type = #ttcore.argument_type<parameter>, ttcore.shard_status = #ttcore.shard_status<unsharded>, ttir.name = "l__self___image_encoder_vision_model_encoder_layers_9_self_attn_out_proj_weight"} loc("p272.1629"), %arg273: tensor<1280xbf16> {ttcore.argument_type = #ttcore.argument_type<parameter>, ttcore.shard_status = #ttcore.shard_status<unsharded>, ttir.name = "l__self___image_encoder_vision_model_encoder_layers_9_self_attn_v_proj_bias"} loc("p273.1635"), %arg274: tensor<1280x1280xbf16> {ttcore.argument_type = #ttcore.argument_type<parameter>, ttcore.shard_status = #ttcore.shard_status<unsharded>, ttir.name = "l__self___image_encoder_vision_model_encoder_layers_9_self_attn_v_proj_weight"} loc("p274.1639"), %arg275: tensor<1280xbf16> {ttcore.argument_type = #ttcore.argument_type<parameter>, ttcore.shard_status = #ttcore.shard_status<unsharded>, ttir.name = "l__self___image_encoder_vision_model_encoder_layers_9_layer_norm1_bias"} loc("p275.1645"), %arg276: tensor<1280xbf16> {ttcore.argument_type = #ttcore.argument_type<parameter>, ttcore.shard_status = #ttcore.shard_status<unsharded>, ttir.name = "l__self___image_encoder_vision_model_encoder_layers_9_layer_norm1_weight"} loc("p276.1650"), %arg277: tensor<1280xbf16> {ttcore.argument_type = #ttcore.argument_type<parameter>, ttcore.shard_status = #ttcore.shard_status<unsharded>, ttir.name = "l__self___image_encoder_vision_model_encoder_layers_8_mlp_fc2_bias"} loc("p277.1659"), %arg278: tensor<1280x5120xbf16> {ttcore.argument_type = #ttcore.argument_type<parameter>, ttcore.shard_status = #ttcore.shard_status<unsharded>, ttir.name = "l__self___image_encoder_vision_model_encoder_layers_8_mlp_fc2_weight"} loc("p278.1663"), %arg279: tensor<5120xbf16> {ttcore.argument_type = #ttcore.argument_type<parameter>, ttcore.shard_status = #ttcore.shard_status<unsharded>, ttir.name = "l__self___image_encoder_vision_model_encoder_layers_8_mlp_fc1_bias"} loc("p279.1669"), %arg280: tensor<5120x1280xbf16> {ttcore.argument_type = #ttcore.argument_type<parameter>, ttcore.shard_status = #ttcore.shard_status<unsharded>, ttir.name = "l__self___image_encoder_vision_model_encoder_layers_8_mlp_fc1_weight"} loc("p280.1673"), %arg281: tensor<1280xbf16> {ttcore.argument_type = #ttcore.argument_type<parameter>, ttcore.shard_status = #ttcore.shard_status<unsharded>, ttir.name = "l__self___image_encoder_vision_model_encoder_layers_8_layer_norm2_bias"} loc("p281.1679"), %arg282: tensor<1280xbf16> {ttcore.argument_type = #ttcore.argument_type<parameter>, ttcore.shard_status = #ttcore.shard_status<unsharded>, ttir.name = "l__self___image_encoder_vision_model_encoder_layers_8_layer_norm2_weight"} loc("p282.1684"), %arg283: tensor<1280xbf16> {ttcore.argument_type = #ttcore.argument_type<parameter>, ttcore.shard_status = #ttcore.shard_status<unsharded>, ttir.name = "l__self___image_encoder_vision_model_encoder_layers_8_self_attn_out_proj_bias"} loc("p283.1693"), %arg284: tensor<1280x1280xbf16> {ttcore.argument_type = #ttcore.argument_type<parameter>, ttcore.shard_status = #ttcore.shard_status<unsharded>, ttir.name = "l__self___image_encoder_vision_model_encoder_layers_8_self_attn_out_proj_weight"} loc("p284.1697"), %arg285: tensor<1280xbf16> {ttcore.argument_type = #ttcore.argument_type<parameter>, ttcore.shard_status = #ttcore.shard_status<unsharded>, ttir.name = "l__self___image_encoder_vision_model_encoder_layers_8_self_attn_v_proj_bias"} loc("p285.1703"), %arg286: tensor<1280x1280xbf16> {ttcore.argument_type = #ttcore.argument_type<parameter>, ttcore.shard_status = #ttcore.shard_status<unsharded>, ttir.name = "l__self___image_encoder_vision_model_encoder_layers_8_self_attn_v_proj_weight"} loc("p286.1707"), %arg287: tensor<1280xbf16> {ttcore.argument_type = #ttcore.argument_type<parameter>, ttcore.shard_status = #ttcore.shard_status<unsharded>, ttir.name = "l__self___image_encoder_vision_model_encoder_layers_8_layer_norm1_bias"} loc("p287.1713"), %arg288: tensor<1280xbf16> {ttcore.argument_type = #ttcore.argument_type<parameter>, ttcore.shard_status = #ttcore.shard_status<unsharded>, ttir.name = "l__self___image_encoder_vision_model_encoder_layers_8_layer_norm1_weight"} loc("p288.1718"), %arg289: tensor<1280xbf16> {ttcore.argument_type = #ttcore.argument_type<parameter>, ttcore.shard_status = #ttcore.shard_status<unsharded>, ttir.name = "l__self___image_encoder_vision_model_encoder_layers_7_mlp_fc2_bias"} loc("p289.1727"), %arg290: tensor<1280x5120xbf16> {ttcore.argument_type = #ttcore.argument_type<parameter>, ttcore.shard_status = #ttcore.shard_status<unsharded>, ttir.name = "l__self___image_encoder_vision_model_encoder_layers_7_mlp_fc2_weight"} loc("p290.1731"), %arg291: tensor<5120xbf16> {ttcore.argument_type = #ttcore.argument_type<parameter>, ttcore.shard_status = #ttcore.shard_status<unsharded>, ttir.name = "l__self___image_encoder_vision_model_encoder_layers_7_mlp_fc1_bias"} loc("p291.1737"), %arg292: tensor<5120x1280xbf16> {ttcore.argument_type = #ttcore.argument_type<parameter>, ttcore.shard_status = #ttcore.shard_status<unsharded>, ttir.name = "l__self___image_encoder_vision_model_encoder_layers_7_mlp_fc1_weight"} loc("p292.1741"), %arg293: tensor<1280xbf16> {ttcore.argument_type = #ttcore.argument_type<parameter>, ttcore.shard_status = #ttcore.shard_status<unsharded>, ttir.name = "l__self___image_encoder_vision_model_encoder_layers_7_layer_norm2_bias"} loc("p293.1747"), %arg294: tensor<1280xbf16> {ttcore.argument_type = #ttcore.argument_type<parameter>, ttcore.shard_status = #ttcore.shard_status<unsharded>, ttir.name = "l__self___image_encoder_vision_model_encoder_layers_7_layer_norm2_weight"} loc("p294.1752"), %arg295: tensor<1280xbf16> {ttcore.argument_type = #ttcore.argument_type<parameter>, ttcore.shard_status = #ttcore.shard_status<unsharded>, ttir.name = "l__self___image_encoder_vision_model_encoder_layers_7_self_attn_out_proj_bias"} loc("p295.1761"), %arg296: tensor<1280x1280xbf16> {ttcore.argument_type = #ttcore.argument_type<parameter>, ttcore.shard_status = #ttcore.shard_status<unsharded>, ttir.name = "l__self___image_encoder_vision_model_encoder_layers_7_self_attn_out_proj_weight"} loc("p296.1765"), %arg297: tensor<1280xbf16> {ttcore.argument_type = #ttcore.argument_type<parameter>, ttcore.shard_status = #ttcore.shard_status<unsharded>, ttir.name = "l__self___image_encoder_vision_model_encoder_layers_7_self_attn_v_proj_bias"} loc("p297.1771"), %arg298: tensor<1280x1280xbf16> {ttcore.argument_type = #ttcore.argument_type<parameter>, ttcore.shard_status = #ttcore.shard_status<unsharded>, ttir.name = "l__self___image_encoder_vision_model_encoder_layers_7_self_attn_v_proj_weight"} loc("p298.1775"), %arg299: tensor<1280xbf16> {ttcore.argument_type = #ttcore.argument_type<parameter>, ttcore.shard_status = #ttcore.shard_status<unsharded>, ttir.name = "l__self___image_encoder_vision_model_encoder_layers_7_layer_norm1_bias"} loc("p299.1781"), %arg300: tensor<1280xbf16> {ttcore.argument_type = #ttcore.argument_type<parameter>, ttcore.shard_status = #ttcore.shard_status<unsharded>, ttir.name = "l__self___image_encoder_vision_model_encoder_layers_7_layer_norm1_weight"} loc("p300.1786"), %arg301: tensor<1280xbf16> {ttcore.argument_type = #ttcore.argument_type<parameter>, ttcore.shard_status = #ttcore.shard_status<unsharded>, ttir.name = "l__self___image_encoder_vision_model_encoder_layers_6_mlp_fc2_bias"} loc("p301.1795"), %arg302: tensor<1280x5120xbf16> {ttcore.argument_type = #ttcore.argument_type<parameter>, ttcore.shard_status = #ttcore.shard_status<unsharded>, ttir.name = "l__self___image_encoder_vision_model_encoder_layers_6_mlp_fc2_weight"} loc("p302.1799"), %arg303: tensor<5120xbf16> {ttcore.argument_type = #ttcore.argument_type<parameter>, ttcore.shard_status = #ttcore.shard_status<unsharded>, ttir.name = "l__self___image_encoder_vision_model_encoder_layers_6_mlp_fc1_bias"} loc("p303.1805"), %arg304: tensor<5120x1280xbf16> {ttcore.argument_type = #ttcore.argument_type<parameter>, ttcore.shard_status = #ttcore.shard_status<unsharded>, ttir.name = "l__self___image_encoder_vision_model_encoder_layers_6_mlp_fc1_weight"} loc("p304.1809"), %arg305: tensor<1280xbf16> {ttcore.argument_type = #ttcore.argument_type<parameter>, ttcore.shard_status = #ttcore.shard_status<unsharded>, ttir.name = "l__self___image_encoder_vision_model_encoder_layers_6_layer_norm2_bias"} loc("p305.1815"), %arg306: tensor<1280xbf16> {ttcore.argument_type = #ttcore.argument_type<parameter>, ttcore.shard_status = #ttcore.shard_status<unsharded>, ttir.name = "l__self___image_encoder_vision_model_encoder_layers_6_layer_norm2_weight"} loc("p306.1820"), %arg307: tensor<1280xbf16> {ttcore.argument_type = #ttcore.argument_type<parameter>, ttcore.shard_status = #ttcore.shard_status<unsharded>, ttir.name = "l__self___image_encoder_vision_model_encoder_layers_6_self_attn_out_proj_bias"} loc("p307.1829"), %arg308: tensor<1280x1280xbf16> {ttcore.argument_type = #ttcore.argument_type<parameter>, ttcore.shard_status = #ttcore.shard_status<unsharded>, ttir.name = "l__self___image_encoder_vision_model_encoder_layers_6_self_attn_out_proj_weight"} loc("p308.1833"), %arg309: tensor<1280xbf16> {ttcore.argument_type = #ttcore.argument_type<parameter>, ttcore.shard_status = #ttcore.shard_status<unsharded>, ttir.name = "l__self___image_encoder_vision_model_encoder_layers_6_self_attn_v_proj_bias"} loc("p309.1839"), %arg310: tensor<1280x1280xbf16> {ttcore.argument_type = #ttcore.argument_type<parameter>, ttcore.shard_status = #ttcore.shard_status<unsharded>, ttir.name = "l__self___image_encoder_vision_model_encoder_layers_6_self_attn_v_proj_weight"} loc("p310.1843"), %arg311: tensor<1280xbf16> {ttcore.argument_type = #ttcore.argument_type<parameter>, ttcore.shard_status = #ttcore.shard_status<unsharded>, ttir.name = "l__self___image_encoder_vision_model_encoder_layers_6_layer_norm1_bias"} loc("p311.1849"), %arg312: tensor<1280xbf16> {ttcore.argument_type = #ttcore.argument_type<parameter>, ttcore.shard_status = #ttcore.shard_status<unsharded>, ttir.name = "l__self___image_encoder_vision_model_encoder_layers_6_layer_norm1_weight"} loc("p312.1854"), %arg313: tensor<1280xbf16> {ttcore.argument_type = #ttcore.argument_type<parameter>, ttcore.shard_status = #ttcore.shard_status<unsharded>, ttir.name = "l__self___image_encoder_vision_model_encoder_layers_5_mlp_fc2_bias"} loc("p313.1863"), %arg314: tensor<1280x5120xbf16> {ttcore.argument_type = #ttcore.argument_type<parameter>, ttcore.shard_status = #ttcore.shard_status<unsharded>, ttir.name = "l__self___image_encoder_vision_model_encoder_layers_5_mlp_fc2_weight"} loc("p314.1867"), %arg315: tensor<5120xbf16> {ttcore.argument_type = #ttcore.argument_type<parameter>, ttcore.shard_status = #ttcore.shard_status<unsharded>, ttir.name = "l__self___image_encoder_vision_model_encoder_layers_5_mlp_fc1_bias"} loc("p315.1873"), %arg316: tensor<5120x1280xbf16> {ttcore.argument_type = #ttcore.argument_type<parameter>, ttcore.shard_status = #ttcore.shard_status<unsharded>, ttir.name = "l__self___image_encoder_vision_model_encoder_layers_5_mlp_fc1_weight"} loc("p316.1877"), %arg317: tensor<1280xbf16> {ttcore.argument_type = #ttcore.argument_type<parameter>, ttcore.shard_status = #ttcore.shard_status<unsharded>, ttir.name = "l__self___image_encoder_vision_model_encoder_layers_5_layer_norm2_bias"} loc("p317.1883"), %arg318: tensor<1280xbf16> {ttcore.argument_type = #ttcore.argument_type<parameter>, ttcore.shard_status = #ttcore.shard_status<unsharded>, ttir.name = "l__self___image_encoder_vision_model_encoder_layers_5_layer_norm2_weight"} loc("p318.1888"), %arg319: tensor<1280xbf16> {ttcore.argument_type = #ttcore.argument_type<parameter>, ttcore.shard_status = #ttcore.shard_status<unsharded>, ttir.name = "l__self___image_encoder_vision_model_encoder_layers_5_self_attn_out_proj_bias"} loc("p319.1897"), %arg320: tensor<1280x1280xbf16> {ttcore.argument_type = #ttcore.argument_type<parameter>, ttcore.shard_status = #ttcore.shard_status<unsharded>, ttir.name = "l__self___image_encoder_vision_model_encoder_layers_5_self_attn_out_proj_weight"} loc("p320.1901"), %arg321: tensor<1280xbf16> {ttcore.argument_type = #ttcore.argument_type<parameter>, ttcore.shard_status = #ttcore.shard_status<unsharded>, ttir.name = "l__self___image_encoder_vision_model_encoder_layers_5_self_attn_v_proj_bias"} loc("p321.1907"), %arg322: tensor<1280x1280xbf16> {ttcore.argument_type = #ttcore.argument_type<parameter>, ttcore.shard_status = #ttcore.shard_status<unsharded>, ttir.name = "l__self___image_encoder_vision_model_encoder_layers_5_self_attn_v_proj_weight"} loc("p322.1911"), %arg323: tensor<1280xbf16> {ttcore.argument_type = #ttcore.argument_type<parameter>, ttcore.shard_status = #ttcore.shard_status<unsharded>, ttir.name = "l__self___image_encoder_vision_model_encoder_layers_5_layer_norm1_bias"} loc("p323.1917"), %arg324: tensor<1280xbf16> {ttcore.argument_type = #ttcore.argument_type<parameter>, ttcore.shard_status = #ttcore.shard_status<unsharded>, ttir.name = "l__self___image_encoder_vision_model_encoder_layers_5_layer_norm1_weight"} loc("p324.1922"), %arg325: tensor<1280xbf16> {ttcore.argument_type = #ttcore.argument_type<parameter>, ttcore.shard_status = #ttcore.shard_status<unsharded>, ttir.name = "l__self___image_encoder_vision_model_encoder_layers_4_mlp_fc2_bias"} loc("p325.1931"), %arg326: tensor<1280x5120xbf16> {ttcore.argument_type = #ttcore.argument_type<parameter>, ttcore.shard_status = #ttcore.shard_status<unsharded>, ttir.name = "l__self___image_encoder_vision_model_encoder_layers_4_mlp_fc2_weight"} loc("p326.1935"), %arg327: tensor<5120xbf16> {ttcore.argument_type = #ttcore.argument_type<parameter>, ttcore.shard_status = #ttcore.shard_status<unsharded>, ttir.name = "l__self___image_encoder_vision_model_encoder_layers_4_mlp_fc1_bias"} loc("p327.1941"), %arg328: tensor<5120x1280xbf16> {ttcore.argument_type = #ttcore.argument_type<parameter>, ttcore.shard_status = #ttcore.shard_status<unsharded>, ttir.name = "l__self___image_encoder_vision_model_encoder_layers_4_mlp_fc1_weight"} loc("p328.1945"), %arg329: tensor<1280xbf16> {ttcore.argument_type = #ttcore.argument_type<parameter>, ttcore.shard_status = #ttcore.shard_status<unsharded>, ttir.name = "l__self___image_encoder_vision_model_encoder_layers_4_layer_norm2_bias"} loc("p329.1951"), %arg330: tensor<1280xbf16> {ttcore.argument_type = #ttcore.argument_type<parameter>, ttcore.shard_status = #ttcore.shard_status<unsharded>, ttir.name = "l__self___image_encoder_vision_model_encoder_layers_4_layer_norm2_weight"} loc("p330.1956"), %arg331: tensor<1280xbf16> {ttcore.argument_type = #ttcore.argument_type<parameter>, ttcore.shard_status = #ttcore.shard_status<unsharded>, ttir.name = "l__self___image_encoder_vision_model_encoder_layers_4_self_attn_out_proj_bias"} loc("p331.1965"), %arg332: tensor<1280x1280xbf16> {ttcore.argument_type = #ttcore.argument_type<parameter>, ttcore.shard_status = #ttcore.shard_status<unsharded>, ttir.name = "l__self___image_encoder_vision_model_encoder_layers_4_self_attn_out_proj_weight"} loc("p332.1969"), %arg333: tensor<1280xbf16> {ttcore.argument_type = #ttcore.argument_type<parameter>, ttcore.shard_status = #ttcore.shard_status<unsharded>, ttir.name = "l__self___image_encoder_vision_model_encoder_layers_4_self_attn_v_proj_bias"} loc("p333.1975"), %arg334: tensor<1280x1280xbf16> {ttcore.argument_type = #ttcore.argument_type<parameter>, ttcore.shard_status = #ttcore.shard_status<unsharded>, ttir.name = "l__self___image_encoder_vision_model_encoder_layers_4_self_attn_v_proj_weight"} loc("p334.1979"), %arg335: tensor<1280xbf16> {ttcore.argument_type = #ttcore.argument_type<parameter>, ttcore.shard_status = #ttcore.shard_status<unsharded>, ttir.name = "l__self___image_encoder_vision_model_encoder_layers_4_layer_norm1_bias"} loc("p335.1985"), %arg336: tensor<1280xbf16> {ttcore.argument_type = #ttcore.argument_type<parameter>, ttcore.shard_status = #ttcore.shard_status<unsharded>, ttir.name = "l__self___image_encoder_vision_model_encoder_layers_4_layer_norm1_weight"} loc("p336.1990"), %arg337: tensor<1280xbf16> {ttcore.argument_type = #ttcore.argument_type<parameter>, ttcore.shard_status = #ttcore.shard_status<unsharded>, ttir.name = "l__self___image_encoder_vision_model_encoder_layers_3_mlp_fc2_bias"} loc("p337.1999"), %arg338: tensor<1280x5120xbf16> {ttcore.argument_type = #ttcore.argument_type<parameter>, ttcore.shard_status = #ttcore.shard_status<unsharded>, ttir.name = "l__self___image_encoder_vision_model_encoder_layers_3_mlp_fc2_weight"} loc("p338.2003"), %arg339: tensor<5120xbf16> {ttcore.argument_type = #ttcore.argument_type<parameter>, ttcore.shard_status = #ttcore.shard_status<unsharded>, ttir.name = "l__self___image_encoder_vision_model_encoder_layers_3_mlp_fc1_bias"} loc("p339.2009"), %arg340: tensor<5120x1280xbf16> {ttcore.argument_type = #ttcore.argument_type<parameter>, ttcore.shard_status = #ttcore.shard_status<unsharded>, ttir.name = "l__self___image_encoder_vision_model_encoder_layers_3_mlp_fc1_weight"} loc("p340.2013"), %arg341: tensor<1280xbf16> {ttcore.argument_type = #ttcore.argument_type<parameter>, ttcore.shard_status = #ttcore.shard_status<unsharded>, ttir.name = "l__self___image_encoder_vision_model_encoder_layers_3_layer_norm2_bias"} loc("p341.2019"), %arg342: tensor<1280xbf16> {ttcore.argument_type = #ttcore.argument_type<parameter>, ttcore.shard_status = #ttcore.shard_status<unsharded>, ttir.name = "l__self___image_encoder_vision_model_encoder_layers_3_layer_norm2_weight"} loc("p342.2024"), %arg343: tensor<1280xbf16> {ttcore.argument_type = #ttcore.argument_type<parameter>, ttcore.shard_status = #ttcore.shard_status<unsharded>, ttir.name = "l__self___image_encoder_vision_model_encoder_layers_3_self_attn_out_proj_bias"} loc("p343.2033"), %arg344: tensor<1280x1280xbf16> {ttcore.argument_type = #ttcore.argument_type<parameter>, ttcore.shard_status = #ttcore.shard_status<unsharded>, ttir.name = "l__self___image_encoder_vision_model_encoder_layers_3_self_attn_out_proj_weight"} loc("p344.2037"), %arg345: tensor<1280xbf16> {ttcore.argument_type = #ttcore.argument_type<parameter>, ttcore.shard_status = #ttcore.shard_status<unsharded>, ttir.name = "l__self___image_encoder_vision_model_encoder_layers_3_self_attn_v_proj_bias"} loc("p345.2043"), %arg346: tensor<1280x1280xbf16> {ttcore.argument_type = #ttcore.argument_type<parameter>, ttcore.shard_status = #ttcore.shard_status<unsharded>, ttir.name = "l__self___image_encoder_vision_model_encoder_layers_3_self_attn_v_proj_weight"} loc("p346.2047"), %arg347: tensor<1280xbf16> {ttcore.argument_type = #ttcore.argument_type<parameter>, ttcore.shard_status = #ttcore.shard_status<unsharded>, ttir.name = "l__self___image_encoder_vision_model_encoder_layers_3_layer_norm1_bias"} loc("p347.2053"), %arg348: tensor<1280xbf16> {ttcore.argument_type = #ttcore.argument_type<parameter>, ttcore.shard_status = #ttcore.shard_status<unsharded>, ttir.name = "l__self___image_encoder_vision_model_encoder_layers_3_layer_norm1_weight"} loc("p348.2058"), %arg349: tensor<1280xbf16> {ttcore.argument_type = #ttcore.argument_type<parameter>, ttcore.shard_status = #ttcore.shard_status<unsharded>, ttir.name = "l__self___image_encoder_vision_model_encoder_layers_2_mlp_fc2_bias"} loc("p349.2067"), %arg350: tensor<1280x5120xbf16> {ttcore.argument_type = #ttcore.argument_type<parameter>, ttcore.shard_status = #ttcore.shard_status<unsharded>, ttir.name = "l__self___image_encoder_vision_model_encoder_layers_2_mlp_fc2_weight"} loc("p350.2071"), %arg351: tensor<5120xbf16> {ttcore.argument_type = #ttcore.argument_type<parameter>, ttcore.shard_status = #ttcore.shard_status<unsharded>, ttir.name = "l__self___image_encoder_vision_model_encoder_layers_2_mlp_fc1_bias"} loc("p351.2077"), %arg352: tensor<5120x1280xbf16> {ttcore.argument_type = #ttcore.argument_type<parameter>, ttcore.shard_status = #ttcore.shard_status<unsharded>, ttir.name = "l__self___image_encoder_vision_model_encoder_layers_2_mlp_fc1_weight"} loc("p352.2081"), %arg353: tensor<1280xbf16> {ttcore.argument_type = #ttcore.argument_type<parameter>, ttcore.shard_status = #ttcore.shard_status<unsharded>, ttir.name = "l__self___image_encoder_vision_model_encoder_layers_2_layer_norm2_bias"} loc("p353.2087"), %arg354: tensor<1280xbf16> {ttcore.argument_type = #ttcore.argument_type<parameter>, ttcore.shard_status = #ttcore.shard_status<unsharded>, ttir.name = "l__self___image_encoder_vision_model_encoder_layers_2_layer_norm2_weight"} loc("p354.2092"), %arg355: tensor<1280xbf16> {ttcore.argument_type = #ttcore.argument_type<parameter>, ttcore.shard_status = #ttcore.shard_status<unsharded>, ttir.name = "l__self___image_encoder_vision_model_encoder_layers_2_self_attn_out_proj_bias"} loc("p355.2101"), %arg356: tensor<1280x1280xbf16> {ttcore.argument_type = #ttcore.argument_type<parameter>, ttcore.shard_status = #ttcore.shard_status<unsharded>, ttir.name = "l__self___image_encoder_vision_model_encoder_layers_2_self_attn_out_proj_weight"} loc("p356.2105"), %arg357: tensor<1280xbf16> {ttcore.argument_type = #ttcore.argument_type<parameter>, ttcore.shard_status = #ttcore.shard_status<unsharded>, ttir.name = "l__self___image_encoder_vision_model_encoder_layers_2_self_attn_v_proj_bias"} loc("p357.2111"), %arg358: tensor<1280x1280xbf16> {ttcore.argument_type = #ttcore.argument_type<parameter>, ttcore.shard_status = #ttcore.shard_status<unsharded>, ttir.name = "l__self___image_encoder_vision_model_encoder_layers_2_self_attn_v_proj_weight"} loc("p358.2115"), %arg359: tensor<1280xbf16> {ttcore.argument_type = #ttcore.argument_type<parameter>, ttcore.shard_status = #ttcore.shard_status<unsharded>, ttir.name = "l__self___image_encoder_vision_model_encoder_layers_2_layer_norm1_bias"} loc("p359.2121"), %arg360: tensor<1280xbf16> {ttcore.argument_type = #ttcore.argument_type<parameter>, ttcore.shard_status = #ttcore.shard_status<unsharded>, ttir.name = "l__self___image_encoder_vision_model_encoder_layers_2_layer_norm1_weight"} loc("p360.2126"), %arg361: tensor<1280xbf16> {ttcore.argument_type = #ttcore.argument_type<parameter>, ttcore.shard_status = #ttcore.shard_status<unsharded>, ttir.name = "l__self___image_encoder_vision_model_encoder_layers_1_mlp_fc2_bias"} loc("p361.2135"), %arg362: tensor<1280x5120xbf16> {ttcore.argument_type = #ttcore.argument_type<parameter>, ttcore.shard_status = #ttcore.shard_status<unsharded>, ttir.name = "l__self___image_encoder_vision_model_encoder_layers_1_mlp_fc2_weight"} loc("p362.2139"), %arg363: tensor<5120xbf16> {ttcore.argument_type = #ttcore.argument_type<parameter>, ttcore.shard_status = #ttcore.shard_status<unsharded>, ttir.name = "l__self___image_encoder_vision_model_encoder_layers_1_mlp_fc1_bias"} loc("p363.2145"), %arg364: tensor<5120x1280xbf16> {ttcore.argument_type = #ttcore.argument_type<parameter>, ttcore.shard_status = #ttcore.shard_status<unsharded>, ttir.name = "l__self___image_encoder_vision_model_encoder_layers_1_mlp_fc1_weight"} loc("p364.2149"), %arg365: tensor<1280xbf16> {ttcore.argument_type = #ttcore.argument_type<parameter>, ttcore.shard_status = #ttcore.shard_status<unsharded>, ttir.name = "l__self___image_encoder_vision_model_encoder_layers_1_layer_norm2_bias"} loc("p365.2155"), %arg366: tensor<1280xbf16> {ttcore.argument_type = #ttcore.argument_type<parameter>, ttcore.shard_status = #ttcore.shard_status<unsharded>, ttir.name = "l__self___image_encoder_vision_model_encoder_layers_1_layer_norm2_weight"} loc("p366.2160"), %arg367: tensor<1280xbf16> {ttcore.argument_type = #ttcore.argument_type<parameter>, ttcore.shard_status = #ttcore.shard_status<unsharded>, ttir.name = "l__self___image_encoder_vision_model_encoder_layers_1_self_attn_out_proj_bias"} loc("p367.2169"), %arg368: tensor<1280x1280xbf16> {ttcore.argument_type = #ttcore.argument_type<parameter>, ttcore.shard_status = #ttcore.shard_status<unsharded>, ttir.name = "l__self___image_encoder_vision_model_encoder_layers_1_self_attn_out_proj_weight"} loc("p368.2173"), %arg369: tensor<1280xbf16> {ttcore.argument_type = #ttcore.argument_type<parameter>, ttcore.shard_status = #ttcore.shard_status<unsharded>, ttir.name = "l__self___image_encoder_vision_model_encoder_layers_1_self_attn_v_proj_bias"} loc("p369.2179"), %arg370: tensor<1280x1280xbf16> {ttcore.argument_type = #ttcore.argument_type<parameter>, ttcore.shard_status = #ttcore.shard_status<unsharded>, ttir.name = "l__self___image_encoder_vision_model_encoder_layers_1_self_attn_v_proj_weight"} loc("p370.2183"), %arg371: tensor<1280xbf16> {ttcore.argument_type = #ttcore.argument_type<parameter>, ttcore.shard_status = #ttcore.shard_status<unsharded>, ttir.name = "l__self___image_encoder_vision_model_encoder_layers_1_layer_norm1_bias"} loc("p371.2189"), %arg372: tensor<1280xbf16> {ttcore.argument_type = #ttcore.argument_type<parameter>, ttcore.shard_status = #ttcore.shard_status<unsharded>, ttir.name = "l__self___image_encoder_vision_model_encoder_layers_1_layer_norm1_weight"} loc("p372.2194"), %arg373: tensor<1280xbf16> {ttcore.argument_type = #ttcore.argument_type<parameter>, ttcore.shard_status = #ttcore.shard_status<unsharded>, ttir.name = "l__self___image_encoder_vision_model_encoder_layers_0_mlp_fc2_bias"} loc("p373.2203"), %arg374: tensor<1280x5120xbf16> {ttcore.argument_type = #ttcore.argument_type<parameter>, ttcore.shard_status = #ttcore.shard_status<unsharded>, ttir.name = "l__self___image_encoder_vision_model_encoder_layers_0_mlp_fc2_weight"} loc("p374.2207"), %arg375: tensor<5120xbf16> {ttcore.argument_type = #ttcore.argument_type<parameter>, ttcore.shard_status = #ttcore.shard_status<unsharded>, ttir.name = "l__self___image_encoder_vision_model_encoder_layers_0_mlp_fc1_bias"} loc("p375.2213"), %arg376: tensor<5120x1280xbf16> {ttcore.argument_type = #ttcore.argument_type<parameter>, ttcore.shard_status = #ttcore.shard_status<unsharded>, ttir.name = "l__self___image_encoder_vision_model_encoder_layers_0_mlp_fc1_weight"} loc("p376.2217"), %arg377: tensor<1280xbf16> {ttcore.argument_type = #ttcore.argument_type<parameter>, ttcore.shard_status = #ttcore.shard_status<unsharded>, ttir.name = "l__self___image_encoder_vision_model_encoder_layers_0_layer_norm2_bias"} loc("p377.2223"), %arg378: tensor<1280xbf16> {ttcore.argument_type = #ttcore.argument_type<parameter>, ttcore.shard_status = #ttcore.shard_status<unsharded>, ttir.name = "l__self___image_encoder_vision_model_encoder_layers_0_layer_norm2_weight"} loc("p378.2228"), %arg379: tensor<1280xbf16> {ttcore.argument_type = #ttcore.argument_type<parameter>, ttcore.shard_status = #ttcore.shard_status<unsharded>, ttir.name = "l__self___image_encoder_vision_model_encoder_layers_0_self_attn_out_proj_bias"} loc("p379.2237"), %arg380: tensor<1280x1280xbf16> {ttcore.argument_type = #ttcore.argument_type<parameter>, ttcore.shard_status = #ttcore.shard_status<unsharded>, ttir.name = "l__self___image_encoder_vision_model_encoder_layers_0_self_attn_out_proj_weight"} loc("p380.2241"), %arg381: tensor<1280xbf16> {ttcore.argument_type = #ttcore.argument_type<parameter>, ttcore.shard_status = #ttcore.shard_status<unsharded>, ttir.name = "l__self___image_encoder_vision_model_encoder_layers_0_self_attn_v_proj_bias"} loc("p381.2247"), %arg382: tensor<1280x1280xbf16> {ttcore.argument_type = #ttcore.argument_type<parameter>, ttcore.shard_status = #ttcore.shard_status<unsharded>, ttir.name = "l__self___image_encoder_vision_model_encoder_layers_0_self_attn_v_proj_weight"} loc("p382.2251"), %arg383: tensor<1280xbf16> {ttcore.argument_type = #ttcore.argument_type<parameter>, ttcore.shard_status = #ttcore.shard_status<unsharded>, ttir.name = "l__self___image_encoder_vision_model_encoder_layers_0_layer_norm1_bias"} loc("p383.2257"), %arg384: tensor<1280xbf16> {ttcore.argument_type = #ttcore.argument_type<parameter>, ttcore.shard_status = #ttcore.shard_status<unsharded>, ttir.name = "l__self___image_encoder_vision_model_encoder_layers_0_layer_norm1_weight"} loc("p384.2262"), %arg385: tensor<1280xbf16> {ttcore.argument_type = #ttcore.argument_type<parameter>, ttcore.shard_status = #ttcore.shard_status<unsharded>, ttir.name = "l__self___image_encoder_vision_model_pre_layrnorm_bias"} loc("p385.2270"), %arg386: tensor<1280xbf16> {ttcore.argument_type = #ttcore.argument_type<parameter>, ttcore.shard_status = #ttcore.shard_status<unsharded>, ttir.name = "l__self___image_encoder_vision_model_pre_layrnorm_weight"} loc("p386.2275"), %arg387: tensor<1x257xi64> {ttcore.argument_type = #ttcore.argument_type<constant>, ttcore.shard_status = #ttcore.shard_status<unsharded>, ttir.name = "l__self___image_encoder_vision_model_embeddings_position_ids"} loc("p387.2283"), %arg388: tensor<257x1280xbf16> {ttcore.argument_type = #ttcore.argument_type<parameter>, ttcore.shard_status = #ttcore.shard_status<unsharded>, ttir.name = "l__self___image_encoder_vision_model_embeddings_position_embedding_weight"} loc("p388.2288"), %arg389: tensor<1280x3x14x14xbf16> {ttcore.argument_type = #ttcore.argument_type<parameter>, ttcore.shard_status = #ttcore.shard_status<unsharded>, ttir.name = "l__self___image_encoder_vision_model_embeddings_patch_embedding_weight"} loc("p389.2295"), %arg390: tensor<1x3x224x224xbf16> {ttcore.argument_type = #ttcore.argument_type<input>, ttcore.shard_status = #ttcore.shard_status<unsharded>, ttir.name = "args_0"} loc("p390.2297"), %arg391: tensor<1280xbf16> {ttcore.argument_type = #ttcore.argument_type<parameter>, ttcore.shard_status = #ttcore.shard_status<unsharded>, ttir.name = "l__self___image_encoder_vision_model_embeddings_class_embedding"} loc("p391.2302"), %arg392: tensor<1280xbf16> {ttcore.argument_type = #ttcore.argument_type<parameter>, ttcore.shard_status = #ttcore.shard_status<unsharded>, ttir.name = "l__self___image_encoder_vision_model_encoder_layers_0_self_attn_k_proj_bias"} loc("p392.2478"), %arg393: tensor<1280x1280xbf16> {ttcore.argument_type = #ttcore.argument_type<parameter>, ttcore.shard_status = #ttcore.shard_status<unsharded>, ttir.name = "l__self___image_encoder_vision_model_encoder_layers_0_self_attn_k_proj_weight"} loc("p393.2482"), %arg394: tensor<1280xbf16> {ttcore.argument_type = #ttcore.argument_type<parameter>, ttcore.shard_status = #ttcore.shard_status<unsharded>, ttir.name = "l__self___image_encoder_vision_model_encoder_layers_0_self_attn_q_proj_bias"} loc("p394.2502"), %arg395: tensor<1280x1280xbf16> {ttcore.argument_type = #ttcore.argument_type<parameter>, ttcore.shard_status = #ttcore.shard_status<unsharded>, ttir.name = "l__self___image_encoder_vision_model_encoder_layers_0_self_attn_q_proj_weight"} loc("p395.2506"), %arg396: tensor<1280xbf16> {ttcore.argument_type = #ttcore.argument_type<parameter>, ttcore.shard_status = #ttcore.shard_status<unsharded>, ttir.name = "l__self___image_encoder_vision_model_encoder_layers_1_self_attn_k_proj_bias"} loc("p396.2788"), %arg397: tensor<1280x1280xbf16> {ttcore.argument_type = #ttcore.argument_type<parameter>, ttcore.shard_status = #ttcore.shard_status<unsharded>, ttir.name = "l__self___image_encoder_vision_model_encoder_layers_1_self_attn_k_proj_weight"} loc("p397.2792"), %arg398: tensor<1280xbf16> {ttcore.argument_type = #ttcore.argument_type<parameter>, ttcore.shard_status = #ttcore.shard_status<unsharded>, ttir.name = "l__self___image_encoder_vision_model_encoder_layers_1_self_attn_q_proj_bias"} loc("p398.2812"), %arg399: tensor<1280x1280xbf16> {ttcore.argument_type = #ttcore.argument_type<parameter>, ttcore.shard_status = #ttcore.shard_status<unsharded>, ttir.name = "l__self___image_encoder_vision_model_encoder_layers_1_self_attn_q_proj_weight"} loc("p399.2816"), %arg400: tensor<1280xbf16> {ttcore.argument_type = #ttcore.argument_type<parameter>, ttcore.shard_status = #ttcore.shard_status<unsharded>, ttir.name = "l__self___image_encoder_vision_model_encoder_layers_2_self_attn_k_proj_bias"} loc("p400.3098"), %arg401: tensor<1280x1280xbf16> {ttcore.argument_type = #ttcore.argument_type<parameter>, ttcore.shard_status = #ttcore.shard_status<unsharded>, ttir.name = "l__self___image_encoder_vision_model_encoder_layers_2_self_attn_k_proj_weight"} loc("p401.3102"), %arg402: tensor<1280xbf16> {ttcore.argument_type = #ttcore.argument_type<parameter>, ttcore.shard_status = #ttcore.shard_status<unsharded>, ttir.name = "l__self___image_encoder_vision_model_encoder_layers_2_self_attn_q_proj_bias"} loc("p402.3122"), %arg403: tensor<1280x1280xbf16> {ttcore.argument_type = #ttcore.argument_type<parameter>, ttcore.shard_status = #ttcore.shard_status<unsharded>, ttir.name = "l__self___image_encoder_vision_model_encoder_layers_2_self_attn_q_proj_weight"} loc("p403.3126"), %arg404: tensor<1280xbf16> {ttcore.argument_type = #ttcore.argument_type<parameter>, ttcore.shard_status = #ttcore.shard_status<unsharded>, ttir.name = "l__self___image_encoder_vision_model_encoder_layers_3_self_attn_k_proj_bias"} loc("p404.3408"), %arg405: tensor<1280x1280xbf16> {ttcore.argument_type = #ttcore.argument_type<parameter>, ttcore.shard_status = #ttcore.shard_status<unsharded>, ttir.name = "l__self___image_encoder_vision_model_encoder_layers_3_self_attn_k_proj_weight"} loc("p405.3412"), %arg406: tensor<1280xbf16> {ttcore.argument_type = #ttcore.argument_type<parameter>, ttcore.shard_status = #ttcore.shard_status<unsharded>, ttir.name = "l__self___image_encoder_vision_model_encoder_layers_3_self_attn_q_proj_bias"} loc("p406.3432"), %arg407: tensor<1280x1280xbf16> {ttcore.argument_type = #ttcore.argument_type<parameter>, ttcore.shard_status = #ttcore.shard_status<unsharded>, ttir.name = "l__self___image_encoder_vision_model_encoder_layers_3_self_attn_q_proj_weight"} loc("p407.3436"), %arg408: tensor<1280xbf16> {ttcore.argument_type = #ttcore.argument_type<parameter>, ttcore.shard_status = #ttcore.shard_status<unsharded>, ttir.name = "l__self___image_encoder_vision_model_encoder_layers_4_self_attn_k_proj_bias"} loc("p408.3718"), %arg409: tensor<1280x1280xbf16> {ttcore.argument_type = #ttcore.argument_type<parameter>, ttcore.shard_status = #ttcore.shard_status<unsharded>, ttir.name = "l__self___image_encoder_vision_model_encoder_layers_4_self_attn_k_proj_weight"} loc("p409.3722"), %arg410: tensor<1280xbf16> {ttcore.argument_type = #ttcore.argument_type<parameter>, ttcore.shard_status = #ttcore.shard_status<unsharded>, ttir.name = "l__self___image_encoder_vision_model_encoder_layers_4_self_attn_q_proj_bias"} loc("p410.3742"), %arg411: tensor<1280x1280xbf16> {ttcore.argument_type = #ttcore.argument_type<parameter>, ttcore.shard_status = #ttcore.shard_status<unsharded>, ttir.name = "l__self___image_encoder_vision_model_encoder_layers_4_self_attn_q_proj_weight"} loc("p411.3746"), %arg412: tensor<1280xbf16> {ttcore.argument_type = #ttcore.argument_type<parameter>, ttcore.shard_status = #ttcore.shard_status<unsharded>, ttir.name = "l__self___image_encoder_vision_model_encoder_layers_5_self_attn_k_proj_bias"} loc("p412.4028"), %arg413: tensor<1280x1280xbf16> {ttcore.argument_type = #ttcore.argument_type<parameter>, ttcore.shard_status = #ttcore.shard_status<unsharded>, ttir.name = "l__self___image_encoder_vision_model_encoder_layers_5_self_attn_k_proj_weight"} loc("p413.4032"), %arg414: tensor<1280xbf16> {ttcore.argument_type = #ttcore.argument_type<parameter>, ttcore.shard_status = #ttcore.shard_status<unsharded>, ttir.name = "l__self___image_encoder_vision_model_encoder_layers_5_self_attn_q_proj_bias"} loc("p414.4052"), %arg415: tensor<1280x1280xbf16> {ttcore.argument_type = #ttcore.argument_type<parameter>, ttcore.shard_status = #ttcore.shard_status<unsharded>, ttir.name = "l__self___image_encoder_vision_model_encoder_layers_5_self_attn_q_proj_weight"} loc("p415.4056"), %arg416: tensor<1280xbf16> {ttcore.argument_type = #ttcore.argument_type<parameter>, ttcore.shard_status = #ttcore.shard_status<unsharded>, ttir.name = "l__self___image_encoder_vision_model_encoder_layers_6_self_attn_k_proj_bias"} loc("p416.4338"), %arg417: tensor<1280x1280xbf16> {ttcore.argument_type = #ttcore.argument_type<parameter>, ttcore.shard_status = #ttcore.shard_status<unsharded>, ttir.name = "l__self___image_encoder_vision_model_encoder_layers_6_self_attn_k_proj_weight"} loc("p417.4342"), %arg418: tensor<1280xbf16> {ttcore.argument_type = #ttcore.argument_type<parameter>, ttcore.shard_status = #ttcore.shard_status<unsharded>, ttir.name = "l__self___image_encoder_vision_model_encoder_layers_6_self_attn_q_proj_bias"} loc("p418.4362"), %arg419: tensor<1280x1280xbf16> {ttcore.argument_type = #ttcore.argument_type<parameter>, ttcore.shard_status = #ttcore.shard_status<unsharded>, ttir.name = "l__self___image_encoder_vision_model_encoder_layers_6_self_attn_q_proj_weight"} loc("p419.4366"), %arg420: tensor<1280xbf16> {ttcore.argument_type = #ttcore.argument_type<parameter>, ttcore.shard_status = #ttcore.shard_status<unsharded>, ttir.name = "l__self___image_encoder_vision_model_encoder_layers_7_self_attn_k_proj_bias"} loc("p420.4648"), %arg421: tensor<1280x1280xbf16> {ttcore.argument_type = #ttcore.argument_type<parameter>, ttcore.shard_status = #ttcore.shard_status<unsharded>, ttir.name = "l__self___image_encoder_vision_model_encoder_layers_7_self_attn_k_proj_weight"} loc("p421.4652"), %arg422: tensor<1280xbf16> {ttcore.argument_type = #ttcore.argument_type<parameter>, ttcore.shard_status = #ttcore.shard_status<unsharded>, ttir.name = "l__self___image_encoder_vision_model_encoder_layers_7_self_attn_q_proj_bias"} loc("p422.4672"), %arg423: tensor<1280x1280xbf16> {ttcore.argument_type = #ttcore.argument_type<parameter>, ttcore.shard_status = #ttcore.shard_status<unsharded>, ttir.name = "l__self___image_encoder_vision_model_encoder_layers_7_self_attn_q_proj_weight"} loc("p423.4676"), %arg424: tensor<1280xbf16> {ttcore.argument_type = #ttcore.argument_type<parameter>, ttcore.shard_status = #ttcore.shard_status<unsharded>, ttir.name = "l__self___image_encoder_vision_model_encoder_layers_8_self_attn_k_proj_bias"} loc("p424.4958"), %arg425: tensor<1280x1280xbf16> {ttcore.argument_type = #ttcore.argument_type<parameter>, ttcore.shard_status = #ttcore.shard_status<unsharded>, ttir.name = "l__self___image_encoder_vision_model_encoder_layers_8_self_attn_k_proj_weight"} loc("p425.4962"), %arg426: tensor<1280xbf16> {ttcore.argument_type = #ttcore.argument_type<parameter>, ttcore.shard_status = #ttcore.shard_status<unsharded>, ttir.name = "l__self___image_encoder_vision_model_encoder_layers_8_self_attn_q_proj_bias"} loc("p426.4982"), %arg427: tensor<1280x1280xbf16> {ttcore.argument_type = #ttcore.argument_type<parameter>, ttcore.shard_status = #ttcore.shard_status<unsharded>, ttir.name = "l__self___image_encoder_vision_model_encoder_layers_8_self_attn_q_proj_weight"} loc("p427.4986"), %arg428: tensor<1280xbf16> {ttcore.argument_type = #ttcore.argument_type<parameter>, ttcore.shard_status = #ttcore.shard_status<unsharded>, ttir.name = "l__self___image_encoder_vision_model_encoder_layers_9_self_attn_k_proj_bias"} loc("p428.5268"), %arg429: tensor<1280x1280xbf16> {ttcore.argument_type = #ttcore.argument_type<parameter>, ttcore.shard_status = #ttcore.shard_status<unsharded>, ttir.name = "l__self___image_encoder_vision_model_encoder_layers_9_self_attn_k_proj_weight"} loc("p429.5272"), %arg430: tensor<1280xbf16> {ttcore.argument_type = #ttcore.argument_type<parameter>, ttcore.shard_status = #ttcore.shard_status<unsharded>, ttir.name = "l__self___image_encoder_vision_model_encoder_layers_9_self_attn_q_proj_bias"} loc("p430.5292"), %arg431: tensor<1280x1280xbf16> {ttcore.argument_type = #ttcore.argument_type<parameter>, ttcore.shard_status = #ttcore.shard_status<unsharded>, ttir.name = "l__self___image_encoder_vision_model_encoder_layers_9_self_attn_q_proj_weight"} loc("p431.5296"), %arg432: tensor<1280xbf16> {ttcore.argument_type = #ttcore.argument_type<parameter>, ttcore.shard_status = #ttcore.shard_status<unsharded>, ttir.name = "l__self___image_encoder_vision_model_encoder_layers_10_self_attn_k_proj_bias"} loc("p432.5578"), %arg433: tensor<1280x1280xbf16> {ttcore.argument_type = #ttcore.argument_type<parameter>, ttcore.shard_status = #ttcore.shard_status<unsharded>, ttir.name = "l__self___image_encoder_vision_model_encoder_layers_10_self_attn_k_proj_weight"} loc("p433.5582"), %arg434: tensor<1280xbf16> {ttcore.argument_type = #ttcore.argument_type<parameter>, ttcore.shard_status = #ttcore.shard_status<unsharded>, ttir.name = "l__self___image_encoder_vision_model_encoder_layers_10_self_attn_q_proj_bias"} loc("p434.5602"), %arg435: tensor<1280x1280xbf16> {ttcore.argument_type = #ttcore.argument_type<parameter>, ttcore.shard_status = #ttcore.shard_status<unsharded>, ttir.name = "l__self___image_encoder_vision_model_encoder_layers_10_self_attn_q_proj_weight"} loc("p435.5606"), %arg436: tensor<1280xbf16> {ttcore.argument_type = #ttcore.argument_type<parameter>, ttcore.shard_status = #ttcore.shard_status<unsharded>, ttir.name = "l__self___image_encoder_vision_model_encoder_layers_11_self_attn_k_proj_bias"} loc("p436.5888"), %arg437: tensor<1280x1280xbf16> {ttcore.argument_type = #ttcore.argument_type<parameter>, ttcore.shard_status = #ttcore.shard_status<unsharded>, ttir.name = "l__self___image_encoder_vision_model_encoder_layers_11_self_attn_k_proj_weight"} loc("p437.5892"), %arg438: tensor<1280xbf16> {ttcore.argument_type = #ttcore.argument_type<parameter>, ttcore.shard_status = #ttcore.shard_status<unsharded>, ttir.name = "l__self___image_encoder_vision_model_encoder_layers_11_self_attn_q_proj_bias"} loc("p438.5912"), %arg439: tensor<1280x1280xbf16> {ttcore.argument_type = #ttcore.argument_type<parameter>, ttcore.shard_status = #ttcore.shard_status<unsharded>, ttir.name = "l__self___image_encoder_vision_model_encoder_layers_11_self_attn_q_proj_weight"} loc("p439.5916"), %arg440: tensor<1280xbf16> {ttcore.argument_type = #ttcore.argument_type<parameter>, ttcore.shard_status = #ttcore.shard_status<unsharded>, ttir.name = "l__self___image_encoder_vision_model_encoder_layers_12_self_attn_k_proj_bias"} loc("p440.6198"), %arg441: tensor<1280x1280xbf16> {ttcore.argument_type = #ttcore.argument_type<parameter>, ttcore.shard_status = #ttcore.shard_status<unsharded>, ttir.name = "l__self___image_encoder_vision_model_encoder_layers_12_self_attn_k_proj_weight"} loc("p441.6202"), %arg442: tensor<1280xbf16> {ttcore.argument_type = #ttcore.argument_type<parameter>, ttcore.shard_status = #ttcore.shard_status<unsharded>, ttir.name = "l__self___image_encoder_vision_model_encoder_layers_12_self_attn_q_proj_bias"} loc("p442.6222"), %arg443: tensor<1280x1280xbf16> {ttcore.argument_type = #ttcore.argument_type<parameter>, ttcore.shard_status = #ttcore.shard_status<unsharded>, ttir.name = "l__self___image_encoder_vision_model_encoder_layers_12_self_attn_q_proj_weight"} loc("p443.6226"), %arg444: tensor<1280xbf16> {ttcore.argument_type = #ttcore.argument_type<parameter>, ttcore.shard_status = #ttcore.shard_status<unsharded>, ttir.name = "l__self___image_encoder_vision_model_encoder_layers_13_self_attn_k_proj_bias"} loc("p444.6508"), %arg445: tensor<1280x1280xbf16> {ttcore.argument_type = #ttcore.argument_type<parameter>, ttcore.shard_status = #ttcore.shard_status<unsharded>, ttir.name = "l__self___image_encoder_vision_model_encoder_layers_13_self_attn_k_proj_weight"} loc("p445.6512"), %arg446: tensor<1280xbf16> {ttcore.argument_type = #ttcore.argument_type<parameter>, ttcore.shard_status = #ttcore.shard_status<unsharded>, ttir.name = "l__self___image_encoder_vision_model_encoder_layers_13_self_attn_q_proj_bias"} loc("p446.6532"), %arg447: tensor<1280x1280xbf16> {ttcore.argument_type = #ttcore.argument_type<parameter>, ttcore.shard_status = #ttcore.shard_status<unsharded>, ttir.name = "l__self___image_encoder_vision_model_encoder_layers_13_self_attn_q_proj_weight"} loc("p447.6536"), %arg448: tensor<1280xbf16> {ttcore.argument_type = #ttcore.argument_type<parameter>, ttcore.shard_status = #ttcore.shard_status<unsharded>, ttir.name = "l__self___image_encoder_vision_model_encoder_layers_14_self_attn_k_proj_bias"} loc("p448.6818"), %arg449: tensor<1280x1280xbf16> {ttcore.argument_type = #ttcore.argument_type<parameter>, ttcore.shard_status = #ttcore.shard_status<unsharded>, ttir.name = "l__self___image_encoder_vision_model_encoder_layers_14_self_attn_k_proj_weight"} loc("p449.6822"), %arg450: tensor<1280xbf16> {ttcore.argument_type = #ttcore.argument_type<parameter>, ttcore.shard_status = #ttcore.shard_status<unsharded>, ttir.name = "l__self___image_encoder_vision_model_encoder_layers_14_self_attn_q_proj_bias"} loc("p450.6842"), %arg451: tensor<1280x1280xbf16> {ttcore.argument_type = #ttcore.argument_type<parameter>, ttcore.shard_status = #ttcore.shard_status<unsharded>, ttir.name = "l__self___image_encoder_vision_model_encoder_layers_14_self_attn_q_proj_weight"} loc("p451.6846"), %arg452: tensor<1280xbf16> {ttcore.argument_type = #ttcore.argument_type<parameter>, ttcore.shard_status = #ttcore.shard_status<unsharded>, ttir.name = "l__self___image_encoder_vision_model_encoder_layers_15_self_attn_k_proj_bias"} loc("p452.7128"), %arg453: tensor<1280x1280xbf16> {ttcore.argument_type = #ttcore.argument_type<parameter>, ttcore.shard_status = #ttcore.shard_status<unsharded>, ttir.name = "l__self___image_encoder_vision_model_encoder_layers_15_self_attn_k_proj_weight"} loc("p453.7132"), %arg454: tensor<1280xbf16> {ttcore.argument_type = #ttcore.argument_type<parameter>, ttcore.shard_status = #ttcore.shard_status<unsharded>, ttir.name = "l__self___image_encoder_vision_model_encoder_layers_15_self_attn_q_proj_bias"} loc("p454.7152"), %arg455: tensor<1280x1280xbf16> {ttcore.argument_type = #ttcore.argument_type<parameter>, ttcore.shard_status = #ttcore.shard_status<unsharded>, ttir.name = "l__self___image_encoder_vision_model_encoder_layers_15_self_attn_q_proj_weight"} loc("p455.7156"), %arg456: tensor<1280xbf16> {ttcore.argument_type = #ttcore.argument_type<parameter>, ttcore.shard_status = #ttcore.shard_status<unsharded>, ttir.name = "l__self___image_encoder_vision_model_encoder_layers_16_self_attn_k_proj_bias"} loc("p456.7438"), %arg457: tensor<1280x1280xbf16> {ttcore.argument_type = #ttcore.argument_type<parameter>, ttcore.shard_status = #ttcore.shard_status<unsharded>, ttir.name = "l__self___image_encoder_vision_model_encoder_layers_16_self_attn_k_proj_weight"} loc("p457.7442"), %arg458: tensor<1280xbf16> {ttcore.argument_type = #ttcore.argument_type<parameter>, ttcore.shard_status = #ttcore.shard_status<unsharded>, ttir.name = "l__self___image_encoder_vision_model_encoder_layers_16_self_attn_q_proj_bias"} loc("p458.7462"), %arg459: tensor<1280x1280xbf16> {ttcore.argument_type = #ttcore.argument_type<parameter>, ttcore.shard_status = #ttcore.shard_status<unsharded>, ttir.name = "l__self___image_encoder_vision_model_encoder_layers_16_self_attn_q_proj_weight"} loc("p459.7466"), %arg460: tensor<1280xbf16> {ttcore.argument_type = #ttcore.argument_type<parameter>, ttcore.shard_status = #ttcore.shard_status<unsharded>, ttir.name = "l__self___image_encoder_vision_model_encoder_layers_17_self_attn_k_proj_bias"} loc("p460.7748"), %arg461: tensor<1280x1280xbf16> {ttcore.argument_type = #ttcore.argument_type<parameter>, ttcore.shard_status = #ttcore.shard_status<unsharded>, ttir.name = "l__self___image_encoder_vision_model_encoder_layers_17_self_attn_k_proj_weight"} loc("p461.7752"), %arg462: tensor<1280xbf16> {ttcore.argument_type = #ttcore.argument_type<parameter>, ttcore.shard_status = #ttcore.shard_status<unsharded>, ttir.name = "l__self___image_encoder_vision_model_encoder_layers_17_self_attn_q_proj_bias"} loc("p462.7772"), %arg463: tensor<1280x1280xbf16> {ttcore.argument_type = #ttcore.argument_type<parameter>, ttcore.shard_status = #ttcore.shard_status<unsharded>, ttir.name = "l__self___image_encoder_vision_model_encoder_layers_17_self_attn_q_proj_weight"} loc("p463.7776"), %arg464: tensor<1280xbf16> {ttcore.argument_type = #ttcore.argument_type<parameter>, ttcore.shard_status = #ttcore.shard_status<unsharded>, ttir.name = "l__self___image_encoder_vision_model_encoder_layers_18_self_attn_k_proj_bias"} loc("p464.8058"), %arg465: tensor<1280x1280xbf16> {ttcore.argument_type = #ttcore.argument_type<parameter>, ttcore.shard_status = #ttcore.shard_status<unsharded>, ttir.name = "l__self___image_encoder_vision_model_encoder_layers_18_self_attn_k_proj_weight"} loc("p465.8062"), %arg466: tensor<1280xbf16> {ttcore.argument_type = #ttcore.argument_type<parameter>, ttcore.shard_status = #ttcore.shard_status<unsharded>, ttir.name = "l__self___image_encoder_vision_model_encoder_layers_18_self_attn_q_proj_bias"} loc("p466.8082"), %arg467: tensor<1280x1280xbf16> {ttcore.argument_type = #ttcore.argument_type<parameter>, ttcore.shard_status = #ttcore.shard_status<unsharded>, ttir.name = "l__self___image_encoder_vision_model_encoder_layers_18_self_attn_q_proj_weight"} loc("p467.8086"), %arg468: tensor<1280xbf16> {ttcore.argument_type = #ttcore.argument_type<parameter>, ttcore.shard_status = #ttcore.shard_status<unsharded>, ttir.name = "l__self___image_encoder_vision_model_encoder_layers_19_self_attn_k_proj_bias"} loc("p468.8368"), %arg469: tensor<1280x1280xbf16> {ttcore.argument_type = #ttcore.argument_type<parameter>, ttcore.shard_status = #ttcore.shard_status<unsharded>, ttir.name = "l__self___image_encoder_vision_model_encoder_layers_19_self_attn_k_proj_weight"} loc("p469.8372"), %arg470: tensor<1280xbf16> {ttcore.argument_type = #ttcore.argument_type<parameter>, ttcore.shard_status = #ttcore.shard_status<unsharded>, ttir.name = "l__self___image_encoder_vision_model_encoder_layers_19_self_attn_q_proj_bias"} loc("p470.8392"), %arg471: tensor<1280x1280xbf16> {ttcore.argument_type = #ttcore.argument_type<parameter>, ttcore.shard_status = #ttcore.shard_status<unsharded>, ttir.name = "l__self___image_encoder_vision_model_encoder_layers_19_self_attn_q_proj_weight"} loc("p471.8396"), %arg472: tensor<1280xbf16> {ttcore.argument_type = #ttcore.argument_type<parameter>, ttcore.shard_status = #ttcore.shard_status<unsharded>, ttir.name = "l__self___image_encoder_vision_model_encoder_layers_20_self_attn_k_proj_bias"} loc("p472.8678"), %arg473: tensor<1280x1280xbf16> {ttcore.argument_type = #ttcore.argument_type<parameter>, ttcore.shard_status = #ttcore.shard_status<unsharded>, ttir.name = "l__self___image_encoder_vision_model_encoder_layers_20_self_attn_k_proj_weight"} loc("p473.8682"), %arg474: tensor<1280xbf16> {ttcore.argument_type = #ttcore.argument_type<parameter>, ttcore.shard_status = #ttcore.shard_status<unsharded>, ttir.name = "l__self___image_encoder_vision_model_encoder_layers_20_self_attn_q_proj_bias"} loc("p474.8702"), %arg475: tensor<1280x1280xbf16> {ttcore.argument_type = #ttcore.argument_type<parameter>, ttcore.shard_status = #ttcore.shard_status<unsharded>, ttir.name = "l__self___image_encoder_vision_model_encoder_layers_20_self_attn_q_proj_weight"} loc("p475.8706"), %arg476: tensor<1280xbf16> {ttcore.argument_type = #ttcore.argument_type<parameter>, ttcore.shard_status = #ttcore.shard_status<unsharded>, ttir.name = "l__self___image_encoder_vision_model_encoder_layers_21_self_attn_k_proj_bias"} loc("p476.8988"), %arg477: tensor<1280x1280xbf16> {ttcore.argument_type = #ttcore.argument_type<parameter>, ttcore.shard_status = #ttcore.shard_status<unsharded>, ttir.name = "l__self___image_encoder_vision_model_encoder_layers_21_self_attn_k_proj_weight"} loc("p477.8992"), %arg478: tensor<1280xbf16> {ttcore.argument_type = #ttcore.argument_type<parameter>, ttcore.shard_status = #ttcore.shard_status<unsharded>, ttir.name = "l__self___image_encoder_vision_model_encoder_layers_21_self_attn_q_proj_bias"} loc("p478.9012"), %arg479: tensor<1280x1280xbf16> {ttcore.argument_type = #ttcore.argument_type<parameter>, ttcore.shard_status = #ttcore.shard_status<unsharded>, ttir.name = "l__self___image_encoder_vision_model_encoder_layers_21_self_attn_q_proj_weight"} loc("p479.9016"), %arg480: tensor<1280xbf16> {ttcore.argument_type = #ttcore.argument_type<parameter>, ttcore.shard_status = #ttcore.shard_status<unsharded>, ttir.name = "l__self___image_encoder_vision_model_encoder_layers_22_self_attn_k_proj_bias"} loc("p480.9298"), %arg481: tensor<1280x1280xbf16> {ttcore.argument_type = #ttcore.argument_type<parameter>, ttcore.shard_status = #ttcore.shard_status<unsharded>, ttir.name = "l__self___image_encoder_vision_model_encoder_layers_22_self_attn_k_proj_weight"} loc("p481.9302"), %arg482: tensor<1280xbf16> {ttcore.argument_type = #ttcore.argument_type<parameter>, ttcore.shard_status = #ttcore.shard_status<unsharded>, ttir.name = "l__self___image_encoder_vision_model_encoder_layers_22_self_attn_q_proj_bias"} loc("p482.9322"), %arg483: tensor<1280x1280xbf16> {ttcore.argument_type = #ttcore.argument_type<parameter>, ttcore.shard_status = #ttcore.shard_status<unsharded>, ttir.name = "l__self___image_encoder_vision_model_encoder_layers_22_self_attn_q_proj_weight"} loc("p483.9326"), %arg484: tensor<1280xbf16> {ttcore.argument_type = #ttcore.argument_type<parameter>, ttcore.shard_status = #ttcore.shard_status<unsharded>, ttir.name = "l__self___image_encoder_vision_model_encoder_layers_23_self_attn_k_proj_bias"} loc("p484.9608"), %arg485: tensor<1280x1280xbf16> {ttcore.argument_type = #ttcore.argument_type<parameter>, ttcore.shard_status = #ttcore.shard_status<unsharded>, ttir.name = "l__self___image_encoder_vision_model_encoder_layers_23_self_attn_k_proj_weight"} loc("p485.9612"), %arg486: tensor<1280xbf16> {ttcore.argument_type = #ttcore.argument_type<parameter>, ttcore.shard_status = #ttcore.shard_status<unsharded>, ttir.name = "l__self___image_encoder_vision_model_encoder_layers_23_self_attn_q_proj_bias"} loc("p486.9632"), %arg487: tensor<1280x1280xbf16> {ttcore.argument_type = #ttcore.argument_type<parameter>, ttcore.shard_status = #ttcore.shard_status<unsharded>, ttir.name = "l__self___image_encoder_vision_model_encoder_layers_23_self_attn_q_proj_weight"} loc("p487.9636"), %arg488: tensor<1280xbf16> {ttcore.argument_type = #ttcore.argument_type<parameter>, ttcore.shard_status = #ttcore.shard_status<unsharded>, ttir.name = "l__self___image_encoder_vision_model_encoder_layers_24_self_attn_k_proj_bias"} loc("p488.9918"), %arg489: tensor<1280x1280xbf16> {ttcore.argument_type = #ttcore.argument_type<parameter>, ttcore.shard_status = #ttcore.shard_status<unsharded>, ttir.name = "l__self___image_encoder_vision_model_encoder_layers_24_self_attn_k_proj_weight"} loc("p489.9922"), %arg490: tensor<1280xbf16> {ttcore.argument_type = #ttcore.argument_type<parameter>, ttcore.shard_status = #ttcore.shard_status<unsharded>, ttir.name = "l__self___image_encoder_vision_model_encoder_layers_24_self_attn_q_proj_bias"} loc("p490.9942"), %arg491: tensor<1280x1280xbf16> {ttcore.argument_type = #ttcore.argument_type<parameter>, ttcore.shard_status = #ttcore.shard_status<unsharded>, ttir.name = "l__self___image_encoder_vision_model_encoder_layers_24_self_attn_q_proj_weight"} loc("p491.9946"), %arg492: tensor<1280xbf16> {ttcore.argument_type = #ttcore.argument_type<parameter>, ttcore.shard_status = #ttcore.shard_status<unsharded>, ttir.name = "l__self___image_encoder_vision_model_encoder_layers_25_self_attn_k_proj_bias"} loc("p492.10228"), %arg493: tensor<1280x1280xbf16> {ttcore.argument_type = #ttcore.argument_type<parameter>, ttcore.shard_status = #ttcore.shard_status<unsharded>, ttir.name = "l__self___image_encoder_vision_model_encoder_layers_25_self_attn_k_proj_weight"} loc("p493.10232"), %arg494: tensor<1280xbf16> {ttcore.argument_type = #ttcore.argument_type<parameter>, ttcore.shard_status = #ttcore.shard_status<unsharded>, ttir.name = "l__self___image_encoder_vision_model_encoder_layers_25_self_attn_q_proj_bias"} loc("p494.10252"), %arg495: tensor<1280x1280xbf16> {ttcore.argument_type = #ttcore.argument_type<parameter>, ttcore.shard_status = #ttcore.shard_status<unsharded>, ttir.name = "l__self___image_encoder_vision_model_encoder_layers_25_self_attn_q_proj_weight"} loc("p495.10256"), %arg496: tensor<1280xbf16> {ttcore.argument_type = #ttcore.argument_type<parameter>, ttcore.shard_status = #ttcore.shard_status<unsharded>, ttir.name = "l__self___image_encoder_vision_model_encoder_layers_26_self_attn_k_proj_bias"} loc("p496.10538"), %arg497: tensor<1280x1280xbf16> {ttcore.argument_type = #ttcore.argument_type<parameter>, ttcore.shard_status = #ttcore.shard_status<unsharded>, ttir.name = "l__self___image_encoder_vision_model_encoder_layers_26_self_attn_k_proj_weight"} loc("p497.10542"), %arg498: tensor<1280xbf16> {ttcore.argument_type = #ttcore.argument_type<parameter>, ttcore.shard_status = #ttcore.shard_status<unsharded>, ttir.name = "l__self___image_encoder_vision_model_encoder_layers_26_self_attn_q_proj_bias"} loc("p498.10562"), %arg499: tensor<1280x1280xbf16> {ttcore.argument_type = #ttcore.argument_type<parameter>, ttcore.shard_status = #ttcore.shard_status<unsharded>, ttir.name = "l__self___image_encoder_vision_model_encoder_layers_26_self_attn_q_proj_weight"} loc("p499.10566"), %arg500: tensor<1280xbf16> {ttcore.argument_type = #ttcore.argument_type<parameter>, ttcore.shard_status = #ttcore.shard_status<unsharded>, ttir.name = "l__self___image_encoder_vision_model_encoder_layers_27_self_attn_k_proj_bias"} loc("p500.10848"), %arg501: tensor<1280x1280xbf16> {ttcore.argument_type = #ttcore.argument_type<parameter>, ttcore.shard_status = #ttcore.shard_status<unsharded>, ttir.name = "l__self___image_encoder_vision_model_encoder_layers_27_self_attn_k_proj_weight"} loc("p501.10852"), %arg502: tensor<1280xbf16> {ttcore.argument_type = #ttcore.argument_type<parameter>, ttcore.shard_status = #ttcore.shard_status<unsharded>, ttir.name = "l__self___image_encoder_vision_model_encoder_layers_27_self_attn_q_proj_bias"} loc("p502.10872"), %arg503: tensor<1280x1280xbf16> {ttcore.argument_type = #ttcore.argument_type<parameter>, ttcore.shard_status = #ttcore.shard_status<unsharded>, ttir.name = "l__self___image_encoder_vision_model_encoder_layers_27_self_attn_q_proj_weight"} loc("p503.10876"), %arg504: tensor<1280xbf16> {ttcore.argument_type = #ttcore.argument_type<parameter>, ttcore.shard_status = #ttcore.shard_status<unsharded>, ttir.name = "l…
#loc4071 = loc("convert.13007")
#loc4072 = loc("transpose.13008")
#loc4073 = loc("reshape.13010")
#loc4074 = loc("reshape.12726")
#loc4075 = loc("reshape.12728")
#loc4076 = loc("transpose.12729")
#loc4077 = loc("dot.13011")
#loc4078 = loc("reshape.13012")
#loc4079 = loc("divide.13014")
#loc4080 = loc("add.13017")
#loc4081 = loc("reshape.13035")
#loc4082 = loc("reshape.13037")
#loc4083 = loc("reshape.13030")
#loc4084 = loc("reshape.13032")
#loc4085 = loc("custom-call.13117")
#loc4086 = loc("reshape.13118")
#loc4087 = loc("reshape.13024")
#loc4088 = loc("reshape.13026")
#loc4089 = loc("transpose.13027")
#loc4090 = loc("dot.13119")
#loc4091 = loc("reshape.13120")
#loc4092 = loc("custom-call.13133")
#loc4093 = loc("reshape.13134")
#loc4094 = loc("reshape.13019")
#loc4095 = loc("reshape.13021")
#loc4096 = loc("transpose.13022")
#loc4097 = loc("dot.13135")
#loc4098 = loc("reshape.13136")
#loc4099 = loc("add.13139")
#loc4100 = loc("reshape.13158")
#loc4101 = loc("reshape.13160")
#loc4102 = loc("reshape.13153")
#loc4103 = loc("reshape.13155")
#loc4104 = loc("custom-call.13240")
#loc4105 = loc("reshape.13359")
#loc4106 = loc("reshape.13355")
#loc4107 = loc("reshape.13357")
#loc4108 = loc("transpose.13358")
#loc4109 = loc("dot.13360")
#loc4110 = loc("reshape.13362")
#loc4111 = loc("transpose.13363")
#loc4112 = loc("convert.13364")
#loc4113 = loc("multiply.13366")
#loc4114 = loc("reshape.13248")
#loc4115 = loc("reshape.13250")
#loc4116 = loc("reshape.13243")
#loc4117 = loc("reshape.13245")
#loc4118 = loc("custom-call.13330")
#loc4119 = loc("concatenate.13331")
#loc4120 = loc("reshape.13344")
#loc4121 = loc("reshape.13340")
#loc4122 = loc("reshape.13342")
#loc4123 = loc("transpose.13343")
#loc4124 = loc("dot.13345")
#loc4125 = loc("reshape.13347")
#loc4126 = loc("transpose.13348")
#loc4127 = loc("convert.13349")
#loc4128 = loc("transpose.13350")
#loc4129 = loc("multiply.13352")
#loc4130 = loc("dot.13367")
#loc4131 = loc("convert.13394")
#loc4132 = loc("compare.13396")
#loc4133 = loc("not.13398")
#loc4135 = loc("or.13408")
#loc4136 = loc("select.13409")
#loc4137 = loc("reshape.13414")
#loc4138 = loc("not.13416")
#loc4139 = loc("reshape.13418")
#loc4140 = loc("broadcast.13419")
#loc4141 = loc("reduce.13374")
#loc4142 = loc("broadcast.13375")
#loc4143 = loc("subtract.13376")
#loc4144 = loc("exponential.13377")
#loc4145 = loc("reduce.13383")
#loc4146 = loc("broadcast.13384")
#loc4147 = loc("divide.13385")
#loc4148 = loc("select.13420")
#loc4149 = loc("reshape.13147")
#loc4150 = loc("reshape.13149")
#loc4151 = loc("transpose.13150")
#loc4152 = loc("dot.13333")
#loc4153 = loc("reshape.13335")
#loc4154 = loc("transpose.13336")
#loc4155 = loc("convert.13337")
#loc4156 = loc("dot.13421")
#loc4157 = loc("convert.13423")
#loc4158 = loc("transpose.13424")
#loc4159 = loc("reshape.13426")
#loc4160 = loc("reshape.13142")
#loc4161 = loc("reshape.13144")
#loc4162 = loc("transpose.13145")
#loc4163 = loc("dot.13427")
#loc4164 = loc("reshape.13428")
#loc4165 = loc("divide.13430")
#loc4166 = loc("add.13433")
#loc4167 = loc("reshape.13451")
#loc4168 = loc("reshape.13453")
#loc4169 = loc("reshape.13446")
#loc4170 = loc("reshape.13448")
#loc4171 = loc("custom-call.13533")
#loc4172 = loc("reshape.13534")
#loc4173 = loc("reshape.13440")
#loc4174 = loc("reshape.13442")
#loc4175 = loc("transpose.13443")
#loc4176 = loc("dot.13535")
#loc4177 = loc("reshape.13536")
#loc4178 = loc("custom-call.13549")
#loc4179 = loc("reshape.13550")
#loc4180 = loc("reshape.13435")
#loc4181 = loc("reshape.13437")
#loc4182 = loc("transpose.13438")
#loc4183 = loc("dot.13551")
#loc4184 = loc("reshape.13552")
#loc4185 = loc("add.13555")
#loc4186 = loc("reshape.13556")
#loc4187 = loc("reshape.20")
#loc4188 = loc("reshape.22")
#loc4189 = loc("transpose.23")
#loc4190 = loc("dot.13557")
#loc4191 = loc("reshape.13558")
#loc4192 = loc("reshape.16")
#loc4193 = loc("reshape.18")
#loc4194 = loc("broadcast.13561")
#loc4195 = loc("add.13562")
#loc4196 = loc("reshape.8")
#loc4197 = loc("reshape.10")
#loc4198 = loc("reshape.3")
#loc4199 = loc("reshape.5")
#loc4200 = loc("custom-call.13639")
#loc4204 = loc("reduce.13503")
#loc4205 = loc("multiply.13512")
#loc4206 = loc("broadcast.13522")
#loc4207 = loc("subtract.13523")
#loc4208 = loc("multiply.13479")
#loc4209 = loc("reduce.13486")
#loc4210 = loc("multiply.13495")
#loc4211 = loc("reshape.13496")
#loc4212 = loc("add.13516")
#loc4213 = loc("rsqrt.13517")
#loc4214 = loc("reshape.13524")
#loc4215 = loc("broadcast.13525")
#loc4216 = loc("multiply.13526")
#loc4217 = loc("broadcast.13527")
#loc4218 = loc("multiply.13528")
#loc4219 = loc("broadcast.13531")
#loc4220 = loc("add.13532")
#loc4224 = loc("reduce.13210")
#loc4225 = loc("multiply.13219")
#loc4226 = loc("broadcast.13229")
#loc4227 = loc("subtract.13230")
#loc4228 = loc("multiply.13186")
#loc4229 = loc("reduce.13193")
#loc4230 = loc("multiply.13202")
#loc4231 = loc("reshape.13203")
#loc4232 = loc("add.13223")
#loc4233 = loc("rsqrt.13224")
#loc4234 = loc("reshape.13231")
#loc4235 = loc("broadcast.13232")
#loc4236 = loc("multiply.13233")
#loc4237 = loc("broadcast.13234")
#loc4238 = loc("multiply.13235")
#loc4239 = loc("broadcast.13238")
#loc4240 = loc("add.13239")
#loc4244 = loc("reduce.12794")
#loc4245 = loc("multiply.12803")
#loc4246 = loc("broadcast.12813")
#loc4247 = loc("subtract.12814")
#loc4248 = loc("multiply.12770")
#loc4249 = loc("reduce.12777")
#loc4250 = loc("multiply.12786")
#loc4251 = loc("reshape.12787")
#loc4252 = loc("add.12807")
#loc4253 = loc("rsqrt.12808")
#loc4254 = loc("reshape.12815")
#loc4255 = loc("broadcast.12816")
#loc4256 = loc("multiply.12817")
#loc4257 = loc("broadcast.12818")
#loc4258 = loc("multiply.12819")
#loc4259 = loc("broadcast.12822")
#loc4260 = loc("add.12823")
#loc4264 = loc("reduce.12671")
#loc4265 = loc("multiply.12680")
#loc4266 = loc("broadcast.12690")
#loc4267 = loc("subtract.12691")
#loc4268 = loc("multiply.12647")
#loc4269 = loc("reduce.12654")
#loc4270 = loc("multiply.12663")
#loc4271 = loc("reshape.12664")
#loc4272 = loc("add.12684")
#loc4273 = loc("rsqrt.12685")
#loc4274 = loc("reshape.12692")
#loc4275 = loc("broadcast.12693")
#loc4276 = loc("multiply.12694")
#loc4277 = loc("broadcast.12695")
#loc4278 = loc("multiply.12696")
#loc4279 = loc("broadcast.12699")
#loc4280 = loc("add.12700")
#loc4284 = loc("reduce.12468")
#loc4285 = loc("multiply.12477")
#loc4286 = loc("broadcast.12487")
#loc4287 = loc("subtract.12488")
#loc4288 = loc("multiply.12444")
#loc4289 = loc("reduce.12451")
#loc4290 = loc("multiply.12460")
#loc4291 = loc("reshape.12461")
#loc4292 = loc("add.12481")
#loc4293 = loc("rsqrt.12482")
#loc4294 = loc("reshape.12489")
#loc4295 = loc("broadcast.12490")
#loc4296 = loc("multiply.12491")
#loc4297 = loc("broadcast.12492")
#loc4298 = loc("multiply.12493")
#loc4299 = loc("broadcast.12496")
#loc4300 = loc("add.12497")
#loc4304 = loc("reduce.13300")
#loc4305 = loc("multiply.13309")
#loc4306 = loc("broadcast.13319")
#loc4307 = loc("subtract.13320")
#loc4308 = loc("multiply.13276")
#loc4309 = loc("reduce.13283")
#loc4310 = loc("multiply.13292")
#loc4311 = loc("reshape.13293")
#loc4312 = loc("add.13313")
#loc4313 = loc("rsqrt.13314")
#loc4314 = loc("reshape.13321")
#loc4315 = loc("broadcast.13322")
#loc4316 = loc("multiply.13323")
#loc4317 = loc("broadcast.13324")
#loc4318 = loc("multiply.13325")
#loc4319 = loc("broadcast.13328")
#loc4320 = loc("add.13329")
#loc4324 = loc("reduce.12378")
#loc4325 = loc("multiply.12387")
#loc4326 = loc("broadcast.12397")
#loc4327 = loc("subtract.12398")
#loc4328 = loc("multiply.12354")
#loc4329 = loc("reduce.12361")
#loc4330 = loc("multiply.12370")
#loc4331 = loc("reshape.12371")
#loc4332 = loc("add.12391")
#loc4333 = loc("rsqrt.12392")
#loc4334 = loc("reshape.12399")
#loc4335 = loc("broadcast.12400")
#loc4336 = loc("multiply.12401")
#loc4337 = loc("broadcast.12402")
#loc4338 = loc("multiply.12403")
#loc4339 = loc("broadcast.12406")
#loc4340 = loc("add.12407")
#loc4342 = loc("multiply.12299")
#loc4343 = loc("multiply.12294")
#loc4344 = loc("erf.12295")
#loc4345 = loc("add.12297")
#loc4346 = loc("multiply.12300")
#loc4350 = loc("reduce.12052")
#loc4351 = loc("multiply.12061")
#loc4352 = loc("broadcast.12071")
#loc4353 = loc("subtract.12072")
#loc4354 = loc("multiply.12028")
#loc4355 = loc("reduce.12035")
#loc4356 = loc("multiply.12044")
#loc4357 = loc("reshape.12045")
#loc4358 = loc("add.12065")
#loc4359 = loc("rsqrt.12066")
#loc4360 = loc("reshape.12073")
#loc4361 = loc("broadcast.12074")
#loc4362 = loc("multiply.12075")
#loc4363 = loc("broadcast.12076")
#loc4364 = loc("multiply.12077")
#loc4365 = loc("broadcast.12080")
#loc4366 = loc("add.12081")
#loc4368 = loc("multiply.11986")
#loc4369 = loc("multiply.11981")
#loc4370 = loc("erf.11982")
#loc4371 = loc("add.11984")
#loc4372 = loc("multiply.11987")
#loc4374 = loc("multiply.11676")
#loc4375 = loc("multiply.11671")
#loc4376 = loc("erf.11672")
#loc4377 = loc("add.11674")
#loc4378 = loc("multiply.11677")
#loc4382 = loc("reduce.11628")
#loc4383 = loc("multiply.11637")
#loc4384 = loc("broadcast.11647")
#loc4385 = loc("subtract.11648")
#loc4386 = loc("multiply.11604")
#loc4387 = loc("reduce.11611")
#loc4388 = loc("multiply.11620")
#loc4389 = loc("reshape.11621")
#loc4390 = loc("add.11641")
#loc4391 = loc("rsqrt.11642")
#loc4392 = loc("reshape.11649")
#loc4393 = loc("broadcast.11650")
#loc4394 = loc("multiply.11651")
#loc4395 = loc("broadcast.11652")
#loc4396 = loc("multiply.11653")
#loc4397 = loc("broadcast.11656")
#loc4398 = loc("add.11657")
#loc4402 = loc("reduce.11425")
#loc4403 = loc("multiply.11434")
#loc4404 = loc("broadcast.11444")
#loc4405 = loc("subtract.11445")
#loc4406 = loc("multiply.11401")
#loc4407 = loc("reduce.11408")
#loc4408 = loc("multiply.11417")
#loc4409 = loc("reshape.11418")
#loc4410 = loc("add.11438")
#loc4411 = loc("rsqrt.11439")
#loc4412 = loc("reshape.11446")
#loc4413 = loc("broadcast.11447")
#loc4414 = loc("multiply.11448")
#loc4415 = loc("broadcast.11449")
#loc4416 = loc("multiply.11450")
#loc4417 = loc("broadcast.11453")
#loc4418 = loc("add.11454")
#loc4420 = loc("multiply.11366")
#loc4421 = loc("multiply.11361")
#loc4422 = loc("erf.11362")
#loc4423 = loc("add.11364")
#loc4424 = loc("multiply.11367")
#loc4426 = loc("multiply.11056")
#loc4427 = loc("multiply.11051")
#loc4428 = loc("erf.11052")
#loc4429 = loc("add.11054")
#loc4430 = loc("multiply.11057")
#loc4434 = loc("reduce.11008")
#loc4435 = loc("multiply.11017")
#loc4436 = loc("broadcast.11027")
#loc4437 = loc("subtract.11028")
#loc4438 = loc("multiply.10984")
#loc4439 = loc("reduce.10991")
#loc4440 = loc("multiply.11000")
#loc4441 = loc("reshape.11001")
#loc4442 = loc("add.11021")
#loc4443 = loc("rsqrt.11022")
#loc4444 = loc("reshape.11029")
#loc4445 = loc("broadcast.11030")
#loc4446 = loc("multiply.11031")
#loc4447 = loc("broadcast.11032")
#loc4448 = loc("multiply.11033")
#loc4449 = loc("broadcast.11036")
#loc4450 = loc("add.11037")
#loc4452 = loc("multiply.10746")
#loc4453 = loc("multiply.10741")
#loc4454 = loc("erf.10742")
#loc4455 = loc("add.10744")
#loc4456 = loc("multiply.10747")
#loc4460 = loc("reduce.10698")
#loc4461 = loc("multiply.10707")
#loc4462 = loc("broadcast.10717")
#loc4463 = loc("subtract.10718")
#loc4464 = loc("multiply.10674")
#loc4465 = loc("reduce.10681")
#loc4466 = loc("multiply.10690")
#loc4467 = loc("reshape.10691")
#loc4468 = loc("add.10711")
#loc4469 = loc("rsqrt.10712")
#loc4470 = loc("reshape.10719")
#loc4471 = loc("broadcast.10720")
#loc4472 = loc("multiply.10721")
#loc4473 = loc("broadcast.10722")
#loc4474 = loc("multiply.10723")
#loc4475 = loc("broadcast.10726")
#loc4476 = loc("add.10727")
#loc4480 = loc("reduce.13087")
#loc4481 = loc("multiply.13096")
#loc4482 = loc("broadcast.13106")
#loc4483 = loc("subtract.13107")
#loc4484 = loc("multiply.13063")
#loc4485 = loc("reduce.13070")
#loc4486 = loc("multiply.13079")
#loc4487 = loc("reshape.13080")
#loc4488 = loc("add.13100")
#loc4489 = loc("rsqrt.13101")
#loc4490 = loc("reshape.13108")
#loc4491 = loc("broadcast.13109")
#loc4492 = loc("multiply.13110")
#loc4493 = loc("broadcast.13111")
#loc4494 = loc("multiply.13112")
#loc4495 = loc("broadcast.13115")
#loc4496 = loc("add.13116")
#loc4500 = loc("reduce.10495")
#loc4501 = loc("multiply.10504")
#loc4502 = loc("broadcast.10514")
#loc4503 = loc("subtract.10515")
#loc4504 = loc("multiply.10471")
#loc4505 = loc("reduce.10478")
#loc4506 = loc("multiply.10487")
#loc4507 = loc("reshape.10488")
#loc4508 = loc("add.10508")
#loc4509 = loc("rsqrt.10509")
#loc4510 = loc("reshape.10516")
#loc4511 = loc("broadcast.10517")
#loc4512 = loc("multiply.10518")
#loc4513 = loc("broadcast.10519")
#loc4514 = loc("multiply.10520")
#loc4515 = loc("broadcast.10523")
#loc4516 = loc("add.10524")
#loc4518 = loc("multiply.10436")
#loc4519 = loc("multiply.10431")
#loc4520 = loc("erf.10432")
#loc4521 = loc("add.10434")
#loc4522 = loc("multiply.10437")
#loc4526 = loc("reduce.10388")
#loc4527 = loc("multiply.10397")
#loc4528 = loc("broadcast.10407")
#loc4529 = loc("subtract.10408")
#loc4530 = loc("multiply.10364")
#loc4531 = loc("reduce.10371")
#loc4532 = loc("multiply.10380")
#loc4533 = loc("reshape.10381")
#loc4534 = loc("add.10401")
#loc4535 = loc("rsqrt.10402")
#loc4536 = loc("reshape.10409")
#loc4537 = loc("broadcast.10410")
#loc4538 = loc("multiply.10411")
#loc4539 = loc("broadcast.10412")
#loc4540 = loc("multiply.10413")
#loc4541 = loc("broadcast.10416")
#loc4542 = loc("add.10417")
#loc4546 = loc("reduce.12884")
#loc4547 = loc("multiply.12893")
#loc4548 = loc("broadcast.12903")
#loc4549 = loc("subtract.12904")
#loc4550 = loc("multiply.12860")
#loc4551 = loc("reduce.12867")
#loc4552 = loc("multiply.12876")
#loc4553 = loc("reshape.12877")
#loc4554 = loc("add.12897")
#loc4555 = loc("rsqrt.12898")
#loc4556 = loc("reshape.12905")
#loc4557 = loc("broadcast.12906")
#loc4558 = loc("multiply.12907")
#loc4559 = loc("broadcast.12908")
#loc4560 = loc("multiply.12909")
#loc4561 = loc("broadcast.12912")
#loc4562 = loc("add.12913")
#loc4566 = loc("reduce.10185")
#loc4567 = loc("multiply.10194")
#loc4568 = loc("broadcast.10204")
#loc4569 = loc("subtract.10205")
#loc4570 = loc("multiply.10161")
#loc4571 = loc("reduce.10168")
#loc4572 = loc("multiply.10177")
#loc4573 = loc("reshape.10178")
#loc4574 = loc("add.10198")
#loc4575 = loc("rsqrt.10199")
#loc4576 = loc("reshape.10206")
#loc4577 = loc("broadcast.10207")
#loc4578 = loc("multiply.10208")
#loc4579 = loc("broadcast.10209")
#loc4580 = loc("multiply.10210")
#loc4581 = loc("broadcast.10213")
#loc4582 = loc("add.10214")
#loc4586 = loc("reduce.10078")
#loc4587 = loc("multiply.10087")
#loc4588 = loc("broadcast.10097")
#loc4589 = loc("subtract.10098")
#loc4590 = loc("multiply.10054")
#loc4591 = loc("reduce.10061")
#loc4592 = loc("multiply.10070")
#loc4593 = loc("reshape.10071")
#loc4594 = loc("add.10091")
#loc4595 = loc("rsqrt.10092")
#loc4596 = loc("reshape.10099")
#loc4597 = loc("broadcast.10100")
#loc4598 = loc("multiply.10101")
#loc4599 = loc("broadcast.10102")
#loc4600 = loc("multiply.10103")
#loc4601 = loc("broadcast.10106")
#loc4602 = loc("add.10107")
#loc4606 = loc("reduce.9768")
#loc4607 = loc("multiply.9777")
#loc4608 = loc("broadcast.9787")
#loc4609 = loc("subtract.9788")
#loc4610 = loc("multiply.9744")
#loc4611 = loc("reduce.9751")
#loc4612 = loc("multiply.9760")
#loc4613 = loc("reshape.9761")
#loc4614 = loc("add.9781")
#loc4615 = loc("rsqrt.9782")
#loc4616 = loc("reshape.9789")
#loc4617 = loc("broadcast.9790")
#loc4618 = loc("multiply.9791")
#loc4619 = loc("broadcast.9792")
#loc4620 = loc("multiply.9793")
#loc4621 = loc("broadcast.9796")
#loc4622 = loc("add.9797")
#loc4624 = loc("multiply.9506")
#loc4625 = loc("multiply.9501")
#loc4626 = loc("erf.9502")
#loc4627 = loc("add.9504")
#loc4628 = loc("multiply.9507")
#loc4632 = loc("reduce.8945")
#loc4633 = loc("multiply.8954")
#loc4634 = loc("broadcast.8964")
#loc4635 = loc("subtract.8965")
#loc4636 = loc("multiply.8921")
#loc4637 = loc("reduce.8928")
#loc4638 = loc("multiply.8937")
#loc4639 = loc("reshape.8938")
#loc4640 = loc("add.8958")
#loc4641 = loc("rsqrt.8959")
#loc4642 = loc("reshape.8966")
#loc4643 = loc("broadcast.8967")
#loc4644 = loc("multiply.8968")
#loc4645 = loc("broadcast.8969")
#loc4646 = loc("multiply.8970")
#loc4647 = loc("broadcast.8973")
#loc4648 = loc("add.8974")
#loc4650 = loc("multiply.8886")
#loc4651 = loc("multiply.8881")
#loc4652 = loc("erf.8882")
#loc4653 = loc("add.8884")
#loc4654 = loc("multiply.8887")
#loc4658 = loc("reduce.13609")
#loc4659 = loc("multiply.13618")
#loc4660 = loc("broadcast.13628")
#loc4661 = loc("subtract.13629")
#loc4662 = loc("multiply.13585")
#loc4663 = loc("reduce.13592")
#loc4664 = loc("multiply.13601")
#loc4665 = loc("reshape.13602")
#loc4666 = loc("add.13622")
#loc4667 = loc("rsqrt.13623")
#loc4668 = loc("reshape.13630")
#loc4669 = loc("broadcast.13631")
#loc4670 = loc("multiply.13632")
#loc4671 = loc("broadcast.13633")
#loc4672 = loc("multiply.13634")
#loc4673 = loc("broadcast.13637")
#loc4674 = loc("add.13638")
#loc4678 = loc("reduce.8635")
#loc4679 = loc("multiply.8644")
#loc4680 = loc("broadcast.8654")
#loc4681 = loc("subtract.8655")
#loc4682 = loc("multiply.8611")
#loc4683 = loc("reduce.8618")
#loc4684 = loc("multiply.8627")
#loc4685 = loc("reshape.8628")
#loc4686 = loc("add.8648")
#loc4687 = loc("rsqrt.8649")
#loc4688 = loc("reshape.8656")
#loc4689 = loc("broadcast.8657")
#loc4690 = loc("multiply.8658")
#loc4691 = loc("broadcast.8659")
#loc4692 = loc("multiply.8660")
#loc4693 = loc("broadcast.8663")
#loc4694 = loc("add.8664")
#loc4698 = loc("reduce.8528")
#loc4699 = loc("multiply.8537")
#loc4700 = loc("broadcast.8547")
#loc4701 = loc("subtract.8548")
#loc4702 = loc("multiply.8504")
#loc4703 = loc("reduce.8511")
#loc4704 = loc("multiply.8520")
#loc4705 = loc("reshape.8521")
#loc4706 = loc("add.8541")
#loc4707 = loc("rsqrt.8542")
#loc4708 = loc("reshape.8549")
#loc4709 = loc("broadcast.8550")
#loc4710 = loc("multiply.8551")
#loc4711 = loc("broadcast.8552")
#loc4712 = loc("multiply.8553")
#loc4713 = loc("broadcast.8556")
#loc4714 = loc("add.8557")
#loc4718 = loc("reduce.4808")
#loc4719 = loc("multiply.4817")
#loc4720 = loc("broadcast.4827")
#loc4721 = loc("subtract.4828")
#loc4722 = loc("multiply.4784")
#loc4723 = loc("reduce.4791")
#loc4724 = loc("multiply.4800")
#loc4725 = loc("reshape.4801")
#loc4726 = loc("add.4821")
#loc4727 = loc("rsqrt.4822")
#loc4728 = loc("reshape.4829")
#loc4729 = loc("broadcast.4830")
#loc4730 = loc("multiply.4831")
#loc4731 = loc("broadcast.4832")
#loc4732 = loc("multiply.4833")
#loc4733 = loc("broadcast.4836")
#loc4734 = loc("add.4837")
#loc4738 = loc("reduce.2358")
#loc4739 = loc("multiply.2367")
#loc4740 = loc("broadcast.2377")
#loc4741 = loc("subtract.2378")
#loc4742 = loc("multiply.2334")
#loc4743 = loc("reduce.2341")
#loc4744 = loc("multiply.2350")
#loc4745 = loc("reshape.2351")
#loc4746 = loc("add.2371")
#loc4747 = loc("rsqrt.2372")
#loc4748 = loc("reshape.2379")
#loc4749 = loc("broadcast.2380")
#loc4750 = loc("multiply.2381")
#loc4751 = loc("broadcast.2382")
#loc4752 = loc("multiply.2383")
#loc4753 = loc("broadcast.2386")
#loc4754 = loc("add.2387")
#loc4756 = loc("multiply.4546")
#loc4757 = loc("multiply.4541")
#loc4758 = loc("erf.4542")
#loc4759 = loc("add.4544")
#loc4760 = loc("multiply.4547")
#loc4764 = loc("reduce.3568")
#loc4765 = loc("multiply.3577")
#loc4766 = loc("broadcast.3587")
#loc4767 = loc("subtract.3588")
#loc4768 = loc("multiply.3544")
#loc4769 = loc("reduce.3551")
#loc4770 = loc("multiply.3560")
#loc4771 = loc("reshape.3561")
#loc4772 = loc("add.3581")
#loc4773 = loc("rsqrt.3582")
#loc4774 = loc("reshape.3589")
#loc4775 = loc("broadcast.3590")
#loc4776 = loc("multiply.3591")
#loc4777 = loc("broadcast.3592")
#loc4778 = loc("multiply.3593")
#loc4779 = loc("broadcast.3596")
#loc4780 = loc("add.3597")
#loc4784 = loc("reduce.2638")
#loc4785 = loc("multiply.2647")
#loc4786 = loc("broadcast.2657")
#loc4787 = loc("subtract.2658")
#loc4788 = loc("multiply.2614")
#loc4789 = loc("reduce.2621")
#loc4790 = loc("multiply.2630")
#loc4791 = loc("reshape.2631")
#loc4792 = loc("add.2651")
#loc4793 = loc("rsqrt.2652")
#loc4794 = loc("reshape.2659")
#loc4795 = loc("broadcast.2660")
#loc4796 = loc("multiply.2661")
#loc4797 = loc("broadcast.2662")
#loc4798 = loc("multiply.2663")
#loc4799 = loc("broadcast.2666")
#loc4800 = loc("add.2667")
#loc4804 = loc("reduce.10805")
#loc4805 = loc("multiply.10814")
#loc4806 = loc("broadcast.10824")
#loc4807 = loc("subtract.10825")
#loc4808 = loc("multiply.10781")
#loc4809 = loc("reduce.10788")
#loc4810 = loc("multiply.10797")
#loc4811 = loc("reshape.10798")
#loc4812 = loc("add.10818")
#loc4813 = loc("rsqrt.10819")
#loc4814 = loc("reshape.10826")
#loc4815 = loc("broadcast.10827")
#loc4816 = loc("multiply.10828")
#loc4817 = loc("broadcast.10829")
#loc4818 = loc("multiply.10830")
#loc4819 = loc("broadcast.10833")
#loc4820 = loc("add.10834")
#loc4824 = loc("reduce.107")
#loc4825 = loc("multiply.116")
#loc4826 = loc("broadcast.126")
#loc4827 = loc("subtract.127")
#loc4828 = loc("multiply.83")
#loc4829 = loc("reduce.90")
#loc4830 = loc("multiply.99")
#loc4831 = loc("reshape.100")
#loc4832 = loc("add.120")
#loc4833 = loc("rsqrt.121")
#loc4834 = loc("reshape.128")
#loc4835 = loc("broadcast.129")
#loc4836 = loc("multiply.130")
#loc4837 = loc("broadcast.131")
#loc4838 = loc("multiply.132")
#loc4839 = loc("broadcast.135")
#loc4840 = loc("add.136")
#loc4844 = loc("reduce.9255")
#loc4845 = loc("multiply.9264")
#loc4846 = loc("broadcast.9274")
#loc4847 = loc("subtract.9275")
#loc4848 = loc("multiply.9231")
#loc4849 = loc("reduce.9238")
#loc4850 = loc("multiply.9247")
#loc4851 = loc("reshape.9248")
#loc4852 = loc("add.9268")
#loc4853 = loc("rsqrt.9269")
#loc4854 = loc("reshape.9276")
#loc4855 = loc("broadcast.9277")
#loc4856 = loc("multiply.9278")
#loc4857 = loc("broadcast.9279")
#loc4858 = loc("multiply.9280")
#loc4859 = loc("broadcast.9283")
#loc4860 = loc("add.9284")
#loc4864 = loc("reduce.4295")
#loc4865 = loc("multiply.4304")
#loc4866 = loc("broadcast.4314")
#loc4867 = loc("subtract.4315")
#loc4868 = loc("multiply.4271")
#loc4869 = loc("reduce.4278")
#loc4870 = loc("multiply.4287")
#loc4871 = loc("reshape.4288")
#loc4872 = loc("add.4308")
#loc4873 = loc("rsqrt.4309")
#loc4874 = loc("reshape.4316")
#loc4875 = loc("broadcast.4317")
#loc4876 = loc("multiply.4318")
#loc4877 = loc("broadcast.4319")
#loc4878 = loc("multiply.4320")
#loc4879 = loc("broadcast.4323")
#loc4880 = loc("add.4324")
#loc4882 = loc("multiply.12715")
#loc4883 = loc("multiply.12710")
#loc4884 = loc("erf.12711")
#loc4885 = loc("add.12713")
#loc4886 = loc("multiply.12716")
#loc4890 = loc("reduce.6465")
#loc4891 = loc("multiply.6474")
#loc4892 = loc("broadcast.6484")
#loc4893 = loc("subtract.6485")
#loc4894 = loc("multiply.6441")
#loc4895 = loc("reduce.6448")
#loc4896 = loc("multiply.6457")
#loc4897 = loc("reshape.6458")
#loc4898 = loc("add.6478")
#loc4899 = loc("rsqrt.6479")
#loc4900 = loc("reshape.6486")
#loc4901 = loc("broadcast.6487")
#loc4902 = loc("multiply.6488")
#loc4903 = loc("broadcast.6489")
#loc4904 = loc("multiply.6490")
#loc4905 = loc("broadcast.6493")
#loc4906 = loc("add.6494")
#loc4910 = loc("reduce.3985")
#loc4911 = loc("multiply.3994")
#loc4912 = loc("broadcast.4004")
#loc4913 = loc("subtract.4005")
#loc4914 = loc("multiply.3961")
#loc4915 = loc("reduce.3968")
#loc4916 = loc("multiply.3977")
#loc4917 = loc("reshape.3978")
#loc4918 = loc("add.3998")
#loc4919 = loc("rsqrt.3999")
#loc4920 = loc("reshape.4006")
#loc4921 = loc("broadcast.4007")
#loc4922 = loc("multiply.4008")
#loc4923 = loc("broadcast.4009")
#loc4924 = loc("multiply.4010")
#loc4925 = loc("broadcast.4013")
#loc4926 = loc("add.4014")
#loc4930 = loc("reduce.9148")
#loc4931 = loc("multiply.9157")
#loc4932 = loc("broadcast.9167")
#loc4933 = loc("subtract.9168")
#loc4934 = loc("multiply.9124")
#loc4935 = loc("reduce.9131")
#loc4936 = loc("multiply.9140")
#loc4937 = loc("reshape.9141")
#loc4938 = loc("add.9161")
#loc4939 = loc("rsqrt.9162")
#loc4940 = loc("reshape.9169")
#loc4941 = loc("broadcast.9170")
#loc4942 = loc("multiply.9171")
#loc4943 = loc("broadcast.9172")
#loc4944 = loc("multiply.9173")
#loc4945 = loc("broadcast.9176")
#loc4946 = loc("add.9177")
#loc4948 = loc("multiply.3926")
#loc4949 = loc("multiply.3921")
#loc4950 = loc("erf.3922")
#loc4951 = loc("add.3924")
#loc4952 = loc("multiply.3927")
#loc4956 = loc("reduce.5535")
#loc4957 = loc("multiply.5544")
#loc4958 = loc("broadcast.5554")
#loc4959 = loc("subtract.5555")
#loc4960 = loc("multiply.5511")
#loc4961 = loc("reduce.5518")
#loc4962 = loc("multiply.5527")
#loc4963 = loc("reshape.5528")
#loc4964 = loc("add.5548")
#loc4965 = loc("rsqrt.5549")
#loc4966 = loc("reshape.5556")
#loc4967 = loc("broadcast.5557")
#loc4968 = loc("multiply.5558")
#loc4969 = loc("broadcast.5559")
#loc4970 = loc("multiply.5560")
#loc4971 = loc("broadcast.5563")
#loc4972 = loc("add.5564")
#loc4974 = loc("multiply.13131")
#loc4975 = loc("multiply.13126")
#loc4976 = loc("erf.13127")
#loc4977 = loc("add.13129")
#loc4978 = loc("multiply.13132")
#loc4982 = loc("reduce.6048")
#loc4983 = loc("multiply.6057")
#loc4984 = loc("broadcast.6067")
#loc4985 = loc("subtract.6068")
#loc4986 = loc("multiply.6024")
#loc4987 = loc("reduce.6031")
#loc4988 = loc("multiply.6040")
#loc4989 = loc("reshape.6041")
#loc4990 = loc("add.6061")
#loc4991 = loc("rsqrt.6062")
#loc4992 = loc("reshape.6069")
#loc4993 = loc("broadcast.6070")
#loc4994 = loc("multiply.6071")
#loc4995 = loc("broadcast.6072")
#loc4996 = loc("multiply.6073")
#loc4997 = loc("broadcast.6076")
#loc4998 = loc("add.6077")
#loc5002 = loc("reduce.6358")
#loc5003 = loc("multiply.6367")
#loc5004 = loc("broadcast.6377")
#loc5005 = loc("subtract.6378")
#loc5006 = loc("multiply.6334")
#loc5007 = loc("reduce.6341")
#loc5008 = loc("multiply.6350")
#loc5009 = loc("reshape.6351")
#loc5010 = loc("add.6371")
#loc5011 = loc("rsqrt.6372")
#loc5012 = loc("reshape.6379")
#loc5013 = loc("broadcast.6380")
#loc5014 = loc("multiply.6381")
#loc5015 = loc("broadcast.6382")
#loc5016 = loc("multiply.6383")
#loc5017 = loc("broadcast.6386")
#loc5018 = loc("add.6387")
#loc5022 = loc("reduce.4498")
#loc5023 = loc("multiply.4507")
#loc5024 = loc("broadcast.4517")
#loc5025 = loc("subtract.4518")
#loc5026 = loc("multiply.4474")
#loc5027 = loc("reduce.4481")
#loc5028 = loc("multiply.4490")
#loc5029 = loc("reshape.4491")
#loc5030 = loc("add.4511")
#loc5031 = loc("rsqrt.4512")
#loc5032 = loc("reshape.4519")
#loc5033 = loc("broadcast.4520")
#loc5034 = loc("multiply.4521")
#loc5035 = loc("broadcast.4522")
#loc5036 = loc("multiply.4523")
#loc5037 = loc("broadcast.4526")
#loc5038 = loc("add.4527")
#loc5042 = loc("reduce.3675")
#loc5043 = loc("multiply.3684")
#loc5044 = loc("broadcast.3694")
#loc5045 = loc("subtract.3695")
#loc5046 = loc("multiply.3651")
#loc5047 = loc("reduce.3658")
#loc5048 = loc("multiply.3667")
#loc5049 = loc("reshape.3668")
#loc5050 = loc("add.3688")
#loc5051 = loc("rsqrt.3689")
#loc5052 = loc("reshape.3696")
#loc5053 = loc("broadcast.3697")
#loc5054 = loc("multiply.3698")
#loc5055 = loc("broadcast.3699")
#loc5056 = loc("multiply.3700")
#loc5057 = loc("broadcast.3703")
#loc5058 = loc("add.3704")
#loc5060 = loc("multiply.7336")
#loc5061 = loc("multiply.7331")
#loc5062 = loc("erf.7332")
#loc5063 = loc("add.7334")
#loc5064 = loc("multiply.7337")
#loc5068 = loc("reduce.2435")
#loc5069 = loc("multiply.2444")
#loc5070 = loc("broadcast.2454")
#loc5071 = loc("subtract.2455")
#loc5072 = loc("multiply.2411")
#loc5073 = loc("reduce.2418")
#loc5074 = loc("multiply.2427")
#loc5075 = loc("reshape.2428")
#loc5076 = loc("add.2448")
#loc5077 = loc("rsqrt.2449")
#loc5078 = loc("reshape.2456")
#loc5079 = loc("broadcast.2457")
#loc5080 = loc("multiply.2458")
#loc5081 = loc("broadcast.2459")
#loc5082 = loc("multiply.2460")
#loc5083 = loc("broadcast.2463")
#loc5084 = loc("add.2464")
#loc5086 = loc("multiply.5166")
#loc5087 = loc("multiply.5161")
#loc5088 = loc("erf.5162")
#loc5089 = loc("add.5164")
#loc5090 = loc("multiply.5167")
#loc5094 = loc("reduce.11318")
#loc5095 = loc("multiply.11327")
#loc5096 = loc("broadcast.11337")
#loc5097 = loc("subtract.11338")
#loc5098 = loc("multiply.11294")
#loc5099 = loc("reduce.11301")
#loc5100 = loc("multiply.11310")
#loc5101 = loc("reshape.11311")
#loc5102 = loc("add.11331")
#loc5103 = loc("rsqrt.11332")
#loc5104 = loc("reshape.11339")
#loc5105 = loc("broadcast.11340")
#loc5106 = loc("multiply.11341")
#loc5107 = loc("broadcast.11342")
#loc5108 = loc("multiply.11343")
#loc5109 = loc("broadcast.11346")
#loc5110 = loc("add.11347")
#loc5114 = loc("reduce.4915")
#loc5115 = loc("multiply.4924")
#loc5116 = loc("broadcast.4934")
#loc5117 = loc("subtract.4935")
#loc5118 = loc("multiply.4891")
#loc5119 = loc("reduce.4898")
#loc5120 = loc("multiply.4907")
#loc5121 = loc("reshape.4908")
#loc5122 = loc("add.4928")
#loc5123 = loc("rsqrt.4929")
#loc5124 = loc("reshape.4936")
#loc5125 = loc("broadcast.4937")
#loc5126 = loc("multiply.4938")
#loc5127 = loc("broadcast.4939")
#loc5128 = loc("multiply.4940")
#loc5129 = loc("broadcast.4943")
#loc5130 = loc("add.4944")
#loc5134 = loc("reduce.5845")
#loc5135 = loc("multiply.5854")
#loc5136 = loc("broadcast.5864")
#loc5137 = loc("subtract.5865")
#loc5138 = loc("multiply.5821")
#loc5139 = loc("reduce.5828")
#loc5140 = loc("multiply.5837")
#loc5141 = loc("reshape.5838")
#loc5142 = loc("add.5858")
#loc5143 = loc("rsqrt.5859")
#loc5144 = loc("reshape.5866")
#loc5145 = loc("broadcast.5867")
#loc5146 = loc("multiply.5868")
#loc5147 = loc("broadcast.5869")
#loc5148 = loc("multiply.5870")
#loc5149 = loc("broadcast.5873")
#loc5150 = loc("add.5874")
#loc5154 = loc("reduce.4188")
#loc5155 = loc("multiply.4197")
#loc5156 = loc("broadcast.4207")
#loc5157 = loc("subtract.4208")
#loc5158 = loc("multiply.4164")
#loc5159 = loc("reduce.4171")
#loc5160 = loc("multiply.4180")
#loc5161 = loc("reshape.4181")
#loc5162 = loc("add.4201")
#loc5163 = loc("rsqrt.4202")
#loc5164 = loc("reshape.4209")
#loc5165 = loc("broadcast.4210")
#loc5166 = loc("multiply.4211")
#loc5167 = loc("broadcast.4212")
#loc5168 = loc("multiply.4213")
#loc5169 = loc("broadcast.4216")
#loc5170 = loc("add.4217")
#loc5174 = loc("reduce.3365")
#loc5175 = loc("multiply.3374")
#loc5176 = loc("broadcast.3384")
#loc5177 = loc("subtract.3385")
#loc5178 = loc("multiply.3341")
#loc5179 = loc("reduce.3348")
#loc5180 = loc("multiply.3357")
#loc5181 = loc("reshape.3358")
#loc5182 = loc("add.3378")
#loc5183 = loc("rsqrt.3379")
#loc5184 = loc("reshape.3386")
#loc5185 = loc("broadcast.3387")
#loc5186 = loc("multiply.3388")
#loc5187 = loc("broadcast.3389")
#loc5188 = loc("multiply.3390")
#loc5189 = loc("broadcast.3393")
#loc5190 = loc("add.3394")
#loc5192 = loc("multiply.13547")
#loc5193 = loc("multiply.13542")
#loc5194 = loc("erf.13543")
#loc5195 = loc("add.13545")
#loc5196 = loc("multiply.13548")
#loc5200 = loc("reduce.9875")
#loc5201 = loc("multiply.9884")
#loc5202 = loc("broadcast.9894")
#loc5203 = loc("subtract.9895")
#loc5204 = loc("multiply.9851")
#loc5205 = loc("reduce.9858")
#loc5206 = loc("multiply.9867")
#loc5207 = loc("reshape.9868")
#loc5208 = loc("add.9888")
#loc5209 = loc("rsqrt.9889")
#loc5210 = loc("reshape.9896")
#loc5211 = loc("broadcast.9897")
#loc5212 = loc("multiply.9898")
#loc5213 = loc("broadcast.9899")
#loc5214 = loc("multiply.9900")
#loc5215 = loc("broadcast.9903")
#loc5216 = loc("add.9904")
#loc5218 = loc("multiply.8576")
#loc5219 = loc("multiply.8571")
#loc5220 = loc("erf.8572")
#loc5221 = loc("add.8574")
#loc5222 = loc("multiply.8577")
#loc5226 = loc("reduce.2948")
#loc5227 = loc("multiply.2957")
#loc5228 = loc("broadcast.2967")
#loc5229 = loc("subtract.2968")
#loc5230 = loc("multiply.2924")
#loc5231 = loc("reduce.2931")
#loc5232 = loc("multiply.2940")
#loc5233 = loc("reshape.2941")
#loc5234 = loc("add.2961")
#loc5235 = loc("rsqrt.2962")
#loc5236 = loc("reshape.2969")
#loc5237 = loc("broadcast.2970")
#loc5238 = loc("multiply.2971")
#loc5239 = loc("broadcast.2972")
#loc5240 = loc("multiply.2973")
#loc5241 = loc("broadcast.2976")
#loc5242 = loc("add.2977")
#loc5244 = loc("multiply.2996")
#loc5245 = loc("multiply.2991")
#loc5246 = loc("erf.2992")
#loc5247 = loc("add.2994")
#loc5248 = loc("multiply.2997")
#loc5250 = loc("multiply.2686")
#loc5251 = loc("multiply.2681")
#loc5252 = loc("erf.2682")
#loc5253 = loc("add.2684")
#loc5254 = loc("multiply.2687")
#loc5258 = loc("reduce.6775")
#loc5259 = loc("multiply.6784")
#loc5260 = loc("broadcast.6794")
#loc5261 = loc("subtract.6795")
#loc5262 = loc("multiply.6751")
#loc5263 = loc("reduce.6758")
#loc5264 = loc("multiply.6767")
#loc5265 = loc("reshape.6768")
#loc5266 = loc("add.6788")
#loc5267 = loc("rsqrt.6789")
#loc5268 = loc("reshape.6796")
#loc5269 = loc("broadcast.6797")
#loc5270 = loc("multiply.6798")
#loc5271 = loc("broadcast.6799")
#loc5272 = loc("multiply.6800")
#loc5273 = loc("broadcast.6803")
#loc5274 = loc("add.6804")
#loc5278 = loc("reduce.11115")
#loc5279 = loc("multiply.11124")
#loc5280 = loc("broadcast.11134")
#loc5281 = loc("subtract.11135")
#loc5282 = loc("multiply.11091")
#loc5283 = loc("reduce.11098")
#loc5284 = loc("multiply.11107")
#loc5285 = loc("reshape.11108")
#loc5286 = loc("add.11128")
#loc5287 = loc("rsqrt.11129")
#loc5288 = loc("reshape.11136")
#loc5289 = loc("broadcast.11137")
#loc5290 = loc("multiply.11138")
#loc5291 = loc("broadcast.11139")
#loc5292 = loc("multiply.11140")
#loc5293 = loc("broadcast.11143")
#loc5294 = loc("add.11144")
#loc5296 = loc("multiply.4856")
#loc5297 = loc("multiply.4851")
#loc5298 = loc("erf.4852")
#loc5299 = loc("add.4854")
#loc5300 = loc("multiply.4857")
#loc5304 = loc("reduce.12255")
#loc5305 = loc("multiply.12264")
#loc5306 = loc("broadcast.12274")
#loc5307 = loc("subtract.12275")
#loc5308 = loc("multiply.12231")
#loc5309 = loc("reduce.12238")
#loc5310 = loc("multiply.12247")
#loc5311 = loc("reshape.12248")
#loc5312 = loc("add.12268")
#loc5313 = loc("rsqrt.12269")
#loc5314 = loc("reshape.12276")
#loc5315 = loc("broadcast.12277")
#loc5316 = loc("multiply.12278")
#loc5317 = loc("broadcast.12279")
#loc5318 = loc("multiply.12280")
#loc5319 = loc("broadcast.12283")
#loc5320 = loc("add.12284")
#loc5322 = loc("multiply.9816")
#loc5323 = loc("multiply.9811")
#loc5324 = loc("erf.9812")
#loc5325 = loc("add.9814")
#loc5326 = loc("multiply.9817")
#loc5330 = loc("reduce.3878")
#loc5331 = loc("multiply.3887")
#loc5332 = loc("broadcast.3897")
#loc5333 = loc("subtract.3898")
#loc5334 = loc("multiply.3854")
#loc5335 = loc("reduce.3861")
#loc5336 = loc("multiply.3870")
#loc5337 = loc("reshape.3871")
#loc5338 = loc("add.3891")
#loc5339 = loc("rsqrt.3892")
#loc5340 = loc("reshape.3899")
#loc5341 = loc("broadcast.3900")
#loc5342 = loc("multiply.3901")
#loc5343 = loc("broadcast.3902")
#loc5344 = loc("multiply.3903")
#loc5345 = loc("broadcast.3906")
#loc5346 = loc("add.3907")
#loc5348 = loc("multiply.3306")
#loc5349 = loc("multiply.3301")
#loc5350 = loc("erf.3302")
#loc5351 = loc("add.3304")
#loc5352 = loc("multiply.3307")
#loc5354 = loc("multiply.7026")
#loc5355 = loc("multiply.7021")
#loc5356 = loc("erf.7022")
#loc5357 = loc("add.7024")
#loc5358 = loc("multiply.7027")
#loc5362 = loc("reduce.7908")
#loc5363 = loc("multiply.7917")
#loc5364 = loc("broadcast.7927")
#loc5365 = loc("subtract.7928")
#loc5366 = loc("multiply.7884")
#loc5367 = loc("reduce.7891")
#loc5368 = loc("multiply.7900")
#loc5369 = loc("reshape.7901")
#loc5370 = loc("add.7921")
#loc5371 = loc("rsqrt.7922")
#loc5372 = loc("reshape.7929")
#loc5373 = loc("broadcast.7930")
#loc5374 = loc("multiply.7931")
#loc5375 = loc("broadcast.7932")
#loc5376 = loc("multiply.7933")
#loc5377 = loc("broadcast.7936")
#loc5378 = loc("add.7937")
#loc5382 = loc("reduce.5225")
#loc5383 = loc("multiply.5234")
#loc5384 = loc("broadcast.5244")
#loc5385 = loc("subtract.5245")
#loc5386 = loc("multiply.5201")
#loc5387 = loc("reduce.5208")
#loc5388 = loc("multiply.5217")
#loc5389 = loc("reshape.5218")
#loc5390 = loc("add.5238")
#loc5391 = loc("rsqrt.5239")
#loc5392 = loc("reshape.5246")
#loc5393 = loc("broadcast.5247")
#loc5394 = loc("multiply.5248")
#loc5395 = loc("broadcast.5249")
#loc5396 = loc("multiply.5250")
#loc5397 = loc("broadcast.5253")
#loc5398 = loc("add.5254")
#loc5402 = loc("reduce.5428")
#loc5403 = loc("multiply.5437")
#loc5404 = loc("broadcast.5447")
#loc5405 = loc("subtract.5448")
#loc5406 = loc("multiply.5404")
#loc5407 = loc("reduce.5411")
#loc5408 = loc("multiply.5420")
#loc5409 = loc("reshape.5421")
#loc5410 = loc("add.5441")
#loc5411 = loc("rsqrt.5442")
#loc5412 = loc("reshape.5449")
#loc5413 = loc("broadcast.5450")
#loc5414 = loc("multiply.5451")
#loc5415 = loc("broadcast.5452")
#loc5416 = loc("multiply.5453")
#loc5417 = loc("broadcast.5456")
#loc5418 = loc("add.5457")
#loc5420 = loc("multiply.5476")
#loc5421 = loc("multiply.5471")
#loc5422 = loc("erf.5472")
#loc5423 = loc("add.5474")
#loc5424 = loc("multiply.5477")
#loc5428 = loc("reduce.5118")
#loc5429 = loc("multiply.5127")
#loc5430 = loc("broadcast.5137")
#loc5431 = loc("subtract.5138")
#loc5432 = loc("multiply.5094")
#loc5433 = loc("reduce.5101")
#loc5434 = loc("multiply.5110")
#loc5435 = loc("reshape.5111")
#loc5436 = loc("add.5131")
#loc5437 = loc("rsqrt.5132")
#loc5438 = loc("reshape.5139")
#loc5439 = loc("broadcast.5140")
#loc5440 = loc("multiply.5141")
#loc5441 = loc("broadcast.5142")
#loc5442 = loc("multiply.5143")
#loc5443 = loc("broadcast.5146")
#loc5444 = loc("add.5147")
#loc5448 = loc("reduce.3258")
#loc5449 = loc("multiply.3267")
#loc5450 = loc("broadcast.3277")
#loc5451 = loc("subtract.3278")
#loc5452 = loc("multiply.3234")
#loc5453 = loc("reduce.3241")
#loc5454 = loc("multiply.3250")
#loc5455 = loc("reshape.3251")
#loc5456 = loc("add.3271")
#loc5457 = loc("rsqrt.3272")
#loc5458 = loc("reshape.3279")
#loc5459 = loc("broadcast.3280")
#loc5460 = loc("multiply.3281")
#loc5461 = loc("broadcast.3282")
#loc5462 = loc("multiply.3283")
#loc5463 = loc("broadcast.3286")
#loc5464 = loc("add.3287")
#loc5468 = loc("reduce.5738")
#loc5469 = loc("multiply.5747")
#loc5470 = loc("broadcast.5757")
#loc5471 = loc("subtract.5758")
#loc5472 = loc("multiply.5714")
#loc5473 = loc("reduce.5721")
#loc5474 = loc("multiply.5730")
#loc5475 = loc("reshape.5731")
#loc5476 = loc("add.5751")
#loc5477 = loc("rsqrt.5752")
#loc5478 = loc("reshape.5759")
#loc5479 = loc("broadcast.5760")
#loc5480 = loc("multiply.5761")
#loc5481 = loc("broadcast.5762")
#loc5482 = loc("multiply.5763")
#loc5483 = loc("broadcast.5766")
#loc5484 = loc("add.5767")
#loc5488 = loc("reduce.11938")
#loc5489 = loc("multiply.11947")
#loc5490 = loc("broadcast.11957")
#loc5491 = loc("subtract.11958")
#loc5492 = loc("multiply.11914")
#loc5493 = loc("reduce.11921")
#loc5494 = loc("multiply.11930")
#loc5495 = loc("reshape.11931")
#loc5496 = loc("add.11951")
#loc5497 = loc("rsqrt.11952")
#loc5498 = loc("reshape.11959")
#loc5499 = loc("broadcast.11960")
#loc5500 = loc("multiply.11961")
#loc5501 = loc("broadcast.11962")
#loc5502 = loc("multiply.11963")
#loc5503 = loc("broadcast.11966")
#loc5504 = loc("add.11967")
#loc5508 = loc("reduce.9565")
#loc5509 = loc("multiply.9574")
#loc5510 = loc("broadcast.9584")
#loc5511 = loc("subtract.9585")
#loc5512 = loc("multiply.9541")
#loc5513 = loc("reduce.9548")
#loc5514 = loc("multiply.9557")
#loc5515 = loc("reshape.9558")
#loc5516 = loc("add.9578")
#loc5517 = loc("rsqrt.9579")
#loc5518 = loc("reshape.9586")
#loc5519 = loc("broadcast.9587")
#loc5520 = loc("multiply.9588")
#loc5521 = loc("broadcast.9589")
#loc5522 = loc("multiply.9590")
#loc5523 = loc("broadcast.9593")
#loc5524 = loc("add.9594")
#loc5526 = loc("multiply.4236")
#loc5527 = loc("multiply.4231")
#loc5528 = loc("erf.4232")
#loc5529 = loc("add.4234")
#loc5530 = loc("multiply.4237")
#loc5532 = loc("multiply.5786")
#loc5533 = loc("multiply.5781")
#loc5534 = loc("erf.5782")
#loc5535 = loc("add.5784")
#loc5536 = loc("multiply.5787")
#loc5540 = loc("reduce.3055")
#loc5541 = loc("multiply.3064")
#loc5542 = loc("broadcast.3074")
#loc5543 = loc("subtract.3075")
#loc5544 = loc("multiply.3031")
#loc5545 = loc("reduce.3038")
#loc5546 = loc("multiply.3047")
#loc5547 = loc("reshape.3048")
#loc5548 = loc("add.3068")
#loc5549 = loc("rsqrt.3069")
#loc5550 = loc("reshape.3076")
#loc5551 = loc("broadcast.3077")
#loc5552 = loc("multiply.3078")
#loc5553 = loc("broadcast.3079")
#loc5554 = loc("multiply.3080")
#loc5555 = loc("broadcast.3083")
#loc5556 = loc("add.3084")
#loc5558 = loc("multiply.6096")
#loc5559 = loc("multiply.6091")
#loc5560 = loc("erf.6092")
#loc5561 = loc("add.6094")
#loc5562 = loc("multiply.6097")
#loc5564 = loc("multiply.6406")
#loc5565 = loc("multiply.6401")
#loc5566 = loc("erf.6402")
#loc5567 = loc("add.6404")
#loc5568 = loc("multiply.6407")
#loc5572 = loc("reduce.8325")
#loc5573 = loc("multiply.8334")
#loc5574 = loc("broadcast.8344")
#loc5575 = loc("subtract.8345")
#loc5576 = loc("multiply.8301")
#loc5577 = loc("reduce.8308")
#loc5578 = loc("multiply.8317")
#loc5579 = loc("reshape.8318")
#loc5580 = loc("add.8338")
#loc5581 = loc("rsqrt.8339")
#loc5582 = loc("reshape.8346")
#loc5583 = loc("broadcast.8347")
#loc5584 = loc("multiply.8348")
#loc5585 = loc("broadcast.8349")
#loc5586 = loc("multiply.8350")
#loc5587 = loc("broadcast.8353")
#loc5588 = loc("add.8354")
#loc5592 = loc("reduce.7085")
#loc5593 = loc("multiply.7094")
#loc5594 = loc("broadcast.7104")
#loc5595 = loc("subtract.7105")
#loc5596 = loc("multiply.7061")
#loc5597 = loc("reduce.7068")
#loc5598 = loc("multiply.7077")
#loc5599 = loc("reshape.7078")
#loc5600 = loc("add.7098")
#loc5601 = loc("rsqrt.7099")
#loc5602 = loc("reshape.7106")
#loc5603 = loc("broadcast.7107")
#loc5604 = loc("multiply.7108")
#loc5605 = loc("broadcast.7109")
#loc5606 = loc("multiply.7110")
#loc5607 = loc("broadcast.7113")
#loc5608 = loc("add.7114")
#loc5610 = loc("multiply.3616")
#loc5611 = loc("multiply.3611")
#loc5612 = loc("erf.3612")
#loc5613 = loc("add.3614")
#loc5614 = loc("multiply.3617")
#loc5618 = loc("reduce.6668")
#loc5619 = loc("multiply.6677")
#loc5620 = loc("broadcast.6687")
#loc5621 = loc("subtract.6688")
#loc5622 = loc("multiply.6644")
#loc5623 = loc("reduce.6651")
#loc5624 = loc("multiply.6660")
#loc5625 = loc("reshape.6661")
#loc5626 = loc("add.6681")
#loc5627 = loc("rsqrt.6682")
#loc5628 = loc("reshape.6689")
#loc5629 = loc("broadcast.6690")
#loc5630 = loc("multiply.6691")
#loc5631 = loc("broadcast.6692")
#loc5632 = loc("multiply.6693")
#loc5633 = loc("broadcast.6696")
#loc5634 = loc("add.6697")
#loc5638 = loc("reduce.9458")
#loc5639 = loc("multiply.9467")
#loc5640 = loc("broadcast.9477")
#loc5641 = loc("subtract.9478")
#loc5642 = loc("multiply.9434")
#loc5643 = loc("reduce.9441")
#loc5644 = loc("multiply.9450")
#loc5645 = loc("reshape.9451")
#loc5646 = loc("add.9471")
#loc5647 = loc("rsqrt.9472")
#loc5648 = loc("reshape.9479")
#loc5649 = loc("broadcast.9480")
#loc5650 = loc("multiply.9481")
#loc5651 = loc("broadcast.9482")
#loc5652 = loc("multiply.9483")
#loc5653 = loc("broadcast.9486")
#loc5654 = loc("add.9487")
#loc5658 = loc("reduce.8838")
#loc5659 = loc("multiply.8847")
#loc5660 = loc("broadcast.8857")
#loc5661 = loc("subtract.8858")
#loc5662 = loc("multiply.8814")
#loc5663 = loc("reduce.8821")
#loc5664 = loc("multiply.8830")
#loc5665 = loc("reshape.8831")
#loc5666 = loc("add.8851")
#loc5667 = loc("rsqrt.8852")
#loc5668 = loc("reshape.8859")
#loc5669 = loc("broadcast.8860")
#loc5670 = loc("multiply.8861")
#loc5671 = loc("broadcast.8862")
#loc5672 = loc("multiply.8863")
#loc5673 = loc("broadcast.8866")
#loc5674 = loc("add.8867")
#loc5676 = loc("multiply.6716")
#loc5677 = loc("multiply.6711")
#loc5678 = loc("erf.6712")
#loc5679 = loc("add.6714")
#loc5680 = loc("multiply.6717")
#loc5684 = loc("reduce.6155")
#loc5685 = loc("multiply.6164")
#loc5686 = loc("broadcast.6174")
#loc5687 = loc("subtract.6175")
#loc5688 = loc("multiply.6131")
#loc5689 = loc("reduce.6138")
#loc5690 = loc("multiply.6147")
#loc5691 = loc("reshape.6148")
#loc5692 = loc("add.6168")
#loc5693 = loc("rsqrt.6169")
#loc5694 = loc("reshape.6176")
#loc5695 = loc("broadcast.6177")
#loc5696 = loc("multiply.6178")
#loc5697 = loc("broadcast.6179")
#loc5698 = loc("multiply.6180")
#loc5699 = loc("broadcast.6183")
#loc5700 = loc("add.6184")
#loc5704 = loc("reduce.6978")
#loc5705 = loc("multiply.6987")
#loc5706 = loc("broadcast.6997")
#loc5707 = loc("subtract.6998")
#loc5708 = loc("multiply.6954")
#loc5709 = loc("reduce.6961")
#loc5710 = loc("multiply.6970")
#loc5711 = loc("reshape.6971")
#loc5712 = loc("add.6991")
#loc5713 = loc("rsqrt.6992")
#loc5714 = loc("reshape.6999")
#loc5715 = loc("broadcast.7000")
#loc5716 = loc("multiply.7001")
#loc5717 = loc("broadcast.7002")
#loc5718 = loc("multiply.7003")
#loc5719 = loc("broadcast.7006")
#loc5720 = loc("add.7007")
#loc5724 = loc("reduce.7288")
#loc5725 = loc("multiply.7297")
#loc5726 = loc("broadcast.7307")
#loc5727 = loc("subtract.7308")
#loc5728 = loc("multiply.7264")
#loc5729 = loc("reduce.7271")
#loc5730 = loc("multiply.7280")
#loc5731 = loc("reshape.7281")
#loc5732 = loc("add.7301")
#loc5733 = loc("rsqrt.7302")
#loc5734 = loc("reshape.7309")
#loc5735 = loc("broadcast.7310")
#loc5736 = loc("multiply.7311")
#loc5737 = loc("broadcast.7312")
#loc5738 = loc("multiply.7313")
#loc5739 = loc("broadcast.7316")
#loc5740 = loc("add.7317")
#loc5744 = loc("reduce.8015")
#loc5745 = loc("multiply.8024")
#loc5746 = loc("broadcast.8034")
#loc5747 = loc("subtract.8035")
#loc5748 = loc("multiply.7991")
#loc5749 = loc("reduce.7998")
#loc5750 = loc("multiply.8007")
#loc5751 = loc("reshape.8008")
#loc5752 = loc("add.8028")
#loc5753 = loc("rsqrt.8029")
#loc5754 = loc("reshape.8036")
#loc5755 = loc("broadcast.8037")
#loc5756 = loc("multiply.8038")
#loc5757 = loc("broadcast.8039")
#loc5758 = loc("multiply.8040")
#loc5759 = loc("broadcast.8043")
#loc5760 = loc("add.8044")
#loc5764 = loc("reduce.7395")
#loc5765 = loc("multiply.7404")
#loc5766 = loc("broadcast.7414")
#loc5767 = loc("subtract.7415")
#loc5768 = loc("multiply.7371")
#loc5769 = loc("reduce.7378")
#loc5770 = loc("multiply.7387")
#loc5771 = loc("reshape.7388")
#loc5772 = loc("add.7408")
#loc5773 = loc("rsqrt.7409")
#loc5774 = loc("reshape.7416")
#loc5775 = loc("broadcast.7417")
#loc5776 = loc("multiply.7418")
#loc5777 = loc("broadcast.7419")
#loc5778 = loc("multiply.7420")
#loc5779 = loc("broadcast.7423")
#loc5780 = loc("add.7424")
#loc5782 = loc("multiply.10126")
#loc5783 = loc("multiply.10121")
#loc5784 = loc("erf.10122")
#loc5785 = loc("add.10124")
#loc5786 = loc("multiply.10127")
#loc5788 = loc("multiply.9196")
#loc5789 = loc("multiply.9191")
#loc5790 = loc("erf.9192")
#loc5791 = loc("add.9194")
#loc5792 = loc("multiply.9197")
#loc5796 = loc("reduce.7598")
#loc5797 = loc("multiply.7607")
#loc5798 = loc("broadcast.7617")
#loc5799 = loc("subtract.7618")
#loc5800 = loc("multiply.7574")
#loc5801 = loc("reduce.7581")
#loc5802 = loc("multiply.7590")
#loc5803 = loc("reshape.7591")
#loc5804 = loc("add.7611")
#loc5805 = loc("rsqrt.7612")
#loc5806 = loc("reshape.7619")
#loc5807 = loc("broadcast.7620")
#loc5808 = loc("multiply.7621")
#loc5809 = loc("broadcast.7622")
#loc5810 = loc("multiply.7623")
#loc5811 = loc("broadcast.7626")
#loc5812 = loc("add.7627")
#loc5816 = loc("reduce.2745")
#loc5817 = loc("multiply.2754")
#loc5818 = loc("broadcast.2764")
#loc5819 = loc("subtract.2765")
#loc5820 = loc("multiply.2721")
#loc5821 = loc("reduce.2728")
#loc5822 = loc("multiply.2737")
#loc5823 = loc("reshape.2738")
#loc5824 = loc("add.2758")
#loc5825 = loc("rsqrt.2759")
#loc5826 = loc("reshape.2766")
#loc5827 = loc("broadcast.2767")
#loc5828 = loc("multiply.2768")
#loc5829 = loc("broadcast.2769")
#loc5830 = loc("multiply.2770")
#loc5831 = loc("broadcast.2773")
#loc5832 = loc("add.2774")
#loc5834 = loc("multiply.7646")
#loc5835 = loc("multiply.7641")
#loc5836 = loc("erf.7642")
#loc5837 = loc("add.7644")
#loc5838 = loc("multiply.7647")
#loc5842 = loc("reduce.7705")
#loc5843 = loc("multiply.7714")
#loc5844 = loc("broadcast.7724")
#loc5845 = loc("subtract.7725")
#loc5846 = loc("multiply.7681")
#loc5847 = loc("reduce.7688")
#loc5848 = loc("multiply.7697")
#loc5849 = loc("reshape.7698")
#loc5850 = loc("add.7718")
#loc5851 = loc("rsqrt.7719")
#loc5852 = loc("reshape.7726")
#loc5853 = loc("broadcast.7727")
#loc5854 = loc("multiply.7728")
#loc5855 = loc("broadcast.7729")
#loc5856 = loc("multiply.7730")
#loc5857 = loc("broadcast.7733")
#loc5858 = loc("add.7734")
#loc5862 = loc("reduce.4605")
#loc5863 = loc("multiply.4614")
#loc5864 = loc("broadcast.4624")
#loc5865 = loc("subtract.4625")
#loc5866 = loc("multiply.4581")
#loc5867 = loc("reduce.4588")
#loc5868 = loc("multiply.4597")
#loc5869 = loc("reshape.4598")
#loc5870 = loc("add.4618")
#loc5871 = loc("rsqrt.4619")
#loc5872 = loc("reshape.4626")
#loc5873 = loc("broadcast.4627")
#loc5874 = loc("multiply.4628")
#loc5875 = loc("broadcast.4629")
#loc5876 = loc("multiply.4630")
#loc5877 = loc("broadcast.4633")
#loc5878 = loc("add.4634")
#loc5880 = loc("multiply.7956")
#loc5881 = loc("multiply.7951")
#loc5882 = loc("erf.7952")
#loc5883 = loc("add.7954")
#loc5884 = loc("multiply.7957")
#loc5888 = loc("reduce.11735")
#loc5889 = loc("multiply.11744")
#loc5890 = loc("broadcast.11754")
#loc5891 = loc("subtract.11755")
#loc5892 = loc("multiply.11711")
#loc5893 = loc("reduce.11718")
#loc5894 = loc("multiply.11727")
#loc5895 = loc("reshape.11728")
#loc5896 = loc("add.11748")
#loc5897 = loc("rsqrt.11749")
#loc5898 = loc("reshape.11756")
#loc5899 = loc("broadcast.11757")
#loc5900 = loc("multiply.11758")
#loc5901 = loc("broadcast.11759")
#loc5902 = loc("multiply.11760")
#loc5903 = loc("broadcast.11763")
#loc5904 = loc("add.11764")
#loc5908 = loc("reduce.8218")
#loc5909 = loc("multiply.8227")
#loc5910 = loc("broadcast.8237")
#loc5911 = loc("subtract.8238")
#loc5912 = loc("multiply.8194")
#loc5913 = loc("reduce.8201")
#loc5914 = loc("multiply.8210")
#loc5915 = loc("reshape.8211")
#loc5916 = loc("add.8231")
#loc5917 = loc("rsqrt.8232")
#loc5918 = loc("reshape.8239")
#loc5919 = loc("broadcast.8240")
#loc5920 = loc("multiply.8241")
#loc5921 = loc("broadcast.8242")
#loc5922 = loc("multiply.8243")
#loc5923 = loc("broadcast.8246")
#loc5924 = loc("add.8247")
#loc5926 = loc("multiply.8266")
#loc5927 = loc("multiply.8261")
#loc5928 = loc("erf.8262")
#loc5929 = loc("add.8264")
#loc5930 = loc("multiply.8267")
