#loc1 = loc("p0.2")
#loc2 = loc("p1.7")
#loc3 = loc("p2.15")
#loc4 = loc("p3.19")
#loc5 = loc("p4.32")
#loc6 = loc("p5.38")
#loc7 = loc("p6.43")
#loc8 = loc("p7.49")
#loc9 = loc("p8.54")
#loc10 = loc("p9.139")
#loc11 = loc("p10.144")
#loc12 = loc("p11.152")
#loc13 = loc("p12.156")
#loc14 = loc("p13.163")
#loc15 = loc("p14.167")
#loc16 = loc("p15.173")
#loc17 = loc("p16.177")
#loc18 = loc("p17.183")
#loc19 = loc("p18.188")
#loc20 = loc("p19.197")
#loc21 = loc("p20.201")
#loc22 = loc("p21.207")
#loc23 = loc("p22.211")
#loc24 = loc("p23.217")
#loc25 = loc("p24.222")
#loc26 = loc("p25.231")
#loc27 = loc("p26.235")
#loc28 = loc("p27.241")
#loc29 = loc("p28.245")
#loc30 = loc("p29.251")
#loc31 = loc("p30.256")
#loc32 = loc("p31.265")
#loc33 = loc("p32.269")
#loc34 = loc("p33.275")
#loc35 = loc("p34.279")
#loc36 = loc("p35.285")
#loc37 = loc("p36.290")
#loc38 = loc("p37.299")
#loc39 = loc("p38.303")
#loc40 = loc("p39.309")
#loc41 = loc("p40.313")
#loc42 = loc("p41.319")
#loc43 = loc("p42.324")
#loc44 = loc("p43.333")
#loc45 = loc("p44.337")
#loc46 = loc("p45.343")
#loc47 = loc("p46.347")
#loc48 = loc("p47.353")
#loc49 = loc("p48.358")
#loc50 = loc("p49.367")
#loc51 = loc("p50.371")
#loc52 = loc("p51.377")
#loc53 = loc("p52.381")
#loc54 = loc("p53.387")
#loc55 = loc("p54.392")
#loc56 = loc("p55.401")
#loc57 = loc("p56.405")
#loc58 = loc("p57.411")
#loc59 = loc("p58.415")
#loc60 = loc("p59.421")
#loc61 = loc("p60.426")
#loc62 = loc("p61.435")
#loc63 = loc("p62.439")
#loc64 = loc("p63.445")
#loc65 = loc("p64.449")
#loc66 = loc("p65.455")
#loc67 = loc("p66.460")
#loc68 = loc("p67.469")
#loc69 = loc("p68.473")
#loc70 = loc("p69.479")
#loc71 = loc("p70.483")
#loc72 = loc("p71.489")
#loc73 = loc("p72.494")
#loc74 = loc("p73.503")
#loc75 = loc("p74.507")
#loc76 = loc("p75.513")
#loc77 = loc("p76.517")
#loc78 = loc("p77.523")
#loc79 = loc("p78.528")
#loc80 = loc("p79.537")
#loc81 = loc("p80.541")
#loc82 = loc("p81.547")
#loc83 = loc("p82.551")
#loc84 = loc("p83.557")
#loc85 = loc("p84.562")
#loc86 = loc("p85.571")
#loc87 = loc("p86.575")
#loc88 = loc("p87.581")
#loc89 = loc("p88.585")
#loc90 = loc("p89.591")
#loc91 = loc("p90.596")
#loc92 = loc("p91.605")
#loc93 = loc("p92.609")
#loc94 = loc("p93.615")
#loc95 = loc("p94.619")
#loc96 = loc("p95.625")
#loc97 = loc("p96.630")
#loc98 = loc("p97.639")
#loc99 = loc("p98.643")
#loc100 = loc("p99.649")
#loc101 = loc("p100.653")
#loc102 = loc("p101.659")
#loc103 = loc("p102.664")
#loc104 = loc("p103.673")
#loc105 = loc("p104.677")
#loc106 = loc("p105.683")
#loc107 = loc("p106.687")
#loc108 = loc("p107.693")
#loc109 = loc("p108.698")
#loc110 = loc("p109.707")
#loc111 = loc("p110.711")
#loc112 = loc("p111.717")
#loc113 = loc("p112.721")
#loc114 = loc("p113.727")
#loc115 = loc("p114.732")
#loc116 = loc("p115.741")
#loc117 = loc("p116.745")
#loc118 = loc("p117.751")
#loc119 = loc("p118.755")
#loc120 = loc("p119.761")
#loc121 = loc("p120.766")
#loc122 = loc("p121.775")
#loc123 = loc("p122.779")
#loc124 = loc("p123.785")
#loc125 = loc("p124.789")
#loc126 = loc("p125.795")
#loc127 = loc("p126.800")
#loc128 = loc("p127.809")
#loc129 = loc("p128.813")
#loc130 = loc("p129.819")
#loc131 = loc("p130.823")
#loc132 = loc("p131.829")
#loc133 = loc("p132.834")
#loc134 = loc("p133.843")
#loc135 = loc("p134.847")
#loc136 = loc("p135.853")
#loc137 = loc("p136.857")
#loc138 = loc("p137.863")
#loc139 = loc("p138.868")
#loc140 = loc("p139.877")
#loc141 = loc("p140.881")
#loc142 = loc("p141.887")
#loc143 = loc("p142.891")
#loc144 = loc("p143.897")
#loc145 = loc("p144.902")
#loc146 = loc("p145.911")
#loc147 = loc("p146.915")
#loc148 = loc("p147.921")
#loc149 = loc("p148.925")
#loc150 = loc("p149.931")
#loc151 = loc("p150.936")
#loc152 = loc("p151.945")
#loc153 = loc("p152.949")
#loc154 = loc("p153.955")
#loc155 = loc("p154.959")
#loc156 = loc("p155.965")
#loc157 = loc("p156.970")
#loc158 = loc("p157.979")
#loc159 = loc("p158.983")
#loc160 = loc("p159.989")
#loc161 = loc("p160.993")
#loc162 = loc("p161.999")
#loc163 = loc("p162.1004")
#loc164 = loc("p163.1013")
#loc165 = loc("p164.1017")
#loc166 = loc("p165.1023")
#loc167 = loc("p166.1027")
#loc168 = loc("p167.1033")
#loc169 = loc("p168.1038")
#loc170 = loc("p169.1047")
#loc171 = loc("p170.1051")
#loc172 = loc("p171.1057")
#loc173 = loc("p172.1061")
#loc174 = loc("p173.1067")
#loc175 = loc("p174.1072")
#loc176 = loc("p175.1081")
#loc177 = loc("p176.1085")
#loc178 = loc("p177.1091")
#loc179 = loc("p178.1095")
#loc180 = loc("p179.1101")
#loc181 = loc("p180.1106")
#loc182 = loc("p181.1115")
#loc183 = loc("p182.1119")
#loc184 = loc("p183.1125")
#loc185 = loc("p184.1129")
#loc186 = loc("p185.1135")
#loc187 = loc("p186.1140")
#loc188 = loc("p187.1149")
#loc189 = loc("p188.1153")
#loc190 = loc("p189.1159")
#loc191 = loc("p190.1163")
#loc192 = loc("p191.1169")
#loc193 = loc("p192.1174")
#loc194 = loc("p193.1183")
#loc195 = loc("p194.1187")
#loc196 = loc("p195.1193")
#loc197 = loc("p196.1197")
#loc198 = loc("p197.1203")
#loc199 = loc("p198.1208")
#loc200 = loc("p199.1217")
#loc201 = loc("p200.1221")
#loc202 = loc("p201.1227")
#loc203 = loc("p202.1231")
#loc204 = loc("p203.1237")
#loc205 = loc("p204.1242")
#loc206 = loc("p205.1251")
#loc207 = loc("p206.1255")
#loc208 = loc("p207.1261")
#loc209 = loc("p208.1265")
#loc210 = loc("p209.1271")
#loc211 = loc("p210.1276")
#loc212 = loc("p211.1285")
#loc213 = loc("p212.1289")
#loc214 = loc("p213.1295")
#loc215 = loc("p214.1299")
#loc216 = loc("p215.1305")
#loc217 = loc("p216.1310")
#loc218 = loc("p217.1319")
#loc219 = loc("p218.1323")
#loc220 = loc("p219.1329")
#loc221 = loc("p220.1333")
#loc222 = loc("p221.1339")
#loc223 = loc("p222.1344")
#loc224 = loc("p223.1353")
#loc225 = loc("p224.1357")
#loc226 = loc("p225.1363")
#loc227 = loc("p226.1367")
#loc228 = loc("p227.1373")
#loc229 = loc("p228.1378")
#loc230 = loc("p229.1387")
#loc231 = loc("p230.1391")
#loc232 = loc("p231.1397")
#loc233 = loc("p232.1401")
#loc234 = loc("p233.1407")
#loc235 = loc("p234.1412")
#loc236 = loc("p235.1421")
#loc237 = loc("p236.1425")
#loc238 = loc("p237.1431")
#loc239 = loc("p238.1435")
#loc240 = loc("p239.1441")
#loc241 = loc("p240.1446")
#loc242 = loc("p241.1455")
#loc243 = loc("p242.1459")
#loc244 = loc("p243.1465")
#loc245 = loc("p244.1469")
#loc246 = loc("p245.1475")
#loc247 = loc("p246.1480")
#loc248 = loc("p247.1489")
#loc249 = loc("p248.1493")
#loc250 = loc("p249.1499")
#loc251 = loc("p250.1503")
#loc252 = loc("p251.1509")
#loc253 = loc("p252.1514")
#loc254 = loc("p253.1523")
#loc255 = loc("p254.1527")
#loc256 = loc("p255.1533")
#loc257 = loc("p256.1537")
#loc258 = loc("p257.1543")
#loc259 = loc("p258.1548")
#loc260 = loc("p259.1557")
#loc261 = loc("p260.1561")
#loc262 = loc("p261.1567")
#loc263 = loc("p262.1571")
#loc264 = loc("p263.1577")
#loc265 = loc("p264.1582")
#loc266 = loc("p265.1591")
#loc267 = loc("p266.1595")
#loc268 = loc("p267.1601")
#loc269 = loc("p268.1605")
#loc270 = loc("p269.1611")
#loc271 = loc("p270.1616")
#loc272 = loc("p271.1625")
#loc273 = loc("p272.1629")
#loc274 = loc("p273.1635")
#loc275 = loc("p274.1639")
#loc276 = loc("p275.1645")
#loc277 = loc("p276.1650")
#loc278 = loc("p277.1659")
#loc279 = loc("p278.1663")
#loc280 = loc("p279.1669")
#loc281 = loc("p280.1673")
#loc282 = loc("p281.1679")
#loc283 = loc("p282.1684")
#loc284 = loc("p283.1693")
#loc285 = loc("p284.1697")
#loc286 = loc("p285.1703")
#loc287 = loc("p286.1707")
#loc288 = loc("p287.1713")
#loc289 = loc("p288.1718")
#loc290 = loc("p289.1727")
#loc291 = loc("p290.1731")
#loc292 = loc("p291.1737")
#loc293 = loc("p292.1741")
#loc294 = loc("p293.1747")
#loc295 = loc("p294.1752")
#loc296 = loc("p295.1761")
#loc297 = loc("p296.1765")
#loc298 = loc("p297.1771")
#loc299 = loc("p298.1775")
#loc300 = loc("p299.1781")
#loc301 = loc("p300.1786")
#loc302 = loc("p301.1795")
#loc303 = loc("p302.1799")
#loc304 = loc("p303.1805")
#loc305 = loc("p304.1809")
#loc306 = loc("p305.1815")
#loc307 = loc("p306.1820")
#loc308 = loc("p307.1829")
#loc309 = loc("p308.1833")
#loc310 = loc("p309.1839")
#loc311 = loc("p310.1843")
#loc312 = loc("p311.1849")
#loc313 = loc("p312.1854")
#loc314 = loc("p313.1863")
#loc315 = loc("p314.1867")
#loc316 = loc("p315.1873")
#loc317 = loc("p316.1877")
#loc318 = loc("p317.1883")
#loc319 = loc("p318.1888")
#loc320 = loc("p319.1897")
#loc321 = loc("p320.1901")
#loc322 = loc("p321.1907")
#loc323 = loc("p322.1911")
#loc324 = loc("p323.1917")
#loc325 = loc("p324.1922")
#loc326 = loc("p325.1931")
#loc327 = loc("p326.1935")
#loc328 = loc("p327.1941")
#loc329 = loc("p328.1945")
#loc330 = loc("p329.1951")
#loc331 = loc("p330.1956")
#loc332 = loc("p331.1965")
#loc333 = loc("p332.1969")
#loc334 = loc("p333.1975")
#loc335 = loc("p334.1979")
#loc336 = loc("p335.1985")
#loc337 = loc("p336.1990")
#loc338 = loc("p337.1999")
#loc339 = loc("p338.2003")
#loc340 = loc("p339.2009")
#loc341 = loc("p340.2013")
#loc342 = loc("p341.2019")
#loc343 = loc("p342.2024")
#loc344 = loc("p343.2033")
#loc345 = loc("p344.2037")
#loc346 = loc("p345.2043")
#loc347 = loc("p346.2047")
#loc348 = loc("p347.2053")
#loc349 = loc("p348.2058")
#loc350 = loc("p349.2067")
#loc351 = loc("p350.2071")
#loc352 = loc("p351.2077")
#loc353 = loc("p352.2081")
#loc354 = loc("p353.2087")
#loc355 = loc("p354.2092")
#loc356 = loc("p355.2101")
#loc357 = loc("p356.2105")
#loc358 = loc("p357.2111")
#loc359 = loc("p358.2115")
#loc360 = loc("p359.2121")
#loc361 = loc("p360.2126")
#loc362 = loc("p361.2135")
#loc363 = loc("p362.2139")
#loc364 = loc("p363.2145")
#loc365 = loc("p364.2149")
#loc366 = loc("p365.2155")
#loc367 = loc("p366.2160")
#loc368 = loc("p367.2169")
#loc369 = loc("p368.2173")
#loc370 = loc("p369.2179")
#loc371 = loc("p370.2183")
#loc372 = loc("p371.2189")
#loc373 = loc("p372.2194")
#loc374 = loc("p373.2203")
#loc375 = loc("p374.2207")
#loc376 = loc("p375.2213")
#loc377 = loc("p376.2217")
#loc378 = loc("p377.2223")
#loc379 = loc("p378.2228")
#loc380 = loc("p379.2237")
#loc381 = loc("p380.2241")
#loc382 = loc("p381.2247")
#loc383 = loc("p382.2251")
#loc384 = loc("p383.2257")
#loc385 = loc("p384.2262")
#loc386 = loc("p385.2270")
#loc387 = loc("p386.2275")
#loc388 = loc("p387.2283")
#loc389 = loc("p388.2288")
#loc390 = loc("p389.2295")
#loc391 = loc("p390.2297")
#loc392 = loc("p391.2302")
#loc393 = loc("p392.2478")
#loc394 = loc("p393.2482")
#loc395 = loc("p394.2502")
#loc396 = loc("p395.2506")
#loc397 = loc("p396.2788")
#loc398 = loc("p397.2792")
#loc399 = loc("p398.2812")
#loc400 = loc("p399.2816")
#loc401 = loc("p400.3098")
#loc402 = loc("p401.3102")
#loc403 = loc("p402.3122")
#loc404 = loc("p403.3126")
#loc405 = loc("p404.3408")
#loc406 = loc("p405.3412")
#loc407 = loc("p406.3432")
#loc408 = loc("p407.3436")
#loc409 = loc("p408.3718")
#loc410 = loc("p409.3722")
#loc411 = loc("p410.3742")
#loc412 = loc("p411.3746")
#loc413 = loc("p412.4028")
#loc414 = loc("p413.4032")
#loc415 = loc("p414.4052")
#loc416 = loc("p415.4056")
#loc417 = loc("p416.4338")
#loc418 = loc("p417.4342")
#loc419 = loc("p418.4362")
#loc420 = loc("p419.4366")
#loc421 = loc("p420.4648")
#loc422 = loc("p421.4652")
#loc423 = loc("p422.4672")
#loc424 = loc("p423.4676")
#loc425 = loc("p424.4958")
#loc426 = loc("p425.4962")
#loc427 = loc("p426.4982")
#loc428 = loc("p427.4986")
#loc429 = loc("p428.5268")
#loc430 = loc("p429.5272")
#loc431 = loc("p430.5292")
#loc432 = loc("p431.5296")
#loc433 = loc("p432.5578")
#loc434 = loc("p433.5582")
#loc435 = loc("p434.5602")
#loc436 = loc("p435.5606")
#loc437 = loc("p436.5888")
#loc438 = loc("p437.5892")
#loc439 = loc("p438.5912")
#loc440 = loc("p439.5916")
#loc441 = loc("p440.6198")
#loc442 = loc("p441.6202")
#loc443 = loc("p442.6222")
#loc444 = loc("p443.6226")
#loc445 = loc("p444.6508")
#loc446 = loc("p445.6512")
#loc447 = loc("p446.6532")
#loc448 = loc("p447.6536")
#loc449 = loc("p448.6818")
#loc450 = loc("p449.6822")
#loc451 = loc("p450.6842")
#loc452 = loc("p451.6846")
#loc453 = loc("p452.7128")
#loc454 = loc("p453.7132")
#loc455 = loc("p454.7152")
#loc456 = loc("p455.7156")
#loc457 = loc("p456.7438")
#loc458 = loc("p457.7442")
#loc459 = loc("p458.7462")
#loc460 = loc("p459.7466")
#loc461 = loc("p460.7748")
#loc462 = loc("p461.7752")
#loc463 = loc("p462.7772")
#loc464 = loc("p463.7776")
#loc465 = loc("p464.8058")
#loc466 = loc("p465.8062")
#loc467 = loc("p466.8082")
#loc468 = loc("p467.8086")
#loc469 = loc("p468.8368")
#loc470 = loc("p469.8372")
#loc471 = loc("p470.8392")
#loc472 = loc("p471.8396")
#loc473 = loc("p472.8678")
#loc474 = loc("p473.8682")
#loc475 = loc("p474.8702")
#loc476 = loc("p475.8706")
#loc477 = loc("p476.8988")
#loc478 = loc("p477.8992")
#loc479 = loc("p478.9012")
#loc480 = loc("p479.9016")
#loc481 = loc("p480.9298")
#loc482 = loc("p481.9302")
#loc483 = loc("p482.9322")
#loc484 = loc("p483.9326")
#loc485 = loc("p484.9608")
#loc486 = loc("p485.9612")
#loc487 = loc("p486.9632")
#loc488 = loc("p487.9636")
#loc489 = loc("p488.9918")
#loc490 = loc("p489.9922")
#loc491 = loc("p490.9942")
#loc492 = loc("p491.9946")
#loc493 = loc("p492.10228")
#loc494 = loc("p493.10232")
#loc495 = loc("p494.10252")
#loc496 = loc("p495.10256")
#loc497 = loc("p496.10538")
#loc498 = loc("p497.10542")
#loc499 = loc("p498.10562")
#loc500 = loc("p499.10566")
#loc501 = loc("p500.10848")
#loc502 = loc("p501.10852")
#loc503 = loc("p502.10872")
#loc504 = loc("p503.10876")
#loc505 = loc("p504.11158")
#loc506 = loc("p505.11162")
#loc507 = loc("p506.11182")
#loc508 = loc("p507.11186")
#loc509 = loc("p508.11468")
#loc510 = loc("p509.11472")
#loc511 = loc("p510.11492")
#loc512 = loc("p511.11496")
#loc513 = loc("p512.11778")
#loc514 = loc("p513.11782")
#loc515 = loc("p514.11802")
#loc516 = loc("p515.11806")
#loc517 = loc("p516.12091")
#loc518 = loc("p517.12106")
#loc519 = loc("p518.12186")
#loc520 = loc("p519.12191")
#loc521 = loc("p520.12197")
#loc522 = loc("p521.12202")
#loc523 = loc("p522.12309")
#loc524 = loc("p523.12314")
#loc525 = loc("p524.12320")
#loc526 = loc("p525.12325")
#loc527 = loc("p526.12410")
#loc528 = loc("p527.12415")
#loc529 = loc("p528.12507")
#loc530 = loc("p529.12522")
#loc531 = loc("p530.12602")
#loc532 = loc("p531.12607")
#loc533 = loc("p532.12613")
#loc534 = loc("p533.12618")
#loc535 = loc("p534.12725")
#loc536 = loc("p535.12730")
#loc537 = loc("p536.12736")
#loc538 = loc("p537.12741")
#loc539 = loc("p538.12826")
#loc540 = loc("p539.12831")
#loc541 = loc("p540.12923")
#loc542 = loc("p541.12938")
#loc543 = loc("p542.13018")
#loc544 = loc("p543.13023")
#loc545 = loc("p544.13029")
#loc546 = loc("p545.13034")
#loc547 = loc("p546.13141")
#loc548 = loc("p547.13146")
#loc549 = loc("p548.13152")
#loc550 = loc("p549.13157")
#loc551 = loc("p550.13242")
#loc552 = loc("p551.13247")
#loc553 = loc("p552.13339")
#loc554 = loc("p553.13354")
#loc555 = loc("p554.13434")
#loc556 = loc("p555.13439")
#loc557 = loc("p556.13445")
#loc558 = loc("p557.13450")
module @SyncTensorsGraph.13641 attributes {mhlo.cross_program_prefetches = [], mhlo.input_output_alias = [], mhlo.is_dynamic = false, mhlo.use_auto_spmd_partitioning = false, ttcore.meshes = #ttcore.meshes<[<"mesh" = 1x1>]>} {
  ttcore.device_module {
    builtin.module @SyncTensorsGraph.13641 attributes {mhlo.cross_program_prefetches = [], mhlo.input_output_alias = [], mhlo.is_dynamic = false, mhlo.use_auto_spmd_partitioning = false, ttcore.meshes = #ttcore.meshes<[<"mesh" = 1x1>]>} {
      func.func @main(%arg0: tensor<2048xbf16> {ttcore.argument_type = #ttcore.argument_type<parameter>, ttcore.shard_status = #ttcore.shard_status<unsharded>, ttir.name = "l__self___resampler_norm_out_bias"} loc("p0.2"), %arg1: tensor<2048xbf16> {ttcore.argument_type = #ttcore.argument_type<parameter>, ttcore.shard_status = #ttcore.shard_status<unsharded>, ttir.name = "l__self___resampler_norm_out_weight"} loc("p1.7"), %arg2: tensor<2048xbf16> {ttcore.argument_type = #ttcore.argument_type<parameter>, ttcore.shard_status = #ttcore.shard_status<unsharded>, ttir.name = "l__self___resampler_proj_out_bias"} loc("p2.15"), %arg3: tensor<2048x1280xbf16> {ttcore.argument_type = #ttcore.argument_type<parameter>, ttcore.shard_status = #ttcore.shard_status<unsharded>, ttir.name = "l__self___resampler_proj_out_weight"} loc("p3.19"), %arg4: tensor<1x16x1280xbf16> {ttcore.argument_type = #ttcore.argument_type<parameter>, ttcore.shard_status = #ttcore.shard_status<unsharded>, ttir.name = "l__self___resampler_latents"} loc("p4.32"), %arg5: tensor<1280x1280xbf16> {ttcore.argument_type = #ttcore.argument_type<parameter>, ttcore.shard_status = #ttcore.shard_status<unsharded>, ttir.name = "l__self___resampler_layers_0_attn_to_out_0_weight"} loc("p5.38"), %arg6: tensor<1280x1280xbf16> {ttcore.argument_type = #ttcore.argument_type<parameter>, ttcore.shard_status = #ttcore.shard_status<unsharded>, ttir.name = "l__self___resampler_layers_0_attn_to_v_weight"} loc("p6.43"), %arg7: tensor<1280xbf16> {ttcore.argument_type = #ttcore.argument_type<parameter>, ttcore.shard_status = #ttcore.shard_status<unsharded>, ttir.name = "l__self___resampler_layers_0_ln1_bias"} loc("p7.49"), %arg8: tensor<1280xbf16> {ttcore.argument_type = #ttcore.argument_type<parameter>, ttcore.shard_status = #ttcore.shard_status<unsharded>, ttir.name = "l__self___resampler_layers_0_ln1_weight"} loc("p8.54"), %arg9: tensor<1280xbf16> {ttcore.argument_type = #ttcore.argument_type<parameter>, ttcore.shard_status = #ttcore.shard_status<unsharded>, ttir.name = "l__self___resampler_layers_0_ln0_bias"} loc("p9.139"), %arg10: tensor<1280xbf16> {ttcore.argument_type = #ttcore.argument_type<parameter>, ttcore.shard_status = #ttcore.shard_status<unsharded>, ttir.name = "l__self___resampler_layers_0_ln0_weight"} loc("p10.144"), %arg11: tensor<1280xbf16> {ttcore.argument_type = #ttcore.argument_type<parameter>, ttcore.shard_status = #ttcore.shard_status<unsharded>, ttir.name = "l__self___resampler_proj_in_bias"} loc("p11.152"), %arg12: tensor<1280x1280xbf16> {ttcore.argument_type = #ttcore.argument_type<parameter>, ttcore.shard_status = #ttcore.shard_status<unsharded>, ttir.name = "l__self___resampler_proj_in_weight"} loc("p12.156"), %arg13: tensor<1280xbf16> {ttcore.argument_type = #ttcore.argument_type<parameter>, ttcore.shard_status = #ttcore.shard_status<unsharded>, ttir.name = "l__self___image_encoder_vision_model_encoder_layers_30_mlp_fc2_bias"} loc("p13.163"), %arg14: tensor<1280x5120xbf16> {ttcore.argument_type = #ttcore.argument_type<parameter>, ttcore.shard_status = #ttcore.shard_status<unsharded>, ttir.name = "l__self___image_encoder_vision_model_encoder_layers_30_mlp_fc2_weight"} loc("p14.167"), %arg15: tensor<5120xbf16> {ttcore.argument_type = #ttcore.argument_type<parameter>, ttcore.shard_status = #ttcore.shard_status<unsharded>, ttir.name = "l__self___image_encoder_vision_model_encoder_layers_30_mlp_fc1_bias"} loc("p15.173"), %arg16: tensor<5120x1280xbf16> {ttcore.argument_type = #ttcore.argument_type<parameter>, ttcore.shard_status = #ttcore.shard_status<unsharded>, ttir.name = "l__self___image_encoder_vision_model_encoder_layers_30_mlp_fc1_weight"} loc("p16.177"), %arg17: tensor<1280xbf16> {ttcore.argument_type = #ttcore.argument_type<parameter>, ttcore.shard_status = #ttcore.shard_status<unsharded>, ttir.name = "l__self___image_encoder_vision_model_encoder_layers_30_layer_norm2_bias"} loc("p17.183"), %arg18: tensor<1280xbf16> {ttcore.argument_type = #ttcore.argument_type<parameter>, ttcore.shard_status = #ttcore.shard_status<unsharded>, ttir.name = "l__self___image_encoder_vision_model_encoder_layers_30_layer_norm2_weight"} loc("p18.188"), %arg19: tensor<1280xbf16> {ttcore.argument_type = #ttcore.argument_type<parameter>, ttcore.shard_status = #ttcore.shard_status<unsharded>, ttir.name = "l__self___image_encoder_vision_model_encoder_layers_30_self_attn_out_proj_bias"} loc("p19.197"), %arg20: tensor<1280x1280xbf16> {ttcore.argument_type = #ttcore.argument_type<parameter>, ttcore.shard_status = #ttcore.shard_status<unsharded>, ttir.name = "l__self___image_encoder_vision_model_encoder_layers_30_self_attn_out_proj_weight"} loc("p20.201"), %arg21: tensor<1280xbf16> {ttcore.argument_type = #ttcore.argument_type<parameter>, ttcore.shard_status = #ttcore.shard_status<unsharded>, ttir.name = "l__self___image_encoder_vision_model_encoder_layers_30_self_attn_v_proj_bias"} loc("p21.207"), %arg22: tensor<1280x1280xbf16> {ttcore.argument_type = #ttcore.argument_type<parameter>, ttcore.shard_status = #ttcore.shard_status<unsharded>, ttir.name = "l__self___image_encoder_vision_model_encoder_layers_30_self_attn_v_proj_weight"} loc("p22.211"), %arg23: tensor<1280xbf16> {ttcore.argument_type = #ttcore.argument_type<parameter>, ttcore.shard_status = #ttcore.shard_status<unsharded>, ttir.name = "l__self___image_encoder_vision_model_encoder_layers_30_layer_norm1_bias"} loc("p23.217"), %arg24: tensor<1280xbf16> {ttcore.argument_type = #ttcore.argument_type<parameter>, ttcore.shard_status = #ttcore.shard_status<unsharded>, ttir.name = "l__self___image_encoder_vision_model_encoder_layers_30_layer_norm1_weight"} loc("p24.222"), %arg25: tensor<1280xbf16> {ttcore.argument_type = #ttcore.argument_type<parameter>, ttcore.shard_status = #ttcore.shard_status<unsharded>, ttir.name = "l__self___image_encoder_vision_model_encoder_layers_29_mlp_fc2_bias"} loc("p25.231"), %arg26: tensor<1280x5120xbf16> {ttcore.argument_type = #ttcore.argument_type<parameter>, ttcore.shard_status = #ttcore.shard_status<unsharded>, ttir.name = "l__self___image_encoder_vision_model_encoder_layers_29_mlp_fc2_weight"} loc("p26.235"), %arg27: tensor<5120xbf16> {ttcore.argument_type = #ttcore.argument_type<parameter>, ttcore.shard_status = #ttcore.shard_status<unsharded>, ttir.name = "l__self___image_encoder_vision_model_encoder_layers_29_mlp_fc1_bias"} loc("p27.241"), %arg28: tensor<5120x1280xbf16> {ttcore.argument_type = #ttcore.argument_type<parameter>, ttcore.shard_status = #ttcore.shard_status<unsharded>, ttir.name = "l__self___image_encoder_vision_model_encoder_layers_29_mlp_fc1_weight"} loc("p28.245"), %arg29: tensor<1280xbf16> {ttcore.argument_type = #ttcore.argument_type<parameter>, ttcore.shard_status = #ttcore.shard_status<unsharded>, ttir.name = "l__self___image_encoder_vision_model_encoder_layers_29_layer_norm2_bias"} loc("p29.251"), %arg30: tensor<1280xbf16> {ttcore.argument_type = #ttcore.argument_type<parameter>, ttcore.shard_status = #ttcore.shard_status<unsharded>, ttir.name = "l__self___image_encoder_vision_model_encoder_layers_29_layer_norm2_weight"} loc("p30.256"), %arg31: tensor<1280xbf16> {ttcore.argument_type = #ttcore.argument_type<parameter>, ttcore.shard_status = #ttcore.shard_status<unsharded>, ttir.name = "l__self___image_encoder_vision_model_encoder_layers_29_self_attn_out_proj_bias"} loc("p31.265"), %arg32: tensor<1280x1280xbf16> {ttcore.argument_type = #ttcore.argument_type<parameter>, ttcore.shard_status = #ttcore.shard_status<unsharded>, ttir.name = "l__self___image_encoder_vision_model_encoder_layers_29_self_attn_out_proj_weight"} loc("p32.269"), %arg33: tensor<1280xbf16> {ttcore.argument_type = #ttcore.argument_type<parameter>, ttcore.shard_status = #ttcore.shard_status<unsharded>, ttir.name = "l__self___image_encoder_vision_model_encoder_layers_29_self_attn_v_proj_bias"} loc("p33.275"), %arg34: tensor<1280x1280xbf16> {ttcore.argument_type = #ttcore.argument_type<parameter>, ttcore.shard_status = #ttcore.shard_status<unsharded>, ttir.name = "l__self___image_encoder_vision_model_encoder_layers_29_self_attn_v_proj_weight"} loc("p34.279"), %arg35: tensor<1280xbf16> {ttcore.argument_type = #ttcore.argument_type<parameter>, ttcore.shard_status = #ttcore.shard_status<unsharded>, ttir.name = "l__self___image_encoder_vision_model_encoder_layers_29_layer_norm1_bias"} loc("p35.285"), %arg36: tensor<1280xbf16> {ttcore.argument_type = #ttcore.argument_type<parameter>, ttcore.shard_status = #ttcore.shard_status<unsharded>, ttir.name = "l__self___image_encoder_vision_model_encoder_layers_29_layer_norm1_weight"} loc("p36.290"), %arg37: tensor<1280xbf16> {ttcore.argument_type = #ttcore.argument_type<parameter>, ttcore.shard_status = #ttcore.shard_status<unsharded>, ttir.name = "l__self___image_encoder_vision_model_encoder_layers_28_mlp_fc2_bias"} loc("p37.299"), %arg38: tensor<1280x5120xbf16> {ttcore.argument_type = #ttcore.argument_type<parameter>, ttcore.shard_status = #ttcore.shard_status<unsharded>, ttir.name = "l__self___image_encoder_vision_model_encoder_layers_28_mlp_fc2_weight"} loc("p38.303"), %arg39: tensor<5120xbf16> {ttcore.argument_type = #ttcore.argument_type<parameter>, ttcore.shard_status = #ttcore.shard_status<unsharded>, ttir.name = "l__self___image_encoder_vision_model_encoder_layers_28_mlp_fc1_bias"} loc("p39.309"), %arg40: tensor<5120x1280xbf16> {ttcore.argument_type = #ttcore.argument_type<parameter>, ttcore.shard_status = #ttcore.shard_status<unsharded>, ttir.name = "l__self___image_encoder_vision_model_encoder_layers_28_mlp_fc1_weight"} loc("p40.313"), %arg41: tensor<1280xbf16> {ttcore.argument_type = #ttcore.argument_type<parameter>, ttcore.shard_status = #ttcore.shard_status<unsharded>, ttir.name = "l__self___image_encoder_vision_model_encoder_layers_28_layer_norm2_bias"} loc("p41.319"), %arg42: tensor<1280xbf16> {ttcore.argument_type = #ttcore.argument_type<parameter>, ttcore.shard_status = #ttcore.shard_status<unsharded>, ttir.name = "l__self___image_encoder_vision_model_encoder_layers_28_layer_norm2_weight"} loc("p42.324"), %arg43: tensor<1280xbf16> {ttcore.argument_type = #ttcore.argument_type<parameter>, ttcore.shard_status = #ttcore.shard_status<unsharded>, ttir.name = "l__self___image_encoder_vision_model_encoder_layers_28_self_attn_out_proj_bias"} loc("p43.333"), %arg44: tensor<1280x1280xbf16> {ttcore.argument_type = #ttcore.argument_type<parameter>, ttcore.shard_status = #ttcore.shard_status<unsharded>, ttir.name = "l__self___image_encoder_vision_model_encoder_layers_28_self_attn_out_proj_weight"} loc("p44.337"), %arg45: tensor<1280xbf16> {ttcore.argument_type = #ttcore.argument_type<parameter>, ttcore.shard_status = #ttcore.shard_status<unsharded>, ttir.name = "l__self___image_encoder_vision_model_encoder_layers_28_self_attn_v_proj_bias"} loc("p45.343"), %arg46: tensor<1280x1280xbf16> {ttcore.argument_type = #ttcore.argument_type<parameter>, ttcore.shard_status = #ttcore.shard_status<unsharded>, ttir.name = "l__self___image_encoder_vision_model_encoder_layers_28_self_attn_v_proj_weight"} loc("p46.347"), %arg47: tensor<1280xbf16> {ttcore.argument_type = #ttcore.argument_type<parameter>, ttcore.shard_status = #ttcore.shard_status<unsharded>, ttir.name = "l__self___image_encoder_vision_model_encoder_layers_28_layer_norm1_bias"} loc("p47.353"), %arg48: tensor<1280xbf16> {ttcore.argument_type = #ttcore.argument_type<parameter>, ttcore.shard_status = #ttcore.shard_status<unsharded>, ttir.name = "l__self___image_encoder_vision_model_encoder_layers_28_layer_norm1_weight"} loc("p48.358"), %arg49: tensor<1280xbf16> {ttcore.argument_type = #ttcore.argument_type<parameter>, ttcore.shard_status = #ttcore.shard_status<unsharded>, ttir.name = "l__self___image_encoder_vision_model_encoder_layers_27_mlp_fc2_bias"} loc("p49.367"), %arg50: tensor<1280x5120xbf16> {ttcore.argument_type = #ttcore.argument_type<parameter>, ttcore.shard_status = #ttcore.shard_status<unsharded>, ttir.name = "l__self___image_encoder_vision_model_encoder_layers_27_mlp_fc2_weight"} loc("p50.371"), %arg51: tensor<5120xbf16> {ttcore.argument_type = #ttcore.argument_type<parameter>, ttcore.shard_status = #ttcore.shard_status<unsharded>, ttir.name = "l__self___image_encoder_vision_model_encoder_layers_27_mlp_fc1_bias"} loc("p51.377"), %arg52: tensor<5120x1280xbf16> {ttcore.argument_type = #ttcore.argument_type<parameter>, ttcore.shard_status = #ttcore.shard_status<unsharded>, ttir.name = "l__self___image_encoder_vision_model_encoder_layers_27_mlp_fc1_weight"} loc("p52.381"), %arg53: tensor<1280xbf16> {ttcore.argument_type = #ttcore.argument_type<parameter>, ttcore.shard_status = #ttcore.shard_status<unsharded>, ttir.name = "l__self___image_encoder_vision_model_encoder_layers_27_layer_norm2_bias"} loc("p53.387"), %arg54: tensor<1280xbf16> {ttcore.argument_type = #ttcore.argument_type<parameter>, ttcore.shard_status = #ttcore.shard_status<unsharded>, ttir.name = "l__self___image_encoder_vision_model_encoder_layers_27_layer_norm2_weight"} loc("p54.392"), %arg55: tensor<1280xbf16> {ttcore.argument_type = #ttcore.argument_type<parameter>, ttcore.shard_status = #ttcore.shard_status<unsharded>, ttir.name = "l__self___image_encoder_vision_model_encoder_layers_27_self_attn_out_proj_bias"} loc("p55.401"), %arg56: tensor<1280x1280xbf16> {ttcore.argument_type = #ttcore.argument_type<parameter>, ttcore.shard_status = #ttcore.shard_status<unsharded>, ttir.name = "l__self___image_encoder_vision_model_encoder_layers_27_self_attn_out_proj_weight"} loc("p56.405"), %arg57: tensor<1280xbf16> {ttcore.argument_type = #ttcore.argument_type<parameter>, ttcore.shard_status = #ttcore.shard_status<unsharded>, ttir.name = "l__self___image_encoder_vision_model_encoder_layers_27_self_attn_v_proj_bias"} loc("p57.411"), %arg58: tensor<1280x1280xbf16> {ttcore.argument_type = #ttcore.argument_type<parameter>, ttcore.shard_status = #ttcore.shard_status<unsharded>, ttir.name = "l__self___image_encoder_vision_model_encoder_layers_27_self_attn_v_proj_weight"} loc("p58.415"), %arg59: tensor<1280xbf16> {ttcore.argument_type = #ttcore.argument_type<parameter>, ttcore.shard_status = #ttcore.shard_status<unsharded>, ttir.name = "l__self___image_encoder_vision_model_encoder_layers_27_layer_norm1_bias"} loc("p59.421"), %arg60: tensor<1280xbf16> {ttcore.argument_type = #ttcore.argument_type<parameter>, ttcore.shard_status = #ttcore.shard_status<unsharded>, ttir.name = "l__self___image_encoder_vision_model_encoder_layers_27_layer_norm1_weight"} loc("p60.426"), %arg61: tensor<1280xbf16> {ttcore.argument_type = #ttcore.argument_type<parameter>, ttcore.shard_status = #ttcore.shard_status<unsharded>, ttir.name = "l__self___image_encoder_vision_model_encoder_layers_26_mlp_fc2_bias"} loc("p61.435"), %arg62: tensor<1280x5120xbf16> {ttcore.argument_type = #ttcore.argument_type<parameter>, ttcore.shard_status = #ttcore.shard_status<unsharded>, ttir.name = "l__self___image_encoder_vision_model_encoder_layers_26_mlp_fc2_weight"} loc("p62.439"), %arg63: tensor<5120xbf16> {ttcore.argument_type = #ttcore.argument_type<parameter>, ttcore.shard_status = #ttcore.shard_status<unsharded>, ttir.name = "l__self___image_encoder_vision_model_encoder_layers_26_mlp_fc1_bias"} loc("p63.445"), %arg64: tensor<5120x1280xbf16> {ttcore.argument_type = #ttcore.argument_type<parameter>, ttcore.shard_status = #ttcore.shard_status<unsharded>, ttir.name = "l__self___image_encoder_vision_model_encoder_layers_26_mlp_fc1_weight"} loc("p64.449"), %arg65: tensor<1280xbf16> {ttcore.argument_type = #ttcore.argument_type<parameter>, ttcore.shard_status = #ttcore.shard_status<unsharded>, ttir.name = "l__self___image_encoder_vision_model_encoder_layers_26_layer_norm2_bias"} loc("p65.455"), %arg66: tensor<1280xbf16> {ttcore.argument_type = #ttcore.argument_type<parameter>, ttcore.shard_status = #ttcore.shard_status<unsharded>, ttir.name = "l__self___image_encoder_vision_model_encoder_layers_26_layer_norm2_weight"} loc("p66.460"), %arg67: tensor<1280xbf16> {ttcore.argument_type = #ttcore.argument_type<parameter>, ttcore.shard_status = #ttcore.shard_status<unsharded>, ttir.name = "l__self___image_encoder_vision_model_encoder_layers_26_self_attn_out_proj_bias"} loc("p67.469"), %arg68: tensor<1280x1280xbf16> {ttcore.argument_type = #ttcore.argument_type<parameter>, ttcore.shard_status = #ttcore.shard_status<unsharded>, ttir.name = "l__self___image_encoder_vision_model_encoder_layers_26_self_attn_out_proj_weight"} loc("p68.473"), %arg69: tensor<1280xbf16> {ttcore.argument_type = #ttcore.argument_type<parameter>, ttcore.shard_status = #ttcore.shard_status<unsharded>, ttir.name = "l__self___image_encoder_vision_model_encoder_layers_26_self_attn_v_proj_bias"} loc("p69.479"), %arg70: tensor<1280x1280xbf16> {ttcore.argument_type = #ttcore.argument_type<parameter>, ttcore.shard_status = #ttcore.shard_status<unsharded>, ttir.name = "l__self___image_encoder_vision_model_encoder_layers_26_self_attn_v_proj_weight"} loc("p70.483"), %arg71: tensor<1280xbf16> {ttcore.argument_type = #ttcore.argument_type<parameter>, ttcore.shard_status = #ttcore.shard_status<unsharded>, ttir.name = "l__self___image_encoder_vision_model_encoder_layers_26_layer_norm1_bias"} loc("p71.489"), %arg72: tensor<1280xbf16> {ttcore.argument_type = #ttcore.argument_type<parameter>, ttcore.shard_status = #ttcore.shard_status<unsharded>, ttir.name = "l__self___image_encoder_vision_model_encoder_layers_26_layer_norm1_weight"} loc("p72.494"), %arg73: tensor<1280xbf16> {ttcore.argument_type = #ttcore.argument_type<parameter>, ttcore.shard_status = #ttcore.shard_status<unsharded>, ttir.name = "l__self___image_encoder_vision_model_encoder_layers_25_mlp_fc2_bias"} loc("p73.503"), %arg74: tensor<1280x5120xbf16> {ttcore.argument_type = #ttcore.argument_type<parameter>, ttcore.shard_status = #ttcore.shard_status<unsharded>, ttir.name = "l__self___image_encoder_vision_model_encoder_layers_25_mlp_fc2_weight"} loc("p74.507"), %arg75: tensor<5120xbf16> {ttcore.argument_type = #ttcore.argument_type<parameter>, ttcore.shard_status = #ttcore.shard_status<unsharded>, ttir.name = "l__self___image_encoder_vision_model_encoder_layers_25_mlp_fc1_bias"} loc("p75.513"), %arg76: tensor<5120x1280xbf16> {ttcore.argument_type = #ttcore.argument_type<parameter>, ttcore.shard_status = #ttcore.shard_status<unsharded>, ttir.name = "l__self___image_encoder_vision_model_encoder_layers_25_mlp_fc1_weight"} loc("p76.517"), %arg77: tensor<1280xbf16> {ttcore.argument_type = #ttcore.argument_type<parameter>, ttcore.shard_status = #ttcore.shard_status<unsharded>, ttir.name = "l__self___image_encoder_vision_model_encoder_layers_25_layer_norm2_bias"} loc("p77.523"), %arg78: tensor<1280xbf16> {ttcore.argument_type = #ttcore.argument_type<parameter>, ttcore.shard_status = #ttcore.shard_status<unsharded>, ttir.name = "l__self___image_encoder_vision_model_encoder_layers_25_layer_norm2_weight"} loc("p78.528"), %arg79: tensor<1280xbf16> {ttcore.argument_type = #ttcore.argument_type<parameter>, ttcore.shard_status = #ttcore.shard_status<unsharded>, ttir.name = "l__self___image_encoder_vision_model_encoder_layers_25_self_attn_out_proj_bias"} loc("p79.537"), %arg80: tensor<1280x1280xbf16> {ttcore.argument_type = #ttcore.argument_type<parameter>, ttcore.shard_status = #ttcore.shard_status<unsharded>, ttir.name = "l__self___image_encoder_vision_model_encoder_layers_25_self_attn_out_proj_weight"} loc("p80.541"), %arg81: tensor<1280xbf16> {ttcore.argument_type = #ttcore.argument_type<parameter>, ttcore.shard_status = #ttcore.shard_status<unsharded>, ttir.name = "l__self___image_encoder_vision_model_encoder_layers_25_self_attn_v_proj_bias"} loc("p81.547"), %arg82: tensor<1280x1280xbf16> {ttcore.argument_type = #ttcore.argument_type<parameter>, ttcore.shard_status = #ttcore.shard_status<unsharded>, ttir.name = "l__self___image_encoder_vision_model_encoder_layers_25_self_attn_v_proj_weight"} loc("p82.551"), %arg83: tensor<1280xbf16> {ttcore.argument_type = #ttcore.argument_type<parameter>, ttcore.shard_status = #ttcore.shard_status<unsharded>, ttir.name = "l__self___image_encoder_vision_model_encoder_layers_25_layer_norm1_bias"} loc("p83.557"), %arg84: tensor<1280xbf16> {ttcore.argument_type = #ttcore.argument_type<parameter>, ttcore.shard_status = #ttcore.shard_status<unsharded>, ttir.name = "l__self___image_encoder_vision_model_encoder_layers_25_layer_norm1_weight"} loc("p84.562"), %arg85: tensor<1280xbf16> {ttcore.argument_type = #ttcore.argument_type<parameter>, ttcore.shard_status = #ttcore.shard_status<unsharded>, ttir.name = "l__self___image_encoder_vision_model_encoder_layers_24_mlp_fc2_bias"} loc("p85.571"), %arg86: tensor<1280x5120xbf16> {ttcore.argument_type = #ttcore.argument_type<parameter>, ttcore.shard_status = #ttcore.shard_status<unsharded>, ttir.name = "l__self___image_encoder_vision_model_encoder_layers_24_mlp_fc2_weight"} loc("p86.575"), %arg87: tensor<5120xbf16> {ttcore.argument_type = #ttcore.argument_type<parameter>, ttcore.shard_status = #ttcore.shard_status<unsharded>, ttir.name = "l__self___image_encoder_vision_model_encoder_layers_24_mlp_fc1_bias"} loc("p87.581"), %arg88: tensor<5120x1280xbf16> {ttcore.argument_type = #ttcore.argument_type<parameter>, ttcore.shard_status = #ttcore.shard_status<unsharded>, ttir.name = "l__self___image_encoder_vision_model_encoder_layers_24_mlp_fc1_weight"} loc("p88.585"), %arg89: tensor<1280xbf16> {ttcore.argument_type = #ttcore.argument_type<parameter>, ttcore.shard_status = #ttcore.shard_status<unsharded>, ttir.name = "l__self___image_encoder_vision_model_encoder_layers_24_layer_norm2_bias"} loc("p89.591"), %arg90: tensor<1280xbf16> {ttcore.argument_type = #ttcore.argument_type<parameter>, ttcore.shard_status = #ttcore.shard_status<unsharded>, ttir.name = "l__self___image_encoder_vision_model_encoder_layers_24_layer_norm2_weight"} loc("p90.596"), %arg91: tensor<1280xbf16> {ttcore.argument_type = #ttcore.argument_type<parameter>, ttcore.shard_status = #ttcore.shard_status<unsharded>, ttir.name = "l__self___image_encoder_vision_model_encoder_layers_24_self_attn_out_proj_bias"} loc("p91.605"), %arg92: tensor<1280x1280xbf16> {ttcore.argument_type = #ttcore.argument_type<parameter>, ttcore.shard_status = #ttcore.shard_status<unsharded>, ttir.name = "l__self___image_encoder_vision_model_encoder_layers_24_self_attn_out_proj_weight"} loc("p92.609"), %arg93: tensor<1280xbf16> {ttcore.argument_type = #ttcore.argument_type<parameter>, ttcore.shard_status = #ttcore.shard_status<unsharded>, ttir.name = "l__self___image_encoder_vision_model_encoder_layers_24_self_attn_v_proj_bias"} loc("p93.615"), %arg94: tensor<1280x1280xbf16> {ttcore.argument_type = #ttcore.argument_type<parameter>, ttcore.shard_status = #ttcore.shard_status<unsharded>, ttir.name = "l__self___image_encoder_vision_model_encoder_layers_24_self_attn_v_proj_weight"} loc("p94.619"), %arg95: tensor<1280xbf16> {ttcore.argument_type = #ttcore.argument_type<parameter>, ttcore.shard_status = #ttcore.shard_status<unsharded>, ttir.name = "l__self___image_encoder_vision_model_encoder_layers_24_layer_norm1_bias"} loc("p95.625"), %arg96: tensor<1280xbf16> {ttcore.argument_type = #ttcore.argument_type<parameter>, ttcore.shard_status = #ttcore.shard_status<unsharded>, ttir.name = "l__self___image_encoder_vision_model_encoder_layers_24_layer_norm1_weight"} loc("p96.630"), %arg97: tensor<1280xbf16> {ttcore.argument_type = #ttcore.argument_type<parameter>, ttcore.shard_status = #ttcore.shard_status<unsharded>, ttir.name = "l__self___image_encoder_vision_model_encoder_layers_23_mlp_fc2_bias"} loc("p97.639"), %arg98: tensor<1280x5120xbf16> {ttcore.argument_type = #ttcore.argument_type<parameter>, ttcore.shard_status = #ttcore.shard_status<unsharded>, ttir.name = "l__self___image_encoder_vision_model_encoder_layers_23_mlp_fc2_weight"} loc("p98.643"), %arg99: tensor<5120xbf16> {ttcore.argument_type = #ttcore.argument_type<parameter>, ttcore.shard_status = #ttcore.shard_status<unsharded>, ttir.name = "l__self___image_encoder_vision_model_encoder_layers_23_mlp_fc1_bias"} loc("p99.649"), %arg100: tensor<5120x1280xbf16> {ttcore.argument_type = #ttcore.argument_type<parameter>, ttcore.shard_status = #ttcore.shard_status<unsharded>, ttir.name = "l__self___image_encoder_vision_model_encoder_layers_23_mlp_fc1_weight"} loc("p100.653"), %arg101: tensor<1280xbf16> {ttcore.argument_type = #ttcore.argument_type<parameter>, ttcore.shard_status = #ttcore.shard_status<unsharded>, ttir.name = "l__self___image_encoder_vision_model_encoder_layers_23_layer_norm2_bias"} loc("p101.659"), %arg102: tensor<1280xbf16> {ttcore.argument_type = #ttcore.argument_type<parameter>, ttcore.shard_status = #ttcore.shard_status<unsharded>, ttir.name = "l__self___image_encoder_vision_model_encoder_layers_23_layer_norm2_weight"} loc("p102.664"), %arg103: tensor<1280xbf16> {ttcore.argument_type = #ttcore.argument_type<parameter>, ttcore.shard_status = #ttcore.shard_status<unsharded>, ttir.name = "l__self___image_encoder_vision_model_encoder_layers_23_self_attn_out_proj_bias"} loc("p103.673"), %arg104: tensor<1280x1280xbf16> {ttcore.argument_type = #ttcore.argument_type<parameter>, ttcore.shard_status = #ttcore.shard_status<unsharded>, ttir.name = "l__self___image_encoder_vision_model_encoder_layers_23_self_attn_out_proj_weight"} loc("p104.677"), %arg105: tensor<1280xbf16> {ttcore.argument_type = #ttcore.argument_type<parameter>, ttcore.shard_status = #ttcore.shard_status<unsharded>, ttir.name = "l__self___image_encoder_vision_model_encoder_layers_23_self_attn_v_proj_bias"} loc("p105.683"), %arg106: tensor<1280x1280xbf16> {ttcore.argument_type = #ttcore.argument_type<parameter>, ttcore.shard_status = #ttcore.shard_status<unsharded>, ttir.name = "l__self___image_encoder_vision_model_encoder_layers_23_self_attn_v_proj_weight"} loc("p106.687"), %arg107: tensor<1280xbf16> {ttcore.argument_type = #ttcore.argument_type<parameter>, ttcore.shard_status = #ttcore.shard_status<unsharded>, ttir.name = "l__self___image_encoder_vision_model_encoder_layers_23_layer_norm1_bias"} loc("p107.693"), %arg108: tensor<1280xbf16> {ttcore.argument_type = #ttcore.argument_type<parameter>, ttcore.shard_status = #ttcore.shard_status<unsharded>, ttir.name = "l__self___image_encoder_vision_model_encoder_layers_23_layer_norm1_weight"} loc("p108.698"), %arg109: tensor<1280xbf16> {ttcore.argument_type = #ttcore.argument_type<parameter>, ttcore.shard_status = #ttcore.shard_status<unsharded>, ttir.name = "l__self___image_encoder_vision_model_encoder_layers_22_mlp_fc2_bias"} loc("p109.707"), %arg110: tensor<1280x5120xbf16> {ttcore.argument_type = #ttcore.argument_type<parameter>, ttcore.shard_status = #ttcore.shard_status<unsharded>, ttir.name = "l__self___image_encoder_vision_model_encoder_layers_22_mlp_fc2_weight"} loc("p110.711"), %arg111: tensor<5120xbf16> {ttcore.argument_type = #ttcore.argument_type<parameter>, ttcore.shard_status = #ttcore.shard_status<unsharded>, ttir.name = "l__self___image_encoder_vision_model_encoder_layers_22_mlp_fc1_bias"} loc("p111.717"), %arg112: tensor<5120x1280xbf16> {ttcore.argument_type = #ttcore.argument_type<parameter>, ttcore.shard_status = #ttcore.shard_status<unsharded>, ttir.name = "l__self___image_encoder_vision_model_encoder_layers_22_mlp_fc1_weight"} loc("p112.721"), %arg113: tensor<1280xbf16> {ttcore.argument_type = #ttcore.argument_type<parameter>, ttcore.shard_status = #ttcore.shard_status<unsharded>, ttir.name = "l__self___image_encoder_vision_model_encoder_layers_22_layer_norm2_bias"} loc("p113.727"), %arg114: tensor<1280xbf16> {ttcore.argument_type = #ttcore.argument_type<parameter>, ttcore.shard_status = #ttcore.shard_status<unsharded>, ttir.name = "l__self___image_encoder_vision_model_encoder_layers_22_layer_norm2_weight"} loc("p114.732"), %arg115: tensor<1280xbf16> {ttcore.argument_type = #ttcore.argument_type<parameter>, ttcore.shard_status = #ttcore.shard_status<unsharded>, ttir.name = "l__self___image_encoder_vision_model_encoder_layers_22_self_attn_out_proj_bias"} loc("p115.741"), %arg116: tensor<1280x1280xbf16> {ttcore.argument_type = #ttcore.argument_type<parameter>, ttcore.shard_status = #ttcore.shard_status<unsharded>, ttir.name = "l__self___image_encoder_vision_model_encoder_layers_22_self_attn_out_proj_weight"} loc("p116.745"), %arg117: tensor<1280xbf16> {ttcore.argument_type = #ttcore.argument_type<parameter>, ttcore.shard_status = #ttcore.shard_status<unsharded>, ttir.name = "l__self___image_encoder_vision_model_encoder_layers_22_self_attn_v_proj_bias"} loc("p117.751"), %arg118: tensor<1280x1280xbf16> {ttcore.argument_type = #ttcore.argument_type<parameter>, ttcore.shard_status = #ttcore.shard_status<unsharded>, ttir.name = "l__self___image_encoder_vision_model_encoder_layers_22_self_attn_v_proj_weight"} loc("p118.755"), %arg119: tensor<1280xbf16> {ttcore.argument_type = #ttcore.argument_type<parameter>, ttcore.shard_status = #ttcore.shard_status<unsharded>, ttir.name = "l__self___image_encoder_vision_model_encoder_layers_22_layer_norm1_bias"} loc("p119.761"), %arg120: tensor<1280xbf16> {ttcore.argument_type = #ttcore.argument_type<parameter>, ttcore.shard_status = #ttcore.shard_status<unsharded>, ttir.name = "l__self___image_encoder_vision_model_encoder_layers_22_layer_norm1_weight"} loc("p120.766"), %arg121: tensor<1280xbf16> {ttcore.argument_type = #ttcore.argument_type<parameter>, ttcore.shard_status = #ttcore.shard_status<unsharded>, ttir.name = "l__self___image_encoder_vision_model_encoder_layers_21_mlp_fc2_bias"} loc("p121.775"), %arg122: tensor<1280x5120xbf16> {ttcore.argument_type = #ttcore.argument_type<parameter>, ttcore.shard_status = #ttcore.shard_status<unsharded>, ttir.name = "l__self___image_encoder_vision_model_encoder_layers_21_mlp_fc2_weight"} loc("p122.779"), %arg123: tensor<5120xbf16> {ttcore.argument_type = #ttcore.argument_type<parameter>, ttcore.shard_status = #ttcore.shard_status<unsharded>, ttir.name = "l__self___image_encoder_vision_model_encoder_layers_21_mlp_fc1_bias"} loc("p123.785"), %arg124: tensor<5120x1280xbf16> {ttcore.argument_type = #ttcore.argument_type<parameter>, ttcore.shard_status = #ttcore.shard_status<unsharded>, ttir.name = "l__self___image_encoder_vision_model_encoder_layers_21_mlp_fc1_weight"} loc("p124.789"), %arg125: tensor<1280xbf16> {ttcore.argument_type = #ttcore.argument_type<parameter>, ttcore.shard_status = #ttcore.shard_status<unsharded>, ttir.name = "l__self___image_encoder_vision_model_encoder_layers_21_layer_norm2_bias"} loc("p125.795"), %arg126: tensor<1280xbf16> {ttcore.argument_type = #ttcore.argument_type<parameter>, ttcore.shard_status = #ttcore.shard_status<unsharded>, ttir.name = "l__self___image_encoder_vision_model_encoder_layers_21_layer_norm2_weight"} loc("p126.800"), %arg127: tensor<1280xbf16> {ttcore.argument_type = #ttcore.argument_type<parameter>, ttcore.shard_status = #ttcore.shard_status<unsharded>, ttir.name = "l__self___image_encoder_vision_model_encoder_layers_21_self_attn_out_proj_bias"} loc("p127.809"), %arg128: tensor<1280x1280xbf16> {ttcore.argument_type = #ttcore.argument_type<parameter>, ttcore.shard_status = #ttcore.shard_status<unsharded>, ttir.name = "l__self___image_encoder_vision_model_encoder_layers_21_self_attn_out_proj_weight"} loc("p128.813"), %arg129: tensor<1280xbf16> {ttcore.argument_type = #ttcore.argument_type<parameter>, ttcore.shard_status = #ttcore.shard_status<unsharded>, ttir.name = "l__self___image_encoder_vision_model_encoder_layers_21_self_attn_v_proj_bias"} loc("p129.819"), %arg130: tensor<1280x1280xbf16> {ttcore.argument_type = #ttcore.argument_type<parameter>, ttcore.shard_status = #ttcore.shard_status<unsharded>, ttir.name = "l__self___image_encoder_vision_model_encoder_layers_21_self_attn_v_proj_weight"} loc("p130.823"), %arg131: tensor<1280xbf16> {ttcore.argument_type = #ttcore.argument_type<parameter>, ttcore.shard_status = #ttcore.shard_status<unsharded>, ttir.name = "l__self___image_encoder_vision_model_encoder_layers_21_layer_norm1_bias"} loc("p131.829"), %arg132: tensor<1280xbf16> {ttcore.argument_type = #ttcore.argument_type<parameter>, ttcore.shard_status = #ttcore.shard_status<unsharded>, ttir.name = "l__self___image_encoder_vision_model_encoder_layers_21_layer_norm1_weight"} loc("p132.834"), %arg133: tensor<1280xbf16> {ttcore.argument_type = #ttcore.argument_type<parameter>, ttcore.shard_status = #ttcore.shard_status<unsharded>, ttir.name = "l__self___image_encoder_vision_model_encoder_layers_20_mlp_fc2_bias"} loc("p133.843"), %arg134: tensor<1280x5120xbf16> {ttcore.argument_type = #ttcore.argument_type<parameter>, ttcore.shard_status = #ttcore.shard_status<unsharded>, ttir.name = "l__self___image_encoder_vision_model_encoder_layers_20_mlp_fc2_weight"} loc("p134.847"), %arg135: tensor<5120xbf16> {ttcore.argument_type = #ttcore.argument_type<parameter>, ttcore.shard_status = #ttcore.shard_status<unsharded>, ttir.name = "l__self___image_encoder_vision_model_encoder_layers_20_mlp_fc1_bias"} loc("p135.853"), %arg136: tensor<5120x1280xbf16> {ttcore.argument_type = #ttcore.argument_type<parameter>, ttcore.shard_status = #ttcore.shard_status<unsharded>, ttir.name = "l__self___image_encoder_vision_model_encoder_layers_20_mlp_fc1_weight"} loc("p136.857"), %arg137: tensor<1280xbf16> {ttcore.argument_type = #ttcore.argument_type<parameter>, ttcore.shard_status = #ttcore.shard_status<unsharded>, ttir.name = "l__self___image_encoder_vision_model_encoder_layers_20_layer_norm2_bias"} loc("p137.863"), %arg138: tensor<1280xbf16> {ttcore.argument_type = #ttcore.argument_type<parameter>, ttcore.shard_status = #ttcore.shard_status<unsharded>, ttir.name = "l__self___image_encoder_vision_model_encoder_layers_20_layer_norm2_weight"} loc("p138.868"), %arg139: tensor<1280xbf16> {ttcore.argument_type = #ttcore.argument_type<parameter>, ttcore.shard_status = #ttcore.shard_status<unsharded>, ttir.name = "l__self___image_encoder_vision_model_encoder_layers_20_self_attn_out_proj_bias"} loc("p139.877"), %arg140: tensor<1280x1280xbf16> {ttcore.argument_type = #ttcore.argument_type<parameter>, ttcore.shard_status = #ttcore.shard_status<unsharded>, ttir.name = "l__self___image_encoder_vision_model_encoder_layers_20_self_attn_out_proj_weight"} loc("p140.881"), %arg141: tensor<1280xbf16> {ttcore.argument_type = #ttcore.argument_type<parameter>, ttcore.shard_status = #ttcore.shard_status<unsharded>, ttir.name = "l__self___image_encoder_vision_model_encoder_layers_20_self_attn_v_proj_bias"} loc("p141.887"), %arg142: tensor<1280x1280xbf16> {ttcore.argument_type = #ttcore.argument_type<parameter>, ttcore.shard_status = #ttcore.shard_status<unsharded>, ttir.name = "l__self___image_encoder_vision_model_encoder_layers_20_self_attn_v_proj_weight"} loc("p142.891"), %arg143: tensor<1280xbf16> {ttcore.argument_type = #ttcore.argument_type<parameter>, ttcore.shard_status = #ttcore.shard_status<unsharded>, ttir.name = "l__self___image_encoder_vision_model_encoder_layers_20_layer_norm1_bias"} loc("p143.897"), %arg144: tensor<1280xbf16> {ttcore.argument_type = #ttcore.argument_type<parameter>, ttcore.shard_status = #ttcore.shard_status<unsharded>, ttir.name = "l__self___image_encoder_vision_model_encoder_layers_20_layer_norm1_weight"} loc("p144.902"), %arg145: tensor<1280xbf16> {ttcore.argument_type = #ttcore.argument_type<parameter>, ttcore.shard_status = #ttcore.shard_status<unsharded>, ttir.name = "l__self___image_encoder_vision_model_encoder_layers_19_mlp_fc2_bias"} loc("p145.911"), %arg146: tensor<1280x5120xbf16> {ttcore.argument_type = #ttcore.argument_type<parameter>, ttcore.shard_status = #ttcore.shard_status<unsharded>, ttir.name = "l__self___image_encoder_vision_model_encoder_layers_19_mlp_fc2_weight"} loc("p146.915"), %arg147: tensor<5120xbf16> {ttcore.argument_type = #ttcore.argument_type<parameter>, ttcore.shard_status = #ttcore.shard_status<unsharded>, ttir.name = "l__self___image_encoder_vision_model_encoder_layers_19_mlp_fc1_bias"} loc("p147.921"), %arg148: tensor<5120x1280xbf16> {ttcore.argument_type = #ttcore.argument_type<parameter>, ttcore.shard_status = #ttcore.shard_status<unsharded>, ttir.name = "l__self___image_encoder_vision_model_encoder_layers_19_mlp_fc1_weight"} loc("p148.925"), %arg149: tensor<1280xbf16> {ttcore.argument_type = #ttcore.argument_type<parameter>, ttcore.shard_status = #ttcore.shard_status<unsharded>, ttir.name = "l__self___image_encoder_vision_model_encoder_layers_19_layer_norm2_bias"} loc("p149.931"), %arg150: tensor<1280xbf16> {ttcore.argument_type = #ttcore.argument_type<parameter>, ttcore.shard_status = #ttcore.shard_status<unsharded>, ttir.name = "l__self___image_encoder_vision_model_encoder_layers_19_layer_norm2_weight"} loc("p150.936"), %arg151: tensor<1280xbf16> {ttcore.argument_type = #ttcore.argument_type<parameter>, ttcore.shard_status = #ttcore.shard_status<unsharded>, ttir.name = "l__self___image_encoder_vision_model_encoder_layers_19_self_attn_out_proj_bias"} loc("p151.945"), %arg152: tensor<1280x1280xbf16> {ttcore.argument_type = #ttcore.argument_type<parameter>, ttcore.shard_status = #ttcore.shard_status<unsharded>, ttir.name = "l__self___image_encoder_vision_model_encoder_layers_19_self_attn_out_proj_weight"} loc("p152.949"), %arg153: tensor<1280xbf16> {ttcore.argument_type = #ttcore.argument_type<parameter>, ttcore.shard_status = #ttcore.shard_status<unsharded>, ttir.name = "l__self___image_encoder_vision_model_encoder_layers_19_self_attn_v_proj_bias"} loc("p153.955"), %arg154: tensor<1280x1280xbf16> {ttcore.argument_type = #ttcore.argument_type<parameter>, ttcore.shard_status = #ttcore.shard_status<unsharded>, ttir.name = "l__self___image_encoder_vision_model_encoder_layers_19_self_attn_v_proj_weight"} loc("p154.959"), %arg155: tensor<1280xbf16> {ttcore.argument_type = #ttcore.argument_type<parameter>, ttcore.shard_status = #ttcore.shard_status<unsharded>, ttir.name = "l__self___image_encoder_vision_model_encoder_layers_19_layer_norm1_bias"} loc("p155.965"), %arg156: tensor<1280xbf16> {ttcore.argument_type = #ttcore.argument_type<parameter>, ttcore.shard_status = #ttcore.shard_status<unsharded>, ttir.name = "l__self___image_encoder_vision_model_encoder_layers_19_layer_norm1_weight"} loc("p156.970"), %arg157: tensor<1280xbf16> {ttcore.argument_type = #ttcore.argument_type<parameter>, ttcore.shard_status = #ttcore.shard_status<unsharded>, ttir.name = "l__self___image_encoder_vision_model_encoder_layers_18_mlp_fc2_bias"} loc("p157.979"), %arg158: tensor<1280x5120xbf16> {ttcore.argument_type = #ttcore.argument_type<parameter>, ttcore.shard_status = #ttcore.shard_status<unsharded>, ttir.name = "l__self___image_encoder_vision_model_encoder_layers_18_mlp_fc2_weight"} loc("p158.983"), %arg159: tensor<5120xbf16> {ttcore.argument_type = #ttcore.argument_type<parameter>, ttcore.shard_status = #ttcore.shard_status<unsharded>, ttir.name = "l__self___image_encoder_vision_model_encoder_layers_18_mlp_fc1_bias"} loc("p159.989"), %arg160: tensor<5120x1280xbf16> {ttcore.argument_type = #ttcore.argument_type<parameter>, ttcore.shard_status = #ttcore.shard_status<unsharded>, ttir.name = "l__self___image_encoder_vision_model_encoder_layers_18_mlp_fc1_weight"} loc("p160.993"), %arg161: tensor<1280xbf16> {ttcore.argument_type = #ttcore.argument_type<parameter>, ttcore.shard_status = #ttcore.shard_status<unsharded>, ttir.name = "l__self___image_encoder_vision_model_encoder_layers_18_layer_norm2_bias"} loc("p161.999"), %arg162: tensor<1280xbf16> {ttcore.argument_type = #ttcore.argument_type<parameter>, ttcore.shard_status = #ttcore.shard_status<unsharded>, ttir.name = "l__self___image_encoder_vision_model_encoder_layers_18_layer_norm2_weight"} loc("p162.1004"), %arg163: tensor<1280xbf16> {ttcore.argument_type = #ttcore.argument_type<parameter>, ttcore.shard_status = #ttcore.shard_status<unsharded>, ttir.name = "l__self___image_encoder_vision_model_encoder_layers_18_self_attn_out_proj_bias"} loc("p163.1013"), %arg164: tensor<1280x1280xbf16> {ttcore.argument_type = #ttcore.argument_type<parameter>, ttcore.shard_status = #ttcore.shard_status<unsharded>, ttir.name = "l__self___image_encoder_vision_model_encoder_layers_18_self_attn_out_proj_weight"} loc("p164.1017"), %arg165: tensor<1280xbf16> {ttcore.argument_type = #ttcore.argument_type<parameter>, ttcore.shard_status = #ttcore.shard_status<unsharded>, ttir.name = "l__self___image_encoder_vision_model_encoder_layers_18_self_attn_v_proj_bias"} loc("p165.1023"), %arg166: tensor<1280x1280xbf16> {ttcore.argument_type = #ttcore.argument_type<parameter>, ttcore.shard_status = #ttcore.shard_status<unsharded>, ttir.name = "l__self___image_encoder_vision_model_encoder_layers_18_self_attn_v_proj_weight"} loc("p166.1027"), %arg167: tensor<1280xbf16> {ttcore.argument_type = #ttcore.argument_type<parameter>, ttcore.shard_status = #ttcore.shard_status<unsharded>, ttir.name = "l__self___image_encoder_vision_model_encoder_layers_18_layer_norm1_bias"} loc("p167.1033"), %arg168: tensor<1280xbf16> {ttcore.argument_type = #ttcore.argument_type<parameter>, ttcore.shard_status = #ttcore.shard_status<unsharded>, ttir.name = "l__self___image_encoder_vision_model_encoder_layers_18_layer_norm1_weight"} loc("p168.1038"), %arg169: tensor<1280xbf16> {ttcore.argument_type = #ttcore.argument_type<parameter>, ttcore.shard_status = #ttcore.shard_status<unsharded>, ttir.name = "l__self___image_encoder_vision_model_encoder_layers_17_mlp_fc2_bias"} loc("p169.1047"), %arg170: tensor<1280x5120xbf16> {ttcore.argument_type = #ttcore.argument_type<parameter>, ttcore.shard_status = #ttcore.shard_status<unsharded>, ttir.name = "l__self___image_encoder_vision_model_encoder_layers_17_mlp_fc2_weight"} loc("p170.1051"), %arg171: tensor<5120xbf16> {ttcore.argument_type = #ttcore.argument_type<parameter>, ttcore.shard_status = #ttcore.shard_status<unsharded>, ttir.name = "l__self___image_encoder_vision_model_encoder_layers_17_mlp_fc1_bias"} loc("p171.1057"), %arg172: tensor<5120x1280xbf16> {ttcore.argument_type = #ttcore.argument_type<parameter>, ttcore.shard_status = #ttcore.shard_status<unsharded>, ttir.name = "l__self___image_encoder_vision_model_encoder_layers_17_mlp_fc1_weight"} loc("p172.1061"), %arg173: tensor<1280xbf16> {ttcore.argument_type = #ttcore.argument_type<parameter>, ttcore.shard_status = #ttcore.shard_status<unsharded>, ttir.name = "l__self___image_encoder_vision_model_encoder_layers_17_layer_norm2_bias"} loc("p173.1067"), %arg174: tensor<1280xbf16> {ttcore.argument_type = #ttcore.argument_type<parameter>, ttcore.shard_status = #ttcore.shard_status<unsharded>, ttir.name = "l__self___image_encoder_vision_model_encoder_layers_17_layer_norm2_weight"} loc("p174.1072"), %arg175: tensor<1280xbf16> {ttcore.argument_type = #ttcore.argument_type<parameter>, ttcore.shard_status = #ttcore.shard_status<unsharded>, ttir.name = "l__self___image_encoder_vision_model_encoder_layers_17_self_attn_out_proj_bias"} loc("p175.1081"), %arg176: tensor<1280x1280xbf16> {ttcore.argument_type = #ttcore.argument_type<parameter>, ttcore.shard_status = #ttcore.shard_status<unsharded>, ttir.name = "l__self___image_encoder_vision_model_encoder_layers_17_self_attn_out_proj_weight"} loc("p176.1085"), %arg177: tensor<1280xbf16> {ttcore.argument_type = #ttcore.argument_type<parameter>, ttcore.shard_status = #ttcore.shard_status<unsharded>, ttir.name = "l__self___image_encoder_vision_model_encoder_layers_17_self_attn_v_proj_bias"} loc("p177.1091"), %arg178: tensor<1280x1280xbf16> {ttcore.argument_type = #ttcore.argument_type<parameter>, ttcore.shard_status = #ttcore.shard_status<unsharded>, ttir.name = "l__self___image_encoder_vision_model_encoder_layers_17_self_attn_v_proj_weight"} loc("p178.1095"), %arg179: tensor<1280xbf16> {ttcore.argument_type = #ttcore.argument_type<parameter>, ttcore.shard_status = #ttcore.shard_status<unsharded>, ttir.name = "l__self___image_encoder_vision_model_encoder_layers_17_layer_norm1_bias"} loc("p179.1101"), %arg180: tensor<1280xbf16> {ttcore.argument_type = #ttcore.argument_type<parameter>, ttcore.shard_status = #ttcore.shard_status<unsharded>, ttir.name = "l__self___image_encoder_vision_model_encoder_layers_17_layer_norm1_weight"} loc("p180.1106"), %arg181: tensor<1280xbf16> {ttcore.argument_type = #ttcore.argument_type<parameter>, ttcore.shard_status = #ttcore.shard_status<unsharded>, ttir.name = "l__self___image_encoder_vision_model_encoder_layers_16_mlp_fc2_bias"} loc("p181.1115"), %arg182: tensor<1280x5120xbf16> {ttcore.argument_type = #ttcore.argument_type<parameter>, ttcore.shard_status = #ttcore.shard_status<unsharded>, ttir.name = "l__self___image_encoder_vision_model_encoder_layers_16_mlp_fc2_weight"} loc("p182.1119"), %arg183: tensor<5120xbf16> {ttcore.argument_type = #ttcore.argument_type<parameter>, ttcore.shard_status = #ttcore.shard_status<unsharded>, ttir.name = "l__self___image_encoder_vision_model_encoder_layers_16_mlp_fc1_bias"} loc("p183.1125"), %arg184: tensor<5120x1280xbf16> {ttcore.argument_type = #ttcore.argument_type<parameter>, ttcore.shard_status = #ttcore.shard_status<unsharded>, ttir.name = "l__self___image_encoder_vision_model_encoder_layers_16_mlp_fc1_weight"} loc("p184.1129"), %arg185: tensor<1280xbf16> {ttcore.argument_type = #ttcore.argument_type<parameter>, ttcore.shard_status = #ttcore.shard_status<unsharded>, ttir.name = "l__self___image_encoder_vision_model_encoder_layers_16_layer_norm2_bias"} loc("p185.1135"), %arg186: tensor<1280xbf16> {ttcore.argument_type = #ttcore.argument_type<parameter>, ttcore.shard_status = #ttcore.shard_status<unsharded>, ttir.name = "l__self___image_encoder_vision_model_encoder_layers_16_layer_norm2_weight"} loc("p186.1140"), %arg187: tensor<1280xbf16> {ttcore.argument_type = #ttcore.argument_type<parameter>, ttcore.shard_status = #ttcore.shard_status<unsharded>, ttir.name = "l__self___image_encoder_vision_model_encoder_layers_16_self_attn_out_proj_bias"} loc("p187.1149"), %arg188: tensor<1280x1280xbf16> {ttcore.argument_type = #ttcore.argument_type<parameter>, ttcore.shard_status = #ttcore.shard_status<unsharded>, ttir.name = "l__self___image_encoder_vision_model_encoder_layers_16_self_attn_out_proj_weight"} loc("p188.1153"), %arg189: tensor<1280xbf16> {ttcore.argument_type = #ttcore.argument_type<parameter>, ttcore.shard_status = #ttcore.shard_status<unsharded>, ttir.name = "l__self___image_encoder_vision_model_encoder_layers_16_self_attn_v_proj_bias"} loc("p189.1159"), %arg190: tensor<1280x1280xbf16> {ttcore.argument_type = #ttcore.argument_type<parameter>, ttcore.shard_status = #ttcore.shard_status<unsharded>, ttir.name = "l__self___image_encoder_vision_model_encoder_layers_16_self_attn_v_proj_weight"} loc("p190.1163"), %arg191: tensor<1280xbf16> {ttcore.argument_type = #ttcore.argument_type<parameter>, ttcore.shard_status = #ttcore.shard_status<unsharded>, ttir.name = "l__self___image_encoder_vision_model_encoder_layers_16_layer_norm1_bias"} loc("p191.1169"), %arg192: tensor<1280xbf16> {ttcore.argument_type = #ttcore.argument_type<parameter>, ttcore.shard_status = #ttcore.shard_status<unsharded>, ttir.name = "l__self___image_encoder_vision_model_encoder_layers_16_layer_norm1_weight"} loc("p192.1174"), %arg193: tensor<1280xbf16> {ttcore.argument_type = #ttcore.argument_type<parameter>, ttcore.shard_status = #ttcore.shard_status<unsharded>, ttir.name = "l__self___image_encoder_vision_model_encoder_layers_15_mlp_fc2_bias"} loc("p193.1183"), %arg194: tensor<1280x5120xbf16> {ttcore.argument_type = #ttcore.argument_type<parameter>, ttcore.shard_status = #ttcore.shard_status<unsharded>, ttir.name = "l__self___image_encoder_vision_model_encoder_layers_15_mlp_fc2_weight"} loc("p194.1187"), %arg195: tensor<5120xbf16> {ttcore.argument_type = #ttcore.argument_type<parameter>, ttcore.shard_status = #ttcore.shard_status<unsharded>, ttir.name = "l__self___image_encoder_vision_model_encoder_layers_15_mlp_fc1_bias"} loc("p195.1193"), %arg196: tensor<5120x1280xbf16> {ttcore.argument_type = #ttcore.argument_type<parameter>, ttcore.shard_status = #ttcore.shard_status<unsharded>, ttir.name = "l__self___image_encoder_vision_model_encoder_layers_15_mlp_fc1_weight"} loc("p196.1197"), %arg197: tensor<1280xbf16> {ttcore.argument_type = #ttcore.argument_type<parameter>, ttcore.shard_status = #ttcore.shard_status<unsharded>, ttir.name = "l__self___image_encoder_vision_model_encoder_layers_15_layer_norm2_bias"} loc("p197.1203"), %arg198: tensor<1280xbf16> {ttcore.argument_type = #ttcore.argument_type<parameter>, ttcore.shard_status = #ttcore.shard_status<unsharded>, ttir.name = "l__self___image_encoder_vision_model_encoder_layers_15_layer_norm2_weight"} loc("p198.1208"), %arg199: tensor<1280xbf16> {ttcore.argument_type = #ttcore.argument_type<parameter>, ttcore.shard_status = #ttcore.shard_status<unsharded>, ttir.name = "l__self___image_encoder_vision_model_encoder_layers_15_self_attn_out_proj_bias"} loc("p199.1217"), %arg200: tensor<1280x1280xbf16> {ttcore.argument_type = #ttcore.argument_type<parameter>, ttcore.shard_status = #ttcore.shard_status<unsharded>, ttir.name = "l__self___image_encoder_vision_model_encoder_layers_15_self_attn_out_proj_weight"} loc("p200.1221"), %arg201: tensor<1280xbf16> {ttcore.argument_type = #ttcore.argument_type<parameter>, ttcore.shard_status = #ttcore.shard_status<unsharded>, ttir.name = "l__self___image_encoder_vision_model_encoder_layers_15_self_attn_v_proj_bias"} loc("p201.1227"), %arg202: tensor<1280x1280xbf16> {ttcore.argument_type = #ttcore.argument_type<parameter>, ttcore.shard_status = #ttcore.shard_status<unsharded>, ttir.name = "l__self___image_encoder_vision_model_encoder_layers_15_self_attn_v_proj_weight"} loc("p202.1231"), %arg203: tensor<1280xbf16> {ttcore.argument_type = #ttcore.argument_type<parameter>, ttcore.shard_status = #ttcore.shard_status<unsharded>, ttir.name = "l__self___image_encoder_vision_model_encoder_layers_15_layer_norm1_bias"} loc("p203.1237"), %arg204: tensor<1280xbf16> {ttcore.argument_type = #ttcore.argument_type<parameter>, ttcore.shard_status = #ttcore.shard_status<unsharded>, ttir.name = "l__self___image_encoder_vision_model_encoder_layers_15_layer_norm1_weight"} loc("p204.1242"), %arg205: tensor<1280xbf16> {ttcore.argument_type = #ttcore.argument_type<parameter>, ttcore.shard_status = #ttcore.shard_status<unsharded>, ttir.name = "l__self___image_encoder_vision_model_encoder_layers_14_mlp_fc2_bias"} loc("p205.1251"), %arg206: tensor<1280x5120xbf16> {ttcore.argument_type = #ttcore.argument_type<parameter>, ttcore.shard_status = #ttcore.shard_status<unsharded>, ttir.name = "l__self___image_encoder_vision_model_encoder_layers_14_mlp_fc2_weight"} loc("p206.1255"), %arg207: tensor<5120xbf16> {ttcore.argument_type = #ttcore.argument_type<parameter>, ttcore.shard_status = #ttcore.shard_status<unsharded>, ttir.name = "l__self___image_encoder_vision_model_encoder_layers_14_mlp_fc1_bias"} loc("p207.1261"), %arg208: tensor<5120x1280xbf16> {ttcore.argument_type = #ttcore.argument_type<parameter>, ttcore.shard_status = #ttcore.shard_status<unsharded>, ttir.name = "l__self___image_encoder_vision_model_encoder_layers_14_mlp_fc1_weight"} loc("p208.1265"), %arg209: tensor<1280xbf16> {ttcore.argument_type = #ttcore.argument_type<parameter>, ttcore.shard_status = #ttcore.shard_status<unsharded>, ttir.name = "l__self___image_encoder_vision_model_encoder_layers_14_layer_norm2_bias"} loc("p209.1271"), %arg210: tensor<1280xbf16> {ttcore.argument_type = #ttcore.argument_type<parameter>, ttcore.shard_status = #ttcore.shard_status<unsharded>, ttir.name = "l__self___image_encoder_vision_model_encoder_layers_14_layer_norm2_weight"} loc("p210.1276"), %arg211: tensor<1280xbf16> {ttcore.argument_type = #ttcore.argument_type<parameter>, ttcore.shard_status = #ttcore.shard_status<unsharded>, ttir.name = "l__self___image_encoder_vision_model_encoder_layers_14_self_attn_out_proj_bias"} loc("p211.1285"), %arg212: tensor<1280x1280xbf16> {ttcore.argument_type = #ttcore.argument_type<parameter>, ttcore.shard_status = #ttcore.shard_status<unsharded>, ttir.name = "l__self___image_encoder_vision_model_encoder_layers_14_self_attn_out_proj_weight"} loc("p212.1289"), %arg213: tensor<1280xbf16> {ttcore.argument_type = #ttcore.argument_type<parameter>, ttcore.shard_status = #ttcore.shard_status<unsharded>, ttir.name = "l__self___image_encoder_vision_model_encoder_layers_14_self_attn_v_proj_bias"} loc("p213.1295"), %arg214: tensor<1280x1280xbf16> {ttcore.argument_type = #ttcore.argument_type<parameter>, ttcore.shard_status = #ttcore.shard_status<unsharded>, ttir.name = "l__self___image_encoder_vision_model_encoder_layers_14_self_attn_v_proj_weight"} loc("p214.1299"), %arg215: tensor<1280xbf16> {ttcore.argument_type = #ttcore.argument_type<parameter>, ttcore.shard_status = #ttcore.shard_status<unsharded>, ttir.name = "l__self___image_encoder_vision_model_encoder_layers_14_layer_norm1_bias"} loc("p215.1305"), %arg216: tensor<1280xbf16> {ttcore.argument_type = #ttcore.argument_type<parameter>, ttcore.shard_status = #ttcore.shard_status<unsharded>, ttir.name = "l__self___image_encoder_vision_model_encoder_layers_14_layer_norm1_weight"} loc("p216.1310"), %arg217: tensor<1280xbf16> {ttcore.argument_type = #ttcore.argument_type<parameter>, ttcore.shard_status = #ttcore.shard_status<unsharded>, ttir.name = "l__self___image_encoder_vision_model_encoder_layers_13_mlp_fc2_bias"} loc("p217.1319"), %arg218: tensor<1280x5120xbf16> {ttcore.argument_type = #ttcore.argument_type<parameter>, ttcore.shard_status = #ttcore.shard_status<unsharded>, ttir.name = "l__self___image_encoder_vision_model_encoder_layers_13_mlp_fc2_weight"} loc("p218.1323"), %arg219: tensor<5120xbf16> {ttcore.argument_type = #ttcore.argument_type<parameter>, ttcore.shard_status = #ttcore.shard_status<unsharded>, ttir.name = "l__self___image_encoder_vision_model_encoder_layers_13_mlp_fc1_bias"} loc("p219.1329"), %arg220: tensor<5120x1280xbf16> {ttcore.argument_type = #ttcore.argument_type<parameter>, ttcore.shard_status = #ttcore.shard_status<unsharded>, ttir.name = "l__self___image_encoder_vision_model_encoder_layers_13_mlp_fc1_weight"} loc("p220.1333"), %arg221: tensor<1280xbf16> {ttcore.argument_type = #ttcore.argument_type<parameter>, ttcore.shard_status = #ttcore.shard_status<unsharded>, ttir.name = "l__self___image_encoder_vision_model_encoder_layers_13_layer_norm2_bias"} loc("p221.1339"), %arg222: tensor<1280xbf16> {ttcore.argument_type = #ttcore.argument_type<parameter>, ttcore.shard_status = #ttcore.shard_status<unsharded>, ttir.name = "l__self___image_encoder_vision_model_encoder_layers_13_layer_norm2_weight"} loc("p222.1344"), %arg223: tensor<1280xbf16> {ttcore.argument_type = #ttcore.argument_type<parameter>, ttcore.shard_status = #ttcore.shard_status<unsharded>, ttir.name = "l__self___image_encoder_vision_model_encoder_layers_13_self_attn_out_proj_bias"} loc("p223.1353"), %arg224: tensor<1280x1280xbf16> {ttcore.argument_type = #ttcore.argument_type<parameter>, ttcore.shard_status = #ttcore.shard_status<unsharded>, ttir.name = "l__self___image_encoder_vision_model_encoder_layers_13_self_attn_out_proj_weight"} loc("p224.1357"), %arg225: tensor<1280xbf16> {ttcore.argument_type = #ttcore.argument_type<parameter>, ttcore.shard_status = #ttcore.shard_status<unsharded>, ttir.name = "l__self___image_encoder_vision_model_encoder_layers_13_self_attn_v_proj_bias"} loc("p225.1363"), %arg226: tensor<1280x1280xbf16> {ttcore.argument_type = #ttcore.argument_type<parameter>, ttcore.shard_status = #ttcore.shard_status<unsharded>, ttir.name = "l__self___image_encoder_vision_model_encoder_layers_13_self_attn_v_proj_weight"} loc("p226.1367"), %arg227: tensor<1280xbf16> {ttcore.argument_type = #ttcore.argument_type<parameter>, ttcore.shard_status = #ttcore.shard_status<unsharded>, ttir.name = "l__self___image_encoder_vision_model_encoder_layers_13_layer_norm1_bias"} loc("p227.1373"), %arg228: tensor<1280xbf16> {ttcore.argument_type = #ttcore.argument_type<parameter>, ttcore.shard_status = #ttcore.shard_status<unsharded>, ttir.name = "l__self___image_encoder_vision_model_encoder_layers_13_layer_norm1_weight"} loc("p228.1378"), %arg229: tensor<1280xbf16> {ttcore.argument_type = #ttcore.argument_type<parameter>, ttcore.shard_status = #ttcore.shard_status<unsharded>, ttir.name = "l__self___image_encoder_vision_model_encoder_layers_12_mlp_fc2_bias"} loc("p229.1387"), %arg230: tensor<1280x5120xbf16> {ttcore.argument_type = #ttcore.argument_type<parameter>, ttcore.shard_status = #ttcore.shard_status<unsharded>, ttir.name = "l__self___image_encoder_vision_model_encoder_layers_12_mlp_fc2_weight"} loc("p230.1391"), %arg231: tensor<5120xbf16> {ttcore.argument_type = #ttcore.argument_type<parameter>, ttcore.shard_status = #ttcore.shard_status<unsharded>, ttir.name = "l__self___image_encoder_vision_model_encoder_layers_12_mlp_fc1_bias"} loc("p231.1397"), %arg232: tensor<5120x1280xbf16> {ttcore.argument_type = #ttcore.argument_type<parameter>, ttcore.shard_status = #ttcore.shard_status<unsharded>, ttir.name = "l__self___image_encoder_vision_model_encoder_layers_12_mlp_fc1_weight"} loc("p232.1401"), %arg233: tensor<1280xbf16> {ttcore.argument_type = #ttcore.argument_type<parameter>, ttcore.shard_status = #ttcore.shard_status<unsharded>, ttir.name = "l__self___image_encoder_vision_model_encoder_layers_12_layer_norm2_bias"} loc("p233.1407"), %arg234: tensor<1280xbf16> {ttcore.argument_type = #ttcore.argument_type<parameter>, ttcore.shard_status = #ttcore.shard_status<unsharded>, ttir.name = "l__self___image_encoder_vision_model_encoder_layers_12_layer_norm2_weight"} loc("p234.1412"), %arg235: tensor<1280xbf16> {ttcore.argument_type = #ttcore.argument_type<parameter>, ttcore.shard_status = #ttcore.shard_status<unsharded>, ttir.name = "l__self___image_encoder_vision_model_encoder_layers_12_self_attn_out_proj_bias"} loc("p235.1421"), %arg236: tensor<1280x1280xbf16> {ttcore.argument_type = #ttcore.argument_type<parameter>, ttcore.shard_status = #ttcore.shard_status<unsharded>, ttir.name = "l__self___image_encoder_vision_model_encoder_layers_12_self_attn_out_proj_weight"} loc("p236.1425"), %arg237: tensor<1280xbf16> {ttcore.argument_type = #ttcore.argument_type<parameter>, ttcore.shard_status = #ttcore.shard_status<unsharded>, ttir.name = "l__self___image_encoder_vision_model_encoder_layers_12_self_attn_v_proj_bias"} loc("p237.1431"), %arg238: tensor<1280x1280xbf16> {ttcore.argument_type = #ttcore.argument_type<parameter>, ttcore.shard_status = #ttcore.shard_status<unsharded>, ttir.name = "l__self___image_encoder_vision_model_encoder_layers_12_self_attn_v_proj_weight"} loc("p238.1435"), %arg239: tensor<1280xbf16> {ttcore.argument_type = #ttcore.argument_type<parameter>, ttcore.shard_status = #ttcore.shard_status<unsharded>, ttir.name = "l__self___image_encoder_vision_model_encoder_layers_12_layer_norm1_bias"} loc("p239.1441"), %arg240: tensor<1280xbf16> {ttcore.argument_type = #ttcore.argument_type<parameter>, ttcore.shard_status = #ttcore.shard_status<unsharded>, ttir.name = "l__self___image_encoder_vision_model_encoder_layers_12_layer_norm1_weight"} loc("p240.1446"), %arg241: tensor<1280xbf16> {ttcore.argument_type = #ttcore.argument_type<parameter>, ttcore.shard_status = #ttcore.shard_status<unsharded>, ttir.name = "l__self___image_encoder_vision_model_encoder_layers_11_mlp_fc2_bias"} loc("p241.1455"), %arg242: tensor<1280x5120xbf16> {ttcore.argument_type = #ttcore.argument_type<parameter>, ttcore.shard_status = #ttcore.shard_status<unsharded>, ttir.name = "l__self___image_encoder_vision_model_encoder_layers_11_mlp_fc2_weight"} loc("p242.1459"), %arg243: tensor<5120xbf16> {ttcore.argument_type = #ttcore.argument_type<parameter>, ttcore.shard_status = #ttcore.shard_status<unsharded>, ttir.name = "l__self___image_encoder_vision_model_encoder_layers_11_mlp_fc1_bias"} loc("p243.1465"), %arg244: tensor<5120x1280xbf16> {ttcore.argument_type = #ttcore.argument_type<parameter>, ttcore.shard_status = #ttcore.shard_status<unsharded>, ttir.name = "l__self___image_encoder_vision_model_encoder_layers_11_mlp_fc1_weight"} loc("p244.1469"), %arg245: tensor<1280xbf16> {ttcore.argument_type = #ttcore.argument_type<parameter>, ttcore.shard_status = #ttcore.shard_status<unsharded>, ttir.name = "l__self___image_encoder_vision_model_encoder_layers_11_layer_norm2_bias"} loc("p245.1475"), %arg246: tensor<1280xbf16> {ttcore.argument_type = #ttcore.argument_type<parameter>, ttcore.shard_status = #ttcore.shard_status<unsharded>, ttir.name = "l__self___image_encoder_vision_model_encoder_layers_11_layer_norm2_weight"} loc("p246.1480"), %arg247: tensor<1280xbf16> {ttcore.argument_type = #ttcore.argument_type<parameter>, ttcore.shard_status = #ttcore.shard_status<unsharded>, ttir.name = "l__self___image_encoder_vision_model_encoder_layers_11_self_attn_out_proj_bias"} loc("p247.1489"), %arg248: tensor<1280x1280xbf16> {ttcore.argument_type = #ttcore.argument_type<parameter>, ttcore.shard_status = #ttcore.shard_status<unsharded>, ttir.name = "l__self___image_encoder_vision_model_encoder_layers_11_self_attn_out_proj_weight"} loc("p248.1493"), %arg249: tensor<1280xbf16> {ttcore.argument_type = #ttcore.argument_type<parameter>, ttcore.shard_status = #ttcore.shard_status<unsharded>, ttir.name = "l__self___image_encoder_vision_model_encoder_layers_11_self_attn_v_proj_bias"} loc("p249.1499"), %arg250: tensor<1280x1280xbf16> {ttcore.argument_type = #ttcore.argument_type<parameter>, ttcore.shard_status = #ttcore.shard_status<unsharded>, ttir.name = "l__self___image_encoder_vision_model_encoder_layers_11_self_attn_v_proj_weight"} loc("p250.1503"), %arg251: tensor<1280xbf16> {ttcore.argument_type = #ttcore.argument_type<parameter>, ttcore.shard_status = #ttcore.shard_status<unsharded>, ttir.name = "l__self___image_encoder_vision_model_encoder_layers_11_layer_norm1_bias"} loc("p251.1509"), %arg252: tensor<1280xbf16> {ttcore.argument_type = #ttcore.argument_type<parameter>, ttcore.shard_status = #ttcore.shard_status<unsharded>, ttir.name = "l__self___image_encoder_vision_model_encoder_layers_11_layer_norm1_weight"} loc("p252.1514"), %arg253: tensor<1280xbf16> {ttcore.argument_type = #ttcore.argument_type<parameter>, ttcore.shard_status = #ttcore.shard_status<unsharded>, ttir.name = "l__self___image_encoder_vision_model_encoder_layers_10_mlp_fc2_bias"} loc("p253.1523"), %arg254: tensor<1280x5120xbf16> {ttcore.argument_type = #ttcore.argument_type<parameter>, ttcore.shard_status = #ttcore.shard_status<unsharded>, ttir.name = "l__self___image_encoder_vision_model_encoder_layers_10_mlp_fc2_weight"} loc("p254.1527"), %arg255: tensor<5120xbf16> {ttcore.argument_type = #ttcore.argument_type<parameter>, ttcore.shard_status = #ttcore.shard_status<unsharded>, ttir.name = "l__self___image_encoder_vision_model_encoder_layers_10_mlp_fc1_bias"} loc("p255.1533"), %arg256: tensor<5120x1280xbf16> {ttcore.argument_type = #ttcore.argument_type<parameter>, ttcore.shard_status = #ttcore.shard_status<unsharded>, ttir.name = "l__self___image_encoder_vision_model_encoder_layers_10_mlp_fc1_weight"} loc("p256.1537"), %arg257: tensor<1280xbf16> {ttcore.argument_type = #ttcore.argument_type<parameter>, ttcore.shard_status = #ttcore.shard_status<unsharded>, ttir.name = "l__self___image_encoder_vision_model_encoder_layers_10_layer_norm2_bias"} loc("p257.1543"), %arg258: tensor<1280xbf16> {ttcore.argument_type = #ttcore.argument_type<parameter>, ttcore.shard_status = #ttcore.shard_status<unsharded>, ttir.name = "l__self___image_encoder_vision_model_encoder_layers_10_layer_norm2_weight"} loc("p258.1548"), %arg259: tensor<1280xbf16> {ttcore.argument_type = #ttcore.argument_type<parameter>, ttcore.shard_status = #ttcore.shard_status<unsharded>, ttir.name = "l__self___image_encoder_vision_model_encoder_layers_10_self_attn_out_proj_bias"} loc("p259.1557"), %arg260: tensor<1280x1280xbf16> {ttcore.argument_type = #ttcore.argument_type<parameter>, ttcore.shard_status = #ttcore.shard_status<unsharded>, ttir.name = "l__self___image_encoder_vision_model_encoder_layers_10_self_attn_out_proj_weight"} loc("p260.1561"), %arg261: tensor<1280xbf16> {ttcore.argument_type = #ttcore.argument_type<parameter>, ttcore.shard_status = #ttcore.shard_status<unsharded>, ttir.name = "l__self___image_encoder_vision_model_encoder_layers_10_self_attn_v_proj_bias"} loc("p261.1567"), %arg262: tensor<1280x1280xbf16> {ttcore.argument_type = #ttcore.argument_type<parameter>, ttcore.shard_status = #ttcore.shard_status<unsharded>, ttir.name = "l__self___image_encoder_vision_model_encoder_layers_10_self_attn_v_proj_weight"} loc("p262.1571"), %arg263: tensor<1280xbf16> {ttcore.argument_type = #ttcore.argument_type<parameter>, ttcore.shard_status = #ttcore.shard_status<unsharded>, ttir.name = "l__self___image_encoder_vision_model_encoder_layers_10_layer_norm1_bias"} loc("p263.1577"), %arg264: tensor<1280xbf16> {ttcore.argument_type = #ttcore.argument_type<parameter>, ttcore.shard_status = #ttcore.shard_status<unsharded>, ttir.name = "l__self___image_encoder_vision_model_encoder_layers_10_layer_norm1_weight"} loc("p264.1582"), %arg265: tensor<1280xbf16> {ttcore.argument_type = #ttcore.argument_type<parameter>, ttcore.shard_status = #ttcore.shard_status<unsharded>, ttir.name = "l__self___image_encoder_vision_model_encoder_layers_9_mlp_fc2_bias"} loc("p265.1591"), %arg266: tensor<1280x5120xbf16> {ttcore.argument_type = #ttcore.argument_type<parameter>, ttcore.shard_status = #ttcore.shard_status<unsharded>, ttir.name = "l__self___image_encoder_vision_model_encoder_layers_9_mlp_fc2_weight"} loc("p266.1595"), %arg267: tensor<5120xbf16> {ttcore.argument_type = #ttcore.argument_type<parameter>, ttcore.shard_status = #ttcore.shard_status<unsharded>, ttir.name = "l__self___image_encoder_vision_model_encoder_layers_9_mlp_fc1_bias"} loc("p267.1601"), %arg268: tensor<5120x1280xbf16> {ttcore.argument_type = #ttcore.argument_type<parameter>, ttcore.shard_status = #ttcore.shard_status<unsharded>, ttir.name = "l__self___image_encoder_vision_model_encoder_layers_9_mlp_fc1_weight"} loc("p268.1605"), %arg269: tensor<1280xbf16> {ttcore.argument_type = #ttcore.argument_type<parameter>, ttcore.shard_status = #ttcore.shard_status<unsharded>, ttir.name = "l__self___image_encoder_vision_model_encoder_layers_9_layer_norm2_bias"} loc("p269.1611"), %arg270: tensor<1280xbf16> {ttcore.argument_type = #ttcore.argument_type<parameter>, ttcore.shard_status = #ttcore.shard_status<unsharded>, ttir.name = "l__self___image_encoder_vision_model_encoder_layers_9_layer_norm2_weight"} loc("p270.1616"), %arg271: tensor<1280xbf16> {ttcore.argument_type = #ttcore.argument_type<parameter>, ttcore.shard_status = #ttcore.shard_status<unsharded>, ttir.name = "l__self___image_encoder_vision_model_encoder_layers_9_self_attn_out_proj_bias"} loc("p271.1625"), %arg272: tensor<1280x1280xbf16> {ttcore.argument_type = #ttcore.argument_type<parameter>, ttcore.shard_status = #ttcore.shard_status<unsharded>, ttir.name = "l__self___image_encoder_vision_model_encoder_layers_9_self_attn_out_proj_weight"} loc("p272.1629"), %arg273: tensor<1280xbf16> {ttcore.argument_type = #ttcore.argument_type<parameter>, ttcore.shard_status = #ttcore.shard_status<unsharded>, ttir.name = "l__self___image_encoder_vision_model_encoder_layers_9_self_attn_v_proj_bias"} loc("p273.1635"), %arg274: tensor<1280x1280xbf16> {ttcore.argument_type = #ttcore.argument_type<parameter>, ttcore.shard_status = #ttcore.shard_status<unsharded>, ttir.name = "l__self___image_encoder_vision_model_encoder_layers_9_self_attn_v_proj_weight"} loc("p274.1639"), %arg275: tensor<1280xbf16> {ttcore.argument_type = #ttcore.argument_type<parameter>, ttcore.shard_status = #ttcore.shard_status<unsharded>, ttir.name = "l__self___image_encoder_vision_model_encoder_layers_9_layer_norm1_bias"} loc("p275.1645"), %arg276: tensor<1280xbf16> {ttcore.argument_type = #ttcore.argument_type<parameter>, ttcore.shard_status = #ttcore.shard_status<unsharded>, ttir.name = "l__self___image_encoder_vision_model_encoder_layers_9_layer_norm1_weight"} loc("p276.1650"), %arg277: tensor<1280xbf16> {ttcore.argument_type = #ttcore.argument_type<parameter>, ttcore.shard_status = #ttcore.shard_status<unsharded>, ttir.name = "l__self___image_encoder_vision_model_encoder_layers_8_mlp_fc2_bias"} loc("p277.1659"), %arg278: tensor<1280x5120xbf16> {ttcore.argument_type = #ttcore.argument_type<parameter>, ttcore.shard_status = #ttcore.shard_status<unsharded>, ttir.name = "l__self___image_encoder_vision_model_encoder_layers_8_mlp_fc2_weight"} loc("p278.1663"), %arg279: tensor<5120xbf16> {ttcore.argument_type = #ttcore.argument_type<parameter>, ttcore.shard_status = #ttcore.shard_status<unsharded>, ttir.name = "l__self___image_encoder_vision_model_encoder_layers_8_mlp_fc1_bias"} loc("p279.1669"), %arg280: tensor<5120x1280xbf16> {ttcore.argument_type = #ttcore.argument_type<parameter>, ttcore.shard_status = #ttcore.shard_status<unsharded>, ttir.name = "l__self___image_encoder_vision_model_encoder_layers_8_mlp_fc1_weight"} loc("p280.1673"), %arg281: tensor<1280xbf16> {ttcore.argument_type = #ttcore.argument_type<parameter>, ttcore.shard_status = #ttcore.shard_status<unsharded>, ttir.name = "l__self___image_encoder_vision_model_encoder_layers_8_layer_norm2_bias"} loc("p281.1679"), %arg282: tensor<1280xbf16> {ttcore.argument_type = #ttcore.argument_type<parameter>, ttcore.shard_status = #ttcore.shard_status<unsharded>, ttir.name = "l__self___image_encoder_vision_model_encoder_layers_8_layer_norm2_weight"} loc("p282.1684"), %arg283: tensor<1280xbf16> {ttcore.argument_type = #ttcore.argument_type<parameter>, ttcore.shard_status = #ttcore.shard_status<unsharded>, ttir.name = "l__self___image_encoder_vision_model_encoder_layers_8_self_attn_out_proj_bias"} loc("p283.1693"), %arg284: tensor<1280x1280xbf16> {ttcore.argument_type = #ttcore.argument_type<parameter>, ttcore.shard_status = #ttcore.shard_status<unsharded>, ttir.name = "l__self___image_encoder_vision_model_encoder_layers_8_self_attn_out_proj_weight"} loc("p284.1697"), %arg285: tensor<1280xbf16> {ttcore.argument_type = #ttcore.argument_type<parameter>, ttcore.shard_status = #ttcore.shard_status<unsharded>, ttir.name = "l__self___image_encoder_vision_model_encoder_layers_8_self_attn_v_proj_bias"} loc("p285.1703"), %arg286: tensor<1280x1280xbf16> {ttcore.argument_type = #ttcore.argument_type<parameter>, ttcore.shard_status = #ttcore.shard_status<unsharded>, ttir.name = "l__self___image_encoder_vision_model_encoder_layers_8_self_attn_v_proj_weight"} loc("p286.1707"), %arg287: tensor<1280xbf16> {ttcore.argument_type = #ttcore.argument_type<parameter>, ttcore.shard_status = #ttcore.shard_status<unsharded>, ttir.name = "l__self___image_encoder_vision_model_encoder_layers_8_layer_norm1_bias"} loc("p287.1713"), %arg288: tensor<1280xbf16> {ttcore.argument_type = #ttcore.argument_type<parameter>, ttcore.shard_status = #ttcore.shard_status<unsharded>, ttir.name = "l__self___image_encoder_vision_model_encoder_layers_8_layer_norm1_weight"} loc("p288.1718"), %arg289: tensor<1280xbf16> {ttcore.argument_type = #ttcore.argument_type<parameter>, ttcore.shard_status = #ttcore.shard_status<unsharded>, ttir.name = "l__self___image_encoder_vision_model_encoder_layers_7_mlp_fc2_bias"} loc("p289.1727"), %arg290: tensor<1280x5120xbf16> {ttcore.argument_type = #ttcore.argument_type<parameter>, ttcore.shard_status = #ttcore.shard_status<unsharded>, ttir.name = "l__self___image_encoder_vision_model_encoder_layers_7_mlp_fc2_weight"} loc("p290.1731"), %arg291: tensor<5120xbf16> {ttcore.argument_type = #ttcore.argument_type<parameter>, ttcore.shard_status = #ttcore.shard_status<unsharded>, ttir.name = "l__self___image_encoder_vision_model_encoder_layers_7_mlp_fc1_bias"} loc("p291.1737"), %arg292: tensor<5120x1280xbf16> {ttcore.argument_type = #ttcore.argument_type<parameter>, ttcore.shard_status = #ttcore.shard_status<unsharded>, ttir.name = "l__self___image_encoder_vision_model_encoder_layers_7_mlp_fc1_weight"} loc("p292.1741"), %arg293: tensor<1280xbf16> {ttcore.argument_type = #ttcore.argument_type<parameter>, ttcore.shard_status = #ttcore.shard_status<unsharded>, ttir.name = "l__self___image_encoder_vision_model_encoder_layers_7_layer_norm2_bias"} loc("p293.1747"), %arg294: tensor<1280xbf16> {ttcore.argument_type = #ttcore.argument_type<parameter>, ttcore.shard_status = #ttcore.shard_status<unsharded>, ttir.name = "l__self___image_encoder_vision_model_encoder_layers_7_layer_norm2_weight"} loc("p294.1752"), %arg295: tensor<1280xbf16> {ttcore.argument_type = #ttcore.argument_type<parameter>, ttcore.shard_status = #ttcore.shard_status<unsharded>, ttir.name = "l__self___image_encoder_vision_model_encoder_layers_7_self_attn_out_proj_bias"} loc("p295.1761"), %arg296: tensor<1280x1280xbf16> {ttcore.argument_type = #ttcore.argument_type<parameter>, ttcore.shard_status = #ttcore.shard_status<unsharded>, ttir.name = "l__self___image_encoder_vision_model_encoder_layers_7_self_attn_out_proj_weight"} loc("p296.1765"), %arg297: tensor<1280xbf16> {ttcore.argument_type = #ttcore.argument_type<parameter>, ttcore.shard_status = #ttcore.shard_status<unsharded>, ttir.name = "l__self___image_encoder_vision_model_encoder_layers_7_self_attn_v_proj_bias"} loc("p297.1771"), %arg298: tensor<1280x1280xbf16> {ttcore.argument_type = #ttcore.argument_type<parameter>, ttcore.shard_status = #ttcore.shard_status<unsharded>, ttir.name = "l__self___image_encoder_vision_model_encoder_layers_7_self_attn_v_proj_weight"} loc("p298.1775"), %arg299: tensor<1280xbf16> {ttcore.argument_type = #ttcore.argument_type<parameter>, ttcore.shard_status = #ttcore.shard_status<unsharded>, ttir.name = "l__self___image_encoder_vision_model_encoder_layers_7_layer_norm1_bias"} loc("p299.1781"), %arg300: tensor<1280xbf16> {ttcore.argument_type = #ttcore.argument_type<parameter>, ttcore.shard_status = #ttcore.shard_status<unsharded>, ttir.name = "l__self___image_encoder_vision_model_encoder_layers_7_layer_norm1_weight"} loc("p300.1786"), %arg301: tensor<1280xbf16> {ttcore.argument_type = #ttcore.argument_type<parameter>, ttcore.shard_status = #ttcore.shard_status<unsharded>, ttir.name = "l__self___image_encoder_vision_model_encoder_layers_6_mlp_fc2_bias"} loc("p301.1795"), %arg302: tensor<1280x5120xbf16> {ttcore.argument_type = #ttcore.argument_type<parameter>, ttcore.shard_status = #ttcore.shard_status<unsharded>, ttir.name = "l__self___image_encoder_vision_model_encoder_layers_6_mlp_fc2_weight"} loc("p302.1799"), %arg303: tensor<5120xbf16> {ttcore.argument_type = #ttcore.argument_type<parameter>, ttcore.shard_status = #ttcore.shard_status<unsharded>, ttir.name = "l__self___image_encoder_vision_model_encoder_layers_6_mlp_fc1_bias"} loc("p303.1805"), %arg304: tensor<5120x1280xbf16> {ttcore.argument_type = #ttcore.argument_type<parameter>, ttcore.shard_status = #ttcore.shard_status<unsharded>, ttir.name = "l__self___image_encoder_vision_model_encoder_layers_6_mlp_fc1_weight"} loc("p304.1809"), %arg305: tensor<1280xbf16> {ttcore.argument_type = #ttcore.argument_type<parameter>, ttcore.shard_status = #ttcore.shard_status<unsharded>, ttir.name = "l__self___image_encoder_vision_model_encoder_layers_6_layer_norm2_bias"} loc("p305.1815"), %arg306: tensor<1280xbf16> {ttcore.argument_type = #ttcore.argument_type<parameter>, ttcore.shard_status = #ttcore.shard_status<unsharded>, ttir.name = "l__self___image_encoder_vision_model_encoder_layers_6_layer_norm2_weight"} loc("p306.1820"), %arg307: tensor<1280xbf16> {ttcore.argument_type = #ttcore.argument_type<parameter>, ttcore.shard_status = #ttcore.shard_status<unsharded>, ttir.name = "l__self___image_encoder_vision_model_encoder_layers_6_self_attn_out_proj_bias"} loc("p307.1829"), %arg308: tensor<1280x1280xbf16> {ttcore.argument_type = #ttcore.argument_type<parameter>, ttcore.shard_status = #ttcore.shard_status<unsharded>, ttir.name = "l__self___image_encoder_vision_model_encoder_layers_6_self_attn_out_proj_weight"} loc("p308.1833"), %arg309: tensor<1280xbf16> {ttcore.argument_type = #ttcore.argument_type<parameter>, ttcore.shard_status = #ttcore.shard_status<unsharded>, ttir.name = "l__self___image_encoder_vision_model_encoder_layers_6_self_attn_v_proj_bias"} loc("p309.1839"), %arg310: tensor<1280x1280xbf16> {ttcore.argument_type = #ttcore.argument_type<parameter>, ttcore.shard_status = #ttcore.shard_status<unsharded>, ttir.name = "l__self___image_encoder_vision_model_encoder_layers_6_self_attn_v_proj_weight"} loc("p310.1843"), %arg311: tensor<1280xbf16> {ttcore.argument_type = #ttcore.argument_type<parameter>, ttcore.shard_status = #ttcore.shard_status<unsharded>, ttir.name = "l__self___image_encoder_vision_model_encoder_layers_6_layer_norm1_bias"} loc("p311.1849"), %arg312: tensor<1280xbf16> {ttcore.argument_type = #ttcore.argument_type<parameter>, ttcore.shard_status = #ttcore.shard_status<unsharded>, ttir.name = "l__self___image_encoder_vision_model_encoder_layers_6_layer_norm1_weight"} loc("p312.1854"), %arg313: tensor<1280xbf16> {ttcore.argument_type = #ttcore.argument_type<parameter>, ttcore.shard_status = #ttcore.shard_status<unsharded>, ttir.name = "l__self___image_encoder_vision_model_encoder_layers_5_mlp_fc2_bias"} loc("p313.1863"), %arg314: tensor<1280x5120xbf16> {ttcore.argument_type = #ttcore.argument_type<parameter>, ttcore.shard_status = #ttcore.shard_status<unsharded>, ttir.name = "l__self___image_encoder_vision_model_encoder_layers_5_mlp_fc2_weight"} loc("p314.1867"), %arg315: tensor<5120xbf16> {ttcore.argument_type = #ttcore.argument_type<parameter>, ttcore.shard_status = #ttcore.shard_status<unsharded>, ttir.name = "l__self___image_encoder_vision_model_encoder_layers_5_mlp_fc1_bias"} loc("p315.1873"), %arg316: tensor<5120x1280xbf16> {ttcore.argument_type = #ttcore.argument_type<parameter>, ttcore.shard_status = #ttcore.shard_status<unsharded>, ttir.name = "l__self___image_encoder_vision_model_encoder_layers_5_mlp_fc1_weight"} loc("p316.1877"), %arg317: tensor<1280xbf16> {ttcore.argument_type = #ttcore.argument_type<parameter>, ttcore.shard_status = #ttcore.shard_status<unsharded>, ttir.name = "l__self___image_encoder_vision_model_encoder_layers_5_layer_norm2_bias"} loc("p317.1883"), %arg318: tensor<1280xbf16> {ttcore.argument_type = #ttcore.argument_type<parameter>, ttcore.shard_status = #ttcore.shard_status<unsharded>, ttir.name = "l__self___image_encoder_vision_model_encoder_layers_5_layer_norm2_weight"} loc("p318.1888"), %arg319: tensor<1280xbf16> {ttcore.argument_type = #ttcore.argument_type<parameter>, ttcore.shard_status = #ttcore.shard_status<unsharded>, ttir.name = "l__self___image_encoder_vision_model_encoder_layers_5_self_attn_out_proj_bias"} loc("p319.1897"), %arg320: tensor<1280x1280xbf16> {ttcore.argument_type = #ttcore.argument_type<parameter>, ttcore.shard_status = #ttcore.shard_status<unsharded>, ttir.name = "l__self___image_encoder_vision_model_encoder_layers_5_self_attn_out_proj_weight"} loc("p320.1901"), %arg321: tensor<1280xbf16> {ttcore.argument_type = #ttcore.argument_type<parameter>, ttcore.shard_status = #ttcore.shard_status<unsharded>, ttir.name = "l__self___image_encoder_vision_model_encoder_layers_5_self_attn_v_proj_bias"} loc("p321.1907"), %arg322: tensor<1280x1280xbf16> {ttcore.argument_type = #ttcore.argument_type<parameter>, ttcore.shard_status = #ttcore.shard_status<unsharded>, ttir.name = "l__self___image_encoder_vision_model_encoder_layers_5_self_attn_v_proj_weight"} loc("p322.1911"), %arg323: tensor<1280xbf16> {ttcore.argument_type = #ttcore.argument_type<parameter>, ttcore.shard_status = #ttcore.shard_status<unsharded>, ttir.name = "l__self___image_encoder_vision_model_encoder_layers_5_layer_norm1_bias"} loc("p323.1917"), %arg324: tensor<1280xbf16> {ttcore.argument_type = #ttcore.argument_type<parameter>, ttcore.shard_status = #ttcore.shard_status<unsharded>, ttir.name = "l__self___image_encoder_vision_model_encoder_layers_5_layer_norm1_weight"} loc("p324.1922"), %arg325: tensor<1280xbf16> {ttcore.argument_type = #ttcore.argument_type<parameter>, ttcore.shard_status = #ttcore.shard_status<unsharded>, ttir.name = "l__self___image_encoder_vision_model_encoder_layers_4_mlp_fc2_bias"} loc("p325.1931"), %arg326: tensor<1280x5120xbf16> {ttcore.argument_type = #ttcore.argument_type<parameter>, ttcore.shard_status = #ttcore.shard_status<unsharded>, ttir.name = "l__self___image_encoder_vision_model_encoder_layers_4_mlp_fc2_weight"} loc("p326.1935"), %arg327: tensor<5120xbf16> {ttcore.argument_type = #ttcore.argument_type<parameter>, ttcore.shard_status = #ttcore.shard_status<unsharded>, ttir.name = "l__self___image_encoder_vision_model_encoder_layers_4_mlp_fc1_bias"} loc("p327.1941"), %arg328: tensor<5120x1280xbf16> {ttcore.argument_type = #ttcore.argument_type<parameter>, ttcore.shard_status = #ttcore.shard_status<unsharded>, ttir.name = "l__self___image_encoder_vision_model_encoder_layers_4_mlp_fc1_weight"} loc("p328.1945"), %arg329: tensor<1280xbf16> {ttcore.argument_type = #ttcore.argument_type<parameter>, ttcore.shard_status = #ttcore.shard_status<unsharded>, ttir.name = "l__self___image_encoder_vision_model_encoder_layers_4_layer_norm2_bias"} loc("p329.1951"), %arg330: tensor<1280xbf16> {ttcore.argument_type = #ttcore.argument_type<parameter>, ttcore.shard_status = #ttcore.shard_status<unsharded>, ttir.name = "l__self___image_encoder_vision_model_encoder_layers_4_layer_norm2_weight"} loc("p330.1956"), %arg331: tensor<1280xbf16> {ttcore.argument_type = #ttcore.argument_type<parameter>, ttcore.shard_status = #ttcore.shard_status<unsharded>, ttir.name = "l__self___image_encoder_vision_model_encoder_layers_4_self_attn_out_proj_bias"} loc("p331.1965"), %arg332: tensor<1280x1280xbf16> {ttcore.argument_type = #ttcore.argument_type<parameter>, ttcore.shard_status = #ttcore.shard_status<unsharded>, ttir.name = "l__self___image_encoder_vision_model_encoder_layers_4_self_attn_out_proj_weight"} loc("p332.1969"), %arg333: tensor<1280xbf16> {ttcore.argument_type = #ttcore.argument_type<parameter>, ttcore.shard_status = #ttcore.shard_status<unsharded>, ttir.name = "l__self___image_encoder_vision_model_encoder_layers_4_self_attn_v_proj_bias"} loc("p333.1975"), %arg334: tensor<1280x1280xbf16> {ttcore.argument_type = #ttcore.argument_type<parameter>, ttcore.shard_status = #ttcore.shard_status<unsharded>, ttir.name = "l__self___image_encoder_vision_model_encoder_layers_4_self_attn_v_proj_weight"} loc("p334.1979"), %arg335: tensor<1280xbf16> {ttcore.argument_type = #ttcore.argument_type<parameter>, ttcore.shard_status = #ttcore.shard_status<unsharded>, ttir.name = "l__self___image_encoder_vision_model_encoder_layers_4_layer_norm1_bias"} loc("p335.1985"), %arg336: tensor<1280xbf16> {ttcore.argument_type = #ttcore.argument_type<parameter>, ttcore.shard_status = #ttcore.shard_status<unsharded>, ttir.name = "l__self___image_encoder_vision_model_encoder_layers_4_layer_norm1_weight"} loc("p336.1990"), %arg337: tensor<1280xbf16> {ttcore.argument_type = #ttcore.argument_type<parameter>, ttcore.shard_status = #ttcore.shard_status<unsharded>, ttir.name = "l__self___image_encoder_vision_model_encoder_layers_3_mlp_fc2_bias"} loc("p337.1999"), %arg338: tensor<1280x5120xbf16> {ttcore.argument_type = #ttcore.argument_type<parameter>, ttcore.shard_status = #ttcore.shard_status<unsharded>, ttir.name = "l__self___image_encoder_vision_model_encoder_layers_3_mlp_fc2_weight"} loc("p338.2003"), %arg339: tensor<5120xbf16> {ttcore.argument_type = #ttcore.argument_type<parameter>, ttcore.shard_status = #ttcore.shard_status<unsharded>, ttir.name = "l__self___image_encoder_vision_model_encoder_layers_3_mlp_fc1_bias"} loc("p339.2009"), %arg340: tensor<5120x1280xbf16> {ttcore.argument_type = #ttcore.argument_type<parameter>, ttcore.shard_status = #ttcore.shard_status<unsharded>, ttir.name = "l__self___image_encoder_vision_model_encoder_layers_3_mlp_fc1_weight"} loc("p340.2013"), %arg341: tensor<1280xbf16> {ttcore.argument_type = #ttcore.argument_type<parameter>, ttcore.shard_status = #ttcore.shard_status<unsharded>, ttir.name = "l__self___image_encoder_vision_model_encoder_layers_3_layer_norm2_bias"} loc("p341.2019"), %arg342: tensor<1280xbf16> {ttcore.argument_type = #ttcore.argument_type<parameter>, ttcore.shard_status = #ttcore.shard_status<unsharded>, ttir.name = "l__self___image_encoder_vision_model_encoder_layers_3_layer_norm2_weight"} loc("p342.2024"), %arg343: tensor<1280xbf16> {ttcore.argument_type = #ttcore.argument_type<parameter>, ttcore.shard_status = #ttcore.shard_status<unsharded>, ttir.name = "l__self___image_encoder_vision_model_encoder_layers_3_self_attn_out_proj_bias"} loc("p343.2033"), %arg344: tensor<1280x1280xbf16> {ttcore.argument_type = #ttcore.argument_type<parameter>, ttcore.shard_status = #ttcore.shard_status<unsharded>, ttir.name = "l__self___image_encoder_vision_model_encoder_layers_3_self_attn_out_proj_weight"} loc("p344.2037"), %arg345: tensor<1280xbf16> {ttcore.argument_type = #ttcore.argument_type<parameter>, ttcore.shard_status = #ttcore.shard_status<unsharded>, ttir.name = "l__self___image_encoder_vision_model_encoder_layers_3_self_attn_v_proj_bias"} loc("p345.2043"), %arg346: tensor<1280x1280xbf16> {ttcore.argument_type = #ttcore.argument_type<parameter>, ttcore.shard_status = #ttcore.shard_status<unsharded>, ttir.name = "l__self___image_encoder_vision_model_encoder_layers_3_self_attn_v_proj_weight"} loc("p346.2047"), %arg347: tensor<1280xbf16> {ttcore.argument_type = #ttcore.argument_type<parameter>, ttcore.shard_status = #ttcore.shard_status<unsharded>, ttir.name = "l__self___image_encoder_vision_model_encoder_layers_3_layer_norm1_bias"} loc("p347.2053"), %arg348: tensor<1280xbf16> {ttcore.argument_type = #ttcore.argument_type<parameter>, ttcore.shard_status = #ttcore.shard_status<unsharded>, ttir.name = "l__self___image_encoder_vision_model_encoder_layers_3_layer_norm1_weight"} loc("p348.2058"), %arg349: tensor<1280xbf16> {ttcore.argument_type = #ttcore.argument_type<parameter>, ttcore.shard_status = #ttcore.shard_status<unsharded>, ttir.name = "l__self___image_encoder_vision_model_encoder_layers_2_mlp_fc2_bias"} loc("p349.2067"), %arg350: tensor<1280x5120xbf16> {ttcore.argument_type = #ttcore.argument_type<parameter>, ttcore.shard_status = #ttcore.shard_status<unsharded>, ttir.name = "l__self___image_encoder_vision_model_encoder_layers_2_mlp_fc2_weight"} loc("p350.2071"), %arg351: tensor<5120xbf16> {ttcore.argument_type = #ttcore.argument_type<parameter>, ttcore.shard_status = #ttcore.shard_status<unsharded>, ttir.name = "l__self___image_encoder_vision_model_encoder_layers_2_mlp_fc1_bias"} loc("p351.2077"), %arg352: tensor<5120x1280xbf16> {ttcore.argument_type = #ttcore.argument_type<parameter>, ttcore.shard_status = #ttcore.shard_status<unsharded>, ttir.name = "l__self___image_encoder_vision_model_encoder_layers_2_mlp_fc1_weight"} loc("p352.2081"), %arg353: tensor<1280xbf16> {ttcore.argument_type = #ttcore.argument_type<parameter>, ttcore.shard_status = #ttcore.shard_status<unsharded>, ttir.name = "l__self___image_encoder_vision_model_encoder_layers_2_layer_norm2_bias"} loc("p353.2087"), %arg354: tensor<1280xbf16> {ttcore.argument_type = #ttcore.argument_type<parameter>, ttcore.shard_status = #ttcore.shard_status<unsharded>, ttir.name = "l__self___image_encoder_vision_model_encoder_layers_2_layer_norm2_weight"} loc("p354.2092"), %arg355: tensor<1280xbf16> {ttcore.argument_type = #ttcore.argument_type<parameter>, ttcore.shard_status = #ttcore.shard_status<unsharded>, ttir.name = "l__self___image_encoder_vision_model_encoder_layers_2_self_attn_out_proj_bias"} loc("p355.2101"), %arg356: tensor<1280x1280xbf16> {ttcore.argument_type = #ttcore.argument_type<parameter>, ttcore.shard_status = #ttcore.shard_status<unsharded>, ttir.name = "l__self___image_encoder_vision_model_encoder_layers_2_self_attn_out_proj_weight"} loc("p356.2105"), %arg357: tensor<1280xbf16> {ttcore.argument_type = #ttcore.argument_type<parameter>, ttcore.shard_status = #ttcore.shard_status<unsharded>, ttir.name = "l__self___image_encoder_vision_model_encoder_layers_2_self_attn_v_proj_bias"} loc("p357.2111"), %arg358: tensor<1280x1280xbf16> {ttcore.argument_type = #ttcore.argument_type<parameter>, ttcore.shard_status = #ttcore.shard_status<unsharded>, ttir.name = "l__self___image_encoder_vision_model_encoder_layers_2_self_attn_v_proj_weight"} loc("p358.2115"), %arg359: tensor<1280xbf16> {ttcore.argument_type = #ttcore.argument_type<parameter>, ttcore.shard_status = #ttcore.shard_status<unsharded>, ttir.name = "l__self___image_encoder_vision_model_encoder_layers_2_layer_norm1_bias"} loc("p359.2121"), %arg360: tensor<1280xbf16> {ttcore.argument_type = #ttcore.argument_type<parameter>, ttcore.shard_status = #ttcore.shard_status<unsharded>, ttir.name = "l__self___image_encoder_vision_model_encoder_layers_2_layer_norm1_weight"} loc("p360.2126"), %arg361: tensor<1280xbf16> {ttcore.argument_type = #ttcore.argument_type<parameter>, ttcore.shard_status = #ttcore.shard_status<unsharded>, ttir.name = "l__self___image_encoder_vision_model_encoder_layers_1_mlp_fc2_bias"} loc("p361.2135"), %arg362: tensor<1280x5120xbf16> {ttcore.argument_type = #ttcore.argument_type<parameter>, ttcore.shard_status = #ttcore.shard_status<unsharded>, ttir.name = "l__self___image_encoder_vision_model_encoder_layers_1_mlp_fc2_weight"} loc("p362.2139"), %arg363: tensor<5120xbf16> {ttcore.argument_type = #ttcore.argument_type<parameter>, ttcore.shard_status = #ttcore.shard_status<unsharded>, ttir.name = "l__self___image_encoder_vision_model_encoder_layers_1_mlp_fc1_bias"} loc("p363.2145"), %arg364: tensor<5120x1280xbf16> {ttcore.argument_type = #ttcore.argument_type<parameter>, ttcore.shard_status = #ttcore.shard_status<unsharded>, ttir.name = "l__self___image_encoder_vision_model_encoder_layers_1_mlp_fc1_weight"} loc("p364.2149"), %arg365: tensor<1280xbf16> {ttcore.argument_type = #ttcore.argument_type<parameter>, ttcore.shard_status = #ttcore.shard_status<unsharded>, ttir.name = "l__self___image_encoder_vision_model_encoder_layers_1_layer_norm2_bias"} loc("p365.2155"), %arg366: tensor<1280xbf16> {ttcore.argument_type = #ttcore.argument_type<parameter>, ttcore.shard_status = #ttcore.shard_status<unsharded>, ttir.name = "l__self___image_encoder_vision_model_encoder_layers_1_layer_norm2_weight"} loc("p366.2160"), %arg367: tensor<1280xbf16> {ttcore.argument_type = #ttcore.argument_type<parameter>, ttcore.shard_status = #ttcore.shard_status<unsharded>, ttir.name = "l__self___image_encoder_vision_model_encoder_layers_1_self_attn_out_proj_bias"} loc("p367.2169"), %arg368: tensor<1280x1280xbf16> {ttcore.argument_type = #ttcore.argument_type<parameter>, ttcore.shard_status = #ttcore.shard_status<unsharded>, ttir.name = "l__self___image_encoder_vision_model_encoder_layers_1_self_attn_out_proj_weight"} loc("p368.2173"), %arg369: tensor<1280xbf16> {ttcore.argument_type = #ttcore.argument_type<parameter>, ttcore.shard_status = #ttcore.shard_status<unsharded>, ttir.name = "l__self___image_encoder_vision_model_encoder_layers_1_self_attn_v_proj_bias"} loc("p369.2179"), %arg370: tensor<1280x1280xbf16> {ttcore.argument_type = #ttcore.argument_type<parameter>, ttcore.shard_status = #ttcore.shard_status<unsharded>, ttir.name = "l__self___image_encoder_vision_model_encoder_layers_1_self_attn_v_proj_weight"} loc("p370.2183"), %arg371: tensor<1280xbf16> {ttcore.argument_type = #ttcore.argument_type<parameter>, ttcore.shard_status = #ttcore.shard_status<unsharded>, ttir.name = "l__self___image_encoder_vision_model_encoder_layers_1_layer_norm1_bias"} loc("p371.2189"), %arg372: tensor<1280xbf16> {ttcore.argument_type = #ttcore.argument_type<parameter>, ttcore.shard_status = #ttcore.shard_status<unsharded>, ttir.name = "l__self___image_encoder_vision_model_encoder_layers_1_layer_norm1_weight"} loc("p372.2194"), %arg373: tensor<1280xbf16> {ttcore.argument_type = #ttcore.argument_type<parameter>, ttcore.shard_status = #ttcore.shard_status<unsharded>, ttir.name = "l__self___image_encoder_vision_model_encoder_layers_0_mlp_fc2_bias"} loc("p373.2203"), %arg374: tensor<1280x5120xbf16> {ttcore.argument_type = #ttcore.argument_type<parameter>, ttcore.shard_status = #ttcore.shard_status<unsharded>, ttir.name = "l__self___image_encoder_vision_model_encoder_layers_0_mlp_fc2_weight"} loc("p374.2207"), %arg375: tensor<5120xbf16> {ttcore.argument_type = #ttcore.argument_type<parameter>, ttcore.shard_status = #ttcore.shard_status<unsharded>, ttir.name = "l__self___image_encoder_vision_model_encoder_layers_0_mlp_fc1_bias"} loc("p375.2213"), %arg376: tensor<5120x1280xbf16> {ttcore.argument_type = #ttcore.argument_type<parameter>, ttcore.shard_status = #ttcore.shard_status<unsharded>, ttir.name = "l__self___image_encoder_vision_model_encoder_layers_0_mlp_fc1_weight"} loc("p376.2217"), %arg377: tensor<1280xbf16> {ttcore.argument_type = #ttcore.argument_type<parameter>, ttcore.shard_status = #ttcore.shard_status<unsharded>, ttir.name = "l__self___image_encoder_vision_model_encoder_layers_0_layer_norm2_bias"} loc("p377.2223"), %arg378: tensor<1280xbf16> {ttcore.argument_type = #ttcore.argument_type<parameter>, ttcore.shard_status = #ttcore.shard_status<unsharded>, ttir.name = "l__self___image_encoder_vision_model_encoder_layers_0_layer_norm2_weight"} loc("p378.2228"), %arg379: tensor<1280xbf16> {ttcore.argument_type = #ttcore.argument_type<parameter>, ttcore.shard_status = #ttcore.shard_status<unsharded>, ttir.name = "l__self___image_encoder_vision_model_encoder_layers_0_self_attn_out_proj_bias"} loc("p379.2237"), %arg380: tensor<1280x1280xbf16> {ttcore.argument_type = #ttcore.argument_type<parameter>, ttcore.shard_status = #ttcore.shard_status<unsharded>, ttir.name = "l__self___image_encoder_vision_model_encoder_layers_0_self_attn_out_proj_weight"} loc("p380.2241"), %arg381: tensor<1280xbf16> {ttcore.argument_type = #ttcore.argument_type<parameter>, ttcore.shard_status = #ttcore.shard_status<unsharded>, ttir.name = "l__self___image_encoder_vision_model_encoder_layers_0_self_attn_v_proj_bias"} loc("p381.2247"), %arg382: tensor<1280x1280xbf16> {ttcore.argument_type = #ttcore.argument_type<parameter>, ttcore.shard_status = #ttcore.shard_status<unsharded>, ttir.name = "l__self___image_encoder_vision_model_encoder_layers_0_self_attn_v_proj_weight"} loc("p382.2251"), %arg383: tensor<1280xbf16> {ttcore.argument_type = #ttcore.argument_type<parameter>, ttcore.shard_status = #ttcore.shard_status<unsharded>, ttir.name = "l__self___image_encoder_vision_model_encoder_layers_0_layer_norm1_bias"} loc("p383.2257"), %arg384: tensor<1280xbf16> {ttcore.argument_type = #ttcore.argument_type<parameter>, ttcore.shard_status = #ttcore.shard_status<unsharded>, ttir.name = "l__self___image_encoder_vision_model_encoder_layers_0_layer_norm1_weight"} loc("p384.2262"), %arg385: tensor<1280xbf16> {ttcore.argument_type = #ttcore.argument_type<parameter>, ttcore.shard_status = #ttcore.shard_status<unsharded>, ttir.name = "l__self___image_encoder_vision_model_pre_layrnorm_bias"} loc("p385.2270"), %arg386: tensor<1280xbf16> {ttcore.argument_type = #ttcore.argument_type<parameter>, ttcore.shard_status = #ttcore.shard_status<unsharded>, ttir.name = "l__self___image_encoder_vision_model_pre_layrnorm_weight"} loc("p386.2275"), %arg387: tensor<1x257xi64> {ttcore.argument_type = #ttcore.argument_type<constant>, ttcore.shard_status = #ttcore.shard_status<unsharded>, ttir.name = "l__self___image_encoder_vision_model_embeddings_position_ids"} loc("p387.2283"), %arg388: tensor<257x1280xbf16> {ttcore.argument_type = #ttcore.argument_type<parameter>, ttcore.shard_status = #ttcore.shard_status<unsharded>, ttir.name = "l__self___image_encoder_vision_model_embeddings_position_embedding_weight"} loc("p388.2288"), %arg389: tensor<1280x3x14x14xbf16> {ttcore.argument_type = #ttcore.argument_type<parameter>, ttcore.shard_status = #ttcore.shard_status<unsharded>, ttir.name = "l__self___image_encoder_vision_model_embeddings_patch_embedding_weight"} loc("p389.2295"), %arg390: tensor<1x3x224x224xbf16> {ttcore.argument_type = #ttcore.argument_type<input>, ttcore.shard_status = #ttcore.shard_status<unsharded>, ttir.name = "args_0"} loc("p390.2297"), %arg391: tensor<1280xbf16> {ttcore.argument_type = #ttcore.argument_type<parameter>, ttcore.shard_status = #ttcore.shard_status<unsharded>, ttir.name = "l__self___image_encoder_vision_model_embeddings_class_embedding"} loc("p391.2302"), %arg392: tensor<1280xbf16> {ttcore.argument_type = #ttcore.argument_type<parameter>, ttcore.shard_status = #ttcore.shard_status<unsharded>, ttir.name = "l__self___image_encoder_vision_model_encoder_layers_0_self_attn_k_proj_bias"} loc("p392.2478"), %arg393: tensor<1280x1280xbf16> {ttcore.argument_type = #ttcore.argument_type<parameter>, ttcore.shard_status = #ttcore.shard_status<unsharded>, ttir.name = "l__self___image_encoder_vision_model_encoder_layers_0_self_attn_k_proj_weight"} loc("p393.2482"), %arg394: tensor<1280xbf16> {ttcore.argument_type = #ttcore.argument_type<parameter>, ttcore.shard_status = #ttcore.shard_status<unsharded>, ttir.name = "l__self___image_encoder_vision_model_encoder_layers_0_self_attn_q_proj_bias"} loc("p394.2502"), %arg395: tensor<1280x1280xbf16> {ttcore.argument_type = #ttcore.argument_type<parameter>, ttcore.shard_status = #ttcore.shard_status<unsharded>, ttir.name = "l__self___image_encoder_vision_model_encoder_layers_0_self_attn_q_proj_weight"} loc("p395.2506"), %arg396: tensor<1280xbf16> {ttcore.argument_type = #ttcore.argument_type<parameter>, ttcore.shard_status = #ttcore.shard_status<unsharded>, ttir.name = "l__self___image_encoder_vision_model_encoder_layers_1_self_attn_k_proj_bias"} loc("p396.2788"), %arg397: tensor<1280x1280xbf16> {ttcore.argument_type = #ttcore.argument_type<parameter>, ttcore.shard_status = #ttcore.shard_status<unsharded>, ttir.name = "l__self___image_encoder_vision_model_encoder_layers_1_self_attn_k_proj_weight"} loc("p397.2792"), %arg398: tensor<1280xbf16> {ttcore.argument_type = #ttcore.argument_type<parameter>, ttcore.shard_status = #ttcore.shard_status<unsharded>, ttir.name = "l__self___image_encoder_vision_model_encoder_layers_1_self_attn_q_proj_bias"} loc("p398.2812"), %arg399: tensor<1280x1280xbf16> {ttcore.argument_type = #ttcore.argument_type<parameter>, ttcore.shard_status = #ttcore.shard_status<unsharded>, ttir.name = "l__self___image_encoder_vision_model_encoder_layers_1_self_attn_q_proj_weight"} loc("p399.2816"), %arg400: tensor<1280xbf16> {ttcore.argument_type = #ttcore.argument_type<parameter>, ttcore.shard_status = #ttcore.shard_status<unsharded>, ttir.name = "l__self___image_encoder_vision_model_encoder_layers_2_self_attn_k_proj_bias"} loc("p400.3098"), %arg401: tensor<1280x1280xbf16> {ttcore.argument_type = #ttcore.argument_type<parameter>, ttcore.shard_status = #ttcore.shard_status<unsharded>, ttir.name = "l__self___image_encoder_vision_model_encoder_layers_2_self_attn_k_proj_weight"} loc("p401.3102"), %arg402: tensor<1280xbf16> {ttcore.argument_type = #ttcore.argument_type<parameter>, ttcore.shard_status = #ttcore.shard_status<unsharded>, ttir.name = "l__self___image_encoder_vision_model_encoder_layers_2_self_attn_q_proj_bias"} loc("p402.3122"), %arg403: tensor<1280x1280xbf16> {ttcore.argument_type = #ttcore.argument_type<parameter>, ttcore.shard_status = #ttcore.shard_status<unsharded>, ttir.name = "l__self___image_encoder_vision_model_encoder_layers_2_self_attn_q_proj_weight"} loc("p403.3126"), %arg404: tensor<1280xbf16> {ttcore.argument_type = #ttcore.argument_type<parameter>, ttcore.shard_status = #ttcore.shard_status<unsharded>, ttir.name = "l__self___image_encoder_vision_model_encoder_layers_3_self_attn_k_proj_bias"} loc("p404.3408"), %arg405: tensor<1280x1280xbf16> {ttcore.argument_type = #ttcore.argument_type<parameter>, ttcore.shard_status = #ttcore.shard_status<unsharded>, ttir.name = "l__self___image_encoder_vision_model_encoder_layers_3_self_attn_k_proj_weight"} loc("p405.3412"), %arg406: tensor<1280xbf16> {ttcore.argument_type = #ttcore.argument_type<parameter>, ttcore.shard_status = #ttcore.shard_status<unsharded>, ttir.name = "l__self___image_encoder_vision_model_encoder_layers_3_self_attn_q_proj_bias"} loc("p406.3432"), %arg407: tensor<1280x1280xbf16> {ttcore.argument_type = #ttcore.argument_type<parameter>, ttcore.shard_status = #ttcore.shard_status<unsharded>, ttir.name = "l__self___image_encoder_vision_model_encoder_layers_3_self_attn_q_proj_weight"} loc("p407.3436"), %arg408: tensor<1280xbf16> {ttcore.argument_type = #ttcore.argument_type<parameter>, ttcore.shard_status = #ttcore.shard_status<unsharded>, ttir.name = "l__self___image_encoder_vision_model_encoder_layers_4_self_attn_k_proj_bias"} loc("p408.3718"), %arg409: tensor<1280x1280xbf16> {ttcore.argument_type = #ttcore.argument_type<parameter>, ttcore.shard_status = #ttcore.shard_status<unsharded>, ttir.name = "l__self___image_encoder_vision_model_encoder_layers_4_self_attn_k_proj_weight"} loc("p409.3722"), %arg410: tensor<1280xbf16> {ttcore.argument_type = #ttcore.argument_type<parameter>, ttcore.shard_status = #ttcore.shard_status<unsharded>, ttir.name = "l__self___image_encoder_vision_model_encoder_layers_4_self_attn_q_proj_bias"} loc("p410.3742"), %arg411: tensor<1280x1280xbf16> {ttcore.argument_type = #ttcore.argument_type<parameter>, ttcore.shard_status = #ttcore.shard_status<unsharded>, ttir.name = "l__self___image_encoder_vision_model_encoder_layers_4_self_attn_q_proj_weight"} loc("p411.3746"), %arg412: tensor<1280xbf16> {ttcore.argument_type = #ttcore.argument_type<parameter>, ttcore.shard_status = #ttcore.shard_status<unsharded>, ttir.name = "l__self___image_encoder_vision_model_encoder_layers_5_self_attn_k_proj_bias"} loc("p412.4028"), %arg413: tensor<1280x1280xbf16> {ttcore.argument_type = #ttcore.argument_type<parameter>, ttcore.shard_status = #ttcore.shard_status<unsharded>, ttir.name = "l__self___image_encoder_vision_model_encoder_layers_5_self_attn_k_proj_weight"} loc("p413.4032"), %arg414: tensor<1280xbf16> {ttcore.argument_type = #ttcore.argument_type<parameter>, ttcore.shard_status = #ttcore.shard_status<unsharded>, ttir.name = "l__self___image_encoder_vision_model_encoder_layers_5_self_attn_q_proj_bias"} loc("p414.4052"), %arg415: tensor<1280x1280xbf16> {ttcore.argument_type = #ttcore.argument_type<parameter>, ttcore.shard_status = #ttcore.shard_status<unsharded>, ttir.name = "l__self___image_encoder_vision_model_encoder_layers_5_self_attn_q_proj_weight"} loc("p415.4056"), %arg416: tensor<1280xbf16> {ttcore.argument_type = #ttcore.argument_type<parameter>, ttcore.shard_status = #ttcore.shard_status<unsharded>, ttir.name = "l__self___image_encoder_vision_model_encoder_layers_6_self_attn_k_proj_bias"} loc("p416.4338"), %arg417: tensor<1280x1280xbf16> {ttcore.argument_type = #ttcore.argument_type<parameter>, ttcore.shard_status = #ttcore.shard_status<unsharded>, ttir.name = "l__self___image_encoder_vision_model_encoder_layers_6_self_attn_k_proj_weight"} loc("p417.4342"), %arg418: tensor<1280xbf16> {ttcore.argument_type = #ttcore.argument_type<parameter>, ttcore.shard_status = #ttcore.shard_status<unsharded>, ttir.name = "l__self___image_encoder_vision_model_encoder_layers_6_self_attn_q_proj_bias"} loc("p418.4362"), %arg419: tensor<1280x1280xbf16> {ttcore.argument_type = #ttcore.argument_type<parameter>, ttcore.shard_status = #ttcore.shard_status<unsharded>, ttir.name = "l__self___image_encoder_vision_model_encoder_layers_6_self_attn_q_proj_weight"} loc("p419.4366"), %arg420: tensor<1280xbf16> {ttcore.argument_type = #ttcore.argument_type<parameter>, ttcore.shard_status = #ttcore.shard_status<unsharded>, ttir.name = "l__self___image_encoder_vision_model_encoder_layers_7_self_attn_k_proj_bias"} loc("p420.4648"), %arg421: tensor<1280x1280xbf16> {ttcore.argument_type = #ttcore.argument_type<parameter>, ttcore.shard_status = #ttcore.shard_status<unsharded>, ttir.name = "l__self___image_encoder_vision_model_encoder_layers_7_self_attn_k_proj_weight"} loc("p421.4652"), %arg422: tensor<1280xbf16> {ttcore.argument_type = #ttcore.argument_type<parameter>, ttcore.shard_status = #ttcore.shard_status<unsharded>, ttir.name = "l__self___image_encoder_vision_model_encoder_layers_7_self_attn_q_proj_bias"} loc("p422.4672"), %arg423: tensor<1280x1280xbf16> {ttcore.argument_type = #ttcore.argument_type<parameter>, ttcore.shard_status = #ttcore.shard_status<unsharded>, ttir.name = "l__self___image_encoder_vision_model_encoder_layers_7_self_attn_q_proj_weight"} loc("p423.4676"), %arg424: tensor<1280xbf16> {ttcore.argument_type = #ttcore.argument_type<parameter>, ttcore.shard_status = #ttcore.shard_status<unsharded>, ttir.name = "l__self___image_encoder_vision_model_encoder_layers_8_self_attn_k_proj_bias"} loc("p424.4958"), %arg425: tensor<1280x1280xbf16> {ttcore.argument_type = #ttcore.argument_type<parameter>, ttcore.shard_status = #ttcore.shard_status<unsharded>, ttir.name = "l__self___image_encoder_vision_model_encoder_layers_8_self_attn_k_proj_weight"} loc("p425.4962"), %arg426: tensor<1280xbf16> {ttcore.argument_type = #ttcore.argument_type<parameter>, ttcore.shard_status = #ttcore.shard_status<unsharded>, ttir.name = "l__self___image_encoder_vision_model_encoder_layers_8_self_attn_q_proj_bias"} loc("p426.4982"), %arg427: tensor<1280x1280xbf16> {ttcore.argument_type = #ttcore.argument_type<parameter>, ttcore.shard_status = #ttcore.shard_status<unsharded>, ttir.name = "l__self___image_encoder_vision_model_encoder_layers_8_self_attn_q_proj_weight"} loc("p427.4986"), %arg428: tensor<1280xbf16> {ttcore.argument_type = #ttcore.argument_type<parameter>, ttcore.shard_status = #ttcore.shard_status<unsharded>, ttir.name = "l__self___image_encoder_vision_model_encoder_layers_9_self_attn_k_proj_bias"} loc("p428.5268"), %arg429: tensor<1280x1280xbf16> {ttcore.argument_type = #ttcore.argument_type<parameter>, ttcore.shard_status = #ttcore.shard_status<unsharded>, ttir.name = "l__self___image_encoder_vision_model_encoder_layers_9_self_attn_k_proj_weight"} loc("p429.5272"), %arg430: tensor<1280xbf16> {ttcore.argument_type = #ttcore.argument_type<parameter>, ttcore.shard_status = #ttcore.shard_status<unsharded>, ttir.name = "l__self___image_encoder_vision_model_encoder_layers_9_self_attn_q_proj_bias"} loc("p430.5292"), %arg431: tensor<1280x1280xbf16> {ttcore.argument_type = #ttcore.argument_type<parameter>, ttcore.shard_status = #ttcore.shard_status<unsharded>, ttir.name = "l__self___image_encoder_vision_model_encoder_layers_9_self_attn_q_proj_weight"} loc("p431.5296"), %arg432: tensor<1280xbf16> {ttcore.argument_type = #ttcore.argument_type<parameter>, ttcore.shard_status = #ttcore.shard_status<unsharded>, ttir.name = "l__self___image_encoder_vision_model_encoder_layers_10_self_attn_k_proj_bias"} loc("p432.5578"), %arg433: tensor<1280x1280xbf16> {ttcore.argument_type = #ttcore.argument_type<parameter>, ttcore.shard_status = #ttcore.shard_status<unsharded>, ttir.name = "l__self___image_encoder_vision_model_encoder_layers_10_self_attn_k_proj_weight"} loc("p433.5582"), %arg434: tensor<1280xbf16> {ttcore.argument_type = #ttcore.argument_type<parameter>, ttcore.shard_status = #ttcore.shard_status<unsharded>, ttir.name = "l__self___image_encoder_vision_model_encoder_layers_10_self_attn_q_proj_bias"} loc("p434.5602"), %arg435: tensor<1280x1280xbf16> {ttcore.argument_type = #ttcore.argument_type<parameter>, ttcore.shard_status = #ttcore.shard_status<unsharded>, ttir.name = "l__self___image_encoder_vision_model_encoder_layers_10_self_attn_q_proj_weight"} loc("p435.5606"), %arg436: tensor<1280xbf16> {ttcore.argument_type = #ttcore.argument_type<parameter>, ttcore.shard_status = #ttcore.shard_status<unsharded>, ttir.name = "l__self___image_encoder_vision_model_encoder_layers_11_self_attn_k_proj_bias"} loc("p436.5888"), %arg437: tensor<1280x1280xbf16> {ttcore.argument_type = #ttcore.argument_type<parameter>, ttcore.shard_status = #ttcore.shard_status<unsharded>, ttir.name = "l__self___image_encoder_vision_model_encoder_layers_11_self_attn_k_proj_weight"} loc("p437.5892"), %arg438: tensor<1280xbf16> {ttcore.argument_type = #ttcore.argument_type<parameter>, ttcore.shard_status = #ttcore.shard_status<unsharded>, ttir.name = "l__self___image_encoder_vision_model_encoder_layers_11_self_attn_q_proj_bias"} loc("p438.5912"), %arg439: tensor<1280x1280xbf16> {ttcore.argument_type = #ttcore.argument_type<parameter>, ttcore.shard_status = #ttcore.shard_status<unsharded>, ttir.name = "l__self___image_encoder_vision_model_encoder_layers_11_self_attn_q_proj_weight"} loc("p439.5916"), %arg440: tensor<1280xbf16> {ttcore.argument_type = #ttcore.argument_type<parameter>, ttcore.shard_status = #ttcore.shard_status<unsharded>, ttir.name = "l__self___image_encoder_vision_model_encoder_layers_12_self_attn_k_proj_bias"} loc("p440.6198"), %arg441: tensor<1280x1280xbf16> {ttcore.argument_type = #ttcore.argument_type<parameter>, ttcore.shard_status = #ttcore.shard_status<unsharded>, ttir.name = "l__self___image_encoder_vision_model_encoder_layers_12_self_attn_k_proj_weight"} loc("p441.6202"), %arg442: tensor<1280xbf16> {ttcore.argument_type = #ttcore.argument_type<parameter>, ttcore.shard_status = #ttcore.shard_status<unsharded>, ttir.name = "l__self___image_encoder_vision_model_encoder_layers_12_self_attn_q_proj_bias"} loc("p442.6222"), %arg443: tensor<1280x1280xbf16> {ttcore.argument_type = #ttcore.argument_type<parameter>, ttcore.shard_status = #ttcore.shard_status<unsharded>, ttir.name = "l__self___image_encoder_vision_model_encoder_layers_12_self_attn_q_proj_weight"} loc("p443.6226"), %arg444: tensor<1280xbf16> {ttcore.argument_type = #ttcore.argument_type<parameter>, ttcore.shard_status = #ttcore.shard_status<unsharded>, ttir.name = "l__self___image_encoder_vision_model_encoder_layers_13_self_attn_k_proj_bias"} loc("p444.6508"), %arg445: tensor<1280x1280xbf16> {ttcore.argument_type = #ttcore.argument_type<parameter>, ttcore.shard_status = #ttcore.shard_status<unsharded>, ttir.name = "l__self___image_encoder_vision_model_encoder_layers_13_self_attn_k_proj_weight"} loc("p445.6512"), %arg446: tensor<1280xbf16> {ttcore.argument_type = #ttcore.argument_type<parameter>, ttcore.shard_status = #ttcore.shard_status<unsharded>, ttir.name = "l__self___image_encoder_vision_model_encoder_layers_13_self_attn_q_proj_bias"} loc("p446.6532"), %arg447: tensor<1280x1280xbf16> {ttcore.argument_type = #ttcore.argument_type<parameter>, ttcore.shard_status = #ttcore.shard_status<unsharded>, ttir.name = "l__self___image_encoder_vision_model_encoder_layers_13_self_attn_q_proj_weight"} loc("p447.6536"), %arg448: tensor<1280xbf16> {ttcore.argument_type = #ttcore.argument_type<parameter>, ttcore.shard_status = #ttcore.shard_status<unsharded>, ttir.name = "l__self___image_encoder_vision_model_encoder_layers_14_self_attn_k_proj_bias"} loc("p448.6818"), %arg449: tensor<1280x1280xbf16> {ttcore.argument_type = #ttcore.argument_type<parameter>, ttcore.shard_status = #ttcore.shard_status<unsharded>, ttir.name = "l__self___image_encoder_vision_model_encoder_layers_14_self_attn_k_proj_weight"} loc("p449.6822"), %arg450: tensor<1280xbf16> {ttcore.argument_type = #ttcore.argument_type<parameter>, ttcore.shard_status = #ttcore.shard_status<unsharded>, ttir.name = "l__self___image_encoder_vision_model_encoder_layers_14_self_attn_q_proj_bias"} loc("p450.6842"), %arg451: tensor<1280x1280xbf16> {ttcore.argument_type = #ttcore.argument_type<parameter>, ttcore.shard_status = #ttcore.shard_status<unsharded>, ttir.name = "l__self___image_encoder_vision_model_encoder_layers_14_self_attn_q_proj_weight"} loc("p451.6846"), %arg452: tensor<1280xbf16> {ttcore.argument_type = #ttcore.argument_type<parameter>, ttcore.shard_status = #ttcore.shard_status<unsharded>, ttir.name = "l__self___image_encoder_vision_model_encoder_layers_15_self_attn_k_proj_bias"} loc("p452.7128"), %arg453: tensor<1280x1280xbf16> {ttcore.argument_type = #ttcore.argument_type<parameter>, ttcore.shard_status = #ttcore.shard_status<unsharded>, ttir.name = "l__self___image_encoder_vision_model_encoder_layers_15_self_attn_k_proj_weight"} loc("p453.7132"), %arg454: tensor<1280xbf16> {ttcore.argument_type = #ttcore.argument_type<parameter>, ttcore.shard_status = #ttcore.shard_status<unsharded>, ttir.name = "l__self___image_encoder_vision_model_encoder_layers_15_self_attn_q_proj_bias"} loc("p454.7152"), %arg455: tensor<1280x1280xbf16> {ttcore.argument_type = #ttcore.argument_type<parameter>, ttcore.shard_status = #ttcore.shard_status<unsharded>, ttir.name = "l__self___image_encoder_vision_model_encoder_layers_15_self_attn_q_proj_weight"} loc("p455.7156"), %arg456: tensor<1280xbf16> {ttcore.argument_type = #ttcore.argument_type<parameter>, ttcore.shard_status = #ttcore.shard_status<unsharded>, ttir.name = "l__self___image_encoder_vision_model_encoder_layers_16_self_attn_k_proj_bias"} loc("p456.7438"), %arg457: tensor<1280x1280xbf16> {ttcore.argument_type = #ttcore.argument_type<parameter>, ttcore.shard_status = #ttcore.shard_status<unsharded>, ttir.name = "l__self___image_encoder_vision_model_encoder_layers_16_self_attn_k_proj_weight"} loc("p457.7442"), %arg458: tensor<1280xbf16> {ttcore.argument_type = #ttcore.argument_type<parameter>, ttcore.shard_status = #ttcore.shard_status<unsharded>, ttir.name = "l__self___image_encoder_vision_model_encoder_layers_16_self_attn_q_proj_bias"} loc("p458.7462"), %arg459: tensor<1280x1280xbf16> {ttcore.argument_type = #ttcore.argument_type<parameter>, ttcore.shard_status = #ttcore.shard_status<unsharded>, ttir.name = "l__self___image_encoder_vision_model_encoder_layers_16_self_attn_q_proj_weight"} loc("p459.7466"), %arg460: tensor<1280xbf16> {ttcore.argument_type = #ttcore.argument_type<parameter>, ttcore.shard_status = #ttcore.shard_status<unsharded>, ttir.name = "l__self___image_encoder_vision_model_encoder_layers_17_self_attn_k_proj_bias"} loc("p460.7748"), %arg461: tensor<1280x1280xbf16> {ttcore.argument_type = #ttcore.argument_type<parameter>, ttcore.shard_status = #ttcore.shard_status<unsharded>, ttir.name = "l__self___image_encoder_vision_model_encoder_layers_17_self_attn_k_proj_weight"} loc("p461.7752"), %arg462: tensor<1280xbf16> {ttcore.argument_type = #ttcore.argument_type<parameter>, ttcore.shard_status = #ttcore.shard_status<unsharded>, ttir.name = "l__self___image_encoder_vision_model_encoder_layers_17_self_attn_q_proj_bias"} loc("p462.7772"), %arg463: tensor<1280x1280xbf16> {ttcore.argument_type = #ttcore.argument_type<parameter>, ttcore.shard_status = #ttcore.shard_status<unsharded>, ttir.name = "l__self___image_encoder_vision_model_encoder_layers_17_self_attn_q_proj_weight"} loc("p463.7776"), %arg464: tensor<1280xbf16> {ttcore.argument_type = #ttcore.argument_type<parameter>, ttcore.shard_status = #ttcore.shard_status<unsharded>, ttir.name = "l__self___image_encoder_vision_model_encoder_layers_18_self_attn_k_proj_bias"} loc("p464.8058"), %arg465: tensor<1280x1280xbf16> {ttcore.argument_type = #ttcore.argument_type<parameter>, ttcore.shard_status = #ttcore.shard_status<unsharded>, ttir.name = "l__self___image_encoder_vision_model_encoder_layers_18_self_attn_k_proj_weight"} loc("p465.8062"), %arg466: tensor<1280xbf16> {ttcore.argument_type = #ttcore.argument_type<parameter>, ttcore.shard_status = #ttcore.shard_status<unsharded>, ttir.name = "l__self___image_encoder_vision_model_encoder_layers_18_self_attn_q_proj_bias"} loc("p466.8082"), %arg467: tensor<1280x1280xbf16> {ttcore.argument_type = #ttcore.argument_type<parameter>, ttcore.shard_status = #ttcore.shard_status<unsharded>, ttir.name = "l__self___image_encoder_vision_model_encoder_layers_18_self_attn_q_proj_weight"} loc("p467.8086"), %arg468: tensor<1280xbf16> {ttcore.argument_type = #ttcore.argument_type<parameter>, ttcore.shard_status = #ttcore.shard_status<unsharded>, ttir.name = "l__self___image_encoder_vision_model_encoder_layers_19_self_attn_k_proj_bias"} loc("p468.8368"), %arg469: tensor<1280x1280xbf16> {ttcore.argument_type = #ttcore.argument_type<parameter>, ttcore.shard_status = #ttcore.shard_status<unsharded>, ttir.name = "l__self___image_encoder_vision_model_encoder_layers_19_self_attn_k_proj_weight"} loc("p469.8372"), %arg470: tensor<1280xbf16> {ttcore.argument_type = #ttcore.argument_type<parameter>, ttcore.shard_status = #ttcore.shard_status<unsharded>, ttir.name = "l__self___image_encoder_vision_model_encoder_layers_19_self_attn_q_proj_bias"} loc("p470.8392"), %arg471: tensor<1280x1280xbf16> {ttcore.argument_type = #ttcore.argument_type<parameter>, ttcore.shard_status = #ttcore.shard_status<unsharded>, ttir.name = "l__self___image_encoder_vision_model_encoder_layers_19_self_attn_q_proj_weight"} loc("p471.8396"), %arg472: tensor<1280xbf16> {ttcore.argument_type = #ttcore.argument_type<parameter>, ttcore.shard_status = #ttcore.shard_status<unsharded>, ttir.name = "l__self___image_encoder_vision_model_encoder_layers_20_self_attn_k_proj_bias"} loc("p472.8678"), %arg473: tensor<1280x1280xbf16> {ttcore.argument_type = #ttcore.argument_type<parameter>, ttcore.shard_status = #ttcore.shard_status<unsharded>, ttir.name = "l__self___image_encoder_vision_model_encoder_layers_20_self_attn_k_proj_weight"} loc("p473.8682"), %arg474: tensor<1280xbf16> {ttcore.argument_type = #ttcore.argument_type<parameter>, ttcore.shard_status = #ttcore.shard_status<unsharded>, ttir.name = "l__self___image_encoder_vision_model_encoder_layers_20_self_attn_q_proj_bias"} loc("p474.8702"), %arg475: tensor<1280x1280xbf16> {ttcore.argument_type = #ttcore.argument_type<parameter>, ttcore.shard_status = #ttcore.shard_status<unsharded>, ttir.name = "l__self___image_encoder_vision_model_encoder_layers_20_self_attn_q_proj_weight"} loc("p475.8706"), %arg476: tensor<1280xbf16> {ttcore.argument_type = #ttcore.argument_type<parameter>, ttcore.shard_status = #ttcore.shard_status<unsharded>, ttir.name = "l__self___image_encoder_vision_model_encoder_layers_21_self_attn_k_proj_bias"} loc("p476.8988"), %arg477: tensor<1280x1280xbf16> {ttcore.argument_type = #ttcore.argument_type<parameter>, ttcore.shard_status = #ttcore.shard_status<unsharded>, ttir.name = "l__self___image_encoder_vision_model_encoder_layers_21_self_attn_k_proj_weight"} loc("p477.8992"), %arg478: tensor<1280xbf16> {ttcore.argument_type = #ttcore.argument_type<parameter>, ttcore.shard_status = #ttcore.shard_status<unsharded>, ttir.name = "l__self___image_encoder_vision_model_encoder_layers_21_self_attn_q_proj_bias"} loc("p478.9012"), %arg479: tensor<1280x1280xbf16> {ttcore.argument_type = #ttcore.argument_type<parameter>, ttcore.shard_status = #ttcore.shard_status<unsharded>, ttir.name = "l__self___image_encoder_vision_model_encoder_layers_21_self_attn_q_proj_weight"} loc("p479.9016"), %arg480: tensor<1280xbf16> {ttcore.argument_type = #ttcore.argument_type<parameter>, ttcore.shard_status = #ttcore.shard_status<unsharded>, ttir.name = "l__self___image_encoder_vision_model_encoder_layers_22_self_attn_k_proj_bias"} loc("p480.9298"), %arg481: tensor<1280x1280xbf16> {ttcore.argument_type = #ttcore.argument_type<parameter>, ttcore.shard_status = #ttcore.shard_status<unsharded>, ttir.name = "l__self___image_encoder_vision_model_encoder_layers_22_self_attn_k_proj_weight"} loc("p481.9302"), %arg482: tensor<1280xbf16> {ttcore.argument_type = #ttcore.argument_type<parameter>, ttcore.shard_status = #ttcore.shard_status<unsharded>, ttir.name = "l__self___image_encoder_vision_model_encoder_layers_22_self_attn_q_proj_bias"} loc("p482.9322"), %arg483: tensor<1280x1280xbf16> {ttcore.argument_type = #ttcore.argument_type<parameter>, ttcore.shard_status = #ttcore.shard_status<unsharded>, ttir.name = "l__self___image_encoder_vision_model_encoder_layers_22_self_attn_q_proj_weight"} loc("p483.9326"), %arg484: tensor<1280xbf16> {ttcore.argument_type = #ttcore.argument_type<parameter>, ttcore.shard_status = #ttcore.shard_status<unsharded>, ttir.name = "l__self___image_encoder_vision_model_encoder_layers_23_self_attn_k_proj_bias"} loc("p484.9608"), %arg485: tensor<1280x1280xbf16> {ttcore.argument_type = #ttcore.argument_type<parameter>, ttcore.shard_status = #ttcore.shard_status<unsharded>, ttir.name = "l__self___image_encoder_vision_model_encoder_layers_23_self_attn_k_proj_weight"} loc("p485.9612"), %arg486: tensor<1280xbf16> {ttcore.argument_type = #ttcore.argument_type<parameter>, ttcore.shard_status = #ttcore.shard_status<unsharded>, ttir.name = "l__self___image_encoder_vision_model_encoder_layers_23_self_attn_q_proj_bias"} loc("p486.9632"), %arg487: tensor<1280x1280xbf16> {ttcore.argument_type = #ttcore.argument_type<parameter>, ttcore.shard_status = #ttcore.shard_status<unsharded>, ttir.name = "l__self___image_encoder_vision_model_encoder_layers_23_self_attn_q_proj_weight"} loc("p487.9636"), %arg488: tensor<1280xbf16> {ttcore.argument_type = #ttcore.argument_type<parameter>, ttcore.shard_status = #ttcore.shard_status<unsharded>, ttir.name = "l__self___image_encoder_vision_model_encoder_layers_24_self_attn_k_proj_bias"} loc("p488.9918"), %arg489: tensor<1280x1280xbf16> {ttcore.argument_type = #ttcore.argument_type<parameter>, ttcore.shard_status = #ttcore.shard_status<unsharded>, ttir.name = "l__self___image_encoder_vision_model_encoder_layers_24_self_attn_k_proj_weight"} loc("p489.9922"), %arg490: tensor<1280xbf16> {ttcore.argument_type = #ttcore.argument_type<parameter>, ttcore.shard_status = #ttcore.shard_status<unsharded>, ttir.name = "l__self___image_encoder_vision_model_encoder_layers_24_self_attn_q_proj_bias"} loc("p490.9942"), %arg491: tensor<1280x1280xbf16> {ttcore.argument_type = #ttcore.argument_type<parameter>, ttcore.shard_status = #ttcore.shard_status<unsharded>, ttir.name = "l__self___image_encoder_vision_model_encoder_layers_24_self_attn_q_proj_weight"} loc("p491.9946"), %arg492: tensor<1280xbf16> {ttcore.argument_type = #ttcore.argument_type<parameter>, ttcore.shard_status = #ttcore.shard_status<unsharded>, ttir.name = "l__self___image_encoder_vision_model_encoder_layers_25_self_attn_k_proj_bias"} loc("p492.10228"), %arg493: tensor<1280x1280xbf16> {ttcore.argument_type = #ttcore.argument_type<parameter>, ttcore.shard_status = #ttcore.shard_status<unsharded>, ttir.name = "l__self___image_encoder_vision_model_encoder_layers_25_self_attn_k_proj_weight"} loc("p493.10232"), %arg494: tensor<1280xbf16> {ttcore.argument_type = #ttcore.argument_type<parameter>, ttcore.shard_status = #ttcore.shard_status<unsharded>, ttir.name = "l__self___image_encoder_vision_model_encoder_layers_25_self_attn_q_proj_bias"} loc("p494.10252"), %arg495: tensor<1280x1280xbf16> {ttcore.argument_type = #ttcore.argument_type<parameter>, ttcore.shard_status = #ttcore.shard_status<unsharded>, ttir.name = "l__self___image_encoder_vision_model_encoder_layers_25_self_attn_q_proj_weight"} loc("p495.10256"), %arg496: tensor<1280xbf16> {ttcore.argument_type = #ttcore.argument_type<parameter>, ttcore.shard_status = #ttcore.shard_status<unsharded>, ttir.name = "l__self___image_encoder_vision_model_encoder_layers_26_self_attn_k_proj_bias"} loc("p496.10538"), %arg497: tensor<1280x1280xbf16> {ttcore.argument_type = #ttcore.argument_type<parameter>, ttcore.shard_status = #ttcore.shard_status<unsharded>, ttir.name = "l__self___image_encoder_vision_model_encoder_layers_26_self_attn_k_proj_weight"} loc("p497.10542"), %arg498: tensor<1280xbf16> {ttcore.argument_type = #ttcore.argument_type<parameter>, ttcore.shard_status = #ttcore.shard_status<unsharded>, ttir.name = "l__self___image_encoder_vision_model_encoder_layers_26_self_attn_q_proj_bias"} loc("p498.10562"), %arg499: tensor<1280x1280xbf16> {ttcore.argument_type = #ttcore.argument_type<parameter>, ttcore.shard_status = #ttcore.shard_status<unsharded>, ttir.name = "l__self___image_encoder_vision_model_encoder_layers_26_self_attn_q_proj_weight"} loc("p499.10566"), %arg500: tensor<1280xbf16> {ttcore.argument_type = #ttcore.argument_type<parameter>, ttcore.shard_status = #ttcore.shard_status<unsharded>, ttir.name = "l__self___image_encoder_vision_model_encoder_layers_27_self_attn_k_proj_bias"} loc("p500.10848"), %arg501: tensor<1280x1280xbf16> {ttcore.argument_type = #ttcore.argument_type<parameter>, ttcore.shard_status = #ttcore.shard_status<unsharded>, ttir.name = "l__self___image_encoder_vision_model_encoder_layers_27_self_attn_k_proj_weight"} loc("p501.10852"), %arg502: tensor<1280xbf16> {ttcore.argument_type = #ttcore.argument_type<parameter>, ttcore.shard_status = #ttcore.shard_status<unsharded>, ttir.name = "l__self___image_encoder_vision_model_encoder_layers_27_self_attn_q_proj_bias"} loc("p502.10872"), %arg503: tensor<1280x1280xbf16> {ttcore.argument_type = #ttcore.argument_type<parameter>, ttcore.shard_status = #ttcore.shard_status<unsharded>, ttir.name = "l__self___image_encoder_vision_model_encoder_layers_27_self_attn_q_proj_weight"} loc("p503.10876"), %arg504: tensor<1280xbf16> {ttcore.argument_type = #ttcore.argument_type<parameter>, ttcore.shard_status = #ttcore.shard_status<unsharded>, ttir.name = "l__self___image_encoder_vision_model_encoder_layers_28_self_attn_k_proj_bias"} loc("p504.11158"), %arg505: tensor<1280x1280xbf16> {ttcore.argument_type = #ttcore.argument_type<parameter>, ttcore.shard_status = #ttcore.shard_status<unsharded>, ttir.name = "l__self___image_encoder_vision_model_encoder_layers_28_self_attn_k_proj_weight"} loc("p505.11162"), %arg506: tensor<1280xbf16> {ttcore.argument_type = #ttcore.argument_type<parameter>, ttcore.shard_status = #ttcore.shard_status<unsharded>, ttir.name = "l__self___image_encoder_vision_model_encoder_layers_28_self_attn_q_proj_bias"} loc("p506.11182"), %arg507: tensor<1280x1280xbf16> {ttcore.argument_type = #ttcore.argument_type<parameter>, ttcore.shard_status = #ttcore.shard_status<unsharded>, ttir.name = "l__self___image_encoder_vision_model_encoder_layers_28_self_attn_q_proj_weight"} loc("p507.11186"), %arg508: tensor<1280xbf16> {ttcore.argument_type = #ttcore.argument_type<parameter>, ttcore.shard_status = #ttcore.shard_status<unsharded>, ttir.name = "l__self___image_encoder_vision_model_encoder_layers_29_self_attn_k_proj_bias"} loc("p508.11468"), %arg509: tensor<1280x1280xbf16> {ttcore.argument_type = #ttcore.argument_type<parameter>, ttcore.shard_status = #ttcore.shard_status<unsharded>, ttir.name = "l__self___image_encoder_vision_model_encoder_layers_29_self_attn_k_proj_weight"} loc("p509.11472"), %arg510: tensor<1280xbf16> {ttcore.argument_type = #ttcore.argument_type<parameter>, ttcore.shard_status = #ttcore.shard_status<unsharded>, ttir.name = "l__self___image_encoder_vision_model_encoder_layers_29_self_attn_q_proj_bias"} loc("p510.11492"), %arg511: tensor<1280x1280xbf16> {ttcore.argument_type = #ttcore.argument_type<parameter>, ttcore.shard_status = #ttcore.shard_status<unsharded>, ttir.name = "l__self___image_encoder_vision_model_encoder_layers_29_self_attn_q_proj_weight"} loc("p511.11496"), %arg512: tensor<1280xbf16> {ttcore.argument_type = #ttcore.argument_type<parameter>, ttcore.shard_status = #ttcore.shard_status<unsharded>, ttir.name = "l__self___image_encoder_vision_model_encoder_layers_30_self_attn_k_proj_bias"} loc("p512.11778"), %arg513: tensor<1280x1280xbf16> {ttcore.argument_type = #ttcore.argument_type<parameter>, ttcore.shard_status = #ttcore.shard_status<unsharded>, ttir.name = "l__self___image_encoder_vision_model_encoder_layers_30_self_attn_k_proj_weight"} loc("p513.11782"), %arg514: tensor<1280xbf16> {ttcore.argument_type = #ttcore.argument_type<parameter>, ttcore.shard_status = #ttcore.shard_status<unsharded>, ttir.name = "l__self___image_encoder_vision_model_encoder_layers_30_self_attn_q_proj_bias"} loc("p514.11802"), %arg515: tensor<1280x1280xbf16> {ttcore.argument_type = #ttcore.argument_type<parameter>, ttcore.shard_status = #ttcore.shard_status<unsharded>, ttir.name = "l__self___image_encoder_vision_model_encoder_layers_30_self_attn_q_proj_weight"} loc("p515.11806"), %arg516: tensor<1280x1280xbf16> {ttcore.argument_type = #ttcore.argument_type<parameter>, ttcore.shard_status = #ttcore.shard_status<unsharded>, ttir.name = "l__self___resampler_layers_0_attn_to_k_weight"} loc("p516.12091"), %arg517: tensor<1280x1280xbf16> {ttcore.argument_type = #ttcore.argument_type<parameter>, ttcore.shard_status = #ttcore.shard_status<unsharded>, ttir.name = "l__self___resampler_layers_0_attn_to_q_weight"} loc("p517.12106"), %arg518: tensor<1280x5120xbf16> {ttcore.argument_type = #ttcore.argument_type<parameter>, ttcore.shard_status = #ttcore.shard_status<unsharded>, ttir.name = "getattr_l__self___resampler_layers_0_ff___1___net_2_weight"} loc("p518.12186"), %arg519: tensor<5120x1280xbf16> {ttcore.argument_type = #ttcore.argument_type<parameter>, ttcore.shard_status = #ttcore.shard_status<unsharded>, ttir.name = "getattr_l__self___resampler_layers_0_ff___1___net_0_proj_weight"} loc("p519.12191"), %arg520: tensor<1280xbf16> {ttcore.argument_type = #ttcore.argument_type<parameter>, ttcore.shard_status = #ttcore.shard_status<unsharded>, ttir.name = "l__self___resampler_layers_0_ff_0_bias"} loc("p520.12197"), %arg521: tensor<1280xbf16> {ttcore.argument_type = #ttcore.argument_type<parameter>, ttcore.shard_status = #ttcore.shard_status<unsharded>, ttir.name = "l__self___resampler_layers_0_ff_0_weight"} loc("p521.12202"), %arg522: tensor<1280x1280xbf16> {ttcore.argument_type = #ttcore.argument_type<parameter>, ttcore.shard_status = #ttcore.shard_status<unsharded>, ttir.name = "l__self___resampler_layers_1_attn_to_out_0_weight"} loc("p522.12309"), %arg523: tensor<1280x1280xbf16> {ttcore.argument_type = #ttcore.argument_type<parameter>, ttcore.shard_status = #ttcore.shard_status<unsharded>, ttir.name = "l__self___resampler_layers_1_attn_to_v_weight"} loc("p523.12314"), %arg524: tensor<1280xbf16> {ttcore.argument_type = #ttcore.argument_type<parameter>, ttcore.shard_status = #ttcore.shard_status<unsharded>, ttir.name = "l__self___resampler_layers_1_ln1_bias"} loc("p524.12320"), %arg525: tensor<1280xbf16> {ttcore.argument_type = #ttcore.argument_type<parameter>, ttcore.shard_status = #ttcore.shard_status<unsharded>, ttir.name = "l__self___resampler_layers_1_ln1_weight"} loc("p525.12325"), %arg526: tensor<1280xbf16> {ttcore.argument_type = #ttcore.argument_type<parameter>, ttcore.shard_status = #ttcore.shard_status<unsharded>, ttir.name = "l__self___resampler_layers_1_ln0_bias"} loc("p526.12410"), %arg527: tensor<1280xbf16> {ttcore.argument_type = #ttcore.argument_type<parameter>, ttcore.shard_status = #ttcore.shard_status<unsharded>, ttir.name = "l__self___resampler_layers_1_ln0_weight"} loc("p527.12415"), %arg528: tensor<1280x1280xbf16> {ttcore.argument_type = #ttcore.argument_type<parameter>, ttcore.shard_status = #ttcore.shard_status<unsharded>, ttir.name = "l__self___resampler_layers_1_attn_to_k_weight"} loc("p528.12507"), %arg529: tensor<1280x1280xbf16> {ttcore.argument_type = #ttcore.argument_type<parameter>, ttcore.shard_status = #ttcore.shard_status<unsharded>, ttir.name = "l__self___resampler_layers_1_attn_to_q_weight"} loc("p529.12522"), %arg530: tensor<1280x5120xbf16> {ttcore.argument_type = #ttcore.argument_type<parameter>, ttcore.shard_status = #ttcore.shard_status<unsharded>, ttir.name = "getattr_l__self___resampler_layers_1_ff___1___net_2_weight"} loc("p530.12602"), %arg531: tensor<5120x1280xbf16> {ttcore.argument_type = #ttcore.argument_type<parameter>, ttcore.shard_status = #ttcore.shard_status<unsharded>, ttir.name = "getattr_l__self___resampler_layers_1_ff___1___net_0_proj_weight"} loc("p531.12607"), %arg532: tensor<1280xbf16> {ttcore.argument_type = #ttcore.argument_type<parameter>, ttcore.shard_status = #ttcore.shard_status<unsharded>, ttir.name = "l__self___resampler_layers_1_ff_0_bias"} loc("p532.12613"), %arg533: tensor<1280xbf16> {ttcore.argument_type = #ttcore.argument_type<parameter>, ttcore.shard_status = #ttcore.shard_status<unsharded>, ttir.name = "l__self___resampler_layers_1_ff_0_weight"} loc("p533.12618"), %arg534: tensor<1280x1280xbf16> {ttcore.argument_type = #ttcore.argument_type<parameter>, ttcore.shard_status = #ttcore.shard_status<unsharded>, ttir.name = "l__self___resampler_layers_2_attn_to_out_0_weight"} loc("p534.12725"), %arg535: tensor<1280x1280xbf16> {ttcore.argument_type = #ttcore.argument_type<parameter>, ttcore.shard_status = #ttcore.shard_status<unsharded>, ttir.name = "l__self___resampler_layers_2_attn_to_v_weight"} loc("p535.12730"), %arg536: tensor<1280xbf16> {ttcore.argument_type = #ttcore.argument_type<parameter>, ttcore.shard_status = #ttcore.shard_status<unsharded>, ttir.name = "l__self___resampler_layers_2_ln1_bias"} loc("p536.12736"), %arg537: tensor<1280xbf16> {ttcore.argument_type = #ttcore.argument_type<parameter>, ttcore.shard_status = #ttcore.shard_status<unsharded>, ttir.name = "l__self___resampler_layers_2_ln1_weight"} loc("p537.12741"), %arg538: tensor<1280xbf16> {ttcore.argument_type = #ttcore.argument_type<parameter>, ttcore.shard_status = #ttcore.shard_status<unsharded>, ttir.name = "l__self___resampler_layers_2_ln0_bias"} loc("p538.12826"), %arg539: tensor<1280xbf16> {ttcore.argument_type = #ttcore.argument_type<parameter>, ttcore.shard_status = #ttcore.shard_status<unsharded>, ttir.name = "l__self___resampler_layers_2_ln0_weight"} loc("p539.12831"), %arg540: tensor<1280x1280xbf16> {ttcore.argument_type = #ttcore.argument_type<parameter>, ttcore.shard_status = #ttcore.shard_status<unsharded>, ttir.name = "l__self___resampler_layers_2_attn_to_k_weight"} loc("p540.12923"), %arg541: tensor<1280x1280xbf16> {ttcore.argument_type = #ttcore.argument_type<parameter>, ttcore.shard_status = #ttcore.shard_status<unsharded>, ttir.name = "l__self___resampler_layers_2_attn_to_q_weight"} loc("p541.12938"), %arg542: tensor<1280x5120xbf16> {ttcore.argument_type = #ttcore.argument_type<parameter>, ttcore.shard_status = #ttcore.shard_status<unsharded>, ttir.name = "getattr_l__self___resampler_layers_2_ff___1___net_2_weight"} loc("p542.13018"), %arg543: tensor<5120x1280xbf16> {ttcore.argument_type = #ttcore.argument_type<parameter>, ttcore.shard_status = #ttcore.shard_status<unsharded>, ttir.name = "getattr_l__self___resampler_layers_2_ff___1___net_0_proj_weight"} loc("p543.13023"), %arg544: tensor<1280xbf16> {ttcore.argument_type = #ttcore.argument_type<parameter>, ttcore.shard_status = #ttcore.shard_status<unsharded>, ttir.name = "l__self___resampler_layers_2_ff_0_bias"} loc("p544.13029"), %arg545: tensor<1280xbf16> {ttcore.argument_type = #ttcore.argument_type<parameter>, ttcore.shard_status = #ttcore.shard_status<unsharded>, ttir.name = "l__self___resampler_layers_2_ff_0_weight"} loc("p545.13034"), %arg546: tensor<1280x1280xbf16> {ttcore.argument_type = #ttcore.argument_type<parameter>, ttcore.shard_status = #ttcore.shard_status<unsharded>, ttir.name = "l__self___resampler_layers_3_attn_to_out_0_weight"} loc("p546.13141"), %arg547: tensor<1280x1280xbf16> {ttcore.argument_type = #ttcore.argument_type<parameter>, ttcore.shard_status = #ttcore.shard_status<unsharded>, ttir.name = "l__self__…
#loc2524 = loc("reshape.1002")
#loc2525 = loc("custom-call.8248")
#loc2526 = loc("reshape.8249")
#loc2527 = loc("reshape.994")
#loc2528 = loc("reshape.996")
#loc2529 = loc("transpose.997")
#loc2530 = loc("dot.8250")
#loc2531 = loc("reshape.8251")
#loc2532 = loc("reshape.990")
#loc2533 = loc("reshape.992")
#loc2534 = loc("broadcast.8254")
#loc2535 = loc("add.8255")
#loc2536 = loc("custom-call.8268")
#loc2537 = loc("reshape.8269")
#loc2538 = loc("reshape.984")
#loc2539 = loc("reshape.986")
#loc2540 = loc("transpose.987")
#loc2541 = loc("dot.8270")
#loc2542 = loc("reshape.8271")
#loc2543 = loc("reshape.980")
#loc2544 = loc("reshape.982")
#loc2545 = loc("broadcast.8274")
#loc2546 = loc("add.8275")
#loc2547 = loc("add.8278")
#loc2548 = loc("reshape.971")
#loc2549 = loc("reshape.973")
#loc2550 = loc("reshape.966")
#loc2551 = loc("reshape.968")
#loc2552 = loc("custom-call.8355")
#loc2553 = loc("reshape.8401")
#loc2554 = loc("reshape.8397")
#loc2555 = loc("reshape.8399")
#loc2556 = loc("transpose.8400")
#loc2557 = loc("dot.8402")
#loc2558 = loc("reshape.8403")
#loc2559 = loc("reshape.8393")
#loc2560 = loc("reshape.8395")
#loc2561 = loc("broadcast.8406")
#loc2562 = loc("add.8407")
#loc2563 = loc("reshape.8408")
#loc2564 = loc("transpose.8409")
#loc2565 = loc("convert.8410")
#loc2566 = loc("multiply.8412")
#loc2567 = loc("reshape.8373")
#loc2568 = loc("reshape.8375")
#loc2569 = loc("transpose.8376")
#loc2570 = loc("dot.8378")
#loc2571 = loc("reshape.8379")
#loc2572 = loc("reshape.8369")
#loc2573 = loc("reshape.8371")
#loc2574 = loc("broadcast.8382")
#loc2575 = loc("add.8383")
#loc2576 = loc("reshape.8384")
#loc2577 = loc("transpose.8385")
#loc2578 = loc("convert.8386")
#loc2579 = loc("transpose.8387")
#loc2580 = loc("multiply.8389")
#loc2581 = loc("dot.8413")
#loc2582 = loc("convert.8440")
#loc2583 = loc("compare.8442")
#loc2584 = loc("not.8444")
#loc2585 = loc("reduce.8456")
#loc2586 = loc("reshape.8460")
#loc2587 = loc("not.8462")
#loc2588 = loc("reshape.8464")
#loc2589 = loc("broadcast.8465")
#loc2590 = loc("reduce.8420")
#loc2591 = loc("broadcast.8421")
#loc2592 = loc("subtract.8422")
#loc2593 = loc("exponential.8423")
#loc2594 = loc("reduce.8429")
#loc2595 = loc("broadcast.8430")
#loc2596 = loc("divide.8431")
#loc2597 = loc("select.8466")
#loc2598 = loc("reshape.960")
#loc2599 = loc("reshape.962")
#loc2600 = loc("transpose.963")
#loc2601 = loc("dot.8357")
#loc2602 = loc("reshape.8358")
#loc2603 = loc("reshape.956")
#loc2604 = loc("reshape.958")
#loc2605 = loc("broadcast.8361")
#loc2606 = loc("add.8362")
#loc2607 = loc("reshape.8363")
#loc2608 = loc("transpose.8364")
#loc2609 = loc("convert.8365")
#loc2610 = loc("dot.8467")
#loc2611 = loc("convert.8469")
#loc2612 = loc("transpose.8470")
#loc2613 = loc("reshape.8472")
#loc2614 = loc("reshape.950")
#loc2615 = loc("reshape.952")
#loc2616 = loc("transpose.953")
#loc2617 = loc("dot.8473")
#loc2618 = loc("reshape.8474")
#loc2619 = loc("reshape.946")
#loc2620 = loc("reshape.948")
#loc2621 = loc("broadcast.8477")
#loc2622 = loc("add.8478")
#loc2623 = loc("add.8481")
#loc2624 = loc("reshape.937")
#loc2625 = loc("reshape.939")
#loc2626 = loc("reshape.932")
#loc2627 = loc("reshape.934")
#loc2628 = loc("custom-call.8558")
#loc2629 = loc("reshape.8559")
#loc2630 = loc("reshape.926")
#loc2631 = loc("reshape.928")
#loc2632 = loc("transpose.929")
#loc2633 = loc("dot.8560")
#loc2634 = loc("reshape.8561")
#loc2635 = loc("reshape.922")
#loc2636 = loc("reshape.924")
#loc2637 = loc("broadcast.8564")
#loc2638 = loc("add.8565")
#loc2639 = loc("custom-call.8578")
#loc2640 = loc("reshape.8579")
#loc2641 = loc("reshape.916")
#loc2642 = loc("reshape.918")
#loc2643 = loc("transpose.919")
#loc2644 = loc("dot.8580")
#loc2645 = loc("reshape.8581")
#loc2646 = loc("reshape.912")
#loc2647 = loc("reshape.914")
#loc2648 = loc("broadcast.8584")
#loc2649 = loc("add.8585")
#loc2650 = loc("add.8588")
#loc2651 = loc("reshape.903")
#loc2652 = loc("reshape.905")
#loc2653 = loc("reshape.898")
#loc2654 = loc("reshape.900")
#loc2655 = loc("custom-call.8665")
#loc2656 = loc("reshape.8711")
#loc2657 = loc("reshape.8707")
#loc2658 = loc("reshape.8709")
#loc2659 = loc("transpose.8710")
#loc2660 = loc("dot.8712")
#loc2661 = loc("reshape.8713")
#loc2662 = loc("reshape.8703")
#loc2663 = loc("reshape.8705")
#loc2664 = loc("broadcast.8716")
#loc2665 = loc("add.8717")
#loc2666 = loc("reshape.8718")
#loc2667 = loc("transpose.8719")
#loc2668 = loc("convert.8720")
#loc2669 = loc("multiply.8722")
#loc2670 = loc("reshape.8683")
#loc2671 = loc("reshape.8685")
#loc2672 = loc("transpose.8686")
#loc2673 = loc("dot.8688")
#loc2674 = loc("reshape.8689")
#loc2675 = loc("reshape.8679")
#loc2676 = loc("reshape.8681")
#loc2677 = loc("broadcast.8692")
#loc2678 = loc("add.8693")
#loc2679 = loc("reshape.8694")
#loc2680 = loc("transpose.8695")
#loc2681 = loc("convert.8696")
#loc2682 = loc("transpose.8697")
#loc2683 = loc("multiply.8699")
#loc2684 = loc("dot.8723")
#loc2685 = loc("convert.8750")
#loc2686 = loc("compare.8752")
#loc2687 = loc("not.8754")
#loc2688 = loc("reduce.8766")
#loc2689 = loc("reshape.8770")
#loc2690 = loc("not.8772")
#loc2691 = loc("reshape.8774")
#loc2692 = loc("broadcast.8775")
#loc2693 = loc("reduce.8730")
#loc2694 = loc("broadcast.8731")
#loc2695 = loc("subtract.8732")
#loc2696 = loc("exponential.8733")
#loc2697 = loc("reduce.8739")
#loc2698 = loc("broadcast.8740")
#loc2699 = loc("divide.8741")
#loc2700 = loc("select.8776")
#loc2701 = loc("reshape.892")
#loc2702 = loc("reshape.894")
#loc2703 = loc("transpose.895")
#loc2704 = loc("dot.8667")
#loc2705 = loc("reshape.8668")
#loc2706 = loc("reshape.888")
#loc2707 = loc("reshape.890")
#loc2708 = loc("broadcast.8671")
#loc2709 = loc("add.8672")
#loc2710 = loc("reshape.8673")
#loc2711 = loc("transpose.8674")
#loc2712 = loc("convert.8675")
#loc2713 = loc("dot.8777")
#loc2714 = loc("convert.8779")
#loc2715 = loc("transpose.8780")
#loc2716 = loc("reshape.8782")
#loc2717 = loc("reshape.882")
#loc2718 = loc("reshape.884")
#loc2719 = loc("transpose.885")
#loc2720 = loc("dot.8783")
#loc2721 = loc("reshape.8784")
#loc2722 = loc("reshape.878")
#loc2723 = loc("reshape.880")
#loc2724 = loc("broadcast.8787")
#loc2725 = loc("add.8788")
#loc2726 = loc("add.8791")
#loc2727 = loc("reshape.869")
#loc2728 = loc("reshape.871")
#loc2729 = loc("reshape.864")
#loc2730 = loc("reshape.866")
#loc2731 = loc("custom-call.8868")
#loc2732 = loc("reshape.8869")
#loc2733 = loc("reshape.858")
#loc2734 = loc("reshape.860")
#loc2735 = loc("transpose.861")
#loc2736 = loc("dot.8870")
#loc2737 = loc("reshape.8871")
#loc2738 = loc("reshape.854")
#loc2739 = loc("reshape.856")
#loc2740 = loc("broadcast.8874")
#loc2741 = loc("add.8875")
#loc2742 = loc("custom-call.8888")
#loc2743 = loc("reshape.8889")
#loc2744 = loc("reshape.848")
#loc2745 = loc("reshape.850")
#loc2746 = loc("transpose.851")
#loc2747 = loc("dot.8890")
#loc2748 = loc("reshape.8891")
#loc2749 = loc("reshape.844")
#loc2750 = loc("reshape.846")
#loc2751 = loc("broadcast.8894")
#loc2752 = loc("add.8895")
#loc2753 = loc("add.8898")
#loc2754 = loc("reshape.835")
#loc2755 = loc("reshape.837")
#loc2756 = loc("reshape.830")
#loc2757 = loc("reshape.832")
#loc2758 = loc("custom-call.8975")
#loc2759 = loc("reshape.9021")
#loc2760 = loc("reshape.9017")
#loc2761 = loc("reshape.9019")
#loc2762 = loc("transpose.9020")
#loc2763 = loc("dot.9022")
#loc2764 = loc("reshape.9023")
#loc2765 = loc("reshape.9013")
#loc2766 = loc("reshape.9015")
#loc2767 = loc("broadcast.9026")
#loc2768 = loc("add.9027")
#loc2769 = loc("reshape.9028")
#loc2770 = loc("transpose.9029")
#loc2771 = loc("convert.9030")
#loc2772 = loc("multiply.9032")
#loc2773 = loc("reshape.8993")
#loc2774 = loc("reshape.8995")
#loc2775 = loc("transpose.8996")
#loc2776 = loc("dot.8998")
#loc2777 = loc("reshape.8999")
#loc2778 = loc("reshape.8989")
#loc2779 = loc("reshape.8991")
#loc2780 = loc("broadcast.9002")
#loc2781 = loc("add.9003")
#loc2782 = loc("reshape.9004")
#loc2783 = loc("transpose.9005")
#loc2784 = loc("convert.9006")
#loc2785 = loc("transpose.9007")
#loc2786 = loc("multiply.9009")
#loc2787 = loc("dot.9033")
#loc2788 = loc("convert.9060")
#loc2789 = loc("compare.9062")
#loc2790 = loc("not.9064")
#loc2791 = loc("reduce.9076")
#loc2792 = loc("reshape.9080")
#loc2793 = loc("not.9082")
#loc2794 = loc("reshape.9084")
#loc2795 = loc("broadcast.9085")
#loc2796 = loc("reduce.9040")
#loc2797 = loc("broadcast.9041")
#loc2798 = loc("subtract.9042")
#loc2799 = loc("exponential.9043")
#loc2800 = loc("reduce.9049")
#loc2801 = loc("broadcast.9050")
#loc2802 = loc("divide.9051")
#loc2803 = loc("select.9086")
#loc2804 = loc("reshape.824")
#loc2805 = loc("reshape.826")
#loc2806 = loc("transpose.827")
#loc2807 = loc("dot.8977")
#loc2808 = loc("reshape.8978")
#loc2809 = loc("reshape.820")
#loc2810 = loc("reshape.822")
#loc2811 = loc("broadcast.8981")
#loc2812 = loc("add.8982")
#loc2813 = loc("reshape.8983")
#loc2814 = loc("transpose.8984")
#loc2815 = loc("convert.8985")
#loc2816 = loc("dot.9087")
#loc2817 = loc("convert.9089")
#loc2818 = loc("transpose.9090")
#loc2819 = loc("reshape.9092")
#loc2820 = loc("reshape.814")
#loc2821 = loc("reshape.816")
#loc2822 = loc("transpose.817")
#loc2823 = loc("dot.9093")
#loc2824 = loc("reshape.9094")
#loc2825 = loc("reshape.810")
#loc2826 = loc("reshape.812")
#loc2827 = loc("broadcast.9097")
#loc2828 = loc("add.9098")
#loc2829 = loc("add.9101")
#loc2830 = loc("reshape.801")
#loc2831 = loc("reshape.803")
#loc2832 = loc("reshape.796")
#loc2833 = loc("reshape.798")
#loc2834 = loc("custom-call.9178")
#loc2835 = loc("reshape.9179")
#loc2836 = loc("reshape.790")
#loc2837 = loc("reshape.792")
#loc2838 = loc("transpose.793")
#loc2839 = loc("dot.9180")
#loc2840 = loc("reshape.9181")
#loc2841 = loc("reshape.786")
#loc2842 = loc("reshape.788")
#loc2843 = loc("broadcast.9184")
#loc2844 = loc("add.9185")
#loc2845 = loc("custom-call.9198")
#loc2846 = loc("reshape.9199")
#loc2847 = loc("reshape.780")
#loc2848 = loc("reshape.782")
#loc2849 = loc("transpose.783")
#loc2850 = loc("dot.9200")
#loc2851 = loc("reshape.9201")
#loc2852 = loc("reshape.776")
#loc2853 = loc("reshape.778")
#loc2854 = loc("broadcast.9204")
#loc2855 = loc("add.9205")
#loc2856 = loc("add.9208")
#loc2857 = loc("reshape.767")
#loc2858 = loc("reshape.769")
#loc2859 = loc("reshape.762")
#loc2860 = loc("reshape.764")
#loc2861 = loc("custom-call.9285")
#loc2862 = loc("reshape.9331")
#loc2863 = loc("reshape.9327")
#loc2864 = loc("reshape.9329")
#loc2865 = loc("transpose.9330")
#loc2866 = loc("dot.9332")
#loc2867 = loc("reshape.9333")
#loc2868 = loc("reshape.9323")
#loc2869 = loc("reshape.9325")
#loc2870 = loc("broadcast.9336")
#loc2871 = loc("add.9337")
#loc2872 = loc("reshape.9338")
#loc2873 = loc("transpose.9339")
#loc2874 = loc("convert.9340")
#loc2875 = loc("multiply.9342")
#loc2876 = loc("reshape.9303")
#loc2877 = loc("reshape.9305")
#loc2878 = loc("transpose.9306")
#loc2879 = loc("dot.9308")
#loc2880 = loc("reshape.9309")
#loc2881 = loc("reshape.9299")
#loc2882 = loc("reshape.9301")
#loc2883 = loc("broadcast.9312")
#loc2884 = loc("add.9313")
#loc2885 = loc("reshape.9314")
#loc2886 = loc("transpose.9315")
#loc2887 = loc("convert.9316")
#loc2888 = loc("transpose.9317")
#loc2889 = loc("multiply.9319")
#loc2890 = loc("dot.9343")
#loc2891 = loc("convert.9370")
#loc2892 = loc("compare.9372")
#loc2893 = loc("not.9374")
#loc2894 = loc("reduce.9386")
#loc2895 = loc("reshape.9390")
#loc2896 = loc("not.9392")
#loc2897 = loc("reshape.9394")
#loc2898 = loc("broadcast.9395")
#loc2899 = loc("reduce.9350")
#loc2900 = loc("broadcast.9351")
#loc2901 = loc("subtract.9352")
#loc2902 = loc("exponential.9353")
#loc2903 = loc("reduce.9359")
#loc2904 = loc("broadcast.9360")
#loc2905 = loc("divide.9361")
#loc2906 = loc("select.9396")
#loc2907 = loc("reshape.756")
#loc2908 = loc("reshape.758")
#loc2909 = loc("transpose.759")
#loc2910 = loc("dot.9287")
#loc2911 = loc("reshape.9288")
#loc2912 = loc("reshape.752")
#loc2913 = loc("reshape.754")
#loc2914 = loc("broadcast.9291")
#loc2915 = loc("add.9292")
#loc2916 = loc("reshape.9293")
#loc2917 = loc("transpose.9294")
#loc2918 = loc("convert.9295")
#loc2919 = loc("dot.9397")
#loc2920 = loc("convert.9399")
#loc2921 = loc("transpose.9400")
#loc2922 = loc("reshape.9402")
#loc2923 = loc("reshape.746")
#loc2924 = loc("reshape.748")
#loc2925 = loc("transpose.749")
#loc2926 = loc("dot.9403")
#loc2927 = loc("reshape.9404")
#loc2928 = loc("reshape.742")
#loc2929 = loc("reshape.744")
#loc2930 = loc("broadcast.9407")
#loc2931 = loc("add.9408")
#loc2932 = loc("add.9411")
#loc2933 = loc("reshape.733")
#loc2934 = loc("reshape.735")
#loc2935 = loc("reshape.728")
#loc2936 = loc("reshape.730")
#loc2937 = loc("custom-call.9488")
#loc2938 = loc("reshape.9489")
#loc2939 = loc("reshape.722")
#loc2940 = loc("reshape.724")
#loc2941 = loc("transpose.725")
#loc2942 = loc("dot.9490")
#loc2943 = loc("reshape.9491")
#loc2944 = loc("reshape.718")
#loc2945 = loc("reshape.720")
#loc2946 = loc("broadcast.9494")
#loc2947 = loc("add.9495")
#loc2948 = loc("custom-call.9508")
#loc2949 = loc("reshape.9509")
#loc2950 = loc("reshape.712")
#loc2951 = loc("reshape.714")
#loc2952 = loc("transpose.715")
#loc2953 = loc("dot.9510")
#loc2954 = loc("reshape.9511")
#loc2955 = loc("reshape.708")
#loc2956 = loc("reshape.710")
#loc2957 = loc("broadcast.9514")
#loc2958 = loc("add.9515")
#loc2959 = loc("add.9518")
#loc2960 = loc("reshape.699")
#loc2961 = loc("reshape.701")
#loc2962 = loc("reshape.694")
#loc2963 = loc("reshape.696")
#loc2964 = loc("custom-call.9595")
#loc2965 = loc("reshape.9641")
#loc2966 = loc("reshape.9637")
#loc2967 = loc("reshape.9639")
#loc2968 = loc("transpose.9640")
#loc2969 = loc("dot.9642")
#loc2970 = loc("reshape.9643")
#loc2971 = loc("reshape.9633")
#loc2972 = loc("reshape.9635")
#loc2973 = loc("broadcast.9646")
#loc2974 = loc("add.9647")
#loc2975 = loc("reshape.9648")
#loc2976 = loc("transpose.9649")
#loc2977 = loc("convert.9650")
#loc2978 = loc("multiply.9652")
#loc2979 = loc("reshape.9613")
#loc2980 = loc("reshape.9615")
#loc2981 = loc("transpose.9616")
#loc2982 = loc("dot.9618")
#loc2983 = loc("reshape.9619")
#loc2984 = loc("reshape.9609")
#loc2985 = loc("reshape.9611")
#loc2986 = loc("broadcast.9622")
#loc2987 = loc("add.9623")
#loc2988 = loc("reshape.9624")
#loc2989 = loc("transpose.9625")
#loc2990 = loc("convert.9626")
#loc2991 = loc("transpose.9627")
#loc2992 = loc("multiply.9629")
#loc2993 = loc("dot.9653")
#loc2994 = loc("convert.9680")
#loc2995 = loc("compare.9682")
#loc2996 = loc("not.9684")
#loc2997 = loc("reduce.9696")
#loc2998 = loc("reshape.9700")
#loc2999 = loc("not.9702")
#loc3000 = loc("reshape.9704")
#loc3001 = loc("broadcast.9705")
#loc3002 = loc("reduce.9660")
#loc3003 = loc("broadcast.9661")
#loc3004 = loc("subtract.9662")
#loc3005 = loc("exponential.9663")
#loc3006 = loc("reduce.9669")
#loc3007 = loc("broadcast.9670")
#loc3008 = loc("divide.9671")
#loc3009 = loc("select.9706")
#loc3010 = loc("reshape.688")
#loc3011 = loc("reshape.690")
#loc3012 = loc("transpose.691")
#loc3013 = loc("dot.9597")
#loc3014 = loc("reshape.9598")
#loc3015 = loc("reshape.684")
#loc3016 = loc("reshape.686")
#loc3017 = loc("broadcast.9601")
#loc3018 = loc("add.9602")
#loc3019 = loc("reshape.9603")
#loc3020 = loc("transpose.9604")
#loc3021 = loc("convert.9605")
#loc3022 = loc("dot.9707")
#loc3023 = loc("convert.9709")
#loc3024 = loc("transpose.9710")
#loc3025 = loc("reshape.9712")
#loc3026 = loc("reshape.678")
#loc3027 = loc("reshape.680")
#loc3028 = loc("transpose.681")
#loc3029 = loc("dot.9713")
#loc3030 = loc("reshape.9714")
#loc3031 = loc("reshape.674")
#loc3032 = loc("reshape.676")
#loc3033 = loc("broadcast.9717")
#loc3034 = loc("add.9718")
#loc3035 = loc("add.9721")
#loc3036 = loc("reshape.665")
#loc3037 = loc("reshape.667")
#loc3038 = loc("reshape.660")
#loc3039 = loc("reshape.662")
#loc3040 = loc("custom-call.9798")
#loc3041 = loc("reshape.9799")
#loc3042 = loc("reshape.654")
#loc3043 = loc("reshape.656")
#loc3044 = loc("transpose.657")
#loc3045 = loc("dot.9800")
#loc3046 = loc("reshape.9801")
#loc3047 = loc("reshape.650")
#loc3048 = loc("reshape.652")
#loc3049 = loc("broadcast.9804")
#loc3050 = loc("add.9805")
#loc3051 = loc("custom-call.9818")
#loc3052 = loc("reshape.9819")
#loc3053 = loc("reshape.644")
#loc3054 = loc("reshape.646")
#loc3055 = loc("transpose.647")
#loc3056 = loc("dot.9820")
#loc3057 = loc("reshape.9821")
#loc3058 = loc("reshape.640")
#loc3059 = loc("reshape.642")
#loc3060 = loc("broadcast.9824")
#loc3061 = loc("add.9825")
#loc3062 = loc("add.9828")
#loc3063 = loc("reshape.631")
#loc3064 = loc("reshape.633")
#loc3065 = loc("reshape.626")
#loc3066 = loc("reshape.628")
#loc3067 = loc("custom-call.9905")
#loc3068 = loc("reshape.9951")
#loc3069 = loc("reshape.9947")
#loc3070 = loc("reshape.9949")
#loc3071 = loc("transpose.9950")
#loc3072 = loc("dot.9952")
#loc3073 = loc("reshape.9953")
#loc3074 = loc("reshape.9943")
#loc3075 = loc("reshape.9945")
#loc3076 = loc("broadcast.9956")
#loc3077 = loc("add.9957")
#loc3078 = loc("reshape.9958")
#loc3079 = loc("transpose.9959")
#loc3080 = loc("convert.9960")
#loc3081 = loc("multiply.9962")
#loc3082 = loc("reshape.9923")
#loc3083 = loc("reshape.9925")
#loc3084 = loc("transpose.9926")
#loc3085 = loc("dot.9928")
#loc3086 = loc("reshape.9929")
#loc3087 = loc("reshape.9919")
#loc3088 = loc("reshape.9921")
#loc3089 = loc("broadcast.9932")
#loc3090 = loc("add.9933")
#loc3091 = loc("reshape.9934")
#loc3092 = loc("transpose.9935")
#loc3093 = loc("convert.9936")
#loc3094 = loc("transpose.9937")
#loc3095 = loc("multiply.9939")
#loc3096 = loc("dot.9963")
#loc3097 = loc("convert.9990")
#loc3098 = loc("compare.9992")
#loc3099 = loc("not.9994")
#loc3100 = loc("reduce.10006")
#loc3101 = loc("reshape.10010")
#loc3102 = loc("not.10012")
#loc3103 = loc("reshape.10014")
#loc3104 = loc("broadcast.10015")
#loc3105 = loc("reduce.9970")
#loc3106 = loc("broadcast.9971")
#loc3107 = loc("subtract.9972")
#loc3108 = loc("exponential.9973")
#loc3109 = loc("reduce.9979")
#loc3110 = loc("broadcast.9980")
#loc3111 = loc("divide.9981")
#loc3112 = loc("select.10016")
#loc3113 = loc("reshape.620")
#loc3114 = loc("reshape.622")
#loc3115 = loc("transpose.623")
#loc3116 = loc("dot.9907")
#loc3117 = loc("reshape.9908")
#loc3118 = loc("reshape.616")
#loc3119 = loc("reshape.618")
#loc3120 = loc("broadcast.9911")
#loc3121 = loc("add.9912")
#loc3122 = loc("reshape.9913")
#loc3123 = loc("transpose.9914")
#loc3124 = loc("convert.9915")
#loc3125 = loc("dot.10017")
#loc3126 = loc("convert.10019")
#loc3127 = loc("transpose.10020")
#loc3128 = loc("reshape.10022")
#loc3129 = loc("reshape.610")
#loc3130 = loc("reshape.612")
#loc3131 = loc("transpose.613")
#loc3132 = loc("dot.10023")
#loc3133 = loc("reshape.10024")
#loc3134 = loc("reshape.606")
#loc3135 = loc("reshape.608")
#loc3136 = loc("broadcast.10027")
#loc3137 = loc("add.10028")
#loc3138 = loc("add.10031")
#loc3139 = loc("reshape.597")
#loc3140 = loc("reshape.599")
#loc3141 = loc("reshape.592")
#loc3142 = loc("reshape.594")
#loc3143 = loc("custom-call.10108")
#loc3144 = loc("reshape.10109")
#loc3145 = loc("reshape.586")
#loc3146 = loc("reshape.588")
#loc3147 = loc("transpose.589")
#loc3148 = loc("dot.10110")
#loc3149 = loc("reshape.10111")
#loc3150 = loc("reshape.582")
#loc3151 = loc("reshape.584")
#loc3152 = loc("broadcast.10114")
#loc3153 = loc("add.10115")
#loc3154 = loc("custom-call.10128")
#loc3155 = loc("reshape.10129")
#loc3156 = loc("reshape.576")
#loc3157 = loc("reshape.578")
#loc3158 = loc("transpose.579")
#loc3159 = loc("dot.10130")
#loc3160 = loc("reshape.10131")
#loc3161 = loc("reshape.572")
#loc3162 = loc("reshape.574")
#loc3163 = loc("broadcast.10134")
#loc3164 = loc("add.10135")
#loc3165 = loc("add.10138")
#loc3166 = loc("reshape.563")
#loc3167 = loc("reshape.565")
#loc3168 = loc("reshape.558")
#loc3169 = loc("reshape.560")
#loc3170 = loc("custom-call.10215")
#loc3171 = loc("reshape.10261")
#loc3172 = loc("reshape.10257")
#loc3173 = loc("reshape.10259")
#loc3174 = loc("transpose.10260")
#loc3175 = loc("dot.10262")
#loc3176 = loc("reshape.10263")
#loc3177 = loc("reshape.10253")
#loc3178 = loc("reshape.10255")
#loc3179 = loc("broadcast.10266")
#loc3180 = loc("add.10267")
#loc3181 = loc("reshape.10268")
#loc3182 = loc("transpose.10269")
#loc3183 = loc("convert.10270")
#loc3184 = loc("multiply.10272")
#loc3185 = loc("reshape.10233")
#loc3186 = loc("reshape.10235")
#loc3187 = loc("transpose.10236")
#loc3188 = loc("dot.10238")
#loc3189 = loc("reshape.10239")
#loc3190 = loc("reshape.10229")
#loc3191 = loc("reshape.10231")
#loc3192 = loc("broadcast.10242")
#loc3193 = loc("add.10243")
#loc3194 = loc("reshape.10244")
#loc3195 = loc("transpose.10245")
#loc3196 = loc("convert.10246")
#loc3197 = loc("transpose.10247")
#loc3198 = loc("multiply.10249")
#loc3199 = loc("dot.10273")
#loc3200 = loc("convert.10300")
#loc3201 = loc("compare.10302")
#loc3202 = loc("not.10304")
#loc3203 = loc("reduce.10316")
#loc3204 = loc("reshape.10320")
#loc3205 = loc("not.10322")
#loc3206 = loc("reshape.10324")
#loc3207 = loc("broadcast.10325")
#loc3208 = loc("reduce.10280")
#loc3209 = loc("broadcast.10281")
#loc3210 = loc("subtract.10282")
#loc3211 = loc("exponential.10283")
#loc3212 = loc("reduce.10289")
#loc3213 = loc("broadcast.10290")
#loc3214 = loc("divide.10291")
#loc3215 = loc("select.10326")
#loc3216 = loc("reshape.552")
#loc3217 = loc("reshape.554")
#loc3218 = loc("transpose.555")
#loc3219 = loc("dot.10217")
#loc3220 = loc("reshape.10218")
#loc3221 = loc("reshape.548")
#loc3222 = loc("reshape.550")
#loc3223 = loc("broadcast.10221")
#loc3224 = loc("add.10222")
#loc3225 = loc("reshape.10223")
#loc3226 = loc("transpose.10224")
#loc3227 = loc("convert.10225")
#loc3228 = loc("dot.10327")
#loc3229 = loc("convert.10329")
#loc3230 = loc("transpose.10330")
#loc3231 = loc("reshape.10332")
#loc3232 = loc("reshape.542")
#loc3233 = loc("reshape.544")
#loc3234 = loc("transpose.545")
#loc3235 = loc("dot.10333")
#loc3236 = loc("reshape.10334")
#loc3237 = loc("reshape.538")
#loc3238 = loc("reshape.540")
#loc3239 = loc("broadcast.10337")
#loc3240 = loc("add.10338")
#loc3241 = loc("add.10341")
#loc3242 = loc("reshape.529")
#loc3243 = loc("reshape.531")
#loc3244 = loc("reshape.524")
#loc3245 = loc("reshape.526")
#loc3246 = loc("custom-call.10418")
#loc3247 = loc("reshape.10419")
#loc3248 = loc("reshape.518")
#loc3249 = loc("reshape.520")
#loc3250 = loc("transpose.521")
#loc3251 = loc("dot.10420")
#loc3252 = loc("reshape.10421")
#loc3253 = loc("reshape.514")
#loc3254 = loc("reshape.516")
#loc3255 = loc("broadcast.10424")
#loc3256 = loc("add.10425")
#loc3257 = loc("custom-call.10438")
#loc3258 = loc("reshape.10439")
#loc3259 = loc("reshape.508")
#loc3260 = loc("reshape.510")
#loc3261 = loc("transpose.511")
#loc3262 = loc("dot.10440")
#loc3263 = loc("reshape.10441")
#loc3264 = loc("reshape.504")
#loc3265 = loc("reshape.506")
#loc3266 = loc("broadcast.10444")
#loc3267 = loc("add.10445")
#loc3268 = loc("add.10448")
#loc3269 = loc("reshape.495")
#loc3270 = loc("reshape.497")
#loc3271 = loc("reshape.490")
#loc3272 = loc("reshape.492")
#loc3273 = loc("custom-call.10525")
#loc3274 = loc("reshape.10571")
#loc3275 = loc("reshape.10567")
#loc3276 = loc("reshape.10569")
#loc3277 = loc("transpose.10570")
#loc3278 = loc("dot.10572")
#loc3279 = loc("reshape.10573")
#loc3280 = loc("reshape.10563")
#loc3281 = loc("reshape.10565")
#loc3282 = loc("broadcast.10576")
#loc3283 = loc("add.10577")
#loc3284 = loc("reshape.10578")
#loc3285 = loc("transpose.10579")
#loc3286 = loc("convert.10580")
#loc3287 = loc("multiply.10582")
#loc3288 = loc("reshape.10543")
#loc3289 = loc("reshape.10545")
#loc3290 = loc("transpose.10546")
#loc3291 = loc("dot.10548")
#loc3292 = loc("reshape.10549")
#loc3293 = loc("reshape.10539")
#loc3294 = loc("reshape.10541")
#loc3295 = loc("broadcast.10552")
#loc3296 = loc("add.10553")
#loc3297 = loc("reshape.10554")
#loc3298 = loc("transpose.10555")
#loc3299 = loc("convert.10556")
#loc3300 = loc("transpose.10557")
#loc3301 = loc("multiply.10559")
#loc3302 = loc("dot.10583")
#loc3303 = loc("convert.10610")
#loc3304 = loc("compare.10612")
#loc3305 = loc("not.10614")
#loc3306 = loc("reduce.10626")
#loc3307 = loc("reshape.10630")
#loc3308 = loc("not.10632")
#loc3309 = loc("reshape.10634")
#loc3310 = loc("broadcast.10635")
#loc3311 = loc("reduce.10590")
#loc3312 = loc("broadcast.10591")
#loc3313 = loc("subtract.10592")
#loc3314 = loc("exponential.10593")
#loc3315 = loc("reduce.10599")
#loc3316 = loc("broadcast.10600")
#loc3317 = loc("divide.10601")
#loc3318 = loc("select.10636")
#loc3319 = loc("reshape.484")
#loc3320 = loc("reshape.486")
#loc3321 = loc("transpose.487")
#loc3322 = loc("dot.10527")
#loc3323 = loc("reshape.10528")
#loc3324 = loc("reshape.480")
#loc3325 = loc("reshape.482")
#loc3326 = loc("broadcast.10531")
#loc3327 = loc("add.10532")
#loc3328 = loc("reshape.10533")
#loc3329 = loc("transpose.10534")
#loc3330 = loc("convert.10535")
#loc3331 = loc("dot.10637")
#loc3332 = loc("convert.10639")
#loc3333 = loc("transpose.10640")
#loc3334 = loc("reshape.10642")
#loc3335 = loc("reshape.474")
#loc3336 = loc("reshape.476")
#loc3337 = loc("transpose.477")
#loc3338 = loc("dot.10643")
#loc3339 = loc("reshape.10644")
#loc3340 = loc("reshape.470")
#loc3341 = loc("reshape.472")
#loc3342 = loc("broadcast.10647")
#loc3343 = loc("add.10648")
#loc3344 = loc("add.10651")
#loc3345 = loc("reshape.461")
#loc3346 = loc("reshape.463")
#loc3347 = loc("reshape.456")
#loc3348 = loc("reshape.458")
#loc3349 = loc("custom-call.10728")
#loc3350 = loc("reshape.10729")
#loc3351 = loc("reshape.450")
#loc3352 = loc("reshape.452")
#loc3353 = loc("transpose.453")
#loc3354 = loc("dot.10730")
#loc3355 = loc("reshape.10731")
#loc3356 = loc("reshape.446")
#loc3357 = loc("reshape.448")
#loc3358 = loc("broadcast.10734")
#loc3359 = loc("add.10735")
#loc3360 = loc("custom-call.10748")
#loc3361 = loc("reshape.10749")
#loc3362 = loc("reshape.440")
#loc3363 = loc("reshape.442")
#loc3364 = loc("transpose.443")
#loc3365 = loc("dot.10750")
#loc3366 = loc("reshape.10751")
#loc3367 = loc("reshape.436")
#loc3368 = loc("reshape.438")
#loc3369 = loc("broadcast.10754")
#loc3370 = loc("add.10755")
#loc3371 = loc("add.10758")
#loc3372 = loc("reshape.427")
#loc3373 = loc("reshape.429")
#loc3374 = loc("reshape.422")
#loc3375 = loc("reshape.424")
#loc3376 = loc("custom-call.10835")
#loc3377 = loc("reshape.10881")
#loc3378 = loc("reshape.10877")
#loc3379 = loc("reshape.10879")
#loc3380 = loc("transpose.10880")
#loc3381 = loc("dot.10882")
#loc3382 = loc("reshape.10883")
#loc3383 = loc("reshape.10873")
#loc3384 = loc("reshape.10875")
#loc3385 = loc("broadcast.10886")
#loc3386 = loc("add.10887")
#loc3387 = loc("reshape.10888")
#loc3388 = loc("transpose.10889")
#loc3389 = loc("convert.10890")
#loc3390 = loc("multiply.10892")
#loc3391 = loc("reshape.10853")
#loc3392 = loc("reshape.10855")
#loc3393 = loc("transpose.10856")
#loc3394 = loc("dot.10858")
#loc3395 = loc("reshape.10859")
#loc3396 = loc("reshape.10849")
#loc3397 = loc("reshape.10851")
#loc3398 = loc("broadcast.10862")
#loc3399 = loc("add.10863")
#loc3400 = loc("reshape.10864")
#loc3401 = loc("transpose.10865")
#loc3402 = loc("convert.10866")
#loc3403 = loc("transpose.10867")
#loc3404 = loc("multiply.10869")
#loc3405 = loc("dot.10893")
#loc3406 = loc("convert.10920")
#loc3407 = loc("compare.10922")
#loc3408 = loc("not.10924")
#loc3409 = loc("reduce.10936")
#loc3410 = loc("reshape.10940")
#loc3411 = loc("not.10942")
#loc3412 = loc("reshape.10944")
#loc3413 = loc("broadcast.10945")
#loc3414 = loc("reduce.10900")
#loc3415 = loc("broadcast.10901")
#loc3416 = loc("subtract.10902")
#loc3417 = loc("exponential.10903")
#loc3418 = loc("reduce.10909")
#loc3419 = loc("broadcast.10910")
#loc3420 = loc("divide.10911")
#loc3421 = loc("select.10946")
#loc3422 = loc("reshape.416")
#loc3423 = loc("reshape.418")
#loc3424 = loc("transpose.419")
#loc3425 = loc("dot.10837")
#loc3426 = loc("reshape.10838")
#loc3427 = loc("reshape.412")
#loc3428 = loc("reshape.414")
#loc3429 = loc("broadcast.10841")
#loc3430 = loc("add.10842")
#loc3431 = loc("reshape.10843")
#loc3432 = loc("transpose.10844")
#loc3433 = loc("convert.10845")
#loc3434 = loc("dot.10947")
#loc3435 = loc("convert.10949")
#loc3436 = loc("transpose.10950")
#loc3437 = loc("reshape.10952")
#loc3438 = loc("reshape.406")
#loc3439 = loc("reshape.408")
#loc3440 = loc("transpose.409")
#loc3441 = loc("dot.10953")
#loc3442 = loc("reshape.10954")
#loc3443 = loc("reshape.402")
#loc3444 = loc("reshape.404")
#loc3445 = loc("broadcast.10957")
#loc3446 = loc("add.10958")
#loc3447 = loc("add.10961")
#loc3448 = loc("reshape.393")
#loc3449 = loc("reshape.395")
#loc3450 = loc("reshape.388")
#loc3451 = loc("reshape.390")
#loc3452 = loc("custom-call.11038")
#loc3453 = loc("reshape.11039")
#loc3454 = loc("reshape.382")
#loc3455 = loc("reshape.384")
#loc3456 = loc("transpose.385")
#loc3457 = loc("dot.11040")
#loc3458 = loc("reshape.11041")
#loc3459 = loc("reshape.378")
#loc3460 = loc("reshape.380")
#loc3461 = loc("broadcast.11044")
#loc3462 = loc("add.11045")
#loc3463 = loc("custom-call.11058")
#loc3464 = loc("reshape.11059")
#loc3465 = loc("reshape.372")
#loc3466 = loc("reshape.374")
#loc3467 = loc("transpose.375")
#loc3468 = loc("dot.11060")
#loc3469 = loc("reshape.11061")
#loc3470 = loc("reshape.368")
#loc3471 = loc("reshape.370")
#loc3472 = loc("broadcast.11064")
#loc3473 = loc("add.11065")
#loc3474 = loc("add.11068")
#loc3475 = loc("reshape.359")
#loc3476 = loc("reshape.361")
#loc3477 = loc("reshape.354")
#loc3478 = loc("reshape.356")
#loc3479 = loc("custom-call.11145")
#loc3480 = loc("reshape.11191")
#loc3481 = loc("reshape.11187")
#loc3482 = loc("reshape.11189")
#loc3483 = loc("transpose.11190")
#loc3484 = loc("dot.11192")
#loc3485 = loc("reshape.11193")
#loc3486 = loc("reshape.11183")
#loc3487 = loc("reshape.11185")
#loc3488 = loc("broadcast.11196")
#loc3489 = loc("add.11197")
#loc3490 = loc("reshape.11198")
#loc3491 = loc("transpose.11199")
#loc3492 = loc("convert.11200")
#loc3493 = loc("multiply.11202")
#loc3494 = loc("reshape.11163")
#loc3495 = loc("reshape.11165")
#loc3496 = loc("transpose.11166")
#loc3497 = loc("dot.11168")
#loc3498 = loc("reshape.11169")
#loc3499 = loc("reshape.11159")
#loc3500 = loc("reshape.11161")
#loc3501 = loc("broadcast.11172")
#loc3502 = loc("add.11173")
#loc3503 = loc("reshape.11174")
#loc3504 = loc("transpose.11175")
#loc3505 = loc("convert.11176")
#loc3506 = loc("transpose.11177")
#loc3507 = loc("multiply.11179")
#loc3508 = loc("dot.11203")
#loc3509 = loc("convert.11230")
#loc3510 = loc("compare.11232")
#loc3511 = loc("not.11234")
#loc3512 = loc("reduce.11246")
#loc3513 = loc("reshape.11250")
#loc3514 = loc("not.11252")
#loc3515 = loc("reshape.11254")
#loc3516 = loc("broadcast.11255")
#loc3517 = loc("reduce.11210")
#loc3518 = loc("broadcast.11211")
#loc3519 = loc("subtract.11212")
#loc3520 = loc("exponential.11213")
#loc3521 = loc("reduce.11219")
#loc3522 = loc("broadcast.11220")
#loc3523 = loc("divide.11221")
#loc3524 = loc("select.11256")
#loc3525 = loc("reshape.348")
#loc3526 = loc("reshape.350")
#loc3527 = loc("transpose.351")
#loc3528 = loc("dot.11147")
#loc3529 = loc("reshape.11148")
#loc3530 = loc("reshape.344")
#loc3531 = loc("reshape.346")
#loc3532 = loc("broadcast.11151")
#loc3533 = loc("add.11152")
#loc3534 = loc("reshape.11153")
#loc3535 = loc("transpose.11154")
#loc3536 = loc("convert.11155")
#loc3537 = loc("dot.11257")
#loc3538 = loc("convert.11259")
#loc3539 = loc("transpose.11260")
#loc3540 = loc("reshape.11262")
#loc3541 = loc("reshape.338")
#loc3542 = loc("reshape.340")
#loc3543 = loc("transpose.341")
#loc3544 = loc("dot.11263")
#loc3545 = loc("reshape.11264")
#loc3546 = loc("reshape.334")
#loc3547 = loc("reshape.336")
#loc3548 = loc("broadcast.11267")
#loc3549 = loc("add.11268")
#loc3550 = loc("add.11271")
#loc3551 = loc("reshape.325")
#loc3552 = loc("reshape.327")
#loc3553 = loc("reshape.320")
#loc3554 = loc("reshape.322")
#loc3555 = loc("custom-call.11348")
#loc3556 = loc("reshape.11349")
#loc3557 = loc("reshape.314")
#loc3558 = loc("reshape.316")
#loc3559 = loc("transpose.317")
#loc3560 = loc("dot.11350")
#loc3561 = loc("reshape.11351")
#loc3562 = loc("reshape.310")
#loc3563 = loc("reshape.312")
#loc3564 = loc("broadcast.11354")
#loc3565 = loc("add.11355")
#loc3566 = loc("custom-call.11368")
#loc3567 = loc("reshape.11369")
#loc3568 = loc("reshape.304")
#loc3569 = loc("reshape.306")
#loc3570 = loc("transpose.307")
#loc3571 = loc("dot.11370")
#loc3572 = loc("reshape.11371")
#loc3573 = loc("reshape.300")
#loc3574 = loc("reshape.302")
#loc3575 = loc("broadcast.11374")
#loc3576 = loc("add.11375")
#loc3577 = loc("add.11378")
#loc3578 = loc("reshape.291")
#loc3579 = loc("reshape.293")
#loc3580 = loc("reshape.286")
#loc3581 = loc("reshape.288")
#loc3582 = loc("custom-call.11455")
#loc3583 = loc("reshape.11501")
#loc3584 = loc("reshape.11497")
#loc3585 = loc("reshape.11499")
#loc3586 = loc("transpose.11500")
#loc3587 = loc("dot.11502")
#loc3588 = loc("reshape.11503")
#loc3589 = loc("reshape.11493")
#loc3590 = loc("reshape.11495")
#loc3591 = loc("broadcast.11506")
#loc3592 = loc("add.11507")
#loc3593 = loc("reshape.11508")
#loc3594 = loc("transpose.11509")
#loc3595 = loc("convert.11510")
#loc3596 = loc("multiply.11512")
#loc3597 = loc("reshape.11473")
#loc3598 = loc("reshape.11475")
#loc3599 = loc("transpose.11476")
#loc3600 = loc("dot.11478")
#loc3601 = loc("reshape.11479")
#loc3602 = loc("reshape.11469")
#loc3603 = loc("reshape.11471")
#loc3604 = loc("broadcast.11482")
#loc3605 = loc("add.11483")
#loc3606 = loc("reshape.11484")
#loc3607 = loc("transpose.11485")
#loc3608 = loc("convert.11486")
#loc3609 = loc("transpose.11487")
#loc3610 = loc("multiply.11489")
#loc3611 = loc("dot.11513")
#loc3612 = loc("convert.11540")
#loc3613 = loc("compare.11542")
#loc3614 = loc("not.11544")
#loc3615 = loc("reduce.11556")
#loc3616 = loc("reshape.11560")
#loc3617 = loc("not.11562")
#loc3618 = loc("reshape.11564")
#loc3619 = loc("broadcast.11565")
#loc3620 = loc("reduce.11520")
#loc3621 = loc("broadcast.11521")
#loc3622 = loc("subtract.11522")
#loc3623 = loc("exponential.11523")
#loc3624 = loc("reduce.11529")
#loc3625 = loc("broadcast.11530")
#loc3626 = loc("divide.11531")
#loc3627 = loc("select.11566")
#loc3628 = loc("reshape.280")
#loc3629 = loc("reshape.282")
#loc3630 = loc("transpose.283")
#loc3631 = loc("dot.11457")
#loc3632 = loc("reshape.11458")
#loc3633 = loc("reshape.276")
#loc3634 = loc("reshape.278")
#loc3635 = loc("broadcast.11461")
#loc3636 = loc("add.11462")
#loc3637 = loc("reshape.11463")
#loc3638 = loc("transpose.11464")
#loc3639 = loc("convert.11465")
#loc3640 = loc("dot.11567")
#loc3641 = loc("convert.11569")
#loc3642 = loc("transpose.11570")
#loc3643 = loc("reshape.11572")
#loc3644 = loc("reshape.270")
#loc3645 = loc("reshape.272")
#loc3646 = loc("transpose.273")
#loc3647 = loc("dot.11573")
#loc3648 = loc("reshape.11574")
#loc3649 = loc("reshape.266")
#loc3650 = loc("reshape.268")
#loc3651 = loc("broadcast.11577")
#loc3652 = loc("add.11578")
#loc3653 = loc("add.11581")
#loc3654 = loc("reshape.257")
#loc3655 = loc("reshape.259")
#loc3656 = loc("reshape.252")
#loc3657 = loc("reshape.254")
#loc3658 = loc("custom-call.11658")
#loc3659 = loc("reshape.11659")
#loc3660 = loc("reshape.246")
#loc3661 = loc("reshape.248")
#loc3662 = loc("transpose.249")
#loc3663 = loc("dot.11660")
#loc3664 = loc("reshape.11661")
#loc3665 = loc("reshape.242")
#loc3666 = loc("reshape.244")
#loc3667 = loc("broadcast.11664")
#loc3668 = loc("add.11665")
#loc3669 = loc("custom-call.11678")
#loc3670 = loc("reshape.11679")
#loc3671 = loc("reshape.236")
#loc3672 = loc("reshape.238")
#loc3673 = loc("transpose.239")
#loc3674 = loc("dot.11680")
#loc3675 = loc("reshape.11681")
#loc3676 = loc("reshape.232")
#loc3677 = loc("reshape.234")
#loc3678 = loc("broadcast.11684")
#loc3679 = loc("add.11685")
#loc3680 = loc("add.11688")
#loc3681 = loc("reshape.223")
#loc3682 = loc("reshape.225")
#loc3683 = loc("reshape.218")
#loc3684 = loc("reshape.220")
#loc3685 = loc("custom-call.11765")
#loc3686 = loc("reshape.11811")
#loc3687 = loc("reshape.11807")
#loc3688 = loc("reshape.11809")
#loc3689 = loc("transpose.11810")
#loc3690 = loc("dot.11812")
#loc3691 = loc("reshape.11813")
#loc3692 = loc("reshape.11803")
#loc3693 = loc("reshape.11805")
#loc3694 = loc("broadcast.11816")
#loc3695 = loc("add.11817")
#loc3696 = loc("reshape.11818")
#loc3697 = loc("transpose.11819")
#loc3698 = loc("convert.11820")
#loc3699 = loc("multiply.11822")
#loc3700 = loc("reshape.11783")
#loc3701 = loc("reshape.11785")
#loc3702 = loc("transpose.11786")
#loc3703 = loc("dot.11788")
#loc3704 = loc("reshape.11789")
#loc3705 = loc("reshape.11779")
#loc3706 = loc("reshape.11781")
#loc3707 = loc("broadcast.11792")
#loc3708 = loc("add.11793")
#loc3709 = loc("reshape.11794")
#loc3710 = loc("transpose.11795")
#loc3711 = loc("convert.11796")
#loc3712 = loc("transpose.11797")
#loc3713 = loc("multiply.11799")
#loc3714 = loc("dot.11823")
#loc3715 = loc("convert.11850")
#loc3716 = loc("compare.11852")
#loc3717 = loc("not.11854")
#loc3718 = loc("reduce.11866")
#loc3719 = loc("reshape.11870")
#loc3720 = loc("not.11872")
#loc3721 = loc("reshape.11874")
#loc3722 = loc("broadcast.11875")
#loc3723 = loc("reduce.11830")
#loc3724 = loc("broadcast.11831")
#loc3725 = loc("subtract.11832")
#loc3726 = loc("exponential.11833")
#loc3727 = loc("reduce.11839")
#loc3728 = loc("broadcast.11840")
#loc3729 = loc("divide.11841")
#loc3730 = loc("select.11876")
#loc3731 = loc("reshape.212")
#loc3732 = loc("reshape.214")
#loc3733 = loc("transpose.215")
#loc3734 = loc("dot.11767")
#loc3735 = loc("reshape.11768")
#loc3736 = loc("reshape.208")
#loc3737 = loc("reshape.210")
#loc3738 = loc("broadcast.11771")
#loc3739 = loc("add.11772")
#loc3740 = loc("reshape.11773")
#loc3741 = loc("transpose.11774")
#loc3742 = loc("convert.11775")
#loc3743 = loc("dot.11877")
#loc3744 = loc("convert.11879")
#loc3745 = loc("transpose.11880")
#loc3746 = loc("reshape.11882")
#loc3747 = loc("reshape.202")
#loc3748 = loc("reshape.204")
#loc3749 = loc("transpose.205")
#loc3750 = loc("dot.11883")
#loc3751 = loc("reshape.11884")
#loc3752 = loc("reshape.198")
#loc3753 = loc("reshape.200")
#loc3754 = loc("broadcast.11887")
#loc3755 = loc("add.11888")
#loc3756 = loc("add.11891")
#loc3757 = loc("reshape.189")
#loc3758 = loc("reshape.191")
#loc3759 = loc("reshape.184")
#loc3760 = loc("reshape.186")
#loc3761 = loc("custom-call.11968")
#loc3762 = loc("reshape.11969")
#loc3763 = loc("reshape.178")
#loc3764 = loc("reshape.180")
#loc3765 = loc("transpose.181")
#loc3766 = loc("dot.11970")
#loc3767 = loc("reshape.11971")
#loc3768 = loc("reshape.174")
#loc3769 = loc("reshape.176")
#loc3770 = loc("broadcast.11974")
#loc3771 = loc("add.11975")
#loc3772 = loc("custom-call.11988")
#loc3773 = loc("reshape.11989")
#loc3774 = loc("reshape.168")
#loc3775 = loc("reshape.170")
#loc3776 = loc("transpose.171")
#loc3777 = loc("dot.11990")
#loc3778 = loc("reshape.11991")
#loc3779 = loc("reshape.164")
#loc3780 = loc("reshape.166")
#loc3781 = loc("broadcast.11994")
#loc3782 = loc("add.11995")
#loc3783 = loc("add.11998")
#loc3784 = loc("reshape.11999")
#loc3785 = loc("reshape.157")
#loc3786 = loc("reshape.159")
#loc3787 = loc("transpose.160")
#loc3788 = loc("dot.12000")
#loc3789 = loc("reshape.12001")
#loc3790 = loc("reshape.153")
#loc3791 = loc("reshape.155")
#loc3792 = loc("broadcast.12004")
#loc3793 = loc("add.12005")
#loc3794 = loc("reshape.145")
#loc3795 = loc("reshape.147")
#loc3796 = loc("reshape.140")
#loc3797 = loc("reshape.142")
#loc3798 = loc("custom-call.12082")
#loc3799 = loc("concatenate.12083")
#loc3800 = loc("reshape.12096")
#loc3801 = loc("reshape.12092")
#loc3802 = loc("reshape.12094")
#loc3803 = loc("transpose.12095")
#loc3804 = loc("dot.12097")
#loc3805 = loc("reshape.12099")
#loc3806 = loc("transpose.12100")
#loc3807 = loc("convert.12101")
#loc3808 = loc("transpose.12102")
#loc3809 = loc("multiply.12104")
#loc3810 = loc("dot.12119")
#loc3811 = loc("convert.12146")
#loc3812 = loc("compare.12148")
#loc3813 = loc("not.12150")
#loc3814 = loc("reduce.12162")
#loc3815 = loc("reshape.12166")
#loc3816 = loc("not.12168")
#loc3817 = loc("reshape.12170")
#loc3818 = loc("broadcast.12171")
#loc3819 = loc("reduce.12126")
#loc3820 = loc("broadcast.12127")
#loc3821 = loc("subtract.12128")
#loc3822 = loc("exponential.12129")
#loc3823 = loc("reduce.12135")
#loc3824 = loc("broadcast.12136")
#loc3825 = loc("divide.12137")
#loc3826 = loc("select.12172")
#loc3827 = loc("reshape.44")
#loc3828 = loc("reshape.46")
#loc3829 = loc("transpose.47")
#loc3830 = loc("dot.12085")
#loc3831 = loc("reshape.12087")
#loc3832 = loc("transpose.12088")
#loc3833 = loc("convert.12089")
#loc3834 = loc("dot.12173")
#loc3835 = loc("convert.12175")
#loc3836 = loc("transpose.12176")
#loc3837 = loc("reshape.12178")
#loc3838 = loc("reshape.39")
#loc3839 = loc("reshape.41")
#loc3840 = loc("transpose.42")
#loc3841 = loc("dot.12179")
#loc3842 = loc("reshape.12180")
#loc3843 = loc("divide.12182")
#loc3844 = loc("add.12185")
#loc3845 = loc("reshape.12203")
#loc3846 = loc("reshape.12205")
#loc3847 = loc("reshape.12198")
#loc3848 = loc("reshape.12200")
#loc3849 = loc("custom-call.12285")
#loc3850 = loc("reshape.12286")
#loc3851 = loc("reshape.12192")
#loc3852 = loc("reshape.12194")
#loc3853 = loc("transpose.12195")
#loc3854 = loc("dot.12287")
#loc3855 = loc("reshape.12288")
#loc3856 = loc("custom-call.12301")
#loc3857 = loc("reshape.12302")
#loc3858 = loc("reshape.12187")
#loc3859 = loc("reshape.12189")
#loc3860 = loc("transpose.12190")
#loc3861 = loc("dot.12303")
#loc3862 = loc("reshape.12304")
#loc3863 = loc("add.12307")
#loc3864 = loc("reshape.12326")
#loc3865 = loc("reshape.12328")
#loc3866 = loc("reshape.12321")
#loc3867 = loc("reshape.12323")
#loc3868 = loc("custom-call.12408")
#loc3869 = loc("reshape.12527")
#loc3870 = loc("reshape.12523")
#loc3871 = loc("reshape.12525")
#loc3872 = loc("transpose.12526")
#loc3873 = loc("dot.12528")
#loc3874 = loc("reshape.12530")
#loc3875 = loc("transpose.12531")
#loc3876 = loc("convert.12532")
#loc3877 = loc("multiply.12534")
#loc3878 = loc("reshape.12416")
#loc3879 = loc("reshape.12418")
#loc3880 = loc("reshape.12411")
#loc3881 = loc("reshape.12413")
#loc3882 = loc("custom-call.12498")
#loc3883 = loc("concatenate.12499")
#loc3884 = loc("reshape.12512")
#loc3885 = loc("reshape.12508")
#loc3886 = loc("reshape.12510")
#loc3887 = loc("transpose.12511")
#loc3888 = loc("dot.12513")
#loc3889 = loc("reshape.12515")
#loc3890 = loc("transpose.12516")
#loc3891 = loc("convert.12517")
#loc3892 = loc("transpose.12518")
#loc3893 = loc("multiply.12520")
#loc3894 = loc("dot.12535")
#loc3895 = loc("convert.12562")
#loc3896 = loc("compare.12564")
#loc3897 = loc("not.12566")
#loc3898 = loc("reduce.12578")
#loc3899 = loc("reshape.12582")
#loc3900 = loc("not.12584")
#loc3901 = loc("reshape.12586")
#loc3902 = loc("broadcast.12587")
#loc3903 = loc("reduce.12542")
#loc3904 = loc("broadcast.12543")
#loc3905 = loc("subtract.12544")
#loc3906 = loc("exponential.12545")
#loc3907 = loc("reduce.12551")
#loc3908 = loc("broadcast.12552")
#loc3909 = loc("divide.12553")
#loc3910 = loc("select.12588")
#loc3911 = loc("reshape.12315")
#loc3912 = loc("reshape.12317")
#loc3913 = loc("transpose.12318")
#loc3914 = loc("dot.12501")
#loc3915 = loc("reshape.12503")
#loc3916 = loc("transpose.12504")
#loc3917 = loc("convert.12505")
#loc3918 = loc("dot.12589")
#loc3919 = loc("convert.12591")
#loc3920 = loc("transpose.12592")
#loc3921 = loc("reshape.12594")
#loc3922 = loc("reshape.12310")
#loc3923 = loc("reshape.12312")
#loc3924 = loc("transpose.12313")
#loc3925 = loc("dot.12595")
#loc3926 = loc("reshape.12596")
#loc3927 = loc("divide.12598")
#loc3928 = loc("add.12601")
#loc3929 = loc("reshape.12619")
#loc3930 = loc("reshape.12621")
#loc3931 = loc("reshape.12614")
#loc3932 = loc("reshape.12616")
#loc3933 = loc("custom-call.12701")
#loc3934 = loc("reshape.12702")
#loc3935 = loc("reshape.12608")
#loc3936 = loc("reshape.12610")
#loc3937 = loc("transpose.12611")
#loc3938 = loc("dot.12703")
#loc3939 = loc("reshape.12704")
#loc3940 = loc("custom-call.12717")
#loc3941 = loc("reshape.12718")
#loc3942 = loc("reshape.12603")
#loc3943 = loc("reshape.12605")
#loc3944 = loc("transpose.12606")
#loc3945 = loc("dot.12719")
#loc3946 = loc("reshape.12720")
#loc3947 = loc("add.12723")
#loc3948 = loc("reshape.12742")
#loc3949 = loc("reshape.12744")
#loc3950 = loc("reshape.12737")
#loc3951 = loc("reshape.12739")
#loc3952 = loc("custom-call.12824")
#loc3953 = loc("reshape.12943")
#loc3954 = loc("reshape.12939")
#loc3955 = loc("reshape.12941")
#loc3956 = loc("transpose.12942")
#loc3957 = loc("dot.12944")
#loc3958 = loc("reshape.12946")
#loc3959 = loc("transpose.12947")
#loc3960 = loc("convert.12948")
#loc3961 = loc("multiply.12950")
#loc3962 = loc("reshape.12832")
#loc3963 = loc("reshape.12834")
#loc3964 = loc("reshape.12827")
#loc3965 = loc("reshape.12829")
#loc3966 = loc("custom-call.12914")
#loc3967 = loc("concatenate.12915")
#loc3968 = loc("reshape.12928")
#loc3969 = loc("reshape.12924")
#loc3970 = loc("reshape.12926")
#loc3971 = loc("transpose.12927")
#loc3972 = loc("dot.12929")
#loc3973 = loc("reshape.12931")
#loc3974 = loc("transpose.12932")
#loc3975 = loc("convert.12933")
#loc3976 = loc("transpose.12934")
#loc3977 = loc("multiply.12936")
#loc3978 = loc("dot.12951")
#loc3979 = loc("convert.12978")
#loc3980 = loc("compare.12980")
#loc3981 = loc("not.12982")
#loc3982 = loc("reduce.12994")
#loc3983 = loc("reshape.12998")
#loc3984 = loc("not.13000")
#loc3985 = loc("reshape.13002")
#loc3986 = loc("broadcast.13003")
#loc3987 = loc("reduce.12958")
#loc3988 = loc("broadcast.12959")
#loc3989 = loc("subtract.12960")
#loc3990 = loc("exponential.12961")
#loc3991 = loc("reduce.12967")
#loc3992 = loc("broadcast.12968")
#loc3993 = loc("divide.12969")
#loc3994 = loc("select.13004")
#loc3995 = loc("reshape.12731")
#loc3996 = loc("reshape.12733")
#loc3997 = loc("transpose.12734")
#loc3998 = loc("dot.12917")
#loc3999 = loc("reshape.12919")
#loc4000 = loc("transpose.12920")
#loc4001 = loc("convert.12921")
#loc4002 = loc("dot.13005")
#loc4003 = loc("convert.13007")
#loc4004 = loc("transpose.13008")
#loc4005 = loc("reshape.13010")
#loc4006 = loc("reshape.12726")
#loc4007 = loc("reshape.12728")
#loc4008 = loc("transpose.12729")
#loc4009 = loc("dot.13011")
#loc4010 = loc("reshape.13012")
#loc4011 = loc("divide.13014")
#loc4012 = loc("add.13017")
#loc4013 = loc("reshape.13035")
#loc4014 = loc("reshape.13037")
#loc4015 = loc("reshape.13030")
#loc4016 = loc("reshape.13032")
#loc4017 = loc("custom-call.13117")
#loc4018 = loc("reshape.13118")
#loc4019 = loc("reshape.13024")
#loc4020 = loc("reshape.13026")
#loc4021 = loc("transpose.13027")
#loc4022 = loc("dot.13119")
#loc4023 = loc("reshape.13120")
#loc4024 = loc("custom-call.13133")
#loc4025 = loc("reshape.13134")
#loc4026 = loc("reshape.13019")
#loc4027 = loc("reshape.13021")
#loc4028 = loc("transpose.13022")
#loc4029 = loc("dot.13135")
#loc4030 = loc("reshape.13136")
#loc4031 = loc("add.13139")
#loc4032 = loc("reshape.13158")
#loc4033 = loc("reshape.13160")
#loc4034 = loc("reshape.13153")
#loc4035 = loc("reshape.13155")
#loc4036 = loc("custom-call.13240")
#loc4037 = loc("reshape.13359")
#loc4038 = loc("reshape.13355")
#loc4039 = loc("reshape.13357")
#loc4040 = loc("transpose.13358")
#loc4041 = loc("dot.13360")
#loc4042 = loc("reshape.13362")
#loc4043 = loc("transpose.13363")
#loc4044 = loc("convert.13364")
#loc4045 = loc("multiply.13366")
#loc4046 = loc("reshape.13248")
#loc4047 = loc("reshape.13250")
#loc4048 = loc("reshape.13243")
#loc4049 = loc("reshape.13245")
#loc4050 = loc("custom-call.13330")
#loc4051 = loc("concatenate.13331")
#loc4052 = loc("reshape.13344")
#loc4053 = loc("reshape.13340")
#loc4054 = loc("reshape.13342")
#loc4055 = loc("transpose.13343")
#loc4056 = loc("dot.13345")
#loc4057 = loc("reshape.13347")
#loc4058 = loc("transpose.13348")
#loc4059 = loc("convert.13349")
#loc4060 = loc("transpose.13350")
#loc4061 = loc("multiply.13352")
#loc4062 = loc("dot.13367")
#loc4063 = loc("convert.13394")
#loc4064 = loc("compare.13396")
#loc4065 = loc("not.13398")
#loc4066 = loc("reduce.13410")
#loc4067 = loc("reshape.13414")
#loc4068 = loc("not.13416")
#loc4069 = loc("reshape.13418")
#loc4070 = loc("broadcast.13419")
#loc4071 = loc("reduce.13374")
#loc4072 = loc("broadcast.13375")
#loc4073 = loc("subtract.13376")
#loc4074 = loc("exponential.13377")
#loc4075 = loc("reduce.13383")
#loc4076 = loc("broadcast.13384")
#loc4077 = loc("divide.13385")
#loc4078 = loc("select.13420")
#loc4079 = loc("reshape.13147")
#loc4080 = loc("reshape.13149")
#loc4081 = loc("transpose.13150")
#loc4082 = loc("dot.13333")
#loc4083 = loc("reshape.13335")
#loc4084 = loc("transpose.13336")
#loc4085 = loc("convert.13337")
#loc4086 = loc("dot.13421")
#loc4087 = loc("convert.13423")
#loc4088 = loc("transpose.13424")
#loc4089 = loc("reshape.13426")
#loc4090 = loc("reshape.13142")
#loc4091 = loc("reshape.13144")
#loc4092 = loc("transpose.13145")
#loc4093 = loc("dot.13427")
#loc4094 = loc("reshape.13428")
#loc4095 = loc("divide.13430")
#loc4096 = loc("add.13433")
#loc4097 = loc("reshape.13451")
#loc4098 = loc("reshape.13453")
#loc4099 = loc("reshape.13446")
#loc4100 = loc("reshape.13448")
#loc4101 = loc("custom-call.13533")
#loc4102 = loc("reshape.13534")
#loc4103 = loc("reshape.13440")
#loc4104 = loc("reshape.13442")
#loc4105 = loc("transpose.13443")
#loc4106 = loc("dot.13535")
#loc4107 = loc("reshape.13536")
#loc4108 = loc("custom-call.13549")
#loc4109 = loc("reshape.13550")
#loc4110 = loc("reshape.13435")
#loc4111 = loc("reshape.13437")
#loc4112 = loc("transpose.13438")
#loc4113 = loc("dot.13551")
#loc4114 = loc("reshape.13552")
#loc4115 = loc("add.13555")
#loc4116 = loc("reshape.13556")
#loc4117 = loc("reshape.20")
#loc4118 = loc("reshape.22")
#loc4119 = loc("transpose.23")
#loc4120 = loc("dot.13557")
#loc4121 = loc("reshape.13558")
#loc4122 = loc("reshape.16")
#loc4123 = loc("reshape.18")
#loc4124 = loc("broadcast.13561")
#loc4125 = loc("add.13562")
#loc4126 = loc("reshape.8")
#loc4127 = loc("reshape.10")
#loc4128 = loc("reshape.3")
#loc4129 = loc("reshape.5")
#loc4130 = loc("custom-call.13639")
