#loc1 = loc("p0.1")
#loc2 = loc("p1.11")
#loc3 = loc("p2.16")
#loc4 = loc("p3.21")
#loc5 = loc("p4.31")
#loc6 = loc("p5.36")
#loc7 = loc("p6.41")
#loc8 = loc("p7.51")
#loc9 = loc("p8.56")
#loc10 = loc("p9.61")
#loc11 = loc("p10.71")
#loc12 = loc("p11.76")
#loc13 = loc("p12.81")
#loc14 = loc("p13.91")
#loc15 = loc("p14.96")
#loc16 = loc("p15.101")
#loc17 = loc("p16.111")
#loc18 = loc("p17.116")
#loc19 = loc("p18.121")
#loc20 = loc("p19.131")
#loc21 = loc("p20.136")
#loc22 = loc("p21.141")
#loc23 = loc("p22.151")
#loc24 = loc("p23.156")
#loc25 = loc("p24.161")
#loc26 = loc("p25.171")
#loc27 = loc("p26.176")
#loc28 = loc("p27.181")
#loc29 = loc("p28.191")
#loc30 = loc("p29.196")
#loc31 = loc("p30.201")
#loc32 = loc("p31.211")
#loc33 = loc("p32.216")
#loc34 = loc("p33.221")
#loc35 = loc("p34.231")
#loc36 = loc("p35.236")
#loc37 = loc("p36.241")
#loc38 = loc("p37.251")
#loc39 = loc("p38.256")
#loc40 = loc("p39.261")
#loc41 = loc("p40.271")
#loc42 = loc("p41.276")
#loc43 = loc("p42.281")
#loc44 = loc("p43.291")
#loc45 = loc("p44.296")
#loc46 = loc("p45.301")
#loc47 = loc("p46.311")
#loc48 = loc("p47.316")
#loc49 = loc("p48.321")
#loc50 = loc("p49.331")
#loc51 = loc("p50.336")
#loc52 = loc("p51.341")
#loc53 = loc("p52.351")
#loc54 = loc("p53.356")
#loc55 = loc("p54.361")
#loc56 = loc("p55.371")
#loc57 = loc("p56.376")
#loc58 = loc("p57.381")
#loc59 = loc("p58.391")
#loc60 = loc("p59.396")
#loc61 = loc("p60.401")
#loc62 = loc("p61.411")
#loc63 = loc("p62.416")
#loc64 = loc("p63.421")
#loc65 = loc("p64.431")
#loc66 = loc("p65.436")
#loc67 = loc("p66.441")
#loc68 = loc("p67.451")
#loc69 = loc("p68.456")
#loc70 = loc("p69.461")
#loc71 = loc("p70.471")
#loc72 = loc("p71.476")
#loc73 = loc("p72.481")
#loc74 = loc("p73.491")
#loc75 = loc("p74.496")
#loc76 = loc("p75.501")
#loc77 = loc("p76.511")
#loc78 = loc("p77.516")
#loc79 = loc("p78.521")
#loc80 = loc("p79.531")
#loc81 = loc("p80.536")
#loc82 = loc("p81.541")
#loc83 = loc("p82.551")
#loc84 = loc("p83.556")
#loc85 = loc("p84.561")
#loc86 = loc("p85.571")
#loc87 = loc("p86.576")
#loc88 = loc("p87.581")
#loc89 = loc("p88.591")
#loc90 = loc("p89.596")
#loc91 = loc("p90.601")
#loc92 = loc("p91.611")
#loc93 = loc("p92.616")
#loc94 = loc("p93.621")
#loc95 = loc("p94.631")
#loc96 = loc("p95.636")
#loc97 = loc("p96.641")
#loc98 = loc("p97.651")
#loc99 = loc("p98.656")
#loc100 = loc("p99.661")
#loc101 = loc("p100.671")
#loc102 = loc("p101.676")
#loc103 = loc("p102.681")
#loc104 = loc("p103.691")
#loc105 = loc("p104.696")
#loc106 = loc("p105.701")
#loc107 = loc("p106.711")
#loc108 = loc("p107.716")
#loc109 = loc("p108.721")
#loc110 = loc("p109.731")
#loc111 = loc("p110.736")
#loc112 = loc("p111.741")
#loc113 = loc("p112.751")
#loc114 = loc("p113.756")
#loc115 = loc("p114.761")
#loc116 = loc("p115.771")
#loc117 = loc("p116.776")
#loc118 = loc("p117.781")
#loc119 = loc("p118.791")
#loc120 = loc("p119.796")
#loc121 = loc("p120.801")
#loc122 = loc("p121.811")
#loc123 = loc("p122.816")
#loc124 = loc("p123.821")
#loc125 = loc("p124.831")
#loc126 = loc("p125.836")
#loc127 = loc("p126.841")
#loc128 = loc("p127.851")
#loc129 = loc("p128.856")
#loc130 = loc("p129.861")
#loc131 = loc("p130.871")
#loc132 = loc("p131.876")
#loc133 = loc("p132.881")
#loc134 = loc("p133.891")
#loc135 = loc("p134.896")
#loc136 = loc("p135.901")
#loc137 = loc("p136.911")
#loc138 = loc("p137.916")
#loc139 = loc("p138.921")
#loc140 = loc("p139.931")
#loc141 = loc("p140.936")
#loc142 = loc("p141.941")
#loc143 = loc("p142.951")
#loc144 = loc("p143.956")
#loc145 = loc("p144.961")
#loc146 = loc("p145.971")
#loc147 = loc("p146.976")
#loc148 = loc("p147.981")
#loc149 = loc("p148.991")
#loc150 = loc("p149.996")
#loc151 = loc("p150.1001")
#loc152 = loc("p151.1011")
#loc153 = loc("p152.1016")
#loc154 = loc("p153.1021")
#loc155 = loc("p154.1031")
#loc156 = loc("p155.1036")
#loc157 = loc("p156.1041")
#loc158 = loc("p157.1051")
#loc159 = loc("p158.1056")
#loc160 = loc("p159.1061")
#loc161 = loc("p160.1071")
#loc162 = loc("p161.1076")
#loc163 = loc("p162.1081")
#loc164 = loc("p163.1091")
#loc165 = loc("p164.1096")
#loc166 = loc("p165.1101")
#loc167 = loc("p166.1111")
#loc168 = loc("p167.1116")
#loc169 = loc("p168.1121")
#loc170 = loc("p169.1131")
#loc171 = loc("p170.1136")
#loc172 = loc("p171.1141")
#loc173 = loc("p172.1151")
#loc174 = loc("p173.1156")
#loc175 = loc("p174.1161")
#loc176 = loc("p175.1171")
#loc177 = loc("p176.1176")
#loc178 = loc("p177.1181")
#loc179 = loc("p178.1191")
#loc180 = loc("p179.1196")
#loc181 = loc("p180.1201")
#loc182 = loc("p181.1211")
#loc183 = loc("p182.1216")
#loc184 = loc("p183.1221")
#loc185 = loc("p184.1231")
#loc186 = loc("p185.1236")
#loc187 = loc("p186.1241")
#loc188 = loc("p187.1251")
#loc189 = loc("p188.1256")
#loc190 = loc("p189.1261")
#loc191 = loc("p190.1271")
#loc192 = loc("p191.1276")
#loc193 = loc("p192.1281")
#loc194 = loc("p193.1291")
#loc195 = loc("p194.1296")
#loc196 = loc("p195.1301")
#loc197 = loc("p196.1311")
#loc198 = loc("p197.1316")
#loc199 = loc("p198.1321")
#loc200 = loc("p199.1331")
#loc201 = loc("p200.1336")
#loc202 = loc("p201.1341")
#loc203 = loc("p202.1351")
#loc204 = loc("p203.1356")
#loc205 = loc("p204.1361")
#loc206 = loc("p205.1371")
#loc207 = loc("p206.1376")
#loc208 = loc("p207.1381")
#loc209 = loc("p208.1391")
#loc210 = loc("p209.1396")
#loc211 = loc("p210.1401")
#loc212 = loc("p211.1411")
#loc213 = loc("p212.1416")
#loc214 = loc("p213.1421")
#loc215 = loc("p214.1431")
#loc216 = loc("p215.1436")
#loc217 = loc("p216.1441")
#loc218 = loc("p217.1450")
#loc219 = loc("p218.1455")
#loc220 = loc("p219.1625")
#loc221 = loc("p220.1644")
#loc222 = loc("p221.1660")
#loc223 = loc("p222.1669")
#loc224 = loc("p223.1742")
#loc225 = loc("p224.1751")
#loc226 = loc("p225.1917")
#loc227 = loc("p226.1998")
#loc228 = loc("p227.2007")
#loc229 = loc("p228.2075")
#loc230 = loc("p229.2084")
#loc231 = loc("p230.2250")
#loc232 = loc("p231.2331")
#loc233 = loc("p232.2340")
#loc234 = loc("p233.2408")
#loc235 = loc("p234.2417")
#loc236 = loc("p235.2583")
#loc237 = loc("p236.2664")
#loc238 = loc("p237.2673")
#loc239 = loc("p238.2741")
#loc240 = loc("p239.2750")
#loc241 = loc("p240.2916")
#loc242 = loc("p241.2997")
#loc243 = loc("p242.3006")
#loc244 = loc("p243.3074")
#loc245 = loc("p244.3083")
#loc246 = loc("p245.3249")
#loc247 = loc("p246.3330")
#loc248 = loc("p247.3339")
#loc249 = loc("p248.3407")
#loc250 = loc("p249.3416")
#loc251 = loc("p250.3582")
#loc252 = loc("p251.3663")
#loc253 = loc("p252.3672")
#loc254 = loc("p253.3740")
#loc255 = loc("p254.3749")
#loc256 = loc("p255.3915")
#loc257 = loc("p256.3996")
#loc258 = loc("p257.4005")
#loc259 = loc("p258.4073")
#loc260 = loc("p259.4082")
#loc261 = loc("p260.4248")
#loc262 = loc("p261.4329")
#loc263 = loc("p262.4338")
#loc264 = loc("p263.4406")
#loc265 = loc("p264.4415")
#loc266 = loc("p265.4581")
#loc267 = loc("p266.4662")
#loc268 = loc("p267.4671")
#loc269 = loc("p268.4739")
#loc270 = loc("p269.4748")
#loc271 = loc("p270.4914")
#loc272 = loc("p271.4995")
#loc273 = loc("p272.5004")
#loc274 = loc("p273.5072")
#loc275 = loc("p274.5081")
#loc276 = loc("p275.5247")
#loc277 = loc("p276.5328")
#loc278 = loc("p277.5337")
#loc279 = loc("p278.5405")
#loc280 = loc("p279.5414")
#loc281 = loc("p280.5580")
#loc282 = loc("p281.5661")
#loc283 = loc("p282.5670")
#loc284 = loc("p283.5738")
#loc285 = loc("p284.5747")
#loc286 = loc("p285.5913")
#loc287 = loc("p286.5994")
#loc288 = loc("p287.6003")
#loc289 = loc("p288.6071")
#loc290 = loc("p289.6080")
#loc291 = loc("p290.6246")
#loc292 = loc("p291.6327")
#loc293 = loc("p292.6336")
#loc294 = loc("p293.6404")
#loc295 = loc("p294.6413")
#loc296 = loc("p295.6579")
#loc297 = loc("p296.6660")
#loc298 = loc("p297.6669")
#loc299 = loc("p298.6737")
#loc300 = loc("p299.6746")
#loc301 = loc("p300.6912")
#loc302 = loc("p301.6993")
#loc303 = loc("p302.7002")
#loc304 = loc("p303.7070")
#loc305 = loc("p304.7079")
#loc306 = loc("p305.7245")
#loc307 = loc("p306.7326")
#loc308 = loc("p307.7335")
#loc309 = loc("p308.7403")
#loc310 = loc("p309.7412")
#loc311 = loc("p310.7578")
#loc312 = loc("p311.7659")
#loc313 = loc("p312.7668")
#loc314 = loc("p313.7736")
#loc315 = loc("p314.7745")
#loc316 = loc("p315.7911")
#loc317 = loc("p316.7992")
#loc318 = loc("p317.8001")
#loc319 = loc("p318.8069")
#loc320 = loc("p319.8078")
#loc321 = loc("p320.8244")
#loc322 = loc("p321.8325")
#loc323 = loc("p322.8334")
#loc324 = loc("p323.8402")
#loc325 = loc("p324.8411")
#loc326 = loc("p325.8577")
#loc327 = loc("p326.8658")
#loc328 = loc("p327.8667")
#loc329 = loc("p328.8735")
#loc330 = loc("p329.8744")
#loc331 = loc("p330.8910")
#loc332 = loc("p331.8991")
#loc333 = loc("p332.9000")
#loc334 = loc("p333.9068")
#loc335 = loc("p334.9077")
#loc336 = loc("p335.9243")
#loc337 = loc("p336.9324")
#loc338 = loc("p337.9333")
#loc339 = loc("p338.9401")
#loc340 = loc("p339.9410")
#loc341 = loc("p340.9576")
#loc342 = loc("p341.9657")
#loc343 = loc("p342.9666")
#loc344 = loc("p343.9734")
#loc345 = loc("p344.9743")
#loc346 = loc("p345.9909")
#loc347 = loc("p346.9990")
#loc348 = loc("p347.9999")
#loc349 = loc("p348.10067")
#loc350 = loc("p349.10076")
#loc351 = loc("p350.10242")
#loc352 = loc("p351.10323")
#loc353 = loc("p352.10332")
#loc354 = loc("p353.10400")
#loc355 = loc("p354.10409")
#loc356 = loc("p355.10575")
#loc357 = loc("p356.10656")
#loc358 = loc("p357.10665")
#loc359 = loc("p358.10733")
#loc360 = loc("p359.10742")
#loc361 = loc("p360.10908")
#loc362 = loc("p361.10989")
#loc363 = loc("p362.10998")
#loc364 = loc("p363.11066")
#loc365 = loc("p364.11075")
#loc366 = loc("p365.11241")
#loc367 = loc("p366.11322")
#loc368 = loc("p367.11331")
#loc369 = loc("p368.11399")
#loc370 = loc("p369.11408")
#loc371 = loc("p370.11574")
#loc372 = loc("p371.11655")
#loc373 = loc("p372.11664")
#loc374 = loc("p373.11732")
#loc375 = loc("p374.11741")
#loc376 = loc("p375.11907")
#loc377 = loc("p376.11988")
#loc378 = loc("p377.11997")
#loc379 = loc("p378.12065")
#loc380 = loc("p379.12074")
#loc381 = loc("p380.12240")
#loc382 = loc("p381.12321")
#loc383 = loc("p382.12330")
#loc384 = loc("p383.12398")
#loc385 = loc("p384.12407")
#loc386 = loc("p385.12573")
#loc387 = loc("p386.12654")
#loc388 = loc("p387.12663")
#loc389 = loc("p388.12731")
#loc390 = loc("p389.12740")
#loc391 = loc("p390.12906")
#loc392 = loc("p391.12987")
#loc393 = loc("p392.12996")
#loc394 = loc("p393.13064")
#loc395 = loc("p394.13073")
#loc396 = loc("p395.13239")
#loc397 = loc("p396.13320")
#loc398 = loc("p397.13329")
#loc399 = loc("p398.13397")
#loc400 = loc("p399.13406")
#loc401 = loc("p400.13572")
#loc479 = loc("reduce-window.1583")
#loc497 = loc("reduce.1859")
#loc616 = loc("reduce.2192")
#loc735 = loc("reduce.2525")
#loc854 = loc("reduce.2858")
#loc973 = loc("reduce.3191")
#loc1092 = loc("reduce.3524")
#loc1211 = loc("reduce.3857")
#loc1330 = loc("reduce.4190")
#loc1449 = loc("reduce.4523")
#loc1568 = loc("reduce.4856")
#loc1687 = loc("reduce.5189")
#loc1806 = loc("reduce.5522")
#loc1925 = loc("reduce.5855")
#loc2044 = loc("reduce.6188")
#loc2163 = loc("reduce.6521")
#loc2282 = loc("reduce.6854")
#loc2401 = loc("reduce.7187")
#loc2520 = loc("reduce.7520")
#loc2639 = loc("reduce.7853")
#loc2758 = loc("reduce.8186")
#loc2877 = loc("reduce.8519")
#loc2996 = loc("reduce.8852")
#loc3115 = loc("reduce.9185")
#loc3234 = loc("reduce.9518")
#loc3353 = loc("reduce.9851")
#loc3472 = loc("reduce.10184")
#loc3591 = loc("reduce.10517")
#loc3710 = loc("reduce.10850")
#loc3829 = loc("reduce.11183")
#loc3948 = loc("reduce.11516")
#loc4067 = loc("reduce.11849")
#loc4186 = loc("reduce.12182")
#loc4305 = loc("reduce.12515")
#loc4424 = loc("reduce.12848")
#loc4543 = loc("reduce.13181")
#loc4662 = loc("reduce.13514")
#loc4732 = loc("custom-call.13338")
#loc4733 = loc("custom-call.13324")
#loc4748 = loc("custom-call.13258")
#loc4749 = loc("custom-call.45")
#loc4764 = loc("custom-call.13005")
#loc4765 = loc("custom-call.12991")
#loc4780 = loc("custom-call.13082")
#loc4781 = loc("custom-call.13068")
#loc4796 = loc("custom-call.12925")
#loc4797 = loc("custom-call.85")
#loc4812 = loc("custom-call.12870")
#loc4813 = loc("custom-call.105")
#loc4828 = loc("custom-call.12672")
#loc4829 = loc("custom-call.12658")
#loc4844 = loc("custom-call.12749")
#loc4845 = loc("custom-call.12735")
#loc4860 = loc("custom-call.12592")
#loc4861 = loc("custom-call.125")
#loc4876 = loc("custom-call.12339")
#loc4877 = loc("custom-call.12325")
#loc4892 = loc("custom-call.12416")
#loc4893 = loc("custom-call.12402")
#loc4908 = loc("custom-call.12537")
#loc4909 = loc("custom-call.145")
#loc4924 = loc("custom-call.12259")
#loc4925 = loc("custom-call.165")
#loc4940 = loc("custom-call.12204")
#loc4941 = loc("custom-call.185")
#loc4956 = loc("custom-call.6265")
#loc4957 = loc("custom-call.885")
#loc4972 = loc("custom-call.2547")
#loc4973 = loc("custom-call.1345")
#loc4988 = loc("custom-call.6012")
#loc4989 = loc("custom-call.5998")
#loc5004 = loc("custom-call.6089")
#loc5005 = loc("custom-call.6075")
#loc5020 = loc("custom-call.4267")
#loc5021 = loc("custom-call.1125")
#loc5036 = loc("custom-call.2880")
#loc5037 = loc("custom-call.1305")
#loc5052 = loc("custom-call.10594")
#loc5053 = loc("custom-call.365")
#loc5068 = loc("custom-call.6422")
#loc5069 = loc("custom-call.6408")
#loc5084 = loc("custom-call.10008")
#loc5085 = loc("custom-call.9994")
#loc5100 = loc("custom-call.11593")
#loc5101 = loc("custom-call.245")
#loc5116 = loc("custom-call.6210")
#loc5117 = loc("custom-call.905")
#loc5132 = loc("custom-call.4680")
#loc5133 = loc("custom-call.4666")
#loc5148 = loc("custom-call.5544")
#loc5149 = loc("custom-call.985")
#loc5164 = loc("custom-call.5423")
#loc5165 = loc("custom-call.5409")
#loc5180 = loc("custom-call.11673")
#loc5181 = loc("custom-call.11659")
#loc5196 = loc("custom-call.4347")
#loc5197 = loc("custom-call.4333")
#loc5212 = loc("custom-call.4212")
#loc5213 = loc("custom-call.1145")
#loc5228 = loc("custom-call.4014")
#loc5229 = loc("custom-call.4000")
#loc5244 = loc("custom-call.2349")
#loc5245 = loc("custom-call.2335")
#loc5260 = loc("custom-call.2016")
#loc5261 = loc("custom-call.2002")
#loc5276 = loc("custom-call.5877")
#loc5277 = loc("custom-call.945")
#loc5292 = loc("custom-call.6931")
#loc5293 = loc("custom-call.805")
#loc5308 = loc("custom-call.5211")
#loc5309 = loc("custom-call.1025")
#loc5324 = loc("custom-call.2269")
#loc5325 = loc("custom-call.1365")
#loc5340 = loc("custom-call.2426")
#loc5341 = loc("custom-call.2412")
#loc5356 = loc("custom-call.1936")
#loc5357 = loc("custom-call.1405")
#loc5372 = loc("custom-call.3601")
#loc5373 = loc("custom-call.1205")
#loc5388 = loc("custom-call.5932")
#loc5389 = loc("custom-call.925")
#loc5404 = loc("custom-call.1881")
#loc5405 = loc("custom-call.1425")
#loc5420 = loc("custom-call.11007")
#loc5421 = loc("custom-call.10993")
#loc5436 = loc("custom-call.5756")
#loc5437 = loc("custom-call.5742")
#loc5452 = loc("custom-call.4878")
#loc5453 = loc("custom-call.1065")
#loc5468 = loc("custom-call.4600")
#loc5469 = loc("custom-call.1085")
#loc5484 = loc("custom-call.1760")
#loc5485 = loc("custom-call.1746")
#loc5500 = loc("custom-call.6345")
#loc5501 = loc("custom-call.6331")
#loc5516 = loc("custom-call.6543")
#loc5517 = loc("custom-call.865")
#loc5532 = loc("custom-call.9928")
#loc5533 = loc("custom-call.445")
#loc5548 = loc("custom-call.11084")
#loc5549 = loc("custom-call.11070")
#loc5564 = loc("custom-call.10085")
#loc5565 = loc("custom-call.10071")
#loc5580 = loc("custom-call.5346")
#loc5581 = loc("custom-call.5332")
#loc5596 = loc("custom-call.8420")
#loc5597 = loc("custom-call.8406")
#loc5612 = loc("custom-call.2759")
#loc5613 = loc("custom-call.2745")
#loc5628 = loc("custom-call.3015")
#loc5629 = loc("custom-call.3001")
#loc5644 = loc("custom-call.13536")
#loc5645 = loc("custom-call.25")
#loc5660 = loc("custom-call.9086")
#loc5661 = loc("custom-call.9072")
#loc5676 = loc("custom-call.2093")
#loc5677 = loc("custom-call.2079")
#loc5692 = loc("custom-call.5679")
#loc5693 = loc("custom-call.5665")
#loc5708 = loc("custom-call.10927")
#loc5709 = loc("custom-call.325")
#loc5724 = loc("custom-call.2214")
#loc5725 = loc("custom-call.1385")
#loc5740 = loc("custom-call.3934")
#loc5741 = loc("custom-call.1165")
#loc5756 = loc("custom-call.1462")
#loc5757 = loc("custom-call.1445")
#loc5772 = loc("custom-call.9595")
#loc5773 = loc("custom-call.485")
#loc5788 = loc("custom-call.11926")
#loc5789 = loc("custom-call.205")
#loc5804 = loc("custom-call.13203")
#loc5805 = loc("custom-call.65")
#loc5820 = loc("custom-call.2682")
#loc5821 = loc("custom-call.2668")
#loc5836 = loc("custom-call.4424")
#loc5837 = loc("custom-call.4410")
#loc5852 = loc("custom-call.8596")
#loc5853 = loc("custom-call.605")
#loc5868 = loc("custom-call.4091")
#loc5869 = loc("custom-call.4077")
#loc5884 = loc("custom-call.9675")
#loc5885 = loc("custom-call.9661")
#loc5900 = loc("custom-call.2935")
#loc5901 = loc("custom-call.1285")
#loc5916 = loc("custom-call.3092")
#loc5917 = loc("custom-call.3078")
#loc5932 = loc("custom-call.6876")
#loc5933 = loc("custom-call.825")
#loc5948 = loc("custom-call.11340")
#loc5949 = loc("custom-call.11326")
#loc5964 = loc("custom-call.7344")
#loc5965 = loc("custom-call.7330")
#loc5980 = loc("custom-call.3213")
#loc5981 = loc("custom-call.1265")
#loc5996 = loc("custom-call.3348")
#loc5997 = loc("custom-call.3334")
#loc6012 = loc("custom-call.8087")
#loc6013 = loc("custom-call.8073")
#loc6028 = loc("custom-call.9873")
#loc6029 = loc("custom-call.465")
#loc6044 = loc("custom-call.4933")
#loc6045 = loc("custom-call.1045")
#loc6060 = loc("custom-call.3546")
#loc6061 = loc("custom-call.1225")
#loc6076 = loc("custom-call.7264")
#loc6077 = loc("custom-call.765")
#loc6092 = loc("custom-call.3758")
#loc6093 = loc("custom-call.3744")
#loc6108 = loc("custom-call.9342")
#loc6109 = loc("custom-call.9328")
#loc6124 = loc("custom-call.1678")
#loc6125 = loc("custom-call.1664")
#loc6140 = loc("custom-call.3879")
#loc6141 = loc("custom-call.1185")
#loc6156 = loc("custom-call.6598")
#loc6157 = loc("custom-call.845")
#loc6172 = loc("custom-call.3681")
#loc6173 = loc("custom-call.3667")
#loc6188 = loc("custom-call.6755")
#loc6189 = loc("custom-call.6741")
#loc6204 = loc("custom-call.7088")
#loc6205 = loc("custom-call.7074")
#loc6220 = loc("custom-call.6678")
#loc6221 = loc("custom-call.6664")
#loc6236 = loc("custom-call.11538")
#loc6237 = loc("custom-call.265")
#loc6252 = loc("custom-call.7011")
#loc6253 = loc("custom-call.6997")
#loc6268 = loc("custom-call.5599")
#loc6269 = loc("custom-call.965")
#loc6284 = loc("custom-call.7542")
#loc6285 = loc("custom-call.745")
#loc6300 = loc("custom-call.9262")
#loc6301 = loc("custom-call.525")
#loc6316 = loc("custom-call.11205")
#loc6317 = loc("custom-call.305")
#loc6332 = loc("custom-call.7421")
#loc6333 = loc("custom-call.7407")
#loc6348 = loc("custom-call.8753")
#loc6349 = loc("custom-call.8739")
#loc6364 = loc("custom-call.7677")
#loc6365 = loc("custom-call.7663")
#loc6380 = loc("custom-call.10674")
#loc6381 = loc("custom-call.10660")
#loc6396 = loc("custom-call.2602")
#loc6397 = loc("custom-call.1325")
#loc6412 = loc("custom-call.7875")
#loc6413 = loc("custom-call.705")
#loc6428 = loc("custom-call.4545")
#loc6429 = loc("custom-call.1105")
#loc6444 = loc("custom-call.7930")
#loc6445 = loc("custom-call.685")
#loc6460 = loc("custom-call.3268")
#loc6461 = loc("custom-call.1245")
#loc6476 = loc("custom-call.9207")
#loc6477 = loc("custom-call.545")
#loc6492 = loc("custom-call.8010")
#loc6493 = loc("custom-call.7996")
#loc6508 = loc("custom-call.8208")
#loc6509 = loc("custom-call.665")
#loc6524 = loc("custom-call.8263")
#loc6525 = loc("custom-call.645")
#loc6540 = loc("custom-call.13591")
#loc6541 = loc("custom-call.5")
#loc6556 = loc("custom-call.10206")
#loc6557 = loc("custom-call.425")
#loc6572 = loc("custom-call.8343")
#loc6573 = loc("custom-call.8329")
#loc6588 = loc("custom-call.8541")
#loc6589 = loc("custom-call.625")
#loc6604 = loc("custom-call.11750")
#loc6605 = loc("custom-call.11736")
#loc6620 = loc("custom-call.8676")
#loc6621 = loc("custom-call.8662")
#loc6636 = loc("custom-call.3425")
#loc6637 = loc("custom-call.3411")
#loc6652 = loc("custom-call.8874")
#loc6653 = loc("custom-call.585")
#loc6668 = loc("custom-call.7209")
#loc6669 = loc("custom-call.785")
#loc6684 = loc("custom-call.8929")
#loc6685 = loc("custom-call.565")
#loc6700 = loc("custom-call.7597")
#loc6701 = loc("custom-call.725")
#loc6716 = loc("custom-call.9009")
#loc6717 = loc("custom-call.8995")
#loc6732 = loc("custom-call.5013")
#loc6733 = loc("custom-call.4999")
#loc6748 = loc("custom-call.9419")
#loc6749 = loc("custom-call.9405")
#loc6764 = loc("custom-call.9540")
#loc6765 = loc("custom-call.505")
#loc6780 = loc("custom-call.5090")
#loc6781 = loc("custom-call.5076")
#loc6796 = loc("custom-call.10261")
#loc6797 = loc("custom-call.405")
#loc6812 = loc("custom-call.10418")
#loc6813 = loc("custom-call.10404")
#loc6828 = loc("custom-call.5266")
#loc6829 = loc("custom-call.1005")
#loc6844 = loc("custom-call.9752")
#loc6845 = loc("custom-call.9738")
#loc6860 = loc("custom-call.10341")
#loc6861 = loc("custom-call.10327")
#loc6876 = loc("custom-call.13415")
#loc6877 = loc("custom-call.13401")
#loc6892 = loc("custom-call.10539")
#loc6893 = loc("custom-call.385")
#loc6908 = loc("custom-call.10872")
#loc6909 = loc("custom-call.345")
#loc6924 = loc("custom-call.11260")
#loc6925 = loc("custom-call.285")
#loc6940 = loc("custom-call.12083")
#loc6941 = loc("custom-call.12069")
#loc6956 = loc("custom-call.4757")
#loc6957 = loc("custom-call.4743")
#loc6972 = loc("custom-call.10751")
#loc6973 = loc("custom-call.10737")
#loc6988 = loc("custom-call.11417")
#loc6989 = loc("custom-call.11403")
#loc7004 = loc("custom-call.11871")
#loc7005 = loc("custom-call.225")
#loc7020 = loc("custom-call.7754")
#loc7021 = loc("custom-call.7740")
#loc7036 = loc("custom-call.12006")
#loc7037 = loc("custom-call.11992")
module @SyncTensorsGraph.13625 attributes {mhlo.cross_program_prefetches = [], mhlo.input_output_alias = [], mhlo.is_dynamic = false, mhlo.use_auto_spmd_partitioning = false} {
  sdy.mesh @mesh = <["_axis_0"=4]> loc(#loc)
  func.func @main(%arg0: tensor<2560xbf16> {sdy.sharding = #sdy.sharding<@mesh, [{}]>} loc("p0.1"), %arg1: tensor<2560x9728xbf16> {sdy.sharding = #sdy.sharding<@mesh, [{}, {"_axis_0"}]>} loc("p1.11"), %arg2: tensor<9728x2560xbf16> {sdy.sharding = #sdy.sharding<@mesh, [{"_axis_0"}, {}]>} loc("p2.16"), %arg3: tensor<2560xbf16> {sdy.sharding = #sdy.sharding<@mesh, [{}]>} loc("p3.21"), %arg4: tensor<2560x4096xbf16> {sdy.sharding = #sdy.sharding<@mesh, [{}, {"_axis_0"}]>} loc("p4.31"), %arg5: tensor<1024x2560xbf16> {sdy.sharding = #sdy.sharding<@mesh, [{"_axis_0"}, {}]>} loc("p5.36"), %arg6: tensor<2560xbf16> {sdy.sharding = #sdy.sharding<@mesh, [{}]>} loc("p6.41"), %arg7: tensor<2560x9728xbf16> {sdy.sharding = #sdy.sharding<@mesh, [{}, {"_axis_0"}]>} loc("p7.51"), %arg8: tensor<9728x2560xbf16> {sdy.sharding = #sdy.sharding<@mesh, [{"_axis_0"}, {}]>} loc("p8.56"), %arg9: tensor<2560xbf16> {sdy.sharding = #sdy.sharding<@mesh, [{}]>} loc("p9.61"), %arg10: tensor<2560x4096xbf16> {sdy.sharding = #sdy.sharding<@mesh, [{}, {"_axis_0"}]>} loc("p10.71"), %arg11: tensor<1024x2560xbf16> {sdy.sharding = #sdy.sharding<@mesh, [{"_axis_0"}, {}]>} loc("p11.76"), %arg12: tensor<2560xbf16> {sdy.sharding = #sdy.sharding<@mesh, [{}]>} loc("p12.81"), %arg13: tensor<2560x9728xbf16> {sdy.sharding = #sdy.sharding<@mesh, [{}, {"_axis_0"}]>} loc("p13.91"), %arg14: tensor<9728x2560xbf16> {sdy.sharding = #sdy.sharding<@mesh, [{"_axis_0"}, {}]>} loc("p14.96"), %arg15: tensor<2560xbf16> {sdy.sharding = #sdy.sharding<@mesh, [{}]>} loc("p15.101"), %arg16: tensor<2560x4096xbf16> {sdy.sharding = #sdy.sharding<@mesh, [{}, {"_axis_0"}]>} loc("p16.111"), %arg17: tensor<1024x2560xbf16> {sdy.sharding = #sdy.sharding<@mesh, [{"_axis_0"}, {}]>} loc("p17.116"), %arg18: tensor<2560xbf16> {sdy.sharding = #sdy.sharding<@mesh, [{}]>} loc("p18.121"), %arg19: tensor<2560x9728xbf16> {sdy.sharding = #sdy.sharding<@mesh, [{}, {"_axis_0"}]>} loc("p19.131"), %arg20: tensor<9728x2560xbf16> {sdy.sharding = #sdy.sharding<@mesh, [{"_axis_0"}, {}]>} loc("p20.136"), %arg21: tensor<2560xbf16> {sdy.sharding = #sdy.sharding<@mesh, [{}]>} loc("p21.141"), %arg22: tensor<2560x4096xbf16> {sdy.sharding = #sdy.sharding<@mesh, [{}, {"_axis_0"}]>} loc("p22.151"), %arg23: tensor<1024x2560xbf16> {sdy.sharding = #sdy.sharding<@mesh, [{"_axis_0"}, {}]>} loc("p23.156"), %arg24: tensor<2560xbf16> {sdy.sharding = #sdy.sharding<@mesh, [{}]>} loc("p24.161"), %arg25: tensor<2560x9728xbf16> {sdy.sharding = #sdy.sharding<@mesh, [{}, {"_axis_0"}]>} loc("p25.171"), %arg26: tensor<9728x2560xbf16> {sdy.sharding = #sdy.sharding<@mesh, [{"_axis_0"}, {}]>} loc("p26.176"), %arg27: tensor<2560xbf16> {sdy.sharding = #sdy.sharding<@mesh, [{}]>} loc("p27.181"), %arg28: tensor<2560x4096xbf16> {sdy.sharding = #sdy.sharding<@mesh, [{}, {"_axis_0"}]>} loc("p28.191"), %arg29: tensor<1024x2560xbf16> {sdy.sharding = #sdy.sharding<@mesh, [{"_axis_0"}, {}]>} loc("p29.196"), %arg30: tensor<2560xbf16> {sdy.sharding = #sdy.sharding<@mesh, [{}]>} loc("p30.201"), %arg31: tensor<2560x9728xbf16> {sdy.sharding = #sdy.sharding<@mesh, [{}, {"_axis_0"}]>} loc("p31.211"), %arg32: tensor<9728x2560xbf16> {sdy.sharding = #sdy.sharding<@mesh, [{"_axis_0"}, {}]>} loc("p32.216"), %arg33: tensor<2560xbf16> {sdy.sharding = #sdy.sharding<@mesh, [{}]>} loc("p33.221"), %arg34: tensor<2560x4096xbf16> {sdy.sharding = #sdy.sharding<@mesh, [{}, {"_axis_0"}]>} loc("p34.231"), %arg35: tensor<1024x2560xbf16> {sdy.sharding = #sdy.sharding<@mesh, [{"_axis_0"}, {}]>} loc("p35.236"), %arg36: tensor<2560xbf16> {sdy.sharding = #sdy.sharding<@mesh, [{}]>} loc("p36.241"), %arg37: tensor<2560x9728xbf16> {sdy.sharding = #sdy.sharding<@mesh, [{}, {"_axis_0"}]>} loc("p37.251"), %arg38: tensor<9728x2560xbf16> {sdy.sharding = #sdy.sharding<@mesh, [{"_axis_0"}, {}]>} loc("p38.256"), %arg39: tensor<2560xbf16> {sdy.sharding = #sdy.sharding<@mesh, [{}]>} loc("p39.261"), %arg40: tensor<2560x4096xbf16> {sdy.sharding = #sdy.sharding<@mesh, [{}, {"_axis_0"}]>} loc("p40.271"), %arg41: tensor<1024x2560xbf16> {sdy.sharding = #sdy.sharding<@mesh, [{"_axis_0"}, {}]>} loc("p41.276"), %arg42: tensor<2560xbf16> {sdy.sharding = #sdy.sharding<@mesh, [{}]>} loc("p42.281"), %arg43: tensor<2560x9728xbf16> {sdy.sharding = #sdy.sharding<@mesh, [{}, {"_axis_0"}]>} loc("p43.291"), %arg44: tensor<9728x2560xbf16> {sdy.sharding = #sdy.sharding<@mesh, [{"_axis_0"}, {}]>} loc("p44.296"), %arg45: tensor<2560xbf16> {sdy.sharding = #sdy.sharding<@mesh, [{}]>} loc("p45.301"), %arg46: tensor<2560x4096xbf16> {sdy.sharding = #sdy.sharding<@mesh, [{}, {"_axis_0"}]>} loc("p46.311"), %arg47: tensor<1024x2560xbf16> {sdy.sharding = #sdy.sharding<@mesh, [{"_axis_0"}, {}]>} loc("p47.316"), %arg48: tensor<2560xbf16> {sdy.sharding = #sdy.sharding<@mesh, [{}]>} loc("p48.321"), %arg49: tensor<2560x9728xbf16> {sdy.sharding = #sdy.sharding<@mesh, [{}, {"_axis_0"}]>} loc("p49.331"), %arg50: tensor<9728x2560xbf16> {sdy.sharding = #sdy.sharding<@mesh, [{"_axis_0"}, {}]>} loc("p50.336"), %arg51: tensor<2560xbf16> {sdy.sharding = #sdy.sharding<@mesh, [{}]>} loc("p51.341"), %arg52: tensor<2560x4096xbf16> {sdy.sharding = #sdy.sharding<@mesh, [{}, {"_axis_0"}]>} loc("p52.351"), %arg53: tensor<1024x2560xbf16> {sdy.sharding = #sdy.sharding<@mesh, [{"_axis_0"}, {}]>} loc("p53.356"), %arg54: tensor<2560xbf16> {sdy.sharding = #sdy.sharding<@mesh, [{}]>} loc("p54.361"), %arg55: tensor<2560x9728xbf16> {sdy.sharding = #sdy.sharding<@mesh, [{}, {"_axis_0"}]>} loc("p55.371"), %arg56: tensor<9728x2560xbf16> {sdy.sharding = #sdy.sharding<@mesh, [{"_axis_0"}, {}]>} loc("p56.376"), %arg57: tensor<2560xbf16> {sdy.sharding = #sdy.sharding<@mesh, [{}]>} loc("p57.381"), %arg58: tensor<2560x4096xbf16> {sdy.sharding = #sdy.sharding<@mesh, [{}, {"_axis_0"}]>} loc("p58.391"), %arg59: tensor<1024x2560xbf16> {sdy.sharding = #sdy.sharding<@mesh, [{"_axis_0"}, {}]>} loc("p59.396"), %arg60: tensor<2560xbf16> {sdy.sharding = #sdy.sharding<@mesh, [{}]>} loc("p60.401"), %arg61: tensor<2560x9728xbf16> {sdy.sharding = #sdy.sharding<@mesh, [{}, {"_axis_0"}]>} loc("p61.411"), %arg62: tensor<9728x2560xbf16> {sdy.sharding = #sdy.sharding<@mesh, [{"_axis_0"}, {}]>} loc("p62.416"), %arg63: tensor<2560xbf16> {sdy.sharding = #sdy.sharding<@mesh, [{}]>} loc("p63.421"), %arg64: tensor<2560x4096xbf16> {sdy.sharding = #sdy.sharding<@mesh, [{}, {"_axis_0"}]>} loc("p64.431"), %arg65: tensor<1024x2560xbf16> {sdy.sharding = #sdy.sharding<@mesh, [{"_axis_0"}, {}]>} loc("p65.436"), %arg66: tensor<2560xbf16> {sdy.sharding = #sdy.sharding<@mesh, [{}]>} loc("p66.441"), %arg67: tensor<2560x9728xbf16> {sdy.sharding = #sdy.sharding<@mesh, [{}, {"_axis_0"}]>} loc("p67.451"), %arg68: tensor<9728x2560xbf16> {sdy.sharding = #sdy.sharding<@mesh, [{"_axis_0"}, {}]>} loc("p68.456"), %arg69: tensor<2560xbf16> {sdy.sharding = #sdy.sharding<@mesh, [{}]>} loc("p69.461"), %arg70: tensor<2560x4096xbf16> {sdy.sharding = #sdy.sharding<@mesh, [{}, {"_axis_0"}]>} loc("p70.471"), %arg71: tensor<1024x2560xbf16> {sdy.sharding = #sdy.sharding<@mesh, [{"_axis_0"}, {}]>} loc("p71.476"), %arg72: tensor<2560xbf16> {sdy.sharding = #sdy.sharding<@mesh, [{}]>} loc("p72.481"), %arg73: tensor<2560x9728xbf16> {sdy.sharding = #sdy.sharding<@mesh, [{}, {"_axis_0"}]>} loc("p73.491"), %arg74: tensor<9728x2560xbf16> {sdy.sharding = #sdy.sharding<@mesh, [{"_axis_0"}, {}]>} loc("p74.496"), %arg75: tensor<2560xbf16> {sdy.sharding = #sdy.sharding<@mesh, [{}]>} loc("p75.501"), %arg76: tensor<2560x4096xbf16> {sdy.sharding = #sdy.sharding<@mesh, [{}, {"_axis_0"}]>} loc("p76.511"), %arg77: tensor<1024x2560xbf16> {sdy.sharding = #sdy.sharding<@mesh, [{"_axis_0"}, {}]>} loc("p77.516"), %arg78: tensor<2560xbf16> {sdy.sharding = #sdy.sharding<@mesh, [{}]>} loc("p78.521"), %arg79: tensor<2560x9728xbf16> {sdy.sharding = #sdy.sharding<@mesh, [{}, {"_axis_0"}]>} loc("p79.531"), %arg80: tensor<9728x2560xbf16> {sdy.sharding = #sdy.sharding<@mesh, [{"_axis_0"}, {}]>} loc("p80.536"), %arg81: tensor<2560xbf16> {sdy.sharding = #sdy.sharding<@mesh, [{}]>} loc("p81.541"), %arg82: tensor<2560x4096xbf16> {sdy.sharding = #sdy.sharding<@mesh, [{}, {"_axis_0"}]>} loc("p82.551"), %arg83: tensor<1024x2560xbf16> {sdy.sharding = #sdy.sharding<@mesh, [{"_axis_0"}, {}]>} loc("p83.556"), %arg84: tensor<2560xbf16> {sdy.sharding = #sdy.sharding<@mesh, [{}]>} loc("p84.561"), %arg85: tensor<2560x9728xbf16> {sdy.sharding = #sdy.sharding<@mesh, [{}, {"_axis_0"}]>} loc("p85.571"), %arg86: tensor<9728x2560xbf16> {sdy.sharding = #sdy.sharding<@mesh, [{"_axis_0"}, {}]>} loc("p86.576"), %arg87: tensor<2560xbf16> {sdy.sharding = #sdy.sharding<@mesh, [{}]>} loc("p87.581"), %arg88: tensor<2560x4096xbf16> {sdy.sharding = #sdy.sharding<@mesh, [{}, {"_axis_0"}]>} loc("p88.591"), %arg89: tensor<1024x2560xbf16> {sdy.sharding = #sdy.sharding<@mesh, [{"_axis_0"}, {}]>} loc("p89.596"), %arg90: tensor<2560xbf16> {sdy.sharding = #sdy.sharding<@mesh, [{}]>} loc("p90.601"), %arg91: tensor<2560x9728xbf16> {sdy.sharding = #sdy.sharding<@mesh, [{}, {"_axis_0"}]>} loc("p91.611"), %arg92: tensor<9728x2560xbf16> {sdy.sharding = #sdy.sharding<@mesh, [{"_axis_0"}, {}]>} loc("p92.616"), %arg93: tensor<2560xbf16> {sdy.sharding = #sdy.sharding<@mesh, [{}]>} loc("p93.621"), %arg94: tensor<2560x4096xbf16> {sdy.sharding = #sdy.sharding<@mesh, [{}, {"_axis_0"}]>} loc("p94.631"), %arg95: tensor<1024x2560xbf16> {sdy.sharding = #sdy.sharding<@mesh, [{"_axis_0"}, {}]>} loc("p95.636"), %arg96: tensor<2560xbf16> {sdy.sharding = #sdy.sharding<@mesh, [{}]>} loc("p96.641"), %arg97: tensor<2560x9728xbf16> {sdy.sharding = #sdy.sharding<@mesh, [{}, {"_axis_0"}]>} loc("p97.651"), %arg98: tensor<9728x2560xbf16> {sdy.sharding = #sdy.sharding<@mesh, [{"_axis_0"}, {}]>} loc("p98.656"), %arg99: tensor<2560xbf16> {sdy.sharding = #sdy.sharding<@mesh, [{}]>} loc("p99.661"), %arg100: tensor<2560x4096xbf16> {sdy.sharding = #sdy.sharding<@mesh, [{}, {"_axis_0"}]>} loc("p100.671"), %arg101: tensor<1024x2560xbf16> {sdy.sharding = #sdy.sharding<@mesh, [{"_axis_0"}, {}]>} loc("p101.676"), %arg102: tensor<2560xbf16> {sdy.sharding = #sdy.sharding<@mesh, [{}]>} loc("p102.681"), %arg103: tensor<2560x9728xbf16> {sdy.sharding = #sdy.sharding<@mesh, [{}, {"_axis_0"}]>} loc("p103.691"), %arg104: tensor<9728x2560xbf16> {sdy.sharding = #sdy.sharding<@mesh, [{"_axis_0"}, {}]>} loc("p104.696"), %arg105: tensor<2560xbf16> {sdy.sharding = #sdy.sharding<@mesh, [{}]>} loc("p105.701"), %arg106: tensor<2560x4096xbf16> {sdy.sharding = #sdy.sharding<@mesh, [{}, {"_axis_0"}]>} loc("p106.711"), %arg107: tensor<1024x2560xbf16> {sdy.sharding = #sdy.sharding<@mesh, [{"_axis_0"}, {}]>} loc("p107.716"), %arg108: tensor<2560xbf16> {sdy.sharding = #sdy.sharding<@mesh, [{}]>} loc("p108.721"), %arg109: tensor<2560x9728xbf16> {sdy.sharding = #sdy.sharding<@mesh, [{}, {"_axis_0"}]>} loc("p109.731"), %arg110: tensor<9728x2560xbf16> {sdy.sharding = #sdy.sharding<@mesh, [{"_axis_0"}, {}]>} loc("p110.736"), %arg111: tensor<2560xbf16> {sdy.sharding = #sdy.sharding<@mesh, [{}]>} loc("p111.741"), %arg112: tensor<2560x4096xbf16> {sdy.sharding = #sdy.sharding<@mesh, [{}, {"_axis_0"}]>} loc("p112.751"), %arg113: tensor<1024x2560xbf16> {sdy.sharding = #sdy.sharding<@mesh, [{"_axis_0"}, {}]>} loc("p113.756"), %arg114: tensor<2560xbf16> {sdy.sharding = #sdy.sharding<@mesh, [{}]>} loc("p114.761"), %arg115: tensor<2560x9728xbf16> {sdy.sharding = #sdy.sharding<@mesh, [{}, {"_axis_0"}]>} loc("p115.771"), %arg116: tensor<9728x2560xbf16> {sdy.sharding = #sdy.sharding<@mesh, [{"_axis_0"}, {}]>} loc("p116.776"), %arg117: tensor<2560xbf16> {sdy.sharding = #sdy.sharding<@mesh, [{}]>} loc("p117.781"), %arg118: tensor<2560x4096xbf16> {sdy.sharding = #sdy.sharding<@mesh, [{}, {"_axis_0"}]>} loc("p118.791"), %arg119: tensor<1024x2560xbf16> {sdy.sharding = #sdy.sharding<@mesh, [{"_axis_0"}, {}]>} loc("p119.796"), %arg120: tensor<2560xbf16> {sdy.sharding = #sdy.sharding<@mesh, [{}]>} loc("p120.801"), %arg121: tensor<2560x9728xbf16> {sdy.sharding = #sdy.sharding<@mesh, [{}, {"_axis_0"}]>} loc("p121.811"), %arg122: tensor<9728x2560xbf16> {sdy.sharding = #sdy.sharding<@mesh, [{"_axis_0"}, {}]>} loc("p122.816"), %arg123: tensor<2560xbf16> {sdy.sharding = #sdy.sharding<@mesh, [{}]>} loc("p123.821"), %arg124: tensor<2560x4096xbf16> {sdy.sharding = #sdy.sharding<@mesh, [{}, {"_axis_0"}]>} loc("p124.831"), %arg125: tensor<1024x2560xbf16> {sdy.sharding = #sdy.sharding<@mesh, [{"_axis_0"}, {}]>} loc("p125.836"), %arg126: tensor<2560xbf16> {sdy.sharding = #sdy.sharding<@mesh, [{}]>} loc("p126.841"), %arg127: tensor<2560x9728xbf16> {sdy.sharding = #sdy.sharding<@mesh, [{}, {"_axis_0"}]>} loc("p127.851"), %arg128: tensor<9728x2560xbf16> {sdy.sharding = #sdy.sharding<@mesh, [{"_axis_0"}, {}]>} loc("p128.856"), %arg129: tensor<2560xbf16> {sdy.sharding = #sdy.sharding<@mesh, [{}]>} loc("p129.861"), %arg130: tensor<2560x4096xbf16> {sdy.sharding = #sdy.sharding<@mesh, [{}, {"_axis_0"}]>} loc("p130.871"), %arg131: tensor<1024x2560xbf16> {sdy.sharding = #sdy.sharding<@mesh, [{"_axis_0"}, {}]>} loc("p131.876"), %arg132: tensor<2560xbf16> {sdy.sharding = #sdy.sharding<@mesh, [{}]>} loc("p132.881"), %arg133: tensor<2560x9728xbf16> {sdy.sharding = #sdy.sharding<@mesh, [{}, {"_axis_0"}]>} loc("p133.891"), %arg134: tensor<9728x2560xbf16> {sdy.sharding = #sdy.sharding<@mesh, [{"_axis_0"}, {}]>} loc("p134.896"), %arg135: tensor<2560xbf16> {sdy.sharding = #sdy.sharding<@mesh, [{}]>} loc("p135.901"), %arg136: tensor<2560x4096xbf16> {sdy.sharding = #sdy.sharding<@mesh, [{}, {"_axis_0"}]>} loc("p136.911"), %arg137: tensor<1024x2560xbf16> {sdy.sharding = #sdy.sharding<@mesh, [{"_axis_0"}, {}]>} loc("p137.916"), %arg138: tensor<2560xbf16> {sdy.sharding = #sdy.sharding<@mesh, [{}]>} loc("p138.921"), %arg139: tensor<2560x9728xbf16> {sdy.sharding = #sdy.sharding<@mesh, [{}, {"_axis_0"}]>} loc("p139.931"), %arg140: tensor<9728x2560xbf16> {sdy.sharding = #sdy.sharding<@mesh, [{"_axis_0"}, {}]>} loc("p140.936"), %arg141: tensor<2560xbf16> {sdy.sharding = #sdy.sharding<@mesh, [{}]>} loc("p141.941"), %arg142: tensor<2560x4096xbf16> {sdy.sharding = #sdy.sharding<@mesh, [{}, {"_axis_0"}]>} loc("p142.951"), %arg143: tensor<1024x2560xbf16> {sdy.sharding = #sdy.sharding<@mesh, [{"_axis_0"}, {}]>} loc("p143.956"), %arg144: tensor<2560xbf16> {sdy.sharding = #sdy.sharding<@mesh, [{}]>} loc("p144.961"), %arg145: tensor<2560x9728xbf16> {sdy.sharding = #sdy.sharding<@mesh, [{}, {"_axis_0"}]>} loc("p145.971"), %arg146: tensor<9728x2560xbf16> {sdy.sharding = #sdy.sharding<@mesh, [{"_axis_0"}, {}]>} loc("p146.976"), %arg147: tensor<2560xbf16> {sdy.sharding = #sdy.sharding<@mesh, [{}]>} loc("p147.981"), %arg148: tensor<2560x4096xbf16> {sdy.sharding = #sdy.sharding<@mesh, [{}, {"_axis_0"}]>} loc("p148.991"), %arg149: tensor<1024x2560xbf16> {sdy.sharding = #sdy.sharding<@mesh, [{"_axis_0"}, {}]>} loc("p149.996"), %arg150: tensor<2560xbf16> {sdy.sharding = #sdy.sharding<@mesh, [{}]>} loc("p150.1001"), %arg151: tensor<2560x9728xbf16> {sdy.sharding = #sdy.sharding<@mesh, [{}, {"_axis_0"}]>} loc("p151.1011"), %arg152: tensor<9728x2560xbf16> {sdy.sharding = #sdy.sharding<@mesh, [{"_axis_0"}, {}]>} loc("p152.1016"), %arg153: tensor<2560xbf16> {sdy.sharding = #sdy.sharding<@mesh, [{}]>} loc("p153.1021"), %arg154: tensor<2560x4096xbf16> {sdy.sharding = #sdy.sharding<@mesh, [{}, {"_axis_0"}]>} loc("p154.1031"), %arg155: tensor<1024x2560xbf16> {sdy.sharding = #sdy.sharding<@mesh, [{"_axis_0"}, {}]>} loc("p155.1036"), %arg156: tensor<2560xbf16> {sdy.sharding = #sdy.sharding<@mesh, [{}]>} loc("p156.1041"), %arg157: tensor<2560x9728xbf16> {sdy.sharding = #sdy.sharding<@mesh, [{}, {"_axis_0"}]>} loc("p157.1051"), %arg158: tensor<9728x2560xbf16> {sdy.sharding = #sdy.sharding<@mesh, [{"_axis_0"}, {}]>} loc("p158.1056"), %arg159: tensor<2560xbf16> {sdy.sharding = #sdy.sharding<@mesh, [{}]>} loc("p159.1061"), %arg160: tensor<2560x4096xbf16> {sdy.sharding = #sdy.sharding<@mesh, [{}, {"_axis_0"}]>} loc("p160.1071"), %arg161: tensor<1024x2560xbf16> {sdy.sharding = #sdy.sharding<@mesh, [{"_axis_0"}, {}]>} loc("p161.1076"), %arg162: tensor<2560xbf16> {sdy.sharding = #sdy.sharding<@mesh, [{}]>} loc("p162.1081"), %arg163: tensor<2560x9728xbf16> {sdy.sharding = #sdy.sharding<@mesh, [{}, {"_axis_0"}]>} loc("p163.1091"), %arg164: tensor<9728x2560xbf16> {sdy.sharding = #sdy.sharding<@mesh, [{"_axis_0"}, {}]>} loc("p164.1096"), %arg165: tensor<2560xbf16> {sdy.sharding = #sdy.sharding<@mesh, [{}]>} loc("p165.1101"), %arg166: tensor<2560x4096xbf16> {sdy.sharding = #sdy.sharding<@mesh, [{}, {"_axis_0"}]>} loc("p166.1111"), %arg167: tensor<1024x2560xbf16> {sdy.sharding = #sdy.sharding<@mesh, [{"_axis_0"}, {}]>} loc("p167.1116"), %arg168: tensor<2560xbf16> {sdy.sharding = #sdy.sharding<@mesh, [{}]>} loc("p168.1121"), %arg169: tensor<2560x9728xbf16> {sdy.sharding = #sdy.sharding<@mesh, [{}, {"_axis_0"}]>} loc("p169.1131"), %arg170: tensor<9728x2560xbf16> {sdy.sharding = #sdy.sharding<@mesh, [{"_axis_0"}, {}]>} loc("p170.1136"), %arg171: tensor<2560xbf16> {sdy.sharding = #sdy.sharding<@mesh, [{}]>} loc("p171.1141"), %arg172: tensor<2560x4096xbf16> {sdy.sharding = #sdy.sharding<@mesh, [{}, {"_axis_0"}]>} loc("p172.1151"), %arg173: tensor<1024x2560xbf16> {sdy.sharding = #sdy.sharding<@mesh, [{"_axis_0"}, {}]>} loc("p173.1156"), %arg174: tensor<2560xbf16> {sdy.sharding = #sdy.sharding<@mesh, [{}]>} loc("p174.1161"), %arg175: tensor<2560x9728xbf16> {sdy.sharding = #sdy.sharding<@mesh, [{}, {"_axis_0"}]>} loc("p175.1171"), %arg176: tensor<9728x2560xbf16> {sdy.sharding = #sdy.sharding<@mesh, [{"_axis_0"}, {}]>} loc("p176.1176"), %arg177: tensor<2560xbf16> {sdy.sharding = #sdy.sharding<@mesh, [{}]>} loc("p177.1181"), %arg178: tensor<2560x4096xbf16> {sdy.sharding = #sdy.sharding<@mesh, [{}, {"_axis_0"}]>} loc("p178.1191"), %arg179: tensor<1024x2560xbf16> {sdy.sharding = #sdy.sharding<@mesh, [{"_axis_0"}, {}]>} loc("p179.1196"), %arg180: tensor<2560xbf16> {sdy.sharding = #sdy.sharding<@mesh, [{}]>} loc("p180.1201"), %arg181: tensor<2560x9728xbf16> {sdy.sharding = #sdy.sharding<@mesh, [{}, {"_axis_0"}]>} loc("p181.1211"), %arg182: tensor<9728x2560xbf16> {sdy.sharding = #sdy.sharding<@mesh, [{"_axis_0"}, {}]>} loc("p182.1216"), %arg183: tensor<2560xbf16> {sdy.sharding = #sdy.sharding<@mesh, [{}]>} loc("p183.1221"), %arg184: tensor<2560x4096xbf16> {sdy.sharding = #sdy.sharding<@mesh, [{}, {"_axis_0"}]>} loc("p184.1231"), %arg185: tensor<1024x2560xbf16> {sdy.sharding = #sdy.sharding<@mesh, [{"_axis_0"}, {}]>} loc("p185.1236"), %arg186: tensor<2560xbf16> {sdy.sharding = #sdy.sharding<@mesh, [{}]>} loc("p186.1241"), %arg187: tensor<2560x9728xbf16> {sdy.sharding = #sdy.sharding<@mesh, [{}, {"_axis_0"}]>} loc("p187.1251"), %arg188: tensor<9728x2560xbf16> {sdy.sharding = #sdy.sharding<@mesh, [{"_axis_0"}, {}]>} loc("p188.1256"), %arg189: tensor<2560xbf16> {sdy.sharding = #sdy.sharding<@mesh, [{}]>} loc("p189.1261"), %arg190: tensor<2560x4096xbf16> {sdy.sharding = #sdy.sharding<@mesh, [{}, {"_axis_0"}]>} loc("p190.1271"), %arg191: tensor<1024x2560xbf16> {sdy.sharding = #sdy.sharding<@mesh, [{"_axis_0"}, {}]>} loc("p191.1276"), %arg192: tensor<2560xbf16> {sdy.sharding = #sdy.sharding<@mesh, [{}]>} loc("p192.1281"), %arg193: tensor<2560x9728xbf16> {sdy.sharding = #sdy.sharding<@mesh, [{}, {"_axis_0"}]>} loc("p193.1291"), %arg194: tensor<9728x2560xbf16> {sdy.sharding = #sdy.sharding<@mesh, [{"_axis_0"}, {}]>} loc("p194.1296"), %arg195: tensor<2560xbf16> {sdy.sharding = #sdy.sharding<@mesh, [{}]>} loc("p195.1301"), %arg196: tensor<2560x4096xbf16> {sdy.sharding = #sdy.sharding<@mesh, [{}, {"_axis_0"}]>} loc("p196.1311"), %arg197: tensor<1024x2560xbf16> {sdy.sharding = #sdy.sharding<@mesh, [{"_axis_0"}, {}]>} loc("p197.1316"), %arg198: tensor<2560xbf16> {sdy.sharding = #sdy.sharding<@mesh, [{}]>} loc("p198.1321"), %arg199: tensor<2560x9728xbf16> {sdy.sharding = #sdy.sharding<@mesh, [{}, {"_axis_0"}]>} loc("p199.1331"), %arg200: tensor<9728x2560xbf16> {sdy.sharding = #sdy.sharding<@mesh, [{"_axis_0"}, {}]>} loc("p200.1336"), %arg201: tensor<2560xbf16> {sdy.sharding = #sdy.sharding<@mesh, [{}]>} loc("p201.1341"), %arg202: tensor<2560x4096xbf16> {sdy.sharding = #sdy.sharding<@mesh, [{}, {"_axis_0"}]>} loc("p202.1351"), %arg203: tensor<1024x2560xbf16> {sdy.sharding = #sdy.sharding<@mesh, [{"_axis_0"}, {}]>} loc("p203.1356"), %arg204: tensor<2560xbf16> {sdy.sharding = #sdy.sharding<@mesh, [{}]>} loc("p204.1361"), %arg205: tensor<2560x9728xbf16> {sdy.sharding = #sdy.sharding<@mesh, [{}, {"_axis_0"}]>} loc("p205.1371"), %arg206: tensor<9728x2560xbf16> {sdy.sharding = #sdy.sharding<@mesh, [{"_axis_0"}, {}]>} loc("p206.1376"), %arg207: tensor<2560xbf16> {sdy.sharding = #sdy.sharding<@mesh, [{}]>} loc("p207.1381"), %arg208: tensor<2560x4096xbf16> {sdy.sharding = #sdy.sharding<@mesh, [{}, {"_axis_0"}]>} loc("p208.1391"), %arg209: tensor<1024x2560xbf16> {sdy.sharding = #sdy.sharding<@mesh, [{"_axis_0"}, {}]>} loc("p209.1396"), %arg210: tensor<2560xbf16> {sdy.sharding = #sdy.sharding<@mesh, [{}]>} loc("p210.1401"), %arg211: tensor<2560x9728xbf16> {sdy.sharding = #sdy.sharding<@mesh, [{}, {"_axis_0"}]>} loc("p211.1411"), %arg212: tensor<9728x2560xbf16> {sdy.sharding = #sdy.sharding<@mesh, [{"_axis_0"}, {}]>} loc("p212.1416"), %arg213: tensor<2560xbf16> {sdy.sharding = #sdy.sharding<@mesh, [{}]>} loc("p213.1421"), %arg214: tensor<2560x4096xbf16> {sdy.sharding = #sdy.sharding<@mesh, [{}, {"_axis_0"}]>} loc("p214.1431"), %arg215: tensor<1024x2560xbf16> {sdy.sharding = #sdy.sharding<@mesh, [{"_axis_0"}, {}]>} loc("p215.1436"), %arg216: tensor<2560xbf16> {sdy.sharding = #sdy.sharding<@mesh, [{}]>} loc("p216.1441"), %arg217: tensor<1x7xi64> {sdy.sharding = #sdy.sharding<@mesh, [{}, {}]>} loc("p217.1450"), %arg218: tensor<151936x2560xbf16> {sdy.sharding = #sdy.sharding<@mesh, [{}, {}]>} loc("p218.1455"), %arg219: tensor<i1> {sdy.sharding = #sdy.sharding<@mesh, []>} loc("p219.1625"), %arg220: tensor<64xf32> {sdy.sharding = #sdy.sharding<@mesh, [{}]>} loc("p220.1644"), %arg221: tensor<128xbf16> {sdy.sharding = #sdy.sharding<@mesh, [{}]>} loc("p221.1660"), %arg222: tensor<1024x2560xbf16> {sdy.sharding = #sdy.sharding<@mesh, [{"_axis_0"}, {}]>} loc("p222.1669"), %arg223: tensor<128xbf16> {sdy.sharding = #sdy.sharding<@mesh, [{}]>} loc("p223.1742"), %arg224: tensor<4096x2560xbf16> {sdy.sharding = #sdy.sharding<@mesh, [{"_axis_0"}, {}]>} loc("p224.1751"), %arg225: tensor<9728x2560xbf16> {sdy.sharding = #sdy.sharding<@mesh, [{"_axis_0"}, {}]>} loc("p225.1917"), %arg226: tensor<128xbf16> {sdy.sharding = #sdy.sharding<@mesh, [{}]>} loc("p226.1998"), %arg227: tensor<1024x2560xbf16> {sdy.sharding = #sdy.sharding<@mesh, [{"_axis_0"}, {}]>} loc("p227.2007"), %arg228: tensor<128xbf16> {sdy.sharding = #sdy.sharding<@mesh, [{}]>} loc("p228.2075"), %arg229: tensor<4096x2560xbf16> {sdy.sharding = #sdy.sharding<@mesh, [{"_axis_0"}, {}]>} loc("p229.2084"), %arg230: tensor<9728x2560xbf16> {sdy.sharding = #sdy.sharding<@mesh, [{"_axis_0"}, {}]>} loc("p230.2250"), %arg231: tensor<128xbf16> {sdy.sharding = #sdy.sharding<@mesh, [{}]>} loc("p231.2331"), %arg232: tensor<1024x2560xbf16> {sdy.sharding = #sdy.sharding<@mesh, [{"_axis_0"}, {}]>} loc("p232.2340"), %arg233: tensor<128xbf16> {sdy.sharding = #sdy.sharding<@mesh, [{}]>} loc("p233.2408"), %arg234: tensor<4096x2560xbf16> {sdy.sharding = #sdy.sharding<@mesh, [{"_axis_0"}, {}]>} loc("p234.2417"), %arg235: tensor<9728x2560xbf16> {sdy.sharding = #sdy.sharding<@mesh, [{"_axis_0"}, {}]>} loc("p235.2583"), %arg236: tensor<128xbf16> {sdy.sharding = #sdy.sharding<@mesh, [{}]>} loc("p236.2664"), %arg237: tensor<1024x2560xbf16> {sdy.sharding = #sdy.sharding<@mesh, [{"_axis_0"}, {}]>} loc("p237.2673"), %arg238: tensor<128xbf16> {sdy.sharding = #sdy.sharding<@mesh, [{}]>} loc("p238.2741"), %arg239: tensor<4096x2560xbf16> {sdy.sharding = #sdy.sharding<@mesh, [{"_axis_0"}, {}]>} loc("p239.2750"), %arg240: tensor<9728x2560xbf16> {sdy.sharding = #sdy.sharding<@mesh, [{"_axis_0"}, {}]>} loc("p240.2916"), %arg241: tensor<128xbf16> {sdy.sharding = #sdy.sharding<@mesh, [{}]>} loc("p241.2997"), %arg242: tensor<1024x2560xbf16> {sdy.sharding = #sdy.sharding<@mesh, [{"_axis_0"}, {}]>} loc("p242.3006"), %arg243: tensor<128xbf16> {sdy.sharding = #sdy.sharding<@mesh, [{}]>} loc("p243.3074"), %arg244: tensor<4096x2560xbf16> {sdy.sharding = #sdy.sharding<@mesh, [{"_axis_0"}, {}]>} loc("p244.3083"), %arg245: tensor<9728x2560xbf16> {sdy.sharding = #sdy.sharding<@mesh, [{"_axis_0"}, {}]>} loc("p245.3249"), %arg246: tensor<128xbf16> {sdy.sharding = #sdy.sharding<@mesh, [{}]>} loc("p246.3330"), %arg247: tensor<1024x2560xbf16> {sdy.sharding = #sdy.sharding<@mesh, [{"_axis_0"}, {}]>} loc("p247.3339"), %arg248: tensor<128xbf16> {sdy.sharding = #sdy.sharding<@mesh, [{}]>} loc("p248.3407"), %arg249: tensor<4096x2560xbf16> {sdy.sharding = #sdy.sharding<@mesh, [{"_axis_0"}, {}]>} loc("p249.3416"), %arg250: tensor<9728x2560xbf16> {sdy.sharding = #sdy.sharding<@mesh, [{"_axis_0"}, {}]>} loc("p250.3582"), %arg251: tensor<128xbf16> {sdy.sharding = #sdy.sharding<@mesh, [{}]>} loc("p251.3663"), %arg252: tensor<1024x2560xbf16> {sdy.sharding = #sdy.sharding<@mesh, [{"_axis_0"}, {}]>} loc("p252.3672"), %arg253: tensor<128xbf16> {sdy.sharding = #sdy.sharding<@mesh, [{}]>} loc("p253.3740"), %arg254: tensor<4096x2560xbf16> {sdy.sharding = #sdy.sharding<@mesh, [{"_axis_0"}, {}]>} loc("p254.3749"), %arg255: tensor<9728x2560xbf16> {sdy.sharding = #sdy.sharding<@mesh, [{"_axis_0"}, {}]>} loc("p255.3915"), %arg256: tensor<128xbf16> {sdy.sharding = #sdy.sharding<@mesh, [{}]>} loc("p256.3996"), %arg257: tensor<1024x2560xbf16> {sdy.sharding = #sdy.sharding<@mesh, [{"_axis_0"}, {}]>} loc("p257.4005"), %arg258: tensor<128xbf16> {sdy.sharding = #sdy.sharding<@mesh, [{}]>} loc("p258.4073"), %arg259: tensor<4096x2560xbf16> {sdy.sharding = #sdy.sharding<@mesh, [{"_axis_0"}, {}]>} loc("p259.4082"), %arg260: tensor<9728x2560xbf16> {sdy.sharding = #sdy.sharding<@mesh, [{"_axis_0"}, {}]>} loc("p260.4248"), %arg261: tensor<128xbf16> {sdy.sharding = #sdy.sharding<@mesh, [{}]>} loc("p261.4329"), %arg262: tensor<1024x2560xbf16> {sdy.sharding = #sdy.sharding<@mesh, [{"_axis_0"}, {}]>} loc("p262.4338"), %arg263: tensor<128xbf16> {sdy.sharding = #sdy.sharding<@mesh, [{}]>} loc("p263.4406"), %arg264: tensor<4096x2560xbf16> {sdy.sharding = #sdy.sharding<@mesh, [{"_axis_0"}, {}]>} loc("p264.4415"), %arg265: tensor<9728x2560xbf16> {sdy.sharding = #sdy.sharding<@mesh, [{"_axis_0"}, {}]>} loc("p265.4581"), %arg266: tensor<128xbf16> {sdy.sharding = #sdy.sharding<@mesh, [{}]>} loc("p266.4662"), %arg267: tensor<1024x2560xbf16> {sdy.sharding = #sdy.sharding<@mesh, [{"_axis_0"}, {}]>} loc("p267.4671"), %arg268: tensor<128xbf16> {sdy.sharding = #sdy.sharding<@mesh, [{}]>} loc("p268.4739"), %arg269: tensor<4096x2560xbf16> {sdy.sharding = #sdy.sharding<@mesh, [{"_axis_0"}, {}]>} loc("p269.4748"), %arg270: tensor<9728x2560xbf16> {sdy.sharding = #sdy.sharding<@mesh, [{"_axis_0"}, {}]>} loc("p270.4914"), %arg271: tensor<128xbf16> {sdy.sharding = #sdy.sharding<@mesh, [{}]>} loc("p271.4995"), %arg272: tensor<1024x2560xbf16> {sdy.sharding = #sdy.sharding<@mesh, [{"_axis_0"}, {}]>} loc("p272.5004"), %arg273: tensor<128xbf16> {sdy.sharding = #sdy.sharding<@mesh, [{}]>} loc("p273.5072"), %arg274: tensor<4096x2560xbf16> {sdy.sharding = #sdy.sharding<@mesh, [{"_axis_0"}, {}]>} loc("p274.5081"), %arg275: tensor<9728x2560xbf16> {sdy.sharding = #sdy.sharding<@mesh, [{"_axis_0"}, {}]>} loc("p275.5247"), %arg276: tensor<128xbf16> {sdy.sharding = #sdy.sharding<@mesh, [{}]>} loc("p276.5328"), %arg277: tensor<1024x2560xbf16> {sdy.sharding = #sdy.sharding<@mesh, [{"_axis_0"}, {}]>} loc("p277.5337"), %arg278: tensor<128xbf16> {sdy.sharding = #sdy.sharding<@mesh, [{}]>} loc("p278.5405"), %arg279: tensor<4096x2560xbf16> {sdy.sharding = #sdy.sharding<@mesh, [{"_axis_0"}, {}]>} loc("p279.5414"), %arg280: tensor<9728x2560xbf16> {sdy.sharding = #sdy.sharding<@mesh, [{"_axis_0"}, {}]>} loc("p280.5580"), %arg281: tensor<128xbf16> {sdy.sharding = #sdy.sharding<@mesh, [{}]>} loc("p281.5661"), %arg282: tensor<1024x2560xbf16> {sdy.sharding = #sdy.sharding<@mesh, [{"_axis_0"}, {}]>} loc("p282.5670"), %arg283: tensor<128xbf16> {sdy.sharding = #sdy.sharding<@mesh, [{}]>} loc("p283.5738"), %arg284: tensor<4096x2560xbf16> {sdy.sharding = #sdy.sharding<@mesh, [{"_axis_0"}, {}]>} loc("p284.5747"), %arg285: tensor<9728x2560xbf16> {sdy.sharding = #sdy.sharding<@mesh, [{"_axis_0"}, {}]>} loc("p285.5913"), %arg286: tensor<128xbf16> {sdy.sharding = #sdy.sharding<@mesh, [{}]>} loc("p286.5994"), %arg287: tensor<1024x2560xbf16> {sdy.sharding = #sdy.sharding<@mesh, [{"_axis_0"}, {}]>} loc("p287.6003"), %arg288: tensor<128xbf16> {sdy.sharding = #sdy.sharding<@mesh, [{}]>} loc("p288.6071"), %arg289: tensor<4096x2560xbf16> {sdy.sharding = #sdy.sharding<@mesh, [{"_axis_0"}, {}]>} loc("p289.6080"), %arg290: tensor<9728x2560xbf16> {sdy.sharding = #sdy.sharding<@mesh, [{"_axis_0"}, {}]>} loc("p290.6246"), %arg291: tensor<128xbf16> {sdy.sharding = #sdy.sharding<@mesh, [{}]>} loc("p291.6327"), %arg292: tensor<1024x2560xbf16> {sdy.sharding = #sdy.sharding<@mesh, [{"_axis_0"}, {}]>} loc("p292.6336"), %arg293: tensor<128xbf16> {sdy.sharding = #sdy.sharding<@mesh, [{}]>} loc("p293.6404"), %arg294: tensor<4096x2560xbf16> {sdy.sharding = #sdy.sharding<@mesh, [{"_axis_0"}, {}]>} loc("p294.6413"), %arg295: tensor<9728x2560xbf16> {sdy.sharding = #sdy.sharding<@mesh, [{"_axis_0"}, {}]>} loc("p295.6579"), %arg296: tensor<128xbf16> {sdy.sharding = #sdy.sharding<@mesh, [{}]>} loc("p296.6660"), %arg297: tensor<1024x2560xbf16> {sdy.sharding = #sdy.sharding<@mesh, [{"_axis_0"}, {}]>} loc("p297.6669"), %arg298: tensor<128xbf16> {sdy.sharding = #sdy.sharding<@mesh, [{}]>} loc("p298.6737"), %arg299: tensor<4096x2560xbf16> {sdy.sharding = #sdy.sharding<@mesh, [{"_axis_0"}, {}]>} loc("p299.6746"), %arg300: tensor<9728x2560xbf16> {sdy.sharding = #sdy.sharding<@mesh, [{"_axis_0"}, {}]>} loc("p300.6912"), %arg301: tensor<128xbf16> {sdy.sharding = #sdy.sharding<@mesh, [{}]>} loc("p301.6993"), %arg302: tensor<1024x2560xbf16> {sdy.sharding = #sdy.sharding<@mesh, [{"_axis_0"}, {}]>} loc("p302.7002"), %arg303: tensor<128xbf16> {sdy.sharding = #sdy.sharding<@mesh, [{}]>} loc("p303.7070"), %arg304: tensor<4096x2560xbf16> {sdy.sharding = #sdy.sharding<@mesh, [{"_axis_0"}, {}]>} loc("p304.7079"), %arg305: tensor<9728x2560xbf16> {sdy.sharding = #sdy.sharding<@mesh, [{"_axis_0"}, {}]>} loc("p305.7245"), %arg306: tensor<128xbf16> {sdy.sharding = #sdy.sharding<@mesh, [{}]>} loc("p306.7326"), %arg307: tensor<1024x2560xbf16> {sdy.sharding = #sdy.sharding<@mesh, [{"_axis_0"}, {}]>} loc("p307.7335"), %arg308: tensor<128xbf16> {sdy.sharding = #sdy.sharding<@mesh, [{}]>} loc("p308.7403"), %arg309: tensor<4096x2560xbf16> {sdy.sharding = #sdy.sharding<@mesh, [{"_axis_0"}, {}]>} loc("p309.7412"), %arg310: tensor<9728x2560xbf16> {sdy.sharding = #sdy.sharding<@mesh, [{"_axis_0"}, {}]>} loc("p310.7578"), %arg311: tensor<128xbf16> {sdy.sharding = #sdy.sharding<@mesh, [{}]>} loc("p311.7659"), %arg312: tensor<1024x2560xbf16> {sdy.sharding = #sdy.sharding<@mesh, [{"_axis_0"}, {}]>} loc("p312.7668"), %arg313: tensor<128xbf16> {sdy.sharding = #sdy.sharding<@mesh, [{}]>} loc("p313.7736"), %arg314: tensor<4096x2560xbf16> {sdy.sharding = #sdy.sharding<@mesh, [{"_axis_0"}, {}]>} loc("p314.7745"), %arg315: tensor<9728x2560xbf16> {sdy.sharding = #sdy.sharding<@mesh, [{"_axis_0"}, {}]>} loc("p315.7911"), %arg316: tensor<128xbf16> {sdy.sharding = #sdy.sharding<@mesh, [{}]>} loc("p316.7992"), %arg317: tensor<1024x2560xbf16> {sdy.sharding = #sdy.sharding<@mesh, [{"_axis_0"}, {}]>} loc("p317.8001"), %arg318: tensor<128xbf16> {sdy.sharding = #sdy.sharding<@mesh, [{}]>} loc("p318.8069"), %arg319: tensor<4096x2560xbf16> {sdy.sharding = #sdy.sharding<@mesh, [{"_axis_0"}, {}]>} loc("p319.8078"), %arg320: tensor<9728x2560xbf16> {sdy.sharding = #sdy.sharding<@mesh, [{"_axis_0"}, {}]>} loc("p320.8244"), %arg321: tensor<128xbf16> {sdy.sharding = #sdy.sharding<@mesh, [{}]>} loc("p321.8325"), %arg322: tensor<1024x2560xbf16> {sdy.sharding = #sdy.sharding<@mesh, [{"_axis_0"}, {}]>} loc("p322.8334"), %arg323: tensor<128xbf16> {sdy.sharding = #sdy.sharding<@mesh, [{}]>} loc("p323.8402"), %arg324: tensor<4096x2560xbf16> {sdy.sharding = #sdy.sharding<@mesh, [{"_axis_0"}, {}]>} loc("p324.8411"), %arg325: tensor<9728x2560xbf16> {sdy.sharding = #sdy.sharding<@mesh, [{"_axis_0"}, {}]>} loc("p325.8577"), %arg326: tensor<128xbf16> {sdy.sharding = #sdy.sharding<@mesh, [{}]>} loc("p326.8658"), %arg327: tensor<1024x2560xbf16> {sdy.sharding = #sdy.sharding<@mesh, [{"_axis_0"}, {}]>} loc("p327.8667"), %arg328: tensor<128xbf16> {sdy.sharding = #sdy.sharding<@mesh, [{}]>} loc("p328.8735"), %arg329: tensor<4096x2560xbf16> {sdy.sharding = #sdy.sharding<@mesh, [{"_axis_0"}, {}]>} loc("p329.8744"), %arg330: tensor<9728x2560xbf16> {sdy.sharding = #sdy.sharding<@mesh, [{"_axis_0"}, {}]>} loc("p330.8910"), %arg331: tensor<128xbf16> {sdy.sharding = #sdy.sharding<@mesh, [{}]>} loc("p331.8991"), %arg332: tensor<1024x2560xbf16> {sdy.sharding = #sdy.sharding<@mesh, [{"_axis_0"}, {}]>} loc("p332.9000"), %arg333: tensor<128xbf16> {sdy.sharding = #sdy.sharding<@mesh, [{}]>} loc("p333.9068"), %arg334: tensor<4096x2560xbf16> {sdy.sharding = #sdy.sharding<@mesh, [{"_axis_0"}, {}]>} loc("p334.9077"), %arg335: tensor<9728x2560xbf16> {sdy.sharding = #sdy.sharding<@mesh, [{"_axis_0"}, {}]>} loc("p335.9243"), %arg336: tensor<128xbf16> {sdy.sharding = #sdy.sharding<@mesh, [{}]>} loc("p336.9324"), %arg337: tensor<1024x2560xbf16> {sdy.sharding = #sdy.sharding<@mesh, [{"_axis_0"}, {}]>} loc("p337.9333"), %arg338: tensor<128xbf16> {sdy.sharding = #sdy.sharding<@mesh, [{}]>} loc("p338.9401"), %arg339: tensor<4096x2560xbf16> {sdy.sharding = #sdy.sharding<@mesh, [{"_axis_0"}, {}]>} loc("p339.9410"), %arg340: tensor<9728x2560xbf16> {sdy.sharding = #sdy.sharding<@mesh, [{"_axis_0"}, {}]>} loc("p340.9576"), %arg341: tensor<128xbf16> {sdy.sharding = #sdy.sharding<@mesh, [{}]>} loc("p341.9657"), %arg342: tensor<1024x2560xbf16> {sdy.sharding = #sdy.sharding<@mesh, [{"_axis_0"}, {}]>} loc("p342.9666"), %arg343: tensor<128xbf16> {sdy.sharding = #sdy.sharding<@mesh, [{}]>} loc("p343.9734"), %arg344: tensor<4096x2560xbf16> {sdy.sharding = #sdy.sharding<@mesh, [{"_axis_0"}, {}]>} loc("p344.9743"), %arg345: tensor<9728x2560xbf16> {sdy.sharding = #sdy.sharding<@mesh, [{"_axis_0"}, {}]>} loc("p345.9909"), %arg346: tensor<128xbf16> {sdy.sharding = #sdy.sharding<@mesh, [{}]>} loc("p346.9990"), %arg347: tensor<1024x2560xbf16> {sdy.sharding = #sdy.sharding<@mesh, [{"_axis_0"}, {}]>} loc("p347.9999"), %arg348: tensor<128xbf16> {sdy.sharding = #sdy.sharding<@mesh, [{}]>} loc("p348.10067"), %arg349: tensor<4096x2560xbf16> {sdy.sharding = #sdy.sharding<@mesh, [{"_axis_0"}, {}]>} loc("p349.10076"), %arg350: tensor<9728x2560xbf16> {sdy.sharding = #sdy.sharding<@mesh, [{"_axis_0"}, {}]>} loc("p350.10242"), %arg351: tensor<128xbf16> {sdy.sharding = #sdy.sharding<@mesh, [{}]>} loc("p351.10323"), %arg352: tensor<1024x2560xbf16> {sdy.sharding = #sdy.sharding<@mesh, [{"_axis_0"}, {}]>} loc("p352.10332"), %arg353: tensor<128xbf16> {sdy.sharding = #sdy.sharding<@mesh, [{}]>} loc("p353.10400"), %arg354: tensor<4096x2560xbf16> {sdy.sharding = #sdy.sharding<@mesh, [{"_axis_0"}, {}]>} loc("p354.10409"), %arg355: tensor<9728x2560xbf16> {sdy.sharding = #sdy.sharding<@mesh, [{"_axis_0"}, {}]>} loc("p355.10575"), %arg356: tensor<128xbf16> {sdy.sharding = #sdy.sharding<@mesh, [{}]>} loc("p356.10656"), %arg357: tensor<1024x2560xbf16> {sdy.sharding = #sdy.sharding<@mesh, [{"_axis_0"}, {}]>} loc("p357.10665"), %arg358: tensor<128xbf16> {sdy.sharding = #sdy.sharding<@mesh, [{}]>} loc("p358.10733"), %arg359: tensor<4096x2560xbf16> {sdy.sharding = #sdy.sharding<@mesh, [{"_axis_0"}, {}]>} loc("p359.10742"), %arg360: tensor<9728x2560xbf16> {sdy.sharding = #sdy.sharding<@mesh, [{"_axis_0"}, {}]>} loc("p360.10908"), %arg361: tensor<128xbf16> {sdy.sharding = #sdy.sharding<@mesh, [{}]>} loc("p361.10989"), %arg362: tensor<1024x2560xbf16> {sdy.sharding = #sdy.sharding<@mesh, [{"_axis_0"}, {}]>} loc("p362.10998"), %arg363: tensor<128xbf16> {sdy.sharding = #sdy.sharding<@mesh, [{}]>} loc("p363.11066"), %arg364: tensor<4096x2560xbf16> {sdy.sharding = #sdy.sharding<@mesh, [{"_axis_0"}, {}]>} loc("p364.11075"), %arg365: tensor<9728x2560xbf16> {sdy.sharding = #sdy.sharding<@mesh, [{"_axis_0"}, {}]>} loc("p365.11241"), %arg366: tensor<128xbf16> {sdy.sharding = #sdy.sharding<@mesh, [{}]>} loc("p366.11322"), %arg367: tensor<1024x2560xbf16> {sdy.sharding = #sdy.sharding<@mesh, [{"_axis_0"}, {}]>} loc("p367.11331"), %arg368: tensor<128xbf16> {sdy.sharding = #sdy.sharding<@mesh, [{}]>} loc("p368.11399"), %arg369: tensor<4096x2560xbf16> {sdy.sharding = #sdy.sharding<@mesh, [{"_axis_0"}, {}]>} loc("p369.11408"), %arg370: tensor<9728x2560xbf16> {sdy.sharding = #sdy.sharding<@mesh, [{"_axis_0"}, {}]>} loc("p370.11574"), %arg371: tensor<128xbf16> {sdy.sharding = #sdy.sharding<@mesh, [{}]>} loc("p371.11655"), %arg372: tensor<1024x2560xbf16> {sdy.sharding = #sdy.sharding<@mesh, [{"_axis_0"}, {}]>} loc("p372.11664"), %arg373: tensor<128xbf16> {sdy.sharding = #sdy.sharding<@mesh, [{}]>} loc("p373.11732"), %arg374: tensor<4096x2560xbf16> {sdy.sharding = #sdy.sharding<@mesh, [{"_axis_0"}, {}]>} loc("p374.11741"), %arg375: tensor<9728x2560xbf16> {sdy.sharding = #sdy.sharding<@mesh, [{"_axis_0"}, {}]>} loc("p375.11907"), %arg376: tensor<128xbf16> {sdy.sharding = #sdy.sharding<@mesh, [{}]>} loc("p376.11988"), %arg377: tensor<1024x2560xbf16> {sdy.sharding = #sdy.sharding<@mesh, [{"_axis_0"}, {}]>} loc("p377.11997"), %arg378: tensor<128xbf16> {sdy.sharding = #sdy.sharding<@mesh, [{}]>} loc("p378.12065"), %arg379: tensor<4096x2560xbf16> {sdy.sharding = #sdy.sharding<@mesh, [{"_axis_0"}, {}]>} loc("p379.12074"), %arg380: tensor<9728x2560xbf16> {sdy.sharding = #sdy.sharding<@mesh, [{"_axis_0"}, {}]>} loc("p380.12240"), %arg381: tensor<128xbf16> {sdy.sharding = #sdy.sharding<@mesh, [{}]>} loc("p381.12321"), %arg382: tensor<1024x2560xbf16> {sdy.sharding = #sdy.sharding<@mesh, [{"_axis_0"}, {}]>} loc("p382.12330"), %arg383: tensor<128xbf16> {sdy.sharding = #sdy.sharding<@mesh, [{}]>} loc("p383.12398"), %arg384: tensor<4096x2560xbf16> {sdy.sharding = #sdy.sharding<@mesh, [{"_axis_0"}, {}]>} loc("p384.12407"), %arg385: tensor<9728x2560xbf16> {sdy.sharding = #sdy.sharding<@mesh, [{"_axis_0"}, {}]>} loc("p385.12573"), %arg386: tensor<128xbf16> {sdy.sharding = #sdy.sharding<@mesh, [{}]>} loc("p386.12654"), %arg387: tensor<1024x2560xbf16> {sdy.sharding = #sdy.sharding<@mesh, [{"_axis_0"}, {}]>} loc("p387.12663"), %arg388: tensor<128xbf16> {sdy.sharding = #sdy.sharding<@mesh, [{}]>} loc("p388.12731"), %arg389: tensor<4096x2560xbf16> {sdy.sharding = #sdy.sharding<@mesh, [{"_axis_0"}, {}]>} loc("p389.12740"), %arg390: tensor<9728x2560xbf16> {sdy.sharding = #sdy.sharding<@mesh, [{"_axis_0"}, {}]>} loc("p390.12906"), %arg391: tensor<128xbf16> {sdy.sharding = #sdy.sharding<@mesh, [{}]>} loc("p391.12987"), %arg392: tensor<1024x2560xbf16> {sdy.sharding = #sdy.sharding<@mesh, [{"_axis_0"}, {}]>} loc("p392.12996"), %arg393: tensor<128xbf16> {sdy.sharding = #sdy.sharding<@mesh, [{}]>} loc("p393.13064"), %arg394: tensor<4096x2560xbf16> {sdy.sharding = #sdy.sharding<@mesh, [{"_axis_0"}, {}]>} loc("p394.13073"), %arg395: tensor<9728x2560xbf16> {sdy.sharding = #sdy.sharding<@mesh, [{"_axis_0"}, {}]>} loc("p395.13239"), %arg396: tensor<128xbf16> {sdy.sharding = #sdy.sharding<@mesh, [{}]>} loc("p396.13320"), %arg397: tensor<1024x2560xbf16> {sdy.sharding = #sdy.sharding<@mesh, [{"_axis_0"}, {}]>} loc("p397.13329"), %arg398: tensor<128xbf16> {sdy.sharding = #sdy.sharding<@mesh, [{}]>} loc("p398.13397"), %arg399: tensor<4096x2560xbf16> {sdy.sharding = #sdy.sharding<@mesh, [{"_axis_0"}, {}]>} loc("p399.13406"), %arg400: tensor<9728x2560xbf16> {sdy.sharding = #sdy.sharding<@mesh, [{"_axis_0"}, {}]>} loc("p400.13572")) -> tensor<1x7x2560xbf16> {
    %0 = sdy.constant dense<0.000000e+00> : tensor<f32> loc(#loc)
    %1 = stablehlo.broadcast_in_dim %0, dims = [] : (tensor<f32>) -> tensor<1x32x7x7xf32> loc(#loc)
    %2 = sdy.constant dense<0xFFF0000000000000> : tensor<f64> loc(#loc)
    %3 = stablehlo.broadcast_in_dim %2, dims = [] : (tensor<f64>) -> tensor<1x32x7x7xf64> loc(#loc)
    %4 = sdy.constant dense<0xFF80> : tensor<bf16> loc(#loc)
    %5 = stablehlo.broadcast_in_dim %4, dims = [] : (tensor<bf16>) -> tensor<1x1x7x7xbf16> loc(#loc)
    %6 = sdy.constant dense<0.000000e+00> : tensor<bf16> loc(#loc)
    %7 = stablehlo.broadcast_in_dim %6, dims = [] : (tensor<bf16>) -> tensor<1x1x7x7xbf16> loc(#loc)
    %8 = sdy.constant dense<[[[[[0, 0], [0, 1], [0, 2], [0, 3], [0, 4], [0, 5], [0, 6]]]]]> : tensor<1x1x1x7x2xi64> loc(#loc)
    %9 = sdy.constant dense<[[[[[0, 0]], [[0, 1]], [[0, 2]], [[0, 3]], [[0, 4]], [[0, 5]], [[0, 6]]]]]> : tensor<1x1x7x1x2xi64> loc(#loc)
    %10 = sdy.constant dense<0> : tensor<1x7xi32> loc(#loc)
    %11 = sdy.constant dense<[[[0, 1, 2, 3, 4, 5, 6]]]> : tensor<1x1x7xi64> loc(#loc)
    %12 = sdy.constant dense<0.297301769> : tensor<f32> loc(#loc)
    %13 = stablehlo.broadcast_in_dim %12, dims = [] : (tensor<f32>) -> tensor<1x32x128x7xf32> loc(#loc)
    %14 = sdy.constant dense<0.297301769> : tensor<f32> loc(#loc)
    %15 = stablehlo.broadcast_in_dim %14, dims = [] : (tensor<f32>) -> tensor<1x32x7x128xf32> loc(#loc)
    %16 = sdy.constant dense<[[[0.000000e+00, 1.000000e+00, 2.000000e+00, 3.000000e+00, 4.000000e+00, 5.000000e+00, 6.000000e+00]]]> : tensor<1x1x7xf32> loc(#loc)
    %17 = sdy.constant dense<0xFF800000> : tensor<f32> loc(#loc)
    %18 = sdy.constant dense<false> : tensor<i1> loc(#loc)
    %19 = sdy.constant dense<0> : tensor<i32> loc(#loc)
    %20 = sdy.constant dense<0.000000e+00> : tensor<f32> loc(#loc)
    %21 = stablehlo.reshape %arg218 : (tensor<151936x2560xbf16>) -> tensor<1x151936x2560xbf16> loc(#loc402)
    %22 = stablehlo.custom_call @tt.mark_argument(%21) {api_version = 0 : i32, mhlo.frontend_attributes = {ttcore.argument_type = "parameter", ttir.name = "embed_tokens.weight"}} : (tensor<1x151936x2560xbf16>) -> tensor<1x151936x2560xbf16> loc(#loc403)
    %23 = stablehlo.reshape %22 : (tensor<1x151936x2560xbf16>) -> tensor<151936x2560xbf16> loc(#loc404)
    %24 = stablehlo.reshape %arg217 : (tensor<1x7xi64>) -> tensor<1x1x7xi64> loc(#loc405)
    %25 = stablehlo.custom_call @tt.mark_argument(%24) {api_version = 0 : i32, mhlo.frontend_attributes = {ttcore.argument_type = "input", ttir.name = "args_0"}} : (tensor<1x1x7xi64>) -> tensor<1x1x7xi64> loc(#loc406)
    %26 = stablehlo.reshape %25 : (tensor<1x1x7xi64>) -> tensor<7xi64> loc(#loc407)
    %27 = stablehlo.convert %26 : (tensor<7xi64>) -> tensor<7xui32> loc(#loc408)
    %28 = "stablehlo.gather"(%23, %27) <{dimension_numbers = #stablehlo.gather<offset_dims = [1], collapsed_slice_dims = [0], start_index_map = [0], index_vector_dim = 1>, slice_sizes = array<i64: 1, 2560>}> : (tensor<151936x2560xbf16>, tensor<7xui32>) -> tensor<7x2560xbf16> loc(#loc409)
    %29 = stablehlo.reshape %28 : (tensor<7x2560xbf16>) -> tensor<1x7x2560xbf16> loc(#loc410)
    %30 = stablehlo.reshape %arg216 : (tensor<2560xbf16>) -> tensor<1x1x2560xbf16> loc(#loc411)
    %31 = stablehlo.custom_call @tt.mark_argument(%30) {api_version = 0 : i32, mhlo.frontend_attributes = {ttcore.argument_type = "parameter", ttir.name = "L__self___layers__modules__0___input_layernorm_weight"}} : (tensor<1x1x2560xbf16>) -> tensor<1x1x2560xbf16> loc(#loc412)
    %32 = stablehlo.reshape %31 : (tensor<1x1x2560xbf16>) -> tensor<2560xbf16> loc(#loc413)
    %33 = stablehlo.composite "tenstorrent.rms_norm" %29, %32 {composite_attributes = {epsilon = 9.99999997E-7 : f32, normalized_shape = dense<2560> : tensor<1xi64>}, decomposition = @tenstorrent.rms_norm.impl_63} : (tensor<1x7x2560xbf16>, tensor<2560xbf16>) -> tensor<1x7x2560xbf16> loc(#loc414)
    %34 = stablehlo.reshape %33 : (tensor<1x7x2560xbf16>) -> tensor<7x2560xbf16> loc(#loc415)
    %35 = stablehlo.reshape %arg224 : (tensor<4096x2560xbf16>) -> tensor<1x4096x2560xbf16> loc(#loc416)
    %36 = stablehlo.custom_call @tt.mark_argument(%35) {api_version = 0 : i32, mhlo.frontend_attributes = {ttcore.argument_type = "parameter", ttir.name = "L__self___layers__modules__0___self_attn_q_proj.weight"}} : (tensor<1x4096x2560xbf16>) -> tensor<1x4096x2560xbf16> loc(#loc417)
    %37 = stablehlo.reshape %36 : (tensor<1x4096x2560xbf16>) -> tensor<4096x2560xbf16> loc(#loc418)
    %38 = stablehlo.transpose %37, dims = [1, 0] {result_layout = dense<[0, 1]> : tensor<2xindex>, xla_shape = "bf16[2560,4096]{0,1}"} : (tensor<4096x2560xbf16>) -> tensor<2560x4096xbf16> loc(#loc419)
    %39 = stablehlo.dot_general %34, %38, contracting_dims = [1] x [0] : (tensor<7x2560xbf16>, tensor<2560x4096xbf16>) -> tensor<7x4096xbf16> loc(#loc420)
    %40 = stablehlo.reshape %39 : (tensor<7x4096xbf16>) -> tensor<1x7x32x128xbf16> loc(#loc421)
    %41 = stablehlo.reshape %arg223 : (tensor<128xbf16>) -> tensor<1x1x128xbf16> loc(#loc422)
    %42 = stablehlo.custom_call @tt.mark_argument(%41) {api_version = 0 : i32, mhlo.frontend_attributes = {ttcore.argument_type = "parameter", ttir.name = "L__self___layers__modules__0___self_attn_q_norm_weight"}} : (tensor<1x1x128xbf16>) -> tensor<1x1x128xbf16> loc(#loc423)
    %43 = stablehlo.reshape %42 : (tensor<1x1x128xbf16>) -> tensor<128xbf16> loc(#loc424)
    %44 = stablehlo.composite "tenstorrent.rms_norm" %40, %43 {composite_attributes = {epsilon = 9.99999997E-7 : f32, normalized_shape = dense<128> : tensor<1xi64>}, decomposition = @tenstorrent.rms_norm.impl_46} : (tensor<1x7x32x128xbf16>, tensor<128xbf16>) -> tensor<1x7x32x128xbf16> loc(#loc425)
    %45 = stablehlo.transpose %44, dims = [0, 2, 1, 3] {result_layout = dense<[3, 1, 2, 0]> : tensor<4xindex>, xla_shape = "bf16[1,32,7,128]{3,1,2,0}"} : (tensor<1x7x32x128xbf16>) -> tensor<1x32x7x128xbf16> loc(#loc426)
    %46 = stablehlo.reshape %arg220 : (tensor<64xf32>) -> tensor<1x1x64xf32> loc(#loc427)
    %47 = stablehlo.custom_call @tt.mark_argument(%46) {api_version = 0 : i32, mhlo.frontend_attributes = {ttcore.argument_type = "constant", ttir.name = "rotary_emb.inv_freq"}} : (tensor<1x1x64xf32>) -> tensor<1x1x64xf32> loc(#loc428)
    %48 = stablehlo.reshape %47 : (tensor<1x1x64xf32>) -> tensor<1x64x1xf32> loc(#loc429)
    %49 = stablehlo.dot_general %48, %16, batching_dims = [0] x [0], contracting_dims = [2] x [1] : (tensor<1x64x1xf32>, tensor<1x1x7xf32>) -> tensor<1x64x7xf32> loc(#loc430)
    %50 = stablehlo.transpose %49, dims = [0, 2, 1] {result_layout = dense<[1, 2, 0]> : tensor<3xindex>, xla_shape = "f32[1,7,64]{1,2,0}"} : (tensor<1x64x7xf32>) -> tensor<1x7x64xf32> loc(#loc431)
    %51 = stablehlo.concatenate %50, %50, dim = 2 : (tensor<1x7x64xf32>, tensor<1x7x64xf32>) -> tensor<1x7x128xf32> loc(#loc432)
    %52 = stablehlo.cosine %51 : tensor<1x7x128xf32> loc(#loc433)
    %53 = stablehlo.convert %52 : (tensor<1x7x128xf32>) -> tensor<1x7x128xbf16> loc(#loc434)
    %54 = stablehlo.broadcast_in_dim %53, dims = [0, 2, 3] : (tensor<1x7x128xbf16>) -> tensor<1x32x7x128xbf16> loc(#loc435)
    %55 = stablehlo.multiply %45, %54 : tensor<1x32x7x128xbf16> loc(#loc436)
    %56 = stablehlo.slice %45 [0:1, 0:32, 0:7, 64:128] : (tensor<1x32x7x128xbf16>) -> tensor<1x32x7x64xbf16> loc(#loc437)
    %57 = stablehlo.negate %56 : tensor<1x32x7x64xbf16> loc(#loc438)
    %58 = stablehlo.slice %45 [0:1, 0:32, 0:7, 0:64] : (tensor<1x32x7x128xbf16>) -> tensor<1x32x7x64xbf16> loc(#loc439)
    %59 = stablehlo.concatenate %57, %58, dim = 3 : (tensor<1x32x7x64xbf16>, tensor<1x32x7x64xbf16>) -> tensor<1x32x7x128xbf16> loc(#loc440)
    %60 = stablehlo.sine %51 : tensor<1x7x128xf32> loc(#loc441)
    %61 = stablehlo.convert %60 : (tensor<1x7x128xf32>) -> tensor<1x7x128xbf16> loc(#loc442)
    %62 = stablehlo.broadcast_in_dim %61, dims = [0, 2, 3] : (tensor<1x7x128xbf16>) -> tensor<1x32x7x128xbf16> loc(#loc443)
    %63 = stablehlo.multiply %59, %62 : tensor<1x32x7x128xbf16> loc(#loc444)
    %64 = stablehlo.add %55, %63 : tensor<1x32x7x128xbf16> loc(#loc445)
    %65 = stablehlo.convert %64 : (tensor<1x32x7x128xbf16>) -> tensor<1x32x7x128xf32> loc(#loc446)
    %66 = stablehlo.multiply %65, %15 : tensor<1x32x7x128xf32> loc(#loc447)
    %67 = stablehlo.reshape %arg222 : (tensor<1024x2560xbf16>) -> tensor<1x1024x2560xbf16> loc(#loc448)
    %68 = stablehlo.custom_call @tt.mark_argument(%67) {api_version = 0 : i32, mhlo.frontend_attributes = {ttcore.argument_type = "parameter", ttir.name = "L__self___layers__modules__0___self_attn_k_proj.weight"}} : (tensor<1x1024x2560xbf16>) -> tensor<1x1024x2560xbf16> loc(#loc449)
    %69 = stablehlo.reshape %68 : (tensor<1x1024x2560xbf16>) -> tensor<1024x2560xbf16> loc(#loc450)
    %70 = stablehlo.transpose %69, dims = [1, 0] {result_layout = dense<[0, 1]> : tensor<2xindex>, xla_shape = "bf16[2560,1024]{0,1}"} : (tensor<1024x2560xbf16>) -> tensor<2560x1024xbf16> loc(#loc451)
    %71 = stablehlo.dot_general %34, %70, contracting_dims = [1] x [0] : (tensor<7x2560xbf16>, tensor<2560x1024xbf16>) -> tensor<7x1024xbf16> loc(#loc452)
    %72 = stablehlo.reshape %71 : (tensor<7x1024xbf16>) -> tensor<1x7x8x128xbf16> loc(#loc453)
    %73 = stablehlo.reshape %arg221 : (tensor<128xbf16>) -> tensor<1x1x128xbf16> loc(#loc454)
    %74 = stablehlo.custom_call @tt.mark_argument(%73) {api_version = 0 : i32, mhlo.frontend_attributes = {ttcore.argument_type = "parameter", ttir.name = "L__self___layers__modules__0___self_attn_k_norm_weight"}} : (tensor<1x1x128xbf16>) -> tensor<1x1x128xbf16> loc(#loc455)
    %75 = stablehlo.reshape %74 : (tensor<1x1x128xbf16>) -> tensor<128xbf16> loc(#loc456)
    %76 = stablehlo.composite "tenstorrent.rms_norm" %72, %75 {composite_attributes = {epsilon = 9.99999997E-7 : f32, normalized_shape = dense<128> : tensor<1xi64>}, decomposition = @tenstorrent.rms_norm.impl_86} : (tensor<1x7x8x128xbf16>, tensor<128xbf16>) -> tensor<1x7x8x128xbf16> loc(#loc457)
    %77 = stablehlo.transpose %76, dims = [0, 2, 1, 3] {result_layout = dense<[3, 1, 2, 0]> : tensor<4xindex>, xla_shape = "bf16[1,8,7,128]{3,1,2,0}"} : (tensor<1x7x8x128xbf16>) -> tensor<1x8x7x128xbf16> loc(#loc458)
    %78 = stablehlo.broadcast_in_dim %53, dims = [0, 2, 3] : (tensor<1x7x128xbf16>) -> tensor<1x8x7x128xbf16> loc(#loc459)
    %79 = stablehlo.multiply %77, %78 : tensor<1x8x7x128xbf16> loc(#loc460)
    %80 = stablehlo.slice %77 [0:1, 0:8, 0:7, 64:128] : (tensor<1x8x7x128xbf16>) -> tensor<1x8x7x64xbf16> loc(#loc461)
    %81 = stablehlo.negate %80 : tensor<1x8x7x64xbf16> loc(#loc462)
    %82 = stablehlo.slice %77 [0:1, 0:8, 0:7, 0:64] : (tensor<1x8x7x128xbf16>) -> tensor<1x8x7x64xbf16> loc(#loc463)
    %83 = stablehlo.concatenate %81, %82, dim = 3 : (tensor<1x8x7x64xbf16>, tensor<1x8x7x64xbf16>) -> tensor<1x8x7x128xbf16> loc(#loc464)
    %84 = stablehlo.broadcast_in_dim %61, dims = [0, 2, 3] : (tensor<1x7x128xbf16>) -> tensor<1x8x7x128xbf16> loc(#loc465)
    %85 = stablehlo.multiply %83, %84 : tensor<1x8x7x128xbf16> loc(#loc466)
    %86 = stablehlo.add %79, %85 : tensor<1x8x7x128xbf16> loc(#loc467)
    %87 = stablehlo.broadcast_in_dim %86, dims = [0, 1, 3, 4] : (tensor<1x8x7x128xbf16>) -> tensor<1x8x4x7x128xbf16> loc(#loc468)
    %88 = stablehlo.reshape %87 : (tensor<1x8x4x7x128xbf16>) -> tensor<1x32x7x128xbf16> loc(#loc469)
    %89 = stablehlo.convert %88 : (tensor<1x32x7x128xbf16>) -> tensor<1x32x7x128xf32> loc(#loc470)
    %90 = stablehlo.transpose %89, dims = [0, 1, 3, 2] {result_layout = dense<[2, 3, 1, 0]> : tensor<4xindex>, xla_shape = "f32[1,32,128,7]{2,3,1,0}"} : (tensor<1x32x7x128xf32>) -> tensor<1x32x128x7xf32> loc(#loc471)
    %91 = stablehlo.multiply %90, %13 : tensor<1x32x128x7xf32> loc(#loc472)
    %92 = stablehlo.dot_general %66, %91, batching_dims = [0, 1] x [0, 1], contracting_dims = [3] x [2] {mhlo.frontend_attributes = {grad_x = "false", grad_y = "false"}} : (tensor<1x32x7x128xf32>, tensor<1x32x128x7xf32>) -> tensor<1x32x7x7xf32> loc(#loc473)
    %93 = stablehlo.broadcast_in_dim %arg219, dims = [] : (tensor<i1>) -> tensor<1x1x7x7xi1> loc(#loc474)
    %94 = stablehlo.broadcast_in_dim %11, dims = [0, 1, 3] : (tensor<1x1x7xi64>) -> tensor<1x1x7x7xi64> loc(#loc475)
    %95 = stablehlo.broadcast_in_dim %11, dims = [0, 1, 2] : (tensor<1x1x7xi64>) -> tensor<1x1x7x7xi64> loc(#loc476)
    %96 = stablehlo.compare  LE, %94, %95 : (tensor<1x1x7x7xi64>, tensor<1x1x7x7xi64>) -> tensor<1x1x7x7xi1> loc(#loc477)
    %97 = stablehlo.and %93, %96 : tensor<1x1x7x7xi1> loc(#loc478)
    %98 = "stablehlo.reduce_window"(%10, %19) <{padding = dense<[[0, 0], [6, 0]]> : tensor<2x2xi64>, window_dimensions = array<i64: 1, 7>}> ({
    ^bb0(%arg401: tensor<i32> loc("reduce-window.1583"), %arg402: tensor<i32> loc("reduce-window.1583")):
      %4278 = stablehlo.add %arg401, %arg402 : tensor<i32> loc(#loc480)
      stablehlo.return %4278 : tensor<i32> loc(#loc)
    }) : (tensor<1x7xi32>, tensor<i32>) -> tensor<1x7xi32> loc(#loc479)
    %99 = "stablehlo.gather"(%98, %9) <{dimension_numbers = #stablehlo.gather<collapsed_slice_dims = [0, 1], start_index_map = [0, 1], index_vector_dim = 4>, slice_sizes = array<i64: 1, 1>}> : (tensor<1x7xi32>, tensor<1x1x7x1x2xi64>) -> tensor<1x1x7x1xi32> loc(#loc481)
    %100 = stablehlo.reshape %99 : (tensor<1x1x7x1xi32>) -> tensor<1x1x7xi32> loc(#loc482)
    %101 = stablehlo.broadcast_in_dim %100, dims = [0, 1, 2] : (tensor<1x1x7xi32>) -> tensor<1x1x7x7xi32> loc(#loc483)
    %102 = "stablehlo.gather"(%98, %8) <{dimension_numbers = #stablehlo.gather<collapsed_slice_dims = [0, 1], start_index_map = [0, 1], index_vector_dim = 4>, slice_sizes = array<i64: 1, 1>}> : (tensor<1x7xi32>, tensor<1x1x1x7x2xi64>) -> tensor<1x1x1x7xi32> loc(#loc484)
    %103 = stablehlo.reshape %102 : (tensor<1x1x1x7xi32>) -> tensor<1x1x7xi32> loc(#loc485)
    %104 = stablehlo.broadcast_in_dim %103, dims = [0, 1, 3] : (tensor<1x1x7xi32>) -> tensor<1x1x7x7xi32> loc(#loc486)
    %105 = stablehlo.compare  EQ, %101, %104 : (tensor<1x1x7x7xi32>, tensor<1x1x7x7xi32>) -> tensor<1x1x7x7xi1> loc(#loc487)
    %106 = stablehlo.and %97, %105 : tensor<1x1x7x7xi1> loc(#loc488)
    %107 = stablehlo.select %106, %7, %5 : tensor<1x1x7x7xi1>, tensor<1x1x7x7xbf16> loc(#loc489)
    %108 = stablehlo.convert %107 : (tensor<1x1x7x7xbf16>) -> tensor<1x1x7x7xf32> loc(#loc490)
    %109 = stablehlo.reshape %108 : (tensor<1x1x7x7xf32>) -> tensor<1x7x7xf32> loc(#loc491)
    %110 = stablehlo.broadcast_in_dim %109, dims = [0, 2, 3] : (tensor<1x7x7xf32>) -> tensor<1x32x7x7xf32> loc(#loc492)
    %111 = stablehlo.add %92, %110 : tensor<1x32x7x7xf32> loc(#loc493)
    %112 = stablehlo.convert %111 : (tensor<1x32x7x7xf32>) -> tensor<1x32x7x7xf64> loc(#loc494)
    %113 = stablehlo.compare  EQ, %112, %3 : (tensor<1x32x7x7xf64>, tensor<1x32x7x7xf64>) -> tensor<1x32x7x7xi1> loc(#loc495)
    %114 = stablehlo.not %113 : tensor<1x32x7x7xi1> loc(#loc496)
    %115 = stablehlo.reduce(%114 init: %18) across dimensions = [3] : (tensor<1x32x7x7xi1>, tensor<i1>) -> tensor<1x32x7xi1>
     reducer(%arg401: tensor<i1> loc("reduce.1859"), %arg402: tensor<i1> loc("reduce.1859"))  {
      %4278 = sdy.constant dense<true> : tensor<i1> loc(#loc)
      %4279 = sdy.constant dense<false> : tensor<i1> loc(#loc)
      %4280 = stablehlo.or %arg401, %arg402 : tensor<i1> loc(#loc498)
      %4281 = stablehlo.select %4280, %4278, %4279 : tensor<i1>, tensor<i1> loc(#loc499)
      stablehlo.return %4281 : tensor<i1> loc(#loc)
    } loc(#loc497)
    %116 = stablehlo.reshape %115 : (tensor<1x32x7xi1>) -> tensor<1x32x7x1xi1> loc(#loc500)
    %117 = stablehlo.not %116 : tensor<1x32x7x1xi1> loc(#loc501)
    %118 = stablehlo.reshape %117 : (tensor<1x32x7x1xi1>) -> tensor<1x32x7xi1> loc(#loc502)
    %119 = stablehlo.broadcast_in_dim %118, dims = [0, 1, 2] : (tensor<1x32x7xi1>) -> tensor<1x32x7x7xi1> loc(#loc503)
    %120 = stablehlo.reduce(%111 init: %17) applies stablehlo.maximum across dimensions = [3] : (tensor<1x32x7x7xf32>, tensor<f32>) -> tensor<1x32x7xf32> loc(#loc504)
    %121 = stablehlo.broadcast_in_dim %120, dims = [0, 1, 2] : (tensor<1x32x7xf32>) -> tensor<1x32x7x7xf32> loc(#loc505)
    %122 = stablehlo.subtract %111, %121 : tensor<1x32x7x7xf32> loc(#loc506)
    %123 = stablehlo.exponential %122 : tensor<1x32x7x7xf32> loc(#loc507)
    %124 = stablehlo.reduce(%123 init: %20) applies stablehlo.add across dimensions = [3] : (tensor<1x32x7x7xf32>, tensor<f32>) -> tensor<1x32x7xf32> loc(#loc508)
    %125 = stablehlo.broadcast_in_dim %124, dims = [0, 1, 2] : (tensor<1x32x7xf32>) -> tensor<1x32x7x7xf32> loc(#loc509)
    %126 = stablehlo.divide %123, %125 : tensor<1x32x7x7xf32> loc(#loc510)
    %127 = stablehlo.select %119, %1, %126 : tensor<1x32x7x7xi1>, tensor<1x32x7x7xf32> loc(#loc511)
    %128 = stablehlo.reshape %arg215 : (tensor<1024x2560xbf16>) -> tensor<1x1024x2560xbf16> loc(#loc512)
    %129 = stablehlo.custom_call @tt.mark_argument(%128) {api_version = 0 : i32, mhlo.frontend_attributes = {ttcore.argument_type = "parameter", ttir.name = "L__self___layers__modules__0___self_attn_v_proj.weight"}} : (tensor<1x1024x2560xbf16>) -> tensor<1x1024x2560xbf16> loc(#loc513)
    %130 = stablehlo.reshape %129 : (tensor<1x1024x2560xbf16>) -> tensor<1024x2560xbf16> loc(#loc514)
    %131 = stablehlo.transpose %130, dims = [1, 0] {result_layout = dense<[0, 1]> : tensor<2xindex>, xla_shape = "bf16[2560,1024]{0,1}"} : (tensor<1024x2560xbf16>) -> tensor<2560x1024xbf16> loc(#loc515)
    %132 = stablehlo.dot_general %34, %131, contracting_dims = [1] x [0] : (tensor<7x2560xbf16>, tensor<2560x1024xbf16>) -> tensor<7x1024xbf16> loc(#loc516)
    %133 = stablehlo.reshape %132 : (tensor<7x1024xbf16>) -> tensor<1x7x8x128xbf16> loc(#loc517)
    %134 = stablehlo.transpose %133, dims = [0, 2, 1, 3] {result_layout = dense<[3, 1, 2, 0]> : tensor<4xindex>, xla_shape = "bf16[1,8,7,128]{3,1,2,0}"} : (tensor<1x7x8x128xbf16>) -> tensor<1x8x7x128xbf16> loc(#loc518)
    %135 = stablehlo.broadcast_in_dim %134, dims = [0, 1, 3, 4] : (tensor<1x8x7x128xbf16>) -> tensor<1x8x4x7x128xbf16> loc(#loc519)
    %136 = stablehlo.reshape %135 : (tensor<1x8x4x7x128xbf16>) -> tensor<1x32x7x128xbf16> loc(#loc520)
    %137 = stablehlo.convert %136 : (tensor<1x32x7x128xbf16>) -> tensor<1x32x7x128xf32> loc(#loc521)
    %138 = stablehlo.dot_general %127, %137, batching_dims = [0, 1] x [0, 1], contracting_dims = [3] x [2] {mhlo.frontend_attributes = {grad_x = "false", grad_y = "false"}} : (tensor<1x32x7x7xf32>, tensor<1x32x7x128xf32>) -> tensor<1x32x7x128xf32> loc(#loc522)
    %139 = stablehlo.convert %138 : (tensor<1x32x7x128xf32>) -> tensor<1x32x7x128xbf16> loc(#loc523)
    %140 = stablehlo.transpose %139, dims = [0, 2, 1, 3] {result_layout = dense<[3, 1, 2, 0]> : tensor<4xindex>, xla_shape = "bf16[1,7,32,128]{3,1,2,0}"} : (tensor<1x32x7x128xbf16>) -> tensor<1x7x32x128xbf16> loc(#loc524)
    %141 = stablehlo.reshape %140 : (tensor<1x7x32x128xbf16>) -> tensor<7x4096xbf16> loc(#loc525)
    %142 = stablehlo.reshape %arg214 : (tensor<2560x4096xbf16>) -> tensor<1x2560x4096xbf16> loc(#loc526)
    %143 = stablehlo.custom_call @tt.mark_argument(%142) {api_version = 0 : i32, mhlo.frontend_attributes = {ttcore.argument_type = "parameter", ttir.name = "L__self___layers__modules__0___self_attn_o_proj.weight"}} : (tensor<1x2560x4096xbf16>) -> tensor<1x2560x4096xbf16> loc(#loc527)
    %144 = stablehlo.reshape %143 : (tensor<1x2560x4096xbf16>) -> tensor<2560x4096xbf16> loc(#loc528)
    %145 = stablehlo.transpose %144, dims = [1, 0] {result_layout = dense<[0, 1]> : tensor<2xindex>, xla_shape = "bf16[4096,2560]{0,1}"} : (tensor<2560x4096xbf16>) -> tensor<4096x2560xbf16> loc(#loc529)
    %146 = stablehlo.dot_general %141, %145, contracting_dims = [1] x [0] : (tensor<7x4096xbf16>, tensor<4096x2560xbf16>) -> tensor<7x2560xbf16> loc(#loc530)
    %147 = stablehlo.reshape %146 : (tensor<7x2560xbf16>) -> tensor<1x7x2560xbf16> loc(#loc531)
    %148 = stablehlo.add %29, %147 : tensor<1x7x2560xbf16> loc(#loc532)
    %149 = stablehlo.reshape %arg213 : (tensor<2560xbf16>) -> tensor<1x1x2560xbf16> loc(#loc533)
    %150 = stablehlo.custom_call @tt.mark_argument(%149) {api_version = 0 : i32, mhlo.frontend_attributes = {ttcore.argument_type = "parameter", ttir.name = "L__self___layers__modules__0___post_attention_layernorm_weight"}} : (tensor<1x1x2560xbf16>) -> tensor<1x1x2560xbf16> loc(#loc534)
    %151 = stablehlo.reshape %150 : (tensor<1x1x2560xbf16>) -> tensor<2560xbf16> loc(#loc535)
    %152 = stablehlo.composite "tenstorrent.rms_norm" %148, %151 {composite_attributes = {epsilon = 9.99999997E-7 : f32, normalized_shape = dense<2560> : tensor<1xi64>}, decomposition = @tenstorrent.rms_norm.impl_41} : (tensor<1x7x2560xbf16>, tensor<2560xbf16>) -> tensor<1x7x2560xbf16> loc(#loc536)
    %153 = stablehlo.reshape %152 : (tensor<1x7x2560xbf16>) -> tensor<7x2560xbf16> loc(#loc537)
    %154 = stablehlo.reshape %arg225 : (tensor<9728x2560xbf16>) -> tensor<1x9728x2560xbf16> loc(#loc538)
    %155 = stablehlo.custom_call @tt.mark_argument(%154) {api_version = 0 : i32, mhlo.frontend_attributes = {ttcore.argument_type = "parameter", ttir.name = "L__self___layers__modules__0___mlp_gate_proj.weight"}} : (tensor<1x9728x2560xbf16>) -> tensor<1x9728x2560xbf16> loc(#loc539)
    %156 = stablehlo.reshape %155 : (tensor<1x9728x2560xbf16>) -> tensor<9728x2560xbf16> loc(#loc540)
    %157 = stablehlo.transpose %156, dims = [1, 0] {result_layout = dense<[0, 1]> : tensor<2xindex>, xla_shape = "bf16[2560,9728]{0,1}"} : (tensor<9728x2560xbf16>) -> tensor<2560x9728xbf16> loc(#loc541)
    %158 = stablehlo.dot_general %153, %157, contracting_dims = [1] x [0] : (tensor<7x2560xbf16>, tensor<2560x9728xbf16>) -> tensor<7x9728xbf16> loc(#loc542)
    %159 = stablehlo.reshape %158 : (tensor<7x9728xbf16>) -> tensor<1x7x9728xbf16> loc(#loc543)
    %160 = stablehlo.convert %159 : (tensor<1x7x9728xbf16>) -> tensor<1x7x9728xf32> loc(#loc544)
    %161 = stablehlo.logistic %160 : tensor<1x7x9728xf32> loc(#loc545)
    %162 = stablehlo.multiply %160, %161 : tensor<1x7x9728xf32> loc(#loc546)
    %163 = stablehlo.convert %162 : (tensor<1x7x9728xf32>) -> tensor<1x7x9728xbf16> loc(#loc547)
    %164 = stablehlo.reshape %arg212 : (tensor<9728x2560xbf16>) -> tensor<1x9728x2560xbf16> loc(#loc548)
    %165 = stablehlo.custom_call @tt.mark_argument(%164) {api_version = 0 : i32, mhlo.frontend_attributes = {ttcore.argument_type = "parameter", ttir.name = "L__self___layers__modules__0___mlp_up_proj.weight"}} : (tensor<1x9728x2560xbf16>) -> tensor<1x9728x2560xbf16> loc(#loc549)
    %166 = stablehlo.reshape %165 : (tensor<1x9728x2560xbf16>) -> tensor<9728x2560xbf16> loc(#loc550)
    %167 = stablehlo.transpose %166, dims = [1, 0] {result_layout = dense<[0, 1]> : tensor<2xindex>, xla_shape = "bf16[2560,9728]{0,1}"} : (tensor<9728x2560xbf16>) -> tensor<2560x9728xbf16> loc(#loc551)
    %168 = stablehlo.dot_general %153, %167, contracting_dims = [1] x [0] : (tensor<7x2560xbf16>, tensor<2560x9728xbf16>) -> tensor<7x9728xbf16> loc(#loc552)
    %169 = stablehlo.reshape %168 : (tensor<7x9728xbf16>) -> tensor<1x7x9728xbf16> loc(#loc553)
    %170 = stablehlo.multiply %163, %169 : tensor<1x7x9728xbf16> loc(#loc554)
    %171 = stablehlo.reshape %170 : (tensor<1x7x9728xbf16>) -> tensor<7x9728xbf16> loc(#loc555)
    %172 = stablehlo.reshape %arg211 : (tensor<2560x9728xbf16>) -> tensor<1x2560x9728xbf16> loc(#loc556)
    %173 = stablehlo.custom_call @tt.mark_argument(%172) {api_version = 0 : i32, mhlo.frontend_attributes = {ttcore.argument_type = "parameter", ttir.name = "L__self___layers__modules__0___mlp_down_proj.weight"}} : (tensor<1x2560x9728xbf16>) -> tensor<1x2560x9728xbf16> loc(#loc557)
    %174 = stablehlo.reshape %173 : (tensor<1x2560x9728xbf16>) -> tensor<2560x9728xbf16> loc(#loc558)
    %175 = stablehlo.transpose %174, dims = [1, 0] {result_layout = dense<[0, 1]> : tensor<2xindex>, xla_shape = "bf16[9728,2560]{0,1}"} : (tensor<2560x9728xbf16>) -> tensor<9728x2560xbf16> loc(#loc559)
    %176 = stablehlo.dot_general %171, %175, contracting_dims = [1] x [0] : (tensor<7x9728xbf16>, tensor<9728x2560xbf16>) -> tensor<7x2560xbf16> loc(#loc560)
    %177 = stablehlo.reshape %176 : (tensor<7x2560xbf16>) -> tensor<1x7x2560xbf16> loc(#loc561)
    %178 = stablehlo.add %148, %177 : tensor<1x7x2560xbf16> loc(#loc562)
    %179 = stablehlo.reshape %arg210 : (tensor<2560xbf16>) -> tensor<1x1x2560xbf16> loc(#loc563)
    %180 = stablehlo.custom_call @tt.mark_argument(%179) {api_version = 0 : i32, mhlo.frontend_attributes = {ttcore.argument_type = "parameter", ttir.name = "L__self___layers__modules__1___input_layernorm_weight"}} : (tensor<1x1x2560xbf16>) -> tensor<1x1x2560xbf16> loc(#loc564)
    %181 = stablehlo.reshape %180 : (tensor<1x1x2560xbf16>) -> tensor<2560xbf16> loc(#loc565)
    %182 = stablehlo.composite "tenstorrent.rms_norm" %178, %181 {composite_attributes = {epsilon = 9.99999997E-7 : f32, normalized_shape = dense<2560> : tensor<1xi64>}, decomposition = @tenstorrent.rms_norm.impl_38} : (tensor<1x7x2560xbf16>, tensor<2560xbf16>) -> tensor<1x7x2560xbf16> loc(#loc566)
    %183 = stablehlo.reshape %182 : (tensor<1x7x2560xbf16>) -> tensor<7x2560xbf16> loc(#loc567)
    %184 = stablehlo.reshape %arg229 : (tensor<4096x2560xbf16>) -> tensor<1x4096x2560xbf16> loc(#loc568)
    %185 = stablehlo.custom_call @tt.mark_argument(%184) {api_version = 0 : i32, mhlo.frontend_attributes = {ttcore.argument_type = "parameter", ttir.name = "L__self___layers__modules__1___self_attn_q_proj.weight"}} : (tensor<1x4096x2560xbf16>) -> tensor<1x4096x2560xbf16> loc(#loc569)
    %186 = stablehlo.reshape %185 : (tensor<1x4096x2560xbf16>) -> tensor<4096x2560xbf16> loc(#loc570)
    %187 = stablehlo.transpose %186, dims = [1, 0] {result_layout = dense<[0, 1]> : tensor<2xindex>, xla_shape = "bf16[2560,4096]{0,1}"} : (tensor<4096x2560xbf16>) -> tensor<2560x4096xbf16> loc(#loc571)
    %188 = stablehlo.dot_general %183, %187, contracting_dims = [1] x [0] : (tensor<7x2560xbf16>, tensor<2560x4096xbf16>) -> tensor<7x4096xbf16> loc(#loc572)
    %189 = stablehlo.reshape %188 : (tensor<7x4096xbf16>) -> tensor<1x7x32x128xbf16> loc(#loc573)
    %190 = stablehlo.reshape %arg228 : (tensor<128xbf16>) -> tensor<1x1x128xbf16> loc(#loc574)
    %191 = stablehlo.custom_call @tt.mark_argument(%190) {api_version = 0 : i32, mhlo.frontend_attributes = {ttcore.argument_type = "parameter", ttir.name = "L__self___layers__modules__1___self_attn_q_norm_weight"}} : (tensor<1x1x128xbf16>) -> tensor<1x1x128xbf16> loc(#loc575)
    %192 = stablehlo.reshape %191 : (tensor<1x1x128xbf16>) -> tensor<128xbf16> loc(#loc576)
    %193 = stablehlo.composite "tenstorrent.rms_norm" %189, %192 {composite_attributes = {epsilon = 9.99999997E-7 : f32, normalized_shape = dense<128> : tensor<1xi64>}, decomposition = @tenstorrent.rms_norm.impl_58} : (tensor<1x7x32x128xbf16>, tensor<128xbf16>) -> tensor<1x7x32x128xbf16> loc(#loc577)
    %194 = stablehlo.transpose %193, dims = [0, 2, 1, 3] {result_layout = dense<[3, 1, 2, 0]> : tensor<4xindex>, xla_shape = "bf16[1,32,7,128]{3,1,2,0}"} : (tensor<1x7x32x128xbf16>) -> tensor<1x32x7x128xbf16> loc(#loc578)
    %195 = stablehlo.multiply %194, %54 : tensor<1x32x7x128xbf16> loc(#loc579)
    %196 = stablehlo.slice %194 [0:1, 0:32, 0:7, 64:128] : (tensor<1x32x7x128xbf16>) -> tensor<1x32x7x64xbf16> loc(#loc580)
    %197 = stablehlo.negate %196 : tensor<1x32x7x64xbf16> loc(#loc581)
    %198 = stablehlo.slice %194 [0:1, 0:32, 0:7, 0:64] : (tensor<1x32x7x128xbf16>) -> tensor<1x32x7x64xbf16> loc(#loc582)
    %199 = stablehlo.concatenate %197, %198, dim = 3 : (tensor<1x32x7x64xbf16>, tensor<1x32x7x64xbf16>) -> tensor<1x32x7x128xbf16> loc(#loc583)
    %200 = stablehlo.multiply %199, %62 : tensor<1x32x7x128xbf16> loc(#loc584)
    %201 = stablehlo.add %195, %200 : tensor<1x32x7x128xbf16> loc(#loc585)
    %202 = stablehlo.convert %201 : (tensor<1x32x7x128xbf16>) -> tensor<1x32x7x128xf32> loc(#loc586)
    %203 = stablehlo.multiply %202, %15 : tensor<1x32x7x128xf32> loc(#loc587)
    %204 = stablehlo.reshape %arg227 : (tensor<1024x2560xbf16>) -> tensor<1x1024x2560xbf16> loc(#loc588)
    %205 = stablehlo.custom_call @tt.mark_argument(%204) {api_version = 0 : i32, mhlo.frontend_attributes = {ttcore.argument_type = "parameter", ttir.name = "L__self___layers__modules__1___self_attn_k_proj.weight"}} : (tensor<1x1024x2560xbf16>) -> tensor<1x1024x2560xbf16> loc(#loc589)
    %206 = stablehlo.reshape %205 : (tensor<1x1024x2560xbf16>) -> tensor<1024x2560xbf16> loc(#loc590)
    %207 = stablehlo.transpose %206, dims = [1, 0] {result_layout = dense<[0, 1]> : tensor<2xindex>, xla_shape = "bf16[2560,1024]{0,1}"} : (tensor<1024x2560xbf16>) -> tensor<2560x1024xbf16> loc(#loc591)
    %208 = stablehlo.dot_general %183, %207, contracting_dims = [1] x [0] : (tensor<7x2560xbf16>, tensor<2560x1024xbf16>) -> tensor<7x1024xbf16> loc(#loc592)
    %209 = stablehlo.reshape %208 : (tensor<7x1024xbf16>) -> tensor<1x7x8x128xbf16> loc(#loc593)
    %210 = stablehlo.reshape %arg226 : (tensor<128xbf16>) -> tensor<1x1x128xbf16> loc(#loc594)
    %211 = stablehlo.custom_call @tt.mark_argument(%210) {api_version = 0 : i32, mhlo.frontend_attributes = {ttcore.argument_type = "parameter", ttir.name = "L__self___layers__modules__1___self_attn_k_norm_weight"}} : (tensor<1x1x128xbf16>) -> tensor<1x1x128xbf16> loc(#loc595)
    %212 = stablehlo.reshape %211 : (tensor<1x1x128xbf16>) -> tensor<128xbf16> loc(#loc596)
    %213 = stablehlo.composite "tenstorrent.rms_norm" %209, %212 {composite_attributes = {epsilon = 9.99999997E-7 : f32, normalized_shape = dense<128> : tensor<1xi64>}, decomposition = @tenstorrent.rms_norm.impl_32} : (tensor<1x7x8x128xbf16>, tensor<128xbf16>) -> tensor<1x7x8x128xbf16> loc(#loc597)
    %214 = stablehlo.transpose %213, dims = [0, 2, 1, 3] {result_layout = dense<[3, 1, 2, 0]> : tensor<4xindex>, xla_shape = "bf16[1,8,7,128]{3,1,2,0}"} : (tensor<1x7x8x128xbf16>) -> tensor<1x8x7x128xbf16> loc(#loc598)
    %215 = stablehlo.multiply %214, %78 : tensor<1x8x7x128xbf16> loc(#loc599)
    %216 = stablehlo.slice %214 [0:1, 0:8, 0:7, 64:128] : (tensor<1x8x7x128xbf16>) -> tensor<1x8x7x64xbf16> loc(#loc600)
    %217 = stablehlo.negate %216 : tensor<1x8x7x64xbf16> loc(#loc601)
    %218 = stablehlo.slice %214 [0:1, 0:8, 0:7, 0:64] : (tensor<1x8x7x128xbf16>) -> tensor<1x8x7x64xbf16> loc(#loc602)
    %219 = stablehlo.concatenate %217, %218, dim = 3 : (tensor<1x8x7x64xbf16>, tensor<1x8x7x64xbf16>) -> tensor<1x8x7x128xbf16> loc(#loc603)
    %220 = stablehlo.multiply %219, %84 : tensor<1x8x7x128xbf16> loc(#loc604)
    %221 = stablehlo.add %215, %220 : tensor<1x8x7x128xbf16> loc(#loc605)
    %222 = stablehlo.broadcast_in_dim %221, dims = [0, 1, 3, 4] : (tensor<1x8x7x128xbf16>) -> tensor<1x8x4x7x128xbf16> loc(#loc606)
    %223 = stablehlo.reshape %222 : (tensor<1x8x4x7x128xbf16>) -> tensor<1x32x7x128xbf16> loc(#loc607)
    %224 = stablehlo.convert %223 : (tensor<1x32x7x128xbf16>) -> tensor<1x32x7x128xf32> loc(#loc608)
    %225 = stablehlo.transpose %224, dims = [0, 1, 3, 2] {result_layout = dense<[2, 3, 1, 0]> : tensor<4xindex>, xla_shape = "f32[1,32,128,7]{2,3,1,0}"} : (tensor<1x32x7x128xf32>) -> tensor<1x32x128x7xf32> loc(#loc609)
    %226 = stablehlo.multiply %225, %13 : tensor<1x32x128x7xf32> loc(#loc610)
    %227 = stablehlo.dot_general %203, %226, batching_dims = [0, 1] x [0, 1], contracting_dims = [3] x [2] {mhlo.frontend_attributes = {grad_x = "false", grad_y = "false"}} : (tensor<1x32x7x128xf32>, tensor<1x32x128x7xf32>) -> tensor<1x32x7x7xf32> loc(#loc611)
    %228 = stablehlo.add %227, %110 : tensor<1x32x7x7xf32> loc(#loc612)
    %229 = stablehlo.convert %228 : (tensor<1x32x7x7xf32>) -> tensor<1x32x7x7xf64> loc(#loc613)
    %230 = stablehlo.compare  EQ, %229, %3 : (tensor<1x32x7x7xf64>, tensor<1x32x7x7xf64>) -> tensor<1x32x7x7xi1> loc(#loc614)
    %231 = stablehlo.not %230 : tensor<1x32x7x7xi1> loc(#loc615)
    %232 = stablehlo.reduce(%231 init: %18) across dimensions = [3] : (tensor<1x32x7x7xi1>, tensor<i1>) -> tensor<1x32x7xi1>
     reducer(%arg401: tensor<i1> loc("reduce.2192"), %arg402: tensor<i1> loc("reduce.2192"))  {
      %4278 = sdy.constant dense<true> : tensor<i1> loc(#loc)
      %4279 = sdy.constant dense<false> : tensor<i1> loc(#loc)
      %4280 = stablehlo.or %arg401, %arg402 : tensor<i1> loc(#loc617)
      %4281 = stablehlo.select %4280, %4278, %4279 : tensor<i1>, tensor<i1> loc(#loc618)
      stablehlo.return %4281 : tensor<i1> loc(#loc)
    } loc(#loc616)
    %233 = stablehlo.reshape %232 : (tensor<1x32x7xi1>) -> tensor<1x32x7x1xi1> loc(#loc619)
    %234 = stablehlo.not %233 : tensor<1x32x7x1xi1> loc(#loc620)
    %235 = stablehlo.reshape %234 : (tensor<1x32x7x1xi1>) -> tensor<1x32x7xi1> loc(#loc621)
    %236 = stablehlo.broadcast_in_dim %235, dims = [0, 1, 2] : (tensor<1x32x7xi1>) -> tensor<1x32x7x7xi1> loc(#loc622)
    %237 = stablehlo.reduce(%228 init: %17) applies stablehlo.maximum across dimensions = [3] : (tensor<1x32x7x7xf32>, tensor<f32>) -> tensor<1x32x7xf32> loc(#loc623)
    %238 = stablehlo.broadcast_in_dim %237, dims = [0, 1, 2] : (tensor<1x32x7xf32>) -> tensor<1x32x7x7xf32> loc(#loc624)
    %239 = stablehlo.subtract %228, %238 : tensor<1x32x7x7xf32> loc(#loc625)
    %240 = stablehlo.exponential %239 : tensor<1x32x7x7xf32> loc(#loc626)
    %241 = stablehlo.reduce(%240 init: %20) applies stablehlo.add across dimensions = [3] : (tensor<1x32x7x7xf32>, tensor<f32>) -> tensor<1x32x7xf32> loc(#loc627)
    %242 = stablehlo.broadcast_in_dim %241, dims = [0, 1, 2] : (tensor<1x32x7xf32>) -> tensor<1x32x7x7xf32> loc(#loc628)
    %243 = stablehlo.divide %240, %242 : tensor<1x32x7x7xf32> loc(#loc629)
    %244 = stablehlo.select %236, %1, %243 : tensor<1x32x7x7xi1>, tensor<1x32x7x7xf32> loc(#loc630)
    %245 = stablehlo.reshape %arg209 : (tensor<1024x2560xbf16>) -> tensor<1x1024x2560xbf16> loc(#loc631)
    %246 = stablehlo.custom_call @tt.mark_argument(%245) {api_version = 0 : i32, mhlo.frontend_attributes = {ttcore.argument_type = "parameter", ttir.name = "L__self___layers__modules__1___self_attn_v_proj.weight"}} : (tensor<1x1024x2560xbf16>) -> tensor<1x1024x2560xbf16> loc(#loc632)
    %247 = stablehlo.reshape %246 : (tensor<1x1024x2560xbf16>) -> tensor<1024x2560xbf16> loc(#loc633)
    %248 = stablehlo.transpose %247, dims = [1, 0] {result_layout = dense<[0, 1]> : tensor<2xindex>, xla_shape = "bf16[2560,1024]{0,1}"} : (tensor<1024x2560xbf16>) -> tensor<2560x1024xbf16> loc(#loc634)
    %249 = stablehlo.dot_general %183, %248, contracting_dims = [1] x [0] : (tensor<7x2560xbf16>, tensor<2560x1024xbf16>) -> tensor<7x1024xbf16> loc(#loc635)
    %250 = stablehlo.reshape %249 : (tensor<7x1024xbf16>) -> tensor<1x7x8x128xbf16> loc(#loc636)
    %251 = stablehlo.transpose %250, dims = [0, 2, 1, 3] {result_layout = dense<[3, 1, 2, 0]> : tensor<4xindex>, xla_shape = "bf16[1,8,7,128]{3,1,2,0}"} : (tensor<1x7x8x128xbf16>) -> tensor<1x8x7x128xbf16> loc(#loc637)
    %252 = stablehlo.broadcast_in_dim %251, dims = [0, 1, 3, 4] : (tensor<1x8x7x128xbf16>) -> tensor<1x8x4x7x128xbf16> loc(#loc638)
    %253 = stablehlo.reshape %252 : (tensor<1x8x4x7x128xbf16>) -> tensor<1x32x7x128xbf16> loc(#loc639)
    %254 = stablehlo.convert %253 : (tensor<1x32x7x128xbf16>) -> tensor<1x32x7x128xf32> loc(#loc640)
    %255 = stablehlo.dot_general %244, %254, batching_dims = [0, 1] x [0, 1], contracting_dims = [3] x [2] {mhlo.frontend_attributes = {grad_x = "false", grad_y = "false"}} : (tensor<1x32x7x7xf32>, tensor<1x32x7x128xf32>) -> tensor<1x32x7x128xf32> loc(#loc641)
    %256 = stablehlo.convert %255 : (tensor<1x32x7x128xf32>) -> tensor<1x32x7x128xbf16> loc(#loc642)
    %257 = stablehlo.transpose %256, dims = [0, 2, 1, 3] {result_layout = dense<[3, 1, 2, 0]> : tensor<4xindex>, xla_shape = "bf16[1,7,32,128]{3,1,2,0}"} : (tensor<1x32x7x128xbf16>) -> tensor<1x7x32x128xbf16> loc(#loc643)
    %258 = stablehlo.reshape %257 : (tensor<1x7x32x128xbf16>) -> tensor<7x4096xbf16> loc(#loc644)
    %259 = stablehlo.reshape %arg208 : (tensor<2560x4096xbf16>) -> tensor<1x2560x4096xbf16> loc(#loc645)
    %260 = stablehlo.custom_call @tt.mark_argument(%259) {api_version = 0 : i32, mhlo.frontend_attributes = {ttcore.argument_type = "parameter", ttir.name = "L__self___layers__modules__1___self_attn_o_proj.weight"}} : (tensor<1x2560x4096xbf16>) -> tensor<1x2560x4096xbf16> loc(#loc646)
    %261 = stablehlo.reshape %260 : (tensor<1x2560x4096xbf16>) -> tensor<2560x4096xbf16> loc(#loc647)
    %262 = stablehlo.transpose %261, dims = [1, 0] {result_layout = dense<[0, 1]> : tensor<2xindex>, xla_shape = "bf16[4096,2560]{0,1}"} : (tensor<2560x4096xbf16>) -> tensor<4096x2560xbf16> loc(#loc648)
    %263 = stablehlo.dot_general %258, %262, contracting_dims = [1] x [0] : (tensor<7x4096xbf16>, tensor<4096x2560xbf16>) -> tensor<7x2560xbf16> loc(#loc649)
    %264 = stablehlo.reshape %263 : (tensor<7x2560xbf16>) -> tensor<1x7x2560xbf16> loc(#loc650)
    %265 = stablehlo.add %178, %264 : tensor<1x7x2560xbf16> loc(#loc651)
    %266 = stablehlo.reshape %arg207 : (tensor<2560xbf16>) -> tensor<1x1x2560xbf16> loc(#loc652)
    %267 = stablehlo.custom_call @tt.mark_argument(%266) {api_version = 0 : i32, mhlo.frontend_attributes = {ttcore.argument_type = "parameter", ttir.name = "L__self___layers__modules__1___post_attention_layernorm_weight"}} : (tensor<1x1x2560xbf16>) -> tensor<1x1x2560xbf16> loc(#loc653)
    %268 = stablehlo.reshape %267 : (tensor<1x1x2560xbf16>) -> tensor<2560xbf16> loc(#loc654)
    %269 = stablehlo.composite "tenstorrent.rms_norm" %265, %268 {composite_attributes = {epsilon = 9.99999997E-7 : f32, normalized_shape = dense<2560> : tensor<1xi64>}, decomposition = @tenstorrent.rms_norm.impl_61} : (tensor<1x7x2560xbf16>, tensor<2560xbf16>) -> tensor<1x7x2560xbf16> loc(#loc655)
    %270 = stablehlo.reshape %269 : (tensor<1x7x2560xbf16>) -> tensor<7x2560xbf16> loc(#loc656)
    %271 = stablehlo.reshape %arg230 : (tensor<9728x2560xbf16>) -> tensor<1x9728x2560xbf16> loc(#loc657)
    %272 = stablehlo.custom_call @tt.mark_argument(%271) {api_version = 0 : i32, mhlo.frontend_attributes = {ttcore.argument_type = "parameter", ttir.name = "L__self___layers__modules__1___mlp_gate_proj.weight"}} : (tensor<1x9728x2560xbf16>) -> tensor<1x9728x2560xbf16> loc(#loc658)
    %273 = stablehlo.reshape %272 : (tensor<1x9728x2560xbf16>) -> tensor<9728x2560xbf16> loc(#loc659)
    %274 = stablehlo.transpose %273, dims = [1, 0] {result_layout = dense<[0, 1]> : tensor<2xindex>, xla_shape = "bf16[2560,9728]{0,1}"} : (tensor<9728x2560xbf16>) -> tensor<2560x9728xbf16> loc(#loc660)
    %275 = stablehlo.dot_general %270, %274, contracting_dims = [1] x [0] : (tensor<7x2560xbf16>, tensor<2560x9728xbf16>) -> tensor<7x9728xbf16> loc(#loc661)
    %276 = stablehlo.reshape %275 : (tensor<7x9728xbf16>) -> tensor<1x7x9728xbf16> loc(#loc662)
    %277 = stablehlo.convert %276 : (tensor<1x7x9728xbf16>) -> tensor<1x7x9728xf32> loc(#loc663)
    %278 = stablehlo.logistic %277 : tensor<1x7x9728xf32> loc(#loc664)
    %279 = stablehlo.multiply %277, %278 : tensor<1x7x9728xf32> loc(#loc665)
    %280 = stablehlo.convert %279 : (tensor<1x7x9728xf32>) -> tensor<1x7x9728xbf16> loc(#loc666)
    %281 = stablehlo.reshape %arg206 : (tensor<9728x2560xbf16>) -> tensor<1x9728x2560xbf16> loc(#loc667)
    %282 = stablehlo.custom_call @tt.mark_argument(%281) {api_version = 0 : i32, mhlo.frontend_attributes = {ttcore.argument_type = "parameter", ttir.name = "L__self___layers__modules__1___mlp_up_proj.weight"}} : (tensor<1x9728x2560xbf16>) -> tensor<1x9728x2560xbf16> loc(#loc668)
    %283 = stablehlo.reshape %282 : (tensor<1x9728x2560xbf16>) -> tensor<9728x2560xbf16> loc(#loc669)
    %284 = stablehlo.transpose %283, dims = [1, 0] {result_layout = dense<[0, 1]> : tensor<2xindex>, xla_shape = "bf16[2560,9728]{0,1}"} : (tensor<9728x2560xbf16>) -> tensor<2560x9728xbf16> loc(#loc670)
    %285 = stablehlo.dot_general %270, %284, contracting_dims = [1] x [0] : (tensor<7x2560xbf16>, tensor<2560x9728xbf16>) -> tensor<7x9728xbf16> loc(#loc671)
    %286 = stablehlo.reshape %285 : (tensor<7x9728xbf16>) -> tensor<1x7x9728xbf16> loc(#loc672)
    %287 = stablehlo.multiply %280, %286 : tensor<1x7x9728xbf16> loc(#loc673)
    %288 = stablehlo.reshape %287 : (tensor<1x7x9728xbf16>) -> tensor<7x9728xbf16> loc(#loc674)
    %289 = stablehlo.reshape %arg205 : (tensor<2560x9728xbf16>) -> tensor<1x2560x9728xbf16> loc(#loc675)
    %290 = stablehlo.custom_call @tt.mark_argument(%289) {api_version = 0 : i32, mhlo.frontend_attributes = {ttcore.argument_type = "parameter", ttir.name = "L__self___layers__modules__1___mlp_down_proj.weight"}} : (tensor<1x2560x9728xbf16>) -> tensor<1x2560x9728xbf16> loc(#loc676)
    %291 = stablehlo.reshape %290 : (tensor<1x2560x9728xbf16>) -> tensor<2560x9728xbf16> loc(#loc677)
    %292 = stablehlo.transpose %291, dims = [1, 0] {result_layout = dense<[0, 1]> : tensor<2xindex>, xla_shape = "bf16[9728,2560]{0,1}"} : (tensor<2560x9728xbf16>) -> tensor<9728x2560xbf16> loc(#loc678)
    %293 = stablehlo.dot_general %288, %292, contracting_dims = [1] x [0] : (tensor<7x9728xbf16>, tensor<9728x2560xbf16>) -> tensor<7x2560xbf16> loc(#loc679)
    %294 = stablehlo.reshape %293 : (tensor<7x2560xbf16>) -> tensor<1x7x2560xbf16> loc(#loc680)
    %295 = stablehlo.add %265, %294 : tensor<1x7x2560xbf16> loc(#loc681)
    %296 = stablehlo.reshape %arg204 : (tensor<2560xbf16>) -> tensor<1x1x2560xbf16> loc(#loc682)
    %297 = stablehlo.custom_call @tt.mark_argument(%296) {api_version = 0 : i32, mhlo.frontend_attributes = {ttcore.argument_type = "parameter", ttir.name = "L__self___layers__modules__2___input_layernorm_weight"}} : (tensor<1x1x2560xbf16>) -> tensor<1x1x2560xbf16> loc(#loc683)
    %298 = stablehlo.reshape %297 : (tensor<1x1x2560xbf16>) -> tensor<2560xbf16> loc(#loc684)
    %299 = stablehlo.composite "tenstorrent.rms_norm" %295, %298 {composite_attributes = {epsilon = 9.99999997E-7 : f32, normalized_shape = dense<2560> : tensor<1xi64>}, decomposition = @tenstorrent.rms_norm.impl_36} : (tensor<1x7x2560xbf16>, tensor<2560xbf16>) -> tensor<1x7x2560xbf16> loc(#loc685)
    %300 = stablehlo.reshape %299 : (tensor<1x7x2560xbf16>) -> tensor<7x2560xbf16> loc(#loc686)
    %301 = stablehlo.reshape %arg234 : (tensor<4096x2560xbf16>) -> tensor<1x4096x2560xbf16> loc(#loc687)
    %302 = stablehlo.custom_call @tt.mark_argument(%301) {api_version = 0 : i32, mhlo.frontend_attributes = {ttcore.argument_type = "parameter", ttir.name = "L__self___layers__modules__2___self_attn_q_proj.weight"}} : (tensor<1x4096x2560xbf16>) -> tensor<1x4096x2560xbf16> loc(#loc688)
    %303 = stablehlo.reshape %302 : (tensor<1x4096x2560xbf16>) -> tensor<4096x2560xbf16> loc(#loc689)
    %304 = stablehlo.transpose %303, dims = [1, 0] {result_layout = dense<[0, 1]> : tensor<2xindex>, xla_shape = "bf16[2560,4096]{0,1}"} : (tensor<4096x2560xbf16>) -> tensor<2560x4096xbf16> loc(#loc690)
    %305 = stablehlo.dot_general %300, %304, contracting_dims = [1] x [0] : (tensor<7x2560xbf16>, tensor<2560x4096xbf16>) -> tensor<7x4096xbf16> loc(#loc691)
    %306 = stablehlo.reshape %305 : (tensor<7x4096xbf16>) -> tensor<1x7x32x128xbf16> loc(#loc692)
    %307 = stablehlo.reshape %arg233 : (tensor<128xbf16>) -> tensor<1x1x128xbf16> loc(#loc693)
    %308 = stablehlo.custom_call @tt.mark_argument(%307) {api_version = 0 : i32, mhlo.frontend_attributes = {ttcore.argument_type = "parameter", ttir.name = "L__self___layers__modules__2___self_attn_q_norm_weight"}} : (tensor<1x1x128xbf16>) -> tensor<1x1x128xbf16> loc(#loc694)
    %309 = stablehlo.reshape %308 : (tensor<1x1x128xbf16>) -> tensor<128xbf16> loc(#loc695)
    %310 = stablehlo.composite "tenstorrent.rms_norm" %306, %309 {composite_attributes = {epsilon = 9.99999997E-7 : f32, normalized_shape = dense<128> : tensor<1xi64>}, decomposition = @tenstorrent.rms_norm.impl_37} : (tensor<1x7x32x128xbf16>, tensor<128xbf16>) -> tensor<1x7x32x128xbf16> loc(#loc696)
    %311 = stablehlo.transpose %310, dims = [0, 2, 1, 3] {result_layout = dense<[3, 1, 2, 0]> : tensor<4xindex>, xla_shape = "bf16[1,32,7,128]{3,1,2,0}"} : (tensor<1x7x32x128xbf16>) -> tensor<1x32x7x128xbf16> loc(#loc697)
    %312 = stablehlo.multiply %311, %54 : tensor<1x32x7x128xbf16> loc(#loc698)
    %313 = stablehlo.slice %311 [0:1, 0:32, 0:7, 64:128] : (tensor<1x32x7x128xbf16>) -> tensor<1x32x7x64xbf16> loc(#loc699)
    %314 = stablehlo.negate %313 : tensor<1x32x7x64xbf16> loc(#loc700)
    %315 = stablehlo.slice %311 [0:1, 0:32, 0:7, 0:64] : (tensor<1x32x7x128xbf16>) -> tensor<1x32x7x64xbf16> loc(#loc701)
    %316 = stablehlo.concatenate %314, %315, dim = 3 : (tensor<1x32x7x64xbf16>, tensor<1x32x7x64xbf16>) -> tensor<1x32x7x128xbf16> loc(#loc702)
    %317 = stablehlo.multiply %316, %62 : tensor<1x32x7x128xbf16> loc(#loc703)
    %318 = stablehlo.add %312, %317 : tensor<1x32x7x128xbf16> loc(#loc704)
    %319 = stablehlo.convert %318 : (tensor<1x32x7x128xbf16>) -> tensor<1x32x7x128xf32> loc(#loc705)
    %320 = stablehlo.multiply %319, %15 : tensor<1x32x7x128xf32> loc(#loc706)
    %321 = stablehlo.reshape %arg232 : (tensor<1024x2560xbf16>) -> tensor<1x1024x2560xbf16> loc(#loc707)
    %322 = stablehlo.custom_call @tt.mark_argument(%321) {api_version = 0 : i32, mhlo.frontend_attributes = {ttcore.argument_type = "parameter", ttir.name = "L__self___layers__modules__2___self_attn_k_proj.weight"}} : (tensor<1x1024x2560xbf16>) -> tensor<1x1024x2560xbf16> loc(#loc708)
    %323 = stablehlo.reshape %322 : (tensor<1x1024x2560xbf16>) -> tensor<1024x2560xbf16> loc(#loc709)
    %324 = stablehlo.transpose %323, dims = [1, 0] {result_layout = dense<[0, 1]> : tensor<2xindex>, xla_shape = "bf16[2560,1024]{0,1}"} : (tensor<1024x2560xbf16>) -> tensor<2560x1024xbf16> loc(#loc710)
    %325 = stablehlo.dot_general %300, %324, contracting_dims = [1] x [0] : (tensor<7x2560xbf16>, tensor<2560x1024xbf16>) -> tensor<7x1024xbf16> loc(#loc711)
    %326 = stablehlo.reshape %325 : (tensor<7x1024xbf16>) -> tensor<1x7x8x128xbf16> loc(#loc712)
    %327 = stablehlo.reshape %arg231 : (tensor<128xbf16>) -> tensor<1x1x128xbf16> loc(#loc713)
    %328 = stablehlo.custom_call @tt.mark_argument(%327) {api_version = 0 : i32, mhlo.frontend_attributes = {ttcore.argument_type = "parameter", ttir.name = "L__self___layers__modules__2___self_attn_k_norm_weight"}} : (tensor<1x1x128xbf16>) -> tensor<1x1x128xbf16> loc(#loc714)
    %329 = stablehlo.reshape %328 : (tensor<1x1x128xbf16>) -> tensor<128xbf16> loc(#loc715)
    %330 = stablehlo.composite "tenstorrent.rms_norm" %326, %329 {composite_attributes = {epsilon = 9.99999997E-7 : f32, normalized_shape = dense<128> : tensor<1xi64>}, decomposition = @tenstorrent.rms_norm.impl_31} : (tensor<1x7x8x128xbf16>, tensor<128xbf16>) -> tensor<1x7x8x128xbf16> loc(#loc716)
    %331 = stablehlo.transpose %330, dims = [0, 2, 1, 3] {result_layout = dense<[3, 1, 2, 0]> : tensor<4xindex>, xla_shape = "bf16[1,8,7,128]{3,1,2,0}"} : (tensor<1x7x8x128xbf16>) -> tensor<1x8x7x128xbf16> loc(#loc717)
    %332 = stablehlo.multiply %331, %78 : tensor<1x8x7x128xbf16> loc(#loc718)
    %333 = stablehlo.slice %331 [0:1, 0:8, 0:7, 64:128] : (tensor<1x8x7x128xbf16>) -> tensor<1x8x7x64xbf16> loc(#loc719)
    %334 = stablehlo.negate %333 : tensor<1x8x7x64xbf16> loc(#loc720)
    %335 = stablehlo.slice %331 [0:1, 0:8, 0:7, 0:64] : (tensor<1x8x7x128xbf16>) -> tensor<1x8x7x64xbf16> loc(#loc721)
    %336 = stablehlo.concatenate %334, %335, dim = 3 : (tensor<1x8x7x64xbf16>, tensor<1x8x7x64xbf16>) -> tensor<1x8x7x128xbf16> loc(#loc722)
    %337 = stablehlo.multiply %336, %84 : tensor<1x8x7x128xbf16> loc(#loc723)
    %338 = stablehlo.add %332, %337 : tensor<1x8x7x128xbf16> loc(#loc724)
    %339 = stablehlo.broadcast_in_dim %338, dims = [0, 1, 3, 4] : (tensor<1x8x7x128xbf16>) -> tensor<1x8x4x7x128xbf16> loc(#loc725)
    %340 = stablehlo.reshape %339 : (tensor<1x8x4x7x128xbf16>) -> tensor<1x32x7x128xbf16> loc(#loc726)
    %341 = stablehlo.convert %340 : (tensor<1x32x7x128xbf16>) -> tensor<1x32x7x128xf32> loc(#loc727)
    %342 = stablehlo.transpose %341, dims = [0, 1, 3, 2] {result_layout = dense<[2, 3, 1, 0]> : tensor<4xindex>, xla_shape = "f32[1,32,128,7]{2,3,1,0}"} : (tensor<1x32x7x128xf32>) -> tensor<1x32x128x7xf32> loc(#loc728)
    %343 = stablehlo.multiply %342, %13 : tensor<1x32x128x7xf32> loc(#loc729)
    %344 = stablehlo.dot_general %320, %343, batching_dims = [0, 1] x [0, 1], contracting_dims = [3] x [2] {mhlo.frontend_attributes = {grad_x = "false", grad_y = "false"}} : (tensor<1x32x7x128xf32>, tensor<1x32x128x7xf32>) -> tensor<1x32x7x7xf32> loc(#loc730)
    %345 = stablehlo.add %344, %110 : tensor<1x32x7x7xf32> loc(#loc731)
    %346 = stablehlo.convert %345 : (tensor<1x32x7x7xf32>) -> tensor<1x32x7x7xf64> loc(#loc732)
    %347 = stablehlo.compare  EQ, %346, %3 : (tensor<1x32x7x7xf64>, tensor<1x32x7x7xf64>) -> tensor<1x32x7x7xi1> loc(#loc733)
    %348 = stablehlo.not %347 : tensor<1x32x7x7xi1> loc(#loc734)
    %349 = stablehlo.reduce(%348 init: %18) across dimensions = [3] : (tensor<1x32x7x7xi1>, tensor<i1>) -> tensor<1x32x7xi1>
     reducer(%arg401: tensor<i1> loc("reduce.2525"), %arg402: tensor<i1> loc("reduce.2525"))  {
      %4278 = sdy.constant dense<true> : tensor<i1> loc(#loc)
      %4279 = sdy.constant dense<false> : tensor<i1> loc(#loc)
      %4280 = stablehlo.or %arg401, %arg402 : tensor<i1> loc(#loc736)
      %4281 = stablehlo.select %4280, %4278, %4279 : tensor<i1>, tensor<i1> loc(#loc737)
      stablehlo.return %4281 : tensor<i1> loc(#loc)
    } loc(#loc735)
    %350 = stablehlo.reshape %349 : (tensor<1x32x7xi1>) -> tensor<1x32x7x1xi1> loc(#loc738)
    %351 = stablehlo.not %350 : tensor<1x32x7x1xi1> loc(#loc739)
    %352 = stablehlo.reshape %351 : (tensor<1x32x7x1xi1>) -> tensor<1x32x7xi1> loc(#loc740)
    %353 = stablehlo.broadcast_in_dim %352, dims = [0, 1, 2] : (tensor<1x32x7xi1>) -> tensor<1x32x7x7xi1> loc(#loc741)
    %354 = stablehlo.reduce(%345 init: %17) applies stablehlo.maximum across dimensions = [3] : (tensor<1x32x7x7xf32>, tensor<f32>) -> tensor<1x32x7xf32> loc(#loc742)
    %355 = stablehlo.broadcast_in_dim %354, dims = [0, 1, 2] : (tensor<1x32x7xf32>) -> tensor<1x32x7x7xf32> loc(#loc743)
    %356 = stablehlo.subtract %345, %355 : tensor<1x32x7x7xf32> loc(#loc744)
    %357 = stablehlo.exponential %356 : tensor<1x32x7x7xf32> loc(#loc745)
    %358 = stablehlo.reduce(%357 init: %20) applies stablehlo.add across dimensions = [3] : (tensor<1x32x7x7xf32>, tensor<f32>) -> tensor<1x32x7xf32> loc(#loc746)
    %359 = stablehlo.broadcast_in_dim %358, dims = [0, 1, 2] : (tensor<1x32x7xf32>) -> tensor<1x32x7x7xf32> loc(#loc747)
    %360 = stablehlo.divide %357, %359 : tensor<1x32x7x7xf32> loc(#loc748)
    %361 = stablehlo.select %353, %1, %360 : tensor<1x32x7x7xi1>, tensor<1x32x7x7xf32> loc(#loc749)
    %362 = stablehlo.reshape %arg203 : (tensor<1024x2560xbf16>) -> tensor<1x1024x2560xbf16> loc(#loc750)
    %363 = stablehlo.custom_call @tt.mark_argument(%362) {api_version = 0 : i32, mhlo.frontend_attributes = {ttcore.argument_type = "parameter", ttir.name = "L__self___layers__modules__2___self_attn_v_proj.weight"}} : (tensor<1x1024x2560xbf16>) -> tensor<1x1024x2560xbf16> loc(#loc751)
    %364 = stablehlo.reshape %363 : (tensor<1x1024x2560xbf16>) -> tensor<1024x2560xbf16> loc(#loc752)
    %365 = stablehlo.transpose %364, dims = [1, 0] {result_layout = dense<[0, 1]> : tensor<2xindex>, xla_shape = "bf16[2560,1024]{0,1}"} : (tensor<1024x2560xbf16>) -> tensor<2560x1024xbf16> loc(#loc753)
    %366 = stablehlo.dot_general %300, %365, contracting_dims = [1] x [0] : (tensor<7x2560xbf16>, tensor<2560x1024xbf16>) -> tensor<7x1024xbf16> loc(#loc754)
    %367 = stablehlo.reshape %366 : (tensor<7x1024xbf16>) -> tensor<1x7x8x128xbf16> loc(#loc755)
    %368 = stablehlo.transpose %367, dims = [0, 2, 1, 3] {result_layout = dense<[3, 1, 2, 0]> : tensor<4xindex>, xla_shape = "bf16[1,8,7,128]{3,1,2,0}"} : (tensor<1x7x8x128xbf16>) -> tensor<1x8x7x128xbf16> loc(#loc756)
    %369 = stablehlo.broadcast_in_dim %368, dims = [0, 1, 3, 4] : (tensor<1x8x7x128xbf16>) -> tensor<1x8x4x7x128xbf16> loc(#loc757)
    %370 = stablehlo.reshape %369 : (tensor<1x8x4x7x128xbf16>) -> tensor<1x32x7x128xbf16> loc(#loc758)
    %371 = stablehlo.convert %370 : (tensor<1x32x7x128xbf16>) -> tensor<1x32x7x128xf32> loc(#loc759)
    %372 = stablehlo.dot_general %361, %371, batching_dims = [0, 1] x [0, 1], contracting_dims = [3] x [2] {mhlo.frontend_attributes = {grad_x = "false", grad_y = "false"}} : (tensor<1x32x7x7xf32>, tensor<1x32x7x128xf32>) -> tensor<1x32x7x128xf32> loc(#loc760)
    %373 = stablehlo.convert %372 : (tensor<1x32x7x128xf32>) -> tensor<1x32x7x128xbf16> loc(#loc761)
    %374 = stablehlo.transpose %373, dims = [0, 2, 1, 3] {result_layout = dense<[3, 1, 2, 0]> : tensor<4xindex>, xla_shape = "bf16[1,7,32,128]{3,1,2,0}"} : (tensor<1x32x7x128xbf16>) -> tensor<1x7x32x128xbf16> loc(#loc762)
    %375 = stablehlo.reshape %374 : (tensor<1x7x32x128xbf16>) -> tensor<7x4096xbf16> loc(#loc763)
    %376 = stablehlo.reshape %arg202 : (tensor<2560x4096xbf16>) -> tensor<1x2560x4096xbf16> loc(#loc764)
    %377 = stablehlo.custom_call @tt.mark_argument(%376) {api_version = 0 : i32, mhlo.frontend_attributes = {ttcore.argument_type = "parameter", ttir.name = "L__self___layers__modules__2___self_attn_o_proj.weight"}} : (tensor<1x2560x4096xbf16>) -> tensor<1x2560x4096xbf16> loc(#loc765)
    %378 = stablehlo.reshape %377 : (tensor<1x2560x4096xbf16>) -> tensor<2560x4096xbf16> loc(#loc766)
    %379 = stablehlo.transpose %378, dims = [1, 0] {result_layout = dense<[0, 1]> : tensor<2xindex>, xla_shape = "bf16[4096,2560]{0,1}"} : (tensor<2560x4096xbf16>) -> tensor<4096x2560xbf16> loc(#loc767)
    %380 = stablehlo.dot_general %375, %379, contracting_dims = [1] x [0] : (tensor<7x4096xbf16>, tensor<4096x2560xbf16>) -> tensor<7x2560xbf16> loc(#loc768)
    %381 = stablehlo.reshape %380 : (tensor<7x2560xbf16>) -> tensor<1x7x2560xbf16> loc(#loc769)
    %382 = stablehlo.add %295, %381 : tensor<1x7x2560xbf16> loc(#loc770)
    %383 = stablehlo.reshape %arg201 : (tensor<2560xbf16>) -> tensor<1x1x2560xbf16> loc(#loc771)
    %384 = stablehlo.custom_call @tt.mark_argument(%383) {api_version = 0 : i32, mhlo.frontend_attributes = {ttcore.argument_type = "parameter", ttir.name = "L__self___layers__modules__2___post_attention_layernorm_weight"}} : (tensor<1x1x2560xbf16>) -> tensor<1x1x2560xbf16> loc(#loc772)
    %385 = stablehlo.reshape %384 : (tensor<1x1x2560xbf16>) -> tensor<2560xbf16> loc(#loc773)
    %386 = stablehlo.composite "tenstorrent.rms_norm" %382, %385 {composite_attributes = {epsilon = 9.99999997E-7 : f32, normalized_shape = dense<2560> : tensor<1xi64>}, decomposition = @tenstorrent.rms_norm.impl_14} : (tensor<1x7x2560xbf16>, tensor<2560xbf16>) -> tensor<1x7x2560xbf16> loc(#loc774)
    %387 = stablehlo.reshape %386 : (tensor<1x7x2560xbf16>) -> tensor<7x2560xbf16> loc(#loc775)
    %388 = stablehlo.reshape %arg235 : (tensor<9728x2560xbf16>) -> tensor<1x9728x2560xbf16> loc(#loc776)
    %389 = stablehlo.custom_call @tt.mark_argument(%388) {api_version = 0 : i32, mhlo.frontend_attributes = {ttcore.argument_type = "parameter", ttir.name = "L__self___layers__modules__2___mlp_gate_proj.weight"}} : (tensor<1x9728x2560xbf16>) -> tensor<1x9728x2560xbf16> loc(#loc777)
    %390 = stablehlo.reshape %389 : (tensor<1x9728x2560xbf16>) -> tensor<9728x2560xbf16> loc(#loc778)
    %391 = stablehlo.transpose %390, dims = [1, 0] {result_layout = dense<[0, 1]> : tensor<2xindex>, xla_shape = "bf16[2560,9728]{0,1}"} : (tensor<9728x2560xbf16>) -> tensor<2560x9728xbf16> loc(#loc779)
    %392 = stablehlo.dot_general %387, %391, contracting_dims = [1] x [0] : (tensor<7x2560xbf16>, tensor<2560x9728xbf16>) -> tensor<7x9728xbf16> loc(#loc780)
    %393 = stablehlo.reshape %392 : (tensor<7x9728xbf16>) -> tensor<1x7x9728xbf16> loc(#loc781)
    %394 = stablehlo.convert %393 : (tensor<1x7x9728xbf16>) -> tensor<1x7x9728xf32> loc(#loc782)
    %395 = stablehlo.logistic %394 : tensor<1x7x9728xf32> loc(#loc783)
    %396 = stablehlo.multiply %394, %395 : tensor<1x7x9728xf32> loc(#loc784)
    %397 = stablehlo.convert %396 : (tensor<1x7x9728xf32>) -> tensor<1x7x9728xbf16> loc(#loc785)
    %398 = stablehlo.reshape %arg200 : (tensor<9728x2560xbf16>) -> tensor<1x9728x2560xbf16> loc(#loc786)
    %399 = stablehlo.custom_call @tt.mark_argument(%398) {api_version = 0 : i32, mhlo.frontend_attributes = {ttcore.argument_type = "parameter", ttir.name = "L__self___layers__modules__2___mlp_up_proj.weight"}} : (tensor<1x9728x2560xbf16>) -> tensor<1x9728x2560xbf16> loc(#loc787)
    %400 = stablehlo.reshape %399 : (tensor<1x9728x2560xbf16>) -> tensor<9728x2560xbf16> loc(#loc788)
    %401 = stablehlo.transpose %400, dims = [1, 0] {result_layout = dense<[0, 1]> : tensor<2xindex>, xla_shape = "bf16[2560,9728]{0,1}"} : (tensor<9728x2560xbf16>) -> tensor<2560x9728xbf16> loc(#loc789)
    %402 = stablehlo.dot_general %387, %401, contracting_dims = [1] x [0] : (tensor<7x2560xbf16>, tensor<2560x9728xbf16>) -> tensor<7x9728xbf16> loc(#loc790)
    %403 = stablehlo.reshape %402 : (tensor<7x9728xbf16>) -> tensor<1x7x9728xbf16> loc(#loc791)
    %404 = stablehlo.multiply %397, %403 : tensor<1x7x9728xbf16> loc(#loc792)
    %405 = stablehlo.reshape %404 : (tensor<1x7x9728xbf16>) -> tensor<7x9728xbf16> loc(#loc793)
    %406 = stablehlo.reshape %arg199 : (tensor<2560x9728xbf16>) -> tensor<1x2560x9728xbf16> loc(#loc794)
    %407 = stablehlo.custom_call @tt.mark_argument(%406) {api_version = 0 : i32, mhlo.frontend_attributes = {ttcore.argument_type = "parameter", ttir.name = "L__self___layers__modules__2___mlp_down_proj.weight"}} : (tensor<1x2560x9728xbf16>) -> tensor<1x2560x9728xbf16> loc(#loc795)
    %408 = stablehlo.reshape %407 : (tensor<1x2560x9728xbf16>) -> tensor<2560x9728xbf16> loc(#loc796)
    %409 = stablehlo.transpose %408, dims = [1, 0] {result_layout = dense<[0, 1]> : tensor<2xindex>, xla_shape = "bf16[9728,2560]{0,1}"} : (tensor<2560x9728xbf16>) -> tensor<9728x2560xbf16> loc(#loc797)
    %410 = stablehlo.dot_general %405, %409, contracting_dims = [1] x [0] : (tensor<7x9728xbf16>, tensor<9728x2560xbf16>) -> tensor<7x2560xbf16> loc(#loc798)
    %411 = stablehlo.reshape %410 : (tensor<7x2560xbf16>) -> tensor<1x7x2560xbf16> loc(#loc799)
    %412 = stablehlo.add %382, %411 : tensor<1x7x2560xbf16> loc(#loc800)
    %413 = stablehlo.reshape %arg198 : (tensor<2560xbf16>) -> tensor<1x1x2560xbf16> loc(#loc801)
    %414 = stablehlo.custom_call @tt.mark_argument(%413) {api_version = 0 : i32, mhlo.frontend_attributes = {ttcore.argument_type = "parameter", ttir.name = "L__self___layers__modules__3___input_layernorm_weight"}} : (tensor<1x1x2560xbf16>) -> tensor<1x1x2560xbf16> loc(#loc802)
    %415 = stablehlo.reshape %414 : (tensor<1x1x2560xbf16>) -> tensor<2560xbf16> loc(#loc803)
    %416 = stablehlo.composite "tenstorrent.rms_norm" %412, %415 {composite_attributes = {epsilon = 9.99999997E-7 : f32, normalized_shape = dense<2560> : tensor<1xi64>}, decomposition = @tenstorrent.rms_norm.impl_103} : (tensor<1x7x2560xbf16>, tensor<2560xbf16>) -> tensor<1x7x2560xbf16> loc(#loc804)
    %417 = stablehlo.reshape %416 : (tensor<1x7x2560xbf16>) -> tensor<7x2560xbf16> loc(#loc805)
    %418 = stablehlo.reshape %arg239 : (tensor<4096x2560xbf16>) -> tensor<1x4096x2560xbf16> loc(#loc806)
    %419 = stablehlo.custom_call @tt.mark_argument(%418) {api_version = 0 : i32, mhlo.frontend_attributes = {ttcore.argument_type = "parameter", ttir.name = "L__self___layers__modules__3___self_attn_q_proj.weight"}} : (tensor<1x4096x2560xbf16>) -> tensor<1x4096x2560xbf16> loc(#loc807)
    %420 = stablehlo.reshape %419 : (tensor<1x4096x2560xbf16>) -> tensor<4096x2560xbf16> loc(#loc808)
    %421 = stablehlo.transpose %420, dims = [1, 0] {result_layout = dense<[0, 1]> : tensor<2xindex>, xla_shape = "bf16[2560,4096]{0,1}"} : (tensor<4096x2560xbf16>) -> tensor<2560x4096xbf16> loc(#loc809)
    %422 = stablehlo.dot_general %417, %421, contracting_dims = [1] x [0] : (tensor<7x2560xbf16>, tensor<2560x4096xbf16>) -> tensor<7x4096xbf16> loc(#loc810)
    %423 = stablehlo.reshape %422 : (tensor<7x4096xbf16>) -> tensor<1x7x32x128xbf16> loc(#loc811)
    %424 = stablehlo.reshape %arg238 : (tensor<128xbf16>) -> tensor<1x1x128xbf16> loc(#loc812)
    %425 = stablehlo.custom_call @tt.mark_argument(%424) {api_version = 0 : i32, mhlo.frontend_attributes = {ttcore.argument_type = "parameter", ttir.name = "L__self___layers__modules__3___self_attn_q_norm_weight"}} : (tensor<1x1x128xbf16>) -> tensor<1x1x128xbf16> loc(#loc813)
    %426 = stablehlo.reshape %425 : (tensor<1x1x128xbf16>) -> tensor<128xbf16> loc(#loc814)
    %427 = stablehlo.composite "tenstorrent.rms_norm" %423, %426 {composite_attributes = {epsilon = 9.99999997E-7 : f32, normalized_shape = dense<128> : tensor<1xi64>}, decomposition = @tenstorrent.rms_norm.impl_54} : (tensor<1x7x32x128xbf16>, tensor<128xbf16>) -> tensor<1x7x32x128xbf16> loc(#loc815)
    %428 = stablehlo.transpose %427, dims = [0, 2, 1, 3] {result_layout = dense<[3, 1, 2, 0]> : tensor<4xindex>, xla_shape = "bf16[1,32,7,128]{3,1,2,0}"} : (tensor<1x7x32x128xbf16>) -> tensor<1x32x7x128xbf16> loc(#loc816)
    %429 = stablehlo.multiply %428, %54 : tensor<1x32x7x128xbf16> loc(#loc817)
    %430 = stablehlo.slice %428 [0:1, 0:32, 0:7, 64:128] : (tensor<1x32x7x128xbf16>) -> tensor<1x32x7x64xbf16> loc(#loc818)
    %431 = stablehlo.negate %430 : tensor<1x32x7x64xbf16> loc(#loc819)
    %432 = stablehlo.slice %428 [0:1, 0:32, 0:7, 0:64] : (tensor<1x32x7x128xbf16>) -> tensor<1x32x7x64xbf16> loc(#loc820)
    %433 = stablehlo.concatenate %431, %432, dim = 3 : (tensor<1x32x7x64xbf16>, tensor<1x32x7x64xbf16>) -> tensor<1x32x7x128xbf16> loc(#loc821)
    %434 = stablehlo.multiply %433, %62 : tensor<1x32x7x128xbf16> loc(#loc822)
    %435 = stablehlo.add %429, %434 : tensor<1x32x7x128xbf16> loc(#loc823)
    %436 = stablehlo.convert %435 : (tensor<1x32x7x128xbf16>) -> tensor<1x32x7x128xf32> loc(#loc824)
    %437 = stablehlo.multiply %436, %15 : tensor<1x32x7x128xf32> loc(#loc825)
    %438 = stablehlo.reshape %arg237 : (tensor<1024x2560xbf16>) -> tensor<1x1024x2560xbf16> loc(#loc826)
    %439 = stablehlo.custom_call @tt.mark_argument(%438) {api_version = 0 : i32, mhlo.frontend_attributes = {ttcore.argument_type = "parameter", ttir.name = "L__self___layers__modules__3___self_attn_k_proj.weight"}} : (tensor<1x1024x2560xbf16>) -> tensor<1x1024x2560xbf16> loc(#loc827)
    %440 = stablehlo.reshape %439 : (tensor<1x1024x2560xbf16>) -> tensor<1024x2560xbf16> loc(#loc828)
    %441 = stablehlo.transpose %440, dims = [1, 0] {result_layout = dense<[0, 1]> : tensor<2xindex>, xla_shape = "bf16[2560,1024]{0,1}"} : (tensor<1024x2560xbf16>) -> tensor<2560x1024xbf16> loc(#loc829)
    %442 = stablehlo.dot_general %417, %441, contracting_dims = [1] x [0] : (tensor<7x2560xbf16>, tensor<2560x1024xbf16>) -> tensor<7x1024xbf16> loc(#loc830)
    %443 = stablehlo.reshape %442 : (tensor<7x1024xbf16>) -> tensor<1x7x8x128xbf16> loc(#loc831)
    %444 = stablehlo.reshape %arg236 : (tensor<128xbf16>) -> tensor<1x1x128xbf16> loc(#loc832)
    %445 = stablehlo.custom_call @tt.mark_argument(%444) {api_version = 0 : i32, mhlo.frontend_attributes = {ttcore.argument_type = "parameter", ttir.name = "L__self___layers__modules__3___self_attn_k_norm_weight"}} : (tensor<1x1x128xbf16>) -> tensor<1x1x128xbf16> loc(#loc833)
    %446 = stablehlo.reshape %445 : (tensor<1x1x128xbf16>) -> tensor<128xbf16> loc(#loc834)
    %447 = stablehlo.composite "tenstorrent.rms_norm" %443, %446 {composite_attributes = {epsilon = 9.99999997E-7 : f32, normalized_shape = dense<128> : tensor<1xi64>}, decomposition = @tenstorrent.rms_norm.impl_67} : (tensor<1x7x8x128xbf16>, tensor<128xbf16>) -> tensor<1x7x8x128xbf16> loc(#loc835)
    %448 = stablehlo.transpose %447, dims = [0, 2, 1, 3] {result_layout = dense<[3, 1, 2, 0]> : tensor<4xindex>, xla_shape = "bf16[1,8,7,128]{3,1,2,0}"} : (tensor<1x7x8x128xbf16>) -> tensor<1x8x7x128xbf16> loc(#loc836)
    %449 = stablehlo.multiply %448, %78 : tensor<1x8x7x128xbf16> loc(#loc837)
    %450 = stablehlo.slice %448 [0:1, 0:8, 0:7, 64:128] : (tensor<1x8x7x128xbf16>) -> tensor<1x8x7x64xbf16> loc(#loc838)
    %451 = stablehlo.negate %450 : tensor<1x8x7x64xbf16> loc(#loc839)
    %452 = stablehlo.slice %448 [0:1, 0:8, 0:7, 0:64] : (tensor<1x8x7x128xbf16>) -> tensor<1x8x7x64xbf16> loc(#loc840)
    %453 = stablehlo.concatenate %451, %452, dim = 3 : (tensor<1x8x7x64xbf16>, tensor<1x8x7x64xbf16>) -> tensor<1x8x7x128xbf16> loc(#loc841)
    %454 = stablehlo.multiply %453, %84 : tensor<1x8x7x128xbf16> loc(#loc842)
    %455 = stablehlo.add %449, %454 : tensor<1x8x7x128xbf16> loc(#loc843)
    %456 = stablehlo.broadcast_in_dim %455, dims = [0, 1, 3, 4] : (tensor<1x8x7x128xbf16>) -> tensor<1x8x4x7x128xbf16> loc(#loc844)
    %457 = stablehlo.reshape %456 : (tensor<1x8x4x7x128xbf16>) -> tensor<1x32x7x128xbf16> loc(#loc845)
    %458 = stablehlo.convert %457 : (tensor<1x32x7x128xbf16>) -> tensor<1x32x7x128xf32> loc(#loc846)
    %459 = stablehlo.transpose %458, dims = [0, 1, 3, 2] {result_layout = dense<[2, 3, 1, 0]> : tensor<4xindex>, xla_shape = "f32[1,32,128,7]{2,3,1,0}"} : (tensor<1x32x7x128xf32>) -> tensor<1x32x128x7xf32> loc(#loc847)
    %460 = stablehlo.multiply %459, %13 : tensor<1x32x128x7xf32> loc(#loc848)
    %461 = stablehlo.dot_general %437, %460, batching_dims = [0, 1] x [0, 1], contracting_dims = [3] x [2] {mhlo.frontend_attributes = {grad_x = "false", grad_y = "false"}} : (tensor<1x32x7x128xf32>, tensor<1x32x128x7xf32>) -> tensor<1x32x7x7xf32> loc(#loc849)
    %462 = stablehlo.add %461, %110 : tensor<1x32x7x7xf32> loc(#loc850)
    %463 = stablehlo.convert %462 : (tensor<1x32x7x7xf32>) -> tensor<1x32x7x7xf64> loc(#loc851)
    %464 = stablehlo.compare  EQ, %463, %3 : (tensor<1x32x7x7xf64>, tensor<1x32x7x7xf64>) -> tensor<1x32x7x7xi1> loc(#loc852)
    %465 = stablehlo.not %464 : tensor<1x32x7x7xi1> loc(#loc853)
    %466 = stablehlo.reduce(%465 init: %18) across dimensions = [3] : (tensor<1x32x7x7xi1>, tensor<i1>) -> tensor<1x32x7xi1>
     reducer(%arg401: tensor<i1> loc("reduce.2858"), %arg402: tensor<i1> loc("reduce.2858"))  {
      %4278 = sdy.constant dense<true> : tensor<i1> loc(#loc)
      %4279 = sdy.constant dense<false> : tensor<i1> loc(#loc)
      %4280 = stablehlo.or %arg401, %arg402 : tensor<i1> loc(#loc855)
      %4281 = stablehlo.select %4280, %4278, %4279 : tensor<i1>, tensor<i1> loc(#loc856)
      stablehlo.return %4281 : tensor<i1> loc(#loc)
    } loc(#loc854)
    %467 = stablehlo.reshape %466 : (tensor<1x32x7xi1>) -> tensor<1x32x7x1xi1> loc(#loc857)
    %468 = stablehlo.not %467 : tensor<1x32x7x1xi1> loc(#loc858)
    %469 = stablehlo.reshape %468 : (tensor<1x32x7x1xi1>) -> tensor<1x32x7xi1> loc(#loc859)
    %470 = stablehlo.broadcast_in_dim %469, dims = [0, 1, 2] : (tensor<1x32x7xi1>) -> tensor<1x32x7x7xi1> loc(#loc860)
    %471 = stablehlo.reduce(%462 init: %17) applies stablehlo.maximum across dimensions = [3] : (tensor<1x32x7x7xf32>, tensor<f32>) -> tensor<1x32x7xf32> loc(#loc861)
    %472 = stablehlo.broadcast_in_dim %471, dims = [0, 1, 2] : (tensor<1x32x7xf32>) -> tensor<1x32x7x7xf32> loc(#loc862)
    %473 = stablehlo.subtract %462, %472 : tensor<1x32x7x7xf32> loc(#loc863)
    %474 = stablehlo.exponential %473 : tensor<1x32x7x7xf32> loc(#loc864)
    %475 = stablehlo.reduce(%474 init: %20) applies stablehlo.add across dimensions = [3] : (tensor<1x32x7x7xf32>, tensor<f32>) -> tensor<1x32x7xf32> loc(#loc865)
    %476 = stablehlo.broadcast_in_dim %475, dims = [0, 1, 2] : (tensor<1x32x7xf32>) -> tensor<1x32x7x7xf32> loc(#loc866)
    %477 = stablehlo.divide %474, %476 : tensor<1x32x7x7xf32> loc(#loc867)
    %478 = stablehlo.select %470, %1, %477 : tensor<1x32x7x7xi1>, tensor<1x32x7x7xf32> loc(#loc868)
    %479 = stablehlo.reshape %arg197 : (tensor<1024x2560xbf16>) -> tensor<1x1024x2560xbf16> loc(#loc869)
    %480 = stablehlo.custom_call @tt.mark_argument(%479) {api_version = 0 : i32, mhlo.frontend_attributes = {ttcore.argument_type = "parameter", ttir.name = "L__self___layers__modules__3___self_attn_v_proj.weight"}} : (tensor<1x1024x2560xbf16>) -> tensor<1x1024x2560xbf16> loc(#loc870)
    %481 = stablehlo.reshape %480 : (tensor<1x1024x2560xbf16>) -> tensor<1024x2560xbf16> loc(#loc871)
    %482 = stablehlo.transpose %481, dims = [1, 0] {result_layout = dense<[0, 1]> : tensor<2xindex>, xla_shape = "bf16[2560,1024]{0,1}"} : (tensor<1024x2560xbf16>) -> tensor<2560x1024xbf16> loc(#loc872)
    %483 = stablehlo.dot_general %417, %482, contracting_dims = [1] x [0] : (tensor<7x2560xbf16>, tensor<2560x1024xbf16>) -> tensor<7x1024xbf16> loc(#loc873)
    %484 = stablehlo.reshape %483 : (tensor<7x1024xbf16>) -> tensor<1x7x8x128xbf16> loc(#loc874)
    %485 = stablehlo.transpose %484, dims = [0, 2, 1, 3] {result_layout = dense<[3, 1, 2, 0]> : tensor<4xindex>, xla_shape = "bf16[1,8,7,128]{3,1,2,0}"} : (tensor<1x7x8x128xbf16>) -> tensor<1x8x7x128xbf16> loc(#loc875)
    %486 = stablehlo.broadcast_in_dim %485, dims = [0, 1, 3, 4] : (tensor<1x8x7x128xbf16>) -> tensor<1x8x4x7x128xbf16> loc(#loc876)
    %487 = stablehlo.reshape %486 : (tensor<1x8x4x7x128xbf16>) -> tensor<1x32x7x128xbf16> loc(#loc877)
    %488 = stablehlo.convert %487 : (tensor<1x32x7x128xbf16>) -> tensor<1x32x7x128xf32> loc(#loc878)
    %489 = stablehlo.dot_general %478, %488, batching_dims = [0, 1] x [0, 1], contracting_dims = [3] x [2] {mhlo.frontend_attributes = {grad_x = "false", grad_y = "false"}} : (tensor<1x32x7x7xf32>, tensor<1x32x7x128xf32>) -> tensor<1x32x7x128xf32> loc(#loc879)
    %490 = stablehlo.convert %489 : (tensor<1x32x7x128xf32>) -> tensor<1x32x7x128xbf16> loc(#loc880)
    %491 = stablehlo.transpose %490, dims = [0, 2, 1, 3] {result_layout = dense<[3, 1, 2, 0]> : tensor<4xindex>, xla_shape = "bf16[1,7,32,128]{3,1,2,0}"} : (tensor<1x32x7x128xbf16>) -> tensor<1x7x32x128xbf16> loc(#loc881)
    %492 = stablehlo.reshape %491 : (tensor<1x7x32x128xbf16>) -> tensor<7x4096xbf16> loc(#loc882)
    %493 = stablehlo.reshape %arg196 : (tensor<2560x4096xbf16>) -> tensor<1x2560x4096xbf16> loc(#loc883)
    %494 = stablehlo.custom_call @tt.mark_argument(%493) {api_version = 0 : i32, mhlo.frontend_attributes = {ttcore.argument_type = "parameter", ttir.name = "L__self___layers__modules__3___self_attn_o_proj.weight"}} : (tensor<1x2560x4096xbf16>) -> tensor<1x2560x4096xbf16> loc(#loc884)
    %495 = stablehlo.reshape %494 : (tensor<1x2560x4096xbf16>) -> tensor<2560x4096xbf16> loc(#loc885)
    %496 = stablehlo.transpose %495, dims = [1, 0] {result_layout = dense<[0, 1]> : tensor<2xindex>, xla_shape = "bf16[4096,2560]{0,1}"} : (tensor<2560x4096xbf16>) -> tensor<4096x2560xbf16> loc(#loc886)
    %497 = stablehlo.dot_general %492, %496, contracting_dims = [1] x [0] : (tensor<7x4096xbf16>, tensor<4096x2560xbf16>) -> tensor<7x2560xbf16> loc(#loc887)
    %498 = stablehlo.reshape %497 : (tensor<7x2560xbf16>) -> tensor<1x7x2560xbf16> loc(#loc888)
    %499 = stablehlo.add %412, %498 : tensor<1x7x2560xbf16> loc(#loc889)
    %500 = stablehlo.reshape %arg195 : (tensor<2560xbf16>) -> tensor<1x1x2560xbf16> loc(#loc890)
    %501 = stablehlo.custom_call @tt.mark_argument(%500) {api_version = 0 : i32, mhlo.frontend_attributes = {ttcore.argument_type = "parameter", ttir.name = "L__self___layers__modules__3___post_attention_layernorm_weight"}} : (tensor<1x1x2560xbf16>) -> tensor<1x1x2560xbf16> loc(#loc891)
    %502 = stablehlo.reshape %501 : (tensor<1x1x2560xbf16>) -> tensor<2560xbf16> loc(#loc892)
    %503 = stablehlo.composite "tenstorrent.rms_norm" %499, %502 {composite_attributes = {epsilon = 9.99999997E-7 : f32, normalized_shape = dense<2560> : tensor<1xi64>}, decomposition = @tenstorrent.rms_norm.impl_18} : (tensor<1x7x2560xbf16>, tensor<2560xbf16>) -> tensor<1x7x2560xbf16> loc(#loc893)
    %504 = stablehlo.reshape %503 : (tensor<1x7x2560xbf16>) -> tensor<7x2560xbf16> loc(#loc894)
    %505 = stablehlo.reshape %arg240 : (tensor<9728x2560xbf16>) -> tensor<1x9728x2560xbf16> loc(#loc895)
    %506 = stablehlo.custom_call @tt.mark_argument(%505) {api_version = 0 : i32, mhlo.frontend_attributes = {ttcore.argument_type = "parameter", ttir.name = "L__self___layers__modules__3___mlp_gate_proj.weight"}} : (tensor<1x9728x2560xbf16>) -> tensor<1x9728x2560xbf16> loc(#loc896)
    %507 = stablehlo.reshape %506 : (tensor<1x9728x2560xbf16>) -> tensor<9728x2560xbf16> loc(#loc897)
    %508 = stablehlo.transpose %507, dims = [1, 0] {result_layout = dense<[0, 1]> : tensor<2xindex>, xla_shape = "bf16[2560,9728]{0,1}"} : (tensor<9728x2560xbf16>) -> tensor<2560x9728xbf16> loc(#loc898)
    %509 = stablehlo.dot_general %504, %508, contracting_dims = [1] x [0] : (tensor<7x2560xbf16>, tensor<2560x9728xbf16>) -> tensor<7x9728xbf16> loc(#loc899)
    %510 = stablehlo.reshape %509 : (tensor<7x9728xbf16>) -> tensor<1x7x9728xbf16> loc(#loc900)
    %511 = stablehlo.convert %510 : (tensor<1x7x9728xbf16>) -> tensor<1x7x9728xf32> loc(#loc901)
    %512 = stablehlo.logistic %511 : tensor<1x7x9728xf32> loc(#loc902)
    %513 = stablehlo.multiply %511, %512 : tensor<1x7x9728xf32> loc(#loc903)
    %514 = stablehlo.convert %513 : (tensor<1x7x9728xf32>) -> tensor<1x7x9728xbf16> loc(#loc904)
    %515 = stablehlo.reshape %arg194 : (tensor<9728x2560xbf16>) -> tensor<1x9728x2560xbf16> loc(#loc905)
    %516 = stablehlo.custom_call @tt.mark_argument(%515) {api_version = 0 : i32, mhlo.frontend_attributes = {ttcore.argument_type = "parameter", ttir.name = "L__self___layers__modules__3___mlp_up_proj.weight"}} : (tensor<1x9728x2560xbf16>) -> tensor<1x9728x2560xbf16> loc(#loc906)
    %517 = stablehlo.reshape %516 : (tensor<1x9728x2560xbf16>) -> tensor<9728x2560xbf16> loc(#loc907)
    %518 = stablehlo.transpose %517, dims = [1, 0] {result_layout = dense<[0, 1]> : tensor<2xindex>, xla_shape = "bf16[2560,9728]{0,1}"} : (tensor<9728x2560xbf16>) -> tensor<2560x9728xbf16> loc(#loc908)
    %519 = stablehlo.dot_general %504, %518, contracting_dims = [1] x [0] : (tensor<7x2560xbf16>, tensor<2560x9728xbf16>) -> tensor<7x9728xbf16> loc(#loc909)
    %520 = stablehlo.reshape %519 : (tensor<7x9728xbf16>) -> tensor<1x7x9728xbf16> loc(#loc910)
    %521 = stablehlo.multiply %514, %520 : tensor<1x7x9728xbf16> loc(#loc911)
    %522 = stablehlo.reshape %521 : (tensor<1x7x9728xbf16>) -> tensor<7x9728xbf16> loc(#loc912)
    %523 = stablehlo.reshape %arg193 : (tensor<2560x9728xbf16>) -> tensor<1x2560x9728xbf16> loc(#loc913)
    %524 = stablehlo.custom_call @tt.mark_argument(%523) {api_version = 0 : i32, mhlo.frontend_attributes = {ttcore.argument_type = "parameter", ttir.name = "L__self___layers__modules__3___mlp_down_proj.weight"}} : (tensor<1x2560x9728xbf16>) -> tensor<1x2560x9728xbf16> loc(#loc914)
    %525 = stablehlo.reshape %524 : (tensor<1x2560x9728xbf16>) -> tensor<2560x9728xbf16> loc(#loc915)
    %526 = stablehlo.transpose %525, dims = [1, 0] {result_layout = dense<[0, 1]> : tensor<2xindex>, xla_shape = "bf16[9728,2560]{0,1}"} : (tensor<2560x9728xbf16>) -> tensor<9728x2560xbf16> loc(#loc916)
    %527 = stablehlo.dot_general %522, %526, contracting_dims = [1] x [0] : (tensor<7x9728xbf16>, tensor<9728x2560xbf16>) -> tensor<7x2560xbf16> loc(#loc917)
    %528 = stablehlo.reshape %527 : (tensor<7x2560xbf16>) -> tensor<1x7x2560xbf16> loc(#loc918)
    %529 = stablehlo.add %499, %528 : tensor<1x7x2560xbf16> loc(#loc919)
    %530 = stablehlo.reshape %arg192 : (tensor<2560xbf16>) -> tensor<1x1x2560xbf16> loc(#loc920)
    %531 = stablehlo.custom_call @tt.mark_argument(%530) {api_version = 0 : i32, mhlo.frontend_attributes = {ttcore.argument_type = "parameter", ttir.name = "L__self___layers__modules__4___input_layernorm_weight"}} : (tensor<1x1x2560xbf16>) -> tensor<1x1x2560xbf16> loc(#loc921)
    %532 = stablehlo.reshape %531 : (tensor<1x1x2560xbf16>) -> tensor<2560xbf16> loc(#loc922)
    %533 = stablehlo.composite "tenstorrent.rms_norm" %529, %532 {composite_attributes = {epsilon = 9.99999997E-7 : f32, normalized_shape = dense<2560> : tensor<1xi64>}, decomposition = @tenstorrent.rms_norm.impl_72} : (tensor<1x7x2560xbf16>, tensor<2560xbf16>) -> tensor<1x7x2560xbf16> loc(#loc923)
    %534 = stablehlo.reshape %533 : (tensor<1x7x2560xbf16>) -> tensor<7x2560xbf16> loc(#loc924)
    %535 = stablehlo.reshape %arg244 : (tensor<4096x2560xbf16>) -> tensor<1x4096x2560xbf16> loc(#loc925)
    %536 = stablehlo.custom_call @tt.mark_argument(%535) {api_version = 0 : i32, mhlo.frontend_attributes = {ttcore.argument_type = "parameter", ttir.name = "L__self___layers__modules__4___self_attn_q_proj.weight"}} : (tensor<1x4096x2560xbf16>) -> tensor<1x4096x2560xbf16> loc(#loc926)
    %537 = stablehlo.reshape %536 : (tensor<1x4096x2560xbf16>) -> tensor<4096x2560xbf16> loc(#loc927)
    %538 = stablehlo.transpose %537, dims = [1, 0] {result_layout = dense<[0, 1]> : tensor<2xindex>, xla_shape = "bf16[2560,4096]{0,1}"} : (tensor<4096x2560xbf16>) -> tensor<2560x4096xbf16> loc(#loc928)
    %539 = stablehlo.dot_general %534, %538, contracting_dims = [1] x [0] : (tensor<7x2560xbf16>, tensor<2560x4096xbf16>) -> tensor<7x4096xbf16> loc(#loc929)
    %540 = stablehlo.reshape %539 : (tensor<7x4096xbf16>) -> tensor<1x7x32x128xbf16> loc(#loc930)
    %541 = stablehlo.reshape %arg243 : (tensor<128xbf16>) -> tensor<1x1x128xbf16> loc(#loc931)
    %542 = stablehlo.custom_call @tt.mark_argument(%541) {api_version = 0 : i32, mhlo.frontend_attributes = {ttcore.argument_type = "parameter", ttir.name = "L__self___layers__modules__4___self_attn_q_norm_weight"}} : (tensor<1x1x128xbf16>) -> tensor<1x1x128xbf16> loc(#loc932)
    %543 = stablehlo.reshape %542 : (tensor<1x1x128xbf16>) -> tensor<128xbf16> loc(#loc933)
    %544 = stablehlo.composite "tenstorrent.rms_norm" %540, %543 {composite_attributes = {epsilon = 9.99999997E-7 : f32, normalized_shape = dense<128> : tensor<1xi64>}, decomposition = @tenstorrent.rms_norm.impl_73} : (tensor<1x7x32x128xbf16>, tensor<128xbf16>) -> tensor<1x7x32x128xbf16> loc(#loc934)
    %545 = stablehlo.transpose %544, dims = [0, 2, 1, 3] {result_layout = dense<[3, 1, 2, 0]> : tensor<4xindex>, xla_shape = "bf16[1,32,7,128]{3,1,2,0}"} : (tensor<1x7x32x128xbf16>) -> tensor<1x32x7x128xbf16> loc(#loc935)
    %546 = stablehlo.multiply %545, %54 : tensor<1x32x7x128xbf16> loc(#loc936)
    %547 = stablehlo.slice %545 [0:1, 0:32, 0:7, 64:128] : (tensor<1x32x7x128xbf16>) -> tensor<1x32x7x64xbf16> loc(#loc937)
    %548 = stablehlo.negate %547 : tensor<1x32x7x64xbf16> loc(#loc938)
    %549 = stablehlo.slice %545 [0:1, 0:32, 0:7, 0:64] : (tensor<1x32x7x128xbf16>) -> tensor<1x32x7x64xbf16> loc(#loc939)
    %550 = stablehlo.concatenate %548, %549, dim = 3 : (tensor<1x32x7x64xbf16>, tensor<1x32x7x64xbf16>) -> tensor<1x32x7x128xbf16> loc(#loc940)
    %551 = stablehlo.multiply %550, %62 : tensor<1x32x7x128xbf16> loc(#loc941)
    %552 = stablehlo.add %546, %551 : tensor<1x32x7x128xbf16> loc(#loc942)
    %553 = stablehlo.convert %552 : (tensor<1x32x7x128xbf16>) -> tensor<1x32x7x128xf32> loc(#loc943)
    %554 = stablehlo.multiply %553, %15 : tensor<1x32x7x128xf32> loc(#loc944)
    %555 = stablehlo.reshape %arg242 : (tensor<1024x2560xbf16>) -> tensor<1x1024x2560xbf16> loc(#loc945)
    %556 = stablehlo.custom_call @tt.mark_argument(%555) {api_version = 0 : i32, mhlo.frontend_attributes = {ttcore.argument_type = "parameter", ttir.name = "L__self___layers__modules__4___self_attn_k_proj.weight"}} : (tensor<1x1024x2560xbf16>) -> tensor<1x1024x2560xbf16> loc(#loc946)
    %557 = stablehlo.reshape %556 : (tensor<1x1024x2560xbf16>) -> tensor<1024x2560xbf16> loc(#loc947)
    %558 = stablehlo.transpose %557, dims = [1, 0] {result_layout = dense<[0, 1]> : tensor<2xindex>, xla_shape = "bf16[2560,1024]{0,1}"} : (tensor<1024x2560xbf16>) -> tensor<2560x1024xbf16> loc(#loc948)
    %559 = stablehlo.dot_general %534, %558, contracting_dims = [1] x [0] : (tensor<7x2560xbf16>, tensor<2560x1024xbf16>) -> tensor<7x1024xbf16> loc(#loc949)
    %560 = stablehlo.reshape %559 : (tensor<7x1024xbf16>) -> tensor<1x7x8x128xbf16> loc(#loc950)
    %561 = stablehlo.reshape %arg241 : (tensor<128xbf16>) -> tensor<1x1x128xbf16> loc(#loc951)
    %562 = stablehlo.custom_call @tt.mark_argument(%561) {api_version = 0 : i32, mhlo.frontend_attributes = {ttcore.argument_type = "parameter", ttir.name = "L__self___layers__modules__4___self_attn_k_norm_weight"}} : (tensor<1x1x128xbf16>) -> tensor<1x1x128xbf16> loc(#loc952)
    %563 = stablehlo.reshape %562 : (tensor<1x1x128xbf16>) -> tensor<128xbf16> loc(#loc953)
    %564 = stablehlo.composite "tenstorrent.rms_norm" %560, %563 {composite_attributes = {epsilon = 9.99999997E-7 : f32, normalized_shape = dense<128> : tensor<1xi64>}, decomposition = @tenstorrent.rms_norm.impl_55} : (tensor<1x7x8x128xbf16>, tensor<128xbf16>) -> tensor<1x7x8x128xbf16> loc(#loc954)
    %565 = stablehlo.transpose %564, dims = [0, 2, 1, 3] {result_layout = dense<[3, 1, 2, 0]> : tensor<4xindex>, xla_shape = "bf16[1,8,7,128]{3,1,2,0}"} : (tensor<1x7x8x128xbf16>) -> tensor<1x8x7x128xbf16> loc(#loc955)
    %566 = stablehlo.multiply %565, %78 : tensor<1x8x7x128xbf16> loc(#loc956)
    %567 = stablehlo.slice %565 [0:1, 0:8, 0:7, 64:128] : (tensor<1x8x7x128xbf16>) -> tensor<1x8x7x64xbf16> loc(#loc957)
    %568 = stablehlo.negate %567 : tensor<1x8x7x64xbf16> loc(#loc958)
    %569 = stablehlo.slice %565 [0:1, 0:8, 0:7, 0:64] : (tensor<1x8x7x128xbf16>) -> tensor<1x8x7x64xbf16> loc(#loc959)
    %570 = stablehlo.concatenate %568, %569, dim = 3 : (tensor<1x8x7x64xbf16>, tensor<1x8x7x64xbf16>) -> tensor<1x8x7x128xbf16> loc(#loc960)
    %571 = stablehlo.multiply %570, %84 : tensor<1x8x7x128xbf16> loc(#loc961)
    %572 = stablehlo.add %566, %571 : tensor<1x8x7x128xbf16> loc(#loc962)
    %573 = stablehlo.broadcast_in_dim %572, dims = [0, 1, 3, 4] : (tensor<1x8x7x128xbf16>) -> tensor<1x8x4x7x128xbf16> loc(#loc963)
    %574 = stablehlo.reshape %573 : (tensor<1x8x4x7x128xbf16>) -> tensor<1x32x7x128xbf16> loc(#loc964)
    %575 = stablehlo.convert %574 : (tensor<1x32x7x128xbf16>) -> tensor<1x32x7x128xf32> loc(#loc965)
    %576 = stablehlo.transpose %575, dims = [0, 1, 3, 2] {result_layout = dense<[2, 3, 1, 0]> : tensor<4xindex>, xla_shape = "f32[1,32,128,7]{2,3,1,0}"} : (tensor<1x32x7x128xf32>) -> tensor<1x32x128x7xf32> loc(#loc966)
    %577 = stablehlo.multiply %576, %13 : tensor<1x32x128x7xf32> loc(#loc967)
    %578 = stablehlo.dot_general %554, %577, batching_dims = [0, 1] x [0, 1], contracting_dims = [3] x [2] {mhlo.frontend_attributes = {grad_x = "false", grad_y = "false"}} : (tensor<1x32x7x128xf32>, tensor<1x32x128x7xf32>) -> tensor<1x32x7x7xf32> loc(#loc968)
    %579 = stablehlo.add %578, %110 : tensor<1x32x7x7xf32> loc(#loc969)
    %580 = stablehlo.convert %579 : (tensor<1x32x7x7xf32>) -> tensor<1x32x7x7xf64> loc(#loc970)
    %581 = stablehlo.compare  EQ, %580, %3 : (tensor<1x32x7x7xf64>, tensor<1x32x7x7xf64>) -> tensor<1x32x7x7xi1> loc(#loc971)
    %582 = stablehlo.not %581 : tensor<1x32x7x7xi1> loc(#loc972)
    %583 = stablehlo.reduce(%582 init: %18) across dimensions = [3] : (tensor<1x32x7x7xi1>, tensor<i1>) -> tensor<1x32x7xi1>
     reducer(%arg401: tensor<i1> loc("reduce.3191"), %arg402: tensor<i1> loc("reduce.3191"))  {
      %4278 = sdy.constant dense<true> : tensor<i1> loc(#loc)
      %4279 = sdy.constant dense<false> : tensor<i1> loc(#loc)
      %4280 = stablehlo.or %arg401, %arg402 : tensor<i1> loc(#loc974)
      %4281 = stablehlo.select %4280, %4278, %4279 : tensor<i1>, tensor<i1> loc(#loc975)
      stablehlo.return %4281 : tensor<i1> loc(#loc)
    } loc(#loc973)
    %584 = stablehlo.reshape %583 : (tensor<1x32x7xi1>) -> tensor<1x32x7x1xi1> loc(#loc976)
    %585 = stablehlo.not %584 : tensor<1x32x7x1xi1> loc(#loc977)
    %586 = stablehlo.reshape %585 : (tensor<1x32x7x1xi1>) -> tensor<1x32x7xi1> loc(#loc978)
    %587 = stablehlo.broadcast_in_dim %586, dims = [0, 1, 2] : (tensor<1x32x7xi1>) -> tensor<1x32x7x7xi1> loc(#loc979)
    %588 = stablehlo.reduce(%579 init: %17) applies stablehlo.maximum across dimensions = [3] : (tensor<1x32x7x7xf32>, tensor<f32>) -> tensor<1x32x7xf32> loc(#loc980)
    %589 = stablehlo.broadcast_in_dim %588, dims = [0, 1, 2] : (tensor<1x32x7xf32>) -> tensor<1x32x7x7xf32> loc(#loc981)
    %590 = stablehlo.subtract %579, %589 : tensor<1x32x7x7xf32> loc(#loc982)
    %591 = stablehlo.exponential %590 : tensor<1x32x7x7xf32> loc(#loc983)
    %592 = stablehlo.reduce(%591 init: %20) applies stablehlo.add across dimensions = [3] : (tensor<1x32x7x7xf32>, tensor<f32>) -> tensor<1x32x7xf32> loc(#loc984)
    %593 = stablehlo.broadcast_in_dim %592, dims = [0, 1, 2] : (tensor<1x32x7xf32>) -> tensor<1x32x7x7xf32> loc(#loc985)
    %594 = stablehlo.divide %591, %593 : tensor<1x32x7x7xf32> loc(#loc986)
    %595 = stablehlo.select %587, %1, %594 : tensor<1x32x7x7xi1>, tensor<1x32x7x7xf32> loc(#loc987)
    %596 = stablehlo.reshape %arg191 : (tensor<1024x2560xbf16>) -> tensor<1x1024x2560xbf16> loc(#loc988)
    %597 = stablehlo.custom_call @tt.mark_argument(%596) {api_version = 0 : i32, mhlo.frontend_attributes = {ttcore.argument_type = "parameter", ttir.name = "L__self___layers__modules__4___self_attn_v_proj.weight"}} : (tensor<1x1024x2560xbf16>) -> tensor<1x1024x2560xbf16> loc(#loc989)
    %598 = stablehlo.reshape %597 : (tensor<1x1024x2560xbf16>) -> tensor<1024x2560xbf16> loc(#loc990)
    %599 = stablehlo.transpose %598, dims = [1, 0] {result_layout = dense<[0, 1]> : tensor<2xindex>, xla_shape = "bf16[2560,1024]{0,1}"} : (tensor<1024x2560xbf16>) -> tensor<2560x1024xbf16> loc(#loc991)
    %600 = stablehlo.dot_general %534, %599, contracting_dims = [1] x [0] : (tensor<7x2560xbf16>, tensor<2560x1024xbf16>) -> tensor<7x1024xbf16> loc(#loc992)
    %601 = stablehlo.reshape %600 : (tensor<7x1024xbf16>) -> tensor<1x7x8x128xbf16> loc(#loc993)
    %602 = stablehlo.transpose %601, dims = [0, 2, 1, 3] {result_layout = dense<[3, 1, 2, 0]> : tensor<4xindex>, xla_shape = "bf16[1,8,7,128]{3,1,2,0}"} : (tensor<1x7x8x128xbf16>) -> tensor<1x8x7x128xbf16> loc(#loc994)
    %603 = stablehlo.broadcast_in_dim %602, dims = [0, 1, 3, 4] : (tensor<1x8x7x128xbf16>) -> tensor<1x8x4x7x128xbf16> loc(#loc995)
    %604 = stablehlo.reshape %603 : (tensor<1x8x4x7x128xbf16>) -> tensor<1x32x7x128xbf16> loc(#loc996)
    %605 = stablehlo.convert %604 : (tensor<1x32x7x128xbf16>) -> tensor<1x32x7x128xf32> loc(#loc997)
    %606 = stablehlo.dot_general %595, %605, batching_dims = [0, 1] x [0, 1], contracting_dims = [3] x [2] {mhlo.frontend_attributes = {grad_x = "false", grad_y = "false"}} : (tensor<1x32x7x7xf32>, tensor<1x32x7x128xf32>) -> tensor<1x32x7x128xf32> loc(#loc998)
    %607 = stablehlo.convert %606 : (tensor<1x32x7x128xf32>) -> tensor<1x32x7x128xbf16> loc(#loc999)
    %608 = stablehlo.transpose %607, dims = [0, 2, 1, 3] {result_layout = dense<[3, 1, 2, 0]> : tensor<4xindex>, xla_shape = "bf16[1,7,32,128]{3,1,2,0}"} : (tensor<1x32x7x128xbf16>) -> tensor<1x7x32x128xbf16> loc(#loc1000)
    %609 = stablehlo.reshape %608 : (tensor<1x7x32x128xbf16>) -> tensor<7x4096xbf16> loc(#loc1001)
    %610 = stablehlo.reshape %arg190 : (tensor<2560x4096xbf16>) -> tensor<1x2560x4096xbf16> loc(#loc1002)
    %611 = stablehlo.custom_call @tt.mark_argument(%610) {api_version = 0 : i32, mhlo.frontend_attributes = {ttcore.argument_type = "parameter", ttir.name = "L__self___layers__modules__4___self_attn_o_proj.weight"}} : (tensor<1x2560x4096xbf16>) -> tensor<1x2560x4096xbf16> loc(#loc1003)
    %612 = stablehlo.reshape %611 : (tensor<1x2560x4096xbf16>) -> tensor<2560x4096xbf16> loc(#loc1004)
    %613 = stablehlo.transpose %612, dims = [1, 0] {result_layout = dense<[0, 1]> : tensor<2xindex>, xla_shape = "bf16[4096,2560]{0,1}"} : (tensor<2560x4096xbf16>) -> tensor<4096x2560xbf16> loc(#loc1005)
    %614 = stablehlo.dot_general %609, %613, contracting_dims = [1] x [0] : (tensor<7x4096xbf16>, tensor<4096x2560xbf16>) -> tensor<7x2560xbf16> loc(#loc1006)
    %615 = stablehlo.reshape %614 : (tensor<7x2560xbf16>) -> tensor<1x7x2560xbf16> loc(#loc1007)
    %616 = stablehlo.add %529, %615 : tensor<1x7x2560xbf16> loc(#loc1008)
    %617 = stablehlo.reshape %arg189 : (tensor<2560xbf16>) -> tensor<1x1x2560xbf16> loc(#loc1009)
    %618 = stablehlo.custom_call @tt.mark_argument(%617) {api_version = 0 : i32, mhlo.frontend_attributes = {ttcore.argument_type = "parameter", ttir.name = "L__self___layers__modules__4___post_attention_layernorm_weight"}} : (tensor<1x1x2560xbf16>) -> tensor<1x1x2560xbf16> loc(#loc1010)
    %619 = stablehlo.reshape %618 : (tensor<1x1x2560xbf16>) -> tensor<2560xbf16> loc(#loc1011)
…
#loc5211 = loc("convert.4378")
#loc5214 = loc("convert.4213")
#loc5215 = loc("power.4215")
#loc5216 = loc("reduce.4222")
#loc5217 = loc("multiply.4231")
#loc5218 = loc("reshape.4232")
#loc5219 = loc("add.4236")
#loc5220 = loc("rsqrt.4237")
#loc5221 = loc("reshape.4238")
#loc5222 = loc("broadcast.4239")
#loc5223 = loc("multiply.4240")
#loc5224 = loc("convert.1146")
#loc5225 = loc("broadcast.4241")
#loc5226 = loc("multiply.4242")
#loc5227 = loc("convert.4243")
#loc5230 = loc("convert.4015")
#loc5231 = loc("power.4017")
#loc5232 = loc("reduce.4024")
#loc5233 = loc("multiply.4033")
#loc5234 = loc("reshape.4034")
#loc5235 = loc("add.4038")
#loc5236 = loc("rsqrt.4039")
#loc5237 = loc("reshape.4040")
#loc5238 = loc("broadcast.4041")
#loc5239 = loc("multiply.4042")
#loc5240 = loc("convert.4001")
#loc5241 = loc("broadcast.4043")
#loc5242 = loc("multiply.4044")
#loc5243 = loc("convert.4045")
#loc5246 = loc("convert.2350")
#loc5247 = loc("power.2352")
#loc5248 = loc("reduce.2359")
#loc5249 = loc("multiply.2368")
#loc5250 = loc("reshape.2369")
#loc5251 = loc("add.2373")
#loc5252 = loc("rsqrt.2374")
#loc5253 = loc("reshape.2375")
#loc5254 = loc("broadcast.2376")
#loc5255 = loc("multiply.2377")
#loc5256 = loc("convert.2336")
#loc5257 = loc("broadcast.2378")
#loc5258 = loc("multiply.2379")
#loc5259 = loc("convert.2380")
#loc5262 = loc("convert.2017")
#loc5263 = loc("power.2019")
#loc5264 = loc("reduce.2026")
#loc5265 = loc("multiply.2035")
#loc5266 = loc("reshape.2036")
#loc5267 = loc("add.2040")
#loc5268 = loc("rsqrt.2041")
#loc5269 = loc("reshape.2042")
#loc5270 = loc("broadcast.2043")
#loc5271 = loc("multiply.2044")
#loc5272 = loc("convert.2003")
#loc5273 = loc("broadcast.2045")
#loc5274 = loc("multiply.2046")
#loc5275 = loc("convert.2047")
#loc5278 = loc("convert.5878")
#loc5279 = loc("power.5880")
#loc5280 = loc("reduce.5887")
#loc5281 = loc("multiply.5896")
#loc5282 = loc("reshape.5897")
#loc5283 = loc("add.5901")
#loc5284 = loc("rsqrt.5902")
#loc5285 = loc("reshape.5903")
#loc5286 = loc("broadcast.5904")
#loc5287 = loc("multiply.5905")
#loc5288 = loc("convert.946")
#loc5289 = loc("broadcast.5906")
#loc5290 = loc("multiply.5907")
#loc5291 = loc("convert.5908")
#loc5294 = loc("convert.6932")
#loc5295 = loc("power.6934")
#loc5296 = loc("reduce.6941")
#loc5297 = loc("multiply.6950")
#loc5298 = loc("reshape.6951")
#loc5299 = loc("add.6955")
#loc5300 = loc("rsqrt.6956")
#loc5301 = loc("reshape.6957")
#loc5302 = loc("broadcast.6958")
#loc5303 = loc("multiply.6959")
#loc5304 = loc("convert.806")
#loc5305 = loc("broadcast.6960")
#loc5306 = loc("multiply.6961")
#loc5307 = loc("convert.6962")
#loc5310 = loc("convert.5212")
#loc5311 = loc("power.5214")
#loc5312 = loc("reduce.5221")
#loc5313 = loc("multiply.5230")
#loc5314 = loc("reshape.5231")
#loc5315 = loc("add.5235")
#loc5316 = loc("rsqrt.5236")
#loc5317 = loc("reshape.5237")
#loc5318 = loc("broadcast.5238")
#loc5319 = loc("multiply.5239")
#loc5320 = loc("convert.1026")
#loc5321 = loc("broadcast.5240")
#loc5322 = loc("multiply.5241")
#loc5323 = loc("convert.5242")
#loc5326 = loc("convert.2270")
#loc5327 = loc("power.2272")
#loc5328 = loc("reduce.2279")
#loc5329 = loc("multiply.2288")
#loc5330 = loc("reshape.2289")
#loc5331 = loc("add.2293")
#loc5332 = loc("rsqrt.2294")
#loc5333 = loc("reshape.2295")
#loc5334 = loc("broadcast.2296")
#loc5335 = loc("multiply.2297")
#loc5336 = loc("convert.1366")
#loc5337 = loc("broadcast.2298")
#loc5338 = loc("multiply.2299")
#loc5339 = loc("convert.2300")
#loc5342 = loc("convert.2427")
#loc5343 = loc("power.2429")
#loc5344 = loc("reduce.2436")
#loc5345 = loc("multiply.2445")
#loc5346 = loc("reshape.2446")
#loc5347 = loc("add.2450")
#loc5348 = loc("rsqrt.2451")
#loc5349 = loc("reshape.2452")
#loc5350 = loc("broadcast.2453")
#loc5351 = loc("multiply.2454")
#loc5352 = loc("convert.2413")
#loc5353 = loc("broadcast.2455")
#loc5354 = loc("multiply.2456")
#loc5355 = loc("convert.2457")
#loc5358 = loc("convert.1937")
#loc5359 = loc("power.1939")
#loc5360 = loc("reduce.1946")
#loc5361 = loc("multiply.1955")
#loc5362 = loc("reshape.1956")
#loc5363 = loc("add.1960")
#loc5364 = loc("rsqrt.1961")
#loc5365 = loc("reshape.1962")
#loc5366 = loc("broadcast.1963")
#loc5367 = loc("multiply.1964")
#loc5368 = loc("convert.1406")
#loc5369 = loc("broadcast.1965")
#loc5370 = loc("multiply.1966")
#loc5371 = loc("convert.1967")
#loc5374 = loc("convert.3602")
#loc5375 = loc("power.3604")
#loc5376 = loc("reduce.3611")
#loc5377 = loc("multiply.3620")
#loc5378 = loc("reshape.3621")
#loc5379 = loc("add.3625")
#loc5380 = loc("rsqrt.3626")
#loc5381 = loc("reshape.3627")
#loc5382 = loc("broadcast.3628")
#loc5383 = loc("multiply.3629")
#loc5384 = loc("convert.1206")
#loc5385 = loc("broadcast.3630")
#loc5386 = loc("multiply.3631")
#loc5387 = loc("convert.3632")
#loc5390 = loc("convert.5933")
#loc5391 = loc("power.5935")
#loc5392 = loc("reduce.5942")
#loc5393 = loc("multiply.5951")
#loc5394 = loc("reshape.5952")
#loc5395 = loc("add.5956")
#loc5396 = loc("rsqrt.5957")
#loc5397 = loc("reshape.5958")
#loc5398 = loc("broadcast.5959")
#loc5399 = loc("multiply.5960")
#loc5400 = loc("convert.926")
#loc5401 = loc("broadcast.5961")
#loc5402 = loc("multiply.5962")
#loc5403 = loc("convert.5963")
#loc5406 = loc("convert.1882")
#loc5407 = loc("power.1884")
#loc5408 = loc("reduce.1891")
#loc5409 = loc("multiply.1900")
#loc5410 = loc("reshape.1901")
#loc5411 = loc("add.1905")
#loc5412 = loc("rsqrt.1906")
#loc5413 = loc("reshape.1907")
#loc5414 = loc("broadcast.1908")
#loc5415 = loc("multiply.1909")
#loc5416 = loc("convert.1426")
#loc5417 = loc("broadcast.1910")
#loc5418 = loc("multiply.1911")
#loc5419 = loc("convert.1912")
#loc5422 = loc("convert.11008")
#loc5423 = loc("power.11010")
#loc5424 = loc("reduce.11017")
#loc5425 = loc("multiply.11026")
#loc5426 = loc("reshape.11027")
#loc5427 = loc("add.11031")
#loc5428 = loc("rsqrt.11032")
#loc5429 = loc("reshape.11033")
#loc5430 = loc("broadcast.11034")
#loc5431 = loc("multiply.11035")
#loc5432 = loc("convert.10994")
#loc5433 = loc("broadcast.11036")
#loc5434 = loc("multiply.11037")
#loc5435 = loc("convert.11038")
#loc5438 = loc("convert.5757")
#loc5439 = loc("power.5759")
#loc5440 = loc("reduce.5766")
#loc5441 = loc("multiply.5775")
#loc5442 = loc("reshape.5776")
#loc5443 = loc("add.5780")
#loc5444 = loc("rsqrt.5781")
#loc5445 = loc("reshape.5782")
#loc5446 = loc("broadcast.5783")
#loc5447 = loc("multiply.5784")
#loc5448 = loc("convert.5743")
#loc5449 = loc("broadcast.5785")
#loc5450 = loc("multiply.5786")
#loc5451 = loc("convert.5787")
#loc5454 = loc("convert.4879")
#loc5455 = loc("power.4881")
#loc5456 = loc("reduce.4888")
#loc5457 = loc("multiply.4897")
#loc5458 = loc("reshape.4898")
#loc5459 = loc("add.4902")
#loc5460 = loc("rsqrt.4903")
#loc5461 = loc("reshape.4904")
#loc5462 = loc("broadcast.4905")
#loc5463 = loc("multiply.4906")
#loc5464 = loc("convert.1066")
#loc5465 = loc("broadcast.4907")
#loc5466 = loc("multiply.4908")
#loc5467 = loc("convert.4909")
#loc5470 = loc("convert.4601")
#loc5471 = loc("power.4603")
#loc5472 = loc("reduce.4610")
#loc5473 = loc("multiply.4619")
#loc5474 = loc("reshape.4620")
#loc5475 = loc("add.4624")
#loc5476 = loc("rsqrt.4625")
#loc5477 = loc("reshape.4626")
#loc5478 = loc("broadcast.4627")
#loc5479 = loc("multiply.4628")
#loc5480 = loc("convert.1086")
#loc5481 = loc("broadcast.4629")
#loc5482 = loc("multiply.4630")
#loc5483 = loc("convert.4631")
#loc5486 = loc("convert.1761")
#loc5487 = loc("power.1763")
#loc5488 = loc("reduce.1770")
#loc5489 = loc("multiply.1779")
#loc5490 = loc("reshape.1780")
#loc5491 = loc("add.1784")
#loc5492 = loc("rsqrt.1785")
#loc5493 = loc("reshape.1786")
#loc5494 = loc("broadcast.1787")
#loc5495 = loc("multiply.1788")
#loc5496 = loc("convert.1747")
#loc5497 = loc("broadcast.1789")
#loc5498 = loc("multiply.1790")
#loc5499 = loc("convert.1791")
#loc5502 = loc("convert.6346")
#loc5503 = loc("power.6348")
#loc5504 = loc("reduce.6355")
#loc5505 = loc("multiply.6364")
#loc5506 = loc("reshape.6365")
#loc5507 = loc("add.6369")
#loc5508 = loc("rsqrt.6370")
#loc5509 = loc("reshape.6371")
#loc5510 = loc("broadcast.6372")
#loc5511 = loc("multiply.6373")
#loc5512 = loc("convert.6332")
#loc5513 = loc("broadcast.6374")
#loc5514 = loc("multiply.6375")
#loc5515 = loc("convert.6376")
#loc5518 = loc("convert.6544")
#loc5519 = loc("power.6546")
#loc5520 = loc("reduce.6553")
#loc5521 = loc("multiply.6562")
#loc5522 = loc("reshape.6563")
#loc5523 = loc("add.6567")
#loc5524 = loc("rsqrt.6568")
#loc5525 = loc("reshape.6569")
#loc5526 = loc("broadcast.6570")
#loc5527 = loc("multiply.6571")
#loc5528 = loc("convert.866")
#loc5529 = loc("broadcast.6572")
#loc5530 = loc("multiply.6573")
#loc5531 = loc("convert.6574")
#loc5534 = loc("convert.9929")
#loc5535 = loc("power.9931")
#loc5536 = loc("reduce.9938")
#loc5537 = loc("multiply.9947")
#loc5538 = loc("reshape.9948")
#loc5539 = loc("add.9952")
#loc5540 = loc("rsqrt.9953")
#loc5541 = loc("reshape.9954")
#loc5542 = loc("broadcast.9955")
#loc5543 = loc("multiply.9956")
#loc5544 = loc("convert.446")
#loc5545 = loc("broadcast.9957")
#loc5546 = loc("multiply.9958")
#loc5547 = loc("convert.9959")
#loc5550 = loc("convert.11085")
#loc5551 = loc("power.11087")
#loc5552 = loc("reduce.11094")
#loc5553 = loc("multiply.11103")
#loc5554 = loc("reshape.11104")
#loc5555 = loc("add.11108")
#loc5556 = loc("rsqrt.11109")
#loc5557 = loc("reshape.11110")
#loc5558 = loc("broadcast.11111")
#loc5559 = loc("multiply.11112")
#loc5560 = loc("convert.11071")
#loc5561 = loc("broadcast.11113")
#loc5562 = loc("multiply.11114")
#loc5563 = loc("convert.11115")
#loc5566 = loc("convert.10086")
#loc5567 = loc("power.10088")
#loc5568 = loc("reduce.10095")
#loc5569 = loc("multiply.10104")
#loc5570 = loc("reshape.10105")
#loc5571 = loc("add.10109")
#loc5572 = loc("rsqrt.10110")
#loc5573 = loc("reshape.10111")
#loc5574 = loc("broadcast.10112")
#loc5575 = loc("multiply.10113")
#loc5576 = loc("convert.10072")
#loc5577 = loc("broadcast.10114")
#loc5578 = loc("multiply.10115")
#loc5579 = loc("convert.10116")
#loc5582 = loc("convert.5347")
#loc5583 = loc("power.5349")
#loc5584 = loc("reduce.5356")
#loc5585 = loc("multiply.5365")
#loc5586 = loc("reshape.5366")
#loc5587 = loc("add.5370")
#loc5588 = loc("rsqrt.5371")
#loc5589 = loc("reshape.5372")
#loc5590 = loc("broadcast.5373")
#loc5591 = loc("multiply.5374")
#loc5592 = loc("convert.5333")
#loc5593 = loc("broadcast.5375")
#loc5594 = loc("multiply.5376")
#loc5595 = loc("convert.5377")
#loc5598 = loc("convert.8421")
#loc5599 = loc("power.8423")
#loc5600 = loc("reduce.8430")
#loc5601 = loc("multiply.8439")
#loc5602 = loc("reshape.8440")
#loc5603 = loc("add.8444")
#loc5604 = loc("rsqrt.8445")
#loc5605 = loc("reshape.8446")
#loc5606 = loc("broadcast.8447")
#loc5607 = loc("multiply.8448")
#loc5608 = loc("convert.8407")
#loc5609 = loc("broadcast.8449")
#loc5610 = loc("multiply.8450")
#loc5611 = loc("convert.8451")
#loc5614 = loc("convert.2760")
#loc5615 = loc("power.2762")
#loc5616 = loc("reduce.2769")
#loc5617 = loc("multiply.2778")
#loc5618 = loc("reshape.2779")
#loc5619 = loc("add.2783")
#loc5620 = loc("rsqrt.2784")
#loc5621 = loc("reshape.2785")
#loc5622 = loc("broadcast.2786")
#loc5623 = loc("multiply.2787")
#loc5624 = loc("convert.2746")
#loc5625 = loc("broadcast.2788")
#loc5626 = loc("multiply.2789")
#loc5627 = loc("convert.2790")
#loc5630 = loc("convert.3016")
#loc5631 = loc("power.3018")
#loc5632 = loc("reduce.3025")
#loc5633 = loc("multiply.3034")
#loc5634 = loc("reshape.3035")
#loc5635 = loc("add.3039")
#loc5636 = loc("rsqrt.3040")
#loc5637 = loc("reshape.3041")
#loc5638 = loc("broadcast.3042")
#loc5639 = loc("multiply.3043")
#loc5640 = loc("convert.3002")
#loc5641 = loc("broadcast.3044")
#loc5642 = loc("multiply.3045")
#loc5643 = loc("convert.3046")
#loc5646 = loc("convert.13537")
#loc5647 = loc("power.13539")
#loc5648 = loc("reduce.13546")
#loc5649 = loc("multiply.13555")
#loc5650 = loc("reshape.13556")
#loc5651 = loc("add.13560")
#loc5652 = loc("rsqrt.13561")
#loc5653 = loc("reshape.13562")
#loc5654 = loc("broadcast.13563")
#loc5655 = loc("multiply.13564")
#loc5656 = loc("convert.26")
#loc5657 = loc("broadcast.13565")
#loc5658 = loc("multiply.13566")
#loc5659 = loc("convert.13567")
#loc5662 = loc("convert.9087")
#loc5663 = loc("power.9089")
#loc5664 = loc("reduce.9096")
#loc5665 = loc("multiply.9105")
#loc5666 = loc("reshape.9106")
#loc5667 = loc("add.9110")
#loc5668 = loc("rsqrt.9111")
#loc5669 = loc("reshape.9112")
#loc5670 = loc("broadcast.9113")
#loc5671 = loc("multiply.9114")
#loc5672 = loc("convert.9073")
#loc5673 = loc("broadcast.9115")
#loc5674 = loc("multiply.9116")
#loc5675 = loc("convert.9117")
#loc5678 = loc("convert.2094")
#loc5679 = loc("power.2096")
#loc5680 = loc("reduce.2103")
#loc5681 = loc("multiply.2112")
#loc5682 = loc("reshape.2113")
#loc5683 = loc("add.2117")
#loc5684 = loc("rsqrt.2118")
#loc5685 = loc("reshape.2119")
#loc5686 = loc("broadcast.2120")
#loc5687 = loc("multiply.2121")
#loc5688 = loc("convert.2080")
#loc5689 = loc("broadcast.2122")
#loc5690 = loc("multiply.2123")
#loc5691 = loc("convert.2124")
#loc5694 = loc("convert.5680")
#loc5695 = loc("power.5682")
#loc5696 = loc("reduce.5689")
#loc5697 = loc("multiply.5698")
#loc5698 = loc("reshape.5699")
#loc5699 = loc("add.5703")
#loc5700 = loc("rsqrt.5704")
#loc5701 = loc("reshape.5705")
#loc5702 = loc("broadcast.5706")
#loc5703 = loc("multiply.5707")
#loc5704 = loc("convert.5666")
#loc5705 = loc("broadcast.5708")
#loc5706 = loc("multiply.5709")
#loc5707 = loc("convert.5710")
#loc5710 = loc("convert.10928")
#loc5711 = loc("power.10930")
#loc5712 = loc("reduce.10937")
#loc5713 = loc("multiply.10946")
#loc5714 = loc("reshape.10947")
#loc5715 = loc("add.10951")
#loc5716 = loc("rsqrt.10952")
#loc5717 = loc("reshape.10953")
#loc5718 = loc("broadcast.10954")
#loc5719 = loc("multiply.10955")
#loc5720 = loc("convert.326")
#loc5721 = loc("broadcast.10956")
#loc5722 = loc("multiply.10957")
#loc5723 = loc("convert.10958")
#loc5726 = loc("convert.2215")
#loc5727 = loc("power.2217")
#loc5728 = loc("reduce.2224")
#loc5729 = loc("multiply.2233")
#loc5730 = loc("reshape.2234")
#loc5731 = loc("add.2238")
#loc5732 = loc("rsqrt.2239")
#loc5733 = loc("reshape.2240")
#loc5734 = loc("broadcast.2241")
#loc5735 = loc("multiply.2242")
#loc5736 = loc("convert.1386")
#loc5737 = loc("broadcast.2243")
#loc5738 = loc("multiply.2244")
#loc5739 = loc("convert.2245")
#loc5742 = loc("convert.3935")
#loc5743 = loc("power.3937")
#loc5744 = loc("reduce.3944")
#loc5745 = loc("multiply.3953")
#loc5746 = loc("reshape.3954")
#loc5747 = loc("add.3958")
#loc5748 = loc("rsqrt.3959")
#loc5749 = loc("reshape.3960")
#loc5750 = loc("broadcast.3961")
#loc5751 = loc("multiply.3962")
#loc5752 = loc("convert.1166")
#loc5753 = loc("broadcast.3963")
#loc5754 = loc("multiply.3964")
#loc5755 = loc("convert.3965")
#loc5758 = loc("convert.1463")
#loc5759 = loc("power.1465")
#loc5760 = loc("reduce.1472")
#loc5761 = loc("multiply.1481")
#loc5762 = loc("reshape.1482")
#loc5763 = loc("add.1486")
#loc5764 = loc("rsqrt.1487")
#loc5765 = loc("reshape.1488")
#loc5766 = loc("broadcast.1489")
#loc5767 = loc("multiply.1490")
#loc5768 = loc("convert.1446")
#loc5769 = loc("broadcast.1491")
#loc5770 = loc("multiply.1492")
#loc5771 = loc("convert.1493")
#loc5774 = loc("convert.9596")
#loc5775 = loc("power.9598")
#loc5776 = loc("reduce.9605")
#loc5777 = loc("multiply.9614")
#loc5778 = loc("reshape.9615")
#loc5779 = loc("add.9619")
#loc5780 = loc("rsqrt.9620")
#loc5781 = loc("reshape.9621")
#loc5782 = loc("broadcast.9622")
#loc5783 = loc("multiply.9623")
#loc5784 = loc("convert.486")
#loc5785 = loc("broadcast.9624")
#loc5786 = loc("multiply.9625")
#loc5787 = loc("convert.9626")
#loc5790 = loc("convert.11927")
#loc5791 = loc("power.11929")
#loc5792 = loc("reduce.11936")
#loc5793 = loc("multiply.11945")
#loc5794 = loc("reshape.11946")
#loc5795 = loc("add.11950")
#loc5796 = loc("rsqrt.11951")
#loc5797 = loc("reshape.11952")
#loc5798 = loc("broadcast.11953")
#loc5799 = loc("multiply.11954")
#loc5800 = loc("convert.206")
#loc5801 = loc("broadcast.11955")
#loc5802 = loc("multiply.11956")
#loc5803 = loc("convert.11957")
#loc5806 = loc("convert.13204")
#loc5807 = loc("power.13206")
#loc5808 = loc("reduce.13213")
#loc5809 = loc("multiply.13222")
#loc5810 = loc("reshape.13223")
#loc5811 = loc("add.13227")
#loc5812 = loc("rsqrt.13228")
#loc5813 = loc("reshape.13229")
#loc5814 = loc("broadcast.13230")
#loc5815 = loc("multiply.13231")
#loc5816 = loc("convert.66")
#loc5817 = loc("broadcast.13232")
#loc5818 = loc("multiply.13233")
#loc5819 = loc("convert.13234")
#loc5822 = loc("convert.2683")
#loc5823 = loc("power.2685")
#loc5824 = loc("reduce.2692")
#loc5825 = loc("multiply.2701")
#loc5826 = loc("reshape.2702")
#loc5827 = loc("add.2706")
#loc5828 = loc("rsqrt.2707")
#loc5829 = loc("reshape.2708")
#loc5830 = loc("broadcast.2709")
#loc5831 = loc("multiply.2710")
#loc5832 = loc("convert.2669")
#loc5833 = loc("broadcast.2711")
#loc5834 = loc("multiply.2712")
#loc5835 = loc("convert.2713")
#loc5838 = loc("convert.4425")
#loc5839 = loc("power.4427")
#loc5840 = loc("reduce.4434")
#loc5841 = loc("multiply.4443")
#loc5842 = loc("reshape.4444")
#loc5843 = loc("add.4448")
#loc5844 = loc("rsqrt.4449")
#loc5845 = loc("reshape.4450")
#loc5846 = loc("broadcast.4451")
#loc5847 = loc("multiply.4452")
#loc5848 = loc("convert.4411")
#loc5849 = loc("broadcast.4453")
#loc5850 = loc("multiply.4454")
#loc5851 = loc("convert.4455")
#loc5854 = loc("convert.8597")
#loc5855 = loc("power.8599")
#loc5856 = loc("reduce.8606")
#loc5857 = loc("multiply.8615")
#loc5858 = loc("reshape.8616")
#loc5859 = loc("add.8620")
#loc5860 = loc("rsqrt.8621")
#loc5861 = loc("reshape.8622")
#loc5862 = loc("broadcast.8623")
#loc5863 = loc("multiply.8624")
#loc5864 = loc("convert.606")
#loc5865 = loc("broadcast.8625")
#loc5866 = loc("multiply.8626")
#loc5867 = loc("convert.8627")
#loc5870 = loc("convert.4092")
#loc5871 = loc("power.4094")
#loc5872 = loc("reduce.4101")
#loc5873 = loc("multiply.4110")
#loc5874 = loc("reshape.4111")
#loc5875 = loc("add.4115")
#loc5876 = loc("rsqrt.4116")
#loc5877 = loc("reshape.4117")
#loc5878 = loc("broadcast.4118")
#loc5879 = loc("multiply.4119")
#loc5880 = loc("convert.4078")
#loc5881 = loc("broadcast.4120")
#loc5882 = loc("multiply.4121")
#loc5883 = loc("convert.4122")
#loc5886 = loc("convert.9676")
#loc5887 = loc("power.9678")
#loc5888 = loc("reduce.9685")
#loc5889 = loc("multiply.9694")
#loc5890 = loc("reshape.9695")
#loc5891 = loc("add.9699")
#loc5892 = loc("rsqrt.9700")
#loc5893 = loc("reshape.9701")
#loc5894 = loc("broadcast.9702")
#loc5895 = loc("multiply.9703")
#loc5896 = loc("convert.9662")
#loc5897 = loc("broadcast.9704")
#loc5898 = loc("multiply.9705")
#loc5899 = loc("convert.9706")
#loc5902 = loc("convert.2936")
#loc5903 = loc("power.2938")
#loc5904 = loc("reduce.2945")
#loc5905 = loc("multiply.2954")
#loc5906 = loc("reshape.2955")
#loc5907 = loc("add.2959")
#loc5908 = loc("rsqrt.2960")
#loc5909 = loc("reshape.2961")
#loc5910 = loc("broadcast.2962")
#loc5911 = loc("multiply.2963")
#loc5912 = loc("convert.1286")
#loc5913 = loc("broadcast.2964")
#loc5914 = loc("multiply.2965")
#loc5915 = loc("convert.2966")
#loc5918 = loc("convert.3093")
#loc5919 = loc("power.3095")
#loc5920 = loc("reduce.3102")
#loc5921 = loc("multiply.3111")
#loc5922 = loc("reshape.3112")
#loc5923 = loc("add.3116")
#loc5924 = loc("rsqrt.3117")
#loc5925 = loc("reshape.3118")
#loc5926 = loc("broadcast.3119")
#loc5927 = loc("multiply.3120")
#loc5928 = loc("convert.3079")
#loc5929 = loc("broadcast.3121")
#loc5930 = loc("multiply.3122")
#loc5931 = loc("convert.3123")
#loc5934 = loc("convert.6877")
#loc5935 = loc("power.6879")
#loc5936 = loc("reduce.6886")
#loc5937 = loc("multiply.6895")
#loc5938 = loc("reshape.6896")
#loc5939 = loc("add.6900")
#loc5940 = loc("rsqrt.6901")
#loc5941 = loc("reshape.6902")
#loc5942 = loc("broadcast.6903")
#loc5943 = loc("multiply.6904")
#loc5944 = loc("convert.826")
#loc5945 = loc("broadcast.6905")
#loc5946 = loc("multiply.6906")
#loc5947 = loc("convert.6907")
#loc5950 = loc("convert.11341")
#loc5951 = loc("power.11343")
#loc5952 = loc("reduce.11350")
#loc5953 = loc("multiply.11359")
#loc5954 = loc("reshape.11360")
#loc5955 = loc("add.11364")
#loc5956 = loc("rsqrt.11365")
#loc5957 = loc("reshape.11366")
#loc5958 = loc("broadcast.11367")
#loc5959 = loc("multiply.11368")
#loc5960 = loc("convert.11327")
#loc5961 = loc("broadcast.11369")
#loc5962 = loc("multiply.11370")
#loc5963 = loc("convert.11371")
#loc5966 = loc("convert.7345")
#loc5967 = loc("power.7347")
#loc5968 = loc("reduce.7354")
#loc5969 = loc("multiply.7363")
#loc5970 = loc("reshape.7364")
#loc5971 = loc("add.7368")
#loc5972 = loc("rsqrt.7369")
#loc5973 = loc("reshape.7370")
#loc5974 = loc("broadcast.7371")
#loc5975 = loc("multiply.7372")
#loc5976 = loc("convert.7331")
#loc5977 = loc("broadcast.7373")
#loc5978 = loc("multiply.7374")
#loc5979 = loc("convert.7375")
#loc5982 = loc("convert.3214")
#loc5983 = loc("power.3216")
#loc5984 = loc("reduce.3223")
#loc5985 = loc("multiply.3232")
#loc5986 = loc("reshape.3233")
#loc5987 = loc("add.3237")
#loc5988 = loc("rsqrt.3238")
#loc5989 = loc("reshape.3239")
#loc5990 = loc("broadcast.3240")
#loc5991 = loc("multiply.3241")
#loc5992 = loc("convert.1266")
#loc5993 = loc("broadcast.3242")
#loc5994 = loc("multiply.3243")
#loc5995 = loc("convert.3244")
#loc5998 = loc("convert.3349")
#loc5999 = loc("power.3351")
#loc6000 = loc("reduce.3358")
#loc6001 = loc("multiply.3367")
#loc6002 = loc("reshape.3368")
#loc6003 = loc("add.3372")
#loc6004 = loc("rsqrt.3373")
#loc6005 = loc("reshape.3374")
#loc6006 = loc("broadcast.3375")
#loc6007 = loc("multiply.3376")
#loc6008 = loc("convert.3335")
#loc6009 = loc("broadcast.3377")
#loc6010 = loc("multiply.3378")
#loc6011 = loc("convert.3379")
#loc6014 = loc("convert.8088")
#loc6015 = loc("power.8090")
#loc6016 = loc("reduce.8097")
#loc6017 = loc("multiply.8106")
#loc6018 = loc("reshape.8107")
#loc6019 = loc("add.8111")
#loc6020 = loc("rsqrt.8112")
#loc6021 = loc("reshape.8113")
#loc6022 = loc("broadcast.8114")
#loc6023 = loc("multiply.8115")
#loc6024 = loc("convert.8074")
#loc6025 = loc("broadcast.8116")
#loc6026 = loc("multiply.8117")
#loc6027 = loc("convert.8118")
#loc6030 = loc("convert.9874")
#loc6031 = loc("power.9876")
#loc6032 = loc("reduce.9883")
#loc6033 = loc("multiply.9892")
#loc6034 = loc("reshape.9893")
#loc6035 = loc("add.9897")
#loc6036 = loc("rsqrt.9898")
#loc6037 = loc("reshape.9899")
#loc6038 = loc("broadcast.9900")
#loc6039 = loc("multiply.9901")
#loc6040 = loc("convert.466")
#loc6041 = loc("broadcast.9902")
#loc6042 = loc("multiply.9903")
#loc6043 = loc("convert.9904")
#loc6046 = loc("convert.4934")
#loc6047 = loc("power.4936")
#loc6048 = loc("reduce.4943")
#loc6049 = loc("multiply.4952")
#loc6050 = loc("reshape.4953")
#loc6051 = loc("add.4957")
#loc6052 = loc("rsqrt.4958")
#loc6053 = loc("reshape.4959")
#loc6054 = loc("broadcast.4960")
#loc6055 = loc("multiply.4961")
#loc6056 = loc("convert.1046")
#loc6057 = loc("broadcast.4962")
#loc6058 = loc("multiply.4963")
#loc6059 = loc("convert.4964")
#loc6062 = loc("convert.3547")
#loc6063 = loc("power.3549")
#loc6064 = loc("reduce.3556")
#loc6065 = loc("multiply.3565")
#loc6066 = loc("reshape.3566")
#loc6067 = loc("add.3570")
#loc6068 = loc("rsqrt.3571")
#loc6069 = loc("reshape.3572")
#loc6070 = loc("broadcast.3573")
#loc6071 = loc("multiply.3574")
#loc6072 = loc("convert.1226")
#loc6073 = loc("broadcast.3575")
#loc6074 = loc("multiply.3576")
#loc6075 = loc("convert.3577")
#loc6078 = loc("convert.7265")
#loc6079 = loc("power.7267")
#loc6080 = loc("reduce.7274")
#loc6081 = loc("multiply.7283")
#loc6082 = loc("reshape.7284")
#loc6083 = loc("add.7288")
#loc6084 = loc("rsqrt.7289")
#loc6085 = loc("reshape.7290")
#loc6086 = loc("broadcast.7291")
#loc6087 = loc("multiply.7292")
#loc6088 = loc("convert.766")
#loc6089 = loc("broadcast.7293")
#loc6090 = loc("multiply.7294")
#loc6091 = loc("convert.7295")
#loc6094 = loc("convert.3759")
#loc6095 = loc("power.3761")
#loc6096 = loc("reduce.3768")
#loc6097 = loc("multiply.3777")
#loc6098 = loc("reshape.3778")
#loc6099 = loc("add.3782")
#loc6100 = loc("rsqrt.3783")
#loc6101 = loc("reshape.3784")
#loc6102 = loc("broadcast.3785")
#loc6103 = loc("multiply.3786")
#loc6104 = loc("convert.3745")
#loc6105 = loc("broadcast.3787")
#loc6106 = loc("multiply.3788")
#loc6107 = loc("convert.3789")
#loc6110 = loc("convert.9343")
#loc6111 = loc("power.9345")
#loc6112 = loc("reduce.9352")
#loc6113 = loc("multiply.9361")
#loc6114 = loc("reshape.9362")
#loc6115 = loc("add.9366")
#loc6116 = loc("rsqrt.9367")
#loc6117 = loc("reshape.9368")
#loc6118 = loc("broadcast.9369")
#loc6119 = loc("multiply.9370")
#loc6120 = loc("convert.9329")
#loc6121 = loc("broadcast.9371")
#loc6122 = loc("multiply.9372")
#loc6123 = loc("convert.9373")
#loc6126 = loc("convert.1679")
#loc6127 = loc("power.1681")
#loc6128 = loc("reduce.1688")
#loc6129 = loc("multiply.1697")
#loc6130 = loc("reshape.1698")
#loc6131 = loc("add.1702")
#loc6132 = loc("rsqrt.1703")
#loc6133 = loc("reshape.1704")
#loc6134 = loc("broadcast.1705")
#loc6135 = loc("multiply.1706")
#loc6136 = loc("convert.1665")
#loc6137 = loc("broadcast.1707")
#loc6138 = loc("multiply.1708")
#loc6139 = loc("convert.1709")
#loc6142 = loc("convert.3880")
#loc6143 = loc("power.3882")
#loc6144 = loc("reduce.3889")
#loc6145 = loc("multiply.3898")
#loc6146 = loc("reshape.3899")
#loc6147 = loc("add.3903")
#loc6148 = loc("rsqrt.3904")
#loc6149 = loc("reshape.3905")
#loc6150 = loc("broadcast.3906")
#loc6151 = loc("multiply.3907")
#loc6152 = loc("convert.1186")
#loc6153 = loc("broadcast.3908")
#loc6154 = loc("multiply.3909")
#loc6155 = loc("convert.3910")
#loc6158 = loc("convert.6599")
#loc6159 = loc("power.6601")
#loc6160 = loc("reduce.6608")
#loc6161 = loc("multiply.6617")
#loc6162 = loc("reshape.6618")
#loc6163 = loc("add.6622")
#loc6164 = loc("rsqrt.6623")
#loc6165 = loc("reshape.6624")
#loc6166 = loc("broadcast.6625")
#loc6167 = loc("multiply.6626")
#loc6168 = loc("convert.846")
#loc6169 = loc("broadcast.6627")
#loc6170 = loc("multiply.6628")
#loc6171 = loc("convert.6629")
#loc6174 = loc("convert.3682")
#loc6175 = loc("power.3684")
#loc6176 = loc("reduce.3691")
#loc6177 = loc("multiply.3700")
#loc6178 = loc("reshape.3701")
#loc6179 = loc("add.3705")
#loc6180 = loc("rsqrt.3706")
#loc6181 = loc("reshape.3707")
#loc6182 = loc("broadcast.3708")
#loc6183 = loc("multiply.3709")
#loc6184 = loc("convert.3668")
#loc6185 = loc("broadcast.3710")
#loc6186 = loc("multiply.3711")
#loc6187 = loc("convert.3712")
#loc6190 = loc("convert.6756")
#loc6191 = loc("power.6758")
#loc6192 = loc("reduce.6765")
#loc6193 = loc("multiply.6774")
#loc6194 = loc("reshape.6775")
#loc6195 = loc("add.6779")
#loc6196 = loc("rsqrt.6780")
#loc6197 = loc("reshape.6781")
#loc6198 = loc("broadcast.6782")
#loc6199 = loc("multiply.6783")
#loc6200 = loc("convert.6742")
#loc6201 = loc("broadcast.6784")
#loc6202 = loc("multiply.6785")
#loc6203 = loc("convert.6786")
#loc6206 = loc("convert.7089")
#loc6207 = loc("power.7091")
#loc6208 = loc("reduce.7098")
#loc6209 = loc("multiply.7107")
#loc6210 = loc("reshape.7108")
#loc6211 = loc("add.7112")
#loc6212 = loc("rsqrt.7113")
#loc6213 = loc("reshape.7114")
#loc6214 = loc("broadcast.7115")
#loc6215 = loc("multiply.7116")
#loc6216 = loc("convert.7075")
#loc6217 = loc("broadcast.7117")
#loc6218 = loc("multiply.7118")
#loc6219 = loc("convert.7119")
#loc6222 = loc("convert.6679")
#loc6223 = loc("power.6681")
#loc6224 = loc("reduce.6688")
#loc6225 = loc("multiply.6697")
#loc6226 = loc("reshape.6698")
#loc6227 = loc("add.6702")
#loc6228 = loc("rsqrt.6703")
#loc6229 = loc("reshape.6704")
#loc6230 = loc("broadcast.6705")
#loc6231 = loc("multiply.6706")
#loc6232 = loc("convert.6665")
#loc6233 = loc("broadcast.6707")
#loc6234 = loc("multiply.6708")
#loc6235 = loc("convert.6709")
#loc6238 = loc("convert.11539")
#loc6239 = loc("power.11541")
#loc6240 = loc("reduce.11548")
#loc6241 = loc("multiply.11557")
#loc6242 = loc("reshape.11558")
#loc6243 = loc("add.11562")
#loc6244 = loc("rsqrt.11563")
#loc6245 = loc("reshape.11564")
#loc6246 = loc("broadcast.11565")
#loc6247 = loc("multiply.11566")
#loc6248 = loc("convert.266")
#loc6249 = loc("broadcast.11567")
#loc6250 = loc("multiply.11568")
#loc6251 = loc("convert.11569")
#loc6254 = loc("convert.7012")
#loc6255 = loc("power.7014")
#loc6256 = loc("reduce.7021")
#loc6257 = loc("multiply.7030")
#loc6258 = loc("reshape.7031")
#loc6259 = loc("add.7035")
#loc6260 = loc("rsqrt.7036")
#loc6261 = loc("reshape.7037")
#loc6262 = loc("broadcast.7038")
#loc6263 = loc("multiply.7039")
#loc6264 = loc("convert.6998")
#loc6265 = loc("broadcast.7040")
#loc6266 = loc("multiply.7041")
#loc6267 = loc("convert.7042")
#loc6270 = loc("convert.5600")
#loc6271 = loc("power.5602")
#loc6272 = loc("reduce.5609")
#loc6273 = loc("multiply.5618")
#loc6274 = loc("reshape.5619")
#loc6275 = loc("add.5623")
#loc6276 = loc("rsqrt.5624")
#loc6277 = loc("reshape.5625")
#loc6278 = loc("broadcast.5626")
#loc6279 = loc("multiply.5627")
#loc6280 = loc("convert.966")
#loc6281 = loc("broadcast.5628")
#loc6282 = loc("multiply.5629")
#loc6283 = loc("convert.5630")
#loc6286 = loc("convert.7543")
#loc6287 = loc("power.7545")
#loc6288 = loc("reduce.7552")
#loc6289 = loc("multiply.7561")
#loc6290 = loc("reshape.7562")
#loc6291 = loc("add.7566")
#loc6292 = loc("rsqrt.7567")
#loc6293 = loc("reshape.7568")
#loc6294 = loc("broadcast.7569")
#loc6295 = loc("multiply.7570")
#loc6296 = loc("convert.746")
#loc6297 = loc("broadcast.7571")
#loc6298 = loc("multiply.7572")
#loc6299 = loc("convert.7573")
#loc6302 = loc("convert.9263")
#loc6303 = loc("power.9265")
#loc6304 = loc("reduce.9272")
#loc6305 = loc("multiply.9281")
#loc6306 = loc("reshape.9282")
#loc6307 = loc("add.9286")
#loc6308 = loc("rsqrt.9287")
#loc6309 = loc("reshape.9288")
#loc6310 = loc("broadcast.9289")
#loc6311 = loc("multiply.9290")
#loc6312 = loc("convert.526")
#loc6313 = loc("broadcast.9291")
#loc6314 = loc("multiply.9292")
#loc6315 = loc("convert.9293")
#loc6318 = loc("convert.11206")
#loc6319 = loc("power.11208")
#loc6320 = loc("reduce.11215")
#loc6321 = loc("multiply.11224")
#loc6322 = loc("reshape.11225")
#loc6323 = loc("add.11229")
#loc6324 = loc("rsqrt.11230")
#loc6325 = loc("reshape.11231")
#loc6326 = loc("broadcast.11232")
#loc6327 = loc("multiply.11233")
#loc6328 = loc("convert.306")
#loc6329 = loc("broadcast.11234")
#loc6330 = loc("multiply.11235")
#loc6331 = loc("convert.11236")
#loc6334 = loc("convert.7422")
#loc6335 = loc("power.7424")
#loc6336 = loc("reduce.7431")
#loc6337 = loc("multiply.7440")
#loc6338 = loc("reshape.7441")
#loc6339 = loc("add.7445")
#loc6340 = loc("rsqrt.7446")
#loc6341 = loc("reshape.7447")
#loc6342 = loc("broadcast.7448")
#loc6343 = loc("multiply.7449")
#loc6344 = loc("convert.7408")
#loc6345 = loc("broadcast.7450")
#loc6346 = loc("multiply.7451")
#loc6347 = loc("convert.7452")
#loc6350 = loc("convert.8754")
#loc6351 = loc("power.8756")
#loc6352 = loc("reduce.8763")
#loc6353 = loc("multiply.8772")
#loc6354 = loc("reshape.8773")
#loc6355 = loc("add.8777")
#loc6356 = loc("rsqrt.8778")
#loc6357 = loc("reshape.8779")
#loc6358 = loc("broadcast.8780")
#loc6359 = loc("multiply.8781")
#loc6360 = loc("convert.8740")
#loc6361 = loc("broadcast.8782")
#loc6362 = loc("multiply.8783")
#loc6363 = loc("convert.8784")
#loc6366 = loc("convert.7678")
#loc6367 = loc("power.7680")
#loc6368 = loc("reduce.7687")
#loc6369 = loc("multiply.7696")
#loc6370 = loc("reshape.7697")
#loc6371 = loc("add.7701")
#loc6372 = loc("rsqrt.7702")
#loc6373 = loc("reshape.7703")
#loc6374 = loc("broadcast.7704")
#loc6375 = loc("multiply.7705")
#loc6376 = loc("convert.7664")
#loc6377 = loc("broadcast.7706")
#loc6378 = loc("multiply.7707")
#loc6379 = loc("convert.7708")
#loc6382 = loc("convert.10675")
#loc6383 = loc("power.10677")
#loc6384 = loc("reduce.10684")
#loc6385 = loc("multiply.10693")
#loc6386 = loc("reshape.10694")
#loc6387 = loc("add.10698")
#loc6388 = loc("rsqrt.10699")
#loc6389 = loc("reshape.10700")
#loc6390 = loc("broadcast.10701")
#loc6391 = loc("multiply.10702")
#loc6392 = loc("convert.10661")
#loc6393 = loc("broadcast.10703")
#loc6394 = loc("multiply.10704")
#loc6395 = loc("convert.10705")
#loc6398 = loc("convert.2603")
#loc6399 = loc("power.2605")
#loc6400 = loc("reduce.2612")
#loc6401 = loc("multiply.2621")
#loc6402 = loc("reshape.2622")
#loc6403 = loc("add.2626")
#loc6404 = loc("rsqrt.2627")
#loc6405 = loc("reshape.2628")
#loc6406 = loc("broadcast.2629")
#loc6407 = loc("multiply.2630")
#loc6408 = loc("convert.1326")
#loc6409 = loc("broadcast.2631")
#loc6410 = loc("multiply.2632")
#loc6411 = loc("convert.2633")
#loc6414 = loc("convert.7876")
#loc6415 = loc("power.7878")
#loc6416 = loc("reduce.7885")
#loc6417 = loc("multiply.7894")
#loc6418 = loc("reshape.7895")
#loc6419 = loc("add.7899")
#loc6420 = loc("rsqrt.7900")
#loc6421 = loc("reshape.7901")
#loc6422 = loc("broadcast.7902")
#loc6423 = loc("multiply.7903")
#loc6424 = loc("convert.706")
#loc6425 = loc("broadcast.7904")
#loc6426 = loc("multiply.7905")
#loc6427 = loc("convert.7906")
#loc6430 = loc("convert.4546")
#loc6431 = loc("power.4548")
#loc6432 = loc("reduce.4555")
#loc6433 = loc("multiply.4564")
#loc6434 = loc("reshape.4565")
#loc6435 = loc("add.4569")
#loc6436 = loc("rsqrt.4570")
#loc6437 = loc("reshape.4571")
#loc6438 = loc("broadcast.4572")
#loc6439 = loc("multiply.4573")
#loc6440 = loc("convert.1106")
#loc6441 = loc("broadcast.4574")
#loc6442 = loc("multiply.4575")
#loc6443 = loc("convert.4576")
#loc6446 = loc("convert.7931")
#loc6447 = loc("power.7933")
#loc6448 = loc("reduce.7940")
#loc6449 = loc("multiply.7949")
#loc6450 = loc("reshape.7950")
#loc6451 = loc("add.7954")
#loc6452 = loc("rsqrt.7955")
#loc6453 = loc("reshape.7956")
#loc6454 = loc("broadcast.7957")
#loc6455 = loc("multiply.7958")
#loc6456 = loc("convert.686")
#loc6457 = loc("broadcast.7959")
#loc6458 = loc("multiply.7960")
#loc6459 = loc("convert.7961")
#loc6462 = loc("convert.3269")
#loc6463 = loc("power.3271")
#loc6464 = loc("reduce.3278")
#loc6465 = loc("multiply.3287")
#loc6466 = loc("reshape.3288")
#loc6467 = loc("add.3292")
#loc6468 = loc("rsqrt.3293")
#loc6469 = loc("reshape.3294")
#loc6470 = loc("broadcast.3295")
#loc6471 = loc("multiply.3296")
#loc6472 = loc("convert.1246")
#loc6473 = loc("broadcast.3297")
#loc6474 = loc("multiply.3298")
#loc6475 = loc("convert.3299")
#loc6478 = loc("convert.9208")
#loc6479 = loc("power.9210")
#loc6480 = loc("reduce.9217")
#loc6481 = loc("multiply.9226")
#loc6482 = loc("reshape.9227")
#loc6483 = loc("add.9231")
#loc6484 = loc("rsqrt.9232")
#loc6485 = loc("reshape.9233")
#loc6486 = loc("broadcast.9234")
#loc6487 = loc("multiply.9235")
#loc6488 = loc("convert.546")
#loc6489 = loc("broadcast.9236")
#loc6490 = loc("multiply.9237")
#loc6491 = loc("convert.9238")
#loc6494 = loc("convert.8011")
#loc6495 = loc("power.8013")
#loc6496 = loc("reduce.8020")
#loc6497 = loc("multiply.8029")
#loc6498 = loc("reshape.8030")
#loc6499 = loc("add.8034")
#loc6500 = loc("rsqrt.8035")
#loc6501 = loc("reshape.8036")
#loc6502 = loc("broadcast.8037")
#loc6503 = loc("multiply.8038")
#loc6504 = loc("convert.7997")
#loc6505 = loc("broadcast.8039")
#loc6506 = loc("multiply.8040")
#loc6507 = loc("convert.8041")
#loc6510 = loc("convert.8209")
#loc6511 = loc("power.8211")
#loc6512 = loc("reduce.8218")
#loc6513 = loc("multiply.8227")
#loc6514 = loc("reshape.8228")
#loc6515 = loc("add.8232")
#loc6516 = loc("rsqrt.8233")
#loc6517 = loc("reshape.8234")
#loc6518 = loc("broadcast.8235")
#loc6519 = loc("multiply.8236")
#loc6520 = loc("convert.666")
#loc6521 = loc("broadcast.8237")
#loc6522 = loc("multiply.8238")
#loc6523 = loc("convert.8239")
#loc6526 = loc("convert.8264")
#loc6527 = loc("power.8266")
#loc6528 = loc("reduce.8273")
#loc6529 = loc("multiply.8282")
#loc6530 = loc("reshape.8283")
#loc6531 = loc("add.8287")
#loc6532 = loc("rsqrt.8288")
#loc6533 = loc("reshape.8289")
#loc6534 = loc("broadcast.8290")
#loc6535 = loc("multiply.8291")
#loc6536 = loc("convert.646")
#loc6537 = loc("broadcast.8292")
#loc6538 = loc("multiply.8293")
#loc6539 = loc("convert.8294")
#loc6542 = loc("convert.13592")
#loc6543 = loc("power.13594")
#loc6544 = loc("reduce.13601")
#loc6545 = loc("multiply.13610")
#loc6546 = loc("reshape.13611")
#loc6547 = loc("add.13615")
#loc6548 = loc("rsqrt.13616")
#loc6549 = loc("reshape.13617")
#loc6550 = loc("broadcast.13618")
#loc6551 = loc("multiply.13619")
#loc6552 = loc("convert.6")
#loc6553 = loc("broadcast.13620")
#loc6554 = loc("multiply.13621")
#loc6555 = loc("convert.13622")
#loc6558 = loc("convert.10207")
#loc6559 = loc("power.10209")
#loc6560 = loc("reduce.10216")
#loc6561 = loc("multiply.10225")
#loc6562 = loc("reshape.10226")
#loc6563 = loc("add.10230")
#loc6564 = loc("rsqrt.10231")
#loc6565 = loc("reshape.10232")
#loc6566 = loc("broadcast.10233")
#loc6567 = loc("multiply.10234")
#loc6568 = loc("convert.426")
#loc6569 = loc("broadcast.10235")
#loc6570 = loc("multiply.10236")
#loc6571 = loc("convert.10237")
#loc6574 = loc("convert.8344")
#loc6575 = loc("power.8346")
#loc6576 = loc("reduce.8353")
#loc6577 = loc("multiply.8362")
#loc6578 = loc("reshape.8363")
#loc6579 = loc("add.8367")
#loc6580 = loc("rsqrt.8368")
#loc6581 = loc("reshape.8369")
#loc6582 = loc("broadcast.8370")
#loc6583 = loc("multiply.8371")
#loc6584 = loc("convert.8330")
#loc6585 = loc("broadcast.8372")
#loc6586 = loc("multiply.8373")
#loc6587 = loc("convert.8374")
#loc6590 = loc("convert.8542")
#loc6591 = loc("power.8544")
#loc6592 = loc("reduce.8551")
#loc6593 = loc("multiply.8560")
#loc6594 = loc("reshape.8561")
#loc6595 = loc("add.8565")
#loc6596 = loc("rsqrt.8566")
#loc6597 = loc("reshape.8567")
#loc6598 = loc("broadcast.8568")
#loc6599 = loc("multiply.8569")
#loc6600 = loc("convert.626")
#loc6601 = loc("broadcast.8570")
#loc6602 = loc("multiply.8571")
#loc6603 = loc("convert.8572")
#loc6606 = loc("convert.11751")
#loc6607 = loc("power.11753")
#loc6608 = loc("reduce.11760")
#loc6609 = loc("multiply.11769")
#loc6610 = loc("reshape.11770")
#loc6611 = loc("add.11774")
#loc6612 = loc("rsqrt.11775")
#loc6613 = loc("reshape.11776")
#loc6614 = loc("broadcast.11777")
#loc6615 = loc("multiply.11778")
#loc6616 = loc("convert.11737")
#loc6617 = loc("broadcast.11779")
#loc6618 = loc("multiply.11780")
#loc6619 = loc("convert.11781")
#loc6622 = loc("convert.8677")
#loc6623 = loc("power.8679")
#loc6624 = loc("reduce.8686")
#loc6625 = loc("multiply.8695")
#loc6626 = loc("reshape.8696")
#loc6627 = loc("add.8700")
#loc6628 = loc("rsqrt.8701")
#loc6629 = loc("reshape.8702")
#loc6630 = loc("broadcast.8703")
#loc6631 = loc("multiply.8704")
#loc6632 = loc("convert.8663")
#loc6633 = loc("broadcast.8705")
#loc6634 = loc("multiply.8706")
#loc6635 = loc("convert.8707")
#loc6638 = loc("convert.3426")
#loc6639 = loc("power.3428")
#loc6640 = loc("reduce.3435")
#loc6641 = loc("multiply.3444")
#loc6642 = loc("reshape.3445")
#loc6643 = loc("add.3449")
#loc6644 = loc("rsqrt.3450")
#loc6645 = loc("reshape.3451")
#loc6646 = loc("broadcast.3452")
#loc6647 = loc("multiply.3453")
#loc6648 = loc("convert.3412")
#loc6649 = loc("broadcast.3454")
#loc6650 = loc("multiply.3455")
#loc6651 = loc("convert.3456")
#loc6654 = loc("convert.8875")
#loc6655 = loc("power.8877")
#loc6656 = loc("reduce.8884")
#loc6657 = loc("multiply.8893")
#loc6658 = loc("reshape.8894")
#loc6659 = loc("add.8898")
#loc6660 = loc("rsqrt.8899")
#loc6661 = loc("reshape.8900")
#loc6662 = loc("broadcast.8901")
#loc6663 = loc("multiply.8902")
#loc6664 = loc("convert.586")
#loc6665 = loc("broadcast.8903")
#loc6666 = loc("multiply.8904")
#loc6667 = loc("convert.8905")
#loc6670 = loc("convert.7210")
#loc6671 = loc("power.7212")
#loc6672 = loc("reduce.7219")
#loc6673 = loc("multiply.7228")
#loc6674 = loc("reshape.7229")
#loc6675 = loc("add.7233")
#loc6676 = loc("rsqrt.7234")
#loc6677 = loc("reshape.7235")
#loc6678 = loc("broadcast.7236")
#loc6679 = loc("multiply.7237")
#loc6680 = loc("convert.786")
#loc6681 = loc("broadcast.7238")
#loc6682 = loc("multiply.7239")
#loc6683 = loc("convert.7240")
#loc6686 = loc("convert.8930")
#loc6687 = loc("power.8932")
#loc6688 = loc("reduce.8939")
#loc6689 = loc("multiply.8948")
#loc6690 = loc("reshape.8949")
#loc6691 = loc("add.8953")
#loc6692 = loc("rsqrt.8954")
#loc6693 = loc("reshape.8955")
#loc6694 = loc("broadcast.8956")
#loc6695 = loc("multiply.8957")
#loc6696 = loc("convert.566")
#loc6697 = loc("broadcast.8958")
#loc6698 = loc("multiply.8959")
#loc6699 = loc("convert.8960")
#loc6702 = loc("convert.7598")
#loc6703 = loc("power.7600")
#loc6704 = loc("reduce.7607")
#loc6705 = loc("multiply.7616")
#loc6706 = loc("reshape.7617")
#loc6707 = loc("add.7621")
#loc6708 = loc("rsqrt.7622")
#loc6709 = loc("reshape.7623")
#loc6710 = loc("broadcast.7624")
#loc6711 = loc("multiply.7625")
#loc6712 = loc("convert.726")
#loc6713 = loc("broadcast.7626")
#loc6714 = loc("multiply.7627")
#loc6715 = loc("convert.7628")
#loc6718 = loc("convert.9010")
#loc6719 = loc("power.9012")
#loc6720 = loc("reduce.9019")
#loc6721 = loc("multiply.9028")
#loc6722 = loc("reshape.9029")
#loc6723 = loc("add.9033")
#loc6724 = loc("rsqrt.9034")
#loc6725 = loc("reshape.9035")
#loc6726 = loc("broadcast.9036")
#loc6727 = loc("multiply.9037")
#loc6728 = loc("convert.8996")
#loc6729 = loc("broadcast.9038")
#loc6730 = loc("multiply.9039")
#loc6731 = loc("convert.9040")
#loc6734 = loc("convert.5014")
#loc6735 = loc("power.5016")
#loc6736 = loc("reduce.5023")
#loc6737 = loc("multiply.5032")
#loc6738 = loc("reshape.5033")
#loc6739 = loc("add.5037")
#loc6740 = loc("rsqrt.5038")
#loc6741 = loc("reshape.5039")
#loc6742 = loc("broadcast.5040")
#loc6743 = loc("multiply.5041")
#loc6744 = loc("convert.5000")
#loc6745 = loc("broadcast.5042")
#loc6746 = loc("multiply.5043")
#loc6747 = loc("convert.5044")
#loc6750 = loc("convert.9420")
#loc6751 = loc("power.9422")
#loc6752 = loc("reduce.9429")
#loc6753 = loc("multiply.9438")
#loc6754 = loc("reshape.9439")
#loc6755 = loc("add.9443")
#loc6756 = loc("rsqrt.9444")
#loc6757 = loc("reshape.9445")
#loc6758 = loc("broadcast.9446")
#loc6759 = loc("multiply.9447")
#loc6760 = loc("convert.9406")
#loc6761 = loc("broadcast.9448")
#loc6762 = loc("multiply.9449")
#loc6763 = loc("convert.9450")
#loc6766 = loc("convert.9541")
#loc6767 = loc("power.9543")
#loc6768 = loc("reduce.9550")
#loc6769 = loc("multiply.9559")
#loc6770 = loc("reshape.9560")
#loc6771 = loc("add.9564")
#loc6772 = loc("rsqrt.9565")
#loc6773 = loc("reshape.9566")
#loc6774 = loc("broadcast.9567")
#loc6775 = loc("multiply.9568")
#loc6776 = loc("convert.506")
#loc6777 = loc("broadcast.9569")
#loc6778 = loc("multiply.9570")
#loc6779 = loc("convert.9571")
#loc6782 = loc("convert.5091")
#loc6783 = loc("power.5093")
#loc6784 = loc("reduce.5100")
#loc6785 = loc("multiply.5109")
#loc6786 = loc("reshape.5110")
#loc6787 = loc("add.5114")
#loc6788 = loc("rsqrt.5115")
#loc6789 = loc("reshape.5116")
#loc6790 = loc("broadcast.5117")
#loc6791 = loc("multiply.5118")
#loc6792 = loc("convert.5077")
#loc6793 = loc("broadcast.5119")
#loc6794 = loc("multiply.5120")
#loc6795 = loc("convert.5121")
#loc6798 = loc("convert.10262")
#loc6799 = loc("power.10264")
#loc6800 = loc("reduce.10271")
#loc6801 = loc("multiply.10280")
#loc6802 = loc("reshape.10281")
#loc6803 = loc("add.10285")
#loc6804 = loc("rsqrt.10286")
#loc6805 = loc("reshape.10287")
#loc6806 = loc("broadcast.10288")
#loc6807 = loc("multiply.10289")
#loc6808 = loc("convert.406")
#loc6809 = loc("broadcast.10290")
#loc6810 = loc("multiply.10291")
#loc6811 = loc("convert.10292")
#loc6814 = loc("convert.10419")
#loc6815 = loc("power.10421")
#loc6816 = loc("reduce.10428")
#loc6817 = loc("multiply.10437")
#loc6818 = loc("reshape.10438")
#loc6819 = loc("add.10442")
#loc6820 = loc("rsqrt.10443")
#loc6821 = loc("reshape.10444")
#loc6822 = loc("broadcast.10445")
#loc6823 = loc("multiply.10446")
#loc6824 = loc("convert.10405")
#loc6825 = loc("broadcast.10447")
#loc6826 = loc("multiply.10448")
#loc6827 = loc("convert.10449")
#loc6830 = loc("convert.5267")
#loc6831 = loc("power.5269")
#loc6832 = loc("reduce.5276")
#loc6833 = loc("multiply.5285")
#loc6834 = loc("reshape.5286")
#loc6835 = loc("add.5290")
#loc6836 = loc("rsqrt.5291")
#loc6837 = loc("reshape.5292")
#loc6838 = loc("broadcast.5293")
#loc6839 = loc("multiply.5294")
#loc6840 = loc("convert.1006")
#loc6841 = loc("broadcast.5295")
#loc6842 = loc("multiply.5296")
#loc6843 = loc("convert.5297")
#loc6846 = loc("convert.9753")
#loc6847 = loc("power.9755")
#loc6848 = loc("reduce.9762")
#loc6849 = loc("multiply.9771")
#loc6850 = loc("reshape.9772")
#loc6851 = loc("add.9776")
#loc6852 = loc("rsqrt.9777")
#loc6853 = loc("reshape.9778")
#loc6854 = loc("broadcast.9779")
#loc6855 = loc("multiply.9780")
#loc6856 = loc("convert.9739")
#loc6857 = loc("broadcast.9781")
#loc6858 = loc("multiply.9782")
#loc6859 = loc("convert.9783")
#loc6862 = loc("convert.10342")
#loc6863 = loc("power.10344")
#loc6864 = loc("reduce.10351")
#loc6865 = loc("multiply.10360")
#loc6866 = loc("reshape.10361")
#loc6867 = loc("add.10365")
#loc6868 = loc("rsqrt.10366")
#loc6869 = loc("reshape.10367")
#loc6870 = loc("broadcast.10368")
#loc6871 = loc("multiply.10369")
#loc6872 = loc("convert.10328")
#loc6873 = loc("broadcast.10370")
#loc6874 = loc("multiply.10371")
#loc6875 = loc("convert.10372")
#loc6878 = loc("convert.13416")
#loc6879 = loc("power.13418")
#loc6880 = loc("reduce.13425")
#loc6881 = loc("multiply.13434")
#loc6882 = loc("reshape.13435")
#loc6883 = loc("add.13439")
#loc6884 = loc("rsqrt.13440")
#loc6885 = loc("reshape.13441")
#loc6886 = loc("broadcast.13442")
#loc6887 = loc("multiply.13443")
#loc6888 = loc("convert.13402")
#loc6889 = loc("broadcast.13444")
#loc6890 = loc("multiply.13445")
#loc6891 = loc("convert.13446")
#loc6894 = loc("convert.10540")
#loc6895 = loc("power.10542")
#loc6896 = loc("reduce.10549")
#loc6897 = loc("multiply.10558")
#loc6898 = loc("reshape.10559")
#loc6899 = loc("add.10563")
#loc6900 = loc("rsqrt.10564")
#loc6901 = loc("reshape.10565")
#loc6902 = loc("broadcast.10566")
#loc6903 = loc("multiply.10567")
#loc6904 = loc("convert.386")
#loc6905 = loc("broadcast.10568")
#loc6906 = loc("multiply.10569")
#loc6907 = loc("convert.10570")
#loc6910 = loc("convert.10873")
#loc6911 = loc("power.10875")
#loc6912 = loc("reduce.10882")
#loc6913 = loc("multiply.10891")
#loc6914 = loc("reshape.10892")
#loc6915 = loc("add.10896")
#loc6916 = loc("rsqrt.10897")
#loc6917 = loc("reshape.10898")
#loc6918 = loc("broadcast.10899")
#loc6919 = loc("multiply.10900")
#loc6920 = loc("convert.346")
#loc6921 = loc("broadcast.10901")
#loc6922 = loc("multiply.10902")
#loc6923 = loc("convert.10903")
#loc6926 = loc("convert.11261")
#loc6927 = loc("power.11263")
#loc6928 = loc("reduce.11270")
#loc6929 = loc("multiply.11279")
#loc6930 = loc("reshape.11280")
#loc6931 = loc("add.11284")
#loc6932 = loc("rsqrt.11285")
#loc6933 = loc("reshape.11286")
#loc6934 = loc("broadcast.11287")
#loc6935 = loc("multiply.11288")
#loc6936 = loc("convert.286")
#loc6937 = loc("broadcast.11289")
#loc6938 = loc("multiply.11290")
#loc6939 = loc("convert.11291")
#loc6942 = loc("convert.12084")
#loc6943 = loc("power.12086")
#loc6944 = loc("reduce.12093")
#loc6945 = loc("multiply.12102")
#loc6946 = loc("reshape.12103")
#loc6947 = loc("add.12107")
#loc6948 = loc("rsqrt.12108")
#loc6949 = loc("reshape.12109")
#loc6950 = loc("broadcast.12110")
#loc6951 = loc("multiply.12111")
#loc6952 = loc("convert.12070")
#loc6953 = loc("broadcast.12112")
#loc6954 = loc("multiply.12113")
#loc6955 = loc("convert.12114")
#loc6958 = loc("convert.4758")
#loc6959 = loc("power.4760")
#loc6960 = loc("reduce.4767")
#loc6961 = loc("multiply.4776")
#loc6962 = loc("reshape.4777")
#loc6963 = loc("add.4781")
#loc6964 = loc("rsqrt.4782")
#loc6965 = loc("reshape.4783")
#loc6966 = loc("broadcast.4784")
#loc6967 = loc("multiply.4785")
#loc6968 = loc("convert.4744")
#loc6969 = loc("broadcast.4786")
#loc6970 = loc("multiply.4787")
#loc6971 = loc("convert.4788")
#loc6974 = loc("convert.10752")
#loc6975 = loc("power.10754")
#loc6976 = loc("reduce.10761")
#loc6977 = loc("multiply.10770")
#loc6978 = loc("reshape.10771")
#loc6979 = loc("add.10775")
#loc6980 = loc("rsqrt.10776")
#loc6981 = loc("reshape.10777")
#loc6982 = loc("broadcast.10778")
#loc6983 = loc("multiply.10779")
#loc6984 = loc("convert.10738")
#loc6985 = loc("broadcast.10780")
#loc6986 = loc("multiply.10781")
#loc6987 = loc("convert.10782")
#loc6990 = loc("convert.11418")
#loc6991 = loc("power.11420")
#loc6992 = loc("reduce.11427")
#loc6993 = loc("multiply.11436")
#loc6994 = loc("reshape.11437")
#loc6995 = loc("add.11441")
#loc6996 = loc("rsqrt.11442")
#loc6997 = loc("reshape.11443")
#loc6998 = loc("broadcast.11444")
#loc6999 = loc("multiply.11445")
#loc7000 = loc("convert.11404")
#loc7001 = loc("broadcast.11446")
#loc7002 = loc("multiply.11447")
#loc7003 = loc("convert.11448")
#loc7006 = loc("convert.11872")
#loc7007 = loc("power.11874")
#loc7008 = loc("reduce.11881")
#loc7009 = loc("multiply.11890")
#loc7010 = loc("reshape.11891")
#loc7011 = loc("add.11895")
#loc7012 = loc("rsqrt.11896")
#loc7013 = loc("reshape.11897")
#loc7014 = loc("broadcast.11898")
#loc7015 = loc("multiply.11899")
#loc7016 = loc("convert.226")
#loc7017 = loc("broadcast.11900")
#loc7018 = loc("multiply.11901")
#loc7019 = loc("convert.11902")
#loc7022 = loc("convert.7755")
#loc7023 = loc("power.7757")
#loc7024 = loc("reduce.7764")
#loc7025 = loc("multiply.7773")
#loc7026 = loc("reshape.7774")
#loc7027 = loc("add.7778")
#loc7028 = loc("rsqrt.7779")
#loc7029 = loc("reshape.7780")
#loc7030 = loc("broadcast.7781")
#loc7031 = loc("multiply.7782")
#loc7032 = loc("convert.7741")
#loc7033 = loc("broadcast.7783")
#loc7034 = loc("multiply.7784")
#loc7035 = loc("convert.7785")
#loc7038 = loc("convert.12007")
#loc7039 = loc("power.12009")
#loc7040 = loc("reduce.12016")
#loc7041 = loc("multiply.12025")
#loc7042 = loc("reshape.12026")
#loc7043 = loc("add.12030")
#loc7044 = loc("rsqrt.12031")
#loc7045 = loc("reshape.12032")
#loc7046 = loc("broadcast.12033")
#loc7047 = loc("multiply.12034")
#loc7048 = loc("convert.11993")
#loc7049 = loc("broadcast.12035")
#loc7050 = loc("multiply.12036")
#loc7051 = loc("convert.12037")
