#loc1 = loc("p0.1")
#loc2 = loc("p1.11")
#loc3 = loc("p2.16")
#loc4 = loc("p3.21")
#loc5 = loc("p4.31")
#loc6 = loc("p5.36")
#loc7 = loc("p6.41")
#loc8 = loc("p7.51")
#loc9 = loc("p8.56")
#loc10 = loc("p9.61")
#loc11 = loc("p10.71")
#loc12 = loc("p11.76")
#loc13 = loc("p12.81")
#loc14 = loc("p13.91")
#loc15 = loc("p14.96")
#loc16 = loc("p15.101")
#loc17 = loc("p16.111")
#loc18 = loc("p17.116")
#loc19 = loc("p18.121")
#loc20 = loc("p19.131")
#loc21 = loc("p20.136")
#loc22 = loc("p21.141")
#loc23 = loc("p22.151")
#loc24 = loc("p23.156")
#loc25 = loc("p24.161")
#loc26 = loc("p25.171")
#loc27 = loc("p26.176")
#loc28 = loc("p27.181")
#loc29 = loc("p28.191")
#loc30 = loc("p29.196")
#loc31 = loc("p30.201")
#loc32 = loc("p31.211")
#loc33 = loc("p32.216")
#loc34 = loc("p33.221")
#loc35 = loc("p34.231")
#loc36 = loc("p35.236")
#loc37 = loc("p36.241")
#loc38 = loc("p37.251")
#loc39 = loc("p38.256")
#loc40 = loc("p39.261")
#loc41 = loc("p40.271")
#loc42 = loc("p41.276")
#loc43 = loc("p42.281")
#loc44 = loc("p43.291")
#loc45 = loc("p44.296")
#loc46 = loc("p45.301")
#loc47 = loc("p46.311")
#loc48 = loc("p47.316")
#loc49 = loc("p48.321")
#loc50 = loc("p49.331")
#loc51 = loc("p50.336")
#loc52 = loc("p51.341")
#loc53 = loc("p52.351")
#loc54 = loc("p53.356")
#loc55 = loc("p54.361")
#loc56 = loc("p55.371")
#loc57 = loc("p56.376")
#loc58 = loc("p57.381")
#loc59 = loc("p58.391")
#loc60 = loc("p59.396")
#loc61 = loc("p60.401")
#loc62 = loc("p61.411")
#loc63 = loc("p62.416")
#loc64 = loc("p63.421")
#loc65 = loc("p64.431")
#loc66 = loc("p65.436")
#loc67 = loc("p66.441")
#loc68 = loc("p67.451")
#loc69 = loc("p68.456")
#loc70 = loc("p69.461")
#loc71 = loc("p70.471")
#loc72 = loc("p71.476")
#loc73 = loc("p72.481")
#loc74 = loc("p73.491")
#loc75 = loc("p74.496")
#loc76 = loc("p75.501")
#loc77 = loc("p76.511")
#loc78 = loc("p77.516")
#loc79 = loc("p78.521")
#loc80 = loc("p79.531")
#loc81 = loc("p80.536")
#loc82 = loc("p81.541")
#loc83 = loc("p82.551")
#loc84 = loc("p83.556")
#loc85 = loc("p84.561")
#loc86 = loc("p85.571")
#loc87 = loc("p86.576")
#loc88 = loc("p87.581")
#loc89 = loc("p88.591")
#loc90 = loc("p89.596")
#loc91 = loc("p90.601")
#loc92 = loc("p91.611")
#loc93 = loc("p92.616")
#loc94 = loc("p93.621")
#loc95 = loc("p94.631")
#loc96 = loc("p95.636")
#loc97 = loc("p96.641")
#loc98 = loc("p97.651")
#loc99 = loc("p98.656")
#loc100 = loc("p99.661")
#loc101 = loc("p100.671")
#loc102 = loc("p101.676")
#loc103 = loc("p102.681")
#loc104 = loc("p103.691")
#loc105 = loc("p104.696")
#loc106 = loc("p105.701")
#loc107 = loc("p106.711")
#loc108 = loc("p107.716")
#loc109 = loc("p108.721")
#loc110 = loc("p109.731")
#loc111 = loc("p110.736")
#loc112 = loc("p111.741")
#loc113 = loc("p112.751")
#loc114 = loc("p113.756")
#loc115 = loc("p114.761")
#loc116 = loc("p115.771")
#loc117 = loc("p116.776")
#loc118 = loc("p117.781")
#loc119 = loc("p118.791")
#loc120 = loc("p119.796")
#loc121 = loc("p120.801")
#loc122 = loc("p121.811")
#loc123 = loc("p122.816")
#loc124 = loc("p123.821")
#loc125 = loc("p124.831")
#loc126 = loc("p125.836")
#loc127 = loc("p126.841")
#loc128 = loc("p127.851")
#loc129 = loc("p128.856")
#loc130 = loc("p129.861")
#loc131 = loc("p130.871")
#loc132 = loc("p131.876")
#loc133 = loc("p132.881")
#loc134 = loc("p133.891")
#loc135 = loc("p134.896")
#loc136 = loc("p135.901")
#loc137 = loc("p136.911")
#loc138 = loc("p137.916")
#loc139 = loc("p138.921")
#loc140 = loc("p139.931")
#loc141 = loc("p140.936")
#loc142 = loc("p141.941")
#loc143 = loc("p142.951")
#loc144 = loc("p143.956")
#loc145 = loc("p144.961")
#loc146 = loc("p145.971")
#loc147 = loc("p146.976")
#loc148 = loc("p147.981")
#loc149 = loc("p148.991")
#loc150 = loc("p149.996")
#loc151 = loc("p150.1001")
#loc152 = loc("p151.1011")
#loc153 = loc("p152.1016")
#loc154 = loc("p153.1021")
#loc155 = loc("p154.1031")
#loc156 = loc("p155.1036")
#loc157 = loc("p156.1041")
#loc158 = loc("p157.1051")
#loc159 = loc("p158.1056")
#loc160 = loc("p159.1061")
#loc161 = loc("p160.1071")
#loc162 = loc("p161.1076")
#loc163 = loc("p162.1081")
#loc164 = loc("p163.1091")
#loc165 = loc("p164.1096")
#loc166 = loc("p165.1101")
#loc167 = loc("p166.1111")
#loc168 = loc("p167.1116")
#loc169 = loc("p168.1121")
#loc170 = loc("p169.1131")
#loc171 = loc("p170.1136")
#loc172 = loc("p171.1141")
#loc173 = loc("p172.1151")
#loc174 = loc("p173.1156")
#loc175 = loc("p174.1161")
#loc176 = loc("p175.1171")
#loc177 = loc("p176.1176")
#loc178 = loc("p177.1181")
#loc179 = loc("p178.1191")
#loc180 = loc("p179.1196")
#loc181 = loc("p180.1201")
#loc182 = loc("p181.1211")
#loc183 = loc("p182.1216")
#loc184 = loc("p183.1221")
#loc185 = loc("p184.1231")
#loc186 = loc("p185.1236")
#loc187 = loc("p186.1241")
#loc188 = loc("p187.1251")
#loc189 = loc("p188.1256")
#loc190 = loc("p189.1261")
#loc191 = loc("p190.1271")
#loc192 = loc("p191.1276")
#loc193 = loc("p192.1281")
#loc194 = loc("p193.1291")
#loc195 = loc("p194.1296")
#loc196 = loc("p195.1301")
#loc197 = loc("p196.1311")
#loc198 = loc("p197.1316")
#loc199 = loc("p198.1321")
#loc200 = loc("p199.1331")
#loc201 = loc("p200.1336")
#loc202 = loc("p201.1341")
#loc203 = loc("p202.1351")
#loc204 = loc("p203.1356")
#loc205 = loc("p204.1361")
#loc206 = loc("p205.1371")
#loc207 = loc("p206.1376")
#loc208 = loc("p207.1381")
#loc209 = loc("p208.1391")
#loc210 = loc("p209.1396")
#loc211 = loc("p210.1401")
#loc212 = loc("p211.1411")
#loc213 = loc("p212.1416")
#loc214 = loc("p213.1421")
#loc215 = loc("p214.1431")
#loc216 = loc("p215.1436")
#loc217 = loc("p216.1441")
#loc218 = loc("p217.1450")
#loc219 = loc("p218.1455")
#loc220 = loc("p219.1625")
#loc221 = loc("p220.1644")
#loc222 = loc("p221.1660")
#loc223 = loc("p222.1669")
#loc224 = loc("p223.1742")
#loc225 = loc("p224.1751")
#loc226 = loc("p225.1917")
#loc227 = loc("p226.1998")
#loc228 = loc("p227.2007")
#loc229 = loc("p228.2075")
#loc230 = loc("p229.2084")
#loc231 = loc("p230.2250")
#loc232 = loc("p231.2331")
#loc233 = loc("p232.2340")
#loc234 = loc("p233.2408")
#loc235 = loc("p234.2417")
#loc236 = loc("p235.2583")
#loc237 = loc("p236.2664")
#loc238 = loc("p237.2673")
#loc239 = loc("p238.2741")
#loc240 = loc("p239.2750")
#loc241 = loc("p240.2916")
#loc242 = loc("p241.2997")
#loc243 = loc("p242.3006")
#loc244 = loc("p243.3074")
#loc245 = loc("p244.3083")
#loc246 = loc("p245.3249")
#loc247 = loc("p246.3330")
#loc248 = loc("p247.3339")
#loc249 = loc("p248.3407")
#loc250 = loc("p249.3416")
#loc251 = loc("p250.3582")
#loc252 = loc("p251.3663")
#loc253 = loc("p252.3672")
#loc254 = loc("p253.3740")
#loc255 = loc("p254.3749")
#loc256 = loc("p255.3915")
#loc257 = loc("p256.3996")
#loc258 = loc("p257.4005")
#loc259 = loc("p258.4073")
#loc260 = loc("p259.4082")
#loc261 = loc("p260.4248")
#loc262 = loc("p261.4329")
#loc263 = loc("p262.4338")
#loc264 = loc("p263.4406")
#loc265 = loc("p264.4415")
#loc266 = loc("p265.4581")
#loc267 = loc("p266.4662")
#loc268 = loc("p267.4671")
#loc269 = loc("p268.4739")
#loc270 = loc("p269.4748")
#loc271 = loc("p270.4914")
#loc272 = loc("p271.4995")
#loc273 = loc("p272.5004")
#loc274 = loc("p273.5072")
#loc275 = loc("p274.5081")
#loc276 = loc("p275.5247")
#loc277 = loc("p276.5328")
#loc278 = loc("p277.5337")
#loc279 = loc("p278.5405")
#loc280 = loc("p279.5414")
#loc281 = loc("p280.5580")
#loc282 = loc("p281.5661")
#loc283 = loc("p282.5670")
#loc284 = loc("p283.5738")
#loc285 = loc("p284.5747")
#loc286 = loc("p285.5913")
#loc287 = loc("p286.5994")
#loc288 = loc("p287.6003")
#loc289 = loc("p288.6071")
#loc290 = loc("p289.6080")
#loc291 = loc("p290.6246")
#loc292 = loc("p291.6327")
#loc293 = loc("p292.6336")
#loc294 = loc("p293.6404")
#loc295 = loc("p294.6413")
#loc296 = loc("p295.6579")
#loc297 = loc("p296.6660")
#loc298 = loc("p297.6669")
#loc299 = loc("p298.6737")
#loc300 = loc("p299.6746")
#loc301 = loc("p300.6912")
#loc302 = loc("p301.6993")
#loc303 = loc("p302.7002")
#loc304 = loc("p303.7070")
#loc305 = loc("p304.7079")
#loc306 = loc("p305.7245")
#loc307 = loc("p306.7326")
#loc308 = loc("p307.7335")
#loc309 = loc("p308.7403")
#loc310 = loc("p309.7412")
#loc311 = loc("p310.7578")
#loc312 = loc("p311.7659")
#loc313 = loc("p312.7668")
#loc314 = loc("p313.7736")
#loc315 = loc("p314.7745")
#loc316 = loc("p315.7911")
#loc317 = loc("p316.7992")
#loc318 = loc("p317.8001")
#loc319 = loc("p318.8069")
#loc320 = loc("p319.8078")
#loc321 = loc("p320.8244")
#loc322 = loc("p321.8325")
#loc323 = loc("p322.8334")
#loc324 = loc("p323.8402")
#loc325 = loc("p324.8411")
#loc326 = loc("p325.8577")
#loc327 = loc("p326.8658")
#loc328 = loc("p327.8667")
#loc329 = loc("p328.8735")
#loc330 = loc("p329.8744")
#loc331 = loc("p330.8910")
#loc332 = loc("p331.8991")
#loc333 = loc("p332.9000")
#loc334 = loc("p333.9068")
#loc335 = loc("p334.9077")
#loc336 = loc("p335.9243")
#loc337 = loc("p336.9324")
#loc338 = loc("p337.9333")
#loc339 = loc("p338.9401")
#loc340 = loc("p339.9410")
#loc341 = loc("p340.9576")
#loc342 = loc("p341.9657")
#loc343 = loc("p342.9666")
#loc344 = loc("p343.9734")
#loc345 = loc("p344.9743")
#loc346 = loc("p345.9909")
#loc347 = loc("p346.9990")
#loc348 = loc("p347.9999")
#loc349 = loc("p348.10067")
#loc350 = loc("p349.10076")
#loc351 = loc("p350.10242")
#loc352 = loc("p351.10323")
#loc353 = loc("p352.10332")
#loc354 = loc("p353.10400")
#loc355 = loc("p354.10409")
#loc356 = loc("p355.10575")
#loc357 = loc("p356.10656")
#loc358 = loc("p357.10665")
#loc359 = loc("p358.10733")
#loc360 = loc("p359.10742")
#loc361 = loc("p360.10908")
#loc362 = loc("p361.10989")
#loc363 = loc("p362.10998")
#loc364 = loc("p363.11066")
#loc365 = loc("p364.11075")
#loc366 = loc("p365.11241")
#loc367 = loc("p366.11322")
#loc368 = loc("p367.11331")
#loc369 = loc("p368.11399")
#loc370 = loc("p369.11408")
#loc371 = loc("p370.11574")
#loc372 = loc("p371.11655")
#loc373 = loc("p372.11664")
#loc374 = loc("p373.11732")
#loc375 = loc("p374.11741")
#loc376 = loc("p375.11907")
#loc377 = loc("p376.11988")
#loc378 = loc("p377.11997")
#loc379 = loc("p378.12065")
#loc380 = loc("p379.12074")
#loc381 = loc("p380.12240")
#loc382 = loc("p381.12321")
#loc383 = loc("p382.12330")
#loc384 = loc("p383.12398")
#loc385 = loc("p384.12407")
#loc386 = loc("p385.12573")
#loc387 = loc("p386.12654")
#loc388 = loc("p387.12663")
#loc389 = loc("p388.12731")
#loc390 = loc("p389.12740")
#loc391 = loc("p390.12906")
#loc392 = loc("p391.12987")
#loc393 = loc("p392.12996")
#loc394 = loc("p393.13064")
#loc395 = loc("p394.13073")
#loc396 = loc("p395.13239")
#loc397 = loc("p396.13320")
#loc398 = loc("p397.13329")
#loc399 = loc("p398.13397")
#loc400 = loc("p399.13406")
#loc401 = loc("p400.13572")
#loc471 = loc("reduce-window.1583")
#loc489 = loc("reduce.1859")
#loc597 = loc("reduce.2192")
#loc705 = loc("reduce.2525")
#loc813 = loc("reduce.2858")
#loc921 = loc("reduce.3191")
#loc1029 = loc("reduce.3524")
#loc1137 = loc("reduce.3857")
#loc1245 = loc("reduce.4190")
#loc1353 = loc("reduce.4523")
#loc1461 = loc("reduce.4856")
#loc1569 = loc("reduce.5189")
#loc1677 = loc("reduce.5522")
#loc1785 = loc("reduce.5855")
#loc1893 = loc("reduce.6188")
#loc2001 = loc("reduce.6521")
#loc2109 = loc("reduce.6854")
#loc2217 = loc("reduce.7187")
#loc2325 = loc("reduce.7520")
#loc2433 = loc("reduce.7853")
#loc2541 = loc("reduce.8186")
#loc2649 = loc("reduce.8519")
#loc2757 = loc("reduce.8852")
#loc2865 = loc("reduce.9185")
#loc2973 = loc("reduce.9518")
#loc3081 = loc("reduce.9851")
#loc3189 = loc("reduce.10184")
#loc3297 = loc("reduce.10517")
#loc3405 = loc("reduce.10850")
#loc3513 = loc("reduce.11183")
#loc3621 = loc("reduce.11516")
#loc3729 = loc("reduce.11849")
#loc3837 = loc("reduce.12182")
#loc3945 = loc("reduce.12515")
#loc4053 = loc("reduce.12848")
#loc4161 = loc("reduce.13181")
#loc4269 = loc("reduce.13514")
#loc4332 = loc("custom-call.13338")
#loc4333 = loc("custom-call.13324")
#loc4348 = loc("custom-call.13258")
#loc4349 = loc("custom-call.45")
#loc4364 = loc("custom-call.13005")
#loc4365 = loc("custom-call.12991")
#loc4380 = loc("custom-call.13082")
#loc4381 = loc("custom-call.13068")
#loc4396 = loc("custom-call.12925")
#loc4397 = loc("custom-call.85")
#loc4412 = loc("custom-call.12870")
#loc4413 = loc("custom-call.105")
#loc4428 = loc("custom-call.12672")
#loc4429 = loc("custom-call.12658")
#loc4444 = loc("custom-call.12749")
#loc4445 = loc("custom-call.12735")
#loc4460 = loc("custom-call.12592")
#loc4461 = loc("custom-call.125")
#loc4476 = loc("custom-call.12339")
#loc4477 = loc("custom-call.12325")
#loc4492 = loc("custom-call.12416")
#loc4493 = loc("custom-call.12402")
#loc4508 = loc("custom-call.12537")
#loc4509 = loc("custom-call.145")
#loc4524 = loc("custom-call.12259")
#loc4525 = loc("custom-call.165")
#loc4540 = loc("custom-call.12204")
#loc4541 = loc("custom-call.185")
#loc4556 = loc("custom-call.6265")
#loc4557 = loc("custom-call.885")
#loc4572 = loc("custom-call.2547")
#loc4573 = loc("custom-call.1345")
#loc4588 = loc("custom-call.6012")
#loc4589 = loc("custom-call.5998")
#loc4604 = loc("custom-call.6089")
#loc4605 = loc("custom-call.6075")
#loc4620 = loc("custom-call.4267")
#loc4621 = loc("custom-call.1125")
#loc4636 = loc("custom-call.2880")
#loc4637 = loc("custom-call.1305")
#loc4652 = loc("custom-call.10594")
#loc4653 = loc("custom-call.365")
#loc4668 = loc("custom-call.6422")
#loc4669 = loc("custom-call.6408")
#loc4684 = loc("custom-call.10008")
#loc4685 = loc("custom-call.9994")
#loc4700 = loc("custom-call.11593")
#loc4701 = loc("custom-call.245")
#loc4716 = loc("custom-call.6210")
#loc4717 = loc("custom-call.905")
#loc4732 = loc("custom-call.4680")
#loc4733 = loc("custom-call.4666")
#loc4748 = loc("custom-call.5544")
#loc4749 = loc("custom-call.985")
#loc4764 = loc("custom-call.5423")
#loc4765 = loc("custom-call.5409")
#loc4780 = loc("custom-call.11673")
#loc4781 = loc("custom-call.11659")
#loc4796 = loc("custom-call.4347")
#loc4797 = loc("custom-call.4333")
#loc4812 = loc("custom-call.4212")
#loc4813 = loc("custom-call.1145")
#loc4828 = loc("custom-call.4014")
#loc4829 = loc("custom-call.4000")
#loc4844 = loc("custom-call.2349")
#loc4845 = loc("custom-call.2335")
#loc4860 = loc("custom-call.2016")
#loc4861 = loc("custom-call.2002")
#loc4876 = loc("custom-call.5877")
#loc4877 = loc("custom-call.945")
#loc4892 = loc("custom-call.6931")
#loc4893 = loc("custom-call.805")
#loc4908 = loc("custom-call.5211")
#loc4909 = loc("custom-call.1025")
#loc4924 = loc("custom-call.2269")
#loc4925 = loc("custom-call.1365")
#loc4940 = loc("custom-call.2426")
#loc4941 = loc("custom-call.2412")
#loc4956 = loc("custom-call.1936")
#loc4957 = loc("custom-call.1405")
#loc4972 = loc("custom-call.3601")
#loc4973 = loc("custom-call.1205")
#loc4988 = loc("custom-call.5932")
#loc4989 = loc("custom-call.925")
#loc5004 = loc("custom-call.1881")
#loc5005 = loc("custom-call.1425")
#loc5020 = loc("custom-call.11007")
#loc5021 = loc("custom-call.10993")
#loc5036 = loc("custom-call.5756")
#loc5037 = loc("custom-call.5742")
#loc5052 = loc("custom-call.4878")
#loc5053 = loc("custom-call.1065")
#loc5068 = loc("custom-call.4600")
#loc5069 = loc("custom-call.1085")
#loc5084 = loc("custom-call.1760")
#loc5085 = loc("custom-call.1746")
#loc5100 = loc("custom-call.6345")
#loc5101 = loc("custom-call.6331")
#loc5116 = loc("custom-call.6543")
#loc5117 = loc("custom-call.865")
#loc5132 = loc("custom-call.9928")
#loc5133 = loc("custom-call.445")
#loc5148 = loc("custom-call.11084")
#loc5149 = loc("custom-call.11070")
#loc5164 = loc("custom-call.10085")
#loc5165 = loc("custom-call.10071")
#loc5180 = loc("custom-call.5346")
#loc5181 = loc("custom-call.5332")
#loc5196 = loc("custom-call.8420")
#loc5197 = loc("custom-call.8406")
#loc5212 = loc("custom-call.2759")
#loc5213 = loc("custom-call.2745")
#loc5228 = loc("custom-call.3015")
#loc5229 = loc("custom-call.3001")
#loc5244 = loc("custom-call.13536")
#loc5245 = loc("custom-call.25")
#loc5260 = loc("custom-call.9086")
#loc5261 = loc("custom-call.9072")
#loc5276 = loc("custom-call.2093")
#loc5277 = loc("custom-call.2079")
#loc5292 = loc("custom-call.5679")
#loc5293 = loc("custom-call.5665")
#loc5308 = loc("custom-call.10927")
#loc5309 = loc("custom-call.325")
#loc5324 = loc("custom-call.2214")
#loc5325 = loc("custom-call.1385")
#loc5340 = loc("custom-call.3934")
#loc5341 = loc("custom-call.1165")
#loc5356 = loc("custom-call.1462")
#loc5357 = loc("custom-call.1445")
#loc5372 = loc("custom-call.9595")
#loc5373 = loc("custom-call.485")
#loc5388 = loc("custom-call.11926")
#loc5389 = loc("custom-call.205")
#loc5404 = loc("custom-call.13203")
#loc5405 = loc("custom-call.65")
#loc5420 = loc("custom-call.2682")
#loc5421 = loc("custom-call.2668")
#loc5436 = loc("custom-call.4424")
#loc5437 = loc("custom-call.4410")
#loc5452 = loc("custom-call.8596")
#loc5453 = loc("custom-call.605")
#loc5468 = loc("custom-call.4091")
#loc5469 = loc("custom-call.4077")
#loc5484 = loc("custom-call.9675")
#loc5485 = loc("custom-call.9661")
#loc5500 = loc("custom-call.2935")
#loc5501 = loc("custom-call.1285")
#loc5516 = loc("custom-call.3092")
#loc5517 = loc("custom-call.3078")
#loc5532 = loc("custom-call.6876")
#loc5533 = loc("custom-call.825")
#loc5548 = loc("custom-call.11340")
#loc5549 = loc("custom-call.11326")
#loc5564 = loc("custom-call.7344")
#loc5565 = loc("custom-call.7330")
#loc5580 = loc("custom-call.3213")
#loc5581 = loc("custom-call.1265")
#loc5596 = loc("custom-call.3348")
#loc5597 = loc("custom-call.3334")
#loc5612 = loc("custom-call.8087")
#loc5613 = loc("custom-call.8073")
#loc5628 = loc("custom-call.9873")
#loc5629 = loc("custom-call.465")
#loc5644 = loc("custom-call.4933")
#loc5645 = loc("custom-call.1045")
#loc5660 = loc("custom-call.3546")
#loc5661 = loc("custom-call.1225")
#loc5676 = loc("custom-call.7264")
#loc5677 = loc("custom-call.765")
#loc5692 = loc("custom-call.3758")
#loc5693 = loc("custom-call.3744")
#loc5708 = loc("custom-call.9342")
#loc5709 = loc("custom-call.9328")
#loc5724 = loc("custom-call.1678")
#loc5725 = loc("custom-call.1664")
#loc5740 = loc("custom-call.3879")
#loc5741 = loc("custom-call.1185")
#loc5756 = loc("custom-call.6598")
#loc5757 = loc("custom-call.845")
#loc5772 = loc("custom-call.3681")
#loc5773 = loc("custom-call.3667")
#loc5788 = loc("custom-call.6755")
#loc5789 = loc("custom-call.6741")
#loc5804 = loc("custom-call.7088")
#loc5805 = loc("custom-call.7074")
#loc5820 = loc("custom-call.6678")
#loc5821 = loc("custom-call.6664")
#loc5836 = loc("custom-call.11538")
#loc5837 = loc("custom-call.265")
#loc5852 = loc("custom-call.7011")
#loc5853 = loc("custom-call.6997")
#loc5868 = loc("custom-call.5599")
#loc5869 = loc("custom-call.965")
#loc5884 = loc("custom-call.7542")
#loc5885 = loc("custom-call.745")
#loc5900 = loc("custom-call.9262")
#loc5901 = loc("custom-call.525")
#loc5916 = loc("custom-call.11205")
#loc5917 = loc("custom-call.305")
#loc5932 = loc("custom-call.7421")
#loc5933 = loc("custom-call.7407")
#loc5948 = loc("custom-call.8753")
#loc5949 = loc("custom-call.8739")
#loc5964 = loc("custom-call.7677")
#loc5965 = loc("custom-call.7663")
#loc5980 = loc("custom-call.10674")
#loc5981 = loc("custom-call.10660")
#loc5996 = loc("custom-call.2602")
#loc5997 = loc("custom-call.1325")
#loc6012 = loc("custom-call.7875")
#loc6013 = loc("custom-call.705")
#loc6028 = loc("custom-call.4545")
#loc6029 = loc("custom-call.1105")
#loc6044 = loc("custom-call.7930")
#loc6045 = loc("custom-call.685")
#loc6060 = loc("custom-call.3268")
#loc6061 = loc("custom-call.1245")
#loc6076 = loc("custom-call.9207")
#loc6077 = loc("custom-call.545")
#loc6092 = loc("custom-call.8010")
#loc6093 = loc("custom-call.7996")
#loc6108 = loc("custom-call.8208")
#loc6109 = loc("custom-call.665")
#loc6124 = loc("custom-call.8263")
#loc6125 = loc("custom-call.645")
#loc6140 = loc("custom-call.13591")
#loc6141 = loc("custom-call.5")
#loc6156 = loc("custom-call.10206")
#loc6157 = loc("custom-call.425")
#loc6172 = loc("custom-call.8343")
#loc6173 = loc("custom-call.8329")
#loc6188 = loc("custom-call.8541")
#loc6189 = loc("custom-call.625")
#loc6204 = loc("custom-call.11750")
#loc6205 = loc("custom-call.11736")
#loc6220 = loc("custom-call.8676")
#loc6221 = loc("custom-call.8662")
#loc6236 = loc("custom-call.3425")
#loc6237 = loc("custom-call.3411")
#loc6252 = loc("custom-call.8874")
#loc6253 = loc("custom-call.585")
#loc6268 = loc("custom-call.7209")
#loc6269 = loc("custom-call.785")
#loc6284 = loc("custom-call.8929")
#loc6285 = loc("custom-call.565")
#loc6300 = loc("custom-call.7597")
#loc6301 = loc("custom-call.725")
#loc6316 = loc("custom-call.9009")
#loc6317 = loc("custom-call.8995")
#loc6332 = loc("custom-call.5013")
#loc6333 = loc("custom-call.4999")
#loc6348 = loc("custom-call.9419")
#loc6349 = loc("custom-call.9405")
#loc6364 = loc("custom-call.9540")
#loc6365 = loc("custom-call.505")
#loc6380 = loc("custom-call.5090")
#loc6381 = loc("custom-call.5076")
#loc6396 = loc("custom-call.10261")
#loc6397 = loc("custom-call.405")
#loc6412 = loc("custom-call.10418")
#loc6413 = loc("custom-call.10404")
#loc6428 = loc("custom-call.5266")
#loc6429 = loc("custom-call.1005")
#loc6444 = loc("custom-call.9752")
#loc6445 = loc("custom-call.9738")
#loc6460 = loc("custom-call.10341")
#loc6461 = loc("custom-call.10327")
#loc6476 = loc("custom-call.13415")
#loc6477 = loc("custom-call.13401")
#loc6492 = loc("custom-call.10539")
#loc6493 = loc("custom-call.385")
#loc6508 = loc("custom-call.10872")
#loc6509 = loc("custom-call.345")
#loc6524 = loc("custom-call.11260")
#loc6525 = loc("custom-call.285")
#loc6540 = loc("custom-call.12083")
#loc6541 = loc("custom-call.12069")
#loc6556 = loc("custom-call.4757")
#loc6557 = loc("custom-call.4743")
#loc6572 = loc("custom-call.10751")
#loc6573 = loc("custom-call.10737")
#loc6588 = loc("custom-call.11417")
#loc6589 = loc("custom-call.11403")
#loc6604 = loc("custom-call.11871")
#loc6605 = loc("custom-call.225")
#loc6620 = loc("custom-call.7754")
#loc6621 = loc("custom-call.7740")
#loc6636 = loc("custom-call.12006")
#loc6637 = loc("custom-call.11992")
module @SyncTensorsGraph.13625 attributes {mhlo.cross_program_prefetches = [], mhlo.input_output_alias = [], mhlo.is_dynamic = false, mhlo.use_auto_spmd_partitioning = false} {
  sdy.mesh @mesh = <["_axis_0"=4]> loc(#loc)
  func.func @main(%arg0: tensor<2560xbf16> {sdy.sharding = #sdy.sharding<@mesh, [{}]>, ttcore.argument_type = #ttcore.argument_type<parameter>, ttir.name = "norm.weight"} loc("p0.1"), %arg1: tensor<2560x9728xbf16> {sdy.sharding = #sdy.sharding<@mesh, [{}, {"_axis_0"}]>, ttcore.argument_type = #ttcore.argument_type<parameter>, ttir.name = "L__self___layers__modules__35___mlp_down_proj.weight"} loc("p1.11"), %arg2: tensor<9728x2560xbf16> {sdy.sharding = #sdy.sharding<@mesh, [{"_axis_0"}, {}]>, ttcore.argument_type = #ttcore.argument_type<parameter>, ttir.name = "L__self___layers__modules__35___mlp_up_proj.weight"} loc("p2.16"), %arg3: tensor<2560xbf16> {sdy.sharding = #sdy.sharding<@mesh, [{}]>, ttcore.argument_type = #ttcore.argument_type<parameter>, ttir.name = "L__self___layers__modules__35___post_attention_layernorm_weight"} loc("p3.21"), %arg4: tensor<2560x4096xbf16> {sdy.sharding = #sdy.sharding<@mesh, [{}, {"_axis_0"}]>, ttcore.argument_type = #ttcore.argument_type<parameter>, ttir.name = "L__self___layers__modules__35___self_attn_o_proj.weight"} loc("p4.31"), %arg5: tensor<1024x2560xbf16> {sdy.sharding = #sdy.sharding<@mesh, [{"_axis_0"}, {}]>, ttcore.argument_type = #ttcore.argument_type<parameter>, ttir.name = "L__self___layers__modules__35___self_attn_v_proj.weight"} loc("p5.36"), %arg6: tensor<2560xbf16> {sdy.sharding = #sdy.sharding<@mesh, [{}]>, ttcore.argument_type = #ttcore.argument_type<parameter>, ttir.name = "L__self___layers__modules__35___input_layernorm_weight"} loc("p6.41"), %arg7: tensor<2560x9728xbf16> {sdy.sharding = #sdy.sharding<@mesh, [{}, {"_axis_0"}]>, ttcore.argument_type = #ttcore.argument_type<parameter>, ttir.name = "L__self___layers__modules__34___mlp_down_proj.weight"} loc("p7.51"), %arg8: tensor<9728x2560xbf16> {sdy.sharding = #sdy.sharding<@mesh, [{"_axis_0"}, {}]>, ttcore.argument_type = #ttcore.argument_type<parameter>, ttir.name = "L__self___layers__modules__34___mlp_up_proj.weight"} loc("p8.56"), %arg9: tensor<2560xbf16> {sdy.sharding = #sdy.sharding<@mesh, [{}]>, ttcore.argument_type = #ttcore.argument_type<parameter>, ttir.name = "L__self___layers__modules__34___post_attention_layernorm_weight"} loc("p9.61"), %arg10: tensor<2560x4096xbf16> {sdy.sharding = #sdy.sharding<@mesh, [{}, {"_axis_0"}]>, ttcore.argument_type = #ttcore.argument_type<parameter>, ttir.name = "L__self___layers__modules__34___self_attn_o_proj.weight"} loc("p10.71"), %arg11: tensor<1024x2560xbf16> {sdy.sharding = #sdy.sharding<@mesh, [{"_axis_0"}, {}]>, ttcore.argument_type = #ttcore.argument_type<parameter>, ttir.name = "L__self___layers__modules__34___self_attn_v_proj.weight"} loc("p11.76"), %arg12: tensor<2560xbf16> {sdy.sharding = #sdy.sharding<@mesh, [{}]>, ttcore.argument_type = #ttcore.argument_type<parameter>, ttir.name = "L__self___layers__modules__34___input_layernorm_weight"} loc("p12.81"), %arg13: tensor<2560x9728xbf16> {sdy.sharding = #sdy.sharding<@mesh, [{}, {"_axis_0"}]>, ttcore.argument_type = #ttcore.argument_type<parameter>, ttir.name = "L__self___layers__modules__33___mlp_down_proj.weight"} loc("p13.91"), %arg14: tensor<9728x2560xbf16> {sdy.sharding = #sdy.sharding<@mesh, [{"_axis_0"}, {}]>, ttcore.argument_type = #ttcore.argument_type<parameter>, ttir.name = "L__self___layers__modules__33___mlp_up_proj.weight"} loc("p14.96"), %arg15: tensor<2560xbf16> {sdy.sharding = #sdy.sharding<@mesh, [{}]>, ttcore.argument_type = #ttcore.argument_type<parameter>, ttir.name = "L__self___layers__modules__33___post_attention_layernorm_weight"} loc("p15.101"), %arg16: tensor<2560x4096xbf16> {sdy.sharding = #sdy.sharding<@mesh, [{}, {"_axis_0"}]>, ttcore.argument_type = #ttcore.argument_type<parameter>, ttir.name = "L__self___layers__modules__33___self_attn_o_proj.weight"} loc("p16.111"), %arg17: tensor<1024x2560xbf16> {sdy.sharding = #sdy.sharding<@mesh, [{"_axis_0"}, {}]>, ttcore.argument_type = #ttcore.argument_type<parameter>, ttir.name = "L__self___layers__modules__33___self_attn_v_proj.weight"} loc("p17.116"), %arg18: tensor<2560xbf16> {sdy.sharding = #sdy.sharding<@mesh, [{}]>, ttcore.argument_type = #ttcore.argument_type<parameter>, ttir.name = "L__self___layers__modules__33___input_layernorm_weight"} loc("p18.121"), %arg19: tensor<2560x9728xbf16> {sdy.sharding = #sdy.sharding<@mesh, [{}, {"_axis_0"}]>, ttcore.argument_type = #ttcore.argument_type<parameter>, ttir.name = "L__self___layers__modules__32___mlp_down_proj.weight"} loc("p19.131"), %arg20: tensor<9728x2560xbf16> {sdy.sharding = #sdy.sharding<@mesh, [{"_axis_0"}, {}]>, ttcore.argument_type = #ttcore.argument_type<parameter>, ttir.name = "L__self___layers__modules__32___mlp_up_proj.weight"} loc("p20.136"), %arg21: tensor<2560xbf16> {sdy.sharding = #sdy.sharding<@mesh, [{}]>, ttcore.argument_type = #ttcore.argument_type<parameter>, ttir.name = "L__self___layers__modules__32___post_attention_layernorm_weight"} loc("p21.141"), %arg22: tensor<2560x4096xbf16> {sdy.sharding = #sdy.sharding<@mesh, [{}, {"_axis_0"}]>, ttcore.argument_type = #ttcore.argument_type<parameter>, ttir.name = "L__self___layers__modules__32___self_attn_o_proj.weight"} loc("p22.151"), %arg23: tensor<1024x2560xbf16> {sdy.sharding = #sdy.sharding<@mesh, [{"_axis_0"}, {}]>, ttcore.argument_type = #ttcore.argument_type<parameter>, ttir.name = "L__self___layers__modules__32___self_attn_v_proj.weight"} loc("p23.156"), %arg24: tensor<2560xbf16> {sdy.sharding = #sdy.sharding<@mesh, [{}]>, ttcore.argument_type = #ttcore.argument_type<parameter>, ttir.name = "L__self___layers__modules__32___input_layernorm_weight"} loc("p24.161"), %arg25: tensor<2560x9728xbf16> {sdy.sharding = #sdy.sharding<@mesh, [{}, {"_axis_0"}]>, ttcore.argument_type = #ttcore.argument_type<parameter>, ttir.name = "L__self___layers__modules__31___mlp_down_proj.weight"} loc("p25.171"), %arg26: tensor<9728x2560xbf16> {sdy.sharding = #sdy.sharding<@mesh, [{"_axis_0"}, {}]>, ttcore.argument_type = #ttcore.argument_type<parameter>, ttir.name = "L__self___layers__modules__31___mlp_up_proj.weight"} loc("p26.176"), %arg27: tensor<2560xbf16> {sdy.sharding = #sdy.sharding<@mesh, [{}]>, ttcore.argument_type = #ttcore.argument_type<parameter>, ttir.name = "L__self___layers__modules__31___post_attention_layernorm_weight"} loc("p27.181"), %arg28: tensor<2560x4096xbf16> {sdy.sharding = #sdy.sharding<@mesh, [{}, {"_axis_0"}]>, ttcore.argument_type = #ttcore.argument_type<parameter>, ttir.name = "L__self___layers__modules__31___self_attn_o_proj.weight"} loc("p28.191"), %arg29: tensor<1024x2560xbf16> {sdy.sharding = #sdy.sharding<@mesh, [{"_axis_0"}, {}]>, ttcore.argument_type = #ttcore.argument_type<parameter>, ttir.name = "L__self___layers__modules__31___self_attn_v_proj.weight"} loc("p29.196"), %arg30: tensor<2560xbf16> {sdy.sharding = #sdy.sharding<@mesh, [{}]>, ttcore.argument_type = #ttcore.argument_type<parameter>, ttir.name = "L__self___layers__modules__31___input_layernorm_weight"} loc("p30.201"), %arg31: tensor<2560x9728xbf16> {sdy.sharding = #sdy.sharding<@mesh, [{}, {"_axis_0"}]>, ttcore.argument_type = #ttcore.argument_type<parameter>, ttir.name = "L__self___layers__modules__30___mlp_down_proj.weight"} loc("p31.211"), %arg32: tensor<9728x2560xbf16> {sdy.sharding = #sdy.sharding<@mesh, [{"_axis_0"}, {}]>, ttcore.argument_type = #ttcore.argument_type<parameter>, ttir.name = "L__self___layers__modules__30___mlp_up_proj.weight"} loc("p32.216"), %arg33: tensor<2560xbf16> {sdy.sharding = #sdy.sharding<@mesh, [{}]>, ttcore.argument_type = #ttcore.argument_type<parameter>, ttir.name = "L__self___layers__modules__30___post_attention_layernorm_weight"} loc("p33.221"), %arg34: tensor<2560x4096xbf16> {sdy.sharding = #sdy.sharding<@mesh, [{}, {"_axis_0"}]>, ttcore.argument_type = #ttcore.argument_type<parameter>, ttir.name = "L__self___layers__modules__30___self_attn_o_proj.weight"} loc("p34.231"), %arg35: tensor<1024x2560xbf16> {sdy.sharding = #sdy.sharding<@mesh, [{"_axis_0"}, {}]>, ttcore.argument_type = #ttcore.argument_type<parameter>, ttir.name = "L__self___layers__modules__30___self_attn_v_proj.weight"} loc("p35.236"), %arg36: tensor<2560xbf16> {sdy.sharding = #sdy.sharding<@mesh, [{}]>, ttcore.argument_type = #ttcore.argument_type<parameter>, ttir.name = "L__self___layers__modules__30___input_layernorm_weight"} loc("p36.241"), %arg37: tensor<2560x9728xbf16> {sdy.sharding = #sdy.sharding<@mesh, [{}, {"_axis_0"}]>, ttcore.argument_type = #ttcore.argument_type<parameter>, ttir.name = "L__self___layers__modules__29___mlp_down_proj.weight"} loc("p37.251"), %arg38: tensor<9728x2560xbf16> {sdy.sharding = #sdy.sharding<@mesh, [{"_axis_0"}, {}]>, ttcore.argument_type = #ttcore.argument_type<parameter>, ttir.name = "L__self___layers__modules__29___mlp_up_proj.weight"} loc("p38.256"), %arg39: tensor<2560xbf16> {sdy.sharding = #sdy.sharding<@mesh, [{}]>, ttcore.argument_type = #ttcore.argument_type<parameter>, ttir.name = "L__self___layers__modules__29___post_attention_layernorm_weight"} loc("p39.261"), %arg40: tensor<2560x4096xbf16> {sdy.sharding = #sdy.sharding<@mesh, [{}, {"_axis_0"}]>, ttcore.argument_type = #ttcore.argument_type<parameter>, ttir.name = "L__self___layers__modules__29___self_attn_o_proj.weight"} loc("p40.271"), %arg41: tensor<1024x2560xbf16> {sdy.sharding = #sdy.sharding<@mesh, [{"_axis_0"}, {}]>, ttcore.argument_type = #ttcore.argument_type<parameter>, ttir.name = "L__self___layers__modules__29___self_attn_v_proj.weight"} loc("p41.276"), %arg42: tensor<2560xbf16> {sdy.sharding = #sdy.sharding<@mesh, [{}]>, ttcore.argument_type = #ttcore.argument_type<parameter>, ttir.name = "L__self___layers__modules__29___input_layernorm_weight"} loc("p42.281"), %arg43: tensor<2560x9728xbf16> {sdy.sharding = #sdy.sharding<@mesh, [{}, {"_axis_0"}]>, ttcore.argument_type = #ttcore.argument_type<parameter>, ttir.name = "L__self___layers__modules__28___mlp_down_proj.weight"} loc("p43.291"), %arg44: tensor<9728x2560xbf16> {sdy.sharding = #sdy.sharding<@mesh, [{"_axis_0"}, {}]>, ttcore.argument_type = #ttcore.argument_type<parameter>, ttir.name = "L__self___layers__modules__28___mlp_up_proj.weight"} loc("p44.296"), %arg45: tensor<2560xbf16> {sdy.sharding = #sdy.sharding<@mesh, [{}]>, ttcore.argument_type = #ttcore.argument_type<parameter>, ttir.name = "L__self___layers__modules__28___post_attention_layernorm_weight"} loc("p45.301"), %arg46: tensor<2560x4096xbf16> {sdy.sharding = #sdy.sharding<@mesh, [{}, {"_axis_0"}]>, ttcore.argument_type = #ttcore.argument_type<parameter>, ttir.name = "L__self___layers__modules__28___self_attn_o_proj.weight"} loc("p46.311"), %arg47: tensor<1024x2560xbf16> {sdy.sharding = #sdy.sharding<@mesh, [{"_axis_0"}, {}]>, ttcore.argument_type = #ttcore.argument_type<parameter>, ttir.name = "L__self___layers__modules__28___self_attn_v_proj.weight"} loc("p47.316"), %arg48: tensor<2560xbf16> {sdy.sharding = #sdy.sharding<@mesh, [{}]>, ttcore.argument_type = #ttcore.argument_type<parameter>, ttir.name = "L__self___layers__modules__28___input_layernorm_weight"} loc("p48.321"), %arg49: tensor<2560x9728xbf16> {sdy.sharding = #sdy.sharding<@mesh, [{}, {"_axis_0"}]>, ttcore.argument_type = #ttcore.argument_type<parameter>, ttir.name = "L__self___layers__modules__27___mlp_down_proj.weight"} loc("p49.331"), %arg50: tensor<9728x2560xbf16> {sdy.sharding = #sdy.sharding<@mesh, [{"_axis_0"}, {}]>, ttcore.argument_type = #ttcore.argument_type<parameter>, ttir.name = "L__self___layers__modules__27___mlp_up_proj.weight"} loc("p50.336"), %arg51: tensor<2560xbf16> {sdy.sharding = #sdy.sharding<@mesh, [{}]>, ttcore.argument_type = #ttcore.argument_type<parameter>, ttir.name = "L__self___layers__modules__27___post_attention_layernorm_weight"} loc("p51.341"), %arg52: tensor<2560x4096xbf16> {sdy.sharding = #sdy.sharding<@mesh, [{}, {"_axis_0"}]>, ttcore.argument_type = #ttcore.argument_type<parameter>, ttir.name = "L__self___layers__modules__27___self_attn_o_proj.weight"} loc("p52.351"), %arg53: tensor<1024x2560xbf16> {sdy.sharding = #sdy.sharding<@mesh, [{"_axis_0"}, {}]>, ttcore.argument_type = #ttcore.argument_type<parameter>, ttir.name = "L__self___layers__modules__27___self_attn_v_proj.weight"} loc("p53.356"), %arg54: tensor<2560xbf16> {sdy.sharding = #sdy.sharding<@mesh, [{}]>, ttcore.argument_type = #ttcore.argument_type<parameter>, ttir.name = "L__self___layers__modules__27___input_layernorm_weight"} loc("p54.361"), %arg55: tensor<2560x9728xbf16> {sdy.sharding = #sdy.sharding<@mesh, [{}, {"_axis_0"}]>, ttcore.argument_type = #ttcore.argument_type<parameter>, ttir.name = "L__self___layers__modules__26___mlp_down_proj.weight"} loc("p55.371"), %arg56: tensor<9728x2560xbf16> {sdy.sharding = #sdy.sharding<@mesh, [{"_axis_0"}, {}]>, ttcore.argument_type = #ttcore.argument_type<parameter>, ttir.name = "L__self___layers__modules__26___mlp_up_proj.weight"} loc("p56.376"), %arg57: tensor<2560xbf16> {sdy.sharding = #sdy.sharding<@mesh, [{}]>, ttcore.argument_type = #ttcore.argument_type<parameter>, ttir.name = "L__self___layers__modules__26___post_attention_layernorm_weight"} loc("p57.381"), %arg58: tensor<2560x4096xbf16> {sdy.sharding = #sdy.sharding<@mesh, [{}, {"_axis_0"}]>, ttcore.argument_type = #ttcore.argument_type<parameter>, ttir.name = "L__self___layers__modules__26___self_attn_o_proj.weight"} loc("p58.391"), %arg59: tensor<1024x2560xbf16> {sdy.sharding = #sdy.sharding<@mesh, [{"_axis_0"}, {}]>, ttcore.argument_type = #ttcore.argument_type<parameter>, ttir.name = "L__self___layers__modules__26___self_attn_v_proj.weight"} loc("p59.396"), %arg60: tensor<2560xbf16> {sdy.sharding = #sdy.sharding<@mesh, [{}]>, ttcore.argument_type = #ttcore.argument_type<parameter>, ttir.name = "L__self___layers__modules__26___input_layernorm_weight"} loc("p60.401"), %arg61: tensor<2560x9728xbf16> {sdy.sharding = #sdy.sharding<@mesh, [{}, {"_axis_0"}]>, ttcore.argument_type = #ttcore.argument_type<parameter>, ttir.name = "L__self___layers__modules__25___mlp_down_proj.weight"} loc("p61.411"), %arg62: tensor<9728x2560xbf16> {sdy.sharding = #sdy.sharding<@mesh, [{"_axis_0"}, {}]>, ttcore.argument_type = #ttcore.argument_type<parameter>, ttir.name = "L__self___layers__modules__25___mlp_up_proj.weight"} loc("p62.416"), %arg63: tensor<2560xbf16> {sdy.sharding = #sdy.sharding<@mesh, [{}]>, ttcore.argument_type = #ttcore.argument_type<parameter>, ttir.name = "L__self___layers__modules__25___post_attention_layernorm_weight"} loc("p63.421"), %arg64: tensor<2560x4096xbf16> {sdy.sharding = #sdy.sharding<@mesh, [{}, {"_axis_0"}]>, ttcore.argument_type = #ttcore.argument_type<parameter>, ttir.name = "L__self___layers__modules__25___self_attn_o_proj.weight"} loc("p64.431"), %arg65: tensor<1024x2560xbf16> {sdy.sharding = #sdy.sharding<@mesh, [{"_axis_0"}, {}]>, ttcore.argument_type = #ttcore.argument_type<parameter>, ttir.name = "L__self___layers__modules__25___self_attn_v_proj.weight"} loc("p65.436"), %arg66: tensor<2560xbf16> {sdy.sharding = #sdy.sharding<@mesh, [{}]>, ttcore.argument_type = #ttcore.argument_type<parameter>, ttir.name = "L__self___layers__modules__25___input_layernorm_weight"} loc("p66.441"), %arg67: tensor<2560x9728xbf16> {sdy.sharding = #sdy.sharding<@mesh, [{}, {"_axis_0"}]>, ttcore.argument_type = #ttcore.argument_type<parameter>, ttir.name = "L__self___layers__modules__24___mlp_down_proj.weight"} loc("p67.451"), %arg68: tensor<9728x2560xbf16> {sdy.sharding = #sdy.sharding<@mesh, [{"_axis_0"}, {}]>, ttcore.argument_type = #ttcore.argument_type<parameter>, ttir.name = "L__self___layers__modules__24___mlp_up_proj.weight"} loc("p68.456"), %arg69: tensor<2560xbf16> {sdy.sharding = #sdy.sharding<@mesh, [{}]>, ttcore.argument_type = #ttcore.argument_type<parameter>, ttir.name = "L__self___layers__modules__24___post_attention_layernorm_weight"} loc("p69.461"), %arg70: tensor<2560x4096xbf16> {sdy.sharding = #sdy.sharding<@mesh, [{}, {"_axis_0"}]>, ttcore.argument_type = #ttcore.argument_type<parameter>, ttir.name = "L__self___layers__modules__24___self_attn_o_proj.weight"} loc("p70.471"), %arg71: tensor<1024x2560xbf16> {sdy.sharding = #sdy.sharding<@mesh, [{"_axis_0"}, {}]>, ttcore.argument_type = #ttcore.argument_type<parameter>, ttir.name = "L__self___layers__modules__24___self_attn_v_proj.weight"} loc("p71.476"), %arg72: tensor<2560xbf16> {sdy.sharding = #sdy.sharding<@mesh, [{}]>, ttcore.argument_type = #ttcore.argument_type<parameter>, ttir.name = "L__self___layers__modules__24___input_layernorm_weight"} loc("p72.481"), %arg73: tensor<2560x9728xbf16> {sdy.sharding = #sdy.sharding<@mesh, [{}, {"_axis_0"}]>, ttcore.argument_type = #ttcore.argument_type<parameter>, ttir.name = "L__self___layers__modules__23___mlp_down_proj.weight"} loc("p73.491"), %arg74: tensor<9728x2560xbf16> {sdy.sharding = #sdy.sharding<@mesh, [{"_axis_0"}, {}]>, ttcore.argument_type = #ttcore.argument_type<parameter>, ttir.name = "L__self___layers__modules__23___mlp_up_proj.weight"} loc("p74.496"), %arg75: tensor<2560xbf16> {sdy.sharding = #sdy.sharding<@mesh, [{}]>, ttcore.argument_type = #ttcore.argument_type<parameter>, ttir.name = "L__self___layers__modules__23___post_attention_layernorm_weight"} loc("p75.501"), %arg76: tensor<2560x4096xbf16> {sdy.sharding = #sdy.sharding<@mesh, [{}, {"_axis_0"}]>, ttcore.argument_type = #ttcore.argument_type<parameter>, ttir.name = "L__self___layers__modules__23___self_attn_o_proj.weight"} loc("p76.511"), %arg77: tensor<1024x2560xbf16> {sdy.sharding = #sdy.sharding<@mesh, [{"_axis_0"}, {}]>, ttcore.argument_type = #ttcore.argument_type<parameter>, ttir.name = "L__self___layers__modules__23___self_attn_v_proj.weight"} loc("p77.516"), %arg78: tensor<2560xbf16> {sdy.sharding = #sdy.sharding<@mesh, [{}]>, ttcore.argument_type = #ttcore.argument_type<parameter>, ttir.name = "L__self___layers__modules__23___input_layernorm_weight"} loc("p78.521"), %arg79: tensor<2560x9728xbf16> {sdy.sharding = #sdy.sharding<@mesh, [{}, {"_axis_0"}]>, ttcore.argument_type = #ttcore.argument_type<parameter>, ttir.name = "L__self___layers__modules__22___mlp_down_proj.weight"} loc("p79.531"), %arg80: tensor<9728x2560xbf16> {sdy.sharding = #sdy.sharding<@mesh, [{"_axis_0"}, {}]>, ttcore.argument_type = #ttcore.argument_type<parameter>, ttir.name = "L__self___layers__modules__22___mlp_up_proj.weight"} loc("p80.536"), %arg81: tensor<2560xbf16> {sdy.sharding = #sdy.sharding<@mesh, [{}]>, ttcore.argument_type = #ttcore.argument_type<parameter>, ttir.name = "L__self___layers__modules__22___post_attention_layernorm_weight"} loc("p81.541"), %arg82: tensor<2560x4096xbf16> {sdy.sharding = #sdy.sharding<@mesh, [{}, {"_axis_0"}]>, ttcore.argument_type = #ttcore.argument_type<parameter>, ttir.name = "L__self___layers__modules__22___self_attn_o_proj.weight"} loc("p82.551"), %arg83: tensor<1024x2560xbf16> {sdy.sharding = #sdy.sharding<@mesh, [{"_axis_0"}, {}]>, ttcore.argument_type = #ttcore.argument_type<parameter>, ttir.name = "L__self___layers__modules__22___self_attn_v_proj.weight"} loc("p83.556"), %arg84: tensor<2560xbf16> {sdy.sharding = #sdy.sharding<@mesh, [{}]>, ttcore.argument_type = #ttcore.argument_type<parameter>, ttir.name = "L__self___layers__modules__22___input_layernorm_weight"} loc("p84.561"), %arg85: tensor<2560x9728xbf16> {sdy.sharding = #sdy.sharding<@mesh, [{}, {"_axis_0"}]>, ttcore.argument_type = #ttcore.argument_type<parameter>, ttir.name = "L__self___layers__modules__21___mlp_down_proj.weight"} loc("p85.571"), %arg86: tensor<9728x2560xbf16> {sdy.sharding = #sdy.sharding<@mesh, [{"_axis_0"}, {}]>, ttcore.argument_type = #ttcore.argument_type<parameter>, ttir.name = "L__self___layers__modules__21___mlp_up_proj.weight"} loc("p86.576"), %arg87: tensor<2560xbf16> {sdy.sharding = #sdy.sharding<@mesh, [{}]>, ttcore.argument_type = #ttcore.argument_type<parameter>, ttir.name = "L__self___layers__modules__21___post_attention_layernorm_weight"} loc("p87.581"), %arg88: tensor<2560x4096xbf16> {sdy.sharding = #sdy.sharding<@mesh, [{}, {"_axis_0"}]>, ttcore.argument_type = #ttcore.argument_type<parameter>, ttir.name = "L__self___layers__modules__21___self_attn_o_proj.weight"} loc("p88.591"), %arg89: tensor<1024x2560xbf16> {sdy.sharding = #sdy.sharding<@mesh, [{"_axis_0"}, {}]>, ttcore.argument_type = #ttcore.argument_type<parameter>, ttir.name = "L__self___layers__modules__21___self_attn_v_proj.weight"} loc("p89.596"), %arg90: tensor<2560xbf16> {sdy.sharding = #sdy.sharding<@mesh, [{}]>, ttcore.argument_type = #ttcore.argument_type<parameter>, ttir.name = "L__self___layers__modules__21___input_layernorm_weight"} loc("p90.601"), %arg91: tensor<2560x9728xbf16> {sdy.sharding = #sdy.sharding<@mesh, [{}, {"_axis_0"}]>, ttcore.argument_type = #ttcore.argument_type<parameter>, ttir.name = "L__self___layers__modules__20___mlp_down_proj.weight"} loc("p91.611"), %arg92: tensor<9728x2560xbf16> {sdy.sharding = #sdy.sharding<@mesh, [{"_axis_0"}, {}]>, ttcore.argument_type = #ttcore.argument_type<parameter>, ttir.name = "L__self___layers__modules__20___mlp_up_proj.weight"} loc("p92.616"), %arg93: tensor<2560xbf16> {sdy.sharding = #sdy.sharding<@mesh, [{}]>, ttcore.argument_type = #ttcore.argument_type<parameter>, ttir.name = "L__self___layers__modules__20___post_attention_layernorm_weight"} loc("p93.621"), %arg94: tensor<2560x4096xbf16> {sdy.sharding = #sdy.sharding<@mesh, [{}, {"_axis_0"}]>, ttcore.argument_type = #ttcore.argument_type<parameter>, ttir.name = "L__self___layers__modules__20___self_attn_o_proj.weight"} loc("p94.631"), %arg95: tensor<1024x2560xbf16> {sdy.sharding = #sdy.sharding<@mesh, [{"_axis_0"}, {}]>, ttcore.argument_type = #ttcore.argument_type<parameter>, ttir.name = "L__self___layers__modules__20___self_attn_v_proj.weight"} loc("p95.636"), %arg96: tensor<2560xbf16> {sdy.sharding = #sdy.sharding<@mesh, [{}]>, ttcore.argument_type = #ttcore.argument_type<parameter>, ttir.name = "L__self___layers__modules__20___input_layernorm_weight"} loc("p96.641"), %arg97: tensor<2560x9728xbf16> {sdy.sharding = #sdy.sharding<@mesh, [{}, {"_axis_0"}]>, ttcore.argument_type = #ttcore.argument_type<parameter>, ttir.name = "L__self___layers__modules__19___mlp_down_proj.weight"} loc("p97.651"), %arg98: tensor<9728x2560xbf16> {sdy.sharding = #sdy.sharding<@mesh, [{"_axis_0"}, {}]>, ttcore.argument_type = #ttcore.argument_type<parameter>, ttir.name = "L__self___layers__modules__19___mlp_up_proj.weight"} loc("p98.656"), %arg99: tensor<2560xbf16> {sdy.sharding = #sdy.sharding<@mesh, [{}]>, ttcore.argument_type = #ttcore.argument_type<parameter>, ttir.name = "L__self___layers__modules__19___post_attention_layernorm_weight"} loc("p99.661"), %arg100: tensor<2560x4096xbf16> {sdy.sharding = #sdy.sharding<@mesh, [{}, {"_axis_0"}]>, ttcore.argument_type = #ttcore.argument_type<parameter>, ttir.name = "L__self___layers__modules__19___self_attn_o_proj.weight"} loc("p100.671"), %arg101: tensor<1024x2560xbf16> {sdy.sharding = #sdy.sharding<@mesh, [{"_axis_0"}, {}]>, ttcore.argument_type = #ttcore.argument_type<parameter>, ttir.name = "L__self___layers__modules__19___self_attn_v_proj.weight"} loc("p101.676"), %arg102: tensor<2560xbf16> {sdy.sharding = #sdy.sharding<@mesh, [{}]>, ttcore.argument_type = #ttcore.argument_type<parameter>, ttir.name = "L__self___layers__modules__19___input_layernorm_weight"} loc("p102.681"), %arg103: tensor<2560x9728xbf16> {sdy.sharding = #sdy.sharding<@mesh, [{}, {"_axis_0"}]>, ttcore.argument_type = #ttcore.argument_type<parameter>, ttir.name = "L__self___layers__modules__18___mlp_down_proj.weight"} loc("p103.691"), %arg104: tensor<9728x2560xbf16> {sdy.sharding = #sdy.sharding<@mesh, [{"_axis_0"}, {}]>, ttcore.argument_type = #ttcore.argument_type<parameter>, ttir.name = "L__self___layers__modules__18___mlp_up_proj.weight"} loc("p104.696"), %arg105: tensor<2560xbf16> {sdy.sharding = #sdy.sharding<@mesh, [{}]>, ttcore.argument_type = #ttcore.argument_type<parameter>, ttir.name = "L__self___layers__modules__18___post_attention_layernorm_weight"} loc("p105.701"), %arg106: tensor<2560x4096xbf16> {sdy.sharding = #sdy.sharding<@mesh, [{}, {"_axis_0"}]>, ttcore.argument_type = #ttcore.argument_type<parameter>, ttir.name = "L__self___layers__modules__18___self_attn_o_proj.weight"} loc("p106.711"), %arg107: tensor<1024x2560xbf16> {sdy.sharding = #sdy.sharding<@mesh, [{"_axis_0"}, {}]>, ttcore.argument_type = #ttcore.argument_type<parameter>, ttir.name = "L__self___layers__modules__18___self_attn_v_proj.weight"} loc("p107.716"), %arg108: tensor<2560xbf16> {sdy.sharding = #sdy.sharding<@mesh, [{}]>, ttcore.argument_type = #ttcore.argument_type<parameter>, ttir.name = "L__self___layers__modules__18___input_layernorm_weight"} loc("p108.721"), %arg109: tensor<2560x9728xbf16> {sdy.sharding = #sdy.sharding<@mesh, [{}, {"_axis_0"}]>, ttcore.argument_type = #ttcore.argument_type<parameter>, ttir.name = "L__self___layers__modules__17___mlp_down_proj.weight"} loc("p109.731"), %arg110: tensor<9728x2560xbf16> {sdy.sharding = #sdy.sharding<@mesh, [{"_axis_0"}, {}]>, ttcore.argument_type = #ttcore.argument_type<parameter>, ttir.name = "L__self___layers__modules__17___mlp_up_proj.weight"} loc("p110.736"), %arg111: tensor<2560xbf16> {sdy.sharding = #sdy.sharding<@mesh, [{}]>, ttcore.argument_type = #ttcore.argument_type<parameter>, ttir.name = "L__self___layers__modules__17___post_attention_layernorm_weight"} loc("p111.741"), %arg112: tensor<2560x4096xbf16> {sdy.sharding = #sdy.sharding<@mesh, [{}, {"_axis_0"}]>, ttcore.argument_type = #ttcore.argument_type<parameter>, ttir.name = "L__self___layers__modules__17___self_attn_o_proj.weight"} loc("p112.751"), %arg113: tensor<1024x2560xbf16> {sdy.sharding = #sdy.sharding<@mesh, [{"_axis_0"}, {}]>, ttcore.argument_type = #ttcore.argument_type<parameter>, ttir.name = "L__self___layers__modules__17___self_attn_v_proj.weight"} loc("p113.756"), %arg114: tensor<2560xbf16> {sdy.sharding = #sdy.sharding<@mesh, [{}]>, ttcore.argument_type = #ttcore.argument_type<parameter>, ttir.name = "L__self___layers__modules__17___input_layernorm_weight"} loc("p114.761"), %arg115: tensor<2560x9728xbf16> {sdy.sharding = #sdy.sharding<@mesh, [{}, {"_axis_0"}]>, ttcore.argument_type = #ttcore.argument_type<parameter>, ttir.name = "L__self___layers__modules__16___mlp_down_proj.weight"} loc("p115.771"), %arg116: tensor<9728x2560xbf16> {sdy.sharding = #sdy.sharding<@mesh, [{"_axis_0"}, {}]>, ttcore.argument_type = #ttcore.argument_type<parameter>, ttir.name = "L__self___layers__modules__16___mlp_up_proj.weight"} loc("p116.776"), %arg117: tensor<2560xbf16> {sdy.sharding = #sdy.sharding<@mesh, [{}]>, ttcore.argument_type = #ttcore.argument_type<parameter>, ttir.name = "L__self___layers__modules__16___post_attention_layernorm_weight"} loc("p117.781"), %arg118: tensor<2560x4096xbf16> {sdy.sharding = #sdy.sharding<@mesh, [{}, {"_axis_0"}]>, ttcore.argument_type = #ttcore.argument_type<parameter>, ttir.name = "L__self___layers__modules__16___self_attn_o_proj.weight"} loc("p118.791"), %arg119: tensor<1024x2560xbf16> {sdy.sharding = #sdy.sharding<@mesh, [{"_axis_0"}, {}]>, ttcore.argument_type = #ttcore.argument_type<parameter>, ttir.name = "L__self___layers__modules__16___self_attn_v_proj.weight"} loc("p119.796"), %arg120: tensor<2560xbf16> {sdy.sharding = #sdy.sharding<@mesh, [{}]>, ttcore.argument_type = #ttcore.argument_type<parameter>, ttir.name = "L__self___layers__modules__16___input_layernorm_weight"} loc("p120.801"), %arg121: tensor<2560x9728xbf16> {sdy.sharding = #sdy.sharding<@mesh, [{}, {"_axis_0"}]>, ttcore.argument_type = #ttcore.argument_type<parameter>, ttir.name = "L__self___layers__modules__15___mlp_down_proj.weight"} loc("p121.811"), %arg122: tensor<9728x2560xbf16> {sdy.sharding = #sdy.sharding<@mesh, [{"_axis_0"}, {}]>, ttcore.argument_type = #ttcore.argument_type<parameter>, ttir.name = "L__self___layers__modules__15___mlp_up_proj.weight"} loc("p122.816"), %arg123: tensor<2560xbf16> {sdy.sharding = #sdy.sharding<@mesh, [{}]>, ttcore.argument_type = #ttcore.argument_type<parameter>, ttir.name = "L__self___layers__modules__15___post_attention_layernorm_weight"} loc("p123.821"), %arg124: tensor<2560x4096xbf16> {sdy.sharding = #sdy.sharding<@mesh, [{}, {"_axis_0"}]>, ttcore.argument_type = #ttcore.argument_type<parameter>, ttir.name = "L__self___layers__modules__15___self_attn_o_proj.weight"} loc("p124.831"), %arg125: tensor<1024x2560xbf16> {sdy.sharding = #sdy.sharding<@mesh, [{"_axis_0"}, {}]>, ttcore.argument_type = #ttcore.argument_type<parameter>, ttir.name = "L__self___layers__modules__15___self_attn_v_proj.weight"} loc("p125.836"), %arg126: tensor<2560xbf16> {sdy.sharding = #sdy.sharding<@mesh, [{}]>, ttcore.argument_type = #ttcore.argument_type<parameter>, ttir.name = "L__self___layers__modules__15___input_layernorm_weight"} loc("p126.841"), %arg127: tensor<2560x9728xbf16> {sdy.sharding = #sdy.sharding<@mesh, [{}, {"_axis_0"}]>, ttcore.argument_type = #ttcore.argument_type<parameter>, ttir.name = "L__self___layers__modules__14___mlp_down_proj.weight"} loc("p127.851"), %arg128: tensor<9728x2560xbf16> {sdy.sharding = #sdy.sharding<@mesh, [{"_axis_0"}, {}]>, ttcore.argument_type = #ttcore.argument_type<parameter>, ttir.name = "L__self___layers__modules__14___mlp_up_proj.weight"} loc("p128.856"), %arg129: tensor<2560xbf16> {sdy.sharding = #sdy.sharding<@mesh, [{}]>, ttcore.argument_type = #ttcore.argument_type<parameter>, ttir.name = "L__self___layers__modules__14___post_attention_layernorm_weight"} loc("p129.861"), %arg130: tensor<2560x4096xbf16> {sdy.sharding = #sdy.sharding<@mesh, [{}, {"_axis_0"}]>, ttcore.argument_type = #ttcore.argument_type<parameter>, ttir.name = "L__self___layers__modules__14___self_attn_o_proj.weight"} loc("p130.871"), %arg131: tensor<1024x2560xbf16> {sdy.sharding = #sdy.sharding<@mesh, [{"_axis_0"}, {}]>, ttcore.argument_type = #ttcore.argument_type<parameter>, ttir.name = "L__self___layers__modules__14___self_attn_v_proj.weight"} loc("p131.876"), %arg132: tensor<2560xbf16> {sdy.sharding = #sdy.sharding<@mesh, [{}]>, ttcore.argument_type = #ttcore.argument_type<parameter>, ttir.name = "L__self___layers__modules__14___input_layernorm_weight"} loc("p132.881"), %arg133: tensor<2560x9728xbf16> {sdy.sharding = #sdy.sharding<@mesh, [{}, {"_axis_0"}]>, ttcore.argument_type = #ttcore.argument_type<parameter>, ttir.name = "L__self___layers__modules__13___mlp_down_proj.weight"} loc("p133.891"), %arg134: tensor<9728x2560xbf16> {sdy.sharding = #sdy.sharding<@mesh, [{"_axis_0"}, {}]>, ttcore.argument_type = #ttcore.argument_type<parameter>, ttir.name = "L__self___layers__modules__13___mlp_up_proj.weight"} loc("p134.896"), %arg135: tensor<2560xbf16> {sdy.sharding = #sdy.sharding<@mesh, [{}]>, ttcore.argument_type = #ttcore.argument_type<parameter>, ttir.name = "L__self___layers__modules__13___post_attention_layernorm_weight"} loc("p135.901"), %arg136: tensor<2560x4096xbf16> {sdy.sharding = #sdy.sharding<@mesh, [{}, {"_axis_0"}]>, ttcore.argument_type = #ttcore.argument_type<parameter>, ttir.name = "L__self___layers__modules__13___self_attn_o_proj.weight"} loc("p136.911"), %arg137: tensor<1024x2560xbf16> {sdy.sharding = #sdy.sharding<@mesh, [{"_axis_0"}, {}]>, ttcore.argument_type = #ttcore.argument_type<parameter>, ttir.name = "L__self___layers__modules__13___self_attn_v_proj.weight"} loc("p137.916"), %arg138: tensor<2560xbf16> {sdy.sharding = #sdy.sharding<@mesh, [{}]>, ttcore.argument_type = #ttcore.argument_type<parameter>, ttir.name = "L__self___layers__modules__13___input_layernorm_weight"} loc("p138.921"), %arg139: tensor<2560x9728xbf16> {sdy.sharding = #sdy.sharding<@mesh, [{}, {"_axis_0"}]>, ttcore.argument_type = #ttcore.argument_type<parameter>, ttir.name = "L__self___layers__modules__12___mlp_down_proj.weight"} loc("p139.931"), %arg140: tensor<9728x2560xbf16> {sdy.sharding = #sdy.sharding<@mesh, [{"_axis_0"}, {}]>, ttcore.argument_type = #ttcore.argument_type<parameter>, ttir.name = "L__self___layers__modules__12___mlp_up_proj.weight"} loc("p140.936"), %arg141: tensor<2560xbf16> {sdy.sharding = #sdy.sharding<@mesh, [{}]>, ttcore.argument_type = #ttcore.argument_type<parameter>, ttir.name = "L__self___layers__modules__12___post_attention_layernorm_weight"} loc("p141.941"), %arg142: tensor<2560x4096xbf16> {sdy.sharding = #sdy.sharding<@mesh, [{}, {"_axis_0"}]>, ttcore.argument_type = #ttcore.argument_type<parameter>, ttir.name = "L__self___layers__modules__12___self_attn_o_proj.weight"} loc("p142.951"), %arg143: tensor<1024x2560xbf16> {sdy.sharding = #sdy.sharding<@mesh, [{"_axis_0"}, {}]>, ttcore.argument_type = #ttcore.argument_type<parameter>, ttir.name = "L__self___layers__modules__12___self_attn_v_proj.weight"} loc("p143.956"), %arg144: tensor<2560xbf16> {sdy.sharding = #sdy.sharding<@mesh, [{}]>, ttcore.argument_type = #ttcore.argument_type<parameter>, ttir.name = "L__self___layers__modules__12___input_layernorm_weight"} loc("p144.961"), %arg145: tensor<2560x9728xbf16> {sdy.sharding = #sdy.sharding<@mesh, [{}, {"_axis_0"}]>, ttcore.argument_type = #ttcore.argument_type<parameter>, ttir.name = "L__self___layers__modules__11___mlp_down_proj.weight"} loc("p145.971"), %arg146: tensor<9728x2560xbf16> {sdy.sharding = #sdy.sharding<@mesh, [{"_axis_0"}, {}]>, ttcore.argument_type = #ttcore.argument_type<parameter>, ttir.name = "L__self___layers__modules__11___mlp_up_proj.weight"} loc("p146.976"), %arg147: tensor<2560xbf16> {sdy.sharding = #sdy.sharding<@mesh, [{}]>, ttcore.argument_type = #ttcore.argument_type<parameter>, ttir.name = "L__self___layers__modules__11___post_attention_layernorm_weight"} loc("p147.981"), %arg148: tensor<2560x4096xbf16> {sdy.sharding = #sdy.sharding<@mesh, [{}, {"_axis_0"}]>, ttcore.argument_type = #ttcore.argument_type<parameter>, ttir.name = "L__self___layers__modules__11___self_attn_o_proj.weight"} loc("p148.991"), %arg149: tensor<1024x2560xbf16> {sdy.sharding = #sdy.sharding<@mesh, [{"_axis_0"}, {}]>, ttcore.argument_type = #ttcore.argument_type<parameter>, ttir.name = "L__self___layers__modules__11___self_attn_v_proj.weight"} loc("p149.996"), %arg150: tensor<2560xbf16> {sdy.sharding = #sdy.sharding<@mesh, [{}]>, ttcore.argument_type = #ttcore.argument_type<parameter>, ttir.name = "L__self___layers__modules__11___input_layernorm_weight"} loc("p150.1001"), %arg151: tensor<2560x9728xbf16> {sdy.sharding = #sdy.sharding<@mesh, [{}, {"_axis_0"}]>, ttcore.argument_type = #ttcore.argument_type<parameter>, ttir.name = "L__self___layers__modules__10___mlp_down_proj.weight"} loc("p151.1011"), %arg152: tensor<9728x2560xbf16> {sdy.sharding = #sdy.sharding<@mesh, [{"_axis_0"}, {}]>, ttcore.argument_type = #ttcore.argument_type<parameter>, ttir.name = "L__self___layers__modules__10___mlp_up_proj.weight"} loc("p152.1016"), %arg153: tensor<2560xbf16> {sdy.sharding = #sdy.sharding<@mesh, [{}]>, ttcore.argument_type = #ttcore.argument_type<parameter>, ttir.name = "L__self___layers__modules__10___post_attention_layernorm_weight"} loc("p153.1021"), %arg154: tensor<2560x4096xbf16> {sdy.sharding = #sdy.sharding<@mesh, [{}, {"_axis_0"}]>, ttcore.argument_type = #ttcore.argument_type<parameter>, ttir.name = "L__self___layers__modules__10___self_attn_o_proj.weight"} loc("p154.1031"), %arg155: tensor<1024x2560xbf16> {sdy.sharding = #sdy.sharding<@mesh, [{"_axis_0"}, {}]>, ttcore.argument_type = #ttcore.argument_type<parameter>, ttir.name = "L__self___layers__modules__10___self_attn_v_proj.weight"} loc("p155.1036"), %arg156: tensor<2560xbf16> {sdy.sharding = #sdy.sharding<@mesh, [{}]>, ttcore.argument_type = #ttcore.argument_type<parameter>, ttir.name = "L__self___layers__modules__10___input_layernorm_weight"} loc("p156.1041"), %arg157: tensor<2560x9728xbf16> {sdy.sharding = #sdy.sharding<@mesh, [{}, {"_axis_0"}]>, ttcore.argument_type = #ttcore.argument_type<parameter>, ttir.name = "L__self___layers__modules__9___mlp_down_proj.weight"} loc("p157.1051"), %arg158: tensor<9728x2560xbf16> {sdy.sharding = #sdy.sharding<@mesh, [{"_axis_0"}, {}]>, ttcore.argument_type = #ttcore.argument_type<parameter>, ttir.name = "L__self___layers__modules__9___mlp_up_proj.weight"} loc("p158.1056"), %arg159: tensor<2560xbf16> {sdy.sharding = #sdy.sharding<@mesh, [{}]>, ttcore.argument_type = #ttcore.argument_type<parameter>, ttir.name = "L__self___layers__modules__9___post_attention_layernorm_weight"} loc("p159.1061"), %arg160: tensor<2560x4096xbf16> {sdy.sharding = #sdy.sharding<@mesh, [{}, {"_axis_0"}]>, ttcore.argument_type = #ttcore.argument_type<parameter>, ttir.name = "L__self___layers__modules__9___self_attn_o_proj.weight"} loc("p160.1071"), %arg161: tensor<1024x2560xbf16> {sdy.sharding = #sdy.sharding<@mesh, [{"_axis_0"}, {}]>, ttcore.argument_type = #ttcore.argument_type<parameter>, ttir.name = "L__self___layers__modules__9___self_attn_v_proj.weight"} loc("p161.1076"), %arg162: tensor<2560xbf16> {sdy.sharding = #sdy.sharding<@mesh, [{}]>, ttcore.argument_type = #ttcore.argument_type<parameter>, ttir.name = "L__self___layers__modules__9___input_layernorm_weight"} loc("p162.1081"), %arg163: tensor<2560x9728xbf16> {sdy.sharding = #sdy.sharding<@mesh, [{}, {"_axis_0"}]>, ttcore.argument_type = #ttcore.argument_type<parameter>, ttir.name = "L__self___layers__modules__8___mlp_down_proj.weight"} loc("p163.1091"), %arg164: tensor<9728x2560xbf16> {sdy.sharding = #sdy.sharding<@mesh, [{"_axis_0"}, {}]>, ttcore.argument_type = #ttcore.argument_type<parameter>, ttir.name = "L__self___layers__modules__8___mlp_up_proj.weight"} loc("p164.1096"), %arg165: tensor<2560xbf16> {sdy.sharding = #sdy.sharding<@mesh, [{}]>, ttcore.argument_type = #ttcore.argument_type<parameter>, ttir.name = "L__self___layers__modules__8___post_attention_layernorm_weight"} loc("p165.1101"), %arg166: tensor<2560x4096xbf16> {sdy.sharding = #sdy.sharding<@mesh, [{}, {"_axis_0"}]>, ttcore.argument_type = #ttcore.argument_type<parameter>, ttir.name = "L__self___layers__modules__8___self_attn_o_proj.weight"} loc("p166.1111"), %arg167: tensor<1024x2560xbf16> {sdy.sharding = #sdy.sharding<@mesh, [{"_axis_0"}, {}]>, ttcore.argument_type = #ttcore.argument_type<parameter>, ttir.name = "L__self___layers__modules__8___self_attn_v_proj.weight"} loc("p167.1116"), %arg168: tensor<2560xbf16> {sdy.sharding = #sdy.sharding<@mesh, [{}]>, ttcore.argument_type = #ttcore.argument_type<parameter>, ttir.name = "L__self___layers__modules__8___input_layernorm_weight"} loc("p168.1121"), %arg169: tensor<2560x9728xbf16> {sdy.sharding = #sdy.sharding<@mesh, [{}, {"_axis_0"}]>, ttcore.argument_type = #ttcore.argument_type<parameter>, ttir.name = "L__self___layers__modules__7___mlp_down_proj.weight"} loc("p169.1131"), %arg170: tensor<9728x2560xbf16> {sdy.sharding = #sdy.sharding<@mesh, [{"_axis_0"}, {}]>, ttcore.argument_type = #ttcore.argument_type<parameter>, ttir.name = "L__self___layers__modules__7___mlp_up_proj.weight"} loc("p170.1136"), %arg171: tensor<2560xbf16> {sdy.sharding = #sdy.sharding<@mesh, [{}]>, ttcore.argument_type = #ttcore.argument_type<parameter>, ttir.name = "L__self___layers__modules__7___post_attention_layernorm_weight"} loc("p171.1141"), %arg172: tensor<2560x4096xbf16> {sdy.sharding = #sdy.sharding<@mesh, [{}, {"_axis_0"}]>, ttcore.argument_type = #ttcore.argument_type<parameter>, ttir.name = "L__self___layers__modules__7___self_attn_o_proj.weight"} loc("p172.1151"), %arg173: tensor<1024x2560xbf16> {sdy.sharding = #sdy.sharding<@mesh, [{"_axis_0"}, {}]>, ttcore.argument_type = #ttcore.argument_type<parameter>, ttir.name = "L__self___layers__modules__7___self_attn_v_proj.weight"} loc("p173.1156"), %arg174: tensor<2560xbf16> {sdy.sharding = #sdy.sharding<@mesh, [{}]>, ttcore.argument_type = #ttcore.argument_type<parameter>, ttir.name = "L__self___layers__modules__7___input_layernorm_weight"} loc("p174.1161"), %arg175: tensor<2560x9728xbf16> {sdy.sharding = #sdy.sharding<@mesh, [{}, {"_axis_0"}]>, ttcore.argument_type = #ttcore.argument_type<parameter>, ttir.name = "L__self___layers__modules__6___mlp_down_proj.weight"} loc("p175.1171"), %arg176: tensor<9728x2560xbf16> {sdy.sharding = #sdy.sharding<@mesh, [{"_axis_0"}, {}]>, ttcore.argument_type = #ttcore.argument_type<parameter>, ttir.name = "L__self___layers__modules__6___mlp_up_proj.weight"} loc("p176.1176"), %arg177: tensor<2560xbf16> {sdy.sharding = #sdy.sharding<@mesh, [{}]>, ttcore.argument_type = #ttcore.argument_type<parameter>, ttir.name = "L__self___layers__modules__6___post_attention_layernorm_weight"} loc("p177.1181"), %arg178: tensor<2560x4096xbf16> {sdy.sharding = #sdy.sharding<@mesh, [{}, {"_axis_0"}]>, ttcore.argument_type = #ttcore.argument_type<parameter>, ttir.name = "L__self___layers__modules__6___self_attn_o_proj.weight"} loc("p178.1191"), %arg179: tensor<1024x2560xbf16> {sdy.sharding = #sdy.sharding<@mesh, [{"_axis_0"}, {}]>, ttcore.argument_type = #ttcore.argument_type<parameter>, ttir.name = "L__self___layers__modules__6___self_attn_v_proj.weight"} loc("p179.1196"), %arg180: tensor<2560xbf16> {sdy.sharding = #sdy.sharding<@mesh, [{}]>, ttcore.argument_type = #ttcore.argument_type<parameter>, ttir.name = "L__self___layers__modules__6___input_layernorm_weight"} loc("p180.1201"), %arg181: tensor<2560x9728xbf16> {sdy.sharding = #sdy.sharding<@mesh, [{}, {"_axis_0"}]>, ttcore.argument_type = #ttcore.argument_type<parameter>, ttir.name = "L__self___layers__modules__5___mlp_down_proj.weight"} loc("p181.1211"), %arg182: tensor<9728x2560xbf16> {sdy.sharding = #sdy.sharding<@mesh, [{"_axis_0"}, {}]>, ttcore.argument_type = #ttcore.argument_type<parameter>, ttir.name = "L__self___layers__modules__5___mlp_up_proj.weight"} loc("p182.1216"), %arg183: tensor<2560xbf16> {sdy.sharding = #sdy.sharding<@mesh, [{}]>, ttcore.argument_type = #ttcore.argument_type<parameter>, ttir.name = "L__self___layers__modules__5___post_attention_layernorm_weight"} loc("p183.1221"), %arg184: tensor<2560x4096xbf16> {sdy.sharding = #sdy.sharding<@mesh, [{}, {"_axis_0"}]>, ttcore.argument_type = #ttcore.argument_type<parameter>, ttir.name = "L__self___layers__modules__5___self_attn_o_proj.weight"} loc("p184.1231"), %arg185: tensor<1024x2560xbf16> {sdy.sharding = #sdy.sharding<@mesh, [{"_axis_0"}, {}]>, ttcore.argument_type = #ttcore.argument_type<parameter>, ttir.name = "L__self___layers__modules__5___self_attn_v_proj.weight"} loc("p185.1236"), %arg186: tensor<2560xbf16> {sdy.sharding = #sdy.sharding<@mesh, [{}]>, ttcore.argument_type = #ttcore.argument_type<parameter>, ttir.name = "L__self___layers__modules__5___input_layernorm_weight"} loc("p186.1241"), %arg187: tensor<2560x9728xbf16> {sdy.sharding = #sdy.sharding<@mesh, [{}, {"_axis_0"}]>, ttcore.argument_type = #ttcore.argument_type<parameter>, ttir.name = "L__self___layers__modules__4___mlp_down_proj.weight"} loc("p187.1251"), %arg188: tensor<9728x2560xbf16> {sdy.sharding = #sdy.sharding<@mesh, [{"_axis_0"}, {}]>, ttcore.argument_type = #ttcore.argument_type<parameter>, ttir.name = "L__self___layers__modules__4___mlp_up_proj.weight"} loc("p188.1256"), %arg189: tensor<2560xbf16> {sdy.sharding = #sdy.sharding<@mesh, [{}]>, ttcore.argument_type = #ttcore.argument_type<parameter>, ttir.name = "L__self___layers__modules__4___post_attention_layernorm_weight"} loc("p189.1261"), %arg190: tensor<2560x4096xbf16> {sdy.sharding = #sdy.sharding<@mesh, [{}, {"_axis_0"}]>, ttcore.argument_type = #ttcore.argument_type<parameter>, ttir.name = "L__self___layers__modules__4___self_attn_o_proj.weight"} loc("p190.1271"), %arg191: tensor<1024x2560xbf16> {sdy.sharding = #sdy.sharding<@mesh, [{"_axis_0"}, {}]>, ttcore.argument_type = #ttcore.argument_type<parameter>, ttir.name = "L__self___layers__modules__4___self_attn_v_proj.weight"} loc("p191.1276"), %arg192: tensor<2560xbf16> {sdy.sharding = #sdy.sharding<@mesh, [{}]>, ttcore.argument_type = #ttcore.argument_type<parameter>, ttir.name = "L__self___layers__modules__4___input_layernorm_weight"} loc("p192.1281"), %arg193: tensor<2560x9728xbf16> {sdy.sharding = #sdy.sharding<@mesh, [{}, {"_axis_0"}]>, ttcore.argument_type = #ttcore.argument_type<parameter>, ttir.name = "L__self___layers__modules__3___mlp_down_proj.weight"} loc("p193.1291"), %arg194: tensor<9728x2560xbf16> {sdy.sharding = #sdy.sharding<@mesh, [{"_axis_0"}, {}]>, ttcore.argument_type = #ttcore.argument_type<parameter>, ttir.name = "L__self___layers__modules__3___mlp_up_proj.weight"} loc("p194.1296"), %arg195: tensor<2560xbf16> {sdy.sharding = #sdy.sharding<@mesh, [{}]>, ttcore.argument_type = #ttcore.argument_type<parameter>, ttir.name = "L__self___layers__modules__3___post_attention_layernorm_weight"} loc("p195.1301"), %arg196: tensor<2560x4096xbf16> {sdy.sharding = #sdy.sharding<@mesh, [{}, {"_axis_0"}]>, ttcore.argument_type = #ttcore.argument_type<parameter>, ttir.name = "L__self___layers__modules__3___self_attn_o_proj.weight"} loc("p196.1311"), %arg197: tensor<1024x2560xbf16> {sdy.sharding = #sdy.sharding<@mesh, [{"_axis_0"}, {}]>, ttcore.argument_type = #ttcore.argument_type<parameter>, ttir.name = "L__self___layers__modules__3___self_attn_v_proj.weight"} loc("p197.1316"), %arg198: tensor<2560xbf16> {sdy.sharding = #sdy.sharding<@mesh, [{}]>, ttcore.argument_type = #ttcore.argument_type<parameter>, ttir.name = "L__self___layers__modules__3___input_layernorm_weight"} loc("p198.1321"), %arg199: tensor<2560x9728xbf16> {sdy.sharding = #sdy.sharding<@mesh, [{}, {"_axis_0"}]>, ttcore.argument_type = #ttcore.argument_type<parameter>, ttir.name = "L__self___layers__modules__2___mlp_down_proj.weight"} loc("p199.1331"), %arg200: tensor<9728x2560xbf16> {sdy.sharding = #sdy.sharding<@mesh, [{"_axis_0"}, {}]>, ttcore.argument_type = #ttcore.argument_type<parameter>, ttir.name = "L__self___layers__modules__2___mlp_up_proj.weight"} loc("p200.1336"), %arg201: tensor<2560xbf16> {sdy.sharding = #sdy.sharding<@mesh, [{}]>, ttcore.argument_type = #ttcore.argument_type<parameter>, ttir.name = "L__self___layers__modules__2___post_attention_layernorm_weight"} loc("p201.1341"), %arg202: tensor<2560x4096xbf16> {sdy.sharding = #sdy.sharding<@mesh, [{}, {"_axis_0"}]>, ttcore.argument_type = #ttcore.argument_type<parameter>, ttir.name = "L__self___layers__modules__2___self_attn_o_proj.weight"} loc("p202.1351"), %arg203: tensor<1024x2560xbf16> {sdy.sharding = #sdy.sharding<@mesh, [{"_axis_0"}, {}]>, ttcore.argument_type = #ttcore.argument_type<parameter>, ttir.name = "L__self___layers__modules__2___self_attn_v_proj.weight"} loc("p203.1356"), %arg204: tensor<2560xbf16> {sdy.sharding = #sdy.sharding<@mesh, [{}]>, ttcore.argument_type = #ttcore.argument_type<parameter>, ttir.name = "L__self___layers__modules__2___input_layernorm_weight"} loc("p204.1361"), %arg205: tensor<2560x9728xbf16> {sdy.sharding = #sdy.sharding<@mesh, [{}, {"_axis_0"}]>, ttcore.argument_type = #ttcore.argument_type<parameter>, ttir.name = "L__self___layers__modules__1___mlp_down_proj.weight"} loc("p205.1371"), %arg206: tensor<9728x2560xbf16> {sdy.sharding = #sdy.sharding<@mesh, [{"_axis_0"}, {}]>, ttcore.argument_type = #ttcore.argument_type<parameter>, ttir.name = "L__self___layers__modules__1___mlp_up_proj.weight"} loc("p206.1376"), %arg207: tensor<2560xbf16> {sdy.sharding = #sdy.sharding<@mesh, [{}]>, ttcore.argument_type = #ttcore.argument_type<parameter>, ttir.name = "L__self___layers__modules__1___post_attention_layernorm_weight"} loc("p207.1381"), %arg208: tensor<2560x4096xbf16> {sdy.sharding = #sdy.sharding<@mesh, [{}, {"_axis_0"}]>, ttcore.argument_type = #ttcore.argument_type<parameter>, ttir.name = "L__self___layers__modules__1___self_attn_o_proj.weight"} loc("p208.1391"), %arg209: tensor<1024x2560xbf16> {sdy.sharding = #sdy.sharding<@mesh, [{"_axis_0"}, {}]>, ttcore.argument_type = #ttcore.argument_type<parameter>, ttir.name = "L__self___layers__modules__1___self_attn_v_proj.weight"} loc("p209.1396"), %arg210: tensor<2560xbf16> {sdy.sharding = #sdy.sharding<@mesh, [{}]>, ttcore.argument_type = #ttcore.argument_type<parameter>, ttir.name = "L__self___layers__modules__1___input_layernorm_weight"} loc("p210.1401"), %arg211: tensor<2560x9728xbf16> {sdy.sharding = #sdy.sharding<@mesh, [{}, {"_axis_0"}]>, ttcore.argument_type = #ttcore.argument_type<parameter>, ttir.name = "L__self___layers__modules__0___mlp_down_proj.weight"} loc("p211.1411"), %arg212: tensor<9728x2560xbf16> {sdy.sharding = #sdy.sharding<@mesh, [{"_axis_0"}, {}]>, ttcore.argument_type = #ttcore.argument_type<parameter>, ttir.name = "L__self___layers__modules__0___mlp_up_proj.weight"} loc("p212.1416"), %arg213: tensor<2560xbf16> {sdy.sharding = #sdy.sharding<@mesh, [{}]>, ttcore.argument_type = #ttcore.argument_type<parameter>, ttir.name = "L__self___layers__modules__0___post_attention_layernorm_weight"} loc("p213.1421"), %arg214: tensor<2560x4096xbf16> {sdy.sharding = #sdy.sharding<@mesh, [{}, {"_axis_0"}]>, ttcore.argument_type = #ttcore.argument_type<parameter>, ttir.name = "L__self___layers__modules__0___self_attn_o_proj.weight"} loc("p214.1431"), %arg215: tensor<1024x2560xbf16> {sdy.sharding = #sdy.sharding<@mesh, [{"_axis_0"}, {}]>, ttcore.argument_type = #ttcore.argument_type<parameter>, ttir.name = "L__self___layers__modules__0___self_attn_v_proj.weight"} loc("p215.1436"), %arg216: tensor<2560xbf16> {sdy.sharding = #sdy.sharding<@mesh, [{}]>, ttcore.argument_type = #ttcore.argument_type<parameter>, ttir.name = "L__self___layers__modules__0___input_layernorm_weight"} loc("p216.1441"), %arg217: tensor<1x7xi64> {sdy.sharding = #sdy.sharding<@mesh, [{}, {}]>, ttcore.argument_type = #ttcore.argument_type<input>, ttir.name = "args_0"} loc("p217.1450"), %arg218: tensor<151936x2560xbf16> {sdy.sharding = #sdy.sharding<@mesh, [{}, {}]>, ttcore.argument_type = #ttcore.argument_type<parameter>, ttir.name = "embed_tokens.weight"} loc("p218.1455"), %arg219: tensor<i1> {sdy.sharding = #sdy.sharding<@mesh, []>, ttcore.argument_type = #ttcore.argument_type<input>} loc("p219.1625"), %arg220: tensor<64xf32> {sdy.sharding = #sdy.sharding<@mesh, [{}]>, ttcore.argument_type = #ttcore.argument_type<constant>, ttir.name = "rotary_emb.inv_freq"} loc("p220.1644"), %arg221: tensor<128xbf16> {sdy.sharding = #sdy.sharding<@mesh, [{}]>, ttcore.argument_type = #ttcore.argument_type<parameter>, ttir.name = "L__self___layers__modules__0___self_attn_k_norm_weight"} loc("p221.1660"), %arg222: tensor<1024x2560xbf16> {sdy.sharding = #sdy.sharding<@mesh, [{"_axis_0"}, {}]>, ttcore.argument_type = #ttcore.argument_type<parameter>, ttir.name = "L__self___layers__modules__0___self_attn_k_proj.weight"} loc("p222.1669"), %arg223: tensor<128xbf16> {sdy.sharding = #sdy.sharding<@mesh, [{}]>, ttcore.argument_type = #ttcore.argument_type<parameter>, ttir.name = "L__self___layers__modules__0___self_attn_q_norm_weight"} loc("p223.1742"), %arg224: tensor<4096x2560xbf16> {sdy.sharding = #sdy.sharding<@mesh, [{"_axis_0"}, {}]>, ttcore.argument_type = #ttcore.argument_type<parameter>, ttir.name = "L__self___layers__modules__0___self_attn_q_proj.weight"} loc("p224.1751"), %arg225: tensor<9728x2560xbf16> {sdy.sharding = #sdy.sharding<@mesh, [{"_axis_0"}, {}]>, ttcore.argument_type = #ttcore.argument_type<parameter>, ttir.name = "L__self___layers__modules__0___mlp_gate_proj.weight"} loc("p225.1917"), %arg226: tensor<128xbf16> {sdy.sharding = #sdy.sharding<@mesh, [{}]>, ttcore.argument_type = #ttcore.argument_type<parameter>, ttir.name = "L__self___layers__modules__1___self_attn_k_norm_weight"} loc("p226.1998"), %arg227: tensor<1024x2560xbf16> {sdy.sharding = #sdy.sharding<@mesh, [{"_axis_0"}, {}]>, ttcore.argument_type = #ttcore.argument_type<parameter>, ttir.name = "L__self___layers__modules__1___self_attn_k_proj.weight"} loc("p227.2007"), %arg228: tensor<128xbf16> {sdy.sharding = #sdy.sharding<@mesh, [{}]>, ttcore.argument_type = #ttcore.argument_type<parameter>, ttir.name = "L__self___layers__modules__1___self_attn_q_norm_weight"} loc("p228.2075"), %arg229: tensor<4096x2560xbf16> {sdy.sharding = #sdy.sharding<@mesh, [{"_axis_0"}, {}]>, ttcore.argument_type = #ttcore.argument_type<parameter>, ttir.name = "L__self___layers__modules__1___self_attn_q_proj.weight"} loc("p229.2084"), %arg230: tensor<9728x2560xbf16> {sdy.sharding = #sdy.sharding<@mesh, [{"_axis_0"}, {}]>, ttcore.argument_type = #ttcore.argument_type<parameter>, ttir.name = "L__self___layers__modules__1___mlp_gate_proj.weight"} loc("p230.2250"), %arg231: tensor<128xbf16> {sdy.sharding = #sdy.sharding<@mesh, [{}]>, ttcore.argument_type = #ttcore.argument_type<parameter>, ttir.name = "L__self___layers__modules__2___self_attn_k_norm_weight"} loc("p231.2331"), %arg232: tensor<1024x2560xbf16> {sdy.sharding = #sdy.sharding<@mesh, [{"_axis_0"}, {}]>, ttcore.argument_type = #ttcore.argument_type<parameter>, ttir.name = "L__self___layers__modules__2___self_attn_k_proj.weight"} loc("p232.2340"), %arg233: tensor<128xbf16> {sdy.sharding = #sdy.sharding<@mesh, [{}]>, ttcore.argument_type = #ttcore.argument_type<parameter>, ttir.name = "L__self___layers__modules__2___self_attn_q_norm_weight"} loc("p233.2408"), %arg234: tensor<4096x2560xbf16> {sdy.sharding = #sdy.sharding<@mesh, [{"_axis_0"}, {}]>, ttcore.argument_type = #ttcore.argument_type<parameter>, ttir.name = "L__self___layers__modules__2___self_attn_q_proj.weight"} loc("p234.2417"), %arg235: tensor<9728x2560xbf16> {sdy.sharding = #sdy.sharding<@mesh, [{"_axis_0"}, {}]>, ttcore.argument_type = #ttcore.argument_type<parameter>, ttir.name = "L__self___layers__modules__2___mlp_gate_proj.weight"} loc("p235.2583"), %arg236: tensor<128xbf16> {sdy.sharding = #sdy.sharding<@mesh, [{}]>, ttcore.argument_type = #ttcore.argument_type<parameter>, ttir.name = "L__self___layers__modules__3___self_attn_k_norm_weight"} loc("p236.2664"), %arg237: tensor<1024x2560xbf16> {sdy.sharding = #sdy.sharding<@mesh, [{"_axis_0"}, {}]>, ttcore.argument_type = #ttcore.argument_type<parameter>, ttir.name = "L__self___layers__modules__3___self_attn_k_proj.weight"} loc("p237.2673"), %arg238: tensor<128xbf16> {sdy.sharding = #sdy.sharding<@mesh, [{}]>, ttcore.argument_type = #ttcore.argument_type<parameter>, ttir.name = "L__self___layers__modules__3___self_attn_q_norm_weight"} loc("p238.2741"), %arg239: tensor<4096x2560xbf16> {sdy.sharding = #sdy.sharding<@mesh, [{"_axis_0"}, {}]>, ttcore.argument_type = #ttcore.argument_type<parameter>, ttir.name = "L__self___layers__modules__3___self_attn_q_proj.weight"} loc("p239.2750"), %arg240: tensor<9728x2560xbf16> {sdy.sharding = #sdy.sharding<@mesh, [{"_axis_0"}, {}]>, ttcore.argument_type = #ttcore.argument_type<parameter>, ttir.name = "L__self___layers__modules__3___mlp_gate_proj.weight"} loc("p240.2916"), %arg241: tensor<128xbf16> {sdy.sharding = #sdy.sharding<@mesh, [{}]>, ttcore.argument_type = #ttcore.argument_type<parameter>, ttir.name = "L__self___layers__modules__4___self_attn_k_norm_weight"} loc("p241.2997"), %arg242: tensor<1024x2560xbf16> {sdy.sharding = #sdy.sharding<@mesh, [{"_axis_0"}, {}]>, ttcore.argument_type = #ttcore.argument_type<parameter>, ttir.name = "L__self___layers__modules__4___self_attn_k_proj.weight"} loc("p242.3006"), %arg243: tensor<128xbf16> {sdy.sharding = #sdy.sharding<@mesh, [{}]>, ttcore.argument_type = #ttcore.argument_type<parameter>, ttir.name = "L__self___layers__modules__4___self_attn_q_norm_weight"} loc("p243.3074"), %arg244: tensor<4096x2560xbf16> {sdy.sharding = #sdy.sharding<@mesh, [{"_axis_0"}, {}]>, ttcore.argument_type = #ttcore.argument_type<parameter>, ttir.name = "L__self___layers__modules__4___self_attn_q_proj.weight"} loc("p244.3083"), %arg245: tensor<9728x2560xbf16> {sdy.sharding = #sdy.sharding<@mesh, [{"_axis_0"}, {}]>, ttcore.argument_type = #ttcore.argument_type<parameter>, ttir.name = "L__self___layers__modules__4___mlp_gate_proj.weight"} loc("p245.3249"), %arg246: tensor<128xbf16> {sdy.sharding = #sdy.sharding<@mesh, [{}]>, ttcore.argument_type = #ttcore.argument_type<parameter>, ttir.name = "L__self___layers__modules__5___self_attn_k_norm_weight"} loc("p246.3330"), %arg247: tensor<1024x2560xbf16> {sdy.sharding = #sdy.sharding<@mesh, [{"_axis_0"}, {}]>, ttcore.argument_type = #ttcore.argument_type<parameter>, ttir.name = "L__self___layers__modules__5___self_attn_k_proj.weight"} loc("p247.3339"), %arg248: tensor<128xbf16> {sdy.sharding = #sdy.sharding<@mesh, [{}]>, ttcore.argument_type = #ttcore.argument_type<parameter>, ttir.name = "L__self___layers__modules__5___self_attn_q_norm_weight"} loc("p248.3407"), %arg249: tensor<4096x2560xbf16> {sdy.sharding = #sdy.sharding<@mesh, [{"_axis_0"}, {}]>, ttcore.argument_type = #ttcore.argument_type<parameter>, ttir.name = "L__self___layers__modules__5___self_attn_q_proj.weight"} loc("p249.3416"), %arg250: tensor<9728x2560xbf16> {sdy.sharding = #sdy.sharding<@mesh, [{"_axis_0"}, {}]>, ttcore.argument_type = #ttcore.argument_type<parameter>, ttir.name = "L__self___layers__modules__5___mlp_gate_proj.weight"} loc("p250.3582"), %arg251: tensor<128xbf16> {sdy.sharding = #sdy.sharding<@mesh, [{}]>, ttcore.argument_type = #ttcore.argument_type<parameter>, ttir.name = "L__self___layers__modules__6___self_attn_k_norm_weight"} loc("p251.3663"), %arg252: tensor<1024x2560xbf16> {sdy.sharding = #sdy.sharding<@mesh, [{"_axis_0"}, {}]>, ttcore.argument_type = #ttcore.argument_type<parameter>, ttir.name = "L__self___layers__modules__6___self_attn_k_proj.weight"} loc("p252.3672"), %arg253: tensor<128xbf16> {sdy.sharding = #sdy.sharding<@mesh, [{}]>, ttcore.argument_type = #ttcore.argument_type<parameter>, ttir.name = "L__self___layers__modules__6___self_attn_q_norm_weight"} loc("p253.3740"), %arg254: tensor<4096x2560xbf16> {sdy.sharding = #sdy.sharding<@mesh, [{"_axis_0"}, {}]>, ttcore.argument_type = #ttcore.argument_type<parameter>, ttir.name = "L__self___layers__modules__6___self_attn_q_proj.weight"} loc("p254.3749"), %arg255: tensor<9728x2560xbf16> {sdy.sharding = #sdy.sharding<@mesh, [{"_axis_0"}, {}]>, ttcore.argument_type = #ttcore.argument_type<parameter>, ttir.name = "L__self___layers__modules__6___mlp_gate_proj.weight"} loc("p255.3915"), %arg256: tensor<128xbf16> {sdy.sharding = #sdy.sharding<@mesh, [{}]>, ttcore.argument_type = #ttcore.argument_type<parameter>, ttir.name = "L__self___layers__modules__7___self_attn_k_norm_weight"} loc("p256.3996"), %arg257: tensor<1024x2560xbf16> {sdy.sharding = #sdy.sharding<@mesh, [{"_axis_0"}, {}]>, ttcore.argument_type = #ttcore.argument_type<parameter>, ttir.name = "L__self___layers__modules__7___self_attn_k_proj.weight"} loc("p257.4005"), %arg258: tensor<128xbf16> {sdy.sharding = #sdy.sharding<@mesh, [{}]>, ttcore.argument_type = #ttcore.argument_type<parameter>, ttir.name = "L__self___layers__modules__7___self_attn_q_norm_weight"} loc("p258.4073"), %arg259: tensor<4096x2560xbf16> {sdy.sharding = #sdy.sharding<@mesh, [{"_axis_0"}, {}]>, ttcore.argument_type = #ttcore.argument_type<parameter>, ttir.name = "L__self___layers__modules__7___self_attn_q_proj.weight"} loc("p259.4082"), %arg260: tensor<9728x2560xbf16> {sdy.sharding = #sdy.sharding<@mesh, [{"_axis_0"}, {}]>, ttcore.argument_type = #ttcore.argument_type<parameter>, ttir.name = "L__self___layers__modules__7___mlp_gate_proj.weight"} loc("p260.4248"), %arg261: tensor<128xbf16> {sdy.sharding = #sdy.sharding<@mesh, [{}]>, ttcore.argument_type = #ttcore.argument_type<parameter>, ttir.name = "L__self___layers__modules__8___self_attn_k_norm_weight"} loc("p261.4329"), %arg262: tensor<1024x2560xbf16> {sdy.sharding = #sdy.sharding<@mesh, [{"_axis_0"}, {}]>, ttcore.argument_type = #ttcore.argument_type<parameter>, ttir.name = "L__self___layers__modules__8___self_attn_k_proj.weight"} loc("p262.4338"), %arg263: tensor<128xbf16> {sdy.sharding = #sdy.sharding<@mesh, [{}]>, ttcore.argument_type = #ttcore.argument_type<parameter>, ttir.name = "L__self___layers__modules__8___self_attn_q_norm_weight"} loc("p263.4406"), %arg264: tensor<4096x2560xbf16> {sdy.sharding = #sdy.sharding<@mesh, [{"_axis_0"}, {}]>, ttcore.argument_type = #ttcore.argument_type<parameter>, ttir.name = "L__self___layers__modules__8___self_attn_q_proj.weight"} loc("p264.4415"), %arg265: tensor<9728x2560xbf16> {sdy.sharding = #sdy.sharding<@mesh, [{"_axis_0"}, {}]>, ttcore.argument_type = #ttcore.argument_type<parameter>, ttir.name = "L__self___layers__modules__8___mlp_gate_proj.weight"} loc("p265.4581"), %arg266: tensor<128xbf16> {sdy.sharding = #sdy.sharding<@mesh, [{}]>, ttcore.argument_type = #ttcore.argument_type<parameter>, ttir.name = "L__self___layers__modules__9___self_attn_k_norm_weight"} loc("p266.4662"), %arg267: tensor<1024x2560xbf16> {sdy.sharding = #sdy.sharding<@mesh, [{"_axis_0"}, {}]>, ttcore.argument_type = #ttcore.argument_type<parameter>, ttir.name = "L__self___layers__modules__9___self_attn_k_proj.weight"} loc("p267.4671"), %arg268: tensor<128xbf16> {sdy.sharding = #sdy.sharding<@mesh, [{}]>, ttcore.argument_type = #ttcore.argument_type<parameter>, ttir.name = "L__self___layers__modules__9___self_attn_q_norm_weight"} loc("p268.4739"), %arg269: tensor<4096x2560xbf16> {sdy.sharding = #sdy.sharding<@mesh, [{"_axis_0"}, {}]>, ttcore.argument_type = #ttcore.argument_type<parameter>, ttir.name = "L__self___layers__modules__9___self_attn_q_proj.weight"} loc("p269.4748"), %arg270: tensor<9728x2560xbf16> {sdy.sharding = #sdy.sharding<@mesh, [{"_axis_0"}, {}]>, ttcore.argument_type = #ttcore.argument_type<parameter>, ttir.name = "L__self___layers__modules__9___mlp_gate_proj.weight"} loc("p270.4914"), %arg271: tensor<128xbf16> {sdy.sharding = #sdy.sharding<@mesh, [{}]>, ttcore.argument_type = #ttcore.argument_type<parameter>, ttir.name = "L__self___layers__modules__10___self_attn_k_norm_weight"} loc("p271.4995"), %arg272: tensor<1024x2560xbf16> {sdy.sharding = #sdy.sharding<@mesh, [{"_axis_0"}, {}]>, ttcore.argument_type = #ttcore.argument_type<parameter>, ttir.name = "L__self___layers__modules__10___self_attn_k_proj.weight"} loc("p272.5004"), %arg273: tensor<128xbf16> {sdy.sharding = #sdy.sharding<@mesh, [{}]>, ttcore.argument_type = #ttcore.argument_type<parameter>, ttir.name = "L__self___layers__modules__10___self_attn_q_norm_weight"} loc("p273.5072"), %arg274: tensor<4096x2560xbf16> {sdy.sharding = #sdy.sharding<@mesh, [{"_axis_0"}, {}]>, ttcore.argument_type = #ttcore.argument_type<parameter>, ttir.name = "L__self___layers__modules__10___self_attn_q_proj.weight"} loc("p274.5081"), %arg275: tensor<9728x2560xbf16> {sdy.sharding = #sdy.sharding<@mesh, [{"_axis_0"}, {}]>, ttcore.argument_type = #ttcore.argument_type<parameter>, ttir.name = "L__self___layers__modules__10___mlp_gate_proj.weight"} loc("p275.5247"), %arg276: tensor<128xbf16> {sdy.sharding = #sdy.sharding<@mesh, [{}]>, ttcore.argument_type = #ttcore.argument_type<parameter>, ttir.name = "L__self___layers__modules__11___self_attn_k_norm_weight"} loc("p276.5328"), %arg277: tensor<1024x2560xbf16> {sdy.sharding = #sdy.sharding<@mesh, [{"_axis_0"}, {}]>, ttcore.argument_type = #ttcore.argument_type<parameter>, ttir.name = "L__self___layers__modules__11___self_attn_k_proj.weight"} loc("p277.5337"), %arg278: tensor<128xbf16> {sdy.sharding = #sdy.sharding<@mesh, [{}]>, ttcore.argument_type = #ttcore.argument_type<parameter>, ttir.name = "L__self___layers__modules__11___self_attn_q_norm_weight"} loc("p278.5405"), %arg279: tensor<4096x2560xbf16> {sdy.sharding = #sdy.sharding<@mesh, [{"_axis_0"}, {}]>, ttcore.argument_type = #ttcore.argument_type<parameter>, ttir.name = "L__self___layers__modules__11___self_attn_q_proj.weight"} loc("p279.5414"), %arg280: tensor<9728x2560xbf16> {sdy.sharding = #sdy.sharding<@mesh, [{"_axis_0"}, {}]>, ttcore.argument_type = #ttcore.argument_type<parameter>, ttir.name = "L__self___layers__modules__11___mlp_gate_proj.weight"} loc("p280.5580"), %arg281: tensor<128xbf16> {sdy.sharding = #sdy.sharding<@mesh, [{}]>, ttcore.argument_type = #ttcore.argument_type<parameter>, ttir.name = "L__self___layers__modules__12___self_attn_k_norm_weight"} loc("p281.5661"), %arg282: tensor<1024x2560xbf16> {sdy.sharding = #sdy.sharding<@mesh, [{"_axis_0"}, {}]>, ttcore.argument_type = #ttcore.argument_type<parameter>, ttir.name = "L__self___layers__modules__12___self_attn_k_proj.weight"} loc("p282.5670"), %arg283: tensor<128xbf16> {sdy.sharding = #sdy.sharding<@mesh, [{}]>, ttcore.argument_type = #ttcore.argument_type<parameter>, ttir.name = "L__self___layers__modules__12___self_attn_q_norm_weight"} loc("p283.5738"), %arg284: tensor<4096x2560xbf16> {sdy.sharding = #sdy.sharding<@mesh, [{"_axis_0"}, {}]>, ttcore.argument_type = #ttcore.argument_type<parameter>, ttir.name = "L__self___layers__modules__12___self_attn_q_proj.weight"} loc("p284.5747"), %arg285: tensor<9728x2560xbf16> {sdy.sharding = #sdy.sharding<@mesh, [{"_axis_0"}, {}]>, ttcore.argument_type = #ttcore.argument_type<parameter>, ttir.name = "L__self___layers__modules__12___mlp_gate_proj.weight"} loc("p285.5913"), %arg286: tensor<128xbf16> {sdy.sharding = #sdy.sharding<@mesh, [{}]>, ttcore.argument_type = #ttcore.argument_type<parameter>, ttir.name = "L__self___layers__modules__13___self_attn_k_norm_weight"} loc("p286.5994"), %arg287: tensor<1024x2560xbf16> {sdy.sharding = #sdy.sharding<@mesh, [{"_axis_0"}, {}]>, ttcore.argument_type = #ttcore.argument_type<parameter>, ttir.name = "L__self___layers__modules__13___self_attn_k_proj.weight"} loc("p287.6003"), %arg288: tensor<128xbf16> {sdy.sharding = #sdy.sharding<@mesh, [{}]>, ttcore.argument_type = #ttcore.argument_type<parameter>, ttir.name = "L__self___layers__modules__13___self_attn_q_norm_weight"} loc("p288.6071"), %arg289: tensor<4096x2560xbf16> {sdy.sharding = #sdy.sharding<@mesh, [{"_axis_0"}, {}]>, ttcore.argument_type = #ttcore.argument_type<parameter>, ttir.name = "L__self___layers__modules__13___self_attn_q_proj.weight"} loc("p289.6080"), %arg290: tensor<9728x2560xbf16> {sdy.sharding = #sdy.sharding<@mesh, [{"_axis_0"}, {}]>, ttcore.argument_type = #ttcore.argument_type<parameter>, ttir.name = "L__self___layers__modules__13___mlp_gate_proj.weight"} loc("p290.6246"), %arg291: tensor<128xbf16> {sdy.sharding = #sdy.sharding<@mesh, [{}]>, ttcore.argument_type = #ttcore.argument_type<parameter>, ttir.name = "L__self___layers__modules__14___self_attn_k_norm_weight"} loc("p291.6327"), %arg292: tensor<1024x2560xbf16> {sdy.sharding = #sdy.sharding<@mesh, [{"_axis_0"}, {}]>, ttcore.argument_type = #ttcore.argument_type<parameter>, ttir.name = "L__self___layers__modules__14___self_attn_k_proj.weight"} loc("p292.6336"), %arg293: tensor<128xbf16> {sdy.sharding = #sdy.sharding<@mesh, [{}]>, ttcore.argument_type = #ttcore.argument_type<parameter>, ttir.name = "L__self___layers__modules__14___self_attn_q_norm_weight"} loc("p293.6404"), %arg294: tensor<4096x2560xbf16> {sdy.sharding = #sdy.sharding<@mesh, [{"_axis_0"}, {}]>, ttcore.argument_type = #ttcore.argument_type<parameter>, ttir.name = "L__self___layers__modules__14___self_attn_q_proj.weight"} loc("p294.6413"), %arg295: tensor<9728x2560xbf16> {sdy.sharding = #sdy.sharding<@mesh, [{"_axis_0"}, {}]>, ttcore.argument_type = #ttcore.argument_type<parameter>, ttir.name = "L__self___layers__modules__14___mlp_gate_proj.weight"} loc("p295.6579"), %arg296: tensor<128xbf16> {sdy.sharding = #sdy.sharding<@mesh, [{}]>, ttcore.argument_type = #ttcore.argument_type<parameter>, ttir.name = "L__self___layers__modules__15___self_attn_k_norm_weight"} loc("p296.6660"), %arg297: tensor<1024x2560xbf16> {sdy.sharding = #sdy.sharding<@mesh, [{"_axis_0"}, {}]>, ttcore.argument_type = #ttcore.argument_type<parameter>, ttir.name = "L__self___layers__modules__15___self_attn_k_proj.weight"} loc("p297.6669"), %arg298: tensor<128xbf16> {sdy.sharding = #sdy.sharding<@mesh, [{}]>, ttcore.argument_type = #ttcore.argument_type<parameter>, ttir.name = "L__self___layers__modules__15___self_attn_q_norm_weight"} loc("p298.6737"), %arg299: tensor<4096x2560xbf16> {sdy.sharding = #sdy.sharding<@mesh, [{"_axis_0"}, {}]>, ttcore.argument_type = #ttcore.argument_type<parameter>, ttir.name = "L__self___layers__modules__15___self_attn_q_proj.weight"} loc("p299.6746"), %arg300: tensor<9728x2560xbf16> {sdy.sharding = #sdy.sharding<@mesh, [{"_axis_0"}, {}]>, ttcore.argument_type = #ttcore.argument_type<parameter>, ttir.name = "L__self___layers__modules__15___mlp_gate_proj.weight"} loc("p300.6912"), %arg301: tensor<128xbf16> {sdy.sharding = #sdy.sharding<@mesh, [{}]>, ttcore.argument_type = #ttcore.argument_type<parameter>, ttir.name = "L__self___layers__modules__16___self_attn_k_norm_weight"} loc("p301.6993"), %arg302: tensor<1024x2560xbf16> {sdy.sharding = #sdy.sharding<@mesh, [{"_axis_0"}, {}]>, ttcore.argument_type = #ttcore.argument_type<parameter>, ttir.name = "L__self___layers__modules__16___self_attn_k_proj.weight"} loc("p302.7002"), %arg303: tensor<128xbf16> {sdy.sharding = #sdy.sharding<@mesh, [{}]>, ttcore.argument_type = #ttcore.argument_type<parameter>, ttir.name = "L__self___layers__modules__16___self_attn_q_norm_weight"} loc("p303.7070"), %arg304: tensor<4096x2560xbf16> {sdy.sharding = #sdy.sharding<@mesh, [{"_axis_0"}, {}]>, ttcore.argument_type = #ttcore.argument_type<parameter>, ttir.name = "L__self___layers__modules__16___self_attn_q_proj.weight"} loc("p304.7079"), %arg305: tensor<9728x2560xbf16> {sdy.sharding = #sdy.sharding<@mesh, [{"_axis_0"}, {}]>, ttcore.argument_type = #ttcore.argument_type<parameter>, ttir.name = "L__self___layers__modules__16___mlp_gate_proj.weight"} loc("p305.7245"), %arg306: tensor<128xbf16> {sdy.sharding = #sdy.sharding<@mesh, [{}]>, ttcore.argument_type = #ttcore.argument_type<parameter>, ttir.name = "L__self___layers__modules__17___self_attn_k_norm_weight"} loc("p306.7326"), %arg307: tensor<1024x2560xbf16> {sdy.sharding = #sdy.sharding<@mesh, [{"_axis_0"}, {}]>, ttcore.argument_type = #ttcore.argument_type<parameter>, ttir.name = "L__self___layers__modules__17___self_attn_k_proj.weight"} loc("p307.7335"), %arg308: tensor<128xbf16> {sdy.sharding = #sdy.sharding<@mesh, [{}]>, ttcore.argument_type = #ttcore.argument_type<parameter>, ttir.name = "L__self___layers__modules__17___self_attn_q_norm_weight"} loc("p308.7403"), %arg309: tensor<4096x2560xbf16> {sdy.sharding = #sdy.sharding<@mesh, [{"_axis_0"}, {}]>, ttcore.argument_type = #ttcore.argument_type<parameter>, ttir.name = "L__self___layers__modules__17___self_attn_q_proj.weight"} loc("p309.7412"), %arg310: tensor<9728x2560xbf16> {sdy.sharding = #sdy.sharding<@mesh, [{"_axis_0"}, {}]>, ttcore.argument_type = #ttcore.argument_type<parameter>, ttir.name = "L__self___layers__modules__17___mlp_gate_proj.weight"} loc("p310.7578"), %arg311: tensor<128xbf16> {sdy.sharding = #sdy.sharding<@mesh, [{}]>, ttcore.argument_type = #ttcore.argument_type<parameter>, ttir.name = "L__self___layers__modules__18___self_attn_k_norm_weight"} loc("p311.7659"), %arg312: tensor<1024x2560xbf16> {sdy.sharding = #sdy.sharding<@mesh, [{"_axis_0"}, {}]>, ttcore.argument_type = #ttcore.argument_type<parameter>, ttir.name = "L__self___layers__modules__18___self_attn_k_proj.weight"} loc("p312.7668"), %arg313: tensor<128xbf16> {sdy.sharding = #sdy.sharding<@mesh, [{}]>, ttcore.argument_type = #ttcore.argument_type<parameter>, ttir.name = "L__self___layers__modules__18___self_attn_q_norm_weight"} loc("p313.7736"), %arg314: tensor<4096x2560xbf16> {sdy.sharding = #sdy.sharding<@mesh, [{"_axis_0"}, {}]>, ttcore.argument_type = #ttcore.argument_type<parameter>, ttir.name = "L__self___layers__modules__18___self_attn_q_proj.weight"} loc("p314.7745"), %arg315: tensor<9728x2560xbf16> {sdy.sharding = #sdy.sharding<@mesh, [{"_axis_0"}, {}]>, ttcore.argument_type = #ttcore.argument_type<parameter>, ttir.name = "L__self___layers__modules__18___mlp_gate_proj.weight"} loc("p315.7911"), %arg316: tensor<128xbf16> {sdy.sharding = #sdy.sharding<@mesh, [{}]>, ttcore.argument_type = #ttcore.argument_type<parameter>, ttir.name = "L__self___layers__modules__19___self_attn_k_norm_weight"} loc("p316.7992"), %arg317: tensor<1024x2560xbf16> {sdy.sharding = #sdy.sharding<@mesh, [{"_axis_0"}, {}]>, ttcore.argument_type = #ttcore.argument_type<parameter>, ttir.name = "L__self___layers__modules__19___self_attn_k_proj.weight"} loc("p317.8001"), %arg318: tensor<128xbf16> {sdy.sharding = #sdy.sharding<@mesh, [{}]>, ttcore.argument_type = #ttcore.argument_type<parameter>, ttir.name = "L__self___layers__modules__19___self_attn_q_norm_weight"} loc("p318.8069"), %arg319: tensor<4096x2560xbf16> {sdy.sharding = #sdy.sharding<@mesh, [{"_axis_0"}, {}]>, ttcore.argument_type = #ttcore.argument_type<parameter>, ttir.name = "L__self___layers__modules__19___self_attn_q_proj.weight"} loc("p319.8078"), %arg320: tensor<9728x2560xbf16> {sdy.sharding = #sdy.sharding<@mesh, [{"_axis_0"}, {}]>, ttcore.argument_type = #ttcore.argument_type<parameter>, ttir.name = "L__self___layers__modules__19___mlp_gate_proj.weight"} loc("p320.8244"), %arg321: tensor<128xbf16> {sdy.sharding = #sdy.sharding<@mesh, [{}]>, ttcore.argument_type = #ttcore.argument_type<parameter>, ttir.name = "L__self___layers__modules__20___self_attn_k_norm_weight"} loc("p321.8325"), %arg322: tensor<1024x2560xbf16> {sdy.sharding = #sdy.sharding<@mesh, [{"_axis_0"}, {}]>, ttcore.argument_type = #ttcore.argument_type<parameter>, ttir.name = "L__self___layers__modules__20___self_attn_k_proj.weight"} loc("p322.8334"), %arg323: tensor<128xbf16> {sdy.sharding = #sdy.sharding<@mesh, [{}]>, ttcore.argument_type = #ttcore.argument_type<parameter>, ttir.name = "L__self___layers__modules__20___self_attn_q_norm_weight"} loc("p323.8402"), %arg324: tensor<4096x2560xbf16> {sdy.sharding = #sdy.sharding<@mesh, [{"_axis_0"}, {}]>, ttcore.argument_type = #ttcore.argument_type<parameter>, ttir.name = "L__self___layers__modules__20___self_attn_q_proj.weight"} loc("p324.8411"), %arg325: tensor<9728x2560xbf16> {sdy.sharding = #sdy.sharding<@mesh, [{"_axis_0"}, {}]>, ttcore.argument_type = #ttcore.argument_type<parameter>, ttir.name = "L__self___layers__modules__20___mlp_gate_proj.weight"} loc("p325.8577"), %arg326: tensor<128xbf16> {sdy.sharding = #sdy.sharding<@mesh, [{}]>, ttcore.argument_type = #ttcore.argument_type<parameter>, ttir.name = "L__self___layers__modules__21___self_attn_k_norm_weight"} loc("p326.8658"), %arg327: tensor<1024x2560xbf16> {sdy.sharding = #sdy.sharding<@mesh, [{"_axis_0"}, {}]>, ttcore.argument_type = #ttcore.argument_type<parameter>, ttir.name = "L__self___layers__modules__21___self_attn_k_proj.weight"} loc("p327.8667"), %arg328: tensor<128xbf16> {sdy.sharding = #sdy.sharding<@mesh, [{}]>, ttcore.argument_type = #ttcore.argument_type<parameter>, ttir.name = "L__self___layers__modules__21___self_attn_q_norm_weight"} loc("p328.8735"), %arg329: tensor<4096x2560xbf16> {sdy.sharding = #sdy.sharding<@mesh, [{"_axis_0"}, {}]>, ttcore.argument_type = #ttcore.argument_type<parameter>, ttir.name = "L__self___layers__modules__21___self_attn_q_proj.weight"} loc("p329.8744"), %arg330: tensor<9728x2560xbf16> {sdy.sharding = #sdy.sharding<@mesh, [{"_axis_0"}, {}]>, ttcore.argument_type = #ttcore.argument_type<parameter>, ttir.name = "L__self___layers__modules__21___mlp_gate_proj.weight"} loc("p330.8910"), %arg331: tensor<128xbf16> {sdy.sharding = #sdy.sharding<@mesh, [{}]>, ttcore.argument_type = #ttcore.argument_type<parameter>, ttir.name = "L__self___layers__modules__22___self_attn_k_norm_weight"} loc("p331.8991"), %arg332: tensor<1024x2560xbf16> {sdy.sharding = #sdy.sharding<@mesh, [{"_axis_0"}, {}]>, ttcore.argument_type = #ttcore.argument_type<parameter>, ttir.name = "L__self___layers__modules__22___self_attn_k_proj.weight"} loc("p332.9000"), %arg333: tensor<128xbf16> {sdy.sharding = #sdy.sharding<@mesh, [{}]>, ttcore.argument_type = #ttcore.argument_type<parameter>, ttir.name = "L__self___layers__modules__22___self_attn_q_norm_weight"} loc("p333.9068"), %arg334: tensor<4096x2560xbf16> {sdy.sharding = #sdy.sharding<@mesh, [{"_axis_0"}, {}]>, ttcore.argument_type = #ttcore.argument_type<parameter>, ttir.name = "L__self___layers__modules__22___self_attn_q_proj.weight"} loc("p334.9077"), %arg335: tensor<9728x2560xbf16> {sdy.sharding = #sdy.sharding<@mesh, [{"_axis_0"}, {}]>, ttcore.argument_type = #ttcore.argument_type<parameter>, ttir.name = "L__self___layers__modules__22___mlp_gate_proj.weight"} loc("p335.9243"), %arg336: tensor<128xbf16> {sdy.sharding = #sdy.sharding<@mesh, [{}]>, ttcore.argument_type = #ttcore.argument_type<parameter>, ttir.name = "L__self___layers__modules__23___self_attn_k_norm_weight"} loc("p336.9324"), %arg337: tensor<1024x2560xbf16> {sdy.sharding = #sdy.sharding<@mesh, [{"_axis_0"}, {}]>, ttcore.argument_type = #ttcore.argument_type<parameter>, ttir.name = "L__self___layers__modules__23___self_attn_k_proj.weight"} loc("p337.9333"), %arg338: tensor<128xbf16> {sdy.sharding = #sdy.sharding<@mesh, [{}]>, ttcore.argument_type = #ttcore.argument_type<parameter>, ttir.name = "L__self___layers__modules__23___self_attn_q_norm_weight"} loc("p338.9401"), %arg339: tensor<4096x2560xbf16> {sdy.sharding = #sdy.sharding<@mesh, [{"_axis_0"}, {}]>, ttcore.argument_type = #ttcore.argument_type<parameter>, ttir.name = "L__self___layers__modules__23___self_attn_q_proj.weight"} loc("p339.9410"), %arg340: tensor<9728x2560xbf16> {sdy.sharding = #sdy.sharding<@mesh, [{"_axis_0"}, {}]>, ttcore.argument_type = #ttcore.argument_type<parameter>, ttir.name = "L__self___layers__modules__23___mlp_gate_proj.weight"} loc("p340.9576"), %arg341: tensor<128xbf16> {sdy.sharding = #sdy.sharding<@mesh, [{}]>, ttcore.argument_type = #ttcore.argument_type<parameter>, ttir.name = "L__self___layers__modules__24___self_attn_k_norm_weight"} loc("p341.9657"), %arg342: tensor<1024x2560xbf16> {sdy.sharding = #sdy.sharding<@mesh, [{"_axis_0"}, {}]>, ttcore.argument_type = #ttcore.argument_type<parameter>, ttir.name = "L__self___layers__modules__24___self_attn_k_proj.weight"} loc("p342.9666"), %arg343: tensor<128xbf16> {sdy.sharding = #sdy.sharding<@mesh, [{}]>, ttcore.argument_type = #ttcore.argument_type<parameter>, ttir.name = "L__self___layers__modules__24___self_attn_q_norm_weight"} loc("p343.9734"), %arg344: tensor<4096x2560xbf16> {sdy.sharding = #sdy.sharding<@mesh, [{"_axis_0"}, {}]>, ttcore.argument_type = #ttcore.argument_type<parameter>, ttir.name = "L__self___layers__modules__24___self_attn_q_proj.weight"} loc("p344.9743"), %arg345: tensor<9728x2560xbf16> {sdy.sharding = #sdy.sharding<@mesh, [{"_axis_0"}, {}]>, ttcore.argument_type = #ttcore.argument_type<parameter>, ttir.name = "L__self___layers__modules__24___mlp_gate_proj.weight"} loc("p345.9909"), %arg346: tensor<128xbf16> {sdy.sharding = #sdy.sharding<@mesh, [{}]>, ttcore.argument_type = #ttcore.argument_type<parameter>, ttir.name = "L__self___layers__modules__25___self_attn_k_norm_weight"} loc("p346.9990"), %arg347: tensor<1024x2560xbf16> {sdy.sharding = #sdy.sharding<@mesh, [{"_axis_0"}, {}]>, ttcore.argument_type = #ttcore.argument_type<parameter>, ttir.name = "L__self___layers__modules__25___self_attn_k_proj.weight"} loc("p347.9999"), %arg348: tensor<128xbf16> {sdy.sharding = #sdy.sharding<@mesh, [{}]>, ttcore.argument_type = #ttcore.argument_type<parameter>, ttir.name = "L__self___layers__modules__25___self_attn_q_norm_weight"} loc("p348.10067"), %arg349: tensor<4096x2560xbf16> {sdy.sharding = #sdy.sharding<@mesh, [{"_axis_0"}, {}]>, ttcore.argument_type = #ttcore.argument_type<parameter>, ttir.name = "L__self___layers__modules__25___self_attn_q_proj.weight"} loc("p349.10076"), %arg350: tensor<9728x2560xbf16> {sdy.sharding = #sdy.sharding<@mesh, [{"_axis_0"}, {}]>, ttcore.argument_type = #ttcore.argument_type<parameter>, ttir.name = "L__self___layers__modules__25___mlp_gate_proj.weight"} loc("p350.10242"), %arg351: tensor<128xbf16> {sdy.sharding = #sdy.sharding<@mesh, [{}]>, ttcore.argument_type = #ttcore.argument_type<parameter>, ttir.name = "L__self___layers__modules__26___self_attn_k_norm_weight"} loc("p351.10323"), %arg352: tensor<1024x2560xbf16> {sdy.sharding = #sdy.sharding<@mesh, [{"_axis_0"}, {}]>, ttcore.argument_type = #ttcore.argument_type<parameter>, ttir.name = "L__self___layers__modules__26___self_attn_k_proj.weight"} loc("p352.10332"), %arg353: tensor<128xbf16> {sdy.sharding = #sdy.sharding<@mesh, [{}]>, ttcore.argument_type = #ttcore.argument_type<parameter>, ttir.name = "L__self___layers__modules__26___self_attn_q_norm_weight"} loc("p353.10400"), %arg354: tensor<4096x2560xbf16> {sdy.sharding = #sdy.sharding<@mesh, [{"_axis_0"}, {}]>, ttcore.argument_type = #ttcore.argument_type<parameter>, ttir.name = "L__self___layers__modules__26___self_attn_q_proj.weight"} loc("p354.10409"), %arg355: tensor<9728x2560xbf16> {sdy.sharding = #sdy.sharding<@mesh, [{"_axis_0"}, {}]>, ttcore.argument_type = #ttcore.argument_type<parameter>, ttir.name = "L__self___layers__modules__26___mlp_gate_proj.weight"} loc("p355.10575"), %arg356: tensor<128xbf16> {sdy.sharding = #sdy.sharding<@mesh, [{}]>, ttcore.argument_type = #ttcore.argument_type<parameter>, ttir.name = "L__self___layers__modules__27___self_attn_k_norm_weight"} loc("p356.10656"), %arg357: tensor<1024x2560xbf16> {sdy.sharding = #sdy.sharding<@mesh, [{"_axis_0"}, {}]>, ttcore.argument_type = #ttcore.argument_type<parameter>, ttir.name = "L__self___layers__modules__27___self_attn_k_proj.weight"} loc("p357.10665"), %arg358: tensor<128xbf16> {sdy.sharding = #sdy.sharding<@mesh, [{}]>, ttcore.argument_type = #ttcore.argument_type<parameter>, ttir.name = "L__self___layers__modules__27___self_attn_q_norm_weight"} loc("p358.10733"), %arg359: tensor<4096x2560xbf16> {sdy.sharding = #sdy.sharding<@mesh, [{"_axis_0"}, {}]>, ttcore.argument_type = #ttcore.argument_type<parameter>, ttir.name = "L__self___layers__modules__27___self_attn_q_proj.weight"} loc("p359.10742"), %arg360: tensor<9728x2560xbf16> {sdy.sharding = #sdy.sharding<@mesh, [{"_axis_0"}, {}]>, ttcore.argument_type = #ttcore.argument_type<parameter>, ttir.name = "L__self___layers__modules__27___mlp_gate_proj.weight"} loc("p360.10908"), %arg361: tensor<128xbf16> {sdy.sharding = #sdy.sharding<@mesh, [{}]>, ttcore.argument_type = #ttcore.argument_type<parameter>, ttir.name = "L__self___layers__modules__28___self_attn_k_norm_weight"} loc("p361.10989"), %arg362: tensor<1024x2560xbf16> {sdy.sharding = #sdy.sharding<@mesh, [{"_axis_0"}, {}]>, ttcore.argument_type = #ttcore.argument_type<parameter>, ttir.name = "L__self___layers__modules__28___self_attn_k_proj.weight"} loc("p362.10998"), %arg363: tensor<128xbf16> {sdy.sharding = #sdy.sharding<@mesh, [{}]>, ttcore.argument_type = #ttcore.argument_type<parameter>, ttir.name = "L__self___layers__modules__28___self_attn_q_norm_weight"} loc("p363.11066"), %arg364: tensor<4096x2560xbf16> {sdy.sharding = #sdy.sharding<@mesh, [{"_axis_0"}, {}]>, ttcore.argument_type = #ttcore.argument_type<parameter>, ttir.name = "L__self___layers__modules__28___self_attn_q_proj.weight"} loc("p364.11075"), %arg365: tensor<9728x2560xbf16> {sdy.sharding = #sdy.sharding<@mesh, [{"_axis_0"}, {}]>, ttcore.argument_type = #ttcore.argument_type<parameter>, ttir.name = "L__self___layers__modules__28___mlp_gate_proj.weight"} loc("p365.11241"), %arg366: tensor<128xbf16> {sdy.sharding = #sdy.sharding<@mesh, [{}]>, ttcore.argument_type = #ttcore.argument_type<parameter>, ttir.name = "L__self___layers__modules__29___self_attn_k_norm_weight"} loc("p366.11322"), %arg367: tensor<1024x2560xbf16> {sdy.sharding = #sdy.sharding<@mesh, [{"_axis_0"}, {}]>, ttcore.argument_type = #ttcore.argument_type<parameter>, ttir.name = "L__self___layers__modules__29___self_attn_k_proj.weight"} loc("p367.11331"), %arg368: tensor<128xbf16> {sdy.sharding = #sdy.sharding<@mesh, [{}]>, ttcore.argument_type = #ttcore.argument_type<parameter>, ttir.name = "L__self___layers__modules__29___self_attn_q_norm_weight"} loc("p368.11399"), %arg369: tensor<4096x2560xbf16> {sdy.sharding = #sdy.sharding<@mesh, [{"_axis_0"}, {}]>, ttcore.argument_type = #ttcore.argument_type<parameter>, ttir.name = "L__self___layers__modules__29___self_attn_q_proj.weight"} loc("p369.11408"), %arg370: tensor<9728x2560xbf16> {sdy.sharding = #sdy.sharding<@mesh, [{"_axis_0"}, {}]>, ttcore.argument_type = #ttcore.argument_type<parameter>, ttir.name = "L__self___layers__modules__29___mlp_gate_proj.weight"} loc("p370.11574"), %arg371: tensor<128xbf16> {sdy.sharding = #sdy.sharding<@mesh, [{}]>, ttcore.argument_type = #ttcore.argument_type<parameter>, ttir.name = "L__self___layers__modules__30___self_attn_k_norm_weight"} loc("p371.11655"), %arg372: tensor<1024x2560xbf16> {sdy.sharding = #sdy.sharding<@mesh, [{"_axis_0"}, {}]>, ttcore.argument_type = #ttcore.argument_type<parameter>, ttir.name = "L__self___layers__modules__30___self_attn_k_proj.weight"} loc("p372.11664"), %arg373: tensor<128xbf16> {sdy.sharding = #sdy.sharding<@mesh, [{}]>, ttcore.argument_type = #ttcore.argument_type<parameter>, ttir.name = "L__self___layers__modules__30___self_attn_q_norm_weight"} loc("p373.11732"), %arg374: tensor<4096x2560xbf16> {sdy.sharding = #sdy.sharding<@mesh, [{"_axis_0"}, {}]>, ttcore.argument_type = #ttcore.argument_type<parameter>, ttir.name = "L__self___layers__modules__30___self_attn_q_proj.weight"} loc("p374.11741"), %arg375: tensor<9728x2560xbf16> {sdy.sharding = #sdy.sharding<@mesh, [{"_axis_0"}, {}]>, ttcore.argument_type = #ttcore.argument_type<parameter>, ttir.name = "L__self___layers__modules__30___mlp_gate_proj.weight"} loc("p375.11907"), %arg376: tensor<128xbf16> {sdy.sharding = #sdy.sharding<@mesh, [{}]>, ttcore.argument_type = #ttcore.argument_type<parameter>, ttir.name = "L__self___layers__modules__31___self_attn_k_norm_weight"} loc("p376.11988"), %arg377: tensor<1024x2560xbf16> {sdy.sharding = #sdy.sharding<@mesh, [{"_axis_0"}, {}]>, ttcore.argument_type = #ttcore.argument_type<parameter>, ttir.name = "L__self___layers__modules__31___self_attn_k_proj.weight"} loc("p377.11997"), %arg378: tensor<128xbf16> {sdy.sharding = #sdy.sharding<@mesh, [{}]>, ttcore.argument_type = #ttcore.argument_type<parameter>, ttir.name = "L__self___layers__modules__31___self_attn_q_norm_weight"} loc("p378.12065"), %arg379: tensor<4096x2560xbf16> {sdy.sharding = #sdy.sharding<@mesh, [{"_axis_0"}, {}]>, ttcore.argument_type = #ttcore.argument_type<parameter>, ttir.name = "L__self___layers__modules__31___self_attn_q_proj.weight"} loc("p379.12074"), %arg380: tensor<9728x2560xbf16> {sdy.sharding = #sdy.sharding<@mesh, [{"_axis_0"}, {}]>, ttcore.argument_type = #ttcore.argument_type<parameter>, ttir.name = "L__self___layers__modules__31___mlp_gate_proj.weight"} loc("p380.12240"), %arg381: tensor<128xbf16> {sdy.sharding = #sdy.sharding<@mesh, [{}]>, ttcore.argument_type = #ttcore.argument_type<parameter>, ttir.name = "L__self___layers__modules__32___self_attn_k_norm_weight"} loc("p381.12321"), %arg382: tensor<1024x2560xbf16> {sdy.sharding = #sdy.sharding<@mesh, [{"_axis_0"}, {}]>, ttcore.argument_type = #ttcore.argument_type<parameter>, ttir.name = "L__self___layers__modules__32___self_attn_k_proj.weight"} loc("p382.12330"), %arg383: tensor<128xbf16> {sdy.sharding = #sdy.sharding<@mesh, [{}]>, ttcore.argument_type = #ttcore.argument_type<parameter>, ttir.name = "L__self___layers__modules__32___self_attn_q_norm_weight"} loc("p383.12398"), %arg384: tensor<4096x2560xbf16> {sdy.sharding = #sdy.sharding<@mesh, [{"_axis_0"}, {}]>, ttcore.argument_type = #ttcore.argument_type<parameter>, ttir.name = "L__self___layers__modules__32___self_attn_q_proj.weight"} loc("p384.12407"), %arg385: tensor<9728x2560xbf16> {sdy.sharding = #sdy.sharding<@mesh, [{"_axis_0"}, {}]>, ttcore.argument_type = #ttcore.argument_type<parameter>, ttir.name = "L__self___layers__modules__32___mlp_gate_proj.weight"} loc("p385.12573"), %arg386: tensor<128xbf16> {sdy.sharding = #sdy.sharding<@mesh, [{}]>, ttcore.argument_type = #ttcore.argument_type<parameter>, ttir.name = "L__self___layers__modules__33___self_attn_k_norm_weight"} loc("p386.12654"), %arg387: tensor<1024x2560xbf16> {sdy.sharding = #sdy.sharding<@mesh, [{"_axis_0"}, {}]>, ttcore.argument_type = #ttcore.argument_type<parameter>, ttir.name = "L__self___layers__modules__33___self_attn_k_proj.weight"} loc("p387.12663"), %arg388: tensor<128xbf16> {sdy.sharding = #sdy.sharding<@mesh, [{}]>, ttcore.argument_type = #ttcore.argument_type<parameter>, ttir.name = "L__self___layers__modules__33___self_attn_q_norm_weight"} loc("p388.12731"), %arg389: tensor<4096x2560xbf16> {sdy.sharding = #sdy.sharding<@mesh, [{"_axis_0"}, {}]>, ttcore.argument_type = #ttcore.argument_type<parameter>, ttir.name = "L__self___layers__modules__33___self_attn_q_proj.weight"} loc("p389.12740"), %arg390: tensor<9728x2560xbf16> {sdy.sharding = #sdy.sharding<@mesh, [{"_axis_0"}, {}]>, ttcore.argument_type = #ttcore.argument_type<parameter>, ttir.name = "L__self___layers__modules__33___mlp_gate_proj.weight"} loc("p390.12906"), %arg391: tensor<128xbf16> {sdy.sharding = #sdy.sharding<@mesh, [{}]>, ttcore.argument_type = #ttcore.argument_type<parameter>, ttir.name = "L__self___layers__modules__34___self_attn_k_norm_weight"} loc("p391.12987"), %arg392: tensor<1024x2560xbf16> {sdy.sharding = #sdy.sharding<@mesh, [{"_axis_0"}, {}]>, ttcore.argument_type = #ttcore.argument_type<parameter>, ttir.name = "L__self___layers__modules__34___self_attn_k_proj.weight"} loc("p392.12996"), %arg393: tensor<128xbf16> {sdy.sharding = #sdy.sharding<@mesh, [{}]>, ttcore.argument_type = #ttcore.argument_type<parameter>, ttir.name = "L__self___layers__modules__34___self_attn_q_norm_weight"} loc("p393.13064"), %arg394: tensor<4096x2560xbf16> {sdy.sharding = #sdy.sharding<@mesh, [{"_axis_0"}, {}]>, ttcore.argument_type = #ttcore.argument_type<parameter>, ttir.name = "L__self___layers__modules__34___self_attn_q_proj.weight"} loc("p394.13073"), %arg395: tensor<9728x2560xbf16> {sdy.sharding = #sdy.sharding<@mesh, [{"_axis_0"}, {}]>, ttcore.argument_type = #ttcore.argument_type<parameter>, ttir.name = "L__self___layers__modules__34___mlp_gate_proj.weight"} loc("p395.13239"), %arg396: tensor<128xbf16> {sdy.sharding = #sdy.sharding<@mesh, [{}]>, ttcore.argument_type = #ttcore.argument_type<parameter>, ttir.name = "L__self___layers__modules__35___self_attn_k_norm_weight"} loc("p396.13320"), %arg397: tensor<1024x2560xbf16> {sdy.sharding = #sdy.sharding<@mesh, [{"_axis_0"}, {}]>, ttcore.argument_type = #ttcore.argument_type<parameter>, ttir.name = "L__self___layers__modules__35___self_attn_k_proj.weight"} loc("p397.13329"), %arg398: tensor<128xbf16> {sdy.sharding = #sdy.sharding<@mesh, [{}]>, ttcore.argument_type = #ttcore.argument_type<parameter>, ttir.name = "L__self___layers__modules__35___self_attn_q_norm_weight"} loc("p398.13397"), %arg399: tensor<4096x2560xbf16> {sdy.sharding = #sdy.sharding<@mesh, [{"_axis_0"}, {}]>, ttcore.argument_type = #ttcore.argument_type<parameter>, ttir.name = "L__self___layers__modules__35___self_attn_q_proj.weight"} loc("p399.13406"), %arg400: tensor<9728x2560xbf16> {sdy.sharding = #sdy.sharding<@mesh, [{"_axis_0"}, {}]>, ttcore.argument_type = #ttcore.argument_type<parameter>, ttir.name = "L__self___layers__modules__35___mlp_gate_proj.weight"} loc("p400.13572")) -> tensor<1x7x2560xbf16> {
    %0 = sdy.constant dense<0.000000e+00> : tensor<f32> loc(#loc)
    %1 = stablehlo.broadcast_in_dim %0, dims = [] : (tensor<f32>) -> tensor<1x32x7x7xf32> loc(#loc)
    %2 = sdy.constant dense<0xFFF0000000000000> : tensor<f64> loc(#loc)
    %3 = stablehlo.broadcast_in_dim %2, dims = [] : (tensor<f64>) -> tensor<1x32x7x7xf64> loc(#loc)
    %4 = sdy.constant dense<0xFF80> : tensor<bf16> loc(#loc)
    %5 = stablehlo.broadcast_in_dim %4, dims = [] : (tensor<bf16>) -> tensor<1x1x7x7xbf16> loc(#loc)
    %6 = sdy.constant dense<0.000000e+00> : tensor<bf16> loc(#loc)
    %7 = stablehlo.broadcast_in_dim %6, dims = [] : (tensor<bf16>) -> tensor<1x1x7x7xbf16> loc(#loc)
    %8 = sdy.constant dense<[[[[[0, 0], [0, 1], [0, 2], [0, 3], [0, 4], [0, 5], [0, 6]]]]]> : tensor<1x1x1x7x2xi64> loc(#loc)
    %9 = sdy.constant dense<[[[[[0, 0]], [[0, 1]], [[0, 2]], [[0, 3]], [[0, 4]], [[0, 5]], [[0, 6]]]]]> : tensor<1x1x7x1x2xi64> loc(#loc)
    %10 = sdy.constant dense<0> : tensor<1x7xi32> loc(#loc)
    %11 = sdy.constant dense<[[[0, 1, 2, 3, 4, 5, 6]]]> : tensor<1x1x7xi64> loc(#loc)
    %12 = sdy.constant dense<0.297301769> : tensor<f32> loc(#loc)
    %13 = stablehlo.broadcast_in_dim %12, dims = [] : (tensor<f32>) -> tensor<1x32x128x7xf32> loc(#loc)
    %14 = sdy.constant dense<0.297301769> : tensor<f32> loc(#loc)
    %15 = stablehlo.broadcast_in_dim %14, dims = [] : (tensor<f32>) -> tensor<1x32x7x128xf32> loc(#loc)
    %16 = sdy.constant dense<[[[0.000000e+00, 1.000000e+00, 2.000000e+00, 3.000000e+00, 4.000000e+00, 5.000000e+00, 6.000000e+00]]]> : tensor<1x1x7xf32> loc(#loc)
    %17 = sdy.constant dense<0xFF800000> : tensor<f32> loc(#loc)
    %18 = sdy.constant dense<false> : tensor<i1> loc(#loc)
    %19 = sdy.constant dense<0> : tensor<i32> loc(#loc)
    %20 = sdy.constant dense<0.000000e+00> : tensor<f32> loc(#loc)
    %21 = stablehlo.reshape %arg218 : (tensor<151936x2560xbf16>) -> tensor<1x151936x2560xbf16> loc(#loc402)
    %22 = stablehlo.reshape %21 : (tensor<1x151936x2560xbf16>) -> tensor<151936x2560xbf16> loc(#loc403)
    %23 = stablehlo.reshape %arg217 : (tensor<1x7xi64>) -> tensor<1x1x7xi64> loc(#loc404)
    %24 = stablehlo.reshape %23 : (tensor<1x1x7xi64>) -> tensor<7xi64> loc(#loc405)
    %25 = stablehlo.convert %24 : (tensor<7xi64>) -> tensor<7xui32> loc(#loc406)
    %26 = "stablehlo.gather"(%22, %25) <{dimension_numbers = #stablehlo.gather<offset_dims = [1], collapsed_slice_dims = [0], start_index_map = [0], index_vector_dim = 1>, slice_sizes = array<i64: 1, 2560>}> : (tensor<151936x2560xbf16>, tensor<7xui32>) -> tensor<7x2560xbf16> loc(#loc407)
    %27 = stablehlo.reshape %26 : (tensor<7x2560xbf16>) -> tensor<1x7x2560xbf16> loc(#loc408)
    %28 = stablehlo.reshape %arg216 : (tensor<2560xbf16>) -> tensor<1x1x2560xbf16> loc(#loc409)
    %29 = stablehlo.reshape %28 : (tensor<1x1x2560xbf16>) -> tensor<2560xbf16> loc(#loc410)
    %30 = stablehlo.composite "tenstorrent.rms_norm" %27, %29 {composite_attributes = {epsilon = 9.99999997E-7 : f32, normalized_shape = dense<2560> : tensor<1xi64>}, decomposition = @tenstorrent.rms_norm.impl_63} : (tensor<1x7x2560xbf16>, tensor<2560xbf16>) -> tensor<1x7x2560xbf16> loc(#loc411)
    %31 = stablehlo.reshape %30 : (tensor<1x7x2560xbf16>) -> tensor<7x2560xbf16> loc(#loc412)
    %32 = stablehlo.reshape %arg224 : (tensor<4096x2560xbf16>) -> tensor<1x4096x2560xbf16> loc(#loc413)
    %33 = stablehlo.reshape %32 : (tensor<1x4096x2560xbf16>) -> tensor<4096x2560xbf16> loc(#loc414)
    %34 = stablehlo.transpose %33, dims = [1, 0] {result_layout = dense<[0, 1]> : tensor<2xindex>, xla_shape = "bf16[2560,4096]{0,1}"} : (tensor<4096x2560xbf16>) -> tensor<2560x4096xbf16> loc(#loc415)
    %35 = stablehlo.dot_general %31, %34, contracting_dims = [1] x [0] : (tensor<7x2560xbf16>, tensor<2560x4096xbf16>) -> tensor<7x4096xbf16> loc(#loc416)
    %36 = stablehlo.reshape %35 : (tensor<7x4096xbf16>) -> tensor<1x7x32x128xbf16> loc(#loc417)
    %37 = stablehlo.reshape %arg223 : (tensor<128xbf16>) -> tensor<1x1x128xbf16> loc(#loc418)
    %38 = stablehlo.reshape %37 : (tensor<1x1x128xbf16>) -> tensor<128xbf16> loc(#loc419)
    %39 = stablehlo.composite "tenstorrent.rms_norm" %36, %38 {composite_attributes = {epsilon = 9.99999997E-7 : f32, normalized_shape = dense<128> : tensor<1xi64>}, decomposition = @tenstorrent.rms_norm.impl_46} : (tensor<1x7x32x128xbf16>, tensor<128xbf16>) -> tensor<1x7x32x128xbf16> loc(#loc420)
    %40 = stablehlo.transpose %39, dims = [0, 2, 1, 3] {result_layout = dense<[3, 1, 2, 0]> : tensor<4xindex>, xla_shape = "bf16[1,32,7,128]{3,1,2,0}"} : (tensor<1x7x32x128xbf16>) -> tensor<1x32x7x128xbf16> loc(#loc421)
    %41 = stablehlo.reshape %arg220 : (tensor<64xf32>) -> tensor<1x1x64xf32> loc(#loc422)
    %42 = stablehlo.reshape %41 : (tensor<1x1x64xf32>) -> tensor<1x64x1xf32> loc(#loc423)
    %43 = stablehlo.dot_general %42, %16, batching_dims = [0] x [0], contracting_dims = [2] x [1] : (tensor<1x64x1xf32>, tensor<1x1x7xf32>) -> tensor<1x64x7xf32> loc(#loc424)
    %44 = stablehlo.transpose %43, dims = [0, 2, 1] {result_layout = dense<[1, 2, 0]> : tensor<3xindex>, xla_shape = "f32[1,7,64]{1,2,0}"} : (tensor<1x64x7xf32>) -> tensor<1x7x64xf32> loc(#loc425)
    %45 = stablehlo.concatenate %44, %44, dim = 2 : (tensor<1x7x64xf32>, tensor<1x7x64xf32>) -> tensor<1x7x128xf32> loc(#loc426)
    %46 = stablehlo.cosine %45 : tensor<1x7x128xf32> loc(#loc427)
    %47 = stablehlo.convert %46 : (tensor<1x7x128xf32>) -> tensor<1x7x128xbf16> loc(#loc428)
    %48 = stablehlo.broadcast_in_dim %47, dims = [0, 2, 3] : (tensor<1x7x128xbf16>) -> tensor<1x32x7x128xbf16> loc(#loc429)
    %49 = stablehlo.multiply %40, %48 : tensor<1x32x7x128xbf16> loc(#loc430)
    %50 = stablehlo.slice %40 [0:1, 0:32, 0:7, 64:128] : (tensor<1x32x7x128xbf16>) -> tensor<1x32x7x64xbf16> loc(#loc431)
    %51 = stablehlo.negate %50 : tensor<1x32x7x64xbf16> loc(#loc432)
    %52 = stablehlo.slice %40 [0:1, 0:32, 0:7, 0:64] : (tensor<1x32x7x128xbf16>) -> tensor<1x32x7x64xbf16> loc(#loc433)
    %53 = stablehlo.concatenate %51, %52, dim = 3 : (tensor<1x32x7x64xbf16>, tensor<1x32x7x64xbf16>) -> tensor<1x32x7x128xbf16> loc(#loc434)
    %54 = stablehlo.sine %45 : tensor<1x7x128xf32> loc(#loc435)
    %55 = stablehlo.convert %54 : (tensor<1x7x128xf32>) -> tensor<1x7x128xbf16> loc(#loc436)
    %56 = stablehlo.broadcast_in_dim %55, dims = [0, 2, 3] : (tensor<1x7x128xbf16>) -> tensor<1x32x7x128xbf16> loc(#loc437)
    %57 = stablehlo.multiply %53, %56 : tensor<1x32x7x128xbf16> loc(#loc438)
    %58 = stablehlo.add %49, %57 : tensor<1x32x7x128xbf16> loc(#loc439)
    %59 = stablehlo.convert %58 : (tensor<1x32x7x128xbf16>) -> tensor<1x32x7x128xf32> loc(#loc440)
    %60 = stablehlo.multiply %59, %15 : tensor<1x32x7x128xf32> loc(#loc441)
    %61 = stablehlo.reshape %arg222 : (tensor<1024x2560xbf16>) -> tensor<1x1024x2560xbf16> loc(#loc442)
    %62 = stablehlo.reshape %61 : (tensor<1x1024x2560xbf16>) -> tensor<1024x2560xbf16> loc(#loc443)
    %63 = stablehlo.transpose %62, dims = [1, 0] {result_layout = dense<[0, 1]> : tensor<2xindex>, xla_shape = "bf16[2560,1024]{0,1}"} : (tensor<1024x2560xbf16>) -> tensor<2560x1024xbf16> loc(#loc444)
    %64 = stablehlo.dot_general %31, %63, contracting_dims = [1] x [0] : (tensor<7x2560xbf16>, tensor<2560x1024xbf16>) -> tensor<7x1024xbf16> loc(#loc445)
    %65 = stablehlo.reshape %64 : (tensor<7x1024xbf16>) -> tensor<1x7x8x128xbf16> loc(#loc446)
    %66 = stablehlo.reshape %arg221 : (tensor<128xbf16>) -> tensor<1x1x128xbf16> loc(#loc447)
    %67 = stablehlo.reshape %66 : (tensor<1x1x128xbf16>) -> tensor<128xbf16> loc(#loc448)
    %68 = stablehlo.composite "tenstorrent.rms_norm" %65, %67 {composite_attributes = {epsilon = 9.99999997E-7 : f32, normalized_shape = dense<128> : tensor<1xi64>}, decomposition = @tenstorrent.rms_norm.impl_86} : (tensor<1x7x8x128xbf16>, tensor<128xbf16>) -> tensor<1x7x8x128xbf16> loc(#loc449)
    %69 = stablehlo.transpose %68, dims = [0, 2, 1, 3] {result_layout = dense<[3, 1, 2, 0]> : tensor<4xindex>, xla_shape = "bf16[1,8,7,128]{3,1,2,0}"} : (tensor<1x7x8x128xbf16>) -> tensor<1x8x7x128xbf16> loc(#loc450)
    %70 = stablehlo.broadcast_in_dim %47, dims = [0, 2, 3] : (tensor<1x7x128xbf16>) -> tensor<1x8x7x128xbf16> loc(#loc451)
    %71 = stablehlo.multiply %69, %70 : tensor<1x8x7x128xbf16> loc(#loc452)
    %72 = stablehlo.slice %69 [0:1, 0:8, 0:7, 64:128] : (tensor<1x8x7x128xbf16>) -> tensor<1x8x7x64xbf16> loc(#loc453)
    %73 = stablehlo.negate %72 : tensor<1x8x7x64xbf16> loc(#loc454)
    %74 = stablehlo.slice %69 [0:1, 0:8, 0:7, 0:64] : (tensor<1x8x7x128xbf16>) -> tensor<1x8x7x64xbf16> loc(#loc455)
    %75 = stablehlo.concatenate %73, %74, dim = 3 : (tensor<1x8x7x64xbf16>, tensor<1x8x7x64xbf16>) -> tensor<1x8x7x128xbf16> loc(#loc456)
    %76 = stablehlo.broadcast_in_dim %55, dims = [0, 2, 3] : (tensor<1x7x128xbf16>) -> tensor<1x8x7x128xbf16> loc(#loc457)
    %77 = stablehlo.multiply %75, %76 : tensor<1x8x7x128xbf16> loc(#loc458)
    %78 = stablehlo.add %71, %77 : tensor<1x8x7x128xbf16> loc(#loc459)
    %79 = stablehlo.broadcast_in_dim %78, dims = [0, 1, 3, 4] : (tensor<1x8x7x128xbf16>) -> tensor<1x8x4x7x128xbf16> loc(#loc460)
    %80 = stablehlo.reshape %79 : (tensor<1x8x4x7x128xbf16>) -> tensor<1x32x7x128xbf16> loc(#loc461)
    %81 = stablehlo.convert %80 : (tensor<1x32x7x128xbf16>) -> tensor<1x32x7x128xf32> loc(#loc462)
    %82 = stablehlo.transpose %81, dims = [0, 1, 3, 2] {result_layout = dense<[2, 3, 1, 0]> : tensor<4xindex>, xla_shape = "f32[1,32,128,7]{2,3,1,0}"} : (tensor<1x32x7x128xf32>) -> tensor<1x32x128x7xf32> loc(#loc463)
    %83 = stablehlo.multiply %82, %13 : tensor<1x32x128x7xf32> loc(#loc464)
    %84 = stablehlo.dot_general %60, %83, batching_dims = [0, 1] x [0, 1], contracting_dims = [3] x [2] {mhlo.frontend_attributes = {grad_x = "false", grad_y = "false"}} : (tensor<1x32x7x128xf32>, tensor<1x32x128x7xf32>) -> tensor<1x32x7x7xf32> loc(#loc465)
    %85 = stablehlo.broadcast_in_dim %arg219, dims = [] : (tensor<i1>) -> tensor<1x1x7x7xi1> loc(#loc466)
    %86 = stablehlo.broadcast_in_dim %11, dims = [0, 1, 3] : (tensor<1x1x7xi64>) -> tensor<1x1x7x7xi64> loc(#loc467)
    %87 = stablehlo.broadcast_in_dim %11, dims = [0, 1, 2] : (tensor<1x1x7xi64>) -> tensor<1x1x7x7xi64> loc(#loc468)
    %88 = stablehlo.compare  LE, %86, %87 : (tensor<1x1x7x7xi64>, tensor<1x1x7x7xi64>) -> tensor<1x1x7x7xi1> loc(#loc469)
    %89 = stablehlo.and %85, %88 : tensor<1x1x7x7xi1> loc(#loc470)
    %90 = "stablehlo.reduce_window"(%10, %19) <{padding = dense<[[0, 0], [6, 0]]> : tensor<2x2xi64>, window_dimensions = array<i64: 1, 7>}> ({
    ^bb0(%arg401: tensor<i32> loc("reduce-window.1583"), %arg402: tensor<i32> loc("reduce-window.1583")):
      %3878 = stablehlo.add %arg401, %arg402 : tensor<i32> loc(#loc472)
      stablehlo.return %3878 : tensor<i32> loc(#loc)
    }) : (tensor<1x7xi32>, tensor<i32>) -> tensor<1x7xi32> loc(#loc471)
    %91 = "stablehlo.gather"(%90, %9) <{dimension_numbers = #stablehlo.gather<collapsed_slice_dims = [0, 1], start_index_map = [0, 1], index_vector_dim = 4>, slice_sizes = array<i64: 1, 1>}> : (tensor<1x7xi32>, tensor<1x1x7x1x2xi64>) -> tensor<1x1x7x1xi32> loc(#loc473)
    %92 = stablehlo.reshape %91 : (tensor<1x1x7x1xi32>) -> tensor<1x1x7xi32> loc(#loc474)
    %93 = stablehlo.broadcast_in_dim %92, dims = [0, 1, 2] : (tensor<1x1x7xi32>) -> tensor<1x1x7x7xi32> loc(#loc475)
    %94 = "stablehlo.gather"(%90, %8) <{dimension_numbers = #stablehlo.gather<collapsed_slice_dims = [0, 1], start_index_map = [0, 1], index_vector_dim = 4>, slice_sizes = array<i64: 1, 1>}> : (tensor<1x7xi32>, tensor<1x1x1x7x2xi64>) -> tensor<1x1x1x7xi32> loc(#loc476)
    %95 = stablehlo.reshape %94 : (tensor<1x1x1x7xi32>) -> tensor<1x1x7xi32> loc(#loc477)
    %96 = stablehlo.broadcast_in_dim %95, dims = [0, 1, 3] : (tensor<1x1x7xi32>) -> tensor<1x1x7x7xi32> loc(#loc478)
    %97 = stablehlo.compare  EQ, %93, %96 : (tensor<1x1x7x7xi32>, tensor<1x1x7x7xi32>) -> tensor<1x1x7x7xi1> loc(#loc479)
    %98 = stablehlo.and %89, %97 : tensor<1x1x7x7xi1> loc(#loc480)
    %99 = stablehlo.select %98, %7, %5 : tensor<1x1x7x7xi1>, tensor<1x1x7x7xbf16> loc(#loc481)
    %100 = stablehlo.convert %99 : (tensor<1x1x7x7xbf16>) -> tensor<1x1x7x7xf32> loc(#loc482)
    %101 = stablehlo.reshape %100 : (tensor<1x1x7x7xf32>) -> tensor<1x7x7xf32> loc(#loc483)
    %102 = stablehlo.broadcast_in_dim %101, dims = [0, 2, 3] : (tensor<1x7x7xf32>) -> tensor<1x32x7x7xf32> loc(#loc484)
    %103 = stablehlo.add %84, %102 : tensor<1x32x7x7xf32> loc(#loc485)
    %104 = stablehlo.convert %103 : (tensor<1x32x7x7xf32>) -> tensor<1x32x7x7xf64> loc(#loc486)
    %105 = stablehlo.compare  EQ, %104, %3 : (tensor<1x32x7x7xf64>, tensor<1x32x7x7xf64>) -> tensor<1x32x7x7xi1> loc(#loc487)
    %106 = stablehlo.not %105 : tensor<1x32x7x7xi1> loc(#loc488)
    %107 = stablehlo.reduce(%106 init: %18) across dimensions = [3] : (tensor<1x32x7x7xi1>, tensor<i1>) -> tensor<1x32x7xi1>
     reducer(%arg401: tensor<i1> loc("reduce.1859"), %arg402: tensor<i1> loc("reduce.1859"))  {
      %3878 = sdy.constant dense<true> : tensor<i1> loc(#loc)
      %3879 = sdy.constant dense<false> : tensor<i1> loc(#loc)
      %3880 = stablehlo.or %arg401, %arg402 : tensor<i1> loc(#loc490)
      %3881 = stablehlo.select %3880, %3878, %3879 : tensor<i1>, tensor<i1> loc(#loc491)
      stablehlo.return %3881 : tensor<i1> loc(#loc)
    } loc(#loc489)
    %108 = stablehlo.reshape %107 : (tensor<1x32x7xi1>) -> tensor<1x32x7x1xi1> loc(#loc492)
    %109 = stablehlo.not %108 : tensor<1x32x7x1xi1> loc(#loc493)
    %110 = stablehlo.reshape %109 : (tensor<1x32x7x1xi1>) -> tensor<1x32x7xi1> loc(#loc494)
    %111 = stablehlo.broadcast_in_dim %110, dims = [0, 1, 2] : (tensor<1x32x7xi1>) -> tensor<1x32x7x7xi1> loc(#loc495)
    %112 = stablehlo.reduce(%103 init: %17) applies stablehlo.maximum across dimensions = [3] : (tensor<1x32x7x7xf32>, tensor<f32>) -> tensor<1x32x7xf32> loc(#loc496)
    %113 = stablehlo.broadcast_in_dim %112, dims = [0, 1, 2] : (tensor<1x32x7xf32>) -> tensor<1x32x7x7xf32> loc(#loc497)
    %114 = stablehlo.subtract %103, %113 : tensor<1x32x7x7xf32> loc(#loc498)
    %115 = stablehlo.exponential %114 : tensor<1x32x7x7xf32> loc(#loc499)
    %116 = stablehlo.reduce(%115 init: %20) applies stablehlo.add across dimensions = [3] : (tensor<1x32x7x7xf32>, tensor<f32>) -> tensor<1x32x7xf32> loc(#loc500)
    %117 = stablehlo.broadcast_in_dim %116, dims = [0, 1, 2] : (tensor<1x32x7xf32>) -> tensor<1x32x7x7xf32> loc(#loc501)
    %118 = stablehlo.divide %115, %117 : tensor<1x32x7x7xf32> loc(#loc502)
    %119 = stablehlo.select %111, %1, %118 : tensor<1x32x7x7xi1>, tensor<1x32x7x7xf32> loc(#loc503)
    %120 = stablehlo.reshape %arg215 : (tensor<1024x2560xbf16>) -> tensor<1x1024x2560xbf16> loc(#loc504)
    %121 = stablehlo.reshape %120 : (tensor<1x1024x2560xbf16>) -> tensor<1024x2560xbf16> loc(#loc505)
    %122 = stablehlo.transpose %121, dims = [1, 0] {result_layout = dense<[0, 1]> : tensor<2xindex>, xla_shape = "bf16[2560,1024]{0,1}"} : (tensor<1024x2560xbf16>) -> tensor<2560x1024xbf16> loc(#loc506)
    %123 = stablehlo.dot_general %31, %122, contracting_dims = [1] x [0] : (tensor<7x2560xbf16>, tensor<2560x1024xbf16>) -> tensor<7x1024xbf16> loc(#loc507)
    %124 = stablehlo.reshape %123 : (tensor<7x1024xbf16>) -> tensor<1x7x8x128xbf16> loc(#loc508)
    %125 = stablehlo.transpose %124, dims = [0, 2, 1, 3] {result_layout = dense<[3, 1, 2, 0]> : tensor<4xindex>, xla_shape = "bf16[1,8,7,128]{3,1,2,0}"} : (tensor<1x7x8x128xbf16>) -> tensor<1x8x7x128xbf16> loc(#loc509)
    %126 = stablehlo.broadcast_in_dim %125, dims = [0, 1, 3, 4] : (tensor<1x8x7x128xbf16>) -> tensor<1x8x4x7x128xbf16> loc(#loc510)
    %127 = stablehlo.reshape %126 : (tensor<1x8x4x7x128xbf16>) -> tensor<1x32x7x128xbf16> loc(#loc511)
    %128 = stablehlo.convert %127 : (tensor<1x32x7x128xbf16>) -> tensor<1x32x7x128xf32> loc(#loc512)
    %129 = stablehlo.dot_general %119, %128, batching_dims = [0, 1] x [0, 1], contracting_dims = [3] x [2] {mhlo.frontend_attributes = {grad_x = "false", grad_y = "false"}} : (tensor<1x32x7x7xf32>, tensor<1x32x7x128xf32>) -> tensor<1x32x7x128xf32> loc(#loc513)
    %130 = stablehlo.convert %129 : (tensor<1x32x7x128xf32>) -> tensor<1x32x7x128xbf16> loc(#loc514)
    %131 = stablehlo.transpose %130, dims = [0, 2, 1, 3] {result_layout = dense<[3, 1, 2, 0]> : tensor<4xindex>, xla_shape = "bf16[1,7,32,128]{3,1,2,0}"} : (tensor<1x32x7x128xbf16>) -> tensor<1x7x32x128xbf16> loc(#loc515)
    %132 = stablehlo.reshape %131 : (tensor<1x7x32x128xbf16>) -> tensor<7x4096xbf16> loc(#loc516)
    %133 = stablehlo.reshape %arg214 : (tensor<2560x4096xbf16>) -> tensor<1x2560x4096xbf16> loc(#loc517)
    %134 = stablehlo.reshape %133 : (tensor<1x2560x4096xbf16>) -> tensor<2560x4096xbf16> loc(#loc518)
    %135 = stablehlo.transpose %134, dims = [1, 0] {result_layout = dense<[0, 1]> : tensor<2xindex>, xla_shape = "bf16[4096,2560]{0,1}"} : (tensor<2560x4096xbf16>) -> tensor<4096x2560xbf16> loc(#loc519)
    %136 = stablehlo.dot_general %132, %135, contracting_dims = [1] x [0] : (tensor<7x4096xbf16>, tensor<4096x2560xbf16>) -> tensor<7x2560xbf16> loc(#loc520)
    %137 = stablehlo.reshape %136 : (tensor<7x2560xbf16>) -> tensor<1x7x2560xbf16> loc(#loc521)
    %138 = stablehlo.add %27, %137 : tensor<1x7x2560xbf16> loc(#loc522)
    %139 = stablehlo.reshape %arg213 : (tensor<2560xbf16>) -> tensor<1x1x2560xbf16> loc(#loc523)
    %140 = stablehlo.reshape %139 : (tensor<1x1x2560xbf16>) -> tensor<2560xbf16> loc(#loc524)
    %141 = stablehlo.composite "tenstorrent.rms_norm" %138, %140 {composite_attributes = {epsilon = 9.99999997E-7 : f32, normalized_shape = dense<2560> : tensor<1xi64>}, decomposition = @tenstorrent.rms_norm.impl_41} : (tensor<1x7x2560xbf16>, tensor<2560xbf16>) -> tensor<1x7x2560xbf16> loc(#loc525)
    %142 = stablehlo.reshape %141 : (tensor<1x7x2560xbf16>) -> tensor<7x2560xbf16> loc(#loc526)
    %143 = stablehlo.reshape %arg225 : (tensor<9728x2560xbf16>) -> tensor<1x9728x2560xbf16> loc(#loc527)
    %144 = stablehlo.reshape %143 : (tensor<1x9728x2560xbf16>) -> tensor<9728x2560xbf16> loc(#loc528)
    %145 = stablehlo.transpose %144, dims = [1, 0] {result_layout = dense<[0, 1]> : tensor<2xindex>, xla_shape = "bf16[2560,9728]{0,1}"} : (tensor<9728x2560xbf16>) -> tensor<2560x9728xbf16> loc(#loc529)
    %146 = stablehlo.dot_general %142, %145, contracting_dims = [1] x [0] : (tensor<7x2560xbf16>, tensor<2560x9728xbf16>) -> tensor<7x9728xbf16> loc(#loc530)
    %147 = stablehlo.reshape %146 : (tensor<7x9728xbf16>) -> tensor<1x7x9728xbf16> loc(#loc531)
    %148 = stablehlo.convert %147 : (tensor<1x7x9728xbf16>) -> tensor<1x7x9728xf32> loc(#loc532)
    %149 = stablehlo.logistic %148 : tensor<1x7x9728xf32> loc(#loc533)
    %150 = stablehlo.multiply %148, %149 : tensor<1x7x9728xf32> loc(#loc534)
    %151 = stablehlo.convert %150 : (tensor<1x7x9728xf32>) -> tensor<1x7x9728xbf16> loc(#loc535)
    %152 = stablehlo.reshape %arg212 : (tensor<9728x2560xbf16>) -> tensor<1x9728x2560xbf16> loc(#loc536)
    %153 = stablehlo.reshape %152 : (tensor<1x9728x2560xbf16>) -> tensor<9728x2560xbf16> loc(#loc537)
    %154 = stablehlo.transpose %153, dims = [1, 0] {result_layout = dense<[0, 1]> : tensor<2xindex>, xla_shape = "bf16[2560,9728]{0,1}"} : (tensor<9728x2560xbf16>) -> tensor<2560x9728xbf16> loc(#loc538)
    %155 = stablehlo.dot_general %142, %154, contracting_dims = [1] x [0] : (tensor<7x2560xbf16>, tensor<2560x9728xbf16>) -> tensor<7x9728xbf16> loc(#loc539)
    %156 = stablehlo.reshape %155 : (tensor<7x9728xbf16>) -> tensor<1x7x9728xbf16> loc(#loc540)
    %157 = stablehlo.multiply %151, %156 : tensor<1x7x9728xbf16> loc(#loc541)
    %158 = stablehlo.reshape %157 : (tensor<1x7x9728xbf16>) -> tensor<7x9728xbf16> loc(#loc542)
    %159 = stablehlo.reshape %arg211 : (tensor<2560x9728xbf16>) -> tensor<1x2560x9728xbf16> loc(#loc543)
    %160 = stablehlo.reshape %159 : (tensor<1x2560x9728xbf16>) -> tensor<2560x9728xbf16> loc(#loc544)
    %161 = stablehlo.transpose %160, dims = [1, 0] {result_layout = dense<[0, 1]> : tensor<2xindex>, xla_shape = "bf16[9728,2560]{0,1}"} : (tensor<2560x9728xbf16>) -> tensor<9728x2560xbf16> loc(#loc545)
    %162 = stablehlo.dot_general %158, %161, contracting_dims = [1] x [0] : (tensor<7x9728xbf16>, tensor<9728x2560xbf16>) -> tensor<7x2560xbf16> loc(#loc546)
    %163 = stablehlo.reshape %162 : (tensor<7x2560xbf16>) -> tensor<1x7x2560xbf16> loc(#loc547)
    %164 = stablehlo.add %138, %163 : tensor<1x7x2560xbf16> loc(#loc548)
    %165 = stablehlo.reshape %arg210 : (tensor<2560xbf16>) -> tensor<1x1x2560xbf16> loc(#loc549)
    %166 = stablehlo.reshape %165 : (tensor<1x1x2560xbf16>) -> tensor<2560xbf16> loc(#loc550)
    %167 = stablehlo.composite "tenstorrent.rms_norm" %164, %166 {composite_attributes = {epsilon = 9.99999997E-7 : f32, normalized_shape = dense<2560> : tensor<1xi64>}, decomposition = @tenstorrent.rms_norm.impl_38} : (tensor<1x7x2560xbf16>, tensor<2560xbf16>) -> tensor<1x7x2560xbf16> loc(#loc551)
    %168 = stablehlo.reshape %167 : (tensor<1x7x2560xbf16>) -> tensor<7x2560xbf16> loc(#loc552)
    %169 = stablehlo.reshape %arg229 : (tensor<4096x2560xbf16>) -> tensor<1x4096x2560xbf16> loc(#loc553)
    %170 = stablehlo.reshape %169 : (tensor<1x4096x2560xbf16>) -> tensor<4096x2560xbf16> loc(#loc554)
    %171 = stablehlo.transpose %170, dims = [1, 0] {result_layout = dense<[0, 1]> : tensor<2xindex>, xla_shape = "bf16[2560,4096]{0,1}"} : (tensor<4096x2560xbf16>) -> tensor<2560x4096xbf16> loc(#loc555)
    %172 = stablehlo.dot_general %168, %171, contracting_dims = [1] x [0] : (tensor<7x2560xbf16>, tensor<2560x4096xbf16>) -> tensor<7x4096xbf16> loc(#loc556)
    %173 = stablehlo.reshape %172 : (tensor<7x4096xbf16>) -> tensor<1x7x32x128xbf16> loc(#loc557)
    %174 = stablehlo.reshape %arg228 : (tensor<128xbf16>) -> tensor<1x1x128xbf16> loc(#loc558)
    %175 = stablehlo.reshape %174 : (tensor<1x1x128xbf16>) -> tensor<128xbf16> loc(#loc559)
    %176 = stablehlo.composite "tenstorrent.rms_norm" %173, %175 {composite_attributes = {epsilon = 9.99999997E-7 : f32, normalized_shape = dense<128> : tensor<1xi64>}, decomposition = @tenstorrent.rms_norm.impl_58} : (tensor<1x7x32x128xbf16>, tensor<128xbf16>) -> tensor<1x7x32x128xbf16> loc(#loc560)
    %177 = stablehlo.transpose %176, dims = [0, 2, 1, 3] {result_layout = dense<[3, 1, 2, 0]> : tensor<4xindex>, xla_shape = "bf16[1,32,7,128]{3,1,2,0}"} : (tensor<1x7x32x128xbf16>) -> tensor<1x32x7x128xbf16> loc(#loc561)
    %178 = stablehlo.multiply %177, %48 : tensor<1x32x7x128xbf16> loc(#loc562)
    %179 = stablehlo.slice %177 [0:1, 0:32, 0:7, 64:128] : (tensor<1x32x7x128xbf16>) -> tensor<1x32x7x64xbf16> loc(#loc563)
    %180 = stablehlo.negate %179 : tensor<1x32x7x64xbf16> loc(#loc564)
    %181 = stablehlo.slice %177 [0:1, 0:32, 0:7, 0:64] : (tensor<1x32x7x128xbf16>) -> tensor<1x32x7x64xbf16> loc(#loc565)
    %182 = stablehlo.concatenate %180, %181, dim = 3 : (tensor<1x32x7x64xbf16>, tensor<1x32x7x64xbf16>) -> tensor<1x32x7x128xbf16> loc(#loc566)
    %183 = stablehlo.multiply %182, %56 : tensor<1x32x7x128xbf16> loc(#loc567)
    %184 = stablehlo.add %178, %183 : tensor<1x32x7x128xbf16> loc(#loc568)
    %185 = stablehlo.convert %184 : (tensor<1x32x7x128xbf16>) -> tensor<1x32x7x128xf32> loc(#loc569)
    %186 = stablehlo.multiply %185, %15 : tensor<1x32x7x128xf32> loc(#loc570)
    %187 = stablehlo.reshape %arg227 : (tensor<1024x2560xbf16>) -> tensor<1x1024x2560xbf16> loc(#loc571)
    %188 = stablehlo.reshape %187 : (tensor<1x1024x2560xbf16>) -> tensor<1024x2560xbf16> loc(#loc572)
    %189 = stablehlo.transpose %188, dims = [1, 0] {result_layout = dense<[0, 1]> : tensor<2xindex>, xla_shape = "bf16[2560,1024]{0,1}"} : (tensor<1024x2560xbf16>) -> tensor<2560x1024xbf16> loc(#loc573)
    %190 = stablehlo.dot_general %168, %189, contracting_dims = [1] x [0] : (tensor<7x2560xbf16>, tensor<2560x1024xbf16>) -> tensor<7x1024xbf16> loc(#loc574)
    %191 = stablehlo.reshape %190 : (tensor<7x1024xbf16>) -> tensor<1x7x8x128xbf16> loc(#loc575)
    %192 = stablehlo.reshape %arg226 : (tensor<128xbf16>) -> tensor<1x1x128xbf16> loc(#loc576)
    %193 = stablehlo.reshape %192 : (tensor<1x1x128xbf16>) -> tensor<128xbf16> loc(#loc577)
    %194 = stablehlo.composite "tenstorrent.rms_norm" %191, %193 {composite_attributes = {epsilon = 9.99999997E-7 : f32, normalized_shape = dense<128> : tensor<1xi64>}, decomposition = @tenstorrent.rms_norm.impl_32} : (tensor<1x7x8x128xbf16>, tensor<128xbf16>) -> tensor<1x7x8x128xbf16> loc(#loc578)
    %195 = stablehlo.transpose %194, dims = [0, 2, 1, 3] {result_layout = dense<[3, 1, 2, 0]> : tensor<4xindex>, xla_shape = "bf16[1,8,7,128]{3,1,2,0}"} : (tensor<1x7x8x128xbf16>) -> tensor<1x8x7x128xbf16> loc(#loc579)
    %196 = stablehlo.multiply %195, %70 : tensor<1x8x7x128xbf16> loc(#loc580)
    %197 = stablehlo.slice %195 [0:1, 0:8, 0:7, 64:128] : (tensor<1x8x7x128xbf16>) -> tensor<1x8x7x64xbf16> loc(#loc581)
    %198 = stablehlo.negate %197 : tensor<1x8x7x64xbf16> loc(#loc582)
    %199 = stablehlo.slice %195 [0:1, 0:8, 0:7, 0:64] : (tensor<1x8x7x128xbf16>) -> tensor<1x8x7x64xbf16> loc(#loc583)
    %200 = stablehlo.concatenate %198, %199, dim = 3 : (tensor<1x8x7x64xbf16>, tensor<1x8x7x64xbf16>) -> tensor<1x8x7x128xbf16> loc(#loc584)
    %201 = stablehlo.multiply %200, %76 : tensor<1x8x7x128xbf16> loc(#loc585)
    %202 = stablehlo.add %196, %201 : tensor<1x8x7x128xbf16> loc(#loc586)
    %203 = stablehlo.broadcast_in_dim %202, dims = [0, 1, 3, 4] : (tensor<1x8x7x128xbf16>) -> tensor<1x8x4x7x128xbf16> loc(#loc587)
    %204 = stablehlo.reshape %203 : (tensor<1x8x4x7x128xbf16>) -> tensor<1x32x7x128xbf16> loc(#loc588)
    %205 = stablehlo.convert %204 : (tensor<1x32x7x128xbf16>) -> tensor<1x32x7x128xf32> loc(#loc589)
    %206 = stablehlo.transpose %205, dims = [0, 1, 3, 2] {result_layout = dense<[2, 3, 1, 0]> : tensor<4xindex>, xla_shape = "f32[1,32,128,7]{2,3,1,0}"} : (tensor<1x32x7x128xf32>) -> tensor<1x32x128x7xf32> loc(#loc590)
    %207 = stablehlo.multiply %206, %13 : tensor<1x32x128x7xf32> loc(#loc591)
    %208 = stablehlo.dot_general %186, %207, batching_dims = [0, 1] x [0, 1], contracting_dims = [3] x [2] {mhlo.frontend_attributes = {grad_x = "false", grad_y = "false"}} : (tensor<1x32x7x128xf32>, tensor<1x32x128x7xf32>) -> tensor<1x32x7x7xf32> loc(#loc592)
    %209 = stablehlo.add %208, %102 : tensor<1x32x7x7xf32> loc(#loc593)
    %210 = stablehlo.convert %209 : (tensor<1x32x7x7xf32>) -> tensor<1x32x7x7xf64> loc(#loc594)
    %211 = stablehlo.compare  EQ, %210, %3 : (tensor<1x32x7x7xf64>, tensor<1x32x7x7xf64>) -> tensor<1x32x7x7xi1> loc(#loc595)
    %212 = stablehlo.not %211 : tensor<1x32x7x7xi1> loc(#loc596)
    %213 = stablehlo.reduce(%212 init: %18) across dimensions = [3] : (tensor<1x32x7x7xi1>, tensor<i1>) -> tensor<1x32x7xi1>
     reducer(%arg401: tensor<i1> loc("reduce.2192"), %arg402: tensor<i1> loc("reduce.2192"))  {
      %3878 = sdy.constant dense<true> : tensor<i1> loc(#loc)
      %3879 = sdy.constant dense<false> : tensor<i1> loc(#loc)
      %3880 = stablehlo.or %arg401, %arg402 : tensor<i1> loc(#loc598)
      %3881 = stablehlo.select %3880, %3878, %3879 : tensor<i1>, tensor<i1> loc(#loc599)
      stablehlo.return %3881 : tensor<i1> loc(#loc)
    } loc(#loc597)
    %214 = stablehlo.reshape %213 : (tensor<1x32x7xi1>) -> tensor<1x32x7x1xi1> loc(#loc600)
    %215 = stablehlo.not %214 : tensor<1x32x7x1xi1> loc(#loc601)
    %216 = stablehlo.reshape %215 : (tensor<1x32x7x1xi1>) -> tensor<1x32x7xi1> loc(#loc602)
    %217 = stablehlo.broadcast_in_dim %216, dims = [0, 1, 2] : (tensor<1x32x7xi1>) -> tensor<1x32x7x7xi1> loc(#loc603)
    %218 = stablehlo.reduce(%209 init: %17) applies stablehlo.maximum across dimensions = [3] : (tensor<1x32x7x7xf32>, tensor<f32>) -> tensor<1x32x7xf32> loc(#loc604)
    %219 = stablehlo.broadcast_in_dim %218, dims = [0, 1, 2] : (tensor<1x32x7xf32>) -> tensor<1x32x7x7xf32> loc(#loc605)
    %220 = stablehlo.subtract %209, %219 : tensor<1x32x7x7xf32> loc(#loc606)
    %221 = stablehlo.exponential %220 : tensor<1x32x7x7xf32> loc(#loc607)
    %222 = stablehlo.reduce(%221 init: %20) applies stablehlo.add across dimensions = [3] : (tensor<1x32x7x7xf32>, tensor<f32>) -> tensor<1x32x7xf32> loc(#loc608)
    %223 = stablehlo.broadcast_in_dim %222, dims = [0, 1, 2] : (tensor<1x32x7xf32>) -> tensor<1x32x7x7xf32> loc(#loc609)
    %224 = stablehlo.divide %221, %223 : tensor<1x32x7x7xf32> loc(#loc610)
    %225 = stablehlo.select %217, %1, %224 : tensor<1x32x7x7xi1>, tensor<1x32x7x7xf32> loc(#loc611)
    %226 = stablehlo.reshape %arg209 : (tensor<1024x2560xbf16>) -> tensor<1x1024x2560xbf16> loc(#loc612)
    %227 = stablehlo.reshape %226 : (tensor<1x1024x2560xbf16>) -> tensor<1024x2560xbf16> loc(#loc613)
    %228 = stablehlo.transpose %227, dims = [1, 0] {result_layout = dense<[0, 1]> : tensor<2xindex>, xla_shape = "bf16[2560,1024]{0,1}"} : (tensor<1024x2560xbf16>) -> tensor<2560x1024xbf16> loc(#loc614)
    %229 = stablehlo.dot_general %168, %228, contracting_dims = [1] x [0] : (tensor<7x2560xbf16>, tensor<2560x1024xbf16>) -> tensor<7x1024xbf16> loc(#loc615)
    %230 = stablehlo.reshape %229 : (tensor<7x1024xbf16>) -> tensor<1x7x8x128xbf16> loc(#loc616)
    %231 = stablehlo.transpose %230, dims = [0, 2, 1, 3] {result_layout = dense<[3, 1, 2, 0]> : tensor<4xindex>, xla_shape = "bf16[1,8,7,128]{3,1,2,0}"} : (tensor<1x7x8x128xbf16>) -> tensor<1x8x7x128xbf16> loc(#loc617)
    %232 = stablehlo.broadcast_in_dim %231, dims = [0, 1, 3, 4] : (tensor<1x8x7x128xbf16>) -> tensor<1x8x4x7x128xbf16> loc(#loc618)
    %233 = stablehlo.reshape %232 : (tensor<1x8x4x7x128xbf16>) -> tensor<1x32x7x128xbf16> loc(#loc619)
    %234 = stablehlo.convert %233 : (tensor<1x32x7x128xbf16>) -> tensor<1x32x7x128xf32> loc(#loc620)
    %235 = stablehlo.dot_general %225, %234, batching_dims = [0, 1] x [0, 1], contracting_dims = [3] x [2] {mhlo.frontend_attributes = {grad_x = "false", grad_y = "false"}} : (tensor<1x32x7x7xf32>, tensor<1x32x7x128xf32>) -> tensor<1x32x7x128xf32> loc(#loc621)
    %236 = stablehlo.convert %235 : (tensor<1x32x7x128xf32>) -> tensor<1x32x7x128xbf16> loc(#loc622)
    %237 = stablehlo.transpose %236, dims = [0, 2, 1, 3] {result_layout = dense<[3, 1, 2, 0]> : tensor<4xindex>, xla_shape = "bf16[1,7,32,128]{3,1,2,0}"} : (tensor<1x32x7x128xbf16>) -> tensor<1x7x32x128xbf16> loc(#loc623)
    %238 = stablehlo.reshape %237 : (tensor<1x7x32x128xbf16>) -> tensor<7x4096xbf16> loc(#loc624)
    %239 = stablehlo.reshape %arg208 : (tensor<2560x4096xbf16>) -> tensor<1x2560x4096xbf16> loc(#loc625)
    %240 = stablehlo.reshape %239 : (tensor<1x2560x4096xbf16>) -> tensor<2560x4096xbf16> loc(#loc626)
    %241 = stablehlo.transpose %240, dims = [1, 0] {result_layout = dense<[0, 1]> : tensor<2xindex>, xla_shape = "bf16[4096,2560]{0,1}"} : (tensor<2560x4096xbf16>) -> tensor<4096x2560xbf16> loc(#loc627)
    %242 = stablehlo.dot_general %238, %241, contracting_dims = [1] x [0] : (tensor<7x4096xbf16>, tensor<4096x2560xbf16>) -> tensor<7x2560xbf16> loc(#loc628)
    %243 = stablehlo.reshape %242 : (tensor<7x2560xbf16>) -> tensor<1x7x2560xbf16> loc(#loc629)
    %244 = stablehlo.add %164, %243 : tensor<1x7x2560xbf16> loc(#loc630)
    %245 = stablehlo.reshape %arg207 : (tensor<2560xbf16>) -> tensor<1x1x2560xbf16> loc(#loc631)
    %246 = stablehlo.reshape %245 : (tensor<1x1x2560xbf16>) -> tensor<2560xbf16> loc(#loc632)
    %247 = stablehlo.composite "tenstorrent.rms_norm" %244, %246 {composite_attributes = {epsilon = 9.99999997E-7 : f32, normalized_shape = dense<2560> : tensor<1xi64>}, decomposition = @tenstorrent.rms_norm.impl_61} : (tensor<1x7x2560xbf16>, tensor<2560xbf16>) -> tensor<1x7x2560xbf16> loc(#loc633)
    %248 = stablehlo.reshape %247 : (tensor<1x7x2560xbf16>) -> tensor<7x2560xbf16> loc(#loc634)
    %249 = stablehlo.reshape %arg230 : (tensor<9728x2560xbf16>) -> tensor<1x9728x2560xbf16> loc(#loc635)
    %250 = stablehlo.reshape %249 : (tensor<1x9728x2560xbf16>) -> tensor<9728x2560xbf16> loc(#loc636)
    %251 = stablehlo.transpose %250, dims = [1, 0] {result_layout = dense<[0, 1]> : tensor<2xindex>, xla_shape = "bf16[2560,9728]{0,1}"} : (tensor<9728x2560xbf16>) -> tensor<2560x9728xbf16> loc(#loc637)
    %252 = stablehlo.dot_general %248, %251, contracting_dims = [1] x [0] : (tensor<7x2560xbf16>, tensor<2560x9728xbf16>) -> tensor<7x9728xbf16> loc(#loc638)
    %253 = stablehlo.reshape %252 : (tensor<7x9728xbf16>) -> tensor<1x7x9728xbf16> loc(#loc639)
    %254 = stablehlo.convert %253 : (tensor<1x7x9728xbf16>) -> tensor<1x7x9728xf32> loc(#loc640)
    %255 = stablehlo.logistic %254 : tensor<1x7x9728xf32> loc(#loc641)
    %256 = stablehlo.multiply %254, %255 : tensor<1x7x9728xf32> loc(#loc642)
    %257 = stablehlo.convert %256 : (tensor<1x7x9728xf32>) -> tensor<1x7x9728xbf16> loc(#loc643)
    %258 = stablehlo.reshape %arg206 : (tensor<9728x2560xbf16>) -> tensor<1x9728x2560xbf16> loc(#loc644)
    %259 = stablehlo.reshape %258 : (tensor<1x9728x2560xbf16>) -> tensor<9728x2560xbf16> loc(#loc645)
    %260 = stablehlo.transpose %259, dims = [1, 0] {result_layout = dense<[0, 1]> : tensor<2xindex>, xla_shape = "bf16[2560,9728]{0,1}"} : (tensor<9728x2560xbf16>) -> tensor<2560x9728xbf16> loc(#loc646)
    %261 = stablehlo.dot_general %248, %260, contracting_dims = [1] x [0] : (tensor<7x2560xbf16>, tensor<2560x9728xbf16>) -> tensor<7x9728xbf16> loc(#loc647)
    %262 = stablehlo.reshape %261 : (tensor<7x9728xbf16>) -> tensor<1x7x9728xbf16> loc(#loc648)
    %263 = stablehlo.multiply %257, %262 : tensor<1x7x9728xbf16> loc(#loc649)
    %264 = stablehlo.reshape %263 : (tensor<1x7x9728xbf16>) -> tensor<7x9728xbf16> loc(#loc650)
    %265 = stablehlo.reshape %arg205 : (tensor<2560x9728xbf16>) -> tensor<1x2560x9728xbf16> loc(#loc651)
    %266 = stablehlo.reshape %265 : (tensor<1x2560x9728xbf16>) -> tensor<2560x9728xbf16> loc(#loc652)
    %267 = stablehlo.transpose %266, dims = [1, 0] {result_layout = dense<[0, 1]> : tensor<2xindex>, xla_shape = "bf16[9728,2560]{0,1}"} : (tensor<2560x9728xbf16>) -> tensor<9728x2560xbf16> loc(#loc653)
    %268 = stablehlo.dot_general %264, %267, contracting_dims = [1] x [0] : (tensor<7x9728xbf16>, tensor<9728x2560xbf16>) -> tensor<7x2560xbf16> loc(#loc654)
    %269 = stablehlo.reshape %268 : (tensor<7x2560xbf16>) -> tensor<1x7x2560xbf16> loc(#loc655)
    %270 = stablehlo.add %244, %269 : tensor<1x7x2560xbf16> loc(#loc656)
    %271 = stablehlo.reshape %arg204 : (tensor<2560xbf16>) -> tensor<1x1x2560xbf16> loc(#loc657)
    %272 = stablehlo.reshape %271 : (tensor<1x1x2560xbf16>) -> tensor<2560xbf16> loc(#loc658)
    %273 = stablehlo.composite "tenstorrent.rms_norm" %270, %272 {composite_attributes = {epsilon = 9.99999997E-7 : f32, normalized_shape = dense<2560> : tensor<1xi64>}, decomposition = @tenstorrent.rms_norm.impl_36} : (tensor<1x7x2560xbf16>, tensor<2560xbf16>) -> tensor<1x7x2560xbf16> loc(#loc659)
    %274 = stablehlo.reshape %273 : (tensor<1x7x2560xbf16>) -> tensor<7x2560xbf16> loc(#loc660)
    %275 = stablehlo.reshape %arg234 : (tensor<4096x2560xbf16>) -> tensor<1x4096x2560xbf16> loc(#loc661)
    %276 = stablehlo.reshape %275 : (tensor<1x4096x2560xbf16>) -> tensor<4096x2560xbf16> loc(#loc662)
    %277 = stablehlo.transpose %276, dims = [1, 0] {result_layout = dense<[0, 1]> : tensor<2xindex>, xla_shape = "bf16[2560,4096]{0,1}"} : (tensor<4096x2560xbf16>) -> tensor<2560x4096xbf16> loc(#loc663)
    %278 = stablehlo.dot_general %274, %277, contracting_dims = [1] x [0] : (tensor<7x2560xbf16>, tensor<2560x4096xbf16>) -> tensor<7x4096xbf16> loc(#loc664)
    %279 = stablehlo.reshape %278 : (tensor<7x4096xbf16>) -> tensor<1x7x32x128xbf16> loc(#loc665)
    %280 = stablehlo.reshape %arg233 : (tensor<128xbf16>) -> tensor<1x1x128xbf16> loc(#loc666)
    %281 = stablehlo.reshape %280 : (tensor<1x1x128xbf16>) -> tensor<128xbf16> loc(#loc667)
    %282 = stablehlo.composite "tenstorrent.rms_norm" %279, %281 {composite_attributes = {epsilon = 9.99999997E-7 : f32, normalized_shape = dense<128> : tensor<1xi64>}, decomposition = @tenstorrent.rms_norm.impl_37} : (tensor<1x7x32x128xbf16>, tensor<128xbf16>) -> tensor<1x7x32x128xbf16> loc(#loc668)
    %283 = stablehlo.transpose %282, dims = [0, 2, 1, 3] {result_layout = dense<[3, 1, 2, 0]> : tensor<4xindex>, xla_shape = "bf16[1,32,7,128]{3,1,2,0}"} : (tensor<1x7x32x128xbf16>) -> tensor<1x32x7x128xbf16> loc(#loc669)
    %284 = stablehlo.multiply %283, %48 : tensor<1x32x7x128xbf16> loc(#loc670)
    %285 = stablehlo.slice %283 [0:1, 0:32, 0:7, 64:128] : (tensor<1x32x7x128xbf16>) -> tensor<1x32x7x64xbf16> loc(#loc671)
    %286 = stablehlo.negate %285 : tensor<1x32x7x64xbf16> loc(#loc672)
    %287 = stablehlo.slice %283 [0:1, 0:32, 0:7, 0:64] : (tensor<1x32x7x128xbf16>) -> tensor<1x32x7x64xbf16> loc(#loc673)
    %288 = stablehlo.concatenate %286, %287, dim = 3 : (tensor<1x32x7x64xbf16>, tensor<1x32x7x64xbf16>) -> tensor<1x32x7x128xbf16> loc(#loc674)
    %289 = stablehlo.multiply %288, %56 : tensor<1x32x7x128xbf16> loc(#loc675)
    %290 = stablehlo.add %284, %289 : tensor<1x32x7x128xbf16> loc(#loc676)
    %291 = stablehlo.convert %290 : (tensor<1x32x7x128xbf16>) -> tensor<1x32x7x128xf32> loc(#loc677)
    %292 = stablehlo.multiply %291, %15 : tensor<1x32x7x128xf32> loc(#loc678)
    %293 = stablehlo.reshape %arg232 : (tensor<1024x2560xbf16>) -> tensor<1x1024x2560xbf16> loc(#loc679)
    %294 = stablehlo.reshape %293 : (tensor<1x1024x2560xbf16>) -> tensor<1024x2560xbf16> loc(#loc680)
…
#loc4811 = loc("convert.4378")
#loc4814 = loc("convert.4213")
#loc4815 = loc("power.4215")
#loc4816 = loc("reduce.4222")
#loc4817 = loc("multiply.4231")
#loc4818 = loc("reshape.4232")
#loc4819 = loc("add.4236")
#loc4820 = loc("rsqrt.4237")
#loc4821 = loc("reshape.4238")
#loc4822 = loc("broadcast.4239")
#loc4823 = loc("multiply.4240")
#loc4824 = loc("convert.1146")
#loc4825 = loc("broadcast.4241")
#loc4826 = loc("multiply.4242")
#loc4827 = loc("convert.4243")
#loc4830 = loc("convert.4015")
#loc4831 = loc("power.4017")
#loc4832 = loc("reduce.4024")
#loc4833 = loc("multiply.4033")
#loc4834 = loc("reshape.4034")
#loc4835 = loc("add.4038")
#loc4836 = loc("rsqrt.4039")
#loc4837 = loc("reshape.4040")
#loc4838 = loc("broadcast.4041")
#loc4839 = loc("multiply.4042")
#loc4840 = loc("convert.4001")
#loc4841 = loc("broadcast.4043")
#loc4842 = loc("multiply.4044")
#loc4843 = loc("convert.4045")
#loc4846 = loc("convert.2350")
#loc4847 = loc("power.2352")
#loc4848 = loc("reduce.2359")
#loc4849 = loc("multiply.2368")
#loc4850 = loc("reshape.2369")
#loc4851 = loc("add.2373")
#loc4852 = loc("rsqrt.2374")
#loc4853 = loc("reshape.2375")
#loc4854 = loc("broadcast.2376")
#loc4855 = loc("multiply.2377")
#loc4856 = loc("convert.2336")
#loc4857 = loc("broadcast.2378")
#loc4858 = loc("multiply.2379")
#loc4859 = loc("convert.2380")
#loc4862 = loc("convert.2017")
#loc4863 = loc("power.2019")
#loc4864 = loc("reduce.2026")
#loc4865 = loc("multiply.2035")
#loc4866 = loc("reshape.2036")
#loc4867 = loc("add.2040")
#loc4868 = loc("rsqrt.2041")
#loc4869 = loc("reshape.2042")
#loc4870 = loc("broadcast.2043")
#loc4871 = loc("multiply.2044")
#loc4872 = loc("convert.2003")
#loc4873 = loc("broadcast.2045")
#loc4874 = loc("multiply.2046")
#loc4875 = loc("convert.2047")
#loc4878 = loc("convert.5878")
#loc4879 = loc("power.5880")
#loc4880 = loc("reduce.5887")
#loc4881 = loc("multiply.5896")
#loc4882 = loc("reshape.5897")
#loc4883 = loc("add.5901")
#loc4884 = loc("rsqrt.5902")
#loc4885 = loc("reshape.5903")
#loc4886 = loc("broadcast.5904")
#loc4887 = loc("multiply.5905")
#loc4888 = loc("convert.946")
#loc4889 = loc("broadcast.5906")
#loc4890 = loc("multiply.5907")
#loc4891 = loc("convert.5908")
#loc4894 = loc("convert.6932")
#loc4895 = loc("power.6934")
#loc4896 = loc("reduce.6941")
#loc4897 = loc("multiply.6950")
#loc4898 = loc("reshape.6951")
#loc4899 = loc("add.6955")
#loc4900 = loc("rsqrt.6956")
#loc4901 = loc("reshape.6957")
#loc4902 = loc("broadcast.6958")
#loc4903 = loc("multiply.6959")
#loc4904 = loc("convert.806")
#loc4905 = loc("broadcast.6960")
#loc4906 = loc("multiply.6961")
#loc4907 = loc("convert.6962")
#loc4910 = loc("convert.5212")
#loc4911 = loc("power.5214")
#loc4912 = loc("reduce.5221")
#loc4913 = loc("multiply.5230")
#loc4914 = loc("reshape.5231")
#loc4915 = loc("add.5235")
#loc4916 = loc("rsqrt.5236")
#loc4917 = loc("reshape.5237")
#loc4918 = loc("broadcast.5238")
#loc4919 = loc("multiply.5239")
#loc4920 = loc("convert.1026")
#loc4921 = loc("broadcast.5240")
#loc4922 = loc("multiply.5241")
#loc4923 = loc("convert.5242")
#loc4926 = loc("convert.2270")
#loc4927 = loc("power.2272")
#loc4928 = loc("reduce.2279")
#loc4929 = loc("multiply.2288")
#loc4930 = loc("reshape.2289")
#loc4931 = loc("add.2293")
#loc4932 = loc("rsqrt.2294")
#loc4933 = loc("reshape.2295")
#loc4934 = loc("broadcast.2296")
#loc4935 = loc("multiply.2297")
#loc4936 = loc("convert.1366")
#loc4937 = loc("broadcast.2298")
#loc4938 = loc("multiply.2299")
#loc4939 = loc("convert.2300")
#loc4942 = loc("convert.2427")
#loc4943 = loc("power.2429")
#loc4944 = loc("reduce.2436")
#loc4945 = loc("multiply.2445")
#loc4946 = loc("reshape.2446")
#loc4947 = loc("add.2450")
#loc4948 = loc("rsqrt.2451")
#loc4949 = loc("reshape.2452")
#loc4950 = loc("broadcast.2453")
#loc4951 = loc("multiply.2454")
#loc4952 = loc("convert.2413")
#loc4953 = loc("broadcast.2455")
#loc4954 = loc("multiply.2456")
#loc4955 = loc("convert.2457")
#loc4958 = loc("convert.1937")
#loc4959 = loc("power.1939")
#loc4960 = loc("reduce.1946")
#loc4961 = loc("multiply.1955")
#loc4962 = loc("reshape.1956")
#loc4963 = loc("add.1960")
#loc4964 = loc("rsqrt.1961")
#loc4965 = loc("reshape.1962")
#loc4966 = loc("broadcast.1963")
#loc4967 = loc("multiply.1964")
#loc4968 = loc("convert.1406")
#loc4969 = loc("broadcast.1965")
#loc4970 = loc("multiply.1966")
#loc4971 = loc("convert.1967")
#loc4974 = loc("convert.3602")
#loc4975 = loc("power.3604")
#loc4976 = loc("reduce.3611")
#loc4977 = loc("multiply.3620")
#loc4978 = loc("reshape.3621")
#loc4979 = loc("add.3625")
#loc4980 = loc("rsqrt.3626")
#loc4981 = loc("reshape.3627")
#loc4982 = loc("broadcast.3628")
#loc4983 = loc("multiply.3629")
#loc4984 = loc("convert.1206")
#loc4985 = loc("broadcast.3630")
#loc4986 = loc("multiply.3631")
#loc4987 = loc("convert.3632")
#loc4990 = loc("convert.5933")
#loc4991 = loc("power.5935")
#loc4992 = loc("reduce.5942")
#loc4993 = loc("multiply.5951")
#loc4994 = loc("reshape.5952")
#loc4995 = loc("add.5956")
#loc4996 = loc("rsqrt.5957")
#loc4997 = loc("reshape.5958")
#loc4998 = loc("broadcast.5959")
#loc4999 = loc("multiply.5960")
#loc5000 = loc("convert.926")
#loc5001 = loc("broadcast.5961")
#loc5002 = loc("multiply.5962")
#loc5003 = loc("convert.5963")
#loc5006 = loc("convert.1882")
#loc5007 = loc("power.1884")
#loc5008 = loc("reduce.1891")
#loc5009 = loc("multiply.1900")
#loc5010 = loc("reshape.1901")
#loc5011 = loc("add.1905")
#loc5012 = loc("rsqrt.1906")
#loc5013 = loc("reshape.1907")
#loc5014 = loc("broadcast.1908")
#loc5015 = loc("multiply.1909")
#loc5016 = loc("convert.1426")
#loc5017 = loc("broadcast.1910")
#loc5018 = loc("multiply.1911")
#loc5019 = loc("convert.1912")
#loc5022 = loc("convert.11008")
#loc5023 = loc("power.11010")
#loc5024 = loc("reduce.11017")
#loc5025 = loc("multiply.11026")
#loc5026 = loc("reshape.11027")
#loc5027 = loc("add.11031")
#loc5028 = loc("rsqrt.11032")
#loc5029 = loc("reshape.11033")
#loc5030 = loc("broadcast.11034")
#loc5031 = loc("multiply.11035")
#loc5032 = loc("convert.10994")
#loc5033 = loc("broadcast.11036")
#loc5034 = loc("multiply.11037")
#loc5035 = loc("convert.11038")
#loc5038 = loc("convert.5757")
#loc5039 = loc("power.5759")
#loc5040 = loc("reduce.5766")
#loc5041 = loc("multiply.5775")
#loc5042 = loc("reshape.5776")
#loc5043 = loc("add.5780")
#loc5044 = loc("rsqrt.5781")
#loc5045 = loc("reshape.5782")
#loc5046 = loc("broadcast.5783")
#loc5047 = loc("multiply.5784")
#loc5048 = loc("convert.5743")
#loc5049 = loc("broadcast.5785")
#loc5050 = loc("multiply.5786")
#loc5051 = loc("convert.5787")
#loc5054 = loc("convert.4879")
#loc5055 = loc("power.4881")
#loc5056 = loc("reduce.4888")
#loc5057 = loc("multiply.4897")
#loc5058 = loc("reshape.4898")
#loc5059 = loc("add.4902")
#loc5060 = loc("rsqrt.4903")
#loc5061 = loc("reshape.4904")
#loc5062 = loc("broadcast.4905")
#loc5063 = loc("multiply.4906")
#loc5064 = loc("convert.1066")
#loc5065 = loc("broadcast.4907")
#loc5066 = loc("multiply.4908")
#loc5067 = loc("convert.4909")
#loc5070 = loc("convert.4601")
#loc5071 = loc("power.4603")
#loc5072 = loc("reduce.4610")
#loc5073 = loc("multiply.4619")
#loc5074 = loc("reshape.4620")
#loc5075 = loc("add.4624")
#loc5076 = loc("rsqrt.4625")
#loc5077 = loc("reshape.4626")
#loc5078 = loc("broadcast.4627")
#loc5079 = loc("multiply.4628")
#loc5080 = loc("convert.1086")
#loc5081 = loc("broadcast.4629")
#loc5082 = loc("multiply.4630")
#loc5083 = loc("convert.4631")
#loc5086 = loc("convert.1761")
#loc5087 = loc("power.1763")
#loc5088 = loc("reduce.1770")
#loc5089 = loc("multiply.1779")
#loc5090 = loc("reshape.1780")
#loc5091 = loc("add.1784")
#loc5092 = loc("rsqrt.1785")
#loc5093 = loc("reshape.1786")
#loc5094 = loc("broadcast.1787")
#loc5095 = loc("multiply.1788")
#loc5096 = loc("convert.1747")
#loc5097 = loc("broadcast.1789")
#loc5098 = loc("multiply.1790")
#loc5099 = loc("convert.1791")
#loc5102 = loc("convert.6346")
#loc5103 = loc("power.6348")
#loc5104 = loc("reduce.6355")
#loc5105 = loc("multiply.6364")
#loc5106 = loc("reshape.6365")
#loc5107 = loc("add.6369")
#loc5108 = loc("rsqrt.6370")
#loc5109 = loc("reshape.6371")
#loc5110 = loc("broadcast.6372")
#loc5111 = loc("multiply.6373")
#loc5112 = loc("convert.6332")
#loc5113 = loc("broadcast.6374")
#loc5114 = loc("multiply.6375")
#loc5115 = loc("convert.6376")
#loc5118 = loc("convert.6544")
#loc5119 = loc("power.6546")
#loc5120 = loc("reduce.6553")
#loc5121 = loc("multiply.6562")
#loc5122 = loc("reshape.6563")
#loc5123 = loc("add.6567")
#loc5124 = loc("rsqrt.6568")
#loc5125 = loc("reshape.6569")
#loc5126 = loc("broadcast.6570")
#loc5127 = loc("multiply.6571")
#loc5128 = loc("convert.866")
#loc5129 = loc("broadcast.6572")
#loc5130 = loc("multiply.6573")
#loc5131 = loc("convert.6574")
#loc5134 = loc("convert.9929")
#loc5135 = loc("power.9931")
#loc5136 = loc("reduce.9938")
#loc5137 = loc("multiply.9947")
#loc5138 = loc("reshape.9948")
#loc5139 = loc("add.9952")
#loc5140 = loc("rsqrt.9953")
#loc5141 = loc("reshape.9954")
#loc5142 = loc("broadcast.9955")
#loc5143 = loc("multiply.9956")
#loc5144 = loc("convert.446")
#loc5145 = loc("broadcast.9957")
#loc5146 = loc("multiply.9958")
#loc5147 = loc("convert.9959")
#loc5150 = loc("convert.11085")
#loc5151 = loc("power.11087")
#loc5152 = loc("reduce.11094")
#loc5153 = loc("multiply.11103")
#loc5154 = loc("reshape.11104")
#loc5155 = loc("add.11108")
#loc5156 = loc("rsqrt.11109")
#loc5157 = loc("reshape.11110")
#loc5158 = loc("broadcast.11111")
#loc5159 = loc("multiply.11112")
#loc5160 = loc("convert.11071")
#loc5161 = loc("broadcast.11113")
#loc5162 = loc("multiply.11114")
#loc5163 = loc("convert.11115")
#loc5166 = loc("convert.10086")
#loc5167 = loc("power.10088")
#loc5168 = loc("reduce.10095")
#loc5169 = loc("multiply.10104")
#loc5170 = loc("reshape.10105")
#loc5171 = loc("add.10109")
#loc5172 = loc("rsqrt.10110")
#loc5173 = loc("reshape.10111")
#loc5174 = loc("broadcast.10112")
#loc5175 = loc("multiply.10113")
#loc5176 = loc("convert.10072")
#loc5177 = loc("broadcast.10114")
#loc5178 = loc("multiply.10115")
#loc5179 = loc("convert.10116")
#loc5182 = loc("convert.5347")
#loc5183 = loc("power.5349")
#loc5184 = loc("reduce.5356")
#loc5185 = loc("multiply.5365")
#loc5186 = loc("reshape.5366")
#loc5187 = loc("add.5370")
#loc5188 = loc("rsqrt.5371")
#loc5189 = loc("reshape.5372")
#loc5190 = loc("broadcast.5373")
#loc5191 = loc("multiply.5374")
#loc5192 = loc("convert.5333")
#loc5193 = loc("broadcast.5375")
#loc5194 = loc("multiply.5376")
#loc5195 = loc("convert.5377")
#loc5198 = loc("convert.8421")
#loc5199 = loc("power.8423")
#loc5200 = loc("reduce.8430")
#loc5201 = loc("multiply.8439")
#loc5202 = loc("reshape.8440")
#loc5203 = loc("add.8444")
#loc5204 = loc("rsqrt.8445")
#loc5205 = loc("reshape.8446")
#loc5206 = loc("broadcast.8447")
#loc5207 = loc("multiply.8448")
#loc5208 = loc("convert.8407")
#loc5209 = loc("broadcast.8449")
#loc5210 = loc("multiply.8450")
#loc5211 = loc("convert.8451")
#loc5214 = loc("convert.2760")
#loc5215 = loc("power.2762")
#loc5216 = loc("reduce.2769")
#loc5217 = loc("multiply.2778")
#loc5218 = loc("reshape.2779")
#loc5219 = loc("add.2783")
#loc5220 = loc("rsqrt.2784")
#loc5221 = loc("reshape.2785")
#loc5222 = loc("broadcast.2786")
#loc5223 = loc("multiply.2787")
#loc5224 = loc("convert.2746")
#loc5225 = loc("broadcast.2788")
#loc5226 = loc("multiply.2789")
#loc5227 = loc("convert.2790")
#loc5230 = loc("convert.3016")
#loc5231 = loc("power.3018")
#loc5232 = loc("reduce.3025")
#loc5233 = loc("multiply.3034")
#loc5234 = loc("reshape.3035")
#loc5235 = loc("add.3039")
#loc5236 = loc("rsqrt.3040")
#loc5237 = loc("reshape.3041")
#loc5238 = loc("broadcast.3042")
#loc5239 = loc("multiply.3043")
#loc5240 = loc("convert.3002")
#loc5241 = loc("broadcast.3044")
#loc5242 = loc("multiply.3045")
#loc5243 = loc("convert.3046")
#loc5246 = loc("convert.13537")
#loc5247 = loc("power.13539")
#loc5248 = loc("reduce.13546")
#loc5249 = loc("multiply.13555")
#loc5250 = loc("reshape.13556")
#loc5251 = loc("add.13560")
#loc5252 = loc("rsqrt.13561")
#loc5253 = loc("reshape.13562")
#loc5254 = loc("broadcast.13563")
#loc5255 = loc("multiply.13564")
#loc5256 = loc("convert.26")
#loc5257 = loc("broadcast.13565")
#loc5258 = loc("multiply.13566")
#loc5259 = loc("convert.13567")
#loc5262 = loc("convert.9087")
#loc5263 = loc("power.9089")
#loc5264 = loc("reduce.9096")
#loc5265 = loc("multiply.9105")
#loc5266 = loc("reshape.9106")
#loc5267 = loc("add.9110")
#loc5268 = loc("rsqrt.9111")
#loc5269 = loc("reshape.9112")
#loc5270 = loc("broadcast.9113")
#loc5271 = loc("multiply.9114")
#loc5272 = loc("convert.9073")
#loc5273 = loc("broadcast.9115")
#loc5274 = loc("multiply.9116")
#loc5275 = loc("convert.9117")
#loc5278 = loc("convert.2094")
#loc5279 = loc("power.2096")
#loc5280 = loc("reduce.2103")
#loc5281 = loc("multiply.2112")
#loc5282 = loc("reshape.2113")
#loc5283 = loc("add.2117")
#loc5284 = loc("rsqrt.2118")
#loc5285 = loc("reshape.2119")
#loc5286 = loc("broadcast.2120")
#loc5287 = loc("multiply.2121")
#loc5288 = loc("convert.2080")
#loc5289 = loc("broadcast.2122")
#loc5290 = loc("multiply.2123")
#loc5291 = loc("convert.2124")
#loc5294 = loc("convert.5680")
#loc5295 = loc("power.5682")
#loc5296 = loc("reduce.5689")
#loc5297 = loc("multiply.5698")
#loc5298 = loc("reshape.5699")
#loc5299 = loc("add.5703")
#loc5300 = loc("rsqrt.5704")
#loc5301 = loc("reshape.5705")
#loc5302 = loc("broadcast.5706")
#loc5303 = loc("multiply.5707")
#loc5304 = loc("convert.5666")
#loc5305 = loc("broadcast.5708")
#loc5306 = loc("multiply.5709")
#loc5307 = loc("convert.5710")
#loc5310 = loc("convert.10928")
#loc5311 = loc("power.10930")
#loc5312 = loc("reduce.10937")
#loc5313 = loc("multiply.10946")
#loc5314 = loc("reshape.10947")
#loc5315 = loc("add.10951")
#loc5316 = loc("rsqrt.10952")
#loc5317 = loc("reshape.10953")
#loc5318 = loc("broadcast.10954")
#loc5319 = loc("multiply.10955")
#loc5320 = loc("convert.326")
#loc5321 = loc("broadcast.10956")
#loc5322 = loc("multiply.10957")
#loc5323 = loc("convert.10958")
#loc5326 = loc("convert.2215")
#loc5327 = loc("power.2217")
#loc5328 = loc("reduce.2224")
#loc5329 = loc("multiply.2233")
#loc5330 = loc("reshape.2234")
#loc5331 = loc("add.2238")
#loc5332 = loc("rsqrt.2239")
#loc5333 = loc("reshape.2240")
#loc5334 = loc("broadcast.2241")
#loc5335 = loc("multiply.2242")
#loc5336 = loc("convert.1386")
#loc5337 = loc("broadcast.2243")
#loc5338 = loc("multiply.2244")
#loc5339 = loc("convert.2245")
#loc5342 = loc("convert.3935")
#loc5343 = loc("power.3937")
#loc5344 = loc("reduce.3944")
#loc5345 = loc("multiply.3953")
#loc5346 = loc("reshape.3954")
#loc5347 = loc("add.3958")
#loc5348 = loc("rsqrt.3959")
#loc5349 = loc("reshape.3960")
#loc5350 = loc("broadcast.3961")
#loc5351 = loc("multiply.3962")
#loc5352 = loc("convert.1166")
#loc5353 = loc("broadcast.3963")
#loc5354 = loc("multiply.3964")
#loc5355 = loc("convert.3965")
#loc5358 = loc("convert.1463")
#loc5359 = loc("power.1465")
#loc5360 = loc("reduce.1472")
#loc5361 = loc("multiply.1481")
#loc5362 = loc("reshape.1482")
#loc5363 = loc("add.1486")
#loc5364 = loc("rsqrt.1487")
#loc5365 = loc("reshape.1488")
#loc5366 = loc("broadcast.1489")
#loc5367 = loc("multiply.1490")
#loc5368 = loc("convert.1446")
#loc5369 = loc("broadcast.1491")
#loc5370 = loc("multiply.1492")
#loc5371 = loc("convert.1493")
#loc5374 = loc("convert.9596")
#loc5375 = loc("power.9598")
#loc5376 = loc("reduce.9605")
#loc5377 = loc("multiply.9614")
#loc5378 = loc("reshape.9615")
#loc5379 = loc("add.9619")
#loc5380 = loc("rsqrt.9620")
#loc5381 = loc("reshape.9621")
#loc5382 = loc("broadcast.9622")
#loc5383 = loc("multiply.9623")
#loc5384 = loc("convert.486")
#loc5385 = loc("broadcast.9624")
#loc5386 = loc("multiply.9625")
#loc5387 = loc("convert.9626")
#loc5390 = loc("convert.11927")
#loc5391 = loc("power.11929")
#loc5392 = loc("reduce.11936")
#loc5393 = loc("multiply.11945")
#loc5394 = loc("reshape.11946")
#loc5395 = loc("add.11950")
#loc5396 = loc("rsqrt.11951")
#loc5397 = loc("reshape.11952")
#loc5398 = loc("broadcast.11953")
#loc5399 = loc("multiply.11954")
#loc5400 = loc("convert.206")
#loc5401 = loc("broadcast.11955")
#loc5402 = loc("multiply.11956")
#loc5403 = loc("convert.11957")
#loc5406 = loc("convert.13204")
#loc5407 = loc("power.13206")
#loc5408 = loc("reduce.13213")
#loc5409 = loc("multiply.13222")
#loc5410 = loc("reshape.13223")
#loc5411 = loc("add.13227")
#loc5412 = loc("rsqrt.13228")
#loc5413 = loc("reshape.13229")
#loc5414 = loc("broadcast.13230")
#loc5415 = loc("multiply.13231")
#loc5416 = loc("convert.66")
#loc5417 = loc("broadcast.13232")
#loc5418 = loc("multiply.13233")
#loc5419 = loc("convert.13234")
#loc5422 = loc("convert.2683")
#loc5423 = loc("power.2685")
#loc5424 = loc("reduce.2692")
#loc5425 = loc("multiply.2701")
#loc5426 = loc("reshape.2702")
#loc5427 = loc("add.2706")
#loc5428 = loc("rsqrt.2707")
#loc5429 = loc("reshape.2708")
#loc5430 = loc("broadcast.2709")
#loc5431 = loc("multiply.2710")
#loc5432 = loc("convert.2669")
#loc5433 = loc("broadcast.2711")
#loc5434 = loc("multiply.2712")
#loc5435 = loc("convert.2713")
#loc5438 = loc("convert.4425")
#loc5439 = loc("power.4427")
#loc5440 = loc("reduce.4434")
#loc5441 = loc("multiply.4443")
#loc5442 = loc("reshape.4444")
#loc5443 = loc("add.4448")
#loc5444 = loc("rsqrt.4449")
#loc5445 = loc("reshape.4450")
#loc5446 = loc("broadcast.4451")
#loc5447 = loc("multiply.4452")
#loc5448 = loc("convert.4411")
#loc5449 = loc("broadcast.4453")
#loc5450 = loc("multiply.4454")
#loc5451 = loc("convert.4455")
#loc5454 = loc("convert.8597")
#loc5455 = loc("power.8599")
#loc5456 = loc("reduce.8606")
#loc5457 = loc("multiply.8615")
#loc5458 = loc("reshape.8616")
#loc5459 = loc("add.8620")
#loc5460 = loc("rsqrt.8621")
#loc5461 = loc("reshape.8622")
#loc5462 = loc("broadcast.8623")
#loc5463 = loc("multiply.8624")
#loc5464 = loc("convert.606")
#loc5465 = loc("broadcast.8625")
#loc5466 = loc("multiply.8626")
#loc5467 = loc("convert.8627")
#loc5470 = loc("convert.4092")
#loc5471 = loc("power.4094")
#loc5472 = loc("reduce.4101")
#loc5473 = loc("multiply.4110")
#loc5474 = loc("reshape.4111")
#loc5475 = loc("add.4115")
#loc5476 = loc("rsqrt.4116")
#loc5477 = loc("reshape.4117")
#loc5478 = loc("broadcast.4118")
#loc5479 = loc("multiply.4119")
#loc5480 = loc("convert.4078")
#loc5481 = loc("broadcast.4120")
#loc5482 = loc("multiply.4121")
#loc5483 = loc("convert.4122")
#loc5486 = loc("convert.9676")
#loc5487 = loc("power.9678")
#loc5488 = loc("reduce.9685")
#loc5489 = loc("multiply.9694")
#loc5490 = loc("reshape.9695")
#loc5491 = loc("add.9699")
#loc5492 = loc("rsqrt.9700")
#loc5493 = loc("reshape.9701")
#loc5494 = loc("broadcast.9702")
#loc5495 = loc("multiply.9703")
#loc5496 = loc("convert.9662")
#loc5497 = loc("broadcast.9704")
#loc5498 = loc("multiply.9705")
#loc5499 = loc("convert.9706")
#loc5502 = loc("convert.2936")
#loc5503 = loc("power.2938")
#loc5504 = loc("reduce.2945")
#loc5505 = loc("multiply.2954")
#loc5506 = loc("reshape.2955")
#loc5507 = loc("add.2959")
#loc5508 = loc("rsqrt.2960")
#loc5509 = loc("reshape.2961")
#loc5510 = loc("broadcast.2962")
#loc5511 = loc("multiply.2963")
#loc5512 = loc("convert.1286")
#loc5513 = loc("broadcast.2964")
#loc5514 = loc("multiply.2965")
#loc5515 = loc("convert.2966")
#loc5518 = loc("convert.3093")
#loc5519 = loc("power.3095")
#loc5520 = loc("reduce.3102")
#loc5521 = loc("multiply.3111")
#loc5522 = loc("reshape.3112")
#loc5523 = loc("add.3116")
#loc5524 = loc("rsqrt.3117")
#loc5525 = loc("reshape.3118")
#loc5526 = loc("broadcast.3119")
#loc5527 = loc("multiply.3120")
#loc5528 = loc("convert.3079")
#loc5529 = loc("broadcast.3121")
#loc5530 = loc("multiply.3122")
#loc5531 = loc("convert.3123")
#loc5534 = loc("convert.6877")
#loc5535 = loc("power.6879")
#loc5536 = loc("reduce.6886")
#loc5537 = loc("multiply.6895")
#loc5538 = loc("reshape.6896")
#loc5539 = loc("add.6900")
#loc5540 = loc("rsqrt.6901")
#loc5541 = loc("reshape.6902")
#loc5542 = loc("broadcast.6903")
#loc5543 = loc("multiply.6904")
#loc5544 = loc("convert.826")
#loc5545 = loc("broadcast.6905")
#loc5546 = loc("multiply.6906")
#loc5547 = loc("convert.6907")
#loc5550 = loc("convert.11341")
#loc5551 = loc("power.11343")
#loc5552 = loc("reduce.11350")
#loc5553 = loc("multiply.11359")
#loc5554 = loc("reshape.11360")
#loc5555 = loc("add.11364")
#loc5556 = loc("rsqrt.11365")
#loc5557 = loc("reshape.11366")
#loc5558 = loc("broadcast.11367")
#loc5559 = loc("multiply.11368")
#loc5560 = loc("convert.11327")
#loc5561 = loc("broadcast.11369")
#loc5562 = loc("multiply.11370")
#loc5563 = loc("convert.11371")
#loc5566 = loc("convert.7345")
#loc5567 = loc("power.7347")
#loc5568 = loc("reduce.7354")
#loc5569 = loc("multiply.7363")
#loc5570 = loc("reshape.7364")
#loc5571 = loc("add.7368")
#loc5572 = loc("rsqrt.7369")
#loc5573 = loc("reshape.7370")
#loc5574 = loc("broadcast.7371")
#loc5575 = loc("multiply.7372")
#loc5576 = loc("convert.7331")
#loc5577 = loc("broadcast.7373")
#loc5578 = loc("multiply.7374")
#loc5579 = loc("convert.7375")
#loc5582 = loc("convert.3214")
#loc5583 = loc("power.3216")
#loc5584 = loc("reduce.3223")
#loc5585 = loc("multiply.3232")
#loc5586 = loc("reshape.3233")
#loc5587 = loc("add.3237")
#loc5588 = loc("rsqrt.3238")
#loc5589 = loc("reshape.3239")
#loc5590 = loc("broadcast.3240")
#loc5591 = loc("multiply.3241")
#loc5592 = loc("convert.1266")
#loc5593 = loc("broadcast.3242")
#loc5594 = loc("multiply.3243")
#loc5595 = loc("convert.3244")
#loc5598 = loc("convert.3349")
#loc5599 = loc("power.3351")
#loc5600 = loc("reduce.3358")
#loc5601 = loc("multiply.3367")
#loc5602 = loc("reshape.3368")
#loc5603 = loc("add.3372")
#loc5604 = loc("rsqrt.3373")
#loc5605 = loc("reshape.3374")
#loc5606 = loc("broadcast.3375")
#loc5607 = loc("multiply.3376")
#loc5608 = loc("convert.3335")
#loc5609 = loc("broadcast.3377")
#loc5610 = loc("multiply.3378")
#loc5611 = loc("convert.3379")
#loc5614 = loc("convert.8088")
#loc5615 = loc("power.8090")
#loc5616 = loc("reduce.8097")
#loc5617 = loc("multiply.8106")
#loc5618 = loc("reshape.8107")
#loc5619 = loc("add.8111")
#loc5620 = loc("rsqrt.8112")
#loc5621 = loc("reshape.8113")
#loc5622 = loc("broadcast.8114")
#loc5623 = loc("multiply.8115")
#loc5624 = loc("convert.8074")
#loc5625 = loc("broadcast.8116")
#loc5626 = loc("multiply.8117")
#loc5627 = loc("convert.8118")
#loc5630 = loc("convert.9874")
#loc5631 = loc("power.9876")
#loc5632 = loc("reduce.9883")
#loc5633 = loc("multiply.9892")
#loc5634 = loc("reshape.9893")
#loc5635 = loc("add.9897")
#loc5636 = loc("rsqrt.9898")
#loc5637 = loc("reshape.9899")
#loc5638 = loc("broadcast.9900")
#loc5639 = loc("multiply.9901")
#loc5640 = loc("convert.466")
#loc5641 = loc("broadcast.9902")
#loc5642 = loc("multiply.9903")
#loc5643 = loc("convert.9904")
#loc5646 = loc("convert.4934")
#loc5647 = loc("power.4936")
#loc5648 = loc("reduce.4943")
#loc5649 = loc("multiply.4952")
#loc5650 = loc("reshape.4953")
#loc5651 = loc("add.4957")
#loc5652 = loc("rsqrt.4958")
#loc5653 = loc("reshape.4959")
#loc5654 = loc("broadcast.4960")
#loc5655 = loc("multiply.4961")
#loc5656 = loc("convert.1046")
#loc5657 = loc("broadcast.4962")
#loc5658 = loc("multiply.4963")
#loc5659 = loc("convert.4964")
#loc5662 = loc("convert.3547")
#loc5663 = loc("power.3549")
#loc5664 = loc("reduce.3556")
#loc5665 = loc("multiply.3565")
#loc5666 = loc("reshape.3566")
#loc5667 = loc("add.3570")
#loc5668 = loc("rsqrt.3571")
#loc5669 = loc("reshape.3572")
#loc5670 = loc("broadcast.3573")
#loc5671 = loc("multiply.3574")
#loc5672 = loc("convert.1226")
#loc5673 = loc("broadcast.3575")
#loc5674 = loc("multiply.3576")
#loc5675 = loc("convert.3577")
#loc5678 = loc("convert.7265")
#loc5679 = loc("power.7267")
#loc5680 = loc("reduce.7274")
#loc5681 = loc("multiply.7283")
#loc5682 = loc("reshape.7284")
#loc5683 = loc("add.7288")
#loc5684 = loc("rsqrt.7289")
#loc5685 = loc("reshape.7290")
#loc5686 = loc("broadcast.7291")
#loc5687 = loc("multiply.7292")
#loc5688 = loc("convert.766")
#loc5689 = loc("broadcast.7293")
#loc5690 = loc("multiply.7294")
#loc5691 = loc("convert.7295")
#loc5694 = loc("convert.3759")
#loc5695 = loc("power.3761")
#loc5696 = loc("reduce.3768")
#loc5697 = loc("multiply.3777")
#loc5698 = loc("reshape.3778")
#loc5699 = loc("add.3782")
#loc5700 = loc("rsqrt.3783")
#loc5701 = loc("reshape.3784")
#loc5702 = loc("broadcast.3785")
#loc5703 = loc("multiply.3786")
#loc5704 = loc("convert.3745")
#loc5705 = loc("broadcast.3787")
#loc5706 = loc("multiply.3788")
#loc5707 = loc("convert.3789")
#loc5710 = loc("convert.9343")
#loc5711 = loc("power.9345")
#loc5712 = loc("reduce.9352")
#loc5713 = loc("multiply.9361")
#loc5714 = loc("reshape.9362")
#loc5715 = loc("add.9366")
#loc5716 = loc("rsqrt.9367")
#loc5717 = loc("reshape.9368")
#loc5718 = loc("broadcast.9369")
#loc5719 = loc("multiply.9370")
#loc5720 = loc("convert.9329")
#loc5721 = loc("broadcast.9371")
#loc5722 = loc("multiply.9372")
#loc5723 = loc("convert.9373")
#loc5726 = loc("convert.1679")
#loc5727 = loc("power.1681")
#loc5728 = loc("reduce.1688")
#loc5729 = loc("multiply.1697")
#loc5730 = loc("reshape.1698")
#loc5731 = loc("add.1702")
#loc5732 = loc("rsqrt.1703")
#loc5733 = loc("reshape.1704")
#loc5734 = loc("broadcast.1705")
#loc5735 = loc("multiply.1706")
#loc5736 = loc("convert.1665")
#loc5737 = loc("broadcast.1707")
#loc5738 = loc("multiply.1708")
#loc5739 = loc("convert.1709")
#loc5742 = loc("convert.3880")
#loc5743 = loc("power.3882")
#loc5744 = loc("reduce.3889")
#loc5745 = loc("multiply.3898")
#loc5746 = loc("reshape.3899")
#loc5747 = loc("add.3903")
#loc5748 = loc("rsqrt.3904")
#loc5749 = loc("reshape.3905")
#loc5750 = loc("broadcast.3906")
#loc5751 = loc("multiply.3907")
#loc5752 = loc("convert.1186")
#loc5753 = loc("broadcast.3908")
#loc5754 = loc("multiply.3909")
#loc5755 = loc("convert.3910")
#loc5758 = loc("convert.6599")
#loc5759 = loc("power.6601")
#loc5760 = loc("reduce.6608")
#loc5761 = loc("multiply.6617")
#loc5762 = loc("reshape.6618")
#loc5763 = loc("add.6622")
#loc5764 = loc("rsqrt.6623")
#loc5765 = loc("reshape.6624")
#loc5766 = loc("broadcast.6625")
#loc5767 = loc("multiply.6626")
#loc5768 = loc("convert.846")
#loc5769 = loc("broadcast.6627")
#loc5770 = loc("multiply.6628")
#loc5771 = loc("convert.6629")
#loc5774 = loc("convert.3682")
#loc5775 = loc("power.3684")
#loc5776 = loc("reduce.3691")
#loc5777 = loc("multiply.3700")
#loc5778 = loc("reshape.3701")
#loc5779 = loc("add.3705")
#loc5780 = loc("rsqrt.3706")
#loc5781 = loc("reshape.3707")
#loc5782 = loc("broadcast.3708")
#loc5783 = loc("multiply.3709")
#loc5784 = loc("convert.3668")
#loc5785 = loc("broadcast.3710")
#loc5786 = loc("multiply.3711")
#loc5787 = loc("convert.3712")
#loc5790 = loc("convert.6756")
#loc5791 = loc("power.6758")
#loc5792 = loc("reduce.6765")
#loc5793 = loc("multiply.6774")
#loc5794 = loc("reshape.6775")
#loc5795 = loc("add.6779")
#loc5796 = loc("rsqrt.6780")
#loc5797 = loc("reshape.6781")
#loc5798 = loc("broadcast.6782")
#loc5799 = loc("multiply.6783")
#loc5800 = loc("convert.6742")
#loc5801 = loc("broadcast.6784")
#loc5802 = loc("multiply.6785")
#loc5803 = loc("convert.6786")
#loc5806 = loc("convert.7089")
#loc5807 = loc("power.7091")
#loc5808 = loc("reduce.7098")
#loc5809 = loc("multiply.7107")
#loc5810 = loc("reshape.7108")
#loc5811 = loc("add.7112")
#loc5812 = loc("rsqrt.7113")
#loc5813 = loc("reshape.7114")
#loc5814 = loc("broadcast.7115")
#loc5815 = loc("multiply.7116")
#loc5816 = loc("convert.7075")
#loc5817 = loc("broadcast.7117")
#loc5818 = loc("multiply.7118")
#loc5819 = loc("convert.7119")
#loc5822 = loc("convert.6679")
#loc5823 = loc("power.6681")
#loc5824 = loc("reduce.6688")
#loc5825 = loc("multiply.6697")
#loc5826 = loc("reshape.6698")
#loc5827 = loc("add.6702")
#loc5828 = loc("rsqrt.6703")
#loc5829 = loc("reshape.6704")
#loc5830 = loc("broadcast.6705")
#loc5831 = loc("multiply.6706")
#loc5832 = loc("convert.6665")
#loc5833 = loc("broadcast.6707")
#loc5834 = loc("multiply.6708")
#loc5835 = loc("convert.6709")
#loc5838 = loc("convert.11539")
#loc5839 = loc("power.11541")
#loc5840 = loc("reduce.11548")
#loc5841 = loc("multiply.11557")
#loc5842 = loc("reshape.11558")
#loc5843 = loc("add.11562")
#loc5844 = loc("rsqrt.11563")
#loc5845 = loc("reshape.11564")
#loc5846 = loc("broadcast.11565")
#loc5847 = loc("multiply.11566")
#loc5848 = loc("convert.266")
#loc5849 = loc("broadcast.11567")
#loc5850 = loc("multiply.11568")
#loc5851 = loc("convert.11569")
#loc5854 = loc("convert.7012")
#loc5855 = loc("power.7014")
#loc5856 = loc("reduce.7021")
#loc5857 = loc("multiply.7030")
#loc5858 = loc("reshape.7031")
#loc5859 = loc("add.7035")
#loc5860 = loc("rsqrt.7036")
#loc5861 = loc("reshape.7037")
#loc5862 = loc("broadcast.7038")
#loc5863 = loc("multiply.7039")
#loc5864 = loc("convert.6998")
#loc5865 = loc("broadcast.7040")
#loc5866 = loc("multiply.7041")
#loc5867 = loc("convert.7042")
#loc5870 = loc("convert.5600")
#loc5871 = loc("power.5602")
#loc5872 = loc("reduce.5609")
#loc5873 = loc("multiply.5618")
#loc5874 = loc("reshape.5619")
#loc5875 = loc("add.5623")
#loc5876 = loc("rsqrt.5624")
#loc5877 = loc("reshape.5625")
#loc5878 = loc("broadcast.5626")
#loc5879 = loc("multiply.5627")
#loc5880 = loc("convert.966")
#loc5881 = loc("broadcast.5628")
#loc5882 = loc("multiply.5629")
#loc5883 = loc("convert.5630")
#loc5886 = loc("convert.7543")
#loc5887 = loc("power.7545")
#loc5888 = loc("reduce.7552")
#loc5889 = loc("multiply.7561")
#loc5890 = loc("reshape.7562")
#loc5891 = loc("add.7566")
#loc5892 = loc("rsqrt.7567")
#loc5893 = loc("reshape.7568")
#loc5894 = loc("broadcast.7569")
#loc5895 = loc("multiply.7570")
#loc5896 = loc("convert.746")
#loc5897 = loc("broadcast.7571")
#loc5898 = loc("multiply.7572")
#loc5899 = loc("convert.7573")
#loc5902 = loc("convert.9263")
#loc5903 = loc("power.9265")
#loc5904 = loc("reduce.9272")
#loc5905 = loc("multiply.9281")
#loc5906 = loc("reshape.9282")
#loc5907 = loc("add.9286")
#loc5908 = loc("rsqrt.9287")
#loc5909 = loc("reshape.9288")
#loc5910 = loc("broadcast.9289")
#loc5911 = loc("multiply.9290")
#loc5912 = loc("convert.526")
#loc5913 = loc("broadcast.9291")
#loc5914 = loc("multiply.9292")
#loc5915 = loc("convert.9293")
#loc5918 = loc("convert.11206")
#loc5919 = loc("power.11208")
#loc5920 = loc("reduce.11215")
#loc5921 = loc("multiply.11224")
#loc5922 = loc("reshape.11225")
#loc5923 = loc("add.11229")
#loc5924 = loc("rsqrt.11230")
#loc5925 = loc("reshape.11231")
#loc5926 = loc("broadcast.11232")
#loc5927 = loc("multiply.11233")
#loc5928 = loc("convert.306")
#loc5929 = loc("broadcast.11234")
#loc5930 = loc("multiply.11235")
#loc5931 = loc("convert.11236")
#loc5934 = loc("convert.7422")
#loc5935 = loc("power.7424")
#loc5936 = loc("reduce.7431")
#loc5937 = loc("multiply.7440")
#loc5938 = loc("reshape.7441")
#loc5939 = loc("add.7445")
#loc5940 = loc("rsqrt.7446")
#loc5941 = loc("reshape.7447")
#loc5942 = loc("broadcast.7448")
#loc5943 = loc("multiply.7449")
#loc5944 = loc("convert.7408")
#loc5945 = loc("broadcast.7450")
#loc5946 = loc("multiply.7451")
#loc5947 = loc("convert.7452")
#loc5950 = loc("convert.8754")
#loc5951 = loc("power.8756")
#loc5952 = loc("reduce.8763")
#loc5953 = loc("multiply.8772")
#loc5954 = loc("reshape.8773")
#loc5955 = loc("add.8777")
#loc5956 = loc("rsqrt.8778")
#loc5957 = loc("reshape.8779")
#loc5958 = loc("broadcast.8780")
#loc5959 = loc("multiply.8781")
#loc5960 = loc("convert.8740")
#loc5961 = loc("broadcast.8782")
#loc5962 = loc("multiply.8783")
#loc5963 = loc("convert.8784")
#loc5966 = loc("convert.7678")
#loc5967 = loc("power.7680")
#loc5968 = loc("reduce.7687")
#loc5969 = loc("multiply.7696")
#loc5970 = loc("reshape.7697")
#loc5971 = loc("add.7701")
#loc5972 = loc("rsqrt.7702")
#loc5973 = loc("reshape.7703")
#loc5974 = loc("broadcast.7704")
#loc5975 = loc("multiply.7705")
#loc5976 = loc("convert.7664")
#loc5977 = loc("broadcast.7706")
#loc5978 = loc("multiply.7707")
#loc5979 = loc("convert.7708")
#loc5982 = loc("convert.10675")
#loc5983 = loc("power.10677")
#loc5984 = loc("reduce.10684")
#loc5985 = loc("multiply.10693")
#loc5986 = loc("reshape.10694")
#loc5987 = loc("add.10698")
#loc5988 = loc("rsqrt.10699")
#loc5989 = loc("reshape.10700")
#loc5990 = loc("broadcast.10701")
#loc5991 = loc("multiply.10702")
#loc5992 = loc("convert.10661")
#loc5993 = loc("broadcast.10703")
#loc5994 = loc("multiply.10704")
#loc5995 = loc("convert.10705")
#loc5998 = loc("convert.2603")
#loc5999 = loc("power.2605")
#loc6000 = loc("reduce.2612")
#loc6001 = loc("multiply.2621")
#loc6002 = loc("reshape.2622")
#loc6003 = loc("add.2626")
#loc6004 = loc("rsqrt.2627")
#loc6005 = loc("reshape.2628")
#loc6006 = loc("broadcast.2629")
#loc6007 = loc("multiply.2630")
#loc6008 = loc("convert.1326")
#loc6009 = loc("broadcast.2631")
#loc6010 = loc("multiply.2632")
#loc6011 = loc("convert.2633")
#loc6014 = loc("convert.7876")
#loc6015 = loc("power.7878")
#loc6016 = loc("reduce.7885")
#loc6017 = loc("multiply.7894")
#loc6018 = loc("reshape.7895")
#loc6019 = loc("add.7899")
#loc6020 = loc("rsqrt.7900")
#loc6021 = loc("reshape.7901")
#loc6022 = loc("broadcast.7902")
#loc6023 = loc("multiply.7903")
#loc6024 = loc("convert.706")
#loc6025 = loc("broadcast.7904")
#loc6026 = loc("multiply.7905")
#loc6027 = loc("convert.7906")
#loc6030 = loc("convert.4546")
#loc6031 = loc("power.4548")
#loc6032 = loc("reduce.4555")
#loc6033 = loc("multiply.4564")
#loc6034 = loc("reshape.4565")
#loc6035 = loc("add.4569")
#loc6036 = loc("rsqrt.4570")
#loc6037 = loc("reshape.4571")
#loc6038 = loc("broadcast.4572")
#loc6039 = loc("multiply.4573")
#loc6040 = loc("convert.1106")
#loc6041 = loc("broadcast.4574")
#loc6042 = loc("multiply.4575")
#loc6043 = loc("convert.4576")
#loc6046 = loc("convert.7931")
#loc6047 = loc("power.7933")
#loc6048 = loc("reduce.7940")
#loc6049 = loc("multiply.7949")
#loc6050 = loc("reshape.7950")
#loc6051 = loc("add.7954")
#loc6052 = loc("rsqrt.7955")
#loc6053 = loc("reshape.7956")
#loc6054 = loc("broadcast.7957")
#loc6055 = loc("multiply.7958")
#loc6056 = loc("convert.686")
#loc6057 = loc("broadcast.7959")
#loc6058 = loc("multiply.7960")
#loc6059 = loc("convert.7961")
#loc6062 = loc("convert.3269")
#loc6063 = loc("power.3271")
#loc6064 = loc("reduce.3278")
#loc6065 = loc("multiply.3287")
#loc6066 = loc("reshape.3288")
#loc6067 = loc("add.3292")
#loc6068 = loc("rsqrt.3293")
#loc6069 = loc("reshape.3294")
#loc6070 = loc("broadcast.3295")
#loc6071 = loc("multiply.3296")
#loc6072 = loc("convert.1246")
#loc6073 = loc("broadcast.3297")
#loc6074 = loc("multiply.3298")
#loc6075 = loc("convert.3299")
#loc6078 = loc("convert.9208")
#loc6079 = loc("power.9210")
#loc6080 = loc("reduce.9217")
#loc6081 = loc("multiply.9226")
#loc6082 = loc("reshape.9227")
#loc6083 = loc("add.9231")
#loc6084 = loc("rsqrt.9232")
#loc6085 = loc("reshape.9233")
#loc6086 = loc("broadcast.9234")
#loc6087 = loc("multiply.9235")
#loc6088 = loc("convert.546")
#loc6089 = loc("broadcast.9236")
#loc6090 = loc("multiply.9237")
#loc6091 = loc("convert.9238")
#loc6094 = loc("convert.8011")
#loc6095 = loc("power.8013")
#loc6096 = loc("reduce.8020")
#loc6097 = loc("multiply.8029")
#loc6098 = loc("reshape.8030")
#loc6099 = loc("add.8034")
#loc6100 = loc("rsqrt.8035")
#loc6101 = loc("reshape.8036")
#loc6102 = loc("broadcast.8037")
#loc6103 = loc("multiply.8038")
#loc6104 = loc("convert.7997")
#loc6105 = loc("broadcast.8039")
#loc6106 = loc("multiply.8040")
#loc6107 = loc("convert.8041")
#loc6110 = loc("convert.8209")
#loc6111 = loc("power.8211")
#loc6112 = loc("reduce.8218")
#loc6113 = loc("multiply.8227")
#loc6114 = loc("reshape.8228")
#loc6115 = loc("add.8232")
#loc6116 = loc("rsqrt.8233")
#loc6117 = loc("reshape.8234")
#loc6118 = loc("broadcast.8235")
#loc6119 = loc("multiply.8236")
#loc6120 = loc("convert.666")
#loc6121 = loc("broadcast.8237")
#loc6122 = loc("multiply.8238")
#loc6123 = loc("convert.8239")
#loc6126 = loc("convert.8264")
#loc6127 = loc("power.8266")
#loc6128 = loc("reduce.8273")
#loc6129 = loc("multiply.8282")
#loc6130 = loc("reshape.8283")
#loc6131 = loc("add.8287")
#loc6132 = loc("rsqrt.8288")
#loc6133 = loc("reshape.8289")
#loc6134 = loc("broadcast.8290")
#loc6135 = loc("multiply.8291")
#loc6136 = loc("convert.646")
#loc6137 = loc("broadcast.8292")
#loc6138 = loc("multiply.8293")
#loc6139 = loc("convert.8294")
#loc6142 = loc("convert.13592")
#loc6143 = loc("power.13594")
#loc6144 = loc("reduce.13601")
#loc6145 = loc("multiply.13610")
#loc6146 = loc("reshape.13611")
#loc6147 = loc("add.13615")
#loc6148 = loc("rsqrt.13616")
#loc6149 = loc("reshape.13617")
#loc6150 = loc("broadcast.13618")
#loc6151 = loc("multiply.13619")
#loc6152 = loc("convert.6")
#loc6153 = loc("broadcast.13620")
#loc6154 = loc("multiply.13621")
#loc6155 = loc("convert.13622")
#loc6158 = loc("convert.10207")
#loc6159 = loc("power.10209")
#loc6160 = loc("reduce.10216")
#loc6161 = loc("multiply.10225")
#loc6162 = loc("reshape.10226")
#loc6163 = loc("add.10230")
#loc6164 = loc("rsqrt.10231")
#loc6165 = loc("reshape.10232")
#loc6166 = loc("broadcast.10233")
#loc6167 = loc("multiply.10234")
#loc6168 = loc("convert.426")
#loc6169 = loc("broadcast.10235")
#loc6170 = loc("multiply.10236")
#loc6171 = loc("convert.10237")
#loc6174 = loc("convert.8344")
#loc6175 = loc("power.8346")
#loc6176 = loc("reduce.8353")
#loc6177 = loc("multiply.8362")
#loc6178 = loc("reshape.8363")
#loc6179 = loc("add.8367")
#loc6180 = loc("rsqrt.8368")
#loc6181 = loc("reshape.8369")
#loc6182 = loc("broadcast.8370")
#loc6183 = loc("multiply.8371")
#loc6184 = loc("convert.8330")
#loc6185 = loc("broadcast.8372")
#loc6186 = loc("multiply.8373")
#loc6187 = loc("convert.8374")
#loc6190 = loc("convert.8542")
#loc6191 = loc("power.8544")
#loc6192 = loc("reduce.8551")
#loc6193 = loc("multiply.8560")
#loc6194 = loc("reshape.8561")
#loc6195 = loc("add.8565")
#loc6196 = loc("rsqrt.8566")
#loc6197 = loc("reshape.8567")
#loc6198 = loc("broadcast.8568")
#loc6199 = loc("multiply.8569")
#loc6200 = loc("convert.626")
#loc6201 = loc("broadcast.8570")
#loc6202 = loc("multiply.8571")
#loc6203 = loc("convert.8572")
#loc6206 = loc("convert.11751")
#loc6207 = loc("power.11753")
#loc6208 = loc("reduce.11760")
#loc6209 = loc("multiply.11769")
#loc6210 = loc("reshape.11770")
#loc6211 = loc("add.11774")
#loc6212 = loc("rsqrt.11775")
#loc6213 = loc("reshape.11776")
#loc6214 = loc("broadcast.11777")
#loc6215 = loc("multiply.11778")
#loc6216 = loc("convert.11737")
#loc6217 = loc("broadcast.11779")
#loc6218 = loc("multiply.11780")
#loc6219 = loc("convert.11781")
#loc6222 = loc("convert.8677")
#loc6223 = loc("power.8679")
#loc6224 = loc("reduce.8686")
#loc6225 = loc("multiply.8695")
#loc6226 = loc("reshape.8696")
#loc6227 = loc("add.8700")
#loc6228 = loc("rsqrt.8701")
#loc6229 = loc("reshape.8702")
#loc6230 = loc("broadcast.8703")
#loc6231 = loc("multiply.8704")
#loc6232 = loc("convert.8663")
#loc6233 = loc("broadcast.8705")
#loc6234 = loc("multiply.8706")
#loc6235 = loc("convert.8707")
#loc6238 = loc("convert.3426")
#loc6239 = loc("power.3428")
#loc6240 = loc("reduce.3435")
#loc6241 = loc("multiply.3444")
#loc6242 = loc("reshape.3445")
#loc6243 = loc("add.3449")
#loc6244 = loc("rsqrt.3450")
#loc6245 = loc("reshape.3451")
#loc6246 = loc("broadcast.3452")
#loc6247 = loc("multiply.3453")
#loc6248 = loc("convert.3412")
#loc6249 = loc("broadcast.3454")
#loc6250 = loc("multiply.3455")
#loc6251 = loc("convert.3456")
#loc6254 = loc("convert.8875")
#loc6255 = loc("power.8877")
#loc6256 = loc("reduce.8884")
#loc6257 = loc("multiply.8893")
#loc6258 = loc("reshape.8894")
#loc6259 = loc("add.8898")
#loc6260 = loc("rsqrt.8899")
#loc6261 = loc("reshape.8900")
#loc6262 = loc("broadcast.8901")
#loc6263 = loc("multiply.8902")
#loc6264 = loc("convert.586")
#loc6265 = loc("broadcast.8903")
#loc6266 = loc("multiply.8904")
#loc6267 = loc("convert.8905")
#loc6270 = loc("convert.7210")
#loc6271 = loc("power.7212")
#loc6272 = loc("reduce.7219")
#loc6273 = loc("multiply.7228")
#loc6274 = loc("reshape.7229")
#loc6275 = loc("add.7233")
#loc6276 = loc("rsqrt.7234")
#loc6277 = loc("reshape.7235")
#loc6278 = loc("broadcast.7236")
#loc6279 = loc("multiply.7237")
#loc6280 = loc("convert.786")
#loc6281 = loc("broadcast.7238")
#loc6282 = loc("multiply.7239")
#loc6283 = loc("convert.7240")
#loc6286 = loc("convert.8930")
#loc6287 = loc("power.8932")
#loc6288 = loc("reduce.8939")
#loc6289 = loc("multiply.8948")
#loc6290 = loc("reshape.8949")
#loc6291 = loc("add.8953")
#loc6292 = loc("rsqrt.8954")
#loc6293 = loc("reshape.8955")
#loc6294 = loc("broadcast.8956")
#loc6295 = loc("multiply.8957")
#loc6296 = loc("convert.566")
#loc6297 = loc("broadcast.8958")
#loc6298 = loc("multiply.8959")
#loc6299 = loc("convert.8960")
#loc6302 = loc("convert.7598")
#loc6303 = loc("power.7600")
#loc6304 = loc("reduce.7607")
#loc6305 = loc("multiply.7616")
#loc6306 = loc("reshape.7617")
#loc6307 = loc("add.7621")
#loc6308 = loc("rsqrt.7622")
#loc6309 = loc("reshape.7623")
#loc6310 = loc("broadcast.7624")
#loc6311 = loc("multiply.7625")
#loc6312 = loc("convert.726")
#loc6313 = loc("broadcast.7626")
#loc6314 = loc("multiply.7627")
#loc6315 = loc("convert.7628")
#loc6318 = loc("convert.9010")
#loc6319 = loc("power.9012")
#loc6320 = loc("reduce.9019")
#loc6321 = loc("multiply.9028")
#loc6322 = loc("reshape.9029")
#loc6323 = loc("add.9033")
#loc6324 = loc("rsqrt.9034")
#loc6325 = loc("reshape.9035")
#loc6326 = loc("broadcast.9036")
#loc6327 = loc("multiply.9037")
#loc6328 = loc("convert.8996")
#loc6329 = loc("broadcast.9038")
#loc6330 = loc("multiply.9039")
#loc6331 = loc("convert.9040")
#loc6334 = loc("convert.5014")
#loc6335 = loc("power.5016")
#loc6336 = loc("reduce.5023")
#loc6337 = loc("multiply.5032")
#loc6338 = loc("reshape.5033")
#loc6339 = loc("add.5037")
#loc6340 = loc("rsqrt.5038")
#loc6341 = loc("reshape.5039")
#loc6342 = loc("broadcast.5040")
#loc6343 = loc("multiply.5041")
#loc6344 = loc("convert.5000")
#loc6345 = loc("broadcast.5042")
#loc6346 = loc("multiply.5043")
#loc6347 = loc("convert.5044")
#loc6350 = loc("convert.9420")
#loc6351 = loc("power.9422")
#loc6352 = loc("reduce.9429")
#loc6353 = loc("multiply.9438")
#loc6354 = loc("reshape.9439")
#loc6355 = loc("add.9443")
#loc6356 = loc("rsqrt.9444")
#loc6357 = loc("reshape.9445")
#loc6358 = loc("broadcast.9446")
#loc6359 = loc("multiply.9447")
#loc6360 = loc("convert.9406")
#loc6361 = loc("broadcast.9448")
#loc6362 = loc("multiply.9449")
#loc6363 = loc("convert.9450")
#loc6366 = loc("convert.9541")
#loc6367 = loc("power.9543")
#loc6368 = loc("reduce.9550")
#loc6369 = loc("multiply.9559")
#loc6370 = loc("reshape.9560")
#loc6371 = loc("add.9564")
#loc6372 = loc("rsqrt.9565")
#loc6373 = loc("reshape.9566")
#loc6374 = loc("broadcast.9567")
#loc6375 = loc("multiply.9568")
#loc6376 = loc("convert.506")
#loc6377 = loc("broadcast.9569")
#loc6378 = loc("multiply.9570")
#loc6379 = loc("convert.9571")
#loc6382 = loc("convert.5091")
#loc6383 = loc("power.5093")
#loc6384 = loc("reduce.5100")
#loc6385 = loc("multiply.5109")
#loc6386 = loc("reshape.5110")
#loc6387 = loc("add.5114")
#loc6388 = loc("rsqrt.5115")
#loc6389 = loc("reshape.5116")
#loc6390 = loc("broadcast.5117")
#loc6391 = loc("multiply.5118")
#loc6392 = loc("convert.5077")
#loc6393 = loc("broadcast.5119")
#loc6394 = loc("multiply.5120")
#loc6395 = loc("convert.5121")
#loc6398 = loc("convert.10262")
#loc6399 = loc("power.10264")
#loc6400 = loc("reduce.10271")
#loc6401 = loc("multiply.10280")
#loc6402 = loc("reshape.10281")
#loc6403 = loc("add.10285")
#loc6404 = loc("rsqrt.10286")
#loc6405 = loc("reshape.10287")
#loc6406 = loc("broadcast.10288")
#loc6407 = loc("multiply.10289")
#loc6408 = loc("convert.406")
#loc6409 = loc("broadcast.10290")
#loc6410 = loc("multiply.10291")
#loc6411 = loc("convert.10292")
#loc6414 = loc("convert.10419")
#loc6415 = loc("power.10421")
#loc6416 = loc("reduce.10428")
#loc6417 = loc("multiply.10437")
#loc6418 = loc("reshape.10438")
#loc6419 = loc("add.10442")
#loc6420 = loc("rsqrt.10443")
#loc6421 = loc("reshape.10444")
#loc6422 = loc("broadcast.10445")
#loc6423 = loc("multiply.10446")
#loc6424 = loc("convert.10405")
#loc6425 = loc("broadcast.10447")
#loc6426 = loc("multiply.10448")
#loc6427 = loc("convert.10449")
#loc6430 = loc("convert.5267")
#loc6431 = loc("power.5269")
#loc6432 = loc("reduce.5276")
#loc6433 = loc("multiply.5285")
#loc6434 = loc("reshape.5286")
#loc6435 = loc("add.5290")
#loc6436 = loc("rsqrt.5291")
#loc6437 = loc("reshape.5292")
#loc6438 = loc("broadcast.5293")
#loc6439 = loc("multiply.5294")
#loc6440 = loc("convert.1006")
#loc6441 = loc("broadcast.5295")
#loc6442 = loc("multiply.5296")
#loc6443 = loc("convert.5297")
#loc6446 = loc("convert.9753")
#loc6447 = loc("power.9755")
#loc6448 = loc("reduce.9762")
#loc6449 = loc("multiply.9771")
#loc6450 = loc("reshape.9772")
#loc6451 = loc("add.9776")
#loc6452 = loc("rsqrt.9777")
#loc6453 = loc("reshape.9778")
#loc6454 = loc("broadcast.9779")
#loc6455 = loc("multiply.9780")
#loc6456 = loc("convert.9739")
#loc6457 = loc("broadcast.9781")
#loc6458 = loc("multiply.9782")
#loc6459 = loc("convert.9783")
#loc6462 = loc("convert.10342")
#loc6463 = loc("power.10344")
#loc6464 = loc("reduce.10351")
#loc6465 = loc("multiply.10360")
#loc6466 = loc("reshape.10361")
#loc6467 = loc("add.10365")
#loc6468 = loc("rsqrt.10366")
#loc6469 = loc("reshape.10367")
#loc6470 = loc("broadcast.10368")
#loc6471 = loc("multiply.10369")
#loc6472 = loc("convert.10328")
#loc6473 = loc("broadcast.10370")
#loc6474 = loc("multiply.10371")
#loc6475 = loc("convert.10372")
#loc6478 = loc("convert.13416")
#loc6479 = loc("power.13418")
#loc6480 = loc("reduce.13425")
#loc6481 = loc("multiply.13434")
#loc6482 = loc("reshape.13435")
#loc6483 = loc("add.13439")
#loc6484 = loc("rsqrt.13440")
#loc6485 = loc("reshape.13441")
#loc6486 = loc("broadcast.13442")
#loc6487 = loc("multiply.13443")
#loc6488 = loc("convert.13402")
#loc6489 = loc("broadcast.13444")
#loc6490 = loc("multiply.13445")
#loc6491 = loc("convert.13446")
#loc6494 = loc("convert.10540")
#loc6495 = loc("power.10542")
#loc6496 = loc("reduce.10549")
#loc6497 = loc("multiply.10558")
#loc6498 = loc("reshape.10559")
#loc6499 = loc("add.10563")
#loc6500 = loc("rsqrt.10564")
#loc6501 = loc("reshape.10565")
#loc6502 = loc("broadcast.10566")
#loc6503 = loc("multiply.10567")
#loc6504 = loc("convert.386")
#loc6505 = loc("broadcast.10568")
#loc6506 = loc("multiply.10569")
#loc6507 = loc("convert.10570")
#loc6510 = loc("convert.10873")
#loc6511 = loc("power.10875")
#loc6512 = loc("reduce.10882")
#loc6513 = loc("multiply.10891")
#loc6514 = loc("reshape.10892")
#loc6515 = loc("add.10896")
#loc6516 = loc("rsqrt.10897")
#loc6517 = loc("reshape.10898")
#loc6518 = loc("broadcast.10899")
#loc6519 = loc("multiply.10900")
#loc6520 = loc("convert.346")
#loc6521 = loc("broadcast.10901")
#loc6522 = loc("multiply.10902")
#loc6523 = loc("convert.10903")
#loc6526 = loc("convert.11261")
#loc6527 = loc("power.11263")
#loc6528 = loc("reduce.11270")
#loc6529 = loc("multiply.11279")
#loc6530 = loc("reshape.11280")
#loc6531 = loc("add.11284")
#loc6532 = loc("rsqrt.11285")
#loc6533 = loc("reshape.11286")
#loc6534 = loc("broadcast.11287")
#loc6535 = loc("multiply.11288")
#loc6536 = loc("convert.286")
#loc6537 = loc("broadcast.11289")
#loc6538 = loc("multiply.11290")
#loc6539 = loc("convert.11291")
#loc6542 = loc("convert.12084")
#loc6543 = loc("power.12086")
#loc6544 = loc("reduce.12093")
#loc6545 = loc("multiply.12102")
#loc6546 = loc("reshape.12103")
#loc6547 = loc("add.12107")
#loc6548 = loc("rsqrt.12108")
#loc6549 = loc("reshape.12109")
#loc6550 = loc("broadcast.12110")
#loc6551 = loc("multiply.12111")
#loc6552 = loc("convert.12070")
#loc6553 = loc("broadcast.12112")
#loc6554 = loc("multiply.12113")
#loc6555 = loc("convert.12114")
#loc6558 = loc("convert.4758")
#loc6559 = loc("power.4760")
#loc6560 = loc("reduce.4767")
#loc6561 = loc("multiply.4776")
#loc6562 = loc("reshape.4777")
#loc6563 = loc("add.4781")
#loc6564 = loc("rsqrt.4782")
#loc6565 = loc("reshape.4783")
#loc6566 = loc("broadcast.4784")
#loc6567 = loc("multiply.4785")
#loc6568 = loc("convert.4744")
#loc6569 = loc("broadcast.4786")
#loc6570 = loc("multiply.4787")
#loc6571 = loc("convert.4788")
#loc6574 = loc("convert.10752")
#loc6575 = loc("power.10754")
#loc6576 = loc("reduce.10761")
#loc6577 = loc("multiply.10770")
#loc6578 = loc("reshape.10771")
#loc6579 = loc("add.10775")
#loc6580 = loc("rsqrt.10776")
#loc6581 = loc("reshape.10777")
#loc6582 = loc("broadcast.10778")
#loc6583 = loc("multiply.10779")
#loc6584 = loc("convert.10738")
#loc6585 = loc("broadcast.10780")
#loc6586 = loc("multiply.10781")
#loc6587 = loc("convert.10782")
#loc6590 = loc("convert.11418")
#loc6591 = loc("power.11420")
#loc6592 = loc("reduce.11427")
#loc6593 = loc("multiply.11436")
#loc6594 = loc("reshape.11437")
#loc6595 = loc("add.11441")
#loc6596 = loc("rsqrt.11442")
#loc6597 = loc("reshape.11443")
#loc6598 = loc("broadcast.11444")
#loc6599 = loc("multiply.11445")
#loc6600 = loc("convert.11404")
#loc6601 = loc("broadcast.11446")
#loc6602 = loc("multiply.11447")
#loc6603 = loc("convert.11448")
#loc6606 = loc("convert.11872")
#loc6607 = loc("power.11874")
#loc6608 = loc("reduce.11881")
#loc6609 = loc("multiply.11890")
#loc6610 = loc("reshape.11891")
#loc6611 = loc("add.11895")
#loc6612 = loc("rsqrt.11896")
#loc6613 = loc("reshape.11897")
#loc6614 = loc("broadcast.11898")
#loc6615 = loc("multiply.11899")
#loc6616 = loc("convert.226")
#loc6617 = loc("broadcast.11900")
#loc6618 = loc("multiply.11901")
#loc6619 = loc("convert.11902")
#loc6622 = loc("convert.7755")
#loc6623 = loc("power.7757")
#loc6624 = loc("reduce.7764")
#loc6625 = loc("multiply.7773")
#loc6626 = loc("reshape.7774")
#loc6627 = loc("add.7778")
#loc6628 = loc("rsqrt.7779")
#loc6629 = loc("reshape.7780")
#loc6630 = loc("broadcast.7781")
#loc6631 = loc("multiply.7782")
#loc6632 = loc("convert.7741")
#loc6633 = loc("broadcast.7783")
#loc6634 = loc("multiply.7784")
#loc6635 = loc("convert.7785")
#loc6638 = loc("convert.12007")
#loc6639 = loc("power.12009")
#loc6640 = loc("reduce.12016")
#loc6641 = loc("multiply.12025")
#loc6642 = loc("reshape.12026")
#loc6643 = loc("add.12030")
#loc6644 = loc("rsqrt.12031")
#loc6645 = loc("reshape.12032")
#loc6646 = loc("broadcast.12033")
#loc6647 = loc("multiply.12034")
#loc6648 = loc("convert.11993")
#loc6649 = loc("broadcast.12035")
#loc6650 = loc("multiply.12036")
#loc6651 = loc("convert.12037")
