#dram = #ttnn.buffer_type<dram>
#loc = loc(unknown)
#loc17 = loc("p0.1")
#loc18 = loc("p1.11")
#loc19 = loc("p2.16")
#loc20 = loc("p3.21")
#loc21 = loc("p4.31")
#loc22 = loc("p5.36")
#loc23 = loc("p6.41")
#loc24 = loc("p7.51")
#loc25 = loc("p8.56")
#loc26 = loc("p9.61")
#loc27 = loc("p10.71")
#loc28 = loc("p11.76")
#loc29 = loc("p12.81")
#loc30 = loc("p13.91")
#loc31 = loc("p14.96")
#loc32 = loc("p15.101")
#loc33 = loc("p16.111")
#loc34 = loc("p17.116")
#loc35 = loc("p18.121")
#loc36 = loc("p19.131")
#loc37 = loc("p20.136")
#loc38 = loc("p21.141")
#loc39 = loc("p22.151")
#loc40 = loc("p23.156")
#loc41 = loc("p24.161")
#loc42 = loc("p25.171")
#loc43 = loc("p26.176")
#loc44 = loc("p27.181")
#loc45 = loc("p28.191")
#loc46 = loc("p29.196")
#loc47 = loc("p30.201")
#loc48 = loc("p31.211")
#loc49 = loc("p32.216")
#loc50 = loc("p33.221")
#loc51 = loc("p34.231")
#loc52 = loc("p35.236")
#loc53 = loc("p36.241")
#loc54 = loc("p37.251")
#loc55 = loc("p38.256")
#loc56 = loc("p39.261")
#loc57 = loc("p40.271")
#loc58 = loc("p41.276")
#loc59 = loc("p42.281")
#loc60 = loc("p43.291")
#loc61 = loc("p44.296")
#loc62 = loc("p45.301")
#loc63 = loc("p46.311")
#loc64 = loc("p47.316")
#loc65 = loc("p48.321")
#loc66 = loc("p49.331")
#loc67 = loc("p50.336")
#loc68 = loc("p51.341")
#loc69 = loc("p52.351")
#loc70 = loc("p53.356")
#loc71 = loc("p54.361")
#loc72 = loc("p55.371")
#loc73 = loc("p56.376")
#loc74 = loc("p57.381")
#loc75 = loc("p58.391")
#loc76 = loc("p59.396")
#loc77 = loc("p60.401")
#loc78 = loc("p61.411")
#loc79 = loc("p62.416")
#loc80 = loc("p63.421")
#loc81 = loc("p64.431")
#loc82 = loc("p65.436")
#loc83 = loc("p66.441")
#loc84 = loc("p67.451")
#loc85 = loc("p68.456")
#loc86 = loc("p69.461")
#loc87 = loc("p70.471")
#loc88 = loc("p71.476")
#loc89 = loc("p72.481")
#loc90 = loc("p73.491")
#loc91 = loc("p74.496")
#loc92 = loc("p75.501")
#loc93 = loc("p76.511")
#loc94 = loc("p77.516")
#loc95 = loc("p78.521")
#loc96 = loc("p79.531")
#loc97 = loc("p80.536")
#loc98 = loc("p81.541")
#loc99 = loc("p82.551")
#loc100 = loc("p83.556")
#loc101 = loc("p84.561")
#loc102 = loc("p85.571")
#loc103 = loc("p86.576")
#loc104 = loc("p87.581")
#loc105 = loc("p88.591")
#loc106 = loc("p89.596")
#loc107 = loc("p90.601")
#loc108 = loc("p91.611")
#loc109 = loc("p92.616")
#loc110 = loc("p93.621")
#loc111 = loc("p94.631")
#loc112 = loc("p95.636")
#loc113 = loc("p96.641")
#loc114 = loc("p97.651")
#loc115 = loc("p98.656")
#loc116 = loc("p99.661")
#loc117 = loc("p100.671")
#loc118 = loc("p101.676")
#loc119 = loc("p102.681")
#loc120 = loc("p103.691")
#loc121 = loc("p104.696")
#loc122 = loc("p105.701")
#loc123 = loc("p106.711")
#loc124 = loc("p107.716")
#loc125 = loc("p108.721")
#loc126 = loc("p109.731")
#loc127 = loc("p110.736")
#loc128 = loc("p111.741")
#loc129 = loc("p112.751")
#loc130 = loc("p113.756")
#loc131 = loc("p114.761")
#loc132 = loc("p115.771")
#loc133 = loc("p116.776")
#loc134 = loc("p117.781")
#loc135 = loc("p118.791")
#loc136 = loc("p119.796")
#loc137 = loc("p120.801")
#loc138 = loc("p121.811")
#loc139 = loc("p122.816")
#loc140 = loc("p123.821")
#loc141 = loc("p124.831")
#loc142 = loc("p125.836")
#loc143 = loc("p126.841")
#loc144 = loc("p127.851")
#loc145 = loc("p128.856")
#loc146 = loc("p129.861")
#loc147 = loc("p130.871")
#loc148 = loc("p131.876")
#loc149 = loc("p132.881")
#loc150 = loc("p133.891")
#loc151 = loc("p134.896")
#loc152 = loc("p135.901")
#loc153 = loc("p136.911")
#loc154 = loc("p137.916")
#loc155 = loc("p138.921")
#loc156 = loc("p139.931")
#loc157 = loc("p140.936")
#loc158 = loc("p141.941")
#loc159 = loc("p142.951")
#loc160 = loc("p143.956")
#loc161 = loc("p144.961")
#loc162 = loc("p145.971")
#loc163 = loc("p146.976")
#loc164 = loc("p147.981")
#loc165 = loc("p148.991")
#loc166 = loc("p149.996")
#loc167 = loc("p150.1001")
#loc168 = loc("p151.1011")
#loc169 = loc("p152.1016")
#loc170 = loc("p153.1021")
#loc171 = loc("p154.1031")
#loc172 = loc("p155.1036")
#loc173 = loc("p156.1041")
#loc174 = loc("p157.1051")
#loc175 = loc("p158.1056")
#loc176 = loc("p159.1061")
#loc177 = loc("p160.1071")
#loc178 = loc("p161.1076")
#loc179 = loc("p162.1081")
#loc180 = loc("p163.1091")
#loc181 = loc("p164.1096")
#loc182 = loc("p165.1101")
#loc183 = loc("p166.1111")
#loc184 = loc("p167.1116")
#loc185 = loc("p168.1121")
#loc186 = loc("p169.1131")
#loc187 = loc("p170.1136")
#loc188 = loc("p171.1141")
#loc189 = loc("p172.1151")
#loc190 = loc("p173.1156")
#loc191 = loc("p174.1161")
#loc192 = loc("p175.1171")
#loc193 = loc("p176.1176")
#loc194 = loc("p177.1181")
#loc195 = loc("p178.1191")
#loc196 = loc("p179.1196")
#loc197 = loc("p180.1201")
#loc198 = loc("p181.1211")
#loc199 = loc("p182.1216")
#loc200 = loc("p183.1221")
#loc201 = loc("p184.1231")
#loc202 = loc("p185.1236")
#loc203 = loc("p186.1241")
#loc204 = loc("p187.1251")
#loc205 = loc("p188.1256")
#loc206 = loc("p189.1261")
#loc207 = loc("p190.1271")
#loc208 = loc("p191.1276")
#loc209 = loc("p192.1281")
#loc210 = loc("p193.1291")
#loc211 = loc("p194.1296")
#loc212 = loc("p195.1301")
#loc213 = loc("p196.1311")
#loc214 = loc("p197.1316")
#loc215 = loc("p198.1321")
#loc216 = loc("p199.1331")
#loc217 = loc("p200.1336")
#loc218 = loc("p201.1341")
#loc219 = loc("p202.1351")
#loc220 = loc("p203.1356")
#loc221 = loc("p204.1361")
#loc222 = loc("p205.1371")
#loc223 = loc("p206.1376")
#loc224 = loc("p207.1381")
#loc225 = loc("p208.1391")
#loc226 = loc("p209.1396")
#loc227 = loc("p210.1401")
#loc228 = loc("p211.1411")
#loc229 = loc("p212.1416")
#loc230 = loc("p213.1421")
#loc231 = loc("p214.1431")
#loc232 = loc("p215.1436")
#loc233 = loc("p216.1441")
#loc234 = loc("p217.1450")
#loc235 = loc("p218.1455")
#loc236 = loc("p219.1625")
#loc237 = loc("p220.1644")
#loc238 = loc("p221.1660")
#loc239 = loc("p222.1669")
#loc240 = loc("p223.1742")
#loc241 = loc("p224.1751")
#loc242 = loc("p225.1917")
#loc243 = loc("p226.1998")
#loc244 = loc("p227.2007")
#loc245 = loc("p228.2075")
#loc246 = loc("p229.2084")
#loc247 = loc("p230.2250")
#loc248 = loc("p231.2331")
#loc249 = loc("p232.2340")
#loc250 = loc("p233.2408")
#loc251 = loc("p234.2417")
#loc252 = loc("p235.2583")
#loc253 = loc("p236.2664")
#loc254 = loc("p237.2673")
#loc255 = loc("p238.2741")
#loc256 = loc("p239.2750")
#loc257 = loc("p240.2916")
#loc258 = loc("p241.2997")
#loc259 = loc("p242.3006")
#loc260 = loc("p243.3074")
#loc261 = loc("p244.3083")
#loc262 = loc("p245.3249")
#loc263 = loc("p246.3330")
#loc264 = loc("p247.3339")
#loc265 = loc("p248.3407")
#loc266 = loc("p249.3416")
#loc267 = loc("p250.3582")
#loc268 = loc("p251.3663")
#loc269 = loc("p252.3672")
#loc270 = loc("p253.3740")
#loc271 = loc("p254.3749")
#loc272 = loc("p255.3915")
#loc273 = loc("p256.3996")
#loc274 = loc("p257.4005")
#loc275 = loc("p258.4073")
#loc276 = loc("p259.4082")
#loc277 = loc("p260.4248")
#loc278 = loc("p261.4329")
#loc279 = loc("p262.4338")
#loc280 = loc("p263.4406")
#loc281 = loc("p264.4415")
#loc282 = loc("p265.4581")
#loc283 = loc("p266.4662")
#loc284 = loc("p267.4671")
#loc285 = loc("p268.4739")
#loc286 = loc("p269.4748")
#loc287 = loc("p270.4914")
#loc288 = loc("p271.4995")
#loc289 = loc("p272.5004")
#loc290 = loc("p273.5072")
#loc291 = loc("p274.5081")
#loc292 = loc("p275.5247")
#loc293 = loc("p276.5328")
#loc294 = loc("p277.5337")
#loc295 = loc("p278.5405")
#loc296 = loc("p279.5414")
#loc297 = loc("p280.5580")
#loc298 = loc("p281.5661")
#loc299 = loc("p282.5670")
#loc300 = loc("p283.5738")
#loc301 = loc("p284.5747")
#loc302 = loc("p285.5913")
#loc303 = loc("p286.5994")
#loc304 = loc("p287.6003")
#loc305 = loc("p288.6071")
#loc306 = loc("p289.6080")
#loc307 = loc("p290.6246")
#loc308 = loc("p291.6327")
#loc309 = loc("p292.6336")
#loc310 = loc("p293.6404")
#loc311 = loc("p294.6413")
#loc312 = loc("p295.6579")
#loc313 = loc("p296.6660")
#loc314 = loc("p297.6669")
#loc315 = loc("p298.6737")
#loc316 = loc("p299.6746")
#loc317 = loc("p300.6912")
#loc318 = loc("p301.6993")
#loc319 = loc("p302.7002")
#loc320 = loc("p303.7070")
#loc321 = loc("p304.7079")
#loc322 = loc("p305.7245")
#loc323 = loc("p306.7326")
#loc324 = loc("p307.7335")
#loc325 = loc("p308.7403")
#loc326 = loc("p309.7412")
#loc327 = loc("p310.7578")
#loc328 = loc("p311.7659")
#loc329 = loc("p312.7668")
#loc330 = loc("p313.7736")
#loc331 = loc("p314.7745")
#loc332 = loc("p315.7911")
#loc333 = loc("p316.7992")
#loc334 = loc("p317.8001")
#loc335 = loc("p318.8069")
#loc336 = loc("p319.8078")
#loc337 = loc("p320.8244")
#loc338 = loc("p321.8325")
#loc339 = loc("p322.8334")
#loc340 = loc("p323.8402")
#loc341 = loc("p324.8411")
#loc342 = loc("p325.8577")
#loc343 = loc("p326.8658")
#loc344 = loc("p327.8667")
#loc345 = loc("p328.8735")
#loc346 = loc("p329.8744")
#loc347 = loc("p330.8910")
#loc348 = loc("p331.8991")
#loc349 = loc("p332.9000")
#loc350 = loc("p333.9068")
#loc351 = loc("p334.9077")
#loc352 = loc("p335.9243")
#loc353 = loc("p336.9324")
#loc354 = loc("p337.9333")
#loc355 = loc("p338.9401")
#loc356 = loc("p339.9410")
#loc357 = loc("p340.9576")
#loc358 = loc("p341.9657")
#loc359 = loc("p342.9666")
#loc360 = loc("p343.9734")
#loc361 = loc("p344.9743")
#loc362 = loc("p345.9909")
#loc363 = loc("p346.9990")
#loc364 = loc("p347.9999")
#loc365 = loc("p348.10067")
#loc366 = loc("p349.10076")
#loc367 = loc("p350.10242")
#loc368 = loc("p351.10323")
#loc369 = loc("p352.10332")
#loc370 = loc("p353.10400")
#loc371 = loc("p354.10409")
#loc372 = loc("p355.10575")
#loc373 = loc("p356.10656")
#loc374 = loc("p357.10665")
#loc375 = loc("p358.10733")
#loc376 = loc("p359.10742")
#loc377 = loc("p360.10908")
#loc378 = loc("p361.10989")
#loc379 = loc("p362.10998")
#loc380 = loc("p363.11066")
#loc381 = loc("p364.11075")
#loc382 = loc("p365.11241")
#loc383 = loc("p366.11322")
#loc384 = loc("p367.11331")
#loc385 = loc("p368.11399")
#loc386 = loc("p369.11408")
#loc387 = loc("p370.11574")
#loc388 = loc("p371.11655")
#loc389 = loc("p372.11664")
#loc390 = loc("p373.11732")
#loc391 = loc("p374.11741")
#loc392 = loc("p375.11907")
#loc393 = loc("p376.11988")
#loc394 = loc("p377.11997")
#loc395 = loc("p378.12065")
#loc396 = loc("p379.12074")
#loc397 = loc("p380.12240")
#loc398 = loc("p381.12321")
#loc399 = loc("p382.12330")
#loc400 = loc("p383.12398")
#loc401 = loc("p384.12407")
#loc402 = loc("p385.12573")
#loc403 = loc("p386.12654")
#loc404 = loc("p387.12663")
#loc405 = loc("p388.12731")
#loc406 = loc("p389.12740")
#loc407 = loc("p390.12906")
#loc408 = loc("p391.12987")
#loc409 = loc("p392.12996")
#loc410 = loc("p393.13064")
#loc411 = loc("p394.13073")
#loc412 = loc("p395.13239")
#loc413 = loc("p396.13320")
#loc414 = loc("p397.13329")
#loc415 = loc("p398.13397")
#loc416 = loc("p399.13406")
#loc417 = loc("p400.13572")
#system_desc = #ttcore.system_desc<[{role = host, target_triple = "x86_64-pc-linux"}], [{arch = <blackhole>, grid = 10x13, coord_translation_offsets = 2x1, l1_size = 1572864, num_dram_channels = 8, dram_channel_size = 4278190080, noc_l1_address_align_bytes = 16, pcie_address_align_bytes = 64, noc_dram_address_align_bytes = 64, l1_unreserved_base = 111104, erisc_l1_unreserved_base = 87872, dram_unreserved_base = 4800064, dram_unreserved_end = 4276134656, supported_data_types = [<f32>, <f16>, <bf16>, <bfp_f8>, <bfp_bf8>, <bfp_f4>, <bfp_bf4>, <bfp_f2>, <bfp_bf2>, <u32>, <u16>, <u8>, <si32>], supported_tile_sizes = [ 4x16,  16x16,  32x16,  4x32,  16x32,  32x32], dst_physical_size_tiles = 16, num_cbs = 64, num_compute_threads = 1, num_datamovement_threads = 2}, {arch = <blackhole>, grid = 10x13, coord_translation_offsets = 2x1, l1_size = 1572864, num_dram_channels = 8, dram_channel_size = 4278190080, noc_l1_address_align_bytes = 16, pcie_address_align_bytes = 64, noc_dram_address_align_bytes = 64, l1_unreserved_base = 111104, erisc_l1_unreserved_base = 87872, dram_unreserved_base = 4800064, dram_unreserved_end = 4276134656, supported_data_types = [<f32>, <f16>, <bf16>, <bfp_f8>, <bfp_bf8>, <bfp_f4>, <bfp_bf4>, <bfp_f2>, <bfp_bf2>, <u32>, <u16>, <u8>, <si32>], supported_tile_sizes = [ 4x16,  16x16,  32x16,  4x32,  16x32,  32x32], dst_physical_size_tiles = 16, num_cbs = 64, num_compute_threads = 1, num_datamovement_threads = 2}, {arch = <blackhole>, grid = 10x13, coord_translation_offsets = 2x1, l1_size = 1572864, num_dram_channels = 8, dram_channel_size = 4278190080, noc_l1_address_align_bytes = 16, pcie_address_align_bytes = 64, noc_dram_address_align_bytes = 64, l1_unreserved_base = 111104, erisc_l1_unreserved_base = 87872, dram_unreserved_base = 4800064, dram_unreserved_end = 4276134656, supported_data_types = [<f32>, <f16>, <bf16>, <bfp_f8>, <bfp_bf8>, <bfp_f4>, <bfp_bf4>, <bfp_f2>, <bfp_bf2>, <u32>, <u16>, <u8>, <si32>], supported_tile_sizes = [ 4x16,  16x16,  32x16,  4x32,  16x32,  32x32], dst_physical_size_tiles = 16, num_cbs = 64, num_compute_threads = 1, num_datamovement_threads = 2}, {arch = <blackhole>, grid = 10x13, coord_translation_offsets = 2x1, l1_size = 1572864, num_dram_channels = 8, dram_channel_size = 4278190080, noc_l1_address_align_bytes = 16, pcie_address_align_bytes = 64, noc_dram_address_align_bytes = 64, l1_unreserved_base = 111104, erisc_l1_unreserved_base = 87872, dram_unreserved_base = 4800064, dram_unreserved_end = 4276134656, supported_data_types = [<f32>, <f16>, <bf16>, <bfp_f8>, <bfp_bf8>, <bfp_f4>, <bfp_bf4>, <bfp_f2>, <bfp_bf2>, <u32>, <u16>, <u8>, <si32>], supported_tile_sizes = [ 4x16,  16x16,  32x16,  4x32,  16x32,  32x32], dst_physical_size_tiles = 16, num_cbs = 64, num_compute_threads = 1, num_datamovement_threads = 2}], [0, 1, 2, 3], [1 : i32, 1 : i32, 1 : i32, 1 : i32], [ 0x0x0x0], [<[0, 4, 0], [2, 4, 0]>, <[0, 5, 0], [2, 5, 0]>, <[0, 6, 0], [2, 6, 0]>, <[0, 7, 0], [2, 7, 0]>, <[0, 8, 0], [3, 8, 0]>, <[0, 9, 0], [3, 9, 0]>, <[0, 10, 0], [3, 10, 0]>, <[0, 11, 0], [3, 11, 0]>, <[1, 4, 0], [3, 4, 0]>, <[1, 5, 0], [3, 5, 0]>, <[1, 6, 0], [3, 6, 0]>, <[1, 7, 0], [3, 7, 0]>, <[1, 8, 0], [2, 8, 0]>, <[1, 9, 0], [2, 9, 0]>, <[1, 10, 0], [2, 10, 0]>, <[1, 11, 0], [2, 11, 0]>]>
#system_memory = #ttnn.buffer_type<system_memory>
#ttnn_layout = #ttnn.ttnn_layout<(d0, d1) -> (d0, d1), <1x1>, memref<151936x2560xbf16, #system_memory>>
#ttnn_layout1 = #ttnn.ttnn_layout<(d0, d1) -> (d0, d1), <1x1>, memref<151936x2560xbf16, #dram>, <interleaved>>
#ttnn_layout2 = #ttnn.ttnn_layout<(d0, d1) -> (d0, d1), <1x1>, memref<2560x9728xbf16, #system_memory>>
#ttnn_layout3 = #ttnn.ttnn_layout<(d0, d1) -> (d0, d1), <1x1>, memref<80x76x!ttcore.tile<32x32, bf16>, #dram>, <interleaved>>
#ttnn_layout4 = #ttnn.ttnn_layout<(d0, d1) -> (d0, d1), <1x1>, memref<2560x9728xbf16, #dram>, <interleaved>>
#ttnn_layout5 = #ttnn.ttnn_layout<(d0, d1) -> (d0, d1), <1x1>, memref<80x304x!ttcore.tile<32x32, bf16>, #dram>, <interleaved>>
#ttnn_layout6 = #ttnn.ttnn_layout<(d0, d1) -> (d0, d1), <1x1>, memref<2560x4096xbf16, #system_memory>>
#ttnn_layout7 = #ttnn.ttnn_layout<(d0, d1) -> (d0, d1), <1x1>, memref<80x32x!ttcore.tile<32x32, bf16>, #dram>, <interleaved>>
#ttnn_layout8 = #ttnn.ttnn_layout<(d0, d1) -> (d0, d1), <1x1>, memref<2560x4096xbf16, #dram>, <interleaved>>
#ttnn_layout9 = #ttnn.ttnn_layout<(d0, d1) -> (d0, d1), <1x1>, memref<80x128x!ttcore.tile<32x32, bf16>, #dram>, <interleaved>>
#ttnn_layout10 = #ttnn.ttnn_layout<(d0, d1) -> (d0, d1), <1x1>, memref<9728x2560xbf16, #system_memory>>
#ttnn_layout11 = #ttnn.ttnn_layout<(d0, d1) -> (d0, d1), <1x1>, memref<76x80x!ttcore.tile<32x32, bf16>, #dram>, <interleaved>>
#ttnn_layout12 = #ttnn.ttnn_layout<(d0, d1) -> (d0, d1), <1x1>, memref<9728x2560xbf16, #dram>, <interleaved>>
#ttnn_layout13 = #ttnn.ttnn_layout<(d0, d1) -> (d0, d1), <1x1>, memref<304x80x!ttcore.tile<32x32, bf16>, #dram>, <interleaved>>
#ttnn_layout14 = #ttnn.ttnn_layout<(d0, d1) -> (d0, d1), <1x1>, memref<4096x2560xbf16, #system_memory>>
#ttnn_layout15 = #ttnn.ttnn_layout<(d0, d1) -> (d0, d1), <1x1>, memref<32x80x!ttcore.tile<32x32, bf16>, #dram>, <interleaved>>
#ttnn_layout16 = #ttnn.ttnn_layout<(d0, d1) -> (d0, d1), <1x1>, memref<4096x2560xbf16, #dram>, <interleaved>>
#ttnn_layout17 = #ttnn.ttnn_layout<(d0, d1) -> (d0, d1), <1x1>, memref<128x80x!ttcore.tile<32x32, bf16>, #dram>, <interleaved>>
#ttnn_layout18 = #ttnn.ttnn_layout<(d0, d1) -> (d0, d1), <1x1>, memref<1024x2560xbf16, #system_memory>>
#ttnn_layout19 = #ttnn.ttnn_layout<(d0, d1) -> (d0, d1), <1x1>, memref<8x80x!ttcore.tile<32x32, bf16>, #dram>, <interleaved>>
#ttnn_layout20 = #ttnn.ttnn_layout<(d0, d1) -> (d0, d1), <1x1>, memref<1024x2560xbf16, #dram>, <interleaved>>
#ttnn_layout21 = #ttnn.ttnn_layout<(d0) -> (0, d0), <1x1>, memref<1x64xf32, #system_memory>>
#ttnn_layout22 = #ttnn.ttnn_layout<(d0, d1, d2, d3) -> (d0 * 32 + d1 * 32 + d2, d3), <1x1>, memref<1x4x!ttcore.tile<32x32, bf16>, #dram>, <interleaved>>
#ttnn_layout23 = #ttnn.ttnn_layout<(d0) -> (0, d0), <1x1>, memref<1x64xf32, #dram>, <interleaved>>
#ttnn_layout24 = #ttnn.ttnn_layout<(d0) -> (0, d0), <1x1>, memref<1x2x!ttcore.tile<32x32, f32>, #dram>, <interleaved>>
#ttnn_layout25 = #ttnn.ttnn_layout<(d0, d1, d2) -> (d0 * 32 + d1, d2), <1x1>, memref<1x1x!ttcore.tile<32x32, f32>, #dram>, <interleaved>>
#ttnn_layout26 = #ttnn.ttnn_layout<(d0, d1, d2) -> (d0 * 64 + d1, d2), <1x1>, memref<2x1x!ttcore.tile<32x32, f32>, #dram>, <interleaved>>
#ttnn_layout27 = #ttnn.ttnn_layout<(d0, d1, d2) -> (d0 * 32 + d1, d2), <1x1>, memref<1x2x!ttcore.tile<32x32, f32>, #dram>, <interleaved>>
#ttnn_layout28 = #ttnn.ttnn_layout<(d0, d1, d2, d3) -> (d0 * 32 + d1 * 32 + d2, d3), <1x1>, memref<1x2x!ttcore.tile<32x32, f32>, #dram>, <interleaved>>
#ttnn_layout29 = #ttnn.ttnn_layout<(d0, d1, d2, d3) -> (d0 * 32 + d1 * 32 + d2, d3), <1x1>, memref<1x4x!ttcore.tile<32x32, f32>, #dram>, <interleaved>>
#ttnn_layout30 = #ttnn.ttnn_layout<(d0, d1, d2, d3) -> (d0 * 32 + d1 * 32 + d2, d3), <1x1>, memref<1x1x!ttcore.tile<32x32, bf16>, #dram>, <interleaved>>
#ttnn_layout31 = #ttnn.ttnn_layout<(d0, d1, d2, d3, d4) -> (d0 * 32 + d1 * 32 + d2 * 32 + d3, d4), <1x1>, memref<1x1x!ttcore.tile<32x32, si32>, #dram>, <interleaved>>
#ttnn_layout32 = #ttnn.ttnn_layout<(d0, d1, d2, d3, d4) -> (d0 * 224 + d1 * 224 + d2 * 32 + d3, d4), <1x1>, memref<7x1x!ttcore.tile<32x32, si32>, #dram>, <interleaved>>
#ttnn_layout33 = #ttnn.ttnn_layout<(d0, d1) -> (d0, d1), <1x1>, memref<1x1x!ttcore.tile<32x32, si32>, #dram>, <interleaved>>
#ttnn_layout34 = #ttnn.ttnn_layout<(d0, d1) -> (d0, d1), <1x1>, memref<1x1x!ttcore.tile<32x32, u32>, #dram>, <interleaved>>
#ttnn_layout35 = #ttnn.ttnn_layout<(d0, d1) -> (d0, d1), <1x1>, memref<1x7xui32, #dram>, <interleaved>>
#ttnn_layout36 = #ttnn.ttnn_layout<(d0, d1) -> (d0, d1), <1x1>, memref<1x1x!ttcore.tile<32x32, bf16>, #dram>, <interleaved>>
#ttnn_layout37 = #ttnn.ttnn_layout<(d0, d1) -> (d0, d1), <1x1>, memref<7x1xbf16, #dram>, <interleaved>>
#ttnn_layout38 = #ttnn.ttnn_layout<(d0, d1, d2) -> (d0 * 32 + d1, d2), <1x1>, memref<1x1x!ttcore.tile<32x32, bf16>, #dram>, <interleaved>>
#ttnn_layout39 = #ttnn.ttnn_layout<(d0, d1, d2) -> (d0 * 32 + d1, d2), <1x1>, memref<1x1x!ttcore.tile<32x32, si32>, #dram>, <interleaved>>
#ttnn_layout40 = #ttnn.ttnn_layout<(d0, d1, d2, d3) -> (d0 * 32 + d1 * 32 + d2, d3), <1x1>, memref<1x1x!ttcore.tile<32x32, si32>, #dram>, <interleaved>>
#ttnn_layout41 = #ttnn.ttnn_layout<() -> (0, 0), <1x1>, memref<1x1x!ttcore.tile<32x32, bf16>, #dram>, <interleaved>>
#ttnn_layout42 = #ttnn.ttnn_layout<(d0) -> (0, d0), <1x1>, memref<1x80x!ttcore.tile<32x32, bf16>, #dram>, <interleaved>>
#ttnn_layout43 = #ttnn.ttnn_layout<(d0, d1) -> (d0, d1), <1x1>, memref<1x7xsi32, #dram>, <interleaved>>
#ttnn_layout44 = #ttnn.ttnn_layout<() -> (0, 0), <1x1>, memref<1x1xbf16, #dram>, <interleaved>>
#ttnn_layout45 = #ttnn.ttnn_layout<(d0) -> (0, d0), <1x1>, memref<1x4x!ttcore.tile<32x32, bf16>, #dram>, <interleaved>>
#ttnn_layout46 = #ttnn.ttnn_layout<(d0, d1, d2) -> (d0 * 32 + d1, d2), <1x1>, memref<1x80x!ttcore.tile<32x32, bf16>, #dram>, <interleaved>>
#ttnn_layout47 = #ttnn.ttnn_layout<(d0, d1) -> (d0, d1), <1x1>, memref<1x80x!ttcore.tile<32x32, bf16>, #dram>, <interleaved>>
#ttnn_layout48 = #ttnn.ttnn_layout<(d0, d1) -> (d0, d1), <1x1>, memref<1x32x!ttcore.tile<32x32, bf16>, #dram>, <interleaved>>
#ttnn_layout49 = #ttnn.ttnn_layout<(d0, d1, d2, d3) -> (d0 * 224 + d1 * 32 + d2, d3), <1x1>, memref<7x4x!ttcore.tile<32x32, bf16>, #dram>, <interleaved>>
#ttnn_layout50 = #ttnn.ttnn_layout<(d0, d1, d2, d3) -> (d0 * 256 + d1 * 32 + d2, d3), <1x1>, memref<8x4x!ttcore.tile<32x32, bf16>, #dram>, <interleaved>>
#ttnn_layout51 = #ttnn.ttnn_layout<(d0, d1) -> (d0, d1), <1x1>, memref<1x8x!ttcore.tile<32x32, bf16>, #dram>, <interleaved>>
#ttnn_layout52 = #ttnn.ttnn_layout<(d0, d1, d2, d3) -> (d0 * 64 + d1 * 32 + d2, d3), <1x1>, memref<2x4x!ttcore.tile<32x32, bf16>, #dram>, <interleaved>>
#ttnn_layout53 = #ttnn.ttnn_layout<(d0, d1, d2) -> (d0 * 32 + d1, d2), <1x1>, memref<1x32x!ttcore.tile<32x32, bf16>, #dram>, <interleaved>>
#ttnn_layout54 = #ttnn.ttnn_layout<(d0, d1, d2, d3) -> (d0 * 32 + d1 * 32 + d2, d3), <1x1>, memref<1x80x!ttcore.tile<32x32, bf16>, #dram>, <interleaved>>
#ttnn_layout55 = #ttnn.ttnn_layout<(d0, d1, d2, d3) -> (d0 * 32 + d1 * 32 + d2, d3), <1x1>, memref<1x20x!ttcore.tile<32x32, bf16>, #dram>, <interleaved>>
#ttnn_layout56 = #ttnn.ttnn_layout<(d0, d1) -> (d0, d1), <1x1>, memref<1x20x!ttcore.tile<32x32, bf16>, #dram>, <interleaved>>
#ttnn_layout57 = #ttnn.ttnn_layout<(d0, d1) -> (d0, d1), <1x1>, memref<1x76x!ttcore.tile<32x32, bf16>, #dram>, <interleaved>>
module @SyncTensorsGraph.13625 attributes {mhlo.cross_program_prefetches = [], mhlo.input_output_alias = [], mhlo.is_dynamic = false, mhlo.use_auto_spmd_partitioning = false, ttcore.meshes = #ttcore.meshes<[<"mesh" = 1x4>]>} {
  ttcore.device_module {
    builtin.module @SyncTensorsGraph.13625 attributes {mhlo.cross_program_prefetches = [], mhlo.input_output_alias = [], mhlo.is_dynamic = false, mhlo.use_auto_spmd_partitioning = false, ttcore.meshes = #ttcore.meshes<[<"mesh" = 1x4>]>, ttcore.system_desc = #system_desc} {
      ttcore.device @default_device = <workerGrid = #ttcore.grid<10x13, virt_to_physical_map = (d0, d1) -> (0, d0, d1), physical_to_virt_map = (d0, d1, d2) -> (d1, d2)>, l1Map = (d0, d1, d2)[s0] -> (0, d0, d1, d2 + s0), dramMap = (d0, d1, d2)[s0, s1, s2, s3, s4, s5, s6] -> (0, 0, (((d0 * s1) * (s2 * (s3 * s6)) + d1 * (s2 * (s3 * s6)) + d2) floordiv s4) mod 8, ((((d0 * s1) * (s2 * (s3 * s6)) + d1 * (s2 * (s3 * s6)) + d2) floordiv s4) floordiv 8) * s4 + ((d0 * s1) * (s2 * (s3 * s6)) + d1 * (s2 * (s3 * s6)) + d2) mod s4 + s5), meshShape = 1x4, chipIds = [0, 1, 2, 3], meshTopology = [ring, disabled]> loc(#loc)
      func.func private @main_const_eval_0(%arg0: tensor<151936x2560xbf16, #ttnn_layout> loc(unknown)) -> tensor<151936x2560xbf16, #ttnn_layout1> attributes {tt.function_type = "const_eval"} {
        %0 = "ttnn.get_device"() <{mesh_offset = #ttnn<mesh_offset 0x0>, mesh_shape = #ttnn<mesh_shape 1x4>}> : () -> !ttnn.device loc(#loc1216)
        %1 = "ttnn.to_device"(%arg0, %0) <{memory_config = #ttnn.memory_config<#dram, <interleaved>>}> : (tensor<151936x2560xbf16, #ttnn_layout>, !ttnn.device) -> tensor<151936x2560xbf16, #ttnn_layout1> loc(#loc1216)
        return %1 : tensor<151936x2560xbf16, #ttnn_layout1> loc(#loc)
      } loc(#loc)
      func.func private @main_const_eval_1(%arg0: tensor<2560x9728xbf16, #ttnn_layout2> loc(unknown)) -> tensor<2560x2432xbf16, #ttnn_layout3> attributes {tt.function_type = "const_eval"} {
        %0 = "ttnn.get_device"() <{mesh_offset = #ttnn<mesh_offset 0x0>, mesh_shape = #ttnn<mesh_shape 1x4>}> : () -> !ttnn.device loc(#loc)
        %1 = "ttnn.to_device"(%arg0, %0) <{memory_config = #ttnn.memory_config<#dram, <interleaved>>}> : (tensor<2560x9728xbf16, #ttnn_layout2>, !ttnn.device) -> tensor<2560x9728xbf16, #ttnn_layout4> loc(#loc)
        %2 = "ttnn.to_layout"(%1) <{layout = #ttnn.layout<tile>}> : (tensor<2560x9728xbf16, #ttnn_layout4>) -> tensor<2560x9728xbf16, #ttnn_layout5> loc(#loc)
        "ttnn.deallocate"(%1) <{force = false}> : (tensor<2560x9728xbf16, #ttnn_layout4>) -> () loc(#loc)
        %3 = "ttnn.mesh_shard"(%2, %0) <{shard_dims = array<i64: -1, 1>, shard_direction = #ttcore.shard_direction<full_to_shard>, shard_shape = array<i64: 1, 4>, shard_type = #ttcore.shard_type<identity>}> : (tensor<2560x9728xbf16, #ttnn_layout5>, !ttnn.device) -> tensor<2560x2432xbf16, #ttnn_layout3> loc(#loc)
        return %3 : tensor<2560x2432xbf16, #ttnn_layout3> loc(#loc)
      } loc(#loc)
      func.func private @main_const_eval_2(%arg0: tensor<2560x4096xbf16, #ttnn_layout6> loc(unknown)) -> tensor<2560x1024xbf16, #ttnn_layout7> attributes {tt.function_type = "const_eval"} {
        %0 = "ttnn.get_device"() <{mesh_offset = #ttnn<mesh_offset 0x0>, mesh_shape = #ttnn<mesh_shape 1x4>}> : () -> !ttnn.device loc(#loc)
        %1 = "ttnn.to_device"(%arg0, %0) <{memory_config = #ttnn.memory_config<#dram, <interleaved>>}> : (tensor<2560x4096xbf16, #ttnn_layout6>, !ttnn.device) -> tensor<2560x4096xbf16, #ttnn_layout8> loc(#loc)
        %2 = "ttnn.to_layout"(%1) <{layout = #ttnn.layout<tile>}> : (tensor<2560x4096xbf16, #ttnn_layout8>) -> tensor<2560x4096xbf16, #ttnn_layout9> loc(#loc)
        "ttnn.deallocate"(%1) <{force = false}> : (tensor<2560x4096xbf16, #ttnn_layout8>) -> () loc(#loc)
        %3 = "ttnn.mesh_shard"(%2, %0) <{shard_dims = array<i64: -1, 1>, shard_direction = #ttcore.shard_direction<full_to_shard>, shard_shape = array<i64: 1, 4>, shard_type = #ttcore.shard_type<identity>}> : (tensor<2560x4096xbf16, #ttnn_layout9>, !ttnn.device) -> tensor<2560x1024xbf16, #ttnn_layout7> loc(#loc)
        return %3 : tensor<2560x1024xbf16, #ttnn_layout7> loc(#loc)
      } loc(#loc)
      func.func private @main_const_eval_3(%arg0: tensor<9728x2560xbf16, #ttnn_layout10> loc(unknown)) -> tensor<2432x2560xbf16, #ttnn_layout11> attributes {tt.function_type = "const_eval"} {
        %0 = "ttnn.get_device"() <{mesh_offset = #ttnn<mesh_offset 0x0>, mesh_shape = #ttnn<mesh_shape 1x4>}> : () -> !ttnn.device loc(#loc)
        %1 = "ttnn.to_device"(%arg0, %0) <{memory_config = #ttnn.memory_config<#dram, <interleaved>>}> : (tensor<9728x2560xbf16, #ttnn_layout10>, !ttnn.device) -> tensor<9728x2560xbf16, #ttnn_layout12> loc(#loc)
        %2 = "ttnn.to_layout"(%1) <{layout = #ttnn.layout<tile>}> : (tensor<9728x2560xbf16, #ttnn_layout12>) -> tensor<9728x2560xbf16, #ttnn_layout13> loc(#loc)
        "ttnn.deallocate"(%1) <{force = false}> : (tensor<9728x2560xbf16, #ttnn_layout12>) -> () loc(#loc)
        %3 = "ttnn.mesh_shard"(%2, %0) <{shard_dims = array<i64: -1, 0>, shard_direction = #ttcore.shard_direction<full_to_shard>, shard_shape = array<i64: 4, 1>, shard_type = #ttcore.shard_type<identity>}> : (tensor<9728x2560xbf16, #ttnn_layout13>, !ttnn.device) -> tensor<2432x2560xbf16, #ttnn_layout11> loc(#loc)
        return %3 : tensor<2432x2560xbf16, #ttnn_layout11> loc(#loc)
      } loc(#loc)
      func.func private @main_const_eval_4(%arg0: tensor<2560x4096xbf16, #ttnn_layout6> loc(unknown)) -> tensor<2560x1024xbf16, #ttnn_layout7> attributes {tt.function_type = "const_eval"} {
        %0 = "ttnn.get_device"() <{mesh_offset = #ttnn<mesh_offset 0x0>, mesh_shape = #ttnn<mesh_shape 1x4>}> : () -> !ttnn.device loc(#loc)
        %1 = "ttnn.to_device"(%arg0, %0) <{memory_config = #ttnn.memory_config<#dram, <interleaved>>}> : (tensor<2560x4096xbf16, #ttnn_layout6>, !ttnn.device) -> tensor<2560x4096xbf16, #ttnn_layout8> loc(#loc)
        %2 = "ttnn.to_layout"(%1) <{layout = #ttnn.layout<tile>}> : (tensor<2560x4096xbf16, #ttnn_layout8>) -> tensor<2560x4096xbf16, #ttnn_layout9> loc(#loc)
        "ttnn.deallocate"(%1) <{force = false}> : (tensor<2560x4096xbf16, #ttnn_layout8>) -> () loc(#loc)
        %3 = "ttnn.mesh_shard"(%2, %0) <{shard_dims = array<i64: -1, 1>, shard_direction = #ttcore.shard_direction<full_to_shard>, shard_shape = array<i64: 1, 4>, shard_type = #ttcore.shard_type<identity>}> : (tensor<2560x4096xbf16, #ttnn_layout9>, !ttnn.device) -> tensor<2560x1024xbf16, #ttnn_layout7> loc(#loc)
        return %3 : tensor<2560x1024xbf16, #ttnn_layout7> loc(#loc)
      } loc(#loc)
      func.func private @main_const_eval_5(%arg0: tensor<4096x2560xbf16, #ttnn_layout14> loc(unknown)) -> tensor<1024x2560xbf16, #ttnn_layout15> attributes {tt.function_type = "const_eval"} {
        %0 = "ttnn.get_device"() <{mesh_offset = #ttnn<mesh_offset 0x0>, mesh_shape = #ttnn<mesh_shape 1x4>}> : () -> !ttnn.device loc(#loc)
        %1 = "ttnn.to_device"(%arg0, %0) <{memory_config = #ttnn.memory_config<#dram, <interleaved>>}> : (tensor<4096x2560xbf16, #ttnn_layout14>, !ttnn.device) -> tensor<4096x2560xbf16, #ttnn_layout16> loc(#loc)
        %2 = "ttnn.to_layout"(%1) <{layout = #ttnn.layout<tile>}> : (tensor<4096x2560xbf16, #ttnn_layout16>) -> tensor<4096x2560xbf16, #ttnn_layout17> loc(#loc)
        "ttnn.deallocate"(%1) <{force = false}> : (tensor<4096x2560xbf16, #ttnn_layout16>) -> () loc(#loc)
        %3 = "ttnn.mesh_shard"(%2, %0) <{shard_dims = array<i64: -1, 0>, shard_direction = #ttcore.shard_direction<full_to_shard>, shard_shape = array<i64: 4, 1>, shard_type = #ttcore.shard_type<identity>}> : (tensor<4096x2560xbf16, #ttnn_layout17>, !ttnn.device) -> tensor<1024x2560xbf16, #ttnn_layout15> loc(#loc)
        return %3 : tensor<1024x2560xbf16, #ttnn_layout15> loc(#loc)
      } loc(#loc)
      func.func private @main_const_eval_6(%arg0: tensor<1024x2560xbf16, #ttnn_layout18> loc(unknown)) -> tensor<256x2560xbf16, #ttnn_layout19> attributes {tt.function_type = "const_eval"} {
        %0 = "ttnn.get_device"() <{mesh_offset = #ttnn<mesh_offset 0x0>, mesh_shape = #ttnn<mesh_shape 1x4>}> : () -> !ttnn.device loc(#loc)
        %1 = "ttnn.to_device"(%arg0, %0) <{memory_config = #ttnn.memory_config<#dram, <interleaved>>}> : (tensor<1024x2560xbf16, #ttnn_layout18>, !ttnn.device) -> tensor<1024x2560xbf16, #ttnn_layout20> loc(#loc)
        %2 = "ttnn.to_layout"(%1) <{layout = #ttnn.layout<tile>}> : (tensor<1024x2560xbf16, #ttnn_layout20>) -> tensor<1024x2560xbf16, #ttnn_layout15> loc(#loc)
        "ttnn.deallocate"(%1) <{force = false}> : (tensor<1024x2560xbf16, #ttnn_layout20>) -> () loc(#loc)
        %3 = "ttnn.mesh_shard"(%2, %0) <{shard_dims = array<i64: -1, 0>, shard_direction = #ttcore.shard_direction<full_to_shard>, shard_shape = array<i64: 4, 1>, shard_type = #ttcore.shard_type<identity>}> : (tensor<1024x2560xbf16, #ttnn_layout15>, !ttnn.device) -> tensor<256x2560xbf16, #ttnn_layout19> loc(#loc)
        return %3 : tensor<256x2560xbf16, #ttnn_layout19> loc(#loc)
      } loc(#loc)
      func.func private @main_const_eval_7(%arg0: tensor<1024x2560xbf16, #ttnn_layout18> loc(unknown)) -> tensor<256x2560xbf16, #ttnn_layout19> attributes {tt.function_type = "const_eval"} {
        %0 = "ttnn.get_device"() <{mesh_offset = #ttnn<mesh_offset 0x0>, mesh_shape = #ttnn<mesh_shape 1x4>}> : () -> !ttnn.device loc(#loc)
        %1 = "ttnn.to_device"(%arg0, %0) <{memory_config = #ttnn.memory_config<#dram, <interleaved>>}> : (tensor<1024x2560xbf16, #ttnn_layout18>, !ttnn.device) -> tensor<1024x2560xbf16, #ttnn_layout20> loc(#loc)
        %2 = "ttnn.to_layout"(%1) <{layout = #ttnn.layout<tile>}> : (tensor<1024x2560xbf16, #ttnn_layout20>) -> tensor<1024x2560xbf16, #ttnn_layout15> loc(#loc)
        "ttnn.deallocate"(%1) <{force = false}> : (tensor<1024x2560xbf16, #ttnn_layout20>) -> () loc(#loc)
        %3 = "ttnn.mesh_shard"(%2, %0) <{shard_dims = array<i64: -1, 0>, shard_direction = #ttcore.shard_direction<full_to_shard>, shard_shape = array<i64: 4, 1>, shard_type = #ttcore.shard_type<identity>}> : (tensor<1024x2560xbf16, #ttnn_layout15>, !ttnn.device) -> tensor<256x2560xbf16, #ttnn_layout19> loc(#loc)
        return %3 : tensor<256x2560xbf16, #ttnn_layout19> loc(#loc)
      } loc(#loc)
      func.func private @main_const_eval_8(%arg0: tensor<1024x2560xbf16, #ttnn_layout18> loc(unknown)) -> tensor<256x2560xbf16, #ttnn_layout19> attributes {tt.function_type = "const_eval"} {
        %0 = "ttnn.get_device"() <{mesh_offset = #ttnn<mesh_offset 0x0>, mesh_shape = #ttnn<mesh_shape 1x4>}> : () -> !ttnn.device loc(#loc)
        %1 = "ttnn.to_device"(%arg0, %0) <{memory_config = #ttnn.memory_config<#dram, <interleaved>>}> : (tensor<1024x2560xbf16, #ttnn_layout18>, !ttnn.device) -> tensor<1024x2560xbf16, #ttnn_layout20> loc(#loc)
        %2 = "ttnn.to_layout"(%1) <{layout = #ttnn.layout<tile>}> : (tensor<1024x2560xbf16, #ttnn_layout20>) -> tensor<1024x2560xbf16, #ttnn_layout15> loc(#loc)
        "ttnn.deallocate"(%1) <{force = false}> : (tensor<1024x2560xbf16, #ttnn_layout20>) -> () loc(#loc)
        %3 = "ttnn.mesh_shard"(%2, %0) <{shard_dims = array<i64: -1, 0>, shard_direction = #ttcore.shard_direction<full_to_shard>, shard_shape = array<i64: 4, 1>, shard_type = #ttcore.shard_type<identity>}> : (tensor<1024x2560xbf16, #ttnn_layout15>, !ttnn.device) -> tensor<256x2560xbf16, #ttnn_layout19> loc(#loc)
        return %3 : tensor<256x2560xbf16, #ttnn_layout19> loc(#loc)
      } loc(#loc)
      func.func private @main_const_eval_9(%arg0: tensor<9728x2560xbf16, #ttnn_layout10> loc(unknown)) -> tensor<2432x2560xbf16, #ttnn_layout11> attributes {tt.function_type = "const_eval"} {
        %0 = "ttnn.get_device"() <{mesh_offset = #ttnn<mesh_offset 0x0>, mesh_shape = #ttnn<mesh_shape 1x4>}> : () -> !ttnn.device loc(#loc)
        %1 = "ttnn.to_device"(%arg0, %0) <{memory_config = #ttnn.memory_config<#dram, <interleaved>>}> : (tensor<9728x2560xbf16, #ttnn_layout10>, !ttnn.device) -> tensor<9728x2560xbf16, #ttnn_layout12> loc(#loc)
        %2 = "ttnn.to_layout"(%1) <{layout = #ttnn.layout<tile>}> : (tensor<9728x2560xbf16, #ttnn_layout12>) -> tensor<9728x2560xbf16, #ttnn_layout13> loc(#loc)
        "ttnn.deallocate"(%1) <{force = false}> : (tensor<9728x2560xbf16, #ttnn_layout12>) -> () loc(#loc)
        %3 = "ttnn.mesh_shard"(%2, %0) <{shard_dims = array<i64: -1, 0>, shard_direction = #ttcore.shard_direction<full_to_shard>, shard_shape = array<i64: 4, 1>, shard_type = #ttcore.shard_type<identity>}> : (tensor<9728x2560xbf16, #ttnn_layout13>, !ttnn.device) -> tensor<2432x2560xbf16, #ttnn_layout11> loc(#loc)
        return %3 : tensor<2432x2560xbf16, #ttnn_layout11> loc(#loc)
      } loc(#loc)
      func.func private @main_const_eval_10(%arg0: tensor<4096x2560xbf16, #ttnn_layout14> loc(unknown)) -> tensor<1024x2560xbf16, #ttnn_layout15> attributes {tt.function_type = "const_eval"} {
        %0 = "ttnn.get_device"() <{mesh_offset = #ttnn<mesh_offset 0x0>, mesh_shape = #ttnn<mesh_shape 1x4>}> : () -> !ttnn.device loc(#loc)
        %1 = "ttnn.to_device"(%arg0, %0) <{memory_config = #ttnn.memory_config<#dram, <interleaved>>}> : (tensor<4096x2560xbf16, #ttnn_layout14>, !ttnn.device) -> tensor<4096x2560xbf16, #ttnn_layout16> loc(#loc)
        %2 = "ttnn.to_layout"(%1) <{layout = #ttnn.layout<tile>}> : (tensor<4096x2560xbf16, #ttnn_layout16>) -> tensor<4096x2560xbf16, #ttnn_layout17> loc(#loc)
        "ttnn.deallocate"(%1) <{force = false}> : (tensor<4096x2560xbf16, #ttnn_layout16>) -> () loc(#loc)
        %3 = "ttnn.mesh_shard"(%2, %0) <{shard_dims = array<i64: -1, 0>, shard_direction = #ttcore.shard_direction<full_to_shard>, shard_shape = array<i64: 4, 1>, shard_type = #ttcore.shard_type<identity>}> : (tensor<4096x2560xbf16, #ttnn_layout17>, !ttnn.device) -> tensor<1024x2560xbf16, #ttnn_layout15> loc(#loc)
        return %3 : tensor<1024x2560xbf16, #ttnn_layout15> loc(#loc)
      } loc(#loc)
      func.func private @main_const_eval_11(%arg0: tensor<1024x2560xbf16, #ttnn_layout18> loc(unknown)) -> tensor<256x2560xbf16, #ttnn_layout19> attributes {tt.function_type = "const_eval"} {
        %0 = "ttnn.get_device"() <{mesh_offset = #ttnn<mesh_offset 0x0>, mesh_shape = #ttnn<mesh_shape 1x4>}> : () -> !ttnn.device loc(#loc)
        %1 = "ttnn.to_device"(%arg0, %0) <{memory_config = #ttnn.memory_config<#dram, <interleaved>>}> : (tensor<1024x2560xbf16, #ttnn_layout18>, !ttnn.device) -> tensor<1024x2560xbf16, #ttnn_layout20> loc(#loc)
        %2 = "ttnn.to_layout"(%1) <{layout = #ttnn.layout<tile>}> : (tensor<1024x2560xbf16, #ttnn_layout20>) -> tensor<1024x2560xbf16, #ttnn_layout15> loc(#loc)
        "ttnn.deallocate"(%1) <{force = false}> : (tensor<1024x2560xbf16, #ttnn_layout20>) -> () loc(#loc)
        %3 = "ttnn.mesh_shard"(%2, %0) <{shard_dims = array<i64: -1, 0>, shard_direction = #ttcore.shard_direction<full_to_shard>, shard_shape = array<i64: 4, 1>, shard_type = #ttcore.shard_type<identity>}> : (tensor<1024x2560xbf16, #ttnn_layout15>, !ttnn.device) -> tensor<256x2560xbf16, #ttnn_layout19> loc(#loc)
        return %3 : tensor<256x2560xbf16, #ttnn_layout19> loc(#loc)
      } loc(#loc)
      func.func private @main_const_eval_12(%arg0: tensor<2560x9728xbf16, #ttnn_layout2> loc(unknown)) -> tensor<2560x2432xbf16, #ttnn_layout3> attributes {tt.function_type = "const_eval"} {
        %0 = "ttnn.get_device"() <{mesh_offset = #ttnn<mesh_offset 0x0>, mesh_shape = #ttnn<mesh_shape 1x4>}> : () -> !ttnn.device loc(#loc)
        %1 = "ttnn.to_device"(%arg0, %0) <{memory_config = #ttnn.memory_config<#dram, <interleaved>>}> : (tensor<2560x9728xbf16, #ttnn_layout2>, !ttnn.device) -> tensor<2560x9728xbf16, #ttnn_layout4> loc(#loc)
        %2 = "ttnn.to_layout"(%1) <{layout = #ttnn.layout<tile>}> : (tensor<2560x9728xbf16, #ttnn_layout4>) -> tensor<2560x9728xbf16, #ttnn_layout5> loc(#loc)
        "ttnn.deallocate"(%1) <{force = false}> : (tensor<2560x9728xbf16, #ttnn_layout4>) -> () loc(#loc)
        %3 = "ttnn.mesh_shard"(%2, %0) <{shard_dims = array<i64: -1, 1>, shard_direction = #ttcore.shard_direction<full_to_shard>, shard_shape = array<i64: 1, 4>, shard_type = #ttcore.shard_type<identity>}> : (tensor<2560x9728xbf16, #ttnn_layout5>, !ttnn.device) -> tensor<2560x2432xbf16, #ttnn_layout3> loc(#loc)
        return %3 : tensor<2560x2432xbf16, #ttnn_layout3> loc(#loc)
      } loc(#loc)
      func.func private @main_const_eval_13(%arg0: tensor<9728x2560xbf16, #ttnn_layout10> loc(unknown)) -> tensor<2432x2560xbf16, #ttnn_layout11> attributes {tt.function_type = "const_eval"} {
        %0 = "ttnn.get_device"() <{mesh_offset = #ttnn<mesh_offset 0x0>, mesh_shape = #ttnn<mesh_shape 1x4>}> : () -> !ttnn.device loc(#loc)
        %1 = "ttnn.to_device"(%arg0, %0) <{memory_config = #ttnn.memory_config<#dram, <interleaved>>}> : (tensor<9728x2560xbf16, #ttnn_layout10>, !ttnn.device) -> tensor<9728x2560xbf16, #ttnn_layout12> loc(#loc)
        %2 = "ttnn.to_layout"(%1) <{layout = #ttnn.layout<tile>}> : (tensor<9728x2560xbf16, #ttnn_layout12>) -> tensor<9728x2560xbf16, #ttnn_layout13> loc(#loc)
        "ttnn.deallocate"(%1) <{force = false}> : (tensor<9728x2560xbf16, #ttnn_layout12>) -> () loc(#loc)
        %3 = "ttnn.mesh_shard"(%2, %0) <{shard_dims = array<i64: -1, 0>, shard_direction = #ttcore.shard_direction<full_to_shard>, shard_shape = array<i64: 4, 1>, shard_type = #ttcore.shard_type<identity>}> : (tensor<9728x2560xbf16, #ttnn_layout13>, !ttnn.device) -> tensor<2432x2560xbf16, #ttnn_layout11> loc(#loc)
        return %3 : tensor<2432x2560xbf16, #ttnn_layout11> loc(#loc)
      } loc(#loc)
      func.func private @main_const_eval_14(%arg0: tensor<9728x2560xbf16, #ttnn_layout10> loc(unknown)) -> tensor<2432x2560xbf16, #ttnn_layout11> attributes {tt.function_type = "const_eval"} {
        %0 = "ttnn.get_device"() <{mesh_offset = #ttnn<mesh_offset 0x0>, mesh_shape = #ttnn<mesh_shape 1x4>}> : () -> !ttnn.device loc(#loc)
        %1 = "ttnn.to_device"(%arg0, %0) <{memory_config = #ttnn.memory_config<#dram, <interleaved>>}> : (tensor<9728x2560xbf16, #ttnn_layout10>, !ttnn.device) -> tensor<9728x2560xbf16, #ttnn_layout12> loc(#loc)
        %2 = "ttnn.to_layout"(%1) <{layout = #ttnn.layout<tile>}> : (tensor<9728x2560xbf16, #ttnn_layout12>) -> tensor<9728x2560xbf16, #ttnn_layout13> loc(#loc)
        "ttnn.deallocate"(%1) <{force = false}> : (tensor<9728x2560xbf16, #ttnn_layout12>) -> () loc(#loc)
        %3 = "ttnn.mesh_shard"(%2, %0) <{shard_dims = array<i64: -1, 0>, shard_direction = #ttcore.shard_direction<full_to_shard>, shard_shape = array<i64: 4, 1>, shard_type = #ttcore.shard_type<identity>}> : (tensor<9728x2560xbf16, #ttnn_layout13>, !ttnn.device) -> tensor<2432x2560xbf16, #ttnn_layout11> loc(#loc)
        return %3 : tensor<2432x2560xbf16, #ttnn_layout11> loc(#loc)
      } loc(#loc)
      func.func private @main_const_eval_15(%arg0: tensor<9728x2560xbf16, #ttnn_layout10> loc(unknown)) -> tensor<2432x2560xbf16, #ttnn_layout11> attributes {tt.function_type = "const_eval"} {
        %0 = "ttnn.get_device"() <{mesh_offset = #ttnn<mesh_offset 0x0>, mesh_shape = #ttnn<mesh_shape 1x4>}> : () -> !ttnn.device loc(#loc)
        %1 = "ttnn.to_device"(%arg0, %0) <{memory_config = #ttnn.memory_config<#dram, <interleaved>>}> : (tensor<9728x2560xbf16, #ttnn_layout10>, !ttnn.device) -> tensor<9728x2560xbf16, #ttnn_layout12> loc(#loc)
        %2 = "ttnn.to_layout"(%1) <{layout = #ttnn.layout<tile>}> : (tensor<9728x2560xbf16, #ttnn_layout12>) -> tensor<9728x2560xbf16, #ttnn_layout13> loc(#loc)
        "ttnn.deallocate"(%1) <{force = false}> : (tensor<9728x2560xbf16, #ttnn_layout12>) -> () loc(#loc)
        %3 = "ttnn.mesh_shard"(%2, %0) <{shard_dims = array<i64: -1, 0>, shard_direction = #ttcore.shard_direction<full_to_shard>, shard_shape = array<i64: 4, 1>, shard_type = #ttcore.shard_type<identity>}> : (tensor<9728x2560xbf16, #ttnn_layout13>, !ttnn.device) -> tensor<2432x2560xbf16, #ttnn_layout11> loc(#loc)
        return %3 : tensor<2432x2560xbf16, #ttnn_layout11> loc(#loc)
      } loc(#loc)
      func.func private @main_const_eval_16(%arg0: tensor<4096x2560xbf16, #ttnn_layout14> loc(unknown)) -> tensor<1024x2560xbf16, #ttnn_layout15> attributes {tt.function_type = "const_eval"} {
        %0 = "ttnn.get_device"() <{mesh_offset = #ttnn<mesh_offset 0x0>, mesh_shape = #ttnn<mesh_shape 1x4>}> : () -> !ttnn.device loc(#loc)
        %1 = "ttnn.to_device"(%arg0, %0) <{memory_config = #ttnn.memory_config<#dram, <interleaved>>}> : (tensor<4096x2560xbf16, #ttnn_layout14>, !ttnn.device) -> tensor<4096x2560xbf16, #ttnn_layout16> loc(#loc)
        %2 = "ttnn.to_layout"(%1) <{layout = #ttnn.layout<tile>}> : (tensor<4096x2560xbf16, #ttnn_layout16>) -> tensor<4096x2560xbf16, #ttnn_layout17> loc(#loc)
        "ttnn.deallocate"(%1) <{force = false}> : (tensor<4096x2560xbf16, #ttnn_layout16>) -> () loc(#loc)
        %3 = "ttnn.mesh_shard"(%2, %0) <{shard_dims = array<i64: -1, 0>, shard_direction = #ttcore.shard_direction<full_to_shard>, shard_shape = array<i64: 4, 1>, shard_type = #ttcore.shard_type<identity>}> : (tensor<4096x2560xbf16, #ttnn_layout17>, !ttnn.device) -> tensor<1024x2560xbf16, #ttnn_layout15> loc(#loc)
        return %3 : tensor<1024x2560xbf16, #ttnn_layout15> loc(#loc)
      } loc(#loc)
      func.func private @main_const_eval_17(%arg0: tensor<2560x4096xbf16, #ttnn_layout6> loc(unknown)) -> tensor<2560x1024xbf16, #ttnn_layout7> attributes {tt.function_type = "const_eval"} {
        %0 = "ttnn.get_device"() <{mesh_offset = #ttnn<mesh_offset 0x0>, mesh_shape = #ttnn<mesh_shape 1x4>}> : () -> !ttnn.device loc(#loc)
        %1 = "ttnn.to_device"(%arg0, %0) <{memory_config = #ttnn.memory_config<#dram, <interleaved>>}> : (tensor<2560x4096xbf16, #ttnn_layout6>, !ttnn.device) -> tensor<2560x4096xbf16, #ttnn_layout8> loc(#loc)
        %2 = "ttnn.to_layout"(%1) <{layout = #ttnn.layout<tile>}> : (tensor<2560x4096xbf16, #ttnn_layout8>) -> tensor<2560x4096xbf16, #ttnn_layout9> loc(#loc)
        "ttnn.deallocate"(%1) <{force = false}> : (tensor<2560x4096xbf16, #ttnn_layout8>) -> () loc(#loc)
        %3 = "ttnn.mesh_shard"(%2, %0) <{shard_dims = array<i64: -1, 1>, shard_direction = #ttcore.shard_direction<full_to_shard>, shard_shape = array<i64: 1, 4>, shard_type = #ttcore.shard_type<identity>}> : (tensor<2560x4096xbf16, #ttnn_layout9>, !ttnn.device) -> tensor<2560x1024xbf16, #ttnn_layout7> loc(#loc)
        return %3 : tensor<2560x1024xbf16, #ttnn_layout7> loc(#loc)
      } loc(#loc)
      func.func private @main_const_eval_18(%arg0: tensor<1024x2560xbf16, #ttnn_layout18> loc(unknown)) -> tensor<256x2560xbf16, #ttnn_layout19> attributes {tt.function_type = "const_eval"} {
        %0 = "ttnn.get_device"() <{mesh_offset = #ttnn<mesh_offset 0x0>, mesh_shape = #ttnn<mesh_shape 1x4>}> : () -> !ttnn.device loc(#loc)
        %1 = "ttnn.to_device"(%arg0, %0) <{memory_config = #ttnn.memory_config<#dram, <interleaved>>}> : (tensor<1024x2560xbf16, #ttnn_layout18>, !ttnn.device) -> tensor<1024x2560xbf16, #ttnn_layout20> loc(#loc)
        %2 = "ttnn.to_layout"(%1) <{layout = #ttnn.layout<tile>}> : (tensor<1024x2560xbf16, #ttnn_layout20>) -> tensor<1024x2560xbf16, #ttnn_layout15> loc(#loc)
        "ttnn.deallocate"(%1) <{force = false}> : (tensor<1024x2560xbf16, #ttnn_layout20>) -> () loc(#loc)
        %3 = "ttnn.mesh_shard"(%2, %0) <{shard_dims = array<i64: -1, 0>, shard_direction = #ttcore.shard_direction<full_to_shard>, shard_shape = array<i64: 4, 1>, shard_type = #ttcore.shard_type<identity>}> : (tensor<1024x2560xbf16, #ttnn_layout15>, !ttnn.device) -> tensor<256x2560xbf16, #ttnn_layout19> loc(#loc)
        return %3 : tensor<256x2560xbf16, #ttnn_layout19> loc(#loc)
      } loc(#loc)
      func.func private @main_const_eval_19(%arg0: tensor<4096x2560xbf16, #ttnn_layout14> loc(unknown)) -> tensor<1024x2560xbf16, #ttnn_layout15> attributes {tt.function_type = "const_eval"} {
        %0 = "ttnn.get_device"() <{mesh_offset = #ttnn<mesh_offset 0x0>, mesh_shape = #ttnn<mesh_shape 1x4>}> : () -> !ttnn.device loc(#loc)
        %1 = "ttnn.to_device"(%arg0, %0) <{memory_config = #ttnn.memory_config<#dram, <interleaved>>}> : (tensor<4096x2560xbf16, #ttnn_layout14>, !ttnn.device) -> tensor<4096x2560xbf16, #ttnn_layout16> loc(#loc)
        %2 = "ttnn.to_layout"(%1) <{layout = #ttnn.layout<tile>}> : (tensor<4096x2560xbf16, #ttnn_layout16>) -> tensor<4096x2560xbf16, #ttnn_layout17> loc(#loc)
        "ttnn.deallocate"(%1) <{force = false}> : (tensor<4096x2560xbf16, #ttnn_layout16>) -> () loc(#loc)
        %3 = "ttnn.mesh_shard"(%2, %0) <{shard_dims = array<i64: -1, 0>, shard_direction = #ttcore.shard_direction<full_to_shard>, shard_shape = array<i64: 4, 1>, shard_type = #ttcore.shard_type<identity>}> : (tensor<4096x2560xbf16, #ttnn_layout17>, !ttnn.device) -> tensor<1024x2560xbf16, #ttnn_layout15> loc(#loc)
        return %3 : tensor<1024x2560xbf16, #ttnn_layout15> loc(#loc)
      } loc(#loc)
      func.func private @main_const_eval_20(%arg0: tensor<2560x4096xbf16, #ttnn_layout6> loc(unknown)) -> tensor<2560x1024xbf16, #ttnn_layout7> attributes {tt.function_type = "const_eval"} {
        %0 = "ttnn.get_device"() <{mesh_offset = #ttnn<mesh_offset 0x0>, mesh_shape = #ttnn<mesh_shape 1x4>}> : () -> !ttnn.device loc(#loc)
        %1 = "ttnn.to_device"(%arg0, %0) <{memory_config = #ttnn.memory_config<#dram, <interleaved>>}> : (tensor<2560x4096xbf16, #ttnn_layout6>, !ttnn.device) -> tensor<2560x4096xbf16, #ttnn_layout8> loc(#loc)
        %2 = "ttnn.to_layout"(%1) <{layout = #ttnn.layout<tile>}> : (tensor<2560x4096xbf16, #ttnn_layout8>) -> tensor<2560x4096xbf16, #ttnn_layout9> loc(#loc)
        "ttnn.deallocate"(%1) <{force = false}> : (tensor<2560x4096xbf16, #ttnn_layout8>) -> () loc(#loc)
        %3 = "ttnn.mesh_shard"(%2, %0) <{shard_dims = array<i64: -1, 1>, shard_direction = #ttcore.shard_direction<full_to_shard>, shard_shape = array<i64: 1, 4>, shard_type = #ttcore.shard_type<identity>}> : (tensor<2560x4096xbf16, #ttnn_layout9>, !ttnn.device) -> tensor<2560x1024xbf16, #ttnn_layout7> loc(#loc)
        return %3 : tensor<2560x1024xbf16, #ttnn_layout7> loc(#loc)
      } loc(#loc)
      func.func private @main_const_eval_21(%arg0: tensor<2560x9728xbf16, #ttnn_layout2> loc(unknown)) -> tensor<2560x2432xbf16, #ttnn_layout3> attributes {tt.function_type = "const_eval"} {
        %0 = "ttnn.get_device"() <{mesh_offset = #ttnn<mesh_offset 0x0>, mesh_shape = #ttnn<mesh_shape 1x4>}> : () -> !ttnn.device loc(#loc)
        %1 = "ttnn.to_device"(%arg0, %0) <{memory_config = #ttnn.memory_config<#dram, <interleaved>>}> : (tensor<2560x9728xbf16, #ttnn_layout2>, !ttnn.device) -> tensor<2560x9728xbf16, #ttnn_layout4> loc(#loc)
        %2 = "ttnn.to_layout"(%1) <{layout = #ttnn.layout<tile>}> : (tensor<2560x9728xbf16, #ttnn_layout4>) -> tensor<2560x9728xbf16, #ttnn_layout5> loc(#loc)
        "ttnn.deallocate"(%1) <{force = false}> : (tensor<2560x9728xbf16, #ttnn_layout4>) -> () loc(#loc)
        %3 = "ttnn.mesh_shard"(%2, %0) <{shard_dims = array<i64: -1, 1>, shard_direction = #ttcore.shard_direction<full_to_shard>, shard_shape = array<i64: 1, 4>, shard_type = #ttcore.shard_type<identity>}> : (tensor<2560x9728xbf16, #ttnn_layout5>, !ttnn.device) -> tensor<2560x2432xbf16, #ttnn_layout3> loc(#loc)
        return %3 : tensor<2560x2432xbf16, #ttnn_layout3> loc(#loc)
      } loc(#loc)
      func.func private @main_const_eval_22(%arg0: tensor<2560x4096xbf16, #ttnn_layout6> loc(unknown)) -> tensor<2560x1024xbf16, #ttnn_layout7> attributes {tt.function_type = "const_eval"} {
        %0 = "ttnn.get_device"() <{mesh_offset = #ttnn<mesh_offset 0x0>, mesh_shape = #ttnn<mesh_shape 1x4>}> : () -> !ttnn.device loc(#loc)
        %1 = "ttnn.to_device"(%arg0, %0) <{memory_config = #ttnn.memory_config<#dram, <interleaved>>}> : (tensor<2560x4096xbf16, #ttnn_layout6>, !ttnn.device) -> tensor<2560x4096xbf16, #ttnn_layout8> loc(#loc)
        %2 = "ttnn.to_layout"(%1) <{layout = #ttnn.layout<tile>}> : (tensor<2560x4096xbf16, #ttnn_layout8>) -> tensor<2560x4096xbf16, #ttnn_layout9> loc(#loc)
        "ttnn.deallocate"(%1) <{force = false}> : (tensor<2560x4096xbf16, #ttnn_layout8>) -> () loc(#loc)
        %3 = "ttnn.mesh_shard"(%2, %0) <{shard_dims = array<i64: -1, 1>, shard_direction = #ttcore.shard_direction<full_to_shard>, shard_shape = array<i64: 1, 4>, shard_type = #ttcore.shard_type<identity>}> : (tensor<2560x4096xbf16, #ttnn_layout9>, !ttnn.device) -> tensor<2560x1024xbf16, #ttnn_layout7> loc(#loc)
        return %3 : tensor<2560x1024xbf16, #ttnn_layout7> loc(#loc)
      } loc(#loc)
      func.func private @main_const_eval_23(%arg0: tensor<2560x9728xbf16, #ttnn_layout2> loc(unknown)) -> tensor<2560x2432xbf16, #ttnn_layout3> attributes {tt.function_type = "const_eval"} {
        %0 = "ttnn.get_device"() <{mesh_offset = #ttnn<mesh_offset 0x0>, mesh_shape = #ttnn<mesh_shape 1x4>}> : () -> !ttnn.device loc(#loc)
        %1 = "ttnn.to_device"(%arg0, %0) <{memory_config = #ttnn.memory_config<#dram, <interleaved>>}> : (tensor<2560x9728xbf16, #ttnn_layout2>, !ttnn.device) -> tensor<2560x9728xbf16, #ttnn_layout4> loc(#loc)
        %2 = "ttnn.to_layout"(%1) <{layout = #ttnn.layout<tile>}> : (tensor<2560x9728xbf16, #ttnn_layout4>) -> tensor<2560x9728xbf16, #ttnn_layout5> loc(#loc)
        "ttnn.deallocate"(%1) <{force = false}> : (tensor<2560x9728xbf16, #ttnn_layout4>) -> () loc(#loc)
        %3 = "ttnn.mesh_shard"(%2, %0) <{shard_dims = array<i64: -1, 1>, shard_direction = #ttcore.shard_direction<full_to_shard>, shard_shape = array<i64: 1, 4>, shard_type = #ttcore.shard_type<identity>}> : (tensor<2560x9728xbf16, #ttnn_layout5>, !ttnn.device) -> tensor<2560x2432xbf16, #ttnn_layout3> loc(#loc)
        return %3 : tensor<2560x2432xbf16, #ttnn_layout3> loc(#loc)
      } loc(#loc)
      func.func private @main_const_eval_24(%arg0: tensor<2560x4096xbf16, #ttnn_layout6> loc(unknown)) -> tensor<2560x1024xbf16, #ttnn_layout7> attributes {tt.function_type = "const_eval"} {
        %0 = "ttnn.get_device"() <{mesh_offset = #ttnn<mesh_offset 0x0>, mesh_shape = #ttnn<mesh_shape 1x4>}> : () -> !ttnn.device loc(#loc)
        %1 = "ttnn.to_device"(%arg0, %0) <{memory_config = #ttnn.memory_config<#dram, <interleaved>>}> : (tensor<2560x4096xbf16, #ttnn_layout6>, !ttnn.device) -> tensor<2560x4096xbf16, #ttnn_layout8> loc(#loc)
        %2 = "ttnn.to_layout"(%1) <{layout = #ttnn.layout<tile>}> : (tensor<2560x4096xbf16, #ttnn_layout8>) -> tensor<2560x4096xbf16, #ttnn_layout9> loc(#loc)
        "ttnn.deallocate"(%1) <{force = false}> : (tensor<2560x4096xbf16, #ttnn_layout8>) -> () loc(#loc)
        %3 = "ttnn.mesh_shard"(%2, %0) <{shard_dims = array<i64: -1, 1>, shard_direction = #ttcore.shard_direction<full_to_shard>, shard_shape = array<i64: 1, 4>, shard_type = #ttcore.shard_type<identity>}> : (tensor<2560x4096xbf16, #ttnn_layout9>, !ttnn.device) -> tensor<2560x1024xbf16, #ttnn_layout7> loc(#loc)
        return %3 : tensor<2560x1024xbf16, #ttnn_layout7> loc(#loc)
      } loc(#loc)
      func.func private @main_const_eval_25(%arg0: tensor<2560x4096xbf16, #ttnn_layout6> loc(unknown)) -> tensor<2560x1024xbf16, #ttnn_layout7> attributes {tt.function_type = "const_eval"} {
        %0 = "ttnn.get_device"() <{mesh_offset = #ttnn<mesh_offset 0x0>, mesh_shape = #ttnn<mesh_shape 1x4>}> : () -> !ttnn.device loc(#loc)
        %1 = "ttnn.to_device"(%arg0, %0) <{memory_config = #ttnn.memory_config<#dram, <interleaved>>}> : (tensor<2560x4096xbf16, #ttnn_layout6>, !ttnn.device) -> tensor<2560x4096xbf16, #ttnn_layout8> loc(#loc)
        %2 = "ttnn.to_layout"(%1) <{layout = #ttnn.layout<tile>}> : (tensor<2560x4096xbf16, #ttnn_layout8>) -> tensor<2560x4096xbf16, #ttnn_layout9> loc(#loc)
        "ttnn.deallocate"(%1) <{force = false}> : (tensor<2560x4096xbf16, #ttnn_layout8>) -> () loc(#loc)
        %3 = "ttnn.mesh_shard"(%2, %0) <{shard_dims = array<i64: -1, 1>, shard_direction = #ttcore.shard_direction<full_to_shard>, shard_shape = array<i64: 1, 4>, shard_type = #ttcore.shard_type<identity>}> : (tensor<2560x4096xbf16, #ttnn_layout9>, !ttnn.device) -> tensor<2560x1024xbf16, #ttnn_layout7> loc(#loc)
        return %3 : tensor<2560x1024xbf16, #ttnn_layout7> loc(#loc)
      } loc(#loc)
      func.func private @main_const_eval_26(%arg0: tensor<4096x2560xbf16, #ttnn_layout14> loc(unknown)) -> tensor<1024x2560xbf16, #ttnn_layout15> attributes {tt.function_type = "const_eval"} {
        %0 = "ttnn.get_device"() <{mesh_offset = #ttnn<mesh_offset 0x0>, mesh_shape = #ttnn<mesh_shape 1x4>}> : () -> !ttnn.device loc(#loc)
        %1 = "ttnn.to_device"(%arg0, %0) <{memory_config = #ttnn.memory_config<#dram, <interleaved>>}> : (tensor<4096x2560xbf16, #ttnn_layout14>, !ttnn.device) -> tensor<4096x2560xbf16, #ttnn_layout16> loc(#loc)
        %2 = "ttnn.to_layout"(%1) <{layout = #ttnn.layout<tile>}> : (tensor<4096x2560xbf16, #ttnn_layout16>) -> tensor<4096x2560xbf16, #ttnn_layout17> loc(#loc)
        "ttnn.deallocate"(%1) <{force = false}> : (tensor<4096x2560xbf16, #ttnn_layout16>) -> () loc(#loc)
        %3 = "ttnn.mesh_shard"(%2, %0) <{shard_dims = array<i64: -1, 0>, shard_direction = #ttcore.shard_direction<full_to_shard>, shard_shape = array<i64: 4, 1>, shard_type = #ttcore.shard_type<identity>}> : (tensor<4096x2560xbf16, #ttnn_layout17>, !ttnn.device) -> tensor<1024x2560xbf16, #ttnn_layout15> loc(#loc)
        return %3 : tensor<1024x2560xbf16, #ttnn_layout15> loc(#loc)
      } loc(#loc)
      func.func private @main_const_eval_27(%arg0: tensor<2560x4096xbf16, #ttnn_layout6> loc(unknown)) -> tensor<2560x1024xbf16, #ttnn_layout7> attributes {tt.function_type = "const_eval"} {
        %0 = "ttnn.get_device"() <{mesh_offset = #ttnn<mesh_offset 0x0>, mesh_shape = #ttnn<mesh_shape 1x4>}> : () -> !ttnn.device loc(#loc)
        %1 = "ttnn.to_device"(%arg0, %0) <{memory_config = #ttnn.memory_config<#dram, <interleaved>>}> : (tensor<2560x4096xbf16, #ttnn_layout6>, !ttnn.device) -> tensor<2560x4096xbf16, #ttnn_layout8> loc(#loc)
        %2 = "ttnn.to_layout"(%1) <{layout = #ttnn.layout<tile>}> : (tensor<2560x4096xbf16, #ttnn_layout8>) -> tensor<2560x4096xbf16, #ttnn_layout9> loc(#loc)
        "ttnn.deallocate"(%1) <{force = false}> : (tensor<2560x4096xbf16, #ttnn_layout8>) -> () loc(#loc)
        %3 = "ttnn.mesh_shard"(%2, %0) <{shard_dims = array<i64: -1, 1>, shard_direction = #ttcore.shard_direction<full_to_shard>, shard_shape = array<i64: 1, 4>, shard_type = #ttcore.shard_type<identity>}> : (tensor<2560x4096xbf16, #ttnn_layout9>, !ttnn.device) -> tensor<2560x1024xbf16, #ttnn_layout7> loc(#loc)
        return %3 : tensor<2560x1024xbf16, #ttnn_layout7> loc(#loc)
      } loc(#loc)
      func.func private @main_const_eval_28(%arg0: tensor<4096x2560xbf16, #ttnn_layout14> loc(unknown)) -> tensor<1024x2560xbf16, #ttnn_layout15> attributes {tt.function_type = "const_eval"} {
        %0 = "ttnn.get_device"() <{mesh_offset = #ttnn<mesh_offset 0x0>, mesh_shape = #ttnn<mesh_shape 1x4>}> : () -> !ttnn.device loc(#loc)
        %1 = "ttnn.to_device"(%arg0, %0) <{memory_config = #ttnn.memory_config<#dram, <interleaved>>}> : (tensor<4096x2560xbf16, #ttnn_layout14>, !ttnn.device) -> tensor<4096x2560xbf16, #ttnn_layout16> loc(#loc)
        %2 = "ttnn.to_layout"(%1) <{layout = #ttnn.layout<tile>}> : (tensor<4096x2560xbf16, #ttnn_layout16>) -> tensor<4096x2560xbf16, #ttnn_layout17> loc(#loc)
        "ttnn.deallocate"(%1) <{force = false}> : (tensor<4096x2560xbf16, #ttnn_layout16>) -> () loc(#loc)
        %3 = "ttnn.mesh_shard"(%2, %0) <{shard_dims = array<i64: -1, 0>, shard_direction = #ttcore.shard_direction<full_to_shard>, shard_shape = array<i64: 4, 1>, shard_type = #ttcore.shard_type<identity>}> : (tensor<4096x2560xbf16, #ttnn_layout17>, !ttnn.device) -> tensor<1024x2560xbf16, #ttnn_layout15> loc(#loc)
        return %3 : tensor<1024x2560xbf16, #ttnn_layout15> loc(#loc)
      } loc(#loc)
      func.func private @main_const_eval_29(%arg0: tensor<4096x2560xbf16, #ttnn_layout14> loc(unknown)) -> tensor<1024x2560xbf16, #ttnn_layout15> attributes {tt.function_type = "const_eval"} {
        %0 = "ttnn.get_device"() <{mesh_offset = #ttnn<mesh_offset 0x0>, mesh_shape = #ttnn<mesh_shape 1x4>}> : () -> !ttnn.device loc(#loc)
        %1 = "ttnn.to_device"(%arg0, %0) <{memory_config = #ttnn.memory_config<#dram, <interleaved>>}> : (tensor<4096x2560xbf16, #ttnn_layout14>, !ttnn.device) -> tensor<4096x2560xbf16, #ttnn_layout16> loc(#loc)
        %2 = "ttnn.to_layout"(%1) <{layout = #ttnn.layout<tile>}> : (tensor<4096x2560xbf16, #ttnn_layout16>) -> tensor<4096x2560xbf16, #ttnn_layout17> loc(#loc)
        "ttnn.deallocate"(%1) <{force = false}> : (tensor<4096x2560xbf16, #ttnn_layout16>) -> () loc(#loc)
        %3 = "ttnn.mesh_shard"(%2, %0) <{shard_dims = array<i64: -1, 0>, shard_direction = #ttcore.shard_direction<full_to_shard>, shard_shape = array<i64: 4, 1>, shard_type = #ttcore.shard_type<identity>}> : (tensor<4096x2560xbf16, #ttnn_layout17>, !ttnn.device) -> tensor<1024x2560xbf16, #ttnn_layout15> loc(#loc)
        return %3 : tensor<1024x2560xbf16, #ttnn_layout15> loc(#loc)
      } loc(#loc)
      func.func private @main_const_eval_30(%arg0: tensor<2560x4096xbf16, #ttnn_layout6> loc(unknown)) -> tensor<2560x1024xbf16, #ttnn_layout7> attributes {tt.function_type = "const_eval"} {
        %0 = "ttnn.get_device"() <{mesh_offset = #ttnn<mesh_offset 0x0>, mesh_shape = #ttnn<mesh_shape 1x4>}> : () -> !ttnn.device loc(#loc)
        %1 = "ttnn.to_device"(%arg0, %0) <{memory_config = #ttnn.memory_config<#dram, <interleaved>>}> : (tensor<2560x4096xbf16, #ttnn_layout6>, !ttnn.device) -> tensor<2560x4096xbf16, #ttnn_layout8> loc(#loc)
        %2 = "ttnn.to_layout"(%1) <{layout = #ttnn.layout<tile>}> : (tensor<2560x4096xbf16, #ttnn_layout8>) -> tensor<2560x4096xbf16, #ttnn_layout9> loc(#loc)
        "ttnn.deallocate"(%1) <{force = false}> : (tensor<2560x4096xbf16, #ttnn_layout8>) -> () loc(#loc)
        %3 = "ttnn.mesh_shard"(%2, %0) <{shard_dims = array<i64: -1, 1>, shard_direction = #ttcore.shard_direction<full_to_shard>, shard_shape = array<i64: 1, 4>, shard_type = #ttcore.shard_type<identity>}> : (tensor<2560x4096xbf16, #ttnn_layout9>, !ttnn.device) -> tensor<2560x1024xbf16, #ttnn_layout7> loc(#loc)
        return %3 : tensor<2560x1024xbf16, #ttnn_layout7> loc(#loc)
      } loc(#loc)
      func.func private @main_const_eval_31(%arg0: tensor<4096x2560xbf16, #ttnn_layout14> loc(unknown)) -> tensor<1024x2560xbf16, #ttnn_layout15> attributes {tt.function_type = "const_eval"} {
        %0 = "ttnn.get_device"() <{mesh_offset = #ttnn<mesh_offset 0x0>, mesh_shape = #ttnn<mesh_shape 1x4>}> : () -> !ttnn.device loc(#loc)
        %1 = "ttnn.to_device"(%arg0, %0) <{memory_config = #ttnn.memory_config<#dram, <interleaved>>}> : (tensor<4096x2560xbf16, #ttnn_layout14>, !ttnn.device) -> tensor<4096x2560xbf16, #ttnn_layout16> loc(#loc)
        %2 = "ttnn.to_layout"(%1) <{layout = #ttnn.layout<tile>}> : (tensor<4096x2560xbf16, #ttnn_layout16>) -> tensor<4096x2560xbf16, #ttnn_layout17> loc(#loc)
        "ttnn.deallocate"(%1) <{force = false}> : (tensor<4096x2560xbf16, #ttnn_layout16>) -> () loc(#loc)
        %3 = "ttnn.mesh_shard"(%2, %0) <{shard_dims = array<i64: -1, 0>, shard_direction = #ttcore.shard_direction<full_to_shard>, shard_shape = array<i64: 4, 1>, shard_type = #ttcore.shard_type<identity>}> : (tensor<4096x2560xbf16, #ttnn_layout17>, !ttnn.device) -> tensor<1024x2560xbf16, #ttnn_layout15> loc(#loc)
        return %3 : tensor<1024x2560xbf16, #ttnn_layout15> loc(#loc)
      } loc(#loc)
      func.func private @main_const_eval_32(%arg0: tensor<4096x2560xbf16, #ttnn_layout14> loc(unknown)) -> tensor<1024x2560xbf16, #ttnn_layout15> attributes {tt.function_type = "const_eval"} {
        %0 = "ttnn.get_device"() <{mesh_offset = #ttnn<mesh_offset 0x0>, mesh_shape = #ttnn<mesh_shape 1x4>}> : () -> !ttnn.device loc(#loc)
        %1 = "ttnn.to_device"(%arg0, %0) <{memory_config = #ttnn.memory_config<#dram, <interleaved>>}> : (tensor<4096x2560xbf16, #ttnn_layout14>, !ttnn.device) -> tensor<4096x2560xbf16, #ttnn_layout16> loc(#loc)
        %2 = "ttnn.to_layout"(%1) <{layout = #ttnn.layout<tile>}> : (tensor<4096x2560xbf16, #ttnn_layout16>) -> tensor<4096x2560xbf16, #ttnn_layout17> loc(#loc)
        "ttnn.deallocate"(%1) <{force = false}> : (tensor<4096x2560xbf16, #ttnn_layout16>) -> () loc(#loc)
        %3 = "ttnn.mesh_shard"(%2, %0) <{shard_dims = array<i64: -1, 0>, shard_direction = #ttcore.shard_direction<full_to_shard>, shard_shape = array<i64: 4, 1>, shard_type = #ttcore.shard_type<identity>}> : (tensor<4096x2560xbf16, #ttnn_layout17>, !ttnn.device) -> tensor<1024x2560xbf16, #ttnn_layout15> loc(#loc)
        return %3 : tensor<1024x2560xbf16, #ttnn_layout15> loc(#loc)
      } loc(#loc)
      func.func private @main_const_eval_33(%arg0: tensor<2560x4096xbf16, #ttnn_layout6> loc(unknown)) -> tensor<2560x1024xbf16, #ttnn_layout7> attributes {tt.function_type = "const_eval"} {
        %0 = "ttnn.get_device"() <{mesh_offset = #ttnn<mesh_offset 0x0>, mesh_shape = #ttnn<mesh_shape 1x4>}> : () -> !ttnn.device loc(#loc)
        %1 = "ttnn.to_device"(%arg0, %0) <{memory_config = #ttnn.memory_config<#dram, <interleaved>>}> : (tensor<2560x4096xbf16, #ttnn_layout6>, !ttnn.device) -> tensor<2560x4096xbf16, #ttnn_layout8> loc(#loc)
        %2 = "ttnn.to_layout"(%1) <{layout = #ttnn.layout<tile>}> : (tensor<2560x4096xbf16, #ttnn_layout8>) -> tensor<2560x4096xbf16, #ttnn_layout9> loc(#loc)
        "ttnn.deallocate"(%1) <{force = false}> : (tensor<2560x4096xbf16, #ttnn_layout8>) -> () loc(#loc)
        %3 = "ttnn.mesh_shard"(%2, %0) <{shard_dims = array<i64: -1, 1>, shard_direction = #ttcore.shard_direction<full_to_shard>, shard_shape = array<i64: 1, 4>, shard_type = #ttcore.shard_type<identity>}> : (tensor<2560x4096xbf16, #ttnn_layout9>, !ttnn.device) -> tensor<2560x1024xbf16, #ttnn_layout7> loc(#loc)
        return %3 : tensor<2560x1024xbf16, #ttnn_layout7> loc(#loc)
      } loc(#loc)
      func.func private @main_const_eval_34(%arg0: tensor<2560x9728xbf16, #ttnn_layout2> loc(unknown)) -> tensor<2560x2432xbf16, #ttnn_layout3> attributes {tt.function_type = "const_eval"} {
        %0 = "ttnn.get_device"() <{mesh_offset = #ttnn<mesh_offset 0x0>, mesh_shape = #ttnn<mesh_shape 1x4>}> : () -> !ttnn.device loc(#loc)
        %1 = "ttnn.to_device"(%arg0, %0) <{memory_config = #ttnn.memory_config<#dram, <interleaved>>}> : (tensor<2560x9728xbf16, #ttnn_layout2>, !ttnn.device) -> tensor<2560x9728xbf16, #ttnn_layout4> loc(#loc)
        %2 = "ttnn.to_layout"(%1) <{layout = #ttnn.layout<tile>}> : (tensor<2560x9728xbf16, #ttnn_layout4>) -> tensor<2560x9728xbf16, #ttnn_layout5> loc(#loc)
        "ttnn.deallocate"(%1) <{force = false}> : (tensor<2560x9728xbf16, #ttnn_layout4>) -> () loc(#loc)
        %3 = "ttnn.mesh_shard"(%2, %0) <{shard_dims = array<i64: -1, 1>, shard_direction = #ttcore.shard_direction<full_to_shard>, shard_shape = array<i64: 1, 4>, shard_type = #ttcore.shard_type<identity>}> : (tensor<2560x9728xbf16, #ttnn_layout5>, !ttnn.device) -> tensor<2560x2432xbf16, #ttnn_layout3> loc(#loc)
        return %3 : tensor<2560x2432xbf16, #ttnn_layout3> loc(#loc)
      } loc(#loc)
      func.func private @main_const_eval_35(%arg0: tensor<2560x4096xbf16, #ttnn_layout6> loc(unknown)) -> tensor<2560x1024xbf16, #ttnn_layout7> attributes {tt.function_type = "const_eval"} {
        %0 = "ttnn.get_device"() <{mesh_offset = #ttnn<mesh_offset 0x0>, mesh_shape = #ttnn<mesh_shape 1x4>}> : () -> !ttnn.device loc(#loc)
        %1 = "ttnn.to_device"(%arg0, %0) <{memory_config = #ttnn.memory_config<#dram, <interleaved>>}> : (tensor<2560x4096xbf16, #ttnn_layout6>, !ttnn.device) -> tensor<2560x4096xbf16, #ttnn_layout8> loc(#loc)
        %2 = "ttnn.to_layout"(%1) <{layout = #ttnn.layout<tile>}> : (tensor<2560x4096xbf16, #ttnn_layout8>) -> tensor<2560x4096xbf16, #ttnn_layout9> loc(#loc)
        "ttnn.deallocate"(%1) <{force = false}> : (tensor<2560x4096xbf16, #ttnn_layout8>) -> () loc(#loc)
        %3 = "ttnn.mesh_shard"(%2, %0) <{shard_dims = array<i64: -1, 1>, shard_direction = #ttcore.shard_direction<full_to_shard>, shard_shape = array<i64: 1, 4>, shard_type = #ttcore.shard_type<identity>}> : (tensor<2560x4096xbf16, #ttnn_layout9>, !ttnn.device) -> tensor<2560x1024xbf16, #ttnn_layout7> loc(#loc)
        return %3 : tensor<2560x1024xbf16, #ttnn_layout7> loc(#loc)
      } loc(#loc)
      func.func private @main_const_eval_36(%arg0: tensor<4096x2560xbf16, #ttnn_layout14> loc(unknown)) -> tensor<1024x2560xbf16, #ttnn_layout15> attributes {tt.function_type = "const_eval"} {
        %0 = "ttnn.get_device"() <{mesh_offset = #ttnn<mesh_offset 0x0>, mesh_shape = #ttnn<mesh_shape 1x4>}> : () -> !ttnn.device loc(#loc)
        %1 = "ttnn.to_device"(%arg0, %0) <{memory_config = #ttnn.memory_config<#dram, <interleaved>>}> : (tensor<4096x2560xbf16, #ttnn_layout14>, !ttnn.device) -> tensor<4096x2560xbf16, #ttnn_layout16> loc(#loc)
        %2 = "ttnn.to_layout"(%1) <{layout = #ttnn.layout<tile>}> : (tensor<4096x2560xbf16, #ttnn_layout16>) -> tensor<4096x2560xbf16, #ttnn_layout17> loc(#loc)
        "ttnn.deallocate"(%1) <{force = false}> : (tensor<4096x2560xbf16, #ttnn_layout16>) -> () loc(#loc)
        %3 = "ttnn.mesh_shard"(%2, %0) <{shard_dims = array<i64: -1, 0>, shard_direction = #ttcore.shard_direction<full_to_shard>, shard_shape = array<i64: 4, 1>, shard_type = #ttcore.shard_type<identity>}> : (tensor<4096x2560xbf16, #ttnn_layout17>, !ttnn.device) -> tensor<1024x2560xbf16, #ttnn_layout15> loc(#loc)
        return %3 : tensor<1024x2560xbf16, #ttnn_layout15> loc(#loc)
      } loc(#loc)
      func.func private @main_const_eval_37(%arg0: tensor<2560x9728xbf16, #ttnn_layout2> loc(unknown)) -> tensor<2560x2432xbf16, #ttnn_layout3> attributes {tt.function_type = "const_eval"} {
        %0 = "ttnn.get_device"() <{mesh_offset = #ttnn<mesh_offset 0x0>, mesh_shape = #ttnn<mesh_shape 1x4>}> : () -> !ttnn.device loc(#loc)
        %1 = "ttnn.to_device"(%arg0, %0) <{memory_config = #ttnn.memory_config<#dram, <interleaved>>}> : (tensor<2560x9728xbf16, #ttnn_layout2>, !ttnn.device) -> tensor<2560x9728xbf16, #ttnn_layout4> loc(#loc)
        %2 = "ttnn.to_layout"(%1) <{layout = #ttnn.layout<tile>}> : (tensor<2560x9728xbf16, #ttnn_layout4>) -> tensor<2560x9728xbf16, #ttnn_layout5> loc(#loc)
        "ttnn.deallocate"(%1) <{force = false}> : (tensor<2560x9728xbf16, #ttnn_layout4>) -> () loc(#loc)
        %3 = "ttnn.mesh_shard"(%2, %0) <{shard_dims = array<i64: -1, 1>, shard_direction = #ttcore.shard_direction<full_to_shard>, shard_shape = array<i64: 1, 4>, shard_type = #ttcore.shard_type<identity>}> : (tensor<2560x9728xbf16, #ttnn_layout5>, !ttnn.device) -> tensor<2560x2432xbf16, #ttnn_layout3> loc(#loc)
        return %3 : tensor<2560x2432xbf16, #ttnn_layout3> loc(#loc)
      } loc(#loc)
      func.func private @main_const_eval_38(%arg0: tensor<1024x2560xbf16, #ttnn_layout18> loc(unknown)) -> tensor<256x2560xbf16, #ttnn_layout19> attributes {tt.function_type = "const_eval"} {
        %0 = "ttnn.get_device"() <{mesh_offset = #ttnn<mesh_offset 0x0>, mesh_shape = #ttnn<mesh_shape 1x4>}> : () -> !ttnn.device loc(#loc)
        %1 = "ttnn.to_device"(%arg0, %0) <{memory_config = #ttnn.memory_config<#dram, <interleaved>>}> : (tensor<1024x2560xbf16, #ttnn_layout18>, !ttnn.device) -> tensor<1024x2560xbf16, #ttnn_layout20> loc(#loc)
        %2 = "ttnn.to_layout"(%1) <{layout = #ttnn.layout<tile>}> : (tensor<1024x2560xbf16, #ttnn_layout20>) -> tensor<1024x2560xbf16, #ttnn_layout15> loc(#loc)
        "ttnn.deallocate"(%1) <{force = false}> : (tensor<1024x2560xbf16, #ttnn_layout20>) -> () loc(#loc)
        %3 = "ttnn.mesh_shard"(%2, %0) <{shard_dims = array<i64: -1, 0>, shard_direction = #ttcore.shard_direction<full_to_shard>, shard_shape = array<i64: 4, 1>, shard_type = #ttcore.shard_type<identity>}> : (tensor<1024x2560xbf16, #ttnn_layout15>, !ttnn.device) -> tensor<256x2560xbf16, #ttnn_layout19> loc(#loc)
        return %3 : tensor<256x2560xbf16, #ttnn_layout19> loc(#loc)
      } loc(#loc)
      func.func private @main_const_eval_39(%arg0: tensor<9728x2560xbf16, #ttnn_layout10> loc(unknown)) -> tensor<2432x2560xbf16, #ttnn_layout11> attributes {tt.function_type = "const_eval"} {
        %0 = "ttnn.get_device"() <{mesh_offset = #ttnn<mesh_offset 0x0>, mesh_shape = #ttnn<mesh_shape 1x4>}> : () -> !ttnn.device loc(#loc)
        %1 = "ttnn.to_device"(%arg0, %0) <{memory_config = #ttnn.memory_config<#dram, <interleaved>>}> : (tensor<9728x2560xbf16, #ttnn_layout10>, !ttnn.device) -> tensor<9728x2560xbf16, #ttnn_layout12> loc(#loc)
        %2 = "ttnn.to_layout"(%1) <{layout = #ttnn.layout<tile>}> : (tensor<9728x2560xbf16, #ttnn_layout12>) -> tensor<9728x2560xbf16, #ttnn_layout13> loc(#loc)
        "ttnn.deallocate"(%1) <{force = false}> : (tensor<9728x2560xbf16, #ttnn_layout12>) -> () loc(#loc)
        %3 = "ttnn.mesh_shard"(%2, %0) <{shard_dims = array<i64: -1, 0>, shard_direction = #ttcore.shard_direction<full_to_shard>, shard_shape = array<i64: 4, 1>, shard_type = #ttcore.shard_type<identity>}> : (tensor<9728x2560xbf16, #ttnn_layout13>, !ttnn.device) -> tensor<2432x2560xbf16, #ttnn_layout11> loc(#loc)
        return %3 : tensor<2432x2560xbf16, #ttnn_layout11> loc(#loc)
      } loc(#loc)
      func.func private @main_const_eval_40(%arg0: tensor<9728x2560xbf16, #ttnn_layout10> loc(unknown)) -> tensor<2432x2560xbf16, #ttnn_layout11> attributes {tt.function_type = "const_eval"} {
        %0 = "ttnn.get_device"() <{mesh_offset = #ttnn<mesh_offset 0x0>, mesh_shape = #ttnn<mesh_shape 1x4>}> : () -> !ttnn.device loc(#loc)
        %1 = "ttnn.to_device"(%arg0, %0) <{memory_config = #ttnn.memory_config<#dram, <interleaved>>}> : (tensor<9728x2560xbf16, #ttnn_layout10>, !ttnn.device) -> tensor<9728x2560xbf16, #ttnn_layout12> loc(#loc)
        %2 = "ttnn.to_layout"(%1) <{layout = #ttnn.layout<tile>}> : (tensor<9728x2560xbf16, #ttnn_layout12>) -> tensor<9728x2560xbf16, #ttnn_layout13> loc(#loc)
        "ttnn.deallocate"(%1) <{force = false}> : (tensor<9728x2560xbf16, #ttnn_layout12>) -> () loc(#loc)
        %3 = "ttnn.mesh_shard"(%2, %0) <{shard_dims = array<i64: -1, 0>, shard_direction = #ttcore.shard_direction<full_to_shard>, shard_shape = array<i64: 4, 1>, shard_type = #ttcore.shard_type<identity>}> : (tensor<9728x2560xbf16, #ttnn_layout13>, !ttnn.device) -> tensor<2432x2560xbf16, #ttnn_layout11> loc(#loc)
        return %3 : tensor<2432x2560xbf16, #ttnn_layout11> loc(#loc)
      } loc(#loc)
      func.func private @main_const_eval_41(%arg0: tensor<4096x2560xbf16, #ttnn_layout14> loc(unknown)) -> tensor<1024x2560xbf16, #ttnn_layout15> attributes {tt.function_type = "const_eval"} {
        %0 = "ttnn.get_device"() <{mesh_offset = #ttnn<mesh_offset 0x0>, mesh_shape = #ttnn<mesh_shape 1x4>}> : () -> !ttnn.device loc(#loc)
        %1 = "ttnn.to_device"(%arg0, %0) <{memory_config = #ttnn.memory_config<#dram, <interleaved>>}> : (tensor<4096x2560xbf16, #ttnn_layout14>, !ttnn.device) -> tensor<4096x2560xbf16, #ttnn_layout16> loc(#loc)
        %2 = "ttnn.to_layout"(%1) <{layout = #ttnn.layout<tile>}> : (tensor<4096x2560xbf16, #ttnn_layout16>) -> tensor<4096x2560xbf16, #ttnn_layout17> loc(#loc)
        "ttnn.deallocate"(%1) <{force = false}> : (tensor<4096x2560xbf16, #ttnn_layout16>) -> () loc(#loc)
        %3 = "ttnn.mesh_shard"(%2, %0) <{shard_dims = array<i64: -1, 0>, shard_direction = #ttcore.shard_direction<full_to_shard>, shard_shape = array<i64: 4, 1>, shard_type = #ttcore.shard_type<identity>}> : (tensor<4096x2560xbf16, #ttnn_layout17>, !ttnn.device) -> tensor<1024x2560xbf16, #ttnn_layout15> loc(#loc)
        return %3 : tensor<1024x2560xbf16, #ttnn_layout15> loc(#loc)
      } loc(#loc)
      func.func private @main_const_eval_42(%arg0: tensor<4096x2560xbf16, #ttnn_layout14> loc(unknown)) -> tensor<1024x2560xbf16, #ttnn_layout15> attributes {tt.function_type = "const_eval"} {
        %0 = "ttnn.get_device"() <{mesh_offset = #ttnn<mesh_offset 0x0>, mesh_shape = #ttnn<mesh_shape 1x4>}> : () -> !ttnn.device loc(#loc)
        %1 = "ttnn.to_device"(%arg0, %0) <{memory_config = #ttnn.memory_config<#dram, <interleaved>>}> : (tensor<4096x2560xbf16, #ttnn_layout14>, !ttnn.device) -> tensor<4096x2560xbf16, #ttnn_layout16> loc(#loc)
        %2 = "ttnn.to_layout"(%1) <{layout = #ttnn.layout<tile>}> : (tensor<4096x2560xbf16, #ttnn_layout16>) -> tensor<4096x2560xbf16, #ttnn_layout17> loc(#loc)
        "ttnn.deallocate"(%1) <{force = false}> : (tensor<4096x2560xbf16, #ttnn_layout16>) -> () loc(#loc)
        %3 = "ttnn.mesh_shard"(%2, %0) <{shard_dims = array<i64: -1, 0>, shard_direction = #ttcore.shard_direction<full_to_shard>, shard_shape = array<i64: 4, 1>, shard_type = #ttcore.shard_type<identity>}> : (tensor<4096x2560xbf16, #ttnn_layout17>, !ttnn.device) -> tensor<1024x2560xbf16, #ttnn_layout15> loc(#loc)
        return %3 : tensor<1024x2560xbf16, #ttnn_layout15> loc(#loc)
      } loc(#loc)
      func.func private @main_const_eval_43(%arg0: tensor<9728x2560xbf16, #ttnn_layout10> loc(unknown)) -> tensor<2432x2560xbf16, #ttnn_layout11> attributes {tt.function_type = "const_eval"} {
        %0 = "ttnn.get_device"() <{mesh_offset = #ttnn<mesh_offset 0x0>, mesh_shape = #ttnn<mesh_shape 1x4>}> : () -> !ttnn.device loc(#loc)
        %1 = "ttnn.to_device"(%arg0, %0) <{memory_config = #ttnn.memory_config<#dram, <interleaved>>}> : (tensor<9728x2560xbf16, #ttnn_layout10>, !ttnn.device) -> tensor<9728x2560xbf16, #ttnn_layout12> loc(#loc)
        %2 = "ttnn.to_layout"(%1) <{layout = #ttnn.layout<tile>}> : (tensor<9728x2560xbf16, #ttnn_layout12>) -> tensor<9728x2560xbf16, #ttnn_layout13> loc(#loc)
        "ttnn.deallocate"(%1) <{force = false}> : (tensor<9728x2560xbf16, #ttnn_layout12>) -> () loc(#loc)
        %3 = "ttnn.mesh_shard"(%2, %0) <{shard_dims = array<i64: -1, 0>, shard_direction = #ttcore.shard_direction<full_to_shard>, shard_shape = array<i64: 4, 1>, shard_type = #ttcore.shard_type<identity>}> : (tensor<9728x2560xbf16, #ttnn_layout13>, !ttnn.device) -> tensor<2432x2560xbf16, #ttnn_layout11> loc(#loc)
        return %3 : tensor<2432x2560xbf16, #ttnn_layout11> loc(#loc)
      } loc(#loc)
      func.func private @main_const_eval_44(%arg0: tensor<1024x2560xbf16, #ttnn_layout18> loc(unknown)) -> tensor<256x2560xbf16, #ttnn_layout19> attributes {tt.function_type = "const_eval"} {
        %0 = "ttnn.get_device"() <{mesh_offset = #ttnn<mesh_offset 0x0>, mesh_shape = #ttnn<mesh_shape 1x4>}> : () -> !ttnn.device loc(#loc)
        %1 = "ttnn.to_device"(%arg0, %0) <{memory_config = #ttnn.memory_config<#dram, <interleaved>>}> : (tensor<1024x2560xbf16, #ttnn_layout18>, !ttnn.device) -> tensor<1024x2560xbf16, #ttnn_layout20> loc(#loc)
        %2 = "ttnn.to_layout"(%1) <{layout = #ttnn.layout<tile>}> : (tensor<1024x2560xbf16, #ttnn_layout20>) -> tensor<1024x2560xbf16, #ttnn_layout15> loc(#loc)
        "ttnn.deallocate"(%1) <{force = false}> : (tensor<1024x2560xbf16, #ttnn_layout20>) -> () loc(#loc)
        %3 = "ttnn.mesh_shard"(%2, %0) <{shard_dims = array<i64: -1, 0>, shard_direction = #ttcore.shard_direction<full_to_shard>, shard_shape = array<i64: 4, 1>, shard_type = #ttcore.shard_type<identity>}> : (tensor<1024x2560xbf16, #ttnn_layout15>, !ttnn.device) -> tensor<256x2560xbf16, #ttnn_layout19> loc(#loc)
        return %3 : tensor<256x2560xbf16, #ttnn_layout19> loc(#loc)
      } loc(#loc)
      func.func private @main_const_eval_45(%arg0: tensor<9728x2560xbf16, #ttnn_layout10> loc(unknown)) -> tensor<2432x2560xbf16, #ttnn_layout11> attributes {tt.function_type = "const_eval"} {
        %0 = "ttnn.get_device"() <{mesh_offset = #ttnn<mesh_offset 0x0>, mesh_shape = #ttnn<mesh_shape 1x4>}> : () -> !ttnn.device loc(#loc)
        %1 = "ttnn.to_device"(%arg0, %0) <{memory_config = #ttnn.memory_config<#dram, <interleaved>>}> : (tensor<9728x2560xbf16, #ttnn_layout10>, !ttnn.device) -> tensor<9728x2560xbf16, #ttnn_layout12> loc(#loc)
        %2 = "ttnn.to_layout"(%1) <{layout = #ttnn.layout<tile>}> : (tensor<9728x2560xbf16, #ttnn_layout12>) -> tensor<9728x2560xbf16, #ttnn_layout13> loc(#loc)
        "ttnn.deallocate"(%1) <{force = false}> : (tensor<9728x2560xbf16, #ttnn_layout12>) -> () loc(#loc)
        %3 = "ttnn.mesh_shard"(%2, %0) <{shard_dims = array<i64: -1, 0>, shard_direction = #ttcore.shard_direction<full_to_shard>, shard_shape = array<i64: 4, 1>, shard_type = #ttcore.shard_type<identity>}> : (tensor<9728x2560xbf16, #ttnn_layout13>, !ttnn.device) -> tensor<2432x2560xbf16, #ttnn_layout11> loc(#loc)
        return %3 : tensor<2432x2560xbf16, #ttnn_layout11> loc(#loc)
      } loc(#loc)
      func.func private @main_const_eval_46(%arg0: tensor<9728x2560xbf16, #ttnn_layout10> loc(unknown)) -> tensor<2432x2560xbf16, #ttnn_layout11> attributes {tt.function_type = "const_eval"} {
        %0 = "ttnn.get_device"() <{mesh_offset = #ttnn<mesh_offset 0x0>, mesh_shape = #ttnn<mesh_shape 1x4>}> : () -> !ttnn.device loc(#loc)
        %1 = "ttnn.to_device"(%arg0, %0) <{memory_config = #ttnn.memory_config<#dram, <interleaved>>}> : (tensor<9728x2560xbf16, #ttnn_layout10>, !ttnn.device) -> tensor<9728x2560xbf16, #ttnn_layout12> loc(#loc)
        %2 = "ttnn.to_layout"(%1) <{layout = #ttnn.layout<tile>}> : (tensor<9728x2560xbf16, #ttnn_layout12>) -> tensor<9728x2560xbf16, #ttnn_layout13> loc(#loc)
        "ttnn.deallocate"(%1) <{force = false}> : (tensor<9728x2560xbf16, #ttnn_layout12>) -> () loc(#loc)
        %3 = "ttnn.mesh_shard"(%2, %0) <{shard_dims = array<i64: -1, 0>, shard_direction = #ttcore.shard_direction<full_to_shard>, shard_shape = array<i64: 4, 1>, shard_type = #ttcore.shard_type<identity>}> : (tensor<9728x2560xbf16, #ttnn_layout13>, !ttnn.device) -> tensor<2432x2560xbf16, #ttnn_layout11> loc(#loc)
        return %3 : tensor<2432x2560xbf16, #ttnn_layout11> loc(#loc)
      } loc(#loc)
      func.func private @main_const_eval_47(%arg0: tensor<1024x2560xbf16, #ttnn_layout18> loc(unknown)) -> tensor<256x2560xbf16, #ttnn_layout19> attributes {tt.function_type = "const_eval"} {
        %0 = "ttnn.get_device"() <{mesh_offset = #ttnn<mesh_offset 0x0>, mesh_shape = #ttnn<mesh_shape 1x4>}> : () -> !ttnn.device loc(#loc)
        %1 = "ttnn.to_device"(%arg0, %0) <{memory_config = #ttnn.memory_config<#dram, <interleaved>>}> : (tensor<1024x2560xbf16, #ttnn_layout18>, !ttnn.device) -> tensor<1024x2560xbf16, #ttnn_layout20> loc(#loc)
        %2 = "ttnn.to_layout"(%1) <{layout = #ttnn.layout<tile>}> : (tensor<1024x2560xbf16, #ttnn_layout20>) -> tensor<1024x2560xbf16, #ttnn_layout15> loc(#loc)
        "ttnn.deallocate"(%1) <{force = false}> : (tensor<1024x2560xbf16, #ttnn_layout20>) -> () loc(#loc)
        %3 = "ttnn.mesh_shard"(%2, %0) <{shard_dims = array<i64: -1, 0>, shard_direction = #ttcore.shard_direction<full_to_shard>, shard_shape = array<i64: 4, 1>, shard_type = #ttcore.shard_type<identity>}> : (tensor<1024x2560xbf16, #ttnn_layout15>, !ttnn.device) -> tensor<256x2560xbf16, #ttnn_layout19> loc(#loc)
        return %3 : tensor<256x2560xbf16, #ttnn_layout19> loc(#loc)
      } loc(#loc)
      func.func private @main_const_eval_48(%arg0: tensor<1024x2560xbf16, #ttnn_layout18> loc(unknown)) -> tensor<256x2560xbf16, #ttnn_layout19> attributes {tt.function_type = "const_eval"} {
        %0 = "ttnn.get_device"() <{mesh_offset = #ttnn<mesh_offset 0x0>, mesh_shape = #ttnn<mesh_shape 1x4>}> : () -> !ttnn.device loc(#loc)
        %1 = "ttnn.to_device"(%arg0, %0) <{memory_config = #ttnn.memory_config<#dram, <interleaved>>}> : (tensor<1024x2560xbf16, #ttnn_layout18>, !ttnn.device) -> tensor<1024x2560xbf16, #ttnn_layout20> loc(#loc)
        %2 = "ttnn.to_layout"(%1) <{layout = #ttnn.layout<tile>}> : (tensor<1024x2560xbf16, #ttnn_layout20>) -> tensor<1024x2560xbf16, #ttnn_layout15> loc(#loc)
        "ttnn.deallocate"(%1) <{force = false}> : (tensor<1024x2560xbf16, #ttnn_layout20>) -> () loc(#loc)
        %3 = "ttnn.mesh_shard"(%2, %0) <{shard_dims = array<i64: -1, 0>, shard_direction = #ttcore.shard_direction<full_to_shard>, shard_shape = array<i64: 4, 1>, shard_type = #ttcore.shard_type<identity>}> : (tensor<1024x2560xbf16, #ttnn_layout15>, !ttnn.device) -> tensor<256x2560xbf16, #ttnn_layout19> loc(#loc)
        return %3 : tensor<256x2560xbf16, #ttnn_layout19> loc(#loc)
      } loc(#loc)
      func.func private @main_const_eval_49(%arg0: tensor<9728x2560xbf16, #ttnn_layout10> loc(unknown)) -> tensor<2432x2560xbf16, #ttnn_layout11> attributes {tt.function_type = "const_eval"} {
        %0 = "ttnn.get_device"() <{mesh_offset = #ttnn<mesh_offset 0x0>, mesh_shape = #ttnn<mesh_shape 1x4>}> : () -> !ttnn.device loc(#loc)
        %1 = "ttnn.to_device"(%arg0, %0) <{memory_config = #ttnn.memory_config<#dram, <interleaved>>}> : (tensor<9728x2560xbf16, #ttnn_layout10>, !ttnn.device) -> tensor<9728x2560xbf16, #ttnn_layout12> loc(#loc)
        %2 = "ttnn.to_layout"(%1) <{layout = #ttnn.layout<tile>}> : (tensor<9728x2560xbf16, #ttnn_layout12>) -> tensor<9728x2560xbf16, #ttnn_layout13> loc(#loc)
        "ttnn.deallocate"(%1) <{force = false}> : (tensor<9728x2560xbf16, #ttnn_layout12>) -> () loc(#loc)
        %3 = "ttnn.mesh_shard"(%2, %0) <{shard_dims = array<i64: -1, 0>, shard_direction = #ttcore.shard_direction<full_to_shard>, shard_shape = array<i64: 4, 1>, shard_type = #ttcore.shard_type<identity>}> : (tensor<9728x2560xbf16, #ttnn_layout13>, !ttnn.device) -> tensor<2432x2560xbf16, #ttnn_layout11> loc(#loc)
        return %3 : tensor<2432x2560xbf16, #ttnn_layout11> loc(#loc)
      } loc(#loc)
      func.func private @main_const_eval_50(%arg0: tensor<1024x2560xbf16, #ttnn_layout18> loc(unknown)) -> tensor<256x2560xbf16, #ttnn_layout19> attributes {tt.function_type = "const_eval"} {
        %0 = "ttnn.get_device"() <{mesh_offset = #ttnn<mesh_offset 0x0>, mesh_shape = #ttnn<mesh_shape 1x4>}> : () -> !ttnn.device loc(#loc)
        %1 = "ttnn.to_device"(%arg0, %0) <{memory_config = #ttnn.memory_config<#dram, <interleaved>>}> : (tensor<1024x2560xbf16, #ttnn_layout18>, !ttnn.device) -> tensor<1024x2560xbf16, #ttnn_layout20> loc(#loc)
        %2 = "ttnn.to_layout"(%1) <{layout = #ttnn.layout<tile>}> : (tensor<1024x2560xbf16, #ttnn_layout20>) -> tensor<1024x2560xbf16, #ttnn_layout15> loc(#loc)
        "ttnn.deallocate"(%1) <{force = false}> : (tensor<1024x2560xbf16, #ttnn_layout20>) -> () loc(#loc)
        %3 = "ttnn.mesh_shard"(%2, %0) <{shard_dims = array<i64: -1, 0>, shard_direction = #ttcore.shard_direction<full_to_shard>, shard_shape = array<i64: 4, 1>, shard_type = #ttcore.shard_type<identity>}> : (tensor<1024x2560xbf16, #ttnn_layout15>, !ttnn.device) -> tensor<256x2560xbf16, #ttnn_layout19> loc(#loc)
        return %3 : tensor<256x2560xbf16, #ttnn_layout19> loc(#loc)
      } loc(#loc)
      func.func private @main_const_eval_51(%arg0: tensor<9728x2560xbf16, #ttnn_layout10> loc(unknown)) -> tensor<2432x2560xbf16, #ttnn_layout11> attributes {tt.function_type = "const_eval"} {
        %0 = "ttnn.get_device"() <{mesh_offset = #ttnn<mesh_offset 0x0>, mesh_shape = #ttnn<mesh_shape 1x4>}> : () -> !ttnn.device loc(#loc)
        %1 = "ttnn.to_device"(%arg0, %0) <{memory_config = #ttnn.memory_config<#dram, <interleaved>>}> : (tensor<9728x2560xbf16, #ttnn_layout10>, !ttnn.device) -> tensor<9728x2560xbf16, #ttnn_layout12> loc(#loc)
        %2 = "ttnn.to_layout"(%1) <{layout = #ttnn.layout<tile>}> : (tensor<9728x2560xbf16, #ttnn_layout12>) -> tensor<9728x2560xbf16, #ttnn_layout13> loc(#loc)
        "ttnn.deallocate"(%1) <{force = false}> : (tensor<9728x2560xbf16, #ttnn_layout12>) -> () loc(#loc)
        %3 = "ttnn.mesh_shard"(%2, %0) <{shard_dims = array<i64: -1, 0>, shard_direction = #ttcore.shard_direction<full_to_shard>, shard_shape = array<i64: 4, 1>, shard_type = #ttcore.shard_type<identity>}> : (tensor<9728x2560xbf16, #ttnn_layout13>, !ttnn.device) -> tensor<2432x2560xbf16, #ttnn_layout11> loc(#loc)
        return %3 : tensor<2432x2560xbf16, #ttnn_layout11> loc(#loc)
      } loc(#loc)
      func.func private @main_const_eval_52(%arg0: tensor<1024x2560xbf16, #ttnn_layout18> loc(unknown)) -> tensor<256x2560xbf16, #ttnn_layout19> attributes {tt.function_type = "const_eval"} {
        %0 = "ttnn.get_device"() <{mesh_offset = #ttnn<mesh_offset 0x0>, mesh_shape = #ttnn<mesh_shape 1x4>}> : () -> !ttnn.device loc(#loc)
        %1 = "ttnn.to_device"(%arg0, %0) <{memory_config = #ttnn.memory_config<#dram, <interleaved>>}> : (tensor<1024x2560xbf16, #ttnn_layout18>, !ttnn.device) -> tensor<1024x2560xbf16, #ttnn_layout20> loc(#loc)
        %2 = "ttnn.to_layout"(%1) <{layout = #ttnn.layout<tile>}> : (tensor<1024x2560xbf16, #ttnn_layout20>) -> tensor<1024x2560xbf16, #ttnn_layout15> loc(#loc)
        "ttnn.deallocate"(%1) <{force = false}> : (tensor<1024x2560xbf16, #ttnn_layout20>) -> () loc(#loc)
        %3 = "ttnn.mesh_shard"(%2, %0) <{shard_dims = array<i64: -1, 0>, shard_direction = #ttcore.shard_direction<full_to_shard>, shard_shape = array<i64: 4, 1>, shard_type = #ttcore.shard_type<identity>}> : (tensor<1024x2560xbf16, #ttnn_layout15>, !ttnn.device) -> tensor<256x2560xbf16, #ttnn_layout19> loc(#loc)
        return %3 : tensor<256x2560xbf16, #ttnn_layout19> loc(#loc)
      } loc(#loc)
      func.func private @main_const_eval_53(%arg0: tensor<4096x2560xbf16, #ttnn_layout14> loc(unknown)) -> tensor<1024x2560xbf16, #ttnn_layout15> attributes {tt.function_type = "const_eval"} {
        %0 = "ttnn.get_device"() <{mesh_offset = #ttnn<mesh_offset 0x0>, mesh_shape = #ttnn<mesh_shape 1x4>}> : () -> !ttnn.device loc(#loc)
        %1 = "ttnn.to_device"(%arg0, %0) <{memory_config = #ttnn.memory_config<#dram, <interleaved>>}> : (tensor<4096x2560xbf16, #ttnn_layout14>, !ttnn.device) -> tensor<4096x2560xbf16, #ttnn_layout16> loc(#loc)
        %2 = "ttnn.to_layout"(%1) <{layout = #ttnn.layout<tile>}> : (tensor<4096x2560xbf16, #ttnn_layout16>) -> tensor<4096x2560xbf16, #ttnn_layout17> loc(#loc)
        "ttnn.deallocate"(%1) <{force = false}> : (tensor<4096x2560xbf16, #ttnn_layout16>) -> () loc(#loc)
        %3 = "ttnn.mesh_shard"(%2, %0) <{shard_dims = array<i64: -1, 0>, shard_direction = #ttcore.shard_direction<full_to_shard>, shard_shape = array<i64: 4, 1>, shard_type = #ttcore.shard_type<identity>}> : (tensor<4096x2560xbf16, #ttnn_layout17>, !ttnn.device) -> tensor<1024x2560xbf16, #ttnn_layout15> loc(#loc)
        return %3 : tensor<1024x2560xbf16, #ttnn_layout15> loc(#loc)
      } loc(#loc)
      func.func private @main_const_eval_54(%arg0: tensor<1024x2560xbf16, #ttnn_layout18> loc(unknown)) -> tensor<256x2560xbf16, #ttnn_layout19> attributes {tt.function_type = "const_eval"} {
        %0 = "ttnn.get_device"() <{mesh_offset = #ttnn<mesh_offset 0x0>, mesh_shape = #ttnn<mesh_shape 1x4>}> : () -> !ttnn.device loc(#loc)
        %1 = "ttnn.to_device"(%arg0, %0) <{memory_config = #ttnn.memory_config<#dram, <interleaved>>}> : (tensor<1024x2560xbf16, #ttnn_layout18>, !ttnn.device) -> tensor<1024x2560xbf16, #ttnn_layout20> loc(#loc)
        %2 = "ttnn.to_layout"(%1) <{layout = #ttnn.layout<tile>}> : (tensor<1024x2560xbf16, #ttnn_layout20>) -> tensor<1024x2560xbf16, #ttnn_layout15> loc(#loc)
        "ttnn.deallocate"(%1) <{force = false}> : (tensor<1024x2560xbf16, #ttnn_layout20>) -> () loc(#loc)
        %3 = "ttnn.mesh_shard"(%2, %0) <{shard_dims = array<i64: -1, 0>, shard_direction = #ttcore.shard_direction<full_to_shard>, shard_shape = array<i64: 4, 1>, shard_type = #ttcore.shard_type<identity>}> : (tensor<1024x2560xbf16, #ttnn_layout15>, !ttnn.device) -> tensor<256x2560xbf16, #ttnn_layout19> loc(#loc)
        return %3 : tensor<256x2560xbf16, #ttnn_layout19> loc(#loc)
      } loc(#loc)
      func.func private @main_const_eval_55(%arg0: tensor<9728x2560xbf16, #ttnn_layout10> loc(unknown)) -> tensor<2432x2560xbf16, #ttnn_layout11> attributes {tt.function_type = "const_eval"} {
        %0 = "ttnn.get_device"() <{mesh_offset = #ttnn<mesh_offset 0x0>, mesh_shape = #ttnn<mesh_shape 1x4>}> : () -> !ttnn.device loc(#loc)
        %1 = "ttnn.to_device"(%arg0, %0) <{memory_config = #ttnn.memory_config<#dram, <interleaved>>}> : (tensor<9728x2560xbf16, #ttnn_layout10>, !ttnn.device) -> tensor<9728x2560xbf16, #ttnn_layout12> loc(#loc)
        %2 = "ttnn.to_layout"(%1) <{layout = #ttnn.layout<tile>}> : (tensor<9728x2560xbf16, #ttnn_layout12>) -> tensor<9728x2560xbf16, #ttnn_layout13> loc(#loc)
        "ttnn.deallocate"(%1) <{force = false}> : (tensor<9728x2560xbf16, #ttnn_layout12>) -> () loc(#loc)
        %3 = "ttnn.mesh_shard"(%2, %0) <{shard_dims = array<i64: -1, 0>, shard_direction = #ttcore.shard_direction<full_to_shard>, shard_shape = array<i64: 4, 1>, shard_type = #ttcore.shard_type<identity>}> : (tensor<9728x2560xbf16, #ttnn_layout13>, !ttnn.device) -> tensor<2432x2560xbf16, #ttnn_layout11> loc(#loc)
        return %3 : tensor<2432x2560xbf16, #ttnn_layout11> loc(#loc)
      } loc(#loc)
      func.func private @main_const_eval_56(%arg0: tensor<2560x9728xbf16, #ttnn_layout2> loc(unknown)) -> tensor<2560x2432xbf16, #ttnn_layout3> attributes {tt.function_type = "const_eval"} {
        %0 = "ttnn.get_device"() <{mesh_offset = #ttnn<mesh_offset 0x0>, mesh_shape = #ttnn<mesh_shape 1x4>}> : () -> !ttnn.device loc(#loc)
        %1 = "ttnn.to_device"(%arg0, %0) <{memory_config = #ttnn.memory_config<#dram, <interleaved>>}> : (tensor<2560x9728xbf16, #ttnn_layout2>, !ttnn.device) -> tensor<2560x9728xbf16, #ttnn_layout4> loc(#loc)
        %2 = "ttnn.to_layout"(%1) <{layout = #ttnn.layout<tile>}> : (tensor<2560x9728xbf16, #ttnn_layout4>) -> tensor<2560x9728xbf16, #ttnn_layout5> loc(#loc)
        "ttnn.deallocate"(%1) <{force = false}> : (tensor<2560x9728xbf16, #ttnn_layout4>) -> () loc(#loc)
        %3 = "ttnn.mesh_shard"(%2, %0) <{shard_dims = array<i64: -1, 1>, shard_direction = #ttcore.shard_direction<full_to_shard>, shard_shape = array<i64: 1, 4>, shard_type = #ttcore.shard_type<identity>}> : (tensor<2560x9728xbf16, #ttnn_layout5>, !ttnn.device) -> tensor<2560x2432xbf16, #ttnn_layout3> loc(#loc)
        return %3 : tensor<2560x2432xbf16, #ttnn_layout3> loc(#loc)
      } loc(#loc)
      func.func private @main_const_eval_57(%arg0: tensor<1024x2560xbf16, #ttnn_layout18> loc(unknown)) -> tensor<256x2560xbf16, #ttnn_layout19> attributes {tt.function_type = "const_eval"} {
        %0 = "ttnn.get_device"() <{mesh_offset = #ttnn<mesh_offset 0x0>, mesh_shape = #ttnn<mesh_shape 1x4>}> : () -> !ttnn.device loc(#loc)
        %1 = "ttnn.to_device"(%arg0, %0) <{memory_config = #ttnn.memory_config<#dram, <interleaved>>}> : (tensor<1024x2560xbf16, #ttnn_layout18>, !ttnn.device) -> tensor<1024x2560xbf16, #ttnn_layout20> loc(#loc)
        %2 = "ttnn.to_layout"(%1) <{layout = #ttnn.layout<tile>}> : (tensor<1024x2560xbf16, #ttnn_layout20>) -> tensor<1024x2560xbf16, #ttnn_layout15> loc(#loc)
        "ttnn.deallocate"(%1) <{force = false}> : (tensor<1024x2560xbf16, #ttnn_layout20>) -> () loc(#loc)
        %3 = "ttnn.mesh_shard"(%2, %0) <{shard_dims = array<i64: -1, 0>, shard_direction = #ttcore.shard_direction<full_to_shard>, shard_shape = array<i64: 4, 1>, shard_type = #ttcore.shard_type<identity>}> : (tensor<1024x2560xbf16, #ttnn_layout15>, !ttnn.device) -> tensor<256x2560xbf16, #ttnn_layout19> loc(#loc)
        return %3 : tensor<256x2560xbf16, #ttnn_layout19> loc(#loc)
      } loc(#loc)
      func.func private @main_const_eval_58(%arg0: tensor<1024x2560xbf16, #ttnn_layout18> loc(unknown)) -> tensor<256x2560xbf16, #ttnn_layout19> attributes {tt.function_type = "const_eval"} {
        %0 = "ttnn.get_device"() <{mesh_offset = #ttnn<mesh_offset 0x0>, mesh_shape = #ttnn<mesh_shape 1x4>}> : () -> !ttnn.device loc(#loc)
        %1 = "ttnn.to_device"(%arg0, %0) <{memory_config = #ttnn.memory_config<#dram, <interleaved>>}> : (tensor<1024x2560xbf16, #ttnn_layout18>, !ttnn.device) -> tensor<1024x2560xbf16, #ttnn_layout20> loc(#loc)
        %2 = "ttnn.to_layout"(%1) <{layout = #ttnn.layout<tile>}> : (tensor<1024x2560xbf16, #ttnn_layout20>) -> tensor<1024x2560xbf16, #ttnn_layout15> loc(#loc)
        "ttnn.deallocate"(%1) <{force = false}> : (tensor<1024x2560xbf16, #ttnn_layout20>) -> () loc(#loc)
        %3 = "ttnn.mesh_shard"(%2, %0) <{shard_dims = array<i64: -1, 0>, shard_direction = #ttcore.shard_direction<full_to_shard>, shard_shape = array<i64: 4, 1>, shard_type = #ttcore.shard_type<identity>}> : (tensor<1024x2560xbf16, #ttnn_layout15>, !ttnn.device) -> tensor<256x2560xbf16, #ttnn_layout19> loc(#loc)
        return %3 : tensor<256x2560xbf16, #ttnn_layout19> loc(#loc)
      } loc(#loc)
      func.func private @main_const_eval_59(%arg0: tensor<9728x2560xbf16, #ttnn_layout10> loc(unknown)) -> tensor<2432x2560xbf16, #ttnn_layout11> attributes {tt.function_type = "const_eval"} {
        %0 = "ttnn.get_device"() <{mesh_offset = #ttnn<mesh_offset 0x0>, mesh_shape = #ttnn<mesh_shape 1x4>}> : () -> !ttnn.device loc(#loc)
        %1 = "ttnn.to_device"(%arg0, %0) <{memory_config = #ttnn.memory_config<#dram, <interleaved>>}> : (tensor<9728x2560xbf16, #ttnn_layout10>, !ttnn.device) -> tensor<9728x2560xbf16, #ttnn_layout12> loc(#loc)
        %2 = "ttnn.to_layout"(%1) <{layout = #ttnn.layout<tile>}> : (tensor<9728x2560xbf16, #ttnn_layout12>) -> tensor<9728x2560xbf16, #ttnn_layout13> loc(#loc)
        "ttnn.deallocate"(%1) <{force = false}> : (tensor<9728x2560xbf16, #ttnn_layout12>) -> () loc(#loc)
        %3 = "ttnn.mesh_shard"(%2, %0) <{shard_dims = array<i64: -1, 0>, shard_direction = #ttcore.shard_direction<full_to_shard>, shard_shape = array<i64: 4, 1>, shard_type = #ttcore.shard_type<identity>}> : (tensor<9728x2560xbf16, #ttnn_layout13>, !ttnn.device) -> tensor<2432x2560xbf16, #ttnn_layout11> loc(#loc)
        return %3 : tensor<2432x2560xbf16, #ttnn_layout11> loc(#loc)
      } loc(#loc)
      func.func private @main_const_eval_60(%arg0: tensor<2560x9728xbf16, #ttnn_layout2> loc(unknown)) -> tensor<2560x2432xbf16, #ttnn_layout3> attributes {tt.function_type = "const_eval"} {
        %0 = "ttnn.get_device"() <{mesh_offset = #ttnn<mesh_offset 0x0>, mesh_shape = #ttnn<mesh_shape 1x4>}> : () -> !ttnn.device loc(#loc)
        %1 = "ttnn.to_device"(%arg0, %0) <{memory_config = #ttnn.memory_config<#dram, <interleaved>>}> : (tensor<2560x9728xbf16, #ttnn_layout2>, !ttnn.device) -> tensor<2560x9728xbf16, #ttnn_layout4> loc(#loc)
        %2 = "ttnn.to_layout"(%1) <{layout = #ttnn.layout<tile>}> : (tensor<2560x9728xbf16, #ttnn_layout4>) -> tensor<2560x9728xbf16, #ttnn_layout5> loc(#loc)
        "ttnn.deallocate"(%1) <{force = false}> : (tensor<2560x9728xbf16, #ttnn_layout4>) -> () loc(#loc)
        %3 = "ttnn.mesh_shard"(%2, %0) <{shard_dims = array<i64: -1, 1>, shard_direction = #ttcore.shard_direction<full_to_shard>, shard_shape = array<i64: 1, 4>, shard_type = #ttcore.shard_type<identity>}> : (tensor<2560x9728xbf16, #ttnn_layout5>, !ttnn.device) -> tensor<2560x2432xbf16, #ttnn_layout3> loc(#loc)
        return %3 : tensor<2560x2432xbf16, #ttnn_layout3> loc(#loc)
      } loc(#loc)
      func.func private @main_const_eval_61(%arg0: tensor<9728x2560xbf16, #ttnn_layout10> loc(unknown)) -> tensor<2432x2560xbf16, #ttnn_layout11> attributes {tt.function_type = "const_eval"} {
        %0 = "ttnn.get_device"() <{mesh_offset = #ttnn<mesh_offset 0x0>, mesh_shape = #ttnn<mesh_shape 1x4>}> : () -> !ttnn.device loc(#loc)
        %1 = "ttnn.to_device"(%arg0, %0) <{memory_config = #ttnn.memory_config<#dram, <interleaved>>}> : (tensor<9728x2560xbf16, #ttnn_layout10>, !ttnn.device) -> tensor<9728x2560xbf16, #ttnn_layout12> loc(#loc)
        %2 = "ttnn.to_layout"(%1) <{layout = #ttnn.layout<tile>}> : (tensor<9728x2560xbf16, #ttnn_layout12>) -> tensor<9728x2560xbf16, #ttnn_layout13> loc(#loc)
        "ttnn.deallocate"(%1) <{force = false}> : (tensor<9728x2560xbf16, #ttnn_layout12>) -> () loc(#loc)
        %3 = "ttnn.mesh_shard"(%2, %0) <{shard_dims = array<i64: -1, 0>, shard_direction = #ttcore.shard_direction<full_to_shard>, shard_shape = array<i64: 4, 1>, shard_type = #ttcore.shard_type<identity>}> : (tensor<9728x2560xbf16, #ttnn_layout13>, !ttnn.device) -> tensor<2432x2560xbf16, #ttnn_layout11> loc(#loc)
        return %3 : tensor<2432x2560xbf16, #ttnn_layout11> loc(#loc)
      } loc(#loc)
      func.func private @main_const_eval_62(%arg0: tensor<1024x2560xbf16, #ttnn_layout18> loc(unknown)) -> tensor<256x2560xbf16, #ttnn_layout19> attributes {tt.function_type = "const_eval"} {
        %0 = "ttnn.get_device"() <{mesh_offset = #ttnn<mesh_offset 0x0>, mesh_shape = #ttnn<mesh_shape 1x4>}> : () -> !ttnn.device loc(#loc)
        %1 = "ttnn.to_device"(%arg0, %0) <{memory_config = #ttnn.memory_config<#dram, <interleaved>>}> : (tensor<1024x2560xbf16, #ttnn_layout18>, !ttnn.device) -> tensor<1024x2560xbf16, #ttnn_layout20> loc(#loc)
        %2 = "ttnn.to_layout"(%1) <{layout = #ttnn.layout<tile>}> : (tensor<1024x2560xbf16, #ttnn_layout20>) -> tensor<1024x2560xbf16, #ttnn_layout15> loc(#loc)
        "ttnn.deallocate"(%1) <{force = false}> : (tensor<1024x2560xbf16, #ttnn_layout20>) -> () loc(#loc)
        %3 = "ttnn.mesh_shard"(%2, %0) <{shard_dims = array<i64: -1, 0>, shard_direction = #ttcore.shard_direction<full_to_shard>, shard_shape = array<i64: 4, 1>, shard_type = #ttcore.shard_type<identity>}> : (tensor<1024x2560xbf16, #ttnn_layout15>, !ttnn.device) -> tensor<256x2560xbf16, #ttnn_layout19> loc(#loc)
        return %3 : tensor<256x2560xbf16, #ttnn_layout19> loc(#loc)
      } loc(#loc)
      func.func private @main_const_eval_63(%arg0: tensor<1024x2560xbf16, #ttnn_layout18> loc(unknown)) -> tensor<256x2560xbf16, #ttnn_layout19> attributes {tt.function_type = "const_eval"} {
        %0 = "ttnn.get_device"() <{mesh_offset = #ttnn<mesh_offset 0x0>, mesh_shape = #ttnn<mesh_shape 1x4>}> : () -> !ttnn.device loc(#loc)
        %1 = "ttnn.to_device"(%arg0, %0) <{memory_config = #ttnn.memory_config<#dram, <interleaved>>}> : (tensor<1024x2560xbf16, #ttnn_layout18>, !ttnn.device) -> tensor<1024x2560xbf16, #ttnn_layout20> loc(#loc)
        %2 = "ttnn.to_layout"(%1) <{layout = #ttnn.layout<tile>}> : (tensor<1024x2560xbf16, #ttnn_layout20>) -> tensor<1024x2560xbf16, #ttnn_layout15> loc(#loc)
        "ttnn.deallocate"(%1) <{force = false}> : (tensor<1024x2560xbf16, #ttnn_layout20>) -> () loc(#loc)
        %3 = "ttnn.mesh_shard"(%2, %0) <{shard_dims = array<i64: -1, 0>, shard_direction = #ttcore.shard_direction<full_to_shard>, shard_shape = array<i64: 4, 1>, shard_type = #ttcore.shard_type<identity>}> : (tensor<1024x2560xbf16, #ttnn_layout15>, !ttnn.device) -> tensor<256x2560xbf16, #ttnn_layout19> loc(#loc)
        return %3 : tensor<256x2560xbf16, #ttnn_layout19> loc(#loc)
      } loc(#loc)
      func.func private @main_const_eval_64(%arg0: tensor<1024x2560xbf16, #ttnn_layout18> loc(unknown)) -> tensor<256x2560xbf16, #ttnn_layout19> attributes {tt.function_type = "const_eval"} {
        %0 = "ttnn.get_device"() <{mesh_offset = #ttnn<mesh_offset 0x0>, mesh_shape = #ttnn<mesh_shape 1x4>}> : () -> !ttnn.device loc(#loc)
        %1 = "ttnn.to_device"(%arg0, %0) <{memory_config = #ttnn.memory_config<#dram, <interleaved>>}> : (tensor<1024x2560xbf16, #ttnn_layout18>, !ttnn.device) -> tensor<1024x2560xbf16, #ttnn_layout20> loc(#loc)
        %2 = "ttnn.to_layout"(%1) <{layout = #ttnn.layout<tile>}> : (tensor<1024x2560xbf16, #ttnn_layout20>) -> tensor<1024x2560xbf16, #ttnn_layout15> loc(#loc)
        "ttnn.deallocate"(%1) <{force = false}> : (tensor<1024x2560xbf16, #ttnn_layout20>) -> () loc(#loc)
        %3 = "ttnn.mesh_shard"(%2, %0) <{shard_dims = array<i64: -1, 0>, shard_direction = #ttcore.shard_direction<full_to_shard>, shard_shape = array<i64: 4, 1>, shard_type = #ttcore.shard_type<identity>}> : (tensor<1024x2560xbf16, #ttnn_layout15>, !ttnn.device) -> tensor<256x2560xbf16, #ttnn_layout19> loc(#loc)
        return %3 : tensor<256x2560xbf16, #ttnn_layout19> loc(#loc)
      } loc(#loc)
      func.func private @main_const_eval_65(%arg0: tensor<9728x2560xbf16, #ttnn_layout10> loc(unknown)) -> tensor<2432x2560xbf16, #ttnn_layout11> attributes {tt.function_type = "const_eval"} {
        %0 = "ttnn.get_device"() <{mesh_offset = #ttnn<mesh_offset 0x0>, mesh_shape = #ttnn<mesh_shape 1x4>}> : () -> !ttnn.device loc(#loc)
        %1 = "ttnn.to_device"(%arg0, %0) <{memory_config = #ttnn.memory_config<#dram, <interleaved>>}> : (tensor<9728x2560xbf16, #ttnn_layout10>, !ttnn.device) -> tensor<9728x2560xbf16, #ttnn_layout12> loc(#loc)
        %2 = "ttnn.to_layout"(%1) <{layout = #ttnn.layout<tile>}> : (tensor<9728x2560xbf16, #ttnn_layout12>) -> tensor<9728x2560xbf16, #ttnn_layout13> loc(#loc)
        "ttnn.deallocate"(%1) <{force = false}> : (tensor<9728x2560xbf16, #ttnn_layout12>) -> () loc(#loc)
        %3 = "ttnn.mesh_shard"(%2, %0) <{shard_dims = array<i64: -1, 0>, shard_direction = #ttcore.shard_direction<full_to_shard>, shard_shape = array<i64: 4, 1>, shard_type = #ttcore.shard_type<identity>}> : (tensor<9728x2560xbf16, #ttnn_layout13>, !ttnn.device) -> tensor<2432x2560xbf16, #ttnn_layout11> loc(#loc)
        return %3 : tensor<2432x2560xbf16, #ttnn_layout11> loc(#loc)
      } loc(#loc)
      func.func private @main_const_eval_66(%arg0: tensor<9728x2560xbf16, #ttnn_layout10> loc(unknown)) -> tensor<2432x2560xbf16, #ttnn_layout11> attributes {tt.function_type = "const_eval"} {
        %0 = "ttnn.get_device"() <{mesh_offset = #ttnn<mesh_offset 0x0>, mesh_shape = #ttnn<mesh_shape 1x4>}> : () -> !ttnn.device loc(#loc)
        %1 = "ttnn.to_device"(%arg0, %0) <{memory_config = #ttnn.memory_config<#dram, <interleaved>>}> : (tensor<9728x2560xbf16, #ttnn_layout10>, !ttnn.device) -> tensor<9728x2560xbf16, #ttnn_layout12> loc(#loc)
        %2 = "ttnn.to_layout"(%1) <{layout = #ttnn.layout<tile>}> : (tensor<9728x2560xbf16, #ttnn_layout12>) -> tensor<9728x2560xbf16, #ttnn_layout13> loc(#loc)
        "ttnn.deallocate"(%1) <{force = false}> : (tensor<9728x2560xbf16, #ttnn_layout12>) -> () loc(#loc)
        %3 = "ttnn.mesh_shard"(%2, %0) <{shard_dims = array<i64: -1, 0>, shard_direction = #ttcore.shard_direction<full_to_shard>, shard_shape = array<i64: 4, 1>, shard_type = #ttcore.shard_type<identity>}> : (tensor<9728x2560xbf16, #ttnn_layout13>, !ttnn.device) -> tensor<2432x2560xbf16, #ttnn_layout11> loc(#loc)
        return %3 : tensor<2432x2560xbf16, #ttnn_layout11> loc(#loc)
      } loc(#loc)
      func.func private @main_const_eval_67(%arg0: tensor<9728x2560xbf16, #ttnn_layout10> loc(unknown)) -> tensor<2432x2560xbf16, #ttnn_layout11> attributes {tt.function_type = "const_eval"} {
        %0 = "ttnn.get_device"() <{mesh_offset = #ttnn<mesh_offset 0x0>, mesh_shape = #ttnn<mesh_shape 1x4>}> : () -> !ttnn.device loc(#loc)
        %1 = "ttnn.to_device"(%arg0, %0) <{memory_config = #ttnn.memory_config<#dram, <interleaved>>}> : (tensor<9728x2560xbf16, #ttnn_layout10>, !ttnn.device) -> tensor<9728x2560xbf16, #ttnn_layout12> loc(#loc)
        %2 = "ttnn.to_layout"(%1) <{layout = #ttnn.layout<tile>}> : (tensor<9728x2560xbf16, #ttnn_layout12>) -> tensor<9728x2560xbf16, #ttnn_layout13> loc(#loc)
        "ttnn.deallocate"(%1) <{force = false}> : (tensor<9728x2560xbf16, #ttnn_layout12>) -> () loc(#loc)
        %3 = "ttnn.mesh_shard"(%2, %0) <{shard_dims = array<i64: -1, 0>, shard_direction = #ttcore.shard_direction<full_to_shard>, shard_shape = array<i64: 4, 1>, shard_type = #ttcore.shard_type<identity>}> : (tensor<9728x2560xbf16, #ttnn_layout13>, !ttnn.device) -> tensor<2432x2560xbf16, #ttnn_layout11> loc(#loc)
        return %3 : tensor<2432x2560xbf16, #ttnn_layout11> loc(#loc)
      } loc(#loc)
      func.func private @main_const_eval_68(%arg0: tensor<1024x2560xbf16, #ttnn_layout18> loc(unknown)) -> tensor<256x2560xbf16, #ttnn_layout19> attributes {tt.function_type = "const_eval"} {
        %0 = "ttnn.get_device"() <{mesh_offset = #ttnn<mesh_offset 0x0>, mesh_shape = #ttnn<mesh_shape 1x4>}> : () -> !ttnn.device loc(#loc)
        %1 = "ttnn.to_device"(%arg0, %0) <{memory_config = #ttnn.memory_config<#dram, <interleaved>>}> : (tensor<1024x2560xbf16, #ttnn_layout18>, !ttnn.device) -> tensor<1024x2560xbf16, #ttnn_layout20> loc(#loc)
        %2 = "ttnn.to_layout"(%1) <{layout = #ttnn.layout<tile>}> : (tensor<1024x2560xbf16, #ttnn_layout20>) -> tensor<1024x2560xbf16, #ttnn_layout15> loc(#loc)
        "ttnn.deallocate"(%1) <{force = false}> : (tensor<1024x2560xbf16, #ttnn_layout20>) -> () loc(#loc)
        %3 = "ttnn.mesh_shard"(%2, %0) <{shard_dims = array<i64: -1, 0>, shard_direction = #ttcore.shard_direction<full_to_shard>, shard_shape = array<i64: 4, 1>, shard_type = #ttcore.shard_type<identity>}> : (tensor<1024x2560xbf16, #ttnn_layout15>, !ttnn.device) -> tensor<256x2560xbf16, #ttnn_layout19> loc(#loc)
        return %3 : tensor<256x2560xbf16, #ttnn_layout19> loc(#loc)
      } loc(#loc)
      func.func private @main_const_eval_69(%arg0: tensor<2560x9728xbf16, #ttnn_layout2> loc(unknown)) -> tensor<2560x2432xbf16, #ttnn_layout3> attributes {tt.function_type = "const_eval"} {
        %0 = "ttnn.get_device"() <{mesh_offset = #ttnn<mesh_offset 0x0>, mesh_shape = #ttnn<mesh_shape 1x4>}> : () -> !ttnn.device loc(#loc)
        %1 = "ttnn.to_device"(%arg0, %0) <{memory_config = #ttnn.memory_config<#dram, <interleaved>>}> : (tensor<2560x9728xbf16, #ttnn_layout2>, !ttnn.device) -> tensor<2560x9728xbf16, #ttnn_layout4> loc(#loc)
        %2 = "ttnn.to_layout"(%1) <{layout = #ttnn.layout<tile>}> : (tensor<2560x9728xbf16, #ttnn_layout4>) -> tensor<2560x9728xbf16, #ttnn_layout5> loc(#loc)
        "ttnn.deallocate"(%1) <{force = false}> : (tensor<2560x9728xbf16, #ttnn_layout4>) -> () loc(#loc)
        %3 = "ttnn.mesh_shard"(%2, %0) <{shard_dims = array<i64: -1, 1>, shard_direction = #ttcore.shard_direction<full_to_shard>, shard_shape = array<i64: 1, 4>, shard_type = #ttcore.shard_type<identity>}> : (tensor<2560x9728xbf16, #ttnn_layout5>, !ttnn.device) -> tensor<2560x2432xbf16, #ttnn_layout3> loc(#loc)
        return %3 : tensor<2560x2432xbf16, #ttnn_layout3> loc(#loc)
      } loc(#loc)
      func.func private @main_const_eval_70(%arg0: tensor<1024x2560xbf16, #ttnn_layout18> loc(unknown)) -> tensor<256x2560xbf16, #ttnn_layout19> attributes {tt.function_type = "const_eval"} {
        %0 = "ttnn.get_device"() <{mesh_offset = #ttnn<mesh_offset 0x0>, mesh_shape = #ttnn<mesh_shape 1x4>}> : () -> !ttnn.device loc(#loc)
        %1 = "ttnn.to_device"(%arg0, %0) <{memory_config = #ttnn.memory_config<#dram, <interleaved>>}> : (tensor<1024x2560xbf16, #ttnn_layout18>, !ttnn.device) -> tensor<1024x2560xbf16, #ttnn_layout20> loc(#loc)
        %2 = "ttnn.to_layout"(%1) <{layout = #ttnn.layout<tile>}> : (tensor<1024x2560xbf16, #ttnn_layout20>) -> tensor<1024x2560xbf16, #ttnn_layout15> loc(#loc)
        "ttnn.deallocate"(%1) <{force = false}> : (tensor<1024x2560xbf16, #ttnn_layout20>) -> () loc(#loc)
        %3 = "ttnn.mesh_shard"(%2, %0) <{shard_dims = array<i64: -1, 0>, shard_direction = #ttcore.shard_direction<full_to_shard>, shard_shape = array<i64: 4, 1>, shard_type = #ttcore.shard_type<identity>}> : (tensor<1024x2560xbf16, #ttnn_layout15>, !ttnn.device) -> tensor<256x2560xbf16, #ttnn_layout19> loc(#loc)
        return %3 : tensor<256x2560xbf16, #ttnn_layout19> loc(#loc)
      } loc(#loc)
      func.func private @main_const_eval_71(%arg0: tensor<1024x2560xbf16, #ttnn_layout18> loc(unknown)) -> tensor<256x2560xbf16, #ttnn_layout19> attributes {tt.function_type = "const_eval"} {
        %0 = "ttnn.get_device"() <{mesh_offset = #ttnn<mesh_offset 0x0>, mesh_shape = #ttnn<mesh_shape 1x4>}> : () -> !ttnn.device loc(#loc)
        %1 = "ttnn.to_device"(%arg0, %0) <{memory_config = #ttnn.memory_config<#dram, <interleaved>>}> : (tensor<1024x2560xbf16, #ttnn_layout18>, !ttnn.device) -> tensor<1024x2560xbf16, #ttnn_layout20> loc(#loc)
        %2 = "ttnn.to_layout"(%1) <{layout = #ttnn.layout<tile>}> : (tensor<1024x2560xbf16, #ttnn_layout20>) -> tensor<1024x2560xbf16, #ttnn_layout15> loc(#loc)
        "ttnn.deallocate"(%1) <{force = false}> : (tensor<1024x2560xbf16, #ttnn_layout20>) -> () loc(#loc)
        %3 = "ttnn.mesh_shard"(%2, %0) <{shard_dims = array<i64: -1, 0>, shard_direction = #ttcore.shard_direction<full_to_shard>, shard_shape = array<i64: 4, 1>, shard_type = #ttcore.shard_type<identity>}> : (tensor<1024x2560xbf16, #ttnn_layout15>, !ttnn.device) -> tensor<256x2560xbf16, #ttnn_layout19> loc(#loc)
        return %3 : tensor<256x2560xbf16, #ttnn_layout19> loc(#loc)
      } loc(#loc)
      func.func private @main_const_eval_72(%arg0: tensor<9728x2560xbf16, #ttnn_layout10> loc(unknown)) -> tensor<2432x2560xbf16, #ttnn_layout11> attributes {tt.function_type = "const_eval"} {
        %0 = "ttnn.get_device"() <{mesh_offset = #ttnn<mesh_offset 0x0>, mesh_shape = #ttnn<mesh_shape 1x4>}> : () -> !ttnn.device loc(#loc)
        %1 = "ttnn.to_device"(%arg0, %0) <{memory_config = #ttnn.memory_config<#dram, <interleaved>>}> : (tensor<9728x2560xbf16, #ttnn_layout10>, !ttnn.device) -> tensor<9728x2560xbf16, #ttnn_layout12> loc(#loc)
        %2 = "ttnn.to_layout"(%1) <{layout = #ttnn.layout<tile>}> : (tensor<9728x2560xbf16, #ttnn_layout12>) -> tensor<9728x2560xbf16, #ttnn_layout13> loc(#loc)
        "ttnn.deallocate"(%1) <{force = false}> : (tensor<9728x2560xbf16, #ttnn_layout12>) -> () loc(#loc)
        %3 = "ttnn.mesh_shard"(%2, %0) <{shard_dims = array<i64: -1, 0>, shard_direction = #ttcore.shard_direction<full_to_shard>, shard_shape = array<i64: 4, 1>, shard_type = #ttcore.shard_type<identity>}> : (tensor<9728x2560xbf16, #ttnn_layout13>, !ttnn.device) -> tensor<2432x2560xbf16, #ttnn_layout11> loc(#loc)
        return %3 : tensor<2432x2560xbf16, #ttnn_layout11> loc(#loc)
      } loc(#loc)
      func.func private @main_const_eval_73(%arg0: tensor<2560x9728xbf16, #ttnn_layout2> loc(unknown)) -> tensor<2560x2432xbf16, #ttnn_layout3> attributes {tt.function_type = "const_eval"} {
        %0 = "ttnn.get_device"() <{mesh_offset = #ttnn<mesh_offset 0x0>, mesh_shape = #ttnn<mesh_shape 1x4>}> : () -> !ttnn.device loc(#loc)
        %1 = "ttnn.to_device"(%arg0, %0) <{memory_config = #ttnn.memory_config<#dram, <interleaved>>}> : (tensor<2560x9728xbf16, #ttnn_layout2>, !ttnn.device) -> tensor<2560x9728xbf16, #ttnn_layout4> loc(#loc)
        %2 = "ttnn.to_layout"(%1) <{layout = #ttnn.layout<tile>}> : (tensor<2560x9728xbf16, #ttnn_layout4>) -> tensor<2560x9728xbf16, #ttnn_layout5> loc(#loc)
        "ttnn.deallocate"(%1) <{force = false}> : (tensor<2560x9728xbf16, #ttnn_layout4>) -> () loc(#loc)
        %3 = "ttnn.mesh_shard"(%2, %0) <{shard_dims = array<i64: -1, 1>, shard_direction = #ttcore.shard_direction<full_to_shard>, shard_shape = array<i64: 1, 4>, shard_type = #ttcore.shard_type<identity>}> : (tensor<2560x9728xbf16, #ttnn_layout5>, !ttnn.device) -> tensor<2560x2432xbf16, #ttnn_layout3> loc(#loc)
        return %3 : tensor<2560x2432xbf16, #ttnn_layout3> loc(#loc)
      } loc(#loc)
      func.func private @main_const_eval_74(%arg0: tensor<2560x4096xbf16, #ttnn_layout6> loc(unknown)) -> tensor<2560x1024xbf16, #ttnn_layout7> attributes {tt.function_type = "const_eval"} {
        %0 = "ttnn.get_device"() <{mesh_offset = #ttnn<mesh_offset 0x0>, mesh_shape = #ttnn<mesh_shape 1x4>}> : () -> !ttnn.device loc(#loc)
        %1 = "ttnn.to_device"(%arg0, %0) <{memory_config = #ttnn.memory_config<#dram, <interleaved>>}> : (tensor<2560x4096xbf16, #ttnn_layout6>, !ttnn.device) -> tensor<2560x4096xbf16, #ttnn_layout8> loc(#loc)
        %2 = "ttnn.to_layout"(%1) <{layout = #ttnn.layout<tile>}> : (tensor<2560x4096xbf16, #ttnn_layout8>) -> tensor<2560x4096xbf16, #ttnn_layout9> loc(#loc)
        "ttnn.deallocate"(%1) <{force = false}> : (tensor<2560x4096xbf16, #ttnn_layout8>) -> () loc(#loc)
        %3 = "ttnn.mesh_shard"(%2, %0) <{shard_dims = array<i64: -1, 1>, shard_direction = #ttcore.shard_direction<full_to_shard>, shard_shape = array<i64: 1, 4>, shard_type = #ttcore.shard_type<identity>}> : (tensor<2560x4096xbf16, #ttnn_layout9>, !ttnn.device) -> tensor<2560x1024xbf16, #ttnn_layout7> loc(#loc)
        return %3 : tensor<2560x1024xbf16, #ttnn_layout7> loc(#loc)
      } loc(#loc)
      func.func private @main_const_eval_75(%arg0: tensor<2560x9728xbf16, #ttnn_layout2> loc(unknown)) -> tensor<2560x2432xbf16, #ttnn_layout3> attributes {tt.function_type = "const_eval"} {
        %0 = "ttnn.get_device"() <{mesh_offset = #ttnn<mesh_offset 0x0>, mesh_shape = #ttnn<mesh_shape 1x4>}> : () -> !ttnn.device loc(#loc)
        %1 = "ttnn.to_device"(%arg0, %0) <{memory_config = #ttnn.memory_config<#dram, <interleaved>>}> : (tensor<2560x9728xbf16, #ttnn_layout2>, !ttnn.device) -> tensor<2560x9728xbf16, #ttnn_layout4> loc(#loc)
        %2 = "ttnn.to_layout"(%1) <{layout = #ttnn.layout<tile>}> : (tensor<2560x9728xbf16, #ttnn_layout4>) -> tensor<2560x9728xbf16, #ttnn_layout5> loc(#loc)
        "ttnn.deallocate"(%1) <{force = false}> : (tensor<2560x9728xbf16, #ttnn_layout4>) -> () loc(#loc)
        %3 = "ttnn.mesh_shard"(%2, %0) <{shard_dims = array<i64: -1, 1>, shard_direction = #ttcore.shard_direction<full_to_shard>, shard_shape = array<i64: 1, 4>, shard_type = #ttcore.shard_type<identity>}> : (tensor<2560x9728xbf16, #ttnn_layout5>, !ttnn.device) -> tensor<2560x2432xbf16, #ttnn_layout3> loc(#loc)
        return %3 : tensor<2560x2432xbf16, #ttnn_layout3> loc(#loc)
      } loc(#loc)
      func.func private @main_const_eval_76(%arg0: tensor<9728x2560xbf16, #ttnn_layout10> loc(unknown)) -> tensor<2432x2560xbf16, #ttnn_layout11> attributes {tt.function_type = "const_eval"} {
        %0 = "ttnn.get_device"() <{mesh_offset = #ttnn<mesh_offset 0x0>, mesh_shape = #ttnn<mesh_shape 1x4>}> : () -> !ttnn.device loc(#loc)
        %1 = "ttnn.to_device"(%arg0, %0) <{memory_config = #ttnn.memory_config<#dram, <interleaved>>}> : (tensor<9728x2560xbf16, #ttnn_layout10>, !ttnn.device) -> tensor<9728x2560xbf16, #ttnn_layout12> loc(#loc)
        %2 = "ttnn.to_layout"(%1) <{layout = #ttnn.layout<tile>}> : (tensor<9728x2560xbf16, #ttnn_layout12>) -> tensor<9728x2560xbf16, #ttnn_layout13> loc(#loc)
        "ttnn.deallocate"(%1) <{force = false}> : (tensor<9728x2560xbf16, #ttnn_layout12>) -> () loc(#loc)
        %3 = "ttnn.mesh_shard"(%2, %0) <{shard_dims = array<i64: -1, 0>, shard_direction = #ttcore.shard_direction<full_to_shard>, shard_shape = array<i64: 4, 1>, shard_type = #ttcore.shard_type<identity>}> : (tensor<9728x2560xbf16, #ttnn_layout13>, !ttnn.device) -> tensor<2432x2560xbf16, #ttnn_layout11> loc(#loc)
        return %3 : tensor<2432x2560xbf16, #ttnn_layout11> loc(#loc)
      } loc(#loc)
      func.func private @main_const_eval_77(%arg0: tensor<2560x4096xbf16, #ttnn_layout6> loc(unknown)) -> tensor<2560x1024xbf16, #ttnn_layout7> attributes {tt.function_type = "const_eval"} {
        %0 = "ttnn.get_device"() <{mesh_offset = #ttnn<mesh_offset 0x0>, mesh_shape = #ttnn<mesh_shape 1x4>}> : () -> !ttnn.device loc(#loc)
        %1 = "ttnn.to_device"(%arg0, %0) <{memory_config = #ttnn.memory_config<#dram, <interleaved>>}> : (tensor<2560x4096xbf16, #ttnn_layout6>, !ttnn.device) -> tensor<2560x4096xbf16, #ttnn_layout8> loc(#loc)
        %2 = "ttnn.to_layout"(%1) <{layout = #ttnn.layout<tile>}> : (tensor<2560x4096xbf16, #ttnn_layout8>) -> tensor<2560x4096xbf16, #ttnn_layout9> loc(#loc)
        "ttnn.deallocate"(%1) <{force = false}> : (tensor<2560x4096xbf16, #ttnn_layout8>) -> () loc(#loc)
        %3 = "ttnn.mesh_shard"(%2, %0) <{shard_dims = array<i64: -1, 1>, shard_direction = #ttcore.shard_direction<full_to_shard>, shard_shape = array<i64: 1, 4>, shard_type = #ttcore.shard_type<identity>}> : (tensor<2560x4096xbf16, #ttnn_layout9>, !ttnn.device) -> tensor<2560x1024xbf16, #ttnn_layout7> loc(#loc)
        return %3 : tensor<2560x1024xbf16, #ttnn_layout7> loc(#loc)
      } loc(#loc)
      func.func private @main_const_eval_78(%arg0: tensor<9728x2560xbf16, #ttnn_layout10> loc(unknown)) -> tensor<2432x2560xbf16, #ttnn_layout11> attributes {tt.function_type = "const_eval"} {
        %0 = "ttnn.get_device"() <{mesh_offset = #ttnn<mesh_offset 0x0>, mesh_shape = #ttnn<mesh_shape 1x4>}> : () -> !ttnn.device loc(#loc)
        %1 = "ttnn.to_device"(%arg0, %0) <{memory_config = #ttnn.memory_config<#dram, <interleaved>>}> : (tensor<9728x2560xbf16, #ttnn_layout10>, !ttnn.device) -> tensor<9728x2560xbf16, #ttnn_layout12> loc(#loc)
        %2 = "ttnn.to_layout"(%1) <{layout = #ttnn.layout<tile>}> : (tensor<9728x2560xbf16, #ttnn_layout12>) -> tensor<9728x2560xbf16, #ttnn_layout13> loc(#loc)
        "ttnn.deallocate"(%1) <{force = false}> : (tensor<9728x2560xbf16, #ttnn_layout12>) -> () loc(#loc)
        %3 = "ttnn.mesh_shard"(%2, %0) <{shard_dims = array<i64: -1, 0>, shard_direction = #ttcore.shard_direction<full_to_shard>, shard_shape = array<i64: 4, 1>, shard_type = #ttcore.shard_type<identity>}> : (tensor<9728x2560xbf16, #ttnn_layout13>, !ttnn.device) -> tensor<2432x2560xbf16, #ttnn_layout11> loc(#loc)
        return %3 : tensor<2432x2560xbf16, #ttnn_layout11> loc(#loc)
      } loc(#loc)
      func.func private @main_const_eval_79(%arg0: tensor<9728x2560xbf16, #ttnn_layout10> loc(unknown)) -> tensor<2432x2560xbf16, #ttnn_layout11> attributes {tt.function_type = "const_eval"} {
        %0 = "ttnn.get_device"() <{mesh_offset = #ttnn<mesh_offset 0x0>, mesh_shape = #ttnn<mesh_shape 1x4>}> : () -> !ttnn.device loc(#loc)
        %1 = "ttnn.to_device"(%arg0, %0) <{memory_config = #ttnn.memory_config<#dram, <interleaved>>}> : (tensor<9728x2560xbf16, #ttnn_layout10>, !ttnn.device) -> tensor<9728x2560xbf16, #ttnn_layout12> loc(#loc)
        %2 = "ttnn.to_layout"(%1) <{layout = #ttnn.layout<tile>}> : (tensor<9728x2560xbf16, #ttnn_layout12>) -> tensor<9728x2560xbf16, #ttnn_layout13> loc(#loc)
        "ttnn.deallocate"(%1) <{force = false}> : (tensor<9728x2560xbf16, #ttnn_layout12>) -> () loc(#loc)
        %3 = "ttnn.mesh_shard"(%2, %0) <{shard_dims = array<i64: -1, 0>, shard_direction = #ttcore.shard_direction<full_to_shard>, shard_shape = array<i64: 4, 1>, shard_type = #ttcore.shard_type<identity>}> : (tensor<9728x2560xbf16, #ttnn_layout13>, !ttnn.device) -> tensor<2432x2560xbf16, #ttnn_layout11> loc(#loc)
        return %3 : tensor<2432x2560xbf16, #ttnn_layout11> loc(#loc)
      } loc(#loc)
      func.func private @main_const_eval_80(%arg0: tensor<2560x4096xbf16, #ttnn_layout6> loc(unknown)) -> tensor<2560x1024xbf16, #ttnn_layout7> attributes {tt.function_type = "const_eval"} {
        %0 = "ttnn.get_device"() <{mesh_offset = #ttnn<mesh_offset 0x0>, mesh_shape = #ttnn<mesh_shape 1x4>}> : () -> !ttnn.device loc(#loc)
        %1 = "ttnn.to_device"(%arg0, %0) <{memory_config = #ttnn.memory_config<#dram, <interleaved>>}> : (tensor<2560x4096xbf16, #ttnn_layout6>, !ttnn.device) -> tensor<2560x4096xbf16, #ttnn_layout8> loc(#loc)
        %2 = "ttnn.to_layout"(%1) <{layout = #ttnn.layout<tile>}> : (tensor<2560x4096xbf16, #ttnn_layout8>) -> tensor<2560x4096xbf16, #ttnn_layout9> loc(#loc)
        "ttnn.deallocate"(%1) <{force = false}> : (tensor<2560x4096xbf16, #ttnn_layout8>) -> () loc(#loc)
        %3 = "ttnn.mesh_shard"(%2, %0) <{shard_dims = array<i64: -1, 1>, shard_direction = #ttcore.shard_direction<full_to_shard>, shard_shape = array<i64: 1, 4>, shard_type = #ttcore.shard_type<identity>}> : (tensor<2560x4096xbf16, #ttnn_layout9>, !ttnn.device) -> tensor<2560x1024xbf16, #ttnn_layout7> loc(#loc)
        return %3 : tensor<2560x1024xbf16, #ttnn_layout7> loc(#loc)
      } loc(#loc)
      func.func private @main_const_eval_81(%arg0: tensor<2560x9728xbf16, #ttnn_layout2> loc(unknown)) -> tensor<2560x2432xbf16, #ttnn_layout3> attributes {tt.function_type = "const_eval"} {
        %0 = "ttnn.get_device"() <{mesh_offset = #ttnn<mesh_offset 0x0>, mesh_shape = #ttnn<mesh_shape 1x4>}> : () -> !ttnn.device loc(#loc)
        %1 = "ttnn.to_device"(%arg0, %0) <{memory_config = #ttnn.memory_config<#dram, <interleaved>>}> : (tensor<2560x9728xbf16, #ttnn_layout2>, !ttnn.device) -> tensor<2560x9728xbf16, #ttnn_layout4> loc(#loc)
        %2 = "ttnn.to_layout"(%1) <{layout = #ttnn.layout<tile>}> : (tensor<2560x9728xbf16, #ttnn_layout4>) -> tensor<2560x9728xbf16, #ttnn_layout5> loc(#loc)
        "ttnn.deallocate"(%1) <{force = false}> : (tensor<2560x9728xbf16, #ttnn_layout4>) -> () loc(#loc)
        %3 = "ttnn.mesh_shard"(%2, %0) <{shard_dims = array<i64: -1, 1>, shard_direction = #ttcore.shard_direction<full_to_shard>, shard_shape = array<i64: 1, 4>, shard_type = #ttcore.shard_type<identity>}> : (tensor<2560x9728xbf16, #ttnn_layout5>, !ttnn.device) -> tensor<2560x2432xbf16, #ttnn_layout3> loc(#loc)
        return %3 : tensor<2560x2432xbf16, #ttnn_layout3> loc(#loc)
      } loc(#loc)
      func.func private @main_const_eval_82(%arg0: tensor<2560x9728xbf16, #ttnn_layout2> loc(unknown)) -> tensor<2560x2432xbf16, #ttnn_layout3> attributes {tt.function_type = "const_eval"} {
        %0 = "ttnn.get_device"() <{mesh_offset = #ttnn<mesh_offset 0x0>, mesh_shape = #ttnn<mesh_shape 1x4>}> : () -> !ttnn.device loc(#loc)
        %1 = "ttnn.to_device"(%arg0, %0) <{memory_config = #ttnn.memory_config<#dram, <interleaved>>}> : (tensor<2560x9728xbf16, #ttnn_layout2>, !ttnn.device) -> tensor<2560x9728xbf16, #ttnn_layout4> loc(#loc)
        %2 = "ttnn.to_layout"(%1) <{layout = #ttnn.layout<tile>}> : (tensor<2560x9728xbf16, #ttnn_layout4>) -> tensor<2560x9728xbf16, #ttnn_layout5> loc(#loc)
        "ttnn.deallocate"(%1) <{force = false}> : (tensor<2560x9728xbf16, #ttnn_layout4>) -> () loc(#loc)
        %3 = "ttnn.mesh_shard"(%2, %0) <{shard_dims = array<i64: -1, 1>, shard_direction = #ttcore.shard_direction<full_to_shard>, shard_shape = array<i64: 1, 4>, shard_type = #ttcore.shard_type<identity>}> : (tensor<2560x9728xbf16, #ttnn_layout5>, !ttnn.device) -> tensor<2560x2432xbf16, #ttnn_layout3> loc(#loc)
        return %3 : tensor<2560x2432xbf16, #ttnn_layout3> loc(#loc)
      } loc(#loc)
      func.func private @main_const_eval_83(%arg0: tensor<1024x2560xbf16, #ttnn_layout18> loc(unknown)) -> tensor<256x2560xbf16, #ttnn_layout19> attributes {tt.function_type = "const_eval"} {
        %0 = "ttnn.get_device"() <{mesh_offset = #ttnn<mesh_offset 0x0>, mesh_shape = #ttnn<mesh_shape 1x4>}> : () -> !ttnn.device loc(#loc)
        %1 = "ttnn.to_device"(%arg0, %0) <{memory_config = #ttnn.memory_config<#dram, <interleaved>>}> : (tensor<1024x2560xbf16, #ttnn_layout18>, !ttnn.device) -> tensor<1024x2560xbf16, #ttnn_layout20> loc(#loc)
        %2 = "ttnn.to_layout"(%1) <{layout = #ttnn.layout<tile>}> : (tensor<1024x2560xbf16, #ttnn_layout20>) -> tensor<1024x2560xbf16, #ttnn_layout15> loc(#loc)
        "ttnn.deallocate"(%1) <{force = false}> : (tensor<1024x2560xbf16, #ttnn_layout20>) -> () loc(#loc)
        %3 = "ttnn.mesh_shard"(%2, %0) <{shard_dims = array<i64: -1, 0>, shard_direction = #ttcore.shard_direction<full_to_shard>, shard_shape = array<i64: 4, 1>, shard_type = #ttcore.shard_type<identity>}> : (tensor<1024x2560xbf16, #ttnn_layout15>, !ttnn.device) -> tensor<256x2560xbf16, #ttnn_layout19> loc(#loc)
        return %3 : tensor<256x2560xbf16, #ttnn_layout19> loc(#loc)
      } loc(#loc)
      func.func private @main_const_eval_84(%arg0: tensor<1024x2560xbf16, #ttnn_layout18> loc(unknown)) -> tensor<256x2560xbf16, #ttnn_layout19> attributes {tt.function_type = "const_eval"} {
        %0 = "ttnn.get_device"() <{mesh_offset = #ttnn<mesh_offset 0x0>, mesh_shape = #ttnn<mesh_shape 1x4>}> : () -> !ttnn.device loc(#loc)
        %1 = "ttnn.to_device"(%arg0, %0) <{memory_config = #ttnn.memory_config<#dram, <interleaved>>}> : (tensor<1024x2560xbf16, #ttnn_layout18>, !ttnn.device) -> tensor<1024x2560xbf16, #ttnn_layout20> loc(#loc)
        %2 = "ttnn.to_layout"(%1) <{layout = #ttnn.layout<tile>}> : (tensor<1024x2560xbf16, #ttnn_layout20>) -> tensor<1024x2560xbf16, #ttnn_layout15> loc(#loc)
        "ttnn.deallocate"(%1) <{force = false}> : (tensor<1024x2560xbf16, #ttnn_layout20>) -> () loc(#loc)
        %3 = "ttnn.mesh_shard"(%2, %0) <{shard_dims = array<i64: -1, 0>, shard_direction = #ttcore.shard_direction<full_to_shard>, shard_shape = array<i64: 4, 1>, shard_type = #ttcore.shard_type<identity>}> : (tensor<1024x2560xbf16, #ttnn_layout15>, !ttnn.device) -> tensor<256x2560xbf16, #ttnn_layout19> loc(#loc)
        return %3 : tensor<256x2560xbf16, #ttnn_layout19> loc(#loc)
      } loc(#loc)
      func.func private @main_const_eval_85(%arg0: tensor<9728x2560xbf16, #ttnn_layout10> loc(unknown)) -> tensor<2432x2560xbf16, #ttnn_layout11> attributes {tt.function_type = "const_eval"} {
        %0 = "ttnn.get_device"() <{mesh_offset = #ttnn<mesh_offset 0x0>, mesh_shape = #ttnn<mesh_shape 1x4>}> : () -> !ttnn.device loc(#loc)
        %1 = "ttnn.to_device"(%arg0, %0) <{memory_config = #ttnn.memory_config<#dram, <interleaved>>}> : (tensor<9728x2560xbf16, #ttnn_layout10>, !ttnn.device) -> tensor<9728x2560xbf16, #ttnn_layout12> loc(#loc)
        %2 = "ttnn.to_layout"(%1) <{layout = #ttnn.layout<tile>}> : (tensor<9728x2560xbf16, #ttnn_layout12>) -> tensor<9728x2560xbf16, #ttnn_layout13> loc(#loc)
        "ttnn.deallocate"(%1) <{force = false}> : (tensor<9728x2560xbf16, #ttnn_layout12>) -> () loc(#loc)
        %3 = "ttnn.mesh_shard"(%2, %0) <{shard_dims = array<i64: -1, 0>, shard_direction = #ttcore.shard_direction<full_to_shard>, shard_shape = array<i64: 4, 1>, shard_type = #ttcore.shard_type<identity>}> : (tensor<9728x2560xbf16, #ttnn_layout13>, !ttnn.device) -> tensor<2432x2560xbf16, #ttnn_layout11> loc(#loc)
        return %3 : tensor<2432x2560xbf16, #ttnn_layout11> loc(#loc)
      } loc(#loc)
      func.func private @main_const_eval_86(%arg0: tensor<1024x2560xbf16, #ttnn_layout18> loc(unknown)) -> tensor<256x2560xbf16, #ttnn_layout19> attributes {tt.function_type = "const_eval"} {
        %0 = "ttnn.get_device"() <{mesh_offset = #ttnn<mesh_offset 0x0>, mesh_shape = #ttnn<mesh_shape 1x4>}> : () -> !ttnn.device loc(#loc)
        %1 = "ttnn.to_device"(%arg0, %0) <{memory_config = #ttnn.memory_config<#dram, <interleaved>>}> : (tensor<1024x2560xbf16, #ttnn_layout18>, !ttnn.device) -> tensor<1024x2560xbf16, #ttnn_layout20> loc(#loc)
        %2 = "ttnn.to_layout"(%1) <{layout = #ttnn.layout<tile>}> : (tensor<1024x2560xbf16, #ttnn_layout20>) -> tensor<1024x2560xbf16, #ttnn_layout15> loc(#loc)
        "ttnn.deallocate"(%1) <{force = false}> : (tensor<1024x2560xbf16, #ttnn_layout20>) -> () loc(#loc)
        %3 = "ttnn.mesh_shard"(%2, %0) <{shard_dims = array<i64: -1, 0>, shard_direction = #ttcore.shard_direction<full_to_shard>, shard_shape = array<i64: 4, 1>, shard_type = #ttcore.shard_type<identity>}> : (tensor<1024x2560xbf16, #ttnn_layout15>, !ttnn.device) -> tensor<256x2560xbf16, #ttnn_layout19> loc(#loc)
        return %3 : tensor<256x2560xbf16, #ttnn_layout19> loc(#loc)
      } loc(#loc)
      func.func private @main_const_eval_87(%arg0: tensor<9728x2560xbf16, #ttnn_layout10> loc(unknown)) -> tensor<2432x2560xbf16, #ttnn_layout11> attributes {tt.function_type = "const_eval"} {
        %0 = "ttnn.get_device"() <{mesh_offset = #ttnn<mesh_offset 0x0>, mesh_shape = #ttnn<mesh_shape 1x4>}> : () -> !ttnn.device loc(#loc)
        %1 = "ttnn.to_device"(%arg0, %0) <{memory_config = #ttnn.memory_config<#dram, <interleaved>>}> : (tensor<9728x2560xbf16, #ttnn_layout10>, !ttnn.device) -> tensor<9728x2560xbf16, #ttnn_layout12> loc(#loc)
        %2 = "ttnn.to_layout"(%1) <{layout = #ttnn.layout<tile>}> : (tensor<9728x2560xbf16, #ttnn_layout12>) -> tensor<9728x2560xbf16, #ttnn_layout13> loc(#loc)
        "ttnn.deallocate"(%1) <{force = false}> : (tensor<9728x2560xbf16, #ttnn_layout12>) -> () loc(#loc)
        %3 = "ttnn.mesh_shard"(%2, %0) <{shard_dims = array<i64: -1, 0>, shard_direction = #ttcore.shard_direction<full_to_shard>, shard_shape = array<i64: 4, 1>, shard_type = #ttcore.shard_type<identity>}> : (tensor<9728x2560xbf16, #ttnn_layout13>, !ttnn.device) -> tensor<2432x2560xbf16, #ttnn_layout11> loc(#loc)
        return %3 : tensor<2432x2560xbf16, #ttnn_layout11> loc(#loc)
      } loc(#loc)
      func.func private @main_const_eval_88(%arg0: tensor<1024x2560xbf16, #ttnn_layout18> loc(unknown)) -> tensor<256x2560xbf16, #ttnn_layout19> attributes {tt.function_type = "const_eval"} {
        %0 = "ttnn.get_device"() <{mesh_offset = #ttnn<mesh_offset 0x0>, mesh_shape = #ttnn<mesh_shape 1x4>}> : () -> !ttnn.device loc(#loc)
        %1 = "ttnn.to_device"(%arg0, %0) <{memory_config = #ttnn.memory_config<#dram, <interleaved>>}> : (tensor<1024x2560xbf16, #ttnn_layout18>, !ttnn.device) -> tensor<1024x2560xbf16, #ttnn_layout20> loc(#loc)
        %2 = "ttnn.to_layout"(%1) <{layout = #ttnn.layout<tile>}> : (tensor<1024x2560xbf16, #ttnn_layout20>) -> tensor<1024x2560xbf16, #ttnn_layout15> loc(#loc)
        "ttnn.deallocate"(%1) <{force = false}> : (tensor<1024x2560xbf16, #ttnn_layout20>) -> () loc(#loc)
        %3 = "ttnn.mesh_shard"(%2, %0) <{shard_dims = array<i64: -1, 0>, shard_direction = #ttcore.shard_direction<full_to_shard>, shard_shape = array<i64: 4, 1>, shard_type = #ttcore.shard_type<identity>}> : (tensor<1024x2560xbf16, #ttnn_layout15>, !ttnn.device) -> tensor<256x2560xbf16, #ttnn_layout19> loc(#loc)
        return %3 : tensor<256x2560xbf16, #ttnn_layout19> loc(#loc)
      } loc(#loc)
      func.func private @main_const_eval_89(%arg0: tensor<1024x2560xbf16, #ttnn_layout18> loc(unknown)) -> tensor<256x2560xbf16, #ttnn_layout19> attributes {tt.function_type = "const_eval"} {
        %0 = "ttnn.get_device"() <{mesh_offset = #ttnn<mesh_offset 0x0>, mesh_shape = #ttnn<mesh_shape 1x4>}> : () -> !ttnn.device loc(#loc)
        %1 = "ttnn.to_device"(%arg0, %0) <{memory_config = #ttnn.memory_config<#dram, <interleaved>>}> : (tensor<1024x2560xbf16, #ttnn_layout18>, !ttnn.device) -> tensor<1024x2560xbf16, #ttnn_layout20> loc(#loc)
        %2 = "ttnn.to_layout"(%1) <{layout = #ttnn.layout<tile>}> : (tensor<1024x2560xbf16, #ttnn_layout20>) -> tensor<1024x2560xbf16, #ttnn_layout15> loc(#loc)
        "ttnn.deallocate"(%1) <{force = false}> : (tensor<1024x2560xbf16, #ttnn_layout20>) -> () loc(#loc)
        %3 = "ttnn.mesh_shard"(%2, %0) <{shard_dims = array<i64: -1, 0>, shard_direction = #ttcore.shard_direction<full_to_shard>, shard_shape = array<i64: 4, 1>, shard_type = #ttcore.shard_type<identity>}> : (tensor<1024x2560xbf16, #ttnn_layout15>, !ttnn.device) -> tensor<256x2560xbf16, #ttnn_layout19> loc(#loc)
        return %3 : tensor<256x2560xbf16, #ttnn_layout19> loc(#loc)
      } loc(#loc)
      func.func private @main_const_eval_90(%arg0: tensor<1024x2560xbf16, #ttnn_layout18> loc(unknown)) -> tensor<256x2560xbf16, #ttnn_layout19> attributes {tt.function_type = "const_eval"} {
        %0 = "ttnn.get_device"() <{mesh_offset = #ttnn<mesh_offset 0x0>, mesh_shape = #ttnn<mesh_shape 1x4>}> : () -> !ttnn.device loc(#loc)
        %1 = "ttnn.to_device"(%arg0, %0) <{memory_config = #ttnn.memory_config<#dram, <interleaved>>}> : (tensor<1024x2560xbf16, #ttnn_layout18>, !ttnn.device) -> tensor<1024x2560xbf16, #ttnn_layout20> loc(#loc)
        %2 = "ttnn.to_layout"(%1) <{layout = #ttnn.layout<tile>}> : (tensor<1024x2560xbf16, #ttnn_layout20>) -> tensor<1024x2560xbf16, #ttnn_layout15> loc(#loc)
        "ttnn.deallocate"(%1) <{force = false}> : (tensor<1024x2560xbf16, #ttnn_layout20>) -> () loc(#loc)
        %3 = "ttnn.mesh_shard"(%2, %0) <{shard_dims = array<i64: -1, 0>, shard_direction = #ttcore.shard_direction<full_to_shard>, shard_shape = array<i64: 4, 1>, shard_type = #ttcore.shard_type<identity>}> : (tensor<1024x2560xbf16, #ttnn_layout15>, !ttnn.device) -> tensor<256x2560xbf16, #ttnn_layout19> loc(#loc)
        return %3 : tensor<256x2560xbf16, #ttnn_layout19> loc(#loc)
      } loc(#loc)
      func.func private @main_const_eval_91(%arg0: tensor<1024x2560xbf16, #ttnn_layout18> loc(unknown)) -> tensor<256x2560xbf16, #ttnn_layout19> attributes {tt.function_type = "const_eval"} {
        %0 = "ttnn.get_device"() <{mesh_offset = #ttnn<mesh_offset 0x0>, mesh_shape = #ttnn<mesh_shape 1x4>}> : () -> !ttnn.device loc(#loc)
        %1 = "ttnn.to_device"(%arg0, %0) <{memory_config = #ttnn.memory_config<#dram, <interleaved>>}> : (tensor<1024x2560xbf16, #ttnn_layout18>, !ttnn.device) -> tensor<1024x2560xbf16, #ttnn_layout20> loc(#loc)
        %2 = "ttnn.to_layout"(%1) <{layout = #ttnn.layout<tile>}> : (tensor<1024x2560xbf16, #ttnn_layout20>) -> tensor<1024x2560xbf16, #ttnn_layout15> loc(#loc)
        "ttnn.deallocate"(%1) <{force = false}> : (tensor<1024x2560xbf16, #ttnn_layout20>) -> () loc(#loc)
        %3 = "ttnn.mesh_shard"(%2, %0) <{shard_dims = array<i64: -1, 0>, shard_direction = #ttcore.shard_direction<full_to_shard>, shard_shape = array<i64: 4, 1>, shard_type = #ttcore.shard_type<identity>}> : (tensor<1024x2560xbf16, #ttnn_layout15>, !ttnn.device) -> tensor<256x2560xbf16, #ttnn_layout19> loc(#loc)
        return %3 : tensor<256x2560xbf16, #ttnn_layout19> loc(#loc)
      } loc(#loc)
      func.func private @main_const_eval_92(%arg0: tensor<2560x9728xbf16, #ttnn_layout2> loc(unknown)) -> tensor<2560x2432xbf16, #ttnn_layout3> attributes {tt.function_type = "const_eval"} {
        %0 = "ttnn.get_device"() <{mesh_offset = #ttnn<mesh_offset 0x0>, mesh_shape = #ttnn<mesh_shape 1x4>}> : () -> !ttnn.device loc(#loc)
        %1 = "ttnn.to_device"(%arg0, %0) <{memory_config = #ttnn.memory_config<#dram, <interleaved>>}> : (tensor<2560x9728xbf16, #ttnn_layout2>, !ttnn.device) -> tensor<2560x9728xbf16, #ttnn_layout4> loc(#loc)
        %2 = "ttnn.to_layout"(%1) <{layout = #ttnn.layout<tile>}> : (tensor<2560x9728xbf16, #ttnn_layout4>) -> tensor<2560x9728xbf16, #ttnn_layout5> loc(#loc)
        "ttnn.deallocate"(%1) <{force = false}> : (tensor<2560x9728xbf16, #ttnn_layout4>) -> () loc(#loc)
        %3 = "ttnn.mesh_shard"(%2, %0) <{shard_dims = array<i64: -1, 1>, shard_direction = #ttcore.shard_direction<full_to_shard>, shard_shape = array<i64: 1, 4>, shard_type = #ttcore.shard_type<identity>}> : (tensor<2560x9728xbf16, #ttnn_layout5>, !ttnn.device) -> tensor<2560x2432xbf16, #ttnn_layout3> loc(#loc)
        return %3 : tensor<2560x2432xbf16, #ttnn_layout3> loc(#loc)
      } loc(#loc)
      func.func private @main_const_eval_93(%arg0: tensor<1024x2560xbf16, #ttnn_layout18> loc(unknown)) -> tensor<256x2560xbf16, #ttnn_layout19> attributes {tt.function_type = "const_eval"} {
        %0 = "ttnn.get_device"() <{mesh_offset = #ttnn<mesh_offset 0x0>, mesh_shape = #ttnn<mesh_shape 1x4>}> : () -> !ttnn.device loc(#loc)
        %1 = "ttnn.to_device"(%arg0, %0) <{memory_config = #ttnn.memory_config<#dram, <interleaved>>}> : (tensor<1024x2560xbf16, #ttnn_layout18>, !ttnn.device) -> tensor<1024x2560xbf16, #ttnn_layout20> loc(#loc)
        %2 = "ttnn.to_layout"(%1) <{layout = #ttnn.layout<tile>}> : (tensor<1024x2560xbf16, #ttnn_layout20>) -> tensor<1024x2560xbf16, #ttnn_layout15> loc(#loc)
        "ttnn.deallocate"(%1) <{force = false}> : (tensor<1024x2560xbf16, #ttnn_layout20>) -> () loc(#loc)
        %3 = "ttnn.mesh_shard"(%2, %0) <{shard_dims = array<i64: -1, 0>, shard_direction = #ttcore.shard_direction<full_to_shard>, shard_shape = array<i64: 4, 1>, shard_type = #ttcore.shard_type<identity>}> : (tensor<1024x2560xbf16, #ttnn_layout15>, !ttnn.device) -> tensor<256x2560xbf16, #ttnn_layout19> loc(#loc)
        return %3 : tensor<256x2560xbf16, #ttnn_layout19> loc(#loc)
      } loc(#loc)
      func.func private @main_const_eval_94(%arg0: tensor<1024x2560xbf16, #ttnn_layout18> loc(unknown)) -> tensor<256x2560xbf16, #ttnn_layout19> attributes {tt.function_type = "const_eval"} {
        %0 = "ttnn.get_device"() <{mesh_offset = #ttnn<mesh_offset 0x0>, mesh_shape = #ttnn<mesh_shape 1x4>}> : () -> !ttnn.device loc(#loc)
        %1 = "ttnn.to_device"(%arg0, %0) <{memory_config = #ttnn.memory_config<#dram, <interleaved>>}> : (tensor<1024x2560xbf16, #ttnn_layout18>, !ttnn.device) -> tensor<1024x2560xbf16, #ttnn_layout20> loc(#loc)
        %2 = "ttnn.to_layout"(%1) <{layout = #ttnn.layout<tile>}> : (tensor<1024x2560xbf16, #ttnn_layout20>) -> tensor<1024x2560xbf16, #ttnn_layout15> loc(#loc)
        "ttnn.deallocate"(%1) <{force = false}> : (tensor<1024x2560xbf16, #ttnn_layout20>) -> () loc(#loc)
        %3 = "ttnn.mesh_shard"(%2, %0) <{shard_dims = array<i64: -1, 0>, shard_direction = #ttcore.shard_direction<full_to_shard>, shard_shape = array<i64: 4, 1>, shard_type = #ttcore.shard_type<identity>}> : (tensor<1024x2560xbf16, #ttnn_layout15>, !ttnn.device) -> tensor<256x2560xbf16, #ttnn_layout19> loc(#loc)
        return %3 : tensor<256x2560xbf16, #ttnn_layout19> loc(#loc)
      } loc(#loc)
      func.func private @main_const_eval_95(%arg0: tensor<2560x9728xbf16, #ttnn_layout2> loc(unknown)) -> tensor<2560x2432xbf16, #ttnn_layout3> attributes {tt.function_type = "const_eval"} {
        %0 = "ttnn.get_device"() <{mesh_offset = #ttnn<mesh_offset 0x0>, mesh_shape = #ttnn<mesh_shape 1x4>}> : () -> !ttnn.device loc(#loc)
        %1 = "ttnn.to_device"(%arg0, %0) <{memory_config = #ttnn.memory_config<#dram, <interleaved>>}> : (tensor<2560x9728xbf16, #ttnn_layout2>, !ttnn.device) -> tensor<2560x9728xbf16, #ttnn_layout4> loc(#loc)
        %2 = "ttnn.to_layout"(%1) <{layout = #ttnn.layout<tile>}> : (tensor<2560x9728xbf16, #ttnn_layout4>) -> tensor<2560x9728xbf16, #ttnn_layout5> loc(#loc)
        "ttnn.deallocate"(%1) <{force = false}> : (tensor<2560x9728xbf16, #ttnn_layout4>) -> () loc(#loc)
        %3 = "ttnn.mesh_shard"(%2, %0) <{shard_dims = array<i64: -1, 1>, shard_direction = #ttcore.shard_direction<full_to_shard>, shard_shape = array<i64: 1, 4>, shard_type = #ttcore.shard_type<identity>}> : (tensor<2560x9728xbf16, #ttnn_layout5>, !ttnn.device) -> tensor<2560x2432xbf16, #ttnn_layout3> loc(#loc)
        return %3 : tensor<2560x2432xbf16, #ttnn_layout3> loc(#loc)
      } loc(#loc)
      func.func private @main_const_eval_96(%arg0: tensor<1024x2560xbf16, #ttnn_layout18> loc(unknown)) -> tensor<256x2560xbf16, #ttnn_layout19> attributes {tt.function_type = "const_eval"} {
        %0 = "ttnn.get_device"() <{mesh_offset = #ttnn<mesh_offset 0x0>, mesh_shape = #ttnn<mesh_shape 1x4>}> : () -> !ttnn.device loc(#loc)
        %1 = "ttnn.to_device"(%arg0, %0) <{memory_config = #ttnn.memory_config<#dram, <interleaved>>}> : (tensor<1024x2560xbf16, #ttnn_layout18>, !ttnn.device) -> tensor<1024x2560xbf16, #ttnn_layout20> loc(#loc)
        %2 = "ttnn.to_layout"(%1) <{layout = #ttnn.layout<tile>}> : (tensor<1024x2560xbf16, #ttnn_layout20>) -> tensor<1024x2560xbf16, #ttnn_layout15> loc(#loc)
        "ttnn.deallocate"(%1) <{force = false}> : (tensor<1024x2560xbf16, #ttnn_layout20>) -> () loc(#loc)
        %3 = "ttnn.mesh_shard"(%2, %0) <{shard_dims = array<i64: -1, 0>, shard_direction = #ttcore.shard_direction<full_to_shard>, shard_shape = array<i64: 4, 1>, shard_type = #ttcore.shard_type<identity>}> : (tensor<1024x2560xbf16, #ttnn_layout15>, !ttnn.device) -> tensor<256x2560xbf16, #ttnn_layout19> loc(#loc)
        return %3 : tensor<256x2560xbf16, #ttnn_layout19> loc(#loc)
      } loc(#loc)
      func.func private @main_const_eval_97(%arg0: tensor<1024x2560xbf16, #ttnn_layout18> loc(unknown)) -> tensor<256x2560xbf16, #ttnn_layout19> attributes {tt.function_type = "const_eval"} {
        %0 = "ttnn.get_device"() <{mesh_offset = #ttnn<mesh_offset 0x0>, mesh_shape = #ttnn<mesh_shape 1x4>}> : () -> !ttnn.device loc(#loc)
        %1 = "ttnn.to_device"(%arg0, %0) <{memory_config = #ttnn.memory_config<#dram, <interleaved>>}> : (tensor<1024x2560xbf16, #ttnn_layout18>, !ttnn.device) -> tensor<1024x2560xbf16, #ttnn_layout20> loc(#loc)
        %2 = "ttnn.to_layout"(%1) <{layout = #ttnn.layout<tile>}> : (tensor<1024x2560xbf16, #ttnn_layout20>) -> tensor<1024x2560xbf16, #ttnn_layout15> loc(#loc)
        "ttnn.deallocate"(%1) <{force = false}> : (tensor<1024x2560xbf16, #ttnn_layout20>) -> () loc(#loc)
        %3 = "ttnn.mesh_shard"(%2, %0) <{shard_dims = array<i64: -1, 0>, shard_direction = #ttcore.shard_direction<full_to_shard>, shard_shape = array<i64: 4, 1>, shard_type = #ttcore.shard_type<identity>}> : (tensor<1024x2560xbf16, #ttnn_layout15>, !ttnn.device) -> tensor<256x2560xbf16, #ttnn_layout19> loc(#loc)
        return %3 : tensor<256x2560xbf16, #ttnn_layout19> loc(#loc)
      } loc(#loc)
      func.func private @main_const_eval_98(%arg0: tensor<1024x2560xbf16, #ttnn_layout18> loc(unknown)) -> tensor<256x2560xbf16, #ttnn_layout19> attributes {tt.function_type = "const_eval"} {
        %0 = "ttnn.get_device"() <{mesh_offset = #ttnn<mesh_offset 0x0>, mesh_shape = #ttnn<mesh_shape 1x4>}> : () -> !ttnn.device loc(#loc)
        %1 = "ttnn.to_device"(%arg0, %0) <{memory_config = #ttnn.memory_config<#dram, <interleaved>>}> : (tensor<1024x2560xbf16, #ttnn_layout18>, !ttnn.device) -> tensor<1024x2560xbf16, #ttnn_layout20> loc(#loc)
        %2 = "ttnn.to_layout"(%1) <{layout = #ttnn.layout<tile>}> : (tensor<1024x2560xbf16, #ttnn_layout20>) -> tensor<1024x2560xbf16, #ttnn_layout15> loc(#loc)
        "ttnn.deallocate"(%1) <{force = false}> : (tensor<1024x2560xbf16, #ttnn_layout20>) -> () loc(#loc)
        %3 = "ttnn.mesh_shard"(%2, %0) <{shard_dims = array<i64: -1, 0>, shard_direction = #ttcore.shard_direction<full_to_shard>, shard_shape = array<i64: 4, 1>, shard_type = #ttcore.shard_type<identity>}> : (tensor<1024x2560xbf16, #ttnn_layout15>, !ttnn.device) -> tensor<256x2560xbf16, #ttnn_layout19> loc(#loc)
        return %3 : tensor<256x2560xbf16, #ttnn_layout19> loc(#loc)
      } loc(#loc)
      func.func private @main_const_eval_99(%arg0: tensor<1024x2560xbf16, #ttnn_layout18> loc(unknown)) -> tensor<256x2560xbf16, #ttnn_layout19> attributes {tt.function_type = "const_eval"} {
        %0 = "ttnn.get_device"() <{mesh_offset = #ttnn<mesh_offset 0x0>, mesh_shape = #ttnn<mesh_shape 1x4>}> : () -> !ttnn.device loc(#loc)
        %1 = "ttnn.to_device"(%arg0, %0) <{memory_config = #ttnn.memory_config<#dram, <interleaved>>}> : (tensor<1024x2560xbf16, #ttnn_layout18>, !ttnn.device) -> tensor<1024x2560xbf16, #ttnn_layout20> loc(#loc)
        %2 = "ttnn.to_layout"(%1) <{layout = #ttnn.layout<tile>}> : (tensor<1024x2560xbf16, #ttnn_layout20>) -> tensor<1024x2560xbf16, #ttnn_layout15> loc(#loc)
        "ttnn.deallocate"(%1) <{force = false}> : (tensor<1024x2560xbf16, #ttnn_layout20>) -> () loc(#loc)
        %3 = "ttnn.mesh_shard"(%2, %0) <{shard_dims = array<i64: -1, 0>, shard_direction = #ttcore.shard_direction<full_to_shard>, shard_shape = array<i64: 4, 1>, shard_type = #ttcore.shard_type<identity>}> : (tensor<1024x2560xbf16, #ttnn_layout15>, !ttnn.device) -> tensor<256x2560xbf16, #ttnn_layout19> loc(#loc)
        return %3 : tensor<256x2560xbf16, #ttnn_layout19> loc(#loc)
      } loc(#loc)
      func.func private @main_const_eval_100(%arg0: tensor<64xf32, #ttnn_layout21> loc(unknown)) -> (tensor<1x1x7x128xbf16, #ttnn_layout22>, tensor<1x1x7x128xbf16, #ttnn_layout22>) attributes {tt.function_type = "const_eval"} {
        %0 = "ttnn.get_device"() <{mesh_offset = #ttnn<mesh_offset 0x0>, mesh_shape = #ttnn<mesh_shape 1x4>}> : () -> !ttnn.device loc(#loc)
        %1 = "ttnn.to_device"(%arg0, %0) <{memory_config = #ttnn.memory_config<#dram, <interleaved>>}> : (tensor<64xf32, #ttnn_layout21>, !ttnn.device) -> tensor<64xf32, #ttnn_layout23> loc(#loc)
        %2 = "ttnn.to_layout"(%1) <{layout = #ttnn.layout<tile>}> : (tensor<64xf32, #ttnn_layout23>) -> tensor<64xf32, #ttnn_layout24> loc(#loc)
        "ttnn.deallocate"(%1) <{force = false}> : (tensor<64xf32, #ttnn_layout23>) -> () loc(#loc)
        %3 = "ttnn.constant"(%0) <{dtype = #ttcore.supportedDataTypes<f32>, layout = #ttnn.layout<tile>, memory_config = #ttnn.memory_config<#dram, <interleaved>>, value = dense<[[[0.000000e+00, 1.000000e+00, 2.000000e+00, 3.000000e+00, 4.000000e+00, 5.000000e+00, 6.000000e+00]]]> : tensor<1x1x7xf32>}> : (!ttnn.device) -> tensor<1x1x7xf32, #ttnn_layout25> loc(#loc)
        %4 = "ttnn.reshape"(%2) <{shape = [1 : i32, 64 : i32, 1 : i32]}> : (tensor<64xf32, #ttnn_layout24>) -> tensor<1x64x1xf32, #ttnn_layout26> loc(#loc2)
        "ttnn.deallocate"(%2) <{force = false}> : (tensor<64xf32, #ttnn_layout24>) -> () loc(#loc2)
        %5 = "ttnn.matmul"(%4, %3) <{transpose_a = false, transpose_b = false}> : (tensor<1x64x1xf32, #ttnn_layout26>, tensor<1x1x7xf32, #ttnn_layout25>) -> tensor<1x64x7xf32, #ttnn_layout26> loc(#loc3)
        "ttnn.deallocate"(%4) <{force = false}> : (tensor<1x64x1xf32, #ttnn_layout26>) -> () loc(#loc3)
        "ttnn.deallocate"(%3) <{force = false}> : (tensor<1x1x7xf32, #ttnn_layout25>) -> () loc(#loc3)
        %6 = "ttnn.permute"(%5) <{permutation = array<i64: 0, 2, 1>}> : (tensor<1x64x7xf32, #ttnn_layout26>) -> tensor<1x7x64xf32, #ttnn_layout27> loc(#loc4)
        "ttnn.deallocate"(%5) <{force = false}> : (tensor<1x64x7xf32, #ttnn_layout26>) -> () loc(#loc4)
        %7 = "ttnn.reshape"(%6) <{shape = [1 : i32, 1 : i32, 7 : i32, 64 : i32]}> : (tensor<1x7x64xf32, #ttnn_layout27>) -> tensor<1x1x7x64xf32, #ttnn_layout28> loc(#loc5)
        "ttnn.deallocate"(%6) <{force = false}> : (tensor<1x7x64xf32, #ttnn_layout27>) -> () loc(#loc5)
        %8 = "ttnn.concat"(%7, %7) <{dim = 3 : si32}> : (tensor<1x1x7x64xf32, #ttnn_layout28>, tensor<1x1x7x64xf32, #ttnn_layout28>) -> tensor<1x1x7x128xf32, #ttnn_layout29> loc(#loc5)
        "ttnn.deallocate"(%7) <{force = false}> : (tensor<1x1x7x64xf32, #ttnn_layout28>) -> () loc(#loc5)
        %9 = "ttnn.cos"(%8) : (tensor<1x1x7x128xf32, #ttnn_layout29>) -> tensor<1x1x7x128xf32, #ttnn_layout29> loc(#loc6)
        %10 = "ttnn.typecast"(%9) <{dtype = #ttcore.supportedDataTypes<bf16>}> : (tensor<1x1x7x128xf32, #ttnn_layout29>) -> tensor<1x1x7x128xbf16, #ttnn_layout22> loc(#loc7)
        "ttnn.deallocate"(%9) <{force = false}> : (tensor<1x1x7x128xf32, #ttnn_layout29>) -> () loc(#loc7)
        %11 = "ttnn.sin"(%8) : (tensor<1x1x7x128xf32, #ttnn_layout29>) -> tensor<1x1x7x128xf32, #ttnn_layout29> loc(#loc8)
        "ttnn.deallocate"(%8) <{force = false}> : (tensor<1x1x7x128xf32, #ttnn_layout29>) -> () loc(#loc8)
        %12 = "ttnn.typecast"(%11) <{dtype = #ttcore.supportedDataTypes<bf16>}> : (tensor<1x1x7x128xf32, #ttnn_layout29>) -> tensor<1x1x7x128xbf16, #ttnn_layout22> loc(#loc9)
        "ttnn.deallocate"(%11) <{force = false}> : (tensor<1x1x7x128xf32, #ttnn_layout29>) -> () loc(#loc9)
        return %10, %12 : tensor<1x1x7x128xbf16, #ttnn_layout22>, tensor<1x1x7x128xbf16, #ttnn_layout22> loc(#loc)
      } loc(#loc)
      func.func private @main_const_eval_101(%arg0: tensor<9728x2560xbf16, #ttnn_layout10> loc(unknown)) -> tensor<2432x2560xbf16, #ttnn_layout11> attributes {tt.function_type = "const_eval"} {
        %0 = "ttnn.get_device"() <{mesh_offset = #ttnn<mesh_offset 0x0>, mesh_shape = #ttnn<mesh_shape 1x4>}> : () -> !ttnn.device loc(#loc)
        %1 = "ttnn.to_device"(%arg0, %0) <{memory_config = #ttnn.memory_config<#dram, <interleaved>>}> : (tensor<9728x2560xbf16, #ttnn_layout10>, !ttnn.device) -> tensor<9728x2560xbf16, #ttnn_layout12> loc(#loc)
        %2 = "ttnn.to_layout"(%1) <{layout = #ttnn.layout<tile>}> : (tensor<9728x2560xbf16, #ttnn_layout12>) -> tensor<9728x2560xbf16, #ttnn_layout13> loc(#loc)
        "ttnn.deallocate"(%1) <{force = false}> : (tensor<9728x2560xbf16, #ttnn_layout12>) -> () loc(#loc)
        %3 = "ttnn.mesh_shard"(%2, %0) <{shard_dims = array<i64: -1, 0>, shard_direction = #ttcore.shard_direction<full_to_shard>, shard_shape = array<i64: 4, 1>, shard_type = #ttcore.shard_type<identity>}> : (tensor<9728x2560xbf16, #ttnn_layout13>, !ttnn.device) -> tensor<2432x2560xbf16, #ttnn_layout11> loc(#loc)
        return %3 : tensor<2432x2560xbf16, #ttnn_layout11> loc(#loc)
      } loc(#loc)
      func.func private @main_const_eval_102(%arg0: tensor<1024x2560xbf16, #ttnn_layout18> loc(unknown)) -> tensor<256x2560xbf16, #ttnn_layout19> attributes {tt.function_type = "const_eval"} {
        %0 = "ttnn.get_device"() <{mesh_offset = #ttnn<mesh_offset 0x0>, mesh_shape = #ttnn<mesh_shape 1x4>}> : () -> !ttnn.device loc(#loc)
        %1 = "ttnn.to_device"(%arg0, %0) <{memory_config = #ttnn.memory_config<#dram, <interleaved>>}> : (tensor<1024x2560xbf16, #ttnn_layout18>, !ttnn.device) -> tensor<1024x2560xbf16, #ttnn_layout20> loc(#loc)
        %2 = "ttnn.to_layout"(%1) <{layout = #ttnn.layout<tile>}> : (tensor<1024x2560xbf16, #ttnn_layout20>) -> tensor<1024x2560xbf16, #ttnn_layout15> loc(#loc)
        "ttnn.deallocate"(%1) <{force = false}> : (tensor<1024x2560xbf16, #ttnn_layout20>) -> () loc(#loc)
        %3 = "ttnn.mesh_shard"(%2, %0) <{shard_dims = array<i64: -1, 0>, shard_direction = #ttcore.shard_direction<full_to_shard>, shard_shape = array<i64: 4, 1>, shard_type = #ttcore.shard_type<identity>}> : (tensor<1024x2560xbf16, #ttnn_layout15>, !ttnn.device) -> tensor<256x2560xbf16, #ttnn_layout19> loc(#loc)
        return %3 : tensor<256x2560xbf16, #ttnn_layout19> loc(#loc)
      } loc(#loc)
      func.func private @main_const_eval_103(%arg0: tensor<9728x2560xbf16, #ttnn_layout10> loc(unknown)) -> tensor<2432x2560xbf16, #ttnn_layout11> attributes {tt.function_type = "const_eval"} {
        %0 = "ttnn.get_device"() <{mesh_offset = #ttnn<mesh_offset 0x0>, mesh_shape = #ttnn<mesh_shape 1x4>}> : () -> !ttnn.device loc(#loc)
        %1 = "ttnn.to_device"(%arg0, %0) <{memory_config = #ttnn.memory_config<#dram, <interleaved>>}> : (tensor<9728x2560xbf16, #ttnn_layout10>, !ttnn.device) -> tensor<9728x2560xbf16, #ttnn_layout12> loc(#loc)
        %2 = "ttnn.to_layout"(%1) <{layout = #ttnn.layout<tile>}> : (tensor<9728x2560xbf16, #ttnn_layout12>) -> tensor<9728x2560xbf16, #ttnn_layout13> loc(#loc)
…
        %1649 = "ttnn.scaled_dot_product_attention"(%1639, %1645, %1648, %280) <{is_causal = false, operandSegmentSizes = array<i32: 1, 1, 1, 1, 0>, scale = 0.0883883387 : f32}> : (tensor<1x8x7x128xbf16, #ttnn_layout50>, tensor<1x2x7x128xbf16, #ttnn_layout52>, tensor<1x2x7x128xbf16, #ttnn_layout52>, tensor<1x1x7x7xbf16, #ttnn_layout30>) -> tensor<1x8x7x128xbf16, #ttnn_layout50> loc(#loc1205)
        "ttnn.deallocate"(%1648) <{force = false}> : (tensor<1x2x7x128xbf16, #ttnn_layout52>) -> () loc(#loc1205)
        "ttnn.deallocate"(%1645) <{force = false}> : (tensor<1x2x7x128xbf16, #ttnn_layout52>) -> () loc(#loc1205)
        "ttnn.deallocate"(%1639) <{force = false}> : (tensor<1x8x7x128xbf16, #ttnn_layout50>) -> () loc(#loc1205)
        "ttnn.deallocate"(%280) <{force = false}> : (tensor<1x1x7x7xbf16, #ttnn_layout30>) -> () loc(#loc1205)
        %1650 = "ttnn.concatenate_heads"(%1649) : (tensor<1x8x7x128xbf16, #ttnn_layout50>) -> tensor<1x7x1024xbf16, #ttnn_layout53> loc(#loc1206)
        "ttnn.deallocate"(%1649) <{force = false}> : (tensor<1x8x7x128xbf16, #ttnn_layout50>) -> () loc(#loc1206)
        %1651 = "ttnn.reshape"(%1650) <{shape = [7 : i32, 1024 : i32]}> : (tensor<1x7x1024xbf16, #ttnn_layout53>) -> tensor<7x1024xbf16, #ttnn_layout48> loc(#loc1206)
        "ttnn.deallocate"(%1650) <{force = false}> : (tensor<1x7x1024xbf16, #ttnn_layout53>) -> () loc(#loc1206)
        %1652 = "ttnn.matmul"(%1651, %135) <{transpose_a = false, transpose_b = true}> : (tensor<7x1024xbf16, #ttnn_layout48>, tensor<2560x1024xbf16, #ttnn_layout7>) -> tensor<7x2560xbf16, #ttnn_layout47> loc(#loc1207)
        "ttnn.deallocate"(%1651) <{force = false}> : (tensor<7x1024xbf16, #ttnn_layout48>) -> () loc(#loc1207)
        "ttnn.deallocate"(%135) <{force = false}> : (tensor<2560x1024xbf16, #ttnn_layout7>) -> () loc(#loc1207)
        %1653 = "ttnn.reshape"(%1652) <{shape = [1 : i32, 1 : i32, 7 : i32, 2560 : i32]}> : (tensor<7x2560xbf16, #ttnn_layout47>) -> tensor<1x1x7x2560xbf16, #ttnn_layout54> loc(#loc1510)
        "ttnn.deallocate"(%1652) <{force = false}> : (tensor<7x2560xbf16, #ttnn_layout47>) -> () loc(#loc1510)
        %1654 = "ttnn.reduce_scatter"(%1653) <{cluster_axis = 1 : ui32, compute_config = #ttnn.device_compute_kernel_config<math_fidelity = hifi4, math_approx_mode = false, fp32_dest_acc_en = true, packer_l1_acc = false>, reduce_type = #ttcore.reduce_type<sum>, scatter_dim = 3 : si32, topology = #ttcore.topology<ring>}> : (tensor<1x1x7x2560xbf16, #ttnn_layout54>) -> tensor<1x1x7x640xbf16, #ttnn_layout55> loc(#loc1511)
        "ttnn.deallocate"(%1653) <{force = false}> : (tensor<1x1x7x2560xbf16, #ttnn_layout54>) -> () loc(#loc1511)
        %1655 = "ttnn.reshape"(%1654) <{shape = [7 : i32, 640 : i32]}> : (tensor<1x1x7x640xbf16, #ttnn_layout55>) -> tensor<7x640xbf16, #ttnn_layout56> loc(#loc1366)
        "ttnn.deallocate"(%1654) <{force = false}> : (tensor<1x1x7x640xbf16, #ttnn_layout55>) -> () loc(#loc1366)
        %1656 = "ttnn.all_gather"(%1655) <{all_gather_dim = 1 : si32, cluster_axis = 1 : ui32, topology = #ttcore.topology<ring>}> : (tensor<7x640xbf16, #ttnn_layout56>) -> tensor<7x2560xbf16, #ttnn_layout47> loc(#loc1367)
        "ttnn.deallocate"(%1655) <{force = false}> : (tensor<7x640xbf16, #ttnn_layout56>) -> () loc(#loc1367)
        %1657 = "ttnn.reshape"(%1656) <{shape = [1 : i32, 7 : i32, 2560 : i32]}> : (tensor<7x2560xbf16, #ttnn_layout47>) -> tensor<1x7x2560xbf16, #ttnn_layout46> loc(#loc1208)
        "ttnn.deallocate"(%1656) <{force = false}> : (tensor<7x2560xbf16, #ttnn_layout47>) -> () loc(#loc1208)
        %1658 = "ttnn.add"(%1631, %1657) <{dtype = #ttcore.supportedDataTypes<bf16>}> : (tensor<1x7x2560xbf16, #ttnn_layout46>, tensor<1x7x2560xbf16, #ttnn_layout46>) -> tensor<1x7x2560xbf16, #ttnn_layout46> loc(#loc1209)
        "ttnn.deallocate"(%1657) <{force = false}> : (tensor<1x7x2560xbf16, #ttnn_layout46>) -> () loc(#loc1209)
        "ttnn.deallocate"(%1631) <{force = false}> : (tensor<1x7x2560xbf16, #ttnn_layout46>) -> () loc(#loc1209)
        %1659 = "ttnn.reshape"(%1658) <{shape = [7 : i32, 2560 : i32]}> : (tensor<1x7x2560xbf16, #ttnn_layout46>) -> tensor<7x2560xbf16, #ttnn_layout47> loc(#loc)
        %1660 = "ttnn.rms_norm"(%1659, %arg3) <{compute_config = #ttnn.device_compute_kernel_config<math_fidelity = hifi4, math_approx_mode = false, fp32_dest_acc_en = true, packer_l1_acc = true>, epsilon = 9.99999997E-7 : f32, operandSegmentSizes = array<i32: 1, 1, 0>}> : (tensor<7x2560xbf16, #ttnn_layout47>, tensor<2560xbf16, #ttnn_layout42>) -> tensor<7x2560xbf16, #ttnn_layout47> loc(#loc)
        "ttnn.deallocate"(%1659) <{force = false}> : (tensor<7x2560xbf16, #ttnn_layout47>) -> () loc(#loc)
        "ttnn.deallocate"(%arg3) <{force = false}> : (tensor<2560xbf16, #ttnn_layout42>) -> () loc(#loc)
        %1661 = "ttnn.matmul"(%1660, %13) <{activation = "silu", transpose_a = false, transpose_b = true}> : (tensor<7x2560xbf16, #ttnn_layout47>, tensor<2432x2560xbf16, #ttnn_layout11>) -> tensor<7x2432xbf16, #ttnn_layout57> loc(#loc1210)
        "ttnn.deallocate"(%13) <{force = false}> : (tensor<2432x2560xbf16, #ttnn_layout11>) -> () loc(#loc1210)
        %1662 = "ttnn.matmul"(%1660, %159) <{transpose_a = false, transpose_b = true}> : (tensor<7x2560xbf16, #ttnn_layout47>, tensor<2432x2560xbf16, #ttnn_layout11>) -> tensor<7x2432xbf16, #ttnn_layout57> loc(#loc1211)
        "ttnn.deallocate"(%1660) <{force = false}> : (tensor<7x2560xbf16, #ttnn_layout47>) -> () loc(#loc1211)
        "ttnn.deallocate"(%159) <{force = false}> : (tensor<2432x2560xbf16, #ttnn_layout11>) -> () loc(#loc1211)
        %1663 = "ttnn.multiply"(%1661, %1662) <{dtype = #ttcore.supportedDataTypes<bf16>}> : (tensor<7x2432xbf16, #ttnn_layout57>, tensor<7x2432xbf16, #ttnn_layout57>) -> tensor<7x2432xbf16, #ttnn_layout57> loc(#loc1212)
        "ttnn.deallocate"(%1662) <{force = false}> : (tensor<7x2432xbf16, #ttnn_layout57>) -> () loc(#loc1212)
        "ttnn.deallocate"(%1661) <{force = false}> : (tensor<7x2432xbf16, #ttnn_layout57>) -> () loc(#loc1212)
        %1664 = "ttnn.matmul"(%1663, %215) <{transpose_a = false, transpose_b = true}> : (tensor<7x2432xbf16, #ttnn_layout57>, tensor<2560x2432xbf16, #ttnn_layout3>) -> tensor<7x2560xbf16, #ttnn_layout47> loc(#loc1213)
        "ttnn.deallocate"(%1663) <{force = false}> : (tensor<7x2432xbf16, #ttnn_layout57>) -> () loc(#loc1213)
        "ttnn.deallocate"(%215) <{force = false}> : (tensor<2560x2432xbf16, #ttnn_layout3>) -> () loc(#loc1213)
        %1665 = "ttnn.reshape"(%1664) <{shape = [1 : i32, 1 : i32, 7 : i32, 2560 : i32]}> : (tensor<7x2560xbf16, #ttnn_layout47>) -> tensor<1x1x7x2560xbf16, #ttnn_layout54> loc(#loc1512)
        "ttnn.deallocate"(%1664) <{force = false}> : (tensor<7x2560xbf16, #ttnn_layout47>) -> () loc(#loc1512)
        %1666 = "ttnn.reduce_scatter"(%1665) <{cluster_axis = 1 : ui32, compute_config = #ttnn.device_compute_kernel_config<math_fidelity = hifi4, math_approx_mode = false, fp32_dest_acc_en = true, packer_l1_acc = false>, reduce_type = #ttcore.reduce_type<sum>, scatter_dim = 3 : si32, topology = #ttcore.topology<ring>}> : (tensor<1x1x7x2560xbf16, #ttnn_layout54>) -> tensor<1x1x7x640xbf16, #ttnn_layout55> loc(#loc1513)
        "ttnn.deallocate"(%1665) <{force = false}> : (tensor<1x1x7x2560xbf16, #ttnn_layout54>) -> () loc(#loc1513)
        %1667 = "ttnn.reshape"(%1666) <{shape = [7 : i32, 640 : i32]}> : (tensor<1x1x7x640xbf16, #ttnn_layout55>) -> tensor<7x640xbf16, #ttnn_layout56> loc(#loc1368)
        "ttnn.deallocate"(%1666) <{force = false}> : (tensor<1x1x7x640xbf16, #ttnn_layout55>) -> () loc(#loc1368)
        %1668 = "ttnn.all_gather"(%1667) <{all_gather_dim = 1 : si32, cluster_axis = 1 : ui32, topology = #ttcore.topology<ring>}> : (tensor<7x640xbf16, #ttnn_layout56>) -> tensor<7x2560xbf16, #ttnn_layout47> loc(#loc1369)
        "ttnn.deallocate"(%1667) <{force = false}> : (tensor<7x640xbf16, #ttnn_layout56>) -> () loc(#loc1369)
        %1669 = "ttnn.reshape"(%1668) <{shape = [1 : i32, 7 : i32, 2560 : i32]}> : (tensor<7x2560xbf16, #ttnn_layout47>) -> tensor<1x7x2560xbf16, #ttnn_layout46> loc(#loc1214)
        "ttnn.deallocate"(%1668) <{force = false}> : (tensor<7x2560xbf16, #ttnn_layout47>) -> () loc(#loc1214)
        %1670 = "ttnn.add"(%1658, %1669) <{dtype = #ttcore.supportedDataTypes<bf16>}> : (tensor<1x7x2560xbf16, #ttnn_layout46>, tensor<1x7x2560xbf16, #ttnn_layout46>) -> tensor<1x7x2560xbf16, #ttnn_layout46> loc(#loc1215)
        "ttnn.deallocate"(%1669) <{force = false}> : (tensor<1x7x2560xbf16, #ttnn_layout46>) -> () loc(#loc1215)
        "ttnn.deallocate"(%1658) <{force = false}> : (tensor<1x7x2560xbf16, #ttnn_layout46>) -> () loc(#loc1215)
        %1671 = "ttnn.rms_norm"(%1670, %arg0) <{compute_config = #ttnn.device_compute_kernel_config<math_fidelity = hifi4, math_approx_mode = false, fp32_dest_acc_en = true, packer_l1_acc = true>, epsilon = 9.99999997E-7 : f32, operandSegmentSizes = array<i32: 1, 1, 0>}> : (tensor<1x7x2560xbf16, #ttnn_layout46>, tensor<2560xbf16, #ttnn_layout42>) -> tensor<1x7x2560xbf16, #ttnn_layout46> loc(#loc)
        "ttnn.deallocate"(%1670) <{force = false}> : (tensor<1x7x2560xbf16, #ttnn_layout46>) -> () loc(#loc)
        "ttnn.deallocate"(%arg0) <{force = false}> : (tensor<2560xbf16, #ttnn_layout42>) -> () loc(#loc)
        return %1671 : tensor<1x7x2560xbf16, #ttnn_layout46> loc(#loc)
      } loc(#loc)
    } loc(#loc)
  } loc(#loc)
} loc(#loc)
#loc1 = loc("gather.1460")
#loc2 = loc("reshape.1649")
#loc3 = loc("dot.1652")
#loc4 = loc("transpose.1653")
#loc5 = loc("concatenate.1654")
#loc6 = loc("cosine.1720")
#loc7 = loc("convert.1723")
#loc8 = loc("sine.1655")
#loc9 = loc("convert.1658")
#loc10 = loc("reduce-window.1583")
#loc11 = loc("gather.1614")
#loc12 = loc("gather.1584")
#loc13 = loc("compare.1619")
#loc14 = loc("broadcast.1621")
#loc15 = loc("broadcast.1623")
#loc16 = loc("compare.1624")
#loc418 = loc("convert.1459")
#loc419 = loc("dot.1757")
#loc420 = loc("reshape.1759")
#loc421 = loc("transpose.1793")
#loc422 = loc("add.1806")
#loc423 = loc("dot.1675")
#loc424 = loc("reshape.1677")
#loc425 = loc("transpose.1711")
#loc426 = loc("add.1730")
#loc427 = loc("broadcast.1629_in_0_layout")
#loc428 = loc("broadcast.1629")
#loc429 = loc("and.1630")
#loc430 = loc("and.1633")
#loc431 = loc("select.1636")
#loc432 = loc("dot.1496")
#loc433 = loc("reshape.1498")
#loc434 = loc("transpose.1499")
#loc435 = loc("dot.1870")
#loc436 = loc("reshape.1875")
#loc437 = loc("dot.1876")
#loc438 = loc("reshape.1877")
#loc439 = loc("add.1880")
#loc440 = loc("dot.1923")
#loc441 = loc("dot.1915")
#loc442 = loc("multiply.1929")
#loc443 = loc("dot.1931")
#loc444 = loc("reshape.1932")
#loc445 = loc("add.1935")
#loc446 = loc("dot.2090")
#loc447 = loc("reshape.2092")
#loc448 = loc("transpose.2126")
#loc449 = loc("add.2139")
#loc450 = loc("dot.2013")
#loc451 = loc("reshape.2015")
#loc452 = loc("transpose.2049")
#loc453 = loc("add.2063")
#loc454 = loc("dot.1970")
#loc455 = loc("reshape.1972")
#loc456 = loc("transpose.1973")
#loc457 = loc("dot.2203")
#loc458 = loc("reshape.2208")
#loc459 = loc("dot.2209")
#loc460 = loc("reshape.2210")
#loc461 = loc("add.2213")
#loc462 = loc("dot.2256")
#loc463 = loc("dot.2248")
#loc464 = loc("multiply.2262")
#loc465 = loc("dot.2264")
#loc466 = loc("reshape.2265")
#loc467 = loc("add.2268")
#loc468 = loc("dot.2423")
#loc469 = loc("reshape.2425")
#loc470 = loc("transpose.2459")
#loc471 = loc("add.2472")
#loc472 = loc("dot.2346")
#loc473 = loc("reshape.2348")
#loc474 = loc("transpose.2382")
#loc475 = loc("add.2396")
#loc476 = loc("dot.2303")
#loc477 = loc("reshape.2305")
#loc478 = loc("transpose.2306")
#loc479 = loc("dot.2536")
#loc480 = loc("reshape.2541")
#loc481 = loc("dot.2542")
#loc482 = loc("reshape.2543")
#loc483 = loc("add.2546")
#loc484 = loc("dot.2589")
#loc485 = loc("dot.2581")
#loc486 = loc("multiply.2595")
#loc487 = loc("dot.2597")
#loc488 = loc("reshape.2598")
#loc489 = loc("add.2601")
#loc490 = loc("dot.2756")
#loc491 = loc("reshape.2758")
#loc492 = loc("transpose.2792")
#loc493 = loc("add.2805")
#loc494 = loc("dot.2679")
#loc495 = loc("reshape.2681")
#loc496 = loc("transpose.2715")
#loc497 = loc("add.2729")
#loc498 = loc("dot.2636")
#loc499 = loc("reshape.2638")
#loc500 = loc("transpose.2639")
#loc501 = loc("dot.2869")
#loc502 = loc("reshape.2874")
#loc503 = loc("dot.2875")
#loc504 = loc("reshape.2876")
#loc505 = loc("add.2879")
#loc506 = loc("dot.2922")
#loc507 = loc("dot.2914")
#loc508 = loc("multiply.2928")
#loc509 = loc("dot.2930")
#loc510 = loc("reshape.2931")
#loc511 = loc("add.2934")
#loc512 = loc("dot.3089")
#loc513 = loc("reshape.3091")
#loc514 = loc("transpose.3125")
#loc515 = loc("add.3138")
#loc516 = loc("dot.3012")
#loc517 = loc("reshape.3014")
#loc518 = loc("transpose.3048")
#loc519 = loc("add.3062")
#loc520 = loc("dot.2969")
#loc521 = loc("reshape.2971")
#loc522 = loc("transpose.2972")
#loc523 = loc("dot.3202")
#loc524 = loc("reshape.3207")
#loc525 = loc("dot.3208")
#loc526 = loc("reshape.3209")
#loc527 = loc("add.3212")
#loc528 = loc("dot.3255")
#loc529 = loc("dot.3247")
#loc530 = loc("multiply.3261")
#loc531 = loc("dot.3263")
#loc532 = loc("reshape.3264")
#loc533 = loc("add.3267")
#loc534 = loc("dot.3422")
#loc535 = loc("reshape.3424")
#loc536 = loc("transpose.3458")
#loc537 = loc("add.3471")
#loc538 = loc("dot.3345")
#loc539 = loc("reshape.3347")
#loc540 = loc("transpose.3381")
#loc541 = loc("add.3395")
#loc542 = loc("dot.3302")
#loc543 = loc("reshape.3304")
#loc544 = loc("transpose.3305")
#loc545 = loc("dot.3535")
#loc546 = loc("reshape.3540")
#loc547 = loc("dot.3541")
#loc548 = loc("reshape.3542")
#loc549 = loc("add.3545")
#loc550 = loc("dot.3588")
#loc551 = loc("dot.3580")
#loc552 = loc("multiply.3594")
#loc553 = loc("dot.3596")
#loc554 = loc("reshape.3597")
#loc555 = loc("add.3600")
#loc556 = loc("dot.3755")
#loc557 = loc("reshape.3757")
#loc558 = loc("transpose.3791")
#loc559 = loc("add.3804")
#loc560 = loc("dot.3678")
#loc561 = loc("reshape.3680")
#loc562 = loc("transpose.3714")
#loc563 = loc("add.3728")
#loc564 = loc("dot.3635")
#loc565 = loc("reshape.3637")
#loc566 = loc("transpose.3638")
#loc567 = loc("dot.3868")
#loc568 = loc("reshape.3873")
#loc569 = loc("dot.3874")
#loc570 = loc("reshape.3875")
#loc571 = loc("add.3878")
#loc572 = loc("dot.3921")
#loc573 = loc("dot.3913")
#loc574 = loc("multiply.3927")
#loc575 = loc("dot.3929")
#loc576 = loc("reshape.3930")
#loc577 = loc("add.3933")
#loc578 = loc("dot.4088")
#loc579 = loc("reshape.4090")
#loc580 = loc("transpose.4124")
#loc581 = loc("add.4137")
#loc582 = loc("dot.4011")
#loc583 = loc("reshape.4013")
#loc584 = loc("transpose.4047")
#loc585 = loc("add.4061")
#loc586 = loc("dot.3968")
#loc587 = loc("reshape.3970")
#loc588 = loc("transpose.3971")
#loc589 = loc("dot.4201")
#loc590 = loc("reshape.4206")
#loc591 = loc("dot.4207")
#loc592 = loc("reshape.4208")
#loc593 = loc("add.4211")
#loc594 = loc("dot.4254")
#loc595 = loc("dot.4246")
#loc596 = loc("multiply.4260")
#loc597 = loc("dot.4262")
#loc598 = loc("reshape.4263")
#loc599 = loc("add.4266")
#loc600 = loc("dot.4421")
#loc601 = loc("reshape.4423")
#loc602 = loc("transpose.4457")
#loc603 = loc("add.4470")
#loc604 = loc("dot.4344")
#loc605 = loc("reshape.4346")
#loc606 = loc("transpose.4380")
#loc607 = loc("add.4394")
#loc608 = loc("dot.4301")
#loc609 = loc("reshape.4303")
#loc610 = loc("transpose.4304")
#loc611 = loc("dot.4534")
#loc612 = loc("reshape.4539")
#loc613 = loc("dot.4540")
#loc614 = loc("reshape.4541")
#loc615 = loc("add.4544")
#loc616 = loc("dot.4587")
#loc617 = loc("dot.4579")
#loc618 = loc("multiply.4593")
#loc619 = loc("dot.4595")
#loc620 = loc("reshape.4596")
#loc621 = loc("add.4599")
#loc622 = loc("dot.4754")
#loc623 = loc("reshape.4756")
#loc624 = loc("transpose.4790")
#loc625 = loc("add.4803")
#loc626 = loc("dot.4677")
#loc627 = loc("reshape.4679")
#loc628 = loc("transpose.4713")
#loc629 = loc("add.4727")
#loc630 = loc("dot.4634")
#loc631 = loc("reshape.4636")
#loc632 = loc("transpose.4637")
#loc633 = loc("dot.4867")
#loc634 = loc("reshape.4872")
#loc635 = loc("dot.4873")
#loc636 = loc("reshape.4874")
#loc637 = loc("add.4877")
#loc638 = loc("dot.4920")
#loc639 = loc("dot.4912")
#loc640 = loc("multiply.4926")
#loc641 = loc("dot.4928")
#loc642 = loc("reshape.4929")
#loc643 = loc("add.4932")
#loc644 = loc("dot.5087")
#loc645 = loc("reshape.5089")
#loc646 = loc("transpose.5123")
#loc647 = loc("add.5136")
#loc648 = loc("dot.5010")
#loc649 = loc("reshape.5012")
#loc650 = loc("transpose.5046")
#loc651 = loc("add.5060")
#loc652 = loc("dot.4967")
#loc653 = loc("reshape.4969")
#loc654 = loc("transpose.4970")
#loc655 = loc("dot.5200")
#loc656 = loc("reshape.5205")
#loc657 = loc("dot.5206")
#loc658 = loc("reshape.5207")
#loc659 = loc("add.5210")
#loc660 = loc("dot.5253")
#loc661 = loc("dot.5245")
#loc662 = loc("multiply.5259")
#loc663 = loc("dot.5261")
#loc664 = loc("reshape.5262")
#loc665 = loc("add.5265")
#loc666 = loc("dot.5420")
#loc667 = loc("reshape.5422")
#loc668 = loc("transpose.5456")
#loc669 = loc("add.5469")
#loc670 = loc("dot.5343")
#loc671 = loc("reshape.5345")
#loc672 = loc("transpose.5379")
#loc673 = loc("add.5393")
#loc674 = loc("dot.5300")
#loc675 = loc("reshape.5302")
#loc676 = loc("transpose.5303")
#loc677 = loc("dot.5533")
#loc678 = loc("reshape.5538")
#loc679 = loc("dot.5539")
#loc680 = loc("reshape.5540")
#loc681 = loc("add.5543")
#loc682 = loc("dot.5586")
#loc683 = loc("dot.5578")
#loc684 = loc("multiply.5592")
#loc685 = loc("dot.5594")
#loc686 = loc("reshape.5595")
#loc687 = loc("add.5598")
#loc688 = loc("dot.5753")
#loc689 = loc("reshape.5755")
#loc690 = loc("transpose.5789")
#loc691 = loc("add.5802")
#loc692 = loc("dot.5676")
#loc693 = loc("reshape.5678")
#loc694 = loc("transpose.5712")
#loc695 = loc("add.5726")
#loc696 = loc("dot.5633")
#loc697 = loc("reshape.5635")
#loc698 = loc("transpose.5636")
#loc699 = loc("dot.5866")
#loc700 = loc("reshape.5871")
#loc701 = loc("dot.5872")
#loc702 = loc("reshape.5873")
#loc703 = loc("add.5876")
#loc704 = loc("dot.5919")
#loc705 = loc("dot.5911")
#loc706 = loc("multiply.5925")
#loc707 = loc("dot.5927")
#loc708 = loc("reshape.5928")
#loc709 = loc("add.5931")
#loc710 = loc("dot.6086")
#loc711 = loc("reshape.6088")
#loc712 = loc("transpose.6122")
#loc713 = loc("add.6135")
#loc714 = loc("dot.6009")
#loc715 = loc("reshape.6011")
#loc716 = loc("transpose.6045")
#loc717 = loc("add.6059")
#loc718 = loc("dot.5966")
#loc719 = loc("reshape.5968")
#loc720 = loc("transpose.5969")
#loc721 = loc("dot.6199")
#loc722 = loc("reshape.6204")
#loc723 = loc("dot.6205")
#loc724 = loc("reshape.6206")
#loc725 = loc("add.6209")
#loc726 = loc("dot.6252")
#loc727 = loc("dot.6244")
#loc728 = loc("multiply.6258")
#loc729 = loc("dot.6260")
#loc730 = loc("reshape.6261")
#loc731 = loc("add.6264")
#loc732 = loc("dot.6419")
#loc733 = loc("reshape.6421")
#loc734 = loc("transpose.6455")
#loc735 = loc("add.6468")
#loc736 = loc("dot.6342")
#loc737 = loc("reshape.6344")
#loc738 = loc("transpose.6378")
#loc739 = loc("add.6392")
#loc740 = loc("dot.6299")
#loc741 = loc("reshape.6301")
#loc742 = loc("transpose.6302")
#loc743 = loc("dot.6532")
#loc744 = loc("reshape.6537")
#loc745 = loc("dot.6538")
#loc746 = loc("reshape.6539")
#loc747 = loc("add.6542")
#loc748 = loc("dot.6585")
#loc749 = loc("dot.6577")
#loc750 = loc("multiply.6591")
#loc751 = loc("dot.6593")
#loc752 = loc("reshape.6594")
#loc753 = loc("add.6597")
#loc754 = loc("dot.6752")
#loc755 = loc("reshape.6754")
#loc756 = loc("transpose.6788")
#loc757 = loc("add.6801")
#loc758 = loc("dot.6675")
#loc759 = loc("reshape.6677")
#loc760 = loc("transpose.6711")
#loc761 = loc("add.6725")
#loc762 = loc("dot.6632")
#loc763 = loc("reshape.6634")
#loc764 = loc("transpose.6635")
#loc765 = loc("dot.6865")
#loc766 = loc("reshape.6870")
#loc767 = loc("dot.6871")
#loc768 = loc("reshape.6872")
#loc769 = loc("add.6875")
#loc770 = loc("dot.6918")
#loc771 = loc("dot.6910")
#loc772 = loc("multiply.6924")
#loc773 = loc("dot.6926")
#loc774 = loc("reshape.6927")
#loc775 = loc("add.6930")
#loc776 = loc("dot.7085")
#loc777 = loc("reshape.7087")
#loc778 = loc("transpose.7121")
#loc779 = loc("add.7134")
#loc780 = loc("dot.7008")
#loc781 = loc("reshape.7010")
#loc782 = loc("transpose.7044")
#loc783 = loc("add.7058")
#loc784 = loc("dot.6965")
#loc785 = loc("reshape.6967")
#loc786 = loc("transpose.6968")
#loc787 = loc("dot.7198")
#loc788 = loc("reshape.7203")
#loc789 = loc("dot.7204")
#loc790 = loc("reshape.7205")
#loc791 = loc("add.7208")
#loc792 = loc("dot.7251")
#loc793 = loc("dot.7243")
#loc794 = loc("multiply.7257")
#loc795 = loc("dot.7259")
#loc796 = loc("reshape.7260")
#loc797 = loc("add.7263")
#loc798 = loc("dot.7418")
#loc799 = loc("reshape.7420")
#loc800 = loc("transpose.7454")
#loc801 = loc("add.7467")
#loc802 = loc("dot.7341")
#loc803 = loc("reshape.7343")
#loc804 = loc("transpose.7377")
#loc805 = loc("add.7391")
#loc806 = loc("dot.7298")
#loc807 = loc("reshape.7300")
#loc808 = loc("transpose.7301")
#loc809 = loc("dot.7531")
#loc810 = loc("reshape.7536")
#loc811 = loc("dot.7537")
#loc812 = loc("reshape.7538")
#loc813 = loc("add.7541")
#loc814 = loc("dot.7584")
#loc815 = loc("dot.7576")
#loc816 = loc("multiply.7590")
#loc817 = loc("dot.7592")
#loc818 = loc("reshape.7593")
#loc819 = loc("add.7596")
#loc820 = loc("dot.7751")
#loc821 = loc("reshape.7753")
#loc822 = loc("transpose.7787")
#loc823 = loc("add.7800")
#loc824 = loc("dot.7674")
#loc825 = loc("reshape.7676")
#loc826 = loc("transpose.7710")
#loc827 = loc("add.7724")
#loc828 = loc("dot.7631")
#loc829 = loc("reshape.7633")
#loc830 = loc("transpose.7634")
#loc831 = loc("dot.7864")
#loc832 = loc("reshape.7869")
#loc833 = loc("dot.7870")
#loc834 = loc("reshape.7871")
#loc835 = loc("add.7874")
#loc836 = loc("dot.7917")
#loc837 = loc("dot.7909")
#loc838 = loc("multiply.7923")
#loc839 = loc("dot.7925")
#loc840 = loc("reshape.7926")
#loc841 = loc("add.7929")
#loc842 = loc("dot.8084")
#loc843 = loc("reshape.8086")
#loc844 = loc("transpose.8120")
#loc845 = loc("add.8133")
#loc846 = loc("dot.8007")
#loc847 = loc("reshape.8009")
#loc848 = loc("transpose.8043")
#loc849 = loc("add.8057")
#loc850 = loc("dot.7964")
#loc851 = loc("reshape.7966")
#loc852 = loc("transpose.7967")
#loc853 = loc("dot.8197")
#loc854 = loc("reshape.8202")
#loc855 = loc("dot.8203")
#loc856 = loc("reshape.8204")
#loc857 = loc("add.8207")
#loc858 = loc("dot.8250")
#loc859 = loc("dot.8242")
#loc860 = loc("multiply.8256")
#loc861 = loc("dot.8258")
#loc862 = loc("reshape.8259")
#loc863 = loc("add.8262")
#loc864 = loc("dot.8417")
#loc865 = loc("reshape.8419")
#loc866 = loc("transpose.8453")
#loc867 = loc("add.8466")
#loc868 = loc("dot.8340")
#loc869 = loc("reshape.8342")
#loc870 = loc("transpose.8376")
#loc871 = loc("add.8390")
#loc872 = loc("dot.8297")
#loc873 = loc("reshape.8299")
#loc874 = loc("transpose.8300")
#loc875 = loc("dot.8530")
#loc876 = loc("reshape.8535")
#loc877 = loc("dot.8536")
#loc878 = loc("reshape.8537")
#loc879 = loc("add.8540")
#loc880 = loc("dot.8583")
#loc881 = loc("dot.8575")
#loc882 = loc("multiply.8589")
#loc883 = loc("dot.8591")
#loc884 = loc("reshape.8592")
#loc885 = loc("add.8595")
#loc886 = loc("dot.8750")
#loc887 = loc("reshape.8752")
#loc888 = loc("transpose.8786")
#loc889 = loc("add.8799")
#loc890 = loc("dot.8673")
#loc891 = loc("reshape.8675")
#loc892 = loc("transpose.8709")
#loc893 = loc("add.8723")
#loc894 = loc("dot.8630")
#loc895 = loc("reshape.8632")
#loc896 = loc("transpose.8633")
#loc897 = loc("dot.8863")
#loc898 = loc("reshape.8868")
#loc899 = loc("dot.8869")
#loc900 = loc("reshape.8870")
#loc901 = loc("add.8873")
#loc902 = loc("dot.8916")
#loc903 = loc("dot.8908")
#loc904 = loc("multiply.8922")
#loc905 = loc("dot.8924")
#loc906 = loc("reshape.8925")
#loc907 = loc("add.8928")
#loc908 = loc("dot.9083")
#loc909 = loc("reshape.9085")
#loc910 = loc("transpose.9119")
#loc911 = loc("add.9132")
#loc912 = loc("dot.9006")
#loc913 = loc("reshape.9008")
#loc914 = loc("transpose.9042")
#loc915 = loc("add.9056")
#loc916 = loc("dot.8963")
#loc917 = loc("reshape.8965")
#loc918 = loc("transpose.8966")
#loc919 = loc("dot.9196")
#loc920 = loc("reshape.9201")
#loc921 = loc("dot.9202")
#loc922 = loc("reshape.9203")
#loc923 = loc("add.9206")
#loc924 = loc("dot.9249")
#loc925 = loc("dot.9241")
#loc926 = loc("multiply.9255")
#loc927 = loc("dot.9257")
#loc928 = loc("reshape.9258")
#loc929 = loc("add.9261")
#loc930 = loc("dot.9416")
#loc931 = loc("reshape.9418")
#loc932 = loc("transpose.9452")
#loc933 = loc("add.9465")
#loc934 = loc("dot.9339")
#loc935 = loc("reshape.9341")
#loc936 = loc("transpose.9375")
#loc937 = loc("add.9389")
#loc938 = loc("dot.9296")
#loc939 = loc("reshape.9298")
#loc940 = loc("transpose.9299")
#loc941 = loc("dot.9529")
#loc942 = loc("reshape.9534")
#loc943 = loc("dot.9535")
#loc944 = loc("reshape.9536")
#loc945 = loc("add.9539")
#loc946 = loc("dot.9582")
#loc947 = loc("dot.9574")
#loc948 = loc("multiply.9588")
#loc949 = loc("dot.9590")
#loc950 = loc("reshape.9591")
#loc951 = loc("add.9594")
#loc952 = loc("dot.9749")
#loc953 = loc("reshape.9751")
#loc954 = loc("transpose.9785")
#loc955 = loc("add.9798")
#loc956 = loc("dot.9672")
#loc957 = loc("reshape.9674")
#loc958 = loc("transpose.9708")
#loc959 = loc("add.9722")
#loc960 = loc("dot.9629")
#loc961 = loc("reshape.9631")
#loc962 = loc("transpose.9632")
#loc963 = loc("dot.9862")
#loc964 = loc("reshape.9867")
#loc965 = loc("dot.9868")
#loc966 = loc("reshape.9869")
#loc967 = loc("add.9872")
#loc968 = loc("dot.9915")
#loc969 = loc("dot.9907")
#loc970 = loc("multiply.9921")
#loc971 = loc("dot.9923")
#loc972 = loc("reshape.9924")
#loc973 = loc("add.9927")
#loc974 = loc("dot.10082")
#loc975 = loc("reshape.10084")
#loc976 = loc("transpose.10118")
#loc977 = loc("add.10131")
#loc978 = loc("dot.10005")
#loc979 = loc("reshape.10007")
#loc980 = loc("transpose.10041")
#loc981 = loc("add.10055")
#loc982 = loc("dot.9962")
#loc983 = loc("reshape.9964")
#loc984 = loc("transpose.9965")
#loc985 = loc("dot.10195")
#loc986 = loc("reshape.10200")
#loc987 = loc("dot.10201")
#loc988 = loc("reshape.10202")
#loc989 = loc("add.10205")
#loc990 = loc("dot.10248")
#loc991 = loc("dot.10240")
#loc992 = loc("multiply.10254")
#loc993 = loc("dot.10256")
#loc994 = loc("reshape.10257")
#loc995 = loc("add.10260")
#loc996 = loc("dot.10415")
#loc997 = loc("reshape.10417")
#loc998 = loc("transpose.10451")
#loc999 = loc("add.10464")
#loc1000 = loc("dot.10338")
#loc1001 = loc("reshape.10340")
#loc1002 = loc("transpose.10374")
#loc1003 = loc("add.10388")
#loc1004 = loc("dot.10295")
#loc1005 = loc("reshape.10297")
#loc1006 = loc("transpose.10298")
#loc1007 = loc("dot.10528")
#loc1008 = loc("reshape.10533")
#loc1009 = loc("dot.10534")
#loc1010 = loc("reshape.10535")
#loc1011 = loc("add.10538")
#loc1012 = loc("dot.10581")
#loc1013 = loc("dot.10573")
#loc1014 = loc("multiply.10587")
#loc1015 = loc("dot.10589")
#loc1016 = loc("reshape.10590")
#loc1017 = loc("add.10593")
#loc1018 = loc("dot.10748")
#loc1019 = loc("reshape.10750")
#loc1020 = loc("transpose.10784")
#loc1021 = loc("add.10797")
#loc1022 = loc("dot.10671")
#loc1023 = loc("reshape.10673")
#loc1024 = loc("transpose.10707")
#loc1025 = loc("add.10721")
#loc1026 = loc("dot.10628")
#loc1027 = loc("reshape.10630")
#loc1028 = loc("transpose.10631")
#loc1029 = loc("dot.10861")
#loc1030 = loc("reshape.10866")
#loc1031 = loc("dot.10867")
#loc1032 = loc("reshape.10868")
#loc1033 = loc("add.10871")
#loc1034 = loc("dot.10914")
#loc1035 = loc("dot.10906")
#loc1036 = loc("multiply.10920")
#loc1037 = loc("dot.10922")
#loc1038 = loc("reshape.10923")
#loc1039 = loc("add.10926")
#loc1040 = loc("dot.11081")
#loc1041 = loc("reshape.11083")
#loc1042 = loc("transpose.11117")
#loc1043 = loc("add.11130")
#loc1044 = loc("dot.11004")
#loc1045 = loc("reshape.11006")
#loc1046 = loc("transpose.11040")
#loc1047 = loc("add.11054")
#loc1048 = loc("dot.10961")
#loc1049 = loc("reshape.10963")
#loc1050 = loc("transpose.10964")
#loc1051 = loc("dot.11194")
#loc1052 = loc("reshape.11199")
#loc1053 = loc("dot.11200")
#loc1054 = loc("reshape.11201")
#loc1055 = loc("add.11204")
#loc1056 = loc("dot.11247")
#loc1057 = loc("dot.11239")
#loc1058 = loc("multiply.11253")
#loc1059 = loc("dot.11255")
#loc1060 = loc("reshape.11256")
#loc1061 = loc("add.11259")
#loc1062 = loc("dot.11414")
#loc1063 = loc("reshape.11416")
#loc1064 = loc("transpose.11450")
#loc1065 = loc("add.11463")
#loc1066 = loc("dot.11337")
#loc1067 = loc("reshape.11339")
#loc1068 = loc("transpose.11373")
#loc1069 = loc("add.11387")
#loc1070 = loc("dot.11294")
#loc1071 = loc("reshape.11296")
#loc1072 = loc("transpose.11297")
#loc1073 = loc("dot.11527")
#loc1074 = loc("reshape.11532")
#loc1075 = loc("dot.11533")
#loc1076 = loc("reshape.11534")
#loc1077 = loc("add.11537")
#loc1078 = loc("dot.11580")
#loc1079 = loc("dot.11572")
#loc1080 = loc("multiply.11586")
#loc1081 = loc("dot.11588")
#loc1082 = loc("reshape.11589")
#loc1083 = loc("add.11592")
#loc1084 = loc("dot.11747")
#loc1085 = loc("reshape.11749")
#loc1086 = loc("transpose.11783")
#loc1087 = loc("add.11796")
#loc1088 = loc("dot.11670")
#loc1089 = loc("reshape.11672")
#loc1090 = loc("transpose.11706")
#loc1091 = loc("add.11720")
#loc1092 = loc("dot.11627")
#loc1093 = loc("reshape.11629")
#loc1094 = loc("transpose.11630")
#loc1095 = loc("dot.11860")
#loc1096 = loc("reshape.11865")
#loc1097 = loc("dot.11866")
#loc1098 = loc("reshape.11867")
#loc1099 = loc("add.11870")
#loc1100 = loc("dot.11913")
#loc1101 = loc("dot.11905")
#loc1102 = loc("multiply.11919")
#loc1103 = loc("dot.11921")
#loc1104 = loc("reshape.11922")
#loc1105 = loc("add.11925")
#loc1106 = loc("dot.12080")
#loc1107 = loc("reshape.12082")
#loc1108 = loc("transpose.12116")
#loc1109 = loc("add.12129")
#loc1110 = loc("dot.12003")
#loc1111 = loc("reshape.12005")
#loc1112 = loc("transpose.12039")
#loc1113 = loc("add.12053")
#loc1114 = loc("dot.11960")
#loc1115 = loc("reshape.11962")
#loc1116 = loc("transpose.11963")
#loc1117 = loc("dot.12193")
#loc1118 = loc("reshape.12198")
#loc1119 = loc("dot.12199")
#loc1120 = loc("reshape.12200")
#loc1121 = loc("add.12203")
#loc1122 = loc("dot.12246")
#loc1123 = loc("dot.12238")
#loc1124 = loc("multiply.12252")
#loc1125 = loc("dot.12254")
#loc1126 = loc("reshape.12255")
#loc1127 = loc("add.12258")
#loc1128 = loc("dot.12413")
#loc1129 = loc("reshape.12415")
#loc1130 = loc("transpose.12449")
#loc1131 = loc("add.12462")
#loc1132 = loc("dot.12336")
#loc1133 = loc("reshape.12338")
#loc1134 = loc("transpose.12372")
#loc1135 = loc("add.12386")
#loc1136 = loc("dot.12293")
#loc1137 = loc("reshape.12295")
#loc1138 = loc("transpose.12296")
#loc1139 = loc("dot.12526")
#loc1140 = loc("reshape.12531")
#loc1141 = loc("dot.12532")
#loc1142 = loc("reshape.12533")
#loc1143 = loc("add.12536")
#loc1144 = loc("dot.12579")
#loc1145 = loc("dot.12571")
#loc1146 = loc("multiply.12585")
#loc1147 = loc("dot.12587")
#loc1148 = loc("reshape.12588")
#loc1149 = loc("add.12591")
#loc1150 = loc("dot.12746")
#loc1151 = loc("reshape.12748")
#loc1152 = loc("transpose.12782")
#loc1153 = loc("add.12795")
#loc1154 = loc("dot.12669")
#loc1155 = loc("reshape.12671")
#loc1156 = loc("transpose.12705")
#loc1157 = loc("add.12719")
#loc1158 = loc("dot.12626")
#loc1159 = loc("reshape.12628")
#loc1160 = loc("transpose.12629")
#loc1161 = loc("dot.12859")
#loc1162 = loc("reshape.12864")
#loc1163 = loc("dot.12865")
#loc1164 = loc("reshape.12866")
#loc1165 = loc("add.12869")
#loc1166 = loc("dot.12912")
#loc1167 = loc("dot.12904")
#loc1168 = loc("multiply.12918")
#loc1169 = loc("dot.12920")
#loc1170 = loc("reshape.12921")
#loc1171 = loc("add.12924")
#loc1172 = loc("dot.13079")
#loc1173 = loc("reshape.13081")
#loc1174 = loc("transpose.13115")
#loc1175 = loc("add.13128")
#loc1176 = loc("dot.13002")
#loc1177 = loc("reshape.13004")
#loc1178 = loc("transpose.13038")
#loc1179 = loc("add.13052")
#loc1180 = loc("dot.12959")
#loc1181 = loc("reshape.12961")
#loc1182 = loc("transpose.12962")
#loc1183 = loc("dot.13192")
#loc1184 = loc("reshape.13197")
#loc1185 = loc("dot.13198")
#loc1186 = loc("reshape.13199")
#loc1187 = loc("add.13202")
#loc1188 = loc("dot.13245")
#loc1189 = loc("dot.13237")
#loc1190 = loc("multiply.13251")
#loc1191 = loc("dot.13253")
#loc1192 = loc("reshape.13254")
#loc1193 = loc("add.13257")
#loc1194 = loc("dot.13412")
#loc1195 = loc("reshape.13414")
#loc1196 = loc("transpose.13448")
#loc1197 = loc("add.13461")
#loc1198 = loc("dot.13335")
#loc1199 = loc("reshape.13337")
#loc1200 = loc("transpose.13371")
#loc1201 = loc("add.13385")
#loc1202 = loc("dot.13292")
#loc1203 = loc("reshape.13294")
#loc1204 = loc("transpose.13295")
#loc1205 = loc("dot.13525")
#loc1206 = loc("reshape.13530")
#loc1207 = loc("dot.13531")
#loc1208 = loc("reshape.13532")
#loc1209 = loc("add.13535")
#loc1210 = loc("dot.13578")
#loc1211 = loc("dot.13570")
#loc1212 = loc("multiply.13584")
#loc1213 = loc("dot.13586")
#loc1214 = loc("reshape.13587")
#loc1215 = loc("add.13590")
#loc1216 = loc("gather.1460_workaround"(#loc1))
#loc1217 = loc("gather.1614_permuteInput"(#loc11))
#loc1218 = loc("gather.1614_sliceStartIndices"(#loc11))
#loc1219 = loc("gather.1614_reshapeStartIndices"(#loc11))
#loc1220 = loc("gather.1614_workaround"(#loc11))
#loc1221 = loc("gather.1614_reshapeOutput"(#loc11))
#loc1222 = loc("gather.1584_sliceStartIndices"(#loc12))
#loc1223 = loc("gather.1584_reshapeStartIndices"(#loc12))
#loc1224 = loc("gather.1584_workaround"(#loc12))
#loc1225 = loc("gather.1584_reshapeOutput"(#loc12))
#loc1226 = loc("dot.1876_reduce_scatter"(#loc437))
#loc1227 = loc("dot.1876_all_gather"(#loc437))
#loc1228 = loc("dot.1931_reduce_scatter"(#loc443))
#loc1229 = loc("dot.1931_all_gather"(#loc443))
#loc1230 = loc("dot.2209_reduce_scatter"(#loc459))
#loc1231 = loc("dot.2209_all_gather"(#loc459))
#loc1232 = loc("dot.2264_reduce_scatter"(#loc465))
#loc1233 = loc("dot.2264_all_gather"(#loc465))
#loc1234 = loc("dot.2542_reduce_scatter"(#loc481))
#loc1235 = loc("dot.2542_all_gather"(#loc481))
#loc1236 = loc("dot.2597_reduce_scatter"(#loc487))
#loc1237 = loc("dot.2597_all_gather"(#loc487))
#loc1238 = loc("dot.2875_reduce_scatter"(#loc503))
#loc1239 = loc("dot.2875_all_gather"(#loc503))
#loc1240 = loc("dot.2930_reduce_scatter"(#loc509))
#loc1241 = loc("dot.2930_all_gather"(#loc509))
#loc1242 = loc("dot.3208_reduce_scatter"(#loc525))
#loc1243 = loc("dot.3208_all_gather"(#loc525))
#loc1244 = loc("dot.3263_reduce_scatter"(#loc531))
#loc1245 = loc("dot.3263_all_gather"(#loc531))
#loc1246 = loc("dot.3541_reduce_scatter"(#loc547))
#loc1247 = loc("dot.3541_all_gather"(#loc547))
#loc1248 = loc("dot.3596_reduce_scatter"(#loc553))
#loc1249 = loc("dot.3596_all_gather"(#loc553))
#loc1250 = loc("dot.3874_reduce_scatter"(#loc569))
#loc1251 = loc("dot.3874_all_gather"(#loc569))
#loc1252 = loc("dot.3929_reduce_scatter"(#loc575))
#loc1253 = loc("dot.3929_all_gather"(#loc575))
#loc1254 = loc("dot.4207_reduce_scatter"(#loc591))
#loc1255 = loc("dot.4207_all_gather"(#loc591))
#loc1256 = loc("dot.4262_reduce_scatter"(#loc597))
#loc1257 = loc("dot.4262_all_gather"(#loc597))
#loc1258 = loc("dot.4540_reduce_scatter"(#loc613))
#loc1259 = loc("dot.4540_all_gather"(#loc613))
#loc1260 = loc("dot.4595_reduce_scatter"(#loc619))
#loc1261 = loc("dot.4595_all_gather"(#loc619))
#loc1262 = loc("dot.4873_reduce_scatter"(#loc635))
#loc1263 = loc("dot.4873_all_gather"(#loc635))
#loc1264 = loc("dot.4928_reduce_scatter"(#loc641))
#loc1265 = loc("dot.4928_all_gather"(#loc641))
#loc1266 = loc("dot.5206_reduce_scatter"(#loc657))
#loc1267 = loc("dot.5206_all_gather"(#loc657))
#loc1268 = loc("dot.5261_reduce_scatter"(#loc663))
#loc1269 = loc("dot.5261_all_gather"(#loc663))
#loc1270 = loc("dot.5539_reduce_scatter"(#loc679))
#loc1271 = loc("dot.5539_all_gather"(#loc679))
#loc1272 = loc("dot.5594_reduce_scatter"(#loc685))
#loc1273 = loc("dot.5594_all_gather"(#loc685))
#loc1274 = loc("dot.5872_reduce_scatter"(#loc701))
#loc1275 = loc("dot.5872_all_gather"(#loc701))
#loc1276 = loc("dot.5927_reduce_scatter"(#loc707))
#loc1277 = loc("dot.5927_all_gather"(#loc707))
#loc1278 = loc("dot.6205_reduce_scatter"(#loc723))
#loc1279 = loc("dot.6205_all_gather"(#loc723))
#loc1280 = loc("dot.6260_reduce_scatter"(#loc729))
#loc1281 = loc("dot.6260_all_gather"(#loc729))
#loc1282 = loc("dot.6538_reduce_scatter"(#loc745))
#loc1283 = loc("dot.6538_all_gather"(#loc745))
#loc1284 = loc("dot.6593_reduce_scatter"(#loc751))
#loc1285 = loc("dot.6593_all_gather"(#loc751))
#loc1286 = loc("dot.6871_reduce_scatter"(#loc767))
#loc1287 = loc("dot.6871_all_gather"(#loc767))
#loc1288 = loc("dot.6926_reduce_scatter"(#loc773))
#loc1289 = loc("dot.6926_all_gather"(#loc773))
#loc1290 = loc("dot.7204_reduce_scatter"(#loc789))
#loc1291 = loc("dot.7204_all_gather"(#loc789))
#loc1292 = loc("dot.7259_reduce_scatter"(#loc795))
#loc1293 = loc("dot.7259_all_gather"(#loc795))
#loc1294 = loc("dot.7537_reduce_scatter"(#loc811))
#loc1295 = loc("dot.7537_all_gather"(#loc811))
#loc1296 = loc("dot.7592_reduce_scatter"(#loc817))
#loc1297 = loc("dot.7592_all_gather"(#loc817))
#loc1298 = loc("dot.7870_reduce_scatter"(#loc833))
#loc1299 = loc("dot.7870_all_gather"(#loc833))
#loc1300 = loc("dot.7925_reduce_scatter"(#loc839))
#loc1301 = loc("dot.7925_all_gather"(#loc839))
#loc1302 = loc("dot.8203_reduce_scatter"(#loc855))
#loc1303 = loc("dot.8203_all_gather"(#loc855))
#loc1304 = loc("dot.8258_reduce_scatter"(#loc861))
#loc1305 = loc("dot.8258_all_gather"(#loc861))
#loc1306 = loc("dot.8536_reduce_scatter"(#loc877))
#loc1307 = loc("dot.8536_all_gather"(#loc877))
#loc1308 = loc("dot.8591_reduce_scatter"(#loc883))
#loc1309 = loc("dot.8591_all_gather"(#loc883))
#loc1310 = loc("dot.8869_reduce_scatter"(#loc899))
#loc1311 = loc("dot.8869_all_gather"(#loc899))
#loc1312 = loc("dot.8924_reduce_scatter"(#loc905))
#loc1313 = loc("dot.8924_all_gather"(#loc905))
#loc1314 = loc("dot.9202_reduce_scatter"(#loc921))
#loc1315 = loc("dot.9202_all_gather"(#loc921))
#loc1316 = loc("dot.9257_reduce_scatter"(#loc927))
#loc1317 = loc("dot.9257_all_gather"(#loc927))
#loc1318 = loc("dot.9535_reduce_scatter"(#loc943))
#loc1319 = loc("dot.9535_all_gather"(#loc943))
#loc1320 = loc("dot.9590_reduce_scatter"(#loc949))
#loc1321 = loc("dot.9590_all_gather"(#loc949))
#loc1322 = loc("dot.9868_reduce_scatter"(#loc965))
#loc1323 = loc("dot.9868_all_gather"(#loc965))
#loc1324 = loc("dot.9923_reduce_scatter"(#loc971))
#loc1325 = loc("dot.9923_all_gather"(#loc971))
#loc1326 = loc("dot.10201_reduce_scatter"(#loc987))
#loc1327 = loc("dot.10201_all_gather"(#loc987))
#loc1328 = loc("dot.10256_reduce_scatter"(#loc993))
#loc1329 = loc("dot.10256_all_gather"(#loc993))
#loc1330 = loc("dot.10534_reduce_scatter"(#loc1009))
#loc1331 = loc("dot.10534_all_gather"(#loc1009))
#loc1332 = loc("dot.10589_reduce_scatter"(#loc1015))
#loc1333 = loc("dot.10589_all_gather"(#loc1015))
#loc1334 = loc("dot.10867_reduce_scatter"(#loc1031))
#loc1335 = loc("dot.10867_all_gather"(#loc1031))
#loc1336 = loc("dot.10922_reduce_scatter"(#loc1037))
#loc1337 = loc("dot.10922_all_gather"(#loc1037))
#loc1338 = loc("dot.11200_reduce_scatter"(#loc1053))
#loc1339 = loc("dot.11200_all_gather"(#loc1053))
#loc1340 = loc("dot.11255_reduce_scatter"(#loc1059))
#loc1341 = loc("dot.11255_all_gather"(#loc1059))
#loc1342 = loc("dot.11533_reduce_scatter"(#loc1075))
#loc1343 = loc("dot.11533_all_gather"(#loc1075))
#loc1344 = loc("dot.11588_reduce_scatter"(#loc1081))
#loc1345 = loc("dot.11588_all_gather"(#loc1081))
#loc1346 = loc("dot.11866_reduce_scatter"(#loc1097))
#loc1347 = loc("dot.11866_all_gather"(#loc1097))
#loc1348 = loc("dot.11921_reduce_scatter"(#loc1103))
#loc1349 = loc("dot.11921_all_gather"(#loc1103))
#loc1350 = loc("dot.12199_reduce_scatter"(#loc1119))
#loc1351 = loc("dot.12199_all_gather"(#loc1119))
#loc1352 = loc("dot.12254_reduce_scatter"(#loc1125))
#loc1353 = loc("dot.12254_all_gather"(#loc1125))
#loc1354 = loc("dot.12532_reduce_scatter"(#loc1141))
#loc1355 = loc("dot.12532_all_gather"(#loc1141))
#loc1356 = loc("dot.12587_reduce_scatter"(#loc1147))
#loc1357 = loc("dot.12587_all_gather"(#loc1147))
#loc1358 = loc("dot.12865_reduce_scatter"(#loc1163))
#loc1359 = loc("dot.12865_all_gather"(#loc1163))
#loc1360 = loc("dot.12920_reduce_scatter"(#loc1169))
#loc1361 = loc("dot.12920_all_gather"(#loc1169))
#loc1362 = loc("dot.13198_reduce_scatter"(#loc1185))
#loc1363 = loc("dot.13198_all_gather"(#loc1185))
#loc1364 = loc("dot.13253_reduce_scatter"(#loc1191))
#loc1365 = loc("dot.13253_all_gather"(#loc1191))
#loc1366 = loc("dot.13531_reduce_scatter"(#loc1207))
#loc1367 = loc("dot.13531_all_gather"(#loc1207))
#loc1368 = loc("dot.13586_reduce_scatter"(#loc1213))
#loc1369 = loc("dot.13586_all_gather"(#loc1213))
#loc1370 = loc("dot.1876_reduce_scatter_reshape_to_4d"(#loc1226))
#loc1371 = loc("dot.1876_reduce_scatter_reduce_scatter_4d"(#loc1226))
#loc1372 = loc("dot.1931_reduce_scatter_reshape_to_4d"(#loc1228))
#loc1373 = loc("dot.1931_reduce_scatter_reduce_scatter_4d"(#loc1228))
#loc1374 = loc("dot.2209_reduce_scatter_reshape_to_4d"(#loc1230))
#loc1375 = loc("dot.2209_reduce_scatter_reduce_scatter_4d"(#loc1230))
#loc1376 = loc("dot.2264_reduce_scatter_reshape_to_4d"(#loc1232))
#loc1377 = loc("dot.2264_reduce_scatter_reduce_scatter_4d"(#loc1232))
#loc1378 = loc("dot.2542_reduce_scatter_reshape_to_4d"(#loc1234))
#loc1379 = loc("dot.2542_reduce_scatter_reduce_scatter_4d"(#loc1234))
#loc1380 = loc("dot.2597_reduce_scatter_reshape_to_4d"(#loc1236))
#loc1381 = loc("dot.2597_reduce_scatter_reduce_scatter_4d"(#loc1236))
#loc1382 = loc("dot.2875_reduce_scatter_reshape_to_4d"(#loc1238))
#loc1383 = loc("dot.2875_reduce_scatter_reduce_scatter_4d"(#loc1238))
#loc1384 = loc("dot.2930_reduce_scatter_reshape_to_4d"(#loc1240))
#loc1385 = loc("dot.2930_reduce_scatter_reduce_scatter_4d"(#loc1240))
#loc1386 = loc("dot.3208_reduce_scatter_reshape_to_4d"(#loc1242))
#loc1387 = loc("dot.3208_reduce_scatter_reduce_scatter_4d"(#loc1242))
#loc1388 = loc("dot.3263_reduce_scatter_reshape_to_4d"(#loc1244))
#loc1389 = loc("dot.3263_reduce_scatter_reduce_scatter_4d"(#loc1244))
#loc1390 = loc("dot.3541_reduce_scatter_reshape_to_4d"(#loc1246))
#loc1391 = loc("dot.3541_reduce_scatter_reduce_scatter_4d"(#loc1246))
#loc1392 = loc("dot.3596_reduce_scatter_reshape_to_4d"(#loc1248))
#loc1393 = loc("dot.3596_reduce_scatter_reduce_scatter_4d"(#loc1248))
#loc1394 = loc("dot.3874_reduce_scatter_reshape_to_4d"(#loc1250))
#loc1395 = loc("dot.3874_reduce_scatter_reduce_scatter_4d"(#loc1250))
#loc1396 = loc("dot.3929_reduce_scatter_reshape_to_4d"(#loc1252))
#loc1397 = loc("dot.3929_reduce_scatter_reduce_scatter_4d"(#loc1252))
#loc1398 = loc("dot.4207_reduce_scatter_reshape_to_4d"(#loc1254))
#loc1399 = loc("dot.4207_reduce_scatter_reduce_scatter_4d"(#loc1254))
#loc1400 = loc("dot.4262_reduce_scatter_reshape_to_4d"(#loc1256))
#loc1401 = loc("dot.4262_reduce_scatter_reduce_scatter_4d"(#loc1256))
#loc1402 = loc("dot.4540_reduce_scatter_reshape_to_4d"(#loc1258))
#loc1403 = loc("dot.4540_reduce_scatter_reduce_scatter_4d"(#loc1258))
#loc1404 = loc("dot.4595_reduce_scatter_reshape_to_4d"(#loc1260))
#loc1405 = loc("dot.4595_reduce_scatter_reduce_scatter_4d"(#loc1260))
#loc1406 = loc("dot.4873_reduce_scatter_reshape_to_4d"(#loc1262))
#loc1407 = loc("dot.4873_reduce_scatter_reduce_scatter_4d"(#loc1262))
#loc1408 = loc("dot.4928_reduce_scatter_reshape_to_4d"(#loc1264))
#loc1409 = loc("dot.4928_reduce_scatter_reduce_scatter_4d"(#loc1264))
#loc1410 = loc("dot.5206_reduce_scatter_reshape_to_4d"(#loc1266))
#loc1411 = loc("dot.5206_reduce_scatter_reduce_scatter_4d"(#loc1266))
#loc1412 = loc("dot.5261_reduce_scatter_reshape_to_4d"(#loc1268))
#loc1413 = loc("dot.5261_reduce_scatter_reduce_scatter_4d"(#loc1268))
#loc1414 = loc("dot.5539_reduce_scatter_reshape_to_4d"(#loc1270))
#loc1415 = loc("dot.5539_reduce_scatter_reduce_scatter_4d"(#loc1270))
#loc1416 = loc("dot.5594_reduce_scatter_reshape_to_4d"(#loc1272))
#loc1417 = loc("dot.5594_reduce_scatter_reduce_scatter_4d"(#loc1272))
#loc1418 = loc("dot.5872_reduce_scatter_reshape_to_4d"(#loc1274))
#loc1419 = loc("dot.5872_reduce_scatter_reduce_scatter_4d"(#loc1274))
#loc1420 = loc("dot.5927_reduce_scatter_reshape_to_4d"(#loc1276))
#loc1421 = loc("dot.5927_reduce_scatter_reduce_scatter_4d"(#loc1276))
#loc1422 = loc("dot.6205_reduce_scatter_reshape_to_4d"(#loc1278))
#loc1423 = loc("dot.6205_reduce_scatter_reduce_scatter_4d"(#loc1278))
#loc1424 = loc("dot.6260_reduce_scatter_reshape_to_4d"(#loc1280))
#loc1425 = loc("dot.6260_reduce_scatter_reduce_scatter_4d"(#loc1280))
#loc1426 = loc("dot.6538_reduce_scatter_reshape_to_4d"(#loc1282))
#loc1427 = loc("dot.6538_reduce_scatter_reduce_scatter_4d"(#loc1282))
#loc1428 = loc("dot.6593_reduce_scatter_reshape_to_4d"(#loc1284))
#loc1429 = loc("dot.6593_reduce_scatter_reduce_scatter_4d"(#loc1284))
#loc1430 = loc("dot.6871_reduce_scatter_reshape_to_4d"(#loc1286))
#loc1431 = loc("dot.6871_reduce_scatter_reduce_scatter_4d"(#loc1286))
#loc1432 = loc("dot.6926_reduce_scatter_reshape_to_4d"(#loc1288))
#loc1433 = loc("dot.6926_reduce_scatter_reduce_scatter_4d"(#loc1288))
#loc1434 = loc("dot.7204_reduce_scatter_reshape_to_4d"(#loc1290))
#loc1435 = loc("dot.7204_reduce_scatter_reduce_scatter_4d"(#loc1290))
#loc1436 = loc("dot.7259_reduce_scatter_reshape_to_4d"(#loc1292))
#loc1437 = loc("dot.7259_reduce_scatter_reduce_scatter_4d"(#loc1292))
#loc1438 = loc("dot.7537_reduce_scatter_reshape_to_4d"(#loc1294))
#loc1439 = loc("dot.7537_reduce_scatter_reduce_scatter_4d"(#loc1294))
#loc1440 = loc("dot.7592_reduce_scatter_reshape_to_4d"(#loc1296))
#loc1441 = loc("dot.7592_reduce_scatter_reduce_scatter_4d"(#loc1296))
#loc1442 = loc("dot.7870_reduce_scatter_reshape_to_4d"(#loc1298))
#loc1443 = loc("dot.7870_reduce_scatter_reduce_scatter_4d"(#loc1298))
#loc1444 = loc("dot.7925_reduce_scatter_reshape_to_4d"(#loc1300))
#loc1445 = loc("dot.7925_reduce_scatter_reduce_scatter_4d"(#loc1300))
#loc1446 = loc("dot.8203_reduce_scatter_reshape_to_4d"(#loc1302))
#loc1447 = loc("dot.8203_reduce_scatter_reduce_scatter_4d"(#loc1302))
#loc1448 = loc("dot.8258_reduce_scatter_reshape_to_4d"(#loc1304))
#loc1449 = loc("dot.8258_reduce_scatter_reduce_scatter_4d"(#loc1304))
#loc1450 = loc("dot.8536_reduce_scatter_reshape_to_4d"(#loc1306))
#loc1451 = loc("dot.8536_reduce_scatter_reduce_scatter_4d"(#loc1306))
#loc1452 = loc("dot.8591_reduce_scatter_reshape_to_4d"(#loc1308))
#loc1453 = loc("dot.8591_reduce_scatter_reduce_scatter_4d"(#loc1308))
#loc1454 = loc("dot.8869_reduce_scatter_reshape_to_4d"(#loc1310))
#loc1455 = loc("dot.8869_reduce_scatter_reduce_scatter_4d"(#loc1310))
#loc1456 = loc("dot.8924_reduce_scatter_reshape_to_4d"(#loc1312))
#loc1457 = loc("dot.8924_reduce_scatter_reduce_scatter_4d"(#loc1312))
#loc1458 = loc("dot.9202_reduce_scatter_reshape_to_4d"(#loc1314))
#loc1459 = loc("dot.9202_reduce_scatter_reduce_scatter_4d"(#loc1314))
#loc1460 = loc("dot.9257_reduce_scatter_reshape_to_4d"(#loc1316))
#loc1461 = loc("dot.9257_reduce_scatter_reduce_scatter_4d"(#loc1316))
#loc1462 = loc("dot.9535_reduce_scatter_reshape_to_4d"(#loc1318))
#loc1463 = loc("dot.9535_reduce_scatter_reduce_scatter_4d"(#loc1318))
#loc1464 = loc("dot.9590_reduce_scatter_reshape_to_4d"(#loc1320))
#loc1465 = loc("dot.9590_reduce_scatter_reduce_scatter_4d"(#loc1320))
#loc1466 = loc("dot.9868_reduce_scatter_reshape_to_4d"(#loc1322))
#loc1467 = loc("dot.9868_reduce_scatter_reduce_scatter_4d"(#loc1322))
#loc1468 = loc("dot.9923_reduce_scatter_reshape_to_4d"(#loc1324))
#loc1469 = loc("dot.9923_reduce_scatter_reduce_scatter_4d"(#loc1324))
#loc1470 = loc("dot.10201_reduce_scatter_reshape_to_4d"(#loc1326))
#loc1471 = loc("dot.10201_reduce_scatter_reduce_scatter_4d"(#loc1326))
#loc1472 = loc("dot.10256_reduce_scatter_reshape_to_4d"(#loc1328))
#loc1473 = loc("dot.10256_reduce_scatter_reduce_scatter_4d"(#loc1328))
#loc1474 = loc("dot.10534_reduce_scatter_reshape_to_4d"(#loc1330))
#loc1475 = loc("dot.10534_reduce_scatter_reduce_scatter_4d"(#loc1330))
#loc1476 = loc("dot.10589_reduce_scatter_reshape_to_4d"(#loc1332))
#loc1477 = loc("dot.10589_reduce_scatter_reduce_scatter_4d"(#loc1332))
#loc1478 = loc("dot.10867_reduce_scatter_reshape_to_4d"(#loc1334))
#loc1479 = loc("dot.10867_reduce_scatter_reduce_scatter_4d"(#loc1334))
#loc1480 = loc("dot.10922_reduce_scatter_reshape_to_4d"(#loc1336))
#loc1481 = loc("dot.10922_reduce_scatter_reduce_scatter_4d"(#loc1336))
#loc1482 = loc("dot.11200_reduce_scatter_reshape_to_4d"(#loc1338))
#loc1483 = loc("dot.11200_reduce_scatter_reduce_scatter_4d"(#loc1338))
#loc1484 = loc("dot.11255_reduce_scatter_reshape_to_4d"(#loc1340))
#loc1485 = loc("dot.11255_reduce_scatter_reduce_scatter_4d"(#loc1340))
#loc1486 = loc("dot.11533_reduce_scatter_reshape_to_4d"(#loc1342))
#loc1487 = loc("dot.11533_reduce_scatter_reduce_scatter_4d"(#loc1342))
#loc1488 = loc("dot.11588_reduce_scatter_reshape_to_4d"(#loc1344))
#loc1489 = loc("dot.11588_reduce_scatter_reduce_scatter_4d"(#loc1344))
#loc1490 = loc("dot.11866_reduce_scatter_reshape_to_4d"(#loc1346))
#loc1491 = loc("dot.11866_reduce_scatter_reduce_scatter_4d"(#loc1346))
#loc1492 = loc("dot.11921_reduce_scatter_reshape_to_4d"(#loc1348))
#loc1493 = loc("dot.11921_reduce_scatter_reduce_scatter_4d"(#loc1348))
#loc1494 = loc("dot.12199_reduce_scatter_reshape_to_4d"(#loc1350))
#loc1495 = loc("dot.12199_reduce_scatter_reduce_scatter_4d"(#loc1350))
#loc1496 = loc("dot.12254_reduce_scatter_reshape_to_4d"(#loc1352))
#loc1497 = loc("dot.12254_reduce_scatter_reduce_scatter_4d"(#loc1352))
#loc1498 = loc("dot.12532_reduce_scatter_reshape_to_4d"(#loc1354))
#loc1499 = loc("dot.12532_reduce_scatter_reduce_scatter_4d"(#loc1354))
#loc1500 = loc("dot.12587_reduce_scatter_reshape_to_4d"(#loc1356))
#loc1501 = loc("dot.12587_reduce_scatter_reduce_scatter_4d"(#loc1356))
#loc1502 = loc("dot.12865_reduce_scatter_reshape_to_4d"(#loc1358))
#loc1503 = loc("dot.12865_reduce_scatter_reduce_scatter_4d"(#loc1358))
#loc1504 = loc("dot.12920_reduce_scatter_reshape_to_4d"(#loc1360))
#loc1505 = loc("dot.12920_reduce_scatter_reduce_scatter_4d"(#loc1360))
#loc1506 = loc("dot.13198_reduce_scatter_reshape_to_4d"(#loc1362))
#loc1507 = loc("dot.13198_reduce_scatter_reduce_scatter_4d"(#loc1362))
#loc1508 = loc("dot.13253_reduce_scatter_reshape_to_4d"(#loc1364))
#loc1509 = loc("dot.13253_reduce_scatter_reduce_scatter_4d"(#loc1364))
#loc1510 = loc("dot.13531_reduce_scatter_reshape_to_4d"(#loc1366))
#loc1511 = loc("dot.13531_reduce_scatter_reduce_scatter_4d"(#loc1366))
#loc1512 = loc("dot.13586_reduce_scatter_reshape_to_4d"(#loc1368))
#loc1513 = loc("dot.13586_reduce_scatter_reduce_scatter_4d"(#loc1368))
