#loc1 = loc("p0.1")
#loc2 = loc("p1.5")
#loc3 = loc("p2.8")
#loc4 = loc("p3.15")
#loc5 = loc("p4.27")
#loc6 = loc("p5.31")
#loc7 = loc("p6.34")
#loc8 = loc("p7.41")
#loc9 = loc("p8.51")
#loc10 = loc("p9.55")
#loc11 = loc("p10.58")
#loc12 = loc("p11.65")
#loc13 = loc("p12.77")
#loc14 = loc("p13.81")
#loc15 = loc("p14.84")
#loc16 = loc("p15.91")
#loc17 = loc("p16.101")
#loc18 = loc("p17.105")
#loc19 = loc("p18.108")
#loc20 = loc("p19.115")
#loc21 = loc("p20.127")
#loc22 = loc("p21.131")
#loc23 = loc("p22.134")
#loc24 = loc("p23.141")
#loc25 = loc("p24.151")
#loc26 = loc("p25.155")
#loc27 = loc("p26.158")
#loc28 = loc("p27.165")
#loc29 = loc("p28.175")
#loc30 = loc("p29.179")
#loc31 = loc("p30.213")
#loc32 = loc("p31.217")
#loc33 = loc("p32.220")
#loc34 = loc("p33.227")
#loc35 = loc("p34.237")
#loc36 = loc("p35.241")
#loc37 = loc("p36.244")
#loc38 = loc("p37.251")
#loc39 = loc("p38.263")
#loc40 = loc("p39.267")
#loc41 = loc("p40.270")
#loc42 = loc("p41.277")
#loc43 = loc("p42.287")
#loc44 = loc("p43.291")
#loc45 = loc("p44.294")
#loc46 = loc("p45.301")
#loc47 = loc("p46.313")
#loc48 = loc("p47.317")
#loc49 = loc("p48.320")
#loc50 = loc("p49.327")
#loc51 = loc("p50.337")
#loc52 = loc("p51.341")
#loc53 = loc("p52.344")
#loc54 = loc("p53.351")
#loc55 = loc("p54.361")
#loc56 = loc("p55.365")
#loc57 = loc("p56.399")
#loc58 = loc("p57.403")
#loc59 = loc("p58.406")
#loc60 = loc("p59.413")
#loc61 = loc("p60.423")
#loc62 = loc("p61.427")
#loc63 = loc("p62.430")
#loc64 = loc("p63.437")
#loc65 = loc("p64.449")
#loc66 = loc("p65.453")
#loc67 = loc("p66.456")
#loc68 = loc("p67.463")
#loc69 = loc("p68.473")
#loc70 = loc("p69.477")
#loc71 = loc("p70.480")
#loc72 = loc("p71.487")
#loc73 = loc("p72.499")
#loc74 = loc("p73.503")
#loc75 = loc("p74.506")
#loc76 = loc("p75.513")
#loc77 = loc("p76.523")
#loc78 = loc("p77.527")
#loc79 = loc("p78.530")
#loc80 = loc("p79.537")
#loc81 = loc("p80.547")
#loc82 = loc("p81.551")
#loc83 = loc("p82.585")
#loc84 = loc("p83.589")
#loc85 = loc("p84.592")
#loc86 = loc("p85.599")
#loc87 = loc("p86.609")
#loc88 = loc("p87.613")
#loc89 = loc("p88.616")
#loc90 = loc("p89.623")
#loc91 = loc("p90.635")
#loc92 = loc("p91.639")
#loc93 = loc("p92.642")
#loc94 = loc("p93.649")
#loc95 = loc("p94.659")
#loc96 = loc("p95.663")
#loc97 = loc("p96.666")
#loc98 = loc("p97.673")
#loc99 = loc("p98.685")
#loc100 = loc("p99.689")
#loc101 = loc("p100.692")
#loc102 = loc("p101.699")
#loc103 = loc("p102.709")
#loc104 = loc("p103.713")
#loc105 = loc("p104.716")
#loc106 = loc("p105.723")
#loc107 = loc("p106.735")
#loc108 = loc("p107.739")
#loc109 = loc("p108.742")
#loc110 = loc("p109.749")
#loc111 = loc("p110.759")
#loc112 = loc("p111.763")
#loc113 = loc("p112.766")
#loc114 = loc("p113.773")
#loc115 = loc("p114.787")
#loc116 = loc("p115.791")
#loc117 = loc("p116.794")
#loc118 = loc("p117.801")
#loc119 = loc("p118.811")
#loc120 = loc("p119.815")
#loc121 = loc("p120.818")
#loc122 = loc("p121.825")
#loc123 = loc("p122.835")
#loc124 = loc("p123.839")
#loc125 = loc("p124.841")
#loc126 = loc("p125.1033")
#loc127 = loc("p126.1037")
#loc128 = loc("p127.1043")
#loc129 = loc("p128.1047")
#loc130 = loc("p129.1053")
#loc131 = loc("p130.1059")
#loc132 = loc("p131.1166")
#loc133 = loc("p132.1170")
#loc134 = loc("p133.1190")
#loc135 = loc("p134.1194")
#loc136 = loc("p135.2779")
#loc137 = loc("p136.2783")
#loc138 = loc("p137.3354")
#loc139 = loc("p138.3358")
#loc284 = loc("reduce.1254")
module @SyncTensorsGraph.3830 attributes {mhlo.cross_program_prefetches = [], mhlo.input_output_alias = [], mhlo.is_dynamic = false, mhlo.use_auto_spmd_partitioning = false} {
  func.func @main(%arg0: tensor<3xbf16> {mhlo.sharding = "{replicated}", ttcore.argument_type = #ttcore.argument_type<parameter>, ttir.name = "decoder.conv_out.bias"} loc("p0.1"), %arg1: tensor<3x128x3x3xbf16> {mhlo.sharding = "{replicated}", ttcore.argument_type = #ttcore.argument_type<parameter>, ttir.name = "decoder.conv_out.weight"} loc("p1.5"), %arg2: tensor<128xbf16> {mhlo.sharding = "{replicated}", ttcore.argument_type = #ttcore.argument_type<parameter>, ttir.name = "decoder.conv_norm_out.bias"} loc("p2.8"), %arg3: tensor<128xbf16> {mhlo.sharding = "{replicated}", ttcore.argument_type = #ttcore.argument_type<parameter>, ttir.name = "decoder.conv_norm_out.weight"} loc("p3.15"), %arg4: tensor<128xbf16> {mhlo.sharding = "{replicated}", ttcore.argument_type = #ttcore.argument_type<parameter>, ttir.name = "L__self___decoder_up_blocks__modules__3___resnets__modules__2___conv2.bias"} loc("p4.27"), %arg5: tensor<128x128x3x3xbf16> {mhlo.sharding = "{replicated}", ttcore.argument_type = #ttcore.argument_type<parameter>, ttir.name = "L__self___decoder_up_blocks__modules__3___resnets__modules__2___conv2.weight"} loc("p5.31"), %arg6: tensor<128xbf16> {mhlo.sharding = "{replicated}", ttcore.argument_type = #ttcore.argument_type<parameter>, ttir.name = "L__self___decoder_up_blocks__modules__3___resnets__modules__2___norm2.bias"} loc("p6.34"), %arg7: tensor<128xbf16> {mhlo.sharding = "{replicated}", ttcore.argument_type = #ttcore.argument_type<parameter>, ttir.name = "L__self___decoder_up_blocks__modules__3___resnets__modules__2___norm2.weight"} loc("p7.41"), %arg8: tensor<128xbf16> {mhlo.sharding = "{replicated}", ttcore.argument_type = #ttcore.argument_type<parameter>, ttir.name = "L__self___decoder_up_blocks__modules__3___resnets__modules__2___conv1.bias"} loc("p8.51"), %arg9: tensor<128x128x3x3xbf16> {mhlo.sharding = "{replicated}", ttcore.argument_type = #ttcore.argument_type<parameter>, ttir.name = "L__self___decoder_up_blocks__modules__3___resnets__modules__2___conv1.weight"} loc("p9.55"), %arg10: tensor<128xbf16> {mhlo.sharding = "{replicated}", ttcore.argument_type = #ttcore.argument_type<parameter>, ttir.name = "L__self___decoder_up_blocks__modules__3___resnets__modules__2___norm1.bias"} loc("p10.58"), %arg11: tensor<128xbf16> {mhlo.sharding = "{replicated}", ttcore.argument_type = #ttcore.argument_type<parameter>, ttir.name = "L__self___decoder_up_blocks__modules__3___resnets__modules__2___norm1.weight"} loc("p11.65"), %arg12: tensor<128xbf16> {mhlo.sharding = "{replicated}", ttcore.argument_type = #ttcore.argument_type<parameter>, ttir.name = "L__self___decoder_up_blocks__modules__3___resnets__modules__1___conv2.bias"} loc("p12.77"), %arg13: tensor<128x128x3x3xbf16> {mhlo.sharding = "{replicated}", ttcore.argument_type = #ttcore.argument_type<parameter>, ttir.name = "L__self___decoder_up_blocks__modules__3___resnets__modules__1___conv2.weight"} loc("p13.81"), %arg14: tensor<128xbf16> {mhlo.sharding = "{replicated}", ttcore.argument_type = #ttcore.argument_type<parameter>, ttir.name = "L__self___decoder_up_blocks__modules__3___resnets__modules__1___norm2.bias"} loc("p14.84"), %arg15: tensor<128xbf16> {mhlo.sharding = "{replicated}", ttcore.argument_type = #ttcore.argument_type<parameter>, ttir.name = "L__self___decoder_up_blocks__modules__3___resnets__modules__1___norm2.weight"} loc("p15.91"), %arg16: tensor<128xbf16> {mhlo.sharding = "{replicated}", ttcore.argument_type = #ttcore.argument_type<parameter>, ttir.name = "L__self___decoder_up_blocks__modules__3___resnets__modules__1___conv1.bias"} loc("p16.101"), %arg17: tensor<128x128x3x3xbf16> {mhlo.sharding = "{replicated}", ttcore.argument_type = #ttcore.argument_type<parameter>, ttir.name = "L__self___decoder_up_blocks__modules__3___resnets__modules__1___conv1.weight"} loc("p17.105"), %arg18: tensor<128xbf16> {mhlo.sharding = "{replicated}", ttcore.argument_type = #ttcore.argument_type<parameter>, ttir.name = "L__self___decoder_up_blocks__modules__3___resnets__modules__1___norm1.bias"} loc("p18.108"), %arg19: tensor<128xbf16> {mhlo.sharding = "{replicated}", ttcore.argument_type = #ttcore.argument_type<parameter>, ttir.name = "L__self___decoder_up_blocks__modules__3___resnets__modules__1___norm1.weight"} loc("p19.115"), %arg20: tensor<128xbf16> {mhlo.sharding = "{replicated}", ttcore.argument_type = #ttcore.argument_type<parameter>, ttir.name = "L__self___decoder_up_blocks__modules__3___resnets__modules__0___conv2.bias"} loc("p20.127"), %arg21: tensor<128x128x3x3xbf16> {mhlo.sharding = "{replicated}", ttcore.argument_type = #ttcore.argument_type<parameter>, ttir.name = "L__self___decoder_up_blocks__modules__3___resnets__modules__0___conv2.weight"} loc("p21.131"), %arg22: tensor<128xbf16> {mhlo.sharding = "{replicated}", ttcore.argument_type = #ttcore.argument_type<parameter>, ttir.name = "L__self___decoder_up_blocks__modules__3___resnets__modules__0___norm2.bias"} loc("p22.134"), %arg23: tensor<128xbf16> {mhlo.sharding = "{replicated}", ttcore.argument_type = #ttcore.argument_type<parameter>, ttir.name = "L__self___decoder_up_blocks__modules__3___resnets__modules__0___norm2.weight"} loc("p23.141"), %arg24: tensor<128xbf16> {mhlo.sharding = "{replicated}", ttcore.argument_type = #ttcore.argument_type<parameter>, ttir.name = "L__self___decoder_up_blocks__modules__3___resnets__modules__0___conv1.bias"} loc("p24.151"), %arg25: tensor<128x256x3x3xbf16> {mhlo.sharding = "{replicated}", ttcore.argument_type = #ttcore.argument_type<parameter>, ttir.name = "L__self___decoder_up_blocks__modules__3___resnets__modules__0___conv1.weight"} loc("p25.155"), %arg26: tensor<256xbf16> {mhlo.sharding = "{replicated}", ttcore.argument_type = #ttcore.argument_type<parameter>, ttir.name = "L__self___decoder_up_blocks__modules__3___resnets__modules__0___norm1.bias"} loc("p26.158"), %arg27: tensor<256xbf16> {mhlo.sharding = "{replicated}", ttcore.argument_type = #ttcore.argument_type<parameter>, ttir.name = "L__self___decoder_up_blocks__modules__3___resnets__modules__0___norm1.weight"} loc("p27.165"), %arg28: tensor<256xbf16> {mhlo.sharding = "{replicated}", ttcore.argument_type = #ttcore.argument_type<parameter>, ttir.name = "L__self___decoder_up_blocks__modules__2___upsamplers__modules__0___conv.bias"} loc("p28.175"), %arg29: tensor<256x256x3x3xbf16> {mhlo.sharding = "{replicated}", ttcore.argument_type = #ttcore.argument_type<parameter>, ttir.name = "L__self___decoder_up_blocks__modules__2___upsamplers__modules__0___conv.weight"} loc("p29.179"), %arg30: tensor<256xbf16> {mhlo.sharding = "{replicated}", ttcore.argument_type = #ttcore.argument_type<parameter>, ttir.name = "L__self___decoder_up_blocks__modules__2___resnets__modules__2___conv2.bias"} loc("p30.213"), %arg31: tensor<256x256x3x3xbf16> {mhlo.sharding = "{replicated}", ttcore.argument_type = #ttcore.argument_type<parameter>, ttir.name = "L__self___decoder_up_blocks__modules__2___resnets__modules__2___conv2.weight"} loc("p31.217"), %arg32: tensor<256xbf16> {mhlo.sharding = "{replicated}", ttcore.argument_type = #ttcore.argument_type<parameter>, ttir.name = "L__self___decoder_up_blocks__modules__2___resnets__modules__2___norm2.bias"} loc("p32.220"), %arg33: tensor<256xbf16> {mhlo.sharding = "{replicated}", ttcore.argument_type = #ttcore.argument_type<parameter>, ttir.name = "L__self___decoder_up_blocks__modules__2___resnets__modules__2___norm2.weight"} loc("p33.227"), %arg34: tensor<256xbf16> {mhlo.sharding = "{replicated}", ttcore.argument_type = #ttcore.argument_type<parameter>, ttir.name = "L__self___decoder_up_blocks__modules__2___resnets__modules__2___conv1.bias"} loc("p34.237"), %arg35: tensor<256x256x3x3xbf16> {mhlo.sharding = "{replicated}", ttcore.argument_type = #ttcore.argument_type<parameter>, ttir.name = "L__self___decoder_up_blocks__modules__2___resnets__modules__2___conv1.weight"} loc("p35.241"), %arg36: tensor<256xbf16> {mhlo.sharding = "{replicated}", ttcore.argument_type = #ttcore.argument_type<parameter>, ttir.name = "L__self___decoder_up_blocks__modules__2___resnets__modules__2___norm1.bias"} loc("p36.244"), %arg37: tensor<256xbf16> {mhlo.sharding = "{replicated}", ttcore.argument_type = #ttcore.argument_type<parameter>, ttir.name = "L__self___decoder_up_blocks__modules__2___resnets__modules__2___norm1.weight"} loc("p37.251"), %arg38: tensor<256xbf16> {mhlo.sharding = "{replicated}", ttcore.argument_type = #ttcore.argument_type<parameter>, ttir.name = "L__self___decoder_up_blocks__modules__2___resnets__modules__1___conv2.bias"} loc("p38.263"), %arg39: tensor<256x256x3x3xbf16> {mhlo.sharding = "{replicated}", ttcore.argument_type = #ttcore.argument_type<parameter>, ttir.name = "L__self___decoder_up_blocks__modules__2___resnets__modules__1___conv2.weight"} loc("p39.267"), %arg40: tensor<256xbf16> {mhlo.sharding = "{replicated}", ttcore.argument_type = #ttcore.argument_type<parameter>, ttir.name = "L__self___decoder_up_blocks__modules__2___resnets__modules__1___norm2.bias"} loc("p40.270"), %arg41: tensor<256xbf16> {mhlo.sharding = "{replicated}", ttcore.argument_type = #ttcore.argument_type<parameter>, ttir.name = "L__self___decoder_up_blocks__modules__2___resnets__modules__1___norm2.weight"} loc("p41.277"), %arg42: tensor<256xbf16> {mhlo.sharding = "{replicated}", ttcore.argument_type = #ttcore.argument_type<parameter>, ttir.name = "L__self___decoder_up_blocks__modules__2___resnets__modules__1___conv1.bias"} loc("p42.287"), %arg43: tensor<256x256x3x3xbf16> {mhlo.sharding = "{replicated}", ttcore.argument_type = #ttcore.argument_type<parameter>, ttir.name = "L__self___decoder_up_blocks__modules__2___resnets__modules__1___conv1.weight"} loc("p43.291"), %arg44: tensor<256xbf16> {mhlo.sharding = "{replicated}", ttcore.argument_type = #ttcore.argument_type<parameter>, ttir.name = "L__self___decoder_up_blocks__modules__2___resnets__modules__1___norm1.bias"} loc("p44.294"), %arg45: tensor<256xbf16> {mhlo.sharding = "{replicated}", ttcore.argument_type = #ttcore.argument_type<parameter>, ttir.name = "L__self___decoder_up_blocks__modules__2___resnets__modules__1___norm1.weight"} loc("p45.301"), %arg46: tensor<256xbf16> {mhlo.sharding = "{replicated}", ttcore.argument_type = #ttcore.argument_type<parameter>, ttir.name = "L__self___decoder_up_blocks__modules__2___resnets__modules__0___conv2.bias"} loc("p46.313"), %arg47: tensor<256x256x3x3xbf16> {mhlo.sharding = "{replicated}", ttcore.argument_type = #ttcore.argument_type<parameter>, ttir.name = "L__self___decoder_up_blocks__modules__2___resnets__modules__0___conv2.weight"} loc("p47.317"), %arg48: tensor<256xbf16> {mhlo.sharding = "{replicated}", ttcore.argument_type = #ttcore.argument_type<parameter>, ttir.name = "L__self___decoder_up_blocks__modules__2___resnets__modules__0___norm2.bias"} loc("p48.320"), %arg49: tensor<256xbf16> {mhlo.sharding = "{replicated}", ttcore.argument_type = #ttcore.argument_type<parameter>, ttir.name = "L__self___decoder_up_blocks__modules__2___resnets__modules__0___norm2.weight"} loc("p49.327"), %arg50: tensor<256xbf16> {mhlo.sharding = "{replicated}", ttcore.argument_type = #ttcore.argument_type<parameter>, ttir.name = "L__self___decoder_up_blocks__modules__2___resnets__modules__0___conv1.bias"} loc("p50.337"), %arg51: tensor<256x512x3x3xbf16> {mhlo.sharding = "{replicated}", ttcore.argument_type = #ttcore.argument_type<parameter>, ttir.name = "L__self___decoder_up_blocks__modules__2___resnets__modules__0___conv1.weight"} loc("p51.341"), %arg52: tensor<512xbf16> {mhlo.sharding = "{replicated}", ttcore.argument_type = #ttcore.argument_type<parameter>, ttir.name = "L__self___decoder_up_blocks__modules__2___resnets__modules__0___norm1.bias"} loc("p52.344"), %arg53: tensor<512xbf16> {mhlo.sharding = "{replicated}", ttcore.argument_type = #ttcore.argument_type<parameter>, ttir.name = "L__self___decoder_up_blocks__modules__2___resnets__modules__0___norm1.weight"} loc("p53.351"), %arg54: tensor<512xbf16> {mhlo.sharding = "{replicated}", ttcore.argument_type = #ttcore.argument_type<parameter>, ttir.name = "L__self___decoder_up_blocks__modules__1___upsamplers__modules__0___conv.bias"} loc("p54.361"), %arg55: tensor<512x512x3x3xbf16> {mhlo.sharding = "{replicated}", ttcore.argument_type = #ttcore.argument_type<parameter>, ttir.name = "L__self___decoder_up_blocks__modules__1___upsamplers__modules__0___conv.weight"} loc("p55.365"), %arg56: tensor<512xbf16> {mhlo.sharding = "{replicated}", ttcore.argument_type = #ttcore.argument_type<parameter>, ttir.name = "L__self___decoder_up_blocks__modules__1___resnets__modules__2___conv2.bias"} loc("p56.399"), %arg57: tensor<512x512x3x3xbf16> {mhlo.sharding = "{replicated}", ttcore.argument_type = #ttcore.argument_type<parameter>, ttir.name = "L__self___decoder_up_blocks__modules__1___resnets__modules__2___conv2.weight"} loc("p57.403"), %arg58: tensor<512xbf16> {mhlo.sharding = "{replicated}", ttcore.argument_type = #ttcore.argument_type<parameter>, ttir.name = "L__self___decoder_up_blocks__modules__1___resnets__modules__2___norm2.bias"} loc("p58.406"), %arg59: tensor<512xbf16> {mhlo.sharding = "{replicated}", ttcore.argument_type = #ttcore.argument_type<parameter>, ttir.name = "L__self___decoder_up_blocks__modules__1___resnets__modules__2___norm2.weight"} loc("p59.413"), %arg60: tensor<512xbf16> {mhlo.sharding = "{replicated}", ttcore.argument_type = #ttcore.argument_type<parameter>, ttir.name = "L__self___decoder_up_blocks__modules__1___resnets__modules__2___conv1.bias"} loc("p60.423"), %arg61: tensor<512x512x3x3xbf16> {mhlo.sharding = "{replicated}", ttcore.argument_type = #ttcore.argument_type<parameter>, ttir.name = "L__self___decoder_up_blocks__modules__1___resnets__modules__2___conv1.weight"} loc("p61.427"), %arg62: tensor<512xbf16> {mhlo.sharding = "{replicated}", ttcore.argument_type = #ttcore.argument_type<parameter>, ttir.name = "L__self___decoder_up_blocks__modules__1___resnets__modules__2___norm1.bias"} loc("p62.430"), %arg63: tensor<512xbf16> {mhlo.sharding = "{replicated}", ttcore.argument_type = #ttcore.argument_type<parameter>, ttir.name = "L__self___decoder_up_blocks__modules__1___resnets__modules__2___norm1.weight"} loc("p63.437"), %arg64: tensor<512xbf16> {mhlo.sharding = "{replicated}", ttcore.argument_type = #ttcore.argument_type<parameter>, ttir.name = "L__self___decoder_up_blocks__modules__1___resnets__modules__1___conv2.bias"} loc("p64.449"), %arg65: tensor<512x512x3x3xbf16> {mhlo.sharding = "{replicated}", ttcore.argument_type = #ttcore.argument_type<parameter>, ttir.name = "L__self___decoder_up_blocks__modules__1___resnets__modules__1___conv2.weight"} loc("p65.453"), %arg66: tensor<512xbf16> {mhlo.sharding = "{replicated}", ttcore.argument_type = #ttcore.argument_type<parameter>, ttir.name = "L__self___decoder_up_blocks__modules__1___resnets__modules__1___norm2.bias"} loc("p66.456"), %arg67: tensor<512xbf16> {mhlo.sharding = "{replicated}", ttcore.argument_type = #ttcore.argument_type<parameter>, ttir.name = "L__self___decoder_up_blocks__modules__1___resnets__modules__1___norm2.weight"} loc("p67.463"), %arg68: tensor<512xbf16> {mhlo.sharding = "{replicated}", ttcore.argument_type = #ttcore.argument_type<parameter>, ttir.name = "L__self___decoder_up_blocks__modules__1___resnets__modules__1___conv1.bias"} loc("p68.473"), %arg69: tensor<512x512x3x3xbf16> {mhlo.sharding = "{replicated}", ttcore.argument_type = #ttcore.argument_type<parameter>, ttir.name = "L__self___decoder_up_blocks__modules__1___resnets__modules__1___conv1.weight"} loc("p69.477"), %arg70: tensor<512xbf16> {mhlo.sharding = "{replicated}", ttcore.argument_type = #ttcore.argument_type<parameter>, ttir.name = "L__self___decoder_up_blocks__modules__1___resnets__modules__1___norm1.bias"} loc("p70.480"), %arg71: tensor<512xbf16> {mhlo.sharding = "{replicated}", ttcore.argument_type = #ttcore.argument_type<parameter>, ttir.name = "L__self___decoder_up_blocks__modules__1___resnets__modules__1___norm1.weight"} loc("p71.487"), %arg72: tensor<512xbf16> {mhlo.sharding = "{replicated}", ttcore.argument_type = #ttcore.argument_type<parameter>, ttir.name = "L__self___decoder_up_blocks__modules__1___resnets__modules__0___conv2.bias"} loc("p72.499"), %arg73: tensor<512x512x3x3xbf16> {mhlo.sharding = "{replicated}", ttcore.argument_type = #ttcore.argument_type<parameter>, ttir.name = "L__self___decoder_up_blocks__modules__1___resnets__modules__0___conv2.weight"} loc("p73.503"), %arg74: tensor<512xbf16> {mhlo.sharding = "{replicated}", ttcore.argument_type = #ttcore.argument_type<parameter>, ttir.name = "L__self___decoder_up_blocks__modules__1___resnets__modules__0___norm2.bias"} loc("p74.506"), %arg75: tensor<512xbf16> {mhlo.sharding = "{replicated}", ttcore.argument_type = #ttcore.argument_type<parameter>, ttir.name = "L__self___decoder_up_blocks__modules__1___resnets__modules__0___norm2.weight"} loc("p75.513"), %arg76: tensor<512xbf16> {mhlo.sharding = "{replicated}", ttcore.argument_type = #ttcore.argument_type<parameter>, ttir.name = "L__self___decoder_up_blocks__modules__1___resnets__modules__0___conv1.bias"} loc("p76.523"), %arg77: tensor<512x512x3x3xbf16> {mhlo.sharding = "{replicated}", ttcore.argument_type = #ttcore.argument_type<parameter>, ttir.name = "L__self___decoder_up_blocks__modules__1___resnets__modules__0___conv1.weight"} loc("p77.527"), %arg78: tensor<512xbf16> {mhlo.sharding = "{replicated}", ttcore.argument_type = #ttcore.argument_type<parameter>, ttir.name = "L__self___decoder_up_blocks__modules__1___resnets__modules__0___norm1.bias"} loc("p78.530"), %arg79: tensor<512xbf16> {mhlo.sharding = "{replicated}", ttcore.argument_type = #ttcore.argument_type<parameter>, ttir.name = "L__self___decoder_up_blocks__modules__1___resnets__modules__0___norm1.weight"} loc("p79.537"), %arg80: tensor<512xbf16> {mhlo.sharding = "{replicated}", ttcore.argument_type = #ttcore.argument_type<parameter>, ttir.name = "L__self___decoder_up_blocks__modules__0___upsamplers__modules__0___conv.bias"} loc("p80.547"), %arg81: tensor<512x512x3x3xbf16> {mhlo.sharding = "{replicated}", ttcore.argument_type = #ttcore.argument_type<parameter>, ttir.name = "L__self___decoder_up_blocks__modules__0___upsamplers__modules__0___conv.weight"} loc("p81.551"), %arg82: tensor<512xbf16> {mhlo.sharding = "{replicated}", ttcore.argument_type = #ttcore.argument_type<parameter>, ttir.name = "L__self___decoder_up_blocks__modules__0___resnets__modules__2___conv2.bias"} loc("p82.585"), %arg83: tensor<512x512x3x3xbf16> {mhlo.sharding = "{replicated}", ttcore.argument_type = #ttcore.argument_type<parameter>, ttir.name = "L__self___decoder_up_blocks__modules__0___resnets__modules__2___conv2.weight"} loc("p83.589"), %arg84: tensor<512xbf16> {mhlo.sharding = "{replicated}", ttcore.argument_type = #ttcore.argument_type<parameter>, ttir.name = "L__self___decoder_up_blocks__modules__0___resnets__modules__2___norm2.bias"} loc("p84.592"), %arg85: tensor<512xbf16> {mhlo.sharding = "{replicated}", ttcore.argument_type = #ttcore.argument_type<parameter>, ttir.name = "L__self___decoder_up_blocks__modules__0___resnets__modules__2___norm2.weight"} loc("p85.599"), %arg86: tensor<512xbf16> {mhlo.sharding = "{replicated}", ttcore.argument_type = #ttcore.argument_type<parameter>, ttir.name = "L__self___decoder_up_blocks__modules__0___resnets__modules__2___conv1.bias"} loc("p86.609"), %arg87: tensor<512x512x3x3xbf16> {mhlo.sharding = "{replicated}", ttcore.argument_type = #ttcore.argument_type<parameter>, ttir.name = "L__self___decoder_up_blocks__modules__0___resnets__modules__2___conv1.weight"} loc("p87.613"), %arg88: tensor<512xbf16> {mhlo.sharding = "{replicated}", ttcore.argument_type = #ttcore.argument_type<parameter>, ttir.name = "L__self___decoder_up_blocks__modules__0___resnets__modules__2___norm1.bias"} loc("p88.616"), %arg89: tensor<512xbf16> {mhlo.sharding = "{replicated}", ttcore.argument_type = #ttcore.argument_type<parameter>, ttir.name = "L__self___decoder_up_blocks__modules__0___resnets__modules__2___norm1.weight"} loc("p89.623"), %arg90: tensor<512xbf16> {mhlo.sharding = "{replicated}", ttcore.argument_type = #ttcore.argument_type<parameter>, ttir.name = "L__self___decoder_up_blocks__modules__0___resnets__modules__1___conv2.bias"} loc("p90.635"), %arg91: tensor<512x512x3x3xbf16> {mhlo.sharding = "{replicated}", ttcore.argument_type = #ttcore.argument_type<parameter>, ttir.name = "L__self___decoder_up_blocks__modules__0___resnets__modules__1___conv2.weight"} loc("p91.639"), %arg92: tensor<512xbf16> {mhlo.sharding = "{replicated}", ttcore.argument_type = #ttcore.argument_type<parameter>, ttir.name = "L__self___decoder_up_blocks__modules__0___resnets__modules__1___norm2.bias"} loc("p92.642"), %arg93: tensor<512xbf16> {mhlo.sharding = "{replicated}", ttcore.argument_type = #ttcore.argument_type<parameter>, ttir.name = "L__self___decoder_up_blocks__modules__0___resnets__modules__1___norm2.weight"} loc("p93.649"), %arg94: tensor<512xbf16> {mhlo.sharding = "{replicated}", ttcore.argument_type = #ttcore.argument_type<parameter>, ttir.name = "L__self___decoder_up_blocks__modules__0___resnets__modules__1___conv1.bias"} loc("p94.659"), %arg95: tensor<512x512x3x3xbf16> {mhlo.sharding = "{replicated}", ttcore.argument_type = #ttcore.argument_type<parameter>, ttir.name = "L__self___decoder_up_blocks__modules__0___resnets__modules__1___conv1.weight"} loc("p95.663"), %arg96: tensor<512xbf16> {mhlo.sharding = "{replicated}", ttcore.argument_type = #ttcore.argument_type<parameter>, ttir.name = "L__self___decoder_up_blocks__modules__0___resnets__modules__1___norm1.bias"} loc("p96.666"), %arg97: tensor<512xbf16> {mhlo.sharding = "{replicated}", ttcore.argument_type = #ttcore.argument_type<parameter>, ttir.name = "L__self___decoder_up_blocks__modules__0___resnets__modules__1___norm1.weight"} loc("p97.673"), %arg98: tensor<512xbf16> {mhlo.sharding = "{replicated}", ttcore.argument_type = #ttcore.argument_type<parameter>, ttir.name = "L__self___decoder_up_blocks__modules__0___resnets__modules__0___conv2.bias"} loc("p98.685"), %arg99: tensor<512x512x3x3xbf16> {mhlo.sharding = "{replicated}", ttcore.argument_type = #ttcore.argument_type<parameter>, ttir.name = "L__self___decoder_up_blocks__modules__0___resnets__modules__0___conv2.weight"} loc("p99.689"), %arg100: tensor<512xbf16> {mhlo.sharding = "{replicated}", ttcore.argument_type = #ttcore.argument_type<parameter>, ttir.name = "L__self___decoder_up_blocks__modules__0___resnets__modules__0___norm2.bias"} loc("p100.692"), %arg101: tensor<512xbf16> {mhlo.sharding = "{replicated}", ttcore.argument_type = #ttcore.argument_type<parameter>, ttir.name = "L__self___decoder_up_blocks__modules__0___resnets__modules__0___norm2.weight"} loc("p101.699"), %arg102: tensor<512xbf16> {mhlo.sharding = "{replicated}", ttcore.argument_type = #ttcore.argument_type<parameter>, ttir.name = "L__self___decoder_up_blocks__modules__0___resnets__modules__0___conv1.bias"} loc("p102.709"), %arg103: tensor<512x512x3x3xbf16> {mhlo.sharding = "{replicated}", ttcore.argument_type = #ttcore.argument_type<parameter>, ttir.name = "L__self___decoder_up_blocks__modules__0___resnets__modules__0___conv1.weight"} loc("p103.713"), %arg104: tensor<512xbf16> {mhlo.sharding = "{replicated}", ttcore.argument_type = #ttcore.argument_type<parameter>, ttir.name = "L__self___decoder_up_blocks__modules__0___resnets__modules__0___norm1.bias"} loc("p104.716"), %arg105: tensor<512xbf16> {mhlo.sharding = "{replicated}", ttcore.argument_type = #ttcore.argument_type<parameter>, ttir.name = "L__self___decoder_up_blocks__modules__0___resnets__modules__0___norm1.weight"} loc("p105.723"), %arg106: tensor<512xbf16> {mhlo.sharding = "{replicated}", ttcore.argument_type = #ttcore.argument_type<parameter>, ttir.name = "L__self___decoder_mid_block_resnets__modules__1___conv2.bias"} loc("p106.735"), %arg107: tensor<512x512x3x3xbf16> {mhlo.sharding = "{replicated}", ttcore.argument_type = #ttcore.argument_type<parameter>, ttir.name = "L__self___decoder_mid_block_resnets__modules__1___conv2.weight"} loc("p107.739"), %arg108: tensor<512xbf16> {mhlo.sharding = "{replicated}", ttcore.argument_type = #ttcore.argument_type<parameter>, ttir.name = "L__self___decoder_mid_block_resnets__modules__1___norm2.bias"} loc("p108.742"), %arg109: tensor<512xbf16> {mhlo.sharding = "{replicated}", ttcore.argument_type = #ttcore.argument_type<parameter>, ttir.name = "L__self___decoder_mid_block_resnets__modules__1___norm2.weight"} loc("p109.749"), %arg110: tensor<512xbf16> {mhlo.sharding = "{replicated}", ttcore.argument_type = #ttcore.argument_type<parameter>, ttir.name = "L__self___decoder_mid_block_resnets__modules__1___conv1.bias"} loc("p110.759"), %arg111: tensor<512x512x3x3xbf16> {mhlo.sharding = "{replicated}", ttcore.argument_type = #ttcore.argument_type<parameter>, ttir.name = "L__self___decoder_mid_block_resnets__modules__1___conv1.weight"} loc("p111.763"), %arg112: tensor<512xbf16> {mhlo.sharding = "{replicated}", ttcore.argument_type = #ttcore.argument_type<parameter>, ttir.name = "L__self___decoder_mid_block_resnets__modules__1___norm1.bias"} loc("p112.766"), %arg113: tensor<512xbf16> {mhlo.sharding = "{replicated}", ttcore.argument_type = #ttcore.argument_type<parameter>, ttir.name = "L__self___decoder_mid_block_resnets__modules__1___norm1.weight"} loc("p113.773"), %arg114: tensor<512xbf16> {mhlo.sharding = "{replicated}", ttcore.argument_type = #ttcore.argument_type<parameter>, ttir.name = "L__self___decoder_mid_block_resnets__modules__0___conv2.bias"} loc("p114.787"), %arg115: tensor<512x512x3x3xbf16> {mhlo.sharding = "{replicated}", ttcore.argument_type = #ttcore.argument_type<parameter>, ttir.name = "L__self___decoder_mid_block_resnets__modules__0___conv2.weight"} loc("p115.791"), %arg116: tensor<512xbf16> {mhlo.sharding = "{replicated}", ttcore.argument_type = #ttcore.argument_type<parameter>, ttir.name = "L__self___decoder_mid_block_resnets__modules__0___norm2.bias"} loc("p116.794"), %arg117: tensor<512xbf16> {mhlo.sharding = "{replicated}", ttcore.argument_type = #ttcore.argument_type<parameter>, ttir.name = "L__self___decoder_mid_block_resnets__modules__0___norm2.weight"} loc("p117.801"), %arg118: tensor<512xbf16> {mhlo.sharding = "{replicated}", ttcore.argument_type = #ttcore.argument_type<parameter>, ttir.name = "L__self___decoder_mid_block_resnets__modules__0___conv1.bias"} loc("p118.811"), %arg119: tensor<512x512x3x3xbf16> {mhlo.sharding = "{replicated}", ttcore.argument_type = #ttcore.argument_type<parameter>, ttir.name = "L__self___decoder_mid_block_resnets__modules__0___conv1.weight"} loc("p119.815"), %arg120: tensor<512xbf16> {mhlo.sharding = "{replicated}", ttcore.argument_type = #ttcore.argument_type<parameter>, ttir.name = "L__self___decoder_mid_block_resnets__modules__0___norm1.bias"} loc("p120.818"), %arg121: tensor<512xbf16> {mhlo.sharding = "{replicated}", ttcore.argument_type = #ttcore.argument_type<parameter>, ttir.name = "L__self___decoder_mid_block_resnets__modules__0___norm1.weight"} loc("p121.825"), %arg122: tensor<512xbf16> {mhlo.sharding = "{replicated}", ttcore.argument_type = #ttcore.argument_type<parameter>, ttir.name = "decoder.conv_in.bias"} loc("p122.835"), %arg123: tensor<512x16x3x3xbf16> {mhlo.sharding = "{replicated}", ttcore.argument_type = #ttcore.argument_type<parameter>, ttir.name = "decoder.conv_in.weight"} loc("p123.839"), %arg124: tensor<1x16x64x64xbf16> {mhlo.sharding = "{replicated}", ttcore.argument_type = #ttcore.argument_type<input>, ttir.name = "args_0"} loc("p124.841"), %arg125: tensor<512xbf16> {mhlo.sharding = "{replicated}", ttcore.argument_type = #ttcore.argument_type<parameter>, ttir.name = "self___decoder_mid_block_attentions__modules__0___to_out__modules__0.bias"} loc("p125.1033"), %arg126: tensor<512x512xbf16> {mhlo.sharding = "{replicated}", ttcore.argument_type = #ttcore.argument_type<parameter>, ttir.name = "self___decoder_mid_block_attentions__modules__0___to_out__modules__0.weight"} loc("p126.1037"), %arg127: tensor<512xbf16> {mhlo.sharding = "{replicated}", ttcore.argument_type = #ttcore.argument_type<parameter>, ttir.name = "L__self___decoder_mid_block_attentions__modules__0___to_v.bias"} loc("p127.1043"), %arg128: tensor<512x512xbf16> {mhlo.sharding = "{replicated}", ttcore.argument_type = #ttcore.argument_type<parameter>, ttir.name = "L__self___decoder_mid_block_attentions__modules__0___to_v.weight"} loc("p128.1047"), %arg129: tensor<512xbf16> {mhlo.sharding = "{replicated}", ttcore.argument_type = #ttcore.argument_type<parameter>, ttir.name = "L__self___decoder_mid_block_attentions__modules__0___group_norm.bias"} loc("p129.1053"), %arg130: tensor<512xbf16> {mhlo.sharding = "{replicated}", ttcore.argument_type = #ttcore.argument_type<parameter>, ttir.name = "L__self___decoder_mid_block_attentions__modules__0___group_norm.weight"} loc("p130.1059"), %arg131: tensor<512xbf16> {mhlo.sharding = "{replicated}", ttcore.argument_type = #ttcore.argument_type<parameter>, ttir.name = "L__self___decoder_mid_block_attentions__modules__0___to_k.bias"} loc("p131.1166"), %arg132: tensor<512x512xbf16> {mhlo.sharding = "{replicated}", ttcore.argument_type = #ttcore.argument_type<parameter>, ttir.name = "L__self___decoder_mid_block_attentions__modules__0___to_k.weight"} loc("p132.1170"), %arg133: tensor<512xbf16> {mhlo.sharding = "{replicated}", ttcore.argument_type = #ttcore.argument_type<parameter>, ttir.name = "L__self___decoder_mid_block_attentions__modules__0___to_q.bias"} loc("p133.1190"), %arg134: tensor<512x512xbf16> {mhlo.sharding = "{replicated}", ttcore.argument_type = #ttcore.argument_type<parameter>, ttir.name = "L__self___decoder_mid_block_attentions__modules__0___to_q.weight"} loc("p134.1194"), %arg135: tensor<256xbf16> {mhlo.sharding = "{replicated}", ttcore.argument_type = #ttcore.argument_type<parameter>, ttir.name = "L__self___decoder_up_blocks__modules__2___resnets__modules__0___conv_shortcut.bias"} loc("p135.2779"), %arg136: tensor<256x512x1x1xbf16> {mhlo.sharding = "{replicated}", ttcore.argument_type = #ttcore.argument_type<parameter>, ttir.name = "L__self___decoder_up_blocks__modules__2___resnets__modules__0___conv_shortcut.weight"} loc("p136.2783"), %arg137: tensor<128xbf16> {mhlo.sharding = "{replicated}", ttcore.argument_type = #ttcore.argument_type<parameter>, ttir.name = "L__self___decoder_up_blocks__modules__3___resnets__modules__0___conv_shortcut.bias"} loc("p137.3354"), %arg138: tensor<128x256x1x1xbf16> {mhlo.sharding = "{replicated}", ttcore.argument_type = #ttcore.argument_type<parameter>, ttir.name = "L__self___decoder_up_blocks__modules__3___resnets__modules__0___conv_shortcut.weight"} loc("p138.3358")) -> tensor<1x3x512x512xbf16> {
    %0 = sdy.constant dense<1.000000e+00> : tensor<bf16> loc(#loc)
    %1 = stablehlo.broadcast_in_dim %0, dims = [] : (tensor<bf16>) -> tensor<1x128x512x512xbf16> loc(#loc)
    %2 = sdy.constant dense<4.76837158E-7> : tensor<f32> loc(#loc)
    %3 = stablehlo.broadcast_in_dim %2, dims = [] : (tensor<f32>) -> tensor<1x32xf32> loc(#loc)
    %4 = sdy.constant dense<"…"> : tensor<512xf64> loc(#loc)
    %5 = sdy.constant dense<1.000000e+00> : tensor<bf16> loc(#loc)
    %6 = stablehlo.broadcast_in_dim %5, dims = [] : (tensor<bf16>) -> tensor<1x256x256x256xbf16> loc(#loc)
    %7 = sdy.constant dense<1.90734863E-6> : tensor<f32> loc(#loc)
    %8 = stablehlo.broadcast_in_dim %7, dims = [] : (tensor<f32>) -> tensor<1x32xf32> loc(#loc)
    %9 = sdy.constant dense<9.53674316E-7> : tensor<f32> loc(#loc)
    %10 = stablehlo.broadcast_in_dim %9, dims = [] : (tensor<f32>) -> tensor<1x32xf32> loc(#loc)
    %11 = sdy.constant dense<"…"> : tensor<256xf64> loc(#loc)
    %12 = sdy.constant dense<1.000000e+00> : tensor<bf16> loc(#loc)
    %13 = stablehlo.broadcast_in_dim %12, dims = [] : (tensor<bf16>) -> tensor<1x512x128x128xbf16> loc(#loc)
    %14 = sdy.constant dense<3.81469727E-6> : tensor<f32> loc(#loc)
    %15 = stablehlo.broadcast_in_dim %14, dims = [] : (tensor<f32>) -> tensor<1x32xf32> loc(#loc)
    %16 = sdy.constant dense<"…"> : tensor<128xf64> loc(#loc)
    %17 = sdy.constant dense<0.000000e+00> : tensor<f32> loc(#loc)
    %18 = stablehlo.broadcast_in_dim %17, dims = [] : (tensor<f32>) -> tensor<1x1x4096x4096xf32> loc(#loc)
    %19 = sdy.constant dense<0xFFF0000000000000> : tensor<f64> loc(#loc)
    %20 = stablehlo.broadcast_in_dim %19, dims = [] : (tensor<f64>) -> tensor<1x1x4096x4096xf64> loc(#loc)
    %21 = sdy.constant dense<0.210224107> : tensor<f32> loc(#loc)
    %22 = stablehlo.broadcast_in_dim %21, dims = [] : (tensor<f32>) -> tensor<1x1x512x4096xf32> loc(#loc)
    %23 = sdy.constant dense<0.210224107> : tensor<f32> loc(#loc)
    %24 = stablehlo.broadcast_in_dim %23, dims = [] : (tensor<f32>) -> tensor<1x1x4096x512xf32> loc(#loc)
    %25 = sdy.constant dense<1.000000e+00> : tensor<bf16> loc(#loc)
    %26 = stablehlo.broadcast_in_dim %25, dims = [] : (tensor<bf16>) -> tensor<1x512x64x64xbf16> loc(#loc)
    %27 = sdy.constant dense<9.99999997E-7> : tensor<f32> loc(#loc)
    %28 = stablehlo.broadcast_in_dim %27, dims = [] : (tensor<f32>) -> tensor<1x32x1x1xf32> loc(#loc)
    %29 = sdy.constant dense<1.52587891E-5> : tensor<f32> loc(#loc)
    %30 = stablehlo.broadcast_in_dim %29, dims = [] : (tensor<f32>) -> tensor<1x32xf32> loc(#loc)
    %31 = sdy.constant dense<"…"> : tensor<256xi64> loc(#loc)
    %32 = sdy.constant dense<"…"> : tensor<128xi64> loc(#loc)
    %33 = sdy.constant dense<[0, 1, 2, 3, 4, 5, 6, 7, 8, 9, 10, 11, 12, 13, 14, 15, 16, 17, 18, 19, 20, 21, 22, 23, 24, 25, 26, 27, 28, 29, 30, 31, 32, 33, 34, 35, 36, 37, 38, 39, 40, 41, 42, 43, 44, 45, 46, 47, 48, 49, 50, 51, 52, 53, 54, 55, 56, 57, 58, 59, 60, 61, 62, 63]> : tensor<64xi64> loc(#loc)
    %34 = sdy.constant dense<0xFF800000> : tensor<f32> loc(#loc)
    %35 = sdy.constant dense<false> : tensor<i1> loc(#loc)
    %36 = sdy.constant dense<0.000000e+00> : tensor<f32> loc(#loc)
    %37 = stablehlo.convolution(%arg124, %arg123) dim_numbers = [b, f, 0, 1]x[o, i, 0, 1]->[b, f, 0, 1], window = {pad = [[1, 1], [1, 1]]} {batch_group_count = 1 : i64, feature_group_count = 1 : i64} : (tensor<1x16x64x64xbf16>, tensor<512x16x3x3xbf16>) -> tensor<1x512x64x64xbf16> loc(#loc140)
    %38 = stablehlo.reshape %arg122 : (tensor<512xbf16>) -> tensor<1x1x512xbf16> loc(#loc141)
    %39 = stablehlo.reshape %38 : (tensor<1x1x512xbf16>) -> tensor<512xbf16> loc(#loc142)
    %40 = stablehlo.broadcast_in_dim %39, dims = [1] : (tensor<512xbf16>) -> tensor<1x512x64x64xbf16> loc(#loc143)
    %41 = stablehlo.add %37, %40 : tensor<1x512x64x64xbf16> loc(#loc144)
    %42 = stablehlo.convert %41 : (tensor<1x512x64x64xbf16>) -> tensor<1x512x64x64xf32> loc(#loc145)
    %43 = stablehlo.reshape %42 : (tensor<1x512x64x64xf32>) -> tensor<1x32x16x4096xf32> loc(#loc146)
    %44 = stablehlo.reduce(%43 init: %36) applies stablehlo.add across dimensions = [2, 3] : (tensor<1x32x16x4096xf32>, tensor<f32>) -> tensor<1x32xf32> loc(#loc147)
    %45 = stablehlo.multiply %44, %30 : tensor<1x32xf32> loc(#loc148)
    %46 = stablehlo.broadcast_in_dim %45, dims = [0, 1] : (tensor<1x32xf32>) -> tensor<1x32x16x4096xf32> loc(#loc149)
    %47 = stablehlo.subtract %43, %46 : tensor<1x32x16x4096xf32> loc(#loc150)
    %48 = stablehlo.multiply %47, %47 : tensor<1x32x16x4096xf32> loc(#loc151)
    %49 = stablehlo.reduce(%48 init: %36) applies stablehlo.add across dimensions = [2, 3] : (tensor<1x32x16x4096xf32>, tensor<f32>) -> tensor<1x32xf32> loc(#loc152)
    %50 = stablehlo.multiply %49, %30 : tensor<1x32xf32> loc(#loc153)
    %51 = stablehlo.reshape %50 : (tensor<1x32xf32>) -> tensor<1x32x1x1xf32> loc(#loc154)
    %52 = stablehlo.add %51, %28 : tensor<1x32x1x1xf32> loc(#loc155)
    %53 = stablehlo.rsqrt %52 : tensor<1x32x1x1xf32> loc(#loc156)
    %54 = stablehlo.reshape %53 : (tensor<1x32x1x1xf32>) -> tensor<1x32xf32> loc(#loc157)
    %55 = stablehlo.broadcast_in_dim %54, dims = [0, 1] : (tensor<1x32xf32>) -> tensor<1x32x16x4096xf32> loc(#loc158)
    %56 = stablehlo.multiply %47, %55 : tensor<1x32x16x4096xf32> loc(#loc159)
    %57 = stablehlo.reshape %56 : (tensor<1x32x16x4096xf32>) -> tensor<1x512x64x64xf32> loc(#loc160)
    %58 = stablehlo.reshape %arg121 : (tensor<512xbf16>) -> tensor<1x1x512xbf16> loc(#loc161)
    %59 = stablehlo.reshape %58 : (tensor<1x1x512xbf16>) -> tensor<1x512x1x1xbf16> loc(#loc162)
    %60 = stablehlo.convert %59 : (tensor<1x512x1x1xbf16>) -> tensor<1x512x1x1xf32> loc(#loc163)
    %61 = stablehlo.reshape %60 : (tensor<1x512x1x1xf32>) -> tensor<1x512xf32> loc(#loc164)
    %62 = stablehlo.broadcast_in_dim %61, dims = [0, 1] : (tensor<1x512xf32>) -> tensor<1x512x64x64xf32> loc(#loc165)
    %63 = stablehlo.multiply %57, %62 : tensor<1x512x64x64xf32> loc(#loc166)
    %64 = stablehlo.reshape %arg120 : (tensor<512xbf16>) -> tensor<1x1x512xbf16> loc(#loc167)
    %65 = stablehlo.reshape %64 : (tensor<1x1x512xbf16>) -> tensor<1x512x1x1xbf16> loc(#loc168)
    %66 = stablehlo.convert %65 : (tensor<1x512x1x1xbf16>) -> tensor<1x512x1x1xf32> loc(#loc169)
    %67 = stablehlo.reshape %66 : (tensor<1x512x1x1xf32>) -> tensor<1x512xf32> loc(#loc170)
    %68 = stablehlo.broadcast_in_dim %67, dims = [0, 1] : (tensor<1x512xf32>) -> tensor<1x512x64x64xf32> loc(#loc171)
    %69 = stablehlo.add %63, %68 : tensor<1x512x64x64xf32> loc(#loc172)
    %70 = stablehlo.convert %69 : (tensor<1x512x64x64xf32>) -> tensor<1x512x64x64xbf16> loc(#loc173)
    %71 = stablehlo.convert %70 : (tensor<1x512x64x64xbf16>) -> tensor<1x512x64x64xf32> loc(#loc174)
    %72 = stablehlo.logistic %71 : tensor<1x512x64x64xf32> loc(#loc175)
    %73 = stablehlo.multiply %71, %72 : tensor<1x512x64x64xf32> loc(#loc176)
    %74 = stablehlo.convert %73 : (tensor<1x512x64x64xf32>) -> tensor<1x512x64x64xbf16> loc(#loc177)
    %75 = stablehlo.convolution(%74, %arg119) dim_numbers = [b, f, 0, 1]x[o, i, 0, 1]->[b, f, 0, 1], window = {pad = [[1, 1], [1, 1]]} {batch_group_count = 1 : i64, feature_group_count = 1 : i64} : (tensor<1x512x64x64xbf16>, tensor<512x512x3x3xbf16>) -> tensor<1x512x64x64xbf16> loc(#loc178)
    %76 = stablehlo.reshape %arg118 : (tensor<512xbf16>) -> tensor<1x1x512xbf16> loc(#loc179)
    %77 = stablehlo.reshape %76 : (tensor<1x1x512xbf16>) -> tensor<512xbf16> loc(#loc180)
    %78 = stablehlo.broadcast_in_dim %77, dims = [1] : (tensor<512xbf16>) -> tensor<1x512x64x64xbf16> loc(#loc181)
    %79 = stablehlo.add %75, %78 : tensor<1x512x64x64xbf16> loc(#loc182)
    %80 = stablehlo.convert %79 : (tensor<1x512x64x64xbf16>) -> tensor<1x512x64x64xf32> loc(#loc183)
    %81 = stablehlo.reshape %80 : (tensor<1x512x64x64xf32>) -> tensor<1x32x16x4096xf32> loc(#loc184)
    %82 = stablehlo.reduce(%81 init: %36) applies stablehlo.add across dimensions = [2, 3] : (tensor<1x32x16x4096xf32>, tensor<f32>) -> tensor<1x32xf32> loc(#loc185)
    %83 = stablehlo.multiply %82, %30 : tensor<1x32xf32> loc(#loc186)
    %84 = stablehlo.broadcast_in_dim %83, dims = [0, 1] : (tensor<1x32xf32>) -> tensor<1x32x16x4096xf32> loc(#loc187)
    %85 = stablehlo.subtract %81, %84 : tensor<1x32x16x4096xf32> loc(#loc188)
    %86 = stablehlo.multiply %85, %85 : tensor<1x32x16x4096xf32> loc(#loc189)
    %87 = stablehlo.reduce(%86 init: %36) applies stablehlo.add across dimensions = [2, 3] : (tensor<1x32x16x4096xf32>, tensor<f32>) -> tensor<1x32xf32> loc(#loc190)
    %88 = stablehlo.multiply %87, %30 : tensor<1x32xf32> loc(#loc191)
    %89 = stablehlo.reshape %88 : (tensor<1x32xf32>) -> tensor<1x32x1x1xf32> loc(#loc192)
    %90 = stablehlo.add %89, %28 : tensor<1x32x1x1xf32> loc(#loc193)
    %91 = stablehlo.rsqrt %90 : tensor<1x32x1x1xf32> loc(#loc194)
    %92 = stablehlo.reshape %91 : (tensor<1x32x1x1xf32>) -> tensor<1x32xf32> loc(#loc195)
    %93 = stablehlo.broadcast_in_dim %92, dims = [0, 1] : (tensor<1x32xf32>) -> tensor<1x32x16x4096xf32> loc(#loc196)
    %94 = stablehlo.multiply %85, %93 : tensor<1x32x16x4096xf32> loc(#loc197)
    %95 = stablehlo.reshape %94 : (tensor<1x32x16x4096xf32>) -> tensor<1x512x64x64xf32> loc(#loc198)
    %96 = stablehlo.reshape %arg117 : (tensor<512xbf16>) -> tensor<1x1x512xbf16> loc(#loc199)
    %97 = stablehlo.reshape %96 : (tensor<1x1x512xbf16>) -> tensor<1x512x1x1xbf16> loc(#loc200)
    %98 = stablehlo.convert %97 : (tensor<1x512x1x1xbf16>) -> tensor<1x512x1x1xf32> loc(#loc201)
    %99 = stablehlo.reshape %98 : (tensor<1x512x1x1xf32>) -> tensor<1x512xf32> loc(#loc202)
    %100 = stablehlo.broadcast_in_dim %99, dims = [0, 1] : (tensor<1x512xf32>) -> tensor<1x512x64x64xf32> loc(#loc203)
    %101 = stablehlo.multiply %95, %100 : tensor<1x512x64x64xf32> loc(#loc204)
    %102 = stablehlo.reshape %arg116 : (tensor<512xbf16>) -> tensor<1x1x512xbf16> loc(#loc205)
    %103 = stablehlo.reshape %102 : (tensor<1x1x512xbf16>) -> tensor<1x512x1x1xbf16> loc(#loc206)
    %104 = stablehlo.convert %103 : (tensor<1x512x1x1xbf16>) -> tensor<1x512x1x1xf32> loc(#loc207)
    %105 = stablehlo.reshape %104 : (tensor<1x512x1x1xf32>) -> tensor<1x512xf32> loc(#loc208)
    %106 = stablehlo.broadcast_in_dim %105, dims = [0, 1] : (tensor<1x512xf32>) -> tensor<1x512x64x64xf32> loc(#loc209)
    %107 = stablehlo.add %101, %106 : tensor<1x512x64x64xf32> loc(#loc210)
    %108 = stablehlo.convert %107 : (tensor<1x512x64x64xf32>) -> tensor<1x512x64x64xbf16> loc(#loc211)
    %109 = stablehlo.convert %108 : (tensor<1x512x64x64xbf16>) -> tensor<1x512x64x64xf32> loc(#loc212)
    %110 = stablehlo.logistic %109 : tensor<1x512x64x64xf32> loc(#loc213)
    %111 = stablehlo.multiply %109, %110 : tensor<1x512x64x64xf32> loc(#loc214)
    %112 = stablehlo.convert %111 : (tensor<1x512x64x64xf32>) -> tensor<1x512x64x64xbf16> loc(#loc215)
    %113 = stablehlo.convolution(%112, %arg115) dim_numbers = [b, f, 0, 1]x[o, i, 0, 1]->[b, f, 0, 1], window = {pad = [[1, 1], [1, 1]]} {batch_group_count = 1 : i64, feature_group_count = 1 : i64} : (tensor<1x512x64x64xbf16>, tensor<512x512x3x3xbf16>) -> tensor<1x512x64x64xbf16> loc(#loc216)
    %114 = stablehlo.reshape %arg114 : (tensor<512xbf16>) -> tensor<1x1x512xbf16> loc(#loc217)
    %115 = stablehlo.reshape %114 : (tensor<1x1x512xbf16>) -> tensor<512xbf16> loc(#loc218)
    %116 = stablehlo.broadcast_in_dim %115, dims = [1] : (tensor<512xbf16>) -> tensor<1x512x64x64xbf16> loc(#loc219)
    %117 = stablehlo.add %113, %116 : tensor<1x512x64x64xbf16> loc(#loc220)
    %118 = stablehlo.add %41, %117 : tensor<1x512x64x64xbf16> loc(#loc221)
    %119 = stablehlo.divide %118, %26 : tensor<1x512x64x64xbf16> loc(#loc222)
    %120 = stablehlo.reshape %119 : (tensor<1x512x64x64xbf16>) -> tensor<1x512x4096xbf16> loc(#loc223)
    %121 = stablehlo.convert %120 : (tensor<1x512x4096xbf16>) -> tensor<1x512x4096xf32> loc(#loc224)
    %122 = stablehlo.reshape %121 : (tensor<1x512x4096xf32>) -> tensor<1x32x16x4096xf32> loc(#loc225)
    %123 = stablehlo.reduce(%122 init: %36) applies stablehlo.add across dimensions = [2, 3] : (tensor<1x32x16x4096xf32>, tensor<f32>) -> tensor<1x32xf32> loc(#loc226)
    %124 = stablehlo.multiply %123, %30 : tensor<1x32xf32> loc(#loc227)
    %125 = stablehlo.broadcast_in_dim %124, dims = [0, 1] : (tensor<1x32xf32>) -> tensor<1x32x16x4096xf32> loc(#loc228)
    %126 = stablehlo.subtract %122, %125 : tensor<1x32x16x4096xf32> loc(#loc229)
    %127 = stablehlo.multiply %126, %126 : tensor<1x32x16x4096xf32> loc(#loc230)
    %128 = stablehlo.reduce(%127 init: %36) applies stablehlo.add across dimensions = [2, 3] : (tensor<1x32x16x4096xf32>, tensor<f32>) -> tensor<1x32xf32> loc(#loc231)
    %129 = stablehlo.multiply %128, %30 : tensor<1x32xf32> loc(#loc232)
    %130 = stablehlo.reshape %129 : (tensor<1x32xf32>) -> tensor<1x32x1x1xf32> loc(#loc233)
    %131 = stablehlo.add %130, %28 : tensor<1x32x1x1xf32> loc(#loc234)
    %132 = stablehlo.rsqrt %131 : tensor<1x32x1x1xf32> loc(#loc235)
    %133 = stablehlo.reshape %132 : (tensor<1x32x1x1xf32>) -> tensor<1x32xf32> loc(#loc236)
    %134 = stablehlo.broadcast_in_dim %133, dims = [0, 1] : (tensor<1x32xf32>) -> tensor<1x32x16x4096xf32> loc(#loc237)
    %135 = stablehlo.multiply %126, %134 : tensor<1x32x16x4096xf32> loc(#loc238)
    %136 = stablehlo.reshape %135 : (tensor<1x32x16x4096xf32>) -> tensor<1x512x4096xf32> loc(#loc239)
    %137 = stablehlo.reshape %arg130 : (tensor<512xbf16>) -> tensor<1x1x512xbf16> loc(#loc240)
    %138 = stablehlo.reshape %137 : (tensor<1x1x512xbf16>) -> tensor<1x512x1xbf16> loc(#loc241)
    %139 = stablehlo.convert %138 : (tensor<1x512x1xbf16>) -> tensor<1x512x1xf32> loc(#loc242)
    %140 = stablehlo.reshape %139 : (tensor<1x512x1xf32>) -> tensor<1x512xf32> loc(#loc243)
    %141 = stablehlo.broadcast_in_dim %140, dims = [0, 1] : (tensor<1x512xf32>) -> tensor<1x512x4096xf32> loc(#loc244)
    %142 = stablehlo.multiply %136, %141 : tensor<1x512x4096xf32> loc(#loc245)
    %143 = stablehlo.reshape %arg129 : (tensor<512xbf16>) -> tensor<1x1x512xbf16> loc(#loc246)
    %144 = stablehlo.reshape %143 : (tensor<1x1x512xbf16>) -> tensor<1x512x1xbf16> loc(#loc247)
    %145 = stablehlo.convert %144 : (tensor<1x512x1xbf16>) -> tensor<1x512x1xf32> loc(#loc248)
    %146 = stablehlo.reshape %145 : (tensor<1x512x1xf32>) -> tensor<1x512xf32> loc(#loc249)
    %147 = stablehlo.broadcast_in_dim %146, dims = [0, 1] : (tensor<1x512xf32>) -> tensor<1x512x4096xf32> loc(#loc250)
    %148 = stablehlo.add %142, %147 : tensor<1x512x4096xf32> loc(#loc251)
    %149 = stablehlo.convert %148 : (tensor<1x512x4096xf32>) -> tensor<1x512x4096xbf16> loc(#loc252)
    %150 = stablehlo.transpose %149, dims = [0, 2, 1] {result_layout = dense<[1, 2, 0]> : tensor<3xindex>, xla_shape = "bf16[1,4096,512]{1,2,0}"} : (tensor<1x512x4096xbf16>) -> tensor<1x4096x512xbf16> loc(#loc253)
    %151 = stablehlo.reshape %150 : (tensor<1x4096x512xbf16>) -> tensor<4096x512xbf16> loc(#loc254)
    %152 = stablehlo.reshape %arg134 : (tensor<512x512xbf16>) -> tensor<1x512x512xbf16> loc(#loc255)
    %153 = stablehlo.reshape %152 : (tensor<1x512x512xbf16>) -> tensor<512x512xbf16> loc(#loc256)
    %154 = stablehlo.transpose %153, dims = [1, 0] {result_layout = dense<[0, 1]> : tensor<2xindex>, xla_shape = "bf16[512,512]{0,1}"} : (tensor<512x512xbf16>) -> tensor<512x512xbf16> loc(#loc257)
    %155 = stablehlo.dot_general %151, %154, contracting_dims = [1] x [0] : (tensor<4096x512xbf16>, tensor<512x512xbf16>) -> tensor<4096x512xbf16> loc(#loc258)
    %156 = stablehlo.reshape %155 : (tensor<4096x512xbf16>) -> tensor<1x4096x512xbf16> loc(#loc259)
    %157 = stablehlo.reshape %arg133 : (tensor<512xbf16>) -> tensor<1x1x512xbf16> loc(#loc260)
    %158 = stablehlo.reshape %157 : (tensor<1x1x512xbf16>) -> tensor<512xbf16> loc(#loc261)
    %159 = stablehlo.broadcast_in_dim %158, dims = [2] : (tensor<512xbf16>) -> tensor<1x4096x512xbf16> loc(#loc262)
    %160 = stablehlo.add %156, %159 : tensor<1x4096x512xbf16> loc(#loc263)
    %161 = stablehlo.reshape %160 : (tensor<1x4096x512xbf16>) -> tensor<1x1x4096x512xbf16> loc(#loc264)
    %162 = stablehlo.convert %161 {result_layout = dense<[3, 1, 2, 0]> : tensor<4xindex>, xla_shape = "f32[1,1,4096,512]{3,1,2,0}"} : (tensor<1x1x4096x512xbf16>) -> tensor<1x1x4096x512xf32> loc(#loc265)
    %163 = stablehlo.multiply %162, %24 : tensor<1x1x4096x512xf32> loc(#loc266)
    %164 = stablehlo.reshape %arg132 : (tensor<512x512xbf16>) -> tensor<1x512x512xbf16> loc(#loc267)
    %165 = stablehlo.reshape %164 : (tensor<1x512x512xbf16>) -> tensor<512x512xbf16> loc(#loc268)
    %166 = stablehlo.transpose %165, dims = [1, 0] {result_layout = dense<[0, 1]> : tensor<2xindex>, xla_shape = "bf16[512,512]{0,1}"} : (tensor<512x512xbf16>) -> tensor<512x512xbf16> loc(#loc269)
    %167 = stablehlo.dot_general %151, %166, contracting_dims = [1] x [0] : (tensor<4096x512xbf16>, tensor<512x512xbf16>) -> tensor<4096x512xbf16> loc(#loc270)
    %168 = stablehlo.reshape %167 : (tensor<4096x512xbf16>) -> tensor<1x4096x512xbf16> loc(#loc271)
    %169 = stablehlo.reshape %arg131 : (tensor<512xbf16>) -> tensor<1x1x512xbf16> loc(#loc272)
    %170 = stablehlo.reshape %169 : (tensor<1x1x512xbf16>) -> tensor<512xbf16> loc(#loc273)
    %171 = stablehlo.broadcast_in_dim %170, dims = [2] : (tensor<512xbf16>) -> tensor<1x4096x512xbf16> loc(#loc274)
    %172 = stablehlo.add %168, %171 : tensor<1x4096x512xbf16> loc(#loc275)
    %173 = stablehlo.reshape %172 : (tensor<1x4096x512xbf16>) -> tensor<1x1x4096x512xbf16> loc(#loc276)
    %174 = stablehlo.convert %173 {result_layout = dense<[3, 1, 2, 0]> : tensor<4xindex>, xla_shape = "f32[1,1,4096,512]{3,1,2,0}"} : (tensor<1x1x4096x512xbf16>) -> tensor<1x1x4096x512xf32> loc(#loc277)
    %175 = stablehlo.transpose %174, dims = [0, 1, 3, 2] {result_layout = dense<[2, 1, 3, 0]> : tensor<4xindex>, xla_shape = "f32[1,1,512,4096]{2,1,3,0}"} : (tensor<1x1x4096x512xf32>) -> tensor<1x1x512x4096xf32> loc(#loc278)
    %176 = stablehlo.multiply %175, %22 : tensor<1x1x512x4096xf32> loc(#loc279)
    %177 = stablehlo.dot_general %163, %176, batching_dims = [0, 1] x [0, 1], contracting_dims = [3] x [2] {mhlo.frontend_attributes = {grad_x = "false", grad_y = "false"}} : (tensor<1x1x4096x512xf32>, tensor<1x1x512x4096xf32>) -> tensor<1x1x4096x4096xf32> loc(#loc280)
    %178 = stablehlo.convert %177 : (tensor<1x1x4096x4096xf32>) -> tensor<1x1x4096x4096xf64> loc(#loc281)
    %179 = stablehlo.compare  EQ, %178, %20 : (tensor<1x1x4096x4096xf64>, tensor<1x1x4096x4096xf64>) -> tensor<1x1x4096x4096xi1> loc(#loc282)
    %180 = stablehlo.not %179 : tensor<1x1x4096x4096xi1> loc(#loc283)
    %181 = stablehlo.reduce(%180 init: %35) across dimensions = [3] : (tensor<1x1x4096x4096xi1>, tensor<i1>) -> tensor<1x1x4096xi1>
     reducer(%arg139: tensor<i1> loc("reduce.1254"), %arg140: tensor<i1> loc("reduce.1254"))  {
      %1334 = sdy.constant dense<true> : tensor<i1> loc(#loc)
      %1335 = sdy.constant dense<false> : tensor<i1> loc(#loc)
      %1336 = stablehlo.or %arg139, %arg140 : tensor<i1> loc(#loc285)
      %1337 = stablehlo.select %1336, %1334, %1335 : tensor<i1>, tensor<i1> loc(#loc286)
      stablehlo.return %1337 : tensor<i1> loc(#loc)
    } loc(#loc284)
    %182 = stablehlo.reshape %181 : (tensor<1x1x4096xi1>) -> tensor<1x1x4096x1xi1> loc(#loc287)
    %183 = stablehlo.not %182 : tensor<1x1x4096x1xi1> loc(#loc288)
    %184 = stablehlo.reshape %183 : (tensor<1x1x4096x1xi1>) -> tensor<1x1x4096xi1> loc(#loc289)
    %185 = stablehlo.broadcast_in_dim %184, dims = [0, 1, 2] : (tensor<1x1x4096xi1>) -> tensor<1x1x4096x4096xi1> loc(#loc290)
    %186 = stablehlo.reduce(%177 init: %34) applies stablehlo.maximum across dimensions = [3] : (tensor<1x1x4096x4096xf32>, tensor<f32>) -> tensor<1x1x4096xf32> loc(#loc291)
    %187 = stablehlo.broadcast_in_dim %186, dims = [0, 1, 2] : (tensor<1x1x4096xf32>) -> tensor<1x1x4096x4096xf32> loc(#loc292)
    %188 = stablehlo.subtract %177, %187 : tensor<1x1x4096x4096xf32> loc(#loc293)
    %189 = stablehlo.exponential %188 : tensor<1x1x4096x4096xf32> loc(#loc294)
    %190 = stablehlo.reduce(%189 init: %36) applies stablehlo.add across dimensions = [3] : (tensor<1x1x4096x4096xf32>, tensor<f32>) -> tensor<1x1x4096xf32> loc(#loc295)
    %191 = stablehlo.broadcast_in_dim %190, dims = [0, 1, 2] : (tensor<1x1x4096xf32>) -> tensor<1x1x4096x4096xf32> loc(#loc296)
    %192 = stablehlo.divide %189, %191 : tensor<1x1x4096x4096xf32> loc(#loc297)
    %193 = stablehlo.select %185, %18, %192 : tensor<1x1x4096x4096xi1>, tensor<1x1x4096x4096xf32> loc(#loc298)
    %194 = stablehlo.reshape %arg128 : (tensor<512x512xbf16>) -> tensor<1x512x512xbf16> loc(#loc299)
    %195 = stablehlo.reshape %194 : (tensor<1x512x512xbf16>) -> tensor<512x512xbf16> loc(#loc300)
    %196 = stablehlo.transpose %195, dims = [1, 0] {result_layout = dense<[0, 1]> : tensor<2xindex>, xla_shape = "bf16[512,512]{0,1}"} : (tensor<512x512xbf16>) -> tensor<512x512xbf16> loc(#loc301)
    %197 = stablehlo.dot_general %151, %196, contracting_dims = [1] x [0] : (tensor<4096x512xbf16>, tensor<512x512xbf16>) -> tensor<4096x512xbf16> loc(#loc302)
    %198 = stablehlo.reshape %197 : (tensor<4096x512xbf16>) -> tensor<1x4096x512xbf16> loc(#loc303)
    %199 = stablehlo.reshape %arg127 : (tensor<512xbf16>) -> tensor<1x1x512xbf16> loc(#loc304)
    %200 = stablehlo.reshape %199 : (tensor<1x1x512xbf16>) -> tensor<512xbf16> loc(#loc305)
    %201 = stablehlo.broadcast_in_dim %200, dims = [2] : (tensor<512xbf16>) -> tensor<1x4096x512xbf16> loc(#loc306)
    %202 = stablehlo.add %198, %201 : tensor<1x4096x512xbf16> loc(#loc307)
    %203 = stablehlo.reshape %202 : (tensor<1x4096x512xbf16>) -> tensor<1x1x4096x512xbf16> loc(#loc308)
    %204 = stablehlo.convert %203 {result_layout = dense<[3, 1, 2, 0]> : tensor<4xindex>, xla_shape = "f32[1,1,4096,512]{3,1,2,0}"} : (tensor<1x1x4096x512xbf16>) -> tensor<1x1x4096x512xf32> loc(#loc309)
    %205 = stablehlo.dot_general %193, %204, batching_dims = [0, 1] x [0, 1], contracting_dims = [3] x [2] {mhlo.frontend_attributes = {grad_x = "false", grad_y = "false"}} : (tensor<1x1x4096x4096xf32>, tensor<1x1x4096x512xf32>) -> tensor<1x1x4096x512xf32> loc(#loc310)
    %206 = stablehlo.convert %205 : (tensor<1x1x4096x512xf32>) -> tensor<1x1x4096x512xbf16> loc(#loc311)
    %207 = stablehlo.reshape %206 : (tensor<1x1x4096x512xbf16>) -> tensor<4096x512xbf16> loc(#loc312)
    %208 = stablehlo.reshape %arg126 : (tensor<512x512xbf16>) -> tensor<1x512x512xbf16> loc(#loc313)
    %209 = stablehlo.reshape %208 : (tensor<1x512x512xbf16>) -> tensor<512x512xbf16> loc(#loc314)
    %210 = stablehlo.transpose %209, dims = [1, 0] {result_layout = dense<[0, 1]> : tensor<2xindex>, xla_shape = "bf16[512,512]{0,1}"} : (tensor<512x512xbf16>) -> tensor<512x512xbf16> loc(#loc315)
    %211 = stablehlo.dot_general %207, %210, contracting_dims = [1] x [0] : (tensor<4096x512xbf16>, tensor<512x512xbf16>) -> tensor<4096x512xbf16> loc(#loc316)
    %212 = stablehlo.reshape %211 : (tensor<4096x512xbf16>) -> tensor<1x4096x512xbf16> loc(#loc317)
    %213 = stablehlo.reshape %arg125 : (tensor<512xbf16>) -> tensor<1x1x512xbf16> loc(#loc318)
    %214 = stablehlo.reshape %213 : (tensor<1x1x512xbf16>) -> tensor<512xbf16> loc(#loc319)
    %215 = stablehlo.broadcast_in_dim %214, dims = [2] : (tensor<512xbf16>) -> tensor<1x4096x512xbf16> loc(#loc320)
    %216 = stablehlo.add %212, %215 : tensor<1x4096x512xbf16> loc(#loc321)
    %217 = stablehlo.transpose %216, dims = [0, 2, 1] {result_layout = dense<[1, 2, 0]> : tensor<3xindex>, xla_shape = "bf16[1,512,4096]{1,2,0}"} : (tensor<1x4096x512xbf16>) -> tensor<1x512x4096xbf16> loc(#loc322)
    %218 = stablehlo.reshape %217 : (tensor<1x512x4096xbf16>) -> tensor<1x512x64x64xbf16> loc(#loc323)
    %219 = stablehlo.add %218, %119 : tensor<1x512x64x64xbf16> loc(#loc324)
    %220 = stablehlo.divide %219, %26 : tensor<1x512x64x64xbf16> loc(#loc325)
    %221 = stablehlo.convert %220 : (tensor<1x512x64x64xbf16>) -> tensor<1x512x64x64xf32> loc(#loc326)
    %222 = stablehlo.reshape %221 : (tensor<1x512x64x64xf32>) -> tensor<1x32x16x4096xf32> loc(#loc327)
    %223 = stablehlo.reduce(%222 init: %36) applies stablehlo.add across dimensions = [2, 3] : (tensor<1x32x16x4096xf32>, tensor<f32>) -> tensor<1x32xf32> loc(#loc328)
    %224 = stablehlo.multiply %223, %30 : tensor<1x32xf32> loc(#loc329)
    %225 = stablehlo.broadcast_in_dim %224, dims = [0, 1] : (tensor<1x32xf32>) -> tensor<1x32x16x4096xf32> loc(#loc330)
    %226 = stablehlo.subtract %222, %225 : tensor<1x32x16x4096xf32> loc(#loc331)
    %227 = stablehlo.multiply %226, %226 : tensor<1x32x16x4096xf32> loc(#loc332)
    %228 = stablehlo.reduce(%227 init: %36) applies stablehlo.add across dimensions = [2, 3] : (tensor<1x32x16x4096xf32>, tensor<f32>) -> tensor<1x32xf32> loc(#loc333)
    %229 = stablehlo.multiply %228, %30 : tensor<1x32xf32> loc(#loc334)
    %230 = stablehlo.reshape %229 : (tensor<1x32xf32>) -> tensor<1x32x1x1xf32> loc(#loc335)
    %231 = stablehlo.add %230, %28 : tensor<1x32x1x1xf32> loc(#loc336)
    %232 = stablehlo.rsqrt %231 : tensor<1x32x1x1xf32> loc(#loc337)
    %233 = stablehlo.reshape %232 : (tensor<1x32x1x1xf32>) -> tensor<1x32xf32> loc(#loc338)
    %234 = stablehlo.broadcast_in_dim %233, dims = [0, 1] : (tensor<1x32xf32>) -> tensor<1x32x16x4096xf32> loc(#loc339)
    %235 = stablehlo.multiply %226, %234 : tensor<1x32x16x4096xf32> loc(#loc340)
    %236 = stablehlo.reshape %235 : (tensor<1x32x16x4096xf32>) -> tensor<1x512x64x64xf32> loc(#loc341)
    %237 = stablehlo.reshape %arg113 : (tensor<512xbf16>) -> tensor<1x1x512xbf16> loc(#loc342)
    %238 = stablehlo.reshape %237 : (tensor<1x1x512xbf16>) -> tensor<1x512x1x1xbf16> loc(#loc343)
    %239 = stablehlo.convert %238 : (tensor<1x512x1x1xbf16>) -> tensor<1x512x1x1xf32> loc(#loc344)
    %240 = stablehlo.reshape %239 : (tensor<1x512x1x1xf32>) -> tensor<1x512xf32> loc(#loc345)
    %241 = stablehlo.broadcast_in_dim %240, dims = [0, 1] : (tensor<1x512xf32>) -> tensor<1x512x64x64xf32> loc(#loc346)
    %242 = stablehlo.multiply %236, %241 : tensor<1x512x64x64xf32> loc(#loc347)
    %243 = stablehlo.reshape %arg112 : (tensor<512xbf16>) -> tensor<1x1x512xbf16> loc(#loc348)
    %244 = stablehlo.reshape %243 : (tensor<1x1x512xbf16>) -> tensor<1x512x1x1xbf16> loc(#loc349)
    %245 = stablehlo.convert %244 : (tensor<1x512x1x1xbf16>) -> tensor<1x512x1x1xf32> loc(#loc350)
    %246 = stablehlo.reshape %245 : (tensor<1x512x1x1xf32>) -> tensor<1x512xf32> loc(#loc351)
    %247 = stablehlo.broadcast_in_dim %246, dims = [0, 1] : (tensor<1x512xf32>) -> tensor<1x512x64x64xf32> loc(#loc352)
    %248 = stablehlo.add %242, %247 : tensor<1x512x64x64xf32> loc(#loc353)
    %249 = stablehlo.convert %248 : (tensor<1x512x64x64xf32>) -> tensor<1x512x64x64xbf16> loc(#loc354)
    %250 = stablehlo.convert %249 : (tensor<1x512x64x64xbf16>) -> tensor<1x512x64x64xf32> loc(#loc355)
    %251 = stablehlo.logistic %250 : tensor<1x512x64x64xf32> loc(#loc356)
    %252 = stablehlo.multiply %250, %251 : tensor<1x512x64x64xf32> loc(#loc357)
    %253 = stablehlo.convert %252 : (tensor<1x512x64x64xf32>) -> tensor<1x512x64x64xbf16> loc(#loc358)
    %254 = stablehlo.convolution(%253, %arg111) dim_numbers = [b, f, 0, 1]x[o, i, 0, 1]->[b, f, 0, 1], window = {pad = [[1, 1], [1, 1]]} {batch_group_count = 1 : i64, feature_group_count = 1 : i64} : (tensor<1x512x64x64xbf16>, tensor<512x512x3x3xbf16>) -> tensor<1x512x64x64xbf16> loc(#loc359)
    %255 = stablehlo.reshape %arg110 : (tensor<512xbf16>) -> tensor<1x1x512xbf16> loc(#loc360)
    %256 = stablehlo.reshape %255 : (tensor<1x1x512xbf16>) -> tensor<512xbf16> loc(#loc361)
    %257 = stablehlo.broadcast_in_dim %256, dims = [1] : (tensor<512xbf16>) -> tensor<1x512x64x64xbf16> loc(#loc362)
    %258 = stablehlo.add %254, %257 : tensor<1x512x64x64xbf16> loc(#loc363)
    %259 = stablehlo.convert %258 : (tensor<1x512x64x64xbf16>) -> tensor<1x512x64x64xf32> loc(#loc364)
    %260 = stablehlo.reshape %259 : (tensor<1x512x64x64xf32>) -> tensor<1x32x16x4096xf32> loc(#loc365)
    %261 = stablehlo.reduce(%260 init: %36) applies stablehlo.add across dimensions = [2, 3] : (tensor<1x32x16x4096xf32>, tensor<f32>) -> tensor<1x32xf32> loc(#loc366)
    %262 = stablehlo.multiply %261, %30 : tensor<1x32xf32> loc(#loc367)
    %263 = stablehlo.broadcast_in_dim %262, dims = [0, 1] : (tensor<1x32xf32>) -> tensor<1x32x16x4096xf32> loc(#loc368)
    %264 = stablehlo.subtract %260, %263 : tensor<1x32x16x4096xf32> loc(#loc369)
    %265 = stablehlo.multiply %264, %264 : tensor<1x32x16x4096xf32> loc(#loc370)
    %266 = stablehlo.reduce(%265 init: %36) applies stablehlo.add across dimensions = [2, 3] : (tensor<1x32x16x4096xf32>, tensor<f32>) -> tensor<1x32xf32> loc(#loc371)
    %267 = stablehlo.multiply %266, %30 : tensor<1x32xf32> loc(#loc372)
    %268 = stablehlo.reshape %267 : (tensor<1x32xf32>) -> tensor<1x32x1x1xf32> loc(#loc373)
    %269 = stablehlo.add %268, %28 : tensor<1x32x1x1xf32> loc(#loc374)
    %270 = stablehlo.rsqrt %269 : tensor<1x32x1x1xf32> loc(#loc375)
    %271 = stablehlo.reshape %270 : (tensor<1x32x1x1xf32>) -> tensor<1x32xf32> loc(#loc376)
    %272 = stablehlo.broadcast_in_dim %271, dims = [0, 1] : (tensor<1x32xf32>) -> tensor<1x32x16x4096xf32> loc(#loc377)
    %273 = stablehlo.multiply %264, %272 : tensor<1x32x16x4096xf32> loc(#loc378)
    %274 = stablehlo.reshape %273 : (tensor<1x32x16x4096xf32>) -> tensor<1x512x64x64xf32> loc(#loc379)
    %275 = stablehlo.reshape %arg109 : (tensor<512xbf16>) -> tensor<1x1x512xbf16> loc(#loc380)
    %276 = stablehlo.reshape %275 : (tensor<1x1x512xbf16>) -> tensor<1x512x1x1xbf16> loc(#loc381)
    %277 = stablehlo.convert %276 : (tensor<1x512x1x1xbf16>) -> tensor<1x512x1x1xf32> loc(#loc382)
    %278 = stablehlo.reshape %277 : (tensor<1x512x1x1xf32>) -> tensor<1x512xf32> loc(#loc383)
    %279 = stablehlo.broadcast_in_dim %278, dims = [0, 1] : (tensor<1x512xf32>) -> tensor<1x512x64x64xf32> loc(#loc384)
    %280 = stablehlo.multiply %274, %279 : tensor<1x512x64x64xf32> loc(#loc385)
    %281 = stablehlo.reshape %arg108 : (tensor<512xbf16>) -> tensor<1x1x512xbf16> loc(#loc386)
    %282 = stablehlo.reshape %281 : (tensor<1x1x512xbf16>) -> tensor<1x512x1x1xbf16> loc(#loc387)
    %283 = stablehlo.convert %282 : (tensor<1x512x1x1xbf16>) -> tensor<1x512x1x1xf32> loc(#loc388)
    %284 = stablehlo.reshape %283 : (tensor<1x512x1x1xf32>) -> tensor<1x512xf32> loc(#loc389)
    %285 = stablehlo.broadcast_in_dim %284, dims = [0, 1] : (tensor<1x512xf32>) -> tensor<1x512x64x64xf32> loc(#loc390)
    %286 = stablehlo.add %280, %285 : tensor<1x512x64x64xf32> loc(#loc391)
    %287 = stablehlo.convert %286 : (tensor<1x512x64x64xf32>) -> tensor<1x512x64x64xbf16> loc(#loc392)
    %288 = stablehlo.convert %287 : (tensor<1x512x64x64xbf16>) -> tensor<1x512x64x64xf32> loc(#loc393)
    %289 = stablehlo.logistic %288 : tensor<1x512x64x64xf32> loc(#loc394)
    %290 = stablehlo.multiply %288, %289 : tensor<1x512x64x64xf32> loc(#loc395)
    %291 = stablehlo.convert %290 : (tensor<1x512x64x64xf32>) -> tensor<1x512x64x64xbf16> loc(#loc396)
    %292 = stablehlo.convolution(%291, %arg107) dim_numbers = [b, f, 0, 1]x[o, i, 0, 1]->[b, f, 0, 1], window = {pad = [[1, 1], [1, 1]]} {batch_group_count = 1 : i64, feature_group_count = 1 : i64} : (tensor<1x512x64x64xbf16>, tensor<512x512x3x3xbf16>) -> tensor<1x512x64x64xbf16> loc(#loc397)
    %293 = stablehlo.reshape %arg106 : (tensor<512xbf16>) -> tensor<1x1x512xbf16> loc(#loc398)
    %294 = stablehlo.reshape %293 : (tensor<1x1x512xbf16>) -> tensor<512xbf16> loc(#loc399)
    %295 = stablehlo.broadcast_in_dim %294, dims = [1] : (tensor<512xbf16>) -> tensor<1x512x64x64xbf16> loc(#loc400)
    %296 = stablehlo.add %292, %295 : tensor<1x512x64x64xbf16> loc(#loc401)
    %297 = stablehlo.add %220, %296 : tensor<1x512x64x64xbf16> loc(#loc402)
    %298 = stablehlo.divide %297, %26 : tensor<1x512x64x64xbf16> loc(#loc403)
    %299 = stablehlo.convert %298 : (tensor<1x512x64x64xbf16>) -> tensor<1x512x64x64xf32> loc(#loc404)
    %300 = stablehlo.reshape %299 : (tensor<1x512x64x64xf32>) -> tensor<1x32x16x4096xf32> loc(#loc405)
    %301 = stablehlo.reduce(%300 init: %36) applies stablehlo.add across dimensions = [2, 3] : (tensor<1x32x16x4096xf32>, tensor<f32>) -> tensor<1x32xf32> loc(#loc406)
    %302 = stablehlo.multiply %301, %30 : tensor<1x32xf32> loc(#loc407)
    %303 = stablehlo.broadcast_in_dim %302, dims = [0, 1] : (tensor<1x32xf32>) -> tensor<1x32x16x4096xf32> loc(#loc408)
    %304 = stablehlo.subtract %300, %303 : tensor<1x32x16x4096xf32> loc(#loc409)
    %305 = stablehlo.multiply %304, %304 : tensor<1x32x16x4096xf32> loc(#loc410)
    %306 = stablehlo.reduce(%305 init: %36) applies stablehlo.add across dimensions = [2, 3] : (tensor<1x32x16x4096xf32>, tensor<f32>) -> tensor<1x32xf32> loc(#loc411)
    %307 = stablehlo.multiply %306, %30 : tensor<1x32xf32> loc(#loc412)
    %308 = stablehlo.reshape %307 : (tensor<1x32xf32>) -> tensor<1x32x1x1xf32> loc(#loc413)
    %309 = stablehlo.add %308, %28 : tensor<1x32x1x1xf32> loc(#loc414)
    %310 = stablehlo.rsqrt %309 : tensor<1x32x1x1xf32> loc(#loc415)
    %311 = stablehlo.reshape %310 : (tensor<1x32x1x1xf32>) -> tensor<1x32xf32> loc(#loc416)
    %312 = stablehlo.broadcast_in_dim %311, dims = [0, 1] : (tensor<1x32xf32>) -> tensor<1x32x16x4096xf32> loc(#loc417)
    %313 = stablehlo.multiply %304, %312 : tensor<1x32x16x4096xf32> loc(#loc418)
    %314 = stablehlo.reshape %313 : (tensor<1x32x16x4096xf32>) -> tensor<1x512x64x64xf32> loc(#loc419)
    %315 = stablehlo.reshape %arg105 : (tensor<512xbf16>) -> tensor<1x1x512xbf16> loc(#loc420)
    %316 = stablehlo.reshape %315 : (tensor<1x1x512xbf16>) -> tensor<1x512x1x1xbf16> loc(#loc421)
    %317 = stablehlo.convert %316 : (tensor<1x512x1x1xbf16>) -> tensor<1x512x1x1xf32> loc(#loc422)
    %318 = stablehlo.reshape %317 : (tensor<1x512x1x1xf32>) -> tensor<1x512xf32> loc(#loc423)
    %319 = stablehlo.broadcast_in_dim %318, dims = [0, 1] : (tensor<1x512xf32>) -> tensor<1x512x64x64xf32> loc(#loc424)
    %320 = stablehlo.multiply %314, %319 : tensor<1x512x64x64xf32> loc(#loc425)
    %321 = stablehlo.reshape %arg104 : (tensor<512xbf16>) -> tensor<1x1x512xbf16> loc(#loc426)
    %322 = stablehlo.reshape %321 : (tensor<1x1x512xbf16>) -> tensor<1x512x1x1xbf16> loc(#loc427)
    %323 = stablehlo.convert %322 : (tensor<1x512x1x1xbf16>) -> tensor<1x512x1x1xf32> loc(#loc428)
    %324 = stablehlo.reshape %323 : (tensor<1x512x1x1xf32>) -> tensor<1x512xf32> loc(#loc429)
    %325 = stablehlo.broadcast_in_dim %324, dims = [0, 1] : (tensor<1x512xf32>) -> tensor<1x512x64x64xf32> loc(#loc430)
    %326 = stablehlo.add %320, %325 : tensor<1x512x64x64xf32> loc(#loc431)
    %327 = stablehlo.convert %326 : (tensor<1x512x64x64xf32>) -> tensor<1x512x64x64xbf16> loc(#loc432)
    %328 = stablehlo.convert %327 : (tensor<1x512x64x64xbf16>) -> tensor<1x512x64x64xf32> loc(#loc433)
    %329 = stablehlo.logistic %328 : tensor<1x512x64x64xf32> loc(#loc434)
    %330 = stablehlo.multiply %328, %329 : tensor<1x512x64x64xf32> loc(#loc435)
    %331 = stablehlo.convert %330 : (tensor<1x512x64x64xf32>) -> tensor<1x512x64x64xbf16> loc(#loc436)
    %332 = stablehlo.convolution(%331, %arg103) dim_numbers = [b, f, 0, 1]x[o, i, 0, 1]->[b, f, 0, 1], window = {pad = [[1, 1], [1, 1]]} {batch_group_count = 1 : i64, feature_group_count = 1 : i64} : (tensor<1x512x64x64xbf16>, tensor<512x512x3x3xbf16>) -> tensor<1x512x64x64xbf16> loc(#loc437)
    %333 = stablehlo.reshape %arg102 : (tensor<512xbf16>) -> tensor<1x1x512xbf16> loc(#loc438)
    %334 = stablehlo.reshape %333 : (tensor<1x1x512xbf16>) -> tensor<512xbf16> loc(#loc439)
    %335 = stablehlo.broadcast_in_dim %334, dims = [1] : (tensor<512xbf16>) -> tensor<1x512x64x64xbf16> loc(#loc440)
    %336 = stablehlo.add %332, %335 : tensor<1x512x64x64xbf16> loc(#loc441)
    %337 = stablehlo.convert %336 : (tensor<1x512x64x64xbf16>) -> tensor<1x512x64x64xf32> loc(#loc442)
    %338 = stablehlo.reshape %337 : (tensor<1x512x64x64xf32>) -> tensor<1x32x16x4096xf32> loc(#loc443)
    %339 = stablehlo.reduce(%338 init: %36) applies stablehlo.add across dimensions = [2, 3] : (tensor<1x32x16x4096xf32>, tensor<f32>) -> tensor<1x32xf32> loc(#loc444)
    %340 = stablehlo.multiply %339, %30 : tensor<1x32xf32> loc(#loc445)
    %341 = stablehlo.broadcast_in_dim %340, dims = [0, 1] : (tensor<1x32xf32>) -> tensor<1x32x16x4096xf32> loc(#loc446)
    %342 = stablehlo.subtract %338, %341 : tensor<1x32x16x4096xf32> loc(#loc447)
    %343 = stablehlo.multiply %342, %342 : tensor<1x32x16x4096xf32> loc(#loc448)
    %344 = stablehlo.reduce(%343 init: %36) applies stablehlo.add across dimensions = [2, 3] : (tensor<1x32x16x4096xf32>, tensor<f32>) -> tensor<1x32xf32> loc(#loc449)
    %345 = stablehlo.multiply %344, %30 : tensor<1x32xf32> loc(#loc450)
    %346 = stablehlo.reshape %345 : (tensor<1x32xf32>) -> tensor<1x32x1x1xf32> loc(#loc451)
    %347 = stablehlo.add %346, %28 : tensor<1x32x1x1xf32> loc(#loc452)
    %348 = stablehlo.rsqrt %347 : tensor<1x32x1x1xf32> loc(#loc453)
    %349 = stablehlo.reshape %348 : (tensor<1x32x1x1xf32>) -> tensor<1x32xf32> loc(#loc454)
    %350 = stablehlo.broadcast_in_dim %349, dims = [0, 1] : (tensor<1x32xf32>) -> tensor<1x32x16x4096xf32> loc(#loc455)
    %351 = stablehlo.multiply %342, %350 : tensor<1x32x16x4096xf32> loc(#loc456)
    %352 = stablehlo.reshape %351 : (tensor<1x32x16x4096xf32>) -> tensor<1x512x64x64xf32> loc(#loc457)
    %353 = stablehlo.reshape %arg101 : (tensor<512xbf16>) -> tensor<1x1x512xbf16> loc(#loc458)
    %354 = stablehlo.reshape %353 : (tensor<1x1x512xbf16>) -> tensor<1x512x1x1xbf16> loc(#loc459)
    %355 = stablehlo.convert %354 : (tensor<1x512x1x1xbf16>) -> tensor<1x512x1x1xf32> loc(#loc460)
    %356 = stablehlo.reshape %355 : (tensor<1x512x1x1xf32>) -> tensor<1x512xf32> loc(#loc461)
    %357 = stablehlo.broadcast_in_dim %356, dims = [0, 1] : (tensor<1x512xf32>) -> tensor<1x512x64x64xf32> loc(#loc462)
    %358 = stablehlo.multiply %352, %357 : tensor<1x512x64x64xf32> loc(#loc463)
    %359 = stablehlo.reshape %arg100 : (tensor<512xbf16>) -> tensor<1x1x512xbf16> loc(#loc464)
    %360 = stablehlo.reshape %359 : (tensor<1x1x512xbf16>) -> tensor<1x512x1x1xbf16> loc(#loc465)
    %361 = stablehlo.convert %360 : (tensor<1x512x1x1xbf16>) -> tensor<1x512x1x1xf32> loc(#loc466)
    %362 = stablehlo.reshape %361 : (tensor<1x512x1x1xf32>) -> tensor<1x512xf32> loc(#loc467)
    %363 = stablehlo.broadcast_in_dim %362, dims = [0, 1] : (tensor<1x512xf32>) -> tensor<1x512x64x64xf32> loc(#loc468)
    %364 = stablehlo.add %358, %363 : tensor<1x512x64x64xf32> loc(#loc469)
    %365 = stablehlo.convert %364 : (tensor<1x512x64x64xf32>) -> tensor<1x512x64x64xbf16> loc(#loc470)
    %366 = stablehlo.convert %365 : (tensor<1x512x64x64xbf16>) -> tensor<1x512x64x64xf32> loc(#loc471)
    %367 = stablehlo.logistic %366 : tensor<1x512x64x64xf32> loc(#loc472)
    %368 = stablehlo.multiply %366, %367 : tensor<1x512x64x64xf32> loc(#loc473)
    %369 = stablehlo.convert %368 : (tensor<1x512x64x64xf32>) -> tensor<1x512x64x64xbf16> loc(#loc474)
    %370 = stablehlo.convolution(%369, %arg99) dim_numbers = [b, f, 0, 1]x[o, i, 0, 1]->[b, f, 0, 1], window = {pad = [[1, 1], [1, 1]]} {batch_group_count = 1 : i64, feature_group_count = 1 : i64} : (tensor<1x512x64x64xbf16>, tensor<512x512x3x3xbf16>) -> tensor<1x512x64x64xbf16> loc(#loc475)
    %371 = stablehlo.reshape %arg98 : (tensor<512xbf16>) -> tensor<1x1x512xbf16> loc(#loc476)
    %372 = stablehlo.reshape %371 : (tensor<1x1x512xbf16>) -> tensor<512xbf16> loc(#loc477)
    %373 = stablehlo.broadcast_in_dim %372, dims = [1] : (tensor<512xbf16>) -> tensor<1x512x64x64xbf16> loc(#loc478)
    %374 = stablehlo.add %370, %373 : tensor<1x512x64x64xbf16> loc(#loc479)
    %375 = stablehlo.add %298, %374 : tensor<1x512x64x64xbf16> loc(#loc480)
    %376 = stablehlo.divide %375, %26 : tensor<1x512x64x64xbf16> loc(#loc481)
    %377 = stablehlo.convert %376 : (tensor<1x512x64x64xbf16>) -> tensor<1x512x64x64xf32> loc(#loc482)
    %378 = stablehlo.reshape %377 : (tensor<1x512x64x64xf32>) -> tensor<1x32x16x4096xf32> loc(#loc483)
    %379 = stablehlo.reduce(%378 init: %36) applies stablehlo.add across dimensions = [2, 3] : (tensor<1x32x16x4096xf32>, tensor<f32>) -> tensor<1x32xf32> loc(#loc484)
    %380 = stablehlo.multiply %379, %30 : tensor<1x32xf32> loc(#loc485)
    %381 = stablehlo.broadcast_in_dim %380, dims = [0, 1] : (tensor<1x32xf32>) -> tensor<1x32x16x4096xf32> loc(#loc486)
    %382 = stablehlo.subtract %378, %381 : tensor<1x32x16x4096xf32> loc(#loc487)
    %383 = stablehlo.multiply %382, %382 : tensor<1x32x16x4096xf32> loc(#loc488)
    %384 = stablehlo.reduce(%383 init: %36) applies stablehlo.add across dimensions = [2, 3] : (tensor<1x32x16x4096xf32>, tensor<f32>) -> tensor<1x32xf32> loc(#loc489)
    %385 = stablehlo.multiply %384, %30 : tensor<1x32xf32> loc(#loc490)
    %386 = stablehlo.reshape %385 : (tensor<1x32xf32>) -> tensor<1x32x1x1xf32> loc(#loc491)
    %387 = stablehlo.add %386, %28 : tensor<1x32x1x1xf32> loc(#loc492)
    %388 = stablehlo.rsqrt %387 : tensor<1x32x1x1xf32> loc(#loc493)
    %389 = stablehlo.reshape %388 : (tensor<1x32x1x1xf32>) -> tensor<1x32xf32> loc(#loc494)
    %390 = stablehlo.broadcast_in_dim %389, dims = [0, 1] : (tensor<1x32xf32>) -> tensor<1x32x16x4096xf32> loc(#loc495)
    %391 = stablehlo.multiply %382, %390 : tensor<1x32x16x4096xf32> loc(#loc496)
    %392 = stablehlo.reshape %391 : (tensor<1x32x16x4096xf32>) -> tensor<1x512x64x64xf32> loc(#loc497)
    %393 = stablehlo.reshape %arg97 : (tensor<512xbf16>) -> tensor<1x1x512xbf16> loc(#loc498)
    %394 = stablehlo.reshape %393 : (tensor<1x1x512xbf16>) -> tensor<1x512x1x1xbf16> loc(#loc499)
    %395 = stablehlo.convert %394 : (tensor<1x512x1x1xbf16>) -> tensor<1x512x1x1xf32> loc(#loc500)
    %396 = stablehlo.reshape %395 : (tensor<1x512x1x1xf32>) -> tensor<1x512xf32> loc(#loc501)
    %397 = stablehlo.broadcast_in_dim %396, dims = [0, 1] : (tensor<1x512xf32>) -> tensor<1x512x64x64xf32> loc(#loc502)
    %398 = stablehlo.multiply %392, %397 : tensor<1x512x64x64xf32> loc(#loc503)
    %399 = stablehlo.reshape %arg96 : (tensor<512xbf16>) -> tensor<1x1x512xbf16> loc(#loc504)
    %400 = stablehlo.reshape %399 : (tensor<1x1x512xbf16>) -> tensor<1x512x1x1xbf16> loc(#loc505)
    %401 = stablehlo.convert %400 : (tensor<1x512x1x1xbf16>) -> tensor<1x512x1x1xf32> loc(#loc506)
    %402 = stablehlo.reshape %401 : (tensor<1x512x1x1xf32>) -> tensor<1x512xf32> loc(#loc507)
    %403 = stablehlo.broadcast_in_dim %402, dims = [0, 1] : (tensor<1x512xf32>) -> tensor<1x512x64x64xf32> loc(#loc508)
    %404 = stablehlo.add %398, %403 : tensor<1x512x64x64xf32> loc(#loc509)
    %405 = stablehlo.convert %404 : (tensor<1x512x64x64xf32>) -> tensor<1x512x64x64xbf16> loc(#loc510)
    %406 = stablehlo.convert %405 : (tensor<1x512x64x64xbf16>) -> tensor<1x512x64x64xf32> loc(#loc511)
    %407 = stablehlo.logistic %406 : tensor<1x512x64x64xf32> loc(#loc512)
    %408 = stablehlo.multiply %406, %407 : tensor<1x512x64x64xf32> loc(#loc513)
    %409 = stablehlo.convert %408 : (tensor<1x512x64x64xf32>) -> tensor<1x512x64x64xbf16> loc(#loc514)
    %410 = stablehlo.convolution(%409, %arg95) dim_numbers = [b, f, 0, 1]x[o, i, 0, 1]->[b, f, 0, 1], window = {pad = [[1, 1], [1, 1]]} {batch_group_count = 1 : i64, feature_group_count = 1 : i64} : (tensor<1x512x64x64xbf16>, tensor<512x512x3x3xbf16>) -> tensor<1x512x64x64xbf16> loc(#loc515)
    %411 = stablehlo.reshape %arg94 : (tensor<512xbf16>) -> tensor<1x1x512xbf16> loc(#loc516)
    %412 = stablehlo.reshape %411 : (tensor<1x1x512xbf16>) -> tensor<512xbf16> loc(#loc517)
    %413 = stablehlo.broadcast_in_dim %412, dims = [1] : (tensor<512xbf16>) -> tensor<1x512x64x64xbf16> loc(#loc518)
    %414 = stablehlo.add %410, %413 : tensor<1x512x64x64xbf16> loc(#loc519)
    %415 = stablehlo.convert %414 : (tensor<1x512x64x64xbf16>) -> tensor<1x512x64x64xf32> loc(#loc520)
    %416 = stablehlo.reshape %415 : (tensor<1x512x64x64xf32>) -> tensor<1x32x16x4096xf32> loc(#loc521)
    %417 = stablehlo.reduce(%416 init: %36) applies stablehlo.add across dimensions = [2, 3] : (tensor<1x32x16x4096xf32>, tensor<f32>) -> tensor<1x32xf32> loc(#loc522)
    %418 = stablehlo.multiply %417, %30 : tensor<1x32xf32> loc(#loc523)
    %419 = stablehlo.broadcast_in_dim %418, dims = [0, 1] : (tensor<1x32xf32>) -> tensor<1x32x16x4096xf32> loc(#loc524)
    %420 = stablehlo.subtract %416, %419 : tensor<1x32x16x4096xf32> loc(#loc525)
    %421 = stablehlo.multiply %420, %420 : tensor<1x32x16x4096xf32> loc(#loc526)
    %422 = stablehlo.reduce(%421 init: %36) applies stablehlo.add across dimensions = [2, 3] : (tensor<1x32x16x4096xf32>, tensor<f32>) -> tensor<1x32xf32> loc(#loc527)
    %423 = stablehlo.multiply %422, %30 : tensor<1x32xf32> loc(#loc528)
    %424 = stablehlo.reshape %423 : (tensor<1x32xf32>) -> tensor<1x32x1x1xf32> loc(#loc529)
    %425 = stablehlo.add %424, %28 : tensor<1x32x1x1xf32> loc(#loc530)
    %426 = stablehlo.rsqrt %425 : tensor<1x32x1x1xf32> loc(#loc531)
    %427 = stablehlo.reshape %426 : (tensor<1x32x1x1xf32>) -> tensor<1x32xf32> loc(#loc532)
    %428 = stablehlo.broadcast_in_dim %427, dims = [0, 1] : (tensor<1x32xf32>) -> tensor<1x32x16x4096xf32> loc(#loc533)
    %429 = stablehlo.multiply %420, %428 : tensor<1x32x16x4096xf32> loc(#loc534)
    %430 = stablehlo.reshape %429 : (tensor<1x32x16x4096xf32>) -> tensor<1x512x64x64xf32> loc(#loc535)
    %431 = stablehlo.reshape %arg93 : (tensor<512xbf16>) -> tensor<1x1x512xbf16> loc(#loc536)
    %432 = stablehlo.reshape %431 : (tensor<1x1x512xbf16>) -> tensor<1x512x1x1xbf16> loc(#loc537)
    %433 = stablehlo.convert %432 : (tensor<1x512x1x1xbf16>) -> tensor<1x512x1x1xf32> loc(#loc538)
    %434 = stablehlo.reshape %433 : (tensor<1x512x1x1xf32>) -> tensor<1x512xf32> loc(#loc539)
    %435 = stablehlo.broadcast_in_dim %434, dims = [0, 1] : (tensor<1x512xf32>) -> tensor<1x512x64x64xf32> loc(#loc540)
    %436 = stablehlo.multiply %430, %435 : tensor<1x512x64x64xf32> loc(#loc541)
    %437 = stablehlo.reshape %arg92 : (tensor<512xbf16>) -> tensor<1x1x512xbf16> loc(#loc542)
    %438 = stablehlo.reshape %437 : (tensor<1x1x512xbf16>) -> tensor<1x512x1x1xbf16> loc(#loc543)
    %439 = stablehlo.convert %438 : (tensor<1x512x1x1xbf16>) -> tensor<1x512x1x1xf32> loc(#loc544)
    %440 = stablehlo.reshape %439 : (tensor<1x512x1x1xf32>) -> tensor<1x512xf32> loc(#loc545)
    %441 = stablehlo.broadcast_in_dim %440, dims = [0, 1] : (tensor<1x512xf32>) -> tensor<1x512x64x64xf32> loc(#loc546)
    %442 = stablehlo.add %436, %441 : tensor<1x512x64x64xf32> loc(#loc547)
    %443 = stablehlo.convert %442 : (tensor<1x512x64x64xf32>) -> tensor<1x512x64x64xbf16> loc(#loc548)
    %444 = stablehlo.convert %443 : (tensor<1x512x64x64xbf16>) -> tensor<1x512x64x64xf32> loc(#loc549)
    %445 = stablehlo.logistic %444 : tensor<1x512x64x64xf32> loc(#loc550)
    %446 = stablehlo.multiply %444, %445 : tensor<1x512x64x64xf32> loc(#loc551)
    %447 = stablehlo.convert %446 : (tensor<1x512x64x64xf32>) -> tensor<1x512x64x64xbf16> loc(#loc552)
    %448 = stablehlo.convolution(%447, %arg91) dim_numbers = [b, f, 0, 1]x[o, i, 0, 1]->[b, f, 0, 1], window = {pad = [[1, 1], [1, 1]]} {batch_group_count = 1 : i64, feature_group_count = 1 : i64} : (tensor<1x512x64x64xbf16>, tensor<512x512x3x3xbf16>) -> tensor<1x512x64x64xbf16> loc(#loc553)
    %449 = stablehlo.reshape %arg90 : (tensor<512xbf16>) -> tensor<1x1x512xbf16> loc(#loc554)
    %450 = stablehlo.reshape %449 : (tensor<1x1x512xbf16>) -> tensor<512xbf16> loc(#loc555)
    %451 = stablehlo.broadcast_in_dim %450, dims = [1] : (tensor<512xbf16>) -> tensor<1x512x64x64xbf16> loc(#loc556)
    %452 = stablehlo.add %448, %451 : tensor<1x512x64x64xbf16> loc(#loc557)
    %453 = stablehlo.add %376, %452 : tensor<1x512x64x64xbf16> loc(#loc558)
    %454 = stablehlo.divide %453, %26 : tensor<1x512x64x64xbf16> loc(#loc559)
    %455 = stablehlo.convert %454 : (tensor<1x512x64x64xbf16>) -> tensor<1x512x64x64xf32> loc(#loc560)
    %456 = stablehlo.reshape %455 : (tensor<1x512x64x64xf32>) -> tensor<1x32x16x4096xf32> loc(#loc561)
    %457 = stablehlo.reduce(%456 init: %36) applies stablehlo.add across dimensions = [2, 3] : (tensor<1x32x16x4096xf32>, tensor<f32>) -> tensor<1x32xf32> loc(#loc562)
    %458 = stablehlo.multiply %457, %30 : tensor<1x32xf32> loc(#loc563)
    %459 = stablehlo.broadcast_in_dim %458, dims = [0, 1] : (tensor<1x32xf32>) -> tensor<1x32x16x4096xf32> loc(#loc564)
    %460 = stablehlo.subtract %456, %459 : tensor<1x32x16x4096xf32> loc(#loc565)
    %461 = stablehlo.multiply %460, %460 : tensor<1x32x16x4096xf32> loc(#loc566)
    %462 = stablehlo.reduce(%461 init: %36) applies stablehlo.add across dimensions = [2, 3] : (tensor<1x32x16x4096xf32>, tensor<f32>) -> tensor<1x32xf32> loc(#loc567)
    %463 = stablehlo.multiply %462, %30 : tensor<1x32xf32> loc(#loc568)
    %464 = stablehlo.reshape %463 : (tensor<1x32xf32>) -> tensor<1x32x1x1xf32> loc(#loc569)
    %465 = stablehlo.add %464, %28 : tensor<1x32x1x1xf32> loc(#loc570)
    %466 = stablehlo.rsqrt %465 : tensor<1x32x1x1xf32> loc(#loc571)
    %467 = stablehlo.reshape %466 : (tensor<1x32x1x1xf32>) -> tensor<1x32xf32> loc(#loc572)
    %468 = stablehlo.broadcast_in_dim %467, dims = [0, 1] : (tensor<1x32xf32>) -> tensor<1x32x16x4096xf32> loc(#loc573)
    %469 = stablehlo.multiply %460, %468 : tensor<1x32x16x4096xf32> loc(#loc574)
    %470 = stablehlo.reshape %469 : (tensor<1x32x16x4096xf32>) -> tensor<1x512x64x64xf32> loc(#loc575)
    %471 = stablehlo.reshape %arg89 : (tensor<512xbf16>) -> tensor<1x1x512xbf16> loc(#loc576)
    %472 = stablehlo.reshape %471 : (tensor<1x1x512xbf16>) -> tensor<1x512x1x1xbf16> loc(#loc577)
    %473 = stablehlo.convert %472 : (tensor<1x512x1x1xbf16>) -> tensor<1x512x1x1xf32> loc(#loc578)
    %474 = stablehlo.reshape %473 : (tensor<1x512x1x1xf32>) -> tensor<1x512xf32> loc(#loc579)
    %475 = stablehlo.broadcast_in_dim %474, dims = [0, 1] : (tensor<1x512xf32>) -> tensor<1x512x64x64xf32> loc(#loc580)
    %476 = stablehlo.multiply %470, %475 : tensor<1x512x64x64xf32> loc(#loc581)
    %477 = stablehlo.reshape %arg88 : (tensor<512xbf16>) -> tensor<1x1x512xbf16> loc(#loc582)
    %478 = stablehlo.reshape %477 : (tensor<1x1x512xbf16>) -> tensor<1x512x1x1xbf16> loc(#loc583)
    %479 = stablehlo.convert %478 : (tensor<1x512x1x1xbf16>) -> tensor<1x512x1x1xf32> loc(#loc584)
    %480 = stablehlo.reshape %479 : (tensor<1x512x1x1xf32>) -> tensor<1x512xf32> loc(#loc585)
    %481 = stablehlo.broadcast_in_dim %480, dims = [0, 1] : (tensor<1x512xf32>) -> tensor<1x512x64x64xf32> loc(#loc586)
    %482 = stablehlo.add %476, %481 : tensor<1x512x64x64xf32> loc(#loc587)
    %483 = stablehlo.convert %482 : (tensor<1x512x64x64xf32>) -> tensor<1x512x64x64xbf16> loc(#loc588)
    %484 = stablehlo.convert %483 : (tensor<1x512x64x64xbf16>) -> tensor<1x512x64x64xf32> loc(#loc589)
    %485 = stablehlo.logistic %484 : tensor<1x512x64x64xf32> loc(#loc590)
    %486 = stablehlo.multiply %484, %485 : tensor<1x512x64x64xf32> loc(#loc591)
    %487 = stablehlo.convert %486 : (tensor<1x512x64x64xf32>) -> tensor<1x512x64x64xbf16> loc(#loc592)
    %488 = stablehlo.convolution(%487, %arg87) dim_numbers = [b, f, 0, 1]x[o, i, 0, 1]->[b, f, 0, 1], window = {pad = [[1, 1], [1, 1]]} {batch_group_count = 1 : i64, feature_group_count = 1 : i64} : (tensor<1x512x64x64xbf16>, tensor<512x512x3x3xbf16>) -> tensor<1x512x64x64xbf16> loc(#loc593)
    %489 = stablehlo.reshape %arg86 : (tensor<512xbf16>) -> tensor<1x1x512xbf16> loc(#loc594)
    %490 = stablehlo.reshape %489 : (tensor<1x1x512xbf16>) -> tensor<512xbf16> loc(#loc595)
    %491 = stablehlo.broadcast_in_dim %490, dims = [1] : (tensor<512xbf16>) -> tensor<1x512x64x64xbf16> loc(#loc596)
    %492 = stablehlo.add %488, %491 : tensor<1x512x64x64xbf16> loc(#loc597)
    %493 = stablehlo.convert %492 : (tensor<1x512x64x64xbf16>) -> tensor<1x512x64x64xf32> loc(#loc598)
    %494 = stablehlo.reshape %493 : (tensor<1x512x64x64xf32>) -> tensor<1x32x16x4096xf32> loc(#loc599)
    %495 = stablehlo.reduce(%494 init: %36) applies stablehlo.add across dimensions = [2, 3] : (tensor<1x32x16x4096xf32>, tensor<f32>) -> tensor<1x32xf32> loc(#loc600)
    %496 = stablehlo.multiply %495, %30 : tensor<1x32xf32> loc(#loc601)
    %497 = stablehlo.broadcast_in_dim %496, dims = [0, 1] : (tensor<1x32xf32>) -> tensor<1x32x16x4096xf32> loc(#loc602)
    %498 = stablehlo.subtract %494, %497 : tensor<1x32x16x4096xf32> loc(#loc603)
    %499 = stablehlo.multiply %498, %498 : tensor<1x32x16x4096xf32> loc(#loc604)
    %500 = stablehlo.reduce(%499 init: %36) applies stablehlo.add across dimensions = [2, 3] : (tensor<1x32x16x4096xf32>, tensor<f32>) -> tensor<1x32xf32> loc(#loc605)
    %501 = stablehlo.multiply %500, %30 : tensor<1x32xf32> loc(#loc606)
    %502 = stablehlo.reshape %501 : (tensor<1x32xf32>) -> tensor<1x32x1x1xf32> loc(#loc607)
    %503 = stablehlo.add %502, %28 : tensor<1x32x1x1xf32> loc(#loc608)
    %504 = stablehlo.rsqrt %503 : tensor<1x32x1x1xf32> loc(#loc609)
    %505 = stablehlo.reshape %504 : (tensor<1x32x1x1xf32>) -> tensor<1x32xf32> loc(#loc610)
    %506 = stablehlo.broadcast_in_dim %505, dims = [0, 1] : (tensor<1x32xf32>) -> tensor<1x32x16x4096xf32> loc(#loc611)
    %507 = stablehlo.multiply %498, %506 : tensor<1x32x16x4096xf32> loc(#loc612)
    %508 = stablehlo.reshape %507 : (tensor<1x32x16x4096xf32>) -> tensor<1x512x64x64xf32> loc(#loc613)
    %509 = stablehlo.reshape %arg85 : (tensor<512xbf16>) -> tensor<1x1x512xbf16> loc(#loc614)
    %510 = stablehlo.reshape %509 : (tensor<1x1x512xbf16>) -> tensor<1x512x1x1xbf16> loc(#loc615)
    %511 = stablehlo.convert %510 : (tensor<1x512x1x1xbf16>) -> tensor<1x512x1x1xf32> loc(#loc616)
    %512 = stablehlo.reshape %511 : (tensor<1x512x1x1xf32>) -> tensor<1x512xf32> loc(#loc617)
    %513 = stablehlo.broadcast_in_dim %512, dims = [0, 1] : (tensor<1x512xf32>) -> tensor<1x512x64x64xf32> loc(#loc618)
    %514 = stablehlo.multiply %508, %513 : tensor<1x512x64x64xf32> loc(#loc619)
    %515 = stablehlo.reshape %arg84 : (tensor<512xbf16>) -> tensor<1x1x512xbf16> loc(#loc620)
    %516 = stablehlo.reshape %515 : (tensor<1x1x512xbf16>) -> tensor<1x512x1x1xbf16> loc(#loc621)
    %517 = stablehlo.convert %516 : (tensor<1x512x1x1xbf16>) -> tensor<1x512x1x1xf32> loc(#loc622)
    %518 = stablehlo.reshape %517 : (tensor<1x512x1x1xf32>) -> tensor<1x512xf32> loc(#loc623)
    %519 = stablehlo.broadcast_in_dim %518, dims = [0, 1] : (tensor<1x512xf32>) -> tensor<1x512x64x64xf32> loc(#loc624)
    %520 = stablehlo.add %514, %519 : tensor<1x512x64x64xf32> loc(#loc625)
    %521 = stablehlo.convert %520 : (tensor<1x512x64x64xf32>) -> tensor<1x512x64x64xbf16> loc(#loc626)
    %522 = stablehlo.convert %521 : (tensor<1x512x64x64xbf16>) -> tensor<1x512x64x64xf32> loc(#loc627)
    %523 = stablehlo.logistic %522 : tensor<1x512x64x64xf32> loc(#loc628)
    %524 = stablehlo.multiply %522, %523 : tensor<1x512x64x64xf32> loc(#loc629)
    %525 = stablehlo.convert %524 : (tensor<1x512x64x64xf32>) -> tensor<1x512x64x64xbf16> loc(#loc630)
    %526 = stablehlo.convolution(%525, %arg83) dim_numbers = [b, f, 0, 1]x[o, i, 0, 1]->[b, f, 0, 1], window = {pad = [[1, 1], [1, 1]]} {batch_group_count = 1 : i64, feature_group_count = 1 : i64} : (tensor<1x512x64x64xbf16>, tensor<512x512x3x3xbf16>) -> tensor<1x512x64x64xbf16> loc(#loc631)
    %527 = stablehlo.reshape %arg82 : (tensor<512xbf16>) -> tensor<1x1x512xbf16> loc(#loc632)
    %528 = stablehlo.reshape %527 : (tensor<1x1x512xbf16>) -> tensor<512xbf16> loc(#loc633)
    %529 = stablehlo.broadcast_in_dim %528, dims = [1] : (tensor<512xbf16>) -> tensor<1x512x64x64xbf16> loc(#loc634)
    %530 = stablehlo.add %526, %529 : tensor<1x512x64x64xbf16> loc(#loc635)
    %531 = stablehlo.add %454, %530 : tensor<1x512x64x64xbf16> loc(#loc636)
    %532 = stablehlo.divide %531, %26 : tensor<1x512x64x64xbf16> loc(#loc637)
    %533 = stablehlo.transpose %532, dims = [0, 1, 3, 2] {result_layout = dense<[2, 3, 1, 0]> : tensor<4xindex>, xla_shape = "bf16[1,512,64,64]{2,3,1,0}"} : (tensor<1x512x64x64xbf16>) -> tensor<1x512x64x64xbf16> loc(#loc638)
    %534 = stablehlo.floor %16 : tensor<128xf64> loc(#loc639)
    %535 = stablehlo.convert %534 : (tensor<128xf64>) -> tensor<128xi64> loc(#loc640)
    %536 = stablehlo.broadcast_in_dim %535, dims = [0] : (tensor<128xi64>) -> tensor<128x64xi64> loc(#loc641)
    %537 = stablehlo.broadcast_in_dim %33, dims = [1] : (tensor<64xi64>) -> tensor<128x64xi64> loc(#loc642)
    %538 = stablehlo.compare  EQ, %536, %537 : (tensor<128x64xi64>, tensor<128x64xi64>) -> tensor<128x64xi1> loc(#loc643)
    %539 = stablehlo.convert %538 : (tensor<128x64xi1>) -> tensor<128x64xi64> loc(#loc644)
    %540 = stablehlo.transpose %539, dims = [1, 0] {result_layout = dense<[0, 1]> : tensor<2xindex>, xla_shape = "s64[64,128]{0,1}"} : (tensor<128x64xi64>) -> tensor<64x128xi64> loc(#loc645)
    %541 = stablehlo.convert %540 {result_layout = dense<[0, 1]> : tensor<2xindex>, xla_shape = "bf16[64,128]{0,1}"} : (tensor<64x128xi64>) -> tensor<64x128xbf16> loc(#loc646)
    %542 = stablehlo.dot_general %533, %541, contracting_dims = [3] x [0] {mhlo.frontend_attributes = {grad_x = "false", grad_y = "false"}} : (tensor<1x512x64x64xbf16>, tensor<64x128xbf16>) -> tensor<1x512x64x128xbf16> loc(#loc647)
    %543 = stablehlo.transpose %542, dims = [0, 1, 3, 2] {result_layout = dense<[2, 3, 1, 0]> : tensor<4xindex>, xla_shape = "bf16[1,512,128,64]{2,3,1,0}"} : (tensor<1x512x64x128xbf16>) -> tensor<1x512x128x64xbf16> loc(#loc648)
    %544 = stablehlo.dot_general %543, %541, contracting_dims = [3] x [0] {mhlo.frontend_attributes = {grad_x = "false", grad_y = "false"}} : (tensor<1x512x128x64xbf16>, tensor<64x128xbf16>) -> tensor<1x512x128x128xbf16> loc(#loc649)
    %545 = stablehlo.convolution(%544, %arg81) dim_numbers = [b, f, 0, 1]x[o, i, 0, 1]->[b, f, 0, 1], window = {pad = [[1, 1], [1, 1]]} {batch_group_count = 1 : i64, feature_group_count = 1 : i64} : (tensor<1x512x128x128xbf16>, tensor<512x512x3x3xbf16>) -> tensor<1x512x128x128xbf16> loc(#loc650)
    %546 = stablehlo.reshape %arg80 : (tensor<512xbf16>) -> tensor<1x1x512xbf16> loc(#loc651)
    %547 = stablehlo.reshape %546 : (tensor<1x1x512xbf16>) -> tensor<512xbf16> loc(#loc652)
    %548 = stablehlo.broadcast_in_dim %547, dims = [1] : (tensor<512xbf16>) -> tensor<1x512x128x128xbf16> loc(#loc653)
    %549 = stablehlo.add %545, %548 : tensor<1x512x128x128xbf16> loc(#loc654)
    %550 = stablehlo.convert %549 : (tensor<1x512x128x128xbf16>) -> tensor<1x512x128x128xf32> loc(#loc655)
    %551 = stablehlo.reshape %550 : (tensor<1x512x128x128xf32>) -> tensor<1x32x16x16384xf32> loc(#loc656)
    %552 = stablehlo.reduce(%551 init: %36) applies stablehlo.add across dimensions = [2, 3] : (tensor<1x32x16x16384xf32>, tensor<f32>) -> tensor<1x32xf32> loc(#loc657)
    %553 = stablehlo.multiply %552, %15 : tensor<1x32xf32> loc(#loc658)
    %554 = stablehlo.broadcast_in_dim %553, dims = [0, 1] : (tensor<1x32xf32>) -> tensor<1x32x16x16384xf32> loc(#loc659)
    %555 = stablehlo.subtract %551, %554 : tensor<1x32x16x16384xf32> loc(#loc660)
    %556 = stablehlo.multiply %555, %555 : tensor<1x32x16x16384xf32> loc(#loc661)
    %557 = stablehlo.reduce(%556 init: %36) applies stablehlo.add across dimensions = [2, 3] : (tensor<1x32x16x16384xf32>, tensor<f32>) -> tensor<1x32xf32> loc(#loc662)
    %558 = stablehlo.multiply %557, %15 : tensor<1x32xf32> loc(#loc663)
    %559 = stablehlo.reshape %558 : (tensor<1x32xf32>) -> tensor<1x32x1x1xf32> loc(#loc664)
    %560 = stablehlo.add %559, %28 : tensor<1x32x1x1xf32> loc(#loc665)
    %561 = stablehlo.rsqrt %560 : tensor<1x32x1x1xf32> loc(#loc666)
    %562 = stablehlo.reshape %561 : (tensor<1x32x1x1xf32>) -> tensor<1x32xf32> loc(#loc667)
    %563 = stablehlo.broadcast_in_dim %562, dims = [0, 1] : (tensor<1x32xf32>) -> tensor<1x32x16x16384xf32> loc(#loc668)
    %564 = stablehlo.multiply %555, %563 : tensor<1x32x16x16384xf32> loc(#loc669)
    %565 = stablehlo.reshape %564 : (tensor<1x32x16x16384xf32>) -> tensor<1x512x128x128xf32> loc(#loc670)
    %566 = stablehlo.reshape %arg79 : (tensor<512xbf16>) -> tensor<1x1x512xbf16> loc(#loc671)
    %567 = stablehlo.reshape %566 : (tensor<1x1x512xbf16>) -> tensor<1x512x1x1xbf16> loc(#loc672)
    %568 = stablehlo.convert %567 : (tensor<1x512x1x1xbf16>) -> tensor<1x512x1x1xf32> loc(#loc673)
    %569 = stablehlo.reshape %568 : (tensor<1x512x1x1xf32>) -> tensor<1x512xf32> loc(#loc674)
    %570 = stablehlo.broadcast_in_dim %569, dims = [0, 1] : (tensor<1x512xf32>) -> tensor<1x512x128x128xf32> loc(#loc675)
    %571 = stablehlo.multiply %565, %570 : tensor<1x512x128x128xf32> loc(#loc676)
    %572 = stablehlo.reshape %arg78 : (tensor<512xbf16>) -> tensor<1x1x512xbf16> loc(#loc677)
    %573 = stablehlo.reshape %572 : (tensor<1x1x512xbf16>) -> tensor<1x512x1x1xbf16> loc(#loc678)
    %574 = stablehlo.convert %573 : (tensor<1x512x1x1xbf16>) -> tensor<1x512x1x1xf32> loc(#loc679)
    %575 = stablehlo.reshape %574 : (tensor<1x512x1x1xf32>) -> tensor<1x512xf32> loc(#loc680)
    %576 = stablehlo.broadcast_in_dim %575, dims = [0, 1] : (tensor<1x512xf32>) -> tensor<1x512x128x128xf32> loc(#loc681)
    %577 = stablehlo.add %571, %576 : tensor<1x512x128x128xf32> loc(#loc682)
    %578 = stablehlo.convert %577 : (tensor<1x512x128x128xf32>) -> tensor<1x512x128x128xbf16> loc(#loc683)
    %579 = stablehlo.convert %578 : (tensor<1x512x128x128xbf16>) -> tensor<1x512x128x128xf32> loc(#loc684)
    %580 = stablehlo.logistic %579 : tensor<1x512x128x128xf32> loc(#loc685)
    %581 = stablehlo.multiply %579, %580 : tensor<1x512x128x128xf32> loc(#loc686)
    %582 = stablehlo.convert %581 : (tensor<1x512x128x128xf32>) -> tensor<1x512x128x128xbf16> loc(#loc687)
    %583 = stablehlo.convolution(%582, %arg77) dim_numbers = [b, f, 0, 1]x[o, i, 0, 1]->[b, f, 0, 1], window = {pad = [[1, 1], [1, 1]]} {batch_group_count = 1 : i64, feature_group_count = 1 : i64} : (tensor<1x512x128x128xbf16>, tensor<512x512x3x3xbf16>) -> tensor<1x512x128x128xbf16> loc(#loc688)
    %584 = stablehlo.reshape %arg76 : (tensor<512xbf16>) -> tensor<1x1x512xbf16> loc(#loc689)
    %585 = stablehlo.reshape %584 : (tensor<1x1x512xbf16>) -> tensor<512xbf16> loc(#loc690)
    %586 = stablehlo.broadcast_in_dim %585, dims = [1] : (tensor<512xbf16>) -> tensor<1x512x128x128xbf16> loc(#loc691)
    %587 = stablehlo.add %583, %586 : tensor<1x512x128x128xbf16> loc(#loc692)
    %588 = stablehlo.convert %587 : (tensor<1x512x128x128xbf16>) -> tensor<1x512x128x128xf32> loc(#loc693)
    %589 = stablehlo.reshape %588 : (tensor<1x512x128x128xf32>) -> tensor<1x32x16x16384xf32> loc(#loc694)
    %590 = stablehlo.reduce(%589 init: %36) applies stablehlo.add across dimensions = [2, 3] : (tensor<1x32x16x16384xf32>, tensor<f32>) -> tensor<1x32xf32> loc(#loc695)
    %591 = stablehlo.multiply %590, %15 : tensor<1x32xf32> loc(#loc696)
    %592 = stablehlo.broadcast_in_dim %591, dims = [0, 1] : (tensor<1x32xf32>) -> tensor<1x32x16x16384xf32> loc(#loc697)
    %593 = stablehlo.subtract %589, %592 : tensor<1x32x16x16384xf32> loc(#loc698)
    %594 = stablehlo.multiply %593, %593 : tensor<1x32x16x16384xf32> loc(#loc699)
    %595 = stablehlo.reduce(%594 init: %36) applies stablehlo.add across dimensions = [2, 3] : (tensor<1x32x16x16384xf32>, tensor<f32>) -> tensor<1x32xf32> loc(#loc700)
    %596 = stablehlo.multiply %595, %15 : tensor<1x32xf32> loc(#loc701)
    %597 = stablehlo.reshape %596 : (tensor<1x32xf32>) -> tensor<1x32x1x1xf32> loc(#loc702)
    %598 = stablehlo.add %597, %28 : tensor<1x32x1x1xf32> loc(#loc703)
    %599 = stablehlo.rsqrt %598 : tensor<1x32x1x1xf32> loc(#loc704)
    %600 = stablehlo.reshape %599 : (tensor<1x32x1x1xf32>) -> tensor<1x32xf32> loc(#loc705)
    %601 = stablehlo.broadcast_in_dim %600, dims = [0, 1] : (tensor<1x32xf32>) -> tensor<1x32x16x16384xf32> loc(#loc706)
    %602 = stablehlo.multiply %593, %601 : tensor<1x32x16x16384xf32> loc(#loc707)
    %603 = stablehlo.reshape %602 : (tensor<1x32x16x16384xf32>) -> tensor<1x512x128x128xf32> loc(#loc708)
    %604 = stablehlo.reshape %arg75 : (tensor<512xbf16>) -> tensor<1x1x512xbf16> loc(#loc709)
    %605 = stablehlo.reshape %604 : (tensor<1x1x512xbf16>) -> tensor<1x512x1x1xbf16> loc(#loc710)
    %606 = stablehlo.convert %605 : (tensor<1x512x1x1xbf16>) -> tensor<1x512x1x1xf32> loc(#loc711)
    %607 = stablehlo.reshape %606 : (tensor<1x512x1x1xf32>) -> tensor<1x512xf32> loc(#loc712)
    %608 = stablehlo.broadcast_in_dim %607, dims = [0, 1] : (tensor<1x512xf32>) -> tensor<1x512x128x128xf32> loc(#loc713)
    %609 = stablehlo.multiply %603, %608 : tensor<1x512x128x128xf32> loc(#loc714)
    %610 = stablehlo.reshape %arg74 : (tensor<512xbf16>) -> tensor<1x1x512xbf16> loc(#loc715)
    %611 = stablehlo.reshape %610 : (tensor<1x1x512xbf16>) -> tensor<1x512x1x1xbf16> loc(#loc716)
    %612 = stablehlo.convert %611 : (tensor<1x512x1x1xbf16>) -> tensor<1x512x1x1xf32> loc(#loc717)
    %613 = stablehlo.reshape %612 : (tensor<1x512x1x1xf32>) -> tensor<1x512xf32> loc(#loc718)
    %614 = stablehlo.broadcast_in_dim %613, dims = [0, 1] : (tensor<1x512xf32>) -> tensor<1x512x128x128xf32> loc(#loc719)
    %615 = stablehlo.add %609, %614 : tensor<1x512x128x128xf32> loc(#loc720)
    %616 = stablehlo.convert %615 : (tensor<1x512x128x128xf32>) -> tensor<1x512x128x128xbf16> loc(#loc721)
    %617 = stablehlo.convert %616 : (tensor<1x512x128x128xbf16>) -> tensor<1x512x128x128xf32> loc(#loc722)
    %618 = stablehlo.logistic %617 : tensor<1x512x128x128xf32> loc(#loc723)
    %619 = stablehlo.multiply %617, %618 : tensor<1x512x128x128xf32> loc(#loc724)
    %620 = stablehlo.convert %619 : (tensor<1x512x128x128xf32>) -> tensor<1x512x128x128xbf16> loc(#loc725)
    %621 = stablehlo.convolution(%620, %arg73) dim_numbers = [b, f, 0, 1]x[o, i, 0, 1]->[b, f, 0, 1], window = {pad = [[1, 1], [1, 1]]} {batch_group_count = 1 : i64, feature_group_count = 1 : i64} : (tensor<1x512x128x128xbf16>, tensor<512x512x3x3xbf16>) -> tensor<1x512x128x128xbf16> loc(#loc726)
    %622 = stablehlo.reshape %arg72 : (tensor<512xbf16>) -> tensor<1x1x512xbf16> loc(#loc727)
    %623 = stablehlo.reshape %622 : (tensor<1x1x512xbf16>) -> tensor<512xbf16> loc(#loc728)
    %624 = stablehlo.broadcast_in_dim %623, dims = [1] : (tensor<512xbf16>) -> tensor<1x512x128x128xbf16> loc(#loc729)
    %625 = stablehlo.add %621, %624 : tensor<1x512x128x128xbf16> loc(#loc730)
    %626 = stablehlo.add %549, %625 : tensor<1x512x128x128xbf16> loc(#loc731)
    %627 = stablehlo.divide %626, %13 : tensor<1x512x128x128xbf16> loc(#loc732)
    %628 = stablehlo.convert %627 : (tensor<1x512x128x128xbf16>) -> tensor<1x512x128x128xf32> loc(#loc733)
    %629 = stablehlo.reshape %628 : (tensor<1x512x128x128xf32>) -> tensor<1x32x16x16384xf32> loc(#loc734)
    %630 = stablehlo.reduce(%629 init: %36) applies stablehlo.add across dimensions = [2, 3] : (tensor<1x32x16x16384xf32>, tensor<f32>) -> tensor<1x32xf32> loc(#loc735)
    %631 = stablehlo.multiply %630, %15 : tensor<1x32xf32> loc(#loc736)
    %632 = stablehlo.broadcast_in_dim %631, dims = [0, 1] : (tensor<1x32xf32>) -> tensor<1x32x16x16384xf32> loc(#loc737)
    %633 = stablehlo.subtract %629, %632 : tensor<1x32x16x16384xf32> loc(#loc738)
    %634 = stablehlo.multiply %633, %633 : tensor<1x32x16x16384xf32> loc(#loc739)
    %635 = stablehlo.reduce(%634 init: %36) applies stablehlo.add across dimensions = [2, 3] : (tensor<1x32x16x16384xf32>, tensor<f32>) -> tensor<1x32xf32> loc(#loc740)
    %636 = stablehlo.multiply %635, %15 : tensor<1x32xf32> loc(#loc741)
    %637 = stablehlo.reshape %636 : (tensor<1x32xf32>) -> tensor<1x32x1x1xf32> loc(#loc742)
    %638 = stablehlo.add %637, %28 : tensor<1x32x1x1xf32> loc(#loc743)
    %639 = stablehlo.rsqrt %638 : tensor<1x32x1x1xf32> loc(#loc744)
    %640 = stablehlo.reshape %639 : (tensor<1x32x1x1xf32>) -> tensor<1x32xf32> loc(#loc745)
    %641 = stablehlo.broadcast_in_dim %640, dims = [0, 1] : (tensor<1x32xf32>) -> tensor<1x32x16x16384xf32> loc(#loc746)
    %642 = stablehlo.multiply %633, %641 : tensor<1x32x16x16384xf32> loc(#loc747)
    %643 = stablehlo.reshape %642 : (tensor<1x32x16x16384xf32>) -> tensor<1x512x128x128xf32> loc(#loc748)
    %644 = stablehlo.reshape %arg71 : (tensor<512xbf16>) -> tensor<1x1x512xbf16> loc(#loc749)
    %645 = stablehlo.reshape %644 : (tensor<1x1x512xbf16>) -> tensor<1x512x1x1xbf16> loc(#loc750)
    %646 = stablehlo.convert %645 : (tensor<1x512x1x1xbf16>) -> tensor<1x512x1x1xf32> loc(#loc751)
    %647 = stablehlo.reshape %646 : (tensor<1x512x1x1xf32>) -> tensor<1x512xf32> loc(#loc752)
    %648 = stablehlo.broadcast_in_dim %647, dims = [0, 1] : (tensor<1x512xf32>) -> tensor<1x512x128x128xf32> loc(#loc753)
    %649 = stablehlo.multiply %643, %648 : tensor<1x512x128x128xf32> loc(#loc754)
    %650 = stablehlo.reshape %arg70 : (tensor<512xbf16>) -> tensor<1x1x512xbf16> loc(#loc755)
    %651 = stablehlo.reshape %650 : (tensor<1x1x512xbf16>) -> tensor<1x512x1x1xbf16> loc(#loc756)
    %652 = stablehlo.convert %651 : (tensor<1x512x1x1xbf16>) -> tensor<1x512x1x1xf32> loc(#loc757)
    %653 = stablehlo.reshape %652 : (tensor<1x512x1x1xf32>) -> tensor<1x512xf32> loc(#loc758)
    %654 = stablehlo.broadcast_in_dim %653, dims = [0, 1] : (tensor<1x512xf32>) -> tensor<1x512x128x128xf32> loc(#loc759)
    %655 = stablehlo.add %649, %654 : tensor<1x512x128x128xf32> loc(#loc760)
    %656 = stablehlo.convert %655 : (tensor<1x512x128x128xf32>) -> tensor<1x512x128x128xbf16> loc(#loc761)
    %657 = stablehlo.convert %656 : (tensor<1x512x128x128xbf16>) -> tensor<1x512x128x128xf32> loc(#loc762)
    %658 = stablehlo.logistic %657 : tensor<1x512x128x128xf32> loc(#loc763)
    %659 = stablehlo.multiply %657, %658 : tensor<1x512x128x128xf32> loc(#loc764)
    %660 = stablehlo.convert %659 : (tensor<1x512x128x128xf32>) -> tensor<1x512x128x128xbf16> loc(#loc765)
    %661 = stablehlo.convolution(%660, %arg69) dim_numbers = [b, f, 0, 1]x[o, i, 0, 1]->[b, f, 0, 1], window = {pad = [[1, 1], [1, 1]]} {batch_group_count = 1 : i64, feature_group_count = 1 : i64} : (tensor<1x512x128x128xbf16>, tensor<512x512x3x3xbf16>) -> tensor<1x512x128x128xbf16> loc(#loc766)
    %662 = stablehlo.reshape %arg68 : (tensor<512xbf16>) -> tensor<1x1x512xbf16> loc(#loc767)
    %663 = stablehlo.reshape %662 : (tensor<1x1x512xbf16>) -> tensor<512xbf16> loc(#loc768)
    %664 = stablehlo.broadcast_in_dim %663, dims = [1] : (tensor<512xbf16>) -> tensor<1x512x128x128xbf16> loc(#loc769)
    %665 = stablehlo.add %661, %664 : tensor<1x512x128x128xbf16> loc(#loc770)
    %666 = stablehlo.convert %665 : (tensor<1x512x128x128xbf16>) -> tensor<1x512x128x128xf32> loc(#loc771)
    %667 = stablehlo.reshape %666 : (tensor<1x512x128x128xf32>) -> tensor<1x32x16x16384xf32> loc(#loc772)
    %668 = stablehlo.reduce(%667 init: %36) applies stablehlo.add across dimensions = [2, 3] : (tensor<1x32x16x16384xf32>, tensor<f32>) -> tensor<1x32xf32> loc(#loc773)
    %669 = stablehlo.multiply %668, %15 : tensor<1x32xf32> loc(#loc774)
    %670 = stablehlo.broadcast_in_dim %669, dims = [0, 1] : (tensor<1x32xf32>) -> tensor<1x32x16x16384xf32> loc(#loc775)
    %671 = stablehlo.subtract %667, %670 : tensor<1x32x16x16384xf32> loc(#loc776)
    %672 = stablehlo.multiply %671, %671 : tensor<1x32x16x16384xf32> loc(#loc777)
    %673 = stablehlo.reduce(%672 init: %36) applies stablehlo.add across dimensions = [2, 3] : (tensor<1x32x16x16384xf32>, tensor<f32>) -> tensor<1x32xf32> loc(#loc778)
    %674 = stablehlo.multiply %673, %15 : tensor<1x32xf32> loc(#loc779)
    %675 = stablehlo.reshape %674 : (tensor<1x32xf32>) -> tensor<1x32x1x1xf32> loc(#loc780)
    %676 = stablehlo.add %675, %28 : tensor<1x32x1x1xf32> loc(#loc781)
    %677 = stablehlo.rsqrt %676 : tensor<1x32x1x1xf32> loc(#loc782)
    %678 = stablehlo.reshape %677 : (tensor<1x32x1x1xf32>) -> tensor<1x32xf32> loc(#loc783)
    %679 = stablehlo.broadcast_in_dim %678, dims = [0, 1] : (tensor<1x32xf32>) -> tensor<1x32x16x16384xf32> loc(#loc784)
    %680 = stablehlo.multiply %671, %679 : tensor<1x32x16x16384xf32> loc(#loc785)
    %681 = stablehlo.reshape %680 : (tensor<1x32x16x16384xf32>) -> tensor<1x512x128x128xf32> loc(#loc786)
    %682 = stablehlo.reshape %arg67 : (tensor<512xbf16>) -> tensor<1x1x512xbf16> loc(#loc787)
    %683 = stablehlo.reshape %682 : (tensor<1x1x512xbf16>) -> tensor<1x512x1x1xbf16> loc(#loc788)
    %684 = stablehlo.convert %683 : (tensor<1x512x1x1xbf16>) -> tensor<1x512x1x1xf32> loc(#loc789)
    %685 = stablehlo.reshape %684 : (tensor<1x512x1x1xf32>) -> tensor<1x512xf32> loc(#loc790)
    %686 = stablehlo.broadcast_in_dim %685, dims = [0, 1] : (tensor<1x512xf32>) -> tensor<1x512x128x128xf32> loc(#loc791)
    %687 = stablehlo.multiply %681, %686 : tensor<1x512x128x128xf32> loc(#loc792)
    %688 = stablehlo.reshape %arg66 : (tensor<512xbf16>) -> tensor<1x1x512xbf16> loc(#loc793)
    %689 = stablehlo.reshape %688 : (tensor<1x1x512xbf16>) -> tensor<1x512x1x1xbf16> loc(#loc794)
    %690 = stablehlo.convert %689 : (tensor<1x512x1x1xbf16>) -> tensor<1x512x1x1xf32> loc(#loc795)
    %691 = stablehlo.reshape %690 : (tensor<1x512x1x1xf32>) -> tensor<1x512xf32> loc(#loc796)
    %692 = stablehlo.broadcast_in_dim %691, dims = [0, 1] : (tensor<1x512xf32>) -> tensor<1x512x128x128xf32> loc(#loc797)
    %693 = stablehlo.add %687, %692 : tensor<1x512x128x128xf32> loc(#loc798)
    %694 = stablehlo.convert %693 : (tensor<1x512x128x128xf32>) -> tensor<1x512x128x128xbf16> loc(#loc799)
    %695 = stablehlo.convert %694 : (tensor<1x512x128x128xbf16>) -> tensor<1x512x128x128xf32> loc(#loc800)
    %696 = stablehlo.logistic %695 : tensor<1x512x128x128xf32> loc(#loc801)
    %697 = stablehlo.multiply %695, %696 : tensor<1x512x128x128xf32> loc(#loc802)
    %698 = stablehlo.convert %697 : (tensor<1x512x128x128xf32>) -> tensor<1x512x128x128xbf16> loc(#loc803)
    %699 = stablehlo.convolution(%698, %arg65) dim_numbers = [b, f, 0, 1]x[o, i, 0, 1]->[b, f, 0, 1], window = {pad = [[1, 1], [1, 1]]} {batch_group_count = 1 : i64, feature_group_count = 1 : i64} : (tensor<1x512x128x128xbf16>, tensor<512x512x3x3xbf16>) -> tensor<1x512x128x128xbf16> loc(#loc804)
    %700 = stablehlo.reshape %arg64 : (tensor<512xbf16>) -> tensor<1x1x512xbf16> loc(#loc805)
    %701 = stablehlo.reshape %700 : (tensor<1x1x512xbf16>) -> tensor<512xbf16> loc(#loc806)
    %702 = stablehlo.broadcast_in_dim %701, dims = [1] : (tensor<512xbf16>) -> tensor<1x512x128x128xbf16> loc(#loc807)
    %703 = stablehlo.add %699, %702 : tensor<1x512x128x128xbf16> loc(#loc808)
    %704 = stablehlo.add %627, %703 : tensor<1x512x128x128xbf16> loc(#loc809)
    %705 = stablehlo.divide %704, %13 : tensor<1x512x128x128xbf16> loc(#loc810)
    %706 = stablehlo.convert %705 : (tensor<1x512x128x128xbf16>) -> tensor<1x512x128x128xf32> loc(#loc811)
    %707 = stablehlo.reshape %706 : (tensor<1x512x128x128xf32>) -> tensor<1x32x16x16384xf32> loc(#loc812)
    %708 = stablehlo.reduce(%707 init: %36) applies stablehlo.add across dimensions = [2, 3] : (tensor<1x32x16x16384xf32>, tensor<f32>) -> tensor<1x32xf32> loc(#loc813)
    %709 = stablehlo.multiply %708, %15 : tensor<1x32xf32> loc(#loc814)
    %710 = stablehlo.broadcast_in_dim %709, dims = [0, 1] : (tensor<1x32xf32>) -> tensor<1x32x16x16384xf32> loc(#loc815)
    %711 = stablehlo.subtract %707, %710 : tensor<1x32x16x16384xf32> loc(#loc816)
    %712 = stablehlo.multiply %711, %711 : tensor<1x32x16x16384xf32> loc(#loc817)
    %713 = stablehlo.reduce(%712 init: %36) applies stablehlo.add across dimensions = [2, 3] : (tensor<1x32x16x16384xf32>, tensor<f32>) -> tensor<1x32xf32> loc(#loc818)
    %714 = stablehlo.multiply %713, %15 : tensor<1x32xf32> loc(#loc819)
    %715 = stablehlo.reshape %714 : (tensor<1x32xf32>) -> tensor<1x32x1x1xf32> loc(#loc820)
    %716 = stablehlo.add %715, %28 : tensor<1x32x1x1xf32> loc(#loc821)
    %717 = stablehlo.rsqrt %716 : tensor<1x32x1x1xf32> loc(#loc822)
    %718 = stablehlo.reshape %717 : (tensor<1x32x1x1xf32>) -> tensor<1x32xf32> loc(#loc823)
    %719 = stablehlo.broadcast_in_dim %718, dims = [0, 1] : (tensor<1x32xf32>) -> tensor<1x32x16x16384xf32> loc(#loc824)
    %720 = stablehlo.multiply %711, %719 : tensor<1x32x16x16384xf32> loc(#loc825)
    %721 = stablehlo.reshape %720 : (tensor<1x32x16x16384xf32>) -> tensor<1x512x128x128xf32> loc(#loc826)
    %722 = stablehlo.reshape %arg63 : (tensor<512xbf16>) -> tensor<1x1x512xbf16> loc(#loc827)
    %723 = stablehlo.reshape %722 : (tensor<1x1x512xbf16>) -> tensor<1x512x1x1xbf16> loc(#loc828)
    %724 = stablehlo.convert %723 : (tensor<1x512x1x1xbf16>) -> tensor<1x512x1x1xf32> loc(#loc829)
    %725 = stablehlo.reshape %724 : (tensor<1x512x1x1xf32>) -> tensor<1x512xf32> loc(#loc830)
    %726 = stablehlo.broadcast_in_dim %725, dims = [0, 1] : (tensor<1x512xf32>) -> tensor<1x512x128x128xf32> loc(#loc831)
    %727 = stablehlo.multiply %721, %726 : tensor<1x512x128x128xf32> loc(#loc832)
    %728 = stablehlo.reshape %arg62 : (tensor<512xbf16>) -> tensor<1x1x512xbf16> loc(#loc833)
    %729 = stablehlo.reshape %728 : (tensor<1x1x512xbf16>) -> tensor<1x512x1x1xbf16> loc(#loc834)
    %730 = stablehlo.convert %729 : (tensor<1x512x1x1xbf16>) -> tensor<1x512x1x1xf32> loc(#loc835)
    %731 = stablehlo.reshape %730 : (tensor<1x512x1x1xf32>) -> tensor<1x512xf32> loc(#loc836)
    %732 = stablehlo.broadcast_in_dim %731, dims = [0, 1] : (tensor<1x512xf32>) -> tensor<1x512x128x128xf32> loc(#loc837)
    %733 = stablehlo.add %727, %732 : tensor<1x512x128x128xf32> loc(#loc838)
    %734 = stablehlo.convert %733 : (tensor<1x512x128x128xf32>) -> tensor<1x512x128x128xbf16> loc(#loc839)
    %735 = stablehlo.convert %734 : (tensor<1x512x128x128xbf16>) -> tensor<1x512x128x128xf32> loc(#loc840)
    %736 = stablehlo.logistic %735 : tensor<1x512x128x128xf32> loc(#loc841)
    %737 = stablehlo.multiply %735, %736 : tensor<1x512x128x128xf32> loc(#loc842)
    %738 = stablehlo.convert %737 : (tensor<1x512x128x128xf32>) -> tensor<1x512x128x128xbf16> loc(#loc843)
    %739 = stablehlo.convolution(%738, %arg61) dim_numbers = [b, f, 0, 1]x[o, i, 0, 1]->[b, f, 0, 1], window = {pad = [[1, 1], [1, 1]]} {batch_group_count = 1 : i64, feature_group_count = 1 : i64} : (tensor<1x512x128x128xbf16>, tensor<512x512x3x3xbf16>) -> tensor<1x512x128x128xbf16> loc(#loc844)
    %740 = stablehlo.reshape %arg60 : (tensor<512xbf16>) -> tensor<1x1x512xbf16> loc(#loc845)
    %741 = stablehlo.reshape %740 : (tensor<1x1x512xbf16>) -> tensor<512xbf16> loc(#loc846)
    %742 = stablehlo.broadcast_in_dim %741, dims = [1] : (tensor<512xbf16>) -> tensor<1x512x128x128xbf16> loc(#loc847)
    %743 = stablehlo.add %739, %742 : tensor<1x512x128x128xbf16> loc(#loc848)
    %744 = stablehlo.convert %743 : (tensor<1x512x128x128xbf16>) -> tensor<1x512x128x128xf32> loc(#loc849)
    %745 = stablehlo.reshape %744 : (tensor<1x512x128x128xf32>) -> tensor<1x32x16x16384xf32> loc(#loc850)
    %746 = stablehlo.reduce(%745 init: %36) applies stablehlo.add across dimensions = [2, 3] : (tensor<1x32x16x16384xf32>, tensor<f32>) -> tensor<1x32xf32> loc(#loc851)
    %747 = stablehlo.multiply %746, %15 : tensor<1x32xf32> loc(#loc852)
    %748 = stablehlo.broadcast_in_dim %747, dims = [0, 1] : (tensor<1x32xf32>) -> tensor<1x32x16x16384xf32> loc(#loc853)
    %749 = stablehlo.subtract %745, %748 : tensor<1x32x16x16384xf32> loc(#loc854)
    %750 = stablehlo.multiply %749, %749 : tensor<1x32x16x16384xf32> loc(#loc855)
    %751 = stablehlo.reduce(%750 init: %36) applies stablehlo.add across dimensions = [2, 3] : (tensor<1x32x16x16384xf32>, tensor<f32>) -> tensor<1x32xf32> loc(#loc856)
    %752 = stablehlo.multiply %751, %15 : tensor<1x32xf32> loc(#loc857)
    %753 = stablehlo.reshape %752 : (tensor<1x32xf32>) -> tensor<1x32x1x1xf32> loc(#loc858)
    %754 = stablehlo.add %753, %28 : tensor<1x32x1x1xf32> loc(#loc859)
    %755 = stablehlo.rsqrt %754 : tensor<1x32x1x1xf32> loc(#loc860)
    %756 = stablehlo.reshape %755 : (tensor<1x32x1x1xf32>) -> tensor<1x32xf32> loc(#loc861)
    %757 = stablehlo.broadcast_in_dim %756, dims = [0, 1] : (tensor<1x32xf32>) -> tensor<1x32x16x16384xf32> loc(#loc862)
    %758 = stablehlo.multiply %749, %757 : tensor<1x32x16x16384xf32> loc(#loc863)
    %759 = stablehlo.reshape %758 : (tensor<1x32x16x16384xf32>) -> tensor<1x512x128x128xf32> loc(#loc864)
    %760 = stablehlo.reshape %arg59 : (tensor<512xbf16>) -> tensor<1x1x512xbf16> loc(#loc865)
    %761 = stablehlo.reshape %760 : (tensor<1x1x512xbf16>) -> tensor<1x512x1x1xbf16> loc(#loc866)
    %762 = stablehlo.convert %761 : (tensor<1x512x1x1xbf16>) -> tensor<1x512x1x1xf32> loc(#loc867)
    %763 = stablehlo.reshape %762 : (tensor<1x512x1x1xf32>) -> tensor<1x512xf32> loc(#loc868)
    %764 = stablehlo.broadcast_in_dim %763, dims = [0, 1] : (tensor<1x512xf32>) -> tensor<1x512x128x128xf32> loc(#loc869)
    %765 = stablehlo.multiply %759, %764 : tensor<1x512x128x128xf32> loc(#loc870)
    %766 = stablehlo.reshape %arg58 : (tensor<512xbf16>) -> tensor<1x1x512xbf16> loc(#loc871)
    %767 = stablehlo.reshape %766 : (tensor<1x1x512xbf16>) -> tensor<1x512x1x1xbf16> loc(#loc872)
    %768 = stablehlo.convert %767 : (tensor<1x512x1x1xbf16>) -> tensor<1x512x1x1xf32> loc(#loc873)
    %769 = stablehlo.reshape %768 : (tensor<1x512x1x1xf32>) -> tensor<1x512xf32> loc(#loc874)
    %770 = stablehlo.broadcast_in_dim %769, dims = [0, 1] : (tensor<1x512xf32>) -> tensor<1x512x128x128xf32> loc(#loc875)
    %771 = stablehlo.add %765, %770 : tensor<1x512x128x128xf32> loc(#loc876)
    %772 = stablehlo.convert %771 : (tensor<1x512x128x128xf32>) -> tensor<1x512x128x128xbf16> loc(#loc877)
    %773 = stablehlo.convert %772 : (tensor<1x512x128x128xbf16>) -> tensor<1x512x128x128xf32> loc(#loc878)
    %774 = stablehlo.logistic %773 : tensor<1x512x128x128xf32> loc(#loc879)
    %775 = stablehlo.multiply %773, %774 : tensor<1x512x128x128xf32> loc(#loc880)
    %776 = stablehlo.convert %775 : (tensor<1x512x128x128xf32>) -> tensor<1x512x128x128xbf16> loc(#loc881)
    %777 = stablehlo.convolution(%776, %arg57) dim_numbers = [b, f, 0, 1]x[o, i, 0, 1]->[b, f, 0, 1], window = {pad = [[1, 1], [1, 1]]} {batch_group_count = 1 : i64, feature_group_count = 1 : i64} : (tensor<1x512x128x128xbf16>, tensor<512x512x3x3xbf16>) -> tensor<1x512x128x128xbf16> loc(#loc882)
    %778 = stablehlo.reshape %arg56 : (tensor<512xbf16>) -> tensor<1x1x512xbf16> loc(#loc883)
    %779 = stablehlo.reshape %778 : (tensor<1x1x512xbf16>) -> tensor<512xbf16> loc(#loc884)
    %780 = stablehlo.broadcast_in_dim %779, dims = [1] : (tensor<512xbf16>) -> tensor<1x512x128x128xbf16> loc(#loc885)
    %781 = stablehlo.add %777, %780 : tensor<1x512x128x128xbf16> loc(#loc886)
    %782 = stablehlo.add %705, %781 : tensor<1x512x128x128xbf16> loc(#loc887)
    %783 = stablehlo.divide %782, %13 : tensor<1x512x128x128xbf16> loc(#loc888)
    %784 = stablehlo.transpose %783, dims = [0, 1, 3, 2] {result_layout = dense<[2, 3, 1, 0]> : tensor<4xindex>, xla_shape = "bf16[1,512,128,128]{2,3,1,0}"} : (tensor<1x512x128x128xbf16>) -> tensor<1x512x128x128xbf16> loc(#loc889)
    %785 = stablehlo.floor %11 : tensor<256xf64> loc(#loc890)
    %786 = stablehlo.convert %785 : (tensor<256xf64>) -> tensor<256xi64> loc(#loc891)
    %787 = stablehlo.broadcast_in_dim %786, dims = [0] : (tensor<256xi64>) -> tensor<256x128xi64> loc(#loc892)
    %788 = stablehlo.broadcast_in_dim %32, dims = [1] : (tensor<128xi64>) -> tensor<256x128xi64> loc(#loc893)
    %789 = stablehlo.compare  EQ, %787, %788 : (tensor<256x128xi64>, tensor<256x128xi64>) -> tensor<256x128xi1> loc(#loc894)
    %790 = stablehlo.convert %789 : (tensor<256x128xi1>) -> tensor<256x128xi64> loc(#loc895)
    %791 = stablehlo.transpose %790, dims = [1, 0] {result_layout = dense<[0, 1]> : tensor<2xindex>, xla_shape = "s64[128,256]{0,1}"} : (tensor<256x128xi64>) -> tensor<128x256xi64> loc(#loc896)
    %792 = stablehlo.convert %791 {result_layout = dense<[0, 1]> : tensor<2xindex>, xla_shape = "bf16[128,256]{0,1}"} : (tensor<128x256xi64>) -> tensor<128x256xbf16> loc(#loc897)
    %793 = stablehlo.dot_general %784, %792, contracting_dims = [3] x [0] {mhlo.frontend_attributes = {grad_x = "false", grad_y = "false"}} : (tensor<1x512x128x128xbf16>, tensor<128x256xbf16>) -> tensor<1x512x128x256xbf16> loc(#loc898)
    %794 = stablehlo.transpose %793, dims = [0, 1, 3, 2] {result_layout = dense<[2, 3, 1, 0]> : tensor<4xindex>, xla_shape = "bf16[1,512,256,128]{2,3,1,0}"} : (tensor<1x512x128x256xbf16>) -> tensor<1x512x256x128xbf16> loc(#loc899)
    %795 = stablehlo.dot_general %794, %792, contracting_dims = [3] x [0] {mhlo.frontend_attributes = {grad_x = "false", grad_y = "false"}} : (tensor<1x512x256x128xbf16>, tensor<128x256xbf16>) -> tensor<1x512x256x256xbf16> loc(#loc900)
    %796 = stablehlo.convolution(%795, %arg55) dim_numbers = [b, f, 0, 1]x[o, i, 0, 1]->[b, f, 0, 1], window = {pad = [[1, 1], [1, 1]]} {batch_group_count = 1 : i64, feature_group_count = 1 : i64} : (tensor<1x512x256x256xbf16>, tensor<512x512x3x3xbf16>) -> tensor<1x512x256x256xbf16> loc(#loc901)
    %797 = stablehlo.reshape %arg54 : (tensor<512xbf16>) -> tensor<1x1x512xbf16> loc(#loc902)
    %798 = stablehlo.reshape %797 : (tensor<1x1x512xbf16>) -> tensor<512xbf16> loc(#loc903)
    %799 = stablehlo.broadcast_in_dim %798, dims = [1] : (tensor<512xbf16>) -> tensor<1x512x256x256xbf16> loc(#loc904)
    %800 = stablehlo.add %796, %799 : tensor<1x512x256x256xbf16> loc(#loc905)
    %801 = stablehlo.convolution(%800, %arg136) dim_numbers = [b, f, 0, 1]x[o, i, 0, 1]->[b, f, 0, 1], window = {} {batch_group_count = 1 : i64, feature_group_count = 1 : i64} : (tensor<1x512x256x256xbf16>, tensor<256x512x1x1xbf16>) -> tensor<1x256x256x256xbf16> loc(#loc906)
    %802 = stablehlo.reshape %arg135 : (tensor<256xbf16>) -> tensor<1x1x256xbf16> loc(#loc907)
    %803 = stablehlo.reshape %802 : (tensor<1x1x256xbf16>) -> tensor<256xbf16> loc(#loc908)
    %804 = stablehlo.broadcast_in_dim %803, dims = [1] : (tensor<256xbf16>) -> tensor<1x256x256x256xbf16> loc(#loc909)
    %805 = stablehlo.add %801, %804 : tensor<1x256x256x256xbf16> loc(#loc910)
    %806 = stablehlo.convert %800 : (tensor<1x512x256x256xbf16>) -> tensor<1x512x256x256xf32> loc(#loc911)
    %807 = stablehlo.reshape %806 : (tensor<1x512x256x256xf32>) -> tensor<1x32x16x65536xf32> loc(#loc912)
    %808 = stablehlo.reduce(%807 init: %36) applies stablehlo.add across dimensions = [2, 3] : (tensor<1x32x16x65536xf32>, tensor<f32>) -> tensor<1x32xf32> loc(#loc913)
    %809 = stablehlo.multiply %808, %10 : tensor<1x32xf32> loc(#loc914)
    %810 = stablehlo.broadcast_in_dim %809, dims = [0, 1] : (tensor<1x32xf32>) -> tensor<1x32x16x65536xf32> loc(#loc915)
    %811 = stablehlo.subtract %807, %810 : tensor<1x32x16x65536xf32> loc(#loc916)
    %812 = stablehlo.multiply %811, %811 : tensor<1x32x16x65536xf32> loc(#loc917)
    %813 = stablehlo.reduce(%812 init: %36) applies stablehlo.add across dimensions = [2, 3] : (tensor<1x32x16x65536xf32>, tensor<f32>) -> tensor<1x32xf32> loc(#loc918)
    %814 = stablehlo.multiply %813, %10 : tensor<1x32xf32> loc(#loc919)
    %815 = stablehlo.reshape %814 : (tensor<1x32xf32>) -> tensor<1x32x1x1xf32> loc(#loc920)
    %816 = stablehlo.add %815, %28 : tensor<1x32x1x1xf32> loc(#loc921)
    %817 = stablehlo.rsqrt %816 : tensor<1x32x1x1xf32> loc(#loc922)
    %818 = stablehlo.reshape %817 : (tensor<1x32x1x1xf32>) -> tensor<1x32xf32> loc(#loc923)
    %819 = stablehlo.broadcast_in_dim %818, dims = [0, 1] : (tensor<1x32xf32>) -> tensor<1x32x16x65536xf32> loc(#loc924)
    %820 = stablehlo.multiply %811, %819 : tensor<1x32x16x65536xf32> loc(#loc925)
    %821 = stablehlo.reshape %820 : (tensor<1x32x16x65536xf32>) -> tensor<1x512x256x256xf32> loc(#loc926)
    %822 = stablehlo.reshape %arg53 : (tensor<512xbf16>) -> tensor<1x1x512xbf16> loc(#loc927)
    %823 = stablehlo.reshape %822 : (tensor<1x1x512xbf16>) -> tensor<1x512x1x1xbf16> loc(#loc928)
    %824 = stablehlo.convert %823 : (tensor<1x512x1x1xbf16>) -> tensor<1x512x1x1xf32> loc(#loc929)
    %825 = stablehlo.reshape %824 : (tensor<1x512x1x1xf32>) -> tensor<1x512xf32> loc(#loc930)
    %826 = stablehlo.broadcast_in_dim %825, dims = [0, 1] : (tensor<1x512xf32>) -> tensor<1x512x256x256xf32> loc(#loc931)
    %827 = stablehlo.multiply %821, %826 : tensor<1x512x256x256xf32> loc(#loc932)
    %828 = stablehlo.reshape %arg52 : (tensor<512xbf16>) -> tensor<1x1x512xbf16> loc(#loc933)
    %829 = stablehlo.reshape %828 : (tensor<1x1x512xbf16>) -> tensor<1x512x1x1xbf16> loc(#loc934)
    %830 = stablehlo.convert %829 : (tensor<1x512x1x1xbf16>) -> tensor<1x512x1x1xf32> loc(#loc935)
    %831 = stablehlo.reshape %830 : (tensor<1x512x1x1xf32>) -> tensor<1x512xf32> loc(#loc936)
    %832 = stablehlo.broadcast_in_dim %831, dims = [0, 1] : (tensor<1x512xf32>) -> tensor<1x512x256x256xf32> loc(#loc937)
    %833 = stablehlo.add %827, %832 : tensor<1x512x256x256xf32> loc(#loc938)
    %834 = stablehlo.convert %833 : (tensor<1x512x256x256xf32>) -> tensor<1x512x256x256xbf16> loc(#loc939)
    %835 = stablehlo.convert %834 : (tensor<1x512x256x256xbf16>) -> tensor<1x512x256x256xf32> loc(#loc940)
    %836 = stablehlo.logistic %835 : tensor<1x512x256x256xf32> loc(#loc941)
    %837 = stablehlo.multiply %835, %836 : tensor<1x512x256x256xf32> loc(#loc942)
    %838 = stablehlo.convert %837 : (tensor<1x512x256x256xf32>) -> tensor<1x512x256x256xbf16> loc(#loc943)
    %839 = stablehlo.convolution(%838, %arg51) dim_numbers = [b, f, 0, 1]x[o, i, 0, 1]->[b, f, 0, 1], window = {pad = [[1, 1], [1, 1]]} {batch_group_count = 1 : i64, feature_group_count = 1 : i64} : (tensor<1x512x256x256xbf16>, tensor<256x512x3x3xbf16>) -> tensor<1x256x256x256xbf16> loc(#loc944)
    %840 = stablehlo.reshape %arg50 : (tensor<256xbf16>) -> tensor<1x1x256xbf16> loc(#loc945)
    %841 = stablehlo.reshape %840 : (tensor<1x1x256xbf16>) -> tensor<256xbf16> loc(#loc946)
    %842 = stablehlo.broadcast_in_dim %841, dims = [1] : (tensor<256xbf16>) -> tensor<1x256x256x256xbf16> loc(#loc947)
    %843 = stablehlo.add %839, %842 : tensor<1x256x256x256xbf16> loc(#loc948)
    %844 = stablehlo.convert %843 : (tensor<1x256x256x256xbf16>) -> tensor<1x256x256x256xf32> loc(#loc949)
    %845 = stablehlo.reshape %844 : (tensor<1x256x256x256xf32>) -> tensor<1x32x8x65536xf32> loc(#loc950)
    %846 = stablehlo.reduce(%845 init: %36) applies stablehlo.add across dimensions = [2, 3] : (tensor<1x32x8x65536xf32>, tensor<f32>) -> tensor<1x32xf32> loc(#loc951)
    %847 = stablehlo.multiply %846, %8 : tensor<1x32xf32> loc(#loc952)
    %848 = stablehlo.broadcast_in_dim %847, dims = [0, 1] : (tensor<1x32xf32>) -> tensor<1x32x8x65536xf32> loc(#loc953)
    %849 = stablehlo.subtract %845, %848 : tensor<1x32x8x65536xf32> loc(#loc954)
    %850 = stablehlo.multiply %849, %849 : tensor<1x32x8x65536xf32> loc(#loc955)
    %851 = stablehlo.reduce(%850 init: %36) applies stablehlo.add across dimensions = [2, 3] : (tensor<1x32x8x65536xf32>, tensor<f32>) -> tensor<1x32xf32> loc(#loc956)
    %852 = stablehlo.multiply %851, %8 : tensor<1x32xf32> loc(#loc957)
    %853 = stablehlo.reshape %852 : (tensor<1x32xf32>) -> tensor<1x32x1x1xf32> loc(#loc958)
    %854 = stablehlo.add %853, %28 : tensor<1x32x1x1xf32> loc(#loc959)
    %855 = stablehlo.rsqrt %854 : tensor<1x32x1x1xf32> loc(#loc960)
    %856 = stablehlo.reshape %855 : (tensor<1x32x1x1xf32>) -> tensor<1x32xf32> loc(#loc961)
    %857 = stablehlo.broadcast_in_dim %856, dims = [0, 1] : (tensor<1x32xf32>) -> tensor<1x32x8x65536xf32> loc(#loc962)
    %858 = stablehlo.multiply %849, %857 : tensor<1x32x8x65536xf32> loc(#loc963)
    %859 = stablehlo.reshape %858 : (tensor<1x32x8x65536xf32>) -> tensor<1x256x256x256xf32> loc(#loc964)
    %860 = stablehlo.reshape %arg49 : (tensor<256xbf16>) -> tensor<1x1x256xbf16> loc(#loc965)
    %861 = stablehlo.reshape %860 : (tensor<1x1x256xbf16>) -> tensor<1x256x1x1xbf16> loc(#loc966)
    %862 = stablehlo.convert %861 : (tensor<1x256x1x1xbf16>) -> tensor<1x256x1x1xf32> loc(#loc967)
    %863 = stablehlo.reshape %862 : (tensor<1x256x1x1xf32>) -> tensor<1x256xf32> loc(#loc968)
    %864 = stablehlo.broadcast_in_dim %863, dims = [0, 1] : (tensor<1x256xf32>) -> tensor<1x256x256x256xf32> loc(#loc969)
    %865 = stablehlo.multiply %859, %864 : tensor<1x256x256x256xf32> loc(#loc970)
    %866 = stablehlo.reshape %arg48 : (tensor<256xbf16>) -> tensor<1x1x256xbf16> loc(#loc971)
    %867 = stablehlo.reshape %866 : (tensor<1x1x256xbf16>) -> tensor<1x256x1x1xbf16> loc(#loc972)
    %868 = stablehlo.convert %867 : (tensor<1x256x1x1xbf16>) -> tensor<1x256x1x1xf32> loc(#loc973)
    %869 = stablehlo.reshape %868 : (tensor<1x256x1x1xf32>) -> tensor<1x256xf32> loc(#loc974)
    %870 = stablehlo.broadcast_in_dim %869, dims = [0, 1] : (tensor<1x256xf32>) -> tensor<1x256x256x256xf32> loc(#loc975)
    %871 = stablehlo.add %865, %870 : tensor<1x256x256x256xf32> loc(#loc976)
    %872 = stablehlo.convert %871 : (tensor<1x256x256x256xf32>) -> tensor<1x256x256x256xbf16> loc(#loc977)
    %873 = stablehlo.convert %872 : (tensor<1x256x256x256xbf16>) -> tensor<1x256x256x256xf32> loc(#loc978)
    %874 = stablehlo.logistic %873 : tensor<1x256x256x256xf32> loc(#loc979)
    %875 = stablehlo.multiply %873, %874 : tensor<1x256x256x256xf32> loc(#loc980)
    %876 = stablehlo.convert %875 : (tensor<1x256x256x256xf32>) -> tensor<1x256x256x256xbf16> loc(#loc981)
    %877 = stablehlo.convolution(%876, %arg47) dim_numbers = [b, f, 0, 1]x[o, i, 0, 1]->[b, f, 0, 1], window = {pad = [[1, 1], [1, 1]]} {batch_group_count = 1 : i64, feature_group_count = 1 : i64} : (tensor<1x256x256x256xbf16>, tensor<256x256x3x3xbf16>) -> tensor<1x256x256x256xbf16> loc(#loc982)
    %878 = stablehlo.reshape %arg46 : (tensor<256xbf16>) -> tensor<1x1x256xbf16> loc(#loc983)
    %879 = stablehlo.reshape %878 : (tensor<1x1x256xbf16>) -> tensor<256xbf16> loc(#loc984)
    %880 = stablehlo.broadcast_in_dim %879, dims = [1] : (tensor<256xbf16>) -> tensor<1x256x256x256xbf16> loc(#loc985)
    %881 = stablehlo.add %877, %880 : tensor<1x256x256x256xbf16> loc(#loc986)
    %882 = stablehlo.add %805, %881 : tensor<1x256x256x256xbf16> loc(#loc987)
    %883 = stablehlo.divide %882, %6 : tensor<1x256x256x256xbf16> loc(#loc988)
    %884 = stablehlo.convert %883 : (tensor<1x256x256x256xbf16>) -> tensor<1x256x256x256xf32> loc(#loc989)
    %885 = stablehlo.reshape %884 : (tensor<1x256x256x256xf32>) -> tensor<1x32x8x65536xf32> loc(#loc990)
    %886 = stablehlo.reduce(%885 init: %36) applies stablehlo.add across dimensions = [2, 3] : (tensor<1x32x8x65536xf32>, tensor<f32>) -> tensor<1x32xf32> loc(#loc991)
    %887 = stablehlo.multiply %886, %8 : tensor<1x32xf32> loc(#loc992)
    %888 = stablehlo.broadcast_in_dim %887, dims = [0, 1] : (tensor<1x32xf32>) -> tensor<1x32x8x65536xf32> loc(#loc993)
    %889 = stablehlo.subtract %885, %888 : tensor<1x32x8x65536xf32> loc(#loc994)
    %890 = stablehlo.multiply %889, %889 : tensor<1x32x8x65536xf32> loc(#loc995)
    %891 = stablehlo.reduce(%890 init: %36) applies stablehlo.add across dimensions = [2, 3] : (tensor<1x32x8x65536xf32>, tensor<f32>) -> tensor<1x32xf32> loc(#loc996)
    %892 = stablehlo.multiply %891, %8 : tensor<1x32xf32> loc(#loc997)
    %893 = stablehlo.reshape %892 : (tensor<1x32xf32>) -> tensor<1x32x1x1xf32> loc(#loc998)
    %894 = stablehlo.add %893, %28 : tensor<1x32x1x1xf32> loc(#loc999)
    %895 = stablehlo.rsqrt %894 : tensor<1x32x1x1xf32> loc(#loc1000)
    %896 = stablehlo.reshape %895 : (tensor<1x32x1x1xf32>) -> tensor<1x32xf32> loc(#loc1001)
    %897 = stablehlo.broadcast_in_dim %896, dims = [0, 1] : (tensor<1x32xf32>) -> tensor<1x32x8x65536xf32> loc(#loc1002)
    %898 = stablehlo.multiply %889, %897 : tensor<1x32x8x65536xf32> loc(#loc1003)
    %899 = stablehlo.reshape %898 : (tensor<1x32x8x65536xf32>) -> tensor<1x256x256x256xf32> loc(#loc1004)
    %900 = stablehlo.reshape %arg45 : (tensor<256xbf16>) -> tensor<1x1x256xbf16> loc(#loc1005)
    %901 = stablehlo.reshape %900 : (tensor<1x1x256xbf16>) -> tensor<1x256x1x1xbf16> loc(#loc1006)
    %902 = stablehlo.convert %901 : (tensor<1x256x1x1xbf16>) -> tensor<1x256x1x1xf32> loc(#loc1007)
    %903 = stablehlo.reshape %902 : (tensor<1x256x1x1xf32>) -> tensor<1x256xf32> loc(#loc1008)
    %904 = stablehlo.broadcast_in_dim %903, dims = [0, 1] : (tensor<1x256xf32>) -> tensor<1x256x256x256xf32> loc(#loc1009)
    %905 = stablehlo.multiply %899, %904 : tensor<1x256x256x256xf32> loc(#loc1010)
    %906 = stablehlo.reshape %arg44 : (tensor<256xbf16>) -> tensor<1x1x256xbf16> loc(#loc1011)
    %907 = stablehlo.reshape %906 : (tensor<1x1x256xbf16>) -> tensor<1x256x1x1xbf16> loc(#loc1012)
    %908 = stablehlo.convert %907 : (tensor<1x256x1x1xbf16>) -> tensor<1x256x1x1xf32> loc(#loc1013)
    %909 = stablehlo.reshape %908 : (tensor<1x256x1x1xf32>) -> tensor<1x256xf32> loc(#loc1014)
    %910 = stablehlo.broadcast_in_dim %909, dims = [0, 1] : (tensor<1x256xf32>) -> tensor<1x256x256x256xf32> loc(#loc1015)
    %911 = stablehlo.add %905, %910 : tensor<1x256x256x256xf32> loc(#loc1016)
    %912 = stablehlo.convert %911 : (tensor<1x256x256x256xf32>) -> tensor<1x256x256x256xbf16> loc(#loc1017)
    %913 = stablehlo.convert %912 : (tensor<1x256x256x256xbf16>) -> tensor<1x256x256x256xf32> loc(#loc1018)
    %914 = stablehlo.logistic %913 : tensor<1x256x256x256xf32> loc(#loc1019)
    %915 = stablehlo.multiply %913, %914 : tensor<1x256x256x256xf32> loc(#loc1020)
    %916 = stablehlo.convert %915 : (tensor<1x256x256x256xf32>) -> tensor<1x256x256x256xbf16> loc(#loc1021)
    %917 = stablehlo.convolution(%916, %arg43) dim_numbers = [b, f, 0, 1]x[o, i, 0, 1]->[b, f, 0, 1], window = {pad = [[1, 1], [1, 1]]} {batch_group_count = 1 : i64, feature_group_count = 1 : i64} : (tensor<1x256x256x256xbf16>, tensor<256x256x3x3xbf16>) -> tensor<1x256x256x256xbf16> loc(#loc1022)
    %918 = stablehlo.reshape %arg42 : (tensor<256xbf16>) -> tensor<1x1x256xbf16> loc(#loc1023)
    %919 = stablehlo.reshape %918 : (tensor<1x1x256xbf16>) -> tensor<256xbf16> loc(#loc1024)
    %920 = stablehlo.broadcast_in_dim %919, dims = [1] : (tensor<256xbf16>) -> tensor<1x256x256x256xbf16> loc(#loc1025)
    %921 = stablehlo.add %917, %920 : tensor<1x256x256x256xbf16> loc(#loc1026)
    %922 = stablehlo.convert %921 : (tensor<1x256x256x256xbf16>) -> tensor<1x256x256x256xf32> loc(#loc1027)
    %923 = stablehlo.reshape %922 : (tensor<1x256x256x256xf32>) -> tensor<1x32x8x65536xf32> loc(#loc1028)
    %924 = stablehlo.reduce(%923 init: %36) applies stablehlo.add across dimensions = [2, 3] : (tensor<1x32x8x65536xf32>, tensor<f32>) -> tensor<1x32xf32> loc(#loc1029)
    %925 = stablehlo.multiply %924, %8 : tensor<1x32xf32> loc(#loc1030)
    %926 = stablehlo.broadcast_in_dim %925, dims = [0, 1] : (tensor<1x32xf32>) -> tensor<1x32x8x65536xf32> loc(#loc1031)
    %927 = stablehlo.subtract %923, %926 : tensor<1x32x8x65536xf32> loc(#loc1032)
    %928 = stablehlo.multiply %927, %927 : tensor<1x32x8x65536xf32> loc(#loc1033)
    %929 = stablehlo.reduce(%928 init: %36) applies stablehlo.add across dimensions = [2, 3] : (tensor<1x32x8x65536xf32>, tensor<f32>) -> tensor<1x32xf32> loc(#loc1034)
    %930 = stablehlo.multiply %929, %8 : tensor<1x32xf32> loc(#loc1035)
    %931 = stablehlo.reshape %930 : (tensor<1x32xf32>) -> tensor<1x32x1x1xf32> loc(#loc1036)
    %932 = stablehlo.add %931, %28 : tensor<1x32x1x1xf32> loc(#loc1037)
    %933 = stablehlo.rsqrt %932 : tensor<1x32x1x1xf32> loc(#loc1038)
    %934 = stablehlo.reshape %933 : (tensor<1x32x1x1xf32>) -> tensor<1x32xf32> loc(#loc1039)
    %935 = stablehlo.broadcast_in_dim %934, dims = [0, 1] : (tensor<1x32xf32>) -> tensor<1x32x8x65536xf32> loc(#loc1040)
    %936 = stablehlo.multiply %927, %935 : tensor<1x32x8x65536xf32> loc(#loc1041)
    %937 = stablehlo.reshape %936 : (tensor<1x32x8x65536xf32>) -> tensor<1x256x256x256xf32> loc(#loc1042)
    %938 = stablehlo.reshape %arg41 : (tensor<256xbf16>) -> tensor<1x1x256xbf16> loc(#loc1043)
    %939 = stablehlo.reshape %938 : (tensor<1x1x256xbf16>) -> tensor<1x256x1x1xbf16> loc(#loc1044)
    %940 = stablehlo.convert %939 : (tensor<1x256x1x1xbf16>) -> tensor<1x256x1x1xf32> loc(#loc1045)
    %941 = stablehlo.reshape %940 : (tensor<1x256x1x1xf32>) -> tensor<1x256xf32> loc(#loc1046)
    %942 = stablehlo.broadcast_in_dim %941, dims = [0, 1] : (tensor<1x256xf32>) -> tensor<1x256x256x256xf32> loc(#loc1047)
    %943 = stablehlo.multiply %937, %942 : tensor<1x256x256x256xf32> loc(#loc1048)
    %944 = stablehlo.reshape %arg40 : (tensor<256xbf16>) -> tensor<1x1x256xbf16> loc(#loc1049)
    %945 = stablehlo.reshape %944 : (tensor<1x1x256xbf16>) -> tensor<1x256x1x1xbf16> loc(#loc1050)
    %946 = stablehlo.convert %945 : (tensor<1x256x1x1xbf16>) -> tensor<1x256x1x1xf32> loc(#loc1051)
    %947 = stablehlo.reshape %946 : (tensor<1x256x1x1xf32>) -> tensor<1x256xf32> loc(#loc1052)
    %948 = stablehlo.broadcast_in_dim %947, dims = [0, 1] : (tensor<1x256xf32>) -> tensor<1x256x256x256xf32> loc(#loc1053)
    %949 = stablehlo.add %943, %948 : tensor<1x256x256x256xf32> loc(#loc1054)
    %950 = stablehlo.convert %949 : (tensor<1x256x256x256xf32>) -> tensor<1x256x256x256xbf16> loc(#loc1055)
    %951 = stablehlo.convert %950 : (tensor<1x256x256x256xbf16>) -> tensor<1x256x256x256xf32> loc(#loc1056)
    %952 = stablehlo.logistic %951 : tensor<1x256x256x256xf32> loc(#loc1057)
    %953 = stablehlo.multiply %951, %952 : tensor<1x256x256x256xf32> loc(#loc1058)
    %954 = stablehlo.convert %953 : (tensor<1x256x256x256xf32>) -> tensor<1x256x256x256xbf16> loc(#loc1059)
    %955 = stablehlo.convolution(%954, %arg39) dim_numbers = [b, f, 0, 1]x[o, i, 0, 1]->[b, f, 0, 1], window = {pad = [[1, 1], [1, 1]]} {batch_group_count = 1 : i64, feature_group_count = 1 : i64} : (tensor<1x256x256x256xbf16>, tensor<256x256x3x3xbf16>) -> tensor<1x256x256x256xbf16> loc(#loc1060)
    %956 = stablehlo.reshape %arg38 : (tensor<256xbf16>) -> tensor<1x1x256xbf16> loc(#loc1061)
    %957 = stablehlo.reshape %956 : (tensor<1x1x256xbf16>) -> tensor<256xbf16> loc(#loc1062)
    %958 = stablehlo.broadcast_in_dim %957, dims = [1] : (tensor<256xbf16>) -> tensor<1x256x256x256xbf16> loc(#loc1063)
    %959 = stablehlo.add %955, %958 : tensor<1x256x256x256xbf16> loc(#loc1064)
    %960 = stablehlo.add %883, %959 : tensor<1x256x256x256xbf16> loc(#loc1065)
    %961 = stablehlo.divide %960, %6 : tensor<1x256x256x256xbf16> loc(#loc1066)
    %962 = stablehlo.convert %961 : (tensor<1x256x256x256xbf16>) -> tensor<1x256x256x256xf32> loc(#loc1067)
    %963 = stablehlo.reshape %962 : (tensor<1x256x256x256xf32>) -> tensor<1x32x8x65536xf32> loc(#loc1068)
    %964 = stablehlo.reduce(%963 init: %36) applies stablehlo.add across dimensions = [2, 3] : (tensor<1x32x8x65536xf32>, tensor<f32>) -> tensor<1x32xf32> loc(#loc1069)
    %965 = stablehlo.multiply %964, %8 : tensor<1x32xf32> loc(#loc1070)
    %966 = stablehlo.broadcast_in_dim %965, dims = [0, 1] : (tensor<1x32xf32>) -> tensor<1x32x8x65536xf32> loc(#loc1071)
    %967 = stablehlo.subtract %963, %966 : tensor<1x32x8x65536xf32> loc(#loc1072)
    %968 = stablehlo.multiply %967, %967 : tensor<1x32x8x65536xf32> loc(#loc1073)
    %969 = stablehlo.reduce(%968 init: %36) applies stablehlo.add across dimensions = [2, 3] : (tensor<1x32x8x65536xf32>, tensor<f32>) -> tensor<1x32xf32> loc(#loc1074)
    %970 = stablehlo.multiply %969, %8 : tensor<1x32xf32> loc(#loc1075)
    %971 = stablehlo.reshape %970 : (tensor<1x32xf32>) -> tensor<1x32x1x1xf32> loc(#loc1076)
    %972 = stablehlo.add %971, %28 : tensor<1x32x1x1xf32> loc(#loc1077)
    %973 = stablehlo.rsqrt %972 : tensor<1x32x1x1xf32> loc(#loc1078)
    %974 = stablehlo.reshape %973 : (tensor<1x32x1x1xf32>) -> tensor<1x32xf32> loc(#loc1079)
    %975 = stablehlo.broadcast_in_dim %974, dims = [0, 1] : (tensor<1x32xf32>) -> tensor<1x32x8x65536xf32> loc(#loc1080)
    %976 = stablehlo.multiply %967, %975 : tensor<1x32x8x65536xf32> loc(#loc1081)
    %977 = stablehlo.reshape %976 : (tensor<1x32x8x65536xf32>) -> tensor<1x256x256x256xf32> loc(#loc1082)
    %978 = stablehlo.reshape %arg37 : (tensor<256xbf16>) -> tensor<1x1x256xbf16> loc(#loc1083)
    %979 = stablehlo.reshape %978 : (tensor<1x1x256xbf16>) -> tensor<1x256x1x1xbf16> loc(#loc1084)
    %980 = stablehlo.convert %979 : (tensor<1x256x1x1xbf16>) -> tensor<1x256x1x1xf32> loc(#loc1085)
    %981 = stablehlo.reshape %980 : (tensor<1x256x1x1xf32>) -> tensor<1x256xf32> loc(#loc1086)
    %982 = stablehlo.broadcast_in_dim %981, dims = [0, 1] : (tensor<1x256xf32>) -> tensor<1x256x256x256xf32> loc(#loc1087)
    %983 = stablehlo.multiply %977, %982 : tensor<1x256x256x256xf32> loc(#loc1088)
    %984 = stablehlo.reshape %arg36 : (tensor<256xbf16>) -> tensor<1x1x256xbf16> loc(#loc1089)
    %985 = stablehlo.reshape %984 : (tensor<1x1x256xbf16>) -> tensor<1x256x1x1xbf16> loc(#loc1090)
    %986 = stablehlo.convert %985 : (tensor<1x256x1x1xbf16>) -> tensor<1x256x1x1xf32> loc(#loc1091)
    %987 = stablehlo.reshape %986 : (tensor<1x256x1x1xf32>) -> tensor<1x256xf32> loc(#loc1092)
    %988 = stablehlo.broadcast_in_dim %987, dims = [0, 1] : (tensor<1x256xf32>) -> tensor<1x256x256x256xf32> loc(#loc1093)
    %989 = stablehlo.add %983, %988 : tensor<1x256x256x256xf32> loc(#loc1094)
    %990 = stablehlo.convert %989 : (tensor<1x256x256x256xf32>) -> tensor<1x256x256x256xbf16> loc(#loc1095)
    %991 = stablehlo.convert %990 : (tensor<1x256x256x256xbf16>) -> tensor<1x256x256x256xf32> loc(#loc1096)
    %992 = stablehlo.logistic %991 : tensor<1x256x256x256xf32> loc(#loc1097)
    %993 = stablehlo.multiply %991, %992 : tensor<1x256x256x256xf32> loc(#loc1098)
    %994 = stablehlo.convert %993 : (tensor<1x256x256x256xf32>) -> tensor<1x256x256x256xbf16> loc(#loc1099)
    %995 = stablehlo.convolution(%994, %arg35) dim_numbers = [b, f, 0, 1]x[o, i, 0, 1]->[b, f, 0, 1], window = {pad = [[1, 1], [1, 1]]} {batch_group_count = 1 : i64, feature_group_count = 1 : i64} : (tensor<1x256x256x256xbf16>, tensor<256x256x3x3xbf16>) -> tensor<1x256x256x256xbf16> loc(#loc1100)
    %996 = stablehlo.reshape %arg34 : (tensor<256xbf16>) -> tensor<1x1x256xbf16> loc(#loc1101)
    %997 = stablehlo.reshape %996 : (tensor<1x1x256xbf16>) -> tensor<256xbf16> loc(#loc1102)
    %998 = stablehlo.broadcast_in_dim %997, dims = [1] : (tensor<256xbf16>) -> tensor<1x256x256x256xbf16> loc(#loc1103)
    %999 = stablehlo.add %995, %998 : tensor<1x256x256x256xbf16> loc(#loc1104)
    %1000 = stablehlo.convert %999 : (tensor<1x256x256x256xbf16>) -> tensor<1x256x256x256xf32> loc(#loc1105)
    %1001 = stablehlo.reshape %1000 : (tensor<1x256x256x256xf32>) -> tensor<1x32x8x65536xf32> loc(#loc1106)
    %1002 = stablehlo.reduce(%1001 init: %36) applies stablehlo.add across dimensions = [2, 3] : (tensor<1x32x8x65536xf32>, tensor<f32>) -> tensor<1x32xf32> loc(#loc1107)
    %1003 = stablehlo.multiply %1002, %8 : tensor<1x32xf32> loc(#loc1108)
    %1004 = stablehlo.broadcast_in_dim %1003, dims = [0, 1] : (tensor<1x32xf32>) -> tensor<1x32x8x65536xf32> loc(#loc1109)
    %1005 = stablehlo.subtract %1001, %1004 : tensor<1x32x8x65536xf32> loc(#loc1110)
    %1006 = stablehlo.multiply %1005, %1005 : tensor<1x32x8x65536xf32> loc(#loc1111)
    %1007 = stablehlo.reduce(%1006 init: %36) applies stablehlo.add across dimensions = [2, 3] : (tensor<1x32x8x65536xf32>, tensor<f32>) -> tensor<1x32xf32> loc(#loc1112)
    %1008 = stablehlo.multiply %1007, %8 : tensor<1x32xf32> loc(#loc1113)
    %1009 = stablehlo.reshape %1008 : (tensor<1x32xf32>) -> tensor<1x32x1x1xf32> loc(#loc1114)
    %1010 = stablehlo.add %1009, %28 : tensor<1x32x1x1xf32> loc(#loc1115)
    %1011 = stablehlo.rsqrt %1010 : tensor<1x32x1x1xf32> loc(#loc1116)
    %1012 = stablehlo.reshape %1011 : (tensor<1x32x1x1xf32>) -> tensor<1x32xf32> loc(#loc1117)
    %1013 = stablehlo.broadcast_in_dim %1012, dims = [0, 1] : (tensor<1x32xf32>) -> tensor<1x32x8x65536xf32> loc(#loc1118)
    %1014 = stablehlo.multiply %1005, %1013 : tensor<1x32x8x65536xf32> loc(#loc1119)
    %1015 = stablehlo.reshape %1014 : (tensor<1x32x8x65536xf32>) -> tensor<1x256x256x256xf32> loc(#loc1120)
    %1016 = stablehlo.reshape %arg33 : (tensor<256xbf16>) -> tensor<1x1x256xbf16> loc(#loc1121)
    %1017 = stablehlo.reshape %1016 : (tensor<1x1x256xbf16>) -> tensor<1x256x1x1xbf16> loc(#loc1122)
    %1018 = stablehlo.convert %1017 : (tensor<1x256x1x1xbf16>) -> tensor<1x256x1x1xf32> loc(#loc1123)
    %1019 = stablehlo.reshape %1018 : (tensor<1x256x1x1xf32>) -> tensor<1x256xf32> loc(#loc1124)
    %1020 = stablehlo.broadcast_in_dim %1019, dims = [0, 1] : (tensor<1x256xf32>) -> tensor<1x256x256x256xf32> loc(#loc1125)
    %1021 = stablehlo.multiply %1015, %1020 : tensor<1x256x256x256xf32> loc(#loc1126)
    %1022 = stablehlo.reshape %arg32 : (tensor<256xbf16>) -> tensor<1x1x256xbf16> loc(#loc1127)
    %1023 = stablehlo.reshape %1022 : (tensor<1x1x256xbf16>) -> tensor<1x256x1x1xbf16> loc(#loc1128)
    %1024 = stablehlo.convert %1023 : (tensor<1x256x1x1xbf16>) -> tensor<1x256x1x1xf32> loc(#loc1129)
    %1025 = stablehlo.reshape %1024 : (tensor<1x256x1x1xf32>) -> tensor<1x256xf32> loc(#loc1130)
    %1026 = stablehlo.broadcast_in_dim %1025, dims = [0, 1] : (tensor<1x256xf32>) -> tensor<1x256x256x256xf32> loc(#loc1131)
    %1027 = stablehlo.add %1021, %1026 : tensor<1x256x256x256xf32> loc(#loc1132)
    %1028 = stablehlo.convert %1027 : (tensor<1x256x256x256xf32>) -> tensor<1x256x256x256xbf16> loc(#loc1133)
    %1029 = stablehlo.convert %1028 : (tensor<1x256x256x256xbf16>) -> tensor<1x256x256x256xf32> loc(#loc1134)
    %1030 = stablehlo.logistic %1029 : tensor<1x256x256x256xf32> loc(#loc1135)
    %1031 = stablehlo.multiply %1029, %1030 : tensor<1x256x256x256xf32> loc(#loc1136)
    %1032 = stablehlo.convert %1031 : (tensor<1x256x256x256xf32>) -> tensor<1x256x256x256xbf16> loc(#loc1137)
    %1033 = stablehlo.convolution(%1032, %arg31) dim_numbers = [b, f, 0, 1]x[o, i, 0, 1]->[b, f, 0, 1], window = {pad = [[1, 1], [1, 1]]} {batch_group_count = 1 : i64, feature_group_count = 1 : i64} : (tensor<1x256x256x256xbf16>, tensor<256x256x3x3xbf16>) -> tensor<1x256x256x256xbf16> loc(#loc1138)
    %1034 = stablehlo.reshape %arg30 : (tensor<256xbf16>) -> tensor<1x1x256xbf16> loc(#loc1139)
    %1035 = stablehlo.reshape %1034 : (tensor<1x1x256xbf16>) -> tensor<256xbf16> loc(#loc1140)
    %1036 = stablehlo.broadcast_in_dim %1035, dims = [1] : (tensor<256xbf16>) -> tensor<1x256x256x256xbf16> loc(#loc1141)
    %1037 = stablehlo.add %1033, %1036 : tensor<1x256x256x256xbf16> loc(#loc1142)
    %1038 = stablehlo.add %961, %1037 : tensor<1x256x256x256xbf16> loc(#loc1143)
    %1039 = stablehlo.divide %1038, %6 : tensor<1x256x256x256xbf16> loc(#loc1144)
    %1040 = stablehlo.transpose %1039, dims = [0, 1, 3, 2] {result_layout = dense<[2, 3, 1, 0]> : tensor<4xindex>, xla_shape = "bf16[1,256,256,256]{2,3,1,0}"} : (tensor<1x256x256x256xbf16>) -> tensor<1x256x256x256xbf16> loc(#loc1145)
    %1041 = stablehlo.floor %4 : tensor<512xf64> loc(#loc1146)
    %1042 = stablehlo.convert %1041 : (tensor<512xf64>) -> tensor<512xi64> loc(#loc1147)
    %1043 = stablehlo.broadcast_in_dim %1042, dims = [0] : (tensor<512xi64>) -> tensor<512x256xi64> loc(#loc1148)
    %1044 = stablehlo.broadcast_in_dim %31, dims = [1] : (tensor<256xi64>) -> tensor<512x256xi64> loc(#loc1149)
    %1045 = stablehlo.compare  EQ, %1043, %1044 : (tensor<512x256xi64>, tensor<512x256xi64>) -> tensor<512x256xi1> loc(#loc1150)
    %1046 = stablehlo.convert %1045 : (tensor<512x256xi1>) -> tensor<512x256xi64> loc(#loc1151)
    %1047 = stablehlo.transpose %1046, dims = [1, 0] {result_layout = dense<[0, 1]> : tensor<2xindex>, xla_shape = "s64[256,512]{0,1}"} : (tensor<512x256xi64>) -> tensor<256x512xi64> loc(#loc1152)
    %1048 = stablehlo.convert %1047 {result_layout = dense<[0, 1]> : tensor<2xindex>, xla_shape = "bf16[256,512]{0,1}"} : (tensor<256x512xi64>) -> tensor<256x512xbf16> loc(#loc1153)
    %1049 = stablehlo.dot_general %1040, %1048, contracting_dims = [3] x [0] {mhlo.frontend_attributes = {grad_x = "false", grad_y = "false"}} : (tensor<1x256x256x256xbf16>, tensor<256x512xbf16>) -> tensor<1x256x256x512xbf16> loc(#loc1154)
    %1050 = stablehlo.transpose %1049, dims = [0, 1, 3, 2] {result_layout = dense<[2, 3, 1, 0]> : tensor<4xindex>, xla_shape = "bf16[1,256,512,256]{2,3,1,0}"} : (tensor<1x256x256x512xbf16>) -> tensor<1x256x512x256xbf16> loc(#loc1155)
    %1051 = stablehlo.dot_general %1050, %1048, contracting_dims = [3] x [0] {mhlo.frontend_attributes = {grad_x = "false", grad_y = "false"}} : (tensor<1x256x512x256xbf16>, tensor<256x512xbf16>) -> tensor<1x256x512x512xbf16> loc(#loc1156)
    %1052 = stablehlo.convolution(%1051, %arg29) dim_numbers = [b, f, 0, 1]x[o, i, 0, 1]->[b, f, 0, 1], window = {pad = [[1, 1], [1, 1]]} {batch_group_count = 1 : i64, feature_group_count = 1 : i64} : (tensor<1x256x512x512xbf16>, tensor<256x256x3x3xbf16>) -> tensor<1x256x512x512xbf16> loc(#loc1157)
    %1053 = stablehlo.reshape %arg28 : (tensor<256xbf16>) -> tensor<1x1x256xbf16> loc(#loc1158)
    %1054 = stablehlo.reshape %1053 : (tensor<1x1x256xbf16>) -> tensor<256xbf16> loc(#loc1159)
    %1055 = stablehlo.broadcast_in_dim %1054, dims = [1] : (tensor<256xbf16>) -> tensor<1x256x512x512xbf16> loc(#loc1160)
    %1056 = stablehlo.add %1052, %1055 : tensor<1x256x512x512xbf16> loc(#loc1161)
    %1057 = stablehlo.convolution(%1056, %arg138) dim_numbers = [b, f, 0, 1]x[o, i, 0, 1]->[b, f, 0, 1], window = {} {batch_group_count = 1 : i64, feature_group_count = 1 : i64} : (tensor<1x256x512x512xbf16>, tensor<128x256x1x1xbf16>) -> tensor<1x128x512x512xbf16> loc(#loc1162)
    %1058 = stablehlo.reshape %arg137 : (tensor<128xbf16>) -> tensor<1x1x128xbf16> loc(#loc1163)
    %1059 = stablehlo.reshape %1058 : (tensor<1x1x128xbf16>) -> tensor<128xbf16> loc(#loc1164)
    %1060 = stablehlo.broadcast_in_dim %1059, dims = [1] : (tensor<128xbf16>) -> tensor<1x128x512x512xbf16> loc(#loc1165)
    %1061 = stablehlo.add %1057, %1060 : tensor<1x128x512x512xbf16> loc(#loc1166)
    %1062 = stablehlo.convert %1056 : (tensor<1x256x512x512xbf16>) -> tensor<1x256x512x512xf32> loc(#loc1167)
    %1063 = stablehlo.reshape %1062 : (tensor<1x256x512x512xf32>) -> tensor<1x32x8x262144xf32> loc(#loc1168)
    %1064 = stablehlo.reduce(%1063 init: %36) applies stablehlo.add across dimensions = [2, 3] : (tensor<1x32x8x262144xf32>, tensor<f32>) -> tensor<1x32xf32> loc(#loc1169)
    %1065 = stablehlo.multiply %1064, %3 : tensor<1x32xf32> loc(#loc1170)
    %1066 = stablehlo.broadcast_in_dim %1065, dims = [0, 1] : (tensor<1x32xf32>) -> tensor<1x32x8x262144xf32> loc(#loc1171)
    %1067 = stablehlo.subtract %1063, %1066 : tensor<1x32x8x262144xf32> loc(#loc1172)
    %1068 = stablehlo.multiply %1067, %1067 : tensor<1x32x8x262144xf32> loc(#loc1173)
    %1069 = stablehlo.reduce(%1068 init: %36) applies stablehlo.add across dimensions = [2, 3] : (tensor<1x32x8x262144xf32>, tensor<f32>) -> tensor<1x32xf32> loc(#loc1174)
    %1070 = stablehlo.multiply %1069, %3 : tensor<1x32xf32> loc(#loc1175)
    %1071 = stablehlo.reshape %1070 : (tensor<1x32xf32>) -> tensor<1x32x1x1xf32> loc(#loc1176)
    %1072 = stablehlo.add %1071, %28 : tensor<1x32x1x1xf32> loc(#loc1177)
    %1073 = stablehlo.rsqrt %1072 : tensor<1x32x1x1xf32> loc(#loc1178)
    %1074 = stablehlo.reshape %1073 : (tensor<1x32x1x1xf32>) -> tensor<1x32xf32> loc(#loc1179)
    %1075 = stablehlo.broadcast_in_dim %1074, dims = [0, 1] : (tensor<1x32xf32>) -> tensor<1x32x8x262144xf32> loc(#loc1180)
    %1076 = stablehlo.multiply %1067, %1075 : tensor<1x32x8x262144xf32> loc(#loc1181)
    %1077 = stablehlo.reshape %1076 : (tensor<1x32x8x262144xf32>) -> tensor<1x256x512x512xf32> loc(#loc1182)
    %1078 = stablehlo.reshape %arg27 : (tensor<256xbf16>) -> tensor<1x1x256xbf16> loc(#loc1183)
    %1079 = stablehlo.reshape %1078 : (tensor<1x1x256xbf16>) -> tensor<1x256x1x1xbf16> loc(#loc1184)
    %1080 = stablehlo.convert %1079 : (tensor<1x256x1x1xbf16>) -> tensor<1x256x1x1xf32> loc(#loc1185)
    %1081 = stablehlo.reshape %1080 : (tensor<1x256x1x1xf32>) -> tensor<1x256xf32> loc(#loc1186)
    %1082 = stablehlo.broadcast_in_dim %1081, dims = [0, 1] : (tensor<1x256xf32>) -> tensor<1x256x512x512xf32> loc(#loc1187)
    %1083 = stablehlo.multiply %1077, %1082 : tensor<1x256x512x512xf32> loc(#loc1188)
    %1084 = stablehlo.reshape %arg26 : (tensor<256xbf16>) -> tensor<1x1x256xbf16> loc(#loc1189)
    %1085 = stablehlo.reshape %1084 : (tensor<1x1x256xbf16>) -> tensor<1x256x1x1xbf16> loc(#loc1190)
    %1086 = stablehlo.convert %1085 : (tensor<1x256x1x1xbf16>) -> tensor<1x256x1x1xf32> loc(#loc1191)
…
    %1233 = stablehlo.reshape %1232 : (tensor<1x32x4x262144xf32>) -> tensor<1x128x512x512xf32> loc(#loc1338)
    %1234 = stablehlo.reshape %arg11 : (tensor<128xbf16>) -> tensor<1x1x128xbf16> loc(#loc1339)
    %1235 = stablehlo.reshape %1234 : (tensor<1x1x128xbf16>) -> tensor<1x128x1x1xbf16> loc(#loc1340)
    %1236 = stablehlo.convert %1235 : (tensor<1x128x1x1xbf16>) -> tensor<1x128x1x1xf32> loc(#loc1341)
    %1237 = stablehlo.reshape %1236 : (tensor<1x128x1x1xf32>) -> tensor<1x128xf32> loc(#loc1342)
    %1238 = stablehlo.broadcast_in_dim %1237, dims = [0, 1] : (tensor<1x128xf32>) -> tensor<1x128x512x512xf32> loc(#loc1343)
    %1239 = stablehlo.multiply %1233, %1238 : tensor<1x128x512x512xf32> loc(#loc1344)
    %1240 = stablehlo.reshape %arg10 : (tensor<128xbf16>) -> tensor<1x1x128xbf16> loc(#loc1345)
    %1241 = stablehlo.reshape %1240 : (tensor<1x1x128xbf16>) -> tensor<1x128x1x1xbf16> loc(#loc1346)
    %1242 = stablehlo.convert %1241 : (tensor<1x128x1x1xbf16>) -> tensor<1x128x1x1xf32> loc(#loc1347)
    %1243 = stablehlo.reshape %1242 : (tensor<1x128x1x1xf32>) -> tensor<1x128xf32> loc(#loc1348)
    %1244 = stablehlo.broadcast_in_dim %1243, dims = [0, 1] : (tensor<1x128xf32>) -> tensor<1x128x512x512xf32> loc(#loc1349)
    %1245 = stablehlo.add %1239, %1244 : tensor<1x128x512x512xf32> loc(#loc1350)
    %1246 = stablehlo.convert %1245 : (tensor<1x128x512x512xf32>) -> tensor<1x128x512x512xbf16> loc(#loc1351)
    %1247 = stablehlo.convert %1246 : (tensor<1x128x512x512xbf16>) -> tensor<1x128x512x512xf32> loc(#loc1352)
    %1248 = stablehlo.logistic %1247 : tensor<1x128x512x512xf32> loc(#loc1353)
    %1249 = stablehlo.multiply %1247, %1248 : tensor<1x128x512x512xf32> loc(#loc1354)
    %1250 = stablehlo.convert %1249 : (tensor<1x128x512x512xf32>) -> tensor<1x128x512x512xbf16> loc(#loc1355)
    %1251 = stablehlo.convolution(%1250, %arg9) dim_numbers = [b, f, 0, 1]x[o, i, 0, 1]->[b, f, 0, 1], window = {pad = [[1, 1], [1, 1]]} {batch_group_count = 1 : i64, feature_group_count = 1 : i64} : (tensor<1x128x512x512xbf16>, tensor<128x128x3x3xbf16>) -> tensor<1x128x512x512xbf16> loc(#loc1356)
    %1252 = stablehlo.reshape %arg8 : (tensor<128xbf16>) -> tensor<1x1x128xbf16> loc(#loc1357)
    %1253 = stablehlo.reshape %1252 : (tensor<1x1x128xbf16>) -> tensor<128xbf16> loc(#loc1358)
    %1254 = stablehlo.broadcast_in_dim %1253, dims = [1] : (tensor<128xbf16>) -> tensor<1x128x512x512xbf16> loc(#loc1359)
    %1255 = stablehlo.add %1251, %1254 : tensor<1x128x512x512xbf16> loc(#loc1360)
    %1256 = stablehlo.convert %1255 : (tensor<1x128x512x512xbf16>) -> tensor<1x128x512x512xf32> loc(#loc1361)
    %1257 = stablehlo.reshape %1256 : (tensor<1x128x512x512xf32>) -> tensor<1x32x4x262144xf32> loc(#loc1362)
    %1258 = stablehlo.reduce(%1257 init: %36) applies stablehlo.add across dimensions = [2, 3] : (tensor<1x32x4x262144xf32>, tensor<f32>) -> tensor<1x32xf32> loc(#loc1363)
    %1259 = stablehlo.multiply %1258, %10 : tensor<1x32xf32> loc(#loc1364)
    %1260 = stablehlo.broadcast_in_dim %1259, dims = [0, 1] : (tensor<1x32xf32>) -> tensor<1x32x4x262144xf32> loc(#loc1365)
    %1261 = stablehlo.subtract %1257, %1260 : tensor<1x32x4x262144xf32> loc(#loc1366)
    %1262 = stablehlo.multiply %1261, %1261 : tensor<1x32x4x262144xf32> loc(#loc1367)
    %1263 = stablehlo.reduce(%1262 init: %36) applies stablehlo.add across dimensions = [2, 3] : (tensor<1x32x4x262144xf32>, tensor<f32>) -> tensor<1x32xf32> loc(#loc1368)
    %1264 = stablehlo.multiply %1263, %10 : tensor<1x32xf32> loc(#loc1369)
    %1265 = stablehlo.reshape %1264 : (tensor<1x32xf32>) -> tensor<1x32x1x1xf32> loc(#loc1370)
    %1266 = stablehlo.add %1265, %28 : tensor<1x32x1x1xf32> loc(#loc1371)
    %1267 = stablehlo.rsqrt %1266 : tensor<1x32x1x1xf32> loc(#loc1372)
    %1268 = stablehlo.reshape %1267 : (tensor<1x32x1x1xf32>) -> tensor<1x32xf32> loc(#loc1373)
    %1269 = stablehlo.broadcast_in_dim %1268, dims = [0, 1] : (tensor<1x32xf32>) -> tensor<1x32x4x262144xf32> loc(#loc1374)
    %1270 = stablehlo.multiply %1261, %1269 : tensor<1x32x4x262144xf32> loc(#loc1375)
    %1271 = stablehlo.reshape %1270 : (tensor<1x32x4x262144xf32>) -> tensor<1x128x512x512xf32> loc(#loc1376)
    %1272 = stablehlo.reshape %arg7 : (tensor<128xbf16>) -> tensor<1x1x128xbf16> loc(#loc1377)
    %1273 = stablehlo.reshape %1272 : (tensor<1x1x128xbf16>) -> tensor<1x128x1x1xbf16> loc(#loc1378)
    %1274 = stablehlo.convert %1273 : (tensor<1x128x1x1xbf16>) -> tensor<1x128x1x1xf32> loc(#loc1379)
    %1275 = stablehlo.reshape %1274 : (tensor<1x128x1x1xf32>) -> tensor<1x128xf32> loc(#loc1380)
    %1276 = stablehlo.broadcast_in_dim %1275, dims = [0, 1] : (tensor<1x128xf32>) -> tensor<1x128x512x512xf32> loc(#loc1381)
    %1277 = stablehlo.multiply %1271, %1276 : tensor<1x128x512x512xf32> loc(#loc1382)
    %1278 = stablehlo.reshape %arg6 : (tensor<128xbf16>) -> tensor<1x1x128xbf16> loc(#loc1383)
    %1279 = stablehlo.reshape %1278 : (tensor<1x1x128xbf16>) -> tensor<1x128x1x1xbf16> loc(#loc1384)
    %1280 = stablehlo.convert %1279 : (tensor<1x128x1x1xbf16>) -> tensor<1x128x1x1xf32> loc(#loc1385)
    %1281 = stablehlo.reshape %1280 : (tensor<1x128x1x1xf32>) -> tensor<1x128xf32> loc(#loc1386)
    %1282 = stablehlo.broadcast_in_dim %1281, dims = [0, 1] : (tensor<1x128xf32>) -> tensor<1x128x512x512xf32> loc(#loc1387)
    %1283 = stablehlo.add %1277, %1282 : tensor<1x128x512x512xf32> loc(#loc1388)
    %1284 = stablehlo.convert %1283 : (tensor<1x128x512x512xf32>) -> tensor<1x128x512x512xbf16> loc(#loc1389)
    %1285 = stablehlo.convert %1284 : (tensor<1x128x512x512xbf16>) -> tensor<1x128x512x512xf32> loc(#loc1390)
    %1286 = stablehlo.logistic %1285 : tensor<1x128x512x512xf32> loc(#loc1391)
    %1287 = stablehlo.multiply %1285, %1286 : tensor<1x128x512x512xf32> loc(#loc1392)
    %1288 = stablehlo.convert %1287 : (tensor<1x128x512x512xf32>) -> tensor<1x128x512x512xbf16> loc(#loc1393)
    %1289 = stablehlo.convolution(%1288, %arg5) dim_numbers = [b, f, 0, 1]x[o, i, 0, 1]->[b, f, 0, 1], window = {pad = [[1, 1], [1, 1]]} {batch_group_count = 1 : i64, feature_group_count = 1 : i64} : (tensor<1x128x512x512xbf16>, tensor<128x128x3x3xbf16>) -> tensor<1x128x512x512xbf16> loc(#loc1394)
    %1290 = stablehlo.reshape %arg4 : (tensor<128xbf16>) -> tensor<1x1x128xbf16> loc(#loc1395)
    %1291 = stablehlo.reshape %1290 : (tensor<1x1x128xbf16>) -> tensor<128xbf16> loc(#loc1396)
    %1292 = stablehlo.broadcast_in_dim %1291, dims = [1] : (tensor<128xbf16>) -> tensor<1x128x512x512xbf16> loc(#loc1397)
    %1293 = stablehlo.add %1289, %1292 : tensor<1x128x512x512xbf16> loc(#loc1398)
    %1294 = stablehlo.add %1217, %1293 : tensor<1x128x512x512xbf16> loc(#loc1399)
    %1295 = stablehlo.divide %1294, %1 : tensor<1x128x512x512xbf16> loc(#loc1400)
    %1296 = stablehlo.convert %1295 : (tensor<1x128x512x512xbf16>) -> tensor<1x128x512x512xf32> loc(#loc1401)
    %1297 = stablehlo.reshape %1296 : (tensor<1x128x512x512xf32>) -> tensor<1x32x4x262144xf32> loc(#loc1402)
    %1298 = stablehlo.reduce(%1297 init: %36) applies stablehlo.add across dimensions = [2, 3] : (tensor<1x32x4x262144xf32>, tensor<f32>) -> tensor<1x32xf32> loc(#loc1403)
    %1299 = stablehlo.multiply %1298, %10 : tensor<1x32xf32> loc(#loc1404)
    %1300 = stablehlo.broadcast_in_dim %1299, dims = [0, 1] : (tensor<1x32xf32>) -> tensor<1x32x4x262144xf32> loc(#loc1405)
    %1301 = stablehlo.subtract %1297, %1300 : tensor<1x32x4x262144xf32> loc(#loc1406)
    %1302 = stablehlo.multiply %1301, %1301 : tensor<1x32x4x262144xf32> loc(#loc1407)
    %1303 = stablehlo.reduce(%1302 init: %36) applies stablehlo.add across dimensions = [2, 3] : (tensor<1x32x4x262144xf32>, tensor<f32>) -> tensor<1x32xf32> loc(#loc1408)
    %1304 = stablehlo.multiply %1303, %10 : tensor<1x32xf32> loc(#loc1409)
    %1305 = stablehlo.reshape %1304 : (tensor<1x32xf32>) -> tensor<1x32x1x1xf32> loc(#loc1410)
    %1306 = stablehlo.add %1305, %28 : tensor<1x32x1x1xf32> loc(#loc1411)
    %1307 = stablehlo.rsqrt %1306 : tensor<1x32x1x1xf32> loc(#loc1412)
    %1308 = stablehlo.reshape %1307 : (tensor<1x32x1x1xf32>) -> tensor<1x32xf32> loc(#loc1413)
    %1309 = stablehlo.broadcast_in_dim %1308, dims = [0, 1] : (tensor<1x32xf32>) -> tensor<1x32x4x262144xf32> loc(#loc1414)
    %1310 = stablehlo.multiply %1301, %1309 : tensor<1x32x4x262144xf32> loc(#loc1415)
    %1311 = stablehlo.reshape %1310 : (tensor<1x32x4x262144xf32>) -> tensor<1x128x512x512xf32> loc(#loc1416)
    %1312 = stablehlo.reshape %arg3 : (tensor<128xbf16>) -> tensor<1x1x128xbf16> loc(#loc1417)
    %1313 = stablehlo.reshape %1312 : (tensor<1x1x128xbf16>) -> tensor<1x128x1x1xbf16> loc(#loc1418)
    %1314 = stablehlo.convert %1313 : (tensor<1x128x1x1xbf16>) -> tensor<1x128x1x1xf32> loc(#loc1419)
    %1315 = stablehlo.reshape %1314 : (tensor<1x128x1x1xf32>) -> tensor<1x128xf32> loc(#loc1420)
    %1316 = stablehlo.broadcast_in_dim %1315, dims = [0, 1] : (tensor<1x128xf32>) -> tensor<1x128x512x512xf32> loc(#loc1421)
    %1317 = stablehlo.multiply %1311, %1316 : tensor<1x128x512x512xf32> loc(#loc1422)
    %1318 = stablehlo.reshape %arg2 : (tensor<128xbf16>) -> tensor<1x1x128xbf16> loc(#loc1423)
    %1319 = stablehlo.reshape %1318 : (tensor<1x1x128xbf16>) -> tensor<1x128x1x1xbf16> loc(#loc1424)
    %1320 = stablehlo.convert %1319 : (tensor<1x128x1x1xbf16>) -> tensor<1x128x1x1xf32> loc(#loc1425)
    %1321 = stablehlo.reshape %1320 : (tensor<1x128x1x1xf32>) -> tensor<1x128xf32> loc(#loc1426)
    %1322 = stablehlo.broadcast_in_dim %1321, dims = [0, 1] : (tensor<1x128xf32>) -> tensor<1x128x512x512xf32> loc(#loc1427)
    %1323 = stablehlo.add %1317, %1322 : tensor<1x128x512x512xf32> loc(#loc1428)
    %1324 = stablehlo.convert %1323 : (tensor<1x128x512x512xf32>) -> tensor<1x128x512x512xbf16> loc(#loc1429)
    %1325 = stablehlo.convert %1324 : (tensor<1x128x512x512xbf16>) -> tensor<1x128x512x512xf32> loc(#loc1430)
    %1326 = stablehlo.logistic %1325 : tensor<1x128x512x512xf32> loc(#loc1431)
    %1327 = stablehlo.multiply %1325, %1326 : tensor<1x128x512x512xf32> loc(#loc1432)
    %1328 = stablehlo.convert %1327 : (tensor<1x128x512x512xf32>) -> tensor<1x128x512x512xbf16> loc(#loc1433)
    %1329 = stablehlo.convolution(%1328, %arg1) dim_numbers = [b, f, 0, 1]x[o, i, 0, 1]->[b, f, 0, 1], window = {pad = [[1, 1], [1, 1]]} {batch_group_count = 1 : i64, feature_group_count = 1 : i64} : (tensor<1x128x512x512xbf16>, tensor<3x128x3x3xbf16>) -> tensor<1x3x512x512xbf16> loc(#loc1434)
    %1330 = stablehlo.reshape %arg0 : (tensor<3xbf16>) -> tensor<1x1x3xbf16> loc(#loc1435)
    %1331 = stablehlo.reshape %1330 : (tensor<1x1x3xbf16>) -> tensor<3xbf16> loc(#loc1436)
    %1332 = stablehlo.broadcast_in_dim %1331, dims = [1] : (tensor<3xbf16>) -> tensor<1x3x512x512xbf16> loc(#loc1437)
    %1333 = stablehlo.add %1329, %1332 : tensor<1x3x512x512xbf16> loc(#loc1438)
    return %1333 : tensor<1x3x512x512xbf16> loc(#loc)
  } loc(#loc)
} loc(#loc)
#loc = loc(unknown)
#loc140 = loc("convolution.843")
#loc141 = loc("reshape.836")
#loc142 = loc("reshape.838")
#loc143 = loc("transpose.845")
#loc144 = loc("add.846")
#loc145 = loc("convert.847")
#loc146 = loc("reshape.848")
#loc147 = loc("reduce.894")
#loc148 = loc("multiply.903")
#loc149 = loc("broadcast.913")
#loc150 = loc("subtract.914")
#loc151 = loc("multiply.870")
#loc152 = loc("reduce.877")
#loc153 = loc("multiply.886")
#loc154 = loc("reshape.887")
#loc155 = loc("add.907")
#loc156 = loc("rsqrt.908")
#loc157 = loc("reshape.915")
#loc158 = loc("broadcast.916")
#loc159 = loc("multiply.917")
#loc160 = loc("reshape.918")
#loc161 = loc("reshape.826")
#loc162 = loc("reshape.831")
#loc163 = loc("convert.832")
#loc164 = loc("reshape.919")
#loc165 = loc("broadcast.920")
#loc166 = loc("multiply.921")
#loc167 = loc("reshape.819")
#loc168 = loc("reshape.824")
#loc169 = loc("convert.922")
#loc170 = loc("reshape.925")
#loc171 = loc("broadcast.926")
#loc172 = loc("add.927")
#loc173 = loc("convert.928")
#loc174 = loc("convert.929")
#loc175 = loc("logistic.930")
#loc176 = loc("multiply.931")
#loc177 = loc("convert.932")
#loc178 = loc("convolution.933")
#loc179 = loc("reshape.812")
#loc180 = loc("reshape.814")
#loc181 = loc("transpose.935")
#loc182 = loc("add.936")
#loc183 = loc("convert.937")
#loc184 = loc("reshape.938")
#loc185 = loc("reduce.984")
#loc186 = loc("multiply.993")
#loc187 = loc("broadcast.1003")
#loc188 = loc("subtract.1004")
#loc189 = loc("multiply.960")
#loc190 = loc("reduce.967")
#loc191 = loc("multiply.976")
#loc192 = loc("reshape.977")
#loc193 = loc("add.997")
#loc194 = loc("rsqrt.998")
#loc195 = loc("reshape.1005")
#loc196 = loc("broadcast.1006")
#loc197 = loc("multiply.1007")
#loc198 = loc("reshape.1008")
#loc199 = loc("reshape.802")
#loc200 = loc("reshape.807")
#loc201 = loc("convert.808")
#loc202 = loc("reshape.1009")
#loc203 = loc("broadcast.1010")
#loc204 = loc("multiply.1011")
#loc205 = loc("reshape.795")
#loc206 = loc("reshape.800")
#loc207 = loc("convert.1012")
#loc208 = loc("reshape.1015")
#loc209 = loc("broadcast.1016")
#loc210 = loc("add.1017")
#loc211 = loc("convert.1018")
#loc212 = loc("convert.1019")
#loc213 = loc("logistic.1020")
#loc214 = loc("multiply.1021")
#loc215 = loc("convert.1022")
#loc216 = loc("convolution.1023")
#loc217 = loc("reshape.788")
#loc218 = loc("reshape.790")
#loc219 = loc("transpose.1025")
#loc220 = loc("add.1026")
#loc221 = loc("add.1029")
#loc222 = loc("divide.1031")
#loc223 = loc("reshape.1068")
#loc224 = loc("convert.1071")
#loc225 = loc("reshape.1072")
#loc226 = loc("reduce.1118")
#loc227 = loc("multiply.1127")
#loc228 = loc("broadcast.1137")
#loc229 = loc("subtract.1138")
#loc230 = loc("multiply.1094")
#loc231 = loc("reduce.1101")
#loc232 = loc("multiply.1110")
#loc233 = loc("reshape.1111")
#loc234 = loc("add.1131")
#loc235 = loc("rsqrt.1132")
#loc236 = loc("reshape.1139")
#loc237 = loc("broadcast.1140")
#loc238 = loc("multiply.1141")
#loc239 = loc("reshape.1142")
#loc240 = loc("reshape.1060")
#loc241 = loc("reshape.1064")
#loc242 = loc("convert.1065")
#loc243 = loc("reshape.1143")
#loc244 = loc("broadcast.1144")
#loc245 = loc("multiply.1145")
#loc246 = loc("reshape.1054")
#loc247 = loc("reshape.1058")
#loc248 = loc("convert.1146")
#loc249 = loc("reshape.1149")
#loc250 = loc("broadcast.1150")
#loc251 = loc("add.1151")
#loc252 = loc("convert.1152")
#loc253 = loc("transpose.1153")
#loc254 = loc("reshape.1199")
#loc255 = loc("reshape.1195")
#loc256 = loc("reshape.1197")
#loc257 = loc("transpose.1198")
#loc258 = loc("dot.1200")
#loc259 = loc("reshape.1201")
#loc260 = loc("reshape.1191")
#loc261 = loc("reshape.1193")
#loc262 = loc("broadcast.1204")
#loc263 = loc("add.1205")
#loc264 = loc("transpose.1207")
#loc265 = loc("convert.1208")
#loc266 = loc("multiply.1210")
#loc267 = loc("reshape.1171")
#loc268 = loc("reshape.1173")
#loc269 = loc("transpose.1174")
#loc270 = loc("dot.1176")
#loc271 = loc("reshape.1177")
#loc272 = loc("reshape.1167")
#loc273 = loc("reshape.1169")
#loc274 = loc("broadcast.1180")
#loc275 = loc("add.1181")
#loc276 = loc("transpose.1183")
#loc277 = loc("convert.1184")
#loc278 = loc("transpose.1185")
#loc279 = loc("multiply.1187")
#loc280 = loc("dot.1211")
#loc281 = loc("convert.1238")
#loc282 = loc("compare.1240")
#loc283 = loc("not.1242")
#loc285 = loc("or.1252")
#loc286 = loc("select.1253")
#loc287 = loc("reshape.1258")
#loc288 = loc("not.1260")
#loc289 = loc("reshape.1262")
#loc290 = loc("broadcast.1263")
#loc291 = loc("reduce.1218")
#loc292 = loc("broadcast.1219")
#loc293 = loc("subtract.1220")
#loc294 = loc("exponential.1221")
#loc295 = loc("reduce.1227")
#loc296 = loc("broadcast.1228")
#loc297 = loc("divide.1229")
#loc298 = loc("select.1264")
#loc299 = loc("reshape.1048")
#loc300 = loc("reshape.1050")
#loc301 = loc("transpose.1051")
#loc302 = loc("dot.1155")
#loc303 = loc("reshape.1156")
#loc304 = loc("reshape.1044")
#loc305 = loc("reshape.1046")
#loc306 = loc("broadcast.1159")
#loc307 = loc("add.1160")
#loc308 = loc("transpose.1162")
#loc309 = loc("convert.1163")
#loc310 = loc("dot.1265")
#loc311 = loc("convert.1267")
#loc312 = loc("reshape.1270")
#loc313 = loc("reshape.1038")
#loc314 = loc("reshape.1040")
#loc315 = loc("transpose.1041")
#loc316 = loc("dot.1271")
#loc317 = loc("reshape.1272")
#loc318 = loc("reshape.1034")
#loc319 = loc("reshape.1036")
#loc320 = loc("broadcast.1275")
#loc321 = loc("add.1276")
#loc322 = loc("transpose.1277")
#loc323 = loc("reshape.1278")
#loc324 = loc("add.1281")
#loc325 = loc("divide.1283")
#loc326 = loc("convert.1284")
#loc327 = loc("reshape.1285")
#loc328 = loc("reduce.1331")
#loc329 = loc("multiply.1340")
#loc330 = loc("broadcast.1350")
#loc331 = loc("subtract.1351")
#loc332 = loc("multiply.1307")
#loc333 = loc("reduce.1314")
#loc334 = loc("multiply.1323")
#loc335 = loc("reshape.1324")
#loc336 = loc("add.1344")
#loc337 = loc("rsqrt.1345")
#loc338 = loc("reshape.1352")
#loc339 = loc("broadcast.1353")
#loc340 = loc("multiply.1354")
#loc341 = loc("reshape.1355")
#loc342 = loc("reshape.774")
#loc343 = loc("reshape.779")
#loc344 = loc("convert.780")
#loc345 = loc("reshape.1356")
#loc346 = loc("broadcast.1357")
#loc347 = loc("multiply.1358")
#loc348 = loc("reshape.767")
#loc349 = loc("reshape.772")
#loc350 = loc("convert.1359")
#loc351 = loc("reshape.1362")
#loc352 = loc("broadcast.1363")
#loc353 = loc("add.1364")
#loc354 = loc("convert.1365")
#loc355 = loc("convert.1366")
#loc356 = loc("logistic.1367")
#loc357 = loc("multiply.1368")
#loc358 = loc("convert.1369")
#loc359 = loc("convolution.1370")
#loc360 = loc("reshape.760")
#loc361 = loc("reshape.762")
#loc362 = loc("transpose.1372")
#loc363 = loc("add.1373")
#loc364 = loc("convert.1374")
#loc365 = loc("reshape.1375")
#loc366 = loc("reduce.1421")
#loc367 = loc("multiply.1430")
#loc368 = loc("broadcast.1440")
#loc369 = loc("subtract.1441")
#loc370 = loc("multiply.1397")
#loc371 = loc("reduce.1404")
#loc372 = loc("multiply.1413")
#loc373 = loc("reshape.1414")
#loc374 = loc("add.1434")
#loc375 = loc("rsqrt.1435")
#loc376 = loc("reshape.1442")
#loc377 = loc("broadcast.1443")
#loc378 = loc("multiply.1444")
#loc379 = loc("reshape.1445")
#loc380 = loc("reshape.750")
#loc381 = loc("reshape.755")
#loc382 = loc("convert.756")
#loc383 = loc("reshape.1446")
#loc384 = loc("broadcast.1447")
#loc385 = loc("multiply.1448")
#loc386 = loc("reshape.743")
#loc387 = loc("reshape.748")
#loc388 = loc("convert.1449")
#loc389 = loc("reshape.1452")
#loc390 = loc("broadcast.1453")
#loc391 = loc("add.1454")
#loc392 = loc("convert.1455")
#loc393 = loc("convert.1456")
#loc394 = loc("logistic.1457")
#loc395 = loc("multiply.1458")
#loc396 = loc("convert.1459")
#loc397 = loc("convolution.1460")
#loc398 = loc("reshape.736")
#loc399 = loc("reshape.738")
#loc400 = loc("transpose.1462")
#loc401 = loc("add.1463")
#loc402 = loc("add.1466")
#loc403 = loc("divide.1468")
#loc404 = loc("convert.1469")
#loc405 = loc("reshape.1470")
#loc406 = loc("reduce.1516")
#loc407 = loc("multiply.1525")
#loc408 = loc("broadcast.1535")
#loc409 = loc("subtract.1536")
#loc410 = loc("multiply.1492")
#loc411 = loc("reduce.1499")
#loc412 = loc("multiply.1508")
#loc413 = loc("reshape.1509")
#loc414 = loc("add.1529")
#loc415 = loc("rsqrt.1530")
#loc416 = loc("reshape.1537")
#loc417 = loc("broadcast.1538")
#loc418 = loc("multiply.1539")
#loc419 = loc("reshape.1540")
#loc420 = loc("reshape.724")
#loc421 = loc("reshape.729")
#loc422 = loc("convert.730")
#loc423 = loc("reshape.1541")
#loc424 = loc("broadcast.1542")
#loc425 = loc("multiply.1543")
#loc426 = loc("reshape.717")
#loc427 = loc("reshape.722")
#loc428 = loc("convert.1544")
#loc429 = loc("reshape.1547")
#loc430 = loc("broadcast.1548")
#loc431 = loc("add.1549")
#loc432 = loc("convert.1550")
#loc433 = loc("convert.1551")
#loc434 = loc("logistic.1552")
#loc435 = loc("multiply.1553")
#loc436 = loc("convert.1554")
#loc437 = loc("convolution.1555")
#loc438 = loc("reshape.710")
#loc439 = loc("reshape.712")
#loc440 = loc("transpose.1557")
#loc441 = loc("add.1558")
#loc442 = loc("convert.1559")
#loc443 = loc("reshape.1560")
#loc444 = loc("reduce.1606")
#loc445 = loc("multiply.1615")
#loc446 = loc("broadcast.1625")
#loc447 = loc("subtract.1626")
#loc448 = loc("multiply.1582")
#loc449 = loc("reduce.1589")
#loc450 = loc("multiply.1598")
#loc451 = loc("reshape.1599")
#loc452 = loc("add.1619")
#loc453 = loc("rsqrt.1620")
#loc454 = loc("reshape.1627")
#loc455 = loc("broadcast.1628")
#loc456 = loc("multiply.1629")
#loc457 = loc("reshape.1630")
#loc458 = loc("reshape.700")
#loc459 = loc("reshape.705")
#loc460 = loc("convert.706")
#loc461 = loc("reshape.1631")
#loc462 = loc("broadcast.1632")
#loc463 = loc("multiply.1633")
#loc464 = loc("reshape.693")
#loc465 = loc("reshape.698")
#loc466 = loc("convert.1634")
#loc467 = loc("reshape.1637")
#loc468 = loc("broadcast.1638")
#loc469 = loc("add.1639")
#loc470 = loc("convert.1640")
#loc471 = loc("convert.1641")
#loc472 = loc("logistic.1642")
#loc473 = loc("multiply.1643")
#loc474 = loc("convert.1644")
#loc475 = loc("convolution.1645")
#loc476 = loc("reshape.686")
#loc477 = loc("reshape.688")
#loc478 = loc("transpose.1647")
#loc479 = loc("add.1648")
#loc480 = loc("add.1651")
#loc481 = loc("divide.1653")
#loc482 = loc("convert.1654")
#loc483 = loc("reshape.1655")
#loc484 = loc("reduce.1701")
#loc485 = loc("multiply.1710")
#loc486 = loc("broadcast.1720")
#loc487 = loc("subtract.1721")
#loc488 = loc("multiply.1677")
#loc489 = loc("reduce.1684")
#loc490 = loc("multiply.1693")
#loc491 = loc("reshape.1694")
#loc492 = loc("add.1714")
#loc493 = loc("rsqrt.1715")
#loc494 = loc("reshape.1722")
#loc495 = loc("broadcast.1723")
#loc496 = loc("multiply.1724")
#loc497 = loc("reshape.1725")
#loc498 = loc("reshape.674")
#loc499 = loc("reshape.679")
#loc500 = loc("convert.680")
#loc501 = loc("reshape.1726")
#loc502 = loc("broadcast.1727")
#loc503 = loc("multiply.1728")
#loc504 = loc("reshape.667")
#loc505 = loc("reshape.672")
#loc506 = loc("convert.1729")
#loc507 = loc("reshape.1732")
#loc508 = loc("broadcast.1733")
#loc509 = loc("add.1734")
#loc510 = loc("convert.1735")
#loc511 = loc("convert.1736")
#loc512 = loc("logistic.1737")
#loc513 = loc("multiply.1738")
#loc514 = loc("convert.1739")
#loc515 = loc("convolution.1740")
#loc516 = loc("reshape.660")
#loc517 = loc("reshape.662")
#loc518 = loc("transpose.1742")
#loc519 = loc("add.1743")
#loc520 = loc("convert.1744")
#loc521 = loc("reshape.1745")
#loc522 = loc("reduce.1791")
#loc523 = loc("multiply.1800")
#loc524 = loc("broadcast.1810")
#loc525 = loc("subtract.1811")
#loc526 = loc("multiply.1767")
#loc527 = loc("reduce.1774")
#loc528 = loc("multiply.1783")
#loc529 = loc("reshape.1784")
#loc530 = loc("add.1804")
#loc531 = loc("rsqrt.1805")
#loc532 = loc("reshape.1812")
#loc533 = loc("broadcast.1813")
#loc534 = loc("multiply.1814")
#loc535 = loc("reshape.1815")
#loc536 = loc("reshape.650")
#loc537 = loc("reshape.655")
#loc538 = loc("convert.656")
#loc539 = loc("reshape.1816")
#loc540 = loc("broadcast.1817")
#loc541 = loc("multiply.1818")
#loc542 = loc("reshape.643")
#loc543 = loc("reshape.648")
#loc544 = loc("convert.1819")
#loc545 = loc("reshape.1822")
#loc546 = loc("broadcast.1823")
#loc547 = loc("add.1824")
#loc548 = loc("convert.1825")
#loc549 = loc("convert.1826")
#loc550 = loc("logistic.1827")
#loc551 = loc("multiply.1828")
#loc552 = loc("convert.1829")
#loc553 = loc("convolution.1830")
#loc554 = loc("reshape.636")
#loc555 = loc("reshape.638")
#loc556 = loc("transpose.1832")
#loc557 = loc("add.1833")
#loc558 = loc("add.1836")
#loc559 = loc("divide.1838")
#loc560 = loc("convert.1839")
#loc561 = loc("reshape.1840")
#loc562 = loc("reduce.1886")
#loc563 = loc("multiply.1895")
#loc564 = loc("broadcast.1905")
#loc565 = loc("subtract.1906")
#loc566 = loc("multiply.1862")
#loc567 = loc("reduce.1869")
#loc568 = loc("multiply.1878")
#loc569 = loc("reshape.1879")
#loc570 = loc("add.1899")
#loc571 = loc("rsqrt.1900")
#loc572 = loc("reshape.1907")
#loc573 = loc("broadcast.1908")
#loc574 = loc("multiply.1909")
#loc575 = loc("reshape.1910")
#loc576 = loc("reshape.624")
#loc577 = loc("reshape.629")
#loc578 = loc("convert.630")
#loc579 = loc("reshape.1911")
#loc580 = loc("broadcast.1912")
#loc581 = loc("multiply.1913")
#loc582 = loc("reshape.617")
#loc583 = loc("reshape.622")
#loc584 = loc("convert.1914")
#loc585 = loc("reshape.1917")
#loc586 = loc("broadcast.1918")
#loc587 = loc("add.1919")
#loc588 = loc("convert.1920")
#loc589 = loc("convert.1921")
#loc590 = loc("logistic.1922")
#loc591 = loc("multiply.1923")
#loc592 = loc("convert.1924")
#loc593 = loc("convolution.1925")
#loc594 = loc("reshape.610")
#loc595 = loc("reshape.612")
#loc596 = loc("transpose.1927")
#loc597 = loc("add.1928")
#loc598 = loc("convert.1929")
#loc599 = loc("reshape.1930")
#loc600 = loc("reduce.1976")
#loc601 = loc("multiply.1985")
#loc602 = loc("broadcast.1995")
#loc603 = loc("subtract.1996")
#loc604 = loc("multiply.1952")
#loc605 = loc("reduce.1959")
#loc606 = loc("multiply.1968")
#loc607 = loc("reshape.1969")
#loc608 = loc("add.1989")
#loc609 = loc("rsqrt.1990")
#loc610 = loc("reshape.1997")
#loc611 = loc("broadcast.1998")
#loc612 = loc("multiply.1999")
#loc613 = loc("reshape.2000")
#loc614 = loc("reshape.600")
#loc615 = loc("reshape.605")
#loc616 = loc("convert.606")
#loc617 = loc("reshape.2001")
#loc618 = loc("broadcast.2002")
#loc619 = loc("multiply.2003")
#loc620 = loc("reshape.593")
#loc621 = loc("reshape.598")
#loc622 = loc("convert.2004")
#loc623 = loc("reshape.2007")
#loc624 = loc("broadcast.2008")
#loc625 = loc("add.2009")
#loc626 = loc("convert.2010")
#loc627 = loc("convert.2011")
#loc628 = loc("logistic.2012")
#loc629 = loc("multiply.2013")
#loc630 = loc("convert.2014")
#loc631 = loc("convolution.2015")
#loc632 = loc("reshape.586")
#loc633 = loc("reshape.588")
#loc634 = loc("transpose.2017")
#loc635 = loc("add.2018")
#loc636 = loc("add.2021")
#loc637 = loc("divide.2023")
#loc638 = loc("transpose.2024")
#loc639 = loc("floor.573")
#loc640 = loc("convert.574")
#loc641 = loc("broadcast.578")
#loc642 = loc("broadcast.576")
#loc643 = loc("compare.579")
#loc644 = loc("convert.580")
#loc645 = loc("transpose.581")
#loc646 = loc("convert.582")
#loc647 = loc("dot.2025")
#loc648 = loc("transpose.2027")
#loc649 = loc("dot.2028")
#loc650 = loc("convolution.2030")
#loc651 = loc("reshape.548")
#loc652 = loc("reshape.550")
#loc653 = loc("transpose.2032")
#loc654 = loc("add.2033")
#loc655 = loc("convert.2034")
#loc656 = loc("reshape.2035")
#loc657 = loc("reduce.2081")
#loc658 = loc("multiply.2090")
#loc659 = loc("broadcast.2100")
#loc660 = loc("subtract.2101")
#loc661 = loc("multiply.2057")
#loc662 = loc("reduce.2064")
#loc663 = loc("multiply.2073")
#loc664 = loc("reshape.2074")
#loc665 = loc("add.2094")
#loc666 = loc("rsqrt.2095")
#loc667 = loc("reshape.2102")
#loc668 = loc("broadcast.2103")
#loc669 = loc("multiply.2104")
#loc670 = loc("reshape.2105")
#loc671 = loc("reshape.538")
#loc672 = loc("reshape.543")
#loc673 = loc("convert.544")
#loc674 = loc("reshape.2106")
#loc675 = loc("broadcast.2107")
#loc676 = loc("multiply.2108")
#loc677 = loc("reshape.531")
#loc678 = loc("reshape.536")
#loc679 = loc("convert.2109")
#loc680 = loc("reshape.2112")
#loc681 = loc("broadcast.2113")
#loc682 = loc("add.2114")
#loc683 = loc("convert.2115")
#loc684 = loc("convert.2116")
#loc685 = loc("logistic.2117")
#loc686 = loc("multiply.2118")
#loc687 = loc("convert.2119")
#loc688 = loc("convolution.2120")
#loc689 = loc("reshape.524")
#loc690 = loc("reshape.526")
#loc691 = loc("transpose.2122")
#loc692 = loc("add.2123")
#loc693 = loc("convert.2124")
#loc694 = loc("reshape.2125")
#loc695 = loc("reduce.2171")
#loc696 = loc("multiply.2180")
#loc697 = loc("broadcast.2190")
#loc698 = loc("subtract.2191")
#loc699 = loc("multiply.2147")
#loc700 = loc("reduce.2154")
#loc701 = loc("multiply.2163")
#loc702 = loc("reshape.2164")
#loc703 = loc("add.2184")
#loc704 = loc("rsqrt.2185")
#loc705 = loc("reshape.2192")
#loc706 = loc("broadcast.2193")
#loc707 = loc("multiply.2194")
#loc708 = loc("reshape.2195")
#loc709 = loc("reshape.514")
#loc710 = loc("reshape.519")
#loc711 = loc("convert.520")
#loc712 = loc("reshape.2196")
#loc713 = loc("broadcast.2197")
#loc714 = loc("multiply.2198")
#loc715 = loc("reshape.507")
#loc716 = loc("reshape.512")
#loc717 = loc("convert.2199")
#loc718 = loc("reshape.2202")
#loc719 = loc("broadcast.2203")
#loc720 = loc("add.2204")
#loc721 = loc("convert.2205")
#loc722 = loc("convert.2206")
#loc723 = loc("logistic.2207")
#loc724 = loc("multiply.2208")
#loc725 = loc("convert.2209")
#loc726 = loc("convolution.2210")
#loc727 = loc("reshape.500")
#loc728 = loc("reshape.502")
#loc729 = loc("transpose.2212")
#loc730 = loc("add.2213")
#loc731 = loc("add.2216")
#loc732 = loc("divide.2218")
#loc733 = loc("convert.2219")
#loc734 = loc("reshape.2220")
#loc735 = loc("reduce.2266")
#loc736 = loc("multiply.2275")
#loc737 = loc("broadcast.2285")
#loc738 = loc("subtract.2286")
#loc739 = loc("multiply.2242")
#loc740 = loc("reduce.2249")
#loc741 = loc("multiply.2258")
#loc742 = loc("reshape.2259")
#loc743 = loc("add.2279")
#loc744 = loc("rsqrt.2280")
#loc745 = loc("reshape.2287")
#loc746 = loc("broadcast.2288")
#loc747 = loc("multiply.2289")
#loc748 = loc("reshape.2290")
#loc749 = loc("reshape.488")
#loc750 = loc("reshape.493")
#loc751 = loc("convert.494")
#loc752 = loc("reshape.2291")
#loc753 = loc("broadcast.2292")
#loc754 = loc("multiply.2293")
#loc755 = loc("reshape.481")
#loc756 = loc("reshape.486")
#loc757 = loc("convert.2294")
#loc758 = loc("reshape.2297")
#loc759 = loc("broadcast.2298")
#loc760 = loc("add.2299")
#loc761 = loc("convert.2300")
#loc762 = loc("convert.2301")
#loc763 = loc("logistic.2302")
#loc764 = loc("multiply.2303")
#loc765 = loc("convert.2304")
#loc766 = loc("convolution.2305")
#loc767 = loc("reshape.474")
#loc768 = loc("reshape.476")
#loc769 = loc("transpose.2307")
#loc770 = loc("add.2308")
#loc771 = loc("convert.2309")
#loc772 = loc("reshape.2310")
#loc773 = loc("reduce.2356")
#loc774 = loc("multiply.2365")
#loc775 = loc("broadcast.2375")
#loc776 = loc("subtract.2376")
#loc777 = loc("multiply.2332")
#loc778 = loc("reduce.2339")
#loc779 = loc("multiply.2348")
#loc780 = loc("reshape.2349")
#loc781 = loc("add.2369")
#loc782 = loc("rsqrt.2370")
#loc783 = loc("reshape.2377")
#loc784 = loc("broadcast.2378")
#loc785 = loc("multiply.2379")
#loc786 = loc("reshape.2380")
#loc787 = loc("reshape.464")
#loc788 = loc("reshape.469")
#loc789 = loc("convert.470")
#loc790 = loc("reshape.2381")
#loc791 = loc("broadcast.2382")
#loc792 = loc("multiply.2383")
#loc793 = loc("reshape.457")
#loc794 = loc("reshape.462")
#loc795 = loc("convert.2384")
#loc796 = loc("reshape.2387")
#loc797 = loc("broadcast.2388")
#loc798 = loc("add.2389")
#loc799 = loc("convert.2390")
#loc800 = loc("convert.2391")
#loc801 = loc("logistic.2392")
#loc802 = loc("multiply.2393")
#loc803 = loc("convert.2394")
#loc804 = loc("convolution.2395")
#loc805 = loc("reshape.450")
#loc806 = loc("reshape.452")
#loc807 = loc("transpose.2397")
#loc808 = loc("add.2398")
#loc809 = loc("add.2401")
#loc810 = loc("divide.2403")
#loc811 = loc("convert.2404")
#loc812 = loc("reshape.2405")
#loc813 = loc("reduce.2451")
#loc814 = loc("multiply.2460")
#loc815 = loc("broadcast.2470")
#loc816 = loc("subtract.2471")
#loc817 = loc("multiply.2427")
#loc818 = loc("reduce.2434")
#loc819 = loc("multiply.2443")
#loc820 = loc("reshape.2444")
#loc821 = loc("add.2464")
#loc822 = loc("rsqrt.2465")
#loc823 = loc("reshape.2472")
#loc824 = loc("broadcast.2473")
#loc825 = loc("multiply.2474")
#loc826 = loc("reshape.2475")
#loc827 = loc("reshape.438")
#loc828 = loc("reshape.443")
#loc829 = loc("convert.444")
#loc830 = loc("reshape.2476")
#loc831 = loc("broadcast.2477")
#loc832 = loc("multiply.2478")
#loc833 = loc("reshape.431")
#loc834 = loc("reshape.436")
#loc835 = loc("convert.2479")
#loc836 = loc("reshape.2482")
#loc837 = loc("broadcast.2483")
#loc838 = loc("add.2484")
#loc839 = loc("convert.2485")
#loc840 = loc("convert.2486")
#loc841 = loc("logistic.2487")
#loc842 = loc("multiply.2488")
#loc843 = loc("convert.2489")
#loc844 = loc("convolution.2490")
#loc845 = loc("reshape.424")
#loc846 = loc("reshape.426")
#loc847 = loc("transpose.2492")
#loc848 = loc("add.2493")
#loc849 = loc("convert.2494")
#loc850 = loc("reshape.2495")
#loc851 = loc("reduce.2541")
#loc852 = loc("multiply.2550")
#loc853 = loc("broadcast.2560")
#loc854 = loc("subtract.2561")
#loc855 = loc("multiply.2517")
#loc856 = loc("reduce.2524")
#loc857 = loc("multiply.2533")
#loc858 = loc("reshape.2534")
#loc859 = loc("add.2554")
#loc860 = loc("rsqrt.2555")
#loc861 = loc("reshape.2562")
#loc862 = loc("broadcast.2563")
#loc863 = loc("multiply.2564")
#loc864 = loc("reshape.2565")
#loc865 = loc("reshape.414")
#loc866 = loc("reshape.419")
#loc867 = loc("convert.420")
#loc868 = loc("reshape.2566")
#loc869 = loc("broadcast.2567")
#loc870 = loc("multiply.2568")
#loc871 = loc("reshape.407")
#loc872 = loc("reshape.412")
#loc873 = loc("convert.2569")
#loc874 = loc("reshape.2572")
#loc875 = loc("broadcast.2573")
#loc876 = loc("add.2574")
#loc877 = loc("convert.2575")
#loc878 = loc("convert.2576")
#loc879 = loc("logistic.2577")
#loc880 = loc("multiply.2578")
#loc881 = loc("convert.2579")
#loc882 = loc("convolution.2580")
#loc883 = loc("reshape.400")
#loc884 = loc("reshape.402")
#loc885 = loc("transpose.2582")
#loc886 = loc("add.2583")
#loc887 = loc("add.2586")
#loc888 = loc("divide.2588")
#loc889 = loc("transpose.2589")
#loc890 = loc("floor.387")
#loc891 = loc("convert.388")
#loc892 = loc("broadcast.392")
#loc893 = loc("broadcast.390")
#loc894 = loc("compare.393")
#loc895 = loc("convert.394")
#loc896 = loc("transpose.395")
#loc897 = loc("convert.396")
#loc898 = loc("dot.2590")
#loc899 = loc("transpose.2592")
#loc900 = loc("dot.2593")
#loc901 = loc("convolution.2595")
#loc902 = loc("reshape.362")
#loc903 = loc("reshape.364")
#loc904 = loc("transpose.2597")
#loc905 = loc("add.2598")
#loc906 = loc("convolution.2785")
#loc907 = loc("reshape.2780")
#loc908 = loc("reshape.2782")
#loc909 = loc("transpose.2787")
#loc910 = loc("add.2788")
#loc911 = loc("convert.2599")
#loc912 = loc("reshape.2600")
#loc913 = loc("reduce.2646")
#loc914 = loc("multiply.2655")
#loc915 = loc("broadcast.2665")
#loc916 = loc("subtract.2666")
#loc917 = loc("multiply.2622")
#loc918 = loc("reduce.2629")
#loc919 = loc("multiply.2638")
#loc920 = loc("reshape.2639")
#loc921 = loc("add.2659")
#loc922 = loc("rsqrt.2660")
#loc923 = loc("reshape.2667")
#loc924 = loc("broadcast.2668")
#loc925 = loc("multiply.2669")
#loc926 = loc("reshape.2670")
#loc927 = loc("reshape.352")
#loc928 = loc("reshape.357")
#loc929 = loc("convert.358")
#loc930 = loc("reshape.2671")
#loc931 = loc("broadcast.2672")
#loc932 = loc("multiply.2673")
#loc933 = loc("reshape.345")
#loc934 = loc("reshape.350")
#loc935 = loc("convert.2674")
#loc936 = loc("reshape.2677")
#loc937 = loc("broadcast.2678")
#loc938 = loc("add.2679")
#loc939 = loc("convert.2680")
#loc940 = loc("convert.2681")
#loc941 = loc("logistic.2682")
#loc942 = loc("multiply.2683")
#loc943 = loc("convert.2684")
#loc944 = loc("convolution.2685")
#loc945 = loc("reshape.338")
#loc946 = loc("reshape.340")
#loc947 = loc("transpose.2687")
#loc948 = loc("add.2688")
#loc949 = loc("convert.2689")
#loc950 = loc("reshape.2690")
#loc951 = loc("reduce.2736")
#loc952 = loc("multiply.2745")
#loc953 = loc("broadcast.2755")
#loc954 = loc("subtract.2756")
#loc955 = loc("multiply.2712")
#loc956 = loc("reduce.2719")
#loc957 = loc("multiply.2728")
#loc958 = loc("reshape.2729")
#loc959 = loc("add.2749")
#loc960 = loc("rsqrt.2750")
#loc961 = loc("reshape.2757")
#loc962 = loc("broadcast.2758")
#loc963 = loc("multiply.2759")
#loc964 = loc("reshape.2760")
#loc965 = loc("reshape.328")
#loc966 = loc("reshape.333")
#loc967 = loc("convert.334")
#loc968 = loc("reshape.2761")
#loc969 = loc("broadcast.2762")
#loc970 = loc("multiply.2763")
#loc971 = loc("reshape.321")
#loc972 = loc("reshape.326")
#loc973 = loc("convert.2764")
#loc974 = loc("reshape.2767")
#loc975 = loc("broadcast.2768")
#loc976 = loc("add.2769")
#loc977 = loc("convert.2770")
#loc978 = loc("convert.2771")
#loc979 = loc("logistic.2772")
#loc980 = loc("multiply.2773")
#loc981 = loc("convert.2774")
#loc982 = loc("convolution.2775")
#loc983 = loc("reshape.314")
#loc984 = loc("reshape.316")
#loc985 = loc("transpose.2777")
#loc986 = loc("add.2778")
#loc987 = loc("add.2791")
#loc988 = loc("divide.2793")
#loc989 = loc("convert.2794")
#loc990 = loc("reshape.2795")
#loc991 = loc("reduce.2841")
#loc992 = loc("multiply.2850")
#loc993 = loc("broadcast.2860")
#loc994 = loc("subtract.2861")
#loc995 = loc("multiply.2817")
#loc996 = loc("reduce.2824")
#loc997 = loc("multiply.2833")
#loc998 = loc("reshape.2834")
#loc999 = loc("add.2854")
#loc1000 = loc("rsqrt.2855")
#loc1001 = loc("reshape.2862")
#loc1002 = loc("broadcast.2863")
#loc1003 = loc("multiply.2864")
#loc1004 = loc("reshape.2865")
#loc1005 = loc("reshape.302")
#loc1006 = loc("reshape.307")
#loc1007 = loc("convert.308")
#loc1008 = loc("reshape.2866")
#loc1009 = loc("broadcast.2867")
#loc1010 = loc("multiply.2868")
#loc1011 = loc("reshape.295")
#loc1012 = loc("reshape.300")
#loc1013 = loc("convert.2869")
#loc1014 = loc("reshape.2872")
#loc1015 = loc("broadcast.2873")
#loc1016 = loc("add.2874")
#loc1017 = loc("convert.2875")
#loc1018 = loc("convert.2876")
#loc1019 = loc("logistic.2877")
#loc1020 = loc("multiply.2878")
#loc1021 = loc("convert.2879")
#loc1022 = loc("convolution.2880")
#loc1023 = loc("reshape.288")
#loc1024 = loc("reshape.290")
#loc1025 = loc("transpose.2882")
#loc1026 = loc("add.2883")
#loc1027 = loc("convert.2884")
#loc1028 = loc("reshape.2885")
#loc1029 = loc("reduce.2931")
#loc1030 = loc("multiply.2940")
#loc1031 = loc("broadcast.2950")
#loc1032 = loc("subtract.2951")
#loc1033 = loc("multiply.2907")
#loc1034 = loc("reduce.2914")
#loc1035 = loc("multiply.2923")
#loc1036 = loc("reshape.2924")
#loc1037 = loc("add.2944")
#loc1038 = loc("rsqrt.2945")
#loc1039 = loc("reshape.2952")
#loc1040 = loc("broadcast.2953")
#loc1041 = loc("multiply.2954")
#loc1042 = loc("reshape.2955")
#loc1043 = loc("reshape.278")
#loc1044 = loc("reshape.283")
#loc1045 = loc("convert.284")
#loc1046 = loc("reshape.2956")
#loc1047 = loc("broadcast.2957")
#loc1048 = loc("multiply.2958")
#loc1049 = loc("reshape.271")
#loc1050 = loc("reshape.276")
#loc1051 = loc("convert.2959")
#loc1052 = loc("reshape.2962")
#loc1053 = loc("broadcast.2963")
#loc1054 = loc("add.2964")
#loc1055 = loc("convert.2965")
#loc1056 = loc("convert.2966")
#loc1057 = loc("logistic.2967")
#loc1058 = loc("multiply.2968")
#loc1059 = loc("convert.2969")
#loc1060 = loc("convolution.2970")
#loc1061 = loc("reshape.264")
#loc1062 = loc("reshape.266")
#loc1063 = loc("transpose.2972")
#loc1064 = loc("add.2973")
#loc1065 = loc("add.2976")
#loc1066 = loc("divide.2978")
#loc1067 = loc("convert.2979")
#loc1068 = loc("reshape.2980")
#loc1069 = loc("reduce.3026")
#loc1070 = loc("multiply.3035")
#loc1071 = loc("broadcast.3045")
#loc1072 = loc("subtract.3046")
#loc1073 = loc("multiply.3002")
#loc1074 = loc("reduce.3009")
#loc1075 = loc("multiply.3018")
#loc1076 = loc("reshape.3019")
#loc1077 = loc("add.3039")
#loc1078 = loc("rsqrt.3040")
#loc1079 = loc("reshape.3047")
#loc1080 = loc("broadcast.3048")
#loc1081 = loc("multiply.3049")
#loc1082 = loc("reshape.3050")
#loc1083 = loc("reshape.252")
#loc1084 = loc("reshape.257")
#loc1085 = loc("convert.258")
#loc1086 = loc("reshape.3051")
#loc1087 = loc("broadcast.3052")
#loc1088 = loc("multiply.3053")
#loc1089 = loc("reshape.245")
#loc1090 = loc("reshape.250")
#loc1091 = loc("convert.3054")
#loc1092 = loc("reshape.3057")
#loc1093 = loc("broadcast.3058")
#loc1094 = loc("add.3059")
#loc1095 = loc("convert.3060")
#loc1096 = loc("convert.3061")
#loc1097 = loc("logistic.3062")
#loc1098 = loc("multiply.3063")
#loc1099 = loc("convert.3064")
#loc1100 = loc("convolution.3065")
#loc1101 = loc("reshape.238")
#loc1102 = loc("reshape.240")
#loc1103 = loc("transpose.3067")
#loc1104 = loc("add.3068")
#loc1105 = loc("convert.3069")
#loc1106 = loc("reshape.3070")
#loc1107 = loc("reduce.3116")
#loc1108 = loc("multiply.3125")
#loc1109 = loc("broadcast.3135")
#loc1110 = loc("subtract.3136")
#loc1111 = loc("multiply.3092")
#loc1112 = loc("reduce.3099")
#loc1113 = loc("multiply.3108")
#loc1114 = loc("reshape.3109")
#loc1115 = loc("add.3129")
#loc1116 = loc("rsqrt.3130")
#loc1117 = loc("reshape.3137")
#loc1118 = loc("broadcast.3138")
#loc1119 = loc("multiply.3139")
#loc1120 = loc("reshape.3140")
#loc1121 = loc("reshape.228")
#loc1122 = loc("reshape.233")
#loc1123 = loc("convert.234")
#loc1124 = loc("reshape.3141")
#loc1125 = loc("broadcast.3142")
#loc1126 = loc("multiply.3143")
#loc1127 = loc("reshape.221")
#loc1128 = loc("reshape.226")
#loc1129 = loc("convert.3144")
#loc1130 = loc("reshape.3147")
#loc1131 = loc("broadcast.3148")
#loc1132 = loc("add.3149")
#loc1133 = loc("convert.3150")
#loc1134 = loc("convert.3151")
#loc1135 = loc("logistic.3152")
#loc1136 = loc("multiply.3153")
#loc1137 = loc("convert.3154")
#loc1138 = loc("convolution.3155")
#loc1139 = loc("reshape.214")
#loc1140 = loc("reshape.216")
#loc1141 = loc("transpose.3157")
#loc1142 = loc("add.3158")
#loc1143 = loc("add.3161")
#loc1144 = loc("divide.3163")
#loc1145 = loc("transpose.3164")
#loc1146 = loc("floor.201")
#loc1147 = loc("convert.202")
#loc1148 = loc("broadcast.206")
#loc1149 = loc("broadcast.204")
#loc1150 = loc("compare.207")
#loc1151 = loc("convert.208")
#loc1152 = loc("transpose.209")
#loc1153 = loc("convert.210")
#loc1154 = loc("dot.3165")
#loc1155 = loc("transpose.3167")
#loc1156 = loc("dot.3168")
#loc1157 = loc("convolution.3170")
#loc1158 = loc("reshape.176")
#loc1159 = loc("reshape.178")
#loc1160 = loc("transpose.3172")
#loc1161 = loc("add.3173")
#loc1162 = loc("convolution.3360")
#loc1163 = loc("reshape.3355")
#loc1164 = loc("reshape.3357")
#loc1165 = loc("transpose.3362")
#loc1166 = loc("add.3363")
#loc1167 = loc("convert.3174")
#loc1168 = loc("reshape.3175")
#loc1169 = loc("reduce.3221")
#loc1170 = loc("multiply.3230")
#loc1171 = loc("broadcast.3240")
#loc1172 = loc("subtract.3241")
#loc1173 = loc("multiply.3197")
#loc1174 = loc("reduce.3204")
#loc1175 = loc("multiply.3213")
#loc1176 = loc("reshape.3214")
#loc1177 = loc("add.3234")
#loc1178 = loc("rsqrt.3235")
#loc1179 = loc("reshape.3242")
#loc1180 = loc("broadcast.3243")
#loc1181 = loc("multiply.3244")
#loc1182 = loc("reshape.3245")
#loc1183 = loc("reshape.166")
#loc1184 = loc("reshape.171")
#loc1185 = loc("convert.172")
#loc1186 = loc("reshape.3246")
#loc1187 = loc("broadcast.3247")
#loc1188 = loc("multiply.3248")
#loc1189 = loc("reshape.159")
#loc1190 = loc("reshape.164")
#loc1191 = loc("convert.3249")
#loc1192 = loc("reshape.3252")
#loc1193 = loc("broadcast.3253")
#loc1194 = loc("add.3254")
#loc1195 = loc("convert.3255")
#loc1196 = loc("convert.3256")
#loc1197 = loc("logistic.3257")
#loc1198 = loc("multiply.3258")
#loc1199 = loc("convert.3259")
#loc1200 = loc("convolution.3260")
#loc1201 = loc("reshape.152")
#loc1202 = loc("reshape.154")
#loc1203 = loc("transpose.3262")
#loc1204 = loc("add.3263")
#loc1205 = loc("convert.3264")
#loc1206 = loc("reshape.3265")
#loc1207 = loc("reduce.3311")
#loc1208 = loc("multiply.3320")
#loc1209 = loc("broadcast.3330")
#loc1210 = loc("subtract.3331")
#loc1211 = loc("multiply.3287")
#loc1212 = loc("reduce.3294")
#loc1213 = loc("multiply.3303")
#loc1214 = loc("reshape.3304")
#loc1215 = loc("add.3324")
#loc1216 = loc("rsqrt.3325")
#loc1217 = loc("reshape.3332")
#loc1218 = loc("broadcast.3333")
#loc1219 = loc("multiply.3334")
#loc1220 = loc("reshape.3335")
#loc1221 = loc("reshape.142")
#loc1222 = loc("reshape.147")
#loc1223 = loc("convert.148")
#loc1224 = loc("reshape.3336")
#loc1225 = loc("broadcast.3337")
#loc1226 = loc("multiply.3338")
#loc1227 = loc("reshape.135")
#loc1228 = loc("reshape.140")
#loc1229 = loc("convert.3339")
#loc1230 = loc("reshape.3342")
#loc1231 = loc("broadcast.3343")
#loc1232 = loc("add.3344")
#loc1233 = loc("convert.3345")
#loc1234 = loc("convert.3346")
#loc1235 = loc("logistic.3347")
#loc1236 = loc("multiply.3348")
#loc1237 = loc("convert.3349")
#loc1238 = loc("convolution.3350")
#loc1239 = loc("reshape.128")
#loc1240 = loc("reshape.130")
#loc1241 = loc("transpose.3352")
#loc1242 = loc("add.3353")
#loc1243 = loc("add.3366")
#loc1244 = loc("divide.3368")
#loc1245 = loc("convert.3369")
#loc1246 = loc("reshape.3370")
#loc1247 = loc("reduce.3416")
#loc1248 = loc("multiply.3425")
#loc1249 = loc("broadcast.3435")
#loc1250 = loc("subtract.3436")
#loc1251 = loc("multiply.3392")
#loc1252 = loc("reduce.3399")
#loc1253 = loc("multiply.3408")
#loc1254 = loc("reshape.3409")
#loc1255 = loc("add.3429")
#loc1256 = loc("rsqrt.3430")
#loc1257 = loc("reshape.3437")
#loc1258 = loc("broadcast.3438")
#loc1259 = loc("multiply.3439")
#loc1260 = loc("reshape.3440")
#loc1261 = loc("reshape.116")
#loc1262 = loc("reshape.121")
#loc1263 = loc("convert.122")
#loc1264 = loc("reshape.3441")
#loc1265 = loc("broadcast.3442")
#loc1266 = loc("multiply.3443")
#loc1267 = loc("reshape.109")
#loc1268 = loc("reshape.114")
#loc1269 = loc("convert.3444")
#loc1270 = loc("reshape.3447")
#loc1271 = loc("broadcast.3448")
#loc1272 = loc("add.3449")
#loc1273 = loc("convert.3450")
#loc1274 = loc("convert.3451")
#loc1275 = loc("logistic.3452")
#loc1276 = loc("multiply.3453")
#loc1277 = loc("convert.3454")
#loc1278 = loc("convolution.3455")
#loc1279 = loc("reshape.102")
#loc1280 = loc("reshape.104")
#loc1281 = loc("transpose.3457")
#loc1282 = loc("add.3458")
#loc1283 = loc("convert.3459")
#loc1284 = loc("reshape.3460")
#loc1285 = loc("reduce.3506")
#loc1286 = loc("multiply.3515")
#loc1287 = loc("broadcast.3525")
#loc1288 = loc("subtract.3526")
#loc1289 = loc("multiply.3482")
#loc1290 = loc("reduce.3489")
#loc1291 = loc("multiply.3498")
#loc1292 = loc("reshape.3499")
#loc1293 = loc("add.3519")
#loc1294 = loc("rsqrt.3520")
#loc1295 = loc("reshape.3527")
#loc1296 = loc("broadcast.3528")
#loc1297 = loc("multiply.3529")
#loc1298 = loc("reshape.3530")
#loc1299 = loc("reshape.92")
#loc1300 = loc("reshape.97")
#loc1301 = loc("convert.98")
#loc1302 = loc("reshape.3531")
#loc1303 = loc("broadcast.3532")
#loc1304 = loc("multiply.3533")
#loc1305 = loc("reshape.85")
#loc1306 = loc("reshape.90")
#loc1307 = loc("convert.3534")
#loc1308 = loc("reshape.3537")
#loc1309 = loc("broadcast.3538")
#loc1310 = loc("add.3539")
#loc1311 = loc("convert.3540")
#loc1312 = loc("convert.3541")
#loc1313 = loc("logistic.3542")
#loc1314 = loc("multiply.3543")
#loc1315 = loc("convert.3544")
#loc1316 = loc("convolution.3545")
#loc1317 = loc("reshape.78")
#loc1318 = loc("reshape.80")
#loc1319 = loc("transpose.3547")
#loc1320 = loc("add.3548")
#loc1321 = loc("add.3551")
#loc1322 = loc("divide.3553")
#loc1323 = loc("convert.3554")
#loc1324 = loc("reshape.3555")
#loc1325 = loc("reduce.3601")
#loc1326 = loc("multiply.3610")
#loc1327 = loc("broadcast.3620")
#loc1328 = loc("subtract.3621")
#loc1329 = loc("multiply.3577")
#loc1330 = loc("reduce.3584")
#loc1331 = loc("multiply.3593")
#loc1332 = loc("reshape.3594")
#loc1333 = loc("add.3614")
#loc1334 = loc("rsqrt.3615")
#loc1335 = loc("reshape.3622")
#loc1336 = loc("broadcast.3623")
#loc1337 = loc("multiply.3624")
#loc1338 = loc("reshape.3625")
#loc1339 = loc("reshape.66")
#loc1340 = loc("reshape.71")
#loc1341 = loc("convert.72")
#loc1342 = loc("reshape.3626")
#loc1343 = loc("broadcast.3627")
#loc1344 = loc("multiply.3628")
#loc1345 = loc("reshape.59")
#loc1346 = loc("reshape.64")
#loc1347 = loc("convert.3629")
#loc1348 = loc("reshape.3632")
#loc1349 = loc("broadcast.3633")
#loc1350 = loc("add.3634")
#loc1351 = loc("convert.3635")
#loc1352 = loc("convert.3636")
#loc1353 = loc("logistic.3637")
#loc1354 = loc("multiply.3638")
#loc1355 = loc("convert.3639")
#loc1356 = loc("convolution.3640")
#loc1357 = loc("reshape.52")
#loc1358 = loc("reshape.54")
#loc1359 = loc("transpose.3642")
#loc1360 = loc("add.3643")
#loc1361 = loc("convert.3644")
#loc1362 = loc("reshape.3645")
#loc1363 = loc("reduce.3691")
#loc1364 = loc("multiply.3700")
#loc1365 = loc("broadcast.3710")
#loc1366 = loc("subtract.3711")
#loc1367 = loc("multiply.3667")
#loc1368 = loc("reduce.3674")
#loc1369 = loc("multiply.3683")
#loc1370 = loc("reshape.3684")
#loc1371 = loc("add.3704")
#loc1372 = loc("rsqrt.3705")
#loc1373 = loc("reshape.3712")
#loc1374 = loc("broadcast.3713")
#loc1375 = loc("multiply.3714")
#loc1376 = loc("reshape.3715")
#loc1377 = loc("reshape.42")
#loc1378 = loc("reshape.47")
#loc1379 = loc("convert.48")
#loc1380 = loc("reshape.3716")
#loc1381 = loc("broadcast.3717")
#loc1382 = loc("multiply.3718")
#loc1383 = loc("reshape.35")
#loc1384 = loc("reshape.40")
#loc1385 = loc("convert.3719")
#loc1386 = loc("reshape.3722")
#loc1387 = loc("broadcast.3723")
#loc1388 = loc("add.3724")
#loc1389 = loc("convert.3725")
#loc1390 = loc("convert.3726")
#loc1391 = loc("logistic.3727")
#loc1392 = loc("multiply.3728")
#loc1393 = loc("convert.3729")
#loc1394 = loc("convolution.3730")
#loc1395 = loc("reshape.28")
#loc1396 = loc("reshape.30")
#loc1397 = loc("transpose.3732")
#loc1398 = loc("add.3733")
#loc1399 = loc("add.3736")
#loc1400 = loc("divide.3738")
#loc1401 = loc("convert.3739")
#loc1402 = loc("reshape.3740")
#loc1403 = loc("reduce.3786")
#loc1404 = loc("multiply.3795")
#loc1405 = loc("broadcast.3805")
#loc1406 = loc("subtract.3806")
#loc1407 = loc("multiply.3762")
#loc1408 = loc("reduce.3769")
#loc1409 = loc("multiply.3778")
#loc1410 = loc("reshape.3779")
#loc1411 = loc("add.3799")
#loc1412 = loc("rsqrt.3800")
#loc1413 = loc("reshape.3807")
#loc1414 = loc("broadcast.3808")
#loc1415 = loc("multiply.3809")
#loc1416 = loc("reshape.3810")
#loc1417 = loc("reshape.16")
#loc1418 = loc("reshape.21")
#loc1419 = loc("convert.22")
#loc1420 = loc("reshape.3811")
#loc1421 = loc("broadcast.3812")
#loc1422 = loc("multiply.3813")
#loc1423 = loc("reshape.9")
#loc1424 = loc("reshape.14")
#loc1425 = loc("convert.3814")
#loc1426 = loc("reshape.3817")
#loc1427 = loc("broadcast.3818")
#loc1428 = loc("add.3819")
#loc1429 = loc("convert.3820")
#loc1430 = loc("convert.3821")
#loc1431 = loc("logistic.3822")
#loc1432 = loc("multiply.3823")
#loc1433 = loc("convert.3824")
#loc1434 = loc("convolution.3825")
#loc1435 = loc("reshape.2")
#loc1436 = loc("reshape.4")
#loc1437 = loc("transpose.3827")
#loc1438 = loc("add.3828")
