#loc = loc(unknown)
#loc1 = loc("p0.3")
#loc2 = loc("p1.11")
#loc3 = loc("p2.28")
#loc4 = loc("p3.32")
#loc5 = loc("p4.37")
#loc6 = loc("p5.46")
#loc7 = loc("p6.51")
#loc8 = loc("p7.140")
#loc9 = loc("p8.149")
#loc10 = loc("p9.153")
#loc11 = loc("p10.179")
#loc12 = loc("p11.190")
#loc13 = loc("p12.194")
#loc14 = loc("p13.199")
#loc15 = loc("p14.211")
#loc16 = loc("p15.219")
#loc17 = loc("p16.228")
#loc18 = loc("p17.239")
#loc19 = loc("p18.243")
#loc20 = loc("p19.254")
#loc21 = loc("p20.269")
#loc22 = loc("p21.304")
#loc23 = loc("p22.327")
#loc24 = loc("p23.331")
#loc25 = loc("p24.558")
#loc26 = loc("p25.563")
#loc27 = loc("p26.570")
#loc28 = loc("p27.575")
#loc29 = loc("p28.705")
#loc30 = loc("p29.714")
#loc31 = loc("p30.718")
#loc32 = loc("p31.744")
#loc33 = loc("p32.755")
#loc34 = loc("p33.759")
#loc35 = loc("p34.764")
#loc36 = loc("p35.776")
#loc37 = loc("p36.784")
#loc38 = loc("p37.793")
#loc39 = loc("p38.804")
#loc40 = loc("p39.808")
#loc41 = loc("p40.819")
#loc42 = loc("p41.834")
#loc43 = loc("p42.873")
#loc44 = loc("p43.877")
#loc45 = loc("p44.1104")
#loc46 = loc("p45.1109")
#loc47 = loc("p46.1116")
#loc48 = loc("p47.1121")
#loc49 = loc("p48.1251")
#loc50 = loc("p49.1260")
#loc51 = loc("p50.1264")
#loc52 = loc("p51.1290")
#loc53 = loc("p52.1301")
#loc54 = loc("p53.1305")
#loc55 = loc("p54.1310")
#loc56 = loc("p55.1322")
#loc57 = loc("p56.1330")
#loc58 = loc("p57.1339")
#loc59 = loc("p58.1350")
#loc60 = loc("p59.1354")
#loc61 = loc("p60.1365")
#loc62 = loc("p61.1383")
#loc63 = loc("p62.1387")
#loc64 = loc("p63.1614")
#loc65 = loc("p64.1619")
#loc66 = loc("p65.1626")
#loc67 = loc("p66.1631")
#loc68 = loc("p67.1761")
#loc69 = loc("p68.1770")
#loc70 = loc("p69.1774")
#loc71 = loc("p70.1800")
#loc72 = loc("p71.1811")
#loc73 = loc("p72.1815")
#loc74 = loc("p73.1820")
#loc75 = loc("p74.1832")
#loc76 = loc("p75.1840")
#loc77 = loc("p76.1849")
#loc78 = loc("p77.1860")
#loc79 = loc("p78.1864")
#loc80 = loc("p79.1875")
#loc81 = loc("p80.1893")
#loc82 = loc("p81.1897")
#loc83 = loc("p82.2124")
#loc84 = loc("p83.2129")
#loc85 = loc("p84.2136")
#loc86 = loc("p85.2141")
#loc87 = loc("p86.2271")
#loc88 = loc("p87.2280")
#loc89 = loc("p88.2284")
#loc90 = loc("p89.2310")
#loc91 = loc("p90.2321")
#loc92 = loc("p91.2325")
#loc93 = loc("p92.2330")
#loc94 = loc("p93.2342")
#loc95 = loc("p94.2350")
#loc96 = loc("p95.2359")
#loc97 = loc("p96.2370")
#loc98 = loc("p97.2374")
#loc99 = loc("p98.2385")
#loc100 = loc("p99.2403")
#loc101 = loc("p100.2407")
#loc102 = loc("p101.2634")
#loc103 = loc("p102.2639")
#loc104 = loc("p103.2646")
#loc105 = loc("p104.2651")
#loc106 = loc("p105.2781")
#loc107 = loc("p106.2790")
#loc108 = loc("p107.2794")
#loc109 = loc("p108.2820")
#loc110 = loc("p109.2831")
#loc111 = loc("p110.2835")
#loc112 = loc("p111.2840")
#loc113 = loc("p112.2852")
#loc114 = loc("p113.2860")
#loc115 = loc("p114.2869")
#loc116 = loc("p115.2880")
#loc117 = loc("p116.2884")
#loc118 = loc("p117.2895")
#loc119 = loc("p118.2913")
#loc120 = loc("p119.2917")
#loc121 = loc("p120.3144")
#loc122 = loc("p121.3149")
#loc123 = loc("p122.3156")
#loc124 = loc("p123.3161")
#loc125 = loc("p124.3291")
#loc126 = loc("p125.3300")
#loc127 = loc("p126.3304")
#loc128 = loc("p127.3330")
#loc129 = loc("p128.3341")
#loc130 = loc("p129.3345")
#loc131 = loc("p130.3350")
#loc132 = loc("p131.3362")
#loc133 = loc("p132.3370")
#loc134 = loc("p133.3379")
#loc135 = loc("p134.3390")
#loc136 = loc("p135.3394")
#loc137 = loc("p136.3405")
#loc138 = loc("p137.3423")
#loc139 = loc("p138.3427")
#loc140 = loc("p139.3654")
#loc141 = loc("p140.3659")
#loc142 = loc("p141.3666")
#loc143 = loc("p142.3671")
#loc144 = loc("p143.3801")
#loc145 = loc("p144.3810")
#loc146 = loc("p145.3814")
#loc147 = loc("p146.3840")
#loc148 = loc("p147.3851")
#loc149 = loc("p148.3855")
#loc150 = loc("p149.3860")
#loc151 = loc("p150.3872")
#loc152 = loc("p151.3880")
#loc153 = loc("p152.3889")
#loc154 = loc("p153.3900")
#loc155 = loc("p154.3904")
#loc156 = loc("p155.3915")
#loc157 = loc("p156.3933")
#loc158 = loc("p157.3937")
#loc159 = loc("p158.4164")
#loc160 = loc("p159.4169")
#loc161 = loc("p160.4176")
#loc162 = loc("p161.4181")
#loc163 = loc("p162.4311")
#loc164 = loc("p163.4320")
#loc165 = loc("p164.4324")
#loc166 = loc("p165.4350")
#loc167 = loc("p166.4361")
#loc168 = loc("p167.4365")
#loc169 = loc("p168.4370")
#loc170 = loc("p169.4382")
#loc171 = loc("p170.4390")
#loc172 = loc("p171.4399")
#loc173 = loc("p172.4410")
#loc174 = loc("p173.4414")
#loc175 = loc("p174.4425")
#loc176 = loc("p175.4443")
#loc177 = loc("p176.4447")
#loc178 = loc("p177.4674")
#loc179 = loc("p178.4679")
#loc180 = loc("p179.4686")
#loc181 = loc("p180.4691")
#loc182 = loc("p181.4821")
#loc183 = loc("p182.4830")
#loc184 = loc("p183.4834")
#loc185 = loc("p184.4860")
#loc186 = loc("p185.4871")
#loc187 = loc("p186.4875")
#loc188 = loc("p187.4880")
#loc189 = loc("p188.4892")
#loc190 = loc("p189.4900")
#loc191 = loc("p190.4909")
#loc192 = loc("p191.4920")
#loc193 = loc("p192.4924")
#loc194 = loc("p193.4935")
#loc195 = loc("p194.4953")
#loc196 = loc("p195.4957")
#loc197 = loc("p196.5184")
#loc198 = loc("p197.5189")
#loc199 = loc("p198.5196")
#loc200 = loc("p199.5201")
#loc201 = loc("p200.5331")
#loc202 = loc("p201.5340")
#loc203 = loc("p202.5344")
#loc204 = loc("p203.5370")
#loc205 = loc("p204.5381")
#loc206 = loc("p205.5385")
#loc207 = loc("p206.5390")
#loc208 = loc("p207.5402")
#loc209 = loc("p208.5410")
#loc210 = loc("p209.5419")
#loc211 = loc("p210.5430")
#loc212 = loc("p211.5434")
#loc213 = loc("p212.5445")
#loc214 = loc("p213.5463")
#loc215 = loc("p214.5467")
#loc216 = loc("p215.5694")
#loc217 = loc("p216.5699")
#loc218 = loc("p217.5706")
#loc219 = loc("p218.5711")
#loc220 = loc("p219.5841")
#loc221 = loc("p220.5850")
#loc222 = loc("p221.5854")
#loc223 = loc("p222.5880")
#loc224 = loc("p223.5891")
#loc225 = loc("p224.5895")
#loc226 = loc("p225.5900")
#loc227 = loc("p226.5912")
#loc228 = loc("p227.5920")
#loc229 = loc("p228.5929")
#loc230 = loc("p229.5940")
#loc231 = loc("p230.5944")
#loc232 = loc("p231.5955")
#loc233 = loc("p232.5973")
#loc234 = loc("p233.5977")
#loc235 = loc("p234.6204")
#loc236 = loc("p235.6209")
#loc237 = loc("p236.6216")
#loc238 = loc("p237.6221")
#loc239 = loc("p238.6351")
#loc240 = loc("p239.6360")
#loc241 = loc("p240.6364")
#loc242 = loc("p241.6390")
#loc243 = loc("p242.6401")
#loc244 = loc("p243.6405")
#loc245 = loc("p244.6410")
#loc246 = loc("p245.6422")
#loc247 = loc("p246.6430")
#loc248 = loc("p247.6439")
#loc249 = loc("p248.6450")
#loc250 = loc("p249.6454")
#loc251 = loc("p250.6465")
#loc252 = loc("p251.6483")
#loc253 = loc("p252.6487")
#loc254 = loc("p253.6714")
#loc255 = loc("p254.6719")
#loc256 = loc("p255.6726")
#loc257 = loc("p256.6731")
#loc258 = loc("p257.6861")
#loc259 = loc("p258.6870")
#loc260 = loc("p259.6874")
#loc261 = loc("p260.6900")
#loc262 = loc("p261.6911")
#loc263 = loc("p262.6915")
#loc264 = loc("p263.6920")
#loc265 = loc("p264.6932")
#loc266 = loc("p265.6940")
#loc267 = loc("p266.6949")
#loc268 = loc("p267.6960")
#loc269 = loc("p268.6964")
#loc270 = loc("p269.6975")
#loc271 = loc("p270.6993")
#loc272 = loc("p271.6997")
#loc273 = loc("p272.7224")
#loc274 = loc("p273.7229")
#loc275 = loc("p274.7236")
#loc276 = loc("p275.7241")
#loc277 = loc("p276.7371")
#loc278 = loc("p277.7380")
#loc279 = loc("p278.7384")
#loc280 = loc("p279.7410")
#loc281 = loc("p280.7421")
#loc282 = loc("p281.7425")
#loc283 = loc("p282.7430")
#loc284 = loc("p283.7442")
#loc285 = loc("p284.7450")
#loc286 = loc("p285.7459")
#loc287 = loc("p286.7470")
#loc288 = loc("p287.7474")
#loc289 = loc("p288.7485")
#loc290 = loc("p289.7503")
#loc291 = loc("p290.7507")
#loc292 = loc("p291.7734")
#loc293 = loc("p292.7739")
#loc294 = loc("p293.7746")
#loc295 = loc("p294.7751")
#loc296 = loc("p295.7881")
#loc297 = loc("p296.7890")
#loc298 = loc("p297.7894")
#loc299 = loc("p298.7920")
#loc300 = loc("p299.7931")
#loc301 = loc("p300.7935")
#loc302 = loc("p301.7940")
#loc303 = loc("p302.7952")
#loc304 = loc("p303.7960")
#loc305 = loc("p304.7969")
#loc306 = loc("p305.7980")
#loc307 = loc("p306.7984")
#loc308 = loc("p307.7995")
#loc309 = loc("p308.8013")
#loc310 = loc("p309.8017")
#loc311 = loc("p310.8244")
#loc312 = loc("p311.8249")
#loc313 = loc("p312.8256")
#loc314 = loc("p313.8261")
#loc315 = loc("p314.8391")
#loc316 = loc("p315.8400")
#loc317 = loc("p316.8404")
#loc318 = loc("p317.8430")
#loc319 = loc("p318.8441")
#loc320 = loc("p319.8445")
#loc321 = loc("p320.8450")
#loc322 = loc("p321.8462")
#loc323 = loc("p322.8470")
#loc324 = loc("p323.8479")
#loc325 = loc("p324.8490")
#loc326 = loc("p325.8494")
#loc327 = loc("p326.8505")
#loc328 = loc("p327.8523")
#loc329 = loc("p328.8527")
#loc330 = loc("p329.8754")
#loc331 = loc("p330.8759")
#loc332 = loc("p331.8766")
#loc333 = loc("p332.8771")
#loc334 = loc("p333.8901")
#loc335 = loc("p334.8910")
#loc336 = loc("p335.8914")
#loc337 = loc("p336.8940")
#loc338 = loc("p337.8951")
#loc339 = loc("p338.8955")
#loc340 = loc("p339.8960")
#loc341 = loc("p340.8972")
#loc342 = loc("p341.8980")
#loc343 = loc("p342.8989")
#loc344 = loc("p343.9000")
#loc345 = loc("p344.9004")
#loc346 = loc("p345.9015")
#loc347 = loc("p346.9033")
#loc348 = loc("p347.9037")
#loc349 = loc("p348.9264")
#loc350 = loc("p349.9269")
#loc351 = loc("p350.9276")
#loc352 = loc("p351.9281")
#loc353 = loc("p352.9411")
#loc354 = loc("p353.9420")
#loc355 = loc("p354.9424")
#loc356 = loc("p355.9450")
#loc357 = loc("p356.9461")
#loc358 = loc("p357.9465")
#loc359 = loc("p358.9470")
#loc360 = loc("p359.9482")
#loc361 = loc("p360.9490")
#loc362 = loc("p361.9499")
#loc363 = loc("p362.9510")
#loc364 = loc("p363.9514")
#loc365 = loc("p364.9525")
#loc366 = loc("p365.9543")
#loc367 = loc("p366.9547")
#loc368 = loc("p367.9774")
#loc369 = loc("p368.9779")
#loc370 = loc("p369.9786")
#loc371 = loc("p370.9791")
#loc372 = loc("p371.9921")
#loc373 = loc("p372.9930")
#loc374 = loc("p373.9934")
#loc375 = loc("p374.9960")
#loc376 = loc("p375.9971")
#loc377 = loc("p376.9975")
#loc378 = loc("p377.9980")
#loc379 = loc("p378.9992")
#loc380 = loc("p379.10000")
#loc381 = loc("p380.10009")
#loc382 = loc("p381.10020")
#loc383 = loc("p382.10024")
#loc384 = loc("p383.10035")
#loc385 = loc("p384.10053")
#loc386 = loc("p385.10057")
#loc387 = loc("p386.10284")
#loc388 = loc("p387.10289")
#loc389 = loc("p388.10296")
#loc390 = loc("p389.10301")
#loc391 = loc("p390.10431")
#loc392 = loc("p391.10440")
#loc393 = loc("p392.10444")
#loc394 = loc("p393.10470")
#loc395 = loc("p394.10481")
#loc396 = loc("p395.10485")
#loc397 = loc("p396.10490")
#loc398 = loc("p397.10502")
#loc399 = loc("p398.10510")
#loc400 = loc("p399.10519")
#loc401 = loc("p400.10530")
#loc402 = loc("p401.10534")
#loc403 = loc("p402.10545")
#loc404 = loc("p403.10563")
#loc405 = loc("p404.10567")
#loc406 = loc("p405.10794")
#loc407 = loc("p406.10799")
#loc408 = loc("p407.10806")
#loc409 = loc("p408.10811")
#loc410 = loc("p409.10941")
#loc411 = loc("p410.10950")
#loc412 = loc("p411.10954")
#loc413 = loc("p412.10980")
#loc414 = loc("p413.10991")
#loc415 = loc("p414.10995")
#loc416 = loc("p415.11000")
#loc417 = loc("p416.11012")
#loc418 = loc("p417.11020")
#loc419 = loc("p418.11029")
#loc420 = loc("p419.11040")
#loc421 = loc("p420.11044")
#loc422 = loc("p421.11055")
#loc423 = loc("p422.11073")
#loc424 = loc("p423.11077")
#loc425 = loc("p424.11304")
#loc426 = loc("p425.11309")
#loc427 = loc("p426.11316")
#loc428 = loc("p427.11321")
#loc429 = loc("p428.11451")
#loc430 = loc("p429.11460")
#loc431 = loc("p430.11464")
#loc432 = loc("p431.11490")
#loc433 = loc("p432.11501")
#loc434 = loc("p433.11505")
#loc435 = loc("p434.11510")
#loc436 = loc("p435.11522")
#loc437 = loc("p436.11530")
#loc438 = loc("p437.11539")
#loc439 = loc("p438.11550")
#loc440 = loc("p439.11554")
#loc441 = loc("p440.11565")
#loc442 = loc("p441.11583")
#loc443 = loc("p442.11587")
#loc444 = loc("p443.11814")
#loc445 = loc("p444.11819")
#loc446 = loc("p445.11826")
#loc447 = loc("p446.11831")
#loc448 = loc("p447.11961")
#loc449 = loc("p448.11970")
#loc450 = loc("p449.11974")
#loc451 = loc("p450.12000")
#loc452 = loc("p451.12011")
#loc453 = loc("p452.12015")
#loc454 = loc("p453.12020")
#loc455 = loc("p454.12032")
#loc456 = loc("p455.12040")
#loc457 = loc("p456.12049")
#loc458 = loc("p457.12060")
#loc459 = loc("p458.12064")
#loc460 = loc("p459.12075")
#loc461 = loc("p460.12093")
#loc462 = loc("p461.12097")
#loc463 = loc("p462.12324")
#loc464 = loc("p463.12329")
#loc465 = loc("p464.12336")
#loc466 = loc("p465.12341")
#loc467 = loc("p466.12471")
#loc468 = loc("p467.12480")
#loc469 = loc("p468.12484")
#loc470 = loc("p469.12510")
#loc471 = loc("p470.12521")
#loc472 = loc("p471.12525")
#loc473 = loc("p472.12530")
#loc474 = loc("p473.12542")
#loc475 = loc("p474.12550")
#loc476 = loc("p475.12559")
#loc477 = loc("p476.12570")
#loc478 = loc("p477.12574")
#loc479 = loc("p478.12585")
#loc480 = loc("p479.12603")
#loc481 = loc("p480.12607")
#loc482 = loc("p481.12834")
#loc483 = loc("p482.12839")
#loc484 = loc("p483.12846")
#loc485 = loc("p484.12851")
#loc486 = loc("p485.12981")
#loc487 = loc("p486.12990")
#loc488 = loc("p487.12994")
#loc489 = loc("p488.13020")
#loc490 = loc("p489.13031")
#loc491 = loc("p490.13035")
#loc492 = loc("p491.13040")
#loc493 = loc("p492.13052")
#loc494 = loc("p493.13060")
#loc495 = loc("p494.13069")
#loc496 = loc("p495.13080")
#loc497 = loc("p496.13084")
#loc498 = loc("p497.13095")
#loc499 = loc("p498.13113")
#loc500 = loc("p499.13117")
#loc501 = loc("p500.13344")
#loc502 = loc("p501.13349")
#loc503 = loc("p502.13356")
#loc504 = loc("p503.13361")
#loc505 = loc("p504.13491")
#loc506 = loc("p505.13500")
#loc507 = loc("p506.13504")
#loc508 = loc("p507.13530")
#loc509 = loc("p508.13541")
#loc510 = loc("p509.13545")
#loc511 = loc("p510.13550")
#loc512 = loc("p511.13562")
#loc513 = loc("p512.13570")
#loc514 = loc("p513.13579")
#loc515 = loc("p514.13590")
#loc516 = loc("p515.13594")
#loc517 = loc("p516.13605")
#loc518 = loc("p517.13623")
#loc519 = loc("p518.13627")
#loc520 = loc("p519.13854")
#loc521 = loc("p520.13859")
#loc522 = loc("p521.13866")
#loc523 = loc("p522.13871")
#loc524 = loc("p523.14001")
#loc525 = loc("p524.14010")
#loc526 = loc("p525.14014")
#loc527 = loc("p526.14040")
#loc528 = loc("p527.14051")
#loc529 = loc("p528.14055")
#loc530 = loc("p529.14060")
#loc531 = loc("p530.14072")
#loc532 = loc("p531.14080")
#loc533 = loc("p532.14089")
#loc534 = loc("p533.14100")
#loc535 = loc("p534.14104")
#loc536 = loc("p535.14115")
#loc537 = loc("p536.14133")
#loc538 = loc("p537.14137")
#loc539 = loc("p538.14364")
#loc540 = loc("p539.14369")
#loc541 = loc("p540.14376")
#loc542 = loc("p541.14381")
#loc543 = loc("p542.14511")
#loc544 = loc("p543.14520")
#loc545 = loc("p544.14524")
#loc546 = loc("p545.14550")
#loc547 = loc("p546.14561")
#loc548 = loc("p547.14565")
#loc549 = loc("p548.14570")
#loc550 = loc("p549.14582")
#loc551 = loc("p550.14590")
#loc552 = loc("p551.14599")
#loc553 = loc("p552.14610")
#loc554 = loc("p553.14614")
#loc555 = loc("p554.14625")
#loc556 = loc("p555.14643")
#loc557 = loc("p556.14647")
#loc558 = loc("p557.14874")
#loc559 = loc("p558.14879")
#loc560 = loc("p559.14886")
#loc561 = loc("p560.14891")
#loc562 = loc("p561.15021")
#loc563 = loc("p562.15030")
#loc564 = loc("p563.15034")
#loc565 = loc("p564.15060")
#loc566 = loc("p565.15071")
#loc567 = loc("p566.15075")
#loc568 = loc("p567.15080")
#loc569 = loc("p568.15092")
#loc570 = loc("p569.15100")
#loc571 = loc("p570.15109")
#loc572 = loc("p571.15120")
#loc573 = loc("p572.15124")
#loc574 = loc("p573.15135")
#loc575 = loc("p574.15153")
#loc576 = loc("p575.15157")
#loc577 = loc("p576.15384")
#loc578 = loc("p577.15389")
#loc579 = loc("p578.15396")
#loc580 = loc("p579.15401")
#loc581 = loc("p580.15531")
#loc582 = loc("p581.15540")
#loc583 = loc("p582.15544")
#loc584 = loc("p583.15570")
#loc585 = loc("p584.15581")
#loc586 = loc("p585.15585")
#loc587 = loc("p586.15590")
#loc588 = loc("p587.15602")
#loc589 = loc("p588.15610")
#loc590 = loc("p589.15619")
#loc591 = loc("p590.15630")
#loc592 = loc("p591.15634")
#loc593 = loc("p592.15645")
#loc594 = loc("p593.15663")
#loc595 = loc("p594.15667")
#loc596 = loc("p595.15894")
#loc597 = loc("p596.15899")
#loc598 = loc("p597.15906")
#loc599 = loc("p598.15911")
#loc600 = loc("p599.16041")
#loc601 = loc("p600.16050")
#loc602 = loc("p601.16054")
#loc603 = loc("p602.16080")
#loc604 = loc("p603.16091")
#loc605 = loc("p604.16095")
#loc606 = loc("p605.16100")
#loc607 = loc("p606.16112")
#loc608 = loc("p607.16120")
#loc609 = loc("p608.16129")
#loc610 = loc("p609.16140")
#loc611 = loc("p610.16144")
#loc612 = loc("p611.16155")
#loc613 = loc("p612.16173")
#loc614 = loc("p613.16177")
#loc615 = loc("p614.16404")
#loc616 = loc("p615.16409")
#loc617 = loc("p616.16416")
#loc618 = loc("p617.16421")
#loc619 = loc("p618.16551")
#loc620 = loc("p619.16560")
#loc621 = loc("p620.16564")
#loc622 = loc("p621.16590")
#loc623 = loc("p622.16601")
#loc624 = loc("p623.16605")
#loc625 = loc("p624.16610")
#loc626 = loc("p625.16622")
#loc627 = loc("p626.16630")
#loc628 = loc("p627.16639")
#loc629 = loc("p628.16650")
#loc630 = loc("p629.16654")
#loc631 = loc("p630.16665")
#loc632 = loc("p631.16683")
#loc633 = loc("p632.16687")
#loc634 = loc("p633.16914")
#loc635 = loc("p634.16919")
#loc636 = loc("p635.16926")
#loc637 = loc("p636.16931")
#loc638 = loc("p637.17061")
#loc639 = loc("p638.17070")
#loc640 = loc("p639.17074")
#loc641 = loc("p640.17100")
#loc642 = loc("p641.17111")
#loc643 = loc("p642.17115")
#loc644 = loc("p643.17120")
#loc645 = loc("p644.17132")
#loc646 = loc("p645.17140")
#loc647 = loc("p646.17149")
#loc648 = loc("p647.17160")
#loc649 = loc("p648.17164")
#loc650 = loc("p649.17175")
#loc651 = loc("p650.17193")
#loc652 = loc("p651.17197")
#loc653 = loc("p652.17424")
#loc654 = loc("p653.17429")
#loc655 = loc("p654.17436")
#loc656 = loc("p655.17441")
#loc657 = loc("p656.17571")
#loc658 = loc("p657.17580")
#loc659 = loc("p658.17584")
#loc660 = loc("p659.17610")
#loc661 = loc("p660.17621")
#loc662 = loc("p661.17625")
#loc663 = loc("p662.17630")
#loc664 = loc("p663.17642")
#loc665 = loc("p664.17650")
#loc666 = loc("p665.17659")
#loc667 = loc("p666.17670")
#loc668 = loc("p667.17674")
#loc669 = loc("p668.17685")
#loc670 = loc("p669.17703")
#loc671 = loc("p670.17707")
#loc672 = loc("p671.17934")
#loc673 = loc("p672.17939")
#loc674 = loc("p673.17946")
#loc675 = loc("p674.17951")
#loc676 = loc("p675.18081")
#loc677 = loc("p676.18090")
#loc678 = loc("p677.18094")
#loc679 = loc("p678.18120")
#loc680 = loc("p679.18134")
#loc681 = loc("p680.18139")
#loc682 = loc("p681.18151")
#loc683 = loc("p682.18159")
#loc684 = loc("p683.18168")
#loc685 = loc("p684.18179")
#loc686 = loc("p685.18183")
#loc687 = loc("p686.18194")
#loc688 = loc("p687.18212")
#loc689 = loc("p688.18216")
#loc690 = loc("p689.18443")
#loc691 = loc("p690.18448")
#loc692 = loc("p691.18455")
#loc693 = loc("p692.18460")
#loc708 = loc("dot.337")
#loc750 = loc("dot.92")
#loc769 = loc("scatter.146")
#loc813 = loc("dot.159")
#loc821 = loc("scatter.185")
#loc830 = loc("dot.444")
#loc842 = loc("dot.582")
#loc867 = loc("dot.488")
#loc893 = loc("reduce.624")
#loc902 = loc("dot.883")
#loc922 = loc("dot.662")
#loc939 = loc("scatter.711")
#loc972 = loc("dot.724")
#loc980 = loc("scatter.750")
#loc989 = loc("dot.990")
#loc1001 = loc("dot.1128")
#loc1026 = loc("dot.1034")
#loc1051 = loc("reduce.1170")
#loc1060 = loc("dot.1393")
#loc1080 = loc("dot.1208")
#loc1097 = loc("scatter.1257")
#loc1122 = loc("dot.1270")
#loc1130 = loc("scatter.1296")
#loc1139 = loc("dot.1500")
#loc1151 = loc("dot.1638")
#loc1176 = loc("dot.1544")
#loc1201 = loc("reduce.1680")
#loc1210 = loc("dot.1903")
#loc1230 = loc("dot.1718")
#loc1247 = loc("scatter.1767")
#loc1272 = loc("dot.1780")
#loc1280 = loc("scatter.1806")
#loc1289 = loc("dot.2010")
#loc1301 = loc("dot.2148")
#loc1326 = loc("dot.2054")
#loc1351 = loc("reduce.2190")
#loc1360 = loc("dot.2413")
#loc1380 = loc("dot.2228")
#loc1397 = loc("scatter.2277")
#loc1422 = loc("dot.2290")
#loc1430 = loc("scatter.2316")
#loc1439 = loc("dot.2520")
#loc1451 = loc("dot.2658")
#loc1476 = loc("dot.2564")
#loc1501 = loc("reduce.2700")
#loc1510 = loc("dot.2923")
#loc1530 = loc("dot.2738")
#loc1547 = loc("scatter.2787")
#loc1572 = loc("dot.2800")
#loc1580 = loc("scatter.2826")
#loc1589 = loc("dot.3030")
#loc1601 = loc("dot.3168")
#loc1626 = loc("dot.3074")
#loc1651 = loc("reduce.3210")
#loc1660 = loc("dot.3433")
#loc1680 = loc("dot.3248")
#loc1697 = loc("scatter.3297")
#loc1722 = loc("dot.3310")
#loc1730 = loc("scatter.3336")
#loc1739 = loc("dot.3540")
#loc1751 = loc("dot.3678")
#loc1776 = loc("dot.3584")
#loc1801 = loc("reduce.3720")
#loc1810 = loc("dot.3943")
#loc1830 = loc("dot.3758")
#loc1847 = loc("scatter.3807")
#loc1872 = loc("dot.3820")
#loc1880 = loc("scatter.3846")
#loc1889 = loc("dot.4050")
#loc1901 = loc("dot.4188")
#loc1926 = loc("dot.4094")
#loc1951 = loc("reduce.4230")
#loc1960 = loc("dot.4453")
#loc1980 = loc("dot.4268")
#loc1997 = loc("scatter.4317")
#loc2022 = loc("dot.4330")
#loc2030 = loc("scatter.4356")
#loc2039 = loc("dot.4560")
#loc2051 = loc("dot.4698")
#loc2076 = loc("dot.4604")
#loc2101 = loc("reduce.4740")
#loc2110 = loc("dot.4963")
#loc2130 = loc("dot.4778")
#loc2147 = loc("scatter.4827")
#loc2172 = loc("dot.4840")
#loc2180 = loc("scatter.4866")
#loc2189 = loc("dot.5070")
#loc2201 = loc("dot.5208")
#loc2226 = loc("dot.5114")
#loc2251 = loc("reduce.5250")
#loc2260 = loc("dot.5473")
#loc2280 = loc("dot.5288")
#loc2297 = loc("scatter.5337")
#loc2322 = loc("dot.5350")
#loc2330 = loc("scatter.5376")
#loc2339 = loc("dot.5580")
#loc2351 = loc("dot.5718")
#loc2376 = loc("dot.5624")
#loc2401 = loc("reduce.5760")
#loc2410 = loc("dot.5983")
#loc2430 = loc("dot.5798")
#loc2447 = loc("scatter.5847")
#loc2472 = loc("dot.5860")
#loc2480 = loc("scatter.5886")
#loc2489 = loc("dot.6090")
#loc2501 = loc("dot.6228")
#loc2526 = loc("dot.6134")
#loc2551 = loc("reduce.6270")
#loc2560 = loc("dot.6493")
#loc2580 = loc("dot.6308")
#loc2597 = loc("scatter.6357")
#loc2622 = loc("dot.6370")
#loc2630 = loc("scatter.6396")
#loc2639 = loc("dot.6600")
#loc2651 = loc("dot.6738")
#loc2676 = loc("dot.6644")
#loc2701 = loc("reduce.6780")
#loc2710 = loc("dot.7003")
#loc2730 = loc("dot.6818")
#loc2747 = loc("scatter.6867")
#loc2772 = loc("dot.6880")
#loc2780 = loc("scatter.6906")
#loc2789 = loc("dot.7110")
#loc2801 = loc("dot.7248")
#loc2826 = loc("dot.7154")
#loc2851 = loc("reduce.7290")
#loc2860 = loc("dot.7513")
#loc2880 = loc("dot.7328")
#loc2897 = loc("scatter.7377")
#loc2922 = loc("dot.7390")
#loc2930 = loc("scatter.7416")
#loc2939 = loc("dot.7620")
#loc2951 = loc("dot.7758")
#loc2976 = loc("dot.7664")
#loc3001 = loc("reduce.7800")
#loc3010 = loc("dot.8023")
#loc3030 = loc("dot.7838")
#loc3047 = loc("scatter.7887")
#loc3072 = loc("dot.7900")
#loc3080 = loc("scatter.7926")
#loc3089 = loc("dot.8130")
#loc3101 = loc("dot.8268")
#loc3126 = loc("dot.8174")
#loc3151 = loc("reduce.8310")
#loc3160 = loc("dot.8533")
#loc3180 = loc("dot.8348")
#loc3197 = loc("scatter.8397")
#loc3222 = loc("dot.8410")
#loc3230 = loc("scatter.8436")
#loc3239 = loc("dot.8640")
#loc3251 = loc("dot.8778")
#loc3276 = loc("dot.8684")
#loc3301 = loc("reduce.8820")
#loc3310 = loc("dot.9043")
#loc3330 = loc("dot.8858")
#loc3347 = loc("scatter.8907")
#loc3372 = loc("dot.8920")
#loc3380 = loc("scatter.8946")
#loc3389 = loc("dot.9150")
#loc3401 = loc("dot.9288")
#loc3426 = loc("dot.9194")
#loc3451 = loc("reduce.9330")
#loc3460 = loc("dot.9553")
#loc3480 = loc("dot.9368")
#loc3497 = loc("scatter.9417")
#loc3522 = loc("dot.9430")
#loc3530 = loc("scatter.9456")
#loc3539 = loc("dot.9660")
#loc3551 = loc("dot.9798")
#loc3576 = loc("dot.9704")
#loc3601 = loc("reduce.9840")
#loc3610 = loc("dot.10063")
#loc3630 = loc("dot.9878")
#loc3647 = loc("scatter.9927")
#loc3672 = loc("dot.9940")
#loc3680 = loc("scatter.9966")
#loc3689 = loc("dot.10170")
#loc3701 = loc("dot.10308")
#loc3726 = loc("dot.10214")
#loc3751 = loc("reduce.10350")
#loc3760 = loc("dot.10573")
#loc3780 = loc("dot.10388")
#loc3797 = loc("scatter.10437")
#loc3822 = loc("dot.10450")
#loc3830 = loc("scatter.10476")
#loc3839 = loc("dot.10680")
#loc3851 = loc("dot.10818")
#loc3876 = loc("dot.10724")
#loc3901 = loc("reduce.10860")
#loc3910 = loc("dot.11083")
#loc3930 = loc("dot.10898")
#loc3947 = loc("scatter.10947")
#loc3972 = loc("dot.10960")
#loc3980 = loc("scatter.10986")
#loc3989 = loc("dot.11190")
#loc4001 = loc("dot.11328")
#loc4026 = loc("dot.11234")
#loc4051 = loc("reduce.11370")
#loc4060 = loc("dot.11593")
#loc4080 = loc("dot.11408")
#loc4097 = loc("scatter.11457")
#loc4122 = loc("dot.11470")
#loc4130 = loc("scatter.11496")
#loc4139 = loc("dot.11700")
#loc4151 = loc("dot.11838")
#loc4176 = loc("dot.11744")
#loc4201 = loc("reduce.11880")
#loc4210 = loc("dot.12103")
#loc4230 = loc("dot.11918")
#loc4247 = loc("scatter.11967")
#loc4272 = loc("dot.11980")
#loc4280 = loc("scatter.12006")
#loc4289 = loc("dot.12210")
#loc4301 = loc("dot.12348")
#loc4326 = loc("dot.12254")
#loc4351 = loc("reduce.12390")
#loc4360 = loc("dot.12613")
#loc4380 = loc("dot.12428")
#loc4397 = loc("scatter.12477")
#loc4422 = loc("dot.12490")
#loc4430 = loc("scatter.12516")
#loc4439 = loc("dot.12720")
#loc4451 = loc("dot.12858")
#loc4476 = loc("dot.12764")
#loc4501 = loc("reduce.12900")
#loc4510 = loc("dot.13123")
#loc4530 = loc("dot.12938")
#loc4547 = loc("scatter.12987")
#loc4572 = loc("dot.13000")
#loc4580 = loc("scatter.13026")
#loc4589 = loc("dot.13230")
#loc4601 = loc("dot.13368")
#loc4626 = loc("dot.13274")
#loc4651 = loc("reduce.13410")
#loc4660 = loc("dot.13633")
#loc4680 = loc("dot.13448")
#loc4697 = loc("scatter.13497")
#loc4722 = loc("dot.13510")
#loc4730 = loc("scatter.13536")
#loc4739 = loc("dot.13740")
#loc4751 = loc("dot.13878")
#loc4776 = loc("dot.13784")
#loc4801 = loc("reduce.13920")
#loc4810 = loc("dot.14143")
#loc4830 = loc("dot.13958")
#loc4847 = loc("scatter.14007")
#loc4872 = loc("dot.14020")
#loc4880 = loc("scatter.14046")
#loc4889 = loc("dot.14250")
#loc4901 = loc("dot.14388")
#loc4926 = loc("dot.14294")
#loc4951 = loc("reduce.14430")
#loc4960 = loc("dot.14653")
#loc4980 = loc("dot.14468")
#loc4997 = loc("scatter.14517")
#loc5022 = loc("dot.14530")
#loc5030 = loc("scatter.14556")
#loc5039 = loc("dot.14760")
#loc5051 = loc("dot.14898")
#loc5076 = loc("dot.14804")
#loc5101 = loc("reduce.14940")
#loc5110 = loc("dot.15163")
#loc5130 = loc("dot.14978")
#loc5147 = loc("scatter.15027")
#loc5172 = loc("dot.15040")
#loc5180 = loc("scatter.15066")
#loc5189 = loc("dot.15270")
#loc5201 = loc("dot.15408")
#loc5226 = loc("dot.15314")
#loc5251 = loc("reduce.15450")
#loc5260 = loc("dot.15673")
#loc5280 = loc("dot.15488")
#loc5297 = loc("scatter.15537")
#loc5322 = loc("dot.15550")
#loc5330 = loc("scatter.15576")
#loc5339 = loc("dot.15780")
#loc5351 = loc("dot.15918")
#loc5376 = loc("dot.15824")
#loc5401 = loc("reduce.15960")
#loc5410 = loc("dot.16183")
#loc5430 = loc("dot.15998")
#loc5447 = loc("scatter.16047")
#loc5472 = loc("dot.16060")
#loc5480 = loc("scatter.16086")
#loc5489 = loc("dot.16290")
#loc5501 = loc("dot.16428")
#loc5526 = loc("dot.16334")
#loc5551 = loc("reduce.16470")
#loc5560 = loc("dot.16693")
#loc5580 = loc("dot.16508")
#loc5597 = loc("scatter.16557")
#loc5622 = loc("dot.16570")
#loc5630 = loc("scatter.16596")
#loc5639 = loc("dot.16800")
#loc5651 = loc("dot.16938")
#loc5676 = loc("dot.16844")
#loc5701 = loc("reduce.16980")
#loc5710 = loc("dot.17203")
#loc5730 = loc("dot.17018")
#loc5747 = loc("scatter.17067")
#loc5772 = loc("dot.17080")
#loc5780 = loc("scatter.17106")
#loc5789 = loc("dot.17310")
#loc5801 = loc("dot.17448")
#loc5826 = loc("dot.17354")
#loc5851 = loc("reduce.17490")
#loc5860 = loc("dot.17713")
#loc5880 = loc("dot.17528")
#loc5897 = loc("scatter.17577")
#loc5922 = loc("dot.17590")
#loc5930 = loc("scatter.17616")
#loc5939 = loc("dot.17820")
#loc5951 = loc("dot.17958")
#loc5976 = loc("dot.17864")
#loc6001 = loc("reduce.18000")
#loc6010 = loc("dot.18222")
#loc6030 = loc("dot.18038")
#loc6047 = loc("scatter.18087")
#loc6061 = loc("dot.18100")
#loc6069 = loc("scatter.18126")
#loc6091 = loc("dot.18329")
#loc6103 = loc("dot.18467")
#loc6128 = loc("dot.18373")
#loc6153 = loc("reduce.18509")
#loc6162 = loc("dot.18547")
#loc6167 = loc("reduce.18579")
#loc6177 = loc("sort.8706")
#loc6183 = loc("sort.14826")
#loc6189 = loc("sort.3096")
#loc6195 = loc("sort.5136")
#loc6201 = loc("sort.8196")
#loc6207 = loc("sort.4626")
#loc6213 = loc("sort.7176")
#loc6219 = loc("sort.11766")
#loc6225 = loc("sort.12276")
#loc6231 = loc("sort.14316")
#loc6237 = loc("sort.11256")
#loc6243 = loc("sort.13296")
#loc6249 = loc("sort.7686")
#loc6255 = loc("sort.10236")
#loc6261 = loc("sort.17376")
#loc6267 = loc("sort.17886")
#loc6273 = loc("sort.510")
#loc6279 = loc("sort.4116")
#loc6285 = loc("sort.16356")
#loc6291 = loc("sort.15336")
#loc6297 = loc("sort.15846")
#loc6303 = loc("sort.2076")
#loc6309 = loc("sort.3606")
#loc6315 = loc("sort.1056")
#loc6321 = loc("sort.9216")
#loc6327 = loc("sort.18395")
#loc6333 = loc("sort.1566")
#loc6339 = loc("sort.6156")
#loc6345 = loc("sort.12786")
#loc6351 = loc("sort.13806")
#loc6357 = loc("sort.10746")
#loc6363 = loc("sort.9726")
#loc6369 = loc("sort.2586")
#loc6375 = loc("sort.6666")
#loc6381 = loc("sort.5646")
#loc6387 = loc("sort.16866")
module @SyncTensorsGraph.18584 attributes {mhlo.cross_program_prefetches = [], mhlo.input_output_alias = [], mhlo.is_dynamic = false, mhlo.use_auto_spmd_partitioning = false} {
  sdy.mesh @mesh = <["_axis_0"=4, "_axis_1"=8]> loc(#loc)
  func.func @main(%arg0: tensor<64xi64> {ttcore.argument_type = #ttcore.argument_type<input>, ttcore.local_shape = #ttcore<local_shape local_shape = tensor<64xi64>>, ttcore.shard_status = #ttcore.shard_status<presharded>, ttir.name = "args_1"} loc("p0.3"), %arg1: tensor<32xbf16> {ttcore.argument_type = #ttcore.argument_type<constant>, ttcore.local_shape = #ttcore<local_shape local_shape = tensor<32xbf16>>, ttcore.shard_status = #ttcore.shard_status<presharded>, ttir.name = "model.model.rotary_emb.inv_freq"} loc("p1.11"), %arg2: tensor<512xbf16> {ttcore.argument_type = #ttcore.argument_type<parameter>, ttcore.local_shape = #ttcore<local_shape local_shape = tensor<64xbf16>>, ttcore.shard_status = #ttcore.shard_status<presharded>, ttir.name = "self___model_model_layers_0_self_attn_k_proj__parameters__bias"} loc("p2.28"), %arg3: tensor<512x2880xbf16> {ttcore.argument_type = #ttcore.argument_type<parameter>, ttcore.local_shape = #ttcore<local_shape local_shape = tensor<64x720xbf16>>, ttcore.shard_status = #ttcore.shard_status<presharded>, ttir.name = "self___model_model_layers_0_self_attn_k_proj__parameters__weight"} loc("p3.32"), %arg4: tensor<2880xbf16> {ttcore.argument_type = #ttcore.argument_type<parameter>, ttcore.local_shape = #ttcore<local_shape local_shape = tensor<720xbf16>>, ttcore.shard_status = #ttcore.shard_status<presharded>, ttir.name = "model.model.layers.0.input_layernorm.weight"} loc("p4.37"), %arg5: tensor<64x64xi64> {ttcore.argument_type = #ttcore.argument_type<input>, ttcore.local_shape = #ttcore<local_shape local_shape = tensor<64x64xi64>>, ttcore.shard_status = #ttcore.shard_status<presharded>, ttir.name = "args_0"} loc("p5.46"), %arg6: tensor<201088x2880xbf16> {ttcore.argument_type = #ttcore.argument_type<parameter>, ttcore.local_shape = #ttcore<local_shape local_shape = tensor<201088x720xbf16>>, ttcore.shard_status = #ttcore.shard_status<presharded>, ttir.name = "model.model.embed_tokens.weight"} loc("p6.51"), %arg7: tensor<64x8x128x64xbf16> {ttcore.argument_type = #ttcore.argument_type<input>, ttcore.local_shape = #ttcore<local_shape local_shape = tensor<64x1x128x64xbf16>>, ttcore.shard_status = #ttcore.shard_status<presharded>, ttir.name = "args_2"} loc("p7.140"), %arg8: tensor<512xbf16> {ttcore.argument_type = #ttcore.argument_type<parameter>, ttcore.local_shape = #ttcore<local_shape local_shape = tensor<64xbf16>>, ttcore.shard_status = #ttcore.shard_status<presharded>, ttir.name = "self___model_model_layers_0_self_attn_v_proj__parameters__bias"} loc("p8.149"), %arg9: tensor<512x2880xbf16> {ttcore.argument_type = #ttcore.argument_type<parameter>, ttcore.local_shape = #ttcore<local_shape local_shape = tensor<64x720xbf16>>, ttcore.shard_status = #ttcore.shard_status<presharded>, ttir.name = "self___model_model_layers_0_self_attn_v_proj__parameters__weight"} loc("p9.153"), %arg10: tensor<64x8x128x64xbf16> {ttcore.argument_type = #ttcore.argument_type<input>, ttcore.local_shape = #ttcore<local_shape local_shape = tensor<64x1x128x64xbf16>>, ttcore.shard_status = #ttcore.shard_status<presharded>, ttir.name = "args_3"} loc("p10.179"), %arg11: tensor<512xbf16> {ttcore.argument_type = #ttcore.argument_type<parameter>, ttcore.local_shape = #ttcore<local_shape local_shape = tensor<64xbf16>>, ttcore.shard_status = #ttcore.shard_status<presharded>, ttir.name = "self___model_model_layers_1_self_attn_k_proj__parameters__bias"} loc("p11.190"), %arg12: tensor<512x2880xbf16> {ttcore.argument_type = #ttcore.argument_type<parameter>, ttcore.local_shape = #ttcore<local_shape local_shape = tensor<64x720xbf16>>, ttcore.shard_status = #ttcore.shard_status<presharded>, ttir.name = "self___model_model_layers_1_self_attn_k_proj__parameters__weight"} loc("p12.194"), %arg13: tensor<2880xbf16> {ttcore.argument_type = #ttcore.argument_type<parameter>, ttcore.local_shape = #ttcore<local_shape local_shape = tensor<720xbf16>>, ttcore.shard_status = #ttcore.shard_status<presharded>, ttir.name = "model.model.layers.1.input_layernorm.weight"} loc("p13.199"), %arg14: tensor<128xbf16> {ttcore.argument_type = #ttcore.argument_type<parameter>, ttcore.local_shape = #ttcore<local_shape local_shape = tensor<128xbf16>>, ttcore.shard_status = #ttcore.shard_status<presharded>, ttir.name = "model.model.layers.0.mlp.router.bias"} loc("p14.211"), %arg15: tensor<128x2880xbf16> {ttcore.argument_type = #ttcore.argument_type<parameter>, ttcore.local_shape = #ttcore<local_shape local_shape = tensor<128x720xbf16>>, ttcore.shard_status = #ttcore.shard_status<presharded>, ttcore.weight_dtype = "bfp_bf4", ttir.name = "model.model.layers.0.mlp.router.parametrizations.weight.original"} loc("p15.219"), %arg16: tensor<2880xbf16> {ttcore.argument_type = #ttcore.argument_type<parameter>, ttcore.local_shape = #ttcore<local_shape local_shape = tensor<720xbf16>>, ttcore.shard_status = #ttcore.shard_status<presharded>, ttir.name = "model.model.layers.0.post_attention_layernorm.weight"} loc("p16.228"), %arg17: tensor<2880xbf16> {ttcore.argument_type = #ttcore.argument_type<parameter>, ttcore.local_shape = #ttcore<local_shape local_shape = tensor<720xbf16>>, ttcore.shard_status = #ttcore.shard_status<presharded>, ttir.name = "self___model_model_layers_0_self_attn_o_proj__parameters__bias"} loc("p17.239"), %arg18: tensor<2880x4096xbf16> {ttcore.argument_type = #ttcore.argument_type<parameter>, ttcore.local_shape = #ttcore<local_shape local_shape = tensor<720x512xbf16>>, ttcore.shard_status = #ttcore.shard_status<presharded>, ttir.name = "self___model_model_layers_0_self_attn_o_proj__parameters__weight"} loc("p18.243"), %arg19: tensor<64xbf16> {ttcore.argument_type = #ttcore.argument_type<parameter>, ttcore.local_shape = #ttcore<local_shape local_shape = tensor<64xbf16>>, ttcore.shard_status = #ttcore.shard_status<presharded>, ttir.name = "model.model.layers.0.self_attn.sinks"} loc("p19.254"), %arg20: tensor<bf16> {ttcore.argument_type = #ttcore.argument_type<constant>, ttcore.local_shape = #ttcore<local_shape local_shape = tensor<bf16>>, ttcore.shard_status = #ttcore.shard_status<presharded>, ttir.name = "L['self'].model.model.lifted_tensor_1"} loc("p20.269"), %arg21: tensor<i1> {ttcore.argument_type = #ttcore.argument_type<input>, ttcore.local_shape = #ttcore<local_shape local_shape = tensor<i1>>, ttcore.shard_status = #ttcore.shard_status<presharded>} loc("p21.304"), %arg22: tensor<4096xbf16> {ttcore.argument_type = #ttcore.argument_type<parameter>, ttcore.local_shape = #ttcore<local_shape local_shape = tensor<512xbf16>>, ttcore.shard_status = #ttcore.shard_status<presharded>, ttir.name = "self___model_model_layers_0_self_attn_q_proj__parameters__bias"} loc("p22.327"), %arg23: tensor<4096x2880xbf16> {ttcore.argument_type = #ttcore.argument_type<parameter>, ttcore.local_shape = #ttcore<local_shape local_shape = tensor<512x720xbf16>>, ttcore.shard_status = #ttcore.shard_status<presharded>, ttir.name = "self___model_model_layers_0_self_attn_q_proj__parameters__weight"} loc("p23.331"), %arg24: tensor<128x2880xbf16> {ttcore.argument_type = #ttcore.argument_type<parameter>, ttcore.local_shape = #ttcore<local_shape local_shape = tensor<16x720xbf16>>, ttcore.shard_status = #ttcore.shard_status<presharded>, ttir.name = "model.model.layers.0.mlp.experts.down_proj_bias"} loc("p24.558"), %arg25: tensor<128x2880x2880xbf16> {ttcore.argument_type = #ttcore.argument_type<parameter>, ttcore.local_shape = #ttcore<local_shape local_shape = tensor<16x2880x720xbf16>>, ttcore.shard_status = #ttcore.shard_status<presharded>, ttcore.weight_dtype = "bfp_bf4", ttir.name = "model.model.layers.0.mlp.experts.parametrizations.down_proj.original"} loc("p25.563"), %arg26: tensor<128x5760xbf16> {ttcore.argument_type = #ttcore.argument_type<parameter>, ttcore.local_shape = #ttcore<local_shape local_shape = tensor<16x5760xbf16>>, ttcore.shard_status = #ttcore.shard_status<presharded>, ttir.name = "model.model.layers.0.mlp.experts.gate_up_proj_bias"} loc("p26.570"), %arg27: tensor<128x2880x5760xbf16> {ttcore.argument_type = #ttcore.argument_type<parameter>, ttcore.local_shape = #ttcore<local_shape local_shape = tensor<16x720x5760xbf16>>, ttcore.shard_status = #ttcore.shard_status<presharded>, ttcore.weight_dtype = "bfp_bf4", ttir.name = "model.model.layers.0.mlp.experts.parametrizations.gate_up_proj.original"} loc("p27.575"), %arg28: tensor<64x8x128x64xbf16> {ttcore.argument_type = #ttcore.argument_type<input>, ttcore.local_shape = #ttcore<local_shape local_shape = tensor<64x1x128x64xbf16>>, ttcore.shard_status = #ttcore.shard_status<presharded>, ttir.name = "args_4"} loc("p28.705"), %arg29: tensor<512xbf16> {ttcore.argument_type = #ttcore.argument_type<parameter>, ttcore.local_shape = #ttcore<local_shape local_shape = tensor<64xbf16>>, ttcore.shard_status = #ttcore.shard_status<presharded>, ttir.name = "self___model_model_layers_1_self_attn_v_proj__parameters__bias"} loc("p29.714"), %arg30: tensor<512x2880xbf16> {ttcore.argument_type = #ttcore.argument_type<parameter>, ttcore.local_shape = #ttcore<local_shape local_shape = tensor<64x720xbf16>>, ttcore.shard_status = #ttcore.shard_status<presharded>, ttir.name = "self___model_model_layers_1_self_attn_v_proj__parameters__weight"} loc("p30.718"), %arg31: tensor<64x8x128x64xbf16> {ttcore.argument_type = #ttcore.argument_type<input>, ttcore.local_shape = #ttcore<local_shape local_shape = tensor<64x1x128x64xbf16>>, ttcore.shard_status = #ttcore.shard_status<presharded>, ttir.name = "args_5"} loc("p31.744"), %arg32: tensor<512xbf16> {ttcore.argument_type = #ttcore.argument_type<parameter>, ttcore.local_shape = #ttcore<local_shape local_shape = tensor<64xbf16>>, ttcore.shard_status = #ttcore.shard_status<presharded>, ttir.name = "self___model_model_layers_2_self_attn_k_proj__parameters__bias"} loc("p32.755"), %arg33: tensor<512x2880xbf16> {ttcore.argument_type = #ttcore.argument_type<parameter>, ttcore.local_shape = #ttcore<local_shape local_shape = tensor<64x720xbf16>>, ttcore.shard_status = #ttcore.shard_status<presharded>, ttir.name = "self___model_model_layers_2_self_attn_k_proj__parameters__weight"} loc("p33.759"), %arg34: tensor<2880xbf16> {ttcore.argument_type = #ttcore.argument_type<parameter>, ttcore.local_shape = #ttcore<local_shape local_shape = tensor<720xbf16>>, ttcore.shard_status = #ttcore.shard_status<presharded>, ttir.name = "model.model.layers.2.input_layernorm.weight"} loc("p34.764"), %arg35: tensor<128xbf16> {ttcore.argument_type = #ttcore.argument_type<parameter>, ttcore.local_shape = #ttcore<local_shape local_shape = tensor<128xbf16>>, ttcore.shard_status = #ttcore.shard_status<presharded>, ttir.name = "model.model.layers.1.mlp.router.bias"} loc("p35.776"), %arg36: tensor<128x2880xbf16> {ttcore.argument_type = #ttcore.argument_type<parameter>, ttcore.local_shape = #ttcore<local_shape local_shape = tensor<128x720xbf16>>, ttcore.shard_status = #ttcore.shard_status<presharded>, ttcore.weight_dtype = "bfp_bf4", ttir.name = "model.model.layers.1.mlp.router.parametrizations.weight.original"} loc("p36.784"), %arg37: tensor<2880xbf16> {ttcore.argument_type = #ttcore.argument_type<parameter>, ttcore.local_shape = #ttcore<local_shape local_shape = tensor<720xbf16>>, ttcore.shard_status = #ttcore.shard_status<presharded>, ttir.name = "model.model.layers.1.post_attention_layernorm.weight"} loc("p37.793"), %arg38: tensor<2880xbf16> {ttcore.argument_type = #ttcore.argument_type<parameter>, ttcore.local_shape = #ttcore<local_shape local_shape = tensor<720xbf16>>, ttcore.shard_status = #ttcore.shard_status<presharded>, ttir.name = "self___model_model_layers_1_self_attn_o_proj__parameters__bias"} loc("p38.804"), %arg39: tensor<2880x4096xbf16> {ttcore.argument_type = #ttcore.argument_type<parameter>, ttcore.local_shape = #ttcore<local_shape local_shape = tensor<720x512xbf16>>, ttcore.shard_status = #ttcore.shard_status<presharded>, ttir.name = "self___model_model_layers_1_self_attn_o_proj__parameters__weight"} loc("p39.808"), %arg40: tensor<64xbf16> {ttcore.argument_type = #ttcore.argument_type<parameter>, ttcore.local_shape = #ttcore<local_shape local_shape = tensor<64xbf16>>, ttcore.shard_status = #ttcore.shard_status<presharded>, ttir.name = "model.model.layers.1.self_attn.sinks"} loc("p40.819"), %arg41: tensor<bf16> {ttcore.argument_type = #ttcore.argument_type<constant>, ttcore.local_shape = #ttcore<local_shape local_shape = tensor<bf16>>, ttcore.shard_status = #ttcore.shard_status<presharded>, ttir.name = "L['self'].model.model.lifted_tensor_0"} loc("p41.834"), %arg42: tensor<4096xbf16> {ttcore.argument_type = #ttcore.argument_type<parameter>, ttcore.local_shape = #ttcore<local_shape local_shape = tensor<512xbf16>>, ttcore.shard_status = #ttcore.shard_status<presharded>, ttir.name = "self___model_model_layers_1_self_attn_q_proj__parameters__bias"} loc("p42.873"), %arg43: tensor<4096x2880xbf16> {ttcore.argument_type = #ttcore.argument_type<parameter>, ttcore.local_shape = #ttcore<local_shape local_shape = tensor<512x720xbf16>>, ttcore.shard_status = #ttcore.shard_status<presharded>, ttir.name = "self___model_model_layers_1_self_attn_q_proj__parameters__weight"} loc("p43.877"), %arg44: tensor<128x2880xbf16> {ttcore.argument_type = #ttcore.argument_type<parameter>, ttcore.local_shape = #ttcore<local_shape local_shape = tensor<16x720xbf16>>, ttcore.shard_status = #ttcore.shard_status<presharded>, ttir.name = "model.model.layers.1.mlp.experts.down_proj_bias"} loc("p44.1104"), %arg45: tensor<128x2880x2880xbf16> {ttcore.argument_type = #ttcore.argument_type<parameter>, ttcore.local_shape = #ttcore<local_shape local_shape = tensor<16x2880x720xbf16>>, ttcore.shard_status = #ttcore.shard_status<presharded>, ttcore.weight_dtype = "bfp_bf4", ttir.name = "model.model.layers.1.mlp.experts.parametrizations.down_proj.original"} loc("p45.1109"), %arg46: tensor<128x5760xbf16> {ttcore.argument_type = #ttcore.argument_type<parameter>, ttcore.local_shape = #ttcore<local_shape local_shape = tensor<16x5760xbf16>>, ttcore.shard_status = #ttcore.shard_status<presharded>, ttir.name = "model.model.layers.1.mlp.experts.gate_up_proj_bias"} loc("p46.1116"), %arg47: tensor<128x2880x5760xbf16> {ttcore.argument_type = #ttcore.argument_type<parameter>, ttcore.local_shape = #ttcore<local_shape local_shape = tensor<16x720x5760xbf16>>, ttcore.shard_status = #ttcore.shard_status<presharded>, ttcore.weight_dtype = "bfp_bf4", ttir.name = "model.model.layers.1.mlp.experts.parametrizations.gate_up_proj.original"} loc("p47.1121"), %arg48: tensor<64x8x128x64xbf16> {ttcore.argument_type = #ttcore.argument_type<input>, ttcore.local_shape = #ttcore<local_shape local_shape = tensor<64x1x128x64xbf16>>, ttcore.shard_status = #ttcore.shard_status<presharded>, ttir.name = "args_6"} loc("p48.1251"), %arg49: tensor<512xbf16> {ttcore.argument_type = #ttcore.argument_type<parameter>, ttcore.local_shape = #ttcore<local_shape local_shape = tensor<64xbf16>>, ttcore.shard_status = #ttcore.shard_status<presharded>, ttir.name = "self___model_model_layers_2_self_attn_v_proj__parameters__bias"} loc("p49.1260"), %arg50: tensor<512x2880xbf16> {ttcore.argument_type = #ttcore.argument_type<parameter>, ttcore.local_shape = #ttcore<local_shape local_shape = tensor<64x720xbf16>>, ttcore.shard_status = #ttcore.shard_status<presharded>, ttir.name = "self___model_model_layers_2_self_attn_v_proj__parameters__weight"} loc("p50.1264"), %arg51: tensor<64x8x128x64xbf16> {ttcore.argument_type = #ttcore.argument_type<input>, ttcore.local_shape = #ttcore<local_shape local_shape = tensor<64x1x128x64xbf16>>, ttcore.shard_status = #ttcore.shard_status<presharded>, ttir.name = "args_7"} loc("p51.1290"), %arg52: tensor<512xbf16> {ttcore.argument_type = #ttcore.argument_type<parameter>, ttcore.local_shape = #ttcore<local_shape local_shape = tensor<64xbf16>>, ttcore.shard_status = #ttcore.shard_status<presharded>, ttir.name = "self___model_model_layers_3_self_attn_k_proj__parameters__bias"} loc("p52.1301"), %arg53: tensor<512x2880xbf16> {ttcore.argument_type = #ttcore.argument_type<parameter>, ttcore.local_shape = #ttcore<local_shape local_shape = tensor<64x720xbf16>>, ttcore.shard_status = #ttcore.shard_status<presharded>, ttir.name = "self___model_model_layers_3_self_attn_k_proj__parameters__weight"} loc("p53.1305"), %arg54: tensor<2880xbf16> {ttcore.argument_type = #ttcore.argument_type<parameter>, ttcore.local_shape = #ttcore<local_shape local_shape = tensor<720xbf16>>, ttcore.shard_status = #ttcore.shard_status<presharded>, ttir.name = "model.model.layers.3.input_layernorm.weight"} loc("p54.1310"), %arg55: tensor<128xbf16> {ttcore.argument_type = #ttcore.argument_type<parameter>, ttcore.local_shape = #ttcore<local_shape local_shape = tensor<128xbf16>>, ttcore.shard_status = #ttcore.shard_status<presharded>, ttir.name = "model.model.layers.2.mlp.router.bias"} loc("p55.1322"), %arg56: tensor<128x2880xbf16> {ttcore.argument_type = #ttcore.argument_type<parameter>, ttcore.local_shape = #ttcore<local_shape local_shape = tensor<128x720xbf16>>, ttcore.shard_status = #ttcore.shard_status<presharded>, ttcore.weight_dtype = "bfp_bf4", ttir.name = "model.model.layers.2.mlp.router.parametrizations.weight.original"} loc("p56.1330"), %arg57: tensor<2880xbf16> {ttcore.argument_type = #ttcore.argument_type<parameter>, ttcore.local_shape = #ttcore<local_shape local_shape = tensor<720xbf16>>, ttcore.shard_status = #ttcore.shard_status<presharded>, ttir.name = "model.model.layers.2.post_attention_layernorm.weight"} loc("p57.1339"), %arg58: tensor<2880xbf16> {ttcore.argument_type = #ttcore.argument_type<parameter>, ttcore.local_shape = #ttcore<local_shape local_shape = tensor<720xbf16>>, ttcore.shard_status = #ttcore.shard_status<presharded>, ttir.name = "self___model_model_layers_2_self_attn_o_proj__parameters__bias"} loc("p58.1350"), %arg59: tensor<2880x4096xbf16> {ttcore.argument_type = #ttcore.argument_type<parameter>, ttcore.local_shape = #ttcore<local_shape local_shape = tensor<720x512xbf16>>, ttcore.shard_status = #ttcore.shard_status<presharded>, ttir.name = "self___model_model_layers_2_self_attn_o_proj__parameters__weight"} loc("p59.1354"), %arg60: tensor<64xbf16> {ttcore.argument_type = #ttcore.argument_type<parameter>, ttcore.local_shape = #ttcore<local_shape local_shape = tensor<64xbf16>>, ttcore.shard_status = #ttcore.shard_status<presharded>, ttir.name = "model.model.layers.2.self_attn.sinks"} loc("p60.1365"), %arg61: tensor<4096xbf16> {ttcore.argument_type = #ttcore.argument_type<parameter>, ttcore.local_shape = #ttcore<local_shape local_shape = tensor<512xbf16>>, ttcore.shard_status = #ttcore.shard_status<presharded>, ttir.name = "self___model_model_layers_2_self_attn_q_proj__parameters__bias"} loc("p61.1383"), %arg62: tensor<4096x2880xbf16> {ttcore.argument_type = #ttcore.argument_type<parameter>, ttcore.local_shape = #ttcore<local_shape local_shape = tensor<512x720xbf16>>, ttcore.shard_status = #ttcore.shard_status<presharded>, ttir.name = "self___model_model_layers_2_self_attn_q_proj__parameters__weight"} loc("p62.1387"), %arg63: tensor<128x2880xbf16> {ttcore.argument_type = #ttcore.argument_type<parameter>, ttcore.local_shape = #ttcore<local_shape local_shape = tensor<16x720xbf16>>, ttcore.shard_status = #ttcore.shard_status<presharded>, ttir.name = "model.model.layers.2.mlp.experts.down_proj_bias"} loc("p63.1614"), %arg64: tensor<128x2880x2880xbf16> {ttcore.argument_type = #ttcore.argument_type<parameter>, ttcore.local_shape = #ttcore<local_shape local_shape = tensor<16x2880x720xbf16>>, ttcore.shard_status = #ttcore.shard_status<presharded>, ttcore.weight_dtype = "bfp_bf4", ttir.name = "model.model.layers.2.mlp.experts.parametrizations.down_proj.original"} loc("p64.1619"), %arg65: tensor<128x5760xbf16> {ttcore.argument_type = #ttcore.argument_type<parameter>, ttcore.local_shape = #ttcore<local_shape local_shape = tensor<16x5760xbf16>>, ttcore.shard_status = #ttcore.shard_status<presharded>, ttir.name = "model.model.layers.2.mlp.experts.gate_up_proj_bias"} loc("p65.1626"), %arg66: tensor<128x2880x5760xbf16> {ttcore.argument_type = #ttcore.argument_type<parameter>, ttcore.local_shape = #ttcore<local_shape local_shape = tensor<16x720x5760xbf16>>, ttcore.shard_status = #ttcore.shard_status<presharded>, ttcore.weight_dtype = "bfp_bf4", ttir.name = "model.model.layers.2.mlp.experts.parametrizations.gate_up_proj.original"} loc("p66.1631"), %arg67: tensor<64x8x128x64xbf16> {ttcore.argument_type = #ttcore.argument_type<input>, ttcore.local_shape = #ttcore<local_shape local_shape = tensor<64x1x128x64xbf16>>, ttcore.shard_status = #ttcore.shard_status<presharded>, ttir.name = "args_8"} loc("p67.1761"), %arg68: tensor<512xbf16> {ttcore.argument_type = #ttcore.argument_type<parameter>, ttcore.local_shape = #ttcore<local_shape local_shape = tensor<64xbf16>>, ttcore.shard_status = #ttcore.shard_status<presharded>, ttir.name = "self___model_model_layers_3_self_attn_v_proj__parameters__bias"} loc("p68.1770"), %arg69: tensor<512x2880xbf16> {ttcore.argument_type = #ttcore.argument_type<parameter>, ttcore.local_shape = #ttcore<local_shape local_shape = tensor<64x720xbf16>>, ttcore.shard_status = #ttcore.shard_status<presharded>, ttir.name = "self___model_model_layers_3_self_attn_v_proj__parameters__weight"} loc("p69.1774"), %arg70: tensor<64x8x128x64xbf16> {ttcore.argument_type = #ttcore.argument_type<input>, ttcore.local_shape = #ttcore<local_shape local_shape = tensor<64x1x128x64xbf16>>, ttcore.shard_status = #ttcore.shard_status<presharded>, ttir.name = "args_9"} loc("p70.1800"), %arg71: tensor<512xbf16> {ttcore.argument_type = #ttcore.argument_type<parameter>, ttcore.local_shape = #ttcore<local_shape local_shape = tensor<64xbf16>>, ttcore.shard_status = #ttcore.shard_status<presharded>, ttir.name = "self___model_model_layers_4_self_attn_k_proj__parameters__bias"} loc("p71.1811"), %arg72: tensor<512x2880xbf16> {ttcore.argument_type = #ttcore.argument_type<parameter>, ttcore.local_shape = #ttcore<local_shape local_shape = tensor<64x720xbf16>>, ttcore.shard_status = #ttcore.shard_status<presharded>, ttir.name = "self___model_model_layers_4_self_attn_k_proj__parameters__weight"} loc("p72.1815"), %arg73: tensor<2880xbf16> {ttcore.argument_type = #ttcore.argument_type<parameter>, ttcore.local_shape = #ttcore<local_shape local_shape = tensor<720xbf16>>, ttcore.shard_status = #ttcore.shard_status<presharded>, ttir.name = "model.model.layers.4.input_layernorm.weight"} loc("p73.1820"), %arg74: tensor<128xbf16> {ttcore.argument_type = #ttcore.argument_type<parameter>, ttcore.local_shape = #ttcore<local_shape local_shape = tensor<128xbf16>>, ttcore.shard_status = #ttcore.shard_status<presharded>, ttir.name = "model.model.layers.3.mlp.router.bias"} loc("p74.1832"), %arg75: tensor<128x2880xbf16> {ttcore.argument_type = #ttcore.argument_type<parameter>, ttcore.local_shape = #ttcore<local_shape local_shape = tensor<128x720xbf16>>, ttcore.shard_status = #ttcore.shard_status<presharded>, ttcore.weight_dtype = "bfp_bf4", ttir.name = "model.model.layers.3.mlp.router.parametrizations.weight.original"} loc("p75.1840"), %arg76: tensor<2880xbf16> {ttcore.argument_type = #ttcore.argument_type<parameter>, ttcore.local_shape = #ttcore<local_shape local_shape = tensor<720xbf16>>, ttcore.shard_status = #ttcore.shard_status<presharded>, ttir.name = "model.model.layers.3.post_attention_layernorm.weight"} loc("p76.1849"), %arg77: tensor<2880xbf16> {ttcore.argument_type = #ttcore.argument_type<parameter>, ttcore.local_shape = #ttcore<local_shape local_shape = tensor<720xbf16>>, ttcore.shard_status = #ttcore.shard_status<presharded>, ttir.name = "self___model_model_layers_3_self_attn_o_proj__parameters__bias"} loc("p77.1860"), %arg78: tensor<2880x4096xbf16> {ttcore.argument_type = #ttcore.argument_type<parameter>, ttcore.local_shape = #ttcore<local_shape local_shape = tensor<720x512xbf16>>, ttcore.shard_status = #ttcore.shard_status<presharded>, ttir.name = "self___model_model_layers_3_self_attn_o_proj__parameters__weight"} loc("p78.1864"), %arg79: tensor<64xbf16> {ttcore.argument_type = #ttcore.argument_type<parameter>, ttcore.local_shape = #ttcore<local_shape local_shape = tensor<64xbf16>>, ttcore.shard_status = #ttcore.shard_status<presharded>, ttir.name = "model.model.layers.3.self_attn.sinks"} loc("p79.1875"), %arg80: tensor<4096xbf16> {ttcore.argument_type = #ttcore.argument_type<parameter>, ttcore.local_shape = #ttcore<local_shape local_shape = tensor<512xbf16>>, ttcore.shard_status = #ttcore.shard_status<presharded>, ttir.name = "self___model_model_layers_3_self_attn_q_proj__parameters__bias"} loc("p80.1893"), %arg81: tensor<4096x2880xbf16> {ttcore.argument_type = #ttcore.argument_type<parameter>, ttcore.local_shape = #ttcore<local_shape local_shape = tensor<512x720xbf16>>, ttcore.shard_status = #ttcore.shard_status<presharded>, ttir.name = "self___model_model_layers_3_self_attn_q_proj__parameters__weight"} loc("p81.1897"), %arg82: tensor<128x2880xbf16> {ttcore.argument_type = #ttcore.argument_type<parameter>, ttcore.local_shape = #ttcore<local_shape local_shape = tensor<16x720xbf16>>, ttcore.shard_status = #ttcore.shard_status<presharded>, ttir.name = "model.model.layers.3.mlp.experts.down_proj_bias"} loc("p82.2124"), %arg83: tensor<128x2880x2880xbf16> {ttcore.argument_type = #ttcore.argument_type<parameter>, ttcore.local_shape = #ttcore<local_shape local_shape = tensor<16x2880x720xbf16>>, ttcore.shard_status = #ttcore.shard_status<presharded>, ttcore.weight_dtype = "bfp_bf4", ttir.name = "model.model.layers.3.mlp.experts.parametrizations.down_proj.original"} loc("p83.2129"), %arg84: tensor<128x5760xbf16> {ttcore.argument_type = #ttcore.argument_type<parameter>, ttcore.local_shape = #ttcore<local_shape local_shape = tensor<16x5760xbf16>>, ttcore.shard_status = #ttcore.shard_status<presharded>, ttir.name = "model.model.layers.3.mlp.experts.gate_up_proj_bias"} loc("p84.2136"), %arg85: tensor<128x2880x5760xbf16> {ttcore.argument_type = #ttcore.argument_type<parameter>, ttcore.local_shape = #ttcore<local_shape local_shape = tensor<16x720x5760xbf16>>, ttcore.shard_status = #ttcore.shard_status<presharded>, ttcore.weight_dtype = "bfp_bf4", ttir.name = "model.model.layers.3.mlp.experts.parametrizations.gate_up_proj.original"} loc("p85.2141"), %arg86: tensor<64x8x128x64xbf16> {ttcore.argument_type = #ttcore.argument_type<input>, ttcore.local_shape = #ttcore<local_shape local_shape = tensor<64x1x128x64xbf16>>, ttcore.shard_status = #ttcore.shard_status<presharded>, ttir.name = "args_10"} loc("p86.2271"), %arg87: tensor<512xbf16> {ttcore.argument_type = #ttcore.argument_type<parameter>, ttcore.local_shape = #ttcore<local_shape local_shape = tensor<64xbf16>>, ttcore.shard_status = #ttcore.shard_status<presharded>, ttir.name = "self___model_model_layers_4_self_attn_v_proj__parameters__bias"} loc("p87.2280"), %arg88: tensor<512x2880xbf16> {ttcore.argument_type = #ttcore.argument_type<parameter>, ttcore.local_shape = #ttcore<local_shape local_shape = tensor<64x720xbf16>>, ttcore.shard_status = #ttcore.shard_status<presharded>, ttir.name = "self___model_model_layers_4_self_attn_v_proj__parameters__weight"} loc("p88.2284"), %arg89: tensor<64x8x128x64xbf16> {ttcore.argument_type = #ttcore.argument_type<input>, ttcore.local_shape = #ttcore<local_shape local_shape = tensor<64x1x128x64xbf16>>, ttcore.shard_status = #ttcore.shard_status<presharded>, ttir.name = "args_11"} loc("p89.2310"), %arg90: tensor<512xbf16> {ttcore.argument_type = #ttcore.argument_type<parameter>, ttcore.local_shape = #ttcore<local_shape local_shape = tensor<64xbf16>>, ttcore.shard_status = #ttcore.shard_status<presharded>, ttir.name = "self___model_model_layers_5_self_attn_k_proj__parameters__bias"} loc("p90.2321"), %arg91: tensor<512x2880xbf16> {ttcore.argument_type = #ttcore.argument_type<parameter>, ttcore.local_shape = #ttcore<local_shape local_shape = tensor<64x720xbf16>>, ttcore.shard_status = #ttcore.shard_status<presharded>, ttir.name = "self___model_model_layers_5_self_attn_k_proj__parameters__weight"} loc("p91.2325"), %arg92: tensor<2880xbf16> {ttcore.argument_type = #ttcore.argument_type<parameter>, ttcore.local_shape = #ttcore<local_shape local_shape = tensor<720xbf16>>, ttcore.shard_status = #ttcore.shard_status<presharded>, ttir.name = "model.model.layers.5.input_layernorm.weight"} loc("p92.2330"), %arg93: tensor<128xbf16> {ttcore.argument_type = #ttcore.argument_type<parameter>, ttcore.local_shape = #ttcore<local_shape local_shape = tensor<128xbf16>>, ttcore.shard_status = #ttcore.shard_status<presharded>, ttir.name = "model.model.layers.4.mlp.router.bias"} loc("p93.2342"), %arg94: tensor<128x2880xbf16> {ttcore.argument_type = #ttcore.argument_type<parameter>, ttcore.local_shape = #ttcore<local_shape local_shape = tensor<128x720xbf16>>, ttcore.shard_status = #ttcore.shard_status<presharded>, ttcore.weight_dtype = "bfp_bf4", ttir.name = "model.model.layers.4.mlp.router.parametrizations.weight.original"} loc("p94.2350"), %arg95: tensor<2880xbf16> {ttcore.argument_type = #ttcore.argument_type<parameter>, ttcore.local_shape = #ttcore<local_shape local_shape = tensor<720xbf16>>, ttcore.shard_status = #ttcore.shard_status<presharded>, ttir.name = "model.model.layers.4.post_attention_layernorm.weight"} loc("p95.2359"), %arg96: tensor<2880xbf16> {ttcore.argument_type = #ttcore.argument_type<parameter>, ttcore.local_shape = #ttcore<local_shape local_shape = tensor<720xbf16>>, ttcore.shard_status = #ttcore.shard_status<presharded>, ttir.name = "self___model_model_layers_4_self_attn_o_proj__parameters__bias"} loc("p96.2370"), %arg97: tensor<2880x4096xbf16> {ttcore.argument_type = #ttcore.argument_type<parameter>, ttcore.local_shape = #ttcore<local_shape local_shape = tensor<720x512xbf16>>, ttcore.shard_status = #ttcore.shard_status<presharded>, ttir.name = "self___model_model_layers_4_self_attn_o_proj__parameters__weight"} loc("p97.2374"), %arg98: tensor<64xbf16> {ttcore.argument_type = #ttcore.argument_type<parameter>, ttcore.local_shape = #ttcore<local_shape local_shape = tensor<64xbf16>>, ttcore.shard_status = #ttcore.shard_status<presharded>, ttir.name = "model.model.layers.4.self_attn.sinks"} loc("p98.2385"), %arg99: tensor<4096xbf16> {ttcore.argument_type = #ttcore.argument_type<parameter>, ttcore.local_shape = #ttcore<local_shape local_shape = tensor<512xbf16>>, ttcore.shard_status = #ttcore.shard_status<presharded>, ttir.name = "self___model_model_layers_4_self_attn_q_proj__parameters__bias"} loc("p99.2403"), %arg100: tensor<4096x2880xbf16> {ttcore.argument_type = #ttcore.argument_type<parameter>, ttcore.local_shape = #ttcore<local_shape local_shape = tensor<512x720xbf16>>, ttcore.shard_status = #ttcore.shard_status<presharded>, ttir.name = "self___model_model_layers_4_self_attn_q_proj__parameters__weight"} loc("p100.2407"), %arg101: tensor<128x2880xbf16> {ttcore.argument_type = #ttcore.argument_type<parameter>, ttcore.local_shape = #ttcore<local_shape local_shape = tensor<16x720xbf16>>, ttcore.shard_status = #ttcore.shard_status<presharded>, ttir.name = "model.model.layers.4.mlp.experts.down_proj_bias"} loc("p101.2634"), %arg102: tensor<128x2880x2880xbf16> {ttcore.argument_type = #ttcore.argument_type<parameter>, ttcore.local_shape = #ttcore<local_shape local_shape = tensor<16x2880x720xbf16>>, ttcore.shard_status = #ttcore.shard_status<presharded>, ttcore.weight_dtype = "bfp_bf4", ttir.name = "model.model.layers.4.mlp.experts.parametrizations.down_proj.original"} loc("p102.2639"), %arg103: tensor<128x5760xbf16> {ttcore.argument_type = #ttcore.argument_type<parameter>, ttcore.local_shape = #ttcore<local_shape local_shape = tensor<16x5760xbf16>>, ttcore.shard_status = #ttcore.shard_status<presharded>, ttir.name = "model.model.layers.4.mlp.experts.gate_up_proj_bias"} loc("p103.2646"), %arg104: tensor<128x2880x5760xbf16> {ttcore.argument_type = #ttcore.argument_type<parameter>, ttcore.local_shape = #ttcore<local_shape local_shape = tensor<16x720x5760xbf16>>, ttcore.shard_status = #ttcore.shard_status<presharded>, ttcore.weight_dtype = "bfp_bf4", ttir.name = "model.model.layers.4.mlp.experts.parametrizations.gate_up_proj.original"} loc("p104.2651"), %arg105: tensor<64x8x128x64xbf16> {ttcore.argument_type = #ttcore.argument_type<input>, ttcore.local_shape = #ttcore<local_shape local_shape = tensor<64x1x128x64xbf16>>, ttcore.shard_status = #ttcore.shard_status<presharded>, ttir.name = "args_12"} loc("p105.2781"), %arg106: tensor<512xbf16> {ttcore.argument_type = #ttcore.argument_type<parameter>, ttcore.local_shape = #ttcore<local_shape local_shape = tensor<64xbf16>>, ttcore.shard_status = #ttcore.shard_status<presharded>, ttir.name = "self___model_model_layers_5_self_attn_v_proj__parameters__bias"} loc("p106.2790"), %arg107: tensor<512x2880xbf16> {ttcore.argument_type = #ttcore.argument_type<parameter>, ttcore.local_shape = #ttcore<local_shape local_shape = tensor<64x720xbf16>>, ttcore.shard_status = #ttcore.shard_status<presharded>, ttir.name = "self___model_model_layers_5_self_attn_v_proj__parameters__weight"} loc("p107.2794"), %arg108: tensor<64x8x128x64xbf16> {ttcore.argument_type = #ttcore.argument_type<input>, ttcore.local_shape = #ttcore<local_shape local_shape = tensor<64x1x128x64xbf16>>, ttcore.shard_status = #ttcore.shard_status<presharded>, ttir.name = "args_13"} loc("p108.2820"), %arg109: tensor<512xbf16> {ttcore.argument_type = #ttcore.argument_type<parameter>, ttcore.local_shape = #ttcore<local_shape local_shape = tensor<64xbf16>>, ttcore.shard_status = #ttcore.shard_status<presharded>, ttir.name = "self___model_model_layers_6_self_attn_k_proj__parameters__bias"} loc("p109.2831"), %arg110: tensor<512x2880xbf16> {ttcore.argument_type = #ttcore.argument_type<parameter>, ttcore.local_shape = #ttcore<local_shape local_shape = tensor<64x720xbf16>>, ttcore.shard_status = #ttcore.shard_status<presharded>, ttir.name = "self___model_model_layers_6_self_attn_k_proj__parameters__weight"} loc("p110.2835"), %arg111: tensor<2880xbf16> {ttcore.argument_type = #ttcore.argument_type<parameter>, ttcore.local_shape = #ttcore<local_shape local_shape = tensor<720xbf16>>, ttcore.shard_status = #ttcore.shard_status<presharded>, ttir.name = "model.model.layers.6.input_layernorm.weight"} loc("p111.2840"), %arg112: tensor<128xbf16> {ttcore.argument_type = #ttcore.argument_type<parameter>, ttcore.local_shape = #ttcore<local_shape local_shape = tensor<128xbf16>>, ttcore.shard_status = #ttcore.shard_status<presharded>, ttir.name = "model.model.layers.5.mlp.router.bias"} loc("p112.2852"), %arg113: tensor<128x2880xbf16> {ttcore.argument_type = #ttcore.argument_type<parameter>, ttcore.local_shape = #ttcore<local_shape local_shape = tensor<128x720xbf16>>, ttcore.shard_status = #ttcore.shard_status<presharded>, ttcore.weight_dtype = "bfp_bf4", ttir.name = "model.model.layers.5.mlp.router.parametrizations.weight.original"} loc("p113.2860"), %arg114: tensor<2880xbf16> {ttcore.argument_type = #ttcore.argument_type<parameter>, ttcore.local_shape = #ttcore<local_shape local_shape = tensor<720xbf16>>, ttcore.shard_status = #ttcore.shard_status<presharded>, ttir.name = "model.model.layers.5.post_attention_layernorm.weight"} loc("p114.2869"), %arg115: tensor<2880xbf16> {ttcore.argument_type = #ttcore.argument_type<parameter>, ttcore.local_shape = #ttcore<local_shape local_shape = tensor<720xbf16>>, ttcore.shard_status = #ttcore.shard_status<presharded>, ttir.name = "self___model_model_layers_5_self_attn_o_proj__parameters__bias"} loc("p115.2880"), %arg116: tensor<2880x4096xbf16> {ttcore.argument_type = #ttcore.argument_type<parameter>, ttcore.local_shape = #ttcore<local_shape local_shape = tensor<720x512xbf16>>, ttcore.shard_status = #ttcore.shard_status<presharded>, ttir.name = "self___model_model_layers_5_self_attn_o_proj__parameters__weight"} loc("p116.2884"), %arg117: tensor<64xbf16> {ttcore.argument_type = #ttcore.argument_type<parameter>, ttcore.local_shape = #ttcore<local_shape local_shape = tensor<64xbf16>>, ttcore.shard_status = #ttcore.shard_status<presharded>, ttir.name = "model.model.layers.5.self_attn.sinks"} loc("p117.2895"), %arg118: tensor<4096xbf16> {ttcore.argument_type = #ttcore.argument_type<parameter>, ttcore.local_shape = #ttcore<local_shape local_shape = tensor<512xbf16>>, ttcore.shard_status = #ttcore.shard_status<presharded>, ttir.name = "self___model_model_layers_5_self_attn_q_proj__parameters__bias"} loc("p118.2913"), %arg119: tensor<4096x2880xbf16> {ttcore.argument_type = #ttcore.argument_type<parameter>, ttcore.local_shape = #ttcore<local_shape local_shape = tensor<512x720xbf16>>, ttcore.shard_status = #ttcore.shard_status<presharded>, ttir.name = "self___model_model_layers_5_self_attn_q_proj__parameters__weight"} loc("p119.2917"), %arg120: tensor<128x2880xbf16> {ttcore.argument_type = #ttcore.argument_type<parameter>, ttcore.local_shape = #ttcore<local_shape local_shape = tensor<16x720xbf16>>, ttcore.shard_status = #ttcore.shard_status<presharded>, ttir.name = "model.model.layers.5.mlp.experts.down_proj_bias"} loc("p120.3144"), %arg121: tensor<128x2880x2880xbf16> {ttcore.argument_type = #ttcore.argument_type<parameter>, ttcore.local_shape = #ttcore<local_shape local_shape = tensor<16x2880x720xbf16>>, ttcore.shard_status = #ttcore.shard_status<presharded>, ttcore.weight_dtype = "bfp_bf4", ttir.name = "model.model.layers.5.mlp.experts.parametrizations.down_proj.original"} loc("p121.3149"), %arg122: tensor<128x5760xbf16> {ttcore.argument_type = #ttcore.argument_type<parameter>, ttcore.local_shape = #ttcore<local_shape local_shape = tensor<16x5760xbf16>>, ttcore.shard_status = #ttcore.shard_status<presharded>, ttir.name = "model.model.layers.5.mlp.experts.gate_up_proj_bias"} loc("p122.3156"), %arg123: tensor<128x2880x5760xbf16> {ttcore.argument_type = #ttcore.argument_type<parameter>, ttcore.local_shape = #ttcore<local_shape local_shape = tensor<16x720x5760xbf16>>, ttcore.shard_status = #ttcore.shard_status<presharded>, ttcore.weight_dtype = "bfp_bf4", ttir.name = "model.model.layers.5.mlp.experts.parametrizations.gate_up_proj.original"} loc("p123.3161"), %arg124: tensor<64x8x128x64xbf16> {ttcore.argument_type = #ttcore.argument_type<input>, ttcore.local_shape = #ttcore<local_shape local_shape = tensor<64x1x128x64xbf16>>, ttcore.shard_status = #ttcore.shard_status<presharded>, ttir.name = "args_14"} loc("p124.3291"), %arg125: tensor<512xbf16> {ttcore.argument_type = #ttcore.argument_type<parameter>, ttcore.local_shape = #ttcore<local_shape local_shape = tensor<64xbf16>>, ttcore.shard_status = #ttcore.shard_status<presharded>, ttir.name = "self___model_model_layers_6_self_attn_v_proj__parameters__bias"} loc("p125.3300"), %arg126: tensor<512x2880xbf16> {ttcore.argument_type = #ttcore.argument_type<parameter>, ttcore.local_shape = #ttcore<local_shape local_shape = tensor<64x720xbf16>>, ttcore.shard_status = #ttcore.shard_status<presharded>, ttir.name = "self___model_model_layers_6_self_attn_v_proj__parameters__weight"} loc("p126.3304"), %arg127: tensor<64x8x128x64xbf16> {ttcore.argument_type = #ttcore.argument_type<input>, ttcore.local_shape = #ttcore<local_shape local_shape = tensor<64x1x128x64xbf16>>, ttcore.shard_status = #ttcore.shard_status<presharded>, ttir.name = "args_15"} loc("p127.3330"), %arg128: tensor<512xbf16> {ttcore.argument_type = #ttcore.argument_type<parameter>, ttcore.local_shape = #ttcore<local_shape local_shape = tensor<64xbf16>>, ttcore.shard_status = #ttcore.shard_status<presharded>, ttir.name = "self___model_model_layers_7_self_attn_k_proj__parameters__bias"} loc("p128.3341"), %arg129: tensor<512x2880xbf16> {ttcore.argument_type = #ttcore.argument_type<parameter>, ttcore.local_shape = #ttcore<local_shape local_shape = tensor<64x720xbf16>>, ttcore.shard_status = #ttcore.shard_status<presharded>, ttir.name = "self___model_model_layers_7_self_attn_k_proj__parameters__weight"} loc("p129.3345"), %arg130: tensor<2880xbf16> {ttcore.argument_type = #ttcore.argument_type<parameter>, ttcore.local_shape = #ttcore<local_shape local_shape = tensor<720xbf16>>, ttcore.shard_status = #ttcore.shard_status<presharded>, ttir.name = "model.model.layers.7.input_layernorm.weight"} loc("p130.3350"), %arg131: tensor<128xbf16> {ttcore.argument_type = #ttcore.argument_type<parameter>, ttcore.local_shape = #ttcore<local_shape local_shape = tensor<128xbf16>>, ttcore.shard_status = #ttcore.shard_status<presharded>, ttir.name = "model.model.layers.6.mlp.router.bias"} loc("p131.3362"), %arg132: tensor<128x2880xbf16> {ttcore.argument_type = #ttcore.argument_type<parameter>, ttcore.local_shape = #ttcore<local_shape local_shape = tensor<128x720xbf16>>, ttcore.shard_status = #ttcore.shard_status<presharded>, ttcore.weight_dtype = "bfp_bf4", ttir.name = "model.model.layers.6.mlp.router.parametrizations.weight.original"} loc("p132.3370"), %arg133: tensor<2880xbf16> {ttcore.argument_type = #ttcore.argument_type<parameter>, ttcore.local_shape = #ttcore<local_shape local_shape = tensor<720xbf16>>, ttcore.shard_status = #ttcore.shard_status<presharded>, ttir.name = "model.model.layers.6.post_attention_layernorm.weight"} loc("p133.3379"), %arg134: tensor<2880xbf16> {ttcore.argument_type = #ttcore.argument_type<parameter>, ttcore.local_shape = #ttcore<local_shape local_shape = tensor<720xbf16>>, ttcore.shard_status = #ttcore.shard_status<presharded>, ttir.name = "self___model_model_layers_6_self_attn_o_proj__parameters__bias"} loc("p134.3390"), %arg135: tensor<2880x4096xbf16> {ttcore.argument_type = #ttcore.argument_type<parameter>, ttcore.local_shape = #ttcore<local_shape local_shape = tensor<720x512xbf16>>, ttcore.shard_status = #ttcore.shard_status<presharded>, ttir.name = "self___model_model_layers_6_self_attn_o_proj__parameters__weight"} loc("p135.3394"), %arg136: tensor<64xbf16> {ttcore.argument_type = #ttcore.argument_type<parameter>, ttcore.local_shape = #ttcore<local_shape local_shape = tensor<64xbf16>>, ttcore.shard_status = #ttcore.shard_status<presharded>, ttir.name = "model.model.layers.6.self_attn.sinks"} loc("p136.3405"), %arg137: tensor<4096xbf16> {ttcore.argument_type = #ttcore.argument_type<parameter>, ttcore.local_shape = #ttcore<local_shape local_shape = tensor<512xbf16>>, ttcore.shard_status = #ttcore.shard_status<presharded>, ttir.name = "self___model_model_layers_6_self_attn_q_proj__parameters__bias"} loc("p137.3423"), %arg138: tensor<4096x2880xbf16> {ttcore.argument_type = #ttcore.argument_type<parameter>, ttcore.local_shape = #ttcore<local_shape local_shape = tensor<512x720xbf16>>, ttcore.shard_status = #ttcore.shard_status<presharded>, ttir.name = "self___model_model_layers_6_self_attn_q_proj__parameters__weight"} loc("p138.3427"), %arg139: tensor<128x2880xbf16> {ttcore.argument_type = #ttcore.argument_type<parameter>, ttcore.local_shape = #ttcore<local_shape local_shape = tensor<16x720xbf16>>, ttcore.shard_status = #ttcore.shard_status<presharded>, ttir.name = "model.model.layers.6.mlp.experts.down_proj_bias"} loc("p139.3654"), %arg140: tensor<128x2880x2880xbf16> {ttcore.argument_type = #ttcore.argument_type<parameter>, ttcore.local_shape = #ttcore<local_shape local_shape = tensor<16x2880x720xbf16>>, ttcore.shard_status = #ttcore.shard_status<presharded>, ttcore.weight_dtype = "bfp_bf4", ttir.name = "model.model.layers.6.mlp.experts.parametrizations.down_proj.original"} loc("p140.3659"), %arg141: tensor<128x5760xbf16> {ttcore.argument_type = #ttcore.argument_type<parameter>, ttcore.local_shape = #ttcore<local_shape local_shape = tensor<16x5760xbf16>>, ttcore.shard_status = #ttcore.shard_status<presharded>, ttir.name = "model.model.layers.6.mlp.experts.gate_up_proj_bias"} loc("p141.3666"), %arg142: tensor<128x2880x5760xbf16> {ttcore.argument_type = #ttcore.argument_type<parameter>, ttcore.local_shape = #ttcore<local_shape local_shape = tensor<16x720x5760xbf16>>, ttcore.shard_status = #ttcore.shard_status<presharded>, ttcore.weight_dtype = "bfp_bf4", ttir.name = "model.model.layers.6.mlp.experts.parametrizations.gate_up_proj.original"} loc("p142.3671"), %arg143: tensor<64x8x128x64xbf16> {ttcore.argument_type = #ttcore.argument_type<input>, ttcore.local_shape = #ttcore<local_shape local_shape = tensor<64x1x128x64xbf16>>, ttcore.shard_status = #ttcore.shard_status<presharded>, ttir.name = "args_16"} loc("p143.3801"), %arg144: tensor<512xbf16> {ttcore.argument_type = #ttcore.argument_type<parameter>, ttcore.local_shape = #ttcore<local_shape local_shape = tensor<64xbf16>>, ttcore.shard_status = #ttcore.shard_status<presharded>, ttir.name = "self___model_model_layers_7_self_attn_v_proj__parameters__bias"} loc("p144.3810"), %arg145: tensor<512x2880xbf16> {ttcore.argument_type = #ttcore.argument_type<parameter>, ttcore.local_shape = #ttcore<local_shape local_shape = tensor<64x720xbf16>>, ttcore.shard_status = #ttcore.shard_status<presharded>, ttir.name = "self___model_model_layers_7_self_attn_v_proj__parameters__weight"} loc("p145.3814"), %arg146: tensor<64x8x128x64xbf16> {ttcore.argument_type = #ttcore.argument_type<input>, ttcore.local_shape = #ttcore<local_shape local_shape = tensor<64x1x128x64xbf16>>, ttcore.shard_status = #ttcore.shard_status<presharded>, ttir.name = "args_17"} loc("p146.3840"), %arg147: tensor<512xbf16> {ttcore.argument_type = #ttcore.argument_type<parameter>, ttcore.local_shape = #ttcore<local_shape local_shape = tensor<64xbf16>>, ttcore.shard_status = #ttcore.shard_status<presharded>, ttir.name = "self___model_model_layers_8_self_attn_k_proj__parameters__bias"} loc("p147.3851"), %arg148: tensor<512x2880xbf16> {ttcore.argument_type = #ttcore.argument_type<parameter>, ttcore.local_shape = #ttcore<local_shape local_shape = tensor<64x720xbf16>>, ttcore.shard_status = #ttcore.shard_status<presharded>, ttir.name = "self___model_model_layers_8_self_attn_k_proj__parameters__weight"} loc("p148.3855"), %arg149: tensor<2880xbf16> {ttcore.argument_type = #ttcore.argument_type<parameter>, ttcore.local_shape = #ttcore<local_shape local_shape = tensor<720xbf16>>, ttcore.shard_status = #ttcore.shard_status<presharded>, ttir.name = "model.model.layers.8.input_layernorm.weight"} loc("p149.3860"), %arg150: tensor<128xbf16> {ttcore.argument_type = #ttcore.argument_type<parameter>, ttcore.local_shape = #ttcore<local_shape local_shape = tensor<128xbf16>>, ttcore.shard_status = #ttcore.shard_status<presharded>, ttir.name = "model.model.layers.7.mlp.router.bias"} loc("p150.3872"), %arg151: tensor<128x2880xbf16> {ttcore.argument_type = #ttcore.argument_type<parameter>, ttcore.local_shape = #ttcore<local_shape local_shape = tensor<128x720xbf16>>, ttcore.shard_status = #ttcore.shard_status<presharded>, ttcore.weight_dtype = "bfp_bf4", ttir.name = "model.model.layers.7.mlp.router.parametrizations.weight.original"} loc("p151.3880"), %arg152: tensor<2880xbf16> {ttcore.argument_type = #ttcore.argument_type<parameter>, ttcore.local_shape = #ttcore<local_shape local_shape = tensor<720xbf16>>, ttcore.shard_status = #ttcore.shard_status<presharded>, ttir.name = "model.model.layers.7.post_attention_layernorm.weight"} loc("p152.3889"), %arg153: tensor<2880xbf16> {ttcore.argument_type = #ttcore.argument_type<parameter>, ttcore.local_shape = #ttcore<local_shape local_shape = tensor<720xbf16>>, ttcore.shard_status = #ttcore.shard_status<presharded>, ttir.name = "self___model_model_layers_7_self_attn_o_proj__parameters__bias"} loc("p153.3900"), %arg154: tensor<2880x4096xbf16> {ttcore.argument_type = #ttcore.argument_type<parameter>, ttcore.local_shape = #ttcore<local_shape local_shape = tensor<720x512xbf16>>, ttcore.shard_status = #ttcore.shard_status<presharded>, ttir.name = "self___model_model_layers_7_self_attn_o_proj__parameters__weight"} loc("p154.3904"), %arg155: tensor<64xbf16> {ttcore.argument_type = #ttcore.argument_type<parameter>, ttcore.local_shape = #ttcore<local_shape local_shape = tensor<64xbf16>>, ttcore.shard_status = #ttcore.shard_status<presharded>, ttir.name = "model.model.layers.7.self_attn.sinks"} loc("p155.3915"), %arg156: tensor<4096xbf16> {ttcore.argument_type = #ttcore.argument_type<parameter>, ttcore.local_shape = #ttcore<local_shape local_shape = tensor<512xbf16>>, ttcore.shard_status = #ttcore.shard_status<presharded>, ttir.name = "self___model_model_layers_7_self_attn_q_proj__parameters__bias"} loc("p156.3933"), %arg157: tensor<4096x2880xbf16> {ttcore.argument_type = #ttcore.argument_type<parameter>, ttcore.local_shape = #ttcore<local_shape local_shape = tensor<512x720xbf16>>, ttcore.shard_status = #ttcore.shard_status<presharded>, ttir.name = "self___model_model_layers_7_self_attn_q_proj__parameters__weight"} loc("p157.3937"), %arg158: tensor<128x2880xbf16> {ttcore.argument_type = #ttcore.argument_type<parameter>, ttcore.local_shape = #ttcore<local_shape local_shape = tensor<16x720xbf16>>, ttcore.shard_status = #ttcore.shard_status<presharded>, ttir.name = "model.model.layers.7.mlp.experts.down_proj_bias"} loc("p158.4164"), %arg159: tensor<128x2880x2880xbf16> {ttcore.argument_type = #ttcore.argument_type<parameter>, ttcore.local_shape = #ttcore<local_shape local_shape = tensor<16x2880x720xbf16>>, ttcore.shard_status = #ttcore.shard_status<presharded>, ttcore.weight_dtype = "bfp_bf4", ttir.name = "model.model.layers.7.mlp.experts.parametrizations.down_proj.original"} loc("p159.4169"), %arg160: tensor<128x5760xbf16> {ttcore.argument_type = #ttcore.argument_type<parameter>, ttcore.local_shape = #ttcore<local_shape local_shape = tensor<16x5760xbf16>>, ttcore.shard_status = #ttcore.shard_status<presharded>, ttir.name = "model.model.layers.7.mlp.experts.gate_up_proj_bias"} loc("p160.4176"), %arg161: tensor<128x2880x5760xbf16> {ttcore.argument_type = #ttcore.argument_type<parameter>, ttcore.local_shape = #ttcore<local_shape local_shape = tensor<16x720x5760xbf16>>, ttcore.shard_status = #ttcore.shard_status<presharded>, ttcore.weight_dtype = "bfp_bf4", ttir.name = "model.model.layers.7.mlp.experts.parametrizations.gate_up_proj.original"} loc("p161.4181"), %arg162: tensor<64x8x128x64xbf16> {ttcore.argument_type = #ttcore.argument_type<input>, ttcore.local_shape = #ttcore<local_shape local_shape = tensor<64x1x128x64xbf16>>, ttcore.shard_status = #ttcore.shard_status<presharded>, ttir.name = "args_18"} loc("p162.4311"), %arg163: tensor<512xbf16> {ttcore.argument_type = #ttcore.argument_type<parameter>, ttcore.local_shape = #ttcore<local_shape local_shape = tensor<64xbf16>>, ttcore.shard_status = #ttcore.shard_status<presharded>, ttir.name = "self___model_model_layers_8_self_attn_v_proj__parameters__bias"} loc("p163.4320"), %arg164: tensor<512x2880xbf16> {ttcore.argument_type = #ttcore.argument_type<parameter>, ttcore.local_shape = #ttcore<local_shape local_shape = tensor<64x720xbf16>>, ttcore.shard_status = #ttcore.shard_status<presharded>, ttir.name = "self___model_model_layers_8_self_attn_v_proj__parameters__weight"} loc("p164.4324"), %arg165: tensor<64x8x128x64xbf16> {ttcore.argument_type = #ttcore.argument_type<input>, ttcore.local_shape = #ttcore<local_shape local_shape = tensor<64x1x128x64xbf16>>, ttcore.shard_status = #ttcore.shard_status<presharded>, ttir.name = "args_19"} loc("p165.4350"), %arg166: tensor<512xbf16> {ttcore.argument_type = #ttcore.argument_type<parameter>, ttcore.local_shape = #ttcore<local_shape local_shape = tensor<64xbf16>>, ttcore.shard_status = #ttcore.shard_status<presharded>, ttir.name = "self___model_model_layers_9_self_attn_k_proj__parameters__bias"} loc("p166.4361"), %arg167: tensor<512x2880xbf16> {ttcore.argument_type = #ttcore.argument_type<parameter>, ttcore.local_shape = #ttcore<local_shape local_shape = tensor<64x720xbf16>>, ttcore.shard_status = #ttcore.shard_status<presharded>, ttir.name = "self___model_model_layers_9_self_attn_k_proj__parameters__weight"} loc("p167.4365"), %arg168: tensor<2880xbf16> {ttcore.argument_type = #ttcore.argument_type<parameter>, ttcore.local_shape = #ttcore<local_shape local_shape = tensor<720xbf16>>, ttcore.shard_status = #ttcore.shard_status<presharded>, ttir.name = "model.model.layers.9.input_layernorm.weight"} loc("p168.4370"), %arg169: tensor<128xbf16> {ttcore.argument_type = #ttcore.argument_type<parameter>, ttcore.local_shape = #ttcore<local_shape local_shape = tensor<128xbf16>>, ttcore.shard_status = #ttcore.shard_status<presharded>, ttir.name = "model.model.layers.8.mlp.router.bias"} loc("p169.4382"), %arg170: tensor<128x2880xbf16> {ttcore.argument_type = #ttcore.argument_type<parameter>, ttcore.local_shape = #ttcore<local_shape local_shape = tensor<128x720xbf16>>, ttcore.shard_status = #ttcore.shard_status<presharded>, ttcore.weight_dtype = "bfp_bf4", ttir.name = "model.model.layers.8.mlp.router.parametrizations.weight.original"} loc("p170.4390"), %arg171: tensor<2880xbf16> {ttcore.argument_type = #ttcore.argument_type<parameter>, ttcore.local_shape = #ttcore<local_shape local_shape = tensor<720xbf16>>, ttcore.shard_status = #ttcore.shard_status<presharded>, ttir.name = "model.model.layers.8.post_attention_layernorm.weight"} loc("p171.4399"), %arg172: tensor<2880xbf16> {ttcore.argument_type = #ttcore.argument_type<parameter>, ttcore.local_shape = #ttcore<local_shape local_shape = tensor<720xbf16>>, ttcore.shard_status = #ttcore.shard_status<presharded>, ttir.name = "self___model_model_layers_8_self_attn_o_proj__parameters__bias"} loc("p172.4410"), %arg173: tensor<2880x4096xbf16> {ttcore.argument_type = #ttcore.argument_type<parameter>, ttcore.local_shape = #ttcore<local_shape local_shape = tensor<720x512xbf16>>, ttcore.shard_status = #ttcore.shard_status<presharded>, ttir.name = "self___model_model_layers_8_self_attn_o_proj__parameters__weight"} loc("p173.4414"), %arg174: tensor<64xbf16> {ttcore.argument_type = #ttcore.argument_type<parameter>, ttcore.local_shape = #ttcore<local_shape local_shape = tensor<64xbf16>>, ttcore.shard_status = #ttcore.shard_status<presharded>, ttir.name = "model.model.layers.8.self_attn.sinks"} loc("p174.4425"), %arg175: tensor<4096xbf16> {ttcore.argument_type = #ttcore.argument_type<parameter>, ttcore.local_shape = #ttcore<local_shape local_shape = tensor<512xbf16>>, ttcore.shard_status = #ttcore.shard_status<presharded>, ttir.name = "self___model_model_layers_8_self_attn_q_proj__parameters__bias"} loc("p175.4443"), %arg176: tensor<4096x2880xbf16> {ttcore.argument_type = #ttcore.argument_type<parameter>, ttcore.local_shape = #ttcore<local_shape local_shape = tensor<512x720xbf16>>, ttcore.shard_status = #ttcore.shard_status<presharded>, ttir.name = "self___model_model_layers_8_self_attn_q_proj__parameters__weight"} loc("p176.4447"), %arg177: tensor<128x2880xbf16> {ttcore.argument_type = #ttcore.argument_type<parameter>, ttcore.local_shape = #ttcore<local_shape local_shape = tensor<16x720xbf16>>, ttcore.shard_status = #ttcore.shard_status<presharded>, ttir.name = "model.model.layers.8.mlp.experts.down_proj_bias"} loc("p177.4674"), %arg178: tensor<128x2880x2880xbf16> {ttcore.argument_type = #ttcore.argument_type<parameter>, ttcore.local_shape = #ttcore<local_shape local_shape = tensor<16x2880x720xbf16>>, ttcore.shard_status = #ttcore.shard_status<presharded>, ttcore.weight_dtype = "bfp_bf4", ttir.name = "model.model.layers.8.mlp.experts.parametrizations.down_proj.original"} loc("p178.4679"), %arg179: tensor<128x5760xbf16> {ttcore.argument_type = #ttcore.argument_type<parameter>, ttcore.local_shape = #ttcore<local_shape local_shape = tensor<16x5760xbf16>>, ttcore.shard_status = #ttcore.shard_status<presharded>, ttir.name = "model.model.layers.8.mlp.experts.gate_up_proj_bias"} loc("p179.4686"), %arg180: tensor<128x2880x5760xbf16> {ttcore.argument_type = #ttcore.argument_type<parameter>, ttcore.local_shape = #ttcore<local_shape local_shape = tensor<16x720x5760xbf16>>, ttcore.shard_status = #ttcore.shard_status<presharded>, ttcore.weight_dtype = "bfp_bf4", ttir.name = "model.model.layers.8.mlp.experts.parametrizations.gate_up_proj.original"} loc("p180.4691"), %arg181: tensor<64x8x128x64xbf16> {ttcore.argument_type = #ttcore.argument_type<input>, ttcore.local_shape = #ttcore<local_shape local_shape = tensor<64x1x128x64xbf16>>, ttcore.shard_status = #ttcore.shard_status<presharded>, ttir.name = "args_20"} loc("p181.4821"), %arg182: tensor<512xbf16> {ttcore.argument_type = #ttcore.argument_type<parameter>, ttcore.local_shape = #ttcore<local_shape local_shape = tensor<64xbf16>>, ttcore.shard_status = #ttcore.shard_status<presharded>, ttir.name = "self___model_model_layers_9_self_attn_v_proj__parameters__bias"} loc("p182.4830"), %arg183: tensor<512x2880xbf16> {ttcore.argument_type = #ttcore.argument_type<parameter>, ttcore.local_shape = #ttcore<local_shape local_shape = tensor<64x720xbf16>>, ttcore.shard_status = #ttcore.shard_status<presharded>, ttir.name = "self___model_model_layers_9_self_attn_v_proj__parameters__weight"} loc("p183.4834"), %arg184: tensor<64x8x128x64xbf16> {ttcore.argument_type = #ttcore.argument_type<input>, ttcore.local_shape = #ttcore<local_shape local_shape = tensor<64x1x128x64xbf16>>, ttcore.shard_status = #ttcore.shard_status<presharded>, ttir.name = "args_21"} loc("p184.4860"), %arg185: tensor<512xbf16> {ttcore.argument_type = #ttcore.argument_type<parameter>, ttcore.local_shape = #ttcore<local_shape local_shape = tensor<64xbf16>>, ttcore.shard_status = #ttcore.shard_status<presharded>, ttir.name = "self___model_model_layers_10_self_attn_k_proj__parameters__bias"} loc("p185.4871"), %arg186: tensor<512x2880xbf16> {ttcore.argument_type = #ttcore.argument_type<parameter>, ttcore.local_shape = #ttcore<local_shape local_shape = tensor<64x720xbf16>>, ttcore.shard_status = #ttcore.shard_status<presharded>, ttir.name = "self___model_model_layers_10_self_attn_k_proj__parameters__weight"} loc("p186.4875"), %arg187: tensor<2880xbf16> {ttcore.argument_type = #ttcore.argument_type<parameter>, ttcore.local_shape = #ttcore<local_shape local_shape = tensor<720xbf16>>, ttcore.shard_status = #ttcore.shard_status<presharded>, ttir.name = "model.model.layers.10.input_layernorm.weight"} loc("p187.4880"), %arg188: tensor<128xbf16> {ttcore.argument_type = #ttcore.argument_type<parameter>, ttcore.local_shape = #ttcore<local_shape local_shape = tensor<128xbf16>>, ttcore.shard_status = #ttcore.shard_status<presharded>, ttir.name = "model.model.layers.9.mlp.router.bias"} loc("p188.4892"), %arg189: tensor<128x2880xbf16> {ttcore.argument_type = #ttcore.argument_type<parameter>, ttcore.local_shape = #ttcore<local_shape local_shape = tensor<128x720xbf16>>, ttcore.shard_status = #ttcore.shard_status<presharded>, ttcore.weight_dtype = "bfp_bf4", ttir.name = "model.model.layers.9.mlp.router.parametrizations.weight.original"} loc("p189.4900"), %arg190: tensor<2880xbf16> {ttcore.argument_type = #ttcore.argument_type<parameter>, ttcore.local_shape = #ttcore<local_shape local_shape = tensor<720xbf16>>, ttcore.shard_status = #ttcore.shard_status<presharded>, ttir.name = "model.model.layers.9.post_attention_layernorm.weight"} loc("p190.4909"), %arg191: tensor<2880xbf16> {ttcore.argument_type = #ttcore.argument_type<parameter>, ttcore.local_shape = #ttcore<local_shape local_shape = tensor<720xbf16>>, ttcore.shard_status = #ttcore.shard_status<presharded>, ttir.name = "self___model_model_layers_9_self_attn_o_proj__parameters__bias"} loc("p191.4920"), %arg192: tensor<2880x4096xbf16> {ttcore.argument_type = #ttcore.argument_type<parameter>, ttcore.local_shape = #ttcore<local_shape local_shape = tensor<720x512xbf16>>, ttcore.shard_status = #ttcore.shard_status<presharded>, ttir.name = "self___model_model_layers_9_self_attn_o_proj__parameters__weight"} loc("p192.4924"), %arg193: tensor<64xbf16> {ttcore.argument_type = #ttcore.argument_type<parameter>, ttcore.local_shape = #ttcore<local_shape local_shape = tensor<64xbf16>>, ttcore.shard_status = #ttcore.shard_status<presharded>, ttir.name = "model.model.layers.9.self_attn.sinks"} loc("p193.4935"), %arg194: tensor<4096xbf16> {ttcore.argument_type = #ttcore.argument_type<parameter>, ttcore.local_shape = #ttcore<local_shape local_shape = tensor<512xbf16>>, ttcore.shard_status = #ttcore.shard_status<presharded>, ttir.name = "self___model_model_layers_9_self_attn_q_proj__parameters__bias"} loc("p194.4953"), %arg195: tensor<4096x2880xbf16> {ttcore.argument_type = #ttcore.argument_type<parameter>, ttcore.local_shape = #ttcore<local_shape local_shape = tensor<512x720xbf16>>, ttcore.shard_status = #ttcore.shard_status<presharded>, ttir.name = "self___model_model_layers_9_self_attn_q_proj__parameters__weight"} loc("p195.4957"), %arg196: tensor<128x2880xbf16> {ttcore.argument_type = #ttcore.argument_type<parameter>, ttcore.local_shape = #ttcore<local_shape local_shape = tensor<16x720xbf16>>, ttcore.shard_status = #ttcore.shard_status<presharded>, ttir.name = "model.model.layers.9.mlp.experts.down_proj_bias"} loc("p196.5184"), %arg197: tensor<128x2880x2880xbf16> {ttcore.argument_type = #ttcore.argument_type<parameter>, ttcore.local_shape = #ttcore<local_shape local_shape = tensor<16x2880x720xbf16>>, ttcore.shard_status = #ttcore.shard_status<presharded>, ttcore.weight_dtype = "bfp_bf4", ttir.name = "model.model.layers.9.mlp.experts.parametrizations.down_proj.original"} loc("p197.5189"), %arg198: tensor<128x5760xbf16> {ttcore.argument_type = #ttcore.argument_type<parameter>, ttcore.local_shape = #ttcore<local_shape local_shape = tensor<16x5760xbf16>>, ttcore.shard_status = #ttcore.shard_status<presharded>, ttir.name = "model.model.layers.9.mlp.experts.gate_up_proj_bias"} loc("p198.5196"), %arg199: tensor<128x2880x5760xbf16> {ttcore.argument_type = #ttcore.argument_type<parameter>, ttcore.local_shape = #ttcore<local_shape local_shape = tensor<16x720x5760xbf16>>, ttcore.shard_status = #ttcore.shard_status<presharded>, ttcore.weight_dtype = "bfp_bf4", ttir.name = "model.model.layers.9.mlp.experts.parametrizations.gate_up_proj.original"} loc("p199.5201"), %arg200: tensor<64x8x128x64xbf16> {ttcore.argument_type = #ttcore.argument_type<input>, ttcore.local_shape = #ttcore<local_shape local_shape = tensor<64x1x128x64xbf16>>, ttcore.shard_status = #ttcore.shard_status<presharded>, ttir.name = "args_22"} loc("p200.5331"), %arg201: tensor<512xbf16> {ttcore.argument_type = #ttcore.argument_type<parameter>, ttcore.local_shape = #ttcore<local_shape local_shape = tensor<64xbf16>>, ttcore.shard_status = #ttcore.shard_status<presharded>, ttir.name = "self___model_model_layers_10_self_attn_v_proj__parameters__bias"} loc("p201.5340"), %arg202: tensor<512x2880xbf16> {ttcore.argument_type = #ttcore.argument_type<parameter>, ttcore.local_shape = #ttcore<local_shape local_shape = tensor<64x720xbf16>>, ttcore.shard_status = #ttcore.shard_status<presharded>, ttir.name = "self___model_model_layers_10_self_attn_v_proj__parameters__weight"} loc("p202.5344"), %arg203: tensor<64x8x128x64xbf16> {ttcore.argument_type = #ttcore.argument_type<input>, ttcore.local_shape = #ttcore<local_shape local_shape = tensor<64x1x128x64xbf16>>, ttcore.shard_status = #ttcore.shard_status<presharded>, ttir.name = "args_23"} loc("p203.5370"), %arg204: tensor<512xbf16> {ttcore.argument_type = #ttcore.argument_type<parameter>, ttcore.local_shape = #ttcore<local_shape local_shape = tensor<64xbf16>>, ttcore.shard_status = #ttcore.shard_status<presharded>, ttir.name = "self___model_model_layers_11_self_attn_k_proj__parameters__bias"} loc("p204.5381"), %arg205: tensor<512x2880xbf16> {ttcore.argument_type = #ttcore.argument_type<parameter>, ttcore.local_shape = #ttcore<local_shape local_shape = tensor<64x720xbf16>>, ttcore.shard_status = #ttcore.shard_status<presharded>, ttir.name = "self___model_model_layers_11_self_attn_k_proj__parameters__weight"} loc("p205.5385"), %arg206: tensor<2880xbf16> {ttcore.argument_type = #ttcore.argument_type<parameter>, ttcore.local_shape = #ttcore<local_shape local_shape = tensor<720xbf16>>, ttcore.shard_status = #ttcore.shard_status<presharded>, ttir.name = "model.model.layers.11.input_layernorm.weight"} loc("p206.5390"), %arg207: tensor<128xbf16> {ttcore.argument_type = #ttcore.argument_type<parameter>, ttcore.local_shape = #ttcore<local_shape local_shape = tensor<128xbf16>>, ttcore.shard_status = #ttcore.shard_status<presharded>, ttir.name = "model.model.layers.10.mlp.router.bias"} loc("p207.5402"), %arg208: tensor<128x2880xbf16> {ttcore.argument_type = #ttcore.argument_type<parameter>, ttcore.local_shape = #ttcore<local_shape local_shape = tensor<128x720xbf16>>, ttcore.shard_status = #ttcore.shard_status<presharded>, ttcore.weight_dtype = "bfp_bf4", ttir.name = "model.model.layers.10.mlp.router.parametrizations.weight.original"} loc("p208.5410"), %arg209: tensor<2880xbf16> {ttcore.argument_type = #ttcore.argument_type<parameter>, ttcore.local_shape = #ttcore<local_shape local_shape = tensor<720xbf16>>, ttcore.shard_status = #ttcore.shard_status<presharded>, ttir.name = "model.model.layers.10.post_attention_layernorm.weight"} loc("p209.5419"), %arg210: tensor<2880xbf16> {ttcore.argument_type = #ttcore.argument_type<parameter>, ttcore.local_shape = #ttcore<local_shape local_shape = tensor<720xbf16>>, ttcore.shard_status = #ttcore.shard_status<presharded>, ttir.name = "self___model_model_layers_10_self_attn_o_proj__parameters__bias"} loc("p210.5430"), %arg211: tensor<2880x4096xbf16> {ttcore.argument_type = #ttcore.argument_type<parameter>, ttcore.local_shape = #ttcore<local_shape local_shape = tensor<720x512xbf16>>, ttcore.shard_status = #ttcore.shard_status<presharded>, ttir.name = "self___model_model_layers_10_self_attn_o_proj__parameters__weight"} loc("p211.5434"), %arg212: tensor<64xbf16> {ttcore.argument_type = #ttcore.argument_type<parameter>, ttcore.local_shape = #ttcore<local_shape local_shape = tensor<64xbf16>>, ttcore.shard_status = #ttcore.shard_status<presharded>, ttir.name = "model.model.layers.10.self_attn.sinks"} loc("p212.5445"), %arg213: tensor<4096xbf16> {ttcore.argument_type = #ttcore.argument_type<parameter>, ttcore.local_shape = #ttcore<local_shape local_shape = tensor<512xbf16>>, ttcore.shard_status = #ttcore.shard_status<presharded>, ttir.name = "self___model_model_layers_10_self_attn_q_proj__parameters__bias"} loc("p213.5463"), %arg214: tensor<4096x2880xbf16> {ttcore.argument_type = #ttcore.argument_type<parameter>, ttcore.local_shape = #ttcore<local_shape local_shape = tensor<512x720xbf16>>, ttcore.shard_status = #ttcore.shard_status<presharded>, ttir.name = "self___model_model_layers_10_self_attn_q_proj__parameters__weight"} loc("p214.5467"), %arg215: tensor<128x2880xbf16> {ttcore.argument_type = #ttcore.argument_type<parameter>, ttcore.local_shape = #ttcore<local_shape local_shape = tensor<16x720xbf16>>, ttcore.shard_status = #ttcore.shard_status<presharded>, ttir.name = "model.model.layers.10.mlp.experts.down_proj_bias"} loc("p215.5694"), %arg216: tensor<128x2880x2880xbf16> {ttcore.argument_type = #ttcore.argument_type<parameter>, ttcore.local_shape = #ttcore<local_shape local_shape = tensor<16x2880x720xbf16>>, ttcore.shard_status = #ttcore.shard_status<presharded>, ttcore.weight_dtype = "bfp_bf4", ttir.name = "model.model.layers.10.mlp.experts.parametrizations.down_proj.original"} loc("p216.5699"), %arg217: tensor<128x5760xbf16> {ttcore.argument_type = #ttcore.argument_type<parameter>, ttcore.local_shape = #ttcore<local_shape local_shape = tensor<16x5760xbf16>>, ttcore.shard_status = #ttcore.shard_status<presharded>, ttir.name = "model.model.layers.10.mlp.experts.gate_up_proj_bias"} loc("p217.5706"), %arg218: tensor<128x2880x5760xbf16> {ttcore.argument_type = #ttcore.argument_type<parameter>, ttcore.local_shape = #ttcore<local_shape local_shape = tensor<16x720x5760xbf16>>, ttcore.shard_status = #ttcore.shard_status<presharded>, ttcore.weight_dtype = "bfp_bf4", ttir.name = "model.model.layers.10.mlp.experts.parametrizations.gate_up_proj.original"} loc("p218.5711"), %arg219: tensor<64x8x128x64xbf16> {ttcore.argument_type = #ttcore.argument_type<input>, ttcore.local_shape = #ttcore<local_shape local_shape = tensor<64x1x128x64xbf16>>, ttcore.shard_status = #ttcore.shard_status<presharded>, ttir.name = "args_24"} loc("p219.5841"), %arg220: tensor<512xbf16> {ttcore.argument_type = #ttcore.argument_type<parameter>, ttcore.local_shape = #ttcore<local_shape local_shape = tensor<64xbf16>>, ttcore.shard_status = #ttcore.shard_status<presharded>, ttir.name = "self___model_model_layers_11_self_attn_v_proj__parameters__bias"} loc("p220.5850"), %arg221: tensor<512x2880xbf16> {ttcore.argument_type = #ttcore.argument_type<parameter>, ttcore.local_shape = #ttcore<local_shape local_shape = tensor<64x720xbf16>>, ttcore.shard_status = #ttcore.shard_status<presharded>, ttir.name = "self___model_model_layers_11_self_attn_v_proj__parameters__weight"} loc("p221.5854"), %arg222: tensor<64x8x128x64xbf16> {ttcore.argument_type = #ttcore.argument_type<input>, ttcore.local_shape = #ttcore<local_shape local_shape = tensor<64x1x128x64xbf16>>, ttcore.shard_status = #ttcore.shard_status<presharded>, ttir.name = "args_25"} loc("p222.5880"), %arg223: tensor<512xbf16> {ttcore.argument_type = #ttcore.argument_type<parameter>, ttcore.local_shape = #ttcore<local_shape local_shape = tensor<64xbf16>>, ttcore.shard_status = #ttcore.shard_status<presharded>, ttir.name = "self___model_model_layers_12_self_attn_k_proj__parameters__bias"} loc("p223.5891"), %arg224: tensor<512x2880xbf16> {ttcore.argument_type = #ttcore.argument_type<parameter>, ttcore.local_shape = #ttcore<local_shape local_shape = tensor<64x720xbf16>>, ttcore.shard_status = #ttcore.shard_status<presharded>, ttir.name = "self___model_model_layers_12_self_attn_k_proj__parameters__weight"} loc("p224.5895"), %arg225: tensor<2880xbf16> {ttcore.argument_type = #ttcore.argument_type<parameter>, ttcore.local_shape = #ttcore<local_shape local_shape = tensor<720xbf16>>, ttcore.shard_status = #ttcore.shard_status<presharded>, ttir.name = "model.model.layers.12.input_layernorm.weight"} loc("p225.5900"), %arg226: tensor<128xbf16> {ttcore.argument_type = #ttcore.argument_type<parameter>, ttcore.local_shape = #ttcore<local_shape local_shape = tensor<128xbf16>>, ttcore.shard_status = #ttcore.shard_status<presharded>, ttir.name = "model.model.layers.11.mlp.router.bias"} loc("p226.5912"), %arg227: tensor<128x2880xbf16> {ttcore.argument_type = #ttcore.argument_type<parameter>, ttcore.local_shape = #ttcore<local_shape local_shape = tensor<128x720xbf16>>, ttcore.shard_status = #ttcore.shard_status<presharded>, ttcore.weight_dtype = "bfp_bf4", ttir.name = "model.model.layers.11.mlp.router.parametrizations.weight.original"} loc("p227.5920"), %arg228: tensor<2880xbf16> {ttcore.argument_type = #ttcore.argument_type<parameter>, ttcore.local_shape = #ttcore<local_shape local_shape = tensor<720xbf16>>, ttcore.shard_status = #ttcore.shard_status<presharded>, ttir.name = "model.model.layers.11.post_attention_layernorm.weight"} loc("p228.5929"), %arg229: tensor<2880xbf16> {ttcore.argument_type = #ttcore.argument_type<parameter>, ttcore.local_shape = #ttcore<local_shape local_shape = tensor<720xbf16>>, ttcore.shard_status = #ttcore.shard_status<presharded>, ttir.name = "self___model_model_layers_11_self_attn_o_proj__parameters__bias"} loc("p229.5940"), %arg230: tensor<2880x4096xbf16> {ttcore.argument_type = #ttcore.argument_type<parameter>, ttcore.local_shape = #ttcore<local_shape local_shape = tensor<720x512xbf16>>, ttcore.shard_status = #ttcore.shard_status<presharded>, ttir.name = "self___model_model_layers_11_self_attn_o_proj__parameters__weight"} loc("p230.5944"), %arg231: tensor<64xbf16> {ttcore.argument_type = #ttcore.argument_type<parameter>, ttcore.local_shape = #ttcore<local_shape local_shape = tensor<64xbf16>>, ttcore.shard_status = #ttcore.shard_status<presharded>, ttir.name = "model.model.layers.11.self_attn.sinks"} loc("p231.5955"), %arg232: tensor<4096xbf16> {ttcore.argument_type = #ttcore.argument_type<parameter>, ttcore.local_shape = #ttcore<local_shape local_shape = tensor<512xbf16>>, ttcore.shard_status = #ttcore.shard_status<presharded>, ttir.name = "self___model_model_layers_11_self_attn_q_proj__parameters__bias"} loc("p232.5973"), %arg233: tensor<4096x2880xbf16> {ttcore.argument_type = #ttcore.argument_type<parameter>, ttcore.local_shape = #ttcore<local_shape local_shape = tensor<512x720xbf16>>, ttcore.shard_status = #ttcore.shard_status<presharded>, ttir.name = "self___model_model_layers_11_self_attn_q_proj__parameters__weight"} loc("p233.5977"), %arg234: tensor<128x2880xbf16> {ttcore.argument_type = #ttcore.argument_type<parameter>, ttcore.local_shape = #ttcore<local_shape local_shape = tensor<16x720xbf16>>, ttcore.shard_status = #ttcore.shard_status<presharded>, ttir.name = "model.model.layers.11.mlp.experts.down_proj_bias"} loc("p234.6204"), %arg235: tensor<128x2880x2880xbf16> {ttcore.argument_type = #ttcore.argument_type<parameter>, ttcore.local_shape = #ttcore<local_shape local_shape = tensor<16x2880x720xbf16>>, ttcore.shard_status = #ttcore.shard_status<presharded>, ttcore.weight_dtype = "bfp_bf4", ttir.name = "model.model.layers.11.mlp.experts.parametrizations.down_proj.original"} loc("p235.6209"), %arg236: tensor<128x5760xbf16> {ttcore.argument_type = #ttcore.argument_type<parameter>, ttcore.local_shape = #ttcore<local_shape local_shape = tensor<16x5760xbf16>>, ttcore.shard_status = #ttcore.shard_status<presharded>, ttir.name = "model.model.layers.11.mlp.experts.gate_up_proj_bias"} loc("p236.6216"), %arg237: tensor<128x2880x5760xbf16> {ttcore.argument_type = #ttcore.argument_type<parameter>, ttcore.local_shape = #ttcore<local_shape local_shape = tensor<16x720x5760xbf16>>, ttcore.shard_status = #ttcore.shard_status<presharded>, ttcore.weight_dtype = "bfp_bf4", ttir.name = "model.model.layers.11.mlp.experts.parametrizations.gate_up_proj.original"} loc("p237.6221"), %arg238: tensor<64x8x128x64xbf16> {ttcore.argument_type = #ttcore.argument_type<input>, ttcore.local_shape = #ttcore<local_shape local_shape = tensor<64x1x128x64xbf16>>, ttcore.shard_status = #ttcore.shard_status<presharded>, ttir.name = "args_26"} loc("p238.6351"), %arg239: tensor<512xbf16> {ttcore.argument_type = #ttcore.argument_type<parameter>, ttcore.local_shape = #ttcore<local_shape local_shape = tensor<64xbf16>>, ttcore.shard_status = #ttcore.shard_status<presharded>, ttir.name = "self___model_model_layers_12_self_attn_v_proj__parameters__bias"} loc("p239.6360"), %arg240: tensor<512x2880xbf16> {ttcore.argument_type = #ttcore.argument_type<parameter>, ttcore.local_shape = #ttcore<local_shape local_shape = tensor<64x720xbf16>>, ttcore.shard_status = #ttcore.shard_status<presharded>, ttir.name = "self___model_model_layers_12_self_attn_v_proj__parameters__weight"} loc("p240.6364"), %arg241: tensor<64x8x128x64xbf16> {ttcore.argument_type = #ttcore.argument_type<input>, ttcore.local_shape = #ttcore<local_shape local_shape = tensor<64x1x128x64xbf16>>, ttcore.shard_status = #ttcore.shard_status<presharded>, ttir.name = "args_27"} loc("p241.6390"), %arg242: tensor<512xbf16> {ttcore.argument_type = #ttcore.argument_type<parameter>, ttcore.local_shape = #ttcore<local_shape local_shape = tensor<64xbf16>>, ttcore.shard_status = #ttcore.shard_status<presharded>, ttir.name = "self___model_model_layers_13_self_attn_k_proj__parameters__bias"} loc("p242.6401"), %arg243: tensor<512x2880xbf16> {ttcore.argument_type = #ttcore.argument_type<parameter>, ttcore.local_shape = #ttcore<local_shape local_shape = tensor<64x720xbf16>>, ttcore.shard_status = #ttcore.shard_status<presharded>, ttir.name = "self___model_model_layers_13_self_attn_k_proj__parameters__weight"} loc("p243.6405"), %arg244: tensor<2880xbf16> {ttcore.argument_type = #ttcore.argument_type<parameter>, ttcore.local_shape = #ttcore<local_shape local_shape = tensor<720xbf16>>, ttcore.shard_status = #ttcore.shard_status<presharded>, ttir.name = "model.model.layers.13.input_layernorm.weight"} loc("p244.6410"), %arg245: tensor<128xbf16> {ttcore.argument_type = #ttcore.argument_type<parameter>, ttcore.local_shape = #ttcore<local_shape local_shape = tensor<128xbf16>>, ttcore.shard_status = #ttcore.shard_status<presharded>, ttir.name = "model.model.layers.12.mlp.router.bias"} loc("p245.6422"), %arg246: tensor<128x2880xbf16> {ttcore.argument_type = #ttcore.argument_type<parameter>, ttcore.local_shape = #ttcore<local_shape local_shape = tensor<128x720xbf16>>, ttcore.shard_status = #ttcore.shard_status<presharded>, ttcore.weight_dtype = "bfp_bf4", ttir.name = "model.model.layers.12.mlp.router.parametrizations.weight.original"} loc("p246.6430"), %arg247: tensor<2880xbf16> {ttcore.argument_type = #ttcore.argument_type<parameter>, ttcore.local_shape = #ttcore<local_shape local_shape = tensor<720xbf16>>, ttcore.shard_status = #ttcore.shard_status<presharded>, ttir.name = "model.model.layers.12.post_attention_layernorm.weight"} loc("p247.6439"), %arg248: tensor<2880xbf16> {ttcore.argument_type = #ttcore.argument_type<parameter>, ttcore.local_shape = #ttcore<local_shape local_shape = tensor<720xbf16>>, ttcore.shard_status = #ttcore.shard_status<presharded>, ttir.name = "self___model_model_layers_12_self_attn_o_proj__parameters__bias"} loc("p248.6450"), %arg249: tensor<2880x4096xbf16> {ttcore.argument_type = #ttcore.argument_type<parameter>, ttcore.local_shape = #ttcore<local_shape local_shape = tensor<720x512xbf16>>, ttcore.shard_status = #ttcore.shard_status<presharded>, ttir.name = "self___model_model_layers_12_self_attn_o_proj__parameters__weight"} loc("p249.6454"), %arg250: tensor<64xbf16> {ttcore.argument_type = #ttcore.argument_type<parameter>, ttcore.local_shape = #ttcore<local_shape local_shape = tensor<64xbf16>>, ttcore.shard_status = #ttcore.shard_status<presharded>, ttir.name = "model.model.layers.12.self_attn.sinks"} loc("p250.6465"), %arg251: tensor<4096xbf16> {ttcore.argument_type = #ttcore.argument_type<parameter>, ttcore.local_shape = #ttcore<local_shape local_shape = tensor<512xbf16>>, ttcore.shard_status = #ttcore.shard_status<presharded>, ttir.name = "self___model_model_layers_12_self_attn_q_proj__parameters__bias"} loc("p251.6483"), %arg252: tensor<4096x2880xbf16> {ttcore.argument_type = #ttcore.argument_type<parameter>, ttcore.local_shape = #ttcore<local_shape local_shape = tensor<512x720xbf16>>, ttcore.shard_status = #ttcore.shard_status<presharded>, ttir.name = "self___model_model_layers_12_self_attn_q_proj__parameters__weight"} loc("p252.6487"), %arg253: tensor<128x2880xbf16> {ttcore.argument_type = #ttcore.argument_type<parameter>, ttcore.local_shape = #ttcore<local_shape local_shape = tensor<16x720xbf16>>, ttcore.shard_status = #ttcore.shard_status<presharded>, ttir.name = "model.model.layers.12.mlp.experts.down_proj_bias"} loc("p253.6714"), %arg254: tensor<128x2880x2880xbf16> {ttcore.argument_type = #ttcore.argument_type<parameter>, ttcore.local_shape = #ttcore<local_shape local_shape = tensor<16x2880x720xbf16>>, ttcore.shard_status = #ttcore.shard_status<presharded>, ttcore.weight_dtype = "bfp_bf4", ttir.name = "model.model.layers.12.mlp.experts.parametrizations.down_proj.original"} loc("p254.6719"), %arg255: tensor<128x5760xbf16> {ttcore.argument_type = #ttcore.argument_type<parameter>, ttcore.local_shape = #ttcore<local_shape local_shape = tensor<16x5760xbf16>>, ttcore.shard_status = #ttcore.shard_status<presharded>, ttir.name = "model.model.layers.12.mlp.experts.gate_up_proj_bias"} loc("p255.6726"), %arg256: tensor<128x2880x5760xbf16> {ttcore.argument_type = #ttcore.argument_type<parameter>, ttcore.local_shape = #ttcore<local_shape local_shape = tensor<16x720x5760xbf16>>, ttcore.shard_status = #ttcore.shard_status<presharded>, ttcore.weight_dtype = "bfp_bf4", ttir.name = "model.model.layers.12.mlp.experts.parametrizations.gate_up_proj.original"} loc("p256.6731"), %arg257: tensor<64x8x128x64xbf16> {ttcore.argument_type = #ttcore.argument_type<input>, ttcore.local_shape = #ttcore<local_shape local_shape = tensor<64x1x128x64xbf16>>, ttcore.shard_status = #ttcore.shard_status<presharded>, ttir.name = "args_28"} loc("p257.6861"), %arg258: tensor<512xbf16> {ttcore.argument_type = #ttcore.argument_type<parameter>, ttcore.local_shape = #ttcore<local_shape local_shape = tensor<64xbf16>>, ttcore.shard_status = #ttcore.shard_status<presharded>, ttir.name = "self___model_model_layers_13_self_attn_v_proj__parameters__bias"} loc("p258.6870"), %arg259: tensor<512x2880xbf16> {ttcore.argument_type = #ttcore.argument_type<parameter>, ttcore.local_shape = #ttcore<local_shape local_shape = tensor<64x720xbf16>>, ttcore.shard_status = #ttcore.shard_status<presharded>, ttir.name = "self___model_model_layers_13_self_attn_v_proj__parameters__weight"} loc("p259.6874"), %arg260: tensor<64x8x128x64xbf16> {ttcore.argument_type = #ttcore.argument_type<input>, ttcore.local_shape = #ttcore<local_shape local_shape = tensor<64x1x128x64xbf16>>, ttcore.shard_status = #ttcore.shard_status<presharded>, ttir.name = "args_29"} loc("p260.6900"), %arg261: tensor<512xbf16> {ttcore.argument_type = #ttcore.argument_type<parameter>, ttcore.local_shape = #ttcore<local_shape local_shape = tensor<64xbf16>>, ttcore.shard_status = #ttcore.shard_status<presharded>, ttir.name = "self___model_model_layers_14_self_attn_k_proj__parameters__bias"} loc("p261.6911"), %arg262: tensor<512x2880xbf16> {ttcore.argument_type = #ttcore.argument_type<parameter>, ttcore.local_shape = #ttcore<local_shape local_shape = tensor<64x720xbf16>>, ttcore.shard_status = #ttcore.shard_status<presharded>, ttir.name = "self___model_model_layers_14_self_attn_k_proj__parameters__weight"} loc("p262.6915"), %arg263: tensor<2880xbf16> {ttcore.argument_type = #ttcore.argument_type<parameter>, ttcore.local_shape = #ttcore<local_shape local_shape = tensor<720xbf16>>, ttcore.shard_status = #ttcore.shard_status<presharded>, ttir.name = "model.model.layers.14.input_layernorm.weight"} loc("p263.6920"), %arg264: tensor<128xbf16> {ttcore.argument_type = #ttcore.argument_type<parameter>, ttcore.local_shape = #ttcore<local_shape local_shape = tensor<128xbf16>>, ttcore.shard_status = #ttcore.shard_status<presharded>, ttir.name = "model.model.layers.13.mlp.router.bias"} loc("p264.6932"), %arg265: tensor<128x2880xbf16> {ttcore.argument_type = #ttcore.argument_type<parameter>, ttcore.local_shape = #ttcore<local_shape local_shape = tensor<128x720xbf16>>, ttcore.shard_status = #ttcore.shard_status<presharded>, ttcore.weight_dtype = "bfp_bf4", ttir.name = "model.model.layers.13.mlp.router.parametrizations.weight.original"} loc("p265.6940"), %arg266: tensor<2880xbf16> {ttcore.argument_type = #ttcore.argument_type<parameter>, ttcore.local_shape = #ttcore<local_shape local_shape = tensor<720xbf16>>, ttcore.shard_status = #ttcore.shard_status<presharded>, ttir.name = "model.model.layers.13.post_attention_layernorm.weight"} loc("p266.6949"), %arg267: tensor<2880xbf16> {ttcore.argument_type = #ttcore.argument_type<parameter>, ttcore.local_shape = #ttcore<local_shape local_shape = tensor<720xbf16>>, ttcore.shard_status = #ttcore.shard_status<presharded>, ttir.name = "self___model_model_layers_13_self_attn_o_proj__parameters__bias"} loc("p267.6960"), %arg268: tensor<2880x4096xbf16> {ttcore.argument_type = #ttcore.argument_type<parameter>, ttcore.local_shape = #ttcore<local_shape local_shape = tensor<720x512xbf16>>, ttcore.shard_status = #ttcore.shard_status<presharded>, ttir.name = "self___model_model_layers_13_self_attn_o_proj__parameters__weight"} loc("p268.6964"), %arg269: tensor<64xbf16> {ttcore.argument_type = #ttcore.argument_type<parameter>, ttcore.local_shape = #ttcore<local_shape local_shape = tensor<64xbf16>>, ttcore.shard_status = #ttcore.shard_status<presharded>, ttir.name = "model.model.layers.13.self_attn.sinks"} loc("p269.6975"), %arg270: tensor<4096xbf16> {ttcore.argument_type = #ttcore.argument_type<parameter>, ttcore.local_shape = #ttcore<local_shape local_shape = tensor<512xbf16>>, ttcore.shard_status = #ttcore.shard_status<presharded>, ttir.name = "self___model_model_layers_13_self_attn_q_proj__parameters__bias"} loc("p270.6993"), %arg271: tensor<4096x2880xbf16> {ttcore.argument_type = #ttcore.argument_type<parameter>, ttcore.local_shape = #ttcore<local_shape local_shape = tensor<512x720xbf16>>, ttcore.shard_status = #ttcore.shard_status<presharded>, ttir.name = "self___model_model_layers_13_self_attn_q_proj__parameters__weight"} loc("p271.6997"), %arg272: tensor<128x2880xbf16> {ttcore.argument_type = #ttcore.argument_type<parameter>, ttcore.local_shape = #ttcore<local_shape local_shape = tensor<16x720xbf16>>, ttcore.shard_status = #ttcore.shard_status<presharded>, ttir.name = "model.model.layers.13.mlp.experts.down_proj_bias"} loc("p272.7224"), %arg273: tensor<128x2880x2880xbf16> {ttcore.argument_type = #ttcore.argument_type<parameter>, ttcore.local_shape = #ttcore<local_shape local_shape = tensor<16x2880x720xbf16>>, ttcore.shard_status = #ttcore.shard_status<presharded>, ttcore.weight_dtype = "bfp_bf4", ttir.name = "model.model.layers.13.mlp.experts.parametrizations.down_proj.original"} loc("p273.7229"), %arg274: tensor<128x5760xbf16> {ttcore.argument_type = #ttcore.argument_type<parameter>, ttcore.local_shape = #ttcore<local_shape local_shape = tensor<16x5760xbf16>>, ttcore.shard_status = #ttcore.shard_status<presharded>, ttir.name = "model.model.layers.13.mlp.experts.gate_up_proj_bias"} loc("p274.7236"), %arg275: tensor<128x2880x5760xbf16> {ttcore.argument_type = #ttcore.argument_type<parameter>, ttcore.local_shape = #ttcore<local_shape local_shape = tensor<16x720x5760xbf16>>, ttcore.shard_status = #ttcore.shard_status<presharded>, ttcore.weight_dtype = "bfp_bf4", ttir.name = "model.model.layers.13.mlp.experts.parametrizations.gate_up_proj.original"} loc("p275.7241"), %arg276: tensor<64x8x128x64xbf16> {ttcore.argument_type = #ttcore.argument_type<input>, ttcore.local_shape = #ttcore<local_shape local_shape = tensor<64x1x128x64xbf16>>, ttcore.shard_status = #ttcore.shard_status<presharded>, ttir.name = "args_30"} loc("p276.7371"), %arg277: tensor<512xbf16> {ttcore.argument_type = #ttcore.argument_type<parameter>, ttcore.local_shape = #ttcore<local_shape local_shape = tensor<64xbf16>>, ttcore.shard_status = #ttcore.shard_status<presharded>, ttir.name = "self___model_model_layers_14_self_attn_v_proj__parameters__bias"} loc("p277.7380"), %arg278: tensor<512x2880xbf16> {ttcore.argument_type = #ttcore.argument_type<parameter>, ttcore.local_shape = #ttcore<local_shape local_shape = tensor<64x720xbf16>>, ttcore.shard_status = #ttcore.shard_status<presharded>, ttir.name = "self___model_model_layers_14_self_attn_v_proj__parameters__weight"} loc("p278.7384"), %arg279: tensor<64x8x128x64xbf16> {ttcore.argument_type = #ttcore.argument_type<input>, ttcore.local_shape = #ttcore<local_shape local_shape = tensor<64x1x128x64xbf16>>, ttcore.shard_status = #ttcore.shard_status<presharded>, ttir.name = "args_31"} loc("p279.7410"), %arg280: tensor<512xbf16> {ttcore.argument_type = #ttcore.argument_type<parameter>, ttcore.local_shape = #ttcore<local_shape local_shape = tensor<64xbf16>>, ttcore.shard_status = #ttcore.shard_status<presharded>, ttir.name = "self___model_model_layers_15_self_attn_k_proj__parameters__bias"} loc("p280.7421"), %arg281: tensor<512x2880xbf16> {ttcore.argument_type = #ttcore.argument_type<parameter>, ttcore.local_shape = #ttcore<local_shape local_shape = tensor<64x720xbf16>>, ttcore.shard_status = #ttcore.shard_status<presharded>, ttir.name = "self___model_model_layers_15_self_attn_k_proj__parameters__weight"} loc("p281.7425"), %arg282: tensor<2880xbf16> {ttcore.argument_type = #ttcore.argument_type<parameter>, ttcore.local_shape = #ttcore<local_shape local_shape = tensor<720xbf16>>, ttcore.shard_status = #ttcore.shard_status<presharded>, ttir.name = "model.model.layers.15.input_layernorm.weight"} loc("p282.7430"), %arg283: tensor<128xbf16> {ttcore.argument_type = #ttcore.argument_type<parameter>, ttcore.local_shape = #ttcore<local_shape local_shape = tensor<128xbf16>>, ttcore.shard_status = #ttcore.shard_status<presharded>, ttir.name = "model.model.layers.14.mlp.router.bias"} loc("p283.7442"), %arg284: tensor<128x2880xbf16> {ttcore.argument_type = #ttcore.argument_type<parameter>, ttcore.local_shape = #ttcore<local_shape local_shape = tensor<128x720xbf16>>, ttcore.shard_status = #ttcore.shard_status<presharded>, ttcore.weight_dtype = "bfp_bf4", ttir.name = "model.model.layers.14.mlp.router.parametrizations.weight.original"} loc("p284.7450"), %arg285: tensor<2880xbf16> {ttcore.argument_type = #ttcore.argument_type<parameter>, ttcore.local_shape = #ttcore<local_shape local_shape = tensor<720xbf16>>, ttcore.shard_status = #ttcore.shard_status<presharded>, ttir.name = "model.model.layers.14.post_attention_layernorm.weight"} loc("p285.7459"), %arg286: tensor<2880xbf16> {ttcore.argument_type = #ttcore.argument_type<parameter>, ttcore.local_shape = #ttcore<local_shape local_shape = tensor<720xbf16>>, ttcore.shard_status = #ttcore.shard_status<presharded>, ttir.name = "self___model_model_layers_14_self_attn_o_proj__parameters__bias"} loc("p286.7470"), %arg287: tensor<2880x4096xbf16> {ttcore.argument_type = #ttcore.argument_type<parameter>, ttcore.local_shape = #ttcore<local_shape local_shape = tensor<720x512xbf16>>, ttcore.shard_status = #ttcore.shard_status<presharded>, ttir.name = "self___model_model_layers_14_self_attn_o_proj__parameters__weight"} loc("p287.7474"), %arg288: tensor<64xbf16> {ttcore.argument_type = #ttcore.argument_type<parameter>, ttcore.local_shape = #ttcore<local_shape local_shape = tensor<64xbf16>>, ttcore.shard_status = #ttcore.shard_status<presharded>, ttir.name = "model.model.layers.14.self_attn.sinks"} loc("p288.7485"), %arg289: tensor<4096xbf16> {ttcore.argument_type = #ttcore.argument_type<parameter>, ttcore.local_shape = #ttcore<local_shape local_shape = tensor<512xbf16>>, ttcore.shard_status = #ttcore.shard_status<presharded>, ttir.name = "self___model_model_layers_14_self_attn_q_proj__parameters__bias"} loc("p289.7503"), %arg290: tensor<4096x2880xbf16> {ttcore.argument_type = #ttcore.argument_type<parameter>, ttcore.local_shape = #ttcore<local_shape local_shape = tensor<512x720xbf16>>, ttcore.shard_status = #ttcore.shard_status<presharded>, ttir.name = "self___model_model_layers_14_self_attn_q_proj__parameters__weight"} loc("p290.7507"), %arg291: tensor<128x2880xbf16> {ttcore.argument_type = #ttcore.argument_type<parameter>, ttcore.local_shape = #ttcore<local_shape local_shape = tensor<16x720xbf16>>, ttcore.shard_status = #ttcore.shard_status<presharded>, ttir.name = "model.model.layers.14.mlp.experts.down_proj_bias"} loc("p291.7734"), %arg292: tensor<128x2880x2880xbf16> {ttcore.argument_type = #ttcore.argument_type<parameter>, ttcore.local_shape = #ttcore<local_shape local_shape = tensor<16x2880x720xbf16>>, ttcore.shard_status = #ttcore.shard_status<presharded>, ttcore.weight_dtype = "bfp_bf4", ttir.name = "model.model.layers.14.mlp.experts.parametrizations.down_proj.original"} loc("p292.7739"), %arg293: tensor<128x5760xbf16> {ttcore.argument_type = #ttcore.argument_type<parameter>, ttcore.local_shape = #ttcore<local_shape local_shape = tensor<16x5760xbf16>>, ttcore.shard_status = #ttcore.shard_status<presharded>, ttir.name = "model.model.layers.14.mlp.experts.gate_up_proj_bias"} loc("p293.7746"), %arg294: tensor<128x2880x5760xbf16> {ttcore.argument_type = #ttcore.argument_type<parameter>, ttcore.local_shape = #ttcore<local_shape local_shape = tensor<16x720x5760xbf16>>, ttcore.shard_status = #ttcore.shard_status<presharded>, ttcore.weight_dtype = "bfp_bf4", ttir.name = "model.model.layers.14.mlp.experts.parametrizations.gate_up_proj.original"} loc("p294.7751"), %arg295: tensor<64x8x128x64xbf16> {ttcore.argument_type = #ttcore.argument_type<input>, ttcore.local_shape = #ttcore<local_shape local_shape = tensor<64x1x128x64xbf16>>, ttcore.shard_status = #ttcore.shard_status<presharded>, ttir.name = "args_32"} loc("p295.7881"), %arg296: tensor<512xbf16> {ttcore.argument_type = #ttcore.argument_type<parameter>, ttcore.local_shape = #ttcore<local_shape local_shape = tensor<64xbf16>>, ttcore.shard_status = #ttcore.shard_status<presharded>, ttir.name = "self___model_model_layers_15_self_attn_v_proj__parameters__bias"} loc("p296.7890"), %arg297: tensor<512x2880xbf16> {ttcore.argument_type = #ttcore.argument_type<parameter>, ttcore.local_shape = #ttcore<local_shape local_shape = tensor<64x720xbf16>>, ttcore.shard_status = #ttcore.shard_status<presharded>, ttir.name = "self___model_model_layers_15_self_attn_v_proj__parameters__weight"} loc("p297.7894"), %arg298: tensor<64x8x128x64xbf16> {ttcore.argument_type = #ttcore.argument_type<input>, ttcore.local_shape = #ttcore<local_shape local_shape = tensor<64x1x128x64xbf16>>, ttcore.shard_status = #ttcore.shard_status<presharded>, ttir.name = "args_33"} loc("p298.7920"), %arg299: tensor<512xbf16> {ttcore.argument_type = #ttcore.argument_type<parameter>, ttcore.local_shape = #ttcore<local_shape local_shape = tensor<64xbf16>>, ttcore.shard_status = #ttcore.shard_status<presharded>, ttir.name = "self___model_model_layers_16_self_attn_k_proj__parameters__bias"} loc("p299.7931"), %arg300: tensor<512x2880xbf16> {ttcore.argument_type = #ttcore.argument_type<parameter>, ttcore.local_shape = #ttcore<local_shape local_shape = tensor<64x720xbf16>>, ttcore.shard_status = #ttcore.shard_status<presharded>, ttir.name = "self___model_model_layers_16_self_attn_k_proj__parameters__weight"} loc("p300.7935"), %arg301: tensor<2880xbf16> {ttcore.argument_type = #ttcore.argument_type<parameter>, ttcore.local_shape = #ttcore<local_shape local_shape = tensor<720xbf16>>, ttcore.shard_status = #ttcore.shard_status<presharded>, ttir.name = "model.model.layers.16.input_layernorm.weight"} loc("p301.7940"), %arg302: tensor<128xbf16> {ttcore.argument_type = #ttcore.argument_type<parameter>, ttcore.local_shape = #ttcore<local_shape local_shape = tensor<128xbf16>>, ttcore.shard_status = #ttcore.shard_status<presharded>, ttir.name = "model.model.layers.15.mlp.router.bias"} loc("p302.7952"), %arg303: tensor<128x2880xbf16> {ttcore.argument_type = #ttcore.argument_type<parameter>, ttcore.local_shape = #ttcore<local_shape local_shape = tensor<128x720xbf16>>, ttcore.shard_status = #ttcore.shard_status<presharded>, ttcore.weight_dtype = "bfp_bf4", ttir.name = "model.model.layers.15.mlp.router.parametrizations.weight.original"} loc("p303.7960"), %arg304: tensor<2880xbf16> {ttcore.argument_type = #ttcore.argument_type<parameter>, ttcore.local_shape = #ttcore<local_shape local_shape = tensor<720xbf16>>, ttcore.shard_status = #ttcore.shard_status<presharded>, ttir.name = "model.model.layers.15.post_attention_layernorm.weight"} loc("p304.7969"), %arg305: tensor<2880xbf16> {ttcore.argument_type = #ttcore.argument_type<parameter>, ttcore.local_shape = #ttcore<local_shape local_shape = tensor<720xbf16>>, ttcore.shard_status = #ttcore.shard_status<presharded>, ttir.name = "self___model_model_layers_15_self_attn_o_proj__parameters__bias"} loc("p305.7980"), %arg306: tensor<2880x4096xbf16> {ttcore.argument_type = #ttcore.argument_type<parameter>, ttcore.local_shape = #ttcore<local_shape local_shape = tensor<720x512xbf16>>, ttcore.shard_status = #ttcore.shard_status<presharded>, ttir.name = "self___model_model_layers_15_self_attn_o_proj__parameters__weight"} loc("p306.7984"), %arg307: tensor<64xbf16> {ttcore.argument_type = #ttcore.argument_type<parameter>, ttcore.local_shape = #ttcore<local_shape local_shape = tensor<64xbf16>>, ttcore.shard_status = #ttcore.shard_status<presharded>, ttir.name = "model.model.layers.15.self_attn.sinks"} loc("p307.7995"), %arg308: tensor<4096xbf16> {ttcore.argument_type = #ttcore.argument_type<parameter>, ttcore.local_shape = #ttcore<local_shape local_shape = tensor<512xbf16>>, ttcore.shard_status = #ttcore.shard_status<presharded>, ttir.name = "self___model_model_layers_15_self_attn_q_proj__parameters__bias"} loc("p308.8013"), %arg309: tensor<4096x2880xbf16> {ttcore.argument_type = #ttcore.argument_type<parameter>, ttcore.local_shape = #ttcore<local_shape local_shape = tensor<512x720xbf16>>, ttcore.shard_status = #ttcore.shard_status<presharded>, ttir.name = "self___model_model_layers_15_self_attn_q_proj__parameters__weight"} loc("p309.8017"), %arg310: tensor<128x2880xbf16> {ttcore.argument_type = #ttcore.argument_type<parameter>, ttcore.local_shape = #ttcore<local_shape local_shape = tensor<16x720xbf16>>, ttcore.shard_status = #ttcore.shard_status<presharded>, ttir.name = "model.model.layers.15.mlp.experts.down_proj_bias"} loc("p310.8244"), %arg311: tensor<128x2880x2880xbf16> {ttcore.argument_type = #ttcore.argument_type<parameter>, ttcore.local_shape = #ttcore<local_shape local_shape = tensor<16x2880x720xbf16>>, ttcore.shard_status = #ttcore.shard_status<presharded>, ttcore.weight_dtype = "bfp_bf4", ttir.name = "model.model.layers.15.mlp.experts.parametrizations.down_proj.original"} loc("p311.8249"), %arg312: tensor<128x5760xbf16> {ttcore.argument_type = #ttcore.argument_type<parameter>, ttcore.local_shape = #ttcore<local_shape local_shape = tensor<16x5760xbf16>>, ttcore.shard_status = #ttcore.shard_status<presharded>, ttir.name = "model.model.layers.15.mlp.experts.gate_up_proj_bias"} loc("p312.8256"), %arg313: tensor<128x2880x5760xbf16> {ttcore.argument_type = #ttcore.argument_type<parameter>, ttcore.local_shape = #ttcore<local_shape local_shape = tensor<16x720x5760xbf16>>, ttcore.shard_status = #ttcore.shard_status<presharded>, ttcore.weight_dtype = "bfp_bf4", ttir.name = "model.model.layers.15.mlp.experts.parametrizations.gate_up_proj.original"} loc("p313.8261"), %arg314: tensor<64x8x128x64xbf16> {ttcore.argument_type = #ttcore.argument_type<input>, ttcore.local_shape = #ttcore<local_shape local_shape = tensor<64x1x128x64xbf16>>, ttcore.shard_status = #ttcore.shard_status<presharded>, ttir.name = "args_34"} loc("p314.8391"), %arg315: tensor<512xbf16> {ttcore.argument_type = #ttcore.argument_type<parameter>, ttcore.local_shape = #ttcore<local_shape local_shape = tensor<64xbf16>>, ttcore.shard_status = #ttcore.shard_status<presharded>, ttir.name = "self___model_model_layers_16_self_attn_v_proj__parameters__bias"} loc("p315.8400"), %arg316: tensor<512x2880xbf16> {ttcore.argument_type = #ttcore.argument_type<parameter>, ttcore.local_shape = #ttcore<local_shape local_shape = tensor<64x720xbf16>>, ttcore.shard_status = #ttcore.shard_status<presharded>, ttir.name = "self___model_model_layers_16_self_attn_v_proj__parameters__weight"} loc("p316.8404"), %arg317: tensor<64x8x128x64xbf16> {ttcore.argument_type = #ttcore.argument_type<input>, ttcore.local_shape = #ttcore<local_shape local_shape = tensor<64x1x128x64xbf16>>, ttcore.shard_status = #ttcore.shard_status<presharded>, ttir.name = "args_35"} loc("p317.8430"), %arg318: tensor<512xbf16> {ttcore.argument_type = #ttcore.argument_type<parameter>, ttcore.local_shape = #ttcore<local_shape local_shape = tensor<64xbf16>>, ttcore.shard_status = #ttcore.shard_status<presharded>, ttir.name = "self___model_model_layers_17_self_attn_k_proj__parameters__bias"} loc("p318.8441"), %arg319: tensor<512x2880xbf16> {ttcore.argument_type = #ttcore.argument_type<parameter>, ttcore.local_shape = #ttcore<local_shape local_shape = tensor<64x720xbf16>>, ttcore.shard_status = #ttcore.shard_status<presharded>, ttir.name = "self___model_model_layers_17_self_attn_k_proj__parameters__weight"} loc("p319.8445"), %arg320: tensor<2880xbf16> {ttcore.argument_type = #ttcore.argument_type<parameter>, ttcore.local_shape = #ttcore<local_shape local_shape = tensor<720xbf16>>, ttcore.shard_status = #ttcore.shard_status<presharded>, ttir.name = "model.model.layers.17.input_layernorm.weight"} loc("p320.8450"), %arg321: tensor<128xbf16> {ttcore.argument_type = #ttcore.argument_type<parameter>, ttcore.local_shape = #ttcore<local_shape local_shape = tensor<128xbf16>>, ttcore.shard_status = #ttcore.shard_status<presharded>, ttir.name = "model.model.layers.16.mlp.router.bias"} loc("p321.8462"), %arg322: tensor<128x2880xbf16> {ttcore.argument_type = #ttcore.argument_type<parameter>, ttcore.local_shape = #ttcore<local_shape local_shape = tensor<128x720xbf16>>, ttcore.shard_status = #ttcore.shard_status<presharded>, ttcore.weight_dtype = "bfp_bf4", ttir.name = "model.model.layers.16.mlp.router.parametrizations.weight.original"} loc("p322.8470"), %arg323: tensor<2880xbf16> {ttcore.argument_type = #ttcore.argument_type<parameter>, ttcore.local_shape = #ttcore<local_shape local_shape = tensor<720xbf16>>, ttcore.shard_status = #ttcore.shard_status<presharded>, ttir.name = "model.model.layers.16.post_attention_layernorm.weight"} loc("p323.8479"), %arg324: tensor<2880xbf16> {ttcore.argument_type = #ttcore.argument_type<parameter>, ttcore.local_shape = #ttcore<local_shape local_shape = tensor<720xbf16>>, ttcore.shard_status = #ttcore.shard_status<presharded>, ttir.name = "self___model_model_layers_16_self_attn_o_proj__parameters__bias"} loc("p324.8490"), %arg325: tensor<2880x4096xbf16> {ttcore.argument_type = #ttcore.argument_type<parameter>, ttcore.local_shape = #ttcore<local_shape local_shape = tensor<720x512xbf16>>, ttcore.shard_status = #ttcore.shard_status<presharded>, ttir.name = "self___model_model_layers_16_self_attn_o_proj__parameters__weight"} loc("p325.8494"), %arg326: tensor<64xbf16> {ttcore.argument_type = #ttcore.argument_type<parameter>, ttcore.local_shape = #ttcore<local_shape local_shape = tensor<64xbf16>>, ttcore.shard_status = #ttcore.shard_status<presharded>, ttir.name = "model.model.layers.16.self_attn.sinks"} loc("p326.8505"), %arg327: tensor<4096xbf16> {ttcore.argument_type = #ttcore.argument_type<parameter>, ttcore.local_shape = #ttcore<local_shape local_shape = tensor<512xbf16>>, ttcore.shard_status = #ttcore.shard_status<presharded>, ttir.name = "self___model_model_layers_16_self_attn_q_proj__parameters__bias"} loc("p327.8523"), %arg328: tensor<4096x2880xbf16> {ttcore.argument_type = #ttcore.argument_type<parameter>, ttcore.local_shape = #ttcore<local_shape local_shape = tensor<512x720xbf16>>, ttcore.shard_status = #ttcore.shard_status<presharded>, ttir.name = "self___model_model_layers_16_self_attn_q_proj__parameters__weight"} loc("p328.8527"), %arg329: tensor<128x2880xbf16> {ttcore.argument_type = #ttcore.argument_type<parameter>, ttcore.local_shape = #ttcore<local_shape local_shape = tensor<16x720xbf16>>, ttcore.shard_status = #ttcore.shard_status<presharded>, ttir.name = "model.model.layers.16.mlp.experts.down_proj_bias"} loc("p329.8754"), %arg330: tensor<128x2880x2880xbf16> {ttcore.argument_type = #ttcore.argument_type<parameter>, ttcore.local_shape = #ttcore<local_shape local_shape = tensor<16x2880x720xbf16>>, ttcore.shard_status = #ttcore.shard_status<presharded>, ttcore.weight_dtype = "bfp_bf4", ttir.name = "model.model.layers.16.mlp.experts.parametrizations.down_proj.original"} loc("p330.8759"), %arg331: tensor<128x5760xbf16> {ttcore.argument_type = #ttcore.argument_type<parameter>, ttcore.local_shape = #ttcore<local_shape local_shape = tensor<16x5760xbf16>>, ttcore.shard_status = #ttcore.shard_status<presharded>, ttir.name = "model.model.layers.16.mlp.experts.gate_up_proj_bias"} loc("p331.8766"), %arg332: tensor<128x2880x5760xbf16> {ttcore.argument_type = #ttcore.argument_type<parameter>, ttcore.local_shape = #ttcore<local_shape local_shape = tensor<16x720x5760xbf16>>, ttcore.shard_status = #ttcore.shard_status<presharded>, ttcore.weight_dtype = "bfp_bf4", ttir.name = "model.model.layers.16.mlp.experts.parametrizations.gate_up_proj.original"} loc("p332.8771"), %arg333: tensor<64x8x128x64xbf16> {ttcore.argument_type = #ttcore.argument_type<input>, ttcore.local_shape = #ttcore<local_shape local_shape = tensor<64x1x128x64xbf16>>, ttcore.shard_status = #ttcore.shard_status<presharded>, ttir.name = "args_36"} loc("p333.8901"), %arg334: tensor<512xbf16> {ttcore.argument_type = #ttcore.argument_type<parameter>, ttcore.local_shape = #ttcore<local_shape local_shape = tensor<64xbf16>>, ttcore.shard_status = #ttcore.shard_status<presharded>, ttir.name = "self___model_model_layers_17_self_attn_v_proj__parameters__bias"} loc("p334.8910"), %arg335: tensor<512x2880xbf16> {ttcore.argument_type = #ttcore.argument_type<parameter>, ttcore.local_shape = #ttcore<local_shape local_shape = tensor<64x720xbf16>>, ttcore.shard_status = #ttcore.shard_status<presharded>, ttir.name = "self___model_model_layers_17_self_attn_v_proj__parameters__weight"} loc("p335.8914"), %arg336: tensor<64x8x128x64xbf16> {ttcore.argument_type = #ttcore.argument_type<input>, ttcore.local_shape = #ttcore<local_shape local_shape = tensor<64x1x128x64xbf16>>, ttcore.shard_status = #ttcore.shard_status<presharded>, ttir.name = "args_37"} loc("p336.8940"), %arg337: tensor<512xbf16> {ttcore.argument_type = #ttcore.argument_type<parameter>, ttcore.local_shape = #ttcore<local_shape local_shape = tensor<64xbf16>>, ttcore.shard_status = #ttcore.shard_status<presharded>, ttir.name = "self___model_model_layers_18_self_attn_k_proj__parameters__bias"} loc("p337.8951"), %arg338: tensor<512x2880xbf16> {ttcore.argument_type = #ttcore.argument_type<parameter>, ttcore.local_shape = #ttcore<local_shape local_shape = tensor<64x720xbf16>>, ttcore.shard_status = #ttcore.shard_status<presharded>, ttir.name = "self___model_model_layers_18_self_attn_k_proj__parameters__weight"} loc("p338.8955"), %arg339: tensor<2880xbf16> {ttcore.argument_type = #ttcore.argument_type<parameter>, ttcore.local_shape = #ttcore<local_shape local_shape = tensor<720xbf16>>, ttcore.shard_status = #ttcore.shard_status<presharded>, ttir.name = "model.model.layers.18.input_layernorm.weight"} loc("p339.8960"), %arg340: tensor<128xbf16> {ttcore.argument_type = #ttcore.argument_type<parameter>, ttcore.local_shape = #ttcore<local_shape local_shape = tensor<128xbf16>>, ttcore.shard_status = #ttcore.shard_status<presharded>, ttir.name = "model.model.layers.17.mlp.router.bias"} loc("p340.8972"), %arg341: tensor<128x2880xbf16> {ttcore.argument_type = #ttcore.argument_type<parameter>, ttcore.local_shape = #ttcore<local_shape local_shape = tensor<128x720xbf16>>, ttcore.shard_status = #ttcore.shard_status<presharded>, ttcore.weight_dtype = "bfp_bf4", ttir.name = "model.model.layers.17.mlp.router.parametrizations.weight.original"} loc("p341.8980"), %arg342: tensor<2880xbf16> {ttcore.argument_type = #ttcore.argument_type<parameter>, ttcore.local_shape = #ttcore<local_shape local_shape = tensor<720xbf16>>, ttcore.shard_status = #ttcore.shard_status<presharded>, ttir.name = "model.model.layers.17.post_attention_layernorm.weight"} loc("p342.8989"), %arg343: tensor<2880xbf16> {ttcore.argument_type = #ttcore.argument_type<parameter>, ttcore.local_shape = #ttcore<local_shape local_shape = tensor<720xbf16>>, ttcore.shard_status = #ttcore.shard_status<presharded>, ttir.name = "self___model_model_layers_17_self_attn_o_proj__parameters__bias"} loc("p343.9000"), %arg344: tensor<2880x4096xbf16> {ttcore.argument_type = #ttcore.argument_type<parameter>, ttcore.local_shape = #ttcore<local_shape local_shape = tensor<720x512xbf16>>, ttcore.shard_status = #ttcore.shard_status<presharded>, ttir.name = "self___model_model_layers_17_self_attn_o_proj__parameters__weight"} loc("p344.9004"), %arg345: tensor<64xbf16> {ttcore.argument_type = #ttcore.argument_type<parameter>, ttcore.local_shape = #ttcore<local_shape local_shape = tensor<64xbf16>>, ttcore.shard_status = #ttcore.shard_status<presharded>, ttir.name = "model.model.layers.17.self_attn.sinks"} loc("p345.9015"), %arg346: tensor<4096xbf16> {ttcore.argument_type = #ttcore.argument_type<parameter>, ttcore.local_shape = #ttcore<local_shape local_shape = tensor<512xbf16>>, ttcore.shard_status = #ttcore.shard_status<presharded>, ttir.name = "self___model_model_layers_17_self_attn_q_proj__parameters__bias"} loc("p346.9033"), %arg347: tensor<4096x2880xbf16> {ttcore.argument_type = #ttcore.argument_type<parameter>, ttcore.local_shape = #ttcore<local_shape local_shape = tensor<512x720xbf16>>, ttcore.shard_status = #ttcore.shard_status<presharded>, ttir.name = "self___model_model_layers_17_self_attn_q_proj__parameters__weight"} loc("p347.9037"), %arg348: tensor<128x2880xbf16> {ttcore.argument_type = #ttcore.argument_type<parameter>, ttcore.local_shape = #ttcore<local_shape local_shape = tensor<16x720xbf16>>, ttcore.shard_status = #ttcore.shard_status<presharded>, ttir.name = "model.model.layers.17.mlp.experts.down_proj_bias"} loc("p348.9264"), %arg349: tensor<128x2880x2880xbf16> {ttcore.argument_type = #ttcore.argument_type<parameter>, ttcore.local_shape = #ttcore<local_shape local_shape = tensor<16x2880x720xbf16>>, ttcore.shard_status = #ttcore.shard_status<presharded>, ttcore.weight_dtype = "bfp_bf4", ttir.name = "model.model.layers.17.mlp.experts.parametrizations.down_proj.original"} loc("p349.9269"), %arg350: tensor<128x5760xbf16> {ttcore.argument_type = #ttcore.argument_type<parameter>, ttcore.local_shape = #ttcore<local_shape local_shape = tensor<16x5760xbf16>>, ttcore.shard_status = #ttcore.shard_status<presharded>, ttir.name = "model.model.layers.17.mlp.experts.gate_up_proj_bias"} loc("p350.9276"), %arg351: tensor<128x2880x5760xbf16> {ttcore.argument_type = #ttcore.argument_type<parameter>, ttcore.local_shape = #ttcore<local_shape local_shape = tensor<16x720x5760xbf16>>, ttcore.shard_status = #ttcore.shard_status<presharded>, ttcore.weight_dtype = "bfp_bf4", ttir.name = "model.model.layers.17.mlp.experts.parametrizations.gate_up_proj.original"} loc("p351.9281"), %arg352: tensor<64x8x128x64xbf16> {ttcore.argument_type = #ttcore.argument_type<input>, ttcore.local_shape = #ttcore<local_shape local_shape = tensor<64x1x128x64xbf16>>, ttcore.shard_status = #ttcore.shard_status<presharded>, ttir.name = "args_38"} loc("p352.9411"), %arg353: tensor<512xbf16> {ttcore.argument_type = #ttcore.argument_type<parameter>, ttcore.local_shape = #ttcore<local_shape local_shape = tensor<64xbf16>>, ttcore.shard_status = #ttcore.shard_status<presharded>, ttir.name = "self___model_model_layers_18_self_attn_v_proj__parameters__bias"} loc("p353.9420"), %arg354: tensor<512x2880xbf16> {ttcore.argument_type = #ttcore.argument_type<parameter>, ttcore.local_shape = #ttcore<local_shape local_shape = tensor<64x720xbf16>>, ttcore.shard_status = #ttcore.shard_status<presharded>, ttir.name = "self___model_model_layers_18_self_attn_v_proj__parameters__weight"} loc("p354.9424"), %arg355: tensor<64x8x128x64xbf16> {ttcore.argument_type = #ttcore.argument_type<input>, ttcore.local_shape = #ttcore<local_shape local_shape = tensor<64x1x128x64xbf16>>, ttcore.shard_status = #ttcore.shard_status<presharded>, ttir.name = "args_39"} loc("p355.9450"), %arg356: tensor<512xbf16> {ttcore.argument_type = #ttcore.argument_type<parameter>, ttcore.local_shape = #ttcore<local_shape local_shape = tensor<64xbf16>>, ttcore.shard_status = #ttcore.shard_status<presharded>, ttir.name = "self___model_model_layers_19_self_attn_k_proj__parameters__bias"} loc("p356.9461"), %arg357: tensor<512x2880xbf16> {ttcore.argument_type = #ttcore.argument_type<parameter>, ttcore.local_shape = #ttcore<local_shape local_shape = tensor<64x720xbf16>>, ttcore.shard_status = #ttcore.shard_status<presharded>, ttir.name = "self___model_model_layers_19_self_attn_k_proj__parameters__weight"} loc("p357.9465"), %arg358: tensor<2880xbf16> {ttcore.argument_type = #ttcore.argument_type<parameter>, ttcore.local_shape = #ttcore<local_shape local_shape = tensor<720xbf16>>, ttcore.shard_status = #ttcore.shard_status<presharded>, ttir.name = "model.model.layers.19.input_layernorm.weight"} loc("p358.9470"), %arg359: tensor<128xbf16> {ttcore.argument_type = #ttcore.argument_type<parameter>, ttcore.local_shape = #ttcore<local_shape local_shape = tensor<128xbf16>>, ttcore.shard_status = #ttcore.shard_status<presharded>, ttir.name = "model.model.layers.18.mlp.router.bias"} loc("p359.9482"), %arg360: tensor<128x2880xbf16> {ttcore.argument_type = #ttcore.argument_type<parameter>, ttcore.local_shape = #ttcore<local_shape local_shape = tensor<128x720xbf16>>, ttcore.shard_status = #ttcore.shard_status<presharded>, ttcore.weight_dtype = "bfp_bf4", ttir.name = "model.model.layers.18.mlp.router.parametrizations.weight.original"} loc("p360.9490"), %arg361: tensor<2880xbf16> {ttcore.argument_type = #ttcore.argument_type<parameter>, ttcore.local_shape = #ttcore<local_shape local_shape = tensor<720xbf16>>, ttcore.shard_status = #ttcore.shard_status<presharded>, ttir.name = "model.model.layers.18.post_attention_layernorm.weight"} loc("p361.9499"), %arg362: tensor<2880xbf16> {ttcore.argument_type = #ttcore.argument_type<parameter>, ttcore.local_shape = #ttcore<local_shape local_shape = tensor<720xbf16>>, ttcore.shard_status = #ttcore.shard_status<presharded>, ttir.name = "self___model_model_layers_18_self_attn_o_proj__parameters__bias"} loc("p362.9510"), %arg363: tensor<2880x4096xbf16> {ttcore.argument_type = #ttcore.argument_type<parameter>, ttcore.local_shape = #ttcore<local_shape local_shape = tensor<720x512xbf16>>, ttcore.shard_status = #ttcore.shard_status<presharded>, ttir.name = "self___model_model_layers_18_self_attn_o_proj__parameters__weight"} loc("p363.9514"), %arg364: tensor<64xbf16> {ttcore.argument_type = #ttcore.argument_type<parameter>, ttcore.local_shape = #ttcore<local_shape local_shape = tensor<64xbf16>>, ttcore.shard_status = #ttcore.shard_status<presharded>, ttir.name = "model.model.layers.18.self_attn.sinks"} loc("p364.9525"), %arg365: tensor<4096xbf16> {ttcore.argument_type = #ttcore.argument_type<parameter>, ttcore.local_shape = #ttcore<local_shape local_shape = tensor<512xbf16>>, ttcore.shard_status = #ttcore.shard_status<presharded>, ttir.name = "self___model_model_layers_18_self_attn_q_proj__parameters__bias"} loc("p365.9543"), %arg366: tensor<4096x2880xbf16> {ttcore.argument_type = #ttcore.argument_type<parameter>, ttcore.local_shape = #ttcore<local_shape local_shape = tensor<512x720xbf16>>, ttcore.shard_status = #ttcore.shard_status<presharded>, ttir.name = "self___model_model_layers_18_self_attn_q_proj__parameters__weight"} loc("p366.9547"), %arg367: tensor<128x2880xbf16> {ttcore.argument_type = #ttcore.argument_type<parameter>, ttcore.local_shape = #ttcore<local_shape local_shape = tensor<16x720xbf16>>, ttcore.shard_status = #ttcore.shard_status<presharded>, ttir.name = "model.model.layers.18.mlp.experts.down_proj_bias"} loc("p367.9774"), %arg368: tensor<128x2880x2880xbf16> {ttcore.argument_type = #ttcore.argument_type<parameter>, ttcore.local_shape = #ttcore<local_shape local_shape = tensor<16x2880x720xbf16>>, ttcore.shard_status = #ttcore.shard_status<presharded>, ttcore.weight_dtype = "bfp_bf4", ttir.name = "model.model.layers.18.mlp.experts.parametrizations.down_proj.original"} loc("p368.9779"), %arg369: tensor<128x5760xbf16> {ttcore.argument_type = #ttcore.argument_type<parameter>, ttcore.local_shape = #ttcore<local_shape local_shape = tensor<16x5760xbf16>>, ttcore.shard_status = #ttcore.shard_status<presharded>, ttir.name = "model.model.layers.18.mlp.experts.gate_up_proj_bias"} loc("p369.9786"), %arg370: tensor<128x2880x5760xbf16> {ttcore.argument_type = #ttcore.argument_type<parameter>, ttcore.local_shape = #ttcore<local_shape local_shape = tensor<16x720x5760xbf16>>, ttcore.shard_status = #ttcore.shard_status<presharded>, ttcore.weight_dtype = "bfp_bf4", ttir.name = "model.model.layers.18.mlp.experts.parametrizations.gate_up_proj.original"} loc("p370.9791"), %arg371: tensor<64x8x128x64xbf16> {ttcore.argument_type = #ttcore.argument_type<input>, ttcore.local_shape = #ttcore<local_shape local_shape = tensor<64x1x128x64xbf16>>, ttcore.shard_status = #ttcore.shard_status<presharded>, ttir.name = "args_40"} loc("p371.9921"), %arg372: tensor<512xbf16> {ttcore.argument_type = #ttcore.argument_type<parameter>, ttcore.local_shape = #ttcore<local_shape local_shape = tensor<64xbf16>>, ttcore.shard_status = #ttcore.shard_status<presharded>, ttir.name = "self___model_model_layers_19_self_attn_v_proj__parameters__bias"} loc("p372.9930"), %arg373: tensor<512x2880xbf16> {ttcore.argument_type = #ttcore.argument_type<parameter>, ttcore.local_shape = #ttcore<local_shape local_shape = tensor<64x720xbf16>>, ttcore.shard_status = #ttcore.shard_status<presharded>, ttir.name = "self___model_model_layers_19_self_attn_v_proj__parameters__weight"} loc("p373.9934"), %arg374: tensor<64x8x128x64xbf16> {ttcore.argument_type = #ttcore.argument_type<input>, ttcore.local_shape = #ttcore<local_shape local_shape = tensor<64x1x128x64xbf16>>, ttcore.shard_status = #ttcore.shard_status<presharded>, ttir.name = "args_41"} loc("p374.9960"), %arg375: tensor<512xbf16> {ttcore.argument_type = #ttcore.argument_type<parameter>, ttcore.local_shape = #ttcore<local_shape local_shape = tensor<64xbf16>>, ttcore.shard_status = #ttcore.shard_status<presharded>, ttir.name = "self___model_model_layers_20_self_attn_k_proj__parameters__bias"} loc("p375.9971"), %arg376: tensor<512x2880xbf16> {ttcore.argument_type = #ttcore.argument_type<parameter>, ttcore.local_shape = #ttcore<local_shape local_shape = tensor<64x720xbf16>>, ttcore.shard_status = #ttcore.shard_status<presharded>, ttir.name = "self___model_model_layers_20_self_attn_k_proj__parameters__weight"} loc("p376.9975"), %arg377: tensor<2880xbf16> {ttcore.argument_type = #ttcore.argument_type<parameter>, ttcore.local_shape = #ttcore<local_shape local_shape = tensor<720xbf16>>, ttcore.shard_status = #ttcore.shard_status<presharded>, ttir.name = "model.model.layers.20.input_layernorm.weight"} loc("p377.9980"), %arg378: tensor<128xbf16> {ttcore.argument_type = #ttcore.argument_type<parameter>, ttcore.local_shape = #ttcore<local_shape local_shape = tensor<128xbf16>>, ttcore.shard_status = #ttcore.shard_status<presharded>, ttir.name = "model.model.layers.19.mlp.router.bias"} loc("p378.9992"), %arg379: tensor<128x2880xbf16> {ttcore.argument_type = #ttcore.argument_type<parameter>, ttcore.local_shape = #ttcore<local_shape local_shape = tensor<128x720xbf16>>, ttcore.shard_status = #ttcore.shard_status<presharded>, ttcore.weight_dtype = "bfp_bf4", ttir.name = "model.model.layers.19.mlp.router.parametrizations.weight.original"} loc("p379.10000"), %arg380: tensor<2880xbf16> {ttcore.argument_type = #ttcore.argument_type<parameter>, ttcore.local_shape = #ttcore<local_shape local_shape = tensor<720xbf16>>, ttcore.shard_status = #ttcore.shard_status<presharded>, ttir.name = "model.model.layers.19.post_attention_layernorm.weight"} loc("p380.10009"), %arg381: tensor<2880xbf16> {ttcore.argument_type = #ttcore.argument_type<parameter>, ttcore.local_shape = #ttcore<local_shape local_shape = tensor<720xbf16>>, ttcore.shard_status = #ttcore.shard_status<presharded>, ttir.name = "self___model_model_layers_19_self_attn_o_proj__parameters__bias"} loc("p381.10020"), %arg382: tensor<2880x4096xbf16> {ttcore.argument_type = #ttcore.argument_type<parameter>, ttcore.local_shape = #ttcore<local_shape local_shape = tensor<720x512xbf16>>, ttcore.shard_status = #ttcore.shard_status<presharded>, ttir.name = "self___model_model_layers_19_self_attn_o_proj__parameters__weight"} loc("p382.10024"), %arg383: tensor<64xbf16> {ttcore.argument_type = #ttcore.argument_type<parameter>, ttcore.local_shape = #ttcore<local_shape local_shape = tensor<64xbf16>>, ttcore.shard_status = #ttcore.shard_status<presharded>, ttir.name = "model.model.layers.19.self_attn.sinks"} loc("p383.10035"), %arg384: tensor<4096xbf16> {ttcore.argument_type = #ttcore.argument_type<parameter>, ttcore.local_shape = #ttcore<local_shape local_shape = tensor<512xbf16>>, ttcore.shard_status = #ttcore.shard_status<presharded>, ttir.name = "self___model_model_layers_19_self_attn_q_proj__parameters__bias"} loc("p384.10053"), %arg385: tensor<4096x2880xbf16> {ttcore.argument_type = #ttcore.argument_type<parameter>, ttcore.local_shape = #ttcore<local_shape local_shape = tensor<512x720xbf16>>, ttcore.shard_status = #ttcore.shard_status<presharded>, ttir.name = "self___model_model_layers_19_self_attn_q_proj__parameters__weight"} loc("p385.10057"), %arg386: tensor<128x2880xbf16> {ttcore.argument_type = #ttcore.argument_type<parameter>, ttcore.local_shape = #ttcore<local_shape local_shape = tensor<16x720xbf16>>, ttcore.shard_status = #ttcore.shard_status<presharded>, ttir.name = "model.model.layers.19.mlp.experts.down_proj_bias"} loc("p386.10284"), %arg387: tensor<128x2880x2880xbf16> {ttcore.argument_type = #ttcore.argument_type<parameter>, ttcore.local_shape = #ttcore<local_shape local_shape = tensor<16x2880x720xbf16>>, ttcore.shard_status = #ttcore.shard_status<presharded>, ttcore.weight_dtype = "bfp_bf4", ttir.name = "model.model.layers.19.mlp.experts.parametrizations.down_proj.original"} loc("p387.10289"), %arg388: tensor<128x5760xbf16> {ttcore.argument_type = #ttcore.argument_type<parameter>, ttcore.local_shape = #ttcore<local_shape local_shape = tensor<16x5760xbf16>>, ttcore.shard_status = #ttcore.shard_status<presharded>, ttir.name = "model.model.layers.19.mlp.experts.gate_up_proj_bias…
#loc4699 = loc("reshape.13619")
#loc4700 = loc("transpose.13620")
#loc4701 = loc("dot.13663")
#loc4702 = loc("multiply.13666")
#loc4703 = loc("add.13671")
#loc4704 = loc("reshape.13606")
#loc4705 = loc("reshape.13611")
#loc4706 = loc("broadcast.13612")
#loc4707 = loc("concatenate.13672")
#loc4708 = loc("reduce.13679")
#loc4709 = loc("broadcast.13715")
#loc4710 = loc("subtract.13716")
#loc4711 = loc("reduce.13722")
#loc4712 = loc("broadcast.13723")
#loc4713 = loc("subtract.13724")
#loc4714 = loc("exponential.13725")
#loc4715 = loc("reduce.13731")
#loc4716 = loc("broadcast.13732")
#loc4717 = loc("divide.13733")
#loc4718 = loc("slice.13734")
#loc4719 = loc("reshape.13505")
#loc4720 = loc("reshape.13507")
#loc4721 = loc("transpose.13508")
#loc4723 = loc("reshape.13511")
#loc4724 = loc("reshape.13501")
#loc4725 = loc("reshape.13503")
#loc4726 = loc("broadcast.13514")
#loc4727 = loc("add.13515")
#loc4728 = loc("reshape.13516")
#loc4729 = loc("transpose.13517")
#loc4731 = loc("broadcast.13602")
#loc4732 = loc("reshape.13603")
#loc4733 = loc("dot.13735")
#loc4734 = loc("transpose.13737")
#loc4735 = loc("reshape.13739")
#loc4736 = loc("reshape.13595")
#loc4737 = loc("reshape.13597")
#loc4738 = loc("transpose.13598")
#loc4740 = loc("reshape.13741")
#loc4741 = loc("reshape.13591")
#loc4742 = loc("reshape.13593")
#loc4743 = loc("broadcast.13744")
#loc4744 = loc("add.13745")
#loc4745 = loc("add.13748")
#loc4746 = loc("reshape.13580")
#loc4747 = loc("reshape.13582")
#loc4748 = loc("custom-call.13781")
#loc4749 = loc("reshape.13874")
#loc4750 = loc("concatenate.13875")
#loc4752 = loc("reshape.13867")
#loc4753 = loc("reshape.13869")
#loc4754 = loc("broadcast.13882")
#loc4755 = loc("add.13883")
#loc4756 = loc("slice.13896")
#loc4757 = loc("clamp.13899")
#loc4758 = loc("add.13902")
#loc4759 = loc("slice.13884")
#loc4760 = loc("clamp.13887")
#loc4761 = loc("multiply.13889")
#loc4762 = loc("logistic.13890")
#loc4763 = loc("multiply.13891")
#loc4764 = loc("multiply.13903")
#loc4765 = loc("dot.13904")
#loc4766 = loc("reshape.13855")
#loc4767 = loc("reshape.13857")
#loc4768 = loc("broadcast.13908")
#loc4769 = loc("add.13909")
#loc4770 = loc("reshape.13910")
#loc4771 = loc("convert.13783")
#loc4772 = loc("reshape.13571")
#loc4773 = loc("reshape.13576")
#loc4774 = loc("transpose.13577")
#loc4775 = loc("convert.13578")
#loc4777 = loc("reshape.13563")
#loc4778 = loc("reshape.13565")
#loc4779 = loc("convert.13566")
#loc4780 = loc("broadcast.13789")
#loc4781 = loc("add.13790")
#loc4782 = loc("convert.13791")
#loc4783 = loc("broadcast.13836")
#loc4784 = loc("compare.13837")
#loc4785 = loc("convert.13838")
#loc4786 = loc("convert.13839")
#loc4787 = loc("reduce.13818")
#loc4788 = loc("broadcast.13819")
#loc4789 = loc("subtract.13820")
#loc4790 = loc("exponential.13821")
#loc4791 = loc("reduce.13827")
#loc4792 = loc("broadcast.13828")
#loc4793 = loc("divide.13829")
#loc4794 = loc("broadcast.13841")
#loc4795 = loc("multiply.13842")
#loc4796 = loc("reduce.13849")
#loc4797 = loc("transpose.13850")
#loc4798 = loc("reshape.13851")
#loc4799 = loc("broadcast.13912")
#loc4800 = loc("multiply.13913")
#loc4802 = loc("add.13923")
#loc4803 = loc("reshape.13551")
#loc4804 = loc("reshape.13553")
#loc4805 = loc("custom-call.13956")
#loc4806 = loc("reshape.14142")
#loc4807 = loc("reshape.14138")
#loc4808 = loc("reshape.14140")
#loc4809 = loc("transpose.14141")
#loc4811 = loc("reshape.14144")
#loc4812 = loc("reshape.14134")
#loc4813 = loc("reshape.14136")
#loc4814 = loc("broadcast.14147")
#loc4815 = loc("add.14148")
#loc4816 = loc("reshape.14149")
#loc4817 = loc("transpose.14150")
#loc4818 = loc("slice.14151")
#loc4819 = loc("multiply.14168")
#loc4820 = loc("slice.14155")
#loc4821 = loc("multiply.14165")
#loc4822 = loc("subtract.14171")
#loc4823 = loc("multiply.14158")
#loc4824 = loc("multiply.14154")
#loc4825 = loc("add.14161")
#loc4826 = loc("concatenate.14172")
#loc4827 = loc("reshape.13546")
#loc4828 = loc("reshape.13548")
#loc4829 = loc("transpose.13549")
#loc4831 = loc("reshape.13959")
#loc4832 = loc("reshape.13542")
#loc4833 = loc("reshape.13544")
#loc4834 = loc("broadcast.13962")
#loc4835 = loc("add.13963")
#loc4836 = loc("reshape.13964")
#loc4837 = loc("transpose.13965")
#loc4838 = loc("slice.13966")
#loc4839 = loc("multiply.13984")
#loc4840 = loc("slice.13971")
#loc4841 = loc("multiply.13981")
#loc4842 = loc("subtract.13987")
#loc4843 = loc("multiply.13974")
#loc4844 = loc("multiply.13969")
#loc4845 = loc("add.13977")
#loc4846 = loc("concatenate.13988")
#loc4848 = loc("broadcast.14128")
#loc4849 = loc("reshape.14129")
#loc4850 = loc("transpose.14130")
#loc4851 = loc("dot.14173")
#loc4852 = loc("multiply.14176")
#loc4853 = loc("add.14181")
#loc4854 = loc("reshape.14116")
#loc4855 = loc("reshape.14121")
#loc4856 = loc("broadcast.14122")
#loc4857 = loc("concatenate.14182")
#loc4858 = loc("reduce.14189")
#loc4859 = loc("broadcast.14225")
#loc4860 = loc("subtract.14226")
#loc4861 = loc("reduce.14232")
#loc4862 = loc("broadcast.14233")
#loc4863 = loc("subtract.14234")
#loc4864 = loc("exponential.14235")
#loc4865 = loc("reduce.14241")
#loc4866 = loc("broadcast.14242")
#loc4867 = loc("divide.14243")
#loc4868 = loc("slice.14244")
#loc4869 = loc("reshape.14015")
#loc4870 = loc("reshape.14017")
#loc4871 = loc("transpose.14018")
#loc4873 = loc("reshape.14021")
#loc4874 = loc("reshape.14011")
#loc4875 = loc("reshape.14013")
#loc4876 = loc("broadcast.14024")
#loc4877 = loc("add.14025")
#loc4878 = loc("reshape.14026")
#loc4879 = loc("transpose.14027")
#loc4881 = loc("broadcast.14112")
#loc4882 = loc("reshape.14113")
#loc4883 = loc("dot.14245")
#loc4884 = loc("transpose.14247")
#loc4885 = loc("reshape.14249")
#loc4886 = loc("reshape.14105")
#loc4887 = loc("reshape.14107")
#loc4888 = loc("transpose.14108")
#loc4890 = loc("reshape.14251")
#loc4891 = loc("reshape.14101")
#loc4892 = loc("reshape.14103")
#loc4893 = loc("broadcast.14254")
#loc4894 = loc("add.14255")
#loc4895 = loc("add.14258")
#loc4896 = loc("reshape.14090")
#loc4897 = loc("reshape.14092")
#loc4898 = loc("custom-call.14291")
#loc4899 = loc("reshape.14384")
#loc4900 = loc("concatenate.14385")
#loc4902 = loc("reshape.14377")
#loc4903 = loc("reshape.14379")
#loc4904 = loc("broadcast.14392")
#loc4905 = loc("add.14393")
#loc4906 = loc("slice.14406")
#loc4907 = loc("clamp.14409")
#loc4908 = loc("add.14412")
#loc4909 = loc("slice.14394")
#loc4910 = loc("clamp.14397")
#loc4911 = loc("multiply.14399")
#loc4912 = loc("logistic.14400")
#loc4913 = loc("multiply.14401")
#loc4914 = loc("multiply.14413")
#loc4915 = loc("dot.14414")
#loc4916 = loc("reshape.14365")
#loc4917 = loc("reshape.14367")
#loc4918 = loc("broadcast.14418")
#loc4919 = loc("add.14419")
#loc4920 = loc("reshape.14420")
#loc4921 = loc("convert.14293")
#loc4922 = loc("reshape.14081")
#loc4923 = loc("reshape.14086")
#loc4924 = loc("transpose.14087")
#loc4925 = loc("convert.14088")
#loc4927 = loc("reshape.14073")
#loc4928 = loc("reshape.14075")
#loc4929 = loc("convert.14076")
#loc4930 = loc("broadcast.14299")
#loc4931 = loc("add.14300")
#loc4932 = loc("convert.14301")
#loc4933 = loc("broadcast.14346")
#loc4934 = loc("compare.14347")
#loc4935 = loc("convert.14348")
#loc4936 = loc("convert.14349")
#loc4937 = loc("reduce.14328")
#loc4938 = loc("broadcast.14329")
#loc4939 = loc("subtract.14330")
#loc4940 = loc("exponential.14331")
#loc4941 = loc("reduce.14337")
#loc4942 = loc("broadcast.14338")
#loc4943 = loc("divide.14339")
#loc4944 = loc("broadcast.14351")
#loc4945 = loc("multiply.14352")
#loc4946 = loc("reduce.14359")
#loc4947 = loc("transpose.14360")
#loc4948 = loc("reshape.14361")
#loc4949 = loc("broadcast.14422")
#loc4950 = loc("multiply.14423")
#loc4952 = loc("add.14433")
#loc4953 = loc("reshape.14061")
#loc4954 = loc("reshape.14063")
#loc4955 = loc("custom-call.14466")
#loc4956 = loc("reshape.14652")
#loc4957 = loc("reshape.14648")
#loc4958 = loc("reshape.14650")
#loc4959 = loc("transpose.14651")
#loc4961 = loc("reshape.14654")
#loc4962 = loc("reshape.14644")
#loc4963 = loc("reshape.14646")
#loc4964 = loc("broadcast.14657")
#loc4965 = loc("add.14658")
#loc4966 = loc("reshape.14659")
#loc4967 = loc("transpose.14660")
#loc4968 = loc("slice.14661")
#loc4969 = loc("multiply.14678")
#loc4970 = loc("slice.14665")
#loc4971 = loc("multiply.14675")
#loc4972 = loc("subtract.14681")
#loc4973 = loc("multiply.14668")
#loc4974 = loc("multiply.14664")
#loc4975 = loc("add.14671")
#loc4976 = loc("concatenate.14682")
#loc4977 = loc("reshape.14056")
#loc4978 = loc("reshape.14058")
#loc4979 = loc("transpose.14059")
#loc4981 = loc("reshape.14469")
#loc4982 = loc("reshape.14052")
#loc4983 = loc("reshape.14054")
#loc4984 = loc("broadcast.14472")
#loc4985 = loc("add.14473")
#loc4986 = loc("reshape.14474")
#loc4987 = loc("transpose.14475")
#loc4988 = loc("slice.14476")
#loc4989 = loc("multiply.14494")
#loc4990 = loc("slice.14481")
#loc4991 = loc("multiply.14491")
#loc4992 = loc("subtract.14497")
#loc4993 = loc("multiply.14484")
#loc4994 = loc("multiply.14479")
#loc4995 = loc("add.14487")
#loc4996 = loc("concatenate.14498")
#loc4998 = loc("broadcast.14638")
#loc4999 = loc("reshape.14639")
#loc5000 = loc("transpose.14640")
#loc5001 = loc("dot.14683")
#loc5002 = loc("multiply.14686")
#loc5003 = loc("add.14691")
#loc5004 = loc("reshape.14626")
#loc5005 = loc("reshape.14631")
#loc5006 = loc("broadcast.14632")
#loc5007 = loc("concatenate.14692")
#loc5008 = loc("reduce.14699")
#loc5009 = loc("broadcast.14735")
#loc5010 = loc("subtract.14736")
#loc5011 = loc("reduce.14742")
#loc5012 = loc("broadcast.14743")
#loc5013 = loc("subtract.14744")
#loc5014 = loc("exponential.14745")
#loc5015 = loc("reduce.14751")
#loc5016 = loc("broadcast.14752")
#loc5017 = loc("divide.14753")
#loc5018 = loc("slice.14754")
#loc5019 = loc("reshape.14525")
#loc5020 = loc("reshape.14527")
#loc5021 = loc("transpose.14528")
#loc5023 = loc("reshape.14531")
#loc5024 = loc("reshape.14521")
#loc5025 = loc("reshape.14523")
#loc5026 = loc("broadcast.14534")
#loc5027 = loc("add.14535")
#loc5028 = loc("reshape.14536")
#loc5029 = loc("transpose.14537")
#loc5031 = loc("broadcast.14622")
#loc5032 = loc("reshape.14623")
#loc5033 = loc("dot.14755")
#loc5034 = loc("transpose.14757")
#loc5035 = loc("reshape.14759")
#loc5036 = loc("reshape.14615")
#loc5037 = loc("reshape.14617")
#loc5038 = loc("transpose.14618")
#loc5040 = loc("reshape.14761")
#loc5041 = loc("reshape.14611")
#loc5042 = loc("reshape.14613")
#loc5043 = loc("broadcast.14764")
#loc5044 = loc("add.14765")
#loc5045 = loc("add.14768")
#loc5046 = loc("reshape.14600")
#loc5047 = loc("reshape.14602")
#loc5048 = loc("custom-call.14801")
#loc5049 = loc("reshape.14894")
#loc5050 = loc("concatenate.14895")
#loc5052 = loc("reshape.14887")
#loc5053 = loc("reshape.14889")
#loc5054 = loc("broadcast.14902")
#loc5055 = loc("add.14903")
#loc5056 = loc("slice.14916")
#loc5057 = loc("clamp.14919")
#loc5058 = loc("add.14922")
#loc5059 = loc("slice.14904")
#loc5060 = loc("clamp.14907")
#loc5061 = loc("multiply.14909")
#loc5062 = loc("logistic.14910")
#loc5063 = loc("multiply.14911")
#loc5064 = loc("multiply.14923")
#loc5065 = loc("dot.14924")
#loc5066 = loc("reshape.14875")
#loc5067 = loc("reshape.14877")
#loc5068 = loc("broadcast.14928")
#loc5069 = loc("add.14929")
#loc5070 = loc("reshape.14930")
#loc5071 = loc("convert.14803")
#loc5072 = loc("reshape.14591")
#loc5073 = loc("reshape.14596")
#loc5074 = loc("transpose.14597")
#loc5075 = loc("convert.14598")
#loc5077 = loc("reshape.14583")
#loc5078 = loc("reshape.14585")
#loc5079 = loc("convert.14586")
#loc5080 = loc("broadcast.14809")
#loc5081 = loc("add.14810")
#loc5082 = loc("convert.14811")
#loc5083 = loc("broadcast.14856")
#loc5084 = loc("compare.14857")
#loc5085 = loc("convert.14858")
#loc5086 = loc("convert.14859")
#loc5087 = loc("reduce.14838")
#loc5088 = loc("broadcast.14839")
#loc5089 = loc("subtract.14840")
#loc5090 = loc("exponential.14841")
#loc5091 = loc("reduce.14847")
#loc5092 = loc("broadcast.14848")
#loc5093 = loc("divide.14849")
#loc5094 = loc("broadcast.14861")
#loc5095 = loc("multiply.14862")
#loc5096 = loc("reduce.14869")
#loc5097 = loc("transpose.14870")
#loc5098 = loc("reshape.14871")
#loc5099 = loc("broadcast.14932")
#loc5100 = loc("multiply.14933")
#loc5102 = loc("add.14943")
#loc5103 = loc("reshape.14571")
#loc5104 = loc("reshape.14573")
#loc5105 = loc("custom-call.14976")
#loc5106 = loc("reshape.15162")
#loc5107 = loc("reshape.15158")
#loc5108 = loc("reshape.15160")
#loc5109 = loc("transpose.15161")
#loc5111 = loc("reshape.15164")
#loc5112 = loc("reshape.15154")
#loc5113 = loc("reshape.15156")
#loc5114 = loc("broadcast.15167")
#loc5115 = loc("add.15168")
#loc5116 = loc("reshape.15169")
#loc5117 = loc("transpose.15170")
#loc5118 = loc("slice.15171")
#loc5119 = loc("multiply.15188")
#loc5120 = loc("slice.15175")
#loc5121 = loc("multiply.15185")
#loc5122 = loc("subtract.15191")
#loc5123 = loc("multiply.15178")
#loc5124 = loc("multiply.15174")
#loc5125 = loc("add.15181")
#loc5126 = loc("concatenate.15192")
#loc5127 = loc("reshape.14566")
#loc5128 = loc("reshape.14568")
#loc5129 = loc("transpose.14569")
#loc5131 = loc("reshape.14979")
#loc5132 = loc("reshape.14562")
#loc5133 = loc("reshape.14564")
#loc5134 = loc("broadcast.14982")
#loc5135 = loc("add.14983")
#loc5136 = loc("reshape.14984")
#loc5137 = loc("transpose.14985")
#loc5138 = loc("slice.14986")
#loc5139 = loc("multiply.15004")
#loc5140 = loc("slice.14991")
#loc5141 = loc("multiply.15001")
#loc5142 = loc("subtract.15007")
#loc5143 = loc("multiply.14994")
#loc5144 = loc("multiply.14989")
#loc5145 = loc("add.14997")
#loc5146 = loc("concatenate.15008")
#loc5148 = loc("broadcast.15148")
#loc5149 = loc("reshape.15149")
#loc5150 = loc("transpose.15150")
#loc5151 = loc("dot.15193")
#loc5152 = loc("multiply.15196")
#loc5153 = loc("add.15201")
#loc5154 = loc("reshape.15136")
#loc5155 = loc("reshape.15141")
#loc5156 = loc("broadcast.15142")
#loc5157 = loc("concatenate.15202")
#loc5158 = loc("reduce.15209")
#loc5159 = loc("broadcast.15245")
#loc5160 = loc("subtract.15246")
#loc5161 = loc("reduce.15252")
#loc5162 = loc("broadcast.15253")
#loc5163 = loc("subtract.15254")
#loc5164 = loc("exponential.15255")
#loc5165 = loc("reduce.15261")
#loc5166 = loc("broadcast.15262")
#loc5167 = loc("divide.15263")
#loc5168 = loc("slice.15264")
#loc5169 = loc("reshape.15035")
#loc5170 = loc("reshape.15037")
#loc5171 = loc("transpose.15038")
#loc5173 = loc("reshape.15041")
#loc5174 = loc("reshape.15031")
#loc5175 = loc("reshape.15033")
#loc5176 = loc("broadcast.15044")
#loc5177 = loc("add.15045")
#loc5178 = loc("reshape.15046")
#loc5179 = loc("transpose.15047")
#loc5181 = loc("broadcast.15132")
#loc5182 = loc("reshape.15133")
#loc5183 = loc("dot.15265")
#loc5184 = loc("transpose.15267")
#loc5185 = loc("reshape.15269")
#loc5186 = loc("reshape.15125")
#loc5187 = loc("reshape.15127")
#loc5188 = loc("transpose.15128")
#loc5190 = loc("reshape.15271")
#loc5191 = loc("reshape.15121")
#loc5192 = loc("reshape.15123")
#loc5193 = loc("broadcast.15274")
#loc5194 = loc("add.15275")
#loc5195 = loc("add.15278")
#loc5196 = loc("reshape.15110")
#loc5197 = loc("reshape.15112")
#loc5198 = loc("custom-call.15311")
#loc5199 = loc("reshape.15404")
#loc5200 = loc("concatenate.15405")
#loc5202 = loc("reshape.15397")
#loc5203 = loc("reshape.15399")
#loc5204 = loc("broadcast.15412")
#loc5205 = loc("add.15413")
#loc5206 = loc("slice.15426")
#loc5207 = loc("clamp.15429")
#loc5208 = loc("add.15432")
#loc5209 = loc("slice.15414")
#loc5210 = loc("clamp.15417")
#loc5211 = loc("multiply.15419")
#loc5212 = loc("logistic.15420")
#loc5213 = loc("multiply.15421")
#loc5214 = loc("multiply.15433")
#loc5215 = loc("dot.15434")
#loc5216 = loc("reshape.15385")
#loc5217 = loc("reshape.15387")
#loc5218 = loc("broadcast.15438")
#loc5219 = loc("add.15439")
#loc5220 = loc("reshape.15440")
#loc5221 = loc("convert.15313")
#loc5222 = loc("reshape.15101")
#loc5223 = loc("reshape.15106")
#loc5224 = loc("transpose.15107")
#loc5225 = loc("convert.15108")
#loc5227 = loc("reshape.15093")
#loc5228 = loc("reshape.15095")
#loc5229 = loc("convert.15096")
#loc5230 = loc("broadcast.15319")
#loc5231 = loc("add.15320")
#loc5232 = loc("convert.15321")
#loc5233 = loc("broadcast.15366")
#loc5234 = loc("compare.15367")
#loc5235 = loc("convert.15368")
#loc5236 = loc("convert.15369")
#loc5237 = loc("reduce.15348")
#loc5238 = loc("broadcast.15349")
#loc5239 = loc("subtract.15350")
#loc5240 = loc("exponential.15351")
#loc5241 = loc("reduce.15357")
#loc5242 = loc("broadcast.15358")
#loc5243 = loc("divide.15359")
#loc5244 = loc("broadcast.15371")
#loc5245 = loc("multiply.15372")
#loc5246 = loc("reduce.15379")
#loc5247 = loc("transpose.15380")
#loc5248 = loc("reshape.15381")
#loc5249 = loc("broadcast.15442")
#loc5250 = loc("multiply.15443")
#loc5252 = loc("add.15453")
#loc5253 = loc("reshape.15081")
#loc5254 = loc("reshape.15083")
#loc5255 = loc("custom-call.15486")
#loc5256 = loc("reshape.15672")
#loc5257 = loc("reshape.15668")
#loc5258 = loc("reshape.15670")
#loc5259 = loc("transpose.15671")
#loc5261 = loc("reshape.15674")
#loc5262 = loc("reshape.15664")
#loc5263 = loc("reshape.15666")
#loc5264 = loc("broadcast.15677")
#loc5265 = loc("add.15678")
#loc5266 = loc("reshape.15679")
#loc5267 = loc("transpose.15680")
#loc5268 = loc("slice.15681")
#loc5269 = loc("multiply.15698")
#loc5270 = loc("slice.15685")
#loc5271 = loc("multiply.15695")
#loc5272 = loc("subtract.15701")
#loc5273 = loc("multiply.15688")
#loc5274 = loc("multiply.15684")
#loc5275 = loc("add.15691")
#loc5276 = loc("concatenate.15702")
#loc5277 = loc("reshape.15076")
#loc5278 = loc("reshape.15078")
#loc5279 = loc("transpose.15079")
#loc5281 = loc("reshape.15489")
#loc5282 = loc("reshape.15072")
#loc5283 = loc("reshape.15074")
#loc5284 = loc("broadcast.15492")
#loc5285 = loc("add.15493")
#loc5286 = loc("reshape.15494")
#loc5287 = loc("transpose.15495")
#loc5288 = loc("slice.15496")
#loc5289 = loc("multiply.15514")
#loc5290 = loc("slice.15501")
#loc5291 = loc("multiply.15511")
#loc5292 = loc("subtract.15517")
#loc5293 = loc("multiply.15504")
#loc5294 = loc("multiply.15499")
#loc5295 = loc("add.15507")
#loc5296 = loc("concatenate.15518")
#loc5298 = loc("broadcast.15658")
#loc5299 = loc("reshape.15659")
#loc5300 = loc("transpose.15660")
#loc5301 = loc("dot.15703")
#loc5302 = loc("multiply.15706")
#loc5303 = loc("add.15711")
#loc5304 = loc("reshape.15646")
#loc5305 = loc("reshape.15651")
#loc5306 = loc("broadcast.15652")
#loc5307 = loc("concatenate.15712")
#loc5308 = loc("reduce.15719")
#loc5309 = loc("broadcast.15755")
#loc5310 = loc("subtract.15756")
#loc5311 = loc("reduce.15762")
#loc5312 = loc("broadcast.15763")
#loc5313 = loc("subtract.15764")
#loc5314 = loc("exponential.15765")
#loc5315 = loc("reduce.15771")
#loc5316 = loc("broadcast.15772")
#loc5317 = loc("divide.15773")
#loc5318 = loc("slice.15774")
#loc5319 = loc("reshape.15545")
#loc5320 = loc("reshape.15547")
#loc5321 = loc("transpose.15548")
#loc5323 = loc("reshape.15551")
#loc5324 = loc("reshape.15541")
#loc5325 = loc("reshape.15543")
#loc5326 = loc("broadcast.15554")
#loc5327 = loc("add.15555")
#loc5328 = loc("reshape.15556")
#loc5329 = loc("transpose.15557")
#loc5331 = loc("broadcast.15642")
#loc5332 = loc("reshape.15643")
#loc5333 = loc("dot.15775")
#loc5334 = loc("transpose.15777")
#loc5335 = loc("reshape.15779")
#loc5336 = loc("reshape.15635")
#loc5337 = loc("reshape.15637")
#loc5338 = loc("transpose.15638")
#loc5340 = loc("reshape.15781")
#loc5341 = loc("reshape.15631")
#loc5342 = loc("reshape.15633")
#loc5343 = loc("broadcast.15784")
#loc5344 = loc("add.15785")
#loc5345 = loc("add.15788")
#loc5346 = loc("reshape.15620")
#loc5347 = loc("reshape.15622")
#loc5348 = loc("custom-call.15821")
#loc5349 = loc("reshape.15914")
#loc5350 = loc("concatenate.15915")
#loc5352 = loc("reshape.15907")
#loc5353 = loc("reshape.15909")
#loc5354 = loc("broadcast.15922")
#loc5355 = loc("add.15923")
#loc5356 = loc("slice.15936")
#loc5357 = loc("clamp.15939")
#loc5358 = loc("add.15942")
#loc5359 = loc("slice.15924")
#loc5360 = loc("clamp.15927")
#loc5361 = loc("multiply.15929")
#loc5362 = loc("logistic.15930")
#loc5363 = loc("multiply.15931")
#loc5364 = loc("multiply.15943")
#loc5365 = loc("dot.15944")
#loc5366 = loc("reshape.15895")
#loc5367 = loc("reshape.15897")
#loc5368 = loc("broadcast.15948")
#loc5369 = loc("add.15949")
#loc5370 = loc("reshape.15950")
#loc5371 = loc("convert.15823")
#loc5372 = loc("reshape.15611")
#loc5373 = loc("reshape.15616")
#loc5374 = loc("transpose.15617")
#loc5375 = loc("convert.15618")
#loc5377 = loc("reshape.15603")
#loc5378 = loc("reshape.15605")
#loc5379 = loc("convert.15606")
#loc5380 = loc("broadcast.15829")
#loc5381 = loc("add.15830")
#loc5382 = loc("convert.15831")
#loc5383 = loc("broadcast.15876")
#loc5384 = loc("compare.15877")
#loc5385 = loc("convert.15878")
#loc5386 = loc("convert.15879")
#loc5387 = loc("reduce.15858")
#loc5388 = loc("broadcast.15859")
#loc5389 = loc("subtract.15860")
#loc5390 = loc("exponential.15861")
#loc5391 = loc("reduce.15867")
#loc5392 = loc("broadcast.15868")
#loc5393 = loc("divide.15869")
#loc5394 = loc("broadcast.15881")
#loc5395 = loc("multiply.15882")
#loc5396 = loc("reduce.15889")
#loc5397 = loc("transpose.15890")
#loc5398 = loc("reshape.15891")
#loc5399 = loc("broadcast.15952")
#loc5400 = loc("multiply.15953")
#loc5402 = loc("add.15963")
#loc5403 = loc("reshape.15591")
#loc5404 = loc("reshape.15593")
#loc5405 = loc("custom-call.15996")
#loc5406 = loc("reshape.16182")
#loc5407 = loc("reshape.16178")
#loc5408 = loc("reshape.16180")
#loc5409 = loc("transpose.16181")
#loc5411 = loc("reshape.16184")
#loc5412 = loc("reshape.16174")
#loc5413 = loc("reshape.16176")
#loc5414 = loc("broadcast.16187")
#loc5415 = loc("add.16188")
#loc5416 = loc("reshape.16189")
#loc5417 = loc("transpose.16190")
#loc5418 = loc("slice.16191")
#loc5419 = loc("multiply.16208")
#loc5420 = loc("slice.16195")
#loc5421 = loc("multiply.16205")
#loc5422 = loc("subtract.16211")
#loc5423 = loc("multiply.16198")
#loc5424 = loc("multiply.16194")
#loc5425 = loc("add.16201")
#loc5426 = loc("concatenate.16212")
#loc5427 = loc("reshape.15586")
#loc5428 = loc("reshape.15588")
#loc5429 = loc("transpose.15589")
#loc5431 = loc("reshape.15999")
#loc5432 = loc("reshape.15582")
#loc5433 = loc("reshape.15584")
#loc5434 = loc("broadcast.16002")
#loc5435 = loc("add.16003")
#loc5436 = loc("reshape.16004")
#loc5437 = loc("transpose.16005")
#loc5438 = loc("slice.16006")
#loc5439 = loc("multiply.16024")
#loc5440 = loc("slice.16011")
#loc5441 = loc("multiply.16021")
#loc5442 = loc("subtract.16027")
#loc5443 = loc("multiply.16014")
#loc5444 = loc("multiply.16009")
#loc5445 = loc("add.16017")
#loc5446 = loc("concatenate.16028")
#loc5448 = loc("broadcast.16168")
#loc5449 = loc("reshape.16169")
#loc5450 = loc("transpose.16170")
#loc5451 = loc("dot.16213")
#loc5452 = loc("multiply.16216")
#loc5453 = loc("add.16221")
#loc5454 = loc("reshape.16156")
#loc5455 = loc("reshape.16161")
#loc5456 = loc("broadcast.16162")
#loc5457 = loc("concatenate.16222")
#loc5458 = loc("reduce.16229")
#loc5459 = loc("broadcast.16265")
#loc5460 = loc("subtract.16266")
#loc5461 = loc("reduce.16272")
#loc5462 = loc("broadcast.16273")
#loc5463 = loc("subtract.16274")
#loc5464 = loc("exponential.16275")
#loc5465 = loc("reduce.16281")
#loc5466 = loc("broadcast.16282")
#loc5467 = loc("divide.16283")
#loc5468 = loc("slice.16284")
#loc5469 = loc("reshape.16055")
#loc5470 = loc("reshape.16057")
#loc5471 = loc("transpose.16058")
#loc5473 = loc("reshape.16061")
#loc5474 = loc("reshape.16051")
#loc5475 = loc("reshape.16053")
#loc5476 = loc("broadcast.16064")
#loc5477 = loc("add.16065")
#loc5478 = loc("reshape.16066")
#loc5479 = loc("transpose.16067")
#loc5481 = loc("broadcast.16152")
#loc5482 = loc("reshape.16153")
#loc5483 = loc("dot.16285")
#loc5484 = loc("transpose.16287")
#loc5485 = loc("reshape.16289")
#loc5486 = loc("reshape.16145")
#loc5487 = loc("reshape.16147")
#loc5488 = loc("transpose.16148")
#loc5490 = loc("reshape.16291")
#loc5491 = loc("reshape.16141")
#loc5492 = loc("reshape.16143")
#loc5493 = loc("broadcast.16294")
#loc5494 = loc("add.16295")
#loc5495 = loc("add.16298")
#loc5496 = loc("reshape.16130")
#loc5497 = loc("reshape.16132")
#loc5498 = loc("custom-call.16331")
#loc5499 = loc("reshape.16424")
#loc5500 = loc("concatenate.16425")
#loc5502 = loc("reshape.16417")
#loc5503 = loc("reshape.16419")
#loc5504 = loc("broadcast.16432")
#loc5505 = loc("add.16433")
#loc5506 = loc("slice.16446")
#loc5507 = loc("clamp.16449")
#loc5508 = loc("add.16452")
#loc5509 = loc("slice.16434")
#loc5510 = loc("clamp.16437")
#loc5511 = loc("multiply.16439")
#loc5512 = loc("logistic.16440")
#loc5513 = loc("multiply.16441")
#loc5514 = loc("multiply.16453")
#loc5515 = loc("dot.16454")
#loc5516 = loc("reshape.16405")
#loc5517 = loc("reshape.16407")
#loc5518 = loc("broadcast.16458")
#loc5519 = loc("add.16459")
#loc5520 = loc("reshape.16460")
#loc5521 = loc("convert.16333")
#loc5522 = loc("reshape.16121")
#loc5523 = loc("reshape.16126")
#loc5524 = loc("transpose.16127")
#loc5525 = loc("convert.16128")
#loc5527 = loc("reshape.16113")
#loc5528 = loc("reshape.16115")
#loc5529 = loc("convert.16116")
#loc5530 = loc("broadcast.16339")
#loc5531 = loc("add.16340")
#loc5532 = loc("convert.16341")
#loc5533 = loc("broadcast.16386")
#loc5534 = loc("compare.16387")
#loc5535 = loc("convert.16388")
#loc5536 = loc("convert.16389")
#loc5537 = loc("reduce.16368")
#loc5538 = loc("broadcast.16369")
#loc5539 = loc("subtract.16370")
#loc5540 = loc("exponential.16371")
#loc5541 = loc("reduce.16377")
#loc5542 = loc("broadcast.16378")
#loc5543 = loc("divide.16379")
#loc5544 = loc("broadcast.16391")
#loc5545 = loc("multiply.16392")
#loc5546 = loc("reduce.16399")
#loc5547 = loc("transpose.16400")
#loc5548 = loc("reshape.16401")
#loc5549 = loc("broadcast.16462")
#loc5550 = loc("multiply.16463")
#loc5552 = loc("add.16473")
#loc5553 = loc("reshape.16101")
#loc5554 = loc("reshape.16103")
#loc5555 = loc("custom-call.16506")
#loc5556 = loc("reshape.16692")
#loc5557 = loc("reshape.16688")
#loc5558 = loc("reshape.16690")
#loc5559 = loc("transpose.16691")
#loc5561 = loc("reshape.16694")
#loc5562 = loc("reshape.16684")
#loc5563 = loc("reshape.16686")
#loc5564 = loc("broadcast.16697")
#loc5565 = loc("add.16698")
#loc5566 = loc("reshape.16699")
#loc5567 = loc("transpose.16700")
#loc5568 = loc("slice.16701")
#loc5569 = loc("multiply.16718")
#loc5570 = loc("slice.16705")
#loc5571 = loc("multiply.16715")
#loc5572 = loc("subtract.16721")
#loc5573 = loc("multiply.16708")
#loc5574 = loc("multiply.16704")
#loc5575 = loc("add.16711")
#loc5576 = loc("concatenate.16722")
#loc5577 = loc("reshape.16096")
#loc5578 = loc("reshape.16098")
#loc5579 = loc("transpose.16099")
#loc5581 = loc("reshape.16509")
#loc5582 = loc("reshape.16092")
#loc5583 = loc("reshape.16094")
#loc5584 = loc("broadcast.16512")
#loc5585 = loc("add.16513")
#loc5586 = loc("reshape.16514")
#loc5587 = loc("transpose.16515")
#loc5588 = loc("slice.16516")
#loc5589 = loc("multiply.16534")
#loc5590 = loc("slice.16521")
#loc5591 = loc("multiply.16531")
#loc5592 = loc("subtract.16537")
#loc5593 = loc("multiply.16524")
#loc5594 = loc("multiply.16519")
#loc5595 = loc("add.16527")
#loc5596 = loc("concatenate.16538")
#loc5598 = loc("broadcast.16678")
#loc5599 = loc("reshape.16679")
#loc5600 = loc("transpose.16680")
#loc5601 = loc("dot.16723")
#loc5602 = loc("multiply.16726")
#loc5603 = loc("add.16731")
#loc5604 = loc("reshape.16666")
#loc5605 = loc("reshape.16671")
#loc5606 = loc("broadcast.16672")
#loc5607 = loc("concatenate.16732")
#loc5608 = loc("reduce.16739")
#loc5609 = loc("broadcast.16775")
#loc5610 = loc("subtract.16776")
#loc5611 = loc("reduce.16782")
#loc5612 = loc("broadcast.16783")
#loc5613 = loc("subtract.16784")
#loc5614 = loc("exponential.16785")
#loc5615 = loc("reduce.16791")
#loc5616 = loc("broadcast.16792")
#loc5617 = loc("divide.16793")
#loc5618 = loc("slice.16794")
#loc5619 = loc("reshape.16565")
#loc5620 = loc("reshape.16567")
#loc5621 = loc("transpose.16568")
#loc5623 = loc("reshape.16571")
#loc5624 = loc("reshape.16561")
#loc5625 = loc("reshape.16563")
#loc5626 = loc("broadcast.16574")
#loc5627 = loc("add.16575")
#loc5628 = loc("reshape.16576")
#loc5629 = loc("transpose.16577")
#loc5631 = loc("broadcast.16662")
#loc5632 = loc("reshape.16663")
#loc5633 = loc("dot.16795")
#loc5634 = loc("transpose.16797")
#loc5635 = loc("reshape.16799")
#loc5636 = loc("reshape.16655")
#loc5637 = loc("reshape.16657")
#loc5638 = loc("transpose.16658")
#loc5640 = loc("reshape.16801")
#loc5641 = loc("reshape.16651")
#loc5642 = loc("reshape.16653")
#loc5643 = loc("broadcast.16804")
#loc5644 = loc("add.16805")
#loc5645 = loc("add.16808")
#loc5646 = loc("reshape.16640")
#loc5647 = loc("reshape.16642")
#loc5648 = loc("custom-call.16841")
#loc5649 = loc("reshape.16934")
#loc5650 = loc("concatenate.16935")
#loc5652 = loc("reshape.16927")
#loc5653 = loc("reshape.16929")
#loc5654 = loc("broadcast.16942")
#loc5655 = loc("add.16943")
#loc5656 = loc("slice.16956")
#loc5657 = loc("clamp.16959")
#loc5658 = loc("add.16962")
#loc5659 = loc("slice.16944")
#loc5660 = loc("clamp.16947")
#loc5661 = loc("multiply.16949")
#loc5662 = loc("logistic.16950")
#loc5663 = loc("multiply.16951")
#loc5664 = loc("multiply.16963")
#loc5665 = loc("dot.16964")
#loc5666 = loc("reshape.16915")
#loc5667 = loc("reshape.16917")
#loc5668 = loc("broadcast.16968")
#loc5669 = loc("add.16969")
#loc5670 = loc("reshape.16970")
#loc5671 = loc("convert.16843")
#loc5672 = loc("reshape.16631")
#loc5673 = loc("reshape.16636")
#loc5674 = loc("transpose.16637")
#loc5675 = loc("convert.16638")
#loc5677 = loc("reshape.16623")
#loc5678 = loc("reshape.16625")
#loc5679 = loc("convert.16626")
#loc5680 = loc("broadcast.16849")
#loc5681 = loc("add.16850")
#loc5682 = loc("convert.16851")
#loc5683 = loc("broadcast.16896")
#loc5684 = loc("compare.16897")
#loc5685 = loc("convert.16898")
#loc5686 = loc("convert.16899")
#loc5687 = loc("reduce.16878")
#loc5688 = loc("broadcast.16879")
#loc5689 = loc("subtract.16880")
#loc5690 = loc("exponential.16881")
#loc5691 = loc("reduce.16887")
#loc5692 = loc("broadcast.16888")
#loc5693 = loc("divide.16889")
#loc5694 = loc("broadcast.16901")
#loc5695 = loc("multiply.16902")
#loc5696 = loc("reduce.16909")
#loc5697 = loc("transpose.16910")
#loc5698 = loc("reshape.16911")
#loc5699 = loc("broadcast.16972")
#loc5700 = loc("multiply.16973")
#loc5702 = loc("add.16983")
#loc5703 = loc("reshape.16611")
#loc5704 = loc("reshape.16613")
#loc5705 = loc("custom-call.17016")
#loc5706 = loc("reshape.17202")
#loc5707 = loc("reshape.17198")
#loc5708 = loc("reshape.17200")
#loc5709 = loc("transpose.17201")
#loc5711 = loc("reshape.17204")
#loc5712 = loc("reshape.17194")
#loc5713 = loc("reshape.17196")
#loc5714 = loc("broadcast.17207")
#loc5715 = loc("add.17208")
#loc5716 = loc("reshape.17209")
#loc5717 = loc("transpose.17210")
#loc5718 = loc("slice.17211")
#loc5719 = loc("multiply.17228")
#loc5720 = loc("slice.17215")
#loc5721 = loc("multiply.17225")
#loc5722 = loc("subtract.17231")
#loc5723 = loc("multiply.17218")
#loc5724 = loc("multiply.17214")
#loc5725 = loc("add.17221")
#loc5726 = loc("concatenate.17232")
#loc5727 = loc("reshape.16606")
#loc5728 = loc("reshape.16608")
#loc5729 = loc("transpose.16609")
#loc5731 = loc("reshape.17019")
#loc5732 = loc("reshape.16602")
#loc5733 = loc("reshape.16604")
#loc5734 = loc("broadcast.17022")
#loc5735 = loc("add.17023")
#loc5736 = loc("reshape.17024")
#loc5737 = loc("transpose.17025")
#loc5738 = loc("slice.17026")
#loc5739 = loc("multiply.17044")
#loc5740 = loc("slice.17031")
#loc5741 = loc("multiply.17041")
#loc5742 = loc("subtract.17047")
#loc5743 = loc("multiply.17034")
#loc5744 = loc("multiply.17029")
#loc5745 = loc("add.17037")
#loc5746 = loc("concatenate.17048")
#loc5748 = loc("broadcast.17188")
#loc5749 = loc("reshape.17189")
#loc5750 = loc("transpose.17190")
#loc5751 = loc("dot.17233")
#loc5752 = loc("multiply.17236")
#loc5753 = loc("add.17241")
#loc5754 = loc("reshape.17176")
#loc5755 = loc("reshape.17181")
#loc5756 = loc("broadcast.17182")
#loc5757 = loc("concatenate.17242")
#loc5758 = loc("reduce.17249")
#loc5759 = loc("broadcast.17285")
#loc5760 = loc("subtract.17286")
#loc5761 = loc("reduce.17292")
#loc5762 = loc("broadcast.17293")
#loc5763 = loc("subtract.17294")
#loc5764 = loc("exponential.17295")
#loc5765 = loc("reduce.17301")
#loc5766 = loc("broadcast.17302")
#loc5767 = loc("divide.17303")
#loc5768 = loc("slice.17304")
#loc5769 = loc("reshape.17075")
#loc5770 = loc("reshape.17077")
#loc5771 = loc("transpose.17078")
#loc5773 = loc("reshape.17081")
#loc5774 = loc("reshape.17071")
#loc5775 = loc("reshape.17073")
#loc5776 = loc("broadcast.17084")
#loc5777 = loc("add.17085")
#loc5778 = loc("reshape.17086")
#loc5779 = loc("transpose.17087")
#loc5781 = loc("broadcast.17172")
#loc5782 = loc("reshape.17173")
#loc5783 = loc("dot.17305")
#loc5784 = loc("transpose.17307")
#loc5785 = loc("reshape.17309")
#loc5786 = loc("reshape.17165")
#loc5787 = loc("reshape.17167")
#loc5788 = loc("transpose.17168")
#loc5790 = loc("reshape.17311")
#loc5791 = loc("reshape.17161")
#loc5792 = loc("reshape.17163")
#loc5793 = loc("broadcast.17314")
#loc5794 = loc("add.17315")
#loc5795 = loc("add.17318")
#loc5796 = loc("reshape.17150")
#loc5797 = loc("reshape.17152")
#loc5798 = loc("custom-call.17351")
#loc5799 = loc("reshape.17444")
#loc5800 = loc("concatenate.17445")
#loc5802 = loc("reshape.17437")
#loc5803 = loc("reshape.17439")
#loc5804 = loc("broadcast.17452")
#loc5805 = loc("add.17453")
#loc5806 = loc("slice.17466")
#loc5807 = loc("clamp.17469")
#loc5808 = loc("add.17472")
#loc5809 = loc("slice.17454")
#loc5810 = loc("clamp.17457")
#loc5811 = loc("multiply.17459")
#loc5812 = loc("logistic.17460")
#loc5813 = loc("multiply.17461")
#loc5814 = loc("multiply.17473")
#loc5815 = loc("dot.17474")
#loc5816 = loc("reshape.17425")
#loc5817 = loc("reshape.17427")
#loc5818 = loc("broadcast.17478")
#loc5819 = loc("add.17479")
#loc5820 = loc("reshape.17480")
#loc5821 = loc("convert.17353")
#loc5822 = loc("reshape.17141")
#loc5823 = loc("reshape.17146")
#loc5824 = loc("transpose.17147")
#loc5825 = loc("convert.17148")
#loc5827 = loc("reshape.17133")
#loc5828 = loc("reshape.17135")
#loc5829 = loc("convert.17136")
#loc5830 = loc("broadcast.17359")
#loc5831 = loc("add.17360")
#loc5832 = loc("convert.17361")
#loc5833 = loc("broadcast.17406")
#loc5834 = loc("compare.17407")
#loc5835 = loc("convert.17408")
#loc5836 = loc("convert.17409")
#loc5837 = loc("reduce.17388")
#loc5838 = loc("broadcast.17389")
#loc5839 = loc("subtract.17390")
#loc5840 = loc("exponential.17391")
#loc5841 = loc("reduce.17397")
#loc5842 = loc("broadcast.17398")
#loc5843 = loc("divide.17399")
#loc5844 = loc("broadcast.17411")
#loc5845 = loc("multiply.17412")
#loc5846 = loc("reduce.17419")
#loc5847 = loc("transpose.17420")
#loc5848 = loc("reshape.17421")
#loc5849 = loc("broadcast.17482")
#loc5850 = loc("multiply.17483")
#loc5852 = loc("add.17493")
#loc5853 = loc("reshape.17121")
#loc5854 = loc("reshape.17123")
#loc5855 = loc("custom-call.17526")
#loc5856 = loc("reshape.17712")
#loc5857 = loc("reshape.17708")
#loc5858 = loc("reshape.17710")
#loc5859 = loc("transpose.17711")
#loc5861 = loc("reshape.17714")
#loc5862 = loc("reshape.17704")
#loc5863 = loc("reshape.17706")
#loc5864 = loc("broadcast.17717")
#loc5865 = loc("add.17718")
#loc5866 = loc("reshape.17719")
#loc5867 = loc("transpose.17720")
#loc5868 = loc("slice.17721")
#loc5869 = loc("multiply.17738")
#loc5870 = loc("slice.17725")
#loc5871 = loc("multiply.17735")
#loc5872 = loc("subtract.17741")
#loc5873 = loc("multiply.17728")
#loc5874 = loc("multiply.17724")
#loc5875 = loc("add.17731")
#loc5876 = loc("concatenate.17742")
#loc5877 = loc("reshape.17116")
#loc5878 = loc("reshape.17118")
#loc5879 = loc("transpose.17119")
#loc5881 = loc("reshape.17529")
#loc5882 = loc("reshape.17112")
#loc5883 = loc("reshape.17114")
#loc5884 = loc("broadcast.17532")
#loc5885 = loc("add.17533")
#loc5886 = loc("reshape.17534")
#loc5887 = loc("transpose.17535")
#loc5888 = loc("slice.17536")
#loc5889 = loc("multiply.17554")
#loc5890 = loc("slice.17541")
#loc5891 = loc("multiply.17551")
#loc5892 = loc("subtract.17557")
#loc5893 = loc("multiply.17544")
#loc5894 = loc("multiply.17539")
#loc5895 = loc("add.17547")
#loc5896 = loc("concatenate.17558")
#loc5898 = loc("broadcast.17698")
#loc5899 = loc("reshape.17699")
#loc5900 = loc("transpose.17700")
#loc5901 = loc("dot.17743")
#loc5902 = loc("multiply.17746")
#loc5903 = loc("add.17751")
#loc5904 = loc("reshape.17686")
#loc5905 = loc("reshape.17691")
#loc5906 = loc("broadcast.17692")
#loc5907 = loc("concatenate.17752")
#loc5908 = loc("reduce.17759")
#loc5909 = loc("broadcast.17795")
#loc5910 = loc("subtract.17796")
#loc5911 = loc("reduce.17802")
#loc5912 = loc("broadcast.17803")
#loc5913 = loc("subtract.17804")
#loc5914 = loc("exponential.17805")
#loc5915 = loc("reduce.17811")
#loc5916 = loc("broadcast.17812")
#loc5917 = loc("divide.17813")
#loc5918 = loc("slice.17814")
#loc5919 = loc("reshape.17585")
#loc5920 = loc("reshape.17587")
#loc5921 = loc("transpose.17588")
#loc5923 = loc("reshape.17591")
#loc5924 = loc("reshape.17581")
#loc5925 = loc("reshape.17583")
#loc5926 = loc("broadcast.17594")
#loc5927 = loc("add.17595")
#loc5928 = loc("reshape.17596")
#loc5929 = loc("transpose.17597")
#loc5931 = loc("broadcast.17682")
#loc5932 = loc("reshape.17683")
#loc5933 = loc("dot.17815")
#loc5934 = loc("transpose.17817")
#loc5935 = loc("reshape.17819")
#loc5936 = loc("reshape.17675")
#loc5937 = loc("reshape.17677")
#loc5938 = loc("transpose.17678")
#loc5940 = loc("reshape.17821")
#loc5941 = loc("reshape.17671")
#loc5942 = loc("reshape.17673")
#loc5943 = loc("broadcast.17824")
#loc5944 = loc("add.17825")
#loc5945 = loc("add.17828")
#loc5946 = loc("reshape.17660")
#loc5947 = loc("reshape.17662")
#loc5948 = loc("custom-call.17861")
#loc5949 = loc("reshape.17954")
#loc5950 = loc("concatenate.17955")
#loc5952 = loc("reshape.17947")
#loc5953 = loc("reshape.17949")
#loc5954 = loc("broadcast.17962")
#loc5955 = loc("add.17963")
#loc5956 = loc("slice.17976")
#loc5957 = loc("clamp.17979")
#loc5958 = loc("add.17982")
#loc5959 = loc("slice.17964")
#loc5960 = loc("clamp.17967")
#loc5961 = loc("multiply.17969")
#loc5962 = loc("logistic.17970")
#loc5963 = loc("multiply.17971")
#loc5964 = loc("multiply.17983")
#loc5965 = loc("dot.17984")
#loc5966 = loc("reshape.17935")
#loc5967 = loc("reshape.17937")
#loc5968 = loc("broadcast.17988")
#loc5969 = loc("add.17989")
#loc5970 = loc("reshape.17990")
#loc5971 = loc("convert.17863")
#loc5972 = loc("reshape.17651")
#loc5973 = loc("reshape.17656")
#loc5974 = loc("transpose.17657")
#loc5975 = loc("convert.17658")
#loc5977 = loc("reshape.17643")
#loc5978 = loc("reshape.17645")
#loc5979 = loc("convert.17646")
#loc5980 = loc("broadcast.17869")
#loc5981 = loc("add.17870")
#loc5982 = loc("convert.17871")
#loc5983 = loc("broadcast.17916")
#loc5984 = loc("compare.17917")
#loc5985 = loc("convert.17918")
#loc5986 = loc("convert.17919")
#loc5987 = loc("reduce.17898")
#loc5988 = loc("broadcast.17899")
#loc5989 = loc("subtract.17900")
#loc5990 = loc("exponential.17901")
#loc5991 = loc("reduce.17907")
#loc5992 = loc("broadcast.17908")
#loc5993 = loc("divide.17909")
#loc5994 = loc("broadcast.17921")
#loc5995 = loc("multiply.17922")
#loc5996 = loc("reduce.17929")
#loc5997 = loc("transpose.17930")
#loc5998 = loc("reshape.17931")
#loc5999 = loc("broadcast.17992")
#loc6000 = loc("multiply.17993")
#loc6002 = loc("add.18003")
#loc6003 = loc("reshape.17631")
#loc6004 = loc("reshape.17633")
#loc6005 = loc("custom-call.18036")
#loc6006 = loc("reshape.18221")
#loc6007 = loc("reshape.18217")
#loc6008 = loc("reshape.18219")
#loc6009 = loc("transpose.18220")
#loc6011 = loc("reshape.18223")
#loc6012 = loc("reshape.18213")
#loc6013 = loc("reshape.18215")
#loc6014 = loc("broadcast.18226")
#loc6015 = loc("add.18227")
#loc6016 = loc("reshape.18228")
#loc6017 = loc("transpose.18229")
#loc6018 = loc("slice.18230")
#loc6019 = loc("multiply.18247")
#loc6020 = loc("slice.18234")
#loc6021 = loc("multiply.18244")
#loc6022 = loc("subtract.18250")
#loc6023 = loc("multiply.18237")
#loc6024 = loc("multiply.18233")
#loc6025 = loc("add.18240")
#loc6026 = loc("concatenate.18251")
#loc6027 = loc("reshape.17626")
#loc6028 = loc("reshape.17628")
#loc6029 = loc("transpose.17629")
#loc6031 = loc("reshape.18039")
#loc6032 = loc("reshape.17622")
#loc6033 = loc("reshape.17624")
#loc6034 = loc("broadcast.18042")
#loc6035 = loc("add.18043")
#loc6036 = loc("reshape.18044")
#loc6037 = loc("transpose.18045")
#loc6038 = loc("slice.18046")
#loc6039 = loc("multiply.18064")
#loc6040 = loc("slice.18051")
#loc6041 = loc("multiply.18061")
#loc6042 = loc("subtract.18067")
#loc6043 = loc("multiply.18054")
#loc6044 = loc("multiply.18049")
#loc6045 = loc("add.18057")
#loc6046 = loc("concatenate.18068")
#loc6048 = loc("broadcast.18207")
#loc6049 = loc("reshape.18208")
#loc6050 = loc("transpose.18209")
#loc6051 = loc("dot.18252")
#loc6052 = loc("multiply.18255")
#loc6053 = loc("add.18260")
#loc6054 = loc("reshape.18195")
#loc6055 = loc("reshape.18200")
#loc6056 = loc("broadcast.18201")
#loc6057 = loc("concatenate.18261")
#loc6058 = loc("reshape.18095")
#loc6059 = loc("reshape.18097")
#loc6060 = loc("transpose.18098")
#loc6062 = loc("reshape.18101")
#loc6063 = loc("reshape.18091")
#loc6064 = loc("reshape.18093")
#loc6065 = loc("broadcast.18104")
#loc6066 = loc("add.18105")
#loc6067 = loc("reshape.18106")
#loc6068 = loc("transpose.18107")
#loc6070 = loc("slice.18130")
#loc6071 = loc("add.18133")
#loc6072 = loc("reduce.18268")
#loc6073 = loc("broadcast.18304")
#loc6074 = loc("subtract.18305")
#loc6075 = loc("reduce.18311")
#loc6076 = loc("broadcast.18312")
#loc6077 = loc("subtract.18313")
#loc6078 = loc("exponential.18314")
#loc6079 = loc("reduce.18320")
#loc6080 = loc("broadcast.18321")
#loc6081 = loc("divide.18322")
#loc6082 = loc("slice.18323")
#loc6083 = loc("broadcast.18191")
#loc6084 = loc("reshape.18192")
#loc6085 = loc("dot.18324")
#loc6086 = loc("transpose.18326")
#loc6087 = loc("reshape.18328")
#loc6088 = loc("reshape.18184")
#loc6089 = loc("reshape.18186")
#loc6090 = loc("transpose.18187")
#loc6092 = loc("reshape.18330")
#loc6093 = loc("reshape.18180")
#loc6094 = loc("reshape.18182")
#loc6095 = loc("broadcast.18333")
#loc6096 = loc("add.18334")
#loc6097 = loc("add.18337")
#loc6098 = loc("reshape.18169")
#loc6099 = loc("reshape.18171")
#loc6100 = loc("custom-call.18370")
#loc6101 = loc("reshape.18463")
#loc6102 = loc("concatenate.18464")
#loc6104 = loc("reshape.18456")
#loc6105 = loc("reshape.18458")
#loc6106 = loc("broadcast.18471")
#loc6107 = loc("add.18472")
#loc6108 = loc("slice.18485")
#loc6109 = loc("clamp.18488")
#loc6110 = loc("add.18491")
#loc6111 = loc("slice.18473")
#loc6112 = loc("clamp.18476")
#loc6113 = loc("multiply.18478")
#loc6114 = loc("logistic.18479")
#loc6115 = loc("multiply.18480")
#loc6116 = loc("multiply.18492")
#loc6117 = loc("dot.18493")
#loc6118 = loc("reshape.18444")
#loc6119 = loc("reshape.18446")
#loc6120 = loc("broadcast.18497")
#loc6121 = loc("add.18498")
#loc6122 = loc("reshape.18499")
#loc6123 = loc("convert.18372")
#loc6124 = loc("reshape.18160")
#loc6125 = loc("reshape.18165")
#loc6126 = loc("transpose.18166")
#loc6127 = loc("convert.18167")
#loc6129 = loc("reshape.18152")
#loc6130 = loc("reshape.18154")
#loc6131 = loc("convert.18155")
#loc6132 = loc("broadcast.18378")
#loc6133 = loc("add.18379")
#loc6134 = loc("convert.18380")
#loc6135 = loc("broadcast.18425")
#loc6136 = loc("compare.18426")
#loc6137 = loc("convert.18427")
#loc6138 = loc("convert.18428")
#loc6139 = loc("reduce.18407")
#loc6140 = loc("broadcast.18408")
#loc6141 = loc("subtract.18409")
#loc6142 = loc("exponential.18410")
#loc6143 = loc("reduce.18416")
#loc6144 = loc("broadcast.18417")
#loc6145 = loc("divide.18418")
#loc6146 = loc("broadcast.18430")
#loc6147 = loc("multiply.18431")
#loc6148 = loc("reduce.18438")
#loc6149 = loc("transpose.18439")
#loc6150 = loc("reshape.18440")
#loc6151 = loc("broadcast.18501")
#loc6152 = loc("multiply.18502")
#loc6154 = loc("add.18512")
#loc6155 = loc("reshape.18140")
#loc6156 = loc("reshape.18142")
#loc6157 = loc("custom-call.18545")
#loc6158 = loc("reshape.18546")
#loc6159 = loc("reshape.18135")
#loc6160 = loc("reshape.18137")
#loc6161 = loc("transpose.18138")
#loc6163 = loc("reshape.18548")
#loc6164 = loc("slice.18550")
#loc6165 = loc("reshape.18551")
#loc6166 = loc("iota.18554")
#loc6168 = loc("compare.18572")
#loc6169 = loc("select.18573")
#loc6170 = loc("compare.18575")
#loc6171 = loc("minimum.18576")
#loc6172 = loc("select.18574")
#loc6173 = loc("select.18577")
#loc6174 = loc("convert.18581")
#loc6175 = loc("reshape.18582")
#loc6176 = loc("iota.8693")
#loc6178 = loc("compare.8705")
#loc6179 = loc("slice.8710")
#loc6180 = loc("convert.8711")
#loc6181 = loc("slice.8708")
#loc6182 = loc("iota.14813")
#loc6184 = loc("compare.14825")
#loc6185 = loc("slice.14830")
#loc6186 = loc("convert.14831")
#loc6187 = loc("slice.14828")
#loc6188 = loc("iota.3083")
#loc6190 = loc("compare.3095")
#loc6191 = loc("slice.3100")
#loc6192 = loc("convert.3101")
#loc6193 = loc("slice.3098")
#loc6194 = loc("iota.5123")
#loc6196 = loc("compare.5135")
#loc6197 = loc("slice.5140")
#loc6198 = loc("convert.5141")
#loc6199 = loc("slice.5138")
#loc6200 = loc("iota.8183")
#loc6202 = loc("compare.8195")
#loc6203 = loc("slice.8200")
#loc6204 = loc("convert.8201")
#loc6205 = loc("slice.8198")
#loc6206 = loc("iota.4613")
#loc6208 = loc("compare.4625")
#loc6209 = loc("slice.4630")
#loc6210 = loc("convert.4631")
#loc6211 = loc("slice.4628")
#loc6212 = loc("iota.7163")
#loc6214 = loc("compare.7175")
#loc6215 = loc("slice.7180")
#loc6216 = loc("convert.7181")
#loc6217 = loc("slice.7178")
#loc6218 = loc("iota.11753")
#loc6220 = loc("compare.11765")
#loc6221 = loc("slice.11770")
#loc6222 = loc("convert.11771")
#loc6223 = loc("slice.11768")
#loc6224 = loc("iota.12263")
#loc6226 = loc("compare.12275")
#loc6227 = loc("slice.12280")
#loc6228 = loc("convert.12281")
#loc6229 = loc("slice.12278")
#loc6230 = loc("iota.14303")
#loc6232 = loc("compare.14315")
#loc6233 = loc("slice.14320")
#loc6234 = loc("convert.14321")
#loc6235 = loc("slice.14318")
#loc6236 = loc("iota.11243")
#loc6238 = loc("compare.11255")
#loc6239 = loc("slice.11260")
#loc6240 = loc("convert.11261")
#loc6241 = loc("slice.11258")
#loc6242 = loc("iota.13283")
#loc6244 = loc("compare.13295")
#loc6245 = loc("slice.13300")
#loc6246 = loc("convert.13301")
#loc6247 = loc("slice.13298")
#loc6248 = loc("iota.7673")
#loc6250 = loc("compare.7685")
#loc6251 = loc("slice.7690")
#loc6252 = loc("convert.7691")
#loc6253 = loc("slice.7688")
#loc6254 = loc("iota.10223")
#loc6256 = loc("compare.10235")
#loc6257 = loc("slice.10240")
#loc6258 = loc("convert.10241")
#loc6259 = loc("slice.10238")
#loc6260 = loc("iota.17363")
#loc6262 = loc("compare.17375")
#loc6263 = loc("slice.17380")
#loc6264 = loc("convert.17381")
#loc6265 = loc("slice.17378")
#loc6266 = loc("iota.17873")
#loc6268 = loc("compare.17885")
#loc6269 = loc("slice.17890")
#loc6270 = loc("convert.17891")
#loc6271 = loc("slice.17888")
#loc6272 = loc("iota.497")
#loc6274 = loc("compare.509")
#loc6275 = loc("slice.514")
#loc6276 = loc("convert.515")
#loc6277 = loc("slice.512")
#loc6278 = loc("iota.4103")
#loc6280 = loc("compare.4115")
#loc6281 = loc("slice.4120")
#loc6282 = loc("convert.4121")
#loc6283 = loc("slice.4118")
#loc6284 = loc("iota.16343")
#loc6286 = loc("compare.16355")
#loc6287 = loc("slice.16360")
#loc6288 = loc("convert.16361")
#loc6289 = loc("slice.16358")
#loc6290 = loc("iota.15323")
#loc6292 = loc("compare.15335")
#loc6293 = loc("slice.15340")
#loc6294 = loc("convert.15341")
#loc6295 = loc("slice.15338")
#loc6296 = loc("iota.15833")
#loc6298 = loc("compare.15845")
#loc6299 = loc("slice.15850")
#loc6300 = loc("convert.15851")
#loc6301 = loc("slice.15848")
#loc6302 = loc("iota.2063")
#loc6304 = loc("compare.2075")
#loc6305 = loc("slice.2080")
#loc6306 = loc("convert.2081")
#loc6307 = loc("slice.2078")
#loc6308 = loc("iota.3593")
#loc6310 = loc("compare.3605")
#loc6311 = loc("slice.3610")
#loc6312 = loc("convert.3611")
#loc6313 = loc("slice.3608")
#loc6314 = loc("iota.1043")
#loc6316 = loc("compare.1055")
#loc6317 = loc("slice.1060")
#loc6318 = loc("convert.1061")
#loc6319 = loc("slice.1058")
#loc6320 = loc("iota.9203")
#loc6322 = loc("compare.9215")
#loc6323 = loc("slice.9220")
#loc6324 = loc("convert.9221")
#loc6325 = loc("slice.9218")
#loc6326 = loc("iota.18382")
#loc6328 = loc("compare.18394")
#loc6329 = loc("slice.18399")
#loc6330 = loc("convert.18400")
#loc6331 = loc("slice.18397")
#loc6332 = loc("iota.1553")
#loc6334 = loc("compare.1565")
#loc6335 = loc("slice.1570")
#loc6336 = loc("convert.1571")
#loc6337 = loc("slice.1568")
#loc6338 = loc("iota.6143")
#loc6340 = loc("compare.6155")
#loc6341 = loc("slice.6160")
#loc6342 = loc("convert.6161")
#loc6343 = loc("slice.6158")
#loc6344 = loc("iota.12773")
#loc6346 = loc("compare.12785")
#loc6347 = loc("slice.12790")
#loc6348 = loc("convert.12791")
#loc6349 = loc("slice.12788")
#loc6350 = loc("iota.13793")
#loc6352 = loc("compare.13805")
#loc6353 = loc("slice.13810")
#loc6354 = loc("convert.13811")
#loc6355 = loc("slice.13808")
#loc6356 = loc("iota.10733")
#loc6358 = loc("compare.10745")
#loc6359 = loc("slice.10750")
#loc6360 = loc("convert.10751")
#loc6361 = loc("slice.10748")
#loc6362 = loc("iota.9713")
#loc6364 = loc("compare.9725")
#loc6365 = loc("slice.9730")
#loc6366 = loc("convert.9731")
#loc6367 = loc("slice.9728")
#loc6368 = loc("iota.2573")
#loc6370 = loc("compare.2585")
#loc6371 = loc("slice.2590")
#loc6372 = loc("convert.2591")
#loc6373 = loc("slice.2588")
#loc6374 = loc("iota.6653")
#loc6376 = loc("compare.6665")
#loc6377 = loc("slice.6670")
#loc6378 = loc("convert.6671")
#loc6379 = loc("slice.6668")
#loc6380 = loc("iota.5633")
#loc6382 = loc("compare.5645")
#loc6383 = loc("slice.5650")
#loc6384 = loc("convert.5651")
#loc6385 = loc("slice.5648")
#loc6386 = loc("iota.16853")
#loc6388 = loc("compare.16865")
#loc6389 = loc("slice.16870")
#loc6390 = loc("convert.16871")
#loc6391 = loc("slice.16868")
