#loc1 = loc("p0.3")
#loc2 = loc("p1.11")
#loc3 = loc("p2.28")
#loc4 = loc("p3.32")
#loc5 = loc("p4.37")
#loc6 = loc("p5.46")
#loc7 = loc("p6.51")
#loc8 = loc("p7.140")
#loc9 = loc("p8.149")
#loc10 = loc("p9.153")
#loc11 = loc("p10.179")
#loc12 = loc("p11.190")
#loc13 = loc("p12.194")
#loc14 = loc("p13.199")
#loc15 = loc("p14.211")
#loc16 = loc("p15.219")
#loc17 = loc("p16.228")
#loc18 = loc("p17.239")
#loc19 = loc("p18.243")
#loc20 = loc("p19.254")
#loc21 = loc("p20.269")
#loc22 = loc("p21.304")
#loc23 = loc("p22.327")
#loc24 = loc("p23.331")
#loc25 = loc("p24.558")
#loc26 = loc("p25.563")
#loc27 = loc("p26.570")
#loc28 = loc("p27.575")
#loc29 = loc("p28.705")
#loc30 = loc("p29.714")
#loc31 = loc("p30.718")
#loc32 = loc("p31.744")
#loc33 = loc("p32.755")
#loc34 = loc("p33.759")
#loc35 = loc("p34.764")
#loc36 = loc("p35.776")
#loc37 = loc("p36.784")
#loc38 = loc("p37.793")
#loc39 = loc("p38.804")
#loc40 = loc("p39.808")
#loc41 = loc("p40.819")
#loc42 = loc("p41.834")
#loc43 = loc("p42.873")
#loc44 = loc("p43.877")
#loc45 = loc("p44.1104")
#loc46 = loc("p45.1109")
#loc47 = loc("p46.1116")
#loc48 = loc("p47.1121")
#loc49 = loc("p48.1251")
#loc50 = loc("p49.1260")
#loc51 = loc("p50.1264")
#loc52 = loc("p51.1290")
#loc53 = loc("p52.1301")
#loc54 = loc("p53.1305")
#loc55 = loc("p54.1310")
#loc56 = loc("p55.1322")
#loc57 = loc("p56.1330")
#loc58 = loc("p57.1339")
#loc59 = loc("p58.1350")
#loc60 = loc("p59.1354")
#loc61 = loc("p60.1365")
#loc62 = loc("p61.1383")
#loc63 = loc("p62.1387")
#loc64 = loc("p63.1614")
#loc65 = loc("p64.1619")
#loc66 = loc("p65.1626")
#loc67 = loc("p66.1631")
#loc68 = loc("p67.1761")
#loc69 = loc("p68.1770")
#loc70 = loc("p69.1774")
#loc71 = loc("p70.1800")
#loc72 = loc("p71.1811")
#loc73 = loc("p72.1815")
#loc74 = loc("p73.1820")
#loc75 = loc("p74.1832")
#loc76 = loc("p75.1840")
#loc77 = loc("p76.1849")
#loc78 = loc("p77.1860")
#loc79 = loc("p78.1864")
#loc80 = loc("p79.1875")
#loc81 = loc("p80.1893")
#loc82 = loc("p81.1897")
#loc83 = loc("p82.2124")
#loc84 = loc("p83.2129")
#loc85 = loc("p84.2136")
#loc86 = loc("p85.2141")
#loc87 = loc("p86.2271")
#loc88 = loc("p87.2280")
#loc89 = loc("p88.2284")
#loc90 = loc("p89.2310")
#loc91 = loc("p90.2321")
#loc92 = loc("p91.2325")
#loc93 = loc("p92.2330")
#loc94 = loc("p93.2342")
#loc95 = loc("p94.2350")
#loc96 = loc("p95.2359")
#loc97 = loc("p96.2370")
#loc98 = loc("p97.2374")
#loc99 = loc("p98.2385")
#loc100 = loc("p99.2403")
#loc101 = loc("p100.2407")
#loc102 = loc("p101.2634")
#loc103 = loc("p102.2639")
#loc104 = loc("p103.2646")
#loc105 = loc("p104.2651")
#loc106 = loc("p105.2781")
#loc107 = loc("p106.2790")
#loc108 = loc("p107.2794")
#loc109 = loc("p108.2820")
#loc110 = loc("p109.2831")
#loc111 = loc("p110.2835")
#loc112 = loc("p111.2840")
#loc113 = loc("p112.2852")
#loc114 = loc("p113.2860")
#loc115 = loc("p114.2869")
#loc116 = loc("p115.2880")
#loc117 = loc("p116.2884")
#loc118 = loc("p117.2895")
#loc119 = loc("p118.2913")
#loc120 = loc("p119.2917")
#loc121 = loc("p120.3144")
#loc122 = loc("p121.3149")
#loc123 = loc("p122.3156")
#loc124 = loc("p123.3161")
#loc125 = loc("p124.3291")
#loc126 = loc("p125.3300")
#loc127 = loc("p126.3304")
#loc128 = loc("p127.3330")
#loc129 = loc("p128.3341")
#loc130 = loc("p129.3345")
#loc131 = loc("p130.3350")
#loc132 = loc("p131.3362")
#loc133 = loc("p132.3370")
#loc134 = loc("p133.3379")
#loc135 = loc("p134.3390")
#loc136 = loc("p135.3394")
#loc137 = loc("p136.3405")
#loc138 = loc("p137.3423")
#loc139 = loc("p138.3427")
#loc140 = loc("p139.3654")
#loc141 = loc("p140.3659")
#loc142 = loc("p141.3666")
#loc143 = loc("p142.3671")
#loc144 = loc("p143.3801")
#loc145 = loc("p144.3810")
#loc146 = loc("p145.3814")
#loc147 = loc("p146.3840")
#loc148 = loc("p147.3851")
#loc149 = loc("p148.3855")
#loc150 = loc("p149.3860")
#loc151 = loc("p150.3872")
#loc152 = loc("p151.3880")
#loc153 = loc("p152.3889")
#loc154 = loc("p153.3900")
#loc155 = loc("p154.3904")
#loc156 = loc("p155.3915")
#loc157 = loc("p156.3933")
#loc158 = loc("p157.3937")
#loc159 = loc("p158.4164")
#loc160 = loc("p159.4169")
#loc161 = loc("p160.4176")
#loc162 = loc("p161.4181")
#loc163 = loc("p162.4311")
#loc164 = loc("p163.4320")
#loc165 = loc("p164.4324")
#loc166 = loc("p165.4350")
#loc167 = loc("p166.4361")
#loc168 = loc("p167.4365")
#loc169 = loc("p168.4370")
#loc170 = loc("p169.4382")
#loc171 = loc("p170.4390")
#loc172 = loc("p171.4399")
#loc173 = loc("p172.4410")
#loc174 = loc("p173.4414")
#loc175 = loc("p174.4425")
#loc176 = loc("p175.4443")
#loc177 = loc("p176.4447")
#loc178 = loc("p177.4674")
#loc179 = loc("p178.4679")
#loc180 = loc("p179.4686")
#loc181 = loc("p180.4691")
#loc182 = loc("p181.4821")
#loc183 = loc("p182.4830")
#loc184 = loc("p183.4834")
#loc185 = loc("p184.4860")
#loc186 = loc("p185.4871")
#loc187 = loc("p186.4875")
#loc188 = loc("p187.4880")
#loc189 = loc("p188.4892")
#loc190 = loc("p189.4900")
#loc191 = loc("p190.4909")
#loc192 = loc("p191.4920")
#loc193 = loc("p192.4924")
#loc194 = loc("p193.4935")
#loc195 = loc("p194.4953")
#loc196 = loc("p195.4957")
#loc197 = loc("p196.5184")
#loc198 = loc("p197.5189")
#loc199 = loc("p198.5196")
#loc200 = loc("p199.5201")
#loc201 = loc("p200.5331")
#loc202 = loc("p201.5340")
#loc203 = loc("p202.5344")
#loc204 = loc("p203.5370")
#loc205 = loc("p204.5381")
#loc206 = loc("p205.5385")
#loc207 = loc("p206.5390")
#loc208 = loc("p207.5402")
#loc209 = loc("p208.5410")
#loc210 = loc("p209.5419")
#loc211 = loc("p210.5430")
#loc212 = loc("p211.5434")
#loc213 = loc("p212.5445")
#loc214 = loc("p213.5463")
#loc215 = loc("p214.5467")
#loc216 = loc("p215.5694")
#loc217 = loc("p216.5699")
#loc218 = loc("p217.5706")
#loc219 = loc("p218.5711")
#loc220 = loc("p219.5841")
#loc221 = loc("p220.5850")
#loc222 = loc("p221.5854")
#loc223 = loc("p222.5880")
#loc224 = loc("p223.5891")
#loc225 = loc("p224.5895")
#loc226 = loc("p225.5900")
#loc227 = loc("p226.5912")
#loc228 = loc("p227.5920")
#loc229 = loc("p228.5929")
#loc230 = loc("p229.5940")
#loc231 = loc("p230.5944")
#loc232 = loc("p231.5955")
#loc233 = loc("p232.5973")
#loc234 = loc("p233.5977")
#loc235 = loc("p234.6204")
#loc236 = loc("p235.6209")
#loc237 = loc("p236.6216")
#loc238 = loc("p237.6221")
#loc239 = loc("p238.6351")
#loc240 = loc("p239.6360")
#loc241 = loc("p240.6364")
#loc242 = loc("p241.6390")
#loc243 = loc("p242.6401")
#loc244 = loc("p243.6405")
#loc245 = loc("p244.6410")
#loc246 = loc("p245.6422")
#loc247 = loc("p246.6430")
#loc248 = loc("p247.6439")
#loc249 = loc("p248.6450")
#loc250 = loc("p249.6454")
#loc251 = loc("p250.6465")
#loc252 = loc("p251.6483")
#loc253 = loc("p252.6487")
#loc254 = loc("p253.6714")
#loc255 = loc("p254.6719")
#loc256 = loc("p255.6726")
#loc257 = loc("p256.6731")
#loc258 = loc("p257.6861")
#loc259 = loc("p258.6870")
#loc260 = loc("p259.6874")
#loc261 = loc("p260.6900")
#loc262 = loc("p261.6911")
#loc263 = loc("p262.6915")
#loc264 = loc("p263.6920")
#loc265 = loc("p264.6932")
#loc266 = loc("p265.6940")
#loc267 = loc("p266.6949")
#loc268 = loc("p267.6960")
#loc269 = loc("p268.6964")
#loc270 = loc("p269.6975")
#loc271 = loc("p270.6993")
#loc272 = loc("p271.6997")
#loc273 = loc("p272.7224")
#loc274 = loc("p273.7229")
#loc275 = loc("p274.7236")
#loc276 = loc("p275.7241")
#loc277 = loc("p276.7371")
#loc278 = loc("p277.7380")
#loc279 = loc("p278.7384")
#loc280 = loc("p279.7410")
#loc281 = loc("p280.7421")
#loc282 = loc("p281.7425")
#loc283 = loc("p282.7430")
#loc284 = loc("p283.7442")
#loc285 = loc("p284.7450")
#loc286 = loc("p285.7459")
#loc287 = loc("p286.7470")
#loc288 = loc("p287.7474")
#loc289 = loc("p288.7485")
#loc290 = loc("p289.7503")
#loc291 = loc("p290.7507")
#loc292 = loc("p291.7734")
#loc293 = loc("p292.7739")
#loc294 = loc("p293.7746")
#loc295 = loc("p294.7751")
#loc296 = loc("p295.7881")
#loc297 = loc("p296.7890")
#loc298 = loc("p297.7894")
#loc299 = loc("p298.7920")
#loc300 = loc("p299.7931")
#loc301 = loc("p300.7935")
#loc302 = loc("p301.7940")
#loc303 = loc("p302.7952")
#loc304 = loc("p303.7960")
#loc305 = loc("p304.7969")
#loc306 = loc("p305.7980")
#loc307 = loc("p306.7984")
#loc308 = loc("p307.7995")
#loc309 = loc("p308.8013")
#loc310 = loc("p309.8017")
#loc311 = loc("p310.8244")
#loc312 = loc("p311.8249")
#loc313 = loc("p312.8256")
#loc314 = loc("p313.8261")
#loc315 = loc("p314.8391")
#loc316 = loc("p315.8400")
#loc317 = loc("p316.8404")
#loc318 = loc("p317.8430")
#loc319 = loc("p318.8441")
#loc320 = loc("p319.8445")
#loc321 = loc("p320.8450")
#loc322 = loc("p321.8462")
#loc323 = loc("p322.8470")
#loc324 = loc("p323.8479")
#loc325 = loc("p324.8490")
#loc326 = loc("p325.8494")
#loc327 = loc("p326.8505")
#loc328 = loc("p327.8523")
#loc329 = loc("p328.8527")
#loc330 = loc("p329.8754")
#loc331 = loc("p330.8759")
#loc332 = loc("p331.8766")
#loc333 = loc("p332.8771")
#loc334 = loc("p333.8901")
#loc335 = loc("p334.8910")
#loc336 = loc("p335.8914")
#loc337 = loc("p336.8940")
#loc338 = loc("p337.8951")
#loc339 = loc("p338.8955")
#loc340 = loc("p339.8960")
#loc341 = loc("p340.8972")
#loc342 = loc("p341.8980")
#loc343 = loc("p342.8989")
#loc344 = loc("p343.9000")
#loc345 = loc("p344.9004")
#loc346 = loc("p345.9015")
#loc347 = loc("p346.9033")
#loc348 = loc("p347.9037")
#loc349 = loc("p348.9264")
#loc350 = loc("p349.9269")
#loc351 = loc("p350.9276")
#loc352 = loc("p351.9281")
#loc353 = loc("p352.9411")
#loc354 = loc("p353.9420")
#loc355 = loc("p354.9424")
#loc356 = loc("p355.9450")
#loc357 = loc("p356.9461")
#loc358 = loc("p357.9465")
#loc359 = loc("p358.9470")
#loc360 = loc("p359.9482")
#loc361 = loc("p360.9490")
#loc362 = loc("p361.9499")
#loc363 = loc("p362.9510")
#loc364 = loc("p363.9514")
#loc365 = loc("p364.9525")
#loc366 = loc("p365.9543")
#loc367 = loc("p366.9547")
#loc368 = loc("p367.9774")
#loc369 = loc("p368.9779")
#loc370 = loc("p369.9786")
#loc371 = loc("p370.9791")
#loc372 = loc("p371.9921")
#loc373 = loc("p372.9930")
#loc374 = loc("p373.9934")
#loc375 = loc("p374.9960")
#loc376 = loc("p375.9971")
#loc377 = loc("p376.9975")
#loc378 = loc("p377.9980")
#loc379 = loc("p378.9992")
#loc380 = loc("p379.10000")
#loc381 = loc("p380.10009")
#loc382 = loc("p381.10020")
#loc383 = loc("p382.10024")
#loc384 = loc("p383.10035")
#loc385 = loc("p384.10053")
#loc386 = loc("p385.10057")
#loc387 = loc("p386.10284")
#loc388 = loc("p387.10289")
#loc389 = loc("p388.10296")
#loc390 = loc("p389.10301")
#loc391 = loc("p390.10431")
#loc392 = loc("p391.10440")
#loc393 = loc("p392.10444")
#loc394 = loc("p393.10470")
#loc395 = loc("p394.10481")
#loc396 = loc("p395.10485")
#loc397 = loc("p396.10490")
#loc398 = loc("p397.10502")
#loc399 = loc("p398.10510")
#loc400 = loc("p399.10519")
#loc401 = loc("p400.10530")
#loc402 = loc("p401.10534")
#loc403 = loc("p402.10545")
#loc404 = loc("p403.10563")
#loc405 = loc("p404.10567")
#loc406 = loc("p405.10794")
#loc407 = loc("p406.10799")
#loc408 = loc("p407.10806")
#loc409 = loc("p408.10811")
#loc410 = loc("p409.10941")
#loc411 = loc("p410.10950")
#loc412 = loc("p411.10954")
#loc413 = loc("p412.10980")
#loc414 = loc("p413.10991")
#loc415 = loc("p414.10995")
#loc416 = loc("p415.11000")
#loc417 = loc("p416.11012")
#loc418 = loc("p417.11020")
#loc419 = loc("p418.11029")
#loc420 = loc("p419.11040")
#loc421 = loc("p420.11044")
#loc422 = loc("p421.11055")
#loc423 = loc("p422.11073")
#loc424 = loc("p423.11077")
#loc425 = loc("p424.11304")
#loc426 = loc("p425.11309")
#loc427 = loc("p426.11316")
#loc428 = loc("p427.11321")
#loc429 = loc("p428.11451")
#loc430 = loc("p429.11460")
#loc431 = loc("p430.11464")
#loc432 = loc("p431.11490")
#loc433 = loc("p432.11501")
#loc434 = loc("p433.11505")
#loc435 = loc("p434.11510")
#loc436 = loc("p435.11522")
#loc437 = loc("p436.11530")
#loc438 = loc("p437.11539")
#loc439 = loc("p438.11550")
#loc440 = loc("p439.11554")
#loc441 = loc("p440.11565")
#loc442 = loc("p441.11583")
#loc443 = loc("p442.11587")
#loc444 = loc("p443.11814")
#loc445 = loc("p444.11819")
#loc446 = loc("p445.11826")
#loc447 = loc("p446.11831")
#loc448 = loc("p447.11961")
#loc449 = loc("p448.11970")
#loc450 = loc("p449.11974")
#loc451 = loc("p450.12000")
#loc452 = loc("p451.12011")
#loc453 = loc("p452.12015")
#loc454 = loc("p453.12020")
#loc455 = loc("p454.12032")
#loc456 = loc("p455.12040")
#loc457 = loc("p456.12049")
#loc458 = loc("p457.12060")
#loc459 = loc("p458.12064")
#loc460 = loc("p459.12075")
#loc461 = loc("p460.12093")
#loc462 = loc("p461.12097")
#loc463 = loc("p462.12324")
#loc464 = loc("p463.12329")
#loc465 = loc("p464.12336")
#loc466 = loc("p465.12341")
#loc467 = loc("p466.12471")
#loc468 = loc("p467.12480")
#loc469 = loc("p468.12484")
#loc470 = loc("p469.12510")
#loc471 = loc("p470.12521")
#loc472 = loc("p471.12525")
#loc473 = loc("p472.12530")
#loc474 = loc("p473.12542")
#loc475 = loc("p474.12550")
#loc476 = loc("p475.12559")
#loc477 = loc("p476.12570")
#loc478 = loc("p477.12574")
#loc479 = loc("p478.12585")
#loc480 = loc("p479.12603")
#loc481 = loc("p480.12607")
#loc482 = loc("p481.12834")
#loc483 = loc("p482.12839")
#loc484 = loc("p483.12846")
#loc485 = loc("p484.12851")
#loc486 = loc("p485.12981")
#loc487 = loc("p486.12990")
#loc488 = loc("p487.12994")
#loc489 = loc("p488.13020")
#loc490 = loc("p489.13031")
#loc491 = loc("p490.13035")
#loc492 = loc("p491.13040")
#loc493 = loc("p492.13052")
#loc494 = loc("p493.13060")
#loc495 = loc("p494.13069")
#loc496 = loc("p495.13080")
#loc497 = loc("p496.13084")
#loc498 = loc("p497.13095")
#loc499 = loc("p498.13113")
#loc500 = loc("p499.13117")
#loc501 = loc("p500.13344")
#loc502 = loc("p501.13349")
#loc503 = loc("p502.13356")
#loc504 = loc("p503.13361")
#loc505 = loc("p504.13491")
#loc506 = loc("p505.13500")
#loc507 = loc("p506.13504")
#loc508 = loc("p507.13530")
#loc509 = loc("p508.13541")
#loc510 = loc("p509.13545")
#loc511 = loc("p510.13550")
#loc512 = loc("p511.13562")
#loc513 = loc("p512.13570")
#loc514 = loc("p513.13579")
#loc515 = loc("p514.13590")
#loc516 = loc("p515.13594")
#loc517 = loc("p516.13605")
#loc518 = loc("p517.13623")
#loc519 = loc("p518.13627")
#loc520 = loc("p519.13854")
#loc521 = loc("p520.13859")
#loc522 = loc("p521.13866")
#loc523 = loc("p522.13871")
#loc524 = loc("p523.14001")
#loc525 = loc("p524.14010")
#loc526 = loc("p525.14014")
#loc527 = loc("p526.14040")
#loc528 = loc("p527.14051")
#loc529 = loc("p528.14055")
#loc530 = loc("p529.14060")
#loc531 = loc("p530.14072")
#loc532 = loc("p531.14080")
#loc533 = loc("p532.14089")
#loc534 = loc("p533.14100")
#loc535 = loc("p534.14104")
#loc536 = loc("p535.14115")
#loc537 = loc("p536.14133")
#loc538 = loc("p537.14137")
#loc539 = loc("p538.14364")
#loc540 = loc("p539.14369")
#loc541 = loc("p540.14376")
#loc542 = loc("p541.14381")
#loc543 = loc("p542.14511")
#loc544 = loc("p543.14520")
#loc545 = loc("p544.14524")
#loc546 = loc("p545.14550")
#loc547 = loc("p546.14561")
#loc548 = loc("p547.14565")
#loc549 = loc("p548.14570")
#loc550 = loc("p549.14582")
#loc551 = loc("p550.14590")
#loc552 = loc("p551.14599")
#loc553 = loc("p552.14610")
#loc554 = loc("p553.14614")
#loc555 = loc("p554.14625")
#loc556 = loc("p555.14643")
#loc557 = loc("p556.14647")
#loc558 = loc("p557.14874")
#loc559 = loc("p558.14879")
#loc560 = loc("p559.14886")
#loc561 = loc("p560.14891")
#loc562 = loc("p561.15021")
#loc563 = loc("p562.15030")
#loc564 = loc("p563.15034")
#loc565 = loc("p564.15060")
#loc566 = loc("p565.15071")
#loc567 = loc("p566.15075")
#loc568 = loc("p567.15080")
#loc569 = loc("p568.15092")
#loc570 = loc("p569.15100")
#loc571 = loc("p570.15109")
#loc572 = loc("p571.15120")
#loc573 = loc("p572.15124")
#loc574 = loc("p573.15135")
#loc575 = loc("p574.15153")
#loc576 = loc("p575.15157")
#loc577 = loc("p576.15384")
#loc578 = loc("p577.15389")
#loc579 = loc("p578.15396")
#loc580 = loc("p579.15401")
#loc581 = loc("p580.15531")
#loc582 = loc("p581.15540")
#loc583 = loc("p582.15544")
#loc584 = loc("p583.15570")
#loc585 = loc("p584.15581")
#loc586 = loc("p585.15585")
#loc587 = loc("p586.15590")
#loc588 = loc("p587.15602")
#loc589 = loc("p588.15610")
#loc590 = loc("p589.15619")
#loc591 = loc("p590.15630")
#loc592 = loc("p591.15634")
#loc593 = loc("p592.15645")
#loc594 = loc("p593.15663")
#loc595 = loc("p594.15667")
#loc596 = loc("p595.15894")
#loc597 = loc("p596.15899")
#loc598 = loc("p597.15906")
#loc599 = loc("p598.15911")
#loc600 = loc("p599.16041")
#loc601 = loc("p600.16050")
#loc602 = loc("p601.16054")
#loc603 = loc("p602.16080")
#loc604 = loc("p603.16091")
#loc605 = loc("p604.16095")
#loc606 = loc("p605.16100")
#loc607 = loc("p606.16112")
#loc608 = loc("p607.16120")
#loc609 = loc("p608.16129")
#loc610 = loc("p609.16140")
#loc611 = loc("p610.16144")
#loc612 = loc("p611.16155")
#loc613 = loc("p612.16173")
#loc614 = loc("p613.16177")
#loc615 = loc("p614.16404")
#loc616 = loc("p615.16409")
#loc617 = loc("p616.16416")
#loc618 = loc("p617.16421")
#loc619 = loc("p618.16551")
#loc620 = loc("p619.16560")
#loc621 = loc("p620.16564")
#loc622 = loc("p621.16590")
#loc623 = loc("p622.16601")
#loc624 = loc("p623.16605")
#loc625 = loc("p624.16610")
#loc626 = loc("p625.16622")
#loc627 = loc("p626.16630")
#loc628 = loc("p627.16639")
#loc629 = loc("p628.16650")
#loc630 = loc("p629.16654")
#loc631 = loc("p630.16665")
#loc632 = loc("p631.16683")
#loc633 = loc("p632.16687")
#loc634 = loc("p633.16914")
#loc635 = loc("p634.16919")
#loc636 = loc("p635.16926")
#loc637 = loc("p636.16931")
#loc638 = loc("p637.17061")
#loc639 = loc("p638.17070")
#loc640 = loc("p639.17074")
#loc641 = loc("p640.17100")
#loc642 = loc("p641.17111")
#loc643 = loc("p642.17115")
#loc644 = loc("p643.17120")
#loc645 = loc("p644.17132")
#loc646 = loc("p645.17140")
#loc647 = loc("p646.17149")
#loc648 = loc("p647.17160")
#loc649 = loc("p648.17164")
#loc650 = loc("p649.17175")
#loc651 = loc("p650.17193")
#loc652 = loc("p651.17197")
#loc653 = loc("p652.17424")
#loc654 = loc("p653.17429")
#loc655 = loc("p654.17436")
#loc656 = loc("p655.17441")
#loc657 = loc("p656.17571")
#loc658 = loc("p657.17580")
#loc659 = loc("p658.17584")
#loc660 = loc("p659.17610")
#loc661 = loc("p660.17621")
#loc662 = loc("p661.17625")
#loc663 = loc("p662.17630")
#loc664 = loc("p663.17642")
#loc665 = loc("p664.17650")
#loc666 = loc("p665.17659")
#loc667 = loc("p666.17670")
#loc668 = loc("p667.17674")
#loc669 = loc("p668.17685")
#loc670 = loc("p669.17703")
#loc671 = loc("p670.17707")
#loc672 = loc("p671.17934")
#loc673 = loc("p672.17939")
#loc674 = loc("p673.17946")
#loc675 = loc("p674.17951")
#loc676 = loc("p675.18081")
#loc677 = loc("p676.18090")
#loc678 = loc("p677.18094")
#loc679 = loc("p678.18120")
#loc680 = loc("p679.18134")
#loc681 = loc("p680.18139")
#loc682 = loc("p681.18151")
#loc683 = loc("p682.18159")
#loc684 = loc("p683.18168")
#loc685 = loc("p684.18179")
#loc686 = loc("p685.18183")
#loc687 = loc("p686.18194")
#loc688 = loc("p687.18212")
#loc689 = loc("p688.18216")
#loc690 = loc("p689.18443")
#loc691 = loc("p690.18448")
#loc692 = loc("p691.18455")
#loc693 = loc("p692.18460")
module @SyncTensorsGraph.18584 attributes {mhlo.cross_program_prefetches = [], mhlo.input_output_alias = [], mhlo.is_dynamic = false, mhlo.use_auto_spmd_partitioning = false, ttcore.meshes = #ttcore.meshes<[<"mesh" = 4x8>]>} {
  ttcore.device_module {
    builtin.module @SyncTensorsGraph.18584 attributes {mhlo.cross_program_prefetches = [], mhlo.input_output_alias = [], mhlo.is_dynamic = false, mhlo.use_auto_spmd_partitioning = false, ttcore.meshes = #ttcore.meshes<[<"mesh" = 4x8>]>} {
      func.func @main(%arg0: tensor<64xi64> {ttcore.argument_type = #ttcore.argument_type<input>, ttcore.local_shape = #ttcore<local_shape local_shape = tensor<64xi64>>, ttcore.shard_status = #ttcore.shard_status<presharded>, ttir.name = "args_1"} loc("p0.3"), %arg1: tensor<32xbf16> {ttcore.argument_type = #ttcore.argument_type<constant>, ttcore.local_shape = #ttcore<local_shape local_shape = tensor<32xbf16>>, ttcore.shard_status = #ttcore.shard_status<presharded>, ttir.name = "model.model.rotary_emb.inv_freq"} loc("p1.11"), %arg2: tensor<512xbf16> {ttcore.argument_type = #ttcore.argument_type<parameter>, ttcore.local_shape = #ttcore<local_shape local_shape = tensor<64xbf16>>, ttcore.shard_status = #ttcore.shard_status<presharded>, ttir.name = "self___model_model_layers_0_self_attn_k_proj__parameters__bias"} loc("p2.28"), %arg3: tensor<512x2880xbf16> {ttcore.argument_type = #ttcore.argument_type<parameter>, ttcore.local_shape = #ttcore<local_shape local_shape = tensor<64x720xbf16>>, ttcore.shard_status = #ttcore.shard_status<presharded>, ttir.name = "self___model_model_layers_0_self_attn_k_proj__parameters__weight"} loc("p3.32"), %arg4: tensor<2880xbf16> {ttcore.argument_type = #ttcore.argument_type<parameter>, ttcore.local_shape = #ttcore<local_shape local_shape = tensor<720xbf16>>, ttcore.shard_status = #ttcore.shard_status<presharded>, ttir.name = "model.model.layers.0.input_layernorm.weight"} loc("p4.37"), %arg5: tensor<64x64xi64> {ttcore.argument_type = #ttcore.argument_type<input>, ttcore.local_shape = #ttcore<local_shape local_shape = tensor<64x64xi64>>, ttcore.shard_status = #ttcore.shard_status<presharded>, ttir.name = "args_0"} loc("p5.46"), %arg6: tensor<201088x2880xbf16> {ttcore.argument_type = #ttcore.argument_type<parameter>, ttcore.local_shape = #ttcore<local_shape local_shape = tensor<201088x720xbf16>>, ttcore.shard_status = #ttcore.shard_status<presharded>, ttir.name = "model.model.embed_tokens.weight"} loc("p6.51"), %arg7: tensor<64x8x128x64xbf16> {ttcore.argument_type = #ttcore.argument_type<input>, ttcore.local_shape = #ttcore<local_shape local_shape = tensor<64x1x128x64xbf16>>, ttcore.shard_status = #ttcore.shard_status<presharded>, ttir.name = "args_2"} loc("p7.140"), %arg8: tensor<512xbf16> {ttcore.argument_type = #ttcore.argument_type<parameter>, ttcore.local_shape = #ttcore<local_shape local_shape = tensor<64xbf16>>, ttcore.shard_status = #ttcore.shard_status<presharded>, ttir.name = "self___model_model_layers_0_self_attn_v_proj__parameters__bias"} loc("p8.149"), %arg9: tensor<512x2880xbf16> {ttcore.argument_type = #ttcore.argument_type<parameter>, ttcore.local_shape = #ttcore<local_shape local_shape = tensor<64x720xbf16>>, ttcore.shard_status = #ttcore.shard_status<presharded>, ttir.name = "self___model_model_layers_0_self_attn_v_proj__parameters__weight"} loc("p9.153"), %arg10: tensor<64x8x128x64xbf16> {ttcore.argument_type = #ttcore.argument_type<input>, ttcore.local_shape = #ttcore<local_shape local_shape = tensor<64x1x128x64xbf16>>, ttcore.shard_status = #ttcore.shard_status<presharded>, ttir.name = "args_3"} loc("p10.179"), %arg11: tensor<512xbf16> {ttcore.argument_type = #ttcore.argument_type<parameter>, ttcore.local_shape = #ttcore<local_shape local_shape = tensor<64xbf16>>, ttcore.shard_status = #ttcore.shard_status<presharded>, ttir.name = "self___model_model_layers_1_self_attn_k_proj__parameters__bias"} loc("p11.190"), %arg12: tensor<512x2880xbf16> {ttcore.argument_type = #ttcore.argument_type<parameter>, ttcore.local_shape = #ttcore<local_shape local_shape = tensor<64x720xbf16>>, ttcore.shard_status = #ttcore.shard_status<presharded>, ttir.name = "self___model_model_layers_1_self_attn_k_proj__parameters__weight"} loc("p12.194"), %arg13: tensor<2880xbf16> {ttcore.argument_type = #ttcore.argument_type<parameter>, ttcore.local_shape = #ttcore<local_shape local_shape = tensor<720xbf16>>, ttcore.shard_status = #ttcore.shard_status<presharded>, ttir.name = "model.model.layers.1.input_layernorm.weight"} loc("p13.199"), %arg14: tensor<128xbf16> {ttcore.argument_type = #ttcore.argument_type<parameter>, ttcore.local_shape = #ttcore<local_shape local_shape = tensor<128xbf16>>, ttcore.shard_status = #ttcore.shard_status<presharded>, ttir.name = "model.model.layers.0.mlp.router.bias"} loc("p14.211"), %arg15: tensor<128x2880xbf16> {ttcore.argument_type = #ttcore.argument_type<parameter>, ttcore.local_shape = #ttcore<local_shape local_shape = tensor<128x720xbf16>>, ttcore.shard_status = #ttcore.shard_status<presharded>, ttcore.weight_dtype = "bfp_bf4", ttir.name = "model.model.layers.0.mlp.router.parametrizations.weight.original"} loc("p15.219"), %arg16: tensor<2880xbf16> {ttcore.argument_type = #ttcore.argument_type<parameter>, ttcore.local_shape = #ttcore<local_shape local_shape = tensor<720xbf16>>, ttcore.shard_status = #ttcore.shard_status<presharded>, ttir.name = "model.model.layers.0.post_attention_layernorm.weight"} loc("p16.228"), %arg17: tensor<2880xbf16> {ttcore.argument_type = #ttcore.argument_type<parameter>, ttcore.local_shape = #ttcore<local_shape local_shape = tensor<720xbf16>>, ttcore.shard_status = #ttcore.shard_status<presharded>, ttir.name = "self___model_model_layers_0_self_attn_o_proj__parameters__bias"} loc("p17.239"), %arg18: tensor<2880x4096xbf16> {ttcore.argument_type = #ttcore.argument_type<parameter>, ttcore.local_shape = #ttcore<local_shape local_shape = tensor<720x512xbf16>>, ttcore.shard_status = #ttcore.shard_status<presharded>, ttir.name = "self___model_model_layers_0_self_attn_o_proj__parameters__weight"} loc("p18.243"), %arg19: tensor<64xbf16> {ttcore.argument_type = #ttcore.argument_type<parameter>, ttcore.local_shape = #ttcore<local_shape local_shape = tensor<64xbf16>>, ttcore.shard_status = #ttcore.shard_status<presharded>, ttir.name = "model.model.layers.0.self_attn.sinks"} loc("p19.254"), %arg20: tensor<bf16> {ttcore.argument_type = #ttcore.argument_type<constant>, ttcore.local_shape = #ttcore<local_shape local_shape = tensor<bf16>>, ttcore.shard_status = #ttcore.shard_status<presharded>, ttir.name = "L['self'].model.model.lifted_tensor_1"} loc("p20.269"), %arg21: tensor<i1> {ttcore.argument_type = #ttcore.argument_type<input>, ttcore.local_shape = #ttcore<local_shape local_shape = tensor<i1>>, ttcore.shard_status = #ttcore.shard_status<presharded>} loc("p21.304"), %arg22: tensor<4096xbf16> {ttcore.argument_type = #ttcore.argument_type<parameter>, ttcore.local_shape = #ttcore<local_shape local_shape = tensor<512xbf16>>, ttcore.shard_status = #ttcore.shard_status<presharded>, ttir.name = "self___model_model_layers_0_self_attn_q_proj__parameters__bias"} loc("p22.327"), %arg23: tensor<4096x2880xbf16> {ttcore.argument_type = #ttcore.argument_type<parameter>, ttcore.local_shape = #ttcore<local_shape local_shape = tensor<512x720xbf16>>, ttcore.shard_status = #ttcore.shard_status<presharded>, ttir.name = "self___model_model_layers_0_self_attn_q_proj__parameters__weight"} loc("p23.331"), %arg24: tensor<128x2880xbf16> {ttcore.argument_type = #ttcore.argument_type<parameter>, ttcore.local_shape = #ttcore<local_shape local_shape = tensor<16x720xbf16>>, ttcore.shard_status = #ttcore.shard_status<presharded>, ttir.name = "model.model.layers.0.mlp.experts.down_proj_bias"} loc("p24.558"), %arg25: tensor<128x2880x2880xbf16> {ttcore.argument_type = #ttcore.argument_type<parameter>, ttcore.local_shape = #ttcore<local_shape local_shape = tensor<16x2880x720xbf16>>, ttcore.shard_status = #ttcore.shard_status<presharded>, ttcore.weight_dtype = "bfp_bf4", ttir.name = "model.model.layers.0.mlp.experts.parametrizations.down_proj.original"} loc("p25.563"), %arg26: tensor<128x5760xbf16> {ttcore.argument_type = #ttcore.argument_type<parameter>, ttcore.local_shape = #ttcore<local_shape local_shape = tensor<16x5760xbf16>>, ttcore.shard_status = #ttcore.shard_status<presharded>, ttir.name = "model.model.layers.0.mlp.experts.gate_up_proj_bias"} loc("p26.570"), %arg27: tensor<128x2880x5760xbf16> {ttcore.argument_type = #ttcore.argument_type<parameter>, ttcore.local_shape = #ttcore<local_shape local_shape = tensor<16x720x5760xbf16>>, ttcore.shard_status = #ttcore.shard_status<presharded>, ttcore.weight_dtype = "bfp_bf4", ttir.name = "model.model.layers.0.mlp.experts.parametrizations.gate_up_proj.original"} loc("p27.575"), %arg28: tensor<64x8x128x64xbf16> {ttcore.argument_type = #ttcore.argument_type<input>, ttcore.local_shape = #ttcore<local_shape local_shape = tensor<64x1x128x64xbf16>>, ttcore.shard_status = #ttcore.shard_status<presharded>, ttir.name = "args_4"} loc("p28.705"), %arg29: tensor<512xbf16> {ttcore.argument_type = #ttcore.argument_type<parameter>, ttcore.local_shape = #ttcore<local_shape local_shape = tensor<64xbf16>>, ttcore.shard_status = #ttcore.shard_status<presharded>, ttir.name = "self___model_model_layers_1_self_attn_v_proj__parameters__bias"} loc("p29.714"), %arg30: tensor<512x2880xbf16> {ttcore.argument_type = #ttcore.argument_type<parameter>, ttcore.local_shape = #ttcore<local_shape local_shape = tensor<64x720xbf16>>, ttcore.shard_status = #ttcore.shard_status<presharded>, ttir.name = "self___model_model_layers_1_self_attn_v_proj__parameters__weight"} loc("p30.718"), %arg31: tensor<64x8x128x64xbf16> {ttcore.argument_type = #ttcore.argument_type<input>, ttcore.local_shape = #ttcore<local_shape local_shape = tensor<64x1x128x64xbf16>>, ttcore.shard_status = #ttcore.shard_status<presharded>, ttir.name = "args_5"} loc("p31.744"), %arg32: tensor<512xbf16> {ttcore.argument_type = #ttcore.argument_type<parameter>, ttcore.local_shape = #ttcore<local_shape local_shape = tensor<64xbf16>>, ttcore.shard_status = #ttcore.shard_status<presharded>, ttir.name = "self___model_model_layers_2_self_attn_k_proj__parameters__bias"} loc("p32.755"), %arg33: tensor<512x2880xbf16> {ttcore.argument_type = #ttcore.argument_type<parameter>, ttcore.local_shape = #ttcore<local_shape local_shape = tensor<64x720xbf16>>, ttcore.shard_status = #ttcore.shard_status<presharded>, ttir.name = "self___model_model_layers_2_self_attn_k_proj__parameters__weight"} loc("p33.759"), %arg34: tensor<2880xbf16> {ttcore.argument_type = #ttcore.argument_type<parameter>, ttcore.local_shape = #ttcore<local_shape local_shape = tensor<720xbf16>>, ttcore.shard_status = #ttcore.shard_status<presharded>, ttir.name = "model.model.layers.2.input_layernorm.weight"} loc("p34.764"), %arg35: tensor<128xbf16> {ttcore.argument_type = #ttcore.argument_type<parameter>, ttcore.local_shape = #ttcore<local_shape local_shape = tensor<128xbf16>>, ttcore.shard_status = #ttcore.shard_status<presharded>, ttir.name = "model.model.layers.1.mlp.router.bias"} loc("p35.776"), %arg36: tensor<128x2880xbf16> {ttcore.argument_type = #ttcore.argument_type<parameter>, ttcore.local_shape = #ttcore<local_shape local_shape = tensor<128x720xbf16>>, ttcore.shard_status = #ttcore.shard_status<presharded>, ttcore.weight_dtype = "bfp_bf4", ttir.name = "model.model.layers.1.mlp.router.parametrizations.weight.original"} loc("p36.784"), %arg37: tensor<2880xbf16> {ttcore.argument_type = #ttcore.argument_type<parameter>, ttcore.local_shape = #ttcore<local_shape local_shape = tensor<720xbf16>>, ttcore.shard_status = #ttcore.shard_status<presharded>, ttir.name = "model.model.layers.1.post_attention_layernorm.weight"} loc("p37.793"), %arg38: tensor<2880xbf16> {ttcore.argument_type = #ttcore.argument_type<parameter>, ttcore.local_shape = #ttcore<local_shape local_shape = tensor<720xbf16>>, ttcore.shard_status = #ttcore.shard_status<presharded>, ttir.name = "self___model_model_layers_1_self_attn_o_proj__parameters__bias"} loc("p38.804"), %arg39: tensor<2880x4096xbf16> {ttcore.argument_type = #ttcore.argument_type<parameter>, ttcore.local_shape = #ttcore<local_shape local_shape = tensor<720x512xbf16>>, ttcore.shard_status = #ttcore.shard_status<presharded>, ttir.name = "self___model_model_layers_1_self_attn_o_proj__parameters__weight"} loc("p39.808"), %arg40: tensor<64xbf16> {ttcore.argument_type = #ttcore.argument_type<parameter>, ttcore.local_shape = #ttcore<local_shape local_shape = tensor<64xbf16>>, ttcore.shard_status = #ttcore.shard_status<presharded>, ttir.name = "model.model.layers.1.self_attn.sinks"} loc("p40.819"), %arg41: tensor<bf16> {ttcore.argument_type = #ttcore.argument_type<constant>, ttcore.local_shape = #ttcore<local_shape local_shape = tensor<bf16>>, ttcore.shard_status = #ttcore.shard_status<presharded>, ttir.name = "L['self'].model.model.lifted_tensor_0"} loc("p41.834"), %arg42: tensor<4096xbf16> {ttcore.argument_type = #ttcore.argument_type<parameter>, ttcore.local_shape = #ttcore<local_shape local_shape = tensor<512xbf16>>, ttcore.shard_status = #ttcore.shard_status<presharded>, ttir.name = "self___model_model_layers_1_self_attn_q_proj__parameters__bias"} loc("p42.873"), %arg43: tensor<4096x2880xbf16> {ttcore.argument_type = #ttcore.argument_type<parameter>, ttcore.local_shape = #ttcore<local_shape local_shape = tensor<512x720xbf16>>, ttcore.shard_status = #ttcore.shard_status<presharded>, ttir.name = "self___model_model_layers_1_self_attn_q_proj__parameters__weight"} loc("p43.877"), %arg44: tensor<128x2880xbf16> {ttcore.argument_type = #ttcore.argument_type<parameter>, ttcore.local_shape = #ttcore<local_shape local_shape = tensor<16x720xbf16>>, ttcore.shard_status = #ttcore.shard_status<presharded>, ttir.name = "model.model.layers.1.mlp.experts.down_proj_bias"} loc("p44.1104"), %arg45: tensor<128x2880x2880xbf16> {ttcore.argument_type = #ttcore.argument_type<parameter>, ttcore.local_shape = #ttcore<local_shape local_shape = tensor<16x2880x720xbf16>>, ttcore.shard_status = #ttcore.shard_status<presharded>, ttcore.weight_dtype = "bfp_bf4", ttir.name = "model.model.layers.1.mlp.experts.parametrizations.down_proj.original"} loc("p45.1109"), %arg46: tensor<128x5760xbf16> {ttcore.argument_type = #ttcore.argument_type<parameter>, ttcore.local_shape = #ttcore<local_shape local_shape = tensor<16x5760xbf16>>, ttcore.shard_status = #ttcore.shard_status<presharded>, ttir.name = "model.model.layers.1.mlp.experts.gate_up_proj_bias"} loc("p46.1116"), %arg47: tensor<128x2880x5760xbf16> {ttcore.argument_type = #ttcore.argument_type<parameter>, ttcore.local_shape = #ttcore<local_shape local_shape = tensor<16x720x5760xbf16>>, ttcore.shard_status = #ttcore.shard_status<presharded>, ttcore.weight_dtype = "bfp_bf4", ttir.name = "model.model.layers.1.mlp.experts.parametrizations.gate_up_proj.original"} loc("p47.1121"), %arg48: tensor<64x8x128x64xbf16> {ttcore.argument_type = #ttcore.argument_type<input>, ttcore.local_shape = #ttcore<local_shape local_shape = tensor<64x1x128x64xbf16>>, ttcore.shard_status = #ttcore.shard_status<presharded>, ttir.name = "args_6"} loc("p48.1251"), %arg49: tensor<512xbf16> {ttcore.argument_type = #ttcore.argument_type<parameter>, ttcore.local_shape = #ttcore<local_shape local_shape = tensor<64xbf16>>, ttcore.shard_status = #ttcore.shard_status<presharded>, ttir.name = "self___model_model_layers_2_self_attn_v_proj__parameters__bias"} loc("p49.1260"), %arg50: tensor<512x2880xbf16> {ttcore.argument_type = #ttcore.argument_type<parameter>, ttcore.local_shape = #ttcore<local_shape local_shape = tensor<64x720xbf16>>, ttcore.shard_status = #ttcore.shard_status<presharded>, ttir.name = "self___model_model_layers_2_self_attn_v_proj__parameters__weight"} loc("p50.1264"), %arg51: tensor<64x8x128x64xbf16> {ttcore.argument_type = #ttcore.argument_type<input>, ttcore.local_shape = #ttcore<local_shape local_shape = tensor<64x1x128x64xbf16>>, ttcore.shard_status = #ttcore.shard_status<presharded>, ttir.name = "args_7"} loc("p51.1290"), %arg52: tensor<512xbf16> {ttcore.argument_type = #ttcore.argument_type<parameter>, ttcore.local_shape = #ttcore<local_shape local_shape = tensor<64xbf16>>, ttcore.shard_status = #ttcore.shard_status<presharded>, ttir.name = "self___model_model_layers_3_self_attn_k_proj__parameters__bias"} loc("p52.1301"), %arg53: tensor<512x2880xbf16> {ttcore.argument_type = #ttcore.argument_type<parameter>, ttcore.local_shape = #ttcore<local_shape local_shape = tensor<64x720xbf16>>, ttcore.shard_status = #ttcore.shard_status<presharded>, ttir.name = "self___model_model_layers_3_self_attn_k_proj__parameters__weight"} loc("p53.1305"), %arg54: tensor<2880xbf16> {ttcore.argument_type = #ttcore.argument_type<parameter>, ttcore.local_shape = #ttcore<local_shape local_shape = tensor<720xbf16>>, ttcore.shard_status = #ttcore.shard_status<presharded>, ttir.name = "model.model.layers.3.input_layernorm.weight"} loc("p54.1310"), %arg55: tensor<128xbf16> {ttcore.argument_type = #ttcore.argument_type<parameter>, ttcore.local_shape = #ttcore<local_shape local_shape = tensor<128xbf16>>, ttcore.shard_status = #ttcore.shard_status<presharded>, ttir.name = "model.model.layers.2.mlp.router.bias"} loc("p55.1322"), %arg56: tensor<128x2880xbf16> {ttcore.argument_type = #ttcore.argument_type<parameter>, ttcore.local_shape = #ttcore<local_shape local_shape = tensor<128x720xbf16>>, ttcore.shard_status = #ttcore.shard_status<presharded>, ttcore.weight_dtype = "bfp_bf4", ttir.name = "model.model.layers.2.mlp.router.parametrizations.weight.original"} loc("p56.1330"), %arg57: tensor<2880xbf16> {ttcore.argument_type = #ttcore.argument_type<parameter>, ttcore.local_shape = #ttcore<local_shape local_shape = tensor<720xbf16>>, ttcore.shard_status = #ttcore.shard_status<presharded>, ttir.name = "model.model.layers.2.post_attention_layernorm.weight"} loc("p57.1339"), %arg58: tensor<2880xbf16> {ttcore.argument_type = #ttcore.argument_type<parameter>, ttcore.local_shape = #ttcore<local_shape local_shape = tensor<720xbf16>>, ttcore.shard_status = #ttcore.shard_status<presharded>, ttir.name = "self___model_model_layers_2_self_attn_o_proj__parameters__bias"} loc("p58.1350"), %arg59: tensor<2880x4096xbf16> {ttcore.argument_type = #ttcore.argument_type<parameter>, ttcore.local_shape = #ttcore<local_shape local_shape = tensor<720x512xbf16>>, ttcore.shard_status = #ttcore.shard_status<presharded>, ttir.name = "self___model_model_layers_2_self_attn_o_proj__parameters__weight"} loc("p59.1354"), %arg60: tensor<64xbf16> {ttcore.argument_type = #ttcore.argument_type<parameter>, ttcore.local_shape = #ttcore<local_shape local_shape = tensor<64xbf16>>, ttcore.shard_status = #ttcore.shard_status<presharded>, ttir.name = "model.model.layers.2.self_attn.sinks"} loc("p60.1365"), %arg61: tensor<4096xbf16> {ttcore.argument_type = #ttcore.argument_type<parameter>, ttcore.local_shape = #ttcore<local_shape local_shape = tensor<512xbf16>>, ttcore.shard_status = #ttcore.shard_status<presharded>, ttir.name = "self___model_model_layers_2_self_attn_q_proj__parameters__bias"} loc("p61.1383"), %arg62: tensor<4096x2880xbf16> {ttcore.argument_type = #ttcore.argument_type<parameter>, ttcore.local_shape = #ttcore<local_shape local_shape = tensor<512x720xbf16>>, ttcore.shard_status = #ttcore.shard_status<presharded>, ttir.name = "self___model_model_layers_2_self_attn_q_proj__parameters__weight"} loc("p62.1387"), %arg63: tensor<128x2880xbf16> {ttcore.argument_type = #ttcore.argument_type<parameter>, ttcore.local_shape = #ttcore<local_shape local_shape = tensor<16x720xbf16>>, ttcore.shard_status = #ttcore.shard_status<presharded>, ttir.name = "model.model.layers.2.mlp.experts.down_proj_bias"} loc("p63.1614"), %arg64: tensor<128x2880x2880xbf16> {ttcore.argument_type = #ttcore.argument_type<parameter>, ttcore.local_shape = #ttcore<local_shape local_shape = tensor<16x2880x720xbf16>>, ttcore.shard_status = #ttcore.shard_status<presharded>, ttcore.weight_dtype = "bfp_bf4", ttir.name = "model.model.layers.2.mlp.experts.parametrizations.down_proj.original"} loc("p64.1619"), %arg65: tensor<128x5760xbf16> {ttcore.argument_type = #ttcore.argument_type<parameter>, ttcore.local_shape = #ttcore<local_shape local_shape = tensor<16x5760xbf16>>, ttcore.shard_status = #ttcore.shard_status<presharded>, ttir.name = "model.model.layers.2.mlp.experts.gate_up_proj_bias"} loc("p65.1626"), %arg66: tensor<128x2880x5760xbf16> {ttcore.argument_type = #ttcore.argument_type<parameter>, ttcore.local_shape = #ttcore<local_shape local_shape = tensor<16x720x5760xbf16>>, ttcore.shard_status = #ttcore.shard_status<presharded>, ttcore.weight_dtype = "bfp_bf4", ttir.name = "model.model.layers.2.mlp.experts.parametrizations.gate_up_proj.original"} loc("p66.1631"), %arg67: tensor<64x8x128x64xbf16> {ttcore.argument_type = #ttcore.argument_type<input>, ttcore.local_shape = #ttcore<local_shape local_shape = tensor<64x1x128x64xbf16>>, ttcore.shard_status = #ttcore.shard_status<presharded>, ttir.name = "args_8"} loc("p67.1761"), %arg68: tensor<512xbf16> {ttcore.argument_type = #ttcore.argument_type<parameter>, ttcore.local_shape = #ttcore<local_shape local_shape = tensor<64xbf16>>, ttcore.shard_status = #ttcore.shard_status<presharded>, ttir.name = "self___model_model_layers_3_self_attn_v_proj__parameters__bias"} loc("p68.1770"), %arg69: tensor<512x2880xbf16> {ttcore.argument_type = #ttcore.argument_type<parameter>, ttcore.local_shape = #ttcore<local_shape local_shape = tensor<64x720xbf16>>, ttcore.shard_status = #ttcore.shard_status<presharded>, ttir.name = "self___model_model_layers_3_self_attn_v_proj__parameters__weight"} loc("p69.1774"), %arg70: tensor<64x8x128x64xbf16> {ttcore.argument_type = #ttcore.argument_type<input>, ttcore.local_shape = #ttcore<local_shape local_shape = tensor<64x1x128x64xbf16>>, ttcore.shard_status = #ttcore.shard_status<presharded>, ttir.name = "args_9"} loc("p70.1800"), %arg71: tensor<512xbf16> {ttcore.argument_type = #ttcore.argument_type<parameter>, ttcore.local_shape = #ttcore<local_shape local_shape = tensor<64xbf16>>, ttcore.shard_status = #ttcore.shard_status<presharded>, ttir.name = "self___model_model_layers_4_self_attn_k_proj__parameters__bias"} loc("p71.1811"), %arg72: tensor<512x2880xbf16> {ttcore.argument_type = #ttcore.argument_type<parameter>, ttcore.local_shape = #ttcore<local_shape local_shape = tensor<64x720xbf16>>, ttcore.shard_status = #ttcore.shard_status<presharded>, ttir.name = "self___model_model_layers_4_self_attn_k_proj__parameters__weight"} loc("p72.1815"), %arg73: tensor<2880xbf16> {ttcore.argument_type = #ttcore.argument_type<parameter>, ttcore.local_shape = #ttcore<local_shape local_shape = tensor<720xbf16>>, ttcore.shard_status = #ttcore.shard_status<presharded>, ttir.name = "model.model.layers.4.input_layernorm.weight"} loc("p73.1820"), %arg74: tensor<128xbf16> {ttcore.argument_type = #ttcore.argument_type<parameter>, ttcore.local_shape = #ttcore<local_shape local_shape = tensor<128xbf16>>, ttcore.shard_status = #ttcore.shard_status<presharded>, ttir.name = "model.model.layers.3.mlp.router.bias"} loc("p74.1832"), %arg75: tensor<128x2880xbf16> {ttcore.argument_type = #ttcore.argument_type<parameter>, ttcore.local_shape = #ttcore<local_shape local_shape = tensor<128x720xbf16>>, ttcore.shard_status = #ttcore.shard_status<presharded>, ttcore.weight_dtype = "bfp_bf4", ttir.name = "model.model.layers.3.mlp.router.parametrizations.weight.original"} loc("p75.1840"), %arg76: tensor<2880xbf16> {ttcore.argument_type = #ttcore.argument_type<parameter>, ttcore.local_shape = #ttcore<local_shape local_shape = tensor<720xbf16>>, ttcore.shard_status = #ttcore.shard_status<presharded>, ttir.name = "model.model.layers.3.post_attention_layernorm.weight"} loc("p76.1849"), %arg77: tensor<2880xbf16> {ttcore.argument_type = #ttcore.argument_type<parameter>, ttcore.local_shape = #ttcore<local_shape local_shape = tensor<720xbf16>>, ttcore.shard_status = #ttcore.shard_status<presharded>, ttir.name = "self___model_model_layers_3_self_attn_o_proj__parameters__bias"} loc("p77.1860"), %arg78: tensor<2880x4096xbf16> {ttcore.argument_type = #ttcore.argument_type<parameter>, ttcore.local_shape = #ttcore<local_shape local_shape = tensor<720x512xbf16>>, ttcore.shard_status = #ttcore.shard_status<presharded>, ttir.name = "self___model_model_layers_3_self_attn_o_proj__parameters__weight"} loc("p78.1864"), %arg79: tensor<64xbf16> {ttcore.argument_type = #ttcore.argument_type<parameter>, ttcore.local_shape = #ttcore<local_shape local_shape = tensor<64xbf16>>, ttcore.shard_status = #ttcore.shard_status<presharded>, ttir.name = "model.model.layers.3.self_attn.sinks"} loc("p79.1875"), %arg80: tensor<4096xbf16> {ttcore.argument_type = #ttcore.argument_type<parameter>, ttcore.local_shape = #ttcore<local_shape local_shape = tensor<512xbf16>>, ttcore.shard_status = #ttcore.shard_status<presharded>, ttir.name = "self___model_model_layers_3_self_attn_q_proj__parameters__bias"} loc("p80.1893"), %arg81: tensor<4096x2880xbf16> {ttcore.argument_type = #ttcore.argument_type<parameter>, ttcore.local_shape = #ttcore<local_shape local_shape = tensor<512x720xbf16>>, ttcore.shard_status = #ttcore.shard_status<presharded>, ttir.name = "self___model_model_layers_3_self_attn_q_proj__parameters__weight"} loc("p81.1897"), %arg82: tensor<128x2880xbf16> {ttcore.argument_type = #ttcore.argument_type<parameter>, ttcore.local_shape = #ttcore<local_shape local_shape = tensor<16x720xbf16>>, ttcore.shard_status = #ttcore.shard_status<presharded>, ttir.name = "model.model.layers.3.mlp.experts.down_proj_bias"} loc("p82.2124"), %arg83: tensor<128x2880x2880xbf16> {ttcore.argument_type = #ttcore.argument_type<parameter>, ttcore.local_shape = #ttcore<local_shape local_shape = tensor<16x2880x720xbf16>>, ttcore.shard_status = #ttcore.shard_status<presharded>, ttcore.weight_dtype = "bfp_bf4", ttir.name = "model.model.layers.3.mlp.experts.parametrizations.down_proj.original"} loc("p83.2129"), %arg84: tensor<128x5760xbf16> {ttcore.argument_type = #ttcore.argument_type<parameter>, ttcore.local_shape = #ttcore<local_shape local_shape = tensor<16x5760xbf16>>, ttcore.shard_status = #ttcore.shard_status<presharded>, ttir.name = "model.model.layers.3.mlp.experts.gate_up_proj_bias"} loc("p84.2136"), %arg85: tensor<128x2880x5760xbf16> {ttcore.argument_type = #ttcore.argument_type<parameter>, ttcore.local_shape = #ttcore<local_shape local_shape = tensor<16x720x5760xbf16>>, ttcore.shard_status = #ttcore.shard_status<presharded>, ttcore.weight_dtype = "bfp_bf4", ttir.name = "model.model.layers.3.mlp.experts.parametrizations.gate_up_proj.original"} loc("p85.2141"), %arg86: tensor<64x8x128x64xbf16> {ttcore.argument_type = #ttcore.argument_type<input>, ttcore.local_shape = #ttcore<local_shape local_shape = tensor<64x1x128x64xbf16>>, ttcore.shard_status = #ttcore.shard_status<presharded>, ttir.name = "args_10"} loc("p86.2271"), %arg87: tensor<512xbf16> {ttcore.argument_type = #ttcore.argument_type<parameter>, ttcore.local_shape = #ttcore<local_shape local_shape = tensor<64xbf16>>, ttcore.shard_status = #ttcore.shard_status<presharded>, ttir.name = "self___model_model_layers_4_self_attn_v_proj__parameters__bias"} loc("p87.2280"), %arg88: tensor<512x2880xbf16> {ttcore.argument_type = #ttcore.argument_type<parameter>, ttcore.local_shape = #ttcore<local_shape local_shape = tensor<64x720xbf16>>, ttcore.shard_status = #ttcore.shard_status<presharded>, ttir.name = "self___model_model_layers_4_self_attn_v_proj__parameters__weight"} loc("p88.2284"), %arg89: tensor<64x8x128x64xbf16> {ttcore.argument_type = #ttcore.argument_type<input>, ttcore.local_shape = #ttcore<local_shape local_shape = tensor<64x1x128x64xbf16>>, ttcore.shard_status = #ttcore.shard_status<presharded>, ttir.name = "args_11"} loc("p89.2310"), %arg90: tensor<512xbf16> {ttcore.argument_type = #ttcore.argument_type<parameter>, ttcore.local_shape = #ttcore<local_shape local_shape = tensor<64xbf16>>, ttcore.shard_status = #ttcore.shard_status<presharded>, ttir.name = "self___model_model_layers_5_self_attn_k_proj__parameters__bias"} loc("p90.2321"), %arg91: tensor<512x2880xbf16> {ttcore.argument_type = #ttcore.argument_type<parameter>, ttcore.local_shape = #ttcore<local_shape local_shape = tensor<64x720xbf16>>, ttcore.shard_status = #ttcore.shard_status<presharded>, ttir.name = "self___model_model_layers_5_self_attn_k_proj__parameters__weight"} loc("p91.2325"), %arg92: tensor<2880xbf16> {ttcore.argument_type = #ttcore.argument_type<parameter>, ttcore.local_shape = #ttcore<local_shape local_shape = tensor<720xbf16>>, ttcore.shard_status = #ttcore.shard_status<presharded>, ttir.name = "model.model.layers.5.input_layernorm.weight"} loc("p92.2330"), %arg93: tensor<128xbf16> {ttcore.argument_type = #ttcore.argument_type<parameter>, ttcore.local_shape = #ttcore<local_shape local_shape = tensor<128xbf16>>, ttcore.shard_status = #ttcore.shard_status<presharded>, ttir.name = "model.model.layers.4.mlp.router.bias"} loc("p93.2342"), %arg94: tensor<128x2880xbf16> {ttcore.argument_type = #ttcore.argument_type<parameter>, ttcore.local_shape = #ttcore<local_shape local_shape = tensor<128x720xbf16>>, ttcore.shard_status = #ttcore.shard_status<presharded>, ttcore.weight_dtype = "bfp_bf4", ttir.name = "model.model.layers.4.mlp.router.parametrizations.weight.original"} loc("p94.2350"), %arg95: tensor<2880xbf16> {ttcore.argument_type = #ttcore.argument_type<parameter>, ttcore.local_shape = #ttcore<local_shape local_shape = tensor<720xbf16>>, ttcore.shard_status = #ttcore.shard_status<presharded>, ttir.name = "model.model.layers.4.post_attention_layernorm.weight"} loc("p95.2359"), %arg96: tensor<2880xbf16> {ttcore.argument_type = #ttcore.argument_type<parameter>, ttcore.local_shape = #ttcore<local_shape local_shape = tensor<720xbf16>>, ttcore.shard_status = #ttcore.shard_status<presharded>, ttir.name = "self___model_model_layers_4_self_attn_o_proj__parameters__bias"} loc("p96.2370"), %arg97: tensor<2880x4096xbf16> {ttcore.argument_type = #ttcore.argument_type<parameter>, ttcore.local_shape = #ttcore<local_shape local_shape = tensor<720x512xbf16>>, ttcore.shard_status = #ttcore.shard_status<presharded>, ttir.name = "self___model_model_layers_4_self_attn_o_proj__parameters__weight"} loc("p97.2374"), %arg98: tensor<64xbf16> {ttcore.argument_type = #ttcore.argument_type<parameter>, ttcore.local_shape = #ttcore<local_shape local_shape = tensor<64xbf16>>, ttcore.shard_status = #ttcore.shard_status<presharded>, ttir.name = "model.model.layers.4.self_attn.sinks"} loc("p98.2385"), %arg99: tensor<4096xbf16> {ttcore.argument_type = #ttcore.argument_type<parameter>, ttcore.local_shape = #ttcore<local_shape local_shape = tensor<512xbf16>>, ttcore.shard_status = #ttcore.shard_status<presharded>, ttir.name = "self___model_model_layers_4_self_attn_q_proj__parameters__bias"} loc("p99.2403"), %arg100: tensor<4096x2880xbf16> {ttcore.argument_type = #ttcore.argument_type<parameter>, ttcore.local_shape = #ttcore<local_shape local_shape = tensor<512x720xbf16>>, ttcore.shard_status = #ttcore.shard_status<presharded>, ttir.name = "self___model_model_layers_4_self_attn_q_proj__parameters__weight"} loc("p100.2407"), %arg101: tensor<128x2880xbf16> {ttcore.argument_type = #ttcore.argument_type<parameter>, ttcore.local_shape = #ttcore<local_shape local_shape = tensor<16x720xbf16>>, ttcore.shard_status = #ttcore.shard_status<presharded>, ttir.name = "model.model.layers.4.mlp.experts.down_proj_bias"} loc("p101.2634"), %arg102: tensor<128x2880x2880xbf16> {ttcore.argument_type = #ttcore.argument_type<parameter>, ttcore.local_shape = #ttcore<local_shape local_shape = tensor<16x2880x720xbf16>>, ttcore.shard_status = #ttcore.shard_status<presharded>, ttcore.weight_dtype = "bfp_bf4", ttir.name = "model.model.layers.4.mlp.experts.parametrizations.down_proj.original"} loc("p102.2639"), %arg103: tensor<128x5760xbf16> {ttcore.argument_type = #ttcore.argument_type<parameter>, ttcore.local_shape = #ttcore<local_shape local_shape = tensor<16x5760xbf16>>, ttcore.shard_status = #ttcore.shard_status<presharded>, ttir.name = "model.model.layers.4.mlp.experts.gate_up_proj_bias"} loc("p103.2646"), %arg104: tensor<128x2880x5760xbf16> {ttcore.argument_type = #ttcore.argument_type<parameter>, ttcore.local_shape = #ttcore<local_shape local_shape = tensor<16x720x5760xbf16>>, ttcore.shard_status = #ttcore.shard_status<presharded>, ttcore.weight_dtype = "bfp_bf4", ttir.name = "model.model.layers.4.mlp.experts.parametrizations.gate_up_proj.original"} loc("p104.2651"), %arg105: tensor<64x8x128x64xbf16> {ttcore.argument_type = #ttcore.argument_type<input>, ttcore.local_shape = #ttcore<local_shape local_shape = tensor<64x1x128x64xbf16>>, ttcore.shard_status = #ttcore.shard_status<presharded>, ttir.name = "args_12"} loc("p105.2781"), %arg106: tensor<512xbf16> {ttcore.argument_type = #ttcore.argument_type<parameter>, ttcore.local_shape = #ttcore<local_shape local_shape = tensor<64xbf16>>, ttcore.shard_status = #ttcore.shard_status<presharded>, ttir.name = "self___model_model_layers_5_self_attn_v_proj__parameters__bias"} loc("p106.2790"), %arg107: tensor<512x2880xbf16> {ttcore.argument_type = #ttcore.argument_type<parameter>, ttcore.local_shape = #ttcore<local_shape local_shape = tensor<64x720xbf16>>, ttcore.shard_status = #ttcore.shard_status<presharded>, ttir.name = "self___model_model_layers_5_self_attn_v_proj__parameters__weight"} loc("p107.2794"), %arg108: tensor<64x8x128x64xbf16> {ttcore.argument_type = #ttcore.argument_type<input>, ttcore.local_shape = #ttcore<local_shape local_shape = tensor<64x1x128x64xbf16>>, ttcore.shard_status = #ttcore.shard_status<presharded>, ttir.name = "args_13"} loc("p108.2820"), %arg109: tensor<512xbf16> {ttcore.argument_type = #ttcore.argument_type<parameter>, ttcore.local_shape = #ttcore<local_shape local_shape = tensor<64xbf16>>, ttcore.shard_status = #ttcore.shard_status<presharded>, ttir.name = "self___model_model_layers_6_self_attn_k_proj__parameters__bias"} loc("p109.2831"), %arg110: tensor<512x2880xbf16> {ttcore.argument_type = #ttcore.argument_type<parameter>, ttcore.local_shape = #ttcore<local_shape local_shape = tensor<64x720xbf16>>, ttcore.shard_status = #ttcore.shard_status<presharded>, ttir.name = "self___model_model_layers_6_self_attn_k_proj__parameters__weight"} loc("p110.2835"), %arg111: tensor<2880xbf16> {ttcore.argument_type = #ttcore.argument_type<parameter>, ttcore.local_shape = #ttcore<local_shape local_shape = tensor<720xbf16>>, ttcore.shard_status = #ttcore.shard_status<presharded>, ttir.name = "model.model.layers.6.input_layernorm.weight"} loc("p111.2840"), %arg112: tensor<128xbf16> {ttcore.argument_type = #ttcore.argument_type<parameter>, ttcore.local_shape = #ttcore<local_shape local_shape = tensor<128xbf16>>, ttcore.shard_status = #ttcore.shard_status<presharded>, ttir.name = "model.model.layers.5.mlp.router.bias"} loc("p112.2852"), %arg113: tensor<128x2880xbf16> {ttcore.argument_type = #ttcore.argument_type<parameter>, ttcore.local_shape = #ttcore<local_shape local_shape = tensor<128x720xbf16>>, ttcore.shard_status = #ttcore.shard_status<presharded>, ttcore.weight_dtype = "bfp_bf4", ttir.name = "model.model.layers.5.mlp.router.parametrizations.weight.original"} loc("p113.2860"), %arg114: tensor<2880xbf16> {ttcore.argument_type = #ttcore.argument_type<parameter>, ttcore.local_shape = #ttcore<local_shape local_shape = tensor<720xbf16>>, ttcore.shard_status = #ttcore.shard_status<presharded>, ttir.name = "model.model.layers.5.post_attention_layernorm.weight"} loc("p114.2869"), %arg115: tensor<2880xbf16> {ttcore.argument_type = #ttcore.argument_type<parameter>, ttcore.local_shape = #ttcore<local_shape local_shape = tensor<720xbf16>>, ttcore.shard_status = #ttcore.shard_status<presharded>, ttir.name = "self___model_model_layers_5_self_attn_o_proj__parameters__bias"} loc("p115.2880"), %arg116: tensor<2880x4096xbf16> {ttcore.argument_type = #ttcore.argument_type<parameter>, ttcore.local_shape = #ttcore<local_shape local_shape = tensor<720x512xbf16>>, ttcore.shard_status = #ttcore.shard_status<presharded>, ttir.name = "self___model_model_layers_5_self_attn_o_proj__parameters__weight"} loc("p116.2884"), %arg117: tensor<64xbf16> {ttcore.argument_type = #ttcore.argument_type<parameter>, ttcore.local_shape = #ttcore<local_shape local_shape = tensor<64xbf16>>, ttcore.shard_status = #ttcore.shard_status<presharded>, ttir.name = "model.model.layers.5.self_attn.sinks"} loc("p117.2895"), %arg118: tensor<4096xbf16> {ttcore.argument_type = #ttcore.argument_type<parameter>, ttcore.local_shape = #ttcore<local_shape local_shape = tensor<512xbf16>>, ttcore.shard_status = #ttcore.shard_status<presharded>, ttir.name = "self___model_model_layers_5_self_attn_q_proj__parameters__bias"} loc("p118.2913"), %arg119: tensor<4096x2880xbf16> {ttcore.argument_type = #ttcore.argument_type<parameter>, ttcore.local_shape = #ttcore<local_shape local_shape = tensor<512x720xbf16>>, ttcore.shard_status = #ttcore.shard_status<presharded>, ttir.name = "self___model_model_layers_5_self_attn_q_proj__parameters__weight"} loc("p119.2917"), %arg120: tensor<128x2880xbf16> {ttcore.argument_type = #ttcore.argument_type<parameter>, ttcore.local_shape = #ttcore<local_shape local_shape = tensor<16x720xbf16>>, ttcore.shard_status = #ttcore.shard_status<presharded>, ttir.name = "model.model.layers.5.mlp.experts.down_proj_bias"} loc("p120.3144"), %arg121: tensor<128x2880x2880xbf16> {ttcore.argument_type = #ttcore.argument_type<parameter>, ttcore.local_shape = #ttcore<local_shape local_shape = tensor<16x2880x720xbf16>>, ttcore.shard_status = #ttcore.shard_status<presharded>, ttcore.weight_dtype = "bfp_bf4", ttir.name = "model.model.layers.5.mlp.experts.parametrizations.down_proj.original"} loc("p121.3149"), %arg122: tensor<128x5760xbf16> {ttcore.argument_type = #ttcore.argument_type<parameter>, ttcore.local_shape = #ttcore<local_shape local_shape = tensor<16x5760xbf16>>, ttcore.shard_status = #ttcore.shard_status<presharded>, ttir.name = "model.model.layers.5.mlp.experts.gate_up_proj_bias"} loc("p122.3156"), %arg123: tensor<128x2880x5760xbf16> {ttcore.argument_type = #ttcore.argument_type<parameter>, ttcore.local_shape = #ttcore<local_shape local_shape = tensor<16x720x5760xbf16>>, ttcore.shard_status = #ttcore.shard_status<presharded>, ttcore.weight_dtype = "bfp_bf4", ttir.name = "model.model.layers.5.mlp.experts.parametrizations.gate_up_proj.original"} loc("p123.3161"), %arg124: tensor<64x8x128x64xbf16> {ttcore.argument_type = #ttcore.argument_type<input>, ttcore.local_shape = #ttcore<local_shape local_shape = tensor<64x1x128x64xbf16>>, ttcore.shard_status = #ttcore.shard_status<presharded>, ttir.name = "args_14"} loc("p124.3291"), %arg125: tensor<512xbf16> {ttcore.argument_type = #ttcore.argument_type<parameter>, ttcore.local_shape = #ttcore<local_shape local_shape = tensor<64xbf16>>, ttcore.shard_status = #ttcore.shard_status<presharded>, ttir.name = "self___model_model_layers_6_self_attn_v_proj__parameters__bias"} loc("p125.3300"), %arg126: tensor<512x2880xbf16> {ttcore.argument_type = #ttcore.argument_type<parameter>, ttcore.local_shape = #ttcore<local_shape local_shape = tensor<64x720xbf16>>, ttcore.shard_status = #ttcore.shard_status<presharded>, ttir.name = "self___model_model_layers_6_self_attn_v_proj__parameters__weight"} loc("p126.3304"), %arg127: tensor<64x8x128x64xbf16> {ttcore.argument_type = #ttcore.argument_type<input>, ttcore.local_shape = #ttcore<local_shape local_shape = tensor<64x1x128x64xbf16>>, ttcore.shard_status = #ttcore.shard_status<presharded>, ttir.name = "args_15"} loc("p127.3330"), %arg128: tensor<512xbf16> {ttcore.argument_type = #ttcore.argument_type<parameter>, ttcore.local_shape = #ttcore<local_shape local_shape = tensor<64xbf16>>, ttcore.shard_status = #ttcore.shard_status<presharded>, ttir.name = "self___model_model_layers_7_self_attn_k_proj__parameters__bias"} loc("p128.3341"), %arg129: tensor<512x2880xbf16> {ttcore.argument_type = #ttcore.argument_type<parameter>, ttcore.local_shape = #ttcore<local_shape local_shape = tensor<64x720xbf16>>, ttcore.shard_status = #ttcore.shard_status<presharded>, ttir.name = "self___model_model_layers_7_self_attn_k_proj__parameters__weight"} loc("p129.3345"), %arg130: tensor<2880xbf16> {ttcore.argument_type = #ttcore.argument_type<parameter>, ttcore.local_shape = #ttcore<local_shape local_shape = tensor<720xbf16>>, ttcore.shard_status = #ttcore.shard_status<presharded>, ttir.name = "model.model.layers.7.input_layernorm.weight"} loc("p130.3350"), %arg131: tensor<128xbf16> {ttcore.argument_type = #ttcore.argument_type<parameter>, ttcore.local_shape = #ttcore<local_shape local_shape = tensor<128xbf16>>, ttcore.shard_status = #ttcore.shard_status<presharded>, ttir.name = "model.model.layers.6.mlp.router.bias"} loc("p131.3362"), %arg132: tensor<128x2880xbf16> {ttcore.argument_type = #ttcore.argument_type<parameter>, ttcore.local_shape = #ttcore<local_shape local_shape = tensor<128x720xbf16>>, ttcore.shard_status = #ttcore.shard_status<presharded>, ttcore.weight_dtype = "bfp_bf4", ttir.name = "model.model.layers.6.mlp.router.parametrizations.weight.original"} loc("p132.3370"), %arg133: tensor<2880xbf16> {ttcore.argument_type = #ttcore.argument_type<parameter>, ttcore.local_shape = #ttcore<local_shape local_shape = tensor<720xbf16>>, ttcore.shard_status = #ttcore.shard_status<presharded>, ttir.name = "model.model.layers.6.post_attention_layernorm.weight"} loc("p133.3379"), %arg134: tensor<2880xbf16> {ttcore.argument_type = #ttcore.argument_type<parameter>, ttcore.local_shape = #ttcore<local_shape local_shape = tensor<720xbf16>>, ttcore.shard_status = #ttcore.shard_status<presharded>, ttir.name = "self___model_model_layers_6_self_attn_o_proj__parameters__bias"} loc("p134.3390"), %arg135: tensor<2880x4096xbf16> {ttcore.argument_type = #ttcore.argument_type<parameter>, ttcore.local_shape = #ttcore<local_shape local_shape = tensor<720x512xbf16>>, ttcore.shard_status = #ttcore.shard_status<presharded>, ttir.name = "self___model_model_layers_6_self_attn_o_proj__parameters__weight"} loc("p135.3394"), %arg136: tensor<64xbf16> {ttcore.argument_type = #ttcore.argument_type<parameter>, ttcore.local_shape = #ttcore<local_shape local_shape = tensor<64xbf16>>, ttcore.shard_status = #ttcore.shard_status<presharded>, ttir.name = "model.model.layers.6.self_attn.sinks"} loc("p136.3405"), %arg137: tensor<4096xbf16> {ttcore.argument_type = #ttcore.argument_type<parameter>, ttcore.local_shape = #ttcore<local_shape local_shape = tensor<512xbf16>>, ttcore.shard_status = #ttcore.shard_status<presharded>, ttir.name = "self___model_model_layers_6_self_attn_q_proj__parameters__bias"} loc("p137.3423"), %arg138: tensor<4096x2880xbf16> {ttcore.argument_type = #ttcore.argument_type<parameter>, ttcore.local_shape = #ttcore<local_shape local_shape = tensor<512x720xbf16>>, ttcore.shard_status = #ttcore.shard_status<presharded>, ttir.name = "self___model_model_layers_6_self_attn_q_proj__parameters__weight"} loc("p138.3427"), %arg139: tensor<128x2880xbf16> {ttcore.argument_type = #ttcore.argument_type<parameter>, ttcore.local_shape = #ttcore<local_shape local_shape = tensor<16x720xbf16>>, ttcore.shard_status = #ttcore.shard_status<presharded>, ttir.name = "model.model.layers.6.mlp.experts.down_proj_bias"} loc("p139.3654"), %arg140: tensor<128x2880x2880xbf16> {ttcore.argument_type = #ttcore.argument_type<parameter>, ttcore.local_shape = #ttcore<local_shape local_shape = tensor<16x2880x720xbf16>>, ttcore.shard_status = #ttcore.shard_status<presharded>, ttcore.weight_dtype = "bfp_bf4", ttir.name = "model.model.layers.6.mlp.experts.parametrizations.down_proj.original"} loc("p140.3659"), %arg141: tensor<128x5760xbf16> {ttcore.argument_type = #ttcore.argument_type<parameter>, ttcore.local_shape = #ttcore<local_shape local_shape = tensor<16x5760xbf16>>, ttcore.shard_status = #ttcore.shard_status<presharded>, ttir.name = "model.model.layers.6.mlp.experts.gate_up_proj_bias"} loc("p141.3666"), %arg142: tensor<128x2880x5760xbf16> {ttcore.argument_type = #ttcore.argument_type<parameter>, ttcore.local_shape = #ttcore<local_shape local_shape = tensor<16x720x5760xbf16>>, ttcore.shard_status = #ttcore.shard_status<presharded>, ttcore.weight_dtype = "bfp_bf4", ttir.name = "model.model.layers.6.mlp.experts.parametrizations.gate_up_proj.original"} loc("p142.3671"), %arg143: tensor<64x8x128x64xbf16> {ttcore.argument_type = #ttcore.argument_type<input>, ttcore.local_shape = #ttcore<local_shape local_shape = tensor<64x1x128x64xbf16>>, ttcore.shard_status = #ttcore.shard_status<presharded>, ttir.name = "args_16"} loc("p143.3801"), %arg144: tensor<512xbf16> {ttcore.argument_type = #ttcore.argument_type<parameter>, ttcore.local_shape = #ttcore<local_shape local_shape = tensor<64xbf16>>, ttcore.shard_status = #ttcore.shard_status<presharded>, ttir.name = "self___model_model_layers_7_self_attn_v_proj__parameters__bias"} loc("p144.3810"), %arg145: tensor<512x2880xbf16> {ttcore.argument_type = #ttcore.argument_type<parameter>, ttcore.local_shape = #ttcore<local_shape local_shape = tensor<64x720xbf16>>, ttcore.shard_status = #ttcore.shard_status<presharded>, ttir.name = "self___model_model_layers_7_self_attn_v_proj__parameters__weight"} loc("p145.3814"), %arg146: tensor<64x8x128x64xbf16> {ttcore.argument_type = #ttcore.argument_type<input>, ttcore.local_shape = #ttcore<local_shape local_shape = tensor<64x1x128x64xbf16>>, ttcore.shard_status = #ttcore.shard_status<presharded>, ttir.name = "args_17"} loc("p146.3840"), %arg147: tensor<512xbf16> {ttcore.argument_type = #ttcore.argument_type<parameter>, ttcore.local_shape = #ttcore<local_shape local_shape = tensor<64xbf16>>, ttcore.shard_status = #ttcore.shard_status<presharded>, ttir.name = "self___model_model_layers_8_self_attn_k_proj__parameters__bias"} loc("p147.3851"), %arg148: tensor<512x2880xbf16> {ttcore.argument_type = #ttcore.argument_type<parameter>, ttcore.local_shape = #ttcore<local_shape local_shape = tensor<64x720xbf16>>, ttcore.shard_status = #ttcore.shard_status<presharded>, ttir.name = "self___model_model_layers_8_self_attn_k_proj__parameters__weight"} loc("p148.3855"), %arg149: tensor<2880xbf16> {ttcore.argument_type = #ttcore.argument_type<parameter>, ttcore.local_shape = #ttcore<local_shape local_shape = tensor<720xbf16>>, ttcore.shard_status = #ttcore.shard_status<presharded>, ttir.name = "model.model.layers.8.input_layernorm.weight"} loc("p149.3860"), %arg150: tensor<128xbf16> {ttcore.argument_type = #ttcore.argument_type<parameter>, ttcore.local_shape = #ttcore<local_shape local_shape = tensor<128xbf16>>, ttcore.shard_status = #ttcore.shard_status<presharded>, ttir.name = "model.model.layers.7.mlp.router.bias"} loc("p150.3872"), %arg151: tensor<128x2880xbf16> {ttcore.argument_type = #ttcore.argument_type<parameter>, ttcore.local_shape = #ttcore<local_shape local_shape = tensor<128x720xbf16>>, ttcore.shard_status = #ttcore.shard_status<presharded>, ttcore.weight_dtype = "bfp_bf4", ttir.name = "model.model.layers.7.mlp.router.parametrizations.weight.original"} loc("p151.3880"), %arg152: tensor<2880xbf16> {ttcore.argument_type = #ttcore.argument_type<parameter>, ttcore.local_shape = #ttcore<local_shape local_shape = tensor<720xbf16>>, ttcore.shard_status = #ttcore.shard_status<presharded>, ttir.name = "model.model.layers.7.post_attention_layernorm.weight"} loc("p152.3889"), %arg153: tensor<2880xbf16> {ttcore.argument_type = #ttcore.argument_type<parameter>, ttcore.local_shape = #ttcore<local_shape local_shape = tensor<720xbf16>>, ttcore.shard_status = #ttcore.shard_status<presharded>, ttir.name = "self___model_model_layers_7_self_attn_o_proj__parameters__bias"} loc("p153.3900"), %arg154: tensor<2880x4096xbf16> {ttcore.argument_type = #ttcore.argument_type<parameter>, ttcore.local_shape = #ttcore<local_shape local_shape = tensor<720x512xbf16>>, ttcore.shard_status = #ttcore.shard_status<presharded>, ttir.name = "self___model_model_layers_7_self_attn_o_proj__parameters__weight"} loc("p154.3904"), %arg155: tensor<64xbf16> {ttcore.argument_type = #ttcore.argument_type<parameter>, ttcore.local_shape = #ttcore<local_shape local_shape = tensor<64xbf16>>, ttcore.shard_status = #ttcore.shard_status<presharded>, ttir.name = "model.model.layers.7.self_attn.sinks"} loc("p155.3915"), %arg156: tensor<4096xbf16> {ttcore.argument_type = #ttcore.argument_type<parameter>, ttcore.local_shape = #ttcore<local_shape local_shape = tensor<512xbf16>>, ttcore.shard_status = #ttcore.shard_status<presharded>, ttir.name = "self___model_model_layers_7_self_attn_q_proj__parameters__bias"} loc("p156.3933"), %arg157: tensor<4096x2880xbf16> {ttcore.argument_type = #ttcore.argument_type<parameter>, ttcore.local_shape = #ttcore<local_shape local_shape = tensor<512x720xbf16>>, ttcore.shard_status = #ttcore.shard_status<presharded>, ttir.name = "self___model_model_layers_7_self_attn_q_proj__parameters__weight"} loc("p157.3937"), %arg158: tensor<128x2880xbf16> {ttcore.argument_type = #ttcore.argument_type<parameter>, ttcore.local_shape = #ttcore<local_shape local_shape = tensor<16x720xbf16>>, ttcore.shard_status = #ttcore.shard_status<presharded>, ttir.name = "model.model.layers.7.mlp.experts.down_proj_bias"} loc("p158.4164"), %arg159: tensor<128x2880x2880xbf16> {ttcore.argument_type = #ttcore.argument_type<parameter>, ttcore.local_shape = #ttcore<local_shape local_shape = tensor<16x2880x720xbf16>>, ttcore.shard_status = #ttcore.shard_status<presharded>, ttcore.weight_dtype = "bfp_bf4", ttir.name = "model.model.layers.7.mlp.experts.parametrizations.down_proj.original"} loc("p159.4169"), %arg160: tensor<128x5760xbf16> {ttcore.argument_type = #ttcore.argument_type<parameter>, ttcore.local_shape = #ttcore<local_shape local_shape = tensor<16x5760xbf16>>, ttcore.shard_status = #ttcore.shard_status<presharded>, ttir.name = "model.model.layers.7.mlp.experts.gate_up_proj_bias"} loc("p160.4176"), %arg161: tensor<128x2880x5760xbf16> {ttcore.argument_type = #ttcore.argument_type<parameter>, ttcore.local_shape = #ttcore<local_shape local_shape = tensor<16x720x5760xbf16>>, ttcore.shard_status = #ttcore.shard_status<presharded>, ttcore.weight_dtype = "bfp_bf4", ttir.name = "model.model.layers.7.mlp.experts.parametrizations.gate_up_proj.original"} loc("p161.4181"), %arg162: tensor<64x8x128x64xbf16> {ttcore.argument_type = #ttcore.argument_type<input>, ttcore.local_shape = #ttcore<local_shape local_shape = tensor<64x1x128x64xbf16>>, ttcore.shard_status = #ttcore.shard_status<presharded>, ttir.name = "args_18"} loc("p162.4311"), %arg163: tensor<512xbf16> {ttcore.argument_type = #ttcore.argument_type<parameter>, ttcore.local_shape = #ttcore<local_shape local_shape = tensor<64xbf16>>, ttcore.shard_status = #ttcore.shard_status<presharded>, ttir.name = "self___model_model_layers_8_self_attn_v_proj__parameters__bias"} loc("p163.4320"), %arg164: tensor<512x2880xbf16> {ttcore.argument_type = #ttcore.argument_type<parameter>, ttcore.local_shape = #ttcore<local_shape local_shape = tensor<64x720xbf16>>, ttcore.shard_status = #ttcore.shard_status<presharded>, ttir.name = "self___model_model_layers_8_self_attn_v_proj__parameters__weight"} loc("p164.4324"), %arg165: tensor<64x8x128x64xbf16> {ttcore.argument_type = #ttcore.argument_type<input>, ttcore.local_shape = #ttcore<local_shape local_shape = tensor<64x1x128x64xbf16>>, ttcore.shard_status = #ttcore.shard_status<presharded>, ttir.name = "args_19"} loc("p165.4350"), %arg166: tensor<512xbf16> {ttcore.argument_type = #ttcore.argument_type<parameter>, ttcore.local_shape = #ttcore<local_shape local_shape = tensor<64xbf16>>, ttcore.shard_status = #ttcore.shard_status<presharded>, ttir.name = "self___model_model_layers_9_self_attn_k_proj__parameters__bias"} loc("p166.4361"), %arg167: tensor<512x2880xbf16> {ttcore.argument_type = #ttcore.argument_type<parameter>, ttcore.local_shape = #ttcore<local_shape local_shape = tensor<64x720xbf16>>, ttcore.shard_status = #ttcore.shard_status<presharded>, ttir.name = "self___model_model_layers_9_self_attn_k_proj__parameters__weight"} loc("p167.4365"), %arg168: tensor<2880xbf16> {ttcore.argument_type = #ttcore.argument_type<parameter>, ttcore.local_shape = #ttcore<local_shape local_shape = tensor<720xbf16>>, ttcore.shard_status = #ttcore.shard_status<presharded>, ttir.name = "model.model.layers.9.input_layernorm.weight"} loc("p168.4370"), %arg169: tensor<128xbf16> {ttcore.argument_type = #ttcore.argument_type<parameter>, ttcore.local_shape = #ttcore<local_shape local_shape = tensor<128xbf16>>, ttcore.shard_status = #ttcore.shard_status<presharded>, ttir.name = "model.model.layers.8.mlp.router.bias"} loc("p169.4382"), %arg170: tensor<128x2880xbf16> {ttcore.argument_type = #ttcore.argument_type<parameter>, ttcore.local_shape = #ttcore<local_shape local_shape = tensor<128x720xbf16>>, ttcore.shard_status = #ttcore.shard_status<presharded>, ttcore.weight_dtype = "bfp_bf4", ttir.name = "model.model.layers.8.mlp.router.parametrizations.weight.original"} loc("p170.4390"), %arg171: tensor<2880xbf16> {ttcore.argument_type = #ttcore.argument_type<parameter>, ttcore.local_shape = #ttcore<local_shape local_shape = tensor<720xbf16>>, ttcore.shard_status = #ttcore.shard_status<presharded>, ttir.name = "model.model.layers.8.post_attention_layernorm.weight"} loc("p171.4399"), %arg172: tensor<2880xbf16> {ttcore.argument_type = #ttcore.argument_type<parameter>, ttcore.local_shape = #ttcore<local_shape local_shape = tensor<720xbf16>>, ttcore.shard_status = #ttcore.shard_status<presharded>, ttir.name = "self___model_model_layers_8_self_attn_o_proj__parameters__bias"} loc("p172.4410"), %arg173: tensor<2880x4096xbf16> {ttcore.argument_type = #ttcore.argument_type<parameter>, ttcore.local_shape = #ttcore<local_shape local_shape = tensor<720x512xbf16>>, ttcore.shard_status = #ttcore.shard_status<presharded>, ttir.name = "self___model_model_layers_8_self_attn_o_proj__parameters__weight"} loc("p173.4414"), %arg174: tensor<64xbf16> {ttcore.argument_type = #ttcore.argument_type<parameter>, ttcore.local_shape = #ttcore<local_shape local_shape = tensor<64xbf16>>, ttcore.shard_status = #ttcore.shard_status<presharded>, ttir.name = "model.model.layers.8.self_attn.sinks"} loc("p174.4425"), %arg175: tensor<4096xbf16> {ttcore.argument_type = #ttcore.argument_type<parameter>, ttcore.local_shape = #ttcore<local_shape local_shape = tensor<512xbf16>>, ttcore.shard_status = #ttcore.shard_status<presharded>, ttir.name = "self___model_model_layers_8_self_attn_q_proj__parameters__bias"} loc("p175.4443"), %arg176: tensor<4096x2880xbf16> {ttcore.argument_type = #ttcore.argument_type<parameter>, ttcore.local_shape = #ttcore<local_shape local_shape = tensor<512x720xbf16>>, ttcore.shard_status = #ttcore.shard_status<presharded>, ttir.name = "self___model_model_layers_8_self_attn_q_proj__parameters__weight"} loc("p176.4447"), %arg177: tensor<128x2880xbf16> {ttcore.argument_type = #ttcore.argument_type<parameter>, ttcore.local_shape = #ttcore<local_shape local_shape = tensor<16x720xbf16>>, ttcore.shard_status = #ttcore.shard_status<presharded>, ttir.name = "model.model.layers.8.mlp.experts.down_proj_bias"} loc("p177.4674"), %arg178: tensor<128x2880x2880xbf16> {ttcore.argument_type = #ttcore.argument_type<parameter>, ttcore.local_shape = #ttcore<local_shape local_shape = tensor<16x2880x720xbf16>>, ttcore.shard_status = #ttcore.shard_status<presharded>, ttcore.weight_dtype = "bfp_bf4", ttir.name = "model.model.layers.8.mlp.experts.parametrizations.down_proj.original"} loc("p178.4679"), %arg179: tensor<128x5760xbf16> {ttcore.argument_type = #ttcore.argument_type<parameter>, ttcore.local_shape = #ttcore<local_shape local_shape = tensor<16x5760xbf16>>, ttcore.shard_status = #ttcore.shard_status<presharded>, ttir.name = "model.model.layers.8.mlp.experts.gate_up_proj_bias"} loc("p179.4686"), %arg180: tensor<128x2880x5760xbf16> {ttcore.argument_type = #ttcore.argument_type<parameter>, ttcore.local_shape = #ttcore<local_shape local_shape = tensor<16x720x5760xbf16>>, ttcore.shard_status = #ttcore.shard_status<presharded>, ttcore.weight_dtype = "bfp_bf4", ttir.name = "model.model.layers.8.mlp.experts.parametrizations.gate_up_proj.original"} loc("p180.4691"), %arg181: tensor<64x8x128x64xbf16> {ttcore.argument_type = #ttcore.argument_type<input>, ttcore.local_shape = #ttcore<local_shape local_shape = tensor<64x1x128x64xbf16>>, ttcore.shard_status = #ttcore.shard_status<presharded>, ttir.name = "args_20"} loc("p181.4821"), %arg182: tensor<512xbf16> {ttcore.argument_type = #ttcore.argument_type<parameter>, ttcore.local_shape = #ttcore<local_shape local_shape = tensor<64xbf16>>, ttcore.shard_status = #ttcore.shard_status<presharded>, ttir.name = "self___model_model_layers_9_self_attn_v_proj__parameters__bias"} loc("p182.4830"), %arg183: tensor<512x2880xbf16> {ttcore.argument_type = #ttcore.argument_type<parameter>, ttcore.local_shape = #ttcore<local_shape local_shape = tensor<64x720xbf16>>, ttcore.shard_status = #ttcore.shard_status<presharded>, ttir.name = "self___model_model_layers_9_self_attn_v_proj__parameters__weight"} loc("p183.4834"), %arg184: tensor<64x8x128x64xbf16> {ttcore.argument_type = #ttcore.argument_type<input>, ttcore.local_shape = #ttcore<local_shape local_shape = tensor<64x1x128x64xbf16>>, ttcore.shard_status = #ttcore.shard_status<presharded>, ttir.name = "args_21"} loc("p184.4860"), %arg185: tensor<512xbf16> {ttcore.argument_type = #ttcore.argument_type<parameter>, ttcore.local_shape = #ttcore<local_shape local_shape = tensor<64xbf16>>, ttcore.shard_status = #ttcore.shard_status<presharded>, ttir.name = "self___model_model_layers_10_self_attn_k_proj__parameters__bias"} loc("p185.4871"), %arg186: tensor<512x2880xbf16> {ttcore.argument_type = #ttcore.argument_type<parameter>, ttcore.local_shape = #ttcore<local_shape local_shape = tensor<64x720xbf16>>, ttcore.shard_status = #ttcore.shard_status<presharded>, ttir.name = "self___model_model_layers_10_self_attn_k_proj__parameters__weight"} loc("p186.4875"), %arg187: tensor<2880xbf16> {ttcore.argument_type = #ttcore.argument_type<parameter>, ttcore.local_shape = #ttcore<local_shape local_shape = tensor<720xbf16>>, ttcore.shard_status = #ttcore.shard_status<presharded>, ttir.name = "model.model.layers.10.input_layernorm.weight"} loc("p187.4880"), %arg188: tensor<128xbf16> {ttcore.argument_type = #ttcore.argument_type<parameter>, ttcore.local_shape = #ttcore<local_shape local_shape = tensor<128xbf16>>, ttcore.shard_status = #ttcore.shard_status<presharded>, ttir.name = "model.model.layers.9.mlp.router.bias"} loc("p188.4892"), %arg189: tensor<128x2880xbf16> {ttcore.argument_type = #ttcore.argument_type<parameter>, ttcore.local_shape = #ttcore<local_shape local_shape = tensor<128x720xbf16>>, ttcore.shard_status = #ttcore.shard_status<presharded>, ttcore.weight_dtype = "bfp_bf4", ttir.name = "model.model.layers.9.mlp.router.parametrizations.weight.original"} loc("p189.4900"), %arg190: tensor<2880xbf16> {ttcore.argument_type = #ttcore.argument_type<parameter>, ttcore.local_shape = #ttcore<local_shape local_shape = tensor<720xbf16>>, ttcore.shard_status = #ttcore.shard_status<presharded>, ttir.name = "model.model.layers.9.post_attention_layernorm.weight"} loc("p190.4909"), %arg191: tensor<2880xbf16> {ttcore.argument_type = #ttcore.argument_type<parameter>, ttcore.local_shape = #ttcore<local_shape local_shape = tensor<720xbf16>>, ttcore.shard_status = #ttcore.shard_status<presharded>, ttir.name = "self___model_model_layers_9_self_attn_o_proj__parameters__bias"} loc("p191.4920"), %arg192: tensor<2880x4096xbf16> {ttcore.argument_type = #ttcore.argument_type<parameter>, ttcore.local_shape = #ttcore<local_shape local_shape = tensor<720x512xbf16>>, ttcore.shard_status = #ttcore.shard_status<presharded>, ttir.name = "self___model_model_layers_9_self_attn_o_proj__parameters__weight"} loc("p192.4924"), %arg193: tensor<64xbf16> {ttcore.argument_type = #ttcore.argument_type<parameter>, ttcore.local_shape = #ttcore<local_shape local_shape = tensor<64xbf16>>, ttcore.shard_status = #ttcore.shard_status<presharded>, ttir.name = "model.model.layers.9.self_attn.sinks"} loc("p193.4935"), %arg194: tensor<4096xbf16> {ttcore.argument_type = #ttcore.argument_type<parameter>, ttcore.local_shape = #ttcore<local_shape local_shape = tensor<512xbf16>>, ttcore.shard_status = #ttcore.shard_status<presharded>, ttir.name = "self___model_model_layers_9_self_attn_q_proj__parameters__bias"} loc("p194.4953"), %arg195: tensor<4096x2880xbf16> {ttcore.argument_type = #ttcore.argument_type<parameter>, ttcore.local_shape = #ttcore<local_shape local_shape = tensor<512x720xbf16>>, ttcore.shard_status = #ttcore.shard_status<presharded>, ttir.name = "self___model_model_layers_9_self_attn_q_proj__parameters__weight"} loc("p195.4957"), %arg196: tensor<128x2880xbf16> {ttcore.argument_type = #ttcore.argument_type<parameter>, ttcore.local_shape = #ttcore<local_shape local_shape = tensor<16x720xbf16>>, ttcore.shard_status = #ttcore.shard_status<presharded>, ttir.name = "model.model.layers.9.mlp.experts.down_proj_bias"} loc("p196.5184"), %arg197: tensor<128x2880x2880xbf16> {ttcore.argument_type = #ttcore.argument_type<parameter>, ttcore.local_shape = #ttcore<local_shape local_shape = tensor<16x2880x720xbf16>>, ttcore.shard_status = #ttcore.shard_status<presharded>, ttcore.weight_dtype = "bfp_bf4", ttir.name = "model.model.layers.9.mlp.experts.parametrizations.down_proj.original"} loc("p197.5189"), %arg198: tensor<128x5760xbf16> {ttcore.argument_type = #ttcore.argument_type<parameter>, ttcore.local_shape = #ttcore<local_shape local_shape = tensor<16x5760xbf16>>, ttcore.shard_status = #ttcore.shard_status<presharded>, ttir.name = "model.model.layers.9.mlp.experts.gate_up_proj_bias"} loc("p198.5196"), %arg199: tensor<128x2880x5760xbf16> {ttcore.argument_type = #ttcore.argument_type<parameter>, ttcore.local_shape = #ttcore<local_shape local_shape = tensor<16x720x5760xbf16>>, ttcore.shard_status = #ttcore.shard_status<presharded>, ttcore.weight_dtype = "bfp_bf4", ttir.name = "model.model.layers.9.mlp.experts.parametrizations.gate_up_proj.original"} loc("p199.5201"), %arg200: tensor<64x8x128x64xbf16> {ttcore.argument_type = #ttcore.argument_type<input>, ttcore.local_shape = #ttcore<local_shape local_shape = tensor<64x1x128x64xbf16>>, ttcore.shard_status = #ttcore.shard_status<presharded>, ttir.name = "args_22"} loc("p200.5331"), %arg201: tensor<512xbf16> {ttcore.argument_type = #ttcore.argument_type<parameter>, ttcore.local_shape = #ttcore<local_shape local_shape = tensor<64xbf16>>, ttcore.shard_status = #ttcore.shard_status<presharded>, ttir.name = "self___model_model_layers_10_self_attn_v_proj__parameters__bias"} loc("p201.5340"), %arg202: tensor<512x2880xbf16> {ttcore.argument_type = #ttcore.argument_type<parameter>, ttcore.local_shape = #ttcore<local_shape local_shape = tensor<64x720xbf16>>, ttcore.shard_status = #ttcore.shard_status<presharded>, ttir.name = "self___model_model_layers_10_self_attn_v_proj__parameters__weight"} loc("p202.5344"), %arg203: tensor<64x8x128x64xbf16> {ttcore.argument_type = #ttcore.argument_type<input>, ttcore.local_shape = #ttcore<local_shape local_shape = tensor<64x1x128x64xbf16>>, ttcore.shard_status = #ttcore.shard_status<presharded>, ttir.name = "args_23"} loc("p203.5370"), %arg204: tensor<512xbf16> {ttcore.argument_type = #ttcore.argument_type<parameter>, ttcore.local_shape = #ttcore<local_shape local_shape = tensor<64xbf16>>, ttcore.shard_status = #ttcore.shard_status<presharded>, ttir.name = "self___model_model_layers_11_self_attn_k_proj__parameters__bias"} loc("p204.5381"), %arg205: tensor<512x2880xbf16> {ttcore.argument_type = #ttcore.argument_type<parameter>, ttcore.local_shape = #ttcore<local_shape local_shape = tensor<64x720xbf16>>, ttcore.shard_status = #ttcore.shard_status<presharded>, ttir.name = "self___model_model_layers_11_self_attn_k_proj__parameters__weight"} loc("p205.5385"), %arg206: tensor<2880xbf16> {ttcore.argument_type = #ttcore.argument_type<parameter>, ttcore.local_shape = #ttcore<local_shape local_shape = tensor<720xbf16>>, ttcore.shard_status = #ttcore.shard_status<presharded>, ttir.name = "model.model.layers.11.input_layernorm.weight"} loc("p206.5390"), %arg207: tensor<128xbf16> {ttcore.argument_type = #ttcore.argument_type<parameter>, ttcore.local_shape = #ttcore<local_shape local_shape = tensor<128xbf16>>, ttcore.shard_status = #ttcore.shard_status<presharded>, ttir.name = "model.model.layers.10.mlp.router.bias"} loc("p207.5402"), %arg208: tensor<128x2880xbf16> {ttcore.argument_type = #ttcore.argument_type<parameter>, ttcore.local_shape = #ttcore<local_shape local_shape = tensor<128x720xbf16>>, ttcore.shard_status = #ttcore.shard_status<presharded>, ttcore.weight_dtype = "bfp_bf4", ttir.name = "model.model.layers.10.mlp.router.parametrizations.weight.original"} loc("p208.5410"), %arg209: tensor<2880xbf16> {ttcore.argument_type = #ttcore.argument_type<parameter>, ttcore.local_shape = #ttcore<local_shape local_shape = tensor<720xbf16>>, ttcore.shard_status = #ttcore.shard_status<presharded>, ttir.name = "model.model.layers.10.post_attention_layernorm.weight"} loc("p209.5419"), %arg210: tensor<2880xbf16> {ttcore.argument_type = #ttcore.argument_type<parameter>, ttcore.local_shape = #ttcore<local_shape local_shape = tensor<720xbf16>>, ttcore.shard_status = #ttcore.shard_status<presharded>, ttir.name = "self___model_model_layers_10_self_attn_o_proj__parameters__bias"} loc("p210.5430"), %arg211: tensor<2880x4096xbf16> {ttcore.argument_type = #ttcore.argument_type<parameter>, ttcore.local_shape = #ttcore<local_shape local_shape = tensor<720x512xbf16>>, ttcore.shard_status = #ttcore.shard_status<presharded>, ttir.name = "self___model_model_layers_10_self_attn_o_proj__parameters__weight"} loc("p211.5434"), %arg212: tensor<64xbf16> {ttcore.argument_type = #ttcore.argument_type<parameter>, ttcore.local_shape = #ttcore<local_shape local_shape = tensor<64xbf16>>, ttcore.shard_status = #ttcore.shard_status<presharded>, ttir.name = "model.model.layers.10.self_attn.sinks"} loc("p212.5445"), %arg213: tensor<4096xbf16> {ttcore.argument_type = #ttcore.argument_type<parameter>, ttcore.local_shape = #ttcore<local_shape local_shape = tensor<512xbf16>>, ttcore.shard_status = #ttcore.shard_status<presharded>, ttir.name = "self___model_model_layers_10_self_attn_q_proj__parameters__bias"} loc("p213.5463"), %arg214: tensor<4096x2880xbf16> {ttcore.argument_type = #ttcore.argument_type<parameter>, ttcore.local_shape = #ttcore<local_shape local_shape = tensor<512x720xbf16>>, ttcore.shard_status = #ttcore.shard_status<presharded>, ttir.name = "self___model_model_layers_10_self_attn_q_proj__parameters__weight"} loc("p214.5467"), %arg215: tensor<128x2880xbf16> {ttcore.argument_type = #ttcore.argument_type<parameter>, ttcore.local_shape = #ttcore<local_shape local_shape = tensor<16x720xbf16>>, ttcore.shard_status = #ttcore.shard_status<presharded>, ttir.name = "model.model.layers.10.mlp.experts.down_proj_bias"} loc("p215.5694"), %arg216: tensor<128x2880x2880xbf16> {ttcore.argument_type = #ttcore.argument_type<parameter>, ttcore.local_shape = #ttcore<local_shape local_shape = tensor<16x2880x720xbf16>>, ttcore.shard_status = #ttcore.shard_status<presharded>, ttcore.weight_dtype = "bfp_bf4", ttir.name = "model.model.layers.10.mlp.experts.parametrizations.down_proj.original"} loc("p216.5699"), %arg217: tensor<128x5760xbf16> {ttcore.argument_type = #ttcore.argument_type<parameter>, ttcore.local_shape = #ttcore<local_shape local_shape = tensor<16x5760xbf16>>, ttcore.shard_status = #ttcore.shard_status<presharded>, ttir.name = "model.model.layers.10.mlp.experts.gate_up_proj_bias"} loc("p217.5706"), %arg218: tensor<128x2880x5760xbf16> {ttcore.argument_type = #ttcore.argument_type<parameter>, ttcore.local_shape = #ttcore<local_shape local_shape = tensor<16x720x5760xbf16>>, ttcore.shard_status = #ttcore.shard_status<presharded>, ttcore.weight_dtype = "bfp_bf4", ttir.name = "model.model.layers.10.mlp.experts.parametrizations.gate_up_proj.original"} loc("p218.5711"), %arg219: tensor<64x8x128x64xbf16> {ttcore.argument_type = #ttcore.argument_type<input>, ttcore.local_shape = #ttcore<local_shape local_shape = tensor<64x1x128x64xbf16>>, ttcore.shard_status = #ttcore.shard_status<presharded>, ttir.name = "args_24"} loc("p219.5841"), %arg220: tensor<512xbf16> {ttcore.argument_type = #ttcore.argument_type<parameter>, ttcore.local_shape = #ttcore<local_shape local_shape = tensor<64xbf16>>, ttcore.shard_status = #ttcore.shard_status<presharded>, ttir.name = "self___model_model_layers_11_self_attn_v_proj__parameters__bias"} loc("p220.5850"), %arg221: tensor<512x2880xbf16> {ttcore.argument_type = #ttcore.argument_type<parameter>, ttcore.local_shape = #ttcore<local_shape local_shape = tensor<64x720xbf16>>, ttcore.shard_status = #ttcore.shard_status<presharded>, ttir.name = "self___model_model_layers_11_self_attn_v_proj__parameters__weight"} loc("p221.5854"), %arg222: tensor<64x8x128x64xbf16> {ttcore.argument_type = #ttcore.argument_type<input>, ttcore.local_shape = #ttcore<local_shape local_shape = tensor<64x1x128x64xbf16>>, ttcore.shard_status = #ttcore.shard_status<presharded>, ttir.name = "args_25"} loc("p222.5880"), %arg223: tensor<512xbf16> {ttcore.argument_type = #ttcore.argument_type<parameter>, ttcore.local_shape = #ttcore<local_shape local_shape = tensor<64xbf16>>, ttcore.shard_status = #ttcore.shard_status<presharded>, ttir.name = "self___model_model_layers_12_self_attn_k_proj__parameters__bias"} loc("p223.5891"), %arg224: tensor<512x2880xbf16> {ttcore.argument_type = #ttcore.argument_type<parameter>, ttcore.local_shape = #ttcore<local_shape local_shape = tensor<64x720xbf16>>, ttcore.shard_status = #ttcore.shard_status<presharded>, ttir.name = "self___model_model_layers_12_self_attn_k_proj__parameters__weight"} loc("p224.5895"), %arg225: tensor<2880xbf16> {ttcore.argument_type = #ttcore.argument_type<parameter>, ttcore.local_shape = #ttcore<local_shape local_shape = tensor<720xbf16>>, ttcore.shard_status = #ttcore.shard_status<presharded>, ttir.name = "model.model.layers.12.input_layernorm.weight"} loc("p225.5900"), %arg226: tensor<128xbf16> {ttcore.argument_type = #ttcore.argument_type<parameter>, ttcore.local_shape = #ttcore<local_shape local_shape = tensor<128xbf16>>, ttcore.shard_status = #ttcore.shard_status<presharded>, ttir.name = "model.model.layers.11.mlp.router.bias"} loc("p226.5912"), %arg227: tensor<128x2880xbf16> {ttcore.argument_type = #ttcore.argument_type<parameter>, ttcore.local_shape = #ttcore<local_shape local_shape = tensor<128x720xbf16>>, ttcore.shard_status = #ttcore.shard_status<presharded>, ttcore.weight_dtype = "bfp_bf4", ttir.name = "model.model.layers.11.mlp.router.parametrizations.weight.original"} loc("p227.5920"), %arg228: tensor<2880xbf16> {ttcore.argument_type = #ttcore.argument_type<parameter>, ttcore.local_shape = #ttcore<local_shape local_shape = tensor<720xbf16>>, ttcore.shard_status = #ttcore.shard_status<presharded>, ttir.name = "model.model.layers.11.post_attention_layernorm.weight"} loc("p228.5929"), %arg229: tensor<2880xbf16> {ttcore.argument_type = #ttcore.argument_type<parameter>, ttcore.local_shape = #ttcore<local_shape local_shape = tensor<720xbf16>>, ttcore.shard_status = #ttcore.shard_status<presharded>, ttir.name = "self___model_model_layers_11_self_attn_o_proj__parameters__bias"} loc("p229.5940"), %arg230: tensor<2880x4096xbf16> {ttcore.argument_type = #ttcore.argument_type<parameter>, ttcore.local_shape = #ttcore<local_shape local_shape = tensor<720x512xbf16>>, ttcore.shard_status = #ttcore.shard_status<presharded>, ttir.name = "self___model_model_layers_11_self_attn_o_proj__parameters__weight"} loc("p230.5944"), %arg231: tensor<64xbf16> {ttcore.argument_type = #ttcore.argument_type<parameter>, ttcore.local_shape = #ttcore<local_shape local_shape = tensor<64xbf16>>, ttcore.shard_status = #ttcore.shard_status<presharded>, ttir.name = "model.model.layers.11.self_attn.sinks"} loc("p231.5955"), %arg232: tensor<4096xbf16> {ttcore.argument_type = #ttcore.argument_type<parameter>, ttcore.local_shape = #ttcore<local_shape local_shape = tensor<512xbf16>>, ttcore.shard_status = #ttcore.shard_status<presharded>, ttir.name = "self___model_model_layers_11_self_attn_q_proj__parameters__bias"} loc("p232.5973"), %arg233: tensor<4096x2880xbf16> {ttcore.argument_type = #ttcore.argument_type<parameter>, ttcore.local_shape = #ttcore<local_shape local_shape = tensor<512x720xbf16>>, ttcore.shard_status = #ttcore.shard_status<presharded>, ttir.name = "self___model_model_layers_11_self_attn_q_proj__parameters__weight"} loc("p233.5977"), %arg234: tensor<128x2880xbf16> {ttcore.argument_type = #ttcore.argument_type<parameter>, ttcore.local_shape = #ttcore<local_shape local_shape = tensor<16x720xbf16>>, ttcore.shard_status = #ttcore.shard_status<presharded>, ttir.name = "model.model.layers.11.mlp.experts.down_proj_bias"} loc("p234.6204"), %arg235: tensor<128x2880x2880xbf16> {ttcore.argument_type = #ttcore.argument_type<parameter>, ttcore.local_shape = #ttcore<local_shape local_shape = tensor<16x2880x720xbf16>>, ttcore.shard_status = #ttcore.shard_status<presharded>, ttcore.weight_dtype = "bfp_bf4", ttir.name = "model.model.layers.11.mlp.experts.parametrizations.down_proj.original"} loc("p235.6209"), %arg236: tensor<128x5760xbf16> {ttcore.argument_type = #ttcore.argument_type<parameter>, ttcore.local_shape = #ttcore<local_shape local_shape = tensor<16x5760xbf16>>, ttcore.shard_status = #ttcore.shard_status<presharded>, ttir.name = "model.model.layers.11.mlp.experts.gate_up_proj_bias"} loc("p236.6216"), %arg237: tensor<128x2880x5760xbf16> {ttcore.argument_type = #ttcore.argument_type<parameter>, ttcore.local_shape = #ttcore<local_shape local_shape = tensor<16x720x5760xbf16>>, ttcore.shard_status = #ttcore.shard_status<presharded>, ttcore.weight_dtype = "bfp_bf4", ttir.name = "model.model.layers.11.mlp.experts.parametrizations.gate_up_proj.original"} loc("p237.6221"), %arg238: tensor<64x8x128x64xbf16> {ttcore.argument_type = #ttcore.argument_type<input>, ttcore.local_shape = #ttcore<local_shape local_shape = tensor<64x1x128x64xbf16>>, ttcore.shard_status = #ttcore.shard_status<presharded>, ttir.name = "args_26"} loc("p238.6351"), %arg239: tensor<512xbf16> {ttcore.argument_type = #ttcore.argument_type<parameter>, ttcore.local_shape = #ttcore<local_shape local_shape = tensor<64xbf16>>, ttcore.shard_status = #ttcore.shard_status<presharded>, ttir.name = "self___model_model_layers_12_self_attn_v_proj__parameters__bias"} loc("p239.6360"), %arg240: tensor<512x2880xbf16> {ttcore.argument_type = #ttcore.argument_type<parameter>, ttcore.local_shape = #ttcore<local_shape local_shape = tensor<64x720xbf16>>, ttcore.shard_status = #ttcore.shard_status<presharded>, ttir.name = "self___model_model_layers_12_self_attn_v_proj__parameters__weight"} loc("p240.6364"), %arg241: tensor<64x8x128x64xbf16> {ttcore.argument_type = #ttcore.argument_type<input>, ttcore.local_shape = #ttcore<local_shape local_shape = tensor<64x1x128x64xbf16>>, ttcore.shard_status = #ttcore.shard_status<presharded>, ttir.name = "args_27"} loc("p241.6390"), %arg242: tensor<512xbf16> {ttcore.argument_type = #ttcore.argument_type<parameter>, ttcore.local_shape = #ttcore<local_shape local_shape = tensor<64xbf16>>, ttcore.shard_status = #ttcore.shard_status<presharded>, ttir.name = "self___model_model_layers_13_self_attn_k_proj__parameters__bias"} loc("p242.6401"), %arg243: tensor<512x2880xbf16> {ttcore.argument_type = #ttcore.argument_type<parameter>, ttcore.local_shape = #ttcore<local_shape local_shape = tensor<64x720xbf16>>, ttcore.shard_status = #ttcore.shard_status<presharded>, ttir.name = "self___model_model_layers_13_self_attn_k_proj__parameters__weight"} loc("p243.6405"), %arg244: tensor<2880xbf16> {ttcore.argument_type = #ttcore.argument_type<parameter>, ttcore.local_shape = #ttcore<local_shape local_shape = tensor<720xbf16>>, ttcore.shard_status = #ttcore.shard_status<presharded>, ttir.name = "model.model.layers.13.input_layernorm.weight"} loc("p244.6410"), %arg245: tensor<128xbf16> {ttcore.argument_type = #ttcore.argument_type<parameter>, ttcore.local_shape = #ttcore<local_shape local_shape = tensor<128xbf16>>, ttcore.shard_status = #ttcore.shard_status<presharded>, ttir.name = "model.model.layers.12.mlp.router.bias"} loc("p245.6422"), %arg246: tensor<128x2880xbf16> {ttcore.argument_type = #ttcore.argument_type<parameter>, ttcore.local_shape = #ttcore<local_shape local_shape = tensor<128x720xbf16>>, ttcore.shard_status = #ttcore.shard_status<presharded>, ttcore.weight_dtype = "bfp_bf4", ttir.name = "model.model.layers.12.mlp.router.parametrizations.weight.original"} loc("p246.6430"), %arg247: tensor<2880xbf16> {ttcore.argument_type = #ttcore.argument_type<parameter>, ttcore.local_shape = #ttcore<local_shape local_shape = tensor<720xbf16>>, ttcore.shard_status = #ttcore.shard_status<presharded>, ttir.name = "model.model.layers.12.post_attention_layernorm.weight"} loc("p247.6439"), %arg248: tensor<2880xbf16> {ttcore.argument_type = #ttcore.argument_type<parameter>, ttcore.local_shape = #ttcore<local_shape local_shape = tensor<720xbf16>>, ttcore.shard_status = #ttcore.shard_status<presharded>, ttir.name = "self___model_model_layers_12_self_attn_o_proj__parameters__bias"} loc("p248.6450"), %arg249: tensor<2880x4096xbf16> {ttcore.argument_type = #ttcore.argument_type<parameter>, ttcore.local_shape = #ttcore<local_shape local_shape = tensor<720x512xbf16>>, ttcore.shard_status = #ttcore.shard_status<presharded>, ttir.name = "self___model_model_layers_12_self_attn_o_proj__parameters__weight"} loc("p249.6454"), %arg250: tensor<64xbf16> {ttcore.argument_type = #ttcore.argument_type<parameter>, ttcore.local_shape = #ttcore<local_shape local_shape = tensor<64xbf16>>, ttcore.shard_status = #ttcore.shard_status<presharded>, ttir.name = "model.model.layers.12.self_attn.sinks"} loc("p250.6465"), %arg251: tensor<4096xbf16> {ttcore.argument_type = #ttcore.argument_type<parameter>, ttcore.local_shape = #ttcore<local_shape local_shape = tensor<512xbf16>>, ttcore.shard_status = #ttcore.shard_status<presharded>, ttir.name = "self___model_model_layers_12_self_attn_q_proj__parameters__bias"} loc("p251.6483"), %arg252: tensor<4096x2880xbf16> {ttcore.argument_type = #ttcore.argument_type<parameter>, ttcore.local_shape = #ttcore<local_shape local_shape = tensor<512x720xbf16>>, ttcore.shard_status = #ttcore.shard_status<presharded>, ttir.name = "self___model_model_layers_12_self_attn_q_proj__parameters__weight"} loc("p252.6487"), %arg253: tensor<128x2880xbf16> {ttcore.argument_type = #ttcore.argument_type<parameter>, ttcore.local_shape = #ttcore<local_shape local_shape = tensor<16x720xbf16>>, ttcore.shard_status = #ttcore.shard_status<presharded>, ttir.name = "model.model.layers.12.mlp.experts.down_proj_bias"} loc("p253.6714"), %arg254: tensor<128x2880x2880xbf16> {ttcore.argument_type = #ttcore.argument_type<parameter>, ttcore.local_shape = #ttcore<local_shape local_shape = tensor<16x2880x720xbf16>>, ttcore.shard_status = #ttcore.shard_status<presharded>, ttcore.weight_dtype = "bfp_bf4", ttir.name = "model.model.layers.12.mlp.experts.parametrizations.down_proj.original"} loc("p254.6719"), %arg255: tensor<128x5760xbf16> {ttcore.argument_type = #ttcore.argument_type<parameter>, ttcore.local_shape = #ttcore<local_shape local_shape = tensor<16x5760xbf16>>, ttcore.shard_status = #ttcore.shard_status<presharded>, ttir.name = "model.model.layers.12.mlp.experts.gate_up_proj_bias"} loc("p255.6726"), %arg256: tensor<128x2880x5760xbf16> {ttcore.argument_type = #ttcore.argument_type<parameter>, ttcore.local_shape = #ttcore<local_shape local_shape = tensor<16x720x5760xbf16>>, ttcore.shard_status = #ttcore.shard_status<presharded>, ttcore.weight_dtype = "bfp_bf4", ttir.name = "model.model.layers.12.mlp.experts.parametrizations.gate_up_proj.original"} loc("p256.6731"), %arg257: tensor<64x8x128x64xbf16> {ttcore.argument_type = #ttcore.argument_type<input>, ttcore.local_shape = #ttcore<local_shape local_shape = tensor<64x1x128x64xbf16>>, ttcore.shard_status = #ttcore.shard_status<presharded>, ttir.name = "args_28"} loc("p257.6861"), %arg258: tensor<512xbf16> {ttcore.argument_type = #ttcore.argument_type<parameter>, ttcore.local_shape = #ttcore<local_shape local_shape = tensor<64xbf16>>, ttcore.shard_status = #ttcore.shard_status<presharded>, ttir.name = "self___model_model_layers_13_self_attn_v_proj__parameters__bias"} loc("p258.6870"), %arg259: tensor<512x2880xbf16> {ttcore.argument_type = #ttcore.argument_type<parameter>, ttcore.local_shape = #ttcore<local_shape local_shape = tensor<64x720xbf16>>, ttcore.shard_status = #ttcore.shard_status<presharded>, ttir.name = "self___model_model_layers_13_self_attn_v_proj__parameters__weight"} loc("p259.6874"), %arg260: tensor<64x8x128x64xbf16> {ttcore.argument_type = #ttcore.argument_type<input>, ttcore.local_shape = #ttcore<local_shape local_shape = tensor<64x1x128x64xbf16>>, ttcore.shard_status = #ttcore.shard_status<presharded>, ttir.name = "args_29"} loc("p260.6900"), %arg261: tensor<512xbf16> {ttcore.argument_type = #ttcore.argument_type<parameter>, ttcore.local_shape = #ttcore<local_shape local_shape = tensor<64xbf16>>, ttcore.shard_status = #ttcore.shard_status<presharded>, ttir.name = "self___model_model_layers_14_self_attn_k_proj__parameters__bias"} loc("p261.6911"), %arg262: tensor<512x2880xbf16> {ttcore.argument_type = #ttcore.argument_type<parameter>, ttcore.local_shape = #ttcore<local_shape local_shape = tensor<64x720xbf16>>, ttcore.shard_status = #ttcore.shard_status<presharded>, ttir.name = "self___model_model_layers_14_self_attn_k_proj__parameters__weight"} loc("p262.6915"), %arg263: tensor<2880xbf16> {ttcore.argument_type = #ttcore.argument_type<parameter>, ttcore.local_shape = #ttcore<local_shape local_shape = tensor<720xbf16>>, ttcore.shard_status = #ttcore.shard_status<presharded>, ttir.name = "model.model.layers.14.input_layernorm.weight"} loc("p263.6920"), %arg264: tensor<128xbf16> {ttcore.argument_type = #ttcore.argument_type<parameter>, ttcore.local_shape = #ttcore<local_shape local_shape = tensor<128xbf16>>, ttcore.shard_status = #ttcore.shard_status<presharded>, ttir.name = "model.model.layers.13.mlp.router.bias"} loc("p264.6932"), %arg265: tensor<128x2880xbf16> {ttcore.argument_type = #ttcore.argument_type<parameter>, ttcore.local_shape = #ttcore<local_shape local_shape = tensor<128x720xbf16>>, ttcore.shard_status = #ttcore.shard_status<presharded>, ttcore.weight_dtype = "bfp_bf4", ttir.name = "model.model.layers.13.mlp.router.parametrizations.weight.original"} loc("p265.6940"), %arg266: tensor<2880xbf16> {ttcore.argument_type = #ttcore.argument_type<parameter>, ttcore.local_shape = #ttcore<local_shape local_shape = tensor<720xbf16>>, ttcore.shard_status = #ttcore.shard_status<presharded>, ttir.name = "model.model.layers.13.post_attention_layernorm.weight"} loc("p266.6949"), %arg267: tensor<2880xbf16> {ttcore.argument_type = #ttcore.argument_type<parameter>, ttcore.local_shape = #ttcore<local_shape local_shape = tensor<720xbf16>>, ttcore.shard_status = #ttcore.shard_status<presharded>, ttir.name = "self___model_model_layers_13_self_attn_o_proj__parameters__bias"} loc("p267.6960"), %arg268: tensor<2880x4096xbf16> {ttcore.argument_type = #ttcore.argument_type<parameter>, ttcore.local_shape = #ttcore<local_shape local_shape = tensor<720x512xbf16>>, ttcore.shard_status = #ttcore.shard_status<presharded>, ttir.name = "self___model_model_layers_13_self_attn_o_proj__parameters__weight"} loc("p268.6964"), %arg269: tensor<64xbf16> {ttcore.argument_type = #ttcore.argument_type<parameter>, ttcore.local_shape = #ttcore<local_shape local_shape = tensor<64xbf16>>, ttcore.shard_status = #ttcore.shard_status<presharded>, ttir.name = "model.model.layers.13.self_attn.sinks"} loc("p269.6975"), %arg270: tensor<4096xbf16> {ttcore.argument_type = #ttcore.argument_type<parameter>, ttcore.local_shape = #ttcore<local_shape local_shape = tensor<512xbf16>>, ttcore.shard_status = #ttcore.shard_status<presharded>, ttir.name = "self___model_model_layers_13_self_attn_q_proj__parameters__bias"} loc("p270.6993"), %arg271: tensor<4096x2880xbf16> {ttcore.argument_type = #ttcore.argument_type<parameter>, ttcore.local_shape = #ttcore<local_shape local_shape = tensor<512x720xbf16>>, ttcore.shard_status = #ttcore.shard_status<presharded>, ttir.name = "self___model_model_layers_13_self_attn_q_proj__parameters__weight"} loc("p271.6997"), %arg272: tensor<128x2880xbf16> {ttcore.argument_type = #ttcore.argument_type<parameter>, ttcore.local_shape = #ttcore<local_shape local_shape = tensor<16x720xbf16>>, ttcore.shard_status = #ttcore.shard_status<presharded>, ttir.name = "model.model.layers.13.mlp.experts.down_proj_bias"} loc("p272.7224"), %arg273: tensor<128x2880x2880xbf16> {ttcore.argument_type = #ttcore.argument_type<parameter>, ttcore.local_shape = #ttcore<local_shape local_shape = tensor<16x2880x720xbf16>>, ttcore.shard_status = #ttcore.shard_status<presharded>, ttcore.weight_dtype = "bfp_bf4", ttir.name = "model.model.layers.13.mlp.experts.parametrizations.down_proj.original"} loc("p273.7229"), %arg274: tensor<128x5760xbf16> {ttcore.argument_type = #ttcore.argument_type<parameter>, ttcore.local_shape = #ttcore<local_shape local_shape = tensor<16x5760xbf16>>, ttcore.shard_status = #ttcore.shard_status<presharded>, ttir.name = "model.model.layers.13.mlp.experts.gate_up_proj_bias"} loc("p274.7236"), %arg275: tensor<128x2880x5760xbf16> {ttcore.argument_type = #ttcore.argument_type<parameter>, ttcore.local_shape = #ttcore<local_shape local_shape = tensor<16x720x5760xbf16>>, ttcore.shard_status = #ttcore.shard_status<presharded>, ttcore.weight_dtype = "bfp_bf4", ttir.name = "model.model.layers.13.mlp.experts.parametrizations.gate_up_proj.original"} loc("p275.7241"), %arg276: tensor<64x8x128x64xbf16> {ttcore.argument_type = #ttcore.argument_type<input>, ttcore.local_shape = #ttcore<local_shape local_shape = tensor<64x1x128x64xbf16>>, ttcore.shard_status = #ttcore.shard_status<presharded>, ttir.name = "args_30"} loc("p276.7371"), %arg277: tensor<512xbf16> {ttcore.argument_type = #ttcore.argument_type<parameter>, ttcore.local_shape = #ttcore<local_shape local_shape = tensor<64xbf16>>, ttcore.shard_status = #ttcore.shard_status<presharded>, ttir.name = "self___model_model_layers_14_self_attn_v_proj__parameters__bias"} loc("p277.7380"), %arg278: tensor<512x2880xbf16> {ttcore.argument_type = #ttcore.argument_type<parameter>, ttcore.local_shape = #ttcore<local_shape local_shape = tensor<64x720xbf16>>, ttcore.shard_status = #ttcore.shard_status<presharded>, ttir.name = "self___model_model_layers_14_self_attn_v_proj__parameters__weight"} loc("p278.7384"), %arg279: tensor<64x8x128x64xbf16> {ttcore.argument_type = #ttcore.argument_type<input>, ttcore.local_shape = #ttcore<local_shape local_shape = tensor<64x1x128x64xbf16>>, ttcore.shard_status = #ttcore.shard_status<presharded>, ttir.name = "args_31"} loc("p279.7410"), %arg280: tensor<512xbf16> {ttcore.argument_type = #ttcore.argument_type<parameter>, ttcore.local_shape = #ttcore<local_shape local_shape = tensor<64xbf16>>, ttcore.shard_status = #ttcore.shard_status<presharded>, ttir.name = "self___model_model_layers_15_self_attn_k_proj__parameters__bias"} loc("p280.7421"), %arg281: tensor<512x2880xbf16> {ttcore.argument_type = #ttcore.argument_type<parameter>, ttcore.local_shape = #ttcore<local_shape local_shape = tensor<64x720xbf16>>, ttcore.shard_status = #ttcore.shard_status<presharded>, ttir.name = "self___model_model_layers_15_self_attn_k_proj__parameters__weight"} loc("p281.7425"), %arg282: tensor<2880xbf16> {ttcore.argument_type = #ttcore.argument_type<parameter>, ttcore.local_shape = #ttcore<local_shape local_shape = tensor<720xbf16>>, ttcore.shard_status = #ttcore.shard_status<presharded>, ttir.name = "model.model.layers.15.input_layernorm.weight"} loc("p282.7430"), %arg283: tensor<128xbf16> {ttcore.argument_type = #ttcore.argument_type<parameter>, ttcore.local_shape = #ttcore<local_shape local_shape = tensor<128xbf16>>, ttcore.shard_status = #ttcore.shard_status<presharded>, ttir.name = "model.model.layers.14.mlp.router.bias"} loc("p283.7442"), %arg284: tensor<128x2880xbf16> {ttcore.argument_type = #ttcore.argument_type<parameter>, ttcore.local_shape = #ttcore<local_shape local_shape = tensor<128x720xbf16>>, ttcore.shard_status = #ttcore.shard_status<presharded>, ttcore.weight_dtype = "bfp_bf4", ttir.name = "model.model.layers.14.mlp.router.parametrizations.weight.original"} loc("p284.7450"), %arg285: tensor<2880xbf16> {ttcore.argument_type = #ttcore.argument_type<parameter>, ttcore.local_shape = #ttcore<local_shape local_shape = tensor<720xbf16>>, ttcore.shard_status = #ttcore.shard_status<presharded>, ttir.name = "model.model.layers.14.post_attention_layernorm.weight"} loc("p285.7459"), %arg286: tensor<2880xbf16> {ttcore.argument_type = #ttcore.argument_type<parameter>, ttcore.local_shape = #ttcore<local_shape local_shape = tensor<720xbf16>>, ttcore.shard_status = #ttcore.shard_status<presharded>, ttir.name = "self___model_model_layers_14_self_attn_o_proj__parameters__bias"} loc("p286.7470"), %arg287: tensor<2880x4096xbf16> {ttcore.argument_type = #ttcore.argument_type<parameter>, ttcore.local_shape = #ttcore<local_shape local_shape = tensor<720x512xbf16>>, ttcore.shard_status = #ttcore.shard_status<presharded>, ttir.name = "self___model_model_layers_14_self_attn_o_proj__parameters__weight"} loc("p287.7474"), %arg288: tensor<64xbf16> {ttcore.argument_type = #ttcore.argument_type<parameter>, ttcore.local_shape = #ttcore<local_shape local_shape = tensor<64xbf16>>, ttcore.shard_status = #ttcore.shard_status<presharded>, ttir.name = "model.model.layers.14.self_attn.sinks"} loc("p288.7485"), %arg289: tensor<4096xbf16> {ttcore.argument_type = #ttcore.argument_type<parameter>, ttcore.local_shape = #ttcore<local_shape local_shape = tensor<512xbf16>>, ttcore.shard_status = #ttcore.shard_status<presharded>, ttir.name = "self___model_model_layers_14_self_attn_q_proj__parameters__bias"} loc("p289.7503"), %arg290: tensor<4096x2880xbf16> {ttcore.argument_type = #ttcore.argument_type<parameter>, ttcore.local_shape = #ttcore<local_shape local_shape = tensor<512x720xbf16>>, ttcore.shard_status = #ttcore.shard_status<presharded>, ttir.name = "self___model_model_layers_14_self_attn_q_proj__parameters__weight"} loc("p290.7507"), %arg291: tensor<128x2880xbf16> {ttcore.argument_type = #ttcore.argument_type<parameter>, ttcore.local_shape = #ttcore<local_shape local_shape = tensor<16x720xbf16>>, ttcore.shard_status = #ttcore.shard_status<presharded>, ttir.name = "model.model.layers.14.mlp.experts.down_proj_bias"} loc("p291.7734"), %arg292: tensor<128x2880x2880xbf16> {ttcore.argument_type = #ttcore.argument_type<parameter>, ttcore.local_shape = #ttcore<local_shape local_shape = tensor<16x2880x720xbf16>>, ttcore.shard_status = #ttcore.shard_status<presharded>, ttcore.weight_dtype = "bfp_bf4", ttir.name = "model.model.layers.14.mlp.experts.parametrizations.down_proj.original"} loc("p292.7739"), %arg293: tensor<128x5760xbf16> {ttcore.argument_type = #ttcore.argument_type<parameter>, ttcore.local_shape = #ttcore<local_shape local_shape = tensor<16x5760xbf16>>, ttcore.shard_status = #ttcore.shard_status<presharded>, ttir.name = "model.model.layers.14.mlp.experts.gate_up_proj_bias"} loc("p293.7746"), %arg294: tensor<128x2880x5760xbf16> {ttcore.argument_type = #ttcore.argument_type<parameter>, ttcore.local_shape = #ttcore<local_shape local_shape = tensor<16x720x5760xbf16>>, ttcore.shard_status = #ttcore.shard_status<presharded>, ttcore.weight_dtype = "bfp_bf4", ttir.name = "model.model.layers.14.mlp.experts.parametrizations.gate_up_proj.original"} loc("p294.7751"), %arg295: tensor<64x8x128x64xbf16> {ttcore.argument_type = #ttcore.argument_type<input>, ttcore.local_shape = #ttcore<local_shape local_shape = tensor<64x1x128x64xbf16>>, ttcore.shard_status = #ttcore.shard_status<presharded>, ttir.name = "args_32"} loc("p295.7881"), %arg296: tensor<512xbf16> {ttcore.argument_type = #ttcore.argument_type<parameter>, ttcore.local_shape = #ttcore<local_shape local_shape = tensor<64xbf16>>, ttcore.shard_status = #ttcore.shard_status<presharded>, ttir.name = "self___model_model_layers_15_self_attn_v_proj__parameters__bias"} loc("p296.7890"), %arg297: tensor<512x2880xbf16> {ttcore.argument_type = #ttcore.argument_type<parameter>, ttcore.local_shape = #ttcore<local_shape local_shape = tensor<64x720xbf16>>, ttcore.shard_status = #ttcore.shard_status<presharded>, ttir.name = "self___model_model_layers_15_self_attn_v_proj__parameters__weight"} loc("p297.7894"), %arg298: tensor<64x8x128x64xbf16> {ttcore.argument_type = #ttcore.argument_type<input>, ttcore.local_shape = #ttcore<local_shape local_shape = tensor<64x1x128x64xbf16>>, ttcore.shard_status = #ttcore.shard_status<presharded>, ttir.name = "args_33"} loc("p298.7920"), %arg299: tensor<512xbf16> {ttcore.argument_type = #ttcore.argument_type<parameter>, ttcore.local_shape = #ttcore<local_shape local_shape = tensor<64xbf16>>, ttcore.shard_status = #ttcore.shard_status<presharded>, ttir.name = "self___model_model_layers_16_self_attn_k_proj__parameters__bias"} loc("p299.7931"), %arg300: tensor<512x2880xbf16> {ttcore.argument_type = #ttcore.argument_type<parameter>, ttcore.local_shape = #ttcore<local_shape local_shape = tensor<64x720xbf16>>, ttcore.shard_status = #ttcore.shard_status<presharded>, ttir.name = "self___model_model_layers_16_self_attn_k_proj__parameters__weight"} loc("p300.7935"), %arg301: tensor<2880xbf16> {ttcore.argument_type = #ttcore.argument_type<parameter>, ttcore.local_shape = #ttcore<local_shape local_shape = tensor<720xbf16>>, ttcore.shard_status = #ttcore.shard_status<presharded>, ttir.name = "model.model.layers.16.input_layernorm.weight"} loc("p301.7940"), %arg302: tensor<128xbf16> {ttcore.argument_type = #ttcore.argument_type<parameter>, ttcore.local_shape = #ttcore<local_shape local_shape = tensor<128xbf16>>, ttcore.shard_status = #ttcore.shard_status<presharded>, ttir.name = "model.model.layers.15.mlp.router.bias"} loc("p302.7952"), %arg303: tensor<128x2880xbf16> {ttcore.argument_type = #ttcore.argument_type<parameter>, ttcore.local_shape = #ttcore<local_shape local_shape = tensor<128x720xbf16>>, ttcore.shard_status = #ttcore.shard_status<presharded>, ttcore.weight_dtype = "bfp_bf4", ttir.name = "model.model.layers.15.mlp.router.parametrizations.weight.original"} loc("p303.7960"), %arg304: tensor<2880xbf16> {ttcore.argument_type = #ttcore.argument_type<parameter>, ttcore.local_shape = #ttcore<local_shape local_shape = tensor<720xbf16>>, ttcore.shard_status = #ttcore.shard_status<presharded>, ttir.name = "model.model.layers.15.post_attention_layernorm.weight"} loc("p304.7969"), %arg305: tensor<2880xbf16> {ttcore.argument_type = #ttcore.argument_type<parameter>, ttcore.local_shape = #ttcore<local_shape local_shape = tensor<720xbf16>>, ttcore.shard_status = #ttcore.shard_status<presharded>, ttir.name = "self___model_model_layers_15_self_attn_o_proj__parameters__bias"} loc("p305.7980"), %arg306: tensor<2880x4096xbf16> {ttcore.argument_type = #ttcore.argument_type<parameter>, ttcore.local_shape = #ttcore<local_shape local_shape = tensor<720x512xbf16>>, ttcore.shard_status = #ttcore.shard_status<presharded>, ttir.name = "self___model_model_layers_15_self_attn_o_proj__parameters__weight"} loc("p306.7984"), %arg307: tensor<64xbf16> {ttcore.argument_type = #ttcore.argument_type<parameter>, ttcore.local_shape = #ttcore<local_shape local_shape = tensor<64xbf16>>, ttcore.shard_status = #ttcore.shard_status<presharded>, ttir.name = "model.model.layers.15.self_attn.sinks"} loc("p307.7995"), %arg308: tensor<4096xbf16> {ttcore.argument_type = #ttcore.argument_type<parameter>, ttcore.local_shape = #ttcore<local_shape local_shape = tensor<512xbf16>>, ttcore.shard_status = #ttcore.shard_status<presharded>, ttir.name = "self___model_model_layers_15_self_attn_q_proj__parameters__bias"} loc("p308.8013"), %arg309: tensor<4096x2880xbf16> {ttcore.argument_type = #ttcore.argument_type<parameter>, ttcore.local_shape = #ttcore<local_shape local_shape = tensor<512x720xbf16>>, ttcore.shard_status = #ttcore.shard_status<presharded>, ttir.name = "self___model_model_layers_15_self_attn_q_proj__parameters__weight"} loc("p309.8017"), %arg310: tensor<128x2880xbf16> {ttcore.argument_type = #ttcore.argument_type<parameter>, ttcore.local_shape = #ttcore<local_shape local_shape = tensor<16x720xbf16>>, ttcore.shard_status = #ttcore.shard_status<presharded>, ttir.name = "model.model.layers.15.mlp.experts.down_proj_bias"} loc("p310.8244"), %arg311: tensor<128x2880x2880xbf16> {ttcore.argument_type = #ttcore.argument_type<parameter>, ttcore.local_shape = #ttcore<local_shape local_shape = tensor<16x2880x720xbf16>>, ttcore.shard_status = #ttcore.shard_status<presharded>, ttcore.weight_dtype = "bfp_bf4", ttir.name = "model.model.layers.15.mlp.experts.parametrizations.down_proj.original"} loc("p311.8249"), %arg312: tensor<128x5760xbf16> {ttcore.argument_type = #ttcore.argument_type<parameter>, ttcore.local_shape = #ttcore<local_shape local_shape = tensor<16x5760xbf16>>, ttcore.shard_status = #ttcore.shard_status<presharded>, ttir.name = "model.model.layers.15.mlp.experts.gate_up_proj_bias"} loc("p312.8256"), %arg313: tensor<128x2880x5760xbf16> {ttcore.argument_type = #ttcore.argument_type<parameter>, ttcore.local_shape = #ttcore<local_shape local_shape = tensor<16x720x5760xbf16>>, ttcore.shard_status = #ttcore.shard_status<presharded>, ttcore.weight_dtype = "bfp_bf4", ttir.name = "model.model.layers.15.mlp.experts.parametrizations.gate_up_proj.original"} loc("p313.8261"), %arg314: tensor<64x8x128x64xbf16> {ttcore.argument_type = #ttcore.argument_type<input>, ttcore.local_shape = #ttcore<local_shape local_shape = tensor<64x1x128x64xbf16>>, ttcore.shard_status = #ttcore.shard_status<presharded>, ttir.name = "args_34"} loc("p314.8391"), %arg315: tensor<512xbf16> {ttcore.argument_type = #ttcore.argument_type<parameter>, ttcore.local_shape = #ttcore<local_shape local_shape = tensor<64xbf16>>, ttcore.shard_status = #ttcore.shard_status<presharded>, ttir.name = "self___model_model_layers_16_self_attn_v_proj__parameters__bias"} loc("p315.8400"), %arg316: tensor<512x2880xbf16> {ttcore.argument_type = #ttcore.argument_type<parameter>, ttcore.local_shape = #ttcore<local_shape local_shape = tensor<64x720xbf16>>, ttcore.shard_status = #ttcore.shard_status<presharded>, ttir.name = "self___model_model_layers_16_self_attn_v_proj__parameters__weight"} loc("p316.8404"), %arg317: tensor<64x8x128x64xbf16> {ttcore.argument_type = #ttcore.argument_type<input>, ttcore.local_shape = #ttcore<local_shape local_shape = tensor<64x1x128x64xbf16>>, ttcore.shard_status = #ttcore.shard_status<presharded>, ttir.name = "args_35"} loc("p317.8430"), %arg318: tensor<512xbf16> {ttcore.argument_type = #ttcore.argument_type<parameter>, ttcore.local_shape = #ttcore<local_shape local_shape = tensor<64xbf16>>, ttcore.shard_status = #ttcore.shard_status<presharded>, ttir.name = "self___model_model_layers_17_self_attn_k_proj__parameters__bias"} loc("p318.8441"), %arg319: tensor<512x2880xbf16> {ttcore.argument_type = #ttcore.argument_type<parameter>, ttcore.local_shape = #ttcore<local_shape local_shape = tensor<64x720xbf16>>, ttcore.shard_status = #ttcore.shard_status<presharded>, ttir.name = "self___model_model_layers_17_self_attn_k_proj__parameters__weight"} loc("p319.8445"), %arg320: tensor<2880xbf16> {ttcore.argument_type = #ttcore.argument_type<parameter>, ttcore.local_shape = #ttcore<local_shape local_shape = tensor<720xbf16>>, ttcore.shard_status = #ttcore.shard_status<presharded>, ttir.name = "model.model.layers.17.input_layernorm.weight"} loc("p320.8450"), %arg321: tensor<128xbf16> {ttcore.argument_type = #ttcore.argument_type<parameter>, ttcore.local_shape = #ttcore<local_shape local_shape = tensor<128xbf16>>, ttcore.shard_status = #ttcore.shard_status<presharded>, ttir.name = "model.model.layers.16.mlp.router.bias"} loc("p321.8462"), %arg322: tensor<128x2880xbf16> {ttcore.argument_type = #ttcore.argument_type<parameter>, ttcore.local_shape = #ttcore<local_shape local_shape = tensor<128x720xbf16>>, ttcore.shard_status = #ttcore.shard_status<presharded>, ttcore.weight_dtype = "bfp_bf4", ttir.name = "model.model.layers.16.mlp.router.parametrizations.weight.original"} loc("p322.8470"), %arg323: tensor<2880xbf16> {ttcore.argument_type = #ttcore.argument_type<parameter>, ttcore.local_shape = #ttcore<local_shape local_shape = tensor<720xbf16>>, ttcore.shard_status = #ttcore.shard_status<presharded>, ttir.name = "model.model.layers.16.post_attention_layernorm.weight"} loc("p323.8479"), %arg324: tensor<2880xbf16> {ttcore.argument_type = #ttcore.argument_type<parameter>, ttcore.local_shape = #ttcore<local_shape local_shape = tensor<720xbf16>>, ttcore.shard_status = #ttcore.shard_status<presharded>, ttir.name = "self___model_model_layers_16_self_attn_o_proj__parameters__bias"} loc("p324.8490"), %arg325: tensor<2880x4096xbf16> {ttcore.argument_type = #ttcore.argument_type<parameter>, ttcore.local_shape = #ttcore<local_shape local_shape = tensor<720x512xbf16>>, ttcore.shard_status = #ttcore.shard_status<presharded>, ttir.name = "self___model_model_layers_16_self_attn_o_proj__parameters__weight"} loc("p325.8494"), %arg326: tensor<64xbf16> {ttcore.argument_type = #ttcore.argument_type<parameter>, ttcore.local_shape = #ttcore<local_shape local_shape = tensor<64xbf16>>, ttcore.shard_status = #ttcore.shard_status<presharded>, ttir.name = "model.model.layers.16.self_attn.sinks"} loc("p326.8505"), %arg327: tensor<4096xbf16> {ttcore.argument_type = #ttcore.argument_type<parameter>, ttcore.local_shape = #ttcore<local_shape local_shape = tensor<512xbf16>>, ttcore.shard_status = #ttcore.shard_status<presharded>, ttir.name = "self___model_model_layers_16_self_attn_q_proj__parameters__bias"} loc("p327.8523"), %arg328: tensor<4096x2880xbf16> {ttcore.argument_type = #ttcore.argument_type<parameter>, ttcore.local_shape = #ttcore<local_shape local_shape = tensor<512x720xbf16>>, ttcore.shard_status = #ttcore.shard_status<presharded>, ttir.name = "self___model_model_layers_16_self_attn_q_proj__parameters__weight"} loc("p328.8527"), %arg329: tensor<128x2880xbf16> {ttcore.argument_type = #ttcore.argument_type<parameter>, ttcore.local_shape = #ttcore<local_shape local_shape = tensor<16x720xbf16>>, ttcore.shard_status = #ttcore.shard_status<presharded>, ttir.name = "model.model.layers.16.mlp.experts.down_proj_bias"} loc("p329.8754"), %arg330: tensor<128x2880x2880xbf16> {ttcore.argument_type = #ttcore.argument_type<parameter>, ttcore.local_shape = #ttcore<local_shape local_shape = tensor<16x2880x720xbf16>>, ttcore.shard_status = #ttcore.shard_status<presharded>, ttcore.weight_dtype = "bfp_bf4", ttir.name = "model.model.layers.16.mlp.experts.parametrizations.down_proj.original"} loc("p330.8759"), %arg331: tensor<128x5760xbf16> {ttcore.argument_type = #ttcore.argument_type<parameter>, ttcore.local_shape = #ttcore<local_shape local_shape = tensor<16x5760xbf16>>, ttcore.shard_status = #ttcore.shard_status<presharded>, ttir.name = "model.model.layers.16.mlp.experts.gate_up_proj_bias"} loc("p331.8766"), %arg332: tensor<128x2880x5760xbf16> {ttcore.argument_type = #ttcore.argument_type<parameter>, ttcore.local_shape = #ttcore<local_shape local_shape = tensor<16x720x5760xbf16>>, ttcore.shard_status = #ttcore.shard_status<presharded>, ttcore.weight_dtype = "bfp_bf4", ttir.name = "model.model.layers.16.mlp.experts.parametrizations.gate_up_proj.original"} loc("p332.8771"), %arg333: tensor<64x8x128x64xbf16> {ttcore.argument_type = #ttcore.argument_type<input>, ttcore.local_shape = #ttcore<local_shape local_shape = tensor<64x1x128x64xbf16>>, ttcore.shard_status = #ttcore.shard_status<presharded>, ttir.name = "args_36"} loc("p333.8901"), %arg334: tensor<512xbf16> {ttcore.argument_type = #ttcore.argument_type<parameter>, ttcore.local_shape = #ttcore<local_shape local_shape = tensor<64xbf16>>, ttcore.shard_status = #ttcore.shard_status<presharded>, ttir.name = "self___model_model_layers_17_self_attn_v_proj__parameters__bias"} loc("p334.8910"), %arg335: tensor<512x2880xbf16> {ttcore.argument_type = #ttcore.argument_type<parameter>, ttcore.local_shape = #ttcore<local_shape local_shape = tensor<64x720xbf16>>, ttcore.shard_status = #ttcore.shard_status<presharded>, ttir.name = "self___model_model_layers_17_self_attn_v_proj__parameters__weight"} loc("p335.8914"), %arg336: tensor<64x8x128x64xbf16> {ttcore.argument_type = #ttcore.argument_type<input>, ttcore.local_shape = #ttcore<local_shape local_shape = tensor<64x1x128x64xbf16>>, ttcore.shard_status = #ttcore.shard_status<presharded>, ttir.name = "args_37"} loc("p336.8940"), %arg337: tensor<512xbf16> {ttcore.argument_type = #ttcore.argument_type<parameter>, ttcore.local_shape = #ttcore<local_shape local_shape = tensor<64xbf16>>, ttcore.shard_status = #ttcore.shard_status<presharded>, ttir.name = "self___model_model_layers_18_self_attn_k_proj__parameters__bias"} loc("p337.8951"), %arg338: tensor<512x2880xbf16> {ttcore.argument_type = #ttcore.argument_type<parameter>, ttcore.local_shape = #ttcore<local_shape local_shape = tensor<64x720xbf16>>, ttcore.shard_status = #ttcore.shard_status<presharded>, ttir.name = "self___model_model_layers_18_self_attn_k_proj__parameters__weight"} loc("p338.8955"), %arg339: tensor<2880xbf16> {ttcore.argument_type = #ttcore.argument_type<parameter>, ttcore.local_shape = #ttcore<local_shape local_shape = tensor<720xbf16>>, ttcore.shard_status = #ttcore.shard_status<presharded>, ttir.name = "model.model.layers.18.input_layernorm.weight"} loc("p339.8960"), %arg340: tensor<128xbf16> {ttcore.argument_type = #ttcore.argument_type<parameter>, ttcore.local_shape = #ttcore<local_shape local_shape = tensor<128xbf16>>, ttcore.shard_status = #ttcore.shard_status<presharded>, ttir.name = "model.model.layers.17.mlp.router.bias"} loc("p340.8972"), %arg341: tensor<128x2880xbf16> {ttcore.argument_type = #ttcore.argument_type<parameter>, ttcore.local_shape = #ttcore<local_shape local_shape = tensor<128x720xbf16>>, ttcore.shard_status = #ttcore.shard_status<presharded>, ttcore.weight_dtype = "bfp_bf4", ttir.name = "model.model.layers.17.mlp.router.parametrizations.weight.original"} loc("p341.8980"), %arg342: tensor<2880xbf16> {ttcore.argument_type = #ttcore.argument_type<parameter>, ttcore.local_shape = #ttcore<local_shape local_shape = tensor<720xbf16>>, ttcore.shard_status = #ttcore.shard_status<presharded>, ttir.name = "model.model.layers.17.post_attention_layernorm.weight"} loc("p342.8989"), %arg343: tensor<2880xbf16> {ttcore.argument_type = #ttcore.argument_type<parameter>, ttcore.local_shape = #ttcore<local_shape local_shape = tensor<720xbf16>>, ttcore.shard_status = #ttcore.shard_status<presharded>, ttir.name = "self___model_model_layers_17_self_attn_o_proj__parameters__bias"} loc("p343.9000"), %arg344: tensor<2880x4096xbf16> {ttcore.argument_type = #ttcore.argument_type<parameter>, ttcore.local_shape = #ttcore<local_shape local_shape = tensor<720x512xbf16>>, ttcore.shard_status = #ttcore.shard_status<presharded>, ttir.name = "self___model_model_layers_17_self_attn_o_proj__parameters__weight"} loc("p344.9004"), %arg345: tensor<64xbf16> {ttcore.argument_type = #ttcore.argument_type<parameter>, ttcore.local_shape = #ttcore<local_shape local_shape = tensor<64xbf16>>, ttcore.shard_status = #ttcore.shard_status<presharded>, ttir.name = "model.model.layers.17.self_attn.sinks"} loc("p345.9015"), %arg346: tensor<4096xbf16> {ttcore.argument_type = #ttcore.argument_type<parameter>, ttcore.local_shape = #ttcore<local_shape local_shape = tensor<512xbf16>>, ttcore.shard_status = #ttcore.shard_status<presharded>, ttir.name = "self___model_model_layers_17_self_attn_q_proj__parameters__bias"} loc("p346.9033"), %arg347: tensor<4096x2880xbf16> {ttcore.argument_type = #ttcore.argument_type<parameter>, ttcore.local_shape = #ttcore<local_shape local_shape = tensor<512x720xbf16>>, ttcore.shard_status = #ttcore.shard_status<presharded>, ttir.name = "self___model_model_layers_17_self_attn_q_proj__parameters__weight"} loc("p347.9037"), %arg348: tensor<128x2880xbf16> {ttcore.argument_type = #ttcore.argument_type<parameter>, ttcore.local_shape = #ttcore<local_shape local_shape = tensor<16x720xbf16>>, ttcore.shard_status = #ttcore.shard_status<presharded>, ttir.name = "model.model.layers.17.mlp.experts.down_proj_bias"} loc("p348.9264"), %arg349: tensor<128x2880x2880xbf16> {ttcore.argument_type = #ttcore.argument_type<parameter>, ttcore.local_shape = #ttcore<local_shape local_shape = tensor<16x2880x720xbf16>>, ttcore.shard_status = #ttcore.shard_status<presharded>, ttcore.weight_dtype = "bfp_bf4", ttir.name = "model.model.layers.17.mlp.experts.parametrizations.down_proj.original"} loc("p349.9269"), %arg350: tensor<128x5760xbf16> {ttcore.argument_type = #ttcore.argument_type<parameter>, ttcore.local_shape = #ttcore<local_shape local_shape = tensor<16x5760xbf16>>, ttcore.shard_status = #ttcore.shard_status<presharded>, ttir.name = "model.model.layers.17.mlp.experts.gate_up_proj_bias"} loc("p350.9276"), %arg351: tensor<128x2880x5760xbf16> {ttcore.argument_type = #ttcore.argument_type<parameter>, ttcore.local_shape = #ttcore<local_shape local_shape = tensor<16x720x5760xbf16>>, ttcore.shard_status = #ttcore.shard_status<presharded>, ttcore.weight_dtype = "bfp_bf4", ttir.name = "model.model.layers.17.mlp.experts.parametrizations.gate_up_proj.original"} loc("p351.9281"), %arg352: tensor<64x8x128x64xbf16> {ttcore.argument_type = #ttcore.argument_type<input>, ttcore.local_shape = #ttcore<local_shape local_shape = tensor<64x1x128x64xbf16>>, ttcore.shard_status = #ttcore.shard_status<presharded>, ttir.name = "args_38"} loc("p352.9411"), %arg353: tensor<512xbf16> {ttcore.argument_type = #ttcore.argument_type<parameter>, ttcore.local_shape = #ttcore<local_shape local_shape = tensor<64xbf16>>, ttcore.shard_status = #ttcore.shard_status<presharded>, ttir.name = "self___model_model_layers_18_self_attn_v_proj__parameters__bias"} loc("p353.9420"), %arg354: tensor<512x2880xbf16> {ttcore.argument_type = #ttcore.argument_type<parameter>, ttcore.local_shape = #ttcore<local_shape local_shape = tensor<64x720xbf16>>, ttcore.shard_status = #ttcore.shard_status<presharded>, ttir.name = "self___model_model_layers_18_self_attn_v_proj__parameters__weight"} loc("p354.9424"), %arg355: tensor<64x8x128x64xbf16> {ttcore.argument_type = #ttcore.argument_type<input>, ttcore.local_shape = #ttcore<local_shape local_shape = tensor<64x1x128x64xbf16>>, ttcore.shard_status = #ttcore.shard_status<presharded>, ttir.name = "args_39"} loc("p355.9450"), %arg356: tensor<512xbf16> {ttcore.argument_type = #ttcore.argument_type<parameter>, ttcore.local_shape = #ttcore<local_shape local_shape = tensor<64xbf16>>, ttcore.shard_status = #ttcore.shard_status<presharded>, ttir.name = "self___model_model_layers_19_self_attn_k_proj__parameters__bias"} loc("p356.9461"), %arg357: tensor<512x2880xbf16> {ttcore.argument_type = #ttcore.argument_type<parameter>, ttcore.local_shape = #ttcore<local_shape local_shape = tensor<64x720xbf16>>, ttcore.shard_status = #ttcore.shard_status<presharded>, ttir.name = "self___model_model_layers_19_self_attn_k_proj__parameters__weight"} loc("p357.9465"), %arg358: tensor<2880xbf16> {ttcore.argument_type = #ttcore.argument_type<parameter>, ttcore.local_shape = #ttcore<local_shape local_shape = tensor<720xbf16>>, ttcore.shard_status = #ttcore.shard_status<presharded>, ttir.name = "model.model.layers.19.input_layernorm.weight"} loc("p358.9470"), %arg359: tensor<128xbf16> {ttcore.argument_type = #ttcore.argument_type<parameter>, ttcore.local_shape = #ttcore<local_shape local_shape = tensor<128xbf16>>, ttcore.shard_status = #ttcore.shard_status<presharded>, ttir.name = "model.model.layers.18.mlp.router.bias"} loc("p359.9482"), %arg360: tensor<128x2880xbf16> {ttcore.argument_type = #ttcore.argument_type<parameter>, ttcore.local_shape = #ttcore<local_shape local_shape = tensor<128x720xbf16>>, ttcore.shard_status = #ttcore.shard_status<presharded>, ttcore.weight_dtype = "bfp_bf4", ttir.name = "model.model.layers.18.mlp.router.parametrizations.weight.original"} loc("p360.9490"), %arg361: tensor<2880xbf16> {ttcore.argument_type = #ttcore.argument_type<parameter>, ttcore.local_shape = #ttcore<local_shape local_shape = tensor<720xbf16>>, ttcore.shard_status = #ttcore.shard_status<presharded>, ttir.name = "model.model.layers.18.post_attention_layernorm.weight"} loc("p361.9499"), %arg362: tensor<2880xbf16> {ttcore.argument_type = #ttcore.argument_type<parameter>, ttcore.local_shape = #ttcore<local_shape local_shape = tensor<720xbf16>>, ttcore.shard_status = #ttcore.shard_status<presharded>, ttir.name = "self___model_model_layers_18_self_attn_o_proj__parameters__bias"} loc("p362.9510"), %arg363: tensor<2880x4096xbf16> {ttcore.argument_type = #ttcore.argument_type<parameter>, ttcore.local_shape = #ttcore<local_shape local_shape = tensor<720x512xbf16>>, ttcore.shard_status = #ttcore.shard_status<presharded>, ttir.name = "self___model_model_layers_18_self_attn_o_proj__parameters__weight"} loc("p363.9514"), %arg364: tensor<64xbf16> {ttcore.argument_type = #ttcore.argument_type<parameter>, ttcore.local_shape = #ttcore<local_shape local_shape = tensor<64xbf16>>, ttcore.shard_status = #ttcore.shard_status<presharded>, ttir.name = "model.model.layers.18.self_attn.sinks"} loc("p364.9525"), %arg365: tensor<4096xbf16> {ttcore.argument_type = #ttcore.argument_type<parameter>, ttcore.local_shape = #ttcore<local_shape local_shape = tensor<512xbf16>>, ttcore.shard_status = #ttcore.shard_status<presharded>, ttir.name = "self___model_model_layers_18_self_attn_q_proj__parameters__bias"} loc("p365.9543"), %arg366: tensor<4096x2880xbf16> {ttcore.argument_type = #ttcore.argument_type<parameter>, ttcore.local_shape = #ttcore<local_shape local_shape = tensor<512x720xbf16>>, ttcore.shard_status = #ttcore.shard_status<presharded>, ttir.name = "self___model_model_layers_18_self_attn_q_proj__parameters__weight"} loc("p366.9547"), %arg367: tensor<128x2880xbf16> {ttcore.argument_type = #ttcore.argument_type<parameter>, ttcore.local_shape = #ttcore<local_shape local_shape = tensor<16x720xbf16>>, ttcore.shard_status = #ttcore.shard_status<presharded>, ttir.name = "model.model.layers.18.mlp.experts.down_proj_bias"} loc("p367.9774"), %arg368: tensor<128x2880x2880xbf16> {ttcore.argument_type = #ttcore.argument_type<parameter>, ttcore.local_shape = #ttcore<local_shape local_shape = tensor<16x2880x720xbf16>>, ttcore.shard_status = #ttcore.shard_status<presharded>, ttcore.weight_dtype = "bfp_bf4", ttir.name = "model.model.layers.18.mlp.experts.parametrizations.down_proj.original"} loc("p368.9779"), %arg369: tensor<128x5760xbf16> {ttcore.argument_type = #ttcore.argument_type<parameter>, ttcore.local_shape = #ttcore<local_shape local_shape = tensor<16x5760xbf16>>, ttcore.shard_status = #ttcore.shard_status<presharded>, ttir.name = "model.model.layers.18.mlp.experts.gate_up_proj_bias"} loc("p369.9786"), %arg370: tensor<128x2880x5760xbf16> {ttcore.argument_type = #ttcore.argument_type<parameter>, ttcore.local_shape = #ttcore<local_shape local_shape = tensor<16x720x5760xbf16>>, ttcore.shard_status = #ttcore.shard_status<presharded>, ttcore.weight_dtype = "bfp_bf4", ttir.name = "model.model.layers.18.mlp.experts.parametrizations.gate_up_proj.original"} loc("p370.9791"), %arg371: tensor<64x8x128x64xbf16> {ttcore.argument_type = #ttcore.argument_type<input>, ttcore.local_shape = #ttcore<local_shape local_shape = tensor<64x1x128x64xbf16>>, ttcore.shard_status = #ttcore.shard_status<presharded>, ttir.name = "args_40"} loc("p371.9921"), %arg372: tensor<512xbf16> {ttcore.argument_type = #ttcore.argument_type<parameter>, ttcore.local_shape = #ttcore<local_shape local_shape = tensor<64xbf16>>, ttcore.shard_status = #ttcore.shard_status<presharded>, ttir.name = "self___model_model_layers_19_self_attn_v_proj__parameters__bias"} loc("p372.9930"), %arg373: tensor<512x2880xbf16> {ttcore.argument_type = #ttcore.argument_type<parameter>, ttcore.local_shape = #ttcore<local_shape local_shape = tensor<64x720xbf16>>, ttcore.shard_status = #ttcore.shard_status<presharded>, ttir.name = "self___model_model_layers_19_self_attn_v_proj__parameters__weight"} loc("p373.9934"), %arg374: tensor<64x8x128x64xbf16> {ttcore.argument_type = #ttcore.argument_type<input>, ttcore.local_shape = #ttcore<local_shape local_shape = tensor<64x1x128x64xbf16>>, ttcore.shard_status = #ttcore.shard_status<presharded>, ttir.name = "args_41"} loc("p374.9960"), %arg375: tensor<512xbf16> {ttcore.argument_type = #ttcore.argument_type<parameter>, ttcore.local_shape = #ttcore<local_shape local_shape = tensor<64xbf16>>, ttcore.shard_status = #ttcore.shard_status<presharded>, ttir.name = "self___model_model_layers_20_self_attn_k_proj__parameters__bias"} loc("p375.9971"), %arg376: tensor<512x2880xbf16> {ttcore.argument_type = #ttcore.argument_type<parameter>, ttcore.local_shape = #ttcore<local_shape local_shape = tensor<64x720xbf16>>, ttcore.shard_status = #ttcore.shard_status<presharded>, ttir.name = "self___model_model_layers_20_self_attn_k_proj__parameters__weight"} loc("p376.9975"), %arg377: tensor<2880xbf16> {ttcore.argument_type = #ttcore.argument_type<parameter>, ttcore.local_shape = #ttcore<local_shape local_shape = tensor<720xbf16>>, ttcore.shard_status = #ttcore.shard_status<presharded>, ttir.name = "model.model.layers.20.input_layernorm.weight"} loc("p377.9980"), %arg378: tensor<128xbf16> {ttcore.argument_type = #ttcore.argument_type<parameter>, ttcore.local_shape = #ttcore<local_shape local_shape = tensor<128xbf16>>, ttcore.shard_status = #ttcore.shard_status<presharded>, ttir.name = "model.model.layers.19.mlp.router.bias"} loc("p378.9992"), %arg379: tensor<128x2880xbf16> {ttcore.argument_type = #ttcore.argument_type<parameter>, ttcore.local_shape = #ttcore<local_shape local_shape = tensor<128x720xbf16>>, ttcore.shard_status = #ttcore.shard_status<presharded>, ttcore.weight_dtype = "bfp_bf4", ttir.name = "model.model.layers.19.mlp.router.parametrizations.weight.original"} loc("p379.10000"), %arg380: tensor<2880xbf16> {ttcore.argument_type = #ttcore.argument_type<parameter>, ttcore.local_shape = #ttcore<local_shape local_shape = tensor<720xbf16>>, ttcore.shard_status = #ttcore.shard_status<presharded>, ttir.name = "model.model.layers.19.post_attention_layernorm.weight"} loc("p380.10009"), %arg381: tensor<2880xbf16> {ttcore.argument_type = #ttcore.argument_type<parameter>, ttcore.local_shape = #ttcore<local_shape local_shape = tensor<720xbf16>>, ttcore.shard_status = #ttcore.shard_status<presharded>, ttir.name = "self___model_model_layers_19_self_attn_o_proj__parameters__bias"} loc("p381.10020"), %arg382: tensor<2880x4096xbf16> {ttcore.argument_type = #ttcore.argument_type<parameter>, ttcore.local_shape = #ttcore<local_shape local_shape = tensor<720x512xbf16>>, ttcore.shard_status = #ttcore.shard_status<presharded>, ttir.name = "self___model_model_layers_19_self_attn_o_proj__parameters__weight"} loc("p382.10024"), %arg383: tensor<64xbf16> {ttcore.argument_type = #ttcore.argument_type<parameter>, ttcore.local_shape = #ttcore<local_shape local_shape = tensor<64xbf16>>, ttcore.shard_status = #ttcore.shard_status<presharded>, ttir.name = "model.model.layers.19.self_attn.sinks"} loc("p383.10035"), %arg384: tensor<4096xbf16> {ttcore.argument_type = #ttcore.argument_type<parameter>, ttcore.local_shape = #ttcore<local_shape local_shape = tensor<512xbf16>>, ttcore.shard_status = #ttcore.shard_status<presharded>, ttir.name = "self___model_model_layers_19_self_attn_q_proj__parameters__bias"} loc("p384.10053"), %arg385: tensor<4096x2880xbf16> {ttcore.argument_type = #ttcore.argument_type<parameter>, ttcore.local_shape = #ttcore<local_shape local_shape = tensor<512x720xbf16>>, ttcore.shard_status = #ttcore.shard_status<presharded>, ttir.name = "self___model_model_layers_19_self_attn_q_proj__parameters__weight"} loc("p385.10057"), %arg386: tensor<128x2880xbf16> {ttcore.argument_type = #ttcore.argument_type<parameter>, ttcore.local_shape = #ttcore<local_shape local_shape = tensor<16x720xbf16>>, ttcore.shard_status = #ttcore.shard_status<presharded>, ttir.name = "model.model.layers.19.mlp.experts.down_proj_bias"} loc("p386.10284"), %arg387: tensor<128x2880x2880xbf16> {ttcore.argument_type = #ttcore.argument_type<parameter>, ttcore.local_shape = #ttcore<local_shape local_shape = tensor<16x2880x720xbf16>>, ttcore.shard_status = #ttcore.shard_status<presharded>, ttcore.weight_dtype = "bfp_bf4", ttir.name = "model.model.layers.19.mlp.experts.parametrizations.down_proj.original"} loc("p387.10289"), %arg388: tensor<128x5760xbf16> {ttcore.argument_type = #ttcore.argument_type<parameter>, ttcore.local_shape = #ttcore<local_shape local_shape = tensor<16x5760xbf16>>, ttcore.shard_status = #ttcore.shard_status<presharded>, ttir.name = "model.model.layers.19.mlp.experts.gate_up_proj_bias"} loc("p388.10296"), %arg389: tensor<128x2880x5760xbf16> {ttcore.argument_type = #ttcore.argument_type<parameter>, ttcore.local_shape = #ttcore<local_shape local_shape = tensor<16x720x5760xbf16>>, ttcore.shard_status = #ttcore.shard_status<presharded>, ttcore.weight_dtype = "bfp_bf4", ttir.name = "model.model.layers.19.mlp.experts.parametrizations.gate_up_proj.original"} loc("p389.10301"), %arg390: tensor<64x8x128x64xbf16> {ttcore.argument_type = #ttcore.argument_type<input>, ttcore.local_shape = #ttcore<local_shape local_shape = tensor<64x1x128x64xbf16>>, ttcore.shard_status = #ttcore.shard_status<presharded>, ttir.name = "args_42"} loc("p390.10431"), %arg391: tensor<512xbf16> {ttcore.argument_type = #ttcore.argument_type<parameter>, ttcore.local_shape = #ttcore<local_shape local_shape = tensor<64xbf16>>, ttcore.shard_status = #ttcore.shard_status<presharded>, ttir.name = "self___model_model_layers_20_self_attn_v_proj__parameters__bias"} loc("p391.10440"), %arg392: tensor<512x2880xbf16> {ttcore.argument_type = #ttcore.argument_type<parameter>, ttcore.local_shape = #ttcore<local_shape local_shape = tensor<64x720xbf16>>, ttcore.shard_status = #ttcore.shard_status<presharded>, ttir.name = "self___model_model_layers_20_self_attn_v_proj__parameters__weight"} loc("p392.10444"), %arg393: tensor<64x8x128x64xbf16> {ttcore.argument_type = #ttcore.argument_type<input>, ttcore.local_shape = #ttcore<local_shape local_shape = tensor<64x1x128x64xbf16>>, ttcore.shard_status = #ttcore.shard_status<presharded>, ttir.name = "args_43"} loc("p393.10470"), %arg394: tensor<512xbf16> {ttcore.argument_type = #ttcore.argument_type<parameter>, ttcore.local_shape = #ttcore<local_shape local_shape = tensor<64xbf16>>, ttcore.shard_status = #ttcore.shard_status<presharded>, ttir.name = "self___model_model_layers_21_self_attn_k_proj__parameters__bias"} loc("p394.10481"), %arg395: tensor<512x2880xbf16> {ttcore.argument_type = #ttcore.argument_type<parameter>, ttcore.local_shape = #ttcore<local_shape local_shape = tensor<64x720xbf16>>, ttcore.shard_status = #ttcore.shard_status<presharded>, ttir.name = "self___model_model_layers_21_self_attn_k_proj__parameters__weight"} loc("p395.10485"), %arg396: tensor<2880xbf16> {ttcore.argument_type = #ttcore.argument_type<parameter>, ttcore.local_shape = #ttcore<local_shape local_shape = tensor<720xbf16>>, ttcore.shard_status = #ttcore.shard_status<presharded>, ttir.name = "model.model.layers.21.input_layernorm.weight"} loc("p396.10490"), %arg397: tensor<128xbf16> {ttcore.argument_type = #ttcore.argument_type<parameter>, ttcore.local_shape = #ttcore<local_shape local_shape = tensor<128xbf16>>, ttcore.shard_status = #ttcore.shard_status<presharded>, ttir.name = "model.model.layers.20.mlp.router.bias"} loc("p397.10502"), %arg398: tensor<128x2880xbf16> {ttcore.argument_type = #ttcore.argument_type<parameter>, ttcore.local_shape = #ttcore<local_shape local_shape = tensor<128x720xbf16>>, ttcore.shard_status = #ttcore.shard_status<presharded>, ttcore.weight_dtype = "bfp_bf4", ttir.name = "model.model.layers.20.mlp.router.parametrizations.weight.original"} loc("p398.10510"), %arg399: tensor<2880xbf16> {ttcore.argument_type = #ttcore.argument_type<parameter>, ttcore.local_shape = #ttcore<local_shape local_shape = tensor<720xbf16>>, ttcore.shard_status = #ttcore.shard_status<presharded>, ttir.name = "model.model.layers.20.post_attention_layernorm.weight"} loc("p399.10519"), %arg400: tensor<2880xbf16> {ttcore.argument_type = #ttcore.argument_type<parameter>, ttcore.local_shape = #ttcore<local_shape local_shape = tensor<720xbf16>>, ttcore.shard_status = #ttcore.shard_status<presharded>, ttir.name = "self___model_model_layers_20_self_attn_o_proj__parameters__bias"} loc("p400.10530"), %arg401: tensor<2880x4096xbf16> {ttcore.argument_type = #ttcore.argument_type<parameter>, ttcore.local_shape = #ttcore<local_shape local_shape = tensor<720x512xbf16>>, ttcore.shard_status = #ttcore.shard_status<presharded>, ttir.name = "self___model_model_layers_20_self_attn_o_proj__parameters__weight"} loc("p401.10534"), %arg402: tensor<64xbf16> {ttcore.argument_type = #ttcore.argument_type<parameter>, ttcore.local_shape = #ttcore<local_shape local_shape = tensor<64xbf16>>, ttcore.shard_status = #ttcore.shard_status<presharded>, ttir.name = "model.model.layers.20.self_attn.sinks"} loc("p402.10545"), %arg403: tensor<4096xbf16> {ttcore.argument_type = #ttcore.argument_type<parameter>, ttcore.local_shape = #ttcore<local_shape local_shape = tensor<512xbf16>>, ttcore.shard_status = #ttcore.shard_status<presharded>, ttir.name = "self___model_model_layers_20_self_attn_q_proj__parameters__bias"} loc("p403.10563"), %arg404: tensor<4096x2880xbf16> {ttcore.argument_type = #ttcore.argument_type<parameter>, ttcore.local_shape = #ttcore<local_shape local_shape = tensor<512x720xbf16>>, ttcore.shard_status = #ttcore.shard_status<presharded>, ttir.name = "self___model_model_layers_20_self_attn_q_proj__parameters__weight"} loc("p404.10567"), %arg405: tensor<128x2880xbf16> {ttcore.argument_type = #ttcore.argument_type<parameter>, ttcore.local_shape = #ttcore<local_shape local_shape = tensor<16x720xbf16>>, ttcore.shard_status = #ttcore.shard_status<presharded>, ttir.name = "model.model.layers.20.mlp.experts.down_proj_bias"} loc("p405.10794"), %arg406: tensor<128x2880x2880xbf16> {ttcore.argument_type = #ttcore.argument_type<parameter>, ttcore.local_shape = #ttcore<local_shape local_shape = tensor<16x2880x720xbf16>>, ttcore.shard_status = #ttcore.shard_status<presharded>, ttcore.weight_dtype = "bfp_bf4", ttir.name = "model.model.layers.20.mlp.experts.parametrizations.down_proj.original"} loc("p406.10799"), %arg407: tensor<128x5760xbf16> {ttcore.argument_type = #ttcore.argument_type<parameter>, ttcore.local_shape = #ttcore<local_shape local_shape = tensor<16x5760xbf16>>, ttcore.shard_status = #ttcore.shard_status<presharded>, ttir.name = "model.model.layers.20.mlp.experts.gate_up_proj_bias"} loc("p407.10806"), %arg408: tensor<128x2880x5760xbf16> {ttcore.argument_type = #ttcore.argument_type<parameter>, ttcore.local_shape = #ttcore<local_shape local_shape = tensor<16x720x5760xbf16>>, ttcore.shard_status = #ttcore.shard_status<presharded>, ttcore.weight_dtype = "bfp_bf4", ttir.name = "model.model.layers.20.mlp.experts.parametrizations.gate_up_proj.original"} loc("p408.10811"), %arg409: tensor<64x8x128x64xbf16> {ttcore.argument_type = #ttcore.argument_type<input>, ttcore.local_shape = #ttcore<local_shape local_shape = tensor<64x1x128x64xbf16>>, ttcore.shard_status = #ttcore.shard_status<presharded>, ttir.name = "args_44"} loc("p409.10941"), %arg410: tensor<512xbf16> {ttcore.argument_type = #ttcore.argument_type<parameter>, ttcore.local_shape = #ttcore<local_shape local_shape = tensor<64xbf16>>, ttcore.shard_status = #ttcore.shard_status<presharded>, ttir.name = "self___model_model_layers_21_self_attn_v_proj__parameters__bias"} loc("p410.10950"), %arg411: tensor<512x2880xbf16> {ttcore.argument_type = #ttcore.argument_type<parameter>, ttcore.local_shape = #ttcore<local_shape local_shape = tensor<64x720xbf16>>, ttcore.shard_status = #ttcore.shard_status<presharded>, ttir.name = "self___model_model_layers_21_self_attn_v_proj__parameters__weight"} loc("p411.10954"), %arg412: tensor<64x8x128x64xbf16> {ttcore.argument_type = #ttcore.argument_type<input>, ttcore.local_shape = #ttcore<local_shape local_shape = tensor<64x1x128x64xbf16>>, ttcore.shard_status = #ttcore.shard_status<presharded>, ttir.name = "args_45"} loc("p412.10980"), %arg413: tensor<512xbf16> {ttcore.argument_type = #ttcore.argument_type<parameter>, ttcore.local_shape = #ttcore<local_shape local_shape = tensor<64xbf16>>, ttcore.shard_status = #ttcore.shard_status<presharded>, ttir.name = "self___model_model_layers_22_self_attn_k_proj__parameters__bias"} loc("p413.10991"), %arg414: tensor<512x2880xbf16> {ttcore.argument_type = #ttcore.argument_type<parameter>, ttcore.local_shape = #ttcore<local_shape local_shape = tensor<64x720xbf16>>, ttcore.shard_status = #ttcore.shard_status<presharded>, ttir.name = "self___model_model_layers_22_self_attn_k_proj__parameters__weight"} loc("p414.10995"), %arg415: tensor<2880xbf16> {ttcore.argument_type = #ttcore.argument_type<parameter>, ttcore.local_shape = #ttcore<local_shape local_shape = tensor<720xbf16>>, ttcore.shard_status = #ttcore.shard_status<presharded>, ttir.name = "model.model.layers.22.input_layernorm.weight"} loc("p415.11000"), %arg416: tensor<128xbf16> {ttcore.argument_type = #ttcore.argument_type<parameter>, ttcore.local_shape = #ttcore<local_shape local_shape = tensor<128xbf16>>, ttcore.shard_status = #ttcore.shard_status<presharded>, ttir.name = "model.model.layers.21.mlp.router.bias"} loc("p416.11012"), %arg417: tensor<128x2880xbf16> {ttcore.argument_type = #ttcore.argument_type<parameter>, ttcore.local_shape = #ttcore<local_shape local_shape = tensor<128x720xbf16>>, ttcore.shard_status = #ttcore.shard_status<presharded>, ttcore.weight_dtype = "bfp_bf4", ttir.name = "model.model.layers.21.mlp.router.parametrizations.weight.original"} loc("p417.11020"), %arg418: tensor<2880xbf16> {ttcore.argument_type = #ttcore.argument_type<parameter>, ttcore.local_shape = #ttcore<local_shape local_shape = tensor<720xbf16>>, ttcore.shard_status = #ttcore.shard_status<presharded>, ttir.name = "model.model.layers.21.post_attention_layernorm.weight"} loc("p418.11029"), %arg419: tensor<2880xbf16> {ttcore.argument_type = #ttcore.argument_type<parameter>, ttcore.local_shape = #ttcore<local_shape local_shape = tensor<720xbf16>>, ttcore.shard_status = #ttcore.shard_status<presharded>, ttir.name = "self___model_model_layers_21_self_attn_o_proj__parameters__bias"} loc("p419.11040"), %arg420: tensor<2880x4096xbf16> {ttcore.argument_type = #ttcore.argument_type<parameter>, ttcore.local_shape = #ttcore<local_shape local_shape = tensor<720x512xbf16>>, ttcore.shard_status = #ttcore.shard_status<presharded>, ttir.name = "self___model_model_layers_21_self_attn_o_proj__parameters__weight"} loc("p420.11044"), %arg421: tensor<64xbf16> {ttcore.argument_type = #ttcore.argument_type<paramete…
#loc3744 = loc("transpose.12717")
#loc3745 = loc("reshape.12719")
#loc3746 = loc("transpose.12578")
#loc3747 = loc("dot.12720")
#loc3748 = loc("reshape.12721")
#loc3749 = loc("broadcast.12724")
#loc3750 = loc("add.12725")
#loc3751 = loc("add.12728")
#loc3752 = loc("custom-call.12761")
#loc3753 = loc("reshape.12854")
#loc3754 = loc("concatenate.12855")
#loc3755 = loc("dot.12858")
#loc3756 = loc("broadcast.12862")
#loc3757 = loc("add.12863")
#loc3758 = loc("slice.12876")
#loc3759 = loc("clamp.12879")
#loc3760 = loc("add.12882")
#loc3761 = loc("slice.12864")
#loc3762 = loc("clamp.12867")
#loc3763 = loc("multiply.12869")
#loc3764 = loc("logistic.12870")
#loc3765 = loc("multiply.12871")
#loc3766 = loc("multiply.12883")
#loc3767 = loc("dot.12884")
#loc3768 = loc("broadcast.12888")
#loc3769 = loc("add.12889")
#loc3770 = loc("reshape.12890")
#loc3771 = loc("convert.12763")
#loc3772 = loc("transpose.12557")
#loc3773 = loc("convert.12558")
#loc3774 = loc("dot.12764")
#loc3775 = loc("convert.12546")
#loc3776 = loc("broadcast.12769")
#loc3777 = loc("add.12770")
#loc3778 = loc("convert.12771")
#loc3779 = loc("broadcast.12816")
#loc3780 = loc("compare.12817")
#loc3781 = loc("convert.12818")
#loc3782 = loc("convert.12819")
#loc3783 = loc("reduce.12798")
#loc3784 = loc("broadcast.12799")
#loc3785 = loc("subtract.12800")
#loc3786 = loc("exponential.12801")
#loc3787 = loc("reduce.12807")
#loc3788 = loc("broadcast.12808")
#loc3789 = loc("divide.12809")
#loc3790 = loc("broadcast.12821")
#loc3791 = loc("multiply.12822")
#loc3792 = loc("reduce.12829")
#loc3793 = loc("transpose.12830")
#loc3794 = loc("reshape.12831")
#loc3795 = loc("broadcast.12892")
#loc3796 = loc("multiply.12893")
#loc3797 = loc("reduce.12900")
#loc3798 = loc("add.12903")
#loc3799 = loc("custom-call.12936")
#loc3800 = loc("reshape.13122")
#loc3801 = loc("transpose.13121")
#loc3802 = loc("dot.13123")
#loc3803 = loc("reshape.13124")
#loc3804 = loc("broadcast.13127")
#loc3805 = loc("add.13128")
#loc3806 = loc("reshape.13129")
#loc3807 = loc("transpose.13130")
#loc3808 = loc("slice.13131")
#loc3809 = loc("multiply.13148")
#loc3810 = loc("slice.13135")
#loc3811 = loc("multiply.13145")
#loc3812 = loc("subtract.13151")
#loc3813 = loc("multiply.13138")
#loc3814 = loc("multiply.13134")
#loc3815 = loc("add.13141")
#loc3816 = loc("concatenate.13152")
#loc3817 = loc("transpose.12529")
#loc3818 = loc("dot.12938")
#loc3819 = loc("reshape.12939")
#loc3820 = loc("broadcast.12942")
#loc3821 = loc("add.12943")
#loc3822 = loc("transpose.12945")
#loc3823 = loc("reshape.12944")
#loc3824 = loc("slice.12946")
#loc3825 = loc("multiply.12964")
#loc3826 = loc("slice.12951")
#loc3827 = loc("multiply.12961")
#loc3828 = loc("subtract.12967")
#loc3829 = loc("multiply.12954")
#loc3830 = loc("multiply.12949")
#loc3831 = loc("add.12957")
#loc3832 = loc("concatenate.12968")
#loc3833 = loc("scatter.12987")
#loc3834 = loc("broadcast.13108")
#loc3835 = loc("reshape.13109")
#loc3836 = loc("transpose.13110")
#loc3837 = loc("dot.13153")
#loc3838 = loc("multiply.13156")
#loc3839 = loc("add.13161")
#loc3840 = loc("reshape.13101")
#loc3841 = loc("reshape.13096")
#loc3842 = loc("broadcast.13102")
#loc3843 = loc("concatenate.13162")
#loc3844 = loc("reduce.13169")
#loc3845 = loc("broadcast.13205")
#loc3846 = loc("subtract.13206")
#loc3847 = loc("reduce.13212")
#loc3848 = loc("broadcast.13213")
#loc3849 = loc("subtract.13214")
#loc3850 = loc("exponential.13215")
#loc3851 = loc("reduce.13221")
#loc3852 = loc("broadcast.13222")
#loc3853 = loc("divide.13223")
#loc3854 = loc("slice.13224")
#loc3855 = loc("transpose.12998")
#loc3856 = loc("dot.13000")
#loc3857 = loc("reshape.13001")
#loc3858 = loc("broadcast.13004")
#loc3859 = loc("add.13005")
#loc3860 = loc("transpose.13007")
#loc3861 = loc("reshape.13006")
#loc3862 = loc("scatter.13026")
#loc3863 = loc("broadcast.13092")
#loc3864 = loc("reshape.13093")
#loc3865 = loc("dot.13225")
#loc3866 = loc("transpose.13227")
#loc3867 = loc("reshape.13229")
#loc3868 = loc("transpose.13088")
#loc3869 = loc("dot.13230")
#loc3870 = loc("reshape.13231")
#loc3871 = loc("broadcast.13234")
#loc3872 = loc("add.13235")
#loc3873 = loc("add.13238")
#loc3874 = loc("custom-call.13271")
#loc3875 = loc("reshape.13364")
#loc3876 = loc("concatenate.13365")
#loc3877 = loc("dot.13368")
#loc3878 = loc("broadcast.13372")
#loc3879 = loc("add.13373")
#loc3880 = loc("slice.13386")
#loc3881 = loc("clamp.13389")
#loc3882 = loc("add.13392")
#loc3883 = loc("slice.13374")
#loc3884 = loc("clamp.13377")
#loc3885 = loc("multiply.13379")
#loc3886 = loc("logistic.13380")
#loc3887 = loc("multiply.13381")
#loc3888 = loc("multiply.13393")
#loc3889 = loc("dot.13394")
#loc3890 = loc("broadcast.13398")
#loc3891 = loc("add.13399")
#loc3892 = loc("reshape.13400")
#loc3893 = loc("convert.13273")
#loc3894 = loc("transpose.13067")
#loc3895 = loc("convert.13068")
#loc3896 = loc("dot.13274")
#loc3897 = loc("convert.13056")
#loc3898 = loc("broadcast.13279")
#loc3899 = loc("add.13280")
#loc3900 = loc("convert.13281")
#loc3901 = loc("broadcast.13326")
#loc3902 = loc("compare.13327")
#loc3903 = loc("convert.13328")
#loc3904 = loc("convert.13329")
#loc3905 = loc("reduce.13308")
#loc3906 = loc("broadcast.13309")
#loc3907 = loc("subtract.13310")
#loc3908 = loc("exponential.13311")
#loc3909 = loc("reduce.13317")
#loc3910 = loc("broadcast.13318")
#loc3911 = loc("divide.13319")
#loc3912 = loc("broadcast.13331")
#loc3913 = loc("multiply.13332")
#loc3914 = loc("reduce.13339")
#loc3915 = loc("transpose.13340")
#loc3916 = loc("reshape.13341")
#loc3917 = loc("broadcast.13402")
#loc3918 = loc("multiply.13403")
#loc3919 = loc("reduce.13410")
#loc3920 = loc("add.13413")
#loc3921 = loc("custom-call.13446")
#loc3922 = loc("reshape.13632")
#loc3923 = loc("transpose.13631")
#loc3924 = loc("dot.13633")
#loc3925 = loc("reshape.13634")
#loc3926 = loc("broadcast.13637")
#loc3927 = loc("add.13638")
#loc3928 = loc("reshape.13639")
#loc3929 = loc("transpose.13640")
#loc3930 = loc("slice.13641")
#loc3931 = loc("multiply.13658")
#loc3932 = loc("slice.13645")
#loc3933 = loc("multiply.13655")
#loc3934 = loc("subtract.13661")
#loc3935 = loc("multiply.13648")
#loc3936 = loc("multiply.13644")
#loc3937 = loc("add.13651")
#loc3938 = loc("concatenate.13662")
#loc3939 = loc("transpose.13039")
#loc3940 = loc("dot.13448")
#loc3941 = loc("reshape.13449")
#loc3942 = loc("broadcast.13452")
#loc3943 = loc("add.13453")
#loc3944 = loc("transpose.13455")
#loc3945 = loc("reshape.13454")
#loc3946 = loc("slice.13456")
#loc3947 = loc("multiply.13474")
#loc3948 = loc("slice.13461")
#loc3949 = loc("multiply.13471")
#loc3950 = loc("subtract.13477")
#loc3951 = loc("multiply.13464")
#loc3952 = loc("multiply.13459")
#loc3953 = loc("add.13467")
#loc3954 = loc("concatenate.13478")
#loc3955 = loc("scatter.13497")
#loc3956 = loc("broadcast.13618")
#loc3957 = loc("reshape.13619")
#loc3958 = loc("transpose.13620")
#loc3959 = loc("dot.13663")
#loc3960 = loc("multiply.13666")
#loc3961 = loc("add.13671")
#loc3962 = loc("reshape.13611")
#loc3963 = loc("reshape.13606")
#loc3964 = loc("broadcast.13612")
#loc3965 = loc("concatenate.13672")
#loc3966 = loc("reduce.13679")
#loc3967 = loc("broadcast.13715")
#loc3968 = loc("subtract.13716")
#loc3969 = loc("reduce.13722")
#loc3970 = loc("broadcast.13723")
#loc3971 = loc("subtract.13724")
#loc3972 = loc("exponential.13725")
#loc3973 = loc("reduce.13731")
#loc3974 = loc("broadcast.13732")
#loc3975 = loc("divide.13733")
#loc3976 = loc("slice.13734")
#loc3977 = loc("transpose.13508")
#loc3978 = loc("dot.13510")
#loc3979 = loc("reshape.13511")
#loc3980 = loc("broadcast.13514")
#loc3981 = loc("add.13515")
#loc3982 = loc("transpose.13517")
#loc3983 = loc("reshape.13516")
#loc3984 = loc("scatter.13536")
#loc3985 = loc("broadcast.13602")
#loc3986 = loc("reshape.13603")
#loc3987 = loc("dot.13735")
#loc3988 = loc("transpose.13737")
#loc3989 = loc("reshape.13739")
#loc3990 = loc("transpose.13598")
#loc3991 = loc("dot.13740")
#loc3992 = loc("reshape.13741")
#loc3993 = loc("broadcast.13744")
#loc3994 = loc("add.13745")
#loc3995 = loc("add.13748")
#loc3996 = loc("custom-call.13781")
#loc3997 = loc("reshape.13874")
#loc3998 = loc("concatenate.13875")
#loc3999 = loc("dot.13878")
#loc4000 = loc("broadcast.13882")
#loc4001 = loc("add.13883")
#loc4002 = loc("slice.13896")
#loc4003 = loc("clamp.13899")
#loc4004 = loc("add.13902")
#loc4005 = loc("slice.13884")
#loc4006 = loc("clamp.13887")
#loc4007 = loc("multiply.13889")
#loc4008 = loc("logistic.13890")
#loc4009 = loc("multiply.13891")
#loc4010 = loc("multiply.13903")
#loc4011 = loc("dot.13904")
#loc4012 = loc("broadcast.13908")
#loc4013 = loc("add.13909")
#loc4014 = loc("reshape.13910")
#loc4015 = loc("convert.13783")
#loc4016 = loc("transpose.13577")
#loc4017 = loc("convert.13578")
#loc4018 = loc("dot.13784")
#loc4019 = loc("convert.13566")
#loc4020 = loc("broadcast.13789")
#loc4021 = loc("add.13790")
#loc4022 = loc("convert.13791")
#loc4023 = loc("broadcast.13836")
#loc4024 = loc("compare.13837")
#loc4025 = loc("convert.13838")
#loc4026 = loc("convert.13839")
#loc4027 = loc("reduce.13818")
#loc4028 = loc("broadcast.13819")
#loc4029 = loc("subtract.13820")
#loc4030 = loc("exponential.13821")
#loc4031 = loc("reduce.13827")
#loc4032 = loc("broadcast.13828")
#loc4033 = loc("divide.13829")
#loc4034 = loc("broadcast.13841")
#loc4035 = loc("multiply.13842")
#loc4036 = loc("reduce.13849")
#loc4037 = loc("transpose.13850")
#loc4038 = loc("reshape.13851")
#loc4039 = loc("broadcast.13912")
#loc4040 = loc("multiply.13913")
#loc4041 = loc("reduce.13920")
#loc4042 = loc("add.13923")
#loc4043 = loc("custom-call.13956")
#loc4044 = loc("reshape.14142")
#loc4045 = loc("transpose.14141")
#loc4046 = loc("dot.14143")
#loc4047 = loc("reshape.14144")
#loc4048 = loc("broadcast.14147")
#loc4049 = loc("add.14148")
#loc4050 = loc("reshape.14149")
#loc4051 = loc("transpose.14150")
#loc4052 = loc("slice.14151")
#loc4053 = loc("multiply.14168")
#loc4054 = loc("slice.14155")
#loc4055 = loc("multiply.14165")
#loc4056 = loc("subtract.14171")
#loc4057 = loc("multiply.14158")
#loc4058 = loc("multiply.14154")
#loc4059 = loc("add.14161")
#loc4060 = loc("concatenate.14172")
#loc4061 = loc("transpose.13549")
#loc4062 = loc("dot.13958")
#loc4063 = loc("reshape.13959")
#loc4064 = loc("broadcast.13962")
#loc4065 = loc("add.13963")
#loc4066 = loc("transpose.13965")
#loc4067 = loc("reshape.13964")
#loc4068 = loc("slice.13966")
#loc4069 = loc("multiply.13984")
#loc4070 = loc("slice.13971")
#loc4071 = loc("multiply.13981")
#loc4072 = loc("subtract.13987")
#loc4073 = loc("multiply.13974")
#loc4074 = loc("multiply.13969")
#loc4075 = loc("add.13977")
#loc4076 = loc("concatenate.13988")
#loc4077 = loc("scatter.14007")
#loc4078 = loc("broadcast.14128")
#loc4079 = loc("reshape.14129")
#loc4080 = loc("transpose.14130")
#loc4081 = loc("dot.14173")
#loc4082 = loc("multiply.14176")
#loc4083 = loc("add.14181")
#loc4084 = loc("reshape.14121")
#loc4085 = loc("reshape.14116")
#loc4086 = loc("broadcast.14122")
#loc4087 = loc("concatenate.14182")
#loc4088 = loc("reduce.14189")
#loc4089 = loc("broadcast.14225")
#loc4090 = loc("subtract.14226")
#loc4091 = loc("reduce.14232")
#loc4092 = loc("broadcast.14233")
#loc4093 = loc("subtract.14234")
#loc4094 = loc("exponential.14235")
#loc4095 = loc("reduce.14241")
#loc4096 = loc("broadcast.14242")
#loc4097 = loc("divide.14243")
#loc4098 = loc("slice.14244")
#loc4099 = loc("transpose.14018")
#loc4100 = loc("dot.14020")
#loc4101 = loc("reshape.14021")
#loc4102 = loc("broadcast.14024")
#loc4103 = loc("add.14025")
#loc4104 = loc("transpose.14027")
#loc4105 = loc("reshape.14026")
#loc4106 = loc("scatter.14046")
#loc4107 = loc("broadcast.14112")
#loc4108 = loc("reshape.14113")
#loc4109 = loc("dot.14245")
#loc4110 = loc("transpose.14247")
#loc4111 = loc("reshape.14249")
#loc4112 = loc("transpose.14108")
#loc4113 = loc("dot.14250")
#loc4114 = loc("reshape.14251")
#loc4115 = loc("broadcast.14254")
#loc4116 = loc("add.14255")
#loc4117 = loc("add.14258")
#loc4118 = loc("custom-call.14291")
#loc4119 = loc("reshape.14384")
#loc4120 = loc("concatenate.14385")
#loc4121 = loc("dot.14388")
#loc4122 = loc("broadcast.14392")
#loc4123 = loc("add.14393")
#loc4124 = loc("slice.14406")
#loc4125 = loc("clamp.14409")
#loc4126 = loc("add.14412")
#loc4127 = loc("slice.14394")
#loc4128 = loc("clamp.14397")
#loc4129 = loc("multiply.14399")
#loc4130 = loc("logistic.14400")
#loc4131 = loc("multiply.14401")
#loc4132 = loc("multiply.14413")
#loc4133 = loc("dot.14414")
#loc4134 = loc("broadcast.14418")
#loc4135 = loc("add.14419")
#loc4136 = loc("reshape.14420")
#loc4137 = loc("convert.14293")
#loc4138 = loc("transpose.14087")
#loc4139 = loc("convert.14088")
#loc4140 = loc("dot.14294")
#loc4141 = loc("convert.14076")
#loc4142 = loc("broadcast.14299")
#loc4143 = loc("add.14300")
#loc4144 = loc("convert.14301")
#loc4145 = loc("broadcast.14346")
#loc4146 = loc("compare.14347")
#loc4147 = loc("convert.14348")
#loc4148 = loc("convert.14349")
#loc4149 = loc("reduce.14328")
#loc4150 = loc("broadcast.14329")
#loc4151 = loc("subtract.14330")
#loc4152 = loc("exponential.14331")
#loc4153 = loc("reduce.14337")
#loc4154 = loc("broadcast.14338")
#loc4155 = loc("divide.14339")
#loc4156 = loc("broadcast.14351")
#loc4157 = loc("multiply.14352")
#loc4158 = loc("reduce.14359")
#loc4159 = loc("transpose.14360")
#loc4160 = loc("reshape.14361")
#loc4161 = loc("broadcast.14422")
#loc4162 = loc("multiply.14423")
#loc4163 = loc("reduce.14430")
#loc4164 = loc("add.14433")
#loc4165 = loc("custom-call.14466")
#loc4166 = loc("reshape.14652")
#loc4167 = loc("transpose.14651")
#loc4168 = loc("dot.14653")
#loc4169 = loc("reshape.14654")
#loc4170 = loc("broadcast.14657")
#loc4171 = loc("add.14658")
#loc4172 = loc("reshape.14659")
#loc4173 = loc("transpose.14660")
#loc4174 = loc("slice.14661")
#loc4175 = loc("multiply.14678")
#loc4176 = loc("slice.14665")
#loc4177 = loc("multiply.14675")
#loc4178 = loc("subtract.14681")
#loc4179 = loc("multiply.14668")
#loc4180 = loc("multiply.14664")
#loc4181 = loc("add.14671")
#loc4182 = loc("concatenate.14682")
#loc4183 = loc("transpose.14059")
#loc4184 = loc("dot.14468")
#loc4185 = loc("reshape.14469")
#loc4186 = loc("broadcast.14472")
#loc4187 = loc("add.14473")
#loc4188 = loc("transpose.14475")
#loc4189 = loc("reshape.14474")
#loc4190 = loc("slice.14476")
#loc4191 = loc("multiply.14494")
#loc4192 = loc("slice.14481")
#loc4193 = loc("multiply.14491")
#loc4194 = loc("subtract.14497")
#loc4195 = loc("multiply.14484")
#loc4196 = loc("multiply.14479")
#loc4197 = loc("add.14487")
#loc4198 = loc("concatenate.14498")
#loc4199 = loc("scatter.14517")
#loc4200 = loc("broadcast.14638")
#loc4201 = loc("reshape.14639")
#loc4202 = loc("transpose.14640")
#loc4203 = loc("dot.14683")
#loc4204 = loc("multiply.14686")
#loc4205 = loc("add.14691")
#loc4206 = loc("reshape.14631")
#loc4207 = loc("reshape.14626")
#loc4208 = loc("broadcast.14632")
#loc4209 = loc("concatenate.14692")
#loc4210 = loc("reduce.14699")
#loc4211 = loc("broadcast.14735")
#loc4212 = loc("subtract.14736")
#loc4213 = loc("reduce.14742")
#loc4214 = loc("broadcast.14743")
#loc4215 = loc("subtract.14744")
#loc4216 = loc("exponential.14745")
#loc4217 = loc("reduce.14751")
#loc4218 = loc("broadcast.14752")
#loc4219 = loc("divide.14753")
#loc4220 = loc("slice.14754")
#loc4221 = loc("transpose.14528")
#loc4222 = loc("dot.14530")
#loc4223 = loc("reshape.14531")
#loc4224 = loc("broadcast.14534")
#loc4225 = loc("add.14535")
#loc4226 = loc("transpose.14537")
#loc4227 = loc("reshape.14536")
#loc4228 = loc("scatter.14556")
#loc4229 = loc("broadcast.14622")
#loc4230 = loc("reshape.14623")
#loc4231 = loc("dot.14755")
#loc4232 = loc("transpose.14757")
#loc4233 = loc("reshape.14759")
#loc4234 = loc("transpose.14618")
#loc4235 = loc("dot.14760")
#loc4236 = loc("reshape.14761")
#loc4237 = loc("broadcast.14764")
#loc4238 = loc("add.14765")
#loc4239 = loc("add.14768")
#loc4240 = loc("custom-call.14801")
#loc4241 = loc("reshape.14894")
#loc4242 = loc("concatenate.14895")
#loc4243 = loc("dot.14898")
#loc4244 = loc("broadcast.14902")
#loc4245 = loc("add.14903")
#loc4246 = loc("slice.14916")
#loc4247 = loc("clamp.14919")
#loc4248 = loc("add.14922")
#loc4249 = loc("slice.14904")
#loc4250 = loc("clamp.14907")
#loc4251 = loc("multiply.14909")
#loc4252 = loc("logistic.14910")
#loc4253 = loc("multiply.14911")
#loc4254 = loc("multiply.14923")
#loc4255 = loc("dot.14924")
#loc4256 = loc("broadcast.14928")
#loc4257 = loc("add.14929")
#loc4258 = loc("reshape.14930")
#loc4259 = loc("convert.14803")
#loc4260 = loc("transpose.14597")
#loc4261 = loc("convert.14598")
#loc4262 = loc("dot.14804")
#loc4263 = loc("convert.14586")
#loc4264 = loc("broadcast.14809")
#loc4265 = loc("add.14810")
#loc4266 = loc("convert.14811")
#loc4267 = loc("broadcast.14856")
#loc4268 = loc("compare.14857")
#loc4269 = loc("convert.14858")
#loc4270 = loc("convert.14859")
#loc4271 = loc("reduce.14838")
#loc4272 = loc("broadcast.14839")
#loc4273 = loc("subtract.14840")
#loc4274 = loc("exponential.14841")
#loc4275 = loc("reduce.14847")
#loc4276 = loc("broadcast.14848")
#loc4277 = loc("divide.14849")
#loc4278 = loc("broadcast.14861")
#loc4279 = loc("multiply.14862")
#loc4280 = loc("reduce.14869")
#loc4281 = loc("transpose.14870")
#loc4282 = loc("reshape.14871")
#loc4283 = loc("broadcast.14932")
#loc4284 = loc("multiply.14933")
#loc4285 = loc("reduce.14940")
#loc4286 = loc("add.14943")
#loc4287 = loc("custom-call.14976")
#loc4288 = loc("reshape.15162")
#loc4289 = loc("transpose.15161")
#loc4290 = loc("dot.15163")
#loc4291 = loc("reshape.15164")
#loc4292 = loc("broadcast.15167")
#loc4293 = loc("add.15168")
#loc4294 = loc("reshape.15169")
#loc4295 = loc("transpose.15170")
#loc4296 = loc("slice.15171")
#loc4297 = loc("multiply.15188")
#loc4298 = loc("slice.15175")
#loc4299 = loc("multiply.15185")
#loc4300 = loc("subtract.15191")
#loc4301 = loc("multiply.15178")
#loc4302 = loc("multiply.15174")
#loc4303 = loc("add.15181")
#loc4304 = loc("concatenate.15192")
#loc4305 = loc("transpose.14569")
#loc4306 = loc("dot.14978")
#loc4307 = loc("reshape.14979")
#loc4308 = loc("broadcast.14982")
#loc4309 = loc("add.14983")
#loc4310 = loc("transpose.14985")
#loc4311 = loc("reshape.14984")
#loc4312 = loc("slice.14986")
#loc4313 = loc("multiply.15004")
#loc4314 = loc("slice.14991")
#loc4315 = loc("multiply.15001")
#loc4316 = loc("subtract.15007")
#loc4317 = loc("multiply.14994")
#loc4318 = loc("multiply.14989")
#loc4319 = loc("add.14997")
#loc4320 = loc("concatenate.15008")
#loc4321 = loc("scatter.15027")
#loc4322 = loc("broadcast.15148")
#loc4323 = loc("reshape.15149")
#loc4324 = loc("transpose.15150")
#loc4325 = loc("dot.15193")
#loc4326 = loc("multiply.15196")
#loc4327 = loc("add.15201")
#loc4328 = loc("reshape.15141")
#loc4329 = loc("reshape.15136")
#loc4330 = loc("broadcast.15142")
#loc4331 = loc("concatenate.15202")
#loc4332 = loc("reduce.15209")
#loc4333 = loc("broadcast.15245")
#loc4334 = loc("subtract.15246")
#loc4335 = loc("reduce.15252")
#loc4336 = loc("broadcast.15253")
#loc4337 = loc("subtract.15254")
#loc4338 = loc("exponential.15255")
#loc4339 = loc("reduce.15261")
#loc4340 = loc("broadcast.15262")
#loc4341 = loc("divide.15263")
#loc4342 = loc("slice.15264")
#loc4343 = loc("transpose.15038")
#loc4344 = loc("dot.15040")
#loc4345 = loc("reshape.15041")
#loc4346 = loc("broadcast.15044")
#loc4347 = loc("add.15045")
#loc4348 = loc("transpose.15047")
#loc4349 = loc("reshape.15046")
#loc4350 = loc("scatter.15066")
#loc4351 = loc("broadcast.15132")
#loc4352 = loc("reshape.15133")
#loc4353 = loc("dot.15265")
#loc4354 = loc("transpose.15267")
#loc4355 = loc("reshape.15269")
#loc4356 = loc("transpose.15128")
#loc4357 = loc("dot.15270")
#loc4358 = loc("reshape.15271")
#loc4359 = loc("broadcast.15274")
#loc4360 = loc("add.15275")
#loc4361 = loc("add.15278")
#loc4362 = loc("custom-call.15311")
#loc4363 = loc("reshape.15404")
#loc4364 = loc("concatenate.15405")
#loc4365 = loc("dot.15408")
#loc4366 = loc("broadcast.15412")
#loc4367 = loc("add.15413")
#loc4368 = loc("slice.15426")
#loc4369 = loc("clamp.15429")
#loc4370 = loc("add.15432")
#loc4371 = loc("slice.15414")
#loc4372 = loc("clamp.15417")
#loc4373 = loc("multiply.15419")
#loc4374 = loc("logistic.15420")
#loc4375 = loc("multiply.15421")
#loc4376 = loc("multiply.15433")
#loc4377 = loc("dot.15434")
#loc4378 = loc("broadcast.15438")
#loc4379 = loc("add.15439")
#loc4380 = loc("reshape.15440")
#loc4381 = loc("convert.15313")
#loc4382 = loc("transpose.15107")
#loc4383 = loc("convert.15108")
#loc4384 = loc("dot.15314")
#loc4385 = loc("convert.15096")
#loc4386 = loc("broadcast.15319")
#loc4387 = loc("add.15320")
#loc4388 = loc("convert.15321")
#loc4389 = loc("broadcast.15366")
#loc4390 = loc("compare.15367")
#loc4391 = loc("convert.15368")
#loc4392 = loc("convert.15369")
#loc4393 = loc("reduce.15348")
#loc4394 = loc("broadcast.15349")
#loc4395 = loc("subtract.15350")
#loc4396 = loc("exponential.15351")
#loc4397 = loc("reduce.15357")
#loc4398 = loc("broadcast.15358")
#loc4399 = loc("divide.15359")
#loc4400 = loc("broadcast.15371")
#loc4401 = loc("multiply.15372")
#loc4402 = loc("reduce.15379")
#loc4403 = loc("transpose.15380")
#loc4404 = loc("reshape.15381")
#loc4405 = loc("broadcast.15442")
#loc4406 = loc("multiply.15443")
#loc4407 = loc("reduce.15450")
#loc4408 = loc("add.15453")
#loc4409 = loc("custom-call.15486")
#loc4410 = loc("reshape.15672")
#loc4411 = loc("transpose.15671")
#loc4412 = loc("dot.15673")
#loc4413 = loc("reshape.15674")
#loc4414 = loc("broadcast.15677")
#loc4415 = loc("add.15678")
#loc4416 = loc("reshape.15679")
#loc4417 = loc("transpose.15680")
#loc4418 = loc("slice.15681")
#loc4419 = loc("multiply.15698")
#loc4420 = loc("slice.15685")
#loc4421 = loc("multiply.15695")
#loc4422 = loc("subtract.15701")
#loc4423 = loc("multiply.15688")
#loc4424 = loc("multiply.15684")
#loc4425 = loc("add.15691")
#loc4426 = loc("concatenate.15702")
#loc4427 = loc("transpose.15079")
#loc4428 = loc("dot.15488")
#loc4429 = loc("reshape.15489")
#loc4430 = loc("broadcast.15492")
#loc4431 = loc("add.15493")
#loc4432 = loc("transpose.15495")
#loc4433 = loc("reshape.15494")
#loc4434 = loc("slice.15496")
#loc4435 = loc("multiply.15514")
#loc4436 = loc("slice.15501")
#loc4437 = loc("multiply.15511")
#loc4438 = loc("subtract.15517")
#loc4439 = loc("multiply.15504")
#loc4440 = loc("multiply.15499")
#loc4441 = loc("add.15507")
#loc4442 = loc("concatenate.15518")
#loc4443 = loc("scatter.15537")
#loc4444 = loc("broadcast.15658")
#loc4445 = loc("reshape.15659")
#loc4446 = loc("transpose.15660")
#loc4447 = loc("dot.15703")
#loc4448 = loc("multiply.15706")
#loc4449 = loc("add.15711")
#loc4450 = loc("reshape.15651")
#loc4451 = loc("reshape.15646")
#loc4452 = loc("broadcast.15652")
#loc4453 = loc("concatenate.15712")
#loc4454 = loc("reduce.15719")
#loc4455 = loc("broadcast.15755")
#loc4456 = loc("subtract.15756")
#loc4457 = loc("reduce.15762")
#loc4458 = loc("broadcast.15763")
#loc4459 = loc("subtract.15764")
#loc4460 = loc("exponential.15765")
#loc4461 = loc("reduce.15771")
#loc4462 = loc("broadcast.15772")
#loc4463 = loc("divide.15773")
#loc4464 = loc("slice.15774")
#loc4465 = loc("transpose.15548")
#loc4466 = loc("dot.15550")
#loc4467 = loc("reshape.15551")
#loc4468 = loc("broadcast.15554")
#loc4469 = loc("add.15555")
#loc4470 = loc("transpose.15557")
#loc4471 = loc("reshape.15556")
#loc4472 = loc("scatter.15576")
#loc4473 = loc("broadcast.15642")
#loc4474 = loc("reshape.15643")
#loc4475 = loc("dot.15775")
#loc4476 = loc("transpose.15777")
#loc4477 = loc("reshape.15779")
#loc4478 = loc("transpose.15638")
#loc4479 = loc("dot.15780")
#loc4480 = loc("reshape.15781")
#loc4481 = loc("broadcast.15784")
#loc4482 = loc("add.15785")
#loc4483 = loc("add.15788")
#loc4484 = loc("custom-call.15821")
#loc4485 = loc("reshape.15914")
#loc4486 = loc("concatenate.15915")
#loc4487 = loc("dot.15918")
#loc4488 = loc("broadcast.15922")
#loc4489 = loc("add.15923")
#loc4490 = loc("slice.15936")
#loc4491 = loc("clamp.15939")
#loc4492 = loc("add.15942")
#loc4493 = loc("slice.15924")
#loc4494 = loc("clamp.15927")
#loc4495 = loc("multiply.15929")
#loc4496 = loc("logistic.15930")
#loc4497 = loc("multiply.15931")
#loc4498 = loc("multiply.15943")
#loc4499 = loc("dot.15944")
#loc4500 = loc("broadcast.15948")
#loc4501 = loc("add.15949")
#loc4502 = loc("reshape.15950")
#loc4503 = loc("convert.15823")
#loc4504 = loc("transpose.15617")
#loc4505 = loc("convert.15618")
#loc4506 = loc("dot.15824")
#loc4507 = loc("convert.15606")
#loc4508 = loc("broadcast.15829")
#loc4509 = loc("add.15830")
#loc4510 = loc("convert.15831")
#loc4511 = loc("broadcast.15876")
#loc4512 = loc("compare.15877")
#loc4513 = loc("convert.15878")
#loc4514 = loc("convert.15879")
#loc4515 = loc("reduce.15858")
#loc4516 = loc("broadcast.15859")
#loc4517 = loc("subtract.15860")
#loc4518 = loc("exponential.15861")
#loc4519 = loc("reduce.15867")
#loc4520 = loc("broadcast.15868")
#loc4521 = loc("divide.15869")
#loc4522 = loc("broadcast.15881")
#loc4523 = loc("multiply.15882")
#loc4524 = loc("reduce.15889")
#loc4525 = loc("transpose.15890")
#loc4526 = loc("reshape.15891")
#loc4527 = loc("broadcast.15952")
#loc4528 = loc("multiply.15953")
#loc4529 = loc("reduce.15960")
#loc4530 = loc("add.15963")
#loc4531 = loc("custom-call.15996")
#loc4532 = loc("reshape.16182")
#loc4533 = loc("transpose.16181")
#loc4534 = loc("dot.16183")
#loc4535 = loc("reshape.16184")
#loc4536 = loc("broadcast.16187")
#loc4537 = loc("add.16188")
#loc4538 = loc("reshape.16189")
#loc4539 = loc("transpose.16190")
#loc4540 = loc("slice.16191")
#loc4541 = loc("multiply.16208")
#loc4542 = loc("slice.16195")
#loc4543 = loc("multiply.16205")
#loc4544 = loc("subtract.16211")
#loc4545 = loc("multiply.16198")
#loc4546 = loc("multiply.16194")
#loc4547 = loc("add.16201")
#loc4548 = loc("concatenate.16212")
#loc4549 = loc("transpose.15589")
#loc4550 = loc("dot.15998")
#loc4551 = loc("reshape.15999")
#loc4552 = loc("broadcast.16002")
#loc4553 = loc("add.16003")
#loc4554 = loc("transpose.16005")
#loc4555 = loc("reshape.16004")
#loc4556 = loc("slice.16006")
#loc4557 = loc("multiply.16024")
#loc4558 = loc("slice.16011")
#loc4559 = loc("multiply.16021")
#loc4560 = loc("subtract.16027")
#loc4561 = loc("multiply.16014")
#loc4562 = loc("multiply.16009")
#loc4563 = loc("add.16017")
#loc4564 = loc("concatenate.16028")
#loc4565 = loc("scatter.16047")
#loc4566 = loc("broadcast.16168")
#loc4567 = loc("reshape.16169")
#loc4568 = loc("transpose.16170")
#loc4569 = loc("dot.16213")
#loc4570 = loc("multiply.16216")
#loc4571 = loc("add.16221")
#loc4572 = loc("reshape.16161")
#loc4573 = loc("reshape.16156")
#loc4574 = loc("broadcast.16162")
#loc4575 = loc("concatenate.16222")
#loc4576 = loc("reduce.16229")
#loc4577 = loc("broadcast.16265")
#loc4578 = loc("subtract.16266")
#loc4579 = loc("reduce.16272")
#loc4580 = loc("broadcast.16273")
#loc4581 = loc("subtract.16274")
#loc4582 = loc("exponential.16275")
#loc4583 = loc("reduce.16281")
#loc4584 = loc("broadcast.16282")
#loc4585 = loc("divide.16283")
#loc4586 = loc("slice.16284")
#loc4587 = loc("transpose.16058")
#loc4588 = loc("dot.16060")
#loc4589 = loc("reshape.16061")
#loc4590 = loc("broadcast.16064")
#loc4591 = loc("add.16065")
#loc4592 = loc("transpose.16067")
#loc4593 = loc("reshape.16066")
#loc4594 = loc("scatter.16086")
#loc4595 = loc("broadcast.16152")
#loc4596 = loc("reshape.16153")
#loc4597 = loc("dot.16285")
#loc4598 = loc("transpose.16287")
#loc4599 = loc("reshape.16289")
#loc4600 = loc("transpose.16148")
#loc4601 = loc("dot.16290")
#loc4602 = loc("reshape.16291")
#loc4603 = loc("broadcast.16294")
#loc4604 = loc("add.16295")
#loc4605 = loc("add.16298")
#loc4606 = loc("custom-call.16331")
#loc4607 = loc("reshape.16424")
#loc4608 = loc("concatenate.16425")
#loc4609 = loc("dot.16428")
#loc4610 = loc("broadcast.16432")
#loc4611 = loc("add.16433")
#loc4612 = loc("slice.16446")
#loc4613 = loc("clamp.16449")
#loc4614 = loc("add.16452")
#loc4615 = loc("slice.16434")
#loc4616 = loc("clamp.16437")
#loc4617 = loc("multiply.16439")
#loc4618 = loc("logistic.16440")
#loc4619 = loc("multiply.16441")
#loc4620 = loc("multiply.16453")
#loc4621 = loc("dot.16454")
#loc4622 = loc("broadcast.16458")
#loc4623 = loc("add.16459")
#loc4624 = loc("reshape.16460")
#loc4625 = loc("convert.16333")
#loc4626 = loc("transpose.16127")
#loc4627 = loc("convert.16128")
#loc4628 = loc("dot.16334")
#loc4629 = loc("convert.16116")
#loc4630 = loc("broadcast.16339")
#loc4631 = loc("add.16340")
#loc4632 = loc("convert.16341")
#loc4633 = loc("broadcast.16386")
#loc4634 = loc("compare.16387")
#loc4635 = loc("convert.16388")
#loc4636 = loc("convert.16389")
#loc4637 = loc("reduce.16368")
#loc4638 = loc("broadcast.16369")
#loc4639 = loc("subtract.16370")
#loc4640 = loc("exponential.16371")
#loc4641 = loc("reduce.16377")
#loc4642 = loc("broadcast.16378")
#loc4643 = loc("divide.16379")
#loc4644 = loc("broadcast.16391")
#loc4645 = loc("multiply.16392")
#loc4646 = loc("reduce.16399")
#loc4647 = loc("transpose.16400")
#loc4648 = loc("reshape.16401")
#loc4649 = loc("broadcast.16462")
#loc4650 = loc("multiply.16463")
#loc4651 = loc("reduce.16470")
#loc4652 = loc("add.16473")
#loc4653 = loc("custom-call.16506")
#loc4654 = loc("reshape.16692")
#loc4655 = loc("transpose.16691")
#loc4656 = loc("dot.16693")
#loc4657 = loc("reshape.16694")
#loc4658 = loc("broadcast.16697")
#loc4659 = loc("add.16698")
#loc4660 = loc("reshape.16699")
#loc4661 = loc("transpose.16700")
#loc4662 = loc("slice.16701")
#loc4663 = loc("multiply.16718")
#loc4664 = loc("slice.16705")
#loc4665 = loc("multiply.16715")
#loc4666 = loc("subtract.16721")
#loc4667 = loc("multiply.16708")
#loc4668 = loc("multiply.16704")
#loc4669 = loc("add.16711")
#loc4670 = loc("concatenate.16722")
#loc4671 = loc("transpose.16099")
#loc4672 = loc("dot.16508")
#loc4673 = loc("reshape.16509")
#loc4674 = loc("broadcast.16512")
#loc4675 = loc("add.16513")
#loc4676 = loc("transpose.16515")
#loc4677 = loc("reshape.16514")
#loc4678 = loc("slice.16516")
#loc4679 = loc("multiply.16534")
#loc4680 = loc("slice.16521")
#loc4681 = loc("multiply.16531")
#loc4682 = loc("subtract.16537")
#loc4683 = loc("multiply.16524")
#loc4684 = loc("multiply.16519")
#loc4685 = loc("add.16527")
#loc4686 = loc("concatenate.16538")
#loc4687 = loc("scatter.16557")
#loc4688 = loc("broadcast.16678")
#loc4689 = loc("reshape.16679")
#loc4690 = loc("transpose.16680")
#loc4691 = loc("dot.16723")
#loc4692 = loc("multiply.16726")
#loc4693 = loc("add.16731")
#loc4694 = loc("reshape.16671")
#loc4695 = loc("reshape.16666")
#loc4696 = loc("broadcast.16672")
#loc4697 = loc("concatenate.16732")
#loc4698 = loc("reduce.16739")
#loc4699 = loc("broadcast.16775")
#loc4700 = loc("subtract.16776")
#loc4701 = loc("reduce.16782")
#loc4702 = loc("broadcast.16783")
#loc4703 = loc("subtract.16784")
#loc4704 = loc("exponential.16785")
#loc4705 = loc("reduce.16791")
#loc4706 = loc("broadcast.16792")
#loc4707 = loc("divide.16793")
#loc4708 = loc("slice.16794")
#loc4709 = loc("transpose.16568")
#loc4710 = loc("dot.16570")
#loc4711 = loc("reshape.16571")
#loc4712 = loc("broadcast.16574")
#loc4713 = loc("add.16575")
#loc4714 = loc("transpose.16577")
#loc4715 = loc("reshape.16576")
#loc4716 = loc("scatter.16596")
#loc4717 = loc("broadcast.16662")
#loc4718 = loc("reshape.16663")
#loc4719 = loc("dot.16795")
#loc4720 = loc("transpose.16797")
#loc4721 = loc("reshape.16799")
#loc4722 = loc("transpose.16658")
#loc4723 = loc("dot.16800")
#loc4724 = loc("reshape.16801")
#loc4725 = loc("broadcast.16804")
#loc4726 = loc("add.16805")
#loc4727 = loc("add.16808")
#loc4728 = loc("custom-call.16841")
#loc4729 = loc("reshape.16934")
#loc4730 = loc("concatenate.16935")
#loc4731 = loc("dot.16938")
#loc4732 = loc("broadcast.16942")
#loc4733 = loc("add.16943")
#loc4734 = loc("slice.16956")
#loc4735 = loc("clamp.16959")
#loc4736 = loc("add.16962")
#loc4737 = loc("slice.16944")
#loc4738 = loc("clamp.16947")
#loc4739 = loc("multiply.16949")
#loc4740 = loc("logistic.16950")
#loc4741 = loc("multiply.16951")
#loc4742 = loc("multiply.16963")
#loc4743 = loc("dot.16964")
#loc4744 = loc("broadcast.16968")
#loc4745 = loc("add.16969")
#loc4746 = loc("reshape.16970")
#loc4747 = loc("convert.16843")
#loc4748 = loc("transpose.16637")
#loc4749 = loc("convert.16638")
#loc4750 = loc("dot.16844")
#loc4751 = loc("convert.16626")
#loc4752 = loc("broadcast.16849")
#loc4753 = loc("add.16850")
#loc4754 = loc("convert.16851")
#loc4755 = loc("broadcast.16896")
#loc4756 = loc("compare.16897")
#loc4757 = loc("convert.16898")
#loc4758 = loc("convert.16899")
#loc4759 = loc("reduce.16878")
#loc4760 = loc("broadcast.16879")
#loc4761 = loc("subtract.16880")
#loc4762 = loc("exponential.16881")
#loc4763 = loc("reduce.16887")
#loc4764 = loc("broadcast.16888")
#loc4765 = loc("divide.16889")
#loc4766 = loc("broadcast.16901")
#loc4767 = loc("multiply.16902")
#loc4768 = loc("reduce.16909")
#loc4769 = loc("transpose.16910")
#loc4770 = loc("reshape.16911")
#loc4771 = loc("broadcast.16972")
#loc4772 = loc("multiply.16973")
#loc4773 = loc("reduce.16980")
#loc4774 = loc("add.16983")
#loc4775 = loc("custom-call.17016")
#loc4776 = loc("reshape.17202")
#loc4777 = loc("transpose.17201")
#loc4778 = loc("dot.17203")
#loc4779 = loc("reshape.17204")
#loc4780 = loc("broadcast.17207")
#loc4781 = loc("add.17208")
#loc4782 = loc("reshape.17209")
#loc4783 = loc("transpose.17210")
#loc4784 = loc("slice.17211")
#loc4785 = loc("multiply.17228")
#loc4786 = loc("slice.17215")
#loc4787 = loc("multiply.17225")
#loc4788 = loc("subtract.17231")
#loc4789 = loc("multiply.17218")
#loc4790 = loc("multiply.17214")
#loc4791 = loc("add.17221")
#loc4792 = loc("concatenate.17232")
#loc4793 = loc("transpose.16609")
#loc4794 = loc("dot.17018")
#loc4795 = loc("reshape.17019")
#loc4796 = loc("broadcast.17022")
#loc4797 = loc("add.17023")
#loc4798 = loc("transpose.17025")
#loc4799 = loc("reshape.17024")
#loc4800 = loc("slice.17026")
#loc4801 = loc("multiply.17044")
#loc4802 = loc("slice.17031")
#loc4803 = loc("multiply.17041")
#loc4804 = loc("subtract.17047")
#loc4805 = loc("multiply.17034")
#loc4806 = loc("multiply.17029")
#loc4807 = loc("add.17037")
#loc4808 = loc("concatenate.17048")
#loc4809 = loc("scatter.17067")
#loc4810 = loc("broadcast.17188")
#loc4811 = loc("reshape.17189")
#loc4812 = loc("transpose.17190")
#loc4813 = loc("dot.17233")
#loc4814 = loc("multiply.17236")
#loc4815 = loc("add.17241")
#loc4816 = loc("reshape.17181")
#loc4817 = loc("reshape.17176")
#loc4818 = loc("broadcast.17182")
#loc4819 = loc("concatenate.17242")
#loc4820 = loc("reduce.17249")
#loc4821 = loc("broadcast.17285")
#loc4822 = loc("subtract.17286")
#loc4823 = loc("reduce.17292")
#loc4824 = loc("broadcast.17293")
#loc4825 = loc("subtract.17294")
#loc4826 = loc("exponential.17295")
#loc4827 = loc("reduce.17301")
#loc4828 = loc("broadcast.17302")
#loc4829 = loc("divide.17303")
#loc4830 = loc("slice.17304")
#loc4831 = loc("transpose.17078")
#loc4832 = loc("dot.17080")
#loc4833 = loc("reshape.17081")
#loc4834 = loc("broadcast.17084")
#loc4835 = loc("add.17085")
#loc4836 = loc("transpose.17087")
#loc4837 = loc("reshape.17086")
#loc4838 = loc("scatter.17106")
#loc4839 = loc("broadcast.17172")
#loc4840 = loc("reshape.17173")
#loc4841 = loc("dot.17305")
#loc4842 = loc("transpose.17307")
#loc4843 = loc("reshape.17309")
#loc4844 = loc("transpose.17168")
#loc4845 = loc("dot.17310")
#loc4846 = loc("reshape.17311")
#loc4847 = loc("broadcast.17314")
#loc4848 = loc("add.17315")
#loc4849 = loc("add.17318")
#loc4850 = loc("custom-call.17351")
#loc4851 = loc("reshape.17444")
#loc4852 = loc("concatenate.17445")
#loc4853 = loc("dot.17448")
#loc4854 = loc("broadcast.17452")
#loc4855 = loc("add.17453")
#loc4856 = loc("slice.17466")
#loc4857 = loc("clamp.17469")
#loc4858 = loc("add.17472")
#loc4859 = loc("slice.17454")
#loc4860 = loc("clamp.17457")
#loc4861 = loc("multiply.17459")
#loc4862 = loc("logistic.17460")
#loc4863 = loc("multiply.17461")
#loc4864 = loc("multiply.17473")
#loc4865 = loc("dot.17474")
#loc4866 = loc("broadcast.17478")
#loc4867 = loc("add.17479")
#loc4868 = loc("reshape.17480")
#loc4869 = loc("convert.17353")
#loc4870 = loc("transpose.17147")
#loc4871 = loc("convert.17148")
#loc4872 = loc("dot.17354")
#loc4873 = loc("convert.17136")
#loc4874 = loc("broadcast.17359")
#loc4875 = loc("add.17360")
#loc4876 = loc("convert.17361")
#loc4877 = loc("broadcast.17406")
#loc4878 = loc("compare.17407")
#loc4879 = loc("convert.17408")
#loc4880 = loc("convert.17409")
#loc4881 = loc("reduce.17388")
#loc4882 = loc("broadcast.17389")
#loc4883 = loc("subtract.17390")
#loc4884 = loc("exponential.17391")
#loc4885 = loc("reduce.17397")
#loc4886 = loc("broadcast.17398")
#loc4887 = loc("divide.17399")
#loc4888 = loc("broadcast.17411")
#loc4889 = loc("multiply.17412")
#loc4890 = loc("reduce.17419")
#loc4891 = loc("transpose.17420")
#loc4892 = loc("reshape.17421")
#loc4893 = loc("broadcast.17482")
#loc4894 = loc("multiply.17483")
#loc4895 = loc("reduce.17490")
#loc4896 = loc("add.17493")
#loc4897 = loc("custom-call.17526")
#loc4898 = loc("reshape.17712")
#loc4899 = loc("transpose.17711")
#loc4900 = loc("dot.17713")
#loc4901 = loc("reshape.17714")
#loc4902 = loc("broadcast.17717")
#loc4903 = loc("add.17718")
#loc4904 = loc("reshape.17719")
#loc4905 = loc("transpose.17720")
#loc4906 = loc("slice.17721")
#loc4907 = loc("multiply.17738")
#loc4908 = loc("slice.17725")
#loc4909 = loc("multiply.17735")
#loc4910 = loc("subtract.17741")
#loc4911 = loc("multiply.17728")
#loc4912 = loc("multiply.17724")
#loc4913 = loc("add.17731")
#loc4914 = loc("concatenate.17742")
#loc4915 = loc("transpose.17119")
#loc4916 = loc("dot.17528")
#loc4917 = loc("reshape.17529")
#loc4918 = loc("broadcast.17532")
#loc4919 = loc("add.17533")
#loc4920 = loc("transpose.17535")
#loc4921 = loc("reshape.17534")
#loc4922 = loc("slice.17536")
#loc4923 = loc("multiply.17554")
#loc4924 = loc("slice.17541")
#loc4925 = loc("multiply.17551")
#loc4926 = loc("subtract.17557")
#loc4927 = loc("multiply.17544")
#loc4928 = loc("multiply.17539")
#loc4929 = loc("add.17547")
#loc4930 = loc("concatenate.17558")
#loc4931 = loc("scatter.17577")
#loc4932 = loc("broadcast.17698")
#loc4933 = loc("reshape.17699")
#loc4934 = loc("transpose.17700")
#loc4935 = loc("dot.17743")
#loc4936 = loc("multiply.17746")
#loc4937 = loc("add.17751")
#loc4938 = loc("reshape.17691")
#loc4939 = loc("reshape.17686")
#loc4940 = loc("broadcast.17692")
#loc4941 = loc("concatenate.17752")
#loc4942 = loc("reduce.17759")
#loc4943 = loc("broadcast.17795")
#loc4944 = loc("subtract.17796")
#loc4945 = loc("reduce.17802")
#loc4946 = loc("broadcast.17803")
#loc4947 = loc("subtract.17804")
#loc4948 = loc("exponential.17805")
#loc4949 = loc("reduce.17811")
#loc4950 = loc("broadcast.17812")
#loc4951 = loc("divide.17813")
#loc4952 = loc("slice.17814")
#loc4953 = loc("transpose.17588")
#loc4954 = loc("dot.17590")
#loc4955 = loc("reshape.17591")
#loc4956 = loc("broadcast.17594")
#loc4957 = loc("add.17595")
#loc4958 = loc("transpose.17597")
#loc4959 = loc("reshape.17596")
#loc4960 = loc("scatter.17616")
#loc4961 = loc("broadcast.17682")
#loc4962 = loc("reshape.17683")
#loc4963 = loc("dot.17815")
#loc4964 = loc("transpose.17817")
#loc4965 = loc("reshape.17819")
#loc4966 = loc("transpose.17678")
#loc4967 = loc("dot.17820")
#loc4968 = loc("reshape.17821")
#loc4969 = loc("broadcast.17824")
#loc4970 = loc("add.17825")
#loc4971 = loc("add.17828")
#loc4972 = loc("custom-call.17861")
#loc4973 = loc("reshape.17954")
#loc4974 = loc("concatenate.17955")
#loc4975 = loc("dot.17958")
#loc4976 = loc("broadcast.17962")
#loc4977 = loc("add.17963")
#loc4978 = loc("slice.17976")
#loc4979 = loc("clamp.17979")
#loc4980 = loc("add.17982")
#loc4981 = loc("slice.17964")
#loc4982 = loc("clamp.17967")
#loc4983 = loc("multiply.17969")
#loc4984 = loc("logistic.17970")
#loc4985 = loc("multiply.17971")
#loc4986 = loc("multiply.17983")
#loc4987 = loc("dot.17984")
#loc4988 = loc("broadcast.17988")
#loc4989 = loc("add.17989")
#loc4990 = loc("reshape.17990")
#loc4991 = loc("convert.17863")
#loc4992 = loc("transpose.17657")
#loc4993 = loc("convert.17658")
#loc4994 = loc("dot.17864")
#loc4995 = loc("convert.17646")
#loc4996 = loc("broadcast.17869")
#loc4997 = loc("add.17870")
#loc4998 = loc("convert.17871")
#loc4999 = loc("broadcast.17916")
#loc5000 = loc("compare.17917")
#loc5001 = loc("convert.17918")
#loc5002 = loc("convert.17919")
#loc5003 = loc("reduce.17898")
#loc5004 = loc("broadcast.17899")
#loc5005 = loc("subtract.17900")
#loc5006 = loc("exponential.17901")
#loc5007 = loc("reduce.17907")
#loc5008 = loc("broadcast.17908")
#loc5009 = loc("divide.17909")
#loc5010 = loc("broadcast.17921")
#loc5011 = loc("multiply.17922")
#loc5012 = loc("reduce.17929")
#loc5013 = loc("transpose.17930")
#loc5014 = loc("reshape.17931")
#loc5015 = loc("broadcast.17992")
#loc5016 = loc("multiply.17993")
#loc5017 = loc("reduce.18000")
#loc5018 = loc("add.18003")
#loc5019 = loc("custom-call.18036")
#loc5020 = loc("reshape.18221")
#loc5021 = loc("transpose.18220")
#loc5022 = loc("dot.18222")
#loc5023 = loc("reshape.18223")
#loc5024 = loc("broadcast.18226")
#loc5025 = loc("add.18227")
#loc5026 = loc("reshape.18228")
#loc5027 = loc("transpose.18229")
#loc5028 = loc("slice.18230")
#loc5029 = loc("multiply.18247")
#loc5030 = loc("slice.18234")
#loc5031 = loc("multiply.18244")
#loc5032 = loc("subtract.18250")
#loc5033 = loc("multiply.18237")
#loc5034 = loc("multiply.18233")
#loc5035 = loc("add.18240")
#loc5036 = loc("concatenate.18251")
#loc5037 = loc("transpose.17629")
#loc5038 = loc("dot.18038")
#loc5039 = loc("reshape.18039")
#loc5040 = loc("broadcast.18042")
#loc5041 = loc("add.18043")
#loc5042 = loc("transpose.18045")
#loc5043 = loc("reshape.18044")
#loc5044 = loc("slice.18046")
#loc5045 = loc("multiply.18064")
#loc5046 = loc("slice.18051")
#loc5047 = loc("multiply.18061")
#loc5048 = loc("subtract.18067")
#loc5049 = loc("multiply.18054")
#loc5050 = loc("multiply.18049")
#loc5051 = loc("add.18057")
#loc5052 = loc("concatenate.18068")
#loc5053 = loc("scatter.18087")
#loc5054 = loc("broadcast.18207")
#loc5055 = loc("reshape.18208")
#loc5056 = loc("transpose.18209")
#loc5057 = loc("dot.18252")
#loc5058 = loc("multiply.18255")
#loc5059 = loc("add.18260")
#loc5060 = loc("reshape.18200")
#loc5061 = loc("reshape.18195")
#loc5062 = loc("broadcast.18201")
#loc5063 = loc("concatenate.18261")
#loc5064 = loc("transpose.18098")
#loc5065 = loc("dot.18100")
#loc5066 = loc("reshape.18101")
#loc5067 = loc("broadcast.18104")
#loc5068 = loc("add.18105")
#loc5069 = loc("transpose.18107")
#loc5070 = loc("reshape.18106")
#loc5071 = loc("scatter.18126")
#loc5072 = loc("slice.18130")
#loc5073 = loc("add.18133")
#loc5074 = loc("reduce.18268")
#loc5075 = loc("broadcast.18304")
#loc5076 = loc("subtract.18305")
#loc5077 = loc("reduce.18311")
#loc5078 = loc("broadcast.18312")
#loc5079 = loc("subtract.18313")
#loc5080 = loc("exponential.18314")
#loc5081 = loc("reduce.18320")
#loc5082 = loc("broadcast.18321")
#loc5083 = loc("divide.18322")
#loc5084 = loc("slice.18323")
#loc5085 = loc("broadcast.18191")
#loc5086 = loc("reshape.18192")
#loc5087 = loc("dot.18324")
#loc5088 = loc("transpose.18326")
#loc5089 = loc("reshape.18328")
#loc5090 = loc("transpose.18187")
#loc5091 = loc("dot.18329")
#loc5092 = loc("reshape.18330")
#loc5093 = loc("broadcast.18333")
#loc5094 = loc("add.18334")
#loc5095 = loc("add.18337")
#loc5096 = loc("custom-call.18370")
#loc5097 = loc("reshape.18463")
#loc5098 = loc("concatenate.18464")
#loc5099 = loc("dot.18467")
#loc5100 = loc("broadcast.18471")
#loc5101 = loc("add.18472")
#loc5102 = loc("slice.18485")
#loc5103 = loc("clamp.18488")
#loc5104 = loc("add.18491")
#loc5105 = loc("slice.18473")
#loc5106 = loc("clamp.18476")
#loc5107 = loc("multiply.18478")
#loc5108 = loc("logistic.18479")
#loc5109 = loc("multiply.18480")
#loc5110 = loc("multiply.18492")
#loc5111 = loc("dot.18493")
#loc5112 = loc("broadcast.18497")
#loc5113 = loc("add.18498")
#loc5114 = loc("reshape.18499")
#loc5115 = loc("convert.18372")
#loc5116 = loc("transpose.18166")
#loc5117 = loc("convert.18167")
#loc5118 = loc("dot.18373")
#loc5119 = loc("convert.18155")
#loc5120 = loc("broadcast.18378")
#loc5121 = loc("add.18379")
#loc5122 = loc("convert.18380")
#loc5123 = loc("broadcast.18425")
#loc5124 = loc("compare.18426")
#loc5125 = loc("convert.18427")
#loc5126 = loc("convert.18428")
#loc5127 = loc("reduce.18407")
#loc5128 = loc("broadcast.18408")
#loc5129 = loc("subtract.18409")
#loc5130 = loc("exponential.18410")
#loc5131 = loc("reduce.18416")
#loc5132 = loc("broadcast.18417")
#loc5133 = loc("divide.18418")
#loc5134 = loc("broadcast.18430")
#loc5135 = loc("multiply.18431")
#loc5136 = loc("reduce.18438")
#loc5137 = loc("transpose.18439")
#loc5138 = loc("reshape.18440")
#loc5139 = loc("broadcast.18501")
#loc5140 = loc("multiply.18502")
#loc5141 = loc("reduce.18509")
#loc5142 = loc("add.18512")
#loc5143 = loc("custom-call.18545")
#loc5144 = loc("reshape.18546")
#loc5145 = loc("transpose.18138")
#loc5146 = loc("dot.18547")
#loc5147 = loc("reshape.18548")
#loc5148 = loc("slice.18550")
#loc5149 = loc("reshape.18551")
#loc5150 = loc("iota.18554")
#loc5151 = loc("reduce.18579")
#loc5152 = loc("convert.18581")
#loc5153 = loc("reshape.18582")
#loc5154 = loc(fused[#loc694, #loc695])
#loc5155 = loc("gather.56_permuteInput"(#loc697))
#loc5156 = loc("gather.56_reshapeInput"(#loc697))
#loc5157 = loc("gather.56_reshapeStartIndices"(#loc697))
#loc5158 = loc("gather.56_reshapeOutput"(#loc697))
#loc5159 = loc("gather.56_permuteOutput"(#loc697))
#loc5160 = loc(fused[#loc709, #loc710])
#loc5161 = loc(fused[#loc742, #loc743])
#loc5162 = loc(fused[#loc763, #loc712])
#loc5163 = loc(fused[#loc774, #loc775])
#loc5164 = loc(fused[#loc781, #loc782])
#loc5165 = loc(fused[#loc801, #loc802])
#loc5166 = loc(fused[#loc886, #loc887])
#loc5167 = loc(fused[#loc905, #loc906])
#loc5168 = loc(fused[#loc912, #loc913])
#loc5169 = loc(fused[#loc932, #loc933])
#loc5170 = loc(fused[#loc1016, #loc1017])
#loc5171 = loc(fused[#loc1034, #loc1035])
#loc5172 = loc(fused[#loc1054, #loc1055])
#loc5173 = loc(fused[#loc1138, #loc1139])
#loc5174 = loc(fused[#loc1156, #loc1157])
#loc5175 = loc(fused[#loc1176, #loc1177])
#loc5176 = loc(fused[#loc1260, #loc1261])
#loc5177 = loc(fused[#loc1278, #loc1279])
#loc5178 = loc(fused[#loc1298, #loc1299])
#loc5179 = loc(fused[#loc1382, #loc1383])
#loc5180 = loc(fused[#loc1400, #loc1401])
#loc5181 = loc(fused[#loc1420, #loc1421])
#loc5182 = loc(fused[#loc1504, #loc1505])
#loc5183 = loc(fused[#loc1522, #loc1523])
#loc5184 = loc(fused[#loc1542, #loc1543])
#loc5185 = loc(fused[#loc1626, #loc1627])
#loc5186 = loc(fused[#loc1644, #loc1645])
#loc5187 = loc(fused[#loc1664, #loc1665])
#loc5188 = loc(fused[#loc1748, #loc1749])
#loc5189 = loc(fused[#loc1766, #loc1767])
#loc5190 = loc(fused[#loc1786, #loc1787])
#loc5191 = loc(fused[#loc1870, #loc1871])
#loc5192 = loc(fused[#loc1888, #loc1889])
#loc5193 = loc(fused[#loc1908, #loc1909])
#loc5194 = loc(fused[#loc1992, #loc1993])
#loc5195 = loc(fused[#loc2010, #loc2011])
#loc5196 = loc(fused[#loc2030, #loc2031])
#loc5197 = loc(fused[#loc2114, #loc2115])
#loc5198 = loc(fused[#loc2132, #loc2133])
#loc5199 = loc(fused[#loc2152, #loc2153])
#loc5200 = loc(fused[#loc2236, #loc2237])
#loc5201 = loc(fused[#loc2254, #loc2255])
#loc5202 = loc(fused[#loc2274, #loc2275])
#loc5203 = loc(fused[#loc2358, #loc2359])
#loc5204 = loc(fused[#loc2376, #loc2377])
#loc5205 = loc(fused[#loc2396, #loc2397])
#loc5206 = loc(fused[#loc2480, #loc2481])
#loc5207 = loc(fused[#loc2498, #loc2499])
#loc5208 = loc(fused[#loc2518, #loc2519])
#loc5209 = loc(fused[#loc2602, #loc2603])
#loc5210 = loc(fused[#loc2620, #loc2621])
#loc5211 = loc(fused[#loc2640, #loc2641])
#loc5212 = loc(fused[#loc2724, #loc2725])
#loc5213 = loc(fused[#loc2742, #loc2743])
#loc5214 = loc(fused[#loc2762, #loc2763])
#loc5215 = loc(fused[#loc2846, #loc2847])
#loc5216 = loc(fused[#loc2864, #loc2865])
#loc5217 = loc(fused[#loc2884, #loc2885])
#loc5218 = loc(fused[#loc2968, #loc2969])
#loc5219 = loc(fused[#loc2986, #loc2987])
#loc5220 = loc(fused[#loc3006, #loc3007])
#loc5221 = loc(fused[#loc3090, #loc3091])
#loc5222 = loc(fused[#loc3108, #loc3109])
#loc5223 = loc(fused[#loc3128, #loc3129])
#loc5224 = loc(fused[#loc3212, #loc3213])
#loc5225 = loc(fused[#loc3230, #loc3231])
#loc5226 = loc(fused[#loc3250, #loc3251])
#loc5227 = loc(fused[#loc3334, #loc3335])
#loc5228 = loc(fused[#loc3352, #loc3353])
#loc5229 = loc(fused[#loc3372, #loc3373])
#loc5230 = loc(fused[#loc3456, #loc3457])
#loc5231 = loc(fused[#loc3474, #loc3475])
#loc5232 = loc(fused[#loc3494, #loc3495])
#loc5233 = loc(fused[#loc3578, #loc3579])
#loc5234 = loc(fused[#loc3596, #loc3597])
#loc5235 = loc(fused[#loc3616, #loc3617])
#loc5236 = loc(fused[#loc3700, #loc3701])
#loc5237 = loc(fused[#loc3718, #loc3719])
#loc5238 = loc(fused[#loc3738, #loc3739])
#loc5239 = loc(fused[#loc3822, #loc3823])
#loc5240 = loc(fused[#loc3840, #loc3841])
#loc5241 = loc(fused[#loc3860, #loc3861])
#loc5242 = loc(fused[#loc3944, #loc3945])
#loc5243 = loc(fused[#loc3962, #loc3963])
#loc5244 = loc(fused[#loc3982, #loc3983])
#loc5245 = loc(fused[#loc4066, #loc4067])
#loc5246 = loc(fused[#loc4084, #loc4085])
#loc5247 = loc(fused[#loc4104, #loc4105])
#loc5248 = loc(fused[#loc4188, #loc4189])
#loc5249 = loc(fused[#loc4206, #loc4207])
#loc5250 = loc(fused[#loc4226, #loc4227])
#loc5251 = loc(fused[#loc4310, #loc4311])
#loc5252 = loc(fused[#loc4328, #loc4329])
#loc5253 = loc(fused[#loc4348, #loc4349])
#loc5254 = loc(fused[#loc4432, #loc4433])
#loc5255 = loc(fused[#loc4450, #loc4451])
#loc5256 = loc(fused[#loc4470, #loc4471])
#loc5257 = loc(fused[#loc4554, #loc4555])
#loc5258 = loc(fused[#loc4572, #loc4573])
#loc5259 = loc(fused[#loc4592, #loc4593])
#loc5260 = loc(fused[#loc4676, #loc4677])
#loc5261 = loc(fused[#loc4694, #loc4695])
#loc5262 = loc(fused[#loc4714, #loc4715])
#loc5263 = loc(fused[#loc4798, #loc4799])
#loc5264 = loc(fused[#loc4816, #loc4817])
#loc5265 = loc(fused[#loc4836, #loc4837])
#loc5266 = loc(fused[#loc4920, #loc4921])
#loc5267 = loc(fused[#loc4938, #loc4939])
#loc5268 = loc(fused[#loc4958, #loc4959])
#loc5269 = loc(fused[#loc5042, #loc5043])
#loc5270 = loc(fused[#loc5060, #loc5061])
#loc5271 = loc(fused[#loc5069, #loc5070])
