#loc1 = loc("p0.1")
#loc2 = loc("p1.5")
#loc3 = loc("p2.8")
#loc4 = loc("p3.15")
#loc5 = loc("p4.25")
#loc6 = loc("p5.29")
#loc7 = loc("p6.63")
#loc8 = loc("p7.67")
#loc9 = loc("p8.70")
#loc10 = loc("p9.77")
#loc11 = loc("p10.87")
#loc12 = loc("p11.91")
#loc13 = loc("p12.94")
#loc14 = loc("p13.101")
#loc15 = loc("p14.113")
#loc16 = loc("p15.117")
#loc17 = loc("p16.120")
#loc18 = loc("p17.127")
#loc19 = loc("p18.137")
#loc20 = loc("p19.141")
#loc21 = loc("p20.144")
#loc22 = loc("p21.151")
#loc23 = loc("p22.163")
#loc24 = loc("p23.167")
#loc25 = loc("p24.170")
#loc26 = loc("p25.177")
#loc27 = loc("p26.187")
#loc28 = loc("p27.191")
#loc29 = loc("p28.194")
#loc30 = loc("p29.201")
#loc31 = loc("p30.211")
#loc32 = loc("p31.215")
#loc33 = loc("p32.249")
#loc34 = loc("p33.253")
#loc35 = loc("p34.256")
#loc36 = loc("p35.263")
#loc37 = loc("p36.273")
#loc38 = loc("p37.277")
#loc39 = loc("p38.280")
#loc40 = loc("p39.287")
#loc41 = loc("p40.299")
#loc42 = loc("p41.303")
#loc43 = loc("p42.306")
#loc44 = loc("p43.313")
#loc45 = loc("p44.323")
#loc46 = loc("p45.327")
#loc47 = loc("p46.330")
#loc48 = loc("p47.337")
#loc49 = loc("p48.349")
#loc50 = loc("p49.353")
#loc51 = loc("p50.356")
#loc52 = loc("p51.363")
#loc53 = loc("p52.373")
#loc54 = loc("p53.377")
#loc55 = loc("p54.380")
#loc56 = loc("p55.387")
#loc57 = loc("p56.397")
#loc58 = loc("p57.401")
#loc59 = loc("p58.435")
#loc60 = loc("p59.439")
#loc61 = loc("p60.442")
#loc62 = loc("p61.449")
#loc63 = loc("p62.459")
#loc64 = loc("p63.463")
#loc65 = loc("p64.466")
#loc66 = loc("p65.473")
#loc67 = loc("p66.485")
#loc68 = loc("p67.489")
#loc69 = loc("p68.492")
#loc70 = loc("p69.499")
#loc71 = loc("p70.509")
#loc72 = loc("p71.513")
#loc73 = loc("p72.516")
#loc74 = loc("p73.523")
#loc75 = loc("p74.535")
#loc76 = loc("p75.539")
#loc77 = loc("p76.542")
#loc78 = loc("p77.549")
#loc79 = loc("p78.559")
#loc80 = loc("p79.563")
#loc81 = loc("p80.566")
#loc82 = loc("p81.573")
#loc83 = loc("p82.585")
#loc84 = loc("p83.589")
#loc85 = loc("p84.592")
#loc86 = loc("p85.599")
#loc87 = loc("p86.609")
#loc88 = loc("p87.613")
#loc89 = loc("p88.616")
#loc90 = loc("p89.623")
#loc91 = loc("p90.637")
#loc92 = loc("p91.641")
#loc93 = loc("p92.644")
#loc94 = loc("p93.651")
#loc95 = loc("p94.661")
#loc96 = loc("p95.665")
#loc97 = loc("p96.668")
#loc98 = loc("p97.675")
#loc99 = loc("p98.685")
#loc100 = loc("p99.689")
#loc101 = loc("p100.691")
#loc102 = loc("p101.883")
#loc103 = loc("p102.887")
#loc104 = loc("p103.893")
#loc105 = loc("p104.897")
#loc106 = loc("p105.903")
#loc107 = loc("p106.909")
#loc108 = loc("p107.1017")
#loc109 = loc("p108.1021")
#loc110 = loc("p109.1042")
#loc111 = loc("p110.1046")
#loc112 = loc("p111.2633")
#loc113 = loc("p112.2637")
#loc1285 = loc("custom-call.1060")
#loc1286 = loc("custom-call.1035")
#loc1287 = loc("custom-call.1013")
#loc1297 = loc("reduce.1107")
module @SyncTensorsGraph.3119 attributes {mhlo.cross_program_prefetches = [], mhlo.input_output_alias = [], mhlo.is_dynamic = false, mhlo.use_auto_spmd_partitioning = false} {
  func.func @main(%arg0: tensor<128xbf16> loc("p0.1"), %arg1: tensor<128x256x3x3xbf16> loc("p1.5"), %arg2: tensor<256xbf16> loc("p2.8"), %arg3: tensor<256xbf16> loc("p3.15"), %arg4: tensor<256xbf16> loc("p4.25"), %arg5: tensor<256x256x3x3xbf16> loc("p5.29"), %arg6: tensor<256xbf16> loc("p6.63"), %arg7: tensor<256x256x3x3xbf16> loc("p7.67"), %arg8: tensor<256xbf16> loc("p8.70"), %arg9: tensor<256xbf16> loc("p9.77"), %arg10: tensor<256xbf16> loc("p10.87"), %arg11: tensor<256x256x3x3xbf16> loc("p11.91"), %arg12: tensor<256xbf16> loc("p12.94"), %arg13: tensor<256xbf16> loc("p13.101"), %arg14: tensor<256xbf16> loc("p14.113"), %arg15: tensor<256x256x3x3xbf16> loc("p15.117"), %arg16: tensor<256xbf16> loc("p16.120"), %arg17: tensor<256xbf16> loc("p17.127"), %arg18: tensor<256xbf16> loc("p18.137"), %arg19: tensor<256x256x3x3xbf16> loc("p19.141"), %arg20: tensor<256xbf16> loc("p20.144"), %arg21: tensor<256xbf16> loc("p21.151"), %arg22: tensor<256xbf16> loc("p22.163"), %arg23: tensor<256x256x3x3xbf16> loc("p23.167"), %arg24: tensor<256xbf16> loc("p24.170"), %arg25: tensor<256xbf16> loc("p25.177"), %arg26: tensor<256xbf16> loc("p26.187"), %arg27: tensor<256x512x3x3xbf16> loc("p27.191"), %arg28: tensor<512xbf16> loc("p28.194"), %arg29: tensor<512xbf16> loc("p29.201"), %arg30: tensor<512xbf16> loc("p30.211"), %arg31: tensor<512x512x3x3xbf16> loc("p31.215"), %arg32: tensor<512xbf16> loc("p32.249"), %arg33: tensor<512x512x3x3xbf16> loc("p33.253"), %arg34: tensor<512xbf16> loc("p34.256"), %arg35: tensor<512xbf16> loc("p35.263"), %arg36: tensor<512xbf16> loc("p36.273"), %arg37: tensor<512x512x3x3xbf16> loc("p37.277"), %arg38: tensor<512xbf16> loc("p38.280"), %arg39: tensor<512xbf16> loc("p39.287"), %arg40: tensor<512xbf16> loc("p40.299"), %arg41: tensor<512x512x3x3xbf16> loc("p41.303"), %arg42: tensor<512xbf16> loc("p42.306"), %arg43: tensor<512xbf16> loc("p43.313"), %arg44: tensor<512xbf16> loc("p44.323"), %arg45: tensor<512x512x3x3xbf16> loc("p45.327"), %arg46: tensor<512xbf16> loc("p46.330"), %arg47: tensor<512xbf16> loc("p47.337"), %arg48: tensor<512xbf16> loc("p48.349"), %arg49: tensor<512x512x3x3xbf16> loc("p49.353"), %arg50: tensor<512xbf16> loc("p50.356"), %arg51: tensor<512xbf16> loc("p51.363"), %arg52: tensor<512xbf16> loc("p52.373"), %arg53: tensor<512x512x3x3xbf16> loc("p53.377"), %arg54: tensor<512xbf16> loc("p54.380"), %arg55: tensor<512xbf16> loc("p55.387"), %arg56: tensor<512xbf16> loc("p56.397"), %arg57: tensor<512x512x3x3xbf16> loc("p57.401"), %arg58: tensor<512xbf16> loc("p58.435"), %arg59: tensor<512x512x3x3xbf16> loc("p59.439"), %arg60: tensor<512xbf16> loc("p60.442"), %arg61: tensor<512xbf16> loc("p61.449"), %arg62: tensor<512xbf16> loc("p62.459"), %arg63: tensor<512x512x3x3xbf16> loc("p63.463"), %arg64: tensor<512xbf16> loc("p64.466"), %arg65: tensor<512xbf16> loc("p65.473"), %arg66: tensor<512xbf16> loc("p66.485"), %arg67: tensor<512x512x3x3xbf16> loc("p67.489"), %arg68: tensor<512xbf16> loc("p68.492"), %arg69: tensor<512xbf16> loc("p69.499"), %arg70: tensor<512xbf16> loc("p70.509"), %arg71: tensor<512x512x3x3xbf16> loc("p71.513"), %arg72: tensor<512xbf16> loc("p72.516"), %arg73: tensor<512xbf16> loc("p73.523"), %arg74: tensor<512xbf16> loc("p74.535"), %arg75: tensor<512x512x3x3xbf16> loc("p75.539"), %arg76: tensor<512xbf16> loc("p76.542"), %arg77: tensor<512xbf16> loc("p77.549"), %arg78: tensor<512xbf16> loc("p78.559"), %arg79: tensor<512x512x3x3xbf16> loc("p79.563"), %arg80: tensor<512xbf16> loc("p80.566"), %arg81: tensor<512xbf16> loc("p81.573"), %arg82: tensor<512xbf16> loc("p82.585"), %arg83: tensor<512x512x3x3xbf16> loc("p83.589"), %arg84: tensor<512xbf16> loc("p84.592"), %arg85: tensor<512xbf16> loc("p85.599"), %arg86: tensor<512xbf16> loc("p86.609"), %arg87: tensor<512x512x3x3xbf16> loc("p87.613"), %arg88: tensor<512xbf16> loc("p88.616"), %arg89: tensor<512xbf16> loc("p89.623"), %arg90: tensor<512xbf16> loc("p90.637"), %arg91: tensor<512x512x3x3xbf16> loc("p91.641"), %arg92: tensor<512xbf16> loc("p92.644"), %arg93: tensor<512xbf16> loc("p93.651"), %arg94: tensor<512xbf16> loc("p94.661"), %arg95: tensor<512x512x3x3xbf16> loc("p95.665"), %arg96: tensor<512xbf16> loc("p96.668"), %arg97: tensor<512xbf16> loc("p97.675"), %arg98: tensor<512xbf16> loc("p98.685"), %arg99: tensor<512x16x3x3xbf16> loc("p99.689"), %arg100: tensor<1x16x160x90xbf16> loc("p100.691"), %arg101: tensor<512xbf16> loc("p101.883"), %arg102: tensor<512x512xbf16> loc("p102.887"), %arg103: tensor<512xbf16> loc("p103.893"), %arg104: tensor<512x512xbf16> loc("p104.897"), %arg105: tensor<512xbf16> loc("p105.903"), %arg106: tensor<512xbf16> loc("p106.909"), %arg107: tensor<512xbf16> loc("p107.1017"), %arg108: tensor<512x512xbf16> loc("p108.1021"), %arg109: tensor<512xbf16> loc("p109.1042"), %arg110: tensor<512x512xbf16> loc("p110.1046"), %arg111: tensor<256xbf16> loc("p111.2633"), %arg112: tensor<256x512x1x1xbf16> loc("p112.2637")) -> tensor<1x128x1280x720xbf16> {
    %cst = stablehlo.constant dense<1.35633684E-7> : tensor<1x32xf32> loc(#loc)
    %cst_0 = stablehlo.constant dense<"…"> : tensor<720xf64> loc(#loc)
    %cst_1 = stablehlo.constant dense<"…"> : tensor<1280xf64> loc(#loc)
    %cst_2 = stablehlo.constant dense<1.000000e+00> : tensor<1x256x640x360xbf16> loc(#loc)
    %cst_3 = stablehlo.constant dense<5.42534735E-7> : tensor<1x32xf32> loc(#loc)
    %cst_4 = stablehlo.constant dense<2.71267368E-7> : tensor<1x32xf32> loc(#loc)
    %cst_5 = stablehlo.constant dense<"…"> : tensor<360xf64> loc(#loc)
    %cst_6 = stablehlo.constant dense<"…"> : tensor<640xf64> loc(#loc)
    %cst_7 = stablehlo.constant dense<1.000000e+00> : tensor<1x512x320x180xbf16> loc(#loc)
    %cst_8 = stablehlo.constant dense<1.08506947E-6> : tensor<1x32xf32> loc(#loc)
    %cst_9 = stablehlo.constant dense<"…"> : tensor<180xf64> loc(#loc)
    %cst_10 = stablehlo.constant dense<"…"> : tensor<320xf64> loc(#loc)
    %cst_11 = stablehlo.constant dense<1.000000e+00> : tensor<1x512x160x90xbf16> loc(#loc)
    %cst_12 = stablehlo.constant dense<9.99999997E-7> : tensor<1x32x1x1xf32> loc(#loc)
    %cst_13 = stablehlo.constant dense<4.34027788E-6> : tensor<1x32xf32> loc(#loc)
    %c = stablehlo.constant dense<"…"> : tensor<360xi64> loc(#loc)
    %c_14 = stablehlo.constant dense<"…"> : tensor<640xi64> loc(#loc)
    %c_15 = stablehlo.constant dense<"…"> : tensor<180xi64> loc(#loc)
    %c_16 = stablehlo.constant dense<"…"> : tensor<320xi64> loc(#loc)
    %c_17 = stablehlo.constant dense<[0, 1, 2, 3, 4, 5, 6, 7, 8, 9, 10, 11, 12, 13, 14, 15, 16, 17, 18, 19, 20, 21, 22, 23, 24, 25, 26, 27, 28, 29, 30, 31, 32, 33, 34, 35, 36, 37, 38, 39, 40, 41, 42, 43, 44, 45, 46, 47, 48, 49, 50, 51, 52, 53, 54, 55, 56, 57, 58, 59, 60, 61, 62, 63, 64, 65, 66, 67, 68, 69, 70, 71, 72, 73, 74, 75, 76, 77, 78, 79, 80, 81, 82, 83, 84, 85, 86, 87, 88, 89]> : tensor<90xi64> loc(#loc)
    %c_18 = stablehlo.constant dense<"…"> : tensor<160xi64> loc(#loc)
    %cst_19 = stablehlo.constant dense<0.000000e+00> : tensor<f32> loc(#loc)
    %0 = stablehlo.custom_call @tt.mark_argument(%arg100) {api_version = 0 : i32, mhlo.frontend_attributes = {ttcore.argument_type = "input", ttir.name = "args_0"}} : (tensor<1x16x160x90xbf16>) -> tensor<1x16x160x90xbf16> loc(#loc114)
    %1 = stablehlo.custom_call @tt.mark_argument(%arg99) {api_version = 0 : i32, mhlo.frontend_attributes = {ttcore.argument_type = "parameter", ttir.name = "prefix.decoder.conv_in.weight"}} : (tensor<512x16x3x3xbf16>) -> tensor<512x16x3x3xbf16> loc(#loc115)
    %2 = stablehlo.convolution(%0, %1) dim_numbers = [b, f, 0, 1]x[o, i, 0, 1]->[b, f, 0, 1], window = {pad = [[1, 1], [1, 1]]} {batch_group_count = 1 : i64, feature_group_count = 1 : i64} : (tensor<1x16x160x90xbf16>, tensor<512x16x3x3xbf16>) -> tensor<1x512x160x90xbf16> loc(#loc116)
    %3 = stablehlo.reshape %arg98 : (tensor<512xbf16>) -> tensor<1x1x512xbf16> loc(#loc117)
    %4 = stablehlo.custom_call @tt.mark_argument(%3) {api_version = 0 : i32, mhlo.frontend_attributes = {ttcore.argument_type = "parameter", ttir.name = "prefix.decoder.conv_in.bias"}} : (tensor<1x1x512xbf16>) -> tensor<1x1x512xbf16> loc(#loc118)
    %5 = stablehlo.reshape %4 : (tensor<1x1x512xbf16>) -> tensor<512xbf16> loc(#loc119)
    %6 = stablehlo.broadcast_in_dim %5, dims = [1] : (tensor<512xbf16>) -> tensor<1x512x160x90xbf16> loc(#loc120)
    %7 = stablehlo.add %2, %6 : tensor<1x512x160x90xbf16> loc(#loc121)
    %8 = stablehlo.convert %7 : (tensor<1x512x160x90xbf16>) -> tensor<1x512x160x90xf32> loc(#loc122)
    %9 = stablehlo.reshape %8 : (tensor<1x512x160x90xf32>) -> tensor<1x32x16x14400xf32> loc(#loc123)
    %10 = stablehlo.reduce(%9 init: %cst_19) applies stablehlo.add across dimensions = [2, 3] : (tensor<1x32x16x14400xf32>, tensor<f32>) -> tensor<1x32xf32> loc(#loc124)
    %11 = stablehlo.multiply %10, %cst_13 : tensor<1x32xf32> loc(#loc125)
    %12 = stablehlo.broadcast_in_dim %11, dims = [0, 1] : (tensor<1x32xf32>) -> tensor<1x32x16x14400xf32> loc(#loc126)
    %13 = stablehlo.subtract %9, %12 : tensor<1x32x16x14400xf32> loc(#loc127)
    %14 = stablehlo.multiply %13, %13 : tensor<1x32x16x14400xf32> loc(#loc128)
    %15 = stablehlo.reduce(%14 init: %cst_19) applies stablehlo.add across dimensions = [2, 3] : (tensor<1x32x16x14400xf32>, tensor<f32>) -> tensor<1x32xf32> loc(#loc129)
    %16 = stablehlo.multiply %15, %cst_13 : tensor<1x32xf32> loc(#loc130)
    %17 = stablehlo.reshape %16 : (tensor<1x32xf32>) -> tensor<1x32x1x1xf32> loc(#loc131)
    %18 = stablehlo.add %17, %cst_12 : tensor<1x32x1x1xf32> loc(#loc132)
    %19 = stablehlo.rsqrt %18 : tensor<1x32x1x1xf32> loc(#loc133)
    %20 = stablehlo.reshape %19 : (tensor<1x32x1x1xf32>) -> tensor<1x32xf32> loc(#loc134)
    %21 = stablehlo.broadcast_in_dim %20, dims = [0, 1] : (tensor<1x32xf32>) -> tensor<1x32x16x14400xf32> loc(#loc135)
    %22 = stablehlo.multiply %13, %21 : tensor<1x32x16x14400xf32> loc(#loc136)
    %23 = stablehlo.reshape %22 : (tensor<1x32x16x14400xf32>) -> tensor<1x512x160x90xf32> loc(#loc137)
    %24 = stablehlo.reshape %arg97 : (tensor<512xbf16>) -> tensor<1x1x512xbf16> loc(#loc138)
    %25 = stablehlo.custom_call @tt.mark_argument(%24) {api_version = 0 : i32, mhlo.frontend_attributes = {ttcore.argument_type = "parameter", ttir.name = "prefix.decoder.mid_block.resnets.0.norm1.weight"}} : (tensor<1x1x512xbf16>) -> tensor<1x1x512xbf16> loc(#loc139)
    %26 = stablehlo.reshape %25 : (tensor<1x1x512xbf16>) -> tensor<1x512x1x1xbf16> loc(#loc140)
    %27 = stablehlo.convert %26 : (tensor<1x512x1x1xbf16>) -> tensor<1x512x1x1xf32> loc(#loc141)
    %28 = stablehlo.reshape %27 : (tensor<1x512x1x1xf32>) -> tensor<1x512xf32> loc(#loc142)
    %29 = stablehlo.broadcast_in_dim %28, dims = [0, 1] : (tensor<1x512xf32>) -> tensor<1x512x160x90xf32> loc(#loc143)
    %30 = stablehlo.multiply %23, %29 : tensor<1x512x160x90xf32> loc(#loc144)
    %31 = stablehlo.reshape %arg96 : (tensor<512xbf16>) -> tensor<1x1x512xbf16> loc(#loc145)
    %32 = stablehlo.custom_call @tt.mark_argument(%31) {api_version = 0 : i32, mhlo.frontend_attributes = {ttcore.argument_type = "parameter", ttir.name = "prefix.decoder.mid_block.resnets.0.norm1.bias"}} : (tensor<1x1x512xbf16>) -> tensor<1x1x512xbf16> loc(#loc146)
    %33 = stablehlo.reshape %32 : (tensor<1x1x512xbf16>) -> tensor<1x512x1x1xbf16> loc(#loc147)
    %34 = stablehlo.convert %33 : (tensor<1x512x1x1xbf16>) -> tensor<1x512x1x1xf32> loc(#loc148)
    %35 = stablehlo.reshape %34 : (tensor<1x512x1x1xf32>) -> tensor<1x512xf32> loc(#loc149)
    %36 = stablehlo.broadcast_in_dim %35, dims = [0, 1] : (tensor<1x512xf32>) -> tensor<1x512x160x90xf32> loc(#loc150)
    %37 = stablehlo.add %30, %36 : tensor<1x512x160x90xf32> loc(#loc151)
    %38 = stablehlo.convert %37 : (tensor<1x512x160x90xf32>) -> tensor<1x512x160x90xbf16> loc(#loc152)
    %39 = stablehlo.convert %38 : (tensor<1x512x160x90xbf16>) -> tensor<1x512x160x90xf32> loc(#loc153)
    %40 = stablehlo.logistic %39 : tensor<1x512x160x90xf32> loc(#loc154)
    %41 = stablehlo.multiply %39, %40 : tensor<1x512x160x90xf32> loc(#loc155)
    %42 = stablehlo.convert %41 : (tensor<1x512x160x90xf32>) -> tensor<1x512x160x90xbf16> loc(#loc156)
    %43 = stablehlo.custom_call @tt.mark_argument(%arg95) {api_version = 0 : i32, mhlo.frontend_attributes = {ttcore.argument_type = "parameter", ttir.name = "prefix.decoder.mid_block.resnets.0.conv1.weight"}} : (tensor<512x512x3x3xbf16>) -> tensor<512x512x3x3xbf16> loc(#loc157)
    %44 = stablehlo.convolution(%42, %43) dim_numbers = [b, f, 0, 1]x[o, i, 0, 1]->[b, f, 0, 1], window = {pad = [[1, 1], [1, 1]]} {batch_group_count = 1 : i64, feature_group_count = 1 : i64} : (tensor<1x512x160x90xbf16>, tensor<512x512x3x3xbf16>) -> tensor<1x512x160x90xbf16> loc(#loc158)
    %45 = stablehlo.reshape %arg94 : (tensor<512xbf16>) -> tensor<1x1x512xbf16> loc(#loc159)
    %46 = stablehlo.custom_call @tt.mark_argument(%45) {api_version = 0 : i32, mhlo.frontend_attributes = {ttcore.argument_type = "parameter", ttir.name = "prefix.decoder.mid_block.resnets.0.conv1.bias"}} : (tensor<1x1x512xbf16>) -> tensor<1x1x512xbf16> loc(#loc160)
    %47 = stablehlo.reshape %46 : (tensor<1x1x512xbf16>) -> tensor<512xbf16> loc(#loc161)
    %48 = stablehlo.broadcast_in_dim %47, dims = [1] : (tensor<512xbf16>) -> tensor<1x512x160x90xbf16> loc(#loc162)
    %49 = stablehlo.add %44, %48 : tensor<1x512x160x90xbf16> loc(#loc163)
    %50 = stablehlo.convert %49 : (tensor<1x512x160x90xbf16>) -> tensor<1x512x160x90xf32> loc(#loc164)
    %51 = stablehlo.reshape %50 : (tensor<1x512x160x90xf32>) -> tensor<1x32x16x14400xf32> loc(#loc165)
    %52 = stablehlo.reduce(%51 init: %cst_19) applies stablehlo.add across dimensions = [2, 3] : (tensor<1x32x16x14400xf32>, tensor<f32>) -> tensor<1x32xf32> loc(#loc166)
    %53 = stablehlo.multiply %52, %cst_13 : tensor<1x32xf32> loc(#loc167)
    %54 = stablehlo.broadcast_in_dim %53, dims = [0, 1] : (tensor<1x32xf32>) -> tensor<1x32x16x14400xf32> loc(#loc168)
    %55 = stablehlo.subtract %51, %54 : tensor<1x32x16x14400xf32> loc(#loc169)
    %56 = stablehlo.multiply %55, %55 : tensor<1x32x16x14400xf32> loc(#loc170)
    %57 = stablehlo.reduce(%56 init: %cst_19) applies stablehlo.add across dimensions = [2, 3] : (tensor<1x32x16x14400xf32>, tensor<f32>) -> tensor<1x32xf32> loc(#loc171)
    %58 = stablehlo.multiply %57, %cst_13 : tensor<1x32xf32> loc(#loc172)
    %59 = stablehlo.reshape %58 : (tensor<1x32xf32>) -> tensor<1x32x1x1xf32> loc(#loc173)
    %60 = stablehlo.add %59, %cst_12 : tensor<1x32x1x1xf32> loc(#loc174)
    %61 = stablehlo.rsqrt %60 : tensor<1x32x1x1xf32> loc(#loc175)
    %62 = stablehlo.reshape %61 : (tensor<1x32x1x1xf32>) -> tensor<1x32xf32> loc(#loc176)
    %63 = stablehlo.broadcast_in_dim %62, dims = [0, 1] : (tensor<1x32xf32>) -> tensor<1x32x16x14400xf32> loc(#loc177)
    %64 = stablehlo.multiply %55, %63 : tensor<1x32x16x14400xf32> loc(#loc178)
    %65 = stablehlo.reshape %64 : (tensor<1x32x16x14400xf32>) -> tensor<1x512x160x90xf32> loc(#loc179)
    %66 = stablehlo.reshape %arg93 : (tensor<512xbf16>) -> tensor<1x1x512xbf16> loc(#loc180)
    %67 = stablehlo.custom_call @tt.mark_argument(%66) {api_version = 0 : i32, mhlo.frontend_attributes = {ttcore.argument_type = "parameter", ttir.name = "prefix.decoder.mid_block.resnets.0.norm2.weight"}} : (tensor<1x1x512xbf16>) -> tensor<1x1x512xbf16> loc(#loc181)
    %68 = stablehlo.reshape %67 : (tensor<1x1x512xbf16>) -> tensor<1x512x1x1xbf16> loc(#loc182)
    %69 = stablehlo.convert %68 : (tensor<1x512x1x1xbf16>) -> tensor<1x512x1x1xf32> loc(#loc183)
    %70 = stablehlo.reshape %69 : (tensor<1x512x1x1xf32>) -> tensor<1x512xf32> loc(#loc184)
    %71 = stablehlo.broadcast_in_dim %70, dims = [0, 1] : (tensor<1x512xf32>) -> tensor<1x512x160x90xf32> loc(#loc185)
    %72 = stablehlo.multiply %65, %71 : tensor<1x512x160x90xf32> loc(#loc186)
    %73 = stablehlo.reshape %arg92 : (tensor<512xbf16>) -> tensor<1x1x512xbf16> loc(#loc187)
    %74 = stablehlo.custom_call @tt.mark_argument(%73) {api_version = 0 : i32, mhlo.frontend_attributes = {ttcore.argument_type = "parameter", ttir.name = "prefix.decoder.mid_block.resnets.0.norm2.bias"}} : (tensor<1x1x512xbf16>) -> tensor<1x1x512xbf16> loc(#loc188)
    %75 = stablehlo.reshape %74 : (tensor<1x1x512xbf16>) -> tensor<1x512x1x1xbf16> loc(#loc189)
    %76 = stablehlo.convert %75 : (tensor<1x512x1x1xbf16>) -> tensor<1x512x1x1xf32> loc(#loc190)
    %77 = stablehlo.reshape %76 : (tensor<1x512x1x1xf32>) -> tensor<1x512xf32> loc(#loc191)
    %78 = stablehlo.broadcast_in_dim %77, dims = [0, 1] : (tensor<1x512xf32>) -> tensor<1x512x160x90xf32> loc(#loc192)
    %79 = stablehlo.add %72, %78 : tensor<1x512x160x90xf32> loc(#loc193)
    %80 = stablehlo.convert %79 : (tensor<1x512x160x90xf32>) -> tensor<1x512x160x90xbf16> loc(#loc194)
    %81 = stablehlo.convert %80 : (tensor<1x512x160x90xbf16>) -> tensor<1x512x160x90xf32> loc(#loc195)
    %82 = stablehlo.logistic %81 : tensor<1x512x160x90xf32> loc(#loc196)
    %83 = stablehlo.multiply %81, %82 : tensor<1x512x160x90xf32> loc(#loc197)
    %84 = stablehlo.convert %83 : (tensor<1x512x160x90xf32>) -> tensor<1x512x160x90xbf16> loc(#loc198)
    %85 = stablehlo.custom_call @tt.mark_argument(%arg91) {api_version = 0 : i32, mhlo.frontend_attributes = {ttcore.argument_type = "parameter", ttir.name = "prefix.decoder.mid_block.resnets.0.conv2.weight"}} : (tensor<512x512x3x3xbf16>) -> tensor<512x512x3x3xbf16> loc(#loc199)
    %86 = stablehlo.convolution(%84, %85) dim_numbers = [b, f, 0, 1]x[o, i, 0, 1]->[b, f, 0, 1], window = {pad = [[1, 1], [1, 1]]} {batch_group_count = 1 : i64, feature_group_count = 1 : i64} : (tensor<1x512x160x90xbf16>, tensor<512x512x3x3xbf16>) -> tensor<1x512x160x90xbf16> loc(#loc200)
    %87 = stablehlo.reshape %arg90 : (tensor<512xbf16>) -> tensor<1x1x512xbf16> loc(#loc201)
    %88 = stablehlo.custom_call @tt.mark_argument(%87) {api_version = 0 : i32, mhlo.frontend_attributes = {ttcore.argument_type = "parameter", ttir.name = "prefix.decoder.mid_block.resnets.0.conv2.bias"}} : (tensor<1x1x512xbf16>) -> tensor<1x1x512xbf16> loc(#loc202)
    %89 = stablehlo.reshape %88 : (tensor<1x1x512xbf16>) -> tensor<512xbf16> loc(#loc203)
    %90 = stablehlo.broadcast_in_dim %89, dims = [1] : (tensor<512xbf16>) -> tensor<1x512x160x90xbf16> loc(#loc204)
    %91 = stablehlo.add %86, %90 : tensor<1x512x160x90xbf16> loc(#loc205)
    %92 = stablehlo.add %7, %91 : tensor<1x512x160x90xbf16> loc(#loc206)
    %93 = stablehlo.divide %92, %cst_11 : tensor<1x512x160x90xbf16> loc(#loc207)
    %94 = stablehlo.reshape %93 : (tensor<1x512x160x90xbf16>) -> tensor<1x512x14400xbf16> loc(#loc208)
    %95 = stablehlo.convert %94 : (tensor<1x512x14400xbf16>) -> tensor<1x512x14400xf32> loc(#loc209)
    %96 = stablehlo.reshape %95 : (tensor<1x512x14400xf32>) -> tensor<1x32x16x14400xf32> loc(#loc210)
    %97 = stablehlo.reduce(%96 init: %cst_19) applies stablehlo.add across dimensions = [2, 3] : (tensor<1x32x16x14400xf32>, tensor<f32>) -> tensor<1x32xf32> loc(#loc211)
    %98 = stablehlo.multiply %97, %cst_13 : tensor<1x32xf32> loc(#loc212)
    %99 = stablehlo.broadcast_in_dim %98, dims = [0, 1] : (tensor<1x32xf32>) -> tensor<1x32x16x14400xf32> loc(#loc213)
    %100 = stablehlo.subtract %96, %99 : tensor<1x32x16x14400xf32> loc(#loc214)
    %101 = stablehlo.multiply %100, %100 : tensor<1x32x16x14400xf32> loc(#loc215)
    %102 = stablehlo.reduce(%101 init: %cst_19) applies stablehlo.add across dimensions = [2, 3] : (tensor<1x32x16x14400xf32>, tensor<f32>) -> tensor<1x32xf32> loc(#loc216)
    %103 = stablehlo.multiply %102, %cst_13 : tensor<1x32xf32> loc(#loc217)
    %104 = stablehlo.reshape %103 : (tensor<1x32xf32>) -> tensor<1x32x1x1xf32> loc(#loc218)
    %105 = stablehlo.add %104, %cst_12 : tensor<1x32x1x1xf32> loc(#loc219)
    %106 = stablehlo.rsqrt %105 : tensor<1x32x1x1xf32> loc(#loc220)
    %107 = stablehlo.reshape %106 : (tensor<1x32x1x1xf32>) -> tensor<1x32xf32> loc(#loc221)
    %108 = stablehlo.broadcast_in_dim %107, dims = [0, 1] : (tensor<1x32xf32>) -> tensor<1x32x16x14400xf32> loc(#loc222)
    %109 = stablehlo.multiply %100, %108 : tensor<1x32x16x14400xf32> loc(#loc223)
    %110 = stablehlo.reshape %109 : (tensor<1x32x16x14400xf32>) -> tensor<1x512x14400xf32> loc(#loc224)
    %111 = stablehlo.reshape %arg106 : (tensor<512xbf16>) -> tensor<1x1x512xbf16> loc(#loc225)
    %112 = stablehlo.custom_call @tt.mark_argument(%111) {api_version = 0 : i32, mhlo.frontend_attributes = {ttcore.argument_type = "parameter", ttir.name = "prefix.decoder.mid_block.attentions.0.group_norm.weight"}} : (tensor<1x1x512xbf16>) -> tensor<1x1x512xbf16> loc(#loc226)
    %113 = stablehlo.reshape %112 : (tensor<1x1x512xbf16>) -> tensor<1x512x1xbf16> loc(#loc227)
    %114 = stablehlo.convert %113 : (tensor<1x512x1xbf16>) -> tensor<1x512x1xf32> loc(#loc228)
    %115 = stablehlo.reshape %114 : (tensor<1x512x1xf32>) -> tensor<1x512xf32> loc(#loc229)
    %116 = stablehlo.broadcast_in_dim %115, dims = [0, 1] : (tensor<1x512xf32>) -> tensor<1x512x14400xf32> loc(#loc230)
    %117 = stablehlo.multiply %110, %116 : tensor<1x512x14400xf32> loc(#loc231)
    %118 = stablehlo.reshape %arg105 : (tensor<512xbf16>) -> tensor<1x1x512xbf16> loc(#loc232)
    %119 = stablehlo.custom_call @tt.mark_argument(%118) {api_version = 0 : i32, mhlo.frontend_attributes = {ttcore.argument_type = "parameter", ttir.name = "prefix.decoder.mid_block.attentions.0.group_norm.bias"}} : (tensor<1x1x512xbf16>) -> tensor<1x1x512xbf16> loc(#loc233)
    %120 = stablehlo.reshape %119 : (tensor<1x1x512xbf16>) -> tensor<1x512x1xbf16> loc(#loc234)
    %121 = stablehlo.convert %120 : (tensor<1x512x1xbf16>) -> tensor<1x512x1xf32> loc(#loc235)
    %122 = stablehlo.reshape %121 : (tensor<1x512x1xf32>) -> tensor<1x512xf32> loc(#loc236)
    %123 = stablehlo.broadcast_in_dim %122, dims = [0, 1] : (tensor<1x512xf32>) -> tensor<1x512x14400xf32> loc(#loc237)
    %124 = stablehlo.add %117, %123 : tensor<1x512x14400xf32> loc(#loc238)
    %125 = stablehlo.convert %124 : (tensor<1x512x14400xf32>) -> tensor<1x512x14400xbf16> loc(#loc239)
    %126 = stablehlo.transpose %125, dims = [0, 2, 1] {result_layout = dense<[1, 2, 0]> : tensor<3xindex>, xla_shape = "bf16[1,14400,512]{1,2,0}"} : (tensor<1x512x14400xbf16>) -> tensor<1x14400x512xbf16> loc(#loc240)
    %127 = stablehlo.reshape %126 : (tensor<1x14400x512xbf16>) -> tensor<14400x512xbf16> loc(#loc241)
    %128 = stablehlo.reshape %arg110 : (tensor<512x512xbf16>) -> tensor<1x512x512xbf16> loc(#loc242)
    %129 = stablehlo.custom_call @tt.mark_argument(%128) {api_version = 0 : i32, mhlo.frontend_attributes = {ttcore.argument_type = "parameter", ttir.name = "prefix.decoder.mid_block.attentions.0.to_q.weight"}} : (tensor<1x512x512xbf16>) -> tensor<1x512x512xbf16> loc(#loc243)
    %130 = stablehlo.reshape %129 : (tensor<1x512x512xbf16>) -> tensor<512x512xbf16> loc(#loc244)
    %131 = stablehlo.transpose %130, dims = [1, 0] {result_layout = dense<[0, 1]> : tensor<2xindex>, xla_shape = "bf16[512,512]{0,1}"} : (tensor<512x512xbf16>) -> tensor<512x512xbf16> loc(#loc245)
    %132 = stablehlo.dot_general %127, %131, contracting_dims = [1] x [0] : (tensor<14400x512xbf16>, tensor<512x512xbf16>) -> tensor<14400x512xbf16> loc(#loc246)
    %133 = stablehlo.reshape %132 : (tensor<14400x512xbf16>) -> tensor<1x14400x512xbf16> loc(#loc247)
    %134 = stablehlo.reshape %arg109 : (tensor<512xbf16>) -> tensor<1x1x512xbf16> loc(#loc248)
    %135 = stablehlo.custom_call @tt.mark_argument(%134) {api_version = 0 : i32, mhlo.frontend_attributes = {ttcore.argument_type = "parameter", ttir.name = "prefix.decoder.mid_block.attentions.0.to_q.bias"}} : (tensor<1x1x512xbf16>) -> tensor<1x1x512xbf16> loc(#loc249)
    %136 = stablehlo.reshape %135 : (tensor<1x1x512xbf16>) -> tensor<512xbf16> loc(#loc250)
    %137 = stablehlo.broadcast_in_dim %136, dims = [2] : (tensor<512xbf16>) -> tensor<1x14400x512xbf16> loc(#loc251)
    %138 = stablehlo.add %133, %137 : tensor<1x14400x512xbf16> loc(#loc252)
    %139 = stablehlo.reshape %138 : (tensor<1x14400x512xbf16>) -> tensor<1x1x14400x512xbf16> loc(#loc253)
    %140 = stablehlo.reshape %arg108 : (tensor<512x512xbf16>) -> tensor<1x512x512xbf16> loc(#loc254)
    %141 = stablehlo.custom_call @tt.mark_argument(%140) {api_version = 0 : i32, mhlo.frontend_attributes = {ttcore.argument_type = "parameter", ttir.name = "prefix.decoder.mid_block.attentions.0.to_k.weight"}} : (tensor<1x512x512xbf16>) -> tensor<1x512x512xbf16> loc(#loc255)
    %142 = stablehlo.reshape %141 : (tensor<1x512x512xbf16>) -> tensor<512x512xbf16> loc(#loc256)
    %143 = stablehlo.transpose %142, dims = [1, 0] {result_layout = dense<[0, 1]> : tensor<2xindex>, xla_shape = "bf16[512,512]{0,1}"} : (tensor<512x512xbf16>) -> tensor<512x512xbf16> loc(#loc257)
    %144 = stablehlo.dot_general %127, %143, contracting_dims = [1] x [0] : (tensor<14400x512xbf16>, tensor<512x512xbf16>) -> tensor<14400x512xbf16> loc(#loc258)
    %145 = stablehlo.reshape %144 : (tensor<14400x512xbf16>) -> tensor<1x14400x512xbf16> loc(#loc259)
    %146 = stablehlo.reshape %arg107 : (tensor<512xbf16>) -> tensor<1x1x512xbf16> loc(#loc260)
    %147 = stablehlo.custom_call @tt.mark_argument(%146) {api_version = 0 : i32, mhlo.frontend_attributes = {ttcore.argument_type = "parameter", ttir.name = "prefix.decoder.mid_block.attentions.0.to_k.bias"}} : (tensor<1x1x512xbf16>) -> tensor<1x1x512xbf16> loc(#loc261)
    %148 = stablehlo.reshape %147 : (tensor<1x1x512xbf16>) -> tensor<512xbf16> loc(#loc262)
    %149 = stablehlo.broadcast_in_dim %148, dims = [2] : (tensor<512xbf16>) -> tensor<1x14400x512xbf16> loc(#loc263)
    %150 = stablehlo.add %145, %149 : tensor<1x14400x512xbf16> loc(#loc264)
    %151 = stablehlo.reshape %150 : (tensor<1x14400x512xbf16>) -> tensor<1x1x14400x512xbf16> loc(#loc265)
    %152 = stablehlo.reshape %arg104 : (tensor<512x512xbf16>) -> tensor<1x512x512xbf16> loc(#loc266)
    %153 = stablehlo.custom_call @tt.mark_argument(%152) {api_version = 0 : i32, mhlo.frontend_attributes = {ttcore.argument_type = "parameter", ttir.name = "prefix.decoder.mid_block.attentions.0.to_v.weight"}} : (tensor<1x512x512xbf16>) -> tensor<1x512x512xbf16> loc(#loc267)
    %154 = stablehlo.reshape %153 : (tensor<1x512x512xbf16>) -> tensor<512x512xbf16> loc(#loc268)
    %155 = stablehlo.transpose %154, dims = [1, 0] {result_layout = dense<[0, 1]> : tensor<2xindex>, xla_shape = "bf16[512,512]{0,1}"} : (tensor<512x512xbf16>) -> tensor<512x512xbf16> loc(#loc269)
    %156 = stablehlo.dot_general %127, %155, contracting_dims = [1] x [0] : (tensor<14400x512xbf16>, tensor<512x512xbf16>) -> tensor<14400x512xbf16> loc(#loc270)
    %157 = stablehlo.reshape %156 : (tensor<14400x512xbf16>) -> tensor<1x14400x512xbf16> loc(#loc271)
    %158 = stablehlo.reshape %arg103 : (tensor<512xbf16>) -> tensor<1x1x512xbf16> loc(#loc272)
    %159 = stablehlo.custom_call @tt.mark_argument(%158) {api_version = 0 : i32, mhlo.frontend_attributes = {ttcore.argument_type = "parameter", ttir.name = "prefix.decoder.mid_block.attentions.0.to_v.bias"}} : (tensor<1x1x512xbf16>) -> tensor<1x1x512xbf16> loc(#loc273)
    %160 = stablehlo.reshape %159 : (tensor<1x1x512xbf16>) -> tensor<512xbf16> loc(#loc274)
    %161 = stablehlo.broadcast_in_dim %160, dims = [2] : (tensor<512xbf16>) -> tensor<1x14400x512xbf16> loc(#loc275)
    %162 = stablehlo.add %157, %161 : tensor<1x14400x512xbf16> loc(#loc276)
    %163 = stablehlo.reshape %162 : (tensor<1x14400x512xbf16>) -> tensor<1x1x14400x512xbf16> loc(#loc277)
    %164 = stablehlo.composite "tenstorrent.scaled_dot_product_attention" %139, %151, %163 {composite_attributes = {is_causal = false}, decomposition = @tenstorrent.scaled_dot_product_attention.impl} : (tensor<1x1x14400x512xbf16>, tensor<1x1x14400x512xbf16>, tensor<1x1x14400x512xbf16>) -> tensor<1x1x14400x512xbf16> loc(#loc278)
    %165 = stablehlo.reshape %164 : (tensor<1x1x14400x512xbf16>) -> tensor<14400x512xbf16> loc(#loc279)
    %166 = stablehlo.reshape %arg102 : (tensor<512x512xbf16>) -> tensor<1x512x512xbf16> loc(#loc280)
    %167 = stablehlo.custom_call @tt.mark_argument(%166) {api_version = 0 : i32, mhlo.frontend_attributes = {ttcore.argument_type = "parameter", ttir.name = "prefix.decoder.mid_block.attentions.0.to_out.0.weight"}} : (tensor<1x512x512xbf16>) -> tensor<1x512x512xbf16> loc(#loc281)
    %168 = stablehlo.reshape %167 : (tensor<1x512x512xbf16>) -> tensor<512x512xbf16> loc(#loc282)
    %169 = stablehlo.transpose %168, dims = [1, 0] {result_layout = dense<[0, 1]> : tensor<2xindex>, xla_shape = "bf16[512,512]{0,1}"} : (tensor<512x512xbf16>) -> tensor<512x512xbf16> loc(#loc283)
    %170 = stablehlo.dot_general %165, %169, contracting_dims = [1] x [0] : (tensor<14400x512xbf16>, tensor<512x512xbf16>) -> tensor<14400x512xbf16> loc(#loc284)
    %171 = stablehlo.reshape %170 : (tensor<14400x512xbf16>) -> tensor<1x14400x512xbf16> loc(#loc285)
    %172 = stablehlo.reshape %arg101 : (tensor<512xbf16>) -> tensor<1x1x512xbf16> loc(#loc286)
    %173 = stablehlo.custom_call @tt.mark_argument(%172) {api_version = 0 : i32, mhlo.frontend_attributes = {ttcore.argument_type = "parameter", ttir.name = "prefix.decoder.mid_block.attentions.0.to_out.0.bias"}} : (tensor<1x1x512xbf16>) -> tensor<1x1x512xbf16> loc(#loc287)
    %174 = stablehlo.reshape %173 : (tensor<1x1x512xbf16>) -> tensor<512xbf16> loc(#loc288)
    %175 = stablehlo.broadcast_in_dim %174, dims = [2] : (tensor<512xbf16>) -> tensor<1x14400x512xbf16> loc(#loc289)
    %176 = stablehlo.add %171, %175 : tensor<1x14400x512xbf16> loc(#loc290)
    %177 = stablehlo.transpose %176, dims = [0, 2, 1] {result_layout = dense<[1, 2, 0]> : tensor<3xindex>, xla_shape = "bf16[1,512,14400]{1,2,0}"} : (tensor<1x14400x512xbf16>) -> tensor<1x512x14400xbf16> loc(#loc291)
    %178 = stablehlo.reshape %177 : (tensor<1x512x14400xbf16>) -> tensor<1x512x160x90xbf16> loc(#loc292)
    %179 = stablehlo.add %178, %93 : tensor<1x512x160x90xbf16> loc(#loc293)
    %180 = stablehlo.divide %179, %cst_11 : tensor<1x512x160x90xbf16> loc(#loc294)
    %181 = stablehlo.convert %180 : (tensor<1x512x160x90xbf16>) -> tensor<1x512x160x90xf32> loc(#loc295)
    %182 = stablehlo.reshape %181 : (tensor<1x512x160x90xf32>) -> tensor<1x32x16x14400xf32> loc(#loc296)
    %183 = stablehlo.reduce(%182 init: %cst_19) applies stablehlo.add across dimensions = [2, 3] : (tensor<1x32x16x14400xf32>, tensor<f32>) -> tensor<1x32xf32> loc(#loc297)
    %184 = stablehlo.multiply %183, %cst_13 : tensor<1x32xf32> loc(#loc298)
    %185 = stablehlo.broadcast_in_dim %184, dims = [0, 1] : (tensor<1x32xf32>) -> tensor<1x32x16x14400xf32> loc(#loc299)
    %186 = stablehlo.subtract %182, %185 : tensor<1x32x16x14400xf32> loc(#loc300)
    %187 = stablehlo.multiply %186, %186 : tensor<1x32x16x14400xf32> loc(#loc301)
    %188 = stablehlo.reduce(%187 init: %cst_19) applies stablehlo.add across dimensions = [2, 3] : (tensor<1x32x16x14400xf32>, tensor<f32>) -> tensor<1x32xf32> loc(#loc302)
    %189 = stablehlo.multiply %188, %cst_13 : tensor<1x32xf32> loc(#loc303)
    %190 = stablehlo.reshape %189 : (tensor<1x32xf32>) -> tensor<1x32x1x1xf32> loc(#loc304)
    %191 = stablehlo.add %190, %cst_12 : tensor<1x32x1x1xf32> loc(#loc305)
    %192 = stablehlo.rsqrt %191 : tensor<1x32x1x1xf32> loc(#loc306)
    %193 = stablehlo.reshape %192 : (tensor<1x32x1x1xf32>) -> tensor<1x32xf32> loc(#loc307)
    %194 = stablehlo.broadcast_in_dim %193, dims = [0, 1] : (tensor<1x32xf32>) -> tensor<1x32x16x14400xf32> loc(#loc308)
    %195 = stablehlo.multiply %186, %194 : tensor<1x32x16x14400xf32> loc(#loc309)
    %196 = stablehlo.reshape %195 : (tensor<1x32x16x14400xf32>) -> tensor<1x512x160x90xf32> loc(#loc310)
    %197 = stablehlo.reshape %arg89 : (tensor<512xbf16>) -> tensor<1x1x512xbf16> loc(#loc311)
    %198 = stablehlo.custom_call @tt.mark_argument(%197) {api_version = 0 : i32, mhlo.frontend_attributes = {ttcore.argument_type = "parameter", ttir.name = "prefix.decoder.mid_block.resnets.1.norm1.weight"}} : (tensor<1x1x512xbf16>) -> tensor<1x1x512xbf16> loc(#loc312)
    %199 = stablehlo.reshape %198 : (tensor<1x1x512xbf16>) -> tensor<1x512x1x1xbf16> loc(#loc313)
    %200 = stablehlo.convert %199 : (tensor<1x512x1x1xbf16>) -> tensor<1x512x1x1xf32> loc(#loc314)
    %201 = stablehlo.reshape %200 : (tensor<1x512x1x1xf32>) -> tensor<1x512xf32> loc(#loc315)
    %202 = stablehlo.broadcast_in_dim %201, dims = [0, 1] : (tensor<1x512xf32>) -> tensor<1x512x160x90xf32> loc(#loc316)
    %203 = stablehlo.multiply %196, %202 : tensor<1x512x160x90xf32> loc(#loc317)
    %204 = stablehlo.reshape %arg88 : (tensor<512xbf16>) -> tensor<1x1x512xbf16> loc(#loc318)
    %205 = stablehlo.custom_call @tt.mark_argument(%204) {api_version = 0 : i32, mhlo.frontend_attributes = {ttcore.argument_type = "parameter", ttir.name = "prefix.decoder.mid_block.resnets.1.norm1.bias"}} : (tensor<1x1x512xbf16>) -> tensor<1x1x512xbf16> loc(#loc319)
    %206 = stablehlo.reshape %205 : (tensor<1x1x512xbf16>) -> tensor<1x512x1x1xbf16> loc(#loc320)
    %207 = stablehlo.convert %206 : (tensor<1x512x1x1xbf16>) -> tensor<1x512x1x1xf32> loc(#loc321)
    %208 = stablehlo.reshape %207 : (tensor<1x512x1x1xf32>) -> tensor<1x512xf32> loc(#loc322)
    %209 = stablehlo.broadcast_in_dim %208, dims = [0, 1] : (tensor<1x512xf32>) -> tensor<1x512x160x90xf32> loc(#loc323)
    %210 = stablehlo.add %203, %209 : tensor<1x512x160x90xf32> loc(#loc324)
    %211 = stablehlo.convert %210 : (tensor<1x512x160x90xf32>) -> tensor<1x512x160x90xbf16> loc(#loc325)
    %212 = stablehlo.convert %211 : (tensor<1x512x160x90xbf16>) -> tensor<1x512x160x90xf32> loc(#loc326)
    %213 = stablehlo.logistic %212 : tensor<1x512x160x90xf32> loc(#loc327)
    %214 = stablehlo.multiply %212, %213 : tensor<1x512x160x90xf32> loc(#loc328)
    %215 = stablehlo.convert %214 : (tensor<1x512x160x90xf32>) -> tensor<1x512x160x90xbf16> loc(#loc329)
    %216 = stablehlo.custom_call @tt.mark_argument(%arg87) {api_version = 0 : i32, mhlo.frontend_attributes = {ttcore.argument_type = "parameter", ttir.name = "prefix.decoder.mid_block.resnets.1.conv1.weight"}} : (tensor<512x512x3x3xbf16>) -> tensor<512x512x3x3xbf16> loc(#loc330)
    %217 = stablehlo.convolution(%215, %216) dim_numbers = [b, f, 0, 1]x[o, i, 0, 1]->[b, f, 0, 1], window = {pad = [[1, 1], [1, 1]]} {batch_group_count = 1 : i64, feature_group_count = 1 : i64} : (tensor<1x512x160x90xbf16>, tensor<512x512x3x3xbf16>) -> tensor<1x512x160x90xbf16> loc(#loc331)
    %218 = stablehlo.reshape %arg86 : (tensor<512xbf16>) -> tensor<1x1x512xbf16> loc(#loc332)
    %219 = stablehlo.custom_call @tt.mark_argument(%218) {api_version = 0 : i32, mhlo.frontend_attributes = {ttcore.argument_type = "parameter", ttir.name = "prefix.decoder.mid_block.resnets.1.conv1.bias"}} : (tensor<1x1x512xbf16>) -> tensor<1x1x512xbf16> loc(#loc333)
    %220 = stablehlo.reshape %219 : (tensor<1x1x512xbf16>) -> tensor<512xbf16> loc(#loc334)
    %221 = stablehlo.broadcast_in_dim %220, dims = [1] : (tensor<512xbf16>) -> tensor<1x512x160x90xbf16> loc(#loc335)
    %222 = stablehlo.add %217, %221 : tensor<1x512x160x90xbf16> loc(#loc336)
    %223 = stablehlo.convert %222 : (tensor<1x512x160x90xbf16>) -> tensor<1x512x160x90xf32> loc(#loc337)
    %224 = stablehlo.reshape %223 : (tensor<1x512x160x90xf32>) -> tensor<1x32x16x14400xf32> loc(#loc338)
    %225 = stablehlo.reduce(%224 init: %cst_19) applies stablehlo.add across dimensions = [2, 3] : (tensor<1x32x16x14400xf32>, tensor<f32>) -> tensor<1x32xf32> loc(#loc339)
    %226 = stablehlo.multiply %225, %cst_13 : tensor<1x32xf32> loc(#loc340)
    %227 = stablehlo.broadcast_in_dim %226, dims = [0, 1] : (tensor<1x32xf32>) -> tensor<1x32x16x14400xf32> loc(#loc341)
    %228 = stablehlo.subtract %224, %227 : tensor<1x32x16x14400xf32> loc(#loc342)
    %229 = stablehlo.multiply %228, %228 : tensor<1x32x16x14400xf32> loc(#loc343)
    %230 = stablehlo.reduce(%229 init: %cst_19) applies stablehlo.add across dimensions = [2, 3] : (tensor<1x32x16x14400xf32>, tensor<f32>) -> tensor<1x32xf32> loc(#loc344)
    %231 = stablehlo.multiply %230, %cst_13 : tensor<1x32xf32> loc(#loc345)
    %232 = stablehlo.reshape %231 : (tensor<1x32xf32>) -> tensor<1x32x1x1xf32> loc(#loc346)
    %233 = stablehlo.add %232, %cst_12 : tensor<1x32x1x1xf32> loc(#loc347)
    %234 = stablehlo.rsqrt %233 : tensor<1x32x1x1xf32> loc(#loc348)
    %235 = stablehlo.reshape %234 : (tensor<1x32x1x1xf32>) -> tensor<1x32xf32> loc(#loc349)
    %236 = stablehlo.broadcast_in_dim %235, dims = [0, 1] : (tensor<1x32xf32>) -> tensor<1x32x16x14400xf32> loc(#loc350)
    %237 = stablehlo.multiply %228, %236 : tensor<1x32x16x14400xf32> loc(#loc351)
    %238 = stablehlo.reshape %237 : (tensor<1x32x16x14400xf32>) -> tensor<1x512x160x90xf32> loc(#loc352)
    %239 = stablehlo.reshape %arg85 : (tensor<512xbf16>) -> tensor<1x1x512xbf16> loc(#loc353)
    %240 = stablehlo.custom_call @tt.mark_argument(%239) {api_version = 0 : i32, mhlo.frontend_attributes = {ttcore.argument_type = "parameter", ttir.name = "prefix.decoder.mid_block.resnets.1.norm2.weight"}} : (tensor<1x1x512xbf16>) -> tensor<1x1x512xbf16> loc(#loc354)
    %241 = stablehlo.reshape %240 : (tensor<1x1x512xbf16>) -> tensor<1x512x1x1xbf16> loc(#loc355)
    %242 = stablehlo.convert %241 : (tensor<1x512x1x1xbf16>) -> tensor<1x512x1x1xf32> loc(#loc356)
    %243 = stablehlo.reshape %242 : (tensor<1x512x1x1xf32>) -> tensor<1x512xf32> loc(#loc357)
    %244 = stablehlo.broadcast_in_dim %243, dims = [0, 1] : (tensor<1x512xf32>) -> tensor<1x512x160x90xf32> loc(#loc358)
    %245 = stablehlo.multiply %238, %244 : tensor<1x512x160x90xf32> loc(#loc359)
    %246 = stablehlo.reshape %arg84 : (tensor<512xbf16>) -> tensor<1x1x512xbf16> loc(#loc360)
    %247 = stablehlo.custom_call @tt.mark_argument(%246) {api_version = 0 : i32, mhlo.frontend_attributes = {ttcore.argument_type = "parameter", ttir.name = "prefix.decoder.mid_block.resnets.1.norm2.bias"}} : (tensor<1x1x512xbf16>) -> tensor<1x1x512xbf16> loc(#loc361)
    %248 = stablehlo.reshape %247 : (tensor<1x1x512xbf16>) -> tensor<1x512x1x1xbf16> loc(#loc362)
    %249 = stablehlo.convert %248 : (tensor<1x512x1x1xbf16>) -> tensor<1x512x1x1xf32> loc(#loc363)
    %250 = stablehlo.reshape %249 : (tensor<1x512x1x1xf32>) -> tensor<1x512xf32> loc(#loc364)
    %251 = stablehlo.broadcast_in_dim %250, dims = [0, 1] : (tensor<1x512xf32>) -> tensor<1x512x160x90xf32> loc(#loc365)
    %252 = stablehlo.add %245, %251 : tensor<1x512x160x90xf32> loc(#loc366)
    %253 = stablehlo.convert %252 : (tensor<1x512x160x90xf32>) -> tensor<1x512x160x90xbf16> loc(#loc367)
    %254 = stablehlo.convert %253 : (tensor<1x512x160x90xbf16>) -> tensor<1x512x160x90xf32> loc(#loc368)
    %255 = stablehlo.logistic %254 : tensor<1x512x160x90xf32> loc(#loc369)
    %256 = stablehlo.multiply %254, %255 : tensor<1x512x160x90xf32> loc(#loc370)
    %257 = stablehlo.convert %256 : (tensor<1x512x160x90xf32>) -> tensor<1x512x160x90xbf16> loc(#loc371)
    %258 = stablehlo.custom_call @tt.mark_argument(%arg83) {api_version = 0 : i32, mhlo.frontend_attributes = {ttcore.argument_type = "parameter", ttir.name = "prefix.decoder.mid_block.resnets.1.conv2.weight"}} : (tensor<512x512x3x3xbf16>) -> tensor<512x512x3x3xbf16> loc(#loc372)
    %259 = stablehlo.convolution(%257, %258) dim_numbers = [b, f, 0, 1]x[o, i, 0, 1]->[b, f, 0, 1], window = {pad = [[1, 1], [1, 1]]} {batch_group_count = 1 : i64, feature_group_count = 1 : i64} : (tensor<1x512x160x90xbf16>, tensor<512x512x3x3xbf16>) -> tensor<1x512x160x90xbf16> loc(#loc373)
    %260 = stablehlo.reshape %arg82 : (tensor<512xbf16>) -> tensor<1x1x512xbf16> loc(#loc374)
    %261 = stablehlo.custom_call @tt.mark_argument(%260) {api_version = 0 : i32, mhlo.frontend_attributes = {ttcore.argument_type = "parameter", ttir.name = "prefix.decoder.mid_block.resnets.1.conv2.bias"}} : (tensor<1x1x512xbf16>) -> tensor<1x1x512xbf16> loc(#loc375)
    %262 = stablehlo.reshape %261 : (tensor<1x1x512xbf16>) -> tensor<512xbf16> loc(#loc376)
    %263 = stablehlo.broadcast_in_dim %262, dims = [1] : (tensor<512xbf16>) -> tensor<1x512x160x90xbf16> loc(#loc377)
    %264 = stablehlo.add %259, %263 : tensor<1x512x160x90xbf16> loc(#loc378)
    %265 = stablehlo.add %180, %264 : tensor<1x512x160x90xbf16> loc(#loc379)
    %266 = stablehlo.divide %265, %cst_11 : tensor<1x512x160x90xbf16> loc(#loc380)
    %267 = stablehlo.convert %266 : (tensor<1x512x160x90xbf16>) -> tensor<1x512x160x90xf32> loc(#loc381)
    %268 = stablehlo.reshape %267 : (tensor<1x512x160x90xf32>) -> tensor<1x32x16x14400xf32> loc(#loc382)
    %269 = stablehlo.reduce(%268 init: %cst_19) applies stablehlo.add across dimensions = [2, 3] : (tensor<1x32x16x14400xf32>, tensor<f32>) -> tensor<1x32xf32> loc(#loc383)
    %270 = stablehlo.multiply %269, %cst_13 : tensor<1x32xf32> loc(#loc384)
    %271 = stablehlo.broadcast_in_dim %270, dims = [0, 1] : (tensor<1x32xf32>) -> tensor<1x32x16x14400xf32> loc(#loc385)
    %272 = stablehlo.subtract %268, %271 : tensor<1x32x16x14400xf32> loc(#loc386)
    %273 = stablehlo.multiply %272, %272 : tensor<1x32x16x14400xf32> loc(#loc387)
    %274 = stablehlo.reduce(%273 init: %cst_19) applies stablehlo.add across dimensions = [2, 3] : (tensor<1x32x16x14400xf32>, tensor<f32>) -> tensor<1x32xf32> loc(#loc388)
    %275 = stablehlo.multiply %274, %cst_13 : tensor<1x32xf32> loc(#loc389)
    %276 = stablehlo.reshape %275 : (tensor<1x32xf32>) -> tensor<1x32x1x1xf32> loc(#loc390)
    %277 = stablehlo.add %276, %cst_12 : tensor<1x32x1x1xf32> loc(#loc391)
    %278 = stablehlo.rsqrt %277 : tensor<1x32x1x1xf32> loc(#loc392)
    %279 = stablehlo.reshape %278 : (tensor<1x32x1x1xf32>) -> tensor<1x32xf32> loc(#loc393)
    %280 = stablehlo.broadcast_in_dim %279, dims = [0, 1] : (tensor<1x32xf32>) -> tensor<1x32x16x14400xf32> loc(#loc394)
    %281 = stablehlo.multiply %272, %280 : tensor<1x32x16x14400xf32> loc(#loc395)
    %282 = stablehlo.reshape %281 : (tensor<1x32x16x14400xf32>) -> tensor<1x512x160x90xf32> loc(#loc396)
    %283 = stablehlo.reshape %arg81 : (tensor<512xbf16>) -> tensor<1x1x512xbf16> loc(#loc397)
    %284 = stablehlo.custom_call @tt.mark_argument(%283) {api_version = 0 : i32, mhlo.frontend_attributes = {ttcore.argument_type = "parameter", ttir.name = "prefix.decoder.up_blocks.0.resnets.0.norm1.weight"}} : (tensor<1x1x512xbf16>) -> tensor<1x1x512xbf16> loc(#loc398)
    %285 = stablehlo.reshape %284 : (tensor<1x1x512xbf16>) -> tensor<1x512x1x1xbf16> loc(#loc399)
    %286 = stablehlo.convert %285 : (tensor<1x512x1x1xbf16>) -> tensor<1x512x1x1xf32> loc(#loc400)
    %287 = stablehlo.reshape %286 : (tensor<1x512x1x1xf32>) -> tensor<1x512xf32> loc(#loc401)
    %288 = stablehlo.broadcast_in_dim %287, dims = [0, 1] : (tensor<1x512xf32>) -> tensor<1x512x160x90xf32> loc(#loc402)
    %289 = stablehlo.multiply %282, %288 : tensor<1x512x160x90xf32> loc(#loc403)
    %290 = stablehlo.reshape %arg80 : (tensor<512xbf16>) -> tensor<1x1x512xbf16> loc(#loc404)
    %291 = stablehlo.custom_call @tt.mark_argument(%290) {api_version = 0 : i32, mhlo.frontend_attributes = {ttcore.argument_type = "parameter", ttir.name = "prefix.decoder.up_blocks.0.resnets.0.norm1.bias"}} : (tensor<1x1x512xbf16>) -> tensor<1x1x512xbf16> loc(#loc405)
    %292 = stablehlo.reshape %291 : (tensor<1x1x512xbf16>) -> tensor<1x512x1x1xbf16> loc(#loc406)
    %293 = stablehlo.convert %292 : (tensor<1x512x1x1xbf16>) -> tensor<1x512x1x1xf32> loc(#loc407)
    %294 = stablehlo.reshape %293 : (tensor<1x512x1x1xf32>) -> tensor<1x512xf32> loc(#loc408)
    %295 = stablehlo.broadcast_in_dim %294, dims = [0, 1] : (tensor<1x512xf32>) -> tensor<1x512x160x90xf32> loc(#loc409)
    %296 = stablehlo.add %289, %295 : tensor<1x512x160x90xf32> loc(#loc410)
    %297 = stablehlo.convert %296 : (tensor<1x512x160x90xf32>) -> tensor<1x512x160x90xbf16> loc(#loc411)
    %298 = stablehlo.convert %297 : (tensor<1x512x160x90xbf16>) -> tensor<1x512x160x90xf32> loc(#loc412)
    %299 = stablehlo.logistic %298 : tensor<1x512x160x90xf32> loc(#loc413)
    %300 = stablehlo.multiply %298, %299 : tensor<1x512x160x90xf32> loc(#loc414)
    %301 = stablehlo.convert %300 : (tensor<1x512x160x90xf32>) -> tensor<1x512x160x90xbf16> loc(#loc415)
    %302 = stablehlo.custom_call @tt.mark_argument(%arg79) {api_version = 0 : i32, mhlo.frontend_attributes = {ttcore.argument_type = "parameter", ttir.name = "prefix.decoder.up_blocks.0.resnets.0.conv1.weight"}} : (tensor<512x512x3x3xbf16>) -> tensor<512x512x3x3xbf16> loc(#loc416)
    %303 = stablehlo.convolution(%301, %302) dim_numbers = [b, f, 0, 1]x[o, i, 0, 1]->[b, f, 0, 1], window = {pad = [[1, 1], [1, 1]]} {batch_group_count = 1 : i64, feature_group_count = 1 : i64} : (tensor<1x512x160x90xbf16>, tensor<512x512x3x3xbf16>) -> tensor<1x512x160x90xbf16> loc(#loc417)
    %304 = stablehlo.reshape %arg78 : (tensor<512xbf16>) -> tensor<1x1x512xbf16> loc(#loc418)
    %305 = stablehlo.custom_call @tt.mark_argument(%304) {api_version = 0 : i32, mhlo.frontend_attributes = {ttcore.argument_type = "parameter", ttir.name = "prefix.decoder.up_blocks.0.resnets.0.conv1.bias"}} : (tensor<1x1x512xbf16>) -> tensor<1x1x512xbf16> loc(#loc419)
    %306 = stablehlo.reshape %305 : (tensor<1x1x512xbf16>) -> tensor<512xbf16> loc(#loc420)
    %307 = stablehlo.broadcast_in_dim %306, dims = [1] : (tensor<512xbf16>) -> tensor<1x512x160x90xbf16> loc(#loc421)
    %308 = stablehlo.add %303, %307 : tensor<1x512x160x90xbf16> loc(#loc422)
    %309 = stablehlo.convert %308 : (tensor<1x512x160x90xbf16>) -> tensor<1x512x160x90xf32> loc(#loc423)
    %310 = stablehlo.reshape %309 : (tensor<1x512x160x90xf32>) -> tensor<1x32x16x14400xf32> loc(#loc424)
    %311 = stablehlo.reduce(%310 init: %cst_19) applies stablehlo.add across dimensions = [2, 3] : (tensor<1x32x16x14400xf32>, tensor<f32>) -> tensor<1x32xf32> loc(#loc425)
    %312 = stablehlo.multiply %311, %cst_13 : tensor<1x32xf32> loc(#loc426)
    %313 = stablehlo.broadcast_in_dim %312, dims = [0, 1] : (tensor<1x32xf32>) -> tensor<1x32x16x14400xf32> loc(#loc427)
    %314 = stablehlo.subtract %310, %313 : tensor<1x32x16x14400xf32> loc(#loc428)
    %315 = stablehlo.multiply %314, %314 : tensor<1x32x16x14400xf32> loc(#loc429)
    %316 = stablehlo.reduce(%315 init: %cst_19) applies stablehlo.add across dimensions = [2, 3] : (tensor<1x32x16x14400xf32>, tensor<f32>) -> tensor<1x32xf32> loc(#loc430)
    %317 = stablehlo.multiply %316, %cst_13 : tensor<1x32xf32> loc(#loc431)
    %318 = stablehlo.reshape %317 : (tensor<1x32xf32>) -> tensor<1x32x1x1xf32> loc(#loc432)
    %319 = stablehlo.add %318, %cst_12 : tensor<1x32x1x1xf32> loc(#loc433)
    %320 = stablehlo.rsqrt %319 : tensor<1x32x1x1xf32> loc(#loc434)
    %321 = stablehlo.reshape %320 : (tensor<1x32x1x1xf32>) -> tensor<1x32xf32> loc(#loc435)
    %322 = stablehlo.broadcast_in_dim %321, dims = [0, 1] : (tensor<1x32xf32>) -> tensor<1x32x16x14400xf32> loc(#loc436)
    %323 = stablehlo.multiply %314, %322 : tensor<1x32x16x14400xf32> loc(#loc437)
    %324 = stablehlo.reshape %323 : (tensor<1x32x16x14400xf32>) -> tensor<1x512x160x90xf32> loc(#loc438)
    %325 = stablehlo.reshape %arg77 : (tensor<512xbf16>) -> tensor<1x1x512xbf16> loc(#loc439)
    %326 = stablehlo.custom_call @tt.mark_argument(%325) {api_version = 0 : i32, mhlo.frontend_attributes = {ttcore.argument_type = "parameter", ttir.name = "prefix.decoder.up_blocks.0.resnets.0.norm2.weight"}} : (tensor<1x1x512xbf16>) -> tensor<1x1x512xbf16> loc(#loc440)
    %327 = stablehlo.reshape %326 : (tensor<1x1x512xbf16>) -> tensor<1x512x1x1xbf16> loc(#loc441)
    %328 = stablehlo.convert %327 : (tensor<1x512x1x1xbf16>) -> tensor<1x512x1x1xf32> loc(#loc442)
    %329 = stablehlo.reshape %328 : (tensor<1x512x1x1xf32>) -> tensor<1x512xf32> loc(#loc443)
    %330 = stablehlo.broadcast_in_dim %329, dims = [0, 1] : (tensor<1x512xf32>) -> tensor<1x512x160x90xf32> loc(#loc444)
    %331 = stablehlo.multiply %324, %330 : tensor<1x512x160x90xf32> loc(#loc445)
    %332 = stablehlo.reshape %arg76 : (tensor<512xbf16>) -> tensor<1x1x512xbf16> loc(#loc446)
    %333 = stablehlo.custom_call @tt.mark_argument(%332) {api_version = 0 : i32, mhlo.frontend_attributes = {ttcore.argument_type = "parameter", ttir.name = "prefix.decoder.up_blocks.0.resnets.0.norm2.bias"}} : (tensor<1x1x512xbf16>) -> tensor<1x1x512xbf16> loc(#loc447)
    %334 = stablehlo.reshape %333 : (tensor<1x1x512xbf16>) -> tensor<1x512x1x1xbf16> loc(#loc448)
    %335 = stablehlo.convert %334 : (tensor<1x512x1x1xbf16>) -> tensor<1x512x1x1xf32> loc(#loc449)
    %336 = stablehlo.reshape %335 : (tensor<1x512x1x1xf32>) -> tensor<1x512xf32> loc(#loc450)
    %337 = stablehlo.broadcast_in_dim %336, dims = [0, 1] : (tensor<1x512xf32>) -> tensor<1x512x160x90xf32> loc(#loc451)
    %338 = stablehlo.add %331, %337 : tensor<1x512x160x90xf32> loc(#loc452)
    %339 = stablehlo.convert %338 : (tensor<1x512x160x90xf32>) -> tensor<1x512x160x90xbf16> loc(#loc453)
    %340 = stablehlo.convert %339 : (tensor<1x512x160x90xbf16>) -> tensor<1x512x160x90xf32> loc(#loc454)
    %341 = stablehlo.logistic %340 : tensor<1x512x160x90xf32> loc(#loc455)
    %342 = stablehlo.multiply %340, %341 : tensor<1x512x160x90xf32> loc(#loc456)
    %343 = stablehlo.convert %342 : (tensor<1x512x160x90xf32>) -> tensor<1x512x160x90xbf16> loc(#loc457)
    %344 = stablehlo.custom_call @tt.mark_argument(%arg75) {api_version = 0 : i32, mhlo.frontend_attributes = {ttcore.argument_type = "parameter", ttir.name = "prefix.decoder.up_blocks.0.resnets.0.conv2.weight"}} : (tensor<512x512x3x3xbf16>) -> tensor<512x512x3x3xbf16> loc(#loc458)
    %345 = stablehlo.convolution(%343, %344) dim_numbers = [b, f, 0, 1]x[o, i, 0, 1]->[b, f, 0, 1], window = {pad = [[1, 1], [1, 1]]} {batch_group_count = 1 : i64, feature_group_count = 1 : i64} : (tensor<1x512x160x90xbf16>, tensor<512x512x3x3xbf16>) -> tensor<1x512x160x90xbf16> loc(#loc459)
    %346 = stablehlo.reshape %arg74 : (tensor<512xbf16>) -> tensor<1x1x512xbf16> loc(#loc460)
    %347 = stablehlo.custom_call @tt.mark_argument(%346) {api_version = 0 : i32, mhlo.frontend_attributes = {ttcore.argument_type = "parameter", ttir.name = "prefix.decoder.up_blocks.0.resnets.0.conv2.bias"}} : (tensor<1x1x512xbf16>) -> tensor<1x1x512xbf16> loc(#loc461)
    %348 = stablehlo.reshape %347 : (tensor<1x1x512xbf16>) -> tensor<512xbf16> loc(#loc462)
    %349 = stablehlo.broadcast_in_dim %348, dims = [1] : (tensor<512xbf16>) -> tensor<1x512x160x90xbf16> loc(#loc463)
    %350 = stablehlo.add %345, %349 : tensor<1x512x160x90xbf16> loc(#loc464)
    %351 = stablehlo.add %266, %350 : tensor<1x512x160x90xbf16> loc(#loc465)
    %352 = stablehlo.divide %351, %cst_11 : tensor<1x512x160x90xbf16> loc(#loc466)
    %353 = stablehlo.convert %352 : (tensor<1x512x160x90xbf16>) -> tensor<1x512x160x90xf32> loc(#loc467)
    %354 = stablehlo.reshape %353 : (tensor<1x512x160x90xf32>) -> tensor<1x32x16x14400xf32> loc(#loc468)
    %355 = stablehlo.reduce(%354 init: %cst_19) applies stablehlo.add across dimensions = [2, 3] : (tensor<1x32x16x14400xf32>, tensor<f32>) -> tensor<1x32xf32> loc(#loc469)
    %356 = stablehlo.multiply %355, %cst_13 : tensor<1x32xf32> loc(#loc470)
    %357 = stablehlo.broadcast_in_dim %356, dims = [0, 1] : (tensor<1x32xf32>) -> tensor<1x32x16x14400xf32> loc(#loc471)
    %358 = stablehlo.subtract %354, %357 : tensor<1x32x16x14400xf32> loc(#loc472)
    %359 = stablehlo.multiply %358, %358 : tensor<1x32x16x14400xf32> loc(#loc473)
    %360 = stablehlo.reduce(%359 init: %cst_19) applies stablehlo.add across dimensions = [2, 3] : (tensor<1x32x16x14400xf32>, tensor<f32>) -> tensor<1x32xf32> loc(#loc474)
    %361 = stablehlo.multiply %360, %cst_13 : tensor<1x32xf32> loc(#loc475)
    %362 = stablehlo.reshape %361 : (tensor<1x32xf32>) -> tensor<1x32x1x1xf32> loc(#loc476)
    %363 = stablehlo.add %362, %cst_12 : tensor<1x32x1x1xf32> loc(#loc477)
    %364 = stablehlo.rsqrt %363 : tensor<1x32x1x1xf32> loc(#loc478)
    %365 = stablehlo.reshape %364 : (tensor<1x32x1x1xf32>) -> tensor<1x32xf32> loc(#loc479)
    %366 = stablehlo.broadcast_in_dim %365, dims = [0, 1] : (tensor<1x32xf32>) -> tensor<1x32x16x14400xf32> loc(#loc480)
    %367 = stablehlo.multiply %358, %366 : tensor<1x32x16x14400xf32> loc(#loc481)
    %368 = stablehlo.reshape %367 : (tensor<1x32x16x14400xf32>) -> tensor<1x512x160x90xf32> loc(#loc482)
    %369 = stablehlo.reshape %arg73 : (tensor<512xbf16>) -> tensor<1x1x512xbf16> loc(#loc483)
    %370 = stablehlo.custom_call @tt.mark_argument(%369) {api_version = 0 : i32, mhlo.frontend_attributes = {ttcore.argument_type = "parameter", ttir.name = "prefix.decoder.up_blocks.0.resnets.1.norm1.weight"}} : (tensor<1x1x512xbf16>) -> tensor<1x1x512xbf16> loc(#loc484)
    %371 = stablehlo.reshape %370 : (tensor<1x1x512xbf16>) -> tensor<1x512x1x1xbf16> loc(#loc485)
    %372 = stablehlo.convert %371 : (tensor<1x512x1x1xbf16>) -> tensor<1x512x1x1xf32> loc(#loc486)
    %373 = stablehlo.reshape %372 : (tensor<1x512x1x1xf32>) -> tensor<1x512xf32> loc(#loc487)
    %374 = stablehlo.broadcast_in_dim %373, dims = [0, 1] : (tensor<1x512xf32>) -> tensor<1x512x160x90xf32> loc(#loc488)
    %375 = stablehlo.multiply %368, %374 : tensor<1x512x160x90xf32> loc(#loc489)
    %376 = stablehlo.reshape %arg72 : (tensor<512xbf16>) -> tensor<1x1x512xbf16> loc(#loc490)
    %377 = stablehlo.custom_call @tt.mark_argument(%376) {api_version = 0 : i32, mhlo.frontend_attributes = {ttcore.argument_type = "parameter", ttir.name = "prefix.decoder.up_blocks.0.resnets.1.norm1.bias"}} : (tensor<1x1x512xbf16>) -> tensor<1x1x512xbf16> loc(#loc491)
    %378 = stablehlo.reshape %377 : (tensor<1x1x512xbf16>) -> tensor<1x512x1x1xbf16> loc(#loc492)
    %379 = stablehlo.convert %378 : (tensor<1x512x1x1xbf16>) -> tensor<1x512x1x1xf32> loc(#loc493)
    %380 = stablehlo.reshape %379 : (tensor<1x512x1x1xf32>) -> tensor<1x512xf32> loc(#loc494)
    %381 = stablehlo.broadcast_in_dim %380, dims = [0, 1] : (tensor<1x512xf32>) -> tensor<1x512x160x90xf32> loc(#loc495)
    %382 = stablehlo.add %375, %381 : tensor<1x512x160x90xf32> loc(#loc496)
    %383 = stablehlo.convert %382 : (tensor<1x512x160x90xf32>) -> tensor<1x512x160x90xbf16> loc(#loc497)
    %384 = stablehlo.convert %383 : (tensor<1x512x160x90xbf16>) -> tensor<1x512x160x90xf32> loc(#loc498)
    %385 = stablehlo.logistic %384 : tensor<1x512x160x90xf32> loc(#loc499)
    %386 = stablehlo.multiply %384, %385 : tensor<1x512x160x90xf32> loc(#loc500)
    %387 = stablehlo.convert %386 : (tensor<1x512x160x90xf32>) -> tensor<1x512x160x90xbf16> loc(#loc501)
    %388 = stablehlo.custom_call @tt.mark_argument(%arg71) {api_version = 0 : i32, mhlo.frontend_attributes = {ttcore.argument_type = "parameter", ttir.name = "prefix.decoder.up_blocks.0.resnets.1.conv1.weight"}} : (tensor<512x512x3x3xbf16>) -> tensor<512x512x3x3xbf16> loc(#loc502)
    %389 = stablehlo.convolution(%387, %388) dim_numbers = [b, f, 0, 1]x[o, i, 0, 1]->[b, f, 0, 1], window = {pad = [[1, 1], [1, 1]]} {batch_group_count = 1 : i64, feature_group_count = 1 : i64} : (tensor<1x512x160x90xbf16>, tensor<512x512x3x3xbf16>) -> tensor<1x512x160x90xbf16> loc(#loc503)
    %390 = stablehlo.reshape %arg70 : (tensor<512xbf16>) -> tensor<1x1x512xbf16> loc(#loc504)
    %391 = stablehlo.custom_call @tt.mark_argument(%390) {api_version = 0 : i32, mhlo.frontend_attributes = {ttcore.argument_type = "parameter", ttir.name = "prefix.decoder.up_blocks.0.resnets.1.conv1.bias"}} : (tensor<1x1x512xbf16>) -> tensor<1x1x512xbf16> loc(#loc505)
    %392 = stablehlo.reshape %391 : (tensor<1x1x512xbf16>) -> tensor<512xbf16> loc(#loc506)
    %393 = stablehlo.broadcast_in_dim %392, dims = [1] : (tensor<512xbf16>) -> tensor<1x512x160x90xbf16> loc(#loc507)
    %394 = stablehlo.add %389, %393 : tensor<1x512x160x90xbf16> loc(#loc508)
    %395 = stablehlo.convert %394 : (tensor<1x512x160x90xbf16>) -> tensor<1x512x160x90xf32> loc(#loc509)
    %396 = stablehlo.reshape %395 : (tensor<1x512x160x90xf32>) -> tensor<1x32x16x14400xf32> loc(#loc510)
    %397 = stablehlo.reduce(%396 init: %cst_19) applies stablehlo.add across dimensions = [2, 3] : (tensor<1x32x16x14400xf32>, tensor<f32>) -> tensor<1x32xf32> loc(#loc511)
    %398 = stablehlo.multiply %397, %cst_13 : tensor<1x32xf32> loc(#loc512)
    %399 = stablehlo.broadcast_in_dim %398, dims = [0, 1] : (tensor<1x32xf32>) -> tensor<1x32x16x14400xf32> loc(#loc513)
    %400 = stablehlo.subtract %396, %399 : tensor<1x32x16x14400xf32> loc(#loc514)
    %401 = stablehlo.multiply %400, %400 : tensor<1x32x16x14400xf32> loc(#loc515)
    %402 = stablehlo.reduce(%401 init: %cst_19) applies stablehlo.add across dimensions = [2, 3] : (tensor<1x32x16x14400xf32>, tensor<f32>) -> tensor<1x32xf32> loc(#loc516)
    %403 = stablehlo.multiply %402, %cst_13 : tensor<1x32xf32> loc(#loc517)
    %404 = stablehlo.reshape %403 : (tensor<1x32xf32>) -> tensor<1x32x1x1xf32> loc(#loc518)
    %405 = stablehlo.add %404, %cst_12 : tensor<1x32x1x1xf32> loc(#loc519)
    %406 = stablehlo.rsqrt %405 : tensor<1x32x1x1xf32> loc(#loc520)
    %407 = stablehlo.reshape %406 : (tensor<1x32x1x1xf32>) -> tensor<1x32xf32> loc(#loc521)
    %408 = stablehlo.broadcast_in_dim %407, dims = [0, 1] : (tensor<1x32xf32>) -> tensor<1x32x16x14400xf32> loc(#loc522)
    %409 = stablehlo.multiply %400, %408 : tensor<1x32x16x14400xf32> loc(#loc523)
    %410 = stablehlo.reshape %409 : (tensor<1x32x16x14400xf32>) -> tensor<1x512x160x90xf32> loc(#loc524)
    %411 = stablehlo.reshape %arg69 : (tensor<512xbf16>) -> tensor<1x1x512xbf16> loc(#loc525)
    %412 = stablehlo.custom_call @tt.mark_argument(%411) {api_version = 0 : i32, mhlo.frontend_attributes = {ttcore.argument_type = "parameter", ttir.name = "prefix.decoder.up_blocks.0.resnets.1.norm2.weight"}} : (tensor<1x1x512xbf16>) -> tensor<1x1x512xbf16> loc(#loc526)
    %413 = stablehlo.reshape %412 : (tensor<1x1x512xbf16>) -> tensor<1x512x1x1xbf16> loc(#loc527)
    %414 = stablehlo.convert %413 : (tensor<1x512x1x1xbf16>) -> tensor<1x512x1x1xf32> loc(#loc528)
    %415 = stablehlo.reshape %414 : (tensor<1x512x1x1xf32>) -> tensor<1x512xf32> loc(#loc529)
    %416 = stablehlo.broadcast_in_dim %415, dims = [0, 1] : (tensor<1x512xf32>) -> tensor<1x512x160x90xf32> loc(#loc530)
    %417 = stablehlo.multiply %410, %416 : tensor<1x512x160x90xf32> loc(#loc531)
    %418 = stablehlo.reshape %arg68 : (tensor<512xbf16>) -> tensor<1x1x512xbf16> loc(#loc532)
    %419 = stablehlo.custom_call @tt.mark_argument(%418) {api_version = 0 : i32, mhlo.frontend_attributes = {ttcore.argument_type = "parameter", ttir.name = "prefix.decoder.up_blocks.0.resnets.1.norm2.bias"}} : (tensor<1x1x512xbf16>) -> tensor<1x1x512xbf16> loc(#loc533)
    %420 = stablehlo.reshape %419 : (tensor<1x1x512xbf16>) -> tensor<1x512x1x1xbf16> loc(#loc534)
    %421 = stablehlo.convert %420 : (tensor<1x512x1x1xbf16>) -> tensor<1x512x1x1xf32> loc(#loc535)
    %422 = stablehlo.reshape %421 : (tensor<1x512x1x1xf32>) -> tensor<1x512xf32> loc(#loc536)
    %423 = stablehlo.broadcast_in_dim %422, dims = [0, 1] : (tensor<1x512xf32>) -> tensor<1x512x160x90xf32> loc(#loc537)
    %424 = stablehlo.add %417, %423 : tensor<1x512x160x90xf32> loc(#loc538)
    %425 = stablehlo.convert %424 : (tensor<1x512x160x90xf32>) -> tensor<1x512x160x90xbf16> loc(#loc539)
    %426 = stablehlo.convert %425 : (tensor<1x512x160x90xbf16>) -> tensor<1x512x160x90xf32> loc(#loc540)
    %427 = stablehlo.logistic %426 : tensor<1x512x160x90xf32> loc(#loc541)
    %428 = stablehlo.multiply %426, %427 : tensor<1x512x160x90xf32> loc(#loc542)
    %429 = stablehlo.convert %428 : (tensor<1x512x160x90xf32>) -> tensor<1x512x160x90xbf16> loc(#loc543)
    %430 = stablehlo.custom_call @tt.mark_argument(%arg67) {api_version = 0 : i32, mhlo.frontend_attributes = {ttcore.argument_type = "parameter", ttir.name = "prefix.decoder.up_blocks.0.resnets.1.conv2.weight"}} : (tensor<512x512x3x3xbf16>) -> tensor<512x512x3x3xbf16> loc(#loc544)
    %431 = stablehlo.convolution(%429, %430) dim_numbers = [b, f, 0, 1]x[o, i, 0, 1]->[b, f, 0, 1], window = {pad = [[1, 1], [1, 1]]} {batch_group_count = 1 : i64, feature_group_count = 1 : i64} : (tensor<1x512x160x90xbf16>, tensor<512x512x3x3xbf16>) -> tensor<1x512x160x90xbf16> loc(#loc545)
    %432 = stablehlo.reshape %arg66 : (tensor<512xbf16>) -> tensor<1x1x512xbf16> loc(#loc546)
    %433 = stablehlo.custom_call @tt.mark_argument(%432) {api_version = 0 : i32, mhlo.frontend_attributes = {ttcore.argument_type = "parameter", ttir.name = "prefix.decoder.up_blocks.0.resnets.1.conv2.bias"}} : (tensor<1x1x512xbf16>) -> tensor<1x1x512xbf16> loc(#loc547)
    %434 = stablehlo.reshape %433 : (tensor<1x1x512xbf16>) -> tensor<512xbf16> loc(#loc548)
    %435 = stablehlo.broadcast_in_dim %434, dims = [1] : (tensor<512xbf16>) -> tensor<1x512x160x90xbf16> loc(#loc549)
    %436 = stablehlo.add %431, %435 : tensor<1x512x160x90xbf16> loc(#loc550)
    %437 = stablehlo.add %352, %436 : tensor<1x512x160x90xbf16> loc(#loc551)
    %438 = stablehlo.divide %437, %cst_11 : tensor<1x512x160x90xbf16> loc(#loc552)
    %439 = stablehlo.convert %438 : (tensor<1x512x160x90xbf16>) -> tensor<1x512x160x90xf32> loc(#loc553)
    %440 = stablehlo.reshape %439 : (tensor<1x512x160x90xf32>) -> tensor<1x32x16x14400xf32> loc(#loc554)
    %441 = stablehlo.reduce(%440 init: %cst_19) applies stablehlo.add across dimensions = [2, 3] : (tensor<1x32x16x14400xf32>, tensor<f32>) -> tensor<1x32xf32> loc(#loc555)
    %442 = stablehlo.multiply %441, %cst_13 : tensor<1x32xf32> loc(#loc556)
    %443 = stablehlo.broadcast_in_dim %442, dims = [0, 1] : (tensor<1x32xf32>) -> tensor<1x32x16x14400xf32> loc(#loc557)
    %444 = stablehlo.subtract %440, %443 : tensor<1x32x16x14400xf32> loc(#loc558)
    %445 = stablehlo.multiply %444, %444 : tensor<1x32x16x14400xf32> loc(#loc559)
    %446 = stablehlo.reduce(%445 init: %cst_19) applies stablehlo.add across dimensions = [2, 3] : (tensor<1x32x16x14400xf32>, tensor<f32>) -> tensor<1x32xf32> loc(#loc560)
    %447 = stablehlo.multiply %446, %cst_13 : tensor<1x32xf32> loc(#loc561)
    %448 = stablehlo.reshape %447 : (tensor<1x32xf32>) -> tensor<1x32x1x1xf32> loc(#loc562)
    %449 = stablehlo.add %448, %cst_12 : tensor<1x32x1x1xf32> loc(#loc563)
    %450 = stablehlo.rsqrt %449 : tensor<1x32x1x1xf32> loc(#loc564)
    %451 = stablehlo.reshape %450 : (tensor<1x32x1x1xf32>) -> tensor<1x32xf32> loc(#loc565)
    %452 = stablehlo.broadcast_in_dim %451, dims = [0, 1] : (tensor<1x32xf32>) -> tensor<1x32x16x14400xf32> loc(#loc566)
    %453 = stablehlo.multiply %444, %452 : tensor<1x32x16x14400xf32> loc(#loc567)
    %454 = stablehlo.reshape %453 : (tensor<1x32x16x14400xf32>) -> tensor<1x512x160x90xf32> loc(#loc568)
    %455 = stablehlo.reshape %arg65 : (tensor<512xbf16>) -> tensor<1x1x512xbf16> loc(#loc569)
    %456 = stablehlo.custom_call @tt.mark_argument(%455) {api_version = 0 : i32, mhlo.frontend_attributes = {ttcore.argument_type = "parameter", ttir.name = "prefix.decoder.up_blocks.0.resnets.2.norm1.weight"}} : (tensor<1x1x512xbf16>) -> tensor<1x1x512xbf16> loc(#loc570)
    %457 = stablehlo.reshape %456 : (tensor<1x1x512xbf16>) -> tensor<1x512x1x1xbf16> loc(#loc571)
    %458 = stablehlo.convert %457 : (tensor<1x512x1x1xbf16>) -> tensor<1x512x1x1xf32> loc(#loc572)
    %459 = stablehlo.reshape %458 : (tensor<1x512x1x1xf32>) -> tensor<1x512xf32> loc(#loc573)
    %460 = stablehlo.broadcast_in_dim %459, dims = [0, 1] : (tensor<1x512xf32>) -> tensor<1x512x160x90xf32> loc(#loc574)
    %461 = stablehlo.multiply %454, %460 : tensor<1x512x160x90xf32> loc(#loc575)
    %462 = stablehlo.reshape %arg64 : (tensor<512xbf16>) -> tensor<1x1x512xbf16> loc(#loc576)
    %463 = stablehlo.custom_call @tt.mark_argument(%462) {api_version = 0 : i32, mhlo.frontend_attributes = {ttcore.argument_type = "parameter", ttir.name = "prefix.decoder.up_blocks.0.resnets.2.norm1.bias"}} : (tensor<1x1x512xbf16>) -> tensor<1x1x512xbf16> loc(#loc577)
    %464 = stablehlo.reshape %463 : (tensor<1x1x512xbf16>) -> tensor<1x512x1x1xbf16> loc(#loc578)
    %465 = stablehlo.convert %464 : (tensor<1x512x1x1xbf16>) -> tensor<1x512x1x1xf32> loc(#loc579)
    %466 = stablehlo.reshape %465 : (tensor<1x512x1x1xf32>) -> tensor<1x512xf32> loc(#loc580)
    %467 = stablehlo.broadcast_in_dim %466, dims = [0, 1] : (tensor<1x512xf32>) -> tensor<1x512x160x90xf32> loc(#loc581)
    %468 = stablehlo.add %461, %467 : tensor<1x512x160x90xf32> loc(#loc582)
    %469 = stablehlo.convert %468 : (tensor<1x512x160x90xf32>) -> tensor<1x512x160x90xbf16> loc(#loc583)
    %470 = stablehlo.convert %469 : (tensor<1x512x160x90xbf16>) -> tensor<1x512x160x90xf32> loc(#loc584)
    %471 = stablehlo.logistic %470 : tensor<1x512x160x90xf32> loc(#loc585)
    %472 = stablehlo.multiply %470, %471 : tensor<1x512x160x90xf32> loc(#loc586)
    %473 = stablehlo.convert %472 : (tensor<1x512x160x90xf32>) -> tensor<1x512x160x90xbf16> loc(#loc587)
    %474 = stablehlo.custom_call @tt.mark_argument(%arg63) {api_version = 0 : i32, mhlo.frontend_attributes = {ttcore.argument_type = "parameter", ttir.name = "prefix.decoder.up_blocks.0.resnets.2.conv1.weight"}} : (tensor<512x512x3x3xbf16>) -> tensor<512x512x3x3xbf16> loc(#loc588)
    %475 = stablehlo.convolution(%473, %474) dim_numbers = [b, f, 0, 1]x[o, i, 0, 1]->[b, f, 0, 1], window = {pad = [[1, 1], [1, 1]]} {batch_group_count = 1 : i64, feature_group_count = 1 : i64} : (tensor<1x512x160x90xbf16>, tensor<512x512x3x3xbf16>) -> tensor<1x512x160x90xbf16> loc(#loc589)
    %476 = stablehlo.reshape %arg62 : (tensor<512xbf16>) -> tensor<1x1x512xbf16> loc(#loc590)
    %477 = stablehlo.custom_call @tt.mark_argument(%476) {api_version = 0 : i32, mhlo.frontend_attributes = {ttcore.argument_type = "parameter", ttir.name = "prefix.decoder.up_blocks.0.resnets.2.conv1.bias"}} : (tensor<1x1x512xbf16>) -> tensor<1x1x512xbf16> loc(#loc591)
    %478 = stablehlo.reshape %477 : (tensor<1x1x512xbf16>) -> tensor<512xbf16> loc(#loc592)
    %479 = stablehlo.broadcast_in_dim %478, dims = [1] : (tensor<512xbf16>) -> tensor<1x512x160x90xbf16> loc(#loc593)
    %480 = stablehlo.add %475, %479 : tensor<1x512x160x90xbf16> loc(#loc594)
    %481 = stablehlo.convert %480 : (tensor<1x512x160x90xbf16>) -> tensor<1x512x160x90xf32> loc(#loc595)
    %482 = stablehlo.reshape %481 : (tensor<1x512x160x90xf32>) -> tensor<1x32x16x14400xf32> loc(#loc596)
    %483 = stablehlo.reduce(%482 init: %cst_19) applies stablehlo.add across dimensions = [2, 3] : (tensor<1x32x16x14400xf32>, tensor<f32>) -> tensor<1x32xf32> loc(#loc597)
    %484 = stablehlo.multiply %483, %cst_13 : tensor<1x32xf32> loc(#loc598)
    %485 = stablehlo.broadcast_in_dim %484, dims = [0, 1] : (tensor<1x32xf32>) -> tensor<1x32x16x14400xf32> loc(#loc599)
    %486 = stablehlo.subtract %482, %485 : tensor<1x32x16x14400xf32> loc(#loc600)
    %487 = stablehlo.multiply %486, %486 : tensor<1x32x16x14400xf32> loc(#loc601)
    %488 = stablehlo.reduce(%487 init: %cst_19) applies stablehlo.add across dimensions = [2, 3] : (tensor<1x32x16x14400xf32>, tensor<f32>) -> tensor<1x32xf32> loc(#loc602)
    %489 = stablehlo.multiply %488, %cst_13 : tensor<1x32xf32> loc(#loc603)
    %490 = stablehlo.reshape %489 : (tensor<1x32xf32>) -> tensor<1x32x1x1xf32> loc(#loc604)
    %491 = stablehlo.add %490, %cst_12 : tensor<1x32x1x1xf32> loc(#loc605)
    %492 = stablehlo.rsqrt %491 : tensor<1x32x1x1xf32> loc(#loc606)
    %493 = stablehlo.reshape %492 : (tensor<1x32x1x1xf32>) -> tensor<1x32xf32> loc(#loc607)
    %494 = stablehlo.broadcast_in_dim %493, dims = [0, 1] : (tensor<1x32xf32>) -> tensor<1x32x16x14400xf32> loc(#loc608)
    %495 = stablehlo.multiply %486, %494 : tensor<1x32x16x14400xf32> loc(#loc609)
    %496 = stablehlo.reshape %495 : (tensor<1x32x16x14400xf32>) -> tensor<1x512x160x90xf32> loc(#loc610)
    %497 = stablehlo.reshape %arg61 : (tensor<512xbf16>) -> tensor<1x1x512xbf16> loc(#loc611)
    %498 = stablehlo.custom_call @tt.mark_argument(%497) {api_version = 0 : i32, mhlo.frontend_attributes = {ttcore.argument_type = "parameter", ttir.name = "prefix.decoder.up_blocks.0.resnets.2.norm2.weight"}} : (tensor<1x1x512xbf16>) -> tensor<1x1x512xbf16> loc(#loc612)
    %499 = stablehlo.reshape %498 : (tensor<1x1x512xbf16>) -> tensor<1x512x1x1xbf16> loc(#loc613)
    %500 = stablehlo.convert %499 : (tensor<1x512x1x1xbf16>) -> tensor<1x512x1x1xf32> loc(#loc614)
    %501 = stablehlo.reshape %500 : (tensor<1x512x1x1xf32>) -> tensor<1x512xf32> loc(#loc615)
    %502 = stablehlo.broadcast_in_dim %501, dims = [0, 1] : (tensor<1x512xf32>) -> tensor<1x512x160x90xf32> loc(#loc616)
    %503 = stablehlo.multiply %496, %502 : tensor<1x512x160x90xf32> loc(#loc617)
    %504 = stablehlo.reshape %arg60 : (tensor<512xbf16>) -> tensor<1x1x512xbf16> loc(#loc618)
    %505 = stablehlo.custom_call @tt.mark_argument(%504) {api_version = 0 : i32, mhlo.frontend_attributes = {ttcore.argument_type = "parameter", ttir.name = "prefix.decoder.up_blocks.0.resnets.2.norm2.bias"}} : (tensor<1x1x512xbf16>) -> tensor<1x1x512xbf16> loc(#loc619)
    %506 = stablehlo.reshape %505 : (tensor<1x1x512xbf16>) -> tensor<1x512x1x1xbf16> loc(#loc620)
    %507 = stablehlo.convert %506 : (tensor<1x512x1x1xbf16>) -> tensor<1x512x1x1xf32> loc(#loc621)
    %508 = stablehlo.reshape %507 : (tensor<1x512x1x1xf32>) -> tensor<1x512xf32> loc(#loc622)
    %509 = stablehlo.broadcast_in_dim %508, dims = [0, 1] : (tensor<1x512xf32>) -> tensor<1x512x160x90xf32> loc(#loc623)
    %510 = stablehlo.add %503, %509 : tensor<1x512x160x90xf32> loc(#loc624)
    %511 = stablehlo.convert %510 : (tensor<1x512x160x90xf32>) -> tensor<1x512x160x90xbf16> loc(#loc625)
    %512 = stablehlo.convert %511 : (tensor<1x512x160x90xbf16>) -> tensor<1x512x160x90xf32> loc(#loc626)
    %513 = stablehlo.logistic %512 : tensor<1x512x160x90xf32> loc(#loc627)
    %514 = stablehlo.multiply %512, %513 : tensor<1x512x160x90xf32> loc(#loc628)
    %515 = stablehlo.convert %514 : (tensor<1x512x160x90xf32>) -> tensor<1x512x160x90xbf16> loc(#loc629)
    %516 = stablehlo.custom_call @tt.mark_argument(%arg59) {api_version = 0 : i32, mhlo.frontend_attributes = {ttcore.argument_type = "parameter", ttir.name = "prefix.decoder.up_blocks.0.resnets.2.conv2.weight"}} : (tensor<512x512x3x3xbf16>) -> tensor<512x512x3x3xbf16> loc(#loc630)
    %517 = stablehlo.convolution(%515, %516) dim_numbers = [b, f, 0, 1]x[o, i, 0, 1]->[b, f, 0, 1], window = {pad = [[1, 1], [1, 1]]} {batch_group_count = 1 : i64, feature_group_count = 1 : i64} : (tensor<1x512x160x90xbf16>, tensor<512x512x3x3xbf16>) -> tensor<1x512x160x90xbf16> loc(#loc631)
    %518 = stablehlo.reshape %arg58 : (tensor<512xbf16>) -> tensor<1x1x512xbf16> loc(#loc632)
    %519 = stablehlo.custom_call @tt.mark_argument(%518) {api_version = 0 : i32, mhlo.frontend_attributes = {ttcore.argument_type = "parameter", ttir.name = "prefix.decoder.up_blocks.0.resnets.2.conv2.bias"}} : (tensor<1x1x512xbf16>) -> tensor<1x1x512xbf16> loc(#loc633)
    %520 = stablehlo.reshape %519 : (tensor<1x1x512xbf16>) -> tensor<512xbf16> loc(#loc634)
    %521 = stablehlo.broadcast_in_dim %520, dims = [1] : (tensor<512xbf16>) -> tensor<1x512x160x90xbf16> loc(#loc635)
    %522 = stablehlo.add %517, %521 : tensor<1x512x160x90xbf16> loc(#loc636)
    %523 = stablehlo.add %438, %522 : tensor<1x512x160x90xbf16> loc(#loc637)
    %524 = stablehlo.divide %523, %cst_11 : tensor<1x512x160x90xbf16> loc(#loc638)
    %525 = stablehlo.transpose %524, dims = [0, 1, 3, 2] {result_layout = dense<[2, 3, 1, 0]> : tensor<4xindex>, xla_shape = "bf16[1,512,90,160]{2,3,1,0}"} : (tensor<1x512x160x90xbf16>) -> tensor<1x512x90x160xbf16> loc(#loc639)
    %526 = stablehlo.floor %cst_10 : tensor<320xf64> loc(#loc640)
    %527 = stablehlo.convert %526 : (tensor<320xf64>) -> tensor<320xi64> loc(#loc641)
    %528 = stablehlo.broadcast_in_dim %527, dims = [0] : (tensor<320xi64>) -> tensor<320x160xi64> loc(#loc642)
    %529 = stablehlo.broadcast_in_dim %c_18, dims = [1] : (tensor<160xi64>) -> tensor<320x160xi64> loc(#loc643)
    %530 = stablehlo.compare  EQ, %528, %529 : (tensor<320x160xi64>, tensor<320x160xi64>) -> tensor<320x160xi1> loc(#loc644)
    %531 = stablehlo.convert %530 : (tensor<320x160xi1>) -> tensor<320x160xi64> loc(#loc645)
    %532 = stablehlo.transpose %531, dims = [1, 0] {result_layout = dense<[0, 1]> : tensor<2xindex>, xla_shape = "s64[160,320]{0,1}"} : (tensor<320x160xi64>) -> tensor<160x320xi64> loc(#loc646)
    %533 = stablehlo.convert %532 {result_layout = dense<[0, 1]> : tensor<2xindex>, xla_shape = "bf16[160,320]{0,1}"} : (tensor<160x320xi64>) -> tensor<160x320xbf16> loc(#loc647)
    %534 = stablehlo.dot_general %525, %533, contracting_dims = [3] x [0] {mhlo.frontend_attributes = {grad_x = "false", grad_y = "false"}} : (tensor<1x512x90x160xbf16>, tensor<160x320xbf16>) -> tensor<1x512x90x320xbf16> loc(#loc648)
    %535 = stablehlo.transpose %534, dims = [0, 1, 3, 2] {result_layout = dense<[2, 3, 1, 0]> : tensor<4xindex>, xla_shape = "bf16[1,512,320,90]{2,3,1,0}"} : (tensor<1x512x90x320xbf16>) -> tensor<1x512x320x90xbf16> loc(#loc649)
    %536 = stablehlo.floor %cst_9 : tensor<180xf64> loc(#loc650)
    %537 = stablehlo.convert %536 : (tensor<180xf64>) -> tensor<180xi64> loc(#loc651)
    %538 = stablehlo.broadcast_in_dim %537, dims = [0] : (tensor<180xi64>) -> tensor<180x90xi64> loc(#loc652)
    %539 = stablehlo.broadcast_in_dim %c_17, dims = [1] : (tensor<90xi64>) -> tensor<180x90xi64> loc(#loc653)
    %540 = stablehlo.compare  EQ, %538, %539 : (tensor<180x90xi64>, tensor<180x90xi64>) -> tensor<180x90xi1> loc(#loc654)
    %541 = stablehlo.convert %540 : (tensor<180x90xi1>) -> tensor<180x90xi64> loc(#loc655)
    %542 = stablehlo.transpose %541, dims = [1, 0] {result_layout = dense<[0, 1]> : tensor<2xindex>, xla_shape = "s64[90,180]{0,1}"} : (tensor<180x90xi64>) -> tensor<90x180xi64> loc(#loc656)
    %543 = stablehlo.convert %542 {result_layout = dense<[0, 1]> : tensor<2xindex>, xla_shape = "bf16[90,180]{0,1}"} : (tensor<90x180xi64>) -> tensor<90x180xbf16> loc(#loc657)
    %544 = stablehlo.dot_general %535, %543, contracting_dims = [3] x [0] {mhlo.frontend_attributes = {grad_x = "false", grad_y = "false"}} : (tensor<1x512x320x90xbf16>, tensor<90x180xbf16>) -> tensor<1x512x320x180xbf16> loc(#loc658)
    %545 = stablehlo.custom_call @tt.mark_argument(%arg57) {api_version = 0 : i32, mhlo.frontend_attributes = {ttcore.argument_type = "parameter", ttir.name = "prefix.decoder.up_blocks.0.upsamplers.0.conv.weight"}} : (tensor<512x512x3x3xbf16>) -> tensor<512x512x3x3xbf16> loc(#loc659)
    %546 = stablehlo.convolution(%544, %545) dim_numbers = [b, f, 0, 1]x[o, i, 0, 1]->[b, f, 0, 1], window = {pad = [[1, 1], [1, 1]]} {batch_group_count = 1 : i64, feature_group_count = 1 : i64} : (tensor<1x512x320x180xbf16>, tensor<512x512x3x3xbf16>) -> tensor<1x512x320x180xbf16> loc(#loc660)
    %547 = stablehlo.reshape %arg56 : (tensor<512xbf16>) -> tensor<1x1x512xbf16> loc(#loc661)
    %548 = stablehlo.custom_call @tt.mark_argument(%547) {api_version = 0 : i32, mhlo.frontend_attributes = {ttcore.argument_type = "parameter", ttir.name = "prefix.decoder.up_blocks.0.upsamplers.0.conv.bias"}} : (tensor<1x1x512xbf16>) -> tensor<1x1x512xbf16> loc(#loc662)
    %549 = stablehlo.reshape %548 : (tensor<1x1x512xbf16>) -> tensor<512xbf16> loc(#loc663)
    %550 = stablehlo.broadcast_in_dim %549, dims = [1] : (tensor<512xbf16>) -> tensor<1x512x320x180xbf16> loc(#loc664)
    %551 = stablehlo.add %546, %550 : tensor<1x512x320x180xbf16> loc(#loc665)
    %552 = stablehlo.convert %551 : (tensor<1x512x320x180xbf16>) -> tensor<1x512x320x180xf32> loc(#loc666)
    %553 = stablehlo.reshape %552 : (tensor<1x512x320x180xf32>) -> tensor<1x32x16x57600xf32> loc(#loc667)
    %554 = stablehlo.reduce(%553 init: %cst_19) applies stablehlo.add across dimensions = [2, 3] : (tensor<1x32x16x57600xf32>, tensor<f32>) -> tensor<1x32xf32> loc(#loc668)
    %555 = stablehlo.multiply %554, %cst_8 : tensor<1x32xf32> loc(#loc669)
    %556 = stablehlo.broadcast_in_dim %555, dims = [0, 1] : (tensor<1x32xf32>) -> tensor<1x32x16x57600xf32> loc(#loc670)
    %557 = stablehlo.subtract %553, %556 : tensor<1x32x16x57600xf32> loc(#loc671)
    %558 = stablehlo.multiply %557, %557 : tensor<1x32x16x57600xf32> loc(#loc672)
    %559 = stablehlo.reduce(%558 init: %cst_19) applies stablehlo.add across dimensions = [2, 3] : (tensor<1x32x16x57600xf32>, tensor<f32>) -> tensor<1x32xf32> loc(#loc673)
    %560 = stablehlo.multiply %559, %cst_8 : tensor<1x32xf32> loc(#loc674)
    %561 = stablehlo.reshape %560 : (tensor<1x32xf32>) -> tensor<1x32x1x1xf32> loc(#loc675)
    %562 = stablehlo.add %561, %cst_12 : tensor<1x32x1x1xf32> loc(#loc676)
    %563 = stablehlo.rsqrt %562 : tensor<1x32x1x1xf32> loc(#loc677)
    %564 = stablehlo.reshape %563 : (tensor<1x32x1x1xf32>) -> tensor<1x32xf32> loc(#loc678)
    %565 = stablehlo.broadcast_in_dim %564, dims = [0, 1] : (tensor<1x32xf32>) -> tensor<1x32x16x57600xf32> loc(#loc679)
    %566 = stablehlo.multiply %557, %565 : tensor<1x32x16x57600xf32> loc(#loc680)
    %567 = stablehlo.reshape %566 : (tensor<1x32x16x57600xf32>) -> tensor<1x512x320x180xf32> loc(#loc681)
    %568 = stablehlo.reshape %arg55 : (tensor<512xbf16>) -> tensor<1x1x512xbf16> loc(#loc682)
    %569 = stablehlo.custom_call @tt.mark_argument(%568) {api_version = 0 : i32, mhlo.frontend_attributes = {ttcore.argument_type = "parameter", ttir.name = "prefix.decoder.up_blocks.1.resnets.0.norm1.weight"}} : (tensor<1x1x512xbf16>) -> tensor<1x1x512xbf16> loc(#loc683)
    %570 = stablehlo.reshape %569 : (tensor<1x1x512xbf16>) -> tensor<1x512x1x1xbf16> loc(#loc684)
    %571 = stablehlo.convert %570 : (tensor<1x512x1x1xbf16>) -> tensor<1x512x1x1xf32> loc(#loc685)
    %572 = stablehlo.reshape %571 : (tensor<1x512x1x1xf32>) -> tensor<1x512xf32> loc(#loc686)
    %573 = stablehlo.broadcast_in_dim %572, dims = [0, 1] : (tensor<1x512xf32>) -> tensor<1x512x320x180xf32> loc(#loc687)
    %574 = stablehlo.multiply %567, %573 : tensor<1x512x320x180xf32> loc(#loc688)
    %575 = stablehlo.reshape %arg54 : (tensor<512xbf16>) -> tensor<1x1x512xbf16> loc(#loc689)
    %576 = stablehlo.custom_call @tt.mark_argument(%575) {api_version = 0 : i32, mhlo.frontend_attributes = {ttcore.argument_type = "parameter", ttir.name = "prefix.decoder.up_blocks.1.resnets.0.norm1.bias"}} : (tensor<1x1x512xbf16>) -> tensor<1x1x512xbf16> loc(#loc690)
    %577 = stablehlo.reshape %576 : (tensor<1x1x512xbf16>) -> tensor<1x512x1x1xbf16> loc(#loc691)
    %578 = stablehlo.convert %577 : (tensor<1x512x1x1xbf16>) -> tensor<1x512x1x1xf32> loc(#loc692)
    %579 = stablehlo.reshape %578 : (tensor<1x512x1x1xf32>) -> tensor<1x512xf32> loc(#loc693)
    %580 = stablehlo.broadcast_in_dim %579, dims = [0, 1] : (tensor<1x512xf32>) -> tensor<1x512x320x180xf32> loc(#loc694)
    %581 = stablehlo.add %574, %580 : tensor<1x512x320x180xf32> loc(#loc695)
    %582 = stablehlo.convert %581 : (tensor<1x512x320x180xf32>) -> tensor<1x512x320x180xbf16> loc(#loc696)
    %583 = stablehlo.convert %582 : (tensor<1x512x320x180xbf16>) -> tensor<1x512x320x180xf32> loc(#loc697)
    %584 = stablehlo.logistic %583 : tensor<1x512x320x180xf32> loc(#loc698)
    %585 = stablehlo.multiply %583, %584 : tensor<1x512x320x180xf32> loc(#loc699)
    %586 = stablehlo.convert %585 : (tensor<1x512x320x180xf32>) -> tensor<1x512x320x180xbf16> loc(#loc700)
    %587 = stablehlo.custom_call @tt.mark_argument(%arg53) {api_version = 0 : i32, mhlo.frontend_attributes = {ttcore.argument_type = "parameter", ttir.name = "prefix.decoder.up_blocks.1.resnets.0.conv1.weight"}} : (tensor<512x512x3x3xbf16>) -> tensor<512x512x3x3xbf16> loc(#loc701)
    %588 = stablehlo.convolution(%586, %587) dim_numbers = [b, f, 0, 1]x[o, i, 0, 1]->[b, f, 0, 1], window = {pad = [[1, 1], [1, 1]]} {batch_group_count = 1 : i64, feature_group_count = 1 : i64} : (tensor<1x512x320x180xbf16>, tensor<512x512x3x3xbf16>) -> tensor<1x512x320x180xbf16> loc(#loc702)
    %589 = stablehlo.reshape %arg52 : (tensor<512xbf16>) -> tensor<1x1x512xbf16> loc(#loc703)
    %590 = stablehlo.custom_call @tt.mark_argument(%589) {api_version = 0 : i32, mhlo.frontend_attributes = {ttcore.argument_type = "parameter", ttir.name = "prefix.decoder.up_blocks.1.resnets.0.conv1.bias"}} : (tensor<1x1x512xbf16>) -> tensor<1x1x512xbf16> loc(#loc704)
    %591 = stablehlo.reshape %590 : (tensor<1x1x512xbf16>) -> tensor<512xbf16> loc(#loc705)
    %592 = stablehlo.broadcast_in_dim %591, dims = [1] : (tensor<512xbf16>) -> tensor<1x512x320x180xbf16> loc(#loc706)
    %593 = stablehlo.add %588, %592 : tensor<1x512x320x180xbf16> loc(#loc707)
    %594 = stablehlo.convert %593 : (tensor<1x512x320x180xbf16>) -> tensor<1x512x320x180xf32> loc(#loc708)
    %595 = stablehlo.reshape %594 : (tensor<1x512x320x180xf32>) -> tensor<1x32x16x57600xf32> loc(#loc709)
    %596 = stablehlo.reduce(%595 init: %cst_19) applies stablehlo.add across dimensions = [2, 3] : (tensor<1x32x16x57600xf32>, tensor<f32>) -> tensor<1x32xf32> loc(#loc710)
    %597 = stablehlo.multiply %596, %cst_8 : tensor<1x32xf32> loc(#loc711)
    %598 = stablehlo.broadcast_in_dim %597, dims = [0, 1] : (tensor<1x32xf32>) -> tensor<1x32x16x57600xf32> loc(#loc712)
    %599 = stablehlo.subtract %595, %598 : tensor<1x32x16x57600xf32> loc(#loc713)
    %600 = stablehlo.multiply %599, %599 : tensor<1x32x16x57600xf32> loc(#loc714)
    %601 = stablehlo.reduce(%600 init: %cst_19) applies stablehlo.add across dimensions = [2, 3] : (tensor<1x32x16x57600xf32>, tensor<f32>) -> tensor<1x32xf32> loc(#loc715)
    %602 = stablehlo.multiply %601, %cst_8 : tensor<1x32xf32> loc(#loc716)
    %603 = stablehlo.reshape %602 : (tensor<1x32xf32>) -> tensor<1x32x1x1xf32> loc(#loc717)
    %604 = stablehlo.add %603, %cst_12 : tensor<1x32x1x1xf32> loc(#loc718)
    %605 = stablehlo.rsqrt %604 : tensor<1x32x1x1xf32> loc(#loc719)
    %606 = stablehlo.reshape %605 : (tensor<1x32x1x1xf32>) -> tensor<1x32xf32> loc(#loc720)
    %607 = stablehlo.broadcast_in_dim %606, dims = [0, 1] : (tensor<1x32xf32>) -> tensor<1x32x16x57600xf32> loc(#loc721)
    %608 = stablehlo.multiply %599, %607 : tensor<1x32x16x57600xf32> loc(#loc722)
    %609 = stablehlo.reshape %608 : (tensor<1x32x16x57600xf32>) -> tensor<1x512x320x180xf32> loc(#loc723)
    %610 = stablehlo.reshape %arg51 : (tensor<512xbf16>) -> tensor<1x1x512xbf16> loc(#loc724)
    %611 = stablehlo.custom_call @tt.mark_argument(%610) {api_version = 0 : i32, mhlo.frontend_attributes = {ttcore.argument_type = "parameter", ttir.name = "prefix.decoder.up_blocks.1.resnets.0.norm2.weight"}} : (tensor<1x1x512xbf16>) -> tensor<1x1x512xbf16> loc(#loc725)
    %612 = stablehlo.reshape %611 : (tensor<1x1x512xbf16>) -> tensor<1x512x1x1xbf16> loc(#loc726)
    %613 = stablehlo.convert %612 : (tensor<1x512x1x1xbf16>) -> tensor<1x512x1x1xf32> loc(#loc727)
    %614 = stablehlo.reshape %613 : (tensor<1x512x1x1xf32>) -> tensor<1x512xf32> loc(#loc728)
    %615 = stablehlo.broadcast_in_dim %614, dims = [0, 1] : (tensor<1x512xf32>) -> tensor<1x512x320x180xf32> loc(#loc729)
    %616 = stablehlo.multiply %609, %615 : tensor<1x512x320x180xf32> loc(#loc730)
    %617 = stablehlo.reshape %arg50 : (tensor<512xbf16>) -> tensor<1x1x512xbf16> loc(#loc731)
    %618 = stablehlo.custom_call @tt.mark_argument(%617) {api_version = 0 : i32, mhlo.frontend_attributes = {ttcore.argument_type = "parameter", ttir.name = "prefix.decoder.up_blocks.1.resnets.0.norm2.bias"}} : (tensor<1x1x512xbf16>) -> tensor<1x1x512xbf16> loc(#loc732)
    %619 = stablehlo.reshape %618 : (tensor<1x1x512xbf16>) -> tensor<1x512x1x1xbf16> loc(#loc733)
    %620 = stablehlo.convert %619 : (tensor<1x512x1x1xbf16>) -> tensor<1x512x1x1xf32> loc(#loc734)
    %621 = stablehlo.reshape %620 : (tensor<1x512x1x1xf32>) -> tensor<1x512xf32> loc(#loc735)
    %622 = stablehlo.broadcast_in_dim %621, dims = [0, 1] : (tensor<1x512xf32>) -> tensor<1x512x320x180xf32> loc(#loc736)
    %623 = stablehlo.add %616, %622 : tensor<1x512x320x180xf32> loc(#loc737)
    %624 = stablehlo.convert %623 : (tensor<1x512x320x180xf32>) -> tensor<1x512x320x180xbf16> loc(#loc738)
    %625 = stablehlo.convert %624 : (tensor<1x512x320x180xbf16>) -> tensor<1x512x320x180xf32> loc(#loc739)
    %626 = stablehlo.logistic %625 : tensor<1x512x320x180xf32> loc(#loc740)
    %627 = stablehlo.multiply %625, %626 : tensor<1x512x320x180xf32> loc(#loc741)
    %628 = stablehlo.convert %627 : (tensor<1x512x320x180xf32>) -> tensor<1x512x320x180xbf16> loc(#loc742)
    %629 = stablehlo.custom_call @tt.mark_argument(%arg49) {api_version = 0 : i32, mhlo.frontend_attributes = {ttcore.argument_type = "parameter", ttir.name = "prefix.decoder.up_blocks.1.resnets.0.conv2.weight"}} : (tensor<512x512x3x3xbf16>) -> tensor<512x512x3x3xbf16> loc(#loc743)
    %630 = stablehlo.convolution(%628, %629) dim_numbers = [b, f, 0, 1]x[o, i, 0, 1]->[b, f, 0, 1], window = {pad = [[1, 1], [1, 1]]} {batch_group_count = 1 : i64, feature_group_count = 1 : i64} : (tensor<1x512x320x180xbf16>, tensor<512x512x3x3xbf16>) -> tensor<1x512x320x180xbf16> loc(#loc744)
    %631 = stablehlo.reshape %arg48 : (tensor<512xbf16>) -> tensor<1x1x512xbf16> loc(#loc745)
    %632 = stablehlo.custom_call @tt.mark_argument(%631) {api_version = 0 : i32, mhlo.frontend_attributes = {ttcore.argument_type = "parameter", ttir.name = "prefix.decoder.up_blocks.1.resnets.0.conv2.bias"}} : (tensor<1x1x512xbf16>) -> tensor<1x1x512xbf16> loc(#loc746)
    %633 = stablehlo.reshape %632 : (tensor<1x1x512xbf16>) -> tensor<512xbf16> loc(#loc747)
    %634 = stablehlo.broadcast_in_dim %633, dims = [1] : (tensor<512xbf16>) -> tensor<1x512x320x180xbf16> loc(#loc748)
    %635 = stablehlo.add %630, %634 : tensor<1x512x320x180xbf16> loc(#loc749)
    %636 = stablehlo.add %551, %635 : tensor<1x512x320x180xbf16> loc(#loc750)
    %637 = stablehlo.divide %636, %cst_7 : tensor<1x512x320x180xbf16> loc(#loc751)
    %638 = stablehlo.convert %637 : (tensor<1x512x320x180xbf16>) -> tensor<1x512x320x180xf32> loc(#loc752)
    %639 = stablehlo.reshape %638 : (tensor<1x512x320x180xf32>) -> tensor<1x32x16x57600xf32> loc(#loc753)
    %640 = stablehlo.reduce(%639 init: %cst_19) applies stablehlo.add across dimensions = [2, 3] : (tensor<1x32x16x57600xf32>, tensor<f32>) -> tensor<1x32xf32> loc(#loc754)
    %641 = stablehlo.multiply %640, %cst_8 : tensor<1x32xf32> loc(#loc755)
    %642 = stablehlo.broadcast_in_dim %641, dims = [0, 1] : (tensor<1x32xf32>) -> tensor<1x32x16x57600xf32> loc(#loc756)
    %643 = stablehlo.subtract %639, %642 : tensor<1x32x16x57600xf32> loc(#loc757)
    %644 = stablehlo.multiply %643, %643 : tensor<1x32x16x57600xf32> loc(#loc758)
    %645 = stablehlo.reduce(%644 init: %cst_19) applies stablehlo.add across dimensions = [2, 3] : (tensor<1x32x16x57600xf32>, tensor<f32>) -> tensor<1x32xf32> loc(#loc759)
    %646 = stablehlo.multiply %645, %cst_8 : tensor<1x32xf32> loc(#loc760)
    %647 = stablehlo.reshape %646 : (tensor<1x32xf32>) -> tensor<1x32x1x1xf32> loc(#loc761)
    %648 = stablehlo.add %647, %cst_12 : tensor<1x32x1x1xf32> loc(#loc762)
    %649 = stablehlo.rsqrt %648 : tensor<1x32x1x1xf32> loc(#loc763)
    %650 = stablehlo.reshape %649 : (tensor<1x32x1x1xf32>) -> tensor<1x32xf32> loc(#loc764)
    %651 = stablehlo.broadcast_in_dim %650, dims = [0, 1] : (tensor<1x32xf32>) -> tensor<1x32x16x57600xf32> loc(#loc765)
    %652 = stablehlo.multiply %643, %651 : tensor<1x32x16x57600xf32> loc(#loc766)
    %653 = stablehlo.reshape %652 : (tensor<1x32x16x57600xf32>) -> tensor<1x512x320x180xf32> loc(#loc767)
    %654 = stablehlo.reshape %arg47 : (tensor<512xbf16>) -> tensor<1x1x512xbf16> loc(#loc768)
    %655 = stablehlo.custom_call @tt.mark_argument(%654) {api_version = 0 : i32, mhlo.frontend_attributes = {ttcore.argument_type = "parameter", ttir.name = "prefix.decoder.up_blocks.1.resnets.1.norm1.weight"}} : (tensor<1x1x512xbf16>) -> tensor<1x1x512xbf16> loc(#loc769)
    %656 = stablehlo.reshape %655 : (tensor<1x1x512xbf16>) -> tensor<1x512x1x1xbf16> loc(#loc770)
    %657 = stablehlo.convert %656 : (tensor<1x512x1x1xbf16>) -> tensor<1x512x1x1xf32> loc(#loc771)
    %658 = stablehlo.reshape %657 : (tensor<1x512x1x1xf32>) -> tensor<1x512xf32> loc(#loc772)
    %659 = stablehlo.broadcast_in_dim %658, dims = [0, 1] : (tensor<1x512xf32>) -> tensor<1x512x320x180xf32> loc(#loc773)
    %660 = stablehlo.multiply %653, %659 : tensor<1x512x320x180xf32> loc(#loc774)
    %661 = stablehlo.reshape %arg46 : (tensor<512xbf16>) -> tensor<1x1x512xbf16> loc(#loc775)
    %662 = stablehlo.custom_call @tt.mark_argument(%661) {api_version = 0 : i32, mhlo.frontend_attributes = {ttcore.argument_type = "parameter", ttir.name = "prefix.decoder.up_blocks.1.resnets.1.norm1.bias"}} : (tensor<1x1x512xbf16>) -> tensor<1x1x512xbf16> loc(#loc776)
    %663 = stablehlo.reshape %662 : (tensor<1x1x512xbf16>) -> tensor<1x512x1x1xbf16> loc(#loc777)
    %664 = stablehlo.convert %663 : (tensor<1x512x1x1xbf16>) -> tensor<1x512x1x1xf32> loc(#loc778)
    %665 = stablehlo.reshape %664 : (tensor<1x512x1x1xf32>) -> tensor<1x512xf32> loc(#loc779)
    %666 = stablehlo.broadcast_in_dim %665, dims = [0, 1] : (tensor<1x512xf32>) -> tensor<1x512x320x180xf32> loc(#loc780)
    %667 = stablehlo.add %660, %666 : tensor<1x512x320x180xf32> loc(#loc781)
    %668 = stablehlo.convert %667 : (tensor<1x512x320x180xf32>) -> tensor<1x512x320x180xbf16> loc(#loc782)
    %669 = stablehlo.convert %668 : (tensor<1x512x320x180xbf16>) -> tensor<1x512x320x180xf32> loc(#loc783)
    %670 = stablehlo.logistic %669 : tensor<1x512x320x180xf32> loc(#loc784)
    %671 = stablehlo.multiply %669, %670 : tensor<1x512x320x180xf32> loc(#loc785)
    %672 = stablehlo.convert %671 : (tensor<1x512x320x180xf32>) -> tensor<1x512x320x180xbf16> loc(#loc786)
    %673 = stablehlo.custom_call @tt.mark_argument(%arg45) {api_version = 0 : i32, mhlo.frontend_attributes = {ttcore.argument_type = "parameter", ttir.name = "prefix.decoder.up_blocks.1.resnets.1.conv1.weight"}} : (tensor<512x512x3x3xbf16>) -> tensor<512x512x3x3xbf16> loc(#loc787)
    %674 = stablehlo.convolution(%672, %673) dim_numbers = [b, f, 0, 1]x[o, i, 0, 1]->[b, f, 0, 1], window = {pad = [[1, 1], [1, 1]]} {batch_group_count = 1 : i64, feature_group_count = 1 : i64} : (tensor<1x512x320x180xbf16>, tensor<512x512x3x3xbf16>) -> tensor<1x512x320x180xbf16> loc(#loc788)
    %675 = stablehlo.reshape %arg44 : (tensor<512xbf16>) -> tensor<1x1x512xbf16> loc(#loc789)
    %676 = stablehlo.custom_call @tt.mark_argument(%675) {api_version = 0 : i32, mhlo.frontend_attributes = {ttcore.argument_type = "parameter", ttir.name = "prefix.decoder.up_blocks.1.resnets.1.conv1.bias"}} : (tensor<1x1x512xbf16>) -> tensor<1x1x512xbf16> loc(#loc790)
    %677 = stablehlo.reshape %676 : (tensor<1x1x512xbf16>) -> tensor<512xbf16> loc(#loc791)
    %678 = stablehlo.broadcast_in_dim %677, dims = [1] : (tensor<512xbf16>) -> tensor<1x512x320x180xbf16> loc(#loc792)
    %679 = stablehlo.add %674, %678 : tensor<1x512x320x180xbf16> loc(#loc793)
    %680 = stablehlo.convert %679 : (tensor<1x512x320x180xbf16>) -> tensor<1x512x320x180xf32> loc(#loc794)
    %681 = stablehlo.reshape %680 : (tensor<1x512x320x180xf32>) -> tensor<1x32x16x57600xf32> loc(#loc795)
    %682 = stablehlo.reduce(%681 init: %cst_19) applies stablehlo.add across dimensions = [2, 3] : (tensor<1x32x16x57600xf32>, tensor<f32>) -> tensor<1x32xf32> loc(#loc796)
    %683 = stablehlo.multiply %682, %cst_8 : tensor<1x32xf32> loc(#loc797)
    %684 = stablehlo.broadcast_in_dim %683, dims = [0, 1] : (tensor<1x32xf32>) -> tensor<1x32x16x57600xf32> loc(#loc798)
    %685 = stablehlo.subtract %681, %684 : tensor<1x32x16x57600xf32> loc(#loc799)
    %686 = stablehlo.multiply %685, %685 : tensor<1x32x16x57600xf32> loc(#loc800)
    %687 = stablehlo.reduce(%686 init: %cst_19) applies stablehlo.add across dimensions = [2, 3] : (tensor<1x32x16x57600xf32>, tensor<f32>) -> tensor<1x32xf32> loc(#loc801)
    %688 = stablehlo.multiply %687, %cst_8 : tensor<1x32xf32> loc(#loc802)
    %689 = stablehlo.reshape %688 : (tensor<1x32xf32>) -> tensor<1x32x1x1xf32> loc(#loc803)
    %690 = stablehlo.add %689, %cst_12 : tensor<1x32x1x1xf32> loc(#loc804)
    %691 = stablehlo.rsqrt %690 : tensor<1x32x1x1xf32> loc(#loc805)
    %692 = stablehlo.reshape %691 : (tensor<1x32x1x1xf32>) -> tensor<1x32xf32> loc(#loc806)
    %693 = stablehlo.broadcast_in_dim %692, dims = [0, 1] : (tensor<1x32xf32>) -> tensor<1x32x16x57600xf32> loc(#loc807)
    %694 = stablehlo.multiply %685, %693 : tensor<1x32x16x57600xf32> loc(#loc808)
    %695 = stablehlo.reshape %694 : (tensor<1x32x16x57600xf32>) -> tensor<1x512x320x180xf32> loc(#loc809)
    %696 = stablehlo.reshape %arg43 : (tensor<512xbf16>) -> tensor<1x1x512xbf16> loc(#loc810)
    %697 = stablehlo.custom_call @tt.mark_argument(%696) {api_version = 0 : i32, mhlo.frontend_attributes = {ttcore.argument_type = "parameter", ttir.name = "prefix.decoder.up_blocks.1.resnets.1.norm2.weight"}} : (tensor<1x1x512xbf16>) -> tensor<1x1x512xbf16> loc(#loc811)
    %698 = stablehlo.reshape %697 : (tensor<1x1x512xbf16>) -> tensor<1x512x1x1xbf16> loc(#loc812)
    %699 = stablehlo.convert %698 : (tensor<1x512x1x1xbf16>) -> tensor<1x512x1x1xf32> loc(#loc813)
    %700 = stablehlo.reshape %699 : (tensor<1x512x1x1xf32>) -> tensor<1x512xf32> loc(#loc814)
    %701 = stablehlo.broadcast_in_dim %700, dims = [0, 1] : (tensor<1x512xf32>) -> tensor<1x512x320x180xf32> loc(#loc815)
    %702 = stablehlo.multiply %695, %701 : tensor<1x512x320x180xf32> loc(#loc816)
    %703 = stablehlo.reshape %arg42 : (tensor<512xbf16>) -> tensor<1x1x512xbf16> loc(#loc817)
    %704 = stablehlo.custom_call @tt.mark_argument(%703) {api_version = 0 : i32, mhlo.frontend_attributes = {ttcore.argument_type = "parameter", ttir.name = "prefix.decoder.up_blocks.1.resnets.1.norm2.bias"}} : (tensor<1x1x512xbf16>) -> tensor<1x1x512xbf16> loc(#loc818)
    %705 = stablehlo.reshape %704 : (tensor<1x1x512xbf16>) -> tensor<1x512x1x1xbf16> loc(#loc819)
    %706 = stablehlo.convert %705 : (tensor<1x512x1x1xbf16>) -> tensor<1x512x1x1xf32> loc(#loc820)
    %707 = stablehlo.reshape %706 : (tensor<1x512x1x1xf32>) -> tensor<1x512xf32> loc(#loc821)
    %708 = stablehlo.broadcast_in_dim %707, dims = [0, 1] : (tensor<1x512xf32>) -> tensor<1x512x320x180xf32> loc(#loc822)
    %709 = stablehlo.add %702, %708 : tensor<1x512x320x180xf32> loc(#loc823)
    %710 = stablehlo.convert %709 : (tensor<1x512x320x180xf32>) -> tensor<1x512x320x180xbf16> loc(#loc824)
    %711 = stablehlo.convert %710 : (tensor<1x512x320x180xbf16>) -> tensor<1x512x320x180xf32> loc(#loc825)
    %712 = stablehlo.logistic %711 : tensor<1x512x320x180xf32> loc(#loc826)
    %713 = stablehlo.multiply %711, %712 : tensor<1x512x320x180xf32> loc(#loc827)
    %714 = stablehlo.convert %713 : (tensor<1x512x320x180xf32>) -> tensor<1x512x320x180xbf16> loc(#loc828)
    %715 = stablehlo.custom_call @tt.mark_argument(%arg41) {api_version = 0 : i32, mhlo.frontend_attributes = {ttcore.argument_type = "parameter", ttir.name = "prefix.decoder.up_blocks.1.resnets.1.conv2.weight"}} : (tensor<512x512x3x3xbf16>) -> tensor<512x512x3x3xbf16> loc(#loc829)
    %716 = stablehlo.convolution(%714, %715) dim_numbers = [b, f, 0, 1]x[o, i, 0, 1]->[b, f, 0, 1], window = {pad = [[1, 1], [1, 1]]} {batch_group_count = 1 : i64, feature_group_count = 1 : i64} : (tensor<1x512x320x180xbf16>, tensor<512x512x3x3xbf16>) -> tensor<1x512x320x180xbf16> loc(#loc830)
    %717 = stablehlo.reshape %arg40 : (tensor<512xbf16>) -> tensor<1x1x512xbf16> loc(#loc831)
    %718 = stablehlo.custom_call @tt.mark_argument(%717) {api_version = 0 : i32, mhlo.frontend_attributes = {ttcore.argument_type = "parameter", ttir.name = "prefix.decoder.up_blocks.1.resnets.1.conv2.bias"}} : (tensor<1x1x512xbf16>) -> tensor<1x1x512xbf16> loc(#loc832)
    %719 = stablehlo.reshape %718 : (tensor<1x1x512xbf16>) -> tensor<512xbf16> loc(#loc833)
    %720 = stablehlo.broadcast_in_dim %719, dims = [1] : (tensor<512xbf16>) -> tensor<1x512x320x180xbf16> loc(#loc834)
    %721 = stablehlo.add %716, %720 : tensor<1x512x320x180xbf16> loc(#loc835)
    %722 = stablehlo.add %637, %721 : tensor<1x512x320x180xbf16> loc(#loc836)
    %723 = stablehlo.divide %722, %cst_7 : tensor<1x512x320x180xbf16> loc(#loc837)
    %724 = stablehlo.convert %723 : (tensor<1x512x320x180xbf16>) -> tensor<1x512x320x180xf32> loc(#loc838)
    %725 = stablehlo.reshape %724 : (tensor<1x512x320x180xf32>) -> tensor<1x32x16x57600xf32> loc(#loc839)
    %726 = stablehlo.reduce(%725 init: %cst_19) applies stablehlo.add across dimensions = [2, 3] : (tensor<1x32x16x57600xf32>, tensor<f32>) -> tensor<1x32xf32> loc(#loc840)
    %727 = stablehlo.multiply %726, %cst_8 : tensor<1x32xf32> loc(#loc841)
    %728 = stablehlo.broadcast_in_dim %727, dims = [0, 1] : (tensor<1x32xf32>) -> tensor<1x32x16x57600xf32> loc(#loc842)
    %729 = stablehlo.subtract %725, %728 : tensor<1x32x16x57600xf32> loc(#loc843)
    %730 = stablehlo.multiply %729, %729 : tensor<1x32x16x57600xf32> loc(#loc844)
    %731 = stablehlo.reduce(%730 init: %cst_19) applies stablehlo.add across dimensions = [2, 3] : (tensor<1x32x16x57600xf32>, tensor<f32>) -> tensor<1x32xf32> loc(#loc845)
    %732 = stablehlo.multiply %731, %cst_8 : tensor<1x32xf32> loc(#loc846)
    %733 = stablehlo.reshape %732 : (tensor<1x32xf32>) -> tensor<1x32x1x1xf32> loc(#loc847)
    %734 = stablehlo.add %733, %cst_12 : tensor<1x32x1x1xf32> loc(#loc848)
    %735 = stablehlo.rsqrt %734 : tensor<1x32x1x1xf32> loc(#loc849)
    %736 = stablehlo.reshape %735 : (tensor<1x32x1x1xf32>) -> tensor<1x32xf32> loc(#loc850)
    %737 = stablehlo.broadcast_in_dim %736, dims = [0, 1] : (tensor<1x32xf32>) -> tensor<1x32x16x57600xf32> loc(#loc851)
    %738 = stablehlo.multiply %729, %737 : tensor<1x32x16x57600xf32> loc(#loc852)
    %739 = stablehlo.reshape %738 : (tensor<1x32x16x57600xf32>) -> tensor<1x512x320x180xf32> loc(#loc853)
    %740 = stablehlo.reshape %arg39 : (tensor<512xbf16>) -> tensor<1x1x512xbf16> loc(#loc854)
    %741 = stablehlo.custom_call @tt.mark_argument(%740) {api_version = 0 : i32, mhlo.frontend_attributes = {ttcore.argument_type = "parameter", ttir.name = "prefix.decoder.up_blocks.1.resnets.2.norm1.weight"}} : (tensor<1x1x512xbf16>) -> tensor<1x1x512xbf16> loc(#loc855)
    %742 = stablehlo.reshape %741 : (tensor<1x1x512xbf16>) -> tensor<1x512x1x1xbf16> loc(#loc856)
    %743 = stablehlo.convert %742 : (tensor<1x512x1x1xbf16>) -> tensor<1x512x1x1xf32> loc(#loc857)
    %744 = stablehlo.reshape %743 : (tensor<1x512x1x1xf32>) -> tensor<1x512xf32> loc(#loc858)
    %745 = stablehlo.broadcast_in_dim %744, dims = [0, 1] : (tensor<1x512xf32>) -> tensor<1x512x320x180xf32> loc(#loc859)
    %746 = stablehlo.multiply %739, %745 : tensor<1x512x320x180xf32> loc(#loc860)
    %747 = stablehlo.reshape %arg38 : (tensor<512xbf16>) -> tensor<1x1x512xbf16> loc(#loc861)
    %748 = stablehlo.custom_call @tt.mark_argument(%747) {api_version = 0 : i32, mhlo.frontend_attributes = {ttcore.argument_type = "parameter", ttir.name = "prefix.decoder.up_blocks.1.resnets.2.norm1.bias"}} : (tensor<1x1x512xbf16>) -> tensor<1x1x512xbf16> loc(#loc862)
    %749 = stablehlo.reshape %748 : (tensor<1x1x512xbf16>) -> tensor<1x512x1x1xbf16> loc(#loc863)
    %750 = stablehlo.convert %749 : (tensor<1x512x1x1xbf16>) -> tensor<1x512x1x1xf32> loc(#loc864)
    %751 = stablehlo.reshape %750 : (tensor<1x512x1x1xf32>) -> tensor<1x512xf32> loc(#loc865)
    %752 = stablehlo.broadcast_in_dim %751, dims = [0, 1] : (tensor<1x512xf32>) -> tensor<1x512x320x180xf32> loc(#loc866)
    %753 = stablehlo.add %746, %752 : tensor<1x512x320x180xf32> loc(#loc867)
    %754 = stablehlo.convert %753 : (tensor<1x512x320x180xf32>) -> tensor<1x512x320x180xbf16> loc(#loc868)
    %755 = stablehlo.convert %754 : (tensor<1x512x320x180xbf16>) -> tensor<1x512x320x180xf32> loc(#loc869)
    %756 = stablehlo.logistic %755 : tensor<1x512x320x180xf32> loc(#loc870)
    %757 = stablehlo.multiply %755, %756 : tensor<1x512x320x180xf32> loc(#loc871)
    %758 = stablehlo.convert %757 : (tensor<1x512x320x180xf32>) -> tensor<1x512x320x180xbf16> loc(#loc872)
    %759 = stablehlo.custom_call @tt.mark_argument(%arg37) {api_version = 0 : i32, mhlo.frontend_attributes = {ttcore.argument_type = "parameter", ttir.name = "prefix.decoder.up_blocks.1.resnets.2.conv1.weight"}} : (tensor<512x512x3x3xbf16>) -> tensor<512x512x3x3xbf16> loc(#loc873)
    %760 = stablehlo.convolution(%758, %759) dim_numbers = [b, f, 0, 1]x[o, i, 0, 1]->[b, f, 0, 1], window = {pad = [[1, 1], [1, 1]]} {batch_group_count = 1 : i64, feature_group_count = 1 : i64} : (tensor<1x512x320x180xbf16>, tensor<512x512x3x3xbf16>) -> tensor<1x512x320x180xbf16> loc(#loc874)
    %761 = stablehlo.reshape %arg36 : (tensor<512xbf16>) -> tensor<1x1x512xbf16> loc(#loc875)
    %762 = stablehlo.custom_call @tt.mark_argument(%761) {api_version = 0 : i32, mhlo.frontend_attributes = {ttcore.argument_type = "parameter", ttir.name = "prefix.decoder.up_blocks.1.resnets.2.conv1.bias"}} : (tensor<1x1x512xbf16>) -> tensor<1x1x512xbf16> loc(#loc876)
    %763 = stablehlo.reshape %762 : (tensor<1x1x512xbf16>) -> tensor<512xbf16> loc(#loc877)
    %764 = stablehlo.broadcast_in_dim %763, dims = [1] : (tensor<512xbf16>) -> tensor<1x512x320x180xbf16> loc(#loc878)
    %765 = stablehlo.add %760, %764 : tensor<1x512x320x180xbf16> loc(#loc879)
    %766 = stablehlo.convert %765 : (tensor<1x512x320x180xbf16>) -> tensor<1x512x320x180xf32> loc(#loc880)
    %767 = stablehlo.reshape %766 : (tensor<1x512x320x180xf32>) -> tensor<1x32x16x57600xf32> loc(#loc881)
    %768 = stablehlo.reduce(%767 init: %cst_19) applies stablehlo.add across dimensions = [2, 3] : (tensor<1x32x16x57600xf32>, tensor<f32>) -> tensor<1x32xf32> loc(#loc882)
    %769 = stablehlo.multiply %768, %cst_8 : tensor<1x32xf32> loc(#loc883)
    %770 = stablehlo.broadcast_in_dim %769, dims = [0, 1] : (tensor<1x32xf32>) -> tensor<1x32x16x57600xf32> loc(#loc884)
    %771 = stablehlo.subtract %767, %770 : tensor<1x32x16x57600xf32> loc(#loc885)
    %772 = stablehlo.multiply %771, %771 : tensor<1x32x16x57600xf32> loc(#loc886)
    %773 = stablehlo.reduce(%772 init: %cst_19) applies stablehlo.add across dimensions = [2, 3] : (tensor<1x32x16x57600xf32>, tensor<f32>) -> tensor<1x32xf32> loc(#loc887)
    %774 = stablehlo.multiply %773, %cst_8 : tensor<1x32xf32> loc(#loc888)
    %775 = stablehlo.reshape %774 : (tensor<1x32xf32>) -> tensor<1x32x1x1xf32> loc(#loc889)
    %776 = stablehlo.add %775, %cst_12 : tensor<1x32x1x1xf32> loc(#loc890)
    %777 = stablehlo.rsqrt %776 : tensor<1x32x1x1xf32> loc(#loc891)
    %778 = stablehlo.reshape %777 : (tensor<1x32x1x1xf32>) -> tensor<1x32xf32> loc(#loc892)
    %779 = stablehlo.broadcast_in_dim %778, dims = [0, 1] : (tensor<1x32xf32>) -> tensor<1x32x16x57600xf32> loc(#loc893)
    %780 = stablehlo.multiply %771, %779 : tensor<1x32x16x57600xf32> loc(#loc894)
    %781 = stablehlo.reshape %780 : (tensor<1x32x16x57600xf32>) -> tensor<1x512x320x180xf32> loc(#loc895)
    %782 = stablehlo.reshape %arg35 : (tensor<512xbf16>) -> tensor<1x1x512xbf16> loc(#loc896)
    %783 = stablehlo.custom_call @tt.mark_argument(%782) {api_version = 0 : i32, mhlo.frontend_attributes = {ttcore.argument_type = "parameter", ttir.name = "prefix.decoder.up_blocks.1.resnets.2.norm2.weight"}} : (tensor<1x1x512xbf16>) -> tensor<1x1x512xbf16> loc(#loc897)
    %784 = stablehlo.reshape %783 : (tensor<1x1x512xbf16>) -> tensor<1x512x1x1xbf16> loc(#loc898)
    %785 = stablehlo.convert %784 : (tensor<1x512x1x1xbf16>) -> tensor<1x512x1x1xf32> loc(#loc899)
    %786 = stablehlo.reshape %785 : (tensor<1x512x1x1xf32>) -> tensor<1x512xf32> loc(#loc900)
    %787 = stablehlo.broadcast_in_dim %786, dims = [0, 1] : (tensor<1x512xf32>) -> tensor<1x512x320x180xf32> loc(#loc901)
    %788 = stablehlo.multiply %781, %787 : tensor<1x512x320x180xf32> loc(#loc902)
    %789 = stablehlo.reshape %arg34 : (tensor<512xbf16>) -> tensor<1x1x512xbf16> loc(#loc903)
    %790 = stablehlo.custom_call @tt.mark_argument(%789) {api_version = 0 : i32, mhlo.frontend_attributes = {ttcore.argument_type = "parameter", ttir.name = "prefix.decoder.up_blocks.1.resnets.2.norm2.bias"}} : (tensor<1x1x512xbf16>) -> tensor<1x1x512xbf16> loc(#loc904)
    %791 = stablehlo.reshape %790 : (tensor<1x1x512xbf16>) -> tensor<1x512x1x1xbf16> loc(#loc905)
    %792 = stablehlo.convert %791 : (tensor<1x512x1x1xbf16>) -> tensor<1x512x1x1xf32> loc(#loc906)
    %793 = stablehlo.reshape %792 : (tensor<1x512x1x1xf32>) -> tensor<1x512xf32> loc(#loc907)
    %794 = stablehlo.broadcast_in_dim %793, dims = [0, 1] : (tensor<1x512xf32>) -> tensor<1x512x320x180xf32> loc(#loc908)
    %795 = stablehlo.add %788, %794 : tensor<1x512x320x180xf32> loc(#loc909)
    %796 = stablehlo.convert %795 : (tensor<1x512x320x180xf32>) -> tensor<1x512x320x180xbf16> loc(#loc910)
    %797 = stablehlo.convert %796 : (tensor<1x512x320x180xbf16>) -> tensor<1x512x320x180xf32> loc(#loc911)
    %798 = stablehlo.logistic %797 : tensor<1x512x320x180xf32> loc(#loc912)
    %799 = stablehlo.multiply %797, %798 : tensor<1x512x320x180xf32> loc(#loc913)
    %800 = stablehlo.convert %799 : (tensor<1x512x320x180xf32>) -> tensor<1x512x320x180xbf16> loc(#loc914)
    %801 = stablehlo.custom_call @tt.mark_argument(%arg33) {api_version = 0 : i32, mhlo.frontend_attributes = {ttcore.argument_type = "parameter", ttir.name = "prefix.decoder.up_blocks.1.resnets.2.conv2.weight"}} : (tensor<512x512x3x3xbf16>) -> tensor<512x512x3x3xbf16> loc(#loc915)
    %802 = stablehlo.convolution(%800, %801) dim_numbers = [b, f, 0, 1]x[o, i, 0, 1]->[b, f, 0, 1], window = {pad = [[1, 1], [1, 1]]} {batch_group_count = 1 : i64, feature_group_count = 1 : i64} : (tensor<1x512x320x180xbf16>, tensor<512x512x3x3xbf16>) -> tensor<1x512x320x180xbf16> loc(#loc916)
    %803 = stablehlo.reshape %arg32 : (tensor<512xbf16>) -> tensor<1x1x512xbf16> loc(#loc917)
    %804 = stablehlo.custom_call @tt.mark_argument(%803) {api_version = 0 : i32, mhlo.frontend_attributes = {ttcore.argument_type = "parameter", ttir.name = "prefix.decoder.up_blocks.1.resnets.2.conv2.bias"}} : (tensor<1x1x512xbf16>) -> tensor<1x1x512xbf16> loc(#loc918)
    %805 = stablehlo.reshape %804 : (tensor<1x1x512xbf16>) -> tensor<512xbf16> loc(#loc919)
    %806 = stablehlo.broadcast_in_dim %805, dims = [1] : (tensor<512xbf16>) -> tensor<1x512x320x180xbf16> loc(#loc920)
    %807 = stablehlo.add %802, %806 : tensor<1x512x320x180xbf16> loc(#loc921)
    %808 = stablehlo.add %723, %807 : tensor<1x512x320x180xbf16> loc(#loc922)
    %809 = stablehlo.divide %808, %cst_7 : tensor<1x512x320x180xbf16> loc(#loc923)
    %810 = stablehlo.transpose %809, dims = [0, 1, 3, 2] {result_layout = dense<[2, 3, 1, 0]> : tensor<4xindex>, xla_shape = "bf16[1,512,180,320]{2,3,1,0}"} : (tensor<1x512x320x180xbf16>) -> tensor<1x512x180x320xbf16> loc(#loc924)
    %811 = stablehlo.floor %cst_6 : tensor<640xf64> loc(#loc925)
    %812 = stablehlo.convert %811 : (tensor<640xf64>) -> tensor<640xi64> loc(#loc926)
    %813 = stablehlo.broadcast_in_dim %812, dims = [0] : (tensor<640xi64>) -> tensor<640x320xi64> loc(#loc927)
    %814 = stablehlo.broadcast_in_dim %c_16, dims = [1] : (tensor<320xi64>) -> tensor<640x320xi64> loc(#loc928)
    %815 = stablehlo.compare  EQ, %813, %814 : (tensor<640x320xi64>, tensor<640x320xi64>) -> tensor<640x320xi1> loc(#loc929)
    %816 = stablehlo.convert %815 : (tensor<640x320xi1>) -> tensor<640x320xi64> loc(#loc930)
    %817 = stablehlo.transpose %816, dims = [1, 0] {result_layout = dense<[0, 1]> : tensor<2xindex>, xla_shape = "s64[320,640]{0,1}"} : (tensor<640x320xi64>) -> tensor<320x640xi64> loc(#loc931)
    %818 = stablehlo.convert %817 {result_layout = dense<[0, 1]> : tensor<2xindex>, xla_shape = "bf16[320,640]{0,1}"} : (tensor<320x640xi64>) -> tensor<320x640xbf16> loc(#loc932)
    %819 = stablehlo.dot_general %810, %818, contracting_dims = [3] x [0] {mhlo.frontend_attributes = {grad_x = "false", grad_y = "false"}} : (tensor<1x512x180x320xbf16>, tensor<320x640xbf16>) -> tensor<1x512x180x640xbf16> loc(#loc933)
    %820 = stablehlo.transpose %819, dims = [0, 1, 3, 2] {result_layout = dense<[2, 3, 1, 0]> : tensor<4xindex>, xla_shape = "bf16[1,512,640,180]{2,3,1,0}"} : (tensor<1x512x180x640xbf16>) -> tensor<1x512x640x180xbf16> loc(#loc934)
    %821 = stablehlo.floor %cst_5 : tensor<360xf64> loc(#loc935)
    %822 = stablehlo.convert %821 : (tensor<360xf64>) -> tensor<360xi64> loc(#loc936)
    %823 = stablehlo.broadcast_in_dim %822, dims = [0] : (tensor<360xi64>) -> tensor<360x180xi64> loc(#loc937)
    %824 = stablehlo.broadcast_in_dim %c_15, dims = [1] : (tensor<180xi64>) -> tensor<360x180xi64> loc(#loc938)
    %825 = stablehlo.compare  EQ, %823, %824 : (tensor<360x180xi64>, tensor<360x180xi64>) -> tensor<360x180xi1> loc(#loc939)
    %826 = stablehlo.convert %825 : (tensor<360x180xi1>) -> tensor<360x180xi64> loc(#loc940)
    %827 = stablehlo.transpose %826, dims = [1, 0] {result_layout = dense<[0, 1]> : tensor<2xindex>, xla_shape = "s64[180,360]{0,1}"} : (tensor<360x180xi64>) -> tensor<180x360xi64> loc(#loc941)
    %828 = stablehlo.convert %827 {result_layout = dense<[0, 1]> : tensor<2xindex>, xla_shape = "bf16[180,360]{0,1}"} : (tensor<180x360xi64>) -> tensor<180x360xbf16> loc(#loc942)
    %829 = stablehlo.dot_general %820, %828, contracting_dims = [3] x [0] {mhlo.frontend_attributes = {grad_x = "false", grad_y = "false"}} : (tensor<1x512x640x180xbf16>, tensor<180x360xbf16>) -> tensor<1x512x640x360xbf16> loc(#loc943)
    %830 = stablehlo.custom_call @tt.mark_argument(%arg31) {api_version = 0 : i32, mhlo.frontend_attributes = {ttcore.argument_type = "parameter", ttir.name = "prefix.decoder.up_blocks.1.upsamplers.0.conv.weight"}} : (tensor<512x512x3x3xbf16>) -> tensor<512x512x3x3xbf16> loc(#loc944)
    %831 = stablehlo.convolution(%829, %830) dim_numbers = [b, f, 0, 1]x[o, i, 0, 1]->[b, f, 0, 1], window = {pad = [[1, 1], [1, 1]]} {batch_group_count = 1 : i64, feature_group_count = 1 : i64} : (tensor<1x512x640x360xbf16>, tensor<512x512x3x3xbf16>) -> tensor<1x512x640x360xbf16> loc(#loc945)
    %832 = stablehlo.reshape %arg30 : (tensor<512xbf16>) -> tensor<1x1x512xbf16> loc(#loc946)
    %833 = stablehlo.custom_call @tt.mark_argument(%832) {api_version = 0 : i32, mhlo.frontend_attributes = {ttcore.argument_type = "parameter", ttir.name = "prefix.decoder.up_blocks.1.upsamplers.0.conv.bias"}} : (tensor<1x1x512xbf16>) -> tensor<1x1x512xbf16> loc(#loc947)
    %834 = stablehlo.reshape %833 : (tensor<1x1x512xbf16>) -> tensor<512xbf16> loc(#loc948)
    %835 = stablehlo.broadcast_in_dim %834, dims = [1] : (tensor<512xbf16>) -> tensor<1x512x640x360xbf16> loc(#loc949)
    %836 = stablehlo.add %831, %835 : tensor<1x512x640x360xbf16> loc(#loc950)
    %837 = stablehlo.custom_call @tt.mark_argument(%arg112) {api_version = 0 : i32, mhlo.frontend_attributes = {ttcore.argument_type = "parameter", ttir.name = "prefix.decoder.up_blocks.2.resnets.0.conv_shortcut.weight"}} : (tensor<256x512x1x1xbf16>) -> tensor<256x512x1x1xbf16> loc(#loc951)
    %838 = stablehlo.convolution(%836, %837) dim_numbers = [b, f, 0, 1]x[o, i, 0, 1]->[b, f, 0, 1], window = {} {batch_group_count = 1 : i64, feature_group_count = 1 : i64} : (tensor<1x512x640x360xbf16>, tensor<256x512x1x1xbf16>) -> tensor<1x256x640x360xbf16> loc(#loc952)
    %839 = stablehlo.reshape %arg111 : (tensor<256xbf16>) -> tensor<1x1x256xbf16> loc(#loc953)
    %840 = stablehlo.custom_call @tt.mark_argument(%839) {api_version = 0 : i32, mhlo.frontend_attributes = {ttcore.argument_type = "parameter", ttir.name = "prefix.decoder.up_blocks.2.resnets.0.conv_shortcut.bias"}} : (tensor<1x1x256xbf16>) -> tensor<1x1x256xbf16> loc(#loc954)
    %841 = stablehlo.reshape %840 : (tensor<1x1x256xbf16>) -> tensor<256xbf16> loc(#loc955)
    %842 = stablehlo.broadcast_in_dim %841, dims = [1] : (tensor<256xbf16>) -> tensor<1x256x640x360xbf16> loc(#loc956)
    %843 = stablehlo.add %838, %842 : tensor<1x256x640x360xbf16> loc(#loc957)
    %844 = stablehlo.convert %836 : (tensor<1x512x640x360xbf16>) -> tensor<1x512x640x360xf32> loc(#loc958)
    %845 = stablehlo.reshape %844 : (tensor<1x512x640x360xf32>) -> tensor<1x32x16x230400xf32> loc(#loc959)
    %846 = stablehlo.reduce(%845 init: %cst_19) applies stablehlo.add across dimensions = [2, 3] : (tensor<1x32x16x230400xf32>, tensor<f32>) -> tensor<1x32xf32> loc(#loc960)
    %847 = stablehlo.multiply %846, %cst_4 : tensor<1x32xf32> loc(#loc961)
    %848 = stablehlo.broadcast_in_dim %847, dims = [0, 1] : (tensor<1x32xf32>) -> tensor<1x32x16x230400xf32> loc(#loc962)
    %849 = stablehlo.subtract %845, %848 : tensor<1x32x16x230400xf32> loc(#loc963)
    %850 = stablehlo.multiply %849, %849 : tensor<1x32x16x230400xf32> loc(#loc964)
    %851 = stablehlo.reduce(%850 init: %cst_19) applies stablehlo.add across dimensions = [2, 3] : (tensor<1x32x16x230400xf32>, tensor<f32>) -> tensor<1x32xf32> loc(#loc965)
    %852 = stablehlo.multiply %851, %cst_4 : tensor<1x32xf32> loc(#loc966)
    %853 = stablehlo.reshape %852 : (tensor<1x32xf32>) -> tensor<1x32x1x1xf32> loc(#loc967)
    %854 = stablehlo.add %853, %cst_12 : tensor<1x32x1x1xf32> loc(#loc968)
    %855 = stablehlo.rsqrt %854 : tensor<1x32x1x1xf32> loc(#loc969)
    %856 = stablehlo.reshape %855 : (tensor<1x32x1x1xf32>) -> tensor<1x32xf32> loc(#loc970)
    %857 = stablehlo.broadcast_in_dim %856, dims = [0, 1] : (tensor<1x32xf32>) -> tensor<1x32x16x230400xf32> loc(#loc971)
    %858 = stablehlo.multiply %849, %857 : tensor<1x32x16x230400xf32> loc(#loc972)
    %859 = stablehlo.reshape %858 : (tensor<1x32x16x230400xf32>) -> tensor<1x512x640x360xf32> loc(#loc973)
    %860 = stablehlo.reshape %arg29 : (tensor<512xbf16>) -> tensor<1x1x512xbf16> loc(#loc974)
    %861 = stablehlo.custom_call @tt.mark_argument(%860) {api_version = 0 : i32, mhlo.frontend_attributes = {ttcore.argument_type = "parameter", ttir.name = "prefix.decoder.up_blocks.2.resnets.0.norm1.weight"}} : (tensor<1x1x512xbf16>) -> tensor<1x1x512xbf16> loc(#loc975)
    %862 = stablehlo.reshape %861 : (tensor<1x1x512xbf16>) -> tensor<1x512x1x1xbf16> loc(#loc976)
    %863 = stablehlo.convert %862 : (tensor<1x512x1x1xbf16>) -> tensor<1x512x1x1xf32> loc(#loc977)
    %864 = stablehlo.reshape %863 : (tensor<1x512x1x1xf32>) -> tensor<1x512xf32> loc(#loc978)
    %865 = stablehlo.broadcast_in_dim %864, dims = [0, 1] : (tensor<1x512xf32>) -> tensor<1x512x640x360xf32> loc(#loc979)
    %866 = stablehlo.multiply %859, %865 : tensor<1x512x640x360xf32> loc(#loc980)
    %867 = stablehlo.reshape %arg28 : (tensor<512xbf16>) -> tensor<1x1x512xbf16> loc(#loc981)
    %868 = stablehlo.custom_call @tt.mark_argument(%867) {api_version = 0 : i32, mhlo.frontend_attributes = {ttcore.argument_type = "parameter", ttir.name = "prefix.decoder.up_blocks.2.resnets.0.norm1.bias"}} : (tensor<1x1x512xbf16>) -> tensor<1x1x512xbf16> loc(#loc982)
    %869 = stablehlo.reshape %868 : (tensor<1x1x512xbf16>) -> tensor<1x512x1x1xbf16> loc(#loc983)
    %870 = stablehlo.convert %869 : (tensor<1x512x1x1xbf16>) -> tensor<1x512x1x1xf32> loc(#loc984)
    %871 = stablehlo.reshape %870 : (tensor<1x512x1x1xf32>) -> tensor<1x512xf32> loc(#loc985)
    %872 = stablehlo.broadcast_in_dim %871, dims = [0, 1] : (tensor<1x512xf32>) -> tensor<1x512x640x360xf32> loc(#loc986)
    %873 = stablehlo.add %866, %872 : tensor<1x512x640x360xf32> loc(#loc987)
    %874 = stablehlo.convert %873 : (tensor<1x512x640x360xf32>) -> tensor<1x512x640x360xbf16> loc(#loc988)
    %875 = stablehlo.convert %874 : (tensor<1x512x640x360xbf16>) -> tensor<1x512x640x360xf32> loc(#loc989)
    %876 = stablehlo.logistic %875 : tensor<1x512x640x360xf32> loc(#loc990)
    %877 = stablehlo.multiply %875, %876 : tensor<1x512x640x360xf32> loc(#loc991)
    %878 = stablehlo.convert %877 : (tensor<1x512x640x360xf32>) -> tensor<1x512x640x360xbf16> loc(#loc992)
    %879 = stablehlo.custom_call @tt.mark_argument(%arg27) {api_version = 0 : i32, mhlo.frontend_attributes = {ttcore.argument_type = "parameter", ttir.name = "prefix.decoder.up_blocks.2.resnets.0.conv1.weight"}} : (tensor<256x512x3x3xbf16>) -> tensor<256x512x3x3xbf16> loc(#loc993)
    %880 = stablehlo.convolution(%878, %879) dim_numbers = [b, f, 0, 1]x[o, i, 0, 1]->[b, f, 0, 1], window = {pad = [[1, 1], [1, 1]]} {batch_group_count = 1 : i64, feature_group_count = 1 : i64} : (tensor<1x512x640x360xbf16>, tensor<256x512x3x3xbf16>) -> tensor<1x256x640x360xbf16> loc(#loc994)
    %881 = stablehlo.reshape %arg26 : (tensor<256xbf16>) -> tensor<1x1x256xbf16> loc(#loc995)
    %882 = stablehlo.custom_call @tt.mark_argument(%881) {api_version = 0 : i32, mhlo.frontend_attributes = {ttcore.argument_type = "parameter", ttir.name = "prefix.decoder.up_blocks.2.resnets.0.conv1.bias"}} : (tensor<1x1x256xbf16>) -> tensor<1x1x256xbf16> loc(#loc996)
    %883 = stablehlo.reshape %882 : (tensor<1x1x256xbf16>) -> tensor<256xbf16> loc(#loc997)
    %884 = stablehlo.broadcast_in_dim %883, dims = [1] : (tensor<256xbf16>) -> tensor<1x256x640x360xbf16> loc(#loc998)
    %885 = stablehlo.add %880, %884 : tensor<1x256x640x360xbf16> loc(#loc999)
    %886 = stablehlo.convert %885 : (tensor<1x256x640x360xbf16>) -> tensor<1x256x640x360xf32> loc(#loc1000)
    %887 = stablehlo.reshape %886 : (tensor<1x256x640x360xf32>) -> tensor<1x32x8x230400xf32> loc(#loc1001)
    %888 = stablehlo.reduce(%887 init: %cst_19) applies stablehlo.add across dimensions = [2, 3] : (tensor<1x32x8x230400xf32>, tensor<f32>) -> tensor<1x32xf32> loc(#loc1002)
    %889 = stablehlo.multiply %888, %cst_3 : tensor<1x32xf32> loc(#loc1003)
    %890 = stablehlo.broadcast_in_dim %889, dims = [0, 1] : (tensor<1x32xf32>) -> tensor<1x32x8x230400xf32> loc(#loc1004)
    %891 = stablehlo.subtract %887, %890 : tensor<1x32x8x230400xf32> loc(#loc1005)
    %892 = stablehlo.multiply %891, %891 : tensor<1x32x8x230400xf32> loc(#loc1006)
    %893 = stablehlo.reduce(%892 init: %cst_19) applies stablehlo.add across dimensions = [2, 3] : (tensor<1x32x8x230400xf32>, tensor<f32>) -> tensor<1x32xf32> loc(#loc1007)
    %894 = stablehlo.multiply %893, %cst_3 : tensor<1x32xf32> loc(#loc1008)
    %895 = stablehlo.reshape %894 : (tensor<1x32xf32>) -> tensor<1x32x1x1xf32> loc(#loc1009)
    %896 = stablehlo.add %895, %cst_12 : tensor<1x32x1x1xf32> loc(#loc1010)
    %897 = stablehlo.rsqrt %896 : tensor<1x32x1x1xf32> loc(#loc1011)
    %898 = stablehlo.reshape %897 : (tensor<1x32x1x1xf32>) -> tensor<1x32xf32> loc(#loc1012)
    %899 = stablehlo.broadcast_in_dim %898, dims = [0, 1] : (tensor<1x32xf32>) -> tensor<1x32x8x230400xf32> loc(#loc1013)
    %900 = stablehlo.multiply %891, %899 : tensor<1x32x8x230400xf32> loc(#loc1014)
    %901 = stablehlo.reshape %900 : (tensor<1x32x8x230400xf32>) -> tensor<1x256x640x360xf32> loc(#loc1015)
    %902 = stablehlo.reshape %arg25 : (tensor<256xbf16>) -> tensor<1x1x256xbf16> loc(#loc1016)
    %903 = stablehlo.custom_call @tt.mark_argument(%902) {api_version = 0 : i32, mhlo.frontend_attributes = {ttcore.argument_type = "parameter", ttir.name = "prefix.decoder.up_blocks.2.resnets.0.norm2.weight"}} : (tensor<1x1x256xbf16>) -> tensor<1x1x256xbf16> loc(#loc1017)
    %904 = stablehlo.reshape %903 : (tensor<1x1x256xbf16>) -> tensor<1x256x1x1xbf16> loc(#loc1018)
    %905 = stablehlo.convert %904 : (tensor<1x256x1x1xbf16>) -> tensor<1x256x1x1xf32> loc(#loc1019)
    %906 = stablehlo.reshape %905 : (tensor<1x256x1x1xf32>) -> tensor<1x256xf32> loc(#loc1020)
    %907 = stablehlo.broadcast_in_dim %906, dims = [0, 1] : (tensor<1x256xf32>) -> tensor<1x256x640x360xf32> loc(#loc1021)
    %908 = stablehlo.multiply %901, %907 : tensor<1x256x640x360xf32> loc(#loc1022)
    %909 = stablehlo.reshape %arg24 : (tensor<256xbf16>) -> tensor<1x1x256xbf16> loc(#loc1023)
    %910 = stablehlo.custom_call @tt.mark_argument(%909) {api_version = 0 : i32, mhlo.frontend_attributes = {ttcore.argument_type = "parameter", ttir.name = "prefix.decoder.up_blocks.2.resnets.0.norm2.bias"}} : (tensor<1x1x256xbf16>) -> tensor<1x1x256xbf16> loc(#loc1024)
    %911 = stablehlo.reshape %910 : (tensor<1x1x256xbf16>) -> tensor<1x256x1x1xbf16> loc(#loc1025)
    %912 = stablehlo.convert %911 : (tensor<1x256x1x1xbf16>) -> tensor<1x256x1x1xf32> loc(#loc1026)
    %913 = stablehlo.reshape %912 : (tensor<1x256x1x1xf32>) -> tensor<1x256xf32> loc(#loc1027)
    %914 = stablehlo.broadcast_in_dim %913, dims = [0, 1] : (tensor<1x256xf32>) -> tensor<1x256x640x360xf32> loc(#loc1028)
    %915 = stablehlo.add %908, %914 : tensor<1x256x640x360xf32> loc(#loc1029)
    %916 = stablehlo.convert %915 : (tensor<1x256x640x360xf32>) -> tensor<1x256x640x360xbf16> loc(#loc1030)
    %917 = stablehlo.convert %916 : (tensor<1x256x640x360xbf16>) -> tensor<1x256x640x360xf32> loc(#loc1031)
    %918 = stablehlo.logistic %917 : tensor<1x256x640x360xf32> loc(#loc1032)
    %919 = stablehlo.multiply %917, %918 : tensor<1x256x640x360xf32> loc(#loc1033)
    %920 = stablehlo.convert %919 : (tensor<1x256x640x360xf32>) -> tensor<1x256x640x360xbf16> loc(#loc1034)
    %921 = stablehlo.custom_call @tt.mark_argument(%arg23) {api_version = 0 : i32, mhlo.frontend_attributes = {ttcore.argument_type = "parameter", ttir.name = "prefix.decoder.up_blocks.2.resnets.0.conv2.weight"}} : (tensor<256x256x3x3xbf16>) -> tensor<256x256x3x3xbf16> loc(#loc1035)
    %922 = stablehlo.convolution(%920, %921) dim_numbers = [b, f, 0, 1]x[o, i, 0, 1]->[b, f, 0, 1], window = {pad = [[1, 1], [1, 1]]} {batch_group_count = 1 : i64, feature_group_count = 1 : i64} : (tensor<1x256x640x360xbf16>, tensor<256x256x3x3xbf16>) -> tensor<1x256x640x360xbf16> loc(#loc1036)
    %923 = stablehlo.reshape %arg22 : (tensor<256xbf16>) -> tensor<1x1x256xbf16> loc(#loc1037)
    %924 = stablehlo.custom_call @tt.mark_argument(%923) {api_version = 0 : i32, mhlo.frontend_attributes = {ttcore.argument_type = "parameter", ttir.name = "prefix.decoder.up_blocks.2.resnets.0.conv2.bias"}} : (tensor<1x1x256xbf16>) -> tensor<1x1x256xbf16> loc(#loc1038)
    %925 = stablehlo.reshape %924 : (tensor<1x1x256xbf16>) -> tensor<256xbf16> loc(#loc1039)
    %926 = stablehlo.broadcast_in_dim %925, dims = [1] : (tensor<256xbf16>) -> tensor<1x256x640x360xbf16> loc(#loc1040)
    %927 = stablehlo.add %922, %926 : tensor<1x256x640x360xbf16> loc(#loc1041)
    %928 = stablehlo.add %843, %927 : tensor<1x256x640x360xbf16> loc(#loc1042)
    %929 = stablehlo.divide %928, %cst_2 : tensor<1x256x640x360xbf16> loc(#loc1043)
    %930 = stablehlo.convert %929 : (tensor<1x256x640x360xbf16>) -> tensor<1x256x640x360xf32> loc(#loc1044)
    %931 = stablehlo.reshape %930 : (tensor<1x256x640x360xf32>) -> tensor<1x32x8x230400xf32> loc(#loc1045)
    %932 = stablehlo.reduce(%931 init: %cst_19) applies stablehlo.add across dimensions = [2, 3] : (tensor<1x32x8x230400xf32>, tensor<f32>) -> tensor<1x32xf32> loc(#loc1046)
    %933 = stablehlo.multiply %932, %cst_3 : tensor<1x32xf32> loc(#loc1047)
    %934 = stablehlo.broadcast_in_dim %933, dims = [0, 1] : (tensor<1x32xf32>) -> tensor<1x32x8x230400xf32> loc(#loc1048)
    %935 = stablehlo.subtract %931, %934 : tensor<1x32x8x230400xf32> loc(#loc1049)
    %936 = stablehlo.multiply %935, %935 : tensor<1x32x8x230400xf32> loc(#loc1050)
    %937 = stablehlo.reduce(%936 init: %cst_19) applies stablehlo.add across dimensions = [2, 3] : (tensor<1x32x8x230400xf32>, tensor<f32>) -> tensor<1x32xf32> loc(#loc1051)
    %938 = stablehlo.multiply %937, %cst_3 : tensor<1x32xf32> loc(#loc1052)
    %939 = stablehlo.reshape %938 : (tensor<1x32xf32>) -> tensor<1x32x1x1xf32> loc(#loc1053)
    %940 = stablehlo.add %939, %cst_12 : tensor<1x32x1x1xf32> loc(#loc1054)
    %941 = stablehlo.rsqrt %940 : tensor<1x32x1x1xf32> loc(#loc1055)
    %942 = stablehlo.reshape %941 : (tensor<1x32x1x1xf32>) -> tensor<1x32xf32> loc(#loc1056)
    %943 = stablehlo.broadcast_in_dim %942, dims = [0, 1] : (tensor<1x32xf32>) -> tensor<1x32x8x230400xf32> loc(#loc1057)
    %944 = stablehlo.multiply %935, %943 : tensor<1x32x8x230400xf32> loc(#loc1058)
    %945 = stablehlo.reshape %944 : (tensor<1x32x8x230400xf32>) -> tensor<1x256x640x360xf32> loc(#loc1059)
    %946 = stablehlo.reshape %arg21 : (tensor<256xbf16>) -> tensor<1x1x256xbf16> loc(#loc1060)
    %947 = stablehlo.custom_call @tt.mark_argument(%946) {api_version = 0 : i32, mhlo.frontend_attributes = {ttcore.argument_type = "parameter", ttir.name = "prefix.decoder.up_blocks.2.resnets.1.norm1.weight"}} : (tensor<1x1x256xbf16>) -> tensor<1x1x256xbf16> loc(#loc1061)
    %948 = stablehlo.reshape %947 : (tensor<1x1x256xbf16>) -> tensor<1x256x1x1xbf16> loc(#loc1062)
    %949 = stablehlo.convert %948 : (tensor<1x256x1x1xbf16>) -> tensor<1x256x1x1xf32> loc(#loc1063)
    %950 = stablehlo.reshape %949 : (tensor<1x256x1x1xf32>) -> tensor<1x256xf32> loc(#loc1064)
    %951 = stablehlo.broadcast_in_dim %950, dims = [0, 1] : (tensor<1x256xf32>) -> tensor<1x256x640x360xf32> loc(#loc1065)
    %952 = stablehlo.multiply %945, %951 : tensor<1x256x640x360xf32> loc(#loc1066)
    %953 = stablehlo.reshape %arg20 : (tensor<256xbf16>) -> tensor<1x1x256xbf16> loc(#loc1067)
    %954 = stablehlo.custom_call @tt.mark_argument(%953) {api_version = 0 : i32, mhlo.frontend_attributes = {ttcore.argument_type = "parameter", ttir.name = "prefix.decoder.up_blocks.2.resnets.1.norm1.bias"}} : (tensor<1x1x256xbf16>) -> tensor<1x1x256xbf16> loc(#loc1068)
    %955 = stablehlo.reshape %954 : (tensor<1x1x256xbf16>) -> tensor<1x256x1x1xbf16> loc(#loc1069)
    %956 = stablehlo.convert %955 : (tensor<1x256x1x1xbf16>) -> tensor<1x256x1x1xf32> loc(#loc1070)
    %957 = stablehlo.reshape %956 : (tensor<1x256x1x1xf32>) -> tensor<1x256xf32> loc(#loc1071)
    %958 = stablehlo.broadcast_in_dim %957, dims = [0, 1] : (tensor<1x256xf32>) -> tensor<1x256x640x360xf32> loc(#loc1072)
    %959 = stablehlo.add %952, %958 : tensor<1x256x640x360xf32> loc(#loc1073)
    %960 = stablehlo.convert %959 : (tensor<1x256x640x360xf32>) -> tensor<1x256x640x360xbf16> loc(#loc1074)
    %961 = stablehlo.convert %960 : (tensor<1x256x640x360xbf16>) -> tensor<1x256x640x360xf32> loc(#loc1075)
    %962 = stablehlo.logistic %961 : tensor<1x256x640x360xf32> loc(#loc1076)
    %963 = stablehlo.multiply %961, %962 : tensor<1x256x640x360xf32> loc(#loc1077)
    %964 = stablehlo.convert %963 : (tensor<1x256x640x360xf32>) -> tensor<1x256x640x360xbf16> loc(#loc1078)
    %965 = stablehlo.custom_call @tt.mark_argument(%arg19) {api_version = 0 : i32, mhlo.frontend_attributes = {ttcore.argument_type = "parameter", ttir.name = "prefix.decoder.up_blocks.2.resnets.1.conv1.weight"}} : (tensor<256x256x3x3xbf16>) -> tensor<256x256x3x3xbf16> loc(#loc1079)
    %966 = stablehlo.convolution(%964, %965) dim_numbers = [b, f, 0, 1]x[o, i, 0, 1]->[b, f, 0, 1], window = {pad = [[1, 1], [1, 1]]} {batch_group_count = 1 : i64, feature_group_count = 1 : i64} : (tensor<1x256x640x360xbf16>, tensor<256x256x3x3xbf16>) -> tensor<1x256x640x360xbf16> loc(#loc1080)
    %967 = stablehlo.reshape %arg18 : (tensor<256xbf16>) -> tensor<1x1x256xbf16> loc(#loc1081)
    %968 = stablehlo.custom_call @tt.mark_argument(%967) {api_version = 0 : i32, mhlo.frontend_attributes = {ttcore.argument_type = "parameter", ttir.name = "prefix.decoder.up_blocks.2.resnets.1.conv1.bias"}} : (tensor<1x1x256xbf16>) -> tensor<1x1x256xbf16> loc(#loc1082)
    %969 = stablehlo.reshape %968 : (tensor<1x1x256xbf16>) -> tensor<256xbf16> loc(#loc1083)
    %970 = stablehlo.broadcast_in_dim %969, dims = [1] : (tensor<256xbf16>) -> tensor<1x256x640x360xbf16> loc(#loc1084)
    %971 = stablehlo.add %966, %970 : tensor<1x256x640x360xbf16> loc(#loc1085)
    %972 = stablehlo.convert %971 : (tensor<1x256x640x360xbf16>) -> tensor<1x256x640x360xf32> loc(#loc1086)
    %973 = stablehlo.reshape %972 : (tensor<1x256x640x360xf32>) -> tensor<1x32x8x230400xf32> loc(#loc1087)
    %974 = stablehlo.reduce(%973 init: %cst_19) applies stablehlo.add across dimensions = [2, 3] : (tensor<1x32x8x230400xf32>, tensor<f32>) -> tensor<1x32xf32> loc(#loc1088)
    %975 = stablehlo.multiply %974, %cst_3 : tensor<1x32xf32> loc(#loc1089)
    %976 = stablehlo.broadcast_in_dim %975, dims = [0, 1] : (tensor<1x32xf32>) -> tensor<1x32x8x230400xf32> loc(#loc1090)
    %977 = stablehlo.subtract %973, %976 : tensor<1x32x8x230400xf32> loc(#loc1091)
    %978 = stablehlo.multiply %977, %977 : tensor<1x32x8x230400xf32> loc(#loc1092)
    %979 = stablehlo.reduce(%978 init: %cst_19) applies stablehlo.add across dimensions = [2, 3] : (tensor<1x32x8x230400xf32>, tensor<f32>) -> tensor<1x32xf32> loc(#loc1093)
    %980 = stablehlo.multiply %979, %cst_3 : tensor<1x32xf32> loc(#loc1094)
    %981 = stablehlo.reshape %980 : (tensor<1x32xf32>) -> tensor<1x32x1x1xf32> loc(#loc1095)
    %982 = stablehlo.add %981, %cst_12 : tensor<1x32x1x1xf32> loc(#loc1096)
    %983 = stablehlo.rsqrt %982 : tensor<1x32x1x1xf32> loc(#loc1097)
    %984 = stablehlo.reshape %983 : (tensor<1x32x1x1xf32>) -> tensor<1x32xf32> loc(#loc1098)
    %985 = stablehlo.broadcast_in_dim %984, dims = [0, 1] : (tensor<1x32xf32>) -> tensor<1x32x8x230400xf32> loc(#loc1099)
    %986 = stablehlo.multiply %977, %985 : tensor<1x32x8x230400xf32> loc(#loc1100)
    %987 = stablehlo.reshape %986 : (tensor<1x32x8x230400xf32>) -> tensor<1x256x640x360xf32> loc(#loc1101)
    %988 = stablehlo.reshape %arg17 : (tensor<256xbf16>) -> tensor<1x1x256xbf16> loc(#loc1102)
    %989 = stablehlo.custom_call @tt.mark_argument(%988) {api_version = 0 : i32, mhlo.frontend_attributes = {ttcore.argument_type = "parameter", ttir.name = "prefix.decoder.up_blocks.2.resnets.1.norm2.weight"}} : (tensor<1x1x256xbf16>) -> tensor<1x1x256xbf16> loc(#loc1103)
    %990 = stablehlo.reshape %989 : (tensor<1x1x256xbf16>) -> tensor<1x256x1x1xbf16> loc(#loc1104)
    %991 = stablehlo.convert %990 : (tensor<1x256x1x1xbf16>) -> tensor<1x256x1x1xf32> loc(#loc1105)
    %992 = stablehlo.reshape %991 : (tensor<1x256x1x1xf32>) -> tensor<1x256xf32> loc(#loc1106)
    %993 = stablehlo.broadcast_in_dim %992, dims = [0, 1] : (tensor<1x256xf32>) -> tensor<1x256x640x360xf32> loc(#loc1107)
    %994 = stablehlo.multiply %987, %993 : tensor<1x256x640x360xf32> loc(#loc1108)
    %995 = stablehlo.reshape %arg16 : (tensor<256xbf16>) -> tensor<1x1x256xbf16> loc(#loc1109)
    %996 = stablehlo.custom_call @tt.mark_argument(%995) {api_version = 0 : i32, mhlo.frontend_attributes = {ttcore.argument_type = "parameter", ttir.name = "prefix.decoder.up_blocks.2.resnets.1.norm2.bias"}} : (tensor<1x1x256xbf16>) -> tensor<1x1x256xbf16> loc(#loc1110)
    %997 = stablehlo.reshape %996 : (tensor<1x1x256xbf16>) -> tensor<1x256x1x1xbf16> loc(#loc1111)
    %998 = stablehlo.convert %997 : (tensor<1x256x1x1xbf16>) -> tensor<1x256x1x1xf32> loc(#loc1112)
    %999 = stablehlo.reshape %998 : (tensor<1x256x1x1xf32>) -> tensor<1x256xf32> loc(#loc1113)
    %1000 = stablehlo.broadcast_in_dim %999, dims = [0, 1] : (tensor<1x256xf32>) -> tensor<1x256x640x360xf32> loc(#loc1114)
    %1001 = stablehlo.add %994, %1000 : tensor<1x256x640x360xf32> loc(#loc1115)
    %1002 = stablehlo.convert %1001 : (tensor<1x256x640x360xf32>) -> tensor<1x256x640x360xbf16> loc(#loc1116)
    %1003 = stablehlo.convert %1002 : (tensor<1x256x640x360xbf16>) -> tensor<1x256x640x360xf32> loc(#loc1117)
    %1004 = stablehlo.logistic %1003 : tensor<1x256x640x360xf32> loc(#loc1118)
    %1005 = stablehlo.multiply %1003, %1004 : tensor<1x256x640x360xf32> loc(#loc1119)
    %1006 = stablehlo.convert %1005 : (tensor<1x256x640x360xf32>) -> tensor<1x256x640x360xbf16> loc(#loc1120)
    %1007 = stablehlo.custom_call @tt.mark_argument(%arg15) {api_version = 0 : i32, mhlo.frontend_attributes = {ttcore.argument_type = "parameter", ttir.name = "prefix.decoder.up_blocks.2.resnets.1.conv2.weight"}} : (tensor<256x256x3x3xbf16>) -> tensor<256x256x3x3xbf16> loc(#loc1121)
    %1008 = stablehlo.convolution(%1006, %1007) dim_numbers = [b, f, 0, 1]x[o, i, 0, 1]->[b, f, 0, 1], window = {pad = [[1, 1], [1, 1]]} {batch_group_count = 1 : i64, feature_group_count = 1 : i64} : (tensor<1x256x640x360xbf16>, tensor<256x256x3x3xbf16>) -> tensor<1x256x640x360xbf16> loc(#loc1122)
    %1009 = stablehlo.reshape %arg14 : (tensor<256xbf16>) -> tensor<1x1x256xbf16> loc(#loc1123)
    %1010 = stablehlo.custom_call @tt.mark_argument(%1009) {api_version = 0 : i32, mhlo.frontend_attributes = {ttcore.argument_type = "parameter", ttir.name = "prefix.decoder.up_blocks.2.resnets.1.conv2.bias"}} : (tensor<1x1x256xbf16>) -> tensor<1x1x256xbf16> loc(#loc1124)
    %1011 = stablehlo.reshape %1010 : (tensor<1x1x256xbf16>) -> tensor<256xbf16> loc(#loc1125)
    %1012 = stablehlo.broadcast_in_dim %1011, dims = [1] : (tensor<256xbf16>) -> tensor<1x256x640x360xbf16> loc(#loc1126)
    %1013 = stablehlo.add %1008, %1012 : tensor<1x256x640x360xbf16> loc(#loc1127)
    %1014 = stablehlo.add %929, %1013 : tensor<1x256x640x360xbf16> loc(#loc1128)
    %1015 = stablehlo.divide %1014, %cst_2 : tensor<1x256x640x360xbf16> loc(#loc1129)
    %1016 = stablehlo.convert %1015 : (tensor<1x256x640x360xbf16>) -> tensor<1x256x640x360xf32> loc(#loc1130)
    %1017 = stablehlo.reshape %1016 : (tensor<1x256x640x360xf32>) -> tensor<1x32x8x230400xf32> loc(#loc1131)
    %1018 = stablehlo.reduce(%1017 init: %cst_19) applies stablehlo.add across dimensions = [2, 3] : (tensor<1x32x8x230400xf32>, tensor<f32>) -> tensor<1x32xf32> loc(#loc1132)
    %1019 = stablehlo.multiply %1018, %cst_3 : tensor<1x32xf32> loc(#loc1133)
    %1020 = stablehlo.broadcast_in_dim %1019, dims = [0, 1] : (tensor<1x32xf32>) -> tensor<1x32x8x230400xf32> loc(#loc1134)
    %1021 = stablehlo.subtract %1017, %1020 : tensor<1x32x8x230400xf32> loc(#loc1135)
    %1022 = stablehlo.multiply %1021, %1021 : tensor<1x32x8x230400xf32> loc(#loc1136)
    %1023 = stablehlo.reduce(%1022 init: %cst_19) applies stablehlo.add across dimensions = [2, 3] : (tensor<1x32x8x230400xf32>, tensor<f32>) -> tensor<1x32xf32> loc(#loc1137)
    %1024 = stablehlo.multiply %1023, %cst_3 : tensor<1x32xf32> loc(#loc1138)
    %1025 = stablehlo.reshape %1024 : (tensor<1x32xf32>) -> tensor<1x32x1x1xf32> loc(#loc1139)
    %1026 = stablehlo.add %1025, %cst_12 : tensor<1x32x1x1xf32> loc(#loc1140)
    %1027 = stablehlo.rsqrt %1026 : tensor<1x32x1x1xf32> loc(#loc1141)
    %1028 = stablehlo.reshape %1027 : (tensor<1x32x1x1xf32>) -> tensor<1x32xf32> loc(#loc1142)
    %1029 = stablehlo.broadcast_in_dim %1028, dims = [0, 1] : (tensor<1x32xf32>) -> tensor<1x32x8x230400xf32> loc(#loc1143)
    %1030 = stablehlo.multiply %1021, %1029 : tensor<1x32x8x230400xf32> loc(#loc1144)
    %1031 = stablehlo.reshape %1030 : (tensor<1x32x8x230400xf32>) -> tensor<1x256x640x360xf32> loc(#loc1145)
    %1032 = stablehlo.reshape %arg13 : (tensor<256xbf16>) -> tensor<1x1x256xbf16> loc(#loc1146)
    %1033 = stablehlo.custom_call @tt.mark_argument(%1032) {api_version = 0 : i32, mhlo.frontend_attributes = {ttcore.argument_type = "parameter", ttir.name = "prefix.decoder.up_blocks.2.resnets.2.norm1.weight"}} : (tensor<1x1x256xbf16>) -> tensor<1x1x256xbf16> loc(#loc1147)
    %1034 = stablehlo.reshape %1033 : (tensor<1x1x256xbf16>) -> tensor<1x256x1x1xbf16> loc(#loc1148)
    %1035 = stablehlo.convert %1034 : (tensor<1x256x1x1xbf16>) -> tensor<1x256x1x1xf32> loc(#loc1149)
    %1036 = stablehlo.reshape %1035 : (tensor<1x256x1x1xf32>) -> tensor<1x256xf32> loc(#loc1150)
    %1037 = stablehlo.broadcast_in_dim %1036, dims = [0, 1] : (tensor<1x256xf32>) -> tensor<1x256x640x360xf32> loc(#loc1151)
    %1038 = stablehlo.multiply %1031, %1037 : tensor<1x256x640x360xf32> loc(#loc1152)
    %1039 = stablehlo.reshape %arg12 : (tensor<256xbf16>) -> tensor<1x1x256xbf16> loc(#loc1153)
    %1040 = stablehlo.custom_call @tt.mark_argument(%1039) {api_version = 0 : i32, mhlo.frontend_attributes = {ttcore.argument_type = "parameter", ttir.name = "prefix.decoder.up_blocks.2.resnets.2.norm1.bias"}} : (tensor<1x1x256xbf16>) -> tensor<1x1x256xbf16> loc(#loc1154)
    %1041 = stablehlo.reshape %1040 : (tensor<1x1x256xbf16>) -> tensor<1x256x1x1xbf16> loc(#loc1155)
    %1042 = stablehlo.convert %1041 : (tensor<1x256x1x1xbf16>) -> tensor<1x256x1x1xf32> loc(#loc1156)
    %1043 = stablehlo.reshape %1042 : (tensor<1x256x1x1xf32>) -> tensor<1x256xf32> loc(#loc1157)
    %1044 = stablehlo.broadcast_in_dim %1043, dims = [0, 1] : (tensor<1x256xf32>) -> tensor<1x256x640x360xf32> loc(#loc1158)
    %1045 = stablehlo.add %1038, %1044 : tensor<1x256x640x360xf32> loc(#loc1159)
    %1046 = stablehlo.convert %1045 : (tensor<1x256x640x360xf32>) -> tensor<1x256x640x360xbf16> loc(#loc1160)
    %1047 = stablehlo.convert %1046 : (tensor<1x256x640x360xbf16>) -> tensor<1x256x640x360xf32> loc(#loc1161)
    %1048 = stablehlo.logistic %1047 : tensor<1x256x640x360xf32> loc(#loc1162)
    %1049 = stablehlo.multiply %1047, %1048 : tensor<1x256x640x360xf32> loc(#loc1163)
    %1050 = stablehlo.convert %1049 : (tensor<1x256x640x360xf32>) -> tensor<1x256x640x360xbf16> loc(#loc1164)
    %1051 = stablehlo.custom_call @tt.mark_argument(%arg11) {api_version = 0 : i32, mhlo.frontend_attributes = {ttcore.argument_type = "parameter", ttir.name = "prefix.decoder.up_blocks.2.resnets.2.conv1.weight"}} : (tensor<256x256x3x3xbf16>) -> tensor<256x256x3x3xbf16> loc(#loc1165)
    %1052 = stablehlo.convolution(%1050, %1051) dim_numbers = [b, f, 0, 1]x[o, i, 0, 1]->[b, f, 0, 1], window = {pad = [[1, 1], [1, 1]]} {batch_group_count = 1 : i64, feature_group_count = 1 : i64} : (tensor<1x256x640x360xbf16>, tensor<256x256x3x3xbf16>) -> tensor<1x256x640x360xbf16> loc(#loc1166)
    %1053 = stablehlo.reshape %arg10 : (tensor<256xbf16>) -> tensor<1x1x256xbf16> loc(#loc1167)
    %1054 = stablehlo.custom_call @tt.mark_argument(%1053) {api_version = 0 : i32, mhlo.frontend_attributes = {ttcore.argument_type = "parameter", ttir.name = "prefix.decoder.up_blocks.2.resnets.2.conv1.bias"}} : (tensor<1x1x256xbf16>) -> tensor<1x1x256xbf16> loc(#loc1168)
    %1055 = stablehlo.reshape %1054 : (tensor<1x1x256xbf16>) -> tensor<256xbf16> loc(#loc1169)
    %1056 = stablehlo.broadcast_in_dim %1055, dims = [1] : (tensor<256xbf16>) -> tensor<1x256x640x360xbf16> loc(#loc1170)
    %1057 = stablehlo.add %1052, %1056 : tensor<1x256x640x360xbf16> loc(#loc1171)
    %1058 = stablehlo.convert %1057 : (tensor<1x256x640x360xbf16>) -> tensor<1x256x640x360xf32> loc(#loc1172)
    %1059 = stablehlo.reshape %1058 : (tensor<1x256x640x360xf32>) -> tensor<1x32x8x230400xf32> loc(#loc1173)
    %1060 = stablehlo.reduce(%1059 init: %cst_19) applies stablehlo.add across dimensions = [2, 3] : (tensor<1x32x8x230400xf32>, tensor<f32>) -> tensor<1x32xf32> loc(#loc1174)
    %1061 = stablehlo.multiply %1060, %cst_3 : tensor<1x32xf32> loc(#loc1175)
    %1062 = stablehlo.broadcast_in_dim %1061, dims = [0, 1] : (tensor<1x32xf32>) -> tensor<1x32x8x230400xf32> loc(#loc1176)
    %1063 = stablehlo.subtract %1059, %1062 : tensor<1x32x8x230400xf32> loc(#loc1177)
    %1064 = stablehlo.multiply %1063, %1063 : tensor<1x32x8x230400xf32> loc(#loc1178)
    %1065 = stablehlo.reduce(%1064 init: %cst_19) applies stablehlo.add across dimensions = [2, 3] : (tensor<1x32x8x230400xf32>, tensor<f32>) -> tensor<1x32xf32> loc(#loc1179)
    %1066 = stablehlo.multiply %1065, %cst_3 : tensor<1x32xf32> loc(#loc1180)
    %1067 = stablehlo.reshape %1066 : (tensor<1x32xf32>) -> tensor<1x32x1x1xf32> loc(#loc1181)
    %1068 = stablehlo.add %1067, %cst_12 : tensor<1x32x1x1xf32> loc(#loc1182)
    %1069 = stablehlo.rsqrt %1068 : tensor<1x32x1x1xf32> loc(#loc1183)
    %1070 = stablehlo.reshape %1069 : (tensor<1x32x1x1xf32>) -> tensor<1x32xf32> loc(#loc1184)
    %1071 = stablehlo.broadcast_in_dim %1070, dims = [0, 1] : (tensor<1x32xf32>) -> tensor<1x32x8x230400xf32> loc(#loc1185)
    %1072 = stablehlo.multiply %1063, %1071 : tensor<1x32x8x230400xf32> loc(#loc1186)
    %1073 = stablehlo.reshape %1072 : (tensor<1x32x8x230400xf32>) -> tensor<1x256x640x360xf32> loc(#loc1187)
    %1074 = stablehlo.reshape %arg9 : (tensor<256xbf16>) -> tensor<1x1x256xbf16> loc(#loc1188)
    %1075 = stablehlo.custom_call @tt.mark_argument(%1074) {api_version = 0 : i32, mhlo.frontend_attributes = {ttcore.argument_type = "parameter", ttir.name = "prefix.decoder.up_blocks.2.resnets.2.norm2.weight"}} : (tensor<1x1x256xbf16>) -> tensor<1x1x256xbf16> loc(#loc1189)
    %1076 = stablehlo.reshape %1075 : (tensor<1x1x256xbf16>) -> tensor<1x256x1x1xbf16> loc(#loc1190)
    %1077 = stablehlo.convert %1076 : (tensor<1x256x1x1xbf16>) -> tensor<1x256x1x1xf32> loc(#loc1191)
    %1078 = stablehlo.reshape %1077 : (tensor<1x256x1x1xf32>) -> tensor<1x256xf32> loc(#loc1192)
    %1079 = stablehlo.broadcast_in_dim %1078, dims = [0, 1] : (tensor<1x256xf32>) -> tensor<1x256x640x360xf32> loc(#loc1193)
    %1080 = stablehlo.multiply %1073, %1079 : tensor<1x256x640x360xf32> loc(#loc1194)
    %1081 = stablehlo.reshape %arg8 : (tensor<256xbf16>) -> tensor<1x1x256xbf16> loc(#loc1195)
    %1082 = stablehlo.custom_call @tt.mark_argument(%1081) {api_version = 0 : i32, mhlo.frontend_attributes = {ttcore.argument_type = "parameter", ttir.name = "prefix.decoder.up_blocks.2.resnets.2.norm2.bias"}} : (tensor<1x1x256xbf16>) -> tensor<1x1x256xbf16> loc(#loc1196)
    %1083 = stablehlo.reshape %1082 : (tensor<1x1x256xbf16>) -> tensor<1x256x1x1xbf16> loc(#loc1197)
    %1084 = stablehlo.convert %1083 : (tensor<1x256x1x1xbf16>) -> tensor<1x256x1x1xf32> loc(#loc1198)
    %1085 = stablehlo.reshape %1084 : (tensor<1x256x1x1xf32>) -> tensor<1x256xf32> loc(#loc1199)
    %1086 = stablehlo.broadcast_in_dim %1085, dims = [0, 1] : (tensor<1x256xf32>) -> tensor<1x256x640x360xf32> loc(#loc1200)
    %1087 = stablehlo.add %1080, %1086 : tensor<1x256x640x360xf32> loc(#loc1201)
    %1088 = stablehlo.convert %1087 : (tensor<1x256x640x360xf32>) -> tensor<1x256x640x360xbf16> loc(#loc1202)
    %1089 = stablehlo.convert %1088 : (tensor<1x256x640x360xbf16>) -> tensor<1x256x640x360xf32> loc(#loc1203)
    %1090 = stablehlo.logistic %1089 : tensor<1x256x640x360xf32> loc(#loc1204)
    %1091 = stablehlo.multiply %1089, %1090 : tensor<1x256x640x360xf32> loc(#loc1205)
    %1092 = stablehlo.convert %1091 : (tensor<1x256x640x360xf32>) -> tensor<1x256x640x360xbf16> loc(#loc1206)
    %1093 = stablehlo.custom_call @tt.mark_argument(%arg7) {api_version = 0 : i32, mhlo.frontend_attributes = {ttcore.argument_type = "parameter", ttir.name = "prefix.decoder.up_blocks.2.resnets.2.conv2.weight"}} : (tensor<256x256x3x3xbf16>) -> tensor<256x256x3x3xbf16> loc(#loc1207)
    %1094 = stablehlo.convolution(%1092, %1093) dim_numbers = [b, f, 0, 1]x[o, i, 0, 1]->[b, f, 0, 1], window = {pad = [[1, 1], [1, 1]]} {batch_group_count = 1 : i64, feature_group_count = 1 : i64} : (tensor<1x256x640x360xbf16>, tensor<256x256x3x3xbf16>) -> tensor<1x256x640x360xbf16> loc(#loc1208)
    %1095 = stablehlo.reshape %arg6 : (tensor<256xbf16>) -> tensor<1x1x256xbf16> loc(#loc1209)
    %1096 = stablehlo.custom_call @tt.mark_argument(%1095) {api_version = 0 : i32, mhlo.frontend_attributes = {ttcore.argument_type = "parameter", ttir.name = "prefix.decoder.up_blocks.2.resnets.2.conv2.bias"}} : (tensor<1x1x256xbf16>) -> tensor<1x1x256xbf16> loc(#loc1210)
    %1097 = stablehlo.reshape %1096 : (tensor<1x1x256xbf16>) -> tensor<256xbf16> loc(#loc1211)
    %1098 = stablehlo.broadcast_in_dim %1097, dims = [1] : (tensor<256xbf16>) -> tensor<1x256x640x360xbf16> loc(#loc1212)
    %1099 = stablehlo.add %1094, %1098 : tensor<1x256x640x360xbf16> loc(#loc1213)
    %1100 = stablehlo.add %1015, %1099 : tensor<1x256x640x360xbf16> loc(#loc1214)
    %1101 = stablehlo.divide %1100, %cst_2 : tensor<1x256x640x360xbf16> loc(#loc1215)
    %1102 = stablehlo.transpose %1101, dims = [0, 1, 3, 2] {result_layout = dense<[2, 3, 1, 0]> : tensor<4xindex>, xla_shape = "bf16[1,256,360,640]{2,3,1,0}"} : (tensor<1x256x640x360xbf16>) -> tensor<1x256x360x640xbf16> loc(#loc1216)
    %1103 = stablehlo.floor %cst_1 : tensor<1280xf64> loc(#loc1217)
    %1104 = stablehlo.convert %1103 : (tensor<1280xf64>) -> tensor<1280xi64> loc(#loc1218)
    %1105 = stablehlo.broadcast_in_dim %1104, dims = [0] : (tensor<1280xi64>) -> tensor<1280x640xi64> loc(#loc1219)
    %1106 = stablehlo.broadcast_in_dim %c_14, dims = [1] : (tensor<640xi64>) -> tensor<1280x640xi64> loc(#loc1220)
    %1107 = stablehlo.compare  EQ, %1105, %1106 : (tensor<1280x640xi64>, tensor<1280x640xi64>) -> tensor<1280x640xi1> loc(#loc1221)
    %1108 = stablehlo.convert %1107 : (tensor<1280x640xi1>) -> tensor<1280x640xi64> loc(#loc1222)
    %1109 = stablehlo.transpose %1108, dims = [1, 0] {result_layout = dense<[0, 1]> : tensor<2xindex>, xla_shape = "s64[640,1280]{0,1}"} : (tensor<1280x640xi64>) -> tensor<640x1280xi64> loc(#loc1223)
    %1110 = stablehlo.convert %1109 {result_layout = dense<[0, 1]> : tensor<2xindex>, xla_shape = "bf16[640,1280]{0,1}"} : (tensor<640x1280xi64>) -> tensor<640x1280xbf16> loc(#loc1224)
    %1111 = stablehlo.dot_general %1102, %1110, contracting_dims = [3] x [0] {mhlo.frontend_attributes = {grad_x = "false", grad_y = "false"}} : (tensor<1x256x360x640xbf16>, tensor<640x1280xbf16>) -> tensor<1x256x360x1280xbf16> loc(#loc1225)
    %1112 = stablehlo.transpose %1111, dims = [0, 1, 3, 2] {result_layout = dense<[2, 3, 1, 0]> : tensor<4xindex>, xla_shape = "bf16[1,256,1280,360]{2,3,1,0}"} : (tensor<1x256x360x1280xbf16>) -> tensor<1x256x1280x360xbf16> loc(#loc1226)
    %1113 = stablehlo.floor %cst_0 : tensor<720xf64> loc(#loc1227)
    %1114 = stablehlo.convert %1113 : (tensor<720xf64>) -> tensor<720xi64> loc(#loc1228)
    %1115 = stablehlo.broadcast_in_dim %1114, dims = [0] : (tensor<720xi64>) -> tensor<720x360xi64> loc(#loc1229)
    %1116 = stablehlo.broadcast_in_dim %c, dims = [1] : (tensor<360xi64>) -> tensor<720x360xi64> loc(#loc1230)
    %1117 = stablehlo.compare  EQ, %1115, %1116 : (tensor<720x360xi64>, tensor<720x360xi64>) -> tensor<720x360xi1> loc(#loc1231)
    %1118 = stablehlo.convert %1117 : (tensor<720x360xi1>) -> tensor<720x360xi64> loc(#loc1232)
    %1119 = stablehlo.transpose %1118, dims = [1, 0] {result_layout = dense<[0, 1]> : tensor<2xindex>, xla_shape = "s64[360,720]{0,1}"} : (tensor<720x360xi64>) -> tensor<360x720xi64> loc(#loc1233)
    %1120 = stablehlo.convert %1119 {result_layout = dense<[0, 1]> : tensor<2xindex>, xla_shape = "bf16[360,720]{0,1}"} : (tensor<360x720xi64>) -> tensor<360x720xbf16> loc(#loc1234)
    %1121 = stablehlo.dot_general %1112, %1120, contracting_dims = [3] x [0] {mhlo.frontend_attributes = {grad_x = "false", grad_y = "false"}} : (tensor<1x256x1280x360xbf16>, tensor<360x720xbf16>) -> tensor<1x256x1280x720xbf16> loc(#loc1235)
    %1122 = stablehlo.custom_call @tt.mark_argument(%arg5) {api_version = 0 : i32, mhlo.frontend_attributes = {ttcore.argument_type = "parameter", ttir.name = "prefix.decoder.up_blocks.2.upsamplers.0.conv.weight"}} : (tensor<256x256x3x3xbf16>) -> tensor<256x256x3x3xbf16> loc(#loc1236)
    %1123 = stablehlo.convolution(%1121, %1122) dim_numbers = [b, f, 0, 1]x[o, i, 0, 1]->[b, f, 0, 1], window = {pad = [[1, 1], [1, 1]]} {batch_group_count = 1 : i64, feature_group_count = 1 : i64} : (tensor<1x256x1280x720xbf16>, tensor<256x256x3x3xbf16>) -> tensor<1x256x1280x720xbf16> loc(#loc1237)
    %1124 = stablehlo.reshape %arg4 : (tensor<256xbf16>) -> tensor<1x1x256xbf16> loc(#loc1238)
    %1125 = stablehlo.custom_call @tt.mark_argument(%1124) {api_version = 0 : i32, mhlo.frontend_attributes = {ttcore.argument_type = "parameter", ttir.name = "prefix.decoder.up_blocks.2.upsamplers.0.conv.bias"}} : (tensor<1x1x256xbf16>) -> tensor<1x1x256xbf16> loc(#loc1239)
    %1126 = stablehlo.reshape %1125 : (tensor<1x1x256xbf16>) -> tensor<256xbf16> loc(#loc1240)
    %1127 = stablehlo.broadcast_in_dim %1126, dims = [1] : (tensor<256xbf16>) -> tensor<1x256x1280x720xbf16> loc(#loc1241)
    %1128 = stablehlo.add %1123, %1127 : tensor<1x256x1280x720xbf16> loc(#loc1242)
    %1129 = stablehlo.convert %1128 : (tensor<1x256x1280x720xbf16>) -> tensor<1x256x1280x720xf32> loc(#loc1243)
    %1130 = stablehlo.reshape %1129 : (tensor<1x256x1280x720xf32>) -> tensor<1x32x8x921600xf32> loc(#loc1244)
    %1131 = stablehlo.reduce(%1130 init: %cst_19) applies stablehlo.add across dimensions = [2, 3] : (tensor<1x32x8x921600xf32>, tensor<f32>) -> tensor<1x32xf32> loc(#loc1245)
    %1132 = stablehlo.multiply %1131, %cst : tensor<1x32xf32> loc(#loc1246)
    %1133 = stablehlo.broadcast_in_dim %1132, dims = [0, 1] : (tensor<1x32xf32>) -> tensor<1x32x8x921600xf32> loc(#loc1247)
    %1134 = stablehlo.subtract %1130, %1133 : tensor<1x32x8x921600xf32> loc(#loc1248)
    %1135 = stablehlo.multiply %1134, %1134 : tensor<1x32x8x921600xf32> loc(#loc1249)
    %1136 = stablehlo.reduce(%1135 init: %cst_19) applies stablehlo.add across dimensions = [2, 3] : (tensor<1x32x8x921600xf32>, tensor<f32>) -> tensor<1x32xf32> loc(#loc1250)
    %1137 = stablehlo.multiply %1136, %cst : tensor<1x32xf32> loc(#loc1251)
    %1138 = stablehlo.reshape %1137 : (tensor<1x32xf32>) -> tensor<1x32x1x1xf32> loc(#loc1252)
    %1139 = stablehlo.add %1138, %cst_12 : tensor<1x32x1x1xf32> loc(#loc1253)
    %1140 = stablehlo.rsqrt %1139 : tensor<1x32x1x1xf32> loc(#loc1254)
    %1141 = stablehlo.reshape %1140 : (tensor<1x32x1x1xf32>) -> tensor<1x32xf32> loc(#loc1255)
    %1142 = stablehlo.broadcast_in_dim %1141, dims = [0, 1] : (tensor<1x32xf32>) -> tensor<1x32x8x921600xf32> loc(#loc1256)
    %1143 = stablehlo.multiply %1134, %1142 : tensor<1x32x8x921600xf32> loc(#loc1257)
    %1144 = stablehlo.reshape %1143 : (tensor<1x32x8x921600xf32>) -> tensor<1x256x1280x720xf32> loc(#loc1258)
    %1145 = stablehlo.reshape %arg3 : (tensor<256xbf16>) -> tensor<1x1x256xbf16> loc(#loc1259)
    %1146 = stablehlo.custom_call @tt.mark_argument(%1145) {api_version = 0 : i32, mhlo.frontend_attributes = {ttcore.argument_type = "parameter", ttir.name = "L__self___up3_resnets_0_norm1.weight"}} : (tensor<1x1x256xbf16>) -> tensor<1x1x256xbf16> loc(#loc1260)
    %1147 = stablehlo.reshape %1146 : (tensor<1x1x256xbf16>) -> tensor<1x256x1x1xbf16> loc(#loc1261)
    %1148 = stablehlo.convert %1147 : (tensor<1x256x1x1xbf16>) -> tensor<1x256x1x1xf32> loc(#loc1262)
    %1149 = stablehlo.reshape %1148 : (tensor<1x256x1x1xf32>) -> tensor<1x256xf32> loc(#loc1263)
    %1150 = stablehlo.broadcast_in_dim %1149, dims = [0, 1] : (tensor<1x256xf32>) -> tensor<1x256x1280x720xf32> loc(#loc1264)
    %1151 = stablehlo.multiply %1144, %1150 : tensor<1x256x1280x720xf32> loc(#loc1265)
    %1152 = stablehlo.reshape %arg2 : (tensor<256xbf16>) -> tensor<1x1x256xbf16> loc(#loc1266)
    %1153 = stablehlo.custom_call @tt.mark_argument(%1152) {api_version = 0 : i32, mhlo.frontend_attributes = {ttcore.argument_type = "parameter", ttir.name = "L__self___up3_resnets_0_norm1.bias"}} : (tensor<1x1x256xbf16>) -> tensor<1x1x256xbf16> loc(#loc1267)
    %1154 = stablehlo.reshape %1153 : (tensor<1x1x256xbf16>) -> tensor<1x256x1x1xbf16> loc(#loc1268)
    %1155 = stablehlo.convert %1154 : (tensor<1x256x1x1xbf16>) -> tensor<1x256x1x1xf32> loc(#loc1269)
    %1156 = stablehlo.reshape %1155 : (tensor<1x256x1x1xf32>) -> tensor<1x256xf32> loc(#loc1270)
    %1157 = stablehlo.broadcast_in_dim %1156, dims = [0, 1] : (tensor<1x256xf32>) -> tensor<1x256x1280x720xf32> loc(#loc1271)
    %1158 = stablehlo.add %1151, %1157 : tensor<1x256x1280x720xf32> loc(#loc1272)
    %1159 = stablehlo.convert %1158 : (tensor<1x256x1280x720xf32>) -> tensor<1x256x1280x720xbf16> loc(#loc1273)
    %1160 = stablehlo.convert %1159 : (tensor<1x256x1280x720xbf16>) -> tensor<1x256x1280x720xf32> loc(#loc1274)
    %1161 = stablehlo.logistic %1160 : tensor<1x256x1280x720xf32> loc(#loc1275)
    %1162 = stablehlo.multiply %1160, %1161 : tensor<1x256x1280x720xf32> loc(#loc1276)
    %1163 = stablehlo.convert %1162 : (tensor<1x256x1280x720xf32>) -> tensor<1x256x1280x720xbf16> loc(#loc1277)
    %1164 = stablehlo.custom_call @tt.mark_argument(%arg1) {api_version = 0 : i32, mhlo.frontend_attributes = {ttcore.argument_type = "parameter", ttir.name = "L__self___up3_resnets_0_conv1.weight"}} : (tensor<128x256x3x3xbf16>) -> tensor<128x256x3x3xbf16> loc(#loc1278)
    %1165 = stablehlo.convolution(%1163, %1164) dim_numbers = [b, f, 0, 1]x[o, i, 0, 1]->[b, f, 0, 1], window = {pad = [[1, 1], [1, 1]]} {batch_group_count = 1 : i64, feature_group_count = 1 : i64} : (tensor<1x256x1280x720xbf16>, tensor<128x256x3x3xbf16>) -> tensor<1x128x1280x720xbf16> loc(#loc1279)
    %1166 = stablehlo.reshape %arg0 : (tensor<128xbf16>) -> tensor<1x1x128xbf16> loc(#loc1280)
    %1167 = stablehlo.custom_call @tt.mark_argument(%1166) {api_version = 0 : i32, mhlo.frontend_attributes = {ttcore.argument_type = "parameter", ttir.name = "L__self___up3_resnets_0_conv1.bias"}} : (tensor<1x1x128xbf16>) -> tensor<1x1x128xbf16> loc(#loc1281)
    %1168 = stablehlo.reshape %1167 : (tensor<1x1x128xbf16>) -> tensor<128xbf16> loc(#loc1282)
    %1169 = stablehlo.broadcast_in_dim %1168, dims = [1] : (tensor<128xbf16>) -> tensor<1x128x1280x720xbf16> loc(#loc1283)
    %1170 = stablehlo.add %1165, %1169 : tensor<1x128x1280x720xbf16> loc(#loc1284)
    return %1170 : tensor<1x128x1280x720xbf16> loc(#loc)
  } loc(#loc)
  func.func private @tenstorrent.scaled_dot_product_attention.impl(%arg0: tensor<1x1x14400x512xbf16> loc("custom-call.1060"), %arg1: tensor<1x1x14400x512xbf16> loc("custom-call.1035"), %arg2: tensor<1x1x14400x512xbf16> loc("custom-call.1013")) -> tensor<1x1x14400x512xbf16> {
    %cst = stablehlo.constant dense<0.000000e+00> : tensor<1x1x14400x14400xf32> loc(#loc)
    %cst_0 = stablehlo.constant dense<0xFFF0000000000000> : tensor<1x1x14400x14400xf64> loc(#loc)
    %cst_1 = stablehlo.constant dense<0.210224107> : tensor<1x1x512x14400xf32> loc(#loc)
    %cst_2 = stablehlo.constant dense<0.210224107> : tensor<1x1x14400x512xf32> loc(#loc)
    %cst_3 = stablehlo.constant dense<0xFF800000> : tensor<f32> loc(#loc)
    %c = stablehlo.constant dense<true> : tensor<i1> loc(#loc)
    %c_4 = stablehlo.constant dense<false> : tensor<i1> loc(#loc)
    %cst_5 = stablehlo.constant dense<0.000000e+00> : tensor<f32> loc(#loc)
    %0 = stablehlo.convert %arg0 {result_layout = dense<[3, 1, 2, 0]> : tensor<4xindex>, xla_shape = "f32[1,1,14400,512]{3,1,2,0}"} : (tensor<1x1x14400x512xbf16>) -> tensor<1x1x14400x512xf32> loc(#loc1288)
    %1 = stablehlo.multiply %0, %cst_2 : tensor<1x1x14400x512xf32> loc(#loc1289)
    %2 = stablehlo.convert %arg1 {result_layout = dense<[3, 1, 2, 0]> : tensor<4xindex>, xla_shape = "f32[1,1,14400,512]{3,1,2,0}"} : (tensor<1x1x14400x512xbf16>) -> tensor<1x1x14400x512xf32> loc(#loc1290)
    %3 = stablehlo.transpose %2, dims = [0, 1, 3, 2] {result_layout = dense<[2, 1, 3, 0]> : tensor<4xindex>, xla_shape = "f32[1,1,512,14400]{2,1,3,0}"} : (tensor<1x1x14400x512xf32>) -> tensor<1x1x512x14400xf32> loc(#loc1291)
    %4 = stablehlo.multiply %3, %cst_1 : tensor<1x1x512x14400xf32> loc(#loc1292)
    %5 = stablehlo.dot_general %1, %4, batching_dims = [0, 1] x [0, 1], contracting_dims = [3] x [2] {mhlo.frontend_attributes = {grad_x = "false", grad_y = "false"}} : (tensor<1x1x14400x512xf32>, tensor<1x1x512x14400xf32>) -> tensor<1x1x14400x14400xf32> loc(#loc1293)
    %6 = stablehlo.convert %5 : (tensor<1x1x14400x14400xf32>) -> tensor<1x1x14400x14400xf64> loc(#loc1294)
    %7 = stablehlo.compare  EQ, %6, %cst_0 : (tensor<1x1x14400x14400xf64>, tensor<1x1x14400x14400xf64>) -> tensor<1x1x14400x14400xi1> loc(#loc1295)
    %8 = stablehlo.not %7 : tensor<1x1x14400x14400xi1> loc(#loc1296)
    %9 = stablehlo.reduce(%8 init: %c_4) across dimensions = [3] : (tensor<1x1x14400x14400xi1>, tensor<i1>) -> tensor<1x1x14400xi1>
     reducer(%arg3: tensor<i1> loc("reduce.1107"), %arg4: tensor<i1> loc("reduce.1107"))  {
      %25 = stablehlo.or %arg3, %arg4 : tensor<i1> loc(#loc1298)
      %26 = stablehlo.select %25, %c, %c_4 : tensor<i1>, tensor<i1> loc(#loc1299)
      stablehlo.return %26 : tensor<i1> loc(#loc)
    } loc(#loc1297)
    %10 = stablehlo.reshape %9 : (tensor<1x1x14400xi1>) -> tensor<1x1x14400x1xi1> loc(#loc1300)
    %11 = stablehlo.not %10 : tensor<1x1x14400x1xi1> loc(#loc1301)
    %12 = stablehlo.reshape %11 : (tensor<1x1x14400x1xi1>) -> tensor<1x1x14400xi1> loc(#loc1302)
    %13 = stablehlo.broadcast_in_dim %12, dims = [0, 1, 2] : (tensor<1x1x14400xi1>) -> tensor<1x1x14400x14400xi1> loc(#loc1303)
    %14 = stablehlo.reduce(%5 init: %cst_3) applies stablehlo.maximum across dimensions = [3] : (tensor<1x1x14400x14400xf32>, tensor<f32>) -> tensor<1x1x14400xf32> loc(#loc1304)
    %15 = stablehlo.broadcast_in_dim %14, dims = [0, 1, 2] : (tensor<1x1x14400xf32>) -> tensor<1x1x14400x14400xf32> loc(#loc1305)
    %16 = stablehlo.subtract %5, %15 : tensor<1x1x14400x14400xf32> loc(#loc1306)
    %17 = stablehlo.exponential %16 : tensor<1x1x14400x14400xf32> loc(#loc1307)
    %18 = stablehlo.reduce(%17 init: %cst_5) applies stablehlo.add across dimensions = [3] : (tensor<1x1x14400x14400xf32>, tensor<f32>) -> tensor<1x1x14400xf32> loc(#loc1308)
    %19 = stablehlo.broadcast_in_dim %18, dims = [0, 1, 2] : (tensor<1x1x14400xf32>) -> tensor<1x1x14400x14400xf32> loc(#loc1309)
    %20 = stablehlo.divide %17, %19 : tensor<1x1x14400x14400xf32> loc(#loc1310)
    %21 = stablehlo.select %13, %cst, %20 : tensor<1x1x14400x14400xi1>, tensor<1x1x14400x14400xf32> loc(#loc1311)
    %22 = stablehlo.convert %arg2 {result_layout = dense<[3, 1, 2, 0]> : tensor<4xindex>, xla_shape = "f32[1,1,14400,512]{3,1,2,0}"} : (tensor<1x1x14400x512xbf16>) -> tensor<1x1x14400x512xf32> loc(#loc1312)
    %23 = stablehlo.dot_general %21, %22, batching_dims = [0, 1] x [0, 1], contracting_dims = [3] x [2] {mhlo.frontend_attributes = {grad_x = "false", grad_y = "false"}} : (tensor<1x1x14400x14400xf32>, tensor<1x1x14400x512xf32>) -> tensor<1x1x14400x512xf32> loc(#loc1313)
    %24 = stablehlo.convert %23 : (tensor<1x1x14400x512xf32>) -> tensor<1x1x14400x512xbf16> loc(#loc1314)
    return %24 : tensor<1x1x14400x512xbf16> loc(#loc)
  } loc(#loc)
} loc(#loc)
#loc = loc(unknown)
#loc114 = loc("custom-call.692")
#loc115 = loc("custom-call.690")
#loc116 = loc("convolution.693")
#loc117 = loc("reshape.686")
#loc118 = loc("custom-call.687")
#loc119 = loc("reshape.688")
#loc120 = loc("transpose.695")
#loc121 = loc("add.696")
#loc122 = loc("convert.697")
#loc123 = loc("reshape.698")
#loc124 = loc("reduce.744")
#loc125 = loc("multiply.753")
#loc126 = loc("broadcast.763")
#loc127 = loc("subtract.764")
#loc128 = loc("multiply.720")
#loc129 = loc("reduce.727")
#loc130 = loc("multiply.736")
#loc131 = loc("reshape.737")
#loc132 = loc("add.757")
#loc133 = loc("rsqrt.758")
#loc134 = loc("reshape.765")
#loc135 = loc("broadcast.766")
#loc136 = loc("multiply.767")
#loc137 = loc("reshape.768")
#loc138 = loc("reshape.676")
#loc139 = loc("custom-call.677")
#loc140 = loc("reshape.681")
#loc141 = loc("convert.682")
#loc142 = loc("reshape.769")
#loc143 = loc("broadcast.770")
#loc144 = loc("multiply.771")
#loc145 = loc("reshape.669")
#loc146 = loc("custom-call.670")
#loc147 = loc("reshape.674")
#loc148 = loc("convert.772")
#loc149 = loc("reshape.775")
#loc150 = loc("broadcast.776")
#loc151 = loc("add.777")
#loc152 = loc("convert.778")
#loc153 = loc("convert.779")
#loc154 = loc("logistic.780")
#loc155 = loc("multiply.781")
#loc156 = loc("convert.782")
#loc157 = loc("custom-call.666")
#loc158 = loc("convolution.783")
#loc159 = loc("reshape.662")
#loc160 = loc("custom-call.663")
#loc161 = loc("reshape.664")
#loc162 = loc("transpose.785")
#loc163 = loc("add.786")
#loc164 = loc("convert.787")
#loc165 = loc("reshape.788")
#loc166 = loc("reduce.834")
#loc167 = loc("multiply.843")
#loc168 = loc("broadcast.853")
#loc169 = loc("subtract.854")
#loc170 = loc("multiply.810")
#loc171 = loc("reduce.817")
#loc172 = loc("multiply.826")
#loc173 = loc("reshape.827")
#loc174 = loc("add.847")
#loc175 = loc("rsqrt.848")
#loc176 = loc("reshape.855")
#loc177 = loc("broadcast.856")
#loc178 = loc("multiply.857")
#loc179 = loc("reshape.858")
#loc180 = loc("reshape.652")
#loc181 = loc("custom-call.653")
#loc182 = loc("reshape.657")
#loc183 = loc("convert.658")
#loc184 = loc("reshape.859")
#loc185 = loc("broadcast.860")
#loc186 = loc("multiply.861")
#loc187 = loc("reshape.645")
#loc188 = loc("custom-call.646")
#loc189 = loc("reshape.650")
#loc190 = loc("convert.862")
#loc191 = loc("reshape.865")
#loc192 = loc("broadcast.866")
#loc193 = loc("add.867")
#loc194 = loc("convert.868")
#loc195 = loc("convert.869")
#loc196 = loc("logistic.870")
#loc197 = loc("multiply.871")
#loc198 = loc("convert.872")
#loc199 = loc("custom-call.642")
#loc200 = loc("convolution.873")
#loc201 = loc("reshape.638")
#loc202 = loc("custom-call.639")
#loc203 = loc("reshape.640")
#loc204 = loc("transpose.875")
#loc205 = loc("add.876")
#loc206 = loc("add.879")
#loc207 = loc("divide.881")
#loc208 = loc("reshape.918")
#loc209 = loc("convert.921")
#loc210 = loc("reshape.922")
#loc211 = loc("reduce.968")
#loc212 = loc("multiply.977")
#loc213 = loc("broadcast.987")
#loc214 = loc("subtract.988")
#loc215 = loc("multiply.944")
#loc216 = loc("reduce.951")
#loc217 = loc("multiply.960")
#loc218 = loc("reshape.961")
#loc219 = loc("add.981")
#loc220 = loc("rsqrt.982")
#loc221 = loc("reshape.989")
#loc222 = loc("broadcast.990")
#loc223 = loc("multiply.991")
#loc224 = loc("reshape.992")
#loc225 = loc("reshape.910")
#loc226 = loc("custom-call.911")
#loc227 = loc("reshape.914")
#loc228 = loc("convert.915")
#loc229 = loc("reshape.993")
#loc230 = loc("broadcast.994")
#loc231 = loc("multiply.995")
#loc232 = loc("reshape.904")
#loc233 = loc("custom-call.905")
#loc234 = loc("reshape.908")
#loc235 = loc("convert.996")
#loc236 = loc("reshape.999")
#loc237 = loc("broadcast.1000")
#loc238 = loc("add.1001")
#loc239 = loc("convert.1002")
#loc240 = loc("transpose.1003")
#loc241 = loc("reshape.1051")
#loc242 = loc("reshape.1047")
#loc243 = loc("custom-call.1048")
#loc244 = loc("reshape.1049")
#loc245 = loc("transpose.1050")
#loc246 = loc("dot.1052")
#loc247 = loc("reshape.1053")
#loc248 = loc("reshape.1043")
#loc249 = loc("custom-call.1044")
#loc250 = loc("reshape.1045")
#loc251 = loc("broadcast.1056")
#loc252 = loc("add.1057")
#loc253 = loc("transpose.1059")
#loc254 = loc("reshape.1022")
#loc255 = loc("custom-call.1023")
#loc256 = loc("reshape.1024")
#loc257 = loc("transpose.1025")
#loc258 = loc("dot.1027")
#loc259 = loc("reshape.1028")
#loc260 = loc("reshape.1018")
#loc261 = loc("custom-call.1019")
#loc262 = loc("reshape.1020")
#loc263 = loc("broadcast.1031")
#loc264 = loc("add.1032")
#loc265 = loc("transpose.1034")
#loc266 = loc("reshape.898")
#loc267 = loc("custom-call.899")
#loc268 = loc("reshape.900")
#loc269 = loc("transpose.901")
#loc270 = loc("dot.1005")
#loc271 = loc("reshape.1006")
#loc272 = loc("reshape.894")
#loc273 = loc("custom-call.895")
#loc274 = loc("reshape.896")
#loc275 = loc("broadcast.1009")
#loc276 = loc("add.1010")
#loc277 = loc("transpose.1012")
#loc278 = loc("custom-call.1121")
#loc279 = loc("reshape.1124")
#loc280 = loc("reshape.888")
#loc281 = loc("custom-call.889")
#loc282 = loc("reshape.890")
#loc283 = loc("transpose.891")
#loc284 = loc("dot.1125")
#loc285 = loc("reshape.1126")
#loc286 = loc("reshape.884")
#loc287 = loc("custom-call.885")
#loc288 = loc("reshape.886")
#loc289 = loc("broadcast.1129")
#loc290 = loc("add.1130")
#loc291 = loc("transpose.1131")
#loc292 = loc("reshape.1132")
#loc293 = loc("add.1135")
#loc294 = loc("divide.1137")
#loc295 = loc("convert.1138")
#loc296 = loc("reshape.1139")
#loc297 = loc("reduce.1185")
#loc298 = loc("multiply.1194")
#loc299 = loc("broadcast.1204")
#loc300 = loc("subtract.1205")
#loc301 = loc("multiply.1161")
#loc302 = loc("reduce.1168")
#loc303 = loc("multiply.1177")
#loc304 = loc("reshape.1178")
#loc305 = loc("add.1198")
#loc306 = loc("rsqrt.1199")
#loc307 = loc("reshape.1206")
#loc308 = loc("broadcast.1207")
#loc309 = loc("multiply.1208")
#loc310 = loc("reshape.1209")
#loc311 = loc("reshape.624")
#loc312 = loc("custom-call.625")
#loc313 = loc("reshape.629")
#loc314 = loc("convert.630")
#loc315 = loc("reshape.1210")
#loc316 = loc("broadcast.1211")
#loc317 = loc("multiply.1212")
#loc318 = loc("reshape.617")
#loc319 = loc("custom-call.618")
#loc320 = loc("reshape.622")
#loc321 = loc("convert.1213")
#loc322 = loc("reshape.1216")
#loc323 = loc("broadcast.1217")
#loc324 = loc("add.1218")
#loc325 = loc("convert.1219")
#loc326 = loc("convert.1220")
#loc327 = loc("logistic.1221")
#loc328 = loc("multiply.1222")
#loc329 = loc("convert.1223")
#loc330 = loc("custom-call.614")
#loc331 = loc("convolution.1224")
#loc332 = loc("reshape.610")
#loc333 = loc("custom-call.611")
#loc334 = loc("reshape.612")
#loc335 = loc("transpose.1226")
#loc336 = loc("add.1227")
#loc337 = loc("convert.1228")
#loc338 = loc("reshape.1229")
#loc339 = loc("reduce.1275")
#loc340 = loc("multiply.1284")
#loc341 = loc("broadcast.1294")
#loc342 = loc("subtract.1295")
#loc343 = loc("multiply.1251")
#loc344 = loc("reduce.1258")
#loc345 = loc("multiply.1267")
#loc346 = loc("reshape.1268")
#loc347 = loc("add.1288")
#loc348 = loc("rsqrt.1289")
#loc349 = loc("reshape.1296")
#loc350 = loc("broadcast.1297")
#loc351 = loc("multiply.1298")
#loc352 = loc("reshape.1299")
#loc353 = loc("reshape.600")
#loc354 = loc("custom-call.601")
#loc355 = loc("reshape.605")
#loc356 = loc("convert.606")
#loc357 = loc("reshape.1300")
#loc358 = loc("broadcast.1301")
#loc359 = loc("multiply.1302")
#loc360 = loc("reshape.593")
#loc361 = loc("custom-call.594")
#loc362 = loc("reshape.598")
#loc363 = loc("convert.1303")
#loc364 = loc("reshape.1306")
#loc365 = loc("broadcast.1307")
#loc366 = loc("add.1308")
#loc367 = loc("convert.1309")
#loc368 = loc("convert.1310")
#loc369 = loc("logistic.1311")
#loc370 = loc("multiply.1312")
#loc371 = loc("convert.1313")
#loc372 = loc("custom-call.590")
#loc373 = loc("convolution.1314")
#loc374 = loc("reshape.586")
#loc375 = loc("custom-call.587")
#loc376 = loc("reshape.588")
#loc377 = loc("transpose.1316")
#loc378 = loc("add.1317")
#loc379 = loc("add.1320")
#loc380 = loc("divide.1322")
#loc381 = loc("convert.1323")
#loc382 = loc("reshape.1324")
#loc383 = loc("reduce.1370")
#loc384 = loc("multiply.1379")
#loc385 = loc("broadcast.1389")
#loc386 = loc("subtract.1390")
#loc387 = loc("multiply.1346")
#loc388 = loc("reduce.1353")
#loc389 = loc("multiply.1362")
#loc390 = loc("reshape.1363")
#loc391 = loc("add.1383")
#loc392 = loc("rsqrt.1384")
#loc393 = loc("reshape.1391")
#loc394 = loc("broadcast.1392")
#loc395 = loc("multiply.1393")
#loc396 = loc("reshape.1394")
#loc397 = loc("reshape.574")
#loc398 = loc("custom-call.575")
#loc399 = loc("reshape.579")
#loc400 = loc("convert.580")
#loc401 = loc("reshape.1395")
#loc402 = loc("broadcast.1396")
#loc403 = loc("multiply.1397")
#loc404 = loc("reshape.567")
#loc405 = loc("custom-call.568")
#loc406 = loc("reshape.572")
#loc407 = loc("convert.1398")
#loc408 = loc("reshape.1401")
#loc409 = loc("broadcast.1402")
#loc410 = loc("add.1403")
#loc411 = loc("convert.1404")
#loc412 = loc("convert.1405")
#loc413 = loc("logistic.1406")
#loc414 = loc("multiply.1407")
#loc415 = loc("convert.1408")
#loc416 = loc("custom-call.564")
#loc417 = loc("convolution.1409")
#loc418 = loc("reshape.560")
#loc419 = loc("custom-call.561")
#loc420 = loc("reshape.562")
#loc421 = loc("transpose.1411")
#loc422 = loc("add.1412")
#loc423 = loc("convert.1413")
#loc424 = loc("reshape.1414")
#loc425 = loc("reduce.1460")
#loc426 = loc("multiply.1469")
#loc427 = loc("broadcast.1479")
#loc428 = loc("subtract.1480")
#loc429 = loc("multiply.1436")
#loc430 = loc("reduce.1443")
#loc431 = loc("multiply.1452")
#loc432 = loc("reshape.1453")
#loc433 = loc("add.1473")
#loc434 = loc("rsqrt.1474")
#loc435 = loc("reshape.1481")
#loc436 = loc("broadcast.1482")
#loc437 = loc("multiply.1483")
#loc438 = loc("reshape.1484")
#loc439 = loc("reshape.550")
#loc440 = loc("custom-call.551")
#loc441 = loc("reshape.555")
#loc442 = loc("convert.556")
#loc443 = loc("reshape.1485")
#loc444 = loc("broadcast.1486")
#loc445 = loc("multiply.1487")
#loc446 = loc("reshape.543")
#loc447 = loc("custom-call.544")
#loc448 = loc("reshape.548")
#loc449 = loc("convert.1488")
#loc450 = loc("reshape.1491")
#loc451 = loc("broadcast.1492")
#loc452 = loc("add.1493")
#loc453 = loc("convert.1494")
#loc454 = loc("convert.1495")
#loc455 = loc("logistic.1496")
#loc456 = loc("multiply.1497")
#loc457 = loc("convert.1498")
#loc458 = loc("custom-call.540")
#loc459 = loc("convolution.1499")
#loc460 = loc("reshape.536")
#loc461 = loc("custom-call.537")
#loc462 = loc("reshape.538")
#loc463 = loc("transpose.1501")
#loc464 = loc("add.1502")
#loc465 = loc("add.1505")
#loc466 = loc("divide.1507")
#loc467 = loc("convert.1508")
#loc468 = loc("reshape.1509")
#loc469 = loc("reduce.1555")
#loc470 = loc("multiply.1564")
#loc471 = loc("broadcast.1574")
#loc472 = loc("subtract.1575")
#loc473 = loc("multiply.1531")
#loc474 = loc("reduce.1538")
#loc475 = loc("multiply.1547")
#loc476 = loc("reshape.1548")
#loc477 = loc("add.1568")
#loc478 = loc("rsqrt.1569")
#loc479 = loc("reshape.1576")
#loc480 = loc("broadcast.1577")
#loc481 = loc("multiply.1578")
#loc482 = loc("reshape.1579")
#loc483 = loc("reshape.524")
#loc484 = loc("custom-call.525")
#loc485 = loc("reshape.529")
#loc486 = loc("convert.530")
#loc487 = loc("reshape.1580")
#loc488 = loc("broadcast.1581")
#loc489 = loc("multiply.1582")
#loc490 = loc("reshape.517")
#loc491 = loc("custom-call.518")
#loc492 = loc("reshape.522")
#loc493 = loc("convert.1583")
#loc494 = loc("reshape.1586")
#loc495 = loc("broadcast.1587")
#loc496 = loc("add.1588")
#loc497 = loc("convert.1589")
#loc498 = loc("convert.1590")
#loc499 = loc("logistic.1591")
#loc500 = loc("multiply.1592")
#loc501 = loc("convert.1593")
#loc502 = loc("custom-call.514")
#loc503 = loc("convolution.1594")
#loc504 = loc("reshape.510")
#loc505 = loc("custom-call.511")
#loc506 = loc("reshape.512")
#loc507 = loc("transpose.1596")
#loc508 = loc("add.1597")
#loc509 = loc("convert.1598")
#loc510 = loc("reshape.1599")
#loc511 = loc("reduce.1645")
#loc512 = loc("multiply.1654")
#loc513 = loc("broadcast.1664")
#loc514 = loc("subtract.1665")
#loc515 = loc("multiply.1621")
#loc516 = loc("reduce.1628")
#loc517 = loc("multiply.1637")
#loc518 = loc("reshape.1638")
#loc519 = loc("add.1658")
#loc520 = loc("rsqrt.1659")
#loc521 = loc("reshape.1666")
#loc522 = loc("broadcast.1667")
#loc523 = loc("multiply.1668")
#loc524 = loc("reshape.1669")
#loc525 = loc("reshape.500")
#loc526 = loc("custom-call.501")
#loc527 = loc("reshape.505")
#loc528 = loc("convert.506")
#loc529 = loc("reshape.1670")
#loc530 = loc("broadcast.1671")
#loc531 = loc("multiply.1672")
#loc532 = loc("reshape.493")
#loc533 = loc("custom-call.494")
#loc534 = loc("reshape.498")
#loc535 = loc("convert.1673")
#loc536 = loc("reshape.1676")
#loc537 = loc("broadcast.1677")
#loc538 = loc("add.1678")
#loc539 = loc("convert.1679")
#loc540 = loc("convert.1680")
#loc541 = loc("logistic.1681")
#loc542 = loc("multiply.1682")
#loc543 = loc("convert.1683")
#loc544 = loc("custom-call.490")
#loc545 = loc("convolution.1684")
#loc546 = loc("reshape.486")
#loc547 = loc("custom-call.487")
#loc548 = loc("reshape.488")
#loc549 = loc("transpose.1686")
#loc550 = loc("add.1687")
#loc551 = loc("add.1690")
#loc552 = loc("divide.1692")
#loc553 = loc("convert.1693")
#loc554 = loc("reshape.1694")
#loc555 = loc("reduce.1740")
#loc556 = loc("multiply.1749")
#loc557 = loc("broadcast.1759")
#loc558 = loc("subtract.1760")
#loc559 = loc("multiply.1716")
#loc560 = loc("reduce.1723")
#loc561 = loc("multiply.1732")
#loc562 = loc("reshape.1733")
#loc563 = loc("add.1753")
#loc564 = loc("rsqrt.1754")
#loc565 = loc("reshape.1761")
#loc566 = loc("broadcast.1762")
#loc567 = loc("multiply.1763")
#loc568 = loc("reshape.1764")
#loc569 = loc("reshape.474")
#loc570 = loc("custom-call.475")
#loc571 = loc("reshape.479")
#loc572 = loc("convert.480")
#loc573 = loc("reshape.1765")
#loc574 = loc("broadcast.1766")
#loc575 = loc("multiply.1767")
#loc576 = loc("reshape.467")
#loc577 = loc("custom-call.468")
#loc578 = loc("reshape.472")
#loc579 = loc("convert.1768")
#loc580 = loc("reshape.1771")
#loc581 = loc("broadcast.1772")
#loc582 = loc("add.1773")
#loc583 = loc("convert.1774")
#loc584 = loc("convert.1775")
#loc585 = loc("logistic.1776")
#loc586 = loc("multiply.1777")
#loc587 = loc("convert.1778")
#loc588 = loc("custom-call.464")
#loc589 = loc("convolution.1779")
#loc590 = loc("reshape.460")
#loc591 = loc("custom-call.461")
#loc592 = loc("reshape.462")
#loc593 = loc("transpose.1781")
#loc594 = loc("add.1782")
#loc595 = loc("convert.1783")
#loc596 = loc("reshape.1784")
#loc597 = loc("reduce.1830")
#loc598 = loc("multiply.1839")
#loc599 = loc("broadcast.1849")
#loc600 = loc("subtract.1850")
#loc601 = loc("multiply.1806")
#loc602 = loc("reduce.1813")
#loc603 = loc("multiply.1822")
#loc604 = loc("reshape.1823")
#loc605 = loc("add.1843")
#loc606 = loc("rsqrt.1844")
#loc607 = loc("reshape.1851")
#loc608 = loc("broadcast.1852")
#loc609 = loc("multiply.1853")
#loc610 = loc("reshape.1854")
#loc611 = loc("reshape.450")
#loc612 = loc("custom-call.451")
#loc613 = loc("reshape.455")
#loc614 = loc("convert.456")
#loc615 = loc("reshape.1855")
#loc616 = loc("broadcast.1856")
#loc617 = loc("multiply.1857")
#loc618 = loc("reshape.443")
#loc619 = loc("custom-call.444")
#loc620 = loc("reshape.448")
#loc621 = loc("convert.1858")
#loc622 = loc("reshape.1861")
#loc623 = loc("broadcast.1862")
#loc624 = loc("add.1863")
#loc625 = loc("convert.1864")
#loc626 = loc("convert.1865")
#loc627 = loc("logistic.1866")
#loc628 = loc("multiply.1867")
#loc629 = loc("convert.1868")
#loc630 = loc("custom-call.440")
#loc631 = loc("convolution.1869")
#loc632 = loc("reshape.436")
#loc633 = loc("custom-call.437")
#loc634 = loc("reshape.438")
#loc635 = loc("transpose.1871")
#loc636 = loc("add.1872")
#loc637 = loc("add.1875")
#loc638 = loc("divide.1877")
#loc639 = loc("transpose.1878")
#loc640 = loc("floor.423")
#loc641 = loc("convert.424")
#loc642 = loc("broadcast.428")
#loc643 = loc("broadcast.426")
#loc644 = loc("compare.429")
#loc645 = loc("convert.430")
#loc646 = loc("transpose.431")
#loc647 = loc("convert.432")
#loc648 = loc("dot.1879")
#loc649 = loc("transpose.1881")
#loc650 = loc("floor.408")
#loc651 = loc("convert.409")
#loc652 = loc("broadcast.413")
#loc653 = loc("broadcast.411")
#loc654 = loc("compare.414")
#loc655 = loc("convert.415")
#loc656 = loc("transpose.416")
#loc657 = loc("convert.417")
#loc658 = loc("dot.1882")
#loc659 = loc("custom-call.402")
#loc660 = loc("convolution.1884")
#loc661 = loc("reshape.398")
#loc662 = loc("custom-call.399")
#loc663 = loc("reshape.400")
#loc664 = loc("transpose.1886")
#loc665 = loc("add.1887")
#loc666 = loc("convert.1888")
#loc667 = loc("reshape.1889")
#loc668 = loc("reduce.1935")
#loc669 = loc("multiply.1944")
#loc670 = loc("broadcast.1954")
#loc671 = loc("subtract.1955")
#loc672 = loc("multiply.1911")
#loc673 = loc("reduce.1918")
#loc674 = loc("multiply.1927")
#loc675 = loc("reshape.1928")
#loc676 = loc("add.1948")
#loc677 = loc("rsqrt.1949")
#loc678 = loc("reshape.1956")
#loc679 = loc("broadcast.1957")
#loc680 = loc("multiply.1958")
#loc681 = loc("reshape.1959")
#loc682 = loc("reshape.388")
#loc683 = loc("custom-call.389")
#loc684 = loc("reshape.393")
#loc685 = loc("convert.394")
#loc686 = loc("reshape.1960")
#loc687 = loc("broadcast.1961")
#loc688 = loc("multiply.1962")
#loc689 = loc("reshape.381")
#loc690 = loc("custom-call.382")
#loc691 = loc("reshape.386")
#loc692 = loc("convert.1963")
#loc693 = loc("reshape.1966")
#loc694 = loc("broadcast.1967")
#loc695 = loc("add.1968")
#loc696 = loc("convert.1969")
#loc697 = loc("convert.1970")
#loc698 = loc("logistic.1971")
#loc699 = loc("multiply.1972")
#loc700 = loc("convert.1973")
#loc701 = loc("custom-call.378")
#loc702 = loc("convolution.1974")
#loc703 = loc("reshape.374")
#loc704 = loc("custom-call.375")
#loc705 = loc("reshape.376")
#loc706 = loc("transpose.1976")
#loc707 = loc("add.1977")
#loc708 = loc("convert.1978")
#loc709 = loc("reshape.1979")
#loc710 = loc("reduce.2025")
#loc711 = loc("multiply.2034")
#loc712 = loc("broadcast.2044")
#loc713 = loc("subtract.2045")
#loc714 = loc("multiply.2001")
#loc715 = loc("reduce.2008")
#loc716 = loc("multiply.2017")
#loc717 = loc("reshape.2018")
#loc718 = loc("add.2038")
#loc719 = loc("rsqrt.2039")
#loc720 = loc("reshape.2046")
#loc721 = loc("broadcast.2047")
#loc722 = loc("multiply.2048")
#loc723 = loc("reshape.2049")
#loc724 = loc("reshape.364")
#loc725 = loc("custom-call.365")
#loc726 = loc("reshape.369")
#loc727 = loc("convert.370")
#loc728 = loc("reshape.2050")
#loc729 = loc("broadcast.2051")
#loc730 = loc("multiply.2052")
#loc731 = loc("reshape.357")
#loc732 = loc("custom-call.358")
#loc733 = loc("reshape.362")
#loc734 = loc("convert.2053")
#loc735 = loc("reshape.2056")
#loc736 = loc("broadcast.2057")
#loc737 = loc("add.2058")
#loc738 = loc("convert.2059")
#loc739 = loc("convert.2060")
#loc740 = loc("logistic.2061")
#loc741 = loc("multiply.2062")
#loc742 = loc("convert.2063")
#loc743 = loc("custom-call.354")
#loc744 = loc("convolution.2064")
#loc745 = loc("reshape.350")
#loc746 = loc("custom-call.351")
#loc747 = loc("reshape.352")
#loc748 = loc("transpose.2066")
#loc749 = loc("add.2067")
#loc750 = loc("add.2070")
#loc751 = loc("divide.2072")
#loc752 = loc("convert.2073")
#loc753 = loc("reshape.2074")
#loc754 = loc("reduce.2120")
#loc755 = loc("multiply.2129")
#loc756 = loc("broadcast.2139")
#loc757 = loc("subtract.2140")
#loc758 = loc("multiply.2096")
#loc759 = loc("reduce.2103")
#loc760 = loc("multiply.2112")
#loc761 = loc("reshape.2113")
#loc762 = loc("add.2133")
#loc763 = loc("rsqrt.2134")
#loc764 = loc("reshape.2141")
#loc765 = loc("broadcast.2142")
#loc766 = loc("multiply.2143")
#loc767 = loc("reshape.2144")
#loc768 = loc("reshape.338")
#loc769 = loc("custom-call.339")
#loc770 = loc("reshape.343")
#loc771 = loc("convert.344")
#loc772 = loc("reshape.2145")
#loc773 = loc("broadcast.2146")
#loc774 = loc("multiply.2147")
#loc775 = loc("reshape.331")
#loc776 = loc("custom-call.332")
#loc777 = loc("reshape.336")
#loc778 = loc("convert.2148")
#loc779 = loc("reshape.2151")
#loc780 = loc("broadcast.2152")
#loc781 = loc("add.2153")
#loc782 = loc("convert.2154")
#loc783 = loc("convert.2155")
#loc784 = loc("logistic.2156")
#loc785 = loc("multiply.2157")
#loc786 = loc("convert.2158")
#loc787 = loc("custom-call.328")
#loc788 = loc("convolution.2159")
#loc789 = loc("reshape.324")
#loc790 = loc("custom-call.325")
#loc791 = loc("reshape.326")
#loc792 = loc("transpose.2161")
#loc793 = loc("add.2162")
#loc794 = loc("convert.2163")
#loc795 = loc("reshape.2164")
#loc796 = loc("reduce.2210")
#loc797 = loc("multiply.2219")
#loc798 = loc("broadcast.2229")
#loc799 = loc("subtract.2230")
#loc800 = loc("multiply.2186")
#loc801 = loc("reduce.2193")
#loc802 = loc("multiply.2202")
#loc803 = loc("reshape.2203")
#loc804 = loc("add.2223")
#loc805 = loc("rsqrt.2224")
#loc806 = loc("reshape.2231")
#loc807 = loc("broadcast.2232")
#loc808 = loc("multiply.2233")
#loc809 = loc("reshape.2234")
#loc810 = loc("reshape.314")
#loc811 = loc("custom-call.315")
#loc812 = loc("reshape.319")
#loc813 = loc("convert.320")
#loc814 = loc("reshape.2235")
#loc815 = loc("broadcast.2236")
#loc816 = loc("multiply.2237")
#loc817 = loc("reshape.307")
#loc818 = loc("custom-call.308")
#loc819 = loc("reshape.312")
#loc820 = loc("convert.2238")
#loc821 = loc("reshape.2241")
#loc822 = loc("broadcast.2242")
#loc823 = loc("add.2243")
#loc824 = loc("convert.2244")
#loc825 = loc("convert.2245")
#loc826 = loc("logistic.2246")
#loc827 = loc("multiply.2247")
#loc828 = loc("convert.2248")
#loc829 = loc("custom-call.304")
#loc830 = loc("convolution.2249")
#loc831 = loc("reshape.300")
#loc832 = loc("custom-call.301")
#loc833 = loc("reshape.302")
#loc834 = loc("transpose.2251")
#loc835 = loc("add.2252")
#loc836 = loc("add.2255")
#loc837 = loc("divide.2257")
#loc838 = loc("convert.2258")
#loc839 = loc("reshape.2259")
#loc840 = loc("reduce.2305")
#loc841 = loc("multiply.2314")
#loc842 = loc("broadcast.2324")
#loc843 = loc("subtract.2325")
#loc844 = loc("multiply.2281")
#loc845 = loc("reduce.2288")
#loc846 = loc("multiply.2297")
#loc847 = loc("reshape.2298")
#loc848 = loc("add.2318")
#loc849 = loc("rsqrt.2319")
#loc850 = loc("reshape.2326")
#loc851 = loc("broadcast.2327")
#loc852 = loc("multiply.2328")
#loc853 = loc("reshape.2329")
#loc854 = loc("reshape.288")
#loc855 = loc("custom-call.289")
#loc856 = loc("reshape.293")
#loc857 = loc("convert.294")
#loc858 = loc("reshape.2330")
#loc859 = loc("broadcast.2331")
#loc860 = loc("multiply.2332")
#loc861 = loc("reshape.281")
#loc862 = loc("custom-call.282")
#loc863 = loc("reshape.286")
#loc864 = loc("convert.2333")
#loc865 = loc("reshape.2336")
#loc866 = loc("broadcast.2337")
#loc867 = loc("add.2338")
#loc868 = loc("convert.2339")
#loc869 = loc("convert.2340")
#loc870 = loc("logistic.2341")
#loc871 = loc("multiply.2342")
#loc872 = loc("convert.2343")
#loc873 = loc("custom-call.278")
#loc874 = loc("convolution.2344")
#loc875 = loc("reshape.274")
#loc876 = loc("custom-call.275")
#loc877 = loc("reshape.276")
#loc878 = loc("transpose.2346")
#loc879 = loc("add.2347")
#loc880 = loc("convert.2348")
#loc881 = loc("reshape.2349")
#loc882 = loc("reduce.2395")
#loc883 = loc("multiply.2404")
#loc884 = loc("broadcast.2414")
#loc885 = loc("subtract.2415")
#loc886 = loc("multiply.2371")
#loc887 = loc("reduce.2378")
#loc888 = loc("multiply.2387")
#loc889 = loc("reshape.2388")
#loc890 = loc("add.2408")
#loc891 = loc("rsqrt.2409")
#loc892 = loc("reshape.2416")
#loc893 = loc("broadcast.2417")
#loc894 = loc("multiply.2418")
#loc895 = loc("reshape.2419")
#loc896 = loc("reshape.264")
#loc897 = loc("custom-call.265")
#loc898 = loc("reshape.269")
#loc899 = loc("convert.270")
#loc900 = loc("reshape.2420")
#loc901 = loc("broadcast.2421")
#loc902 = loc("multiply.2422")
#loc903 = loc("reshape.257")
#loc904 = loc("custom-call.258")
#loc905 = loc("reshape.262")
#loc906 = loc("convert.2423")
#loc907 = loc("reshape.2426")
#loc908 = loc("broadcast.2427")
#loc909 = loc("add.2428")
#loc910 = loc("convert.2429")
#loc911 = loc("convert.2430")
#loc912 = loc("logistic.2431")
#loc913 = loc("multiply.2432")
#loc914 = loc("convert.2433")
#loc915 = loc("custom-call.254")
#loc916 = loc("convolution.2434")
#loc917 = loc("reshape.250")
#loc918 = loc("custom-call.251")
#loc919 = loc("reshape.252")
#loc920 = loc("transpose.2436")
#loc921 = loc("add.2437")
#loc922 = loc("add.2440")
#loc923 = loc("divide.2442")
#loc924 = loc("transpose.2443")
#loc925 = loc("floor.237")
#loc926 = loc("convert.238")
#loc927 = loc("broadcast.242")
#loc928 = loc("broadcast.240")
#loc929 = loc("compare.243")
#loc930 = loc("convert.244")
#loc931 = loc("transpose.245")
#loc932 = loc("convert.246")
#loc933 = loc("dot.2444")
#loc934 = loc("transpose.2446")
#loc935 = loc("floor.222")
#loc936 = loc("convert.223")
#loc937 = loc("broadcast.227")
#loc938 = loc("broadcast.225")
#loc939 = loc("compare.228")
#loc940 = loc("convert.229")
#loc941 = loc("transpose.230")
#loc942 = loc("convert.231")
#loc943 = loc("dot.2447")
#loc944 = loc("custom-call.216")
#loc945 = loc("convolution.2449")
#loc946 = loc("reshape.212")
#loc947 = loc("custom-call.213")
#loc948 = loc("reshape.214")
#loc949 = loc("transpose.2451")
#loc950 = loc("add.2452")
#loc951 = loc("custom-call.2638")
#loc952 = loc("convolution.2639")
#loc953 = loc("reshape.2634")
#loc954 = loc("custom-call.2635")
#loc955 = loc("reshape.2636")
#loc956 = loc("transpose.2641")
#loc957 = loc("add.2642")
#loc958 = loc("convert.2453")
#loc959 = loc("reshape.2454")
#loc960 = loc("reduce.2500")
#loc961 = loc("multiply.2509")
#loc962 = loc("broadcast.2519")
#loc963 = loc("subtract.2520")
#loc964 = loc("multiply.2476")
#loc965 = loc("reduce.2483")
#loc966 = loc("multiply.2492")
#loc967 = loc("reshape.2493")
#loc968 = loc("add.2513")
#loc969 = loc("rsqrt.2514")
#loc970 = loc("reshape.2521")
#loc971 = loc("broadcast.2522")
#loc972 = loc("multiply.2523")
#loc973 = loc("reshape.2524")
#loc974 = loc("reshape.202")
#loc975 = loc("custom-call.203")
#loc976 = loc("reshape.207")
#loc977 = loc("convert.208")
#loc978 = loc("reshape.2525")
#loc979 = loc("broadcast.2526")
#loc980 = loc("multiply.2527")
#loc981 = loc("reshape.195")
#loc982 = loc("custom-call.196")
#loc983 = loc("reshape.200")
#loc984 = loc("convert.2528")
#loc985 = loc("reshape.2531")
#loc986 = loc("broadcast.2532")
#loc987 = loc("add.2533")
#loc988 = loc("convert.2534")
#loc989 = loc("convert.2535")
#loc990 = loc("logistic.2536")
#loc991 = loc("multiply.2537")
#loc992 = loc("convert.2538")
#loc993 = loc("custom-call.192")
#loc994 = loc("convolution.2539")
#loc995 = loc("reshape.188")
#loc996 = loc("custom-call.189")
#loc997 = loc("reshape.190")
#loc998 = loc("transpose.2541")
#loc999 = loc("add.2542")
#loc1000 = loc("convert.2543")
#loc1001 = loc("reshape.2544")
#loc1002 = loc("reduce.2590")
#loc1003 = loc("multiply.2599")
#loc1004 = loc("broadcast.2609")
#loc1005 = loc("subtract.2610")
#loc1006 = loc("multiply.2566")
#loc1007 = loc("reduce.2573")
#loc1008 = loc("multiply.2582")
#loc1009 = loc("reshape.2583")
#loc1010 = loc("add.2603")
#loc1011 = loc("rsqrt.2604")
#loc1012 = loc("reshape.2611")
#loc1013 = loc("broadcast.2612")
#loc1014 = loc("multiply.2613")
#loc1015 = loc("reshape.2614")
#loc1016 = loc("reshape.178")
#loc1017 = loc("custom-call.179")
#loc1018 = loc("reshape.183")
#loc1019 = loc("convert.184")
#loc1020 = loc("reshape.2615")
#loc1021 = loc("broadcast.2616")
#loc1022 = loc("multiply.2617")
#loc1023 = loc("reshape.171")
#loc1024 = loc("custom-call.172")
#loc1025 = loc("reshape.176")
#loc1026 = loc("convert.2618")
#loc1027 = loc("reshape.2621")
#loc1028 = loc("broadcast.2622")
#loc1029 = loc("add.2623")
#loc1030 = loc("convert.2624")
#loc1031 = loc("convert.2625")
#loc1032 = loc("logistic.2626")
#loc1033 = loc("multiply.2627")
#loc1034 = loc("convert.2628")
#loc1035 = loc("custom-call.168")
#loc1036 = loc("convolution.2629")
#loc1037 = loc("reshape.164")
#loc1038 = loc("custom-call.165")
#loc1039 = loc("reshape.166")
#loc1040 = loc("transpose.2631")
#loc1041 = loc("add.2632")
#loc1042 = loc("add.2645")
#loc1043 = loc("divide.2647")
#loc1044 = loc("convert.2648")
#loc1045 = loc("reshape.2649")
#loc1046 = loc("reduce.2695")
#loc1047 = loc("multiply.2704")
#loc1048 = loc("broadcast.2714")
#loc1049 = loc("subtract.2715")
#loc1050 = loc("multiply.2671")
#loc1051 = loc("reduce.2678")
#loc1052 = loc("multiply.2687")
#loc1053 = loc("reshape.2688")
#loc1054 = loc("add.2708")
#loc1055 = loc("rsqrt.2709")
#loc1056 = loc("reshape.2716")
#loc1057 = loc("broadcast.2717")
#loc1058 = loc("multiply.2718")
#loc1059 = loc("reshape.2719")
#loc1060 = loc("reshape.152")
#loc1061 = loc("custom-call.153")
#loc1062 = loc("reshape.157")
#loc1063 = loc("convert.158")
#loc1064 = loc("reshape.2720")
#loc1065 = loc("broadcast.2721")
#loc1066 = loc("multiply.2722")
#loc1067 = loc("reshape.145")
#loc1068 = loc("custom-call.146")
#loc1069 = loc("reshape.150")
#loc1070 = loc("convert.2723")
#loc1071 = loc("reshape.2726")
#loc1072 = loc("broadcast.2727")
#loc1073 = loc("add.2728")
#loc1074 = loc("convert.2729")
#loc1075 = loc("convert.2730")
#loc1076 = loc("logistic.2731")
#loc1077 = loc("multiply.2732")
#loc1078 = loc("convert.2733")
#loc1079 = loc("custom-call.142")
#loc1080 = loc("convolution.2734")
#loc1081 = loc("reshape.138")
#loc1082 = loc("custom-call.139")
#loc1083 = loc("reshape.140")
#loc1084 = loc("transpose.2736")
#loc1085 = loc("add.2737")
#loc1086 = loc("convert.2738")
#loc1087 = loc("reshape.2739")
#loc1088 = loc("reduce.2785")
#loc1089 = loc("multiply.2794")
#loc1090 = loc("broadcast.2804")
#loc1091 = loc("subtract.2805")
#loc1092 = loc("multiply.2761")
#loc1093 = loc("reduce.2768")
#loc1094 = loc("multiply.2777")
#loc1095 = loc("reshape.2778")
#loc1096 = loc("add.2798")
#loc1097 = loc("rsqrt.2799")
#loc1098 = loc("reshape.2806")
#loc1099 = loc("broadcast.2807")
#loc1100 = loc("multiply.2808")
#loc1101 = loc("reshape.2809")
#loc1102 = loc("reshape.128")
#loc1103 = loc("custom-call.129")
#loc1104 = loc("reshape.133")
#loc1105 = loc("convert.134")
#loc1106 = loc("reshape.2810")
#loc1107 = loc("broadcast.2811")
#loc1108 = loc("multiply.2812")
#loc1109 = loc("reshape.121")
#loc1110 = loc("custom-call.122")
#loc1111 = loc("reshape.126")
#loc1112 = loc("convert.2813")
#loc1113 = loc("reshape.2816")
#loc1114 = loc("broadcast.2817")
#loc1115 = loc("add.2818")
#loc1116 = loc("convert.2819")
#loc1117 = loc("convert.2820")
#loc1118 = loc("logistic.2821")
#loc1119 = loc("multiply.2822")
#loc1120 = loc("convert.2823")
#loc1121 = loc("custom-call.118")
#loc1122 = loc("convolution.2824")
#loc1123 = loc("reshape.114")
#loc1124 = loc("custom-call.115")
#loc1125 = loc("reshape.116")
#loc1126 = loc("transpose.2826")
#loc1127 = loc("add.2827")
#loc1128 = loc("add.2830")
#loc1129 = loc("divide.2832")
#loc1130 = loc("convert.2833")
#loc1131 = loc("reshape.2834")
#loc1132 = loc("reduce.2880")
#loc1133 = loc("multiply.2889")
#loc1134 = loc("broadcast.2899")
#loc1135 = loc("subtract.2900")
#loc1136 = loc("multiply.2856")
#loc1137 = loc("reduce.2863")
#loc1138 = loc("multiply.2872")
#loc1139 = loc("reshape.2873")
#loc1140 = loc("add.2893")
#loc1141 = loc("rsqrt.2894")
#loc1142 = loc("reshape.2901")
#loc1143 = loc("broadcast.2902")
#loc1144 = loc("multiply.2903")
#loc1145 = loc("reshape.2904")
#loc1146 = loc("reshape.102")
#loc1147 = loc("custom-call.103")
#loc1148 = loc("reshape.107")
#loc1149 = loc("convert.108")
#loc1150 = loc("reshape.2905")
#loc1151 = loc("broadcast.2906")
#loc1152 = loc("multiply.2907")
#loc1153 = loc("reshape.95")
#loc1154 = loc("custom-call.96")
#loc1155 = loc("reshape.100")
#loc1156 = loc("convert.2908")
#loc1157 = loc("reshape.2911")
#loc1158 = loc("broadcast.2912")
#loc1159 = loc("add.2913")
#loc1160 = loc("convert.2914")
#loc1161 = loc("convert.2915")
#loc1162 = loc("logistic.2916")
#loc1163 = loc("multiply.2917")
#loc1164 = loc("convert.2918")
#loc1165 = loc("custom-call.92")
#loc1166 = loc("convolution.2919")
#loc1167 = loc("reshape.88")
#loc1168 = loc("custom-call.89")
#loc1169 = loc("reshape.90")
#loc1170 = loc("transpose.2921")
#loc1171 = loc("add.2922")
#loc1172 = loc("convert.2923")
#loc1173 = loc("reshape.2924")
#loc1174 = loc("reduce.2970")
#loc1175 = loc("multiply.2979")
#loc1176 = loc("broadcast.2989")
#loc1177 = loc("subtract.2990")
#loc1178 = loc("multiply.2946")
#loc1179 = loc("reduce.2953")
#loc1180 = loc("multiply.2962")
#loc1181 = loc("reshape.2963")
#loc1182 = loc("add.2983")
#loc1183 = loc("rsqrt.2984")
#loc1184 = loc("reshape.2991")
#loc1185 = loc("broadcast.2992")
#loc1186 = loc("multiply.2993")
#loc1187 = loc("reshape.2994")
#loc1188 = loc("reshape.78")
#loc1189 = loc("custom-call.79")
#loc1190 = loc("reshape.83")
#loc1191 = loc("convert.84")
#loc1192 = loc("reshape.2995")
#loc1193 = loc("broadcast.2996")
#loc1194 = loc("multiply.2997")
#loc1195 = loc("reshape.71")
#loc1196 = loc("custom-call.72")
#loc1197 = loc("reshape.76")
#loc1198 = loc("convert.2998")
#loc1199 = loc("reshape.3001")
#loc1200 = loc("broadcast.3002")
#loc1201 = loc("add.3003")
#loc1202 = loc("convert.3004")
#loc1203 = loc("convert.3005")
#loc1204 = loc("logistic.3006")
#loc1205 = loc("multiply.3007")
#loc1206 = loc("convert.3008")
#loc1207 = loc("custom-call.68")
#loc1208 = loc("convolution.3009")
#loc1209 = loc("reshape.64")
#loc1210 = loc("custom-call.65")
#loc1211 = loc("reshape.66")
#loc1212 = loc("transpose.3011")
#loc1213 = loc("add.3012")
#loc1214 = loc("add.3015")
#loc1215 = loc("divide.3017")
#loc1216 = loc("transpose.3018")
#loc1217 = loc("floor.51")
#loc1218 = loc("convert.52")
#loc1219 = loc("broadcast.56")
#loc1220 = loc("broadcast.54")
#loc1221 = loc("compare.57")
#loc1222 = loc("convert.58")
#loc1223 = loc("transpose.59")
#loc1224 = loc("convert.60")
#loc1225 = loc("dot.3019")
#loc1226 = loc("transpose.3021")
#loc1227 = loc("floor.36")
#loc1228 = loc("convert.37")
#loc1229 = loc("broadcast.41")
#loc1230 = loc("broadcast.39")
#loc1231 = loc("compare.42")
#loc1232 = loc("convert.43")
#loc1233 = loc("transpose.44")
#loc1234 = loc("convert.45")
#loc1235 = loc("dot.3022")
#loc1236 = loc("custom-call.30")
#loc1237 = loc("convolution.3024")
#loc1238 = loc("reshape.26")
#loc1239 = loc("custom-call.27")
#loc1240 = loc("reshape.28")
#loc1241 = loc("transpose.3026")
#loc1242 = loc("add.3027")
#loc1243 = loc("convert.3028")
#loc1244 = loc("reshape.3029")
#loc1245 = loc("reduce.3075")
#loc1246 = loc("multiply.3084")
#loc1247 = loc("broadcast.3094")
#loc1248 = loc("subtract.3095")
#loc1249 = loc("multiply.3051")
#loc1250 = loc("reduce.3058")
#loc1251 = loc("multiply.3067")
#loc1252 = loc("reshape.3068")
#loc1253 = loc("add.3088")
#loc1254 = loc("rsqrt.3089")
#loc1255 = loc("reshape.3096")
#loc1256 = loc("broadcast.3097")
#loc1257 = loc("multiply.3098")
#loc1258 = loc("reshape.3099")
#loc1259 = loc("reshape.16")
#loc1260 = loc("custom-call.17")
#loc1261 = loc("reshape.21")
#loc1262 = loc("convert.22")
#loc1263 = loc("reshape.3100")
#loc1264 = loc("broadcast.3101")
#loc1265 = loc("multiply.3102")
#loc1266 = loc("reshape.9")
#loc1267 = loc("custom-call.10")
#loc1268 = loc("reshape.14")
#loc1269 = loc("convert.3103")
#loc1270 = loc("reshape.3106")
#loc1271 = loc("broadcast.3107")
#loc1272 = loc("add.3108")
#loc1273 = loc("convert.3109")
#loc1274 = loc("convert.3110")
#loc1275 = loc("logistic.3111")
#loc1276 = loc("multiply.3112")
#loc1277 = loc("convert.3113")
#loc1278 = loc("custom-call.6")
#loc1279 = loc("convolution.3114")
#loc1280 = loc("reshape.2")
#loc1281 = loc("custom-call.3")
#loc1282 = loc("reshape.4")
#loc1283 = loc("transpose.3116")
#loc1284 = loc("add.3117")
#loc1288 = loc("convert.1061")
#loc1289 = loc("multiply.1063")
#loc1290 = loc("convert.1036")
#loc1291 = loc("transpose.1037")
#loc1292 = loc("multiply.1039")
#loc1293 = loc("dot.1064")
#loc1294 = loc("convert.1091")
#loc1295 = loc("compare.1093")
#loc1296 = loc("not.1095")
#loc1298 = loc("or.1105")
#loc1299 = loc("select.1106")
#loc1300 = loc("reshape.1111")
#loc1301 = loc("not.1113")
#loc1302 = loc("reshape.1115")
#loc1303 = loc("broadcast.1116")
#loc1304 = loc("reduce.1071")
#loc1305 = loc("broadcast.1072")
#loc1306 = loc("subtract.1073")
#loc1307 = loc("exponential.1074")
#loc1308 = loc("reduce.1080")
#loc1309 = loc("broadcast.1081")
#loc1310 = loc("divide.1082")
#loc1311 = loc("select.1117")
#loc1312 = loc("convert.1014")
#loc1313 = loc("dot.1118")
#loc1314 = loc("convert.1120")
