#dram = #ttnn.buffer_type<dram>
#loc = loc(unknown)
#loc30 = loc("p0.1")
#loc31 = loc("p1.5")
#loc32 = loc("p2.8")
#loc33 = loc("p3.15")
#loc34 = loc("p4.25")
#loc35 = loc("p5.29")
#loc36 = loc("p6.63")
#loc37 = loc("p7.67")
#loc38 = loc("p8.70")
#loc39 = loc("p9.77")
#loc40 = loc("p10.87")
#loc41 = loc("p11.91")
#loc42 = loc("p12.94")
#loc43 = loc("p13.101")
#loc44 = loc("p14.113")
#loc45 = loc("p15.117")
#loc46 = loc("p16.120")
#loc47 = loc("p17.127")
#loc48 = loc("p18.137")
#loc49 = loc("p19.141")
#loc50 = loc("p20.144")
#loc51 = loc("p21.151")
#loc52 = loc("p22.163")
#loc53 = loc("p23.167")
#loc54 = loc("p24.170")
#loc55 = loc("p25.177")
#loc56 = loc("p26.187")
#loc57 = loc("p27.191")
#loc58 = loc("p28.194")
#loc59 = loc("p29.201")
#loc60 = loc("p30.211")
#loc61 = loc("p31.215")
#loc62 = loc("p32.249")
#loc63 = loc("p33.253")
#loc64 = loc("p34.256")
#loc65 = loc("p35.263")
#loc66 = loc("p36.273")
#loc67 = loc("p37.277")
#loc68 = loc("p38.280")
#loc69 = loc("p39.287")
#loc70 = loc("p40.299")
#loc71 = loc("p41.303")
#loc72 = loc("p42.306")
#loc73 = loc("p43.313")
#loc74 = loc("p44.323")
#loc75 = loc("p45.327")
#loc76 = loc("p46.330")
#loc77 = loc("p47.337")
#loc78 = loc("p48.349")
#loc79 = loc("p49.353")
#loc80 = loc("p50.356")
#loc81 = loc("p51.363")
#loc82 = loc("p52.373")
#loc83 = loc("p53.377")
#loc84 = loc("p54.380")
#loc85 = loc("p55.387")
#loc86 = loc("p56.397")
#loc87 = loc("p57.401")
#loc88 = loc("p58.435")
#loc89 = loc("p59.439")
#loc90 = loc("p60.442")
#loc91 = loc("p61.449")
#loc92 = loc("p62.459")
#loc93 = loc("p63.463")
#loc94 = loc("p64.466")
#loc95 = loc("p65.473")
#loc96 = loc("p66.485")
#loc97 = loc("p67.489")
#loc98 = loc("p68.492")
#loc99 = loc("p69.499")
#loc100 = loc("p70.509")
#loc101 = loc("p71.513")
#loc102 = loc("p72.516")
#loc103 = loc("p73.523")
#loc104 = loc("p74.535")
#loc105 = loc("p75.539")
#loc106 = loc("p76.542")
#loc107 = loc("p77.549")
#loc108 = loc("p78.559")
#loc109 = loc("p79.563")
#loc110 = loc("p80.566")
#loc111 = loc("p81.573")
#loc112 = loc("p82.585")
#loc113 = loc("p83.589")
#loc114 = loc("p84.592")
#loc115 = loc("p85.599")
#loc116 = loc("p86.609")
#loc117 = loc("p87.613")
#loc118 = loc("p88.616")
#loc119 = loc("p89.623")
#loc120 = loc("p90.637")
#loc121 = loc("p91.641")
#loc122 = loc("p92.644")
#loc123 = loc("p93.651")
#loc124 = loc("p94.661")
#loc125 = loc("p95.665")
#loc126 = loc("p96.668")
#loc127 = loc("p97.675")
#loc128 = loc("p98.685")
#loc129 = loc("p99.689")
#loc130 = loc("p100.691")
#loc131 = loc("p101.883")
#loc132 = loc("p102.887")
#loc133 = loc("p103.893")
#loc134 = loc("p104.897")
#loc135 = loc("p105.903")
#loc136 = loc("p106.909")
#loc137 = loc("p107.1017")
#loc138 = loc("p108.1021")
#loc139 = loc("p109.1042")
#loc140 = loc("p110.1046")
#loc141 = loc("p111.2633")
#loc142 = loc("p112.2637")
#system_desc = #ttcore.system_desc<[{role = host, target_triple = "x86_64-pc-linux"}], [{arch = <wormhole_b0>, grid = 8x8, coord_translation_offsets = 18x18, l1_size = 1499136, num_dram_channels = 12, dram_channel_size = 1073741824, noc_l1_address_align_bytes = 16, pcie_address_align_bytes = 32, noc_dram_address_align_bytes = 32, l1_unreserved_base = 103776, erisc_l1_unreserved_base = 98304, dram_unreserved_base = 1920032, dram_unreserved_end = 1073136448, supported_data_types = [<f32>, <f16>, <bf16>, <bfp_f8>, <bfp_bf8>, <bfp_f4>, <bfp_bf4>, <bfp_f2>, <bfp_bf2>, <u32>, <u16>, <u8>, <si32>], supported_tile_sizes = [ 4x16,  16x16,  32x16,  4x32,  16x32,  32x32], dst_physical_size_tiles = 16, num_cbs = 64, num_compute_threads = 1, num_datamovement_threads = 2, dram_grid = 1x12, dram_bank_to_logical_worker_noc0 = [(7, 3), (0, 2), (3, 0), (4, 0), (2, 6), (7, 7), (0, 4), (6, 4), (5, 4), (1, 4), (3, 4), (4, 4)], dram_bank_to_logical_worker_noc1 = [(7, 3), (0, 2), (3, 0), (4, 0), (2, 6), (7, 7), (0, 4), (6, 4), (5, 4), (1, 4), (3, 4), (4, 4)]}, {arch = <wormhole_b0>, grid = 8x8, coord_translation_offsets = 18x18, l1_size = 1499136, num_dram_channels = 12, dram_channel_size = 1073741824, noc_l1_address_align_bytes = 16, pcie_address_align_bytes = 32, noc_dram_address_align_bytes = 32, l1_unreserved_base = 103776, erisc_l1_unreserved_base = 98304, dram_unreserved_base = 1920032, dram_unreserved_end = 1073136448, supported_data_types = [<f32>, <f16>, <bf16>, <bfp_f8>, <bfp_bf8>, <bfp_f4>, <bfp_bf4>, <bfp_f2>, <bfp_bf2>, <u32>, <u16>, <u8>, <si32>], supported_tile_sizes = [ 4x16,  16x16,  32x16,  4x32,  16x32,  32x32], dst_physical_size_tiles = 16, num_cbs = 64, num_compute_threads = 1, num_datamovement_threads = 2, dram_grid = 1x12, dram_bank_to_logical_worker_noc0 = [(7, 0), (0, 0), (2, 0), (3, 0), (0, 4), (7, 4), (1, 4), (5, 4), (4, 4), (6, 7), (2, 4), (3, 4)], dram_bank_to_logical_worker_noc1 = [(7, 0), (0, 0), (2, 0), (3, 0), (0, 4), (7, 4), (1, 4), (5, 4), (4, 4), (6, 7), (2, 4), (3, 4)]}, {arch = <wormhole_b0>, grid = 8x8, coord_translation_offsets = 18x18, l1_size = 1499136, num_dram_channels = 12, dram_channel_size = 1073741824, noc_l1_address_align_bytes = 16, pcie_address_align_bytes = 32, noc_dram_address_align_bytes = 32, l1_unreserved_base = 103776, erisc_l1_unreserved_base = 98304, dram_unreserved_base = 1920032, dram_unreserved_end = 1073136448, supported_data_types = [<f32>, <f16>, <bf16>, <bfp_f8>, <bfp_bf8>, <bfp_f4>, <bfp_bf4>, <bfp_f2>, <bfp_bf2>, <u32>, <u16>, <u8>, <si32>], supported_tile_sizes = [ 4x16,  16x16,  32x16,  4x32,  16x32,  32x32], dst_physical_size_tiles = 16, num_cbs = 64, num_compute_threads = 1, num_datamovement_threads = 2, dram_grid = 1x12, dram_bank_to_logical_worker_noc0 = [(7, 3), (0, 0), (3, 0), (4, 0), (0, 4), (7, 7), (2, 6), (6, 4), (5, 4), (1, 4), (3, 4), (4, 4)], dram_bank_to_logical_worker_noc1 = [(7, 3), (0, 0), (3, 0), (4, 0), (0, 4), (7, 7), (2, 6), (6, 4), (5, 4), (1, 4), (3, 4), (4, 4)]}, {arch = <wormhole_b0>, grid = 8x8, coord_translation_offsets = 18x18, l1_size = 1499136, num_dram_channels = 12, dram_channel_size = 1073741824, noc_l1_address_align_bytes = 16, pcie_address_align_bytes = 32, noc_dram_address_align_bytes = 32, l1_unreserved_base = 103776, erisc_l1_unreserved_base = 98304, dram_unreserved_base = 1920032, dram_unreserved_end = 1073136448, supported_data_types = [<f32>, <f16>, <bf16>, <bfp_f8>, <bfp_bf8>, <bfp_f4>, <bfp_bf4>, <bfp_f2>, <bfp_bf2>, <u32>, <u16>, <u8>, <si32>], supported_tile_sizes = [ 4x16,  16x16,  32x16,  4x32,  16x32,  32x32], dst_physical_size_tiles = 16, num_cbs = 64, num_compute_threads = 1, num_datamovement_threads = 2, dram_grid = 1x12, dram_bank_to_logical_worker_noc0 = [(7, 3), (0, 0), (4, 0), (5, 0), (0, 4), (7, 7), (1, 4), (6, 4), (3, 6), (2, 4), (4, 4), (5, 4)], dram_bank_to_logical_worker_noc1 = [(7, 3), (0, 0), (4, 0), (5, 0), (0, 4), (7, 7), (1, 4), (6, 4), (3, 6), (2, 4), (4, 4), (5, 4)]}, {arch = <wormhole_b0>, grid = 8x8, coord_translation_offsets = 18x18, l1_size = 1499136, num_dram_channels = 12, dram_channel_size = 1073741824, noc_l1_address_align_bytes = 16, pcie_address_align_bytes = 32, noc_dram_address_align_bytes = 32, l1_unreserved_base = 103776, erisc_l1_unreserved_base = 98304, dram_unreserved_base = 1920032, dram_unreserved_end = 1073153760, supported_data_types = [<f32>, <f16>, <bf16>, <bfp_f8>, <bfp_bf8>, <bfp_f4>, <bfp_bf4>, <bfp_f2>, <bfp_bf2>, <u32>, <u16>, <u8>, <si32>], supported_tile_sizes = [ 4x16,  16x16,  32x16,  4x32,  16x32,  32x32], dst_physical_size_tiles = 16, num_cbs = 64, num_compute_threads = 1, num_datamovement_threads = 2, dram_grid = 1x12, dram_bank_to_logical_worker_noc0 = [(7, 3), (0, 0), (4, 0), (5, 0), (0, 4), (3, 7), (1, 4), (7, 4), (6, 4), (2, 4), (4, 4), (5, 4)], dram_bank_to_logical_worker_noc1 = [(7, 3), (0, 0), (4, 0), (5, 0), (0, 4), (3, 7), (1, 4), (7, 4), (6, 4), (2, 4), (4, 4), (5, 4)]}, {arch = <wormhole_b0>, grid = 8x8, coord_translation_offsets = 18x18, l1_size = 1499136, num_dram_channels = 12, dram_channel_size = 1073741824, noc_l1_address_align_bytes = 16, pcie_address_align_bytes = 32, noc_dram_address_align_bytes = 32, l1_unreserved_base = 103776, erisc_l1_unreserved_base = 98304, dram_unreserved_base = 1920032, dram_unreserved_end = 1073153760, supported_data_types = [<f32>, <f16>, <bf16>, <bfp_f8>, <bfp_bf8>, <bfp_f4>, <bfp_bf4>, <bfp_f2>, <bfp_bf2>, <u32>, <u16>, <u8>, <si32>], supported_tile_sizes = [ 4x16,  16x16,  32x16,  4x32,  16x32,  32x32], dst_physical_size_tiles = 16, num_cbs = 64, num_compute_threads = 1, num_datamovement_threads = 2, dram_grid = 1x12, dram_bank_to_logical_worker_noc0 = [(7, 3), (0, 0), (4, 0), (5, 0), (0, 4), (7, 7), (1, 4), (3, 6), (6, 4), (2, 4), (4, 4), (5, 4)], dram_bank_to_logical_worker_noc1 = [(7, 3), (0, 0), (4, 0), (5, 0), (0, 4), (7, 7), (1, 4), (3, 6), (6, 4), (2, 4), (4, 4), (5, 4)]}, {arch = <wormhole_b0>, grid = 8x8, coord_translation_offsets = 18x18, l1_size = 1499136, num_dram_channels = 12, dram_channel_size = 1073741824, noc_l1_address_align_bytes = 16, pcie_address_align_bytes = 32, noc_dram_address_align_bytes = 32, l1_unreserved_base = 103776, erisc_l1_unreserved_base = 98304, dram_unreserved_base = 1920032, dram_unreserved_end = 1073153760, supported_data_types = [<f32>, <f16>, <bf16>, <bfp_f8>, <bfp_bf8>, <bfp_f4>, <bfp_bf4>, <bfp_f2>, <bfp_bf2>, <u32>, <u16>, <u8>, <si32>], supported_tile_sizes = [ 4x16,  16x16,  32x16,  4x32,  16x32,  32x32], dst_physical_size_tiles = 16, num_cbs = 64, num_compute_threads = 1, num_datamovement_threads = 2, dram_grid = 1x12, dram_bank_to_logical_worker_noc0 = [(7, 0), (0, 0), (1, 3), (1, 2), (0, 4), (7, 4), (1, 4), (5, 4), (4, 4), (2, 4), (3, 7), (3, 6)], dram_bank_to_logical_worker_noc1 = [(7, 0), (0, 0), (1, 3), (1, 2), (0, 4), (7, 4), (1, 4), (5, 4), (4, 4), (2, 4), (3, 7), (3, 6)]}, {arch = <wormhole_b0>, grid = 8x8, coord_translation_offsets = 18x18, l1_size = 1499136, num_dram_channels = 12, dram_channel_size = 1073741824, noc_l1_address_align_bytes = 16, pcie_address_align_bytes = 32, noc_dram_address_align_bytes = 32, l1_unreserved_base = 103776, erisc_l1_unreserved_base = 98304, dram_unreserved_base = 1920032, dram_unreserved_end = 1073153760, supported_data_types = [<f32>, <f16>, <bf16>, <bfp_f8>, <bfp_bf8>, <bfp_f4>, <bfp_bf4>, <bfp_f2>, <bfp_bf2>, <u32>, <u16>, <u8>, <si32>], supported_tile_sizes = [ 4x16,  16x16,  32x16,  4x32,  16x32,  32x32], dst_physical_size_tiles = 16, num_cbs = 64, num_compute_threads = 1, num_datamovement_threads = 2, dram_grid = 1x12, dram_bank_to_logical_worker_noc0 = [(7, 3), (0, 0), (4, 0), (1, 2), (0, 4), (7, 7), (1, 4), (6, 4), (5, 4), (2, 4), (4, 4), (3, 6)], dram_bank_to_logical_worker_noc1 = [(7, 3), (0, 0), (4, 0), (1, 2), (0, 4), (7, 7), (1, 4), (6, 4), (5, 4), (2, 4), (4, 4), (3, 6)]}], [0, 1, 2, 3, 4, 5, 6, 7], [1 : i32, 1 : i32, 1 : i32, 1 : i32, 0 : i32, 0 : i32, 0 : i32, 0 : i32], [ 0x0x0x0], [<[0, 6, 0], [3, 6, 0]>, <[0, 7, 0], [3, 7, 0]>, <[0, 9, 0], [4, 1, 0]>, <[0, 14, 0], [1, 14, 0]>, <[0, 15, 0], [1, 15, 0]>, <[1, 0, 0], [2, 0, 0]>, <[1, 1, 0], [2, 1, 0]>, <[1, 9, 0], [6, 1, 0]>, <[2, 9, 0], [7, 1, 0]>, <[2, 14, 0], [3, 14, 0]>, <[2, 15, 0], [3, 15, 0]>, <[3, 9, 0], [5, 1, 0]>, <[4, 6, 0], [6, 6, 0]>, <[5, 6, 0], [7, 6, 0]>]>
#system_memory = #ttnn.buffer_type<system_memory>
#ttnn_layout = #ttnn.ttnn_layout<(d0, d1, d2, d3) -> (d0 * 48 + d1 * 3 + d2, d3), <1x1>, memref<24576x3xbf16, #system_memory>>
#ttnn_layout1 = #ttnn.ttnn_layout<(d0, d1, d2, d3) -> (d0 * 160 + d1 * 160 + d2, d3), <1x1>, memref<5x16x!ttcore.tile<32x32, bf16>, #dram>, <interleaved>>
#ttnn_layout2 = #ttnn.ttnn_layout<(d0) -> (0, d0), <1x1>, memref<1x512xbf16, #system_memory>>
#ttnn_layout3 = #ttnn.ttnn_layout<(d0, d1, d2, d3) -> (d0 * 32 + d1 * 32 + d2, d3), <1x1>, memref<1x16x!ttcore.tile<32x32, bf16>, #dram>, <interleaved>>
#ttnn_layout4 = #ttnn.ttnn_layout<(d0) -> (0, d0), <1x1>, memref<1x512xf32, #system_memory>>
#ttnn_layout5 = #ttnn.ttnn_layout<(d0, d1, d2, d3) -> (d0 + d1 + d2, d3), <1x1>, memref<1x512xf32, #system_memory>>
#ttnn_layout6 = #ttnn.ttnn_layout<(d0, d1, d2, d3) -> (d0 + d1 + d2, d3), <1x1>, memref<1x512xbf16, #system_memory>>
#ttnn_layout7 = #ttnn.ttnn_layout<(d0, d1) -> (d0, d1), <1x1>, memref<6x12x!ttcore.tile<32x32, bf16>, #dram>, <interleaved>>
#ttnn_layout8 = #ttnn.ttnn_layout<(d0, d1) -> (d0, d1), <1x1>, memref<180x360xf32, #system_memory>>
#ttnn_layout9 = #ttnn.ttnn_layout<(d0, d1) -> (d0, d1), <1x1>, memref<180x360xbf16, #system_memory>>
#ttnn_layout10 = #ttnn.ttnn_layout<(d0, d1) -> (d0, d1), <1x1>, memref<6x12x!ttcore.tile<32x32, bf16>, #system_memory>>
#ttnn_layout11 = #ttnn.ttnn_layout<(d0, d1, d2, d3) -> (d0 * 1536 + d1 * 3 + d2, d3), <1x1>, memref<786432x3xbf16, #system_memory>>
#ttnn_layout12 = #ttnn.ttnn_layout<(d0, d1, d2, d3) -> (d0 * 4608 + d1 * 4608 + d2, d3), <1x1>, memref<144x16x!ttcore.tile<32x32, bf16>, #dram>, <interleaved>>
#ttnn_layout13 = #ttnn.ttnn_layout<(d0, d1, d2, d3) -> (d0 * 1024 + d1 * 32 + d2, d3), <1x1>, memref<32x1x!ttcore.tile<32x32, f32>, #dram>, <interleaved>>
#ttnn_layout14 = #ttnn.ttnn_layout<(d0, d1, d2, d3) -> (d0 * 512 + d1 * 16 + d2, d3), <1x1>, memref<512x1xf32, #system_memory>>
#ttnn_layout15 = #ttnn.ttnn_layout<(d0, d1, d2, d3) -> (d0 * 1024 + d1 * 32 + d2, d3), <1x1>, memref<32x1x!ttcore.tile<32x32, f32>, #system_memory>>
#ttnn_layout16 = #ttnn.ttnn_layout<(d0, d1, d2, d3) -> (d0 * 768 + d1 * 3 + d2, d3), <1x1>, memref<196608x3xbf16, #system_memory>>
#ttnn_layout17 = #ttnn.ttnn_layout<(d0, d1, d2, d3) -> (d0 * 2304 + d1 * 2304 + d2, d3), <1x1>, memref<72x8x!ttcore.tile<32x32, bf16>, #dram>, <interleaved>>
#ttnn_layout18 = #ttnn.ttnn_layout<(d0) -> (0, d0), <1x1>, memref<1x256xbf16, #system_memory>>
#ttnn_layout19 = #ttnn.ttnn_layout<(d0, d1, d2, d3) -> (d0 * 32 + d1 * 32 + d2, d3), <1x1>, memref<1x8x!ttcore.tile<32x32, bf16>, #dram>, <interleaved>>
#ttnn_layout20 = #ttnn.ttnn_layout<(d0) -> (0, d0), <1x1>, memref<1x256xf32, #system_memory>>
#ttnn_layout21 = #ttnn.ttnn_layout<(d0, d1, d2, d3) -> (d0 + d1 + d2, d3), <1x1>, memref<1x256xf32, #system_memory>>
#ttnn_layout22 = #ttnn.ttnn_layout<(d0, d1, d2, d3) -> (d0 + d1 + d2, d3), <1x1>, memref<1x256xbf16, #system_memory>>
#ttnn_layout23 = #ttnn.ttnn_layout<(d0) -> (0, d0), <1x1>, memref<1x48x!ttcore.tile<32x32, bf16>, #dram>, <interleaved>>
#ttnn_layout24 = #ttnn.ttnn_layout<(d0) -> (0, d0), <1x1>, memref<1x1536xf32, #system_memory>>
#ttnn_layout25 = #ttnn.ttnn_layout<(d0) -> (0, d0), <1x1>, memref<1x1536xbf16, #system_memory>>
#ttnn_layout26 = #ttnn.ttnn_layout<(d0) -> (0, d0), <1x1>, memref<1x48x!ttcore.tile<32x32, bf16>, #system_memory>>
#ttnn_layout27 = #ttnn.ttnn_layout<(d0, d1) -> (d0, d1), <1x1>, memref<10x20x!ttcore.tile<32x32, bf16>, #dram>, <interleaved>>
#ttnn_layout28 = #ttnn.ttnn_layout<(d0, d1) -> (d0, d1), <1x1>, memref<320x640xf32, #system_memory>>
#ttnn_layout29 = #ttnn.ttnn_layout<(d0, d1) -> (d0, d1), <1x1>, memref<320x640xbf16, #system_memory>>
#ttnn_layout30 = #ttnn.ttnn_layout<(d0, d1) -> (d0, d1), <1x1>, memref<10x20x!ttcore.tile<32x32, bf16>, #system_memory>>
#ttnn_layout31 = #ttnn.ttnn_layout<(d0, d1, d2, d3) -> (d0 * 1536 + d1 * 3 + d2, d3), <1x1>, memref<393216x3xbf16, #system_memory>>
#ttnn_layout32 = #ttnn.ttnn_layout<(d0, d1, d2, d3) -> (d0 * 4608 + d1 * 4608 + d2, d3), <1x1>, memref<144x8x!ttcore.tile<32x32, bf16>, #dram>, <interleaved>>
#ttnn_layout33 = #ttnn.ttnn_layout<(d0, d1, d2, d3) -> (d0 * 256 + d1 * 8 + d2, d3), <1x1>, memref<256x1xf32, #system_memory>>
#ttnn_layout34 = #ttnn.ttnn_layout<(d0, d1) -> (d0, d1), <1x1>, memref<5x10x!ttcore.tile<32x32, bf16>, #dram>, <interleaved>>
#ttnn_layout35 = #ttnn.ttnn_layout<(d0, d1) -> (d0, d1), <1x1>, memref<160x320xf32, #system_memory>>
#ttnn_layout36 = #ttnn.ttnn_layout<(d0, d1) -> (d0, d1), <1x1>, memref<160x320xbf16, #system_memory>>
#ttnn_layout37 = #ttnn.ttnn_layout<(d0, d1) -> (d0, d1), <1x1>, memref<5x10x!ttcore.tile<32x32, bf16>, #system_memory>>
#ttnn_layout38 = #ttnn.ttnn_layout<(d0, d1) -> (d0, d1), <1x1>, memref<12x23x!ttcore.tile<32x32, bf16>, #dram>, <interleaved>>
#ttnn_layout39 = #ttnn.ttnn_layout<(d0, d1) -> (d0, d1), <1x1>, memref<360x720xf32, #system_memory>>
#ttnn_layout40 = #ttnn.ttnn_layout<(d0, d1) -> (d0, d1), <1x1>, memref<360x720xbf16, #system_memory>>
#ttnn_layout41 = #ttnn.ttnn_layout<(d0, d1) -> (d0, d1), <1x1>, memref<12x23x!ttcore.tile<32x32, bf16>, #system_memory>>
#ttnn_layout42 = #ttnn.ttnn_layout<(d0, d1, d2, d3) -> (d0 * 768 + d1 * 3 + d2, d3), <1x1>, memref<98304x3xbf16, #system_memory>>
#ttnn_layout43 = #ttnn.ttnn_layout<(d0, d1, d2, d3) -> (d0 * 2304 + d1 * 2304 + d2, d3), <1x1>, memref<72x4x!ttcore.tile<32x32, bf16>, #dram>, <interleaved>>
#ttnn_layout44 = #ttnn.ttnn_layout<(d0, d1, d2, d3) -> (d0 * 32 + d1 * 32 + d2, d3), <1x1>, memref<1x1x!ttcore.tile<32x32, bf16>, #dram>, <interleaved>>
#ttnn_layout45 = #ttnn.ttnn_layout<(d0, d1) -> (d0, d1), <1x1>, memref<3x6x!ttcore.tile<32x32, bf16>, #dram>, <interleaved>>
#ttnn_layout46 = #ttnn.ttnn_layout<(d0, d1) -> (d0, d1), <1x1>, memref<90x180xf32, #system_memory>>
#ttnn_layout47 = #ttnn.ttnn_layout<(d0, d1) -> (d0, d1), <1x1>, memref<90x180xbf16, #system_memory>>
#ttnn_layout48 = #ttnn.ttnn_layout<(d0, d1) -> (d0, d1), <1x1>, memref<3x6x!ttcore.tile<32x32, bf16>, #system_memory>>
#ttnn_layout49 = #ttnn.ttnn_layout<(d0, d1) -> (d0, d1), <1x1>, memref<20x40x!ttcore.tile<32x32, bf16>, #dram>, <interleaved>>
#ttnn_layout50 = #ttnn.ttnn_layout<(d0, d1) -> (d0, d1), <1x1>, memref<640x1280xf32, #system_memory>>
#ttnn_layout51 = #ttnn.ttnn_layout<(d0, d1) -> (d0, d1), <1x1>, memref<640x1280xbf16, #system_memory>>
#ttnn_layout52 = #ttnn.ttnn_layout<(d0, d1) -> (d0, d1), <1x1>, memref<20x40x!ttcore.tile<32x32, bf16>, #system_memory>>
#ttnn_layout53 = #ttnn.ttnn_layout<(d0, d1, d2, d3) -> (d0 * 32 + d1 * 32 + d2, d3), <1x1>, memref<1x1x!ttcore.tile<32x32, f32>, #dram>, <interleaved>>
#ttnn_layout54 = #ttnn.ttnn_layout<(d0, d1, d2, d3) -> (d0 * 512 + d1 + d2, d3), <1x1>, memref<131072x1xbf16, #system_memory>>
#ttnn_layout55 = #ttnn.ttnn_layout<(d0, d1, d2, d3) -> (d0 * 512 + d1 * 512 + d2, d3), <1x1>, memref<16x8x!ttcore.tile<32x32, bf16>, #dram>, <interleaved>>
#ttnn_layout56 = #ttnn.ttnn_layout<(d0, d1) -> (d0, d1), <1x1>, memref<512x512xbf16, #system_memory>>
#ttnn_layout57 = #ttnn.ttnn_layout<(d0, d1) -> (d0, d1), <1x1>, memref<16x48x!ttcore.tile<32x32, bf16>, #dram>, <interleaved>>
#ttnn_layout58 = #ttnn.ttnn_layout<(d0, d1) -> (d0, d1), <1x1>, memref<512x512xf32, #system_memory>>
#ttnn_layout59 = #ttnn.ttnn_layout<(d0, d1) -> (d0, d1), <1x1>, memref<512x1536xf32, #system_memory>>
#ttnn_layout60 = #ttnn.ttnn_layout<(d0, d1) -> (d0, d1), <1x1>, memref<512x1536xbf16, #system_memory>>
#ttnn_layout61 = #ttnn.ttnn_layout<(d0, d1) -> (d0, d1), <1x1>, memref<16x48x!ttcore.tile<32x32, bf16>, #system_memory>>
#ttnn_layout62 = #ttnn.ttnn_layout<(d0) -> (0, d0), <1x1>, memref<1x128xbf16, #system_memory>>
#ttnn_layout63 = #ttnn.ttnn_layout<(d0, d1, d2, d3) -> (d0 * 32 + d1 * 32 + d2, d3), <1x1>, memref<1x4x!ttcore.tile<32x32, bf16>, #dram>, <interleaved>>
#ttnn_layout64 = #ttnn.ttnn_layout<(d0) -> (0, d0), <1x1>, memref<1x128xf32, #system_memory>>
#ttnn_layout65 = #ttnn.ttnn_layout<(d0, d1, d2, d3) -> (d0 + d1 + d2, d3), <1x1>, memref<1x128xf32, #system_memory>>
#ttnn_layout66 = #ttnn.ttnn_layout<(d0, d1, d2, d3) -> (d0 + d1 + d2, d3), <1x1>, memref<1x128xbf16, #system_memory>>
#ttnn_layout67 = #ttnn.ttnn_layout<(d0, d1, d2, d3) -> (d0 * 2560 + d1 * 160 + d2, d3), <1x1>, memref<2560x90xbf16, #dram>, <interleaved>>
#ttnn_layout68 = #ttnn.ttnn_layout<(d0) -> (0, d0), <1x1>, memref<1x16x!ttcore.tile<32x32, bf16>, #dram>, <interleaved>>
#ttnn_layout69 = #ttnn.ttnn_layout<(d0, d1) -> (d0, d1), <1x1>, memref<16x16x!ttcore.tile<32x32, bf16>, #dram>, <interleaved>>
#ttnn_layout70 = #ttnn.ttnn_layout<(d0, d1, d2, d3) -> (d0 * 163840 + d1 * 1280 + d2, d3), <1x1>, memref<5120x23x!ttcore.tile<32x32, bf16>, #dram>, <interleaved>>
#ttnn_layout71 = #ttnn.ttnn_layout<(d0, d1, d2, d3) -> (d0 * 2560 + d1 * 160 + d2, d3), <1x1>, memref<80x3x!ttcore.tile<32x32, bf16>, #dram>, <interleaved>>
#ttnn_layout72 = #ttnn.ttnn_layout<(d0, d1, d2, d3) -> (d0 * 15360 + d1 * 96 + d2, d3), <1x1>, memref<480x1x!ttcore.tile<32x32, bf16>, #dram>, <interleaved>>
#ttnn_layout73 = #ttnn.ttnn_layout<(d0, d1, d2, d3) -> (d0 * 14400 + d1 * 14400 + d2, d3), <1x1>, memref<450x1x!ttcore.tile<32x32, bf16>, #dram>, <interleaved>>
#ttnn_layout74 = #ttnn.ttnn_layout<(d0, d1, d2, d3) -> (d0 * 14400 + d1 * 14400 + d2, d3), <1x1>, memref<450x16x!ttcore.tile<32x32, bf16>, #dram>, <interleaved>>
#ttnn_layout75 = #ttnn.ttnn_layout<(d0, d1, d2, d3) -> (d0 * 14400 + d1 * 14400 + d2, d3), <1x1>, memref<450x16x!ttcore.tile<32x32, f32>, #dram>, <interleaved>>
#ttnn_layout76 = #ttnn.ttnn_layout<(d0, d1, d2, d3) -> (d0 * 15360 + d1 * 96 + d2, d3), <1x1>, memref<480x16x!ttcore.tile<32x32, f32>, #dram>, <interleaved>>
#ttnn_layout77 = #ttnn.ttnn_layout<(d0, d1, d2, d3) -> (d0 * 81920 + d1 * 160 + d2, d3), <1x1>, memref<2560x3x!ttcore.tile<32x32, f32>, #dram>, <interleaved>>
#ttnn_layout78 = #ttnn.ttnn_layout<(d0, d1, d2, d3) -> (d0 * 1024 + d1 * 32 + d2, d3), <1x1>, memref<32x450x!ttcore.tile<32x32, f32>, #dram>, <interleaved>>
#ttnn_layout79 = #ttnn.ttnn_layout<(d0, d1, d2, d3) -> (d0 * 1024 + d1 * 32 + d2, d3), <1x1>, memref<32x450x!ttcore.tile<32x32, bf16>, #dram>, <interleaved>>
#ttnn_layout80 = #ttnn.ttnn_layout<(d0, d1, d2, d3) -> (d0 * 81920 + d1 * 160 + d2, d3), <1x1>, memref<2560x3x!ttcore.tile<32x32, bf16>, #dram>, <interleaved>>
#ttnn_layout81 = #ttnn.ttnn_layout<(d0, d1, d2, d3) -> (d0 * 15360 + d1 * 96 + d2, d3), <1x1>, memref<480x16x!ttcore.tile<32x32, bf16>, #dram>, <interleaved>>
#ttnn_layout82 = #ttnn.ttnn_layout<(d0, d1, d2) -> (d0 * 512 + d1, d2), <1x1>, memref<16x450x!ttcore.tile<32x32, bf16>, #dram>, <interleaved>>
#ttnn_layout83 = #ttnn.ttnn_layout<(d0, d1, d2) -> (d0 * 14400 + d1, d2), <1x1>, memref<450x16x!ttcore.tile<32x32, bf16>, #dram>, <interleaved>>
#ttnn_layout84 = #ttnn.ttnn_layout<(d0, d1) -> (d0, d1), <1x1>, memref<450x16x!ttcore.tile<32x32, bf16>, #dram>, <interleaved>>
#ttnn_layout85 = #ttnn.ttnn_layout<(d0, d1) -> (d0, d1), <1x1>, memref<450x48x!ttcore.tile<32x32, bf16>, #dram>, <interleaved>>
#ttnn_layout86 = #ttnn.ttnn_layout<(d0, d1, d2) -> (d0 * 14400 + d1, d2), <1x1>, memref<450x48x!ttcore.tile<32x32, bf16>, #dram>, <interleaved>>
#ttnn_layout87 = #ttnn.ttnn_layout<(d0, d1, d2, d3) -> (d0 * 49152 + d1 * 96 + d2, d3), <1x1>, memref<1536x5x!ttcore.tile<32x32, bf16>, #dram>, <interleaved>>
#ttnn_layout88 = #ttnn.ttnn_layout<(d0, d1) -> (d0, d1), <1x1>, memref<1440x5x!ttcore.tile<32x32, bf16>, #dram>, <interleaved>>
#ttnn_layout89 = #ttnn.ttnn_layout<(d0, d1) -> (d0, d1), <1x1>, memref<1440x10x!ttcore.tile<32x32, bf16>, #dram>, <interleaved>>
#ttnn_layout90 = #ttnn.ttnn_layout<(d0, d1, d2, d3) -> (d0 * 49152 + d1 * 96 + d2, d3), <1x1>, memref<1536x10x!ttcore.tile<32x32, bf16>, #dram>, <interleaved>>
#ttnn_layout91 = #ttnn.ttnn_layout<(d0, d1, d2, d3) -> (d0 * 163840 + d1 * 320 + d2, d3), <1x1>, memref<5120x3x!ttcore.tile<32x32, bf16>, #dram>, <interleaved>>
#ttnn_layout92 = #ttnn.ttnn_layout<(d0, d1) -> (d0, d1), <1x1>, memref<5120x3x!ttcore.tile<32x32, bf16>, #dram>, <interleaved>>
#ttnn_layout93 = #ttnn.ttnn_layout<(d0, d1) -> (d0, d1), <1x1>, memref<5120x6x!ttcore.tile<32x32, bf16>, #dram>, <interleaved>>
#ttnn_layout94 = #ttnn.ttnn_layout<(d0, d1, d2, d3) -> (d0 * 163840 + d1 * 320 + d2, d3), <1x1>, memref<5120x6x!ttcore.tile<32x32, bf16>, #dram>, <interleaved>>
#ttnn_layout95 = #ttnn.ttnn_layout<(d0, d1, d2, d3) -> (d0 * 61440 + d1 * 192 + d2, d3), <1x1>, memref<1920x16x!ttcore.tile<32x32, bf16>, #dram>, <interleaved>>
#ttnn_layout96 = #ttnn.ttnn_layout<(d0, d1, d2, d3) -> (d0 * 57600 + d1 * 57600 + d2, d3), <1x1>, memref<1800x16x!ttcore.tile<32x32, bf16>, #dram>, <interleaved>>
#ttnn_layout97 = #ttnn.ttnn_layout<(d0, d1, d2, d3) -> (d0 * 57600 + d1 * 57600 + d2, d3), <1x1>, memref<1800x16x!ttcore.tile<32x32, f32>, #dram>, <interleaved>>
#ttnn_layout98 = #ttnn.ttnn_layout<(d0, d1, d2, d3) -> (d0 * 61440 + d1 * 192 + d2, d3), <1x1>, memref<1920x16x!ttcore.tile<32x32, f32>, #dram>, <interleaved>>
#ttnn_layout99 = #ttnn.ttnn_layout<(d0, d1, d2, d3) -> (d0 * 163840 + d1 * 320 + d2, d3), <1x1>, memref<5120x6x!ttcore.tile<32x32, f32>, #dram>, <interleaved>>
#ttnn_layout100 = #ttnn.ttnn_layout<(d0, d1, d2, d3) -> (d0 * 1024 + d1 * 32 + d2, d3), <1x1>, memref<32x1800x!ttcore.tile<32x32, f32>, #dram>, <interleaved>>
#ttnn_layout101 = #ttnn.ttnn_layout<(d0, d1, d2, d3) -> (d0 * 1024 + d1 * 32 + d2, d3), <1x1>, memref<32x1800x!ttcore.tile<32x32, bf16>, #dram>, <interleaved>>
#ttnn_layout102 = #ttnn.ttnn_layout<(d0, d1, d2, d3) -> (d0 * 98304 + d1 * 192 + d2, d3), <1x1>, memref<3072x10x!ttcore.tile<32x32, bf16>, #dram>, <interleaved>>
#ttnn_layout103 = #ttnn.ttnn_layout<(d0, d1) -> (d0, d1), <1x1>, memref<2880x10x!ttcore.tile<32x32, bf16>, #dram>, <interleaved>>
#ttnn_layout104 = #ttnn.ttnn_layout<(d0, d1) -> (d0, d1), <1x1>, memref<2880x20x!ttcore.tile<32x32, bf16>, #dram>, <interleaved>>
#ttnn_layout105 = #ttnn.ttnn_layout<(d0, d1, d2, d3) -> (d0 * 98304 + d1 * 192 + d2, d3), <1x1>, memref<3072x20x!ttcore.tile<32x32, bf16>, #dram>, <interleaved>>
#ttnn_layout106 = #ttnn.ttnn_layout<(d0, d1, d2, d3) -> (d0 * 327680 + d1 * 640 + d2, d3), <1x1>, memref<10240x6x!ttcore.tile<32x32, bf16>, #dram>, <interleaved>>
#ttnn_layout107 = #ttnn.ttnn_layout<(d0, d1) -> (d0, d1), <1x1>, memref<10240x6x!ttcore.tile<32x32, bf16>, #dram>, <interleaved>>
#ttnn_layout108 = #ttnn.ttnn_layout<(d0, d1) -> (d0, d1), <1x1>, memref<10240x12x!ttcore.tile<32x32, bf16>, #dram>, <interleaved>>
#ttnn_layout109 = #ttnn.ttnn_layout<(d0, d1, d2, d3) -> (d0 * 327680 + d1 * 640 + d2, d3), <1x1>, memref<10240x12x!ttcore.tile<32x32, bf16>, #dram>, <interleaved>>
#ttnn_layout110 = #ttnn.ttnn_layout<(d0, d1, d2, d3) -> (d0 * 245760 + d1 * 384 + d2, d3), <1x1>, memref<7680x16x!ttcore.tile<32x32, bf16>, #dram>, <interleaved>>
#ttnn_layout111 = #ttnn.ttnn_layout<(d0, d1, d2, d3) -> (d0 * 230400 + d1 * 230400 + d2, d3), <1x1>, memref<7200x16x!ttcore.tile<32x32, bf16>, #dram>, <interleaved>>
#ttnn_layout112 = #ttnn.ttnn_layout<(d0, d1, d2, d3) -> (d0 * 230400 + d1 * 230400 + d2, d3), <1x1>, memref<7200x8x!ttcore.tile<32x32, bf16>, #dram>, <interleaved>>
#ttnn_layout113 = #ttnn.ttnn_layout<(d0, d1, d2, d3) -> (d0 * 230400 + d1 * 230400 + d2, d3), <1x1>, memref<7200x16x!ttcore.tile<32x32, f32>, #dram>, <interleaved>>
#ttnn_layout114 = #ttnn.ttnn_layout<(d0, d1, d2, d3) -> (d0 * 245760 + d1 * 384 + d2, d3), <1x1>, memref<7680x16x!ttcore.tile<32x32, f32>, #dram>, <interleaved>>
#ttnn_layout115 = #ttnn.ttnn_layout<(d0, d1, d2, d3) -> (d0 * 327680 + d1 * 640 + d2, d3), <1x1>, memref<10240x12x!ttcore.tile<32x32, f32>, #dram>, <interleaved>>
#ttnn_layout116 = #ttnn.ttnn_layout<(d0, d1, d2, d3) -> (d0 * 1024 + d1 * 32 + d2, d3), <1x1>, memref<32x7200x!ttcore.tile<32x32, f32>, #dram>, <interleaved>>
#ttnn_layout117 = #ttnn.ttnn_layout<(d0, d1, d2, d3) -> (d0 * 1024 + d1 * 32 + d2, d3), <1x1>, memref<32x7200x!ttcore.tile<32x32, bf16>, #dram>, <interleaved>>
#ttnn_layout118 = #ttnn.ttnn_layout<(d0, d1, d2, d3) -> (d0 * 230400 + d1 * 230400 + d2, d3), <1x1>, memref<7200x8x!ttcore.tile<32x32, f32>, #dram>, <interleaved>>
#ttnn_layout119 = #ttnn.ttnn_layout<(d0, d1, d2, d3) -> (d0 * 245760 + d1 * 384 + d2, d3), <1x1>, memref<7680x8x!ttcore.tile<32x32, f32>, #dram>, <interleaved>>
#ttnn_layout120 = #ttnn.ttnn_layout<(d0, d1, d2, d3) -> (d0 * 163840 + d1 * 640 + d2, d3), <1x1>, memref<5120x12x!ttcore.tile<32x32, f32>, #dram>, <interleaved>>
#ttnn_layout121 = #ttnn.ttnn_layout<(d0, d1, d2, d3) -> (d0 * 163840 + d1 * 640 + d2, d3), <1x1>, memref<5120x12x!ttcore.tile<32x32, bf16>, #dram>, <interleaved>>
#ttnn_layout122 = #ttnn.ttnn_layout<(d0, d1, d2, d3) -> (d0 * 245760 + d1 * 384 + d2, d3), <1x1>, memref<7680x8x!ttcore.tile<32x32, bf16>, #dram>, <interleaved>>
#ttnn_layout123 = #ttnn.ttnn_layout<(d0, d1, d2, d3) -> (d0 * 98304 + d1 * 384 + d2, d3), <1x1>, memref<3072x20x!ttcore.tile<32x32, bf16>, #dram>, <interleaved>>
#ttnn_layout124 = #ttnn.ttnn_layout<(d0, d1) -> (d0, d1), <1x1>, memref<2880x40x!ttcore.tile<32x32, bf16>, #dram>, <interleaved>>
#ttnn_layout125 = #ttnn.ttnn_layout<(d0, d1, d2, d3) -> (d0 * 98304 + d1 * 384 + d2, d3), <1x1>, memref<3072x40x!ttcore.tile<32x32, bf16>, #dram>, <interleaved>>
#ttnn_layout126 = #ttnn.ttnn_layout<(d0, d1, d2, d3) -> (d0 * 327680 + d1 * 1280 + d2, d3), <1x1>, memref<10240x12x!ttcore.tile<32x32, bf16>, #dram>, <interleaved>>
#ttnn_layout127 = #ttnn.ttnn_layout<(d0, d1) -> (d0, d1), <1x1>, memref<10240x23x!ttcore.tile<32x32, bf16>, #dram>, <interleaved>>
#ttnn_layout128 = #ttnn.ttnn_layout<(d0, d1, d2, d3) -> (d0 * 327680 + d1 * 1280 + d2, d3), <1x1>, memref<10240x23x!ttcore.tile<32x32, bf16>, #dram>, <interleaved>>
#ttnn_layout129 = #ttnn.ttnn_layout<(d0, d1, d2, d3) -> (d0 * 942080 + d1 * 736 + d2, d3), <1x1>, memref<29440x8x!ttcore.tile<32x32, bf16>, #dram>, <interleaved>>
#ttnn_layout130 = #ttnn.ttnn_layout<(d0, d1, d2, d3) -> (d0 * 921600 + d1 * 921600 + d2, d3), <1x1>, memref<28800x8x!ttcore.tile<32x32, bf16>, #dram>, <interleaved>>
#ttnn_layout131 = #ttnn.ttnn_layout<(d0, d1, d2, d3) -> (d0 * 921600 + d1 * 921600 + d2, d3), <1x1>, memref<28800x8x!ttcore.tile<32x32, f32>, #dram>, <interleaved>>
#ttnn_layout132 = #ttnn.ttnn_layout<(d0, d1, d2, d3) -> (d0 * 942080 + d1 * 736 + d2, d3), <1x1>, memref<29440x8x!ttcore.tile<32x32, f32>, #dram>, <interleaved>>
#ttnn_layout133 = #ttnn.ttnn_layout<(d0, d1, d2, d3) -> (d0 * 327680 + d1 * 1280 + d2, d3), <1x1>, memref<10240x23x!ttcore.tile<32x32, f32>, #dram>, <interleaved>>
#ttnn_layout134 = #ttnn.ttnn_layout<(d0, d1, d2, d3) -> (d0 * 1024 + d1 * 32 + d2, d3), <1x1>, memref<32x28800x!ttcore.tile<32x32, f32>, #dram>, <interleaved>>
#ttnn_layout135 = #ttnn.ttnn_layout<(d0, d1, d2, d3) -> (d0 * 1024 + d1 * 32 + d2, d3), <1x1>, memref<32x28800x!ttcore.tile<32x32, bf16>, #dram>, <interleaved>>
#ttnn_layout136 = #ttnn.ttnn_layout<(d0, d1, d2, d3) -> (d0 * 921600 + d1 * 921600 + d2, d3), <1x1>, memref<28800x4x!ttcore.tile<32x32, bf16>, #dram>, <interleaved>>
#ttnn_layout137 = #ttnn.ttnn_layout<(d0, d1, d2, d3) -> (d0 * 942080 + d1 * 736 + d2, d3), <1x1>, memref<29440x4x!ttcore.tile<32x32, bf16>, #dram>, <interleaved>>
module @SyncTensorsGraph.3119 attributes {mhlo.cross_program_prefetches = [], mhlo.input_output_alias = [], mhlo.is_dynamic = false, mhlo.use_auto_spmd_partitioning = false, ttcore.meshes = #ttcore.meshes<[<"mesh" = 1x1>]>} {
  ttcore.device_module {
    builtin.module @SyncTensorsGraph.3119 attributes {mhlo.cross_program_prefetches = [], mhlo.input_output_alias = [], mhlo.is_dynamic = false, mhlo.use_auto_spmd_partitioning = false, ttcore.meshes = #ttcore.meshes<[<"mesh" = 1x1>]>, ttcore.system_desc = #system_desc, ttnn.l1_const_eval_usage = 1024 : ui64} {
      ttcore.device @default_device = <workerGrid = #ttcore.grid<8x8, virt_to_physical_map = (d0, d1) -> (0, d0, d1), physical_to_virt_map = (d0, d1, d2) -> (d1, d2)>, dramGrid = #ttcore.grid<1x12>, l1Map = (d0, d1, d2)[s0] -> (0, d0, d1, d2 + s0), dramMap = (d0, d1, d2)[s0, s1, s2, s3, s4, s5, s6] -> (0, 0, (((d0 * s1) * (s2 * (s3 * s6)) + d1 * (s2 * (s3 * s6)) + d2) floordiv s4) mod 12, ((((d0 * s1) * (s2 * (s3 * s6)) + d1 * (s2 * (s3 * s6)) + d2) floordiv s4) floordiv 12) * s4 + ((d0 * s1) * (s2 * (s3 * s6)) + d1 * (s2 * (s3 * s6)) + d2) mod s4 + s5), meshShape = 1x1, chipIds = [0]> loc(#loc)
      func.func private @main_const_eval_0(%arg0: tensor<512x16x3x3xbf16, #ttnn_layout> {ttir.conv2d_weight} loc(unknown)) -> tensor<1x1x144x512xbf16, #ttnn_layout1> attributes {tt.function_type = "const_eval"} {
        %0 = "ttnn.get_device"() <{mesh_offset = #ttnn<mesh_offset 0x0>, mesh_shape = #ttnn<mesh_shape 1x1>}> : () -> !ttnn.device loc(#loc1)
        %1 = "ttnn.prepare_conv2d_weights"(%arg0, %0) <{batch_size = 1 : i32, conv2d_config = #ttnn.conv2d_config<weights_dtype = bf16, deallocate_activation = true, act_block_h_override = 0, enable_kernel_stride_folding = false, config_tensors_in_dram = true>, conv2d_slice_config = #ttnn.conv2d_slice_config<l1_full, 0>, dilation = array<i32: 1, 1>, groups = 1 : i32, has_bias = true, in_channels = 16 : i32, input_dtype = #ttcore.supportedDataTypes<bf16>, input_height = 160 : i32, input_memory_config = #ttnn.memory_config<#dram, <interleaved>>, input_tensor_layout = #ttnn.layout<tile>, input_width = 90 : i32, kernel_size = array<i32: 3, 3>, out_channels = 512 : i32, output_dtype = #ttcore.supportedDataTypes<bf16>, padding = array<i32: 1, 1, 1, 1>, stride = array<i32: 1, 1>, weights_format = "OIHW"}> : (tensor<512x16x3x3xbf16, #ttnn_layout>, !ttnn.device) -> tensor<1x1x144x512xbf16, #ttnn_layout1> loc(#loc510)
        return %1 : tensor<1x1x144x512xbf16, #ttnn_layout1> loc(#loc)
      } loc(#loc)
      func.func private @main_const_eval_1(%arg0: tensor<512xbf16, #ttnn_layout2> loc(unknown)) -> tensor<1x1x1x512xbf16, #ttnn_layout3> attributes {tt.function_type = "const_eval"} {
        %0 = "ttnn.get_device"() <{mesh_offset = #ttnn<mesh_offset 0x0>, mesh_shape = #ttnn<mesh_shape 1x1>}> : () -> !ttnn.device loc(#loc1)
        %1 = "ttnn.typecast"(%arg0) <{dtype = #ttcore.supportedDataTypes<f32>}> : (tensor<512xbf16, #ttnn_layout2>) -> tensor<512xf32, #ttnn_layout4> loc(#loc)
        %2 = call @cpu_hoisted_const_eval_24665087(%1) {ttir.cpu_hoist_call} : (tensor<512xf32, #ttnn_layout4>) -> tensor<1x1x1x512xf32, #ttnn_layout5> loc(#loc)
        "ttnn.deallocate"(%1) <{force = false}> : (tensor<512xf32, #ttnn_layout4>) -> () loc(#loc)
        %3 = "ttnn.typecast"(%2) <{dtype = #ttcore.supportedDataTypes<bf16>}> : (tensor<1x1x1x512xf32, #ttnn_layout5>) -> tensor<1x1x1x512xbf16, #ttnn_layout6> loc(#loc511)
        "ttnn.deallocate"(%2) <{force = false}> : (tensor<1x1x1x512xf32, #ttnn_layout5>) -> () loc(#loc511)
        %4 = "ttnn.prepare_conv2d_bias"(%3, %0) <{batch_size = 1 : i32, conv2d_config = #ttnn.conv2d_config<weights_dtype = bf16, deallocate_activation = true, act_block_h_override = 64, enable_kernel_stride_folding = false, config_tensors_in_dram = true>, conv2d_slice_config = #ttnn.conv2d_slice_config<l1_full, 0>, dilation = array<i32: 1, 1>, groups = 1 : i32, in_channels = 512 : i32, input_dtype = #ttcore.supportedDataTypes<bf16>, input_height = 160 : i32, input_memory_config = #ttnn.memory_config<#dram, <interleaved>>, input_tensor_layout = #ttnn.layout<tile>, input_width = 90 : i32, kernel_size = array<i32: 3, 3>, out_channels = 512 : i32, output_dtype = #ttcore.supportedDataTypes<bf16>, padding = array<i32: 1, 1, 1, 1>, stride = array<i32: 1, 1>}> : (tensor<1x1x1x512xbf16, #ttnn_layout6>, !ttnn.device) -> tensor<1x1x1x512xbf16, #ttnn_layout3> loc(#loc512)
        "ttnn.deallocate"(%3) <{force = false}> : (tensor<1x1x1x512xbf16, #ttnn_layout6>) -> () loc(#loc512)
        return %4 : tensor<1x1x1x512xbf16, #ttnn_layout3> loc(#loc)
      } loc(#loc)
      func.func private @main_const_eval_2() -> tensor<180x360xbf16, #ttnn_layout7> attributes {tt.function_type = "const_eval"} {
        %0 = "ttnn.get_device"() <{mesh_offset = #ttnn<mesh_offset 0x0>, mesh_shape = #ttnn<mesh_shape 1x1>}> : () -> !ttnn.device loc(#loc)
        %1 = call @cpu_hoisted_const_eval_4c628f88() {ttir.cpu_hoist_call} : () -> tensor<180x360xf32, #ttnn_layout8> loc(#loc)
        %2 = "ttnn.typecast"(%1) <{dtype = #ttcore.supportedDataTypes<bf16>}> : (tensor<180x360xf32, #ttnn_layout8>) -> tensor<180x360xbf16, #ttnn_layout9> loc(#loc)
        "ttnn.deallocate"(%1) <{force = false}> : (tensor<180x360xf32, #ttnn_layout8>) -> () loc(#loc)
        %3 = "ttnn.to_layout"(%2) <{layout = #ttnn.layout<tile>}> : (tensor<180x360xbf16, #ttnn_layout9>) -> tensor<180x360xbf16, #ttnn_layout10> loc(#loc)
        "ttnn.deallocate"(%2) <{force = false}> : (tensor<180x360xbf16, #ttnn_layout9>) -> () loc(#loc)
        %4 = "ttnn.to_device"(%3, %0) : (tensor<180x360xbf16, #ttnn_layout10>, !ttnn.device) -> tensor<180x360xbf16, #ttnn_layout7> loc(#loc)
        "ttnn.deallocate"(%3) <{force = false}> : (tensor<180x360xbf16, #ttnn_layout10>) -> () loc(#loc)
        return %4 : tensor<180x360xbf16, #ttnn_layout7> loc(#loc)
      } loc(#loc)
      func.func private @main_const_eval_3(%arg0: tensor<512x512x3x3xbf16, #ttnn_layout11> {ttir.conv2d_weight} loc(unknown)) -> tensor<1x1x4608x512xbf16, #ttnn_layout12> attributes {tt.function_type = "const_eval"} {
        %0 = "ttnn.get_device"() <{mesh_offset = #ttnn<mesh_offset 0x0>, mesh_shape = #ttnn<mesh_shape 1x1>}> : () -> !ttnn.device loc(#loc1)
        %1 = "ttnn.prepare_conv2d_weights"(%arg0, %0) <{batch_size = 1 : i32, conv2d_config = #ttnn.conv2d_config<weights_dtype = bf16, deallocate_activation = true, act_block_h_override = 64, enable_kernel_stride_folding = false, config_tensors_in_dram = true>, conv2d_slice_config = #ttnn.conv2d_slice_config<l1_full, 0>, dilation = array<i32: 1, 1>, groups = 1 : i32, has_bias = true, in_channels = 512 : i32, input_dtype = #ttcore.supportedDataTypes<bf16>, input_height = 160 : i32, input_memory_config = #ttnn.memory_config<#dram, <interleaved>>, input_tensor_layout = #ttnn.layout<tile>, input_width = 90 : i32, kernel_size = array<i32: 3, 3>, out_channels = 512 : i32, output_dtype = #ttcore.supportedDataTypes<bf16>, padding = array<i32: 1, 1, 1, 1>, stride = array<i32: 1, 1>, weights_format = "OIHW"}> : (tensor<512x512x3x3xbf16, #ttnn_layout11>, !ttnn.device) -> tensor<1x1x4608x512xbf16, #ttnn_layout12> loc(#loc513)
        return %1 : tensor<1x1x4608x512xbf16, #ttnn_layout12> loc(#loc)
      } loc(#loc)
      func.func private @main_const_eval_4(%arg0: tensor<512xbf16, #ttnn_layout2> loc(unknown)) -> tensor<1x1x1x512xbf16, #ttnn_layout3> attributes {tt.function_type = "const_eval"} {
        %0 = "ttnn.get_device"() <{mesh_offset = #ttnn<mesh_offset 0x0>, mesh_shape = #ttnn<mesh_shape 1x1>}> : () -> !ttnn.device loc(#loc1)
        %1 = "ttnn.typecast"(%arg0) <{dtype = #ttcore.supportedDataTypes<f32>}> : (tensor<512xbf16, #ttnn_layout2>) -> tensor<512xf32, #ttnn_layout4> loc(#loc)
        %2 = call @cpu_hoisted_const_eval_24665087(%1) {ttir.cpu_hoist_call} : (tensor<512xf32, #ttnn_layout4>) -> tensor<1x1x1x512xf32, #ttnn_layout5> loc(#loc)
        "ttnn.deallocate"(%1) <{force = false}> : (tensor<512xf32, #ttnn_layout4>) -> () loc(#loc)
        %3 = "ttnn.typecast"(%2) <{dtype = #ttcore.supportedDataTypes<bf16>}> : (tensor<1x1x1x512xf32, #ttnn_layout5>) -> tensor<1x1x1x512xbf16, #ttnn_layout6> loc(#loc514)
        "ttnn.deallocate"(%2) <{force = false}> : (tensor<1x1x1x512xf32, #ttnn_layout5>) -> () loc(#loc514)
        %4 = "ttnn.prepare_conv2d_bias"(%3, %0) <{batch_size = 1 : i32, conv2d_config = #ttnn.conv2d_config<weights_dtype = bf16, deallocate_activation = true, act_block_h_override = 64, enable_kernel_stride_folding = false, config_tensors_in_dram = true>, conv2d_slice_config = #ttnn.conv2d_slice_config<l1_full, 0>, dilation = array<i32: 1, 1>, groups = 1 : i32, in_channels = 512 : i32, input_dtype = #ttcore.supportedDataTypes<bf16>, input_height = 160 : i32, input_memory_config = #ttnn.memory_config<#dram, <interleaved>>, input_tensor_layout = #ttnn.layout<tile>, input_width = 90 : i32, kernel_size = array<i32: 3, 3>, out_channels = 512 : i32, output_dtype = #ttcore.supportedDataTypes<bf16>, padding = array<i32: 1, 1, 1, 1>, stride = array<i32: 1, 1>}> : (tensor<1x1x1x512xbf16, #ttnn_layout6>, !ttnn.device) -> tensor<1x1x1x512xbf16, #ttnn_layout3> loc(#loc515)
        "ttnn.deallocate"(%3) <{force = false}> : (tensor<1x1x1x512xbf16, #ttnn_layout6>) -> () loc(#loc515)
        return %4 : tensor<1x1x1x512xbf16, #ttnn_layout3> loc(#loc)
      } loc(#loc)
      func.func private @main_const_eval_5(%arg0: tensor<512xbf16, #ttnn_layout2> loc(unknown)) -> tensor<1x32x16x1xf32, #ttnn_layout13> attributes {tt.function_type = "const_eval"} {
        %0 = "ttnn.get_device"() <{mesh_offset = #ttnn<mesh_offset 0x0>, mesh_shape = #ttnn<mesh_shape 1x1>}> : () -> !ttnn.device loc(#loc)
        %1 = "ttnn.typecast"(%arg0) <{dtype = #ttcore.supportedDataTypes<f32>}> : (tensor<512xbf16, #ttnn_layout2>) -> tensor<512xf32, #ttnn_layout4> loc(#loc)
        %2 = call @cpu_hoisted_const_eval_ce3dc089(%1) {ttir.cpu_hoist_call} : (tensor<512xf32, #ttnn_layout4>) -> tensor<1x32x16x1xf32, #ttnn_layout14> loc(#loc)
        "ttnn.deallocate"(%1) <{force = false}> : (tensor<512xf32, #ttnn_layout4>) -> () loc(#loc)
        %3 = "ttnn.to_layout"(%2) <{layout = #ttnn.layout<tile>}> : (tensor<1x32x16x1xf32, #ttnn_layout14>) -> tensor<1x32x16x1xf32, #ttnn_layout15> loc(#loc)
        "ttnn.deallocate"(%2) <{force = false}> : (tensor<1x32x16x1xf32, #ttnn_layout14>) -> () loc(#loc)
        %4 = "ttnn.to_device"(%3, %0) : (tensor<1x32x16x1xf32, #ttnn_layout15>, !ttnn.device) -> tensor<1x32x16x1xf32, #ttnn_layout13> loc(#loc)
        "ttnn.deallocate"(%3) <{force = false}> : (tensor<1x32x16x1xf32, #ttnn_layout15>) -> () loc(#loc)
        return %4 : tensor<1x32x16x1xf32, #ttnn_layout13> loc(#loc)
      } loc(#loc)
      func.func private @main_const_eval_6(%arg0: tensor<512x512x3x3xbf16, #ttnn_layout11> {ttir.conv2d_weight} loc(unknown)) -> tensor<1x1x4608x512xbf16, #ttnn_layout12> attributes {tt.function_type = "const_eval"} {
        %0 = "ttnn.get_device"() <{mesh_offset = #ttnn<mesh_offset 0x0>, mesh_shape = #ttnn<mesh_shape 1x1>}> : () -> !ttnn.device loc(#loc1)
        %1 = "ttnn.prepare_conv2d_weights"(%arg0, %0) <{batch_size = 1 : i32, conv2d_config = #ttnn.conv2d_config<weights_dtype = bf16, act_block_h_override = 1024, enable_kernel_stride_folding = false, config_tensors_in_dram = true>, conv2d_slice_config = #ttnn.conv2d_slice_config<dram_width, 0>, dilation = array<i32: 1, 1>, groups = 1 : i32, has_bias = true, in_channels = 512 : i32, input_dtype = #ttcore.supportedDataTypes<bf16>, input_height = 320 : i32, input_memory_config = #ttnn.memory_config<#dram, <interleaved>>, input_tensor_layout = #ttnn.layout<tile>, input_width = 180 : i32, kernel_size = array<i32: 3, 3>, out_channels = 512 : i32, output_dtype = #ttcore.supportedDataTypes<bf16>, padding = array<i32: 1, 1, 1, 1>, stride = array<i32: 1, 1>, weights_format = "OIHW"}> : (tensor<512x512x3x3xbf16, #ttnn_layout11>, !ttnn.device) -> tensor<1x1x4608x512xbf16, #ttnn_layout12> loc(#loc516)
        return %1 : tensor<1x1x4608x512xbf16, #ttnn_layout12> loc(#loc)
      } loc(#loc)
      func.func private @main_const_eval_7(%arg0: tensor<256x256x3x3xbf16, #ttnn_layout16> {ttir.conv2d_weight} loc(unknown)) -> tensor<1x1x2304x256xbf16, #ttnn_layout17> attributes {tt.function_type = "const_eval"} {
        %0 = "ttnn.get_device"() <{mesh_offset = #ttnn<mesh_offset 0x0>, mesh_shape = #ttnn<mesh_shape 1x1>}> : () -> !ttnn.device loc(#loc1)
        %1 = "ttnn.prepare_conv2d_weights"(%arg0, %0) <{batch_size = 1 : i32, conv2d_config = #ttnn.conv2d_config<weights_dtype = bf16, act_block_h_override = 1024, enable_kernel_stride_folding = false, config_tensors_in_dram = true>, conv2d_slice_config = #ttnn.conv2d_slice_config<dram_width, 0>, dilation = array<i32: 1, 1>, groups = 1 : i32, has_bias = true, in_channels = 256 : i32, input_dtype = #ttcore.supportedDataTypes<bf16>, input_height = 640 : i32, input_memory_config = #ttnn.memory_config<#dram, <interleaved>>, input_tensor_layout = #ttnn.layout<tile>, input_width = 360 : i32, kernel_size = array<i32: 3, 3>, out_channels = 256 : i32, output_dtype = #ttcore.supportedDataTypes<bf16>, padding = array<i32: 1, 1, 1, 1>, stride = array<i32: 1, 1>, weights_format = "OIHW"}> : (tensor<256x256x3x3xbf16, #ttnn_layout16>, !ttnn.device) -> tensor<1x1x2304x256xbf16, #ttnn_layout17> loc(#loc517)
        return %1 : tensor<1x1x2304x256xbf16, #ttnn_layout17> loc(#loc)
      } loc(#loc)
      func.func private @main_const_eval_8(%arg0: tensor<512xbf16, #ttnn_layout2> loc(unknown)) -> tensor<1x1x1x512xbf16, #ttnn_layout3> attributes {tt.function_type = "const_eval"} {
        %0 = "ttnn.get_device"() <{mesh_offset = #ttnn<mesh_offset 0x0>, mesh_shape = #ttnn<mesh_shape 1x1>}> : () -> !ttnn.device loc(#loc1)
        %1 = "ttnn.typecast"(%arg0) <{dtype = #ttcore.supportedDataTypes<f32>}> : (tensor<512xbf16, #ttnn_layout2>) -> tensor<512xf32, #ttnn_layout4> loc(#loc)
        %2 = call @cpu_hoisted_const_eval_24665087(%1) {ttir.cpu_hoist_call} : (tensor<512xf32, #ttnn_layout4>) -> tensor<1x1x1x512xf32, #ttnn_layout5> loc(#loc)
        "ttnn.deallocate"(%1) <{force = false}> : (tensor<512xf32, #ttnn_layout4>) -> () loc(#loc)
        %3 = "ttnn.typecast"(%2) <{dtype = #ttcore.supportedDataTypes<bf16>}> : (tensor<1x1x1x512xf32, #ttnn_layout5>) -> tensor<1x1x1x512xbf16, #ttnn_layout6> loc(#loc518)
        "ttnn.deallocate"(%2) <{force = false}> : (tensor<1x1x1x512xf32, #ttnn_layout5>) -> () loc(#loc518)
        %4 = "ttnn.prepare_conv2d_bias"(%3, %0) <{batch_size = 1 : i32, conv2d_config = #ttnn.conv2d_config<weights_dtype = bf16, deallocate_activation = true, act_block_h_override = 64, enable_kernel_stride_folding = false, config_tensors_in_dram = true>, conv2d_slice_config = #ttnn.conv2d_slice_config<l1_full, 0>, dilation = array<i32: 1, 1>, groups = 1 : i32, in_channels = 512 : i32, input_dtype = #ttcore.supportedDataTypes<bf16>, input_height = 160 : i32, input_memory_config = #ttnn.memory_config<#dram, <interleaved>>, input_tensor_layout = #ttnn.layout<tile>, input_width = 90 : i32, kernel_size = array<i32: 3, 3>, out_channels = 512 : i32, output_dtype = #ttcore.supportedDataTypes<bf16>, padding = array<i32: 1, 1, 1, 1>, stride = array<i32: 1, 1>}> : (tensor<1x1x1x512xbf16, #ttnn_layout6>, !ttnn.device) -> tensor<1x1x1x512xbf16, #ttnn_layout3> loc(#loc519)
        "ttnn.deallocate"(%3) <{force = false}> : (tensor<1x1x1x512xbf16, #ttnn_layout6>) -> () loc(#loc519)
        return %4 : tensor<1x1x1x512xbf16, #ttnn_layout3> loc(#loc)
      } loc(#loc)
      func.func private @main_const_eval_9(%arg0: tensor<512x512x3x3xbf16, #ttnn_layout11> {ttir.conv2d_weight} loc(unknown)) -> tensor<1x1x4608x512xbf16, #ttnn_layout12> attributes {tt.function_type = "const_eval"} {
        %0 = "ttnn.get_device"() <{mesh_offset = #ttnn<mesh_offset 0x0>, mesh_shape = #ttnn<mesh_shape 1x1>}> : () -> !ttnn.device loc(#loc1)
        %1 = "ttnn.prepare_conv2d_weights"(%arg0, %0) <{batch_size = 1 : i32, conv2d_config = #ttnn.conv2d_config<weights_dtype = bf16, deallocate_activation = true, act_block_h_override = 64, enable_kernel_stride_folding = false, config_tensors_in_dram = true>, conv2d_slice_config = #ttnn.conv2d_slice_config<l1_full, 0>, dilation = array<i32: 1, 1>, groups = 1 : i32, has_bias = true, in_channels = 512 : i32, input_dtype = #ttcore.supportedDataTypes<bf16>, input_height = 160 : i32, input_memory_config = #ttnn.memory_config<#dram, <interleaved>>, input_tensor_layout = #ttnn.layout<tile>, input_width = 90 : i32, kernel_size = array<i32: 3, 3>, out_channels = 512 : i32, output_dtype = #ttcore.supportedDataTypes<bf16>, padding = array<i32: 1, 1, 1, 1>, stride = array<i32: 1, 1>, weights_format = "OIHW"}> : (tensor<512x512x3x3xbf16, #ttnn_layout11>, !ttnn.device) -> tensor<1x1x4608x512xbf16, #ttnn_layout12> loc(#loc520)
        return %1 : tensor<1x1x4608x512xbf16, #ttnn_layout12> loc(#loc)
      } loc(#loc)
      func.func private @main_const_eval_10(%arg0: tensor<512x512x3x3xbf16, #ttnn_layout11> {ttir.conv2d_weight} loc(unknown)) -> tensor<1x1x4608x512xbf16, #ttnn_layout12> attributes {tt.function_type = "const_eval"} {
        %0 = "ttnn.get_device"() <{mesh_offset = #ttnn<mesh_offset 0x0>, mesh_shape = #ttnn<mesh_shape 1x1>}> : () -> !ttnn.device loc(#loc1)
        %1 = "ttnn.prepare_conv2d_weights"(%arg0, %0) <{batch_size = 1 : i32, conv2d_config = #ttnn.conv2d_config<weights_dtype = bf16, act_block_h_override = 1024, enable_kernel_stride_folding = false, config_tensors_in_dram = true>, conv2d_slice_config = #ttnn.conv2d_slice_config<dram_width, 0>, dilation = array<i32: 1, 1>, groups = 1 : i32, has_bias = true, in_channels = 512 : i32, input_dtype = #ttcore.supportedDataTypes<bf16>, input_height = 320 : i32, input_memory_config = #ttnn.memory_config<#dram, <interleaved>>, input_tensor_layout = #ttnn.layout<tile>, input_width = 180 : i32, kernel_size = array<i32: 3, 3>, out_channels = 512 : i32, output_dtype = #ttcore.supportedDataTypes<bf16>, padding = array<i32: 1, 1, 1, 1>, stride = array<i32: 1, 1>, weights_format = "OIHW"}> : (tensor<512x512x3x3xbf16, #ttnn_layout11>, !ttnn.device) -> tensor<1x1x4608x512xbf16, #ttnn_layout12> loc(#loc521)
        return %1 : tensor<1x1x4608x512xbf16, #ttnn_layout12> loc(#loc)
      } loc(#loc)
      func.func private @main_const_eval_11(%arg0: tensor<256xbf16, #ttnn_layout18> loc(unknown)) -> tensor<1x1x1x256xbf16, #ttnn_layout19> attributes {tt.function_type = "const_eval"} {
        %0 = "ttnn.get_device"() <{mesh_offset = #ttnn<mesh_offset 0x0>, mesh_shape = #ttnn<mesh_shape 1x1>}> : () -> !ttnn.device loc(#loc1)
        %1 = "ttnn.typecast"(%arg0) <{dtype = #ttcore.supportedDataTypes<f32>}> : (tensor<256xbf16, #ttnn_layout18>) -> tensor<256xf32, #ttnn_layout20> loc(#loc)
        %2 = call @cpu_hoisted_const_eval_8b649ce3(%1) {ttir.cpu_hoist_call} : (tensor<256xf32, #ttnn_layout20>) -> tensor<1x1x1x256xf32, #ttnn_layout21> loc(#loc)
        "ttnn.deallocate"(%1) <{force = false}> : (tensor<256xf32, #ttnn_layout20>) -> () loc(#loc)
        %3 = "ttnn.typecast"(%2) <{dtype = #ttcore.supportedDataTypes<bf16>}> : (tensor<1x1x1x256xf32, #ttnn_layout21>) -> tensor<1x1x1x256xbf16, #ttnn_layout22> loc(#loc522)
        "ttnn.deallocate"(%2) <{force = false}> : (tensor<1x1x1x256xf32, #ttnn_layout21>) -> () loc(#loc522)
        %4 = "ttnn.prepare_conv2d_bias"(%3, %0) <{batch_size = 1 : i32, conv2d_config = #ttnn.conv2d_config<weights_dtype = bf16, act_block_h_override = 1024, enable_kernel_stride_folding = false, config_tensors_in_dram = true>, conv2d_slice_config = #ttnn.conv2d_slice_config<dram_width, 0>, dilation = array<i32: 1, 1>, groups = 1 : i32, in_channels = 512 : i32, input_dtype = #ttcore.supportedDataTypes<bf16>, input_height = 640 : i32, input_memory_config = #ttnn.memory_config<#dram, <interleaved>>, input_tensor_layout = #ttnn.layout<tile>, input_width = 360 : i32, kernel_size = array<i32: 3, 3>, out_channels = 256 : i32, output_dtype = #ttcore.supportedDataTypes<bf16>, padding = array<i32: 1, 1, 1, 1>, stride = array<i32: 1, 1>}> : (tensor<1x1x1x256xbf16, #ttnn_layout22>, !ttnn.device) -> tensor<1x1x1x256xbf16, #ttnn_layout19> loc(#loc523)
        "ttnn.deallocate"(%3) <{force = false}> : (tensor<1x1x1x256xbf16, #ttnn_layout22>) -> () loc(#loc523)
        return %4 : tensor<1x1x1x256xbf16, #ttnn_layout19> loc(#loc)
      } loc(#loc)
      func.func private @main_const_eval_12(%arg0: tensor<512xbf16, #ttnn_layout2> loc(unknown)) -> tensor<1x32x16x1xf32, #ttnn_layout13> attributes {tt.function_type = "const_eval"} {
        %0 = "ttnn.get_device"() <{mesh_offset = #ttnn<mesh_offset 0x0>, mesh_shape = #ttnn<mesh_shape 1x1>}> : () -> !ttnn.device loc(#loc)
        %1 = "ttnn.typecast"(%arg0) <{dtype = #ttcore.supportedDataTypes<f32>}> : (tensor<512xbf16, #ttnn_layout2>) -> tensor<512xf32, #ttnn_layout4> loc(#loc)
        %2 = call @cpu_hoisted_const_eval_ce3dc089(%1) {ttir.cpu_hoist_call} : (tensor<512xf32, #ttnn_layout4>) -> tensor<1x32x16x1xf32, #ttnn_layout14> loc(#loc)
        "ttnn.deallocate"(%1) <{force = false}> : (tensor<512xf32, #ttnn_layout4>) -> () loc(#loc)
        %3 = "ttnn.to_layout"(%2) <{layout = #ttnn.layout<tile>}> : (tensor<1x32x16x1xf32, #ttnn_layout14>) -> tensor<1x32x16x1xf32, #ttnn_layout15> loc(#loc)
        "ttnn.deallocate"(%2) <{force = false}> : (tensor<1x32x16x1xf32, #ttnn_layout14>) -> () loc(#loc)
        %4 = "ttnn.to_device"(%3, %0) : (tensor<1x32x16x1xf32, #ttnn_layout15>, !ttnn.device) -> tensor<1x32x16x1xf32, #ttnn_layout13> loc(#loc)
        "ttnn.deallocate"(%3) <{force = false}> : (tensor<1x32x16x1xf32, #ttnn_layout15>) -> () loc(#loc)
        return %4 : tensor<1x32x16x1xf32, #ttnn_layout13> loc(#loc)
      } loc(#loc)
      func.func private @main_const_eval_13(%arg0: tensor<256x256x3x3xbf16, #ttnn_layout16> {ttir.conv2d_weight} loc(unknown)) -> tensor<1x1x2304x256xbf16, #ttnn_layout17> attributes {tt.function_type = "const_eval"} {
        %0 = "ttnn.get_device"() <{mesh_offset = #ttnn<mesh_offset 0x0>, mesh_shape = #ttnn<mesh_shape 1x1>}> : () -> !ttnn.device loc(#loc1)
        %1 = "ttnn.prepare_conv2d_weights"(%arg0, %0) <{batch_size = 1 : i32, conv2d_config = #ttnn.conv2d_config<weights_dtype = bf16, act_block_h_override = 1024, enable_kernel_stride_folding = false, config_tensors_in_dram = true>, conv2d_slice_config = #ttnn.conv2d_slice_config<dram_width, 0>, dilation = array<i32: 1, 1>, groups = 1 : i32, has_bias = true, in_channels = 256 : i32, input_dtype = #ttcore.supportedDataTypes<bf16>, input_height = 1280 : i32, input_memory_config = #ttnn.memory_config<#dram, <interleaved>>, input_tensor_layout = #ttnn.layout<tile>, input_width = 720 : i32, kernel_size = array<i32: 3, 3>, out_channels = 256 : i32, output_dtype = #ttcore.supportedDataTypes<bf16>, padding = array<i32: 1, 1, 1, 1>, stride = array<i32: 1, 1>, weights_format = "OIHW"}> : (tensor<256x256x3x3xbf16, #ttnn_layout16>, !ttnn.device) -> tensor<1x1x2304x256xbf16, #ttnn_layout17> loc(#loc524)
        return %1 : tensor<1x1x2304x256xbf16, #ttnn_layout17> loc(#loc)
      } loc(#loc)
      func.func private @main_const_eval_14(%arg0: tensor<512xbf16, #ttnn_layout2> loc(unknown), %arg1: tensor<512xbf16, #ttnn_layout2> loc(unknown), %arg2: tensor<512xbf16, #ttnn_layout2> loc(unknown)) -> tensor<1536xbf16, #ttnn_layout23> attributes {tt.function_type = "const_eval"} {
        %0 = "ttnn.get_device"() <{mesh_offset = #ttnn<mesh_offset 0x0>, mesh_shape = #ttnn<mesh_shape 1x1>}> : () -> !ttnn.device loc(#loc)
        %1 = "ttnn.typecast"(%arg2) <{dtype = #ttcore.supportedDataTypes<f32>}> : (tensor<512xbf16, #ttnn_layout2>) -> tensor<512xf32, #ttnn_layout4> loc(#loc)
        %2 = "ttnn.typecast"(%arg1) <{dtype = #ttcore.supportedDataTypes<f32>}> : (tensor<512xbf16, #ttnn_layout2>) -> tensor<512xf32, #ttnn_layout4> loc(#loc)
        %3 = "ttnn.typecast"(%arg0) <{dtype = #ttcore.supportedDataTypes<f32>}> : (tensor<512xbf16, #ttnn_layout2>) -> tensor<512xf32, #ttnn_layout4> loc(#loc)
        %4 = call @cpu_hoisted_const_eval_3b6c0433(%1, %2, %3) {ttir.cpu_hoist_call} : (tensor<512xf32, #ttnn_layout4>, tensor<512xf32, #ttnn_layout4>, tensor<512xf32, #ttnn_layout4>) -> tensor<1536xf32, #ttnn_layout24> loc(#loc)
        "ttnn.deallocate"(%3) <{force = false}> : (tensor<512xf32, #ttnn_layout4>) -> () loc(#loc)
        "ttnn.deallocate"(%2) <{force = false}> : (tensor<512xf32, #ttnn_layout4>) -> () loc(#loc)
        "ttnn.deallocate"(%1) <{force = false}> : (tensor<512xf32, #ttnn_layout4>) -> () loc(#loc)
        %5 = "ttnn.typecast"(%4) <{dtype = #ttcore.supportedDataTypes<bf16>}> : (tensor<1536xf32, #ttnn_layout24>) -> tensor<1536xbf16, #ttnn_layout25> loc(#loc)
        "ttnn.deallocate"(%4) <{force = false}> : (tensor<1536xf32, #ttnn_layout24>) -> () loc(#loc)
        %6 = "ttnn.to_layout"(%5) <{layout = #ttnn.layout<tile>}> : (tensor<1536xbf16, #ttnn_layout25>) -> tensor<1536xbf16, #ttnn_layout26> loc(#loc)
        "ttnn.deallocate"(%5) <{force = false}> : (tensor<1536xbf16, #ttnn_layout25>) -> () loc(#loc)
        %7 = "ttnn.to_device"(%6, %0) : (tensor<1536xbf16, #ttnn_layout26>, !ttnn.device) -> tensor<1536xbf16, #ttnn_layout23> loc(#loc)
        "ttnn.deallocate"(%6) <{force = false}> : (tensor<1536xbf16, #ttnn_layout26>) -> () loc(#loc)
        return %7 : tensor<1536xbf16, #ttnn_layout23> loc(#loc)
      } loc(#loc)
      func.func private @main_const_eval_15(%arg0: tensor<512x512x3x3xbf16, #ttnn_layout11> {ttir.conv2d_weight} loc(unknown)) -> tensor<1x1x4608x512xbf16, #ttnn_layout12> attributes {tt.function_type = "const_eval"} {
        %0 = "ttnn.get_device"() <{mesh_offset = #ttnn<mesh_offset 0x0>, mesh_shape = #ttnn<mesh_shape 1x1>}> : () -> !ttnn.device loc(#loc1)
        %1 = "ttnn.prepare_conv2d_weights"(%arg0, %0) <{batch_size = 1 : i32, conv2d_config = #ttnn.conv2d_config<weights_dtype = bf16, act_block_h_override = 1024, enable_kernel_stride_folding = false, config_tensors_in_dram = true>, conv2d_slice_config = #ttnn.conv2d_slice_config<dram_width, 0>, dilation = array<i32: 1, 1>, groups = 1 : i32, has_bias = true, in_channels = 512 : i32, input_dtype = #ttcore.supportedDataTypes<bf16>, input_height = 640 : i32, input_memory_config = #ttnn.memory_config<#dram, <interleaved>>, input_tensor_layout = #ttnn.layout<tile>, input_width = 360 : i32, kernel_size = array<i32: 3, 3>, out_channels = 512 : i32, output_dtype = #ttcore.supportedDataTypes<bf16>, padding = array<i32: 1, 1, 1, 1>, stride = array<i32: 1, 1>, weights_format = "OIHW"}> : (tensor<512x512x3x3xbf16, #ttnn_layout11>, !ttnn.device) -> tensor<1x1x4608x512xbf16, #ttnn_layout12> loc(#loc525)
        return %1 : tensor<1x1x4608x512xbf16, #ttnn_layout12> loc(#loc)
      } loc(#loc)
      func.func private @main_const_eval_16() -> tensor<320x640xbf16, #ttnn_layout27> attributes {tt.function_type = "const_eval"} {
        %0 = "ttnn.get_device"() <{mesh_offset = #ttnn<mesh_offset 0x0>, mesh_shape = #ttnn<mesh_shape 1x1>}> : () -> !ttnn.device loc(#loc)
        %1 = call @cpu_hoisted_const_eval_8cbff674() {ttir.cpu_hoist_call} : () -> tensor<320x640xf32, #ttnn_layout28> loc(#loc)
        %2 = "ttnn.typecast"(%1) <{dtype = #ttcore.supportedDataTypes<bf16>}> : (tensor<320x640xf32, #ttnn_layout28>) -> tensor<320x640xbf16, #ttnn_layout29> loc(#loc)
        "ttnn.deallocate"(%1) <{force = false}> : (tensor<320x640xf32, #ttnn_layout28>) -> () loc(#loc)
        %3 = "ttnn.to_layout"(%2) <{layout = #ttnn.layout<tile>}> : (tensor<320x640xbf16, #ttnn_layout29>) -> tensor<320x640xbf16, #ttnn_layout30> loc(#loc)
        "ttnn.deallocate"(%2) <{force = false}> : (tensor<320x640xbf16, #ttnn_layout29>) -> () loc(#loc)
        %4 = "ttnn.to_device"(%3, %0) : (tensor<320x640xbf16, #ttnn_layout30>, !ttnn.device) -> tensor<320x640xbf16, #ttnn_layout27> loc(#loc)
        "ttnn.deallocate"(%3) <{force = false}> : (tensor<320x640xbf16, #ttnn_layout30>) -> () loc(#loc)
        return %4 : tensor<320x640xbf16, #ttnn_layout27> loc(#loc)
      } loc(#loc)
      func.func private @main_const_eval_17(%arg0: tensor<512x512x3x3xbf16, #ttnn_layout11> {ttir.conv2d_weight} loc(unknown)) -> tensor<1x1x4608x512xbf16, #ttnn_layout12> attributes {tt.function_type = "const_eval"} {
        %0 = "ttnn.get_device"() <{mesh_offset = #ttnn<mesh_offset 0x0>, mesh_shape = #ttnn<mesh_shape 1x1>}> : () -> !ttnn.device loc(#loc1)
        %1 = "ttnn.prepare_conv2d_weights"(%arg0, %0) <{batch_size = 1 : i32, conv2d_config = #ttnn.conv2d_config<weights_dtype = bf16, deallocate_activation = true, act_block_h_override = 64, enable_kernel_stride_folding = false, config_tensors_in_dram = true>, conv2d_slice_config = #ttnn.conv2d_slice_config<l1_full, 0>, dilation = array<i32: 1, 1>, groups = 1 : i32, has_bias = true, in_channels = 512 : i32, input_dtype = #ttcore.supportedDataTypes<bf16>, input_height = 160 : i32, input_memory_config = #ttnn.memory_config<#dram, <interleaved>>, input_tensor_layout = #ttnn.layout<tile>, input_width = 90 : i32, kernel_size = array<i32: 3, 3>, out_channels = 512 : i32, output_dtype = #ttcore.supportedDataTypes<bf16>, padding = array<i32: 1, 1, 1, 1>, stride = array<i32: 1, 1>, weights_format = "OIHW"}> : (tensor<512x512x3x3xbf16, #ttnn_layout11>, !ttnn.device) -> tensor<1x1x4608x512xbf16, #ttnn_layout12> loc(#loc526)
        return %1 : tensor<1x1x4608x512xbf16, #ttnn_layout12> loc(#loc)
      } loc(#loc)
      func.func private @main_const_eval_18(%arg0: tensor<512x512x3x3xbf16, #ttnn_layout11> {ttir.conv2d_weight} loc(unknown)) -> tensor<1x1x4608x512xbf16, #ttnn_layout12> attributes {tt.function_type = "const_eval"} {
        %0 = "ttnn.get_device"() <{mesh_offset = #ttnn<mesh_offset 0x0>, mesh_shape = #ttnn<mesh_shape 1x1>}> : () -> !ttnn.device loc(#loc1)
        %1 = "ttnn.prepare_conv2d_weights"(%arg0, %0) <{batch_size = 1 : i32, conv2d_config = #ttnn.conv2d_config<weights_dtype = bf16, deallocate_activation = true, act_block_h_override = 64, enable_kernel_stride_folding = false, config_tensors_in_dram = true>, conv2d_slice_config = #ttnn.conv2d_slice_config<l1_full, 0>, dilation = array<i32: 1, 1>, groups = 1 : i32, has_bias = true, in_channels = 512 : i32, input_dtype = #ttcore.supportedDataTypes<bf16>, input_height = 160 : i32, input_memory_config = #ttnn.memory_config<#dram, <interleaved>>, input_tensor_layout = #ttnn.layout<tile>, input_width = 90 : i32, kernel_size = array<i32: 3, 3>, out_channels = 512 : i32, output_dtype = #ttcore.supportedDataTypes<bf16>, padding = array<i32: 1, 1, 1, 1>, stride = array<i32: 1, 1>, weights_format = "OIHW"}> : (tensor<512x512x3x3xbf16, #ttnn_layout11>, !ttnn.device) -> tensor<1x1x4608x512xbf16, #ttnn_layout12> loc(#loc527)
        return %1 : tensor<1x1x4608x512xbf16, #ttnn_layout12> loc(#loc)
      } loc(#loc)
      func.func private @main_const_eval_19(%arg0: tensor<512xbf16, #ttnn_layout2> loc(unknown)) -> tensor<1x32x16x1xf32, #ttnn_layout13> attributes {tt.function_type = "const_eval"} {
        %0 = "ttnn.get_device"() <{mesh_offset = #ttnn<mesh_offset 0x0>, mesh_shape = #ttnn<mesh_shape 1x1>}> : () -> !ttnn.device loc(#loc)
        %1 = "ttnn.typecast"(%arg0) <{dtype = #ttcore.supportedDataTypes<f32>}> : (tensor<512xbf16, #ttnn_layout2>) -> tensor<512xf32, #ttnn_layout4> loc(#loc)
        %2 = call @cpu_hoisted_const_eval_ce3dc089(%1) {ttir.cpu_hoist_call} : (tensor<512xf32, #ttnn_layout4>) -> tensor<1x32x16x1xf32, #ttnn_layout14> loc(#loc)
        "ttnn.deallocate"(%1) <{force = false}> : (tensor<512xf32, #ttnn_layout4>) -> () loc(#loc)
        %3 = "ttnn.to_layout"(%2) <{layout = #ttnn.layout<tile>}> : (tensor<1x32x16x1xf32, #ttnn_layout14>) -> tensor<1x32x16x1xf32, #ttnn_layout15> loc(#loc)
        "ttnn.deallocate"(%2) <{force = false}> : (tensor<1x32x16x1xf32, #ttnn_layout14>) -> () loc(#loc)
        %4 = "ttnn.to_device"(%3, %0) : (tensor<1x32x16x1xf32, #ttnn_layout15>, !ttnn.device) -> tensor<1x32x16x1xf32, #ttnn_layout13> loc(#loc)
        "ttnn.deallocate"(%3) <{force = false}> : (tensor<1x32x16x1xf32, #ttnn_layout15>) -> () loc(#loc)
        return %4 : tensor<1x32x16x1xf32, #ttnn_layout13> loc(#loc)
      } loc(#loc)
      func.func private @main_const_eval_20(%arg0: tensor<256x512x3x3xbf16, #ttnn_layout31> {ttir.conv2d_weight} loc(unknown)) -> tensor<1x1x4608x256xbf16, #ttnn_layout32> attributes {tt.function_type = "const_eval"} {
        %0 = "ttnn.get_device"() <{mesh_offset = #ttnn<mesh_offset 0x0>, mesh_shape = #ttnn<mesh_shape 1x1>}> : () -> !ttnn.device loc(#loc1)
        %1 = "ttnn.prepare_conv2d_weights"(%arg0, %0) <{batch_size = 1 : i32, conv2d_config = #ttnn.conv2d_config<weights_dtype = bf16, act_block_h_override = 1024, enable_kernel_stride_folding = false, config_tensors_in_dram = true>, conv2d_slice_config = #ttnn.conv2d_slice_config<dram_width, 0>, dilation = array<i32: 1, 1>, groups = 1 : i32, has_bias = true, in_channels = 512 : i32, input_dtype = #ttcore.supportedDataTypes<bf16>, input_height = 640 : i32, input_memory_config = #ttnn.memory_config<#dram, <interleaved>>, input_tensor_layout = #ttnn.layout<tile>, input_width = 360 : i32, kernel_size = array<i32: 3, 3>, out_channels = 256 : i32, output_dtype = #ttcore.supportedDataTypes<bf16>, padding = array<i32: 1, 1, 1, 1>, stride = array<i32: 1, 1>, weights_format = "OIHW"}> : (tensor<256x512x3x3xbf16, #ttnn_layout31>, !ttnn.device) -> tensor<1x1x4608x256xbf16, #ttnn_layout32> loc(#loc528)
        return %1 : tensor<1x1x4608x256xbf16, #ttnn_layout32> loc(#loc)
      } loc(#loc)
      func.func private @main_const_eval_21(%arg0: tensor<256xbf16, #ttnn_layout18> loc(unknown)) -> tensor<1x1x1x256xbf16, #ttnn_layout19> attributes {tt.function_type = "const_eval"} {
        %0 = "ttnn.get_device"() <{mesh_offset = #ttnn<mesh_offset 0x0>, mesh_shape = #ttnn<mesh_shape 1x1>}> : () -> !ttnn.device loc(#loc1)
        %1 = "ttnn.typecast"(%arg0) <{dtype = #ttcore.supportedDataTypes<f32>}> : (tensor<256xbf16, #ttnn_layout18>) -> tensor<256xf32, #ttnn_layout20> loc(#loc)
        %2 = call @cpu_hoisted_const_eval_8b649ce3(%1) {ttir.cpu_hoist_call} : (tensor<256xf32, #ttnn_layout20>) -> tensor<1x1x1x256xf32, #ttnn_layout21> loc(#loc)
        "ttnn.deallocate"(%1) <{force = false}> : (tensor<256xf32, #ttnn_layout20>) -> () loc(#loc)
        %3 = "ttnn.typecast"(%2) <{dtype = #ttcore.supportedDataTypes<bf16>}> : (tensor<1x1x1x256xf32, #ttnn_layout21>) -> tensor<1x1x1x256xbf16, #ttnn_layout22> loc(#loc529)
        "ttnn.deallocate"(%2) <{force = false}> : (tensor<1x1x1x256xf32, #ttnn_layout21>) -> () loc(#loc529)
        %4 = "ttnn.prepare_conv2d_bias"(%3, %0) <{batch_size = 1 : i32, conv2d_config = #ttnn.conv2d_config<weights_dtype = bf16, act_block_h_override = 1024, enable_kernel_stride_folding = false, config_tensors_in_dram = true>, conv2d_slice_config = #ttnn.conv2d_slice_config<dram_width, 0>, dilation = array<i32: 1, 1>, groups = 1 : i32, in_channels = 256 : i32, input_dtype = #ttcore.supportedDataTypes<bf16>, input_height = 1280 : i32, input_memory_config = #ttnn.memory_config<#dram, <interleaved>>, input_tensor_layout = #ttnn.layout<tile>, input_width = 720 : i32, kernel_size = array<i32: 3, 3>, out_channels = 256 : i32, output_dtype = #ttcore.supportedDataTypes<bf16>, padding = array<i32: 1, 1, 1, 1>, stride = array<i32: 1, 1>}> : (tensor<1x1x1x256xbf16, #ttnn_layout22>, !ttnn.device) -> tensor<1x1x1x256xbf16, #ttnn_layout19> loc(#loc530)
        "ttnn.deallocate"(%3) <{force = false}> : (tensor<1x1x1x256xbf16, #ttnn_layout22>) -> () loc(#loc530)
        return %4 : tensor<1x1x1x256xbf16, #ttnn_layout19> loc(#loc)
      } loc(#loc)
      func.func private @main_const_eval_22(%arg0: tensor<512xbf16, #ttnn_layout2> loc(unknown)) -> tensor<1x32x16x1xf32, #ttnn_layout13> attributes {tt.function_type = "const_eval"} {
        %0 = "ttnn.get_device"() <{mesh_offset = #ttnn<mesh_offset 0x0>, mesh_shape = #ttnn<mesh_shape 1x1>}> : () -> !ttnn.device loc(#loc)
        %1 = "ttnn.typecast"(%arg0) <{dtype = #ttcore.supportedDataTypes<f32>}> : (tensor<512xbf16, #ttnn_layout2>) -> tensor<512xf32, #ttnn_layout4> loc(#loc)
        %2 = call @cpu_hoisted_const_eval_ce3dc089(%1) {ttir.cpu_hoist_call} : (tensor<512xf32, #ttnn_layout4>) -> tensor<1x32x16x1xf32, #ttnn_layout14> loc(#loc)
        "ttnn.deallocate"(%1) <{force = false}> : (tensor<512xf32, #ttnn_layout4>) -> () loc(#loc)
        %3 = "ttnn.to_layout"(%2) <{layout = #ttnn.layout<tile>}> : (tensor<1x32x16x1xf32, #ttnn_layout14>) -> tensor<1x32x16x1xf32, #ttnn_layout15> loc(#loc)
        "ttnn.deallocate"(%2) <{force = false}> : (tensor<1x32x16x1xf32, #ttnn_layout14>) -> () loc(#loc)
        %4 = "ttnn.to_device"(%3, %0) : (tensor<1x32x16x1xf32, #ttnn_layout15>, !ttnn.device) -> tensor<1x32x16x1xf32, #ttnn_layout13> loc(#loc)
        "ttnn.deallocate"(%3) <{force = false}> : (tensor<1x32x16x1xf32, #ttnn_layout15>) -> () loc(#loc)
        return %4 : tensor<1x32x16x1xf32, #ttnn_layout13> loc(#loc)
      } loc(#loc)
      func.func private @main_const_eval_23(%arg0: tensor<512xbf16, #ttnn_layout2> loc(unknown)) -> tensor<1x32x16x1xf32, #ttnn_layout13> attributes {tt.function_type = "const_eval"} {
        %0 = "ttnn.get_device"() <{mesh_offset = #ttnn<mesh_offset 0x0>, mesh_shape = #ttnn<mesh_shape 1x1>}> : () -> !ttnn.device loc(#loc)
        %1 = "ttnn.typecast"(%arg0) <{dtype = #ttcore.supportedDataTypes<f32>}> : (tensor<512xbf16, #ttnn_layout2>) -> tensor<512xf32, #ttnn_layout4> loc(#loc)
        %2 = call @cpu_hoisted_const_eval_ce3dc089(%1) {ttir.cpu_hoist_call} : (tensor<512xf32, #ttnn_layout4>) -> tensor<1x32x16x1xf32, #ttnn_layout14> loc(#loc)
        "ttnn.deallocate"(%1) <{force = false}> : (tensor<512xf32, #ttnn_layout4>) -> () loc(#loc)
        %3 = "ttnn.to_layout"(%2) <{layout = #ttnn.layout<tile>}> : (tensor<1x32x16x1xf32, #ttnn_layout14>) -> tensor<1x32x16x1xf32, #ttnn_layout15> loc(#loc)
        "ttnn.deallocate"(%2) <{force = false}> : (tensor<1x32x16x1xf32, #ttnn_layout14>) -> () loc(#loc)
        %4 = "ttnn.to_device"(%3, %0) : (tensor<1x32x16x1xf32, #ttnn_layout15>, !ttnn.device) -> tensor<1x32x16x1xf32, #ttnn_layout13> loc(#loc)
        "ttnn.deallocate"(%3) <{force = false}> : (tensor<1x32x16x1xf32, #ttnn_layout15>) -> () loc(#loc)
        return %4 : tensor<1x32x16x1xf32, #ttnn_layout13> loc(#loc)
      } loc(#loc)
      func.func private @main_const_eval_24(%arg0: tensor<512xbf16, #ttnn_layout2> loc(unknown)) -> tensor<1x1x1x512xbf16, #ttnn_layout3> attributes {tt.function_type = "const_eval"} {
        %0 = "ttnn.get_device"() <{mesh_offset = #ttnn<mesh_offset 0x0>, mesh_shape = #ttnn<mesh_shape 1x1>}> : () -> !ttnn.device loc(#loc1)
        %1 = "ttnn.typecast"(%arg0) <{dtype = #ttcore.supportedDataTypes<f32>}> : (tensor<512xbf16, #ttnn_layout2>) -> tensor<512xf32, #ttnn_layout4> loc(#loc)
        %2 = call @cpu_hoisted_const_eval_24665087(%1) {ttir.cpu_hoist_call} : (tensor<512xf32, #ttnn_layout4>) -> tensor<1x1x1x512xf32, #ttnn_layout5> loc(#loc)
        "ttnn.deallocate"(%1) <{force = false}> : (tensor<512xf32, #ttnn_layout4>) -> () loc(#loc)
        %3 = "ttnn.typecast"(%2) <{dtype = #ttcore.supportedDataTypes<bf16>}> : (tensor<1x1x1x512xf32, #ttnn_layout5>) -> tensor<1x1x1x512xbf16, #ttnn_layout6> loc(#loc531)
        "ttnn.deallocate"(%2) <{force = false}> : (tensor<1x1x1x512xf32, #ttnn_layout5>) -> () loc(#loc531)
        %4 = "ttnn.prepare_conv2d_bias"(%3, %0) <{batch_size = 1 : i32, conv2d_config = #ttnn.conv2d_config<weights_dtype = bf16, act_block_h_override = 1024, enable_kernel_stride_folding = false, config_tensors_in_dram = true>, conv2d_slice_config = #ttnn.conv2d_slice_config<dram_width, 0>, dilation = array<i32: 1, 1>, groups = 1 : i32, in_channels = 512 : i32, input_dtype = #ttcore.supportedDataTypes<bf16>, input_height = 320 : i32, input_memory_config = #ttnn.memory_config<#dram, <interleaved>>, input_tensor_layout = #ttnn.layout<tile>, input_width = 180 : i32, kernel_size = array<i32: 3, 3>, out_channels = 512 : i32, output_dtype = #ttcore.supportedDataTypes<bf16>, padding = array<i32: 1, 1, 1, 1>, stride = array<i32: 1, 1>}> : (tensor<1x1x1x512xbf16, #ttnn_layout6>, !ttnn.device) -> tensor<1x1x1x512xbf16, #ttnn_layout3> loc(#loc532)
        "ttnn.deallocate"(%3) <{force = false}> : (tensor<1x1x1x512xbf16, #ttnn_layout6>) -> () loc(#loc532)
        return %4 : tensor<1x1x1x512xbf16, #ttnn_layout3> loc(#loc)
      } loc(#loc)
      func.func private @main_const_eval_25(%arg0: tensor<512xbf16, #ttnn_layout2> loc(unknown)) -> tensor<1x32x16x1xf32, #ttnn_layout13> attributes {tt.function_type = "const_eval"} {
        %0 = "ttnn.get_device"() <{mesh_offset = #ttnn<mesh_offset 0x0>, mesh_shape = #ttnn<mesh_shape 1x1>}> : () -> !ttnn.device loc(#loc)
        %1 = "ttnn.typecast"(%arg0) <{dtype = #ttcore.supportedDataTypes<f32>}> : (tensor<512xbf16, #ttnn_layout2>) -> tensor<512xf32, #ttnn_layout4> loc(#loc)
        %2 = call @cpu_hoisted_const_eval_ce3dc089(%1) {ttir.cpu_hoist_call} : (tensor<512xf32, #ttnn_layout4>) -> tensor<1x32x16x1xf32, #ttnn_layout14> loc(#loc)
        "ttnn.deallocate"(%1) <{force = false}> : (tensor<512xf32, #ttnn_layout4>) -> () loc(#loc)
        %3 = "ttnn.to_layout"(%2) <{layout = #ttnn.layout<tile>}> : (tensor<1x32x16x1xf32, #ttnn_layout14>) -> tensor<1x32x16x1xf32, #ttnn_layout15> loc(#loc)
        "ttnn.deallocate"(%2) <{force = false}> : (tensor<1x32x16x1xf32, #ttnn_layout14>) -> () loc(#loc)
        %4 = "ttnn.to_device"(%3, %0) : (tensor<1x32x16x1xf32, #ttnn_layout15>, !ttnn.device) -> tensor<1x32x16x1xf32, #ttnn_layout13> loc(#loc)
        "ttnn.deallocate"(%3) <{force = false}> : (tensor<1x32x16x1xf32, #ttnn_layout15>) -> () loc(#loc)
        return %4 : tensor<1x32x16x1xf32, #ttnn_layout13> loc(#loc)
      } loc(#loc)
      func.func private @main_const_eval_26(%arg0: tensor<512xbf16, #ttnn_layout2> loc(unknown)) -> tensor<1x32x16x1xf32, #ttnn_layout13> attributes {tt.function_type = "const_eval"} {
        %0 = "ttnn.get_device"() <{mesh_offset = #ttnn<mesh_offset 0x0>, mesh_shape = #ttnn<mesh_shape 1x1>}> : () -> !ttnn.device loc(#loc)
        %1 = "ttnn.typecast"(%arg0) <{dtype = #ttcore.supportedDataTypes<f32>}> : (tensor<512xbf16, #ttnn_layout2>) -> tensor<512xf32, #ttnn_layout4> loc(#loc)
        %2 = call @cpu_hoisted_const_eval_ce3dc089(%1) {ttir.cpu_hoist_call} : (tensor<512xf32, #ttnn_layout4>) -> tensor<1x32x16x1xf32, #ttnn_layout14> loc(#loc)
        "ttnn.deallocate"(%1) <{force = false}> : (tensor<512xf32, #ttnn_layout4>) -> () loc(#loc)
        %3 = "ttnn.to_layout"(%2) <{layout = #ttnn.layout<tile>}> : (tensor<1x32x16x1xf32, #ttnn_layout14>) -> tensor<1x32x16x1xf32, #ttnn_layout15> loc(#loc)
        "ttnn.deallocate"(%2) <{force = false}> : (tensor<1x32x16x1xf32, #ttnn_layout14>) -> () loc(#loc)
        %4 = "ttnn.to_device"(%3, %0) : (tensor<1x32x16x1xf32, #ttnn_layout15>, !ttnn.device) -> tensor<1x32x16x1xf32, #ttnn_layout13> loc(#loc)
        "ttnn.deallocate"(%3) <{force = false}> : (tensor<1x32x16x1xf32, #ttnn_layout15>) -> () loc(#loc)
        return %4 : tensor<1x32x16x1xf32, #ttnn_layout13> loc(#loc)
      } loc(#loc)
      func.func private @main_const_eval_27(%arg0: tensor<512x512x3x3xbf16, #ttnn_layout11> {ttir.conv2d_weight} loc(unknown)) -> tensor<1x1x4608x512xbf16, #ttnn_layout12> attributes {tt.function_type = "const_eval"} {
        %0 = "ttnn.get_device"() <{mesh_offset = #ttnn<mesh_offset 0x0>, mesh_shape = #ttnn<mesh_shape 1x1>}> : () -> !ttnn.device loc(#loc1)
        %1 = "ttnn.prepare_conv2d_weights"(%arg0, %0) <{batch_size = 1 : i32, conv2d_config = #ttnn.conv2d_config<weights_dtype = bf16, deallocate_activation = true, act_block_h_override = 64, enable_kernel_stride_folding = false, config_tensors_in_dram = true>, conv2d_slice_config = #ttnn.conv2d_slice_config<l1_full, 0>, dilation = array<i32: 1, 1>, groups = 1 : i32, has_bias = true, in_channels = 512 : i32, input_dtype = #ttcore.supportedDataTypes<bf16>, input_height = 160 : i32, input_memory_config = #ttnn.memory_config<#dram, <interleaved>>, input_tensor_layout = #ttnn.layout<tile>, input_width = 90 : i32, kernel_size = array<i32: 3, 3>, out_channels = 512 : i32, output_dtype = #ttcore.supportedDataTypes<bf16>, padding = array<i32: 1, 1, 1, 1>, stride = array<i32: 1, 1>, weights_format = "OIHW"}> : (tensor<512x512x3x3xbf16, #ttnn_layout11>, !ttnn.device) -> tensor<1x1x4608x512xbf16, #ttnn_layout12> loc(#loc533)
        return %1 : tensor<1x1x4608x512xbf16, #ttnn_layout12> loc(#loc)
      } loc(#loc)
      func.func private @main_const_eval_28(%arg0: tensor<512x512x3x3xbf16, #ttnn_layout11> {ttir.conv2d_weight} loc(unknown)) -> tensor<1x1x4608x512xbf16, #ttnn_layout12> attributes {tt.function_type = "const_eval"} {
        %0 = "ttnn.get_device"() <{mesh_offset = #ttnn<mesh_offset 0x0>, mesh_shape = #ttnn<mesh_shape 1x1>}> : () -> !ttnn.device loc(#loc1)
        %1 = "ttnn.prepare_conv2d_weights"(%arg0, %0) <{batch_size = 1 : i32, conv2d_config = #ttnn.conv2d_config<weights_dtype = bf16, act_block_h_override = 1024, enable_kernel_stride_folding = false, config_tensors_in_dram = true>, conv2d_slice_config = #ttnn.conv2d_slice_config<dram_width, 0>, dilation = array<i32: 1, 1>, groups = 1 : i32, has_bias = true, in_channels = 512 : i32, input_dtype = #ttcore.supportedDataTypes<bf16>, input_height = 320 : i32, input_memory_config = #ttnn.memory_config<#dram, <interleaved>>, input_tensor_layout = #ttnn.layout<tile>, input_width = 180 : i32, kernel_size = array<i32: 3, 3>, out_channels = 512 : i32, output_dtype = #ttcore.supportedDataTypes<bf16>, padding = array<i32: 1, 1, 1, 1>, stride = array<i32: 1, 1>, weights_format = "OIHW"}> : (tensor<512x512x3x3xbf16, #ttnn_layout11>, !ttnn.device) -> tensor<1x1x4608x512xbf16, #ttnn_layout12> loc(#loc534)
        return %1 : tensor<1x1x4608x512xbf16, #ttnn_layout12> loc(#loc)
      } loc(#loc)
      func.func private @main_const_eval_29(%arg0: tensor<512xbf16, #ttnn_layout2> loc(unknown)) -> tensor<1x1x1x512xbf16, #ttnn_layout3> attributes {tt.function_type = "const_eval"} {
        %0 = "ttnn.get_device"() <{mesh_offset = #ttnn<mesh_offset 0x0>, mesh_shape = #ttnn<mesh_shape 1x1>}> : () -> !ttnn.device loc(#loc1)
        %1 = "ttnn.typecast"(%arg0) <{dtype = #ttcore.supportedDataTypes<f32>}> : (tensor<512xbf16, #ttnn_layout2>) -> tensor<512xf32, #ttnn_layout4> loc(#loc)
        %2 = call @cpu_hoisted_const_eval_24665087(%1) {ttir.cpu_hoist_call} : (tensor<512xf32, #ttnn_layout4>) -> tensor<1x1x1x512xf32, #ttnn_layout5> loc(#loc)
        "ttnn.deallocate"(%1) <{force = false}> : (tensor<512xf32, #ttnn_layout4>) -> () loc(#loc)
        %3 = "ttnn.typecast"(%2) <{dtype = #ttcore.supportedDataTypes<bf16>}> : (tensor<1x1x1x512xf32, #ttnn_layout5>) -> tensor<1x1x1x512xbf16, #ttnn_layout6> loc(#loc535)
        "ttnn.deallocate"(%2) <{force = false}> : (tensor<1x1x1x512xf32, #ttnn_layout5>) -> () loc(#loc535)
        %4 = "ttnn.prepare_conv2d_bias"(%3, %0) <{batch_size = 1 : i32, conv2d_config = #ttnn.conv2d_config<weights_dtype = bf16, act_block_h_override = 1024, enable_kernel_stride_folding = false, config_tensors_in_dram = true>, conv2d_slice_config = #ttnn.conv2d_slice_config<dram_width, 0>, dilation = array<i32: 1, 1>, groups = 1 : i32, in_channels = 512 : i32, input_dtype = #ttcore.supportedDataTypes<bf16>, input_height = 640 : i32, input_memory_config = #ttnn.memory_config<#dram, <interleaved>>, input_tensor_layout = #ttnn.layout<tile>, input_width = 360 : i32, kernel_size = array<i32: 3, 3>, out_channels = 512 : i32, output_dtype = #ttcore.supportedDataTypes<bf16>, padding = array<i32: 1, 1, 1, 1>, stride = array<i32: 1, 1>}> : (tensor<1x1x1x512xbf16, #ttnn_layout6>, !ttnn.device) -> tensor<1x1x1x512xbf16, #ttnn_layout3> loc(#loc536)
        "ttnn.deallocate"(%3) <{force = false}> : (tensor<1x1x1x512xbf16, #ttnn_layout6>) -> () loc(#loc536)
        return %4 : tensor<1x1x1x512xbf16, #ttnn_layout3> loc(#loc)
      } loc(#loc)
      func.func private @main_const_eval_30(%arg0: tensor<256xbf16, #ttnn_layout18> loc(unknown)) -> tensor<1x32x8x1xf32, #ttnn_layout13> attributes {tt.function_type = "const_eval"} {
        %0 = "ttnn.get_device"() <{mesh_offset = #ttnn<mesh_offset 0x0>, mesh_shape = #ttnn<mesh_shape 1x1>}> : () -> !ttnn.device loc(#loc)
        %1 = "ttnn.typecast"(%arg0) <{dtype = #ttcore.supportedDataTypes<f32>}> : (tensor<256xbf16, #ttnn_layout18>) -> tensor<256xf32, #ttnn_layout20> loc(#loc)
        %2 = call @cpu_hoisted_const_eval_de413a9b(%1) {ttir.cpu_hoist_call} : (tensor<256xf32, #ttnn_layout20>) -> tensor<1x32x8x1xf32, #ttnn_layout33> loc(#loc)
        "ttnn.deallocate"(%1) <{force = false}> : (tensor<256xf32, #ttnn_layout20>) -> () loc(#loc)
        %3 = "ttnn.to_layout"(%2) <{layout = #ttnn.layout<tile>}> : (tensor<1x32x8x1xf32, #ttnn_layout33>) -> tensor<1x32x8x1xf32, #ttnn_layout15> loc(#loc)
        "ttnn.deallocate"(%2) <{force = false}> : (tensor<1x32x8x1xf32, #ttnn_layout33>) -> () loc(#loc)
        %4 = "ttnn.to_device"(%3, %0) : (tensor<1x32x8x1xf32, #ttnn_layout15>, !ttnn.device) -> tensor<1x32x8x1xf32, #ttnn_layout13> loc(#loc)
        "ttnn.deallocate"(%3) <{force = false}> : (tensor<1x32x8x1xf32, #ttnn_layout15>) -> () loc(#loc)
        return %4 : tensor<1x32x8x1xf32, #ttnn_layout13> loc(#loc)
      } loc(#loc)
      func.func private @main_const_eval_31(%arg0: tensor<512xbf16, #ttnn_layout2> loc(unknown)) -> tensor<1x1x1x512xbf16, #ttnn_layout3> attributes {tt.function_type = "const_eval"} {
        %0 = "ttnn.get_device"() <{mesh_offset = #ttnn<mesh_offset 0x0>, mesh_shape = #ttnn<mesh_shape 1x1>}> : () -> !ttnn.device loc(#loc1)
        %1 = "ttnn.typecast"(%arg0) <{dtype = #ttcore.supportedDataTypes<f32>}> : (tensor<512xbf16, #ttnn_layout2>) -> tensor<512xf32, #ttnn_layout4> loc(#loc)
        %2 = call @cpu_hoisted_const_eval_24665087(%1) {ttir.cpu_hoist_call} : (tensor<512xf32, #ttnn_layout4>) -> tensor<1x1x1x512xf32, #ttnn_layout5> loc(#loc)
        "ttnn.deallocate"(%1) <{force = false}> : (tensor<512xf32, #ttnn_layout4>) -> () loc(#loc)
        %3 = "ttnn.typecast"(%2) <{dtype = #ttcore.supportedDataTypes<bf16>}> : (tensor<1x1x1x512xf32, #ttnn_layout5>) -> tensor<1x1x1x512xbf16, #ttnn_layout6> loc(#loc537)
        "ttnn.deallocate"(%2) <{force = false}> : (tensor<1x1x1x512xf32, #ttnn_layout5>) -> () loc(#loc537)
        %4 = "ttnn.prepare_conv2d_bias"(%3, %0) <{batch_size = 1 : i32, conv2d_config = #ttnn.conv2d_config<weights_dtype = bf16, deallocate_activation = true, act_block_h_override = 64, enable_kernel_stride_folding = false, config_tensors_in_dram = true>, conv2d_slice_config = #ttnn.conv2d_slice_config<l1_full, 0>, dilation = array<i32: 1, 1>, groups = 1 : i32, in_channels = 512 : i32, input_dtype = #ttcore.supportedDataTypes<bf16>, input_height = 160 : i32, input_memory_config = #ttnn.memory_config<#dram, <interleaved>>, input_tensor_layout = #ttnn.layout<tile>, input_width = 90 : i32, kernel_size = array<i32: 3, 3>, out_channels = 512 : i32, output_dtype = #ttcore.supportedDataTypes<bf16>, padding = array<i32: 1, 1, 1, 1>, stride = array<i32: 1, 1>}> : (tensor<1x1x1x512xbf16, #ttnn_layout6>, !ttnn.device) -> tensor<1x1x1x512xbf16, #ttnn_layout3> loc(#loc538)
        "ttnn.deallocate"(%3) <{force = false}> : (tensor<1x1x1x512xbf16, #ttnn_layout6>) -> () loc(#loc538)
        return %4 : tensor<1x1x1x512xbf16, #ttnn_layout3> loc(#loc)
      } loc(#loc)
      func.func private @main_const_eval_32(%arg0: tensor<512xbf16, #ttnn_layout2> loc(unknown)) -> tensor<1x32x16x1xf32, #ttnn_layout13> attributes {tt.function_type = "const_eval"} {
        %0 = "ttnn.get_device"() <{mesh_offset = #ttnn<mesh_offset 0x0>, mesh_shape = #ttnn<mesh_shape 1x1>}> : () -> !ttnn.device loc(#loc)
        %1 = "ttnn.typecast"(%arg0) <{dtype = #ttcore.supportedDataTypes<f32>}> : (tensor<512xbf16, #ttnn_layout2>) -> tensor<512xf32, #ttnn_layout4> loc(#loc)
        %2 = call @cpu_hoisted_const_eval_ce3dc089(%1) {ttir.cpu_hoist_call} : (tensor<512xf32, #ttnn_layout4>) -> tensor<1x32x16x1xf32, #ttnn_layout14> loc(#loc)
        "ttnn.deallocate"(%1) <{force = false}> : (tensor<512xf32, #ttnn_layout4>) -> () loc(#loc)
        %3 = "ttnn.to_layout"(%2) <{layout = #ttnn.layout<tile>}> : (tensor<1x32x16x1xf32, #ttnn_layout14>) -> tensor<1x32x16x1xf32, #ttnn_layout15> loc(#loc)
        "ttnn.deallocate"(%2) <{force = false}> : (tensor<1x32x16x1xf32, #ttnn_layout14>) -> () loc(#loc)
        %4 = "ttnn.to_device"(%3, %0) : (tensor<1x32x16x1xf32, #ttnn_layout15>, !ttnn.device) -> tensor<1x32x16x1xf32, #ttnn_layout13> loc(#loc)
        "ttnn.deallocate"(%3) <{force = false}> : (tensor<1x32x16x1xf32, #ttnn_layout15>) -> () loc(#loc)
        return %4 : tensor<1x32x16x1xf32, #ttnn_layout13> loc(#loc)
      } loc(#loc)
      func.func private @main_const_eval_33(%arg0: tensor<512xbf16, #ttnn_layout2> loc(unknown)) -> tensor<1x32x16x1xf32, #ttnn_layout13> attributes {tt.function_type = "const_eval"} {
        %0 = "ttnn.get_device"() <{mesh_offset = #ttnn<mesh_offset 0x0>, mesh_shape = #ttnn<mesh_shape 1x1>}> : () -> !ttnn.device loc(#loc)
        %1 = "ttnn.typecast"(%arg0) <{dtype = #ttcore.supportedDataTypes<f32>}> : (tensor<512xbf16, #ttnn_layout2>) -> tensor<512xf32, #ttnn_layout4> loc(#loc)
        %2 = call @cpu_hoisted_const_eval_ce3dc089(%1) {ttir.cpu_hoist_call} : (tensor<512xf32, #ttnn_layout4>) -> tensor<1x32x16x1xf32, #ttnn_layout14> loc(#loc)
        "ttnn.deallocate"(%1) <{force = false}> : (tensor<512xf32, #ttnn_layout4>) -> () loc(#loc)
        %3 = "ttnn.to_layout"(%2) <{layout = #ttnn.layout<tile>}> : (tensor<1x32x16x1xf32, #ttnn_layout14>) -> tensor<1x32x16x1xf32, #ttnn_layout15> loc(#loc)
        "ttnn.deallocate"(%2) <{force = false}> : (tensor<1x32x16x1xf32, #ttnn_layout14>) -> () loc(#loc)
        %4 = "ttnn.to_device"(%3, %0) : (tensor<1x32x16x1xf32, #ttnn_layout15>, !ttnn.device) -> tensor<1x32x16x1xf32, #ttnn_layout13> loc(#loc)
        "ttnn.deallocate"(%3) <{force = false}> : (tensor<1x32x16x1xf32, #ttnn_layout15>) -> () loc(#loc)
        return %4 : tensor<1x32x16x1xf32, #ttnn_layout13> loc(#loc)
      } loc(#loc)
      func.func private @main_const_eval_34(%arg0: tensor<256xbf16, #ttnn_layout18> loc(unknown)) -> tensor<1x32x8x1xf32, #ttnn_layout13> attributes {tt.function_type = "const_eval"} {
        %0 = "ttnn.get_device"() <{mesh_offset = #ttnn<mesh_offset 0x0>, mesh_shape = #ttnn<mesh_shape 1x1>}> : () -> !ttnn.device loc(#loc)
        %1 = "ttnn.typecast"(%arg0) <{dtype = #ttcore.supportedDataTypes<f32>}> : (tensor<256xbf16, #ttnn_layout18>) -> tensor<256xf32, #ttnn_layout20> loc(#loc)
        %2 = call @cpu_hoisted_const_eval_de413a9b(%1) {ttir.cpu_hoist_call} : (tensor<256xf32, #ttnn_layout20>) -> tensor<1x32x8x1xf32, #ttnn_layout33> loc(#loc)
        "ttnn.deallocate"(%1) <{force = false}> : (tensor<256xf32, #ttnn_layout20>) -> () loc(#loc)
        %3 = "ttnn.to_layout"(%2) <{layout = #ttnn.layout<tile>}> : (tensor<1x32x8x1xf32, #ttnn_layout33>) -> tensor<1x32x8x1xf32, #ttnn_layout15> loc(#loc)
        "ttnn.deallocate"(%2) <{force = false}> : (tensor<1x32x8x1xf32, #ttnn_layout33>) -> () loc(#loc)
        %4 = "ttnn.to_device"(%3, %0) : (tensor<1x32x8x1xf32, #ttnn_layout15>, !ttnn.device) -> tensor<1x32x8x1xf32, #ttnn_layout13> loc(#loc)
        "ttnn.deallocate"(%3) <{force = false}> : (tensor<1x32x8x1xf32, #ttnn_layout15>) -> () loc(#loc)
        return %4 : tensor<1x32x8x1xf32, #ttnn_layout13> loc(#loc)
      } loc(#loc)
      func.func private @main_const_eval_35(%arg0: tensor<512xbf16, #ttnn_layout2> loc(unknown)) -> tensor<1x32x16x1xf32, #ttnn_layout13> attributes {tt.function_type = "const_eval"} {
        %0 = "ttnn.get_device"() <{mesh_offset = #ttnn<mesh_offset 0x0>, mesh_shape = #ttnn<mesh_shape 1x1>}> : () -> !ttnn.device loc(#loc)
        %1 = "ttnn.typecast"(%arg0) <{dtype = #ttcore.supportedDataTypes<f32>}> : (tensor<512xbf16, #ttnn_layout2>) -> tensor<512xf32, #ttnn_layout4> loc(#loc)
        %2 = call @cpu_hoisted_const_eval_ce3dc089(%1) {ttir.cpu_hoist_call} : (tensor<512xf32, #ttnn_layout4>) -> tensor<1x32x16x1xf32, #ttnn_layout14> loc(#loc)
        "ttnn.deallocate"(%1) <{force = false}> : (tensor<512xf32, #ttnn_layout4>) -> () loc(#loc)
        %3 = "ttnn.to_layout"(%2) <{layout = #ttnn.layout<tile>}> : (tensor<1x32x16x1xf32, #ttnn_layout14>) -> tensor<1x32x16x1xf32, #ttnn_layout15> loc(#loc)
        "ttnn.deallocate"(%2) <{force = false}> : (tensor<1x32x16x1xf32, #ttnn_layout14>) -> () loc(#loc)
        %4 = "ttnn.to_device"(%3, %0) : (tensor<1x32x16x1xf32, #ttnn_layout15>, !ttnn.device) -> tensor<1x32x16x1xf32, #ttnn_layout13> loc(#loc)
        "ttnn.deallocate"(%3) <{force = false}> : (tensor<1x32x16x1xf32, #ttnn_layout15>) -> () loc(#loc)
        return %4 : tensor<1x32x16x1xf32, #ttnn_layout13> loc(#loc)
      } loc(#loc)
      func.func private @main_const_eval_36(%arg0: tensor<256xbf16, #ttnn_layout18> loc(unknown)) -> tensor<1x32x8x1xf32, #ttnn_layout13> attributes {tt.function_type = "const_eval"} {
        %0 = "ttnn.get_device"() <{mesh_offset = #ttnn<mesh_offset 0x0>, mesh_shape = #ttnn<mesh_shape 1x1>}> : () -> !ttnn.device loc(#loc)
        %1 = "ttnn.typecast"(%arg0) <{dtype = #ttcore.supportedDataTypes<f32>}> : (tensor<256xbf16, #ttnn_layout18>) -> tensor<256xf32, #ttnn_layout20> loc(#loc)
        %2 = call @cpu_hoisted_const_eval_de413a9b(%1) {ttir.cpu_hoist_call} : (tensor<256xf32, #ttnn_layout20>) -> tensor<1x32x8x1xf32, #ttnn_layout33> loc(#loc)
        "ttnn.deallocate"(%1) <{force = false}> : (tensor<256xf32, #ttnn_layout20>) -> () loc(#loc)
        %3 = "ttnn.to_layout"(%2) <{layout = #ttnn.layout<tile>}> : (tensor<1x32x8x1xf32, #ttnn_layout33>) -> tensor<1x32x8x1xf32, #ttnn_layout15> loc(#loc)
        "ttnn.deallocate"(%2) <{force = false}> : (tensor<1x32x8x1xf32, #ttnn_layout33>) -> () loc(#loc)
        %4 = "ttnn.to_device"(%3, %0) : (tensor<1x32x8x1xf32, #ttnn_layout15>, !ttnn.device) -> tensor<1x32x8x1xf32, #ttnn_layout13> loc(#loc)
        "ttnn.deallocate"(%3) <{force = false}> : (tensor<1x32x8x1xf32, #ttnn_layout15>) -> () loc(#loc)
        return %4 : tensor<1x32x8x1xf32, #ttnn_layout13> loc(#loc)
      } loc(#loc)
      func.func private @main_const_eval_37(%arg0: tensor<512x512x3x3xbf16, #ttnn_layout11> {ttir.conv2d_weight} loc(unknown)) -> tensor<1x1x4608x512xbf16, #ttnn_layout12> attributes {tt.function_type = "const_eval"} {
        %0 = "ttnn.get_device"() <{mesh_offset = #ttnn<mesh_offset 0x0>, mesh_shape = #ttnn<mesh_shape 1x1>}> : () -> !ttnn.device loc(#loc1)
        %1 = "ttnn.prepare_conv2d_weights"(%arg0, %0) <{batch_size = 1 : i32, conv2d_config = #ttnn.conv2d_config<weights_dtype = bf16, deallocate_activation = true, act_block_h_override = 64, enable_kernel_stride_folding = false, config_tensors_in_dram = true>, conv2d_slice_config = #ttnn.conv2d_slice_config<l1_full, 0>, dilation = array<i32: 1, 1>, groups = 1 : i32, has_bias = true, in_channels = 512 : i32, input_dtype = #ttcore.supportedDataTypes<bf16>, input_height = 160 : i32, input_memory_config = #ttnn.memory_config<#dram, <interleaved>>, input_tensor_layout = #ttnn.layout<tile>, input_width = 90 : i32, kernel_size = array<i32: 3, 3>, out_channels = 512 : i32, output_dtype = #ttcore.supportedDataTypes<bf16>, padding = array<i32: 1, 1, 1, 1>, stride = array<i32: 1, 1>, weights_format = "OIHW"}> : (tensor<512x512x3x3xbf16, #ttnn_layout11>, !ttnn.device) -> tensor<1x1x4608x512xbf16, #ttnn_layout12> loc(#loc539)
        return %1 : tensor<1x1x4608x512xbf16, #ttnn_layout12> loc(#loc)
      } loc(#loc)
      func.func private @main_const_eval_38() -> tensor<160x320xbf16, #ttnn_layout34> attributes {tt.function_type = "const_eval"} {
        %0 = "ttnn.get_device"() <{mesh_offset = #ttnn<mesh_offset 0x0>, mesh_shape = #ttnn<mesh_shape 1x1>}> : () -> !ttnn.device loc(#loc)
        %1 = call @cpu_hoisted_const_eval_0df71a7d() {ttir.cpu_hoist_call} : () -> tensor<160x320xf32, #ttnn_layout35> loc(#loc)
        %2 = "ttnn.typecast"(%1) <{dtype = #ttcore.supportedDataTypes<bf16>}> : (tensor<160x320xf32, #ttnn_layout35>) -> tensor<160x320xbf16, #ttnn_layout36> loc(#loc)
        "ttnn.deallocate"(%1) <{force = false}> : (tensor<160x320xf32, #ttnn_layout35>) -> () loc(#loc)
        %3 = "ttnn.to_layout"(%2) <{layout = #ttnn.layout<tile>}> : (tensor<160x320xbf16, #ttnn_layout36>) -> tensor<160x320xbf16, #ttnn_layout37> loc(#loc)
        "ttnn.deallocate"(%2) <{force = false}> : (tensor<160x320xbf16, #ttnn_layout36>) -> () loc(#loc)
        %4 = "ttnn.to_device"(%3, %0) : (tensor<160x320xbf16, #ttnn_layout37>, !ttnn.device) -> tensor<160x320xbf16, #ttnn_layout34> loc(#loc)
        "ttnn.deallocate"(%3) <{force = false}> : (tensor<160x320xbf16, #ttnn_layout37>) -> () loc(#loc)
        return %4 : tensor<160x320xbf16, #ttnn_layout34> loc(#loc)
      } loc(#loc)
      func.func private @main_const_eval_39(%arg0: tensor<256xbf16, #ttnn_layout18> loc(unknown)) -> tensor<1x32x8x1xf32, #ttnn_layout13> attributes {tt.function_type = "const_eval"} {
        %0 = "ttnn.get_device"() <{mesh_offset = #ttnn<mesh_offset 0x0>, mesh_shape = #ttnn<mesh_shape 1x1>}> : () -> !ttnn.device loc(#loc)
        %1 = "ttnn.typecast"(%arg0) <{dtype = #ttcore.supportedDataTypes<f32>}> : (tensor<256xbf16, #ttnn_layout18>) -> tensor<256xf32, #ttnn_layout20> loc(#loc)
        %2 = call @cpu_hoisted_const_eval_de413a9b(%1) {ttir.cpu_hoist_call} : (tensor<256xf32, #ttnn_layout20>) -> tensor<1x32x8x1xf32, #ttnn_layout33> loc(#loc)
        "ttnn.deallocate"(%1) <{force = false}> : (tensor<256xf32, #ttnn_layout20>) -> () loc(#loc)
        %3 = "ttnn.to_layout"(%2) <{layout = #ttnn.layout<tile>}> : (tensor<1x32x8x1xf32, #ttnn_layout33>) -> tensor<1x32x8x1xf32, #ttnn_layout15> loc(#loc)
        "ttnn.deallocate"(%2) <{force = false}> : (tensor<1x32x8x1xf32, #ttnn_layout33>) -> () loc(#loc)
        %4 = "ttnn.to_device"(%3, %0) : (tensor<1x32x8x1xf32, #ttnn_layout15>, !ttnn.device) -> tensor<1x32x8x1xf32, #ttnn_layout13> loc(#loc)
        "ttnn.deallocate"(%3) <{force = false}> : (tensor<1x32x8x1xf32, #ttnn_layout15>) -> () loc(#loc)
        return %4 : tensor<1x32x8x1xf32, #ttnn_layout13> loc(#loc)
      } loc(#loc)
      func.func private @main_const_eval_40(%arg0: tensor<512xbf16, #ttnn_layout2> loc(unknown)) -> tensor<1x1x1x512xbf16, #ttnn_layout3> attributes {tt.function_type = "const_eval"} {
        %0 = "ttnn.get_device"() <{mesh_offset = #ttnn<mesh_offset 0x0>, mesh_shape = #ttnn<mesh_shape 1x1>}> : () -> !ttnn.device loc(#loc1)
        %1 = "ttnn.typecast"(%arg0) <{dtype = #ttcore.supportedDataTypes<f32>}> : (tensor<512xbf16, #ttnn_layout2>) -> tensor<512xf32, #ttnn_layout4> loc(#loc)
        %2 = call @cpu_hoisted_const_eval_24665087(%1) {ttir.cpu_hoist_call} : (tensor<512xf32, #ttnn_layout4>) -> tensor<1x1x1x512xf32, #ttnn_layout5> loc(#loc)
        "ttnn.deallocate"(%1) <{force = false}> : (tensor<512xf32, #ttnn_layout4>) -> () loc(#loc)
        %3 = "ttnn.typecast"(%2) <{dtype = #ttcore.supportedDataTypes<bf16>}> : (tensor<1x1x1x512xf32, #ttnn_layout5>) -> tensor<1x1x1x512xbf16, #ttnn_layout6> loc(#loc540)
        "ttnn.deallocate"(%2) <{force = false}> : (tensor<1x1x1x512xf32, #ttnn_layout5>) -> () loc(#loc540)
        %4 = "ttnn.prepare_conv2d_bias"(%3, %0) <{batch_size = 1 : i32, conv2d_config = #ttnn.conv2d_config<weights_dtype = bf16, act_block_h_override = 1024, enable_kernel_stride_folding = false, config_tensors_in_dram = true>, conv2d_slice_config = #ttnn.conv2d_slice_config<dram_width, 0>, dilation = array<i32: 1, 1>, groups = 1 : i32, in_channels = 512 : i32, input_dtype = #ttcore.supportedDataTypes<bf16>, input_height = 320 : i32, input_memory_config = #ttnn.memory_config<#dram, <interleaved>>, input_tensor_layout = #ttnn.layout<tile>, input_width = 180 : i32, kernel_size = array<i32: 3, 3>, out_channels = 512 : i32, output_dtype = #ttcore.supportedDataTypes<bf16>, padding = array<i32: 1, 1, 1, 1>, stride = array<i32: 1, 1>}> : (tensor<1x1x1x512xbf16, #ttnn_layout6>, !ttnn.device) -> tensor<1x1x1x512xbf16, #ttnn_layout3> loc(#loc541)
        "ttnn.deallocate"(%3) <{force = false}> : (tensor<1x1x1x512xbf16, #ttnn_layout6>) -> () loc(#loc541)
        return %4 : tensor<1x1x1x512xbf16, #ttnn_layout3> loc(#loc)
      } loc(#loc)
      func.func private @main_const_eval_41(%arg0: tensor<512xbf16, #ttnn_layout2> loc(unknown)) -> tensor<1x32x16x1xf32, #ttnn_layout13> attributes {tt.function_type = "const_eval"} {
        %0 = "ttnn.get_device"() <{mesh_offset = #ttnn<mesh_offset 0x0>, mesh_shape = #ttnn<mesh_shape 1x1>}> : () -> !ttnn.device loc(#loc)
        %1 = "ttnn.typecast"(%arg0) <{dtype = #ttcore.supportedDataTypes<f32>}> : (tensor<512xbf16, #ttnn_layout2>) -> tensor<512xf32, #ttnn_layout4> loc(#loc)
        %2 = call @cpu_hoisted_const_eval_ce3dc089(%1) {ttir.cpu_hoist_call} : (tensor<512xf32, #ttnn_layout4>) -> tensor<1x32x16x1xf32, #ttnn_layout14> loc(#loc)
        "ttnn.deallocate"(%1) <{force = false}> : (tensor<512xf32, #ttnn_layout4>) -> () loc(#loc)
        %3 = "ttnn.to_layout"(%2) <{layout = #ttnn.layout<tile>}> : (tensor<1x32x16x1xf32, #ttnn_layout14>) -> tensor<1x32x16x1xf32, #ttnn_layout15> loc(#loc)
        "ttnn.deallocate"(%2) <{force = false}> : (tensor<1x32x16x1xf32, #ttnn_layout14>) -> () loc(#loc)
        %4 = "ttnn.to_device"(%3, %0) : (tensor<1x32x16x1xf32, #ttnn_layout15>, !ttnn.device) -> tensor<1x32x16x1xf32, #ttnn_layout13> loc(#loc)
        "ttnn.deallocate"(%3) <{force = false}> : (tensor<1x32x16x1xf32, #ttnn_layout15>) -> () loc(#loc)
        return %4 : tensor<1x32x16x1xf32, #ttnn_layout13> loc(#loc)
      } loc(#loc)
      func.func private @main_const_eval_42(%arg0: tensor<512xbf16, #ttnn_layout2> loc(unknown)) -> tensor<1x32x16x1xf32, #ttnn_layout13> attributes {tt.function_type = "const_eval"} {
        %0 = "ttnn.get_device"() <{mesh_offset = #ttnn<mesh_offset 0x0>, mesh_shape = #ttnn<mesh_shape 1x1>}> : () -> !ttnn.device loc(#loc)
        %1 = "ttnn.typecast"(%arg0) <{dtype = #ttcore.supportedDataTypes<f32>}> : (tensor<512xbf16, #ttnn_layout2>) -> tensor<512xf32, #ttnn_layout4> loc(#loc)
        %2 = call @cpu_hoisted_const_eval_ce3dc089(%1) {ttir.cpu_hoist_call} : (tensor<512xf32, #ttnn_layout4>) -> tensor<1x32x16x1xf32, #ttnn_layout14> loc(#loc)
        "ttnn.deallocate"(%1) <{force = false}> : (tensor<512xf32, #ttnn_layout4>) -> () loc(#loc)
        %3 = "ttnn.to_layout"(%2) <{layout = #ttnn.layout<tile>}> : (tensor<1x32x16x1xf32, #ttnn_layout14>) -> tensor<1x32x16x1xf32, #ttnn_layout15> loc(#loc)
        "ttnn.deallocate"(%2) <{force = false}> : (tensor<1x32x16x1xf32, #ttnn_layout14>) -> () loc(#loc)
        %4 = "ttnn.to_device"(%3, %0) : (tensor<1x32x16x1xf32, #ttnn_layout15>, !ttnn.device) -> tensor<1x32x16x1xf32, #ttnn_layout13> loc(#loc)
        "ttnn.deallocate"(%3) <{force = false}> : (tensor<1x32x16x1xf32, #ttnn_layout15>) -> () loc(#loc)
        return %4 : tensor<1x32x16x1xf32, #ttnn_layout13> loc(#loc)
      } loc(#loc)
      func.func private @main_const_eval_43(%arg0: tensor<256xbf16, #ttnn_layout18> loc(unknown)) -> tensor<1x1x1x256xbf16, #ttnn_layout19> attributes {tt.function_type = "const_eval"} {
        %0 = "ttnn.get_device"() <{mesh_offset = #ttnn<mesh_offset 0x0>, mesh_shape = #ttnn<mesh_shape 1x1>}> : () -> !ttnn.device loc(#loc1)
        %1 = "ttnn.typecast"(%arg0) <{dtype = #ttcore.supportedDataTypes<f32>}> : (tensor<256xbf16, #ttnn_layout18>) -> tensor<256xf32, #ttnn_layout20> loc(#loc)
        %2 = call @cpu_hoisted_const_eval_8b649ce3(%1) {ttir.cpu_hoist_call} : (tensor<256xf32, #ttnn_layout20>) -> tensor<1x1x1x256xf32, #ttnn_layout21> loc(#loc)
        "ttnn.deallocate"(%1) <{force = false}> : (tensor<256xf32, #ttnn_layout20>) -> () loc(#loc)
        %3 = "ttnn.typecast"(%2) <{dtype = #ttcore.supportedDataTypes<bf16>}> : (tensor<1x1x1x256xf32, #ttnn_layout21>) -> tensor<1x1x1x256xbf16, #ttnn_layout22> loc(#loc542)
        "ttnn.deallocate"(%2) <{force = false}> : (tensor<1x1x1x256xf32, #ttnn_layout21>) -> () loc(#loc542)
        %4 = "ttnn.prepare_conv2d_bias"(%3, %0) <{batch_size = 1 : i32, conv2d_config = #ttnn.conv2d_config<weights_dtype = bf16, act_block_h_override = 1024, enable_kernel_stride_folding = false, config_tensors_in_dram = true>, conv2d_slice_config = #ttnn.conv2d_slice_config<dram_width, 0>, dilation = array<i32: 1, 1>, groups = 1 : i32, in_channels = 256 : i32, input_dtype = #ttcore.supportedDataTypes<bf16>, input_height = 640 : i32, input_memory_config = #ttnn.memory_config<#dram, <interleaved>>, input_tensor_layout = #ttnn.layout<tile>, input_width = 360 : i32, kernel_size = array<i32: 3, 3>, out_channels = 256 : i32, output_dtype = #ttcore.supportedDataTypes<bf16>, padding = array<i32: 1, 1, 1, 1>, stride = array<i32: 1, 1>}> : (tensor<1x1x1x256xbf16, #ttnn_layout22>, !ttnn.device) -> tensor<1x1x1x256xbf16, #ttnn_layout19> loc(#loc543)
        "ttnn.deallocate"(%3) <{force = false}> : (tensor<1x1x1x256xbf16, #ttnn_layout22>) -> () loc(#loc543)
        return %4 : tensor<1x1x1x256xbf16, #ttnn_layout19> loc(#loc)
      } loc(#loc)
      func.func private @main_const_eval_44(%arg0: tensor<512xbf16, #ttnn_layout2> loc(unknown)) -> tensor<1x1x1x512xbf16, #ttnn_layout3> attributes {tt.function_type = "const_eval"} {
        %0 = "ttnn.get_device"() <{mesh_offset = #ttnn<mesh_offset 0x0>, mesh_shape = #ttnn<mesh_shape 1x1>}> : () -> !ttnn.device loc(#loc1)
        %1 = "ttnn.typecast"(%arg0) <{dtype = #ttcore.supportedDataTypes<f32>}> : (tensor<512xbf16, #ttnn_layout2>) -> tensor<512xf32, #ttnn_layout4> loc(#loc)
        %2 = call @cpu_hoisted_const_eval_24665087(%1) {ttir.cpu_hoist_call} : (tensor<512xf32, #ttnn_layout4>) -> tensor<1x1x1x512xf32, #ttnn_layout5> loc(#loc)
        "ttnn.deallocate"(%1) <{force = false}> : (tensor<512xf32, #ttnn_layout4>) -> () loc(#loc)
        %3 = "ttnn.typecast"(%2) <{dtype = #ttcore.supportedDataTypes<bf16>}> : (tensor<1x1x1x512xf32, #ttnn_layout5>) -> tensor<1x1x1x512xbf16, #ttnn_layout6> loc(#loc544)
        "ttnn.deallocate"(%2) <{force = false}> : (tensor<1x1x1x512xf32, #ttnn_layout5>) -> () loc(#loc544)
        %4 = "ttnn.prepare_conv2d_bias"(%3, %0) <{batch_size = 1 : i32, conv2d_config = #ttnn.conv2d_config<weights_dtype = bf16, deallocate_activation = true, act_block_h_override = 0, enable_kernel_stride_folding = false, config_tensors_in_dram = true>, conv2d_slice_config = #ttnn.conv2d_slice_config<l1_full, 0>, dilation = array<i32: 1, 1>, groups = 1 : i32, in_channels = 16 : i32, input_dtype = #ttcore.supportedDataTypes<bf16>, input_height = 160 : i32, input_memory_config = #ttnn.memory_config<#dram, <interleaved>>, input_tensor_layout = #ttnn.layout<tile>, input_width = 90 : i32, kernel_size = array<i32: 3, 3>, out_channels = 512 : i32, output_dtype = #ttcore.supportedDataTypes<bf16>, padding = array<i32: 1, 1, 1, 1>, stride = array<i32: 1, 1>}> : (tensor<1x1x1x512xbf16, #ttnn_layout6>, !ttnn.device) -> tensor<1x1x1x512xbf16, #ttnn_layout3> loc(#loc545)
        "ttnn.deallocate"(%3) <{force = false}> : (tensor<1x1x1x512xbf16, #ttnn_layout6>) -> () loc(#loc545)
        return %4 : tensor<1x1x1x512xbf16, #ttnn_layout3> loc(#loc)
      } loc(#loc)
      func.func private @main_const_eval_45() -> tensor<360x720xbf16, #ttnn_layout38> attributes {tt.function_type = "const_eval"} {
        %0 = "ttnn.get_device"() <{mesh_offset = #ttnn<mesh_offset 0x0>, mesh_shape = #ttnn<mesh_shape 1x1>}> : () -> !ttnn.device loc(#loc)
        %1 = call @cpu_hoisted_const_eval_4d6151ea() {ttir.cpu_hoist_call} : () -> tensor<360x720xf32, #ttnn_layout39> loc(#loc)
        %2 = "ttnn.typecast"(%1) <{dtype = #ttcore.supportedDataTypes<bf16>}> : (tensor<360x720xf32, #ttnn_layout39>) -> tensor<360x720xbf16, #ttnn_layout40> loc(#loc)
        "ttnn.deallocate"(%1) <{force = false}> : (tensor<360x720xf32, #ttnn_layout39>) -> () loc(#loc)
        %3 = "ttnn.to_layout"(%2) <{layout = #ttnn.layout<tile>}> : (tensor<360x720xbf16, #ttnn_layout40>) -> tensor<360x720xbf16, #ttnn_layout41> loc(#loc)
        "ttnn.deallocate"(%2) <{force = false}> : (tensor<360x720xbf16, #ttnn_layout40>) -> () loc(#loc)
        %4 = "ttnn.to_device"(%3, %0) : (tensor<360x720xbf16, #ttnn_layout41>, !ttnn.device) -> tensor<360x720xbf16, #ttnn_layout38> loc(#loc)
        "ttnn.deallocate"(%3) <{force = false}> : (tensor<360x720xbf16, #ttnn_layout41>) -> () loc(#loc)
        return %4 : tensor<360x720xbf16, #ttnn_layout38> loc(#loc)
      } loc(#loc)
      func.func private @main_const_eval_46(%arg0: tensor<512xbf16, #ttnn_layout2> loc(unknown)) -> tensor<1x32x16x1xf32, #ttnn_layout13> attributes {tt.function_type = "const_eval"} {
        %0 = "ttnn.get_device"() <{mesh_offset = #ttnn<mesh_offset 0x0>, mesh_shape = #ttnn<mesh_shape 1x1>}> : () -> !ttnn.device loc(#loc)
        %1 = "ttnn.typecast"(%arg0) <{dtype = #ttcore.supportedDataTypes<f32>}> : (tensor<512xbf16, #ttnn_layout2>) -> tensor<512xf32, #ttnn_layout4> loc(#loc)
        %2 = call @cpu_hoisted_const_eval_ce3dc089(%1) {ttir.cpu_hoist_call} : (tensor<512xf32, #ttnn_layout4>) -> tensor<1x32x16x1xf32, #ttnn_layout14> loc(#loc)
        "ttnn.deallocate"(%1) <{force = false}> : (tensor<512xf32, #ttnn_layout4>) -> () loc(#loc)
        %3 = "ttnn.to_layout"(%2) <{layout = #ttnn.layout<tile>}> : (tensor<1x32x16x1xf32, #ttnn_layout14>) -> tensor<1x32x16x1xf32, #ttnn_layout15> loc(#loc)
        "ttnn.deallocate"(%2) <{force = false}> : (tensor<1x32x16x1xf32, #ttnn_layout14>) -> () loc(#loc)
        %4 = "ttnn.to_device"(%3, %0) : (tensor<1x32x16x1xf32, #ttnn_layout15>, !ttnn.device) -> tensor<1x32x16x1xf32, #ttnn_layout13> loc(#loc)
        "ttnn.deallocate"(%3) <{force = false}> : (tensor<1x32x16x1xf32, #ttnn_layout15>) -> () loc(#loc)
        return %4 : tensor<1x32x16x1xf32, #ttnn_layout13> loc(#loc)
      } loc(#loc)
      func.func private @main_const_eval_47(%arg0: tensor<512xbf16, #ttnn_layout2> loc(unknown)) -> tensor<1x32x16x1xf32, #ttnn_layout13> attributes {tt.function_type = "const_eval"} {
        %0 = "ttnn.get_device"() <{mesh_offset = #ttnn<mesh_offset 0x0>, mesh_shape = #ttnn<mesh_shape 1x1>}> : () -> !ttnn.device loc(#loc)
        %1 = "ttnn.typecast"(%arg0) <{dtype = #ttcore.supportedDataTypes<f32>}> : (tensor<512xbf16, #ttnn_layout2>) -> tensor<512xf32, #ttnn_layout4> loc(#loc)
        %2 = call @cpu_hoisted_const_eval_ce3dc089(%1) {ttir.cpu_hoist_call} : (tensor<512xf32, #ttnn_layout4>) -> tensor<1x32x16x1xf32, #ttnn_layout14> loc(#loc)
        "ttnn.deallocate"(%1) <{force = false}> : (tensor<512xf32, #ttnn_layout4>) -> () loc(#loc)
        %3 = "ttnn.to_layout"(%2) <{layout = #ttnn.layout<tile>}> : (tensor<1x32x16x1xf32, #ttnn_layout14>) -> tensor<1x32x16x1xf32, #ttnn_layout15> loc(#loc)
        "ttnn.deallocate"(%2) <{force = false}> : (tensor<1x32x16x1xf32, #ttnn_layout14>) -> () loc(#loc)
        %4 = "ttnn.to_device"(%3, %0) : (tensor<1x32x16x1xf32, #ttnn_layout15>, !ttnn.device) -> tensor<1x32x16x1xf32, #ttnn_layout13> loc(#loc)
        "ttnn.deallocate"(%3) <{force = false}> : (tensor<1x32x16x1xf32, #ttnn_layout15>) -> () loc(#loc)
        return %4 : tensor<1x32x16x1xf32, #ttnn_layout13> loc(#loc)
      } loc(#loc)
      func.func private @main_const_eval_48(%arg0: tensor<512x512x3x3xbf16, #ttnn_layout11> {ttir.conv2d_weight} loc(unknown)) -> tensor<1x1x4608x512xbf16, #ttnn_layout12> attributes {tt.function_type = "const_eval"} {
        %0 = "ttnn.get_device"() <{mesh_offset = #ttnn<mesh_offset 0x0>, mesh_shape = #ttnn<mesh_shape 1x1>}> : () -> !ttnn.device loc(#loc1)
        %1 = "ttnn.prepare_conv2d_weights"(%arg0, %0) <{batch_size = 1 : i32, conv2d_config = #ttnn.conv2d_config<weights_dtype = bf16, deallocate_activation = true, act_block_h_override = 64, enable_kernel_stride_folding = false, config_tensors_in_dram = true>, conv2d_slice_config = #ttnn.conv2d_slice_config<l1_full, 0>, dilation = array<i32: 1, 1>, groups = 1 : i32, has_bias = true, in_channels = 512 : i32, input_dtype = #ttcore.supportedDataTypes<bf16>, input_height = 160 : i32, input_memory_config = #ttnn.memory_config<#dram, <interleaved>>, input_tensor_layout = #ttnn.layout<tile>, input_width = 90 : i32, kernel_size = array<i32: 3, 3>, out_channels = 512 : i32, output_dtype = #ttcore.supportedDataTypes<bf16>, padding = array<i32: 1, 1, 1, 1>, stride = array<i32: 1, 1>, weights_format = "OIHW"}> : (tensor<512x512x3x3xbf16, #ttnn_layout11>, !ttnn.device) -> tensor<1x1x4608x512xbf16, #ttnn_layout12> loc(#loc546)
        return %1 : tensor<1x1x4608x512xbf16, #ttnn_layout12> loc(#loc)
      } loc(#loc)
      func.func private @main_const_eval_49(%arg0: tensor<256xbf16, #ttnn_layout18> loc(unknown)) -> tensor<1x32x8x1xf32, #ttnn_layout13> attributes {tt.function_type = "const_eval"} {
        %0 = "ttnn.get_device"() <{mesh_offset = #ttnn<mesh_offset 0x0>, mesh_shape = #ttnn<mesh_shape 1x1>}> : () -> !ttnn.device loc(#loc)
        %1 = "ttnn.typecast"(%arg0) <{dtype = #ttcore.supportedDataTypes<f32>}> : (tensor<256xbf16, #ttnn_layout18>) -> tensor<256xf32, #ttnn_layout20> loc(#loc)
        %2 = call @cpu_hoisted_const_eval_de413a9b(%1) {ttir.cpu_hoist_call} : (tensor<256xf32, #ttnn_layout20>) -> tensor<1x32x8x1xf32, #ttnn_layout33> loc(#loc)
        "ttnn.deallocate"(%1) <{force = false}> : (tensor<256xf32, #ttnn_layout20>) -> () loc(#loc)
        %3 = "ttnn.to_layout"(%2) <{layout = #ttnn.layout<tile>}> : (tensor<1x32x8x1xf32, #ttnn_layout33>) -> tensor<1x32x8x1xf32, #ttnn_layout15> loc(#loc)
        "ttnn.deallocate"(%2) <{force = false}> : (tensor<1x32x8x1xf32, #ttnn_layout33>) -> () loc(#loc)
        %4 = "ttnn.to_device"(%3, %0) : (tensor<1x32x8x1xf32, #ttnn_layout15>, !ttnn.device) -> tensor<1x32x8x1xf32, #ttnn_layout13> loc(#loc)
        "ttnn.deallocate"(%3) <{force = false}> : (tensor<1x32x8x1xf32, #ttnn_layout15>) -> () loc(#loc)
        return %4 : tensor<1x32x8x1xf32, #ttnn_layout13> loc(#loc)
      } loc(#loc)
      func.func private @main_const_eval_50(%arg0: tensor<512x512x3x3xbf16, #ttnn_layout11> {ttir.conv2d_weight} loc(unknown)) -> tensor<1x1x4608x512xbf16, #ttnn_layout12> attributes {tt.function_type = "const_eval"} {
        %0 = "ttnn.get_device"() <{mesh_offset = #ttnn<mesh_offset 0x0>, mesh_shape = #ttnn<mesh_shape 1x1>}> : () -> !ttnn.device loc(#loc1)
        %1 = "ttnn.prepare_conv2d_weights"(%arg0, %0) <{batch_size = 1 : i32, conv2d_config = #ttnn.conv2d_config<weights_dtype = bf16, act_block_h_override = 1024, enable_kernel_stride_folding = false, config_tensors_in_dram = true>, conv2d_slice_config = #ttnn.conv2d_slice_config<dram_width, 0>, dilation = array<i32: 1, 1>, groups = 1 : i32, has_bias = true, in_channels = 512 : i32, input_dtype = #ttcore.supportedDataTypes<bf16>, input_height = 320 : i32, input_memory_config = #ttnn.memory_config<#dram, <interleaved>>, input_tensor_layout = #ttnn.layout<tile>, input_width = 180 : i32, kernel_size = array<i32: 3, 3>, out_channels = 512 : i32, output_dtype = #ttcore.supportedDataTypes<bf16>, padding = array<i32: 1, 1, 1, 1>, stride = array<i32: 1, 1>, weights_format = "OIHW"}> : (tensor<512x512x3x3xbf16, #ttnn_layout11>, !ttnn.device) -> tensor<1x1x4608x512xbf16, #ttnn_layout12> loc(#loc547)
        return %1 : tensor<1x1x4608x512xbf16, #ttnn_layout12> loc(#loc)
      } loc(#loc)
      func.func private @main_const_eval_51(%arg0: tensor<512xbf16, #ttnn_layout2> loc(unknown)) -> tensor<1x32x16x1xf32, #ttnn_layout13> attributes {tt.function_type = "const_eval"} {
        %0 = "ttnn.get_device"() <{mesh_offset = #ttnn<mesh_offset 0x0>, mesh_shape = #ttnn<mesh_shape 1x1>}> : () -> !ttnn.device loc(#loc)
        %1 = "ttnn.typecast"(%arg0) <{dtype = #ttcore.supportedDataTypes<f32>}> : (tensor<512xbf16, #ttnn_layout2>) -> tensor<512xf32, #ttnn_layout4> loc(#loc)
        %2 = call @cpu_hoisted_const_eval_ea3392f6(%1) {ttir.cpu_hoist_call} : (tensor<512xf32, #ttnn_layout4>) -> tensor<1x32x16x1xf32, #ttnn_layout14> loc(#loc)
        "ttnn.deallocate"(%1) <{force = false}> : (tensor<512xf32, #ttnn_layout4>) -> () loc(#loc)
        %3 = "ttnn.to_layout"(%2) <{layout = #ttnn.layout<tile>}> : (tensor<1x32x16x1xf32, #ttnn_layout14>) -> tensor<1x32x16x1xf32, #ttnn_layout15> loc(#loc)
        "ttnn.deallocate"(%2) <{force = false}> : (tensor<1x32x16x1xf32, #ttnn_layout14>) -> () loc(#loc)
        %4 = "ttnn.to_device"(%3, %0) : (tensor<1x32x16x1xf32, #ttnn_layout15>, !ttnn.device) -> tensor<1x32x16x1xf32, #ttnn_layout13> loc(#loc)
        "ttnn.deallocate"(%3) <{force = false}> : (tensor<1x32x16x1xf32, #ttnn_layout15>) -> () loc(#loc)
        return %4 : tensor<1x32x16x1xf32, #ttnn_layout13> loc(#loc)
      } loc(#loc)
      func.func private @main_const_eval_52(%arg0: tensor<256xbf16, #ttnn_layout18> loc(unknown)) -> tensor<1x1x1x256xbf16, #ttnn_layout19> attributes {tt.function_type = "const_eval"} {
        %0 = "ttnn.get_device"() <{mesh_offset = #ttnn<mesh_offset 0x0>, mesh_shape = #ttnn<mesh_shape 1x1>}> : () -> !ttnn.device loc(#loc1)
        %1 = "ttnn.typecast"(%arg0) <{dtype = #ttcore.supportedDataTypes<f32>}> : (tensor<256xbf16, #ttnn_layout18>) -> tensor<256xf32, #ttnn_layout20> loc(#loc)
        %2 = call @cpu_hoisted_const_eval_8b649ce3(%1) {ttir.cpu_hoist_call} : (tensor<256xf32, #ttnn_layout20>) -> tensor<1x1x1x256xf32, #ttnn_layout21> loc(#loc)
        "ttnn.deallocate"(%1) <{force = false}> : (tensor<256xf32, #ttnn_layout20>) -> () loc(#loc)
        %3 = "ttnn.typecast"(%2) <{dtype = #ttcore.supportedDataTypes<bf16>}> : (tensor<1x1x1x256xf32, #ttnn_layout21>) -> tensor<1x1x1x256xbf16, #ttnn_layout22> loc(#loc548)
        "ttnn.deallocate"(%2) <{force = false}> : (tensor<1x1x1x256xf32, #ttnn_layout21>) -> () loc(#loc548)
        %4 = "ttnn.prepare_conv2d_bias"(%3, %0) <{batch_size = 1 : i32, conv2d_config = #ttnn.conv2d_config<weights_dtype = bf16, act_block_h_override = 1024, enable_kernel_stride_folding = false, config_tensors_in_dram = true>, conv2d_slice_config = #ttnn.conv2d_slice_config<dram_width, 0>, dilation = array<i32: 1, 1>, groups = 1 : i32, in_channels = 256 : i32, input_dtype = #ttcore.supportedDataTypes<bf16>, input_height = 640 : i32, input_memory_config = #ttnn.memory_config<#dram, <interleaved>>, input_tensor_layout = #ttnn.layout<tile>, input_width = 360 : i32, kernel_size = array<i32: 3, 3>, out_channels = 256 : i32, output_dtype = #ttcore.supportedDataTypes<bf16>, padding = array<i32: 1, 1, 1, 1>, stride = array<i32: 1, 1>}> : (tensor<1x1x1x256xbf16, #ttnn_layout22>, !ttnn.device) -> tensor<1x1x1x256xbf16, #ttnn_layout19> loc(#loc549)
        "ttnn.deallocate"(%3) <{force = false}> : (tensor<1x1x1x256xbf16, #ttnn_layout22>) -> () loc(#loc549)
        return %4 : tensor<1x1x1x256xbf16, #ttnn_layout19> loc(#loc)
      } loc(#loc)
      func.func private @main_const_eval_53(%arg0: tensor<512xbf16, #ttnn_layout2> loc(unknown)) -> tensor<1x1x1x512xbf16, #ttnn_layout3> attributes {tt.function_type = "const_eval"} {
        %0 = "ttnn.get_device"() <{mesh_offset = #ttnn<mesh_offset 0x0>, mesh_shape = #ttnn<mesh_shape 1x1>}> : () -> !ttnn.device loc(#loc1)
        %1 = "ttnn.typecast"(%arg0) <{dtype = #ttcore.supportedDataTypes<f32>}> : (tensor<512xbf16, #ttnn_layout2>) -> tensor<512xf32, #ttnn_layout4> loc(#loc)
        %2 = call @cpu_hoisted_const_eval_24665087(%1) {ttir.cpu_hoist_call} : (tensor<512xf32, #ttnn_layout4>) -> tensor<1x1x1x512xf32, #ttnn_layout5> loc(#loc)
        "ttnn.deallocate"(%1) <{force = false}> : (tensor<512xf32, #ttnn_layout4>) -> () loc(#loc)
        %3 = "ttnn.typecast"(%2) <{dtype = #ttcore.supportedDataTypes<bf16>}> : (tensor<1x1x1x512xf32, #ttnn_layout5>) -> tensor<1x1x1x512xbf16, #ttnn_layout6> loc(#loc550)
        "ttnn.deallocate"(%2) <{force = false}> : (tensor<1x1x1x512xf32, #ttnn_layout5>) -> () loc(#loc550)
        %4 = "ttnn.prepare_conv2d_bias"(%3, %0) <{batch_size = 1 : i32, conv2d_config = #ttnn.conv2d_config<weights_dtype = bf16, act_block_h_override = 1024, enable_kernel_stride_folding = false, config_tensors_in_dram = true>, conv2d_slice_config = #ttnn.conv2d_slice_config<dram_width, 0>, dilation = array<i32: 1, 1>, groups = 1 : i32, in_channels = 512 : i32, input_dtype = #ttcore.supportedDataTypes<bf16>, input_height = 320 : i32, input_memory_config = #ttnn.memory_config<#dram, <interleaved>>, input_tensor_layout = #ttnn.layout<tile>, input_width = 180 : i32, kernel_size = array<i32: 3, 3>, out_channels = 512 : i32, output_dtype = #ttcore.supportedDataTypes<bf16>, padding = array<i32: 1, 1, 1, 1>, stride = array<i32: 1, 1>}> : (tensor<1x1x1x512xbf16, #ttnn_layout6>, !ttnn.device) -> tensor<1x1x1x512xbf16, #ttnn_layout3> loc(#loc551)
        "ttnn.deallocate"(%3) <{force = false}> : (tensor<1x1x1x512xbf16, #ttnn_layout6>) -> () loc(#loc551)
        return %4 : tensor<1x1x1x512xbf16, #ttnn_layout3> loc(#loc)
      } loc(#loc)
      func.func private @main_const_eval_54(%arg0: tensor<512xbf16, #ttnn_layout2> loc(unknown)) -> tensor<1x32x16x1xf32, #ttnn_layout13> attributes {tt.function_type = "const_eval"} {
        %0 = "ttnn.get_device"() <{mesh_offset = #ttnn<mesh_offset 0x0>, mesh_shape = #ttnn<mesh_shape 1x1>}> : () -> !ttnn.device loc(#loc)
        %1 = "ttnn.typecast"(%arg0) <{dtype = #ttcore.supportedDataTypes<f32>}> : (tensor<512xbf16, #ttnn_layout2>) -> tensor<512xf32, #ttnn_layout4> loc(#loc)
        %2 = call @cpu_hoisted_const_eval_ce3dc089(%1) {ttir.cpu_hoist_call} : (tensor<512xf32, #ttnn_layout4>) -> tensor<1x32x16x1xf32, #ttnn_layout14> loc(#loc)
        "ttnn.deallocate"(%1) <{force = false}> : (tensor<512xf32, #ttnn_layout4>) -> () loc(#loc)
        %3 = "ttnn.to_layout"(%2) <{layout = #ttnn.layout<tile>}> : (tensor<1x32x16x1xf32, #ttnn_layout14>) -> tensor<1x32x16x1xf32, #ttnn_layout15> loc(#loc)
        "ttnn.deallocate"(%2) <{force = false}> : (tensor<1x32x16x1xf32, #ttnn_layout14>) -> () loc(#loc)
        %4 = "ttnn.to_device"(%3, %0) : (tensor<1x32x16x1xf32, #ttnn_layout15>, !ttnn.device) -> tensor<1x32x16x1xf32, #ttnn_layout13> loc(#loc)
        "ttnn.deallocate"(%3) <{force = false}> : (tensor<1x32x16x1xf32, #ttnn_layout15>) -> () loc(#loc)
        return %4 : tensor<1x32x16x1xf32, #ttnn_layout13> loc(#loc)
      } loc(#loc)
      func.func private @main_const_eval_55(%arg0: tensor<512xbf16, #ttnn_layout2> loc(unknown)) -> tensor<1x32x16x1xf32, #ttnn_layout13> attributes {tt.function_type = "const_eval"} {
        %0 = "ttnn.get_device"() <{mesh_offset = #ttnn<mesh_offset 0x0>, mesh_shape = #ttnn<mesh_shape 1x1>}> : () -> !ttnn.device loc(#loc)
        %1 = "ttnn.typecast"(%arg0) <{dtype = #ttcore.supportedDataTypes<f32>}> : (tensor<512xbf16, #ttnn_layout2>) -> tensor<512xf32, #ttnn_layout4> loc(#loc)
        %2 = call @cpu_hoisted_const_eval_ce3dc089(%1) {ttir.cpu_hoist_call} : (tensor<512xf32, #ttnn_layout4>) -> tensor<1x32x16x1xf32, #ttnn_layout14> loc(#loc)
        "ttnn.deallocate"(%1) <{force = false}> : (tensor<512xf32, #ttnn_layout4>) -> () loc(#loc)
        %3 = "ttnn.to_layout"(%2) <{layout = #ttnn.layout<tile>}> : (tensor<1x32x16x1xf32, #ttnn_layout14>) -> tensor<1x32x16x1xf32, #ttnn_layout15> loc(#loc)
        "ttnn.deallocate"(%2) <{force = false}> : (tensor<1x32x16x1xf32, #ttnn_layout14>) -> () loc(#loc)
        %4 = "ttnn.to_device"(%3, %0) : (tensor<1x32x16x1xf32, #ttnn_layout15>, !ttnn.device) -> tensor<1x32x16x1xf32, #ttnn_layout13> loc(#loc)
        "ttnn.deallocate"(%3) <{force = false}> : (tensor<1x32x16x1xf32, #ttnn_layout15>) -> () loc(#loc)
        return %4 : tensor<1x32x16x1xf32, #ttnn_layout13> loc(#loc)
      } loc(#loc)
      func.func private @main_const_eval_56(%arg0: tensor<256x256x3x3xbf16, #ttnn_layout16> {ttir.conv2d_weight} loc(unknown)) -> tensor<1x1x2304x256xbf16, #ttnn_layout17> attributes {tt.function_type = "const_eval"} {
        %0 = "ttnn.get_device"() <{mesh_offset = #ttnn<mesh_offset 0x0>, mesh_shape = #ttnn<mesh_shape 1x1>}> : () -> !ttnn.device loc(#loc1)
        %1 = "ttnn.prepare_conv2d_weights"(%arg0, %0) <{batch_size = 1 : i32, conv2d_config = #ttnn.conv2d_config<weights_dtype = bf16, act_block_h_override = 1024, enable_kernel_stride_folding = false, config_tensors_in_dram = true>, conv2d_slice_config = #ttnn.conv2d_slice_config<dram_width, 0>, dilation = array<i32: 1, 1>, groups = 1 : i32, has_bias = true, in_channels = 256 : i32, input_dtype = #ttcore.supportedDataTypes<bf16>, input_height = 640 : i32, input_memory_config = #ttnn.memory_config<#dram, <interleaved>>, input_tensor_layout = #ttnn.layout<tile>, input_width = 360 : i32, kernel_size = array<i32: 3, 3>, out_channels = 256 : i32, output_dtype = #ttcore.supportedDataTypes<bf16>, padding = array<i32: 1, 1, 1, 1>, stride = array<i32: 1, 1>, weights_format = "OIHW"}> : (tensor<256x256x3x3xbf16, #ttnn_layout16>, !ttnn.device) -> tensor<1x1x2304x256xbf16, #ttnn_layout17> loc(#loc552)
        return %1 : tensor<1x1x2304x256xbf16, #ttnn_layout17> loc(#loc)
      } loc(#loc)
      func.func private @main_const_eval_57(%arg0: tensor<256xbf16, #ttnn_layout18> loc(unknown)) -> tensor<1x1x1x256xbf16, #ttnn_layout19> attributes {tt.function_type = "const_eval"} {
        %0 = "ttnn.get_device"() <{mesh_offset = #ttnn<mesh_offset 0x0>, mesh_shape = #ttnn<mesh_shape 1x1>}> : () -> !ttnn.device loc(#loc1)
        %1 = "ttnn.typecast"(%arg0) <{dtype = #ttcore.supportedDataTypes<f32>}> : (tensor<256xbf16, #ttnn_layout18>) -> tensor<256xf32, #ttnn_layout20> loc(#loc)
        %2 = call @cpu_hoisted_const_eval_8b649ce3(%1) {ttir.cpu_hoist_call} : (tensor<256xf32, #ttnn_layout20>) -> tensor<1x1x1x256xf32, #ttnn_layout21> loc(#loc)
        "ttnn.deallocate"(%1) <{force = false}> : (tensor<256xf32, #ttnn_layout20>) -> () loc(#loc)
        %3 = "ttnn.typecast"(%2) <{dtype = #ttcore.supportedDataTypes<bf16>}> : (tensor<1x1x1x256xf32, #ttnn_layout21>) -> tensor<1x1x1x256xbf16, #ttnn_layout22> loc(#loc553)
        "ttnn.deallocate"(%2) <{force = false}> : (tensor<1x1x1x256xf32, #ttnn_layout21>) -> () loc(#loc553)
        %4 = "ttnn.prepare_conv2d_bias"(%3, %0) <{batch_size = 1 : i32, conv2d_config = #ttnn.conv2d_config<weights_dtype = bf16, deallocate_activation = false, act_block_h_override = 0, enable_kernel_stride_folding = false, config_tensors_in_dram = true>, conv2d_slice_config = #ttnn.conv2d_slice_config<l1_full, 0>, dilation = array<i32: 1, 1>, groups = 1 : i32, in_channels = 512 : i32, input_dtype = #ttcore.supportedDataTypes<bf16>, input_height = 640 : i32, input_memory_config = #ttnn.memory_config<#dram, <interleaved>>, input_tensor_layout = #ttnn.layout<tile>, input_width = 360 : i32, kernel_size = array<i32: 1, 1>, out_channels = 256 : i32, output_dtype = #ttcore.supportedDataTypes<bf16>, padding = array<i32: 0, 0, 0, 0>, stride = array<i32: 1, 1>}> : (tensor<1x1x1x256xbf16, #ttnn_layout22>, !ttnn.device) -> tensor<1x1x1x256xbf16, #ttnn_layout19> loc(#loc554)
        "ttnn.deallocate"(%3) <{force = false}> : (tensor<1x1x1x256xbf16, #ttnn_layout22>) -> () loc(#loc554)
        return %4 : tensor<1x1x1x256xbf16, #ttnn_layout19> loc(#loc)
      } loc(#loc)
      func.func private @main_const_eval_58(%arg0: tensor<512xbf16, #ttnn_layout2> loc(unknown)) -> tensor<1x1x1x512xbf16, #ttnn_layout3> attributes {tt.function_type = "const_eval"} {
        %0 = "ttnn.get_device"() <{mesh_offset = #ttnn<mesh_offset 0x0>, mesh_shape = #ttnn<mesh_shape 1x1>}> : () -> !ttnn.device loc(#loc1)
        %1 = "ttnn.typecast"(%arg0) <{dtype = #ttcore.supportedDataTypes<f32>}> : (tensor<512xbf16, #ttnn_layout2>) -> tensor<512xf32, #ttnn_layout4> loc(#loc)
        %2 = call @cpu_hoisted_const_eval_24665087(%1) {ttir.cpu_hoist_call} : (tensor<512xf32, #ttnn_layout4>) -> tensor<1x1x1x512xf32, #ttnn_layout5> loc(#loc)
        "ttnn.deallocate"(%1) <{force = false}> : (tensor<512xf32, #ttnn_layout4>) -> () loc(#loc)
        %3 = "ttnn.typecast"(%2) <{dtype = #ttcore.supportedDataTypes<bf16>}> : (tensor<1x1x1x512xf32, #ttnn_layout5>) -> tensor<1x1x1x512xbf16, #ttnn_layout6> loc(#loc555)
        "ttnn.deallocate"(%2) <{force = false}> : (tensor<1x1x1x512xf32, #ttnn_layout5>) -> () loc(#loc555)
        %4 = "ttnn.prepare_conv2d_bias"(%3, %0) <{batch_size = 1 : i32, conv2d_config = #ttnn.conv2d_config<weights_dtype = bf16, deallocate_activation = true, act_block_h_override = 64, enable_kernel_stride_folding = false, config_tensors_in_dram = true>, conv2d_slice_config = #ttnn.conv2d_slice_config<l1_full, 0>, dilation = array<i32: 1, 1>, groups = 1 : i32, in_channels = 512 : i32, input_dtype = #ttcore.supportedDataTypes<bf16>, input_height = 160 : i32, input_memory_config = #ttnn.memory_config<#dram, <interleaved>>, input_tensor_layout = #ttnn.layout<tile>, input_width = 90 : i32, kernel_size = array<i32: 3, 3>, out_channels = 512 : i32, output_dtype = #ttcore.supportedDataTypes<bf16>, padding = array<i32: 1, 1, 1, 1>, stride = array<i32: 1, 1>}> : (tensor<1x1x1x512xbf16, #ttnn_layout6>, !ttnn.device) -> tensor<1x1x1x512xbf16, #ttnn_layout3> loc(#loc556)
        "ttnn.deallocate"(%3) <{force = false}> : (tensor<1x1x1x512xbf16, #ttnn_layout6>) -> () loc(#loc556)
        return %4 : tensor<1x1x1x512xbf16, #ttnn_layout3> loc(#loc)
      } loc(#loc)
      func.func private @main_const_eval_59(%arg0: tensor<512xbf16, #ttnn_layout2> loc(unknown)) -> tensor<1x1x1x512xbf16, #ttnn_layout3> attributes {tt.function_type = "const_eval"} {
        %0 = "ttnn.get_device"() <{mesh_offset = #ttnn<mesh_offset 0x0>, mesh_shape = #ttnn<mesh_shape 1x1>}> : () -> !ttnn.device loc(#loc1)
        %1 = "ttnn.typecast"(%arg0) <{dtype = #ttcore.supportedDataTypes<f32>}> : (tensor<512xbf16, #ttnn_layout2>) -> tensor<512xf32, #ttnn_layout4> loc(#loc)
        %2 = call @cpu_hoisted_const_eval_24665087(%1) {ttir.cpu_hoist_call} : (tensor<512xf32, #ttnn_layout4>) -> tensor<1x1x1x512xf32, #ttnn_layout5> loc(#loc)
        "ttnn.deallocate"(%1) <{force = false}> : (tensor<512xf32, #ttnn_layout4>) -> () loc(#loc)
        %3 = "ttnn.typecast"(%2) <{dtype = #ttcore.supportedDataTypes<bf16>}> : (tensor<1x1x1x512xf32, #ttnn_layout5>) -> tensor<1x1x1x512xbf16, #ttnn_layout6> loc(#loc557)
        "ttnn.deallocate"(%2) <{force = false}> : (tensor<1x1x1x512xf32, #ttnn_layout5>) -> () loc(#loc557)
        %4 = "ttnn.prepare_conv2d_bias"(%3, %0) <{batch_size = 1 : i32, conv2d_config = #ttnn.conv2d_config<weights_dtype = bf16, deallocate_activation = true, act_block_h_override = 64, enable_kernel_stride_folding = false, config_tensors_in_dram = true>, conv2d_slice_config = #ttnn.conv2d_slice_config<l1_full, 0>, dilation = array<i32: 1, 1>, groups = 1 : i32, in_channels = 512 : i32, input_dtype = #ttcore.supportedDataTypes<bf16>, input_height = 160 : i32, input_memory_config = #ttnn.memory_config<#dram, <interleaved>>, input_tensor_layout = #ttnn.layout<tile>, input_width = 90 : i32, kernel_size = array<i32: 3, 3>, out_channels = 512 : i32, output_dtype = #ttcore.supportedDataTypes<bf16>, padding = array<i32: 1, 1, 1, 1>, stride = array<i32: 1, 1>}> : (tensor<1x1x1x512xbf16, #ttnn_layout6>, !ttnn.device) -> tensor<1x1x1x512xbf16, #ttnn_layout3> loc(#loc558)
        "ttnn.deallocate"(%3) <{force = false}> : (tensor<1x1x1x512xbf16, #ttnn_layout6>) -> () loc(#loc558)
        return %4 : tensor<1x1x1x512xbf16, #ttnn_layout3> loc(#loc)
      } loc(#loc)
      func.func private @main_const_eval_60(%arg0: tensor<128x256x3x3xbf16, #ttnn_layout42> {ttir.conv2d_weight} loc(unknown)) -> tensor<1x1x2304x128xbf16, #ttnn_layout43> attributes {tt.function_type = "const_eval"} {
        %0 = "ttnn.get_device"() <{mesh_offset = #ttnn<mesh_offset 0x0>, mesh_shape = #ttnn<mesh_shape 1x1>}> : () -> !ttnn.device loc(#loc1)
        %1 = "ttnn.prepare_conv2d_weights"(%arg0, %0) <{batch_size = 1 : i32, conv2d_config = #ttnn.conv2d_config<weights_dtype = bf16, act_block_h_override = 1024, enable_kernel_stride_folding = false, config_tensors_in_dram = true>, conv2d_slice_config = #ttnn.conv2d_slice_config<dram_width, 0>, dilation = array<i32: 1, 1>, groups = 1 : i32, has_bias = true, in_channels = 256 : i32, input_dtype = #ttcore.supportedDataTypes<bf16>, input_height = 1280 : i32, input_memory_config = #ttnn.memory_config<#dram, <interleaved>>, input_tensor_layout = #ttnn.layout<tile>, input_width = 720 : i32, kernel_size = array<i32: 3, 3>, out_channels = 128 : i32, output_dtype = #ttcore.supportedDataTypes<bf16>, padding = array<i32: 1, 1, 1, 1>, stride = array<i32: 1, 1>, weights_format = "OIHW"}> : (tensor<128x256x3x3xbf16, #ttnn_layout42>, !ttnn.device) -> tensor<1x1x2304x128xbf16, #ttnn_layout43> loc(#loc559)
        return %1 : tensor<1x1x2304x128xbf16, #ttnn_layout43> loc(#loc)
      } loc(#loc)
      func.func private @main_const_eval_61(%arg0: tensor<512xbf16, #ttnn_layout2> loc(unknown)) -> tensor<1x32x16x1xf32, #ttnn_layout13> attributes {tt.function_type = "const_eval"} {
        %0 = "ttnn.get_device"() <{mesh_offset = #ttnn<mesh_offset 0x0>, mesh_shape = #ttnn<mesh_shape 1x1>}> : () -> !ttnn.device loc(#loc)
        %1 = "ttnn.typecast"(%arg0) <{dtype = #ttcore.supportedDataTypes<f32>}> : (tensor<512xbf16, #ttnn_layout2>) -> tensor<512xf32, #ttnn_layout4> loc(#loc)
        %2 = call @cpu_hoisted_const_eval_ce3dc089(%1) {ttir.cpu_hoist_call} : (tensor<512xf32, #ttnn_layout4>) -> tensor<1x32x16x1xf32, #ttnn_layout14> loc(#loc)
        "ttnn.deallocate"(%1) <{force = false}> : (tensor<512xf32, #ttnn_layout4>) -> () loc(#loc)
        %3 = "ttnn.to_layout"(%2) <{layout = #ttnn.layout<tile>}> : (tensor<1x32x16x1xf32, #ttnn_layout14>) -> tensor<1x32x16x1xf32, #ttnn_layout15> loc(#loc)
        "ttnn.deallocate"(%2) <{force = false}> : (tensor<1x32x16x1xf32, #ttnn_layout14>) -> () loc(#loc)
        %4 = "ttnn.to_device"(%3, %0) : (tensor<1x32x16x1xf32, #ttnn_layout15>, !ttnn.device) -> tensor<1x32x16x1xf32, #ttnn_layout13> loc(#loc)
        "ttnn.deallocate"(%3) <{force = false}> : (tensor<1x32x16x1xf32, #ttnn_layout15>) -> () loc(#loc)
        return %4 : tensor<1x32x16x1xf32, #ttnn_layout13> loc(#loc)
      } loc(#loc)
      func.func private @main_const_eval_62(%arg0: tensor<256xbf16, #ttnn_layout18> loc(unknown)) -> tensor<1x1x1x256xbf16, #ttnn_layout19> attributes {tt.function_type = "const_eval"} {
        %0 = "ttnn.get_device"() <{mesh_offset = #ttnn<mesh_offset 0x0>, mesh_shape = #ttnn<mesh_shape 1x1>}> : () -> !ttnn.device loc(#loc1)
        %1 = "ttnn.typecast"(%arg0) <{dtype = #ttcore.supportedDataTypes<f32>}> : (tensor<256xbf16, #ttnn_layout18>) -> tensor<256xf32, #ttnn_layout20> loc(#loc)
        %2 = call @cpu_hoisted_const_eval_8b649ce3(%1) {ttir.cpu_hoist_call} : (tensor<256xf32, #ttnn_layout20>) -> tensor<1x1x1x256xf32, #ttnn_layout21> loc(#loc)
        "ttnn.deallocate"(%1) <{force = false}> : (tensor<256xf32, #ttnn_layout20>) -> () loc(#loc)
        %3 = "ttnn.typecast"(%2) <{dtype = #ttcore.supportedDataTypes<bf16>}> : (tensor<1x1x1x256xf32, #ttnn_layout21>) -> tensor<1x1x1x256xbf16, #ttnn_layout22> loc(#loc560)
        "ttnn.deallocate"(%2) <{force = false}> : (tensor<1x1x1x256xf32, #ttnn_layout21>) -> () loc(#loc560)
        %4 = "ttnn.prepare_conv2d_bias"(%3, %0) <{batch_size = 1 : i32, conv2d_config = #ttnn.conv2d_config<weights_dtype = bf16, act_block_h_override = 1024, enable_kernel_stride_folding = false, config_tensors_in_dram = true>, conv2d_slice_config = #ttnn.conv2d_slice_config<dram_width, 0>, dilation = array<i32: 1, 1>, groups = 1 : i32, in_channels = 256 : i32, input_dtype = #ttcore.supportedDataTypes<bf16>, input_height = 640 : i32, input_memory_config = #ttnn.memory_config<#dram, <interleaved>>, input_tensor_layout = #ttnn.layout<tile>, input_width = 360 : i32, kernel_size = array<i32: 3, 3>, out_channels = 256 : i32, output_dtype = #ttcore.supportedDataTypes<bf16>, padding = array<i32: 1, 1, 1, 1>, stride = array<i32: 1, 1>}> : (tensor<1x1x1x256xbf16, #ttnn_layout22>, !ttnn.device) -> tensor<1x1x1x256xbf16, #ttnn_layout19> loc(#loc561)
        "ttnn.deallocate"(%3) <{force = false}> : (tensor<1x1x1x256xbf16, #ttnn_layout22>) -> () loc(#loc561)
        return %4 : tensor<1x1x1x256xbf16, #ttnn_layout19> loc(#loc)
      } loc(#loc)
      func.func private @main_const_eval_63(%arg0: tensor<256x256x3x3xbf16, #ttnn_layout16> {ttir.conv2d_weight} loc(unknown)) -> tensor<1x1x2304x256xbf16, #ttnn_layout17> attributes {tt.function_type = "const_eval"} {
        %0 = "ttnn.get_device"() <{mesh_offset = #ttnn<mesh_offset 0x0>, mesh_shape = #ttnn<mesh_shape 1x1>}> : () -> !ttnn.device loc(#loc1)
        %1 = "ttnn.prepare_conv2d_weights"(%arg0, %0) <{batch_size = 1 : i32, conv2d_config = #ttnn.conv2d_config<weights_dtype = bf16, act_block_h_override = 1024, enable_kernel_stride_folding = false, config_tensors_in_dram = true>, conv2d_slice_config = #ttnn.conv2d_slice_config<dram_width, 0>, dilation = array<i32: 1, 1>, groups = 1 : i32, has_bias = true, in_channels = 256 : i32, input_dtype = #ttcore.supportedDataTypes<bf16>, input_height = 640 : i32, input_memory_config = #ttnn.memory_config<#dram, <interleaved>>, input_tensor_layout = #ttnn.layout<tile>, input_width = 360 : i32, kernel_size = array<i32: 3, 3>, out_channels = 256 : i32, output_dtype = #ttcore.supportedDataTypes<bf16>, padding = array<i32: 1, 1, 1, 1>, stride = array<i32: 1, 1>, weights_format = "OIHW"}> : (tensor<256x256x3x3xbf16, #ttnn_layout16>, !ttnn.device) -> tensor<1x1x2304x256xbf16, #ttnn_layout17> loc(#loc562)
        return %1 : tensor<1x1x2304x256xbf16, #ttnn_layout17> loc(#loc)
      } loc(#loc)
      func.func private @main_const_eval_64(%arg0: tensor<512xbf16, #ttnn_layout2> loc(unknown)) -> tensor<1x32x16x1xf32, #ttnn_layout13> attributes {tt.function_type = "const_eval"} {
        %0 = "ttnn.get_device"() <{mesh_offset = #ttnn<mesh_offset 0x0>, mesh_shape = #ttnn<mesh_shape 1x1>}> : () -> !ttnn.device loc(#loc)
        %1 = "ttnn.typecast"(%arg0) <{dtype = #ttcore.supportedDataTypes<f32>}> : (tensor<512xbf16, #ttnn_layout2>) -> tensor<512xf32, #ttnn_layout4> loc(#loc)
        %2 = call @cpu_hoisted_const_eval_ce3dc089(%1) {ttir.cpu_hoist_call} : (tensor<512xf32, #ttnn_layout4>) -> tensor<1x32x16x1xf32, #ttnn_layout14> loc(#loc)
        "ttnn.deallocate"(%1) <{force = false}> : (tensor<512xf32, #ttnn_layout4>) -> () loc(#loc)
        %3 = "ttnn.to_layout"(%2) <{layout = #ttnn.layout<tile>}> : (tensor<1x32x16x1xf32, #ttnn_layout14>) -> tensor<1x32x16x1xf32, #ttnn_layout15> loc(#loc)
        "ttnn.deallocate"(%2) <{force = false}> : (tensor<1x32x16x1xf32, #ttnn_layout14>) -> () loc(#loc)
        %4 = "ttnn.to_device"(%3, %0) : (tensor<1x32x16x1xf32, #ttnn_layout15>, !ttnn.device) -> tensor<1x32x16x1xf32, #ttnn_layout13> loc(#loc)
        "ttnn.deallocate"(%3) <{force = false}> : (tensor<1x32x16x1xf32, #ttnn_layout15>) -> () loc(#loc)
        return %4 : tensor<1x32x16x1xf32, #ttnn_layout13> loc(#loc)
      } loc(#loc)
      func.func private @main_const_eval_65() -> tensor<1x1x1x1xbf16, #ttnn_layout44> attributes {tt.function_type = "const_eval"} {
        %0 = "ttnn.get_device"() <{mesh_offset = #ttnn<mesh_offset 0x0>, mesh_shape = #ttnn<mesh_shape 1x1>}> : () -> !ttnn.device loc(#loc1)
        %1 = "ttnn.ones"(%0) <{dtype = #ttcore.supportedDataTypes<bf16>, layout = #ttnn.layout<tile>, shape = #ttnn.shape<1x1x1x1>}> : (!ttnn.device) -> tensor<1x1x1x1xbf16, #ttnn_layout44> loc(#loc)
        return %1 : tensor<1x1x1x1xbf16, #ttnn_layout44> loc(#loc)
      } loc(#loc)
      func.func private @main_const_eval_66(%arg0: tensor<512xbf16, #ttnn_layout2> loc(unknown)) -> tensor<1x32x16x1xf32, #ttnn_layout13> attributes {tt.function_type = "const_eval"} {
        %0 = "ttnn.get_device"() <{mesh_offset = #ttnn<mesh_offset 0x0>, mesh_shape = #ttnn<mesh_shape 1x1>}> : () -> !ttnn.device loc(#loc)
        %1 = "ttnn.typecast"(%arg0) <{dtype = #ttcore.supportedDataTypes<f32>}> : (tensor<512xbf16, #ttnn_layout2>) -> tensor<512xf32, #ttnn_layout4> loc(#loc)
        %2 = call @cpu_hoisted_const_eval_ea3392f6(%1) {ttir.cpu_hoist_call} : (tensor<512xf32, #ttnn_layout4>) -> tensor<1x32x16x1xf32, #ttnn_layout14> loc(#loc)
        "ttnn.deallocate"(%1) <{force = false}> : (tensor<512xf32, #ttnn_layout4>) -> () loc(#loc)
        %3 = "ttnn.to_layout"(%2) <{layout = #ttnn.layout<tile>}> : (tensor<1x32x16x1xf32, #ttnn_layout14>) -> tensor<1x32x16x1xf32, #ttnn_layout15> loc(#loc)
        "ttnn.deallocate"(%2) <{force = false}> : (tensor<1x32x16x1xf32, #ttnn_layout14>) -> () loc(#loc)
        %4 = "ttnn.to_device"(%3, %0) : (tensor<1x32x16x1xf32, #ttnn_layout15>, !ttnn.device) -> tensor<1x32x16x1xf32, #ttnn_layout13> loc(#loc)
        "ttnn.deallocate"(%3) <{force = false}> : (tensor<1x32x16x1xf32, #ttnn_layout15>) -> () loc(#loc)
        return %4 : tensor<1x32x16x1xf32, #ttnn_layout13> loc(#loc)
      } loc(#loc)
      func.func private @main_const_eval_67(%arg0: tensor<512x512x3x3xbf16, #ttnn_layout11> {ttir.conv2d_weight} loc(unknown)) -> tensor<1x1x4608x512xbf16, #ttnn_layout12> attributes {tt.function_type = "const_eval"} {
        %0 = "ttnn.get_device"() <{mesh_offset = #ttnn<mesh_offset 0x0>, mesh_shape = #ttnn<mesh_shape 1x1>}> : () -> !ttnn.device loc(#loc1)
        %1 = "ttnn.prepare_conv2d_weights"(%arg0, %0) <{batch_size = 1 : i32, conv2d_config = #ttnn.conv2d_config<weights_dtype = bf16, deallocate_activation = true, act_block_h_override = 64, enable_kernel_stride_folding = false, config_tensors_in_dram = true>, conv2d_slice_config = #ttnn.conv2d_slice_config<l1_full, 0>, dilation = array<i32: 1, 1>, groups = 1 : i32, has_bias = true, in_channels = 512 : i32, input_dtype = #ttcore.supportedDataTypes<bf16>, input_height = 160 : i32, input_memory_config = #ttnn.memory_config<#dram, <interleaved>>, input_tensor_layout = #ttnn.layout<tile>, input_width = 90 : i32, kernel_size = array<i32: 3, 3>, out_channels = 512 : i32, output_dtype = #ttcore.supportedDataTypes<bf16>, padding = array<i32: 1, 1, 1, 1>, stride = array<i32: 1, 1>, weights_format = "OIHW"}> : (tensor<512x512x3x3xbf16, #ttnn_layout11>, !ttnn.device) -> tensor<1x1x4608x512xbf16, #ttnn_layout12> loc(#loc563)
        return %1 : tensor<1x1x4608x512xbf16, #ttnn_layout12> loc(#loc)
      } loc(#loc)
      func.func private @main_const_eval_68(%arg0: tensor<512x512x3x3xbf16, #ttnn_layout11> {ttir.conv2d_weight} loc(unknown)) -> tensor<1x1x4608x512xbf16, #ttnn_layout12> attributes {tt.function_type = "const_eval"} {
        %0 = "ttnn.get_device"() <{mesh_offset = #ttnn<mesh_offset 0x0>, mesh_shape = #ttnn<mesh_shape 1x1>}> : () -> !ttnn.device loc(#loc1)
        %1 = "ttnn.prepare_conv2d_weights"(%arg0, %0) <{batch_size = 1 : i32, conv2d_config = #ttnn.conv2d_config<weights_dtype = bf16, act_block_h_override = 1024, enable_kernel_stride_folding = false, config_tensors_in_dram = true>, conv2d_slice_config = #ttnn.conv2d_slice_config<dram_width, 0>, dilation = array<i32: 1, 1>, groups = 1 : i32, has_bias = true, in_channels = 512 : i32, input_dtype = #ttcore.supportedDataTypes<bf16>, input_height = 320 : i32, input_memory_config = #ttnn.memory_config<#dram, <interleaved>>, input_tensor_layout = #ttnn.layout<tile>, input_width = 180 : i32, kernel_size = array<i32: 3, 3>, out_channels = 512 : i32, output_dtype = #ttcore.supportedDataTypes<bf16>, padding = array<i32: 1, 1, 1, 1>, stride = array<i32: 1, 1>, weights_format = "OIHW"}> : (tensor<512x512x3x3xbf16, #ttnn_layout11>, !ttnn.device) -> tensor<1x1x4608x512xbf16, #ttnn_layout12> loc(#loc564)
        return %1 : tensor<1x1x4608x512xbf16, #ttnn_layout12> loc(#loc)
      } loc(#loc)
      func.func private @main_const_eval_69(%arg0: tensor<256x256x3x3xbf16, #ttnn_layout16> {ttir.conv2d_weight} loc(unknown)) -> tensor<1x1x2304x256xbf16, #ttnn_layout17> attributes {tt.function_type = "const_eval"} {
        %0 = "ttnn.get_device"() <{mesh_offset = #ttnn<mesh_offset 0x0>, mesh_shape = #ttnn<mesh_shape 1x1>}> : () -> !ttnn.device loc(#loc1)
        %1 = "ttnn.prepare_conv2d_weights"(%arg0, %0) <{batch_size = 1 : i32, conv2d_config = #ttnn.conv2d_config<weights_dtype = bf16, act_block_h_override = 1024, enable_kernel_stride_folding = false, config_tensors_in_dram = true>, conv2d_slice_config = #ttnn.conv2d_slice_config<dram_width, 0>, dilation = array<i32: 1, 1>, groups = 1 : i32, has_bias = true, in_channels = 256 : i32, input_dtype = #ttcore.supportedDataTypes<bf16>, input_height = 640 : i32, input_memory_config = #ttnn.memory_config<#dram, <interleaved>>, input_tensor_layout = #ttnn.layout<tile>, input_width = 360 : i32, kernel_size = array<i32: 3, 3>, out_channels = 256 : i32, output_dtype = #ttcore.supportedDataTypes<bf16>, padding = array<i32: 1, 1, 1, 1>, stride = array<i32: 1, 1>, weights_format = "OIHW"}> : (tensor<256x256x3x3xbf16, #ttnn_layout16>, !ttnn.device) -> tensor<1x1x2304x256xbf16, #ttnn_layout17> loc(#loc565)
        return %1 : tensor<1x1x2304x256xbf16, #ttnn_layout17> loc(#loc)
      } loc(#loc)
      func.func private @main_const_eval_70(%arg0: tensor<512xbf16, #ttnn_layout2> loc(unknown)) -> tensor<1x1x1x512xbf16, #ttnn_layout3> attributes {tt.function_type = "const_eval"} {
        %0 = "ttnn.get_device"() <{mesh_offset = #ttnn<mesh_offset 0x0>, mesh_shape = #ttnn<mesh_shape 1x1>}> : () -> !ttnn.device loc(#loc1)
        %1 = "ttnn.typecast"(%arg0) <{dtype = #ttcore.supportedDataTypes<f32>}> : (tensor<512xbf16, #ttnn_layout2>) -> tensor<512xf32, #ttnn_layout4> loc(#loc)
        %2 = call @cpu_hoisted_const_eval_24665087(%1) {ttir.cpu_hoist_call} : (tensor<512xf32, #ttnn_layout4>) -> tensor<1x1x1x512xf32, #ttnn_layout5> loc(#loc)
        "ttnn.deallocate"(%1) <{force = false}> : (tensor<512xf32, #ttnn_layout4>) -> () loc(#loc)
        %3 = "ttnn.typecast"(%2) <{dtype = #ttcore.supportedDataTypes<bf16>}> : (tensor<1x1x1x512xf32, #ttnn_layout5>) -> tensor<1x1x1x512xbf16, #ttnn_layout6> loc(#loc566)
        "ttnn.deallocate"(%2) <{force = false}> : (tensor<1x1x1x512xf32, #ttnn_layout5>) -> () loc(#loc566)
        %4 = "ttnn.prepare_conv2d_bias"(%3, %0) <{batch_size = 1 : i32, conv2d_config = #ttnn.conv2d_config<weights_dtype = bf16, deallocate_activation = true, act_block_h_override = 64, enable_kernel_stride_folding = false, config_tensors_in_dram = true>, conv2d_slice_config = #ttnn.conv2d_slice_config<l1_full, 0>, dilation = array<i32: 1, 1>, groups = 1 : i32, in_channels = 512 : i32, input_dtype = #ttcore.supportedDataTypes<bf16>, input_height = 160 : i32, input_memory_config = #ttnn.memory_config<#dram, <interleaved>>, input_tensor_layout = #ttnn.layout<tile>, input_width = 90 : i32, kernel_size = array<i32: 3, 3>, out_channels = 512 : i32, output_dtype = #ttcore.supportedDataTypes<bf16>, padding = array<i32: 1, 1, 1, 1>, stride = array<i32: 1, 1>}> : (tensor<1x1x1x512xbf16, #ttnn_layout6>, !ttnn.device) -> tensor<1x1x1x512xbf16, #ttnn_layout3> loc(#loc567)
        "ttnn.deallocate"(%3) <{force = false}> : (tensor<1x1x1x512xbf16, #ttnn_layout6>) -> () loc(#loc567)
        return %4 : tensor<1x1x1x512xbf16, #ttnn_layout3> loc(#loc)
      } loc(#loc)
      func.func private @main_const_eval_71(%arg0: tensor<512xbf16, #ttnn_layout2> loc(unknown)) -> tensor<1x1x1x512xbf16, #ttnn_layout3> attributes {tt.function_type = "const_eval"} {
        %0 = "ttnn.get_device"() <{mesh_offset = #ttnn<mesh_offset 0x0>, mesh_shape = #ttnn<mesh_shape 1x1>}> : () -> !ttnn.device loc(#loc1)
        %1 = "ttnn.typecast"(%arg0) <{dtype = #ttcore.supportedDataTypes<f32>}> : (tensor<512xbf16, #ttnn_layout2>) -> tensor<512xf32, #ttnn_layout4> loc(#loc)
        %2 = call @cpu_hoisted_const_eval_24665087(%1) {ttir.cpu_hoist_call} : (tensor<512xf32, #ttnn_layout4>) -> tensor<1x1x1x512xf32, #ttnn_layout5> loc(#loc)
        "ttnn.deallocate"(%1) <{force = false}> : (tensor<512xf32, #ttnn_layout4>) -> () loc(#loc)
        %3 = "ttnn.typecast"(%2) <{dtype = #ttcore.supportedDataTypes<bf16>}> : (tensor<1x1x1x512xf32, #ttnn_layout5>) -> tensor<1x1x1x512xbf16, #ttnn_layout6> loc(#loc568)
        "ttnn.deallocate"(%2) <{force = false}> : (tensor<1x1x1x512xf32, #ttnn_layout5>) -> () loc(#loc568)
        %4 = "ttnn.prepare_conv2d_bias"(%3, %0) <{batch_size = 1 : i32, conv2d_config = #ttnn.conv2d_config<weights_dtype = bf16, act_block_h_override = 1024, enable_kernel_stride_folding = false, config_tensors_in_dram = true>, conv2d_slice_config = #ttnn.conv2d_slice_config<dram_width, 0>, dilation = array<i32: 1, 1>, groups = 1 : i32, in_channels = 512 : i32, input_dtype = #ttcore.supportedDataTypes<bf16>, input_height = 320 : i32, input_memory_config = #ttnn.memory_config<#dram, <interleaved>>, input_tensor_layout = #ttnn.layout<tile>, input_width = 180 : i32, kernel_size = array<i32: 3, 3>, out_channels = 512 : i32, output_dtype = #ttcore.supportedDataTypes<bf16>, padding = array<i32: 1, 1, 1, 1>, stride = array<i32: 1, 1>}> : (tensor<1x1x1x512xbf16, #ttnn_layout6>, !ttnn.device) -> tensor<1x1x1x512xbf16, #ttnn_layout3> loc(#loc569)
        "ttnn.deallocate"(%3) <{force = false}> : (tensor<1x1x1x512xbf16, #ttnn_layout6>) -> () loc(#loc569)
        return %4 : tensor<1x1x1x512xbf16, #ttnn_layout3> loc(#loc)
      } loc(#loc)
      func.func private @main_const_eval_72(%arg0: tensor<256xbf16, #ttnn_layout18> loc(unknown)) -> tensor<1x32x8x1xf32, #ttnn_layout13> attributes {tt.function_type = "const_eval"} {
        %0 = "ttnn.get_device"() <{mesh_offset = #ttnn<mesh_offset 0x0>, mesh_shape = #ttnn<mesh_shape 1x1>}> : () -> !ttnn.device loc(#loc)
        %1 = "ttnn.typecast"(%arg0) <{dtype = #ttcore.supportedDataTypes<f32>}> : (tensor<256xbf16, #ttnn_layout18>) -> tensor<256xf32, #ttnn_layout20> loc(#loc)
        %2 = call @cpu_hoisted_const_eval_de413a9b(%1) {ttir.cpu_hoist_call} : (tensor<256xf32, #ttnn_layout20>) -> tensor<1x32x8x1xf32, #ttnn_layout33> loc(#loc)
        "ttnn.deallocate"(%1) <{force = false}> : (tensor<256xf32, #ttnn_layout20>) -> () loc(#loc)
        %3 = "ttnn.to_layout"(%2) <{layout = #ttnn.layout<tile>}> : (tensor<1x32x8x1xf32, #ttnn_layout33>) -> tensor<1x32x8x1xf32, #ttnn_layout15> loc(#loc)
        "ttnn.deallocate"(%2) <{force = false}> : (tensor<1x32x8x1xf32, #ttnn_layout33>) -> () loc(#loc)
        %4 = "ttnn.to_device"(%3, %0) : (tensor<1x32x8x1xf32, #ttnn_layout15>, !ttnn.device) -> tensor<1x32x8x1xf32, #ttnn_layout13> loc(#loc)
        "ttnn.deallocate"(%3) <{force = false}> : (tensor<1x32x8x1xf32, #ttnn_layout15>) -> () loc(#loc)
        return %4 : tensor<1x32x8x1xf32, #ttnn_layout13> loc(#loc)
      } loc(#loc)
      func.func private @main_const_eval_73(%arg0: tensor<512xbf16, #ttnn_layout2> loc(unknown)) -> tensor<1x32x16x1xf32, #ttnn_layout13> attributes {tt.function_type = "const_eval"} {
        %0 = "ttnn.get_device"() <{mesh_offset = #ttnn<mesh_offset 0x0>, mesh_shape = #ttnn<mesh_shape 1x1>}> : () -> !ttnn.device loc(#loc)
        %1 = "ttnn.typecast"(%arg0) <{dtype = #ttcore.supportedDataTypes<f32>}> : (tensor<512xbf16, #ttnn_layout2>) -> tensor<512xf32, #ttnn_layout4> loc(#loc)
        %2 = call @cpu_hoisted_const_eval_ce3dc089(%1) {ttir.cpu_hoist_call} : (tensor<512xf32, #ttnn_layout4>) -> tensor<1x32x16x1xf32, #ttnn_layout14> loc(#loc)
        "ttnn.deallocate"(%1) <{force = false}> : (tensor<512xf32, #ttnn_layout4>) -> () loc(#loc)
        %3 = "ttnn.to_layout"(%2) <{layout = #ttnn.layout<tile>}> : (tensor<1x32x16x1xf32, #ttnn_layout14>) -> tensor<1x32x16x1xf32, #ttnn_layout15> loc(#loc)
        "ttnn.deallocate"(%2) <{force = false}> : (tensor<1x32x16x1xf32, #ttnn_layout14>) -> () loc(#loc)
        %4 = "ttnn.to_device"(%3, %0) : (tensor<1x32x16x1xf32, #ttnn_layout15>, !ttnn.device) -> tensor<1x32x16x1xf32, #ttnn_layout13> loc(#loc)
        "ttnn.deallocate"(%3) <{force = false}> : (tensor<1x32x16x1xf32, #ttnn_layout15>) -> () loc(#loc)
        return %4 : tensor<1x32x16x1xf32, #ttnn_layout13> loc(#loc)
      } loc(#loc)
      func.func private @main_const_eval_74(%arg0: tensor<512xbf16, #ttnn_layout2> loc(unknown)) -> tensor<1x32x16x1xf32, #ttnn_layout13> attributes {tt.function_type = "const_eval"} {
        %0 = "ttnn.get_device"() <{mesh_offset = #ttnn<mesh_offset 0x0>, mesh_shape = #ttnn<mesh_shape 1x1>}> : () -> !ttnn.device loc(#loc)
        %1 = "ttnn.typecast"(%arg0) <{dtype = #ttcore.supportedDataTypes<f32>}> : (tensor<512xbf16, #ttnn_layout2>) -> tensor<512xf32, #ttnn_layout4> loc(#loc)
        %2 = call @cpu_hoisted_const_eval_ce3dc089(%1) {ttir.cpu_hoist_call} : (tensor<512xf32, #ttnn_layout4>) -> tensor<1x32x16x1xf32, #ttnn_layout14> loc(#loc)
        "ttnn.deallocate"(%1) <{force = false}> : (tensor<512xf32, #ttnn_layout4>) -> () loc(#loc)
        %3 = "ttnn.to_layout"(%2) <{layout = #ttnn.layout<tile>}> : (tensor<1x32x16x1xf32, #ttnn_layout14>) -> tensor<1x32x16x1xf32, #ttnn_layout15> loc(#loc)
        "ttnn.deallocate"(%2) <{force = false}> : (tensor<1x32x16x1xf32, #ttnn_layout14>) -> () loc(#loc)
        %4 = "ttnn.to_device"(%3, %0) : (tensor<1x32x16x1xf32, #ttnn_layout15>, !ttnn.device) -> tensor<1x32x16x1xf32, #ttnn_layout13> loc(#loc)
        "ttnn.deallocate"(%3) <{force = false}> : (tensor<1x32x16x1xf32, #ttnn_layout15>) -> () loc(#loc)
        return %4 : tensor<1x32x16x1xf32, #ttnn_layout13> loc(#loc)
      } loc(#loc)
      func.func private @main_const_eval_75(%arg0: tensor<512xbf16, #ttnn_layout2> loc(unknown)) -> tensor<1x32x16x1xf32, #ttnn_layout13> attributes {tt.function_type = "const_eval"} {
        %0 = "ttnn.get_device"() <{mesh_offset = #ttnn<mesh_offset 0x0>, mesh_shape = #ttnn<mesh_shape 1x1>}> : () -> !ttnn.device loc(#loc)
        %1 = "ttnn.typecast"(%arg0) <{dtype = #ttcore.supportedDataTypes<f32>}> : (tensor<512xbf16, #ttnn_layout2>) -> tensor<512xf32, #ttnn_layout4> loc(#loc)
        %2 = call @cpu_hoisted_const_eval_ce3dc089(%1) {ttir.cpu_hoist_call} : (tensor<512xf32, #ttnn_layout4>) -> tensor<1x32x16x1xf32, #ttnn_layout14> loc(#loc)
        "ttnn.deallocate"(%1) <{force = false}> : (tensor<512xf32, #ttnn_layout4>) -> () loc(#loc)
        %3 = "ttnn.to_layout"(%2) <{layout = #ttnn.layout<tile>}> : (tensor<1x32x16x1xf32, #ttnn_layout14>) -> tensor<1x32x16x1xf32, #ttnn_layout15> loc(#loc)
        "ttnn.deallocate"(%2) <{force = false}> : (tensor<1x32x16x1xf32, #ttnn_layout14>) -> () loc(#loc)
        %4 = "ttnn.to_device"(%3, %0) : (tensor<1x32x16x1xf32, #ttnn_layout15>, !ttnn.device) -> tensor<1x32x16x1xf32, #ttnn_layout13> loc(#loc)
        "ttnn.deallocate"(%3) <{force = false}> : (tensor<1x32x16x1xf32, #ttnn_layout15>) -> () loc(#loc)
        return %4 : tensor<1x32x16x1xf32, #ttnn_layout13> loc(#loc)
      } loc(#loc)
      func.func private @main_const_eval_76(%arg0: tensor<256xbf16, #ttnn_layout18> loc(unknown)) -> tensor<1x32x8x1xf32, #ttnn_layout13> attributes {tt.function_type = "const_eval"} {
        %0 = "ttnn.get_device"() <{mesh_offset = #ttnn<mesh_offset 0x0>, mesh_shape = #ttnn<mesh_shape 1x1>}> : () -> !ttnn.device loc(#loc)
        %1 = "ttnn.typecast"(%arg0) <{dtype = #ttcore.supportedDataTypes<f32>}> : (tensor<256xbf16, #ttnn_layout18>) -> tensor<256xf32, #ttnn_layout20> loc(#loc)
        %2 = call @cpu_hoisted_const_eval_de413a9b(%1) {ttir.cpu_hoist_call} : (tensor<256xf32, #ttnn_layout20>) -> tensor<1x32x8x1xf32, #ttnn_layout33> loc(#loc)
        "ttnn.deallocate"(%1) <{force = false}> : (tensor<256xf32, #ttnn_layout20>) -> () loc(#loc)
        %3 = "ttnn.to_layout"(%2) <{layout = #ttnn.layout<tile>}> : (tensor<1x32x8x1xf32, #ttnn_layout33>) -> tensor<1x32x8x1xf32, #ttnn_layout15> loc(#loc)
        "ttnn.deallocate"(%2) <{force = false}> : (tensor<1x32x8x1xf32, #ttnn_layout33>) -> () loc(#loc)
        %4 = "ttnn.to_device"(%3, %0) : (tensor<1x32x8x1xf32, #ttnn_layout15>, !ttnn.device) -> tensor<1x32x8x1xf32, #ttnn_layout13> loc(#loc)
        "ttnn.deallocate"(%3) <{force = false}> : (tensor<1x32x8x1xf32, #ttnn_layout15>) -> () loc(#loc)
        return %4 : tensor<1x32x8x1xf32, #ttnn_layout13> loc(#loc)
      } loc(#loc)
      func.func private @main_const_eval_77() -> tensor<90x180xbf16, #ttnn_layout45> attributes {tt.function_type = "const_eval"} {
        %0 = "ttnn.get_device"() <{mesh_offset = #ttnn<mesh_offset 0x0>, mesh_shape = #ttnn<mesh_shape 1x1>}> : () -> !ttnn.device loc(#loc)
        %1 = call @cpu_hoisted_const_eval_dd2e9c9f() {ttir.cpu_hoist_call} : () -> tensor<90x180xf32, #ttnn_layout46> loc(#loc)
        %2 = "ttnn.typecast"(%1) <{dtype = #ttcore.supportedDataTypes<bf16>}> : (tensor<90x180xf32, #ttnn_layout46>) -> tensor<90x180xbf16, #ttnn_layout47> loc(#loc)
…
        "ttnn.deallocate"(%611) <{force = false}> : (tensor<1x256x360x640xbf16, #ttnn_layout123>) -> () loc(#loc454)
        %613 = "ttnn.matmul"(%612, %86) <{transpose_a = false, transpose_b = false}> : (tensor<92160x640xbf16, #ttnn_layout104>, tensor<640x1280xbf16, #ttnn_layout49>) -> tensor<92160x1280xbf16, #ttnn_layout124> loc(#loc455)
        "ttnn.deallocate"(%612) <{force = false}> : (tensor<92160x640xbf16, #ttnn_layout104>) -> () loc(#loc455)
        "ttnn.deallocate"(%86) <{force = false}> : (tensor<640x1280xbf16, #ttnn_layout49>) -> () loc(#loc455)
        %614 = "ttnn.reshape"(%613) <{shape = [1 : i32, 256 : i32, 360 : i32, 1280 : i32]}> : (tensor<92160x1280xbf16, #ttnn_layout124>) -> tensor<1x256x360x1280xbf16, #ttnn_layout125> loc(#loc654)
        "ttnn.deallocate"(%613) <{force = false}> : (tensor<92160x1280xbf16, #ttnn_layout124>) -> () loc(#loc654)
        %615 = "ttnn.permute"(%614) <{permutation = array<i64: 0, 1, 3, 2>}> : (tensor<1x256x360x1280xbf16, #ttnn_layout125>) -> tensor<1x256x1280x360xbf16, #ttnn_layout126> loc(#loc456)
        "ttnn.deallocate"(%614) <{force = false}> : (tensor<1x256x360x1280xbf16, #ttnn_layout125>) -> () loc(#loc456)
        %616 = "ttnn.reshape"(%615) <{shape = [327680 : i32, 360 : i32]}> : (tensor<1x256x1280x360xbf16, #ttnn_layout126>) -> tensor<327680x360xbf16, #ttnn_layout108> loc(#loc655)
        "ttnn.deallocate"(%615) <{force = false}> : (tensor<1x256x1280x360xbf16, #ttnn_layout126>) -> () loc(#loc655)
        %617 = "ttnn.matmul"(%616, %45) <{transpose_a = false, transpose_b = false}> : (tensor<327680x360xbf16, #ttnn_layout108>, tensor<360x720xbf16, #ttnn_layout38>) -> tensor<327680x720xbf16, #ttnn_layout127> loc(#loc457)
        "ttnn.deallocate"(%616) <{force = false}> : (tensor<327680x360xbf16, #ttnn_layout108>) -> () loc(#loc457)
        "ttnn.deallocate"(%45) <{force = false}> : (tensor<360x720xbf16, #ttnn_layout38>) -> () loc(#loc457)
        %618 = "ttnn.reshape"(%617) <{shape = [1 : i32, 256 : i32, 1280 : i32, 720 : i32]}> : (tensor<327680x720xbf16, #ttnn_layout127>) -> tensor<1x256x1280x720xbf16, #ttnn_layout128> loc(#loc656)
        "ttnn.deallocate"(%617) <{force = false}> : (tensor<327680x720xbf16, #ttnn_layout127>) -> () loc(#loc656)
        %619 = "ttnn.permute"(%618) <{permutation = array<i64: 0, 2, 3, 1>}> : (tensor<1x256x1280x720xbf16, #ttnn_layout128>) -> tensor<1x1280x720x256xbf16, #ttnn_layout129> loc(#loc11)
        "ttnn.deallocate"(%618) <{force = false}> : (tensor<1x256x1280x720xbf16, #ttnn_layout128>) -> () loc(#loc11)
        %620 = "ttnn.reshape"(%619) <{shape = [1 : i32, 1 : i32, 921600 : i32, 256 : i32]}> : (tensor<1x1280x720x256xbf16, #ttnn_layout129>) -> tensor<1x1x921600x256xbf16, #ttnn_layout130> loc(#loc657)
        "ttnn.deallocate"(%619) <{force = false}> : (tensor<1x1280x720x256xbf16, #ttnn_layout129>) -> () loc(#loc657)
        %621 = "ttnn.conv2d"(%620, %13, %21, %114) <{batch_size = 1 : i32, conv2d_config = #ttnn.conv2d_config<weights_dtype = bf16, act_block_h_override = 1024, enable_kernel_stride_folding = false, config_tensors_in_dram = true>, conv2d_slice_config = #ttnn.conv2d_slice_config<dram_width, 0>, dilation = array<i32: 1, 1>, dtype = #ttcore.supportedDataTypes<bf16>, groups = 1 : i32, in_channels = 256 : i32, input_height = 1280 : i32, input_width = 720 : i32, kernel_size = array<i32: 3, 3>, out_channels = 256 : i32, padding = array<i32: 1, 1, 1, 1>, stride = array<i32: 1, 1>}> : (tensor<1x1x921600x256xbf16, #ttnn_layout130>, tensor<1x1x2304x256xbf16, #ttnn_layout17>, tensor<1x1x1x256xbf16, #ttnn_layout19>, !ttnn.device) -> tensor<1x1x921600x256xbf16, #ttnn_layout130> loc(#loc11)
        "ttnn.deallocate"(%620) <{force = false}> : (tensor<1x1x921600x256xbf16, #ttnn_layout130>) -> () loc(#loc11)
        "ttnn.deallocate"(%21) <{force = false}> : (tensor<1x1x1x256xbf16, #ttnn_layout19>) -> () loc(#loc11)
        "ttnn.deallocate"(%13) <{force = false}> : (tensor<1x1x2304x256xbf16, #ttnn_layout17>) -> () loc(#loc11)
        %622 = "ttnn.typecast"(%621) <{dtype = #ttcore.supportedDataTypes<f32>}> : (tensor<1x1x921600x256xbf16, #ttnn_layout130>) -> tensor<1x1x921600x256xf32, #ttnn_layout131> loc(#loc458)
        "ttnn.deallocate"(%621) <{force = false}> : (tensor<1x1x921600x256xbf16, #ttnn_layout130>) -> () loc(#loc458)
        %623 = "ttnn.reshape"(%622) <{shape = [1 : i32, 1280 : i32, 720 : i32, 256 : i32]}> : (tensor<1x1x921600x256xf32, #ttnn_layout131>) -> tensor<1x1280x720x256xf32, #ttnn_layout132> loc(#loc458)
        "ttnn.deallocate"(%622) <{force = false}> : (tensor<1x1x921600x256xf32, #ttnn_layout131>) -> () loc(#loc458)
        %624 = "ttnn.permute"(%623) <{permutation = array<i64: 0, 3, 1, 2>}> : (tensor<1x1280x720x256xf32, #ttnn_layout132>) -> tensor<1x256x1280x720xf32, #ttnn_layout133> loc(#loc458)
        "ttnn.deallocate"(%623) <{force = false}> : (tensor<1x1280x720x256xf32, #ttnn_layout132>) -> () loc(#loc458)
        %625 = "ttnn.reshape"(%624) <{shape = [1 : i32, 32 : i32, 8 : i32, 921600 : i32]}> : (tensor<1x256x1280x720xf32, #ttnn_layout133>) -> tensor<1x32x8x921600xf32, #ttnn_layout134> loc(#loc458)
        "ttnn.deallocate"(%624) <{force = false}> : (tensor<1x256x1280x720xf32, #ttnn_layout133>) -> () loc(#loc458)
        %626 = "ttnn.mean"(%625) <{dim_arg = [2 : i32, 3 : i32], keep_dim = true}> : (tensor<1x32x8x921600xf32, #ttnn_layout134>) -> tensor<1x32x1x1xf32, #ttnn_layout13> loc(#loc658)
        %627 = "ttnn.subtract"(%625, %626) <{dtype = #ttcore.supportedDataTypes<f32>}> : (tensor<1x32x8x921600xf32, #ttnn_layout134>, tensor<1x32x1x1xf32, #ttnn_layout13>) -> tensor<1x32x8x921600xf32, #ttnn_layout134> loc(#loc460)
        "ttnn.deallocate"(%626) <{force = false}> : (tensor<1x32x1x1xf32, #ttnn_layout13>) -> () loc(#loc460)
        "ttnn.deallocate"(%625) <{force = false}> : (tensor<1x32x8x921600xf32, #ttnn_layout134>) -> () loc(#loc460)
        %628 = "ttnn.multiply"(%627, %627) <{dtype = #ttcore.supportedDataTypes<f32>}> : (tensor<1x32x8x921600xf32, #ttnn_layout134>, tensor<1x32x8x921600xf32, #ttnn_layout134>) -> tensor<1x32x8x921600xf32, #ttnn_layout134> loc(#loc461)
        %629 = "ttnn.mean"(%628) <{dim_arg = [2 : i32, 3 : i32], keep_dim = true}> : (tensor<1x32x8x921600xf32, #ttnn_layout134>) -> tensor<1x32x1x1xf32, #ttnn_layout13> loc(#loc659)
        "ttnn.deallocate"(%628) <{force = false}> : (tensor<1x32x8x921600xf32, #ttnn_layout134>) -> () loc(#loc659)
        %630 = "ttnn.add"(%629, %88) <{dtype = #ttcore.supportedDataTypes<f32>}> : (tensor<1x32x1x1xf32, #ttnn_layout13>, tensor<1x1x1x1xf32, #ttnn_layout53>) -> tensor<1x32x1x1xf32, #ttnn_layout13> loc(#loc463)
        "ttnn.deallocate"(%629) <{force = false}> : (tensor<1x32x1x1xf32, #ttnn_layout13>) -> () loc(#loc463)
        "ttnn.deallocate"(%88) <{force = false}> : (tensor<1x1x1x1xf32, #ttnn_layout53>) -> () loc(#loc463)
        %631 = "ttnn.rsqrt"(%630) : (tensor<1x32x1x1xf32, #ttnn_layout13>) -> tensor<1x32x1x1xf32, #ttnn_layout13> loc(#loc464)
        "ttnn.deallocate"(%630) <{force = false}> : (tensor<1x32x1x1xf32, #ttnn_layout13>) -> () loc(#loc464)
        %632 = "ttnn.multiply"(%627, %631) <{dtype = #ttcore.supportedDataTypes<f32>}> : (tensor<1x32x8x921600xf32, #ttnn_layout134>, tensor<1x32x1x1xf32, #ttnn_layout13>) -> tensor<1x32x8x921600xf32, #ttnn_layout134> loc(#loc465)
        "ttnn.deallocate"(%631) <{force = false}> : (tensor<1x32x1x1xf32, #ttnn_layout13>) -> () loc(#loc465)
        "ttnn.deallocate"(%627) <{force = false}> : (tensor<1x32x8x921600xf32, #ttnn_layout134>) -> () loc(#loc465)
        %633 = "ttnn.multiply"(%632, %83) <{dtype = #ttcore.supportedDataTypes<f32>}> : (tensor<1x32x8x921600xf32, #ttnn_layout134>, tensor<1x32x8x1xf32, #ttnn_layout13>) -> tensor<1x32x8x921600xf32, #ttnn_layout134> loc(#loc466)
        "ttnn.deallocate"(%632) <{force = false}> : (tensor<1x32x8x921600xf32, #ttnn_layout134>) -> () loc(#loc466)
        "ttnn.deallocate"(%83) <{force = false}> : (tensor<1x32x8x1xf32, #ttnn_layout13>) -> () loc(#loc466)
        %634 = "ttnn.add"(%633, %76) <{dtype = #ttcore.supportedDataTypes<f32>}> : (tensor<1x32x8x921600xf32, #ttnn_layout134>, tensor<1x32x8x1xf32, #ttnn_layout13>) -> tensor<1x32x8x921600xf32, #ttnn_layout134> loc(#loc467)
        "ttnn.deallocate"(%633) <{force = false}> : (tensor<1x32x8x921600xf32, #ttnn_layout134>) -> () loc(#loc467)
        "ttnn.deallocate"(%76) <{force = false}> : (tensor<1x32x8x1xf32, #ttnn_layout13>) -> () loc(#loc467)
        %635 = "ttnn.silu"(%634) : (tensor<1x32x8x921600xf32, #ttnn_layout134>) -> tensor<1x32x8x921600xf32, #ttnn_layout134> loc(#loc468)
        "ttnn.deallocate"(%634) <{force = false}> : (tensor<1x32x8x921600xf32, #ttnn_layout134>) -> () loc(#loc468)
        %636 = "ttnn.typecast"(%635) <{dtype = #ttcore.supportedDataTypes<bf16>}> : (tensor<1x32x8x921600xf32, #ttnn_layout134>) -> tensor<1x32x8x921600xbf16, #ttnn_layout135> loc(#loc469)
        "ttnn.deallocate"(%635) <{force = false}> : (tensor<1x32x8x921600xf32, #ttnn_layout134>) -> () loc(#loc469)
        %637 = "ttnn.reshape"(%636) <{shape = [1 : i32, 256 : i32, 1280 : i32, 720 : i32]}> : (tensor<1x32x8x921600xbf16, #ttnn_layout135>) -> tensor<1x256x1280x720xbf16, #ttnn_layout128> loc(#loc469)
        "ttnn.deallocate"(%636) <{force = false}> : (tensor<1x32x8x921600xbf16, #ttnn_layout135>) -> () loc(#loc469)
        %638 = "ttnn.permute"(%637) <{permutation = array<i64: 0, 2, 3, 1>}> : (tensor<1x256x1280x720xbf16, #ttnn_layout128>) -> tensor<1x1280x720x256xbf16, #ttnn_layout129> loc(#loc469)
        "ttnn.deallocate"(%637) <{force = false}> : (tensor<1x256x1280x720xbf16, #ttnn_layout128>) -> () loc(#loc469)
        %639 = "ttnn.reshape"(%638) <{shape = [1 : i32, 1 : i32, 921600 : i32, 256 : i32]}> : (tensor<1x1280x720x256xbf16, #ttnn_layout129>) -> tensor<1x1x921600x256xbf16, #ttnn_layout130> loc(#loc469)
        "ttnn.deallocate"(%638) <{force = false}> : (tensor<1x1280x720x256xbf16, #ttnn_layout129>) -> () loc(#loc469)
        %640 = "ttnn.conv2d"(%639, %60, %112, %114) <{batch_size = 1 : i32, conv2d_config = #ttnn.conv2d_config<weights_dtype = bf16, act_block_h_override = 1024, enable_kernel_stride_folding = false, config_tensors_in_dram = true>, conv2d_slice_config = #ttnn.conv2d_slice_config<dram_width, 0>, dilation = array<i32: 1, 1>, dtype = #ttcore.supportedDataTypes<bf16>, groups = 1 : i32, in_channels = 256 : i32, input_height = 1280 : i32, input_width = 720 : i32, kernel_size = array<i32: 3, 3>, out_channels = 128 : i32, padding = array<i32: 1, 1, 1, 1>, stride = array<i32: 1, 1>}> : (tensor<1x1x921600x256xbf16, #ttnn_layout130>, tensor<1x1x2304x128xbf16, #ttnn_layout43>, tensor<1x1x1x128xbf16, #ttnn_layout63>, !ttnn.device) -> tensor<1x1x921600x128xbf16, #ttnn_layout136> loc(#loc24)
        "ttnn.deallocate"(%639) <{force = false}> : (tensor<1x1x921600x256xbf16, #ttnn_layout130>) -> () loc(#loc24)
        "ttnn.deallocate"(%112) <{force = false}> : (tensor<1x1x1x128xbf16, #ttnn_layout63>) -> () loc(#loc24)
        "ttnn.deallocate"(%60) <{force = false}> : (tensor<1x1x2304x128xbf16, #ttnn_layout43>) -> () loc(#loc24)
        %641 = "ttnn.reshape"(%640) <{shape = [1 : i32, 1280 : i32, 720 : i32, 128 : i32]}> : (tensor<1x1x921600x128xbf16, #ttnn_layout136>) -> tensor<1x1280x720x128xbf16, #ttnn_layout137> loc(#loc660)
        "ttnn.deallocate"(%640) <{force = false}> : (tensor<1x1x921600x128xbf16, #ttnn_layout136>) -> () loc(#loc660)
        %642 = "ttnn.permute"(%641) <{permutation = array<i64: 0, 3, 1, 2>}> : (tensor<1x1280x720x128xbf16, #ttnn_layout137>) -> tensor<1x128x1280x720xbf16, #ttnn_layout70> loc(#loc24)
        "ttnn.deallocate"(%641) <{force = false}> : (tensor<1x1280x720x128xbf16, #ttnn_layout137>) -> () loc(#loc24)
        return %642 : tensor<1x128x1280x720xbf16, #ttnn_layout70> loc(#loc)
      } loc(#loc)
      func.func private @cpu_hoisted_const_eval_ce3dc089(tensor<512xf32, #ttnn_layout4>) -> tensor<1x32x16x1xf32, #ttnn_layout14> attributes {func_hash = "ce3dc089887048d3a2e3f8f84d413c7f90e5e51bb1a213525644bc8541a93270", tt.function_type = "forward_cpu_declaration"} loc(#loc)
      func.func private @cpu_hoisted_const_eval_8b649ce3(tensor<256xf32, #ttnn_layout20>) -> tensor<1x1x1x256xf32, #ttnn_layout21> attributes {func_hash = "8b649ce335c784770162eb191b98946c879b9a6028ee40a3859a670369b40197", tt.function_type = "forward_cpu_declaration"} loc(#loc)
      func.func private @cpu_hoisted_const_eval_de413a9b(tensor<256xf32, #ttnn_layout20>) -> tensor<1x32x8x1xf32, #ttnn_layout33> attributes {func_hash = "de413a9b709f61163bf4fa2ce84f41058acde2d162c7f9f951c10f93e3eaf2b7", tt.function_type = "forward_cpu_declaration"} loc(#loc)
      func.func private @cpu_hoisted_const_eval_24665087(tensor<512xf32, #ttnn_layout4>) -> tensor<1x1x1x512xf32, #ttnn_layout5> attributes {func_hash = "24665087df6db87cb7b7b33cccc0e842fb96abbb3922c1f62ce448a6ce948ddd", tt.function_type = "forward_cpu_declaration"} loc(#loc)
      func.func private @cpu_hoisted_const_eval_8cbff674() -> tensor<320x640xf32, #ttnn_layout28> attributes {func_hash = "8cbff6748a8ad153ef631d7c12ee704a919d646844e5792fcf485c06c7d5644a", tt.function_type = "forward_cpu_declaration"} loc(#loc)
      func.func private @cpu_hoisted_const_eval_ea3392f6(tensor<512xf32, #ttnn_layout4>) -> tensor<1x32x16x1xf32, #ttnn_layout14> attributes {func_hash = "ea3392f677e526739bc41d974a63fc932b54aa0143d01d3511fcefd113f55236", tt.function_type = "forward_cpu_declaration"} loc(#loc)
      func.func private @cpu_hoisted_const_eval_4c628f88() -> tensor<180x360xf32, #ttnn_layout8> attributes {func_hash = "4c628f88e1d4dddda45475cf6d1d50619e0d9bf33444bf4d44329422fb858a19", tt.function_type = "forward_cpu_declaration"} loc(#loc)
      func.func private @cpu_hoisted_const_eval_11ccd806(tensor<512x512xf32, #ttnn_layout58>, tensor<512x512xf32, #ttnn_layout58>, tensor<512x512xf32, #ttnn_layout58>) -> tensor<512x1536xf32, #ttnn_layout59> attributes {func_hash = "11ccd80672aa5de0f861950e65aeec6b5293fc461501057b3feb5aef18cf21f0", tt.function_type = "forward_cpu_declaration"} loc(#loc)
      func.func private @cpu_hoisted_const_eval_38a1353c(tensor<128xf32, #ttnn_layout64>) -> tensor<1x1x1x128xf32, #ttnn_layout65> attributes {func_hash = "38a1353c14de251ca315f06b0944e314df864331eb0cf09c24e91bbe51adc39b", tt.function_type = "forward_cpu_declaration"} loc(#loc)
      func.func private @cpu_hoisted_const_eval_01d4160e() -> tensor<640x1280xf32, #ttnn_layout50> attributes {func_hash = "01d4160e41d162c3963d80c7263d0c99ce6d58dc9fd3346b929a79d019533deb", tt.function_type = "forward_cpu_declaration"} loc(#loc)
      func.func private @cpu_hoisted_const_eval_0df71a7d() -> tensor<160x320xf32, #ttnn_layout35> attributes {func_hash = "0df71a7dfc06d5ab23b8e5edb64b38b8754e4ebd3e6a384218c19cf80cf06a8a", tt.function_type = "forward_cpu_declaration"} loc(#loc)
      func.func private @cpu_hoisted_const_eval_3b6c0433(tensor<512xf32, #ttnn_layout4>, tensor<512xf32, #ttnn_layout4>, tensor<512xf32, #ttnn_layout4>) -> tensor<1536xf32, #ttnn_layout24> attributes {func_hash = "3b6c04334fdfd42ab36b4d289d3e22b6a6380fcd18b0a9fba9009111f5095680", tt.function_type = "forward_cpu_declaration"} loc(#loc)
      func.func private @cpu_hoisted_const_eval_dd2e9c9f() -> tensor<90x180xf32, #ttnn_layout46> attributes {func_hash = "dd2e9c9f86d4068edc1bbe782f73e535e93973bb19db7824552ce17397c3fa8c", tt.function_type = "forward_cpu_declaration"} loc(#loc)
      func.func private @cpu_hoisted_const_eval_4d6151ea() -> tensor<360x720xf32, #ttnn_layout39> attributes {func_hash = "4d6151eaa80a174f4155361a63923becc2005bf50b2ecead232a5bfc1e6979b4", tt.function_type = "forward_cpu_declaration"} loc(#loc)
    } loc(#loc)
  } loc(#loc)
  ttcore.cpu_module {
    builtin.module {
      func.func @cpu_hoisted_const_eval_ce3dc089(%arg0: tensor<512xf32> {bufferization.access = "read"} loc(unknown)) -> tensor<1x32x16x1xf32> attributes {arg_ranks = [1], func_hash = "ce3dc089887048d3a2e3f8f84d413c7f90e5e51bb1a213525644bc8541a93270", result_ranks = [4], tt.function_type = "forward_cpu"} {
        %0 = "ttir.reshape"(%arg0) <{shape = [1 : i32, 512 : i32, 1 : i32, 1 : i32]}> : (tensor<512xf32>) -> tensor<1x512x1x1xf32> loc(#loc661)
        %1 = "ttir.permute"(%0) <{permutation = array<i64: 0, 2, 3, 1>}> : (tensor<1x512x1x1xf32>) -> tensor<1x1x1x512xf32> loc(#loc696)
        %2 = "ttir.typecast"(%1) <{conservative_folding = false}> : (tensor<1x1x1x512xf32>) -> tensor<1x1x1x512xf32> loc(#loc472)
        %3 = "ttir.permute"(%2) <{permutation = array<i64: 0, 3, 1, 2>}> : (tensor<1x1x1x512xf32>) -> tensor<1x512x1x1xf32> loc(#loc208)
        %4 = "ttir.reshape"(%3) <{shape = [1 : i32, 32 : i32, 16 : i32, 1 : i32]}> : (tensor<1x512x1x1xf32>) -> tensor<1x32x16x1xf32> loc(#loc208)
        return %4 : tensor<1x32x16x1xf32> loc(#loc)
      } loc(#loc)
      func.func @cpu_hoisted_const_eval_8b649ce3(%arg0: tensor<256xf32> {bufferization.access = "read"} loc(unknown)) -> tensor<1x1x1x256xf32> attributes {arg_ranks = [1], func_hash = "8b649ce335c784770162eb191b98946c879b9a6028ee40a3859a670369b40197", result_ranks = [4], tt.function_type = "forward_cpu"} {
        %0 = "ttir.reshape"(%arg0) <{shape = [1 : i32, 256 : i32, 1 : i32, 1 : i32]}> : (tensor<256xf32>) -> tensor<1x256x1x1xf32> loc(#loc473)
        %1 = "ttir.permute"(%0) <{permutation = array<i64: 0, 2, 3, 1>}> : (tensor<1x256x1x1xf32>) -> tensor<1x1x1x256xf32> loc(#loc17)
        return %1 : tensor<1x1x1x256xf32> loc(#loc)
      } loc(#loc)
      func.func @cpu_hoisted_const_eval_de413a9b(%arg0: tensor<256xf32> {bufferization.access = "read"} loc(unknown)) -> tensor<1x32x8x1xf32> attributes {arg_ranks = [1], func_hash = "de413a9b709f61163bf4fa2ce84f41058acde2d162c7f9f951c10f93e3eaf2b7", result_ranks = [4], tt.function_type = "forward_cpu"} {
        %0 = "ttir.reshape"(%arg0) <{shape = [1 : i32, 256 : i32, 1 : i32, 1 : i32]}> : (tensor<256xf32>) -> tensor<1x256x1x1xf32> loc(#loc663)
        %1 = "ttir.permute"(%0) <{permutation = array<i64: 0, 2, 3, 1>}> : (tensor<1x256x1x1xf32>) -> tensor<1x1x1x256xf32> loc(#loc697)
        %2 = "ttir.typecast"(%1) <{conservative_folding = false}> : (tensor<1x1x1x256xf32>) -> tensor<1x1x1x256xf32> loc(#loc476)
        %3 = "ttir.permute"(%2) <{permutation = array<i64: 0, 3, 1, 2>}> : (tensor<1x1x1x256xf32>) -> tensor<1x256x1x1xf32> loc(#loc437)
        %4 = "ttir.reshape"(%3) <{shape = [1 : i32, 32 : i32, 8 : i32, 1 : i32]}> : (tensor<1x256x1x1xf32>) -> tensor<1x32x8x1xf32> loc(#loc437)
        return %4 : tensor<1x32x8x1xf32> loc(#loc)
      } loc(#loc)
      func.func @cpu_hoisted_const_eval_24665087(%arg0: tensor<512xf32> {bufferization.access = "read"} loc(unknown)) -> tensor<1x1x1x512xf32> attributes {arg_ranks = [1], func_hash = "24665087df6db87cb7b7b33cccc0e842fb96abbb3922c1f62ce448a6ce948ddd", result_ranks = [4], tt.function_type = "forward_cpu"} {
        %0 = "ttir.reshape"(%arg0) <{shape = [1 : i32, 512 : i32, 1 : i32, 1 : i32]}> : (tensor<512xf32>) -> tensor<1x512x1x1xf32> loc(#loc477)
        %1 = "ttir.permute"(%0) <{permutation = array<i64: 0, 2, 3, 1>}> : (tensor<1x512x1x1xf32>) -> tensor<1x1x1x512xf32> loc(#loc23)
        return %1 : tensor<1x1x1x512xf32> loc(#loc)
      } loc(#loc)
      func.func @cpu_hoisted_const_eval_8cbff674() -> tensor<320x640xf32> attributes {arg_ranks = [], func_hash = "8cbff6748a8ad153ef631d7c12ee704a919d646844e5792fcf485c06c7d5644a", result_ranks = [2], tt.function_type = "forward_cpu"} {
        %0 = "ttir.constant"() <{value = dense<"…"> : tensor<320x1xsi32>}> : () -> tensor<320x1xi32> loc(#loc678)
        %1 = "ttir.constant"() <{value = dense<"…"> : tensor<1x640xsi32>}> : () -> tensor<1x640xi32> loc(#loc679)
        %2 = "ttir.eq"(%1, %0) : (tensor<1x640xi32>, tensor<320x1xi32>) -> tensor<320x640xf32> loc(#loc479)
        %3 = "ttir.typecast"(%2) <{conservative_folding = false}> : (tensor<320x640xf32>) -> tensor<320x640xi32> loc(#loc480)
        %4 = "ttir.typecast"(%3) <{conservative_folding = false}> : (tensor<320x640xi32>) -> tensor<320x640xf32> loc(#loc481)
        return %4 : tensor<320x640xf32> loc(#loc)
      } loc(#loc)
      func.func @cpu_hoisted_const_eval_ea3392f6(%arg0: tensor<512xf32> {bufferization.access = "read"} loc(unknown)) -> tensor<1x32x16x1xf32> attributes {arg_ranks = [1], func_hash = "ea3392f677e526739bc41d974a63fc932b54aa0143d01d3511fcefd113f55236", result_ranks = [4], tt.function_type = "forward_cpu"} {
        %0 = "ttir.reshape"(%arg0) <{shape = [1 : i32, 512 : i32, 1 : i32]}> : (tensor<512xf32>) -> tensor<1x512x1xf32> loc(#loc666)
        %1 = "ttir.permute"(%0) <{permutation = array<i64: 0, 2, 1>}> : (tensor<1x512x1xf32>) -> tensor<1x1x512xf32> loc(#loc698)
        %2 = "ttir.reshape"(%1) <{shape = [1 : i32, 512 : i32]}> : (tensor<1x1x512xf32>) -> tensor<1x512xf32> loc(#loc699)
        %3 = "ttir.typecast"(%2) <{conservative_folding = false}> : (tensor<1x512xf32>) -> tensor<1x512xf32> loc(#loc486)
        %4 = "ttir.reshape"(%3) <{shape = [1 : i32, 1 : i32, 512 : i32]}> : (tensor<1x512xf32>) -> tensor<1x1x512xf32> loc(#loc176)
        %5 = "ttir.permute"(%4) <{permutation = array<i64: 0, 2, 1>}> : (tensor<1x1x512xf32>) -> tensor<1x512x1xf32> loc(#loc176)
        %6 = "ttir.reshape"(%5) <{shape = [1 : i32, 32 : i32, 16 : i32, 1 : i32]}> : (tensor<1x512x1xf32>) -> tensor<1x32x16x1xf32> loc(#loc176)
        return %6 : tensor<1x32x16x1xf32> loc(#loc)
      } loc(#loc)
      func.func @cpu_hoisted_const_eval_4c628f88() -> tensor<180x360xf32> attributes {arg_ranks = [], func_hash = "4c628f88e1d4dddda45475cf6d1d50619e0d9bf33444bf4d44329422fb858a19", result_ranks = [2], tt.function_type = "forward_cpu"} {
        %0 = "ttir.constant"() <{value = dense<"…"> : tensor<180x1xsi32>}> : () -> tensor<180x1xi32> loc(#loc682)
        %1 = "ttir.constant"() <{value = dense<"…"> : tensor<1x360xsi32>}> : () -> tensor<1x360xi32> loc(#loc683)
        %2 = "ttir.eq"(%1, %0) : (tensor<1x360xi32>, tensor<180x1xi32>) -> tensor<180x360xf32> loc(#loc488)
        %3 = "ttir.typecast"(%2) <{conservative_folding = false}> : (tensor<180x360xf32>) -> tensor<180x360xi32> loc(#loc489)
        %4 = "ttir.typecast"(%3) <{conservative_folding = false}> : (tensor<180x360xi32>) -> tensor<180x360xf32> loc(#loc490)
        return %4 : tensor<180x360xf32> loc(#loc)
      } loc(#loc)
      func.func @cpu_hoisted_const_eval_11ccd806(%arg0: tensor<512x512xf32> {bufferization.access = "read"} loc(unknown), %arg1: tensor<512x512xf32> {bufferization.access = "read"} loc(unknown), %arg2: tensor<512x512xf32> {bufferization.access = "read"} loc(unknown)) -> tensor<512x1536xf32> attributes {arg_ranks = [2, 2, 2], func_hash = "11ccd80672aa5de0f861950e65aeec6b5293fc461501057b3feb5aef18cf21f0", result_ranks = [2], tt.function_type = "forward_cpu"} {
        %0 = "ttir.permute"(%arg0) <{permutation = array<i64: 1, 0>}> : (tensor<512x512xf32>) -> tensor<512x512xf32> loc(#loc491)
        %1 = "ttir.permute"(%arg1) <{permutation = array<i64: 1, 0>}> : (tensor<512x512xf32>) -> tensor<512x512xf32> loc(#loc492)
        %2 = "ttir.permute"(%arg2) <{permutation = array<i64: 1, 0>}> : (tensor<512x512xf32>) -> tensor<512x512xf32> loc(#loc180)
        %3 = "ttir.concat"(%2, %0, %1) <{dim = 1 : si32}> : (tensor<512x512xf32>, tensor<512x512xf32>, tensor<512x512xf32>) -> tensor<512x1536xf32> loc(#loc180)
        return %3 : tensor<512x1536xf32> loc(#loc)
      } loc(#loc)
      func.func @cpu_hoisted_const_eval_38a1353c(%arg0: tensor<128xf32> {bufferization.access = "read"} loc(unknown)) -> tensor<1x1x1x128xf32> attributes {arg_ranks = [1], func_hash = "38a1353c14de251ca315f06b0944e314df864331eb0cf09c24e91bbe51adc39b", result_ranks = [4], tt.function_type = "forward_cpu"} {
        %0 = "ttir.reshape"(%arg0) <{shape = [1 : i32, 128 : i32, 1 : i32, 1 : i32]}> : (tensor<128xf32>) -> tensor<1x128x1x1xf32> loc(#loc493)
        %1 = "ttir.permute"(%0) <{permutation = array<i64: 0, 2, 3, 1>}> : (tensor<1x128x1x1xf32>) -> tensor<1x1x1x128xf32> loc(#loc24)
        return %1 : tensor<1x1x1x128xf32> loc(#loc)
      } loc(#loc)
      func.func @cpu_hoisted_const_eval_01d4160e() -> tensor<640x1280xf32> attributes {arg_ranks = [], func_hash = "01d4160e41d162c3963d80c7263d0c99ce6d58dc9fd3346b929a79d019533deb", result_ranks = [2], tt.function_type = "forward_cpu"} {
        %0 = "ttir.constant"() <{value = dense<"…"> : tensor<640x1xsi32>}> : () -> tensor<640x1xi32> loc(#loc684)
        %1 = "ttir.constant"() <{value = dense<"…"> : tensor<1x1280xsi32>}> : () -> tensor<1x1280xi32> loc(#loc685)
        %2 = "ttir.eq"(%1, %0) : (tensor<1x1280xi32>, tensor<640x1xi32>) -> tensor<640x1280xf32> loc(#loc495)
        %3 = "ttir.typecast"(%2) <{conservative_folding = false}> : (tensor<640x1280xf32>) -> tensor<640x1280xi32> loc(#loc496)
        %4 = "ttir.typecast"(%3) <{conservative_folding = false}> : (tensor<640x1280xi32>) -> tensor<640x1280xf32> loc(#loc497)
        return %4 : tensor<640x1280xf32> loc(#loc)
      } loc(#loc)
      func.func @cpu_hoisted_const_eval_0df71a7d() -> tensor<160x320xf32> attributes {arg_ranks = [], func_hash = "0df71a7dfc06d5ab23b8e5edb64b38b8754e4ebd3e6a384218c19cf80cf06a8a", result_ranks = [2], tt.function_type = "forward_cpu"} {
        %0 = "ttir.constant"() <{value = dense<"…"> : tensor<160x1xsi32>}> : () -> tensor<160x1xi32> loc(#loc686)
        %1 = "ttir.constant"() <{value = dense<"…"> : tensor<1x320xsi32>}> : () -> tensor<1x320xi32> loc(#loc687)
        %2 = "ttir.eq"(%1, %0) : (tensor<1x320xi32>, tensor<160x1xi32>) -> tensor<160x320xf32> loc(#loc499)
        %3 = "ttir.typecast"(%2) <{conservative_folding = false}> : (tensor<160x320xf32>) -> tensor<160x320xi32> loc(#loc500)
        %4 = "ttir.typecast"(%3) <{conservative_folding = false}> : (tensor<160x320xi32>) -> tensor<160x320xf32> loc(#loc501)
        return %4 : tensor<160x320xf32> loc(#loc)
      } loc(#loc)
      func.func @cpu_hoisted_const_eval_3b6c0433(%arg0: tensor<512xf32> {bufferization.access = "read"} loc(unknown), %arg1: tensor<512xf32> {bufferization.access = "read"} loc(unknown), %arg2: tensor<512xf32> {bufferization.access = "read"} loc(unknown)) -> tensor<1536xf32> attributes {arg_ranks = [1, 1, 1], func_hash = "3b6c04334fdfd42ab36b4d289d3e22b6a6380fcd18b0a9fba9009111f5095680", result_ranks = [1], tt.function_type = "forward_cpu"} {
        %0 = "ttir.concat"(%arg0, %arg1, %arg2) <{dim = 0 : si32}> : (tensor<512xf32>, tensor<512xf32>, tensor<512xf32>) -> tensor<1536xf32> loc(#loc180)
        return %0 : tensor<1536xf32> loc(#loc)
      } loc(#loc)
      func.func @cpu_hoisted_const_eval_dd2e9c9f() -> tensor<90x180xf32> attributes {arg_ranks = [], func_hash = "dd2e9c9f86d4068edc1bbe782f73e535e93973bb19db7824552ce17397c3fa8c", result_ranks = [2], tt.function_type = "forward_cpu"} {
        %0 = "ttir.constant"() <{value = dense<[[0], [1], [2], [3], [4], [5], [6], [7], [8], [9], [10], [11], [12], [13], [14], [15], [16], [17], [18], [19], [20], [21], [22], [23], [24], [25], [26], [27], [28], [29], [30], [31], [32], [33], [34], [35], [36], [37], [38], [39], [40], [41], [42], [43], [44], [45], [46], [47], [48], [49], [50], [51], [52], [53], [54], [55], [56], [57], [58], [59], [60], [61], [62], [63], [64], [65], [66], [67], [68], [69], [70], [71], [72], [73], [74], [75], [76], [77], [78], [79], [80], [81], [82], [83], [84], [85], [86], [87], [88], [89]]> : tensor<90x1xsi32>}> : () -> tensor<90x1xi32> loc(#loc688)
        %1 = "ttir.constant"() <{value = dense<"…"> : tensor<1x180xsi32>}> : () -> tensor<1x180xi32> loc(#loc689)
        %2 = "ttir.eq"(%1, %0) : (tensor<1x180xi32>, tensor<90x1xi32>) -> tensor<90x180xf32> loc(#loc503)
        %3 = "ttir.typecast"(%2) <{conservative_folding = false}> : (tensor<90x180xf32>) -> tensor<90x180xi32> loc(#loc504)
        %4 = "ttir.typecast"(%3) <{conservative_folding = false}> : (tensor<90x180xi32>) -> tensor<90x180xf32> loc(#loc505)
        return %4 : tensor<90x180xf32> loc(#loc)
      } loc(#loc)
      func.func @cpu_hoisted_const_eval_4d6151ea() -> tensor<360x720xf32> attributes {arg_ranks = [], func_hash = "4d6151eaa80a174f4155361a63923becc2005bf50b2ecead232a5bfc1e6979b4", result_ranks = [2], tt.function_type = "forward_cpu"} {
        %0 = "ttir.constant"() <{value = dense<"…"> : tensor<360x1xsi32>}> : () -> tensor<360x1xi32> loc(#loc690)
        %1 = "ttir.constant"() <{value = dense<"…"> : tensor<1x720xsi32>}> : () -> tensor<1x720xi32> loc(#loc691)
        %2 = "ttir.eq"(%1, %0) : (tensor<1x720xi32>, tensor<360x1xi32>) -> tensor<360x720xf32> loc(#loc507)
        %3 = "ttir.typecast"(%2) <{conservative_folding = false}> : (tensor<360x720xf32>) -> tensor<360x720xi32> loc(#loc508)
        %4 = "ttir.typecast"(%3) <{conservative_folding = false}> : (tensor<360x720xi32>) -> tensor<360x720xf32> loc(#loc509)
        return %4 : tensor<360x720xf32> loc(#loc)
      } loc(#loc)
    } loc(#loc)
  } loc(#loc)
} loc(#loc)
#loc1 = loc("convolution.693_in_0_layout")
#loc2 = loc("convolution.693")
#loc3 = loc("convolution.1314")
#loc4 = loc("convolution.1869")
#loc5 = loc("convolution.1499")
#loc6 = loc("convolution.1974")
#loc7 = loc("convolution.2734")
#loc8 = loc("convolution.1684")
#loc9 = loc("convolution.2159")
#loc10 = loc("convolution.2539")
#loc11 = loc("convolution.3024")
#loc12 = loc("convolution.2449")
#loc13 = loc("convolution.873")
#loc14 = loc("convolution.2344")
#loc15 = loc("convolution.783")
#loc16 = loc("convolution.1224")
#loc17 = loc("convolution.3009")
#loc18 = loc("convolution.1594")
#loc19 = loc("convolution.2434")
#loc20 = loc("convolution.2249")
#loc21 = loc("convolution.2919")
#loc22 = loc("convolution.2639")
#loc23 = loc("convolution.1409")
#loc24 = loc("convolution.3114")
#loc25 = loc("convolution.2629")
#loc26 = loc("convolution.1779")
#loc27 = loc("convolution.2064")
#loc28 = loc("convolution.1884")
#loc29 = loc("convolution.2824")
#loc143 = loc("convert.697")
#loc144 = loc("reduce.744")
#loc145 = loc("subtract.764")
#loc146 = loc("multiply.720")
#loc147 = loc("reduce.727")
#loc148 = loc("add.757")
#loc149 = loc("rsqrt.758")
#loc150 = loc("multiply.767")
#loc151 = loc("multiply.771")
#loc152 = loc("add.777")
#loc153 = loc("multiply.781")
#loc154 = loc("convert.782")
#loc155 = loc("convert.787")
#loc156 = loc("reduce.834")
#loc157 = loc("subtract.854")
#loc158 = loc("multiply.810")
#loc159 = loc("reduce.817")
#loc160 = loc("add.847")
#loc161 = loc("rsqrt.848")
#loc162 = loc("multiply.857")
#loc163 = loc("multiply.861")
#loc164 = loc("add.867")
#loc165 = loc("multiply.871")
#loc166 = loc("convert.872")
#loc167 = loc("add.879")
#loc168 = loc("divide.881")
#loc169 = loc("convert.921")
#loc170 = loc("reduce.968")
#loc171 = loc("subtract.988")
#loc172 = loc("multiply.944")
#loc173 = loc("reduce.951")
#loc174 = loc("add.981")
#loc175 = loc("rsqrt.982")
#loc176 = loc("multiply.991")
#loc177 = loc("multiply.995")
#loc178 = loc("add.1001")
#loc179 = loc("convert.1002")
#loc180 = loc("add.1057")
#loc181 = loc("custom-call.1121")
#loc182 = loc("reshape.1124")
#loc183 = loc("add.1130")
#loc184 = loc("transpose.1131")
#loc185 = loc("reshape.1132")
#loc186 = loc("add.1135")
#loc187 = loc("divide.1137")
#loc188 = loc("convert.1138")
#loc189 = loc("reduce.1185")
#loc190 = loc("subtract.1205")
#loc191 = loc("multiply.1161")
#loc192 = loc("reduce.1168")
#loc193 = loc("add.1198")
#loc194 = loc("rsqrt.1199")
#loc195 = loc("multiply.1208")
#loc196 = loc("multiply.1212")
#loc197 = loc("add.1218")
#loc198 = loc("multiply.1222")
#loc199 = loc("convert.1223")
#loc200 = loc("convert.1228")
#loc201 = loc("reduce.1275")
#loc202 = loc("subtract.1295")
#loc203 = loc("multiply.1251")
#loc204 = loc("reduce.1258")
#loc205 = loc("add.1288")
#loc206 = loc("rsqrt.1289")
#loc207 = loc("multiply.1298")
#loc208 = loc("multiply.1302")
#loc209 = loc("add.1308")
#loc210 = loc("multiply.1312")
#loc211 = loc("convert.1313")
#loc212 = loc("add.1320")
#loc213 = loc("divide.1322")
#loc214 = loc("convert.1323")
#loc215 = loc("reduce.1370")
#loc216 = loc("subtract.1390")
#loc217 = loc("multiply.1346")
#loc218 = loc("reduce.1353")
#loc219 = loc("add.1383")
#loc220 = loc("rsqrt.1384")
#loc221 = loc("multiply.1393")
#loc222 = loc("multiply.1397")
#loc223 = loc("add.1403")
#loc224 = loc("multiply.1407")
#loc225 = loc("convert.1408")
#loc226 = loc("convert.1413")
#loc227 = loc("reduce.1460")
#loc228 = loc("subtract.1480")
#loc229 = loc("multiply.1436")
#loc230 = loc("reduce.1443")
#loc231 = loc("add.1473")
#loc232 = loc("rsqrt.1474")
#loc233 = loc("multiply.1483")
#loc234 = loc("multiply.1487")
#loc235 = loc("add.1493")
#loc236 = loc("multiply.1497")
#loc237 = loc("convert.1498")
#loc238 = loc("add.1505")
#loc239 = loc("divide.1507")
#loc240 = loc("convert.1508")
#loc241 = loc("reduce.1555")
#loc242 = loc("subtract.1575")
#loc243 = loc("multiply.1531")
#loc244 = loc("reduce.1538")
#loc245 = loc("add.1568")
#loc246 = loc("rsqrt.1569")
#loc247 = loc("multiply.1578")
#loc248 = loc("multiply.1582")
#loc249 = loc("add.1588")
#loc250 = loc("multiply.1592")
#loc251 = loc("convert.1593")
#loc252 = loc("convert.1598")
#loc253 = loc("reduce.1645")
#loc254 = loc("subtract.1665")
#loc255 = loc("multiply.1621")
#loc256 = loc("reduce.1628")
#loc257 = loc("add.1658")
#loc258 = loc("rsqrt.1659")
#loc259 = loc("multiply.1668")
#loc260 = loc("multiply.1672")
#loc261 = loc("add.1678")
#loc262 = loc("multiply.1682")
#loc263 = loc("convert.1683")
#loc264 = loc("add.1690")
#loc265 = loc("divide.1692")
#loc266 = loc("convert.1693")
#loc267 = loc("reduce.1740")
#loc268 = loc("subtract.1760")
#loc269 = loc("multiply.1716")
#loc270 = loc("reduce.1723")
#loc271 = loc("add.1753")
#loc272 = loc("rsqrt.1754")
#loc273 = loc("multiply.1763")
#loc274 = loc("multiply.1767")
#loc275 = loc("add.1773")
#loc276 = loc("multiply.1777")
#loc277 = loc("convert.1778")
#loc278 = loc("convert.1783")
#loc279 = loc("reduce.1830")
#loc280 = loc("subtract.1850")
#loc281 = loc("multiply.1806")
#loc282 = loc("reduce.1813")
#loc283 = loc("add.1843")
#loc284 = loc("rsqrt.1844")
#loc285 = loc("multiply.1853")
#loc286 = loc("multiply.1857")
#loc287 = loc("add.1863")
#loc288 = loc("multiply.1867")
#loc289 = loc("convert.1868")
#loc290 = loc("transpose.1878")
#loc291 = loc("add.1875")
#loc292 = loc("divide.1877")
#loc293 = loc("dot.1879")
#loc294 = loc("transpose.1881")
#loc295 = loc("dot.1882")
#loc296 = loc("convert.1888")
#loc297 = loc("reduce.1935")
#loc298 = loc("subtract.1955")
#loc299 = loc("multiply.1911")
#loc300 = loc("reduce.1918")
#loc301 = loc("add.1948")
#loc302 = loc("rsqrt.1949")
#loc303 = loc("multiply.1958")
#loc304 = loc("multiply.1962")
#loc305 = loc("add.1968")
#loc306 = loc("multiply.1972")
#loc307 = loc("convert.1973")
#loc308 = loc("convert.1978")
#loc309 = loc("reduce.2025")
#loc310 = loc("subtract.2045")
#loc311 = loc("multiply.2001")
#loc312 = loc("reduce.2008")
#loc313 = loc("add.2038")
#loc314 = loc("rsqrt.2039")
#loc315 = loc("multiply.2048")
#loc316 = loc("multiply.2052")
#loc317 = loc("add.2058")
#loc318 = loc("multiply.2062")
#loc319 = loc("convert.2063")
#loc320 = loc("add.2070")
#loc321 = loc("divide.2072")
#loc322 = loc("convert.2073")
#loc323 = loc("reduce.2120")
#loc324 = loc("subtract.2140")
#loc325 = loc("multiply.2096")
#loc326 = loc("reduce.2103")
#loc327 = loc("add.2133")
#loc328 = loc("rsqrt.2134")
#loc329 = loc("multiply.2143")
#loc330 = loc("multiply.2147")
#loc331 = loc("add.2153")
#loc332 = loc("multiply.2157")
#loc333 = loc("convert.2158")
#loc334 = loc("convert.2163")
#loc335 = loc("reduce.2210")
#loc336 = loc("subtract.2230")
#loc337 = loc("multiply.2186")
#loc338 = loc("reduce.2193")
#loc339 = loc("add.2223")
#loc340 = loc("rsqrt.2224")
#loc341 = loc("multiply.2233")
#loc342 = loc("multiply.2237")
#loc343 = loc("add.2243")
#loc344 = loc("multiply.2247")
#loc345 = loc("convert.2248")
#loc346 = loc("add.2255")
#loc347 = loc("divide.2257")
#loc348 = loc("convert.2258")
#loc349 = loc("reduce.2305")
#loc350 = loc("subtract.2325")
#loc351 = loc("multiply.2281")
#loc352 = loc("reduce.2288")
#loc353 = loc("add.2318")
#loc354 = loc("rsqrt.2319")
#loc355 = loc("multiply.2328")
#loc356 = loc("multiply.2332")
#loc357 = loc("add.2338")
#loc358 = loc("multiply.2342")
#loc359 = loc("convert.2343")
#loc360 = loc("convert.2348")
#loc361 = loc("reduce.2395")
#loc362 = loc("subtract.2415")
#loc363 = loc("multiply.2371")
#loc364 = loc("reduce.2378")
#loc365 = loc("add.2408")
#loc366 = loc("rsqrt.2409")
#loc367 = loc("multiply.2418")
#loc368 = loc("multiply.2422")
#loc369 = loc("add.2428")
#loc370 = loc("multiply.2432")
#loc371 = loc("convert.2433")
#loc372 = loc("add.2440")
#loc373 = loc("divide.2442")
#loc374 = loc("dot.2444")
#loc375 = loc("transpose.2446")
#loc376 = loc("dot.2447")
#loc377 = loc("convert.2453")
#loc378 = loc("reduce.2500")
#loc379 = loc("subtract.2520")
#loc380 = loc("multiply.2476")
#loc381 = loc("reduce.2483")
#loc382 = loc("add.2513")
#loc383 = loc("rsqrt.2514")
#loc384 = loc("multiply.2523")
#loc385 = loc("multiply.2527")
#loc386 = loc("add.2533")
#loc387 = loc("multiply.2537")
#loc388 = loc("convert.2538")
#loc389 = loc("convert.2543")
#loc390 = loc("reduce.2590")
#loc391 = loc("subtract.2610")
#loc392 = loc("multiply.2566")
#loc393 = loc("reduce.2573")
#loc394 = loc("add.2603")
#loc395 = loc("rsqrt.2604")
#loc396 = loc("multiply.2613")
#loc397 = loc("multiply.2617")
#loc398 = loc("add.2623")
#loc399 = loc("multiply.2627")
#loc400 = loc("convert.2628")
#loc401 = loc("add.2645")
#loc402 = loc("divide.2647")
#loc403 = loc("convert.2648")
#loc404 = loc("reduce.2695")
#loc405 = loc("subtract.2715")
#loc406 = loc("multiply.2671")
#loc407 = loc("reduce.2678")
#loc408 = loc("add.2708")
#loc409 = loc("rsqrt.2709")
#loc410 = loc("multiply.2718")
#loc411 = loc("multiply.2722")
#loc412 = loc("add.2728")
#loc413 = loc("multiply.2732")
#loc414 = loc("convert.2733")
#loc415 = loc("convert.2738")
#loc416 = loc("reduce.2785")
#loc417 = loc("subtract.2805")
#loc418 = loc("multiply.2761")
#loc419 = loc("reduce.2768")
#loc420 = loc("add.2798")
#loc421 = loc("rsqrt.2799")
#loc422 = loc("multiply.2808")
#loc423 = loc("multiply.2812")
#loc424 = loc("add.2818")
#loc425 = loc("multiply.2822")
#loc426 = loc("convert.2823")
#loc427 = loc("add.2830")
#loc428 = loc("divide.2832")
#loc429 = loc("convert.2833")
#loc430 = loc("reduce.2880")
#loc431 = loc("subtract.2900")
#loc432 = loc("multiply.2856")
#loc433 = loc("reduce.2863")
#loc434 = loc("add.2893")
#loc435 = loc("rsqrt.2894")
#loc436 = loc("multiply.2903")
#loc437 = loc("multiply.2907")
#loc438 = loc("add.2913")
#loc439 = loc("multiply.2917")
#loc440 = loc("convert.2918")
#loc441 = loc("convert.2923")
#loc442 = loc("reduce.2970")
#loc443 = loc("subtract.2990")
#loc444 = loc("multiply.2946")
#loc445 = loc("reduce.2953")
#loc446 = loc("add.2983")
#loc447 = loc("rsqrt.2984")
#loc448 = loc("multiply.2993")
#loc449 = loc("multiply.2997")
#loc450 = loc("add.3003")
#loc451 = loc("multiply.3007")
#loc452 = loc("convert.3008")
#loc453 = loc("add.3015")
#loc454 = loc("divide.3017")
#loc455 = loc("dot.3019")
#loc456 = loc("transpose.3021")
#loc457 = loc("dot.3022")
#loc458 = loc("convert.3028")
#loc459 = loc("reduce.3075")
#loc460 = loc("subtract.3095")
#loc461 = loc("multiply.3051")
#loc462 = loc("reduce.3058")
#loc463 = loc("add.3088")
#loc464 = loc("rsqrt.3089")
#loc465 = loc("multiply.3098")
#loc466 = loc("multiply.3102")
#loc467 = loc("add.3108")
#loc468 = loc("multiply.3112")
#loc469 = loc("convert.3113")
#loc470 = loc("reshape.598")
#loc471 = loc("reshape.593")
#loc472 = loc("convert.1303")
#loc473 = loc("transpose.3011")
#loc474 = loc("reshape.100")
#loc475 = loc("reshape.95")
#loc476 = loc("convert.2908")
#loc477 = loc("transpose.1411")
#loc478 = loc("transpose.245")
#loc479 = loc("compare.243")
#loc480 = loc("convert.244")
#loc481 = loc("convert.246")
#loc482 = loc("reshape.914")
#loc483 = loc("reshape.910")
#loc484 = loc("transpose.1003")
#loc485 = loc("reshape.1051")
#loc486 = loc("convert.915")
#loc487 = loc("transpose.230")
#loc488 = loc("compare.228")
#loc489 = loc("convert.229")
#loc490 = loc("convert.231")
#loc491 = loc("transpose.1025")
#loc492 = loc("transpose.901")
#loc493 = loc("transpose.3116")
#loc494 = loc("transpose.59")
#loc495 = loc("compare.57")
#loc496 = loc("convert.58")
#loc497 = loc("convert.60")
#loc498 = loc("transpose.431")
#loc499 = loc("compare.429")
#loc500 = loc("convert.430")
#loc501 = loc("convert.432")
#loc502 = loc("transpose.416")
#loc503 = loc("compare.414")
#loc504 = loc("convert.415")
#loc505 = loc("convert.417")
#loc506 = loc("transpose.44")
#loc507 = loc("compare.42")
#loc508 = loc("convert.43")
#loc509 = loc("convert.45")
#loc510 = loc("convolution.693_prepare_conv2d_weight"(#loc2))
#loc511 = loc("convolution.1314_bias"(#loc3))
#loc512 = loc("convolution.1314_prepare_conv2d_bias"(#loc3))
#loc513 = loc("convolution.1869_prepare_conv2d_weight"(#loc4))
#loc514 = loc("convolution.1499_bias"(#loc5))
#loc515 = loc("convolution.1499_prepare_conv2d_bias"(#loc5))
#loc516 = loc("convolution.1974_prepare_conv2d_weight"(#loc6))
#loc517 = loc("convolution.2734_prepare_conv2d_weight"(#loc7))
#loc518 = loc("convolution.1684_bias"(#loc8))
#loc519 = loc("convolution.1684_prepare_conv2d_bias"(#loc8))
#loc520 = loc("convolution.1684_prepare_conv2d_weight"(#loc8))
#loc521 = loc("convolution.2159_prepare_conv2d_weight"(#loc9))
#loc522 = loc("convolution.2539_bias"(#loc10))
#loc523 = loc("convolution.2539_prepare_conv2d_bias"(#loc10))
#loc524 = loc("convolution.3024_prepare_conv2d_weight"(#loc11))
#loc525 = loc("convolution.2449_prepare_conv2d_weight"(#loc12))
#loc526 = loc("convolution.1314_prepare_conv2d_weight"(#loc3))
#loc527 = loc("convolution.873_prepare_conv2d_weight"(#loc13))
#loc528 = loc("convolution.2539_prepare_conv2d_weight"(#loc10))
#loc529 = loc("convolution.3024_bias"(#loc11))
#loc530 = loc("convolution.3024_prepare_conv2d_bias"(#loc11))
#loc531 = loc("convolution.2159_bias"(#loc9))
#loc532 = loc("convolution.2159_prepare_conv2d_bias"(#loc9))
#loc533 = loc("convolution.1499_prepare_conv2d_weight"(#loc5))
#loc534 = loc("convolution.2344_prepare_conv2d_weight"(#loc14))
#loc535 = loc("convolution.2449_bias"(#loc12))
#loc536 = loc("convolution.2449_prepare_conv2d_bias"(#loc12))
#loc537 = loc("convolution.783_bias"(#loc15))
#loc538 = loc("convolution.783_prepare_conv2d_bias"(#loc15))
#loc539 = loc("convolution.1224_prepare_conv2d_weight"(#loc16))
#loc540 = loc("convolution.1974_bias"(#loc6))
#loc541 = loc("convolution.1974_prepare_conv2d_bias"(#loc6))
#loc542 = loc("convolution.3009_bias"(#loc17))
#loc543 = loc("convolution.3009_prepare_conv2d_bias"(#loc17))
#loc544 = loc("convolution.693_bias"(#loc2))
#loc545 = loc("convolution.693_prepare_conv2d_bias"(#loc2))
#loc546 = loc("convolution.1594_prepare_conv2d_weight"(#loc18))
#loc547 = loc("convolution.2434_prepare_conv2d_weight"(#loc19))
#loc548 = loc("convolution.2734_bias"(#loc7))
#loc549 = loc("convolution.2734_prepare_conv2d_bias"(#loc7))
#loc550 = loc("convolution.2249_bias"(#loc20))
#loc551 = loc("convolution.2249_prepare_conv2d_bias"(#loc20))
#loc552 = loc("convolution.2919_prepare_conv2d_weight"(#loc21))
#loc553 = loc("convolution.2639_bias"(#loc22))
#loc554 = loc("convolution.2639_prepare_conv2d_bias"(#loc22))
#loc555 = loc("convolution.1409_bias"(#loc23))
#loc556 = loc("convolution.1409_prepare_conv2d_bias"(#loc23))
#loc557 = loc("convolution.1224_bias"(#loc16))
#loc558 = loc("convolution.1224_prepare_conv2d_bias"(#loc16))
#loc559 = loc("convolution.3114_prepare_conv2d_weight"(#loc24))
#loc560 = loc("convolution.2629_bias"(#loc25))
#loc561 = loc("convolution.2629_prepare_conv2d_bias"(#loc25))
#loc562 = loc("convolution.3009_prepare_conv2d_weight"(#loc17))
#loc563 = loc("convolution.1779_prepare_conv2d_weight"(#loc26))
#loc564 = loc("convolution.2064_prepare_conv2d_weight"(#loc27))
#loc565 = loc("convolution.2629_prepare_conv2d_weight"(#loc25))
#loc566 = loc("convolution.1594_bias"(#loc18))
#loc567 = loc("convolution.1594_prepare_conv2d_bias"(#loc18))
#loc568 = loc("convolution.1884_bias"(#loc28))
#loc569 = loc("convolution.1884_prepare_conv2d_bias"(#loc28))
#loc570 = loc("convolution.1779_bias"(#loc26))
#loc571 = loc("convolution.1779_prepare_conv2d_bias"(#loc26))
#loc572 = loc("convolution.2824_prepare_conv2d_weight"(#loc29))
#loc573 = loc("convolution.2824_bias"(#loc29))
#loc574 = loc("convolution.2824_prepare_conv2d_bias"(#loc29))
#loc575 = loc("convolution.873_bias"(#loc13))
#loc576 = loc("convolution.873_prepare_conv2d_bias"(#loc13))
#loc577 = loc("convolution.1884_prepare_conv2d_weight"(#loc28))
#loc578 = loc("convolution.2344_bias"(#loc14))
#loc579 = loc("convolution.2344_prepare_conv2d_bias"(#loc14))
#loc580 = loc("convolution.2434_bias"(#loc19))
#loc581 = loc("convolution.2434_prepare_conv2d_bias"(#loc19))
#loc582 = loc("convolution.783_prepare_conv2d_weight"(#loc15))
#loc583 = loc("convolution.1409_prepare_conv2d_weight"(#loc23))
#loc584 = loc("convolution.2639_prepare_conv2d_weight"(#loc22))
#loc585 = loc("convolution.2919_bias"(#loc21))
#loc586 = loc("convolution.2919_prepare_conv2d_bias"(#loc21))
#loc587 = loc("convolution.1869_bias"(#loc4))
#loc588 = loc("convolution.1869_prepare_conv2d_bias"(#loc4))
#loc589 = loc("convolution.2064_bias"(#loc27))
#loc590 = loc("convolution.2064_prepare_conv2d_bias"(#loc27))
#loc591 = loc("convolution.2249_prepare_conv2d_weight"(#loc20))
#loc592 = loc("convolution.3114_bias"(#loc24))
#loc593 = loc("convolution.3114_prepare_conv2d_bias"(#loc24))
#loc594 = loc("convolution.693_reshape"(#loc2))
#loc595 = loc("reduce.744_mean"(#loc144))
#loc596 = loc("reduce.727_mean"(#loc147))
#loc597 = loc("reduce.834_mean"(#loc156))
#loc598 = loc("reduce.817_mean"(#loc159))
#loc599 = loc("reduce.968_mean"(#loc170))
#loc600 = loc("reduce.951_mean"(#loc173))
#loc601 = loc("reduce.1185_mean"(#loc189))
#loc602 = loc("reduce.1168_mean"(#loc192))
#loc603 = loc("reduce.1275_mean"(#loc201))
#loc604 = loc("reduce.1258_mean"(#loc204))
#loc605 = loc("convolution.1314_reshape"(#loc3))
#loc606 = loc("reduce.1370_mean"(#loc215))
#loc607 = loc("reduce.1353_mean"(#loc218))
#loc608 = loc("reduce.1460_mean"(#loc227))
#loc609 = loc("reduce.1443_mean"(#loc230))
#loc610 = loc("convolution.1499_reshape"(#loc5))
#loc611 = loc("reduce.1555_mean"(#loc241))
#loc612 = loc("reduce.1538_mean"(#loc244))
#loc613 = loc("reduce.1645_mean"(#loc253))
#loc614 = loc("reduce.1628_mean"(#loc256))
#loc615 = loc("convolution.1684_reshape"(#loc8))
#loc616 = loc("reduce.1740_mean"(#loc267))
#loc617 = loc("reduce.1723_mean"(#loc270))
#loc618 = loc("reduce.1830_mean"(#loc279))
#loc619 = loc("reduce.1813_mean"(#loc282))
#loc620 = loc("convolution.1869_reshape"(#loc4))
#loc621 = loc("transpose.1878_tm0"(#loc290))
#loc622 = loc("dot.1879_reshapeOutput"(#loc293))
#loc623 = loc("dot.1882_reshapeLhs"(#loc295))
#loc624 = loc("dot.1882_reshapeOutput"(#loc295))
#loc625 = loc("convolution.1884_reshape"(#loc28))
#loc626 = loc("reduce.1935_mean"(#loc297))
#loc627 = loc("reduce.1918_mean"(#loc300))
#loc628 = loc("reduce.2025_mean"(#loc309))
#loc629 = loc("reduce.2008_mean"(#loc312))
#loc630 = loc("reduce.2120_mean"(#loc323))
#loc631 = loc("reduce.2103_mean"(#loc326))
#loc632 = loc("reduce.2210_mean"(#loc335))
#loc633 = loc("reduce.2193_mean"(#loc338))
#loc634 = loc("reduce.2305_mean"(#loc349))
#loc635 = loc("reduce.2288_mean"(#loc352))
#loc636 = loc("reduce.2395_mean"(#loc361))
#loc637 = loc("reduce.2378_mean"(#loc364))
#loc638 = loc("dot.2444_reshapeOutput"(#loc374))
#loc639 = loc("dot.2447_reshapeLhs"(#loc376))
#loc640 = loc("dot.2447_reshapeOutput"(#loc376))
#loc641 = loc("convolution.2449_reshape"(#loc12))
#loc642 = loc("reduce.2500_mean"(#loc378))
#loc643 = loc("reduce.2483_mean"(#loc381))
#loc644 = loc("reduce.2590_mean"(#loc390))
#loc645 = loc("reduce.2573_mean"(#loc393))
#loc646 = loc("reduce.2695_mean"(#loc404))
#loc647 = loc("reduce.2678_mean"(#loc407))
#loc648 = loc("reduce.2785_mean"(#loc416))
#loc649 = loc("reduce.2768_mean"(#loc419))
#loc650 = loc("reduce.2880_mean"(#loc430))
#loc651 = loc("reduce.2863_mean"(#loc433))
#loc652 = loc("reduce.2970_mean"(#loc442))
#loc653 = loc("reduce.2953_mean"(#loc445))
#loc654 = loc("dot.3019_reshapeOutput"(#loc455))
#loc655 = loc("dot.3022_reshapeLhs"(#loc457))
#loc656 = loc("dot.3022_reshapeOutput"(#loc457))
#loc657 = loc("convolution.3024_reshape"(#loc11))
#loc658 = loc("reduce.3075_mean"(#loc459))
#loc659 = loc("reduce.3058_mean"(#loc462))
#loc660 = loc("convolution.3114_reshape"(#loc24))
#loc661 = loc(fused[#loc470, #loc471])
#loc662 = loc("convolution.1314_tm0"(#loc3))
#loc663 = loc(fused[#loc474, #loc475])
#loc664 = loc("convolution.2919_tm0"(#loc21))
#loc665 = loc("transpose.245_tm0"(#loc478))
#loc666 = loc(fused[#loc482, #loc483])
#loc667 = loc("transpose.1003_tm0"(#loc484))
#loc668 = loc("reshape.1051_tm0"(#loc485))
#loc669 = loc("transpose.230_tm0"(#loc487))
#loc670 = loc("transpose.59_tm0"(#loc494))
#loc671 = loc("transpose.431_tm0"(#loc498))
#loc672 = loc("transpose.416_tm0"(#loc502))
#loc673 = loc("transpose.44_tm0"(#loc506))
#loc674 = loc("transpose.1878_tm0_tm0"(#loc621))
#loc675 = loc("transpose.1878_tm0_tm1"(#loc621))
#loc676 = loc("convolution.1314_tm0_tm0"(#loc662))
#loc677 = loc("convolution.2919_tm0_tm0"(#loc664))
#loc678 = loc("transpose.245_tm0_tm1"(#loc665))
#loc679 = loc("transpose.245_tm0_tm0"(#loc665))
#loc680 = loc("transpose.1003_tm0_tm0"(#loc667))
#loc681 = loc("reshape.1051_tm0_tm0"(#loc668))
#loc682 = loc("transpose.230_tm0_tm1"(#loc669))
#loc683 = loc("transpose.230_tm0_tm0"(#loc669))
#loc684 = loc("transpose.59_tm0_tm1"(#loc670))
#loc685 = loc("transpose.59_tm0_tm0"(#loc670))
#loc686 = loc("transpose.431_tm0_tm1"(#loc671))
#loc687 = loc("transpose.431_tm0_tm0"(#loc671))
#loc688 = loc("transpose.416_tm0_tm1"(#loc672))
#loc689 = loc("transpose.416_tm0_tm0"(#loc672))
#loc690 = loc("transpose.44_tm0_tm1"(#loc673))
#loc691 = loc("transpose.44_tm0_tm0"(#loc673))
#loc692 = loc("convolution.1314_tm0_tm0_tm1"(#loc676))
#loc693 = loc("convolution.2919_tm0_tm0_tm1"(#loc677))
#loc694 = loc("transpose.1003_tm0_tm0_tm1"(#loc680))
#loc695 = loc("reshape.1051_tm0_tm0_tm1"(#loc681))
#loc696 = loc("convolution.1314_tm0_tm0_tm1_tm0"(#loc692))
#loc697 = loc("convolution.2919_tm0_tm0_tm1_tm0"(#loc693))
#loc698 = loc("transpose.1003_tm0_tm0_tm1_tm0"(#loc694))
#loc699 = loc("reshape.1051_tm0_tm0_tm1_tm0"(#loc695))
