#loc1 = loc("p0.1")
#loc2 = loc("p1.5")
#loc3 = loc("p2.8")
#loc4 = loc("p3.15")
#loc5 = loc("p4.27")
#loc6 = loc("p5.31")
#loc7 = loc("p6.34")
#loc8 = loc("p7.41")
#loc9 = loc("p8.51")
#loc10 = loc("p9.55")
#loc11 = loc("p10.58")
#loc12 = loc("p11.65")
#loc13 = loc("p12.77")
#loc14 = loc("p13.81")
#loc15 = loc("p14.84")
#loc16 = loc("p15.91")
#loc17 = loc("p16.101")
#loc18 = loc("p17.105")
#loc19 = loc("p18.108")
#loc20 = loc("p19.115")
#loc21 = loc("p20.127")
#loc22 = loc("p21.131")
#loc23 = loc("p22.134")
#loc24 = loc("p23.141")
#loc25 = loc("p24.151")
#loc26 = loc("p25.155")
#loc27 = loc("p26.158")
#loc28 = loc("p27.165")
#loc29 = loc("p28.175")
#loc30 = loc("p29.179")
#loc31 = loc("p30.213")
#loc32 = loc("p31.217")
#loc33 = loc("p32.220")
#loc34 = loc("p33.227")
#loc35 = loc("p34.237")
#loc36 = loc("p35.241")
#loc37 = loc("p36.244")
#loc38 = loc("p37.251")
#loc39 = loc("p38.263")
#loc40 = loc("p39.267")
#loc41 = loc("p40.270")
#loc42 = loc("p41.277")
#loc43 = loc("p42.287")
#loc44 = loc("p43.291")
#loc45 = loc("p44.294")
#loc46 = loc("p45.301")
#loc47 = loc("p46.313")
#loc48 = loc("p47.317")
#loc49 = loc("p48.320")
#loc50 = loc("p49.327")
#loc51 = loc("p50.337")
#loc52 = loc("p51.341")
#loc53 = loc("p52.344")
#loc54 = loc("p53.351")
#loc55 = loc("p54.361")
#loc56 = loc("p55.365")
#loc57 = loc("p56.399")
#loc58 = loc("p57.403")
#loc59 = loc("p58.406")
#loc60 = loc("p59.413")
#loc61 = loc("p60.423")
#loc62 = loc("p61.427")
#loc63 = loc("p62.430")
#loc64 = loc("p63.437")
#loc65 = loc("p64.449")
#loc66 = loc("p65.453")
#loc67 = loc("p66.456")
#loc68 = loc("p67.463")
#loc69 = loc("p68.473")
#loc70 = loc("p69.477")
#loc71 = loc("p70.480")
#loc72 = loc("p71.487")
#loc73 = loc("p72.499")
#loc74 = loc("p73.503")
#loc75 = loc("p74.506")
#loc76 = loc("p75.513")
#loc77 = loc("p76.523")
#loc78 = loc("p77.527")
#loc79 = loc("p78.530")
#loc80 = loc("p79.537")
#loc81 = loc("p80.547")
#loc82 = loc("p81.551")
#loc83 = loc("p82.585")
#loc84 = loc("p83.589")
#loc85 = loc("p84.592")
#loc86 = loc("p85.599")
#loc87 = loc("p86.609")
#loc88 = loc("p87.613")
#loc89 = loc("p88.616")
#loc90 = loc("p89.623")
#loc91 = loc("p90.635")
#loc92 = loc("p91.639")
#loc93 = loc("p92.642")
#loc94 = loc("p93.649")
#loc95 = loc("p94.659")
#loc96 = loc("p95.663")
#loc97 = loc("p96.666")
#loc98 = loc("p97.673")
#loc99 = loc("p98.685")
#loc100 = loc("p99.689")
#loc101 = loc("p100.692")
#loc102 = loc("p101.699")
#loc103 = loc("p102.709")
#loc104 = loc("p103.713")
#loc105 = loc("p104.716")
#loc106 = loc("p105.723")
#loc107 = loc("p106.735")
#loc108 = loc("p107.739")
#loc109 = loc("p108.742")
#loc110 = loc("p109.749")
#loc111 = loc("p110.759")
#loc112 = loc("p111.763")
#loc113 = loc("p112.766")
#loc114 = loc("p113.773")
#loc115 = loc("p114.787")
#loc116 = loc("p115.791")
#loc117 = loc("p116.794")
#loc118 = loc("p117.801")
#loc119 = loc("p118.811")
#loc120 = loc("p119.815")
#loc121 = loc("p120.818")
#loc122 = loc("p121.825")
#loc123 = loc("p122.835")
#loc124 = loc("p123.839")
#loc125 = loc("p124.841")
#loc126 = loc("p125.1033")
#loc127 = loc("p126.1037")
#loc128 = loc("p127.1043")
#loc129 = loc("p128.1047")
#loc130 = loc("p129.1053")
#loc131 = loc("p130.1059")
#loc132 = loc("p131.1166")
#loc133 = loc("p132.1170")
#loc134 = loc("p133.1190")
#loc135 = loc("p134.1194")
#loc136 = loc("p135.2779")
#loc137 = loc("p136.2783")
#loc138 = loc("p137.3354")
#loc139 = loc("p138.3358")
module @SyncTensorsGraph.3830 attributes {mhlo.cross_program_prefetches = [], mhlo.input_output_alias = [], mhlo.is_dynamic = false, mhlo.use_auto_spmd_partitioning = false, ttcore.meshes = #ttcore.meshes<[<"mesh" = 1x4>]>} {
  ttcore.device_module {
    builtin.module @SyncTensorsGraph.3830 attributes {mhlo.cross_program_prefetches = [], mhlo.input_output_alias = [], mhlo.is_dynamic = false, mhlo.use_auto_spmd_partitioning = false, ttcore.meshes = #ttcore.meshes<[<"mesh" = 1x4>]>} {
      func.func @main(%arg0: tensor<3xbf16> {mhlo.sharding = "{replicated}", ttcore.argument_type = #ttcore.argument_type<parameter>, ttcore.local_shape = #ttcore<local_shape local_shape = tensor<3xbf16>>, ttcore.shard_status = #ttcore.shard_status<presharded>, ttir.name = "decoder.conv_out.bias"} loc("p0.1"), %arg1: tensor<3x128x3x3xbf16> {mhlo.sharding = "{replicated}", ttcore.argument_type = #ttcore.argument_type<parameter>, ttcore.local_shape = #ttcore<local_shape local_shape = tensor<3x128x3x3xbf16>>, ttcore.shard_status = #ttcore.shard_status<presharded>, ttir.name = "decoder.conv_out.weight"} loc("p1.5"), %arg2: tensor<128xbf16> {mhlo.sharding = "{replicated}", ttcore.argument_type = #ttcore.argument_type<parameter>, ttcore.local_shape = #ttcore<local_shape local_shape = tensor<128xbf16>>, ttcore.shard_status = #ttcore.shard_status<presharded>, ttir.name = "decoder.conv_norm_out.bias"} loc("p2.8"), %arg3: tensor<128xbf16> {mhlo.sharding = "{replicated}", ttcore.argument_type = #ttcore.argument_type<parameter>, ttcore.local_shape = #ttcore<local_shape local_shape = tensor<128xbf16>>, ttcore.shard_status = #ttcore.shard_status<presharded>, ttir.name = "decoder.conv_norm_out.weight"} loc("p3.15"), %arg4: tensor<128xbf16> {mhlo.sharding = "{replicated}", ttcore.argument_type = #ttcore.argument_type<parameter>, ttcore.local_shape = #ttcore<local_shape local_shape = tensor<128xbf16>>, ttcore.shard_status = #ttcore.shard_status<presharded>, ttir.name = "L__self___decoder_up_blocks__modules__3___resnets__modules__2___conv2.bias"} loc("p4.27"), %arg5: tensor<128x128x3x3xbf16> {mhlo.sharding = "{replicated}", ttcore.argument_type = #ttcore.argument_type<parameter>, ttcore.local_shape = #ttcore<local_shape local_shape = tensor<128x128x3x3xbf16>>, ttcore.shard_status = #ttcore.shard_status<presharded>, ttir.name = "L__self___decoder_up_blocks__modules__3___resnets__modules__2___conv2.weight"} loc("p5.31"), %arg6: tensor<128xbf16> {mhlo.sharding = "{replicated}", ttcore.argument_type = #ttcore.argument_type<parameter>, ttcore.local_shape = #ttcore<local_shape local_shape = tensor<128xbf16>>, ttcore.shard_status = #ttcore.shard_status<presharded>, ttir.name = "L__self___decoder_up_blocks__modules__3___resnets__modules__2___norm2.bias"} loc("p6.34"), %arg7: tensor<128xbf16> {mhlo.sharding = "{replicated}", ttcore.argument_type = #ttcore.argument_type<parameter>, ttcore.local_shape = #ttcore<local_shape local_shape = tensor<128xbf16>>, ttcore.shard_status = #ttcore.shard_status<presharded>, ttir.name = "L__self___decoder_up_blocks__modules__3___resnets__modules__2___norm2.weight"} loc("p7.41"), %arg8: tensor<128xbf16> {mhlo.sharding = "{replicated}", ttcore.argument_type = #ttcore.argument_type<parameter>, ttcore.local_shape = #ttcore<local_shape local_shape = tensor<128xbf16>>, ttcore.shard_status = #ttcore.shard_status<presharded>, ttir.name = "L__self___decoder_up_blocks__modules__3___resnets__modules__2___conv1.bias"} loc("p8.51"), %arg9: tensor<128x128x3x3xbf16> {mhlo.sharding = "{replicated}", ttcore.argument_type = #ttcore.argument_type<parameter>, ttcore.local_shape = #ttcore<local_shape local_shape = tensor<128x128x3x3xbf16>>, ttcore.shard_status = #ttcore.shard_status<presharded>, ttir.name = "L__self___decoder_up_blocks__modules__3___resnets__modules__2___conv1.weight"} loc("p9.55"), %arg10: tensor<128xbf16> {mhlo.sharding = "{replicated}", ttcore.argument_type = #ttcore.argument_type<parameter>, ttcore.local_shape = #ttcore<local_shape local_shape = tensor<128xbf16>>, ttcore.shard_status = #ttcore.shard_status<presharded>, ttir.name = "L__self___decoder_up_blocks__modules__3___resnets__modules__2___norm1.bias"} loc("p10.58"), %arg11: tensor<128xbf16> {mhlo.sharding = "{replicated}", ttcore.argument_type = #ttcore.argument_type<parameter>, ttcore.local_shape = #ttcore<local_shape local_shape = tensor<128xbf16>>, ttcore.shard_status = #ttcore.shard_status<presharded>, ttir.name = "L__self___decoder_up_blocks__modules__3___resnets__modules__2___norm1.weight"} loc("p11.65"), %arg12: tensor<128xbf16> {mhlo.sharding = "{replicated}", ttcore.argument_type = #ttcore.argument_type<parameter>, ttcore.local_shape = #ttcore<local_shape local_shape = tensor<128xbf16>>, ttcore.shard_status = #ttcore.shard_status<presharded>, ttir.name = "L__self___decoder_up_blocks__modules__3___resnets__modules__1___conv2.bias"} loc("p12.77"), %arg13: tensor<128x128x3x3xbf16> {mhlo.sharding = "{replicated}", ttcore.argument_type = #ttcore.argument_type<parameter>, ttcore.local_shape = #ttcore<local_shape local_shape = tensor<128x128x3x3xbf16>>, ttcore.shard_status = #ttcore.shard_status<presharded>, ttir.name = "L__self___decoder_up_blocks__modules__3___resnets__modules__1___conv2.weight"} loc("p13.81"), %arg14: tensor<128xbf16> {mhlo.sharding = "{replicated}", ttcore.argument_type = #ttcore.argument_type<parameter>, ttcore.local_shape = #ttcore<local_shape local_shape = tensor<128xbf16>>, ttcore.shard_status = #ttcore.shard_status<presharded>, ttir.name = "L__self___decoder_up_blocks__modules__3___resnets__modules__1___norm2.bias"} loc("p14.84"), %arg15: tensor<128xbf16> {mhlo.sharding = "{replicated}", ttcore.argument_type = #ttcore.argument_type<parameter>, ttcore.local_shape = #ttcore<local_shape local_shape = tensor<128xbf16>>, ttcore.shard_status = #ttcore.shard_status<presharded>, ttir.name = "L__self___decoder_up_blocks__modules__3___resnets__modules__1___norm2.weight"} loc("p15.91"), %arg16: tensor<128xbf16> {mhlo.sharding = "{replicated}", ttcore.argument_type = #ttcore.argument_type<parameter>, ttcore.local_shape = #ttcore<local_shape local_shape = tensor<128xbf16>>, ttcore.shard_status = #ttcore.shard_status<presharded>, ttir.name = "L__self___decoder_up_blocks__modules__3___resnets__modules__1___conv1.bias"} loc("p16.101"), %arg17: tensor<128x128x3x3xbf16> {mhlo.sharding = "{replicated}", ttcore.argument_type = #ttcore.argument_type<parameter>, ttcore.local_shape = #ttcore<local_shape local_shape = tensor<128x128x3x3xbf16>>, ttcore.shard_status = #ttcore.shard_status<presharded>, ttir.name = "L__self___decoder_up_blocks__modules__3___resnets__modules__1___conv1.weight"} loc("p17.105"), %arg18: tensor<128xbf16> {mhlo.sharding = "{replicated}", ttcore.argument_type = #ttcore.argument_type<parameter>, ttcore.local_shape = #ttcore<local_shape local_shape = tensor<128xbf16>>, ttcore.shard_status = #ttcore.shard_status<presharded>, ttir.name = "L__self___decoder_up_blocks__modules__3___resnets__modules__1___norm1.bias"} loc("p18.108"), %arg19: tensor<128xbf16> {mhlo.sharding = "{replicated}", ttcore.argument_type = #ttcore.argument_type<parameter>, ttcore.local_shape = #ttcore<local_shape local_shape = tensor<128xbf16>>, ttcore.shard_status = #ttcore.shard_status<presharded>, ttir.name = "L__self___decoder_up_blocks__modules__3___resnets__modules__1___norm1.weight"} loc("p19.115"), %arg20: tensor<128xbf16> {mhlo.sharding = "{replicated}", ttcore.argument_type = #ttcore.argument_type<parameter>, ttcore.local_shape = #ttcore<local_shape local_shape = tensor<128xbf16>>, ttcore.shard_status = #ttcore.shard_status<presharded>, ttir.name = "L__self___decoder_up_blocks__modules__3___resnets__modules__0___conv2.bias"} loc("p20.127"), %arg21: tensor<128x128x3x3xbf16> {mhlo.sharding = "{replicated}", ttcore.argument_type = #ttcore.argument_type<parameter>, ttcore.local_shape = #ttcore<local_shape local_shape = tensor<128x128x3x3xbf16>>, ttcore.shard_status = #ttcore.shard_status<presharded>, ttir.name = "L__self___decoder_up_blocks__modules__3___resnets__modules__0___conv2.weight"} loc("p21.131"), %arg22: tensor<128xbf16> {mhlo.sharding = "{replicated}", ttcore.argument_type = #ttcore.argument_type<parameter>, ttcore.local_shape = #ttcore<local_shape local_shape = tensor<128xbf16>>, ttcore.shard_status = #ttcore.shard_status<presharded>, ttir.name = "L__self___decoder_up_blocks__modules__3___resnets__modules__0___norm2.bias"} loc("p22.134"), %arg23: tensor<128xbf16> {mhlo.sharding = "{replicated}", ttcore.argument_type = #ttcore.argument_type<parameter>, ttcore.local_shape = #ttcore<local_shape local_shape = tensor<128xbf16>>, ttcore.shard_status = #ttcore.shard_status<presharded>, ttir.name = "L__self___decoder_up_blocks__modules__3___resnets__modules__0___norm2.weight"} loc("p23.141"), %arg24: tensor<128xbf16> {mhlo.sharding = "{replicated}", ttcore.argument_type = #ttcore.argument_type<parameter>, ttcore.local_shape = #ttcore<local_shape local_shape = tensor<128xbf16>>, ttcore.shard_status = #ttcore.shard_status<presharded>, ttir.name = "L__self___decoder_up_blocks__modules__3___resnets__modules__0___conv1.bias"} loc("p24.151"), %arg25: tensor<128x256x3x3xbf16> {mhlo.sharding = "{replicated}", ttcore.argument_type = #ttcore.argument_type<parameter>, ttcore.local_shape = #ttcore<local_shape local_shape = tensor<128x256x3x3xbf16>>, ttcore.shard_status = #ttcore.shard_status<presharded>, ttir.name = "L__self___decoder_up_blocks__modules__3___resnets__modules__0___conv1.weight"} loc("p25.155"), %arg26: tensor<256xbf16> {mhlo.sharding = "{replicated}", ttcore.argument_type = #ttcore.argument_type<parameter>, ttcore.local_shape = #ttcore<local_shape local_shape = tensor<256xbf16>>, ttcore.shard_status = #ttcore.shard_status<presharded>, ttir.name = "L__self___decoder_up_blocks__modules__3___resnets__modules__0___norm1.bias"} loc("p26.158"), %arg27: tensor<256xbf16> {mhlo.sharding = "{replicated}", ttcore.argument_type = #ttcore.argument_type<parameter>, ttcore.local_shape = #ttcore<local_shape local_shape = tensor<256xbf16>>, ttcore.shard_status = #ttcore.shard_status<presharded>, ttir.name = "L__self___decoder_up_blocks__modules__3___resnets__modules__0___norm1.weight"} loc("p27.165"), %arg28: tensor<256xbf16> {mhlo.sharding = "{replicated}", ttcore.argument_type = #ttcore.argument_type<parameter>, ttcore.local_shape = #ttcore<local_shape local_shape = tensor<256xbf16>>, ttcore.shard_status = #ttcore.shard_status<presharded>, ttir.name = "L__self___decoder_up_blocks__modules__2___upsamplers__modules__0___conv.bias"} loc("p28.175"), %arg29: tensor<256x256x3x3xbf16> {mhlo.sharding = "{replicated}", ttcore.argument_type = #ttcore.argument_type<parameter>, ttcore.local_shape = #ttcore<local_shape local_shape = tensor<256x256x3x3xbf16>>, ttcore.shard_status = #ttcore.shard_status<presharded>, ttir.name = "L__self___decoder_up_blocks__modules__2___upsamplers__modules__0___conv.weight"} loc("p29.179"), %arg30: tensor<256xbf16> {mhlo.sharding = "{replicated}", ttcore.argument_type = #ttcore.argument_type<parameter>, ttcore.local_shape = #ttcore<local_shape local_shape = tensor<256xbf16>>, ttcore.shard_status = #ttcore.shard_status<presharded>, ttir.name = "L__self___decoder_up_blocks__modules__2___resnets__modules__2___conv2.bias"} loc("p30.213"), %arg31: tensor<256x256x3x3xbf16> {mhlo.sharding = "{replicated}", ttcore.argument_type = #ttcore.argument_type<parameter>, ttcore.local_shape = #ttcore<local_shape local_shape = tensor<256x256x3x3xbf16>>, ttcore.shard_status = #ttcore.shard_status<presharded>, ttir.name = "L__self___decoder_up_blocks__modules__2___resnets__modules__2___conv2.weight"} loc("p31.217"), %arg32: tensor<256xbf16> {mhlo.sharding = "{replicated}", ttcore.argument_type = #ttcore.argument_type<parameter>, ttcore.local_shape = #ttcore<local_shape local_shape = tensor<256xbf16>>, ttcore.shard_status = #ttcore.shard_status<presharded>, ttir.name = "L__self___decoder_up_blocks__modules__2___resnets__modules__2___norm2.bias"} loc("p32.220"), %arg33: tensor<256xbf16> {mhlo.sharding = "{replicated}", ttcore.argument_type = #ttcore.argument_type<parameter>, ttcore.local_shape = #ttcore<local_shape local_shape = tensor<256xbf16>>, ttcore.shard_status = #ttcore.shard_status<presharded>, ttir.name = "L__self___decoder_up_blocks__modules__2___resnets__modules__2___norm2.weight"} loc("p33.227"), %arg34: tensor<256xbf16> {mhlo.sharding = "{replicated}", ttcore.argument_type = #ttcore.argument_type<parameter>, ttcore.local_shape = #ttcore<local_shape local_shape = tensor<256xbf16>>, ttcore.shard_status = #ttcore.shard_status<presharded>, ttir.name = "L__self___decoder_up_blocks__modules__2___resnets__modules__2___conv1.bias"} loc("p34.237"), %arg35: tensor<256x256x3x3xbf16> {mhlo.sharding = "{replicated}", ttcore.argument_type = #ttcore.argument_type<parameter>, ttcore.local_shape = #ttcore<local_shape local_shape = tensor<256x256x3x3xbf16>>, ttcore.shard_status = #ttcore.shard_status<presharded>, ttir.name = "L__self___decoder_up_blocks__modules__2___resnets__modules__2___conv1.weight"} loc("p35.241"), %arg36: tensor<256xbf16> {mhlo.sharding = "{replicated}", ttcore.argument_type = #ttcore.argument_type<parameter>, ttcore.local_shape = #ttcore<local_shape local_shape = tensor<256xbf16>>, ttcore.shard_status = #ttcore.shard_status<presharded>, ttir.name = "L__self___decoder_up_blocks__modules__2___resnets__modules__2___norm1.bias"} loc("p36.244"), %arg37: tensor<256xbf16> {mhlo.sharding = "{replicated}", ttcore.argument_type = #ttcore.argument_type<parameter>, ttcore.local_shape = #ttcore<local_shape local_shape = tensor<256xbf16>>, ttcore.shard_status = #ttcore.shard_status<presharded>, ttir.name = "L__self___decoder_up_blocks__modules__2___resnets__modules__2___norm1.weight"} loc("p37.251"), %arg38: tensor<256xbf16> {mhlo.sharding = "{replicated}", ttcore.argument_type = #ttcore.argument_type<parameter>, ttcore.local_shape = #ttcore<local_shape local_shape = tensor<256xbf16>>, ttcore.shard_status = #ttcore.shard_status<presharded>, ttir.name = "L__self___decoder_up_blocks__modules__2___resnets__modules__1___conv2.bias"} loc("p38.263"), %arg39: tensor<256x256x3x3xbf16> {mhlo.sharding = "{replicated}", ttcore.argument_type = #ttcore.argument_type<parameter>, ttcore.local_shape = #ttcore<local_shape local_shape = tensor<256x256x3x3xbf16>>, ttcore.shard_status = #ttcore.shard_status<presharded>, ttir.name = "L__self___decoder_up_blocks__modules__2___resnets__modules__1___conv2.weight"} loc("p39.267"), %arg40: tensor<256xbf16> {mhlo.sharding = "{replicated}", ttcore.argument_type = #ttcore.argument_type<parameter>, ttcore.local_shape = #ttcore<local_shape local_shape = tensor<256xbf16>>, ttcore.shard_status = #ttcore.shard_status<presharded>, ttir.name = "L__self___decoder_up_blocks__modules__2___resnets__modules__1___norm2.bias"} loc("p40.270"), %arg41: tensor<256xbf16> {mhlo.sharding = "{replicated}", ttcore.argument_type = #ttcore.argument_type<parameter>, ttcore.local_shape = #ttcore<local_shape local_shape = tensor<256xbf16>>, ttcore.shard_status = #ttcore.shard_status<presharded>, ttir.name = "L__self___decoder_up_blocks__modules__2___resnets__modules__1___norm2.weight"} loc("p41.277"), %arg42: tensor<256xbf16> {mhlo.sharding = "{replicated}", ttcore.argument_type = #ttcore.argument_type<parameter>, ttcore.local_shape = #ttcore<local_shape local_shape = tensor<256xbf16>>, ttcore.shard_status = #ttcore.shard_status<presharded>, ttir.name = "L__self___decoder_up_blocks__modules__2___resnets__modules__1___conv1.bias"} loc("p42.287"), %arg43: tensor<256x256x3x3xbf16> {mhlo.sharding = "{replicated}", ttcore.argument_type = #ttcore.argument_type<parameter>, ttcore.local_shape = #ttcore<local_shape local_shape = tensor<256x256x3x3xbf16>>, ttcore.shard_status = #ttcore.shard_status<presharded>, ttir.name = "L__self___decoder_up_blocks__modules__2___resnets__modules__1___conv1.weight"} loc("p43.291"), %arg44: tensor<256xbf16> {mhlo.sharding = "{replicated}", ttcore.argument_type = #ttcore.argument_type<parameter>, ttcore.local_shape = #ttcore<local_shape local_shape = tensor<256xbf16>>, ttcore.shard_status = #ttcore.shard_status<presharded>, ttir.name = "L__self___decoder_up_blocks__modules__2___resnets__modules__1___norm1.bias"} loc("p44.294"), %arg45: tensor<256xbf16> {mhlo.sharding = "{replicated}", ttcore.argument_type = #ttcore.argument_type<parameter>, ttcore.local_shape = #ttcore<local_shape local_shape = tensor<256xbf16>>, ttcore.shard_status = #ttcore.shard_status<presharded>, ttir.name = "L__self___decoder_up_blocks__modules__2___resnets__modules__1___norm1.weight"} loc("p45.301"), %arg46: tensor<256xbf16> {mhlo.sharding = "{replicated}", ttcore.argument_type = #ttcore.argument_type<parameter>, ttcore.local_shape = #ttcore<local_shape local_shape = tensor<256xbf16>>, ttcore.shard_status = #ttcore.shard_status<presharded>, ttir.name = "L__self___decoder_up_blocks__modules__2___resnets__modules__0___conv2.bias"} loc("p46.313"), %arg47: tensor<256x256x3x3xbf16> {mhlo.sharding = "{replicated}", ttcore.argument_type = #ttcore.argument_type<parameter>, ttcore.local_shape = #ttcore<local_shape local_shape = tensor<256x256x3x3xbf16>>, ttcore.shard_status = #ttcore.shard_status<presharded>, ttir.name = "L__self___decoder_up_blocks__modules__2___resnets__modules__0___conv2.weight"} loc("p47.317"), %arg48: tensor<256xbf16> {mhlo.sharding = "{replicated}", ttcore.argument_type = #ttcore.argument_type<parameter>, ttcore.local_shape = #ttcore<local_shape local_shape = tensor<256xbf16>>, ttcore.shard_status = #ttcore.shard_status<presharded>, ttir.name = "L__self___decoder_up_blocks__modules__2___resnets__modules__0___norm2.bias"} loc("p48.320"), %arg49: tensor<256xbf16> {mhlo.sharding = "{replicated}", ttcore.argument_type = #ttcore.argument_type<parameter>, ttcore.local_shape = #ttcore<local_shape local_shape = tensor<256xbf16>>, ttcore.shard_status = #ttcore.shard_status<presharded>, ttir.name = "L__self___decoder_up_blocks__modules__2___resnets__modules__0___norm2.weight"} loc("p49.327"), %arg50: tensor<256xbf16> {mhlo.sharding = "{replicated}", ttcore.argument_type = #ttcore.argument_type<parameter>, ttcore.local_shape = #ttcore<local_shape local_shape = tensor<256xbf16>>, ttcore.shard_status = #ttcore.shard_status<presharded>, ttir.name = "L__self___decoder_up_blocks__modules__2___resnets__modules__0___conv1.bias"} loc("p50.337"), %arg51: tensor<256x512x3x3xbf16> {mhlo.sharding = "{replicated}", ttcore.argument_type = #ttcore.argument_type<parameter>, ttcore.local_shape = #ttcore<local_shape local_shape = tensor<256x512x3x3xbf16>>, ttcore.shard_status = #ttcore.shard_status<presharded>, ttir.name = "L__self___decoder_up_blocks__modules__2___resnets__modules__0___conv1.weight"} loc("p51.341"), %arg52: tensor<512xbf16> {mhlo.sharding = "{replicated}", ttcore.argument_type = #ttcore.argument_type<parameter>, ttcore.local_shape = #ttcore<local_shape local_shape = tensor<512xbf16>>, ttcore.shard_status = #ttcore.shard_status<presharded>, ttir.name = "L__self___decoder_up_blocks__modules__2___resnets__modules__0___norm1.bias"} loc("p52.344"), %arg53: tensor<512xbf16> {mhlo.sharding = "{replicated}", ttcore.argument_type = #ttcore.argument_type<parameter>, ttcore.local_shape = #ttcore<local_shape local_shape = tensor<512xbf16>>, ttcore.shard_status = #ttcore.shard_status<presharded>, ttir.name = "L__self___decoder_up_blocks__modules__2___resnets__modules__0___norm1.weight"} loc("p53.351"), %arg54: tensor<512xbf16> {mhlo.sharding = "{replicated}", ttcore.argument_type = #ttcore.argument_type<parameter>, ttcore.local_shape = #ttcore<local_shape local_shape = tensor<512xbf16>>, ttcore.shard_status = #ttcore.shard_status<presharded>, ttir.name = "L__self___decoder_up_blocks__modules__1___upsamplers__modules__0___conv.bias"} loc("p54.361"), %arg55: tensor<512x512x3x3xbf16> {mhlo.sharding = "{replicated}", ttcore.argument_type = #ttcore.argument_type<parameter>, ttcore.local_shape = #ttcore<local_shape local_shape = tensor<512x512x3x3xbf16>>, ttcore.shard_status = #ttcore.shard_status<presharded>, ttir.name = "L__self___decoder_up_blocks__modules__1___upsamplers__modules__0___conv.weight"} loc("p55.365"), %arg56: tensor<512xbf16> {mhlo.sharding = "{replicated}", ttcore.argument_type = #ttcore.argument_type<parameter>, ttcore.local_shape = #ttcore<local_shape local_shape = tensor<512xbf16>>, ttcore.shard_status = #ttcore.shard_status<presharded>, ttir.name = "L__self___decoder_up_blocks__modules__1___resnets__modules__2___conv2.bias"} loc("p56.399"), %arg57: tensor<512x512x3x3xbf16> {mhlo.sharding = "{replicated}", ttcore.argument_type = #ttcore.argument_type<parameter>, ttcore.local_shape = #ttcore<local_shape local_shape = tensor<512x512x3x3xbf16>>, ttcore.shard_status = #ttcore.shard_status<presharded>, ttir.name = "L__self___decoder_up_blocks__modules__1___resnets__modules__2___conv2.weight"} loc("p57.403"), %arg58: tensor<512xbf16> {mhlo.sharding = "{replicated}", ttcore.argument_type = #ttcore.argument_type<parameter>, ttcore.local_shape = #ttcore<local_shape local_shape = tensor<512xbf16>>, ttcore.shard_status = #ttcore.shard_status<presharded>, ttir.name = "L__self___decoder_up_blocks__modules__1___resnets__modules__2___norm2.bias"} loc("p58.406"), %arg59: tensor<512xbf16> {mhlo.sharding = "{replicated}", ttcore.argument_type = #ttcore.argument_type<parameter>, ttcore.local_shape = #ttcore<local_shape local_shape = tensor<512xbf16>>, ttcore.shard_status = #ttcore.shard_status<presharded>, ttir.name = "L__self___decoder_up_blocks__modules__1___resnets__modules__2___norm2.weight"} loc("p59.413"), %arg60: tensor<512xbf16> {mhlo.sharding = "{replicated}", ttcore.argument_type = #ttcore.argument_type<parameter>, ttcore.local_shape = #ttcore<local_shape local_shape = tensor<512xbf16>>, ttcore.shard_status = #ttcore.shard_status<presharded>, ttir.name = "L__self___decoder_up_blocks__modules__1___resnets__modules__2___conv1.bias"} loc("p60.423"), %arg61: tensor<512x512x3x3xbf16> {mhlo.sharding = "{replicated}", ttcore.argument_type = #ttcore.argument_type<parameter>, ttcore.local_shape = #ttcore<local_shape local_shape = tensor<512x512x3x3xbf16>>, ttcore.shard_status = #ttcore.shard_status<presharded>, ttir.name = "L__self___decoder_up_blocks__modules__1___resnets__modules__2___conv1.weight"} loc("p61.427"), %arg62: tensor<512xbf16> {mhlo.sharding = "{replicated}", ttcore.argument_type = #ttcore.argument_type<parameter>, ttcore.local_shape = #ttcore<local_shape local_shape = tensor<512xbf16>>, ttcore.shard_status = #ttcore.shard_status<presharded>, ttir.name = "L__self___decoder_up_blocks__modules__1___resnets__modules__2___norm1.bias"} loc("p62.430"), %arg63: tensor<512xbf16> {mhlo.sharding = "{replicated}", ttcore.argument_type = #ttcore.argument_type<parameter>, ttcore.local_shape = #ttcore<local_shape local_shape = tensor<512xbf16>>, ttcore.shard_status = #ttcore.shard_status<presharded>, ttir.name = "L__self___decoder_up_blocks__modules__1___resnets__modules__2___norm1.weight"} loc("p63.437"), %arg64: tensor<512xbf16> {mhlo.sharding = "{replicated}", ttcore.argument_type = #ttcore.argument_type<parameter>, ttcore.local_shape = #ttcore<local_shape local_shape = tensor<512xbf16>>, ttcore.shard_status = #ttcore.shard_status<presharded>, ttir.name = "L__self___decoder_up_blocks__modules__1___resnets__modules__1___conv2.bias"} loc("p64.449"), %arg65: tensor<512x512x3x3xbf16> {mhlo.sharding = "{replicated}", ttcore.argument_type = #ttcore.argument_type<parameter>, ttcore.local_shape = #ttcore<local_shape local_shape = tensor<512x512x3x3xbf16>>, ttcore.shard_status = #ttcore.shard_status<presharded>, ttir.name = "L__self___decoder_up_blocks__modules__1___resnets__modules__1___conv2.weight"} loc("p65.453"), %arg66: tensor<512xbf16> {mhlo.sharding = "{replicated}", ttcore.argument_type = #ttcore.argument_type<parameter>, ttcore.local_shape = #ttcore<local_shape local_shape = tensor<512xbf16>>, ttcore.shard_status = #ttcore.shard_status<presharded>, ttir.name = "L__self___decoder_up_blocks__modules__1___resnets__modules__1___norm2.bias"} loc("p66.456"), %arg67: tensor<512xbf16> {mhlo.sharding = "{replicated}", ttcore.argument_type = #ttcore.argument_type<parameter>, ttcore.local_shape = #ttcore<local_shape local_shape = tensor<512xbf16>>, ttcore.shard_status = #ttcore.shard_status<presharded>, ttir.name = "L__self___decoder_up_blocks__modules__1___resnets__modules__1___norm2.weight"} loc("p67.463"), %arg68: tensor<512xbf16> {mhlo.sharding = "{replicated}", ttcore.argument_type = #ttcore.argument_type<parameter>, ttcore.local_shape = #ttcore<local_shape local_shape = tensor<512xbf16>>, ttcore.shard_status = #ttcore.shard_status<presharded>, ttir.name = "L__self___decoder_up_blocks__modules__1___resnets__modules__1___conv1.bias"} loc("p68.473"), %arg69: tensor<512x512x3x3xbf16> {mhlo.sharding = "{replicated}", ttcore.argument_type = #ttcore.argument_type<parameter>, ttcore.local_shape = #ttcore<local_shape local_shape = tensor<512x512x3x3xbf16>>, ttcore.shard_status = #ttcore.shard_status<presharded>, ttir.name = "L__self___decoder_up_blocks__modules__1___resnets__modules__1___conv1.weight"} loc("p69.477"), %arg70: tensor<512xbf16> {mhlo.sharding = "{replicated}", ttcore.argument_type = #ttcore.argument_type<parameter>, ttcore.local_shape = #ttcore<local_shape local_shape = tensor<512xbf16>>, ttcore.shard_status = #ttcore.shard_status<presharded>, ttir.name = "L__self___decoder_up_blocks__modules__1___resnets__modules__1___norm1.bias"} loc("p70.480"), %arg71: tensor<512xbf16> {mhlo.sharding = "{replicated}", ttcore.argument_type = #ttcore.argument_type<parameter>, ttcore.local_shape = #ttcore<local_shape local_shape = tensor<512xbf16>>, ttcore.shard_status = #ttcore.shard_status<presharded>, ttir.name = "L__self___decoder_up_blocks__modules__1___resnets__modules__1___norm1.weight"} loc("p71.487"), %arg72: tensor<512xbf16> {mhlo.sharding = "{replicated}", ttcore.argument_type = #ttcore.argument_type<parameter>, ttcore.local_shape = #ttcore<local_shape local_shape = tensor<512xbf16>>, ttcore.shard_status = #ttcore.shard_status<presharded>, ttir.name = "L__self___decoder_up_blocks__modules__1___resnets__modules__0___conv2.bias"} loc("p72.499"), %arg73: tensor<512x512x3x3xbf16> {mhlo.sharding = "{replicated}", ttcore.argument_type = #ttcore.argument_type<parameter>, ttcore.local_shape = #ttcore<local_shape local_shape = tensor<512x512x3x3xbf16>>, ttcore.shard_status = #ttcore.shard_status<presharded>, ttir.name = "L__self___decoder_up_blocks__modules__1___resnets__modules__0___conv2.weight"} loc("p73.503"), %arg74: tensor<512xbf16> {mhlo.sharding = "{replicated}", ttcore.argument_type = #ttcore.argument_type<parameter>, ttcore.local_shape = #ttcore<local_shape local_shape = tensor<512xbf16>>, ttcore.shard_status = #ttcore.shard_status<presharded>, ttir.name = "L__self___decoder_up_blocks__modules__1___resnets__modules__0___norm2.bias"} loc("p74.506"), %arg75: tensor<512xbf16> {mhlo.sharding = "{replicated}", ttcore.argument_type = #ttcore.argument_type<parameter>, ttcore.local_shape = #ttcore<local_shape local_shape = tensor<512xbf16>>, ttcore.shard_status = #ttcore.shard_status<presharded>, ttir.name = "L__self___decoder_up_blocks__modules__1___resnets__modules__0___norm2.weight"} loc("p75.513"), %arg76: tensor<512xbf16> {mhlo.sharding = "{replicated}", ttcore.argument_type = #ttcore.argument_type<parameter>, ttcore.local_shape = #ttcore<local_shape local_shape = tensor<512xbf16>>, ttcore.shard_status = #ttcore.shard_status<presharded>, ttir.name = "L__self___decoder_up_blocks__modules__1___resnets__modules__0___conv1.bias"} loc("p76.523"), %arg77: tensor<512x512x3x3xbf16> {mhlo.sharding = "{replicated}", ttcore.argument_type = #ttcore.argument_type<parameter>, ttcore.local_shape = #ttcore<local_shape local_shape = tensor<512x512x3x3xbf16>>, ttcore.shard_status = #ttcore.shard_status<presharded>, ttir.name = "L__self___decoder_up_blocks__modules__1___resnets__modules__0___conv1.weight"} loc("p77.527"), %arg78: tensor<512xbf16> {mhlo.sharding = "{replicated}", ttcore.argument_type = #ttcore.argument_type<parameter>, ttcore.local_shape = #ttcore<local_shape local_shape = tensor<512xbf16>>, ttcore.shard_status = #ttcore.shard_status<presharded>, ttir.name = "L__self___decoder_up_blocks__modules__1___resnets__modules__0___norm1.bias"} loc("p78.530"), %arg79: tensor<512xbf16> {mhlo.sharding = "{replicated}", ttcore.argument_type = #ttcore.argument_type<parameter>, ttcore.local_shape = #ttcore<local_shape local_shape = tensor<512xbf16>>, ttcore.shard_status = #ttcore.shard_status<presharded>, ttir.name = "L__self___decoder_up_blocks__modules__1___resnets__modules__0___norm1.weight"} loc("p79.537"), %arg80: tensor<512xbf16> {mhlo.sharding = "{replicated}", ttcore.argument_type = #ttcore.argument_type<parameter>, ttcore.local_shape = #ttcore<local_shape local_shape = tensor<512xbf16>>, ttcore.shard_status = #ttcore.shard_status<presharded>, ttir.name = "L__self___decoder_up_blocks__modules__0___upsamplers__modules__0___conv.bias"} loc("p80.547"), %arg81: tensor<512x512x3x3xbf16> {mhlo.sharding = "{replicated}", ttcore.argument_type = #ttcore.argument_type<parameter>, ttcore.local_shape = #ttcore<local_shape local_shape = tensor<512x512x3x3xbf16>>, ttcore.shard_status = #ttcore.shard_status<presharded>, ttir.name = "L__self___decoder_up_blocks__modules__0___upsamplers__modules__0___conv.weight"} loc("p81.551"), %arg82: tensor<512xbf16> {mhlo.sharding = "{replicated}", ttcore.argument_type = #ttcore.argument_type<parameter>, ttcore.local_shape = #ttcore<local_shape local_shape = tensor<512xbf16>>, ttcore.shard_status = #ttcore.shard_status<presharded>, ttir.name = "L__self___decoder_up_blocks__modules__0___resnets__modules__2___conv2.bias"} loc("p82.585"), %arg83: tensor<512x512x3x3xbf16> {mhlo.sharding = "{replicated}", ttcore.argument_type = #ttcore.argument_type<parameter>, ttcore.local_shape = #ttcore<local_shape local_shape = tensor<512x512x3x3xbf16>>, ttcore.shard_status = #ttcore.shard_status<presharded>, ttir.name = "L__self___decoder_up_blocks__modules__0___resnets__modules__2___conv2.weight"} loc("p83.589"), %arg84: tensor<512xbf16> {mhlo.sharding = "{replicated}", ttcore.argument_type = #ttcore.argument_type<parameter>, ttcore.local_shape = #ttcore<local_shape local_shape = tensor<512xbf16>>, ttcore.shard_status = #ttcore.shard_status<presharded>, ttir.name = "L__self___decoder_up_blocks__modules__0___resnets__modules__2___norm2.bias"} loc("p84.592"), %arg85: tensor<512xbf16> {mhlo.sharding = "{replicated}", ttcore.argument_type = #ttcore.argument_type<parameter>, ttcore.local_shape = #ttcore<local_shape local_shape = tensor<512xbf16>>, ttcore.shard_status = #ttcore.shard_status<presharded>, ttir.name = "L__self___decoder_up_blocks__modules__0___resnets__modules__2___norm2.weight"} loc("p85.599"), %arg86: tensor<512xbf16> {mhlo.sharding = "{replicated}", ttcore.argument_type = #ttcore.argument_type<parameter>, ttcore.local_shape = #ttcore<local_shape local_shape = tensor<512xbf16>>, ttcore.shard_status = #ttcore.shard_status<presharded>, ttir.name = "L__self___decoder_up_blocks__modules__0___resnets__modules__2___conv1.bias"} loc("p86.609"), %arg87: tensor<512x512x3x3xbf16> {mhlo.sharding = "{replicated}", ttcore.argument_type = #ttcore.argument_type<parameter>, ttcore.local_shape = #ttcore<local_shape local_shape = tensor<512x512x3x3xbf16>>, ttcore.shard_status = #ttcore.shard_status<presharded>, ttir.name = "L__self___decoder_up_blocks__modules__0___resnets__modules__2___conv1.weight"} loc("p87.613"), %arg88: tensor<512xbf16> {mhlo.sharding = "{replicated}", ttcore.argument_type = #ttcore.argument_type<parameter>, ttcore.local_shape = #ttcore<local_shape local_shape = tensor<512xbf16>>, ttcore.shard_status = #ttcore.shard_status<presharded>, ttir.name = "L__self___decoder_up_blocks__modules__0___resnets__modules__2___norm1.bias"} loc("p88.616"), %arg89: tensor<512xbf16> {mhlo.sharding = "{replicated}", ttcore.argument_type = #ttcore.argument_type<parameter>, ttcore.local_shape = #ttcore<local_shape local_shape = tensor<512xbf16>>, ttcore.shard_status = #ttcore.shard_status<presharded>, ttir.name = "L__self___decoder_up_blocks__modules__0___resnets__modules__2___norm1.weight"} loc("p89.623"), %arg90: tensor<512xbf16> {mhlo.sharding = "{replicated}", ttcore.argument_type = #ttcore.argument_type<parameter>, ttcore.local_shape = #ttcore<local_shape local_shape = tensor<512xbf16>>, ttcore.shard_status = #ttcore.shard_status<presharded>, ttir.name = "L__self___decoder_up_blocks__modules__0___resnets__modules__1___conv2.bias"} loc("p90.635"), %arg91: tensor<512x512x3x3xbf16> {mhlo.sharding = "{replicated}", ttcore.argument_type = #ttcore.argument_type<parameter>, ttcore.local_shape = #ttcore<local_shape local_shape = tensor<512x512x3x3xbf16>>, ttcore.shard_status = #ttcore.shard_status<presharded>, ttir.name = "L__self___decoder_up_blocks__modules__0___resnets__modules__1___conv2.weight"} loc("p91.639"), %arg92: tensor<512xbf16> {mhlo.sharding = "{replicated}", ttcore.argument_type = #ttcore.argument_type<parameter>, ttcore.local_shape = #ttcore<local_shape local_shape = tensor<512xbf16>>, ttcore.shard_status = #ttcore.shard_status<presharded>, ttir.name = "L__self___decoder_up_blocks__modules__0___resnets__modules__1___norm2.bias"} loc("p92.642"), %arg93: tensor<512xbf16> {mhlo.sharding = "{replicated}", ttcore.argument_type = #ttcore.argument_type<parameter>, ttcore.local_shape = #ttcore<local_shape local_shape = tensor<512xbf16>>, ttcore.shard_status = #ttcore.shard_status<presharded>, ttir.name = "L__self___decoder_up_blocks__modules__0___resnets__modules__1___norm2.weight"} loc("p93.649"), %arg94: tensor<512xbf16> {mhlo.sharding = "{replicated}", ttcore.argument_type = #ttcore.argument_type<parameter>, ttcore.local_shape = #ttcore<local_shape local_shape = tensor<512xbf16>>, ttcore.shard_status = #ttcore.shard_status<presharded>, ttir.name = "L__self___decoder_up_blocks__modules__0___resnets__modules__1___conv1.bias"} loc("p94.659"), %arg95: tensor<512x512x3x3xbf16> {mhlo.sharding = "{replicated}", ttcore.argument_type = #ttcore.argument_type<parameter>, ttcore.local_shape = #ttcore<local_shape local_shape = tensor<512x512x3x3xbf16>>, ttcore.shard_status = #ttcore.shard_status<presharded>, ttir.name = "L__self___decoder_up_blocks__modules__0___resnets__modules__1___conv1.weight"} loc("p95.663"), %arg96: tensor<512xbf16> {mhlo.sharding = "{replicated}", ttcore.argument_type = #ttcore.argument_type<parameter>, ttcore.local_shape = #ttcore<local_shape local_shape = tensor<512xbf16>>, ttcore.shard_status = #ttcore.shard_status<presharded>, ttir.name = "L__self___decoder_up_blocks__modules__0___resnets__modules__1___norm1.bias"} loc("p96.666"), %arg97: tensor<512xbf16> {mhlo.sharding = "{replicated}", ttcore.argument_type = #ttcore.argument_type<parameter>, ttcore.local_shape = #ttcore<local_shape local_shape = tensor<512xbf16>>, ttcore.shard_status = #ttcore.shard_status<presharded>, ttir.name = "L__self___decoder_up_blocks__modules__0___resnets__modules__1___norm1.weight"} loc("p97.673"), %arg98: tensor<512xbf16> {mhlo.sharding = "{replicated}", ttcore.argument_type = #ttcore.argument_type<parameter>, ttcore.local_shape = #ttcore<local_shape local_shape = tensor<512xbf16>>, ttcore.shard_status = #ttcore.shard_status<presharded>, ttir.name = "L__self___decoder_up_blocks__modules__0___resnets__modules__0___conv2.bias"} loc("p98.685"), %arg99: tensor<512x512x3x3xbf16> {mhlo.sharding = "{replicated}", ttcore.argument_type = #ttcore.argument_type<parameter>, ttcore.local_shape = #ttcore<local_shape local_shape = tensor<512x512x3x3xbf16>>, ttcore.shard_status = #ttcore.shard_status<presharded>, ttir.name = "L__self___decoder_up_blocks__modules__0___resnets__modules__0___conv2.weight"} loc("p99.689"), %arg100: tensor<512xbf16> {mhlo.sharding = "{replicated}", ttcore.argument_type = #ttcore.argument_type<parameter>, ttcore.local_shape = #ttcore<local_shape local_shape = tensor<512xbf16>>, ttcore.shard_status = #ttcore.shard_status<presharded>, ttir.name = "L__self___decoder_up_blocks__modules__0___resnets__modules__0___norm2.bias"} loc("p100.692"), %arg101: tensor<512xbf16> {mhlo.sharding = "{replicated}", ttcore.argument_type = #ttcore.argument_type<parameter>, ttcore.local_shape = #ttcore<local_shape local_shape = tensor<512xbf16>>, ttcore.shard_status = #ttcore.shard_status<presharded>, ttir.name = "L__self___decoder_up_blocks__modules__0___resnets__modules__0___norm2.weight"} loc("p101.699"), %arg102: tensor<512xbf16> {mhlo.sharding = "{replicated}", ttcore.argument_type = #ttcore.argument_type<parameter>, ttcore.local_shape = #ttcore<local_shape local_shape = tensor<512xbf16>>, ttcore.shard_status = #ttcore.shard_status<presharded>, ttir.name = "L__self___decoder_up_blocks__modules__0___resnets__modules__0___conv1.bias"} loc("p102.709"), %arg103: tensor<512x512x3x3xbf16> {mhlo.sharding = "{replicated}", ttcore.argument_type = #ttcore.argument_type<parameter>, ttcore.local_shape = #ttcore<local_shape local_shape = tensor<512x512x3x3xbf16>>, ttcore.shard_status = #ttcore.shard_status<presharded>, ttir.name = "L__self___decoder_up_blocks__modules__0___resnets__modules__0___conv1.weight"} loc("p103.713"), %arg104: tensor<512xbf16> {mhlo.sharding = "{replicated}", ttcore.argument_type = #ttcore.argument_type<parameter>, ttcore.local_shape = #ttcore<local_shape local_shape = tensor<512xbf16>>, ttcore.shard_status = #ttcore.shard_status<presharded>, ttir.name = "L__self___decoder_up_blocks__modules__0___resnets__modules__0___norm1.bias"} loc("p104.716"), %arg105: tensor<512xbf16> {mhlo.sharding = "{replicated}", ttcore.argument_type = #ttcore.argument_type<parameter>, ttcore.local_shape = #ttcore<local_shape local_shape = tensor<512xbf16>>, ttcore.shard_status = #ttcore.shard_status<presharded>, ttir.name = "L__self___decoder_up_blocks__modules__0___resnets__modules__0___norm1.weight"} loc("p105.723"), %arg106: tensor<512xbf16> {mhlo.sharding = "{replicated}", ttcore.argument_type = #ttcore.argument_type<parameter>, ttcore.local_shape = #ttcore<local_shape local_shape = tensor<512xbf16>>, ttcore.shard_status = #ttcore.shard_status<presharded>, ttir.name = "L__self___decoder_mid_block_resnets__modules__1___conv2.bias"} loc("p106.735"), %arg107: tensor<512x512x3x3xbf16> {mhlo.sharding = "{replicated}", ttcore.argument_type = #ttcore.argument_type<parameter>, ttcore.local_shape = #ttcore<local_shape local_shape = tensor<512x512x3x3xbf16>>, ttcore.shard_status = #ttcore.shard_status<presharded>, ttir.name = "L__self___decoder_mid_block_resnets__modules__1___conv2.weight"} loc("p107.739"), %arg108: tensor<512xbf16> {mhlo.sharding = "{replicated}", ttcore.argument_type = #ttcore.argument_type<parameter>, ttcore.local_shape = #ttcore<local_shape local_shape = tensor<512xbf16>>, ttcore.shard_status = #ttcore.shard_status<presharded>, ttir.name = "L__self___decoder_mid_block_resnets__modules__1___norm2.bias"} loc("p108.742"), %arg109: tensor<512xbf16> {mhlo.sharding = "{replicated}", ttcore.argument_type = #ttcore.argument_type<parameter>, ttcore.local_shape = #ttcore<local_shape local_shape = tensor<512xbf16>>, ttcore.shard_status = #ttcore.shard_status<presharded>, ttir.name = "L__self___decoder_mid_block_resnets__modules__1___norm2.weight"} loc("p109.749"), %arg110: tensor<512xbf16> {mhlo.sharding = "{replicated}", ttcore.argument_type = #ttcore.argument_type<parameter>, ttcore.local_shape = #ttcore<local_shape local_shape = tensor<512xbf16>>, ttcore.shard_status = #ttcore.shard_status<presharded>, ttir.name = "L__self___decoder_mid_block_resnets__modules__1___conv1.bias"} loc("p110.759"), %arg111: tensor<512x512x3x3xbf16> {mhlo.sharding = "{replicated}", ttcore.argument_type = #ttcore.argument_type<parameter>, ttcore.local_shape = #ttcore<local_shape local_shape = tensor<512x512x3x3xbf16>>, ttcore.shard_status = #ttcore.shard_status<presharded>, ttir.name = "L__self___decoder_mid_block_resnets__modules__1___conv1.weight"} loc("p111.763"), %arg112: tensor<512xbf16> {mhlo.sharding = "{replicated}", ttcore.argument_type = #ttcore.argument_type<parameter>, ttcore.local_shape = #ttcore<local_shape local_shape = tensor<512xbf16>>, ttcore.shard_status = #ttcore.shard_status<presharded>, ttir.name = "L__self___decoder_mid_block_resnets__modules__1___norm1.bias"} loc("p112.766"), %arg113: tensor<512xbf16> {mhlo.sharding = "{replicated}", ttcore.argument_type = #ttcore.argument_type<parameter>, ttcore.local_shape = #ttcore<local_shape local_shape = tensor<512xbf16>>, ttcore.shard_status = #ttcore.shard_status<presharded>, ttir.name = "L__self___decoder_mid_block_resnets__modules__1___norm1.weight"} loc("p113.773"), %arg114: tensor<512xbf16> {mhlo.sharding = "{replicated}", ttcore.argument_type = #ttcore.argument_type<parameter>, ttcore.local_shape = #ttcore<local_shape local_shape = tensor<512xbf16>>, ttcore.shard_status = #ttcore.shard_status<presharded>, ttir.name = "L__self___decoder_mid_block_resnets__modules__0___conv2.bias"} loc("p114.787"), %arg115: tensor<512x512x3x3xbf16> {mhlo.sharding = "{replicated}", ttcore.argument_type = #ttcore.argument_type<parameter>, ttcore.local_shape = #ttcore<local_shape local_shape = tensor<512x512x3x3xbf16>>, ttcore.shard_status = #ttcore.shard_status<presharded>, ttir.name = "L__self___decoder_mid_block_resnets__modules__0___conv2.weight"} loc("p115.791"), %arg116: tensor<512xbf16> {mhlo.sharding = "{replicated}", ttcore.argument_type = #ttcore.argument_type<parameter>, ttcore.local_shape = #ttcore<local_shape local_shape = tensor<512xbf16>>, ttcore.shard_status = #ttcore.shard_status<presharded>, ttir.name = "L__self___decoder_mid_block_resnets__modules__0___norm2.bias"} loc("p116.794"), %arg117: tensor<512xbf16> {mhlo.sharding = "{replicated}", ttcore.argument_type = #ttcore.argument_type<parameter>, ttcore.local_shape = #ttcore<local_shape local_shape = tensor<512xbf16>>, ttcore.shard_status = #ttcore.shard_status<presharded>, ttir.name = "L__self___decoder_mid_block_resnets__modules__0___norm2.weight"} loc("p117.801"), %arg118: tensor<512xbf16> {mhlo.sharding = "{replicated}", ttcore.argument_type = #ttcore.argument_type<parameter>, ttcore.local_shape = #ttcore<local_shape local_shape = tensor<512xbf16>>, ttcore.shard_status = #ttcore.shard_status<presharded>, ttir.name = "L__self___decoder_mid_block_resnets__modules__0___conv1.bias"} loc("p118.811"), %arg119: tensor<512x512x3x3xbf16> {mhlo.sharding = "{replicated}", ttcore.argument_type = #ttcore.argument_type<parameter>, ttcore.local_shape = #ttcore<local_shape local_shape = tensor<512x512x3x3xbf16>>, ttcore.shard_status = #ttcore.shard_status<presharded>, ttir.name = "L__self___decoder_mid_block_resnets__modules__0___conv1.weight"} loc("p119.815"), %arg120: tensor<512xbf16> {mhlo.sharding = "{replicated}", ttcore.argument_type = #ttcore.argument_type<parameter>, ttcore.local_shape = #ttcore<local_shape local_shape = tensor<512xbf16>>, ttcore.shard_status = #ttcore.shard_status<presharded>, ttir.name = "L__self___decoder_mid_block_resnets__modules__0___norm1.bias"} loc("p120.818"), %arg121: tensor<512xbf16> {mhlo.sharding = "{replicated}", ttcore.argument_type = #ttcore.argument_type<parameter>, ttcore.local_shape = #ttcore<local_shape local_shape = tensor<512xbf16>>, ttcore.shard_status = #ttcore.shard_status<presharded>, ttir.name = "L__self___decoder_mid_block_resnets__modules__0___norm1.weight"} loc("p121.825"), %arg122: tensor<512xbf16> {mhlo.sharding = "{replicated}", ttcore.argument_type = #ttcore.argument_type<parameter>, ttcore.local_shape = #ttcore<local_shape local_shape = tensor<512xbf16>>, ttcore.shard_status = #ttcore.shard_status<presharded>, ttir.name = "decoder.conv_in.bias"} loc("p122.835"), %arg123: tensor<512x16x3x3xbf16> {mhlo.sharding = "{replicated}", ttcore.argument_type = #ttcore.argument_type<parameter>, ttcore.local_shape = #ttcore<local_shape local_shape = tensor<512x16x3x3xbf16>>, ttcore.shard_status = #ttcore.shard_status<presharded>, ttir.name = "decoder.conv_in.weight"} loc("p123.839"), %arg124: tensor<1x16x64x64xbf16> {mhlo.sharding = "{replicated}", ttcore.argument_type = #ttcore.argument_type<input>, ttcore.local_shape = #ttcore<local_shape local_shape = tensor<1x16x64x64xbf16>>, ttcore.shard_status = #ttcore.shard_status<presharded>, ttir.name = "args_0"} loc("p124.841"), %arg125: tensor<512xbf16> {mhlo.sharding = "{replicated}", ttcore.argument_type = #ttcore.argument_type<parameter>, ttcore.local_shape = #ttcore<local_shape local_shape = tensor<512xbf16>>, ttcore.shard_status = #ttcore.shard_status<presharded>, ttir.name = "self___decoder_mid_block_attentions__modules__0___to_out__modules__0.bias"} loc("p125.1033"), %arg126: tensor<512x512xbf16> {mhlo.sharding = "{replicated}", ttcore.argument_type = #ttcore.argument_type<parameter>, ttcore.local_shape = #ttcore<local_shape local_shape = tensor<512x512xbf16>>, ttcore.shard_status = #ttcore.shard_status<presharded>, ttir.name = "self___decoder_mid_block_attentions__modules__0___to_out__modules__0.weight"} loc("p126.1037"), %arg127: tensor<512xbf16> {mhlo.sharding = "{replicated}", ttcore.argument_type = #ttcore.argument_type<parameter>, ttcore.local_shape = #ttcore<local_shape local_shape = tensor<512xbf16>>, ttcore.shard_status = #ttcore.shard_status<presharded>, ttir.name = "L__self___decoder_mid_block_attentions__modules__0___to_v.bias"} loc("p127.1043"), %arg128: tensor<512x512xbf16> {mhlo.sharding = "{replicated}", ttcore.argument_type = #ttcore.argument_type<parameter>, ttcore.local_shape = #ttcore<local_shape local_shape = tensor<512x512xbf16>>, ttcore.shard_status = #ttcore.shard_status<presharded>, ttir.name = "L__self___decoder_mid_block_attentions__modules__0___to_v.weight"} loc("p128.1047"), %arg129: tensor<512xbf16> {mhlo.sharding = "{replicated}", ttcore.argument_type = #ttcore.argument_type<parameter>, ttcore.local_shape = #ttcore<local_shape local_shape = tensor<512xbf16>>, ttcore.shard_status = #ttcore.shard_status<presharded>, ttir.name = "L__self___decoder_mid_block_attentions__modules__0___group_norm.bias"} loc("p129.1053"), %arg130: tensor<512xbf16> {mhlo.sharding = "{replicated}", ttcore.argument_type = #ttcore.argument_type<parameter>, ttcore.local_shape = #ttcore<local_shape local_shape = tensor<512xbf16>>, ttcore.shard_status = #ttcore.shard_status<presharded>, ttir.name = "L__self___decoder_mid_block_attentions__modules__0___group_norm.weight"} loc("p130.1059"), %arg131: tensor<512xbf16> {mhlo.sharding = "{replicated}", ttcore.argument_type = #ttcore.argument_type<parameter>, ttcore.local_shape = #ttcore<local_shape local_shape = tensor<512xbf16>>, ttcore.shard_status = #ttcore.shard_status<presharded>, ttir.name = "L__self___decoder_mid_block_attentions__modules__0___to_k.bias"} loc("p131.1166"), %arg132: tensor<512x512xbf16> {mhlo.sharding = "{replicated}", ttcore.argument_type = #ttcore.argument_type<parameter>, ttcore.local_shape = #ttcore<local_shape local_shape = tensor<512x512xbf16>>, ttcore.shard_status = #ttcore.shard_status<presharded>, ttir.name = "L__self___decoder_mid_block_attentions__modules__0___to_k.weight"} loc("p132.1170"), %arg133: tensor<512xbf16> {mhlo.sharding = "{replicated}", ttcore.argument_type = #ttcore.argument_type<parameter>, ttcore.local_shape = #ttcore<local_shape local_shape = tensor<512xbf16>>, ttcore.shard_status = #ttcore.shard_status<presharded>, ttir.name = "L__self___decoder_mid_block_attentions__modules__0___to_q.bias"} loc("p133.1190"), %arg134: tensor<512x512xbf16> {mhlo.sharding = "{replicated}", ttcore.argument_type = #ttcore.argument_type<parameter>, ttcore.local_shape = #ttcore<local_shape local_shape = tensor<512x512xbf16>>, ttcore.shard_status = #ttcore.shard_status<presharded>, ttir.name = "L__self___decoder_mid_block_attentions__modules__0___to_q.weight"} loc("p134.1194"), %arg135: tensor<256xbf16> {mhlo.sharding = "{replicated}", ttcore.argument_type = #ttcore.argument_type<parameter>, ttcore.local_shape = #ttcore<local_shape local_shape = tensor<256xbf16>>, ttcore.shard_status = #ttcore.shard_status<presharded>, ttir.name = "L__self___decoder_up_blocks__modules__2___resnets__modules__0___conv_shortcut.bias"} loc("p135.2779"), %arg136: tensor<256x512x1x1xbf16> {mhlo.sharding = "{replicated}", ttcore.argument_type = #ttcore.argument_type<parameter>, ttcore.local_shape = #ttcore<local_shape local_shape = tensor<256x512x1x1xbf16>>, ttcore.shard_status = #ttcore.shard_status<presharded>, ttir.name = "L__self___decoder_up_blocks__modules__2___resnets__modules__0___conv_shortcut.weight"} loc("p136.2783"), %arg137: tensor<128xbf16> {mhlo.sharding = "{replicated}", ttcore.argument_type = #ttcore.argument_type<parameter>, ttcore.local_shape = #ttcore<local_shape local_shape = tensor<128xbf16>>, ttcore.shard_status = #ttcore.shard_status<presharded>, ttir.name = "L__self___decoder_up_blocks__modules__3___resnets__modules__0___conv_shortcut.bias"} loc("p137.3354"), %arg138: tensor<128x256x1x1xbf16> {mhlo.sharding = "{replicated}", ttcore.argument_type = #ttcore.argument_type<parameter>, ttcore.local_shape = #ttcore<local_shape local_shape = tensor<128x256x1x1xbf16>>, ttcore.shard_status = #ttcore.shard_status<presharded>, ttir.name = "L__self___decoder_up_blocks__modules__3___resnets__modules__0___conv_shortcut.weight"} loc("p138.3358")) -> (tensor<1x3x512x512xbf16> {ttcore.local_shape = #ttcore<local_shape local_shape = tensor<1x3x512x512xbf16>>, ttcore.shard_status = #ttcore.shard_status<presharded>}) {
        %0 = "ttir.constant"() <{value = dense<[0, 1, 2, 3, 4, 5, 6, 7, 8, 9, 10, 11, 12, 13, 14, 15, 16, 17, 18, 19, 20, 21, 22, 23, 24, 25, 26, 27, 28, 29, 30, 31, 32, 33, 34, 35, 36, 37, 38, 39, 40, 41, 42, 43, 44, 45, 46, 47, 48, 49, 50, 51, 52, 53, 54, 55, 56, 57, 58, 59, 60, 61, 62, 63]> : tensor<64xi64>}> : () -> tensor<64xi64> loc(#loc)
        %1 = "ttir.constant"() <{value = dense<"…"> : tensor<128xi64>}> : () -> tensor<128xi64> loc(#loc)
        %2 = "ttir.constant"() <{value = dense<"…"> : tensor<256xi64>}> : () -> tensor<256xi64> loc(#loc)
        %3 = "ttir.constant"() <{value = dense<1.52587891E-5> : tensor<f32>}> : () -> tensor<f32> loc(#loc)
        %4 = "ttir.constant"() <{value = dense<9.99999997E-7> : tensor<f32>}> : () -> tensor<f32> loc(#loc)
        %5 = "ttir.constant"() <{value = dense<0.210224107> : tensor<f32>}> : () -> tensor<f32> loc(#loc)
        %6 = "ttir.constant"() <{value = dense<0xFFF0000000000000> : tensor<f64>}> : () -> tensor<f64> loc(#loc)
        %7 = "ttir.constant"() <{value = dense<0.000000e+00> : tensor<f32>}> : () -> tensor<f32> loc(#loc)
        %8 = "ttir.constant"() <{value = dense<"…"> : tensor<128xf64>}> : () -> tensor<128xf64> loc(#loc)
        %9 = "ttir.constant"() <{value = dense<3.81469727E-6> : tensor<f32>}> : () -> tensor<f32> loc(#loc)
        %10 = "ttir.constant"() <{value = dense<"…"> : tensor<256xf64>}> : () -> tensor<256xf64> loc(#loc)
        %11 = "ttir.constant"() <{value = dense<9.53674316E-7> : tensor<f32>}> : () -> tensor<f32> loc(#loc)
        %12 = "ttir.constant"() <{value = dense<1.90734863E-6> : tensor<f32>}> : () -> tensor<f32> loc(#loc)
        %13 = "ttir.constant"() <{value = dense<"…"> : tensor<512xf64>}> : () -> tensor<512xf64> loc(#loc)
        %14 = "ttir.constant"() <{value = dense<4.76837158E-7> : tensor<f32>}> : () -> tensor<f32> loc(#loc)
        %15 = "ttir.constant"() <{value = dense<1.000000e+00> : tensor<bf16>}> : () -> tensor<bf16> loc(#loc)
        %16 = "ttir.reshape"(%15) <{shape = [1 : i32, 1 : i32, 1 : i32, 1 : i32]}> : (tensor<bf16>) -> tensor<1x1x1x1xbf16> loc(#loc)
        %17 = "ttir.broadcast"(%16) <{broadcast_dimensions = array<i64: 1, 128, 512, 512>}> : (tensor<1x1x1x1xbf16>) -> tensor<1x128x512x512xbf16> loc(#loc)
        %18 = "ttir.reshape"(%14) <{shape = [1 : i32, 1 : i32]}> : (tensor<f32>) -> tensor<1x1xf32> loc(#loc)
        %19 = "ttir.broadcast"(%18) <{broadcast_dimensions = array<i64: 1, 32>}> : (tensor<1x1xf32>) -> tensor<1x32xf32> loc(#loc)
        %20 = "ttir.broadcast"(%16) <{broadcast_dimensions = array<i64: 1, 256, 256, 256>}> : (tensor<1x1x1x1xbf16>) -> tensor<1x256x256x256xbf16> loc(#loc)
        %21 = "ttir.reshape"(%12) <{shape = [1 : i32, 1 : i32]}> : (tensor<f32>) -> tensor<1x1xf32> loc(#loc)
        %22 = "ttir.broadcast"(%21) <{broadcast_dimensions = array<i64: 1, 32>}> : (tensor<1x1xf32>) -> tensor<1x32xf32> loc(#loc)
        %23 = "ttir.reshape"(%11) <{shape = [1 : i32, 1 : i32]}> : (tensor<f32>) -> tensor<1x1xf32> loc(#loc)
        %24 = "ttir.broadcast"(%23) <{broadcast_dimensions = array<i64: 1, 32>}> : (tensor<1x1xf32>) -> tensor<1x32xf32> loc(#loc)
        %25 = "ttir.broadcast"(%16) <{broadcast_dimensions = array<i64: 1, 512, 128, 128>}> : (tensor<1x1x1x1xbf16>) -> tensor<1x512x128x128xbf16> loc(#loc)
        %26 = "ttir.reshape"(%9) <{shape = [1 : i32, 1 : i32]}> : (tensor<f32>) -> tensor<1x1xf32> loc(#loc)
        %27 = "ttir.broadcast"(%26) <{broadcast_dimensions = array<i64: 1, 32>}> : (tensor<1x1xf32>) -> tensor<1x32xf32> loc(#loc)
        %28 = "ttir.reshape"(%7) <{shape = [1 : i32, 1 : i32, 1 : i32, 1 : i32]}> : (tensor<f32>) -> tensor<1x1x1x1xf32> loc(#loc)
        %29 = "ttir.broadcast"(%28) <{broadcast_dimensions = array<i64: 1, 1, 4096, 4096>}> : (tensor<1x1x1x1xf32>) -> tensor<1x1x4096x4096xf32> loc(#loc)
        %30 = "ttir.reshape"(%6) <{shape = [1 : i32, 1 : i32, 1 : i32, 1 : i32]}> : (tensor<f64>) -> tensor<1x1x1x1xf64> loc(#loc)
        %31 = "ttir.broadcast"(%30) <{broadcast_dimensions = array<i64: 1, 1, 4096, 4096>}> : (tensor<1x1x1x1xf64>) -> tensor<1x1x4096x4096xf64> loc(#loc)
        %32 = "ttir.reshape"(%5) <{shape = [1 : i32, 1 : i32, 1 : i32, 1 : i32]}> : (tensor<f32>) -> tensor<1x1x1x1xf32> loc(#loc)
        %33 = "ttir.broadcast"(%32) <{broadcast_dimensions = array<i64: 1, 1, 512, 4096>}> : (tensor<1x1x1x1xf32>) -> tensor<1x1x512x4096xf32> loc(#loc)
        %34 = "ttir.broadcast"(%32) <{broadcast_dimensions = array<i64: 1, 1, 4096, 512>}> : (tensor<1x1x1x1xf32>) -> tensor<1x1x4096x512xf32> loc(#loc)
        %35 = "ttir.broadcast"(%16) <{broadcast_dimensions = array<i64: 1, 512, 64, 64>}> : (tensor<1x1x1x1xbf16>) -> tensor<1x512x64x64xbf16> loc(#loc)
        %36 = "ttir.reshape"(%4) <{shape = [1 : i32, 1 : i32, 1 : i32, 1 : i32]}> : (tensor<f32>) -> tensor<1x1x1x1xf32> loc(#loc)
        %37 = "ttir.broadcast"(%36) <{broadcast_dimensions = array<i64: 1, 32, 1, 1>}> : (tensor<1x1x1x1xf32>) -> tensor<1x32x1x1xf32> loc(#loc)
        %38 = "ttir.reshape"(%3) <{shape = [1 : i32, 1 : i32]}> : (tensor<f32>) -> tensor<1x1xf32> loc(#loc)
        %39 = "ttir.broadcast"(%38) <{broadcast_dimensions = array<i64: 1, 32>}> : (tensor<1x1xf32>) -> tensor<1x32xf32> loc(#loc)
        %40 = "ttir.permute"(%arg123) <{permutation = array<i64: 0, 1, 2, 3>}> : (tensor<512x16x3x3xbf16>) -> tensor<512x16x3x3xbf16> loc(#loc1437)
        %41 = "ttir.conv2d"(%arg124, %40) <{batch_dim = 0 : i64, channel_dim = 1 : i64, dilation = array<i32: 1, 1>, groups = 1 : i32, height_dim = 2 : i64, padding = array<i32: 1, 1, 1, 1>, stride = array<i32: 1, 1>, width_dim = 3 : i64}> : (tensor<1x16x64x64xbf16>, tensor<512x16x3x3xbf16>) -> tensor<1x512x64x64xbf16> loc(#loc140)
        %42 = "ttir.reshape"(%arg122) <{shape = [1 : i32, 1 : i32, 512 : i32]}> : (tensor<512xbf16>) -> tensor<1x1x512xbf16> loc(#loc141)
        %43 = "ttir.reshape"(%42) <{shape = [512 : i32]}> : (tensor<1x1x512xbf16>) -> tensor<512xbf16> loc(#loc142)
        %44 = "ttir.reshape"(%43) <{shape = [1 : i32, 512 : i32, 1 : i32, 1 : i32]}> : (tensor<512xbf16>) -> tensor<1x512x1x1xbf16> loc(#loc143)
        %45 = "ttir.broadcast"(%44) <{broadcast_dimensions = array<i64: 1, 1, 64, 64>}> : (tensor<1x512x1x1xbf16>) -> tensor<1x512x64x64xbf16> loc(#loc143)
        %46 = "ttir.add"(%41, %45) : (tensor<1x512x64x64xbf16>, tensor<1x512x64x64xbf16>) -> tensor<1x512x64x64xbf16> loc(#loc144)
        %47 = "ttir.typecast"(%46) <{conservative_folding = false}> : (tensor<1x512x64x64xbf16>) -> tensor<1x512x64x64xf32> loc(#loc145)
        %48 = "ttir.reshape"(%47) <{shape = [1 : i32, 32 : i32, 16 : i32, 4096 : i32]}> : (tensor<1x512x64x64xf32>) -> tensor<1x32x16x4096xf32> loc(#loc146)
        %49 = "ttir.sum"(%48) <{dim_arg = [2 : i32, 3 : i32], keep_dim = false}> : (tensor<1x32x16x4096xf32>) -> tensor<1x32xf32> loc(#loc147)
        %50 = "ttir.multiply"(%49, %39) : (tensor<1x32xf32>, tensor<1x32xf32>) -> tensor<1x32xf32> loc(#loc148)
        %51 = "ttir.reshape"(%50) <{shape = [1 : i32, 32 : i32, 1 : i32, 1 : i32]}> : (tensor<1x32xf32>) -> tensor<1x32x1x1xf32> loc(#loc149)
        %52 = "ttir.broadcast"(%51) <{broadcast_dimensions = array<i64: 1, 1, 16, 4096>}> : (tensor<1x32x1x1xf32>) -> tensor<1x32x16x4096xf32> loc(#loc149)
        %53 = "ttir.subtract"(%48, %52) : (tensor<1x32x16x4096xf32>, tensor<1x32x16x4096xf32>) -> tensor<1x32x16x4096xf32> loc(#loc150)
        %54 = "ttir.multiply"(%53, %53) : (tensor<1x32x16x4096xf32>, tensor<1x32x16x4096xf32>) -> tensor<1x32x16x4096xf32> loc(#loc151)
        %55 = "ttir.sum"(%54) <{dim_arg = [2 : i32, 3 : i32], keep_dim = false}> : (tensor<1x32x16x4096xf32>) -> tensor<1x32xf32> loc(#loc152)
        %56 = "ttir.multiply"(%55, %39) : (tensor<1x32xf32>, tensor<1x32xf32>) -> tensor<1x32xf32> loc(#loc153)
        %57 = "ttir.reshape"(%56) <{shape = [1 : i32, 32 : i32, 1 : i32, 1 : i32]}> : (tensor<1x32xf32>) -> tensor<1x32x1x1xf32> loc(#loc154)
        %58 = "ttir.add"(%57, %37) : (tensor<1x32x1x1xf32>, tensor<1x32x1x1xf32>) -> tensor<1x32x1x1xf32> loc(#loc155)
        %59 = "ttir.rsqrt"(%58) : (tensor<1x32x1x1xf32>) -> tensor<1x32x1x1xf32> loc(#loc156)
        %60 = "ttir.reshape"(%59) <{shape = [1 : i32, 32 : i32]}> : (tensor<1x32x1x1xf32>) -> tensor<1x32xf32> loc(#loc157)
        %61 = "ttir.reshape"(%60) <{shape = [1 : i32, 32 : i32, 1 : i32, 1 : i32]}> : (tensor<1x32xf32>) -> tensor<1x32x1x1xf32> loc(#loc158)
        %62 = "ttir.broadcast"(%61) <{broadcast_dimensions = array<i64: 1, 1, 16, 4096>}> : (tensor<1x32x1x1xf32>) -> tensor<1x32x16x4096xf32> loc(#loc158)
        %63 = "ttir.multiply"(%53, %62) : (tensor<1x32x16x4096xf32>, tensor<1x32x16x4096xf32>) -> tensor<1x32x16x4096xf32> loc(#loc159)
        %64 = "ttir.reshape"(%63) <{shape = [1 : i32, 512 : i32, 64 : i32, 64 : i32]}> : (tensor<1x32x16x4096xf32>) -> tensor<1x512x64x64xf32> loc(#loc160)
        %65 = "ttir.reshape"(%arg121) <{shape = [1 : i32, 1 : i32, 512 : i32]}> : (tensor<512xbf16>) -> tensor<1x1x512xbf16> loc(#loc161)
        %66 = "ttir.reshape"(%65) <{shape = [1 : i32, 512 : i32, 1 : i32, 1 : i32]}> : (tensor<1x1x512xbf16>) -> tensor<1x512x1x1xbf16> loc(#loc162)
        %67 = "ttir.typecast"(%66) <{conservative_folding = false}> : (tensor<1x512x1x1xbf16>) -> tensor<1x512x1x1xf32> loc(#loc163)
        %68 = "ttir.reshape"(%67) <{shape = [1 : i32, 512 : i32]}> : (tensor<1x512x1x1xf32>) -> tensor<1x512xf32> loc(#loc164)
        %69 = "ttir.reshape"(%68) <{shape = [1 : i32, 512 : i32, 1 : i32, 1 : i32]}> : (tensor<1x512xf32>) -> tensor<1x512x1x1xf32> loc(#loc165)
        %70 = "ttir.broadcast"(%69) <{broadcast_dimensions = array<i64: 1, 1, 64, 64>}> : (tensor<1x512x1x1xf32>) -> tensor<1x512x64x64xf32> loc(#loc165)
        %71 = "ttir.multiply"(%64, %70) : (tensor<1x512x64x64xf32>, tensor<1x512x64x64xf32>) -> tensor<1x512x64x64xf32> loc(#loc166)
        %72 = "ttir.reshape"(%arg120) <{shape = [1 : i32, 1 : i32, 512 : i32]}> : (tensor<512xbf16>) -> tensor<1x1x512xbf16> loc(#loc167)
        %73 = "ttir.reshape"(%72) <{shape = [1 : i32, 512 : i32, 1 : i32, 1 : i32]}> : (tensor<1x1x512xbf16>) -> tensor<1x512x1x1xbf16> loc(#loc168)
        %74 = "ttir.typecast"(%73) <{conservative_folding = false}> : (tensor<1x512x1x1xbf16>) -> tensor<1x512x1x1xf32> loc(#loc169)
        %75 = "ttir.reshape"(%74) <{shape = [1 : i32, 512 : i32]}> : (tensor<1x512x1x1xf32>) -> tensor<1x512xf32> loc(#loc170)
        %76 = "ttir.reshape"(%75) <{shape = [1 : i32, 512 : i32, 1 : i32, 1 : i32]}> : (tensor<1x512xf32>) -> tensor<1x512x1x1xf32> loc(#loc171)
        %77 = "ttir.broadcast"(%76) <{broadcast_dimensions = array<i64: 1, 1, 64, 64>}> : (tensor<1x512x1x1xf32>) -> tensor<1x512x64x64xf32> loc(#loc171)
        %78 = "ttir.add"(%71, %77) : (tensor<1x512x64x64xf32>, tensor<1x512x64x64xf32>) -> tensor<1x512x64x64xf32> loc(#loc172)
        %79 = "ttir.typecast"(%78) <{conservative_folding = false}> : (tensor<1x512x64x64xf32>) -> tensor<1x512x64x64xbf16> loc(#loc173)
        %80 = "ttir.typecast"(%79) <{conservative_folding = false}> : (tensor<1x512x64x64xbf16>) -> tensor<1x512x64x64xf32> loc(#loc174)
        %81 = "ttir.sigmoid"(%80) : (tensor<1x512x64x64xf32>) -> tensor<1x512x64x64xf32> loc(#loc175)
        %82 = "ttir.multiply"(%80, %81) : (tensor<1x512x64x64xf32>, tensor<1x512x64x64xf32>) -> tensor<1x512x64x64xf32> loc(#loc176)
        %83 = "ttir.typecast"(%82) <{conservative_folding = false}> : (tensor<1x512x64x64xf32>) -> tensor<1x512x64x64xbf16> loc(#loc177)
        %84 = "ttir.permute"(%arg119) <{permutation = array<i64: 0, 1, 2, 3>}> : (tensor<512x512x3x3xbf16>) -> tensor<512x512x3x3xbf16> loc(#loc1438)
        %85 = "ttir.conv2d"(%83, %84) <{batch_dim = 0 : i64, channel_dim = 1 : i64, dilation = array<i32: 1, 1>, groups = 1 : i32, height_dim = 2 : i64, padding = array<i32: 1, 1, 1, 1>, stride = array<i32: 1, 1>, width_dim = 3 : i64}> : (tensor<1x512x64x64xbf16>, tensor<512x512x3x3xbf16>) -> tensor<1x512x64x64xbf16> loc(#loc178)
        %86 = "ttir.reshape"(%arg118) <{shape = [1 : i32, 1 : i32, 512 : i32]}> : (tensor<512xbf16>) -> tensor<1x1x512xbf16> loc(#loc179)
        %87 = "ttir.reshape"(%86) <{shape = [512 : i32]}> : (tensor<1x1x512xbf16>) -> tensor<512xbf16> loc(#loc180)
        %88 = "ttir.reshape"(%87) <{shape = [1 : i32, 512 : i32, 1 : i32, 1 : i32]}> : (tensor<512xbf16>) -> tensor<1x512x1x1xbf16> loc(#loc181)
        %89 = "ttir.broadcast"(%88) <{broadcast_dimensions = array<i64: 1, 1, 64, 64>}> : (tensor<1x512x1x1xbf16>) -> tensor<1x512x64x64xbf16> loc(#loc181)
        %90 = "ttir.add"(%85, %89) : (tensor<1x512x64x64xbf16>, tensor<1x512x64x64xbf16>) -> tensor<1x512x64x64xbf16> loc(#loc182)
        %91 = "ttir.typecast"(%90) <{conservative_folding = false}> : (tensor<1x512x64x64xbf16>) -> tensor<1x512x64x64xf32> loc(#loc183)
        %92 = "ttir.reshape"(%91) <{shape = [1 : i32, 32 : i32, 16 : i32, 4096 : i32]}> : (tensor<1x512x64x64xf32>) -> tensor<1x32x16x4096xf32> loc(#loc184)
        %93 = "ttir.sum"(%92) <{dim_arg = [2 : i32, 3 : i32], keep_dim = false}> : (tensor<1x32x16x4096xf32>) -> tensor<1x32xf32> loc(#loc185)
        %94 = "ttir.multiply"(%93, %39) : (tensor<1x32xf32>, tensor<1x32xf32>) -> tensor<1x32xf32> loc(#loc186)
        %95 = "ttir.reshape"(%94) <{shape = [1 : i32, 32 : i32, 1 : i32, 1 : i32]}> : (tensor<1x32xf32>) -> tensor<1x32x1x1xf32> loc(#loc187)
        %96 = "ttir.broadcast"(%95) <{broadcast_dimensions = array<i64: 1, 1, 16, 4096>}> : (tensor<1x32x1x1xf32>) -> tensor<1x32x16x4096xf32> loc(#loc187)
        %97 = "ttir.subtract"(%92, %96) : (tensor<1x32x16x4096xf32>, tensor<1x32x16x4096xf32>) -> tensor<1x32x16x4096xf32> loc(#loc188)
        %98 = "ttir.multiply"(%97, %97) : (tensor<1x32x16x4096xf32>, tensor<1x32x16x4096xf32>) -> tensor<1x32x16x4096xf32> loc(#loc189)
        %99 = "ttir.sum"(%98) <{dim_arg = [2 : i32, 3 : i32], keep_dim = false}> : (tensor<1x32x16x4096xf32>) -> tensor<1x32xf32> loc(#loc190)
        %100 = "ttir.multiply"(%99, %39) : (tensor<1x32xf32>, tensor<1x32xf32>) -> tensor<1x32xf32> loc(#loc191)
        %101 = "ttir.reshape"(%100) <{shape = [1 : i32, 32 : i32, 1 : i32, 1 : i32]}> : (tensor<1x32xf32>) -> tensor<1x32x1x1xf32> loc(#loc192)
        %102 = "ttir.add"(%101, %37) : (tensor<1x32x1x1xf32>, tensor<1x32x1x1xf32>) -> tensor<1x32x1x1xf32> loc(#loc193)
        %103 = "ttir.rsqrt"(%102) : (tensor<1x32x1x1xf32>) -> tensor<1x32x1x1xf32> loc(#loc194)
        %104 = "ttir.reshape"(%103) <{shape = [1 : i32, 32 : i32]}> : (tensor<1x32x1x1xf32>) -> tensor<1x32xf32> loc(#loc195)
        %105 = "ttir.reshape"(%104) <{shape = [1 : i32, 32 : i32, 1 : i32, 1 : i32]}> : (tensor<1x32xf32>) -> tensor<1x32x1x1xf32> loc(#loc196)
        %106 = "ttir.broadcast"(%105) <{broadcast_dimensions = array<i64: 1, 1, 16, 4096>}> : (tensor<1x32x1x1xf32>) -> tensor<1x32x16x4096xf32> loc(#loc196)
        %107 = "ttir.multiply"(%97, %106) : (tensor<1x32x16x4096xf32>, tensor<1x32x16x4096xf32>) -> tensor<1x32x16x4096xf32> loc(#loc197)
        %108 = "ttir.reshape"(%107) <{shape = [1 : i32, 512 : i32, 64 : i32, 64 : i32]}> : (tensor<1x32x16x4096xf32>) -> tensor<1x512x64x64xf32> loc(#loc198)
        %109 = "ttir.reshape"(%arg117) <{shape = [1 : i32, 1 : i32, 512 : i32]}> : (tensor<512xbf16>) -> tensor<1x1x512xbf16> loc(#loc199)
        %110 = "ttir.reshape"(%109) <{shape = [1 : i32, 512 : i32, 1 : i32, 1 : i32]}> : (tensor<1x1x512xbf16>) -> tensor<1x512x1x1xbf16> loc(#loc200)
        %111 = "ttir.typecast"(%110) <{conservative_folding = false}> : (tensor<1x512x1x1xbf16>) -> tensor<1x512x1x1xf32> loc(#loc201)
        %112 = "ttir.reshape"(%111) <{shape = [1 : i32, 512 : i32]}> : (tensor<1x512x1x1xf32>) -> tensor<1x512xf32> loc(#loc202)
        %113 = "ttir.reshape"(%112) <{shape = [1 : i32, 512 : i32, 1 : i32, 1 : i32]}> : (tensor<1x512xf32>) -> tensor<1x512x1x1xf32> loc(#loc203)
        %114 = "ttir.broadcast"(%113) <{broadcast_dimensions = array<i64: 1, 1, 64, 64>}> : (tensor<1x512x1x1xf32>) -> tensor<1x512x64x64xf32> loc(#loc203)
        %115 = "ttir.multiply"(%108, %114) : (tensor<1x512x64x64xf32>, tensor<1x512x64x64xf32>) -> tensor<1x512x64x64xf32> loc(#loc204)
        %116 = "ttir.reshape"(%arg116) <{shape = [1 : i32, 1 : i32, 512 : i32]}> : (tensor<512xbf16>) -> tensor<1x1x512xbf16> loc(#loc205)
        %117 = "ttir.reshape"(%116) <{shape = [1 : i32, 512 : i32, 1 : i32, 1 : i32]}> : (tensor<1x1x512xbf16>) -> tensor<1x512x1x1xbf16> loc(#loc206)
        %118 = "ttir.typecast"(%117) <{conservative_folding = false}> : (tensor<1x512x1x1xbf16>) -> tensor<1x512x1x1xf32> loc(#loc207)
        %119 = "ttir.reshape"(%118) <{shape = [1 : i32, 512 : i32]}> : (tensor<1x512x1x1xf32>) -> tensor<1x512xf32> loc(#loc208)
        %120 = "ttir.reshape"(%119) <{shape = [1 : i32, 512 : i32, 1 : i32, 1 : i32]}> : (tensor<1x512xf32>) -> tensor<1x512x1x1xf32> loc(#loc209)
        %121 = "ttir.broadcast"(%120) <{broadcast_dimensions = array<i64: 1, 1, 64, 64>}> : (tensor<1x512x1x1xf32>) -> tensor<1x512x64x64xf32> loc(#loc209)
        %122 = "ttir.add"(%115, %121) : (tensor<1x512x64x64xf32>, tensor<1x512x64x64xf32>) -> tensor<1x512x64x64xf32> loc(#loc210)
        %123 = "ttir.typecast"(%122) <{conservative_folding = false}> : (tensor<1x512x64x64xf32>) -> tensor<1x512x64x64xbf16> loc(#loc211)
        %124 = "ttir.typecast"(%123) <{conservative_folding = false}> : (tensor<1x512x64x64xbf16>) -> tensor<1x512x64x64xf32> loc(#loc212)
        %125 = "ttir.sigmoid"(%124) : (tensor<1x512x64x64xf32>) -> tensor<1x512x64x64xf32> loc(#loc213)
        %126 = "ttir.multiply"(%124, %125) : (tensor<1x512x64x64xf32>, tensor<1x512x64x64xf32>) -> tensor<1x512x64x64xf32> loc(#loc214)
        %127 = "ttir.typecast"(%126) <{conservative_folding = false}> : (tensor<1x512x64x64xf32>) -> tensor<1x512x64x64xbf16> loc(#loc215)
        %128 = "ttir.permute"(%arg115) <{permutation = array<i64: 0, 1, 2, 3>}> : (tensor<512x512x3x3xbf16>) -> tensor<512x512x3x3xbf16> loc(#loc1439)
        %129 = "ttir.conv2d"(%127, %128) <{batch_dim = 0 : i64, channel_dim = 1 : i64, dilation = array<i32: 1, 1>, groups = 1 : i32, height_dim = 2 : i64, padding = array<i32: 1, 1, 1, 1>, stride = array<i32: 1, 1>, width_dim = 3 : i64}> : (tensor<1x512x64x64xbf16>, tensor<512x512x3x3xbf16>) -> tensor<1x512x64x64xbf16> loc(#loc216)
        %130 = "ttir.reshape"(%arg114) <{shape = [1 : i32, 1 : i32, 512 : i32]}> : (tensor<512xbf16>) -> tensor<1x1x512xbf16> loc(#loc217)
        %131 = "ttir.reshape"(%130) <{shape = [512 : i32]}> : (tensor<1x1x512xbf16>) -> tensor<512xbf16> loc(#loc218)
        %132 = "ttir.reshape"(%131) <{shape = [1 : i32, 512 : i32, 1 : i32, 1 : i32]}> : (tensor<512xbf16>) -> tensor<1x512x1x1xbf16> loc(#loc219)
        %133 = "ttir.broadcast"(%132) <{broadcast_dimensions = array<i64: 1, 1, 64, 64>}> : (tensor<1x512x1x1xbf16>) -> tensor<1x512x64x64xbf16> loc(#loc219)
        %134 = "ttir.add"(%129, %133) : (tensor<1x512x64x64xbf16>, tensor<1x512x64x64xbf16>) -> tensor<1x512x64x64xbf16> loc(#loc220)
        %135 = "ttir.add"(%46, %134) : (tensor<1x512x64x64xbf16>, tensor<1x512x64x64xbf16>) -> tensor<1x512x64x64xbf16> loc(#loc221)
        %136 = "ttir.div"(%135, %35) : (tensor<1x512x64x64xbf16>, tensor<1x512x64x64xbf16>) -> tensor<1x512x64x64xbf16> loc(#loc222)
        %137 = "ttir.reshape"(%136) <{shape = [1 : i32, 512 : i32, 4096 : i32]}> : (tensor<1x512x64x64xbf16>) -> tensor<1x512x4096xbf16> loc(#loc223)
        %138 = "ttir.typecast"(%137) <{conservative_folding = false}> : (tensor<1x512x4096xbf16>) -> tensor<1x512x4096xf32> loc(#loc224)
        %139 = "ttir.reshape"(%138) <{shape = [1 : i32, 32 : i32, 16 : i32, 4096 : i32]}> : (tensor<1x512x4096xf32>) -> tensor<1x32x16x4096xf32> loc(#loc225)
        %140 = "ttir.sum"(%139) <{dim_arg = [2 : i32, 3 : i32], keep_dim = false}> : (tensor<1x32x16x4096xf32>) -> tensor<1x32xf32> loc(#loc226)
        %141 = "ttir.multiply"(%140, %39) : (tensor<1x32xf32>, tensor<1x32xf32>) -> tensor<1x32xf32> loc(#loc227)
        %142 = "ttir.reshape"(%141) <{shape = [1 : i32, 32 : i32, 1 : i32, 1 : i32]}> : (tensor<1x32xf32>) -> tensor<1x32x1x1xf32> loc(#loc228)
        %143 = "ttir.broadcast"(%142) <{broadcast_dimensions = array<i64: 1, 1, 16, 4096>}> : (tensor<1x32x1x1xf32>) -> tensor<1x32x16x4096xf32> loc(#loc228)
        %144 = "ttir.subtract"(%139, %143) : (tensor<1x32x16x4096xf32>, tensor<1x32x16x4096xf32>) -> tensor<1x32x16x4096xf32> loc(#loc229)
        %145 = "ttir.multiply"(%144, %144) : (tensor<1x32x16x4096xf32>, tensor<1x32x16x4096xf32>) -> tensor<1x32x16x4096xf32> loc(#loc230)
        %146 = "ttir.sum"(%145) <{dim_arg = [2 : i32, 3 : i32], keep_dim = false}> : (tensor<1x32x16x4096xf32>) -> tensor<1x32xf32> loc(#loc231)
        %147 = "ttir.multiply"(%146, %39) : (tensor<1x32xf32>, tensor<1x32xf32>) -> tensor<1x32xf32> loc(#loc232)
        %148 = "ttir.reshape"(%147) <{shape = [1 : i32, 32 : i32, 1 : i32, 1 : i32]}> : (tensor<1x32xf32>) -> tensor<1x32x1x1xf32> loc(#loc233)
        %149 = "ttir.add"(%148, %37) : (tensor<1x32x1x1xf32>, tensor<1x32x1x1xf32>) -> tensor<1x32x1x1xf32> loc(#loc234)
        %150 = "ttir.rsqrt"(%149) : (tensor<1x32x1x1xf32>) -> tensor<1x32x1x1xf32> loc(#loc235)
        %151 = "ttir.reshape"(%150) <{shape = [1 : i32, 32 : i32]}> : (tensor<1x32x1x1xf32>) -> tensor<1x32xf32> loc(#loc236)
        %152 = "ttir.reshape"(%151) <{shape = [1 : i32, 32 : i32, 1 : i32, 1 : i32]}> : (tensor<1x32xf32>) -> tensor<1x32x1x1xf32> loc(#loc237)
        %153 = "ttir.broadcast"(%152) <{broadcast_dimensions = array<i64: 1, 1, 16, 4096>}> : (tensor<1x32x1x1xf32>) -> tensor<1x32x16x4096xf32> loc(#loc237)
        %154 = "ttir.multiply"(%144, %153) : (tensor<1x32x16x4096xf32>, tensor<1x32x16x4096xf32>) -> tensor<1x32x16x4096xf32> loc(#loc238)
        %155 = "ttir.reshape"(%154) <{shape = [1 : i32, 512 : i32, 4096 : i32]}> : (tensor<1x32x16x4096xf32>) -> tensor<1x512x4096xf32> loc(#loc239)
        %156 = "ttir.reshape"(%arg130) <{shape = [1 : i32, 1 : i32, 512 : i32]}> : (tensor<512xbf16>) -> tensor<1x1x512xbf16> loc(#loc240)
        %157 = "ttir.reshape"(%156) <{shape = [1 : i32, 512 : i32, 1 : i32]}> : (tensor<1x1x512xbf16>) -> tensor<1x512x1xbf16> loc(#loc241)
        %158 = "ttir.typecast"(%157) <{conservative_folding = false}> : (tensor<1x512x1xbf16>) -> tensor<1x512x1xf32> loc(#loc242)
        %159 = "ttir.reshape"(%158) <{shape = [1 : i32, 512 : i32]}> : (tensor<1x512x1xf32>) -> tensor<1x512xf32> loc(#loc243)
        %160 = "ttir.reshape"(%159) <{shape = [1 : i32, 512 : i32, 1 : i32]}> : (tensor<1x512xf32>) -> tensor<1x512x1xf32> loc(#loc244)
        %161 = "ttir.broadcast"(%160) <{broadcast_dimensions = array<i64: 1, 1, 4096>}> : (tensor<1x512x1xf32>) -> tensor<1x512x4096xf32> loc(#loc244)
        %162 = "ttir.multiply"(%155, %161) : (tensor<1x512x4096xf32>, tensor<1x512x4096xf32>) -> tensor<1x512x4096xf32> loc(#loc245)
        %163 = "ttir.reshape"(%arg129) <{shape = [1 : i32, 1 : i32, 512 : i32]}> : (tensor<512xbf16>) -> tensor<1x1x512xbf16> loc(#loc246)
        %164 = "ttir.reshape"(%163) <{shape = [1 : i32, 512 : i32, 1 : i32]}> : (tensor<1x1x512xbf16>) -> tensor<1x512x1xbf16> loc(#loc247)
        %165 = "ttir.typecast"(%164) <{conservative_folding = false}> : (tensor<1x512x1xbf16>) -> tensor<1x512x1xf32> loc(#loc248)
        %166 = "ttir.reshape"(%165) <{shape = [1 : i32, 512 : i32]}> : (tensor<1x512x1xf32>) -> tensor<1x512xf32> loc(#loc249)
        %167 = "ttir.reshape"(%166) <{shape = [1 : i32, 512 : i32, 1 : i32]}> : (tensor<1x512xf32>) -> tensor<1x512x1xf32> loc(#loc250)
        %168 = "ttir.broadcast"(%167) <{broadcast_dimensions = array<i64: 1, 1, 4096>}> : (tensor<1x512x1xf32>) -> tensor<1x512x4096xf32> loc(#loc250)
        %169 = "ttir.add"(%162, %168) : (tensor<1x512x4096xf32>, tensor<1x512x4096xf32>) -> tensor<1x512x4096xf32> loc(#loc251)
        %170 = "ttir.typecast"(%169) <{conservative_folding = false}> : (tensor<1x512x4096xf32>) -> tensor<1x512x4096xbf16> loc(#loc252)
        %171 = "ttir.permute"(%170) <{permutation = array<i64: 0, 2, 1>}> : (tensor<1x512x4096xbf16>) -> tensor<1x4096x512xbf16> loc(#loc253)
        %172 = "ttir.reshape"(%171) <{shape = [4096 : i32, 512 : i32]}> : (tensor<1x4096x512xbf16>) -> tensor<4096x512xbf16> loc(#loc254)
        %173 = "ttir.reshape"(%arg134) <{shape = [1 : i32, 512 : i32, 512 : i32]}> : (tensor<512x512xbf16>) -> tensor<1x512x512xbf16> loc(#loc255)
        %174 = "ttir.reshape"(%173) <{shape = [512 : i32, 512 : i32]}> : (tensor<1x512x512xbf16>) -> tensor<512x512xbf16> loc(#loc256)
        %175 = "ttir.permute"(%174) <{permutation = array<i64: 1, 0>}> : (tensor<512x512xbf16>) -> tensor<512x512xbf16> loc(#loc257)
        %176 = "ttir.dot_general"(%172, %175) <{batch_dims_lhs = array<i64>, batch_dims_rhs = array<i64>, contract_dims_lhs = array<i64: 1>, contract_dims_rhs = array<i64: 0>}> : (tensor<4096x512xbf16>, tensor<512x512xbf16>) -> tensor<4096x512xbf16> loc(#loc258)
        %177 = "ttir.reshape"(%176) <{shape = [1 : i32, 4096 : i32, 512 : i32]}> : (tensor<4096x512xbf16>) -> tensor<1x4096x512xbf16> loc(#loc259)
        %178 = "ttir.reshape"(%arg133) <{shape = [1 : i32, 1 : i32, 512 : i32]}> : (tensor<512xbf16>) -> tensor<1x1x512xbf16> loc(#loc260)
        %179 = "ttir.reshape"(%178) <{shape = [512 : i32]}> : (tensor<1x1x512xbf16>) -> tensor<512xbf16> loc(#loc261)
        %180 = "ttir.reshape"(%179) <{shape = [1 : i32, 1 : i32, 512 : i32]}> : (tensor<512xbf16>) -> tensor<1x1x512xbf16> loc(#loc262)
        %181 = "ttir.broadcast"(%180) <{broadcast_dimensions = array<i64: 1, 4096, 1>}> : (tensor<1x1x512xbf16>) -> tensor<1x4096x512xbf16> loc(#loc262)
        %182 = "ttir.add"(%177, %181) : (tensor<1x4096x512xbf16>, tensor<1x4096x512xbf16>) -> tensor<1x4096x512xbf16> loc(#loc263)
        %183 = "ttir.reshape"(%182) <{shape = [1 : i32, 1 : i32, 4096 : i32, 512 : i32]}> : (tensor<1x4096x512xbf16>) -> tensor<1x1x4096x512xbf16> loc(#loc264)
        %184 = "ttir.typecast"(%183) <{conservative_folding = false}> : (tensor<1x1x4096x512xbf16>) -> tensor<1x1x4096x512xf32> loc(#loc265)
        %185 = "ttir.multiply"(%184, %34) : (tensor<1x1x4096x512xf32>, tensor<1x1x4096x512xf32>) -> tensor<1x1x4096x512xf32> loc(#loc266)
        %186 = "ttir.reshape"(%arg132) <{shape = [1 : i32, 512 : i32, 512 : i32]}> : (tensor<512x512xbf16>) -> tensor<1x512x512xbf16> loc(#loc267)
        %187 = "ttir.reshape"(%186) <{shape = [512 : i32, 512 : i32]}> : (tensor<1x512x512xbf16>) -> tensor<512x512xbf16> loc(#loc268)
        %188 = "ttir.permute"(%187) <{permutation = array<i64: 1, 0>}> : (tensor<512x512xbf16>) -> tensor<512x512xbf16> loc(#loc269)
        %189 = "ttir.dot_general"(%172, %188) <{batch_dims_lhs = array<i64>, batch_dims_rhs = array<i64>, contract_dims_lhs = array<i64: 1>, contract_dims_rhs = array<i64: 0>}> : (tensor<4096x512xbf16>, tensor<512x512xbf16>) -> tensor<4096x512xbf16> loc(#loc270)
        %190 = "ttir.reshape"(%189) <{shape = [1 : i32, 4096 : i32, 512 : i32]}> : (tensor<4096x512xbf16>) -> tensor<1x4096x512xbf16> loc(#loc271)
        %191 = "ttir.reshape"(%arg131) <{shape = [1 : i32, 1 : i32, 512 : i32]}> : (tensor<512xbf16>) -> tensor<1x1x512xbf16> loc(#loc272)
        %192 = "ttir.reshape"(%191) <{shape = [512 : i32]}> : (tensor<1x1x512xbf16>) -> tensor<512xbf16> loc(#loc273)
        %193 = "ttir.reshape"(%192) <{shape = [1 : i32, 1 : i32, 512 : i32]}> : (tensor<512xbf16>) -> tensor<1x1x512xbf16> loc(#loc274)
        %194 = "ttir.broadcast"(%193) <{broadcast_dimensions = array<i64: 1, 4096, 1>}> : (tensor<1x1x512xbf16>) -> tensor<1x4096x512xbf16> loc(#loc274)
        %195 = "ttir.add"(%190, %194) : (tensor<1x4096x512xbf16>, tensor<1x4096x512xbf16>) -> tensor<1x4096x512xbf16> loc(#loc275)
        %196 = "ttir.reshape"(%195) <{shape = [1 : i32, 1 : i32, 4096 : i32, 512 : i32]}> : (tensor<1x4096x512xbf16>) -> tensor<1x1x4096x512xbf16> loc(#loc276)
        %197 = "ttir.typecast"(%196) <{conservative_folding = false}> : (tensor<1x1x4096x512xbf16>) -> tensor<1x1x4096x512xf32> loc(#loc277)
        %198 = "ttir.permute"(%197) <{permutation = array<i64: 0, 1, 3, 2>}> : (tensor<1x1x4096x512xf32>) -> tensor<1x1x512x4096xf32> loc(#loc278)
        %199 = "ttir.multiply"(%198, %33) : (tensor<1x1x512x4096xf32>, tensor<1x1x512x4096xf32>) -> tensor<1x1x512x4096xf32> loc(#loc279)
        %200 = "ttir.dot_general"(%185, %199) <{batch_dims_lhs = array<i64: 0, 1>, batch_dims_rhs = array<i64: 0, 1>, contract_dims_lhs = array<i64: 3>, contract_dims_rhs = array<i64: 2>}> : (tensor<1x1x4096x512xf32>, tensor<1x1x512x4096xf32>) -> tensor<1x1x4096x4096xf32> loc(#loc280)
        %201 = "ttir.typecast"(%200) <{conservative_folding = false}> : (tensor<1x1x4096x4096xf32>) -> tensor<1x1x4096x4096xf64> loc(#loc281)
        %202 = "ttir.eq"(%201, %31) : (tensor<1x1x4096x4096xf64>, tensor<1x1x4096x4096xf64>) -> tensor<1x1x4096x4096xi1> loc(#loc282)
        %203 = "ttir.logical_not"(%202) : (tensor<1x1x4096x4096xi1>) -> tensor<1x1x4096x4096xi1> loc(#loc283)
        %204 = "ttir.reduce_or"(%203) <{dim_arg = [3 : i32], keep_dim = false}> : (tensor<1x1x4096x4096xi1>) -> tensor<1x1x4096xi1> loc(#loc284)
        %205 = "ttir.reshape"(%204) <{shape = [1 : i32, 1 : i32, 4096 : i32, 1 : i32]}> : (tensor<1x1x4096xi1>) -> tensor<1x1x4096x1xi1> loc(#loc285)
        %206 = "ttir.logical_not"(%205) : (tensor<1x1x4096x1xi1>) -> tensor<1x1x4096x1xi1> loc(#loc286)
        %207 = "ttir.reshape"(%206) <{shape = [1 : i32, 1 : i32, 4096 : i32]}> : (tensor<1x1x4096x1xi1>) -> tensor<1x1x4096xi1> loc(#loc287)
        %208 = "ttir.reshape"(%207) <{shape = [1 : i32, 1 : i32, 4096 : i32, 1 : i32]}> : (tensor<1x1x4096xi1>) -> tensor<1x1x4096x1xi1> loc(#loc288)
        %209 = "ttir.broadcast"(%208) <{broadcast_dimensions = array<i64: 1, 1, 1, 4096>}> : (tensor<1x1x4096x1xi1>) -> tensor<1x1x4096x4096xi1> loc(#loc288)
        %210 = "ttir.max"(%200) <{dim_arg = [3 : i32], keep_dim = false}> : (tensor<1x1x4096x4096xf32>) -> tensor<1x1x4096xf32> loc(#loc289)
        %211 = "ttir.reshape"(%210) <{shape = [1 : i32, 1 : i32, 4096 : i32, 1 : i32]}> : (tensor<1x1x4096xf32>) -> tensor<1x1x4096x1xf32> loc(#loc290)
        %212 = "ttir.broadcast"(%211) <{broadcast_dimensions = array<i64: 1, 1, 1, 4096>}> : (tensor<1x1x4096x1xf32>) -> tensor<1x1x4096x4096xf32> loc(#loc290)
        %213 = "ttir.subtract"(%200, %212) : (tensor<1x1x4096x4096xf32>, tensor<1x1x4096x4096xf32>) -> tensor<1x1x4096x4096xf32> loc(#loc291)
        %214 = "ttir.exp"(%213) : (tensor<1x1x4096x4096xf32>) -> tensor<1x1x4096x4096xf32> loc(#loc292)
        %215 = "ttir.sum"(%214) <{dim_arg = [3 : i32], keep_dim = false}> : (tensor<1x1x4096x4096xf32>) -> tensor<1x1x4096xf32> loc(#loc293)
        %216 = "ttir.reshape"(%215) <{shape = [1 : i32, 1 : i32, 4096 : i32, 1 : i32]}> : (tensor<1x1x4096xf32>) -> tensor<1x1x4096x1xf32> loc(#loc294)
        %217 = "ttir.broadcast"(%216) <{broadcast_dimensions = array<i64: 1, 1, 1, 4096>}> : (tensor<1x1x4096x1xf32>) -> tensor<1x1x4096x4096xf32> loc(#loc294)
        %218 = "ttir.div"(%214, %217) : (tensor<1x1x4096x4096xf32>, tensor<1x1x4096x4096xf32>) -> tensor<1x1x4096x4096xf32> loc(#loc295)
        %219 = "ttir.where"(%209, %29, %218) : (tensor<1x1x4096x4096xi1>, tensor<1x1x4096x4096xf32>, tensor<1x1x4096x4096xf32>) -> tensor<1x1x4096x4096xf32> loc(#loc296)
        %220 = "ttir.reshape"(%arg128) <{shape = [1 : i32, 512 : i32, 512 : i32]}> : (tensor<512x512xbf16>) -> tensor<1x512x512xbf16> loc(#loc297)
        %221 = "ttir.reshape"(%220) <{shape = [512 : i32, 512 : i32]}> : (tensor<1x512x512xbf16>) -> tensor<512x512xbf16> loc(#loc298)
        %222 = "ttir.permute"(%221) <{permutation = array<i64: 1, 0>}> : (tensor<512x512xbf16>) -> tensor<512x512xbf16> loc(#loc299)
        %223 = "ttir.dot_general"(%172, %222) <{batch_dims_lhs = array<i64>, batch_dims_rhs = array<i64>, contract_dims_lhs = array<i64: 1>, contract_dims_rhs = array<i64: 0>}> : (tensor<4096x512xbf16>, tensor<512x512xbf16>) -> tensor<4096x512xbf16> loc(#loc300)
        %224 = "ttir.reshape"(%223) <{shape = [1 : i32, 4096 : i32, 512 : i32]}> : (tensor<4096x512xbf16>) -> tensor<1x4096x512xbf16> loc(#loc301)
        %225 = "ttir.reshape"(%arg127) <{shape = [1 : i32, 1 : i32, 512 : i32]}> : (tensor<512xbf16>) -> tensor<1x1x512xbf16> loc(#loc302)
        %226 = "ttir.reshape"(%225) <{shape = [512 : i32]}> : (tensor<1x1x512xbf16>) -> tensor<512xbf16> loc(#loc303)
        %227 = "ttir.reshape"(%226) <{shape = [1 : i32, 1 : i32, 512 : i32]}> : (tensor<512xbf16>) -> tensor<1x1x512xbf16> loc(#loc304)
        %228 = "ttir.broadcast"(%227) <{broadcast_dimensions = array<i64: 1, 4096, 1>}> : (tensor<1x1x512xbf16>) -> tensor<1x4096x512xbf16> loc(#loc304)
        %229 = "ttir.add"(%224, %228) : (tensor<1x4096x512xbf16>, tensor<1x4096x512xbf16>) -> tensor<1x4096x512xbf16> loc(#loc305)
        %230 = "ttir.reshape"(%229) <{shape = [1 : i32, 1 : i32, 4096 : i32, 512 : i32]}> : (tensor<1x4096x512xbf16>) -> tensor<1x1x4096x512xbf16> loc(#loc306)
        %231 = "ttir.typecast"(%230) <{conservative_folding = false}> : (tensor<1x1x4096x512xbf16>) -> tensor<1x1x4096x512xf32> loc(#loc307)
        %232 = "ttir.dot_general"(%219, %231) <{batch_dims_lhs = array<i64: 0, 1>, batch_dims_rhs = array<i64: 0, 1>, contract_dims_lhs = array<i64: 3>, contract_dims_rhs = array<i64: 2>}> : (tensor<1x1x4096x4096xf32>, tensor<1x1x4096x512xf32>) -> tensor<1x1x4096x512xf32> loc(#loc308)
        %233 = "ttir.typecast"(%232) <{conservative_folding = false}> : (tensor<1x1x4096x512xf32>) -> tensor<1x1x4096x512xbf16> loc(#loc309)
        %234 = "ttir.reshape"(%233) <{shape = [4096 : i32, 512 : i32]}> : (tensor<1x1x4096x512xbf16>) -> tensor<4096x512xbf16> loc(#loc310)
        %235 = "ttir.reshape"(%arg126) <{shape = [1 : i32, 512 : i32, 512 : i32]}> : (tensor<512x512xbf16>) -> tensor<1x512x512xbf16> loc(#loc311)
        %236 = "ttir.reshape"(%235) <{shape = [512 : i32, 512 : i32]}> : (tensor<1x512x512xbf16>) -> tensor<512x512xbf16> loc(#loc312)
        %237 = "ttir.permute"(%236) <{permutation = array<i64: 1, 0>}> : (tensor<512x512xbf16>) -> tensor<512x512xbf16> loc(#loc313)
        %238 = "ttir.dot_general"(%234, %237) <{batch_dims_lhs = array<i64>, batch_dims_rhs = array<i64>, contract_dims_lhs = array<i64: 1>, contract_dims_rhs = array<i64: 0>}> : (tensor<4096x512xbf16>, tensor<512x512xbf16>) -> tensor<4096x512xbf16> loc(#loc314)
        %239 = "ttir.reshape"(%238) <{shape = [1 : i32, 4096 : i32, 512 : i32]}> : (tensor<4096x512xbf16>) -> tensor<1x4096x512xbf16> loc(#loc315)
        %240 = "ttir.reshape"(%arg125) <{shape = [1 : i32, 1 : i32, 512 : i32]}> : (tensor<512xbf16>) -> tensor<1x1x512xbf16> loc(#loc316)
        %241 = "ttir.reshape"(%240) <{shape = [512 : i32]}> : (tensor<1x1x512xbf16>) -> tensor<512xbf16> loc(#loc317)
        %242 = "ttir.reshape"(%241) <{shape = [1 : i32, 1 : i32, 512 : i32]}> : (tensor<512xbf16>) -> tensor<1x1x512xbf16> loc(#loc318)
        %243 = "ttir.broadcast"(%242) <{broadcast_dimensions = array<i64: 1, 4096, 1>}> : (tensor<1x1x512xbf16>) -> tensor<1x4096x512xbf16> loc(#loc318)
        %244 = "ttir.add"(%239, %243) : (tensor<1x4096x512xbf16>, tensor<1x4096x512xbf16>) -> tensor<1x4096x512xbf16> loc(#loc319)
        %245 = "ttir.permute"(%244) <{permutation = array<i64: 0, 2, 1>}> : (tensor<1x4096x512xbf16>) -> tensor<1x512x4096xbf16> loc(#loc320)
        %246 = "ttir.reshape"(%245) <{shape = [1 : i32, 512 : i32, 64 : i32, 64 : i32]}> : (tensor<1x512x4096xbf16>) -> tensor<1x512x64x64xbf16> loc(#loc321)
        %247 = "ttir.add"(%246, %136) : (tensor<1x512x64x64xbf16>, tensor<1x512x64x64xbf16>) -> tensor<1x512x64x64xbf16> loc(#loc322)
        %248 = "ttir.div"(%247, %35) : (tensor<1x512x64x64xbf16>, tensor<1x512x64x64xbf16>) -> tensor<1x512x64x64xbf16> loc(#loc323)
        %249 = "ttir.typecast"(%248) <{conservative_folding = false}> : (tensor<1x512x64x64xbf16>) -> tensor<1x512x64x64xf32> loc(#loc324)
        %250 = "ttir.reshape"(%249) <{shape = [1 : i32, 32 : i32, 16 : i32, 4096 : i32]}> : (tensor<1x512x64x64xf32>) -> tensor<1x32x16x4096xf32> loc(#loc325)
        %251 = "ttir.sum"(%250) <{dim_arg = [2 : i32, 3 : i32], keep_dim = false}> : (tensor<1x32x16x4096xf32>) -> tensor<1x32xf32> loc(#loc326)
        %252 = "ttir.multiply"(%251, %39) : (tensor<1x32xf32>, tensor<1x32xf32>) -> tensor<1x32xf32> loc(#loc327)
        %253 = "ttir.reshape"(%252) <{shape = [1 : i32, 32 : i32, 1 : i32, 1 : i32]}> : (tensor<1x32xf32>) -> tensor<1x32x1x1xf32> loc(#loc328)
        %254 = "ttir.broadcast"(%253) <{broadcast_dimensions = array<i64: 1, 1, 16, 4096>}> : (tensor<1x32x1x1xf32>) -> tensor<1x32x16x4096xf32> loc(#loc328)
        %255 = "ttir.subtract"(%250, %254) : (tensor<1x32x16x4096xf32>, tensor<1x32x16x4096xf32>) -> tensor<1x32x16x4096xf32> loc(#loc329)
        %256 = "ttir.multiply"(%255, %255) : (tensor<1x32x16x4096xf32>, tensor<1x32x16x4096xf32>) -> tensor<1x32x16x4096xf32> loc(#loc330)
        %257 = "ttir.sum"(%256) <{dim_arg = [2 : i32, 3 : i32], keep_dim = false}> : (tensor<1x32x16x4096xf32>) -> tensor<1x32xf32> loc(#loc331)
        %258 = "ttir.multiply"(%257, %39) : (tensor<1x32xf32>, tensor<1x32xf32>) -> tensor<1x32xf32> loc(#loc332)
        %259 = "ttir.reshape"(%258) <{shape = [1 : i32, 32 : i32, 1 : i32, 1 : i32]}> : (tensor<1x32xf32>) -> tensor<1x32x1x1xf32> loc(#loc333)
        %260 = "ttir.add"(%259, %37) : (tensor<1x32x1x1xf32>, tensor<1x32x1x1xf32>) -> tensor<1x32x1x1xf32> loc(#loc334)
        %261 = "ttir.rsqrt"(%260) : (tensor<1x32x1x1xf32>) -> tensor<1x32x1x1xf32> loc(#loc335)
        %262 = "ttir.reshape"(%261) <{shape = [1 : i32, 32 : i32]}> : (tensor<1x32x1x1xf32>) -> tensor<1x32xf32> loc(#loc336)
        %263 = "ttir.reshape"(%262) <{shape = [1 : i32, 32 : i32, 1 : i32, 1 : i32]}> : (tensor<1x32xf32>) -> tensor<1x32x1x1xf32> loc(#loc337)
        %264 = "ttir.broadcast"(%263) <{broadcast_dimensions = array<i64: 1, 1, 16, 4096>}> : (tensor<1x32x1x1xf32>) -> tensor<1x32x16x4096xf32> loc(#loc337)
        %265 = "ttir.multiply"(%255, %264) : (tensor<1x32x16x4096xf32>, tensor<1x32x16x4096xf32>) -> tensor<1x32x16x4096xf32> loc(#loc338)
        %266 = "ttir.reshape"(%265) <{shape = [1 : i32, 512 : i32, 64 : i32, 64 : i32]}> : (tensor<1x32x16x4096xf32>) -> tensor<1x512x64x64xf32> loc(#loc339)
        %267 = "ttir.reshape"(%arg113) <{shape = [1 : i32, 1 : i32, 512 : i32]}> : (tensor<512xbf16>) -> tensor<1x1x512xbf16> loc(#loc340)
        %268 = "ttir.reshape"(%267) <{shape = [1 : i32, 512 : i32, 1 : i32, 1 : i32]}> : (tensor<1x1x512xbf16>) -> tensor<1x512x1x1xbf16> loc(#loc341)
        %269 = "ttir.typecast"(%268) <{conservative_folding = false}> : (tensor<1x512x1x1xbf16>) -> tensor<1x512x1x1xf32> loc(#loc342)
        %270 = "ttir.reshape"(%269) <{shape = [1 : i32, 512 : i32]}> : (tensor<1x512x1x1xf32>) -> tensor<1x512xf32> loc(#loc343)
        %271 = "ttir.reshape"(%270) <{shape = [1 : i32, 512 : i32, 1 : i32, 1 : i32]}> : (tensor<1x512xf32>) -> tensor<1x512x1x1xf32> loc(#loc344)
        %272 = "ttir.broadcast"(%271) <{broadcast_dimensions = array<i64: 1, 1, 64, 64>}> : (tensor<1x512x1x1xf32>) -> tensor<1x512x64x64xf32> loc(#loc344)
        %273 = "ttir.multiply"(%266, %272) : (tensor<1x512x64x64xf32>, tensor<1x512x64x64xf32>) -> tensor<1x512x64x64xf32> loc(#loc345)
        %274 = "ttir.reshape"(%arg112) <{shape = [1 : i32, 1 : i32, 512 : i32]}> : (tensor<512xbf16>) -> tensor<1x1x512xbf16> loc(#loc346)
        %275 = "ttir.reshape"(%274) <{shape = [1 : i32, 512 : i32, 1 : i32, 1 : i32]}> : (tensor<1x1x512xbf16>) -> tensor<1x512x1x1xbf16> loc(#loc347)
        %276 = "ttir.typecast"(%275) <{conservative_folding = false}> : (tensor<1x512x1x1xbf16>) -> tensor<1x512x1x1xf32> loc(#loc348)
        %277 = "ttir.reshape"(%276) <{shape = [1 : i32, 512 : i32]}> : (tensor<1x512x1x1xf32>) -> tensor<1x512xf32> loc(#loc349)
        %278 = "ttir.reshape"(%277) <{shape = [1 : i32, 512 : i32, 1 : i32, 1 : i32]}> : (tensor<1x512xf32>) -> tensor<1x512x1x1xf32> loc(#loc350)
        %279 = "ttir.broadcast"(%278) <{broadcast_dimensions = array<i64: 1, 1, 64, 64>}> : (tensor<1x512x1x1xf32>) -> tensor<1x512x64x64xf32> loc(#loc350)
        %280 = "ttir.add"(%273, %279) : (tensor<1x512x64x64xf32>, tensor<1x512x64x64xf32>) -> tensor<1x512x64x64xf32> loc(#loc351)
        %281 = "ttir.typecast"(%280) <{conservative_folding = false}> : (tensor<1x512x64x64xf32>) -> tensor<1x512x64x64xbf16> loc(#loc352)
        %282 = "ttir.typecast"(%281) <{conservative_folding = false}> : (tensor<1x512x64x64xbf16>) -> tensor<1x512x64x64xf32> loc(#loc353)
        %283 = "ttir.sigmoid"(%282) : (tensor<1x512x64x64xf32>) -> tensor<1x512x64x64xf32> loc(#loc354)
        %284 = "ttir.multiply"(%282, %283) : (tensor<1x512x64x64xf32>, tensor<1x512x64x64xf32>) -> tensor<1x512x64x64xf32> loc(#loc355)
        %285 = "ttir.typecast"(%284) <{conservative_folding = false}> : (tensor<1x512x64x64xf32>) -> tensor<1x512x64x64xbf16> loc(#loc356)
        %286 = "ttir.permute"(%arg111) <{permutation = array<i64: 0, 1, 2, 3>}> : (tensor<512x512x3x3xbf16>) -> tensor<512x512x3x3xbf16> loc(#loc1440)
        %287 = "ttir.conv2d"(%285, %286) <{batch_dim = 0 : i64, channel_dim = 1 : i64, dilation = array<i32: 1, 1>, groups = 1 : i32, height_dim = 2 : i64, padding = array<i32: 1, 1, 1, 1>, stride = array<i32: 1, 1>, width_dim = 3 : i64}> : (tensor<1x512x64x64xbf16>, tensor<512x512x3x3xbf16>) -> tensor<1x512x64x64xbf16> loc(#loc357)
        %288 = "ttir.reshape"(%arg110) <{shape = [1 : i32, 1 : i32, 512 : i32]}> : (tensor<512xbf16>) -> tensor<1x1x512xbf16> loc(#loc358)
        %289 = "ttir.reshape"(%288) <{shape = [512 : i32]}> : (tensor<1x1x512xbf16>) -> tensor<512xbf16> loc(#loc359)
        %290 = "ttir.reshape"(%289) <{shape = [1 : i32, 512 : i32, 1 : i32, 1 : i32]}> : (tensor<512xbf16>) -> tensor<1x512x1x1xbf16> loc(#loc360)
        %291 = "ttir.broadcast"(%290) <{broadcast_dimensions = array<i64: 1, 1, 64, 64>}> : (tensor<1x512x1x1xbf16>) -> tensor<1x512x64x64xbf16> loc(#loc360)
        %292 = "ttir.add"(%287, %291) : (tensor<1x512x64x64xbf16>, tensor<1x512x64x64xbf16>) -> tensor<1x512x64x64xbf16> loc(#loc361)
        %293 = "ttir.typecast"(%292) <{conservative_folding = false}> : (tensor<1x512x64x64xbf16>) -> tensor<1x512x64x64xf32> loc(#loc362)
        %294 = "ttir.reshape"(%293) <{shape = [1 : i32, 32 : i32, 16 : i32, 4096 : i32]}> : (tensor<1x512x64x64xf32>) -> tensor<1x32x16x4096xf32> loc(#loc363)
        %295 = "ttir.sum"(%294) <{dim_arg = [2 : i32, 3 : i32], keep_dim = false}> : (tensor<1x32x16x4096xf32>) -> tensor<1x32xf32> loc(#loc364)
        %296 = "ttir.multiply"(%295, %39) : (tensor<1x32xf32>, tensor<1x32xf32>) -> tensor<1x32xf32> loc(#loc365)
        %297 = "ttir.reshape"(%296) <{shape = [1 : i32, 32 : i32, 1 : i32, 1 : i32]}> : (tensor<1x32xf32>) -> tensor<1x32x1x1xf32> loc(#loc366)
        %298 = "ttir.broadcast"(%297) <{broadcast_dimensions = array<i64: 1, 1, 16, 4096>}> : (tensor<1x32x1x1xf32>) -> tensor<1x32x16x4096xf32> loc(#loc366)
        %299 = "ttir.subtract"(%294, %298) : (tensor<1x32x16x4096xf32>, tensor<1x32x16x4096xf32>) -> tensor<1x32x16x4096xf32> loc(#loc367)
        %300 = "ttir.multiply"(%299, %299) : (tensor<1x32x16x4096xf32>, tensor<1x32x16x4096xf32>) -> tensor<1x32x16x4096xf32> loc(#loc368)
        %301 = "ttir.sum"(%300) <{dim_arg = [2 : i32, 3 : i32], keep_dim = false}> : (tensor<1x32x16x4096xf32>) -> tensor<1x32xf32> loc(#loc369)
        %302 = "ttir.multiply"(%301, %39) : (tensor<1x32xf32>, tensor<1x32xf32>) -> tensor<1x32xf32> loc(#loc370)
        %303 = "ttir.reshape"(%302) <{shape = [1 : i32, 32 : i32, 1 : i32, 1 : i32]}> : (tensor<1x32xf32>) -> tensor<1x32x1x1xf32> loc(#loc371)
        %304 = "ttir.add"(%303, %37) : (tensor<1x32x1x1xf32>, tensor<1x32x1x1xf32>) -> tensor<1x32x1x1xf32> loc(#loc372)
        %305 = "ttir.rsqrt"(%304) : (tensor<1x32x1x1xf32>) -> tensor<1x32x1x1xf32> loc(#loc373)
        %306 = "ttir.reshape"(%305) <{shape = [1 : i32, 32 : i32]}> : (tensor<1x32x1x1xf32>) -> tensor<1x32xf32> loc(#loc374)
        %307 = "ttir.reshape"(%306) <{shape = [1 : i32, 32 : i32, 1 : i32, 1 : i32]}> : (tensor<1x32xf32>) -> tensor<1x32x1x1xf32> loc(#loc375)
        %308 = "ttir.broadcast"(%307) <{broadcast_dimensions = array<i64: 1, 1, 16, 4096>}> : (tensor<1x32x1x1xf32>) -> tensor<1x32x16x4096xf32> loc(#loc375)
        %309 = "ttir.multiply"(%299, %308) : (tensor<1x32x16x4096xf32>, tensor<1x32x16x4096xf32>) -> tensor<1x32x16x4096xf32> loc(#loc376)
        %310 = "ttir.reshape"(%309) <{shape = [1 : i32, 512 : i32, 64 : i32, 64 : i32]}> : (tensor<1x32x16x4096xf32>) -> tensor<1x512x64x64xf32> loc(#loc377)
        %311 = "ttir.reshape"(%arg109) <{shape = [1 : i32, 1 : i32, 512 : i32]}> : (tensor<512xbf16>) -> tensor<1x1x512xbf16> loc(#loc378)
        %312 = "ttir.reshape"(%311) <{shape = [1 : i32, 512 : i32, 1 : i32, 1 : i32]}> : (tensor<1x1x512xbf16>) -> tensor<1x512x1x1xbf16> loc(#loc379)
        %313 = "ttir.typecast"(%312) <{conservative_folding = false}> : (tensor<1x512x1x1xbf16>) -> tensor<1x512x1x1xf32> loc(#loc380)
        %314 = "ttir.reshape"(%313) <{shape = [1 : i32, 512 : i32]}> : (tensor<1x512x1x1xf32>) -> tensor<1x512xf32> loc(#loc381)
        %315 = "ttir.reshape"(%314) <{shape = [1 : i32, 512 : i32, 1 : i32, 1 : i32]}> : (tensor<1x512xf32>) -> tensor<1x512x1x1xf32> loc(#loc382)
        %316 = "ttir.broadcast"(%315) <{broadcast_dimensions = array<i64: 1, 1, 64, 64>}> : (tensor<1x512x1x1xf32>) -> tensor<1x512x64x64xf32> loc(#loc382)
        %317 = "ttir.multiply"(%310, %316) : (tensor<1x512x64x64xf32>, tensor<1x512x64x64xf32>) -> tensor<1x512x64x64xf32> loc(#loc383)
        %318 = "ttir.reshape"(%arg108) <{shape = [1 : i32, 1 : i32, 512 : i32]}> : (tensor<512xbf16>) -> tensor<1x1x512xbf16> loc(#loc384)
        %319 = "ttir.reshape"(%318) <{shape = [1 : i32, 512 : i32, 1 : i32, 1 : i32]}> : (tensor<1x1x512xbf16>) -> tensor<1x512x1x1xbf16> loc(#loc385)
        %320 = "ttir.typecast"(%319) <{conservative_folding = false}> : (tensor<1x512x1x1xbf16>) -> tensor<1x512x1x1xf32> loc(#loc386)
        %321 = "ttir.reshape"(%320) <{shape = [1 : i32, 512 : i32]}> : (tensor<1x512x1x1xf32>) -> tensor<1x512xf32> loc(#loc387)
        %322 = "ttir.reshape"(%321) <{shape = [1 : i32, 512 : i32, 1 : i32, 1 : i32]}> : (tensor<1x512xf32>) -> tensor<1x512x1x1xf32> loc(#loc388)
        %323 = "ttir.broadcast"(%322) <{broadcast_dimensions = array<i64: 1, 1, 64, 64>}> : (tensor<1x512x1x1xf32>) -> tensor<1x512x64x64xf32> loc(#loc388)
        %324 = "ttir.add"(%317, %323) : (tensor<1x512x64x64xf32>, tensor<1x512x64x64xf32>) -> tensor<1x512x64x64xf32> loc(#loc389)
        %325 = "ttir.typecast"(%324) <{conservative_folding = false}> : (tensor<1x512x64x64xf32>) -> tensor<1x512x64x64xbf16> loc(#loc390)
        %326 = "ttir.typecast"(%325) <{conservative_folding = false}> : (tensor<1x512x64x64xbf16>) -> tensor<1x512x64x64xf32> loc(#loc391)
        %327 = "ttir.sigmoid"(%326) : (tensor<1x512x64x64xf32>) -> tensor<1x512x64x64xf32> loc(#loc392)
        %328 = "ttir.multiply"(%326, %327) : (tensor<1x512x64x64xf32>, tensor<1x512x64x64xf32>) -> tensor<1x512x64x64xf32> loc(#loc393)
        %329 = "ttir.typecast"(%328) <{conservative_folding = false}> : (tensor<1x512x64x64xf32>) -> tensor<1x512x64x64xbf16> loc(#loc394)
        %330 = "ttir.permute"(%arg107) <{permutation = array<i64: 0, 1, 2, 3>}> : (tensor<512x512x3x3xbf16>) -> tensor<512x512x3x3xbf16> loc(#loc1441)
        %331 = "ttir.conv2d"(%329, %330) <{batch_dim = 0 : i64, channel_dim = 1 : i64, dilation = array<i32: 1, 1>, groups = 1 : i32, height_dim = 2 : i64, padding = array<i32: 1, 1, 1, 1>, stride = array<i32: 1, 1>, width_dim = 3 : i64}> : (tensor<1x512x64x64xbf16>, tensor<512x512x3x3xbf16>) -> tensor<1x512x64x64xbf16> loc(#loc395)
        %332 = "ttir.reshape"(%arg106) <{shape = [1 : i32, 1 : i32, 512 : i32]}> : (tensor<512xbf16>) -> tensor<1x1x512xbf16> loc(#loc396)
        %333 = "ttir.reshape"(%332) <{shape = [512 : i32]}> : (tensor<1x1x512xbf16>) -> tensor<512xbf16> loc(#loc397)
        %334 = "ttir.reshape"(%333) <{shape = [1 : i32, 512 : i32, 1 : i32, 1 : i32]}> : (tensor<512xbf16>) -> tensor<1x512x1x1xbf16> loc(#loc398)
        %335 = "ttir.broadcast"(%334) <{broadcast_dimensions = array<i64: 1, 1, 64, 64>}> : (tensor<1x512x1x1xbf16>) -> tensor<1x512x64x64xbf16> loc(#loc398)
        %336 = "ttir.add"(%331, %335) : (tensor<1x512x64x64xbf16>, tensor<1x512x64x64xbf16>) -> tensor<1x512x64x64xbf16> loc(#loc399)
        %337 = "ttir.add"(%248, %336) : (tensor<1x512x64x64xbf16>, tensor<1x512x64x64xbf16>) -> tensor<1x512x64x64xbf16> loc(#loc400)
        %338 = "ttir.div"(%337, %35) : (tensor<1x512x64x64xbf16>, tensor<1x512x64x64xbf16>) -> tensor<1x512x64x64xbf16> loc(#loc401)
        %339 = "ttir.typecast"(%338) <{conservative_folding = false}> : (tensor<1x512x64x64xbf16>) -> tensor<1x512x64x64xf32> loc(#loc402)
        %340 = "ttir.reshape"(%339) <{shape = [1 : i32, 32 : i32, 16 : i32, 4096 : i32]}> : (tensor<1x512x64x64xf32>) -> tensor<1x32x16x4096xf32> loc(#loc403)
        %341 = "ttir.sum"(%340) <{dim_arg = [2 : i32, 3 : i32], keep_dim = false}> : (tensor<1x32x16x4096xf32>) -> tensor<1x32xf32> loc(#loc404)
        %342 = "ttir.multiply"(%341, %39) : (tensor<1x32xf32>, tensor<1x32xf32>) -> tensor<1x32xf32> loc(#loc405)
        %343 = "ttir.reshape"(%342) <{shape = [1 : i32, 32 : i32, 1 : i32, 1 : i32]}> : (tensor<1x32xf32>) -> tensor<1x32x1x1xf32> loc(#loc406)
        %344 = "ttir.broadcast"(%343) <{broadcast_dimensions = array<i64: 1, 1, 16, 4096>}> : (tensor<1x32x1x1xf32>) -> tensor<1x32x16x4096xf32> loc(#loc406)
        %345 = "ttir.subtract"(%340, %344) : (tensor<1x32x16x4096xf32>, tensor<1x32x16x4096xf32>) -> tensor<1x32x16x4096xf32> loc(#loc407)
        %346 = "ttir.multiply"(%345, %345) : (tensor<1x32x16x4096xf32>, tensor<1x32x16x4096xf32>) -> tensor<1x32x16x4096xf32> loc(#loc408)
        %347 = "ttir.sum"(%346) <{dim_arg = [2 : i32, 3 : i32], keep_dim = false}> : (tensor<1x32x16x4096xf32>) -> tensor<1x32xf32> loc(#loc409)
        %348 = "ttir.multiply"(%347, %39) : (tensor<1x32xf32>, tensor<1x32xf32>) -> tensor<1x32xf32> loc(#loc410)
        %349 = "ttir.reshape"(%348) <{shape = [1 : i32, 32 : i32, 1 : i32, 1 : i32]}> : (tensor<1x32xf32>) -> tensor<1x32x1x1xf32> loc(#loc411)
        %350 = "ttir.add"(%349, %37) : (tensor<1x32x1x1xf32>, tensor<1x32x1x1xf32>) -> tensor<1x32x1x1xf32> loc(#loc412)
        %351 = "ttir.rsqrt"(%350) : (tensor<1x32x1x1xf32>) -> tensor<1x32x1x1xf32> loc(#loc413)
        %352 = "ttir.reshape"(%351) <{shape = [1 : i32, 32 : i32]}> : (tensor<1x32x1x1xf32>) -> tensor<1x32xf32> loc(#loc414)
        %353 = "ttir.reshape"(%352) <{shape = [1 : i32, 32 : i32, 1 : i32, 1 : i32]}> : (tensor<1x32xf32>) -> tensor<1x32x1x1xf32> loc(#loc415)
        %354 = "ttir.broadcast"(%353) <{broadcast_dimensions = array<i64: 1, 1, 16, 4096>}> : (tensor<1x32x1x1xf32>) -> tensor<1x32x16x4096xf32> loc(#loc415)
        %355 = "ttir.multiply"(%345, %354) : (tensor<1x32x16x4096xf32>, tensor<1x32x16x4096xf32>) -> tensor<1x32x16x4096xf32> loc(#loc416)
        %356 = "ttir.reshape"(%355) <{shape = [1 : i32, 512 : i32, 64 : i32, 64 : i32]}> : (tensor<1x32x16x4096xf32>) -> tensor<1x512x64x64xf32> loc(#loc417)
        %357 = "ttir.reshape"(%arg105) <{shape = [1 : i32, 1 : i32, 512 : i32]}> : (tensor<512xbf16>) -> tensor<1x1x512xbf16> loc(#loc418)
        %358 = "ttir.reshape"(%357) <{shape = [1 : i32, 512 : i32, 1 : i32, 1 : i32]}> : (tensor<1x1x512xbf16>) -> tensor<1x512x1x1xbf16> loc(#loc419)
        %359 = "ttir.typecast"(%358) <{conservative_folding = false}> : (tensor<1x512x1x1xbf16>) -> tensor<1x512x1x1xf32> loc(#loc420)
        %360 = "ttir.reshape"(%359) <{shape = [1 : i32, 512 : i32]}> : (tensor<1x512x1x1xf32>) -> tensor<1x512xf32> loc(#loc421)
        %361 = "ttir.reshape"(%360) <{shape = [1 : i32, 512 : i32, 1 : i32, 1 : i32]}> : (tensor<1x512xf32>) -> tensor<1x512x1x1xf32> loc(#loc422)
        %362 = "ttir.broadcast"(%361) <{broadcast_dimensions = array<i64: 1, 1, 64, 64>}> : (tensor<1x512x1x1xf32>) -> tensor<1x512x64x64xf32> loc(#loc422)
        %363 = "ttir.multiply"(%356, %362) : (tensor<1x512x64x64xf32>, tensor<1x512x64x64xf32>) -> tensor<1x512x64x64xf32> loc(#loc423)
        %364 = "ttir.reshape"(%arg104) <{shape = [1 : i32, 1 : i32, 512 : i32]}> : (tensor<512xbf16>) -> tensor<1x1x512xbf16> loc(#loc424)
        %365 = "ttir.reshape"(%364) <{shape = [1 : i32, 512 : i32, 1 : i32, 1 : i32]}> : (tensor<1x1x512xbf16>) -> tensor<1x512x1x1xbf16> loc(#loc425)
        %366 = "ttir.typecast"(%365) <{conservative_folding = false}> : (tensor<1x512x1x1xbf16>) -> tensor<1x512x1x1xf32> loc(#loc426)
        %367 = "ttir.reshape"(%366) <{shape = [1 : i32, 512 : i32]}> : (tensor<1x512x1x1xf32>) -> tensor<1x512xf32> loc(#loc427)
        %368 = "ttir.reshape"(%367) <{shape = [1 : i32, 512 : i32, 1 : i32, 1 : i32]}> : (tensor<1x512xf32>) -> tensor<1x512x1x1xf32> loc(#loc428)
        %369 = "ttir.broadcast"(%368) <{broadcast_dimensions = array<i64: 1, 1, 64, 64>}> : (tensor<1x512x1x1xf32>) -> tensor<1x512x64x64xf32> loc(#loc428)
        %370 = "ttir.add"(%363, %369) : (tensor<1x512x64x64xf32>, tensor<1x512x64x64xf32>) -> tensor<1x512x64x64xf32> loc(#loc429)
        %371 = "ttir.typecast"(%370) <{conservative_folding = false}> : (tensor<1x512x64x64xf32>) -> tensor<1x512x64x64xbf16> loc(#loc430)
        %372 = "ttir.typecast"(%371) <{conservative_folding = false}> : (tensor<1x512x64x64xbf16>) -> tensor<1x512x64x64xf32> loc(#loc431)
        %373 = "ttir.sigmoid"(%372) : (tensor<1x512x64x64xf32>) -> tensor<1x512x64x64xf32> loc(#loc432)
        %374 = "ttir.multiply"(%372, %373) : (tensor<1x512x64x64xf32>, tensor<1x512x64x64xf32>) -> tensor<1x512x64x64xf32> loc(#loc433)
        %375 = "ttir.typecast"(%374) <{conservative_folding = false}> : (tensor<1x512x64x64xf32>) -> tensor<1x512x64x64xbf16> loc(#loc434)
        %376 = "ttir.permute"(%arg103) <{permutation = array<i64: 0, 1, 2, 3>}> : (tensor<512x512x3x3xbf16>) -> tensor<512x512x3x3xbf16> loc(#loc1442)
        %377 = "ttir.conv2d"(%375, %376) <{batch_dim = 0 : i64, channel_dim = 1 : i64, dilation = array<i32: 1, 1>, groups = 1 : i32, height_dim = 2 : i64, padding = array<i32: 1, 1, 1, 1>, stride = array<i32: 1, 1>, width_dim = 3 : i64}> : (tensor<1x512x64x64xbf16>, tensor<512x512x3x3xbf16>) -> tensor<1x512x64x64xbf16> loc(#loc435)
        %378 = "ttir.reshape"(%arg102) <{shape = [1 : i32, 1 : i32, 512 : i32]}> : (tensor<512xbf16>) -> tensor<1x1x512xbf16> loc(#loc436)
        %379 = "ttir.reshape"(%378) <{shape = [512 : i32]}> : (tensor<1x1x512xbf16>) -> tensor<512xbf16> loc(#loc437)
        %380 = "ttir.reshape"(%379) <{shape = [1 : i32, 512 : i32, 1 : i32, 1 : i32]}> : (tensor<512xbf16>) -> tensor<1x512x1x1xbf16> loc(#loc438)
        %381 = "ttir.broadcast"(%380) <{broadcast_dimensions = array<i64: 1, 1, 64, 64>}> : (tensor<1x512x1x1xbf16>) -> tensor<1x512x64x64xbf16> loc(#loc438)
        %382 = "ttir.add"(%377, %381) : (tensor<1x512x64x64xbf16>, tensor<1x512x64x64xbf16>) -> tensor<1x512x64x64xbf16> loc(#loc439)
        %383 = "ttir.typecast"(%382) <{conservative_folding = false}> : (tensor<1x512x64x64xbf16>) -> tensor<1x512x64x64xf32> loc(#loc440)
        %384 = "ttir.reshape"(%383) <{shape = [1 : i32, 32 : i32, 16 : i32, 4096 : i32]}> : (tensor<1x512x64x64xf32>) -> tensor<1x32x16x4096xf32> loc(#loc441)
        %385 = "ttir.sum"(%384) <{dim_arg = [2 : i32, 3 : i32], keep_dim = false}> : (tensor<1x32x16x4096xf32>) -> tensor<1x32xf32> loc(#loc442)
        %386 = "ttir.multiply"(%385, %39) : (tensor<1x32xf32>, tensor<1x32xf32>) -> tensor<1x32xf32> loc(#loc443)
        %387 = "ttir.reshape"(%386) <{shape = [1 : i32, 32 : i32, 1 : i32, 1 : i32]}> : (tensor<1x32xf32>) -> tensor<1x32x1x1xf32> loc(#loc444)
        %388 = "ttir.broadcast"(%387) <{broadcast_dimensions = array<i64: 1, 1, 16, 4096>}> : (tensor<1x32x1x1xf32>) -> tensor<1x32x16x4096xf32> loc(#loc444)
        %389 = "ttir.subtract"(%384, %388) : (tensor<1x32x16x4096xf32>, tensor<1x32x16x4096xf32>) -> tensor<1x32x16x4096xf32> loc(#loc445)
        %390 = "ttir.multiply"(%389, %389) : (tensor<1x32x16x4096xf32>, tensor<1x32x16x4096xf32>) -> tensor<1x32x16x4096xf32> loc(#loc446)
        %391 = "ttir.sum"(%390) <{dim_arg = [2 : i32, 3 : i32], keep_dim = false}> : (tensor<1x32x16x4096xf32>) -> tensor<1x32xf32> loc(#loc447)
        %392 = "ttir.multiply"(%391, %39) : (tensor<1x32xf32>, tensor<1x32xf32>) -> tensor<1x32xf32> loc(#loc448)
        %393 = "ttir.reshape"(%392) <{shape = [1 : i32, 32 : i32, 1 : i32, 1 : i32]}> : (tensor<1x32xf32>) -> tensor<1x32x1x1xf32> loc(#loc449)
        %394 = "ttir.add"(%393, %37) : (tensor<1x32x1x1xf32>, tensor<1x32x1x1xf32>) -> tensor<1x32x1x1xf32> loc(#loc450)
        %395 = "ttir.rsqrt"(%394) : (tensor<1x32x1x1xf32>) -> tensor<1x32x1x1xf32> loc(#loc451)
        %396 = "ttir.reshape"(%395) <{shape = [1 : i32, 32 : i32]}> : (tensor<1x32x1x1xf32>) -> tensor<1x32xf32> loc(#loc452)
        %397 = "ttir.reshape"(%396) <{shape = [1 : i32, 32 : i32, 1 : i32, 1 : i32]}> : (tensor<1x32xf32>) -> tensor<1x32x1x1xf32> loc(#loc453)
        %398 = "ttir.broadcast"(%397) <{broadcast_dimensions = array<i64: 1, 1, 16, 4096>}> : (tensor<1x32x1x1xf32>) -> tensor<1x32x16x4096xf32> loc(#loc453)
        %399 = "ttir.multiply"(%389, %398) : (tensor<1x32x16x4096xf32>, tensor<1x32x16x4096xf32>) -> tensor<1x32x16x4096xf32> loc(#loc454)
        %400 = "ttir.reshape"(%399) <{shape = [1 : i32, 512 : i32, 64 : i32, 64 : i32]}> : (tensor<1x32x16x4096xf32>) -> tensor<1x512x64x64xf32> loc(#loc455)
        %401 = "ttir.reshape"(%arg101) <{shape = [1 : i32, 1 : i32, 512 : i32]}> : (tensor<512xbf16>) -> tensor<1x1x512xbf16> loc(#loc456)
        %402 = "ttir.reshape"(%401) <{shape = [1 : i32, 512 : i32, 1 : i32, 1 : i32]}> : (tensor<1x1x512xbf16>) -> tensor<1x512x1x1xbf16> loc(#loc457)
        %403 = "ttir.typecast"(%402) <{conservative_folding = false}> : (tensor<1x512x1x1xbf16>) -> tensor<1x512x1x1xf32> loc(#loc458)
        %404 = "ttir.reshape"(%403) <{shape = [1 : i32, 512 : i32]}> : (tensor<1x512x1x1xf32>) -> tensor<1x512xf32> loc(#loc459)
        %405 = "ttir.reshape"(%404) <{shape = [1 : i32, 512 : i32, 1 : i32, 1 : i32]}> : (tensor<1x512xf32>) -> tensor<1x512x1x1xf32> loc(#loc460)
        %406 = "ttir.broadcast"(%405) <{broadcast_dimensions = array<i64: 1, 1, 64, 64>}> : (tensor<1x512x1x1xf32>) -> tensor<1x512x64x64xf32> loc(#loc460)
        %407 = "ttir.multiply"(%400, %406) : (tensor<1x512x64x64xf32>, tensor<1x512x64x64xf32>) -> tensor<1x512x64x64xf32> loc(#loc461)
        %408 = "ttir.reshape"(%arg100) <{shape = [1 : i32, 1 : i32, 512 : i32]}> : (tensor<512xbf16>) -> tensor<1x1x512xbf16> loc(#loc462)
        %409 = "ttir.reshape"(%408) <{shape = [1 : i32, 512 : i32, 1 : i32, 1 : i32]}> : (tensor<1x1x512xbf16>) -> tensor<1x512x1x1xbf16> loc(#loc463)
        %410 = "ttir.typecast"(%409) <{conservative_folding = false}> : (tensor<1x512x1x1xbf16>) -> tensor<1x512x1x1xf32> loc(#loc464)
        %411 = "ttir.reshape"(%410) <{shape = [1 : i32, 512 : i32]}> : (tensor<1x512x1x1xf32>) -> tensor<1x512xf32> loc(#loc465)
        %412 = "ttir.reshape"(%411) <{shape = [1 : i32, 512 : i32, 1 : i32, 1 : i32]}> : (tensor<1x512xf32>) -> tensor<1x512x1x1xf32> loc(#loc466)
        %413 = "ttir.broadcast"(%412) <{broadcast_dimensions = array<i64: 1, 1, 64, 64>}> : (tensor<1x512x1x1xf32>) -> tensor<1x512x64x64xf32> loc(#loc466)
        %414 = "ttir.add"(%407, %413) : (tensor<1x512x64x64xf32>, tensor<1x512x64x64xf32>) -> tensor<1x512x64x64xf32> loc(#loc467)
        %415 = "ttir.typecast"(%414) <{conservative_folding = false}> : (tensor<1x512x64x64xf32>) -> tensor<1x512x64x64xbf16> loc(#loc468)
        %416 = "ttir.typecast"(%415) <{conservative_folding = false}> : (tensor<1x512x64x64xbf16>) -> tensor<1x512x64x64xf32> loc(#loc469)
        %417 = "ttir.sigmoid"(%416) : (tensor<1x512x64x64xf32>) -> tensor<1x512x64x64xf32> loc(#loc470)
        %418 = "ttir.multiply"(%416, %417) : (tensor<1x512x64x64xf32>, tensor<1x512x64x64xf32>) -> tensor<1x512x64x64xf32> loc(#loc471)
        %419 = "ttir.typecast"(%418) <{conservative_folding = false}> : (tensor<1x512x64x64xf32>) -> tensor<1x512x64x64xbf16> loc(#loc472)
        %420 = "ttir.permute"(%arg99) <{permutation = array<i64: 0, 1, 2, 3>}> : (tensor<512x512x3x3xbf16>) -> tensor<512x512x3x3xbf16> loc(#loc1443)
        %421 = "ttir.conv2d"(%419, %420) <{batch_dim = 0 : i64, channel_dim = 1 : i64, dilation = array<i32: 1, 1>, groups = 1 : i32, height_dim = 2 : i64, padding = array<i32: 1, 1, 1, 1>, stride = array<i32: 1, 1>, width_dim = 3 : i64}> : (tensor<1x512x64x64xbf16>, tensor<512x512x3x3xbf16>) -> tensor<1x512x64x64xbf16> loc(#loc473)
        %422 = "ttir.reshape"(%arg98) <{shape = [1 : i32, 1 : i32, 512 : i32]}> : (tensor<512xbf16>) -> tensor<1x1x512xbf16> loc(#loc474)
        %423 = "ttir.reshape"(%422) <{shape = [512 : i32]}> : (tensor<1x1x512xbf16>) -> tensor<512xbf16> loc(#loc475)
        %424 = "ttir.reshape"(%423) <{shape = [1 : i32, 512 : i32, 1 : i32, 1 : i32]}> : (tensor<512xbf16>) -> tensor<1x512x1x1xbf16> loc(#loc476)
        %425 = "ttir.broadcast"(%424) <{broadcast_dimensions = array<i64: 1, 1, 64, 64>}> : (tensor<1x512x1x1xbf16>) -> tensor<1x512x64x64xbf16> loc(#loc476)
        %426 = "ttir.add"(%421, %425) : (tensor<1x512x64x64xbf16>, tensor<1x512x64x64xbf16>) -> tensor<1x512x64x64xbf16> loc(#loc477)
        %427 = "ttir.add"(%338, %426) : (tensor<1x512x64x64xbf16>, tensor<1x512x64x64xbf16>) -> tensor<1x512x64x64xbf16> loc(#loc478)
        %428 = "ttir.div"(%427, %35) : (tensor<1x512x64x64xbf16>, tensor<1x512x64x64xbf16>) -> tensor<1x512x64x64xbf16> loc(#loc479)
        %429 = "ttir.typecast"(%428) <{conservative_folding = false}> : (tensor<1x512x64x64xbf16>) -> tensor<1x512x64x64xf32> loc(#loc480)
        %430 = "ttir.reshape"(%429) <{shape = [1 : i32, 32 : i32, 16 : i32, 4096 : i32]}> : (tensor<1x512x64x64xf32>) -> tensor<1x32x16x4096xf32> loc(#loc481)
        %431 = "ttir.sum"(%430) <{dim_arg = [2 : i32, 3 : i32], keep_dim = false}> : (tensor<1x32x16x4096xf32>) -> tensor<1x32xf32> loc(#loc482)
        %432 = "ttir.multiply"(%431, %39) : (tensor<1x32xf32>, tensor<1x32xf32>) -> tensor<1x32xf32> loc(#loc483)
        %433 = "ttir.reshape"(%432) <{shape = [1 : i32, 32 : i32, 1 : i32, 1 : i32]}> : (tensor<1x32xf32>) -> tensor<1x32x1x1xf32> loc(#loc484)
        %434 = "ttir.broadcast"(%433) <{broadcast_dimensions = array<i64: 1, 1, 16, 4096>}> : (tensor<1x32x1x1xf32>) -> tensor<1x32x16x4096xf32> loc(#loc484)
        %435 = "ttir.subtract"(%430, %434) : (tensor<1x32x16x4096xf32>, tensor<1x32x16x4096xf32>) -> tensor<1x32x16x4096xf32> loc(#loc485)
        %436 = "ttir.multiply"(%435, %435) : (tensor<1x32x16x4096xf32>, tensor<1x32x16x4096xf32>) -> tensor<1x32x16x4096xf32> loc(#loc486)
        %437 = "ttir.sum"(%436) <{dim_arg = [2 : i32, 3 : i32], keep_dim = false}> : (tensor<1x32x16x4096xf32>) -> tensor<1x32xf32> loc(#loc487)
        %438 = "ttir.multiply"(%437, %39) : (tensor<1x32xf32>, tensor<1x32xf32>) -> tensor<1x32xf32> loc(#loc488)
        %439 = "ttir.reshape"(%438) <{shape = [1 : i32, 32 : i32, 1 : i32, 1 : i32]}> : (tensor<1x32xf32>) -> tensor<1x32x1x1xf32> loc(#loc489)
        %440 = "ttir.add"(%439, %37) : (tensor<1x32x1x1xf32>, tensor<1x32x1x1xf32>) -> tensor<1x32x1x1xf32> loc(#loc490)
        %441 = "ttir.rsqrt"(%440) : (tensor<1x32x1x1xf32>) -> tensor<1x32x1x1xf32> loc(#loc491)
        %442 = "ttir.reshape"(%441) <{shape = [1 : i32, 32 : i32]}> : (tensor<1x32x1x1xf32>) -> tensor<1x32xf32> loc(#loc492)
        %443 = "ttir.reshape"(%442) <{shape = [1 : i32, 32 : i32, 1 : i32, 1 : i32]}> : (tensor<1x32xf32>) -> tensor<1x32x1x1xf32> loc(#loc493)
        %444 = "ttir.broadcast"(%443) <{broadcast_dimensions = array<i64: 1, 1, 16, 4096>}> : (tensor<1x32x1x1xf32>) -> tensor<1x32x16x4096xf32> loc(#loc493)
        %445 = "ttir.multiply"(%435, %444) : (tensor<1x32x16x4096xf32>, tensor<1x32x16x4096xf32>) -> tensor<1x32x16x4096xf32> loc(#loc494)
        %446 = "ttir.reshape"(%445) <{shape = [1 : i32, 512 : i32, 64 : i32, 64 : i32]}> : (tensor<1x32x16x4096xf32>) -> tensor<1x512x64x64xf32> loc(#loc495)
        %447 = "ttir.reshape"(%arg97) <{shape = [1 : i32, 1 : i32, 512 : i32]}> : (tensor<512xbf16>) -> tensor<1x1x512xbf16> loc(#loc496)
        %448 = "ttir.reshape"(%447) <{shape = [1 : i32, 512 : i32, 1 : i32, 1 : i32]}> : (tensor<1x1x512xbf16>) -> tensor<1x512x1x1xbf16> loc(#loc497)
        %449 = "ttir.typecast"(%448) <{conservative_folding = false}> : (tensor<1x512x1x1xbf16>) -> tensor<1x512x1x1xf32> loc(#loc498)
        %450 = "ttir.reshape"(%449) <{shape = [1 : i32, 512 : i32]}> : (tensor<1x512x1x1xf32>) -> tensor<1x512xf32> loc(#loc499)
        %451 = "ttir.reshape"(%450) <{shape = [1 : i32, 512 : i32, 1 : i32, 1 : i32]}> : (tensor<1x512xf32>) -> tensor<1x512x1x1xf32> loc(#loc500)
        %452 = "ttir.broadcast"(%451) <{broadcast_dimensions = array<i64: 1, 1, 64, 64>}> : (tensor<1x512x1x1xf32>) -> tensor<1x512x64x64xf32> loc(#loc500)
        %453 = "ttir.multiply"(%446, %452) : (tensor<1x512x64x64xf32>, tensor<1x512x64x64xf32>) -> tensor<1x512x64x64xf32> loc(#loc501)
        %454 = "ttir.reshape"(%arg96) <{shape = [1 : i32, 1 : i32, 512 : i32]}> : (tensor<512xbf16>) -> tensor<1x1x512xbf16> loc(#loc502)
        %455 = "ttir.reshape"(%454) <{shape = [1 : i32, 512 : i32, 1 : i32, 1 : i32]}> : (tensor<1x1x512xbf16>) -> tensor<1x512x1x1xbf16> loc(#loc503)
        %456 = "ttir.typecast"(%455) <{conservative_folding = false}> : (tensor<1x512x1x1xbf16>) -> tensor<1x512x1x1xf32> loc(#loc504)
        %457 = "ttir.reshape"(%456) <{shape = [1 : i32, 512 : i32]}> : (tensor<1x512x1x1xf32>) -> tensor<1x512xf32> loc(#loc505)
        %458 = "ttir.reshape"(%457) <{shape = [1 : i32, 512 : i32, 1 : i32, 1 : i32]}> : (tensor<1x512xf32>) -> tensor<1x512x1x1xf32> loc(#loc506)
        %459 = "ttir.broadcast"(%458) <{broadcast_dimensions = array<i64: 1, 1, 64, 64>}> : (tensor<1x512x1x1xf32>) -> tensor<1x512x64x64xf32> loc(#loc506)
        %460 = "ttir.add"(%453, %459) : (tensor<1x512x64x64xf32>, tensor<1x512x64x64xf32>) -> tensor<1x512x64x64xf32> loc(#loc507)
        %461 = "ttir.typecast"(%460) <{conservative_folding = false}> : (tensor<1x512x64x64xf32>) -> tensor<1x512x64x64xbf16> loc(#loc508)
        %462 = "ttir.typecast"(%461) <{conservative_folding = false}> : (tensor<1x512x64x64xbf16>) -> tensor<1x512x64x64xf32> loc(#loc509)
        %463 = "ttir.sigmoid"(%462) : (tensor<1x512x64x64xf32>) -> tensor<1x512x64x64xf32> loc(#loc510)
        %464 = "ttir.multiply"(%462, %463) : (tensor<1x512x64x64xf32>, tensor<1x512x64x64xf32>) -> tensor<1x512x64x64xf32> loc(#loc511)
        %465 = "ttir.typecast"(%464) <{conservative_folding = false}> : (tensor<1x512x64x64xf32>) -> tensor<1x512x64x64xbf16> loc(#loc512)
        %466 = "ttir.permute"(%arg95) <{permutation = array<i64: 0, 1, 2, 3>}> : (tensor<512x512x3x3xbf16>) -> tensor<512x512x3x3xbf16> loc(#loc1444)
        %467 = "ttir.conv2d"(%465, %466) <{batch_dim = 0 : i64, channel_dim = 1 : i64, dilation = array<i32: 1, 1>, groups = 1 : i32, height_dim = 2 : i64, padding = array<i32: 1, 1, 1, 1>, stride = array<i32: 1, 1>, width_dim = 3 : i64}> : (tensor<1x512x64x64xbf16>, tensor<512x512x3x3xbf16>) -> tensor<1x512x64x64xbf16> loc(#loc513)
        %468 = "ttir.reshape"(%arg94) <{shape = [1 : i32, 1 : i32, 512 : i32]}> : (tensor<512xbf16>) -> tensor<1x1x512xbf16> loc(#loc514)
        %469 = "ttir.reshape"(%468) <{shape = [512 : i32]}> : (tensor<1x1x512xbf16>) -> tensor<512xbf16> loc(#loc515)
        %470 = "ttir.reshape"(%469) <{shape = [1 : i32, 512 : i32, 1 : i32, 1 : i32]}> : (tensor<512xbf16>) -> tensor<1x512x1x1xbf16> loc(#loc516)
        %471 = "ttir.broadcast"(%470) <{broadcast_dimensions = array<i64: 1, 1, 64, 64>}> : (tensor<1x512x1x1xbf16>) -> tensor<1x512x64x64xbf16> loc(#loc516)
        %472 = "ttir.add"(%467, %471) : (tensor<1x512x64x64xbf16>, tensor<1x512x64x64xbf16>) -> tensor<1x512x64x64xbf16> loc(#loc517)
        %473 = "ttir.typecast"(%472) <{conservative_folding = false}> : (tensor<1x512x64x64xbf16>) -> tensor<1x512x64x64xf32> loc(#loc518)
        %474 = "ttir.reshape"(%473) <{shape = [1 : i32, 32 : i32, 16 : i32, 4096 : i32]}> : (tensor<1x512x64x64xf32>) -> tensor<1x32x16x4096xf32> loc(#loc519)
        %475 = "ttir.sum"(%474) <{dim_arg = [2 : i32, 3 : i32], keep_dim = false}> : (tensor<1x32x16x4096xf32>) -> tensor<1x32xf32> loc(#loc520)
        %476 = "ttir.multiply"(%475, %39) : (tensor<1x32xf32>, tensor<1x32xf32>) -> tensor<1x32xf32> loc(#loc521)
        %477 = "ttir.reshape"(%476) <{shape = [1 : i32, 32 : i32, 1 : i32, 1 : i32]}> : (tensor<1x32xf32>) -> tensor<1x32x1x1xf32> loc(#loc522)
        %478 = "ttir.broadcast"(%477) <{broadcast_dimensions = array<i64: 1, 1, 16, 4096>}> : (tensor<1x32x1x1xf32>) -> tensor<1x32x16x4096xf32> loc(#loc522)
        %479 = "ttir.subtract"(%474, %478) : (tensor<1x32x16x4096xf32>, tensor<1x32x16x4096xf32>) -> tensor<1x32x16x4096xf32> loc(#loc523)
        %480 = "ttir.multiply"(%479, %479) : (tensor<1x32x16x4096xf32>, tensor<1x32x16x4096xf32>) -> tensor<1x32x16x4096xf32> loc(#loc524)
        %481 = "ttir.sum"(%480) <{dim_arg = [2 : i32, 3 : i32], keep_dim = false}> : (tensor<1x32x16x4096xf32>) -> tensor<1x32xf32> loc(#loc525)
        %482 = "ttir.multiply"(%481, %39) : (tensor<1x32xf32>, tensor<1x32xf32>) -> tensor<1x32xf32> loc(#loc526)
        %483 = "ttir.reshape"(%482) <{shape = [1 : i32, 32 : i32, 1 : i32, 1 : i32]}> : (tensor<1x32xf32>) -> tensor<1x32x1x1xf32> loc(#loc527)
        %484 = "ttir.add"(%483, %37) : (tensor<1x32x1x1xf32>, tensor<1x32x1x1xf32>) -> tensor<1x32x1x1xf32> loc(#loc528)
        %485 = "ttir.rsqrt"(%484) : (tensor<1x32x1x1xf32>) -> tensor<1x32x1x1xf32> loc(#loc529)
        %486 = "ttir.reshape"(%485) <{shape = [1 : i32, 32 : i32]}> : (tensor<1x32x1x1xf32>) -> tensor<1x32xf32> loc(#loc530)
        %487 = "ttir.reshape"(%486) <{shape = [1 : i32, 32 : i32, 1 : i32, 1 : i32]}> : (tensor<1x32xf32>) -> tensor<1x32x1x1xf32> loc(#loc531)
        %488 = "ttir.broadcast"(%487) <{broadcast_dimensions = array<i64: 1, 1, 16, 4096>}> : (tensor<1x32x1x1xf32>) -> tensor<1x32x16x4096xf32> loc(#loc531)
        %489 = "ttir.multiply"(%479, %488) : (tensor<1x32x16x4096xf32>, tensor<1x32x16x4096xf32>) -> tensor<1x32x16x4096xf32> loc(#loc532)
        %490 = "ttir.reshape"(%489) <{shape = [1 : i32, 512 : i32, 64 : i32, 64 : i32]}> : (tensor<1x32x16x4096xf32>) -> tensor<1x512x64x64xf32> loc(#loc533)
        %491 = "ttir.reshape"(%arg93) <{shape = [1 : i32, 1 : i32, 512 : i32]}> : (tensor<512xbf16>) -> tensor<1x1x512xbf16> loc(#loc534)
        %492 = "ttir.reshape"(%491) <{shape = [1 : i32, 512 : i32, 1 : i32, 1 : i32]}> : (tensor<1x1x512xbf16>) -> tensor<1x512x1x1xbf16> loc(#loc535)
        %493 = "ttir.typecast"(%492) <{conservative_folding = false}> : (tensor<1x512x1x1xbf16>) -> tensor<1x512x1x1xf32> loc(#loc536)
        %494 = "ttir.reshape"(%493) <{shape = [1 : i32, 512 : i32]}> : (tensor<1x512x1x1xf32>) -> tensor<1x512xf32> loc(#loc537)
        %495 = "ttir.reshape"(%494) <{shape = [1 : i32, 512 : i32, 1 : i32, 1 : i32]}> : (tensor<1x512xf32>) -> tensor<1x512x1x1xf32> loc(#loc538)
        %496 = "ttir.broadcast"(%495) <{broadcast_dimensions = array<i64: 1, 1, 64, 64>}> : (tensor<1x512x1x1xf32>) -> tensor<1x512x64x64xf32> loc(#loc538)
        %497 = "ttir.multiply"(%490, %496) : (tensor<1x512x64x64xf32>, tensor<1x512x64x64xf32>) -> tensor<1x512x64x64xf32> loc(#loc539)
        %498 = "ttir.reshape"(%arg92) <{shape = [1 : i32, 1 : i32, 512 : i32]}> : (tensor<512xbf16>) -> tensor<1x1x512xbf16> loc(#loc540)
        %499 = "ttir.reshape"(%498) <{shape = [1 : i32, 512 : i32, 1 : i32, 1 : i32]}> : (tensor<1x1x512xbf16>) -> tensor<1x512x1x1xbf16> loc(#loc541)
        %500 = "ttir.typecast"(%499) <{conservative_folding = false}> : (tensor<1x512x1x1xbf16>) -> tensor<1x512x1x1xf32> loc(#loc542)
        %501 = "ttir.reshape"(%500) <{shape = [1 : i32, 512 : i32]}> : (tensor<1x512x1x1xf32>) -> tensor<1x512xf32> loc(#loc543)
        %502 = "ttir.reshape"(%501) <{shape = [1 : i32, 512 : i32, 1 : i32, 1 : i32]}> : (tensor<1x512xf32>) -> tensor<1x512x1x1xf32> loc(#loc544)
        %503 = "ttir.broadcast"(%502) <{broadcast_dimensions = array<i64: 1, 1, 64, 64>}> : (tensor<1x512x1x1xf32>) -> tensor<1x512x64x64xf32> loc(#loc544)
        %504 = "ttir.add"(%497, %503) : (tensor<1x512x64x64xf32>, tensor<1x512x64x64xf32>) -> tensor<1x512x64x64xf32> loc(#loc545)
        %505 = "ttir.typecast"(%504) <{conservative_folding = false}> : (tensor<1x512x64x64xf32>) -> tensor<1x512x64x64xbf16> loc(#loc546)
        %506 = "ttir.typecast"(%505) <{conservative_folding = false}> : (tensor<1x512x64x64xbf16>) -> tensor<1x512x64x64xf32> loc(#loc547)
        %507 = "ttir.sigmoid"(%506) : (tensor<1x512x64x64xf32>) -> tensor<1x512x64x64xf32> loc(#loc548)
        %508 = "ttir.multiply"(%506, %507) : (tensor<1x512x64x64xf32>, tensor<1x512x64x64xf32>) -> tensor<1x512x64x64xf32> loc(#loc549)
        %509 = "ttir.typecast"(%508) <{conservative_folding = false}> : (tensor<1x512x64x64xf32>) -> tensor<1x512x64x64xbf16> loc(#loc550)
        %510 = "ttir.permute"(%arg91) <{permutation = array<i64: 0, 1, 2, 3>}> : (tensor<512x512x3x3xbf16>) -> tensor<512x512x3x3xbf16> loc(#loc1445)
        %511 = "ttir.conv2d"(%509, %510) <{batch_dim = 0 : i64, channel_dim = 1 : i64, dilation = array<i32: 1, 1>, groups = 1 : i32, height_dim = 2 : i64, padding = array<i32: 1, 1, 1, 1>, stride = array<i32: 1, 1>, width_dim = 3 : i64}> : (tensor<1x512x64x64xbf16>, tensor<512x512x3x3xbf16>) -> tensor<1x512x64x64xbf16> loc(#loc551)
        %512 = "ttir.reshape"(%arg90) <{shape = [1 : i32, 1 : i32, 512 : i32]}> : (tensor<512xbf16>) -> tensor<1x1x512xbf16> loc(#loc552)
        %513 = "ttir.reshape"(%512) <{shape = [512 : i32]}> : (tensor<1x1x512xbf16>) -> tensor<512xbf16> loc(#loc553)
        %514 = "ttir.reshape"(%513) <{shape = [1 : i32, 512 : i32, 1 : i32, 1 : i32]}> : (tensor<512xbf16>) -> tensor<1x512x1x1xbf16> loc(#loc554)
        %515 = "ttir.broadcast"(%514) <{broadcast_dimensions = array<i64: 1, 1, 64, 64>}> : (tensor<1x512x1x1xbf16>) -> tensor<1x512x64x64xbf16> loc(#loc554)
        %516 = "ttir.add"(%511, %515) : (tensor<1x512x64x64xbf16>, tensor<1x512x64x64xbf16>) -> tensor<1x512x64x64xbf16> loc(#loc555)
        %517 = "ttir.add"(%428, %516) : (tensor<1x512x64x64xbf16>, tensor<1x512x64x64xbf16>) -> tensor<1x512x64x64xbf16> loc(#loc556)
        %518 = "ttir.div"(%517, %35) : (tensor<1x512x64x64xbf16>, tensor<1x512x64x64xbf16>) -> tensor<1x512x64x64xbf16> loc(#loc557)
        %519 = "ttir.typecast"(%518) <{conservative_folding = false}> : (tensor<1x512x64x64xbf16>) -> tensor<1x512x64x64xf32> loc(#loc558)
        %520 = "ttir.reshape"(%519) <{shape = [1 : i32, 32 : i32, 16 : i32, 4096 : i32]}> : (tensor<1x512x64x64xf32>) -> tensor<1x32x16x4096xf32> loc(#loc559)
        %521 = "ttir.sum"(%520) <{dim_arg = [2 : i32, 3 : i32], keep_dim = false}> : (tensor<1x32x16x4096xf32>) -> tensor<1x32xf32> loc(#loc560)
        %522 = "ttir.multiply"(%521, %39) : (tensor<1x32xf32>, tensor<1x32xf32>) -> tensor<1x32xf32> loc(#loc561)
        %523 = "ttir.reshape"(%522) <{shape = [1 : i32, 32 : i32, 1 : i32, 1 : i32]}> : (tensor<1x32xf32>) -> tensor<1x32x1x1xf32> loc(#loc562)
        %524 = "ttir.broadcast"(%523) <{broadcast_dimensions = array<i64: 1, 1, 16, 4096>}> : (tensor<1x32x1x1xf32>) -> tensor<1x32x16x4096xf32> loc(#loc562)
        %525 = "ttir.subtract"(%520, %524) : (tensor<1x32x16x4096xf32>, tensor<1x32x16x4096xf32>) -> tensor<1x32x16x4096xf32> loc(#loc563)
        %526 = "ttir.multiply"(%525, %525) : (tensor<1x32x16x4096xf32>, tensor<1x32x16x4096xf32>) -> tensor<1x32x16x4096xf32> loc(#loc564)
        %527 = "ttir.sum"(%526) <{dim_arg = [2 : i32, 3 : i32], keep_dim = false}> : (tensor<1x32x16x4096xf32>) -> tensor<1x32xf32> loc(#loc565)
        %528 = "ttir.multiply"(%527, %39) : (tensor<1x32xf32>, tensor<1x32xf32>) -> tensor<1x32xf32> loc(#loc566)
        %529 = "ttir.reshape"(%528) <{shape = [1 : i32, 32 : i32, 1 : i32, 1 : i32]}> : (tensor<1x32xf32>) -> tensor<1x32x1x1xf32> loc(#loc567)
        %530 = "ttir.add"(%529, %37) : (tensor<1x32x1x1xf32>, tensor<1x32x1x1xf32>) -> tensor<1x32x1x1xf32> loc(#loc568)
        %531 = "ttir.rsqrt"(%530) : (tensor<1x32x1x1xf32>) -> tensor<1x32x1x1xf32> loc(#loc569)
        %532 = "ttir.reshape"(%531) <{shape = [1 : i32, 32 : i32]}> : (tensor<1x32x1x1xf32>) -> tensor<1x32xf32> loc(#loc570)
        %533 = "ttir.reshape"(%532) <{shape = [1 : i32, 32 : i32, 1 : i32, 1 : i32]}> : (tensor<1x32xf32>) -> tensor<1x32x1x1xf32> loc(#loc571)
        %534 = "ttir.broadcast"(%533) <{broadcast_dimensions = array<i64: 1, 1, 16, 4096>}> : (tensor<1x32x1x1xf32>) -> tensor<1x32x16x4096xf32> loc(#loc571)
        %535 = "ttir.multiply"(%525, %534) : (tensor<1x32x16x4096xf32>, tensor<1x32x16x4096xf32>) -> tensor<1x32x16x4096xf32> loc(#loc572)
        %536 = "ttir.reshape"(%535) <{shape = [1 : i32, 512 : i32, 64 : i32, 64 : i32]}> : (tensor<1x32x16x4096xf32>) -> tensor<1x512x64x64xf32> loc(#loc573)
        %537 = "ttir.reshape"(%arg89) <{shape = [1 : i32, 1 : i32, 512 : i32]}> : (tensor<512xbf16>) -> tensor<1x1x512xbf16> loc(#loc574)
        %538 = "ttir.reshape"(%537) <{shape = [1 : i32, 512 : i32, 1 : i32, 1 : i32]}> : (tensor<1x1x512xbf16>) -> tensor<1x512x1x1xbf16> loc(#loc575)
        %539 = "ttir.typecast"(%538) <{conservative_folding = false}> : (tensor<1x512x1x1xbf16>) -> tensor<1x512x1x1xf32> loc(#loc576)
        %540 = "ttir.reshape"(%539) <{shape = [1 : i32, 512 : i32]}> : (tensor<1x512x1x1xf32>) -> tensor<1x512xf32> loc(#loc577)
        %541 = "ttir.reshape"(%540) <{shape = [1 : i32, 512 : i32, 1 : i32, 1 : i32]}> : (tensor<1x512xf32>) -> tensor<1x512x1x1xf32> loc(#loc578)
        %542 = "ttir.broadcast"(%541) <{broadcast_dimensions = array<i64: 1, 1, 64, 64>}> : (tensor<1x512x1x1xf32>) -> tensor<1x512x64x64xf32> loc(#loc578)
        %543 = "ttir.multiply"(%536, %542) : (tensor<1x512x64x64xf32>, tensor<1x512x64x64xf32>) -> tensor<1x512x64x64xf32> loc(#loc579)
        %544 = "ttir.reshape"(%arg88) <{shape = [1 : i32, 1 : i32, 512 : i32]}> : (tensor<512xbf16>) -> tensor<1x1x512xbf16> loc(#loc580)
        %545 = "ttir.reshape"(%544) <{shape = [1 : i32, 512 : i32, 1 : i32, 1 : i32]}> : (tensor<1x1x512xbf16>) -> tensor<1x512x1x1xbf16> loc(#loc581)
        %546 = "ttir.typecast"(%545) <{conservative_folding = false}> : (tensor<1x512x1x1xbf16>) -> tensor<1x512x1x1xf32> loc(#loc582)
        %547 = "ttir.reshape"(%546) <{shape = [1 : i32, 512 : i32]}> : (tensor<1x512x1x1xf32>) -> tensor<1x512xf32> loc(#loc583)
        %548 = "ttir.reshape"(%547) <{shape = [1 : i32, 512 : i32, 1 : i32, 1 : i32]}> : (tensor<1x512xf32>) -> tensor<1x512x1x1xf32> loc(#loc584)
        %549 = "ttir.broadcast"(%548) <{broadcast_dimensions = array<i64: 1, 1, 64, 64>}> : (tensor<1x512x1x1xf32>) -> tensor<1x512x64x64xf32> loc(#loc584)
        %550 = "ttir.add"(%543, %549) : (tensor<1x512x64x64xf32>, tensor<1x512x64x64xf32>) -> tensor<1x512x64x64xf32> loc(#loc585)
        %551 = "ttir.typecast"(%550) <{conservative_folding = false}> : (tensor<1x512x64x64xf32>) -> tensor<1x512x64x64xbf16> loc(#loc586)
        %552 = "ttir.typecast"(%551) <{conservative_folding = false}> : (tensor<1x512x64x64xbf16>) -> tensor<1x512x64x64xf32> loc(#loc587)
        %553 = "ttir.sigmoid"(%552) : (tensor<1x512x64x64xf32>) -> tensor<1x512x64x64xf32> loc(#loc588)
        %554 = "ttir.multiply"(%552, %553) : (tensor<1x512x64x64xf32>, tensor<1x512x64x64xf32>) -> tensor<1x512x64x64xf32> loc(#loc589)
        %555 = "ttir.typecast"(%554) <{conservative_folding = false}> : (tensor<1x512x64x64xf32>) -> tensor<1x512x64x64xbf16> loc(#loc590)
        %556 = "ttir.permute"(%arg87) <{permutation = array<i64: 0, 1, 2, 3>}> : (tensor<512x512x3x3xbf16>) -> tensor<512x512x3x3xbf16> loc(#loc1446)
        %557 = "ttir.conv2d"(%555, %556) <{batch_dim = 0 : i64, channel_dim = 1 : i64, dilation = array<i32: 1, 1>, groups = 1 : i32, height_dim = 2 : i64, padding = array<i32: 1, 1, 1, 1>, stride = array<i32: 1, 1>, width_dim = 3 : i64}> : (tensor<1x512x64x64xbf16>, tensor<512x512x3x3xbf16>) -> tensor<1x512x64x64xbf16> loc(#loc591)
        %558 = "ttir.reshape"(%arg86) <{shape = [1 : i32, 1 : i32, 512 : i32]}> : (tensor<512xbf16>) -> tensor<1x1x512xbf16> loc(#loc592)
        %559 = "ttir.reshape"(%558) <{shape = [512 : i32]}> : (tensor<1x1x512xbf16>) -> tensor<512xbf16> loc(#loc593)
        %560 = "ttir.reshape"(%559) <{shape = [1 : i32, 512 : i32, 1 : i32, 1 : i32]}> : (tensor<512xbf16>) -> tensor<1x512x1x1xbf16> loc(#loc594)
        %561 = "ttir.broadcast"(%560) <{broadcast_dimensions = array<i64: 1, 1, 64, 64>}> : (tensor<1x512x1x1xbf16>) -> tensor<1x512x64x64xbf16> loc(#loc594)
        %562 = "ttir.add"(%557, %561) : (tensor<1x512x64x64xbf16>, tensor<1x512x64x64xbf16>) -> tensor<1x512x64x64xbf16> loc(#loc595)
        %563 = "ttir.typecast"(%562) <{conservative_folding = false}> : (tensor<1x512x64x64xbf16>) -> tensor<1x512x64x64xf32> loc(#loc596)
        %564 = "ttir.reshape"(%563) <{shape = [1 : i32, 32 : i32, 16 : i32, 4096 : i32]}> : (tensor<1x512x64x64xf32>) -> tensor<1x32x16x4096xf32> loc(#loc597)
        %565 = "ttir.sum"(%564) <{dim_arg = [2 : i32, 3 : i32], keep_dim = false}> : (tensor<1x32x16x4096xf32>) -> tensor<1x32xf32> loc(#loc598)
        %566 = "ttir.multiply"(%565, %39) : (tensor<1x32xf32>, tensor<1x32xf32>) -> tensor<1x32xf32> loc(#loc599)
        %567 = "ttir.reshape"(%566) <{shape = [1 : i32, 32 : i32, 1 : i32, 1 : i32]}> : (tensor<1x32xf32>) -> tensor<1x32x1x1xf32> loc(#loc600)
        %568 = "ttir.broadcast"(%567) <{broadcast_dimensions = array<i64: 1, 1, 16, 4096>}> : (tensor<1x32x1x1xf32>) -> tensor<1x32x16x4096xf32> loc(#loc600)
        %569 = "ttir.subtract"(%564, %568) : (tensor<1x32x16x4096xf32>, tensor<1x32x16x4096xf32>) -> tensor<1x32x16x4096xf32> loc(#loc601)
        %570 = "ttir.multiply"(%569, %569) : (tensor<1x32x16x4096xf32>, tensor<1x32x16x4096xf32>) -> tensor<1x32x16x4096xf32> loc(#loc602)
        %571 = "ttir.sum"(%570) <{dim_arg = [2 : i32, 3 : i32], keep_dim = false}> : (tensor<1x32x16x4096xf32>) -> tensor<1x32xf32> loc(#loc603)
        %572 = "ttir.multiply"(%571, %39) : (tensor<1x32xf32>, tensor<1x32xf32>) -> tensor<1x32xf32> loc(#loc604)
        %573 = "ttir.reshape"(%572) <{shape = [1 : i32, 32 : i32, 1 : i32, 1 : i32]}> : (tensor<1x32xf32>) -> tensor<1x32x1x1xf32> loc(#loc605)
        %574 = "ttir.add"(%573, %37) : (tensor<1x32x1x1xf32>, tensor<1x32x1x1xf32>) -> tensor<1x32x1x1xf32> loc(#loc606)
        %575 = "ttir.rsqrt"(%574) : (tensor<1x32x1x1xf32>) -> tensor<1x32x1x1xf32> loc(#loc607)
        %576 = "ttir.reshape"(%575) <{shape = [1 : i32, 32 : i32]}> : (tensor<1x32x1x1xf32>) -> tensor<1x32xf32> loc(#loc608)
        %577 = "ttir.reshape"(%576) <{shape = [1 : i32, 32 : i32, 1 : i32, 1 : i32]}> : (tensor<1x32xf32>) -> tensor<1x32x1x1xf32> loc(#loc609)
        %578 = "ttir.broadcast"(%577) <{broadcast_dimensions = array<i64: 1, 1, 16, 4096>}> : (tensor<1x32x1x1xf32>) -> tensor<1x32x16x4096xf32> loc(#loc609)
        %579 = "ttir.multiply"(%569, %578) : (tensor<1x32x16x4096xf32>, tensor<1x32x16x4096xf32>) -> tensor<1x32x16x4096xf32> loc(#loc610)
        %580 = "ttir.reshape"(%579) <{shape = [1 : i32, 512 : i32, 64 : i32, 64 : i32]}> : (tensor<1x32x16x4096xf32>) -> tensor<1x512x64x64xf32> loc(#loc611)
        %581 = "ttir.reshape"(%arg85) <{shape = [1 : i32, 1 : i32, 512 : i32]}> : (tensor<512xbf16>) -> tensor<1x1x512xbf16> loc(#loc612)
        %582 = "ttir.reshape"(%581) <{shape = [1 : i32, 512 : i32, 1 : i32, 1 : i32]}> : (tensor<1x1x512xbf16>) -> tensor<1x512x1x1xbf16> loc(#loc613)
        %583 = "ttir.typecast"(%582) <{conservative_folding = false}> : (tensor<1x512x1x1xbf16>) -> tensor<1x512x1x1xf32> loc(#loc614)
        %584 = "ttir.reshape"(%583) <{shape = [1 : i32, 512 : i32]}> : (tensor<1x512x1x1xf32>) -> tensor<1x512xf32> loc(#loc615)
        %585 = "ttir.reshape"(%584) <{shape = [1 : i32, 512 : i32, 1 : i32, 1 : i32]}> : (tensor<1x512xf32>) -> tensor<1x512x1x1xf32> loc(#loc616)
        %586 = "ttir.broadcast"(%585) <{broadcast_dimensions = array<i64: 1, 1, 64, 64>}> : (tensor<1x512x1x1xf32>) -> tensor<1x512x64x64xf32> loc(#loc616)
        %587 = "ttir.multiply"(%580, %586) : (tensor<1x512x64x64xf32>, tensor<1x512x64x64xf32>) -> tensor<1x512x64x64xf32> loc(#loc617)
        %588 = "ttir.reshape"(%arg84) <{shape = [1 : i32, 1 : i32, 512 : i32]}> : (tensor<512xbf16>) -> tensor<1x1x512xbf16> loc(#loc618)
        %589 = "ttir.reshape"(%588) <{shape = [1 : i32, 512 : i32, 1 : i32, 1 : i32]}> : (tensor<1x1x512xbf16>) -> tensor<1x512x1x1xbf16> loc(#loc619)
        %590 = "ttir.typecast"(%589) <{conservative_folding = false}> : (tensor<1x512x1x1xbf16>) -> tensor<1x512x1x1xf32> loc(#loc620)
        %591 = "ttir.reshape"(%590) <{shape = [1 : i32, 512 : i32]}> : (tensor<1x512x1x1xf32>) -> tensor<1x512xf32> loc(#loc621)
        %592 = "ttir.reshape"(%591) <{shape = [1 : i32, 512 : i32, 1 : i32, 1 : i32]}> : (tensor<1x512xf32>) -> tensor<1x512x1x1xf32> loc(#loc622)
        %593 = "ttir.broadcast"(%592) <{broadcast_dimensions = array<i64: 1, 1, 64, 64>}> : (tensor<1x512x1x1xf32>) -> tensor<1x512x64x64xf32> loc(#loc622)
        %594 = "ttir.add"(%587, %593) : (tensor<1x512x64x64xf32>, tensor<1x512x64x64xf32>) -> tensor<1x512x64x64xf32> loc(#loc623)
        %595 = "ttir.typecast"(%594) <{conservative_folding = false}> : (tensor<1x512x64x64xf32>) -> tensor<1x512x64x64xbf16> loc(#loc624)
        %596 = "ttir.typecast"(%595) <{conservative_folding = false}> : (tensor<1x512x64x64xbf16>) -> tensor<1x512x64x64xf32> loc(#loc625)
        %597 = "ttir.sigmoid"(%596) : (tensor<1x512x64x64xf32>) -> tensor<1x512x64x64xf32> loc(#loc626)
        %598 = "ttir.multiply"(%596, %597) : (tensor<1x512x64x64xf32>, tensor<1x512x64x64xf32>) -> tensor<1x512x64x64xf32> loc(#loc627)
        %599 = "ttir.typecast"(%598) <{conservative_folding = false}> : (tensor<1x512x64x64xf32>) -> tensor<1x512x64x64xbf16> loc(#loc628)
        %600 = "ttir.permute"(%arg83) <{permutation = array<i64: 0, 1, 2, 3>}> : (tensor<512x512x3x3xbf16>) -> tensor<512x512x3x3xbf16> loc(#loc1447)
        %601 = "ttir.conv2d"(%599, %600) <{batch_dim = 0 : i64, channel_dim = 1 : i64, dilation = array<i32: 1, 1>, groups = 1 : i32, height_dim = 2 : i64, padding = array<i32: 1, 1, 1, 1>, stride = array<i32: 1, 1>, width_dim = 3 : i64}> : (tensor<1x512x64x64xbf16>, tensor<512x512x3x3xbf16>) -> tensor<1x512x64x64xbf16> loc(#loc629)
        %602 = "ttir.reshape"(%arg82) <{shape = [1 : i32, 1 : i32, 512 : i32]}> : (tensor<512xbf16>) -> tensor<1x1x512xbf16> loc(#loc630)
        %603 = "ttir.reshape"(%602) <{shape = [512 : i32]}> : (tensor<1x1x512xbf16>) -> tensor<512xbf16> loc(#loc631)
        %604 = "ttir.reshape"(%603) <{shape = [1 : i32, 512 : i32, 1 : i32, 1 : i32]}> : (tensor<512xbf16>) -> tensor<1x512x1x1xbf16> loc(#loc632)
        %605 = "ttir.broadcast"(%604) <{broadcast_dimensions = array<i64: 1, 1, 64, 64>}> : (tensor<1x512x1x1xbf16>) -> tensor<1x512x64x64xbf16> loc(#loc632)
        %606 = "ttir.add"(%601, %605) : (tensor<1x512x64x64xbf16>, tensor<1x512x64x64xbf16>) -> tensor<1x512x64x64xbf16> loc(#loc633)
        %607 = "ttir.add"(%518, %606) : (tensor<1x512x64x64xbf16>, tensor<1x512x64x64xbf16>) -> tensor<1x512x64x64xbf16> loc(#loc634)
        %608 = "ttir.div"(%607, %35) : (tensor<1x512x64x64xbf16>, tensor<1x512x64x64xbf16>) -> tensor<1x512x64x64xbf16> loc(#loc635)
        %609 = "ttir.permute"(%608) <{permutation = array<i64: 0, 1, 3, 2>}> : (tensor<1x512x64x64xbf16>) -> tensor<1x512x64x64xbf16> loc(#loc636)
        %610 = "ttir.floor"(%8) : (tensor<128xf64>) -> tensor<128xf64> loc(#loc637)
        %611 = "ttir.typecast"(%610) <{conservative_folding = false}> : (tensor<128xf64>) -> tensor<128xi64> loc(#loc638)
        %612 = "ttir.reshape"(%611) <{shape = [128 : i32, 1 : i32]}> : (tensor<128xi64>) -> tensor<128x1xi64> loc(#loc639)
        %613 = "ttir.broadcast"(%612) <{broadcast_dimensions = array<i64: 1, 64>}> : (tensor<128x1xi64>) -> tensor<128x64xi64> loc(#loc639)
        %614 = "ttir.reshape"(%0) <{shape = [1 : i32, 64 : i32]}> : (tensor<64xi64>) -> tensor<1x64xi64> loc(#loc640)
        %615 = "ttir.broadcast"(%614) <{broadcast_dimensions = array<i64: 128, 1>}> : (tensor<1x64xi64>) -> tensor<128x64xi64> loc(#loc640)
        %616 = "ttir.eq"(%613, %615) : (tensor<128x64xi64>, tensor<128x64xi64>) -> tensor<128x64xi1> loc(#loc641)
        %617 = "ttir.typecast"(%616) <{conservative_folding = false}> : (tensor<128x64xi1>) -> tensor<128x64xi64> loc(#loc642)
        %618 = "ttir.permute"(%617) <{permutation = array<i64: 1, 0>}> : (tensor<128x64xi64>) -> tensor<64x128xi64> loc(#loc643)
        %619 = "ttir.typecast"(%618) <{conservative_folding = false}> : (tensor<64x128xi64>) -> tensor<64x128xbf16> loc(#loc644)
        %620 = "ttir.dot_general"(%609, %619) <{batch_dims_lhs = array<i64>, batch_dims_rhs = array<i64>, contract_dims_lhs = array<i64: 3>, contract_dims_rhs = array<i64: 0>}> : (tensor<1x512x64x64xbf16>, tensor<64x128xbf16>) -> tensor<1x512x64x128xbf16> loc(#loc645)
        %621 = "ttir.permute"(%620) <{permutation = array<i64: 0, 1, 3, 2>}> : (tensor<1x512x64x128xbf16>) -> tensor<1x512x128x64xbf16> loc(#loc646)
        %622 = "ttir.dot_general"(%621, %619) <{batch_dims_lhs = array<i64>, batch_dims_rhs = array<i64>, contract_dims_lhs = array<i64: 3>, contract_dims_rhs = array<i64: 0>}> : (tensor<1x512x128x64xbf16>, tensor<64x128xbf16>) -> tensor<1x512x128x128xbf16> loc(#loc647)
        %623 = "ttir.permute"(%arg81) <{permutation = array<i64: 0, 1, 2, 3>}> : (tensor<512x512x3x3xbf16>) -> tensor<512x512x3x3xbf16> loc(#loc1448)
        %624 = "ttir.conv2d"(%622, %623) <{batch_dim = 0 : i64, channel_dim = 1 : i64, dilation = array<i32: 1, 1>, groups = 1 : i32, height_dim = 2 : i64, padding = array<i32: 1, 1, 1, 1>, stride = array<i32: 1, 1>, width_dim = 3 : i64}> : (tensor<1x512x128x128xbf16>, tensor<512x512x3x3xbf16>) -> tensor<1x512x128x128xbf16> loc(#loc648)
        %625 = "ttir.reshape"(%arg80) <{shape = [1 : i32, 1 : i32, 512 : i32]}> : (tensor<512xbf16>) -> tensor<1x1x512xbf16> loc(#loc649)
        %626 = "ttir.reshape"(%625) <{shape = [512 : i32]}> : (tensor<1x1x512xbf16>) -> tensor<512xbf16> loc(#loc650)
        %627 = "ttir.reshape"(%626) <{shape = [1 : i32, 512 : i32, 1 : i32, 1 : i32]}> : (tensor<512xbf16>) -> tensor<1x512x1x1xbf16> loc(#loc651)
        %628 = "ttir.broadcast"(%627) <{broadcast_dimensions = array<i64: 1, 1, 128, 128>}> : (tensor<1x512x1x1xbf16>) -> tensor<1x512x128x128xbf16> loc(#loc651)
        %629 = "ttir.add"(%624, %628) : (tensor<1x512x128x128xbf16>, tensor<1x512x128x128xbf16>) -> tensor<1x512x128x128xbf16> loc(#loc652)
        %630 = "ttir.typecast"(%629) <{conservative_folding = false}> : (tensor<1x512x128x128xbf16>) -> tensor<1x512x128x128xf32> loc(#loc653)
        %631 = "ttir.reshape"(%630) <{shape = [1 : i32, 32 : i32, 16 : i32, 16384 : i32]}> : (tensor<1x512x128x128xf32>) -> tensor<1x32x16x16384xf32> loc(#loc654)
        %632 = "ttir.sum"(%631) <{dim_arg = [2 : i32, 3 : i32], keep_dim = false}> : (tensor<1x32x16x16384xf32>) -> tensor<1x32xf32> loc(#loc655)
        %633 = "ttir.multiply"(%632, %27) : (tensor<1x32xf32>, tensor<1x32xf32>) -> tensor<1x32xf32> loc(#loc656)
        %634 = "ttir.reshape"(%633) <{shape = [1 : i32, 32 : i32, 1 : i32, 1 : i32]}> : (tensor<1x32xf32>) -> tensor<1x32x1x1xf32> loc(#loc657)
        %635 = "ttir.broadcast"(%634) <{broadcast_dimensions = array<i64: 1, 1, 16, 16384>}> : (tensor<1x32x1x1xf32>) -> tensor<1x32x16x16384xf32> loc(#loc657)
        %636 = "ttir.subtract"(%631, %635) : (tensor<1x32x16x16384xf32>, tensor<1x32x16x16384xf32>) -> tensor<1x32x16x16384xf32> loc(#loc658)
        %637 = "ttir.multiply"(%636, %636) : (tensor<1x32x16x16384xf32>, tensor<1x32x16x16384xf32>) -> tensor<1x32x16x16384xf32> loc(#loc659)
        %638 = "ttir.sum"(%637) <{dim_arg = [2 : i32, 3 : i32], keep_dim = false}> : (tensor<1x32x16x16384xf32>) -> tensor<1x32xf32> loc(#loc660)
        %639 = "ttir.multiply"(%638, %27) : (tensor<1x32xf32>, tensor<1x32xf32>) -> tensor<1x32xf32> loc(#loc661)
        %640 = "ttir.reshape"(%639) <{shape = [1 : i32, 32 : i32, 1 : i32, 1 : i32]}> : (tensor<1x32xf32>) -> tensor<1x32x1x1xf32> loc(#loc662)
        %641 = "ttir.add"(%640, %37) : (tensor<1x32x1x1xf32>, tensor<1x32x1x1xf32>) -> tensor<1x32x1x1xf32> loc(#loc663)
        %642 = "ttir.rsqrt"(%641) : (tensor<1x32x1x1xf32>) -> tensor<1x32x1x1xf32> loc(#loc664)
        %643 = "ttir.reshape"(%642) <{shape = [1 : i32, 32 : i32]}> : (tensor<1x32x1x1xf32>) -> tensor<1x32xf32> loc(#loc665)
        %644 = "ttir.reshape"(%643) <{shape = [1 : i32, 32 : i32, 1 : i32, 1 : i32]}> : (tensor<1x32xf32>) -> tensor<1x32x1x1xf32> loc(#loc666)
        %645 = "ttir.broadcast"(%644) <{broadcast_dimensions = array<i64: 1, 1, 16, 16384>}> : (tensor<1x32x1x1xf32>) -> tensor<1x32x16x16384xf32> loc(#loc666)
        %646 = "ttir.multiply"(%636, %645) : (tensor<1x32x16x16384xf32>, tensor<1x32x16x16384xf32>) -> tensor<1x32x16x16384xf32> loc(#loc667)
        %647 = "ttir.reshape"(%646) <{shape = [1 : i32, 512 : i32, 128 : i32, 128 : i32]}> : (tensor<1x32x16x16384xf32>) -> tensor<1x512x128x128xf32> loc(#loc668)
        %648 = "ttir.reshape"(%arg79) <{shape = [1 : i32, 1 : i32, 512 : i32]}> : (tensor<512xbf16>) -> tensor<1x1x512xbf16> loc(#loc669)
        %649 = "ttir.reshape"(%648) <{shape = [1 : i32, 512 : i32, 1 : i32, 1 : i32]}> : (tensor<1x1x512xbf16>) -> tensor<1x512x1x1xbf16> loc(#loc670)
        %650 = "ttir.typecast"(%649) <{conservative_folding = false}> : (tensor<1x512x1x1xbf16>) -> tensor<1x512x1x1xf32> loc(#loc671)
        %651 = "ttir.reshape"(%650) <{shape = [1 : i32, 512 : i32]}> : (tensor<1x512x1x1xf32>) -> tensor<1x512xf32> loc(#loc672)
        %652 = "ttir.reshape"(%651) <{shape = [1 : i32, 512 : i32, 1 : i32, 1 : i32]}> : (tensor<1x512xf32>) -> tensor<1x512x1x1xf32> loc(#loc673)
        %653 = "ttir.broadcast"(%652) <{broadcast_dimensions = array<i64: 1, 1, 128, 128>}> : (tensor<1x512x1x1xf32>) -> tensor<1x512x128x128xf32> loc(#loc673)
        %654 = "ttir.multiply"(%647, %653) : (tensor<1x512x128x128xf32>, tensor<1x512x128x128xf32>) -> tensor<1x512x128x128xf32> loc(#loc674)
        %655 = "ttir.reshape"(%arg78) <{shape = [1 : i32, 1 : i32, 512 : i32]}> : (tensor<512xbf16>) -> tensor<1x1x512xbf16> loc(#loc675)
        %656 = "ttir.reshape"(%655) <{shape = [1 : i32, 512 : i32, 1 : i32, 1 : i32]}> : (tensor<1x1x512xbf16>) -> tensor<1x512x1x1xbf16> loc(#loc676)
        %657 = "ttir.typecast"(%656) <{conservative_folding = false}> : (tensor<1x512x1x1xbf16>) -> tensor<1x512x1x1xf32> loc(#loc677)
        %658 = "ttir.reshape"(%657) <{shape = [1 : i32, 512 : i32]}> : (tensor<1x512x1x1xf32>) -> tensor<1x512xf32> loc(#loc678)
        %659 = "ttir.reshape"(%658) <{shape = [1 : i32, 512 : i32, 1 : i32, 1 : i32]}> : (tensor<1x512xf32>) -> tensor<1x512x1x1xf32> loc(#loc679)
        %660 = "ttir.broadcast"(%659) <{broadcast_dimensions = array<i64: 1, 1, 128, 128>}> : (tensor<1x512x1x1xf32>) -> tensor<1x512x128x128xf32> loc(#loc679)
        %661 = "ttir.add"(%654, %660) : (tensor<1x512x128x128xf32>, tensor<1x512x128x128xf32>) -> tensor<1x512x128x128xf32> loc(#loc680)
        %662 = "ttir.typecast"(%661) <{conservative_folding = false}> : (tensor<1x512x128x128xf32>) -> tensor<1x512x128x128xbf16> loc(#loc681)
        %663 = "ttir.typecast"(%662) <{conservative_folding = false}> : (tensor<1x512x128x128xbf16>) -> tensor<1x512x128x128xf32> loc(#loc682)
        %664 = "ttir.sigmoid"(%663) : (tensor<1x512x128x128xf32>) -> tensor<1x512x128x128xf32> loc(#loc683)
        %665 = "ttir.multiply"(%663, %664) : (tensor<1x512x128x128xf32>, tensor<1x512x128x128xf32>) -> tensor<1x512x128x128xf32> loc(#loc684)
        %666 = "ttir.typecast"(%665) <{conservative_folding = false}> : (tensor<1x512x128x128xf32>) -> tensor<1x512x128x128xbf16> loc(#loc685)
        %667 = "ttir.permute"(%arg77) <{permutation = array<i64: 0, 1, 2, 3>}> : (tensor<512x512x3x3xbf16>) -> tensor<512x512x3x3xbf16> loc(#loc1449)
        %668 = "ttir.conv2d"(%666, %667) <{batch_dim = 0 : i64, channel_dim = 1 : i64, dilation = array<i32: 1, 1>, groups = 1 : i32, height_dim = 2 : i64, padding = array<i32: 1, 1, 1, 1>, stride = array<i32: 1, 1>, width_dim = 3 : i64}> : (tensor<1x512x128x128xbf16>, tensor<512x512x3x3xbf16>) -> tensor<1x512x128x128xbf16> loc(#loc686)
        %669 = "ttir.reshape"(%arg76) <{shape = [1 : i32, 1 : i32, 512 : i32]}> : (tensor<512xbf16>) -> tensor<1x1x512xbf16> loc(#loc687)
        %670 = "ttir.reshape"(%669) <{shape = [512 : i32]}> : (tensor<1x1x512xbf16>) -> tensor<512xbf16> loc(#loc688)
        %671 = "ttir.reshape"(%670) <{shape = [1 : i32, 512 : i32, 1 : i32, 1 : i32]}> : (tensor<512xbf16>) -> tensor<1x512x1x1xbf16> loc(#loc689)
        %672 = "ttir.broadcast"(%671) <{broadcast_dimensions = array<i64: 1, 1, 128, 128>}> : (tensor<1x512x1x1xbf16>) -> tensor<1x512x128x128xbf16> loc(#loc689)
        %673 = "ttir.add"(%668, %672) : (tensor<1x512x128x128xbf16>, tensor<1x512x128x128xbf16>) -> tensor<1x512x128x128xbf16> loc(#loc690)
        %674 = "ttir.typecast"(%673) <{conservative_folding = false}> : (tensor<1x512x128x128xbf16>) -> tensor<1x512x128x128xf32> loc(#loc691)
        %675 = "ttir.reshape"(%674) <{shape = [1 : i32, 32 : i32, 16 : i32, 16384 : i32]}> : (tensor<1x512x128x128xf32>) -> tensor<1x32x16x16384xf32> loc(#loc692)
…
        %1480 = "ttir.broadcast"(%1479) <{broadcast_dimensions = array<i64: 1, 1, 512, 512>}> : (tensor<1x128x1x1xf32>) -> tensor<1x128x512x512xf32> loc(#loc1385)
        %1481 = "ttir.add"(%1474, %1480) : (tensor<1x128x512x512xf32>, tensor<1x128x512x512xf32>) -> tensor<1x128x512x512xf32> loc(#loc1386)
        %1482 = "ttir.typecast"(%1481) <{conservative_folding = false}> : (tensor<1x128x512x512xf32>) -> tensor<1x128x512x512xbf16> loc(#loc1387)
        %1483 = "ttir.typecast"(%1482) <{conservative_folding = false}> : (tensor<1x128x512x512xbf16>) -> tensor<1x128x512x512xf32> loc(#loc1388)
        %1484 = "ttir.sigmoid"(%1483) : (tensor<1x128x512x512xf32>) -> tensor<1x128x512x512xf32> loc(#loc1389)
        %1485 = "ttir.multiply"(%1483, %1484) : (tensor<1x128x512x512xf32>, tensor<1x128x512x512xf32>) -> tensor<1x128x512x512xf32> loc(#loc1390)
        %1486 = "ttir.typecast"(%1485) <{conservative_folding = false}> : (tensor<1x128x512x512xf32>) -> tensor<1x128x512x512xbf16> loc(#loc1391)
        %1487 = "ttir.permute"(%arg5) <{permutation = array<i64: 0, 1, 2, 3>}> : (tensor<128x128x3x3xbf16>) -> tensor<128x128x3x3xbf16> loc(#loc1470)
        %1488 = "ttir.conv2d"(%1486, %1487) <{batch_dim = 0 : i64, channel_dim = 1 : i64, dilation = array<i32: 1, 1>, groups = 1 : i32, height_dim = 2 : i64, padding = array<i32: 1, 1, 1, 1>, stride = array<i32: 1, 1>, width_dim = 3 : i64}> : (tensor<1x128x512x512xbf16>, tensor<128x128x3x3xbf16>) -> tensor<1x128x512x512xbf16> loc(#loc1392)
        %1489 = "ttir.reshape"(%arg4) <{shape = [1 : i32, 1 : i32, 128 : i32]}> : (tensor<128xbf16>) -> tensor<1x1x128xbf16> loc(#loc1393)
        %1490 = "ttir.reshape"(%1489) <{shape = [128 : i32]}> : (tensor<1x1x128xbf16>) -> tensor<128xbf16> loc(#loc1394)
        %1491 = "ttir.reshape"(%1490) <{shape = [1 : i32, 128 : i32, 1 : i32, 1 : i32]}> : (tensor<128xbf16>) -> tensor<1x128x1x1xbf16> loc(#loc1395)
        %1492 = "ttir.broadcast"(%1491) <{broadcast_dimensions = array<i64: 1, 1, 512, 512>}> : (tensor<1x128x1x1xbf16>) -> tensor<1x128x512x512xbf16> loc(#loc1395)
        %1493 = "ttir.add"(%1488, %1492) : (tensor<1x128x512x512xbf16>, tensor<1x128x512x512xbf16>) -> tensor<1x128x512x512xbf16> loc(#loc1396)
        %1494 = "ttir.add"(%1405, %1493) : (tensor<1x128x512x512xbf16>, tensor<1x128x512x512xbf16>) -> tensor<1x128x512x512xbf16> loc(#loc1397)
        %1495 = "ttir.div"(%1494, %17) : (tensor<1x128x512x512xbf16>, tensor<1x128x512x512xbf16>) -> tensor<1x128x512x512xbf16> loc(#loc1398)
        %1496 = "ttir.typecast"(%1495) <{conservative_folding = false}> : (tensor<1x128x512x512xbf16>) -> tensor<1x128x512x512xf32> loc(#loc1399)
        %1497 = "ttir.reshape"(%1496) <{shape = [1 : i32, 32 : i32, 4 : i32, 262144 : i32]}> : (tensor<1x128x512x512xf32>) -> tensor<1x32x4x262144xf32> loc(#loc1400)
        %1498 = "ttir.sum"(%1497) <{dim_arg = [2 : i32, 3 : i32], keep_dim = false}> : (tensor<1x32x4x262144xf32>) -> tensor<1x32xf32> loc(#loc1401)
        %1499 = "ttir.multiply"(%1498, %24) : (tensor<1x32xf32>, tensor<1x32xf32>) -> tensor<1x32xf32> loc(#loc1402)
        %1500 = "ttir.reshape"(%1499) <{shape = [1 : i32, 32 : i32, 1 : i32, 1 : i32]}> : (tensor<1x32xf32>) -> tensor<1x32x1x1xf32> loc(#loc1403)
        %1501 = "ttir.broadcast"(%1500) <{broadcast_dimensions = array<i64: 1, 1, 4, 262144>}> : (tensor<1x32x1x1xf32>) -> tensor<1x32x4x262144xf32> loc(#loc1403)
        %1502 = "ttir.subtract"(%1497, %1501) : (tensor<1x32x4x262144xf32>, tensor<1x32x4x262144xf32>) -> tensor<1x32x4x262144xf32> loc(#loc1404)
        %1503 = "ttir.multiply"(%1502, %1502) : (tensor<1x32x4x262144xf32>, tensor<1x32x4x262144xf32>) -> tensor<1x32x4x262144xf32> loc(#loc1405)
        %1504 = "ttir.sum"(%1503) <{dim_arg = [2 : i32, 3 : i32], keep_dim = false}> : (tensor<1x32x4x262144xf32>) -> tensor<1x32xf32> loc(#loc1406)
        %1505 = "ttir.multiply"(%1504, %24) : (tensor<1x32xf32>, tensor<1x32xf32>) -> tensor<1x32xf32> loc(#loc1407)
        %1506 = "ttir.reshape"(%1505) <{shape = [1 : i32, 32 : i32, 1 : i32, 1 : i32]}> : (tensor<1x32xf32>) -> tensor<1x32x1x1xf32> loc(#loc1408)
        %1507 = "ttir.add"(%1506, %37) : (tensor<1x32x1x1xf32>, tensor<1x32x1x1xf32>) -> tensor<1x32x1x1xf32> loc(#loc1409)
        %1508 = "ttir.rsqrt"(%1507) : (tensor<1x32x1x1xf32>) -> tensor<1x32x1x1xf32> loc(#loc1410)
        %1509 = "ttir.reshape"(%1508) <{shape = [1 : i32, 32 : i32]}> : (tensor<1x32x1x1xf32>) -> tensor<1x32xf32> loc(#loc1411)
        %1510 = "ttir.reshape"(%1509) <{shape = [1 : i32, 32 : i32, 1 : i32, 1 : i32]}> : (tensor<1x32xf32>) -> tensor<1x32x1x1xf32> loc(#loc1412)
        %1511 = "ttir.broadcast"(%1510) <{broadcast_dimensions = array<i64: 1, 1, 4, 262144>}> : (tensor<1x32x1x1xf32>) -> tensor<1x32x4x262144xf32> loc(#loc1412)
        %1512 = "ttir.multiply"(%1502, %1511) : (tensor<1x32x4x262144xf32>, tensor<1x32x4x262144xf32>) -> tensor<1x32x4x262144xf32> loc(#loc1413)
        %1513 = "ttir.reshape"(%1512) <{shape = [1 : i32, 128 : i32, 512 : i32, 512 : i32]}> : (tensor<1x32x4x262144xf32>) -> tensor<1x128x512x512xf32> loc(#loc1414)
        %1514 = "ttir.reshape"(%arg3) <{shape = [1 : i32, 1 : i32, 128 : i32]}> : (tensor<128xbf16>) -> tensor<1x1x128xbf16> loc(#loc1415)
        %1515 = "ttir.reshape"(%1514) <{shape = [1 : i32, 128 : i32, 1 : i32, 1 : i32]}> : (tensor<1x1x128xbf16>) -> tensor<1x128x1x1xbf16> loc(#loc1416)
        %1516 = "ttir.typecast"(%1515) <{conservative_folding = false}> : (tensor<1x128x1x1xbf16>) -> tensor<1x128x1x1xf32> loc(#loc1417)
        %1517 = "ttir.reshape"(%1516) <{shape = [1 : i32, 128 : i32]}> : (tensor<1x128x1x1xf32>) -> tensor<1x128xf32> loc(#loc1418)
        %1518 = "ttir.reshape"(%1517) <{shape = [1 : i32, 128 : i32, 1 : i32, 1 : i32]}> : (tensor<1x128xf32>) -> tensor<1x128x1x1xf32> loc(#loc1419)
        %1519 = "ttir.broadcast"(%1518) <{broadcast_dimensions = array<i64: 1, 1, 512, 512>}> : (tensor<1x128x1x1xf32>) -> tensor<1x128x512x512xf32> loc(#loc1419)
        %1520 = "ttir.multiply"(%1513, %1519) : (tensor<1x128x512x512xf32>, tensor<1x128x512x512xf32>) -> tensor<1x128x512x512xf32> loc(#loc1420)
        %1521 = "ttir.reshape"(%arg2) <{shape = [1 : i32, 1 : i32, 128 : i32]}> : (tensor<128xbf16>) -> tensor<1x1x128xbf16> loc(#loc1421)
        %1522 = "ttir.reshape"(%1521) <{shape = [1 : i32, 128 : i32, 1 : i32, 1 : i32]}> : (tensor<1x1x128xbf16>) -> tensor<1x128x1x1xbf16> loc(#loc1422)
        %1523 = "ttir.typecast"(%1522) <{conservative_folding = false}> : (tensor<1x128x1x1xbf16>) -> tensor<1x128x1x1xf32> loc(#loc1423)
        %1524 = "ttir.reshape"(%1523) <{shape = [1 : i32, 128 : i32]}> : (tensor<1x128x1x1xf32>) -> tensor<1x128xf32> loc(#loc1424)
        %1525 = "ttir.reshape"(%1524) <{shape = [1 : i32, 128 : i32, 1 : i32, 1 : i32]}> : (tensor<1x128xf32>) -> tensor<1x128x1x1xf32> loc(#loc1425)
        %1526 = "ttir.broadcast"(%1525) <{broadcast_dimensions = array<i64: 1, 1, 512, 512>}> : (tensor<1x128x1x1xf32>) -> tensor<1x128x512x512xf32> loc(#loc1425)
        %1527 = "ttir.add"(%1520, %1526) : (tensor<1x128x512x512xf32>, tensor<1x128x512x512xf32>) -> tensor<1x128x512x512xf32> loc(#loc1426)
        %1528 = "ttir.typecast"(%1527) <{conservative_folding = false}> : (tensor<1x128x512x512xf32>) -> tensor<1x128x512x512xbf16> loc(#loc1427)
        %1529 = "ttir.typecast"(%1528) <{conservative_folding = false}> : (tensor<1x128x512x512xbf16>) -> tensor<1x128x512x512xf32> loc(#loc1428)
        %1530 = "ttir.sigmoid"(%1529) : (tensor<1x128x512x512xf32>) -> tensor<1x128x512x512xf32> loc(#loc1429)
        %1531 = "ttir.multiply"(%1529, %1530) : (tensor<1x128x512x512xf32>, tensor<1x128x512x512xf32>) -> tensor<1x128x512x512xf32> loc(#loc1430)
        %1532 = "ttir.typecast"(%1531) <{conservative_folding = false}> : (tensor<1x128x512x512xf32>) -> tensor<1x128x512x512xbf16> loc(#loc1431)
        %1533 = "ttir.permute"(%arg1) <{permutation = array<i64: 0, 1, 2, 3>}> : (tensor<3x128x3x3xbf16>) -> tensor<3x128x3x3xbf16> loc(#loc1471)
        %1534 = "ttir.conv2d"(%1532, %1533) <{batch_dim = 0 : i64, channel_dim = 1 : i64, dilation = array<i32: 1, 1>, groups = 1 : i32, height_dim = 2 : i64, padding = array<i32: 1, 1, 1, 1>, stride = array<i32: 1, 1>, width_dim = 3 : i64}> : (tensor<1x128x512x512xbf16>, tensor<3x128x3x3xbf16>) -> tensor<1x3x512x512xbf16> loc(#loc1432)
        %1535 = "ttir.reshape"(%arg0) <{shape = [1 : i32, 1 : i32, 3 : i32]}> : (tensor<3xbf16>) -> tensor<1x1x3xbf16> loc(#loc1433)
        %1536 = "ttir.reshape"(%1535) <{shape = [3 : i32]}> : (tensor<1x1x3xbf16>) -> tensor<3xbf16> loc(#loc1434)
        %1537 = "ttir.reshape"(%1536) <{shape = [1 : i32, 3 : i32, 1 : i32, 1 : i32]}> : (tensor<3xbf16>) -> tensor<1x3x1x1xbf16> loc(#loc1435)
        %1538 = "ttir.broadcast"(%1537) <{broadcast_dimensions = array<i64: 1, 1, 512, 512>}> : (tensor<1x3x1x1xbf16>) -> tensor<1x3x512x512xbf16> loc(#loc1435)
        %1539 = "ttir.add"(%1534, %1538) : (tensor<1x3x512x512xbf16>, tensor<1x3x512x512xbf16>) -> tensor<1x3x512x512xbf16> loc(#loc1436)
        return %1539 : tensor<1x3x512x512xbf16> loc(#loc)
      } loc(#loc)
    } loc(#loc)
  } loc(#loc)
} loc(#loc)
#loc = loc(unknown)
#loc140 = loc("convolution.843")
#loc141 = loc("reshape.836")
#loc142 = loc("reshape.838")
#loc143 = loc("transpose.845")
#loc144 = loc("add.846")
#loc145 = loc("convert.847")
#loc146 = loc("reshape.848")
#loc147 = loc("reduce.894")
#loc148 = loc("multiply.903")
#loc149 = loc("broadcast.913")
#loc150 = loc("subtract.914")
#loc151 = loc("multiply.870")
#loc152 = loc("reduce.877")
#loc153 = loc("multiply.886")
#loc154 = loc("reshape.887")
#loc155 = loc("add.907")
#loc156 = loc("rsqrt.908")
#loc157 = loc("reshape.915")
#loc158 = loc("broadcast.916")
#loc159 = loc("multiply.917")
#loc160 = loc("reshape.918")
#loc161 = loc("reshape.826")
#loc162 = loc("reshape.831")
#loc163 = loc("convert.832")
#loc164 = loc("reshape.919")
#loc165 = loc("broadcast.920")
#loc166 = loc("multiply.921")
#loc167 = loc("reshape.819")
#loc168 = loc("reshape.824")
#loc169 = loc("convert.922")
#loc170 = loc("reshape.925")
#loc171 = loc("broadcast.926")
#loc172 = loc("add.927")
#loc173 = loc("convert.928")
#loc174 = loc("convert.929")
#loc175 = loc("logistic.930")
#loc176 = loc("multiply.931")
#loc177 = loc("convert.932")
#loc178 = loc("convolution.933")
#loc179 = loc("reshape.812")
#loc180 = loc("reshape.814")
#loc181 = loc("transpose.935")
#loc182 = loc("add.936")
#loc183 = loc("convert.937")
#loc184 = loc("reshape.938")
#loc185 = loc("reduce.984")
#loc186 = loc("multiply.993")
#loc187 = loc("broadcast.1003")
#loc188 = loc("subtract.1004")
#loc189 = loc("multiply.960")
#loc190 = loc("reduce.967")
#loc191 = loc("multiply.976")
#loc192 = loc("reshape.977")
#loc193 = loc("add.997")
#loc194 = loc("rsqrt.998")
#loc195 = loc("reshape.1005")
#loc196 = loc("broadcast.1006")
#loc197 = loc("multiply.1007")
#loc198 = loc("reshape.1008")
#loc199 = loc("reshape.802")
#loc200 = loc("reshape.807")
#loc201 = loc("convert.808")
#loc202 = loc("reshape.1009")
#loc203 = loc("broadcast.1010")
#loc204 = loc("multiply.1011")
#loc205 = loc("reshape.795")
#loc206 = loc("reshape.800")
#loc207 = loc("convert.1012")
#loc208 = loc("reshape.1015")
#loc209 = loc("broadcast.1016")
#loc210 = loc("add.1017")
#loc211 = loc("convert.1018")
#loc212 = loc("convert.1019")
#loc213 = loc("logistic.1020")
#loc214 = loc("multiply.1021")
#loc215 = loc("convert.1022")
#loc216 = loc("convolution.1023")
#loc217 = loc("reshape.788")
#loc218 = loc("reshape.790")
#loc219 = loc("transpose.1025")
#loc220 = loc("add.1026")
#loc221 = loc("add.1029")
#loc222 = loc("divide.1031")
#loc223 = loc("reshape.1068")
#loc224 = loc("convert.1071")
#loc225 = loc("reshape.1072")
#loc226 = loc("reduce.1118")
#loc227 = loc("multiply.1127")
#loc228 = loc("broadcast.1137")
#loc229 = loc("subtract.1138")
#loc230 = loc("multiply.1094")
#loc231 = loc("reduce.1101")
#loc232 = loc("multiply.1110")
#loc233 = loc("reshape.1111")
#loc234 = loc("add.1131")
#loc235 = loc("rsqrt.1132")
#loc236 = loc("reshape.1139")
#loc237 = loc("broadcast.1140")
#loc238 = loc("multiply.1141")
#loc239 = loc("reshape.1142")
#loc240 = loc("reshape.1060")
#loc241 = loc("reshape.1064")
#loc242 = loc("convert.1065")
#loc243 = loc("reshape.1143")
#loc244 = loc("broadcast.1144")
#loc245 = loc("multiply.1145")
#loc246 = loc("reshape.1054")
#loc247 = loc("reshape.1058")
#loc248 = loc("convert.1146")
#loc249 = loc("reshape.1149")
#loc250 = loc("broadcast.1150")
#loc251 = loc("add.1151")
#loc252 = loc("convert.1152")
#loc253 = loc("transpose.1153")
#loc254 = loc("reshape.1199")
#loc255 = loc("reshape.1195")
#loc256 = loc("reshape.1197")
#loc257 = loc("transpose.1198")
#loc258 = loc("dot.1200")
#loc259 = loc("reshape.1201")
#loc260 = loc("reshape.1191")
#loc261 = loc("reshape.1193")
#loc262 = loc("broadcast.1204")
#loc263 = loc("add.1205")
#loc264 = loc("transpose.1207")
#loc265 = loc("convert.1208")
#loc266 = loc("multiply.1210")
#loc267 = loc("reshape.1171")
#loc268 = loc("reshape.1173")
#loc269 = loc("transpose.1174")
#loc270 = loc("dot.1176")
#loc271 = loc("reshape.1177")
#loc272 = loc("reshape.1167")
#loc273 = loc("reshape.1169")
#loc274 = loc("broadcast.1180")
#loc275 = loc("add.1181")
#loc276 = loc("transpose.1183")
#loc277 = loc("convert.1184")
#loc278 = loc("transpose.1185")
#loc279 = loc("multiply.1187")
#loc280 = loc("dot.1211")
#loc281 = loc("convert.1238")
#loc282 = loc("compare.1240")
#loc283 = loc("not.1242")
#loc284 = loc("reduce.1254")
#loc285 = loc("reshape.1258")
#loc286 = loc("not.1260")
#loc287 = loc("reshape.1262")
#loc288 = loc("broadcast.1263")
#loc289 = loc("reduce.1218")
#loc290 = loc("broadcast.1219")
#loc291 = loc("subtract.1220")
#loc292 = loc("exponential.1221")
#loc293 = loc("reduce.1227")
#loc294 = loc("broadcast.1228")
#loc295 = loc("divide.1229")
#loc296 = loc("select.1264")
#loc297 = loc("reshape.1048")
#loc298 = loc("reshape.1050")
#loc299 = loc("transpose.1051")
#loc300 = loc("dot.1155")
#loc301 = loc("reshape.1156")
#loc302 = loc("reshape.1044")
#loc303 = loc("reshape.1046")
#loc304 = loc("broadcast.1159")
#loc305 = loc("add.1160")
#loc306 = loc("transpose.1162")
#loc307 = loc("convert.1163")
#loc308 = loc("dot.1265")
#loc309 = loc("convert.1267")
#loc310 = loc("reshape.1270")
#loc311 = loc("reshape.1038")
#loc312 = loc("reshape.1040")
#loc313 = loc("transpose.1041")
#loc314 = loc("dot.1271")
#loc315 = loc("reshape.1272")
#loc316 = loc("reshape.1034")
#loc317 = loc("reshape.1036")
#loc318 = loc("broadcast.1275")
#loc319 = loc("add.1276")
#loc320 = loc("transpose.1277")
#loc321 = loc("reshape.1278")
#loc322 = loc("add.1281")
#loc323 = loc("divide.1283")
#loc324 = loc("convert.1284")
#loc325 = loc("reshape.1285")
#loc326 = loc("reduce.1331")
#loc327 = loc("multiply.1340")
#loc328 = loc("broadcast.1350")
#loc329 = loc("subtract.1351")
#loc330 = loc("multiply.1307")
#loc331 = loc("reduce.1314")
#loc332 = loc("multiply.1323")
#loc333 = loc("reshape.1324")
#loc334 = loc("add.1344")
#loc335 = loc("rsqrt.1345")
#loc336 = loc("reshape.1352")
#loc337 = loc("broadcast.1353")
#loc338 = loc("multiply.1354")
#loc339 = loc("reshape.1355")
#loc340 = loc("reshape.774")
#loc341 = loc("reshape.779")
#loc342 = loc("convert.780")
#loc343 = loc("reshape.1356")
#loc344 = loc("broadcast.1357")
#loc345 = loc("multiply.1358")
#loc346 = loc("reshape.767")
#loc347 = loc("reshape.772")
#loc348 = loc("convert.1359")
#loc349 = loc("reshape.1362")
#loc350 = loc("broadcast.1363")
#loc351 = loc("add.1364")
#loc352 = loc("convert.1365")
#loc353 = loc("convert.1366")
#loc354 = loc("logistic.1367")
#loc355 = loc("multiply.1368")
#loc356 = loc("convert.1369")
#loc357 = loc("convolution.1370")
#loc358 = loc("reshape.760")
#loc359 = loc("reshape.762")
#loc360 = loc("transpose.1372")
#loc361 = loc("add.1373")
#loc362 = loc("convert.1374")
#loc363 = loc("reshape.1375")
#loc364 = loc("reduce.1421")
#loc365 = loc("multiply.1430")
#loc366 = loc("broadcast.1440")
#loc367 = loc("subtract.1441")
#loc368 = loc("multiply.1397")
#loc369 = loc("reduce.1404")
#loc370 = loc("multiply.1413")
#loc371 = loc("reshape.1414")
#loc372 = loc("add.1434")
#loc373 = loc("rsqrt.1435")
#loc374 = loc("reshape.1442")
#loc375 = loc("broadcast.1443")
#loc376 = loc("multiply.1444")
#loc377 = loc("reshape.1445")
#loc378 = loc("reshape.750")
#loc379 = loc("reshape.755")
#loc380 = loc("convert.756")
#loc381 = loc("reshape.1446")
#loc382 = loc("broadcast.1447")
#loc383 = loc("multiply.1448")
#loc384 = loc("reshape.743")
#loc385 = loc("reshape.748")
#loc386 = loc("convert.1449")
#loc387 = loc("reshape.1452")
#loc388 = loc("broadcast.1453")
#loc389 = loc("add.1454")
#loc390 = loc("convert.1455")
#loc391 = loc("convert.1456")
#loc392 = loc("logistic.1457")
#loc393 = loc("multiply.1458")
#loc394 = loc("convert.1459")
#loc395 = loc("convolution.1460")
#loc396 = loc("reshape.736")
#loc397 = loc("reshape.738")
#loc398 = loc("transpose.1462")
#loc399 = loc("add.1463")
#loc400 = loc("add.1466")
#loc401 = loc("divide.1468")
#loc402 = loc("convert.1469")
#loc403 = loc("reshape.1470")
#loc404 = loc("reduce.1516")
#loc405 = loc("multiply.1525")
#loc406 = loc("broadcast.1535")
#loc407 = loc("subtract.1536")
#loc408 = loc("multiply.1492")
#loc409 = loc("reduce.1499")
#loc410 = loc("multiply.1508")
#loc411 = loc("reshape.1509")
#loc412 = loc("add.1529")
#loc413 = loc("rsqrt.1530")
#loc414 = loc("reshape.1537")
#loc415 = loc("broadcast.1538")
#loc416 = loc("multiply.1539")
#loc417 = loc("reshape.1540")
#loc418 = loc("reshape.724")
#loc419 = loc("reshape.729")
#loc420 = loc("convert.730")
#loc421 = loc("reshape.1541")
#loc422 = loc("broadcast.1542")
#loc423 = loc("multiply.1543")
#loc424 = loc("reshape.717")
#loc425 = loc("reshape.722")
#loc426 = loc("convert.1544")
#loc427 = loc("reshape.1547")
#loc428 = loc("broadcast.1548")
#loc429 = loc("add.1549")
#loc430 = loc("convert.1550")
#loc431 = loc("convert.1551")
#loc432 = loc("logistic.1552")
#loc433 = loc("multiply.1553")
#loc434 = loc("convert.1554")
#loc435 = loc("convolution.1555")
#loc436 = loc("reshape.710")
#loc437 = loc("reshape.712")
#loc438 = loc("transpose.1557")
#loc439 = loc("add.1558")
#loc440 = loc("convert.1559")
#loc441 = loc("reshape.1560")
#loc442 = loc("reduce.1606")
#loc443 = loc("multiply.1615")
#loc444 = loc("broadcast.1625")
#loc445 = loc("subtract.1626")
#loc446 = loc("multiply.1582")
#loc447 = loc("reduce.1589")
#loc448 = loc("multiply.1598")
#loc449 = loc("reshape.1599")
#loc450 = loc("add.1619")
#loc451 = loc("rsqrt.1620")
#loc452 = loc("reshape.1627")
#loc453 = loc("broadcast.1628")
#loc454 = loc("multiply.1629")
#loc455 = loc("reshape.1630")
#loc456 = loc("reshape.700")
#loc457 = loc("reshape.705")
#loc458 = loc("convert.706")
#loc459 = loc("reshape.1631")
#loc460 = loc("broadcast.1632")
#loc461 = loc("multiply.1633")
#loc462 = loc("reshape.693")
#loc463 = loc("reshape.698")
#loc464 = loc("convert.1634")
#loc465 = loc("reshape.1637")
#loc466 = loc("broadcast.1638")
#loc467 = loc("add.1639")
#loc468 = loc("convert.1640")
#loc469 = loc("convert.1641")
#loc470 = loc("logistic.1642")
#loc471 = loc("multiply.1643")
#loc472 = loc("convert.1644")
#loc473 = loc("convolution.1645")
#loc474 = loc("reshape.686")
#loc475 = loc("reshape.688")
#loc476 = loc("transpose.1647")
#loc477 = loc("add.1648")
#loc478 = loc("add.1651")
#loc479 = loc("divide.1653")
#loc480 = loc("convert.1654")
#loc481 = loc("reshape.1655")
#loc482 = loc("reduce.1701")
#loc483 = loc("multiply.1710")
#loc484 = loc("broadcast.1720")
#loc485 = loc("subtract.1721")
#loc486 = loc("multiply.1677")
#loc487 = loc("reduce.1684")
#loc488 = loc("multiply.1693")
#loc489 = loc("reshape.1694")
#loc490 = loc("add.1714")
#loc491 = loc("rsqrt.1715")
#loc492 = loc("reshape.1722")
#loc493 = loc("broadcast.1723")
#loc494 = loc("multiply.1724")
#loc495 = loc("reshape.1725")
#loc496 = loc("reshape.674")
#loc497 = loc("reshape.679")
#loc498 = loc("convert.680")
#loc499 = loc("reshape.1726")
#loc500 = loc("broadcast.1727")
#loc501 = loc("multiply.1728")
#loc502 = loc("reshape.667")
#loc503 = loc("reshape.672")
#loc504 = loc("convert.1729")
#loc505 = loc("reshape.1732")
#loc506 = loc("broadcast.1733")
#loc507 = loc("add.1734")
#loc508 = loc("convert.1735")
#loc509 = loc("convert.1736")
#loc510 = loc("logistic.1737")
#loc511 = loc("multiply.1738")
#loc512 = loc("convert.1739")
#loc513 = loc("convolution.1740")
#loc514 = loc("reshape.660")
#loc515 = loc("reshape.662")
#loc516 = loc("transpose.1742")
#loc517 = loc("add.1743")
#loc518 = loc("convert.1744")
#loc519 = loc("reshape.1745")
#loc520 = loc("reduce.1791")
#loc521 = loc("multiply.1800")
#loc522 = loc("broadcast.1810")
#loc523 = loc("subtract.1811")
#loc524 = loc("multiply.1767")
#loc525 = loc("reduce.1774")
#loc526 = loc("multiply.1783")
#loc527 = loc("reshape.1784")
#loc528 = loc("add.1804")
#loc529 = loc("rsqrt.1805")
#loc530 = loc("reshape.1812")
#loc531 = loc("broadcast.1813")
#loc532 = loc("multiply.1814")
#loc533 = loc("reshape.1815")
#loc534 = loc("reshape.650")
#loc535 = loc("reshape.655")
#loc536 = loc("convert.656")
#loc537 = loc("reshape.1816")
#loc538 = loc("broadcast.1817")
#loc539 = loc("multiply.1818")
#loc540 = loc("reshape.643")
#loc541 = loc("reshape.648")
#loc542 = loc("convert.1819")
#loc543 = loc("reshape.1822")
#loc544 = loc("broadcast.1823")
#loc545 = loc("add.1824")
#loc546 = loc("convert.1825")
#loc547 = loc("convert.1826")
#loc548 = loc("logistic.1827")
#loc549 = loc("multiply.1828")
#loc550 = loc("convert.1829")
#loc551 = loc("convolution.1830")
#loc552 = loc("reshape.636")
#loc553 = loc("reshape.638")
#loc554 = loc("transpose.1832")
#loc555 = loc("add.1833")
#loc556 = loc("add.1836")
#loc557 = loc("divide.1838")
#loc558 = loc("convert.1839")
#loc559 = loc("reshape.1840")
#loc560 = loc("reduce.1886")
#loc561 = loc("multiply.1895")
#loc562 = loc("broadcast.1905")
#loc563 = loc("subtract.1906")
#loc564 = loc("multiply.1862")
#loc565 = loc("reduce.1869")
#loc566 = loc("multiply.1878")
#loc567 = loc("reshape.1879")
#loc568 = loc("add.1899")
#loc569 = loc("rsqrt.1900")
#loc570 = loc("reshape.1907")
#loc571 = loc("broadcast.1908")
#loc572 = loc("multiply.1909")
#loc573 = loc("reshape.1910")
#loc574 = loc("reshape.624")
#loc575 = loc("reshape.629")
#loc576 = loc("convert.630")
#loc577 = loc("reshape.1911")
#loc578 = loc("broadcast.1912")
#loc579 = loc("multiply.1913")
#loc580 = loc("reshape.617")
#loc581 = loc("reshape.622")
#loc582 = loc("convert.1914")
#loc583 = loc("reshape.1917")
#loc584 = loc("broadcast.1918")
#loc585 = loc("add.1919")
#loc586 = loc("convert.1920")
#loc587 = loc("convert.1921")
#loc588 = loc("logistic.1922")
#loc589 = loc("multiply.1923")
#loc590 = loc("convert.1924")
#loc591 = loc("convolution.1925")
#loc592 = loc("reshape.610")
#loc593 = loc("reshape.612")
#loc594 = loc("transpose.1927")
#loc595 = loc("add.1928")
#loc596 = loc("convert.1929")
#loc597 = loc("reshape.1930")
#loc598 = loc("reduce.1976")
#loc599 = loc("multiply.1985")
#loc600 = loc("broadcast.1995")
#loc601 = loc("subtract.1996")
#loc602 = loc("multiply.1952")
#loc603 = loc("reduce.1959")
#loc604 = loc("multiply.1968")
#loc605 = loc("reshape.1969")
#loc606 = loc("add.1989")
#loc607 = loc("rsqrt.1990")
#loc608 = loc("reshape.1997")
#loc609 = loc("broadcast.1998")
#loc610 = loc("multiply.1999")
#loc611 = loc("reshape.2000")
#loc612 = loc("reshape.600")
#loc613 = loc("reshape.605")
#loc614 = loc("convert.606")
#loc615 = loc("reshape.2001")
#loc616 = loc("broadcast.2002")
#loc617 = loc("multiply.2003")
#loc618 = loc("reshape.593")
#loc619 = loc("reshape.598")
#loc620 = loc("convert.2004")
#loc621 = loc("reshape.2007")
#loc622 = loc("broadcast.2008")
#loc623 = loc("add.2009")
#loc624 = loc("convert.2010")
#loc625 = loc("convert.2011")
#loc626 = loc("logistic.2012")
#loc627 = loc("multiply.2013")
#loc628 = loc("convert.2014")
#loc629 = loc("convolution.2015")
#loc630 = loc("reshape.586")
#loc631 = loc("reshape.588")
#loc632 = loc("transpose.2017")
#loc633 = loc("add.2018")
#loc634 = loc("add.2021")
#loc635 = loc("divide.2023")
#loc636 = loc("transpose.2024")
#loc637 = loc("floor.573")
#loc638 = loc("convert.574")
#loc639 = loc("broadcast.578")
#loc640 = loc("broadcast.576")
#loc641 = loc("compare.579")
#loc642 = loc("convert.580")
#loc643 = loc("transpose.581")
#loc644 = loc("convert.582")
#loc645 = loc("dot.2025")
#loc646 = loc("transpose.2027")
#loc647 = loc("dot.2028")
#loc648 = loc("convolution.2030")
#loc649 = loc("reshape.548")
#loc650 = loc("reshape.550")
#loc651 = loc("transpose.2032")
#loc652 = loc("add.2033")
#loc653 = loc("convert.2034")
#loc654 = loc("reshape.2035")
#loc655 = loc("reduce.2081")
#loc656 = loc("multiply.2090")
#loc657 = loc("broadcast.2100")
#loc658 = loc("subtract.2101")
#loc659 = loc("multiply.2057")
#loc660 = loc("reduce.2064")
#loc661 = loc("multiply.2073")
#loc662 = loc("reshape.2074")
#loc663 = loc("add.2094")
#loc664 = loc("rsqrt.2095")
#loc665 = loc("reshape.2102")
#loc666 = loc("broadcast.2103")
#loc667 = loc("multiply.2104")
#loc668 = loc("reshape.2105")
#loc669 = loc("reshape.538")
#loc670 = loc("reshape.543")
#loc671 = loc("convert.544")
#loc672 = loc("reshape.2106")
#loc673 = loc("broadcast.2107")
#loc674 = loc("multiply.2108")
#loc675 = loc("reshape.531")
#loc676 = loc("reshape.536")
#loc677 = loc("convert.2109")
#loc678 = loc("reshape.2112")
#loc679 = loc("broadcast.2113")
#loc680 = loc("add.2114")
#loc681 = loc("convert.2115")
#loc682 = loc("convert.2116")
#loc683 = loc("logistic.2117")
#loc684 = loc("multiply.2118")
#loc685 = loc("convert.2119")
#loc686 = loc("convolution.2120")
#loc687 = loc("reshape.524")
#loc688 = loc("reshape.526")
#loc689 = loc("transpose.2122")
#loc690 = loc("add.2123")
#loc691 = loc("convert.2124")
#loc692 = loc("reshape.2125")
#loc693 = loc("reduce.2171")
#loc694 = loc("multiply.2180")
#loc695 = loc("broadcast.2190")
#loc696 = loc("subtract.2191")
#loc697 = loc("multiply.2147")
#loc698 = loc("reduce.2154")
#loc699 = loc("multiply.2163")
#loc700 = loc("reshape.2164")
#loc701 = loc("add.2184")
#loc702 = loc("rsqrt.2185")
#loc703 = loc("reshape.2192")
#loc704 = loc("broadcast.2193")
#loc705 = loc("multiply.2194")
#loc706 = loc("reshape.2195")
#loc707 = loc("reshape.514")
#loc708 = loc("reshape.519")
#loc709 = loc("convert.520")
#loc710 = loc("reshape.2196")
#loc711 = loc("broadcast.2197")
#loc712 = loc("multiply.2198")
#loc713 = loc("reshape.507")
#loc714 = loc("reshape.512")
#loc715 = loc("convert.2199")
#loc716 = loc("reshape.2202")
#loc717 = loc("broadcast.2203")
#loc718 = loc("add.2204")
#loc719 = loc("convert.2205")
#loc720 = loc("convert.2206")
#loc721 = loc("logistic.2207")
#loc722 = loc("multiply.2208")
#loc723 = loc("convert.2209")
#loc724 = loc("convolution.2210")
#loc725 = loc("reshape.500")
#loc726 = loc("reshape.502")
#loc727 = loc("transpose.2212")
#loc728 = loc("add.2213")
#loc729 = loc("add.2216")
#loc730 = loc("divide.2218")
#loc731 = loc("convert.2219")
#loc732 = loc("reshape.2220")
#loc733 = loc("reduce.2266")
#loc734 = loc("multiply.2275")
#loc735 = loc("broadcast.2285")
#loc736 = loc("subtract.2286")
#loc737 = loc("multiply.2242")
#loc738 = loc("reduce.2249")
#loc739 = loc("multiply.2258")
#loc740 = loc("reshape.2259")
#loc741 = loc("add.2279")
#loc742 = loc("rsqrt.2280")
#loc743 = loc("reshape.2287")
#loc744 = loc("broadcast.2288")
#loc745 = loc("multiply.2289")
#loc746 = loc("reshape.2290")
#loc747 = loc("reshape.488")
#loc748 = loc("reshape.493")
#loc749 = loc("convert.494")
#loc750 = loc("reshape.2291")
#loc751 = loc("broadcast.2292")
#loc752 = loc("multiply.2293")
#loc753 = loc("reshape.481")
#loc754 = loc("reshape.486")
#loc755 = loc("convert.2294")
#loc756 = loc("reshape.2297")
#loc757 = loc("broadcast.2298")
#loc758 = loc("add.2299")
#loc759 = loc("convert.2300")
#loc760 = loc("convert.2301")
#loc761 = loc("logistic.2302")
#loc762 = loc("multiply.2303")
#loc763 = loc("convert.2304")
#loc764 = loc("convolution.2305")
#loc765 = loc("reshape.474")
#loc766 = loc("reshape.476")
#loc767 = loc("transpose.2307")
#loc768 = loc("add.2308")
#loc769 = loc("convert.2309")
#loc770 = loc("reshape.2310")
#loc771 = loc("reduce.2356")
#loc772 = loc("multiply.2365")
#loc773 = loc("broadcast.2375")
#loc774 = loc("subtract.2376")
#loc775 = loc("multiply.2332")
#loc776 = loc("reduce.2339")
#loc777 = loc("multiply.2348")
#loc778 = loc("reshape.2349")
#loc779 = loc("add.2369")
#loc780 = loc("rsqrt.2370")
#loc781 = loc("reshape.2377")
#loc782 = loc("broadcast.2378")
#loc783 = loc("multiply.2379")
#loc784 = loc("reshape.2380")
#loc785 = loc("reshape.464")
#loc786 = loc("reshape.469")
#loc787 = loc("convert.470")
#loc788 = loc("reshape.2381")
#loc789 = loc("broadcast.2382")
#loc790 = loc("multiply.2383")
#loc791 = loc("reshape.457")
#loc792 = loc("reshape.462")
#loc793 = loc("convert.2384")
#loc794 = loc("reshape.2387")
#loc795 = loc("broadcast.2388")
#loc796 = loc("add.2389")
#loc797 = loc("convert.2390")
#loc798 = loc("convert.2391")
#loc799 = loc("logistic.2392")
#loc800 = loc("multiply.2393")
#loc801 = loc("convert.2394")
#loc802 = loc("convolution.2395")
#loc803 = loc("reshape.450")
#loc804 = loc("reshape.452")
#loc805 = loc("transpose.2397")
#loc806 = loc("add.2398")
#loc807 = loc("add.2401")
#loc808 = loc("divide.2403")
#loc809 = loc("convert.2404")
#loc810 = loc("reshape.2405")
#loc811 = loc("reduce.2451")
#loc812 = loc("multiply.2460")
#loc813 = loc("broadcast.2470")
#loc814 = loc("subtract.2471")
#loc815 = loc("multiply.2427")
#loc816 = loc("reduce.2434")
#loc817 = loc("multiply.2443")
#loc818 = loc("reshape.2444")
#loc819 = loc("add.2464")
#loc820 = loc("rsqrt.2465")
#loc821 = loc("reshape.2472")
#loc822 = loc("broadcast.2473")
#loc823 = loc("multiply.2474")
#loc824 = loc("reshape.2475")
#loc825 = loc("reshape.438")
#loc826 = loc("reshape.443")
#loc827 = loc("convert.444")
#loc828 = loc("reshape.2476")
#loc829 = loc("broadcast.2477")
#loc830 = loc("multiply.2478")
#loc831 = loc("reshape.431")
#loc832 = loc("reshape.436")
#loc833 = loc("convert.2479")
#loc834 = loc("reshape.2482")
#loc835 = loc("broadcast.2483")
#loc836 = loc("add.2484")
#loc837 = loc("convert.2485")
#loc838 = loc("convert.2486")
#loc839 = loc("logistic.2487")
#loc840 = loc("multiply.2488")
#loc841 = loc("convert.2489")
#loc842 = loc("convolution.2490")
#loc843 = loc("reshape.424")
#loc844 = loc("reshape.426")
#loc845 = loc("transpose.2492")
#loc846 = loc("add.2493")
#loc847 = loc("convert.2494")
#loc848 = loc("reshape.2495")
#loc849 = loc("reduce.2541")
#loc850 = loc("multiply.2550")
#loc851 = loc("broadcast.2560")
#loc852 = loc("subtract.2561")
#loc853 = loc("multiply.2517")
#loc854 = loc("reduce.2524")
#loc855 = loc("multiply.2533")
#loc856 = loc("reshape.2534")
#loc857 = loc("add.2554")
#loc858 = loc("rsqrt.2555")
#loc859 = loc("reshape.2562")
#loc860 = loc("broadcast.2563")
#loc861 = loc("multiply.2564")
#loc862 = loc("reshape.2565")
#loc863 = loc("reshape.414")
#loc864 = loc("reshape.419")
#loc865 = loc("convert.420")
#loc866 = loc("reshape.2566")
#loc867 = loc("broadcast.2567")
#loc868 = loc("multiply.2568")
#loc869 = loc("reshape.407")
#loc870 = loc("reshape.412")
#loc871 = loc("convert.2569")
#loc872 = loc("reshape.2572")
#loc873 = loc("broadcast.2573")
#loc874 = loc("add.2574")
#loc875 = loc("convert.2575")
#loc876 = loc("convert.2576")
#loc877 = loc("logistic.2577")
#loc878 = loc("multiply.2578")
#loc879 = loc("convert.2579")
#loc880 = loc("convolution.2580")
#loc881 = loc("reshape.400")
#loc882 = loc("reshape.402")
#loc883 = loc("transpose.2582")
#loc884 = loc("add.2583")
#loc885 = loc("add.2586")
#loc886 = loc("divide.2588")
#loc887 = loc("transpose.2589")
#loc888 = loc("floor.387")
#loc889 = loc("convert.388")
#loc890 = loc("broadcast.392")
#loc891 = loc("broadcast.390")
#loc892 = loc("compare.393")
#loc893 = loc("convert.394")
#loc894 = loc("transpose.395")
#loc895 = loc("convert.396")
#loc896 = loc("dot.2590")
#loc897 = loc("transpose.2592")
#loc898 = loc("dot.2593")
#loc899 = loc("convolution.2595")
#loc900 = loc("reshape.362")
#loc901 = loc("reshape.364")
#loc902 = loc("transpose.2597")
#loc903 = loc("add.2598")
#loc904 = loc("convolution.2785")
#loc905 = loc("reshape.2780")
#loc906 = loc("reshape.2782")
#loc907 = loc("transpose.2787")
#loc908 = loc("add.2788")
#loc909 = loc("convert.2599")
#loc910 = loc("reshape.2600")
#loc911 = loc("reduce.2646")
#loc912 = loc("multiply.2655")
#loc913 = loc("broadcast.2665")
#loc914 = loc("subtract.2666")
#loc915 = loc("multiply.2622")
#loc916 = loc("reduce.2629")
#loc917 = loc("multiply.2638")
#loc918 = loc("reshape.2639")
#loc919 = loc("add.2659")
#loc920 = loc("rsqrt.2660")
#loc921 = loc("reshape.2667")
#loc922 = loc("broadcast.2668")
#loc923 = loc("multiply.2669")
#loc924 = loc("reshape.2670")
#loc925 = loc("reshape.352")
#loc926 = loc("reshape.357")
#loc927 = loc("convert.358")
#loc928 = loc("reshape.2671")
#loc929 = loc("broadcast.2672")
#loc930 = loc("multiply.2673")
#loc931 = loc("reshape.345")
#loc932 = loc("reshape.350")
#loc933 = loc("convert.2674")
#loc934 = loc("reshape.2677")
#loc935 = loc("broadcast.2678")
#loc936 = loc("add.2679")
#loc937 = loc("convert.2680")
#loc938 = loc("convert.2681")
#loc939 = loc("logistic.2682")
#loc940 = loc("multiply.2683")
#loc941 = loc("convert.2684")
#loc942 = loc("convolution.2685")
#loc943 = loc("reshape.338")
#loc944 = loc("reshape.340")
#loc945 = loc("transpose.2687")
#loc946 = loc("add.2688")
#loc947 = loc("convert.2689")
#loc948 = loc("reshape.2690")
#loc949 = loc("reduce.2736")
#loc950 = loc("multiply.2745")
#loc951 = loc("broadcast.2755")
#loc952 = loc("subtract.2756")
#loc953 = loc("multiply.2712")
#loc954 = loc("reduce.2719")
#loc955 = loc("multiply.2728")
#loc956 = loc("reshape.2729")
#loc957 = loc("add.2749")
#loc958 = loc("rsqrt.2750")
#loc959 = loc("reshape.2757")
#loc960 = loc("broadcast.2758")
#loc961 = loc("multiply.2759")
#loc962 = loc("reshape.2760")
#loc963 = loc("reshape.328")
#loc964 = loc("reshape.333")
#loc965 = loc("convert.334")
#loc966 = loc("reshape.2761")
#loc967 = loc("broadcast.2762")
#loc968 = loc("multiply.2763")
#loc969 = loc("reshape.321")
#loc970 = loc("reshape.326")
#loc971 = loc("convert.2764")
#loc972 = loc("reshape.2767")
#loc973 = loc("broadcast.2768")
#loc974 = loc("add.2769")
#loc975 = loc("convert.2770")
#loc976 = loc("convert.2771")
#loc977 = loc("logistic.2772")
#loc978 = loc("multiply.2773")
#loc979 = loc("convert.2774")
#loc980 = loc("convolution.2775")
#loc981 = loc("reshape.314")
#loc982 = loc("reshape.316")
#loc983 = loc("transpose.2777")
#loc984 = loc("add.2778")
#loc985 = loc("add.2791")
#loc986 = loc("divide.2793")
#loc987 = loc("convert.2794")
#loc988 = loc("reshape.2795")
#loc989 = loc("reduce.2841")
#loc990 = loc("multiply.2850")
#loc991 = loc("broadcast.2860")
#loc992 = loc("subtract.2861")
#loc993 = loc("multiply.2817")
#loc994 = loc("reduce.2824")
#loc995 = loc("multiply.2833")
#loc996 = loc("reshape.2834")
#loc997 = loc("add.2854")
#loc998 = loc("rsqrt.2855")
#loc999 = loc("reshape.2862")
#loc1000 = loc("broadcast.2863")
#loc1001 = loc("multiply.2864")
#loc1002 = loc("reshape.2865")
#loc1003 = loc("reshape.302")
#loc1004 = loc("reshape.307")
#loc1005 = loc("convert.308")
#loc1006 = loc("reshape.2866")
#loc1007 = loc("broadcast.2867")
#loc1008 = loc("multiply.2868")
#loc1009 = loc("reshape.295")
#loc1010 = loc("reshape.300")
#loc1011 = loc("convert.2869")
#loc1012 = loc("reshape.2872")
#loc1013 = loc("broadcast.2873")
#loc1014 = loc("add.2874")
#loc1015 = loc("convert.2875")
#loc1016 = loc("convert.2876")
#loc1017 = loc("logistic.2877")
#loc1018 = loc("multiply.2878")
#loc1019 = loc("convert.2879")
#loc1020 = loc("convolution.2880")
#loc1021 = loc("reshape.288")
#loc1022 = loc("reshape.290")
#loc1023 = loc("transpose.2882")
#loc1024 = loc("add.2883")
#loc1025 = loc("convert.2884")
#loc1026 = loc("reshape.2885")
#loc1027 = loc("reduce.2931")
#loc1028 = loc("multiply.2940")
#loc1029 = loc("broadcast.2950")
#loc1030 = loc("subtract.2951")
#loc1031 = loc("multiply.2907")
#loc1032 = loc("reduce.2914")
#loc1033 = loc("multiply.2923")
#loc1034 = loc("reshape.2924")
#loc1035 = loc("add.2944")
#loc1036 = loc("rsqrt.2945")
#loc1037 = loc("reshape.2952")
#loc1038 = loc("broadcast.2953")
#loc1039 = loc("multiply.2954")
#loc1040 = loc("reshape.2955")
#loc1041 = loc("reshape.278")
#loc1042 = loc("reshape.283")
#loc1043 = loc("convert.284")
#loc1044 = loc("reshape.2956")
#loc1045 = loc("broadcast.2957")
#loc1046 = loc("multiply.2958")
#loc1047 = loc("reshape.271")
#loc1048 = loc("reshape.276")
#loc1049 = loc("convert.2959")
#loc1050 = loc("reshape.2962")
#loc1051 = loc("broadcast.2963")
#loc1052 = loc("add.2964")
#loc1053 = loc("convert.2965")
#loc1054 = loc("convert.2966")
#loc1055 = loc("logistic.2967")
#loc1056 = loc("multiply.2968")
#loc1057 = loc("convert.2969")
#loc1058 = loc("convolution.2970")
#loc1059 = loc("reshape.264")
#loc1060 = loc("reshape.266")
#loc1061 = loc("transpose.2972")
#loc1062 = loc("add.2973")
#loc1063 = loc("add.2976")
#loc1064 = loc("divide.2978")
#loc1065 = loc("convert.2979")
#loc1066 = loc("reshape.2980")
#loc1067 = loc("reduce.3026")
#loc1068 = loc("multiply.3035")
#loc1069 = loc("broadcast.3045")
#loc1070 = loc("subtract.3046")
#loc1071 = loc("multiply.3002")
#loc1072 = loc("reduce.3009")
#loc1073 = loc("multiply.3018")
#loc1074 = loc("reshape.3019")
#loc1075 = loc("add.3039")
#loc1076 = loc("rsqrt.3040")
#loc1077 = loc("reshape.3047")
#loc1078 = loc("broadcast.3048")
#loc1079 = loc("multiply.3049")
#loc1080 = loc("reshape.3050")
#loc1081 = loc("reshape.252")
#loc1082 = loc("reshape.257")
#loc1083 = loc("convert.258")
#loc1084 = loc("reshape.3051")
#loc1085 = loc("broadcast.3052")
#loc1086 = loc("multiply.3053")
#loc1087 = loc("reshape.245")
#loc1088 = loc("reshape.250")
#loc1089 = loc("convert.3054")
#loc1090 = loc("reshape.3057")
#loc1091 = loc("broadcast.3058")
#loc1092 = loc("add.3059")
#loc1093 = loc("convert.3060")
#loc1094 = loc("convert.3061")
#loc1095 = loc("logistic.3062")
#loc1096 = loc("multiply.3063")
#loc1097 = loc("convert.3064")
#loc1098 = loc("convolution.3065")
#loc1099 = loc("reshape.238")
#loc1100 = loc("reshape.240")
#loc1101 = loc("transpose.3067")
#loc1102 = loc("add.3068")
#loc1103 = loc("convert.3069")
#loc1104 = loc("reshape.3070")
#loc1105 = loc("reduce.3116")
#loc1106 = loc("multiply.3125")
#loc1107 = loc("broadcast.3135")
#loc1108 = loc("subtract.3136")
#loc1109 = loc("multiply.3092")
#loc1110 = loc("reduce.3099")
#loc1111 = loc("multiply.3108")
#loc1112 = loc("reshape.3109")
#loc1113 = loc("add.3129")
#loc1114 = loc("rsqrt.3130")
#loc1115 = loc("reshape.3137")
#loc1116 = loc("broadcast.3138")
#loc1117 = loc("multiply.3139")
#loc1118 = loc("reshape.3140")
#loc1119 = loc("reshape.228")
#loc1120 = loc("reshape.233")
#loc1121 = loc("convert.234")
#loc1122 = loc("reshape.3141")
#loc1123 = loc("broadcast.3142")
#loc1124 = loc("multiply.3143")
#loc1125 = loc("reshape.221")
#loc1126 = loc("reshape.226")
#loc1127 = loc("convert.3144")
#loc1128 = loc("reshape.3147")
#loc1129 = loc("broadcast.3148")
#loc1130 = loc("add.3149")
#loc1131 = loc("convert.3150")
#loc1132 = loc("convert.3151")
#loc1133 = loc("logistic.3152")
#loc1134 = loc("multiply.3153")
#loc1135 = loc("convert.3154")
#loc1136 = loc("convolution.3155")
#loc1137 = loc("reshape.214")
#loc1138 = loc("reshape.216")
#loc1139 = loc("transpose.3157")
#loc1140 = loc("add.3158")
#loc1141 = loc("add.3161")
#loc1142 = loc("divide.3163")
#loc1143 = loc("transpose.3164")
#loc1144 = loc("floor.201")
#loc1145 = loc("convert.202")
#loc1146 = loc("broadcast.206")
#loc1147 = loc("broadcast.204")
#loc1148 = loc("compare.207")
#loc1149 = loc("convert.208")
#loc1150 = loc("transpose.209")
#loc1151 = loc("convert.210")
#loc1152 = loc("dot.3165")
#loc1153 = loc("transpose.3167")
#loc1154 = loc("dot.3168")
#loc1155 = loc("convolution.3170")
#loc1156 = loc("reshape.176")
#loc1157 = loc("reshape.178")
#loc1158 = loc("transpose.3172")
#loc1159 = loc("add.3173")
#loc1160 = loc("convolution.3360")
#loc1161 = loc("reshape.3355")
#loc1162 = loc("reshape.3357")
#loc1163 = loc("transpose.3362")
#loc1164 = loc("add.3363")
#loc1165 = loc("convert.3174")
#loc1166 = loc("reshape.3175")
#loc1167 = loc("reduce.3221")
#loc1168 = loc("multiply.3230")
#loc1169 = loc("broadcast.3240")
#loc1170 = loc("subtract.3241")
#loc1171 = loc("multiply.3197")
#loc1172 = loc("reduce.3204")
#loc1173 = loc("multiply.3213")
#loc1174 = loc("reshape.3214")
#loc1175 = loc("add.3234")
#loc1176 = loc("rsqrt.3235")
#loc1177 = loc("reshape.3242")
#loc1178 = loc("broadcast.3243")
#loc1179 = loc("multiply.3244")
#loc1180 = loc("reshape.3245")
#loc1181 = loc("reshape.166")
#loc1182 = loc("reshape.171")
#loc1183 = loc("convert.172")
#loc1184 = loc("reshape.3246")
#loc1185 = loc("broadcast.3247")
#loc1186 = loc("multiply.3248")
#loc1187 = loc("reshape.159")
#loc1188 = loc("reshape.164")
#loc1189 = loc("convert.3249")
#loc1190 = loc("reshape.3252")
#loc1191 = loc("broadcast.3253")
#loc1192 = loc("add.3254")
#loc1193 = loc("convert.3255")
#loc1194 = loc("convert.3256")
#loc1195 = loc("logistic.3257")
#loc1196 = loc("multiply.3258")
#loc1197 = loc("convert.3259")
#loc1198 = loc("convolution.3260")
#loc1199 = loc("reshape.152")
#loc1200 = loc("reshape.154")
#loc1201 = loc("transpose.3262")
#loc1202 = loc("add.3263")
#loc1203 = loc("convert.3264")
#loc1204 = loc("reshape.3265")
#loc1205 = loc("reduce.3311")
#loc1206 = loc("multiply.3320")
#loc1207 = loc("broadcast.3330")
#loc1208 = loc("subtract.3331")
#loc1209 = loc("multiply.3287")
#loc1210 = loc("reduce.3294")
#loc1211 = loc("multiply.3303")
#loc1212 = loc("reshape.3304")
#loc1213 = loc("add.3324")
#loc1214 = loc("rsqrt.3325")
#loc1215 = loc("reshape.3332")
#loc1216 = loc("broadcast.3333")
#loc1217 = loc("multiply.3334")
#loc1218 = loc("reshape.3335")
#loc1219 = loc("reshape.142")
#loc1220 = loc("reshape.147")
#loc1221 = loc("convert.148")
#loc1222 = loc("reshape.3336")
#loc1223 = loc("broadcast.3337")
#loc1224 = loc("multiply.3338")
#loc1225 = loc("reshape.135")
#loc1226 = loc("reshape.140")
#loc1227 = loc("convert.3339")
#loc1228 = loc("reshape.3342")
#loc1229 = loc("broadcast.3343")
#loc1230 = loc("add.3344")
#loc1231 = loc("convert.3345")
#loc1232 = loc("convert.3346")
#loc1233 = loc("logistic.3347")
#loc1234 = loc("multiply.3348")
#loc1235 = loc("convert.3349")
#loc1236 = loc("convolution.3350")
#loc1237 = loc("reshape.128")
#loc1238 = loc("reshape.130")
#loc1239 = loc("transpose.3352")
#loc1240 = loc("add.3353")
#loc1241 = loc("add.3366")
#loc1242 = loc("divide.3368")
#loc1243 = loc("convert.3369")
#loc1244 = loc("reshape.3370")
#loc1245 = loc("reduce.3416")
#loc1246 = loc("multiply.3425")
#loc1247 = loc("broadcast.3435")
#loc1248 = loc("subtract.3436")
#loc1249 = loc("multiply.3392")
#loc1250 = loc("reduce.3399")
#loc1251 = loc("multiply.3408")
#loc1252 = loc("reshape.3409")
#loc1253 = loc("add.3429")
#loc1254 = loc("rsqrt.3430")
#loc1255 = loc("reshape.3437")
#loc1256 = loc("broadcast.3438")
#loc1257 = loc("multiply.3439")
#loc1258 = loc("reshape.3440")
#loc1259 = loc("reshape.116")
#loc1260 = loc("reshape.121")
#loc1261 = loc("convert.122")
#loc1262 = loc("reshape.3441")
#loc1263 = loc("broadcast.3442")
#loc1264 = loc("multiply.3443")
#loc1265 = loc("reshape.109")
#loc1266 = loc("reshape.114")
#loc1267 = loc("convert.3444")
#loc1268 = loc("reshape.3447")
#loc1269 = loc("broadcast.3448")
#loc1270 = loc("add.3449")
#loc1271 = loc("convert.3450")
#loc1272 = loc("convert.3451")
#loc1273 = loc("logistic.3452")
#loc1274 = loc("multiply.3453")
#loc1275 = loc("convert.3454")
#loc1276 = loc("convolution.3455")
#loc1277 = loc("reshape.102")
#loc1278 = loc("reshape.104")
#loc1279 = loc("transpose.3457")
#loc1280 = loc("add.3458")
#loc1281 = loc("convert.3459")
#loc1282 = loc("reshape.3460")
#loc1283 = loc("reduce.3506")
#loc1284 = loc("multiply.3515")
#loc1285 = loc("broadcast.3525")
#loc1286 = loc("subtract.3526")
#loc1287 = loc("multiply.3482")
#loc1288 = loc("reduce.3489")
#loc1289 = loc("multiply.3498")
#loc1290 = loc("reshape.3499")
#loc1291 = loc("add.3519")
#loc1292 = loc("rsqrt.3520")
#loc1293 = loc("reshape.3527")
#loc1294 = loc("broadcast.3528")
#loc1295 = loc("multiply.3529")
#loc1296 = loc("reshape.3530")
#loc1297 = loc("reshape.92")
#loc1298 = loc("reshape.97")
#loc1299 = loc("convert.98")
#loc1300 = loc("reshape.3531")
#loc1301 = loc("broadcast.3532")
#loc1302 = loc("multiply.3533")
#loc1303 = loc("reshape.85")
#loc1304 = loc("reshape.90")
#loc1305 = loc("convert.3534")
#loc1306 = loc("reshape.3537")
#loc1307 = loc("broadcast.3538")
#loc1308 = loc("add.3539")
#loc1309 = loc("convert.3540")
#loc1310 = loc("convert.3541")
#loc1311 = loc("logistic.3542")
#loc1312 = loc("multiply.3543")
#loc1313 = loc("convert.3544")
#loc1314 = loc("convolution.3545")
#loc1315 = loc("reshape.78")
#loc1316 = loc("reshape.80")
#loc1317 = loc("transpose.3547")
#loc1318 = loc("add.3548")
#loc1319 = loc("add.3551")
#loc1320 = loc("divide.3553")
#loc1321 = loc("convert.3554")
#loc1322 = loc("reshape.3555")
#loc1323 = loc("reduce.3601")
#loc1324 = loc("multiply.3610")
#loc1325 = loc("broadcast.3620")
#loc1326 = loc("subtract.3621")
#loc1327 = loc("multiply.3577")
#loc1328 = loc("reduce.3584")
#loc1329 = loc("multiply.3593")
#loc1330 = loc("reshape.3594")
#loc1331 = loc("add.3614")
#loc1332 = loc("rsqrt.3615")
#loc1333 = loc("reshape.3622")
#loc1334 = loc("broadcast.3623")
#loc1335 = loc("multiply.3624")
#loc1336 = loc("reshape.3625")
#loc1337 = loc("reshape.66")
#loc1338 = loc("reshape.71")
#loc1339 = loc("convert.72")
#loc1340 = loc("reshape.3626")
#loc1341 = loc("broadcast.3627")
#loc1342 = loc("multiply.3628")
#loc1343 = loc("reshape.59")
#loc1344 = loc("reshape.64")
#loc1345 = loc("convert.3629")
#loc1346 = loc("reshape.3632")
#loc1347 = loc("broadcast.3633")
#loc1348 = loc("add.3634")
#loc1349 = loc("convert.3635")
#loc1350 = loc("convert.3636")
#loc1351 = loc("logistic.3637")
#loc1352 = loc("multiply.3638")
#loc1353 = loc("convert.3639")
#loc1354 = loc("convolution.3640")
#loc1355 = loc("reshape.52")
#loc1356 = loc("reshape.54")
#loc1357 = loc("transpose.3642")
#loc1358 = loc("add.3643")
#loc1359 = loc("convert.3644")
#loc1360 = loc("reshape.3645")
#loc1361 = loc("reduce.3691")
#loc1362 = loc("multiply.3700")
#loc1363 = loc("broadcast.3710")
#loc1364 = loc("subtract.3711")
#loc1365 = loc("multiply.3667")
#loc1366 = loc("reduce.3674")
#loc1367 = loc("multiply.3683")
#loc1368 = loc("reshape.3684")
#loc1369 = loc("add.3704")
#loc1370 = loc("rsqrt.3705")
#loc1371 = loc("reshape.3712")
#loc1372 = loc("broadcast.3713")
#loc1373 = loc("multiply.3714")
#loc1374 = loc("reshape.3715")
#loc1375 = loc("reshape.42")
#loc1376 = loc("reshape.47")
#loc1377 = loc("convert.48")
#loc1378 = loc("reshape.3716")
#loc1379 = loc("broadcast.3717")
#loc1380 = loc("multiply.3718")
#loc1381 = loc("reshape.35")
#loc1382 = loc("reshape.40")
#loc1383 = loc("convert.3719")
#loc1384 = loc("reshape.3722")
#loc1385 = loc("broadcast.3723")
#loc1386 = loc("add.3724")
#loc1387 = loc("convert.3725")
#loc1388 = loc("convert.3726")
#loc1389 = loc("logistic.3727")
#loc1390 = loc("multiply.3728")
#loc1391 = loc("convert.3729")
#loc1392 = loc("convolution.3730")
#loc1393 = loc("reshape.28")
#loc1394 = loc("reshape.30")
#loc1395 = loc("transpose.3732")
#loc1396 = loc("add.3733")
#loc1397 = loc("add.3736")
#loc1398 = loc("divide.3738")
#loc1399 = loc("convert.3739")
#loc1400 = loc("reshape.3740")
#loc1401 = loc("reduce.3786")
#loc1402 = loc("multiply.3795")
#loc1403 = loc("broadcast.3805")
#loc1404 = loc("subtract.3806")
#loc1405 = loc("multiply.3762")
#loc1406 = loc("reduce.3769")
#loc1407 = loc("multiply.3778")
#loc1408 = loc("reshape.3779")
#loc1409 = loc("add.3799")
#loc1410 = loc("rsqrt.3800")
#loc1411 = loc("reshape.3807")
#loc1412 = loc("broadcast.3808")
#loc1413 = loc("multiply.3809")
#loc1414 = loc("reshape.3810")
#loc1415 = loc("reshape.16")
#loc1416 = loc("reshape.21")
#loc1417 = loc("convert.22")
#loc1418 = loc("reshape.3811")
#loc1419 = loc("broadcast.3812")
#loc1420 = loc("multiply.3813")
#loc1421 = loc("reshape.9")
#loc1422 = loc("reshape.14")
#loc1423 = loc("convert.3814")
#loc1424 = loc("reshape.3817")
#loc1425 = loc("broadcast.3818")
#loc1426 = loc("add.3819")
#loc1427 = loc("convert.3820")
#loc1428 = loc("convert.3821")
#loc1429 = loc("logistic.3822")
#loc1430 = loc("multiply.3823")
#loc1431 = loc("convert.3824")
#loc1432 = loc("convolution.3825")
#loc1433 = loc("reshape.2")
#loc1434 = loc("reshape.4")
#loc1435 = loc("transpose.3827")
#loc1436 = loc("add.3828")
#loc1437 = loc("convolution.843_weight"(#loc140))
#loc1438 = loc("convolution.933_weight"(#loc178))
#loc1439 = loc("convolution.1023_weight"(#loc216))
#loc1440 = loc("convolution.1370_weight"(#loc357))
#loc1441 = loc("convolution.1460_weight"(#loc395))
#loc1442 = loc("convolution.1555_weight"(#loc435))
#loc1443 = loc("convolution.1645_weight"(#loc473))
#loc1444 = loc("convolution.1740_weight"(#loc513))
#loc1445 = loc("convolution.1830_weight"(#loc551))
#loc1446 = loc("convolution.1925_weight"(#loc591))
#loc1447 = loc("convolution.2015_weight"(#loc629))
#loc1448 = loc("convolution.2030_weight"(#loc648))
#loc1449 = loc("convolution.2120_weight"(#loc686))
#loc1450 = loc("convolution.2210_weight"(#loc724))
#loc1451 = loc("convolution.2305_weight"(#loc764))
#loc1452 = loc("convolution.2395_weight"(#loc802))
#loc1453 = loc("convolution.2490_weight"(#loc842))
#loc1454 = loc("convolution.2580_weight"(#loc880))
#loc1455 = loc("convolution.2595_weight"(#loc899))
#loc1456 = loc("convolution.2785_weight"(#loc904))
#loc1457 = loc("convolution.2685_weight"(#loc942))
#loc1458 = loc("convolution.2775_weight"(#loc980))
#loc1459 = loc("convolution.2880_weight"(#loc1020))
#loc1460 = loc("convolution.2970_weight"(#loc1058))
#loc1461 = loc("convolution.3065_weight"(#loc1098))
#loc1462 = loc("convolution.3155_weight"(#loc1136))
#loc1463 = loc("convolution.3170_weight"(#loc1155))
#loc1464 = loc("convolution.3360_weight"(#loc1160))
#loc1465 = loc("convolution.3260_weight"(#loc1198))
#loc1466 = loc("convolution.3350_weight"(#loc1236))
#loc1467 = loc("convolution.3455_weight"(#loc1276))
#loc1468 = loc("convolution.3545_weight"(#loc1314))
#loc1469 = loc("convolution.3640_weight"(#loc1354))
#loc1470 = loc("convolution.3730_weight"(#loc1392))
#loc1471 = loc("convolution.3825_weight"(#loc1432))
