#dram = #ttnn.buffer_type<dram>
#system_desc = #ttcore.system_desc<[{role = host, target_triple = "x86_64-pc-linux"}], [{arch = <wormhole_b0>, grid = 8x8, coord_translation_offsets = 18x18, l1_size = 1499136, num_dram_channels = 12, dram_channel_size = 1073741824, noc_l1_address_align_bytes = 16, pcie_address_align_bytes = 32, noc_dram_address_align_bytes = 32, l1_unreserved_base = 103712, erisc_l1_unreserved_base = 98304, dram_unreserved_base = 1920032, dram_unreserved_end = 1073136832, supported_data_types = [<f32>, <f16>, <bf16>, <bfp_f8>, <bfp_bf8>, <bfp_f4>, <bfp_bf4>, <bfp_f2>, <bfp_bf2>, <u32>, <u16>, <u8>, <si32>], supported_tile_sizes = [ 4x16,  16x16,  32x16,  4x32,  16x32,  32x32], dst_physical_size_tiles = 16, num_cbs = 64, num_compute_threads = 1, num_datamovement_threads = 2}, {arch = <wormhole_b0>, grid = 8x8, coord_translation_offsets = 18x18, l1_size = 1499136, num_dram_channels = 12, dram_channel_size = 1073741824, noc_l1_address_align_bytes = 16, pcie_address_align_bytes = 32, noc_dram_address_align_bytes = 32, l1_unreserved_base = 103712, erisc_l1_unreserved_base = 98304, dram_unreserved_base = 1920032, dram_unreserved_end = 1073136832, supported_data_types = [<f32>, <f16>, <bf16>, <bfp_f8>, <bfp_bf8>, <bfp_f4>, <bfp_bf4>, <bfp_f2>, <bfp_bf2>, <u32>, <u16>, <u8>, <si32>], supported_tile_sizes = [ 4x16,  16x16,  32x16,  4x32,  16x32,  32x32], dst_physical_size_tiles = 16, num_cbs = 64, num_compute_threads = 1, num_datamovement_threads = 2}, {arch = <wormhole_b0>, grid = 8x8, coord_translation_offsets = 18x18, l1_size = 1499136, num_dram_channels = 12, dram_channel_size = 1073741824, noc_l1_address_align_bytes = 16, pcie_address_align_bytes = 32, noc_dram_address_align_bytes = 32, l1_unreserved_base = 103712, erisc_l1_unreserved_base = 98304, dram_unreserved_base = 1920032, dram_unreserved_end = 1073136832, supported_data_types = [<f32>, <f16>, <bf16>, <bfp_f8>, <bfp_bf8>, <bfp_f4>, <bfp_bf4>, <bfp_f2>, <bfp_bf2>, <u32>, <u16>, <u8>, <si32>], supported_tile_sizes = [ 4x16,  16x16,  32x16,  4x32,  16x32,  32x32], dst_physical_size_tiles = 16, num_cbs = 64, num_compute_threads = 1, num_datamovement_threads = 2}, {arch = <wormhole_b0>, grid = 8x8, coord_translation_offsets = 18x18, l1_size = 1499136, num_dram_channels = 12, dram_channel_size = 1073741824, noc_l1_address_align_bytes = 16, pcie_address_align_bytes = 32, noc_dram_address_align_bytes = 32, l1_unreserved_base = 103712, erisc_l1_unreserved_base = 98304, dram_unreserved_base = 1920032, dram_unreserved_end = 1073136832, supported_data_types = [<f32>, <f16>, <bf16>, <bfp_f8>, <bfp_bf8>, <bfp_f4>, <bfp_bf4>, <bfp_f2>, <bfp_bf2>, <u32>, <u16>, <u8>, <si32>], supported_tile_sizes = [ 4x16,  16x16,  32x16,  4x32,  16x32,  32x32], dst_physical_size_tiles = 16, num_cbs = 64, num_compute_threads = 1, num_datamovement_threads = 2}, {arch = <wormhole_b0>, grid = 8x8, coord_translation_offsets = 18x18, l1_size = 1499136, num_dram_channels = 12, dram_channel_size = 1073741824, noc_l1_address_align_bytes = 16, pcie_address_align_bytes = 32, noc_dram_address_align_bytes = 32, l1_unreserved_base = 103712, erisc_l1_unreserved_base = 98304, dram_unreserved_base = 1920032, dram_unreserved_end = 1073154112, supported_data_types = [<f32>, <f16>, <bf16>, <bfp_f8>, <bfp_bf8>, <bfp_f4>, <bfp_bf4>, <bfp_f2>, <bfp_bf2>, <u32>, <u16>, <u8>, <si32>], supported_tile_sizes = [ 4x16,  16x16,  32x16,  4x32,  16x32,  32x32], dst_physical_size_tiles = 16, num_cbs = 64, num_compute_threads = 1, num_datamovement_threads = 2}, {arch = <wormhole_b0>, grid = 8x8, coord_translation_offsets = 18x18, l1_size = 1499136, num_dram_channels = 12, dram_channel_size = 1073741824, noc_l1_address_align_bytes = 16, pcie_address_align_bytes = 32, noc_dram_address_align_bytes = 32, l1_unreserved_base = 103712, erisc_l1_unreserved_base = 98304, dram_unreserved_base = 1920032, dram_unreserved_end = 1073154112, supported_data_types = [<f32>, <f16>, <bf16>, <bfp_f8>, <bfp_bf8>, <bfp_f4>, <bfp_bf4>, <bfp_f2>, <bfp_bf2>, <u32>, <u16>, <u8>, <si32>], supported_tile_sizes = [ 4x16,  16x16,  32x16,  4x32,  16x32,  32x32], dst_physical_size_tiles = 16, num_cbs = 64, num_compute_threads = 1, num_datamovement_threads = 2}, {arch = <wormhole_b0>, grid = 8x8, coord_translation_offsets = 18x18, l1_size = 1499136, num_dram_channels = 12, dram_channel_size = 1073741824, noc_l1_address_align_bytes = 16, pcie_address_align_bytes = 32, noc_dram_address_align_bytes = 32, l1_unreserved_base = 103712, erisc_l1_unreserved_base = 98304, dram_unreserved_base = 1920032, dram_unreserved_end = 1073154112, supported_data_types = [<f32>, <f16>, <bf16>, <bfp_f8>, <bfp_bf8>, <bfp_f4>, <bfp_bf4>, <bfp_f2>, <bfp_bf2>, <u32>, <u16>, <u8>, <si32>], supported_tile_sizes = [ 4x16,  16x16,  32x16,  4x32,  16x32,  32x32], dst_physical_size_tiles = 16, num_cbs = 64, num_compute_threads = 1, num_datamovement_threads = 2}, {arch = <wormhole_b0>, grid = 8x8, coord_translation_offsets = 18x18, l1_size = 1499136, num_dram_channels = 12, dram_channel_size = 1073741824, noc_l1_address_align_bytes = 16, pcie_address_align_bytes = 32, noc_dram_address_align_bytes = 32, l1_unreserved_base = 103712, erisc_l1_unreserved_base = 98304, dram_unreserved_base = 1920032, dram_unreserved_end = 1073154112, supported_data_types = [<f32>, <f16>, <bf16>, <bfp_f8>, <bfp_bf8>, <bfp_f4>, <bfp_bf4>, <bfp_f2>, <bfp_bf2>, <u32>, <u16>, <u8>, <si32>], supported_tile_sizes = [ 4x16,  16x16,  32x16,  4x32,  16x32,  32x32], dst_physical_size_tiles = 16, num_cbs = 64, num_compute_threads = 1, num_datamovement_threads = 2}], [0, 1, 2, 3, 4, 5, 6, 7], [1 : i32, 1 : i32, 1 : i32, 1 : i32, 0 : i32, 0 : i32, 0 : i32, 0 : i32], [ 0x0x0x0], [<[0, 6, 0], [3, 6, 0]>, <[0, 7, 0], [3, 7, 0]>, <[0, 9, 0], [4, 1, 0]>, <[0, 14, 0], [1, 14, 0]>, <[0, 15, 0], [1, 15, 0]>, <[1, 0, 0], [2, 0, 0]>, <[1, 1, 0], [2, 1, 0]>, <[1, 9, 0], [5, 1, 0]>, <[2, 9, 0], [7, 1, 0]>, <[2, 14, 0], [3, 14, 0]>, <[2, 15, 0], [3, 15, 0]>, <[3, 9, 0], [6, 1, 0]>, <[4, 6, 0], [5, 6, 0]>, <[6, 6, 0], [7, 6, 0]>]>
#system_memory = #ttnn.buffer_type<system_memory>
#ttnn_layout = #ttnn.ttnn_layout<(d0, d1, d2) -> (d0 * 64 + d1, d2), <1x1>, memref<2x1x!ttcore.tile<32x32, bf16>, #dram>, <interleaved>>
#ttnn_layout1 = #ttnn.ttnn_layout<(d0) -> (0, d0), <1x1>, memref<1x2x!ttcore.tile<32x32, bf16>, #dram>, <interleaved>>
#ttnn_layout2 = #ttnn.ttnn_layout<(d0, d1) -> (d0, d1), <1x1>, memref<576x2048xbf16, #system_memory>>
#ttnn_layout3 = #ttnn.ttnn_layout<(d0, d1) -> (d0, d1), <1x1>, memref<128x2048xbf16, #system_memory>>
#ttnn_layout4 = #ttnn.ttnn_layout<(d0, d1) -> (d0, d1), <1x1>, memref<64x2048xbf16, #system_memory>>
#ttnn_layout5 = #ttnn.ttnn_layout<(d0, d1) -> (d0, d1), <1x1>, memref<3072x2048xbf16, #system_memory>>
#ttnn_layout6 = #ttnn.ttnn_layout<(d0, d1) -> (d0, d1), <1x1>, memref<32x119x!ttcore.tile<32x32, bf16>, #dram>, <interleaved>>
#ttnn_layout7 = #ttnn.ttnn_layout<(d0, d1) -> (d0, d1), <1x1>, memref<3072x2048xbf16, #dram>, <interleaved>>
#ttnn_layout8 = #ttnn.ttnn_layout<(d0, d1) -> (d0, d1), <1x1>, memref<96x64x!ttcore.tile<32x32, bf16>, #dram>, <interleaved>>
#ttnn_layout9 = #ttnn.ttnn_layout<(d0, d1) -> (d0, d1), <1x1>, memref<64x2048xbf16, #dram>, <interleaved>>
#ttnn_layout10 = #ttnn.ttnn_layout<(d0, d1) -> (d0, d1), <1x1>, memref<2x64x!ttcore.tile<32x32, bf16>, #dram>, <interleaved>>
#ttnn_layout11 = #ttnn.ttnn_layout<(d0, d1) -> (d0, d1), <1x1>, memref<128x2048xbf16, #dram>, <interleaved>>
#ttnn_layout12 = #ttnn.ttnn_layout<(d0, d1) -> (d0, d1), <1x1>, memref<4x64x!ttcore.tile<32x32, bf16>, #dram>, <interleaved>>
#ttnn_layout13 = #ttnn.ttnn_layout<(d0, d1) -> (d0, d1), <1x1>, memref<576x2048xbf16, #dram>, <interleaved>>
#ttnn_layout14 = #ttnn.ttnn_layout<(d0, d1) -> (d0, d1), <1x1>, memref<18x64x!ttcore.tile<32x32, bf16>, #dram>, <interleaved>>
#ttnn_layout15 = #ttnn.ttnn_layout<(d0, d1) -> (d0, d1), <1x1>, memref<18x32x!ttcore.tile<32x32, bf16>, #dram>, <interleaved>>
#ttnn_layout16 = #ttnn.ttnn_layout<(d0, d1) -> (d0, d1), <1x1>, memref<4x32x!ttcore.tile<32x32, bf16>, #dram>, <interleaved>>
#ttnn_layout17 = #ttnn.ttnn_layout<(d0, d1) -> (d0, d1), <1x1>, memref<1x32x!ttcore.tile<32x32, bf16>, #dram>, <interleaved>>
#ttnn_layout18 = #ttnn.ttnn_layout<(d0, d1) -> (d0, d1), <1x1>, memref<96x32x!ttcore.tile<32x32, bf16>, #dram>, <interleaved>>
#ttnn_layout19 = #ttnn.ttnn_layout<(d0, d1) -> (d0, d1), <1x1>, memref<32x18x!ttcore.tile<32x32, bf16>, #dram>, <interleaved>>
#ttnn_layout20 = #ttnn.ttnn_layout<(d0, d1) -> (d0, d1), <1x1>, memref<32x1x!ttcore.tile<32x32, bf16>, #dram>, <interleaved>>
#ttnn_layout21 = #ttnn.ttnn_layout<(d0, d1) -> (d0, d1), <1x1>, memref<32x96x!ttcore.tile<32x32, bf16>, #dram>, <interleaved>>
#ttnn_layout22 = #ttnn.ttnn_layout<(d0, d1) -> (d0, d1), <1x1>, memref<32x4x!ttcore.tile<32x32, bf16>, #dram>, <interleaved>>
#ttnn_layout23 = #ttnn.ttnn_layout<(d0, d1) -> (d0, d1), <1x1>, memref<2048x2048xbf16, #system_memory>>
#ttnn_layout24 = #ttnn.ttnn_layout<(d0, d1) -> (d0, d1), <1x1>, memref<32x16x!ttcore.tile<32x32, bf16>, #dram>, <interleaved>>
#ttnn_layout25 = #ttnn.ttnn_layout<(d0, d1) -> (d0, d1), <1x1>, memref<2048x2048xbf16, #dram>, <interleaved>>
#ttnn_layout26 = #ttnn.ttnn_layout<(d0, d1) -> (d0, d1), <1x1>, memref<64x64x!ttcore.tile<32x32, bf16>, #dram>, <interleaved>>
#ttnn_layout27 = #ttnn.ttnn_layout<(d0) -> (0, d0), <1x1>, memref<1x3072xbf16, #system_memory>>
#ttnn_layout28 = #ttnn.ttnn_layout<(d0, d1) -> (d0, d1), <1x1>, memref<1x96x!ttcore.tile<32x32, f32>, #dram>, <interleaved>>
#ttnn_layout29 = #ttnn.ttnn_layout<(d0) -> (0, d0), <1x1>, memref<1x3072xbf16, #dram>, <interleaved>>
#ttnn_layout30 = #ttnn.ttnn_layout<(d0) -> (0, d0), <1x1>, memref<1x96x!ttcore.tile<32x32, bf16>, #dram>, <interleaved>>
#ttnn_layout31 = #ttnn.ttnn_layout<(d0, d1) -> (d0, d1), <1x1>, memref<1x96x!ttcore.tile<32x32, bf16>, #dram>, <interleaved>>
#ttnn_layout32 = #ttnn.ttnn_layout<(d0, d1, d2) -> (d0 * 32 + d1, d2), <1x1>, memref<1x1x!ttcore.tile<32x32, bf16>, #dram>, <interleaved>>
#ttnn_layout33 = #ttnn.ttnn_layout<() -> (0, 0), <1x1>, memref<1x1x!ttcore.tile<32x32, bf16>, #dram>, <interleaved>>
#ttnn_layout34 = #ttnn.ttnn_layout<(d0, d1) -> (d0, d1), <1x1>, memref<3072x3072xbf16, #system_memory>>
#ttnn_layout35 = #ttnn.ttnn_layout<(d0, d1) -> (d0, d1), <1x1>, memref<24x96x!ttcore.tile<32x32, bf16>, #dram>, <interleaved>>
#ttnn_layout36 = #ttnn.ttnn_layout<(d0, d1) -> (d0, d1), <1x1>, memref<3072x3072xbf16, #dram>, <interleaved>>
#ttnn_layout37 = #ttnn.ttnn_layout<(d0, d1) -> (d0, d1), <1x1>, memref<96x96x!ttcore.tile<32x32, bf16>, #dram>, <interleaved>>
#ttnn_layout38 = #ttnn.ttnn_layout<(d0, d1) -> (d0, d1), <1x1>, memref<4096x512xbf16, #system_memory>>
#ttnn_layout39 = #ttnn.ttnn_layout<(d0, d1, d2) -> (d0 * 128 + d1, d2), <1x1>, memref<16x16x!ttcore.tile<32x32, bf16>, #dram>, <interleaved>>
#ttnn_layout40 = #ttnn.ttnn_layout<(d0, d1) -> (d0, d1), <1x1>, memref<4096x512xbf16, #dram>, <interleaved>>
#ttnn_layout41 = #ttnn.ttnn_layout<(d0, d1) -> (d0, d1), <1x1>, memref<128x16x!ttcore.tile<32x32, bf16>, #dram>, <interleaved>>
#ttnn_layout42 = #ttnn.ttnn_layout<(d0, d1, d2) -> (d0 * 256 + d1, d2), <1x1>, memref<32x16x!ttcore.tile<32x32, bf16>, #dram>, <interleaved>>
#ttnn_layout43 = #ttnn.ttnn_layout<(d0, d1, d2) -> (d0 * 32 + d1, d2), <1x1>, memref<2x1x!ttcore.tile<32x32, f32>, #dram>, <interleaved>>
#ttnn_layout44 = #ttnn.ttnn_layout<(d0, d1, d2) -> (d0 * 32 + d1, d2), <1x1>, memref<1x1x!ttcore.tile<32x32, f32>, #dram>, <interleaved>>
#ttnn_layout45 = #ttnn.ttnn_layout<(d0, d1) -> (d0, d1), <1x1>, memref<1x1x!ttcore.tile<32x32, f32>, #dram>, <interleaved>>
#ttnn_layout46 = #ttnn.ttnn_layout<(d0, d1) -> (d0, d1), <1x1>, memref<64x1xui32, #dram>, <interleaved>>
#ttnn_layout47 = #ttnn.ttnn_layout<() -> (0, 0), <1x1>, memref<1x1x!ttcore.tile<32x32, si32>, #dram>, <interleaved>>
#ttnn_layout48 = #ttnn.ttnn_layout<(d0) -> (0, d0), <1x1>, memref<1x2x!ttcore.tile<32x32, f32>, #dram>, <interleaved>>
#ttnn_layout49 = #ttnn.ttnn_layout<(d0) -> (0, d0), <1x1>, memref<1x1x!ttcore.tile<32x32, si32>, #dram>, <interleaved>>
#ttnn_layout50 = #ttnn.ttnn_layout<(d0) -> (0, d0), <1x1>, memref<1x2x!ttcore.tile<32x32, si32>, #dram>, <interleaved>>
#ttnn_layout51 = #ttnn.ttnn_layout<(d0, d1) -> (d0, d1), <1x1>, memref<2x1x!ttcore.tile<32x32, si32>, #dram>, <interleaved>>
#ttnn_layout52 = #ttnn.ttnn_layout<(d0, d1) -> (d0, d1), <1x1>, memref<2x1x!ttcore.tile<32x32, u32>, #dram>, <interleaved>>
#ttnn_layout53 = #ttnn.ttnn_layout<(d0, d1, d2, d3) -> (d0 * 16896 + d1 * 512 + d2, d3), <1x1>, memref<1056x1x!ttcore.tile<32x32, u32>, #dram>, <interleaved>>
#ttnn_layout54 = #ttnn.ttnn_layout<(d0) -> (0, d0), <1x1>, memref<1x16x!ttcore.tile<32x32, u32>, #dram>, <interleaved>>
#ttnn_layout55 = #ttnn.ttnn_layout<(d0, d1, d2, d3) -> (d0 * 512 + d1 * 512 + d2, d3), <1x1>, memref<16x1x!ttcore.tile<32x32, u32>, #dram>, <interleaved>>
#ttnn_layout56 = #ttnn.ttnn_layout<(d0, d1, d2, d3) -> (d0 * 2112 + d1 * 64 + d2, d3), <1x1>, memref<132x1x!ttcore.tile<32x32, u32>, #dram>, <interleaved>>
#ttnn_layout57 = #ttnn.ttnn_layout<(d0) -> (0, d0), <1x1>, memref<1x1x!ttcore.tile<32x32, u32>, #dram>, <interleaved>>
#ttnn_layout58 = #ttnn.ttnn_layout<(d0, d1, d2, d3) -> (d0 * 32 + d1 * 32 + d2, d3), <1x1>, memref<2x1x!ttcore.tile<32x32, u32>, #dram>, <interleaved>>
#ttnn_layout59 = #ttnn.ttnn_layout<(d0) -> (0, d0), <1x1>, memref<1x2x!ttcore.tile<32x32, u32>, #dram>, <interleaved>>
#ttnn_layout60 = #ttnn.ttnn_layout<(d0, d1, d2, d3) -> (d0 * 64 + d1 * 64 + d2, d3), <1x1>, memref<2x1x!ttcore.tile<32x32, u32>, #dram>, <interleaved>>
#ttnn_layout61 = #ttnn.ttnn_layout<(d0, d1) -> (d0, d1), <1x1>, memref<8192x3072xbf16, #system_memory>>
#ttnn_layout62 = #ttnn.ttnn_layout<(d0, d1) -> (d0, d1), <1x1>, memref<64x96x!ttcore.tile<32x32, bf16>, #dram>, <interleaved>>
#ttnn_layout63 = #ttnn.ttnn_layout<(d0, d1) -> (d0, d1), <1x1>, memref<8192x3072xbf16, #dram>, <interleaved>>
#ttnn_layout64 = #ttnn.ttnn_layout<(d0, d1) -> (d0, d1), <1x1>, memref<256x96x!ttcore.tile<32x32, bf16>, #dram>, <interleaved>>
#ttnn_layout65 = #ttnn.ttnn_layout<(d0) -> (0, d0), <1x1>, memref<1x512xbf16, #system_memory>>
#ttnn_layout66 = #ttnn.ttnn_layout<(d0, d1, d2) -> (d0 * 32 + d1, d2), <1x1>, memref<1x16x!ttcore.tile<32x32, f32>, #dram>, <interleaved>>
#ttnn_layout67 = #ttnn.ttnn_layout<(d0) -> (0, d0), <1x1>, memref<1x512xbf16, #dram>, <interleaved>>
#ttnn_layout68 = #ttnn.ttnn_layout<(d0) -> (0, d0), <1x1>, memref<1x16x!ttcore.tile<32x32, bf16>, #dram>, <interleaved>>
#ttnn_layout69 = #ttnn.ttnn_layout<(d0, d1, d2) -> (d0 * 32 + d1, d2), <1x1>, memref<1x16x!ttcore.tile<32x32, bf16>, #dram>, <interleaved>>
#ttnn_layout70 = #ttnn.ttnn_layout<(d0, d1, d2) -> (d0 * 64 + d1, d2), <1x1>, memref<8x16x!ttcore.tile<32x32, bf16>, #dram>, <interleaved>>
#ttnn_layout71 = #ttnn.ttnn_layout<(d0, d1, d2) -> (d0 * 32 + d1, d2), <1x1>, memref<4x64x!ttcore.tile<32x32, bf16>, #dram>, <interleaved>>
#ttnn_layout72 = #ttnn.ttnn_layout<() -> (0, 0), <1x1>, memref<1x1xbf16, #dram>, <interleaved>>
#ttnn_layout73 = #ttnn.ttnn_layout<(d0, d1, d2) -> (d0 * 64 + d1, d2), <1x1>, memref<8x2x!ttcore.tile<32x32, bf16>, #dram>, <interleaved>>
#ttnn_layout74 = #ttnn.ttnn_layout<(d0, d1, d2) -> (d0 * 32 + d1, d2), <1x1>, memref<32x2xbf16, #dram>, <interleaved>>
#ttnn_layout75 = #ttnn.ttnn_layout<(d0, d1, d2) -> (d0 * 64 + d1, d2), <1x1>, memref<8x4x!ttcore.tile<32x32, bf16>, #dram>, <interleaved>>
#ttnn_layout76 = #ttnn.ttnn_layout<(d0, d1) -> (d0, d1), <1x1>, memref<4x4x!ttcore.tile<32x32, bf16>, #dram>, <interleaved>>
#ttnn_layout77 = #ttnn.ttnn_layout<(d0) -> (0, d0), <1x1>, memref<1x4x!ttcore.tile<32x32, bf16>, #dram>, <interleaved>>
#ttnn_layout78 = #ttnn.ttnn_layout<(d0, d1, d2) -> (d0 * 64 + d1, d2), <1x1>, memref<4x16x!ttcore.tile<32x32, bf16>, #dram>, <interleaved>>
#ttnn_layout79 = #ttnn.ttnn_layout<(d0, d1, d2) -> (d0 * 32 + d1, d2), <1x1>, memref<4x32x!ttcore.tile<32x32, bf16>, #dram>, <interleaved>>
#ttnn_layout80 = #ttnn.ttnn_layout<(d0, d1, d2) -> (d0 * 64 + d1, d2), <1x1>, memref<4x2x!ttcore.tile<32x32, bf16>, #dram>, <interleaved>>
#ttnn_layout81 = #ttnn.ttnn_layout<(d0, d1, d2) -> (d0 * 64 + d1, d2), <1x1>, memref<4x4x!ttcore.tile<32x32, bf16>, #dram>, <interleaved>>
#ttnn_layout82 = #ttnn.ttnn_layout<(d0, d1) -> (d0, d1), <1x1>, memref<1x119x!ttcore.tile<32x32, bf16>, #dram>, <interleaved>>
#ttnn_layout83 = #ttnn.ttnn_layout<(d0, d1) -> (d0, d1), <1x1>, memref<1x4x!ttcore.tile<32x32, bf16>, #dram>, <interleaved>>
#ttnn_layout84 = #ttnn.ttnn_layout<(d0, d1) -> (d0, d1), <1x1>, memref<1x18x!ttcore.tile<32x32, bf16>, #dram>, <interleaved>>
#ttnn_layout85 = #ttnn.ttnn_layout<(d0, d1) -> (d0, d1), <1x1>, memref<1x1x!ttcore.tile<32x32, bf16>, #dram>, <interleaved>>
#ttnn_layout86 = #ttnn.ttnn_layout<(d0, d1, d2, d3) -> (d0 * 32 + d1 * 32 + d2, d3), <1x1>, memref<1x4x!ttcore.tile<32x32, bf16>, #dram>, <interleaved>>
#ttnn_layout87 = #ttnn.ttnn_layout<(d0, d1, d2) -> (d0 * 32 + d1, d2), <1x1>, memref<2x4x!ttcore.tile<32x32, bf16>, #dram>, <interleaved>>
#ttnn_layout88 = #ttnn.ttnn_layout<(d0, d1, d2) -> (d0 * 32 + d1, d2), <1x1>, memref<2x2x!ttcore.tile<32x32, bf16>, #dram>, <interleaved>>
#ttnn_layout89 = #ttnn.ttnn_layout<(d0, d1, d2) -> (d0 * 32 + d1, d2), <1x1>, memref<2x2x!ttcore.tile<32x32, f32>, #dram>, <interleaved>>
#ttnn_layout90 = #ttnn.ttnn_layout<(d0, d1, d2, d3, d4) -> (d0 * 32 + d1 * 32 + d2 * 32 + d3, d4), <1x1>, memref<2x1x!ttcore.tile<32x32, f32>, #dram>, <interleaved>>
#ttnn_layout91 = #ttnn.ttnn_layout<(d0, d1, d2, d3, d4) -> (d0 * 32 + d1 * 32 + d2 * 32 + d3, d4), <1x1>, memref<1x1x!ttcore.tile<32x32, bf16>, #dram>, <interleaved>>
#ttnn_layout92 = #ttnn.ttnn_layout<(d0, d1, d2, d3, d4) -> (d0 * 32 + d1 * 32 + d2 * 32 + d3, d4), <1x1>, memref<1x1x!ttcore.tile<32x32, f32>, #dram>, <interleaved>>
#ttnn_layout93 = #ttnn.ttnn_layout<(d0, d1) -> (d0, d1), <1x1>, memref<1x2x!ttcore.tile<32x32, f32>, #dram>, <interleaved>>
#ttnn_layout94 = #ttnn.ttnn_layout<(d0, d1) -> (d0, d1), <1x1>, memref<1x2x!ttcore.tile<32x32, bf16>, #dram>, <interleaved>>
#ttnn_layout95 = #ttnn.ttnn_layout<(d0, d1, d2) -> (d0 * 32 + d1, d2), <1x1>, memref<1x4x!ttcore.tile<32x32, bf16>, #dram>, <interleaved>>
#ttnn_layout96 = #ttnn.ttnn_layout<(d0, d1) -> (d0, d1), <1x1>, memref<1x8x!ttcore.tile<32x32, bf16>, #dram>, <interleaved>>
#ttnn_layout97 = #ttnn.ttnn_layout<(d0, d1) -> (d0, d1), <1x1>, memref<1x256xbf16, #dram>, <interleaved>>
#ttnn_layout98 = #ttnn.ttnn_layout<(d0, d1, d2) -> (d0 * 32 + d1, d2), <1x1>, memref<64x8x!ttcore.tile<32x32, bf16>, #dram>, <interleaved>>
#ttnn_layout99 = #ttnn.ttnn_layout<(d0, d1, d2) -> (d0 * 32 + d1, d2), <1x1>, memref<64x4x!ttcore.tile<32x32, bf16>, #dram>, <interleaved>>
#ttnn_layout100 = #ttnn.ttnn_layout<(d0, d1, d2, d3) -> (d0 * 32 + d1 * 32 + d2, d3), <1x1>, memref<1x96x!ttcore.tile<32x32, bf16>, #dram>, <interleaved>>
#ttnn_layout101 = #ttnn.ttnn_layout<(d0, d1, d2) -> (d0 * 32 + d1, d2), <1x1>, memref<2x96x!ttcore.tile<32x32, f32>, #dram>, <interleaved>>
#ttnn_layout102 = #ttnn.ttnn_layout<(d0, d1) -> (d0, d1), <1x1>, memref<1x64x!ttcore.tile<32x32, bf16>, #dram>, <interleaved>>
#ttnn_layout103 = #ttnn.ttnn_layout<(d0, d1, d2, d3) -> (d0 * 32 + d1 * 32 + d2, d3), <1x1>, memref<2x4x!ttcore.tile<32x32, bf16>, #dram>, <interleaved>>
#ttnn_layout104 = #ttnn.ttnn_layout<(d0, d1, d2, d3) -> (d0 * 32 + d1 * 32 + d2, d3), <1x1>, memref<2x2x!ttcore.tile<32x32, bf16>, #dram>, <interleaved>>
#ttnn_layout105 = #ttnn.ttnn_layout<(d0, d1, d2, d3) -> (d0 * 32 + d1 * 32 + d2, d3), <1x1>, memref<2x2x!ttcore.tile<32x32, f32>, #dram>, <interleaved>>
#ttnn_layout106 = #ttnn.ttnn_layout<(d0, d1, d2, d3, d4) -> (d0 * 512 + d1 * 512 + d2 * 32 + d3, d4), <1x1>, memref<32x1x!ttcore.tile<32x32, f32>, #dram>, <interleaved>>
#ttnn_layout107 = #ttnn.ttnn_layout<(d0, d1, d2) -> (d0 * 64 + d1, d2), <1x1>, memref<4x1x!ttcore.tile<32x32, bf16>, #dram>, <interleaved>>
#ttnn_layout108 = #ttnn.ttnn_layout<(d0, d1, d2, d3) -> (d0 * 32 + d1 * 32 + d2, d3), <1x1>, memref<1x1x!ttcore.tile<32x32, bf16>, #dram>, <interleaved>>
#ttnn_layout109 = #ttnn.ttnn_layout<(d0, d1, d2) -> (d0 * 32 + d1, d2), <1x1>, memref<2x1x!ttcore.tile<32x32, bf16>, #dram>, <interleaved>>
#ttnn_layout110 = #ttnn.ttnn_layout<(d0, d1, d2) -> (d0 * 32 + d1, d2), <1x1>, memref<1x2x!ttcore.tile<32x32, bf16>, #dram>, <interleaved>>
#ttnn_layout111 = #ttnn.ttnn_layout<(d0, d1, d2) -> (d0 * 32 + d1, d2), <1x1>, memref<4x2x!ttcore.tile<32x32, bf16>, #dram>, <interleaved>>
#ttnn_layout112 = #ttnn.ttnn_layout<(d0, d1, d2) -> (d0 * 32 + d1, d2), <1x1>, memref<2x2x!ttcore.tile<32x32, u16>, #dram>, <interleaved>>
#ttnn_layout113 = #ttnn.ttnn_layout<(d0, d1, d2) -> (d0 * 32 + d1, d2), <1x1>, memref<2x2x!ttcore.tile<32x32, si32>, #dram>, <interleaved>>
#ttnn_layout114 = #ttnn.ttnn_layout<(d0, d1, d2, d3) -> (d0 * 32 + d1 * 32 + d2, d3), <1x1>, memref<1x18x!ttcore.tile<32x32, bf16>, #dram>, <interleaved>>
#ttnn_layout115 = #ttnn.ttnn_layout<(d0, d1, d2) -> (d0 * 32 + d1, d2), <1x1>, memref<2x18x!ttcore.tile<32x32, bf16>, #dram>, <interleaved>>
#ttnn_layout116 = #ttnn.ttnn_layout<(d0, d1, d2) -> (d0 * 32 + d1, d2), <1x1>, memref<2x16x!ttcore.tile<32x32, bf16>, #dram>, <interleaved>>
#ttnn_layout117 = #ttnn.ttnn_layout<(d0, d1, d2) -> (d0 * 32 + d1, d2), <1x1>, memref<2x16x!ttcore.tile<32x32, f32>, #dram>, <interleaved>>
#ttnn_layout118 = #ttnn.ttnn_layout<(d0, d1) -> (d0, d1), <1x1>, memref<1x1024xbf16, #dram>, <interleaved>>
#ttnn_layout119 = #ttnn.ttnn_layout<(d0, d1, d2) -> (d0 * 32 + d1, d2), <1x1>, memref<64x32x!ttcore.tile<32x32, bf16>, #dram>, <interleaved>>
#ttnn_layout120 = #ttnn.ttnn_layout<(d0, d1, d2) -> (d0 * 32 + d1, d2), <1x1>, memref<64x16x!ttcore.tile<32x32, bf16>, #dram>, <interleaved>>
#ttnn_layout121 = #ttnn.ttnn_layout<(d0, d1, d2, d3, d4) -> (d0 * 32 + d1 * 32 + d2 * 32 + d3, d4), <1x1>, memref<2x1x!ttcore.tile<32x32, bf16>, #dram>, <interleaved>>
#ttnn_layout122 = #ttnn.ttnn_layout<(d0, d1) -> (d0, d1), <1x1>, memref<1x128xbf16, #dram>, <interleaved>>
#ttnn_layout123 = #ttnn.ttnn_layout<(d0, d1, d2) -> (d0 * 32 + d1, d2), <1x1>, memref<64x2x!ttcore.tile<32x32, bf16>, #dram>, <interleaved>>
#ttnn_layout124 = #ttnn.ttnn_layout<(d0, d1) -> (d0, d1), <1x1>, memref<1x24x!ttcore.tile<32x32, bf16>, #dram>, <interleaved>>
#ttnn_layout125 = #ttnn.ttnn_layout<(d0, d1, d2, d3) -> (d0 * 32 + d1 * 32 + d2, d3), <1x1>, memref<2x6x!ttcore.tile<32x32, bf16>, #dram>, <interleaved>>
#ttnn_layout126 = #ttnn.ttnn_layout<(d0, d1, d2, d3) -> (d0 * 64 + d1 * 32 + d2, d3), <1x1>, memref<8x4x!ttcore.tile<32x32, bf16>, #dram>, <interleaved>>
#ttnn_layout127 = #ttnn.ttnn_layout<(d0, d1, d2) -> (d0 * 32 + d1, d2), <1x1>, memref<4x4x!ttcore.tile<32x32, bf16>, #dram>, <interleaved>>
#ttnn_layout128 = #ttnn.ttnn_layout<(d0, d1, d2) -> (d0 * 32 + d1, d2), <1x1>, memref<4x16x!ttcore.tile<32x32, bf16>, #dram>, <interleaved>>
#ttnn_layout129 = #ttnn.ttnn_layout<(d0, d1, d2, d3) -> (d0 * 64 + d1 * 32 + d2, d3), <1x1>, memref<8x16x!ttcore.tile<32x32, bf16>, #dram>, <interleaved>>
#ttnn_layout130 = #ttnn.ttnn_layout<(d0, d1, d2, d3) -> (d0 * 32 + d1 * 32 + d2, d3), <1x1>, memref<2x16x!ttcore.tile<32x32, bf16>, #dram>, <interleaved>>
#ttnn_layout131 = #ttnn.ttnn_layout<(d0, d1, d2) -> (d0 * 32 + d1, d2), <1x1>, memref<2x2x!ttcore.tile<32x32, u32>, #dram>, <interleaved>>
#ttnn_layout132 = #ttnn.ttnn_layout<(d0, d1, d2, d3) -> (d0 * 1056 + d1 * 32 + d2, d3), <1x1>, memref<66x1x!ttcore.tile<32x32, u32>, #dram>, <interleaved>>
#ttnn_layout133 = #ttnn.ttnn_layout<(d0, d1) -> (d0, d1), <1x1>, memref<2112x1x!ttcore.tile<32x32, bf16>, #dram>, <interleaved>>
#ttnn_layout134 = #ttnn.ttnn_layout<(d0, d1, d2, d3) -> (d0 * 16896 + d1 * 512 + d2, d3), <1x1>, memref<1056x1x!ttcore.tile<32x32, f32>, #dram>, <interleaved>>
#ttnn_layout135 = #ttnn.ttnn_layout<(d0, d1) -> (d0, d1), <1x1>, memref<1x1056x!ttcore.tile<32x32, f32>, #dram>, <interleaved>>
#ttnn_layout136 = #ttnn.ttnn_layout<(d0, d1) -> (d0, d1), <1x1>, memref<1x1056x!ttcore.tile<32x32, u32>, #dram>, <interleaved>>
#ttnn_layout137 = #ttnn.ttnn_layout<(d0, d1) -> (d0, d1), <1x1>, memref<1x33792xui32, #dram>, <interleaved>>
#ttnn_layout138 = #ttnn.ttnn_layout<(d0, d1) -> (d0, d1), <1x1>, memref<67584x1xbf16, #dram>, <interleaved>>
#ttnn_layout139 = #ttnn.ttnn_layout<(d0, d1, d2) -> (d0 * 33792 + d1, d2), <1x1>, memref<1056x1x!ttcore.tile<32x32, bf16>, #dram>, <interleaved>>
#ttnn_layout140 = #ttnn.ttnn_layout<(d0, d1, d2, d3, d4) -> (d0 * 128 + d1 * 128 + d2 * 32 + d3, d4), <1x1>, memref<8x1x!ttcore.tile<32x32, f32>, #dram>, <interleaved>>
#ttnn_layout141 = #ttnn.ttnn_layout<(d0, d1, d2, d3, d4) -> (d0 * 128 + d1 * 128 + d2 * 32 + d3, d4), <1x1>, memref<8x1x!ttcore.tile<32x32, bf16>, #dram>, <interleaved>>
#ttnn_layout142 = #ttnn.ttnn_layout<(d0, d1) -> (d0, d1), <1x1>, memref<264x1x!ttcore.tile<32x32, bf16>, #dram>, <interleaved>>
#ttnn_layout143 = #ttnn.ttnn_layout<(d0, d1, d2, d3) -> (d0 * 2112 + d1 * 64 + d2, d3), <1x1>, memref<132x1x!ttcore.tile<32x32, f32>, #dram>, <interleaved>>
#ttnn_layout144 = #ttnn.ttnn_layout<(d0, d1) -> (d0, d1), <1x1>, memref<1x132x!ttcore.tile<32x32, f32>, #dram>, <interleaved>>
#ttnn_layout145 = #ttnn.ttnn_layout<(d0, d1) -> (d0, d1), <1x1>, memref<1x132x!ttcore.tile<32x32, u32>, #dram>, <interleaved>>
#ttnn_layout146 = #ttnn.ttnn_layout<(d0, d1) -> (d0, d1), <1x1>, memref<1x4224xui32, #dram>, <interleaved>>
#ttnn_layout147 = #ttnn.ttnn_layout<(d0, d1) -> (d0, d1), <1x1>, memref<8448x1xbf16, #dram>, <interleaved>>
#ttnn_layout148 = #ttnn.ttnn_layout<(d0, d1, d2) -> (d0 * 4224 + d1, d2), <1x1>, memref<132x1x!ttcore.tile<32x32, bf16>, #dram>, <interleaved>>
#ttnn_layout149 = #ttnn.ttnn_layout<(d0, d1) -> (d0, d1), <1x1>, memref<1x16x!ttcore.tile<32x32, bf16>, #dram>, <interleaved>>
#ttnn_layout150 = #ttnn.ttnn_layout<(d0, d1, d2, d3) -> (d0 * 32 + d1 * 32 + d2, d3), <1x1>, memref<1x32x!ttcore.tile<32x32, bf16>, #dram>, <interleaved>>
#ttnn_layout151 = #ttnn.ttnn_layout<(d0, d1, d2, d3) -> (d0 * 32 + d1 * 32 + d2, d3), <1x1>, memref<1x8x!ttcore.tile<32x32, bf16>, #dram>, <interleaved>>
module @SyncTensorsGraph.761 attributes {mhlo.cross_program_prefetches = [], mhlo.input_output_alias = [], mhlo.is_dynamic = false, mhlo.use_auto_spmd_partitioning = false, ttcore.meshes = #ttcore.meshes<[<"mesh" = 2x4>]>} {
  ttcore.device_module {
    builtin.module @SyncTensorsGraph.761 attributes {mhlo.cross_program_prefetches = [], mhlo.input_output_alias = [], mhlo.is_dynamic = false, mhlo.use_auto_spmd_partitioning = false, ttcore.meshes = #ttcore.meshes<[<"mesh" = 2x4>]>, ttcore.system_desc = #system_desc} {
      ttcore.device @default_device = <workerGrid = #ttcore.grid<8x8, virt_to_physical_map = (d0, d1) -> (0, d0, d1), physical_to_virt_map = (d0, d1, d2) -> (d1, d2)>, l1Map = (d0, d1, d2)[s0] -> (0, d0, d1, d2 + s0), dramMap = (d0, d1, d2)[s0, s1, s2, s3, s4, s5, s6] -> (0, 0, (((d0 * s1) * (s2 * (s3 * s6)) + d1 * (s2 * (s3 * s6)) + d2) floordiv s4) mod 12, ((((d0 * s1) * (s2 * (s3 * s6)) + d1 * (s2 * (s3 * s6)) + d2) floordiv s4) floordiv 12) * s4 + ((d0 * s1) * (s2 * (s3 * s6)) + d1 * (s2 * (s3 * s6)) + d2) mod s4 + s5), meshShape = 2x4, chipIds = [0, 1, 2, 3, 4, 5, 6, 7], meshTopology = [linear, ring]>
      func.func private @main_const_eval_0() -> tensor<1x64x1xbf16, #ttnn_layout> attributes {tt.function_type = "const_eval"} {
        %0 = "ttnn.get_device"() <{mesh_offset = #ttnn<mesh_offset 0x0>, mesh_shape = #ttnn<mesh_shape 2x4>}> : () -> !ttnn.device
        %1 = "ttnn.constant"(%0) <{dtype = #ttcore.supportedDataTypes<bf16>, layout = #ttnn.layout<tile>, memory_config = #ttnn.memory_config<#dram, <interleaved>>, value = dense<[… > : tensor<64xbf16>}> : (!ttnn.device) -> tensor<64xbf16, #ttnn_layout1>
        %2 = "ttnn.reshape"(%1) <{shape = [1 : i32, 64 : i32, 1 : i32]}> : (tensor<64xbf16, #ttnn_layout1>) -> tensor<1x64x1xbf16, #ttnn_layout>
        "ttnn.deallocate"(%1) <{force = false}> : (tensor<64xbf16, #ttnn_layout1>) -> ()
        return %2 : tensor<1x64x1xbf16, #ttnn_layout>
      }
      func.func private @main_const_eval_1(%arg0: tensor<576x2048xbf16, #ttnn_layout2>, %arg1: tensor<128x2048xbf16, #ttnn_layout3>, %arg2: tensor<64x2048xbf16, #ttnn_layout4>, %arg3: tensor<3072x2048xbf16, #ttnn_layout5>) -> tensor<1024x3792xbf16, #ttnn_layout6> attributes {tt.function_type = "const_eval"} {
        %0 = "ttnn.get_device"() <{mesh_offset = #ttnn<mesh_offset 0x0>, mesh_shape = #ttnn<mesh_shape 2x4>}> : () -> !ttnn.device
        %1 = "ttnn.to_device"(%arg3, %0) <{memory_config = #ttnn.memory_config<#dram, <interleaved>>}> : (tensor<3072x2048xbf16, #ttnn_layout5>, !ttnn.device) -> tensor<3072x2048xbf16, #ttnn_layout7>
        %2 = "ttnn.to_layout"(%1) <{layout = #ttnn.layout<tile>}> : (tensor<3072x2048xbf16, #ttnn_layout7>) -> tensor<3072x2048xbf16, #ttnn_layout8>
        "ttnn.deallocate"(%1) <{force = false}> : (tensor<3072x2048xbf16, #ttnn_layout7>) -> ()
        %3 = "ttnn.to_device"(%arg2, %0) <{memory_config = #ttnn.memory_config<#dram, <interleaved>>}> : (tensor<64x2048xbf16, #ttnn_layout4>, !ttnn.device) -> tensor<64x2048xbf16, #ttnn_layout9>
        %4 = "ttnn.to_layout"(%3) <{layout = #ttnn.layout<tile>}> : (tensor<64x2048xbf16, #ttnn_layout9>) -> tensor<64x2048xbf16, #ttnn_layout10>
        "ttnn.deallocate"(%3) <{force = false}> : (tensor<64x2048xbf16, #ttnn_layout9>) -> ()
        %5 = "ttnn.to_device"(%arg1, %0) <{memory_config = #ttnn.memory_config<#dram, <interleaved>>}> : (tensor<128x2048xbf16, #ttnn_layout3>, !ttnn.device) -> tensor<128x2048xbf16, #ttnn_layout11>
        %6 = "ttnn.to_layout"(%5) <{layout = #ttnn.layout<tile>}> : (tensor<128x2048xbf16, #ttnn_layout11>) -> tensor<128x2048xbf16, #ttnn_layout12>
        "ttnn.deallocate"(%5) <{force = false}> : (tensor<128x2048xbf16, #ttnn_layout11>) -> ()
        %7 = "ttnn.to_device"(%arg0, %0) <{memory_config = #ttnn.memory_config<#dram, <interleaved>>}> : (tensor<576x2048xbf16, #ttnn_layout2>, !ttnn.device) -> tensor<576x2048xbf16, #ttnn_layout13>
        %8 = "ttnn.to_layout"(%7) <{layout = #ttnn.layout<tile>}> : (tensor<576x2048xbf16, #ttnn_layout13>) -> tensor<576x2048xbf16, #ttnn_layout14>
        "ttnn.deallocate"(%7) <{force = false}> : (tensor<576x2048xbf16, #ttnn_layout13>) -> ()
        %9 = "ttnn.mesh_shard"(%8, %0) <{shard_dims = array<i64: 1, -1>, shard_direction = #ttcore.shard_direction<full_to_shard>, shard_shape = array<i64: 1, 2>, shard_type = #ttcore.shard_type<identity>}> : (tensor<576x2048xbf16, #ttnn_layout14>, !ttnn.device) -> tensor<576x1024xbf16, #ttnn_layout15>
        %10 = "ttnn.mesh_shard"(%6, %0) <{shard_dims = array<i64: 1, -1>, shard_direction = #ttcore.shard_direction<full_to_shard>, shard_shape = array<i64: 1, 2>, shard_type = #ttcore.shard_type<identity>}> : (tensor<128x2048xbf16, #ttnn_layout12>, !ttnn.device) -> tensor<128x1024xbf16, #ttnn_layout16>
        %11 = "ttnn.mesh_shard"(%4, %0) <{shard_dims = array<i64: 1, 0>, shard_direction = #ttcore.shard_direction<full_to_shard>, shard_shape = array<i64: 4, 2>, shard_type = #ttcore.shard_type<identity>}> : (tensor<64x2048xbf16, #ttnn_layout10>, !ttnn.device) -> tensor<16x1024xbf16, #ttnn_layout17>
        %12 = "ttnn.mesh_shard"(%2, %0) <{shard_dims = array<i64: 1, -1>, shard_direction = #ttcore.shard_direction<full_to_shard>, shard_shape = array<i64: 1, 2>, shard_type = #ttcore.shard_type<identity>}> : (tensor<3072x2048xbf16, #ttnn_layout8>, !ttnn.device) -> tensor<3072x1024xbf16, #ttnn_layout18>
        %13 = "ttnn.permute"(%9) <{permutation = array<i64: 1, 0>}> : (tensor<576x1024xbf16, #ttnn_layout15>) -> tensor<1024x576xbf16, #ttnn_layout19>
        "ttnn.deallocate"(%8) <{force = false}> : (tensor<576x2048xbf16, #ttnn_layout14>) -> ()
        %14 = "ttnn.permute"(%11) <{permutation = array<i64: 1, 0>}> : (tensor<16x1024xbf16, #ttnn_layout17>) -> tensor<1024x16xbf16, #ttnn_layout20>
        "ttnn.deallocate"(%4) <{force = false}> : (tensor<64x2048xbf16, #ttnn_layout10>) -> ()
        %15 = "ttnn.permute"(%12) <{permutation = array<i64: 1, 0>}> : (tensor<3072x1024xbf16, #ttnn_layout18>) -> tensor<1024x3072xbf16, #ttnn_layout21>
        "ttnn.deallocate"(%2) <{force = false}> : (tensor<3072x2048xbf16, #ttnn_layout8>) -> ()
        %16 = "ttnn.permute"(%10) <{permutation = array<i64: 1, 0>}> : (tensor<128x1024xbf16, #ttnn_layout16>) -> tensor<1024x128xbf16, #ttnn_layout22>
        "ttnn.deallocate"(%6) <{force = false}> : (tensor<128x2048xbf16, #ttnn_layout12>) -> ()
        %17 = "ttnn.concat"(%16, %13, %14, %15) <{dim = 1 : si32}> : (tensor<1024x128xbf16, #ttnn_layout22>, tensor<1024x576xbf16, #ttnn_layout19>, tensor<1024x16xbf16, #ttnn_layout20>, tensor<1024x3072xbf16, #ttnn_layout21>) -> tensor<1024x3792xbf16, #ttnn_layout6>
        "ttnn.deallocate"(%16) <{force = false}> : (tensor<1024x128xbf16, #ttnn_layout22>) -> ()
        "ttnn.deallocate"(%15) <{force = false}> : (tensor<1024x3072xbf16, #ttnn_layout21>) -> ()
        "ttnn.deallocate"(%14) <{force = false}> : (tensor<1024x16xbf16, #ttnn_layout20>) -> ()
        "ttnn.deallocate"(%13) <{force = false}> : (tensor<1024x576xbf16, #ttnn_layout19>) -> ()
        return %17 : tensor<1024x3792xbf16, #ttnn_layout6>
      }
      func.func private @main_const_eval_2(%arg0: tensor<2048x2048xbf16, #ttnn_layout23>) -> tensor<1024x512xbf16, #ttnn_layout24> attributes {tt.function_type = "const_eval"} {
        %0 = "ttnn.get_device"() <{mesh_offset = #ttnn<mesh_offset 0x0>, mesh_shape = #ttnn<mesh_shape 2x4>}> : () -> !ttnn.device
        %1 = "ttnn.to_device"(%arg0, %0) <{memory_config = #ttnn.memory_config<#dram, <interleaved>>}> : (tensor<2048x2048xbf16, #ttnn_layout23>, !ttnn.device) -> tensor<2048x2048xbf16, #ttnn_layout25>
        %2 = "ttnn.to_layout"(%1) <{layout = #ttnn.layout<tile>}> : (tensor<2048x2048xbf16, #ttnn_layout25>) -> tensor<2048x2048xbf16, #ttnn_layout26>
        "ttnn.deallocate"(%1) <{force = false}> : (tensor<2048x2048xbf16, #ttnn_layout25>) -> ()
        %3 = "ttnn.mesh_shard"(%2, %0) <{shard_dims = array<i64: 0, 1>, shard_direction = #ttcore.shard_direction<full_to_shard>, shard_shape = array<i64: 2, 4>, shard_type = #ttcore.shard_type<identity>}> : (tensor<2048x2048xbf16, #ttnn_layout26>, !ttnn.device) -> tensor<1024x512xbf16, #ttnn_layout24>
        return %3 : tensor<1024x512xbf16, #ttnn_layout24>
      }
      func.func private @main_const_eval_3(%arg0: tensor<3072xbf16, #ttnn_layout27>) -> tensor<1x3072xf32, #ttnn_layout28> attributes {tt.function_type = "const_eval"} {
        %0 = "ttnn.get_device"() <{mesh_offset = #ttnn<mesh_offset 0x0>, mesh_shape = #ttnn<mesh_shape 2x4>}> : () -> !ttnn.device
        %1 = "ttnn.to_device"(%arg0, %0) <{memory_config = #ttnn.memory_config<#dram, <interleaved>>}> : (tensor<3072xbf16, #ttnn_layout27>, !ttnn.device) -> tensor<3072xbf16, #ttnn_layout29>
        %2 = "ttnn.to_layout"(%1) <{layout = #ttnn.layout<tile>}> : (tensor<3072xbf16, #ttnn_layout29>) -> tensor<3072xbf16, #ttnn_layout30>
        "ttnn.deallocate"(%1) <{force = false}> : (tensor<3072xbf16, #ttnn_layout29>) -> ()
        %3 = "ttnn.reshape"(%2) <{shape = [1 : i32, 3072 : i32]}> : (tensor<3072xbf16, #ttnn_layout30>) -> tensor<1x3072xbf16, #ttnn_layout31>
        "ttnn.deallocate"(%2) <{force = false}> : (tensor<3072xbf16, #ttnn_layout30>) -> ()
        %4 = "ttnn.typecast"(%3) <{dtype = #ttcore.supportedDataTypes<f32>}> : (tensor<1x3072xbf16, #ttnn_layout31>) -> tensor<1x3072xf32, #ttnn_layout28>
        "ttnn.deallocate"(%3) <{force = false}> : (tensor<1x3072xbf16, #ttnn_layout31>) -> ()
        return %4 : tensor<1x3072xf32, #ttnn_layout28>
      }
      func.func private @main_const_eval_4() -> tensor<1x1x1xbf16, #ttnn_layout32> attributes {tt.function_type = "const_eval"} {
        %0 = "ttnn.get_device"() <{mesh_offset = #ttnn<mesh_offset 0x0>, mesh_shape = #ttnn<mesh_shape 2x4>}> : () -> !ttnn.device
        %1 = "ttnn.full"(%0) <{dtype = #ttcore.supportedDataTypes<bf16>, fill_value = 0.000000e+00 : f32, layout = #ttnn.layout<tile>, shape = #ttnn.shape<>}> : (!ttnn.device) -> tensor<bf16, #ttnn_layout33>
        %2 = "ttnn.reshape"(%1) <{shape = [1 : i32, 1 : i32, 1 : i32]}> : (tensor<bf16, #ttnn_layout33>) -> tensor<1x1x1xbf16, #ttnn_layout32>
        "ttnn.deallocate"(%1) <{force = false}> : (tensor<bf16, #ttnn_layout33>) -> ()
        return %2 : tensor<1x1x1xbf16, #ttnn_layout32>
      }
      func.func private @main_const_eval_5(%arg0: tensor<3072x3072xbf16, #ttnn_layout34>) -> tensor<768x3072xbf16, #ttnn_layout35> attributes {tt.function_type = "const_eval"} {
        %0 = "ttnn.get_device"() <{mesh_offset = #ttnn<mesh_offset 0x0>, mesh_shape = #ttnn<mesh_shape 2x4>}> : () -> !ttnn.device
        %1 = "ttnn.to_device"(%arg0, %0) <{memory_config = #ttnn.memory_config<#dram, <interleaved>>}> : (tensor<3072x3072xbf16, #ttnn_layout34>, !ttnn.device) -> tensor<3072x3072xbf16, #ttnn_layout36>
        %2 = "ttnn.to_layout"(%1) <{layout = #ttnn.layout<tile>}> : (tensor<3072x3072xbf16, #ttnn_layout36>) -> tensor<3072x3072xbf16, #ttnn_layout37>
        "ttnn.deallocate"(%1) <{force = false}> : (tensor<3072x3072xbf16, #ttnn_layout36>) -> ()
        %3 = "ttnn.mesh_shard"(%2, %0) <{shard_dims = array<i64: -1, 0>, shard_direction = #ttcore.shard_direction<full_to_shard>, shard_shape = array<i64: 4, 1>, shard_type = #ttcore.shard_type<identity>}> : (tensor<3072x3072xbf16, #ttnn_layout37>, !ttnn.device) -> tensor<768x3072xbf16, #ttnn_layout35>
        return %3 : tensor<768x3072xbf16, #ttnn_layout35>
      }
      func.func private @main_const_eval_6(%arg0: tensor<4096x512xbf16, #ttnn_layout38>) -> (tensor<4x128x512xbf16, #ttnn_layout39>, tensor<4x128x512xbf16, #ttnn_layout39>) attributes {tt.function_type = "const_eval"} {
        %0 = "ttnn.get_device"() <{mesh_offset = #ttnn<mesh_offset 0x0>, mesh_shape = #ttnn<mesh_shape 2x4>}> : () -> !ttnn.device
        %1 = "ttnn.to_device"(%arg0, %0) <{memory_config = #ttnn.memory_config<#dram, <interleaved>>}> : (tensor<4096x512xbf16, #ttnn_layout38>, !ttnn.device) -> tensor<4096x512xbf16, #ttnn_layout40>
        %2 = "ttnn.to_layout"(%1) <{layout = #ttnn.layout<tile>}> : (tensor<4096x512xbf16, #ttnn_layout40>) -> tensor<4096x512xbf16, #ttnn_layout41>
        "ttnn.deallocate"(%1) <{force = false}> : (tensor<4096x512xbf16, #ttnn_layout40>) -> ()
        %3 = "ttnn.mesh_shard"(%2, %0) <{shard_dims = array<i64: -1, 0>, shard_direction = #ttcore.shard_direction<full_to_shard>, shard_shape = array<i64: 4, 1>, shard_type = #ttcore.shard_type<identity>}> : (tensor<4096x512xbf16, #ttnn_layout41>, !ttnn.device) -> tensor<1024x512xbf16, #ttnn_layout24>
        %4 = "ttnn.reshape"(%3) <{shape = [4 : i32, 256 : i32, 512 : i32]}> : (tensor<1024x512xbf16, #ttnn_layout24>) -> tensor<4x256x512xbf16, #ttnn_layout42>
        "ttnn.deallocate"(%2) <{force = false}> : (tensor<4096x512xbf16, #ttnn_layout41>) -> ()
        %5 = "ttnn.slice_static"(%4) <{begins = [0 : i32, 0 : i32, 0 : i32], ends = [4 : i32, 128 : i32, 512 : i32], step = [1 : i32, 1 : i32, 1 : i32]}> : (tensor<4x256x512xbf16, #ttnn_layout42>) -> tensor<4x128x512xbf16, #ttnn_layout39>
        %6 = "ttnn.slice_static"(%4) <{begins = [0 : i32, 128 : i32, 0 : i32], ends = [4 : i32, 256 : i32, 512 : i32], step = [1 : i32, 1 : i32, 1 : i32]}> : (tensor<4x256x512xbf16, #ttnn_layout42>) -> tensor<4x128x512xbf16, #ttnn_layout39>
        "ttnn.deallocate"(%4) <{force = false}> : (tensor<4x256x512xbf16, #ttnn_layout42>) -> ()
        return %5, %6 : tensor<4x128x512xbf16, #ttnn_layout39>, tensor<4x128x512xbf16, #ttnn_layout39>
      }
      func.func private @main_const_eval_7() -> tensor<1x1x1xbf16, #ttnn_layout32> attributes {tt.function_type = "const_eval"} {
        %0 = "ttnn.get_device"() <{mesh_offset = #ttnn<mesh_offset 0x0>, mesh_shape = #ttnn<mesh_shape 2x4>}> : () -> !ttnn.device
        %1 = "ttnn.full"(%0) <{dtype = #ttcore.supportedDataTypes<bf16>, fill_value = 1.250000e-01 : f32, layout = #ttnn.layout<tile>, shape = #ttnn.shape<>}> : (!ttnn.device) -> tensor<bf16, #ttnn_layout33>
        %2 = "ttnn.reshape"(%1) <{shape = [1 : i32, 1 : i32, 1 : i32]}> : (tensor<bf16, #ttnn_layout33>) -> tensor<1x1x1xbf16, #ttnn_layout32>
        "ttnn.deallocate"(%1) <{force = false}> : (tensor<bf16, #ttnn_layout33>) -> ()
        return %2 : tensor<1x1x1xbf16, #ttnn_layout32>
      }
      func.func private @main_const_eval_8() -> tensor<1x1x1xbf16, #ttnn_layout32> attributes {tt.function_type = "const_eval"} {
        %0 = "ttnn.get_device"() <{mesh_offset = #ttnn<mesh_offset 0x0>, mesh_shape = #ttnn<mesh_shape 2x4>}> : () -> !ttnn.device
        %1 = "ttnn.full"(%0) <{dtype = #ttcore.supportedDataTypes<bf16>, fill_value = 0.072265625 : f32, layout = #ttnn.layout<tile>, shape = #ttnn.shape<>}> : (!ttnn.device) -> tensor<bf16, #ttnn_layout33>
        %2 = "ttnn.reshape"(%1) <{shape = [1 : i32, 1 : i32, 1 : i32]}> : (tensor<bf16, #ttnn_layout33>) -> tensor<1x1x1xbf16, #ttnn_layout32>
        "ttnn.deallocate"(%1) <{force = false}> : (tensor<bf16, #ttnn_layout33>) -> ()
        return %2 : tensor<1x1x1xbf16, #ttnn_layout32>
      }
      func.func private @main_const_eval_9() -> (tensor<2x1x1xf32, #ttnn_layout43>, tensor<1x2x1xf32, #ttnn_layout44>) attributes {tt.function_type = "const_eval"} {
        %0 = "ttnn.get_device"() <{mesh_offset = #ttnn<mesh_offset 0x0>, mesh_shape = #ttnn<mesh_shape 2x4>}> : () -> !ttnn.device
        %1 = "ttnn.full"(%0) <{dtype = #ttcore.supportedDataTypes<f32>, fill_value = 9.99999997E-7 : f32, layout = #ttnn.layout<tile>, shape = #ttnn.shape<2x1x1>}> : (!ttnn.device) -> tensor<2x1x1xf32, #ttnn_layout43>
        %2 = "ttnn.permute"(%1) <{permutation = array<i64: 1, 0, 2>}> : (tensor<2x1x1xf32, #ttnn_layout43>) -> tensor<1x2x1xf32, #ttnn_layout44>
        return %1, %2 : tensor<2x1x1xf32, #ttnn_layout43>, tensor<1x2x1xf32, #ttnn_layout44>
      }
      func.func private @main_const_eval_10() -> tensor<3x1xf32, #ttnn_layout45> attributes {tt.function_type = "const_eval"} {
        %0 = "ttnn.get_device"() <{mesh_offset = #ttnn<mesh_offset 0x0>, mesh_shape = #ttnn<mesh_shape 2x4>}> : () -> !ttnn.device
        %1 = "ttnn.constant"(%0) <{dtype = #ttcore.supportedDataTypes<f32>, layout = #ttnn.layout<tile>, memory_config = #ttnn.memory_config<#dram, <interleaved>>, value = dense<[[1.689600e+04], [5.120000e+02], [1.000000e+00]]> : tensor<3x1xf32>}> : (!ttnn.device) -> tensor<3x1xf32, #ttnn_layout45>
        return %1 : tensor<3x1xf32, #ttnn_layout45>
      }
      func.func private @main_const_eval_11() -> tensor<1x64x1xbf16, #ttnn_layout> attributes {tt.function_type = "const_eval"} {
        %0 = "ttnn.get_device"() <{mesh_offset = #ttnn<mesh_offset 0x0>, mesh_shape = #ttnn<mesh_shape 2x4>}> : () -> !ttnn.device
        %1 = "ttnn.constant"(%0) <{dtype = #ttcore.supportedDataTypes<bf16>, layout = #ttnn.layout<tile>, memory_config = #ttnn.memory_config<#dram, <interleaved>>, value = dense<[… > : tensor<64xbf16>}> : (!ttnn.device) -> tensor<64xbf16, #ttnn_layout1>
        %2 = "ttnn.reshape"(%1) <{shape = [1 : i32, 64 : i32, 1 : i32]}> : (tensor<64xbf16, #ttnn_layout1>) -> tensor<1x64x1xbf16, #ttnn_layout>
        "ttnn.deallocate"(%1) <{force = false}> : (tensor<64xbf16, #ttnn_layout1>) -> ()
        return %2 : tensor<1x64x1xbf16, #ttnn_layout>
      }
      func.func private @main_const_eval_12() -> tensor<64x1xui32, #ttnn_layout46> attributes {tt.function_type = "const_eval"} {
        %0 = "ttnn.get_device"() <{mesh_offset = #ttnn<mesh_offset 0x0>, mesh_shape = #ttnn<mesh_shape 2x4>}> : () -> !ttnn.device
        %1 = "ttnn.full"(%0) <{dtype = #ttcore.supportedDataTypes<si32>, fill_value = 1 : i32, layout = #ttnn.layout<tile>, shape = #ttnn.shape<>}> : (!ttnn.device) -> tensor<si32, #ttnn_layout47>
        %2 = "ttnn.constant"(%0) <{dtype = #ttcore.supportedDataTypes<f32>, layout = #ttnn.layout<tile>, memory_config = #ttnn.memory_config<#dram, <interleaved>>, value = dense<[… > : tensor<64xf32>}> : (!ttnn.device) -> tensor<64xf32, #ttnn_layout48>
        %3 = "ttnn.full"(%0) <{dtype = #ttcore.supportedDataTypes<si32>, fill_value = 0 : i32, layout = #ttnn.layout<tile>, shape = #ttnn.shape<>}> : (!ttnn.device) -> tensor<si32, #ttnn_layout47>
        %4 = "ttnn.reshape"(%1) <{shape = [1 : i32]}> : (tensor<si32, #ttnn_layout47>) -> tensor<1xsi32, #ttnn_layout49>
        "ttnn.deallocate"(%1) <{force = false}> : (tensor<si32, #ttnn_layout47>) -> ()
        %5 = "ttnn.reshape"(%3) <{shape = [1 : i32]}> : (tensor<si32, #ttnn_layout47>) -> tensor<1xsi32, #ttnn_layout49>
        "ttnn.deallocate"(%3) <{force = false}> : (tensor<si32, #ttnn_layout47>) -> ()
        %6 = "ttnn.floor"(%2) : (tensor<64xf32, #ttnn_layout48>) -> tensor<64xf32, #ttnn_layout48>
        "ttnn.deallocate"(%2) <{force = false}> : (tensor<64xf32, #ttnn_layout48>) -> ()
        %7 = "ttnn.typecast"(%6) <{dtype = #ttcore.supportedDataTypes<si32>}> : (tensor<64xf32, #ttnn_layout48>) -> tensor<64xsi32, #ttnn_layout50>
        "ttnn.deallocate"(%6) <{force = false}> : (tensor<64xf32, #ttnn_layout48>) -> ()
        %8 = "ttnn.clamp_scalar"(%7) <{max = 0 : i32, min = 0 : i32}> : (tensor<64xsi32, #ttnn_layout50>) -> tensor<64xsi32, #ttnn_layout50>
        "ttnn.deallocate"(%7) <{force = false}> : (tensor<64xsi32, #ttnn_layout50>) -> ()
        %9 = "ttnn.gt"(%5, %8) <{dtype = #ttcore.supportedDataTypes<bf16>}> : (tensor<1xsi32, #ttnn_layout49>, tensor<64xsi32, #ttnn_layout50>) -> tensor<64xbf16, #ttnn_layout1>
        "ttnn.deallocate"(%5) <{force = false}> : (tensor<1xsi32, #ttnn_layout49>) -> ()
        %10 = "ttnn.add"(%8, %4) <{dtype = #ttcore.supportedDataTypes<si32>}> : (tensor<64xsi32, #ttnn_layout50>, tensor<1xsi32, #ttnn_layout49>) -> tensor<64xsi32, #ttnn_layout50>
        "ttnn.deallocate"(%4) <{force = false}> : (tensor<1xsi32, #ttnn_layout49>) -> ()
        %11 = "ttnn.typecast"(%9) <{dtype = #ttcore.supportedDataTypes<f32>}> : (tensor<64xbf16, #ttnn_layout1>) -> tensor<64xf32, #ttnn_layout48>
        "ttnn.deallocate"(%9) <{force = false}> : (tensor<64xbf16, #ttnn_layout1>) -> ()
        %12 = "ttnn.typecast"(%10) <{dtype = #ttcore.supportedDataTypes<f32>}> : (tensor<64xsi32, #ttnn_layout50>) -> tensor<64xf32, #ttnn_layout48>
        "ttnn.deallocate"(%10) <{force = false}> : (tensor<64xsi32, #ttnn_layout50>) -> ()
        %13 = "ttnn.typecast"(%8) <{dtype = #ttcore.supportedDataTypes<f32>}> : (tensor<64xsi32, #ttnn_layout50>) -> tensor<64xf32, #ttnn_layout48>
        "ttnn.deallocate"(%8) <{force = false}> : (tensor<64xsi32, #ttnn_layout50>) -> ()
        %14 = "ttnn.where"(%11, %12, %13) : (tensor<64xf32, #ttnn_layout48>, tensor<64xf32, #ttnn_layout48>, tensor<64xf32, #ttnn_layout48>) -> tensor<64xf32, #ttnn_layout48>
        "ttnn.deallocate"(%13) <{force = false}> : (tensor<64xf32, #ttnn_layout48>) -> ()
        "ttnn.deallocate"(%12) <{force = false}> : (tensor<64xf32, #ttnn_layout48>) -> ()
        "ttnn.deallocate"(%11) <{force = false}> : (tensor<64xf32, #ttnn_layout48>) -> ()
        %15 = "ttnn.typecast"(%14) <{dtype = #ttcore.supportedDataTypes<si32>}> : (tensor<64xf32, #ttnn_layout48>) -> tensor<64xsi32, #ttnn_layout50>
        "ttnn.deallocate"(%14) <{force = false}> : (tensor<64xf32, #ttnn_layout48>) -> ()
        %16 = "ttnn.reshape"(%15) <{shape = [64 : i32, 1 : i32]}> : (tensor<64xsi32, #ttnn_layout50>) -> tensor<64x1xsi32, #ttnn_layout51>
        "ttnn.deallocate"(%15) <{force = false}> : (tensor<64xsi32, #ttnn_layout50>) -> ()
        %17 = "ttnn.typecast"(%16) <{dtype = #ttcore.supportedDataTypes<u32>}> : (tensor<64x1xsi32, #ttnn_layout51>) -> tensor<64x1xui32, #ttnn_layout52>
        "ttnn.deallocate"(%16) <{force = false}> : (tensor<64x1xsi32, #ttnn_layout51>) -> ()
        %18 = "ttnn.to_layout"(%17) <{layout = #ttnn.layout<row_major>}> : (tensor<64x1xui32, #ttnn_layout52>) -> tensor<64x1xui32, #ttnn_layout46>
        "ttnn.deallocate"(%17) <{force = false}> : (tensor<64x1xui32, #ttnn_layout52>) -> ()
        return %18 : tensor<64x1xui32, #ttnn_layout46>
      }
      func.func private @main_const_eval_13() -> tensor<1x1x1xbf16, #ttnn_layout32> attributes {tt.function_type = "const_eval"} {
        %0 = "ttnn.get_device"() <{mesh_offset = #ttnn<mesh_offset 0x0>, mesh_shape = #ttnn<mesh_shape 2x4>}> : () -> !ttnn.device
        %1 = "ttnn.full"(%0) <{dtype = #ttcore.supportedDataTypes<bf16>, fill_value = 0.0883789062 : f32, layout = #ttnn.layout<tile>, shape = #ttnn.shape<>}> : (!ttnn.device) -> tensor<bf16, #ttnn_layout33>
        %2 = "ttnn.reshape"(%1) <{shape = [1 : i32, 1 : i32, 1 : i32]}> : (tensor<bf16, #ttnn_layout33>) -> tensor<1x1x1xbf16, #ttnn_layout32>
        "ttnn.deallocate"(%1) <{force = false}> : (tensor<bf16, #ttnn_layout33>) -> ()
        return %2 : tensor<1x1x1xbf16, #ttnn_layout32>
      }
      func.func private @main_const_eval_14() -> tensor<2x33x512x1xui32, #ttnn_layout53> attributes {tt.function_type = "const_eval"} {
        %0 = "ttnn.get_device"() <{mesh_offset = #ttnn<mesh_offset 0x0>, mesh_shape = #ttnn<mesh_shape 2x4>}> : () -> !ttnn.device
        %1 = "ttnn.arange"(%0) <{dtype = #ttcore.supportedDataTypes<u32>, end = 512 : i64, layout = #ttnn.layout<tile>, memory_config = #ttnn.memory_config<#dram, <interleaved>>, start = 0 : i64, step = 1 : i64}> : (!ttnn.device) -> tensor<512xui32, #ttnn_layout54>
        %2 = "ttnn.reshape"(%1) <{shape = [1 : i32, 1 : i32, 512 : i32, 1 : i32]}> : (tensor<512xui32, #ttnn_layout54>) -> tensor<1x1x512x1xui32, #ttnn_layout55>
        "ttnn.deallocate"(%1) <{force = false}> : (tensor<512xui32, #ttnn_layout54>) -> ()
        %3 = "ttnn.repeat"(%2) <{repeat_dims = #ttnn.shape<2x33x1x1>}> : (tensor<1x1x512x1xui32, #ttnn_layout55>) -> tensor<2x33x512x1xui32, #ttnn_layout53>
        "ttnn.deallocate"(%2) <{force = false}> : (tensor<1x1x512x1xui32, #ttnn_layout55>) -> ()
        return %3 : tensor<2x33x512x1xui32, #ttnn_layout53>
      }
      func.func private @main_const_eval_15() -> (tensor<2x33x512x1xui32, #ttnn_layout53>, tensor<2x33x64x1xui32, #ttnn_layout56>) attributes {tt.function_type = "const_eval"} {
        %0 = "ttnn.get_device"() <{mesh_offset = #ttnn<mesh_offset 0x0>, mesh_shape = #ttnn<mesh_shape 2x4>}> : () -> !ttnn.device
        %1 = "ttnn.arange"(%0) <{dtype = #ttcore.supportedDataTypes<u32>, end = 2 : i64, layout = #ttnn.layout<tile>, memory_config = #ttnn.memory_config<#dram, <interleaved>>, start = 0 : i64, step = 1 : i64}> : (!ttnn.device) -> tensor<2xui32, #ttnn_layout57>
        %2 = "ttnn.reshape"(%1) <{shape = [2 : i32, 1 : i32, 1 : i32, 1 : i32]}> : (tensor<2xui32, #ttnn_layout57>) -> tensor<2x1x1x1xui32, #ttnn_layout58>
        "ttnn.deallocate"(%1) <{force = false}> : (tensor<2xui32, #ttnn_layout57>) -> ()
        %3 = "ttnn.repeat"(%2) <{repeat_dims = #ttnn.shape<1x33x512x1>}> : (tensor<2x1x1x1xui32, #ttnn_layout58>) -> tensor<2x33x512x1xui32, #ttnn_layout53>
        %4 = "ttnn.repeat"(%2) <{repeat_dims = #ttnn.shape<1x33x64x1>}> : (tensor<2x1x1x1xui32, #ttnn_layout58>) -> tensor<2x33x64x1xui32, #ttnn_layout56>
        "ttnn.deallocate"(%2) <{force = false}> : (tensor<2x1x1x1xui32, #ttnn_layout58>) -> ()
        return %3, %4 : tensor<2x33x512x1xui32, #ttnn_layout53>, tensor<2x33x64x1xui32, #ttnn_layout56>
      }
      func.func private @main_const_eval_16() -> tensor<2x33x64x1xui32, #ttnn_layout56> attributes {tt.function_type = "const_eval"} {
        %0 = "ttnn.get_device"() <{mesh_offset = #ttnn<mesh_offset 0x0>, mesh_shape = #ttnn<mesh_shape 2x4>}> : () -> !ttnn.device
        %1 = "ttnn.arange"(%0) <{dtype = #ttcore.supportedDataTypes<u32>, end = 64 : i64, layout = #ttnn.layout<tile>, memory_config = #ttnn.memory_config<#dram, <interleaved>>, start = 0 : i64, step = 1 : i64}> : (!ttnn.device) -> tensor<64xui32, #ttnn_layout59>
        %2 = "ttnn.reshape"(%1) <{shape = [1 : i32, 1 : i32, 64 : i32, 1 : i32]}> : (tensor<64xui32, #ttnn_layout59>) -> tensor<1x1x64x1xui32, #ttnn_layout60>
        "ttnn.deallocate"(%1) <{force = false}> : (tensor<64xui32, #ttnn_layout59>) -> ()
        %3 = "ttnn.repeat"(%2) <{repeat_dims = #ttnn.shape<2x33x1x1>}> : (tensor<1x1x64x1xui32, #ttnn_layout60>) -> tensor<2x33x64x1xui32, #ttnn_layout56>
        "ttnn.deallocate"(%2) <{force = false}> : (tensor<1x1x64x1xui32, #ttnn_layout60>) -> ()
        return %3 : tensor<2x33x64x1xui32, #ttnn_layout56>
      }
      func.func private @main_const_eval_17() -> tensor<3x1xf32, #ttnn_layout45> attributes {tt.function_type = "const_eval"} {
        %0 = "ttnn.get_device"() <{mesh_offset = #ttnn<mesh_offset 0x0>, mesh_shape = #ttnn<mesh_shape 2x4>}> : () -> !ttnn.device
        %1 = "ttnn.constant"(%0) <{dtype = #ttcore.supportedDataTypes<f32>, layout = #ttnn.layout<tile>, memory_config = #ttnn.memory_config<#dram, <interleaved>>, value = dense<[[2.112000e+03], [6.400000e+01], [1.000000e+00]]> : tensor<3x1xf32>}> : (!ttnn.device) -> tensor<3x1xf32, #ttnn_layout45>
        return %1 : tensor<3x1xf32, #ttnn_layout45>
      }
      func.func private @main_const_eval_18(%arg0: tensor<8192x3072xbf16, #ttnn_layout61>) -> tensor<2048x3072xbf16, #ttnn_layout62> attributes {tt.function_type = "const_eval"} {
        %0 = "ttnn.get_device"() <{mesh_offset = #ttnn<mesh_offset 0x0>, mesh_shape = #ttnn<mesh_shape 2x4>}> : () -> !ttnn.device
        %1 = "ttnn.to_device"(%arg0, %0) <{memory_config = #ttnn.memory_config<#dram, <interleaved>>}> : (tensor<8192x3072xbf16, #ttnn_layout61>, !ttnn.device) -> tensor<8192x3072xbf16, #ttnn_layout63>
        %2 = "ttnn.to_layout"(%1) <{layout = #ttnn.layout<tile>}> : (tensor<8192x3072xbf16, #ttnn_layout63>) -> tensor<8192x3072xbf16, #ttnn_layout64>
        "ttnn.deallocate"(%1) <{force = false}> : (tensor<8192x3072xbf16, #ttnn_layout63>) -> ()
        %3 = "ttnn.mesh_shard"(%2, %0) <{shard_dims = array<i64: -1, 0>, shard_direction = #ttcore.shard_direction<full_to_shard>, shard_shape = array<i64: 4, 1>, shard_type = #ttcore.shard_type<identity>}> : (tensor<8192x3072xbf16, #ttnn_layout64>, !ttnn.device) -> tensor<2048x3072xbf16, #ttnn_layout62>
        return %3 : tensor<2048x3072xbf16, #ttnn_layout62>
      }
      func.func private @main_const_eval_19(%arg0: tensor<512xbf16, #ttnn_layout65>) -> tensor<1x1x512xf32, #ttnn_layout66> attributes {tt.function_type = "const_eval"} {
        %0 = "ttnn.get_device"() <{mesh_offset = #ttnn<mesh_offset 0x0>, mesh_shape = #ttnn<mesh_shape 2x4>}> : () -> !ttnn.device
        %1 = "ttnn.to_device"(%arg0, %0) <{memory_config = #ttnn.memory_config<#dram, <interleaved>>}> : (tensor<512xbf16, #ttnn_layout65>, !ttnn.device) -> tensor<512xbf16, #ttnn_layout67>
        %2 = "ttnn.to_layout"(%1) <{layout = #ttnn.layout<tile>}> : (tensor<512xbf16, #ttnn_layout67>) -> tensor<512xbf16, #ttnn_layout68>
        "ttnn.deallocate"(%1) <{force = false}> : (tensor<512xbf16, #ttnn_layout67>) -> ()
        %3 = "ttnn.reshape"(%2) <{shape = [1 : i32, 1 : i32, 512 : i32]}> : (tensor<512xbf16, #ttnn_layout68>) -> tensor<1x1x512xbf16, #ttnn_layout69>
        "ttnn.deallocate"(%2) <{force = false}> : (tensor<512xbf16, #ttnn_layout68>) -> ()
        %4 = "ttnn.typecast"(%3) <{dtype = #ttcore.supportedDataTypes<f32>}> : (tensor<1x1x512xbf16, #ttnn_layout69>) -> tensor<1x1x512xf32, #ttnn_layout66>
        "ttnn.deallocate"(%3) <{force = false}> : (tensor<1x1x512xbf16, #ttnn_layout69>) -> ()
        return %4 : tensor<1x1x512xf32, #ttnn_layout66>
      }
      func.func @main(%arg0: tensor<4x64x512xbf16, #ttnn_layout70> {ttcore.argument_type = #ttcore.argument_type<input>, ttcore.local_shape = #ttcore<local_shape local_shape = tensor<2x64x512xbf16>>, ttcore.shard_status = #ttcore.shard_status<presharded>, ttir.name = "kv_cache"}, %arg1: tensor<576x2048xbf16, #ttnn_layout2> {ttcore.argument_type = #ttcore.argument_type<parameter>, ttcore.local_shape = #ttcore<local_shape local_shape = tensor<576x1024xbf16>>, ttcore.shard_status = #ttcore.shard_status<presharded>, ttir.name = "wkv_a.weight"}, %arg2: tensor<4x1x2048xbf16, #ttnn_layout71> {ttcore.argument_type = #ttcore.argument_type<input>, ttcore.local_shape = #ttcore<local_shape local_shape = tensor<4x1x1024xbf16>>, ttcore.shard_status = #ttcore.shard_status<presharded>, ttir.name = "args_0"}, %arg3: tensor<512xbf16, #ttnn_layout65> {ttcore.argument_type = #ttcore.argument_type<parameter>, ttcore.local_shape = #ttcore<local_shape local_shape = tensor<512xbf16>>, ttcore.shard_status = #ttcore.shard_status<presharded>, ttir.name = "kv_norm.weight"}, %arg4: tensor<bf16, #ttnn_layout72> {ttcore.argument_type = #ttcore.argument_type<input>, ttcore.local_shape = #ttcore<local_shape local_shape = tensor<i1>>, ttcore.shard_status = #ttcore.shard_status<presharded>}, %arg5: tensor<4x64x64xbf16, #ttnn_layout73> {ttcore.argument_type = #ttcore.argument_type<input>, ttcore.local_shape = #ttcore<local_shape local_shape = tensor<2x64x64xbf16>>, ttcore.shard_status = #ttcore.shard_status<presharded>, ttir.name = "pe_cache"}, %arg6: tensor<1x32x2xbf16, #ttnn_layout74> {ttcore.argument_type = #ttcore.argument_type<input>, ttcore.local_shape = #ttcore<local_shape local_shape = tensor<1x32x2xbf16>>, ttcore.shard_status = #ttcore.shard_status<presharded>, ttir.name = "args_1"}, %arg7: tensor<4x64x128xbf16, #ttnn_layout75> {ttcore.argument_type = #ttcore.argument_type<input>, ttcore.local_shape = #ttcore<local_shape local_shape = tensor<2x64x128xbf16>>, ttcore.shard_status = #ttcore.shard_status<presharded>, ttir.name = "indexer.k_cache"}, %arg8: tensor<128x128xbf16, #ttnn_layout76> {ttcore.argument_type = #ttcore.argument_type<constant>, ttcore.local_shape = #ttcore<local_shape local_shape = tensor<128x128xbf16>>, ttcore.shard_status = #ttcore.shard_status<presharded>, ttir.name = "indexer.haddamard"}, %arg9: tensor<128xbf16, #ttnn_layout77> {ttcore.argument_type = #ttcore.argument_type<parameter>, ttcore.local_shape = #ttcore<local_shape local_shape = tensor<128xbf16>>, ttcore.shard_status = #ttcore.shard_status<presharded>, ttir.name = "indexer.k_norm.bias"}, %arg10: tensor<128xbf16, #ttnn_layout77> {ttcore.argument_type = #ttcore.argument_type<parameter>, ttcore.local_shape = #ttcore<local_shape local_shape = tensor<128xbf16>>, ttcore.shard_status = #ttcore.shard_status<presharded>, ttir.name = "indexer.k_norm.weight"}, %arg11: tensor<128x2048xbf16, #ttnn_layout3> {ttcore.argument_type = #ttcore.argument_type<parameter>, ttcore.local_shape = #ttcore<local_shape local_shape = tensor<128x1024xbf16>>, ttcore.shard_status = #ttcore.shard_status<presharded>, ttir.name = "indexer.wk.weight"}, %arg12: tensor<2048x2048xbf16, #ttnn_layout23> {ttcore.argument_type = #ttcore.argument_type<parameter>, ttcore.local_shape = #ttcore<local_shape local_shape = tensor<1024x512xbf16>>, ttcore.shard_status = #ttcore.shard_status<presharded>, ttir.name = "wo.weight"}, %arg13: tensor<4096x512xbf16, #ttnn_layout38> {ttcore.argument_type = #ttcore.argument_type<parameter>, ttcore.local_shape = #ttcore<local_shape local_shape = tensor<1024x512xbf16>>, ttcore.shard_status = #ttcore.shard_status<presharded>, ttir.name = "wkv_b.weight"}, %arg14: tensor<64x2048xbf16, #ttnn_layout4> {ttcore.argument_type = #ttcore.argument_type<parameter>, ttcore.local_shape = #ttcore<local_shape local_shape = tensor<16x1024xbf16>>, ttcore.shard_status = #ttcore.shard_status<presharded>, ttir.name = "indexer.weights_proj.weight"}, %arg15: tensor<8192x3072xbf16, #ttnn_layout61> {ttcore.argument_type = #ttcore.argument_type<parameter>, ttcore.local_shape = #ttcore<local_shape local_shape = tensor<2048x3072xbf16>>, ttcore.shard_status = #ttcore.shard_status<presharded>, ttir.name = "indexer.wq_b.weight"}, %arg16: tensor<3072x2048xbf16, #ttnn_layout5> {ttcore.argument_type = #ttcore.argument_type<parameter>, ttcore.local_shape = #ttcore<local_shape local_shape = tensor<3072x1024xbf16>>, ttcore.shard_status = #ttcore.shard_status<presharded>, ttir.name = "wq_a.weight"}, %arg17: tensor<3072xbf16, #ttnn_layout27> {ttcore.argument_type = #ttcore.argument_type<parameter>, ttcore.local_shape = #ttcore<local_shape local_shape = tensor<3072xbf16>>, ttcore.shard_status = #ttcore.shard_status<presharded>, ttir.name = "q_norm.weight"}, %arg18: tensor<3072x3072xbf16, #ttnn_layout34> {ttcore.argument_type = #ttcore.argument_type<parameter>, ttcore.local_shape = #ttcore<local_shape local_shape = tensor<768x3072xbf16>>, ttcore.shard_status = #ttcore.shard_status<presharded>, ttir.name = "wq_b.weight"}) -> (tensor<4x64x512xbf16, #ttnn_layout70> {ttcore.local_shape = #ttcore<local_shape local_shape = tensor<2x64x512xbf16>>, ttcore.shard_status = #ttcore.shard_status<presharded>}, tensor<4x64x64xbf16, #ttnn_layout73> {ttcore.local_shape = #ttcore<local_shape local_shape = tensor<2x64x64xbf16>>, ttcore.shard_status = #ttcore.shard_status<presharded>}, tensor<4x64x128xbf16, #ttnn_layout75> {ttcore.local_shape = #ttcore<local_shape local_shape = tensor<2x64x128xbf16>>, ttcore.shard_status = #ttcore.shard_status<presharded>}, tensor<4x1x2048xbf16, #ttnn_layout71> {ttcore.local_shape = #ttcore<local_shape local_shape = tensor<4x1x1024xbf16>>, ttcore.shard_status = #ttcore.shard_status<presharded>}) attributes {tt.function_type = "forward_device"} {
        %0 = ttcore.load_cached(@main_const_eval_0, []) : () -> tensor<1x64x1xbf16, #ttnn_layout>
        %1 = ttcore.load_cached(@main_const_eval_1, [%arg1, %arg11, %arg14, %arg16]) : (tensor<576x2048xbf16, #ttnn_layout2>, tensor<128x2048xbf16, #ttnn_layout3>, tensor<64x2048xbf16, #ttnn_layout4>, tensor<3072x2048xbf16, #ttnn_layout5>) -> tensor<1024x3792xbf16, #ttnn_layout6>
        "ttnn.deallocate"(%arg16) <{force = false}> : (tensor<3072x2048xbf16, #ttnn_layout5>) -> ()
        "ttnn.deallocate"(%arg14) <{force = false}> : (tensor<64x2048xbf16, #ttnn_layout4>) -> ()
        "ttnn.deallocate"(%arg11) <{force = false}> : (tensor<128x2048xbf16, #ttnn_layout3>) -> ()
        "ttnn.deallocate"(%arg1) <{force = false}> : (tensor<576x2048xbf16, #ttnn_layout2>) -> ()
        %2 = ttcore.load_cached(@main_const_eval_2, [%arg12]) : (tensor<2048x2048xbf16, #ttnn_layout23>) -> tensor<1024x512xbf16, #ttnn_layout24>
        "ttnn.deallocate"(%arg12) <{force = false}> : (tensor<2048x2048xbf16, #ttnn_layout23>) -> ()
        %3 = ttcore.load_cached(@main_const_eval_3, [%arg17]) : (tensor<3072xbf16, #ttnn_layout27>) -> tensor<1x3072xf32, #ttnn_layout28>
        "ttnn.deallocate"(%arg17) <{force = false}> : (tensor<3072xbf16, #ttnn_layout27>) -> ()
        %4 = ttcore.load_cached(@main_const_eval_4, []) : () -> tensor<1x1x1xbf16, #ttnn_layout32>
        %5 = ttcore.load_cached(@main_const_eval_5, [%arg18]) : (tensor<3072x3072xbf16, #ttnn_layout34>) -> tensor<768x3072xbf16, #ttnn_layout35>
        "ttnn.deallocate"(%arg18) <{force = false}> : (tensor<3072x3072xbf16, #ttnn_layout34>) -> ()
        %6:2 = ttcore.load_cached(@main_const_eval_6, [%arg13]) : (tensor<4096x512xbf16, #ttnn_layout38>) -> (tensor<4x128x512xbf16, #ttnn_layout39>, tensor<4x128x512xbf16, #ttnn_layout39>)
        "ttnn.deallocate"(%arg13) <{force = false}> : (tensor<4096x512xbf16, #ttnn_layout38>) -> ()
        %7 = ttcore.load_cached(@main_const_eval_7, []) : () -> tensor<1x1x1xbf16, #ttnn_layout32>
        %8 = ttcore.load_cached(@main_const_eval_8, []) : () -> tensor<1x1x1xbf16, #ttnn_layout32>
        %9:2 = ttcore.load_cached(@main_const_eval_9, []) : () -> (tensor<2x1x1xf32, #ttnn_layout43>, tensor<1x2x1xf32, #ttnn_layout44>)
        %10 = ttcore.load_cached(@main_const_eval_10, []) : () -> tensor<3x1xf32, #ttnn_layout45>
        %11 = ttcore.load_cached(@main_const_eval_11, []) : () -> tensor<1x64x1xbf16, #ttnn_layout>
        %12 = ttcore.load_cached(@main_const_eval_12, []) : () -> tensor<64x1xui32, #ttnn_layout46>
        %13 = ttcore.load_cached(@main_const_eval_13, []) : () -> tensor<1x1x1xbf16, #ttnn_layout32>
        %14 = ttcore.load_cached(@main_const_eval_14, []) : () -> tensor<2x33x512x1xui32, #ttnn_layout53>
        %15:2 = ttcore.load_cached(@main_const_eval_15, []) : () -> (tensor<2x33x512x1xui32, #ttnn_layout53>, tensor<2x33x64x1xui32, #ttnn_layout56>)
        %16 = ttcore.load_cached(@main_const_eval_16, []) : () -> tensor<2x33x64x1xui32, #ttnn_layout56>
        %17 = ttcore.load_cached(@main_const_eval_17, []) : () -> tensor<3x1xf32, #ttnn_layout45>
        %18 = ttcore.load_cached(@main_const_eval_18, [%arg15]) : (tensor<8192x3072xbf16, #ttnn_layout61>) -> tensor<2048x3072xbf16, #ttnn_layout62>
        "ttnn.deallocate"(%arg15) <{force = false}> : (tensor<8192x3072xbf16, #ttnn_layout61>) -> ()
        %19 = ttcore.load_cached(@main_const_eval_19, [%arg3]) : (tensor<512xbf16, #ttnn_layout65>) -> tensor<1x1x512xf32, #ttnn_layout66>
        "ttnn.deallocate"(%arg3) <{force = false}> : (tensor<512xbf16, #ttnn_layout65>) -> ()
        %20 = "ttnn.get_device"() <{mesh_offset = #ttnn<mesh_offset 0x0>, mesh_shape = #ttnn<mesh_shape 2x4>}> : () -> !ttnn.device
        %21 = "ttnn.mesh_shard"(%arg0, %20) <{shard_dims = array<i64: 0, -1>, shard_direction = #ttcore.shard_direction<full_to_shard>, shard_shape = array<i64: 2, 1, 1>, shard_type = #ttcore.shard_type<identity>}> : (tensor<4x64x512xbf16, #ttnn_layout70>, !ttnn.device) -> tensor<2x64x512xbf16, #ttnn_layout78>
        %22 = "ttnn.mesh_shard"(%arg2, %20) <{shard_dims = array<i64: 2, -1>, shard_direction = #ttcore.shard_direction<full_to_shard>, shard_shape = array<i64: 1, 1, 2>, shard_type = #ttcore.shard_type<identity>}> : (tensor<4x1x2048xbf16, #ttnn_layout71>, !ttnn.device) -> tensor<4x1x1024xbf16, #ttnn_layout79>
        %23 = "ttnn.mesh_shard"(%arg5, %20) <{shard_dims = array<i64: 0, -1>, shard_direction = #ttcore.shard_direction<full_to_shard>, shard_shape = array<i64: 2, 1, 1>, shard_type = #ttcore.shard_type<identity>}> : (tensor<4x64x64xbf16, #ttnn_layout73>, !ttnn.device) -> tensor<2x64x64xbf16, #ttnn_layout80>
        %24 = "ttnn.mesh_shard"(%arg7, %20) <{shard_dims = array<i64: 0, -1>, shard_direction = #ttcore.shard_direction<full_to_shard>, shard_shape = array<i64: 2, 1, 1>, shard_type = #ttcore.shard_type<identity>}> : (tensor<4x64x128xbf16, #ttnn_layout75>, !ttnn.device) -> tensor<2x64x128xbf16, #ttnn_layout81>
        %25 = "ttnn.to_layout"(%arg4) <{layout = #ttnn.layout<tile>}> : (tensor<bf16, #ttnn_layout72>) -> tensor<bf16, #ttnn_layout33>
        "ttnn.deallocate"(%arg4) <{force = false}> : (tensor<bf16, #ttnn_layout72>) -> ()
        %26 = "ttnn.reshape"(%25) <{shape = [1 : i32, 1 : i32, 1 : i32]}> : (tensor<bf16, #ttnn_layout33>) -> tensor<1x1x1xbf16, #ttnn_layout32>
        "ttnn.deallocate"(%25) <{force = false}> : (tensor<bf16, #ttnn_layout33>) -> ()
        %27 = "ttnn.logical_and"(%26, %0) <{dtype = #ttcore.supportedDataTypes<bf16>}> : (tensor<1x1x1xbf16, #ttnn_layout32>, tensor<1x64x1xbf16, #ttnn_layout>) -> tensor<1x64x1xbf16, #ttnn_layout>
        "ttnn.deallocate"(%26) <{force = false}> : (tensor<1x1x1xbf16, #ttnn_layout32>) -> ()
        "ttnn.deallocate"(%0) <{force = false}> : (tensor<1x64x1xbf16, #ttnn_layout>) -> ()
        %28 = "ttnn.logical_and"(%27, %11) <{dtype = #ttcore.supportedDataTypes<bf16>}> : (tensor<1x64x1xbf16, #ttnn_layout>, tensor<1x64x1xbf16, #ttnn_layout>) -> tensor<1x64x1xbf16, #ttnn_layout>
        "ttnn.deallocate"(%27) <{force = false}> : (tensor<1x64x1xbf16, #ttnn_layout>) -> ()
        "ttnn.deallocate"(%11) <{force = false}> : (tensor<1x64x1xbf16, #ttnn_layout>) -> ()
        %29 = "ttnn.logical_not"(%28) : (tensor<1x64x1xbf16, #ttnn_layout>) -> tensor<1x64x1xbf16, #ttnn_layout>
        %30 = "ttnn.reshape"(%22) <{shape = [4 : i32, 1024 : i32]}> : (tensor<4x1x1024xbf16, #ttnn_layout79>) -> tensor<4x1024xbf16, #ttnn_layout17>
        "ttnn.deallocate"(%arg2) <{force = false}> : (tensor<4x1x2048xbf16, #ttnn_layout71>) -> ()
        %31 = "ttnn.matmul"(%30, %1) <{compute_config = #ttnn.device_compute_kernel_config<math_fidelity = hifi4, fp32_dest_acc_en = true>, transpose_a = false, transpose_b = false}> : (tensor<4x1024xbf16, #ttnn_layout17>, tensor<1024x3792xbf16, #ttnn_layout6>) -> tensor<4x3792xbf16, #ttnn_layout82>
        "ttnn.deallocate"(%30) <{force = false}> : (tensor<4x1024xbf16, #ttnn_layout17>) -> ()
        "ttnn.deallocate"(%1) <{force = false}> : (tensor<1024x3792xbf16, #ttnn_layout6>) -> ()
        %32 = "ttnn.slice_static"(%31) <{begins = [0 : i32, 0 : i32], ends = [4 : i32, 128 : i32], step = [1 : i32, 1 : i32]}> : (tensor<4x3792xbf16, #ttnn_layout82>) -> tensor<4x128xbf16, #ttnn_layout83>
        %33 = "ttnn.slice_static"(%31) <{begins = [0 : i32, 128 : i32], ends = [4 : i32, 704 : i32], step = [1 : i32, 1 : i32]}> : (tensor<4x3792xbf16, #ttnn_layout82>) -> tensor<4x576xbf16, #ttnn_layout84>
        %34 = "ttnn.slice_static"(%31) <{begins = [0 : i32, 704 : i32], ends = [4 : i32, 720 : i32], step = [1 : i32, 1 : i32]}> : (tensor<4x3792xbf16, #ttnn_layout82>) -> tensor<4x16xbf16, #ttnn_layout85>
        %35 = "ttnn.slice_static"(%31) <{begins = [0 : i32, 720 : i32], ends = [4 : i32, 3792 : i32], step = [1 : i32, 1 : i32]}> : (tensor<4x3792xbf16, #ttnn_layout82>) -> tensor<4x3072xbf16, #ttnn_layout31>
        "ttnn.deallocate"(%31) <{force = false}> : (tensor<4x3792xbf16, #ttnn_layout82>) -> ()
        %36 = "ttnn.reshape"(%32) <{shape = [1 : i32, 1 : i32, 4 : i32, 128 : i32]}> : (tensor<4x128xbf16, #ttnn_layout83>) -> tensor<1x1x4x128xbf16, #ttnn_layout86>
        "ttnn.deallocate"(%32) <{force = false}> : (tensor<4x128xbf16, #ttnn_layout83>) -> ()
        %37 = "ttnn.reduce_scatter"(%36) <{cluster_axis = 0 : ui32, compute_config = #ttnn.device_compute_kernel_config<math_fidelity = hifi4, math_approx_mode = false, fp32_dest_acc_en = true, packer_l1_acc = false>, reduce_type = #ttcore.reduce_type<sum>, scatter_dim = 2 : si32, topology = #ttcore.topology<ring>}> : (tensor<1x1x4x128xbf16, #ttnn_layout86>) -> tensor<1x1x2x128xbf16, #ttnn_layout86>
        "ttnn.deallocate"(%36) <{force = false}> : (tensor<1x1x4x128xbf16, #ttnn_layout86>) -> ()
        %38 = "ttnn.reshape"(%37) <{shape = [2 : i32, 1 : i32, 128 : i32]}> : (tensor<1x1x2x128xbf16, #ttnn_layout86>) -> tensor<2x1x128xbf16, #ttnn_layout87>
        "ttnn.deallocate"(%37) <{force = false}> : (tensor<1x1x2x128xbf16, #ttnn_layout86>) -> ()
        %39 = "ttnn.layer_norm"(%38, %arg10, %arg9) <{epsilon = 9.99999997E-7 : f32, operandSegmentSizes = array<i32: 1, 1, 1>}> : (tensor<2x1x128xbf16, #ttnn_layout87>, tensor<128xbf16, #ttnn_layout77>, tensor<128xbf16, #ttnn_layout77>) -> tensor<2x1x128xbf16, #ttnn_layout87>
        "ttnn.deallocate"(%38) <{force = false}> : (tensor<2x1x128xbf16, #ttnn_layout87>) -> ()
        "ttnn.deallocate"(%arg10) <{force = false}> : (tensor<128xbf16, #ttnn_layout77>) -> ()
        "ttnn.deallocate"(%arg9) <{force = false}> : (tensor<128xbf16, #ttnn_layout77>) -> ()
        %40 = "ttnn.slice_static"(%39) <{begins = [0 : i32, 0 : i32, 0 : i32], ends = [2 : i32, 1 : i32, 64 : i32], step = [1 : i32, 1 : i32, 1 : i32]}> : (tensor<2x1x128xbf16, #ttnn_layout87>) -> tensor<2x1x64xbf16, #ttnn_layout88>
        %41 = "ttnn.typecast"(%40) <{dtype = #ttcore.supportedDataTypes<f32>}> : (tensor<2x1x64xbf16, #ttnn_layout88>) -> tensor<2x1x64xf32, #ttnn_layout89>
        "ttnn.deallocate"(%40) <{force = false}> : (tensor<2x1x64xbf16, #ttnn_layout88>) -> ()
        %42 = "ttnn.reshape"(%41) <{shape = [2 : i32, 1 : i32, 1 : i32, 2 : i32, 32 : i32]}> : (tensor<2x1x64xf32, #ttnn_layout89>) -> tensor<2x1x1x2x32xf32, #ttnn_layout90>
        "ttnn.deallocate"(%41) <{force = false}> : (tensor<2x1x64xf32, #ttnn_layout89>) -> ()
        %43 = "ttnn.permute"(%42) <{permutation = array<i64: 0, 1, 2, 4, 3>}> : (tensor<2x1x1x2x32xf32, #ttnn_layout90>) -> tensor<2x1x1x32x2xf32, #ttnn_layout90>
        "ttnn.deallocate"(%42) <{force = false}> : (tensor<2x1x1x2x32xf32, #ttnn_layout90>) -> ()
        %44 = "ttnn.slice_static"(%43) <{begins = [0 : i32, 0 : i32, 0 : i32, 0 : i32, 0 : i32], ends = [2 : i32, 1 : i32, 1 : i32, 32 : i32, 1 : i32], step = [1 : i32, 1 : i32, 1 : i32, 1 : i32, 1 : i32]}> : (tensor<2x1x1x32x2xf32, #ttnn_layout90>) -> tensor<2x1x1x32x1xf32, #ttnn_layout90>
        %45 = "ttnn.to_layout"(%arg6) <{layout = #ttnn.layout<tile>}> : (tensor<1x32x2xbf16, #ttnn_layout74>) -> tensor<1x32x2xbf16, #ttnn_layout32>
        "ttnn.deallocate"(%arg6) <{force = false}> : (tensor<1x32x2xbf16, #ttnn_layout74>) -> ()
        %46 = "ttnn.reshape"(%45) <{shape = [1 : i32, 1 : i32, 1 : i32, 32 : i32, 2 : i32]}> : (tensor<1x32x2xbf16, #ttnn_layout32>) -> tensor<1x1x1x32x2xbf16, #ttnn_layout91>
        "ttnn.deallocate"(%45) <{force = false}> : (tensor<1x32x2xbf16, #ttnn_layout32>) -> ()
        %47 = "ttnn.slice_static"(%46) <{begins = [0 : i32, 0 : i32, 0 : i32, 0 : i32, 0 : i32], ends = [1 : i32, 1 : i32, 1 : i32, 32 : i32, 1 : i32], step = [1 : i32, 1 : i32, 1 : i32, 1 : i32, 1 : i32]}> : (tensor<1x1x1x32x2xbf16, #ttnn_layout91>) -> tensor<1x1x1x32x1xbf16, #ttnn_layout91>
        %48 = "ttnn.typecast"(%47) <{dtype = #ttcore.supportedDataTypes<f32>}> : (tensor<1x1x1x32x1xbf16, #ttnn_layout91>) -> tensor<1x1x1x32x1xf32, #ttnn_layout92>
        "ttnn.deallocate"(%47) <{force = false}> : (tensor<1x1x1x32x1xbf16, #ttnn_layout91>) -> ()
        %49 = "ttnn.multiply"(%44, %48) <{dtype = #ttcore.supportedDataTypes<f32>}> : (tensor<2x1x1x32x1xf32, #ttnn_layout90>, tensor<1x1x1x32x1xf32, #ttnn_layout92>) -> tensor<2x1x1x32x1xf32, #ttnn_layout90>
        %50 = "ttnn.slice_static"(%43) <{begins = [0 : i32, 0 : i32, 0 : i32, 0 : i32, 1 : i32], ends = [2 : i32, 1 : i32, 1 : i32, 32 : i32, 2 : i32], step = [1 : i32, 1 : i32, 1 : i32, 1 : i32, 1 : i32]}> : (tensor<2x1x1x32x2xf32, #ttnn_layout90>) -> tensor<2x1x1x32x1xf32, #ttnn_layout90>
        "ttnn.deallocate"(%43) <{force = false}> : (tensor<2x1x1x32x2xf32, #ttnn_layout90>) -> ()
        %51 = "ttnn.slice_static"(%46) <{begins = [0 : i32, 0 : i32, 0 : i32, 0 : i32, 1 : i32], ends = [1 : i32, 1 : i32, 1 : i32, 32 : i32, 2 : i32], step = [1 : i32, 1 : i32, 1 : i32, 1 : i32, 1 : i32]}> : (tensor<1x1x1x32x2xbf16, #ttnn_layout91>) -> tensor<1x1x1x32x1xbf16, #ttnn_layout91>
        "ttnn.deallocate"(%46) <{force = false}> : (tensor<1x1x1x32x2xbf16, #ttnn_layout91>) -> ()
        %52 = "ttnn.typecast"(%51) <{dtype = #ttcore.supportedDataTypes<f32>}> : (tensor<1x1x1x32x1xbf16, #ttnn_layout91>) -> tensor<1x1x1x32x1xf32, #ttnn_layout92>
        "ttnn.deallocate"(%51) <{force = false}> : (tensor<1x1x1x32x1xbf16, #ttnn_layout91>) -> ()
        %53 = "ttnn.multiply"(%50, %52) <{dtype = #ttcore.supportedDataTypes<f32>}> : (tensor<2x1x1x32x1xf32, #ttnn_layout90>, tensor<1x1x1x32x1xf32, #ttnn_layout92>) -> tensor<2x1x1x32x1xf32, #ttnn_layout90>
        %54 = "ttnn.subtract"(%49, %53) <{dtype = #ttcore.supportedDataTypes<f32>}> : (tensor<2x1x1x32x1xf32, #ttnn_layout90>, tensor<2x1x1x32x1xf32, #ttnn_layout90>) -> tensor<2x1x1x32x1xf32, #ttnn_layout90>
        "ttnn.deallocate"(%53) <{force = false}> : (tensor<2x1x1x32x1xf32, #ttnn_layout90>) -> ()
        "ttnn.deallocate"(%49) <{force = false}> : (tensor<2x1x1x32x1xf32, #ttnn_layout90>) -> ()
        %55 = "ttnn.multiply"(%44, %52) <{dtype = #ttcore.supportedDataTypes<f32>}> : (tensor<2x1x1x32x1xf32, #ttnn_layout90>, tensor<1x1x1x32x1xf32, #ttnn_layout92>) -> tensor<2x1x1x32x1xf32, #ttnn_layout90>
        "ttnn.deallocate"(%44) <{force = false}> : (tensor<2x1x1x32x1xf32, #ttnn_layout90>) -> ()
        %56 = "ttnn.multiply"(%50, %48) <{dtype = #ttcore.supportedDataTypes<f32>}> : (tensor<2x1x1x32x1xf32, #ttnn_layout90>, tensor<1x1x1x32x1xf32, #ttnn_layout92>) -> tensor<2x1x1x32x1xf32, #ttnn_layout90>
        "ttnn.deallocate"(%50) <{force = false}> : (tensor<2x1x1x32x1xf32, #ttnn_layout90>) -> ()
        %57 = "ttnn.add"(%55, %56) <{dtype = #ttcore.supportedDataTypes<f32>}> : (tensor<2x1x1x32x1xf32, #ttnn_layout90>, tensor<2x1x1x32x1xf32, #ttnn_layout90>) -> tensor<2x1x1x32x1xf32, #ttnn_layout90>
        "ttnn.deallocate"(%56) <{force = false}> : (tensor<2x1x1x32x1xf32, #ttnn_layout90>) -> ()
        "ttnn.deallocate"(%55) <{force = false}> : (tensor<2x1x1x32x1xf32, #ttnn_layout90>) -> ()
        %58 = "ttnn.concat"(%54, %57) <{dim = 4 : si32}> : (tensor<2x1x1x32x1xf32, #ttnn_layout90>, tensor<2x1x1x32x1xf32, #ttnn_layout90>) -> tensor<2x1x1x32x2xf32, #ttnn_layout90>
        "ttnn.deallocate"(%57) <{force = false}> : (tensor<2x1x1x32x1xf32, #ttnn_layout90>) -> ()
        "ttnn.deallocate"(%54) <{force = false}> : (tensor<2x1x1x32x1xf32, #ttnn_layout90>) -> ()
        %59 = "ttnn.reshape"(%58) <{shape = [2 : i32, 64 : i32]}> : (tensor<2x1x1x32x2xf32, #ttnn_layout90>) -> tensor<2x64xf32, #ttnn_layout93>
        "ttnn.deallocate"(%58) <{force = false}> : (tensor<2x1x1x32x2xf32, #ttnn_layout90>) -> ()
        %60 = "ttnn.slice_static"(%59) <{begins = [0 : i32, 0 : i32], ends = [2 : i32, 64 : i32], step = [1 : i32, 2 : i32]}> : (tensor<2x64xf32, #ttnn_layout93>) -> tensor<2x32xf32, #ttnn_layout45>
        %61 = "ttnn.slice_static"(%59) <{begins = [0 : i32, 1 : i32], ends = [2 : i32, 64 : i32], step = [1 : i32, 2 : i32]}> : (tensor<2x64xf32, #ttnn_layout93>) -> tensor<2x32xf32, #ttnn_layout45>
        "ttnn.deallocate"(%59) <{force = false}> : (tensor<2x64xf32, #ttnn_layout93>) -> ()
        %62 = "ttnn.concat"(%60, %61) <{dim = 1 : si32}> : (tensor<2x32xf32, #ttnn_layout45>, tensor<2x32xf32, #ttnn_layout45>) -> tensor<2x64xf32, #ttnn_layout93>
        "ttnn.deallocate"(%61) <{force = false}> : (tensor<2x32xf32, #ttnn_layout45>) -> ()
        "ttnn.deallocate"(%60) <{force = false}> : (tensor<2x32xf32, #ttnn_layout45>) -> ()
        %63 = "ttnn.typecast"(%62) <{dtype = #ttcore.supportedDataTypes<bf16>}> : (tensor<2x64xf32, #ttnn_layout93>) -> tensor<2x64xbf16, #ttnn_layout94>
        "ttnn.deallocate"(%62) <{force = false}> : (tensor<2x64xf32, #ttnn_layout93>) -> ()
        %64 = "ttnn.slice_static"(%39) <{begins = [0 : i32, 0 : i32, 64 : i32], ends = [2 : i32, 1 : i32, 128 : i32], step = [1 : i32, 1 : i32, 1 : i32]}> : (tensor<2x1x128xbf16, #ttnn_layout87>) -> tensor<2x1x64xbf16, #ttnn_layout88>
        "ttnn.deallocate"(%39) <{force = false}> : (tensor<2x1x128xbf16, #ttnn_layout87>) -> ()
        %65 = "ttnn.reshape"(%64) <{shape = [2 : i32, 64 : i32]}> : (tensor<2x1x64xbf16, #ttnn_layout88>) -> tensor<2x64xbf16, #ttnn_layout94>
        "ttnn.deallocate"(%64) <{force = false}> : (tensor<2x1x64xbf16, #ttnn_layout88>) -> ()
        %66 = "ttnn.concat"(%63, %65) <{dim = 1 : si32}> : (tensor<2x64xbf16, #ttnn_layout94>, tensor<2x64xbf16, #ttnn_layout94>) -> tensor<2x128xbf16, #ttnn_layout83>
        "ttnn.deallocate"(%65) <{force = false}> : (tensor<2x64xbf16, #ttnn_layout94>) -> ()
        "ttnn.deallocate"(%63) <{force = false}> : (tensor<2x64xbf16, #ttnn_layout94>) -> ()
        %67 = "ttnn.matmul"(%66, %arg8) <{compute_config = #ttnn.device_compute_kernel_config<math_fidelity = hifi4, fp32_dest_acc_en = true>, transpose_a = false, transpose_b = true}> : (tensor<2x128xbf16, #ttnn_layout83>, tensor<128x128xbf16, #ttnn_layout76>) -> tensor<2x128xbf16, #ttnn_layout83>
        "ttnn.deallocate"(%66) <{force = false}> : (tensor<2x128xbf16, #ttnn_layout83>) -> ()
        %68 = "ttnn.reshape"(%67) <{shape = [2 : i32, 1 : i32, 128 : i32]}> : (tensor<2x128xbf16, #ttnn_layout83>) -> tensor<2x1x128xbf16, #ttnn_layout87>
        "ttnn.deallocate"(%67) <{force = false}> : (tensor<2x128xbf16, #ttnn_layout83>) -> ()
        %69 = "ttnn.permute"(%68) <{permutation = array<i64: 1, 0, 2>}> : (tensor<2x1x128xbf16, #ttnn_layout87>) -> tensor<1x2x128xbf16, #ttnn_layout95>
        "ttnn.deallocate"(%68) <{force = false}> : (tensor<2x1x128xbf16, #ttnn_layout87>) -> ()
        %70 = "ttnn.reshape"(%69) <{shape = [1 : i32, 256 : i32]}> : (tensor<1x2x128xbf16, #ttnn_layout95>) -> tensor<1x256xbf16, #ttnn_layout96>
        "ttnn.deallocate"(%69) <{force = false}> : (tensor<1x2x128xbf16, #ttnn_layout95>) -> ()
        %71 = "ttnn.to_layout"(%70) <{layout = #ttnn.layout<row_major>}> : (tensor<1x256xbf16, #ttnn_layout96>) -> tensor<1x256xbf16, #ttnn_layout97>
        "ttnn.deallocate"(%70) <{force = false}> : (tensor<1x256xbf16, #ttnn_layout96>) -> ()
        %72 = "ttnn.embedding"(%12, %71) : (tensor<64x1xui32, #ttnn_layout46>, tensor<1x256xbf16, #ttnn_layout97>) -> tensor<64x1x256xbf16, #ttnn_layout98>
        "ttnn.deallocate"(%71) <{force = false}> : (tensor<1x256xbf16, #ttnn_layout97>) -> ()
        %73 = "ttnn.reshape"(%72) <{shape = [64 : i32, 2 : i32, 128 : i32]}> : (tensor<64x1x256xbf16, #ttnn_layout98>) -> tensor<64x2x128xbf16, #ttnn_layout99>
        "ttnn.deallocate"(%72) <{force = false}> : (tensor<64x1x256xbf16, #ttnn_layout98>) -> ()
        %74 = "ttnn.permute"(%73) <{permutation = array<i64: 1, 0, 2>}> : (tensor<64x2x128xbf16, #ttnn_layout99>) -> tensor<2x64x128xbf16, #ttnn_layout81>
        "ttnn.deallocate"(%73) <{force = false}> : (tensor<64x2x128xbf16, #ttnn_layout99>) -> ()
        %75 = "ttnn.where"(%29, %4, %74) : (tensor<1x64x1xbf16, #ttnn_layout>, tensor<1x1x1xbf16, #ttnn_layout32>, tensor<2x64x128xbf16, #ttnn_layout81>) -> tensor<2x64x128xbf16, #ttnn_layout81>
        "ttnn.deallocate"(%74) <{force = false}> : (tensor<2x64x128xbf16, #ttnn_layout81>) -> ()
        %76 = "ttnn.where"(%28, %75, %24) : (tensor<1x64x1xbf16, #ttnn_layout>, tensor<2x64x128xbf16, #ttnn_layout81>, tensor<2x64x128xbf16, #ttnn_layout81>) -> tensor<2x64x128xbf16, #ttnn_layout81>
        "ttnn.deallocate"(%75) <{force = false}> : (tensor<2x64x128xbf16, #ttnn_layout81>) -> ()
        "ttnn.deallocate"(%arg7) <{force = false}> : (tensor<4x64x128xbf16, #ttnn_layout75>) -> ()
        %77 = "ttnn.slice_static"(%76) <{begins = [0 : i32, 0 : i32, 0 : i32], ends = [2 : i32, 33 : i32, 128 : i32], step = [1 : i32, 1 : i32, 1 : i32]}> : (tensor<2x64x128xbf16, #ttnn_layout81>) -> tensor<2x33x128xbf16, #ttnn_layout81>
        %78 = "ttnn.reshape"(%35) <{shape = [1 : i32, 1 : i32, 4 : i32, 3072 : i32]}> : (tensor<4x3072xbf16, #ttnn_layout31>) -> tensor<1x1x4x3072xbf16, #ttnn_layout100>
        "ttnn.deallocate"(%35) <{force = false}> : (tensor<4x3072xbf16, #ttnn_layout31>) -> ()
        %79 = "ttnn.reduce_scatter"(%78) <{cluster_axis = 0 : ui32, compute_config = #ttnn.device_compute_kernel_config<math_fidelity = hifi4, math_approx_mode = false, fp32_dest_acc_en = true, packer_l1_acc = false>, reduce_type = #ttcore.reduce_type<sum>, scatter_dim = 2 : si32, topology = #ttcore.topology<ring>}> : (tensor<1x1x4x3072xbf16, #ttnn_layout100>) -> tensor<1x1x2x3072xbf16, #ttnn_layout100>
        "ttnn.deallocate"(%78) <{force = false}> : (tensor<1x1x4x3072xbf16, #ttnn_layout100>) -> ()
        %80 = "ttnn.reshape"(%79) <{shape = [2 : i32, 3072 : i32]}> : (tensor<1x1x2x3072xbf16, #ttnn_layout100>) -> tensor<2x3072xbf16, #ttnn_layout31>
        "ttnn.deallocate"(%79) <{force = false}> : (tensor<1x1x2x3072xbf16, #ttnn_layout100>) -> ()
        %81 = "ttnn.typecast"(%80) <{dtype = #ttcore.supportedDataTypes<f32>}> : (tensor<2x3072xbf16, #ttnn_layout31>) -> tensor<2x3072xf32, #ttnn_layout28>
        "ttnn.deallocate"(%80) <{force = false}> : (tensor<2x3072xbf16, #ttnn_layout31>) -> ()
        %82 = "ttnn.reshape"(%81) <{shape = [2 : i32, 1 : i32, 3072 : i32]}> : (tensor<2x3072xf32, #ttnn_layout28>) -> tensor<2x1x3072xf32, #ttnn_layout101>
        %83 = "ttnn.pow_scalar"(%82) <{rhs = 2.000000e+00 : f32}> : (tensor<2x1x3072xf32, #ttnn_layout101>) -> tensor<2x1x3072xf32, #ttnn_layout101>
        "ttnn.deallocate"(%82) <{force = false}> : (tensor<2x1x3072xf32, #ttnn_layout101>) -> ()
        %84 = "ttnn.mean"(%83) <{compute_config = #ttnn.device_compute_kernel_config<math_fidelity = hifi4, fp32_dest_acc_en = true>, dim_arg = [2 : i32], keep_dim = true}> : (tensor<2x1x3072xf32, #ttnn_layout101>) -> tensor<2x1x1xf32, #ttnn_layout43>
        "ttnn.deallocate"(%83) <{force = false}> : (tensor<2x1x3072xf32, #ttnn_layout101>) -> ()
        %85 = "ttnn.add"(%84, %9#0) <{dtype = #ttcore.supportedDataTypes<f32>}> : (tensor<2x1x1xf32, #ttnn_layout43>, tensor<2x1x1xf32, #ttnn_layout43>) -> tensor<2x1x1xf32, #ttnn_layout43>
        "ttnn.deallocate"(%84) <{force = false}> : (tensor<2x1x1xf32, #ttnn_layout43>) -> ()
        "ttnn.deallocate"(%9#0) <{force = false}> : (tensor<2x1x1xf32, #ttnn_layout43>) -> ()
        %86 = "ttnn.rsqrt"(%85) : (tensor<2x1x1xf32, #ttnn_layout43>) -> tensor<2x1x1xf32, #ttnn_layout43>
        "ttnn.deallocate"(%85) <{force = false}> : (tensor<2x1x1xf32, #ttnn_layout43>) -> ()
        %87 = "ttnn.reshape"(%86) <{shape = [2 : i32, 1 : i32]}> : (tensor<2x1x1xf32, #ttnn_layout43>) -> tensor<2x1xf32, #ttnn_layout45>
        "ttnn.deallocate"(%86) <{force = false}> : (tensor<2x1x1xf32, #ttnn_layout43>) -> ()
        %88 = "ttnn.multiply"(%81, %87) <{dtype = #ttcore.supportedDataTypes<f32>}> : (tensor<2x3072xf32, #ttnn_layout28>, tensor<2x1xf32, #ttnn_layout45>) -> tensor<2x3072xf32, #ttnn_layout28>
        "ttnn.deallocate"(%87) <{force = false}> : (tensor<2x1xf32, #ttnn_layout45>) -> ()
        "ttnn.deallocate"(%81) <{force = false}> : (tensor<2x3072xf32, #ttnn_layout28>) -> ()
        %89 = "ttnn.multiply"(%3, %88) <{dtype = #ttcore.supportedDataTypes<f32>}> : (tensor<1x3072xf32, #ttnn_layout28>, tensor<2x3072xf32, #ttnn_layout28>) -> tensor<2x3072xf32, #ttnn_layout28>
        "ttnn.deallocate"(%88) <{force = false}> : (tensor<2x3072xf32, #ttnn_layout28>) -> ()
        "ttnn.deallocate"(%3) <{force = false}> : (tensor<1x3072xf32, #ttnn_layout28>) -> ()
        %90 = "ttnn.typecast"(%89) <{dtype = #ttcore.supportedDataTypes<bf16>}> : (tensor<2x3072xf32, #ttnn_layout28>) -> tensor<2x3072xbf16, #ttnn_layout31>
        "ttnn.deallocate"(%89) <{force = false}> : (tensor<2x3072xf32, #ttnn_layout28>) -> ()
        %91 = "ttnn.matmul"(%90, %18) <{compute_config = #ttnn.device_compute_kernel_config<math_fidelity = hifi4, fp32_dest_acc_en = true>, transpose_a = false, transpose_b = true}> : (tensor<2x3072xbf16, #ttnn_layout31>, tensor<2048x3072xbf16, #ttnn_layout62>) -> tensor<2x2048xbf16, #ttnn_layout102>
        "ttnn.deallocate"(%18) <{force = false}> : (tensor<2048x3072xbf16, #ttnn_layout62>) -> ()
        %92 = "ttnn.reshape"(%91) <{shape = [2 : i32, 1 : i32, 16 : i32, 128 : i32]}> : (tensor<2x2048xbf16, #ttnn_layout102>) -> tensor<2x1x16x128xbf16, #ttnn_layout103>
        %93 = "ttnn.slice_static"(%92) <{begins = [0 : i32, 0 : i32, 0 : i32, 0 : i32], ends = [2 : i32, 1 : i32, 16 : i32, 64 : i32], step = [1 : i32, 1 : i32, 1 : i32, 1 : i32]}> : (tensor<2x1x16x128xbf16, #ttnn_layout103>) -> tensor<2x1x16x64xbf16, #ttnn_layout104>
        "ttnn.deallocate"(%92) <{force = false}> : (tensor<2x1x16x128xbf16, #ttnn_layout103>) -> ()
        %94 = "ttnn.typecast"(%93) <{dtype = #ttcore.supportedDataTypes<f32>}> : (tensor<2x1x16x64xbf16, #ttnn_layout104>) -> tensor<2x1x16x64xf32, #ttnn_layout105>
        "ttnn.deallocate"(%93) <{force = false}> : (tensor<2x1x16x64xbf16, #ttnn_layout104>) -> ()
        %95 = "ttnn.reshape"(%94) <{shape = [2 : i32, 1 : i32, 16 : i32, 2 : i32, 32 : i32]}> : (tensor<2x1x16x64xf32, #ttnn_layout105>) -> tensor<2x1x16x2x32xf32, #ttnn_layout106>
        "ttnn.deallocate"(%94) <{force = false}> : (tensor<2x1x16x64xf32, #ttnn_layout105>) -> ()
        %96 = "ttnn.permute"(%95) <{permutation = array<i64: 0, 1, 2, 4, 3>}> : (tensor<2x1x16x2x32xf32, #ttnn_layout106>) -> tensor<2x1x16x32x2xf32, #ttnn_layout106>
        "ttnn.deallocate"(%95) <{force = false}> : (tensor<2x1x16x2x32xf32, #ttnn_layout106>) -> ()
        %97 = "ttnn.slice_static"(%96) <{begins = [0 : i32, 0 : i32, 0 : i32, 0 : i32, 0 : i32], ends = [2 : i32, 1 : i32, 16 : i32, 32 : i32, 1 : i32], step = [1 : i32, 1 : i32, 1 : i32, 1 : i32, 1 : i32]}> : (tensor<2x1x16x32x2xf32, #ttnn_layout106>) -> tensor<2x1x16x32x1xf32, #ttnn_layout106>
        %98 = "ttnn.multiply"(%97, %48) <{dtype = #ttcore.supportedDataTypes<f32>}> : (tensor<2x1x16x32x1xf32, #ttnn_layout106>, tensor<1x1x1x32x1xf32, #ttnn_layout92>) -> tensor<2x1x16x32x1xf32, #ttnn_layout106>
        %99 = "ttnn.slice_static"(%96) <{begins = [0 : i32, 0 : i32, 0 : i32, 0 : i32, 1 : i32], ends = [2 : i32, 1 : i32, 16 : i32, 32 : i32, 2 : i32], step = [1 : i32, 1 : i32, 1 : i32, 1 : i32, 1 : i32]}> : (tensor<2x1x16x32x2xf32, #ttnn_layout106>) -> tensor<2x1x16x32x1xf32, #ttnn_layout106>
        "ttnn.deallocate"(%96) <{force = false}> : (tensor<2x1x16x32x2xf32, #ttnn_layout106>) -> ()
        %100 = "ttnn.multiply"(%99, %52) <{dtype = #ttcore.supportedDataTypes<f32>}> : (tensor<2x1x16x32x1xf32, #ttnn_layout106>, tensor<1x1x1x32x1xf32, #ttnn_layout92>) -> tensor<2x1x16x32x1xf32, #ttnn_layout106>
        %101 = "ttnn.subtract"(%98, %100) <{dtype = #ttcore.supportedDataTypes<f32>}> : (tensor<2x1x16x32x1xf32, #ttnn_layout106>, tensor<2x1x16x32x1xf32, #ttnn_layout106>) -> tensor<2x1x16x32x1xf32, #ttnn_layout106>
        "ttnn.deallocate"(%100) <{force = false}> : (tensor<2x1x16x32x1xf32, #ttnn_layout106>) -> ()
        "ttnn.deallocate"(%98) <{force = false}> : (tensor<2x1x16x32x1xf32, #ttnn_layout106>) -> ()
        %102 = "ttnn.multiply"(%97, %52) <{dtype = #ttcore.supportedDataTypes<f32>}> : (tensor<2x1x16x32x1xf32, #ttnn_layout106>, tensor<1x1x1x32x1xf32, #ttnn_layout92>) -> tensor<2x1x16x32x1xf32, #ttnn_layout106>
        "ttnn.deallocate"(%97) <{force = false}> : (tensor<2x1x16x32x1xf32, #ttnn_layout106>) -> ()
        %103 = "ttnn.multiply"(%99, %48) <{dtype = #ttcore.supportedDataTypes<f32>}> : (tensor<2x1x16x32x1xf32, #ttnn_layout106>, tensor<1x1x1x32x1xf32, #ttnn_layout92>) -> tensor<2x1x16x32x1xf32, #ttnn_layout106>
        "ttnn.deallocate"(%99) <{force = false}> : (tensor<2x1x16x32x1xf32, #ttnn_layout106>) -> ()
        %104 = "ttnn.add"(%102, %103) <{dtype = #ttcore.supportedDataTypes<f32>}> : (tensor<2x1x16x32x1xf32, #ttnn_layout106>, tensor<2x1x16x32x1xf32, #ttnn_layout106>) -> tensor<2x1x16x32x1xf32, #ttnn_layout106>
        "ttnn.deallocate"(%103) <{force = false}> : (tensor<2x1x16x32x1xf32, #ttnn_layout106>) -> ()
        "ttnn.deallocate"(%102) <{force = false}> : (tensor<2x1x16x32x1xf32, #ttnn_layout106>) -> ()
        %105 = "ttnn.concat"(%101, %104) <{dim = 4 : si32}> : (tensor<2x1x16x32x1xf32, #ttnn_layout106>, tensor<2x1x16x32x1xf32, #ttnn_layout106>) -> tensor<2x1x16x32x2xf32, #ttnn_layout106>
        "ttnn.deallocate"(%104) <{force = false}> : (tensor<2x1x16x32x1xf32, #ttnn_layout106>) -> ()
        "ttnn.deallocate"(%101) <{force = false}> : (tensor<2x1x16x32x1xf32, #ttnn_layout106>) -> ()
        %106 = "ttnn.reshape"(%105) <{shape = [32 : i32, 64 : i32]}> : (tensor<2x1x16x32x2xf32, #ttnn_layout106>) -> tensor<32x64xf32, #ttnn_layout93>
        "ttnn.deallocate"(%105) <{force = false}> : (tensor<2x1x16x32x2xf32, #ttnn_layout106>) -> ()
        %107 = "ttnn.slice_static"(%106) <{begins = [0 : i32, 0 : i32], ends = [32 : i32, 64 : i32], step = [1 : i32, 2 : i32]}> : (tensor<32x64xf32, #ttnn_layout93>) -> tensor<32x32xf32, #ttnn_layout45>
        %108 = "ttnn.slice_static"(%106) <{begins = [0 : i32, 1 : i32], ends = [32 : i32, 64 : i32], step = [1 : i32, 2 : i32]}> : (tensor<32x64xf32, #ttnn_layout93>) -> tensor<32x32xf32, #ttnn_layout45>
        "ttnn.deallocate"(%106) <{force = false}> : (tensor<32x64xf32, #ttnn_layout93>) -> ()
        %109 = "ttnn.concat"(%107, %108) <{dim = 1 : si32}> : (tensor<32x32xf32, #ttnn_layout45>, tensor<32x32xf32, #ttnn_layout45>) -> tensor<32x64xf32, #ttnn_layout93>
        "ttnn.deallocate"(%108) <{force = false}> : (tensor<32x32xf32, #ttnn_layout45>) -> ()
        "ttnn.deallocate"(%107) <{force = false}> : (tensor<32x32xf32, #ttnn_layout45>) -> ()
        %110 = "ttnn.typecast"(%109) <{dtype = #ttcore.supportedDataTypes<bf16>}> : (tensor<32x64xf32, #ttnn_layout93>) -> tensor<32x64xbf16, #ttnn_layout94>
        "ttnn.deallocate"(%109) <{force = false}> : (tensor<32x64xf32, #ttnn_layout93>) -> ()
        %111 = "ttnn.reshape"(%91) <{shape = [32 : i32, 128 : i32]}> : (tensor<2x2048xbf16, #ttnn_layout102>) -> tensor<32x128xbf16, #ttnn_layout83>
        "ttnn.deallocate"(%91) <{force = false}> : (tensor<2x2048xbf16, #ttnn_layout102>) -> ()
        %112 = "ttnn.slice_static"(%111) <{begins = [0 : i32, 64 : i32], ends = [32 : i32, 128 : i32], step = [1 : i32, 1 : i32]}> : (tensor<32x128xbf16, #ttnn_layout83>) -> tensor<32x64xbf16, #ttnn_layout94>
        "ttnn.deallocate"(%111) <{force = false}> : (tensor<32x128xbf16, #ttnn_layout83>) -> ()
        %113 = "ttnn.concat"(%110, %112) <{dim = 1 : si32}> : (tensor<32x64xbf16, #ttnn_layout94>, tensor<32x64xbf16, #ttnn_layout94>) -> tensor<32x128xbf16, #ttnn_layout83>
        "ttnn.deallocate"(%112) <{force = false}> : (tensor<32x64xbf16, #ttnn_layout94>) -> ()
        "ttnn.deallocate"(%110) <{force = false}> : (tensor<32x64xbf16, #ttnn_layout94>) -> ()
        %114 = "ttnn.matmul"(%113, %arg8) <{compute_config = #ttnn.device_compute_kernel_config<math_fidelity = hifi4, fp32_dest_acc_en = true>, transpose_a = false, transpose_b = true}> : (tensor<32x128xbf16, #ttnn_layout83>, tensor<128x128xbf16, #ttnn_layout76>) -> tensor<32x128xbf16, #ttnn_layout83>
        "ttnn.deallocate"(%113) <{force = false}> : (tensor<32x128xbf16, #ttnn_layout83>) -> ()
        "ttnn.deallocate"(%arg8) <{force = false}> : (tensor<128x128xbf16, #ttnn_layout76>) -> ()
        %115 = "ttnn.reshape"(%114) <{shape = [2 : i32, 16 : i32, 128 : i32]}> : (tensor<32x128xbf16, #ttnn_layout83>) -> tensor<2x16x128xbf16, #ttnn_layout87>
        "ttnn.deallocate"(%114) <{force = false}> : (tensor<32x128xbf16, #ttnn_layout83>) -> ()
        %116 = "ttnn.matmul"(%77, %115) <{compute_config = #ttnn.device_compute_kernel_config<math_fidelity = hifi4, fp32_dest_acc_en = true>, transpose_a = false, transpose_b = true}> : (tensor<2x33x128xbf16, #ttnn_layout81>, tensor<2x16x128xbf16, #ttnn_layout87>) -> tensor<2x33x16xbf16, #ttnn_layout107>
        "ttnn.deallocate"(%115) <{force = false}> : (tensor<2x16x128xbf16, #ttnn_layout87>) -> ()
        "ttnn.deallocate"(%77) <{force = false}> : (tensor<2x33x128xbf16, #ttnn_layout81>) -> ()
        %117 = "ttnn.maximum"(%116, %4) : (tensor<2x33x16xbf16, #ttnn_layout107>, tensor<1x1x1xbf16, #ttnn_layout32>) -> tensor<2x33x16xbf16, #ttnn_layout107>
        "ttnn.deallocate"(%116) <{force = false}> : (tensor<2x33x16xbf16, #ttnn_layout107>) -> ()
        %118 = "ttnn.reshape"(%34) <{shape = [1 : i32, 1 : i32, 4 : i32, 16 : i32]}> : (tensor<4x16xbf16, #ttnn_layout85>) -> tensor<1x1x4x16xbf16, #ttnn_layout108>
        "ttnn.deallocate"(%34) <{force = false}> : (tensor<4x16xbf16, #ttnn_layout85>) -> ()
        %119 = "ttnn.reduce_scatter"(%118) <{cluster_axis = 0 : ui32, compute_config = #ttnn.device_compute_kernel_config<math_fidelity = hifi4, math_approx_mode = false, fp32_dest_acc_en = true, packer_l1_acc = false>, reduce_type = #ttcore.reduce_type<sum>, scatter_dim = 2 : si32, topology = #ttcore.topology<ring>}> : (tensor<1x1x4x16xbf16, #ttnn_layout108>) -> tensor<1x1x2x16xbf16, #ttnn_layout108>
        "ttnn.deallocate"(%118) <{force = false}> : (tensor<1x1x4x16xbf16, #ttnn_layout108>) -> ()
        %120 = "ttnn.reshape"(%119) <{shape = [2 : i32, 1 : i32, 16 : i32]}> : (tensor<1x1x2x16xbf16, #ttnn_layout108>) -> tensor<2x1x16xbf16, #ttnn_layout109>
        "ttnn.deallocate"(%119) <{force = false}> : (tensor<1x1x2x16xbf16, #ttnn_layout108>) -> ()
        %121 = "ttnn.multiply"(%120, %7) <{dtype = #ttcore.supportedDataTypes<bf16>}> : (tensor<2x1x16xbf16, #ttnn_layout109>, tensor<1x1x1xbf16, #ttnn_layout32>) -> tensor<2x1x16xbf16, #ttnn_layout109>
        "ttnn.deallocate"(%120) <{force = false}> : (tensor<2x1x16xbf16, #ttnn_layout109>) -> ()
        "ttnn.deallocate"(%7) <{force = false}> : (tensor<1x1x1xbf16, #ttnn_layout32>) -> ()
        %122 = "ttnn.multiply"(%121, %13) <{dtype = #ttcore.supportedDataTypes<bf16>}> : (tensor<2x1x16xbf16, #ttnn_layout109>, tensor<1x1x1xbf16, #ttnn_layout32>) -> tensor<2x1x16xbf16, #ttnn_layout109>
        "ttnn.deallocate"(%121) <{force = false}> : (tensor<2x1x16xbf16, #ttnn_layout109>) -> ()
        "ttnn.deallocate"(%13) <{force = false}> : (tensor<1x1x1xbf16, #ttnn_layout32>) -> ()
        %123 = "ttnn.multiply"(%117, %122) <{dtype = #ttcore.supportedDataTypes<bf16>}> : (tensor<2x33x16xbf16, #ttnn_layout107>, tensor<2x1x16xbf16, #ttnn_layout109>) -> tensor<2x33x16xbf16, #ttnn_layout107>
        "ttnn.deallocate"(%122) <{force = false}> : (tensor<2x1x16xbf16, #ttnn_layout109>) -> ()
        "ttnn.deallocate"(%117) <{force = false}> : (tensor<2x33x16xbf16, #ttnn_layout107>) -> ()
        %124 = "ttnn.sum"(%123) <{compute_config = #ttnn.device_compute_kernel_config<math_fidelity = hifi4, fp32_dest_acc_en = true>, dim_arg = [2 : i32], keep_dim = false}> : (tensor<2x33x16xbf16, #ttnn_layout107>) -> tensor<2x33xbf16, #ttnn_layout94>
        "ttnn.deallocate"(%123) <{force = false}> : (tensor<2x33x16xbf16, #ttnn_layout107>) -> ()
        %125 = "ttnn.reshape"(%124) <{shape = [1 : i32, 2 : i32, 33 : i32]}> : (tensor<2x33xbf16, #ttnn_layout94>) -> tensor<1x2x33xbf16, #ttnn_layout110>
        "ttnn.deallocate"(%124) <{force = false}> : (tensor<2x33xbf16, #ttnn_layout94>) -> ()
        %126 = "ttnn.all_gather"(%125) <{all_gather_dim = 0 : si32, cluster_axis = 1 : ui32, topology = #ttcore.topology<linear>}> : (tensor<1x2x33xbf16, #ttnn_layout110>) -> tensor<4x2x33xbf16, #ttnn_layout111>
        "ttnn.deallocate"(%125) <{force = false}> : (tensor<1x2x33xbf16, #ttnn_layout110>) -> ()
        %127 = "ttnn.sum"(%126) <{compute_config = #ttnn.device_compute_kernel_config<math_fidelity = hifi4, fp32_dest_acc_en = true>, dim_arg = [0 : i32], keep_dim = false}> : (tensor<4x2x33xbf16, #ttnn_layout111>) -> tensor<2x33xbf16, #ttnn_layout94>
        "ttnn.deallocate"(%126) <{force = false}> : (tensor<4x2x33xbf16, #ttnn_layout111>) -> ()
        %128 = "ttnn.reshape"(%127) <{shape = [2 : i32, 1 : i32, 33 : i32]}> : (tensor<2x33xbf16, #ttnn_layout94>) -> tensor<2x1x33xbf16, #ttnn_layout88>
        "ttnn.deallocate"(%127) <{force = false}> : (tensor<2x33xbf16, #ttnn_layout94>) -> ()
        %values, %indices = "ttnn.topk"(%128) <{dim = -1 : i32, k = 33 : i32, largest = true, sorted = true}> : (tensor<2x1x33xbf16, #ttnn_layout88>) -> (tensor<2x1x33xbf16, #ttnn_layout88>, tensor<2x1x33xui16, #ttnn_layout112>)
        "ttnn.deallocate"(%values) <{force = false}> : (tensor<2x1x33xbf16, #ttnn_layout88>) -> ()
        "ttnn.deallocate"(%128) <{force = false}> : (tensor<2x1x33xbf16, #ttnn_layout88>) -> ()
        %129 = "ttnn.typecast"(%indices) <{dtype = #ttcore.supportedDataTypes<si32>}> : (tensor<2x1x33xui16, #ttnn_layout112>) -> tensor<2x1x33xsi32, #ttnn_layout113>
        "ttnn.deallocate"(%indices) <{force = false}> : (tensor<2x1x33xui16, #ttnn_layout112>) -> ()
        %130 = "ttnn.reshape"(%33) <{shape = [1 : i32, 1 : i32, 4 : i32, 576 : i32]}> : (tensor<4x576xbf16, #ttnn_layout84>) -> tensor<1x1x4x576xbf16, #ttnn_layout114>
        "ttnn.deallocate"(%33) <{force = false}> : (tensor<4x576xbf16, #ttnn_layout84>) -> ()
        %131 = "ttnn.reduce_scatter"(%130) <{cluster_axis = 0 : ui32, compute_config = #ttnn.device_compute_kernel_config<math_fidelity = hifi4, math_approx_mode = false, fp32_dest_acc_en = true, packer_l1_acc = false>, reduce_type = #ttcore.reduce_type<sum>, scatter_dim = 2 : si32, topology = #ttcore.topology<ring>}> : (tensor<1x1x4x576xbf16, #ttnn_layout114>) -> tensor<1x1x2x576xbf16, #ttnn_layout114>
        "ttnn.deallocate"(%130) <{force = false}> : (tensor<1x1x4x576xbf16, #ttnn_layout114>) -> ()
        %132 = "ttnn.reshape"(%131) <{shape = [2 : i32, 1 : i32, 576 : i32]}> : (tensor<1x1x2x576xbf16, #ttnn_layout114>) -> tensor<2x1x576xbf16, #ttnn_layout115>
        "ttnn.deallocate"(%131) <{force = false}> : (tensor<1x1x2x576xbf16, #ttnn_layout114>) -> ()
        %133 = "ttnn.slice_static"(%132) <{begins = [0 : i32, 0 : i32, 0 : i32], ends = [2 : i32, 1 : i32, 512 : i32], step = [1 : i32, 1 : i32, 1 : i32]}> : (tensor<2x1x576xbf16, #ttnn_layout115>) -> tensor<2x1x512xbf16, #ttnn_layout116>
        %134 = "ttnn.typecast"(%133) <{dtype = #ttcore.supportedDataTypes<f32>}> : (tensor<2x1x512xbf16, #ttnn_layout116>) -> tensor<2x1x512xf32, #ttnn_layout117>
        "ttnn.deallocate"(%133) <{force = false}> : (tensor<2x1x512xbf16, #ttnn_layout116>) -> ()
        %135 = "ttnn.permute"(%134) <{permutation = array<i64: 1, 0, 2>}> : (tensor<2x1x512xf32, #ttnn_layout117>) -> tensor<1x2x512xf32, #ttnn_layout66>
        "ttnn.deallocate"(%134) <{force = false}> : (tensor<2x1x512xf32, #ttnn_layout117>) -> ()
        %136 = "ttnn.pow_scalar"(%135) <{rhs = 2.000000e+00 : f32}> : (tensor<1x2x512xf32, #ttnn_layout66>) -> tensor<1x2x512xf32, #ttnn_layout66>
        %137 = "ttnn.mean"(%136) <{compute_config = #ttnn.device_compute_kernel_config<math_fidelity = hifi4, fp32_dest_acc_en = true>, dim_arg = [2 : i32], keep_dim = true}> : (tensor<1x2x512xf32, #ttnn_layout66>) -> tensor<1x2x1xf32, #ttnn_layout44>
        "ttnn.deallocate"(%136) <{force = false}> : (tensor<1x2x512xf32, #ttnn_layout66>) -> ()
        %138 = "ttnn.add"(%137, %9#1) <{dtype = #ttcore.supportedDataTypes<f32>}> : (tensor<1x2x1xf32, #ttnn_layout44>, tensor<1x2x1xf32, #ttnn_layout44>) -> tensor<1x2x1xf32, #ttnn_layout44>
        "ttnn.deallocate"(%137) <{force = false}> : (tensor<1x2x1xf32, #ttnn_layout44>) -> ()
        "ttnn.deallocate"(%9#1) <{force = false}> : (tensor<1x2x1xf32, #ttnn_layout44>) -> ()
        %139 = "ttnn.rsqrt"(%138) : (tensor<1x2x1xf32, #ttnn_layout44>) -> tensor<1x2x1xf32, #ttnn_layout44>
        "ttnn.deallocate"(%138) <{force = false}> : (tensor<1x2x1xf32, #ttnn_layout44>) -> ()
        %140 = "ttnn.multiply"(%135, %139) <{dtype = #ttcore.supportedDataTypes<f32>}> : (tensor<1x2x512xf32, #ttnn_layout66>, tensor<1x2x1xf32, #ttnn_layout44>) -> tensor<1x2x512xf32, #ttnn_layout66>
        "ttnn.deallocate"(%139) <{force = false}> : (tensor<1x2x1xf32, #ttnn_layout44>) -> ()
        "ttnn.deallocate"(%135) <{force = false}> : (tensor<1x2x512xf32, #ttnn_layout66>) -> ()
        %141 = "ttnn.multiply"(%19, %140) <{dtype = #ttcore.supportedDataTypes<f32>}> : (tensor<1x1x512xf32, #ttnn_layout66>, tensor<1x2x512xf32, #ttnn_layout66>) -> tensor<1x2x512xf32, #ttnn_layout66>
        "ttnn.deallocate"(%140) <{force = false}> : (tensor<1x2x512xf32, #ttnn_layout66>) -> ()
        "ttnn.deallocate"(%19) <{force = false}> : (tensor<1x1x512xf32, #ttnn_layout66>) -> ()
        %142 = "ttnn.typecast"(%141) <{dtype = #ttcore.supportedDataTypes<bf16>}> : (tensor<1x2x512xf32, #ttnn_layout66>) -> tensor<1x2x512xbf16, #ttnn_layout69>
        "ttnn.deallocate"(%141) <{force = false}> : (tensor<1x2x512xf32, #ttnn_layout66>) -> ()
        %143 = "ttnn.reshape"(%142) <{shape = [1 : i32, 1024 : i32]}> : (tensor<1x2x512xbf16, #ttnn_layout69>) -> tensor<1x1024xbf16, #ttnn_layout17>
        "ttnn.deallocate"(%142) <{force = false}> : (tensor<1x2x512xbf16, #ttnn_layout69>) -> ()
        %144 = "ttnn.to_layout"(%143) <{layout = #ttnn.layout<row_major>}> : (tensor<1x1024xbf16, #ttnn_layout17>) -> tensor<1x1024xbf16, #ttnn_layout118>
        "ttnn.deallocate"(%143) <{force = false}> : (tensor<1x1024xbf16, #ttnn_layout17>) -> ()
        %145 = "ttnn.embedding"(%12, %144) : (tensor<64x1xui32, #ttnn_layout46>, tensor<1x1024xbf16, #ttnn_layout118>) -> tensor<64x1x1024xbf16, #ttnn_layout119>
        "ttnn.deallocate"(%144) <{force = false}> : (tensor<1x1024xbf16, #ttnn_layout118>) -> ()
        %146 = "ttnn.reshape"(%145) <{shape = [64 : i32, 2 : i32, 512 : i32]}> : (tensor<64x1x1024xbf16, #ttnn_layout119>) -> tensor<64x2x512xbf16, #ttnn_layout120>
        "ttnn.deallocate"(%145) <{force = false}> : (tensor<64x1x1024xbf16, #ttnn_layout119>) -> ()
        %147 = "ttnn.permute"(%146) <{permutation = array<i64: 1, 0, 2>}> : (tensor<64x2x512xbf16, #ttnn_layout120>) -> tensor<2x64x512xbf16, #ttnn_layout78>
        "ttnn.deallocate"(%146) <{force = false}> : (tensor<64x2x512xbf16, #ttnn_layout120>) -> ()
        %148 = "ttnn.where"(%29, %4, %147) : (tensor<1x64x1xbf16, #ttnn_layout>, tensor<1x1x1xbf16, #ttnn_layout32>, tensor<2x64x512xbf16, #ttnn_layout78>) -> tensor<2x64x512xbf16, #ttnn_layout78>
        "ttnn.deallocate"(%147) <{force = false}> : (tensor<2x64x512xbf16, #ttnn_layout78>) -> ()
        %149 = "ttnn.where"(%28, %148, %21) : (tensor<1x64x1xbf16, #ttnn_layout>, tensor<2x64x512xbf16, #ttnn_layout78>, tensor<2x64x512xbf16, #ttnn_layout78>) -> tensor<2x64x512xbf16, #ttnn_layout78>
        "ttnn.deallocate"(%148) <{force = false}> : (tensor<2x64x512xbf16, #ttnn_layout78>) -> ()
        "ttnn.deallocate"(%arg0) <{force = false}> : (tensor<4x64x512xbf16, #ttnn_layout70>) -> ()
        %150 = "ttnn.slice_static"(%132) <{begins = [0 : i32, 0 : i32, 512 : i32], ends = [2 : i32, 1 : i32, 576 : i32], step = [1 : i32, 1 : i32, 1 : i32]}> : (tensor<2x1x576xbf16, #ttnn_layout115>) -> tensor<2x1x64xbf16, #ttnn_layout88>
        "ttnn.deallocate"(%132) <{force = false}> : (tensor<2x1x576xbf16, #ttnn_layout115>) -> ()
        %151 = "ttnn.typecast"(%150) <{dtype = #ttcore.supportedDataTypes<f32>}> : (tensor<2x1x64xbf16, #ttnn_layout88>) -> tensor<2x1x64xf32, #ttnn_layout89>
        "ttnn.deallocate"(%150) <{force = false}> : (tensor<2x1x64xbf16, #ttnn_layout88>) -> ()
        %152 = "ttnn.reshape"(%151) <{shape = [2 : i32, 1 : i32, 1 : i32, 32 : i32, 2 : i32]}> : (tensor<2x1x64xf32, #ttnn_layout89>) -> tensor<2x1x1x32x2xf32, #ttnn_layout90>
        "ttnn.deallocate"(%151) <{force = false}> : (tensor<2x1x64xf32, #ttnn_layout89>) -> ()
        %153 = "ttnn.slice_static"(%152) <{begins = [0 : i32, 0 : i32, 0 : i32, 0 : i32, 0 : i32], ends = [2 : i32, 1 : i32, 1 : i32, 32 : i32, 1 : i32], step = [1 : i32, 1 : i32, 1 : i32, 1 : i32, 1 : i32]}> : (tensor<2x1x1x32x2xf32, #ttnn_layout90>) -> tensor<2x1x1x32x1xf32, #ttnn_layout90>
        %154 = "ttnn.multiply"(%153, %48) <{dtype = #ttcore.supportedDataTypes<f32>}> : (tensor<2x1x1x32x1xf32, #ttnn_layout90>, tensor<1x1x1x32x1xf32, #ttnn_layout92>) -> tensor<2x1x1x32x1xf32, #ttnn_layout90>
        %155 = "ttnn.slice_static"(%152) <{begins = [0 : i32, 0 : i32, 0 : i32, 0 : i32, 1 : i32], ends = [2 : i32, 1 : i32, 1 : i32, 32 : i32, 2 : i32], step = [1 : i32, 1 : i32, 1 : i32, 1 : i32, 1 : i32]}> : (tensor<2x1x1x32x2xf32, #ttnn_layout90>) -> tensor<2x1x1x32x1xf32, #ttnn_layout90>
        "ttnn.deallocate"(%152) <{force = false}> : (tensor<2x1x1x32x2xf32, #ttnn_layout90>) -> ()
        %156 = "ttnn.multiply"(%155, %52) <{dtype = #ttcore.supportedDataTypes<f32>}> : (tensor<2x1x1x32x1xf32, #ttnn_layout90>, tensor<1x1x1x32x1xf32, #ttnn_layout92>) -> tensor<2x1x1x32x1xf32, #ttnn_layout90>
        %157 = "ttnn.subtract"(%154, %156) <{dtype = #ttcore.supportedDataTypes<f32>}> : (tensor<2x1x1x32x1xf32, #ttnn_layout90>, tensor<2x1x1x32x1xf32, #ttnn_layout90>) -> tensor<2x1x1x32x1xf32, #ttnn_layout90>
        "ttnn.deallocate"(%156) <{force = false}> : (tensor<2x1x1x32x1xf32, #ttnn_layout90>) -> ()
        "ttnn.deallocate"(%154) <{force = false}> : (tensor<2x1x1x32x1xf32, #ttnn_layout90>) -> ()
        %158 = "ttnn.multiply"(%153, %52) <{dtype = #ttcore.supportedDataTypes<f32>}> : (tensor<2x1x1x32x1xf32, #ttnn_layout90>, tensor<1x1x1x32x1xf32, #ttnn_layout92>) -> tensor<2x1x1x32x1xf32, #ttnn_layout90>
        "ttnn.deallocate"(%153) <{force = false}> : (tensor<2x1x1x32x1xf32, #ttnn_layout90>) -> ()
        %159 = "ttnn.multiply"(%155, %48) <{dtype = #ttcore.supportedDataTypes<f32>}> : (tensor<2x1x1x32x1xf32, #ttnn_layout90>, tensor<1x1x1x32x1xf32, #ttnn_layout92>) -> tensor<2x1x1x32x1xf32, #ttnn_layout90>
        "ttnn.deallocate"(%155) <{force = false}> : (tensor<2x1x1x32x1xf32, #ttnn_layout90>) -> ()
        %160 = "ttnn.add"(%158, %159) <{dtype = #ttcore.supportedDataTypes<f32>}> : (tensor<2x1x1x32x1xf32, #ttnn_layout90>, tensor<2x1x1x32x1xf32, #ttnn_layout90>) -> tensor<2x1x1x32x1xf32, #ttnn_layout90>
        "ttnn.deallocate"(%159) <{force = false}> : (tensor<2x1x1x32x1xf32, #ttnn_layout90>) -> ()
        "ttnn.deallocate"(%158) <{force = false}> : (tensor<2x1x1x32x1xf32, #ttnn_layout90>) -> ()
        %161 = "ttnn.concat"(%157, %160) <{dim = 4 : si32}> : (tensor<2x1x1x32x1xf32, #ttnn_layout90>, tensor<2x1x1x32x1xf32, #ttnn_layout90>) -> tensor<2x1x1x32x2xf32, #ttnn_layout90>
        "ttnn.deallocate"(%160) <{force = false}> : (tensor<2x1x1x32x1xf32, #ttnn_layout90>) -> ()
        "ttnn.deallocate"(%157) <{force = false}> : (tensor<2x1x1x32x1xf32, #ttnn_layout90>) -> ()
        %162 = "ttnn.typecast"(%161) <{dtype = #ttcore.supportedDataTypes<bf16>}> : (tensor<2x1x1x32x2xf32, #ttnn_layout90>) -> tensor<2x1x1x32x2xbf16, #ttnn_layout121>
        "ttnn.deallocate"(%161) <{force = false}> : (tensor<2x1x1x32x2xf32, #ttnn_layout90>) -> ()
        %163 = "ttnn.reshape"(%162) <{shape = [2 : i32, 1 : i32, 64 : i32]}> : (tensor<2x1x1x32x2xbf16, #ttnn_layout121>) -> tensor<2x1x64xbf16, #ttnn_layout88>
        "ttnn.deallocate"(%162) <{force = false}> : (tensor<2x1x1x32x2xbf16, #ttnn_layout121>) -> ()
        %164 = "ttnn.permute"(%163) <{permutation = array<i64: 1, 0, 2>}> : (tensor<2x1x64xbf16, #ttnn_layout88>) -> tensor<1x2x64xbf16, #ttnn_layout110>
        "ttnn.deallocate"(%163) <{force = false}> : (tensor<2x1x64xbf16, #ttnn_layout88>) -> ()
        %165 = "ttnn.reshape"(%164) <{shape = [1 : i32, 128 : i32]}> : (tensor<1x2x64xbf16, #ttnn_layout110>) -> tensor<1x128xbf16, #ttnn_layout83>
        "ttnn.deallocate"(%164) <{force = false}> : (tensor<1x2x64xbf16, #ttnn_layout110>) -> ()
        %166 = "ttnn.to_layout"(%165) <{layout = #ttnn.layout<row_major>}> : (tensor<1x128xbf16, #ttnn_layout83>) -> tensor<1x128xbf16, #ttnn_layout122>
        "ttnn.deallocate"(%165) <{force = false}> : (tensor<1x128xbf16, #ttnn_layout83>) -> ()
        %167 = "ttnn.embedding"(%12, %166) : (tensor<64x1xui32, #ttnn_layout46>, tensor<1x128xbf16, #ttnn_layout122>) -> tensor<64x1x128xbf16, #ttnn_layout99>
        "ttnn.deallocate"(%166) <{force = false}> : (tensor<1x128xbf16, #ttnn_layout122>) -> ()
        "ttnn.deallocate"(%12) <{force = false}> : (tensor<64x1xui32, #ttnn_layout46>) -> ()
        %168 = "ttnn.reshape"(%167) <{shape = [64 : i32, 2 : i32, 64 : i32]}> : (tensor<64x1x128xbf16, #ttnn_layout99>) -> tensor<64x2x64xbf16, #ttnn_layout123>
        "ttnn.deallocate"(%167) <{force = false}> : (tensor<64x1x128xbf16, #ttnn_layout99>) -> ()
        %169 = "ttnn.permute"(%168) <{permutation = array<i64: 1, 0, 2>}> : (tensor<64x2x64xbf16, #ttnn_layout123>) -> tensor<2x64x64xbf16, #ttnn_layout80>
        "ttnn.deallocate"(%168) <{force = false}> : (tensor<64x2x64xbf16, #ttnn_layout123>) -> ()
        %170 = "ttnn.where"(%29, %4, %169) : (tensor<1x64x1xbf16, #ttnn_layout>, tensor<1x1x1xbf16, #ttnn_layout32>, tensor<2x64x64xbf16, #ttnn_layout80>) -> tensor<2x64x64xbf16, #ttnn_layout80>
        "ttnn.deallocate"(%169) <{force = false}> : (tensor<2x64x64xbf16, #ttnn_layout80>) -> ()
        "ttnn.deallocate"(%29) <{force = false}> : (tensor<1x64x1xbf16, #ttnn_layout>) -> ()
        "ttnn.deallocate"(%4) <{force = false}> : (tensor<1x1x1xbf16, #ttnn_layout32>) -> ()
        %171 = "ttnn.where"(%28, %170, %23) : (tensor<1x64x1xbf16, #ttnn_layout>, tensor<2x64x64xbf16, #ttnn_layout80>, tensor<2x64x64xbf16, #ttnn_layout80>) -> tensor<2x64x64xbf16, #ttnn_layout80>
        "ttnn.deallocate"(%170) <{force = false}> : (tensor<2x64x64xbf16, #ttnn_layout80>) -> ()
        "ttnn.deallocate"(%28) <{force = false}> : (tensor<1x64x1xbf16, #ttnn_layout>) -> ()
        "ttnn.deallocate"(%arg5) <{force = false}> : (tensor<4x64x64xbf16, #ttnn_layout73>) -> ()
        %172 = "ttnn.matmul"(%90, %5) <{compute_config = #ttnn.device_compute_kernel_config<math_fidelity = hifi4, fp32_dest_acc_en = true>, transpose_a = false, transpose_b = true}> : (tensor<2x3072xbf16, #ttnn_layout31>, tensor<768x3072xbf16, #ttnn_layout35>) -> tensor<2x768xbf16, #ttnn_layout124>
        "ttnn.deallocate"(%90) <{force = false}> : (tensor<2x3072xbf16, #ttnn_layout31>) -> ()
        "ttnn.deallocate"(%5) <{force = false}> : (tensor<768x3072xbf16, #ttnn_layout35>) -> ()
        %173 = "ttnn.reshape"(%172) <{shape = [2 : i32, 1 : i32, 4 : i32, 192 : i32]}> : (tensor<2x768xbf16, #ttnn_layout124>) -> tensor<2x1x4x192xbf16, #ttnn_layout125>
        "ttnn.deallocate"(%172) <{force = false}> : (tensor<2x768xbf16, #ttnn_layout124>) -> ()
        %174 = "ttnn.slice_static"(%173) <{begins = [0 : i32, 0 : i32, 0 : i32, 0 : i32], ends = [2 : i32, 1 : i32, 4 : i32, 128 : i32], step = [1 : i32, 1 : i32, 1 : i32, 1 : i32]}> : (tensor<2x1x4x192xbf16, #ttnn_layout125>) -> tensor<2x1x4x128xbf16, #ttnn_layout103>
        %175 = "ttnn.permute"(%174) <{permutation = array<i64: 2, 0, 1, 3>}> : (tensor<2x1x4x128xbf16, #ttnn_layout103>) -> tensor<4x2x1x128xbf16, #ttnn_layout126>
        "ttnn.deallocate"(%174) <{force = false}> : (tensor<2x1x4x128xbf16, #ttnn_layout103>) -> ()
        %176 = "ttnn.reshape"(%175) <{shape = [4 : i32, 2 : i32, 128 : i32]}> : (tensor<4x2x1x128xbf16, #ttnn_layout126>) -> tensor<4x2x128xbf16, #ttnn_layout127>
        "ttnn.deallocate"(%175) <{force = false}> : (tensor<4x2x1x128xbf16, #ttnn_layout126>) -> ()
        %177 = "ttnn.matmul"(%176, %6#0) <{compute_config = #ttnn.device_compute_kernel_config<math_fidelity = hifi4, fp32_dest_acc_en = true>, transpose_a = false, transpose_b = false}> : (tensor<4x2x128xbf16, #ttnn_layout127>, tensor<4x128x512xbf16, #ttnn_layout39>) -> tensor<4x2x512xbf16, #ttnn_layout128>
        "ttnn.deallocate"(%176) <{force = false}> : (tensor<4x2x128xbf16, #ttnn_layout127>) -> ()
        "ttnn.deallocate"(%6#0) <{force = false}> : (tensor<4x128x512xbf16, #ttnn_layout39>) -> ()
        %178 = "ttnn.reshape"(%177) <{shape = [4 : i32, 2 : i32, 1 : i32, 512 : i32]}> : (tensor<4x2x512xbf16, #ttnn_layout128>) -> tensor<4x2x1x512xbf16, #ttnn_layout129>
        "ttnn.deallocate"(%177) <{force = false}> : (tensor<4x2x512xbf16, #ttnn_layout128>) -> ()
        %179 = "ttnn.permute"(%178) <{permutation = array<i64: 1, 2, 0, 3>}> : (tensor<4x2x1x512xbf16, #ttnn_layout129>) -> tensor<2x1x4x512xbf16, #ttnn_layout130>
        "ttnn.deallocate"(%178) <{force = false}> : (tensor<4x2x1x512xbf16, #ttnn_layout129>) -> ()
        %180 = "ttnn.slice_static"(%149) <{begins = [0 : i32, 0 : i32, 0 : i32], ends = [2 : i32, 33 : i32, 512 : i32], step = [1 : i32, 1 : i32, 1 : i32]}> : (tensor<2x64x512xbf16, #ttnn_layout78>) -> tensor<2x33x512xbf16, #ttnn_layout78>
        %181 = "ttnn.typecast"(%129) <{dtype = #ttcore.supportedDataTypes<u32>}> : (tensor<2x1x33xsi32, #ttnn_layout113>) -> tensor<2x1x33xui32, #ttnn_layout131>
        "ttnn.deallocate"(%129) <{force = false}> : (tensor<2x1x33xsi32, #ttnn_layout113>) -> ()
        %182 = "ttnn.reshape"(%181) <{shape = [2 : i32, 33 : i32, 1 : i32, 1 : i32]}> : (tensor<2x1x33xui32, #ttnn_layout131>) -> tensor<2x33x1x1xui32, #ttnn_layout132>
        "ttnn.deallocate"(%181) <{force = false}> : (tensor<2x1x33xui32, #ttnn_layout131>) -> ()
        %183 = "ttnn.repeat"(%182) <{repeat_dims = #ttnn.shape<1x1x512x1>}> : (tensor<2x33x1x1xui32, #ttnn_layout132>) -> tensor<2x33x512x1xui32, #ttnn_layout53>
        %184 = "ttnn.concat"(%15#0, %183, %14) <{dim = 3 : si32}> : (tensor<2x33x512x1xui32, #ttnn_layout53>, tensor<2x33x512x1xui32, #ttnn_layout53>, tensor<2x33x512x1xui32, #ttnn_layout53>) -> tensor<2x33x512x3xui32, #ttnn_layout53>
        "ttnn.deallocate"(%183) <{force = false}> : (tensor<2x33x512x1xui32, #ttnn_layout53>) -> ()
        "ttnn.deallocate"(%15#0) <{force = false}> : (tensor<2x33x512x1xui32, #ttnn_layout53>) -> ()
        "ttnn.deallocate"(%14) <{force = false}> : (tensor<2x33x512x1xui32, #ttnn_layout53>) -> ()
        %185 = "ttnn.all_gather"(%180) <{all_gather_dim = 0 : si32, cluster_axis = 0 : ui32, topology = #ttcore.topology<ring>}> : (tensor<2x33x512xbf16, #ttnn_layout78>) -> tensor<4x33x512xbf16, #ttnn_layout70>
        "ttnn.deallocate"(%180) <{force = false}> : (tensor<2x33x512xbf16, #ttnn_layout78>) -> ()
        %186 = "ttnn.reshape"(%185) <{shape = [67584 : i32, 1 : i32]}> : (tensor<4x33x512xbf16, #ttnn_layout70>) -> tensor<67584x1xbf16, #ttnn_layout133>
        "ttnn.deallocate"(%185) <{force = false}> : (tensor<4x33x512xbf16, #ttnn_layout70>) -> ()
        %187 = "ttnn.typecast"(%184) <{dtype = #ttcore.supportedDataTypes<f32>}> : (tensor<2x33x512x3xui32, #ttnn_layout53>) -> tensor<2x33x512x3xf32, #ttnn_layout134>
        "ttnn.deallocate"(%184) <{force = false}> : (tensor<2x33x512x3xui32, #ttnn_layout53>) -> ()
        %188 = "ttnn.matmul"(%187, %10) <{compute_config = #ttnn.device_compute_kernel_config<math_fidelity = hifi4, fp32_dest_acc_en = true>, transpose_a = false, transpose_b = false}> : (tensor<2x33x512x3xf32, #ttnn_layout134>, tensor<3x1xf32, #ttnn_layout45>) -> tensor<2x33x512x1xf32, #ttnn_layout134>
        "ttnn.deallocate"(%187) <{force = false}> : (tensor<2x33x512x3xf32, #ttnn_layout134>) -> ()
        "ttnn.deallocate"(%10) <{force = false}> : (tensor<3x1xf32, #ttnn_layout45>) -> ()
        %189 = "ttnn.reshape"(%188) <{shape = [1 : i32, 33792 : i32]}> : (tensor<2x33x512x1xf32, #ttnn_layout134>) -> tensor<1x33792xf32, #ttnn_layout135>
        "ttnn.deallocate"(%188) <{force = false}> : (tensor<2x33x512x1xf32, #ttnn_layout134>) -> ()
        %190 = "ttnn.typecast"(%189) <{dtype = #ttcore.supportedDataTypes<u32>}> : (tensor<1x33792xf32, #ttnn_layout135>) -> tensor<1x33792xui32, #ttnn_layout136>
        "ttnn.deallocate"(%189) <{force = false}> : (tensor<1x33792xf32, #ttnn_layout135>) -> ()
        %191 = "ttnn.to_layout"(%190) <{layout = #ttnn.layout<row_major>}> : (tensor<1x33792xui32, #ttnn_layout136>) -> tensor<1x33792xui32, #ttnn_layout137>
        "ttnn.deallocate"(%190) <{force = false}> : (tensor<1x33792xui32, #ttnn_layout136>) -> ()
        %192 = "ttnn.to_layout"(%186) <{layout = #ttnn.layout<row_major>}> : (tensor<67584x1xbf16, #ttnn_layout133>) -> tensor<67584x1xbf16, #ttnn_layout138>
        "ttnn.deallocate"(%186) <{force = false}> : (tensor<67584x1xbf16, #ttnn_layout133>) -> ()
        %193 = "ttnn.embedding"(%191, %192) : (tensor<1x33792xui32, #ttnn_layout137>, tensor<67584x1xbf16, #ttnn_layout138>) -> tensor<1x33792x1xbf16, #ttnn_layout139>
        "ttnn.deallocate"(%192) <{force = false}> : (tensor<67584x1xbf16, #ttnn_layout138>) -> ()
        "ttnn.deallocate"(%191) <{force = false}> : (tensor<1x33792xui32, #ttnn_layout137>) -> ()
        %194 = "ttnn.reshape"(%193) <{shape = [2 : i32, 33 : i32, 512 : i32]}> : (tensor<1x33792x1xbf16, #ttnn_layout139>) -> tensor<2x33x512xbf16, #ttnn_layout78>
        "ttnn.deallocate"(%193) <{force = false}> : (tensor<1x33792x1xbf16, #ttnn_layout139>) -> ()
        %195 = "ttnn.reshape"(%179) <{shape = [2 : i32, 4 : i32, 512 : i32]}> : (tensor<2x1x4x512xbf16, #ttnn_layout130>) -> tensor<2x4x512xbf16, #ttnn_layout116>
        "ttnn.deallocate"(%179) <{force = false}> : (tensor<2x1x4x512xbf16, #ttnn_layout130>) -> ()
        %196 = "ttnn.matmul"(%195, %194) <{compute_config = #ttnn.device_compute_kernel_config<math_fidelity = hifi4, fp32_dest_acc_en = true>, transpose_a = false, transpose_b = true}> : (tensor<2x4x512xbf16, #ttnn_layout116>, tensor<2x33x512xbf16, #ttnn_layout78>) -> tensor<2x4x33xbf16, #ttnn_layout88>
        "ttnn.deallocate"(%195) <{force = false}> : (tensor<2x4x512xbf16, #ttnn_layout116>) -> ()
        %197 = "ttnn.slice_static"(%173) <{begins = [0 : i32, 0 : i32, 0 : i32, 128 : i32], ends = [2 : i32, 1 : i32, 4 : i32, 192 : i32], step = [1 : i32, 1 : i32, 1 : i32, 1 : i32]}> : (tensor<2x1x4x192xbf16, #ttnn_layout125>) -> tensor<2x1x4x64xbf16, #ttnn_layout104>
        "ttnn.deallocate"(%173) <{force = false}> : (tensor<2x1x4x192xbf16, #ttnn_layout125>) -> ()
        %198 = "ttnn.typecast"(%197) <{dtype = #ttcore.supportedDataTypes<f32>}> : (tensor<2x1x4x64xbf16, #ttnn_layout104>) -> tensor<2x1x4x64xf32, #ttnn_layout105>
        "ttnn.deallocate"(%197) <{force = false}> : (tensor<2x1x4x64xbf16, #ttnn_layout104>) -> ()
        %199 = "ttnn.reshape"(%198) <{shape = [2 : i32, 1 : i32, 4 : i32, 32 : i32, 2 : i32]}> : (tensor<2x1x4x64xf32, #ttnn_layout105>) -> tensor<2x1x4x32x2xf32, #ttnn_layout140>
        "ttnn.deallocate"(%198) <{force = false}> : (tensor<2x1x4x64xf32, #ttnn_layout105>) -> ()
        %200 = "ttnn.slice_static"(%199) <{begins = [0 : i32, 0 : i32, 0 : i32, 0 : i32, 0 : i32], ends = [2 : i32, 1 : i32, 4 : i32, 32 : i32, 1 : i32], step = [1 : i32, 1 : i32, 1 : i32, 1 : i32, 1 : i32]}> : (tensor<2x1x4x32x2xf32, #ttnn_layout140>) -> tensor<2x1x4x32x1xf32, #ttnn_layout140>
        %201 = "ttnn.multiply"(%200, %48) <{dtype = #ttcore.supportedDataTypes<f32>}> : (tensor<2x1x4x32x1xf32, #ttnn_layout140>, tensor<1x1x1x32x1xf32, #ttnn_layout92>) -> tensor<2x1x4x32x1xf32, #ttnn_layout140>
        %202 = "ttnn.slice_static"(%199) <{begins = [0 : i32, 0 : i32, 0 : i32, 0 : i32, 1 : i32], ends = [2 : i32, 1 : i32, 4 : i32, 32 : i32, 2 : i32], step = [1 : i32, 1 : i32, 1 : i32, 1 : i32, 1 : i32]}> : (tensor<2x1x4x32x2xf32, #ttnn_layout140>) -> tensor<2x1x4x32x1xf32, #ttnn_layout140>
        "ttnn.deallocate"(%199) <{force = false}> : (tensor<2x1x4x32x2xf32, #ttnn_layout140>) -> ()
        %203 = "ttnn.multiply"(%202, %52) <{dtype = #ttcore.supportedDataTypes<f32>}> : (tensor<2x1x4x32x1xf32, #ttnn_layout140>, tensor<1x1x1x32x1xf32, #ttnn_layout92>) -> tensor<2x1x4x32x1xf32, #ttnn_layout140>
        %204 = "ttnn.subtract"(%201, %203) <{dtype = #ttcore.supportedDataTypes<f32>}> : (tensor<2x1x4x32x1xf32, #ttnn_layout140>, tensor<2x1x4x32x1xf32, #ttnn_layout140>) -> tensor<2x1x4x32x1xf32, #ttnn_layout140>
        "ttnn.deallocate"(%203) <{force = false}> : (tensor<2x1x4x32x1xf32, #ttnn_layout140>) -> ()
        "ttnn.deallocate"(%201) <{force = false}> : (tensor<2x1x4x32x1xf32, #ttnn_layout140>) -> ()
        %205 = "ttnn.multiply"(%200, %52) <{dtype = #ttcore.supportedDataTypes<f32>}> : (tensor<2x1x4x32x1xf32, #ttnn_layout140>, tensor<1x1x1x32x1xf32, #ttnn_layout92>) -> tensor<2x1x4x32x1xf32, #ttnn_layout140>
        "ttnn.deallocate"(%200) <{force = false}> : (tensor<2x1x4x32x1xf32, #ttnn_layout140>) -> ()
        "ttnn.deallocate"(%52) <{force = false}> : (tensor<1x1x1x32x1xf32, #ttnn_layout92>) -> ()
        %206 = "ttnn.multiply"(%202, %48) <{dtype = #ttcore.supportedDataTypes<f32>}> : (tensor<2x1x4x32x1xf32, #ttnn_layout140>, tensor<1x1x1x32x1xf32, #ttnn_layout92>) -> tensor<2x1x4x32x1xf32, #ttnn_layout140>
        "ttnn.deallocate"(%202) <{force = false}> : (tensor<2x1x4x32x1xf32, #ttnn_layout140>) -> ()
        "ttnn.deallocate"(%48) <{force = false}> : (tensor<1x1x1x32x1xf32, #ttnn_layout92>) -> ()
        %207 = "ttnn.add"(%205, %206) <{dtype = #ttcore.supportedDataTypes<f32>}> : (tensor<2x1x4x32x1xf32, #ttnn_layout140>, tensor<2x1x4x32x1xf32, #ttnn_layout140>) -> tensor<2x1x4x32x1xf32, #ttnn_layout140>
        "ttnn.deallocate"(%206) <{force = false}> : (tensor<2x1x4x32x1xf32, #ttnn_layout140>) -> ()
        "ttnn.deallocate"(%205) <{force = false}> : (tensor<2x1x4x32x1xf32, #ttnn_layout140>) -> ()
        %208 = "ttnn.concat"(%204, %207) <{dim = 4 : si32}> : (tensor<2x1x4x32x1xf32, #ttnn_layout140>, tensor<2x1x4x32x1xf32, #ttnn_layout140>) -> tensor<2x1x4x32x2xf32, #ttnn_layout140>
        "ttnn.deallocate"(%207) <{force = false}> : (tensor<2x1x4x32x1xf32, #ttnn_layout140>) -> ()
        "ttnn.deallocate"(%204) <{force = false}> : (tensor<2x1x4x32x1xf32, #ttnn_layout140>) -> ()
        %209 = "ttnn.typecast"(%208) <{dtype = #ttcore.supportedDataTypes<bf16>}> : (tensor<2x1x4x32x2xf32, #ttnn_layout140>) -> tensor<2x1x4x32x2xbf16, #ttnn_layout141>
        "ttnn.deallocate"(%208) <{force = false}> : (tensor<2x1x4x32x2xf32, #ttnn_layout140>) -> ()
        %210 = "ttnn.reshape"(%209) <{shape = [2 : i32, 4 : i32, 64 : i32]}> : (tensor<2x1x4x32x2xbf16, #ttnn_layout141>) -> tensor<2x4x64xbf16, #ttnn_layout88>
        "ttnn.deallocate"(%209) <{force = false}> : (tensor<2x1x4x32x2xbf16, #ttnn_layout141>) -> ()
        %211 = "ttnn.slice_static"(%171) <{begins = [0 : i32, 0 : i32, 0 : i32], ends = [2 : i32, 33 : i32, 64 : i32], step = [1 : i32, 1 : i32, 1 : i32]}> : (tensor<2x64x64xbf16, #ttnn_layout80>) -> tensor<2x33x64xbf16, #ttnn_layout80>
        %212 = "ttnn.repeat"(%182) <{repeat_dims = #ttnn.shape<1x1x64x1>}> : (tensor<2x33x1x1xui32, #ttnn_layout132>) -> tensor<2x33x64x1xui32, #ttnn_layout56>
        "ttnn.deallocate"(%182) <{force = false}> : (tensor<2x33x1x1xui32, #ttnn_layout132>) -> ()
        %213 = "ttnn.concat"(%15#1, %212, %16) <{dim = 3 : si32}> : (tensor<2x33x64x1xui32, #ttnn_layout56>, tensor<2x33x64x1xui32, #ttnn_layout56>, tensor<2x33x64x1xui32, #ttnn_layout56>) -> tensor<2x33x64x3xui32, #ttnn_layout56>
        "ttnn.deallocate"(%212) <{force = false}> : (tensor<2x33x64x1xui32, #ttnn_layout56>) -> ()
        "ttnn.deallocate"(%16) <{force = false}> : (tensor<2x33x64x1xui32, #ttnn_layout56>) -> ()
        "ttnn.deallocate"(%15#1) <{force = false}> : (tensor<2x33x64x1xui32, #ttnn_layout56>) -> ()
        %214 = "ttnn.all_gather"(%211) <{all_gather_dim = 0 : si32, cluster_axis = 0 : ui32, topology = #ttcore.topology<ring>}> : (tensor<2x33x64xbf16, #ttnn_layout80>) -> tensor<4x33x64xbf16, #ttnn_layout73>
        "ttnn.deallocate"(%211) <{force = false}> : (tensor<2x33x64xbf16, #ttnn_layout80>) -> ()
        %215 = "ttnn.reshape"(%214) <{shape = [8448 : i32, 1 : i32]}> : (tensor<4x33x64xbf16, #ttnn_layout73>) -> tensor<8448x1xbf16, #ttnn_layout142>
        "ttnn.deallocate"(%214) <{force = false}> : (tensor<4x33x64xbf16, #ttnn_layout73>) -> ()
        %216 = "ttnn.typecast"(%213) <{dtype = #ttcore.supportedDataTypes<f32>}> : (tensor<2x33x64x3xui32, #ttnn_layout56>) -> tensor<2x33x64x3xf32, #ttnn_layout143>
        "ttnn.deallocate"(%213) <{force = false}> : (tensor<2x33x64x3xui32, #ttnn_layout56>) -> ()
        %217 = "ttnn.matmul"(%216, %17) <{compute_config = #ttnn.device_compute_kernel_config<math_fidelity = hifi4, fp32_dest_acc_en = true>, transpose_a = false, transpose_b = false}> : (tensor<2x33x64x3xf32, #ttnn_layout143>, tensor<3x1xf32, #ttnn_layout45>) -> tensor<2x33x64x1xf32, #ttnn_layout143>
        "ttnn.deallocate"(%216) <{force = false}> : (tensor<2x33x64x3xf32, #ttnn_layout143>) -> ()
        "ttnn.deallocate"(%17) <{force = false}> : (tensor<3x1xf32, #ttnn_layout45>) -> ()
        %218 = "ttnn.reshape"(%217) <{shape = [1 : i32, 4224 : i32]}> : (tensor<2x33x64x1xf32, #ttnn_layout143>) -> tensor<1x4224xf32, #ttnn_layout144>
        "ttnn.deallocate"(%217) <{force = false}> : (tensor<2x33x64x1xf32, #ttnn_layout143>) -> ()
        %219 = "ttnn.typecast"(%218) <{dtype = #ttcore.supportedDataTypes<u32>}> : (tensor<1x4224xf32, #ttnn_layout144>) -> tensor<1x4224xui32, #ttnn_layout145>
        "ttnn.deallocate"(%218) <{force = false}> : (tensor<1x4224xf32, #ttnn_layout144>) -> ()
        %220 = "ttnn.to_layout"(%219) <{layout = #ttnn.layout<row_major>}> : (tensor<1x4224xui32, #ttnn_layout145>) -> tensor<1x4224xui32, #ttnn_layout146>
        "ttnn.deallocate"(%219) <{force = false}> : (tensor<1x4224xui32, #ttnn_layout145>) -> ()
        %221 = "ttnn.to_layout"(%215) <{layout = #ttnn.layout<row_major>}> : (tensor<8448x1xbf16, #ttnn_layout142>) -> tensor<8448x1xbf16, #ttnn_layout147>
        "ttnn.deallocate"(%215) <{force = false}> : (tensor<8448x1xbf16, #ttnn_layout142>) -> ()
        %222 = "ttnn.embedding"(%220, %221) : (tensor<1x4224xui32, #ttnn_layout146>, tensor<8448x1xbf16, #ttnn_layout147>) -> tensor<1x4224x1xbf16, #ttnn_layout148>
        "ttnn.deallocate"(%221) <{force = false}> : (tensor<8448x1xbf16, #ttnn_layout147>) -> ()
        "ttnn.deallocate"(%220) <{force = false}> : (tensor<1x4224xui32, #ttnn_layout146>) -> ()
        %223 = "ttnn.reshape"(%222) <{shape = [2 : i32, 33 : i32, 64 : i32]}> : (tensor<1x4224x1xbf16, #ttnn_layout148>) -> tensor<2x33x64xbf16, #ttnn_layout80>
        "ttnn.deallocate"(%222) <{force = false}> : (tensor<1x4224x1xbf16, #ttnn_layout148>) -> ()
        %224 = "ttnn.matmul"(%210, %223) <{compute_config = #ttnn.device_compute_kernel_config<math_fidelity = hifi4, fp32_dest_acc_en = true>, transpose_a = false, transpose_b = true}> : (tensor<2x4x64xbf16, #ttnn_layout88>, tensor<2x33x64xbf16, #ttnn_layout80>) -> tensor<2x4x33xbf16, #ttnn_layout88>
        "ttnn.deallocate"(%223) <{force = false}> : (tensor<2x33x64xbf16, #ttnn_layout80>) -> ()
        "ttnn.deallocate"(%210) <{force = false}> : (tensor<2x4x64xbf16, #ttnn_layout88>) -> ()
        %225 = "ttnn.add"(%196, %224) <{dtype = #ttcore.supportedDataTypes<bf16>}> : (tensor<2x4x33xbf16, #ttnn_layout88>, tensor<2x4x33xbf16, #ttnn_layout88>) -> tensor<2x4x33xbf16, #ttnn_layout88>
        "ttnn.deallocate"(%224) <{force = false}> : (tensor<2x4x33xbf16, #ttnn_layout88>) -> ()
        "ttnn.deallocate"(%196) <{force = false}> : (tensor<2x4x33xbf16, #ttnn_layout88>) -> ()
        %226 = "ttnn.multiply"(%225, %8) <{dtype = #ttcore.supportedDataTypes<bf16>}> : (tensor<2x4x33xbf16, #ttnn_layout88>, tensor<1x1x1xbf16, #ttnn_layout32>) -> tensor<2x4x33xbf16, #ttnn_layout88>
        "ttnn.deallocate"(%225) <{force = false}> : (tensor<2x4x33xbf16, #ttnn_layout88>) -> ()
        "ttnn.deallocate"(%8) <{force = false}> : (tensor<1x1x1xbf16, #ttnn_layout32>) -> ()
        %227 = "ttnn.softmax"(%226) <{compute_config = #ttnn.device_compute_kernel_config<math_fidelity = hifi4, fp32_dest_acc_en = true>, dimension = 2 : si32, numericStable = true}> : (tensor<2x4x33xbf16, #ttnn_layout88>) -> tensor<2x4x33xbf16, #ttnn_layout88>
        "ttnn.deallocate"(%226) <{force = false}> : (tensor<2x4x33xbf16, #ttnn_layout88>) -> ()
        %228 = "ttnn.matmul"(%227, %194) <{compute_config = #ttnn.device_compute_kernel_config<math_fidelity = hifi4, fp32_dest_acc_en = true>, transpose_a = false, transpose_b = false}> : (tensor<2x4x33xbf16, #ttnn_layout88>, tensor<2x33x512xbf16, #ttnn_layout78>) -> tensor<2x4x512xbf16, #ttnn_layout116>
        "ttnn.deallocate"(%227) <{force = false}> : (tensor<2x4x33xbf16, #ttnn_layout88>) -> ()
        "ttnn.deallocate"(%194) <{force = false}> : (tensor<2x33x512xbf16, #ttnn_layout78>) -> ()
        %229 = "ttnn.reshape"(%228) <{shape = [2 : i32, 1 : i32, 4 : i32, 512 : i32]}> : (tensor<2x4x512xbf16, #ttnn_layout116>) -> tensor<2x1x4x512xbf16, #ttnn_layout130>
        "ttnn.deallocate"(%228) <{force = false}> : (tensor<2x4x512xbf16, #ttnn_layout116>) -> ()
        %230 = "ttnn.permute"(%229) <{permutation = array<i64: 2, 0, 1, 3>}> : (tensor<2x1x4x512xbf16, #ttnn_layout130>) -> tensor<4x2x1x512xbf16, #ttnn_layout129>
        "ttnn.deallocate"(%229) <{force = false}> : (tensor<2x1x4x512xbf16, #ttnn_layout130>) -> ()
        %231 = "ttnn.reshape"(%230) <{shape = [4 : i32, 2 : i32, 512 : i32]}> : (tensor<4x2x1x512xbf16, #ttnn_layout129>) -> tensor<4x2x512xbf16, #ttnn_layout128>
        "ttnn.deallocate"(%230) <{force = false}> : (tensor<4x2x1x512xbf16, #ttnn_layout129>) -> ()
        %232 = "ttnn.matmul"(%231, %6#1) <{compute_config = #ttnn.device_compute_kernel_config<math_fidelity = hifi4, fp32_dest_acc_en = true>, transpose_a = false, transpose_b = true}> : (tensor<4x2x512xbf16, #ttnn_layout128>, tensor<4x128x512xbf16, #ttnn_layout39>) -> tensor<4x2x128xbf16, #ttnn_layout127>
        "ttnn.deallocate"(%231) <{force = false}> : (tensor<4x2x512xbf16, #ttnn_layout128>) -> ()
        "ttnn.deallocate"(%6#1) <{force = false}> : (tensor<4x128x512xbf16, #ttnn_layout39>) -> ()
        %233 = "ttnn.reshape"(%232) <{shape = [4 : i32, 2 : i32, 1 : i32, 128 : i32]}> : (tensor<4x2x128xbf16, #ttnn_layout127>) -> tensor<4x2x1x128xbf16, #ttnn_layout126>
        "ttnn.deallocate"(%232) <{force = false}> : (tensor<4x2x128xbf16, #ttnn_layout127>) -> ()
        %234 = "ttnn.permute"(%233) <{permutation = array<i64: 1, 2, 0, 3>}> : (tensor<4x2x1x128xbf16, #ttnn_layout126>) -> tensor<2x1x4x128xbf16, #ttnn_layout103>
        "ttnn.deallocate"(%233) <{force = false}> : (tensor<4x2x1x128xbf16, #ttnn_layout126>) -> ()
        %235 = "ttnn.reshape"(%234) <{shape = [2 : i32, 512 : i32]}> : (tensor<2x1x4x128xbf16, #ttnn_layout103>) -> tensor<2x512xbf16, #ttnn_layout149>
        "ttnn.deallocate"(%234) <{force = false}> : (tensor<2x1x4x128xbf16, #ttnn_layout103>) -> ()
        %236 = "ttnn.all_gather"(%235) <{all_gather_dim = 0 : si32, cluster_axis = 0 : ui32, topology = #ttcore.topology<ring>}> : (tensor<2x512xbf16, #ttnn_layout149>) -> tensor<4x512xbf16, #ttnn_layout149>
        "ttnn.deallocate"(%235) <{force = false}> : (tensor<2x512xbf16, #ttnn_layout149>) -> ()
        %237 = "ttnn.matmul"(%236, %2) <{compute_config = #ttnn.device_compute_kernel_config<math_fidelity = hifi4, fp32_dest_acc_en = true>, transpose_a = false, transpose_b = true}> : (tensor<4x512xbf16, #ttnn_layout149>, tensor<1024x512xbf16, #ttnn_layout24>) -> tensor<4x1024xbf16, #ttnn_layout17>
        "ttnn.deallocate"(%236) <{force = false}> : (tensor<4x512xbf16, #ttnn_layout149>) -> ()
        "ttnn.deallocate"(%2) <{force = false}> : (tensor<1024x512xbf16, #ttnn_layout24>) -> ()
        %238 = "ttnn.reshape"(%237) <{shape = [1 : i32, 1 : i32, 4 : i32, 1024 : i32]}> : (tensor<4x1024xbf16, #ttnn_layout17>) -> tensor<1x1x4x1024xbf16, #ttnn_layout150>
        "ttnn.deallocate"(%237) <{force = false}> : (tensor<4x1024xbf16, #ttnn_layout17>) -> ()
        %239 = "ttnn.reduce_scatter"(%238) <{cluster_axis = 1 : ui32, compute_config = #ttnn.device_compute_kernel_config<math_fidelity = hifi4, math_approx_mode = false, fp32_dest_acc_en = true, packer_l1_acc = false>, reduce_type = #ttcore.reduce_type<sum>, scatter_dim = 3 : si32, topology = #ttcore.topology<linear>}> : (tensor<1x1x4x1024xbf16, #ttnn_layout150>) -> tensor<1x1x4x256xbf16, #ttnn_layout151>
        "ttnn.deallocate"(%238) <{force = false}> : (tensor<1x1x4x1024xbf16, #ttnn_layout150>) -> ()
        %240 = "ttnn.reshape"(%239) <{shape = [4 : i32, 256 : i32]}> : (tensor<1x1x4x256xbf16, #ttnn_layout151>) -> tensor<4x256xbf16, #ttnn_layout96>
        "ttnn.deallocate"(%239) <{force = false}> : (tensor<1x1x4x256xbf16, #ttnn_layout151>) -> ()
        %241 = "ttnn.all_gather"(%240) <{all_gather_dim = 1 : si32, cluster_axis = 1 : ui32, topology = #ttcore.topology<linear>}> : (tensor<4x256xbf16, #ttnn_layout96>) -> tensor<4x1024xbf16, #ttnn_layout17>
        "ttnn.deallocate"(%240) <{force = false}> : (tensor<4x256xbf16, #ttnn_layout96>) -> ()
        %242 = "ttnn.reshape"(%241) <{shape = [4 : i32, 1 : i32, 1024 : i32]}> : (tensor<4x1024xbf16, #ttnn_layout17>) -> tensor<4x1x1024xbf16, #ttnn_layout79>
        "ttnn.deallocate"(%241) <{force = false}> : (tensor<4x1024xbf16, #ttnn_layout17>) -> ()
        %243 = "ttnn.mesh_shard"(%149, %20) <{shard_dims = array<i64: 0, -1>, shard_direction = #ttcore.shard_direction<shard_to_full>, shard_shape = array<i64: 2, 1, 1>, shard_type = #ttcore.shard_type<identity>}> : (tensor<2x64x512xbf16, #ttnn_layout78>, !ttnn.device) -> tensor<4x64x512xbf16, #ttnn_layout70>
        %244 = "ttnn.mesh_shard"(%171, %20) <{shard_dims = array<i64: 0, -1>, shard_direction = #ttcore.shard_direction<shard_to_full>, shard_shape = array<i64: 2, 1, 1>, shard_type = #ttcore.shard_type<identity>}> : (tensor<2x64x64xbf16, #ttnn_layout80>, !ttnn.device) -> tensor<4x64x64xbf16, #ttnn_layout73>
        %245 = "ttnn.mesh_shard"(%76, %20) <{shard_dims = array<i64: 0, -1>, shard_direction = #ttcore.shard_direction<shard_to_full>, shard_shape = array<i64: 2, 1, 1>, shard_type = #ttcore.shard_type<identity>}> : (tensor<2x64x128xbf16, #ttnn_layout81>, !ttnn.device) -> tensor<4x64x128xbf16, #ttnn_layout75>
        %246 = "ttnn.mesh_shard"(%242, %20) <{shard_dims = array<i64: 2, -1>, shard_direction = #ttcore.shard_direction<shard_to_full>, shard_shape = array<i64: 1, 1, 2>, shard_type = #ttcore.shard_type<identity>}> : (tensor<4x1x1024xbf16, #ttnn_layout79>, !ttnn.device) -> tensor<4x1x2048xbf16, #ttnn_layout71>
        return %243, %244, %245, %246 : tensor<4x64x512xbf16, #ttnn_layout70>, tensor<4x64x64xbf16, #ttnn_layout73>, tensor<4x64x128xbf16, #ttnn_layout75>, tensor<4x1x2048xbf16, #ttnn_layout71>
      }
    }
  }
}




#dram = #ttnn.buffer_type<dram>
#system_desc = #ttcore.system_desc<[{role = host, target_triple = "x86_64-pc-linux"}], [{arch = <wormhole_b0>, grid = 8x8, coord_translation_offsets = 18x18, l1_size = 1499136, num_dram_channels = 12, dram_channel_size = 1073741824, noc_l1_address_align_bytes = 16, pcie_address_align_bytes = 32, noc_dram_address_align_bytes = 32, l1_unreserved_base = 103712, erisc_l1_unreserved_base = 98304, dram_unreserved_base = 1920032, dram_unreserved_end = 1073136832, supported_data_types = [<f32>, <f16>, <bf16>, <bfp_f8>, <bfp_bf8>, <bfp_f4>, <bfp_bf4>, <bfp_f2>, <bfp_bf2>, <u32>, <u16>, <u8>, <si32>], supported_tile_sizes = [ 4x16,  16x16,  32x16,  4x32,  16x32,  32x32], dst_physical_size_tiles = 16, num_cbs = 64, num_compute_threads = 1, num_datamovement_threads = 2}, {arch = <wormhole_b0>, grid = 8x8, coord_translation_offsets = 18x18, l1_size = 1499136, num_dram_channels = 12, dram_channel_size = 1073741824, noc_l1_address_align_bytes = 16, pcie_address_align_bytes = 32, noc_dram_address_align_bytes = 32, l1_unreserved_base = 103712, erisc_l1_unreserved_base = 98304, dram_unreserved_base = 1920032, dram_unreserved_end = 1073136832, supported_data_types = [<f32>, <f16>, <bf16>, <bfp_f8>, <bfp_bf8>, <bfp_f4>, <bfp_bf4>, <bfp_f2>, <bfp_bf2>, <u32>, <u16>, <u8>, <si32>], supported_tile_sizes = [ 4x16,  16x16,  32x16,  4x32,  16x32,  32x32], dst_physical_size_tiles = 16, num_cbs = 64, num_compute_threads = 1, num_datamovement_threads = 2}, {arch = <wormhole_b0>, grid = 8x8, coord_translation_offsets = 18x18, l1_size = 1499136, num_dram_channels = 12, dram_channel_size = 1073741824, noc_l1_address_align_bytes = 16, pcie_address_align_bytes = 32, noc_dram_address_align_bytes = 32, l1_unreserved_base = 103712, erisc_l1_unreserved_base = 98304, dram_unreserved_base = 1920032, dram_unreserved_end = 1073136832, supported_data_types = [<f32>, <f16>, <bf16>, <bfp_f8>, <bfp_bf8>, <bfp_f4>, <bfp_bf4>, <bfp_f2>, <bfp_bf2>, <u32>, <u16>, <u8>, <si32>], supported_tile_sizes = [ 4x16,  16x16,  32x16,  4x32,  16x32,  32x32], dst_physical_size_tiles = 16, num_cbs = 64, num_compute_threads = 1, num_datamovement_threads = 2}, {arch = <wormhole_b0>, grid = 8x8, coord_translation_offsets = 18x18, l1_size = 1499136, num_dram_channels = 12, dram_channel_size = 1073741824, noc_l1_address_align_bytes = 16, pcie_address_align_bytes = 32, noc_dram_address_align_bytes = 32, l1_unreserved_base = 103712, erisc_l1_unreserved_base = 98304, dram_unreserved_base = 1920032, dram_unreserved_end = 1073136832, supported_data_types = [<f32>, <f16>, <bf16>, <bfp_f8>, <bfp_bf8>, <bfp_f4>, <bfp_bf4>, <bfp_f2>, <bfp_bf2>, <u32>, <u16>, <u8>, <si32>], supported_tile_sizes = [ 4x16,  16x16,  32x16,  4x32,  16x32,  32x32], dst_physical_size_tiles = 16, num_cbs = 64, num_compute_threads = 1, num_datamovement_threads = 2}, {arch = <wormhole_b0>, grid = 8x8, coord_translation_offsets = 18x18, l1_size = 1499136, num_dram_channels = 12, dram_channel_size = 1073741824, noc_l1_address_align_bytes = 16, pcie_address_align_bytes = 32, noc_dram_address_align_bytes = 32, l1_unreserved_base = 103712, erisc_l1_unreserved_base = 98304, dram_unreserved_base = 1920032, dram_unreserved_end = 1073154112, supported_data_types = [<f32>, <f16>, <bf16>, <bfp_f8>, <bfp_bf8>, <bfp_f4>, <bfp_bf4>, <bfp_f2>, <bfp_bf2>, <u32>, <u16>, <u8>, <si32>], supported_tile_sizes = [ 4x16,  16x16,  32x16,  4x32,  16x32,  32x32], dst_physical_size_tiles = 16, num_cbs = 64, num_compute_threads = 1, num_datamovement_threads = 2}, {arch = <wormhole_b0>, grid = 8x8, coord_translation_offsets = 18x18, l1_size = 1499136, num_dram_channels = 12, dram_channel_size = 1073741824, noc_l1_address_align_bytes = 16, pcie_address_align_bytes = 32, noc_dram_address_align_bytes = 32, l1_unreserved_base = 103712, erisc_l1_unreserved_base = 98304, dram_unreserved_base = 1920032, dram_unreserved_end = 1073154112, supported_data_types = [<f32>, <f16>, <bf16>, <bfp_f8>, <bfp_bf8>, <bfp_f4>, <bfp_bf4>, <bfp_f2>, <bfp_bf2>, <u32>, <u16>, <u8>, <si32>], supported_tile_sizes = [ 4x16,  16x16,  32x16,  4x32,  16x32,  32x32], dst_physical_size_tiles = 16, num_cbs = 64, num_compute_threads = 1, num_datamovement_threads = 2}, {arch = <wormhole_b0>, grid = 8x8, coord_translation_offsets = 18x18, l1_size = 1499136, num_dram_channels = 12, dram_channel_size = 1073741824, noc_l1_address_align_bytes = 16, pcie_address_align_bytes = 32, noc_dram_address_align_bytes = 32, l1_unreserved_base = 103712, erisc_l1_unreserved_base = 98304, dram_unreserved_base = 1920032, dram_unreserved_end = 1073154112, supported_data_types = [<f32>, <f16>, <bf16>, <bfp_f8>, <bfp_bf8>, <bfp_f4>, <bfp_bf4>, <bfp_f2>, <bfp_bf2>, <u32>, <u16>, <u8>, <si32>], supported_tile_sizes = [ 4x16,  16x16,  32x16,  4x32,  16x32,  32x32], dst_physical_size_tiles = 16, num_cbs = 64, num_compute_threads = 1, num_datamovement_threads = 2}, {arch = <wormhole_b0>, grid = 8x8, coord_translation_offsets = 18x18, l1_size = 1499136, num_dram_channels = 12, dram_channel_size = 1073741824, noc_l1_address_align_bytes = 16, pcie_address_align_bytes = 32, noc_dram_address_align_bytes = 32, l1_unreserved_base = 103712, erisc_l1_unreserved_base = 98304, dram_unreserved_base = 1920032, dram_unreserved_end = 1073154112, supported_data_types = [<f32>, <f16>, <bf16>, <bfp_f8>, <bfp_bf8>, <bfp_f4>, <bfp_bf4>, <bfp_f2>, <bfp_bf2>, <u32>, <u16>, <u8>, <si32>], supported_tile_sizes = [ 4x16,  16x16,  32x16,  4x32,  16x32,  32x32], dst_physical_size_tiles = 16, num_cbs = 64, num_compute_threads = 1, num_datamovement_threads = 2}], [0, 1, 2, 3, 4, 5, 6, 7], [1 : i32, 1 : i32, 1 : i32, 1 : i32, 0 : i32, 0 : i32, 0 : i32, 0 : i32], [ 0x0x0x0], [<[0, 6, 0], [3, 6, 0]>, <[0, 7, 0], [3, 7, 0]>, <[0, 9, 0], [4, 1, 0]>, <[0, 14, 0], [1, 14, 0]>, <[0, 15, 0], [1, 15, 0]>, <[1, 0, 0], [2, 0, 0]>, <[1, 1, 0], [2, 1, 0]>, <[1, 9, 0], [5, 1, 0]>, <[2, 9, 0], [7, 1, 0]>, <[2, 14, 0], [3, 14, 0]>, <[2, 15, 0], [3, 15, 0]>, <[3, 9, 0], [6, 1, 0]>, <[4, 6, 0], [5, 6, 0]>, <[6, 6, 0], [7, 6, 0]>]>
#ttnn_layout = #ttnn.ttnn_layout<(d0, d1, d2) -> (d0 * 32 + d1, d2), <1x1>, memref<4x64x!ttcore.tile<32x32, bf16>, #dram>, <interleaved>>
#ttnn_layout1 = #ttnn.ttnn_layout<(d0, d1, d2) -> (d0 * 32 + d1, d2), <1x1>, memref<4x32x!ttcore.tile<32x32, bf16>, #dram>, <interleaved>>
module @ReplicateShardedData.6 attributes {mhlo.cross_program_prefetches = [], mhlo.input_output_alias = [], mhlo.is_dynamic = false, mhlo.use_auto_spmd_partitioning = false, ttcore.meshes = #ttcore.meshes<[<"mesh" = 2x4>]>} {
  ttcore.device_module {
    builtin.module @ReplicateShardedData.6 attributes {mhlo.cross_program_prefetches = [], mhlo.input_output_alias = [], mhlo.is_dynamic = false, mhlo.use_auto_spmd_partitioning = false, ttcore.meshes = #ttcore.meshes<[<"mesh" = 2x4>]>, ttcore.system_desc = #system_desc} {
      ttcore.device @default_device = <workerGrid = #ttcore.grid<8x8, virt_to_physical_map = (d0, d1) -> (0, d0, d1), physical_to_virt_map = (d0, d1, d2) -> (d1, d2)>, l1Map = (d0, d1, d2)[s0] -> (0, d0, d1, d2 + s0), dramMap = (d0, d1, d2)[s0, s1, s2, s3, s4, s5, s6] -> (0, 0, (((d0 * s1) * (s2 * (s3 * s6)) + d1 * (s2 * (s3 * s6)) + d2) floordiv s4) mod 12, ((((d0 * s1) * (s2 * (s3 * s6)) + d1 * (s2 * (s3 * s6)) + d2) floordiv s4) floordiv 12) * s4 + ((d0 * s1) * (s2 * (s3 * s6)) + d1 * (s2 * (s3 * s6)) + d2) mod s4 + s5), meshShape = 2x4, chipIds = [0, 1, 2, 3, 4, 5, 6, 7], meshTopology = [linear, ring]>
      func.func @main(%arg0: tensor<4x1x2048xbf16, #ttnn_layout> {ttcore.argument_type = #ttcore.argument_type<input>, ttcore.local_shape = #ttcore<local_shape local_shape = tensor<4x1x1024xbf16>>, ttcore.shard_status = #ttcore.shard_status<presharded>}) -> (tensor<4x1x2048xbf16, #ttnn_layout> {ttcore.local_shape = #ttcore<local_shape local_shape = tensor<4x1x2048xbf16>>, ttcore.shard_status = #ttcore.shard_status<presharded>}) attributes {tt.function_type = "forward_device"} {
        %0 = "ttnn.get_device"() <{mesh_offset = #ttnn<mesh_offset 0x0>, mesh_shape = #ttnn<mesh_shape 2x4>}> : () -> !ttnn.device
        %1 = "ttnn.mesh_shard"(%arg0, %0) <{shard_dims = array<i64: 2, -1>, shard_direction = #ttcore.shard_direction<full_to_shard>, shard_shape = array<i64: 1, 1, 2>, shard_type = #ttcore.shard_type<identity>}> : (tensor<4x1x2048xbf16, #ttnn_layout>, !ttnn.device) -> tensor<4x1x1024xbf16, #ttnn_layout1>
        %2 = "ttnn.all_gather"(%1) <{all_gather_dim = 2 : si32, cluster_axis = 0 : ui32, topology = #ttcore.topology<ring>}> : (tensor<4x1x1024xbf16, #ttnn_layout1>) -> tensor<4x1x2048xbf16, #ttnn_layout>
        "ttnn.deallocate"(%arg0) <{force = false}> : (tensor<4x1x2048xbf16, #ttnn_layout>) -> ()
        return %2 : tensor<4x1x2048xbf16, #ttnn_layout>
      }
    }
  }
}
