#loc = loc(unknown)
#loc1 = loc("p0.3")
#loc2 = loc("p1.11")
#loc3 = loc("p2.28")
#loc4 = loc("p3.32")
#loc5 = loc("p4.37")
#loc6 = loc("p5.46")
#loc7 = loc("p6.51")
#loc8 = loc("p7.138")
#loc9 = loc("p8.147")
#loc10 = loc("p9.151")
#loc11 = loc("p10.175")
#loc12 = loc("p11.186")
#loc13 = loc("p12.190")
#loc14 = loc("p13.195")
#loc15 = loc("p14.207")
#loc16 = loc("p15.215")
#loc17 = loc("p16.224")
#loc18 = loc("p17.235")
#loc19 = loc("p18.239")
#loc20 = loc("p19.250")
#loc21 = loc("p20.265")
#loc22 = loc("p21.296")
#loc23 = loc("p22.319")
#loc24 = loc("p23.323")
#loc25 = loc("p24.550")
#loc26 = loc("p25.555")
#loc27 = loc("p26.562")
#loc28 = loc("p27.567")
#loc29 = loc("p28.695")
#loc30 = loc("p29.704")
#loc31 = loc("p30.708")
#loc32 = loc("p31.732")
#loc33 = loc("p32.743")
#loc34 = loc("p33.747")
#loc35 = loc("p34.752")
#loc36 = loc("p35.764")
#loc37 = loc("p36.772")
#loc38 = loc("p37.781")
#loc39 = loc("p38.792")
#loc40 = loc("p39.796")
#loc41 = loc("p40.807")
#loc42 = loc("p41.822")
#loc43 = loc("p42.859")
#loc44 = loc("p43.863")
#loc45 = loc("p44.1090")
#loc46 = loc("p45.1095")
#loc47 = loc("p46.1102")
#loc48 = loc("p47.1107")
#loc49 = loc("p48.1235")
#loc50 = loc("p49.1244")
#loc51 = loc("p50.1248")
#loc52 = loc("p51.1272")
#loc53 = loc("p52.1283")
#loc54 = loc("p53.1287")
#loc55 = loc("p54.1292")
#loc56 = loc("p55.1304")
#loc57 = loc("p56.1312")
#loc58 = loc("p57.1321")
#loc59 = loc("p58.1332")
#loc60 = loc("p59.1336")
#loc61 = loc("p60.1347")
#loc62 = loc("p61.1365")
#loc63 = loc("p62.1369")
#loc64 = loc("p63.1596")
#loc65 = loc("p64.1601")
#loc66 = loc("p65.1608")
#loc67 = loc("p66.1613")
#loc68 = loc("p67.1741")
#loc69 = loc("p68.1750")
#loc70 = loc("p69.1754")
#loc71 = loc("p70.1778")
#loc72 = loc("p71.1789")
#loc73 = loc("p72.1793")
#loc74 = loc("p73.1798")
#loc75 = loc("p74.1810")
#loc76 = loc("p75.1818")
#loc77 = loc("p76.1827")
#loc78 = loc("p77.1838")
#loc79 = loc("p78.1842")
#loc80 = loc("p79.1853")
#loc81 = loc("p80.1871")
#loc82 = loc("p81.1875")
#loc83 = loc("p82.2102")
#loc84 = loc("p83.2107")
#loc85 = loc("p84.2114")
#loc86 = loc("p85.2119")
#loc87 = loc("p86.2247")
#loc88 = loc("p87.2256")
#loc89 = loc("p88.2260")
#loc90 = loc("p89.2284")
#loc91 = loc("p90.2295")
#loc92 = loc("p91.2299")
#loc93 = loc("p92.2304")
#loc94 = loc("p93.2316")
#loc95 = loc("p94.2324")
#loc96 = loc("p95.2333")
#loc97 = loc("p96.2344")
#loc98 = loc("p97.2348")
#loc99 = loc("p98.2359")
#loc100 = loc("p99.2377")
#loc101 = loc("p100.2381")
#loc102 = loc("p101.2608")
#loc103 = loc("p102.2613")
#loc104 = loc("p103.2620")
#loc105 = loc("p104.2625")
#loc106 = loc("p105.2753")
#loc107 = loc("p106.2762")
#loc108 = loc("p107.2766")
#loc109 = loc("p108.2790")
#loc110 = loc("p109.2801")
#loc111 = loc("p110.2805")
#loc112 = loc("p111.2810")
#loc113 = loc("p112.2822")
#loc114 = loc("p113.2830")
#loc115 = loc("p114.2839")
#loc116 = loc("p115.2850")
#loc117 = loc("p116.2854")
#loc118 = loc("p117.2865")
#loc119 = loc("p118.2883")
#loc120 = loc("p119.2887")
#loc121 = loc("p120.3114")
#loc122 = loc("p121.3119")
#loc123 = loc("p122.3126")
#loc124 = loc("p123.3131")
#loc125 = loc("p124.3259")
#loc126 = loc("p125.3268")
#loc127 = loc("p126.3272")
#loc128 = loc("p127.3296")
#loc129 = loc("p128.3307")
#loc130 = loc("p129.3311")
#loc131 = loc("p130.3316")
#loc132 = loc("p131.3328")
#loc133 = loc("p132.3336")
#loc134 = loc("p133.3345")
#loc135 = loc("p134.3356")
#loc136 = loc("p135.3360")
#loc137 = loc("p136.3371")
#loc138 = loc("p137.3389")
#loc139 = loc("p138.3393")
#loc140 = loc("p139.3620")
#loc141 = loc("p140.3625")
#loc142 = loc("p141.3632")
#loc143 = loc("p142.3637")
#loc144 = loc("p143.3765")
#loc145 = loc("p144.3774")
#loc146 = loc("p145.3778")
#loc147 = loc("p146.3802")
#loc148 = loc("p147.3813")
#loc149 = loc("p148.3817")
#loc150 = loc("p149.3822")
#loc151 = loc("p150.3834")
#loc152 = loc("p151.3842")
#loc153 = loc("p152.3851")
#loc154 = loc("p153.3862")
#loc155 = loc("p154.3866")
#loc156 = loc("p155.3877")
#loc157 = loc("p156.3895")
#loc158 = loc("p157.3899")
#loc159 = loc("p158.4126")
#loc160 = loc("p159.4131")
#loc161 = loc("p160.4138")
#loc162 = loc("p161.4143")
#loc163 = loc("p162.4271")
#loc164 = loc("p163.4280")
#loc165 = loc("p164.4284")
#loc166 = loc("p165.4308")
#loc167 = loc("p166.4319")
#loc168 = loc("p167.4323")
#loc169 = loc("p168.4328")
#loc170 = loc("p169.4340")
#loc171 = loc("p170.4348")
#loc172 = loc("p171.4357")
#loc173 = loc("p172.4368")
#loc174 = loc("p173.4372")
#loc175 = loc("p174.4383")
#loc176 = loc("p175.4401")
#loc177 = loc("p176.4405")
#loc178 = loc("p177.4632")
#loc179 = loc("p178.4637")
#loc180 = loc("p179.4644")
#loc181 = loc("p180.4649")
#loc182 = loc("p181.4777")
#loc183 = loc("p182.4786")
#loc184 = loc("p183.4790")
#loc185 = loc("p184.4814")
#loc186 = loc("p185.4825")
#loc187 = loc("p186.4829")
#loc188 = loc("p187.4834")
#loc189 = loc("p188.4846")
#loc190 = loc("p189.4854")
#loc191 = loc("p190.4863")
#loc192 = loc("p191.4874")
#loc193 = loc("p192.4878")
#loc194 = loc("p193.4889")
#loc195 = loc("p194.4907")
#loc196 = loc("p195.4911")
#loc197 = loc("p196.5138")
#loc198 = loc("p197.5143")
#loc199 = loc("p198.5150")
#loc200 = loc("p199.5155")
#loc201 = loc("p200.5283")
#loc202 = loc("p201.5292")
#loc203 = loc("p202.5296")
#loc204 = loc("p203.5320")
#loc205 = loc("p204.5331")
#loc206 = loc("p205.5335")
#loc207 = loc("p206.5340")
#loc208 = loc("p207.5352")
#loc209 = loc("p208.5360")
#loc210 = loc("p209.5369")
#loc211 = loc("p210.5380")
#loc212 = loc("p211.5384")
#loc213 = loc("p212.5395")
#loc214 = loc("p213.5413")
#loc215 = loc("p214.5417")
#loc216 = loc("p215.5644")
#loc217 = loc("p216.5649")
#loc218 = loc("p217.5656")
#loc219 = loc("p218.5661")
#loc220 = loc("p219.5789")
#loc221 = loc("p220.5798")
#loc222 = loc("p221.5802")
#loc223 = loc("p222.5826")
#loc224 = loc("p223.5837")
#loc225 = loc("p224.5841")
#loc226 = loc("p225.5846")
#loc227 = loc("p226.5858")
#loc228 = loc("p227.5866")
#loc229 = loc("p228.5875")
#loc230 = loc("p229.5886")
#loc231 = loc("p230.5890")
#loc232 = loc("p231.5901")
#loc233 = loc("p232.5919")
#loc234 = loc("p233.5923")
#loc235 = loc("p234.6150")
#loc236 = loc("p235.6155")
#loc237 = loc("p236.6162")
#loc238 = loc("p237.6167")
#loc239 = loc("p238.6295")
#loc240 = loc("p239.6304")
#loc241 = loc("p240.6308")
#loc242 = loc("p241.6332")
#loc243 = loc("p242.6343")
#loc244 = loc("p243.6347")
#loc245 = loc("p244.6352")
#loc246 = loc("p245.6364")
#loc247 = loc("p246.6372")
#loc248 = loc("p247.6381")
#loc249 = loc("p248.6392")
#loc250 = loc("p249.6396")
#loc251 = loc("p250.6407")
#loc252 = loc("p251.6425")
#loc253 = loc("p252.6429")
#loc254 = loc("p253.6656")
#loc255 = loc("p254.6661")
#loc256 = loc("p255.6668")
#loc257 = loc("p256.6673")
#loc258 = loc("p257.6801")
#loc259 = loc("p258.6810")
#loc260 = loc("p259.6814")
#loc261 = loc("p260.6838")
#loc262 = loc("p261.6849")
#loc263 = loc("p262.6853")
#loc264 = loc("p263.6858")
#loc265 = loc("p264.6870")
#loc266 = loc("p265.6878")
#loc267 = loc("p266.6887")
#loc268 = loc("p267.6898")
#loc269 = loc("p268.6902")
#loc270 = loc("p269.6913")
#loc271 = loc("p270.6931")
#loc272 = loc("p271.6935")
#loc273 = loc("p272.7162")
#loc274 = loc("p273.7167")
#loc275 = loc("p274.7174")
#loc276 = loc("p275.7179")
#loc277 = loc("p276.7307")
#loc278 = loc("p277.7316")
#loc279 = loc("p278.7320")
#loc280 = loc("p279.7344")
#loc281 = loc("p280.7355")
#loc282 = loc("p281.7359")
#loc283 = loc("p282.7364")
#loc284 = loc("p283.7376")
#loc285 = loc("p284.7384")
#loc286 = loc("p285.7393")
#loc287 = loc("p286.7404")
#loc288 = loc("p287.7408")
#loc289 = loc("p288.7419")
#loc290 = loc("p289.7437")
#loc291 = loc("p290.7441")
#loc292 = loc("p291.7668")
#loc293 = loc("p292.7673")
#loc294 = loc("p293.7680")
#loc295 = loc("p294.7685")
#loc296 = loc("p295.7813")
#loc297 = loc("p296.7822")
#loc298 = loc("p297.7826")
#loc299 = loc("p298.7850")
#loc300 = loc("p299.7861")
#loc301 = loc("p300.7865")
#loc302 = loc("p301.7870")
#loc303 = loc("p302.7882")
#loc304 = loc("p303.7890")
#loc305 = loc("p304.7899")
#loc306 = loc("p305.7910")
#loc307 = loc("p306.7914")
#loc308 = loc("p307.7925")
#loc309 = loc("p308.7943")
#loc310 = loc("p309.7947")
#loc311 = loc("p310.8174")
#loc312 = loc("p311.8179")
#loc313 = loc("p312.8186")
#loc314 = loc("p313.8191")
#loc315 = loc("p314.8319")
#loc316 = loc("p315.8328")
#loc317 = loc("p316.8332")
#loc318 = loc("p317.8356")
#loc319 = loc("p318.8367")
#loc320 = loc("p319.8371")
#loc321 = loc("p320.8376")
#loc322 = loc("p321.8388")
#loc323 = loc("p322.8396")
#loc324 = loc("p323.8405")
#loc325 = loc("p324.8416")
#loc326 = loc("p325.8420")
#loc327 = loc("p326.8431")
#loc328 = loc("p327.8449")
#loc329 = loc("p328.8453")
#loc330 = loc("p329.8680")
#loc331 = loc("p330.8685")
#loc332 = loc("p331.8692")
#loc333 = loc("p332.8697")
#loc334 = loc("p333.8825")
#loc335 = loc("p334.8834")
#loc336 = loc("p335.8838")
#loc337 = loc("p336.8862")
#loc338 = loc("p337.8873")
#loc339 = loc("p338.8877")
#loc340 = loc("p339.8882")
#loc341 = loc("p340.8894")
#loc342 = loc("p341.8902")
#loc343 = loc("p342.8911")
#loc344 = loc("p343.8922")
#loc345 = loc("p344.8926")
#loc346 = loc("p345.8937")
#loc347 = loc("p346.8955")
#loc348 = loc("p347.8959")
#loc349 = loc("p348.9186")
#loc350 = loc("p349.9191")
#loc351 = loc("p350.9198")
#loc352 = loc("p351.9203")
#loc353 = loc("p352.9331")
#loc354 = loc("p353.9340")
#loc355 = loc("p354.9344")
#loc356 = loc("p355.9368")
#loc357 = loc("p356.9379")
#loc358 = loc("p357.9383")
#loc359 = loc("p358.9388")
#loc360 = loc("p359.9400")
#loc361 = loc("p360.9408")
#loc362 = loc("p361.9417")
#loc363 = loc("p362.9428")
#loc364 = loc("p363.9432")
#loc365 = loc("p364.9443")
#loc366 = loc("p365.9461")
#loc367 = loc("p366.9465")
#loc368 = loc("p367.9692")
#loc369 = loc("p368.9697")
#loc370 = loc("p369.9704")
#loc371 = loc("p370.9709")
#loc372 = loc("p371.9837")
#loc373 = loc("p372.9846")
#loc374 = loc("p373.9850")
#loc375 = loc("p374.9874")
#loc376 = loc("p375.9885")
#loc377 = loc("p376.9889")
#loc378 = loc("p377.9894")
#loc379 = loc("p378.9906")
#loc380 = loc("p379.9914")
#loc381 = loc("p380.9923")
#loc382 = loc("p381.9934")
#loc383 = loc("p382.9938")
#loc384 = loc("p383.9949")
#loc385 = loc("p384.9967")
#loc386 = loc("p385.9971")
#loc387 = loc("p386.10198")
#loc388 = loc("p387.10203")
#loc389 = loc("p388.10210")
#loc390 = loc("p389.10215")
#loc391 = loc("p390.10343")
#loc392 = loc("p391.10352")
#loc393 = loc("p392.10356")
#loc394 = loc("p393.10380")
#loc395 = loc("p394.10391")
#loc396 = loc("p395.10395")
#loc397 = loc("p396.10400")
#loc398 = loc("p397.10412")
#loc399 = loc("p398.10420")
#loc400 = loc("p399.10429")
#loc401 = loc("p400.10440")
#loc402 = loc("p401.10444")
#loc403 = loc("p402.10455")
#loc404 = loc("p403.10473")
#loc405 = loc("p404.10477")
#loc406 = loc("p405.10704")
#loc407 = loc("p406.10709")
#loc408 = loc("p407.10716")
#loc409 = loc("p408.10721")
#loc410 = loc("p409.10849")
#loc411 = loc("p410.10858")
#loc412 = loc("p411.10862")
#loc413 = loc("p412.10886")
#loc414 = loc("p413.10897")
#loc415 = loc("p414.10901")
#loc416 = loc("p415.10906")
#loc417 = loc("p416.10918")
#loc418 = loc("p417.10926")
#loc419 = loc("p418.10935")
#loc420 = loc("p419.10946")
#loc421 = loc("p420.10950")
#loc422 = loc("p421.10961")
#loc423 = loc("p422.10979")
#loc424 = loc("p423.10983")
#loc425 = loc("p424.11210")
#loc426 = loc("p425.11215")
#loc427 = loc("p426.11222")
#loc428 = loc("p427.11227")
#loc429 = loc("p428.11355")
#loc430 = loc("p429.11364")
#loc431 = loc("p430.11368")
#loc432 = loc("p431.11392")
#loc433 = loc("p432.11403")
#loc434 = loc("p433.11407")
#loc435 = loc("p434.11412")
#loc436 = loc("p435.11424")
#loc437 = loc("p436.11432")
#loc438 = loc("p437.11441")
#loc439 = loc("p438.11452")
#loc440 = loc("p439.11456")
#loc441 = loc("p440.11467")
#loc442 = loc("p441.11485")
#loc443 = loc("p442.11489")
#loc444 = loc("p443.11716")
#loc445 = loc("p444.11721")
#loc446 = loc("p445.11728")
#loc447 = loc("p446.11733")
#loc448 = loc("p447.11861")
#loc449 = loc("p448.11870")
#loc450 = loc("p449.11874")
#loc451 = loc("p450.11898")
#loc452 = loc("p451.11909")
#loc453 = loc("p452.11913")
#loc454 = loc("p453.11918")
#loc455 = loc("p454.11930")
#loc456 = loc("p455.11938")
#loc457 = loc("p456.11947")
#loc458 = loc("p457.11958")
#loc459 = loc("p458.11962")
#loc460 = loc("p459.11973")
#loc461 = loc("p460.11991")
#loc462 = loc("p461.11995")
#loc463 = loc("p462.12222")
#loc464 = loc("p463.12227")
#loc465 = loc("p464.12234")
#loc466 = loc("p465.12239")
#loc467 = loc("p466.12367")
#loc468 = loc("p467.12376")
#loc469 = loc("p468.12380")
#loc470 = loc("p469.12404")
#loc471 = loc("p470.12415")
#loc472 = loc("p471.12419")
#loc473 = loc("p472.12424")
#loc474 = loc("p473.12436")
#loc475 = loc("p474.12444")
#loc476 = loc("p475.12453")
#loc477 = loc("p476.12464")
#loc478 = loc("p477.12468")
#loc479 = loc("p478.12479")
#loc480 = loc("p479.12497")
#loc481 = loc("p480.12501")
#loc482 = loc("p481.12728")
#loc483 = loc("p482.12733")
#loc484 = loc("p483.12740")
#loc485 = loc("p484.12745")
#loc486 = loc("p485.12873")
#loc487 = loc("p486.12882")
#loc488 = loc("p487.12886")
#loc489 = loc("p488.12910")
#loc490 = loc("p489.12921")
#loc491 = loc("p490.12925")
#loc492 = loc("p491.12930")
#loc493 = loc("p492.12942")
#loc494 = loc("p493.12950")
#loc495 = loc("p494.12959")
#loc496 = loc("p495.12970")
#loc497 = loc("p496.12974")
#loc498 = loc("p497.12985")
#loc499 = loc("p498.13003")
#loc500 = loc("p499.13007")
#loc501 = loc("p500.13234")
#loc502 = loc("p501.13239")
#loc503 = loc("p502.13246")
#loc504 = loc("p503.13251")
#loc505 = loc("p504.13379")
#loc506 = loc("p505.13388")
#loc507 = loc("p506.13392")
#loc508 = loc("p507.13416")
#loc509 = loc("p508.13427")
#loc510 = loc("p509.13431")
#loc511 = loc("p510.13436")
#loc512 = loc("p511.13448")
#loc513 = loc("p512.13456")
#loc514 = loc("p513.13465")
#loc515 = loc("p514.13476")
#loc516 = loc("p515.13480")
#loc517 = loc("p516.13491")
#loc518 = loc("p517.13509")
#loc519 = loc("p518.13513")
#loc520 = loc("p519.13740")
#loc521 = loc("p520.13745")
#loc522 = loc("p521.13752")
#loc523 = loc("p522.13757")
#loc524 = loc("p523.13885")
#loc525 = loc("p524.13894")
#loc526 = loc("p525.13898")
#loc527 = loc("p526.13922")
#loc528 = loc("p527.13933")
#loc529 = loc("p528.13937")
#loc530 = loc("p529.13942")
#loc531 = loc("p530.13954")
#loc532 = loc("p531.13962")
#loc533 = loc("p532.13971")
#loc534 = loc("p533.13982")
#loc535 = loc("p534.13986")
#loc536 = loc("p535.13997")
#loc537 = loc("p536.14015")
#loc538 = loc("p537.14019")
#loc539 = loc("p538.14246")
#loc540 = loc("p539.14251")
#loc541 = loc("p540.14258")
#loc542 = loc("p541.14263")
#loc543 = loc("p542.14391")
#loc544 = loc("p543.14400")
#loc545 = loc("p544.14404")
#loc546 = loc("p545.14428")
#loc547 = loc("p546.14439")
#loc548 = loc("p547.14443")
#loc549 = loc("p548.14448")
#loc550 = loc("p549.14460")
#loc551 = loc("p550.14468")
#loc552 = loc("p551.14477")
#loc553 = loc("p552.14488")
#loc554 = loc("p553.14492")
#loc555 = loc("p554.14503")
#loc556 = loc("p555.14521")
#loc557 = loc("p556.14525")
#loc558 = loc("p557.14752")
#loc559 = loc("p558.14757")
#loc560 = loc("p559.14764")
#loc561 = loc("p560.14769")
#loc562 = loc("p561.14897")
#loc563 = loc("p562.14906")
#loc564 = loc("p563.14910")
#loc565 = loc("p564.14934")
#loc566 = loc("p565.14945")
#loc567 = loc("p566.14949")
#loc568 = loc("p567.14954")
#loc569 = loc("p568.14966")
#loc570 = loc("p569.14974")
#loc571 = loc("p570.14983")
#loc572 = loc("p571.14994")
#loc573 = loc("p572.14998")
#loc574 = loc("p573.15009")
#loc575 = loc("p574.15027")
#loc576 = loc("p575.15031")
#loc577 = loc("p576.15258")
#loc578 = loc("p577.15263")
#loc579 = loc("p578.15270")
#loc580 = loc("p579.15275")
#loc581 = loc("p580.15403")
#loc582 = loc("p581.15412")
#loc583 = loc("p582.15416")
#loc584 = loc("p583.15440")
#loc585 = loc("p584.15451")
#loc586 = loc("p585.15455")
#loc587 = loc("p586.15460")
#loc588 = loc("p587.15472")
#loc589 = loc("p588.15480")
#loc590 = loc("p589.15489")
#loc591 = loc("p590.15500")
#loc592 = loc("p591.15504")
#loc593 = loc("p592.15515")
#loc594 = loc("p593.15533")
#loc595 = loc("p594.15537")
#loc596 = loc("p595.15764")
#loc597 = loc("p596.15769")
#loc598 = loc("p597.15776")
#loc599 = loc("p598.15781")
#loc600 = loc("p599.15909")
#loc601 = loc("p600.15918")
#loc602 = loc("p601.15922")
#loc603 = loc("p602.15946")
#loc604 = loc("p603.15957")
#loc605 = loc("p604.15961")
#loc606 = loc("p605.15966")
#loc607 = loc("p606.15978")
#loc608 = loc("p607.15986")
#loc609 = loc("p608.15995")
#loc610 = loc("p609.16006")
#loc611 = loc("p610.16010")
#loc612 = loc("p611.16021")
#loc613 = loc("p612.16039")
#loc614 = loc("p613.16043")
#loc615 = loc("p614.16270")
#loc616 = loc("p615.16275")
#loc617 = loc("p616.16282")
#loc618 = loc("p617.16287")
#loc619 = loc("p618.16415")
#loc620 = loc("p619.16424")
#loc621 = loc("p620.16428")
#loc622 = loc("p621.16452")
#loc623 = loc("p622.16463")
#loc624 = loc("p623.16467")
#loc625 = loc("p624.16472")
#loc626 = loc("p625.16484")
#loc627 = loc("p626.16492")
#loc628 = loc("p627.16501")
#loc629 = loc("p628.16512")
#loc630 = loc("p629.16516")
#loc631 = loc("p630.16527")
#loc632 = loc("p631.16545")
#loc633 = loc("p632.16549")
#loc634 = loc("p633.16776")
#loc635 = loc("p634.16781")
#loc636 = loc("p635.16788")
#loc637 = loc("p636.16793")
#loc638 = loc("p637.16921")
#loc639 = loc("p638.16930")
#loc640 = loc("p639.16934")
#loc641 = loc("p640.16958")
#loc642 = loc("p641.16969")
#loc643 = loc("p642.16973")
#loc644 = loc("p643.16978")
#loc645 = loc("p644.16990")
#loc646 = loc("p645.16998")
#loc647 = loc("p646.17007")
#loc648 = loc("p647.17018")
#loc649 = loc("p648.17022")
#loc650 = loc("p649.17033")
#loc651 = loc("p650.17051")
#loc652 = loc("p651.17055")
#loc653 = loc("p652.17282")
#loc654 = loc("p653.17287")
#loc655 = loc("p654.17294")
#loc656 = loc("p655.17299")
#loc657 = loc("p656.17427")
#loc658 = loc("p657.17436")
#loc659 = loc("p658.17440")
#loc660 = loc("p659.17464")
#loc661 = loc("p660.17475")
#loc662 = loc("p661.17479")
#loc663 = loc("p662.17484")
#loc664 = loc("p663.17496")
#loc665 = loc("p664.17504")
#loc666 = loc("p665.17513")
#loc667 = loc("p666.17524")
#loc668 = loc("p667.17528")
#loc669 = loc("p668.17539")
#loc670 = loc("p669.17557")
#loc671 = loc("p670.17561")
#loc672 = loc("p671.17788")
#loc673 = loc("p672.17793")
#loc674 = loc("p673.17800")
#loc675 = loc("p674.17805")
#loc676 = loc("p675.17933")
#loc677 = loc("p676.17942")
#loc678 = loc("p677.17946")
#loc679 = loc("p678.17970")
#loc680 = loc("p679.17984")
#loc681 = loc("p680.17989")
#loc682 = loc("p681.18001")
#loc683 = loc("p682.18009")
#loc684 = loc("p683.18018")
#loc685 = loc("p684.18029")
#loc686 = loc("p685.18033")
#loc687 = loc("p686.18044")
#loc688 = loc("p687.18062")
#loc689 = loc("p688.18066")
#loc690 = loc("p689.18293")
#loc691 = loc("p690.18298")
#loc692 = loc("p691.18305")
#loc693 = loc("p692.18310")
#loc708 = loc("dot.329")
#loc749 = loc("dot.92")
#loc767 = loc("scatter.144")
#loc810 = loc("dot.157")
#loc817 = loc("scatter.181")
#loc825 = loc("dot.436")
#loc837 = loc("dot.574")
#loc862 = loc("dot.480")
#loc888 = loc("reduce.616")
#loc897 = loc("dot.869")
#loc916 = loc("dot.654")
#loc932 = loc("scatter.701")
#loc965 = loc("dot.714")
#loc972 = loc("scatter.738")
#loc980 = loc("dot.976")
#loc992 = loc("dot.1114")
#loc1017 = loc("dot.1020")
#loc1042 = loc("reduce.1156")
#loc1051 = loc("dot.1375")
#loc1070 = loc("dot.1194")
#loc1086 = loc("scatter.1241")
#loc1111 = loc("dot.1254")
#loc1118 = loc("scatter.1278")
#loc1126 = loc("dot.1482")
#loc1138 = loc("dot.1620")
#loc1163 = loc("dot.1526")
#loc1188 = loc("reduce.1662")
#loc1197 = loc("dot.1881")
#loc1216 = loc("dot.1700")
#loc1232 = loc("scatter.1747")
#loc1257 = loc("dot.1760")
#loc1264 = loc("scatter.1784")
#loc1272 = loc("dot.1988")
#loc1284 = loc("dot.2126")
#loc1309 = loc("dot.2032")
#loc1334 = loc("reduce.2168")
#loc1343 = loc("dot.2387")
#loc1362 = loc("dot.2206")
#loc1378 = loc("scatter.2253")
#loc1403 = loc("dot.2266")
#loc1410 = loc("scatter.2290")
#loc1418 = loc("dot.2494")
#loc1430 = loc("dot.2632")
#loc1455 = loc("dot.2538")
#loc1480 = loc("reduce.2674")
#loc1489 = loc("dot.2893")
#loc1508 = loc("dot.2712")
#loc1524 = loc("scatter.2759")
#loc1549 = loc("dot.2772")
#loc1556 = loc("scatter.2796")
#loc1564 = loc("dot.3000")
#loc1576 = loc("dot.3138")
#loc1601 = loc("dot.3044")
#loc1626 = loc("reduce.3180")
#loc1635 = loc("dot.3399")
#loc1654 = loc("dot.3218")
#loc1670 = loc("scatter.3265")
#loc1695 = loc("dot.3278")
#loc1702 = loc("scatter.3302")
#loc1710 = loc("dot.3506")
#loc1722 = loc("dot.3644")
#loc1747 = loc("dot.3550")
#loc1772 = loc("reduce.3686")
#loc1781 = loc("dot.3905")
#loc1800 = loc("dot.3724")
#loc1816 = loc("scatter.3771")
#loc1841 = loc("dot.3784")
#loc1848 = loc("scatter.3808")
#loc1856 = loc("dot.4012")
#loc1868 = loc("dot.4150")
#loc1893 = loc("dot.4056")
#loc1918 = loc("reduce.4192")
#loc1927 = loc("dot.4411")
#loc1946 = loc("dot.4230")
#loc1962 = loc("scatter.4277")
#loc1987 = loc("dot.4290")
#loc1994 = loc("scatter.4314")
#loc2002 = loc("dot.4518")
#loc2014 = loc("dot.4656")
#loc2039 = loc("dot.4562")
#loc2064 = loc("reduce.4698")
#loc2073 = loc("dot.4917")
#loc2092 = loc("dot.4736")
#loc2108 = loc("scatter.4783")
#loc2133 = loc("dot.4796")
#loc2140 = loc("scatter.4820")
#loc2148 = loc("dot.5024")
#loc2160 = loc("dot.5162")
#loc2185 = loc("dot.5068")
#loc2210 = loc("reduce.5204")
#loc2219 = loc("dot.5423")
#loc2238 = loc("dot.5242")
#loc2254 = loc("scatter.5289")
#loc2279 = loc("dot.5302")
#loc2286 = loc("scatter.5326")
#loc2294 = loc("dot.5530")
#loc2306 = loc("dot.5668")
#loc2331 = loc("dot.5574")
#loc2356 = loc("reduce.5710")
#loc2365 = loc("dot.5929")
#loc2384 = loc("dot.5748")
#loc2400 = loc("scatter.5795")
#loc2425 = loc("dot.5808")
#loc2432 = loc("scatter.5832")
#loc2440 = loc("dot.6036")
#loc2452 = loc("dot.6174")
#loc2477 = loc("dot.6080")
#loc2502 = loc("reduce.6216")
#loc2511 = loc("dot.6435")
#loc2530 = loc("dot.6254")
#loc2546 = loc("scatter.6301")
#loc2571 = loc("dot.6314")
#loc2578 = loc("scatter.6338")
#loc2586 = loc("dot.6542")
#loc2598 = loc("dot.6680")
#loc2623 = loc("dot.6586")
#loc2648 = loc("reduce.6722")
#loc2657 = loc("dot.6941")
#loc2676 = loc("dot.6760")
#loc2692 = loc("scatter.6807")
#loc2717 = loc("dot.6820")
#loc2724 = loc("scatter.6844")
#loc2732 = loc("dot.7048")
#loc2744 = loc("dot.7186")
#loc2769 = loc("dot.7092")
#loc2794 = loc("reduce.7228")
#loc2803 = loc("dot.7447")
#loc2822 = loc("dot.7266")
#loc2838 = loc("scatter.7313")
#loc2863 = loc("dot.7326")
#loc2870 = loc("scatter.7350")
#loc2878 = loc("dot.7554")
#loc2890 = loc("dot.7692")
#loc2915 = loc("dot.7598")
#loc2940 = loc("reduce.7734")
#loc2949 = loc("dot.7953")
#loc2968 = loc("dot.7772")
#loc2984 = loc("scatter.7819")
#loc3009 = loc("dot.7832")
#loc3016 = loc("scatter.7856")
#loc3024 = loc("dot.8060")
#loc3036 = loc("dot.8198")
#loc3061 = loc("dot.8104")
#loc3086 = loc("reduce.8240")
#loc3095 = loc("dot.8459")
#loc3114 = loc("dot.8278")
#loc3130 = loc("scatter.8325")
#loc3155 = loc("dot.8338")
#loc3162 = loc("scatter.8362")
#loc3170 = loc("dot.8566")
#loc3182 = loc("dot.8704")
#loc3207 = loc("dot.8610")
#loc3232 = loc("reduce.8746")
#loc3241 = loc("dot.8965")
#loc3260 = loc("dot.8784")
#loc3276 = loc("scatter.8831")
#loc3301 = loc("dot.8844")
#loc3308 = loc("scatter.8868")
#loc3316 = loc("dot.9072")
#loc3328 = loc("dot.9210")
#loc3353 = loc("dot.9116")
#loc3378 = loc("reduce.9252")
#loc3387 = loc("dot.9471")
#loc3406 = loc("dot.9290")
#loc3422 = loc("scatter.9337")
#loc3447 = loc("dot.9350")
#loc3454 = loc("scatter.9374")
#loc3462 = loc("dot.9578")
#loc3474 = loc("dot.9716")
#loc3499 = loc("dot.9622")
#loc3524 = loc("reduce.9758")
#loc3533 = loc("dot.9977")
#loc3552 = loc("dot.9796")
#loc3568 = loc("scatter.9843")
#loc3593 = loc("dot.9856")
#loc3600 = loc("scatter.9880")
#loc3608 = loc("dot.10084")
#loc3620 = loc("dot.10222")
#loc3645 = loc("dot.10128")
#loc3670 = loc("reduce.10264")
#loc3679 = loc("dot.10483")
#loc3698 = loc("dot.10302")
#loc3714 = loc("scatter.10349")
#loc3739 = loc("dot.10362")
#loc3746 = loc("scatter.10386")
#loc3754 = loc("dot.10590")
#loc3766 = loc("dot.10728")
#loc3791 = loc("dot.10634")
#loc3816 = loc("reduce.10770")
#loc3825 = loc("dot.10989")
#loc3844 = loc("dot.10808")
#loc3860 = loc("scatter.10855")
#loc3885 = loc("dot.10868")
#loc3892 = loc("scatter.10892")
#loc3900 = loc("dot.11096")
#loc3912 = loc("dot.11234")
#loc3937 = loc("dot.11140")
#loc3962 = loc("reduce.11276")
#loc3971 = loc("dot.11495")
#loc3990 = loc("dot.11314")
#loc4006 = loc("scatter.11361")
#loc4031 = loc("dot.11374")
#loc4038 = loc("scatter.11398")
#loc4046 = loc("dot.11602")
#loc4058 = loc("dot.11740")
#loc4083 = loc("dot.11646")
#loc4108 = loc("reduce.11782")
#loc4117 = loc("dot.12001")
#loc4136 = loc("dot.11820")
#loc4152 = loc("scatter.11867")
#loc4177 = loc("dot.11880")
#loc4184 = loc("scatter.11904")
#loc4192 = loc("dot.12108")
#loc4204 = loc("dot.12246")
#loc4229 = loc("dot.12152")
#loc4254 = loc("reduce.12288")
#loc4263 = loc("dot.12507")
#loc4282 = loc("dot.12326")
#loc4298 = loc("scatter.12373")
#loc4323 = loc("dot.12386")
#loc4330 = loc("scatter.12410")
#loc4338 = loc("dot.12614")
#loc4350 = loc("dot.12752")
#loc4375 = loc("dot.12658")
#loc4400 = loc("reduce.12794")
#loc4409 = loc("dot.13013")
#loc4428 = loc("dot.12832")
#loc4444 = loc("scatter.12879")
#loc4469 = loc("dot.12892")
#loc4476 = loc("scatter.12916")
#loc4484 = loc("dot.13120")
#loc4496 = loc("dot.13258")
#loc4521 = loc("dot.13164")
#loc4546 = loc("reduce.13300")
#loc4555 = loc("dot.13519")
#loc4574 = loc("dot.13338")
#loc4590 = loc("scatter.13385")
#loc4615 = loc("dot.13398")
#loc4622 = loc("scatter.13422")
#loc4630 = loc("dot.13626")
#loc4642 = loc("dot.13764")
#loc4667 = loc("dot.13670")
#loc4692 = loc("reduce.13806")
#loc4701 = loc("dot.14025")
#loc4720 = loc("dot.13844")
#loc4736 = loc("scatter.13891")
#loc4761 = loc("dot.13904")
#loc4768 = loc("scatter.13928")
#loc4776 = loc("dot.14132")
#loc4788 = loc("dot.14270")
#loc4813 = loc("dot.14176")
#loc4838 = loc("reduce.14312")
#loc4847 = loc("dot.14531")
#loc4866 = loc("dot.14350")
#loc4882 = loc("scatter.14397")
#loc4907 = loc("dot.14410")
#loc4914 = loc("scatter.14434")
#loc4922 = loc("dot.14638")
#loc4934 = loc("dot.14776")
#loc4959 = loc("dot.14682")
#loc4984 = loc("reduce.14818")
#loc4993 = loc("dot.15037")
#loc5012 = loc("dot.14856")
#loc5028 = loc("scatter.14903")
#loc5053 = loc("dot.14916")
#loc5060 = loc("scatter.14940")
#loc5068 = loc("dot.15144")
#loc5080 = loc("dot.15282")
#loc5105 = loc("dot.15188")
#loc5130 = loc("reduce.15324")
#loc5139 = loc("dot.15543")
#loc5158 = loc("dot.15362")
#loc5174 = loc("scatter.15409")
#loc5199 = loc("dot.15422")
#loc5206 = loc("scatter.15446")
#loc5214 = loc("dot.15650")
#loc5226 = loc("dot.15788")
#loc5251 = loc("dot.15694")
#loc5276 = loc("reduce.15830")
#loc5285 = loc("dot.16049")
#loc5304 = loc("dot.15868")
#loc5320 = loc("scatter.15915")
#loc5345 = loc("dot.15928")
#loc5352 = loc("scatter.15952")
#loc5360 = loc("dot.16156")
#loc5372 = loc("dot.16294")
#loc5397 = loc("dot.16200")
#loc5422 = loc("reduce.16336")
#loc5431 = loc("dot.16555")
#loc5450 = loc("dot.16374")
#loc5466 = loc("scatter.16421")
#loc5491 = loc("dot.16434")
#loc5498 = loc("scatter.16458")
#loc5506 = loc("dot.16662")
#loc5518 = loc("dot.16800")
#loc5543 = loc("dot.16706")
#loc5568 = loc("reduce.16842")
#loc5577 = loc("dot.17061")
#loc5596 = loc("dot.16880")
#loc5612 = loc("scatter.16927")
#loc5637 = loc("dot.16940")
#loc5644 = loc("scatter.16964")
#loc5652 = loc("dot.17168")
#loc5664 = loc("dot.17306")
#loc5689 = loc("dot.17212")
#loc5714 = loc("reduce.17348")
#loc5723 = loc("dot.17567")
#loc5742 = loc("dot.17386")
#loc5758 = loc("scatter.17433")
#loc5783 = loc("dot.17446")
#loc5790 = loc("scatter.17470")
#loc5798 = loc("dot.17674")
#loc5810 = loc("dot.17812")
#loc5835 = loc("dot.17718")
#loc5860 = loc("reduce.17854")
#loc5869 = loc("dot.18072")
#loc5888 = loc("dot.17892")
#loc5904 = loc("scatter.17939")
#loc5918 = loc("dot.17952")
#loc5925 = loc("scatter.17976")
#loc5945 = loc("dot.18179")
#loc5957 = loc("dot.18317")
#loc5982 = loc("dot.18223")
#loc6007 = loc("reduce.18359")
#loc6016 = loc("dot.18397")
#loc6020 = loc("reduce.18429")
#loc6030 = loc("sort.13692")
#loc6036 = loc("sort.2560")
#loc6042 = loc("sort.17740")
#loc6048 = loc("sort.13186")
#loc6054 = loc("sort.16222")
#loc6060 = loc("sort.17234")
#loc6066 = loc("sort.15210")
#loc6072 = loc("sort.4584")
#loc6078 = loc("sort.1548")
#loc6084 = loc("sort.12174")
#loc6090 = loc("sort.8632")
#loc6096 = loc("sort.9138")
#loc6102 = loc("sort.3572")
#loc6108 = loc("sort.8126")
#loc6114 = loc("sort.7620")
#loc6120 = loc("sort.502")
#loc6126 = loc("sort.10150")
#loc6132 = loc("sort.7114")
#loc6138 = loc("sort.11162")
#loc6144 = loc("sort.15716")
#loc6150 = loc("sort.2054")
#loc6156 = loc("sort.14198")
#loc6162 = loc("sort.12680")
#loc6168 = loc("sort.9644")
#loc6174 = loc("sort.18245")
#loc6180 = loc("sort.16728")
#loc6186 = loc("sort.6102")
#loc6192 = loc("sort.5090")
#loc6198 = loc("sort.6608")
#loc6204 = loc("sort.5596")
#loc6210 = loc("sort.4078")
#loc6216 = loc("sort.10656")
#loc6222 = loc("sort.3066")
#loc6228 = loc("sort.11668")
#loc6234 = loc("sort.1042")
#loc6240 = loc("sort.14704")
module @SyncTensorsGraph.18434 attributes {mhlo.cross_program_prefetches = [], mhlo.input_output_alias = [], mhlo.is_dynamic = false, mhlo.use_auto_spmd_partitioning = false} {
  sdy.mesh @mesh = <["_axis_0"=4, "_axis_1"=8]> loc(#loc)
  func.func @main(%arg0: tensor<1xi64> {ttcore.argument_type = #ttcore.argument_type<input>, ttcore.local_shape = #ttcore<local_shape local_shape = tensor<1xi64>>, ttcore.shard_status = #ttcore.shard_status<presharded>, ttir.name = "args_1"} loc("p0.3"), %arg1: tensor<32xbf16> {ttcore.argument_type = #ttcore.argument_type<constant>, ttcore.local_shape = #ttcore<local_shape local_shape = tensor<32xbf16>>, ttcore.shard_status = #ttcore.shard_status<presharded>, ttir.name = "model.model.rotary_emb.inv_freq"} loc("p1.11"), %arg2: tensor<512xbf16> {ttcore.argument_type = #ttcore.argument_type<parameter>, ttcore.local_shape = #ttcore<local_shape local_shape = tensor<64xbf16>>, ttcore.shard_status = #ttcore.shard_status<presharded>, ttir.name = "self___model_model_layers_0_self_attn_k_proj__parameters__bias"} loc("p2.28"), %arg3: tensor<512x2880xbf16> {ttcore.argument_type = #ttcore.argument_type<parameter>, ttcore.local_shape = #ttcore<local_shape local_shape = tensor<64x720xbf16>>, ttcore.shard_status = #ttcore.shard_status<presharded>, ttir.name = "self___model_model_layers_0_self_attn_k_proj__parameters__weight"} loc("p3.32"), %arg4: tensor<2880xbf16> {ttcore.argument_type = #ttcore.argument_type<parameter>, ttcore.local_shape = #ttcore<local_shape local_shape = tensor<720xbf16>>, ttcore.shard_status = #ttcore.shard_status<presharded>, ttir.name = "model.model.layers.0.input_layernorm.weight"} loc("p4.37"), %arg5: tensor<64x1xi64> {ttcore.argument_type = #ttcore.argument_type<input>, ttcore.local_shape = #ttcore<local_shape local_shape = tensor<64x1xi64>>, ttcore.shard_status = #ttcore.shard_status<presharded>, ttir.name = "args_0"} loc("p5.46"), %arg6: tensor<201088x2880xbf16> {ttcore.argument_type = #ttcore.argument_type<parameter>, ttcore.local_shape = #ttcore<local_shape local_shape = tensor<201088x720xbf16>>, ttcore.shard_status = #ttcore.shard_status<presharded>, ttir.name = "model.model.embed_tokens.weight"} loc("p6.51"), %arg7: tensor<64x8x128x64xbf16> {ttcore.argument_type = #ttcore.argument_type<input>, ttcore.local_shape = #ttcore<local_shape local_shape = tensor<64x1x128x64xbf16>>, ttcore.shard_status = #ttcore.shard_status<presharded>, ttir.name = "args_2"} loc("p7.138"), %arg8: tensor<512xbf16> {ttcore.argument_type = #ttcore.argument_type<parameter>, ttcore.local_shape = #ttcore<local_shape local_shape = tensor<64xbf16>>, ttcore.shard_status = #ttcore.shard_status<presharded>, ttir.name = "self___model_model_layers_0_self_attn_v_proj__parameters__bias"} loc("p8.147"), %arg9: tensor<512x2880xbf16> {ttcore.argument_type = #ttcore.argument_type<parameter>, ttcore.local_shape = #ttcore<local_shape local_shape = tensor<64x720xbf16>>, ttcore.shard_status = #ttcore.shard_status<presharded>, ttir.name = "self___model_model_layers_0_self_attn_v_proj__parameters__weight"} loc("p9.151"), %arg10: tensor<64x8x128x64xbf16> {ttcore.argument_type = #ttcore.argument_type<input>, ttcore.local_shape = #ttcore<local_shape local_shape = tensor<64x1x128x64xbf16>>, ttcore.shard_status = #ttcore.shard_status<presharded>, ttir.name = "args_3"} loc("p10.175"), %arg11: tensor<512xbf16> {ttcore.argument_type = #ttcore.argument_type<parameter>, ttcore.local_shape = #ttcore<local_shape local_shape = tensor<64xbf16>>, ttcore.shard_status = #ttcore.shard_status<presharded>, ttir.name = "self___model_model_layers_1_self_attn_k_proj__parameters__bias"} loc("p11.186"), %arg12: tensor<512x2880xbf16> {ttcore.argument_type = #ttcore.argument_type<parameter>, ttcore.local_shape = #ttcore<local_shape local_shape = tensor<64x720xbf16>>, ttcore.shard_status = #ttcore.shard_status<presharded>, ttir.name = "self___model_model_layers_1_self_attn_k_proj__parameters__weight"} loc("p12.190"), %arg13: tensor<2880xbf16> {ttcore.argument_type = #ttcore.argument_type<parameter>, ttcore.local_shape = #ttcore<local_shape local_shape = tensor<720xbf16>>, ttcore.shard_status = #ttcore.shard_status<presharded>, ttir.name = "model.model.layers.1.input_layernorm.weight"} loc("p13.195"), %arg14: tensor<128xbf16> {ttcore.argument_type = #ttcore.argument_type<parameter>, ttcore.local_shape = #ttcore<local_shape local_shape = tensor<128xbf16>>, ttcore.shard_status = #ttcore.shard_status<presharded>, ttir.name = "model.model.layers.0.mlp.router.bias"} loc("p14.207"), %arg15: tensor<128x2880xbf16> {ttcore.argument_type = #ttcore.argument_type<parameter>, ttcore.local_shape = #ttcore<local_shape local_shape = tensor<128x720xbf16>>, ttcore.shard_status = #ttcore.shard_status<presharded>, ttcore.weight_dtype = "bfp_bf4", ttir.name = "model.model.layers.0.mlp.router.parametrizations.weight.original"} loc("p15.215"), %arg16: tensor<2880xbf16> {ttcore.argument_type = #ttcore.argument_type<parameter>, ttcore.local_shape = #ttcore<local_shape local_shape = tensor<720xbf16>>, ttcore.shard_status = #ttcore.shard_status<presharded>, ttir.name = "model.model.layers.0.post_attention_layernorm.weight"} loc("p16.224"), %arg17: tensor<2880xbf16> {ttcore.argument_type = #ttcore.argument_type<parameter>, ttcore.local_shape = #ttcore<local_shape local_shape = tensor<720xbf16>>, ttcore.shard_status = #ttcore.shard_status<presharded>, ttir.name = "self___model_model_layers_0_self_attn_o_proj__parameters__bias"} loc("p17.235"), %arg18: tensor<2880x4096xbf16> {ttcore.argument_type = #ttcore.argument_type<parameter>, ttcore.local_shape = #ttcore<local_shape local_shape = tensor<720x512xbf16>>, ttcore.shard_status = #ttcore.shard_status<presharded>, ttir.name = "self___model_model_layers_0_self_attn_o_proj__parameters__weight"} loc("p18.239"), %arg19: tensor<64xbf16> {ttcore.argument_type = #ttcore.argument_type<parameter>, ttcore.local_shape = #ttcore<local_shape local_shape = tensor<64xbf16>>, ttcore.shard_status = #ttcore.shard_status<presharded>, ttir.name = "model.model.layers.0.self_attn.sinks"} loc("p19.250"), %arg20: tensor<bf16> {ttcore.argument_type = #ttcore.argument_type<constant>, ttcore.local_shape = #ttcore<local_shape local_shape = tensor<bf16>>, ttcore.shard_status = #ttcore.shard_status<presharded>, ttir.name = "L['self'].model.model.lifted_tensor_1"} loc("p20.265"), %arg21: tensor<i1> {ttcore.argument_type = #ttcore.argument_type<input>, ttcore.local_shape = #ttcore<local_shape local_shape = tensor<i1>>, ttcore.shard_status = #ttcore.shard_status<presharded>} loc("p21.296"), %arg22: tensor<4096xbf16> {ttcore.argument_type = #ttcore.argument_type<parameter>, ttcore.local_shape = #ttcore<local_shape local_shape = tensor<512xbf16>>, ttcore.shard_status = #ttcore.shard_status<presharded>, ttir.name = "self___model_model_layers_0_self_attn_q_proj__parameters__bias"} loc("p22.319"), %arg23: tensor<4096x2880xbf16> {ttcore.argument_type = #ttcore.argument_type<parameter>, ttcore.local_shape = #ttcore<local_shape local_shape = tensor<512x720xbf16>>, ttcore.shard_status = #ttcore.shard_status<presharded>, ttir.name = "self___model_model_layers_0_self_attn_q_proj__parameters__weight"} loc("p23.323"), %arg24: tensor<128x2880xbf16> {ttcore.argument_type = #ttcore.argument_type<parameter>, ttcore.local_shape = #ttcore<local_shape local_shape = tensor<16x720xbf16>>, ttcore.shard_status = #ttcore.shard_status<presharded>, ttir.name = "model.model.layers.0.mlp.experts.down_proj_bias"} loc("p24.550"), %arg25: tensor<128x2880x2880xbf16> {ttcore.argument_type = #ttcore.argument_type<parameter>, ttcore.local_shape = #ttcore<local_shape local_shape = tensor<16x2880x720xbf16>>, ttcore.shard_status = #ttcore.shard_status<presharded>, ttcore.weight_dtype = "bfp_bf4", ttir.name = "model.model.layers.0.mlp.experts.parametrizations.down_proj.original"} loc("p25.555"), %arg26: tensor<128x5760xbf16> {ttcore.argument_type = #ttcore.argument_type<parameter>, ttcore.local_shape = #ttcore<local_shape local_shape = tensor<16x5760xbf16>>, ttcore.shard_status = #ttcore.shard_status<presharded>, ttir.name = "model.model.layers.0.mlp.experts.gate_up_proj_bias"} loc("p26.562"), %arg27: tensor<128x2880x5760xbf16> {ttcore.argument_type = #ttcore.argument_type<parameter>, ttcore.local_shape = #ttcore<local_shape local_shape = tensor<16x720x5760xbf16>>, ttcore.shard_status = #ttcore.shard_status<presharded>, ttcore.weight_dtype = "bfp_bf4", ttir.name = "model.model.layers.0.mlp.experts.parametrizations.gate_up_proj.original"} loc("p27.567"), %arg28: tensor<64x8x128x64xbf16> {ttcore.argument_type = #ttcore.argument_type<input>, ttcore.local_shape = #ttcore<local_shape local_shape = tensor<64x1x128x64xbf16>>, ttcore.shard_status = #ttcore.shard_status<presharded>, ttir.name = "args_4"} loc("p28.695"), %arg29: tensor<512xbf16> {ttcore.argument_type = #ttcore.argument_type<parameter>, ttcore.local_shape = #ttcore<local_shape local_shape = tensor<64xbf16>>, ttcore.shard_status = #ttcore.shard_status<presharded>, ttir.name = "self___model_model_layers_1_self_attn_v_proj__parameters__bias"} loc("p29.704"), %arg30: tensor<512x2880xbf16> {ttcore.argument_type = #ttcore.argument_type<parameter>, ttcore.local_shape = #ttcore<local_shape local_shape = tensor<64x720xbf16>>, ttcore.shard_status = #ttcore.shard_status<presharded>, ttir.name = "self___model_model_layers_1_self_attn_v_proj__parameters__weight"} loc("p30.708"), %arg31: tensor<64x8x128x64xbf16> {ttcore.argument_type = #ttcore.argument_type<input>, ttcore.local_shape = #ttcore<local_shape local_shape = tensor<64x1x128x64xbf16>>, ttcore.shard_status = #ttcore.shard_status<presharded>, ttir.name = "args_5"} loc("p31.732"), %arg32: tensor<512xbf16> {ttcore.argument_type = #ttcore.argument_type<parameter>, ttcore.local_shape = #ttcore<local_shape local_shape = tensor<64xbf16>>, ttcore.shard_status = #ttcore.shard_status<presharded>, ttir.name = "self___model_model_layers_2_self_attn_k_proj__parameters__bias"} loc("p32.743"), %arg33: tensor<512x2880xbf16> {ttcore.argument_type = #ttcore.argument_type<parameter>, ttcore.local_shape = #ttcore<local_shape local_shape = tensor<64x720xbf16>>, ttcore.shard_status = #ttcore.shard_status<presharded>, ttir.name = "self___model_model_layers_2_self_attn_k_proj__parameters__weight"} loc("p33.747"), %arg34: tensor<2880xbf16> {ttcore.argument_type = #ttcore.argument_type<parameter>, ttcore.local_shape = #ttcore<local_shape local_shape = tensor<720xbf16>>, ttcore.shard_status = #ttcore.shard_status<presharded>, ttir.name = "model.model.layers.2.input_layernorm.weight"} loc("p34.752"), %arg35: tensor<128xbf16> {ttcore.argument_type = #ttcore.argument_type<parameter>, ttcore.local_shape = #ttcore<local_shape local_shape = tensor<128xbf16>>, ttcore.shard_status = #ttcore.shard_status<presharded>, ttir.name = "model.model.layers.1.mlp.router.bias"} loc("p35.764"), %arg36: tensor<128x2880xbf16> {ttcore.argument_type = #ttcore.argument_type<parameter>, ttcore.local_shape = #ttcore<local_shape local_shape = tensor<128x720xbf16>>, ttcore.shard_status = #ttcore.shard_status<presharded>, ttcore.weight_dtype = "bfp_bf4", ttir.name = "model.model.layers.1.mlp.router.parametrizations.weight.original"} loc("p36.772"), %arg37: tensor<2880xbf16> {ttcore.argument_type = #ttcore.argument_type<parameter>, ttcore.local_shape = #ttcore<local_shape local_shape = tensor<720xbf16>>, ttcore.shard_status = #ttcore.shard_status<presharded>, ttir.name = "model.model.layers.1.post_attention_layernorm.weight"} loc("p37.781"), %arg38: tensor<2880xbf16> {ttcore.argument_type = #ttcore.argument_type<parameter>, ttcore.local_shape = #ttcore<local_shape local_shape = tensor<720xbf16>>, ttcore.shard_status = #ttcore.shard_status<presharded>, ttir.name = "self___model_model_layers_1_self_attn_o_proj__parameters__bias"} loc("p38.792"), %arg39: tensor<2880x4096xbf16> {ttcore.argument_type = #ttcore.argument_type<parameter>, ttcore.local_shape = #ttcore<local_shape local_shape = tensor<720x512xbf16>>, ttcore.shard_status = #ttcore.shard_status<presharded>, ttir.name = "self___model_model_layers_1_self_attn_o_proj__parameters__weight"} loc("p39.796"), %arg40: tensor<64xbf16> {ttcore.argument_type = #ttcore.argument_type<parameter>, ttcore.local_shape = #ttcore<local_shape local_shape = tensor<64xbf16>>, ttcore.shard_status = #ttcore.shard_status<presharded>, ttir.name = "model.model.layers.1.self_attn.sinks"} loc("p40.807"), %arg41: tensor<bf16> {ttcore.argument_type = #ttcore.argument_type<constant>, ttcore.local_shape = #ttcore<local_shape local_shape = tensor<bf16>>, ttcore.shard_status = #ttcore.shard_status<presharded>, ttir.name = "L['self'].model.model.lifted_tensor_0"} loc("p41.822"), %arg42: tensor<4096xbf16> {ttcore.argument_type = #ttcore.argument_type<parameter>, ttcore.local_shape = #ttcore<local_shape local_shape = tensor<512xbf16>>, ttcore.shard_status = #ttcore.shard_status<presharded>, ttir.name = "self___model_model_layers_1_self_attn_q_proj__parameters__bias"} loc("p42.859"), %arg43: tensor<4096x2880xbf16> {ttcore.argument_type = #ttcore.argument_type<parameter>, ttcore.local_shape = #ttcore<local_shape local_shape = tensor<512x720xbf16>>, ttcore.shard_status = #ttcore.shard_status<presharded>, ttir.name = "self___model_model_layers_1_self_attn_q_proj__parameters__weight"} loc("p43.863"), %arg44: tensor<128x2880xbf16> {ttcore.argument_type = #ttcore.argument_type<parameter>, ttcore.local_shape = #ttcore<local_shape local_shape = tensor<16x720xbf16>>, ttcore.shard_status = #ttcore.shard_status<presharded>, ttir.name = "model.model.layers.1.mlp.experts.down_proj_bias"} loc("p44.1090"), %arg45: tensor<128x2880x2880xbf16> {ttcore.argument_type = #ttcore.argument_type<parameter>, ttcore.local_shape = #ttcore<local_shape local_shape = tensor<16x2880x720xbf16>>, ttcore.shard_status = #ttcore.shard_status<presharded>, ttcore.weight_dtype = "bfp_bf4", ttir.name = "model.model.layers.1.mlp.experts.parametrizations.down_proj.original"} loc("p45.1095"), %arg46: tensor<128x5760xbf16> {ttcore.argument_type = #ttcore.argument_type<parameter>, ttcore.local_shape = #ttcore<local_shape local_shape = tensor<16x5760xbf16>>, ttcore.shard_status = #ttcore.shard_status<presharded>, ttir.name = "model.model.layers.1.mlp.experts.gate_up_proj_bias"} loc("p46.1102"), %arg47: tensor<128x2880x5760xbf16> {ttcore.argument_type = #ttcore.argument_type<parameter>, ttcore.local_shape = #ttcore<local_shape local_shape = tensor<16x720x5760xbf16>>, ttcore.shard_status = #ttcore.shard_status<presharded>, ttcore.weight_dtype = "bfp_bf4", ttir.name = "model.model.layers.1.mlp.experts.parametrizations.gate_up_proj.original"} loc("p47.1107"), %arg48: tensor<64x8x128x64xbf16> {ttcore.argument_type = #ttcore.argument_type<input>, ttcore.local_shape = #ttcore<local_shape local_shape = tensor<64x1x128x64xbf16>>, ttcore.shard_status = #ttcore.shard_status<presharded>, ttir.name = "args_6"} loc("p48.1235"), %arg49: tensor<512xbf16> {ttcore.argument_type = #ttcore.argument_type<parameter>, ttcore.local_shape = #ttcore<local_shape local_shape = tensor<64xbf16>>, ttcore.shard_status = #ttcore.shard_status<presharded>, ttir.name = "self___model_model_layers_2_self_attn_v_proj__parameters__bias"} loc("p49.1244"), %arg50: tensor<512x2880xbf16> {ttcore.argument_type = #ttcore.argument_type<parameter>, ttcore.local_shape = #ttcore<local_shape local_shape = tensor<64x720xbf16>>, ttcore.shard_status = #ttcore.shard_status<presharded>, ttir.name = "self___model_model_layers_2_self_attn_v_proj__parameters__weight"} loc("p50.1248"), %arg51: tensor<64x8x128x64xbf16> {ttcore.argument_type = #ttcore.argument_type<input>, ttcore.local_shape = #ttcore<local_shape local_shape = tensor<64x1x128x64xbf16>>, ttcore.shard_status = #ttcore.shard_status<presharded>, ttir.name = "args_7"} loc("p51.1272"), %arg52: tensor<512xbf16> {ttcore.argument_type = #ttcore.argument_type<parameter>, ttcore.local_shape = #ttcore<local_shape local_shape = tensor<64xbf16>>, ttcore.shard_status = #ttcore.shard_status<presharded>, ttir.name = "self___model_model_layers_3_self_attn_k_proj__parameters__bias"} loc("p52.1283"), %arg53: tensor<512x2880xbf16> {ttcore.argument_type = #ttcore.argument_type<parameter>, ttcore.local_shape = #ttcore<local_shape local_shape = tensor<64x720xbf16>>, ttcore.shard_status = #ttcore.shard_status<presharded>, ttir.name = "self___model_model_layers_3_self_attn_k_proj__parameters__weight"} loc("p53.1287"), %arg54: tensor<2880xbf16> {ttcore.argument_type = #ttcore.argument_type<parameter>, ttcore.local_shape = #ttcore<local_shape local_shape = tensor<720xbf16>>, ttcore.shard_status = #ttcore.shard_status<presharded>, ttir.name = "model.model.layers.3.input_layernorm.weight"} loc("p54.1292"), %arg55: tensor<128xbf16> {ttcore.argument_type = #ttcore.argument_type<parameter>, ttcore.local_shape = #ttcore<local_shape local_shape = tensor<128xbf16>>, ttcore.shard_status = #ttcore.shard_status<presharded>, ttir.name = "model.model.layers.2.mlp.router.bias"} loc("p55.1304"), %arg56: tensor<128x2880xbf16> {ttcore.argument_type = #ttcore.argument_type<parameter>, ttcore.local_shape = #ttcore<local_shape local_shape = tensor<128x720xbf16>>, ttcore.shard_status = #ttcore.shard_status<presharded>, ttcore.weight_dtype = "bfp_bf4", ttir.name = "model.model.layers.2.mlp.router.parametrizations.weight.original"} loc("p56.1312"), %arg57: tensor<2880xbf16> {ttcore.argument_type = #ttcore.argument_type<parameter>, ttcore.local_shape = #ttcore<local_shape local_shape = tensor<720xbf16>>, ttcore.shard_status = #ttcore.shard_status<presharded>, ttir.name = "model.model.layers.2.post_attention_layernorm.weight"} loc("p57.1321"), %arg58: tensor<2880xbf16> {ttcore.argument_type = #ttcore.argument_type<parameter>, ttcore.local_shape = #ttcore<local_shape local_shape = tensor<720xbf16>>, ttcore.shard_status = #ttcore.shard_status<presharded>, ttir.name = "self___model_model_layers_2_self_attn_o_proj__parameters__bias"} loc("p58.1332"), %arg59: tensor<2880x4096xbf16> {ttcore.argument_type = #ttcore.argument_type<parameter>, ttcore.local_shape = #ttcore<local_shape local_shape = tensor<720x512xbf16>>, ttcore.shard_status = #ttcore.shard_status<presharded>, ttir.name = "self___model_model_layers_2_self_attn_o_proj__parameters__weight"} loc("p59.1336"), %arg60: tensor<64xbf16> {ttcore.argument_type = #ttcore.argument_type<parameter>, ttcore.local_shape = #ttcore<local_shape local_shape = tensor<64xbf16>>, ttcore.shard_status = #ttcore.shard_status<presharded>, ttir.name = "model.model.layers.2.self_attn.sinks"} loc("p60.1347"), %arg61: tensor<4096xbf16> {ttcore.argument_type = #ttcore.argument_type<parameter>, ttcore.local_shape = #ttcore<local_shape local_shape = tensor<512xbf16>>, ttcore.shard_status = #ttcore.shard_status<presharded>, ttir.name = "self___model_model_layers_2_self_attn_q_proj__parameters__bias"} loc("p61.1365"), %arg62: tensor<4096x2880xbf16> {ttcore.argument_type = #ttcore.argument_type<parameter>, ttcore.local_shape = #ttcore<local_shape local_shape = tensor<512x720xbf16>>, ttcore.shard_status = #ttcore.shard_status<presharded>, ttir.name = "self___model_model_layers_2_self_attn_q_proj__parameters__weight"} loc("p62.1369"), %arg63: tensor<128x2880xbf16> {ttcore.argument_type = #ttcore.argument_type<parameter>, ttcore.local_shape = #ttcore<local_shape local_shape = tensor<16x720xbf16>>, ttcore.shard_status = #ttcore.shard_status<presharded>, ttir.name = "model.model.layers.2.mlp.experts.down_proj_bias"} loc("p63.1596"), %arg64: tensor<128x2880x2880xbf16> {ttcore.argument_type = #ttcore.argument_type<parameter>, ttcore.local_shape = #ttcore<local_shape local_shape = tensor<16x2880x720xbf16>>, ttcore.shard_status = #ttcore.shard_status<presharded>, ttcore.weight_dtype = "bfp_bf4", ttir.name = "model.model.layers.2.mlp.experts.parametrizations.down_proj.original"} loc("p64.1601"), %arg65: tensor<128x5760xbf16> {ttcore.argument_type = #ttcore.argument_type<parameter>, ttcore.local_shape = #ttcore<local_shape local_shape = tensor<16x5760xbf16>>, ttcore.shard_status = #ttcore.shard_status<presharded>, ttir.name = "model.model.layers.2.mlp.experts.gate_up_proj_bias"} loc("p65.1608"), %arg66: tensor<128x2880x5760xbf16> {ttcore.argument_type = #ttcore.argument_type<parameter>, ttcore.local_shape = #ttcore<local_shape local_shape = tensor<16x720x5760xbf16>>, ttcore.shard_status = #ttcore.shard_status<presharded>, ttcore.weight_dtype = "bfp_bf4", ttir.name = "model.model.layers.2.mlp.experts.parametrizations.gate_up_proj.original"} loc("p66.1613"), %arg67: tensor<64x8x128x64xbf16> {ttcore.argument_type = #ttcore.argument_type<input>, ttcore.local_shape = #ttcore<local_shape local_shape = tensor<64x1x128x64xbf16>>, ttcore.shard_status = #ttcore.shard_status<presharded>, ttir.name = "args_8"} loc("p67.1741"), %arg68: tensor<512xbf16> {ttcore.argument_type = #ttcore.argument_type<parameter>, ttcore.local_shape = #ttcore<local_shape local_shape = tensor<64xbf16>>, ttcore.shard_status = #ttcore.shard_status<presharded>, ttir.name = "self___model_model_layers_3_self_attn_v_proj__parameters__bias"} loc("p68.1750"), %arg69: tensor<512x2880xbf16> {ttcore.argument_type = #ttcore.argument_type<parameter>, ttcore.local_shape = #ttcore<local_shape local_shape = tensor<64x720xbf16>>, ttcore.shard_status = #ttcore.shard_status<presharded>, ttir.name = "self___model_model_layers_3_self_attn_v_proj__parameters__weight"} loc("p69.1754"), %arg70: tensor<64x8x128x64xbf16> {ttcore.argument_type = #ttcore.argument_type<input>, ttcore.local_shape = #ttcore<local_shape local_shape = tensor<64x1x128x64xbf16>>, ttcore.shard_status = #ttcore.shard_status<presharded>, ttir.name = "args_9"} loc("p70.1778"), %arg71: tensor<512xbf16> {ttcore.argument_type = #ttcore.argument_type<parameter>, ttcore.local_shape = #ttcore<local_shape local_shape = tensor<64xbf16>>, ttcore.shard_status = #ttcore.shard_status<presharded>, ttir.name = "self___model_model_layers_4_self_attn_k_proj__parameters__bias"} loc("p71.1789"), %arg72: tensor<512x2880xbf16> {ttcore.argument_type = #ttcore.argument_type<parameter>, ttcore.local_shape = #ttcore<local_shape local_shape = tensor<64x720xbf16>>, ttcore.shard_status = #ttcore.shard_status<presharded>, ttir.name = "self___model_model_layers_4_self_attn_k_proj__parameters__weight"} loc("p72.1793"), %arg73: tensor<2880xbf16> {ttcore.argument_type = #ttcore.argument_type<parameter>, ttcore.local_shape = #ttcore<local_shape local_shape = tensor<720xbf16>>, ttcore.shard_status = #ttcore.shard_status<presharded>, ttir.name = "model.model.layers.4.input_layernorm.weight"} loc("p73.1798"), %arg74: tensor<128xbf16> {ttcore.argument_type = #ttcore.argument_type<parameter>, ttcore.local_shape = #ttcore<local_shape local_shape = tensor<128xbf16>>, ttcore.shard_status = #ttcore.shard_status<presharded>, ttir.name = "model.model.layers.3.mlp.router.bias"} loc("p74.1810"), %arg75: tensor<128x2880xbf16> {ttcore.argument_type = #ttcore.argument_type<parameter>, ttcore.local_shape = #ttcore<local_shape local_shape = tensor<128x720xbf16>>, ttcore.shard_status = #ttcore.shard_status<presharded>, ttcore.weight_dtype = "bfp_bf4", ttir.name = "model.model.layers.3.mlp.router.parametrizations.weight.original"} loc("p75.1818"), %arg76: tensor<2880xbf16> {ttcore.argument_type = #ttcore.argument_type<parameter>, ttcore.local_shape = #ttcore<local_shape local_shape = tensor<720xbf16>>, ttcore.shard_status = #ttcore.shard_status<presharded>, ttir.name = "model.model.layers.3.post_attention_layernorm.weight"} loc("p76.1827"), %arg77: tensor<2880xbf16> {ttcore.argument_type = #ttcore.argument_type<parameter>, ttcore.local_shape = #ttcore<local_shape local_shape = tensor<720xbf16>>, ttcore.shard_status = #ttcore.shard_status<presharded>, ttir.name = "self___model_model_layers_3_self_attn_o_proj__parameters__bias"} loc("p77.1838"), %arg78: tensor<2880x4096xbf16> {ttcore.argument_type = #ttcore.argument_type<parameter>, ttcore.local_shape = #ttcore<local_shape local_shape = tensor<720x512xbf16>>, ttcore.shard_status = #ttcore.shard_status<presharded>, ttir.name = "self___model_model_layers_3_self_attn_o_proj__parameters__weight"} loc("p78.1842"), %arg79: tensor<64xbf16> {ttcore.argument_type = #ttcore.argument_type<parameter>, ttcore.local_shape = #ttcore<local_shape local_shape = tensor<64xbf16>>, ttcore.shard_status = #ttcore.shard_status<presharded>, ttir.name = "model.model.layers.3.self_attn.sinks"} loc("p79.1853"), %arg80: tensor<4096xbf16> {ttcore.argument_type = #ttcore.argument_type<parameter>, ttcore.local_shape = #ttcore<local_shape local_shape = tensor<512xbf16>>, ttcore.shard_status = #ttcore.shard_status<presharded>, ttir.name = "self___model_model_layers_3_self_attn_q_proj__parameters__bias"} loc("p80.1871"), %arg81: tensor<4096x2880xbf16> {ttcore.argument_type = #ttcore.argument_type<parameter>, ttcore.local_shape = #ttcore<local_shape local_shape = tensor<512x720xbf16>>, ttcore.shard_status = #ttcore.shard_status<presharded>, ttir.name = "self___model_model_layers_3_self_attn_q_proj__parameters__weight"} loc("p81.1875"), %arg82: tensor<128x2880xbf16> {ttcore.argument_type = #ttcore.argument_type<parameter>, ttcore.local_shape = #ttcore<local_shape local_shape = tensor<16x720xbf16>>, ttcore.shard_status = #ttcore.shard_status<presharded>, ttir.name = "model.model.layers.3.mlp.experts.down_proj_bias"} loc("p82.2102"), %arg83: tensor<128x2880x2880xbf16> {ttcore.argument_type = #ttcore.argument_type<parameter>, ttcore.local_shape = #ttcore<local_shape local_shape = tensor<16x2880x720xbf16>>, ttcore.shard_status = #ttcore.shard_status<presharded>, ttcore.weight_dtype = "bfp_bf4", ttir.name = "model.model.layers.3.mlp.experts.parametrizations.down_proj.original"} loc("p83.2107"), %arg84: tensor<128x5760xbf16> {ttcore.argument_type = #ttcore.argument_type<parameter>, ttcore.local_shape = #ttcore<local_shape local_shape = tensor<16x5760xbf16>>, ttcore.shard_status = #ttcore.shard_status<presharded>, ttir.name = "model.model.layers.3.mlp.experts.gate_up_proj_bias"} loc("p84.2114"), %arg85: tensor<128x2880x5760xbf16> {ttcore.argument_type = #ttcore.argument_type<parameter>, ttcore.local_shape = #ttcore<local_shape local_shape = tensor<16x720x5760xbf16>>, ttcore.shard_status = #ttcore.shard_status<presharded>, ttcore.weight_dtype = "bfp_bf4", ttir.name = "model.model.layers.3.mlp.experts.parametrizations.gate_up_proj.original"} loc("p85.2119"), %arg86: tensor<64x8x128x64xbf16> {ttcore.argument_type = #ttcore.argument_type<input>, ttcore.local_shape = #ttcore<local_shape local_shape = tensor<64x1x128x64xbf16>>, ttcore.shard_status = #ttcore.shard_status<presharded>, ttir.name = "args_10"} loc("p86.2247"), %arg87: tensor<512xbf16> {ttcore.argument_type = #ttcore.argument_type<parameter>, ttcore.local_shape = #ttcore<local_shape local_shape = tensor<64xbf16>>, ttcore.shard_status = #ttcore.shard_status<presharded>, ttir.name = "self___model_model_layers_4_self_attn_v_proj__parameters__bias"} loc("p87.2256"), %arg88: tensor<512x2880xbf16> {ttcore.argument_type = #ttcore.argument_type<parameter>, ttcore.local_shape = #ttcore<local_shape local_shape = tensor<64x720xbf16>>, ttcore.shard_status = #ttcore.shard_status<presharded>, ttir.name = "self___model_model_layers_4_self_attn_v_proj__parameters__weight"} loc("p88.2260"), %arg89: tensor<64x8x128x64xbf16> {ttcore.argument_type = #ttcore.argument_type<input>, ttcore.local_shape = #ttcore<local_shape local_shape = tensor<64x1x128x64xbf16>>, ttcore.shard_status = #ttcore.shard_status<presharded>, ttir.name = "args_11"} loc("p89.2284"), %arg90: tensor<512xbf16> {ttcore.argument_type = #ttcore.argument_type<parameter>, ttcore.local_shape = #ttcore<local_shape local_shape = tensor<64xbf16>>, ttcore.shard_status = #ttcore.shard_status<presharded>, ttir.name = "self___model_model_layers_5_self_attn_k_proj__parameters__bias"} loc("p90.2295"), %arg91: tensor<512x2880xbf16> {ttcore.argument_type = #ttcore.argument_type<parameter>, ttcore.local_shape = #ttcore<local_shape local_shape = tensor<64x720xbf16>>, ttcore.shard_status = #ttcore.shard_status<presharded>, ttir.name = "self___model_model_layers_5_self_attn_k_proj__parameters__weight"} loc("p91.2299"), %arg92: tensor<2880xbf16> {ttcore.argument_type = #ttcore.argument_type<parameter>, ttcore.local_shape = #ttcore<local_shape local_shape = tensor<720xbf16>>, ttcore.shard_status = #ttcore.shard_status<presharded>, ttir.name = "model.model.layers.5.input_layernorm.weight"} loc("p92.2304"), %arg93: tensor<128xbf16> {ttcore.argument_type = #ttcore.argument_type<parameter>, ttcore.local_shape = #ttcore<local_shape local_shape = tensor<128xbf16>>, ttcore.shard_status = #ttcore.shard_status<presharded>, ttir.name = "model.model.layers.4.mlp.router.bias"} loc("p93.2316"), %arg94: tensor<128x2880xbf16> {ttcore.argument_type = #ttcore.argument_type<parameter>, ttcore.local_shape = #ttcore<local_shape local_shape = tensor<128x720xbf16>>, ttcore.shard_status = #ttcore.shard_status<presharded>, ttcore.weight_dtype = "bfp_bf4", ttir.name = "model.model.layers.4.mlp.router.parametrizations.weight.original"} loc("p94.2324"), %arg95: tensor<2880xbf16> {ttcore.argument_type = #ttcore.argument_type<parameter>, ttcore.local_shape = #ttcore<local_shape local_shape = tensor<720xbf16>>, ttcore.shard_status = #ttcore.shard_status<presharded>, ttir.name = "model.model.layers.4.post_attention_layernorm.weight"} loc("p95.2333"), %arg96: tensor<2880xbf16> {ttcore.argument_type = #ttcore.argument_type<parameter>, ttcore.local_shape = #ttcore<local_shape local_shape = tensor<720xbf16>>, ttcore.shard_status = #ttcore.shard_status<presharded>, ttir.name = "self___model_model_layers_4_self_attn_o_proj__parameters__bias"} loc("p96.2344"), %arg97: tensor<2880x4096xbf16> {ttcore.argument_type = #ttcore.argument_type<parameter>, ttcore.local_shape = #ttcore<local_shape local_shape = tensor<720x512xbf16>>, ttcore.shard_status = #ttcore.shard_status<presharded>, ttir.name = "self___model_model_layers_4_self_attn_o_proj__parameters__weight"} loc("p97.2348"), %arg98: tensor<64xbf16> {ttcore.argument_type = #ttcore.argument_type<parameter>, ttcore.local_shape = #ttcore<local_shape local_shape = tensor<64xbf16>>, ttcore.shard_status = #ttcore.shard_status<presharded>, ttir.name = "model.model.layers.4.self_attn.sinks"} loc("p98.2359"), %arg99: tensor<4096xbf16> {ttcore.argument_type = #ttcore.argument_type<parameter>, ttcore.local_shape = #ttcore<local_shape local_shape = tensor<512xbf16>>, ttcore.shard_status = #ttcore.shard_status<presharded>, ttir.name = "self___model_model_layers_4_self_attn_q_proj__parameters__bias"} loc("p99.2377"), %arg100: tensor<4096x2880xbf16> {ttcore.argument_type = #ttcore.argument_type<parameter>, ttcore.local_shape = #ttcore<local_shape local_shape = tensor<512x720xbf16>>, ttcore.shard_status = #ttcore.shard_status<presharded>, ttir.name = "self___model_model_layers_4_self_attn_q_proj__parameters__weight"} loc("p100.2381"), %arg101: tensor<128x2880xbf16> {ttcore.argument_type = #ttcore.argument_type<parameter>, ttcore.local_shape = #ttcore<local_shape local_shape = tensor<16x720xbf16>>, ttcore.shard_status = #ttcore.shard_status<presharded>, ttir.name = "model.model.layers.4.mlp.experts.down_proj_bias"} loc("p101.2608"), %arg102: tensor<128x2880x2880xbf16> {ttcore.argument_type = #ttcore.argument_type<parameter>, ttcore.local_shape = #ttcore<local_shape local_shape = tensor<16x2880x720xbf16>>, ttcore.shard_status = #ttcore.shard_status<presharded>, ttcore.weight_dtype = "bfp_bf4", ttir.name = "model.model.layers.4.mlp.experts.parametrizations.down_proj.original"} loc("p102.2613"), %arg103: tensor<128x5760xbf16> {ttcore.argument_type = #ttcore.argument_type<parameter>, ttcore.local_shape = #ttcore<local_shape local_shape = tensor<16x5760xbf16>>, ttcore.shard_status = #ttcore.shard_status<presharded>, ttir.name = "model.model.layers.4.mlp.experts.gate_up_proj_bias"} loc("p103.2620"), %arg104: tensor<128x2880x5760xbf16> {ttcore.argument_type = #ttcore.argument_type<parameter>, ttcore.local_shape = #ttcore<local_shape local_shape = tensor<16x720x5760xbf16>>, ttcore.shard_status = #ttcore.shard_status<presharded>, ttcore.weight_dtype = "bfp_bf4", ttir.name = "model.model.layers.4.mlp.experts.parametrizations.gate_up_proj.original"} loc("p104.2625"), %arg105: tensor<64x8x128x64xbf16> {ttcore.argument_type = #ttcore.argument_type<input>, ttcore.local_shape = #ttcore<local_shape local_shape = tensor<64x1x128x64xbf16>>, ttcore.shard_status = #ttcore.shard_status<presharded>, ttir.name = "args_12"} loc("p105.2753"), %arg106: tensor<512xbf16> {ttcore.argument_type = #ttcore.argument_type<parameter>, ttcore.local_shape = #ttcore<local_shape local_shape = tensor<64xbf16>>, ttcore.shard_status = #ttcore.shard_status<presharded>, ttir.name = "self___model_model_layers_5_self_attn_v_proj__parameters__bias"} loc("p106.2762"), %arg107: tensor<512x2880xbf16> {ttcore.argument_type = #ttcore.argument_type<parameter>, ttcore.local_shape = #ttcore<local_shape local_shape = tensor<64x720xbf16>>, ttcore.shard_status = #ttcore.shard_status<presharded>, ttir.name = "self___model_model_layers_5_self_attn_v_proj__parameters__weight"} loc("p107.2766"), %arg108: tensor<64x8x128x64xbf16> {ttcore.argument_type = #ttcore.argument_type<input>, ttcore.local_shape = #ttcore<local_shape local_shape = tensor<64x1x128x64xbf16>>, ttcore.shard_status = #ttcore.shard_status<presharded>, ttir.name = "args_13"} loc("p108.2790"), %arg109: tensor<512xbf16> {ttcore.argument_type = #ttcore.argument_type<parameter>, ttcore.local_shape = #ttcore<local_shape local_shape = tensor<64xbf16>>, ttcore.shard_status = #ttcore.shard_status<presharded>, ttir.name = "self___model_model_layers_6_self_attn_k_proj__parameters__bias"} loc("p109.2801"), %arg110: tensor<512x2880xbf16> {ttcore.argument_type = #ttcore.argument_type<parameter>, ttcore.local_shape = #ttcore<local_shape local_shape = tensor<64x720xbf16>>, ttcore.shard_status = #ttcore.shard_status<presharded>, ttir.name = "self___model_model_layers_6_self_attn_k_proj__parameters__weight"} loc("p110.2805"), %arg111: tensor<2880xbf16> {ttcore.argument_type = #ttcore.argument_type<parameter>, ttcore.local_shape = #ttcore<local_shape local_shape = tensor<720xbf16>>, ttcore.shard_status = #ttcore.shard_status<presharded>, ttir.name = "model.model.layers.6.input_layernorm.weight"} loc("p111.2810"), %arg112: tensor<128xbf16> {ttcore.argument_type = #ttcore.argument_type<parameter>, ttcore.local_shape = #ttcore<local_shape local_shape = tensor<128xbf16>>, ttcore.shard_status = #ttcore.shard_status<presharded>, ttir.name = "model.model.layers.5.mlp.router.bias"} loc("p112.2822"), %arg113: tensor<128x2880xbf16> {ttcore.argument_type = #ttcore.argument_type<parameter>, ttcore.local_shape = #ttcore<local_shape local_shape = tensor<128x720xbf16>>, ttcore.shard_status = #ttcore.shard_status<presharded>, ttcore.weight_dtype = "bfp_bf4", ttir.name = "model.model.layers.5.mlp.router.parametrizations.weight.original"} loc("p113.2830"), %arg114: tensor<2880xbf16> {ttcore.argument_type = #ttcore.argument_type<parameter>, ttcore.local_shape = #ttcore<local_shape local_shape = tensor<720xbf16>>, ttcore.shard_status = #ttcore.shard_status<presharded>, ttir.name = "model.model.layers.5.post_attention_layernorm.weight"} loc("p114.2839"), %arg115: tensor<2880xbf16> {ttcore.argument_type = #ttcore.argument_type<parameter>, ttcore.local_shape = #ttcore<local_shape local_shape = tensor<720xbf16>>, ttcore.shard_status = #ttcore.shard_status<presharded>, ttir.name = "self___model_model_layers_5_self_attn_o_proj__parameters__bias"} loc("p115.2850"), %arg116: tensor<2880x4096xbf16> {ttcore.argument_type = #ttcore.argument_type<parameter>, ttcore.local_shape = #ttcore<local_shape local_shape = tensor<720x512xbf16>>, ttcore.shard_status = #ttcore.shard_status<presharded>, ttir.name = "self___model_model_layers_5_self_attn_o_proj__parameters__weight"} loc("p116.2854"), %arg117: tensor<64xbf16> {ttcore.argument_type = #ttcore.argument_type<parameter>, ttcore.local_shape = #ttcore<local_shape local_shape = tensor<64xbf16>>, ttcore.shard_status = #ttcore.shard_status<presharded>, ttir.name = "model.model.layers.5.self_attn.sinks"} loc("p117.2865"), %arg118: tensor<4096xbf16> {ttcore.argument_type = #ttcore.argument_type<parameter>, ttcore.local_shape = #ttcore<local_shape local_shape = tensor<512xbf16>>, ttcore.shard_status = #ttcore.shard_status<presharded>, ttir.name = "self___model_model_layers_5_self_attn_q_proj__parameters__bias"} loc("p118.2883"), %arg119: tensor<4096x2880xbf16> {ttcore.argument_type = #ttcore.argument_type<parameter>, ttcore.local_shape = #ttcore<local_shape local_shape = tensor<512x720xbf16>>, ttcore.shard_status = #ttcore.shard_status<presharded>, ttir.name = "self___model_model_layers_5_self_attn_q_proj__parameters__weight"} loc("p119.2887"), %arg120: tensor<128x2880xbf16> {ttcore.argument_type = #ttcore.argument_type<parameter>, ttcore.local_shape = #ttcore<local_shape local_shape = tensor<16x720xbf16>>, ttcore.shard_status = #ttcore.shard_status<presharded>, ttir.name = "model.model.layers.5.mlp.experts.down_proj_bias"} loc("p120.3114"), %arg121: tensor<128x2880x2880xbf16> {ttcore.argument_type = #ttcore.argument_type<parameter>, ttcore.local_shape = #ttcore<local_shape local_shape = tensor<16x2880x720xbf16>>, ttcore.shard_status = #ttcore.shard_status<presharded>, ttcore.weight_dtype = "bfp_bf4", ttir.name = "model.model.layers.5.mlp.experts.parametrizations.down_proj.original"} loc("p121.3119"), %arg122: tensor<128x5760xbf16> {ttcore.argument_type = #ttcore.argument_type<parameter>, ttcore.local_shape = #ttcore<local_shape local_shape = tensor<16x5760xbf16>>, ttcore.shard_status = #ttcore.shard_status<presharded>, ttir.name = "model.model.layers.5.mlp.experts.gate_up_proj_bias"} loc("p122.3126"), %arg123: tensor<128x2880x5760xbf16> {ttcore.argument_type = #ttcore.argument_type<parameter>, ttcore.local_shape = #ttcore<local_shape local_shape = tensor<16x720x5760xbf16>>, ttcore.shard_status = #ttcore.shard_status<presharded>, ttcore.weight_dtype = "bfp_bf4", ttir.name = "model.model.layers.5.mlp.experts.parametrizations.gate_up_proj.original"} loc("p123.3131"), %arg124: tensor<64x8x128x64xbf16> {ttcore.argument_type = #ttcore.argument_type<input>, ttcore.local_shape = #ttcore<local_shape local_shape = tensor<64x1x128x64xbf16>>, ttcore.shard_status = #ttcore.shard_status<presharded>, ttir.name = "args_14"} loc("p124.3259"), %arg125: tensor<512xbf16> {ttcore.argument_type = #ttcore.argument_type<parameter>, ttcore.local_shape = #ttcore<local_shape local_shape = tensor<64xbf16>>, ttcore.shard_status = #ttcore.shard_status<presharded>, ttir.name = "self___model_model_layers_6_self_attn_v_proj__parameters__bias"} loc("p125.3268"), %arg126: tensor<512x2880xbf16> {ttcore.argument_type = #ttcore.argument_type<parameter>, ttcore.local_shape = #ttcore<local_shape local_shape = tensor<64x720xbf16>>, ttcore.shard_status = #ttcore.shard_status<presharded>, ttir.name = "self___model_model_layers_6_self_attn_v_proj__parameters__weight"} loc("p126.3272"), %arg127: tensor<64x8x128x64xbf16> {ttcore.argument_type = #ttcore.argument_type<input>, ttcore.local_shape = #ttcore<local_shape local_shape = tensor<64x1x128x64xbf16>>, ttcore.shard_status = #ttcore.shard_status<presharded>, ttir.name = "args_15"} loc("p127.3296"), %arg128: tensor<512xbf16> {ttcore.argument_type = #ttcore.argument_type<parameter>, ttcore.local_shape = #ttcore<local_shape local_shape = tensor<64xbf16>>, ttcore.shard_status = #ttcore.shard_status<presharded>, ttir.name = "self___model_model_layers_7_self_attn_k_proj__parameters__bias"} loc("p128.3307"), %arg129: tensor<512x2880xbf16> {ttcore.argument_type = #ttcore.argument_type<parameter>, ttcore.local_shape = #ttcore<local_shape local_shape = tensor<64x720xbf16>>, ttcore.shard_status = #ttcore.shard_status<presharded>, ttir.name = "self___model_model_layers_7_self_attn_k_proj__parameters__weight"} loc("p129.3311"), %arg130: tensor<2880xbf16> {ttcore.argument_type = #ttcore.argument_type<parameter>, ttcore.local_shape = #ttcore<local_shape local_shape = tensor<720xbf16>>, ttcore.shard_status = #ttcore.shard_status<presharded>, ttir.name = "model.model.layers.7.input_layernorm.weight"} loc("p130.3316"), %arg131: tensor<128xbf16> {ttcore.argument_type = #ttcore.argument_type<parameter>, ttcore.local_shape = #ttcore<local_shape local_shape = tensor<128xbf16>>, ttcore.shard_status = #ttcore.shard_status<presharded>, ttir.name = "model.model.layers.6.mlp.router.bias"} loc("p131.3328"), %arg132: tensor<128x2880xbf16> {ttcore.argument_type = #ttcore.argument_type<parameter>, ttcore.local_shape = #ttcore<local_shape local_shape = tensor<128x720xbf16>>, ttcore.shard_status = #ttcore.shard_status<presharded>, ttcore.weight_dtype = "bfp_bf4", ttir.name = "model.model.layers.6.mlp.router.parametrizations.weight.original"} loc("p132.3336"), %arg133: tensor<2880xbf16> {ttcore.argument_type = #ttcore.argument_type<parameter>, ttcore.local_shape = #ttcore<local_shape local_shape = tensor<720xbf16>>, ttcore.shard_status = #ttcore.shard_status<presharded>, ttir.name = "model.model.layers.6.post_attention_layernorm.weight"} loc("p133.3345"), %arg134: tensor<2880xbf16> {ttcore.argument_type = #ttcore.argument_type<parameter>, ttcore.local_shape = #ttcore<local_shape local_shape = tensor<720xbf16>>, ttcore.shard_status = #ttcore.shard_status<presharded>, ttir.name = "self___model_model_layers_6_self_attn_o_proj__parameters__bias"} loc("p134.3356"), %arg135: tensor<2880x4096xbf16> {ttcore.argument_type = #ttcore.argument_type<parameter>, ttcore.local_shape = #ttcore<local_shape local_shape = tensor<720x512xbf16>>, ttcore.shard_status = #ttcore.shard_status<presharded>, ttir.name = "self___model_model_layers_6_self_attn_o_proj__parameters__weight"} loc("p135.3360"), %arg136: tensor<64xbf16> {ttcore.argument_type = #ttcore.argument_type<parameter>, ttcore.local_shape = #ttcore<local_shape local_shape = tensor<64xbf16>>, ttcore.shard_status = #ttcore.shard_status<presharded>, ttir.name = "model.model.layers.6.self_attn.sinks"} loc("p136.3371"), %arg137: tensor<4096xbf16> {ttcore.argument_type = #ttcore.argument_type<parameter>, ttcore.local_shape = #ttcore<local_shape local_shape = tensor<512xbf16>>, ttcore.shard_status = #ttcore.shard_status<presharded>, ttir.name = "self___model_model_layers_6_self_attn_q_proj__parameters__bias"} loc("p137.3389"), %arg138: tensor<4096x2880xbf16> {ttcore.argument_type = #ttcore.argument_type<parameter>, ttcore.local_shape = #ttcore<local_shape local_shape = tensor<512x720xbf16>>, ttcore.shard_status = #ttcore.shard_status<presharded>, ttir.name = "self___model_model_layers_6_self_attn_q_proj__parameters__weight"} loc("p138.3393"), %arg139: tensor<128x2880xbf16> {ttcore.argument_type = #ttcore.argument_type<parameter>, ttcore.local_shape = #ttcore<local_shape local_shape = tensor<16x720xbf16>>, ttcore.shard_status = #ttcore.shard_status<presharded>, ttir.name = "model.model.layers.6.mlp.experts.down_proj_bias"} loc("p139.3620"), %arg140: tensor<128x2880x2880xbf16> {ttcore.argument_type = #ttcore.argument_type<parameter>, ttcore.local_shape = #ttcore<local_shape local_shape = tensor<16x2880x720xbf16>>, ttcore.shard_status = #ttcore.shard_status<presharded>, ttcore.weight_dtype = "bfp_bf4", ttir.name = "model.model.layers.6.mlp.experts.parametrizations.down_proj.original"} loc("p140.3625"), %arg141: tensor<128x5760xbf16> {ttcore.argument_type = #ttcore.argument_type<parameter>, ttcore.local_shape = #ttcore<local_shape local_shape = tensor<16x5760xbf16>>, ttcore.shard_status = #ttcore.shard_status<presharded>, ttir.name = "model.model.layers.6.mlp.experts.gate_up_proj_bias"} loc("p141.3632"), %arg142: tensor<128x2880x5760xbf16> {ttcore.argument_type = #ttcore.argument_type<parameter>, ttcore.local_shape = #ttcore<local_shape local_shape = tensor<16x720x5760xbf16>>, ttcore.shard_status = #ttcore.shard_status<presharded>, ttcore.weight_dtype = "bfp_bf4", ttir.name = "model.model.layers.6.mlp.experts.parametrizations.gate_up_proj.original"} loc("p142.3637"), %arg143: tensor<64x8x128x64xbf16> {ttcore.argument_type = #ttcore.argument_type<input>, ttcore.local_shape = #ttcore<local_shape local_shape = tensor<64x1x128x64xbf16>>, ttcore.shard_status = #ttcore.shard_status<presharded>, ttir.name = "args_16"} loc("p143.3765"), %arg144: tensor<512xbf16> {ttcore.argument_type = #ttcore.argument_type<parameter>, ttcore.local_shape = #ttcore<local_shape local_shape = tensor<64xbf16>>, ttcore.shard_status = #ttcore.shard_status<presharded>, ttir.name = "self___model_model_layers_7_self_attn_v_proj__parameters__bias"} loc("p144.3774"), %arg145: tensor<512x2880xbf16> {ttcore.argument_type = #ttcore.argument_type<parameter>, ttcore.local_shape = #ttcore<local_shape local_shape = tensor<64x720xbf16>>, ttcore.shard_status = #ttcore.shard_status<presharded>, ttir.name = "self___model_model_layers_7_self_attn_v_proj__parameters__weight"} loc("p145.3778"), %arg146: tensor<64x8x128x64xbf16> {ttcore.argument_type = #ttcore.argument_type<input>, ttcore.local_shape = #ttcore<local_shape local_shape = tensor<64x1x128x64xbf16>>, ttcore.shard_status = #ttcore.shard_status<presharded>, ttir.name = "args_17"} loc("p146.3802"), %arg147: tensor<512xbf16> {ttcore.argument_type = #ttcore.argument_type<parameter>, ttcore.local_shape = #ttcore<local_shape local_shape = tensor<64xbf16>>, ttcore.shard_status = #ttcore.shard_status<presharded>, ttir.name = "self___model_model_layers_8_self_attn_k_proj__parameters__bias"} loc("p147.3813"), %arg148: tensor<512x2880xbf16> {ttcore.argument_type = #ttcore.argument_type<parameter>, ttcore.local_shape = #ttcore<local_shape local_shape = tensor<64x720xbf16>>, ttcore.shard_status = #ttcore.shard_status<presharded>, ttir.name = "self___model_model_layers_8_self_attn_k_proj__parameters__weight"} loc("p148.3817"), %arg149: tensor<2880xbf16> {ttcore.argument_type = #ttcore.argument_type<parameter>, ttcore.local_shape = #ttcore<local_shape local_shape = tensor<720xbf16>>, ttcore.shard_status = #ttcore.shard_status<presharded>, ttir.name = "model.model.layers.8.input_layernorm.weight"} loc("p149.3822"), %arg150: tensor<128xbf16> {ttcore.argument_type = #ttcore.argument_type<parameter>, ttcore.local_shape = #ttcore<local_shape local_shape = tensor<128xbf16>>, ttcore.shard_status = #ttcore.shard_status<presharded>, ttir.name = "model.model.layers.7.mlp.router.bias"} loc("p150.3834"), %arg151: tensor<128x2880xbf16> {ttcore.argument_type = #ttcore.argument_type<parameter>, ttcore.local_shape = #ttcore<local_shape local_shape = tensor<128x720xbf16>>, ttcore.shard_status = #ttcore.shard_status<presharded>, ttcore.weight_dtype = "bfp_bf4", ttir.name = "model.model.layers.7.mlp.router.parametrizations.weight.original"} loc("p151.3842"), %arg152: tensor<2880xbf16> {ttcore.argument_type = #ttcore.argument_type<parameter>, ttcore.local_shape = #ttcore<local_shape local_shape = tensor<720xbf16>>, ttcore.shard_status = #ttcore.shard_status<presharded>, ttir.name = "model.model.layers.7.post_attention_layernorm.weight"} loc("p152.3851"), %arg153: tensor<2880xbf16> {ttcore.argument_type = #ttcore.argument_type<parameter>, ttcore.local_shape = #ttcore<local_shape local_shape = tensor<720xbf16>>, ttcore.shard_status = #ttcore.shard_status<presharded>, ttir.name = "self___model_model_layers_7_self_attn_o_proj__parameters__bias"} loc("p153.3862"), %arg154: tensor<2880x4096xbf16> {ttcore.argument_type = #ttcore.argument_type<parameter>, ttcore.local_shape = #ttcore<local_shape local_shape = tensor<720x512xbf16>>, ttcore.shard_status = #ttcore.shard_status<presharded>, ttir.name = "self___model_model_layers_7_self_attn_o_proj__parameters__weight"} loc("p154.3866"), %arg155: tensor<64xbf16> {ttcore.argument_type = #ttcore.argument_type<parameter>, ttcore.local_shape = #ttcore<local_shape local_shape = tensor<64xbf16>>, ttcore.shard_status = #ttcore.shard_status<presharded>, ttir.name = "model.model.layers.7.self_attn.sinks"} loc("p155.3877"), %arg156: tensor<4096xbf16> {ttcore.argument_type = #ttcore.argument_type<parameter>, ttcore.local_shape = #ttcore<local_shape local_shape = tensor<512xbf16>>, ttcore.shard_status = #ttcore.shard_status<presharded>, ttir.name = "self___model_model_layers_7_self_attn_q_proj__parameters__bias"} loc("p156.3895"), %arg157: tensor<4096x2880xbf16> {ttcore.argument_type = #ttcore.argument_type<parameter>, ttcore.local_shape = #ttcore<local_shape local_shape = tensor<512x720xbf16>>, ttcore.shard_status = #ttcore.shard_status<presharded>, ttir.name = "self___model_model_layers_7_self_attn_q_proj__parameters__weight"} loc("p157.3899"), %arg158: tensor<128x2880xbf16> {ttcore.argument_type = #ttcore.argument_type<parameter>, ttcore.local_shape = #ttcore<local_shape local_shape = tensor<16x720xbf16>>, ttcore.shard_status = #ttcore.shard_status<presharded>, ttir.name = "model.model.layers.7.mlp.experts.down_proj_bias"} loc("p158.4126"), %arg159: tensor<128x2880x2880xbf16> {ttcore.argument_type = #ttcore.argument_type<parameter>, ttcore.local_shape = #ttcore<local_shape local_shape = tensor<16x2880x720xbf16>>, ttcore.shard_status = #ttcore.shard_status<presharded>, ttcore.weight_dtype = "bfp_bf4", ttir.name = "model.model.layers.7.mlp.experts.parametrizations.down_proj.original"} loc("p159.4131"), %arg160: tensor<128x5760xbf16> {ttcore.argument_type = #ttcore.argument_type<parameter>, ttcore.local_shape = #ttcore<local_shape local_shape = tensor<16x5760xbf16>>, ttcore.shard_status = #ttcore.shard_status<presharded>, ttir.name = "model.model.layers.7.mlp.experts.gate_up_proj_bias"} loc("p160.4138"), %arg161: tensor<128x2880x5760xbf16> {ttcore.argument_type = #ttcore.argument_type<parameter>, ttcore.local_shape = #ttcore<local_shape local_shape = tensor<16x720x5760xbf16>>, ttcore.shard_status = #ttcore.shard_status<presharded>, ttcore.weight_dtype = "bfp_bf4", ttir.name = "model.model.layers.7.mlp.experts.parametrizations.gate_up_proj.original"} loc("p161.4143"), %arg162: tensor<64x8x128x64xbf16> {ttcore.argument_type = #ttcore.argument_type<input>, ttcore.local_shape = #ttcore<local_shape local_shape = tensor<64x1x128x64xbf16>>, ttcore.shard_status = #ttcore.shard_status<presharded>, ttir.name = "args_18"} loc("p162.4271"), %arg163: tensor<512xbf16> {ttcore.argument_type = #ttcore.argument_type<parameter>, ttcore.local_shape = #ttcore<local_shape local_shape = tensor<64xbf16>>, ttcore.shard_status = #ttcore.shard_status<presharded>, ttir.name = "self___model_model_layers_8_self_attn_v_proj__parameters__bias"} loc("p163.4280"), %arg164: tensor<512x2880xbf16> {ttcore.argument_type = #ttcore.argument_type<parameter>, ttcore.local_shape = #ttcore<local_shape local_shape = tensor<64x720xbf16>>, ttcore.shard_status = #ttcore.shard_status<presharded>, ttir.name = "self___model_model_layers_8_self_attn_v_proj__parameters__weight"} loc("p164.4284"), %arg165: tensor<64x8x128x64xbf16> {ttcore.argument_type = #ttcore.argument_type<input>, ttcore.local_shape = #ttcore<local_shape local_shape = tensor<64x1x128x64xbf16>>, ttcore.shard_status = #ttcore.shard_status<presharded>, ttir.name = "args_19"} loc("p165.4308"), %arg166: tensor<512xbf16> {ttcore.argument_type = #ttcore.argument_type<parameter>, ttcore.local_shape = #ttcore<local_shape local_shape = tensor<64xbf16>>, ttcore.shard_status = #ttcore.shard_status<presharded>, ttir.name = "self___model_model_layers_9_self_attn_k_proj__parameters__bias"} loc("p166.4319"), %arg167: tensor<512x2880xbf16> {ttcore.argument_type = #ttcore.argument_type<parameter>, ttcore.local_shape = #ttcore<local_shape local_shape = tensor<64x720xbf16>>, ttcore.shard_status = #ttcore.shard_status<presharded>, ttir.name = "self___model_model_layers_9_self_attn_k_proj__parameters__weight"} loc("p167.4323"), %arg168: tensor<2880xbf16> {ttcore.argument_type = #ttcore.argument_type<parameter>, ttcore.local_shape = #ttcore<local_shape local_shape = tensor<720xbf16>>, ttcore.shard_status = #ttcore.shard_status<presharded>, ttir.name = "model.model.layers.9.input_layernorm.weight"} loc("p168.4328"), %arg169: tensor<128xbf16> {ttcore.argument_type = #ttcore.argument_type<parameter>, ttcore.local_shape = #ttcore<local_shape local_shape = tensor<128xbf16>>, ttcore.shard_status = #ttcore.shard_status<presharded>, ttir.name = "model.model.layers.8.mlp.router.bias"} loc("p169.4340"), %arg170: tensor<128x2880xbf16> {ttcore.argument_type = #ttcore.argument_type<parameter>, ttcore.local_shape = #ttcore<local_shape local_shape = tensor<128x720xbf16>>, ttcore.shard_status = #ttcore.shard_status<presharded>, ttcore.weight_dtype = "bfp_bf4", ttir.name = "model.model.layers.8.mlp.router.parametrizations.weight.original"} loc("p170.4348"), %arg171: tensor<2880xbf16> {ttcore.argument_type = #ttcore.argument_type<parameter>, ttcore.local_shape = #ttcore<local_shape local_shape = tensor<720xbf16>>, ttcore.shard_status = #ttcore.shard_status<presharded>, ttir.name = "model.model.layers.8.post_attention_layernorm.weight"} loc("p171.4357"), %arg172: tensor<2880xbf16> {ttcore.argument_type = #ttcore.argument_type<parameter>, ttcore.local_shape = #ttcore<local_shape local_shape = tensor<720xbf16>>, ttcore.shard_status = #ttcore.shard_status<presharded>, ttir.name = "self___model_model_layers_8_self_attn_o_proj__parameters__bias"} loc("p172.4368"), %arg173: tensor<2880x4096xbf16> {ttcore.argument_type = #ttcore.argument_type<parameter>, ttcore.local_shape = #ttcore<local_shape local_shape = tensor<720x512xbf16>>, ttcore.shard_status = #ttcore.shard_status<presharded>, ttir.name = "self___model_model_layers_8_self_attn_o_proj__parameters__weight"} loc("p173.4372"), %arg174: tensor<64xbf16> {ttcore.argument_type = #ttcore.argument_type<parameter>, ttcore.local_shape = #ttcore<local_shape local_shape = tensor<64xbf16>>, ttcore.shard_status = #ttcore.shard_status<presharded>, ttir.name = "model.model.layers.8.self_attn.sinks"} loc("p174.4383"), %arg175: tensor<4096xbf16> {ttcore.argument_type = #ttcore.argument_type<parameter>, ttcore.local_shape = #ttcore<local_shape local_shape = tensor<512xbf16>>, ttcore.shard_status = #ttcore.shard_status<presharded>, ttir.name = "self___model_model_layers_8_self_attn_q_proj__parameters__bias"} loc("p175.4401"), %arg176: tensor<4096x2880xbf16> {ttcore.argument_type = #ttcore.argument_type<parameter>, ttcore.local_shape = #ttcore<local_shape local_shape = tensor<512x720xbf16>>, ttcore.shard_status = #ttcore.shard_status<presharded>, ttir.name = "self___model_model_layers_8_self_attn_q_proj__parameters__weight"} loc("p176.4405"), %arg177: tensor<128x2880xbf16> {ttcore.argument_type = #ttcore.argument_type<parameter>, ttcore.local_shape = #ttcore<local_shape local_shape = tensor<16x720xbf16>>, ttcore.shard_status = #ttcore.shard_status<presharded>, ttir.name = "model.model.layers.8.mlp.experts.down_proj_bias"} loc("p177.4632"), %arg178: tensor<128x2880x2880xbf16> {ttcore.argument_type = #ttcore.argument_type<parameter>, ttcore.local_shape = #ttcore<local_shape local_shape = tensor<16x2880x720xbf16>>, ttcore.shard_status = #ttcore.shard_status<presharded>, ttcore.weight_dtype = "bfp_bf4", ttir.name = "model.model.layers.8.mlp.experts.parametrizations.down_proj.original"} loc("p178.4637"), %arg179: tensor<128x5760xbf16> {ttcore.argument_type = #ttcore.argument_type<parameter>, ttcore.local_shape = #ttcore<local_shape local_shape = tensor<16x5760xbf16>>, ttcore.shard_status = #ttcore.shard_status<presharded>, ttir.name = "model.model.layers.8.mlp.experts.gate_up_proj_bias"} loc("p179.4644"), %arg180: tensor<128x2880x5760xbf16> {ttcore.argument_type = #ttcore.argument_type<parameter>, ttcore.local_shape = #ttcore<local_shape local_shape = tensor<16x720x5760xbf16>>, ttcore.shard_status = #ttcore.shard_status<presharded>, ttcore.weight_dtype = "bfp_bf4", ttir.name = "model.model.layers.8.mlp.experts.parametrizations.gate_up_proj.original"} loc("p180.4649"), %arg181: tensor<64x8x128x64xbf16> {ttcore.argument_type = #ttcore.argument_type<input>, ttcore.local_shape = #ttcore<local_shape local_shape = tensor<64x1x128x64xbf16>>, ttcore.shard_status = #ttcore.shard_status<presharded>, ttir.name = "args_20"} loc("p181.4777"), %arg182: tensor<512xbf16> {ttcore.argument_type = #ttcore.argument_type<parameter>, ttcore.local_shape = #ttcore<local_shape local_shape = tensor<64xbf16>>, ttcore.shard_status = #ttcore.shard_status<presharded>, ttir.name = "self___model_model_layers_9_self_attn_v_proj__parameters__bias"} loc("p182.4786"), %arg183: tensor<512x2880xbf16> {ttcore.argument_type = #ttcore.argument_type<parameter>, ttcore.local_shape = #ttcore<local_shape local_shape = tensor<64x720xbf16>>, ttcore.shard_status = #ttcore.shard_status<presharded>, ttir.name = "self___model_model_layers_9_self_attn_v_proj__parameters__weight"} loc("p183.4790"), %arg184: tensor<64x8x128x64xbf16> {ttcore.argument_type = #ttcore.argument_type<input>, ttcore.local_shape = #ttcore<local_shape local_shape = tensor<64x1x128x64xbf16>>, ttcore.shard_status = #ttcore.shard_status<presharded>, ttir.name = "args_21"} loc("p184.4814"), %arg185: tensor<512xbf16> {ttcore.argument_type = #ttcore.argument_type<parameter>, ttcore.local_shape = #ttcore<local_shape local_shape = tensor<64xbf16>>, ttcore.shard_status = #ttcore.shard_status<presharded>, ttir.name = "self___model_model_layers_10_self_attn_k_proj__parameters__bias"} loc("p185.4825"), %arg186: tensor<512x2880xbf16> {ttcore.argument_type = #ttcore.argument_type<parameter>, ttcore.local_shape = #ttcore<local_shape local_shape = tensor<64x720xbf16>>, ttcore.shard_status = #ttcore.shard_status<presharded>, ttir.name = "self___model_model_layers_10_self_attn_k_proj__parameters__weight"} loc("p186.4829"), %arg187: tensor<2880xbf16> {ttcore.argument_type = #ttcore.argument_type<parameter>, ttcore.local_shape = #ttcore<local_shape local_shape = tensor<720xbf16>>, ttcore.shard_status = #ttcore.shard_status<presharded>, ttir.name = "model.model.layers.10.input_layernorm.weight"} loc("p187.4834"), %arg188: tensor<128xbf16> {ttcore.argument_type = #ttcore.argument_type<parameter>, ttcore.local_shape = #ttcore<local_shape local_shape = tensor<128xbf16>>, ttcore.shard_status = #ttcore.shard_status<presharded>, ttir.name = "model.model.layers.9.mlp.router.bias"} loc("p188.4846"), %arg189: tensor<128x2880xbf16> {ttcore.argument_type = #ttcore.argument_type<parameter>, ttcore.local_shape = #ttcore<local_shape local_shape = tensor<128x720xbf16>>, ttcore.shard_status = #ttcore.shard_status<presharded>, ttcore.weight_dtype = "bfp_bf4", ttir.name = "model.model.layers.9.mlp.router.parametrizations.weight.original"} loc("p189.4854"), %arg190: tensor<2880xbf16> {ttcore.argument_type = #ttcore.argument_type<parameter>, ttcore.local_shape = #ttcore<local_shape local_shape = tensor<720xbf16>>, ttcore.shard_status = #ttcore.shard_status<presharded>, ttir.name = "model.model.layers.9.post_attention_layernorm.weight"} loc("p190.4863"), %arg191: tensor<2880xbf16> {ttcore.argument_type = #ttcore.argument_type<parameter>, ttcore.local_shape = #ttcore<local_shape local_shape = tensor<720xbf16>>, ttcore.shard_status = #ttcore.shard_status<presharded>, ttir.name = "self___model_model_layers_9_self_attn_o_proj__parameters__bias"} loc("p191.4874"), %arg192: tensor<2880x4096xbf16> {ttcore.argument_type = #ttcore.argument_type<parameter>, ttcore.local_shape = #ttcore<local_shape local_shape = tensor<720x512xbf16>>, ttcore.shard_status = #ttcore.shard_status<presharded>, ttir.name = "self___model_model_layers_9_self_attn_o_proj__parameters__weight"} loc("p192.4878"), %arg193: tensor<64xbf16> {ttcore.argument_type = #ttcore.argument_type<parameter>, ttcore.local_shape = #ttcore<local_shape local_shape = tensor<64xbf16>>, ttcore.shard_status = #ttcore.shard_status<presharded>, ttir.name = "model.model.layers.9.self_attn.sinks"} loc("p193.4889"), %arg194: tensor<4096xbf16> {ttcore.argument_type = #ttcore.argument_type<parameter>, ttcore.local_shape = #ttcore<local_shape local_shape = tensor<512xbf16>>, ttcore.shard_status = #ttcore.shard_status<presharded>, ttir.name = "self___model_model_layers_9_self_attn_q_proj__parameters__bias"} loc("p194.4907"), %arg195: tensor<4096x2880xbf16> {ttcore.argument_type = #ttcore.argument_type<parameter>, ttcore.local_shape = #ttcore<local_shape local_shape = tensor<512x720xbf16>>, ttcore.shard_status = #ttcore.shard_status<presharded>, ttir.name = "self___model_model_layers_9_self_attn_q_proj__parameters__weight"} loc("p195.4911"), %arg196: tensor<128x2880xbf16> {ttcore.argument_type = #ttcore.argument_type<parameter>, ttcore.local_shape = #ttcore<local_shape local_shape = tensor<16x720xbf16>>, ttcore.shard_status = #ttcore.shard_status<presharded>, ttir.name = "model.model.layers.9.mlp.experts.down_proj_bias"} loc("p196.5138"), %arg197: tensor<128x2880x2880xbf16> {ttcore.argument_type = #ttcore.argument_type<parameter>, ttcore.local_shape = #ttcore<local_shape local_shape = tensor<16x2880x720xbf16>>, ttcore.shard_status = #ttcore.shard_status<presharded>, ttcore.weight_dtype = "bfp_bf4", ttir.name = "model.model.layers.9.mlp.experts.parametrizations.down_proj.original"} loc("p197.5143"), %arg198: tensor<128x5760xbf16> {ttcore.argument_type = #ttcore.argument_type<parameter>, ttcore.local_shape = #ttcore<local_shape local_shape = tensor<16x5760xbf16>>, ttcore.shard_status = #ttcore.shard_status<presharded>, ttir.name = "model.model.layers.9.mlp.experts.gate_up_proj_bias"} loc("p198.5150"), %arg199: tensor<128x2880x5760xbf16> {ttcore.argument_type = #ttcore.argument_type<parameter>, ttcore.local_shape = #ttcore<local_shape local_shape = tensor<16x720x5760xbf16>>, ttcore.shard_status = #ttcore.shard_status<presharded>, ttcore.weight_dtype = "bfp_bf4", ttir.name = "model.model.layers.9.mlp.experts.parametrizations.gate_up_proj.original"} loc("p199.5155"), %arg200: tensor<64x8x128x64xbf16> {ttcore.argument_type = #ttcore.argument_type<input>, ttcore.local_shape = #ttcore<local_shape local_shape = tensor<64x1x128x64xbf16>>, ttcore.shard_status = #ttcore.shard_status<presharded>, ttir.name = "args_22"} loc("p200.5283"), %arg201: tensor<512xbf16> {ttcore.argument_type = #ttcore.argument_type<parameter>, ttcore.local_shape = #ttcore<local_shape local_shape = tensor<64xbf16>>, ttcore.shard_status = #ttcore.shard_status<presharded>, ttir.name = "self___model_model_layers_10_self_attn_v_proj__parameters__bias"} loc("p201.5292"), %arg202: tensor<512x2880xbf16> {ttcore.argument_type = #ttcore.argument_type<parameter>, ttcore.local_shape = #ttcore<local_shape local_shape = tensor<64x720xbf16>>, ttcore.shard_status = #ttcore.shard_status<presharded>, ttir.name = "self___model_model_layers_10_self_attn_v_proj__parameters__weight"} loc("p202.5296"), %arg203: tensor<64x8x128x64xbf16> {ttcore.argument_type = #ttcore.argument_type<input>, ttcore.local_shape = #ttcore<local_shape local_shape = tensor<64x1x128x64xbf16>>, ttcore.shard_status = #ttcore.shard_status<presharded>, ttir.name = "args_23"} loc("p203.5320"), %arg204: tensor<512xbf16> {ttcore.argument_type = #ttcore.argument_type<parameter>, ttcore.local_shape = #ttcore<local_shape local_shape = tensor<64xbf16>>, ttcore.shard_status = #ttcore.shard_status<presharded>, ttir.name = "self___model_model_layers_11_self_attn_k_proj__parameters__bias"} loc("p204.5331"), %arg205: tensor<512x2880xbf16> {ttcore.argument_type = #ttcore.argument_type<parameter>, ttcore.local_shape = #ttcore<local_shape local_shape = tensor<64x720xbf16>>, ttcore.shard_status = #ttcore.shard_status<presharded>, ttir.name = "self___model_model_layers_11_self_attn_k_proj__parameters__weight"} loc("p205.5335"), %arg206: tensor<2880xbf16> {ttcore.argument_type = #ttcore.argument_type<parameter>, ttcore.local_shape = #ttcore<local_shape local_shape = tensor<720xbf16>>, ttcore.shard_status = #ttcore.shard_status<presharded>, ttir.name = "model.model.layers.11.input_layernorm.weight"} loc("p206.5340"), %arg207: tensor<128xbf16> {ttcore.argument_type = #ttcore.argument_type<parameter>, ttcore.local_shape = #ttcore<local_shape local_shape = tensor<128xbf16>>, ttcore.shard_status = #ttcore.shard_status<presharded>, ttir.name = "model.model.layers.10.mlp.router.bias"} loc("p207.5352"), %arg208: tensor<128x2880xbf16> {ttcore.argument_type = #ttcore.argument_type<parameter>, ttcore.local_shape = #ttcore<local_shape local_shape = tensor<128x720xbf16>>, ttcore.shard_status = #ttcore.shard_status<presharded>, ttcore.weight_dtype = "bfp_bf4", ttir.name = "model.model.layers.10.mlp.router.parametrizations.weight.original"} loc("p208.5360"), %arg209: tensor<2880xbf16> {ttcore.argument_type = #ttcore.argument_type<parameter>, ttcore.local_shape = #ttcore<local_shape local_shape = tensor<720xbf16>>, ttcore.shard_status = #ttcore.shard_status<presharded>, ttir.name = "model.model.layers.10.post_attention_layernorm.weight"} loc("p209.5369"), %arg210: tensor<2880xbf16> {ttcore.argument_type = #ttcore.argument_type<parameter>, ttcore.local_shape = #ttcore<local_shape local_shape = tensor<720xbf16>>, ttcore.shard_status = #ttcore.shard_status<presharded>, ttir.name = "self___model_model_layers_10_self_attn_o_proj__parameters__bias"} loc("p210.5380"), %arg211: tensor<2880x4096xbf16> {ttcore.argument_type = #ttcore.argument_type<parameter>, ttcore.local_shape = #ttcore<local_shape local_shape = tensor<720x512xbf16>>, ttcore.shard_status = #ttcore.shard_status<presharded>, ttir.name = "self___model_model_layers_10_self_attn_o_proj__parameters__weight"} loc("p211.5384"), %arg212: tensor<64xbf16> {ttcore.argument_type = #ttcore.argument_type<parameter>, ttcore.local_shape = #ttcore<local_shape local_shape = tensor<64xbf16>>, ttcore.shard_status = #ttcore.shard_status<presharded>, ttir.name = "model.model.layers.10.self_attn.sinks"} loc("p212.5395"), %arg213: tensor<4096xbf16> {ttcore.argument_type = #ttcore.argument_type<parameter>, ttcore.local_shape = #ttcore<local_shape local_shape = tensor<512xbf16>>, ttcore.shard_status = #ttcore.shard_status<presharded>, ttir.name = "self___model_model_layers_10_self_attn_q_proj__parameters__bias"} loc("p213.5413"), %arg214: tensor<4096x2880xbf16> {ttcore.argument_type = #ttcore.argument_type<parameter>, ttcore.local_shape = #ttcore<local_shape local_shape = tensor<512x720xbf16>>, ttcore.shard_status = #ttcore.shard_status<presharded>, ttir.name = "self___model_model_layers_10_self_attn_q_proj__parameters__weight"} loc("p214.5417"), %arg215: tensor<128x2880xbf16> {ttcore.argument_type = #ttcore.argument_type<parameter>, ttcore.local_shape = #ttcore<local_shape local_shape = tensor<16x720xbf16>>, ttcore.shard_status = #ttcore.shard_status<presharded>, ttir.name = "model.model.layers.10.mlp.experts.down_proj_bias"} loc("p215.5644"), %arg216: tensor<128x2880x2880xbf16> {ttcore.argument_type = #ttcore.argument_type<parameter>, ttcore.local_shape = #ttcore<local_shape local_shape = tensor<16x2880x720xbf16>>, ttcore.shard_status = #ttcore.shard_status<presharded>, ttcore.weight_dtype = "bfp_bf4", ttir.name = "model.model.layers.10.mlp.experts.parametrizations.down_proj.original"} loc("p216.5649"), %arg217: tensor<128x5760xbf16> {ttcore.argument_type = #ttcore.argument_type<parameter>, ttcore.local_shape = #ttcore<local_shape local_shape = tensor<16x5760xbf16>>, ttcore.shard_status = #ttcore.shard_status<presharded>, ttir.name = "model.model.layers.10.mlp.experts.gate_up_proj_bias"} loc("p217.5656"), %arg218: tensor<128x2880x5760xbf16> {ttcore.argument_type = #ttcore.argument_type<parameter>, ttcore.local_shape = #ttcore<local_shape local_shape = tensor<16x720x5760xbf16>>, ttcore.shard_status = #ttcore.shard_status<presharded>, ttcore.weight_dtype = "bfp_bf4", ttir.name = "model.model.layers.10.mlp.experts.parametrizations.gate_up_proj.original"} loc("p218.5661"), %arg219: tensor<64x8x128x64xbf16> {ttcore.argument_type = #ttcore.argument_type<input>, ttcore.local_shape = #ttcore<local_shape local_shape = tensor<64x1x128x64xbf16>>, ttcore.shard_status = #ttcore.shard_status<presharded>, ttir.name = "args_24"} loc("p219.5789"), %arg220: tensor<512xbf16> {ttcore.argument_type = #ttcore.argument_type<parameter>, ttcore.local_shape = #ttcore<local_shape local_shape = tensor<64xbf16>>, ttcore.shard_status = #ttcore.shard_status<presharded>, ttir.name = "self___model_model_layers_11_self_attn_v_proj__parameters__bias"} loc("p220.5798"), %arg221: tensor<512x2880xbf16> {ttcore.argument_type = #ttcore.argument_type<parameter>, ttcore.local_shape = #ttcore<local_shape local_shape = tensor<64x720xbf16>>, ttcore.shard_status = #ttcore.shard_status<presharded>, ttir.name = "self___model_model_layers_11_self_attn_v_proj__parameters__weight"} loc("p221.5802"), %arg222: tensor<64x8x128x64xbf16> {ttcore.argument_type = #ttcore.argument_type<input>, ttcore.local_shape = #ttcore<local_shape local_shape = tensor<64x1x128x64xbf16>>, ttcore.shard_status = #ttcore.shard_status<presharded>, ttir.name = "args_25"} loc("p222.5826"), %arg223: tensor<512xbf16> {ttcore.argument_type = #ttcore.argument_type<parameter>, ttcore.local_shape = #ttcore<local_shape local_shape = tensor<64xbf16>>, ttcore.shard_status = #ttcore.shard_status<presharded>, ttir.name = "self___model_model_layers_12_self_attn_k_proj__parameters__bias"} loc("p223.5837"), %arg224: tensor<512x2880xbf16> {ttcore.argument_type = #ttcore.argument_type<parameter>, ttcore.local_shape = #ttcore<local_shape local_shape = tensor<64x720xbf16>>, ttcore.shard_status = #ttcore.shard_status<presharded>, ttir.name = "self___model_model_layers_12_self_attn_k_proj__parameters__weight"} loc("p224.5841"), %arg225: tensor<2880xbf16> {ttcore.argument_type = #ttcore.argument_type<parameter>, ttcore.local_shape = #ttcore<local_shape local_shape = tensor<720xbf16>>, ttcore.shard_status = #ttcore.shard_status<presharded>, ttir.name = "model.model.layers.12.input_layernorm.weight"} loc("p225.5846"), %arg226: tensor<128xbf16> {ttcore.argument_type = #ttcore.argument_type<parameter>, ttcore.local_shape = #ttcore<local_shape local_shape = tensor<128xbf16>>, ttcore.shard_status = #ttcore.shard_status<presharded>, ttir.name = "model.model.layers.11.mlp.router.bias"} loc("p226.5858"), %arg227: tensor<128x2880xbf16> {ttcore.argument_type = #ttcore.argument_type<parameter>, ttcore.local_shape = #ttcore<local_shape local_shape = tensor<128x720xbf16>>, ttcore.shard_status = #ttcore.shard_status<presharded>, ttcore.weight_dtype = "bfp_bf4", ttir.name = "model.model.layers.11.mlp.router.parametrizations.weight.original"} loc("p227.5866"), %arg228: tensor<2880xbf16> {ttcore.argument_type = #ttcore.argument_type<parameter>, ttcore.local_shape = #ttcore<local_shape local_shape = tensor<720xbf16>>, ttcore.shard_status = #ttcore.shard_status<presharded>, ttir.name = "model.model.layers.11.post_attention_layernorm.weight"} loc("p228.5875"), %arg229: tensor<2880xbf16> {ttcore.argument_type = #ttcore.argument_type<parameter>, ttcore.local_shape = #ttcore<local_shape local_shape = tensor<720xbf16>>, ttcore.shard_status = #ttcore.shard_status<presharded>, ttir.name = "self___model_model_layers_11_self_attn_o_proj__parameters__bias"} loc("p229.5886"), %arg230: tensor<2880x4096xbf16> {ttcore.argument_type = #ttcore.argument_type<parameter>, ttcore.local_shape = #ttcore<local_shape local_shape = tensor<720x512xbf16>>, ttcore.shard_status = #ttcore.shard_status<presharded>, ttir.name = "self___model_model_layers_11_self_attn_o_proj__parameters__weight"} loc("p230.5890"), %arg231: tensor<64xbf16> {ttcore.argument_type = #ttcore.argument_type<parameter>, ttcore.local_shape = #ttcore<local_shape local_shape = tensor<64xbf16>>, ttcore.shard_status = #ttcore.shard_status<presharded>, ttir.name = "model.model.layers.11.self_attn.sinks"} loc("p231.5901"), %arg232: tensor<4096xbf16> {ttcore.argument_type = #ttcore.argument_type<parameter>, ttcore.local_shape = #ttcore<local_shape local_shape = tensor<512xbf16>>, ttcore.shard_status = #ttcore.shard_status<presharded>, ttir.name = "self___model_model_layers_11_self_attn_q_proj__parameters__bias"} loc("p232.5919"), %arg233: tensor<4096x2880xbf16> {ttcore.argument_type = #ttcore.argument_type<parameter>, ttcore.local_shape = #ttcore<local_shape local_shape = tensor<512x720xbf16>>, ttcore.shard_status = #ttcore.shard_status<presharded>, ttir.name = "self___model_model_layers_11_self_attn_q_proj__parameters__weight"} loc("p233.5923"), %arg234: tensor<128x2880xbf16> {ttcore.argument_type = #ttcore.argument_type<parameter>, ttcore.local_shape = #ttcore<local_shape local_shape = tensor<16x720xbf16>>, ttcore.shard_status = #ttcore.shard_status<presharded>, ttir.name = "model.model.layers.11.mlp.experts.down_proj_bias"} loc("p234.6150"), %arg235: tensor<128x2880x2880xbf16> {ttcore.argument_type = #ttcore.argument_type<parameter>, ttcore.local_shape = #ttcore<local_shape local_shape = tensor<16x2880x720xbf16>>, ttcore.shard_status = #ttcore.shard_status<presharded>, ttcore.weight_dtype = "bfp_bf4", ttir.name = "model.model.layers.11.mlp.experts.parametrizations.down_proj.original"} loc("p235.6155"), %arg236: tensor<128x5760xbf16> {ttcore.argument_type = #ttcore.argument_type<parameter>, ttcore.local_shape = #ttcore<local_shape local_shape = tensor<16x5760xbf16>>, ttcore.shard_status = #ttcore.shard_status<presharded>, ttir.name = "model.model.layers.11.mlp.experts.gate_up_proj_bias"} loc("p236.6162"), %arg237: tensor<128x2880x5760xbf16> {ttcore.argument_type = #ttcore.argument_type<parameter>, ttcore.local_shape = #ttcore<local_shape local_shape = tensor<16x720x5760xbf16>>, ttcore.shard_status = #ttcore.shard_status<presharded>, ttcore.weight_dtype = "bfp_bf4", ttir.name = "model.model.layers.11.mlp.experts.parametrizations.gate_up_proj.original"} loc("p237.6167"), %arg238: tensor<64x8x128x64xbf16> {ttcore.argument_type = #ttcore.argument_type<input>, ttcore.local_shape = #ttcore<local_shape local_shape = tensor<64x1x128x64xbf16>>, ttcore.shard_status = #ttcore.shard_status<presharded>, ttir.name = "args_26"} loc("p238.6295"), %arg239: tensor<512xbf16> {ttcore.argument_type = #ttcore.argument_type<parameter>, ttcore.local_shape = #ttcore<local_shape local_shape = tensor<64xbf16>>, ttcore.shard_status = #ttcore.shard_status<presharded>, ttir.name = "self___model_model_layers_12_self_attn_v_proj__parameters__bias"} loc("p239.6304"), %arg240: tensor<512x2880xbf16> {ttcore.argument_type = #ttcore.argument_type<parameter>, ttcore.local_shape = #ttcore<local_shape local_shape = tensor<64x720xbf16>>, ttcore.shard_status = #ttcore.shard_status<presharded>, ttir.name = "self___model_model_layers_12_self_attn_v_proj__parameters__weight"} loc("p240.6308"), %arg241: tensor<64x8x128x64xbf16> {ttcore.argument_type = #ttcore.argument_type<input>, ttcore.local_shape = #ttcore<local_shape local_shape = tensor<64x1x128x64xbf16>>, ttcore.shard_status = #ttcore.shard_status<presharded>, ttir.name = "args_27"} loc("p241.6332"), %arg242: tensor<512xbf16> {ttcore.argument_type = #ttcore.argument_type<parameter>, ttcore.local_shape = #ttcore<local_shape local_shape = tensor<64xbf16>>, ttcore.shard_status = #ttcore.shard_status<presharded>, ttir.name = "self___model_model_layers_13_self_attn_k_proj__parameters__bias"} loc("p242.6343"), %arg243: tensor<512x2880xbf16> {ttcore.argument_type = #ttcore.argument_type<parameter>, ttcore.local_shape = #ttcore<local_shape local_shape = tensor<64x720xbf16>>, ttcore.shard_status = #ttcore.shard_status<presharded>, ttir.name = "self___model_model_layers_13_self_attn_k_proj__parameters__weight"} loc("p243.6347"), %arg244: tensor<2880xbf16> {ttcore.argument_type = #ttcore.argument_type<parameter>, ttcore.local_shape = #ttcore<local_shape local_shape = tensor<720xbf16>>, ttcore.shard_status = #ttcore.shard_status<presharded>, ttir.name = "model.model.layers.13.input_layernorm.weight"} loc("p244.6352"), %arg245: tensor<128xbf16> {ttcore.argument_type = #ttcore.argument_type<parameter>, ttcore.local_shape = #ttcore<local_shape local_shape = tensor<128xbf16>>, ttcore.shard_status = #ttcore.shard_status<presharded>, ttir.name = "model.model.layers.12.mlp.router.bias"} loc("p245.6364"), %arg246: tensor<128x2880xbf16> {ttcore.argument_type = #ttcore.argument_type<parameter>, ttcore.local_shape = #ttcore<local_shape local_shape = tensor<128x720xbf16>>, ttcore.shard_status = #ttcore.shard_status<presharded>, ttcore.weight_dtype = "bfp_bf4", ttir.name = "model.model.layers.12.mlp.router.parametrizations.weight.original"} loc("p246.6372"), %arg247: tensor<2880xbf16> {ttcore.argument_type = #ttcore.argument_type<parameter>, ttcore.local_shape = #ttcore<local_shape local_shape = tensor<720xbf16>>, ttcore.shard_status = #ttcore.shard_status<presharded>, ttir.name = "model.model.layers.12.post_attention_layernorm.weight"} loc("p247.6381"), %arg248: tensor<2880xbf16> {ttcore.argument_type = #ttcore.argument_type<parameter>, ttcore.local_shape = #ttcore<local_shape local_shape = tensor<720xbf16>>, ttcore.shard_status = #ttcore.shard_status<presharded>, ttir.name = "self___model_model_layers_12_self_attn_o_proj__parameters__bias"} loc("p248.6392"), %arg249: tensor<2880x4096xbf16> {ttcore.argument_type = #ttcore.argument_type<parameter>, ttcore.local_shape = #ttcore<local_shape local_shape = tensor<720x512xbf16>>, ttcore.shard_status = #ttcore.shard_status<presharded>, ttir.name = "self___model_model_layers_12_self_attn_o_proj__parameters__weight"} loc("p249.6396"), %arg250: tensor<64xbf16> {ttcore.argument_type = #ttcore.argument_type<parameter>, ttcore.local_shape = #ttcore<local_shape local_shape = tensor<64xbf16>>, ttcore.shard_status = #ttcore.shard_status<presharded>, ttir.name = "model.model.layers.12.self_attn.sinks"} loc("p250.6407"), %arg251: tensor<4096xbf16> {ttcore.argument_type = #ttcore.argument_type<parameter>, ttcore.local_shape = #ttcore<local_shape local_shape = tensor<512xbf16>>, ttcore.shard_status = #ttcore.shard_status<presharded>, ttir.name = "self___model_model_layers_12_self_attn_q_proj__parameters__bias"} loc("p251.6425"), %arg252: tensor<4096x2880xbf16> {ttcore.argument_type = #ttcore.argument_type<parameter>, ttcore.local_shape = #ttcore<local_shape local_shape = tensor<512x720xbf16>>, ttcore.shard_status = #ttcore.shard_status<presharded>, ttir.name = "self___model_model_layers_12_self_attn_q_proj__parameters__weight"} loc("p252.6429"), %arg253: tensor<128x2880xbf16> {ttcore.argument_type = #ttcore.argument_type<parameter>, ttcore.local_shape = #ttcore<local_shape local_shape = tensor<16x720xbf16>>, ttcore.shard_status = #ttcore.shard_status<presharded>, ttir.name = "model.model.layers.12.mlp.experts.down_proj_bias"} loc("p253.6656"), %arg254: tensor<128x2880x2880xbf16> {ttcore.argument_type = #ttcore.argument_type<parameter>, ttcore.local_shape = #ttcore<local_shape local_shape = tensor<16x2880x720xbf16>>, ttcore.shard_status = #ttcore.shard_status<presharded>, ttcore.weight_dtype = "bfp_bf4", ttir.name = "model.model.layers.12.mlp.experts.parametrizations.down_proj.original"} loc("p254.6661"), %arg255: tensor<128x5760xbf16> {ttcore.argument_type = #ttcore.argument_type<parameter>, ttcore.local_shape = #ttcore<local_shape local_shape = tensor<16x5760xbf16>>, ttcore.shard_status = #ttcore.shard_status<presharded>, ttir.name = "model.model.layers.12.mlp.experts.gate_up_proj_bias"} loc("p255.6668"), %arg256: tensor<128x2880x5760xbf16> {ttcore.argument_type = #ttcore.argument_type<parameter>, ttcore.local_shape = #ttcore<local_shape local_shape = tensor<16x720x5760xbf16>>, ttcore.shard_status = #ttcore.shard_status<presharded>, ttcore.weight_dtype = "bfp_bf4", ttir.name = "model.model.layers.12.mlp.experts.parametrizations.gate_up_proj.original"} loc("p256.6673"), %arg257: tensor<64x8x128x64xbf16> {ttcore.argument_type = #ttcore.argument_type<input>, ttcore.local_shape = #ttcore<local_shape local_shape = tensor<64x1x128x64xbf16>>, ttcore.shard_status = #ttcore.shard_status<presharded>, ttir.name = "args_28"} loc("p257.6801"), %arg258: tensor<512xbf16> {ttcore.argument_type = #ttcore.argument_type<parameter>, ttcore.local_shape = #ttcore<local_shape local_shape = tensor<64xbf16>>, ttcore.shard_status = #ttcore.shard_status<presharded>, ttir.name = "self___model_model_layers_13_self_attn_v_proj__parameters__bias"} loc("p258.6810"), %arg259: tensor<512x2880xbf16> {ttcore.argument_type = #ttcore.argument_type<parameter>, ttcore.local_shape = #ttcore<local_shape local_shape = tensor<64x720xbf16>>, ttcore.shard_status = #ttcore.shard_status<presharded>, ttir.name = "self___model_model_layers_13_self_attn_v_proj__parameters__weight"} loc("p259.6814"), %arg260: tensor<64x8x128x64xbf16> {ttcore.argument_type = #ttcore.argument_type<input>, ttcore.local_shape = #ttcore<local_shape local_shape = tensor<64x1x128x64xbf16>>, ttcore.shard_status = #ttcore.shard_status<presharded>, ttir.name = "args_29"} loc("p260.6838"), %arg261: tensor<512xbf16> {ttcore.argument_type = #ttcore.argument_type<parameter>, ttcore.local_shape = #ttcore<local_shape local_shape = tensor<64xbf16>>, ttcore.shard_status = #ttcore.shard_status<presharded>, ttir.name = "self___model_model_layers_14_self_attn_k_proj__parameters__bias"} loc("p261.6849"), %arg262: tensor<512x2880xbf16> {ttcore.argument_type = #ttcore.argument_type<parameter>, ttcore.local_shape = #ttcore<local_shape local_shape = tensor<64x720xbf16>>, ttcore.shard_status = #ttcore.shard_status<presharded>, ttir.name = "self___model_model_layers_14_self_attn_k_proj__parameters__weight"} loc("p262.6853"), %arg263: tensor<2880xbf16> {ttcore.argument_type = #ttcore.argument_type<parameter>, ttcore.local_shape = #ttcore<local_shape local_shape = tensor<720xbf16>>, ttcore.shard_status = #ttcore.shard_status<presharded>, ttir.name = "model.model.layers.14.input_layernorm.weight"} loc("p263.6858"), %arg264: tensor<128xbf16> {ttcore.argument_type = #ttcore.argument_type<parameter>, ttcore.local_shape = #ttcore<local_shape local_shape = tensor<128xbf16>>, ttcore.shard_status = #ttcore.shard_status<presharded>, ttir.name = "model.model.layers.13.mlp.router.bias"} loc("p264.6870"), %arg265: tensor<128x2880xbf16> {ttcore.argument_type = #ttcore.argument_type<parameter>, ttcore.local_shape = #ttcore<local_shape local_shape = tensor<128x720xbf16>>, ttcore.shard_status = #ttcore.shard_status<presharded>, ttcore.weight_dtype = "bfp_bf4", ttir.name = "model.model.layers.13.mlp.router.parametrizations.weight.original"} loc("p265.6878"), %arg266: tensor<2880xbf16> {ttcore.argument_type = #ttcore.argument_type<parameter>, ttcore.local_shape = #ttcore<local_shape local_shape = tensor<720xbf16>>, ttcore.shard_status = #ttcore.shard_status<presharded>, ttir.name = "model.model.layers.13.post_attention_layernorm.weight"} loc("p266.6887"), %arg267: tensor<2880xbf16> {ttcore.argument_type = #ttcore.argument_type<parameter>, ttcore.local_shape = #ttcore<local_shape local_shape = tensor<720xbf16>>, ttcore.shard_status = #ttcore.shard_status<presharded>, ttir.name = "self___model_model_layers_13_self_attn_o_proj__parameters__bias"} loc("p267.6898"), %arg268: tensor<2880x4096xbf16> {ttcore.argument_type = #ttcore.argument_type<parameter>, ttcore.local_shape = #ttcore<local_shape local_shape = tensor<720x512xbf16>>, ttcore.shard_status = #ttcore.shard_status<presharded>, ttir.name = "self___model_model_layers_13_self_attn_o_proj__parameters__weight"} loc("p268.6902"), %arg269: tensor<64xbf16> {ttcore.argument_type = #ttcore.argument_type<parameter>, ttcore.local_shape = #ttcore<local_shape local_shape = tensor<64xbf16>>, ttcore.shard_status = #ttcore.shard_status<presharded>, ttir.name = "model.model.layers.13.self_attn.sinks"} loc("p269.6913"), %arg270: tensor<4096xbf16> {ttcore.argument_type = #ttcore.argument_type<parameter>, ttcore.local_shape = #ttcore<local_shape local_shape = tensor<512xbf16>>, ttcore.shard_status = #ttcore.shard_status<presharded>, ttir.name = "self___model_model_layers_13_self_attn_q_proj__parameters__bias"} loc("p270.6931"), %arg271: tensor<4096x2880xbf16> {ttcore.argument_type = #ttcore.argument_type<parameter>, ttcore.local_shape = #ttcore<local_shape local_shape = tensor<512x720xbf16>>, ttcore.shard_status = #ttcore.shard_status<presharded>, ttir.name = "self___model_model_layers_13_self_attn_q_proj__parameters__weight"} loc("p271.6935"), %arg272: tensor<128x2880xbf16> {ttcore.argument_type = #ttcore.argument_type<parameter>, ttcore.local_shape = #ttcore<local_shape local_shape = tensor<16x720xbf16>>, ttcore.shard_status = #ttcore.shard_status<presharded>, ttir.name = "model.model.layers.13.mlp.experts.down_proj_bias"} loc("p272.7162"), %arg273: tensor<128x2880x2880xbf16> {ttcore.argument_type = #ttcore.argument_type<parameter>, ttcore.local_shape = #ttcore<local_shape local_shape = tensor<16x2880x720xbf16>>, ttcore.shard_status = #ttcore.shard_status<presharded>, ttcore.weight_dtype = "bfp_bf4", ttir.name = "model.model.layers.13.mlp.experts.parametrizations.down_proj.original"} loc("p273.7167"), %arg274: tensor<128x5760xbf16> {ttcore.argument_type = #ttcore.argument_type<parameter>, ttcore.local_shape = #ttcore<local_shape local_shape = tensor<16x5760xbf16>>, ttcore.shard_status = #ttcore.shard_status<presharded>, ttir.name = "model.model.layers.13.mlp.experts.gate_up_proj_bias"} loc("p274.7174"), %arg275: tensor<128x2880x5760xbf16> {ttcore.argument_type = #ttcore.argument_type<parameter>, ttcore.local_shape = #ttcore<local_shape local_shape = tensor<16x720x5760xbf16>>, ttcore.shard_status = #ttcore.shard_status<presharded>, ttcore.weight_dtype = "bfp_bf4", ttir.name = "model.model.layers.13.mlp.experts.parametrizations.gate_up_proj.original"} loc("p275.7179"), %arg276: tensor<64x8x128x64xbf16> {ttcore.argument_type = #ttcore.argument_type<input>, ttcore.local_shape = #ttcore<local_shape local_shape = tensor<64x1x128x64xbf16>>, ttcore.shard_status = #ttcore.shard_status<presharded>, ttir.name = "args_30"} loc("p276.7307"), %arg277: tensor<512xbf16> {ttcore.argument_type = #ttcore.argument_type<parameter>, ttcore.local_shape = #ttcore<local_shape local_shape = tensor<64xbf16>>, ttcore.shard_status = #ttcore.shard_status<presharded>, ttir.name = "self___model_model_layers_14_self_attn_v_proj__parameters__bias"} loc("p277.7316"), %arg278: tensor<512x2880xbf16> {ttcore.argument_type = #ttcore.argument_type<parameter>, ttcore.local_shape = #ttcore<local_shape local_shape = tensor<64x720xbf16>>, ttcore.shard_status = #ttcore.shard_status<presharded>, ttir.name = "self___model_model_layers_14_self_attn_v_proj__parameters__weight"} loc("p278.7320"), %arg279: tensor<64x8x128x64xbf16> {ttcore.argument_type = #ttcore.argument_type<input>, ttcore.local_shape = #ttcore<local_shape local_shape = tensor<64x1x128x64xbf16>>, ttcore.shard_status = #ttcore.shard_status<presharded>, ttir.name = "args_31"} loc("p279.7344"), %arg280: tensor<512xbf16> {ttcore.argument_type = #ttcore.argument_type<parameter>, ttcore.local_shape = #ttcore<local_shape local_shape = tensor<64xbf16>>, ttcore.shard_status = #ttcore.shard_status<presharded>, ttir.name = "self___model_model_layers_15_self_attn_k_proj__parameters__bias"} loc("p280.7355"), %arg281: tensor<512x2880xbf16> {ttcore.argument_type = #ttcore.argument_type<parameter>, ttcore.local_shape = #ttcore<local_shape local_shape = tensor<64x720xbf16>>, ttcore.shard_status = #ttcore.shard_status<presharded>, ttir.name = "self___model_model_layers_15_self_attn_k_proj__parameters__weight"} loc("p281.7359"), %arg282: tensor<2880xbf16> {ttcore.argument_type = #ttcore.argument_type<parameter>, ttcore.local_shape = #ttcore<local_shape local_shape = tensor<720xbf16>>, ttcore.shard_status = #ttcore.shard_status<presharded>, ttir.name = "model.model.layers.15.input_layernorm.weight"} loc("p282.7364"), %arg283: tensor<128xbf16> {ttcore.argument_type = #ttcore.argument_type<parameter>, ttcore.local_shape = #ttcore<local_shape local_shape = tensor<128xbf16>>, ttcore.shard_status = #ttcore.shard_status<presharded>, ttir.name = "model.model.layers.14.mlp.router.bias"} loc("p283.7376"), %arg284: tensor<128x2880xbf16> {ttcore.argument_type = #ttcore.argument_type<parameter>, ttcore.local_shape = #ttcore<local_shape local_shape = tensor<128x720xbf16>>, ttcore.shard_status = #ttcore.shard_status<presharded>, ttcore.weight_dtype = "bfp_bf4", ttir.name = "model.model.layers.14.mlp.router.parametrizations.weight.original"} loc("p284.7384"), %arg285: tensor<2880xbf16> {ttcore.argument_type = #ttcore.argument_type<parameter>, ttcore.local_shape = #ttcore<local_shape local_shape = tensor<720xbf16>>, ttcore.shard_status = #ttcore.shard_status<presharded>, ttir.name = "model.model.layers.14.post_attention_layernorm.weight"} loc("p285.7393"), %arg286: tensor<2880xbf16> {ttcore.argument_type = #ttcore.argument_type<parameter>, ttcore.local_shape = #ttcore<local_shape local_shape = tensor<720xbf16>>, ttcore.shard_status = #ttcore.shard_status<presharded>, ttir.name = "self___model_model_layers_14_self_attn_o_proj__parameters__bias"} loc("p286.7404"), %arg287: tensor<2880x4096xbf16> {ttcore.argument_type = #ttcore.argument_type<parameter>, ttcore.local_shape = #ttcore<local_shape local_shape = tensor<720x512xbf16>>, ttcore.shard_status = #ttcore.shard_status<presharded>, ttir.name = "self___model_model_layers_14_self_attn_o_proj__parameters__weight"} loc("p287.7408"), %arg288: tensor<64xbf16> {ttcore.argument_type = #ttcore.argument_type<parameter>, ttcore.local_shape = #ttcore<local_shape local_shape = tensor<64xbf16>>, ttcore.shard_status = #ttcore.shard_status<presharded>, ttir.name = "model.model.layers.14.self_attn.sinks"} loc("p288.7419"), %arg289: tensor<4096xbf16> {ttcore.argument_type = #ttcore.argument_type<parameter>, ttcore.local_shape = #ttcore<local_shape local_shape = tensor<512xbf16>>, ttcore.shard_status = #ttcore.shard_status<presharded>, ttir.name = "self___model_model_layers_14_self_attn_q_proj__parameters__bias"} loc("p289.7437"), %arg290: tensor<4096x2880xbf16> {ttcore.argument_type = #ttcore.argument_type<parameter>, ttcore.local_shape = #ttcore<local_shape local_shape = tensor<512x720xbf16>>, ttcore.shard_status = #ttcore.shard_status<presharded>, ttir.name = "self___model_model_layers_14_self_attn_q_proj__parameters__weight"} loc("p290.7441"), %arg291: tensor<128x2880xbf16> {ttcore.argument_type = #ttcore.argument_type<parameter>, ttcore.local_shape = #ttcore<local_shape local_shape = tensor<16x720xbf16>>, ttcore.shard_status = #ttcore.shard_status<presharded>, ttir.name = "model.model.layers.14.mlp.experts.down_proj_bias"} loc("p291.7668"), %arg292: tensor<128x2880x2880xbf16> {ttcore.argument_type = #ttcore.argument_type<parameter>, ttcore.local_shape = #ttcore<local_shape local_shape = tensor<16x2880x720xbf16>>, ttcore.shard_status = #ttcore.shard_status<presharded>, ttcore.weight_dtype = "bfp_bf4", ttir.name = "model.model.layers.14.mlp.experts.parametrizations.down_proj.original"} loc("p292.7673"), %arg293: tensor<128x5760xbf16> {ttcore.argument_type = #ttcore.argument_type<parameter>, ttcore.local_shape = #ttcore<local_shape local_shape = tensor<16x5760xbf16>>, ttcore.shard_status = #ttcore.shard_status<presharded>, ttir.name = "model.model.layers.14.mlp.experts.gate_up_proj_bias"} loc("p293.7680"), %arg294: tensor<128x2880x5760xbf16> {ttcore.argument_type = #ttcore.argument_type<parameter>, ttcore.local_shape = #ttcore<local_shape local_shape = tensor<16x720x5760xbf16>>, ttcore.shard_status = #ttcore.shard_status<presharded>, ttcore.weight_dtype = "bfp_bf4", ttir.name = "model.model.layers.14.mlp.experts.parametrizations.gate_up_proj.original"} loc("p294.7685"), %arg295: tensor<64x8x128x64xbf16> {ttcore.argument_type = #ttcore.argument_type<input>, ttcore.local_shape = #ttcore<local_shape local_shape = tensor<64x1x128x64xbf16>>, ttcore.shard_status = #ttcore.shard_status<presharded>, ttir.name = "args_32"} loc("p295.7813"), %arg296: tensor<512xbf16> {ttcore.argument_type = #ttcore.argument_type<parameter>, ttcore.local_shape = #ttcore<local_shape local_shape = tensor<64xbf16>>, ttcore.shard_status = #ttcore.shard_status<presharded>, ttir.name = "self___model_model_layers_15_self_attn_v_proj__parameters__bias"} loc("p296.7822"), %arg297: tensor<512x2880xbf16> {ttcore.argument_type = #ttcore.argument_type<parameter>, ttcore.local_shape = #ttcore<local_shape local_shape = tensor<64x720xbf16>>, ttcore.shard_status = #ttcore.shard_status<presharded>, ttir.name = "self___model_model_layers_15_self_attn_v_proj__parameters__weight"} loc("p297.7826"), %arg298: tensor<64x8x128x64xbf16> {ttcore.argument_type = #ttcore.argument_type<input>, ttcore.local_shape = #ttcore<local_shape local_shape = tensor<64x1x128x64xbf16>>, ttcore.shard_status = #ttcore.shard_status<presharded>, ttir.name = "args_33"} loc("p298.7850"), %arg299: tensor<512xbf16> {ttcore.argument_type = #ttcore.argument_type<parameter>, ttcore.local_shape = #ttcore<local_shape local_shape = tensor<64xbf16>>, ttcore.shard_status = #ttcore.shard_status<presharded>, ttir.name = "self___model_model_layers_16_self_attn_k_proj__parameters__bias"} loc("p299.7861"), %arg300: tensor<512x2880xbf16> {ttcore.argument_type = #ttcore.argument_type<parameter>, ttcore.local_shape = #ttcore<local_shape local_shape = tensor<64x720xbf16>>, ttcore.shard_status = #ttcore.shard_status<presharded>, ttir.name = "self___model_model_layers_16_self_attn_k_proj__parameters__weight"} loc("p300.7865"), %arg301: tensor<2880xbf16> {ttcore.argument_type = #ttcore.argument_type<parameter>, ttcore.local_shape = #ttcore<local_shape local_shape = tensor<720xbf16>>, ttcore.shard_status = #ttcore.shard_status<presharded>, ttir.name = "model.model.layers.16.input_layernorm.weight"} loc("p301.7870"), %arg302: tensor<128xbf16> {ttcore.argument_type = #ttcore.argument_type<parameter>, ttcore.local_shape = #ttcore<local_shape local_shape = tensor<128xbf16>>, ttcore.shard_status = #ttcore.shard_status<presharded>, ttir.name = "model.model.layers.15.mlp.router.bias"} loc("p302.7882"), %arg303: tensor<128x2880xbf16> {ttcore.argument_type = #ttcore.argument_type<parameter>, ttcore.local_shape = #ttcore<local_shape local_shape = tensor<128x720xbf16>>, ttcore.shard_status = #ttcore.shard_status<presharded>, ttcore.weight_dtype = "bfp_bf4", ttir.name = "model.model.layers.15.mlp.router.parametrizations.weight.original"} loc("p303.7890"), %arg304: tensor<2880xbf16> {ttcore.argument_type = #ttcore.argument_type<parameter>, ttcore.local_shape = #ttcore<local_shape local_shape = tensor<720xbf16>>, ttcore.shard_status = #ttcore.shard_status<presharded>, ttir.name = "model.model.layers.15.post_attention_layernorm.weight"} loc("p304.7899"), %arg305: tensor<2880xbf16> {ttcore.argument_type = #ttcore.argument_type<parameter>, ttcore.local_shape = #ttcore<local_shape local_shape = tensor<720xbf16>>, ttcore.shard_status = #ttcore.shard_status<presharded>, ttir.name = "self___model_model_layers_15_self_attn_o_proj__parameters__bias"} loc("p305.7910"), %arg306: tensor<2880x4096xbf16> {ttcore.argument_type = #ttcore.argument_type<parameter>, ttcore.local_shape = #ttcore<local_shape local_shape = tensor<720x512xbf16>>, ttcore.shard_status = #ttcore.shard_status<presharded>, ttir.name = "self___model_model_layers_15_self_attn_o_proj__parameters__weight"} loc("p306.7914"), %arg307: tensor<64xbf16> {ttcore.argument_type = #ttcore.argument_type<parameter>, ttcore.local_shape = #ttcore<local_shape local_shape = tensor<64xbf16>>, ttcore.shard_status = #ttcore.shard_status<presharded>, ttir.name = "model.model.layers.15.self_attn.sinks"} loc("p307.7925"), %arg308: tensor<4096xbf16> {ttcore.argument_type = #ttcore.argument_type<parameter>, ttcore.local_shape = #ttcore<local_shape local_shape = tensor<512xbf16>>, ttcore.shard_status = #ttcore.shard_status<presharded>, ttir.name = "self___model_model_layers_15_self_attn_q_proj__parameters__bias"} loc("p308.7943"), %arg309: tensor<4096x2880xbf16> {ttcore.argument_type = #ttcore.argument_type<parameter>, ttcore.local_shape = #ttcore<local_shape local_shape = tensor<512x720xbf16>>, ttcore.shard_status = #ttcore.shard_status<presharded>, ttir.name = "self___model_model_layers_15_self_attn_q_proj__parameters__weight"} loc("p309.7947"), %arg310: tensor<128x2880xbf16> {ttcore.argument_type = #ttcore.argument_type<parameter>, ttcore.local_shape = #ttcore<local_shape local_shape = tensor<16x720xbf16>>, ttcore.shard_status = #ttcore.shard_status<presharded>, ttir.name = "model.model.layers.15.mlp.experts.down_proj_bias"} loc("p310.8174"), %arg311: tensor<128x2880x2880xbf16> {ttcore.argument_type = #ttcore.argument_type<parameter>, ttcore.local_shape = #ttcore<local_shape local_shape = tensor<16x2880x720xbf16>>, ttcore.shard_status = #ttcore.shard_status<presharded>, ttcore.weight_dtype = "bfp_bf4", ttir.name = "model.model.layers.15.mlp.experts.parametrizations.down_proj.original"} loc("p311.8179"), %arg312: tensor<128x5760xbf16> {ttcore.argument_type = #ttcore.argument_type<parameter>, ttcore.local_shape = #ttcore<local_shape local_shape = tensor<16x5760xbf16>>, ttcore.shard_status = #ttcore.shard_status<presharded>, ttir.name = "model.model.layers.15.mlp.experts.gate_up_proj_bias"} loc("p312.8186"), %arg313: tensor<128x2880x5760xbf16> {ttcore.argument_type = #ttcore.argument_type<parameter>, ttcore.local_shape = #ttcore<local_shape local_shape = tensor<16x720x5760xbf16>>, ttcore.shard_status = #ttcore.shard_status<presharded>, ttcore.weight_dtype = "bfp_bf4", ttir.name = "model.model.layers.15.mlp.experts.parametrizations.gate_up_proj.original"} loc("p313.8191"), %arg314: tensor<64x8x128x64xbf16> {ttcore.argument_type = #ttcore.argument_type<input>, ttcore.local_shape = #ttcore<local_shape local_shape = tensor<64x1x128x64xbf16>>, ttcore.shard_status = #ttcore.shard_status<presharded>, ttir.name = "args_34"} loc("p314.8319"), %arg315: tensor<512xbf16> {ttcore.argument_type = #ttcore.argument_type<parameter>, ttcore.local_shape = #ttcore<local_shape local_shape = tensor<64xbf16>>, ttcore.shard_status = #ttcore.shard_status<presharded>, ttir.name = "self___model_model_layers_16_self_attn_v_proj__parameters__bias"} loc("p315.8328"), %arg316: tensor<512x2880xbf16> {ttcore.argument_type = #ttcore.argument_type<parameter>, ttcore.local_shape = #ttcore<local_shape local_shape = tensor<64x720xbf16>>, ttcore.shard_status = #ttcore.shard_status<presharded>, ttir.name = "self___model_model_layers_16_self_attn_v_proj__parameters__weight"} loc("p316.8332"), %arg317: tensor<64x8x128x64xbf16> {ttcore.argument_type = #ttcore.argument_type<input>, ttcore.local_shape = #ttcore<local_shape local_shape = tensor<64x1x128x64xbf16>>, ttcore.shard_status = #ttcore.shard_status<presharded>, ttir.name = "args_35"} loc("p317.8356"), %arg318: tensor<512xbf16> {ttcore.argument_type = #ttcore.argument_type<parameter>, ttcore.local_shape = #ttcore<local_shape local_shape = tensor<64xbf16>>, ttcore.shard_status = #ttcore.shard_status<presharded>, ttir.name = "self___model_model_layers_17_self_attn_k_proj__parameters__bias"} loc("p318.8367"), %arg319: tensor<512x2880xbf16> {ttcore.argument_type = #ttcore.argument_type<parameter>, ttcore.local_shape = #ttcore<local_shape local_shape = tensor<64x720xbf16>>, ttcore.shard_status = #ttcore.shard_status<presharded>, ttir.name = "self___model_model_layers_17_self_attn_k_proj__parameters__weight"} loc("p319.8371"), %arg320: tensor<2880xbf16> {ttcore.argument_type = #ttcore.argument_type<parameter>, ttcore.local_shape = #ttcore<local_shape local_shape = tensor<720xbf16>>, ttcore.shard_status = #ttcore.shard_status<presharded>, ttir.name = "model.model.layers.17.input_layernorm.weight"} loc("p320.8376"), %arg321: tensor<128xbf16> {ttcore.argument_type = #ttcore.argument_type<parameter>, ttcore.local_shape = #ttcore<local_shape local_shape = tensor<128xbf16>>, ttcore.shard_status = #ttcore.shard_status<presharded>, ttir.name = "model.model.layers.16.mlp.router.bias"} loc("p321.8388"), %arg322: tensor<128x2880xbf16> {ttcore.argument_type = #ttcore.argument_type<parameter>, ttcore.local_shape = #ttcore<local_shape local_shape = tensor<128x720xbf16>>, ttcore.shard_status = #ttcore.shard_status<presharded>, ttcore.weight_dtype = "bfp_bf4", ttir.name = "model.model.layers.16.mlp.router.parametrizations.weight.original"} loc("p322.8396"), %arg323: tensor<2880xbf16> {ttcore.argument_type = #ttcore.argument_type<parameter>, ttcore.local_shape = #ttcore<local_shape local_shape = tensor<720xbf16>>, ttcore.shard_status = #ttcore.shard_status<presharded>, ttir.name = "model.model.layers.16.post_attention_layernorm.weight"} loc("p323.8405"), %arg324: tensor<2880xbf16> {ttcore.argument_type = #ttcore.argument_type<parameter>, ttcore.local_shape = #ttcore<local_shape local_shape = tensor<720xbf16>>, ttcore.shard_status = #ttcore.shard_status<presharded>, ttir.name = "self___model_model_layers_16_self_attn_o_proj__parameters__bias"} loc("p324.8416"), %arg325: tensor<2880x4096xbf16> {ttcore.argument_type = #ttcore.argument_type<parameter>, ttcore.local_shape = #ttcore<local_shape local_shape = tensor<720x512xbf16>>, ttcore.shard_status = #ttcore.shard_status<presharded>, ttir.name = "self___model_model_layers_16_self_attn_o_proj__parameters__weight"} loc("p325.8420"), %arg326: tensor<64xbf16> {ttcore.argument_type = #ttcore.argument_type<parameter>, ttcore.local_shape = #ttcore<local_shape local_shape = tensor<64xbf16>>, ttcore.shard_status = #ttcore.shard_status<presharded>, ttir.name = "model.model.layers.16.self_attn.sinks"} loc("p326.8431"), %arg327: tensor<4096xbf16> {ttcore.argument_type = #ttcore.argument_type<parameter>, ttcore.local_shape = #ttcore<local_shape local_shape = tensor<512xbf16>>, ttcore.shard_status = #ttcore.shard_status<presharded>, ttir.name = "self___model_model_layers_16_self_attn_q_proj__parameters__bias"} loc("p327.8449"), %arg328: tensor<4096x2880xbf16> {ttcore.argument_type = #ttcore.argument_type<parameter>, ttcore.local_shape = #ttcore<local_shape local_shape = tensor<512x720xbf16>>, ttcore.shard_status = #ttcore.shard_status<presharded>, ttir.name = "self___model_model_layers_16_self_attn_q_proj__parameters__weight"} loc("p328.8453"), %arg329: tensor<128x2880xbf16> {ttcore.argument_type = #ttcore.argument_type<parameter>, ttcore.local_shape = #ttcore<local_shape local_shape = tensor<16x720xbf16>>, ttcore.shard_status = #ttcore.shard_status<presharded>, ttir.name = "model.model.layers.16.mlp.experts.down_proj_bias"} loc("p329.8680"), %arg330: tensor<128x2880x2880xbf16> {ttcore.argument_type = #ttcore.argument_type<parameter>, ttcore.local_shape = #ttcore<local_shape local_shape = tensor<16x2880x720xbf16>>, ttcore.shard_status = #ttcore.shard_status<presharded>, ttcore.weight_dtype = "bfp_bf4", ttir.name = "model.model.layers.16.mlp.experts.parametrizations.down_proj.original"} loc("p330.8685"), %arg331: tensor<128x5760xbf16> {ttcore.argument_type = #ttcore.argument_type<parameter>, ttcore.local_shape = #ttcore<local_shape local_shape = tensor<16x5760xbf16>>, ttcore.shard_status = #ttcore.shard_status<presharded>, ttir.name = "model.model.layers.16.mlp.experts.gate_up_proj_bias"} loc("p331.8692"), %arg332: tensor<128x2880x5760xbf16> {ttcore.argument_type = #ttcore.argument_type<parameter>, ttcore.local_shape = #ttcore<local_shape local_shape = tensor<16x720x5760xbf16>>, ttcore.shard_status = #ttcore.shard_status<presharded>, ttcore.weight_dtype = "bfp_bf4", ttir.name = "model.model.layers.16.mlp.experts.parametrizations.gate_up_proj.original"} loc("p332.8697"), %arg333: tensor<64x8x128x64xbf16> {ttcore.argument_type = #ttcore.argument_type<input>, ttcore.local_shape = #ttcore<local_shape local_shape = tensor<64x1x128x64xbf16>>, ttcore.shard_status = #ttcore.shard_status<presharded>, ttir.name = "args_36"} loc("p333.8825"), %arg334: tensor<512xbf16> {ttcore.argument_type = #ttcore.argument_type<parameter>, ttcore.local_shape = #ttcore<local_shape local_shape = tensor<64xbf16>>, ttcore.shard_status = #ttcore.shard_status<presharded>, ttir.name = "self___model_model_layers_17_self_attn_v_proj__parameters__bias"} loc("p334.8834"), %arg335: tensor<512x2880xbf16> {ttcore.argument_type = #ttcore.argument_type<parameter>, ttcore.local_shape = #ttcore<local_shape local_shape = tensor<64x720xbf16>>, ttcore.shard_status = #ttcore.shard_status<presharded>, ttir.name = "self___model_model_layers_17_self_attn_v_proj__parameters__weight"} loc("p335.8838"), %arg336: tensor<64x8x128x64xbf16> {ttcore.argument_type = #ttcore.argument_type<input>, ttcore.local_shape = #ttcore<local_shape local_shape = tensor<64x1x128x64xbf16>>, ttcore.shard_status = #ttcore.shard_status<presharded>, ttir.name = "args_37"} loc("p336.8862"), %arg337: tensor<512xbf16> {ttcore.argument_type = #ttcore.argument_type<parameter>, ttcore.local_shape = #ttcore<local_shape local_shape = tensor<64xbf16>>, ttcore.shard_status = #ttcore.shard_status<presharded>, ttir.name = "self___model_model_layers_18_self_attn_k_proj__parameters__bias"} loc("p337.8873"), %arg338: tensor<512x2880xbf16> {ttcore.argument_type = #ttcore.argument_type<parameter>, ttcore.local_shape = #ttcore<local_shape local_shape = tensor<64x720xbf16>>, ttcore.shard_status = #ttcore.shard_status<presharded>, ttir.name = "self___model_model_layers_18_self_attn_k_proj__parameters__weight"} loc("p338.8877"), %arg339: tensor<2880xbf16> {ttcore.argument_type = #ttcore.argument_type<parameter>, ttcore.local_shape = #ttcore<local_shape local_shape = tensor<720xbf16>>, ttcore.shard_status = #ttcore.shard_status<presharded>, ttir.name = "model.model.layers.18.input_layernorm.weight"} loc("p339.8882"), %arg340: tensor<128xbf16> {ttcore.argument_type = #ttcore.argument_type<parameter>, ttcore.local_shape = #ttcore<local_shape local_shape = tensor<128xbf16>>, ttcore.shard_status = #ttcore.shard_status<presharded>, ttir.name = "model.model.layers.17.mlp.router.bias"} loc("p340.8894"), %arg341: tensor<128x2880xbf16> {ttcore.argument_type = #ttcore.argument_type<parameter>, ttcore.local_shape = #ttcore<local_shape local_shape = tensor<128x720xbf16>>, ttcore.shard_status = #ttcore.shard_status<presharded>, ttcore.weight_dtype = "bfp_bf4", ttir.name = "model.model.layers.17.mlp.router.parametrizations.weight.original"} loc("p341.8902"), %arg342: tensor<2880xbf16> {ttcore.argument_type = #ttcore.argument_type<parameter>, ttcore.local_shape = #ttcore<local_shape local_shape = tensor<720xbf16>>, ttcore.shard_status = #ttcore.shard_status<presharded>, ttir.name = "model.model.layers.17.post_attention_layernorm.weight"} loc("p342.8911"), %arg343: tensor<2880xbf16> {ttcore.argument_type = #ttcore.argument_type<parameter>, ttcore.local_shape = #ttcore<local_shape local_shape = tensor<720xbf16>>, ttcore.shard_status = #ttcore.shard_status<presharded>, ttir.name = "self___model_model_layers_17_self_attn_o_proj__parameters__bias"} loc("p343.8922"), %arg344: tensor<2880x4096xbf16> {ttcore.argument_type = #ttcore.argument_type<parameter>, ttcore.local_shape = #ttcore<local_shape local_shape = tensor<720x512xbf16>>, ttcore.shard_status = #ttcore.shard_status<presharded>, ttir.name = "self___model_model_layers_17_self_attn_o_proj__parameters__weight"} loc("p344.8926"), %arg345: tensor<64xbf16> {ttcore.argument_type = #ttcore.argument_type<parameter>, ttcore.local_shape = #ttcore<local_shape local_shape = tensor<64xbf16>>, ttcore.shard_status = #ttcore.shard_status<presharded>, ttir.name = "model.model.layers.17.self_attn.sinks"} loc("p345.8937"), %arg346: tensor<4096xbf16> {ttcore.argument_type = #ttcore.argument_type<parameter>, ttcore.local_shape = #ttcore<local_shape local_shape = tensor<512xbf16>>, ttcore.shard_status = #ttcore.shard_status<presharded>, ttir.name = "self___model_model_layers_17_self_attn_q_proj__parameters__bias"} loc("p346.8955"), %arg347: tensor<4096x2880xbf16> {ttcore.argument_type = #ttcore.argument_type<parameter>, ttcore.local_shape = #ttcore<local_shape local_shape = tensor<512x720xbf16>>, ttcore.shard_status = #ttcore.shard_status<presharded>, ttir.name = "self___model_model_layers_17_self_attn_q_proj__parameters__weight"} loc("p347.8959"), %arg348: tensor<128x2880xbf16> {ttcore.argument_type = #ttcore.argument_type<parameter>, ttcore.local_shape = #ttcore<local_shape local_shape = tensor<16x720xbf16>>, ttcore.shard_status = #ttcore.shard_status<presharded>, ttir.name = "model.model.layers.17.mlp.experts.down_proj_bias"} loc("p348.9186"), %arg349: tensor<128x2880x2880xbf16> {ttcore.argument_type = #ttcore.argument_type<parameter>, ttcore.local_shape = #ttcore<local_shape local_shape = tensor<16x2880x720xbf16>>, ttcore.shard_status = #ttcore.shard_status<presharded>, ttcore.weight_dtype = "bfp_bf4", ttir.name = "model.model.layers.17.mlp.experts.parametrizations.down_proj.original"} loc("p349.9191"), %arg350: tensor<128x5760xbf16> {ttcore.argument_type = #ttcore.argument_type<parameter>, ttcore.local_shape = #ttcore<local_shape local_shape = tensor<16x5760xbf16>>, ttcore.shard_status = #ttcore.shard_status<presharded>, ttir.name = "model.model.layers.17.mlp.experts.gate_up_proj_bias"} loc("p350.9198"), %arg351: tensor<128x2880x5760xbf16> {ttcore.argument_type = #ttcore.argument_type<parameter>, ttcore.local_shape = #ttcore<local_shape local_shape = tensor<16x720x5760xbf16>>, ttcore.shard_status = #ttcore.shard_status<presharded>, ttcore.weight_dtype = "bfp_bf4", ttir.name = "model.model.layers.17.mlp.experts.parametrizations.gate_up_proj.original"} loc("p351.9203"), %arg352: tensor<64x8x128x64xbf16> {ttcore.argument_type = #ttcore.argument_type<input>, ttcore.local_shape = #ttcore<local_shape local_shape = tensor<64x1x128x64xbf16>>, ttcore.shard_status = #ttcore.shard_status<presharded>, ttir.name = "args_38"} loc("p352.9331"), %arg353: tensor<512xbf16> {ttcore.argument_type = #ttcore.argument_type<parameter>, ttcore.local_shape = #ttcore<local_shape local_shape = tensor<64xbf16>>, ttcore.shard_status = #ttcore.shard_status<presharded>, ttir.name = "self___model_model_layers_18_self_attn_v_proj__parameters__bias"} loc("p353.9340"), %arg354: tensor<512x2880xbf16> {ttcore.argument_type = #ttcore.argument_type<parameter>, ttcore.local_shape = #ttcore<local_shape local_shape = tensor<64x720xbf16>>, ttcore.shard_status = #ttcore.shard_status<presharded>, ttir.name = "self___model_model_layers_18_self_attn_v_proj__parameters__weight"} loc("p354.9344"), %arg355: tensor<64x8x128x64xbf16> {ttcore.argument_type = #ttcore.argument_type<input>, ttcore.local_shape = #ttcore<local_shape local_shape = tensor<64x1x128x64xbf16>>, ttcore.shard_status = #ttcore.shard_status<presharded>, ttir.name = "args_39"} loc("p355.9368"), %arg356: tensor<512xbf16> {ttcore.argument_type = #ttcore.argument_type<parameter>, ttcore.local_shape = #ttcore<local_shape local_shape = tensor<64xbf16>>, ttcore.shard_status = #ttcore.shard_status<presharded>, ttir.name = "self___model_model_layers_19_self_attn_k_proj__parameters__bias"} loc("p356.9379"), %arg357: tensor<512x2880xbf16> {ttcore.argument_type = #ttcore.argument_type<parameter>, ttcore.local_shape = #ttcore<local_shape local_shape = tensor<64x720xbf16>>, ttcore.shard_status = #ttcore.shard_status<presharded>, ttir.name = "self___model_model_layers_19_self_attn_k_proj__parameters__weight"} loc("p357.9383"), %arg358: tensor<2880xbf16> {ttcore.argument_type = #ttcore.argument_type<parameter>, ttcore.local_shape = #ttcore<local_shape local_shape = tensor<720xbf16>>, ttcore.shard_status = #ttcore.shard_status<presharded>, ttir.name = "model.model.layers.19.input_layernorm.weight"} loc("p358.9388"), %arg359: tensor<128xbf16> {ttcore.argument_type = #ttcore.argument_type<parameter>, ttcore.local_shape = #ttcore<local_shape local_shape = tensor<128xbf16>>, ttcore.shard_status = #ttcore.shard_status<presharded>, ttir.name = "model.model.layers.18.mlp.router.bias"} loc("p359.9400"), %arg360: tensor<128x2880xbf16> {ttcore.argument_type = #ttcore.argument_type<parameter>, ttcore.local_shape = #ttcore<local_shape local_shape = tensor<128x720xbf16>>, ttcore.shard_status = #ttcore.shard_status<presharded>, ttcore.weight_dtype = "bfp_bf4", ttir.name = "model.model.layers.18.mlp.router.parametrizations.weight.original"} loc("p360.9408"), %arg361: tensor<2880xbf16> {ttcore.argument_type = #ttcore.argument_type<parameter>, ttcore.local_shape = #ttcore<local_shape local_shape = tensor<720xbf16>>, ttcore.shard_status = #ttcore.shard_status<presharded>, ttir.name = "model.model.layers.18.post_attention_layernorm.weight"} loc("p361.9417"), %arg362: tensor<2880xbf16> {ttcore.argument_type = #ttcore.argument_type<parameter>, ttcore.local_shape = #ttcore<local_shape local_shape = tensor<720xbf16>>, ttcore.shard_status = #ttcore.shard_status<presharded>, ttir.name = "self___model_model_layers_18_self_attn_o_proj__parameters__bias"} loc("p362.9428"), %arg363: tensor<2880x4096xbf16> {ttcore.argument_type = #ttcore.argument_type<parameter>, ttcore.local_shape = #ttcore<local_shape local_shape = tensor<720x512xbf16>>, ttcore.shard_status = #ttcore.shard_status<presharded>, ttir.name = "self___model_model_layers_18_self_attn_o_proj__parameters__weight"} loc("p363.9432"), %arg364: tensor<64xbf16> {ttcore.argument_type = #ttcore.argument_type<parameter>, ttcore.local_shape = #ttcore<local_shape local_shape = tensor<64xbf16>>, ttcore.shard_status = #ttcore.shard_status<presharded>, ttir.name = "model.model.layers.18.self_attn.sinks"} loc("p364.9443"), %arg365: tensor<4096xbf16> {ttcore.argument_type = #ttcore.argument_type<parameter>, ttcore.local_shape = #ttcore<local_shape local_shape = tensor<512xbf16>>, ttcore.shard_status = #ttcore.shard_status<presharded>, ttir.name = "self___model_model_layers_18_self_attn_q_proj__parameters__bias"} loc("p365.9461"), %arg366: tensor<4096x2880xbf16> {ttcore.argument_type = #ttcore.argument_type<parameter>, ttcore.local_shape = #ttcore<local_shape local_shape = tensor<512x720xbf16>>, ttcore.shard_status = #ttcore.shard_status<presharded>, ttir.name = "self___model_model_layers_18_self_attn_q_proj__parameters__weight"} loc("p366.9465"), %arg367: tensor<128x2880xbf16> {ttcore.argument_type = #ttcore.argument_type<parameter>, ttcore.local_shape = #ttcore<local_shape local_shape = tensor<16x720xbf16>>, ttcore.shard_status = #ttcore.shard_status<presharded>, ttir.name = "model.model.layers.18.mlp.experts.down_proj_bias"} loc("p367.9692"), %arg368: tensor<128x2880x2880xbf16> {ttcore.argument_type = #ttcore.argument_type<parameter>, ttcore.local_shape = #ttcore<local_shape local_shape = tensor<16x2880x720xbf16>>, ttcore.shard_status = #ttcore.shard_status<presharded>, ttcore.weight_dtype = "bfp_bf4", ttir.name = "model.model.layers.18.mlp.experts.parametrizations.down_proj.original"} loc("p368.9697"), %arg369: tensor<128x5760xbf16> {ttcore.argument_type = #ttcore.argument_type<parameter>, ttcore.local_shape = #ttcore<local_shape local_shape = tensor<16x5760xbf16>>, ttcore.shard_status = #ttcore.shard_status<presharded>, ttir.name = "model.model.layers.18.mlp.experts.gate_up_proj_bias"} loc("p369.9704"), %arg370: tensor<128x2880x5760xbf16> {ttcore.argument_type = #ttcore.argument_type<parameter>, ttcore.local_shape = #ttcore<local_shape local_shape = tensor<16x720x5760xbf16>>, ttcore.shard_status = #ttcore.shard_status<presharded>, ttcore.weight_dtype = "bfp_bf4", ttir.name = "model.model.layers.18.mlp.experts.parametrizations.gate_up_proj.original"} loc("p370.9709"), %arg371: tensor<64x8x128x64xbf16> {ttcore.argument_type = #ttcore.argument_type<input>, ttcore.local_shape = #ttcore<local_shape local_shape = tensor<64x1x128x64xbf16>>, ttcore.shard_status = #ttcore.shard_status<presharded>, ttir.name = "args_40"} loc("p371.9837"), %arg372: tensor<512xbf16> {ttcore.argument_type = #ttcore.argument_type<parameter>, ttcore.local_shape = #ttcore<local_shape local_shape = tensor<64xbf16>>, ttcore.shard_status = #ttcore.shard_status<presharded>, ttir.name = "self___model_model_layers_19_self_attn_v_proj__parameters__bias"} loc("p372.9846"), %arg373: tensor<512x2880xbf16> {ttcore.argument_type = #ttcore.argument_type<parameter>, ttcore.local_shape = #ttcore<local_shape local_shape = tensor<64x720xbf16>>, ttcore.shard_status = #ttcore.shard_status<presharded>, ttir.name = "self___model_model_layers_19_self_attn_v_proj__parameters__weight"} loc("p373.9850"), %arg374: tensor<64x8x128x64xbf16> {ttcore.argument_type = #ttcore.argument_type<input>, ttcore.local_shape = #ttcore<local_shape local_shape = tensor<64x1x128x64xbf16>>, ttcore.shard_status = #ttcore.shard_status<presharded>, ttir.name = "args_41"} loc("p374.9874"), %arg375: tensor<512xbf16> {ttcore.argument_type = #ttcore.argument_type<parameter>, ttcore.local_shape = #ttcore<local_shape local_shape = tensor<64xbf16>>, ttcore.shard_status = #ttcore.shard_status<presharded>, ttir.name = "self___model_model_layers_20_self_attn_k_proj__parameters__bias"} loc("p375.9885"), %arg376: tensor<512x2880xbf16> {ttcore.argument_type = #ttcore.argument_type<parameter>, ttcore.local_shape = #ttcore<local_shape local_shape = tensor<64x720xbf16>>, ttcore.shard_status = #ttcore.shard_status<presharded>, ttir.name = "self___model_model_layers_20_self_attn_k_proj__parameters__weight"} loc("p376.9889"), %arg377: tensor<2880xbf16> {ttcore.argument_type = #ttcore.argument_type<parameter>, ttcore.local_shape = #ttcore<local_shape local_shape = tensor<720xbf16>>, ttcore.shard_status = #ttcore.shard_status<presharded>, ttir.name = "model.model.layers.20.input_layernorm.weight"} loc("p377.9894"), %arg378: tensor<128xbf16> {ttcore.argument_type = #ttcore.argument_type<parameter>, ttcore.local_shape = #ttcore<local_shape local_shape = tensor<128xbf16>>, ttcore.shard_status = #ttcore.shard_status<presharded>, ttir.name = "model.model.layers.19.mlp.router.bias"} loc("p378.9906"), %arg379: tensor<128x2880xbf16> {ttcore.argument_type = #ttcore.argument_type<parameter>, ttcore.local_shape = #ttcore<local_shape local_shape = tensor<128x720xbf16>>, ttcore.shard_status = #ttcore.shard_status<presharded>, ttcore.weight_dtype = "bfp_bf4", ttir.name = "model.model.layers.19.mlp.router.parametrizations.weight.original"} loc("p379.9914"), %arg380: tensor<2880xbf16> {ttcore.argument_type = #ttcore.argument_type<parameter>, ttcore.local_shape = #ttcore<local_shape local_shape = tensor<720xbf16>>, ttcore.shard_status = #ttcore.shard_status<presharded>, ttir.name = "model.model.layers.19.post_attention_layernorm.weight"} loc("p380.9923"), %arg381: tensor<2880xbf16> {ttcore.argument_type = #ttcore.argument_type<parameter>, ttcore.local_shape = #ttcore<local_shape local_shape = tensor<720xbf16>>, ttcore.shard_status = #ttcore.shard_status<presharded>, ttir.name = "self___model_model_layers_19_self_attn_o_proj__parameters__bias"} loc("p381.9934"), %arg382: tensor<2880x4096xbf16> {ttcore.argument_type = #ttcore.argument_type<parameter>, ttcore.local_shape = #ttcore<local_shape local_shape = tensor<720x512xbf16>>, ttcore.shard_status = #ttcore.shard_status<presharded>, ttir.name = "self___model_model_layers_19_self_attn_o_proj__parameters__weight"} loc("p382.9938"), %arg383: tensor<64xbf16> {ttcore.argument_type = #ttcore.argument_type<parameter>, ttcore.local_shape = #ttcore<local_shape local_shape = tensor<64xbf16>>, ttcore.shard_status = #ttcore.shard_status<presharded>, ttir.name = "model.model.layers.19.self_attn.sinks"} loc("p383.9949"), %arg384: tensor<4096xbf16> {ttcore.argument_type = #ttcore.argument_type<parameter>, ttcore.local_shape = #ttcore<local_shape local_shape = tensor<512xbf16>>, ttcore.shard_status = #ttcore.shard_status<presharded>, ttir.name = "self___model_model_layers_19_self_attn_q_proj__parameters__bias"} loc("p384.9967"), %arg385: tensor<4096x2880xbf16> {ttcore.argument_type = #ttcore.argument_type<parameter>, ttcore.local_shape = #ttcore<local_shape local_shape = tensor<512x720xbf16>>, ttcore.shard_status = #ttcore.shard_status<presharded>, ttir.name = "self___model_model_layers_19_self_attn_q_proj__parameters__weight"} loc("p385.9971"), %arg386: tensor<128x2880xbf16> {ttcore.argument_type = #ttcore.argument_type<parameter>, ttcore.local_shape = #ttcore<local_shape local_shape = tensor<16x720xbf16>>, ttcore.shard_status = #ttcore.shard_status<presharded>, ttir.name = "model.model.layers.19.mlp.experts.down_proj_bias"} loc("p386.10198"), %arg387: tensor<128x2880x2880xbf16> {ttcore.argument_type = #ttcore.argument_type<parameter>, ttcore.local_shape = #ttcore<local_shape local_shape = tensor<16x2880x720xbf16>>, ttcore.shard_status = #ttcore.shard_status<presharded>, ttcore.weight_dtype = "bfp_bf4", ttir.name = "model.model.layers.19.mlp.experts.parametrizations.down_proj.original"} loc("p387.10203"), %arg388: tensor<128x5760xbf16> {ttcore.argument_type = #ttcore.argument_type<parameter>, ttcore.local_shape = #ttcore<local_shape local_shape = tensor<16x5760xbf16>>, ttcore.shard_status = #ttcore.shard_status<presharded>, ttir.name = "model.model.layers.19.mlp.experts.gate_up_proj_bias"} loc("p388.10210")…
#loc4549 = loc("reshape.12933")
#loc4550 = loc("custom-call.13336")
#loc4551 = loc("reshape.13518")
#loc4552 = loc("reshape.13514")
#loc4553 = loc("reshape.13516")
#loc4554 = loc("transpose.13517")
#loc4556 = loc("reshape.13520")
#loc4557 = loc("reshape.13510")
#loc4558 = loc("reshape.13512")
#loc4559 = loc("broadcast.13523")
#loc4560 = loc("add.13524")
#loc4561 = loc("transpose.13526")
#loc4562 = loc("slice.13527")
#loc4563 = loc("multiply.13544")
#loc4564 = loc("slice.13531")
#loc4565 = loc("multiply.13541")
#loc4566 = loc("subtract.13547")
#loc4567 = loc("multiply.13534")
#loc4568 = loc("multiply.13530")
#loc4569 = loc("add.13537")
#loc4570 = loc("concatenate.13548")
#loc4571 = loc("reshape.12926")
#loc4572 = loc("reshape.12928")
#loc4573 = loc("transpose.12929")
#loc4575 = loc("reshape.13339")
#loc4576 = loc("reshape.12922")
#loc4577 = loc("reshape.12924")
#loc4578 = loc("broadcast.13342")
#loc4579 = loc("add.13343")
#loc4580 = loc("transpose.13345")
#loc4581 = loc("slice.13346")
#loc4582 = loc("multiply.13364")
#loc4583 = loc("slice.13351")
#loc4584 = loc("multiply.13361")
#loc4585 = loc("subtract.13367")
#loc4586 = loc("multiply.13354")
#loc4587 = loc("multiply.13349")
#loc4588 = loc("add.13357")
#loc4589 = loc("concatenate.13368")
#loc4591 = loc("broadcast.13504")
#loc4592 = loc("reshape.13505")
#loc4593 = loc("transpose.13506")
#loc4594 = loc("dot.13549")
#loc4595 = loc("multiply.13552")
#loc4596 = loc("add.13557")
#loc4597 = loc("reshape.13492")
#loc4598 = loc("reshape.13497")
#loc4599 = loc("broadcast.13498")
#loc4600 = loc("concatenate.13558")
#loc4601 = loc("reduce.13565")
#loc4602 = loc("broadcast.13601")
#loc4603 = loc("subtract.13602")
#loc4604 = loc("reduce.13608")
#loc4605 = loc("broadcast.13609")
#loc4606 = loc("subtract.13610")
#loc4607 = loc("exponential.13611")
#loc4608 = loc("reduce.13617")
#loc4609 = loc("broadcast.13618")
#loc4610 = loc("divide.13619")
#loc4611 = loc("slice.13620")
#loc4612 = loc("reshape.13393")
#loc4613 = loc("reshape.13395")
#loc4614 = loc("transpose.13396")
#loc4616 = loc("reshape.13399")
#loc4617 = loc("reshape.13389")
#loc4618 = loc("reshape.13391")
#loc4619 = loc("broadcast.13402")
#loc4620 = loc("add.13403")
#loc4621 = loc("transpose.13405")
#loc4623 = loc("broadcast.13488")
#loc4624 = loc("reshape.13489")
#loc4625 = loc("dot.13621")
#loc4626 = loc("reshape.13625")
#loc4627 = loc("reshape.13481")
#loc4628 = loc("reshape.13483")
#loc4629 = loc("transpose.13484")
#loc4631 = loc("reshape.13627")
#loc4632 = loc("reshape.13477")
#loc4633 = loc("reshape.13479")
#loc4634 = loc("broadcast.13630")
#loc4635 = loc("add.13631")
#loc4636 = loc("add.13634")
#loc4637 = loc("reshape.13466")
#loc4638 = loc("reshape.13468")
#loc4639 = loc("custom-call.13667")
#loc4640 = loc("reshape.13760")
#loc4641 = loc("concatenate.13761")
#loc4643 = loc("reshape.13753")
#loc4644 = loc("reshape.13755")
#loc4645 = loc("broadcast.13768")
#loc4646 = loc("add.13769")
#loc4647 = loc("slice.13782")
#loc4648 = loc("clamp.13785")
#loc4649 = loc("add.13788")
#loc4650 = loc("slice.13770")
#loc4651 = loc("clamp.13773")
#loc4652 = loc("multiply.13775")
#loc4653 = loc("logistic.13776")
#loc4654 = loc("multiply.13777")
#loc4655 = loc("multiply.13789")
#loc4656 = loc("dot.13790")
#loc4657 = loc("reshape.13741")
#loc4658 = loc("reshape.13743")
#loc4659 = loc("broadcast.13794")
#loc4660 = loc("add.13795")
#loc4661 = loc("reshape.13796")
#loc4662 = loc("convert.13669")
#loc4663 = loc("reshape.13457")
#loc4664 = loc("reshape.13462")
#loc4665 = loc("transpose.13463")
#loc4666 = loc("convert.13464")
#loc4668 = loc("reshape.13449")
#loc4669 = loc("reshape.13451")
#loc4670 = loc("convert.13452")
#loc4671 = loc("broadcast.13675")
#loc4672 = loc("add.13676")
#loc4673 = loc("convert.13677")
#loc4674 = loc("broadcast.13722")
#loc4675 = loc("compare.13723")
#loc4676 = loc("convert.13724")
#loc4677 = loc("convert.13725")
#loc4678 = loc("reduce.13704")
#loc4679 = loc("broadcast.13705")
#loc4680 = loc("subtract.13706")
#loc4681 = loc("exponential.13707")
#loc4682 = loc("reduce.13713")
#loc4683 = loc("broadcast.13714")
#loc4684 = loc("divide.13715")
#loc4685 = loc("broadcast.13727")
#loc4686 = loc("multiply.13728")
#loc4687 = loc("reduce.13735")
#loc4688 = loc("transpose.13736")
#loc4689 = loc("reshape.13737")
#loc4690 = loc("broadcast.13798")
#loc4691 = loc("multiply.13799")
#loc4693 = loc("add.13809")
#loc4694 = loc("reshape.13437")
#loc4695 = loc("reshape.13439")
#loc4696 = loc("custom-call.13842")
#loc4697 = loc("reshape.14024")
#loc4698 = loc("reshape.14020")
#loc4699 = loc("reshape.14022")
#loc4700 = loc("transpose.14023")
#loc4702 = loc("reshape.14026")
#loc4703 = loc("reshape.14016")
#loc4704 = loc("reshape.14018")
#loc4705 = loc("broadcast.14029")
#loc4706 = loc("add.14030")
#loc4707 = loc("transpose.14032")
#loc4708 = loc("slice.14033")
#loc4709 = loc("multiply.14050")
#loc4710 = loc("slice.14037")
#loc4711 = loc("multiply.14047")
#loc4712 = loc("subtract.14053")
#loc4713 = loc("multiply.14040")
#loc4714 = loc("multiply.14036")
#loc4715 = loc("add.14043")
#loc4716 = loc("concatenate.14054")
#loc4717 = loc("reshape.13432")
#loc4718 = loc("reshape.13434")
#loc4719 = loc("transpose.13435")
#loc4721 = loc("reshape.13845")
#loc4722 = loc("reshape.13428")
#loc4723 = loc("reshape.13430")
#loc4724 = loc("broadcast.13848")
#loc4725 = loc("add.13849")
#loc4726 = loc("transpose.13851")
#loc4727 = loc("slice.13852")
#loc4728 = loc("multiply.13870")
#loc4729 = loc("slice.13857")
#loc4730 = loc("multiply.13867")
#loc4731 = loc("subtract.13873")
#loc4732 = loc("multiply.13860")
#loc4733 = loc("multiply.13855")
#loc4734 = loc("add.13863")
#loc4735 = loc("concatenate.13874")
#loc4737 = loc("broadcast.14010")
#loc4738 = loc("reshape.14011")
#loc4739 = loc("transpose.14012")
#loc4740 = loc("dot.14055")
#loc4741 = loc("multiply.14058")
#loc4742 = loc("add.14063")
#loc4743 = loc("reshape.13998")
#loc4744 = loc("reshape.14003")
#loc4745 = loc("broadcast.14004")
#loc4746 = loc("concatenate.14064")
#loc4747 = loc("reduce.14071")
#loc4748 = loc("broadcast.14107")
#loc4749 = loc("subtract.14108")
#loc4750 = loc("reduce.14114")
#loc4751 = loc("broadcast.14115")
#loc4752 = loc("subtract.14116")
#loc4753 = loc("exponential.14117")
#loc4754 = loc("reduce.14123")
#loc4755 = loc("broadcast.14124")
#loc4756 = loc("divide.14125")
#loc4757 = loc("slice.14126")
#loc4758 = loc("reshape.13899")
#loc4759 = loc("reshape.13901")
#loc4760 = loc("transpose.13902")
#loc4762 = loc("reshape.13905")
#loc4763 = loc("reshape.13895")
#loc4764 = loc("reshape.13897")
#loc4765 = loc("broadcast.13908")
#loc4766 = loc("add.13909")
#loc4767 = loc("transpose.13911")
#loc4769 = loc("broadcast.13994")
#loc4770 = loc("reshape.13995")
#loc4771 = loc("dot.14127")
#loc4772 = loc("reshape.14131")
#loc4773 = loc("reshape.13987")
#loc4774 = loc("reshape.13989")
#loc4775 = loc("transpose.13990")
#loc4777 = loc("reshape.14133")
#loc4778 = loc("reshape.13983")
#loc4779 = loc("reshape.13985")
#loc4780 = loc("broadcast.14136")
#loc4781 = loc("add.14137")
#loc4782 = loc("add.14140")
#loc4783 = loc("reshape.13972")
#loc4784 = loc("reshape.13974")
#loc4785 = loc("custom-call.14173")
#loc4786 = loc("reshape.14266")
#loc4787 = loc("concatenate.14267")
#loc4789 = loc("reshape.14259")
#loc4790 = loc("reshape.14261")
#loc4791 = loc("broadcast.14274")
#loc4792 = loc("add.14275")
#loc4793 = loc("slice.14288")
#loc4794 = loc("clamp.14291")
#loc4795 = loc("add.14294")
#loc4796 = loc("slice.14276")
#loc4797 = loc("clamp.14279")
#loc4798 = loc("multiply.14281")
#loc4799 = loc("logistic.14282")
#loc4800 = loc("multiply.14283")
#loc4801 = loc("multiply.14295")
#loc4802 = loc("dot.14296")
#loc4803 = loc("reshape.14247")
#loc4804 = loc("reshape.14249")
#loc4805 = loc("broadcast.14300")
#loc4806 = loc("add.14301")
#loc4807 = loc("reshape.14302")
#loc4808 = loc("convert.14175")
#loc4809 = loc("reshape.13963")
#loc4810 = loc("reshape.13968")
#loc4811 = loc("transpose.13969")
#loc4812 = loc("convert.13970")
#loc4814 = loc("reshape.13955")
#loc4815 = loc("reshape.13957")
#loc4816 = loc("convert.13958")
#loc4817 = loc("broadcast.14181")
#loc4818 = loc("add.14182")
#loc4819 = loc("convert.14183")
#loc4820 = loc("broadcast.14228")
#loc4821 = loc("compare.14229")
#loc4822 = loc("convert.14230")
#loc4823 = loc("convert.14231")
#loc4824 = loc("reduce.14210")
#loc4825 = loc("broadcast.14211")
#loc4826 = loc("subtract.14212")
#loc4827 = loc("exponential.14213")
#loc4828 = loc("reduce.14219")
#loc4829 = loc("broadcast.14220")
#loc4830 = loc("divide.14221")
#loc4831 = loc("broadcast.14233")
#loc4832 = loc("multiply.14234")
#loc4833 = loc("reduce.14241")
#loc4834 = loc("transpose.14242")
#loc4835 = loc("reshape.14243")
#loc4836 = loc("broadcast.14304")
#loc4837 = loc("multiply.14305")
#loc4839 = loc("add.14315")
#loc4840 = loc("reshape.13943")
#loc4841 = loc("reshape.13945")
#loc4842 = loc("custom-call.14348")
#loc4843 = loc("reshape.14530")
#loc4844 = loc("reshape.14526")
#loc4845 = loc("reshape.14528")
#loc4846 = loc("transpose.14529")
#loc4848 = loc("reshape.14532")
#loc4849 = loc("reshape.14522")
#loc4850 = loc("reshape.14524")
#loc4851 = loc("broadcast.14535")
#loc4852 = loc("add.14536")
#loc4853 = loc("transpose.14538")
#loc4854 = loc("slice.14539")
#loc4855 = loc("multiply.14556")
#loc4856 = loc("slice.14543")
#loc4857 = loc("multiply.14553")
#loc4858 = loc("subtract.14559")
#loc4859 = loc("multiply.14546")
#loc4860 = loc("multiply.14542")
#loc4861 = loc("add.14549")
#loc4862 = loc("concatenate.14560")
#loc4863 = loc("reshape.13938")
#loc4864 = loc("reshape.13940")
#loc4865 = loc("transpose.13941")
#loc4867 = loc("reshape.14351")
#loc4868 = loc("reshape.13934")
#loc4869 = loc("reshape.13936")
#loc4870 = loc("broadcast.14354")
#loc4871 = loc("add.14355")
#loc4872 = loc("transpose.14357")
#loc4873 = loc("slice.14358")
#loc4874 = loc("multiply.14376")
#loc4875 = loc("slice.14363")
#loc4876 = loc("multiply.14373")
#loc4877 = loc("subtract.14379")
#loc4878 = loc("multiply.14366")
#loc4879 = loc("multiply.14361")
#loc4880 = loc("add.14369")
#loc4881 = loc("concatenate.14380")
#loc4883 = loc("broadcast.14516")
#loc4884 = loc("reshape.14517")
#loc4885 = loc("transpose.14518")
#loc4886 = loc("dot.14561")
#loc4887 = loc("multiply.14564")
#loc4888 = loc("add.14569")
#loc4889 = loc("reshape.14504")
#loc4890 = loc("reshape.14509")
#loc4891 = loc("broadcast.14510")
#loc4892 = loc("concatenate.14570")
#loc4893 = loc("reduce.14577")
#loc4894 = loc("broadcast.14613")
#loc4895 = loc("subtract.14614")
#loc4896 = loc("reduce.14620")
#loc4897 = loc("broadcast.14621")
#loc4898 = loc("subtract.14622")
#loc4899 = loc("exponential.14623")
#loc4900 = loc("reduce.14629")
#loc4901 = loc("broadcast.14630")
#loc4902 = loc("divide.14631")
#loc4903 = loc("slice.14632")
#loc4904 = loc("reshape.14405")
#loc4905 = loc("reshape.14407")
#loc4906 = loc("transpose.14408")
#loc4908 = loc("reshape.14411")
#loc4909 = loc("reshape.14401")
#loc4910 = loc("reshape.14403")
#loc4911 = loc("broadcast.14414")
#loc4912 = loc("add.14415")
#loc4913 = loc("transpose.14417")
#loc4915 = loc("broadcast.14500")
#loc4916 = loc("reshape.14501")
#loc4917 = loc("dot.14633")
#loc4918 = loc("reshape.14637")
#loc4919 = loc("reshape.14493")
#loc4920 = loc("reshape.14495")
#loc4921 = loc("transpose.14496")
#loc4923 = loc("reshape.14639")
#loc4924 = loc("reshape.14489")
#loc4925 = loc("reshape.14491")
#loc4926 = loc("broadcast.14642")
#loc4927 = loc("add.14643")
#loc4928 = loc("add.14646")
#loc4929 = loc("reshape.14478")
#loc4930 = loc("reshape.14480")
#loc4931 = loc("custom-call.14679")
#loc4932 = loc("reshape.14772")
#loc4933 = loc("concatenate.14773")
#loc4935 = loc("reshape.14765")
#loc4936 = loc("reshape.14767")
#loc4937 = loc("broadcast.14780")
#loc4938 = loc("add.14781")
#loc4939 = loc("slice.14794")
#loc4940 = loc("clamp.14797")
#loc4941 = loc("add.14800")
#loc4942 = loc("slice.14782")
#loc4943 = loc("clamp.14785")
#loc4944 = loc("multiply.14787")
#loc4945 = loc("logistic.14788")
#loc4946 = loc("multiply.14789")
#loc4947 = loc("multiply.14801")
#loc4948 = loc("dot.14802")
#loc4949 = loc("reshape.14753")
#loc4950 = loc("reshape.14755")
#loc4951 = loc("broadcast.14806")
#loc4952 = loc("add.14807")
#loc4953 = loc("reshape.14808")
#loc4954 = loc("convert.14681")
#loc4955 = loc("reshape.14469")
#loc4956 = loc("reshape.14474")
#loc4957 = loc("transpose.14475")
#loc4958 = loc("convert.14476")
#loc4960 = loc("reshape.14461")
#loc4961 = loc("reshape.14463")
#loc4962 = loc("convert.14464")
#loc4963 = loc("broadcast.14687")
#loc4964 = loc("add.14688")
#loc4965 = loc("convert.14689")
#loc4966 = loc("broadcast.14734")
#loc4967 = loc("compare.14735")
#loc4968 = loc("convert.14736")
#loc4969 = loc("convert.14737")
#loc4970 = loc("reduce.14716")
#loc4971 = loc("broadcast.14717")
#loc4972 = loc("subtract.14718")
#loc4973 = loc("exponential.14719")
#loc4974 = loc("reduce.14725")
#loc4975 = loc("broadcast.14726")
#loc4976 = loc("divide.14727")
#loc4977 = loc("broadcast.14739")
#loc4978 = loc("multiply.14740")
#loc4979 = loc("reduce.14747")
#loc4980 = loc("transpose.14748")
#loc4981 = loc("reshape.14749")
#loc4982 = loc("broadcast.14810")
#loc4983 = loc("multiply.14811")
#loc4985 = loc("add.14821")
#loc4986 = loc("reshape.14449")
#loc4987 = loc("reshape.14451")
#loc4988 = loc("custom-call.14854")
#loc4989 = loc("reshape.15036")
#loc4990 = loc("reshape.15032")
#loc4991 = loc("reshape.15034")
#loc4992 = loc("transpose.15035")
#loc4994 = loc("reshape.15038")
#loc4995 = loc("reshape.15028")
#loc4996 = loc("reshape.15030")
#loc4997 = loc("broadcast.15041")
#loc4998 = loc("add.15042")
#loc4999 = loc("transpose.15044")
#loc5000 = loc("slice.15045")
#loc5001 = loc("multiply.15062")
#loc5002 = loc("slice.15049")
#loc5003 = loc("multiply.15059")
#loc5004 = loc("subtract.15065")
#loc5005 = loc("multiply.15052")
#loc5006 = loc("multiply.15048")
#loc5007 = loc("add.15055")
#loc5008 = loc("concatenate.15066")
#loc5009 = loc("reshape.14444")
#loc5010 = loc("reshape.14446")
#loc5011 = loc("transpose.14447")
#loc5013 = loc("reshape.14857")
#loc5014 = loc("reshape.14440")
#loc5015 = loc("reshape.14442")
#loc5016 = loc("broadcast.14860")
#loc5017 = loc("add.14861")
#loc5018 = loc("transpose.14863")
#loc5019 = loc("slice.14864")
#loc5020 = loc("multiply.14882")
#loc5021 = loc("slice.14869")
#loc5022 = loc("multiply.14879")
#loc5023 = loc("subtract.14885")
#loc5024 = loc("multiply.14872")
#loc5025 = loc("multiply.14867")
#loc5026 = loc("add.14875")
#loc5027 = loc("concatenate.14886")
#loc5029 = loc("broadcast.15022")
#loc5030 = loc("reshape.15023")
#loc5031 = loc("transpose.15024")
#loc5032 = loc("dot.15067")
#loc5033 = loc("multiply.15070")
#loc5034 = loc("add.15075")
#loc5035 = loc("reshape.15010")
#loc5036 = loc("reshape.15015")
#loc5037 = loc("broadcast.15016")
#loc5038 = loc("concatenate.15076")
#loc5039 = loc("reduce.15083")
#loc5040 = loc("broadcast.15119")
#loc5041 = loc("subtract.15120")
#loc5042 = loc("reduce.15126")
#loc5043 = loc("broadcast.15127")
#loc5044 = loc("subtract.15128")
#loc5045 = loc("exponential.15129")
#loc5046 = loc("reduce.15135")
#loc5047 = loc("broadcast.15136")
#loc5048 = loc("divide.15137")
#loc5049 = loc("slice.15138")
#loc5050 = loc("reshape.14911")
#loc5051 = loc("reshape.14913")
#loc5052 = loc("transpose.14914")
#loc5054 = loc("reshape.14917")
#loc5055 = loc("reshape.14907")
#loc5056 = loc("reshape.14909")
#loc5057 = loc("broadcast.14920")
#loc5058 = loc("add.14921")
#loc5059 = loc("transpose.14923")
#loc5061 = loc("broadcast.15006")
#loc5062 = loc("reshape.15007")
#loc5063 = loc("dot.15139")
#loc5064 = loc("reshape.15143")
#loc5065 = loc("reshape.14999")
#loc5066 = loc("reshape.15001")
#loc5067 = loc("transpose.15002")
#loc5069 = loc("reshape.15145")
#loc5070 = loc("reshape.14995")
#loc5071 = loc("reshape.14997")
#loc5072 = loc("broadcast.15148")
#loc5073 = loc("add.15149")
#loc5074 = loc("add.15152")
#loc5075 = loc("reshape.14984")
#loc5076 = loc("reshape.14986")
#loc5077 = loc("custom-call.15185")
#loc5078 = loc("reshape.15278")
#loc5079 = loc("concatenate.15279")
#loc5081 = loc("reshape.15271")
#loc5082 = loc("reshape.15273")
#loc5083 = loc("broadcast.15286")
#loc5084 = loc("add.15287")
#loc5085 = loc("slice.15300")
#loc5086 = loc("clamp.15303")
#loc5087 = loc("add.15306")
#loc5088 = loc("slice.15288")
#loc5089 = loc("clamp.15291")
#loc5090 = loc("multiply.15293")
#loc5091 = loc("logistic.15294")
#loc5092 = loc("multiply.15295")
#loc5093 = loc("multiply.15307")
#loc5094 = loc("dot.15308")
#loc5095 = loc("reshape.15259")
#loc5096 = loc("reshape.15261")
#loc5097 = loc("broadcast.15312")
#loc5098 = loc("add.15313")
#loc5099 = loc("reshape.15314")
#loc5100 = loc("convert.15187")
#loc5101 = loc("reshape.14975")
#loc5102 = loc("reshape.14980")
#loc5103 = loc("transpose.14981")
#loc5104 = loc("convert.14982")
#loc5106 = loc("reshape.14967")
#loc5107 = loc("reshape.14969")
#loc5108 = loc("convert.14970")
#loc5109 = loc("broadcast.15193")
#loc5110 = loc("add.15194")
#loc5111 = loc("convert.15195")
#loc5112 = loc("broadcast.15240")
#loc5113 = loc("compare.15241")
#loc5114 = loc("convert.15242")
#loc5115 = loc("convert.15243")
#loc5116 = loc("reduce.15222")
#loc5117 = loc("broadcast.15223")
#loc5118 = loc("subtract.15224")
#loc5119 = loc("exponential.15225")
#loc5120 = loc("reduce.15231")
#loc5121 = loc("broadcast.15232")
#loc5122 = loc("divide.15233")
#loc5123 = loc("broadcast.15245")
#loc5124 = loc("multiply.15246")
#loc5125 = loc("reduce.15253")
#loc5126 = loc("transpose.15254")
#loc5127 = loc("reshape.15255")
#loc5128 = loc("broadcast.15316")
#loc5129 = loc("multiply.15317")
#loc5131 = loc("add.15327")
#loc5132 = loc("reshape.14955")
#loc5133 = loc("reshape.14957")
#loc5134 = loc("custom-call.15360")
#loc5135 = loc("reshape.15542")
#loc5136 = loc("reshape.15538")
#loc5137 = loc("reshape.15540")
#loc5138 = loc("transpose.15541")
#loc5140 = loc("reshape.15544")
#loc5141 = loc("reshape.15534")
#loc5142 = loc("reshape.15536")
#loc5143 = loc("broadcast.15547")
#loc5144 = loc("add.15548")
#loc5145 = loc("transpose.15550")
#loc5146 = loc("slice.15551")
#loc5147 = loc("multiply.15568")
#loc5148 = loc("slice.15555")
#loc5149 = loc("multiply.15565")
#loc5150 = loc("subtract.15571")
#loc5151 = loc("multiply.15558")
#loc5152 = loc("multiply.15554")
#loc5153 = loc("add.15561")
#loc5154 = loc("concatenate.15572")
#loc5155 = loc("reshape.14950")
#loc5156 = loc("reshape.14952")
#loc5157 = loc("transpose.14953")
#loc5159 = loc("reshape.15363")
#loc5160 = loc("reshape.14946")
#loc5161 = loc("reshape.14948")
#loc5162 = loc("broadcast.15366")
#loc5163 = loc("add.15367")
#loc5164 = loc("transpose.15369")
#loc5165 = loc("slice.15370")
#loc5166 = loc("multiply.15388")
#loc5167 = loc("slice.15375")
#loc5168 = loc("multiply.15385")
#loc5169 = loc("subtract.15391")
#loc5170 = loc("multiply.15378")
#loc5171 = loc("multiply.15373")
#loc5172 = loc("add.15381")
#loc5173 = loc("concatenate.15392")
#loc5175 = loc("broadcast.15528")
#loc5176 = loc("reshape.15529")
#loc5177 = loc("transpose.15530")
#loc5178 = loc("dot.15573")
#loc5179 = loc("multiply.15576")
#loc5180 = loc("add.15581")
#loc5181 = loc("reshape.15516")
#loc5182 = loc("reshape.15521")
#loc5183 = loc("broadcast.15522")
#loc5184 = loc("concatenate.15582")
#loc5185 = loc("reduce.15589")
#loc5186 = loc("broadcast.15625")
#loc5187 = loc("subtract.15626")
#loc5188 = loc("reduce.15632")
#loc5189 = loc("broadcast.15633")
#loc5190 = loc("subtract.15634")
#loc5191 = loc("exponential.15635")
#loc5192 = loc("reduce.15641")
#loc5193 = loc("broadcast.15642")
#loc5194 = loc("divide.15643")
#loc5195 = loc("slice.15644")
#loc5196 = loc("reshape.15417")
#loc5197 = loc("reshape.15419")
#loc5198 = loc("transpose.15420")
#loc5200 = loc("reshape.15423")
#loc5201 = loc("reshape.15413")
#loc5202 = loc("reshape.15415")
#loc5203 = loc("broadcast.15426")
#loc5204 = loc("add.15427")
#loc5205 = loc("transpose.15429")
#loc5207 = loc("broadcast.15512")
#loc5208 = loc("reshape.15513")
#loc5209 = loc("dot.15645")
#loc5210 = loc("reshape.15649")
#loc5211 = loc("reshape.15505")
#loc5212 = loc("reshape.15507")
#loc5213 = loc("transpose.15508")
#loc5215 = loc("reshape.15651")
#loc5216 = loc("reshape.15501")
#loc5217 = loc("reshape.15503")
#loc5218 = loc("broadcast.15654")
#loc5219 = loc("add.15655")
#loc5220 = loc("add.15658")
#loc5221 = loc("reshape.15490")
#loc5222 = loc("reshape.15492")
#loc5223 = loc("custom-call.15691")
#loc5224 = loc("reshape.15784")
#loc5225 = loc("concatenate.15785")
#loc5227 = loc("reshape.15777")
#loc5228 = loc("reshape.15779")
#loc5229 = loc("broadcast.15792")
#loc5230 = loc("add.15793")
#loc5231 = loc("slice.15806")
#loc5232 = loc("clamp.15809")
#loc5233 = loc("add.15812")
#loc5234 = loc("slice.15794")
#loc5235 = loc("clamp.15797")
#loc5236 = loc("multiply.15799")
#loc5237 = loc("logistic.15800")
#loc5238 = loc("multiply.15801")
#loc5239 = loc("multiply.15813")
#loc5240 = loc("dot.15814")
#loc5241 = loc("reshape.15765")
#loc5242 = loc("reshape.15767")
#loc5243 = loc("broadcast.15818")
#loc5244 = loc("add.15819")
#loc5245 = loc("reshape.15820")
#loc5246 = loc("convert.15693")
#loc5247 = loc("reshape.15481")
#loc5248 = loc("reshape.15486")
#loc5249 = loc("transpose.15487")
#loc5250 = loc("convert.15488")
#loc5252 = loc("reshape.15473")
#loc5253 = loc("reshape.15475")
#loc5254 = loc("convert.15476")
#loc5255 = loc("broadcast.15699")
#loc5256 = loc("add.15700")
#loc5257 = loc("convert.15701")
#loc5258 = loc("broadcast.15746")
#loc5259 = loc("compare.15747")
#loc5260 = loc("convert.15748")
#loc5261 = loc("convert.15749")
#loc5262 = loc("reduce.15728")
#loc5263 = loc("broadcast.15729")
#loc5264 = loc("subtract.15730")
#loc5265 = loc("exponential.15731")
#loc5266 = loc("reduce.15737")
#loc5267 = loc("broadcast.15738")
#loc5268 = loc("divide.15739")
#loc5269 = loc("broadcast.15751")
#loc5270 = loc("multiply.15752")
#loc5271 = loc("reduce.15759")
#loc5272 = loc("transpose.15760")
#loc5273 = loc("reshape.15761")
#loc5274 = loc("broadcast.15822")
#loc5275 = loc("multiply.15823")
#loc5277 = loc("add.15833")
#loc5278 = loc("reshape.15461")
#loc5279 = loc("reshape.15463")
#loc5280 = loc("custom-call.15866")
#loc5281 = loc("reshape.16048")
#loc5282 = loc("reshape.16044")
#loc5283 = loc("reshape.16046")
#loc5284 = loc("transpose.16047")
#loc5286 = loc("reshape.16050")
#loc5287 = loc("reshape.16040")
#loc5288 = loc("reshape.16042")
#loc5289 = loc("broadcast.16053")
#loc5290 = loc("add.16054")
#loc5291 = loc("transpose.16056")
#loc5292 = loc("slice.16057")
#loc5293 = loc("multiply.16074")
#loc5294 = loc("slice.16061")
#loc5295 = loc("multiply.16071")
#loc5296 = loc("subtract.16077")
#loc5297 = loc("multiply.16064")
#loc5298 = loc("multiply.16060")
#loc5299 = loc("add.16067")
#loc5300 = loc("concatenate.16078")
#loc5301 = loc("reshape.15456")
#loc5302 = loc("reshape.15458")
#loc5303 = loc("transpose.15459")
#loc5305 = loc("reshape.15869")
#loc5306 = loc("reshape.15452")
#loc5307 = loc("reshape.15454")
#loc5308 = loc("broadcast.15872")
#loc5309 = loc("add.15873")
#loc5310 = loc("transpose.15875")
#loc5311 = loc("slice.15876")
#loc5312 = loc("multiply.15894")
#loc5313 = loc("slice.15881")
#loc5314 = loc("multiply.15891")
#loc5315 = loc("subtract.15897")
#loc5316 = loc("multiply.15884")
#loc5317 = loc("multiply.15879")
#loc5318 = loc("add.15887")
#loc5319 = loc("concatenate.15898")
#loc5321 = loc("broadcast.16034")
#loc5322 = loc("reshape.16035")
#loc5323 = loc("transpose.16036")
#loc5324 = loc("dot.16079")
#loc5325 = loc("multiply.16082")
#loc5326 = loc("add.16087")
#loc5327 = loc("reshape.16022")
#loc5328 = loc("reshape.16027")
#loc5329 = loc("broadcast.16028")
#loc5330 = loc("concatenate.16088")
#loc5331 = loc("reduce.16095")
#loc5332 = loc("broadcast.16131")
#loc5333 = loc("subtract.16132")
#loc5334 = loc("reduce.16138")
#loc5335 = loc("broadcast.16139")
#loc5336 = loc("subtract.16140")
#loc5337 = loc("exponential.16141")
#loc5338 = loc("reduce.16147")
#loc5339 = loc("broadcast.16148")
#loc5340 = loc("divide.16149")
#loc5341 = loc("slice.16150")
#loc5342 = loc("reshape.15923")
#loc5343 = loc("reshape.15925")
#loc5344 = loc("transpose.15926")
#loc5346 = loc("reshape.15929")
#loc5347 = loc("reshape.15919")
#loc5348 = loc("reshape.15921")
#loc5349 = loc("broadcast.15932")
#loc5350 = loc("add.15933")
#loc5351 = loc("transpose.15935")
#loc5353 = loc("broadcast.16018")
#loc5354 = loc("reshape.16019")
#loc5355 = loc("dot.16151")
#loc5356 = loc("reshape.16155")
#loc5357 = loc("reshape.16011")
#loc5358 = loc("reshape.16013")
#loc5359 = loc("transpose.16014")
#loc5361 = loc("reshape.16157")
#loc5362 = loc("reshape.16007")
#loc5363 = loc("reshape.16009")
#loc5364 = loc("broadcast.16160")
#loc5365 = loc("add.16161")
#loc5366 = loc("add.16164")
#loc5367 = loc("reshape.15996")
#loc5368 = loc("reshape.15998")
#loc5369 = loc("custom-call.16197")
#loc5370 = loc("reshape.16290")
#loc5371 = loc("concatenate.16291")
#loc5373 = loc("reshape.16283")
#loc5374 = loc("reshape.16285")
#loc5375 = loc("broadcast.16298")
#loc5376 = loc("add.16299")
#loc5377 = loc("slice.16312")
#loc5378 = loc("clamp.16315")
#loc5379 = loc("add.16318")
#loc5380 = loc("slice.16300")
#loc5381 = loc("clamp.16303")
#loc5382 = loc("multiply.16305")
#loc5383 = loc("logistic.16306")
#loc5384 = loc("multiply.16307")
#loc5385 = loc("multiply.16319")
#loc5386 = loc("dot.16320")
#loc5387 = loc("reshape.16271")
#loc5388 = loc("reshape.16273")
#loc5389 = loc("broadcast.16324")
#loc5390 = loc("add.16325")
#loc5391 = loc("reshape.16326")
#loc5392 = loc("convert.16199")
#loc5393 = loc("reshape.15987")
#loc5394 = loc("reshape.15992")
#loc5395 = loc("transpose.15993")
#loc5396 = loc("convert.15994")
#loc5398 = loc("reshape.15979")
#loc5399 = loc("reshape.15981")
#loc5400 = loc("convert.15982")
#loc5401 = loc("broadcast.16205")
#loc5402 = loc("add.16206")
#loc5403 = loc("convert.16207")
#loc5404 = loc("broadcast.16252")
#loc5405 = loc("compare.16253")
#loc5406 = loc("convert.16254")
#loc5407 = loc("convert.16255")
#loc5408 = loc("reduce.16234")
#loc5409 = loc("broadcast.16235")
#loc5410 = loc("subtract.16236")
#loc5411 = loc("exponential.16237")
#loc5412 = loc("reduce.16243")
#loc5413 = loc("broadcast.16244")
#loc5414 = loc("divide.16245")
#loc5415 = loc("broadcast.16257")
#loc5416 = loc("multiply.16258")
#loc5417 = loc("reduce.16265")
#loc5418 = loc("transpose.16266")
#loc5419 = loc("reshape.16267")
#loc5420 = loc("broadcast.16328")
#loc5421 = loc("multiply.16329")
#loc5423 = loc("add.16339")
#loc5424 = loc("reshape.15967")
#loc5425 = loc("reshape.15969")
#loc5426 = loc("custom-call.16372")
#loc5427 = loc("reshape.16554")
#loc5428 = loc("reshape.16550")
#loc5429 = loc("reshape.16552")
#loc5430 = loc("transpose.16553")
#loc5432 = loc("reshape.16556")
#loc5433 = loc("reshape.16546")
#loc5434 = loc("reshape.16548")
#loc5435 = loc("broadcast.16559")
#loc5436 = loc("add.16560")
#loc5437 = loc("transpose.16562")
#loc5438 = loc("slice.16563")
#loc5439 = loc("multiply.16580")
#loc5440 = loc("slice.16567")
#loc5441 = loc("multiply.16577")
#loc5442 = loc("subtract.16583")
#loc5443 = loc("multiply.16570")
#loc5444 = loc("multiply.16566")
#loc5445 = loc("add.16573")
#loc5446 = loc("concatenate.16584")
#loc5447 = loc("reshape.15962")
#loc5448 = loc("reshape.15964")
#loc5449 = loc("transpose.15965")
#loc5451 = loc("reshape.16375")
#loc5452 = loc("reshape.15958")
#loc5453 = loc("reshape.15960")
#loc5454 = loc("broadcast.16378")
#loc5455 = loc("add.16379")
#loc5456 = loc("transpose.16381")
#loc5457 = loc("slice.16382")
#loc5458 = loc("multiply.16400")
#loc5459 = loc("slice.16387")
#loc5460 = loc("multiply.16397")
#loc5461 = loc("subtract.16403")
#loc5462 = loc("multiply.16390")
#loc5463 = loc("multiply.16385")
#loc5464 = loc("add.16393")
#loc5465 = loc("concatenate.16404")
#loc5467 = loc("broadcast.16540")
#loc5468 = loc("reshape.16541")
#loc5469 = loc("transpose.16542")
#loc5470 = loc("dot.16585")
#loc5471 = loc("multiply.16588")
#loc5472 = loc("add.16593")
#loc5473 = loc("reshape.16528")
#loc5474 = loc("reshape.16533")
#loc5475 = loc("broadcast.16534")
#loc5476 = loc("concatenate.16594")
#loc5477 = loc("reduce.16601")
#loc5478 = loc("broadcast.16637")
#loc5479 = loc("subtract.16638")
#loc5480 = loc("reduce.16644")
#loc5481 = loc("broadcast.16645")
#loc5482 = loc("subtract.16646")
#loc5483 = loc("exponential.16647")
#loc5484 = loc("reduce.16653")
#loc5485 = loc("broadcast.16654")
#loc5486 = loc("divide.16655")
#loc5487 = loc("slice.16656")
#loc5488 = loc("reshape.16429")
#loc5489 = loc("reshape.16431")
#loc5490 = loc("transpose.16432")
#loc5492 = loc("reshape.16435")
#loc5493 = loc("reshape.16425")
#loc5494 = loc("reshape.16427")
#loc5495 = loc("broadcast.16438")
#loc5496 = loc("add.16439")
#loc5497 = loc("transpose.16441")
#loc5499 = loc("broadcast.16524")
#loc5500 = loc("reshape.16525")
#loc5501 = loc("dot.16657")
#loc5502 = loc("reshape.16661")
#loc5503 = loc("reshape.16517")
#loc5504 = loc("reshape.16519")
#loc5505 = loc("transpose.16520")
#loc5507 = loc("reshape.16663")
#loc5508 = loc("reshape.16513")
#loc5509 = loc("reshape.16515")
#loc5510 = loc("broadcast.16666")
#loc5511 = loc("add.16667")
#loc5512 = loc("add.16670")
#loc5513 = loc("reshape.16502")
#loc5514 = loc("reshape.16504")
#loc5515 = loc("custom-call.16703")
#loc5516 = loc("reshape.16796")
#loc5517 = loc("concatenate.16797")
#loc5519 = loc("reshape.16789")
#loc5520 = loc("reshape.16791")
#loc5521 = loc("broadcast.16804")
#loc5522 = loc("add.16805")
#loc5523 = loc("slice.16818")
#loc5524 = loc("clamp.16821")
#loc5525 = loc("add.16824")
#loc5526 = loc("slice.16806")
#loc5527 = loc("clamp.16809")
#loc5528 = loc("multiply.16811")
#loc5529 = loc("logistic.16812")
#loc5530 = loc("multiply.16813")
#loc5531 = loc("multiply.16825")
#loc5532 = loc("dot.16826")
#loc5533 = loc("reshape.16777")
#loc5534 = loc("reshape.16779")
#loc5535 = loc("broadcast.16830")
#loc5536 = loc("add.16831")
#loc5537 = loc("reshape.16832")
#loc5538 = loc("convert.16705")
#loc5539 = loc("reshape.16493")
#loc5540 = loc("reshape.16498")
#loc5541 = loc("transpose.16499")
#loc5542 = loc("convert.16500")
#loc5544 = loc("reshape.16485")
#loc5545 = loc("reshape.16487")
#loc5546 = loc("convert.16488")
#loc5547 = loc("broadcast.16711")
#loc5548 = loc("add.16712")
#loc5549 = loc("convert.16713")
#loc5550 = loc("broadcast.16758")
#loc5551 = loc("compare.16759")
#loc5552 = loc("convert.16760")
#loc5553 = loc("convert.16761")
#loc5554 = loc("reduce.16740")
#loc5555 = loc("broadcast.16741")
#loc5556 = loc("subtract.16742")
#loc5557 = loc("exponential.16743")
#loc5558 = loc("reduce.16749")
#loc5559 = loc("broadcast.16750")
#loc5560 = loc("divide.16751")
#loc5561 = loc("broadcast.16763")
#loc5562 = loc("multiply.16764")
#loc5563 = loc("reduce.16771")
#loc5564 = loc("transpose.16772")
#loc5565 = loc("reshape.16773")
#loc5566 = loc("broadcast.16834")
#loc5567 = loc("multiply.16835")
#loc5569 = loc("add.16845")
#loc5570 = loc("reshape.16473")
#loc5571 = loc("reshape.16475")
#loc5572 = loc("custom-call.16878")
#loc5573 = loc("reshape.17060")
#loc5574 = loc("reshape.17056")
#loc5575 = loc("reshape.17058")
#loc5576 = loc("transpose.17059")
#loc5578 = loc("reshape.17062")
#loc5579 = loc("reshape.17052")
#loc5580 = loc("reshape.17054")
#loc5581 = loc("broadcast.17065")
#loc5582 = loc("add.17066")
#loc5583 = loc("transpose.17068")
#loc5584 = loc("slice.17069")
#loc5585 = loc("multiply.17086")
#loc5586 = loc("slice.17073")
#loc5587 = loc("multiply.17083")
#loc5588 = loc("subtract.17089")
#loc5589 = loc("multiply.17076")
#loc5590 = loc("multiply.17072")
#loc5591 = loc("add.17079")
#loc5592 = loc("concatenate.17090")
#loc5593 = loc("reshape.16468")
#loc5594 = loc("reshape.16470")
#loc5595 = loc("transpose.16471")
#loc5597 = loc("reshape.16881")
#loc5598 = loc("reshape.16464")
#loc5599 = loc("reshape.16466")
#loc5600 = loc("broadcast.16884")
#loc5601 = loc("add.16885")
#loc5602 = loc("transpose.16887")
#loc5603 = loc("slice.16888")
#loc5604 = loc("multiply.16906")
#loc5605 = loc("slice.16893")
#loc5606 = loc("multiply.16903")
#loc5607 = loc("subtract.16909")
#loc5608 = loc("multiply.16896")
#loc5609 = loc("multiply.16891")
#loc5610 = loc("add.16899")
#loc5611 = loc("concatenate.16910")
#loc5613 = loc("broadcast.17046")
#loc5614 = loc("reshape.17047")
#loc5615 = loc("transpose.17048")
#loc5616 = loc("dot.17091")
#loc5617 = loc("multiply.17094")
#loc5618 = loc("add.17099")
#loc5619 = loc("reshape.17034")
#loc5620 = loc("reshape.17039")
#loc5621 = loc("broadcast.17040")
#loc5622 = loc("concatenate.17100")
#loc5623 = loc("reduce.17107")
#loc5624 = loc("broadcast.17143")
#loc5625 = loc("subtract.17144")
#loc5626 = loc("reduce.17150")
#loc5627 = loc("broadcast.17151")
#loc5628 = loc("subtract.17152")
#loc5629 = loc("exponential.17153")
#loc5630 = loc("reduce.17159")
#loc5631 = loc("broadcast.17160")
#loc5632 = loc("divide.17161")
#loc5633 = loc("slice.17162")
#loc5634 = loc("reshape.16935")
#loc5635 = loc("reshape.16937")
#loc5636 = loc("transpose.16938")
#loc5638 = loc("reshape.16941")
#loc5639 = loc("reshape.16931")
#loc5640 = loc("reshape.16933")
#loc5641 = loc("broadcast.16944")
#loc5642 = loc("add.16945")
#loc5643 = loc("transpose.16947")
#loc5645 = loc("broadcast.17030")
#loc5646 = loc("reshape.17031")
#loc5647 = loc("dot.17163")
#loc5648 = loc("reshape.17167")
#loc5649 = loc("reshape.17023")
#loc5650 = loc("reshape.17025")
#loc5651 = loc("transpose.17026")
#loc5653 = loc("reshape.17169")
#loc5654 = loc("reshape.17019")
#loc5655 = loc("reshape.17021")
#loc5656 = loc("broadcast.17172")
#loc5657 = loc("add.17173")
#loc5658 = loc("add.17176")
#loc5659 = loc("reshape.17008")
#loc5660 = loc("reshape.17010")
#loc5661 = loc("custom-call.17209")
#loc5662 = loc("reshape.17302")
#loc5663 = loc("concatenate.17303")
#loc5665 = loc("reshape.17295")
#loc5666 = loc("reshape.17297")
#loc5667 = loc("broadcast.17310")
#loc5668 = loc("add.17311")
#loc5669 = loc("slice.17324")
#loc5670 = loc("clamp.17327")
#loc5671 = loc("add.17330")
#loc5672 = loc("slice.17312")
#loc5673 = loc("clamp.17315")
#loc5674 = loc("multiply.17317")
#loc5675 = loc("logistic.17318")
#loc5676 = loc("multiply.17319")
#loc5677 = loc("multiply.17331")
#loc5678 = loc("dot.17332")
#loc5679 = loc("reshape.17283")
#loc5680 = loc("reshape.17285")
#loc5681 = loc("broadcast.17336")
#loc5682 = loc("add.17337")
#loc5683 = loc("reshape.17338")
#loc5684 = loc("convert.17211")
#loc5685 = loc("reshape.16999")
#loc5686 = loc("reshape.17004")
#loc5687 = loc("transpose.17005")
#loc5688 = loc("convert.17006")
#loc5690 = loc("reshape.16991")
#loc5691 = loc("reshape.16993")
#loc5692 = loc("convert.16994")
#loc5693 = loc("broadcast.17217")
#loc5694 = loc("add.17218")
#loc5695 = loc("convert.17219")
#loc5696 = loc("broadcast.17264")
#loc5697 = loc("compare.17265")
#loc5698 = loc("convert.17266")
#loc5699 = loc("convert.17267")
#loc5700 = loc("reduce.17246")
#loc5701 = loc("broadcast.17247")
#loc5702 = loc("subtract.17248")
#loc5703 = loc("exponential.17249")
#loc5704 = loc("reduce.17255")
#loc5705 = loc("broadcast.17256")
#loc5706 = loc("divide.17257")
#loc5707 = loc("broadcast.17269")
#loc5708 = loc("multiply.17270")
#loc5709 = loc("reduce.17277")
#loc5710 = loc("transpose.17278")
#loc5711 = loc("reshape.17279")
#loc5712 = loc("broadcast.17340")
#loc5713 = loc("multiply.17341")
#loc5715 = loc("add.17351")
#loc5716 = loc("reshape.16979")
#loc5717 = loc("reshape.16981")
#loc5718 = loc("custom-call.17384")
#loc5719 = loc("reshape.17566")
#loc5720 = loc("reshape.17562")
#loc5721 = loc("reshape.17564")
#loc5722 = loc("transpose.17565")
#loc5724 = loc("reshape.17568")
#loc5725 = loc("reshape.17558")
#loc5726 = loc("reshape.17560")
#loc5727 = loc("broadcast.17571")
#loc5728 = loc("add.17572")
#loc5729 = loc("transpose.17574")
#loc5730 = loc("slice.17575")
#loc5731 = loc("multiply.17592")
#loc5732 = loc("slice.17579")
#loc5733 = loc("multiply.17589")
#loc5734 = loc("subtract.17595")
#loc5735 = loc("multiply.17582")
#loc5736 = loc("multiply.17578")
#loc5737 = loc("add.17585")
#loc5738 = loc("concatenate.17596")
#loc5739 = loc("reshape.16974")
#loc5740 = loc("reshape.16976")
#loc5741 = loc("transpose.16977")
#loc5743 = loc("reshape.17387")
#loc5744 = loc("reshape.16970")
#loc5745 = loc("reshape.16972")
#loc5746 = loc("broadcast.17390")
#loc5747 = loc("add.17391")
#loc5748 = loc("transpose.17393")
#loc5749 = loc("slice.17394")
#loc5750 = loc("multiply.17412")
#loc5751 = loc("slice.17399")
#loc5752 = loc("multiply.17409")
#loc5753 = loc("subtract.17415")
#loc5754 = loc("multiply.17402")
#loc5755 = loc("multiply.17397")
#loc5756 = loc("add.17405")
#loc5757 = loc("concatenate.17416")
#loc5759 = loc("broadcast.17552")
#loc5760 = loc("reshape.17553")
#loc5761 = loc("transpose.17554")
#loc5762 = loc("dot.17597")
#loc5763 = loc("multiply.17600")
#loc5764 = loc("add.17605")
#loc5765 = loc("reshape.17540")
#loc5766 = loc("reshape.17545")
#loc5767 = loc("broadcast.17546")
#loc5768 = loc("concatenate.17606")
#loc5769 = loc("reduce.17613")
#loc5770 = loc("broadcast.17649")
#loc5771 = loc("subtract.17650")
#loc5772 = loc("reduce.17656")
#loc5773 = loc("broadcast.17657")
#loc5774 = loc("subtract.17658")
#loc5775 = loc("exponential.17659")
#loc5776 = loc("reduce.17665")
#loc5777 = loc("broadcast.17666")
#loc5778 = loc("divide.17667")
#loc5779 = loc("slice.17668")
#loc5780 = loc("reshape.17441")
#loc5781 = loc("reshape.17443")
#loc5782 = loc("transpose.17444")
#loc5784 = loc("reshape.17447")
#loc5785 = loc("reshape.17437")
#loc5786 = loc("reshape.17439")
#loc5787 = loc("broadcast.17450")
#loc5788 = loc("add.17451")
#loc5789 = loc("transpose.17453")
#loc5791 = loc("broadcast.17536")
#loc5792 = loc("reshape.17537")
#loc5793 = loc("dot.17669")
#loc5794 = loc("reshape.17673")
#loc5795 = loc("reshape.17529")
#loc5796 = loc("reshape.17531")
#loc5797 = loc("transpose.17532")
#loc5799 = loc("reshape.17675")
#loc5800 = loc("reshape.17525")
#loc5801 = loc("reshape.17527")
#loc5802 = loc("broadcast.17678")
#loc5803 = loc("add.17679")
#loc5804 = loc("add.17682")
#loc5805 = loc("reshape.17514")
#loc5806 = loc("reshape.17516")
#loc5807 = loc("custom-call.17715")
#loc5808 = loc("reshape.17808")
#loc5809 = loc("concatenate.17809")
#loc5811 = loc("reshape.17801")
#loc5812 = loc("reshape.17803")
#loc5813 = loc("broadcast.17816")
#loc5814 = loc("add.17817")
#loc5815 = loc("slice.17830")
#loc5816 = loc("clamp.17833")
#loc5817 = loc("add.17836")
#loc5818 = loc("slice.17818")
#loc5819 = loc("clamp.17821")
#loc5820 = loc("multiply.17823")
#loc5821 = loc("logistic.17824")
#loc5822 = loc("multiply.17825")
#loc5823 = loc("multiply.17837")
#loc5824 = loc("dot.17838")
#loc5825 = loc("reshape.17789")
#loc5826 = loc("reshape.17791")
#loc5827 = loc("broadcast.17842")
#loc5828 = loc("add.17843")
#loc5829 = loc("reshape.17844")
#loc5830 = loc("convert.17717")
#loc5831 = loc("reshape.17505")
#loc5832 = loc("reshape.17510")
#loc5833 = loc("transpose.17511")
#loc5834 = loc("convert.17512")
#loc5836 = loc("reshape.17497")
#loc5837 = loc("reshape.17499")
#loc5838 = loc("convert.17500")
#loc5839 = loc("broadcast.17723")
#loc5840 = loc("add.17724")
#loc5841 = loc("convert.17725")
#loc5842 = loc("broadcast.17770")
#loc5843 = loc("compare.17771")
#loc5844 = loc("convert.17772")
#loc5845 = loc("convert.17773")
#loc5846 = loc("reduce.17752")
#loc5847 = loc("broadcast.17753")
#loc5848 = loc("subtract.17754")
#loc5849 = loc("exponential.17755")
#loc5850 = loc("reduce.17761")
#loc5851 = loc("broadcast.17762")
#loc5852 = loc("divide.17763")
#loc5853 = loc("broadcast.17775")
#loc5854 = loc("multiply.17776")
#loc5855 = loc("reduce.17783")
#loc5856 = loc("transpose.17784")
#loc5857 = loc("reshape.17785")
#loc5858 = loc("broadcast.17846")
#loc5859 = loc("multiply.17847")
#loc5861 = loc("add.17857")
#loc5862 = loc("reshape.17485")
#loc5863 = loc("reshape.17487")
#loc5864 = loc("custom-call.17890")
#loc5865 = loc("reshape.18071")
#loc5866 = loc("reshape.18067")
#loc5867 = loc("reshape.18069")
#loc5868 = loc("transpose.18070")
#loc5870 = loc("reshape.18073")
#loc5871 = loc("reshape.18063")
#loc5872 = loc("reshape.18065")
#loc5873 = loc("broadcast.18076")
#loc5874 = loc("add.18077")
#loc5875 = loc("transpose.18079")
#loc5876 = loc("slice.18080")
#loc5877 = loc("multiply.18097")
#loc5878 = loc("slice.18084")
#loc5879 = loc("multiply.18094")
#loc5880 = loc("subtract.18100")
#loc5881 = loc("multiply.18087")
#loc5882 = loc("multiply.18083")
#loc5883 = loc("add.18090")
#loc5884 = loc("concatenate.18101")
#loc5885 = loc("reshape.17480")
#loc5886 = loc("reshape.17482")
#loc5887 = loc("transpose.17483")
#loc5889 = loc("reshape.17893")
#loc5890 = loc("reshape.17476")
#loc5891 = loc("reshape.17478")
#loc5892 = loc("broadcast.17896")
#loc5893 = loc("add.17897")
#loc5894 = loc("transpose.17899")
#loc5895 = loc("slice.17900")
#loc5896 = loc("multiply.17918")
#loc5897 = loc("slice.17905")
#loc5898 = loc("multiply.17915")
#loc5899 = loc("subtract.17921")
#loc5900 = loc("multiply.17908")
#loc5901 = loc("multiply.17903")
#loc5902 = loc("add.17911")
#loc5903 = loc("concatenate.17922")
#loc5905 = loc("broadcast.18057")
#loc5906 = loc("reshape.18058")
#loc5907 = loc("transpose.18059")
#loc5908 = loc("dot.18102")
#loc5909 = loc("multiply.18105")
#loc5910 = loc("add.18110")
#loc5911 = loc("reshape.18045")
#loc5912 = loc("reshape.18050")
#loc5913 = loc("broadcast.18051")
#loc5914 = loc("concatenate.18111")
#loc5915 = loc("reshape.17947")
#loc5916 = loc("reshape.17949")
#loc5917 = loc("transpose.17950")
#loc5919 = loc("reshape.17953")
#loc5920 = loc("reshape.17943")
#loc5921 = loc("reshape.17945")
#loc5922 = loc("broadcast.17956")
#loc5923 = loc("add.17957")
#loc5924 = loc("transpose.17959")
#loc5926 = loc("add.17983")
#loc5927 = loc("reduce.18118")
#loc5928 = loc("broadcast.18154")
#loc5929 = loc("subtract.18155")
#loc5930 = loc("reduce.18161")
#loc5931 = loc("broadcast.18162")
#loc5932 = loc("subtract.18163")
#loc5933 = loc("exponential.18164")
#loc5934 = loc("reduce.18170")
#loc5935 = loc("broadcast.18171")
#loc5936 = loc("divide.18172")
#loc5937 = loc("slice.18173")
#loc5938 = loc("broadcast.18041")
#loc5939 = loc("reshape.18042")
#loc5940 = loc("dot.18174")
#loc5941 = loc("reshape.18178")
#loc5942 = loc("reshape.18034")
#loc5943 = loc("reshape.18036")
#loc5944 = loc("transpose.18037")
#loc5946 = loc("reshape.18180")
#loc5947 = loc("reshape.18030")
#loc5948 = loc("reshape.18032")
#loc5949 = loc("broadcast.18183")
#loc5950 = loc("add.18184")
#loc5951 = loc("add.18187")
#loc5952 = loc("reshape.18019")
#loc5953 = loc("reshape.18021")
#loc5954 = loc("custom-call.18220")
#loc5955 = loc("reshape.18313")
#loc5956 = loc("concatenate.18314")
#loc5958 = loc("reshape.18306")
#loc5959 = loc("reshape.18308")
#loc5960 = loc("broadcast.18321")
#loc5961 = loc("add.18322")
#loc5962 = loc("slice.18335")
#loc5963 = loc("clamp.18338")
#loc5964 = loc("add.18341")
#loc5965 = loc("slice.18323")
#loc5966 = loc("clamp.18326")
#loc5967 = loc("multiply.18328")
#loc5968 = loc("logistic.18329")
#loc5969 = loc("multiply.18330")
#loc5970 = loc("multiply.18342")
#loc5971 = loc("dot.18343")
#loc5972 = loc("reshape.18294")
#loc5973 = loc("reshape.18296")
#loc5974 = loc("broadcast.18347")
#loc5975 = loc("add.18348")
#loc5976 = loc("reshape.18349")
#loc5977 = loc("convert.18222")
#loc5978 = loc("reshape.18010")
#loc5979 = loc("reshape.18015")
#loc5980 = loc("transpose.18016")
#loc5981 = loc("convert.18017")
#loc5983 = loc("reshape.18002")
#loc5984 = loc("reshape.18004")
#loc5985 = loc("convert.18005")
#loc5986 = loc("broadcast.18228")
#loc5987 = loc("add.18229")
#loc5988 = loc("convert.18230")
#loc5989 = loc("broadcast.18275")
#loc5990 = loc("compare.18276")
#loc5991 = loc("convert.18277")
#loc5992 = loc("convert.18278")
#loc5993 = loc("reduce.18257")
#loc5994 = loc("broadcast.18258")
#loc5995 = loc("subtract.18259")
#loc5996 = loc("exponential.18260")
#loc5997 = loc("reduce.18266")
#loc5998 = loc("broadcast.18267")
#loc5999 = loc("divide.18268")
#loc6000 = loc("broadcast.18280")
#loc6001 = loc("multiply.18281")
#loc6002 = loc("reduce.18288")
#loc6003 = loc("transpose.18289")
#loc6004 = loc("reshape.18290")
#loc6005 = loc("broadcast.18351")
#loc6006 = loc("multiply.18352")
#loc6008 = loc("add.18362")
#loc6009 = loc("reshape.17990")
#loc6010 = loc("reshape.17992")
#loc6011 = loc("custom-call.18395")
#loc6012 = loc("reshape.18396")
#loc6013 = loc("reshape.17985")
#loc6014 = loc("reshape.17987")
#loc6015 = loc("transpose.17988")
#loc6017 = loc("reshape.18398")
#loc6018 = loc("reshape.18401")
#loc6019 = loc("iota.18404")
#loc6021 = loc("compare.18422")
#loc6022 = loc("select.18423")
#loc6023 = loc("compare.18425")
#loc6024 = loc("minimum.18426")
#loc6025 = loc("select.18424")
#loc6026 = loc("select.18427")
#loc6027 = loc("convert.18431")
#loc6028 = loc("reshape.18432")
#loc6029 = loc("iota.13679")
#loc6031 = loc("compare.13691")
#loc6032 = loc("slice.13696")
#loc6033 = loc("convert.13697")
#loc6034 = loc("slice.13694")
#loc6035 = loc("iota.2547")
#loc6037 = loc("compare.2559")
#loc6038 = loc("slice.2564")
#loc6039 = loc("convert.2565")
#loc6040 = loc("slice.2562")
#loc6041 = loc("iota.17727")
#loc6043 = loc("compare.17739")
#loc6044 = loc("slice.17744")
#loc6045 = loc("convert.17745")
#loc6046 = loc("slice.17742")
#loc6047 = loc("iota.13173")
#loc6049 = loc("compare.13185")
#loc6050 = loc("slice.13190")
#loc6051 = loc("convert.13191")
#loc6052 = loc("slice.13188")
#loc6053 = loc("iota.16209")
#loc6055 = loc("compare.16221")
#loc6056 = loc("slice.16226")
#loc6057 = loc("convert.16227")
#loc6058 = loc("slice.16224")
#loc6059 = loc("iota.17221")
#loc6061 = loc("compare.17233")
#loc6062 = loc("slice.17238")
#loc6063 = loc("convert.17239")
#loc6064 = loc("slice.17236")
#loc6065 = loc("iota.15197")
#loc6067 = loc("compare.15209")
#loc6068 = loc("slice.15214")
#loc6069 = loc("convert.15215")
#loc6070 = loc("slice.15212")
#loc6071 = loc("iota.4571")
#loc6073 = loc("compare.4583")
#loc6074 = loc("slice.4588")
#loc6075 = loc("convert.4589")
#loc6076 = loc("slice.4586")
#loc6077 = loc("iota.1535")
#loc6079 = loc("compare.1547")
#loc6080 = loc("slice.1552")
#loc6081 = loc("convert.1553")
#loc6082 = loc("slice.1550")
#loc6083 = loc("iota.12161")
#loc6085 = loc("compare.12173")
#loc6086 = loc("slice.12178")
#loc6087 = loc("convert.12179")
#loc6088 = loc("slice.12176")
#loc6089 = loc("iota.8619")
#loc6091 = loc("compare.8631")
#loc6092 = loc("slice.8636")
#loc6093 = loc("convert.8637")
#loc6094 = loc("slice.8634")
#loc6095 = loc("iota.9125")
#loc6097 = loc("compare.9137")
#loc6098 = loc("slice.9142")
#loc6099 = loc("convert.9143")
#loc6100 = loc("slice.9140")
#loc6101 = loc("iota.3559")
#loc6103 = loc("compare.3571")
#loc6104 = loc("slice.3576")
#loc6105 = loc("convert.3577")
#loc6106 = loc("slice.3574")
#loc6107 = loc("iota.8113")
#loc6109 = loc("compare.8125")
#loc6110 = loc("slice.8130")
#loc6111 = loc("convert.8131")
#loc6112 = loc("slice.8128")
#loc6113 = loc("iota.7607")
#loc6115 = loc("compare.7619")
#loc6116 = loc("slice.7624")
#loc6117 = loc("convert.7625")
#loc6118 = loc("slice.7622")
#loc6119 = loc("iota.489")
#loc6121 = loc("compare.501")
#loc6122 = loc("slice.506")
#loc6123 = loc("convert.507")
#loc6124 = loc("slice.504")
#loc6125 = loc("iota.10137")
#loc6127 = loc("compare.10149")
#loc6128 = loc("slice.10154")
#loc6129 = loc("convert.10155")
#loc6130 = loc("slice.10152")
#loc6131 = loc("iota.7101")
#loc6133 = loc("compare.7113")
#loc6134 = loc("slice.7118")
#loc6135 = loc("convert.7119")
#loc6136 = loc("slice.7116")
#loc6137 = loc("iota.11149")
#loc6139 = loc("compare.11161")
#loc6140 = loc("slice.11166")
#loc6141 = loc("convert.11167")
#loc6142 = loc("slice.11164")
#loc6143 = loc("iota.15703")
#loc6145 = loc("compare.15715")
#loc6146 = loc("slice.15720")
#loc6147 = loc("convert.15721")
#loc6148 = loc("slice.15718")
#loc6149 = loc("iota.2041")
#loc6151 = loc("compare.2053")
#loc6152 = loc("slice.2058")
#loc6153 = loc("convert.2059")
#loc6154 = loc("slice.2056")
#loc6155 = loc("iota.14185")
#loc6157 = loc("compare.14197")
#loc6158 = loc("slice.14202")
#loc6159 = loc("convert.14203")
#loc6160 = loc("slice.14200")
#loc6161 = loc("iota.12667")
#loc6163 = loc("compare.12679")
#loc6164 = loc("slice.12684")
#loc6165 = loc("convert.12685")
#loc6166 = loc("slice.12682")
#loc6167 = loc("iota.9631")
#loc6169 = loc("compare.9643")
#loc6170 = loc("slice.9648")
#loc6171 = loc("convert.9649")
#loc6172 = loc("slice.9646")
#loc6173 = loc("iota.18232")
#loc6175 = loc("compare.18244")
#loc6176 = loc("slice.18249")
#loc6177 = loc("convert.18250")
#loc6178 = loc("slice.18247")
#loc6179 = loc("iota.16715")
#loc6181 = loc("compare.16727")
#loc6182 = loc("slice.16732")
#loc6183 = loc("convert.16733")
#loc6184 = loc("slice.16730")
#loc6185 = loc("iota.6089")
#loc6187 = loc("compare.6101")
#loc6188 = loc("slice.6106")
#loc6189 = loc("convert.6107")
#loc6190 = loc("slice.6104")
#loc6191 = loc("iota.5077")
#loc6193 = loc("compare.5089")
#loc6194 = loc("slice.5094")
#loc6195 = loc("convert.5095")
#loc6196 = loc("slice.5092")
#loc6197 = loc("iota.6595")
#loc6199 = loc("compare.6607")
#loc6200 = loc("slice.6612")
#loc6201 = loc("convert.6613")
#loc6202 = loc("slice.6610")
#loc6203 = loc("iota.5583")
#loc6205 = loc("compare.5595")
#loc6206 = loc("slice.5600")
#loc6207 = loc("convert.5601")
#loc6208 = loc("slice.5598")
#loc6209 = loc("iota.4065")
#loc6211 = loc("compare.4077")
#loc6212 = loc("slice.4082")
#loc6213 = loc("convert.4083")
#loc6214 = loc("slice.4080")
#loc6215 = loc("iota.10643")
#loc6217 = loc("compare.10655")
#loc6218 = loc("slice.10660")
#loc6219 = loc("convert.10661")
#loc6220 = loc("slice.10658")
#loc6221 = loc("iota.3053")
#loc6223 = loc("compare.3065")
#loc6224 = loc("slice.3070")
#loc6225 = loc("convert.3071")
#loc6226 = loc("slice.3068")
#loc6227 = loc("iota.11655")
#loc6229 = loc("compare.11667")
#loc6230 = loc("slice.11672")
#loc6231 = loc("convert.11673")
#loc6232 = loc("slice.11670")
#loc6233 = loc("iota.1029")
#loc6235 = loc("compare.1041")
#loc6236 = loc("slice.1046")
#loc6237 = loc("convert.1047")
#loc6238 = loc("slice.1044")
#loc6239 = loc("iota.14691")
#loc6241 = loc("compare.14703")
#loc6242 = loc("slice.14708")
#loc6243 = loc("convert.14709")
#loc6244 = loc("slice.14706")
