#loc1 = loc("-1|unknown|unknown|-1|unknownxla__device_data")
#loc41 = loc("616|CLIPVisionModelWithProjection[image_encoder]|CLIPVisionTransformer[image_encoder.vision_model]|CLIPEncoder[image_encoder.vision_model.encoder]|CLIPEncoderLayer[image_encoder.vision_model.encoder.layers[0]]|CLIPAttention[image_encoder.vision_model.encoder.layers[0].self_attn]|/usr/local/lib/python3.11/dist-packages/transformers/models/clip/modeling_clip.py:301|forward|333|any_1aten__any")
#loc95 = loc("690|CLIPVisionModelWithProjection[image_encoder]|CLIPVisionTransformer[image_encoder.vision_model]|CLIPEncoder[image_encoder.vision_model.encoder]|CLIPEncoderLayer[image_encoder.vision_model.encoder.layers[1]]|CLIPAttention[image_encoder.vision_model.encoder.layers[1].self_attn]|/usr/local/lib/python3.11/dist-packages/transformers/models/clip/modeling_clip.py:301|forward|333|any_2aten__any")
#loc149 = loc("764|CLIPVisionModelWithProjection[image_encoder]|CLIPVisionTransformer[image_encoder.vision_model]|CLIPEncoder[image_encoder.vision_model.encoder]|CLIPEncoderLayer[image_encoder.vision_model.encoder.layers[2]]|CLIPAttention[image_encoder.vision_model.encoder.layers[2].self_attn]|/usr/local/lib/python3.11/dist-packages/transformers/models/clip/modeling_clip.py:301|forward|333|any_3aten__any")
#loc203 = loc("838|CLIPVisionModelWithProjection[image_encoder]|CLIPVisionTransformer[image_encoder.vision_model]|CLIPEncoder[image_encoder.vision_model.encoder]|CLIPEncoderLayer[image_encoder.vision_model.encoder.layers[3]]|CLIPAttention[image_encoder.vision_model.encoder.layers[3].self_attn]|/usr/local/lib/python3.11/dist-packages/transformers/models/clip/modeling_clip.py:301|forward|333|any_4aten__any")
#loc257 = loc("912|CLIPVisionModelWithProjection[image_encoder]|CLIPVisionTransformer[image_encoder.vision_model]|CLIPEncoder[image_encoder.vision_model.encoder]|CLIPEncoderLayer[image_encoder.vision_model.encoder.layers[4]]|CLIPAttention[image_encoder.vision_model.encoder.layers[4].self_attn]|/usr/local/lib/python3.11/dist-packages/transformers/models/clip/modeling_clip.py:301|forward|333|any_5aten__any")
#loc311 = loc("986|CLIPVisionModelWithProjection[image_encoder]|CLIPVisionTransformer[image_encoder.vision_model]|CLIPEncoder[image_encoder.vision_model.encoder]|CLIPEncoderLayer[image_encoder.vision_model.encoder.layers[5]]|CLIPAttention[image_encoder.vision_model.encoder.layers[5].self_attn]|/usr/local/lib/python3.11/dist-packages/transformers/models/clip/modeling_clip.py:301|forward|333|any_6aten__any")
#loc365 = loc("1060|CLIPVisionModelWithProjection[image_encoder]|CLIPVisionTransformer[image_encoder.vision_model]|CLIPEncoder[image_encoder.vision_model.encoder]|CLIPEncoderLayer[image_encoder.vision_model.encoder.layers[6]]|CLIPAttention[image_encoder.vision_model.encoder.layers[6].self_attn]|/usr/local/lib/python3.11/dist-packages/transformers/models/clip/modeling_clip.py:301|forward|333|any_7aten__any")
#loc419 = loc("1134|CLIPVisionModelWithProjection[image_encoder]|CLIPVisionTransformer[image_encoder.vision_model]|CLIPEncoder[image_encoder.vision_model.encoder]|CLIPEncoderLayer[image_encoder.vision_model.encoder.layers[7]]|CLIPAttention[image_encoder.vision_model.encoder.layers[7].self_attn]|/usr/local/lib/python3.11/dist-packages/transformers/models/clip/modeling_clip.py:301|forward|333|any_8aten__any")
#loc473 = loc("1208|CLIPVisionModelWithProjection[image_encoder]|CLIPVisionTransformer[image_encoder.vision_model]|CLIPEncoder[image_encoder.vision_model.encoder]|CLIPEncoderLayer[image_encoder.vision_model.encoder.layers[8]]|CLIPAttention[image_encoder.vision_model.encoder.layers[8].self_attn]|/usr/local/lib/python3.11/dist-packages/transformers/models/clip/modeling_clip.py:301|forward|333|any_9aten__any")
#loc527 = loc("1282|CLIPVisionModelWithProjection[image_encoder]|CLIPVisionTransformer[image_encoder.vision_model]|CLIPEncoder[image_encoder.vision_model.encoder]|CLIPEncoderLayer[image_encoder.vision_model.encoder.layers[9]]|CLIPAttention[image_encoder.vision_model.encoder.layers[9].self_attn]|/usr/local/lib/python3.11/dist-packages/transformers/models/clip/modeling_clip.py:301|forward|333|any_10aten__any")
#loc581 = loc("1356|CLIPVisionModelWithProjection[image_encoder]|CLIPVisionTransformer[image_encoder.vision_model]|CLIPEncoder[image_encoder.vision_model.encoder]|CLIPEncoderLayer[image_encoder.vision_model.encoder.layers[10]]|CLIPAttention[image_encoder.vision_model.encoder.layers[10].self_attn]|/usr/local/lib/python3.11/dist-packages/transformers/models/clip/modeling_clip.py:301|forward|333|any_11aten__any")
#loc635 = loc("1430|CLIPVisionModelWithProjection[image_encoder]|CLIPVisionTransformer[image_encoder.vision_model]|CLIPEncoder[image_encoder.vision_model.encoder]|CLIPEncoderLayer[image_encoder.vision_model.encoder.layers[11]]|CLIPAttention[image_encoder.vision_model.encoder.layers[11].self_attn]|/usr/local/lib/python3.11/dist-packages/transformers/models/clip/modeling_clip.py:301|forward|333|any_12aten__any")
#loc689 = loc("1504|CLIPVisionModelWithProjection[image_encoder]|CLIPVisionTransformer[image_encoder.vision_model]|CLIPEncoder[image_encoder.vision_model.encoder]|CLIPEncoderLayer[image_encoder.vision_model.encoder.layers[12]]|CLIPAttention[image_encoder.vision_model.encoder.layers[12].self_attn]|/usr/local/lib/python3.11/dist-packages/transformers/models/clip/modeling_clip.py:301|forward|333|any_13aten__any")
#loc743 = loc("1578|CLIPVisionModelWithProjection[image_encoder]|CLIPVisionTransformer[image_encoder.vision_model]|CLIPEncoder[image_encoder.vision_model.encoder]|CLIPEncoderLayer[image_encoder.vision_model.encoder.layers[13]]|CLIPAttention[image_encoder.vision_model.encoder.layers[13].self_attn]|/usr/local/lib/python3.11/dist-packages/transformers/models/clip/modeling_clip.py:301|forward|333|any_14aten__any")
#loc797 = loc("1652|CLIPVisionModelWithProjection[image_encoder]|CLIPVisionTransformer[image_encoder.vision_model]|CLIPEncoder[image_encoder.vision_model.encoder]|CLIPEncoderLayer[image_encoder.vision_model.encoder.layers[14]]|CLIPAttention[image_encoder.vision_model.encoder.layers[14].self_attn]|/usr/local/lib/python3.11/dist-packages/transformers/models/clip/modeling_clip.py:301|forward|333|any_15aten__any")
#loc851 = loc("1726|CLIPVisionModelWithProjection[image_encoder]|CLIPVisionTransformer[image_encoder.vision_model]|CLIPEncoder[image_encoder.vision_model.encoder]|CLIPEncoderLayer[image_encoder.vision_model.encoder.layers[15]]|CLIPAttention[image_encoder.vision_model.encoder.layers[15].self_attn]|/usr/local/lib/python3.11/dist-packages/transformers/models/clip/modeling_clip.py:301|forward|333|any_16aten__any")
#loc905 = loc("1800|CLIPVisionModelWithProjection[image_encoder]|CLIPVisionTransformer[image_encoder.vision_model]|CLIPEncoder[image_encoder.vision_model.encoder]|CLIPEncoderLayer[image_encoder.vision_model.encoder.layers[16]]|CLIPAttention[image_encoder.vision_model.encoder.layers[16].self_attn]|/usr/local/lib/python3.11/dist-packages/transformers/models/clip/modeling_clip.py:301|forward|333|any_17aten__any")
#loc959 = loc("1874|CLIPVisionModelWithProjection[image_encoder]|CLIPVisionTransformer[image_encoder.vision_model]|CLIPEncoder[image_encoder.vision_model.encoder]|CLIPEncoderLayer[image_encoder.vision_model.encoder.layers[17]]|CLIPAttention[image_encoder.vision_model.encoder.layers[17].self_attn]|/usr/local/lib/python3.11/dist-packages/transformers/models/clip/modeling_clip.py:301|forward|333|any_18aten__any")
#loc1013 = loc("1948|CLIPVisionModelWithProjection[image_encoder]|CLIPVisionTransformer[image_encoder.vision_model]|CLIPEncoder[image_encoder.vision_model.encoder]|CLIPEncoderLayer[image_encoder.vision_model.encoder.layers[18]]|CLIPAttention[image_encoder.vision_model.encoder.layers[18].self_attn]|/usr/local/lib/python3.11/dist-packages/transformers/models/clip/modeling_clip.py:301|forward|333|any_19aten__any")
#loc1067 = loc("2022|CLIPVisionModelWithProjection[image_encoder]|CLIPVisionTransformer[image_encoder.vision_model]|CLIPEncoder[image_encoder.vision_model.encoder]|CLIPEncoderLayer[image_encoder.vision_model.encoder.layers[19]]|CLIPAttention[image_encoder.vision_model.encoder.layers[19].self_attn]|/usr/local/lib/python3.11/dist-packages/transformers/models/clip/modeling_clip.py:301|forward|333|any_20aten__any")
#loc1121 = loc("2096|CLIPVisionModelWithProjection[image_encoder]|CLIPVisionTransformer[image_encoder.vision_model]|CLIPEncoder[image_encoder.vision_model.encoder]|CLIPEncoderLayer[image_encoder.vision_model.encoder.layers[20]]|CLIPAttention[image_encoder.vision_model.encoder.layers[20].self_attn]|/usr/local/lib/python3.11/dist-packages/transformers/models/clip/modeling_clip.py:301|forward|333|any_21aten__any")
#loc1175 = loc("2170|CLIPVisionModelWithProjection[image_encoder]|CLIPVisionTransformer[image_encoder.vision_model]|CLIPEncoder[image_encoder.vision_model.encoder]|CLIPEncoderLayer[image_encoder.vision_model.encoder.layers[21]]|CLIPAttention[image_encoder.vision_model.encoder.layers[21].self_attn]|/usr/local/lib/python3.11/dist-packages/transformers/models/clip/modeling_clip.py:301|forward|333|any_22aten__any")
#loc1229 = loc("2244|CLIPVisionModelWithProjection[image_encoder]|CLIPVisionTransformer[image_encoder.vision_model]|CLIPEncoder[image_encoder.vision_model.encoder]|CLIPEncoderLayer[image_encoder.vision_model.encoder.layers[22]]|CLIPAttention[image_encoder.vision_model.encoder.layers[22].self_attn]|/usr/local/lib/python3.11/dist-packages/transformers/models/clip/modeling_clip.py:301|forward|333|any_23aten__any")
#loc1283 = loc("2318|CLIPVisionModelWithProjection[image_encoder]|CLIPVisionTransformer[image_encoder.vision_model]|CLIPEncoder[image_encoder.vision_model.encoder]|CLIPEncoderLayer[image_encoder.vision_model.encoder.layers[23]]|CLIPAttention[image_encoder.vision_model.encoder.layers[23].self_attn]|/usr/local/lib/python3.11/dist-packages/transformers/models/clip/modeling_clip.py:301|forward|333|any_24aten__any")
#loc1337 = loc("2392|CLIPVisionModelWithProjection[image_encoder]|CLIPVisionTransformer[image_encoder.vision_model]|CLIPEncoder[image_encoder.vision_model.encoder]|CLIPEncoderLayer[image_encoder.vision_model.encoder.layers[24]]|CLIPAttention[image_encoder.vision_model.encoder.layers[24].self_attn]|/usr/local/lib/python3.11/dist-packages/transformers/models/clip/modeling_clip.py:301|forward|333|any_25aten__any")
#loc1391 = loc("2466|CLIPVisionModelWithProjection[image_encoder]|CLIPVisionTransformer[image_encoder.vision_model]|CLIPEncoder[image_encoder.vision_model.encoder]|CLIPEncoderLayer[image_encoder.vision_model.encoder.layers[25]]|CLIPAttention[image_encoder.vision_model.encoder.layers[25].self_attn]|/usr/local/lib/python3.11/dist-packages/transformers/models/clip/modeling_clip.py:301|forward|333|any_26aten__any")
#loc1445 = loc("2540|CLIPVisionModelWithProjection[image_encoder]|CLIPVisionTransformer[image_encoder.vision_model]|CLIPEncoder[image_encoder.vision_model.encoder]|CLIPEncoderLayer[image_encoder.vision_model.encoder.layers[26]]|CLIPAttention[image_encoder.vision_model.encoder.layers[26].self_attn]|/usr/local/lib/python3.11/dist-packages/transformers/models/clip/modeling_clip.py:301|forward|333|any_27aten__any")
#loc1499 = loc("2614|CLIPVisionModelWithProjection[image_encoder]|CLIPVisionTransformer[image_encoder.vision_model]|CLIPEncoder[image_encoder.vision_model.encoder]|CLIPEncoderLayer[image_encoder.vision_model.encoder.layers[27]]|CLIPAttention[image_encoder.vision_model.encoder.layers[27].self_attn]|/usr/local/lib/python3.11/dist-packages/transformers/models/clip/modeling_clip.py:301|forward|333|any_28aten__any")
#loc1553 = loc("2688|CLIPVisionModelWithProjection[image_encoder]|CLIPVisionTransformer[image_encoder.vision_model]|CLIPEncoder[image_encoder.vision_model.encoder]|CLIPEncoderLayer[image_encoder.vision_model.encoder.layers[28]]|CLIPAttention[image_encoder.vision_model.encoder.layers[28].self_attn]|/usr/local/lib/python3.11/dist-packages/transformers/models/clip/modeling_clip.py:301|forward|333|any_29aten__any")
#loc1607 = loc("2762|CLIPVisionModelWithProjection[image_encoder]|CLIPVisionTransformer[image_encoder.vision_model]|CLIPEncoder[image_encoder.vision_model.encoder]|CLIPEncoderLayer[image_encoder.vision_model.encoder.layers[29]]|CLIPAttention[image_encoder.vision_model.encoder.layers[29].self_attn]|/usr/local/lib/python3.11/dist-packages/transformers/models/clip/modeling_clip.py:301|forward|333|any_30aten__any")
#loc1661 = loc("2836|CLIPVisionModelWithProjection[image_encoder]|CLIPVisionTransformer[image_encoder.vision_model]|CLIPEncoder[image_encoder.vision_model.encoder]|CLIPEncoderLayer[image_encoder.vision_model.encoder.layers[30]]|CLIPAttention[image_encoder.vision_model.encoder.layers[30].self_attn]|/usr/local/lib/python3.11/dist-packages/transformers/models/clip/modeling_clip.py:301|forward|333|any_31aten__any")
#loc1711 = loc("2925|IPAdapterPlusImageProjection[resampler]|IPAdapterPlusImageProjectionBlock[resampler.layers[0]]|Attention[resampler.layers[0].attn]|/usr/local/lib/python3.11/dist-packages/diffusers/models/attention_processor.py:2703|__call__|2765|any_33aten__any")
#loc1762 = loc("3010|IPAdapterPlusImageProjection[resampler]|IPAdapterPlusImageProjectionBlock[resampler.layers[1]]|Attention[resampler.layers[1].attn]|/usr/local/lib/python3.11/dist-packages/diffusers/models/attention_processor.py:2703|__call__|2765|any_34aten__any")
#loc1813 = loc("3095|IPAdapterPlusImageProjection[resampler]|IPAdapterPlusImageProjectionBlock[resampler.layers[2]]|Attention[resampler.layers[2].attn]|/usr/local/lib/python3.11/dist-packages/diffusers/models/attention_processor.py:2703|__call__|2765|any_35aten__any")
#loc1864 = loc("3180|IPAdapterPlusImageProjection[resampler]|IPAdapterPlusImageProjectionBlock[resampler.layers[3]]|Attention[resampler.layers[3].attn]|/usr/local/lib/python3.11/dist-packages/diffusers/models/attention_processor.py:2703|__call__|2765|any_36aten__any")
#loc1899 = loc("3219|IPAdapterPlusImageProjection[resampler]|LayerNorm[resampler.norm_out]|/usr/local/lib/python3.11/dist-packages/diffusers/models/embeddings.py:2293|forward|2310|mark_tensor_384xla__mark_tensor")
#loc1900 = loc("3220|IPAdapterPlusImageProjection[resampler]|LayerNorm[resampler.norm_out]|/usr/local/lib/python3.11/dist-packages/diffusers/models/embeddings.py:2293|forward|2310|mark_tensor_385xla__mark_tensor")
#loc1901 = loc("3221|IPAdapterPlusImageProjection[resampler]|LayerNorm[resampler.norm_out]|/usr/local/lib/python3.11/dist-packages/diffusers/models/embeddings.py:2293|forward|2310|mark_tensor_386xla__mark_tensor")
#loc1912 = loc("3194|IPAdapterPlusImageProjection[resampler]|IPAdapterPlusImageProjectionBlock[resampler.layers[3]]|Sequential[resampler.layers[3].ff]|LayerNorm[getattr(resampler.layers[3].ff, '0')]|/usr/local/lib/python3.11/dist-packages/diffusers/models/embeddings.py:2245|forward|2250|mark_tensor_378xla__mark_tensor")
#loc1913 = loc("3195|IPAdapterPlusImageProjection[resampler]|IPAdapterPlusImageProjectionBlock[resampler.layers[3]]|Sequential[resampler.layers[3].ff]|LayerNorm[getattr(resampler.layers[3].ff, '0')]|/usr/local/lib/python3.11/dist-packages/diffusers/models/embeddings.py:2245|forward|2250|mark_tensor_379xla__mark_tensor")
#loc1914 = loc("3196|IPAdapterPlusImageProjection[resampler]|IPAdapterPlusImageProjectionBlock[resampler.layers[3]]|Sequential[resampler.layers[3].ff]|LayerNorm[getattr(resampler.layers[3].ff, '0')]|/usr/local/lib/python3.11/dist-packages/diffusers/models/embeddings.py:2245|forward|2250|mark_tensor_380xla__mark_tensor")
#loc1925 = loc("3131|IPAdapterPlusImageProjection[resampler]|IPAdapterPlusImageProjectionBlock[resampler.layers[3]]|LayerNorm[resampler.layers[3].ln0]|/usr/local/lib/python3.11/dist-packages/diffusers/models/embeddings.py:2245|forward|2246|mark_tensor_370xla__mark_tensor")
#loc1926 = loc("3132|IPAdapterPlusImageProjection[resampler]|IPAdapterPlusImageProjectionBlock[resampler.layers[3]]|LayerNorm[resampler.layers[3].ln0]|/usr/local/lib/python3.11/dist-packages/diffusers/models/embeddings.py:2245|forward|2246|mark_tensor_371xla__mark_tensor")
#loc1927 = loc("3133|IPAdapterPlusImageProjection[resampler]|IPAdapterPlusImageProjectionBlock[resampler.layers[3]]|LayerNorm[resampler.layers[3].ln0]|/usr/local/lib/python3.11/dist-packages/diffusers/models/embeddings.py:2245|forward|2246|mark_tensor_372xla__mark_tensor")
#loc1938 = loc("3046|IPAdapterPlusImageProjection[resampler]|IPAdapterPlusImageProjectionBlock[resampler.layers[2]]|LayerNorm[resampler.layers[2].ln0]|/usr/local/lib/python3.11/dist-packages/diffusers/models/embeddings.py:2245|forward|2246|mark_tensor_356xla__mark_tensor")
#loc1939 = loc("3047|IPAdapterPlusImageProjection[resampler]|IPAdapterPlusImageProjectionBlock[resampler.layers[2]]|LayerNorm[resampler.layers[2].ln0]|/usr/local/lib/python3.11/dist-packages/diffusers/models/embeddings.py:2245|forward|2246|mark_tensor_357xla__mark_tensor")
#loc1940 = loc("3048|IPAdapterPlusImageProjection[resampler]|IPAdapterPlusImageProjectionBlock[resampler.layers[2]]|LayerNorm[resampler.layers[2].ln0]|/usr/local/lib/python3.11/dist-packages/diffusers/models/embeddings.py:2245|forward|2246|mark_tensor_358xla__mark_tensor")
#loc1951 = loc("3039|IPAdapterPlusImageProjection[resampler]|IPAdapterPlusImageProjectionBlock[resampler.layers[1]]|Sequential[resampler.layers[1].ff]|FeedForward[getattr(resampler.layers[1].ff, '1')]|GELU[getattr(resampler.layers[1].ff, '1').net[0]]|/usr/local/lib/python3.11/dist-packages/diffusers/models/activations.py:81|gelu|85|mark_tensor_354xla__mark_tensor")
#loc1953 = loc("2954|IPAdapterPlusImageProjection[resampler]|IPAdapterPlusImageProjectionBlock[resampler.layers[0]]|Sequential[resampler.layers[0].ff]|FeedForward[getattr(resampler.layers[0].ff, '1')]|GELU[getattr(resampler.layers[0].ff, '1').net[0]]|/usr/local/lib/python3.11/dist-packages/diffusers/models/activations.py:81|gelu|85|mark_tensor_340xla__mark_tensor")
#loc1955 = loc("2939|IPAdapterPlusImageProjection[resampler]|IPAdapterPlusImageProjectionBlock[resampler.layers[0]]|Sequential[resampler.layers[0].ff]|LayerNorm[getattr(resampler.layers[0].ff, '0')]|/usr/local/lib/python3.11/dist-packages/diffusers/models/embeddings.py:2245|forward|2250|mark_tensor_336xla__mark_tensor")
#loc1956 = loc("2940|IPAdapterPlusImageProjection[resampler]|IPAdapterPlusImageProjectionBlock[resampler.layers[0]]|Sequential[resampler.layers[0].ff]|LayerNorm[getattr(resampler.layers[0].ff, '0')]|/usr/local/lib/python3.11/dist-packages/diffusers/models/embeddings.py:2245|forward|2250|mark_tensor_337xla__mark_tensor")
#loc1957 = loc("2941|IPAdapterPlusImageProjection[resampler]|IPAdapterPlusImageProjectionBlock[resampler.layers[0]]|Sequential[resampler.layers[0].ff]|LayerNorm[getattr(resampler.layers[0].ff, '0')]|/usr/local/lib/python3.11/dist-packages/diffusers/models/embeddings.py:2245|forward|2250|mark_tensor_338xla__mark_tensor")
#loc1968 = loc("2791|CLIPVisionModelWithProjection[image_encoder]|CLIPVisionTransformer[image_encoder.vision_model]|CLIPEncoder[image_encoder.vision_model.encoder]|CLIPEncoderLayer[image_encoder.vision_model.encoder.layers[29]]|CLIPMLP[image_encoder.vision_model.encoder.layers[29].mlp]|GELUActivation[image_encoder.vision_model.encoder.layers[29].mlp.activation_fn]|/usr/local/lib/python3.11/dist-packages/transformers/models/clip/modeling_clip.py:361|forward|363|mark_tensor_302xla__mark_tensor")
#loc1970 = loc("2724|CLIPVisionModelWithProjection[image_encoder]|CLIPVisionTransformer[image_encoder.vision_model]|CLIPEncoder[image_encoder.vision_model.encoder]|CLIPEncoderLayer[image_encoder.vision_model.encoder.layers[29]]|LayerNorm[image_encoder.vision_model.encoder.layers[29].layer_norm1]|/usr/local/lib/python3.11/dist-packages/transformers/models/clip/modeling_clip.py:377|forward|396|mark_tensor_294xla__mark_tensor")
#loc1971 = loc("2725|CLIPVisionModelWithProjection[image_encoder]|CLIPVisionTransformer[image_encoder.vision_model]|CLIPEncoder[image_encoder.vision_model.encoder]|CLIPEncoderLayer[image_encoder.vision_model.encoder.layers[29]]|LayerNorm[image_encoder.vision_model.encoder.layers[29].layer_norm1]|/usr/local/lib/python3.11/dist-packages/transformers/models/clip/modeling_clip.py:377|forward|396|mark_tensor_295xla__mark_tensor")
#loc1972 = loc("2726|CLIPVisionModelWithProjection[image_encoder]|CLIPVisionTransformer[image_encoder.vision_model]|CLIPEncoder[image_encoder.vision_model.encoder]|CLIPEncoderLayer[image_encoder.vision_model.encoder.layers[29]]|LayerNorm[image_encoder.vision_model.encoder.layers[29].layer_norm1]|/usr/local/lib/python3.11/dist-packages/transformers/models/clip/modeling_clip.py:377|forward|396|mark_tensor_296xla__mark_tensor")
#loc1983 = loc("2717|CLIPVisionModelWithProjection[image_encoder]|CLIPVisionTransformer[image_encoder.vision_model]|CLIPEncoder[image_encoder.vision_model.encoder]|CLIPEncoderLayer[image_encoder.vision_model.encoder.layers[28]]|CLIPMLP[image_encoder.vision_model.encoder.layers[28].mlp]|GELUActivation[image_encoder.vision_model.encoder.layers[28].mlp.activation_fn]|/usr/local/lib/python3.11/dist-packages/transformers/models/clip/modeling_clip.py:361|forward|363|mark_tensor_292xla__mark_tensor")
#loc1985 = loc("2974|IPAdapterPlusImageProjection[resampler]|IPAdapterPlusImageProjectionBlock[resampler.layers[1]]|LayerNorm[resampler.layers[1].ln1]|/usr/local/lib/python3.11/dist-packages/diffusers/models/embeddings.py:2245|forward|2247|mark_tensor_346xla__mark_tensor")
#loc1986 = loc("2975|IPAdapterPlusImageProjection[resampler]|IPAdapterPlusImageProjectionBlock[resampler.layers[1]]|LayerNorm[resampler.layers[1].ln1]|/usr/local/lib/python3.11/dist-packages/diffusers/models/embeddings.py:2245|forward|2247|mark_tensor_347xla__mark_tensor")
#loc1987 = loc("2976|IPAdapterPlusImageProjection[resampler]|IPAdapterPlusImageProjectionBlock[resampler.layers[1]]|LayerNorm[resampler.layers[1].ln1]|/usr/local/lib/python3.11/dist-packages/diffusers/models/embeddings.py:2245|forward|2247|mark_tensor_348xla__mark_tensor")
#loc1998 = loc("2701|CLIPVisionModelWithProjection[image_encoder]|CLIPVisionTransformer[image_encoder.vision_model]|CLIPEncoder[image_encoder.vision_model.encoder]|CLIPEncoderLayer[image_encoder.vision_model.encoder.layers[28]]|LayerNorm[image_encoder.vision_model.encoder.layers[28].layer_norm2]|/usr/local/lib/python3.11/dist-packages/transformers/models/clip/modeling_clip.py:377|forward|406|mark_tensor_288xla__mark_tensor")
#loc1999 = loc("2702|CLIPVisionModelWithProjection[image_encoder]|CLIPVisionTransformer[image_encoder.vision_model]|CLIPEncoder[image_encoder.vision_model.encoder]|CLIPEncoderLayer[image_encoder.vision_model.encoder.layers[28]]|LayerNorm[image_encoder.vision_model.encoder.layers[28].layer_norm2]|/usr/local/lib/python3.11/dist-packages/transformers/models/clip/modeling_clip.py:377|forward|406|mark_tensor_289xla__mark_tensor")
#loc2000 = loc("2703|CLIPVisionModelWithProjection[image_encoder]|CLIPVisionTransformer[image_encoder.vision_model]|CLIPEncoder[image_encoder.vision_model.encoder]|CLIPEncoderLayer[image_encoder.vision_model.encoder.layers[28]]|LayerNorm[image_encoder.vision_model.encoder.layers[28].layer_norm2]|/usr/local/lib/python3.11/dist-packages/transformers/models/clip/modeling_clip.py:377|forward|406|mark_tensor_290xla__mark_tensor")
#loc2011 = loc("2650|CLIPVisionModelWithProjection[image_encoder]|CLIPVisionTransformer[image_encoder.vision_model]|CLIPEncoder[image_encoder.vision_model.encoder]|CLIPEncoderLayer[image_encoder.vision_model.encoder.layers[28]]|LayerNorm[image_encoder.vision_model.encoder.layers[28].layer_norm1]|/usr/local/lib/python3.11/dist-packages/transformers/models/clip/modeling_clip.py:377|forward|396|mark_tensor_284xla__mark_tensor")
#loc2012 = loc("2651|CLIPVisionModelWithProjection[image_encoder]|CLIPVisionTransformer[image_encoder.vision_model]|CLIPEncoder[image_encoder.vision_model.encoder]|CLIPEncoderLayer[image_encoder.vision_model.encoder.layers[28]]|LayerNorm[image_encoder.vision_model.encoder.layers[28].layer_norm1]|/usr/local/lib/python3.11/dist-packages/transformers/models/clip/modeling_clip.py:377|forward|396|mark_tensor_285xla__mark_tensor")
#loc2013 = loc("2652|CLIPVisionModelWithProjection[image_encoder]|CLIPVisionTransformer[image_encoder.vision_model]|CLIPEncoder[image_encoder.vision_model.encoder]|CLIPEncoderLayer[image_encoder.vision_model.encoder.layers[28]]|LayerNorm[image_encoder.vision_model.encoder.layers[28].layer_norm1]|/usr/local/lib/python3.11/dist-packages/transformers/models/clip/modeling_clip.py:377|forward|396|mark_tensor_286xla__mark_tensor")
#loc2024 = loc("3124|IPAdapterPlusImageProjection[resampler]|IPAdapterPlusImageProjectionBlock[resampler.layers[2]]|Sequential[resampler.layers[2].ff]|FeedForward[getattr(resampler.layers[2].ff, '1')]|GELU[getattr(resampler.layers[2].ff, '1').net[0]]|/usr/local/lib/python3.11/dist-packages/diffusers/models/activations.py:81|gelu|85|mark_tensor_368xla__mark_tensor")
#loc2026 = loc("2576|CLIPVisionModelWithProjection[image_encoder]|CLIPVisionTransformer[image_encoder.vision_model]|CLIPEncoder[image_encoder.vision_model.encoder]|CLIPEncoderLayer[image_encoder.vision_model.encoder.layers[27]]|LayerNorm[image_encoder.vision_model.encoder.layers[27].layer_norm1]|/usr/local/lib/python3.11/dist-packages/transformers/models/clip/modeling_clip.py:377|forward|396|mark_tensor_274xla__mark_tensor")
#loc2027 = loc("2577|CLIPVisionModelWithProjection[image_encoder]|CLIPVisionTransformer[image_encoder.vision_model]|CLIPEncoder[image_encoder.vision_model.encoder]|CLIPEncoderLayer[image_encoder.vision_model.encoder.layers[27]]|LayerNorm[image_encoder.vision_model.encoder.layers[27].layer_norm1]|/usr/local/lib/python3.11/dist-packages/transformers/models/clip/modeling_clip.py:377|forward|396|mark_tensor_275xla__mark_tensor")
#loc2028 = loc("2578|CLIPVisionModelWithProjection[image_encoder]|CLIPVisionTransformer[image_encoder.vision_model]|CLIPEncoder[image_encoder.vision_model.encoder]|CLIPEncoderLayer[image_encoder.vision_model.encoder.layers[27]]|LayerNorm[image_encoder.vision_model.encoder.layers[27].layer_norm1]|/usr/local/lib/python3.11/dist-packages/transformers/models/clip/modeling_clip.py:377|forward|396|mark_tensor_276xla__mark_tensor")
#loc2039 = loc("2553|CLIPVisionModelWithProjection[image_encoder]|CLIPVisionTransformer[image_encoder.vision_model]|CLIPEncoder[image_encoder.vision_model.encoder]|CLIPEncoderLayer[image_encoder.vision_model.encoder.layers[26]]|LayerNorm[image_encoder.vision_model.encoder.layers[26].layer_norm2]|/usr/local/lib/python3.11/dist-packages/transformers/models/clip/modeling_clip.py:377|forward|406|mark_tensor_268xla__mark_tensor")
#loc2040 = loc("2554|CLIPVisionModelWithProjection[image_encoder]|CLIPVisionTransformer[image_encoder.vision_model]|CLIPEncoder[image_encoder.vision_model.encoder]|CLIPEncoderLayer[image_encoder.vision_model.encoder.layers[26]]|LayerNorm[image_encoder.vision_model.encoder.layers[26].layer_norm2]|/usr/local/lib/python3.11/dist-packages/transformers/models/clip/modeling_clip.py:377|forward|406|mark_tensor_269xla__mark_tensor")
#loc2041 = loc("2555|CLIPVisionModelWithProjection[image_encoder]|CLIPVisionTransformer[image_encoder.vision_model]|CLIPEncoder[image_encoder.vision_model.encoder]|CLIPEncoderLayer[image_encoder.vision_model.encoder.layers[26]]|LayerNorm[image_encoder.vision_model.encoder.layers[26].layer_norm2]|/usr/local/lib/python3.11/dist-packages/transformers/models/clip/modeling_clip.py:377|forward|406|mark_tensor_270xla__mark_tensor")
#loc2052 = loc("2502|CLIPVisionModelWithProjection[image_encoder]|CLIPVisionTransformer[image_encoder.vision_model]|CLIPEncoder[image_encoder.vision_model.encoder]|CLIPEncoderLayer[image_encoder.vision_model.encoder.layers[26]]|LayerNorm[image_encoder.vision_model.encoder.layers[26].layer_norm1]|/usr/local/lib/python3.11/dist-packages/transformers/models/clip/modeling_clip.py:377|forward|396|mark_tensor_264xla__mark_tensor")
#loc2053 = loc("2503|CLIPVisionModelWithProjection[image_encoder]|CLIPVisionTransformer[image_encoder.vision_model]|CLIPEncoder[image_encoder.vision_model.encoder]|CLIPEncoderLayer[image_encoder.vision_model.encoder.layers[26]]|LayerNorm[image_encoder.vision_model.encoder.layers[26].layer_norm1]|/usr/local/lib/python3.11/dist-packages/transformers/models/clip/modeling_clip.py:377|forward|396|mark_tensor_265xla__mark_tensor")
#loc2054 = loc("2504|CLIPVisionModelWithProjection[image_encoder]|CLIPVisionTransformer[image_encoder.vision_model]|CLIPEncoder[image_encoder.vision_model.encoder]|CLIPEncoderLayer[image_encoder.vision_model.encoder.layers[26]]|LayerNorm[image_encoder.vision_model.encoder.layers[26].layer_norm1]|/usr/local/lib/python3.11/dist-packages/transformers/models/clip/modeling_clip.py:377|forward|396|mark_tensor_266xla__mark_tensor")
#loc2065 = loc("2495|CLIPVisionModelWithProjection[image_encoder]|CLIPVisionTransformer[image_encoder.vision_model]|CLIPEncoder[image_encoder.vision_model.encoder]|CLIPEncoderLayer[image_encoder.vision_model.encoder.layers[25]]|CLIPMLP[image_encoder.vision_model.encoder.layers[25].mlp]|GELUActivation[image_encoder.vision_model.encoder.layers[25].mlp.activation_fn]|/usr/local/lib/python3.11/dist-packages/transformers/models/clip/modeling_clip.py:361|forward|363|mark_tensor_262xla__mark_tensor")
#loc2067 = loc("2479|CLIPVisionModelWithProjection[image_encoder]|CLIPVisionTransformer[image_encoder.vision_model]|CLIPEncoder[image_encoder.vision_model.encoder]|CLIPEncoderLayer[image_encoder.vision_model.encoder.layers[25]]|LayerNorm[image_encoder.vision_model.encoder.layers[25].layer_norm2]|/usr/local/lib/python3.11/dist-packages/transformers/models/clip/modeling_clip.py:377|forward|406|mark_tensor_258xla__mark_tensor")
#loc2068 = loc("2480|CLIPVisionModelWithProjection[image_encoder]|CLIPVisionTransformer[image_encoder.vision_model]|CLIPEncoder[image_encoder.vision_model.encoder]|CLIPEncoderLayer[image_encoder.vision_model.encoder.layers[25]]|LayerNorm[image_encoder.vision_model.encoder.layers[25].layer_norm2]|/usr/local/lib/python3.11/dist-packages/transformers/models/clip/modeling_clip.py:377|forward|406|mark_tensor_259xla__mark_tensor")
#loc2069 = loc("2481|CLIPVisionModelWithProjection[image_encoder]|CLIPVisionTransformer[image_encoder.vision_model]|CLIPEncoder[image_encoder.vision_model.encoder]|CLIPEncoderLayer[image_encoder.vision_model.encoder.layers[25]]|LayerNorm[image_encoder.vision_model.encoder.layers[25].layer_norm2]|/usr/local/lib/python3.11/dist-packages/transformers/models/clip/modeling_clip.py:377|forward|406|mark_tensor_260xla__mark_tensor")
#loc2080 = loc("2428|CLIPVisionModelWithProjection[image_encoder]|CLIPVisionTransformer[image_encoder.vision_model]|CLIPEncoder[image_encoder.vision_model.encoder]|CLIPEncoderLayer[image_encoder.vision_model.encoder.layers[25]]|LayerNorm[image_encoder.vision_model.encoder.layers[25].layer_norm1]|/usr/local/lib/python3.11/dist-packages/transformers/models/clip/modeling_clip.py:377|forward|396|mark_tensor_254xla__mark_tensor")
#loc2081 = loc("2429|CLIPVisionModelWithProjection[image_encoder]|CLIPVisionTransformer[image_encoder.vision_model]|CLIPEncoder[image_encoder.vision_model.encoder]|CLIPEncoderLayer[image_encoder.vision_model.encoder.layers[25]]|LayerNorm[image_encoder.vision_model.encoder.layers[25].layer_norm1]|/usr/local/lib/python3.11/dist-packages/transformers/models/clip/modeling_clip.py:377|forward|396|mark_tensor_255xla__mark_tensor")
#loc2082 = loc("2430|CLIPVisionModelWithProjection[image_encoder]|CLIPVisionTransformer[image_encoder.vision_model]|CLIPEncoder[image_encoder.vision_model.encoder]|CLIPEncoderLayer[image_encoder.vision_model.encoder.layers[25]]|LayerNorm[image_encoder.vision_model.encoder.layers[25].layer_norm1]|/usr/local/lib/python3.11/dist-packages/transformers/models/clip/modeling_clip.py:377|forward|396|mark_tensor_256xla__mark_tensor")
#loc2093 = loc("2421|CLIPVisionModelWithProjection[image_encoder]|CLIPVisionTransformer[image_encoder.vision_model]|CLIPEncoder[image_encoder.vision_model.encoder]|CLIPEncoderLayer[image_encoder.vision_model.encoder.layers[24]]|CLIPMLP[image_encoder.vision_model.encoder.layers[24].mlp]|GELUActivation[image_encoder.vision_model.encoder.layers[24].mlp.activation_fn]|/usr/local/lib/python3.11/dist-packages/transformers/models/clip/modeling_clip.py:361|forward|363|mark_tensor_252xla__mark_tensor")
#loc2095 = loc("2405|CLIPVisionModelWithProjection[image_encoder]|CLIPVisionTransformer[image_encoder.vision_model]|CLIPEncoder[image_encoder.vision_model.encoder]|CLIPEncoderLayer[image_encoder.vision_model.encoder.layers[24]]|LayerNorm[image_encoder.vision_model.encoder.layers[24].layer_norm2]|/usr/local/lib/python3.11/dist-packages/transformers/models/clip/modeling_clip.py:377|forward|406|mark_tensor_248xla__mark_tensor")
#loc2096 = loc("2406|CLIPVisionModelWithProjection[image_encoder]|CLIPVisionTransformer[image_encoder.vision_model]|CLIPEncoder[image_encoder.vision_model.encoder]|CLIPEncoderLayer[image_encoder.vision_model.encoder.layers[24]]|LayerNorm[image_encoder.vision_model.encoder.layers[24].layer_norm2]|/usr/local/lib/python3.11/dist-packages/transformers/models/clip/modeling_clip.py:377|forward|406|mark_tensor_249xla__mark_tensor")
#loc2097 = loc("2407|CLIPVisionModelWithProjection[image_encoder]|CLIPVisionTransformer[image_encoder.vision_model]|CLIPEncoder[image_encoder.vision_model.encoder]|CLIPEncoderLayer[image_encoder.vision_model.encoder.layers[24]]|LayerNorm[image_encoder.vision_model.encoder.layers[24].layer_norm2]|/usr/local/lib/python3.11/dist-packages/transformers/models/clip/modeling_clip.py:377|forward|406|mark_tensor_250xla__mark_tensor")
#loc2108 = loc("2354|CLIPVisionModelWithProjection[image_encoder]|CLIPVisionTransformer[image_encoder.vision_model]|CLIPEncoder[image_encoder.vision_model.encoder]|CLIPEncoderLayer[image_encoder.vision_model.encoder.layers[24]]|LayerNorm[image_encoder.vision_model.encoder.layers[24].layer_norm1]|/usr/local/lib/python3.11/dist-packages/transformers/models/clip/modeling_clip.py:377|forward|396|mark_tensor_244xla__mark_tensor")
#loc2109 = loc("2355|CLIPVisionModelWithProjection[image_encoder]|CLIPVisionTransformer[image_encoder.vision_model]|CLIPEncoder[image_encoder.vision_model.encoder]|CLIPEncoderLayer[image_encoder.vision_model.encoder.layers[24]]|LayerNorm[image_encoder.vision_model.encoder.layers[24].layer_norm1]|/usr/local/lib/python3.11/dist-packages/transformers/models/clip/modeling_clip.py:377|forward|396|mark_tensor_245xla__mark_tensor")
#loc2110 = loc("2356|CLIPVisionModelWithProjection[image_encoder]|CLIPVisionTransformer[image_encoder.vision_model]|CLIPEncoder[image_encoder.vision_model.encoder]|CLIPEncoderLayer[image_encoder.vision_model.encoder.layers[24]]|LayerNorm[image_encoder.vision_model.encoder.layers[24].layer_norm1]|/usr/local/lib/python3.11/dist-packages/transformers/models/clip/modeling_clip.py:377|forward|396|mark_tensor_246xla__mark_tensor")
#loc2121 = loc("2347|CLIPVisionModelWithProjection[image_encoder]|CLIPVisionTransformer[image_encoder.vision_model]|CLIPEncoder[image_encoder.vision_model.encoder]|CLIPEncoderLayer[image_encoder.vision_model.encoder.layers[23]]|CLIPMLP[image_encoder.vision_model.encoder.layers[23].mlp]|GELUActivation[image_encoder.vision_model.encoder.layers[23].mlp.activation_fn]|/usr/local/lib/python3.11/dist-packages/transformers/models/clip/modeling_clip.py:361|forward|363|mark_tensor_242xla__mark_tensor")
#loc2123 = loc("2331|CLIPVisionModelWithProjection[image_encoder]|CLIPVisionTransformer[image_encoder.vision_model]|CLIPEncoder[image_encoder.vision_model.encoder]|CLIPEncoderLayer[image_encoder.vision_model.encoder.layers[23]]|LayerNorm[image_encoder.vision_model.encoder.layers[23].layer_norm2]|/usr/local/lib/python3.11/dist-packages/transformers/models/clip/modeling_clip.py:377|forward|406|mark_tensor_238xla__mark_tensor")
#loc2124 = loc("2332|CLIPVisionModelWithProjection[image_encoder]|CLIPVisionTransformer[image_encoder.vision_model]|CLIPEncoder[image_encoder.vision_model.encoder]|CLIPEncoderLayer[image_encoder.vision_model.encoder.layers[23]]|LayerNorm[image_encoder.vision_model.encoder.layers[23].layer_norm2]|/usr/local/lib/python3.11/dist-packages/transformers/models/clip/modeling_clip.py:377|forward|406|mark_tensor_239xla__mark_tensor")
#loc2125 = loc("2333|CLIPVisionModelWithProjection[image_encoder]|CLIPVisionTransformer[image_encoder.vision_model]|CLIPEncoder[image_encoder.vision_model.encoder]|CLIPEncoderLayer[image_encoder.vision_model.encoder.layers[23]]|LayerNorm[image_encoder.vision_model.encoder.layers[23].layer_norm2]|/usr/local/lib/python3.11/dist-packages/transformers/models/clip/modeling_clip.py:377|forward|406|mark_tensor_240xla__mark_tensor")
#loc2136 = loc("2206|CLIPVisionModelWithProjection[image_encoder]|CLIPVisionTransformer[image_encoder.vision_model]|CLIPEncoder[image_encoder.vision_model.encoder]|CLIPEncoderLayer[image_encoder.vision_model.encoder.layers[22]]|LayerNorm[image_encoder.vision_model.encoder.layers[22].layer_norm1]|/usr/local/lib/python3.11/dist-packages/transformers/models/clip/modeling_clip.py:377|forward|396|mark_tensor_224xla__mark_tensor")
#loc2137 = loc("2207|CLIPVisionModelWithProjection[image_encoder]|CLIPVisionTransformer[image_encoder.vision_model]|CLIPEncoder[image_encoder.vision_model.encoder]|CLIPEncoderLayer[image_encoder.vision_model.encoder.layers[22]]|LayerNorm[image_encoder.vision_model.encoder.layers[22].layer_norm1]|/usr/local/lib/python3.11/dist-packages/transformers/models/clip/modeling_clip.py:377|forward|396|mark_tensor_225xla__mark_tensor")
#loc2138 = loc("2208|CLIPVisionModelWithProjection[image_encoder]|CLIPVisionTransformer[image_encoder.vision_model]|CLIPEncoder[image_encoder.vision_model.encoder]|CLIPEncoderLayer[image_encoder.vision_model.encoder.layers[22]]|LayerNorm[image_encoder.vision_model.encoder.layers[22].layer_norm1]|/usr/local/lib/python3.11/dist-packages/transformers/models/clip/modeling_clip.py:377|forward|396|mark_tensor_226xla__mark_tensor")
#loc2149 = loc("2199|CLIPVisionModelWithProjection[image_encoder]|CLIPVisionTransformer[image_encoder.vision_model]|CLIPEncoder[image_encoder.vision_model.encoder]|CLIPEncoderLayer[image_encoder.vision_model.encoder.layers[21]]|CLIPMLP[image_encoder.vision_model.encoder.layers[21].mlp]|GELUActivation[image_encoder.vision_model.encoder.layers[21].mlp.activation_fn]|/usr/local/lib/python3.11/dist-packages/transformers/models/clip/modeling_clip.py:361|forward|363|mark_tensor_222xla__mark_tensor")
#loc2151 = loc("3024|IPAdapterPlusImageProjection[resampler]|IPAdapterPlusImageProjectionBlock[resampler.layers[1]]|Sequential[resampler.layers[1].ff]|LayerNorm[getattr(resampler.layers[1].ff, '0')]|/usr/local/lib/python3.11/dist-packages/diffusers/models/embeddings.py:2245|forward|2250|mark_tensor_350xla__mark_tensor")
#loc2152 = loc("3025|IPAdapterPlusImageProjection[resampler]|IPAdapterPlusImageProjectionBlock[resampler.layers[1]]|Sequential[resampler.layers[1].ff]|LayerNorm[getattr(resampler.layers[1].ff, '0')]|/usr/local/lib/python3.11/dist-packages/diffusers/models/embeddings.py:2245|forward|2250|mark_tensor_351xla__mark_tensor")
#loc2153 = loc("3026|IPAdapterPlusImageProjection[resampler]|IPAdapterPlusImageProjectionBlock[resampler.layers[1]]|Sequential[resampler.layers[1].ff]|LayerNorm[getattr(resampler.layers[1].ff, '0')]|/usr/local/lib/python3.11/dist-packages/diffusers/models/embeddings.py:2245|forward|2250|mark_tensor_352xla__mark_tensor")
#loc2164 = loc("2183|CLIPVisionModelWithProjection[image_encoder]|CLIPVisionTransformer[image_encoder.vision_model]|CLIPEncoder[image_encoder.vision_model.encoder]|CLIPEncoderLayer[image_encoder.vision_model.encoder.layers[21]]|LayerNorm[image_encoder.vision_model.encoder.layers[21].layer_norm2]|/usr/local/lib/python3.11/dist-packages/transformers/models/clip/modeling_clip.py:377|forward|406|mark_tensor_218xla__mark_tensor")
#loc2165 = loc("2184|CLIPVisionModelWithProjection[image_encoder]|CLIPVisionTransformer[image_encoder.vision_model]|CLIPEncoder[image_encoder.vision_model.encoder]|CLIPEncoderLayer[image_encoder.vision_model.encoder.layers[21]]|LayerNorm[image_encoder.vision_model.encoder.layers[21].layer_norm2]|/usr/local/lib/python3.11/dist-packages/transformers/models/clip/modeling_clip.py:377|forward|406|mark_tensor_219xla__mark_tensor")
#loc2166 = loc("2185|CLIPVisionModelWithProjection[image_encoder]|CLIPVisionTransformer[image_encoder.vision_model]|CLIPEncoder[image_encoder.vision_model.encoder]|CLIPEncoderLayer[image_encoder.vision_model.encoder.layers[21]]|LayerNorm[image_encoder.vision_model.encoder.layers[21].layer_norm2]|/usr/local/lib/python3.11/dist-packages/transformers/models/clip/modeling_clip.py:377|forward|406|mark_tensor_220xla__mark_tensor")
#loc2177 = loc("2125|CLIPVisionModelWithProjection[image_encoder]|CLIPVisionTransformer[image_encoder.vision_model]|CLIPEncoder[image_encoder.vision_model.encoder]|CLIPEncoderLayer[image_encoder.vision_model.encoder.layers[20]]|CLIPMLP[image_encoder.vision_model.encoder.layers[20].mlp]|GELUActivation[image_encoder.vision_model.encoder.layers[20].mlp.activation_fn]|/usr/local/lib/python3.11/dist-packages/transformers/models/clip/modeling_clip.py:361|forward|363|mark_tensor_212xla__mark_tensor")
#loc2179 = loc("2569|CLIPVisionModelWithProjection[image_encoder]|CLIPVisionTransformer[image_encoder.vision_model]|CLIPEncoder[image_encoder.vision_model.encoder]|CLIPEncoderLayer[image_encoder.vision_model.encoder.layers[26]]|CLIPMLP[image_encoder.vision_model.encoder.layers[26].mlp]|GELUActivation[image_encoder.vision_model.encoder.layers[26].mlp.activation_fn]|/usr/local/lib/python3.11/dist-packages/transformers/models/clip/modeling_clip.py:361|forward|363|mark_tensor_272xla__mark_tensor")
#loc2181 = loc("2058|CLIPVisionModelWithProjection[image_encoder]|CLIPVisionTransformer[image_encoder.vision_model]|CLIPEncoder[image_encoder.vision_model.encoder]|CLIPEncoderLayer[image_encoder.vision_model.encoder.layers[20]]|LayerNorm[image_encoder.vision_model.encoder.layers[20].layer_norm1]|/usr/local/lib/python3.11/dist-packages/transformers/models/clip/modeling_clip.py:377|forward|396|mark_tensor_204xla__mark_tensor")
#loc2182 = loc("2059|CLIPVisionModelWithProjection[image_encoder]|CLIPVisionTransformer[image_encoder.vision_model]|CLIPEncoder[image_encoder.vision_model.encoder]|CLIPEncoderLayer[image_encoder.vision_model.encoder.layers[20]]|LayerNorm[image_encoder.vision_model.encoder.layers[20].layer_norm1]|/usr/local/lib/python3.11/dist-packages/transformers/models/clip/modeling_clip.py:377|forward|396|mark_tensor_205xla__mark_tensor")
#loc2183 = loc("2060|CLIPVisionModelWithProjection[image_encoder]|CLIPVisionTransformer[image_encoder.vision_model]|CLIPEncoder[image_encoder.vision_model.encoder]|CLIPEncoderLayer[image_encoder.vision_model.encoder.layers[20]]|LayerNorm[image_encoder.vision_model.encoder.layers[20].layer_norm1]|/usr/local/lib/python3.11/dist-packages/transformers/models/clip/modeling_clip.py:377|forward|396|mark_tensor_206xla__mark_tensor")
#loc2194 = loc("2051|CLIPVisionModelWithProjection[image_encoder]|CLIPVisionTransformer[image_encoder.vision_model]|CLIPEncoder[image_encoder.vision_model.encoder]|CLIPEncoderLayer[image_encoder.vision_model.encoder.layers[19]]|CLIPMLP[image_encoder.vision_model.encoder.layers[19].mlp]|GELUActivation[image_encoder.vision_model.encoder.layers[19].mlp.activation_fn]|/usr/local/lib/python3.11/dist-packages/transformers/models/clip/modeling_clip.py:361|forward|363|mark_tensor_202xla__mark_tensor")
#loc2196 = loc("1984|CLIPVisionModelWithProjection[image_encoder]|CLIPVisionTransformer[image_encoder.vision_model]|CLIPEncoder[image_encoder.vision_model.encoder]|CLIPEncoderLayer[image_encoder.vision_model.encoder.layers[19]]|LayerNorm[image_encoder.vision_model.encoder.layers[19].layer_norm1]|/usr/local/lib/python3.11/dist-packages/transformers/models/clip/modeling_clip.py:377|forward|396|mark_tensor_194xla__mark_tensor")
#loc2197 = loc("1985|CLIPVisionModelWithProjection[image_encoder]|CLIPVisionTransformer[image_encoder.vision_model]|CLIPEncoder[image_encoder.vision_model.encoder]|CLIPEncoderLayer[image_encoder.vision_model.encoder.layers[19]]|LayerNorm[image_encoder.vision_model.encoder.layers[19].layer_norm1]|/usr/local/lib/python3.11/dist-packages/transformers/models/clip/modeling_clip.py:377|forward|396|mark_tensor_195xla__mark_tensor")
#loc2198 = loc("1986|CLIPVisionModelWithProjection[image_encoder]|CLIPVisionTransformer[image_encoder.vision_model]|CLIPEncoder[image_encoder.vision_model.encoder]|CLIPEncoderLayer[image_encoder.vision_model.encoder.layers[19]]|LayerNorm[image_encoder.vision_model.encoder.layers[19].layer_norm1]|/usr/local/lib/python3.11/dist-packages/transformers/models/clip/modeling_clip.py:377|forward|396|mark_tensor_196xla__mark_tensor")
#loc2209 = loc("1237|CLIPVisionModelWithProjection[image_encoder]|CLIPVisionTransformer[image_encoder.vision_model]|CLIPEncoder[image_encoder.vision_model.encoder]|CLIPEncoderLayer[image_encoder.vision_model.encoder.layers[8]]|CLIPMLP[image_encoder.vision_model.encoder.layers[8].mlp]|GELUActivation[image_encoder.vision_model.encoder.layers[8].mlp.activation_fn]|/usr/local/lib/python3.11/dist-packages/transformers/models/clip/modeling_clip.py:361|forward|363|mark_tensor_92xla__mark_tensor")
#loc2211 = loc("1318|CLIPVisionModelWithProjection[image_encoder]|CLIPVisionTransformer[image_encoder.vision_model]|CLIPEncoder[image_encoder.vision_model.encoder]|CLIPEncoderLayer[image_encoder.vision_model.encoder.layers[10]]|LayerNorm[image_encoder.vision_model.encoder.layers[10].layer_norm1]|/usr/local/lib/python3.11/dist-packages/transformers/models/clip/modeling_clip.py:377|forward|396|mark_tensor_104xla__mark_tensor")
#loc2212 = loc("1319|CLIPVisionModelWithProjection[image_encoder]|CLIPVisionTransformer[image_encoder.vision_model]|CLIPEncoder[image_encoder.vision_model.encoder]|CLIPEncoderLayer[image_encoder.vision_model.encoder.layers[10]]|LayerNorm[image_encoder.vision_model.encoder.layers[10].layer_norm1]|/usr/local/lib/python3.11/dist-packages/transformers/models/clip/modeling_clip.py:377|forward|396|mark_tensor_105xla__mark_tensor")
#loc2213 = loc("1320|CLIPVisionModelWithProjection[image_encoder]|CLIPVisionTransformer[image_encoder.vision_model]|CLIPEncoder[image_encoder.vision_model.encoder]|CLIPEncoderLayer[image_encoder.vision_model.encoder.layers[10]]|LayerNorm[image_encoder.vision_model.encoder.layers[10].layer_norm1]|/usr/local/lib/python3.11/dist-packages/transformers/models/clip/modeling_clip.py:377|forward|396|mark_tensor_106xla__mark_tensor")
#loc2224 = loc("1170|CLIPVisionModelWithProjection[image_encoder]|CLIPVisionTransformer[image_encoder.vision_model]|CLIPEncoder[image_encoder.vision_model.encoder]|CLIPEncoderLayer[image_encoder.vision_model.encoder.layers[8]]|LayerNorm[image_encoder.vision_model.encoder.layers[8].layer_norm1]|/usr/local/lib/python3.11/dist-packages/transformers/models/clip/modeling_clip.py:377|forward|396|mark_tensor_84xla__mark_tensor")
#loc2225 = loc("1171|CLIPVisionModelWithProjection[image_encoder]|CLIPVisionTransformer[image_encoder.vision_model]|CLIPEncoder[image_encoder.vision_model.encoder]|CLIPEncoderLayer[image_encoder.vision_model.encoder.layers[8]]|LayerNorm[image_encoder.vision_model.encoder.layers[8].layer_norm1]|/usr/local/lib/python3.11/dist-packages/transformers/models/clip/modeling_clip.py:377|forward|396|mark_tensor_85xla__mark_tensor")
#loc2226 = loc("1172|CLIPVisionModelWithProjection[image_encoder]|CLIPVisionTransformer[image_encoder.vision_model]|CLIPEncoder[image_encoder.vision_model.encoder]|CLIPEncoderLayer[image_encoder.vision_model.encoder.layers[8]]|LayerNorm[image_encoder.vision_model.encoder.layers[8].layer_norm1]|/usr/local/lib/python3.11/dist-packages/transformers/models/clip/modeling_clip.py:377|forward|396|mark_tensor_86xla__mark_tensor")
#loc2237 = loc("2865|CLIPVisionModelWithProjection[image_encoder]|CLIPVisionTransformer[image_encoder.vision_model]|CLIPEncoder[image_encoder.vision_model.encoder]|CLIPEncoderLayer[image_encoder.vision_model.encoder.layers[30]]|CLIPMLP[image_encoder.vision_model.encoder.layers[30].mlp]|GELUActivation[image_encoder.vision_model.encoder.layers[30].mlp.activation_fn]|/usr/local/lib/python3.11/dist-packages/transformers/models/clip/modeling_clip.py:361|forward|363|mark_tensor_312xla__mark_tensor")
#loc2239 = loc("1163|CLIPVisionModelWithProjection[image_encoder]|CLIPVisionTransformer[image_encoder.vision_model]|CLIPEncoder[image_encoder.vision_model.encoder]|CLIPEncoderLayer[image_encoder.vision_model.encoder.layers[7]]|CLIPMLP[image_encoder.vision_model.encoder.layers[7].mlp]|GELUActivation[image_encoder.vision_model.encoder.layers[7].mlp.activation_fn]|/usr/local/lib/python3.11/dist-packages/transformers/models/clip/modeling_clip.py:361|forward|363|mark_tensor_82xla__mark_tensor")
#loc2241 = loc("2849|CLIPVisionModelWithProjection[image_encoder]|CLIPVisionTransformer[image_encoder.vision_model]|CLIPEncoder[image_encoder.vision_model.encoder]|CLIPEncoderLayer[image_encoder.vision_model.encoder.layers[30]]|LayerNorm[image_encoder.vision_model.encoder.layers[30].layer_norm2]|/usr/local/lib/python3.11/dist-packages/transformers/models/clip/modeling_clip.py:377|forward|406|mark_tensor_308xla__mark_tensor")
#loc2242 = loc("2850|CLIPVisionModelWithProjection[image_encoder]|CLIPVisionTransformer[image_encoder.vision_model]|CLIPEncoder[image_encoder.vision_model.encoder]|CLIPEncoderLayer[image_encoder.vision_model.encoder.layers[30]]|LayerNorm[image_encoder.vision_model.encoder.layers[30].layer_norm2]|/usr/local/lib/python3.11/dist-packages/transformers/models/clip/modeling_clip.py:377|forward|406|mark_tensor_309xla__mark_tensor")
#loc2243 = loc("2851|CLIPVisionModelWithProjection[image_encoder]|CLIPVisionTransformer[image_encoder.vision_model]|CLIPEncoder[image_encoder.vision_model.encoder]|CLIPEncoderLayer[image_encoder.vision_model.encoder.layers[30]]|LayerNorm[image_encoder.vision_model.encoder.layers[30].layer_norm2]|/usr/local/lib/python3.11/dist-packages/transformers/models/clip/modeling_clip.py:377|forward|406|mark_tensor_310xla__mark_tensor")
#loc2254 = loc("2273|CLIPVisionModelWithProjection[image_encoder]|CLIPVisionTransformer[image_encoder.vision_model]|CLIPEncoder[image_encoder.vision_model.encoder]|CLIPEncoderLayer[image_encoder.vision_model.encoder.layers[22]]|CLIPMLP[image_encoder.vision_model.encoder.layers[22].mlp]|GELUActivation[image_encoder.vision_model.encoder.layers[22].mlp.activation_fn]|/usr/local/lib/python3.11/dist-packages/transformers/models/clip/modeling_clip.py:361|forward|363|mark_tensor_232xla__mark_tensor")
#loc2256 = loc("2257|CLIPVisionModelWithProjection[image_encoder]|CLIPVisionTransformer[image_encoder.vision_model]|CLIPEncoder[image_encoder.vision_model.encoder]|CLIPEncoderLayer[image_encoder.vision_model.encoder.layers[22]]|LayerNorm[image_encoder.vision_model.encoder.layers[22].layer_norm2]|/usr/local/lib/python3.11/dist-packages/transformers/models/clip/modeling_clip.py:377|forward|406|mark_tensor_228xla__mark_tensor")
#loc2257 = loc("2258|CLIPVisionModelWithProjection[image_encoder]|CLIPVisionTransformer[image_encoder.vision_model]|CLIPEncoder[image_encoder.vision_model.encoder]|CLIPEncoderLayer[image_encoder.vision_model.encoder.layers[22]]|LayerNorm[image_encoder.vision_model.encoder.layers[22].layer_norm2]|/usr/local/lib/python3.11/dist-packages/transformers/models/clip/modeling_clip.py:377|forward|406|mark_tensor_229xla__mark_tensor")
#loc2258 = loc("2259|CLIPVisionModelWithProjection[image_encoder]|CLIPVisionTransformer[image_encoder.vision_model]|CLIPEncoder[image_encoder.vision_model.encoder]|CLIPEncoderLayer[image_encoder.vision_model.encoder.layers[22]]|LayerNorm[image_encoder.vision_model.encoder.layers[22].layer_norm2]|/usr/local/lib/python3.11/dist-packages/transformers/models/clip/modeling_clip.py:377|forward|406|mark_tensor_230xla__mark_tensor")
#loc2269 = loc("1089|CLIPVisionModelWithProjection[image_encoder]|CLIPVisionTransformer[image_encoder.vision_model]|CLIPEncoder[image_encoder.vision_model.encoder]|CLIPEncoderLayer[image_encoder.vision_model.encoder.layers[6]]|CLIPMLP[image_encoder.vision_model.encoder.layers[6].mlp]|GELUActivation[image_encoder.vision_model.encoder.layers[6].mlp.activation_fn]|/usr/local/lib/python3.11/dist-packages/transformers/models/clip/modeling_clip.py:361|forward|363|mark_tensor_72xla__mark_tensor")
#loc2271 = loc("1073|CLIPVisionModelWithProjection[image_encoder]|CLIPVisionTransformer[image_encoder.vision_model]|CLIPEncoder[image_encoder.vision_model.encoder]|CLIPEncoderLayer[image_encoder.vision_model.encoder.layers[6]]|LayerNorm[image_encoder.vision_model.encoder.layers[6].layer_norm2]|/usr/local/lib/python3.11/dist-packages/transformers/models/clip/modeling_clip.py:377|forward|406|mark_tensor_68xla__mark_tensor")
#loc2272 = loc("1074|CLIPVisionModelWithProjection[image_encoder]|CLIPVisionTransformer[image_encoder.vision_model]|CLIPEncoder[image_encoder.vision_model.encoder]|CLIPEncoderLayer[image_encoder.vision_model.encoder.layers[6]]|LayerNorm[image_encoder.vision_model.encoder.layers[6].layer_norm2]|/usr/local/lib/python3.11/dist-packages/transformers/models/clip/modeling_clip.py:377|forward|406|mark_tensor_69xla__mark_tensor")
#loc2273 = loc("1075|CLIPVisionModelWithProjection[image_encoder]|CLIPVisionTransformer[image_encoder.vision_model]|CLIPEncoder[image_encoder.vision_model.encoder]|CLIPEncoderLayer[image_encoder.vision_model.encoder.layers[6]]|LayerNorm[image_encoder.vision_model.encoder.layers[6].layer_norm2]|/usr/local/lib/python3.11/dist-packages/transformers/models/clip/modeling_clip.py:377|forward|406|mark_tensor_70xla__mark_tensor")
#loc2284 = loc("645|CLIPVisionModelWithProjection[image_encoder]|CLIPVisionTransformer[image_encoder.vision_model]|CLIPEncoder[image_encoder.vision_model.encoder]|CLIPEncoderLayer[image_encoder.vision_model.encoder.layers[0]]|CLIPMLP[image_encoder.vision_model.encoder.layers[0].mlp]|GELUActivation[image_encoder.vision_model.encoder.layers[0].mlp.activation_fn]|/usr/local/lib/python3.11/dist-packages/transformers/models/clip/modeling_clip.py:361|forward|363|mark_tensor_12xla__mark_tensor")
#loc2286 = loc("3109|IPAdapterPlusImageProjection[resampler]|IPAdapterPlusImageProjectionBlock[resampler.layers[2]]|Sequential[resampler.layers[2].ff]|LayerNorm[getattr(resampler.layers[2].ff, '0')]|/usr/local/lib/python3.11/dist-packages/diffusers/models/embeddings.py:2245|forward|2250|mark_tensor_364xla__mark_tensor")
#loc2287 = loc("3110|IPAdapterPlusImageProjection[resampler]|IPAdapterPlusImageProjectionBlock[resampler.layers[2]]|Sequential[resampler.layers[2].ff]|LayerNorm[getattr(resampler.layers[2].ff, '0')]|/usr/local/lib/python3.11/dist-packages/diffusers/models/embeddings.py:2245|forward|2250|mark_tensor_365xla__mark_tensor")
#loc2288 = loc("3111|IPAdapterPlusImageProjection[resampler]|IPAdapterPlusImageProjectionBlock[resampler.layers[2]]|Sequential[resampler.layers[2].ff]|LayerNorm[getattr(resampler.layers[2].ff, '0')]|/usr/local/lib/python3.11/dist-packages/diffusers/models/embeddings.py:2245|forward|2250|mark_tensor_366xla__mark_tensor")
#loc2299 = loc("1221|CLIPVisionModelWithProjection[image_encoder]|CLIPVisionTransformer[image_encoder.vision_model]|CLIPEncoder[image_encoder.vision_model.encoder]|CLIPEncoderLayer[image_encoder.vision_model.encoder.layers[8]]|LayerNorm[image_encoder.vision_model.encoder.layers[8].layer_norm2]|/usr/local/lib/python3.11/dist-packages/transformers/models/clip/modeling_clip.py:377|forward|406|mark_tensor_88xla__mark_tensor")
#loc2300 = loc("1222|CLIPVisionModelWithProjection[image_encoder]|CLIPVisionTransformer[image_encoder.vision_model]|CLIPEncoder[image_encoder.vision_model.encoder]|CLIPEncoderLayer[image_encoder.vision_model.encoder.layers[8]]|LayerNorm[image_encoder.vision_model.encoder.layers[8].layer_norm2]|/usr/local/lib/python3.11/dist-packages/transformers/models/clip/modeling_clip.py:377|forward|406|mark_tensor_89xla__mark_tensor")
#loc2301 = loc("1223|CLIPVisionModelWithProjection[image_encoder]|CLIPVisionTransformer[image_encoder.vision_model]|CLIPEncoder[image_encoder.vision_model.encoder]|CLIPEncoderLayer[image_encoder.vision_model.encoder.layers[8]]|LayerNorm[image_encoder.vision_model.encoder.layers[8].layer_norm2]|/usr/local/lib/python3.11/dist-packages/transformers/models/clip/modeling_clip.py:377|forward|406|mark_tensor_90xla__mark_tensor")
#loc2312 = loc("726|CLIPVisionModelWithProjection[image_encoder]|CLIPVisionTransformer[image_encoder.vision_model]|CLIPEncoder[image_encoder.vision_model.encoder]|CLIPEncoderLayer[image_encoder.vision_model.encoder.layers[2]]|LayerNorm[image_encoder.vision_model.encoder.layers[2].layer_norm1]|/usr/local/lib/python3.11/dist-packages/transformers/models/clip/modeling_clip.py:377|forward|396|mark_tensor_24xla__mark_tensor")
#loc2313 = loc("727|CLIPVisionModelWithProjection[image_encoder]|CLIPVisionTransformer[image_encoder.vision_model]|CLIPEncoder[image_encoder.vision_model.encoder]|CLIPEncoderLayer[image_encoder.vision_model.encoder.layers[2]]|LayerNorm[image_encoder.vision_model.encoder.layers[2].layer_norm1]|/usr/local/lib/python3.11/dist-packages/transformers/models/clip/modeling_clip.py:377|forward|396|mark_tensor_25xla__mark_tensor")
#loc2314 = loc("728|CLIPVisionModelWithProjection[image_encoder]|CLIPVisionTransformer[image_encoder.vision_model]|CLIPEncoder[image_encoder.vision_model.encoder]|CLIPEncoderLayer[image_encoder.vision_model.encoder.layers[2]]|LayerNorm[image_encoder.vision_model.encoder.layers[2].layer_norm1]|/usr/local/lib/python3.11/dist-packages/transformers/models/clip/modeling_clip.py:377|forward|396|mark_tensor_26xla__mark_tensor")
#loc2325 = loc("1147|CLIPVisionModelWithProjection[image_encoder]|CLIPVisionTransformer[image_encoder.vision_model]|CLIPEncoder[image_encoder.vision_model.encoder]|CLIPEncoderLayer[image_encoder.vision_model.encoder.layers[7]]|LayerNorm[image_encoder.vision_model.encoder.layers[7].layer_norm2]|/usr/local/lib/python3.11/dist-packages/transformers/models/clip/modeling_clip.py:377|forward|406|mark_tensor_78xla__mark_tensor")
#loc2326 = loc("1148|CLIPVisionModelWithProjection[image_encoder]|CLIPVisionTransformer[image_encoder.vision_model]|CLIPEncoder[image_encoder.vision_model.encoder]|CLIPEncoderLayer[image_encoder.vision_model.encoder.layers[7]]|LayerNorm[image_encoder.vision_model.encoder.layers[7].layer_norm2]|/usr/local/lib/python3.11/dist-packages/transformers/models/clip/modeling_clip.py:377|forward|406|mark_tensor_79xla__mark_tensor")
#loc2327 = loc("1149|CLIPVisionModelWithProjection[image_encoder]|CLIPVisionTransformer[image_encoder.vision_model]|CLIPEncoder[image_encoder.vision_model.encoder]|CLIPEncoderLayer[image_encoder.vision_model.encoder.layers[7]]|LayerNorm[image_encoder.vision_model.encoder.layers[7].layer_norm2]|/usr/local/lib/python3.11/dist-packages/transformers/models/clip/modeling_clip.py:377|forward|406|mark_tensor_80xla__mark_tensor")
#loc2338 = loc("1836|CLIPVisionModelWithProjection[image_encoder]|CLIPVisionTransformer[image_encoder.vision_model]|CLIPEncoder[image_encoder.vision_model.encoder]|CLIPEncoderLayer[image_encoder.vision_model.encoder.layers[17]]|LayerNorm[image_encoder.vision_model.encoder.layers[17].layer_norm1]|/usr/local/lib/python3.11/dist-packages/transformers/models/clip/modeling_clip.py:377|forward|396|mark_tensor_174xla__mark_tensor")
#loc2339 = loc("1837|CLIPVisionModelWithProjection[image_encoder]|CLIPVisionTransformer[image_encoder.vision_model]|CLIPEncoder[image_encoder.vision_model.encoder]|CLIPEncoderLayer[image_encoder.vision_model.encoder.layers[17]]|LayerNorm[image_encoder.vision_model.encoder.layers[17].layer_norm1]|/usr/local/lib/python3.11/dist-packages/transformers/models/clip/modeling_clip.py:377|forward|396|mark_tensor_175xla__mark_tensor")
#loc2340 = loc("1838|CLIPVisionModelWithProjection[image_encoder]|CLIPVisionTransformer[image_encoder.vision_model]|CLIPEncoder[image_encoder.vision_model.encoder]|CLIPEncoderLayer[image_encoder.vision_model.encoder.layers[17]]|LayerNorm[image_encoder.vision_model.encoder.layers[17].layer_norm1]|/usr/local/lib/python3.11/dist-packages/transformers/models/clip/modeling_clip.py:377|forward|396|mark_tensor_176xla__mark_tensor")
#loc2351 = loc("941|CLIPVisionModelWithProjection[image_encoder]|CLIPVisionTransformer[image_encoder.vision_model]|CLIPEncoder[image_encoder.vision_model.encoder]|CLIPEncoderLayer[image_encoder.vision_model.encoder.layers[4]]|CLIPMLP[image_encoder.vision_model.encoder.layers[4].mlp]|GELUActivation[image_encoder.vision_model.encoder.layers[4].mlp.activation_fn]|/usr/local/lib/python3.11/dist-packages/transformers/models/clip/modeling_clip.py:361|forward|363|mark_tensor_52xla__mark_tensor")
#loc2353 = loc("2798|CLIPVisionModelWithProjection[image_encoder]|CLIPVisionTransformer[image_encoder.vision_model]|CLIPEncoder[image_encoder.vision_model.encoder]|CLIPEncoderLayer[image_encoder.vision_model.encoder.layers[30]]|LayerNorm[image_encoder.vision_model.encoder.layers[30].layer_norm1]|/usr/local/lib/python3.11/dist-packages/transformers/models/clip/modeling_clip.py:377|forward|396|mark_tensor_304xla__mark_tensor")
#loc2354 = loc("2799|CLIPVisionModelWithProjection[image_encoder]|CLIPVisionTransformer[image_encoder.vision_model]|CLIPEncoder[image_encoder.vision_model.encoder]|CLIPEncoderLayer[image_encoder.vision_model.encoder.layers[30]]|LayerNorm[image_encoder.vision_model.encoder.layers[30].layer_norm1]|/usr/local/lib/python3.11/dist-packages/transformers/models/clip/modeling_clip.py:377|forward|396|mark_tensor_305xla__mark_tensor")
#loc2355 = loc("2800|CLIPVisionModelWithProjection[image_encoder]|CLIPVisionTransformer[image_encoder.vision_model]|CLIPEncoder[image_encoder.vision_model.encoder]|CLIPEncoderLayer[image_encoder.vision_model.encoder.layers[30]]|LayerNorm[image_encoder.vision_model.encoder.layers[30].layer_norm1]|/usr/local/lib/python3.11/dist-packages/transformers/models/clip/modeling_clip.py:377|forward|396|mark_tensor_306xla__mark_tensor")
#loc2366 = loc("777|CLIPVisionModelWithProjection[image_encoder]|CLIPVisionTransformer[image_encoder.vision_model]|CLIPEncoder[image_encoder.vision_model.encoder]|CLIPEncoderLayer[image_encoder.vision_model.encoder.layers[2]]|LayerNorm[image_encoder.vision_model.encoder.layers[2].layer_norm2]|/usr/local/lib/python3.11/dist-packages/transformers/models/clip/modeling_clip.py:377|forward|406|mark_tensor_28xla__mark_tensor")
#loc2367 = loc("778|CLIPVisionModelWithProjection[image_encoder]|CLIPVisionTransformer[image_encoder.vision_model]|CLIPEncoder[image_encoder.vision_model.encoder]|CLIPEncoderLayer[image_encoder.vision_model.encoder.layers[2]]|LayerNorm[image_encoder.vision_model.encoder.layers[2].layer_norm2]|/usr/local/lib/python3.11/dist-packages/transformers/models/clip/modeling_clip.py:377|forward|406|mark_tensor_29xla__mark_tensor")
#loc2368 = loc("779|CLIPVisionModelWithProjection[image_encoder]|CLIPVisionTransformer[image_encoder.vision_model]|CLIPEncoder[image_encoder.vision_model.encoder]|CLIPEncoderLayer[image_encoder.vision_model.encoder.layers[2]]|LayerNorm[image_encoder.vision_model.encoder.layers[2].layer_norm2]|/usr/local/lib/python3.11/dist-packages/transformers/models/clip/modeling_clip.py:377|forward|406|mark_tensor_30xla__mark_tensor")
#loc2379 = loc("1665|CLIPVisionModelWithProjection[image_encoder]|CLIPVisionTransformer[image_encoder.vision_model]|CLIPEncoder[image_encoder.vision_model.encoder]|CLIPEncoderLayer[image_encoder.vision_model.encoder.layers[14]]|LayerNorm[image_encoder.vision_model.encoder.layers[14].layer_norm2]|/usr/local/lib/python3.11/dist-packages/transformers/models/clip/modeling_clip.py:377|forward|406|mark_tensor_148xla__mark_tensor")
#loc2380 = loc("1666|CLIPVisionModelWithProjection[image_encoder]|CLIPVisionTransformer[image_encoder.vision_model]|CLIPEncoder[image_encoder.vision_model.encoder]|CLIPEncoderLayer[image_encoder.vision_model.encoder.layers[14]]|LayerNorm[image_encoder.vision_model.encoder.layers[14].layer_norm2]|/usr/local/lib/python3.11/dist-packages/transformers/models/clip/modeling_clip.py:377|forward|406|mark_tensor_149xla__mark_tensor")
#loc2381 = loc("1667|CLIPVisionModelWithProjection[image_encoder]|CLIPVisionTransformer[image_encoder.vision_model]|CLIPEncoder[image_encoder.vision_model.encoder]|CLIPEncoderLayer[image_encoder.vision_model.encoder.layers[14]]|LayerNorm[image_encoder.vision_model.encoder.layers[14].layer_norm2]|/usr/local/lib/python3.11/dist-packages/transformers/models/clip/modeling_clip.py:377|forward|406|mark_tensor_150xla__mark_tensor")
#loc2392 = loc("578|CLIPVisionModelWithProjection[image_encoder]|CLIPVisionTransformer[image_encoder.vision_model]|CLIPEncoder[image_encoder.vision_model.encoder]|CLIPEncoderLayer[image_encoder.vision_model.encoder.layers[0]]|LayerNorm[image_encoder.vision_model.encoder.layers[0].layer_norm1]|/usr/local/lib/python3.11/dist-packages/transformers/models/clip/modeling_clip.py:377|forward|396|mark_tensor_4xla__mark_tensor")
#loc2393 = loc("579|CLIPVisionModelWithProjection[image_encoder]|CLIPVisionTransformer[image_encoder.vision_model]|CLIPEncoder[image_encoder.vision_model.encoder]|CLIPEncoderLayer[image_encoder.vision_model.encoder.layers[0]]|LayerNorm[image_encoder.vision_model.encoder.layers[0].layer_norm1]|/usr/local/lib/python3.11/dist-packages/transformers/models/clip/modeling_clip.py:377|forward|396|mark_tensor_5xla__mark_tensor")
#loc2394 = loc("580|CLIPVisionModelWithProjection[image_encoder]|CLIPVisionTransformer[image_encoder.vision_model]|CLIPEncoder[image_encoder.vision_model.encoder]|CLIPEncoderLayer[image_encoder.vision_model.encoder.layers[0]]|LayerNorm[image_encoder.vision_model.encoder.layers[0].layer_norm1]|/usr/local/lib/python3.11/dist-packages/transformers/models/clip/modeling_clip.py:377|forward|396|mark_tensor_6xla__mark_tensor")
#loc2405 = loc("1533|CLIPVisionModelWithProjection[image_encoder]|CLIPVisionTransformer[image_encoder.vision_model]|CLIPEncoder[image_encoder.vision_model.encoder]|CLIPEncoderLayer[image_encoder.vision_model.encoder.layers[12]]|CLIPMLP[image_encoder.vision_model.encoder.layers[12].mlp]|GELUActivation[image_encoder.vision_model.encoder.layers[12].mlp.activation_fn]|/usr/local/lib/python3.11/dist-packages/transformers/models/clip/modeling_clip.py:361|forward|363|mark_tensor_132xla__mark_tensor")
#loc2407 = loc("629|CLIPVisionModelWithProjection[image_encoder]|CLIPVisionTransformer[image_encoder.vision_model]|CLIPEncoder[image_encoder.vision_model.encoder]|CLIPEncoderLayer[image_encoder.vision_model.encoder.layers[0]]|LayerNorm[image_encoder.vision_model.encoder.layers[0].layer_norm2]|/usr/local/lib/python3.11/dist-packages/transformers/models/clip/modeling_clip.py:377|forward|406|mark_tensor_8xla__mark_tensor")
#loc2408 = loc("630|CLIPVisionModelWithProjection[image_encoder]|CLIPVisionTransformer[image_encoder.vision_model]|CLIPEncoder[image_encoder.vision_model.encoder]|CLIPEncoderLayer[image_encoder.vision_model.encoder.layers[0]]|LayerNorm[image_encoder.vision_model.encoder.layers[0].layer_norm2]|/usr/local/lib/python3.11/dist-packages/transformers/models/clip/modeling_clip.py:377|forward|406|mark_tensor_9xla__mark_tensor")
#loc2409 = loc("631|CLIPVisionModelWithProjection[image_encoder]|CLIPVisionTransformer[image_encoder.vision_model]|CLIPEncoder[image_encoder.vision_model.encoder]|CLIPEncoderLayer[image_encoder.vision_model.encoder.layers[0]]|LayerNorm[image_encoder.vision_model.encoder.layers[0].layer_norm2]|/usr/local/lib/python3.11/dist-packages/transformers/models/clip/modeling_clip.py:377|forward|406|mark_tensor_10xla__mark_tensor")
#loc2420 = loc("703|CLIPVisionModelWithProjection[image_encoder]|CLIPVisionTransformer[image_encoder.vision_model]|CLIPEncoder[image_encoder.vision_model.encoder]|CLIPEncoderLayer[image_encoder.vision_model.encoder.layers[1]]|LayerNorm[image_encoder.vision_model.encoder.layers[1].layer_norm2]|/usr/local/lib/python3.11/dist-packages/transformers/models/clip/modeling_clip.py:377|forward|406|mark_tensor_18xla__mark_tensor")
#loc2421 = loc("704|CLIPVisionModelWithProjection[image_encoder]|CLIPVisionTransformer[image_encoder.vision_model]|CLIPEncoder[image_encoder.vision_model.encoder]|CLIPEncoderLayer[image_encoder.vision_model.encoder.layers[1]]|LayerNorm[image_encoder.vision_model.encoder.layers[1].layer_norm2]|/usr/local/lib/python3.11/dist-packages/transformers/models/clip/modeling_clip.py:377|forward|406|mark_tensor_19xla__mark_tensor")
#loc2422 = loc("705|CLIPVisionModelWithProjection[image_encoder]|CLIPVisionTransformer[image_encoder.vision_model]|CLIPEncoder[image_encoder.vision_model.encoder]|CLIPEncoderLayer[image_encoder.vision_model.encoder.layers[1]]|LayerNorm[image_encoder.vision_model.encoder.layers[1].layer_norm2]|/usr/local/lib/python3.11/dist-packages/transformers/models/clip/modeling_clip.py:377|forward|406|mark_tensor_20xla__mark_tensor")
#loc2433 = loc("719|CLIPVisionModelWithProjection[image_encoder]|CLIPVisionTransformer[image_encoder.vision_model]|CLIPEncoder[image_encoder.vision_model.encoder]|CLIPEncoderLayer[image_encoder.vision_model.encoder.layers[1]]|CLIPMLP[image_encoder.vision_model.encoder.layers[1].mlp]|GELUActivation[image_encoder.vision_model.encoder.layers[1].mlp.activation_fn]|/usr/local/lib/python3.11/dist-packages/transformers/models/clip/modeling_clip.py:361|forward|363|mark_tensor_22xla__mark_tensor")
#loc2435 = loc("565|CLIPVisionModelWithProjection[image_encoder]|CLIPVisionTransformer[image_encoder.vision_model]|LayerNorm[image_encoder.vision_model.pre_layrnorm]|/usr/local/lib/python3.11/dist-packages/transformers/models/clip/modeling_clip.py:727|forward|743|mark_tensorxla__mark_tensor")
#loc2436 = loc("566|CLIPVisionModelWithProjection[image_encoder]|CLIPVisionTransformer[image_encoder.vision_model]|LayerNorm[image_encoder.vision_model.pre_layrnorm]|/usr/local/lib/python3.11/dist-packages/transformers/models/clip/modeling_clip.py:727|forward|743|mark_tensor_1xla__mark_tensor")
#loc2437 = loc("567|CLIPVisionModelWithProjection[image_encoder]|CLIPVisionTransformer[image_encoder.vision_model]|LayerNorm[image_encoder.vision_model.pre_layrnorm]|/usr/local/lib/python3.11/dist-packages/transformers/models/clip/modeling_clip.py:727|forward|743|mark_tensor_2xla__mark_tensor")
#loc2448 = loc("925|CLIPVisionModelWithProjection[image_encoder]|CLIPVisionTransformer[image_encoder.vision_model]|CLIPEncoder[image_encoder.vision_model.encoder]|CLIPEncoderLayer[image_encoder.vision_model.encoder.layers[4]]|LayerNorm[image_encoder.vision_model.encoder.layers[4].layer_norm2]|/usr/local/lib/python3.11/dist-packages/transformers/models/clip/modeling_clip.py:377|forward|406|mark_tensor_48xla__mark_tensor")
#loc2449 = loc("926|CLIPVisionModelWithProjection[image_encoder]|CLIPVisionTransformer[image_encoder.vision_model]|CLIPEncoder[image_encoder.vision_model.encoder]|CLIPEncoderLayer[image_encoder.vision_model.encoder.layers[4]]|LayerNorm[image_encoder.vision_model.encoder.layers[4].layer_norm2]|/usr/local/lib/python3.11/dist-packages/transformers/models/clip/modeling_clip.py:377|forward|406|mark_tensor_49xla__mark_tensor")
#loc2450 = loc("927|CLIPVisionModelWithProjection[image_encoder]|CLIPVisionTransformer[image_encoder.vision_model]|CLIPEncoder[image_encoder.vision_model.encoder]|CLIPEncoderLayer[image_encoder.vision_model.encoder.layers[4]]|LayerNorm[image_encoder.vision_model.encoder.layers[4].layer_norm2]|/usr/local/lib/python3.11/dist-packages/transformers/models/clip/modeling_clip.py:377|forward|406|mark_tensor_50xla__mark_tensor")
#loc2461 = loc("652|CLIPVisionModelWithProjection[image_encoder]|CLIPVisionTransformer[image_encoder.vision_model]|CLIPEncoder[image_encoder.vision_model.encoder]|CLIPEncoderLayer[image_encoder.vision_model.encoder.layers[1]]|LayerNorm[image_encoder.vision_model.encoder.layers[1].layer_norm1]|/usr/local/lib/python3.11/dist-packages/transformers/models/clip/modeling_clip.py:377|forward|396|mark_tensor_14xla__mark_tensor")
#loc2462 = loc("653|CLIPVisionModelWithProjection[image_encoder]|CLIPVisionTransformer[image_encoder.vision_model]|CLIPEncoder[image_encoder.vision_model.encoder]|CLIPEncoderLayer[image_encoder.vision_model.encoder.layers[1]]|LayerNorm[image_encoder.vision_model.encoder.layers[1].layer_norm1]|/usr/local/lib/python3.11/dist-packages/transformers/models/clip/modeling_clip.py:377|forward|396|mark_tensor_15xla__mark_tensor")
#loc2463 = loc("654|CLIPVisionModelWithProjection[image_encoder]|CLIPVisionTransformer[image_encoder.vision_model]|CLIPEncoder[image_encoder.vision_model.encoder]|CLIPEncoderLayer[image_encoder.vision_model.encoder.layers[1]]|LayerNorm[image_encoder.vision_model.encoder.layers[1].layer_norm1]|/usr/local/lib/python3.11/dist-packages/transformers/models/clip/modeling_clip.py:377|forward|396|mark_tensor_16xla__mark_tensor")
#loc2474 = loc("1688|CLIPVisionModelWithProjection[image_encoder]|CLIPVisionTransformer[image_encoder.vision_model]|CLIPEncoder[image_encoder.vision_model.encoder]|CLIPEncoderLayer[image_encoder.vision_model.encoder.layers[15]]|LayerNorm[image_encoder.vision_model.encoder.layers[15].layer_norm1]|/usr/local/lib/python3.11/dist-packages/transformers/models/clip/modeling_clip.py:377|forward|396|mark_tensor_154xla__mark_tensor")
#loc2475 = loc("1689|CLIPVisionModelWithProjection[image_encoder]|CLIPVisionTransformer[image_encoder.vision_model]|CLIPEncoder[image_encoder.vision_model.encoder]|CLIPEncoderLayer[image_encoder.vision_model.encoder.layers[15]]|LayerNorm[image_encoder.vision_model.encoder.layers[15].layer_norm1]|/usr/local/lib/python3.11/dist-packages/transformers/models/clip/modeling_clip.py:377|forward|396|mark_tensor_155xla__mark_tensor")
#loc2476 = loc("1690|CLIPVisionModelWithProjection[image_encoder]|CLIPVisionTransformer[image_encoder.vision_model]|CLIPEncoder[image_encoder.vision_model.encoder]|CLIPEncoderLayer[image_encoder.vision_model.encoder.layers[15]]|LayerNorm[image_encoder.vision_model.encoder.layers[15].layer_norm1]|/usr/local/lib/python3.11/dist-packages/transformers/models/clip/modeling_clip.py:377|forward|396|mark_tensor_156xla__mark_tensor")
#loc2487 = loc("867|CLIPVisionModelWithProjection[image_encoder]|CLIPVisionTransformer[image_encoder.vision_model]|CLIPEncoder[image_encoder.vision_model.encoder]|CLIPEncoderLayer[image_encoder.vision_model.encoder.layers[3]]|CLIPMLP[image_encoder.vision_model.encoder.layers[3].mlp]|GELUActivation[image_encoder.vision_model.encoder.layers[3].mlp.activation_fn]|/usr/local/lib/python3.11/dist-packages/transformers/models/clip/modeling_clip.py:361|forward|363|mark_tensor_42xla__mark_tensor")
#loc2489 = loc("999|CLIPVisionModelWithProjection[image_encoder]|CLIPVisionTransformer[image_encoder.vision_model]|CLIPEncoder[image_encoder.vision_model.encoder]|CLIPEncoderLayer[image_encoder.vision_model.encoder.layers[5]]|LayerNorm[image_encoder.vision_model.encoder.layers[5].layer_norm2]|/usr/local/lib/python3.11/dist-packages/transformers/models/clip/modeling_clip.py:377|forward|406|mark_tensor_58xla__mark_tensor")
#loc2490 = loc("1000|CLIPVisionModelWithProjection[image_encoder]|CLIPVisionTransformer[image_encoder.vision_model]|CLIPEncoder[image_encoder.vision_model.encoder]|CLIPEncoderLayer[image_encoder.vision_model.encoder.layers[5]]|LayerNorm[image_encoder.vision_model.encoder.layers[5].layer_norm2]|/usr/local/lib/python3.11/dist-packages/transformers/models/clip/modeling_clip.py:377|forward|406|mark_tensor_59xla__mark_tensor")
#loc2491 = loc("1001|CLIPVisionModelWithProjection[image_encoder]|CLIPVisionTransformer[image_encoder.vision_model]|CLIPEncoder[image_encoder.vision_model.encoder]|CLIPEncoderLayer[image_encoder.vision_model.encoder.layers[5]]|LayerNorm[image_encoder.vision_model.encoder.layers[5].layer_norm2]|/usr/local/lib/python3.11/dist-packages/transformers/models/clip/modeling_clip.py:377|forward|406|mark_tensor_60xla__mark_tensor")
#loc2502 = loc("793|CLIPVisionModelWithProjection[image_encoder]|CLIPVisionTransformer[image_encoder.vision_model]|CLIPEncoder[image_encoder.vision_model.encoder]|CLIPEncoderLayer[image_encoder.vision_model.encoder.layers[2]]|CLIPMLP[image_encoder.vision_model.encoder.layers[2].mlp]|GELUActivation[image_encoder.vision_model.encoder.layers[2].mlp.activation_fn]|/usr/local/lib/python3.11/dist-packages/transformers/models/clip/modeling_clip.py:361|forward|363|mark_tensor_32xla__mark_tensor")
#loc2504 = loc("948|CLIPVisionModelWithProjection[image_encoder]|CLIPVisionTransformer[image_encoder.vision_model]|CLIPEncoder[image_encoder.vision_model.encoder]|CLIPEncoderLayer[image_encoder.vision_model.encoder.layers[5]]|LayerNorm[image_encoder.vision_model.encoder.layers[5].layer_norm1]|/usr/local/lib/python3.11/dist-packages/transformers/models/clip/modeling_clip.py:377|forward|396|mark_tensor_54xla__mark_tensor")
#loc2505 = loc("949|CLIPVisionModelWithProjection[image_encoder]|CLIPVisionTransformer[image_encoder.vision_model]|CLIPEncoder[image_encoder.vision_model.encoder]|CLIPEncoderLayer[image_encoder.vision_model.encoder.layers[5]]|LayerNorm[image_encoder.vision_model.encoder.layers[5].layer_norm1]|/usr/local/lib/python3.11/dist-packages/transformers/models/clip/modeling_clip.py:377|forward|396|mark_tensor_55xla__mark_tensor")
#loc2506 = loc("950|CLIPVisionModelWithProjection[image_encoder]|CLIPVisionTransformer[image_encoder.vision_model]|CLIPEncoder[image_encoder.vision_model.encoder]|CLIPEncoderLayer[image_encoder.vision_model.encoder.layers[5]]|LayerNorm[image_encoder.vision_model.encoder.layers[5].layer_norm1]|/usr/local/lib/python3.11/dist-packages/transformers/models/clip/modeling_clip.py:377|forward|396|mark_tensor_56xla__mark_tensor")
#loc2517 = loc("800|CLIPVisionModelWithProjection[image_encoder]|CLIPVisionTransformer[image_encoder.vision_model]|CLIPEncoder[image_encoder.vision_model.encoder]|CLIPEncoderLayer[image_encoder.vision_model.encoder.layers[3]]|LayerNorm[image_encoder.vision_model.encoder.layers[3].layer_norm1]|/usr/local/lib/python3.11/dist-packages/transformers/models/clip/modeling_clip.py:377|forward|396|mark_tensor_34xla__mark_tensor")
#loc2518 = loc("801|CLIPVisionModelWithProjection[image_encoder]|CLIPVisionTransformer[image_encoder.vision_model]|CLIPEncoder[image_encoder.vision_model.encoder]|CLIPEncoderLayer[image_encoder.vision_model.encoder.layers[3]]|LayerNorm[image_encoder.vision_model.encoder.layers[3].layer_norm1]|/usr/local/lib/python3.11/dist-packages/transformers/models/clip/modeling_clip.py:377|forward|396|mark_tensor_35xla__mark_tensor")
#loc2519 = loc("802|CLIPVisionModelWithProjection[image_encoder]|CLIPVisionTransformer[image_encoder.vision_model]|CLIPEncoder[image_encoder.vision_model.encoder]|CLIPEncoderLayer[image_encoder.vision_model.encoder.layers[3]]|LayerNorm[image_encoder.vision_model.encoder.layers[3].layer_norm1]|/usr/local/lib/python3.11/dist-packages/transformers/models/clip/modeling_clip.py:377|forward|396|mark_tensor_36xla__mark_tensor")
#loc2530 = loc("1762|CLIPVisionModelWithProjection[image_encoder]|CLIPVisionTransformer[image_encoder.vision_model]|CLIPEncoder[image_encoder.vision_model.encoder]|CLIPEncoderLayer[image_encoder.vision_model.encoder.layers[16]]|LayerNorm[image_encoder.vision_model.encoder.layers[16].layer_norm1]|/usr/local/lib/python3.11/dist-packages/transformers/models/clip/modeling_clip.py:377|forward|396|mark_tensor_164xla__mark_tensor")
#loc2531 = loc("1763|CLIPVisionModelWithProjection[image_encoder]|CLIPVisionTransformer[image_encoder.vision_model]|CLIPEncoder[image_encoder.vision_model.encoder]|CLIPEncoderLayer[image_encoder.vision_model.encoder.layers[16]]|LayerNorm[image_encoder.vision_model.encoder.layers[16].layer_norm1]|/usr/local/lib/python3.11/dist-packages/transformers/models/clip/modeling_clip.py:377|forward|396|mark_tensor_165xla__mark_tensor")
#loc2532 = loc("1764|CLIPVisionModelWithProjection[image_encoder]|CLIPVisionTransformer[image_encoder.vision_model]|CLIPEncoder[image_encoder.vision_model.encoder]|CLIPEncoderLayer[image_encoder.vision_model.encoder.layers[16]]|LayerNorm[image_encoder.vision_model.encoder.layers[16].layer_norm1]|/usr/local/lib/python3.11/dist-packages/transformers/models/clip/modeling_clip.py:377|forward|396|mark_tensor_166xla__mark_tensor")
#loc2543 = loc("1295|CLIPVisionModelWithProjection[image_encoder]|CLIPVisionTransformer[image_encoder.vision_model]|CLIPEncoder[image_encoder.vision_model.encoder]|CLIPEncoderLayer[image_encoder.vision_model.encoder.layers[9]]|LayerNorm[image_encoder.vision_model.encoder.layers[9].layer_norm2]|/usr/local/lib/python3.11/dist-packages/transformers/models/clip/modeling_clip.py:377|forward|406|mark_tensor_98xla__mark_tensor")
#loc2544 = loc("1296|CLIPVisionModelWithProjection[image_encoder]|CLIPVisionTransformer[image_encoder.vision_model]|CLIPEncoder[image_encoder.vision_model.encoder]|CLIPEncoderLayer[image_encoder.vision_model.encoder.layers[9]]|LayerNorm[image_encoder.vision_model.encoder.layers[9].layer_norm2]|/usr/local/lib/python3.11/dist-packages/transformers/models/clip/modeling_clip.py:377|forward|406|mark_tensor_99xla__mark_tensor")
#loc2545 = loc("1297|CLIPVisionModelWithProjection[image_encoder]|CLIPVisionTransformer[image_encoder.vision_model]|CLIPEncoder[image_encoder.vision_model.encoder]|CLIPEncoderLayer[image_encoder.vision_model.encoder.layers[9]]|LayerNorm[image_encoder.vision_model.encoder.layers[9].layer_norm2]|/usr/local/lib/python3.11/dist-packages/transformers/models/clip/modeling_clip.py:377|forward|406|mark_tensor_100xla__mark_tensor")
#loc2556 = loc("2627|CLIPVisionModelWithProjection[image_encoder]|CLIPVisionTransformer[image_encoder.vision_model]|CLIPEncoder[image_encoder.vision_model.encoder]|CLIPEncoderLayer[image_encoder.vision_model.encoder.layers[27]]|LayerNorm[image_encoder.vision_model.encoder.layers[27].layer_norm2]|/usr/local/lib/python3.11/dist-packages/transformers/models/clip/modeling_clip.py:377|forward|406|mark_tensor_278xla__mark_tensor")
#loc2557 = loc("2628|CLIPVisionModelWithProjection[image_encoder]|CLIPVisionTransformer[image_encoder.vision_model]|CLIPEncoder[image_encoder.vision_model.encoder]|CLIPEncoderLayer[image_encoder.vision_model.encoder.layers[27]]|LayerNorm[image_encoder.vision_model.encoder.layers[27].layer_norm2]|/usr/local/lib/python3.11/dist-packages/transformers/models/clip/modeling_clip.py:377|forward|406|mark_tensor_279xla__mark_tensor")
#loc2558 = loc("2629|CLIPVisionModelWithProjection[image_encoder]|CLIPVisionTransformer[image_encoder.vision_model]|CLIPEncoder[image_encoder.vision_model.encoder]|CLIPEncoderLayer[image_encoder.vision_model.encoder.layers[27]]|LayerNorm[image_encoder.vision_model.encoder.layers[27].layer_norm2]|/usr/local/lib/python3.11/dist-packages/transformers/models/clip/modeling_clip.py:377|forward|406|mark_tensor_280xla__mark_tensor")
#loc2569 = loc("2109|CLIPVisionModelWithProjection[image_encoder]|CLIPVisionTransformer[image_encoder.vision_model]|CLIPEncoder[image_encoder.vision_model.encoder]|CLIPEncoderLayer[image_encoder.vision_model.encoder.layers[20]]|LayerNorm[image_encoder.vision_model.encoder.layers[20].layer_norm2]|/usr/local/lib/python3.11/dist-packages/transformers/models/clip/modeling_clip.py:377|forward|406|mark_tensor_208xla__mark_tensor")
#loc2570 = loc("2110|CLIPVisionModelWithProjection[image_encoder]|CLIPVisionTransformer[image_encoder.vision_model]|CLIPEncoder[image_encoder.vision_model.encoder]|CLIPEncoderLayer[image_encoder.vision_model.encoder.layers[20]]|LayerNorm[image_encoder.vision_model.encoder.layers[20].layer_norm2]|/usr/local/lib/python3.11/dist-packages/transformers/models/clip/modeling_clip.py:377|forward|406|mark_tensor_209xla__mark_tensor")
#loc2571 = loc("2111|CLIPVisionModelWithProjection[image_encoder]|CLIPVisionTransformer[image_encoder.vision_model]|CLIPEncoder[image_encoder.vision_model.encoder]|CLIPEncoderLayer[image_encoder.vision_model.encoder.layers[20]]|LayerNorm[image_encoder.vision_model.encoder.layers[20].layer_norm2]|/usr/local/lib/python3.11/dist-packages/transformers/models/clip/modeling_clip.py:377|forward|406|mark_tensor_210xla__mark_tensor")
#loc2582 = loc("1739|CLIPVisionModelWithProjection[image_encoder]|CLIPVisionTransformer[image_encoder.vision_model]|CLIPEncoder[image_encoder.vision_model.encoder]|CLIPEncoderLayer[image_encoder.vision_model.encoder.layers[15]]|LayerNorm[image_encoder.vision_model.encoder.layers[15].layer_norm2]|/usr/local/lib/python3.11/dist-packages/transformers/models/clip/modeling_clip.py:377|forward|406|mark_tensor_158xla__mark_tensor")
#loc2583 = loc("1740|CLIPVisionModelWithProjection[image_encoder]|CLIPVisionTransformer[image_encoder.vision_model]|CLIPEncoder[image_encoder.vision_model.encoder]|CLIPEncoderLayer[image_encoder.vision_model.encoder.layers[15]]|LayerNorm[image_encoder.vision_model.encoder.layers[15].layer_norm2]|/usr/local/lib/python3.11/dist-packages/transformers/models/clip/modeling_clip.py:377|forward|406|mark_tensor_159xla__mark_tensor")
#loc2584 = loc("1741|CLIPVisionModelWithProjection[image_encoder]|CLIPVisionTransformer[image_encoder.vision_model]|CLIPEncoder[image_encoder.vision_model.encoder]|CLIPEncoderLayer[image_encoder.vision_model.encoder.layers[15]]|LayerNorm[image_encoder.vision_model.encoder.layers[15].layer_norm2]|/usr/local/lib/python3.11/dist-packages/transformers/models/clip/modeling_clip.py:377|forward|406|mark_tensor_160xla__mark_tensor")
#loc2595 = loc("1311|CLIPVisionModelWithProjection[image_encoder]|CLIPVisionTransformer[image_encoder.vision_model]|CLIPEncoder[image_encoder.vision_model.encoder]|CLIPEncoderLayer[image_encoder.vision_model.encoder.layers[9]]|CLIPMLP[image_encoder.vision_model.encoder.layers[9].mlp]|GELUActivation[image_encoder.vision_model.encoder.layers[9].mlp.activation_fn]|/usr/local/lib/python3.11/dist-packages/transformers/models/clip/modeling_clip.py:361|forward|363|mark_tensor_102xla__mark_tensor")
#loc2597 = loc("3059|IPAdapterPlusImageProjection[resampler]|IPAdapterPlusImageProjectionBlock[resampler.layers[2]]|LayerNorm[resampler.layers[2].ln1]|/usr/local/lib/python3.11/dist-packages/diffusers/models/embeddings.py:2245|forward|2247|mark_tensor_360xla__mark_tensor")
#loc2598 = loc("3060|IPAdapterPlusImageProjection[resampler]|IPAdapterPlusImageProjectionBlock[resampler.layers[2]]|LayerNorm[resampler.layers[2].ln1]|/usr/local/lib/python3.11/dist-packages/diffusers/models/embeddings.py:2245|forward|2247|mark_tensor_361xla__mark_tensor")
#loc2599 = loc("3061|IPAdapterPlusImageProjection[resampler]|IPAdapterPlusImageProjectionBlock[resampler.layers[2]]|LayerNorm[resampler.layers[2].ln1]|/usr/local/lib/python3.11/dist-packages/diffusers/models/embeddings.py:2245|forward|2247|mark_tensor_362xla__mark_tensor")
#loc2610 = loc("1813|CLIPVisionModelWithProjection[image_encoder]|CLIPVisionTransformer[image_encoder.vision_model]|CLIPEncoder[image_encoder.vision_model.encoder]|CLIPEncoderLayer[image_encoder.vision_model.encoder.layers[16]]|LayerNorm[image_encoder.vision_model.encoder.layers[16].layer_norm2]|/usr/local/lib/python3.11/dist-packages/transformers/models/clip/modeling_clip.py:377|forward|406|mark_tensor_168xla__mark_tensor")
#loc2611 = loc("1814|CLIPVisionModelWithProjection[image_encoder]|CLIPVisionTransformer[image_encoder.vision_model]|CLIPEncoder[image_encoder.vision_model.encoder]|CLIPEncoderLayer[image_encoder.vision_model.encoder.layers[16]]|LayerNorm[image_encoder.vision_model.encoder.layers[16].layer_norm2]|/usr/local/lib/python3.11/dist-packages/transformers/models/clip/modeling_clip.py:377|forward|406|mark_tensor_169xla__mark_tensor")
#loc2612 = loc("1815|CLIPVisionModelWithProjection[image_encoder]|CLIPVisionTransformer[image_encoder.vision_model]|CLIPEncoder[image_encoder.vision_model.encoder]|CLIPEncoderLayer[image_encoder.vision_model.encoder.layers[16]]|LayerNorm[image_encoder.vision_model.encoder.layers[16].layer_norm2]|/usr/local/lib/python3.11/dist-packages/transformers/models/clip/modeling_clip.py:377|forward|406|mark_tensor_170xla__mark_tensor")
#loc2623 = loc("2035|CLIPVisionModelWithProjection[image_encoder]|CLIPVisionTransformer[image_encoder.vision_model]|CLIPEncoder[image_encoder.vision_model.encoder]|CLIPEncoderLayer[image_encoder.vision_model.encoder.layers[19]]|LayerNorm[image_encoder.vision_model.encoder.layers[19].layer_norm2]|/usr/local/lib/python3.11/dist-packages/transformers/models/clip/modeling_clip.py:377|forward|406|mark_tensor_198xla__mark_tensor")
#loc2624 = loc("2036|CLIPVisionModelWithProjection[image_encoder]|CLIPVisionTransformer[image_encoder.vision_model]|CLIPEncoder[image_encoder.vision_model.encoder]|CLIPEncoderLayer[image_encoder.vision_model.encoder.layers[19]]|LayerNorm[image_encoder.vision_model.encoder.layers[19].layer_norm2]|/usr/local/lib/python3.11/dist-packages/transformers/models/clip/modeling_clip.py:377|forward|406|mark_tensor_199xla__mark_tensor")
#loc2625 = loc("2037|CLIPVisionModelWithProjection[image_encoder]|CLIPVisionTransformer[image_encoder.vision_model]|CLIPEncoder[image_encoder.vision_model.encoder]|CLIPEncoderLayer[image_encoder.vision_model.encoder.layers[19]]|LayerNorm[image_encoder.vision_model.encoder.layers[19].layer_norm2]|/usr/local/lib/python3.11/dist-packages/transformers/models/clip/modeling_clip.py:377|forward|406|mark_tensor_200xla__mark_tensor")
#loc2636 = loc("851|CLIPVisionModelWithProjection[image_encoder]|CLIPVisionTransformer[image_encoder.vision_model]|CLIPEncoder[image_encoder.vision_model.encoder]|CLIPEncoderLayer[image_encoder.vision_model.encoder.layers[3]]|LayerNorm[image_encoder.vision_model.encoder.layers[3].layer_norm2]|/usr/local/lib/python3.11/dist-packages/transformers/models/clip/modeling_clip.py:377|forward|406|mark_tensor_38xla__mark_tensor")
#loc2637 = loc("852|CLIPVisionModelWithProjection[image_encoder]|CLIPVisionTransformer[image_encoder.vision_model]|CLIPEncoder[image_encoder.vision_model.encoder]|CLIPEncoderLayer[image_encoder.vision_model.encoder.layers[3]]|LayerNorm[image_encoder.vision_model.encoder.layers[3].layer_norm2]|/usr/local/lib/python3.11/dist-packages/transformers/models/clip/modeling_clip.py:377|forward|406|mark_tensor_39xla__mark_tensor")
#loc2638 = loc("853|CLIPVisionModelWithProjection[image_encoder]|CLIPVisionTransformer[image_encoder.vision_model]|CLIPEncoder[image_encoder.vision_model.encoder]|CLIPEncoderLayer[image_encoder.vision_model.encoder.layers[3]]|LayerNorm[image_encoder.vision_model.encoder.layers[3].layer_norm2]|/usr/local/lib/python3.11/dist-packages/transformers/models/clip/modeling_clip.py:377|forward|406|mark_tensor_40xla__mark_tensor")
#loc2649 = loc("1977|CLIPVisionModelWithProjection[image_encoder]|CLIPVisionTransformer[image_encoder.vision_model]|CLIPEncoder[image_encoder.vision_model.encoder]|CLIPEncoderLayer[image_encoder.vision_model.encoder.layers[18]]|CLIPMLP[image_encoder.vision_model.encoder.layers[18].mlp]|GELUActivation[image_encoder.vision_model.encoder.layers[18].mlp.activation_fn]|/usr/local/lib/python3.11/dist-packages/transformers/models/clip/modeling_clip.py:361|forward|363|mark_tensor_192xla__mark_tensor")
#loc2651 = loc("3209|IPAdapterPlusImageProjection[resampler]|IPAdapterPlusImageProjectionBlock[resampler.layers[3]]|Sequential[resampler.layers[3].ff]|FeedForward[getattr(resampler.layers[3].ff, '1')]|GELU[getattr(resampler.layers[3].ff, '1').net[0]]|/usr/local/lib/python3.11/dist-packages/diffusers/models/activations.py:81|gelu|85|mark_tensor_382xla__mark_tensor")
#loc2653 = loc("1369|CLIPVisionModelWithProjection[image_encoder]|CLIPVisionTransformer[image_encoder.vision_model]|CLIPEncoder[image_encoder.vision_model.encoder]|CLIPEncoderLayer[image_encoder.vision_model.encoder.layers[10]]|LayerNorm[image_encoder.vision_model.encoder.layers[10].layer_norm2]|/usr/local/lib/python3.11/dist-packages/transformers/models/clip/modeling_clip.py:377|forward|406|mark_tensor_108xla__mark_tensor")
#loc2654 = loc("1370|CLIPVisionModelWithProjection[image_encoder]|CLIPVisionTransformer[image_encoder.vision_model]|CLIPEncoder[image_encoder.vision_model.encoder]|CLIPEncoderLayer[image_encoder.vision_model.encoder.layers[10]]|LayerNorm[image_encoder.vision_model.encoder.layers[10].layer_norm2]|/usr/local/lib/python3.11/dist-packages/transformers/models/clip/modeling_clip.py:377|forward|406|mark_tensor_109xla__mark_tensor")
#loc2655 = loc("1371|CLIPVisionModelWithProjection[image_encoder]|CLIPVisionTransformer[image_encoder.vision_model]|CLIPEncoder[image_encoder.vision_model.encoder]|CLIPEncoderLayer[image_encoder.vision_model.encoder.layers[10]]|LayerNorm[image_encoder.vision_model.encoder.layers[10].layer_norm2]|/usr/local/lib/python3.11/dist-packages/transformers/models/clip/modeling_clip.py:377|forward|406|mark_tensor_110xla__mark_tensor")
#loc2666 = loc("2889|IPAdapterPlusImageProjection[resampler]|IPAdapterPlusImageProjectionBlock[resampler.layers[0]]|LayerNorm[resampler.layers[0].ln1]|/usr/local/lib/python3.11/dist-packages/diffusers/models/embeddings.py:2245|forward|2247|mark_tensor_332xla__mark_tensor")
#loc2667 = loc("2890|IPAdapterPlusImageProjection[resampler]|IPAdapterPlusImageProjectionBlock[resampler.layers[0]]|LayerNorm[resampler.layers[0].ln1]|/usr/local/lib/python3.11/dist-packages/diffusers/models/embeddings.py:2245|forward|2247|mark_tensor_333xla__mark_tensor")
#loc2668 = loc("2891|IPAdapterPlusImageProjection[resampler]|IPAdapterPlusImageProjectionBlock[resampler.layers[0]]|LayerNorm[resampler.layers[0].ln1]|/usr/local/lib/python3.11/dist-packages/diffusers/models/embeddings.py:2245|forward|2247|mark_tensor_334xla__mark_tensor")
#loc2679 = loc("1385|CLIPVisionModelWithProjection[image_encoder]|CLIPVisionTransformer[image_encoder.vision_model]|CLIPEncoder[image_encoder.vision_model.encoder]|CLIPEncoderLayer[image_encoder.vision_model.encoder.layers[10]]|CLIPMLP[image_encoder.vision_model.encoder.layers[10].mlp]|GELUActivation[image_encoder.vision_model.encoder.layers[10].mlp.activation_fn]|/usr/local/lib/python3.11/dist-packages/transformers/models/clip/modeling_clip.py:361|forward|363|mark_tensor_112xla__mark_tensor")
#loc2681 = loc("2132|CLIPVisionModelWithProjection[image_encoder]|CLIPVisionTransformer[image_encoder.vision_model]|CLIPEncoder[image_encoder.vision_model.encoder]|CLIPEncoderLayer[image_encoder.vision_model.encoder.layers[21]]|LayerNorm[image_encoder.vision_model.encoder.layers[21].layer_norm1]|/usr/local/lib/python3.11/dist-packages/transformers/models/clip/modeling_clip.py:377|forward|396|mark_tensor_214xla__mark_tensor")
#loc2682 = loc("2133|CLIPVisionModelWithProjection[image_encoder]|CLIPVisionTransformer[image_encoder.vision_model]|CLIPEncoder[image_encoder.vision_model.encoder]|CLIPEncoderLayer[image_encoder.vision_model.encoder.layers[21]]|LayerNorm[image_encoder.vision_model.encoder.layers[21].layer_norm1]|/usr/local/lib/python3.11/dist-packages/transformers/models/clip/modeling_clip.py:377|forward|396|mark_tensor_215xla__mark_tensor")
#loc2683 = loc("2134|CLIPVisionModelWithProjection[image_encoder]|CLIPVisionTransformer[image_encoder.vision_model]|CLIPEncoder[image_encoder.vision_model.encoder]|CLIPEncoderLayer[image_encoder.vision_model.encoder.layers[21]]|LayerNorm[image_encoder.vision_model.encoder.layers[21].layer_norm1]|/usr/local/lib/python3.11/dist-packages/transformers/models/clip/modeling_clip.py:377|forward|396|mark_tensor_216xla__mark_tensor")
#loc2694 = loc("1392|CLIPVisionModelWithProjection[image_encoder]|CLIPVisionTransformer[image_encoder.vision_model]|CLIPEncoder[image_encoder.vision_model.encoder]|CLIPEncoderLayer[image_encoder.vision_model.encoder.layers[11]]|LayerNorm[image_encoder.vision_model.encoder.layers[11].layer_norm1]|/usr/local/lib/python3.11/dist-packages/transformers/models/clip/modeling_clip.py:377|forward|396|mark_tensor_114xla__mark_tensor")
#loc2695 = loc("1393|CLIPVisionModelWithProjection[image_encoder]|CLIPVisionTransformer[image_encoder.vision_model]|CLIPEncoder[image_encoder.vision_model.encoder]|CLIPEncoderLayer[image_encoder.vision_model.encoder.layers[11]]|LayerNorm[image_encoder.vision_model.encoder.layers[11].layer_norm1]|/usr/local/lib/python3.11/dist-packages/transformers/models/clip/modeling_clip.py:377|forward|396|mark_tensor_115xla__mark_tensor")
#loc2696 = loc("1394|CLIPVisionModelWithProjection[image_encoder]|CLIPVisionTransformer[image_encoder.vision_model]|CLIPEncoder[image_encoder.vision_model.encoder]|CLIPEncoderLayer[image_encoder.vision_model.encoder.layers[11]]|LayerNorm[image_encoder.vision_model.encoder.layers[11].layer_norm1]|/usr/local/lib/python3.11/dist-packages/transformers/models/clip/modeling_clip.py:377|forward|396|mark_tensor_116xla__mark_tensor")
#loc2707 = loc("1443|CLIPVisionModelWithProjection[image_encoder]|CLIPVisionTransformer[image_encoder.vision_model]|CLIPEncoder[image_encoder.vision_model.encoder]|CLIPEncoderLayer[image_encoder.vision_model.encoder.layers[11]]|LayerNorm[image_encoder.vision_model.encoder.layers[11].layer_norm2]|/usr/local/lib/python3.11/dist-packages/transformers/models/clip/modeling_clip.py:377|forward|406|mark_tensor_118xla__mark_tensor")
#loc2708 = loc("1444|CLIPVisionModelWithProjection[image_encoder]|CLIPVisionTransformer[image_encoder.vision_model]|CLIPEncoder[image_encoder.vision_model.encoder]|CLIPEncoderLayer[image_encoder.vision_model.encoder.layers[11]]|LayerNorm[image_encoder.vision_model.encoder.layers[11].layer_norm2]|/usr/local/lib/python3.11/dist-packages/transformers/models/clip/modeling_clip.py:377|forward|406|mark_tensor_119xla__mark_tensor")
#loc2709 = loc("1445|CLIPVisionModelWithProjection[image_encoder]|CLIPVisionTransformer[image_encoder.vision_model]|CLIPEncoder[image_encoder.vision_model.encoder]|CLIPEncoderLayer[image_encoder.vision_model.encoder.layers[11]]|LayerNorm[image_encoder.vision_model.encoder.layers[11].layer_norm2]|/usr/local/lib/python3.11/dist-packages/transformers/models/clip/modeling_clip.py:377|forward|406|mark_tensor_120xla__mark_tensor")
#loc2720 = loc("2280|CLIPVisionModelWithProjection[image_encoder]|CLIPVisionTransformer[image_encoder.vision_model]|CLIPEncoder[image_encoder.vision_model.encoder]|CLIPEncoderLayer[image_encoder.vision_model.encoder.layers[23]]|LayerNorm[image_encoder.vision_model.encoder.layers[23].layer_norm1]|/usr/local/lib/python3.11/dist-packages/transformers/models/clip/modeling_clip.py:377|forward|396|mark_tensor_234xla__mark_tensor")
#loc2721 = loc("2281|CLIPVisionModelWithProjection[image_encoder]|CLIPVisionTransformer[image_encoder.vision_model]|CLIPEncoder[image_encoder.vision_model.encoder]|CLIPEncoderLayer[image_encoder.vision_model.encoder.layers[23]]|LayerNorm[image_encoder.vision_model.encoder.layers[23].layer_norm1]|/usr/local/lib/python3.11/dist-packages/transformers/models/clip/modeling_clip.py:377|forward|396|mark_tensor_235xla__mark_tensor")
#loc2722 = loc("2282|CLIPVisionModelWithProjection[image_encoder]|CLIPVisionTransformer[image_encoder.vision_model]|CLIPEncoder[image_encoder.vision_model.encoder]|CLIPEncoderLayer[image_encoder.vision_model.encoder.layers[23]]|LayerNorm[image_encoder.vision_model.encoder.layers[23].layer_norm1]|/usr/local/lib/python3.11/dist-packages/transformers/models/clip/modeling_clip.py:377|forward|396|mark_tensor_236xla__mark_tensor")
#loc2733 = loc("1244|CLIPVisionModelWithProjection[image_encoder]|CLIPVisionTransformer[image_encoder.vision_model]|CLIPEncoder[image_encoder.vision_model.encoder]|CLIPEncoderLayer[image_encoder.vision_model.encoder.layers[9]]|LayerNorm[image_encoder.vision_model.encoder.layers[9].layer_norm1]|/usr/local/lib/python3.11/dist-packages/transformers/models/clip/modeling_clip.py:377|forward|396|mark_tensor_94xla__mark_tensor")
#loc2734 = loc("1245|CLIPVisionModelWithProjection[image_encoder]|CLIPVisionTransformer[image_encoder.vision_model]|CLIPEncoder[image_encoder.vision_model.encoder]|CLIPEncoderLayer[image_encoder.vision_model.encoder.layers[9]]|LayerNorm[image_encoder.vision_model.encoder.layers[9].layer_norm1]|/usr/local/lib/python3.11/dist-packages/transformers/models/clip/modeling_clip.py:377|forward|396|mark_tensor_95xla__mark_tensor")
#loc2735 = loc("1246|CLIPVisionModelWithProjection[image_encoder]|CLIPVisionTransformer[image_encoder.vision_model]|CLIPEncoder[image_encoder.vision_model.encoder]|CLIPEncoderLayer[image_encoder.vision_model.encoder.layers[9]]|LayerNorm[image_encoder.vision_model.encoder.layers[9].layer_norm1]|/usr/local/lib/python3.11/dist-packages/transformers/models/clip/modeling_clip.py:377|forward|396|mark_tensor_96xla__mark_tensor")
#loc2746 = loc("1517|CLIPVisionModelWithProjection[image_encoder]|CLIPVisionTransformer[image_encoder.vision_model]|CLIPEncoder[image_encoder.vision_model.encoder]|CLIPEncoderLayer[image_encoder.vision_model.encoder.layers[12]]|LayerNorm[image_encoder.vision_model.encoder.layers[12].layer_norm2]|/usr/local/lib/python3.11/dist-packages/transformers/models/clip/modeling_clip.py:377|forward|406|mark_tensor_128xla__mark_tensor")
#loc2747 = loc("1518|CLIPVisionModelWithProjection[image_encoder]|CLIPVisionTransformer[image_encoder.vision_model]|CLIPEncoder[image_encoder.vision_model.encoder]|CLIPEncoderLayer[image_encoder.vision_model.encoder.layers[12]]|LayerNorm[image_encoder.vision_model.encoder.layers[12].layer_norm2]|/usr/local/lib/python3.11/dist-packages/transformers/models/clip/modeling_clip.py:377|forward|406|mark_tensor_129xla__mark_tensor")
#loc2748 = loc("1519|CLIPVisionModelWithProjection[image_encoder]|CLIPVisionTransformer[image_encoder.vision_model]|CLIPEncoder[image_encoder.vision_model.encoder]|CLIPEncoderLayer[image_encoder.vision_model.encoder.layers[12]]|LayerNorm[image_encoder.vision_model.encoder.layers[12].layer_norm2]|/usr/local/lib/python3.11/dist-packages/transformers/models/clip/modeling_clip.py:377|forward|406|mark_tensor_130xla__mark_tensor")
#loc2759 = loc("1015|CLIPVisionModelWithProjection[image_encoder]|CLIPVisionTransformer[image_encoder.vision_model]|CLIPEncoder[image_encoder.vision_model.encoder]|CLIPEncoderLayer[image_encoder.vision_model.encoder.layers[5]]|CLIPMLP[image_encoder.vision_model.encoder.layers[5].mlp]|GELUActivation[image_encoder.vision_model.encoder.layers[5].mlp.activation_fn]|/usr/local/lib/python3.11/dist-packages/transformers/models/clip/modeling_clip.py:361|forward|363|mark_tensor_62xla__mark_tensor")
#loc2761 = loc("1961|CLIPVisionModelWithProjection[image_encoder]|CLIPVisionTransformer[image_encoder.vision_model]|CLIPEncoder[image_encoder.vision_model.encoder]|CLIPEncoderLayer[image_encoder.vision_model.encoder.layers[18]]|LayerNorm[image_encoder.vision_model.encoder.layers[18].layer_norm2]|/usr/local/lib/python3.11/dist-packages/transformers/models/clip/modeling_clip.py:377|forward|406|mark_tensor_188xla__mark_tensor")
#loc2762 = loc("1962|CLIPVisionModelWithProjection[image_encoder]|CLIPVisionTransformer[image_encoder.vision_model]|CLIPEncoder[image_encoder.vision_model.encoder]|CLIPEncoderLayer[image_encoder.vision_model.encoder.layers[18]]|LayerNorm[image_encoder.vision_model.encoder.layers[18].layer_norm2]|/usr/local/lib/python3.11/dist-packages/transformers/models/clip/modeling_clip.py:377|forward|406|mark_tensor_189xla__mark_tensor")
#loc2763 = loc("1963|CLIPVisionModelWithProjection[image_encoder]|CLIPVisionTransformer[image_encoder.vision_model]|CLIPEncoder[image_encoder.vision_model.encoder]|CLIPEncoderLayer[image_encoder.vision_model.encoder.layers[18]]|LayerNorm[image_encoder.vision_model.encoder.layers[18].layer_norm2]|/usr/local/lib/python3.11/dist-packages/transformers/models/clip/modeling_clip.py:377|forward|406|mark_tensor_190xla__mark_tensor")
#loc2774 = loc("1591|CLIPVisionModelWithProjection[image_encoder]|CLIPVisionTransformer[image_encoder.vision_model]|CLIPEncoder[image_encoder.vision_model.encoder]|CLIPEncoderLayer[image_encoder.vision_model.encoder.layers[13]]|LayerNorm[image_encoder.vision_model.encoder.layers[13].layer_norm2]|/usr/local/lib/python3.11/dist-packages/transformers/models/clip/modeling_clip.py:377|forward|406|mark_tensor_138xla__mark_tensor")
#loc2775 = loc("1592|CLIPVisionModelWithProjection[image_encoder]|CLIPVisionTransformer[image_encoder.vision_model]|CLIPEncoder[image_encoder.vision_model.encoder]|CLIPEncoderLayer[image_encoder.vision_model.encoder.layers[13]]|LayerNorm[image_encoder.vision_model.encoder.layers[13].layer_norm2]|/usr/local/lib/python3.11/dist-packages/transformers/models/clip/modeling_clip.py:377|forward|406|mark_tensor_139xla__mark_tensor")
#loc2776 = loc("1593|CLIPVisionModelWithProjection[image_encoder]|CLIPVisionTransformer[image_encoder.vision_model]|CLIPEncoder[image_encoder.vision_model.encoder]|CLIPEncoderLayer[image_encoder.vision_model.encoder.layers[13]]|LayerNorm[image_encoder.vision_model.encoder.layers[13].layer_norm2]|/usr/local/lib/python3.11/dist-packages/transformers/models/clip/modeling_clip.py:377|forward|406|mark_tensor_140xla__mark_tensor")
#loc2787 = loc("2876|IPAdapterPlusImageProjection[resampler]|IPAdapterPlusImageProjectionBlock[resampler.layers[0]]|LayerNorm[resampler.layers[0].ln0]|/usr/local/lib/python3.11/dist-packages/diffusers/models/embeddings.py:2245|forward|2246|mark_tensor_328xla__mark_tensor")
#loc2788 = loc("2877|IPAdapterPlusImageProjection[resampler]|IPAdapterPlusImageProjectionBlock[resampler.layers[0]]|LayerNorm[resampler.layers[0].ln0]|/usr/local/lib/python3.11/dist-packages/diffusers/models/embeddings.py:2245|forward|2246|mark_tensor_329xla__mark_tensor")
#loc2789 = loc("2878|IPAdapterPlusImageProjection[resampler]|IPAdapterPlusImageProjectionBlock[resampler.layers[0]]|LayerNorm[resampler.layers[0].ln0]|/usr/local/lib/python3.11/dist-packages/diffusers/models/embeddings.py:2245|forward|2246|mark_tensor_330xla__mark_tensor")
#loc2800 = loc("1022|CLIPVisionModelWithProjection[image_encoder]|CLIPVisionTransformer[image_encoder.vision_model]|CLIPEncoder[image_encoder.vision_model.encoder]|CLIPEncoderLayer[image_encoder.vision_model.encoder.layers[6]]|LayerNorm[image_encoder.vision_model.encoder.layers[6].layer_norm1]|/usr/local/lib/python3.11/dist-packages/transformers/models/clip/modeling_clip.py:377|forward|396|mark_tensor_64xla__mark_tensor")
#loc2801 = loc("1023|CLIPVisionModelWithProjection[image_encoder]|CLIPVisionTransformer[image_encoder.vision_model]|CLIPEncoder[image_encoder.vision_model.encoder]|CLIPEncoderLayer[image_encoder.vision_model.encoder.layers[6]]|LayerNorm[image_encoder.vision_model.encoder.layers[6].layer_norm1]|/usr/local/lib/python3.11/dist-packages/transformers/models/clip/modeling_clip.py:377|forward|396|mark_tensor_65xla__mark_tensor")
#loc2802 = loc("1024|CLIPVisionModelWithProjection[image_encoder]|CLIPVisionTransformer[image_encoder.vision_model]|CLIPEncoder[image_encoder.vision_model.encoder]|CLIPEncoderLayer[image_encoder.vision_model.encoder.layers[6]]|LayerNorm[image_encoder.vision_model.encoder.layers[6].layer_norm1]|/usr/local/lib/python3.11/dist-packages/transformers/models/clip/modeling_clip.py:377|forward|396|mark_tensor_66xla__mark_tensor")
#loc2813 = loc("1755|CLIPVisionModelWithProjection[image_encoder]|CLIPVisionTransformer[image_encoder.vision_model]|CLIPEncoder[image_encoder.vision_model.encoder]|CLIPEncoderLayer[image_encoder.vision_model.encoder.layers[15]]|CLIPMLP[image_encoder.vision_model.encoder.layers[15].mlp]|GELUActivation[image_encoder.vision_model.encoder.layers[15].mlp.activation_fn]|/usr/local/lib/python3.11/dist-packages/transformers/models/clip/modeling_clip.py:361|forward|363|mark_tensor_162xla__mark_tensor")
#loc2815 = loc("1607|CLIPVisionModelWithProjection[image_encoder]|CLIPVisionTransformer[image_encoder.vision_model]|CLIPEncoder[image_encoder.vision_model.encoder]|CLIPEncoderLayer[image_encoder.vision_model.encoder.layers[13]]|CLIPMLP[image_encoder.vision_model.encoder.layers[13].mlp]|GELUActivation[image_encoder.vision_model.encoder.layers[13].mlp.activation_fn]|/usr/local/lib/python3.11/dist-packages/transformers/models/clip/modeling_clip.py:361|forward|363|mark_tensor_142xla__mark_tensor")
#loc2817 = loc("2643|CLIPVisionModelWithProjection[image_encoder]|CLIPVisionTransformer[image_encoder.vision_model]|CLIPEncoder[image_encoder.vision_model.encoder]|CLIPEncoderLayer[image_encoder.vision_model.encoder.layers[27]]|CLIPMLP[image_encoder.vision_model.encoder.layers[27].mlp]|GELUActivation[image_encoder.vision_model.encoder.layers[27].mlp.activation_fn]|/usr/local/lib/python3.11/dist-packages/transformers/models/clip/modeling_clip.py:361|forward|363|mark_tensor_282xla__mark_tensor")
#loc2819 = loc("1096|CLIPVisionModelWithProjection[image_encoder]|CLIPVisionTransformer[image_encoder.vision_model]|CLIPEncoder[image_encoder.vision_model.encoder]|CLIPEncoderLayer[image_encoder.vision_model.encoder.layers[7]]|LayerNorm[image_encoder.vision_model.encoder.layers[7].layer_norm1]|/usr/local/lib/python3.11/dist-packages/transformers/models/clip/modeling_clip.py:377|forward|396|mark_tensor_74xla__mark_tensor")
#loc2820 = loc("1097|CLIPVisionModelWithProjection[image_encoder]|CLIPVisionTransformer[image_encoder.vision_model]|CLIPEncoder[image_encoder.vision_model.encoder]|CLIPEncoderLayer[image_encoder.vision_model.encoder.layers[7]]|LayerNorm[image_encoder.vision_model.encoder.layers[7].layer_norm1]|/usr/local/lib/python3.11/dist-packages/transformers/models/clip/modeling_clip.py:377|forward|396|mark_tensor_75xla__mark_tensor")
#loc2821 = loc("1098|CLIPVisionModelWithProjection[image_encoder]|CLIPVisionTransformer[image_encoder.vision_model]|CLIPEncoder[image_encoder.vision_model.encoder]|CLIPEncoderLayer[image_encoder.vision_model.encoder.layers[7]]|LayerNorm[image_encoder.vision_model.encoder.layers[7].layer_norm1]|/usr/local/lib/python3.11/dist-packages/transformers/models/clip/modeling_clip.py:377|forward|396|mark_tensor_76xla__mark_tensor")
#loc2832 = loc("1614|CLIPVisionModelWithProjection[image_encoder]|CLIPVisionTransformer[image_encoder.vision_model]|CLIPEncoder[image_encoder.vision_model.encoder]|CLIPEncoderLayer[image_encoder.vision_model.encoder.layers[14]]|LayerNorm[image_encoder.vision_model.encoder.layers[14].layer_norm1]|/usr/local/lib/python3.11/dist-packages/transformers/models/clip/modeling_clip.py:377|forward|396|mark_tensor_144xla__mark_tensor")
#loc2833 = loc("1615|CLIPVisionModelWithProjection[image_encoder]|CLIPVisionTransformer[image_encoder.vision_model]|CLIPEncoder[image_encoder.vision_model.encoder]|CLIPEncoderLayer[image_encoder.vision_model.encoder.layers[14]]|LayerNorm[image_encoder.vision_model.encoder.layers[14].layer_norm1]|/usr/local/lib/python3.11/dist-packages/transformers/models/clip/modeling_clip.py:377|forward|396|mark_tensor_145xla__mark_tensor")
#loc2834 = loc("1616|CLIPVisionModelWithProjection[image_encoder]|CLIPVisionTransformer[image_encoder.vision_model]|CLIPEncoder[image_encoder.vision_model.encoder]|CLIPEncoderLayer[image_encoder.vision_model.encoder.layers[14]]|LayerNorm[image_encoder.vision_model.encoder.layers[14].layer_norm1]|/usr/local/lib/python3.11/dist-packages/transformers/models/clip/modeling_clip.py:377|forward|396|mark_tensor_146xla__mark_tensor")
#loc2845 = loc("2961|IPAdapterPlusImageProjection[resampler]|IPAdapterPlusImageProjectionBlock[resampler.layers[1]]|LayerNorm[resampler.layers[1].ln0]|/usr/local/lib/python3.11/dist-packages/diffusers/models/embeddings.py:2245|forward|2246|mark_tensor_342xla__mark_tensor")
#loc2846 = loc("2962|IPAdapterPlusImageProjection[resampler]|IPAdapterPlusImageProjectionBlock[resampler.layers[1]]|LayerNorm[resampler.layers[1].ln0]|/usr/local/lib/python3.11/dist-packages/diffusers/models/embeddings.py:2245|forward|2246|mark_tensor_343xla__mark_tensor")
#loc2847 = loc("2963|IPAdapterPlusImageProjection[resampler]|IPAdapterPlusImageProjectionBlock[resampler.layers[1]]|LayerNorm[resampler.layers[1].ln0]|/usr/local/lib/python3.11/dist-packages/diffusers/models/embeddings.py:2245|forward|2246|mark_tensor_344xla__mark_tensor")
#loc2858 = loc("1459|CLIPVisionModelWithProjection[image_encoder]|CLIPVisionTransformer[image_encoder.vision_model]|CLIPEncoder[image_encoder.vision_model.encoder]|CLIPEncoderLayer[image_encoder.vision_model.encoder.layers[11]]|CLIPMLP[image_encoder.vision_model.encoder.layers[11].mlp]|GELUActivation[image_encoder.vision_model.encoder.layers[11].mlp.activation_fn]|/usr/local/lib/python3.11/dist-packages/transformers/models/clip/modeling_clip.py:361|forward|363|mark_tensor_122xla__mark_tensor")
#loc2860 = loc("1681|CLIPVisionModelWithProjection[image_encoder]|CLIPVisionTransformer[image_encoder.vision_model]|CLIPEncoder[image_encoder.vision_model.encoder]|CLIPEncoderLayer[image_encoder.vision_model.encoder.layers[14]]|CLIPMLP[image_encoder.vision_model.encoder.layers[14].mlp]|GELUActivation[image_encoder.vision_model.encoder.layers[14].mlp.activation_fn]|/usr/local/lib/python3.11/dist-packages/transformers/models/clip/modeling_clip.py:361|forward|363|mark_tensor_152xla__mark_tensor")
#loc2862 = loc("874|CLIPVisionModelWithProjection[image_encoder]|CLIPVisionTransformer[image_encoder.vision_model]|CLIPEncoder[image_encoder.vision_model.encoder]|CLIPEncoderLayer[image_encoder.vision_model.encoder.layers[4]]|LayerNorm[image_encoder.vision_model.encoder.layers[4].layer_norm1]|/usr/local/lib/python3.11/dist-packages/transformers/models/clip/modeling_clip.py:377|forward|396|mark_tensor_44xla__mark_tensor")
#loc2863 = loc("875|CLIPVisionModelWithProjection[image_encoder]|CLIPVisionTransformer[image_encoder.vision_model]|CLIPEncoder[image_encoder.vision_model.encoder]|CLIPEncoderLayer[image_encoder.vision_model.encoder.layers[4]]|LayerNorm[image_encoder.vision_model.encoder.layers[4].layer_norm1]|/usr/local/lib/python3.11/dist-packages/transformers/models/clip/modeling_clip.py:377|forward|396|mark_tensor_45xla__mark_tensor")
#loc2864 = loc("876|CLIPVisionModelWithProjection[image_encoder]|CLIPVisionTransformer[image_encoder.vision_model]|CLIPEncoder[image_encoder.vision_model.encoder]|CLIPEncoderLayer[image_encoder.vision_model.encoder.layers[4]]|LayerNorm[image_encoder.vision_model.encoder.layers[4].layer_norm1]|/usr/local/lib/python3.11/dist-packages/transformers/models/clip/modeling_clip.py:377|forward|396|mark_tensor_46xla__mark_tensor")
#loc2875 = loc("1466|CLIPVisionModelWithProjection[image_encoder]|CLIPVisionTransformer[image_encoder.vision_model]|CLIPEncoder[image_encoder.vision_model.encoder]|CLIPEncoderLayer[image_encoder.vision_model.encoder.layers[12]]|LayerNorm[image_encoder.vision_model.encoder.layers[12].layer_norm1]|/usr/local/lib/python3.11/dist-packages/transformers/models/clip/modeling_clip.py:377|forward|396|mark_tensor_124xla__mark_tensor")
#loc2876 = loc("1467|CLIPVisionModelWithProjection[image_encoder]|CLIPVisionTransformer[image_encoder.vision_model]|CLIPEncoder[image_encoder.vision_model.encoder]|CLIPEncoderLayer[image_encoder.vision_model.encoder.layers[12]]|LayerNorm[image_encoder.vision_model.encoder.layers[12].layer_norm1]|/usr/local/lib/python3.11/dist-packages/transformers/models/clip/modeling_clip.py:377|forward|396|mark_tensor_125xla__mark_tensor")
#loc2877 = loc("1468|CLIPVisionModelWithProjection[image_encoder]|CLIPVisionTransformer[image_encoder.vision_model]|CLIPEncoder[image_encoder.vision_model.encoder]|CLIPEncoderLayer[image_encoder.vision_model.encoder.layers[12]]|LayerNorm[image_encoder.vision_model.encoder.layers[12].layer_norm1]|/usr/local/lib/python3.11/dist-packages/transformers/models/clip/modeling_clip.py:377|forward|396|mark_tensor_126xla__mark_tensor")
#loc2888 = loc("1829|CLIPVisionModelWithProjection[image_encoder]|CLIPVisionTransformer[image_encoder.vision_model]|CLIPEncoder[image_encoder.vision_model.encoder]|CLIPEncoderLayer[image_encoder.vision_model.encoder.layers[16]]|CLIPMLP[image_encoder.vision_model.encoder.layers[16].mlp]|GELUActivation[image_encoder.vision_model.encoder.layers[16].mlp.activation_fn]|/usr/local/lib/python3.11/dist-packages/transformers/models/clip/modeling_clip.py:361|forward|363|mark_tensor_172xla__mark_tensor")
#loc2890 = loc("1887|CLIPVisionModelWithProjection[image_encoder]|CLIPVisionTransformer[image_encoder.vision_model]|CLIPEncoder[image_encoder.vision_model.encoder]|CLIPEncoderLayer[image_encoder.vision_model.encoder.layers[17]]|LayerNorm[image_encoder.vision_model.encoder.layers[17].layer_norm2]|/usr/local/lib/python3.11/dist-packages/transformers/models/clip/modeling_clip.py:377|forward|406|mark_tensor_178xla__mark_tensor")
#loc2891 = loc("1888|CLIPVisionModelWithProjection[image_encoder]|CLIPVisionTransformer[image_encoder.vision_model]|CLIPEncoder[image_encoder.vision_model.encoder]|CLIPEncoderLayer[image_encoder.vision_model.encoder.layers[17]]|LayerNorm[image_encoder.vision_model.encoder.layers[17].layer_norm2]|/usr/local/lib/python3.11/dist-packages/transformers/models/clip/modeling_clip.py:377|forward|406|mark_tensor_179xla__mark_tensor")
#loc2892 = loc("1889|CLIPVisionModelWithProjection[image_encoder]|CLIPVisionTransformer[image_encoder.vision_model]|CLIPEncoder[image_encoder.vision_model.encoder]|CLIPEncoderLayer[image_encoder.vision_model.encoder.layers[17]]|LayerNorm[image_encoder.vision_model.encoder.layers[17].layer_norm2]|/usr/local/lib/python3.11/dist-packages/transformers/models/clip/modeling_clip.py:377|forward|406|mark_tensor_180xla__mark_tensor")
#loc2903 = loc("3144|IPAdapterPlusImageProjection[resampler]|IPAdapterPlusImageProjectionBlock[resampler.layers[3]]|LayerNorm[resampler.layers[3].ln1]|/usr/local/lib/python3.11/dist-packages/diffusers/models/embeddings.py:2245|forward|2247|mark_tensor_374xla__mark_tensor")
#loc2904 = loc("3145|IPAdapterPlusImageProjection[resampler]|IPAdapterPlusImageProjectionBlock[resampler.layers[3]]|LayerNorm[resampler.layers[3].ln1]|/usr/local/lib/python3.11/dist-packages/diffusers/models/embeddings.py:2245|forward|2247|mark_tensor_375xla__mark_tensor")
#loc2905 = loc("3146|IPAdapterPlusImageProjection[resampler]|IPAdapterPlusImageProjectionBlock[resampler.layers[3]]|LayerNorm[resampler.layers[3].ln1]|/usr/local/lib/python3.11/dist-packages/diffusers/models/embeddings.py:2245|forward|2247|mark_tensor_376xla__mark_tensor")
#loc2916 = loc("2775|CLIPVisionModelWithProjection[image_encoder]|CLIPVisionTransformer[image_encoder.vision_model]|CLIPEncoder[image_encoder.vision_model.encoder]|CLIPEncoderLayer[image_encoder.vision_model.encoder.layers[29]]|LayerNorm[image_encoder.vision_model.encoder.layers[29].layer_norm2]|/usr/local/lib/python3.11/dist-packages/transformers/models/clip/modeling_clip.py:377|forward|406|mark_tensor_298xla__mark_tensor")
#loc2917 = loc("2776|CLIPVisionModelWithProjection[image_encoder]|CLIPVisionTransformer[image_encoder.vision_model]|CLIPEncoder[image_encoder.vision_model.encoder]|CLIPEncoderLayer[image_encoder.vision_model.encoder.layers[29]]|LayerNorm[image_encoder.vision_model.encoder.layers[29].layer_norm2]|/usr/local/lib/python3.11/dist-packages/transformers/models/clip/modeling_clip.py:377|forward|406|mark_tensor_299xla__mark_tensor")
#loc2918 = loc("2777|CLIPVisionModelWithProjection[image_encoder]|CLIPVisionTransformer[image_encoder.vision_model]|CLIPEncoder[image_encoder.vision_model.encoder]|CLIPEncoderLayer[image_encoder.vision_model.encoder.layers[29]]|LayerNorm[image_encoder.vision_model.encoder.layers[29].layer_norm2]|/usr/local/lib/python3.11/dist-packages/transformers/models/clip/modeling_clip.py:377|forward|406|mark_tensor_300xla__mark_tensor")
#loc2929 = loc("1540|CLIPVisionModelWithProjection[image_encoder]|CLIPVisionTransformer[image_encoder.vision_model]|CLIPEncoder[image_encoder.vision_model.encoder]|CLIPEncoderLayer[image_encoder.vision_model.encoder.layers[13]]|LayerNorm[image_encoder.vision_model.encoder.layers[13].layer_norm1]|/usr/local/lib/python3.11/dist-packages/transformers/models/clip/modeling_clip.py:377|forward|396|mark_tensor_134xla__mark_tensor")
#loc2930 = loc("1541|CLIPVisionModelWithProjection[image_encoder]|CLIPVisionTransformer[image_encoder.vision_model]|CLIPEncoder[image_encoder.vision_model.encoder]|CLIPEncoderLayer[image_encoder.vision_model.encoder.layers[13]]|LayerNorm[image_encoder.vision_model.encoder.layers[13].layer_norm1]|/usr/local/lib/python3.11/dist-packages/transformers/models/clip/modeling_clip.py:377|forward|396|mark_tensor_135xla__mark_tensor")
#loc2931 = loc("1542|CLIPVisionModelWithProjection[image_encoder]|CLIPVisionTransformer[image_encoder.vision_model]|CLIPEncoder[image_encoder.vision_model.encoder]|CLIPEncoderLayer[image_encoder.vision_model.encoder.layers[13]]|LayerNorm[image_encoder.vision_model.encoder.layers[13].layer_norm1]|/usr/local/lib/python3.11/dist-packages/transformers/models/clip/modeling_clip.py:377|forward|396|mark_tensor_136xla__mark_tensor")
#loc2942 = loc("1903|CLIPVisionModelWithProjection[image_encoder]|CLIPVisionTransformer[image_encoder.vision_model]|CLIPEncoder[image_encoder.vision_model.encoder]|CLIPEncoderLayer[image_encoder.vision_model.encoder.layers[17]]|CLIPMLP[image_encoder.vision_model.encoder.layers[17].mlp]|GELUActivation[image_encoder.vision_model.encoder.layers[17].mlp.activation_fn]|/usr/local/lib/python3.11/dist-packages/transformers/models/clip/modeling_clip.py:361|forward|363|mark_tensor_182xla__mark_tensor")
#loc2944 = loc("1910|CLIPVisionModelWithProjection[image_encoder]|CLIPVisionTransformer[image_encoder.vision_model]|CLIPEncoder[image_encoder.vision_model.encoder]|CLIPEncoderLayer[image_encoder.vision_model.encoder.layers[18]]|LayerNorm[image_encoder.vision_model.encoder.layers[18].layer_norm1]|/usr/local/lib/python3.11/dist-packages/transformers/models/clip/modeling_clip.py:377|forward|396|mark_tensor_184xla__mark_tensor")
#loc2945 = loc("1911|CLIPVisionModelWithProjection[image_encoder]|CLIPVisionTransformer[image_encoder.vision_model]|CLIPEncoder[image_encoder.vision_model.encoder]|CLIPEncoderLayer[image_encoder.vision_model.encoder.layers[18]]|LayerNorm[image_encoder.vision_model.encoder.layers[18].layer_norm1]|/usr/local/lib/python3.11/dist-packages/transformers/models/clip/modeling_clip.py:377|forward|396|mark_tensor_185xla__mark_tensor")
#loc2946 = loc("1912|CLIPVisionModelWithProjection[image_encoder]|CLIPVisionTransformer[image_encoder.vision_model]|CLIPEncoder[image_encoder.vision_model.encoder]|CLIPEncoderLayer[image_encoder.vision_model.encoder.layers[18]]|LayerNorm[image_encoder.vision_model.encoder.layers[18].layer_norm1]|/usr/local/lib/python3.11/dist-packages/transformers/models/clip/modeling_clip.py:377|forward|396|mark_tensor_186xla__mark_tensor")
module @SyncTensorsGraph.13945 attributes {mhlo.cross_program_prefetches = [], mhlo.input_output_alias = [], mhlo.is_dynamic = false, mhlo.use_auto_spmd_partitioning = false} {
  func.func @main(%arg0: tensor<2048xbf16> loc("-1|unknown|unknown|-1|unknownxla__device_data"), %arg1: tensor<2048xbf16> loc("-1|unknown|unknown|-1|unknownxla__device_data"), %arg2: tensor<2048xbf16> loc("-1|unknown|unknown|-1|unknownxla__device_data"), %arg3: tensor<2048x1280xbf16> loc("-1|unknown|unknown|-1|unknownxla__device_data"), %arg4: tensor<1x16x1280xbf16> loc("-1|unknown|unknown|-1|unknownxla__device_data"), %arg5: tensor<1280x1280xbf16> loc("-1|unknown|unknown|-1|unknownxla__device_data"), %arg6: tensor<1280x1280xbf16> loc("-1|unknown|unknown|-1|unknownxla__device_data"), %arg7: tensor<1280xbf16> loc("-1|unknown|unknown|-1|unknownxla__device_data"), %arg8: tensor<1280xbf16> loc("-1|unknown|unknown|-1|unknownxla__device_data"), %arg9: tensor<1280xbf16> loc("-1|unknown|unknown|-1|unknownxla__device_data"), %arg10: tensor<1280xbf16> loc("-1|unknown|unknown|-1|unknownxla__device_data"), %arg11: tensor<1280xbf16> loc("-1|unknown|unknown|-1|unknownxla__device_data"), %arg12: tensor<1280x1280xbf16> loc("-1|unknown|unknown|-1|unknownxla__device_data"), %arg13: tensor<1280xbf16> loc("-1|unknown|unknown|-1|unknownxla__device_data"), %arg14: tensor<1280x5120xbf16> loc("-1|unknown|unknown|-1|unknownxla__device_data"), %arg15: tensor<5120xbf16> loc("-1|unknown|unknown|-1|unknownxla__device_data"), %arg16: tensor<5120x1280xbf16> loc("-1|unknown|unknown|-1|unknownxla__device_data"), %arg17: tensor<1280xbf16> loc("-1|unknown|unknown|-1|unknownxla__device_data"), %arg18: tensor<1280xbf16> loc("-1|unknown|unknown|-1|unknownxla__device_data"), %arg19: tensor<1280xbf16> loc("-1|unknown|unknown|-1|unknownxla__device_data"), %arg20: tensor<1280x1280xbf16> loc("-1|unknown|unknown|-1|unknownxla__device_data"), %arg21: tensor<1280xbf16> loc("-1|unknown|unknown|-1|unknownxla__device_data"), %arg22: tensor<1280x1280xbf16> loc("-1|unknown|unknown|-1|unknownxla__device_data"), %arg23: tensor<1280xbf16> loc("-1|unknown|unknown|-1|unknownxla__device_data"), %arg24: tensor<1280xbf16> loc("-1|unknown|unknown|-1|unknownxla__device_data"), %arg25: tensor<1280xbf16> loc("-1|unknown|unknown|-1|unknownxla__device_data"), %arg26: tensor<1280x5120xbf16> loc("-1|unknown|unknown|-1|unknownxla__device_data"), %arg27: tensor<5120xbf16> loc("-1|unknown|unknown|-1|unknownxla__device_data"), %arg28: tensor<5120x1280xbf16> loc("-1|unknown|unknown|-1|unknownxla__device_data"), %arg29: tensor<1280xbf16> loc("-1|unknown|unknown|-1|unknownxla__device_data"), %arg30: tensor<1280xbf16> loc("-1|unknown|unknown|-1|unknownxla__device_data"), %arg31: tensor<1280xbf16> loc("-1|unknown|unknown|-1|unknownxla__device_data"), %arg32: tensor<1280x1280xbf16> loc("-1|unknown|unknown|-1|unknownxla__device_data"), %arg33: tensor<1280xbf16> loc("-1|unknown|unknown|-1|unknownxla__device_data"), %arg34: tensor<1280x1280xbf16> loc("-1|unknown|unknown|-1|unknownxla__device_data"), %arg35: tensor<1280xbf16> loc("-1|unknown|unknown|-1|unknownxla__device_data"), %arg36: tensor<1280xbf16> loc("-1|unknown|unknown|-1|unknownxla__device_data"), %arg37: tensor<1280xbf16> loc("-1|unknown|unknown|-1|unknownxla__device_data"), %arg38: tensor<1280x5120xbf16> loc("-1|unknown|unknown|-1|unknownxla__device_data"), %arg39: tensor<5120xbf16> loc("-1|unknown|unknown|-1|unknownxla__device_data"), %arg40: tensor<5120x1280xbf16> loc("-1|unknown|unknown|-1|unknownxla__device_data"), %arg41: tensor<1280xbf16> loc("-1|unknown|unknown|-1|unknownxla__device_data"), %arg42: tensor<1280xbf16> loc("-1|unknown|unknown|-1|unknownxla__device_data"), %arg43: tensor<1280xbf16> loc("-1|unknown|unknown|-1|unknownxla__device_data"), %arg44: tensor<1280x1280xbf16> loc("-1|unknown|unknown|-1|unknownxla__device_data"), %arg45: tensor<1280xbf16> loc("-1|unknown|unknown|-1|unknownxla__device_data"), %arg46: tensor<1280x1280xbf16> loc("-1|unknown|unknown|-1|unknownxla__device_data"), %arg47: tensor<1280xbf16> loc("-1|unknown|unknown|-1|unknownxla__device_data"), %arg48: tensor<1280xbf16> loc("-1|unknown|unknown|-1|unknownxla__device_data"), %arg49: tensor<1280xbf16> loc("-1|unknown|unknown|-1|unknownxla__device_data"), %arg50: tensor<1280x5120xbf16> loc("-1|unknown|unknown|-1|unknownxla__device_data"), %arg51: tensor<5120xbf16> loc("-1|unknown|unknown|-1|unknownxla__device_data"), %arg52: tensor<5120x1280xbf16> loc("-1|unknown|unknown|-1|unknownxla__device_data"), %arg53: tensor<1280xbf16> loc("-1|unknown|unknown|-1|unknownxla__device_data"), %arg54: tensor<1280xbf16> loc("-1|unknown|unknown|-1|unknownxla__device_data"), %arg55: tensor<1280xbf16> loc("-1|unknown|unknown|-1|unknownxla__device_data"), %arg56: tensor<1280x1280xbf16> loc("-1|unknown|unknown|-1|unknownxla__device_data"), %arg57: tensor<1280xbf16> loc("-1|unknown|unknown|-1|unknownxla__device_data"), %arg58: tensor<1280x1280xbf16> loc("-1|unknown|unknown|-1|unknownxla__device_data"), %arg59: tensor<1280xbf16> loc("-1|unknown|unknown|-1|unknownxla__device_data"), %arg60: tensor<1280xbf16> loc("-1|unknown|unknown|-1|unknownxla__device_data"), %arg61: tensor<1280xbf16> loc("-1|unknown|unknown|-1|unknownxla__device_data"), %arg62: tensor<1280x5120xbf16> loc("-1|unknown|unknown|-1|unknownxla__device_data"), %arg63: tensor<5120xbf16> loc("-1|unknown|unknown|-1|unknownxla__device_data"), %arg64: tensor<5120x1280xbf16> loc("-1|unknown|unknown|-1|unknownxla__device_data"), %arg65: tensor<1280xbf16> loc("-1|unknown|unknown|-1|unknownxla__device_data"), %arg66: tensor<1280xbf16> loc("-1|unknown|unknown|-1|unknownxla__device_data"), %arg67: tensor<1280xbf16> loc("-1|unknown|unknown|-1|unknownxla__device_data"), %arg68: tensor<1280x1280xbf16> loc("-1|unknown|unknown|-1|unknownxla__device_data"), %arg69: tensor<1280xbf16> loc("-1|unknown|unknown|-1|unknownxla__device_data"), %arg70: tensor<1280x1280xbf16> loc("-1|unknown|unknown|-1|unknownxla__device_data"), %arg71: tensor<1280xbf16> loc("-1|unknown|unknown|-1|unknownxla__device_data"), %arg72: tensor<1280xbf16> loc("-1|unknown|unknown|-1|unknownxla__device_data"), %arg73: tensor<1280xbf16> loc("-1|unknown|unknown|-1|unknownxla__device_data"), %arg74: tensor<1280x5120xbf16> loc("-1|unknown|unknown|-1|unknownxla__device_data"), %arg75: tensor<5120xbf16> loc("-1|unknown|unknown|-1|unknownxla__device_data"), %arg76: tensor<5120x1280xbf16> loc("-1|unknown|unknown|-1|unknownxla__device_data"), %arg77: tensor<1280xbf16> loc("-1|unknown|unknown|-1|unknownxla__device_data"), %arg78: tensor<1280xbf16> loc("-1|unknown|unknown|-1|unknownxla__device_data"), %arg79: tensor<1280xbf16> loc("-1|unknown|unknown|-1|unknownxla__device_data"), %arg80: tensor<1280x1280xbf16> loc("-1|unknown|unknown|-1|unknownxla__device_data"), %arg81: tensor<1280xbf16> loc("-1|unknown|unknown|-1|unknownxla__device_data"), %arg82: tensor<1280x1280xbf16> loc("-1|unknown|unknown|-1|unknownxla__device_data"), %arg83: tensor<1280xbf16> loc("-1|unknown|unknown|-1|unknownxla__device_data"), %arg84: tensor<1280xbf16> loc("-1|unknown|unknown|-1|unknownxla__device_data"), %arg85: tensor<1280xbf16> loc("-1|unknown|unknown|-1|unknownxla__device_data"), %arg86: tensor<1280x5120xbf16> loc("-1|unknown|unknown|-1|unknownxla__device_data"), %arg87: tensor<5120xbf16> loc("-1|unknown|unknown|-1|unknownxla__device_data"), %arg88: tensor<5120x1280xbf16> loc("-1|unknown|unknown|-1|unknownxla__device_data"), %arg89: tensor<1280xbf16> loc("-1|unknown|unknown|-1|unknownxla__device_data"), %arg90: tensor<1280xbf16> loc("-1|unknown|unknown|-1|unknownxla__device_data"), %arg91: tensor<1280xbf16> loc("-1|unknown|unknown|-1|unknownxla__device_data"), %arg92: tensor<1280x1280xbf16> loc("-1|unknown|unknown|-1|unknownxla__device_data"), %arg93: tensor<1280xbf16> loc("-1|unknown|unknown|-1|unknownxla__device_data"), %arg94: tensor<1280x1280xbf16> loc("-1|unknown|unknown|-1|unknownxla__device_data"), %arg95: tensor<1280xbf16> loc("-1|unknown|unknown|-1|unknownxla__device_data"), %arg96: tensor<1280xbf16> loc("-1|unknown|unknown|-1|unknownxla__device_data"), %arg97: tensor<1280xbf16> loc("-1|unknown|unknown|-1|unknownxla__device_data"), %arg98: tensor<1280x5120xbf16> loc("-1|unknown|unknown|-1|unknownxla__device_data"), %arg99: tensor<5120xbf16> loc("-1|unknown|unknown|-1|unknownxla__device_data"), %arg100: tensor<5120x1280xbf16> loc("-1|unknown|unknown|-1|unknownxla__device_data"), %arg101: tensor<1280xbf16> loc("-1|unknown|unknown|-1|unknownxla__device_data"), %arg102: tensor<1280xbf16> loc("-1|unknown|unknown|-1|unknownxla__device_data"), %arg103: tensor<1280xbf16> loc("-1|unknown|unknown|-1|unknownxla__device_data"), %arg104: tensor<1280x1280xbf16> loc("-1|unknown|unknown|-1|unknownxla__device_data"), %arg105: tensor<1280xbf16> loc("-1|unknown|unknown|-1|unknownxla__device_data"), %arg106: tensor<1280x1280xbf16> loc("-1|unknown|unknown|-1|unknownxla__device_data"), %arg107: tensor<1280xbf16> loc("-1|unknown|unknown|-1|unknownxla__device_data"), %arg108: tensor<1280xbf16> loc("-1|unknown|unknown|-1|unknownxla__device_data"), %arg109: tensor<1280xbf16> loc("-1|unknown|unknown|-1|unknownxla__device_data"), %arg110: tensor<1280x5120xbf16> loc("-1|unknown|unknown|-1|unknownxla__device_data"), %arg111: tensor<5120xbf16> loc("-1|unknown|unknown|-1|unknownxla__device_data"), %arg112: tensor<5120x1280xbf16> loc("-1|unknown|unknown|-1|unknownxla__device_data"), %arg113: tensor<1280xbf16> loc("-1|unknown|unknown|-1|unknownxla__device_data"), %arg114: tensor<1280xbf16> loc("-1|unknown|unknown|-1|unknownxla__device_data"), %arg115: tensor<1280xbf16> loc("-1|unknown|unknown|-1|unknownxla__device_data"), %arg116: tensor<1280x1280xbf16> loc("-1|unknown|unknown|-1|unknownxla__device_data"), %arg117: tensor<1280xbf16> loc("-1|unknown|unknown|-1|unknownxla__device_data"), %arg118: tensor<1280x1280xbf16> loc("-1|unknown|unknown|-1|unknownxla__device_data"), %arg119: tensor<1280xbf16> loc("-1|unknown|unknown|-1|unknownxla__device_data"), %arg120: tensor<1280xbf16> loc("-1|unknown|unknown|-1|unknownxla__device_data"), %arg121: tensor<1280xbf16> loc("-1|unknown|unknown|-1|unknownxla__device_data"), %arg122: tensor<1280x5120xbf16> loc("-1|unknown|unknown|-1|unknownxla__device_data"), %arg123: tensor<5120xbf16> loc("-1|unknown|unknown|-1|unknownxla__device_data"), %arg124: tensor<5120x1280xbf16> loc("-1|unknown|unknown|-1|unknownxla__device_data"), %arg125: tensor<1280xbf16> loc("-1|unknown|unknown|-1|unknownxla__device_data"), %arg126: tensor<1280xbf16> loc("-1|unknown|unknown|-1|unknownxla__device_data"), %arg127: tensor<1280xbf16> loc("-1|unknown|unknown|-1|unknownxla__device_data"), %arg128: tensor<1280x1280xbf16> loc("-1|unknown|unknown|-1|unknownxla__device_data"), %arg129: tensor<1280xbf16> loc("-1|unknown|unknown|-1|unknownxla__device_data"), %arg130: tensor<1280x1280xbf16> loc("-1|unknown|unknown|-1|unknownxla__device_data"), %arg131: tensor<1280xbf16> loc("-1|unknown|unknown|-1|unknownxla__device_data"), %arg132: tensor<1280xbf16> loc("-1|unknown|unknown|-1|unknownxla__device_data"), %arg133: tensor<1280xbf16> loc("-1|unknown|unknown|-1|unknownxla__device_data"), %arg134: tensor<1280x5120xbf16> loc("-1|unknown|unknown|-1|unknownxla__device_data"), %arg135: tensor<5120xbf16> loc("-1|unknown|unknown|-1|unknownxla__device_data"), %arg136: tensor<5120x1280xbf16> loc("-1|unknown|unknown|-1|unknownxla__device_data"), %arg137: tensor<1280xbf16> loc("-1|unknown|unknown|-1|unknownxla__device_data"), %arg138: tensor<1280xbf16> loc("-1|unknown|unknown|-1|unknownxla__device_data"), %arg139: tensor<1280xbf16> loc("-1|unknown|unknown|-1|unknownxla__device_data"), %arg140: tensor<1280x1280xbf16> loc("-1|unknown|unknown|-1|unknownxla__device_data"), %arg141: tensor<1280xbf16> loc("-1|unknown|unknown|-1|unknownxla__device_data"), %arg142: tensor<1280x1280xbf16> loc("-1|unknown|unknown|-1|unknownxla__device_data"), %arg143: tensor<1280xbf16> loc("-1|unknown|unknown|-1|unknownxla__device_data"), %arg144: tensor<1280xbf16> loc("-1|unknown|unknown|-1|unknownxla__device_data"), %arg145: tensor<1280xbf16> loc("-1|unknown|unknown|-1|unknownxla__device_data"), %arg146: tensor<1280x5120xbf16> loc("-1|unknown|unknown|-1|unknownxla__device_data"), %arg147: tensor<5120xbf16> loc("-1|unknown|unknown|-1|unknownxla__device_data"), %arg148: tensor<5120x1280xbf16> loc("-1|unknown|unknown|-1|unknownxla__device_data"), %arg149: tensor<1280xbf16> loc("-1|unknown|unknown|-1|unknownxla__device_data"), %arg150: tensor<1280xbf16> loc("-1|unknown|unknown|-1|unknownxla__device_data"), %arg151: tensor<1280xbf16> loc("-1|unknown|unknown|-1|unknownxla__device_data"), %arg152: tensor<1280x1280xbf16> loc("-1|unknown|unknown|-1|unknownxla__device_data"), %arg153: tensor<1280xbf16> loc("-1|unknown|unknown|-1|unknownxla__device_data"), %arg154: tensor<1280x1280xbf16> loc("-1|unknown|unknown|-1|unknownxla__device_data"), %arg155: tensor<1280xbf16> loc("-1|unknown|unknown|-1|unknownxla__device_data"), %arg156: tensor<1280xbf16> loc("-1|unknown|unknown|-1|unknownxla__device_data"), %arg157: tensor<1280xbf16> loc("-1|unknown|unknown|-1|unknownxla__device_data"), %arg158: tensor<1280x5120xbf16> loc("-1|unknown|unknown|-1|unknownxla__device_data"), %arg159: tensor<5120xbf16> loc("-1|unknown|unknown|-1|unknownxla__device_data"), %arg160: tensor<5120x1280xbf16> loc("-1|unknown|unknown|-1|unknownxla__device_data"), %arg161: tensor<1280xbf16> loc("-1|unknown|unknown|-1|unknownxla__device_data"), %arg162: tensor<1280xbf16> loc("-1|unknown|unknown|-1|unknownxla__device_data"), %arg163: tensor<1280xbf16> loc("-1|unknown|unknown|-1|unknownxla__device_data"), %arg164: tensor<1280x1280xbf16> loc("-1|unknown|unknown|-1|unknownxla__device_data"), %arg165: tensor<1280xbf16> loc("-1|unknown|unknown|-1|unknownxla__device_data"), %arg166: tensor<1280x1280xbf16> loc("-1|unknown|unknown|-1|unknownxla__device_data"), %arg167: tensor<1280xbf16> loc("-1|unknown|unknown|-1|unknownxla__device_data"), %arg168: tensor<1280xbf16> loc("-1|unknown|unknown|-1|unknownxla__device_data"), %arg169: tensor<1280xbf16> loc("-1|unknown|unknown|-1|unknownxla__device_data"), %arg170: tensor<1280x5120xbf16> loc("-1|unknown|unknown|-1|unknownxla__device_data"), %arg171: tensor<5120xbf16> loc("-1|unknown|unknown|-1|unknownxla__device_data"), %arg172: tensor<5120x1280xbf16> loc("-1|unknown|unknown|-1|unknownxla__device_data"), %arg173: tensor<1280xbf16> loc("-1|unknown|unknown|-1|unknownxla__device_data"), %arg174: tensor<1280xbf16> loc("-1|unknown|unknown|-1|unknownxla__device_data"), %arg175: tensor<1280xbf16> loc("-1|unknown|unknown|-1|unknownxla__device_data"), %arg176: tensor<1280x1280xbf16> loc("-1|unknown|unknown|-1|unknownxla__device_data"), %arg177: tensor<1280xbf16> loc("-1|unknown|unknown|-1|unknownxla__device_data"), %arg178: tensor<1280x1280xbf16> loc("-1|unknown|unknown|-1|unknownxla__device_data"), %arg179: tensor<1280xbf16> loc("-1|unknown|unknown|-1|unknownxla__device_data"), %arg180: tensor<1280xbf16> loc("-1|unknown|unknown|-1|unknownxla__device_data"), %arg181: tensor<1280xbf16> loc("-1|unknown|unknown|-1|unknownxla__device_data"), %arg182: tensor<1280x5120xbf16> loc("-1|unknown|unknown|-1|unknownxla__device_data"), %arg183: tensor<5120xbf16> loc("-1|unknown|unknown|-1|unknownxla__device_data"), %arg184: tensor<5120x1280xbf16> loc("-1|unknown|unknown|-1|unknownxla__device_data"), %arg185: tensor<1280xbf16> loc("-1|unknown|unknown|-1|unknownxla__device_data"), %arg186: tensor<1280xbf16> loc("-1|unknown|unknown|-1|unknownxla__device_data"), %arg187: tensor<1280xbf16> loc("-1|unknown|unknown|-1|unknownxla__device_data"), %arg188: tensor<1280x1280xbf16> loc("-1|unknown|unknown|-1|unknownxla__device_data"), %arg189: tensor<1280xbf16> loc("-1|unknown|unknown|-1|unknownxla__device_data"), %arg190: tensor<1280x1280xbf16> loc("-1|unknown|unknown|-1|unknownxla__device_data"), %arg191: tensor<1280xbf16> loc("-1|unknown|unknown|-1|unknownxla__device_data"), %arg192: tensor<1280xbf16> loc("-1|unknown|unknown|-1|unknownxla__device_data"), %arg193: tensor<1280xbf16> loc("-1|unknown|unknown|-1|unknownxla__device_data"), %arg194: tensor<1280x5120xbf16> loc("-1|unknown|unknown|-1|unknownxla__device_data"), %arg195: tensor<5120xbf16> loc("-1|unknown|unknown|-1|unknownxla__device_data"), %arg196: tensor<5120x1280xbf16> loc("-1|unknown|unknown|-1|unknownxla__device_data"), %arg197: tensor<1280xbf16> loc("-1|unknown|unknown|-1|unknownxla__device_data"), %arg198: tensor<1280xbf16> loc("-1|unknown|unknown|-1|unknownxla__device_data"), %arg199: tensor<1280xbf16> loc("-1|unknown|unknown|-1|unknownxla__device_data"), %arg200: tensor<1280x1280xbf16> loc("-1|unknown|unknown|-1|unknownxla__device_data"), %arg201: tensor<1280xbf16> loc("-1|unknown|unknown|-1|unknownxla__device_data"), %arg202: tensor<1280x1280xbf16> loc("-1|unknown|unknown|-1|unknownxla__device_data"), %arg203: tensor<1280xbf16> loc("-1|unknown|unknown|-1|unknownxla__device_data"), %arg204: tensor<1280xbf16> loc("-1|unknown|unknown|-1|unknownxla__device_data"), %arg205: tensor<1280xbf16> loc("-1|unknown|unknown|-1|unknownxla__device_data"), %arg206: tensor<1280x5120xbf16> loc("-1|unknown|unknown|-1|unknownxla__device_data"), %arg207: tensor<5120xbf16> loc("-1|unknown|unknown|-1|unknownxla__device_data"), %arg208: tensor<5120x1280xbf16> loc("-1|unknown|unknown|-1|unknownxla__device_data"), %arg209: tensor<1280xbf16> loc("-1|unknown|unknown|-1|unknownxla__device_data"), %arg210: tensor<1280xbf16> loc("-1|unknown|unknown|-1|unknownxla__device_data"), %arg211: tensor<1280xbf16> loc("-1|unknown|unknown|-1|unknownxla__device_data"), %arg212: tensor<1280x1280xbf16> loc("-1|unknown|unknown|-1|unknownxla__device_data"), %arg213: tensor<1280xbf16> loc("-1|unknown|unknown|-1|unknownxla__device_data"), %arg214: tensor<1280x1280xbf16> loc("-1|unknown|unknown|-1|unknownxla__device_data"), %arg215: tensor<1280xbf16> loc("-1|unknown|unknown|-1|unknownxla__device_data"), %arg216: tensor<1280xbf16> loc("-1|unknown|unknown|-1|unknownxla__device_data"), %arg217: tensor<1280xbf16> loc("-1|unknown|unknown|-1|unknownxla__device_data"), %arg218: tensor<1280x5120xbf16> loc("-1|unknown|unknown|-1|unknownxla__device_data"), %arg219: tensor<5120xbf16> loc("-1|unknown|unknown|-1|unknownxla__device_data"), %arg220: tensor<5120x1280xbf16> loc("-1|unknown|unknown|-1|unknownxla__device_data"), %arg221: tensor<1280xbf16> loc("-1|unknown|unknown|-1|unknownxla__device_data"), %arg222: tensor<1280xbf16> loc("-1|unknown|unknown|-1|unknownxla__device_data"), %arg223: tensor<1280xbf16> loc("-1|unknown|unknown|-1|unknownxla__device_data"), %arg224: tensor<1280x1280xbf16> loc("-1|unknown|unknown|-1|unknownxla__device_data"), %arg225: tensor<1280xbf16> loc("-1|unknown|unknown|-1|unknownxla__device_data"), %arg226: tensor<1280x1280xbf16> loc("-1|unknown|unknown|-1|unknownxla__device_data"), %arg227: tensor<1280xbf16> loc("-1|unknown|unknown|-1|unknownxla__device_data"), %arg228: tensor<1280xbf16> loc("-1|unknown|unknown|-1|unknownxla__device_data"), %arg229: tensor<1280xbf16> loc("-1|unknown|unknown|-1|unknownxla__device_data"), %arg230: tensor<1280x5120xbf16> loc("-1|unknown|unknown|-1|unknownxla__device_data"), %arg231: tensor<5120xbf16> loc("-1|unknown|unknown|-1|unknownxla__device_data"), %arg232: tensor<5120x1280xbf16> loc("-1|unknown|unknown|-1|unknownxla__device_data"), %arg233: tensor<1280xbf16> loc("-1|unknown|unknown|-1|unknownxla__device_data"), %arg234: tensor<1280xbf16> loc("-1|unknown|unknown|-1|unknownxla__device_data"), %arg235: tensor<1280xbf16> loc("-1|unknown|unknown|-1|unknownxla__device_data"), %arg236: tensor<1280x1280xbf16> loc("-1|unknown|unknown|-1|unknownxla__device_data"), %arg237: tensor<1280xbf16> loc("-1|unknown|unknown|-1|unknownxla__device_data"), %arg238: tensor<1280x1280xbf16> loc("-1|unknown|unknown|-1|unknownxla__device_data"), %arg239: tensor<1280xbf16> loc("-1|unknown|unknown|-1|unknownxla__device_data"), %arg240: tensor<1280xbf16> loc("-1|unknown|unknown|-1|unknownxla__device_data"), %arg241: tensor<1280xbf16> loc("-1|unknown|unknown|-1|unknownxla__device_data"), %arg242: tensor<1280x5120xbf16> loc("-1|unknown|unknown|-1|unknownxla__device_data"), %arg243: tensor<5120xbf16> loc("-1|unknown|unknown|-1|unknownxla__device_data"), %arg244: tensor<5120x1280xbf16> loc("-1|unknown|unknown|-1|unknownxla__device_data"), %arg245: tensor<1280xbf16> loc("-1|unknown|unknown|-1|unknownxla__device_data"), %arg246: tensor<1280xbf16> loc("-1|unknown|unknown|-1|unknownxla__device_data"), %arg247: tensor<1280xbf16> loc("-1|unknown|unknown|-1|unknownxla__device_data"), %arg248: tensor<1280x1280xbf16> loc("-1|unknown|unknown|-1|unknownxla__device_data"), %arg249: tensor<1280xbf16> loc("-1|unknown|unknown|-1|unknownxla__device_data"), %arg250: tensor<1280x1280xbf16> loc("-1|unknown|unknown|-1|unknownxla__device_data"), %arg251: tensor<1280xbf16> loc("-1|unknown|unknown|-1|unknownxla__device_data"), %arg252: tensor<1280xbf16> loc("-1|unknown|unknown|-1|unknownxla__device_data"), %arg253: tensor<1280xbf16> loc("-1|unknown|unknown|-1|unknownxla__device_data"), %arg254: tensor<1280x5120xbf16> loc("-1|unknown|unknown|-1|unknownxla__device_data"), %arg255: tensor<5120xbf16> loc("-1|unknown|unknown|-1|unknownxla__device_data"), %arg256: tensor<5120x1280xbf16> loc("-1|unknown|unknown|-1|unknownxla__device_data"), %arg257: tensor<1280xbf16> loc("-1|unknown|unknown|-1|unknownxla__device_data"), %arg258: tensor<1280xbf16> loc("-1|unknown|unknown|-1|unknownxla__device_data"), %arg259: tensor<1280xbf16> loc("-1|unknown|unknown|-1|unknownxla__device_data"), %arg260: tensor<1280x1280xbf16> loc("-1|unknown|unknown|-1|unknownxla__device_data"), %arg261: tensor<1280xbf16> loc("-1|unknown|unknown|-1|unknownxla__device_data"), %arg262: tensor<1280x1280xbf16> loc("-1|unknown|unknown|-1|unknownxla__device_data"), %arg263: tensor<1280xbf16> loc("-1|unknown|unknown|-1|unknownxla__device_data"), %arg264: tensor<1280xbf16> loc("-1|unknown|unknown|-1|unknownxla__device_data"), %arg265: tensor<1280xbf16> loc("-1|unknown|unknown|-1|unknownxla__device_data"), %arg266: tensor<1280x5120xbf16> loc("-1|unknown|unknown|-1|unknownxla__device_data"), %arg267: tensor<5120xbf16> loc("-1|unknown|unknown|-1|unknownxla__device_data"), %arg268: tensor<5120x1280xbf16> loc("-1|unknown|unknown|-1|unknownxla__device_data"), %arg269: tensor<1280xbf16> loc("-1|unknown|unknown|-1|unknownxla__device_data"), %arg270: tensor<1280xbf16> loc("-1|unknown|unknown|-1|unknownxla__device_data"), %arg271: tensor<1280xbf16> loc("-1|unknown|unknown|-1|unknownxla__device_data"), %arg272: tensor<1280x1280xbf16> loc("-1|unknown|unknown|-1|unknownxla__device_data"), %arg273: tensor<1280xbf16> loc("-1|unknown|unknown|-1|unknownxla__device_data"), %arg274: tensor<1280x1280xbf16> loc("-1|unknown|unknown|-1|unknownxla__device_data"), %arg275: tensor<1280xbf16> loc("-1|unknown|unknown|-1|unknownxla__device_data"), %arg276: tensor<1280xbf16> loc("-1|unknown|unknown|-1|unknownxla__device_data"), %arg277: tensor<1280xbf16> loc("-1|unknown|unknown|-1|unknownxla__device_data"), %arg278: tensor<1280x5120xbf16> loc("-1|unknown|unknown|-1|unknownxla__device_data"), %arg279: tensor<5120xbf16> loc("-1|unknown|unknown|-1|unknownxla__device_data"), %arg280: tensor<5120x1280xbf16> loc("-1|unknown|unknown|-1|unknownxla__device_data"), %arg281: tensor<1280xbf16> loc("-1|unknown|unknown|-1|unknownxla__device_data"), %arg282: tensor<1280xbf16> loc("-1|unknown|unknown|-1|unknownxla__device_data"), %arg283: tensor<1280xbf16> loc("-1|unknown|unknown|-1|unknownxla__device_data"), %arg284: tensor<1280x1280xbf16> loc("-1|unknown|unknown|-1|unknownxla__device_data"), %arg285: tensor<1280xbf16> loc("-1|unknown|unknown|-1|unknownxla__device_data"), %arg286: tensor<1280x1280xbf16> loc("-1|unknown|unknown|-1|unknownxla__device_data"), %arg287: tensor<1280xbf16> loc("-1|unknown|unknown|-1|unknownxla__device_data"), %arg288: tensor<1280xbf16> loc("-1|unknown|unknown|-1|unknownxla__device_data"), %arg289: tensor<1280xbf16> loc("-1|unknown|unknown|-1|unknownxla__device_data"), %arg290: tensor<1280x5120xbf16> loc("-1|unknown|unknown|-1|unknownxla__device_data"), %arg291: tensor<5120xbf16> loc("-1|unknown|unknown|-1|unknownxla__device_data"), %arg292: tensor<5120x1280xbf16> loc("-1|unknown|unknown|-1|unknownxla__device_data"), %arg293: tensor<1280xbf16> loc("-1|unknown|unknown|-1|unknownxla__device_data"), %arg294: tensor<1280xbf16> loc("-1|unknown|unknown|-1|unknownxla__device_data"), %arg295: tensor<1280xbf16> loc("-1|unknown|unknown|-1|unknownxla__device_data"), %arg296: tensor<1280x1280xbf16> loc("-1|unknown|unknown|-1|unknownxla__device_data"), %arg297: tensor<1280xbf16> loc("-1|unknown|unknown|-1|unknownxla__device_data"), %arg298: tensor<1280x1280xbf16> loc("-1|unknown|unknown|-1|unknownxla__device_data"), %arg299: tensor<1280xbf16> loc("-1|unknown|unknown|-1|unknownxla__device_data"), %arg300: tensor<1280xbf16> loc("-1|unknown|unknown|-1|unknownxla__device_data"), %arg301: tensor<1280xbf16> loc("-1|unknown|unknown|-1|unknownxla__device_data"), %arg302: tensor<1280x5120xbf16> loc("-1|unknown|unknown|-1|unknownxla__device_data"), %arg303: tensor<5120xbf16> loc("-1|unknown|unknown|-1|unknownxla__device_data"), %arg304: tensor<5120x1280xbf16> loc("-1|unknown|unknown|-1|unknownxla__device_data"), %arg305: tensor<1280xbf16> loc("-1|unknown|unknown|-1|unknownxla__device_data"), %arg306: tensor<1280xbf16> loc("-1|unknown|unknown|-1|unknownxla__device_data"), %arg307: tensor<1280xbf16> loc("-1|unknown|unknown|-1|unknownxla__device_data"), %arg308: tensor<1280x1280xbf16> loc("-1|unknown|unknown|-1|unknownxla__device_data"), %arg309: tensor<1280xbf16> loc("-1|unknown|unknown|-1|unknownxla__device_data"), %arg310: tensor<1280x1280xbf16> loc("-1|unknown|unknown|-1|unknownxla__device_data"), %arg311: tensor<1280xbf16> loc("-1|unknown|unknown|-1|unknownxla__device_data"), %arg312: tensor<1280xbf16> loc("-1|unknown|unknown|-1|unknownxla__device_data"), %arg313: tensor<1280xbf16> loc("-1|unknown|unknown|-1|unknownxla__device_data"), %arg314: tensor<1280x5120xbf16> loc("-1|unknown|unknown|-1|unknownxla__device_data"), %arg315: tensor<5120xbf16> loc("-1|unknown|unknown|-1|unknownxla__device_data"), %arg316: tensor<5120x1280xbf16> loc("-1|unknown|unknown|-1|unknownxla__device_data"), %arg317: tensor<1280xbf16> loc("-1|unknown|unknown|-1|unknownxla__device_data"), %arg318: tensor<1280xbf16> loc("-1|unknown|unknown|-1|unknownxla__device_data"), %arg319: tensor<1280xbf16> loc("-1|unknown|unknown|-1|unknownxla__device_data"), %arg320: tensor<1280x1280xbf16> loc("-1|unknown|unknown|-1|unknownxla__device_data"), %arg321: tensor<1280xbf16> loc("-1|unknown|unknown|-1|unknownxla__device_data"), %arg322: tensor<1280x1280xbf16> loc("-1|unknown|unknown|-1|unknownxla__device_data"), %arg323: tensor<1280xbf16> loc("-1|unknown|unknown|-1|unknownxla__device_data"), %arg324: tensor<1280xbf16> loc("-1|unknown|unknown|-1|unknownxla__device_data"), %arg325: tensor<1280xbf16> loc("-1|unknown|unknown|-1|unknownxla__device_data"), %arg326: tensor<1280x5120xbf16> loc("-1|unknown|unknown|-1|unknownxla__device_data"), %arg327: tensor<5120xbf16> loc("-1|unknown|unknown|-1|unknownxla__device_data"), %arg328: tensor<5120x1280xbf16> loc("-1|unknown|unknown|-1|unknownxla__device_data"), %arg329: tensor<1280xbf16> loc("-1|unknown|unknown|-1|unknownxla__device_data"), %arg330: tensor<1280xbf16> loc("-1|unknown|unknown|-1|unknownxla__device_data"), %arg331: tensor<1280xbf16> loc("-1|unknown|unknown|-1|unknownxla__device_data"), %arg332: tensor<1280x1280xbf16> loc("-1|unknown|unknown|-1|unknownxla__device_da…
#loc2783 = loc("1600|CLIPVisionModelWithProjection[image_encoder]|CLIPVisionTransformer[image_encoder.vision_model]|CLIPEncoder[image_encoder.vision_model.encoder]|CLIPEncoderLayer[image_encoder.vision_model.encoder.layers[13]]|LayerNorm[image_encoder.vision_model.encoder.layers[13].layer_norm2]|/usr/local/lib/python3.11/dist-packages/transformers/models/clip/modeling_clip.py:377|forward|406|mul_85xla__cast")
#loc2784 = loc("1600|CLIPVisionModelWithProjection[image_encoder]|CLIPVisionTransformer[image_encoder.vision_model]|CLIPEncoder[image_encoder.vision_model.encoder]|CLIPEncoderLayer[image_encoder.vision_model.encoder.layers[13]]|LayerNorm[image_encoder.vision_model.encoder.layers[13].layer_norm2]|/usr/local/lib/python3.11/dist-packages/transformers/models/clip/modeling_clip.py:377|forward|406|mul_85aten__mul")
#loc2785 = loc("1601|CLIPVisionModelWithProjection[image_encoder]|CLIPVisionTransformer[image_encoder.vision_model]|CLIPEncoder[image_encoder.vision_model.encoder]|CLIPEncoderLayer[image_encoder.vision_model.encoder.layers[13]]|LayerNorm[image_encoder.vision_model.encoder.layers[13].layer_norm2]|/usr/local/lib/python3.11/dist-packages/transformers/models/clip/modeling_clip.py:377|forward|406|add_167aten__add")
#loc2786 = loc("1602|CLIPVisionModelWithProjection[image_encoder]|CLIPVisionTransformer[image_encoder.vision_model]|CLIPEncoder[image_encoder.vision_model.encoder]|CLIPEncoderLayer[image_encoder.vision_model.encoder.layers[13]]|LayerNorm[image_encoder.vision_model.encoder.layers[13].layer_norm2]|/usr/local/lib/python3.11/dist-packages/transformers/models/clip/modeling_clip.py:377|forward|406|_to_copy_127xla__cast")
#loc2790 = loc("2879|IPAdapterPlusImageProjection[resampler]|IPAdapterPlusImageProjectionBlock[resampler.layers[0]]|LayerNorm[resampler.layers[0].ln0]|/usr/local/lib/python3.11/dist-packages/diffusers/models/embeddings.py:2245|forward|2246|_to_copy_292xla__cast")
#loc2791 = loc("2880|IPAdapterPlusImageProjection[resampler]|IPAdapterPlusImageProjectionBlock[resampler.layers[0]]|LayerNorm[resampler.layers[0].ln0]|/usr/local/lib/python3.11/dist-packages/diffusers/models/embeddings.py:2245|forward|2246|var_mean_66aten__var_mean")
#loc2792 = loc("2883|IPAdapterPlusImageProjection[resampler]|IPAdapterPlusImageProjectionBlock[resampler.layers[0]]|LayerNorm[resampler.layers[0].ln0]|/usr/local/lib/python3.11/dist-packages/diffusers/models/embeddings.py:2245|forward|2246|sub_66aten__sub")
#loc2793 = loc("2881|IPAdapterPlusImageProjection[resampler]|IPAdapterPlusImageProjectionBlock[resampler.layers[0]]|LayerNorm[resampler.layers[0].ln0]|/usr/local/lib/python3.11/dist-packages/diffusers/models/embeddings.py:2245|forward|2246|add_390aten__add")
#loc2794 = loc("2882|IPAdapterPlusImageProjection[resampler]|IPAdapterPlusImageProjectionBlock[resampler.layers[0]]|LayerNorm[resampler.layers[0].ln0]|/usr/local/lib/python3.11/dist-packages/diffusers/models/embeddings.py:2245|forward|2246|rsqrt_66aten__rsqrt")
#loc2795 = loc("2884|IPAdapterPlusImageProjection[resampler]|IPAdapterPlusImageProjectionBlock[resampler.layers[0]]|LayerNorm[resampler.layers[0].ln0]|/usr/local/lib/python3.11/dist-packages/diffusers/models/embeddings.py:2245|forward|2246|mul_196aten__mul")
#loc2796 = loc("2885|IPAdapterPlusImageProjection[resampler]|IPAdapterPlusImageProjectionBlock[resampler.layers[0]]|LayerNorm[resampler.layers[0].ln0]|/usr/local/lib/python3.11/dist-packages/diffusers/models/embeddings.py:2245|forward|2246|mul_197xla__cast")
#loc2797 = loc("2885|IPAdapterPlusImageProjection[resampler]|IPAdapterPlusImageProjectionBlock[resampler.layers[0]]|LayerNorm[resampler.layers[0].ln0]|/usr/local/lib/python3.11/dist-packages/diffusers/models/embeddings.py:2245|forward|2246|mul_197aten__mul")
#loc2798 = loc("2886|IPAdapterPlusImageProjection[resampler]|IPAdapterPlusImageProjectionBlock[resampler.layers[0]]|LayerNorm[resampler.layers[0].ln0]|/usr/local/lib/python3.11/dist-packages/diffusers/models/embeddings.py:2245|forward|2246|add_391aten__add")
#loc2799 = loc("2887|IPAdapterPlusImageProjection[resampler]|IPAdapterPlusImageProjectionBlock[resampler.layers[0]]|LayerNorm[resampler.layers[0].ln0]|/usr/local/lib/python3.11/dist-packages/diffusers/models/embeddings.py:2245|forward|2246|_to_copy_293xla__cast")
#loc2803 = loc("1025|CLIPVisionModelWithProjection[image_encoder]|CLIPVisionTransformer[image_encoder.vision_model]|CLIPEncoder[image_encoder.vision_model.encoder]|CLIPEncoderLayer[image_encoder.vision_model.encoder.layers[6]]|LayerNorm[image_encoder.vision_model.encoder.layers[6].layer_norm1]|/usr/local/lib/python3.11/dist-packages/transformers/models/clip/modeling_clip.py:377|forward|396|_to_copy_56xla__cast")
#loc2804 = loc("1026|CLIPVisionModelWithProjection[image_encoder]|CLIPVisionTransformer[image_encoder.vision_model]|CLIPEncoder[image_encoder.vision_model.encoder]|CLIPEncoderLayer[image_encoder.vision_model.encoder.layers[6]]|LayerNorm[image_encoder.vision_model.encoder.layers[6].layer_norm1]|/usr/local/lib/python3.11/dist-packages/transformers/models/clip/modeling_clip.py:377|forward|396|var_mean_13aten__var_mean")
#loc2805 = loc("1029|CLIPVisionModelWithProjection[image_encoder]|CLIPVisionTransformer[image_encoder.vision_model]|CLIPEncoder[image_encoder.vision_model.encoder]|CLIPEncoderLayer[image_encoder.vision_model.encoder.layers[6]]|LayerNorm[image_encoder.vision_model.encoder.layers[6].layer_norm1]|/usr/local/lib/python3.11/dist-packages/transformers/models/clip/modeling_clip.py:377|forward|396|sub_13aten__sub")
#loc2806 = loc("1027|CLIPVisionModelWithProjection[image_encoder]|CLIPVisionTransformer[image_encoder.vision_model]|CLIPEncoder[image_encoder.vision_model.encoder]|CLIPEncoderLayer[image_encoder.vision_model.encoder.layers[6]]|LayerNorm[image_encoder.vision_model.encoder.layers[6].layer_norm1]|/usr/local/lib/python3.11/dist-packages/transformers/models/clip/modeling_clip.py:377|forward|396|add_75aten__add")
#loc2807 = loc("1028|CLIPVisionModelWithProjection[image_encoder]|CLIPVisionTransformer[image_encoder.vision_model]|CLIPEncoder[image_encoder.vision_model.encoder]|CLIPEncoderLayer[image_encoder.vision_model.encoder.layers[6]]|LayerNorm[image_encoder.vision_model.encoder.layers[6].layer_norm1]|/usr/local/lib/python3.11/dist-packages/transformers/models/clip/modeling_clip.py:377|forward|396|rsqrt_13aten__rsqrt")
#loc2808 = loc("1030|CLIPVisionModelWithProjection[image_encoder]|CLIPVisionTransformer[image_encoder.vision_model]|CLIPEncoder[image_encoder.vision_model.encoder]|CLIPEncoderLayer[image_encoder.vision_model.encoder.layers[6]]|LayerNorm[image_encoder.vision_model.encoder.layers[6].layer_norm1]|/usr/local/lib/python3.11/dist-packages/transformers/models/clip/modeling_clip.py:377|forward|396|mul_38aten__mul")
#loc2809 = loc("1031|CLIPVisionModelWithProjection[image_encoder]|CLIPVisionTransformer[image_encoder.vision_model]|CLIPEncoder[image_encoder.vision_model.encoder]|CLIPEncoderLayer[image_encoder.vision_model.encoder.layers[6]]|LayerNorm[image_encoder.vision_model.encoder.layers[6].layer_norm1]|/usr/local/lib/python3.11/dist-packages/transformers/models/clip/modeling_clip.py:377|forward|396|mul_39xla__cast")
#loc2810 = loc("1031|CLIPVisionModelWithProjection[image_encoder]|CLIPVisionTransformer[image_encoder.vision_model]|CLIPEncoder[image_encoder.vision_model.encoder]|CLIPEncoderLayer[image_encoder.vision_model.encoder.layers[6]]|LayerNorm[image_encoder.vision_model.encoder.layers[6].layer_norm1]|/usr/local/lib/python3.11/dist-packages/transformers/models/clip/modeling_clip.py:377|forward|396|mul_39aten__mul")
#loc2811 = loc("1032|CLIPVisionModelWithProjection[image_encoder]|CLIPVisionTransformer[image_encoder.vision_model]|CLIPEncoder[image_encoder.vision_model.encoder]|CLIPEncoderLayer[image_encoder.vision_model.encoder.layers[6]]|LayerNorm[image_encoder.vision_model.encoder.layers[6].layer_norm1]|/usr/local/lib/python3.11/dist-packages/transformers/models/clip/modeling_clip.py:377|forward|396|add_76aten__add")
#loc2812 = loc("1033|CLIPVisionModelWithProjection[image_encoder]|CLIPVisionTransformer[image_encoder.vision_model]|CLIPEncoder[image_encoder.vision_model.encoder]|CLIPEncoderLayer[image_encoder.vision_model.encoder.layers[6]]|LayerNorm[image_encoder.vision_model.encoder.layers[6].layer_norm1]|/usr/local/lib/python3.11/dist-packages/transformers/models/clip/modeling_clip.py:377|forward|396|_to_copy_57xla__cast")
#loc2814 = loc("1756|CLIPVisionModelWithProjection[image_encoder]|CLIPVisionTransformer[image_encoder.vision_model]|CLIPEncoder[image_encoder.vision_model.encoder]|CLIPEncoderLayer[image_encoder.vision_model.encoder.layers[15]]|CLIPMLP[image_encoder.vision_model.encoder.layers[15].mlp]|GELUActivation[image_encoder.vision_model.encoder.layers[15].mlp.activation_fn]|/usr/local/lib/python3.11/dist-packages/transformers/models/clip/modeling_clip.py:361|forward|363|gelu_15aten__gelu")
#loc2816 = loc("1608|CLIPVisionModelWithProjection[image_encoder]|CLIPVisionTransformer[image_encoder.vision_model]|CLIPEncoder[image_encoder.vision_model.encoder]|CLIPEncoderLayer[image_encoder.vision_model.encoder.layers[13]]|CLIPMLP[image_encoder.vision_model.encoder.layers[13].mlp]|GELUActivation[image_encoder.vision_model.encoder.layers[13].mlp.activation_fn]|/usr/local/lib/python3.11/dist-packages/transformers/models/clip/modeling_clip.py:361|forward|363|gelu_13aten__gelu")
#loc2818 = loc("2644|CLIPVisionModelWithProjection[image_encoder]|CLIPVisionTransformer[image_encoder.vision_model]|CLIPEncoder[image_encoder.vision_model.encoder]|CLIPEncoderLayer[image_encoder.vision_model.encoder.layers[27]]|CLIPMLP[image_encoder.vision_model.encoder.layers[27].mlp]|GELUActivation[image_encoder.vision_model.encoder.layers[27].mlp.activation_fn]|/usr/local/lib/python3.11/dist-packages/transformers/models/clip/modeling_clip.py:361|forward|363|gelu_27aten__gelu")
#loc2822 = loc("1099|CLIPVisionModelWithProjection[image_encoder]|CLIPVisionTransformer[image_encoder.vision_model]|CLIPEncoder[image_encoder.vision_model.encoder]|CLIPEncoderLayer[image_encoder.vision_model.encoder.layers[7]]|LayerNorm[image_encoder.vision_model.encoder.layers[7].layer_norm1]|/usr/local/lib/python3.11/dist-packages/transformers/models/clip/modeling_clip.py:377|forward|396|_to_copy_65xla__cast")
#loc2823 = loc("1100|CLIPVisionModelWithProjection[image_encoder]|CLIPVisionTransformer[image_encoder.vision_model]|CLIPEncoder[image_encoder.vision_model.encoder]|CLIPEncoderLayer[image_encoder.vision_model.encoder.layers[7]]|LayerNorm[image_encoder.vision_model.encoder.layers[7].layer_norm1]|/usr/local/lib/python3.11/dist-packages/transformers/models/clip/modeling_clip.py:377|forward|396|var_mean_15aten__var_mean")
#loc2824 = loc("1103|CLIPVisionModelWithProjection[image_encoder]|CLIPVisionTransformer[image_encoder.vision_model]|CLIPEncoder[image_encoder.vision_model.encoder]|CLIPEncoderLayer[image_encoder.vision_model.encoder.layers[7]]|LayerNorm[image_encoder.vision_model.encoder.layers[7].layer_norm1]|/usr/local/lib/python3.11/dist-packages/transformers/models/clip/modeling_clip.py:377|forward|396|sub_15aten__sub")
#loc2825 = loc("1101|CLIPVisionModelWithProjection[image_encoder]|CLIPVisionTransformer[image_encoder.vision_model]|CLIPEncoder[image_encoder.vision_model.encoder]|CLIPEncoderLayer[image_encoder.vision_model.encoder.layers[7]]|LayerNorm[image_encoder.vision_model.encoder.layers[7].layer_norm1]|/usr/local/lib/python3.11/dist-packages/transformers/models/clip/modeling_clip.py:377|forward|396|add_87aten__add")
#loc2826 = loc("1102|CLIPVisionModelWithProjection[image_encoder]|CLIPVisionTransformer[image_encoder.vision_model]|CLIPEncoder[image_encoder.vision_model.encoder]|CLIPEncoderLayer[image_encoder.vision_model.encoder.layers[7]]|LayerNorm[image_encoder.vision_model.encoder.layers[7].layer_norm1]|/usr/local/lib/python3.11/dist-packages/transformers/models/clip/modeling_clip.py:377|forward|396|rsqrt_15aten__rsqrt")
#loc2827 = loc("1104|CLIPVisionModelWithProjection[image_encoder]|CLIPVisionTransformer[image_encoder.vision_model]|CLIPEncoder[image_encoder.vision_model.encoder]|CLIPEncoderLayer[image_encoder.vision_model.encoder.layers[7]]|LayerNorm[image_encoder.vision_model.encoder.layers[7].layer_norm1]|/usr/local/lib/python3.11/dist-packages/transformers/models/clip/modeling_clip.py:377|forward|396|mul_44aten__mul")
#loc2828 = loc("1105|CLIPVisionModelWithProjection[image_encoder]|CLIPVisionTransformer[image_encoder.vision_model]|CLIPEncoder[image_encoder.vision_model.encoder]|CLIPEncoderLayer[image_encoder.vision_model.encoder.layers[7]]|LayerNorm[image_encoder.vision_model.encoder.layers[7].layer_norm1]|/usr/local/lib/python3.11/dist-packages/transformers/models/clip/modeling_clip.py:377|forward|396|mul_45xla__cast")
#loc2829 = loc("1105|CLIPVisionModelWithProjection[image_encoder]|CLIPVisionTransformer[image_encoder.vision_model]|CLIPEncoder[image_encoder.vision_model.encoder]|CLIPEncoderLayer[image_encoder.vision_model.encoder.layers[7]]|LayerNorm[image_encoder.vision_model.encoder.layers[7].layer_norm1]|/usr/local/lib/python3.11/dist-packages/transformers/models/clip/modeling_clip.py:377|forward|396|mul_45aten__mul")
#loc2830 = loc("1106|CLIPVisionModelWithProjection[image_encoder]|CLIPVisionTransformer[image_encoder.vision_model]|CLIPEncoder[image_encoder.vision_model.encoder]|CLIPEncoderLayer[image_encoder.vision_model.encoder.layers[7]]|LayerNorm[image_encoder.vision_model.encoder.layers[7].layer_norm1]|/usr/local/lib/python3.11/dist-packages/transformers/models/clip/modeling_clip.py:377|forward|396|add_88aten__add")
#loc2831 = loc("1107|CLIPVisionModelWithProjection[image_encoder]|CLIPVisionTransformer[image_encoder.vision_model]|CLIPEncoder[image_encoder.vision_model.encoder]|CLIPEncoderLayer[image_encoder.vision_model.encoder.layers[7]]|LayerNorm[image_encoder.vision_model.encoder.layers[7].layer_norm1]|/usr/local/lib/python3.11/dist-packages/transformers/models/clip/modeling_clip.py:377|forward|396|_to_copy_66xla__cast")
#loc2835 = loc("1617|CLIPVisionModelWithProjection[image_encoder]|CLIPVisionTransformer[image_encoder.vision_model]|CLIPEncoder[image_encoder.vision_model.encoder]|CLIPEncoderLayer[image_encoder.vision_model.encoder.layers[14]]|LayerNorm[image_encoder.vision_model.encoder.layers[14].layer_norm1]|/usr/local/lib/python3.11/dist-packages/transformers/models/clip/modeling_clip.py:377|forward|396|_to_copy_128xla__cast")
#loc2836 = loc("1618|CLIPVisionModelWithProjection[image_encoder]|CLIPVisionTransformer[image_encoder.vision_model]|CLIPEncoder[image_encoder.vision_model.encoder]|CLIPEncoderLayer[image_encoder.vision_model.encoder.layers[14]]|LayerNorm[image_encoder.vision_model.encoder.layers[14].layer_norm1]|/usr/local/lib/python3.11/dist-packages/transformers/models/clip/modeling_clip.py:377|forward|396|var_mean_29aten__var_mean")
#loc2837 = loc("1621|CLIPVisionModelWithProjection[image_encoder]|CLIPVisionTransformer[image_encoder.vision_model]|CLIPEncoder[image_encoder.vision_model.encoder]|CLIPEncoderLayer[image_encoder.vision_model.encoder.layers[14]]|LayerNorm[image_encoder.vision_model.encoder.layers[14].layer_norm1]|/usr/local/lib/python3.11/dist-packages/transformers/models/clip/modeling_clip.py:377|forward|396|sub_29aten__sub")
#loc2838 = loc("1619|CLIPVisionModelWithProjection[image_encoder]|CLIPVisionTransformer[image_encoder.vision_model]|CLIPEncoder[image_encoder.vision_model.encoder]|CLIPEncoderLayer[image_encoder.vision_model.encoder.layers[14]]|LayerNorm[image_encoder.vision_model.encoder.layers[14].layer_norm1]|/usr/local/lib/python3.11/dist-packages/transformers/models/clip/modeling_clip.py:377|forward|396|add_171aten__add")
#loc2839 = loc("1620|CLIPVisionModelWithProjection[image_encoder]|CLIPVisionTransformer[image_encoder.vision_model]|CLIPEncoder[image_encoder.vision_model.encoder]|CLIPEncoderLayer[image_encoder.vision_model.encoder.layers[14]]|LayerNorm[image_encoder.vision_model.encoder.layers[14].layer_norm1]|/usr/local/lib/python3.11/dist-packages/transformers/models/clip/modeling_clip.py:377|forward|396|rsqrt_29aten__rsqrt")
#loc2840 = loc("1622|CLIPVisionModelWithProjection[image_encoder]|CLIPVisionTransformer[image_encoder.vision_model]|CLIPEncoder[image_encoder.vision_model.encoder]|CLIPEncoderLayer[image_encoder.vision_model.encoder.layers[14]]|LayerNorm[image_encoder.vision_model.encoder.layers[14].layer_norm1]|/usr/local/lib/python3.11/dist-packages/transformers/models/clip/modeling_clip.py:377|forward|396|mul_86aten__mul")
#loc2841 = loc("1623|CLIPVisionModelWithProjection[image_encoder]|CLIPVisionTransformer[image_encoder.vision_model]|CLIPEncoder[image_encoder.vision_model.encoder]|CLIPEncoderLayer[image_encoder.vision_model.encoder.layers[14]]|LayerNorm[image_encoder.vision_model.encoder.layers[14].layer_norm1]|/usr/local/lib/python3.11/dist-packages/transformers/models/clip/modeling_clip.py:377|forward|396|mul_87xla__cast")
#loc2842 = loc("1623|CLIPVisionModelWithProjection[image_encoder]|CLIPVisionTransformer[image_encoder.vision_model]|CLIPEncoder[image_encoder.vision_model.encoder]|CLIPEncoderLayer[image_encoder.vision_model.encoder.layers[14]]|LayerNorm[image_encoder.vision_model.encoder.layers[14].layer_norm1]|/usr/local/lib/python3.11/dist-packages/transformers/models/clip/modeling_clip.py:377|forward|396|mul_87aten__mul")
#loc2843 = loc("1624|CLIPVisionModelWithProjection[image_encoder]|CLIPVisionTransformer[image_encoder.vision_model]|CLIPEncoder[image_encoder.vision_model.encoder]|CLIPEncoderLayer[image_encoder.vision_model.encoder.layers[14]]|LayerNorm[image_encoder.vision_model.encoder.layers[14].layer_norm1]|/usr/local/lib/python3.11/dist-packages/transformers/models/clip/modeling_clip.py:377|forward|396|add_172aten__add")
#loc2844 = loc("1625|CLIPVisionModelWithProjection[image_encoder]|CLIPVisionTransformer[image_encoder.vision_model]|CLIPEncoder[image_encoder.vision_model.encoder]|CLIPEncoderLayer[image_encoder.vision_model.encoder.layers[14]]|LayerNorm[image_encoder.vision_model.encoder.layers[14].layer_norm1]|/usr/local/lib/python3.11/dist-packages/transformers/models/clip/modeling_clip.py:377|forward|396|_to_copy_129xla__cast")
#loc2848 = loc("2964|IPAdapterPlusImageProjection[resampler]|IPAdapterPlusImageProjectionBlock[resampler.layers[1]]|LayerNorm[resampler.layers[1].ln0]|/usr/local/lib/python3.11/dist-packages/diffusers/models/embeddings.py:2245|forward|2246|_to_copy_303xla__cast")
#loc2849 = loc("2965|IPAdapterPlusImageProjection[resampler]|IPAdapterPlusImageProjectionBlock[resampler.layers[1]]|LayerNorm[resampler.layers[1].ln0]|/usr/local/lib/python3.11/dist-packages/diffusers/models/embeddings.py:2245|forward|2246|var_mean_69aten__var_mean")
#loc2850 = loc("2968|IPAdapterPlusImageProjection[resampler]|IPAdapterPlusImageProjectionBlock[resampler.layers[1]]|LayerNorm[resampler.layers[1].ln0]|/usr/local/lib/python3.11/dist-packages/diffusers/models/embeddings.py:2245|forward|2246|sub_69aten__sub")
#loc2851 = loc("2966|IPAdapterPlusImageProjection[resampler]|IPAdapterPlusImageProjectionBlock[resampler.layers[1]]|LayerNorm[resampler.layers[1].ln0]|/usr/local/lib/python3.11/dist-packages/diffusers/models/embeddings.py:2245|forward|2246|add_398aten__add")
#loc2852 = loc("2967|IPAdapterPlusImageProjection[resampler]|IPAdapterPlusImageProjectionBlock[resampler.layers[1]]|LayerNorm[resampler.layers[1].ln0]|/usr/local/lib/python3.11/dist-packages/diffusers/models/embeddings.py:2245|forward|2246|rsqrt_69aten__rsqrt")
#loc2853 = loc("2969|IPAdapterPlusImageProjection[resampler]|IPAdapterPlusImageProjectionBlock[resampler.layers[1]]|LayerNorm[resampler.layers[1].ln0]|/usr/local/lib/python3.11/dist-packages/diffusers/models/embeddings.py:2245|forward|2246|mul_204aten__mul")
#loc2854 = loc("2970|IPAdapterPlusImageProjection[resampler]|IPAdapterPlusImageProjectionBlock[resampler.layers[1]]|LayerNorm[resampler.layers[1].ln0]|/usr/local/lib/python3.11/dist-packages/diffusers/models/embeddings.py:2245|forward|2246|mul_205xla__cast")
#loc2855 = loc("2970|IPAdapterPlusImageProjection[resampler]|IPAdapterPlusImageProjectionBlock[resampler.layers[1]]|LayerNorm[resampler.layers[1].ln0]|/usr/local/lib/python3.11/dist-packages/diffusers/models/embeddings.py:2245|forward|2246|mul_205aten__mul")
#loc2856 = loc("2971|IPAdapterPlusImageProjection[resampler]|IPAdapterPlusImageProjectionBlock[resampler.layers[1]]|LayerNorm[resampler.layers[1].ln0]|/usr/local/lib/python3.11/dist-packages/diffusers/models/embeddings.py:2245|forward|2246|add_399aten__add")
#loc2857 = loc("2972|IPAdapterPlusImageProjection[resampler]|IPAdapterPlusImageProjectionBlock[resampler.layers[1]]|LayerNorm[resampler.layers[1].ln0]|/usr/local/lib/python3.11/dist-packages/diffusers/models/embeddings.py:2245|forward|2246|_to_copy_304xla__cast")
#loc2859 = loc("1460|CLIPVisionModelWithProjection[image_encoder]|CLIPVisionTransformer[image_encoder.vision_model]|CLIPEncoder[image_encoder.vision_model.encoder]|CLIPEncoderLayer[image_encoder.vision_model.encoder.layers[11]]|CLIPMLP[image_encoder.vision_model.encoder.layers[11].mlp]|GELUActivation[image_encoder.vision_model.encoder.layers[11].mlp.activation_fn]|/usr/local/lib/python3.11/dist-packages/transformers/models/clip/modeling_clip.py:361|forward|363|gelu_11aten__gelu")
#loc2861 = loc("1682|CLIPVisionModelWithProjection[image_encoder]|CLIPVisionTransformer[image_encoder.vision_model]|CLIPEncoder[image_encoder.vision_model.encoder]|CLIPEncoderLayer[image_encoder.vision_model.encoder.layers[14]]|CLIPMLP[image_encoder.vision_model.encoder.layers[14].mlp]|GELUActivation[image_encoder.vision_model.encoder.layers[14].mlp.activation_fn]|/usr/local/lib/python3.11/dist-packages/transformers/models/clip/modeling_clip.py:361|forward|363|gelu_14aten__gelu")
#loc2865 = loc("877|CLIPVisionModelWithProjection[image_encoder]|CLIPVisionTransformer[image_encoder.vision_model]|CLIPEncoder[image_encoder.vision_model.encoder]|CLIPEncoderLayer[image_encoder.vision_model.encoder.layers[4]]|LayerNorm[image_encoder.vision_model.encoder.layers[4].layer_norm1]|/usr/local/lib/python3.11/dist-packages/transformers/models/clip/modeling_clip.py:377|forward|396|_to_copy_38xla__cast")
#loc2866 = loc("878|CLIPVisionModelWithProjection[image_encoder]|CLIPVisionTransformer[image_encoder.vision_model]|CLIPEncoder[image_encoder.vision_model.encoder]|CLIPEncoderLayer[image_encoder.vision_model.encoder.layers[4]]|LayerNorm[image_encoder.vision_model.encoder.layers[4].layer_norm1]|/usr/local/lib/python3.11/dist-packages/transformers/models/clip/modeling_clip.py:377|forward|396|var_mean_9aten__var_mean")
#loc2867 = loc("881|CLIPVisionModelWithProjection[image_encoder]|CLIPVisionTransformer[image_encoder.vision_model]|CLIPEncoder[image_encoder.vision_model.encoder]|CLIPEncoderLayer[image_encoder.vision_model.encoder.layers[4]]|LayerNorm[image_encoder.vision_model.encoder.layers[4].layer_norm1]|/usr/local/lib/python3.11/dist-packages/transformers/models/clip/modeling_clip.py:377|forward|396|sub_9aten__sub")
#loc2868 = loc("879|CLIPVisionModelWithProjection[image_encoder]|CLIPVisionTransformer[image_encoder.vision_model]|CLIPEncoder[image_encoder.vision_model.encoder]|CLIPEncoderLayer[image_encoder.vision_model.encoder.layers[4]]|LayerNorm[image_encoder.vision_model.encoder.layers[4].layer_norm1]|/usr/local/lib/python3.11/dist-packages/transformers/models/clip/modeling_clip.py:377|forward|396|add_51aten__add")
#loc2869 = loc("880|CLIPVisionModelWithProjection[image_encoder]|CLIPVisionTransformer[image_encoder.vision_model]|CLIPEncoder[image_encoder.vision_model.encoder]|CLIPEncoderLayer[image_encoder.vision_model.encoder.layers[4]]|LayerNorm[image_encoder.vision_model.encoder.layers[4].layer_norm1]|/usr/local/lib/python3.11/dist-packages/transformers/models/clip/modeling_clip.py:377|forward|396|rsqrt_9aten__rsqrt")
#loc2870 = loc("882|CLIPVisionModelWithProjection[image_encoder]|CLIPVisionTransformer[image_encoder.vision_model]|CLIPEncoder[image_encoder.vision_model.encoder]|CLIPEncoderLayer[image_encoder.vision_model.encoder.layers[4]]|LayerNorm[image_encoder.vision_model.encoder.layers[4].layer_norm1]|/usr/local/lib/python3.11/dist-packages/transformers/models/clip/modeling_clip.py:377|forward|396|mul_26aten__mul")
#loc2871 = loc("883|CLIPVisionModelWithProjection[image_encoder]|CLIPVisionTransformer[image_encoder.vision_model]|CLIPEncoder[image_encoder.vision_model.encoder]|CLIPEncoderLayer[image_encoder.vision_model.encoder.layers[4]]|LayerNorm[image_encoder.vision_model.encoder.layers[4].layer_norm1]|/usr/local/lib/python3.11/dist-packages/transformers/models/clip/modeling_clip.py:377|forward|396|mul_27xla__cast")
#loc2872 = loc("883|CLIPVisionModelWithProjection[image_encoder]|CLIPVisionTransformer[image_encoder.vision_model]|CLIPEncoder[image_encoder.vision_model.encoder]|CLIPEncoderLayer[image_encoder.vision_model.encoder.layers[4]]|LayerNorm[image_encoder.vision_model.encoder.layers[4].layer_norm1]|/usr/local/lib/python3.11/dist-packages/transformers/models/clip/modeling_clip.py:377|forward|396|mul_27aten__mul")
#loc2873 = loc("884|CLIPVisionModelWithProjection[image_encoder]|CLIPVisionTransformer[image_encoder.vision_model]|CLIPEncoder[image_encoder.vision_model.encoder]|CLIPEncoderLayer[image_encoder.vision_model.encoder.layers[4]]|LayerNorm[image_encoder.vision_model.encoder.layers[4].layer_norm1]|/usr/local/lib/python3.11/dist-packages/transformers/models/clip/modeling_clip.py:377|forward|396|add_52aten__add")
#loc2874 = loc("885|CLIPVisionModelWithProjection[image_encoder]|CLIPVisionTransformer[image_encoder.vision_model]|CLIPEncoder[image_encoder.vision_model.encoder]|CLIPEncoderLayer[image_encoder.vision_model.encoder.layers[4]]|LayerNorm[image_encoder.vision_model.encoder.layers[4].layer_norm1]|/usr/local/lib/python3.11/dist-packages/transformers/models/clip/modeling_clip.py:377|forward|396|_to_copy_39xla__cast")
#loc2878 = loc("1469|CLIPVisionModelWithProjection[image_encoder]|CLIPVisionTransformer[image_encoder.vision_model]|CLIPEncoder[image_encoder.vision_model.encoder]|CLIPEncoderLayer[image_encoder.vision_model.encoder.layers[12]]|LayerNorm[image_encoder.vision_model.encoder.layers[12].layer_norm1]|/usr/local/lib/python3.11/dist-packages/transformers/models/clip/modeling_clip.py:377|forward|396|_to_copy_110xla__cast")
#loc2879 = loc("1470|CLIPVisionModelWithProjection[image_encoder]|CLIPVisionTransformer[image_encoder.vision_model]|CLIPEncoder[image_encoder.vision_model.encoder]|CLIPEncoderLayer[image_encoder.vision_model.encoder.layers[12]]|LayerNorm[image_encoder.vision_model.encoder.layers[12].layer_norm1]|/usr/local/lib/python3.11/dist-packages/transformers/models/clip/modeling_clip.py:377|forward|396|var_mean_25aten__var_mean")
#loc2880 = loc("1473|CLIPVisionModelWithProjection[image_encoder]|CLIPVisionTransformer[image_encoder.vision_model]|CLIPEncoder[image_encoder.vision_model.encoder]|CLIPEncoderLayer[image_encoder.vision_model.encoder.layers[12]]|LayerNorm[image_encoder.vision_model.encoder.layers[12].layer_norm1]|/usr/local/lib/python3.11/dist-packages/transformers/models/clip/modeling_clip.py:377|forward|396|sub_25aten__sub")
#loc2881 = loc("1471|CLIPVisionModelWithProjection[image_encoder]|CLIPVisionTransformer[image_encoder.vision_model]|CLIPEncoder[image_encoder.vision_model.encoder]|CLIPEncoderLayer[image_encoder.vision_model.encoder.layers[12]]|LayerNorm[image_encoder.vision_model.encoder.layers[12].layer_norm1]|/usr/local/lib/python3.11/dist-packages/transformers/models/clip/modeling_clip.py:377|forward|396|add_147aten__add")
#loc2882 = loc("1472|CLIPVisionModelWithProjection[image_encoder]|CLIPVisionTransformer[image_encoder.vision_model]|CLIPEncoder[image_encoder.vision_model.encoder]|CLIPEncoderLayer[image_encoder.vision_model.encoder.layers[12]]|LayerNorm[image_encoder.vision_model.encoder.layers[12].layer_norm1]|/usr/local/lib/python3.11/dist-packages/transformers/models/clip/modeling_clip.py:377|forward|396|rsqrt_25aten__rsqrt")
#loc2883 = loc("1474|CLIPVisionModelWithProjection[image_encoder]|CLIPVisionTransformer[image_encoder.vision_model]|CLIPEncoder[image_encoder.vision_model.encoder]|CLIPEncoderLayer[image_encoder.vision_model.encoder.layers[12]]|LayerNorm[image_encoder.vision_model.encoder.layers[12].layer_norm1]|/usr/local/lib/python3.11/dist-packages/transformers/models/clip/modeling_clip.py:377|forward|396|mul_74aten__mul")
#loc2884 = loc("1475|CLIPVisionModelWithProjection[image_encoder]|CLIPVisionTransformer[image_encoder.vision_model]|CLIPEncoder[image_encoder.vision_model.encoder]|CLIPEncoderLayer[image_encoder.vision_model.encoder.layers[12]]|LayerNorm[image_encoder.vision_model.encoder.layers[12].layer_norm1]|/usr/local/lib/python3.11/dist-packages/transformers/models/clip/modeling_clip.py:377|forward|396|mul_75xla__cast")
#loc2885 = loc("1475|CLIPVisionModelWithProjection[image_encoder]|CLIPVisionTransformer[image_encoder.vision_model]|CLIPEncoder[image_encoder.vision_model.encoder]|CLIPEncoderLayer[image_encoder.vision_model.encoder.layers[12]]|LayerNorm[image_encoder.vision_model.encoder.layers[12].layer_norm1]|/usr/local/lib/python3.11/dist-packages/transformers/models/clip/modeling_clip.py:377|forward|396|mul_75aten__mul")
#loc2886 = loc("1476|CLIPVisionModelWithProjection[image_encoder]|CLIPVisionTransformer[image_encoder.vision_model]|CLIPEncoder[image_encoder.vision_model.encoder]|CLIPEncoderLayer[image_encoder.vision_model.encoder.layers[12]]|LayerNorm[image_encoder.vision_model.encoder.layers[12].layer_norm1]|/usr/local/lib/python3.11/dist-packages/transformers/models/clip/modeling_clip.py:377|forward|396|add_148aten__add")
#loc2887 = loc("1477|CLIPVisionModelWithProjection[image_encoder]|CLIPVisionTransformer[image_encoder.vision_model]|CLIPEncoder[image_encoder.vision_model.encoder]|CLIPEncoderLayer[image_encoder.vision_model.encoder.layers[12]]|LayerNorm[image_encoder.vision_model.encoder.layers[12].layer_norm1]|/usr/local/lib/python3.11/dist-packages/transformers/models/clip/modeling_clip.py:377|forward|396|_to_copy_111xla__cast")
#loc2889 = loc("1830|CLIPVisionModelWithProjection[image_encoder]|CLIPVisionTransformer[image_encoder.vision_model]|CLIPEncoder[image_encoder.vision_model.encoder]|CLIPEncoderLayer[image_encoder.vision_model.encoder.layers[16]]|CLIPMLP[image_encoder.vision_model.encoder.layers[16].mlp]|GELUActivation[image_encoder.vision_model.encoder.layers[16].mlp.activation_fn]|/usr/local/lib/python3.11/dist-packages/transformers/models/clip/modeling_clip.py:361|forward|363|gelu_16aten__gelu")
#loc2893 = loc("1890|CLIPVisionModelWithProjection[image_encoder]|CLIPVisionTransformer[image_encoder.vision_model]|CLIPEncoder[image_encoder.vision_model.encoder]|CLIPEncoderLayer[image_encoder.vision_model.encoder.layers[17]]|LayerNorm[image_encoder.vision_model.encoder.layers[17].layer_norm2]|/usr/local/lib/python3.11/dist-packages/transformers/models/clip/modeling_clip.py:377|forward|406|_to_copy_162xla__cast")
#loc2894 = loc("1891|CLIPVisionModelWithProjection[image_encoder]|CLIPVisionTransformer[image_encoder.vision_model]|CLIPEncoder[image_encoder.vision_model.encoder]|CLIPEncoderLayer[image_encoder.vision_model.encoder.layers[17]]|LayerNorm[image_encoder.vision_model.encoder.layers[17].layer_norm2]|/usr/local/lib/python3.11/dist-packages/transformers/models/clip/modeling_clip.py:377|forward|406|var_mean_36aten__var_mean")
#loc2895 = loc("1894|CLIPVisionModelWithProjection[image_encoder]|CLIPVisionTransformer[image_encoder.vision_model]|CLIPEncoder[image_encoder.vision_model.encoder]|CLIPEncoderLayer[image_encoder.vision_model.encoder.layers[17]]|LayerNorm[image_encoder.vision_model.encoder.layers[17].layer_norm2]|/usr/local/lib/python3.11/dist-packages/transformers/models/clip/modeling_clip.py:377|forward|406|sub_36aten__sub")
#loc2896 = loc("1892|CLIPVisionModelWithProjection[image_encoder]|CLIPVisionTransformer[image_encoder.vision_model]|CLIPEncoder[image_encoder.vision_model.encoder]|CLIPEncoderLayer[image_encoder.vision_model.encoder.layers[17]]|LayerNorm[image_encoder.vision_model.encoder.layers[17].layer_norm2]|/usr/local/lib/python3.11/dist-packages/transformers/models/clip/modeling_clip.py:377|forward|406|add_214aten__add")
#loc2897 = loc("1893|CLIPVisionModelWithProjection[image_encoder]|CLIPVisionTransformer[image_encoder.vision_model]|CLIPEncoder[image_encoder.vision_model.encoder]|CLIPEncoderLayer[image_encoder.vision_model.encoder.layers[17]]|LayerNorm[image_encoder.vision_model.encoder.layers[17].layer_norm2]|/usr/local/lib/python3.11/dist-packages/transformers/models/clip/modeling_clip.py:377|forward|406|rsqrt_36aten__rsqrt")
#loc2898 = loc("1895|CLIPVisionModelWithProjection[image_encoder]|CLIPVisionTransformer[image_encoder.vision_model]|CLIPEncoder[image_encoder.vision_model.encoder]|CLIPEncoderLayer[image_encoder.vision_model.encoder.layers[17]]|LayerNorm[image_encoder.vision_model.encoder.layers[17].layer_norm2]|/usr/local/lib/python3.11/dist-packages/transformers/models/clip/modeling_clip.py:377|forward|406|mul_108aten__mul")
#loc2899 = loc("1896|CLIPVisionModelWithProjection[image_encoder]|CLIPVisionTransformer[image_encoder.vision_model]|CLIPEncoder[image_encoder.vision_model.encoder]|CLIPEncoderLayer[image_encoder.vision_model.encoder.layers[17]]|LayerNorm[image_encoder.vision_model.encoder.layers[17].layer_norm2]|/usr/local/lib/python3.11/dist-packages/transformers/models/clip/modeling_clip.py:377|forward|406|mul_109xla__cast")
#loc2900 = loc("1896|CLIPVisionModelWithProjection[image_encoder]|CLIPVisionTransformer[image_encoder.vision_model]|CLIPEncoder[image_encoder.vision_model.encoder]|CLIPEncoderLayer[image_encoder.vision_model.encoder.layers[17]]|LayerNorm[image_encoder.vision_model.encoder.layers[17].layer_norm2]|/usr/local/lib/python3.11/dist-packages/transformers/models/clip/modeling_clip.py:377|forward|406|mul_109aten__mul")
#loc2901 = loc("1897|CLIPVisionModelWithProjection[image_encoder]|CLIPVisionTransformer[image_encoder.vision_model]|CLIPEncoder[image_encoder.vision_model.encoder]|CLIPEncoderLayer[image_encoder.vision_model.encoder.layers[17]]|LayerNorm[image_encoder.vision_model.encoder.layers[17].layer_norm2]|/usr/local/lib/python3.11/dist-packages/transformers/models/clip/modeling_clip.py:377|forward|406|add_215aten__add")
#loc2902 = loc("1898|CLIPVisionModelWithProjection[image_encoder]|CLIPVisionTransformer[image_encoder.vision_model]|CLIPEncoder[image_encoder.vision_model.encoder]|CLIPEncoderLayer[image_encoder.vision_model.encoder.layers[17]]|LayerNorm[image_encoder.vision_model.encoder.layers[17].layer_norm2]|/usr/local/lib/python3.11/dist-packages/transformers/models/clip/modeling_clip.py:377|forward|406|_to_copy_163xla__cast")
#loc2906 = loc("3147|IPAdapterPlusImageProjection[resampler]|IPAdapterPlusImageProjectionBlock[resampler.layers[3]]|LayerNorm[resampler.layers[3].ln1]|/usr/local/lib/python3.11/dist-packages/diffusers/models/embeddings.py:2245|forward|2247|_to_copy_327xla__cast")
#loc2907 = loc("3148|IPAdapterPlusImageProjection[resampler]|IPAdapterPlusImageProjectionBlock[resampler.layers[3]]|LayerNorm[resampler.layers[3].ln1]|/usr/local/lib/python3.11/dist-packages/diffusers/models/embeddings.py:2245|forward|2247|var_mean_76aten__var_mean")
#loc2908 = loc("3151|IPAdapterPlusImageProjection[resampler]|IPAdapterPlusImageProjectionBlock[resampler.layers[3]]|LayerNorm[resampler.layers[3].ln1]|/usr/local/lib/python3.11/dist-packages/diffusers/models/embeddings.py:2245|forward|2247|sub_76aten__sub")
#loc2909 = loc("3149|IPAdapterPlusImageProjection[resampler]|IPAdapterPlusImageProjectionBlock[resampler.layers[3]]|LayerNorm[resampler.layers[3].ln1]|/usr/local/lib/python3.11/dist-packages/diffusers/models/embeddings.py:2245|forward|2247|add_416aten__add")
#loc2910 = loc("3150|IPAdapterPlusImageProjection[resampler]|IPAdapterPlusImageProjectionBlock[resampler.layers[3]]|LayerNorm[resampler.layers[3].ln1]|/usr/local/lib/python3.11/dist-packages/diffusers/models/embeddings.py:2245|forward|2247|rsqrt_76aten__rsqrt")
#loc2911 = loc("3152|IPAdapterPlusImageProjection[resampler]|IPAdapterPlusImageProjectionBlock[resampler.layers[3]]|LayerNorm[resampler.layers[3].ln1]|/usr/local/lib/python3.11/dist-packages/diffusers/models/embeddings.py:2245|forward|2247|mul_222aten__mul")
#loc2912 = loc("3153|IPAdapterPlusImageProjection[resampler]|IPAdapterPlusImageProjectionBlock[resampler.layers[3]]|LayerNorm[resampler.layers[3].ln1]|/usr/local/lib/python3.11/dist-packages/diffusers/models/embeddings.py:2245|forward|2247|mul_223xla__cast")
#loc2913 = loc("3153|IPAdapterPlusImageProjection[resampler]|IPAdapterPlusImageProjectionBlock[resampler.layers[3]]|LayerNorm[resampler.layers[3].ln1]|/usr/local/lib/python3.11/dist-packages/diffusers/models/embeddings.py:2245|forward|2247|mul_223aten__mul")
#loc2914 = loc("3154|IPAdapterPlusImageProjection[resampler]|IPAdapterPlusImageProjectionBlock[resampler.layers[3]]|LayerNorm[resampler.layers[3].ln1]|/usr/local/lib/python3.11/dist-packages/diffusers/models/embeddings.py:2245|forward|2247|add_417aten__add")
#loc2915 = loc("3155|IPAdapterPlusImageProjection[resampler]|IPAdapterPlusImageProjectionBlock[resampler.layers[3]]|LayerNorm[resampler.layers[3].ln1]|/usr/local/lib/python3.11/dist-packages/diffusers/models/embeddings.py:2245|forward|2247|_to_copy_328xla__cast")
#loc2919 = loc("2778|CLIPVisionModelWithProjection[image_encoder]|CLIPVisionTransformer[image_encoder.vision_model]|CLIPEncoder[image_encoder.vision_model.encoder]|CLIPEncoderLayer[image_encoder.vision_model.encoder.layers[29]]|LayerNorm[image_encoder.vision_model.encoder.layers[29].layer_norm2]|/usr/local/lib/python3.11/dist-packages/transformers/models/clip/modeling_clip.py:377|forward|406|_to_copy_270xla__cast")
#loc2920 = loc("2779|CLIPVisionModelWithProjection[image_encoder]|CLIPVisionTransformer[image_encoder.vision_model]|CLIPEncoder[image_encoder.vision_model.encoder]|CLIPEncoderLayer[image_encoder.vision_model.encoder.layers[29]]|LayerNorm[image_encoder.vision_model.encoder.layers[29].layer_norm2]|/usr/local/lib/python3.11/dist-packages/transformers/models/clip/modeling_clip.py:377|forward|406|var_mean_60aten__var_mean")
#loc2921 = loc("2782|CLIPVisionModelWithProjection[image_encoder]|CLIPVisionTransformer[image_encoder.vision_model]|CLIPEncoder[image_encoder.vision_model.encoder]|CLIPEncoderLayer[image_encoder.vision_model.encoder.layers[29]]|LayerNorm[image_encoder.vision_model.encoder.layers[29].layer_norm2]|/usr/local/lib/python3.11/dist-packages/transformers/models/clip/modeling_clip.py:377|forward|406|sub_60aten__sub")
#loc2922 = loc("2780|CLIPVisionModelWithProjection[image_encoder]|CLIPVisionTransformer[image_encoder.vision_model]|CLIPEncoder[image_encoder.vision_model.encoder]|CLIPEncoderLayer[image_encoder.vision_model.encoder.layers[29]]|LayerNorm[image_encoder.vision_model.encoder.layers[29].layer_norm2]|/usr/local/lib/python3.11/dist-packages/transformers/models/clip/modeling_clip.py:377|forward|406|add_358aten__add")
#loc2923 = loc("2781|CLIPVisionModelWithProjection[image_encoder]|CLIPVisionTransformer[image_encoder.vision_model]|CLIPEncoder[image_encoder.vision_model.encoder]|CLIPEncoderLayer[image_encoder.vision_model.encoder.layers[29]]|LayerNorm[image_encoder.vision_model.encoder.layers[29].layer_norm2]|/usr/local/lib/python3.11/dist-packages/transformers/models/clip/modeling_clip.py:377|forward|406|rsqrt_60aten__rsqrt")
#loc2924 = loc("2783|CLIPVisionModelWithProjection[image_encoder]|CLIPVisionTransformer[image_encoder.vision_model]|CLIPEncoder[image_encoder.vision_model.encoder]|CLIPEncoderLayer[image_encoder.vision_model.encoder.layers[29]]|LayerNorm[image_encoder.vision_model.encoder.layers[29].layer_norm2]|/usr/local/lib/python3.11/dist-packages/transformers/models/clip/modeling_clip.py:377|forward|406|mul_180aten__mul")
#loc2925 = loc("2784|CLIPVisionModelWithProjection[image_encoder]|CLIPVisionTransformer[image_encoder.vision_model]|CLIPEncoder[image_encoder.vision_model.encoder]|CLIPEncoderLayer[image_encoder.vision_model.encoder.layers[29]]|LayerNorm[image_encoder.vision_model.encoder.layers[29].layer_norm2]|/usr/local/lib/python3.11/dist-packages/transformers/models/clip/modeling_clip.py:377|forward|406|mul_181xla__cast")
#loc2926 = loc("2784|CLIPVisionModelWithProjection[image_encoder]|CLIPVisionTransformer[image_encoder.vision_model]|CLIPEncoder[image_encoder.vision_model.encoder]|CLIPEncoderLayer[image_encoder.vision_model.encoder.layers[29]]|LayerNorm[image_encoder.vision_model.encoder.layers[29].layer_norm2]|/usr/local/lib/python3.11/dist-packages/transformers/models/clip/modeling_clip.py:377|forward|406|mul_181aten__mul")
#loc2927 = loc("2785|CLIPVisionModelWithProjection[image_encoder]|CLIPVisionTransformer[image_encoder.vision_model]|CLIPEncoder[image_encoder.vision_model.encoder]|CLIPEncoderLayer[image_encoder.vision_model.encoder.layers[29]]|LayerNorm[image_encoder.vision_model.encoder.layers[29].layer_norm2]|/usr/local/lib/python3.11/dist-packages/transformers/models/clip/modeling_clip.py:377|forward|406|add_359aten__add")
#loc2928 = loc("2786|CLIPVisionModelWithProjection[image_encoder]|CLIPVisionTransformer[image_encoder.vision_model]|CLIPEncoder[image_encoder.vision_model.encoder]|CLIPEncoderLayer[image_encoder.vision_model.encoder.layers[29]]|LayerNorm[image_encoder.vision_model.encoder.layers[29].layer_norm2]|/usr/local/lib/python3.11/dist-packages/transformers/models/clip/modeling_clip.py:377|forward|406|_to_copy_271xla__cast")
#loc2932 = loc("1543|CLIPVisionModelWithProjection[image_encoder]|CLIPVisionTransformer[image_encoder.vision_model]|CLIPEncoder[image_encoder.vision_model.encoder]|CLIPEncoderLayer[image_encoder.vision_model.encoder.layers[13]]|LayerNorm[image_encoder.vision_model.encoder.layers[13].layer_norm1]|/usr/local/lib/python3.11/dist-packages/transformers/models/clip/modeling_clip.py:377|forward|396|_to_copy_119xla__cast")
#loc2933 = loc("1544|CLIPVisionModelWithProjection[image_encoder]|CLIPVisionTransformer[image_encoder.vision_model]|CLIPEncoder[image_encoder.vision_model.encoder]|CLIPEncoderLayer[image_encoder.vision_model.encoder.layers[13]]|LayerNorm[image_encoder.vision_model.encoder.layers[13].layer_norm1]|/usr/local/lib/python3.11/dist-packages/transformers/models/clip/modeling_clip.py:377|forward|396|var_mean_27aten__var_mean")
#loc2934 = loc("1547|CLIPVisionModelWithProjection[image_encoder]|CLIPVisionTransformer[image_encoder.vision_model]|CLIPEncoder[image_encoder.vision_model.encoder]|CLIPEncoderLayer[image_encoder.vision_model.encoder.layers[13]]|LayerNorm[image_encoder.vision_model.encoder.layers[13].layer_norm1]|/usr/local/lib/python3.11/dist-packages/transformers/models/clip/modeling_clip.py:377|forward|396|sub_27aten__sub")
#loc2935 = loc("1545|CLIPVisionModelWithProjection[image_encoder]|CLIPVisionTransformer[image_encoder.vision_model]|CLIPEncoder[image_encoder.vision_model.encoder]|CLIPEncoderLayer[image_encoder.vision_model.encoder.layers[13]]|LayerNorm[image_encoder.vision_model.encoder.layers[13].layer_norm1]|/usr/local/lib/python3.11/dist-packages/transformers/models/clip/modeling_clip.py:377|forward|396|add_159aten__add")
#loc2936 = loc("1546|CLIPVisionModelWithProjection[image_encoder]|CLIPVisionTransformer[image_encoder.vision_model]|CLIPEncoder[image_encoder.vision_model.encoder]|CLIPEncoderLayer[image_encoder.vision_model.encoder.layers[13]]|LayerNorm[image_encoder.vision_model.encoder.layers[13].layer_norm1]|/usr/local/lib/python3.11/dist-packages/transformers/models/clip/modeling_clip.py:377|forward|396|rsqrt_27aten__rsqrt")
#loc2937 = loc("1548|CLIPVisionModelWithProjection[image_encoder]|CLIPVisionTransformer[image_encoder.vision_model]|CLIPEncoder[image_encoder.vision_model.encoder]|CLIPEncoderLayer[image_encoder.vision_model.encoder.layers[13]]|LayerNorm[image_encoder.vision_model.encoder.layers[13].layer_norm1]|/usr/local/lib/python3.11/dist-packages/transformers/models/clip/modeling_clip.py:377|forward|396|mul_80aten__mul")
#loc2938 = loc("1549|CLIPVisionModelWithProjection[image_encoder]|CLIPVisionTransformer[image_encoder.vision_model]|CLIPEncoder[image_encoder.vision_model.encoder]|CLIPEncoderLayer[image_encoder.vision_model.encoder.layers[13]]|LayerNorm[image_encoder.vision_model.encoder.layers[13].layer_norm1]|/usr/local/lib/python3.11/dist-packages/transformers/models/clip/modeling_clip.py:377|forward|396|mul_81xla__cast")
#loc2939 = loc("1549|CLIPVisionModelWithProjection[image_encoder]|CLIPVisionTransformer[image_encoder.vision_model]|CLIPEncoder[image_encoder.vision_model.encoder]|CLIPEncoderLayer[image_encoder.vision_model.encoder.layers[13]]|LayerNorm[image_encoder.vision_model.encoder.layers[13].layer_norm1]|/usr/local/lib/python3.11/dist-packages/transformers/models/clip/modeling_clip.py:377|forward|396|mul_81aten__mul")
#loc2940 = loc("1550|CLIPVisionModelWithProjection[image_encoder]|CLIPVisionTransformer[image_encoder.vision_model]|CLIPEncoder[image_encoder.vision_model.encoder]|CLIPEncoderLayer[image_encoder.vision_model.encoder.layers[13]]|LayerNorm[image_encoder.vision_model.encoder.layers[13].layer_norm1]|/usr/local/lib/python3.11/dist-packages/transformers/models/clip/modeling_clip.py:377|forward|396|add_160aten__add")
#loc2941 = loc("1551|CLIPVisionModelWithProjection[image_encoder]|CLIPVisionTransformer[image_encoder.vision_model]|CLIPEncoder[image_encoder.vision_model.encoder]|CLIPEncoderLayer[image_encoder.vision_model.encoder.layers[13]]|LayerNorm[image_encoder.vision_model.encoder.layers[13].layer_norm1]|/usr/local/lib/python3.11/dist-packages/transformers/models/clip/modeling_clip.py:377|forward|396|_to_copy_120xla__cast")
#loc2943 = loc("1904|CLIPVisionModelWithProjection[image_encoder]|CLIPVisionTransformer[image_encoder.vision_model]|CLIPEncoder[image_encoder.vision_model.encoder]|CLIPEncoderLayer[image_encoder.vision_model.encoder.layers[17]]|CLIPMLP[image_encoder.vision_model.encoder.layers[17].mlp]|GELUActivation[image_encoder.vision_model.encoder.layers[17].mlp.activation_fn]|/usr/local/lib/python3.11/dist-packages/transformers/models/clip/modeling_clip.py:361|forward|363|gelu_17aten__gelu")
#loc2947 = loc("1913|CLIPVisionModelWithProjection[image_encoder]|CLIPVisionTransformer[image_encoder.vision_model]|CLIPEncoder[image_encoder.vision_model.encoder]|CLIPEncoderLayer[image_encoder.vision_model.encoder.layers[18]]|LayerNorm[image_encoder.vision_model.encoder.layers[18].layer_norm1]|/usr/local/lib/python3.11/dist-packages/transformers/models/clip/modeling_clip.py:377|forward|396|_to_copy_164xla__cast")
#loc2948 = loc("1914|CLIPVisionModelWithProjection[image_encoder]|CLIPVisionTransformer[image_encoder.vision_model]|CLIPEncoder[image_encoder.vision_model.encoder]|CLIPEncoderLayer[image_encoder.vision_model.encoder.layers[18]]|LayerNorm[image_encoder.vision_model.encoder.layers[18].layer_norm1]|/usr/local/lib/python3.11/dist-packages/transformers/models/clip/modeling_clip.py:377|forward|396|var_mean_37aten__var_mean")
#loc2949 = loc("1917|CLIPVisionModelWithProjection[image_encoder]|CLIPVisionTransformer[image_encoder.vision_model]|CLIPEncoder[image_encoder.vision_model.encoder]|CLIPEncoderLayer[image_encoder.vision_model.encoder.layers[18]]|LayerNorm[image_encoder.vision_model.encoder.layers[18].layer_norm1]|/usr/local/lib/python3.11/dist-packages/transformers/models/clip/modeling_clip.py:377|forward|396|sub_37aten__sub")
#loc2950 = loc("1915|CLIPVisionModelWithProjection[image_encoder]|CLIPVisionTransformer[image_encoder.vision_model]|CLIPEncoder[image_encoder.vision_model.encoder]|CLIPEncoderLayer[image_encoder.vision_model.encoder.layers[18]]|LayerNorm[image_encoder.vision_model.encoder.layers[18].layer_norm1]|/usr/local/lib/python3.11/dist-packages/transformers/models/clip/modeling_clip.py:377|forward|396|add_219aten__add")
#loc2951 = loc("1916|CLIPVisionModelWithProjection[image_encoder]|CLIPVisionTransformer[image_encoder.vision_model]|CLIPEncoder[image_encoder.vision_model.encoder]|CLIPEncoderLayer[image_encoder.vision_model.encoder.layers[18]]|LayerNorm[image_encoder.vision_model.encoder.layers[18].layer_norm1]|/usr/local/lib/python3.11/dist-packages/transformers/models/clip/modeling_clip.py:377|forward|396|rsqrt_37aten__rsqrt")
#loc2952 = loc("1918|CLIPVisionModelWithProjection[image_encoder]|CLIPVisionTransformer[image_encoder.vision_model]|CLIPEncoder[image_encoder.vision_model.encoder]|CLIPEncoderLayer[image_encoder.vision_model.encoder.layers[18]]|LayerNorm[image_encoder.vision_model.encoder.layers[18].layer_norm1]|/usr/local/lib/python3.11/dist-packages/transformers/models/clip/modeling_clip.py:377|forward|396|mul_110aten__mul")
#loc2953 = loc("1919|CLIPVisionModelWithProjection[image_encoder]|CLIPVisionTransformer[image_encoder.vision_model]|CLIPEncoder[image_encoder.vision_model.encoder]|CLIPEncoderLayer[image_encoder.vision_model.encoder.layers[18]]|LayerNorm[image_encoder.vision_model.encoder.layers[18].layer_norm1]|/usr/local/lib/python3.11/dist-packages/transformers/models/clip/modeling_clip.py:377|forward|396|mul_111xla__cast")
#loc2954 = loc("1919|CLIPVisionModelWithProjection[image_encoder]|CLIPVisionTransformer[image_encoder.vision_model]|CLIPEncoder[image_encoder.vision_model.encoder]|CLIPEncoderLayer[image_encoder.vision_model.encoder.layers[18]]|LayerNorm[image_encoder.vision_model.encoder.layers[18].layer_norm1]|/usr/local/lib/python3.11/dist-packages/transformers/models/clip/modeling_clip.py:377|forward|396|mul_111aten__mul")
#loc2955 = loc("1920|CLIPVisionModelWithProjection[image_encoder]|CLIPVisionTransformer[image_encoder.vision_model]|CLIPEncoder[image_encoder.vision_model.encoder]|CLIPEncoderLayer[image_encoder.vision_model.encoder.layers[18]]|LayerNorm[image_encoder.vision_model.encoder.layers[18].layer_norm1]|/usr/local/lib/python3.11/dist-packages/transformers/models/clip/modeling_clip.py:377|forward|396|add_220aten__add")
#loc2956 = loc("1921|CLIPVisionModelWithProjection[image_encoder]|CLIPVisionTransformer[image_encoder.vision_model]|CLIPEncoder[image_encoder.vision_model.encoder]|CLIPEncoderLayer[image_encoder.vision_model.encoder.layers[18]]|LayerNorm[image_encoder.vision_model.encoder.layers[18].layer_norm1]|/usr/local/lib/python3.11/dist-packages/transformers/models/clip/modeling_clip.py:377|forward|396|_to_copy_165xla__cast")
