#dram = #ttnn.buffer_type<dram>
#system_desc = #ttcore.system_desc<[{role = host, target_triple = "x86_64-pc-linux"}], [{arch = <wormhole_b0>, grid = 8x8, coord_translation_offsets = 18x18, l1_size = 1499136, num_dram_channels = 12, dram_channel_size = 1073741824, noc_l1_address_align_bytes = 16, pcie_address_align_bytes = 32, noc_dram_address_align_bytes = 32, l1_unreserved_base = 103712, erisc_l1_unreserved_base = 98304, dram_unreserved_base = 1920032, dram_unreserved_end = 1073136832, supported_data_types = [<f32>, <f16>, <bf16>, <bfp_f8>, <bfp_bf8>, <bfp_f4>, <bfp_bf4>, <bfp_f2>, <bfp_bf2>, <u32>, <u16>, <u8>, <si32>], supported_tile_sizes = [ 4x16,  16x16,  32x16,  4x32,  16x32,  32x32], dst_physical_size_tiles = 16, num_cbs = 64, num_compute_threads = 1, num_datamovement_threads = 2}, {arch = <wormhole_b0>, grid = 8x8, coord_translation_offsets = 18x18, l1_size = 1499136, num_dram_channels = 12, dram_channel_size = 1073741824, noc_l1_address_align_bytes = 16, pcie_address_align_bytes = 32, noc_dram_address_align_bytes = 32, l1_unreserved_base = 103712, erisc_l1_unreserved_base = 98304, dram_unreserved_base = 1920032, dram_unreserved_end = 1073136832, supported_data_types = [<f32>, <f16>, <bf16>, <bfp_f8>, <bfp_bf8>, <bfp_f4>, <bfp_bf4>, <bfp_f2>, <bfp_bf2>, <u32>, <u16>, <u8>, <si32>], supported_tile_sizes = [ 4x16,  16x16,  32x16,  4x32,  16x32,  32x32], dst_physical_size_tiles = 16, num_cbs = 64, num_compute_threads = 1, num_datamovement_threads = 2}, {arch = <wormhole_b0>, grid = 8x8, coord_translation_offsets = 18x18, l1_size = 1499136, num_dram_channels = 12, dram_channel_size = 1073741824, noc_l1_address_align_bytes = 16, pcie_address_align_bytes = 32, noc_dram_address_align_bytes = 32, l1_unreserved_base = 103712, erisc_l1_unreserved_base = 98304, dram_unreserved_base = 1920032, dram_unreserved_end = 1073136832, supported_data_types = [<f32>, <f16>, <bf16>, <bfp_f8>, <bfp_bf8>, <bfp_f4>, <bfp_bf4>, <bfp_f2>, <bfp_bf2>, <u32>, <u16>, <u8>, <si32>], supported_tile_sizes = [ 4x16,  16x16,  32x16,  4x32,  16x32,  32x32], dst_physical_size_tiles = 16, num_cbs = 64, num_compute_threads = 1, num_datamovement_threads = 2}, {arch = <wormhole_b0>, grid = 8x8, coord_translation_offsets = 18x18, l1_size = 1499136, num_dram_channels = 12, dram_channel_size = 1073741824, noc_l1_address_align_bytes = 16, pcie_address_align_bytes = 32, noc_dram_address_align_bytes = 32, l1_unreserved_base = 103712, erisc_l1_unreserved_base = 98304, dram_unreserved_base = 1920032, dram_unreserved_end = 1073136832, supported_data_types = [<f32>, <f16>, <bf16>, <bfp_f8>, <bfp_bf8>, <bfp_f4>, <bfp_bf4>, <bfp_f2>, <bfp_bf2>, <u32>, <u16>, <u8>, <si32>], supported_tile_sizes = [ 4x16,  16x16,  32x16,  4x32,  16x32,  32x32], dst_physical_size_tiles = 16, num_cbs = 64, num_compute_threads = 1, num_datamovement_threads = 2}, {arch = <wormhole_b0>, grid = 8x8, coord_translation_offsets = 18x18, l1_size = 1499136, num_dram_channels = 12, dram_channel_size = 1073741824, noc_l1_address_align_bytes = 16, pcie_address_align_bytes = 32, noc_dram_address_align_bytes = 32, l1_unreserved_base = 103712, erisc_l1_unreserved_base = 98304, dram_unreserved_base = 1920032, dram_unreserved_end = 1073154112, supported_data_types = [<f32>, <f16>, <bf16>, <bfp_f8>, <bfp_bf8>, <bfp_f4>, <bfp_bf4>, <bfp_f2>, <bfp_bf2>, <u32>, <u16>, <u8>, <si32>], supported_tile_sizes = [ 4x16,  16x16,  32x16,  4x32,  16x32,  32x32], dst_physical_size_tiles = 16, num_cbs = 64, num_compute_threads = 1, num_datamovement_threads = 2}, {arch = <wormhole_b0>, grid = 8x8, coord_translation_offsets = 18x18, l1_size = 1499136, num_dram_channels = 12, dram_channel_size = 1073741824, noc_l1_address_align_bytes = 16, pcie_address_align_bytes = 32, noc_dram_address_align_bytes = 32, l1_unreserved_base = 103712, erisc_l1_unreserved_base = 98304, dram_unreserved_base = 1920032, dram_unreserved_end = 1073154112, supported_data_types = [<f32>, <f16>, <bf16>, <bfp_f8>, <bfp_bf8>, <bfp_f4>, <bfp_bf4>, <bfp_f2>, <bfp_bf2>, <u32>, <u16>, <u8>, <si32>], supported_tile_sizes = [ 4x16,  16x16,  32x16,  4x32,  16x32,  32x32], dst_physical_size_tiles = 16, num_cbs = 64, num_compute_threads = 1, num_datamovement_threads = 2}, {arch = <wormhole_b0>, grid = 8x8, coord_translation_offsets = 18x18, l1_size = 1499136, num_dram_channels = 12, dram_channel_size = 1073741824, noc_l1_address_align_bytes = 16, pcie_address_align_bytes = 32, noc_dram_address_align_bytes = 32, l1_unreserved_base = 103712, erisc_l1_unreserved_base = 98304, dram_unreserved_base = 1920032, dram_unreserved_end = 1073154112, supported_data_types = [<f32>, <f16>, <bf16>, <bfp_f8>, <bfp_bf8>, <bfp_f4>, <bfp_bf4>, <bfp_f2>, <bfp_bf2>, <u32>, <u16>, <u8>, <si32>], supported_tile_sizes = [ 4x16,  16x16,  32x16,  4x32,  16x32,  32x32], dst_physical_size_tiles = 16, num_cbs = 64, num_compute_threads = 1, num_datamovement_threads = 2}, {arch = <wormhole_b0>, grid = 8x8, coord_translation_offsets = 18x18, l1_size = 1499136, num_dram_channels = 12, dram_channel_size = 1073741824, noc_l1_address_align_bytes = 16, pcie_address_align_bytes = 32, noc_dram_address_align_bytes = 32, l1_unreserved_base = 103712, erisc_l1_unreserved_base = 98304, dram_unreserved_base = 1920032, dram_unreserved_end = 1073154112, supported_data_types = [<f32>, <f16>, <bf16>, <bfp_f8>, <bfp_bf8>, <bfp_f4>, <bfp_bf4>, <bfp_f2>, <bfp_bf2>, <u32>, <u16>, <u8>, <si32>], supported_tile_sizes = [ 4x16,  16x16,  32x16,  4x32,  16x32,  32x32], dst_physical_size_tiles = 16, num_cbs = 64, num_compute_threads = 1, num_datamovement_threads = 2}], [0, 1, 2, 3, 4, 5, 6, 7], [1 : i32, 1 : i32, 1 : i32, 1 : i32, 0 : i32, 0 : i32, 0 : i32, 0 : i32], [ 0x0x0x0], [<[0, 6, 0], [3, 6, 0]>, <[0, 7, 0], [3, 7, 0]>, <[0, 9, 0], [6, 1, 0]>, <[0, 14, 0], [1, 14, 0]>, <[0, 15, 0], [1, 15, 0]>, <[1, 0, 0], [2, 0, 0]>, <[1, 1, 0], [2, 1, 0]>, <[1, 9, 0], [5, 1, 0]>, <[2, 9, 0], [7, 1, 0]>, <[2, 14, 0], [3, 14, 0]>, <[2, 15, 0], [3, 15, 0]>, <[3, 9, 0], [4, 1, 0]>, <[4, 6, 0], [7, 6, 0]>, <[5, 6, 0], [6, 6, 0]>]>
#system_memory = #ttnn.buffer_type<system_memory>
#ttnn_layout = #ttnn.ttnn_layout<(d0, d1, d2) -> (d0 * 64 + d1, d2), <1x1>, memref<2x1x!ttcore.tile<32x32, bf16>, #dram>, <interleaved>>
#ttnn_layout1 = #ttnn.ttnn_layout<(d0) -> (0, d0), <1x1>, memref<1x2x!ttcore.tile<32x32, bf16>, #dram>, <interleaved>>
#ttnn_layout2 = #ttnn.ttnn_layout<(d0, d1) -> (d0, d1), <1x1>, memref<576x2048xbf16, #system_memory>>
#ttnn_layout3 = #ttnn.ttnn_layout<(d0, d1) -> (d0, d1), <1x1>, memref<128x2048xbf16, #system_memory>>
#ttnn_layout4 = #ttnn.ttnn_layout<(d0, d1) -> (d0, d1), <1x1>, memref<64x2048xbf16, #system_memory>>
#ttnn_layout5 = #ttnn.ttnn_layout<(d0, d1) -> (d0, d1), <1x1>, memref<3072x2048xbf16, #system_memory>>
#ttnn_layout6 = #ttnn.ttnn_layout<(d0, d1) -> (d0, d1), <1x1>, memref<64x119x!ttcore.tile<32x32, bf16>, #dram>, <interleaved>>
#ttnn_layout7 = #ttnn.ttnn_layout<(d0, d1) -> (d0, d1), <1x1>, memref<3072x2048xbf16, #dram>, <interleaved>>
#ttnn_layout8 = #ttnn.ttnn_layout<(d0, d1) -> (d0, d1), <1x1>, memref<96x64x!ttcore.tile<32x32, bf16>, #dram>, <interleaved>>
#ttnn_layout9 = #ttnn.ttnn_layout<(d0, d1) -> (d0, d1), <1x1>, memref<64x2048xbf16, #dram>, <interleaved>>
#ttnn_layout10 = #ttnn.ttnn_layout<(d0, d1) -> (d0, d1), <1x1>, memref<2x64x!ttcore.tile<32x32, bf16>, #dram>, <interleaved>>
#ttnn_layout11 = #ttnn.ttnn_layout<(d0, d1) -> (d0, d1), <1x1>, memref<128x2048xbf16, #dram>, <interleaved>>
#ttnn_layout12 = #ttnn.ttnn_layout<(d0, d1) -> (d0, d1), <1x1>, memref<4x64x!ttcore.tile<32x32, bf16>, #dram>, <interleaved>>
#ttnn_layout13 = #ttnn.ttnn_layout<(d0, d1) -> (d0, d1), <1x1>, memref<576x2048xbf16, #dram>, <interleaved>>
#ttnn_layout14 = #ttnn.ttnn_layout<(d0, d1) -> (d0, d1), <1x1>, memref<18x64x!ttcore.tile<32x32, bf16>, #dram>, <interleaved>>
#ttnn_layout15 = #ttnn.ttnn_layout<(d0, d1) -> (d0, d1), <1x1>, memref<1x64x!ttcore.tile<32x32, bf16>, #dram>, <interleaved>>
#ttnn_layout16 = #ttnn.ttnn_layout<(d0, d1) -> (d0, d1), <1x1>, memref<64x18x!ttcore.tile<32x32, bf16>, #dram>, <interleaved>>
#ttnn_layout17 = #ttnn.ttnn_layout<(d0, d1) -> (d0, d1), <1x1>, memref<64x1x!ttcore.tile<32x32, bf16>, #dram>, <interleaved>>
#ttnn_layout18 = #ttnn.ttnn_layout<(d0, d1) -> (d0, d1), <1x1>, memref<64x96x!ttcore.tile<32x32, bf16>, #dram>, <interleaved>>
#ttnn_layout19 = #ttnn.ttnn_layout<(d0, d1) -> (d0, d1), <1x1>, memref<64x4x!ttcore.tile<32x32, bf16>, #dram>, <interleaved>>
#ttnn_layout20 = #ttnn.ttnn_layout<(d0, d1) -> (d0, d1), <1x1>, memref<2048x2048xbf16, #system_memory>>
#ttnn_layout21 = #ttnn.ttnn_layout<(d0, d1) -> (d0, d1), <1x1>, memref<64x16x!ttcore.tile<32x32, bf16>, #dram>, <interleaved>>
#ttnn_layout22 = #ttnn.ttnn_layout<(d0, d1) -> (d0, d1), <1x1>, memref<2048x2048xbf16, #dram>, <interleaved>>
#ttnn_layout23 = #ttnn.ttnn_layout<(d0, d1) -> (d0, d1), <1x1>, memref<64x64x!ttcore.tile<32x32, bf16>, #dram>, <interleaved>>
#ttnn_layout24 = #ttnn.ttnn_layout<(d0) -> (0, d0), <1x1>, memref<1x3072xbf16, #system_memory>>
#ttnn_layout25 = #ttnn.ttnn_layout<(d0, d1) -> (d0, d1), <1x1>, memref<1x96x!ttcore.tile<32x32, f32>, #dram>, <interleaved>>
#ttnn_layout26 = #ttnn.ttnn_layout<(d0) -> (0, d0), <1x1>, memref<1x3072xbf16, #dram>, <interleaved>>
#ttnn_layout27 = #ttnn.ttnn_layout<(d0) -> (0, d0), <1x1>, memref<1x96x!ttcore.tile<32x32, bf16>, #dram>, <interleaved>>
#ttnn_layout28 = #ttnn.ttnn_layout<(d0, d1) -> (d0, d1), <1x1>, memref<1x96x!ttcore.tile<32x32, bf16>, #dram>, <interleaved>>
#ttnn_layout29 = #ttnn.ttnn_layout<(d0, d1, d2) -> (d0 * 32 + d1, d2), <1x1>, memref<1x1x!ttcore.tile<32x32, bf16>, #dram>, <interleaved>>
#ttnn_layout30 = #ttnn.ttnn_layout<() -> (0, 0), <1x1>, memref<1x1x!ttcore.tile<32x32, bf16>, #dram>, <interleaved>>
#ttnn_layout31 = #ttnn.ttnn_layout<(d0, d1) -> (d0, d1), <1x1>, memref<3072x3072xbf16, #system_memory>>
#ttnn_layout32 = #ttnn.ttnn_layout<(d0, d1) -> (d0, d1), <1x1>, memref<24x96x!ttcore.tile<32x32, bf16>, #dram>, <interleaved>>
#ttnn_layout33 = #ttnn.ttnn_layout<(d0, d1) -> (d0, d1), <1x1>, memref<3072x3072xbf16, #dram>, <interleaved>>
#ttnn_layout34 = #ttnn.ttnn_layout<(d0, d1) -> (d0, d1), <1x1>, memref<96x96x!ttcore.tile<32x32, bf16>, #dram>, <interleaved>>
#ttnn_layout35 = #ttnn.ttnn_layout<(d0, d1) -> (d0, d1), <1x1>, memref<4096x512xbf16, #system_memory>>
#ttnn_layout36 = #ttnn.ttnn_layout<(d0, d1, d2) -> (d0 * 128 + d1, d2), <1x1>, memref<16x16x!ttcore.tile<32x32, bf16>, #dram>, <interleaved>>
#ttnn_layout37 = #ttnn.ttnn_layout<(d0, d1) -> (d0, d1), <1x1>, memref<4096x512xbf16, #dram>, <interleaved>>
#ttnn_layout38 = #ttnn.ttnn_layout<(d0, d1) -> (d0, d1), <1x1>, memref<128x16x!ttcore.tile<32x32, bf16>, #dram>, <interleaved>>
#ttnn_layout39 = #ttnn.ttnn_layout<(d0, d1) -> (d0, d1), <1x1>, memref<32x16x!ttcore.tile<32x32, bf16>, #dram>, <interleaved>>
#ttnn_layout40 = #ttnn.ttnn_layout<(d0, d1, d2) -> (d0 * 256 + d1, d2), <1x1>, memref<32x16x!ttcore.tile<32x32, bf16>, #dram>, <interleaved>>
#ttnn_layout41 = #ttnn.ttnn_layout<(d0, d1, d2) -> (d0 * 32 + d1, d2), <1x1>, memref<1x1x!ttcore.tile<32x32, f32>, #dram>, <interleaved>>
#ttnn_layout42 = #ttnn.ttnn_layout<(d0, d1) -> (d0, d1), <1x1>, memref<1x1x!ttcore.tile<32x32, f32>, #dram>, <interleaved>>
#ttnn_layout43 = #ttnn.ttnn_layout<(d0, d1) -> (d0, d1), <1x1>, memref<64x1xui32, #dram>, <interleaved>>
#ttnn_layout44 = #ttnn.ttnn_layout<() -> (0, 0), <1x1>, memref<1x1x!ttcore.tile<32x32, si32>, #dram>, <interleaved>>
#ttnn_layout45 = #ttnn.ttnn_layout<(d0) -> (0, d0), <1x1>, memref<1x2x!ttcore.tile<32x32, f32>, #dram>, <interleaved>>
#ttnn_layout46 = #ttnn.ttnn_layout<(d0) -> (0, d0), <1x1>, memref<1x1x!ttcore.tile<32x32, si32>, #dram>, <interleaved>>
#ttnn_layout47 = #ttnn.ttnn_layout<(d0) -> (0, d0), <1x1>, memref<1x2x!ttcore.tile<32x32, si32>, #dram>, <interleaved>>
#ttnn_layout48 = #ttnn.ttnn_layout<(d0, d1) -> (d0, d1), <1x1>, memref<2x1x!ttcore.tile<32x32, si32>, #dram>, <interleaved>>
#ttnn_layout49 = #ttnn.ttnn_layout<(d0, d1) -> (d0, d1), <1x1>, memref<2x1x!ttcore.tile<32x32, u32>, #dram>, <interleaved>>
#ttnn_layout50 = #ttnn.ttnn_layout<(d0, d1, d2, d3) -> (d0 * 16896 + d1 * 512 + d2, d3), <1x1>, memref<528x1x!ttcore.tile<32x32, u32>, #dram>, <interleaved>>
#ttnn_layout51 = #ttnn.ttnn_layout<(d0) -> (0, d0), <1x1>, memref<1x16x!ttcore.tile<32x32, u32>, #dram>, <interleaved>>
#ttnn_layout52 = #ttnn.ttnn_layout<(d0, d1, d2, d3) -> (d0 * 512 + d1 * 512 + d2, d3), <1x1>, memref<16x1x!ttcore.tile<32x32, u32>, #dram>, <interleaved>>
#ttnn_layout53 = #ttnn.ttnn_layout<(d0, d1, d2, d3) -> (d0 * 2112 + d1 * 64 + d2, d3), <1x1>, memref<66x1x!ttcore.tile<32x32, u32>, #dram>, <interleaved>>
#ttnn_layout54 = #ttnn.ttnn_layout<() -> (0, 0), <1x1>, memref<1x1x!ttcore.tile<32x32, u32>, #dram>, <interleaved>>
#ttnn_layout55 = #ttnn.ttnn_layout<(d0, d1, d2, d3) -> (d0 * 32 + d1 * 32 + d2, d3), <1x1>, memref<1x1x!ttcore.tile<32x32, u32>, #dram>, <interleaved>>
#ttnn_layout56 = #ttnn.ttnn_layout<(d0) -> (0, d0), <1x1>, memref<1x2x!ttcore.tile<32x32, u32>, #dram>, <interleaved>>
#ttnn_layout57 = #ttnn.ttnn_layout<(d0, d1, d2, d3) -> (d0 * 64 + d1 * 64 + d2, d3), <1x1>, memref<2x1x!ttcore.tile<32x32, u32>, #dram>, <interleaved>>
#ttnn_layout58 = #ttnn.ttnn_layout<(d0, d1) -> (d0, d1), <1x1>, memref<8192x3072xbf16, #system_memory>>
#ttnn_layout59 = #ttnn.ttnn_layout<(d0, d1) -> (d0, d1), <1x1>, memref<8192x3072xbf16, #dram>, <interleaved>>
#ttnn_layout60 = #ttnn.ttnn_layout<(d0, d1) -> (d0, d1), <1x1>, memref<256x96x!ttcore.tile<32x32, bf16>, #dram>, <interleaved>>
#ttnn_layout61 = #ttnn.ttnn_layout<(d0) -> (0, d0), <1x1>, memref<1x512xbf16, #system_memory>>
#ttnn_layout62 = #ttnn.ttnn_layout<(d0, d1) -> (d0, d1), <1x1>, memref<1x16x!ttcore.tile<32x32, f32>, #dram>, <interleaved>>
#ttnn_layout63 = #ttnn.ttnn_layout<(d0) -> (0, d0), <1x1>, memref<1x512xbf16, #dram>, <interleaved>>
#ttnn_layout64 = #ttnn.ttnn_layout<(d0) -> (0, d0), <1x1>, memref<1x16x!ttcore.tile<32x32, bf16>, #dram>, <interleaved>>
#ttnn_layout65 = #ttnn.ttnn_layout<(d0, d1) -> (d0, d1), <1x1>, memref<1x16x!ttcore.tile<32x32, bf16>, #dram>, <interleaved>>
#ttnn_layout66 = #ttnn.ttnn_layout<(d0, d1, d2) -> (d0 * 64 + d1, d2), <1x1>, memref<64x512xbf16, #dram>, <interleaved>>
#ttnn_layout67 = #ttnn.ttnn_layout<(d0, d1, d2) -> (d0 + d1, d2), <1x1>, memref<1x2048xbf16, #dram>, <interleaved>>
#ttnn_layout68 = #ttnn.ttnn_layout<() -> (0, 0), <1x1>, memref<1x1xbf16, #dram>, <interleaved>>
#ttnn_layout69 = #ttnn.ttnn_layout<(d0, d1, d2) -> (d0 * 64 + d1, d2), <1x1>, memref<64x64xbf16, #dram>, <interleaved>>
#ttnn_layout70 = #ttnn.ttnn_layout<(d0, d1, d2) -> (d0 * 32 + d1, d2), <1x1>, memref<32x2xbf16, #dram>, <interleaved>>
#ttnn_layout71 = #ttnn.ttnn_layout<(d0, d1, d2) -> (d0 * 64 + d1, d2), <1x1>, memref<64x128xbf16, #dram>, <interleaved>>
#ttnn_layout72 = #ttnn.ttnn_layout<(d0, d1) -> (d0, d1), <1x1>, memref<4x4x!ttcore.tile<32x32, bf16>, #dram>, <interleaved>>
#ttnn_layout73 = #ttnn.ttnn_layout<(d0) -> (0, d0), <1x1>, memref<1x4x!ttcore.tile<32x32, bf16>, #dram>, <interleaved>>
#ttnn_layout74 = #ttnn.ttnn_layout<(d0, d1, d2) -> (d0 * 64 + d1, d2), <1x1>, memref<2x16x!ttcore.tile<32x32, bf16>, #dram>, <interleaved>>
#ttnn_layout75 = #ttnn.ttnn_layout<(d0, d1, d2) -> (d0 * 64 + d1, d2), <1x1>, memref<2x2x!ttcore.tile<32x32, bf16>, #dram>, <interleaved>>
#ttnn_layout76 = #ttnn.ttnn_layout<(d0, d1, d2) -> (d0 * 64 + d1, d2), <1x1>, memref<2x4x!ttcore.tile<32x32, bf16>, #dram>, <interleaved>>
#ttnn_layout77 = #ttnn.ttnn_layout<(d0, d1, d2) -> (d0 * 32 + d1, d2), <1x1>, memref<1x64x!ttcore.tile<32x32, bf16>, #dram>, <interleaved>>
#ttnn_layout78 = #ttnn.ttnn_layout<(d0, d1) -> (d0, d1), <1x1>, memref<1x119x!ttcore.tile<32x32, bf16>, #dram>, <interleaved>>
#ttnn_layout79 = #ttnn.ttnn_layout<(d0, d1) -> (d0, d1), <1x1>, memref<1x4x!ttcore.tile<32x32, bf16>, #dram>, <interleaved>>
#ttnn_layout80 = #ttnn.ttnn_layout<(d0, d1, d2) -> (d0 * 32 + d1, d2), <1x1>, memref<1x4x!ttcore.tile<32x32, bf16>, #dram>, <interleaved>>
#ttnn_layout81 = #ttnn.ttnn_layout<(d0, d1) -> (d0, d1), <1x1>, memref<1x18x!ttcore.tile<32x32, bf16>, #dram>, <interleaved>>
#ttnn_layout82 = #ttnn.ttnn_layout<(d0, d1, d2) -> (d0 * 32 + d1, d2), <1x1>, memref<1x18x!ttcore.tile<32x32, bf16>, #dram>, <interleaved>>
#ttnn_layout83 = #ttnn.ttnn_layout<(d0, d1) -> (d0, d1), <1x1>, memref<1x1x!ttcore.tile<32x32, bf16>, #dram>, <interleaved>>
#ttnn_layout84 = #ttnn.ttnn_layout<(d0, d1, d2) -> (d0 * 32 + d1, d2), <1x1>, memref<1x2x!ttcore.tile<32x32, bf16>, #dram>, <interleaved>>
#ttnn_layout85 = #ttnn.ttnn_layout<(d0, d1, d2) -> (d0 * 32 + d1, d2), <1x1>, memref<1x2x!ttcore.tile<32x32, f32>, #dram>, <interleaved>>
#ttnn_layout86 = #ttnn.ttnn_layout<(d0, d1, d2, d3, d4) -> (d0 * 32 + d1 * 32 + d2 * 32 + d3, d4), <1x1>, memref<1x1x!ttcore.tile<32x32, f32>, #dram>, <interleaved>>
#ttnn_layout87 = #ttnn.ttnn_layout<(d0, d1, d2, d3, d4) -> (d0 * 32 + d1 * 32 + d2 * 32 + d3, d4), <1x1>, memref<1x1x!ttcore.tile<32x32, bf16>, #dram>, <interleaved>>
#ttnn_layout88 = #ttnn.ttnn_layout<(d0, d1) -> (d0, d1), <1x1>, memref<1x2x!ttcore.tile<32x32, f32>, #dram>, <interleaved>>
#ttnn_layout89 = #ttnn.ttnn_layout<(d0, d1) -> (d0, d1), <1x1>, memref<1x2x!ttcore.tile<32x32, bf16>, #dram>, <interleaved>>
#ttnn_layout90 = #ttnn.ttnn_layout<(d0, d1) -> (d0, d1), <1x1>, memref<1x128xbf16, #dram>, <interleaved>>
#ttnn_layout91 = #ttnn.ttnn_layout<(d0, d1, d2) -> (d0 * 32 + d1, d2), <1x1>, memref<64x4x!ttcore.tile<32x32, bf16>, #dram>, <interleaved>>
#ttnn_layout92 = #ttnn.ttnn_layout<(d0, d1, d2) -> (d0 * 32 + d1, d2), <1x1>, memref<1x96x!ttcore.tile<32x32, f32>, #dram>, <interleaved>>
#ttnn_layout93 = #ttnn.ttnn_layout<(d0, d1, d2, d3) -> (d0 * 32 + d1 * 32 + d2, d3), <1x1>, memref<1x4x!ttcore.tile<32x32, bf16>, #dram>, <interleaved>>
#ttnn_layout94 = #ttnn.ttnn_layout<(d0, d1, d2, d3) -> (d0 * 32 + d1 * 32 + d2, d3), <1x1>, memref<1x2x!ttcore.tile<32x32, bf16>, #dram>, <interleaved>>
#ttnn_layout95 = #ttnn.ttnn_layout<(d0, d1, d2, d3) -> (d0 * 32 + d1 * 32 + d2, d3), <1x1>, memref<1x2x!ttcore.tile<32x32, f32>, #dram>, <interleaved>>
#ttnn_layout96 = #ttnn.ttnn_layout<(d0, d1, d2, d3, d4) -> (d0 * 512 + d1 * 512 + d2 * 32 + d3, d4), <1x1>, memref<16x1x!ttcore.tile<32x32, f32>, #dram>, <interleaved>>
#ttnn_layout97 = #ttnn.ttnn_layout<(d0, d1, d2) -> (d0 * 32 + d1, d2), <1x1>, memref<4x2x!ttcore.tile<32x32, bf16>, #dram>, <interleaved>>
#ttnn_layout98 = #ttnn.ttnn_layout<(d0, d1, d2) -> (d0 * 32 + d1, d2), <1x1>, memref<1x2x!ttcore.tile<32x32, u16>, #dram>, <interleaved>>
#ttnn_layout99 = #ttnn.ttnn_layout<(d0, d1, d2) -> (d0 * 32 + d1, d2), <1x1>, memref<1x2x!ttcore.tile<32x32, si32>, #dram>, <interleaved>>
#ttnn_layout100 = #ttnn.ttnn_layout<(d0, d1, d2) -> (d0 * 32 + d1, d2), <1x1>, memref<1x16x!ttcore.tile<32x32, bf16>, #dram>, <interleaved>>
#ttnn_layout101 = #ttnn.ttnn_layout<(d0, d1, d2) -> (d0 * 32 + d1, d2), <1x1>, memref<1x16x!ttcore.tile<32x32, f32>, #dram>, <interleaved>>
#ttnn_layout102 = #ttnn.ttnn_layout<(d0, d1) -> (d0, d1), <1x1>, memref<1x512xbf16, #dram>, <interleaved>>
#ttnn_layout103 = #ttnn.ttnn_layout<(d0, d1, d2) -> (d0 * 32 + d1, d2), <1x1>, memref<64x16x!ttcore.tile<32x32, bf16>, #dram>, <interleaved>>
#ttnn_layout104 = #ttnn.ttnn_layout<(d0, d1) -> (d0, d1), <1x1>, memref<1x64xbf16, #dram>, <interleaved>>
#ttnn_layout105 = #ttnn.ttnn_layout<(d0, d1, d2) -> (d0 * 32 + d1, d2), <1x1>, memref<64x2x!ttcore.tile<32x32, bf16>, #dram>, <interleaved>>
#ttnn_layout106 = #ttnn.ttnn_layout<(d0, d1) -> (d0, d1), <1x1>, memref<1x24x!ttcore.tile<32x32, bf16>, #dram>, <interleaved>>
#ttnn_layout107 = #ttnn.ttnn_layout<(d0, d1, d2, d3) -> (d0 * 32 + d1 * 32 + d2, d3), <1x1>, memref<1x6x!ttcore.tile<32x32, bf16>, #dram>, <interleaved>>
#ttnn_layout108 = #ttnn.ttnn_layout<(d0, d1, d2, d3) -> (d0 * 32 + d1 * 32 + d2, d3), <1x1>, memref<4x4x!ttcore.tile<32x32, bf16>, #dram>, <interleaved>>
#ttnn_layout109 = #ttnn.ttnn_layout<(d0, d1, d2) -> (d0 * 32 + d1, d2), <1x1>, memref<4x4x!ttcore.tile<32x32, bf16>, #dram>, <interleaved>>
#ttnn_layout110 = #ttnn.ttnn_layout<(d0, d1, d2) -> (d0 * 32 + d1, d2), <1x1>, memref<4x16x!ttcore.tile<32x32, bf16>, #dram>, <interleaved>>
#ttnn_layout111 = #ttnn.ttnn_layout<(d0, d1, d2) -> (d0 * 512 + d1, d2), <1x1>, memref<528x1x!ttcore.tile<32x32, bf16>, #dram>, <interleaved>>
#ttnn_layout112 = #ttnn.ttnn_layout<(d0, d1, d2) -> (d0 * 32 + d1, d2), <1x1>, memref<1x2x!ttcore.tile<32x32, u32>, #dram>, <interleaved>>
#ttnn_layout113 = #ttnn.ttnn_layout<(d0, d1, d2, d3) -> (d0 * 1056 + d1 * 32 + d2, d3), <1x1>, memref<33x1x!ttcore.tile<32x32, u32>, #dram>, <interleaved>>
#ttnn_layout114 = #ttnn.ttnn_layout<(d0, d1) -> (d0, d1), <1x1>, memref<528x1x!ttcore.tile<32x32, bf16>, #dram>, <interleaved>>
#ttnn_layout115 = #ttnn.ttnn_layout<(d0, d1, d2, d3) -> (d0 * 16896 + d1 * 512 + d2, d3), <1x1>, memref<528x1x!ttcore.tile<32x32, f32>, #dram>, <interleaved>>
#ttnn_layout116 = #ttnn.ttnn_layout<(d0, d1) -> (d0, d1), <1x1>, memref<1x528x!ttcore.tile<32x32, f32>, #dram>, <interleaved>>
#ttnn_layout117 = #ttnn.ttnn_layout<(d0, d1) -> (d0, d1), <1x1>, memref<1x528x!ttcore.tile<32x32, u32>, #dram>, <interleaved>>
#ttnn_layout118 = #ttnn.ttnn_layout<(d0, d1) -> (d0, d1), <1x1>, memref<1x16896xui32, #dram>, <interleaved>>
#ttnn_layout119 = #ttnn.ttnn_layout<(d0, d1) -> (d0, d1), <1x1>, memref<16896x1xbf16, #dram>, <interleaved>>
#ttnn_layout120 = #ttnn.ttnn_layout<(d0, d1, d2) -> (d0 * 16896 + d1, d2), <1x1>, memref<528x1x!ttcore.tile<32x32, bf16>, #dram>, <interleaved>>
#ttnn_layout121 = #ttnn.ttnn_layout<(d0, d1, d2, d3, d4) -> (d0 * 128 + d1 * 128 + d2 * 32 + d3, d4), <1x1>, memref<4x1x!ttcore.tile<32x32, f32>, #dram>, <interleaved>>
#ttnn_layout122 = #ttnn.ttnn_layout<(d0, d1, d2, d3, d4) -> (d0 * 128 + d1 * 128 + d2 * 32 + d3, d4), <1x1>, memref<4x1x!ttcore.tile<32x32, bf16>, #dram>, <interleaved>>
#ttnn_layout123 = #ttnn.ttnn_layout<(d0, d1, d2) -> (d0 * 64 + d1, d2), <1x1>, memref<66x1x!ttcore.tile<32x32, bf16>, #dram>, <interleaved>>
#ttnn_layout124 = #ttnn.ttnn_layout<(d0, d1) -> (d0, d1), <1x1>, memref<66x1x!ttcore.tile<32x32, bf16>, #dram>, <interleaved>>
#ttnn_layout125 = #ttnn.ttnn_layout<(d0, d1, d2, d3) -> (d0 * 2112 + d1 * 64 + d2, d3), <1x1>, memref<66x1x!ttcore.tile<32x32, f32>, #dram>, <interleaved>>
#ttnn_layout126 = #ttnn.ttnn_layout<(d0, d1) -> (d0, d1), <1x1>, memref<1x66x!ttcore.tile<32x32, f32>, #dram>, <interleaved>>
#ttnn_layout127 = #ttnn.ttnn_layout<(d0, d1) -> (d0, d1), <1x1>, memref<1x66x!ttcore.tile<32x32, u32>, #dram>, <interleaved>>
#ttnn_layout128 = #ttnn.ttnn_layout<(d0, d1) -> (d0, d1), <1x1>, memref<1x2112xui32, #dram>, <interleaved>>
#ttnn_layout129 = #ttnn.ttnn_layout<(d0, d1) -> (d0, d1), <1x1>, memref<2112x1xbf16, #dram>, <interleaved>>
#ttnn_layout130 = #ttnn.ttnn_layout<(d0, d1, d2) -> (d0 * 2112 + d1, d2), <1x1>, memref<66x1x!ttcore.tile<32x32, bf16>, #dram>, <interleaved>>
#ttnn_layout131 = #ttnn.ttnn_layout<(d0, d1, d2, d3) -> (d0 * 32 + d1 * 32 + d2, d3), <1x1>, memref<1x16x!ttcore.tile<32x32, bf16>, #dram>, <interleaved>>
#ttnn_layout132 = #ttnn.ttnn_layout<(d0, d1, d2, d3) -> (d0 * 32 + d1 * 32 + d2, d3), <1x1>, memref<4x16x!ttcore.tile<32x32, bf16>, #dram>, <interleaved>>
#ttnn_layout133 = #ttnn.ttnn_layout<(d0, d1, d2, d3) -> (d0 * 32 + d1 * 32 + d2, d3), <1x1>, memref<1x64x!ttcore.tile<32x32, bf16>, #dram>, <interleaved>>
module @SyncTensorsGraph.739 attributes {mhlo.cross_program_prefetches = [], mhlo.input_output_alias = [], mhlo.is_dynamic = false, mhlo.use_auto_spmd_partitioning = false, ttcore.meshes = #ttcore.meshes<[<"mesh" = 2x4>]>} {
  ttcore.device_module {
    builtin.module @SyncTensorsGraph.739 attributes {mhlo.cross_program_prefetches = [], mhlo.input_output_alias = [], mhlo.is_dynamic = false, mhlo.use_auto_spmd_partitioning = false, ttcore.meshes = #ttcore.meshes<[<"mesh" = 2x4>]>, ttcore.system_desc = #system_desc} {
      ttcore.device @default_device = <workerGrid = #ttcore.grid<8x8, virt_to_physical_map = (d0, d1) -> (0, d0, d1), physical_to_virt_map = (d0, d1, d2) -> (d1, d2)>, l1Map = (d0, d1, d2)[s0] -> (0, d0, d1, d2 + s0), dramMap = (d0, d1, d2)[s0, s1, s2, s3, s4, s5, s6] -> (0, 0, (((d0 * s1) * (s2 * (s3 * s6)) + d1 * (s2 * (s3 * s6)) + d2) floordiv s4) mod 12, ((((d0 * s1) * (s2 * (s3 * s6)) + d1 * (s2 * (s3 * s6)) + d2) floordiv s4) floordiv 12) * s4 + ((d0 * s1) * (s2 * (s3 * s6)) + d1 * (s2 * (s3 * s6)) + d2) mod s4 + s5), meshShape = 2x4, chipIds = [0, 1, 2, 3, 4, 5, 6, 7], meshTopology = [linear, ring]>
      func.func private @main_const_eval_0() -> tensor<1x64x1xbf16, #ttnn_layout> attributes {tt.function_type = "const_eval"} {
        %0 = "ttnn.get_device"() <{mesh_offset = #ttnn<mesh_offset 0x0>, mesh_shape = #ttnn<mesh_shape 2x4>}> : () -> !ttnn.device
        %1 = "ttnn.constant"(%0) <{dtype = #ttcore.supportedDataTypes<bf16>, layout = #ttnn.layout<tile>, memory_config = #ttnn.memory_config<#dram, <interleaved>>, value = dense<[… > : tensor<64xbf16>}> : (!ttnn.device) -> tensor<64xbf16, #ttnn_layout1>
        %2 = "ttnn.reshape"(%1) <{shape = [1 : i32, 64 : i32, 1 : i32]}> : (tensor<64xbf16, #ttnn_layout1>) -> tensor<1x64x1xbf16, #ttnn_layout>
        "ttnn.deallocate"(%1) <{force = false}> : (tensor<64xbf16, #ttnn_layout1>) -> ()
        return %2 : tensor<1x64x1xbf16, #ttnn_layout>
      }
      func.func private @main_const_eval_1(%arg0: tensor<576x2048xbf16, #ttnn_layout2>, %arg1: tensor<128x2048xbf16, #ttnn_layout3>, %arg2: tensor<64x2048xbf16, #ttnn_layout4>, %arg3: tensor<3072x2048xbf16, #ttnn_layout5>) -> tensor<2048x3792xbf16, #ttnn_layout6> attributes {tt.function_type = "const_eval"} {
        %0 = "ttnn.get_device"() <{mesh_offset = #ttnn<mesh_offset 0x0>, mesh_shape = #ttnn<mesh_shape 2x4>}> : () -> !ttnn.device
        %1 = "ttnn.to_device"(%arg3, %0) <{memory_config = #ttnn.memory_config<#dram, <interleaved>>}> : (tensor<3072x2048xbf16, #ttnn_layout5>, !ttnn.device) -> tensor<3072x2048xbf16, #ttnn_layout7>
        %2 = "ttnn.to_layout"(%1) <{layout = #ttnn.layout<tile>}> : (tensor<3072x2048xbf16, #ttnn_layout7>) -> tensor<3072x2048xbf16, #ttnn_layout8>
        "ttnn.deallocate"(%1) <{force = false}> : (tensor<3072x2048xbf16, #ttnn_layout7>) -> ()
        %3 = "ttnn.to_device"(%arg2, %0) <{memory_config = #ttnn.memory_config<#dram, <interleaved>>}> : (tensor<64x2048xbf16, #ttnn_layout4>, !ttnn.device) -> tensor<64x2048xbf16, #ttnn_layout9>
        %4 = "ttnn.to_layout"(%3) <{layout = #ttnn.layout<tile>}> : (tensor<64x2048xbf16, #ttnn_layout9>) -> tensor<64x2048xbf16, #ttnn_layout10>
        "ttnn.deallocate"(%3) <{force = false}> : (tensor<64x2048xbf16, #ttnn_layout9>) -> ()
        %5 = "ttnn.to_device"(%arg1, %0) <{memory_config = #ttnn.memory_config<#dram, <interleaved>>}> : (tensor<128x2048xbf16, #ttnn_layout3>, !ttnn.device) -> tensor<128x2048xbf16, #ttnn_layout11>
        %6 = "ttnn.to_layout"(%5) <{layout = #ttnn.layout<tile>}> : (tensor<128x2048xbf16, #ttnn_layout11>) -> tensor<128x2048xbf16, #ttnn_layout12>
        "ttnn.deallocate"(%5) <{force = false}> : (tensor<128x2048xbf16, #ttnn_layout11>) -> ()
        %7 = "ttnn.to_device"(%arg0, %0) <{memory_config = #ttnn.memory_config<#dram, <interleaved>>}> : (tensor<576x2048xbf16, #ttnn_layout2>, !ttnn.device) -> tensor<576x2048xbf16, #ttnn_layout13>
        %8 = "ttnn.to_layout"(%7) <{layout = #ttnn.layout<tile>}> : (tensor<576x2048xbf16, #ttnn_layout13>) -> tensor<576x2048xbf16, #ttnn_layout14>
        "ttnn.deallocate"(%7) <{force = false}> : (tensor<576x2048xbf16, #ttnn_layout13>) -> ()
        %9 = "ttnn.mesh_shard"(%4, %0) <{shard_dims = array<i64: -1, 0>, shard_direction = #ttcore.shard_direction<full_to_shard>, shard_shape = array<i64: 4, 1>, shard_type = #ttcore.shard_type<identity>}> : (tensor<64x2048xbf16, #ttnn_layout10>, !ttnn.device) -> tensor<16x2048xbf16, #ttnn_layout15>
        %10 = "ttnn.permute"(%8) <{permutation = array<i64: 1, 0>}> : (tensor<576x2048xbf16, #ttnn_layout14>) -> tensor<2048x576xbf16, #ttnn_layout16>
        "ttnn.deallocate"(%8) <{force = false}> : (tensor<576x2048xbf16, #ttnn_layout14>) -> ()
        %11 = "ttnn.permute"(%9) <{permutation = array<i64: 1, 0>}> : (tensor<16x2048xbf16, #ttnn_layout15>) -> tensor<2048x16xbf16, #ttnn_layout17>
        "ttnn.deallocate"(%4) <{force = false}> : (tensor<64x2048xbf16, #ttnn_layout10>) -> ()
        %12 = "ttnn.permute"(%2) <{permutation = array<i64: 1, 0>}> : (tensor<3072x2048xbf16, #ttnn_layout8>) -> tensor<2048x3072xbf16, #ttnn_layout18>
        "ttnn.deallocate"(%2) <{force = false}> : (tensor<3072x2048xbf16, #ttnn_layout8>) -> ()
        %13 = "ttnn.permute"(%6) <{permutation = array<i64: 1, 0>}> : (tensor<128x2048xbf16, #ttnn_layout12>) -> tensor<2048x128xbf16, #ttnn_layout19>
        "ttnn.deallocate"(%6) <{force = false}> : (tensor<128x2048xbf16, #ttnn_layout12>) -> ()
        %14 = "ttnn.concat"(%13, %10, %11, %12) <{dim = 1 : si32}> : (tensor<2048x128xbf16, #ttnn_layout19>, tensor<2048x576xbf16, #ttnn_layout16>, tensor<2048x16xbf16, #ttnn_layout17>, tensor<2048x3072xbf16, #ttnn_layout18>) -> tensor<2048x3792xbf16, #ttnn_layout6>
        "ttnn.deallocate"(%13) <{force = false}> : (tensor<2048x128xbf16, #ttnn_layout19>) -> ()
        "ttnn.deallocate"(%12) <{force = false}> : (tensor<2048x3072xbf16, #ttnn_layout18>) -> ()
        "ttnn.deallocate"(%11) <{force = false}> : (tensor<2048x16xbf16, #ttnn_layout17>) -> ()
        "ttnn.deallocate"(%10) <{force = false}> : (tensor<2048x576xbf16, #ttnn_layout16>) -> ()
        return %14 : tensor<2048x3792xbf16, #ttnn_layout6>
      }
      func.func private @main_const_eval_2(%arg0: tensor<2048x2048xbf16, #ttnn_layout20>) -> tensor<2048x512xbf16, #ttnn_layout21> attributes {tt.function_type = "const_eval"} {
        %0 = "ttnn.get_device"() <{mesh_offset = #ttnn<mesh_offset 0x0>, mesh_shape = #ttnn<mesh_shape 2x4>}> : () -> !ttnn.device
        %1 = "ttnn.to_device"(%arg0, %0) <{memory_config = #ttnn.memory_config<#dram, <interleaved>>}> : (tensor<2048x2048xbf16, #ttnn_layout20>, !ttnn.device) -> tensor<2048x2048xbf16, #ttnn_layout22>
        %2 = "ttnn.to_layout"(%1) <{layout = #ttnn.layout<tile>}> : (tensor<2048x2048xbf16, #ttnn_layout22>) -> tensor<2048x2048xbf16, #ttnn_layout23>
        "ttnn.deallocate"(%1) <{force = false}> : (tensor<2048x2048xbf16, #ttnn_layout22>) -> ()
        %3 = "ttnn.mesh_shard"(%2, %0) <{shard_dims = array<i64: -1, 1>, shard_direction = #ttcore.shard_direction<full_to_shard>, shard_shape = array<i64: 1, 4>, shard_type = #ttcore.shard_type<identity>}> : (tensor<2048x2048xbf16, #ttnn_layout23>, !ttnn.device) -> tensor<2048x512xbf16, #ttnn_layout21>
        return %3 : tensor<2048x512xbf16, #ttnn_layout21>
      }
      func.func private @main_const_eval_3(%arg0: tensor<3072xbf16, #ttnn_layout24>) -> tensor<1x3072xf32, #ttnn_layout25> attributes {tt.function_type = "const_eval"} {
        %0 = "ttnn.get_device"() <{mesh_offset = #ttnn<mesh_offset 0x0>, mesh_shape = #ttnn<mesh_shape 2x4>}> : () -> !ttnn.device
        %1 = "ttnn.to_device"(%arg0, %0) <{memory_config = #ttnn.memory_config<#dram, <interleaved>>}> : (tensor<3072xbf16, #ttnn_layout24>, !ttnn.device) -> tensor<3072xbf16, #ttnn_layout26>
        %2 = "ttnn.to_layout"(%1) <{layout = #ttnn.layout<tile>}> : (tensor<3072xbf16, #ttnn_layout26>) -> tensor<3072xbf16, #ttnn_layout27>
        "ttnn.deallocate"(%1) <{force = false}> : (tensor<3072xbf16, #ttnn_layout26>) -> ()
        %3 = "ttnn.reshape"(%2) <{shape = [1 : i32, 3072 : i32]}> : (tensor<3072xbf16, #ttnn_layout27>) -> tensor<1x3072xbf16, #ttnn_layout28>
        "ttnn.deallocate"(%2) <{force = false}> : (tensor<3072xbf16, #ttnn_layout27>) -> ()
        %4 = "ttnn.typecast"(%3) <{dtype = #ttcore.supportedDataTypes<f32>}> : (tensor<1x3072xbf16, #ttnn_layout28>) -> tensor<1x3072xf32, #ttnn_layout25>
        "ttnn.deallocate"(%3) <{force = false}> : (tensor<1x3072xbf16, #ttnn_layout28>) -> ()
        return %4 : tensor<1x3072xf32, #ttnn_layout25>
      }
      func.func private @main_const_eval_4() -> tensor<1x1x1xbf16, #ttnn_layout29> attributes {tt.function_type = "const_eval"} {
        %0 = "ttnn.get_device"() <{mesh_offset = #ttnn<mesh_offset 0x0>, mesh_shape = #ttnn<mesh_shape 2x4>}> : () -> !ttnn.device
        %1 = "ttnn.full"(%0) <{dtype = #ttcore.supportedDataTypes<bf16>, fill_value = 0.000000e+00 : f32, layout = #ttnn.layout<tile>, shape = #ttnn.shape<>}> : (!ttnn.device) -> tensor<bf16, #ttnn_layout30>
        %2 = "ttnn.reshape"(%1) <{shape = [1 : i32, 1 : i32, 1 : i32]}> : (tensor<bf16, #ttnn_layout30>) -> tensor<1x1x1xbf16, #ttnn_layout29>
        "ttnn.deallocate"(%1) <{force = false}> : (tensor<bf16, #ttnn_layout30>) -> ()
        return %2 : tensor<1x1x1xbf16, #ttnn_layout29>
      }
      func.func private @main_const_eval_5(%arg0: tensor<3072x3072xbf16, #ttnn_layout31>) -> tensor<768x3072xbf16, #ttnn_layout32> attributes {tt.function_type = "const_eval"} {
        %0 = "ttnn.get_device"() <{mesh_offset = #ttnn<mesh_offset 0x0>, mesh_shape = #ttnn<mesh_shape 2x4>}> : () -> !ttnn.device
        %1 = "ttnn.to_device"(%arg0, %0) <{memory_config = #ttnn.memory_config<#dram, <interleaved>>}> : (tensor<3072x3072xbf16, #ttnn_layout31>, !ttnn.device) -> tensor<3072x3072xbf16, #ttnn_layout33>
        %2 = "ttnn.to_layout"(%1) <{layout = #ttnn.layout<tile>}> : (tensor<3072x3072xbf16, #ttnn_layout33>) -> tensor<3072x3072xbf16, #ttnn_layout34>
        "ttnn.deallocate"(%1) <{force = false}> : (tensor<3072x3072xbf16, #ttnn_layout33>) -> ()
        %3 = "ttnn.mesh_shard"(%2, %0) <{shard_dims = array<i64: -1, 0>, shard_direction = #ttcore.shard_direction<full_to_shard>, shard_shape = array<i64: 4, 1>, shard_type = #ttcore.shard_type<identity>}> : (tensor<3072x3072xbf16, #ttnn_layout34>, !ttnn.device) -> tensor<768x3072xbf16, #ttnn_layout32>
        return %3 : tensor<768x3072xbf16, #ttnn_layout32>
      }
      func.func private @main_const_eval_6(%arg0: tensor<4096x512xbf16, #ttnn_layout35>) -> (tensor<4x128x512xbf16, #ttnn_layout36>, tensor<4x128x512xbf16, #ttnn_layout36>) attributes {tt.function_type = "const_eval"} {
        %0 = "ttnn.get_device"() <{mesh_offset = #ttnn<mesh_offset 0x0>, mesh_shape = #ttnn<mesh_shape 2x4>}> : () -> !ttnn.device
        %1 = "ttnn.to_device"(%arg0, %0) <{memory_config = #ttnn.memory_config<#dram, <interleaved>>}> : (tensor<4096x512xbf16, #ttnn_layout35>, !ttnn.device) -> tensor<4096x512xbf16, #ttnn_layout37>
        %2 = "ttnn.to_layout"(%1) <{layout = #ttnn.layout<tile>}> : (tensor<4096x512xbf16, #ttnn_layout37>) -> tensor<4096x512xbf16, #ttnn_layout38>
        "ttnn.deallocate"(%1) <{force = false}> : (tensor<4096x512xbf16, #ttnn_layout37>) -> ()
        %3 = "ttnn.mesh_shard"(%2, %0) <{shard_dims = array<i64: -1, 0>, shard_direction = #ttcore.shard_direction<full_to_shard>, shard_shape = array<i64: 4, 1>, shard_type = #ttcore.shard_type<identity>}> : (tensor<4096x512xbf16, #ttnn_layout38>, !ttnn.device) -> tensor<1024x512xbf16, #ttnn_layout39>
        %4 = "ttnn.reshape"(%3) <{shape = [4 : i32, 256 : i32, 512 : i32]}> : (tensor<1024x512xbf16, #ttnn_layout39>) -> tensor<4x256x512xbf16, #ttnn_layout40>
        "ttnn.deallocate"(%2) <{force = false}> : (tensor<4096x512xbf16, #ttnn_layout38>) -> ()
        %5 = "ttnn.slice_static"(%4) <{begins = [0 : i32, 0 : i32, 0 : i32], ends = [4 : i32, 128 : i32, 512 : i32], step = [1 : i32, 1 : i32, 1 : i32]}> : (tensor<4x256x512xbf16, #ttnn_layout40>) -> tensor<4x128x512xbf16, #ttnn_layout36>
        %6 = "ttnn.slice_static"(%4) <{begins = [0 : i32, 128 : i32, 0 : i32], ends = [4 : i32, 256 : i32, 512 : i32], step = [1 : i32, 1 : i32, 1 : i32]}> : (tensor<4x256x512xbf16, #ttnn_layout40>) -> tensor<4x128x512xbf16, #ttnn_layout36>
        "ttnn.deallocate"(%4) <{force = false}> : (tensor<4x256x512xbf16, #ttnn_layout40>) -> ()
        return %5, %6 : tensor<4x128x512xbf16, #ttnn_layout36>, tensor<4x128x512xbf16, #ttnn_layout36>
      }
      func.func private @main_const_eval_7() -> tensor<1x1x1xbf16, #ttnn_layout29> attributes {tt.function_type = "const_eval"} {
        %0 = "ttnn.get_device"() <{mesh_offset = #ttnn<mesh_offset 0x0>, mesh_shape = #ttnn<mesh_shape 2x4>}> : () -> !ttnn.device
        %1 = "ttnn.full"(%0) <{dtype = #ttcore.supportedDataTypes<bf16>, fill_value = 1.250000e-01 : f32, layout = #ttnn.layout<tile>, shape = #ttnn.shape<>}> : (!ttnn.device) -> tensor<bf16, #ttnn_layout30>
        %2 = "ttnn.reshape"(%1) <{shape = [1 : i32, 1 : i32, 1 : i32]}> : (tensor<bf16, #ttnn_layout30>) -> tensor<1x1x1xbf16, #ttnn_layout29>
        "ttnn.deallocate"(%1) <{force = false}> : (tensor<bf16, #ttnn_layout30>) -> ()
        return %2 : tensor<1x1x1xbf16, #ttnn_layout29>
      }
      func.func private @main_const_eval_8() -> tensor<1x1x1xbf16, #ttnn_layout29> attributes {tt.function_type = "const_eval"} {
        %0 = "ttnn.get_device"() <{mesh_offset = #ttnn<mesh_offset 0x0>, mesh_shape = #ttnn<mesh_shape 2x4>}> : () -> !ttnn.device
        %1 = "ttnn.full"(%0) <{dtype = #ttcore.supportedDataTypes<bf16>, fill_value = 0.072265625 : f32, layout = #ttnn.layout<tile>, shape = #ttnn.shape<>}> : (!ttnn.device) -> tensor<bf16, #ttnn_layout30>
        %2 = "ttnn.reshape"(%1) <{shape = [1 : i32, 1 : i32, 1 : i32]}> : (tensor<bf16, #ttnn_layout30>) -> tensor<1x1x1xbf16, #ttnn_layout29>
        "ttnn.deallocate"(%1) <{force = false}> : (tensor<bf16, #ttnn_layout30>) -> ()
        return %2 : tensor<1x1x1xbf16, #ttnn_layout29>
      }
      func.func private @main_const_eval_9() -> tensor<1x1x1xf32, #ttnn_layout41> attributes {tt.function_type = "const_eval"} {
        %0 = "ttnn.get_device"() <{mesh_offset = #ttnn<mesh_offset 0x0>, mesh_shape = #ttnn<mesh_shape 2x4>}> : () -> !ttnn.device
        %1 = "ttnn.full"(%0) <{dtype = #ttcore.supportedDataTypes<f32>, fill_value = 9.99999997E-7 : f32, layout = #ttnn.layout<tile>, shape = #ttnn.shape<1x1x1>}> : (!ttnn.device) -> tensor<1x1x1xf32, #ttnn_layout41>
        return %1 : tensor<1x1x1xf32, #ttnn_layout41>
      }
      func.func private @main_const_eval_10() -> tensor<3x1xf32, #ttnn_layout42> attributes {tt.function_type = "const_eval"} {
        %0 = "ttnn.get_device"() <{mesh_offset = #ttnn<mesh_offset 0x0>, mesh_shape = #ttnn<mesh_shape 2x4>}> : () -> !ttnn.device
        %1 = "ttnn.constant"(%0) <{dtype = #ttcore.supportedDataTypes<f32>, layout = #ttnn.layout<tile>, memory_config = #ttnn.memory_config<#dram, <interleaved>>, value = dense<[[5.120000e+02], [1.000000e+00], [1.000000e+00]]> : tensor<3x1xf32>}> : (!ttnn.device) -> tensor<3x1xf32, #ttnn_layout42>
        return %1 : tensor<3x1xf32, #ttnn_layout42>
      }
      func.func private @main_const_eval_11() -> tensor<1x64x1xbf16, #ttnn_layout> attributes {tt.function_type = "const_eval"} {
        %0 = "ttnn.get_device"() <{mesh_offset = #ttnn<mesh_offset 0x0>, mesh_shape = #ttnn<mesh_shape 2x4>}> : () -> !ttnn.device
        %1 = "ttnn.constant"(%0) <{dtype = #ttcore.supportedDataTypes<bf16>, layout = #ttnn.layout<tile>, memory_config = #ttnn.memory_config<#dram, <interleaved>>, value = dense<[… > : tensor<64xbf16>}> : (!ttnn.device) -> tensor<64xbf16, #ttnn_layout1>
        %2 = "ttnn.reshape"(%1) <{shape = [1 : i32, 64 : i32, 1 : i32]}> : (tensor<64xbf16, #ttnn_layout1>) -> tensor<1x64x1xbf16, #ttnn_layout>
        "ttnn.deallocate"(%1) <{force = false}> : (tensor<64xbf16, #ttnn_layout1>) -> ()
        return %2 : tensor<1x64x1xbf16, #ttnn_layout>
      }
      func.func private @main_const_eval_12() -> tensor<64x1xui32, #ttnn_layout43> attributes {tt.function_type = "const_eval"} {
        %0 = "ttnn.get_device"() <{mesh_offset = #ttnn<mesh_offset 0x0>, mesh_shape = #ttnn<mesh_shape 2x4>}> : () -> !ttnn.device
        %1 = "ttnn.full"(%0) <{dtype = #ttcore.supportedDataTypes<si32>, fill_value = 1 : i32, layout = #ttnn.layout<tile>, shape = #ttnn.shape<>}> : (!ttnn.device) -> tensor<si32, #ttnn_layout44>
        %2 = "ttnn.constant"(%0) <{dtype = #ttcore.supportedDataTypes<f32>, layout = #ttnn.layout<tile>, memory_config = #ttnn.memory_config<#dram, <interleaved>>, value = dense<[… > : tensor<64xf32>}> : (!ttnn.device) -> tensor<64xf32, #ttnn_layout45>
        %3 = "ttnn.full"(%0) <{dtype = #ttcore.supportedDataTypes<si32>, fill_value = 0 : i32, layout = #ttnn.layout<tile>, shape = #ttnn.shape<>}> : (!ttnn.device) -> tensor<si32, #ttnn_layout44>
        %4 = "ttnn.reshape"(%1) <{shape = [1 : i32]}> : (tensor<si32, #ttnn_layout44>) -> tensor<1xsi32, #ttnn_layout46>
        "ttnn.deallocate"(%1) <{force = false}> : (tensor<si32, #ttnn_layout44>) -> ()
        %5 = "ttnn.reshape"(%3) <{shape = [1 : i32]}> : (tensor<si32, #ttnn_layout44>) -> tensor<1xsi32, #ttnn_layout46>
        "ttnn.deallocate"(%3) <{force = false}> : (tensor<si32, #ttnn_layout44>) -> ()
        %6 = "ttnn.floor"(%2) : (tensor<64xf32, #ttnn_layout45>) -> tensor<64xf32, #ttnn_layout45>
        "ttnn.deallocate"(%2) <{force = false}> : (tensor<64xf32, #ttnn_layout45>) -> ()
        %7 = "ttnn.typecast"(%6) <{dtype = #ttcore.supportedDataTypes<si32>}> : (tensor<64xf32, #ttnn_layout45>) -> tensor<64xsi32, #ttnn_layout47>
        "ttnn.deallocate"(%6) <{force = false}> : (tensor<64xf32, #ttnn_layout45>) -> ()
        %8 = "ttnn.clamp_scalar"(%7) <{max = 0 : i32, min = 0 : i32}> : (tensor<64xsi32, #ttnn_layout47>) -> tensor<64xsi32, #ttnn_layout47>
        "ttnn.deallocate"(%7) <{force = false}> : (tensor<64xsi32, #ttnn_layout47>) -> ()
        %9 = "ttnn.gt"(%5, %8) <{dtype = #ttcore.supportedDataTypes<bf16>}> : (tensor<1xsi32, #ttnn_layout46>, tensor<64xsi32, #ttnn_layout47>) -> tensor<64xbf16, #ttnn_layout1>
        "ttnn.deallocate"(%5) <{force = false}> : (tensor<1xsi32, #ttnn_layout46>) -> ()
        %10 = "ttnn.add"(%8, %4) <{dtype = #ttcore.supportedDataTypes<si32>}> : (tensor<64xsi32, #ttnn_layout47>, tensor<1xsi32, #ttnn_layout46>) -> tensor<64xsi32, #ttnn_layout47>
        "ttnn.deallocate"(%4) <{force = false}> : (tensor<1xsi32, #ttnn_layout46>) -> ()
        %11 = "ttnn.typecast"(%9) <{dtype = #ttcore.supportedDataTypes<f32>}> : (tensor<64xbf16, #ttnn_layout1>) -> tensor<64xf32, #ttnn_layout45>
        "ttnn.deallocate"(%9) <{force = false}> : (tensor<64xbf16, #ttnn_layout1>) -> ()
        %12 = "ttnn.typecast"(%10) <{dtype = #ttcore.supportedDataTypes<f32>}> : (tensor<64xsi32, #ttnn_layout47>) -> tensor<64xf32, #ttnn_layout45>
        "ttnn.deallocate"(%10) <{force = false}> : (tensor<64xsi32, #ttnn_layout47>) -> ()
        %13 = "ttnn.typecast"(%8) <{dtype = #ttcore.supportedDataTypes<f32>}> : (tensor<64xsi32, #ttnn_layout47>) -> tensor<64xf32, #ttnn_layout45>
        "ttnn.deallocate"(%8) <{force = false}> : (tensor<64xsi32, #ttnn_layout47>) -> ()
        %14 = "ttnn.where"(%11, %12, %13) : (tensor<64xf32, #ttnn_layout45>, tensor<64xf32, #ttnn_layout45>, tensor<64xf32, #ttnn_layout45>) -> tensor<64xf32, #ttnn_layout45>
        "ttnn.deallocate"(%13) <{force = false}> : (tensor<64xf32, #ttnn_layout45>) -> ()
        "ttnn.deallocate"(%12) <{force = false}> : (tensor<64xf32, #ttnn_layout45>) -> ()
        "ttnn.deallocate"(%11) <{force = false}> : (tensor<64xf32, #ttnn_layout45>) -> ()
        %15 = "ttnn.typecast"(%14) <{dtype = #ttcore.supportedDataTypes<si32>}> : (tensor<64xf32, #ttnn_layout45>) -> tensor<64xsi32, #ttnn_layout47>
        "ttnn.deallocate"(%14) <{force = false}> : (tensor<64xf32, #ttnn_layout45>) -> ()
        %16 = "ttnn.reshape"(%15) <{shape = [64 : i32, 1 : i32]}> : (tensor<64xsi32, #ttnn_layout47>) -> tensor<64x1xsi32, #ttnn_layout48>
        "ttnn.deallocate"(%15) <{force = false}> : (tensor<64xsi32, #ttnn_layout47>) -> ()
        %17 = "ttnn.typecast"(%16) <{dtype = #ttcore.supportedDataTypes<u32>}> : (tensor<64x1xsi32, #ttnn_layout48>) -> tensor<64x1xui32, #ttnn_layout49>
        "ttnn.deallocate"(%16) <{force = false}> : (tensor<64x1xsi32, #ttnn_layout48>) -> ()
        %18 = "ttnn.to_layout"(%17) <{layout = #ttnn.layout<row_major>}> : (tensor<64x1xui32, #ttnn_layout49>) -> tensor<64x1xui32, #ttnn_layout43>
        "ttnn.deallocate"(%17) <{force = false}> : (tensor<64x1xui32, #ttnn_layout49>) -> ()
        return %18 : tensor<64x1xui32, #ttnn_layout43>
      }
      func.func private @main_const_eval_13() -> tensor<1x1x1xbf16, #ttnn_layout29> attributes {tt.function_type = "const_eval"} {
        %0 = "ttnn.get_device"() <{mesh_offset = #ttnn<mesh_offset 0x0>, mesh_shape = #ttnn<mesh_shape 2x4>}> : () -> !ttnn.device
        %1 = "ttnn.full"(%0) <{dtype = #ttcore.supportedDataTypes<bf16>, fill_value = 0.0883789062 : f32, layout = #ttnn.layout<tile>, shape = #ttnn.shape<>}> : (!ttnn.device) -> tensor<bf16, #ttnn_layout30>
        %2 = "ttnn.reshape"(%1) <{shape = [1 : i32, 1 : i32, 1 : i32]}> : (tensor<bf16, #ttnn_layout30>) -> tensor<1x1x1xbf16, #ttnn_layout29>
        "ttnn.deallocate"(%1) <{force = false}> : (tensor<bf16, #ttnn_layout30>) -> ()
        return %2 : tensor<1x1x1xbf16, #ttnn_layout29>
      }
      func.func private @main_const_eval_14() -> tensor<1x33x512x1xui32, #ttnn_layout50> attributes {tt.function_type = "const_eval"} {
        %0 = "ttnn.get_device"() <{mesh_offset = #ttnn<mesh_offset 0x0>, mesh_shape = #ttnn<mesh_shape 2x4>}> : () -> !ttnn.device
        %1 = "ttnn.arange"(%0) <{dtype = #ttcore.supportedDataTypes<u32>, end = 512 : i64, layout = #ttnn.layout<tile>, memory_config = #ttnn.memory_config<#dram, <interleaved>>, start = 0 : i64, step = 1 : i64}> : (!ttnn.device) -> tensor<512xui32, #ttnn_layout51>
        %2 = "ttnn.reshape"(%1) <{shape = [1 : i32, 1 : i32, 512 : i32, 1 : i32]}> : (tensor<512xui32, #ttnn_layout51>) -> tensor<1x1x512x1xui32, #ttnn_layout52>
        "ttnn.deallocate"(%1) <{force = false}> : (tensor<512xui32, #ttnn_layout51>) -> ()
        %3 = "ttnn.repeat"(%2) <{repeat_dims = #ttnn.shape<1x33x1x1>}> : (tensor<1x1x512x1xui32, #ttnn_layout52>) -> tensor<1x33x512x1xui32, #ttnn_layout50>
        "ttnn.deallocate"(%2) <{force = false}> : (tensor<1x1x512x1xui32, #ttnn_layout52>) -> ()
        return %3 : tensor<1x33x512x1xui32, #ttnn_layout50>
      }
      func.func private @main_const_eval_15() -> (tensor<1x33x64x1xui32, #ttnn_layout53>, tensor<1x33x512x1xui32, #ttnn_layout50>) attributes {tt.function_type = "const_eval"} {
        %0 = "ttnn.get_device"() <{mesh_offset = #ttnn<mesh_offset 0x0>, mesh_shape = #ttnn<mesh_shape 2x4>}> : () -> !ttnn.device
        %1 = "ttnn.full"(%0) <{dtype = #ttcore.supportedDataTypes<u32>, fill_value = 0 : i32, layout = #ttnn.layout<tile>, shape = #ttnn.shape<>}> : (!ttnn.device) -> tensor<ui32, #ttnn_layout54>
        %2 = "ttnn.reshape"(%1) <{shape = [1 : i32, 1 : i32, 1 : i32, 1 : i32]}> : (tensor<ui32, #ttnn_layout54>) -> tensor<1x1x1x1xui32, #ttnn_layout55>
        "ttnn.deallocate"(%1) <{force = false}> : (tensor<ui32, #ttnn_layout54>) -> ()
        %3 = "ttnn.repeat"(%2) <{repeat_dims = #ttnn.shape<1x33x64x1>}> : (tensor<1x1x1x1xui32, #ttnn_layout55>) -> tensor<1x33x64x1xui32, #ttnn_layout53>
        %4 = "ttnn.repeat"(%2) <{repeat_dims = #ttnn.shape<1x33x512x1>}> : (tensor<1x1x1x1xui32, #ttnn_layout55>) -> tensor<1x33x512x1xui32, #ttnn_layout50>
        "ttnn.deallocate"(%2) <{force = false}> : (tensor<1x1x1x1xui32, #ttnn_layout55>) -> ()
        return %3, %4 : tensor<1x33x64x1xui32, #ttnn_layout53>, tensor<1x33x512x1xui32, #ttnn_layout50>
      }
      func.func private @main_const_eval_16() -> tensor<1x33x64x1xui32, #ttnn_layout53> attributes {tt.function_type = "const_eval"} {
        %0 = "ttnn.get_device"() <{mesh_offset = #ttnn<mesh_offset 0x0>, mesh_shape = #ttnn<mesh_shape 2x4>}> : () -> !ttnn.device
        %1 = "ttnn.arange"(%0) <{dtype = #ttcore.supportedDataTypes<u32>, end = 64 : i64, layout = #ttnn.layout<tile>, memory_config = #ttnn.memory_config<#dram, <interleaved>>, start = 0 : i64, step = 1 : i64}> : (!ttnn.device) -> tensor<64xui32, #ttnn_layout56>
        %2 = "ttnn.reshape"(%1) <{shape = [1 : i32, 1 : i32, 64 : i32, 1 : i32]}> : (tensor<64xui32, #ttnn_layout56>) -> tensor<1x1x64x1xui32, #ttnn_layout57>
        "ttnn.deallocate"(%1) <{force = false}> : (tensor<64xui32, #ttnn_layout56>) -> ()
        %3 = "ttnn.repeat"(%2) <{repeat_dims = #ttnn.shape<1x33x1x1>}> : (tensor<1x1x64x1xui32, #ttnn_layout57>) -> tensor<1x33x64x1xui32, #ttnn_layout53>
        "ttnn.deallocate"(%2) <{force = false}> : (tensor<1x1x64x1xui32, #ttnn_layout57>) -> ()
        return %3 : tensor<1x33x64x1xui32, #ttnn_layout53>
      }
      func.func private @main_const_eval_17() -> tensor<3x1xf32, #ttnn_layout42> attributes {tt.function_type = "const_eval"} {
        %0 = "ttnn.get_device"() <{mesh_offset = #ttnn<mesh_offset 0x0>, mesh_shape = #ttnn<mesh_shape 2x4>}> : () -> !ttnn.device
        %1 = "ttnn.constant"(%0) <{dtype = #ttcore.supportedDataTypes<f32>, layout = #ttnn.layout<tile>, memory_config = #ttnn.memory_config<#dram, <interleaved>>, value = dense<[[6.400000e+01], [1.000000e+00], [1.000000e+00]]> : tensor<3x1xf32>}> : (!ttnn.device) -> tensor<3x1xf32, #ttnn_layout42>
        return %1 : tensor<3x1xf32, #ttnn_layout42>
      }
      func.func private @main_const_eval_18(%arg0: tensor<8192x3072xbf16, #ttnn_layout58>) -> tensor<2048x3072xbf16, #ttnn_layout18> attributes {tt.function_type = "const_eval"} {
        %0 = "ttnn.get_device"() <{mesh_offset = #ttnn<mesh_offset 0x0>, mesh_shape = #ttnn<mesh_shape 2x4>}> : () -> !ttnn.device
        %1 = "ttnn.to_device"(%arg0, %0) <{memory_config = #ttnn.memory_config<#dram, <interleaved>>}> : (tensor<8192x3072xbf16, #ttnn_layout58>, !ttnn.device) -> tensor<8192x3072xbf16, #ttnn_layout59>
        %2 = "ttnn.to_layout"(%1) <{layout = #ttnn.layout<tile>}> : (tensor<8192x3072xbf16, #ttnn_layout59>) -> tensor<8192x3072xbf16, #ttnn_layout60>
        "ttnn.deallocate"(%1) <{force = false}> : (tensor<8192x3072xbf16, #ttnn_layout59>) -> ()
        %3 = "ttnn.mesh_shard"(%2, %0) <{shard_dims = array<i64: -1, 0>, shard_direction = #ttcore.shard_direction<full_to_shard>, shard_shape = array<i64: 4, 1>, shard_type = #ttcore.shard_type<identity>}> : (tensor<8192x3072xbf16, #ttnn_layout60>, !ttnn.device) -> tensor<2048x3072xbf16, #ttnn_layout18>
        return %3 : tensor<2048x3072xbf16, #ttnn_layout18>
      }
      func.func private @main_const_eval_19(%arg0: tensor<512xbf16, #ttnn_layout61>) -> tensor<1x512xf32, #ttnn_layout62> attributes {tt.function_type = "const_eval"} {
        %0 = "ttnn.get_device"() <{mesh_offset = #ttnn<mesh_offset 0x0>, mesh_shape = #ttnn<mesh_shape 2x4>}> : () -> !ttnn.device
        %1 = "ttnn.to_device"(%arg0, %0) <{memory_config = #ttnn.memory_config<#dram, <interleaved>>}> : (tensor<512xbf16, #ttnn_layout61>, !ttnn.device) -> tensor<512xbf16, #ttnn_layout63>
        %2 = "ttnn.to_layout"(%1) <{layout = #ttnn.layout<tile>}> : (tensor<512xbf16, #ttnn_layout63>) -> tensor<512xbf16, #ttnn_layout64>
        "ttnn.deallocate"(%1) <{force = false}> : (tensor<512xbf16, #ttnn_layout63>) -> ()
        %3 = "ttnn.reshape"(%2) <{shape = [1 : i32, 512 : i32]}> : (tensor<512xbf16, #ttnn_layout64>) -> tensor<1x512xbf16, #ttnn_layout65>
        "ttnn.deallocate"(%2) <{force = false}> : (tensor<512xbf16, #ttnn_layout64>) -> ()
        %4 = "ttnn.typecast"(%3) <{dtype = #ttcore.supportedDataTypes<f32>}> : (tensor<1x512xbf16, #ttnn_layout65>) -> tensor<1x512xf32, #ttnn_layout62>
        "ttnn.deallocate"(%3) <{force = false}> : (tensor<1x512xbf16, #ttnn_layout65>) -> ()
        return %4 : tensor<1x512xf32, #ttnn_layout62>
      }
      func.func @main(%arg0: tensor<1x64x512xbf16, #ttnn_layout66> {ttcore.argument_type = #ttcore.argument_type<input>, ttcore.local_shape = #ttcore<local_shape local_shape = tensor<1x64x512xbf16>>, ttcore.shard_status = #ttcore.shard_status<presharded>, ttir.name = "kv_cache"}, %arg1: tensor<576x2048xbf16, #ttnn_layout2> {ttcore.argument_type = #ttcore.argument_type<parameter>, ttcore.local_shape = #ttcore<local_shape local_shape = tensor<576x2048xbf16>>, ttcore.shard_status = #ttcore.shard_status<presharded>, ttir.name = "wkv_a.weight"}, %arg2: tensor<1x1x2048xbf16, #ttnn_layout67> {ttcore.argument_type = #ttcore.argument_type<input>, ttcore.local_shape = #ttcore<local_shape local_shape = tensor<1x1x2048xbf16>>, ttcore.shard_status = #ttcore.shard_status<presharded>, ttir.name = "args_0"}, %arg3: tensor<512xbf16, #ttnn_layout61> {ttcore.argument_type = #ttcore.argument_type<parameter>, ttcore.local_shape = #ttcore<local_shape local_shape = tensor<512xbf16>>, ttcore.shard_status = #ttcore.shard_status<presharded>, ttir.name = "kv_norm.weight"}, %arg4: tensor<bf16, #ttnn_layout68> {ttcore.argument_type = #ttcore.argument_type<input>, ttcore.local_shape = #ttcore<local_shape local_shape = tensor<i1>>, ttcore.shard_status = #ttcore.shard_status<presharded>}, %arg5: tensor<1x64x64xbf16, #ttnn_layout69> {ttcore.argument_type = #ttcore.argument_type<input>, ttcore.local_shape = #ttcore<local_shape local_shape = tensor<1x64x64xbf16>>, ttcore.shard_status = #ttcore.shard_status<presharded>, ttir.name = "pe_cache"}, %arg6: tensor<1x32x2xbf16, #ttnn_layout70> {ttcore.argument_type = #ttcore.argument_type<input>, ttcore.local_shape = #ttcore<local_shape local_shape = tensor<1x32x2xbf16>>, ttcore.shard_status = #ttcore.shard_status<presharded>, ttir.name = "args_1"}, %arg7: tensor<1x64x128xbf16, #ttnn_layout71> {ttcore.argument_type = #ttcore.argument_type<input>, ttcore.local_shape = #ttcore<local_shape local_shape = tensor<1x64x128xbf16>>, ttcore.shard_status = #ttcore.shard_status<presharded>, ttir.name = "indexer.k_cache"}, %arg8: tensor<128x128xbf16, #ttnn_layout72> {ttcore.argument_type = #ttcore.argument_type<constant>, ttcore.local_shape = #ttcore<local_shape local_shape = tensor<128x128xbf16>>, ttcore.shard_status = #ttcore.shard_status<presharded>, ttir.name = "indexer.haddamard"}, %arg9: tensor<128xbf16, #ttnn_layout73> {ttcore.argument_type = #ttcore.argument_type<parameter>, ttcore.local_shape = #ttcore<local_shape local_shape = tensor<128xbf16>>, ttcore.shard_status = #ttcore.shard_status<presharded>, ttir.name = "indexer.k_norm.bias"}, %arg10: tensor<128xbf16, #ttnn_layout73> {ttcore.argument_type = #ttcore.argument_type<parameter>, ttcore.local_shape = #ttcore<local_shape local_shape = tensor<128xbf16>>, ttcore.shard_status = #ttcore.shard_status<presharded>, ttir.name = "indexer.k_norm.weight"}, %arg11: tensor<128x2048xbf16, #ttnn_layout3> {ttcore.argument_type = #ttcore.argument_type<parameter>, ttcore.local_shape = #ttcore<local_shape local_shape = tensor<128x2048xbf16>>, ttcore.shard_status = #ttcore.shard_status<presharded>, ttir.name = "indexer.wk.weight"}, %arg12: tensor<2048x2048xbf16, #ttnn_layout20> {ttcore.argument_type = #ttcore.argument_type<parameter>, ttcore.local_shape = #ttcore<local_shape local_shape = tensor<2048x512xbf16>>, ttcore.shard_status = #ttcore.shard_status<presharded>, ttir.name = "wo.weight"}, %arg13: tensor<4096x512xbf16, #ttnn_layout35> {ttcore.argument_type = #ttcore.argument_type<parameter>, ttcore.local_shape = #ttcore<local_shape local_shape = tensor<1024x512xbf16>>, ttcore.shard_status = #ttcore.shard_status<presharded>, ttir.name = "wkv_b.weight"}, %arg14: tensor<64x2048xbf16, #ttnn_layout4> {ttcore.argument_type = #ttcore.argument_type<parameter>, ttcore.local_shape = #ttcore<local_shape local_shape = tensor<16x2048xbf16>>, ttcore.shard_status = #ttcore.shard_status<presharded>, ttir.name = "indexer.weights_proj.weight"}, %arg15: tensor<8192x3072xbf16, #ttnn_layout58> {ttcore.argument_type = #ttcore.argument_type<parameter>, ttcore.local_shape = #ttcore<local_shape local_shape = tensor<2048x3072xbf16>>, ttcore.shard_status = #ttcore.shard_status<presharded>, ttir.name = "indexer.wq_b.weight"}, %arg16: tensor<3072x2048xbf16, #ttnn_layout5> {ttcore.argument_type = #ttcore.argument_type<parameter>, ttcore.local_shape = #ttcore<local_shape local_shape = tensor<3072x2048xbf16>>, ttcore.shard_status = #ttcore.shard_status<presharded>, ttir.name = "wq_a.weight"}, %arg17: tensor<3072xbf16, #ttnn_layout24> {ttcore.argument_type = #ttcore.argument_type<parameter>, ttcore.local_shape = #ttcore<local_shape local_shape = tensor<3072xbf16>>, ttcore.shard_status = #ttcore.shard_status<presharded>, ttir.name = "q_norm.weight"}, %arg18: tensor<3072x3072xbf16, #ttnn_layout31> {ttcore.argument_type = #ttcore.argument_type<parameter>, ttcore.local_shape = #ttcore<local_shape local_shape = tensor<768x3072xbf16>>, ttcore.shard_status = #ttcore.shard_status<presharded>, ttir.name = "wq_b.weight"}) -> (tensor<1x64x512xbf16, #ttnn_layout74> {ttcore.local_shape = #ttcore<local_shape local_shape = tensor<1x64x512xbf16>>, ttcore.shard_status = #ttcore.shard_status<presharded>}, tensor<1x64x64xbf16, #ttnn_layout75> {ttcore.local_shape = #ttcore<local_shape local_shape = tensor<1x64x64xbf16>>, ttcore.shard_status = #ttcore.shard_status<presharded>}, tensor<1x64x128xbf16, #ttnn_layout76> {ttcore.local_shape = #ttcore<local_shape local_shape = tensor<1x64x128xbf16>>, ttcore.shard_status = #ttcore.shard_status<presharded>}, tensor<1x1x2048xbf16, #ttnn_layout77> {ttcore.local_shape = #ttcore<local_shape local_shape = tensor<1x1x2048xbf16>>, ttcore.shard_status = #ttcore.shard_status<presharded>}) attributes {tt.function_type = "forward_device"} {
        %0 = ttcore.load_cached(@main_const_eval_0, []) : () -> tensor<1x64x1xbf16, #ttnn_layout>
        %1 = ttcore.load_cached(@main_const_eval_1, [%arg1, %arg11, %arg14, %arg16]) : (tensor<576x2048xbf16, #ttnn_layout2>, tensor<128x2048xbf16, #ttnn_layout3>, tensor<64x2048xbf16, #ttnn_layout4>, tensor<3072x2048xbf16, #ttnn_layout5>) -> tensor<2048x3792xbf16, #ttnn_layout6>
        "ttnn.deallocate"(%arg16) <{force = false}> : (tensor<3072x2048xbf16, #ttnn_layout5>) -> ()
        "ttnn.deallocate"(%arg14) <{force = false}> : (tensor<64x2048xbf16, #ttnn_layout4>) -> ()
        "ttnn.deallocate"(%arg11) <{force = false}> : (tensor<128x2048xbf16, #ttnn_layout3>) -> ()
        "ttnn.deallocate"(%arg1) <{force = false}> : (tensor<576x2048xbf16, #ttnn_layout2>) -> ()
        %2 = ttcore.load_cached(@main_const_eval_2, [%arg12]) : (tensor<2048x2048xbf16, #ttnn_layout20>) -> tensor<2048x512xbf16, #ttnn_layout21>
        "ttnn.deallocate"(%arg12) <{force = false}> : (tensor<2048x2048xbf16, #ttnn_layout20>) -> ()
        %3 = ttcore.load_cached(@main_const_eval_3, [%arg17]) : (tensor<3072xbf16, #ttnn_layout24>) -> tensor<1x3072xf32, #ttnn_layout25>
        "ttnn.deallocate"(%arg17) <{force = false}> : (tensor<3072xbf16, #ttnn_layout24>) -> ()
        %4 = ttcore.load_cached(@main_const_eval_4, []) : () -> tensor<1x1x1xbf16, #ttnn_layout29>
        %5 = ttcore.load_cached(@main_const_eval_5, [%arg18]) : (tensor<3072x3072xbf16, #ttnn_layout31>) -> tensor<768x3072xbf16, #ttnn_layout32>
        "ttnn.deallocate"(%arg18) <{force = false}> : (tensor<3072x3072xbf16, #ttnn_layout31>) -> ()
        %6:2 = ttcore.load_cached(@main_const_eval_6, [%arg13]) : (tensor<4096x512xbf16, #ttnn_layout35>) -> (tensor<4x128x512xbf16, #ttnn_layout36>, tensor<4x128x512xbf16, #ttnn_layout36>)
        "ttnn.deallocate"(%arg13) <{force = false}> : (tensor<4096x512xbf16, #ttnn_layout35>) -> ()
        %7 = ttcore.load_cached(@main_const_eval_7, []) : () -> tensor<1x1x1xbf16, #ttnn_layout29>
        %8 = ttcore.load_cached(@main_const_eval_8, []) : () -> tensor<1x1x1xbf16, #ttnn_layout29>
        %9 = ttcore.load_cached(@main_const_eval_9, []) : () -> tensor<1x1x1xf32, #ttnn_layout41>
        %10 = ttcore.load_cached(@main_const_eval_10, []) : () -> tensor<3x1xf32, #ttnn_layout42>
        %11 = ttcore.load_cached(@main_const_eval_11, []) : () -> tensor<1x64x1xbf16, #ttnn_layout>
        %12 = ttcore.load_cached(@main_const_eval_12, []) : () -> tensor<64x1xui32, #ttnn_layout43>
        %13 = ttcore.load_cached(@main_const_eval_13, []) : () -> tensor<1x1x1xbf16, #ttnn_layout29>
        %14 = ttcore.load_cached(@main_const_eval_14, []) : () -> tensor<1x33x512x1xui32, #ttnn_layout50>
        %15:2 = ttcore.load_cached(@main_const_eval_15, []) : () -> (tensor<1x33x64x1xui32, #ttnn_layout53>, tensor<1x33x512x1xui32, #ttnn_layout50>)
        %16 = ttcore.load_cached(@main_const_eval_16, []) : () -> tensor<1x33x64x1xui32, #ttnn_layout53>
        %17 = ttcore.load_cached(@main_const_eval_17, []) : () -> tensor<3x1xf32, #ttnn_layout42>
        %18 = ttcore.load_cached(@main_const_eval_18, [%arg15]) : (tensor<8192x3072xbf16, #ttnn_layout58>) -> tensor<2048x3072xbf16, #ttnn_layout18>
        "ttnn.deallocate"(%arg15) <{force = false}> : (tensor<8192x3072xbf16, #ttnn_layout58>) -> ()
        %19 = ttcore.load_cached(@main_const_eval_19, [%arg3]) : (tensor<512xbf16, #ttnn_layout61>) -> tensor<1x512xf32, #ttnn_layout62>
        "ttnn.deallocate"(%arg3) <{force = false}> : (tensor<512xbf16, #ttnn_layout61>) -> ()
        %20 = "ttnn.to_layout"(%arg4) <{layout = #ttnn.layout<tile>}> : (tensor<bf16, #ttnn_layout68>) -> tensor<bf16, #ttnn_layout30>
        "ttnn.deallocate"(%arg4) <{force = false}> : (tensor<bf16, #ttnn_layout68>) -> ()
        %21 = "ttnn.reshape"(%20) <{shape = [1 : i32, 1 : i32, 1 : i32]}> : (tensor<bf16, #ttnn_layout30>) -> tensor<1x1x1xbf16, #ttnn_layout29>
        "ttnn.deallocate"(%20) <{force = false}> : (tensor<bf16, #ttnn_layout30>) -> ()
        %22 = "ttnn.logical_and"(%21, %0) <{dtype = #ttcore.supportedDataTypes<bf16>}> : (tensor<1x1x1xbf16, #ttnn_layout29>, tensor<1x64x1xbf16, #ttnn_layout>) -> tensor<1x64x1xbf16, #ttnn_layout>
        "ttnn.deallocate"(%21) <{force = false}> : (tensor<1x1x1xbf16, #ttnn_layout29>) -> ()
        "ttnn.deallocate"(%0) <{force = false}> : (tensor<1x64x1xbf16, #ttnn_layout>) -> ()
        %23 = "ttnn.logical_and"(%22, %11) <{dtype = #ttcore.supportedDataTypes<bf16>}> : (tensor<1x64x1xbf16, #ttnn_layout>, tensor<1x64x1xbf16, #ttnn_layout>) -> tensor<1x64x1xbf16, #ttnn_layout>
        "ttnn.deallocate"(%22) <{force = false}> : (tensor<1x64x1xbf16, #ttnn_layout>) -> ()
        "ttnn.deallocate"(%11) <{force = false}> : (tensor<1x64x1xbf16, #ttnn_layout>) -> ()
        %24 = "ttnn.logical_not"(%23) : (tensor<1x64x1xbf16, #ttnn_layout>) -> tensor<1x64x1xbf16, #ttnn_layout>
        %25 = "ttnn.to_layout"(%arg2) <{layout = #ttnn.layout<tile>}> : (tensor<1x1x2048xbf16, #ttnn_layout67>) -> tensor<1x1x2048xbf16, #ttnn_layout77>
        "ttnn.deallocate"(%arg2) <{force = false}> : (tensor<1x1x2048xbf16, #ttnn_layout67>) -> ()
        %26 = "ttnn.reshape"(%25) <{shape = [1 : i32, 2048 : i32]}> : (tensor<1x1x2048xbf16, #ttnn_layout77>) -> tensor<1x2048xbf16, #ttnn_layout15>
        "ttnn.deallocate"(%25) <{force = false}> : (tensor<1x1x2048xbf16, #ttnn_layout77>) -> ()
        %27 = "ttnn.matmul"(%26, %1) <{compute_config = #ttnn.device_compute_kernel_config<math_fidelity = hifi4, fp32_dest_acc_en = true>, transpose_a = false, transpose_b = false}> : (tensor<1x2048xbf16, #ttnn_layout15>, tensor<2048x3792xbf16, #ttnn_layout6>) -> tensor<1x3792xbf16, #ttnn_layout78>
        "ttnn.deallocate"(%26) <{force = false}> : (tensor<1x2048xbf16, #ttnn_layout15>) -> ()
        "ttnn.deallocate"(%1) <{force = false}> : (tensor<2048x3792xbf16, #ttnn_layout6>) -> ()
        %28 = "ttnn.slice_static"(%27) <{begins = [0 : i32, 0 : i32], ends = [1 : i32, 128 : i32], step = [1 : i32, 1 : i32]}> : (tensor<1x3792xbf16, #ttnn_layout78>) -> tensor<1x128xbf16, #ttnn_layout79>
        %29 = "ttnn.reshape"(%28) <{shape = [1 : i32, 1 : i32, 128 : i32]}> : (tensor<1x128xbf16, #ttnn_layout79>) -> tensor<1x1x128xbf16, #ttnn_layout80>
        "ttnn.deallocate"(%28) <{force = false}> : (tensor<1x128xbf16, #ttnn_layout79>) -> ()
        %30 = "ttnn.slice_static"(%27) <{begins = [0 : i32, 128 : i32], ends = [1 : i32, 704 : i32], step = [1 : i32, 1 : i32]}> : (tensor<1x3792xbf16, #ttnn_layout78>) -> tensor<1x576xbf16, #ttnn_layout81>
        %31 = "ttnn.reshape"(%30) <{shape = [1 : i32, 1 : i32, 576 : i32]}> : (tensor<1x576xbf16, #ttnn_layout81>) -> tensor<1x1x576xbf16, #ttnn_layout82>
        "ttnn.deallocate"(%30) <{force = false}> : (tensor<1x576xbf16, #ttnn_layout81>) -> ()
        %32 = "ttnn.slice_static"(%27) <{begins = [0 : i32, 704 : i32], ends = [1 : i32, 720 : i32], step = [1 : i32, 1 : i32]}> : (tensor<1x3792xbf16, #ttnn_layout78>) -> tensor<1x16xbf16, #ttnn_layout83>
        %33 = "ttnn.reshape"(%32) <{shape = [1 : i32, 1 : i32, 16 : i32]}> : (tensor<1x16xbf16, #ttnn_layout83>) -> tensor<1x1x16xbf16, #ttnn_layout29>
        "ttnn.deallocate"(%32) <{force = false}> : (tensor<1x16xbf16, #ttnn_layout83>) -> ()
        %34 = "ttnn.slice_static"(%27) <{begins = [0 : i32, 720 : i32], ends = [1 : i32, 3792 : i32], step = [1 : i32, 1 : i32]}> : (tensor<1x3792xbf16, #ttnn_layout78>) -> tensor<1x3072xbf16, #ttnn_layout28>
        "ttnn.deallocate"(%27) <{force = false}> : (tensor<1x3792xbf16, #ttnn_layout78>) -> ()
        %35 = "ttnn.layer_norm"(%29, %arg10, %arg9) <{epsilon = 9.99999997E-7 : f32, operandSegmentSizes = array<i32: 1, 1, 1>}> : (tensor<1x1x128xbf16, #ttnn_layout80>, tensor<128xbf16, #ttnn_layout73>, tensor<128xbf16, #ttnn_layout73>) -> tensor<1x1x128xbf16, #ttnn_layout80>
        "ttnn.deallocate"(%29) <{force = false}> : (tensor<1x1x128xbf16, #ttnn_layout80>) -> ()
        "ttnn.deallocate"(%arg10) <{force = false}> : (tensor<128xbf16, #ttnn_layout73>) -> ()
        "ttnn.deallocate"(%arg9) <{force = false}> : (tensor<128xbf16, #ttnn_layout73>) -> ()
        %36 = "ttnn.slice_static"(%35) <{begins = [0 : i32, 0 : i32, 0 : i32], ends = [1 : i32, 1 : i32, 64 : i32], step = [1 : i32, 1 : i32, 1 : i32]}> : (tensor<1x1x128xbf16, #ttnn_layout80>) -> tensor<1x1x64xbf16, #ttnn_layout84>
        %37 = "ttnn.typecast"(%36) <{dtype = #ttcore.supportedDataTypes<f32>}> : (tensor<1x1x64xbf16, #ttnn_layout84>) -> tensor<1x1x64xf32, #ttnn_layout85>
        "ttnn.deallocate"(%36) <{force = false}> : (tensor<1x1x64xbf16, #ttnn_layout84>) -> ()
        %38 = "ttnn.reshape"(%37) <{shape = [1 : i32, 1 : i32, 1 : i32, 2 : i32, 32 : i32]}> : (tensor<1x1x64xf32, #ttnn_layout85>) -> tensor<1x1x1x2x32xf32, #ttnn_layout86>
        "ttnn.deallocate"(%37) <{force = false}> : (tensor<1x1x64xf32, #ttnn_layout85>) -> ()
        %39 = "ttnn.permute"(%38) <{permutation = array<i64: 0, 1, 2, 4, 3>}> : (tensor<1x1x1x2x32xf32, #ttnn_layout86>) -> tensor<1x1x1x32x2xf32, #ttnn_layout86>
        "ttnn.deallocate"(%38) <{force = false}> : (tensor<1x1x1x2x32xf32, #ttnn_layout86>) -> ()
        %40 = "ttnn.slice_static"(%39) <{begins = [0 : i32, 0 : i32, 0 : i32, 0 : i32, 0 : i32], ends = [1 : i32, 1 : i32, 1 : i32, 32 : i32, 1 : i32], step = [1 : i32, 1 : i32, 1 : i32, 1 : i32, 1 : i32]}> : (tensor<1x1x1x32x2xf32, #ttnn_layout86>) -> tensor<1x1x1x32x1xf32, #ttnn_layout86>
        %41 = "ttnn.to_layout"(%arg6) <{layout = #ttnn.layout<tile>}> : (tensor<1x32x2xbf16, #ttnn_layout70>) -> tensor<1x32x2xbf16, #ttnn_layout29>
        "ttnn.deallocate"(%arg6) <{force = false}> : (tensor<1x32x2xbf16, #ttnn_layout70>) -> ()
        %42 = "ttnn.reshape"(%41) <{shape = [1 : i32, 1 : i32, 1 : i32, 32 : i32, 2 : i32]}> : (tensor<1x32x2xbf16, #ttnn_layout29>) -> tensor<1x1x1x32x2xbf16, #ttnn_layout87>
        "ttnn.deallocate"(%41) <{force = false}> : (tensor<1x32x2xbf16, #ttnn_layout29>) -> ()
        %43 = "ttnn.slice_static"(%42) <{begins = [0 : i32, 0 : i32, 0 : i32, 0 : i32, 0 : i32], ends = [1 : i32, 1 : i32, 1 : i32, 32 : i32, 1 : i32], step = [1 : i32, 1 : i32, 1 : i32, 1 : i32, 1 : i32]}> : (tensor<1x1x1x32x2xbf16, #ttnn_layout87>) -> tensor<1x1x1x32x1xbf16, #ttnn_layout87>
        %44 = "ttnn.typecast"(%43) <{dtype = #ttcore.supportedDataTypes<f32>}> : (tensor<1x1x1x32x1xbf16, #ttnn_layout87>) -> tensor<1x1x1x32x1xf32, #ttnn_layout86>
        "ttnn.deallocate"(%43) <{force = false}> : (tensor<1x1x1x32x1xbf16, #ttnn_layout87>) -> ()
        %45 = "ttnn.multiply"(%40, %44) <{dtype = #ttcore.supportedDataTypes<f32>}> : (tensor<1x1x1x32x1xf32, #ttnn_layout86>, tensor<1x1x1x32x1xf32, #ttnn_layout86>) -> tensor<1x1x1x32x1xf32, #ttnn_layout86>
        %46 = "ttnn.slice_static"(%39) <{begins = [0 : i32, 0 : i32, 0 : i32, 0 : i32, 1 : i32], ends = [1 : i32, 1 : i32, 1 : i32, 32 : i32, 2 : i32], step = [1 : i32, 1 : i32, 1 : i32, 1 : i32, 1 : i32]}> : (tensor<1x1x1x32x2xf32, #ttnn_layout86>) -> tensor<1x1x1x32x1xf32, #ttnn_layout86>
        "ttnn.deallocate"(%39) <{force = false}> : (tensor<1x1x1x32x2xf32, #ttnn_layout86>) -> ()
        %47 = "ttnn.slice_static"(%42) <{begins = [0 : i32, 0 : i32, 0 : i32, 0 : i32, 1 : i32], ends = [1 : i32, 1 : i32, 1 : i32, 32 : i32, 2 : i32], step = [1 : i32, 1 : i32, 1 : i32, 1 : i32, 1 : i32]}> : (tensor<1x1x1x32x2xbf16, #ttnn_layout87>) -> tensor<1x1x1x32x1xbf16, #ttnn_layout87>
        "ttnn.deallocate"(%42) <{force = false}> : (tensor<1x1x1x32x2xbf16, #ttnn_layout87>) -> ()
        %48 = "ttnn.typecast"(%47) <{dtype = #ttcore.supportedDataTypes<f32>}> : (tensor<1x1x1x32x1xbf16, #ttnn_layout87>) -> tensor<1x1x1x32x1xf32, #ttnn_layout86>
        "ttnn.deallocate"(%47) <{force = false}> : (tensor<1x1x1x32x1xbf16, #ttnn_layout87>) -> ()
        %49 = "ttnn.multiply"(%46, %48) <{dtype = #ttcore.supportedDataTypes<f32>}> : (tensor<1x1x1x32x1xf32, #ttnn_layout86>, tensor<1x1x1x32x1xf32, #ttnn_layout86>) -> tensor<1x1x1x32x1xf32, #ttnn_layout86>
        %50 = "ttnn.subtract"(%45, %49) <{dtype = #ttcore.supportedDataTypes<f32>}> : (tensor<1x1x1x32x1xf32, #ttnn_layout86>, tensor<1x1x1x32x1xf32, #ttnn_layout86>) -> tensor<1x1x1x32x1xf32, #ttnn_layout86>
        "ttnn.deallocate"(%49) <{force = false}> : (tensor<1x1x1x32x1xf32, #ttnn_layout86>) -> ()
        "ttnn.deallocate"(%45) <{force = false}> : (tensor<1x1x1x32x1xf32, #ttnn_layout86>) -> ()
        %51 = "ttnn.multiply"(%40, %48) <{dtype = #ttcore.supportedDataTypes<f32>}> : (tensor<1x1x1x32x1xf32, #ttnn_layout86>, tensor<1x1x1x32x1xf32, #ttnn_layout86>) -> tensor<1x1x1x32x1xf32, #ttnn_layout86>
        "ttnn.deallocate"(%40) <{force = false}> : (tensor<1x1x1x32x1xf32, #ttnn_layout86>) -> ()
        %52 = "ttnn.multiply"(%46, %44) <{dtype = #ttcore.supportedDataTypes<f32>}> : (tensor<1x1x1x32x1xf32, #ttnn_layout86>, tensor<1x1x1x32x1xf32, #ttnn_layout86>) -> tensor<1x1x1x32x1xf32, #ttnn_layout86>
        "ttnn.deallocate"(%46) <{force = false}> : (tensor<1x1x1x32x1xf32, #ttnn_layout86>) -> ()
        %53 = "ttnn.add"(%51, %52) <{dtype = #ttcore.supportedDataTypes<f32>}> : (tensor<1x1x1x32x1xf32, #ttnn_layout86>, tensor<1x1x1x32x1xf32, #ttnn_layout86>) -> tensor<1x1x1x32x1xf32, #ttnn_layout86>
        "ttnn.deallocate"(%52) <{force = false}> : (tensor<1x1x1x32x1xf32, #ttnn_layout86>) -> ()
        "ttnn.deallocate"(%51) <{force = false}> : (tensor<1x1x1x32x1xf32, #ttnn_layout86>) -> ()
        %54 = "ttnn.concat"(%50, %53) <{dim = 4 : si32}> : (tensor<1x1x1x32x1xf32, #ttnn_layout86>, tensor<1x1x1x32x1xf32, #ttnn_layout86>) -> tensor<1x1x1x32x2xf32, #ttnn_layout86>
        "ttnn.deallocate"(%53) <{force = false}> : (tensor<1x1x1x32x1xf32, #ttnn_layout86>) -> ()
        "ttnn.deallocate"(%50) <{force = false}> : (tensor<1x1x1x32x1xf32, #ttnn_layout86>) -> ()
        %55 = "ttnn.reshape"(%54) <{shape = [1 : i32, 64 : i32]}> : (tensor<1x1x1x32x2xf32, #ttnn_layout86>) -> tensor<1x64xf32, #ttnn_layout88>
        "ttnn.deallocate"(%54) <{force = false}> : (tensor<1x1x1x32x2xf32, #ttnn_layout86>) -> ()
        %56 = "ttnn.slice_static"(%55) <{begins = [0 : i32, 0 : i32], ends = [1 : i32, 64 : i32], step = [1 : i32, 2 : i32]}> : (tensor<1x64xf32, #ttnn_layout88>) -> tensor<1x32xf32, #ttnn_layout42>
        %57 = "ttnn.slice_static"(%55) <{begins = [0 : i32, 1 : i32], ends = [1 : i32, 64 : i32], step = [1 : i32, 2 : i32]}> : (tensor<1x64xf32, #ttnn_layout88>) -> tensor<1x32xf32, #ttnn_layout42>
        "ttnn.deallocate"(%55) <{force = false}> : (tensor<1x64xf32, #ttnn_layout88>) -> ()
        %58 = "ttnn.concat"(%56, %57) <{dim = 1 : si32}> : (tensor<1x32xf32, #ttnn_layout42>, tensor<1x32xf32, #ttnn_layout42>) -> tensor<1x64xf32, #ttnn_layout88>
        "ttnn.deallocate"(%57) <{force = false}> : (tensor<1x32xf32, #ttnn_layout42>) -> ()
        "ttnn.deallocate"(%56) <{force = false}> : (tensor<1x32xf32, #ttnn_layout42>) -> ()
        %59 = "ttnn.typecast"(%58) <{dtype = #ttcore.supportedDataTypes<bf16>}> : (tensor<1x64xf32, #ttnn_layout88>) -> tensor<1x64xbf16, #ttnn_layout89>
        "ttnn.deallocate"(%58) <{force = false}> : (tensor<1x64xf32, #ttnn_layout88>) -> ()
        %60 = "ttnn.slice_static"(%35) <{begins = [0 : i32, 0 : i32, 64 : i32], ends = [1 : i32, 1 : i32, 128 : i32], step = [1 : i32, 1 : i32, 1 : i32]}> : (tensor<1x1x128xbf16, #ttnn_layout80>) -> tensor<1x1x64xbf16, #ttnn_layout84>
        "ttnn.deallocate"(%35) <{force = false}> : (tensor<1x1x128xbf16, #ttnn_layout80>) -> ()
        %61 = "ttnn.reshape"(%60) <{shape = [1 : i32, 64 : i32]}> : (tensor<1x1x64xbf16, #ttnn_layout84>) -> tensor<1x64xbf16, #ttnn_layout89>
        "ttnn.deallocate"(%60) <{force = false}> : (tensor<1x1x64xbf16, #ttnn_layout84>) -> ()
        %62 = "ttnn.concat"(%59, %61) <{dim = 1 : si32}> : (tensor<1x64xbf16, #ttnn_layout89>, tensor<1x64xbf16, #ttnn_layout89>) -> tensor<1x128xbf16, #ttnn_layout79>
        "ttnn.deallocate"(%61) <{force = false}> : (tensor<1x64xbf16, #ttnn_layout89>) -> ()
        "ttnn.deallocate"(%59) <{force = false}> : (tensor<1x64xbf16, #ttnn_layout89>) -> ()
        %63 = "ttnn.matmul"(%62, %arg8) <{compute_config = #ttnn.device_compute_kernel_config<math_fidelity = hifi4, fp32_dest_acc_en = true>, transpose_a = false, transpose_b = true}> : (tensor<1x128xbf16, #ttnn_layout79>, tensor<128x128xbf16, #ttnn_layout72>) -> tensor<1x128xbf16, #ttnn_layout79>
        "ttnn.deallocate"(%62) <{force = false}> : (tensor<1x128xbf16, #ttnn_layout79>) -> ()
        %64 = "ttnn.to_layout"(%63) <{layout = #ttnn.layout<row_major>}> : (tensor<1x128xbf16, #ttnn_layout79>) -> tensor<1x128xbf16, #ttnn_layout90>
        "ttnn.deallocate"(%63) <{force = false}> : (tensor<1x128xbf16, #ttnn_layout79>) -> ()
        %65 = "ttnn.embedding"(%12, %64) : (tensor<64x1xui32, #ttnn_layout43>, tensor<1x128xbf16, #ttnn_layout90>) -> tensor<64x1x128xbf16, #ttnn_layout91>
        "ttnn.deallocate"(%64) <{force = false}> : (tensor<1x128xbf16, #ttnn_layout90>) -> ()
        %66 = "ttnn.permute"(%65) <{permutation = array<i64: 1, 0, 2>}> : (tensor<64x1x128xbf16, #ttnn_layout91>) -> tensor<1x64x128xbf16, #ttnn_layout76>
        "ttnn.deallocate"(%65) <{force = false}> : (tensor<64x1x128xbf16, #ttnn_layout91>) -> ()
        %67 = "ttnn.where"(%24, %4, %66) : (tensor<1x64x1xbf16, #ttnn_layout>, tensor<1x1x1xbf16, #ttnn_layout29>, tensor<1x64x128xbf16, #ttnn_layout76>) -> tensor<1x64x128xbf16, #ttnn_layout76>
        "ttnn.deallocate"(%66) <{force = false}> : (tensor<1x64x128xbf16, #ttnn_layout76>) -> ()
        %68 = "ttnn.to_layout"(%arg7) <{layout = #ttnn.layout<tile>}> : (tensor<1x64x128xbf16, #ttnn_layout71>) -> tensor<1x64x128xbf16, #ttnn_layout76>
        "ttnn.deallocate"(%arg7) <{force = false}> : (tensor<1x64x128xbf16, #ttnn_layout71>) -> ()
        %69 = "ttnn.where"(%23, %67, %68) : (tensor<1x64x1xbf16, #ttnn_layout>, tensor<1x64x128xbf16, #ttnn_layout76>, tensor<1x64x128xbf16, #ttnn_layout76>) -> tensor<1x64x128xbf16, #ttnn_layout76>
        "ttnn.deallocate"(%68) <{force = false}> : (tensor<1x64x128xbf16, #ttnn_layout76>) -> ()
        "ttnn.deallocate"(%67) <{force = false}> : (tensor<1x64x128xbf16, #ttnn_layout76>) -> ()
        %70 = "ttnn.slice_static"(%69) <{begins = [0 : i32, 0 : i32, 0 : i32], ends = [1 : i32, 33 : i32, 128 : i32], step = [1 : i32, 1 : i32, 1 : i32]}> : (tensor<1x64x128xbf16, #ttnn_layout76>) -> tensor<1x33x128xbf16, #ttnn_layout76>
        %71 = "ttnn.typecast"(%34) <{dtype = #ttcore.supportedDataTypes<f32>}> : (tensor<1x3072xbf16, #ttnn_layout28>) -> tensor<1x3072xf32, #ttnn_layout25>
        "ttnn.deallocate"(%34) <{force = false}> : (tensor<1x3072xbf16, #ttnn_layout28>) -> ()
        %72 = "ttnn.reshape"(%71) <{shape = [1 : i32, 1 : i32, 3072 : i32]}> : (tensor<1x3072xf32, #ttnn_layout25>) -> tensor<1x1x3072xf32, #ttnn_layout92>
        %73 = "ttnn.pow_scalar"(%72) <{rhs = 2.000000e+00 : f32}> : (tensor<1x1x3072xf32, #ttnn_layout92>) -> tensor<1x1x3072xf32, #ttnn_layout92>
        "ttnn.deallocate"(%72) <{force = false}> : (tensor<1x1x3072xf32, #ttnn_layout92>) -> ()
        %74 = "ttnn.mean"(%73) <{compute_config = #ttnn.device_compute_kernel_config<math_fidelity = hifi4, fp32_dest_acc_en = true>, dim_arg = [2 : i32], keep_dim = true}> : (tensor<1x1x3072xf32, #ttnn_layout92>) -> tensor<1x1x1xf32, #ttnn_layout41>
        "ttnn.deallocate"(%73) <{force = false}> : (tensor<1x1x3072xf32, #ttnn_layout92>) -> ()
        %75 = "ttnn.add"(%74, %9) <{dtype = #ttcore.supportedDataTypes<f32>}> : (tensor<1x1x1xf32, #ttnn_layout41>, tensor<1x1x1xf32, #ttnn_layout41>) -> tensor<1x1x1xf32, #ttnn_layout41>
        "ttnn.deallocate"(%74) <{force = false}> : (tensor<1x1x1xf32, #ttnn_layout41>) -> ()
        %76 = "ttnn.rsqrt"(%75) : (tensor<1x1x1xf32, #ttnn_layout41>) -> tensor<1x1x1xf32, #ttnn_layout41>
        "ttnn.deallocate"(%75) <{force = false}> : (tensor<1x1x1xf32, #ttnn_layout41>) -> ()
        %77 = "ttnn.reshape"(%76) <{shape = [1 : i32, 1 : i32]}> : (tensor<1x1x1xf32, #ttnn_layout41>) -> tensor<1x1xf32, #ttnn_layout42>
        "ttnn.deallocate"(%76) <{force = false}> : (tensor<1x1x1xf32, #ttnn_layout41>) -> ()
        %78 = "ttnn.multiply"(%71, %77) <{dtype = #ttcore.supportedDataTypes<f32>}> : (tensor<1x3072xf32, #ttnn_layout25>, tensor<1x1xf32, #ttnn_layout42>) -> tensor<1x3072xf32, #ttnn_layout25>
        "ttnn.deallocate"(%77) <{force = false}> : (tensor<1x1xf32, #ttnn_layout42>) -> ()
        "ttnn.deallocate"(%71) <{force = false}> : (tensor<1x3072xf32, #ttnn_layout25>) -> ()
        %79 = "ttnn.multiply"(%3, %78) <{dtype = #ttcore.supportedDataTypes<f32>}> : (tensor<1x3072xf32, #ttnn_layout25>, tensor<1x3072xf32, #ttnn_layout25>) -> tensor<1x3072xf32, #ttnn_layout25>
        "ttnn.deallocate"(%78) <{force = false}> : (tensor<1x3072xf32, #ttnn_layout25>) -> ()
        "ttnn.deallocate"(%3) <{force = false}> : (tensor<1x3072xf32, #ttnn_layout25>) -> ()
        %80 = "ttnn.typecast"(%79) <{dtype = #ttcore.supportedDataTypes<bf16>}> : (tensor<1x3072xf32, #ttnn_layout25>) -> tensor<1x3072xbf16, #ttnn_layout28>
        "ttnn.deallocate"(%79) <{force = false}> : (tensor<1x3072xf32, #ttnn_layout25>) -> ()
        %81 = "ttnn.matmul"(%80, %18) <{compute_config = #ttnn.device_compute_kernel_config<math_fidelity = hifi4, fp32_dest_acc_en = true>, transpose_a = false, transpose_b = true}> : (tensor<1x3072xbf16, #ttnn_layout28>, tensor<2048x3072xbf16, #ttnn_layout18>) -> tensor<1x2048xbf16, #ttnn_layout15>
        "ttnn.deallocate"(%18) <{force = false}> : (tensor<2048x3072xbf16, #ttnn_layout18>) -> ()
        %82 = "ttnn.reshape"(%81) <{shape = [1 : i32, 1 : i32, 16 : i32, 128 : i32]}> : (tensor<1x2048xbf16, #ttnn_layout15>) -> tensor<1x1x16x128xbf16, #ttnn_layout93>
        %83 = "ttnn.slice_static"(%82) <{begins = [0 : i32, 0 : i32, 0 : i32, 0 : i32], ends = [1 : i32, 1 : i32, 16 : i32, 64 : i32], step = [1 : i32, 1 : i32, 1 : i32, 1 : i32]}> : (tensor<1x1x16x128xbf16, #ttnn_layout93>) -> tensor<1x1x16x64xbf16, #ttnn_layout94>
        "ttnn.deallocate"(%82) <{force = false}> : (tensor<1x1x16x128xbf16, #ttnn_layout93>) -> ()
        %84 = "ttnn.typecast"(%83) <{dtype = #ttcore.supportedDataTypes<f32>}> : (tensor<1x1x16x64xbf16, #ttnn_layout94>) -> tensor<1x1x16x64xf32, #ttnn_layout95>
        "ttnn.deallocate"(%83) <{force = false}> : (tensor<1x1x16x64xbf16, #ttnn_layout94>) -> ()
        %85 = "ttnn.reshape"(%84) <{shape = [1 : i32, 1 : i32, 16 : i32, 2 : i32, 32 : i32]}> : (tensor<1x1x16x64xf32, #ttnn_layout95>) -> tensor<1x1x16x2x32xf32, #ttnn_layout96>
        "ttnn.deallocate"(%84) <{force = false}> : (tensor<1x1x16x64xf32, #ttnn_layout95>) -> ()
        %86 = "ttnn.permute"(%85) <{permutation = array<i64: 0, 1, 2, 4, 3>}> : (tensor<1x1x16x2x32xf32, #ttnn_layout96>) -> tensor<1x1x16x32x2xf32, #ttnn_layout96>
        "ttnn.deallocate"(%85) <{force = false}> : (tensor<1x1x16x2x32xf32, #ttnn_layout96>) -> ()
        %87 = "ttnn.slice_static"(%86) <{begins = [0 : i32, 0 : i32, 0 : i32, 0 : i32, 0 : i32], ends = [1 : i32, 1 : i32, 16 : i32, 32 : i32, 1 : i32], step = [1 : i32, 1 : i32, 1 : i32, 1 : i32, 1 : i32]}> : (tensor<1x1x16x32x2xf32, #ttnn_layout96>) -> tensor<1x1x16x32x1xf32, #ttnn_layout96>
        %88 = "ttnn.multiply"(%87, %44) <{dtype = #ttcore.supportedDataTypes<f32>}> : (tensor<1x1x16x32x1xf32, #ttnn_layout96>, tensor<1x1x1x32x1xf32, #ttnn_layout86>) -> tensor<1x1x16x32x1xf32, #ttnn_layout96>
        %89 = "ttnn.slice_static"(%86) <{begins = [0 : i32, 0 : i32, 0 : i32, 0 : i32, 1 : i32], ends = [1 : i32, 1 : i32, 16 : i32, 32 : i32, 2 : i32], step = [1 : i32, 1 : i32, 1 : i32, 1 : i32, 1 : i32]}> : (tensor<1x1x16x32x2xf32, #ttnn_layout96>) -> tensor<1x1x16x32x1xf32, #ttnn_layout96>
        "ttnn.deallocate"(%86) <{force = false}> : (tensor<1x1x16x32x2xf32, #ttnn_layout96>) -> ()
        %90 = "ttnn.multiply"(%89, %48) <{dtype = #ttcore.supportedDataTypes<f32>}> : (tensor<1x1x16x32x1xf32, #ttnn_layout96>, tensor<1x1x1x32x1xf32, #ttnn_layout86>) -> tensor<1x1x16x32x1xf32, #ttnn_layout96>
        %91 = "ttnn.subtract"(%88, %90) <{dtype = #ttcore.supportedDataTypes<f32>}> : (tensor<1x1x16x32x1xf32, #ttnn_layout96>, tensor<1x1x16x32x1xf32, #ttnn_layout96>) -> tensor<1x1x16x32x1xf32, #ttnn_layout96>
        "ttnn.deallocate"(%90) <{force = false}> : (tensor<1x1x16x32x1xf32, #ttnn_layout96>) -> ()
        "ttnn.deallocate"(%88) <{force = false}> : (tensor<1x1x16x32x1xf32, #ttnn_layout96>) -> ()
        %92 = "ttnn.multiply"(%87, %48) <{dtype = #ttcore.supportedDataTypes<f32>}> : (tensor<1x1x16x32x1xf32, #ttnn_layout96>, tensor<1x1x1x32x1xf32, #ttnn_layout86>) -> tensor<1x1x16x32x1xf32, #ttnn_layout96>
        "ttnn.deallocate"(%87) <{force = false}> : (tensor<1x1x16x32x1xf32, #ttnn_layout96>) -> ()
        %93 = "ttnn.multiply"(%89, %44) <{dtype = #ttcore.supportedDataTypes<f32>}> : (tensor<1x1x16x32x1xf32, #ttnn_layout96>, tensor<1x1x1x32x1xf32, #ttnn_layout86>) -> tensor<1x1x16x32x1xf32, #ttnn_layout96>
        "ttnn.deallocate"(%89) <{force = false}> : (tensor<1x1x16x32x1xf32, #ttnn_layout96>) -> ()
        %94 = "ttnn.add"(%92, %93) <{dtype = #ttcore.supportedDataTypes<f32>}> : (tensor<1x1x16x32x1xf32, #ttnn_layout96>, tensor<1x1x16x32x1xf32, #ttnn_layout96>) -> tensor<1x1x16x32x1xf32, #ttnn_layout96>
        "ttnn.deallocate"(%93) <{force = false}> : (tensor<1x1x16x32x1xf32, #ttnn_layout96>) -> ()
        "ttnn.deallocate"(%92) <{force = false}> : (tensor<1x1x16x32x1xf32, #ttnn_layout96>) -> ()
        %95 = "ttnn.concat"(%91, %94) <{dim = 4 : si32}> : (tensor<1x1x16x32x1xf32, #ttnn_layout96>, tensor<1x1x16x32x1xf32, #ttnn_layout96>) -> tensor<1x1x16x32x2xf32, #ttnn_layout96>
        "ttnn.deallocate"(%94) <{force = false}> : (tensor<1x1x16x32x1xf32, #ttnn_layout96>) -> ()
        "ttnn.deallocate"(%91) <{force = false}> : (tensor<1x1x16x32x1xf32, #ttnn_layout96>) -> ()
        %96 = "ttnn.reshape"(%95) <{shape = [16 : i32, 64 : i32]}> : (tensor<1x1x16x32x2xf32, #ttnn_layout96>) -> tensor<16x64xf32, #ttnn_layout88>
        "ttnn.deallocate"(%95) <{force = false}> : (tensor<1x1x16x32x2xf32, #ttnn_layout96>) -> ()
        %97 = "ttnn.slice_static"(%96) <{begins = [0 : i32, 0 : i32], ends = [16 : i32, 64 : i32], step = [1 : i32, 2 : i32]}> : (tensor<16x64xf32, #ttnn_layout88>) -> tensor<16x32xf32, #ttnn_layout42>
        %98 = "ttnn.slice_static"(%96) <{begins = [0 : i32, 1 : i32], ends = [16 : i32, 64 : i32], step = [1 : i32, 2 : i32]}> : (tensor<16x64xf32, #ttnn_layout88>) -> tensor<16x32xf32, #ttnn_layout42>
        "ttnn.deallocate"(%96) <{force = false}> : (tensor<16x64xf32, #ttnn_layout88>) -> ()
        %99 = "ttnn.concat"(%97, %98) <{dim = 1 : si32}> : (tensor<16x32xf32, #ttnn_layout42>, tensor<16x32xf32, #ttnn_layout42>) -> tensor<16x64xf32, #ttnn_layout88>
        "ttnn.deallocate"(%98) <{force = false}> : (tensor<16x32xf32, #ttnn_layout42>) -> ()
        "ttnn.deallocate"(%97) <{force = false}> : (tensor<16x32xf32, #ttnn_layout42>) -> ()
        %100 = "ttnn.typecast"(%99) <{dtype = #ttcore.supportedDataTypes<bf16>}> : (tensor<16x64xf32, #ttnn_layout88>) -> tensor<16x64xbf16, #ttnn_layout89>
        "ttnn.deallocate"(%99) <{force = false}> : (tensor<16x64xf32, #ttnn_layout88>) -> ()
        %101 = "ttnn.reshape"(%81) <{shape = [16 : i32, 128 : i32]}> : (tensor<1x2048xbf16, #ttnn_layout15>) -> tensor<16x128xbf16, #ttnn_layout79>
        "ttnn.deallocate"(%81) <{force = false}> : (tensor<1x2048xbf16, #ttnn_layout15>) -> ()
        %102 = "ttnn.slice_static"(%101) <{begins = [0 : i32, 64 : i32], ends = [16 : i32, 128 : i32], step = [1 : i32, 1 : i32]}> : (tensor<16x128xbf16, #ttnn_layout79>) -> tensor<16x64xbf16, #ttnn_layout89>
        "ttnn.deallocate"(%101) <{force = false}> : (tensor<16x128xbf16, #ttnn_layout79>) -> ()
        %103 = "ttnn.concat"(%100, %102) <{dim = 1 : si32}> : (tensor<16x64xbf16, #ttnn_layout89>, tensor<16x64xbf16, #ttnn_layout89>) -> tensor<16x128xbf16, #ttnn_layout79>
        "ttnn.deallocate"(%102) <{force = false}> : (tensor<16x64xbf16, #ttnn_layout89>) -> ()
        "ttnn.deallocate"(%100) <{force = false}> : (tensor<16x64xbf16, #ttnn_layout89>) -> ()
        %104 = "ttnn.matmul"(%103, %arg8) <{compute_config = #ttnn.device_compute_kernel_config<math_fidelity = hifi4, fp32_dest_acc_en = true>, transpose_a = false, transpose_b = true}> : (tensor<16x128xbf16, #ttnn_layout79>, tensor<128x128xbf16, #ttnn_layout72>) -> tensor<16x128xbf16, #ttnn_layout79>
        "ttnn.deallocate"(%103) <{force = false}> : (tensor<16x128xbf16, #ttnn_layout79>) -> ()
        "ttnn.deallocate"(%arg8) <{force = false}> : (tensor<128x128xbf16, #ttnn_layout72>) -> ()
        %105 = "ttnn.reshape"(%104) <{shape = [1 : i32, 16 : i32, 128 : i32]}> : (tensor<16x128xbf16, #ttnn_layout79>) -> tensor<1x16x128xbf16, #ttnn_layout80>
        "ttnn.deallocate"(%104) <{force = false}> : (tensor<16x128xbf16, #ttnn_layout79>) -> ()
        %106 = "ttnn.matmul"(%70, %105) <{compute_config = #ttnn.device_compute_kernel_config<math_fidelity = hifi4, fp32_dest_acc_en = true>, transpose_a = false, transpose_b = true}> : (tensor<1x33x128xbf16, #ttnn_layout76>, tensor<1x16x128xbf16, #ttnn_layout80>) -> tensor<1x33x16xbf16, #ttnn_layout>
        "ttnn.deallocate"(%105) <{force = false}> : (tensor<1x16x128xbf16, #ttnn_layout80>) -> ()
        "ttnn.deallocate"(%70) <{force = false}> : (tensor<1x33x128xbf16, #ttnn_layout76>) -> ()
        %107 = "ttnn.maximum"(%106, %4) : (tensor<1x33x16xbf16, #ttnn_layout>, tensor<1x1x1xbf16, #ttnn_layout29>) -> tensor<1x33x16xbf16, #ttnn_layout>
        "ttnn.deallocate"(%106) <{force = false}> : (tensor<1x33x16xbf16, #ttnn_layout>) -> ()
        %108 = "ttnn.multiply"(%33, %7) <{dtype = #ttcore.supportedDataTypes<bf16>}> : (tensor<1x1x16xbf16, #ttnn_layout29>, tensor<1x1x1xbf16, #ttnn_layout29>) -> tensor<1x1x16xbf16, #ttnn_layout29>
        "ttnn.deallocate"(%33) <{force = false}> : (tensor<1x1x16xbf16, #ttnn_layout29>) -> ()
        "ttnn.deallocate"(%7) <{force = false}> : (tensor<1x1x1xbf16, #ttnn_layout29>) -> ()
        %109 = "ttnn.multiply"(%108, %13) <{dtype = #ttcore.supportedDataTypes<bf16>}> : (tensor<1x1x16xbf16, #ttnn_layout29>, tensor<1x1x1xbf16, #ttnn_layout29>) -> tensor<1x1x16xbf16, #ttnn_layout29>
        "ttnn.deallocate"(%108) <{force = false}> : (tensor<1x1x16xbf16, #ttnn_layout29>) -> ()
        "ttnn.deallocate"(%13) <{force = false}> : (tensor<1x1x1xbf16, #ttnn_layout29>) -> ()
        %110 = "ttnn.multiply"(%107, %109) <{dtype = #ttcore.supportedDataTypes<bf16>}> : (tensor<1x33x16xbf16, #ttnn_layout>, tensor<1x1x16xbf16, #ttnn_layout29>) -> tensor<1x33x16xbf16, #ttnn_layout>
        "ttnn.deallocate"(%109) <{force = false}> : (tensor<1x1x16xbf16, #ttnn_layout29>) -> ()
        "ttnn.deallocate"(%107) <{force = false}> : (tensor<1x33x16xbf16, #ttnn_layout>) -> ()
        %111 = "ttnn.sum"(%110) <{compute_config = #ttnn.device_compute_kernel_config<math_fidelity = hifi4, fp32_dest_acc_en = true>, dim_arg = [2 : i32], keep_dim = false}> : (tensor<1x33x16xbf16, #ttnn_layout>) -> tensor<1x33xbf16, #ttnn_layout89>
        "ttnn.deallocate"(%110) <{force = false}> : (tensor<1x33x16xbf16, #ttnn_layout>) -> ()
        %112 = "ttnn.reshape"(%111) <{shape = [1 : i32, 1 : i32, 33 : i32]}> : (tensor<1x33xbf16, #ttnn_layout89>) -> tensor<1x1x33xbf16, #ttnn_layout84>
        "ttnn.deallocate"(%111) <{force = false}> : (tensor<1x33xbf16, #ttnn_layout89>) -> ()
        %113 = "ttnn.all_gather"(%112) <{all_gather_dim = 0 : si32, cluster_axis = 1 : ui32, topology = #ttcore.topology<linear>}> : (tensor<1x1x33xbf16, #ttnn_layout84>) -> tensor<4x1x33xbf16, #ttnn_layout97>
        "ttnn.deallocate"(%112) <{force = false}> : (tensor<1x1x33xbf16, #ttnn_layout84>) -> ()
        %114 = "ttnn.sum"(%113) <{compute_config = #ttnn.device_compute_kernel_config<math_fidelity = hifi4, fp32_dest_acc_en = true>, dim_arg = [0 : i32], keep_dim = false}> : (tensor<4x1x33xbf16, #ttnn_layout97>) -> tensor<1x33xbf16, #ttnn_layout89>
        "ttnn.deallocate"(%113) <{force = false}> : (tensor<4x1x33xbf16, #ttnn_layout97>) -> ()
        %115 = "ttnn.reshape"(%114) <{shape = [1 : i32, 1 : i32, 33 : i32]}> : (tensor<1x33xbf16, #ttnn_layout89>) -> tensor<1x1x33xbf16, #ttnn_layout84>
        "ttnn.deallocate"(%114) <{force = false}> : (tensor<1x33xbf16, #ttnn_layout89>) -> ()
        %values, %indices = "ttnn.topk"(%115) <{dim = -1 : i32, k = 33 : i32, largest = true, sorted = true}> : (tensor<1x1x33xbf16, #ttnn_layout84>) -> (tensor<1x1x33xbf16, #ttnn_layout84>, tensor<1x1x33xui16, #ttnn_layout98>)
        "ttnn.deallocate"(%values) <{force = false}> : (tensor<1x1x33xbf16, #ttnn_layout84>) -> ()
        "ttnn.deallocate"(%115) <{force = false}> : (tensor<1x1x33xbf16, #ttnn_layout84>) -> ()
        %116 = "ttnn.typecast"(%indices) <{dtype = #ttcore.supportedDataTypes<si32>}> : (tensor<1x1x33xui16, #ttnn_layout98>) -> tensor<1x1x33xsi32, #ttnn_layout99>
        "ttnn.deallocate"(%indices) <{force = false}> : (tensor<1x1x33xui16, #ttnn_layout98>) -> ()
        %117 = "ttnn.slice_static"(%31) <{begins = [0 : i32, 0 : i32, 0 : i32], ends = [1 : i32, 1 : i32, 512 : i32], step = [1 : i32, 1 : i32, 1 : i32]}> : (tensor<1x1x576xbf16, #ttnn_layout82>) -> tensor<1x1x512xbf16, #ttnn_layout100>
        %118 = "ttnn.typecast"(%117) <{dtype = #ttcore.supportedDataTypes<f32>}> : (tensor<1x1x512xbf16, #ttnn_layout100>) -> tensor<1x1x512xf32, #ttnn_layout101>
        "ttnn.deallocate"(%117) <{force = false}> : (tensor<1x1x512xbf16, #ttnn_layout100>) -> ()
        %119 = "ttnn.pow_scalar"(%118) <{rhs = 2.000000e+00 : f32}> : (tensor<1x1x512xf32, #ttnn_layout101>) -> tensor<1x1x512xf32, #ttnn_layout101>
        %120 = "ttnn.mean"(%119) <{compute_config = #ttnn.device_compute_kernel_config<math_fidelity = hifi4, fp32_dest_acc_en = true>, dim_arg = [2 : i32], keep_dim = true}> : (tensor<1x1x512xf32, #ttnn_layout101>) -> tensor<1x1x1xf32, #ttnn_layout41>
        "ttnn.deallocate"(%119) <{force = false}> : (tensor<1x1x512xf32, #ttnn_layout101>) -> ()
        %121 = "ttnn.add"(%120, %9) <{dtype = #ttcore.supportedDataTypes<f32>}> : (tensor<1x1x1xf32, #ttnn_layout41>, tensor<1x1x1xf32, #ttnn_layout41>) -> tensor<1x1x1xf32, #ttnn_layout41>
        "ttnn.deallocate"(%120) <{force = false}> : (tensor<1x1x1xf32, #ttnn_layout41>) -> ()
        "ttnn.deallocate"(%9) <{force = false}> : (tensor<1x1x1xf32, #ttnn_layout41>) -> ()
        %122 = "ttnn.rsqrt"(%121) : (tensor<1x1x1xf32, #ttnn_layout41>) -> tensor<1x1x1xf32, #ttnn_layout41>
        "ttnn.deallocate"(%121) <{force = false}> : (tensor<1x1x1xf32, #ttnn_layout41>) -> ()
        %123 = "ttnn.reshape"(%122) <{shape = [1 : i32, 1 : i32]}> : (tensor<1x1x1xf32, #ttnn_layout41>) -> tensor<1x1xf32, #ttnn_layout42>
        "ttnn.deallocate"(%122) <{force = false}> : (tensor<1x1x1xf32, #ttnn_layout41>) -> ()
        %124 = "ttnn.reshape"(%118) <{shape = [1 : i32, 512 : i32]}> : (tensor<1x1x512xf32, #ttnn_layout101>) -> tensor<1x512xf32, #ttnn_layout62>
        "ttnn.deallocate"(%118) <{force = false}> : (tensor<1x1x512xf32, #ttnn_layout101>) -> ()
        %125 = "ttnn.multiply"(%124, %123) <{dtype = #ttcore.supportedDataTypes<f32>}> : (tensor<1x512xf32, #ttnn_layout62>, tensor<1x1xf32, #ttnn_layout42>) -> tensor<1x512xf32, #ttnn_layout62>
        "ttnn.deallocate"(%124) <{force = false}> : (tensor<1x512xf32, #ttnn_layout62>) -> ()
        "ttnn.deallocate"(%123) <{force = false}> : (tensor<1x1xf32, #ttnn_layout42>) -> ()
        %126 = "ttnn.multiply"(%19, %125) <{dtype = #ttcore.supportedDataTypes<f32>}> : (tensor<1x512xf32, #ttnn_layout62>, tensor<1x512xf32, #ttnn_layout62>) -> tensor<1x512xf32, #ttnn_layout62>
        "ttnn.deallocate"(%125) <{force = false}> : (tensor<1x512xf32, #ttnn_layout62>) -> ()
        "ttnn.deallocate"(%19) <{force = false}> : (tensor<1x512xf32, #ttnn_layout62>) -> ()
        %127 = "ttnn.typecast"(%126) <{dtype = #ttcore.supportedDataTypes<bf16>}> : (tensor<1x512xf32, #ttnn_layout62>) -> tensor<1x512xbf16, #ttnn_layout65>
        "ttnn.deallocate"(%126) <{force = false}> : (tensor<1x512xf32, #ttnn_layout62>) -> ()
        %128 = "ttnn.to_layout"(%127) <{layout = #ttnn.layout<row_major>}> : (tensor<1x512xbf16, #ttnn_layout65>) -> tensor<1x512xbf16, #ttnn_layout102>
        "ttnn.deallocate"(%127) <{force = false}> : (tensor<1x512xbf16, #ttnn_layout65>) -> ()
        %129 = "ttnn.embedding"(%12, %128) : (tensor<64x1xui32, #ttnn_layout43>, tensor<1x512xbf16, #ttnn_layout102>) -> tensor<64x1x512xbf16, #ttnn_layout103>
        "ttnn.deallocate"(%128) <{force = false}> : (tensor<1x512xbf16, #ttnn_layout102>) -> ()
        %130 = "ttnn.permute"(%129) <{permutation = array<i64: 1, 0, 2>}> : (tensor<64x1x512xbf16, #ttnn_layout103>) -> tensor<1x64x512xbf16, #ttnn_layout74>
        "ttnn.deallocate"(%129) <{force = false}> : (tensor<64x1x512xbf16, #ttnn_layout103>) -> ()
        %131 = "ttnn.where"(%24, %4, %130) : (tensor<1x64x1xbf16, #ttnn_layout>, tensor<1x1x1xbf16, #ttnn_layout29>, tensor<1x64x512xbf16, #ttnn_layout74>) -> tensor<1x64x512xbf16, #ttnn_layout74>
        "ttnn.deallocate"(%130) <{force = false}> : (tensor<1x64x512xbf16, #ttnn_layout74>) -> ()
        %132 = "ttnn.to_layout"(%arg0) <{layout = #ttnn.layout<tile>}> : (tensor<1x64x512xbf16, #ttnn_layout66>) -> tensor<1x64x512xbf16, #ttnn_layout74>
        "ttnn.deallocate"(%arg0) <{force = false}> : (tensor<1x64x512xbf16, #ttnn_layout66>) -> ()
        %133 = "ttnn.where"(%23, %131, %132) : (tensor<1x64x1xbf16, #ttnn_layout>, tensor<1x64x512xbf16, #ttnn_layout74>, tensor<1x64x512xbf16, #ttnn_layout74>) -> tensor<1x64x512xbf16, #ttnn_layout74>
        "ttnn.deallocate"(%132) <{force = false}> : (tensor<1x64x512xbf16, #ttnn_layout74>) -> ()
        "ttnn.deallocate"(%131) <{force = false}> : (tensor<1x64x512xbf16, #ttnn_layout74>) -> ()
        %134 = "ttnn.slice_static"(%31) <{begins = [0 : i32, 0 : i32, 512 : i32], ends = [1 : i32, 1 : i32, 576 : i32], step = [1 : i32, 1 : i32, 1 : i32]}> : (tensor<1x1x576xbf16, #ttnn_layout82>) -> tensor<1x1x64xbf16, #ttnn_layout84>
        "ttnn.deallocate"(%31) <{force = false}> : (tensor<1x1x576xbf16, #ttnn_layout82>) -> ()
        %135 = "ttnn.typecast"(%134) <{dtype = #ttcore.supportedDataTypes<f32>}> : (tensor<1x1x64xbf16, #ttnn_layout84>) -> tensor<1x1x64xf32, #ttnn_layout85>
        "ttnn.deallocate"(%134) <{force = false}> : (tensor<1x1x64xbf16, #ttnn_layout84>) -> ()
        %136 = "ttnn.reshape"(%135) <{shape = [1 : i32, 1 : i32, 1 : i32, 32 : i32, 2 : i32]}> : (tensor<1x1x64xf32, #ttnn_layout85>) -> tensor<1x1x1x32x2xf32, #ttnn_layout86>
        "ttnn.deallocate"(%135) <{force = false}> : (tensor<1x1x64xf32, #ttnn_layout85>) -> ()
        %137 = "ttnn.slice_static"(%136) <{begins = [0 : i32, 0 : i32, 0 : i32, 0 : i32, 0 : i32], ends = [1 : i32, 1 : i32, 1 : i32, 32 : i32, 1 : i32], step = [1 : i32, 1 : i32, 1 : i32, 1 : i32, 1 : i32]}> : (tensor<1x1x1x32x2xf32, #ttnn_layout86>) -> tensor<1x1x1x32x1xf32, #ttnn_layout86>
        %138 = "ttnn.multiply"(%137, %44) <{dtype = #ttcore.supportedDataTypes<f32>}> : (tensor<1x1x1x32x1xf32, #ttnn_layout86>, tensor<1x1x1x32x1xf32, #ttnn_layout86>) -> tensor<1x1x1x32x1xf32, #ttnn_layout86>
        %139 = "ttnn.slice_static"(%136) <{begins = [0 : i32, 0 : i32, 0 : i32, 0 : i32, 1 : i32], ends = [1 : i32, 1 : i32, 1 : i32, 32 : i32, 2 : i32], step = [1 : i32, 1 : i32, 1 : i32, 1 : i32, 1 : i32]}> : (tensor<1x1x1x32x2xf32, #ttnn_layout86>) -> tensor<1x1x1x32x1xf32, #ttnn_layout86>
        "ttnn.deallocate"(%136) <{force = false}> : (tensor<1x1x1x32x2xf32, #ttnn_layout86>) -> ()
        %140 = "ttnn.multiply"(%139, %48) <{dtype = #ttcore.supportedDataTypes<f32>}> : (tensor<1x1x1x32x1xf32, #ttnn_layout86>, tensor<1x1x1x32x1xf32, #ttnn_layout86>) -> tensor<1x1x1x32x1xf32, #ttnn_layout86>
        %141 = "ttnn.subtract"(%138, %140) <{dtype = #ttcore.supportedDataTypes<f32>}> : (tensor<1x1x1x32x1xf32, #ttnn_layout86>, tensor<1x1x1x32x1xf32, #ttnn_layout86>) -> tensor<1x1x1x32x1xf32, #ttnn_layout86>
        "ttnn.deallocate"(%140) <{force = false}> : (tensor<1x1x1x32x1xf32, #ttnn_layout86>) -> ()
        "ttnn.deallocate"(%138) <{force = false}> : (tensor<1x1x1x32x1xf32, #ttnn_layout86>) -> ()
        %142 = "ttnn.multiply"(%137, %48) <{dtype = #ttcore.supportedDataTypes<f32>}> : (tensor<1x1x1x32x1xf32, #ttnn_layout86>, tensor<1x1x1x32x1xf32, #ttnn_layout86>) -> tensor<1x1x1x32x1xf32, #ttnn_layout86>
        "ttnn.deallocate"(%137) <{force = false}> : (tensor<1x1x1x32x1xf32, #ttnn_layout86>) -> ()
        %143 = "ttnn.multiply"(%139, %44) <{dtype = #ttcore.supportedDataTypes<f32>}> : (tensor<1x1x1x32x1xf32, #ttnn_layout86>, tensor<1x1x1x32x1xf32, #ttnn_layout86>) -> tensor<1x1x1x32x1xf32, #ttnn_layout86>
        "ttnn.deallocate"(%139) <{force = false}> : (tensor<1x1x1x32x1xf32, #ttnn_layout86>) -> ()
        %144 = "ttnn.add"(%142, %143) <{dtype = #ttcore.supportedDataTypes<f32>}> : (tensor<1x1x1x32x1xf32, #ttnn_layout86>, tensor<1x1x1x32x1xf32, #ttnn_layout86>) -> tensor<1x1x1x32x1xf32, #ttnn_layout86>
        "ttnn.deallocate"(%143) <{force = false}> : (tensor<1x1x1x32x1xf32, #ttnn_layout86>) -> ()
        "ttnn.deallocate"(%142) <{force = false}> : (tensor<1x1x1x32x1xf32, #ttnn_layout86>) -> ()
        %145 = "ttnn.concat"(%141, %144) <{dim = 4 : si32}> : (tensor<1x1x1x32x1xf32, #ttnn_layout86>, tensor<1x1x1x32x1xf32, #ttnn_layout86>) -> tensor<1x1x1x32x2xf32, #ttnn_layout86>
        "ttnn.deallocate"(%144) <{force = false}> : (tensor<1x1x1x32x1xf32, #ttnn_layout86>) -> ()
        "ttnn.deallocate"(%141) <{force = false}> : (tensor<1x1x1x32x1xf32, #ttnn_layout86>) -> ()
        %146 = "ttnn.typecast"(%145) <{dtype = #ttcore.supportedDataTypes<bf16>}> : (tensor<1x1x1x32x2xf32, #ttnn_layout86>) -> tensor<1x1x1x32x2xbf16, #ttnn_layout87>
        "ttnn.deallocate"(%145) <{force = false}> : (tensor<1x1x1x32x2xf32, #ttnn_layout86>) -> ()
        %147 = "ttnn.reshape"(%146) <{shape = [1 : i32, 64 : i32]}> : (tensor<1x1x1x32x2xbf16, #ttnn_layout87>) -> tensor<1x64xbf16, #ttnn_layout89>
        "ttnn.deallocate"(%146) <{force = false}> : (tensor<1x1x1x32x2xbf16, #ttnn_layout87>) -> ()
        %148 = "ttnn.to_layout"(%147) <{layout = #ttnn.layout<row_major>}> : (tensor<1x64xbf16, #ttnn_layout89>) -> tensor<1x64xbf16, #ttnn_layout104>
        "ttnn.deallocate"(%147) <{force = false}> : (tensor<1x64xbf16, #ttnn_layout89>) -> ()
        %149 = "ttnn.embedding"(%12, %148) : (tensor<64x1xui32, #ttnn_layout43>, tensor<1x64xbf16, #ttnn_layout104>) -> tensor<64x1x64xbf16, #ttnn_layout105>
        "ttnn.deallocate"(%148) <{force = false}> : (tensor<1x64xbf16, #ttnn_layout104>) -> ()
        "ttnn.deallocate"(%12) <{force = false}> : (tensor<64x1xui32, #ttnn_layout43>) -> ()
        %150 = "ttnn.permute"(%149) <{permutation = array<i64: 1, 0, 2>}> : (tensor<64x1x64xbf16, #ttnn_layout105>) -> tensor<1x64x64xbf16, #ttnn_layout75>
        "ttnn.deallocate"(%149) <{force = false}> : (tensor<64x1x64xbf16, #ttnn_layout105>) -> ()
        %151 = "ttnn.where"(%24, %4, %150) : (tensor<1x64x1xbf16, #ttnn_layout>, tensor<1x1x1xbf16, #ttnn_layout29>, tensor<1x64x64xbf16, #ttnn_layout75>) -> tensor<1x64x64xbf16, #ttnn_layout75>
        "ttnn.deallocate"(%150) <{force = false}> : (tensor<1x64x64xbf16, #ttnn_layout75>) -> ()
        "ttnn.deallocate"(%24) <{force = false}> : (tensor<1x64x1xbf16, #ttnn_layout>) -> ()
        "ttnn.deallocate"(%4) <{force = false}> : (tensor<1x1x1xbf16, #ttnn_layout29>) -> ()
        %152 = "ttnn.to_layout"(%arg5) <{layout = #ttnn.layout<tile>}> : (tensor<1x64x64xbf16, #ttnn_layout69>) -> tensor<1x64x64xbf16, #ttnn_layout75>
        "ttnn.deallocate"(%arg5) <{force = false}> : (tensor<1x64x64xbf16, #ttnn_layout69>) -> ()
        %153 = "ttnn.where"(%23, %151, %152) : (tensor<1x64x1xbf16, #ttnn_layout>, tensor<1x64x64xbf16, #ttnn_layout75>, tensor<1x64x64xbf16, #ttnn_layout75>) -> tensor<1x64x64xbf16, #ttnn_layout75>
        "ttnn.deallocate"(%152) <{force = false}> : (tensor<1x64x64xbf16, #ttnn_layout75>) -> ()
        "ttnn.deallocate"(%151) <{force = false}> : (tensor<1x64x64xbf16, #ttnn_layout75>) -> ()
        "ttnn.deallocate"(%23) <{force = false}> : (tensor<1x64x1xbf16, #ttnn_layout>) -> ()
        %154 = "ttnn.matmul"(%80, %5) <{compute_config = #ttnn.device_compute_kernel_config<math_fidelity = hifi4, fp32_dest_acc_en = true>, transpose_a = false, transpose_b = true}> : (tensor<1x3072xbf16, #ttnn_layout28>, tensor<768x3072xbf16, #ttnn_layout32>) -> tensor<1x768xbf16, #ttnn_layout106>
        "ttnn.deallocate"(%80) <{force = false}> : (tensor<1x3072xbf16, #ttnn_layout28>) -> ()
        "ttnn.deallocate"(%5) <{force = false}> : (tensor<768x3072xbf16, #ttnn_layout32>) -> ()
        %155 = "ttnn.reshape"(%154) <{shape = [1 : i32, 1 : i32, 4 : i32, 192 : i32]}> : (tensor<1x768xbf16, #ttnn_layout106>) -> tensor<1x1x4x192xbf16, #ttnn_layout107>
        "ttnn.deallocate"(%154) <{force = false}> : (tensor<1x768xbf16, #ttnn_layout106>) -> ()
        %156 = "ttnn.slice_static"(%155) <{begins = [0 : i32, 0 : i32, 0 : i32, 0 : i32], ends = [1 : i32, 1 : i32, 4 : i32, 128 : i32], step = [1 : i32, 1 : i32, 1 : i32, 1 : i32]}> : (tensor<1x1x4x192xbf16, #ttnn_layout107>) -> tensor<1x1x4x128xbf16, #ttnn_layout93>
        %157 = "ttnn.permute"(%156) <{permutation = array<i64: 2, 0, 1, 3>}> : (tensor<1x1x4x128xbf16, #ttnn_layout93>) -> tensor<4x1x1x128xbf16, #ttnn_layout108>
        "ttnn.deallocate"(%156) <{force = false}> : (tensor<1x1x4x128xbf16, #ttnn_layout93>) -> ()
        %158 = "ttnn.reshape"(%157) <{shape = [4 : i32, 1 : i32, 128 : i32]}> : (tensor<4x1x1x128xbf16, #ttnn_layout108>) -> tensor<4x1x128xbf16, #ttnn_layout109>
        "ttnn.deallocate"(%157) <{force = false}> : (tensor<4x1x1x128xbf16, #ttnn_layout108>) -> ()
        %159 = "ttnn.matmul"(%158, %6#0) <{compute_config = #ttnn.device_compute_kernel_config<math_fidelity = hifi4, fp32_dest_acc_en = true>, transpose_a = false, transpose_b = false}> : (tensor<4x1x128xbf16, #ttnn_layout109>, tensor<4x128x512xbf16, #ttnn_layout36>) -> tensor<4x1x512xbf16, #ttnn_layout110>
        "ttnn.deallocate"(%158) <{force = false}> : (tensor<4x1x128xbf16, #ttnn_layout109>) -> ()
        "ttnn.deallocate"(%6#0) <{force = false}> : (tensor<4x128x512xbf16, #ttnn_layout36>) -> ()
        %160 = "ttnn.slice_static"(%133) <{begins = [0 : i32, 0 : i32, 0 : i32], ends = [1 : i32, 33 : i32, 512 : i32], step = [1 : i32, 1 : i32, 1 : i32]}> : (tensor<1x64x512xbf16, #ttnn_layout74>) -> tensor<1x33x512xbf16, #ttnn_layout74>
        %161 = "ttnn.permute"(%160) <{permutation = array<i64: 1, 2, 0>}> : (tensor<1x33x512xbf16, #ttnn_layout74>) -> tensor<33x512x1xbf16, #ttnn_layout111>
        "ttnn.deallocate"(%160) <{force = false}> : (tensor<1x33x512xbf16, #ttnn_layout74>) -> ()
        %162 = "ttnn.typecast"(%116) <{dtype = #ttcore.supportedDataTypes<u32>}> : (tensor<1x1x33xsi32, #ttnn_layout99>) -> tensor<1x1x33xui32, #ttnn_layout112>
        "ttnn.deallocate"(%116) <{force = false}> : (tensor<1x1x33xsi32, #ttnn_layout99>) -> ()
        %163 = "ttnn.reshape"(%162) <{shape = [1 : i32, 33 : i32, 1 : i32, 1 : i32]}> : (tensor<1x1x33xui32, #ttnn_layout112>) -> tensor<1x33x1x1xui32, #ttnn_layout113>
        "ttnn.deallocate"(%162) <{force = false}> : (tensor<1x1x33xui32, #ttnn_layout112>) -> ()
        %164 = "ttnn.repeat"(%163) <{repeat_dims = #ttnn.shape<1x1x512x1>}> : (tensor<1x33x1x1xui32, #ttnn_layout113>) -> tensor<1x33x512x1xui32, #ttnn_layout50>
        %165 = "ttnn.concat"(%15#1, %164, %14) <{dim = 3 : si32}> : (tensor<1x33x512x1xui32, #ttnn_layout50>, tensor<1x33x512x1xui32, #ttnn_layout50>, tensor<1x33x512x1xui32, #ttnn_layout50>) -> tensor<1x33x512x3xui32, #ttnn_layout50>
        "ttnn.deallocate"(%164) <{force = false}> : (tensor<1x33x512x1xui32, #ttnn_layout50>) -> ()
        "ttnn.deallocate"(%15#1) <{force = false}> : (tensor<1x33x512x1xui32, #ttnn_layout50>) -> ()
        "ttnn.deallocate"(%14) <{force = false}> : (tensor<1x33x512x1xui32, #ttnn_layout50>) -> ()
        %166 = "ttnn.reshape"(%161) <{shape = [16896 : i32, 1 : i32]}> : (tensor<33x512x1xbf16, #ttnn_layout111>) -> tensor<16896x1xbf16, #ttnn_layout114>
        "ttnn.deallocate"(%161) <{force = false}> : (tensor<33x512x1xbf16, #ttnn_layout111>) -> ()
        %167 = "ttnn.typecast"(%165) <{dtype = #ttcore.supportedDataTypes<f32>}> : (tensor<1x33x512x3xui32, #ttnn_layout50>) -> tensor<1x33x512x3xf32, #ttnn_layout115>
        "ttnn.deallocate"(%165) <{force = false}> : (tensor<1x33x512x3xui32, #ttnn_layout50>) -> ()
        %168 = "ttnn.matmul"(%167, %10) <{compute_config = #ttnn.device_compute_kernel_config<math_fidelity = hifi4, fp32_dest_acc_en = true>, transpose_a = false, transpose_b = false}> : (tensor<1x33x512x3xf32, #ttnn_layout115>, tensor<3x1xf32, #ttnn_layout42>) -> tensor<1x33x512x1xf32, #ttnn_layout115>
        "ttnn.deallocate"(%167) <{force = false}> : (tensor<1x33x512x3xf32, #ttnn_layout115>) -> ()
        "ttnn.deallocate"(%10) <{force = false}> : (tensor<3x1xf32, #ttnn_layout42>) -> ()
        %169 = "ttnn.reshape"(%168) <{shape = [1 : i32, 16896 : i32]}> : (tensor<1x33x512x1xf32, #ttnn_layout115>) -> tensor<1x16896xf32, #ttnn_layout116>
        "ttnn.deallocate"(%168) <{force = false}> : (tensor<1x33x512x1xf32, #ttnn_layout115>) -> ()
        %170 = "ttnn.typecast"(%169) <{dtype = #ttcore.supportedDataTypes<u32>}> : (tensor<1x16896xf32, #ttnn_layout116>) -> tensor<1x16896xui32, #ttnn_layout117>
        "ttnn.deallocate"(%169) <{force = false}> : (tensor<1x16896xf32, #ttnn_layout116>) -> ()
        %171 = "ttnn.to_layout"(%170) <{layout = #ttnn.layout<row_major>}> : (tensor<1x16896xui32, #ttnn_layout117>) -> tensor<1x16896xui32, #ttnn_layout118>
        "ttnn.deallocate"(%170) <{force = false}> : (tensor<1x16896xui32, #ttnn_layout117>) -> ()
        %172 = "ttnn.to_layout"(%166) <{layout = #ttnn.layout<row_major>}> : (tensor<16896x1xbf16, #ttnn_layout114>) -> tensor<16896x1xbf16, #ttnn_layout119>
        "ttnn.deallocate"(%166) <{force = false}> : (tensor<16896x1xbf16, #ttnn_layout114>) -> ()
        %173 = "ttnn.embedding"(%171, %172) : (tensor<1x16896xui32, #ttnn_layout118>, tensor<16896x1xbf16, #ttnn_layout119>) -> tensor<1x16896x1xbf16, #ttnn_layout120>
        "ttnn.deallocate"(%172) <{force = false}> : (tensor<16896x1xbf16, #ttnn_layout119>) -> ()
        "ttnn.deallocate"(%171) <{force = false}> : (tensor<1x16896xui32, #ttnn_layout118>) -> ()
        %174 = "ttnn.reshape"(%173) <{shape = [1 : i32, 33 : i32, 512 : i32]}> : (tensor<1x16896x1xbf16, #ttnn_layout120>) -> tensor<1x33x512xbf16, #ttnn_layout74>
        "ttnn.deallocate"(%173) <{force = false}> : (tensor<1x16896x1xbf16, #ttnn_layout120>) -> ()
        %175 = "ttnn.reshape"(%159) <{shape = [1 : i32, 4 : i32, 512 : i32]}> : (tensor<4x1x512xbf16, #ttnn_layout110>) -> tensor<1x4x512xbf16, #ttnn_layout100>
        "ttnn.deallocate"(%159) <{force = false}> : (tensor<4x1x512xbf16, #ttnn_layout110>) -> ()
        %176 = "ttnn.matmul"(%175, %174) <{compute_config = #ttnn.device_compute_kernel_config<math_fidelity = hifi4, fp32_dest_acc_en = true>, transpose_a = false, transpose_b = true}> : (tensor<1x4x512xbf16, #ttnn_layout100>, tensor<1x33x512xbf16, #ttnn_layout74>) -> tensor<1x4x33xbf16, #ttnn_layout84>
        "ttnn.deallocate"(%175) <{force = false}> : (tensor<1x4x512xbf16, #ttnn_layout100>) -> ()
        %177 = "ttnn.slice_static"(%155) <{begins = [0 : i32, 0 : i32, 0 : i32, 128 : i32], ends = [1 : i32, 1 : i32, 4 : i32, 192 : i32], step = [1 : i32, 1 : i32, 1 : i32, 1 : i32]}> : (tensor<1x1x4x192xbf16, #ttnn_layout107>) -> tensor<1x1x4x64xbf16, #ttnn_layout94>
        "ttnn.deallocate"(%155) <{force = false}> : (tensor<1x1x4x192xbf16, #ttnn_layout107>) -> ()
        %178 = "ttnn.typecast"(%177) <{dtype = #ttcore.supportedDataTypes<f32>}> : (tensor<1x1x4x64xbf16, #ttnn_layout94>) -> tensor<1x1x4x64xf32, #ttnn_layout95>
        "ttnn.deallocate"(%177) <{force = false}> : (tensor<1x1x4x64xbf16, #ttnn_layout94>) -> ()
        %179 = "ttnn.reshape"(%178) <{shape = [1 : i32, 1 : i32, 4 : i32, 32 : i32, 2 : i32]}> : (tensor<1x1x4x64xf32, #ttnn_layout95>) -> tensor<1x1x4x32x2xf32, #ttnn_layout121>
        "ttnn.deallocate"(%178) <{force = false}> : (tensor<1x1x4x64xf32, #ttnn_layout95>) -> ()
        %180 = "ttnn.slice_static"(%179) <{begins = [0 : i32, 0 : i32, 0 : i32, 0 : i32, 0 : i32], ends = [1 : i32, 1 : i32, 4 : i32, 32 : i32, 1 : i32], step = [1 : i32, 1 : i32, 1 : i32, 1 : i32, 1 : i32]}> : (tensor<1x1x4x32x2xf32, #ttnn_layout121>) -> tensor<1x1x4x32x1xf32, #ttnn_layout121>
        %181 = "ttnn.multiply"(%180, %44) <{dtype = #ttcore.supportedDataTypes<f32>}> : (tensor<1x1x4x32x1xf32, #ttnn_layout121>, tensor<1x1x1x32x1xf32, #ttnn_layout86>) -> tensor<1x1x4x32x1xf32, #ttnn_layout121>
        %182 = "ttnn.slice_static"(%179) <{begins = [0 : i32, 0 : i32, 0 : i32, 0 : i32, 1 : i32], ends = [1 : i32, 1 : i32, 4 : i32, 32 : i32, 2 : i32], step = [1 : i32, 1 : i32, 1 : i32, 1 : i32, 1 : i32]}> : (tensor<1x1x4x32x2xf32, #ttnn_layout121>) -> tensor<1x1x4x32x1xf32, #ttnn_layout121>
        "ttnn.deallocate"(%179) <{force = false}> : (tensor<1x1x4x32x2xf32, #ttnn_layout121>) -> ()
        %183 = "ttnn.multiply"(%182, %48) <{dtype = #ttcore.supportedDataTypes<f32>}> : (tensor<1x1x4x32x1xf32, #ttnn_layout121>, tensor<1x1x1x32x1xf32, #ttnn_layout86>) -> tensor<1x1x4x32x1xf32, #ttnn_layout121>
        %184 = "ttnn.subtract"(%181, %183) <{dtype = #ttcore.supportedDataTypes<f32>}> : (tensor<1x1x4x32x1xf32, #ttnn_layout121>, tensor<1x1x4x32x1xf32, #ttnn_layout121>) -> tensor<1x1x4x32x1xf32, #ttnn_layout121>
        "ttnn.deallocate"(%183) <{force = false}> : (tensor<1x1x4x32x1xf32, #ttnn_layout121>) -> ()
        "ttnn.deallocate"(%181) <{force = false}> : (tensor<1x1x4x32x1xf32, #ttnn_layout121>) -> ()
        %185 = "ttnn.multiply"(%180, %48) <{dtype = #ttcore.supportedDataTypes<f32>}> : (tensor<1x1x4x32x1xf32, #ttnn_layout121>, tensor<1x1x1x32x1xf32, #ttnn_layout86>) -> tensor<1x1x4x32x1xf32, #ttnn_layout121>
        "ttnn.deallocate"(%180) <{force = false}> : (tensor<1x1x4x32x1xf32, #ttnn_layout121>) -> ()
        "ttnn.deallocate"(%48) <{force = false}> : (tensor<1x1x1x32x1xf32, #ttnn_layout86>) -> ()
        %186 = "ttnn.multiply"(%182, %44) <{dtype = #ttcore.supportedDataTypes<f32>}> : (tensor<1x1x4x32x1xf32, #ttnn_layout121>, tensor<1x1x1x32x1xf32, #ttnn_layout86>) -> tensor<1x1x4x32x1xf32, #ttnn_layout121>
        "ttnn.deallocate"(%182) <{force = false}> : (tensor<1x1x4x32x1xf32, #ttnn_layout121>) -> ()
        "ttnn.deallocate"(%44) <{force = false}> : (tensor<1x1x1x32x1xf32, #ttnn_layout86>) -> ()
        %187 = "ttnn.add"(%185, %186) <{dtype = #ttcore.supportedDataTypes<f32>}> : (tensor<1x1x4x32x1xf32, #ttnn_layout121>, tensor<1x1x4x32x1xf32, #ttnn_layout121>) -> tensor<1x1x4x32x1xf32, #ttnn_layout121>
        "ttnn.deallocate"(%186) <{force = false}> : (tensor<1x1x4x32x1xf32, #ttnn_layout121>) -> ()
        "ttnn.deallocate"(%185) <{force = false}> : (tensor<1x1x4x32x1xf32, #ttnn_layout121>) -> ()
        %188 = "ttnn.concat"(%184, %187) <{dim = 4 : si32}> : (tensor<1x1x4x32x1xf32, #ttnn_layout121>, tensor<1x1x4x32x1xf32, #ttnn_layout121>) -> tensor<1x1x4x32x2xf32, #ttnn_layout121>
        "ttnn.deallocate"(%187) <{force = false}> : (tensor<1x1x4x32x1xf32, #ttnn_layout121>) -> ()
        "ttnn.deallocate"(%184) <{force = false}> : (tensor<1x1x4x32x1xf32, #ttnn_layout121>) -> ()
        %189 = "ttnn.typecast"(%188) <{dtype = #ttcore.supportedDataTypes<bf16>}> : (tensor<1x1x4x32x2xf32, #ttnn_layout121>) -> tensor<1x1x4x32x2xbf16, #ttnn_layout122>
        "ttnn.deallocate"(%188) <{force = false}> : (tensor<1x1x4x32x2xf32, #ttnn_layout121>) -> ()
        %190 = "ttnn.reshape"(%189) <{shape = [1 : i32, 4 : i32, 64 : i32]}> : (tensor<1x1x4x32x2xbf16, #ttnn_layout122>) -> tensor<1x4x64xbf16, #ttnn_layout84>
        "ttnn.deallocate"(%189) <{force = false}> : (tensor<1x1x4x32x2xbf16, #ttnn_layout122>) -> ()
        %191 = "ttnn.slice_static"(%153) <{begins = [0 : i32, 0 : i32, 0 : i32], ends = [1 : i32, 33 : i32, 64 : i32], step = [1 : i32, 1 : i32, 1 : i32]}> : (tensor<1x64x64xbf16, #ttnn_layout75>) -> tensor<1x33x64xbf16, #ttnn_layout75>
        %192 = "ttnn.permute"(%191) <{permutation = array<i64: 1, 2, 0>}> : (tensor<1x33x64xbf16, #ttnn_layout75>) -> tensor<33x64x1xbf16, #ttnn_layout123>
        "ttnn.deallocate"(%191) <{force = false}> : (tensor<1x33x64xbf16, #ttnn_layout75>) -> ()
        %193 = "ttnn.repeat"(%163) <{repeat_dims = #ttnn.shape<1x1x64x1>}> : (tensor<1x33x1x1xui32, #ttnn_layout113>) -> tensor<1x33x64x1xui32, #ttnn_layout53>
        "ttnn.deallocate"(%163) <{force = false}> : (tensor<1x33x1x1xui32, #ttnn_layout113>) -> ()
        %194 = "ttnn.concat"(%15#0, %193, %16) <{dim = 3 : si32}> : (tensor<1x33x64x1xui32, #ttnn_layout53>, tensor<1x33x64x1xui32, #ttnn_layout53>, tensor<1x33x64x1xui32, #ttnn_layout53>) -> tensor<1x33x64x3xui32, #ttnn_layout53>
        "ttnn.deallocate"(%193) <{force = false}> : (tensor<1x33x64x1xui32, #ttnn_layout53>) -> ()
        "ttnn.deallocate"(%16) <{force = false}> : (tensor<1x33x64x1xui32, #ttnn_layout53>) -> ()
        "ttnn.deallocate"(%15#0) <{force = false}> : (tensor<1x33x64x1xui32, #ttnn_layout53>) -> ()
        %195 = "ttnn.reshape"(%192) <{shape = [2112 : i32, 1 : i32]}> : (tensor<33x64x1xbf16, #ttnn_layout123>) -> tensor<2112x1xbf16, #ttnn_layout124>
        "ttnn.deallocate"(%192) <{force = false}> : (tensor<33x64x1xbf16, #ttnn_layout123>) -> ()
        %196 = "ttnn.typecast"(%194) <{dtype = #ttcore.supportedDataTypes<f32>}> : (tensor<1x33x64x3xui32, #ttnn_layout53>) -> tensor<1x33x64x3xf32, #ttnn_layout125>
        "ttnn.deallocate"(%194) <{force = false}> : (tensor<1x33x64x3xui32, #ttnn_layout53>) -> ()
        %197 = "ttnn.matmul"(%196, %17) <{compute_config = #ttnn.device_compute_kernel_config<math_fidelity = hifi4, fp32_dest_acc_en = true>, transpose_a = false, transpose_b = false}> : (tensor<1x33x64x3xf32, #ttnn_layout125>, tensor<3x1xf32, #ttnn_layout42>) -> tensor<1x33x64x1xf32, #ttnn_layout125>
        "ttnn.deallocate"(%196) <{force = false}> : (tensor<1x33x64x3xf32, #ttnn_layout125>) -> ()
        "ttnn.deallocate"(%17) <{force = false}> : (tensor<3x1xf32, #ttnn_layout42>) -> ()
        %198 = "ttnn.reshape"(%197) <{shape = [1 : i32, 2112 : i32]}> : (tensor<1x33x64x1xf32, #ttnn_layout125>) -> tensor<1x2112xf32, #ttnn_layout126>
        "ttnn.deallocate"(%197) <{force = false}> : (tensor<1x33x64x1xf32, #ttnn_layout125>) -> ()
        %199 = "ttnn.typecast"(%198) <{dtype = #ttcore.supportedDataTypes<u32>}> : (tensor<1x2112xf32, #ttnn_layout126>) -> tensor<1x2112xui32, #ttnn_layout127>
        "ttnn.deallocate"(%198) <{force = false}> : (tensor<1x2112xf32, #ttnn_layout126>) -> ()
        %200 = "ttnn.to_layout"(%199) <{layout = #ttnn.layout<row_major>}> : (tensor<1x2112xui32, #ttnn_layout127>) -> tensor<1x2112xui32, #ttnn_layout128>
        "ttnn.deallocate"(%199) <{force = false}> : (tensor<1x2112xui32, #ttnn_layout127>) -> ()
        %201 = "ttnn.to_layout"(%195) <{layout = #ttnn.layout<row_major>}> : (tensor<2112x1xbf16, #ttnn_layout124>) -> tensor<2112x1xbf16, #ttnn_layout129>
        "ttnn.deallocate"(%195) <{force = false}> : (tensor<2112x1xbf16, #ttnn_layout124>) -> ()
        %202 = "ttnn.embedding"(%200, %201) : (tensor<1x2112xui32, #ttnn_layout128>, tensor<2112x1xbf16, #ttnn_layout129>) -> tensor<1x2112x1xbf16, #ttnn_layout130>
        "ttnn.deallocate"(%201) <{force = false}> : (tensor<2112x1xbf16, #ttnn_layout129>) -> ()
        "ttnn.deallocate"(%200) <{force = false}> : (tensor<1x2112xui32, #ttnn_layout128>) -> ()
        %203 = "ttnn.reshape"(%202) <{shape = [1 : i32, 33 : i32, 64 : i32]}> : (tensor<1x2112x1xbf16, #ttnn_layout130>) -> tensor<1x33x64xbf16, #ttnn_layout75>
        "ttnn.deallocate"(%202) <{force = false}> : (tensor<1x2112x1xbf16, #ttnn_layout130>) -> ()
        %204 = "ttnn.matmul"(%190, %203) <{compute_config = #ttnn.device_compute_kernel_config<math_fidelity = hifi4, fp32_dest_acc_en = true>, transpose_a = false, transpose_b = true}> : (tensor<1x4x64xbf16, #ttnn_layout84>, tensor<1x33x64xbf16, #ttnn_layout75>) -> tensor<1x4x33xbf16, #ttnn_layout84>
        "ttnn.deallocate"(%203) <{force = false}> : (tensor<1x33x64xbf16, #ttnn_layout75>) -> ()
        "ttnn.deallocate"(%190) <{force = false}> : (tensor<1x4x64xbf16, #ttnn_layout84>) -> ()
        %205 = "ttnn.add"(%176, %204) <{dtype = #ttcore.supportedDataTypes<bf16>}> : (tensor<1x4x33xbf16, #ttnn_layout84>, tensor<1x4x33xbf16, #ttnn_layout84>) -> tensor<1x4x33xbf16, #ttnn_layout84>
        "ttnn.deallocate"(%204) <{force = false}> : (tensor<1x4x33xbf16, #ttnn_layout84>) -> ()
        "ttnn.deallocate"(%176) <{force = false}> : (tensor<1x4x33xbf16, #ttnn_layout84>) -> ()
        %206 = "ttnn.multiply"(%205, %8) <{dtype = #ttcore.supportedDataTypes<bf16>}> : (tensor<1x4x33xbf16, #ttnn_layout84>, tensor<1x1x1xbf16, #ttnn_layout29>) -> tensor<1x4x33xbf16, #ttnn_layout84>
        "ttnn.deallocate"(%205) <{force = false}> : (tensor<1x4x33xbf16, #ttnn_layout84>) -> ()
        "ttnn.deallocate"(%8) <{force = false}> : (tensor<1x1x1xbf16, #ttnn_layout29>) -> ()
        %207 = "ttnn.softmax"(%206) <{compute_config = #ttnn.device_compute_kernel_config<math_fidelity = hifi4, fp32_dest_acc_en = true>, dimension = 2 : si32, numericStable = true}> : (tensor<1x4x33xbf16, #ttnn_layout84>) -> tensor<1x4x33xbf16, #ttnn_layout84>
        "ttnn.deallocate"(%206) <{force = false}> : (tensor<1x4x33xbf16, #ttnn_layout84>) -> ()
        %208 = "ttnn.matmul"(%207, %174) <{compute_config = #ttnn.device_compute_kernel_config<math_fidelity = hifi4, fp32_dest_acc_en = true>, transpose_a = false, transpose_b = false}> : (tensor<1x4x33xbf16, #ttnn_layout84>, tensor<1x33x512xbf16, #ttnn_layout74>) -> tensor<1x4x512xbf16, #ttnn_layout100>
        "ttnn.deallocate"(%207) <{force = false}> : (tensor<1x4x33xbf16, #ttnn_layout84>) -> ()
        "ttnn.deallocate"(%174) <{force = false}> : (tensor<1x33x512xbf16, #ttnn_layout74>) -> ()
        %209 = "ttnn.reshape"(%208) <{shape = [1 : i32, 1 : i32, 4 : i32, 512 : i32]}> : (tensor<1x4x512xbf16, #ttnn_layout100>) -> tensor<1x1x4x512xbf16, #ttnn_layout131>
        "ttnn.deallocate"(%208) <{force = false}> : (tensor<1x4x512xbf16, #ttnn_layout100>) -> ()
        %210 = "ttnn.permute"(%209) <{permutation = array<i64: 2, 0, 1, 3>}> : (tensor<1x1x4x512xbf16, #ttnn_layout131>) -> tensor<4x1x1x512xbf16, #ttnn_layout132>
        "ttnn.deallocate"(%209) <{force = false}> : (tensor<1x1x4x512xbf16, #ttnn_layout131>) -> ()
        %211 = "ttnn.reshape"(%210) <{shape = [4 : i32, 1 : i32, 512 : i32]}> : (tensor<4x1x1x512xbf16, #ttnn_layout132>) -> tensor<4x1x512xbf16, #ttnn_layout110>
        "ttnn.deallocate"(%210) <{force = false}> : (tensor<4x1x1x512xbf16, #ttnn_layout132>) -> ()
        %212 = "ttnn.matmul"(%211, %6#1) <{compute_config = #ttnn.device_compute_kernel_config<math_fidelity = hifi4, fp32_dest_acc_en = true>, transpose_a = false, transpose_b = true}> : (tensor<4x1x512xbf16, #ttnn_layout110>, tensor<4x128x512xbf16, #ttnn_layout36>) -> tensor<4x1x128xbf16, #ttnn_layout109>
        "ttnn.deallocate"(%211) <{force = false}> : (tensor<4x1x512xbf16, #ttnn_layout110>) -> ()
        "ttnn.deallocate"(%6#1) <{force = false}> : (tensor<4x128x512xbf16, #ttnn_layout36>) -> ()
        %213 = "ttnn.reshape"(%212) <{shape = [1 : i32, 512 : i32]}> : (tensor<4x1x128xbf16, #ttnn_layout109>) -> tensor<1x512xbf16, #ttnn_layout65>
        "ttnn.deallocate"(%212) <{force = false}> : (tensor<4x1x128xbf16, #ttnn_layout109>) -> ()
        %214 = "ttnn.matmul"(%213, %2) <{compute_config = #ttnn.device_compute_kernel_config<math_fidelity = hifi4, fp32_dest_acc_en = true>, transpose_a = false, transpose_b = true}> : (tensor<1x512xbf16, #ttnn_layout65>, tensor<2048x512xbf16, #ttnn_layout21>) -> tensor<1x2048xbf16, #ttnn_layout15>
        "ttnn.deallocate"(%213) <{force = false}> : (tensor<1x512xbf16, #ttnn_layout65>) -> ()
        "ttnn.deallocate"(%2) <{force = false}> : (tensor<2048x512xbf16, #ttnn_layout21>) -> ()
        %215 = "ttnn.reshape"(%214) <{shape = [1 : i32, 1 : i32, 1 : i32, 2048 : i32]}> : (tensor<1x2048xbf16, #ttnn_layout15>) -> tensor<1x1x1x2048xbf16, #ttnn_layout133>
        "ttnn.deallocate"(%214) <{force = false}> : (tensor<1x2048xbf16, #ttnn_layout15>) -> ()
        %216 = "ttnn.reduce_scatter"(%215) <{cluster_axis = 1 : ui32, compute_config = #ttnn.device_compute_kernel_config<math_fidelity = hifi4, math_approx_mode = false, fp32_dest_acc_en = true, packer_l1_acc = false>, reduce_type = #ttcore.reduce_type<sum>, scatter_dim = 3 : si32, topology = #ttcore.topology<linear>}> : (tensor<1x1x1x2048xbf16, #ttnn_layout133>) -> tensor<1x1x1x512xbf16, #ttnn_layout131>
        "ttnn.deallocate"(%215) <{force = false}> : (tensor<1x1x1x2048xbf16, #ttnn_layout133>) -> ()
        %217 = "ttnn.reshape"(%216) <{shape = [1 : i32, 512 : i32]}> : (tensor<1x1x1x512xbf16, #ttnn_layout131>) -> tensor<1x512xbf16, #ttnn_layout65>
        "ttnn.deallocate"(%216) <{force = false}> : (tensor<1x1x1x512xbf16, #ttnn_layout131>) -> ()
        %218 = "ttnn.all_gather"(%217) <{all_gather_dim = 1 : si32, cluster_axis = 1 : ui32, topology = #ttcore.topology<linear>}> : (tensor<1x512xbf16, #ttnn_layout65>) -> tensor<1x2048xbf16, #ttnn_layout15>
        "ttnn.deallocate"(%217) <{force = false}> : (tensor<1x512xbf16, #ttnn_layout65>) -> ()
        %219 = "ttnn.reshape"(%218) <{shape = [1 : i32, 1 : i32, 2048 : i32]}> : (tensor<1x2048xbf16, #ttnn_layout15>) -> tensor<1x1x2048xbf16, #ttnn_layout77>
        "ttnn.deallocate"(%218) <{force = false}> : (tensor<1x2048xbf16, #ttnn_layout15>) -> ()
        return %133, %153, %69, %219 : tensor<1x64x512xbf16, #ttnn_layout74>, tensor<1x64x64xbf16, #ttnn_layout75>, tensor<1x64x128xbf16, #ttnn_layout76>, tensor<1x1x2048xbf16, #ttnn_layout77>
      }
    }
  }
}
